…
I1013 16:45:57.447355 12124 net.cpp:294] The NetState phase (0) differed from the phase (1) specified by a rule in layer Silence
I1013 16:45:57.447574 12124 net.cpp:51] Initializing net from parameters: 
name: "VGG-Places365"
state {
  phase: TRAIN
  level: 0
  stage: ""
}
layer {
  name: "data"
  type: "ImageData"
  top: "data"
  top: "label"
  include {
    phase: TRAIN
  }
  transform_param {
    mirror: true
    crop_size: 224
    mean_value: 104
    mean_value: 117
    mean_value: 123
  }
  image_data_param {
    source: "../Data/lsun_train_list_12w.txt"
    batch_size: 5
    shuffle: true
    new_height: 256
    new_width: 256
  }
}
layer {
  name: "label_tran"
  type: "Python"
  bottom: "label"
  top: "reshape-label"
  top: "clip_markers"
  python_param {
    module: "data_preparation_sp3_sort"
    layer: "ReshapeLabel"
  }
}
layer {
  name: "conv1_1"
  type: "Convolution"
  bottom: "data"
  top: "conv1_1"
  convolution_param {
    num_output: 64
    pad: 1
    kernel_size: 3
  }
}
layer {
  name: "relu1_1"
  type: "ReLU"
  bottom: "conv1_1"
  top: "conv1_1"
}
layer {
  name: "conv1_2"
  type: "Convolution"
  bottom: "conv1_1"
  top: "conv1_2"
  convolution_param {
    num_output: 64
    pad: 1
    kernel_size: 3
  }
}
layer {
  name: "relu1_2"
  type: "ReLU"
  bottom: "conv1_2"
  top: "conv1_2"
}
layer {
  name: "pool1"
  type: "Pooling"
  bottom: "conv1_2"
  top: "pool1"
  pooling_param {
    pool: MAX
    kernel_size: 2
    stride: 2
  }
}
layer {
  name: "conv2_1"
  type: "Convolution"
  bottom: "pool1"
  top: "conv2_1"
  convolution_param {
    num_output: 128
    pad: 1
    kernel_size: 3
  }
}
layer {
  name: "relu2_1"
  type: "ReLU"
  bottom: "conv2_1"
  top: "conv2_1"
}
layer {
  name: "conv2_2"
  type: "Convolution"
  bottom: "conv2_1"
  top: "conv2_2"
  convolution_param {
    num_output: 128
    pad: 1
    kernel_size: 3
  }
}
layer {
  name: "relu2_2"
  type: "ReLU"
  bottom: "conv2_2"
  top: "conv2_2"
}
layer {
  name: "pool2"
  type: "Pooling"
  bottom: "conv2_2"
  top: "pool2"
  pooling_param {
    pool: MAX
    kernel_size: 2
    stride: 2
  }
}
layer {
  name: "conv3_1"
  type: "Convolution"
  bottom: "pool2"
  top: "conv3_1"
  convolution_param {
    num_output: 256
    pad: 1
    kernel_size: 3
  }
}
layer {
  name: "relu3_1"
  type: "ReLU"
  bottom: "conv3_1"
  top: "conv3_1"
}
layer {
  name: "conv3_2"
  type: "Convolution"
  bottom: "conv3_1"
  top: "conv3_2"
  convolution_param {
    num_output: 256
    pad: 1
    kernel_size: 3
  }
}
layer {
  name: "relu3_2"
  type: "ReLU"
  bottom: "conv3_2"
  top: "conv3_2"
}
layer {
  name: "conv3_3"
  type: "Convolution"
  bottom: "conv3_2"
  top: "conv3_3"
  convolution_param {
    num_output: 256
    pad: 1
    kernel_size: 3
  }
}
layer {
  name: "relu3_3"
  type: "ReLU"
  bottom: "conv3_3"
  top: "conv3_3"
}
layer {
  name: "pool3"
  type: "Pooling"
  bottom: "conv3_3"
  top: "pool3"
  pooling_param {
    pool: MAX
    kernel_size: 2
    stride: 2
  }
}
layer {
  name: "conv4_1"
  type: "Convolution"
  bottom: "pool3"
  top: "conv4_1"
  convolution_param {
    num_output: 512
    pad: 1
    kernel_size: 3
  }
}
layer {
  name: "relu4_1"
  type: "ReLU"
  bottom: "conv4_1"
  top: "conv4_1"
}
layer {
  name: "conv4_2"
  type: "Convolution"
  bottom: "conv4_1"
  top: "conv4_2"
  convolution_param {
    num_output: 512
    pad: 1
    kernel_size: 3
  }
}
layer {
  name: "relu4_2"
  type: "ReLU"
  bottom: "conv4_2"
  top: "conv4_2"
}
layer {
  name: "conv4_3"
  type: "Convolution"
  bottom: "conv4_2"
  top: "conv4_3"
  convolution_param {
    num_output: 512
    pad: 1
    kernel_size: 3
  }
}
layer {
  name: "relu4_3"
  type: "ReLU"
  bottom: "conv4_3"
  top: "conv4_3"
}
layer {
  name: "pool4"
  type: "Pooling"
  bottom: "conv4_3"
  top: "pool4"
  pooling_param {
    pool: MAX
    kernel_size: 2
    stride: 2
  }
}
layer {
  name: "conv5_1"
  type: "Convolution"
  bottom: "pool4"
  top: "conv5_1"
  convolution_param {
    num_output: 512
    pad: 1
    kernel_size: 3
  }
}
layer {
  name: "relu5_1"
  type: "ReLU"
  bottom: "conv5_1"
  top: "conv5_1"
}
layer {
  name: "conv5_2"
  type: "Convolution"
  bottom: "conv5_1"
  top: "conv5_2"
  convolution_param {
    num_output: 512
    pad: 1
    kernel_size: 3
  }
}
layer {
  name: "relu5_2"
  type: "ReLU"
  bottom: "conv5_2"
  top: "conv5_2"
}
layer {
  name: "conv5_3"
  type: "Convolution"
  bottom: "conv5_2"
  top: "conv5_3"
  convolution_param {
    num_output: 512
    pad: 1
    kernel_size: 3
  }
}
layer {
  name: "relu5_3"
  type: "ReLU"
  bottom: "conv5_3"
  top: "conv5_3"
}
layer {
  name: "spp3x3"
  type: "SPP"
  bottom: "conv5_3"
  top: "spp3x3"
  spp_param {
    pyramid_height: 3
    pool: MAX
  }
}
layer {
  name: "spp_slice"
  type: "Slice"
  bottom: "spp3x3"
  top: "spp3x3_level3"
  top: "spp3x3_level2"
  top: "spp3x3_level1"
  slice_param {
    slice_point: 8192
    slice_point: 10240
    axis: 1
  }
}
layer {
  name: "Silence_spp"
  type: "Silence"
  bottom: "spp3x3_level1"
  bottom: "spp3x3_level2"
}
layer {
  name: "spp3x3_re"
  type: "Reshape"
  bottom: "spp3x3_level3"
  top: "spp3x3_re"
  reshape_param {
    shape {
      dim: 0
      dim: -1
      dim: 512
    }
  }
}
layer {
  name: "spp3x3_tran"
  type: "Python"
  bottom: "spp3x3_re"
  top: "spp3x3_tran"
  python_param {
    module: "data_preparation_sp3_sort"
    layer: "DataTransposeSortMax"
  }
}
layer {
  name: "lstm1"
  type: "LSTM"
  bottom: "spp3x3_tran"
  bottom: "clip_markers"
  top: "lstm1"
  recurrent_param {
    num_output: 512
    weight_filler {
      type: "uniform"
      min: -0.01
      max: 0.01
    }
    bias_filler {
      type: "constant"
      value: 0
    }
  }
}
layer {
  name: "lstm1-drop"
  type: "Dropout"
  bottom: "lstm1"
  top: "lstm1-drop"
  dropout_param {
    dropout_ratio: 0.5
  }
}
layer {
  name: "fc-final"
  type: "InnerProduct"
  bottom: "lstm1-drop"
  top: "fc-final"
  param {
    lr_mult: 1
    decay_mult: 1
  }
  param {
    lr_mult: 2
    decay_mult: 0
  }
  inner_product_param {
    num_output: 10
    weight_filler {
      type: "gaussian"
      std: 0.01
    }
    bias_filler {
      type: "constant"
      value: 0
    }
    axis: 2
  }
}
layer {
  name: "loss"
  type: "SoftmaxWithLoss"
  bottom: "fc-final"
  bottom: "reshape-label"
  top: "loss"
  softmax_param {
    axis: 2
  }
}
layer {
  name: "accuracy"
  type: "Accuracy"
  bottom: "fc-final"
  bottom: "reshape-label"
  top: "accuracy"
  accuracy_param {
    axis: 2
  }
}
I1013 16:45:57.447823 12124 layer_factory.hpp:77] Creating layer data
I1013 16:45:57.447882 12124 net.cpp:84] Creating Layer data
I1013 16:45:57.447896 12124 net.cpp:380] data -> data
I1013 16:45:57.447945 12124 net.cpp:380] data -> label
I1013 16:45:57.447984 12124 image_data_layer.cpp:38] Opening file ../Data/lsun_train_list_12w.txt
I1013 16:45:58.027567 12124 image_data_layer.cpp:53] Shuffling data
I1013 16:45:58.307040 12124 image_data_layer.cpp:63] A total of 1200000 images.
I1013 16:45:58.313001 12124 image_data_layer.cpp:90] output data size: 5,3,224,224
I1013 16:45:58.323961 12124 net.cpp:122] Setting up data
I1013 16:45:58.323997 12124 net.cpp:129] Top shape: 5 3 224 224 (752640)
I1013 16:45:58.324005 12124 net.cpp:129] Top shape: 5 (5)
I1013 16:45:58.324010 12124 net.cpp:137] Memory required for data: 3010580
I1013 16:45:58.324069 12124 layer_factory.hpp:77] Creating layer label_tran
I1013 16:45:59.074935 12124 net.cpp:84] Creating Layer label_tran
I1013 16:45:59.074975 12124 net.cpp:406] label_tran <- label
I1013 16:45:59.075006 12124 net.cpp:380] label_tran -> reshape-label
I1013 16:45:59.075021 12124 net.cpp:380] label_tran -> clip_markers
I1013 16:45:59.075330 12124 net.cpp:122] Setting up label_tran
I1013 16:45:59.075348 12124 net.cpp:129] Top shape: 16 5 (80)
I1013 16:45:59.075354 12124 net.cpp:129] Top shape: 16 5 (80)
I1013 16:45:59.075359 12124 net.cpp:137] Memory required for data: 3011220
I1013 16:45:59.075366 12124 layer_factory.hpp:77] Creating layer reshape-label_label_tran_0_split
I1013 16:45:59.075383 12124 net.cpp:84] Creating Layer reshape-label_label_tran_0_split
I1013 16:45:59.075390 12124 net.cpp:406] reshape-label_label_tran_0_split <- reshape-label
I1013 16:45:59.075397 12124 net.cpp:380] reshape-label_label_tran_0_split -> reshape-label_label_tran_0_split_0
I1013 16:45:59.075405 12124 net.cpp:380] reshape-label_label_tran_0_split -> reshape-label_label_tran_0_split_1
I1013 16:45:59.075443 12124 net.cpp:122] Setting up reshape-label_label_tran_0_split
I1013 16:45:59.075454 12124 net.cpp:129] Top shape: 16 5 (80)
I1013 16:45:59.075459 12124 net.cpp:129] Top shape: 16 5 (80)
I1013 16:45:59.075464 12124 net.cpp:137] Memory required for data: 3011860
I1013 16:45:59.075467 12124 layer_factory.hpp:77] Creating layer conv1_1
I1013 16:45:59.075486 12124 net.cpp:84] Creating Layer conv1_1
I1013 16:45:59.075491 12124 net.cpp:406] conv1_1 <- data
I1013 16:45:59.075497 12124 net.cpp:380] conv1_1 -> conv1_1
I1013 16:45:59.077446 12124 net.cpp:122] Setting up conv1_1
I1013 16:45:59.077464 12124 net.cpp:129] Top shape: 5 64 224 224 (16056320)
I1013 16:45:59.077469 12124 net.cpp:137] Memory required for data: 67237140
I1013 16:45:59.077491 12124 layer_factory.hpp:77] Creating layer relu1_1
I1013 16:45:59.077502 12124 net.cpp:84] Creating Layer relu1_1
I1013 16:45:59.077507 12124 net.cpp:406] relu1_1 <- conv1_1
I1013 16:45:59.077513 12124 net.cpp:367] relu1_1 -> conv1_1 (in-place)
I1013 16:45:59.077525 12124 net.cpp:122] Setting up relu1_1
I1013 16:45:59.077531 12124 net.cpp:129] Top shape: 5 64 224 224 (16056320)
I1013 16:45:59.077535 12124 net.cpp:137] Memory required for data: 131462420
I1013 16:45:59.077540 12124 layer_factory.hpp:77] Creating layer conv1_2
I1013 16:45:59.077550 12124 net.cpp:84] Creating Layer conv1_2
I1013 16:45:59.077554 12124 net.cpp:406] conv1_2 <- conv1_1
I1013 16:45:59.077561 12124 net.cpp:380] conv1_2 -> conv1_2
I1013 16:45:59.077816 12124 net.cpp:122] Setting up conv1_2
I1013 16:45:59.077827 12124 net.cpp:129] Top shape: 5 64 224 224 (16056320)
I1013 16:45:59.077832 12124 net.cpp:137] Memory required for data: 195687700
I1013 16:45:59.077843 12124 layer_factory.hpp:77] Creating layer relu1_2
I1013 16:45:59.077850 12124 net.cpp:84] Creating Layer relu1_2
I1013 16:45:59.077855 12124 net.cpp:406] relu1_2 <- conv1_2
I1013 16:45:59.077862 12124 net.cpp:367] relu1_2 -> conv1_2 (in-place)
I1013 16:45:59.077868 12124 net.cpp:122] Setting up relu1_2
I1013 16:45:59.077873 12124 net.cpp:129] Top shape: 5 64 224 224 (16056320)
I1013 16:45:59.077878 12124 net.cpp:137] Memory required for data: 259912980
I1013 16:45:59.077883 12124 layer_factory.hpp:77] Creating layer pool1
I1013 16:45:59.077893 12124 net.cpp:84] Creating Layer pool1
I1013 16:45:59.077898 12124 net.cpp:406] pool1 <- conv1_2
I1013 16:45:59.077903 12124 net.cpp:380] pool1 -> pool1
I1013 16:45:59.077949 12124 net.cpp:122] Setting up pool1
I1013 16:45:59.077960 12124 net.cpp:129] Top shape: 5 64 112 112 (4014080)
I1013 16:45:59.077963 12124 net.cpp:137] Memory required for data: 275969300
I1013 16:45:59.077968 12124 layer_factory.hpp:77] Creating layer conv2_1
I1013 16:45:59.077977 12124 net.cpp:84] Creating Layer conv2_1
I1013 16:45:59.077982 12124 net.cpp:406] conv2_1 <- pool1
I1013 16:45:59.077988 12124 net.cpp:380] conv2_1 -> conv2_1
I1013 16:45:59.079706 12124 net.cpp:122] Setting up conv2_1
I1013 16:45:59.079721 12124 net.cpp:129] Top shape: 5 128 112 112 (8028160)
I1013 16:45:59.079726 12124 net.cpp:137] Memory required for data: 308081940
I1013 16:45:59.079737 12124 layer_factory.hpp:77] Creating layer relu2_1
I1013 16:45:59.079747 12124 net.cpp:84] Creating Layer relu2_1
I1013 16:45:59.079752 12124 net.cpp:406] relu2_1 <- conv2_1
I1013 16:45:59.079759 12124 net.cpp:367] relu2_1 -> conv2_1 (in-place)
I1013 16:45:59.079767 12124 net.cpp:122] Setting up relu2_1
I1013 16:45:59.079773 12124 net.cpp:129] Top shape: 5 128 112 112 (8028160)
I1013 16:45:59.079777 12124 net.cpp:137] Memory required for data: 340194580
I1013 16:45:59.079782 12124 layer_factory.hpp:77] Creating layer conv2_2
I1013 16:45:59.079790 12124 net.cpp:84] Creating Layer conv2_2
I1013 16:45:59.079795 12124 net.cpp:406] conv2_2 <- conv2_1
I1013 16:45:59.079802 12124 net.cpp:380] conv2_2 -> conv2_2
I1013 16:45:59.080109 12124 net.cpp:122] Setting up conv2_2
I1013 16:45:59.080122 12124 net.cpp:129] Top shape: 5 128 112 112 (8028160)
I1013 16:45:59.080127 12124 net.cpp:137] Memory required for data: 372307220
I1013 16:45:59.080134 12124 layer_factory.hpp:77] Creating layer relu2_2
I1013 16:45:59.080142 12124 net.cpp:84] Creating Layer relu2_2
I1013 16:45:59.080147 12124 net.cpp:406] relu2_2 <- conv2_2
I1013 16:45:59.080152 12124 net.cpp:367] relu2_2 -> conv2_2 (in-place)
I1013 16:45:59.080159 12124 net.cpp:122] Setting up relu2_2
I1013 16:45:59.080165 12124 net.cpp:129] Top shape: 5 128 112 112 (8028160)
I1013 16:45:59.080169 12124 net.cpp:137] Memory required for data: 404419860
I1013 16:45:59.080173 12124 layer_factory.hpp:77] Creating layer pool2
I1013 16:45:59.080181 12124 net.cpp:84] Creating Layer pool2
I1013 16:45:59.080185 12124 net.cpp:406] pool2 <- conv2_2
I1013 16:45:59.080191 12124 net.cpp:380] pool2 -> pool2
I1013 16:45:59.080225 12124 net.cpp:122] Setting up pool2
I1013 16:45:59.080235 12124 net.cpp:129] Top shape: 5 128 56 56 (2007040)
I1013 16:45:59.080240 12124 net.cpp:137] Memory required for data: 412448020
I1013 16:45:59.080245 12124 layer_factory.hpp:77] Creating layer conv3_1
I1013 16:45:59.080252 12124 net.cpp:84] Creating Layer conv3_1
I1013 16:45:59.080256 12124 net.cpp:406] conv3_1 <- pool2
I1013 16:45:59.080262 12124 net.cpp:380] conv3_1 -> conv3_1
I1013 16:45:59.081445 12124 net.cpp:122] Setting up conv3_1
I1013 16:45:59.081461 12124 net.cpp:129] Top shape: 5 256 56 56 (4014080)
I1013 16:45:59.081465 12124 net.cpp:137] Memory required for data: 428504340
I1013 16:45:59.081477 12124 layer_factory.hpp:77] Creating layer relu3_1
I1013 16:45:59.081485 12124 net.cpp:84] Creating Layer relu3_1
I1013 16:45:59.081490 12124 net.cpp:406] relu3_1 <- conv3_1
I1013 16:45:59.081496 12124 net.cpp:367] relu3_1 -> conv3_1 (in-place)
I1013 16:45:59.081504 12124 net.cpp:122] Setting up relu3_1
I1013 16:45:59.081509 12124 net.cpp:129] Top shape: 5 256 56 56 (4014080)
I1013 16:45:59.081513 12124 net.cpp:137] Memory required for data: 444560660
I1013 16:45:59.081518 12124 layer_factory.hpp:77] Creating layer conv3_2
I1013 16:45:59.081527 12124 net.cpp:84] Creating Layer conv3_2
I1013 16:45:59.081532 12124 net.cpp:406] conv3_2 <- conv3_1
I1013 16:45:59.081537 12124 net.cpp:380] conv3_2 -> conv3_2
I1013 16:45:59.083354 12124 net.cpp:122] Setting up conv3_2
I1013 16:45:59.083369 12124 net.cpp:129] Top shape: 5 256 56 56 (4014080)
I1013 16:45:59.083374 12124 net.cpp:137] Memory required for data: 460616980
I1013 16:45:59.083382 12124 layer_factory.hpp:77] Creating layer relu3_2
I1013 16:45:59.083391 12124 net.cpp:84] Creating Layer relu3_2
I1013 16:45:59.083395 12124 net.cpp:406] relu3_2 <- conv3_2
I1013 16:45:59.083405 12124 net.cpp:367] relu3_2 -> conv3_2 (in-place)
I1013 16:45:59.083412 12124 net.cpp:122] Setting up relu3_2
I1013 16:45:59.083418 12124 net.cpp:129] Top shape: 5 256 56 56 (4014080)
I1013 16:45:59.083422 12124 net.cpp:137] Memory required for data: 476673300
I1013 16:45:59.083426 12124 layer_factory.hpp:77] Creating layer conv3_3
I1013 16:45:59.083433 12124 net.cpp:84] Creating Layer conv3_3
I1013 16:45:59.083438 12124 net.cpp:406] conv3_3 <- conv3_2
I1013 16:45:59.083447 12124 net.cpp:380] conv3_3 -> conv3_3
I1013 16:45:59.085265 12124 net.cpp:122] Setting up conv3_3
I1013 16:45:59.085281 12124 net.cpp:129] Top shape: 5 256 56 56 (4014080)
I1013 16:45:59.085286 12124 net.cpp:137] Memory required for data: 492729620
I1013 16:45:59.085294 12124 layer_factory.hpp:77] Creating layer relu3_3
I1013 16:45:59.085302 12124 net.cpp:84] Creating Layer relu3_3
I1013 16:45:59.085307 12124 net.cpp:406] relu3_3 <- conv3_3
I1013 16:45:59.085315 12124 net.cpp:367] relu3_3 -> conv3_3 (in-place)
I1013 16:45:59.085324 12124 net.cpp:122] Setting up relu3_3
I1013 16:45:59.085330 12124 net.cpp:129] Top shape: 5 256 56 56 (4014080)
I1013 16:45:59.085333 12124 net.cpp:137] Memory required for data: 508785940
I1013 16:45:59.085337 12124 layer_factory.hpp:77] Creating layer pool3
I1013 16:45:59.085345 12124 net.cpp:84] Creating Layer pool3
I1013 16:45:59.085350 12124 net.cpp:406] pool3 <- conv3_3
I1013 16:45:59.085357 12124 net.cpp:380] pool3 -> pool3
I1013 16:45:59.085394 12124 net.cpp:122] Setting up pool3
I1013 16:45:59.085403 12124 net.cpp:129] Top shape: 5 256 28 28 (1003520)
I1013 16:45:59.085408 12124 net.cpp:137] Memory required for data: 512800020
I1013 16:45:59.085412 12124 layer_factory.hpp:77] Creating layer conv4_1
I1013 16:45:59.085423 12124 net.cpp:84] Creating Layer conv4_1
I1013 16:45:59.085428 12124 net.cpp:406] conv4_1 <- pool3
I1013 16:45:59.085434 12124 net.cpp:380] conv4_1 -> conv4_1
I1013 16:45:59.089294 12124 net.cpp:122] Setting up conv4_1
I1013 16:45:59.089310 12124 net.cpp:129] Top shape: 5 512 28 28 (2007040)
I1013 16:45:59.089315 12124 net.cpp:137] Memory required for data: 520828180
I1013 16:45:59.089323 12124 layer_factory.hpp:77] Creating layer relu4_1
I1013 16:45:59.089332 12124 net.cpp:84] Creating Layer relu4_1
I1013 16:45:59.089337 12124 net.cpp:406] relu4_1 <- conv4_1
I1013 16:45:59.089344 12124 net.cpp:367] relu4_1 -> conv4_1 (in-place)
I1013 16:45:59.089352 12124 net.cpp:122] Setting up relu4_1
I1013 16:45:59.089357 12124 net.cpp:129] Top shape: 5 512 28 28 (2007040)
I1013 16:45:59.089361 12124 net.cpp:137] Memory required for data: 528856340
I1013 16:45:59.089365 12124 layer_factory.hpp:77] Creating layer conv4_2
I1013 16:45:59.089376 12124 net.cpp:84] Creating Layer conv4_2
I1013 16:45:59.089380 12124 net.cpp:406] conv4_2 <- conv4_1
I1013 16:45:59.089387 12124 net.cpp:380] conv4_2 -> conv4_2
I1013 16:45:59.095058 12124 net.cpp:122] Setting up conv4_2
I1013 16:45:59.095078 12124 net.cpp:129] Top shape: 5 512 28 28 (2007040)
I1013 16:45:59.095083 12124 net.cpp:137] Memory required for data: 536884500
I1013 16:45:59.095096 12124 layer_factory.hpp:77] Creating layer relu4_2
I1013 16:45:59.095110 12124 net.cpp:84] Creating Layer relu4_2
I1013 16:45:59.095116 12124 net.cpp:406] relu4_2 <- conv4_2
I1013 16:45:59.095122 12124 net.cpp:367] relu4_2 -> conv4_2 (in-place)
I1013 16:45:59.095130 12124 net.cpp:122] Setting up relu4_2
I1013 16:45:59.095136 12124 net.cpp:129] Top shape: 5 512 28 28 (2007040)
I1013 16:45:59.095140 12124 net.cpp:137] Memory required for data: 544912660
I1013 16:45:59.095145 12124 layer_factory.hpp:77] Creating layer conv4_3
I1013 16:45:59.095155 12124 net.cpp:84] Creating Layer conv4_3
I1013 16:45:59.095160 12124 net.cpp:406] conv4_3 <- conv4_2
I1013 16:45:59.095165 12124 net.cpp:380] conv4_3 -> conv4_3
I1013 16:45:59.112620 12124 net.cpp:122] Setting up conv4_3
I1013 16:45:59.112756 12124 net.cpp:129] Top shape: 5 512 28 28 (2007040)
I1013 16:45:59.112776 12124 net.cpp:137] Memory required for data: 552940820
I1013 16:45:59.112812 12124 layer_factory.hpp:77] Creating layer relu4_3
I1013 16:45:59.112856 12124 net.cpp:84] Creating Layer relu4_3
I1013 16:45:59.112887 12124 net.cpp:406] relu4_3 <- conv4_3
I1013 16:45:59.112916 12124 net.cpp:367] relu4_3 -> conv4_3 (in-place)
I1013 16:45:59.112943 12124 net.cpp:122] Setting up relu4_3
I1013 16:45:59.112965 12124 net.cpp:129] Top shape: 5 512 28 28 (2007040)
I1013 16:45:59.112973 12124 net.cpp:137] Memory required for data: 560968980
I1013 16:45:59.112987 12124 layer_factory.hpp:77] Creating layer pool4
I1013 16:45:59.113101 12124 net.cpp:84] Creating Layer pool4
I1013 16:45:59.113180 12124 net.cpp:406] pool4 <- conv4_3
I1013 16:45:59.113214 12124 net.cpp:380] pool4 -> pool4
I1013 16:45:59.113521 12124 net.cpp:122] Setting up pool4
I1013 16:45:59.113575 12124 net.cpp:129] Top shape: 5 512 14 14 (501760)
I1013 16:45:59.113579 12124 net.cpp:137] Memory required for data: 562976020
I1013 16:45:59.113590 12124 layer_factory.hpp:77] Creating layer conv5_1
I1013 16:45:59.113600 12124 net.cpp:84] Creating Layer conv5_1
I1013 16:45:59.113605 12124 net.cpp:406] conv5_1 <- pool4
I1013 16:45:59.113611 12124 net.cpp:380] conv5_1 -> conv5_1
I1013 16:45:59.120735 12124 net.cpp:122] Setting up conv5_1
I1013 16:45:59.120775 12124 net.cpp:129] Top shape: 5 512 14 14 (501760)
I1013 16:45:59.120780 12124 net.cpp:137] Memory required for data: 564983060
I1013 16:45:59.120790 12124 layer_factory.hpp:77] Creating layer relu5_1
I1013 16:45:59.120800 12124 net.cpp:84] Creating Layer relu5_1
I1013 16:45:59.120805 12124 net.cpp:406] relu5_1 <- conv5_1
I1013 16:45:59.120813 12124 net.cpp:367] relu5_1 -> conv5_1 (in-place)
I1013 16:45:59.120822 12124 net.cpp:122] Setting up relu5_1
I1013 16:45:59.120827 12124 net.cpp:129] Top shape: 5 512 14 14 (501760)
I1013 16:45:59.120831 12124 net.cpp:137] Memory required for data: 566990100
I1013 16:45:59.120836 12124 layer_factory.hpp:77] Creating layer conv5_2
I1013 16:45:59.120846 12124 net.cpp:84] Creating Layer conv5_2
I1013 16:45:59.120851 12124 net.cpp:406] conv5_2 <- conv5_1
I1013 16:45:59.120859 12124 net.cpp:380] conv5_2 -> conv5_2
I1013 16:45:59.126479 12124 net.cpp:122] Setting up conv5_2
I1013 16:45:59.126500 12124 net.cpp:129] Top shape: 5 512 14 14 (501760)
I1013 16:45:59.126505 12124 net.cpp:137] Memory required for data: 568997140
I1013 16:45:59.126513 12124 layer_factory.hpp:77] Creating layer relu5_2
I1013 16:45:59.126523 12124 net.cpp:84] Creating Layer relu5_2
I1013 16:45:59.126528 12124 net.cpp:406] relu5_2 <- conv5_2
I1013 16:45:59.126538 12124 net.cpp:367] relu5_2 -> conv5_2 (in-place)
I1013 16:45:59.126546 12124 net.cpp:122] Setting up relu5_2
I1013 16:45:59.126552 12124 net.cpp:129] Top shape: 5 512 14 14 (501760)
I1013 16:45:59.126556 12124 net.cpp:137] Memory required for data: 571004180
I1013 16:45:59.126561 12124 layer_factory.hpp:77] Creating layer conv5_3
I1013 16:45:59.126570 12124 net.cpp:84] Creating Layer conv5_3
I1013 16:45:59.126575 12124 net.cpp:406] conv5_3 <- conv5_2
I1013 16:45:59.126583 12124 net.cpp:380] conv5_3 -> conv5_3
I1013 16:45:59.132915 12124 net.cpp:122] Setting up conv5_3
I1013 16:45:59.132937 12124 net.cpp:129] Top shape: 5 512 14 14 (501760)
I1013 16:45:59.132942 12124 net.cpp:137] Memory required for data: 573011220
I1013 16:45:59.132951 12124 layer_factory.hpp:77] Creating layer relu5_3
I1013 16:45:59.132968 12124 net.cpp:84] Creating Layer relu5_3
I1013 16:45:59.132973 12124 net.cpp:406] relu5_3 <- conv5_3
I1013 16:45:59.132982 12124 net.cpp:367] relu5_3 -> conv5_3 (in-place)
I1013 16:45:59.132989 12124 net.cpp:122] Setting up relu5_3
I1013 16:45:59.132995 12124 net.cpp:129] Top shape: 5 512 14 14 (501760)
I1013 16:45:59.132999 12124 net.cpp:137] Memory required for data: 575018260
I1013 16:45:59.133003 12124 layer_factory.hpp:77] Creating layer spp3x3
I1013 16:45:59.133026 12124 net.cpp:84] Creating Layer spp3x3
I1013 16:45:59.133036 12124 net.cpp:406] spp3x3 <- conv5_3
I1013 16:45:59.133044 12124 net.cpp:380] spp3x3 -> spp3x3
I1013 16:45:59.133388 12124 net.cpp:122] Setting up spp3x3
I1013 16:45:59.133400 12124 net.cpp:129] Top shape: 5 10752 (53760)
I1013 16:45:59.133404 12124 net.cpp:137] Memory required for data: 575233300
I1013 16:45:59.133409 12124 layer_factory.hpp:77] Creating layer spp_slice
I1013 16:45:59.133420 12124 net.cpp:84] Creating Layer spp_slice
I1013 16:45:59.133425 12124 net.cpp:406] spp_slice <- spp3x3
I1013 16:45:59.133435 12124 net.cpp:380] spp_slice -> spp3x3_level3
I1013 16:45:59.133445 12124 net.cpp:380] spp_slice -> spp3x3_level2
I1013 16:45:59.133455 12124 net.cpp:380] spp_slice -> spp3x3_level1
I1013 16:45:59.133507 12124 net.cpp:122] Setting up spp_slice
I1013 16:45:59.133517 12124 net.cpp:129] Top shape: 5 8192 (40960)
I1013 16:45:59.133522 12124 net.cpp:129] Top shape: 5 2048 (10240)
I1013 16:45:59.133528 12124 net.cpp:129] Top shape: 5 512 (2560)
I1013 16:45:59.133533 12124 net.cpp:137] Memory required for data: 575448340
I1013 16:45:59.133536 12124 layer_factory.hpp:77] Creating layer Silence_spp
I1013 16:45:59.133543 12124 net.cpp:84] Creating Layer Silence_spp
I1013 16:45:59.133548 12124 net.cpp:406] Silence_spp <- spp3x3_level1
I1013 16:45:59.133553 12124 net.cpp:406] Silence_spp <- spp3x3_level2
I1013 16:45:59.133559 12124 net.cpp:122] Setting up Silence_spp
I1013 16:45:59.133563 12124 net.cpp:137] Memory required for data: 575448340
I1013 16:45:59.133569 12124 layer_factory.hpp:77] Creating layer spp3x3_re
I1013 16:45:59.133579 12124 net.cpp:84] Creating Layer spp3x3_re
I1013 16:45:59.133584 12124 net.cpp:406] spp3x3_re <- spp3x3_level3
I1013 16:45:59.133590 12124 net.cpp:380] spp3x3_re -> spp3x3_re
I1013 16:45:59.133625 12124 net.cpp:122] Setting up spp3x3_re
I1013 16:45:59.133635 12124 net.cpp:129] Top shape: 5 16 512 (40960)
I1013 16:45:59.133640 12124 net.cpp:137] Memory required for data: 575612180
I1013 16:45:59.133644 12124 layer_factory.hpp:77] Creating layer spp3x3_tran
I1013 16:45:59.133713 12124 net.cpp:84] Creating Layer spp3x3_tran
I1013 16:45:59.133720 12124 net.cpp:406] spp3x3_tran <- spp3x3_re
I1013 16:45:59.133728 12124 net.cpp:380] spp3x3_tran -> spp3x3_tran
I1013 16:45:59.133882 12124 net.cpp:122] Setting up spp3x3_tran
I1013 16:45:59.133896 12124 net.cpp:129] Top shape: 16 5 512 (40960)
I1013 16:45:59.133900 12124 net.cpp:137] Memory required for data: 575776020
I1013 16:45:59.133905 12124 layer_factory.hpp:77] Creating layer lstm1
I1013 16:45:59.133919 12124 net.cpp:84] Creating Layer lstm1
I1013 16:45:59.133924 12124 net.cpp:406] lstm1 <- spp3x3_tran
I1013 16:45:59.133929 12124 net.cpp:406] lstm1 <- clip_markers
I1013 16:45:59.133939 12124 net.cpp:380] lstm1 -> lstm1
I1013 16:45:59.133955 12124 recurrent_layer.cpp:20] Initializing recurrent layer: assuming input batch contains 16 timesteps of 5 independent streams.
I1013 16:45:59.134752 12124 net.cpp:51] Initializing net from parameters: 
layer {
  name: "lstm1_"
  type: "Input"
  top: "x"
  top: "cont"
  input_param {
    shape {
      dim: 16
      dim: 5
      dim: 512
    }
    shape {
      dim: 16
      dim: 5
    }
  }
}
layer {
  name: "lstm1_"
  type: "Input"
  top: "c_0"
  top: "h_0"
  input_param {
    shape {
      dim: 1
      dim: 5
      dim: 512
    }
    shape {
      dim: 1
      dim: 5
      dim: 512
    }
  }
}
layer {
  name: "lstm1_cont_slice"
  type: "Slice"
  bottom: "cont"
  top: "cont_1"
  top: "cont_2"
  top: "cont_3"
  top: "cont_4"
  top: "cont_5"
  top: "cont_6"
  top: "cont_7"
  top: "cont_8"
  top: "cont_9"
  top: "cont_10"
  top: "cont_11"
  top: "cont_12"
  top: "cont_13"
  top: "cont_14"
  top: "cont_15"
  top: "cont_16"
  slice_param {
    axis: 0
  }
}
layer {
  name: "lstm1_x_transform"
  type: "InnerProduct"
  bottom: "x"
  top: "W_xc_x"
  param {
    name: "W_xc"
  }
  param {
    name: "b_c"
  }
  propagate_down: true
  inner_product_param {
    num_output: 2048
    bias_term: true
    weight_filler {
      type: "uniform"
      min: -0.01
      max: 0.01
    }
    bias_filler {
      type: "constant"
      value: 0
    }
    axis: 2
  }
}
layer {
  name: "lstm1_W_xc_x_slice"
  type: "Slice"
  bottom: "W_xc_x"
  top: "W_xc_x_1"
  top: "W_xc_x_2"
  top: "W_xc_x_3"
  top: "W_xc_x_4"
  top: "W_xc_x_5"
  top: "W_xc_x_6"
  top: "W_xc_x_7"
  top: "W_xc_x_8"
  top: "W_xc_x_9"
  top: "W_xc_x_10"
  top: "W_xc_x_11"
  top: "W_xc_x_12"
  top: "W_xc_x_13"
  top: "W_xc_x_14"
  top: "W_xc_x_15"
  top: "W_xc_x_16"
  slice_param {
    axis: 0
  }
}
layer {
  name: "lstm1_h_conted_0"
  type: "Scale"
  bottom: "h_0"
  bottom: "cont_1"
  top: "h_conted_0"
  scale_param {
    axis: 0
  }
}
layer {
  name: "lstm1_transform_1"
  type: "InnerProduct"
  bottom: "h_conted_0"
  top: "W_hc_h_0"
  param {
    name: "W_hc"
  }
  inner_product_param {
    num_output: 2048
    bias_term: false
    weight_filler {
      type: "uniform"
      min: -0.01
      max: 0.01
    }
    axis: 2
  }
}
layer {
  name: "lstm1_gate_input_1"
  type: "Eltwise"
  bottom: "W_hc_h_0"
  bottom: "W_xc_x_1"
  top: "gate_input_1"
  eltwise_param {
    operation: SUM
  }
}
layer {
  name: "lstm1_unit_1"
  type: "LSTMUnit"
  bottom: "c_0"
  bottom: "gate_input_1"
  bottom: "cont_1"
  top: "c_1"
  top: "h_1"
}
layer {
  name: "lstm1_h_conted_1"
  type: "Scale"
  bottom: "h_1"
  bottom: "cont_2"
  top: "h_conted_1"
  scale_param {
    axis: 0
  }
}
layer {
  name: "lstm1_transform_2"
  type: "InnerProduct"
  bottom: "h_conted_1"
  top: "W_hc_h_1"
  param {
    name: "W_hc"
  }
  inner_product_param {
    num_output: 2048
    bias_term: false
    weight_filler {
      type: "uniform"
      min: -0.01
      max: 0.01
    }
    axis: 2
  }
}
layer {
  name: "lstm1_gate_input_2"
  type: "Eltwise"
  bottom: "W_hc_h_1"
  bottom: "W_xc_x_2"
  top: "gate_input_2"
  eltwise_param {
    operation: SUM
  }
}
layer {
  name: "lstm1_unit_2"
  type: "LSTMUnit"
  bottom: "c_1"
  bottom: "gate_input_2"
  bottom: "cont_2"
  top: "c_2"
  top: "h_2"
}
layer {
  name: "lstm1_h_conted_2"
  type: "Scale"
  bottom: "h_2"
  bottom: "cont_3"
  top: "h_conted_2"
  scale_param {
    axis: 0
  }
}
layer {
  name: "lstm1_transform_3"
  type: "InnerProduct"
  bottom: "h_conted_2"
  top: "W_hc_h_2"
  param {
    name: "W_hc"
  }
  inner_product_param {
    num_output: 2048
    bias_term: false
    weight_filler {
      type: "uniform"
      min: -0.01
      max: 0.01
    }
    axis: 2
  }
}
layer {
  name: "lstm1_gate_input_3"
  type: "Eltwise"
  bottom: "W_hc_h_2"
  bottom: "W_xc_x_3"
  top: "gate_input_3"
  eltwise_param {
    operation: SUM
  }
}
layer {
  name: "lstm1_unit_3"
  type: "LSTMUnit"
  bottom: "c_2"
  bottom: "gate_input_3"
  bottom: "cont_3"
  top: "c_3"
  top: "h_3"
}
layer {
  name: "lstm1_h_conted_3"
  type: "Scale"
  bottom: "h_3"
  bottom: "cont_4"
  top: "h_conted_3"
  scale_param {
    axis: 0
  }
}
layer {
  name: "lstm1_transform_4"
  type: "InnerProduct"
  bottom: "h_conted_3"
  top: "W_hc_h_3"
  param {
    name: "W_hc"
  }
  inner_product_param {
    num_output: 2048
    bias_term: false
    weight_filler {
      type: "uniform"
      min: -0.01
      max: 0.01
    }
    axis: 2
  }
}
layer {
  name: "lstm1_gate_input_4"
  type: "Eltwise"
  bottom: "W_hc_h_3"
  bottom: "W_xc_x_4"
  top: "gate_input_4"
  eltwise_param {
    operation: SUM
  }
}
layer {
  name: "lstm1_unit_4"
  type: "LSTMUnit"
  bottom: "c_3"
  bottom: "gate_input_4"
  bottom: "cont_4"
  top: "c_4"
  top: "h_4"
}
layer {
  name: "lstm1_h_conted_4"
  type: "Scale"
  bottom: "h_4"
  bottom: "cont_5"
  top: "h_conted_4"
  scale_param {
    axis: 0
  }
}
layer {
  name: "lstm1_transform_5"
  type: "InnerProduct"
  bottom: "h_conted_4"
  top: "W_hc_h_4"
  param {
    name: "W_hc"
  }
  inner_product_param {
    num_output: 2048
    bias_term: false
    weight_filler {
      type: "uniform"
      min: -0.01
      max: 0.01
    }
    axis: 2
  }
}
layer {
  name: "lstm1_gate_input_5"
  type: "Eltwise"
  bottom: "W_hc_h_4"
  bottom: "W_xc_x_5"
  top: "gate_input_5"
  eltwise_param {
    operation: SUM
  }
}
layer {
  name: "lstm1_unit_5"
  type: "LSTMUnit"
  bottom: "c_4"
  bottom: "gate_input_5"
  bottom: "cont_5"
  top: "c_5"
  top: "h_5"
}
layer {
  name: "lstm1_h_conted_5"
  type: "Scale"
  bottom: "h_5"
  bottom: "cont_6"
  top: "h_conted_5"
  scale_param {
    axis: 0
  }
}
layer {
  name: "lstm1_transform_6"
  type: "InnerProduct"
  bottom: "h_conted_5"
  top: "W_hc_h_5"
  param {
    name: "W_hc"
  }
  inner_product_param {
    num_output: 2048
    bias_term: false
    weight_filler {
      type: "uniform"
      min: -0.01
      max: 0.01
    }
    axis: 2
  }
}
layer {
  name: "lstm1_gate_input_6"
  type: "Eltwise"
  bottom: "W_hc_h_5"
  bottom: "W_xc_x_6"
  top: "gate_input_6"
  eltwise_param {
    operation: SUM
  }
}
layer {
  name: "lstm1_unit_6"
  type: "LSTMUnit"
  bottom: "c_5"
  bottom: "gate_input_6"
  bottom: "cont_6"
  top: "c_6"
  top: "h_6"
}
layer {
  name: "lstm1_h_conted_6"
  type: "Scale"
  bottom: "h_6"
  bottom: "cont_7"
  top: "h_conted_6"
  scale_param {
    axis: 0
  }
}
layer {
  name: "lstm1_transform_7"
  type: "InnerProduct"
  bottom: "h_conted_6"
  top: "W_hc_h_6"
  param {
    name: "W_hc"
  }
  inner_product_param {
    num_output: 2048
    bias_term: false
    weight_filler {
      type: "uniform"
      min: -0.01
      max: 0.01
    }
    axis: 2
  }
}
layer {
  name: "lstm1_gate_input_7"
  type: "Eltwise"
  bottom: "W_hc_h_6"
  bottom: "W_xc_x_7"
  top: "gate_input_7"
  eltwise_param {
    operation: SUM
  }
}
layer {
  name: "lstm1_unit_7"
  type: "LSTMUnit"
  bottom: "c_6"
  bottom: "gate_input_7"
  bottom: "cont_7"
  top: "c_7"
  top: "h_7"
}
layer {
  name: "lstm1_h_conted_7"
  type: "Scale"
  bottom: "h_7"
  bottom: "cont_8"
  top: "h_conted_7"
  scale_param {
    axis: 0
  }
}
layer {
  name: "lstm1_transform_8"
  type: "InnerProduct"
  bottom: "h_conted_7"
  top: "W_hc_h_7"
  param {
    name: "W_hc"
  }
  inner_product_param {
    num_output: 2048
    bias_term: false
    weight_filler {
      type: "uniform"
      min: -0.01
      max: 0.01
    }
    axis: 2
  }
}
layer {
  name: "lstm1_gate_input_8"
  type: "Eltwise"
  bottom: "W_hc_h_7"
  bottom: "W_xc_x_8"
  top: "gate_input_8"
  eltwise_param {
    operation: SUM
  }
}
layer {
  name: "lstm1_unit_8"
  type: "LSTMUnit"
  bottom: "c_7"
  bottom: "gate_input_8"
  bottom: "cont_8"
  top: "c_8"
  top: "h_8"
}
layer {
  name: "lstm1_h_conted_8"
  type: "Scale"
  bottom: "h_8"
  bottom: "cont_9"
  top: "h_conted_8"
  scale_param {
    axis: 0
  }
}
layer {
  name: "lstm1_transform_9"
  type: "InnerProduct"
  bottom: "h_conted_8"
  top: "W_hc_h_8"
  param {
    name: "W_hc"
  }
  inner_product_param {
    num_output: 2048
    bias_term: false
    weight_filler {
      type: "uniform"
      min: -0.01
      max: 0.01
    }
    axis: 2
  }
}
layer {
  name: "lstm1_gate_input_9"
  type: "Eltwise"
  bottom: "W_hc_h_8"
  bottom: "W_xc_x_9"
  top: "gate_input_9"
  eltwise_param {
    operation: SUM
  }
}
layer {
  name: "lstm1_unit_9"
  type: "LSTMUnit"
  bottom: "c_8"
  bottom: "gate_input_9"
  bottom: "cont_9"
  top: "c_9"
  top: "h_9"
}
layer {
  name: "lstm1_h_conted_9"
  type: "Scale"
  bottom: "h_9"
  bottom: "cont_10"
  top: "h_conted_9"
  scale_param {
    axis: 0
  }
}
layer {
  name: "lstm1_transform_10"
  type: "InnerProduct"
  bottom: "h_conted_9"
  top: "W_hc_h_9"
  param {
    name: "W_hc"
  }
  inner_product_param {
    num_output: 2048
    bias_term: false
    weight_filler {
      type: "uniform"
      min: -0.01
      max: 0.01
    }
    axis: 2
  }
}
layer {
  name: "lstm1_gate_input_10"
  type: "Eltwise"
  bottom: "W_hc_h_9"
  bottom: "W_xc_x_10"
  top: "gate_input_10"
  eltwise_param {
    operation: SUM
  }
}
layer {
  name: "lstm1_unit_10"
  type: "LSTMUnit"
  bottom: "c_9"
  bottom: "gate_input_10"
  bottom: "cont_10"
  top: "c_10"
  top: "h_10"
}
layer {
  name: "lstm1_h_conted_10"
  type: "Scale"
  bottom: "h_10"
  bottom: "cont_11"
  top: "h_conted_10"
  scale_param {
    axis: 0
  }
}
layer {
  name: "lstm1_transform_11"
  type: "InnerProduct"
  bottom: "h_conted_10"
  top: "W_hc_h_10"
  param {
    name: "W_hc"
  }
  inner_product_param {
    num_output: 2048
    bias_term: false
    weight_filler {
      type: "uniform"
      min: -0.01
      max: 0.01
    }
    axis: 2
  }
}
layer {
  name: "lstm1_gate_input_11"
  type: "Eltwise"
  bottom: "W_hc_h_10"
  bottom: "W_xc_x_11"
  top: "gate_input_11"
  eltwise_param {
    operation: SUM
  }
}
layer {
  name: "lstm1_unit_11"
  type: "LSTMUnit"
  bottom: "c_10"
  bottom: "gate_input_11"
  bottom: "cont_11"
  top: "c_11"
  top: "h_11"
}
layer {
  name: "lstm1_h_conted_11"
  type: "Scale"
  bottom: "h_11"
  bottom: "cont_12"
  top: "h_conted_11"
  scale_param {
    axis: 0
  }
}
layer {
  name: "lstm1_transform_12"
  type: "InnerProduct"
  bottom: "h_conted_11"
  top: "W_hc_h_11"
  param {
    name: "W_hc"
  }
  inner_product_param {
    num_output: 2048
    bias_term: false
    weight_filler {
      type: "uniform"
      min: -0.01
      max: 0.01
    }
    axis: 2
  }
}
layer {
  name: "lstm1_gate_input_12"
  type: "Eltwise"
  bottom: "W_hc_h_11"
  bottom: "W_xc_x_12"
  top: "gate_input_12"
  eltwise_param {
    operation: SUM
  }
}
layer {
  name: "lstm1_unit_12"
  type: "LSTMUnit"
  bottom: "c_11"
  bottom: "gate_input_12"
  bottom: "cont_12"
  top: "c_12"
  top: "h_12"
}
layer {
  name: "lstm1_h_conted_12"
  type: "Scale"
  bottom: "h_12"
  bottom: "cont_13"
  top: "h_conted_12"
  scale_param {
    axis: 0
  }
}
layer {
  name: "lstm1_transform_13"
  type: "InnerProduct"
  bottom: "h_conted_12"
  top: "W_hc_h_12"
  param {
    name: "W_hc"
  }
  inner_product_param {
    num_output: 2048
    bias_term: false
    weight_filler {
      type: "uniform"
      min: -0.01
      max: 0.01
    }
    axis: 2
  }
}
layer {
  name: "lstm1_gate_input_13"
  type: "Eltwise"
  bottom: "W_hc_h_12"
  bottom: "W_xc_x_13"
  top: "gate_input_13"
  eltwise_param {
    operation: SUM
  }
}
layer {
  name: "lstm1_unit_13"
  type: "LSTMUnit"
  bottom: "c_12"
  bottom: "gate_input_13"
  bottom: "cont_13"
  top: "c_13"
  top: "h_13"
}
layer {
  name: "lstm1_h_conted_13"
  type: "Scale"
  bottom: "h_13"
  bottom: "cont_14"
  top: "h_conted_13"
  scale_param {
    axis: 0
  }
}
layer {
  name: "lstm1_transform_14"
  type: "InnerProduct"
  bottom: "h_conted_13"
  top: "W_hc_h_13"
  param {
    name: "W_hc"
  }
  inner_product_param {
    num_output: 2048
    bias_term: false
    weight_filler {
      type: "uniform"
      min: -0.01
      max: 0.01
    }
    axis: 2
  }
}
layer {
  name: "lstm1_gate_input_14"
  type: "Eltwise"
  bottom: "W_hc_h_13"
  bottom: "W_xc_x_14"
  top: "gate_input_14"
  eltwise_param {
    operation: SUM
  }
}
layer {
  name: "lstm1_unit_14"
  type: "LSTMUnit"
  bottom: "c_13"
  bottom: "gate_input_14"
  bottom: "cont_14"
  top: "c_14"
  top: "h_14"
}
layer {
  name: "lstm1_h_conted_14"
  type: "Scale"
  bottom: "h_14"
  bottom: "cont_15"
  top: "h_conted_14"
  scale_param {
    axis: 0
  }
}
layer {
  name: "lstm1_transform_15"
  type: "InnerProduct"
  bottom: "h_conted_14"
  top: "W_hc_h_14"
  param {
    name: "W_hc"
  }
  inner_product_param {
    num_output: 2048
    bias_term: false
    weight_filler {
      type: "uniform"
      min: -0.01
      max: 0.01
    }
    axis: 2
  }
}
layer {
  name: "lstm1_gate_input_15"
  type: "Eltwise"
  bottom: "W_hc_h_14"
  bottom: "W_xc_x_15"
  top: "gate_input_15"
  eltwise_param {
    operation: SUM
  }
}
layer {
  name: "lstm1_unit_15"
  type: "LSTMUnit"
  bottom: "c_14"
  bottom: "gate_input_15"
  bottom: "cont_15"
  top: "c_15"
  top: "h_15"
}
layer {
  name: "lstm1_h_conted_15"
  type: "Scale"
  bottom: "h_15"
  bottom: "cont_16"
  top: "h_conted_15"
  scale_param {
    axis: 0
  }
}
layer {
  name: "lstm1_transform_16"
  type: "InnerProduct"
  bottom: "h_conted_15"
  top: "W_hc_h_15"
  param {
    name: "W_hc"
  }
  inner_product_param {
    num_output: 2048
    bias_term: false
    weight_filler {
      type: "uniform"
      min: -0.01
      max: 0.01
    }
    axis: 2
  }
}
layer {
  name: "lstm1_gate_input_16"
  type: "Eltwise"
  bottom: "W_hc_h_15"
  bottom: "W_xc_x_16"
  top: "gate_input_16"
  eltwise_param {
    operation: SUM
  }
}
layer {
  name: "lstm1_unit_16"
  type: "LSTMUnit"
  bottom: "c_15"
  bottom: "gate_input_16"
  bottom: "cont_16"
  top: "c_16"
  top: "h_16"
}
layer {
  name: "lstm1_"
  type: "Split"
  bottom: "c_16"
  top: "c_T"
}
layer {
  name: "lstm1_h_concat"
  type: "Concat"
  bottom: "h_1"
  bottom: "h_2"
  bottom: "h_3"
  bottom: "h_4"
  bottom: "h_5"
  bottom: "h_6"
  bottom: "h_7"
  bottom: "h_8"
  bottom: "h_9"
  bottom: "h_10"
  bottom: "h_11"
  bottom: "h_12"
  bottom: "h_13"
  bottom: "h_14"
  bottom: "h_15"
  bottom: "h_16"
  top: "h"
  concat_param {
    axis: 0
  }
}
layer {
  name: "h_pseudoloss"
  type: "Reduction"
  bottom: "h"
  top: "h_pseudoloss"
  loss_weight: 1
}
I1013 16:45:59.135282 12124 layer_factory.hpp:77] Creating layer lstm1_
I1013 16:45:59.135301 12124 net.cpp:84] Creating Layer lstm1_
I1013 16:45:59.135308 12124 net.cpp:380] lstm1_ -> x
I1013 16:45:59.135323 12124 net.cpp:380] lstm1_ -> cont
I1013 16:45:59.135370 12124 net.cpp:122] Setting up lstm1_
I1013 16:45:59.135380 12124 net.cpp:129] Top shape: 16 5 512 (40960)
I1013 16:45:59.135385 12124 net.cpp:129] Top shape: 16 5 (80)
I1013 16:45:59.135390 12124 net.cpp:137] Memory required for data: 164160
I1013 16:45:59.135396 12124 layer_factory.hpp:77] Creating layer lstm1_
I1013 16:45:59.135402 12124 net.cpp:84] Creating Layer lstm1_
I1013 16:45:59.135407 12124 net.cpp:380] lstm1_ -> c_0
I1013 16:45:59.135416 12124 net.cpp:380] lstm1_ -> h_0
I1013 16:45:59.135448 12124 net.cpp:122] Setting up lstm1_
I1013 16:45:59.135457 12124 net.cpp:129] Top shape: 1 5 512 (2560)
I1013 16:45:59.135462 12124 net.cpp:129] Top shape: 1 5 512 (2560)
I1013 16:45:59.135466 12124 net.cpp:137] Memory required for data: 184640
I1013 16:45:59.135471 12124 layer_factory.hpp:77] Creating layer lstm1_cont_slice
I1013 16:45:59.135478 12124 net.cpp:84] Creating Layer lstm1_cont_slice
I1013 16:45:59.135483 12124 net.cpp:406] lstm1_cont_slice <- cont
I1013 16:45:59.135490 12124 net.cpp:380] lstm1_cont_slice -> cont_1
I1013 16:45:59.135499 12124 net.cpp:380] lstm1_cont_slice -> cont_2
…
I1013 16:45:59.135557 12124 net.cpp:380] lstm1_cont_slice -> cont_9
I1013 16:45:59.135565 12124 net.cpp:380] lstm1_cont_slice -> cont_10
I1013 16:45:59.135573 12124 net.cpp:380] lstm1_cont_slice -> cont_11
I1013 16:45:59.135581 12124 net.cpp:380] lstm1_cont_slice -> cont_12
I1013 16:45:59.135588 12124 net.cpp:380] lstm1_cont_slice -> cont_13
I1013 16:45:59.135596 12124 net.cpp:380] lstm1_cont_slice -> cont_14
I1013 16:45:59.135603 12124 net.cpp:380] lstm1_cont_slice -> cont_15
I1013 16:45:59.135610 12124 net.cpp:380] lstm1_cont_slice -> cont_16
I1013 16:45:59.135787 12124 net.cpp:122] Setting up lstm1_cont_slice
I1013 16:45:59.135797 12124 net.cpp:129] Top shape: 1 5 (5)
I1013 16:45:59.135802 12124 net.cpp:129] Top shape: 1 5 (5)
I1013 16:45:59.135807 12124 net.cpp:129] Top shape: 1 5 (5)
I1013 16:45:59.135812 12124 net.cpp:129] Top shape: 1 5 (5)
I1013 16:45:59.135818 12124 net.cpp:129] Top shape: 1 5 (5)
I1013 16:45:59.135823 12124 net.cpp:129] Top shape: 1 5 (5)
I1013 16:45:59.135828 12124 net.cpp:129] Top shape: 1 5 (5)
I1013 16:45:59.135833 12124 net.cpp:129] Top shape: 1 5 (5)
I1013 16:45:59.135838 12124 net.cpp:129] Top shape: 1 5 (5)
I1013 16:45:59.135841 12124 net.cpp:129] Top shape: 1 5 (5)
I1013 16:45:59.135846 12124 net.cpp:129] Top shape: 1 5 (5)
I1013 16:45:59.135851 12124 net.cpp:129] Top shape: 1 5 (5)
I1013 16:45:59.135856 12124 net.cpp:129] Top shape: 1 5 (5)
I1013 16:45:59.135861 12124 net.cpp:129] Top shape: 1 5 (5)
I1013 16:45:59.135865 12124 net.cpp:129] Top shape: 1 5 (5)
I1013 16:45:59.135870 12124 net.cpp:129] Top shape: 1 5 (5)
I1013 16:45:59.135874 12124 net.cpp:137] Memory required for data: 184960
I1013 16:45:59.135879 12124 layer_factory.hpp:77] Creating layer cont_1_lstm1_cont_slice_0_split
I1013 16:45:59.135885 12124 net.cpp:84] Creating Layer cont_1_lstm1_cont_slice_0_split
I1013 16:45:59.135890 12124 net.cpp:406] cont_1_lstm1_cont_slice_0_split <- cont_1
I1013 16:45:59.135896 12124 net.cpp:380] cont_1_lstm1_cont_slice_0_split -> cont_1_lstm1_cont_slice_0_split_0
I1013 16:45:59.135903 12124 net.cpp:380] cont_1_lstm1_cont_slice_0_split -> cont_1_lstm1_cont_slice_0_split_1
I1013 16:45:59.135936 12124 net.cpp:122] Setting up cont_1_lstm1_cont_slice_0_split
I1013 16:45:59.135946 12124 net.cpp:129] Top shape: 1 5 (5)
I1013 16:45:59.135951 12124 net.cpp:129] Top shape: 1 5 (5)
I1013 16:45:59.135954 12124 net.cpp:137] Memory required for data: 185000
I1013 16:45:59.135958 12124 layer_factory.hpp:77] Creating layer cont_2_lstm1_cont_slice_1_split
I1013 16:45:59.135964 12124 net.cpp:84] Creating Layer cont_2_lstm1_cont_slice_1_split
I1013 16:45:59.135969 12124 net.cpp:406] cont_2_lstm1_cont_slice_1_split <- cont_2
I1013 16:45:59.135977 12124 net.cpp:380] cont_2_lstm1_cont_slice_1_split -> cont_2_lstm1_cont_slice_1_split_0
I1013 16:45:59.135983 12124 net.cpp:380] cont_2_lstm1_cont_slice_1_split -> cont_2_lstm1_cont_slice_1_split_1
I1013 16:45:59.136013 12124 net.cpp:122] Setting up cont_2_lstm1_cont_slice_1_split
I1013 16:45:59.136023 12124 net.cpp:129] Top shape: 1 5 (5)
I1013 16:45:59.136034 12124 net.cpp:129] Top shape: 1 5 (5)
I1013 16:45:59.136037 12124 net.cpp:137] Memory required for data: 185040
I1013 16:45:59.136042 12124 layer_factory.hpp:77] Creating layer cont_3_lstm1_cont_slice_2_split
I1013 16:45:59.136052 12124 net.cpp:84] Creating Layer cont_3_lstm1_cont_slice_2_split
I1013 16:45:59.136057 12124 net.cpp:406] cont_3_lstm1_cont_slice_2_split <- cont_3
I1013 16:45:59.136063 12124 net.cpp:380] cont_3_lstm1_cont_slice_2_split -> cont_3_lstm1_cont_slice_2_split_0
I1013 16:45:59.136073 12124 net.cpp:380] cont_3_lstm1_cont_slice_2_split -> cont_3_lstm1_cont_slice_2_split_1
I1013 16:45:59.136104 12124 net.cpp:122] Setting up cont_3_lstm1_cont_slice_2_split
I1013 16:45:59.136113 12124 net.cpp:129] Top shape: 1 5 (5)
I1013 16:45:59.136118 12124 net.cpp:129] Top shape: 1 5 (5)
I1013 16:45:59.136122 12124 net.cpp:137] Memory required for data: 185080
I1013 16:45:59.136126 12124 layer_factory.hpp:77] Creating layer cont_4_lstm1_cont_slice_3_split
I1013 16:45:59.136133 12124 net.cpp:84] Creating Layer cont_4_lstm1_cont_slice_3_split
I1013 16:45:59.136138 12124 net.cpp:406] cont_4_lstm1_cont_slice_3_split <- cont_4
I1013 16:45:59.136143 12124 net.cpp:380] cont_4_lstm1_cont_slice_3_split -> cont_4_lstm1_cont_slice_3_split_0
I1013 16:45:59.136150 12124 net.cpp:380] cont_4_lstm1_cont_slice_3_split -> cont_4_lstm1_cont_slice_3_split_1
I1013 16:45:59.136181 12124 net.cpp:122] Setting up cont_4_lstm1_cont_slice_3_split
I1013 16:45:59.136190 12124 net.cpp:129] Top shape: 1 5 (5)
I1013 16:45:59.136195 12124 net.cpp:129] Top shape: 1 5 (5)
I1013 16:45:59.136199 12124 net.cpp:137] Memory required for data: 185120
I1013 16:45:59.136204 12124 layer_factory.hpp:77] Creating layer cont_5_lstm1_cont_slice_4_split
I1013 16:45:59.136209 12124 net.cpp:84] Creating Layer cont_5_lstm1_cont_slice_4_split
I1013 16:45:59.136212 12124 net.cpp:406] cont_5_lstm1_cont_slice_4_split <- cont_5
I1013 16:45:59.136219 12124 net.cpp:380] cont_5_lstm1_cont_slice_4_split -> cont_5_lstm1_cont_slice_4_split_0
I1013 16:45:59.136229 12124 net.cpp:380] cont_5_lstm1_cont_slice_4_split -> cont_5_lstm1_cont_slice_4_split_1
I1013 16:45:59.136260 12124 net.cpp:122] Setting up cont_5_lstm1_cont_slice_4_split
I1013 16:45:59.136268 12124 net.cpp:129] Top shape: 1 5 (5)
I1013 16:45:59.136273 12124 net.cpp:129] Top shape: 1 5 (5)
I1013 16:45:59.136277 12124 net.cpp:137] Memory required for data: 185160
I1013 16:45:59.136281 12124 layer_factory.hpp:77] Creating layer cont_6_lstm1_cont_slice_5_split
I1013 16:45:59.136291 12124 net.cpp:84] Creating Layer cont_6_lstm1_cont_slice_5_split
I1013 16:45:59.136294 12124 net.cpp:406] cont_6_lstm1_cont_slice_5_split <- cont_6
I1013 16:45:59.136301 12124 net.cpp:380] cont_6_lstm1_cont_slice_5_split -> cont_6_lstm1_cont_slice_5_split_0
I1013 16:45:59.136307 12124 net.cpp:380] cont_6_lstm1_cont_slice_5_split -> cont_6_lstm1_cont_slice_5_split_1
I1013 16:45:59.136337 12124 net.cpp:122] Setting up cont_6_lstm1_cont_slice_5_split
I1013 16:45:59.136344 12124 net.cpp:129] Top shape: 1 5 (5)
I1013 16:45:59.136349 12124 net.cpp:129] Top shape: 1 5 (5)
I1013 16:45:59.136353 12124 net.cpp:137] Memory required for data: 185200
I1013 16:45:59.136358 12124 layer_factory.hpp:77] Creating layer cont_7_lstm1_cont_slice_6_split
I1013 16:45:59.136363 12124 net.cpp:84] Creating Layer cont_7_lstm1_cont_slice_6_split
I1013 16:45:59.136368 12124 net.cpp:406] cont_7_lstm1_cont_slice_6_split <- cont_7
I1013 16:45:59.136373 12124 net.cpp:380] cont_7_lstm1_cont_slice_6_split -> cont_7_lstm1_cont_slice_6_split_0
I1013 16:45:59.136381 12124 net.cpp:380] cont_7_lstm1_cont_slice_6_split -> cont_7_lstm1_cont_slice_6_split_1
I1013 16:45:59.136411 12124 net.cpp:122] Setting up cont_7_lstm1_cont_slice_6_split
I1013 16:45:59.136420 12124 net.cpp:129] Top shape: 1 5 (5)
I1013 16:45:59.136425 12124 net.cpp:129] Top shape: 1 5 (5)
I1013 16:45:59.136428 12124 net.cpp:137] Memory required for data: 185240
I1013 16:45:59.136432 12124 layer_factory.hpp:77] Creating layer cont_8_lstm1_cont_slice_7_split
I1013 16:45:59.136437 12124 net.cpp:84] Creating Layer cont_8_lstm1_cont_slice_7_split
I1013 16:45:59.136441 12124 net.cpp:406] cont_8_lstm1_cont_slice_7_split <- cont_8
I1013 16:45:59.136449 12124 net.cpp:380] cont_8_lstm1_cont_slice_7_split -> cont_8_lstm1_cont_slice_7_split_0
I1013 16:45:59.136456 12124 net.cpp:380] cont_8_lstm1_cont_slice_7_split -> cont_8_lstm1_cont_slice_7_split_1
I1013 16:45:59.136484 12124 net.cpp:122] Setting up cont_8_lstm1_cont_slice_7_split
I1013 16:45:59.136492 12124 net.cpp:129] Top shape: 1 5 (5)
I1013 16:45:59.136497 12124 net.cpp:129] Top shape: 1 5 (5)
I1013 16:45:59.136502 12124 net.cpp:137] Memory required for data: 185280
I1013 16:45:59.136505 12124 layer_factory.hpp:77] Creating layer cont_9_lstm1_cont_slice_8_split
I1013 16:45:59.136512 12124 net.cpp:84] Creating Layer cont_9_lstm1_cont_slice_8_split
I1013 16:45:59.136517 12124 net.cpp:406] cont_9_lstm1_cont_slice_8_split <- cont_9
I1013 16:45:59.136523 12124 net.cpp:380] cont_9_lstm1_cont_slice_8_split -> cont_9_lstm1_cont_slice_8_split_0
I1013 16:45:59.136528 12124 net.cpp:380] cont_9_lstm1_cont_slice_8_split -> cont_9_lstm1_cont_slice_8_split_1
I1013 16:45:59.136559 12124 net.cpp:122] Setting up cont_9_lstm1_cont_slice_8_split
I1013 16:45:59.136566 12124 net.cpp:129] Top shape: 1 5 (5)
I1013 16:45:59.136571 12124 net.cpp:129] Top shape: 1 5 (5)
I1013 16:45:59.136575 12124 net.cpp:137] Memory required for data: 185320
I1013 16:45:59.136579 12124 layer_factory.hpp:77] Creating layer cont_10_lstm1_cont_slice_9_split
I1013 16:45:59.136584 12124 net.cpp:84] Creating Layer cont_10_lstm1_cont_slice_9_split
I1013 16:45:59.136589 12124 net.cpp:406] cont_10_lstm1_cont_slice_9_split <- cont_10
I1013 16:45:59.136595 12124 net.cpp:380] cont_10_lstm1_cont_slice_9_split -> cont_10_lstm1_cont_slice_9_split_0
I1013 16:45:59.136600 12124 net.cpp:380] cont_10_lstm1_cont_slice_9_split -> cont_10_lstm1_cont_slice_9_split_1
I1013 16:45:59.136631 12124 net.cpp:122] Setting up cont_10_lstm1_cont_slice_9_split
I1013 16:45:59.136638 12124 net.cpp:129] Top shape: 1 5 (5)
I1013 16:45:59.136643 12124 net.cpp:129] Top shape: 1 5 (5)
I1013 16:45:59.136647 12124 net.cpp:137] Memory required for data: 185360
I1013 16:45:59.136651 12124 layer_factory.hpp:77] Creating layer cont_11_lstm1_cont_slice_10_split
I1013 16:45:59.136657 12124 net.cpp:84] Creating Layer cont_11_lstm1_cont_slice_10_split
I1013 16:45:59.136662 12124 net.cpp:406] cont_11_lstm1_cont_slice_10_split <- cont_11
I1013 16:45:59.136667 12124 net.cpp:380] cont_11_lstm1_cont_slice_10_split -> cont_11_lstm1_cont_slice_10_split_0
I1013 16:45:59.136673 12124 net.cpp:380] cont_11_lstm1_cont_slice_10_split -> cont_11_lstm1_cont_slice_10_split_1
I1013 16:45:59.136704 12124 net.cpp:122] Setting up cont_11_lstm1_cont_slice_10_split
I1013 16:45:59.136713 12124 net.cpp:129] Top shape: 1 5 (5)
I1013 16:45:59.136718 12124 net.cpp:129] Top shape: 1 5 (5)
I1013 16:45:59.136721 12124 net.cpp:137] Memory required for data: 185400
I1013 16:45:59.136725 12124 layer_factory.hpp:77] Creating layer cont_12_lstm1_cont_slice_11_split
I1013 16:45:59.136730 12124 net.cpp:84] Creating Layer cont_12_lstm1_cont_slice_11_split
I1013 16:45:59.136734 12124 net.cpp:406] cont_12_lstm1_cont_slice_11_split <- cont_12
I1013 16:45:59.136742 12124 net.cpp:380] cont_12_lstm1_cont_slice_11_split -> cont_12_lstm1_cont_slice_11_split_0
I1013 16:45:59.136749 12124 net.cpp:380] cont_12_lstm1_cont_slice_11_split -> cont_12_lstm1_cont_slice_11_split_1
I1013 16:45:59.136776 12124 net.cpp:122] Setting up cont_12_lstm1_cont_slice_11_split
I1013 16:45:59.136786 12124 net.cpp:129] Top shape: 1 5 (5)
I1013 16:45:59.136791 12124 net.cpp:129] Top shape: 1 5 (5)
I1013 16:45:59.136795 12124 net.cpp:137] Memory required for data: 185440
I1013 16:45:59.136800 12124 layer_factory.hpp:77] Creating layer cont_13_lstm1_cont_slice_12_split
I1013 16:45:59.136804 12124 net.cpp:84] Creating Layer cont_13_lstm1_cont_slice_12_split
I1013 16:45:59.136808 12124 net.cpp:406] cont_13_lstm1_cont_slice_12_split <- cont_13
I1013 16:45:59.136814 12124 net.cpp:380] cont_13_lstm1_cont_slice_12_split -> cont_13_lstm1_cont_slice_12_split_0
I1013 16:45:59.136821 12124 net.cpp:380] cont_13_lstm1_cont_slice_12_split -> cont_13_lstm1_cont_slice_12_split_1
I1013 16:45:59.136850 12124 net.cpp:122] Setting up cont_13_lstm1_cont_slice_12_split
I1013 16:45:59.136857 12124 net.cpp:129] Top shape: 1 5 (5)
I1013 16:45:59.136862 12124 net.cpp:129] Top shape: 1 5 (5)
I1013 16:45:59.136865 12124 net.cpp:137] Memory required for data: 185480
I1013 16:45:59.136869 12124 layer_factory.hpp:77] Creating layer cont_14_lstm1_cont_slice_13_split
I1013 16:45:59.136875 12124 net.cpp:84] Creating Layer cont_14_lstm1_cont_slice_13_split
I1013 16:45:59.136880 12124 net.cpp:406] cont_14_lstm1_cont_slice_13_split <- cont_14
I1013 16:45:59.136885 12124 net.cpp:380] cont_14_lstm1_cont_slice_13_split -> cont_14_lstm1_cont_slice_13_split_0
I1013 16:45:59.136891 12124 net.cpp:380] cont_14_lstm1_cont_slice_13_split -> cont_14_lstm1_cont_slice_13_split_1
I1013 16:45:59.136921 12124 net.cpp:122] Setting up cont_14_lstm1_cont_slice_13_split
I1013 16:45:59.136927 12124 net.cpp:129] Top shape: 1 5 (5)
I1013 16:45:59.136932 12124 net.cpp:129] Top shape: 1 5 (5)
I1013 16:45:59.136936 12124 net.cpp:137] Memory required for data: 185520
I1013 16:45:59.136940 12124 layer_factory.hpp:77] Creating layer cont_15_lstm1_cont_slice_14_split
I1013 16:45:59.136945 12124 net.cpp:84] Creating Layer cont_15_lstm1_cont_slice_14_split
I1013 16:45:59.136950 12124 net.cpp:406] cont_15_lstm1_cont_slice_14_split <- cont_15
I1013 16:45:59.136957 12124 net.cpp:380] cont_15_lstm1_cont_slice_14_split -> cont_15_lstm1_cont_slice_14_split_0
I1013 16:45:59.136963 12124 net.cpp:380] cont_15_lstm1_cont_slice_14_split -> cont_15_lstm1_cont_slice_14_split_1
I1013 16:45:59.136991 12124 net.cpp:122] Setting up cont_15_lstm1_cont_slice_14_split
I1013 16:45:59.136997 12124 net.cpp:129] Top shape: 1 5 (5)
I1013 16:45:59.137001 12124 net.cpp:129] Top shape: 1 5 (5)
I1013 16:45:59.137006 12124 net.cpp:137] Memory required for data: 185560
I1013 16:45:59.137009 12124 layer_factory.hpp:77] Creating layer cont_16_lstm1_cont_slice_15_split
I1013 16:45:59.137017 12124 net.cpp:84] Creating Layer cont_16_lstm1_cont_slice_15_split
I1013 16:45:59.137020 12124 net.cpp:406] cont_16_lstm1_cont_slice_15_split <- cont_16
I1013 16:45:59.137027 12124 net.cpp:380] cont_16_lstm1_cont_slice_15_split -> cont_16_lstm1_cont_slice_15_split_0
I1013 16:45:59.137032 12124 net.cpp:380] cont_16_lstm1_cont_slice_15_split -> cont_16_lstm1_cont_slice_15_split_1
I1013 16:45:59.137061 12124 net.cpp:122] Setting up cont_16_lstm1_cont_slice_15_split
I1013 16:45:59.137068 12124 net.cpp:129] Top shape: 1 5 (5)
I1013 16:45:59.137073 12124 net.cpp:129] Top shape: 1 5 (5)
I1013 16:45:59.137076 12124 net.cpp:137] Memory required for data: 185600
I1013 16:45:59.137080 12124 layer_factory.hpp:77] Creating layer lstm1_x_transform
I1013 16:45:59.137091 12124 net.cpp:84] Creating Layer lstm1_x_transform
I1013 16:45:59.137096 12124 net.cpp:406] lstm1_x_transform <- x
I1013 16:45:59.137102 12124 net.cpp:380] lstm1_x_transform -> W_xc_x
I1013 16:45:59.149188 12124 net.cpp:122] Setting up lstm1_x_transform
I1013 16:45:59.149204 12124 net.cpp:129] Top shape: 16 5 2048 (163840)
I1013 16:45:59.149209 12124 net.cpp:137] Memory required for data: 840960
I1013 16:45:59.149220 12124 layer_factory.hpp:77] Creating layer lstm1_W_xc_x_slice
I1013 16:45:59.149229 12124 net.cpp:84] Creating Layer lstm1_W_xc_x_slice
I1013 16:45:59.149233 12124 net.cpp:406] lstm1_W_xc_x_slice <- W_xc_x
I1013 16:45:59.149240 12124 net.cpp:380] lstm1_W_xc_x_slice -> W_xc_x_1
I1013 16:45:59.149250 12124 net.cpp:380] lstm1_W_xc_x_slice -> W_xc_x_2
…
I1013 16:45:59.149312 12124 net.cpp:380] lstm1_W_xc_x_slice -> W_xc_x_10
I1013 16:45:59.149319 12124 net.cpp:380] lstm1_W_xc_x_slice -> W_xc_x_11
I1013 16:45:59.149327 12124 net.cpp:380] lstm1_W_xc_x_slice -> W_xc_x_12
I1013 16:45:59.149339 12124 net.cpp:380] lstm1_W_xc_x_slice -> W_xc_x_13
I1013 16:45:59.149346 12124 net.cpp:380] lstm1_W_xc_x_slice -> W_xc_x_14
I1013 16:45:59.149353 12124 net.cpp:380] lstm1_W_xc_x_slice -> W_xc_x_15
I1013 16:45:59.149360 12124 net.cpp:380] lstm1_W_xc_x_slice -> W_xc_x_16
I1013 16:45:59.149632 12124 net.cpp:122] Setting up lstm1_W_xc_x_slice
I1013 16:45:59.149644 12124 net.cpp:129] Top shape: 1 5 2048 (10240)
I1013 16:45:59.149651 12124 net.cpp:129] Top shape: 1 5 2048 (10240)
I1013 16:45:59.149654 12124 net.cpp:129] Top shape: 1 5 2048 (10240)
I1013 16:45:59.149659 12124 net.cpp:129] Top shape: 1 5 2048 (10240)
I1013 16:45:59.149664 12124 net.cpp:129] Top shape: 1 5 2048 (10240)
I1013 16:45:59.149668 12124 net.cpp:129] Top shape: 1 5 2048 (10240)
I1013 16:45:59.149673 12124 net.cpp:129] Top shape: 1 5 2048 (10240)
I1013 16:45:59.149678 12124 net.cpp:129] Top shape: 1 5 2048 (10240)
I1013 16:45:59.149682 12124 net.cpp:129] Top shape: 1 5 2048 (10240)
I1013 16:45:59.149688 12124 net.cpp:129] Top shape: 1 5 2048 (10240)
I1013 16:45:59.149693 12124 net.cpp:129] Top shape: 1 5 2048 (10240)
I1013 16:45:59.149698 12124 net.cpp:129] Top shape: 1 5 2048 (10240)
I1013 16:45:59.149703 12124 net.cpp:129] Top shape: 1 5 2048 (10240)
I1013 16:45:59.149708 12124 net.cpp:129] Top shape: 1 5 2048 (10240)
I1013 16:45:59.149711 12124 net.cpp:129] Top shape: 1 5 2048 (10240)
I1013 16:45:59.149716 12124 net.cpp:129] Top shape: 1 5 2048 (10240)
I1013 16:45:59.149720 12124 net.cpp:137] Memory required for data: 1496320
I1013 16:45:59.149724 12124 layer_factory.hpp:77] Creating layer lstm1_h_conted_0
I1013 16:45:59.149737 12124 net.cpp:84] Creating Layer lstm1_h_conted_0
I1013 16:45:59.149742 12124 net.cpp:406] lstm1_h_conted_0 <- h_0
I1013 16:45:59.149749 12124 net.cpp:406] lstm1_h_conted_0 <- cont_1_lstm1_cont_slice_0_split_0
I1013 16:45:59.149755 12124 net.cpp:380] lstm1_h_conted_0 -> h_conted_0
I1013 16:45:59.149823 12124 net.cpp:122] Setting up lstm1_h_conted_0
I1013 16:45:59.149830 12124 net.cpp:129] Top shape: 1 5 512 (2560)
I1013 16:45:59.149835 12124 net.cpp:137] Memory required for data: 1506560
I1013 16:45:59.149839 12124 layer_factory.hpp:77] Creating layer lstm1_transform_1
I1013 16:45:59.149847 12124 net.cpp:84] Creating Layer lstm1_transform_1
I1013 16:45:59.149852 12124 net.cpp:406] lstm1_transform_1 <- h_conted_0
I1013 16:45:59.149859 12124 net.cpp:380] lstm1_transform_1 -> W_hc_h_0
I1013 16:45:59.161526 12124 net.cpp:122] Setting up lstm1_transform_1
I1013 16:45:59.161562 12124 net.cpp:129] Top shape: 1 5 2048 (10240)
I1013 16:45:59.161567 12124 net.cpp:137] Memory required for data: 1547520
I1013 16:45:59.161579 12124 layer_factory.hpp:77] Creating layer lstm1_gate_input_1
I1013 16:45:59.161590 12124 net.cpp:84] Creating Layer lstm1_gate_input_1
I1013 16:45:59.161597 12124 net.cpp:406] lstm1_gate_input_1 <- W_hc_h_0
I1013 16:45:59.161602 12124 net.cpp:406] lstm1_gate_input_1 <- W_xc_x_1
I1013 16:45:59.161609 12124 net.cpp:380] lstm1_gate_input_1 -> gate_input_1
I1013 16:45:59.161644 12124 net.cpp:122] Setting up lstm1_gate_input_1
I1013 16:45:59.161651 12124 net.cpp:129] Top shape: 1 5 2048 (10240)
I1013 16:45:59.161655 12124 net.cpp:137] Memory required for data: 1588480
I1013 16:45:59.161659 12124 layer_factory.hpp:77] Creating layer lstm1_unit_1
I1013 16:45:59.161674 12124 net.cpp:84] Creating Layer lstm1_unit_1
I1013 16:45:59.161679 12124 net.cpp:406] lstm1_unit_1 <- c_0
I1013 16:45:59.161685 12124 net.cpp:406] lstm1_unit_1 <- gate_input_1
I1013 16:45:59.161690 12124 net.cpp:406] lstm1_unit_1 <- cont_1_lstm1_cont_slice_0_split_1
I1013 16:45:59.161698 12124 net.cpp:380] lstm1_unit_1 -> c_1
I1013 16:45:59.161706 12124 net.cpp:380] lstm1_unit_1 -> h_1
I1013 16:45:59.161753 12124 net.cpp:122] Setting up lstm1_unit_1
I1013 16:45:59.161761 12124 net.cpp:129] Top shape: 1 5 512 (2560)
I1013 16:45:59.161765 12124 net.cpp:129] Top shape: 1 5 512 (2560)
I1013 16:45:59.161769 12124 net.cpp:137] Memory required for data: 1608960
I1013 16:45:59.161773 12124 layer_factory.hpp:77] Creating layer h_1_lstm1_unit_1_1_split
I1013 16:45:59.161782 12124 net.cpp:84] Creating Layer h_1_lstm1_unit_1_1_split
I1013 16:45:59.161785 12124 net.cpp:406] h_1_lstm1_unit_1_1_split <- h_1
I1013 16:45:59.161793 12124 net.cpp:380] h_1_lstm1_unit_1_1_split -> h_1_lstm1_unit_1_1_split_0
I1013 16:45:59.161801 12124 net.cpp:380] h_1_lstm1_unit_1_1_split -> h_1_lstm1_unit_1_1_split_1
I1013 16:45:59.161831 12124 net.cpp:122] Setting up h_1_lstm1_unit_1_1_split
I1013 16:45:59.161839 12124 net.cpp:129] Top shape: 1 5 512 (2560)
I1013 16:45:59.161842 12124 net.cpp:129] Top shape: 1 5 512 (2560)
I1013 16:45:59.161847 12124 net.cpp:137] Memory required for data: 1629440
I1013 16:45:59.161851 12124 layer_factory.hpp:77] Creating layer lstm1_h_conted_1
I1013 16:45:59.161860 12124 net.cpp:84] Creating Layer lstm1_h_conted_1
I1013 16:45:59.161865 12124 net.cpp:406] lstm1_h_conted_1 <- h_1_lstm1_unit_1_1_split_0
I1013 16:45:59.161871 12124 net.cpp:406] lstm1_h_conted_1 <- cont_2_lstm1_cont_slice_1_split_0
I1013 16:45:59.161880 12124 net.cpp:380] lstm1_h_conted_1 -> h_conted_1
I1013 16:45:59.161940 12124 net.cpp:122] Setting up lstm1_h_conted_1
I1013 16:45:59.161947 12124 net.cpp:129] Top shape: 1 5 512 (2560)
I1013 16:45:59.161952 12124 net.cpp:137] Memory required for data: 1639680
I1013 16:45:59.161957 12124 layer_factory.hpp:77] Creating layer lstm1_transform_2
I1013 16:45:59.161963 12124 net.cpp:84] Creating Layer lstm1_transform_2
I1013 16:45:59.161968 12124 net.cpp:406] lstm1_transform_2 <- h_conted_1
I1013 16:45:59.161976 12124 net.cpp:380] lstm1_transform_2 -> W_hc_h_1
I1013 16:45:59.173025 12124 net.cpp:122] Setting up lstm1_transform_2
I1013 16:45:59.173043 12124 net.cpp:129] Top shape: 1 5 2048 (10240)
I1013 16:45:59.173046 12124 net.cpp:137] Memory required for data: 1680640
I1013 16:45:59.173051 12124 net.cpp:465] Sharing parameters 'W_hc' owned by layer 'lstm1_transform_1', param index 0
I1013 16:45:59.173058 12124 layer_factory.hpp:77] Creating layer lstm1_gate_input_2
I1013 16:45:59.173065 12124 net.cpp:84] Creating Layer lstm1_gate_input_2
I1013 16:45:59.173070 12124 net.cpp:406] lstm1_gate_input_2 <- W_hc_h_1
I1013 16:45:59.173076 12124 net.cpp:406] lstm1_gate_input_2 <- W_xc_x_2
I1013 16:45:59.173082 12124 net.cpp:380] lstm1_gate_input_2 -> gate_input_2
I1013 16:45:59.173107 12124 net.cpp:122] Setting up lstm1_gate_input_2
I1013 16:45:59.173125 12124 net.cpp:129] Top shape: 1 5 2048 (10240)
I1013 16:45:59.173130 12124 net.cpp:137] Memory required for data: 1721600
I1013 16:45:59.173132 12124 layer_factory.hpp:77] Creating layer lstm1_unit_2
I1013 16:45:59.173141 12124 net.cpp:84] Creating Layer lstm1_unit_2
I1013 16:45:59.173147 12124 net.cpp:406] lstm1_unit_2 <- c_1
I1013 16:45:59.173152 12124 net.cpp:406] lstm1_unit_2 <- gate_input_2
I1013 16:45:59.173157 12124 net.cpp:406] lstm1_unit_2 <- cont_2_lstm1_cont_slice_1_split_1
I1013 16:45:59.173163 12124 net.cpp:380] lstm1_unit_2 -> c_2
I1013 16:45:59.173171 12124 net.cpp:380] lstm1_unit_2 -> h_2
I1013 16:45:59.173210 12124 net.cpp:122] Setting up lstm1_unit_2
I1013 16:45:59.173219 12124 net.cpp:129] Top shape: 1 5 512 (2560)
I1013 16:45:59.173224 12124 net.cpp:129] Top shape: 1 5 512 (2560)
I1013 16:45:59.173228 12124 net.cpp:137] Memory required for data: 1742080
I1013 16:45:59.173233 12124 layer_factory.hpp:77] Creating layer h_2_lstm1_unit_2_1_split
I1013 16:45:59.173238 12124 net.cpp:84] Creating Layer h_2_lstm1_unit_2_1_split
I1013 16:45:59.173243 12124 net.cpp:406] h_2_lstm1_unit_2_1_split <- h_2
I1013 16:45:59.173250 12124 net.cpp:380] h_2_lstm1_unit_2_1_split -> h_2_lstm1_unit_2_1_split_0
I1013 16:45:59.173256 12124 net.cpp:380] h_2_lstm1_unit_2_1_split -> h_2_lstm1_unit_2_1_split_1
I1013 16:45:59.173291 12124 net.cpp:122] Setting up h_2_lstm1_unit_2_1_split
I1013 16:45:59.173300 12124 net.cpp:129] Top shape: 1 5 512 (2560)
I1013 16:45:59.173305 12124 net.cpp:129] Top shape: 1 5 512 (2560)
I1013 16:45:59.173310 12124 net.cpp:137] Memory required for data: 1762560
I1013 16:45:59.173313 12124 layer_factory.hpp:77] Creating layer lstm1_h_conted_2
I1013 16:45:59.173321 12124 net.cpp:84] Creating Layer lstm1_h_conted_2
I1013 16:45:59.173326 12124 net.cpp:406] lstm1_h_conted_2 <- h_2_lstm1_unit_2_1_split_0
I1013 16:45:59.173332 12124 net.cpp:406] lstm1_h_conted_2 <- cont_3_lstm1_cont_slice_2_split_0
I1013 16:45:59.173339 12124 net.cpp:380] lstm1_h_conted_2 -> h_conted_2
I1013 16:45:59.173393 12124 net.cpp:122] Setting up lstm1_h_conted_2
I1013 16:45:59.173400 12124 net.cpp:129] Top shape: 1 5 512 (2560)
I1013 16:45:59.173404 12124 net.cpp:137] Memory required for data: 1772800
I1013 16:45:59.173408 12124 layer_factory.hpp:77] Creating layer lstm1_transform_3
I1013 16:45:59.173422 12124 net.cpp:84] Creating Layer lstm1_transform_3
I1013 16:45:59.173431 12124 net.cpp:406] lstm1_transform_3 <- h_conted_2
I1013 16:45:59.173439 12124 net.cpp:380] lstm1_transform_3 -> W_hc_h_2
I1013 16:45:59.184106 12124 net.cpp:122] Setting up lstm1_transform_3
I1013 16:45:59.184121 12124 net.cpp:129] Top shape: 1 5 2048 (10240)
I1013 16:45:59.184125 12124 net.cpp:137] Memory required for data: 1813760
I1013 16:45:59.184131 12124 net.cpp:465] Sharing parameters 'W_hc' owned by layer 'lstm1_transform_1', param index 0
I1013 16:45:59.184136 12124 layer_factory.hpp:77] Creating layer lstm1_gate_input_3
I1013 16:45:59.184142 12124 net.cpp:84] Creating Layer lstm1_gate_input_3
I1013 16:45:59.184146 12124 net.cpp:406] lstm1_gate_input_3 <- W_hc_h_2
I1013 16:45:59.184152 12124 net.cpp:406] lstm1_gate_input_3 <- W_xc_x_3
I1013 16:45:59.184159 12124 net.cpp:380] lstm1_gate_input_3 -> gate_input_3
I1013 16:45:59.184181 12124 net.cpp:122] Setting up lstm1_gate_input_3
I1013 16:45:59.184187 12124 net.cpp:129] Top shape: 1 5 2048 (10240)
I1013 16:45:59.184208 12124 net.cpp:137] Memory required for data: 1854720
I1013 16:45:59.184223 12124 layer_factory.hpp:77] Creating layer lstm1_unit_3
I1013 16:45:59.184232 12124 net.cpp:84] Creating Layer lstm1_unit_3
I1013 16:45:59.184242 12124 net.cpp:406] lstm1_unit_3 <- c_2
I1013 16:45:59.184247 12124 net.cpp:406] lstm1_unit_3 <- gate_input_3
I1013 16:45:59.184252 12124 net.cpp:406] lstm1_unit_3 <- cont_3_lstm1_cont_slice_2_split_1
I1013 16:45:59.184258 12124 net.cpp:380] lstm1_unit_3 -> c_3
I1013 16:45:59.184265 12124 net.cpp:380] lstm1_unit_3 -> h_3
I1013 16:45:59.184306 12124 net.cpp:122] Setting up lstm1_unit_3
I1013 16:45:59.184319 12124 net.cpp:129] Top shape: 1 5 512 (2560)
I1013 16:45:59.184334 12124 net.cpp:129] Top shape: 1 5 512 (2560)
I1013 16:45:59.184340 12124 net.cpp:137] Memory required for data: 1875200
I1013 16:45:59.184343 12124 layer_factory.hpp:77] Creating layer h_3_lstm1_unit_3_1_split
I1013 16:45:59.184350 12124 net.cpp:84] Creating Layer h_3_lstm1_unit_3_1_split
I1013 16:45:59.184355 12124 net.cpp:406] h_3_lstm1_unit_3_1_split <- h_3
I1013 16:45:59.184362 12124 net.cpp:380] h_3_lstm1_unit_3_1_split -> h_3_lstm1_unit_3_1_split_0
I1013 16:45:59.184370 12124 net.cpp:380] h_3_lstm1_unit_3_1_split -> h_3_lstm1_unit_3_1_split_1
I1013 16:45:59.184398 12124 net.cpp:122] Setting up h_3_lstm1_unit_3_1_split
I1013 16:45:59.184407 12124 net.cpp:129] Top shape: 1 5 512 (2560)
I1013 16:45:59.184412 12124 net.cpp:129] Top shape: 1 5 512 (2560)
I1013 16:45:59.184417 12124 net.cpp:137] Memory required for data: 1895680
I1013 16:45:59.184420 12124 layer_factory.hpp:77] Creating layer lstm1_h_conted_3
I1013 16:45:59.184429 12124 net.cpp:84] Creating Layer lstm1_h_conted_3
I1013 16:45:59.184434 12124 net.cpp:406] lstm1_h_conted_3 <- h_3_lstm1_unit_3_1_split_0
I1013 16:45:59.184440 12124 net.cpp:406] lstm1_h_conted_3 <- cont_4_lstm1_cont_slice_3_split_0
I1013 16:45:59.184447 12124 net.cpp:380] lstm1_h_conted_3 -> h_conted_3
I1013 16:45:59.184499 12124 net.cpp:122] Setting up lstm1_h_conted_3
I1013 16:45:59.184509 12124 net.cpp:129] Top shape: 1 5 512 (2560)
I1013 16:45:59.184512 12124 net.cpp:137] Memory required for data: 1905920
I1013 16:45:59.184516 12124 layer_factory.hpp:77] Creating layer lstm1_transform_4
I1013 16:45:59.184525 12124 net.cpp:84] Creating Layer lstm1_transform_4
I1013 16:45:59.184530 12124 net.cpp:406] lstm1_transform_4 <- h_conted_3
I1013 16:45:59.184537 12124 net.cpp:380] lstm1_transform_4 -> W_hc_h_3
I1013 16:45:59.195189 12124 net.cpp:122] Setting up lstm1_transform_4
I1013 16:45:59.195204 12124 net.cpp:129] Top shape: 1 5 2048 (10240)
I1013 16:45:59.195207 12124 net.cpp:137] Memory required for data: 1946880
I1013 16:45:59.195212 12124 net.cpp:465] Sharing parameters 'W_hc' owned by layer 'lstm1_transform_1', param index 0
I1013 16:45:59.195216 12124 layer_factory.hpp:77] Creating layer lstm1_gate_input_4
I1013 16:45:59.195225 12124 net.cpp:84] Creating Layer lstm1_gate_input_4
I1013 16:45:59.195230 12124 net.cpp:406] lstm1_gate_input_4 <- W_hc_h_3
I1013 16:45:59.195235 12124 net.cpp:406] lstm1_gate_input_4 <- W_xc_x_4
I1013 16:45:59.195241 12124 net.cpp:380] lstm1_gate_input_4 -> gate_input_4
I1013 16:45:59.195263 12124 net.cpp:122] Setting up lstm1_gate_input_4
I1013 16:45:59.195269 12124 net.cpp:129] Top shape: 1 5 2048 (10240)
I1013 16:45:59.195291 12124 net.cpp:137] Memory required for data: 1987840
I1013 16:45:59.195305 12124 layer_factory.hpp:77] Creating layer lstm1_unit_4
I1013 16:45:59.195312 12124 net.cpp:84] Creating Layer lstm1_unit_4
I1013 16:45:59.195317 12124 net.cpp:406] lstm1_unit_4 <- c_3
I1013 16:45:59.195322 12124 net.cpp:406] lstm1_unit_4 <- gate_input_4
I1013 16:45:59.195327 12124 net.cpp:406] lstm1_unit_4 <- cont_4_lstm1_cont_slice_3_split_1
I1013 16:45:59.195334 12124 net.cpp:380] lstm1_unit_4 -> c_4
I1013 16:45:59.195343 12124 net.cpp:380] lstm1_unit_4 -> h_4
I1013 16:45:59.195384 12124 net.cpp:122] Setting up lstm1_unit_4
I1013 16:45:59.195392 12124 net.cpp:129] Top shape: 1 5 512 (2560)
I1013 16:45:59.195405 12124 net.cpp:129] Top shape: 1 5 512 (2560)
I1013 16:45:59.195420 12124 net.cpp:137] Memory required for data: 2008320
I1013 16:45:59.195425 12124 layer_factory.hpp:77] Creating layer h_4_lstm1_unit_4_1_split
I1013 16:45:59.195430 12124 net.cpp:84] Creating Layer h_4_lstm1_unit_4_1_split
I1013 16:45:59.195435 12124 net.cpp:406] h_4_lstm1_unit_4_1_split <- h_4
I1013 16:45:59.195441 12124 net.cpp:380] h_4_lstm1_unit_4_1_split -> h_4_lstm1_unit_4_1_split_0
I1013 16:45:59.195447 12124 net.cpp:380] h_4_lstm1_unit_4_1_split -> h_4_lstm1_unit_4_1_split_1
I1013 16:45:59.195479 12124 net.cpp:122] Setting up h_4_lstm1_unit_4_1_split
I1013 16:45:59.195492 12124 net.cpp:129] Top shape: 1 5 512 (2560)
I1013 16:45:59.195497 12124 net.cpp:129] Top shape: 1 5 512 (2560)
I1013 16:45:59.195502 12124 net.cpp:137] Memory required for data: 2028800
I1013 16:45:59.195505 12124 layer_factory.hpp:77] Creating layer lstm1_h_conted_4
I1013 16:45:59.195515 12124 net.cpp:84] Creating Layer lstm1_h_conted_4
I1013 16:45:59.195521 12124 net.cpp:406] lstm1_h_conted_4 <- h_4_lstm1_unit_4_1_split_0
I1013 16:45:59.195528 12124 net.cpp:406] lstm1_h_conted_4 <- cont_5_lstm1_cont_slice_4_split_0
I1013 16:45:59.195533 12124 net.cpp:380] lstm1_h_conted_4 -> h_conted_4
I1013 16:45:59.195586 12124 net.cpp:122] Setting up lstm1_h_conted_4
I1013 16:45:59.195606 12124 net.cpp:129] Top shape: 1 5 512 (2560)
I1013 16:45:59.195611 12124 net.cpp:137] Memory required for data: 2039040
I1013 16:45:59.195616 12124 layer_factory.hpp:77] Creating layer lstm1_transform_5
I1013 16:45:59.195623 12124 net.cpp:84] Creating Layer lstm1_transform_5
I1013 16:45:59.195628 12124 net.cpp:406] lstm1_transform_5 <- h_conted_4
I1013 16:45:59.195636 12124 net.cpp:380] lstm1_transform_5 -> W_hc_h_4
I1013 16:45:59.206641 12124 net.cpp:122] Setting up lstm1_transform_5
I1013 16:45:59.206674 12124 net.cpp:129] Top shape: 1 5 2048 (10240)
I1013 16:45:59.206679 12124 net.cpp:137] Memory required for data: 2080000
I1013 16:45:59.206684 12124 net.cpp:465] Sharing parameters 'W_hc' owned by layer 'lstm1_transform_1', param index 0
I1013 16:45:59.206689 12124 layer_factory.hpp:77] Creating layer lstm1_gate_input_5
I1013 16:45:59.206701 12124 net.cpp:84] Creating Layer lstm1_gate_input_5
I1013 16:45:59.206706 12124 net.cpp:406] lstm1_gate_input_5 <- W_hc_h_4
I1013 16:45:59.206712 12124 net.cpp:406] lstm1_gate_input_5 <- W_xc_x_5
I1013 16:45:59.206718 12124 net.cpp:380] lstm1_gate_input_5 -> gate_input_5
I1013 16:45:59.206746 12124 net.cpp:122] Setting up lstm1_gate_input_5
I1013 16:45:59.206758 12124 net.cpp:129] Top shape: 1 5 2048 (10240)
I1013 16:45:59.206761 12124 net.cpp:137] Memory required for data: 2120960
I1013 16:45:59.206765 12124 layer_factory.hpp:77] Creating layer lstm1_unit_5
I1013 16:45:59.206773 12124 net.cpp:84] Creating Layer lstm1_unit_5
I1013 16:45:59.206776 12124 net.cpp:406] lstm1_unit_5 <- c_4
I1013 16:45:59.206782 12124 net.cpp:406] lstm1_unit_5 <- gate_input_5
I1013 16:45:59.206787 12124 net.cpp:406] lstm1_unit_5 <- cont_5_lstm1_cont_slice_4_split_1
I1013 16:45:59.206795 12124 net.cpp:380] lstm1_unit_5 -> c_5
I1013 16:45:59.206815 12124 net.cpp:380] lstm1_unit_5 -> h_5
I1013 16:45:59.206863 12124 net.cpp:122] Setting up lstm1_unit_5
I1013 16:45:59.206873 12124 net.cpp:129] Top shape: 1 5 512 (2560)
I1013 16:45:59.206878 12124 net.cpp:129] Top shape: 1 5 512 (2560)
I1013 16:45:59.206882 12124 net.cpp:137] Memory required for data: 2141440
I1013 16:45:59.206887 12124 layer_factory.hpp:77] Creating layer h_5_lstm1_unit_5_1_split
I1013 16:45:59.206892 12124 net.cpp:84] Creating Layer h_5_lstm1_unit_5_1_split
I1013 16:45:59.206897 12124 net.cpp:406] h_5_lstm1_unit_5_1_split <- h_5
I1013 16:45:59.206903 12124 net.cpp:380] h_5_lstm1_unit_5_1_split -> h_5_lstm1_unit_5_1_split_0
I1013 16:45:59.206910 12124 net.cpp:380] h_5_lstm1_unit_5_1_split -> h_5_lstm1_unit_5_1_split_1
I1013 16:45:59.206943 12124 net.cpp:122] Setting up h_5_lstm1_unit_5_1_split
I1013 16:45:59.206950 12124 net.cpp:129] Top shape: 1 5 512 (2560)
I1013 16:45:59.206955 12124 net.cpp:129] Top shape: 1 5 512 (2560)
I1013 16:45:59.206959 12124 net.cpp:137] Memory required for data: 2161920
I1013 16:45:59.206964 12124 layer_factory.hpp:77] Creating layer lstm1_h_conted_5
I1013 16:45:59.206970 12124 net.cpp:84] Creating Layer lstm1_h_conted_5
I1013 16:45:59.206974 12124 net.cpp:406] lstm1_h_conted_5 <- h_5_lstm1_unit_5_1_split_0
I1013 16:45:59.206980 12124 net.cpp:406] lstm1_h_conted_5 <- cont_6_lstm1_cont_slice_5_split_0
I1013 16:45:59.206989 12124 net.cpp:380] lstm1_h_conted_5 -> h_conted_5
I1013 16:45:59.207043 12124 net.cpp:122] Setting up lstm1_h_conted_5
I1013 16:45:59.207051 12124 net.cpp:129] Top shape: 1 5 512 (2560)
I1013 16:45:59.207056 12124 net.cpp:137] Memory required for data: 2172160
I1013 16:45:59.207060 12124 layer_factory.hpp:77] Creating layer lstm1_transform_6
I1013 16:45:59.207067 12124 net.cpp:84] Creating Layer lstm1_transform_6
I1013 16:45:59.207072 12124 net.cpp:406] lstm1_transform_6 <- h_conted_5
I1013 16:45:59.207082 12124 net.cpp:380] lstm1_transform_6 -> W_hc_h_5
I1013 16:45:59.217584 12124 net.cpp:122] Setting up lstm1_transform_6
I1013 16:45:59.217598 12124 net.cpp:129] Top shape: 1 5 2048 (10240)
I1013 16:45:59.217614 12124 net.cpp:137] Memory required for data: 2213120
I1013 16:45:59.217619 12124 net.cpp:465] Sharing parameters 'W_hc' owned by layer 'lstm1_transform_1', param index 0
I1013 16:45:59.217623 12124 layer_factory.hpp:77] Creating layer lstm1_gate_input_6
I1013 16:45:59.217631 12124 net.cpp:84] Creating Layer lstm1_gate_input_6
I1013 16:45:59.217635 12124 net.cpp:406] lstm1_gate_input_6 <- W_hc_h_5
I1013 16:45:59.217641 12124 net.cpp:406] lstm1_gate_input_6 <- W_xc_x_6
I1013 16:45:59.217649 12124 net.cpp:380] lstm1_gate_input_6 -> gate_input_6
I1013 16:45:59.217674 12124 net.cpp:122] Setting up lstm1_gate_input_6
I1013 16:45:59.217680 12124 net.cpp:129] Top shape: 1 5 2048 (10240)
I1013 16:45:59.217684 12124 net.cpp:137] Memory required for data: 2254080
I1013 16:45:59.217687 12124 layer_factory.hpp:77] Creating layer lstm1_unit_6
I1013 16:45:59.217694 12124 net.cpp:84] Creating Layer lstm1_unit_6
I1013 16:45:59.217699 12124 net.cpp:406] lstm1_unit_6 <- c_5
I1013 16:45:59.217703 12124 net.cpp:406] lstm1_unit_6 <- gate_input_6
I1013 16:45:59.217708 12124 net.cpp:406] lstm1_unit_6 <- cont_6_lstm1_cont_slice_5_split_1
I1013 16:45:59.217715 12124 net.cpp:380] lstm1_unit_6 -> c_6
I1013 16:45:59.217720 12124 net.cpp:380] lstm1_unit_6 -> h_6
I1013 16:45:59.217759 12124 net.cpp:122] Setting up lstm1_unit_6
I1013 16:45:59.217767 12124 net.cpp:129] Top shape: 1 5 512 (2560)
I1013 16:45:59.217772 12124 net.cpp:129] Top shape: 1 5 512 (2560)
I1013 16:45:59.217777 12124 net.cpp:137] Memory required for data: 2274560
I1013 16:45:59.217780 12124 layer_factory.hpp:77] Creating layer h_6_lstm1_unit_6_1_split
I1013 16:45:59.217787 12124 net.cpp:84] Creating Layer h_6_lstm1_unit_6_1_split
I1013 16:45:59.217790 12124 net.cpp:406] h_6_lstm1_unit_6_1_split <- h_6
I1013 16:45:59.217797 12124 net.cpp:380] h_6_lstm1_unit_6_1_split -> h_6_lstm1_unit_6_1_split_0
I1013 16:45:59.217803 12124 net.cpp:380] h_6_lstm1_unit_6_1_split -> h_6_lstm1_unit_6_1_split_1
I1013 16:45:59.217838 12124 net.cpp:122] Setting up h_6_lstm1_unit_6_1_split
I1013 16:45:59.217844 12124 net.cpp:129] Top shape: 1 5 512 (2560)
I1013 16:45:59.217849 12124 net.cpp:129] Top shape: 1 5 512 (2560)
I1013 16:45:59.217854 12124 net.cpp:137] Memory required for data: 2295040
I1013 16:45:59.217857 12124 layer_factory.hpp:77] Creating layer lstm1_h_conted_6
I1013 16:45:59.217864 12124 net.cpp:84] Creating Layer lstm1_h_conted_6
I1013 16:45:59.217869 12124 net.cpp:406] lstm1_h_conted_6 <- h_6_lstm1_unit_6_1_split_0
I1013 16:45:59.217876 12124 net.cpp:406] lstm1_h_conted_6 <- cont_7_lstm1_cont_slice_6_split_0
I1013 16:45:59.217882 12124 net.cpp:380] lstm1_h_conted_6 -> h_conted_6
I1013 16:45:59.217932 12124 net.cpp:122] Setting up lstm1_h_conted_6
I1013 16:45:59.217941 12124 net.cpp:129] Top shape: 1 5 512 (2560)
I1013 16:45:59.217945 12124 net.cpp:137] Memory required for data: 2305280
I1013 16:45:59.217949 12124 layer_factory.hpp:77] Creating layer lstm1_transform_7
I1013 16:45:59.217957 12124 net.cpp:84] Creating Layer lstm1_transform_7
I1013 16:45:59.217960 12124 net.cpp:406] lstm1_transform_7 <- h_conted_6
I1013 16:45:59.217968 12124 net.cpp:380] lstm1_transform_7 -> W_hc_h_6
I1013 16:45:59.228471 12124 net.cpp:122] Setting up lstm1_transform_7
I1013 16:45:59.228485 12124 net.cpp:129] Top shape: 1 5 2048 (10240)
I1013 16:45:59.228502 12124 net.cpp:137] Memory required for data: 2346240
I1013 16:45:59.228509 12124 net.cpp:465] Sharing parameters 'W_hc' owned by layer 'lstm1_transform_1', param index 0
I1013 16:45:59.228514 12124 layer_factory.hpp:77] Creating layer lstm1_gate_input_7
I1013 16:45:59.228521 12124 net.cpp:84] Creating Layer lstm1_gate_input_7
I1013 16:45:59.228525 12124 net.cpp:406] lstm1_gate_input_7 <- W_hc_h_6
I1013 16:45:59.228531 12124 net.cpp:406] lstm1_gate_input_7 <- W_xc_x_7
I1013 16:45:59.228538 12124 net.cpp:380] lstm1_gate_input_7 -> gate_input_7
I1013 16:45:59.228564 12124 net.cpp:122] Setting up lstm1_gate_input_7
I1013 16:45:59.228570 12124 net.cpp:129] Top shape: 1 5 2048 (10240)
I1013 16:45:59.228574 12124 net.cpp:137] Memory required for data: 2387200
I1013 16:45:59.228579 12124 layer_factory.hpp:77] Creating layer lstm1_unit_7
I1013 16:45:59.228585 12124 net.cpp:84] Creating Layer lstm1_unit_7
I1013 16:45:59.228590 12124 net.cpp:406] lstm1_unit_7 <- c_6
I1013 16:45:59.228595 12124 net.cpp:406] lstm1_unit_7 <- gate_input_7
I1013 16:45:59.228600 12124 net.cpp:406] lstm1_unit_7 <- cont_7_lstm1_cont_slice_6_split_1
I1013 16:45:59.228606 12124 net.cpp:380] lstm1_unit_7 -> c_7
I1013 16:45:59.228612 12124 net.cpp:380] lstm1_unit_7 -> h_7
I1013 16:45:59.228653 12124 net.cpp:122] Setting up lstm1_unit_7
I1013 16:45:59.228663 12124 net.cpp:129] Top shape: 1 5 512 (2560)
I1013 16:45:59.228668 12124 net.cpp:129] Top shape: 1 5 512 (2560)
I1013 16:45:59.228672 12124 net.cpp:137] Memory required for data: 2407680
I1013 16:45:59.228677 12124 layer_factory.hpp:77] Creating layer h_7_lstm1_unit_7_1_split
I1013 16:45:59.228682 12124 net.cpp:84] Creating Layer h_7_lstm1_unit_7_1_split
I1013 16:45:59.228685 12124 net.cpp:406] h_7_lstm1_unit_7_1_split <- h_7
I1013 16:45:59.228691 12124 net.cpp:380] h_7_lstm1_unit_7_1_split -> h_7_lstm1_unit_7_1_split_0
I1013 16:45:59.228699 12124 net.cpp:380] h_7_lstm1_unit_7_1_split -> h_7_lstm1_unit_7_1_split_1
I1013 16:45:59.228729 12124 net.cpp:122] Setting up h_7_lstm1_unit_7_1_split
I1013 16:45:59.228737 12124 net.cpp:129] Top shape: 1 5 512 (2560)
I1013 16:45:59.228744 12124 net.cpp:129] Top shape: 1 5 512 (2560)
I1013 16:45:59.228749 12124 net.cpp:137] Memory required for data: 2428160
I1013 16:45:59.228752 12124 layer_factory.hpp:77] Creating layer lstm1_h_conted_7
I1013 16:45:59.228759 12124 net.cpp:84] Creating Layer lstm1_h_conted_7
I1013 16:45:59.228762 12124 net.cpp:406] lstm1_h_conted_7 <- h_7_lstm1_unit_7_1_split_0
I1013 16:45:59.228768 12124 net.cpp:406] lstm1_h_conted_7 <- cont_8_lstm1_cont_slice_7_split_0
I1013 16:45:59.228775 12124 net.cpp:380] lstm1_h_conted_7 -> h_conted_7
I1013 16:45:59.228838 12124 net.cpp:122] Setting up lstm1_h_conted_7
I1013 16:45:59.228848 12124 net.cpp:129] Top shape: 1 5 512 (2560)
I1013 16:45:59.228863 12124 net.cpp:137] Memory required for data: 2438400
I1013 16:45:59.228868 12124 layer_factory.hpp:77] Creating layer lstm1_transform_8
I1013 16:45:59.228875 12124 net.cpp:84] Creating Layer lstm1_transform_8
I1013 16:45:59.228881 12124 net.cpp:406] lstm1_transform_8 <- h_conted_7
I1013 16:45:59.228888 12124 net.cpp:380] lstm1_transform_8 -> W_hc_h_7
I1013 16:45:59.240125 12124 net.cpp:122] Setting up lstm1_transform_8
I1013 16:45:59.240142 12124 net.cpp:129] Top shape: 1 5 2048 (10240)
I1013 16:45:59.240157 12124 net.cpp:137] Memory required for data: 2479360
I1013 16:45:59.240164 12124 net.cpp:465] Sharing parameters 'W_hc' owned by layer 'lstm1_transform_1', param index 0
I1013 16:45:59.240167 12124 layer_factory.hpp:77] Creating layer lstm1_gate_input_8
I1013 16:45:59.240176 12124 net.cpp:84] Creating Layer lstm1_gate_input_8
I1013 16:45:59.240181 12124 net.cpp:406] lstm1_gate_input_8 <- W_hc_h_7
I1013 16:45:59.240187 12124 net.cpp:406] lstm1_gate_input_8 <- W_xc_x_8
I1013 16:45:59.240193 12124 net.cpp:380] lstm1_gate_input_8 -> gate_input_8
I1013 16:45:59.240221 12124 net.cpp:122] Setting up lstm1_gate_input_8
I1013 16:45:59.240229 12124 net.cpp:129] Top shape: 1 5 2048 (10240)
I1013 16:45:59.240233 12124 net.cpp:137] Memory required for data: 2520320
I1013 16:45:59.240238 12124 layer_factory.hpp:77] Creating layer lstm1_unit_8
I1013 16:45:59.240244 12124 net.cpp:84] Creating Layer lstm1_unit_8
I1013 16:45:59.240248 12124 net.cpp:406] lstm1_unit_8 <- c_7
I1013 16:45:59.240254 12124 net.cpp:406] lstm1_unit_8 <- gate_input_8
I1013 16:45:59.240259 12124 net.cpp:406] lstm1_unit_8 <- cont_8_lstm1_cont_slice_7_split_1
I1013 16:45:59.240265 12124 net.cpp:380] lstm1_unit_8 -> c_8
I1013 16:45:59.240272 12124 net.cpp:380] lstm1_unit_8 -> h_8
I1013 16:45:59.240314 12124 net.cpp:122] Setting up lstm1_unit_8
I1013 16:45:59.240322 12124 net.cpp:129] Top shape: 1 5 512 (2560)
I1013 16:45:59.240327 12124 net.cpp:129] Top shape: 1 5 512 (2560)
I1013 16:45:59.240331 12124 net.cpp:137] Memory required for data: 2540800
I1013 16:45:59.240335 12124 layer_factory.hpp:77] Creating layer h_8_lstm1_unit_8_1_split
I1013 16:45:59.240342 12124 net.cpp:84] Creating Layer h_8_lstm1_unit_8_1_split
I1013 16:45:59.240347 12124 net.cpp:406] h_8_lstm1_unit_8_1_split <- h_8
I1013 16:45:59.240352 12124 net.cpp:380] h_8_lstm1_unit_8_1_split -> h_8_lstm1_unit_8_1_split_0
I1013 16:45:59.240360 12124 net.cpp:380] h_8_lstm1_unit_8_1_split -> h_8_lstm1_unit_8_1_split_1
I1013 16:45:59.240391 12124 net.cpp:122] Setting up h_8_lstm1_unit_8_1_split
I1013 16:45:59.240398 12124 net.cpp:129] Top shape: 1 5 512 (2560)
I1013 16:45:59.240403 12124 net.cpp:129] Top shape: 1 5 512 (2560)
I1013 16:45:59.240407 12124 net.cpp:137] Memory required for data: 2561280
I1013 16:45:59.240411 12124 layer_factory.hpp:77] Creating layer lstm1_h_conted_8
I1013 16:45:59.240419 12124 net.cpp:84] Creating Layer lstm1_h_conted_8
I1013 16:45:59.240424 12124 net.cpp:406] lstm1_h_conted_8 <- h_8_lstm1_unit_8_1_split_0
I1013 16:45:59.240429 12124 net.cpp:406] lstm1_h_conted_8 <- cont_9_lstm1_cont_slice_8_split_0
I1013 16:45:59.240435 12124 net.cpp:380] lstm1_h_conted_8 -> h_conted_8
I1013 16:45:59.240490 12124 net.cpp:122] Setting up lstm1_h_conted_8
I1013 16:45:59.240499 12124 net.cpp:129] Top shape: 1 5 512 (2560)
I1013 16:45:59.240504 12124 net.cpp:137] Memory required for data: 2571520
I1013 16:45:59.240507 12124 layer_factory.hpp:77] Creating layer lstm1_transform_9
I1013 16:45:59.240517 12124 net.cpp:84] Creating Layer lstm1_transform_9
I1013 16:45:59.240522 12124 net.cpp:406] lstm1_transform_9 <- h_conted_8
I1013 16:45:59.240528 12124 net.cpp:380] lstm1_transform_9 -> W_hc_h_8
I1013 16:45:59.252249 12124 net.cpp:122] Setting up lstm1_transform_9
I1013 16:45:59.252265 12124 net.cpp:129] Top shape: 1 5 2048 (10240)
I1013 16:45:59.252269 12124 net.cpp:137] Memory required for data: 2612480
I1013 16:45:59.252274 12124 net.cpp:465] Sharing parameters 'W_hc' owned by layer 'lstm1_transform_1', param index 0
I1013 16:45:59.252279 12124 layer_factory.hpp:77] Creating layer lstm1_gate_input_9
I1013 16:45:59.252286 12124 net.cpp:84] Creating Layer lstm1_gate_input_9
I1013 16:45:59.252291 12124 net.cpp:406] lstm1_gate_input_9 <- W_hc_h_8
I1013 16:45:59.252297 12124 net.cpp:406] lstm1_gate_input_9 <- W_xc_x_9
I1013 16:45:59.252305 12124 net.cpp:380] lstm1_gate_input_9 -> gate_input_9
I1013 16:45:59.252329 12124 net.cpp:122] Setting up lstm1_gate_input_9
I1013 16:45:59.252339 12124 net.cpp:129] Top shape: 1 5 2048 (10240)
I1013 16:45:59.252354 12124 net.cpp:137] Memory required for data: 2653440
I1013 16:45:59.252358 12124 layer_factory.hpp:77] Creating layer lstm1_unit_9
I1013 16:45:59.252375 12124 net.cpp:84] Creating Layer lstm1_unit_9
I1013 16:45:59.252382 12124 net.cpp:406] lstm1_unit_9 <- c_8
I1013 16:45:59.252388 12124 net.cpp:406] lstm1_unit_9 <- gate_input_9
I1013 16:45:59.252393 12124 net.cpp:406] lstm1_unit_9 <- cont_9_lstm1_cont_slice_8_split_1
I1013 16:45:59.252399 12124 net.cpp:380] lstm1_unit_9 -> c_9
I1013 16:45:59.252420 12124 net.cpp:380] lstm1_unit_9 -> h_9
I1013 16:45:59.252468 12124 net.cpp:122] Setting up lstm1_unit_9
I1013 16:45:59.252483 12124 net.cpp:129] Top shape: 1 5 512 (2560)
I1013 16:45:59.252488 12124 net.cpp:129] Top shape: 1 5 512 (2560)
I1013 16:45:59.252493 12124 net.cpp:137] Memory required for data: 2673920
I1013 16:45:59.252498 12124 layer_factory.hpp:77] Creating layer h_9_lstm1_unit_9_1_split
I1013 16:45:59.252504 12124 net.cpp:84] Creating Layer h_9_lstm1_unit_9_1_split
I1013 16:45:59.252508 12124 net.cpp:406] h_9_lstm1_unit_9_1_split <- h_9
I1013 16:45:59.252517 12124 net.cpp:380] h_9_lstm1_unit_9_1_split -> h_9_lstm1_unit_9_1_split_0
I1013 16:45:59.252524 12124 net.cpp:380] h_9_lstm1_unit_9_1_split -> h_9_lstm1_unit_9_1_split_1
I1013 16:45:59.252557 12124 net.cpp:122] Setting up h_9_lstm1_unit_9_1_split
I1013 16:45:59.252566 12124 net.cpp:129] Top shape: 1 5 512 (2560)
I1013 16:45:59.252571 12124 net.cpp:129] Top shape: 1 5 512 (2560)
I1013 16:45:59.252575 12124 net.cpp:137] Memory required for data: 2694400
I1013 16:45:59.252580 12124 layer_factory.hpp:77] Creating layer lstm1_h_conted_9
I1013 16:45:59.252586 12124 net.cpp:84] Creating Layer lstm1_h_conted_9
I1013 16:45:59.252591 12124 net.cpp:406] lstm1_h_conted_9 <- h_9_lstm1_unit_9_1_split_0
I1013 16:45:59.252598 12124 net.cpp:406] lstm1_h_conted_9 <- cont_10_lstm1_cont_slice_9_split_0
I1013 16:45:59.252604 12124 net.cpp:380] lstm1_h_conted_9 -> h_conted_9
I1013 16:45:59.252660 12124 net.cpp:122] Setting up lstm1_h_conted_9
I1013 16:45:59.252670 12124 net.cpp:129] Top shape: 1 5 512 (2560)
I1013 16:45:59.252673 12124 net.cpp:137] Memory required for data: 2704640
I1013 16:45:59.252677 12124 layer_factory.hpp:77] Creating layer lstm1_transform_10
I1013 16:45:59.252684 12124 net.cpp:84] Creating Layer lstm1_transform_10
I1013 16:45:59.252689 12124 net.cpp:406] lstm1_transform_10 <- h_conted_9
I1013 16:45:59.252696 12124 net.cpp:380] lstm1_transform_10 -> W_hc_h_9
I1013 16:45:59.264410 12124 net.cpp:122] Setting up lstm1_transform_10
I1013 16:45:59.264426 12124 net.cpp:129] Top shape: 1 5 2048 (10240)
I1013 16:45:59.264431 12124 net.cpp:137] Memory required for data: 2745600
I1013 16:45:59.264437 12124 net.cpp:465] Sharing parameters 'W_hc' owned by layer 'lstm1_transform_1', param index 0
I1013 16:45:59.264442 12124 layer_factory.hpp:77] Creating layer lstm1_gate_input_10
I1013 16:45:59.264449 12124 net.cpp:84] Creating Layer lstm1_gate_input_10
I1013 16:45:59.264454 12124 net.cpp:406] lstm1_gate_input_10 <- W_hc_h_9
I1013 16:45:59.264461 12124 net.cpp:406] lstm1_gate_input_10 <- W_xc_x_10
I1013 16:45:59.264467 12124 net.cpp:380] lstm1_gate_input_10 -> gate_input_10
I1013 16:45:59.264497 12124 net.cpp:122] Setting up lstm1_gate_input_10
I1013 16:45:59.264506 12124 net.cpp:129] Top shape: 1 5 2048 (10240)
I1013 16:45:59.264510 12124 net.cpp:137] Memory required for data: 2786560
I1013 16:45:59.264515 12124 layer_factory.hpp:77] Creating layer lstm1_unit_10
I1013 16:45:59.264521 12124 net.cpp:84] Creating Layer lstm1_unit_10
I1013 16:45:59.264526 12124 net.cpp:406] lstm1_unit_10 <- c_9
I1013 16:45:59.264534 12124 net.cpp:406] lstm1_unit_10 <- gate_input_10
I1013 16:45:59.264539 12124 net.cpp:406] lstm1_unit_10 <- cont_10_lstm1_cont_slice_9_split_1
I1013 16:45:59.264545 12124 net.cpp:380] lstm1_unit_10 -> c_10
I1013 16:45:59.264554 12124 net.cpp:380] lstm1_unit_10 -> h_10
I1013 16:45:59.264597 12124 net.cpp:122] Setting up lstm1_unit_10
I1013 16:45:59.264606 12124 net.cpp:129] Top shape: 1 5 512 (2560)
I1013 16:45:59.264611 12124 net.cpp:129] Top shape: 1 5 512 (2560)
I1013 16:45:59.264616 12124 net.cpp:137] Memory required for data: 2807040
I1013 16:45:59.264621 12124 layer_factory.hpp:77] Creating layer h_10_lstm1_unit_10_1_split
I1013 16:45:59.264628 12124 net.cpp:84] Creating Layer h_10_lstm1_unit_10_1_split
I1013 16:45:59.264633 12124 net.cpp:406] h_10_lstm1_unit_10_1_split <- h_10
I1013 16:45:59.264639 12124 net.cpp:380] h_10_lstm1_unit_10_1_split -> h_10_lstm1_unit_10_1_split_0
I1013 16:45:59.264647 12124 net.cpp:380] h_10_lstm1_unit_10_1_split -> h_10_lstm1_unit_10_1_split_1
I1013 16:45:59.264679 12124 net.cpp:122] Setting up h_10_lstm1_unit_10_1_split
I1013 16:45:59.264688 12124 net.cpp:129] Top shape: 1 5 512 (2560)
I1013 16:45:59.264693 12124 net.cpp:129] Top shape: 1 5 512 (2560)
I1013 16:45:59.264698 12124 net.cpp:137] Memory required for data: 2827520
I1013 16:45:59.264701 12124 layer_factory.hpp:77] Creating layer lstm1_h_conted_10
I1013 16:45:59.264709 12124 net.cpp:84] Creating Layer lstm1_h_conted_10
I1013 16:45:59.264714 12124 net.cpp:406] lstm1_h_conted_10 <- h_10_lstm1_unit_10_1_split_0
I1013 16:45:59.264720 12124 net.cpp:406] lstm1_h_conted_10 <- cont_11_lstm1_cont_slice_10_split_0
I1013 16:45:59.264727 12124 net.cpp:380] lstm1_h_conted_10 -> h_conted_10
I1013 16:45:59.264783 12124 net.cpp:122] Setting up lstm1_h_conted_10
I1013 16:45:59.264792 12124 net.cpp:129] Top shape: 1 5 512 (2560)
I1013 16:45:59.264796 12124 net.cpp:137] Memory required for data: 2837760
I1013 16:45:59.264801 12124 layer_factory.hpp:77] Creating layer lstm1_transform_11
I1013 16:45:59.264811 12124 net.cpp:84] Creating Layer lstm1_transform_11
I1013 16:45:59.264816 12124 net.cpp:406] lstm1_transform_11 <- h_conted_10
I1013 16:45:59.264822 12124 net.cpp:380] lstm1_transform_11 -> W_hc_h_10
I1013 16:45:59.276872 12124 net.cpp:122] Setting up lstm1_transform_11
I1013 16:45:59.276888 12124 net.cpp:129] Top shape: 1 5 2048 (10240)
I1013 16:45:59.276893 12124 net.cpp:137] Memory required for data: 2878720
I1013 16:45:59.276898 12124 net.cpp:465] Sharing parameters 'W_hc' owned by layer 'lstm1_transform_1', param index 0
I1013 16:45:59.276903 12124 layer_factory.hpp:77] Creating layer lstm1_gate_input_11
I1013 16:45:59.276911 12124 net.cpp:84] Creating Layer lstm1_gate_input_11
I1013 16:45:59.276916 12124 net.cpp:406] lstm1_gate_input_11 <- W_hc_h_10
I1013 16:45:59.276922 12124 net.cpp:406] lstm1_gate_input_11 <- W_xc_x_11
I1013 16:45:59.276928 12124 net.cpp:380] lstm1_gate_input_11 -> gate_input_11
I1013 16:45:59.276954 12124 net.cpp:122] Setting up lstm1_gate_input_11
I1013 16:45:59.276964 12124 net.cpp:129] Top shape: 1 5 2048 (10240)
I1013 16:45:59.276968 12124 net.cpp:137] Memory required for data: 2919680
I1013 16:45:59.276973 12124 layer_factory.hpp:77] Creating layer lstm1_unit_11
I1013 16:45:59.276981 12124 net.cpp:84] Creating Layer lstm1_unit_11
I1013 16:45:59.276988 12124 net.cpp:406] lstm1_unit_11 <- c_10
I1013 16:45:59.276995 12124 net.cpp:406] lstm1_unit_11 <- gate_input_11
I1013 16:45:59.277001 12124 net.cpp:406] lstm1_unit_11 <- cont_11_lstm1_cont_slice_10_split_1
I1013 16:45:59.277007 12124 net.cpp:380] lstm1_unit_11 -> c_11
I1013 16:45:59.277014 12124 net.cpp:380] lstm1_unit_11 -> h_11
I1013 16:45:59.277060 12124 net.cpp:122] Setting up lstm1_unit_11
I1013 16:45:59.277068 12124 net.cpp:129] Top shape: 1 5 512 (2560)
I1013 16:45:59.277073 12124 net.cpp:129] Top shape: 1 5 512 (2560)
I1013 16:45:59.277078 12124 net.cpp:137] Memory required for data: 2940160
I1013 16:45:59.277082 12124 layer_factory.hpp:77] Creating layer h_11_lstm1_unit_11_1_split
I1013 16:45:59.277088 12124 net.cpp:84] Creating Layer h_11_lstm1_unit_11_1_split
I1013 16:45:59.277093 12124 net.cpp:406] h_11_lstm1_unit_11_1_split <- h_11
I1013 16:45:59.277101 12124 net.cpp:380] h_11_lstm1_unit_11_1_split -> h_11_lstm1_unit_11_1_split_0
I1013 16:45:59.277108 12124 net.cpp:380] h_11_lstm1_unit_11_1_split -> h_11_lstm1_unit_11_1_split_1
I1013 16:45:59.277139 12124 net.cpp:122] Setting up h_11_lstm1_unit_11_1_split
I1013 16:45:59.277148 12124 net.cpp:129] Top shape: 1 5 512 (2560)
I1013 16:45:59.277153 12124 net.cpp:129] Top shape: 1 5 512 (2560)
I1013 16:45:59.277156 12124 net.cpp:137] Memory required for data: 2960640
I1013 16:45:59.277160 12124 layer_factory.hpp:77] Creating layer lstm1_h_conted_11
I1013 16:45:59.277169 12124 net.cpp:84] Creating Layer lstm1_h_conted_11
I1013 16:45:59.277174 12124 net.cpp:406] lstm1_h_conted_11 <- h_11_lstm1_unit_11_1_split_0
I1013 16:45:59.277180 12124 net.cpp:406] lstm1_h_conted_11 <- cont_12_lstm1_cont_slice_11_split_0
I1013 16:45:59.277189 12124 net.cpp:380] lstm1_h_conted_11 -> h_conted_11
I1013 16:45:59.277245 12124 net.cpp:122] Setting up lstm1_h_conted_11
I1013 16:45:59.277253 12124 net.cpp:129] Top shape: 1 5 512 (2560)
I1013 16:45:59.277257 12124 net.cpp:137] Memory required for data: 2970880
I1013 16:45:59.277261 12124 layer_factory.hpp:77] Creating layer lstm1_transform_12
I1013 16:45:59.277271 12124 net.cpp:84] Creating Layer lstm1_transform_12
I1013 16:45:59.277276 12124 net.cpp:406] lstm1_transform_12 <- h_conted_11
I1013 16:45:59.277284 12124 net.cpp:380] lstm1_transform_12 -> W_hc_h_11
I1013 16:45:59.289623 12124 net.cpp:122] Setting up lstm1_transform_12
I1013 16:45:59.289639 12124 net.cpp:129] Top shape: 1 5 2048 (10240)
I1013 16:45:59.289644 12124 net.cpp:137] Memory required for data: 3011840
I1013 16:45:59.289650 12124 net.cpp:465] Sharing parameters 'W_hc' owned by layer 'lstm1_transform_1', param index 0
I1013 16:45:59.289655 12124 layer_factory.hpp:77] Creating layer lstm1_gate_input_12
I1013 16:45:59.289664 12124 net.cpp:84] Creating Layer lstm1_gate_input_12
I1013 16:45:59.289670 12124 net.cpp:406] lstm1_gate_input_12 <- W_hc_h_11
I1013 16:45:59.289676 12124 net.cpp:406] lstm1_gate_input_12 <- W_xc_x_12
I1013 16:45:59.289682 12124 net.cpp:380] lstm1_gate_input_12 -> gate_input_12
I1013 16:45:59.289710 12124 net.cpp:122] Setting up lstm1_gate_input_12
I1013 16:45:59.289719 12124 net.cpp:129] Top shape: 1 5 2048 (10240)
I1013 16:45:59.289723 12124 net.cpp:137] Memory required for data: 3052800
I1013 16:45:59.289727 12124 layer_factory.hpp:77] Creating layer lstm1_unit_12
I1013 16:45:59.289736 12124 net.cpp:84] Creating Layer lstm1_unit_12
I1013 16:45:59.289741 12124 net.cpp:406] lstm1_unit_12 <- c_11
I1013 16:45:59.289747 12124 net.cpp:406] lstm1_unit_12 <- gate_input_12
I1013 16:45:59.289753 12124 net.cpp:406] lstm1_unit_12 <- cont_12_lstm1_cont_slice_11_split_1
I1013 16:45:59.289759 12124 net.cpp:380] lstm1_unit_12 -> c_12
I1013 16:45:59.289767 12124 net.cpp:380] lstm1_unit_12 -> h_12
I1013 16:45:59.289811 12124 net.cpp:122] Setting up lstm1_unit_12
I1013 16:45:59.289820 12124 net.cpp:129] Top shape: 1 5 512 (2560)
I1013 16:45:59.289825 12124 net.cpp:129] Top shape: 1 5 512 (2560)
I1013 16:45:59.289829 12124 net.cpp:137] Memory required for data: 3073280
I1013 16:45:59.289834 12124 layer_factory.hpp:77] Creating layer h_12_lstm1_unit_12_1_split
I1013 16:45:59.289840 12124 net.cpp:84] Creating Layer h_12_lstm1_unit_12_1_split
I1013 16:45:59.289844 12124 net.cpp:406] h_12_lstm1_unit_12_1_split <- h_12
I1013 16:45:59.289851 12124 net.cpp:380] h_12_lstm1_unit_12_1_split -> h_12_lstm1_unit_12_1_split_0
I1013 16:45:59.289860 12124 net.cpp:380] h_12_lstm1_unit_12_1_split -> h_12_lstm1_unit_12_1_split_1
I1013 16:45:59.289891 12124 net.cpp:122] Setting up h_12_lstm1_unit_12_1_split
I1013 16:45:59.289899 12124 net.cpp:129] Top shape: 1 5 512 (2560)
I1013 16:45:59.289906 12124 net.cpp:129] Top shape: 1 5 512 (2560)
I1013 16:45:59.289908 12124 net.cpp:137] Memory required for data: 3093760
I1013 16:45:59.289913 12124 layer_factory.hpp:77] Creating layer lstm1_h_conted_12
I1013 16:45:59.289921 12124 net.cpp:84] Creating Layer lstm1_h_conted_12
I1013 16:45:59.289927 12124 net.cpp:406] lstm1_h_conted_12 <- h_12_lstm1_unit_12_1_split_0
I1013 16:45:59.289932 12124 net.cpp:406] lstm1_h_conted_12 <- cont_13_lstm1_cont_slice_12_split_0
I1013 16:45:59.289939 12124 net.cpp:380] lstm1_h_conted_12 -> h_conted_12
I1013 16:45:59.289995 12124 net.cpp:122] Setting up lstm1_h_conted_12
I1013 16:45:59.290004 12124 net.cpp:129] Top shape: 1 5 512 (2560)
I1013 16:45:59.290009 12124 net.cpp:137] Memory required for data: 3104000
I1013 16:45:59.290012 12124 layer_factory.hpp:77] Creating layer lstm1_transform_13
I1013 16:45:59.290022 12124 net.cpp:84] Creating Layer lstm1_transform_13
I1013 16:45:59.290027 12124 net.cpp:406] lstm1_transform_13 <- h_conted_12
I1013 16:45:59.290033 12124 net.cpp:380] lstm1_transform_13 -> W_hc_h_12
I1013 16:45:59.301733 12124 net.cpp:122] Setting up lstm1_transform_13
I1013 16:45:59.301749 12124 net.cpp:129] Top shape: 1 5 2048 (10240)
I1013 16:45:59.301754 12124 net.cpp:137] Memory required for data: 3144960
I1013 16:45:59.301759 12124 net.cpp:465] Sharing parameters 'W_hc' owned by layer 'lstm1_transform_1', param index 0
I1013 16:45:59.301764 12124 layer_factory.hpp:77] Creating layer lstm1_gate_input_13
I1013 16:45:59.301774 12124 net.cpp:84] Creating Layer lstm1_gate_input_13
I1013 16:45:59.301779 12124 net.cpp:406] lstm1_gate_input_13 <- W_hc_h_12
I1013 16:45:59.301786 12124 net.cpp:406] lstm1_gate_input_13 <- W_xc_x_13
I1013 16:45:59.301793 12124 net.cpp:380] lstm1_gate_input_13 -> gate_input_13
I1013 16:45:59.301820 12124 net.cpp:122] Setting up lstm1_gate_input_13
I1013 16:45:59.301829 12124 net.cpp:129] Top shape: 1 5 2048 (10240)
I1013 16:45:59.301833 12124 net.cpp:137] Memory required for data: 3185920
I1013 16:45:59.301837 12124 layer_factory.hpp:77] Creating layer lstm1_unit_13
I1013 16:45:59.301843 12124 net.cpp:84] Creating Layer lstm1_unit_13
I1013 16:45:59.301848 12124 net.cpp:406] lstm1_unit_13 <- c_12
I1013 16:45:59.301854 12124 net.cpp:406] lstm1_unit_13 <- gate_input_13
I1013 16:45:59.301864 12124 net.cpp:406] lstm1_unit_13 <- cont_13_lstm1_cont_slice_12_split_1
I1013 16:45:59.301877 12124 net.cpp:380] lstm1_unit_13 -> c_13
I1013 16:45:59.301892 12124 net.cpp:380] lstm1_unit_13 -> h_13
I1013 16:45:59.301959 12124 net.cpp:122] Setting up lstm1_unit_13
I1013 16:45:59.301971 12124 net.cpp:129] Top shape: 1 5 512 (2560)
I1013 16:45:59.301980 12124 net.cpp:129] Top shape: 1 5 512 (2560)
I1013 16:45:59.301988 12124 net.cpp:137] Memory required for data: 3206400
I1013 16:45:59.301995 12124 layer_factory.hpp:77] Creating layer h_13_lstm1_unit_13_1_split
I1013 16:45:59.302006 12124 net.cpp:84] Creating Layer h_13_lstm1_unit_13_1_split
I1013 16:45:59.302013 12124 net.cpp:406] h_13_lstm1_unit_13_1_split <- h_13
I1013 16:45:59.302024 12124 net.cpp:380] h_13_lstm1_unit_13_1_split -> h_13_lstm1_unit_13_1_split_0
I1013 16:45:59.302038 12124 net.cpp:380] h_13_lstm1_unit_13_1_split -> h_13_lstm1_unit_13_1_split_1
I1013 16:45:59.302090 12124 net.cpp:122] Setting up h_13_lstm1_unit_13_1_split
I1013 16:45:59.302103 12124 net.cpp:129] Top shape: 1 5 512 (2560)
I1013 16:45:59.302112 12124 net.cpp:129] Top shape: 1 5 512 (2560)
I1013 16:45:59.302119 12124 net.cpp:137] Memory required for data: 3226880
I1013 16:45:59.302126 12124 layer_factory.hpp:77] Creating layer lstm1_h_conted_13
I1013 16:45:59.302137 12124 net.cpp:84] Creating Layer lstm1_h_conted_13
I1013 16:45:59.302146 12124 net.cpp:406] lstm1_h_conted_13 <- h_13_lstm1_unit_13_1_split_0
I1013 16:45:59.302157 12124 net.cpp:406] lstm1_h_conted_13 <- cont_14_lstm1_cont_slice_13_split_0
I1013 16:45:59.302177 12124 net.cpp:380] lstm1_h_conted_13 -> h_conted_13
I1013 16:45:59.302248 12124 net.cpp:122] Setting up lstm1_h_conted_13
I1013 16:45:59.302261 12124 net.cpp:129] Top shape: 1 5 512 (2560)
I1013 16:45:59.302268 12124 net.cpp:137] Memory required for data: 3237120
I1013 16:45:59.302275 12124 layer_factory.hpp:77] Creating layer lstm1_transform_14
I1013 16:45:59.302289 12124 net.cpp:84] Creating Layer lstm1_transform_14
I1013 16:45:59.302296 12124 net.cpp:406] lstm1_transform_14 <- h_conted_13
I1013 16:45:59.302312 12124 net.cpp:380] lstm1_transform_14 -> W_hc_h_13
I1013 16:45:59.314368 12124 net.cpp:122] Setting up lstm1_transform_14
I1013 16:45:59.314393 12124 net.cpp:129] Top shape: 1 5 2048 (10240)
I1013 16:45:59.314401 12124 net.cpp:137] Memory required for data: 3278080
I1013 16:45:59.314410 12124 net.cpp:465] Sharing parameters 'W_hc' owned by layer 'lstm1_transform_1', param index 0
I1013 16:45:59.314419 12124 layer_factory.hpp:77] Creating layer lstm1_gate_input_14
I1013 16:45:59.314430 12124 net.cpp:84] Creating Layer lstm1_gate_input_14
I1013 16:45:59.314438 12124 net.cpp:406] lstm1_gate_input_14 <- W_hc_h_13
I1013 16:45:59.314448 12124 net.cpp:406] lstm1_gate_input_14 <- W_xc_x_14
I1013 16:45:59.314462 12124 net.cpp:380] lstm1_gate_input_14 -> gate_input_14
I1013 16:45:59.314503 12124 net.cpp:122] Setting up lstm1_gate_input_14
I1013 16:45:59.314517 12124 net.cpp:129] Top shape: 1 5 2048 (10240)
I1013 16:45:59.314524 12124 net.cpp:137] Memory required for data: 3319040
I1013 16:45:59.314532 12124 layer_factory.hpp:77] Creating layer lstm1_unit_14
I1013 16:45:59.314543 12124 net.cpp:84] Creating Layer lstm1_unit_14
I1013 16:45:59.314550 12124 net.cpp:406] lstm1_unit_14 <- c_13
I1013 16:45:59.314560 12124 net.cpp:406] lstm1_unit_14 <- gate_input_14
I1013 16:45:59.314570 12124 net.cpp:406] lstm1_unit_14 <- cont_14_lstm1_cont_slice_13_split_1
I1013 16:45:59.314580 12124 net.cpp:380] lstm1_unit_14 -> c_14
I1013 16:45:59.314597 12124 net.cpp:380] lstm1_unit_14 -> h_14
I1013 16:45:59.314659 12124 net.cpp:122] Setting up lstm1_unit_14
I1013 16:45:59.314671 12124 net.cpp:129] Top shape: 1 5 512 (2560)
I1013 16:45:59.314680 12124 net.cpp:129] Top shape: 1 5 512 (2560)
I1013 16:45:59.314687 12124 net.cpp:137] Memory required for data: 3339520
I1013 16:45:59.314695 12124 layer_factory.hpp:77] Creating layer h_14_lstm1_unit_14_1_split
I1013 16:45:59.314705 12124 net.cpp:84] Creating Layer h_14_lstm1_unit_14_1_split
I1013 16:45:59.314713 12124 net.cpp:406] h_14_lstm1_unit_14_1_split <- h_14
I1013 16:45:59.314724 12124 net.cpp:380] h_14_lstm1_unit_14_1_split -> h_14_lstm1_unit_14_1_split_0
I1013 16:45:59.314736 12124 net.cpp:380] h_14_lstm1_unit_14_1_split -> h_14_lstm1_unit_14_1_split_1
I1013 16:45:59.314787 12124 net.cpp:122] Setting up h_14_lstm1_unit_14_1_split
I1013 16:45:59.314800 12124 net.cpp:129] Top shape: 1 5 512 (2560)
I1013 16:45:59.314810 12124 net.cpp:129] Top shape: 1 5 512 (2560)
I1013 16:45:59.314816 12124 net.cpp:137] Memory required for data: 3360000
I1013 16:45:59.314823 12124 layer_factory.hpp:77] Creating layer lstm1_h_conted_14
I1013 16:45:59.314836 12124 net.cpp:84] Creating Layer lstm1_h_conted_14
I1013 16:45:59.314843 12124 net.cpp:406] lstm1_h_conted_14 <- h_14_lstm1_unit_14_1_split_0
I1013 16:45:59.314853 12124 net.cpp:406] lstm1_h_conted_14 <- cont_15_lstm1_cont_slice_14_split_0
I1013 16:45:59.314867 12124 net.cpp:380] lstm1_h_conted_14 -> h_conted_14
I1013 16:45:59.314944 12124 net.cpp:122] Setting up lstm1_h_conted_14
I1013 16:45:59.314956 12124 net.cpp:129] Top shape: 1 5 512 (2560)
I1013 16:45:59.314963 12124 net.cpp:137] Memory required for data: 3370240
I1013 16:45:59.314971 12124 layer_factory.hpp:77] Creating layer lstm1_transform_15
I1013 16:45:59.314983 12124 net.cpp:84] Creating Layer lstm1_transform_15
I1013 16:45:59.314992 12124 net.cpp:406] lstm1_transform_15 <- h_conted_14
I1013 16:45:59.315007 12124 net.cpp:380] lstm1_transform_15 -> W_hc_h_14
I1013 16:45:59.327136 12124 net.cpp:122] Setting up lstm1_transform_15
I1013 16:45:59.327157 12124 net.cpp:129] Top shape: 1 5 2048 (10240)
I1013 16:45:59.327164 12124 net.cpp:137] Memory required for data: 3411200
I1013 16:45:59.327179 12124 net.cpp:465] Sharing parameters 'W_hc' owned by layer 'lstm1_transform_1', param index 0
I1013 16:45:59.327188 12124 layer_factory.hpp:77] Creating layer lstm1_gate_input_15
I1013 16:45:59.327200 12124 net.cpp:84] Creating Layer lstm1_gate_input_15
I1013 16:45:59.327209 12124 net.cpp:406] lstm1_gate_input_15 <- W_hc_h_14
I1013 16:45:59.327219 12124 net.cpp:406] lstm1_gate_input_15 <- W_xc_x_15
I1013 16:45:59.327234 12124 net.cpp:380] lstm1_gate_input_15 -> gate_input_15
I1013 16:45:59.327275 12124 net.cpp:122] Setting up lstm1_gate_input_15
I1013 16:45:59.327288 12124 net.cpp:129] Top shape: 1 5 2048 (10240)
I1013 16:45:59.327296 12124 net.cpp:137] Memory required for data: 3452160
I1013 16:45:59.327303 12124 layer_factory.hpp:77] Creating layer lstm1_unit_15
I1013 16:45:59.327314 12124 net.cpp:84] Creating Layer lstm1_unit_15
I1013 16:45:59.327322 12124 net.cpp:406] lstm1_unit_15 <- c_14
I1013 16:45:59.327332 12124 net.cpp:406] lstm1_unit_15 <- gate_input_15
I1013 16:45:59.327342 12124 net.cpp:406] lstm1_unit_15 <- cont_15_lstm1_cont_slice_14_split_1
I1013 16:45:59.327353 12124 net.cpp:380] lstm1_unit_15 -> c_15
I1013 16:45:59.327369 12124 net.cpp:380] lstm1_unit_15 -> h_15
I1013 16:45:59.327433 12124 net.cpp:122] Setting up lstm1_unit_15
I1013 16:45:59.327446 12124 net.cpp:129] Top shape: 1 5 512 (2560)
I1013 16:45:59.327456 12124 net.cpp:129] Top shape: 1 5 512 (2560)
I1013 16:45:59.327463 12124 net.cpp:137] Memory required for data: 3472640
I1013 16:45:59.327471 12124 layer_factory.hpp:77] Creating layer h_15_lstm1_unit_15_1_split
I1013 16:45:59.327481 12124 net.cpp:84] Creating Layer h_15_lstm1_unit_15_1_split
I1013 16:45:59.327488 12124 net.cpp:406] h_15_lstm1_unit_15_1_split <- h_15
I1013 16:45:59.327499 12124 net.cpp:380] h_15_lstm1_unit_15_1_split -> h_15_lstm1_unit_15_1_split_0
I1013 16:45:59.327512 12124 net.cpp:380] h_15_lstm1_unit_15_1_split -> h_15_lstm1_unit_15_1_split_1
I1013 16:45:59.327564 12124 net.cpp:122] Setting up h_15_lstm1_unit_15_1_split
I1013 16:45:59.327577 12124 net.cpp:129] Top shape: 1 5 512 (2560)
I1013 16:45:59.327586 12124 net.cpp:129] Top shape: 1 5 512 (2560)
I1013 16:45:59.327594 12124 net.cpp:137] Memory required for data: 3493120
I1013 16:45:59.327600 12124 layer_factory.hpp:77] Creating layer lstm1_h_conted_15
I1013 16:45:59.327611 12124 net.cpp:84] Creating Layer lstm1_h_conted_15
I1013 16:45:59.327620 12124 net.cpp:406] lstm1_h_conted_15 <- h_15_lstm1_unit_15_1_split_0
I1013 16:45:59.327630 12124 net.cpp:406] lstm1_h_conted_15 <- cont_16_lstm1_cont_slice_15_split_0
I1013 16:45:59.327644 12124 net.cpp:380] lstm1_h_conted_15 -> h_conted_15
I1013 16:45:59.327720 12124 net.cpp:122] Setting up lstm1_h_conted_15
I1013 16:45:59.327733 12124 net.cpp:129] Top shape: 1 5 512 (2560)
I1013 16:45:59.327740 12124 net.cpp:137] Memory required for data: 3503360
I1013 16:45:59.327747 12124 layer_factory.hpp:77] Creating layer lstm1_transform_16
I1013 16:45:59.327759 12124 net.cpp:84] Creating Layer lstm1_transform_16
I1013 16:45:59.327767 12124 net.cpp:406] lstm1_transform_16 <- h_conted_15
I1013 16:45:59.327783 12124 net.cpp:380] lstm1_transform_16 -> W_hc_h_15
I1013 16:45:59.341558 12124 net.cpp:122] Setting up lstm1_transform_16
I1013 16:45:59.341737 12124 net.cpp:129] Top shape: 1 5 2048 (10240)
I1013 16:45:59.341778 12124 net.cpp:137] Memory required for data: 3544320
I1013 16:45:59.341801 12124 net.cpp:465] Sharing parameters 'W_hc' owned by layer 'lstm1_transform_1', param index 0
I1013 16:45:59.341831 12124 layer_factory.hpp:77] Creating layer lstm1_gate_input_16
I1013 16:45:59.341928 12124 net.cpp:84] Creating Layer lstm1_gate_input_16
I1013 16:45:59.341936 12124 net.cpp:406] lstm1_gate_input_16 <- W_hc_h_15
I1013 16:45:59.341948 12124 net.cpp:406] lstm1_gate_input_16 <- W_xc_x_16
I1013 16:45:59.341958 12124 net.cpp:380] lstm1_gate_input_16 -> gate_input_16
I1013 16:45:59.342010 12124 net.cpp:122] Setting up lstm1_gate_input_16
I1013 16:45:59.342023 12124 net.cpp:129] Top shape: 1 5 2048 (10240)
I1013 16:45:59.342031 12124 net.cpp:137] Memory required for data: 3585280
I1013 16:45:59.342038 12124 layer_factory.hpp:77] Creating layer lstm1_unit_16
I1013 16:45:59.342051 12124 net.cpp:84] Creating Layer lstm1_unit_16
I1013 16:45:59.342082 12124 net.cpp:406] lstm1_unit_16 <- c_15
I1013 16:45:59.342140 12124 net.cpp:406] lstm1_unit_16 <- gate_input_16
I1013 16:45:59.342176 12124 net.cpp:406] lstm1_unit_16 <- cont_16_lstm1_cont_slice_15_split_1
I1013 16:45:59.342269 12124 net.cpp:380] lstm1_unit_16 -> c_16
I1013 16:45:59.342326 12124 net.cpp:380] lstm1_unit_16 -> h_16
I1013 16:45:59.342720 12124 net.cpp:122] Setting up lstm1_unit_16
I1013 16:45:59.342804 12124 net.cpp:129] Top shape: 1 5 512 (2560)
I1013 16:45:59.342842 12124 net.cpp:129] Top shape: 1 5 512 (2560)
I1013 16:45:59.342869 12124 net.cpp:137] Memory required for data: 3605760
I1013 16:45:59.342882 12124 layer_factory.hpp:77] Creating layer lstm1_
I1013 16:45:59.342929 12124 net.cpp:84] Creating Layer lstm1_
I1013 16:45:59.342953 12124 net.cpp:406] lstm1_ <- c_16
I1013 16:45:59.342991 12124 net.cpp:380] lstm1_ -> c_T
I1013 16:45:59.343201 12124 net.cpp:122] Setting up lstm1_
I1013 16:45:59.343279 12124 net.cpp:129] Top shape: 1 5 512 (2560)
I1013 16:45:59.343303 12124 net.cpp:137] Memory required for data: 3616000
I1013 16:45:59.343327 12124 layer_factory.hpp:77] Creating layer lstm1_h_concat
I1013 16:45:59.343423 12124 net.cpp:84] Creating Layer lstm1_h_concat
I1013 16:45:59.343459 12124 net.cpp:406] lstm1_h_concat <- h_1_lstm1_unit_1_1_split_1
I1013 16:45:59.343471 12124 net.cpp:406] lstm1_h_concat <- h_2_lstm1_unit_2_1_split_1
…
I1013 16:45:59.347457 12124 net.cpp:200] lstm1_ does not need backward computation.
I1013 16:45:59.347479 12124 net.cpp:242] This network produces output c_T
I1013 16:45:59.347513 12124 net.cpp:242] This network produces output h_pseudoloss
I1013 16:45:59.370466 12124 net.cpp:255] Network initialization done.
I1013 16:45:59.371618 12124 recurrent_layer.cpp:150] Adding parameter 0: W_xc
I1013 16:45:59.371632 12124 recurrent_layer.cpp:150] Adding parameter 1: b_c
I1013 16:45:59.371639 12124 recurrent_layer.cpp:150] Adding parameter 2: W_hc
I1013 16:45:59.372593 12124 net.cpp:122] Setting up lstm1
I1013 16:45:59.372750 12124 net.cpp:129] Top shape: 16 5 512 (40960)
I1013 16:45:59.372799 12124 net.cpp:137] Memory required for data: 575939860
I1013 16:45:59.372876 12124 layer_factory.hpp:77] Creating layer lstm1-drop
I1013 16:45:59.372993 12124 net.cpp:84] Creating Layer lstm1-drop
I1013 16:45:59.373075 12124 net.cpp:406] lstm1-drop <- lstm1
I1013 16:45:59.373162 12124 net.cpp:380] lstm1-drop -> lstm1-drop
I1013 16:45:59.373492 12124 net.cpp:122] Setting up lstm1-drop
I1013 16:45:59.373596 12124 net.cpp:129] Top shape: 16 5 512 (40960)
I1013 16:45:59.373654 12124 net.cpp:137] Memory required for data: 576103700
I1013 16:45:59.373684 12124 layer_factory.hpp:77] Creating layer fc-final
I1013 16:45:59.373900 12124 net.cpp:84] Creating Layer fc-final
I1013 16:45:59.374035 12124 net.cpp:406] fc-final <- lstm1-drop
I1013 16:45:59.374104 12124 net.cpp:380] fc-final -> fc-final
I1013 16:45:59.375183 12124 net.cpp:122] Setting up fc-final
I1013 16:45:59.375300 12124 net.cpp:129] Top shape: 16 5 10 (800)
I1013 16:45:59.375345 12124 net.cpp:137] Memory required for data: 576106900
I1013 16:45:59.375397 12124 layer_factory.hpp:77] Creating layer fc-final_fc-final_0_split
I1013 16:45:59.375458 12124 net.cpp:84] Creating Layer fc-final_fc-final_0_split
I1013 16:45:59.375488 12124 net.cpp:406] fc-final_fc-final_0_split <- fc-final
I1013 16:45:59.375541 12124 net.cpp:380] fc-final_fc-final_0_split -> fc-final_fc-final_0_split_0
I1013 16:45:59.375655 12124 net.cpp:380] fc-final_fc-final_0_split -> fc-final_fc-final_0_split_1
I1013 16:45:59.375975 12124 net.cpp:122] Setting up fc-final_fc-final_0_split
I1013 16:45:59.376097 12124 net.cpp:129] Top shape: 16 5 10 (800)
I1013 16:45:59.376111 12124 net.cpp:129] Top shape: 16 5 10 (800)
I1013 16:45:59.376117 12124 net.cpp:137] Memory required for data: 576113300
I1013 16:45:59.376126 12124 layer_factory.hpp:77] Creating layer loss
I1013 16:45:59.376140 12124 net.cpp:84] Creating Layer loss
I1013 16:45:59.376148 12124 net.cpp:406] loss <- fc-final_fc-final_0_split_0
I1013 16:45:59.376158 12124 net.cpp:406] loss <- reshape-label_label_tran_0_split_0
I1013 16:45:59.376168 12124 net.cpp:380] loss -> loss
…
I1013 16:45:59.381037 12124 net.cpp:294] The NetState phase (1) differed from the phase (0) specified by a rule in layer data
I1013 16:45:59.381254 12124 net.cpp:51] Initializing net from parameters: 
name: "VGG-Places365"
state {
  phase: TEST
  stage: "test-on-test"
}
layer {
  name: "data"
  type: "ImageData"
  top: "data"
  top: "label"
  include {
    phase: TEST
  }
  transform_param {
    mirror: false
    crop_size: 224
    mean_value: 104
    mean_value: 117
    mean_value: 123
  }
  image_data_param {
    source: "../Data/lsun_val_list.txt"
    batch_size: 150
    new_height: 256
    new_width: 256
  }
}
layer {
  name: "Silence"
  type: "Silence"
  bottom: "label"
  include {
    phase: TEST
  }
}
layer {
  name: "label_tran"
  type: "Python"
  bottom: "label"
  top: "reshape-label"
  top: "clip_markers"
  python_param {
    module: "data_preparation_sp3_sort"
    layer: "ReshapeLabel"
  }
}
layer {
  name: "conv1_1"
  type: "Convolution"
  bottom: "data"
  top: "conv1_1"
  convolution_param {
    num_output: 64
    pad: 1
    kernel_size: 3
  }
}
layer {
  name: "relu1_1"
  type: "ReLU"
  bottom: "conv1_1"
  top: "conv1_1"
}
layer {
  name: "conv1_2"
  type: "Convolution"
  bottom: "conv1_1"
  top: "conv1_2"
  convolution_param {
    num_output: 64
    pad: 1
    kernel_size: 3
  }
}
layer {
  name: "relu1_2"
  type: "ReLU"
  bottom: "conv1_2"
  top: "conv1_2"
}
layer {
  name: "pool1"
  type: "Pooling"
  bottom: "conv1_2"
  top: "pool1"
  pooling_param {
    pool: MAX
    kernel_size: 2
    stride: 2
  }
}
layer {
  name: "conv2_1"
  type: "Convolution"
  bottom: "pool1"
  top: "conv2_1"
  convolution_param {
    num_output: 128
    pad: 1
    kernel_size: 3
  }
}
layer {
  name: "relu2_1"
  type: "ReLU"
  bottom: "conv2_1"
  top: "conv2_1"
}
layer {
  name: "conv2_2"
  type: "Convolution"
  bottom: "conv2_1"
  top: "conv2_2"
  convolution_param {
    num_output: 128
    pad: 1
    kernel_size: 3
  }
}
layer {
  name: "relu2_2"
  type: "ReLU"
  bottom: "conv2_2"
  top: "conv2_2"
}
layer {
  name: "pool2"
  type: "Pooling"
  bottom: "conv2_2"
  top: "pool2"
  pooling_param {
    pool: MAX
    kernel_size: 2
    stride: 2
  }
}
layer {
  name: "conv3_1"
  type: "Convolution"
  bottom: "pool2"
  top: "conv3_1"
  convolution_param {
    num_output: 256
    pad: 1
    kernel_size: 3
  }
}
layer {
  name: "relu3_1"
  type: "ReLU"
  bottom: "conv3_1"
  top: "conv3_1"
}
layer {
  name: "conv3_2"
  type: "Convolution"
  bottom: "conv3_1"
  top: "conv3_2"
  convolution_param {
    num_output: 256
    pad: 1
    kernel_size: 3
  }
}
layer {
  name: "relu3_2"
  type: "ReLU"
  bottom: "conv3_2"
  top: "conv3_2"
}
layer {
  name: "conv3_3"
  type: "Convolution"
  bottom: "conv3_2"
  top: "conv3_3"
  convolution_param {
    num_output: 256
    pad: 1
    kernel_size: 3
  }
}
layer {
  name: "relu3_3"
  type: "ReLU"
  bottom: "conv3_3"
  top: "conv3_3"
}
layer {
  name: "pool3"
  type: "Pooling"
  bottom: "conv3_3"
  top: "pool3"
  pooling_param {
    pool: MAX
    kernel_size: 2
    stride: 2
  }
}
layer {
  name: "conv4_1"
  type: "Convolution"
  bottom: "pool3"
  top: "conv4_1"
  convolution_param {
    num_output: 512
    pad: 1
    kernel_size: 3
  }
}
layer {
  name: "relu4_1"
  type: "ReLU"
  bottom: "conv4_1"
  top: "conv4_1"
}
layer {
  name: "conv4_2"
  type: "Convolution"
  bottom: "conv4_1"
  top: "conv4_2"
  convolution_param {
    num_output: 512
    pad: 1
    kernel_size: 3
  }
}
layer {
  name: "relu4_2"
  type: "ReLU"
  bottom: "conv4_2"
  top: "conv4_2"
}
layer {
  name: "conv4_3"
  type: "Convolution"
  bottom: "conv4_2"
  top: "conv4_3"
  convolution_param {
    num_output: 512
    pad: 1
    kernel_size: 3
  }
}
layer {
  name: "relu4_3"
  type: "ReLU"
  bottom: "conv4_3"
  top: "conv4_3"
}
layer {
  name: "pool4"
  type: "Pooling"
  bottom: "conv4_3"
  top: "pool4"
  pooling_param {
    pool: MAX
    kernel_size: 2
    stride: 2
  }
}
layer {
  name: "conv5_1"
  type: "Convolution"
  bottom: "pool4"
  top: "conv5_1"
  convolution_param {
    num_output: 512
    pad: 1
    kernel_size: 3
  }
}
layer {
  name: "relu5_1"
  type: "ReLU"
  bottom: "conv5_1"
  top: "conv5_1"
}
layer {
  name: "conv5_2"
  type: "Convolution"
  bottom: "conv5_1"
  top: "conv5_2"
  convolution_param {
    num_output: 512
    pad: 1
    kernel_size: 3
  }
}
layer {
  name: "relu5_2"
  type: "ReLU"
  bottom: "conv5_2"
  top: "conv5_2"
}
layer {
  name: "conv5_3"
  type: "Convolution"
  bottom: "conv5_2"
  top: "conv5_3"
  convolution_param {
    num_output: 512
    pad: 1
    kernel_size: 3
  }
}
layer {
  name: "relu5_3"
  type: "ReLU"
  bottom: "conv5_3"
  top: "conv5_3"
}
layer {
  name: "spp3x3"
  type: "SPP"
  bottom: "conv5_3"
  top: "spp3x3"
  spp_param {
    pyramid_height: 3
    pool: MAX
  }
}
layer {
  name: "spp_slice"
  type: "Slice"
  bottom: "spp3x3"
  top: "spp3x3_level3"
  top: "spp3x3_level2"
  top: "spp3x3_level1"
  slice_param {
    slice_point: 8192
    slice_point: 10240
    axis: 1
  }
}
layer {
  name: "Silence_spp"
  type: "Silence"
  bottom: "spp3x3_level1"
  bottom: "spp3x3_level2"
}
layer {
  name: "spp3x3_re"
  type: "Reshape"
  bottom: "spp3x3_level3"
  top: "spp3x3_re"
  reshape_param {
    shape {
      dim: 0
      dim: -1
      dim: 512
    }
  }
}
layer {
  name: "spp3x3_tran"
  type: "Python"
  bottom: "spp3x3_re"
  top: "spp3x3_tran"
  python_param {
    module: "data_preparation_sp3_sort"
    layer: "DataTransposeSortMax"
  }
}
layer {
  name: "lstm1"
  type: "LSTM"
  bottom: "spp3x3_tran"
  bottom: "clip_markers"
  top: "lstm1"
  recurrent_param {
    num_output: 512
    weight_filler {
      type: "uniform"
      min: -0.01
      max: 0.01
    }
    bias_filler {
      type: "constant"
      value: 0
    }
  }
}
layer {
  name: "lstm1-drop"
  type: "Dropout"
  bottom: "lstm1"
  top: "lstm1-drop"
  dropout_param {
    dropout_ratio: 0.5
  }
}
layer {
  name: "fc-final"
  type: "InnerProduct"
  bottom: "lstm1-drop"
  top: "fc-final"
  param {
    lr_mult: 1
    decay_mult: 1
  }
  param {
    lr_mult: 2
    decay_mult: 0
  }
  inner_product_param {
    num_output: 10
    weight_filler {
      type: "gaussian"
      std: 0.01
    }
    bias_filler {
      type: "constant"
      value: 0
    }
    axis: 2
  }
}
layer {
  name: "loss"
  type: "SoftmaxWithLoss"
  bottom: "fc-final"
  bottom: "reshape-label"
  top: "loss"
  softmax_param {
    axis: 2
  }
}
layer {
  name: "accuracy"
  type: "Accuracy"
  bottom: "fc-final"
  bottom: "reshape-label"
  top: "accuracy"
  accuracy_param {
    axis: 2
  }
}
I1013 16:45:59.381523 12124 layer_factory.hpp:77] Creating layer data
I1013 16:45:59.381549 12124 net.cpp:84] Creating Layer data
I1013 16:45:59.381559 12124 net.cpp:380] data -> data
I1013 16:45:59.381574 12124 net.cpp:380] data -> label
I1013 16:45:59.381590 12124 image_data_layer.cpp:38] Opening file ../Data/lsun_val_list.txt
I1013 16:45:59.383234 12124 image_data_layer.cpp:63] A total of 3000 images.
I1013 16:45:59.385720 12124 image_data_layer.cpp:90] output data size: 150,3,224,224
I1013 16:45:59.697801 12124 net.cpp:122] Setting up data
I1013 16:45:59.697849 12124 net.cpp:129] Top shape: 150 3 224 224 (22579200)
I1013 16:45:59.697859 12124 net.cpp:129] Top shape: 150 (150)
I1013 16:45:59.697863 12124 net.cpp:137] Memory required for data: 90317400
I1013 16:45:59.697873 12124 layer_factory.hpp:77] Creating layer label_data_1_split
I1013 16:45:59.697893 12124 net.cpp:84] Creating Layer label_data_1_split
I1013 16:45:59.697901 12124 net.cpp:406] label_data_1_split <- label
I1013 16:45:59.697914 12124 net.cpp:380] label_data_1_split -> label_data_1_split_0
I1013 16:45:59.697932 12124 net.cpp:380] label_data_1_split -> label_data_1_split_1
I1013 16:45:59.698101 12124 net.cpp:122] Setting up label_data_1_split
I1013 16:45:59.698155 12124 net.cpp:129] Top shape: 150 (150)
I1013 16:45:59.698168 12124 net.cpp:129] Top shape: 150 (150)
I1013 16:45:59.698177 12124 net.cpp:137] Memory required for data: 90318600
I1013 16:45:59.698189 12124 layer_factory.hpp:77] Creating layer Silence
I1013 16:45:59.698215 12124 net.cpp:84] Creating Layer Silence
I1013 16:45:59.698231 12124 net.cpp:406] Silence <- label_data_1_split_0
I1013 16:45:59.698248 12124 net.cpp:122] Setting up Silence
I1013 16:45:59.698256 12124 net.cpp:137] Memory required for data: 90318600
I1013 16:45:59.698266 12124 layer_factory.hpp:77] Creating layer label_tran
I1013 16:45:59.698365 12124 net.cpp:84] Creating Layer label_tran
I1013 16:45:59.698382 12124 net.cpp:406] label_tran <- label_data_1_split_1
I1013 16:45:59.698398 12124 net.cpp:380] label_tran -> reshape-label
I1013 16:45:59.698421 12124 net.cpp:380] label_tran -> clip_markers
I1013 16:45:59.698629 12124 net.cpp:122] Setting up label_tran
I1013 16:45:59.698655 12124 net.cpp:129] Top shape: 16 150 (2400)
I1013 16:45:59.698667 12124 net.cpp:129] Top shape: 16 150 (2400)
I1013 16:45:59.698675 12124 net.cpp:137] Memory required for data: 90337800
I1013 16:45:59.698684 12124 layer_factory.hpp:77] Creating layer reshape-label_label_tran_0_split
I1013 16:45:59.698700 12124 net.cpp:84] Creating Layer reshape-label_label_tran_0_split
I1013 16:45:59.698709 12124 net.cpp:406] reshape-label_label_tran_0_split <- reshape-label
I1013 16:45:59.698724 12124 net.cpp:380] reshape-label_label_tran_0_split -> reshape-label_label_tran_0_split_0
I1013 16:45:59.698740 12124 net.cpp:380] reshape-label_label_tran_0_split -> reshape-label_label_tran_0_split_1
I1013 16:45:59.698810 12124 net.cpp:122] Setting up reshape-label_label_tran_0_split
I1013 16:45:59.698827 12124 net.cpp:129] Top shape: 16 150 (2400)
I1013 16:45:59.698837 12124 net.cpp:129] Top shape: 16 150 (2400)
I1013 16:45:59.698845 12124 net.cpp:137] Memory required for data: 90357000
I1013 16:45:59.698854 12124 layer_factory.hpp:77] Creating layer conv1_1
I1013 16:45:59.698873 12124 net.cpp:84] Creating Layer conv1_1
I1013 16:45:59.698884 12124 net.cpp:406] conv1_1 <- data
I1013 16:45:59.698896 12124 net.cpp:380] conv1_1 -> conv1_1
I1013 16:45:59.700659 12124 net.cpp:122] Setting up conv1_1
I1013 16:45:59.700692 12124 net.cpp:129] Top shape: 150 64 224 224 (481689600)
I1013 16:45:59.700702 12124 net.cpp:137] Memory required for data: 2017115400
I1013 16:45:59.700729 12124 layer_factory.hpp:77] Creating layer relu1_1
I1013 16:45:59.700754 12124 net.cpp:84] Creating Layer relu1_1
I1013 16:45:59.700765 12124 net.cpp:406] relu1_1 <- conv1_1
I1013 16:45:59.700780 12124 net.cpp:367] relu1_1 -> conv1_1 (in-place)
I1013 16:45:59.700804 12124 net.cpp:122] Setting up relu1_1
I1013 16:45:59.700821 12124 net.cpp:129] Top shape: 150 64 224 224 (481689600)
I1013 16:45:59.700830 12124 net.cpp:137] Memory required for data: 3943873800
I1013 16:45:59.700839 12124 layer_factory.hpp:77] Creating layer conv1_2
I1013 16:45:59.700855 12124 net.cpp:84] Creating Layer conv1_2
I1013 16:45:59.700866 12124 net.cpp:406] conv1_2 <- conv1_1
I1013 16:45:59.700880 12124 net.cpp:380] conv1_2 -> conv1_2
I1013 16:45:59.701627 12124 net.cpp:122] Setting up conv1_2
I1013 16:45:59.701650 12124 net.cpp:129] Top shape: 150 64 224 224 (481689600)
I1013 16:45:59.701659 12124 net.cpp:137] Memory required for data: 5870632200
I1013 16:45:59.701680 12124 layer_factory.hpp:77] Creating layer relu1_2
I1013 16:45:59.701696 12124 net.cpp:84] Creating Layer relu1_2
I1013 16:45:59.701706 12124 net.cpp:406] relu1_2 <- conv1_2
I1013 16:45:59.701720 12124 net.cpp:367] relu1_2 -> conv1_2 (in-place)
I1013 16:45:59.701735 12124 net.cpp:122] Setting up relu1_2
I1013 16:45:59.701746 12124 net.cpp:129] Top shape: 150 64 224 224 (481689600)
I1013 16:45:59.701756 12124 net.cpp:137] Memory required for data: 7797390600
I1013 16:45:59.701763 12124 layer_factory.hpp:77] Creating layer pool1
I1013 16:45:59.701778 12124 net.cpp:84] Creating Layer pool1
I1013 16:45:59.701786 12124 net.cpp:406] pool1 <- conv1_2
I1013 16:45:59.701799 12124 net.cpp:380] pool1 -> pool1
I1013 16:45:59.701877 12124 net.cpp:122] Setting up pool1
I1013 16:45:59.701894 12124 net.cpp:129] Top shape: 150 64 112 112 (120422400)
I1013 16:45:59.701903 12124 net.cpp:137] Memory required for data: 8279080200
I1013 16:45:59.701912 12124 layer_factory.hpp:77] Creating layer conv2_1
I1013 16:45:59.701927 12124 net.cpp:84] Creating Layer conv2_1
I1013 16:45:59.701936 12124 net.cpp:406] conv2_1 <- pool1
I1013 16:45:59.701949 12124 net.cpp:380] conv2_1 -> conv2_1
I1013 16:45:59.703660 12124 net.cpp:122] Setting up conv2_1
I1013 16:45:59.703689 12124 net.cpp:129] Top shape: 150 128 112 112 (240844800)
I1013 16:45:59.703699 12124 net.cpp:137] Memory required for data: 9242459400
I1013 16:45:59.703721 12124 layer_factory.hpp:77] Creating layer relu2_1
I1013 16:45:59.703735 12124 net.cpp:84] Creating Layer relu2_1
I1013 16:45:59.703745 12124 net.cpp:406] relu2_1 <- conv2_1
I1013 16:45:59.703759 12124 net.cpp:367] relu2_1 -> conv2_1 (in-place)
I1013 16:45:59.703776 12124 net.cpp:122] Setting up relu2_1
I1013 16:45:59.703788 12124 net.cpp:129] Top shape: 150 128 112 112 (240844800)
I1013 16:45:59.703795 12124 net.cpp:137] Memory required for data: 10205838600
I1013 16:45:59.703804 12124 layer_factory.hpp:77] Creating layer conv2_2
I1013 16:45:59.703819 12124 net.cpp:84] Creating Layer conv2_2
I1013 16:45:59.703829 12124 net.cpp:406] conv2_2 <- conv2_1
I1013 16:45:59.703841 12124 net.cpp:380] conv2_2 -> conv2_2
I1013 16:45:59.713543 12124 net.cpp:122] Setting up conv2_2
I1013 16:45:59.713560 12124 net.cpp:129] Top shape: 150 128 112 112 (240844800)
I1013 16:45:59.713565 12124 net.cpp:137] Memory required for data: 11169217800
I1013 16:45:59.713574 12124 layer_factory.hpp:77] Creating layer relu2_2
I1013 16:45:59.713582 12124 net.cpp:84] Creating Layer relu2_2
I1013 16:45:59.713587 12124 net.cpp:406] relu2_2 <- conv2_2
I1013 16:45:59.713598 12124 net.cpp:367] relu2_2 -> conv2_2 (in-place)
I1013 16:45:59.713606 12124 net.cpp:122] Setting up relu2_2
I1013 16:45:59.713613 12124 net.cpp:129] Top shape: 150 128 112 112 (240844800)
I1013 16:45:59.713618 12124 net.cpp:137] Memory required for data: 12132597000
I1013 16:45:59.713623 12124 layer_factory.hpp:77] Creating layer pool2
I1013 16:45:59.713630 12124 net.cpp:84] Creating Layer pool2
I1013 16:45:59.713634 12124 net.cpp:406] pool2 <- conv2_2
I1013 16:45:59.713642 12124 net.cpp:380] pool2 -> pool2
I1013 16:45:59.713685 12124 net.cpp:122] Setting up pool2
I1013 16:45:59.713696 12124 net.cpp:129] Top shape: 150 128 56 56 (60211200)
I1013 16:45:59.713699 12124 net.cpp:137] Memory required for data: 12373441800
I1013 16:45:59.713704 12124 layer_factory.hpp:77] Creating layer conv3_1
I1013 16:45:59.713713 12124 net.cpp:84] Creating Layer conv3_1
I1013 16:45:59.713718 12124 net.cpp:406] conv3_1 <- pool2
I1013 16:45:59.713726 12124 net.cpp:380] conv3_1 -> conv3_1
I1013 16:45:59.715060 12124 net.cpp:122] Setting up conv3_1
I1013 16:45:59.715078 12124 net.cpp:129] Top shape: 150 256 56 56 (120422400)
I1013 16:45:59.715083 12124 net.cpp:137] Memory required for data: 12855131400
I1013 16:45:59.715096 12124 layer_factory.hpp:77] Creating layer relu3_1
I1013 16:45:59.715106 12124 net.cpp:84] Creating Layer relu3_1
I1013 16:45:59.715118 12124 net.cpp:406] relu3_1 <- conv3_1
I1013 16:45:59.715126 12124 net.cpp:367] relu3_1 -> conv3_1 (in-place)
I1013 16:45:59.715135 12124 net.cpp:122] Setting up relu3_1
I1013 16:45:59.715142 12124 net.cpp:129] Top shape: 150 256 56 56 (120422400)
I1013 16:45:59.715147 12124 net.cpp:137] Memory required for data: 13336821000
I1013 16:45:59.715152 12124 layer_factory.hpp:77] Creating layer conv3_2
I1013 16:45:59.715160 12124 net.cpp:84] Creating Layer conv3_2
I1013 16:45:59.715164 12124 net.cpp:406] conv3_2 <- conv3_1
I1013 16:45:59.715173 12124 net.cpp:380] conv3_2 -> conv3_2
I1013 16:45:59.718452 12124 net.cpp:122] Setting up conv3_2
I1013 16:45:59.718637 12124 net.cpp:129] Top shape: 150 256 56 56 (120422400)
I1013 16:45:59.718662 12124 net.cpp:137] Memory required for data: 13818510600
I1013 16:45:59.718711 12124 layer_factory.hpp:77] Creating layer relu3_2
I1013 16:45:59.718803 12124 net.cpp:84] Creating Layer relu3_2
I1013 16:45:59.718828 12124 net.cpp:406] relu3_2 <- conv3_2
I1013 16:45:59.718870 12124 net.cpp:367] relu3_2 -> conv3_2 (in-place)
I1013 16:45:59.718909 12124 net.cpp:122] Setting up relu3_2
I1013 16:45:59.718940 12124 net.cpp:129] Top shape: 150 256 56 56 (120422400)
I1013 16:45:59.718966 12124 net.cpp:137] Memory required for data: 14300200200
I1013 16:45:59.718976 12124 layer_factory.hpp:77] Creating layer conv3_3
I1013 16:45:59.719013 12124 net.cpp:84] Creating Layer conv3_3
I1013 16:45:59.719034 12124 net.cpp:406] conv3_3 <- conv3_2
I1013 16:45:59.719066 12124 net.cpp:380] conv3_3 -> conv3_3
I1013 16:45:59.728549 12124 net.cpp:122] Setting up conv3_3
I1013 16:45:59.728689 12124 net.cpp:129] Top shape: 150 256 56 56 (120422400)
I1013 16:45:59.728714 12124 net.cpp:137] Memory required for data: 14781889800
I1013 16:45:59.728749 12124 layer_factory.hpp:77] Creating layer relu3_3
I1013 16:45:59.728785 12124 net.cpp:84] Creating Layer relu3_3
I1013 16:45:59.728799 12124 net.cpp:406] relu3_3 <- conv3_3
I1013 16:45:59.728833 12124 net.cpp:367] relu3_3 -> conv3_3 (in-place)
I1013 16:45:59.728870 12124 net.cpp:122] Setting up relu3_3
I1013 16:45:59.728893 12124 net.cpp:129] Top shape: 150 256 56 56 (120422400)
I1013 16:45:59.728901 12124 net.cpp:137] Memory required for data: 15263579400
I1013 16:45:59.728919 12124 layer_factory.hpp:77] Creating layer pool3
I1013 16:45:59.728943 12124 net.cpp:84] Creating Layer pool3
I1013 16:45:59.728965 12124 net.cpp:406] pool3 <- conv3_3
I1013 16:45:59.728986 12124 net.cpp:380] pool3 -> pool3
I1013 16:45:59.729219 12124 net.cpp:122] Setting up pool3
I1013 16:45:59.729306 12124 net.cpp:129] Top shape: 150 256 28 28 (30105600)
I1013 16:45:59.729310 12124 net.cpp:137] Memory required for data: 15384001800
I1013 16:45:59.729315 12124 layer_factory.hpp:77] Creating layer conv4_1
I1013 16:45:59.729326 12124 net.cpp:84] Creating Layer conv4_1
I1013 16:45:59.729331 12124 net.cpp:406] conv4_1 <- pool3
I1013 16:45:59.729339 12124 net.cpp:380] conv4_1 -> conv4_1
I1013 16:45:59.738188 12124 net.cpp:122] Setting up conv4_1
I1013 16:45:59.738204 12124 net.cpp:129] Top shape: 150 512 28 28 (60211200)
I1013 16:45:59.738210 12124 net.cpp:137] Memory required for data: 15624846600
I1013 16:45:59.738219 12124 layer_factory.hpp:77] Creating layer relu4_1
I1013 16:45:59.738227 12124 net.cpp:84] Creating Layer relu4_1
I1013 16:45:59.738234 12124 net.cpp:406] relu4_1 <- conv4_1
I1013 16:45:59.738240 12124 net.cpp:367] relu4_1 -> conv4_1 (in-place)
I1013 16:45:59.738250 12124 net.cpp:122] Setting up relu4_1
I1013 16:45:59.738255 12124 net.cpp:129] Top shape: 150 512 28 28 (60211200)
I1013 16:45:59.738260 12124 net.cpp:137] Memory required for data: 15865691400
I1013 16:45:59.738265 12124 layer_factory.hpp:77] Creating layer conv4_2
I1013 16:45:59.738274 12124 net.cpp:84] Creating Layer conv4_2
I1013 16:45:59.738279 12124 net.cpp:406] conv4_2 <- conv4_1
I1013 16:45:59.738286 12124 net.cpp:380] conv4_2 -> conv4_2
I1013 16:45:59.745154 12124 net.cpp:122] Setting up conv4_2
I1013 16:45:59.745193 12124 net.cpp:129] Top shape: 150 512 28 28 (60211200)
I1013 16:45:59.745203 12124 net.cpp:137] Memory required for data: 16106536200
I1013 16:45:59.745227 12124 layer_factory.hpp:77] Creating layer relu4_2
I1013 16:45:59.745245 12124 net.cpp:84] Creating Layer relu4_2
I1013 16:45:59.745255 12124 net.cpp:406] relu4_2 <- conv4_2
I1013 16:45:59.745268 12124 net.cpp:367] relu4_2 -> conv4_2 (in-place)
I1013 16:45:59.745285 12124 net.cpp:122] Setting up relu4_2
I1013 16:45:59.745295 12124 net.cpp:129] Top shape: 150 512 28 28 (60211200)
I1013 16:45:59.745302 12124 net.cpp:137] Memory required for data: 16347381000
I1013 16:45:59.745309 12124 layer_factory.hpp:77] Creating layer conv4_3
I1013 16:45:59.745324 12124 net.cpp:84] Creating Layer conv4_3
I1013 16:45:59.745332 12124 net.cpp:406] conv4_3 <- conv4_2
I1013 16:45:59.745344 12124 net.cpp:380] conv4_3 -> conv4_3
I1013 16:45:59.763283 12124 net.cpp:122] Setting up conv4_3
I1013 16:45:59.763461 12124 net.cpp:129] Top shape: 150 512 28 28 (60211200)
I1013 16:45:59.763474 12124 net.cpp:137] Memory required for data: 16588225800
I1013 16:45:59.763525 12124 layer_factory.hpp:77] Creating layer relu4_3
I1013 16:45:59.763578 12124 net.cpp:84] Creating Layer relu4_3
I1013 16:45:59.763599 12124 net.cpp:406] relu4_3 <- conv4_3
I1013 16:45:59.763640 12124 net.cpp:367] relu4_3 -> conv4_3 (in-place)
I1013 16:45:59.763692 12124 net.cpp:122] Setting up relu4_3
I1013 16:45:59.763744 12124 net.cpp:129] Top shape: 150 512 28 28 (60211200)
I1013 16:45:59.763756 12124 net.cpp:137] Memory required for data: 16829070600
I1013 16:45:59.763767 12124 layer_factory.hpp:77] Creating layer pool4
I1013 16:45:59.763795 12124 net.cpp:84] Creating Layer pool4
I1013 16:45:59.763811 12124 net.cpp:406] pool4 <- conv4_3
I1013 16:45:59.763839 12124 net.cpp:380] pool4 -> pool4
I1013 16:45:59.764127 12124 net.cpp:122] Setting up pool4
I1013 16:45:59.764217 12124 net.cpp:129] Top shape: 150 512 14 14 (15052800)
I1013 16:45:59.764233 12124 net.cpp:137] Memory required for data: 16889281800
I1013 16:45:59.764245 12124 layer_factory.hpp:77] Creating layer conv5_1
I1013 16:45:59.764295 12124 net.cpp:84] Creating Layer conv5_1
I1013 16:45:59.764341 12124 net.cpp:406] conv5_1 <- pool4
I1013 16:45:59.764376 12124 net.cpp:380] conv5_1 -> conv5_1
I1013 16:45:59.773347 12124 net.cpp:122] Setting up conv5_1
I1013 16:45:59.773368 12124 net.cpp:129] Top shape: 150 512 14 14 (15052800)
I1013 16:45:59.773375 12124 net.cpp:137] Memory required for data: 16949493000
I1013 16:45:59.773383 12124 layer_factory.hpp:77] Creating layer relu5_1
I1013 16:45:59.773393 12124 net.cpp:84] Creating Layer relu5_1
I1013 16:45:59.773398 12124 net.cpp:406] relu5_1 <- conv5_1
I1013 16:45:59.773411 12124 net.cpp:367] relu5_1 -> conv5_1 (in-place)
I1013 16:45:59.773421 12124 net.cpp:122] Setting up relu5_1
I1013 16:45:59.773427 12124 net.cpp:129] Top shape: 150 512 14 14 (15052800)
I1013 16:45:59.773432 12124 net.cpp:137] Memory required for data: 17009704200
I1013 16:45:59.773437 12124 layer_factory.hpp:77] Creating layer conv5_2
I1013 16:45:59.773449 12124 net.cpp:84] Creating Layer conv5_2
I1013 16:45:59.773455 12124 net.cpp:406] conv5_2 <- conv5_1
I1013 16:45:59.773463 12124 net.cpp:380] conv5_2 -> conv5_2
I1013 16:45:59.783357 12124 net.cpp:122] Setting up conv5_2
I1013 16:45:59.783409 12124 net.cpp:129] Top shape: 150 512 14 14 (15052800)
I1013 16:45:59.783421 12124 net.cpp:137] Memory required for data: 17069915400
I1013 16:45:59.783440 12124 layer_factory.hpp:77] Creating layer relu5_2
I1013 16:45:59.783481 12124 net.cpp:84] Creating Layer relu5_2
I1013 16:45:59.783499 12124 net.cpp:406] relu5_2 <- conv5_2
I1013 16:45:59.783516 12124 net.cpp:367] relu5_2 -> conv5_2 (in-place)
I1013 16:45:59.783537 12124 net.cpp:122] Setting up relu5_2
I1013 16:45:59.783550 12124 net.cpp:129] Top shape: 150 512 14 14 (15052800)
I1013 16:45:59.783560 12124 net.cpp:137] Memory required for data: 17130126600
I1013 16:45:59.783567 12124 layer_factory.hpp:77] Creating layer conv5_3
I1013 16:45:59.783589 12124 net.cpp:84] Creating Layer conv5_3
I1013 16:45:59.783602 12124 net.cpp:406] conv5_3 <- conv5_2
I1013 16:45:59.783617 12124 net.cpp:380] conv5_3 -> conv5_3
I1013 16:45:59.805454 12124 net.cpp:122] Setting up conv5_3
I1013 16:45:59.805496 12124 net.cpp:129] Top shape: 150 512 14 14 (15052800)
I1013 16:45:59.805502 12124 net.cpp:137] Memory required for data: 17190337800
I1013 16:45:59.805513 12124 layer_factory.hpp:77] Creating layer relu5_3
I1013 16:45:59.805534 12124 net.cpp:84] Creating Layer relu5_3
I1013 16:45:59.805542 12124 net.cpp:406] relu5_3 <- conv5_3
I1013 16:45:59.805553 12124 net.cpp:367] relu5_3 -> conv5_3 (in-place)
I1013 16:45:59.805567 12124 net.cpp:122] Setting up relu5_3
I1013 16:45:59.805574 12124 net.cpp:129] Top shape: 150 512 14 14 (15052800)
I1013 16:45:59.805578 12124 net.cpp:137] Memory required for data: 17250549000
I1013 16:45:59.805583 12124 layer_factory.hpp:77] Creating layer spp3x3
I1013 16:45:59.805595 12124 net.cpp:84] Creating Layer spp3x3
I1013 16:45:59.805600 12124 net.cpp:406] spp3x3 <- conv5_3
I1013 16:45:59.805608 12124 net.cpp:380] spp3x3 -> spp3x3
I1013 16:45:59.806012 12124 net.cpp:122] Setting up spp3x3
I1013 16:45:59.806031 12124 net.cpp:129] Top shape: 150 10752 (1612800)
I1013 16:45:59.806041 12124 net.cpp:137] Memory required for data: 17257000200
I1013 16:45:59.806049 12124 layer_factory.hpp:77] Creating layer spp_slice
I1013 16:45:59.806064 12124 net.cpp:84] Creating Layer spp_slice
I1013 16:45:59.806077 12124 net.cpp:406] spp_slice <- spp3x3
I1013 16:45:59.806092 12124 net.cpp:380] spp_slice -> spp3x3_level3
I1013 16:45:59.806103 12124 net.cpp:380] spp_slice -> spp3x3_level2
I1013 16:45:59.806113 12124 net.cpp:380] spp_slice -> spp3x3_level1
I1013 16:45:59.806187 12124 net.cpp:122] Setting up spp_slice
I1013 16:45:59.806203 12124 net.cpp:129] Top shape: 150 8192 (1228800)
I1013 16:45:59.806210 12124 net.cpp:129] Top shape: 150 2048 (307200)
I1013 16:45:59.806215 12124 net.cpp:129] Top shape: 150 512 (76800)
I1013 16:45:59.806221 12124 net.cpp:137] Memory required for data: 17263451400
I1013 16:45:59.806227 12124 layer_factory.hpp:77] Creating layer Silence_spp
I1013 16:45:59.806236 12124 net.cpp:84] Creating Layer Silence_spp
I1013 16:45:59.806241 12124 net.cpp:406] Silence_spp <- spp3x3_level1
I1013 16:45:59.806248 12124 net.cpp:406] Silence_spp <- spp3x3_level2
I1013 16:45:59.806257 12124 net.cpp:122] Setting up Silence_spp
I1013 16:45:59.806263 12124 net.cpp:137] Memory required for data: 17263451400
I1013 16:45:59.806270 12124 layer_factory.hpp:77] Creating layer spp3x3_re
I1013 16:45:59.806284 12124 net.cpp:84] Creating Layer spp3x3_re
I1013 16:45:59.806290 12124 net.cpp:406] spp3x3_re <- spp3x3_level3
I1013 16:45:59.806300 12124 net.cpp:380] spp3x3_re -> spp3x3_re
I1013 16:45:59.806339 12124 net.cpp:122] Setting up spp3x3_re
I1013 16:45:59.806354 12124 net.cpp:129] Top shape: 150 16 512 (1228800)
I1013 16:45:59.806361 12124 net.cpp:137] Memory required for data: 17268366600
I1013 16:45:59.806366 12124 layer_factory.hpp:77] Creating layer spp3x3_tran
I1013 16:45:59.806502 12124 net.cpp:84] Creating Layer spp3x3_tran
I1013 16:45:59.806514 12124 net.cpp:406] spp3x3_tran <- spp3x3_re
I1013 16:45:59.806522 12124 net.cpp:380] spp3x3_tran -> spp3x3_tran
I1013 16:45:59.809515 12124 net.cpp:122] Setting up spp3x3_tran
I1013 16:45:59.809536 12124 net.cpp:129] Top shape: 16 150 512 (1228800)
I1013 16:45:59.809542 12124 net.cpp:137] Memory required for data: 17273281800
I1013 16:45:59.809548 12124 layer_factory.hpp:77] Creating layer lstm1
I1013 16:45:59.809561 12124 net.cpp:84] Creating Layer lstm1
I1013 16:45:59.809567 12124 net.cpp:406] lstm1 <- spp3x3_tran
I1013 16:45:59.809576 12124 net.cpp:406] lstm1 <- clip_markers
I1013 16:45:59.809587 12124 net.cpp:380] lstm1 -> lstm1
I1013 16:45:59.809597 12124 recurrent_layer.cpp:20] Initializing recurrent layer: assuming input batch contains 16 timesteps of 150 independent streams.
I1013 16:45:59.810365 12124 net.cpp:51] Initializing net from parameters: 
layer {
  name: "lstm1_"
  type: "Input"
  top: "x"
  top: "cont"
  input_param {
    shape {
      dim: 16
      dim: 150
      dim: 512
    }
    shape {
      dim: 16
      dim: 150
    }
  }
}
layer {
  name: "lstm1_"
  type: "Input"
  top: "c_0"
  top: "h_0"
  input_param {
    shape {
      dim: 1
      dim: 150
      dim: 512
    }
    shape {
      dim: 1
      dim: 150
      dim: 512
    }
  }
}
layer {
  name: "lstm1_cont_slice"
  type: "Slice"
  bottom: "cont"
  top: "cont_1"
  top: "cont_2"
  top: "cont_3"
  top: "cont_4"
  top: "cont_5"
  top: "cont_6"
  top: "cont_7"
  top: "cont_8"
  top: "cont_9"
  top: "cont_10"
  top: "cont_11"
  top: "cont_12"
  top: "cont_13"
  top: "cont_14"
  top: "cont_15"
  top: "cont_16"
  slice_param {
    axis: 0
  }
}
layer {
  name: "lstm1_x_transform"
  type: "InnerProduct"
  bottom: "x"
  top: "W_xc_x"
  param {
    name: "W_xc"
  }
  param {
    name: "b_c"
  }
  propagate_down: true
  inner_product_param {
    num_output: 2048
    bias_term: true
    weight_filler {
      type: "uniform"
      min: -0.01
      max: 0.01
    }
    bias_filler {
      type: "constant"
      value: 0
    }
    axis: 2
  }
}
layer {
  name: "lstm1_W_xc_x_slice"
  type: "Slice"
  bottom: "W_xc_x"
  top: "W_xc_x_1"
  top: "W_xc_x_2"
  top: "W_xc_x_3"
  top: "W_xc_x_4"
  top: "W_xc_x_5"
  top: "W_xc_x_6"
  top: "W_xc_x_7"
  top: "W_xc_x_8"
  top: "W_xc_x_9"
  top: "W_xc_x_10"
  top: "W_xc_x_11"
  top: "W_xc_x_12"
  top: "W_xc_x_13"
  top: "W_xc_x_14"
  top: "W_xc_x_15"
  top: "W_xc_x_16"
  slice_param {
    axis: 0
  }
}
layer {
  name: "lstm1_h_conted_0"
  type: "Scale"
  bottom: "h_0"
  bottom: "cont_1"
  top: "h_conted_0"
  scale_param {
    axis: 0
  }
}
layer {
  name: "lstm1_transform_1"
  type: "InnerProduct"
  bottom: "h_conted_0"
  top: "W_hc_h_0"
  param {
    name: "W_hc"
  }
  inner_product_param {
    num_output: 2048
    bias_term: false
    weight_filler {
      type: "uniform"
      min: -0.01
      max: 0.01
    }
    axis: 2
  }
}
layer {
  name: "lstm1_gate_input_1"
  type: "Eltwise"
  bottom: "W_hc_h_0"
  bottom: "W_xc_x_1"
  top: "gate_input_1"
  eltwise_param {
    operation: SUM
  }
}
layer {
  name: "lstm1_unit_1"
  type: "LSTMUnit"
  bottom: "c_0"
  bottom: "gate_input_1"
  bottom: "cont_1"
  top: "c_1"
  top: "h_1"
}
layer {
  name: "lstm1_h_conted_1"
  type: "Scale"
  bottom: "h_1"
  bottom: "cont_2"
  top: "h_conted_1"
  scale_param {
    axis: 0
  }
}
layer {
  name: "lstm1_transform_2"
  type: "InnerProduct"
  bottom: "h_conted_1"
  top: "W_hc_h_1"
  param {
    name: "W_hc"
  }
  inner_product_param {
    num_output: 2048
    bias_term: false
    weight_filler {
      type: "uniform"
      min: -0.01
      max: 0.01
    }
    axis: 2
  }
}
layer {
  name: "lstm1_gate_input_2"
  type: "Eltwise"
  bottom: "W_hc_h_1"
  bottom: "W_xc_x_2"
  top: "gate_input_2"
  eltwise_param {
    operation: SUM
  }
}
layer {
  name: "lstm1_unit_2"
  type: "LSTMUnit"
  bottom: "c_1"
  bottom: "gate_input_2"
  bottom: "cont_2"
  top: "c_2"
  top: "h_2"
}
layer {
  name: "lstm1_h_conted_2"
  type: "Scale"
  bottom: "h_2"
  bottom: "cont_3"
  top: "h_conted_2"
  scale_param {
    axis: 0
  }
}
layer {
  name: "lstm1_transform_3"
  type: "InnerProduct"
  bottom: "h_conted_2"
  top: "W_hc_h_2"
  param {
    name: "W_hc"
  }
  inner_product_param {
    num_output: 2048
    bias_term: false
    weight_filler {
      type: "uniform"
      min: -0.01
      max: 0.01
    }
    axis: 2
  }
}
layer {
  name: "lstm1_gate_input_3"
  type: "Eltwise"
  bottom: "W_hc_h_2"
  bottom: "W_xc_x_3"
  top: "gate_input_3"
  eltwise_param {
    operation: SUM
  }
}
layer {
  name: "lstm1_unit_3"
  type: "LSTMUnit"
  bottom: "c_2"
  bottom: "gate_input_3"
  bottom: "cont_3"
  top: "c_3"
  top: "h_3"
}
layer {
  name: "lstm1_h_conted_3"
  type: "Scale"
  bottom: "h_3"
  bottom: "cont_4"
  top: "h_conted_3"
  scale_param {
    axis: 0
  }
}
layer {
  name: "lstm1_transform_4"
  type: "InnerProduct"
  bottom: "h_conted_3"
  top: "W_hc_h_3"
  param {
    name: "W_hc"
  }
  inner_product_param {
    num_output: 2048
    bias_term: false
    weight_filler {
      type: "uniform"
      min: -0.01
      max: 0.01
    }
    axis: 2
  }
}
layer {
  name: "lstm1_gate_input_4"
  type: "Eltwise"
  bottom: "W_hc_h_3"
  bottom: "W_xc_x_4"
  top: "gate_input_4"
  eltwise_param {
    operation: SUM
  }
}
layer {
  name: "lstm1_unit_4"
  type: "LSTMUnit"
  bottom: "c_3"
  bottom: "gate_input_4"
  bottom: "cont_4"
  top: "c_4"
  top: "h_4"
}
layer {
  name: "lstm1_h_conted_4"
  type: "Scale"
  bottom: "h_4"
  bottom: "cont_5"
  top: "h_conted_4"
  scale_param {
    axis: 0
  }
}
layer {
  name: "lstm1_transform_5"
  type: "InnerProduct"
  bottom: "h_conted_4"
  top: "W_hc_h_4"
  param {
    name: "W_hc"
  }
  inner_product_param {
    num_output: 2048
    bias_term: false
    weight_filler {
      type: "uniform"
      min: -0.01
      max: 0.01
    }
    axis: 2
  }
}
layer {
  name: "lstm1_gate_input_5"
  type: "Eltwise"
  bottom: "W_hc_h_4"
  bottom: "W_xc_x_5"
  top: "gate_input_5"
  eltwise_param {
    operation: SUM
  }
}
layer {
  name: "lstm1_unit_5"
  type: "LSTMUnit"
  bottom: "c_4"
  bottom: "gate_input_5"
  bottom: "cont_5"
  top: "c_5"
  top: "h_5"
}
layer {
  name: "lstm1_h_conted_5"
  type: "Scale"
  bottom: "h_5"
  bottom: "cont_6"
  top: "h_conted_5"
  scale_param {
    axis: 0
  }
}
layer {
  name: "lstm1_transform_6"
  type: "InnerProduct"
  bottom: "h_conted_5"
  top: "W_hc_h_5"
  param {
    name: "W_hc"
  }
  inner_product_param {
    num_output: 2048
    bias_term: false
    weight_filler {
      type: "uniform"
      min: -0.01
      max: 0.01
    }
    axis: 2
  }
}
layer {
  name: "lstm1_gate_input_6"
  type: "Eltwise"
  bottom: "W_hc_h_5"
  bottom: "W_xc_x_6"
  top: "gate_input_6"
  eltwise_param {
    operation: SUM
  }
}
layer {
  name: "lstm1_unit_6"
  type: "LSTMUnit"
  bottom: "c_5"
  bottom: "gate_input_6"
  bottom: "cont_6"
  top: "c_6"
  top: "h_6"
}
layer {
  name: "lstm1_h_conted_6"
  type: "Scale"
  bottom: "h_6"
  bottom: "cont_7"
  top: "h_conted_6"
  scale_param {
    axis: 0
  }
}
layer {
  name: "lstm1_transform_7"
  type: "InnerProduct"
  bottom: "h_conted_6"
  top: "W_hc_h_6"
  param {
    name: "W_hc"
  }
  inner_product_param {
    num_output: 2048
    bias_term: false
    weight_filler {
      type: "uniform"
      min: -0.01
      max: 0.01
    }
    axis: 2
  }
}
layer {
  name: "lstm1_gate_input_7"
  type: "Eltwise"
  bottom: "W_hc_h_6"
  bottom: "W_xc_x_7"
  top: "gate_input_7"
  eltwise_param {
    operation: SUM
  }
}
layer {
  name: "lstm1_unit_7"
  type: "LSTMUnit"
  bottom: "c_6"
  bottom: "gate_input_7"
  bottom: "cont_7"
  top: "c_7"
  top: "h_7"
}
layer {
  name: "lstm1_h_conted_7"
  type: "Scale"
  bottom: "h_7"
  bottom: "cont_8"
  top: "h_conted_7"
  scale_param {
    axis: 0
  }
}
layer {
  name: "lstm1_transform_8"
  type: "InnerProduct"
  bottom: "h_conted_7"
  top: "W_hc_h_7"
  param {
    name: "W_hc"
  }
  inner_product_param {
    num_output: 2048
    bias_term: false
    weight_filler {
      type: "uniform"
      min: -0.01
      max: 0.01
    }
    axis: 2
  }
}
layer {
  name: "lstm1_gate_input_8"
  type: "Eltwise"
  bottom: "W_hc_h_7"
  bottom: "W_xc_x_8"
  top: "gate_input_8"
  eltwise_param {
    operation: SUM
  }
}
layer {
  name: "lstm1_unit_8"
  type: "LSTMUnit"
  bottom: "c_7"
  bottom: "gate_input_8"
  bottom: "cont_8"
  top: "c_8"
  top: "h_8"
}
layer {
  name: "lstm1_h_conted_8"
  type: "Scale"
  bottom: "h_8"
  bottom: "cont_9"
  top: "h_conted_8"
  scale_param {
    axis: 0
  }
}
layer {
  name: "lstm1_transform_9"
  type: "InnerProduct"
  bottom: "h_conted_8"
  top: "W_hc_h_8"
  param {
    name: "W_hc"
  }
  inner_product_param {
    num_output: 2048
    bias_term: false
    weight_filler {
      type: "uniform"
      min: -0.01
      max: 0.01
    }
    axis: 2
  }
}
layer {
  name: "lstm1_gate_input_9"
  type: "Eltwise"
  bottom: "W_hc_h_8"
  bottom: "W_xc_x_9"
  top: "gate_input_9"
  eltwise_param {
    operation: SUM
  }
}
layer {
  name: "lstm1_unit_9"
  type: "LSTMUnit"
  bottom: "c_8"
  bottom: "gate_input_9"
  bottom: "cont_9"
  top: "c_9"
  top: "h_9"
}
layer {
  name: "lstm1_h_conted_9"
  type: "Scale"
  bottom: "h_9"
  bottom: "cont_10"
  top: "h_conted_9"
  scale_param {
    axis: 0
  }
}
layer {
  name: "lstm1_transform_10"
  type: "InnerProduct"
  bottom: "h_conted_9"
  top: "W_hc_h_9"
  param {
    name: "W_hc"
  }
  inner_product_param {
    num_output: 2048
    bias_term: false
    weight_filler {
…
I1013 16:45:59.872504 12124 net.cpp:406] lstm1_h_conted_2 <- h_2_lstm1_unit_2_1_split_0
I1013 16:45:59.872511 12124 net.cpp:406] lstm1_h_conted_2 <- cont_3_lstm1_cont_slice_2_split_0
I1013 16:45:59.872519 12124 net.cpp:380] lstm1_h_conted_2 -> h_conted_2
I1013 16:45:59.872593 12124 net.cpp:122] Setting up lstm1_h_conted_2
I1013 16:45:59.872604 12124 net.cpp:129] Top shape: 1 150 512 (76800)
I1013 16:45:59.872609 12124 net.cpp:137] Memory required for data: 53184000
I1013 16:45:59.872614 12124 layer_factory.hpp:77] Creating layer lstm1_transform_3
I1013 16:45:59.872629 12124 net.cpp:84] Creating Layer lstm1_transform_3
I1013 16:45:59.872635 12124 net.cpp:406] lstm1_transform_3 <- h_conted_2
I1013 16:45:59.872647 12124 net.cpp:380] lstm1_transform_3 -> W_hc_h_2
I1013 16:45:59.889205 12124 net.cpp:122] Setting up lstm1_transform_3
I1013 16:45:59.889384 12124 net.cpp:129] Top shape: 1 150 2048 (307200)
I1013 16:45:59.889402 12124 net.cpp:137] Memory required for data: 54412800
I1013 16:45:59.889458 12124 net.cpp:465] Sharing parameters 'W_hc' owned by layer 'lstm1_transform_1', param index 0
I1013 16:45:59.889497 12124 layer_factory.hpp:77] Creating layer lstm1_gate_input_3
I1013 16:45:59.889562 12124 net.cpp:84] Creating Layer lstm1_gate_input_3
I1013 16:45:59.889583 12124 net.cpp:406] lstm1_gate_input_3 <- W_hc_h_2
I1013 16:45:59.889617 12124 net.cpp:406] lstm1_gate_input_3 <- W_xc_x_3
I1013 16:45:59.889668 12124 net.cpp:380] lstm1_gate_input_3 -> gate_input_3
I1013 16:45:59.889765 12124 net.cpp:122] Setting up lstm1_gate_input_3
I1013 16:45:59.889773 12124 net.cpp:129] Top shape: 1 150 2048 (307200)
I1013 16:45:59.889777 12124 net.cpp:137] Memory required for data: 55641600
I1013 16:45:59.889782 12124 layer_factory.hpp:77] Creating layer lstm1_unit_3
I1013 16:45:59.889791 12124 net.cpp:84] Creating Layer lstm1_unit_3
I1013 16:45:59.889798 12124 net.cpp:406] lstm1_unit_3 <- c_2
I1013 16:45:59.889806 12124 net.cpp:406] lstm1_unit_3 <- gate_input_3
I1013 16:45:59.889812 12124 net.cpp:406] lstm1_unit_3 <- cont_3_lstm1_cont_slice_2_split_1
I1013 16:45:59.889819 12124 net.cpp:380] lstm1_unit_3 -> c_3
I1013 16:45:59.889828 12124 net.cpp:380] lstm1_unit_3 -> h_3
I1013 16:45:59.889883 12124 net.cpp:122] Setting up lstm1_unit_3
I1013 16:45:59.889907 12124 net.cpp:129] Top shape: 1 150 512 (76800)
I1013 16:45:59.889914 12124 net.cpp:129] Top shape: 1 150 512 (76800)
I1013 16:45:59.889919 12124 net.cpp:137] Memory required for data: 56256000
I1013 16:45:59.889922 12124 layer_factory.hpp:77] Creating layer h_3_lstm1_unit_3_1_split
I1013 16:45:59.889931 12124 net.cpp:84] Creating Layer h_3_lstm1_unit_3_1_split
I1013 16:45:59.889936 12124 net.cpp:406] h_3_lstm1_unit_3_1_split <- h_3
I1013 16:45:59.889943 12124 net.cpp:380] h_3_lstm1_unit_3_1_split -> h_3_lstm1_unit_3_1_split_0
I1013 16:45:59.889951 12124 net.cpp:380] h_3_lstm1_unit_3_1_split -> h_3_lstm1_unit_3_1_split_1
I1013 16:45:59.890038 12124 net.cpp:122] Setting up h_3_lstm1_unit_3_1_split
I1013 16:45:59.890133 12124 net.cpp:129] Top shape: 1 150 512 (76800)
I1013 16:45:59.890156 12124 net.cpp:129] Top shape: 1 150 512 (76800)
I1013 16:45:59.890166 12124 net.cpp:137] Memory required for data: 56870400
I1013 16:45:59.890182 12124 layer_factory.hpp:77] Creating layer lstm1_h_conted_3
I1013 16:45:59.890228 12124 net.cpp:84] Creating Layer lstm1_h_conted_3
I1013 16:45:59.890244 12124 net.cpp:406] lstm1_h_conted_3 <- h_3_lstm1_unit_3_1_split_0
I1013 16:45:59.890272 12124 net.cpp:406] lstm1_h_conted_3 <- cont_4_lstm1_cont_slice_3_split_0
I1013 16:45:59.890300 12124 net.cpp:380] lstm1_h_conted_3 -> h_conted_3
I1013 16:45:59.890617 12124 net.cpp:122] Setting up lstm1_h_conted_3
I1013 16:45:59.890677 12124 net.cpp:129] Top shape: 1 150 512 (76800)
I1013 16:45:59.890688 12124 net.cpp:137] Memory required for data: 57177600
I1013 16:45:59.890702 12124 layer_factory.hpp:77] Creating layer lstm1_transform_4
I1013 16:45:59.890746 12124 net.cpp:84] Creating Layer lstm1_transform_4
I1013 16:45:59.890764 12124 net.cpp:406] lstm1_transform_4 <- h_conted_3
I1013 16:45:59.890811 12124 net.cpp:380] lstm1_transform_4 -> W_hc_h_3
I1013 16:45:59.909090 12124 net.cpp:122] Setting up lstm1_transform_4
I1013 16:45:59.909131 12124 net.cpp:129] Top shape: 1 150 2048 (307200)
I1013 16:45:59.909135 12124 net.cpp:137] Memory required for data: 58406400
I1013 16:45:59.909145 12124 net.cpp:465] Sharing parameters 'W_hc' owned by layer 'lstm1_transform_1', param index 0
I1013 16:45:59.909152 12124 layer_factory.hpp:77] Creating layer lstm1_gate_input_4
I1013 16:45:59.909168 12124 net.cpp:84] Creating Layer lstm1_gate_input_4
I1013 16:45:59.909179 12124 net.cpp:406] lstm1_gate_input_4 <- W_hc_h_3
I1013 16:45:59.909189 12124 net.cpp:406] lstm1_gate_input_4 <- W_xc_x_4
I1013 16:45:59.909199 12124 net.cpp:380] lstm1_gate_input_4 -> gate_input_4
I1013 16:45:59.909246 12124 net.cpp:122] Setting up lstm1_gate_input_4
I1013 16:45:59.909257 12124 net.cpp:129] Top shape: 1 150 2048 (307200)
I1013 16:45:59.909262 12124 net.cpp:137] Memory required for data: 59635200
I1013 16:45:59.909266 12124 layer_factory.hpp:77] Creating layer lstm1_unit_4
I1013 16:45:59.909278 12124 net.cpp:84] Creating Layer lstm1_unit_4
I1013 16:45:59.909284 12124 net.cpp:406] lstm1_unit_4 <- c_3
I1013 16:45:59.909291 12124 net.cpp:406] lstm1_unit_4 <- gate_input_4
I1013 16:45:59.909298 12124 net.cpp:406] lstm1_unit_4 <- cont_4_lstm1_cont_slice_3_split_1
I1013 16:45:59.909306 12124 net.cpp:380] lstm1_unit_4 -> c_4
I1013 16:45:59.909313 12124 net.cpp:380] lstm1_unit_4 -> h_4
I1013 16:45:59.909368 12124 net.cpp:122] Setting up lstm1_unit_4
I1013 16:45:59.909379 12124 net.cpp:129] Top shape: 1 150 512 (76800)
I1013 16:45:59.909384 12124 net.cpp:129] Top shape: 1 150 512 (76800)
I1013 16:45:59.909389 12124 net.cpp:137] Memory required for data: 60249600
I1013 16:45:59.909394 12124 layer_factory.hpp:77] Creating layer h_4_lstm1_unit_4_1_split
I1013 16:45:59.909404 12124 net.cpp:84] Creating Layer h_4_lstm1_unit_4_1_split
I1013 16:45:59.909409 12124 net.cpp:406] h_4_lstm1_unit_4_1_split <- h_4
I1013 16:45:59.909416 12124 net.cpp:380] h_4_lstm1_unit_4_1_split -> h_4_lstm1_unit_4_1_split_0
I1013 16:45:59.909425 12124 net.cpp:380] h_4_lstm1_unit_4_1_split -> h_4_lstm1_unit_4_1_split_1
I1013 16:45:59.909466 12124 net.cpp:122] Setting up h_4_lstm1_unit_4_1_split
I1013 16:45:59.909476 12124 net.cpp:129] Top shape: 1 150 512 (76800)
I1013 16:45:59.909482 12124 net.cpp:129] Top shape: 1 150 512 (76800)
I1013 16:45:59.909485 12124 net.cpp:137] Memory required for data: 60864000
I1013 16:45:59.909490 12124 layer_factory.hpp:77] Creating layer lstm1_h_conted_4
I1013 16:45:59.909502 12124 net.cpp:84] Creating Layer lstm1_h_conted_4
I1013 16:45:59.909508 12124 net.cpp:406] lstm1_h_conted_4 <- h_4_lstm1_unit_4_1_split_0
I1013 16:45:59.909515 12124 net.cpp:406] lstm1_h_conted_4 <- cont_5_lstm1_cont_slice_4_split_0
I1013 16:45:59.909523 12124 net.cpp:380] lstm1_h_conted_4 -> h_conted_4
I1013 16:45:59.909693 12124 net.cpp:122] Setting up lstm1_h_conted_4
I1013 16:45:59.909765 12124 net.cpp:129] Top shape: 1 150 512 (76800)
I1013 16:45:59.909793 12124 net.cpp:137] Memory required for data: 61171200
I1013 16:45:59.909807 12124 layer_factory.hpp:77] Creating layer lstm1_transform_5
I1013 16:45:59.909852 12124 net.cpp:84] Creating Layer lstm1_transform_5
I1013 16:45:59.909867 12124 net.cpp:406] lstm1_transform_5 <- h_conted_4
I1013 16:45:59.909886 12124 net.cpp:380] lstm1_transform_5 -> W_hc_h_4
I1013 16:45:59.931164 12124 net.cpp:122] Setting up lstm1_transform_5
I1013 16:45:59.931190 12124 net.cpp:129] Top shape: 1 150 2048 (307200)
I1013 16:45:59.931195 12124 net.cpp:137] Memory required for data: 62400000
I1013 16:45:59.931203 12124 net.cpp:465] Sharing parameters 'W_hc' owned by layer 'lstm1_transform_1', param index 0
I1013 16:45:59.931210 12124 layer_factory.hpp:77] Creating layer lstm1_gate_input_5
I1013 16:45:59.931219 12124 net.cpp:84] Creating Layer lstm1_gate_input_5
I1013 16:45:59.931226 12124 net.cpp:406] lstm1_gate_input_5 <- W_hc_h_4
I1013 16:45:59.931234 12124 net.cpp:406] lstm1_gate_input_5 <- W_xc_x_5
I1013 16:45:59.931242 12124 net.cpp:380] lstm1_gate_input_5 -> gate_input_5
I1013 16:45:59.931282 12124 net.cpp:122] Setting up lstm1_gate_input_5
I1013 16:45:59.931290 12124 net.cpp:129] Top shape: 1 150 2048 (307200)
I1013 16:45:59.931295 12124 net.cpp:137] Memory required for data: 63628800
I1013 16:45:59.931299 12124 layer_factory.hpp:77] Creating layer lstm1_unit_5
I1013 16:45:59.931308 12124 net.cpp:84] Creating Layer lstm1_unit_5
I1013 16:45:59.931313 12124 net.cpp:406] lstm1_unit_5 <- c_4
I1013 16:45:59.931319 12124 net.cpp:406] lstm1_unit_5 <- gate_input_5
I1013 16:45:59.931326 12124 net.cpp:406] lstm1_unit_5 <- cont_5_lstm1_cont_slice_4_split_1
I1013 16:45:59.931334 12124 net.cpp:380] lstm1_unit_5 -> c_5
I1013 16:45:59.931341 12124 net.cpp:380] lstm1_unit_5 -> h_5
I1013 16:45:59.931396 12124 net.cpp:122] Setting up lstm1_unit_5
I1013 16:45:59.931406 12124 net.cpp:129] Top shape: 1 150 512 (76800)
I1013 16:45:59.931411 12124 net.cpp:129] Top shape: 1 150 512 (76800)
I1013 16:45:59.931416 12124 net.cpp:137] Memory required for data: 64243200
I1013 16:45:59.931421 12124 layer_factory.hpp:77] Creating layer h_5_lstm1_unit_5_1_split
I1013 16:45:59.931432 12124 net.cpp:84] Creating Layer h_5_lstm1_unit_5_1_split
I1013 16:45:59.931437 12124 net.cpp:406] h_5_lstm1_unit_5_1_split <- h_5
I1013 16:45:59.931445 12124 net.cpp:380] h_5_lstm1_unit_5_1_split -> h_5_lstm1_unit_5_1_split_0
I1013 16:45:59.931453 12124 net.cpp:380] h_5_lstm1_unit_5_1_split -> h_5_lstm1_unit_5_1_split_1
I1013 16:45:59.931499 12124 net.cpp:122] Setting up h_5_lstm1_unit_5_1_split
I1013 16:45:59.931509 12124 net.cpp:129] Top shape: 1 150 512 (76800)
I1013 16:45:59.931514 12124 net.cpp:129] Top shape: 1 150 512 (76800)
I1013 16:45:59.931519 12124 net.cpp:137] Memory required for data: 64857600
I1013 16:45:59.931524 12124 layer_factory.hpp:77] Creating layer lstm1_h_conted_5
I1013 16:45:59.931531 12124 net.cpp:84] Creating Layer lstm1_h_conted_5
I1013 16:45:59.931537 12124 net.cpp:406] lstm1_h_conted_5 <- h_5_lstm1_unit_5_1_split_0
I1013 16:45:59.931545 12124 net.cpp:406] lstm1_h_conted_5 <- cont_6_lstm1_cont_slice_5_split_0
I1013 16:45:59.931552 12124 net.cpp:380] lstm1_h_conted_5 -> h_conted_5
I1013 16:45:59.931627 12124 net.cpp:122] Setting up lstm1_h_conted_5
I1013 16:45:59.931638 12124 net.cpp:129] Top shape: 1 150 512 (76800)
I1013 16:45:59.931643 12124 net.cpp:137] Memory required for data: 65164800
I1013 16:45:59.931648 12124 layer_factory.hpp:77] Creating layer lstm1_transform_6
I1013 16:45:59.931656 12124 net.cpp:84] Creating Layer lstm1_transform_6
I1013 16:45:59.931664 12124 net.cpp:406] lstm1_transform_6 <- h_conted_5
I1013 16:45:59.931671 12124 net.cpp:380] lstm1_transform_6 -> W_hc_h_5
I1013 16:45:59.946795 12124 net.cpp:122] Setting up lstm1_transform_6
I1013 16:45:59.946951 12124 net.cpp:129] Top shape: 1 150 2048 (307200)
I1013 16:45:59.946960 12124 net.cpp:137] Memory required for data: 66393600
I1013 16:45:59.946971 12124 net.cpp:465] Sharing parameters 'W_hc' owned by layer 'lstm1_transform_1', param index 0
I1013 16:45:59.946981 12124 layer_factory.hpp:77] Creating layer lstm1_gate_input_6
I1013 16:45:59.946998 12124 net.cpp:84] Creating Layer lstm1_gate_input_6
I1013 16:45:59.947008 12124 net.cpp:406] lstm1_gate_input_6 <- W_hc_h_5
I1013 16:45:59.947027 12124 net.cpp:406] lstm1_gate_input_6 <- W_xc_x_6
I1013 16:45:59.947037 12124 net.cpp:380] lstm1_gate_input_6 -> gate_input_6
I1013 16:45:59.947078 12124 net.cpp:122] Setting up lstm1_gate_input_6
I1013 16:45:59.947089 12124 net.cpp:129] Top shape: 1 150 2048 (307200)
I1013 16:45:59.947094 12124 net.cpp:137] Memory required for data: 67622400
I1013 16:45:59.947098 12124 layer_factory.hpp:77] Creating layer lstm1_unit_6
I1013 16:45:59.947110 12124 net.cpp:84] Creating Layer lstm1_unit_6
I1013 16:45:59.947118 12124 net.cpp:406] lstm1_unit_6 <- c_5
I1013 16:45:59.947124 12124 net.cpp:406] lstm1_unit_6 <- gate_input_6
I1013 16:45:59.947131 12124 net.cpp:406] lstm1_unit_6 <- cont_6_lstm1_cont_slice_5_split_1
I1013 16:45:59.947139 12124 net.cpp:380] lstm1_unit_6 -> c_6
I1013 16:45:59.947146 12124 net.cpp:380] lstm1_unit_6 -> h_6
I1013 16:45:59.947202 12124 net.cpp:122] Setting up lstm1_unit_6
I1013 16:45:59.947212 12124 net.cpp:129] Top shape: 1 150 512 (76800)
I1013 16:45:59.947218 12124 net.cpp:129] Top shape: 1 150 512 (76800)
I1013 16:45:59.947223 12124 net.cpp:137] Memory required for data: 68236800
I1013 16:45:59.947228 12124 layer_factory.hpp:77] Creating layer h_6_lstm1_unit_6_1_split
I1013 16:45:59.947235 12124 net.cpp:84] Creating Layer h_6_lstm1_unit_6_1_split
I1013 16:45:59.947240 12124 net.cpp:406] h_6_lstm1_unit_6_1_split <- h_6
I1013 16:45:59.947250 12124 net.cpp:380] h_6_lstm1_unit_6_1_split -> h_6_lstm1_unit_6_1_split_0
I1013 16:45:59.947259 12124 net.cpp:380] h_6_lstm1_unit_6_1_split -> h_6_lstm1_unit_6_1_split_1
I1013 16:45:59.947299 12124 net.cpp:122] Setting up h_6_lstm1_unit_6_1_split
I1013 16:45:59.947307 12124 net.cpp:129] Top shape: 1 150 512 (76800)
I1013 16:45:59.947314 12124 net.cpp:129] Top shape: 1 150 512 (76800)
I1013 16:45:59.947317 12124 net.cpp:137] Memory required for data: 68851200
I1013 16:45:59.947322 12124 layer_factory.hpp:77] Creating layer lstm1_h_conted_6
I1013 16:45:59.947335 12124 net.cpp:84] Creating Layer lstm1_h_conted_6
I1013 16:45:59.947340 12124 net.cpp:406] lstm1_h_conted_6 <- h_6_lstm1_unit_6_1_split_0
I1013 16:45:59.947346 12124 net.cpp:406] lstm1_h_conted_6 <- cont_7_lstm1_cont_slice_6_split_0
I1013 16:45:59.947355 12124 net.cpp:380] lstm1_h_conted_6 -> h_conted_6
I1013 16:45:59.947434 12124 net.cpp:122] Setting up lstm1_h_conted_6
I1013 16:45:59.947444 12124 net.cpp:129] Top shape: 1 150 512 (76800)
I1013 16:45:59.947449 12124 net.cpp:137] Memory required for data: 69158400
I1013 16:45:59.947453 12124 layer_factory.hpp:77] Creating layer lstm1_transform_7
I1013 16:45:59.947466 12124 net.cpp:84] Creating Layer lstm1_transform_7
I1013 16:45:59.947471 12124 net.cpp:406] lstm1_transform_7 <- h_conted_6
I1013 16:45:59.947481 12124 net.cpp:380] lstm1_transform_7 -> W_hc_h_6
I1013 16:45:59.967695 12124 net.cpp:122] Setting up lstm1_transform_7
I1013 16:45:59.967736 12124 net.cpp:129] Top shape: 1 150 2048 (307200)
I1013 16:45:59.967741 12124 net.cpp:137] Memory required for data: 70387200
I1013 16:45:59.967757 12124 net.cpp:465] Sharing parameters 'W_hc' owned by layer 'lstm1_transform_1', param index 0
I1013 16:45:59.967766 12124 layer_factory.hpp:77] Creating layer lstm1_gate_input_7
I1013 16:45:59.967780 12124 net.cpp:84] Creating Layer lstm1_gate_input_7
I1013 16:45:59.967787 12124 net.cpp:406] lstm1_gate_input_7 <- W_hc_h_6
I1013 16:45:59.967797 12124 net.cpp:406] lstm1_gate_input_7 <- W_xc_x_7
I1013 16:45:59.967808 12124 net.cpp:380] lstm1_gate_input_7 -> gate_input_7
I1013 16:45:59.967851 12124 net.cpp:122] Setting up lstm1_gate_input_7
I1013 16:45:59.967862 12124 net.cpp:129] Top shape: 1 150 2048 (307200)
I1013 16:45:59.967866 12124 net.cpp:137] Memory required for data: 71616000
I1013 16:45:59.967871 12124 layer_factory.hpp:77] Creating layer lstm1_unit_7
I1013 16:45:59.967882 12124 net.cpp:84] Creating Layer lstm1_unit_7
I1013 16:45:59.967888 12124 net.cpp:406] lstm1_unit_7 <- c_6
I1013 16:45:59.967895 12124 net.cpp:406] lstm1_unit_7 <- gate_input_7
I1013 16:45:59.967901 12124 net.cpp:406] lstm1_unit_7 <- cont_7_lstm1_cont_slice_6_split_1
I1013 16:45:59.967909 12124 net.cpp:380] lstm1_unit_7 -> c_7
I1013 16:45:59.967918 12124 net.cpp:380] lstm1_unit_7 -> h_7
I1013 16:45:59.967974 12124 net.cpp:122] Setting up lstm1_unit_7
I1013 16:45:59.967985 12124 net.cpp:129] Top shape: 1 150 512 (76800)
I1013 16:45:59.967991 12124 net.cpp:129] Top shape: 1 150 512 (76800)
I1013 16:45:59.967995 12124 net.cpp:137] Memory required for data: 72230400
I1013 16:45:59.968000 12124 layer_factory.hpp:77] Creating layer h_7_lstm1_unit_7_1_split
I1013 16:45:59.968008 12124 net.cpp:84] Creating Layer h_7_lstm1_unit_7_1_split
I1013 16:45:59.968014 12124 net.cpp:406] h_7_lstm1_unit_7_1_split <- h_7
I1013 16:45:59.968020 12124 net.cpp:380] h_7_lstm1_unit_7_1_split -> h_7_lstm1_unit_7_1_split_0
I1013 16:45:59.968050 12124 net.cpp:380] h_7_lstm1_unit_7_1_split -> h_7_lstm1_unit_7_1_split_1
I1013 16:45:59.968094 12124 net.cpp:122] Setting up h_7_lstm1_unit_7_1_split
I1013 16:45:59.968104 12124 net.cpp:129] Top shape: 1 150 512 (76800)
I1013 16:45:59.968111 12124 net.cpp:129] Top shape: 1 150 512 (76800)
I1013 16:45:59.968114 12124 net.cpp:137] Memory required for data: 72844800
I1013 16:45:59.968119 12124 layer_factory.hpp:77] Creating layer lstm1_h_conted_7
I1013 16:45:59.968132 12124 net.cpp:84] Creating Layer lstm1_h_conted_7
I1013 16:45:59.968137 12124 net.cpp:406] lstm1_h_conted_7 <- h_7_lstm1_unit_7_1_split_0
I1013 16:45:59.968144 12124 net.cpp:406] lstm1_h_conted_7 <- cont_8_lstm1_cont_slice_7_split_0
I1013 16:45:59.968152 12124 net.cpp:380] lstm1_h_conted_7 -> h_conted_7
I1013 16:45:59.968231 12124 net.cpp:122] Setting up lstm1_h_conted_7
I1013 16:45:59.968241 12124 net.cpp:129] Top shape: 1 150 512 (76800)
I1013 16:45:59.968246 12124 net.cpp:137] Memory required for data: 73152000
I1013 16:45:59.968250 12124 layer_factory.hpp:77] Creating layer lstm1_transform_8
I1013 16:45:59.968264 12124 net.cpp:84] Creating Layer lstm1_transform_8
I1013 16:45:59.968271 12124 net.cpp:406] lstm1_transform_8 <- h_conted_7
I1013 16:45:59.968278 12124 net.cpp:380] lstm1_transform_8 -> W_hc_h_7
I1013 16:45:59.984684 12124 net.cpp:122] Setting up lstm1_transform_8
I1013 16:45:59.984844 12124 net.cpp:129] Top shape: 1 150 2048 (307200)
I1013 16:45:59.984863 12124 net.cpp:137] Memory required for data: 74380800
I1013 16:45:59.984900 12124 net.cpp:465] Sharing parameters 'W_hc' owned by layer 'lstm1_transform_1', param index 0
I1013 16:45:59.984921 12124 layer_factory.hpp:77] Creating layer lstm1_gate_input_8
I1013 16:45:59.984980 12124 net.cpp:84] Creating Layer lstm1_gate_input_8
I1013 16:45:59.985016 12124 net.cpp:406] lstm1_gate_input_8 <- W_hc_h_7
I1013 16:45:59.985044 12124 net.cpp:406] lstm1_gate_input_8 <- W_xc_x_8
I1013 16:45:59.985083 12124 net.cpp:380] lstm1_gate_input_8 -> gate_input_8
I1013 16:45:59.985321 12124 net.cpp:122] Setting up lstm1_gate_input_8
I1013 16:45:59.985352 12124 net.cpp:129] Top shape: 1 150 2048 (307200)
I1013 16:45:59.985357 12124 net.cpp:137] Memory required for data: 75609600
I1013 16:45:59.985361 12124 layer_factory.hpp:77] Creating layer lstm1_unit_8
I1013 16:45:59.985369 12124 net.cpp:84] Creating Layer lstm1_unit_8
I1013 16:45:59.985374 12124 net.cpp:406] lstm1_unit_8 <- c_7
I1013 16:45:59.985381 12124 net.cpp:406] lstm1_unit_8 <- gate_input_8
I1013 16:45:59.985388 12124 net.cpp:406] lstm1_unit_8 <- cont_8_lstm1_cont_slice_7_split_1
I1013 16:45:59.985397 12124 net.cpp:380] lstm1_unit_8 -> c_8
I1013 16:45:59.985406 12124 net.cpp:380] lstm1_unit_8 -> h_8
I1013 16:45:59.985461 12124 net.cpp:122] Setting up lstm1_unit_8
I1013 16:45:59.985512 12124 net.cpp:129] Top shape: 1 150 512 (76800)
I1013 16:45:59.985546 12124 net.cpp:129] Top shape: 1 150 512 (76800)
I1013 16:45:59.985595 12124 net.cpp:137] Memory required for data: 76224000
I1013 16:45:59.985610 12124 layer_factory.hpp:77] Creating layer h_8_lstm1_unit_8_1_split
I1013 16:45:59.985641 12124 net.cpp:84] Creating Layer h_8_lstm1_unit_8_1_split
I1013 16:45:59.985654 12124 net.cpp:406] h_8_lstm1_unit_8_1_split <- h_8
I1013 16:45:59.985690 12124 net.cpp:380] h_8_lstm1_unit_8_1_split -> h_8_lstm1_unit_8_1_split_0
I1013 16:45:59.985721 12124 net.cpp:380] h_8_lstm1_unit_8_1_split -> h_8_lstm1_unit_8_1_split_1
I1013 16:45:59.985930 12124 net.cpp:122] Setting up h_8_lstm1_unit_8_1_split
I1013 16:45:59.985988 12124 net.cpp:129] Top shape: 1 150 512 (76800)
I1013 16:45:59.986007 12124 net.cpp:129] Top shape: 1 150 512 (76800)
I1013 16:45:59.986017 12124 net.cpp:137] Memory required for data: 76838400
I1013 16:45:59.986027 12124 layer_factory.hpp:77] Creating layer lstm1_h_conted_8
I1013 16:45:59.986065 12124 net.cpp:84] Creating Layer lstm1_h_conted_8
I1013 16:45:59.986073 12124 net.cpp:406] lstm1_h_conted_8 <- h_8_lstm1_unit_8_1_split_0
I1013 16:45:59.986112 12124 net.cpp:406] lstm1_h_conted_8 <- cont_9_lstm1_cont_slice_8_split_0
I1013 16:45:59.986141 12124 net.cpp:380] lstm1_h_conted_8 -> h_conted_8
I1013 16:45:59.986512 12124 net.cpp:122] Setting up lstm1_h_conted_8
I1013 16:45:59.986570 12124 net.cpp:129] Top shape: 1 150 512 (76800)
I1013 16:45:59.986591 12124 net.cpp:137] Memory required for data: 77145600
I1013 16:45:59.986611 12124 layer_factory.hpp:77] Creating layer lstm1_transform_9
I1013 16:45:59.986665 12124 net.cpp:84] Creating Layer lstm1_transform_9
I1013 16:45:59.986704 12124 net.cpp:406] lstm1_transform_9 <- h_conted_8
I1013 16:45:59.986753 12124 net.cpp:380] lstm1_transform_9 -> W_hc_h_8
I1013 16:46:00.003482 12124 net.cpp:122] Setting up lstm1_transform_9
I1013 16:46:00.003702 12124 net.cpp:129] Top shape: 1 150 2048 (307200)
I1013 16:46:00.003726 12124 net.cpp:137] Memory required for data: 78374400
I1013 16:46:00.003759 12124 net.cpp:465] Sharing parameters 'W_hc' owned by layer 'lstm1_transform_1', param index 0
I1013 16:46:00.003789 12124 layer_factory.hpp:77] Creating layer lstm1_gate_input_9
I1013 16:46:00.003856 12124 net.cpp:84] Creating Layer lstm1_gate_input_9
I1013 16:46:00.003885 12124 net.cpp:406] lstm1_gate_input_9 <- W_hc_h_8
I1013 16:46:00.003921 12124 net.cpp:406] lstm1_gate_input_9 <- W_xc_x_9
I1013 16:46:00.003954 12124 net.cpp:380] lstm1_gate_input_9 -> gate_input_9
I1013 16:46:00.004022 12124 net.cpp:122] Setting up lstm1_gate_input_9
I1013 16:46:00.004050 12124 net.cpp:129] Top shape: 1 150 2048 (307200)
I1013 16:46:00.004055 12124 net.cpp:137] Memory required for data: 79603200
I1013 16:46:00.004060 12124 layer_factory.hpp:77] Creating layer lstm1_unit_9
I1013 16:46:00.004081 12124 net.cpp:84] Creating Layer lstm1_unit_9
I1013 16:46:00.004092 12124 net.cpp:406] lstm1_unit_9 <- c_8
I1013 16:46:00.004099 12124 net.cpp:406] lstm1_unit_9 <- gate_input_9
I1013 16:46:00.004107 12124 net.cpp:406] lstm1_unit_9 <- cont_9_lstm1_cont_slice_8_split_1
I1013 16:46:00.004114 12124 net.cpp:380] lstm1_unit_9 -> c_9
I1013 16:46:00.004142 12124 net.cpp:380] lstm1_unit_9 -> h_9
I1013 16:46:00.004369 12124 net.cpp:122] Setting up lstm1_unit_9
I1013 16:46:00.004480 12124 net.cpp:129] Top shape: 1 150 512 (76800)
I1013 16:46:00.004501 12124 net.cpp:129] Top shape: 1 150 512 (76800)
I1013 16:46:00.004506 12124 net.cpp:137] Memory required for data: 80217600
I1013 16:46:00.004513 12124 layer_factory.hpp:77] Creating layer h_9_lstm1_unit_9_1_split
I1013 16:46:00.004555 12124 net.cpp:84] Creating Layer h_9_lstm1_unit_9_1_split
I1013 16:46:00.004595 12124 net.cpp:406] h_9_lstm1_unit_9_1_split <- h_9
I1013 16:46:00.004623 12124 net.cpp:380] h_9_lstm1_unit_9_1_split -> h_9_lstm1_unit_9_1_split_0
I1013 16:46:00.004678 12124 net.cpp:380] h_9_lstm1_unit_9_1_split -> h_9_lstm1_unit_9_1_split_1
I1013 16:46:00.004892 12124 net.cpp:122] Setting up h_9_lstm1_unit_9_1_split
I1013 16:46:00.004954 12124 net.cpp:129] Top shape: 1 150 512 (76800)
I1013 16:46:00.004971 12124 net.cpp:129] Top shape: 1 150 512 (76800)
I1013 16:46:00.004982 12124 net.cpp:137] Memory required for data: 80832000
I1013 16:46:00.004997 12124 layer_factory.hpp:77] Creating layer lstm1_h_conted_9
I1013 16:46:00.005087 12124 net.cpp:84] Creating Layer lstm1_h_conted_9
I1013 16:46:00.005139 12124 net.cpp:406] lstm1_h_conted_9 <- h_9_lstm1_unit_9_1_split_0
I1013 16:46:00.005161 12124 net.cpp:406] lstm1_h_conted_9 <- cont_10_lstm1_cont_slice_9_split_0
I1013 16:46:00.005199 12124 net.cpp:380] lstm1_h_conted_9 -> h_conted_9
I1013 16:46:00.005559 12124 net.cpp:122] Setting up lstm1_h_conted_9
I1013 16:46:00.005571 12124 net.cpp:129] Top shape: 1 150 512 (76800)
I1013 16:46:00.005575 12124 net.cpp:137] Memory required for data: 81139200
I1013 16:46:00.005580 12124 layer_factory.hpp:77] Creating layer lstm1_transform_10
I1013 16:46:00.005594 12124 net.cpp:84] Creating Layer lstm1_transform_10
I1013 16:46:00.005599 12124 net.cpp:406] lstm1_transform_10 <- h_conted_9
I1013 16:46:00.005607 12124 net.cpp:380] lstm1_transform_10 -> W_hc_h_9
I1013 16:46:00.026749 12124 net.cpp:122] Setting up lstm1_transform_10
I1013 16:46:00.026778 12124 net.cpp:129] Top shape: 1 150 2048 (307200)
I1013 16:46:00.026783 12124 net.cpp:137] Memory required for data: 82368000
I1013 16:46:00.026792 12124 net.cpp:465] Sharing parameters 'W_hc' owned by layer 'lstm1_transform_1', param index 0
I1013 16:46:00.026798 12124 layer_factory.hpp:77] Creating layer lstm1_gate_input_10
I1013 16:46:00.026813 12124 net.cpp:84] Creating Layer lstm1_gate_input_10
I1013 16:46:00.026820 12124 net.cpp:406] lstm1_gate_input_10 <- W_hc_h_9
I1013 16:46:00.026829 12124 net.cpp:406] lstm1_gate_input_10 <- W_xc_x_10
I1013 16:46:00.026836 12124 net.cpp:380] lstm1_gate_input_10 -> gate_input_10
I1013 16:46:00.026876 12124 net.cpp:122] Setting up lstm1_gate_input_10
I1013 16:46:00.026888 12124 net.cpp:129] Top shape: 1 150 2048 (307200)
I1013 16:46:00.026892 12124 net.cpp:137] Memory required for data: 83596800
I1013 16:46:00.026897 12124 layer_factory.hpp:77] Creating layer lstm1_unit_10
I1013 16:46:00.026906 12124 net.cpp:84] Creating Layer lstm1_unit_10
I1013 16:46:00.026912 12124 net.cpp:406] lstm1_unit_10 <- c_9
I1013 16:46:00.026918 12124 net.cpp:406] lstm1_unit_10 <- gate_input_10
I1013 16:46:00.026926 12124 net.cpp:406] lstm1_unit_10 <- cont_10_lstm1_cont_slice_9_split_1
I1013 16:46:00.026937 12124 net.cpp:380] lstm1_unit_10 -> c_10
I1013 16:46:00.026948 12124 net.cpp:380] lstm1_unit_10 -> h_10
I1013 16:46:00.027003 12124 net.cpp:122] Setting up lstm1_unit_10
I1013 16:46:00.027012 12124 net.cpp:129] Top shape: 1 150 512 (76800)
I1013 16:46:00.027019 12124 net.cpp:129] Top shape: 1 150 512 (76800)
I1013 16:46:00.027024 12124 net.cpp:137] Memory required for data: 84211200
I1013 16:46:00.027029 12124 layer_factory.hpp:77] Creating layer h_10_lstm1_unit_10_1_split
I1013 16:46:00.027036 12124 net.cpp:84] Creating Layer h_10_lstm1_unit_10_1_split
I1013 16:46:00.027041 12124 net.cpp:406] h_10_lstm1_unit_10_1_split <- h_10
I1013 16:46:00.027048 12124 net.cpp:380] h_10_lstm1_unit_10_1_split -> h_10_lstm1_unit_10_1_split_0
I1013 16:46:00.027056 12124 net.cpp:380] h_10_lstm1_unit_10_1_split -> h_10_lstm1_unit_10_1_split_1
I1013 16:46:00.027097 12124 net.cpp:122] Setting up h_10_lstm1_unit_10_1_split
I1013 16:46:00.027107 12124 net.cpp:129] Top shape: 1 150 512 (76800)
I1013 16:46:00.027113 12124 net.cpp:129] Top shape: 1 150 512 (76800)
I1013 16:46:00.027118 12124 net.cpp:137] Memory required for data: 84825600
I1013 16:46:00.027123 12124 layer_factory.hpp:77] Creating layer lstm1_h_conted_10
I1013 16:46:00.027133 12124 net.cpp:84] Creating Layer lstm1_h_conted_10
I1013 16:46:00.027138 12124 net.cpp:406] lstm1_h_conted_10 <- h_10_lstm1_unit_10_1_split_0
I1013 16:46:00.027145 12124 net.cpp:406] lstm1_h_conted_10 <- cont_11_lstm1_cont_slice_10_split_0
I1013 16:46:00.027155 12124 net.cpp:380] lstm1_h_conted_10 -> h_conted_10
I1013 16:46:00.027237 12124 net.cpp:122] Setting up lstm1_h_conted_10
I1013 16:46:00.027247 12124 net.cpp:129] Top shape: 1 150 512 (76800)
I1013 16:46:00.027252 12124 net.cpp:137] Memory required for data: 85132800
I1013 16:46:00.027257 12124 layer_factory.hpp:77] Creating layer lstm1_transform_11
I1013 16:46:00.027266 12124 net.cpp:84] Creating Layer lstm1_transform_11
I1013 16:46:00.027272 12124 net.cpp:406] lstm1_transform_11 <- h_conted_10
I1013 16:46:00.027282 12124 net.cpp:380] lstm1_transform_11 -> W_hc_h_10
I1013 16:46:00.043557 12124 net.cpp:122] Setting up lstm1_transform_11
I1013 16:46:00.043596 12124 net.cpp:129] Top shape: 1 150 2048 (307200)
I1013 16:46:00.043601 12124 net.cpp:137] Memory required for data: 86361600
I1013 16:46:00.043611 12124 net.cpp:465] Sharing parameters 'W_hc' owned by layer 'lstm1_transform_1', param index 0
I1013 16:46:00.043617 12124 layer_factory.hpp:77] Creating layer lstm1_gate_input_11
I1013 16:46:00.043654 12124 net.cpp:84] Creating Layer lstm1_gate_input_11
I1013 16:46:00.043673 12124 net.cpp:406] lstm1_gate_input_11 <- W_hc_h_10
I1013 16:46:00.043697 12124 net.cpp:406] lstm1_gate_input_11 <- W_xc_x_11
I1013 16:46:00.043725 12124 net.cpp:380] lstm1_gate_input_11 -> gate_input_11
I1013 16:46:00.043933 12124 net.cpp:122] Setting up lstm1_gate_input_11
I1013 16:46:00.043994 12124 net.cpp:129] Top shape: 1 150 2048 (307200)
I1013 16:46:00.044011 12124 net.cpp:137] Memory required for data: 87590400
I1013 16:46:00.044034 12124 layer_factory.hpp:77] Creating layer lstm1_unit_11
I1013 16:46:00.044059 12124 net.cpp:84] Creating Layer lstm1_unit_11
I1013 16:46:00.044076 12124 net.cpp:406] lstm1_unit_11 <- c_10
I1013 16:46:00.044095 12124 net.cpp:406] lstm1_unit_11 <- gate_input_11
I1013 16:46:00.044148 12124 net.cpp:406] lstm1_unit_11 <- cont_11_lstm1_cont_slice_10_split_1
I1013 16:46:00.044178 12124 net.cpp:380] lstm1_unit_11 -> c_11
I1013 16:46:00.044245 12124 net.cpp:380] lstm1_unit_11 -> h_11
I1013 16:46:00.044476 12124 net.cpp:122] Setting up lstm1_unit_11
I1013 16:46:00.044554 12124 net.cpp:129] Top shape: 1 150 512 (76800)
I1013 16:46:00.044582 12124 net.cpp:129] Top shape: 1 150 512 (76800)
I1013 16:46:00.044600 12124 net.cpp:137] Memory required for data: 88204800
I1013 16:46:00.044623 12124 layer_factory.hpp:77] Creating layer h_11_lstm1_unit_11_1_split
I1013 16:46:00.044663 12124 net.cpp:84] Creating Layer h_11_lstm1_unit_11_1_split
I1013 16:46:00.044683 12124 net.cpp:406] h_11_lstm1_unit_11_1_split <- h_11
I1013 16:46:00.044728 12124 net.cpp:380] h_11_lstm1_unit_11_1_split -> h_11_lstm1_unit_11_1_split_0
I1013 16:46:00.044752 12124 net.cpp:380] h_11_lstm1_unit_11_1_split -> h_11_lstm1_unit_11_1_split_1
I1013 16:46:00.044975 12124 net.cpp:122] Setting up h_11_lstm1_unit_11_1_split
I1013 16:46:00.045027 12124 net.cpp:129] Top shape: 1 150 512 (76800)
I1013 16:46:00.045032 12124 net.cpp:129] Top shape: 1 150 512 (76800)
I1013 16:46:00.045037 12124 net.cpp:137] Memory required for data: 88819200
I1013 16:46:00.045042 12124 layer_factory.hpp:77] Creating layer lstm1_h_conted_11
I1013 16:46:00.045051 12124 net.cpp:84] Creating Layer lstm1_h_conted_11
I1013 16:46:00.045056 12124 net.cpp:406] lstm1_h_conted_11 <- h_11_lstm1_unit_11_1_split_0
I1013 16:46:00.045063 12124 net.cpp:406] lstm1_h_conted_11 <- cont_12_lstm1_cont_slice_11_split_0
I1013 16:46:00.045071 12124 net.cpp:380] lstm1_h_conted_11 -> h_conted_11
I1013 16:46:00.045164 12124 net.cpp:122] Setting up lstm1_h_conted_11
I1013 16:46:00.045204 12124 net.cpp:129] Top shape: 1 150 512 (76800)
I1013 16:46:00.045209 12124 net.cpp:137] Memory required for data: 89126400
I1013 16:46:00.045217 12124 layer_factory.hpp:77] Creating layer lstm1_transform_12
I1013 16:46:00.045253 12124 net.cpp:84] Creating Layer lstm1_transform_12
I1013 16:46:00.045287 12124 net.cpp:406] lstm1_transform_12 <- h_conted_11
I1013 16:46:00.045326 12124 net.cpp:380] lstm1_transform_12 -> W_hc_h_11
I1013 16:46:00.062252 12124 net.cpp:122] Setting up lstm1_transform_12
I1013 16:46:00.062443 12124 net.cpp:129] Top shape: 1 150 2048 (307200)
I1013 16:46:00.062464 12124 net.cpp:137] Memory required for data: 90355200
I1013 16:46:00.062500 12124 net.cpp:465] Sharing parameters 'W_hc' owned by layer 'lstm1_transform_1', param index 0
I1013 16:46:00.062515 12124 layer_factory.hpp:77] Creating layer lstm1_gate_input_12
I1013 16:46:00.062561 12124 net.cpp:84] Creating Layer lstm1_gate_input_12
I1013 16:46:00.062567 12124 net.cpp:406] lstm1_gate_input_12 <- W_hc_h_11
I1013 16:46:00.062577 12124 net.cpp:406] lstm1_gate_input_12 <- W_xc_x_12
I1013 16:46:00.062585 12124 net.cpp:380] lstm1_gate_input_12 -> gate_input_12
I1013 16:46:00.062628 12124 net.cpp:122] Setting up lstm1_gate_input_12
I1013 16:46:00.062640 12124 net.cpp:129] Top shape: 1 150 2048 (307200)
I1013 16:46:00.062646 12124 net.cpp:137] Memory required for data: 91584000
I1013 16:46:00.062651 12124 layer_factory.hpp:77] Creating layer lstm1_unit_12
I1013 16:46:00.062665 12124 net.cpp:84] Creating Layer lstm1_unit_12
I1013 16:46:00.062672 12124 net.cpp:406] lstm1_unit_12 <- c_11
I1013 16:46:00.062680 12124 net.cpp:406] lstm1_unit_12 <- gate_input_12
I1013 16:46:00.062686 12124 net.cpp:406] lstm1_unit_12 <- cont_12_lstm1_cont_slice_11_split_1
I1013 16:46:00.062693 12124 net.cpp:380] lstm1_unit_12 -> c_12
I1013 16:46:00.062702 12124 net.cpp:380] lstm1_unit_12 -> h_12
I1013 16:46:00.062803 12124 net.cpp:122] Setting up lstm1_unit_12
I1013 16:46:00.062844 12124 net.cpp:129] Top shape: 1 150 512 (76800)
I1013 16:46:00.062860 12124 net.cpp:129] Top shape: 1 150 512 (76800)
I1013 16:46:00.062875 12124 net.cpp:137] Memory required for data: 92198400
I1013 16:46:00.062891 12124 layer_factory.hpp:77] Creating layer h_12_lstm1_unit_12_1_split
I1013 16:46:00.062927 12124 net.cpp:84] Creating Layer h_12_lstm1_unit_12_1_split
I1013 16:46:00.062953 12124 net.cpp:406] h_12_lstm1_unit_12_1_split <- h_12
I1013 16:46:00.062980 12124 net.cpp:380] h_12_lstm1_unit_12_1_split -> h_12_lstm1_unit_12_1_split_0
I1013 16:46:00.063020 12124 net.cpp:380] h_12_lstm1_unit_12_1_split -> h_12_lstm1_unit_12_1_split_1
I1013 16:46:00.063244 12124 net.cpp:122] Setting up h_12_lstm1_unit_12_1_split
I1013 16:46:00.063295 12124 net.cpp:129] Top shape: 1 150 512 (76800)
I1013 16:46:00.063309 12124 net.cpp:129] Top shape: 1 150 512 (76800)
I1013 16:46:00.063326 12124 net.cpp:137] Memory required for data: 92812800
I1013 16:46:00.063335 12124 layer_factory.hpp:77] Creating layer lstm1_h_conted_12
I1013 16:46:00.063386 12124 net.cpp:84] Creating Layer lstm1_h_conted_12
I1013 16:46:00.063415 12124 net.cpp:406] lstm1_h_conted_12 <- h_12_lstm1_unit_12_1_split_0
I1013 16:46:00.063454 12124 net.cpp:406] lstm1_h_conted_12 <- cont_13_lstm1_cont_slice_12_split_0
I1013 16:46:00.063496 12124 net.cpp:380] lstm1_h_conted_12 -> h_conted_12
I1013 16:46:00.063846 12124 net.cpp:122] Setting up lstm1_h_conted_12
I1013 16:46:00.063910 12124 net.cpp:129] Top shape: 1 150 512 (76800)
I1013 16:46:00.063930 12124 net.cpp:137] Memory required for data: 93120000
I1013 16:46:00.063951 12124 layer_factory.hpp:77] Creating layer lstm1_transform_13
I1013 16:46:00.063987 12124 net.cpp:84] Creating Layer lstm1_transform_13
I1013 16:46:00.064007 12124 net.cpp:406] lstm1_transform_13 <- h_conted_12
I1013 16:46:00.064051 12124 net.cpp:380] lstm1_transform_13 -> W_hc_h_12
I1013 16:46:00.084995 12124 net.cpp:122] Setting up lstm1_transform_13
I1013 16:46:00.085034 12124 net.cpp:129] Top shape: 1 150 2048 (307200)
I1013 16:46:00.085041 12124 net.cpp:137] Memory required for data: 94348800
I1013 16:46:00.085050 12124 net.cpp:465] Sharing parameters 'W_hc' owned by layer 'lstm1_transform_1', param index 0
I1013 16:46:00.085057 12124 layer_factory.hpp:77] Creating layer lstm1_gate_input_13
I1013 16:46:00.085072 12124 net.cpp:84] Creating Layer lstm1_gate_input_13
I1013 16:46:00.085079 12124 net.cpp:406] lstm1_gate_input_13 <- W_hc_h_12
I1013 16:46:00.085088 12124 net.cpp:406] lstm1_gate_input_13 <- W_xc_x_13
I1013 16:46:00.085099 12124 net.cpp:380] lstm1_gate_input_13 -> gate_input_13
I1013 16:46:00.085150 12124 net.cpp:122] Setting up lstm1_gate_input_13
I1013 16:46:00.085162 12124 net.cpp:129] Top shape: 1 150 2048 (307200)
I1013 16:46:00.085167 12124 net.cpp:137] Memory required for data: 95577600
I1013 16:46:00.085172 12124 layer_factory.hpp:77] Creating layer lstm1_unit_13
I1013 16:46:00.085181 12124 net.cpp:84] Creating Layer lstm1_unit_13
I1013 16:46:00.085188 12124 net.cpp:406] lstm1_unit_13 <- c_12
I1013 16:46:00.085196 12124 net.cpp:406] lstm1_unit_13 <- gate_input_13
I1013 16:46:00.085203 12124 net.cpp:406] lstm1_unit_13 <- cont_13_lstm1_cont_slice_12_split_1
I1013 16:46:00.085211 12124 net.cpp:380] lstm1_unit_13 -> c_13
I1013 16:46:00.085222 12124 net.cpp:380] lstm1_unit_13 -> h_13
I1013 16:46:00.085283 12124 net.cpp:122] Setting up lstm1_unit_13
I1013 16:46:00.085292 12124 net.cpp:129] Top shape: 1 150 512 (76800)
I1013 16:46:00.085299 12124 net.cpp:129] Top shape: 1 150 512 (76800)
I1013 16:46:00.085304 12124 net.cpp:137] Memory required for data: 96192000
I1013 16:46:00.085309 12124 layer_factory.hpp:77] Creating layer h_13_lstm1_unit_13_1_split
I1013 16:46:00.085319 12124 net.cpp:84] Creating Layer h_13_lstm1_unit_13_1_split
I1013 16:46:00.085325 12124 net.cpp:406] h_13_lstm1_unit_13_1_split <- h_13
I1013 16:46:00.085332 12124 net.cpp:380] h_13_lstm1_unit_13_1_split -> h_13_lstm1_unit_13_1_split_0
I1013 16:46:00.085341 12124 net.cpp:380] h_13_lstm1_unit_13_1_split -> h_13_lstm1_unit_13_1_split_1
I1013 16:46:00.085386 12124 net.cpp:122] Setting up h_13_lstm1_unit_13_1_split
I1013 16:46:00.085395 12124 net.cpp:129] Top shape: 1 150 512 (76800)
I1013 16:46:00.085402 12124 net.cpp:129] Top shape: 1 150 512 (76800)
I1013 16:46:00.085407 12124 net.cpp:137] Memory required for data: 96806400
I1013 16:46:00.085412 12124 layer_factory.hpp:77] Creating layer lstm1_h_conted_13
I1013 16:46:00.085424 12124 net.cpp:84] Creating Layer lstm1_h_conted_13
I1013 16:46:00.085430 12124 net.cpp:406] lstm1_h_conted_13 <- h_13_lstm1_unit_13_1_split_0
I1013 16:46:00.085438 12124 net.cpp:406] lstm1_h_conted_13 <- cont_14_lstm1_cont_slice_13_split_0
I1013 16:46:00.085446 12124 net.cpp:380] lstm1_h_conted_13 -> h_conted_13
I1013 16:46:00.085561 12124 net.cpp:122] Setting up lstm1_h_conted_13
I1013 16:46:00.085575 12124 net.cpp:129] Top shape: 1 150 512 (76800)
I1013 16:46:00.085580 12124 net.cpp:137] Memory required for data: 97113600
I1013 16:46:00.085585 12124 layer_factory.hpp:77] Creating layer lstm1_transform_14
I1013 16:46:00.085599 12124 net.cpp:84] Creating Layer lstm1_transform_14
I1013 16:46:00.085608 12124 net.cpp:406] lstm1_transform_14 <- h_conted_13
I1013 16:46:00.085616 12124 net.cpp:380] lstm1_transform_14 -> W_hc_h_13
I1013 16:46:00.099028 12124 net.cpp:122] Setting up lstm1_transform_14
I1013 16:46:00.099063 12124 net.cpp:129] Top shape: 1 150 2048 (307200)
I1013 16:46:00.099069 12124 net.cpp:137] Memory required for data: 98342400
I1013 16:46:00.099077 12124 net.cpp:465] Sharing parameters 'W_hc' owned by layer 'lstm1_transform_1', param index 0
I1013 16:46:00.099084 12124 layer_factory.hpp:77] Creating layer lstm1_gate_input_14
I1013 16:46:00.099097 12124 net.cpp:84] Creating Layer lstm1_gate_input_14
I1013 16:46:00.099105 12124 net.cpp:406] lstm1_gate_input_14 <- W_hc_h_13
I1013 16:46:00.099114 12124 net.cpp:406] lstm1_gate_input_14 <- W_xc_x_14
I1013 16:46:00.099123 12124 net.cpp:380] lstm1_gate_input_14 -> gate_input_14
I1013 16:46:00.099164 12124 net.cpp:122] Setting up lstm1_gate_input_14
I1013 16:46:00.099174 12124 net.cpp:129] Top shape: 1 150 2048 (307200)
I1013 16:46:00.099179 12124 net.cpp:137] Memory required for data: 99571200
I1013 16:46:00.099184 12124 layer_factory.hpp:77] Creating layer lstm1_unit_14
I1013 16:46:00.099195 12124 net.cpp:84] Creating Layer lstm1_unit_14
I1013 16:46:00.099202 12124 net.cpp:406] lstm1_unit_14 <- c_13
I1013 16:46:00.099210 12124 net.cpp:406] lstm1_unit_14 <- gate_input_14
I1013 16:46:00.099215 12124 net.cpp:406] lstm1_unit_14 <- cont_14_lstm1_cont_slice_13_split_1
I1013 16:46:00.099222 12124 net.cpp:380] lstm1_unit_14 -> c_14
I1013 16:46:00.099232 12124 net.cpp:380] lstm1_unit_14 -> h_14
I1013 16:46:00.099385 12124 net.cpp:122] Setting up lstm1_unit_14
I1013 16:46:00.099444 12124 net.cpp:129] Top shape: 1 150 512 (76800)
I1013 16:46:00.099469 12124 net.cpp:129] Top shape: 1 150 512 (76800)
I1013 16:46:00.099486 12124 net.cpp:137] Memory required for data: 100185600
I1013 16:46:00.099500 12124 layer_factory.hpp:77] Creating layer h_14_lstm1_unit_14_1_split
I1013 16:46:00.099525 12124 net.cpp:84] Creating Layer h_14_lstm1_unit_14_1_split
I1013 16:46:00.099547 12124 net.cpp:406] h_14_lstm1_unit_14_1_split <- h_14
I1013 16:46:00.099580 12124 net.cpp:380] h_14_lstm1_unit_14_1_split -> h_14_lstm1_unit_14_1_split_0
I1013 16:46:00.099618 12124 net.cpp:380] h_14_lstm1_unit_14_1_split -> h_14_lstm1_unit_14_1_split_1
I1013 16:46:00.099792 12124 net.cpp:122] Setting up h_14_lstm1_unit_14_1_split
I1013 16:46:00.099866 12124 net.cpp:129] Top shape: 1 150 512 (76800)
I1013 16:46:00.099885 12124 net.cpp:129] Top shape: 1 150 512 (76800)
I1013 16:46:00.099895 12124 net.cpp:137] Memory required for data: 100800000
I1013 16:46:00.099916 12124 layer_factory.hpp:77] Creating layer lstm1_h_conted_14
I1013 16:46:00.099993 12124 net.cpp:84] Creating Layer lstm1_h_conted_14
I1013 16:46:00.100041 12124 net.cpp:406] lstm1_h_conted_14 <- h_14_lstm1_unit_14_1_split_0
I1013 16:46:00.100050 12124 net.cpp:406] lstm1_h_conted_14 <- cont_15_lstm1_cont_slice_14_split_0
I1013 16:46:00.100093 12124 net.cpp:380] lstm1_h_conted_14 -> h_conted_14
I1013 16:46:00.100437 12124 net.cpp:122] Setting up lstm1_h_conted_14
I1013 16:46:00.100495 12124 net.cpp:129] Top shape: 1 150 512 (76800)
I1013 16:46:00.100517 12124 net.cpp:137] Memory required for data: 101107200
I1013 16:46:00.100540 12124 layer_factory.hpp:77] Creating layer lstm1_transform_15
I1013 16:46:00.100611 12124 net.cpp:84] Creating Layer lstm1_transform_15
I1013 16:46:00.100654 12124 net.cpp:406] lstm1_transform_15 <- h_conted_14
I1013 16:46:00.100668 12124 net.cpp:380] lstm1_transform_15 -> W_hc_h_14
I1013 16:46:00.119789 12124 net.cpp:122] Setting up lstm1_transform_15
I1013 16:46:00.119812 12124 net.cpp:129] Top shape: 1 150 2048 (307200)
I1013 16:46:00.119817 12124 net.cpp:137] Memory required for data: 102336000
I1013 16:46:00.119832 12124 net.cpp:465] Sharing parameters 'W_hc' owned by layer 'lstm1_transform_1', param index 0
I1013 16:46:00.119838 12124 layer_factory.hpp:77] Creating layer lstm1_gate_input_15
I1013 16:46:00.119848 12124 net.cpp:84] Creating Layer lstm1_gate_input_15
I1013 16:46:00.119858 12124 net.cpp:406] lstm1_gate_input_15 <- W_hc_h_14
I1013 16:46:00.119864 12124 net.cpp:406] lstm1_gate_input_15 <- W_xc_x_15
I1013 16:46:00.119873 12124 net.cpp:380] lstm1_gate_input_15 -> gate_input_15
I1013 16:46:00.119907 12124 net.cpp:122] Setting up lstm1_gate_input_15
I1013 16:46:00.119917 12124 net.cpp:129] Top shape: 1 150 2048 (307200)
I1013 16:46:00.119921 12124 net.cpp:137] Memory required for data: 103564800
I1013 16:46:00.119926 12124 layer_factory.hpp:77] Creating layer lstm1_unit_15
I1013 16:46:00.119937 12124 net.cpp:84] Creating Layer lstm1_unit_15
I1013 16:46:00.119943 12124 net.cpp:406] lstm1_unit_15 <- c_14
I1013 16:46:00.119951 12124 net.cpp:406] lstm1_unit_15 <- gate_input_15
I1013 16:46:00.119956 12124 net.cpp:406] lstm1_unit_15 <- cont_15_lstm1_cont_slice_14_split_1
I1013 16:46:00.119963 12124 net.cpp:380] lstm1_unit_15 -> c_15
I1013 16:46:00.119971 12124 net.cpp:380] lstm1_unit_15 -> h_15
I1013 16:46:00.120038 12124 net.cpp:122] Setting up lstm1_unit_15
I1013 16:46:00.120049 12124 net.cpp:129] Top shape: 1 150 512 (76800)
I1013 16:46:00.120055 12124 net.cpp:129] Top shape: 1 150 512 (76800)
I1013 16:46:00.120060 12124 net.cpp:137] Memory required for data: 104179200
I1013 16:46:00.120065 12124 layer_factory.hpp:77] Creating layer h_15_lstm1_unit_15_1_split
I1013 16:46:00.120072 12124 net.cpp:84] Creating Layer h_15_lstm1_unit_15_1_split
I1013 16:46:00.120077 12124 net.cpp:406] h_15_lstm1_unit_15_1_split <- h_15
I1013 16:46:00.120086 12124 net.cpp:380] h_15_lstm1_unit_15_1_split -> h_15_lstm1_unit_15_1_split_0
I1013 16:46:00.120095 12124 net.cpp:380] h_15_lstm1_unit_15_1_split -> h_15_lstm1_unit_15_1_split_1
I1013 16:46:00.120136 12124 net.cpp:122] Setting up h_15_lstm1_unit_15_1_split
I1013 16:46:00.120144 12124 net.cpp:129] Top shape: 1 150 512 (76800)
I1013 16:46:00.120151 12124 net.cpp:129] Top shape: 1 150 512 (76800)
I1013 16:46:00.120156 12124 net.cpp:137] Memory required for data: 104793600
I1013 16:46:00.120159 12124 layer_factory.hpp:77] Creating layer lstm1_h_conted_15
I1013 16:46:00.120173 12124 net.cpp:84] Creating Layer lstm1_h_conted_15
I1013 16:46:00.120184 12124 net.cpp:406] lstm1_h_conted_15 <- h_15_lstm1_unit_15_1_split_0
I1013 16:46:00.120192 12124 net.cpp:406] lstm1_h_conted_15 <- cont_16_lstm1_cont_slice_15_split_0
I1013 16:46:00.120199 12124 net.cpp:380] lstm1_h_conted_15 -> h_conted_15
I1013 16:46:00.120273 12124 net.cpp:122] Setting up lstm1_h_conted_15
I1013 16:46:00.120283 12124 net.cpp:129] Top shape: 1 150 512 (76800)
I1013 16:46:00.120288 12124 net.cpp:137] Memory required for data: 105100800
I1013 16:46:00.120293 12124 layer_factory.hpp:77] Creating layer lstm1_transform_16
I1013 16:46:00.120304 12124 net.cpp:84] Creating Layer lstm1_transform_16
I1013 16:46:00.120311 12124 net.cpp:406] lstm1_transform_16 <- h_conted_15
I1013 16:46:00.120318 12124 net.cpp:380] lstm1_transform_16 -> W_hc_h_15
I1013 16:46:00.137034 12124 net.cpp:122] Setting up lstm1_transform_16
I1013 16:46:00.137220 12124 net.cpp:129] Top shape: 1 150 2048 (307200)
I1013 16:46:00.137254 12124 net.cpp:137] Memory required for data: 106329600
I1013 16:46:00.137286 12124 net.cpp:465] Sharing parameters 'W_hc' owned by layer 'lstm1_transform_1', param index 0
I1013 16:46:00.137305 12124 layer_factory.hpp:77] Creating layer lstm1_gate_input_16
I1013 16:46:00.137377 12124 net.cpp:84] Creating Layer lstm1_gate_input_16
I1013 16:46:00.137401 12124 net.cpp:406] lstm1_gate_input_16 <- W_hc_h_15
I1013 16:46:00.137436 12124 net.cpp:406] lstm1_gate_input_16 <- W_xc_x_16
I1013 16:46:00.137473 12124 net.cpp:380] lstm1_gate_input_16 -> gate_input_16
I1013 16:46:00.137536 12124 net.cpp:122] Setting up lstm1_gate_input_16
I1013 16:46:00.137545 12124 net.cpp:129] Top shape: 1 150 2048 (307200)
I1013 16:46:00.137550 12124 net.cpp:137] Memory required for data: 107558400
I1013 16:46:00.137554 12124 layer_factory.hpp:77] Creating layer lstm1_unit_16
I1013 16:46:00.137565 12124 net.cpp:84] Creating Layer lstm1_unit_16
I1013 16:46:00.137572 12124 net.cpp:406] lstm1_unit_16 <- c_15
I1013 16:46:00.137578 12124 net.cpp:406] lstm1_unit_16 <- gate_input_16
I1013 16:46:00.137585 12124 net.cpp:406] lstm1_unit_16 <- cont_16_lstm1_cont_slice_15_split_1
I1013 16:46:00.137593 12124 net.cpp:380] lstm1_unit_16 -> c_16
I1013 16:46:00.137603 12124 net.cpp:380] lstm1_unit_16 -> h_16
I1013 16:46:00.137787 12124 net.cpp:122] Setting up lstm1_unit_16
I1013 16:46:00.137861 12124 net.cpp:129] Top shape: 1 150 512 (76800)
I1013 16:46:00.137878 12124 net.cpp:129] Top shape: 1 150 512 (76800)
I1013 16:46:00.137893 12124 net.cpp:137] Memory required for data: 108172800
I1013 16:46:00.137912 12124 layer_factory.hpp:77] Creating layer lstm1_
I1013 16:46:00.137959 12124 net.cpp:84] Creating Layer lstm1_
I1013 16:46:00.137977 12124 net.cpp:406] lstm1_ <- c_16
I1013 16:46:00.138006 12124 net.cpp:380] lstm1_ -> c_T
I1013 16:46:00.138200 12124 net.cpp:122] Setting up lstm1_
I1013 16:46:00.138284 12124 net.cpp:129] Top shape: 1 150 512 (76800)
I1013 16:46:00.138298 12124 net.cpp:137] Memory required for data: 108480000
I1013 16:46:00.138309 12124 layer_factory.hpp:77] Creating layer lstm1_h_concat
I1013 16:46:00.138368 12124 net.cpp:84] Creating Layer lstm1_h_concat
I1013 16:46:00.138388 12124 net.cpp:406] lstm1_h_concat <- h_1_lstm1_unit_1_1_split_1
I1013 16:46:00.138418 12124 net.cpp:406] lstm1_h_concat <- h_2_lstm1_unit_2_1_split_1
…
I1013 16:46:00.145432 12124 net.cpp:200] lstm1_ does not need backward computation.
I1013 16:46:00.145437 12124 net.cpp:242] This network produces output c_T
I1013 16:46:00.145442 12124 net.cpp:242] This network produces output h_pseudoloss
I1013 16:46:00.166978 12124 net.cpp:255] Network initialization done.
I1013 16:46:00.168201 12124 recurrent_layer.cpp:150] Adding parameter 0: W_xc
I1013 16:46:00.168273 12124 recurrent_layer.cpp:150] Adding parameter 1: b_c
I1013 16:46:00.168295 12124 recurrent_layer.cpp:150] Adding parameter 2: W_hc
I1013 16:46:00.174917 12124 net.cpp:122] Setting up lstm1
I1013 16:46:00.174939 12124 net.cpp:129] Top shape: 16 150 512 (1228800)
I1013 16:46:00.174945 12124 net.cpp:137] Memory required for data: 17278197000
I1013 16:46:00.174959 12124 layer_factory.hpp:77] Creating layer lstm1-drop
I1013 16:46:00.174973 12124 net.cpp:84] Creating Layer lstm1-drop
I1013 16:46:00.174981 12124 net.cpp:406] lstm1-drop <- lstm1
I1013 16:46:00.174991 12124 net.cpp:380] lstm1-drop -> lstm1-drop
I1013 16:46:00.175055 12124 net.cpp:122] Setting up lstm1-drop
I1013 16:46:00.175067 12124 net.cpp:129] Top shape: 16 150 512 (1228800)
I1013 16:46:00.175072 12124 net.cpp:137] Memory required for data: 17283112200
I1013 16:46:00.175077 12124 layer_factory.hpp:77] Creating layer fc-final
I1013 16:46:00.175091 12124 net.cpp:84] Creating Layer fc-final
I1013 16:46:00.175096 12124 net.cpp:406] fc-final <- lstm1-drop
I1013 16:46:00.175104 12124 net.cpp:380] fc-final -> fc-final
I1013 16:46:00.175458 12124 net.cpp:122] Setting up fc-final
I1013 16:46:00.175470 12124 net.cpp:129] Top shape: 16 150 10 (24000)
I1013 16:46:00.175477 12124 net.cpp:137] Memory required for data: 17283208200
I1013 16:46:00.175484 12124 layer_factory.hpp:77] Creating layer fc-final_fc-final_0_split
I1013 16:46:00.175493 12124 net.cpp:84] Creating Layer fc-final_fc-final_0_split
I1013 16:46:00.175498 12124 net.cpp:406] fc-final_fc-final_0_split <- fc-final
I1013 16:46:00.175505 12124 net.cpp:380] fc-final_fc-final_0_split -> fc-final_fc-final_0_split_0
I1013 16:46:00.175514 12124 net.cpp:380] fc-final_fc-final_0_split -> fc-final_fc-final_0_split_1
I1013 16:46:00.175564 12124 net.cpp:122] Setting up fc-final_fc-final_0_split
I1013 16:46:00.175573 12124 net.cpp:129] Top shape: 16 150 10 (24000)
I1013 16:46:00.175580 12124 net.cpp:129] Top shape: 16 150 10 (24000)
I1013 16:46:00.175585 12124 net.cpp:137] Memory required for data: 17283400200
I1013 16:46:00.175590 12124 layer_factory.hpp:77] Creating layer loss
I1013 16:46:00.175602 12124 net.cpp:84] Creating Layer loss
I1013 16:46:00.175607 12124 net.cpp:406] loss <- fc-final_fc-final_0_split_0
I1013 16:46:00.175614 12124 net.cpp:406] loss <- reshape-label_label_tran_0_split_0
I1013 16:46:00.175621 12124 net.cpp:380] loss -> loss
…
