…
I1018 12:08:49.960439 34502 net.cpp:294] The NetState phase (0) differed from the phase (1) specified by a rule in layer Silence
I1018 12:08:49.960645 34502 net.cpp:51] Initializing net from parameters: 
name: "VGG-Places365"
state {
  phase: TRAIN
  level: 0
  stage: ""
}
layer {
  name: "data"
  type: "ImageData"
  top: "data"
  top: "label"
  include {
    phase: TRAIN
  }
  transform_param {
    mirror: true
    crop_size: 224
    mean_value: 104
    mean_value: 117
    mean_value: 123
  }
  image_data_param {
    source: "../Data/lsun_train_list_12w.txt"
    batch_size: 5
    shuffle: true
    new_height: 256
    new_width: 256
  }
}
layer {
  name: "label_tran"
  type: "Python"
  bottom: "label"
  top: "reshape-label"
  top: "clip_markers"
  python_param {
    module: "data_preparation_sort_max_clip"
    layer: "ReshapeLabel"
  }
}
layer {
  name: "conv1_1"
  type: "Convolution"
  bottom: "data"
  top: "conv1_1"
  convolution_param {
    num_output: 64
    pad: 1
    kernel_size: 3
  }
}
layer {
  name: "relu1_1"
  type: "ReLU"
  bottom: "conv1_1"
  top: "conv1_1"
}
layer {
  name: "conv1_2"
  type: "Convolution"
  bottom: "conv1_1"
  top: "conv1_2"
  convolution_param {
    num_output: 64
    pad: 1
    kernel_size: 3
  }
}
layer {
  name: "relu1_2"
  type: "ReLU"
  bottom: "conv1_2"
  top: "conv1_2"
}
layer {
  name: "pool1"
  type: "Pooling"
  bottom: "conv1_2"
  top: "pool1"
  pooling_param {
    pool: MAX
    kernel_size: 2
    stride: 2
  }
}
layer {
  name: "conv2_1"
  type: "Convolution"
  bottom: "pool1"
  top: "conv2_1"
  convolution_param {
    num_output: 128
    pad: 1
    kernel_size: 3
  }
}
layer {
  name: "relu2_1"
  type: "ReLU"
  bottom: "conv2_1"
  top: "conv2_1"
}
layer {
  name: "conv2_2"
  type: "Convolution"
  bottom: "conv2_1"
  top: "conv2_2"
  convolution_param {
    num_output: 128
    pad: 1
    kernel_size: 3
  }
}
layer {
  name: "relu2_2"
  type: "ReLU"
  bottom: "conv2_2"
  top: "conv2_2"
}
layer {
  name: "pool2"
  type: "Pooling"
  bottom: "conv2_2"
  top: "pool2"
  pooling_param {
    pool: MAX
    kernel_size: 2
    stride: 2
  }
}
layer {
  name: "conv3_1"
  type: "Convolution"
  bottom: "pool2"
  top: "conv3_1"
  convolution_param {
    num_output: 256
    pad: 1
    kernel_size: 3
  }
}
layer {
  name: "relu3_1"
  type: "ReLU"
  bottom: "conv3_1"
  top: "conv3_1"
}
layer {
  name: "conv3_2"
  type: "Convolution"
  bottom: "conv3_1"
  top: "conv3_2"
  convolution_param {
    num_output: 256
    pad: 1
    kernel_size: 3
  }
}
layer {
  name: "relu3_2"
  type: "ReLU"
  bottom: "conv3_2"
  top: "conv3_2"
}
layer {
  name: "conv3_3"
  type: "Convolution"
  bottom: "conv3_2"
  top: "conv3_3"
  convolution_param {
    num_output: 256
    pad: 1
    kernel_size: 3
  }
}
layer {
  name: "relu3_3"
  type: "ReLU"
  bottom: "conv3_3"
  top: "conv3_3"
}
layer {
  name: "pool3"
  type: "Pooling"
  bottom: "conv3_3"
  top: "pool3"
  pooling_param {
    pool: MAX
    kernel_size: 2
    stride: 2
  }
}
layer {
  name: "conv4_1"
  type: "Convolution"
  bottom: "pool3"
  top: "conv4_1"
  convolution_param {
    num_output: 512
    pad: 1
    kernel_size: 3
  }
}
layer {
  name: "relu4_1"
  type: "ReLU"
  bottom: "conv4_1"
  top: "conv4_1"
}
layer {
  name: "conv4_2"
  type: "Convolution"
  bottom: "conv4_1"
  top: "conv4_2"
  convolution_param {
    num_output: 512
    pad: 1
    kernel_size: 3
  }
}
layer {
  name: "relu4_2"
  type: "ReLU"
  bottom: "conv4_2"
  top: "conv4_2"
}
layer {
  name: "conv4_3"
  type: "Convolution"
  bottom: "conv4_2"
  top: "conv4_3"
  convolution_param {
    num_output: 512
    pad: 1
    kernel_size: 3
  }
}
layer {
  name: "relu4_3"
  type: "ReLU"
  bottom: "conv4_3"
  top: "conv4_3"
}
layer {
  name: "pool4"
  type: "Pooling"
  bottom: "conv4_3"
  top: "pool4"
  pooling_param {
    pool: MAX
    kernel_size: 2
    stride: 2
  }
}
layer {
  name: "conv5_1"
  type: "Convolution"
  bottom: "pool4"
  top: "conv5_1"
  convolution_param {
    num_output: 512
    pad: 1
    kernel_size: 3
  }
}
layer {
  name: "relu5_1"
  type: "ReLU"
  bottom: "conv5_1"
  top: "conv5_1"
}
layer {
  name: "conv5_2"
  type: "Convolution"
  bottom: "conv5_1"
  top: "conv5_2"
  convolution_param {
    num_output: 512
    pad: 1
    kernel_size: 3
  }
}
layer {
  name: "relu5_2"
  type: "ReLU"
  bottom: "conv5_2"
  top: "conv5_2"
}
layer {
  name: "conv5_3"
  type: "Convolution"
  bottom: "conv5_2"
  top: "conv5_3"
  convolution_param {
    num_output: 512
    pad: 1
    kernel_size: 3
  }
}
layer {
  name: "relu5_3"
  type: "ReLU"
  bottom: "conv5_3"
  top: "conv5_3"
}
layer {
  name: "conv5_3_re"
  type: "Reshape"
  bottom: "conv5_3"
  top: "conv5_3_re"
  reshape_param {
    shape {
      dim: 0
      dim: 0
      dim: -1
    }
  }
}
layer {
  name: "conv5_3_tran"
  type: "Python"
  bottom: "conv5_3_re"
  top: "conv5_3_tran"
  python_param {
    module: "data_preparation_sort_max_clip"
    layer: "DataTransposeSortRandomClip"
  }
}
layer {
  name: "lstm1"
  type: "LSTM"
  bottom: "conv5_3_tran"
  bottom: "clip_markers"
  top: "lstm1"
  recurrent_param {
    num_output: 512
    weight_filler {
      type: "uniform"
      min: -0.01
      max: 0.01
    }
    bias_filler {
      type: "constant"
      value: 0
    }
  }
}
layer {
  name: "lstm1-drop"
  type: "Dropout"
  bottom: "lstm1"
  top: "lstm1-drop"
  dropout_param {
    dropout_ratio: 0.5
  }
}
layer {
  name: "fc-final"
  type: "InnerProduct"
  bottom: "lstm1-drop"
  top: "fc-final"
  param {
    lr_mult: 1
    decay_mult: 1
  }
  param {
    lr_mult: 2
    decay_mult: 0
  }
  inner_product_param {
    num_output: 10
    weight_filler {
      type: "gaussian"
      std: 0.01
    }
    bias_filler {
      type: "constant"
      value: 0
    }
    axis: 2
  }
}
layer {
  name: "loss"
  type: "SoftmaxWithLoss"
  bottom: "fc-final"
  bottom: "reshape-label"
  top: "loss"
  softmax_param {
    axis: 2
  }
}
layer {
  name: "accuracy"
  type: "Accuracy"
  bottom: "fc-final"
  bottom: "reshape-label"
  top: "accuracy"
  accuracy_param {
    axis: 2
  }
}
I1018 12:08:49.960887 34502 layer_factory.hpp:77] Creating layer data
I1018 12:08:49.960949 34502 net.cpp:84] Creating Layer data
I1018 12:08:49.960965 34502 net.cpp:380] data -> data
I1018 12:08:49.961014 34502 net.cpp:380] data -> label
I1018 12:08:49.961052 34502 image_data_layer.cpp:38] Opening file ../Data/lsun_train_list_12w.txt
I1018 12:08:50.545302 34502 image_data_layer.cpp:53] Shuffling data
I1018 12:08:50.803555 34502 image_data_layer.cpp:63] A total of 1200000 images.
I1018 12:08:50.808789 34502 image_data_layer.cpp:90] output data size: 5,3,224,224
I1018 12:08:50.819393 34502 net.cpp:122] Setting up data
I1018 12:08:50.819422 34502 net.cpp:129] Top shape: 5 3 224 224 (752640)
I1018 12:08:50.819430 34502 net.cpp:129] Top shape: 5 (5)
I1018 12:08:50.819435 34502 net.cpp:137] Memory required for data: 3010580
I1018 12:08:50.819496 34502 layer_factory.hpp:77] Creating layer label_tran
I1018 12:08:51.561936 34502 net.cpp:84] Creating Layer label_tran
I1018 12:08:51.561992 34502 net.cpp:406] label_tran <- label
I1018 12:08:51.562018 34502 net.cpp:380] label_tran -> reshape-label
I1018 12:08:51.562033 34502 net.cpp:380] label_tran -> clip_markers
I1018 12:08:51.562357 34502 net.cpp:122] Setting up label_tran
I1018 12:08:51.562376 34502 net.cpp:129] Top shape: 128 5 (640)
I1018 12:08:51.562382 34502 net.cpp:129] Top shape: 128 5 (640)
I1018 12:08:51.562387 34502 net.cpp:137] Memory required for data: 3015700
I1018 12:08:51.562393 34502 layer_factory.hpp:77] Creating layer reshape-label_label_tran_0_split
I1018 12:08:51.562412 34502 net.cpp:84] Creating Layer reshape-label_label_tran_0_split
I1018 12:08:51.562417 34502 net.cpp:406] reshape-label_label_tran_0_split <- reshape-label
I1018 12:08:51.562424 34502 net.cpp:380] reshape-label_label_tran_0_split -> reshape-label_label_tran_0_split_0
I1018 12:08:51.562439 34502 net.cpp:380] reshape-label_label_tran_0_split -> reshape-label_label_tran_0_split_1
I1018 12:08:51.562484 34502 net.cpp:122] Setting up reshape-label_label_tran_0_split
I1018 12:08:51.562491 34502 net.cpp:129] Top shape: 128 5 (640)
I1018 12:08:51.562496 34502 net.cpp:129] Top shape: 128 5 (640)
I1018 12:08:51.562501 34502 net.cpp:137] Memory required for data: 3020820
I1018 12:08:51.562507 34502 layer_factory.hpp:77] Creating layer conv1_1
I1018 12:08:51.562530 34502 net.cpp:84] Creating Layer conv1_1
I1018 12:08:51.562533 34502 net.cpp:406] conv1_1 <- data
I1018 12:08:51.562541 34502 net.cpp:380] conv1_1 -> conv1_1
I1018 12:08:51.564540 34502 net.cpp:122] Setting up conv1_1
I1018 12:08:51.564575 34502 net.cpp:129] Top shape: 5 64 224 224 (16056320)
I1018 12:08:51.564580 34502 net.cpp:137] Memory required for data: 67246100
I1018 12:08:51.564610 34502 layer_factory.hpp:77] Creating layer relu1_1
I1018 12:08:51.564632 34502 net.cpp:84] Creating Layer relu1_1
I1018 12:08:51.564640 34502 net.cpp:406] relu1_1 <- conv1_1
I1018 12:08:51.564646 34502 net.cpp:367] relu1_1 -> conv1_1 (in-place)
I1018 12:08:51.564661 34502 net.cpp:122] Setting up relu1_1
I1018 12:08:51.564668 34502 net.cpp:129] Top shape: 5 64 224 224 (16056320)
I1018 12:08:51.564672 34502 net.cpp:137] Memory required for data: 131471380
I1018 12:08:51.564678 34502 layer_factory.hpp:77] Creating layer conv1_2
I1018 12:08:51.564689 34502 net.cpp:84] Creating Layer conv1_2
I1018 12:08:51.564693 34502 net.cpp:406] conv1_2 <- conv1_1
I1018 12:08:51.564700 34502 net.cpp:380] conv1_2 -> conv1_2
I1018 12:08:51.564990 34502 net.cpp:122] Setting up conv1_2
I1018 12:08:51.565002 34502 net.cpp:129] Top shape: 5 64 224 224 (16056320)
I1018 12:08:51.565006 34502 net.cpp:137] Memory required for data: 195696660
I1018 12:08:51.565016 34502 layer_factory.hpp:77] Creating layer relu1_2
I1018 12:08:51.565024 34502 net.cpp:84] Creating Layer relu1_2
I1018 12:08:51.565028 34502 net.cpp:406] relu1_2 <- conv1_2
I1018 12:08:51.565035 34502 net.cpp:367] relu1_2 -> conv1_2 (in-place)
I1018 12:08:51.565042 34502 net.cpp:122] Setting up relu1_2
I1018 12:08:51.565048 34502 net.cpp:129] Top shape: 5 64 224 224 (16056320)
I1018 12:08:51.565052 34502 net.cpp:137] Memory required for data: 259921940
I1018 12:08:51.565057 34502 layer_factory.hpp:77] Creating layer pool1
I1018 12:08:51.565068 34502 net.cpp:84] Creating Layer pool1
I1018 12:08:51.565073 34502 net.cpp:406] pool1 <- conv1_2
I1018 12:08:51.565079 34502 net.cpp:380] pool1 -> pool1
I1018 12:08:51.565131 34502 net.cpp:122] Setting up pool1
I1018 12:08:51.565140 34502 net.cpp:129] Top shape: 5 64 112 112 (4014080)
I1018 12:08:51.565145 34502 net.cpp:137] Memory required for data: 275978260
I1018 12:08:51.565148 34502 layer_factory.hpp:77] Creating layer conv2_1
I1018 12:08:51.565158 34502 net.cpp:84] Creating Layer conv2_1
I1018 12:08:51.565163 34502 net.cpp:406] conv2_1 <- pool1
I1018 12:08:51.565171 34502 net.cpp:380] conv2_1 -> conv2_1
I1018 12:08:51.566956 34502 net.cpp:122] Setting up conv2_1
I1018 12:08:51.566988 34502 net.cpp:129] Top shape: 5 128 112 112 (8028160)
I1018 12:08:51.566993 34502 net.cpp:137] Memory required for data: 308090900
I1018 12:08:51.567008 34502 layer_factory.hpp:77] Creating layer relu2_1
I1018 12:08:51.567019 34502 net.cpp:84] Creating Layer relu2_1
I1018 12:08:51.567024 34502 net.cpp:406] relu2_1 <- conv2_1
I1018 12:08:51.567031 34502 net.cpp:367] relu2_1 -> conv2_1 (in-place)
I1018 12:08:51.567049 34502 net.cpp:122] Setting up relu2_1
I1018 12:08:51.567054 34502 net.cpp:129] Top shape: 5 128 112 112 (8028160)
I1018 12:08:51.567057 34502 net.cpp:137] Memory required for data: 340203540
I1018 12:08:51.567061 34502 layer_factory.hpp:77] Creating layer conv2_2
I1018 12:08:51.567070 34502 net.cpp:84] Creating Layer conv2_2
I1018 12:08:51.567075 34502 net.cpp:406] conv2_2 <- conv2_1
I1018 12:08:51.567081 34502 net.cpp:380] conv2_2 -> conv2_2
I1018 12:08:51.567396 34502 net.cpp:122] Setting up conv2_2
I1018 12:08:51.567409 34502 net.cpp:129] Top shape: 5 128 112 112 (8028160)
I1018 12:08:51.567414 34502 net.cpp:137] Memory required for data: 372316180
I1018 12:08:51.567421 34502 layer_factory.hpp:77] Creating layer relu2_2
I1018 12:08:51.567428 34502 net.cpp:84] Creating Layer relu2_2
I1018 12:08:51.567433 34502 net.cpp:406] relu2_2 <- conv2_2
I1018 12:08:51.567440 34502 net.cpp:367] relu2_2 -> conv2_2 (in-place)
I1018 12:08:51.567447 34502 net.cpp:122] Setting up relu2_2
I1018 12:08:51.567452 34502 net.cpp:129] Top shape: 5 128 112 112 (8028160)
I1018 12:08:51.567456 34502 net.cpp:137] Memory required for data: 404428820
I1018 12:08:51.567461 34502 layer_factory.hpp:77] Creating layer pool2
I1018 12:08:51.567469 34502 net.cpp:84] Creating Layer pool2
I1018 12:08:51.567474 34502 net.cpp:406] pool2 <- conv2_2
I1018 12:08:51.567482 34502 net.cpp:380] pool2 -> pool2
I1018 12:08:51.567519 34502 net.cpp:122] Setting up pool2
I1018 12:08:51.567526 34502 net.cpp:129] Top shape: 5 128 56 56 (2007040)
I1018 12:08:51.567530 34502 net.cpp:137] Memory required for data: 412456980
I1018 12:08:51.567535 34502 layer_factory.hpp:77] Creating layer conv3_1
I1018 12:08:51.567543 34502 net.cpp:84] Creating Layer conv3_1
I1018 12:08:51.567548 34502 net.cpp:406] conv3_1 <- pool2
I1018 12:08:51.567555 34502 net.cpp:380] conv3_1 -> conv3_1
I1018 12:08:51.568830 34502 net.cpp:122] Setting up conv3_1
I1018 12:08:51.568858 34502 net.cpp:129] Top shape: 5 256 56 56 (4014080)
I1018 12:08:51.568863 34502 net.cpp:137] Memory required for data: 428513300
I1018 12:08:51.568876 34502 layer_factory.hpp:77] Creating layer relu3_1
I1018 12:08:51.568883 34502 net.cpp:84] Creating Layer relu3_1
I1018 12:08:51.568888 34502 net.cpp:406] relu3_1 <- conv3_1
I1018 12:08:51.568895 34502 net.cpp:367] relu3_1 -> conv3_1 (in-place)
I1018 12:08:51.568904 34502 net.cpp:122] Setting up relu3_1
I1018 12:08:51.568909 34502 net.cpp:129] Top shape: 5 256 56 56 (4014080)
I1018 12:08:51.568913 34502 net.cpp:137] Memory required for data: 444569620
I1018 12:08:51.568917 34502 layer_factory.hpp:77] Creating layer conv3_2
I1018 12:08:51.568928 34502 net.cpp:84] Creating Layer conv3_2
I1018 12:08:51.568933 34502 net.cpp:406] conv3_2 <- conv3_1
I1018 12:08:51.568939 34502 net.cpp:380] conv3_2 -> conv3_2
I1018 12:08:51.570768 34502 net.cpp:122] Setting up conv3_2
I1018 12:08:51.570796 34502 net.cpp:129] Top shape: 5 256 56 56 (4014080)
I1018 12:08:51.570801 34502 net.cpp:137] Memory required for data: 460625940
I1018 12:08:51.570809 34502 layer_factory.hpp:77] Creating layer relu3_2
I1018 12:08:51.570822 34502 net.cpp:84] Creating Layer relu3_2
I1018 12:08:51.570825 34502 net.cpp:406] relu3_2 <- conv3_2
I1018 12:08:51.570832 34502 net.cpp:367] relu3_2 -> conv3_2 (in-place)
I1018 12:08:51.570840 34502 net.cpp:122] Setting up relu3_2
I1018 12:08:51.570845 34502 net.cpp:129] Top shape: 5 256 56 56 (4014080)
I1018 12:08:51.570849 34502 net.cpp:137] Memory required for data: 476682260
I1018 12:08:51.570855 34502 layer_factory.hpp:77] Creating layer conv3_3
I1018 12:08:51.570864 34502 net.cpp:84] Creating Layer conv3_3
I1018 12:08:51.570868 34502 net.cpp:406] conv3_3 <- conv3_2
I1018 12:08:51.570876 34502 net.cpp:380] conv3_3 -> conv3_3
I1018 12:08:51.572713 34502 net.cpp:122] Setting up conv3_3
I1018 12:08:51.572732 34502 net.cpp:129] Top shape: 5 256 56 56 (4014080)
I1018 12:08:51.572737 34502 net.cpp:137] Memory required for data: 492738580
I1018 12:08:51.572746 34502 layer_factory.hpp:77] Creating layer relu3_3
I1018 12:08:51.572753 34502 net.cpp:84] Creating Layer relu3_3
I1018 12:08:51.572758 34502 net.cpp:406] relu3_3 <- conv3_3
I1018 12:08:51.572767 34502 net.cpp:367] relu3_3 -> conv3_3 (in-place)
I1018 12:08:51.572775 34502 net.cpp:122] Setting up relu3_3
I1018 12:08:51.572782 34502 net.cpp:129] Top shape: 5 256 56 56 (4014080)
I1018 12:08:51.572785 34502 net.cpp:137] Memory required for data: 508794900
I1018 12:08:51.572790 34502 layer_factory.hpp:77] Creating layer pool3
I1018 12:08:51.572798 34502 net.cpp:84] Creating Layer pool3
I1018 12:08:51.572803 34502 net.cpp:406] pool3 <- conv3_3
I1018 12:08:51.572808 34502 net.cpp:380] pool3 -> pool3
I1018 12:08:51.572854 34502 net.cpp:122] Setting up pool3
I1018 12:08:51.572860 34502 net.cpp:129] Top shape: 5 256 28 28 (1003520)
I1018 12:08:51.572865 34502 net.cpp:137] Memory required for data: 512808980
I1018 12:08:51.572870 34502 layer_factory.hpp:77] Creating layer conv4_1
I1018 12:08:51.572878 34502 net.cpp:84] Creating Layer conv4_1
I1018 12:08:51.572883 34502 net.cpp:406] conv4_1 <- pool3
I1018 12:08:51.572888 34502 net.cpp:380] conv4_1 -> conv4_1
I1018 12:08:51.576791 34502 net.cpp:122] Setting up conv4_1
I1018 12:08:51.576809 34502 net.cpp:129] Top shape: 5 512 28 28 (2007040)
I1018 12:08:51.576813 34502 net.cpp:137] Memory required for data: 520837140
I1018 12:08:51.576822 34502 layer_factory.hpp:77] Creating layer relu4_1
I1018 12:08:51.576830 34502 net.cpp:84] Creating Layer relu4_1
I1018 12:08:51.576834 34502 net.cpp:406] relu4_1 <- conv4_1
I1018 12:08:51.576841 34502 net.cpp:367] relu4_1 -> conv4_1 (in-place)
I1018 12:08:51.576849 34502 net.cpp:122] Setting up relu4_1
I1018 12:08:51.576855 34502 net.cpp:129] Top shape: 5 512 28 28 (2007040)
I1018 12:08:51.576859 34502 net.cpp:137] Memory required for data: 528865300
I1018 12:08:51.576864 34502 layer_factory.hpp:77] Creating layer conv4_2
I1018 12:08:51.576872 34502 net.cpp:84] Creating Layer conv4_2
I1018 12:08:51.576877 34502 net.cpp:406] conv4_2 <- conv4_1
I1018 12:08:51.576884 34502 net.cpp:380] conv4_2 -> conv4_2
I1018 12:08:51.582837 34502 net.cpp:122] Setting up conv4_2
I1018 12:08:51.582855 34502 net.cpp:129] Top shape: 5 512 28 28 (2007040)
I1018 12:08:51.582860 34502 net.cpp:137] Memory required for data: 536893460
I1018 12:08:51.582875 34502 layer_factory.hpp:77] Creating layer relu4_2
I1018 12:08:51.582886 34502 net.cpp:84] Creating Layer relu4_2
I1018 12:08:51.582891 34502 net.cpp:406] relu4_2 <- conv4_2
I1018 12:08:51.582898 34502 net.cpp:367] relu4_2 -> conv4_2 (in-place)
I1018 12:08:51.582906 34502 net.cpp:122] Setting up relu4_2
I1018 12:08:51.582912 34502 net.cpp:129] Top shape: 5 512 28 28 (2007040)
I1018 12:08:51.582916 34502 net.cpp:137] Memory required for data: 544921620
I1018 12:08:51.582921 34502 layer_factory.hpp:77] Creating layer conv4_3
I1018 12:08:51.582931 34502 net.cpp:84] Creating Layer conv4_3
I1018 12:08:51.582934 34502 net.cpp:406] conv4_3 <- conv4_2
I1018 12:08:51.582940 34502 net.cpp:380] conv4_3 -> conv4_3
I1018 12:08:51.589068 34502 net.cpp:122] Setting up conv4_3
I1018 12:08:51.589089 34502 net.cpp:129] Top shape: 5 512 28 28 (2007040)
I1018 12:08:51.589094 34502 net.cpp:137] Memory required for data: 552949780
I1018 12:08:51.589103 34502 layer_factory.hpp:77] Creating layer relu4_3
I1018 12:08:51.589113 34502 net.cpp:84] Creating Layer relu4_3
I1018 12:08:51.589119 34502 net.cpp:406] relu4_3 <- conv4_3
I1018 12:08:51.589125 34502 net.cpp:367] relu4_3 -> conv4_3 (in-place)
I1018 12:08:51.589134 34502 net.cpp:122] Setting up relu4_3
I1018 12:08:51.589140 34502 net.cpp:129] Top shape: 5 512 28 28 (2007040)
I1018 12:08:51.589145 34502 net.cpp:137] Memory required for data: 560977940
I1018 12:08:51.589149 34502 layer_factory.hpp:77] Creating layer pool4
I1018 12:08:51.589159 34502 net.cpp:84] Creating Layer pool4
I1018 12:08:51.589164 34502 net.cpp:406] pool4 <- conv4_3
I1018 12:08:51.589169 34502 net.cpp:380] pool4 -> pool4
I1018 12:08:51.589210 34502 net.cpp:122] Setting up pool4
I1018 12:08:51.589218 34502 net.cpp:129] Top shape: 5 512 14 14 (501760)
I1018 12:08:51.589222 34502 net.cpp:137] Memory required for data: 562984980
I1018 12:08:51.589226 34502 layer_factory.hpp:77] Creating layer conv5_1
I1018 12:08:51.589234 34502 net.cpp:84] Creating Layer conv5_1
I1018 12:08:51.589239 34502 net.cpp:406] conv5_1 <- pool4
I1018 12:08:51.589247 34502 net.cpp:380] conv5_1 -> conv5_1
I1018 12:08:51.595101 34502 net.cpp:122] Setting up conv5_1
I1018 12:08:51.595118 34502 net.cpp:129] Top shape: 5 512 14 14 (501760)
I1018 12:08:51.595124 34502 net.cpp:137] Memory required for data: 564992020
I1018 12:08:51.595131 34502 layer_factory.hpp:77] Creating layer relu5_1
I1018 12:08:51.595140 34502 net.cpp:84] Creating Layer relu5_1
I1018 12:08:51.595145 34502 net.cpp:406] relu5_1 <- conv5_1
I1018 12:08:51.595152 34502 net.cpp:367] relu5_1 -> conv5_1 (in-place)
I1018 12:08:51.595160 34502 net.cpp:122] Setting up relu5_1
I1018 12:08:51.595166 34502 net.cpp:129] Top shape: 5 512 14 14 (501760)
I1018 12:08:51.595170 34502 net.cpp:137] Memory required for data: 566999060
I1018 12:08:51.595175 34502 layer_factory.hpp:77] Creating layer conv5_2
I1018 12:08:51.595185 34502 net.cpp:84] Creating Layer conv5_2
I1018 12:08:51.595188 34502 net.cpp:406] conv5_2 <- conv5_1
I1018 12:08:51.595196 34502 net.cpp:380] conv5_2 -> conv5_2
I1018 12:08:51.601266 34502 net.cpp:122] Setting up conv5_2
I1018 12:08:51.601284 34502 net.cpp:129] Top shape: 5 512 14 14 (501760)
I1018 12:08:51.601289 34502 net.cpp:137] Memory required for data: 569006100
I1018 12:08:51.601297 34502 layer_factory.hpp:77] Creating layer relu5_2
I1018 12:08:51.601305 34502 net.cpp:84] Creating Layer relu5_2
I1018 12:08:51.601310 34502 net.cpp:406] relu5_2 <- conv5_2
I1018 12:08:51.601317 34502 net.cpp:367] relu5_2 -> conv5_2 (in-place)
I1018 12:08:51.601325 34502 net.cpp:122] Setting up relu5_2
I1018 12:08:51.601331 34502 net.cpp:129] Top shape: 5 512 14 14 (501760)
I1018 12:08:51.601336 34502 net.cpp:137] Memory required for data: 571013140
I1018 12:08:51.601339 34502 layer_factory.hpp:77] Creating layer conv5_3
I1018 12:08:51.601348 34502 net.cpp:84] Creating Layer conv5_3
I1018 12:08:51.601353 34502 net.cpp:406] conv5_3 <- conv5_2
I1018 12:08:51.601361 34502 net.cpp:380] conv5_3 -> conv5_3
I1018 12:08:51.607180 34502 net.cpp:122] Setting up conv5_3
I1018 12:08:51.607208 34502 net.cpp:129] Top shape: 5 512 14 14 (501760)
I1018 12:08:51.607213 34502 net.cpp:137] Memory required for data: 573020180
I1018 12:08:51.607220 34502 layer_factory.hpp:77] Creating layer relu5_3
I1018 12:08:51.607235 34502 net.cpp:84] Creating Layer relu5_3
I1018 12:08:51.607241 34502 net.cpp:406] relu5_3 <- conv5_3
I1018 12:08:51.607247 34502 net.cpp:367] relu5_3 -> conv5_3 (in-place)
I1018 12:08:51.607255 34502 net.cpp:122] Setting up relu5_3
I1018 12:08:51.607261 34502 net.cpp:129] Top shape: 5 512 14 14 (501760)
I1018 12:08:51.607264 34502 net.cpp:137] Memory required for data: 575027220
I1018 12:08:51.607269 34502 layer_factory.hpp:77] Creating layer conv5_3_re
I1018 12:08:51.607285 34502 net.cpp:84] Creating Layer conv5_3_re
I1018 12:08:51.607290 34502 net.cpp:406] conv5_3_re <- conv5_3
I1018 12:08:51.607296 34502 net.cpp:380] conv5_3_re -> conv5_3_re
I1018 12:08:51.607353 34502 net.cpp:122] Setting up conv5_3_re
I1018 12:08:51.607364 34502 net.cpp:129] Top shape: 5 512 196 (501760)
I1018 12:08:51.607368 34502 net.cpp:137] Memory required for data: 577034260
I1018 12:08:51.607373 34502 layer_factory.hpp:77] Creating layer conv5_3_tran
I1018 12:08:51.607431 34502 net.cpp:84] Creating Layer conv5_3_tran
I1018 12:08:51.607439 34502 net.cpp:406] conv5_3_tran <- conv5_3_re
I1018 12:08:51.607446 34502 net.cpp:380] conv5_3_tran -> conv5_3_tran
I1018 12:08:51.609091 34502 net.cpp:122] Setting up conv5_3_tran
I1018 12:08:51.609118 34502 net.cpp:129] Top shape: 128 5 512 (327680)
I1018 12:08:51.609124 34502 net.cpp:137] Memory required for data: 578344980
I1018 12:08:51.609128 34502 layer_factory.hpp:77] Creating layer lstm1
I1018 12:08:51.609143 34502 net.cpp:84] Creating Layer lstm1
I1018 12:08:51.609149 34502 net.cpp:406] lstm1 <- conv5_3_tran
I1018 12:08:51.609155 34502 net.cpp:406] lstm1 <- clip_markers
I1018 12:08:51.609163 34502 net.cpp:380] lstm1 -> lstm1
I1018 12:08:51.609179 34502 recurrent_layer.cpp:20] Initializing recurrent layer: assuming input batch contains 128 timesteps of 5 independent streams.
I1018 12:08:51.613315 34502 net.cpp:51] Initializing net from parameters: 
layer {
  name: "lstm1_"
  type: "Input"
  top: "x"
  top: "cont"
  input_param {
    shape {
      dim: 128
      dim: 5
      dim: 512
    }
    shape {
      dim: 128
      dim: 5
    }
  }
}
layer {
  name: "lstm1_"
  type: "Input"
  top: "c_0"
  top: "h_0"
  input_param {
    shape {
      dim: 1
      dim: 5
      dim: 512
    }
    shape {
      dim: 1
      dim: 5
      dim: 512
    }
  }
}
layer {
  name: "lstm1_cont_slice"
  type: "Slice"
  bottom: "cont"
  top: "cont_1"
  top: "cont_2"
  top: "cont_3"
  top: "cont_4"
  top: "cont_5"
  top: "cont_6"
  top: "cont_7"
  top: "cont_8"
  top: "cont_9"
  top: "cont_10"
  top: "cont_11"
  top: "cont_12"
  top: "cont_13"
  top: "cont_14"
  top: "cont_15"
  top: "cont_16"
  top: "cont_17"
  top: "cont_18"
  top: "cont_19"
  top: "cont_20"
  top: "cont_21"
  top: "cont_22"
  top: "cont_23"
  top: "cont_24"
…
  top: "W_xc_x_103"
  top: "W_xc_x_104"
  top: "W_xc_x_105"
  top: "W_xc_x_106"
  top: "W_xc_x_107"
  top: "W_xc_x_108"
  top: "W_xc_x_109"
  top: "W_xc_x_110"
  top: "W_xc_x_111"
  top: "W_xc_x_112"
  top: "W_xc_x_113"
  top: "W_xc_x_114"
  top: "W_xc_x_115"
  top: "W_xc_x_116"
  top: "W_xc_x_117"
  top: "W_xc_x_118"
  top: "W_xc_x_119"
  top: "W_xc_x_120"
  top: "W_xc_x_121"
  top: "W_xc_x_122"
  top: "W_xc_x_123"
  top: "W_xc_x_124"
  top: "W_xc_x_125"
  top: "W_xc_x_126"
  top: "W_xc_x_127"
  top: "W_xc_x_128"
  slice_param {
    axis: 0
  }
}
layer {
  name: "lstm1_h_conted_0"
  type: "Scale"
  bottom: "h_0"
  bottom: "cont_1"
  top: "h_conted_0"
  scale_param {
    axis: 0
  }
}
layer {
  name: "lstm1_transform_1"
  type: "InnerProduct"
  bottom: "h_conted_0"
  top: "W_hc_h_0"
  param {
    name: "W_hc"
  }
  inner_product_param {
    num_output: 2048
    bias_term: false
    weight_filler {
      type: "uniform"
      min: -0.01
      max: 0.01
    }
    axis: 2
  }
}
layer {
  name: "lstm1_gate_input_1"
  type: "Eltwise"
  bottom: "W_hc_h_0"
  bottom: "W_xc_x_1"
  top: "gate_input_1"
  eltwise_param {
    operation: SUM
  }
}
layer {
  name: "lstm1_unit_1"
  type: "LSTMUnit"
  bottom: "c_0"
  bottom: "gate_input_1"
  bottom: "cont_1"
  top: "c_1"
  top: "h_1"
}
layer {
  name: "lstm1_h_conted_1"
  type: "Scale"
  bottom: "h_1"
  bottom: "cont_2"
  top: "h_conted_1"
  scale_param {
    axis: 0
  }
}
layer {
  name: "lstm1_transform_2"
  type: "InnerProduct"
  bottom: "h_conted_1"
  top: "W_hc_h_1"
  param {
    name: "W_hc"
  }
  inner_product_param {
    num_output: 2048
    bias_term: false
    weight_filler {
      type: "uniform"
      min: -0.01
      max: 0.01
    }
    axis: 2
  }
}
layer {
  name: "lstm1_gate_input_2"
  type: "Eltwise"
  bottom: "W_hc_h_1"
  bottom: "W_xc_x_2"
  top: "gate_input_2"
  eltwise_param {
    operation: SUM
  }
}
layer {
  name: "lstm1_unit_2"
  type: "LSTMUnit"
  bottom: "c_1"
  bottom: "gate_input_2"
  bottom: "cont_2"
  top: "c_2"
  top: "h_2"
}
layer {
  name: "lstm1_h_conted_2"
  type: "Scale"
  bottom: "h_2"
  bottom: "cont_3"
  top: "h_conted_2"
  scale_param {
    axis: 0
  }
}
layer {
  name: "lstm1_transform_3"
  type: "InnerProduct"
  bottom: "h_conted_2"
  top: "W_hc_h_2"
  param {
    name: "W_hc"
  }
  inner_product_param {
    num_output: 2048
    bias_term: false
    weight_filler {
      type: "uniform"
      min: -0.01
      max: 0.01
    }
    axis: 2
  }
}
layer {
  name: "lstm1_gate_input_3"
  type: "Eltwise"
  bottom: "W_hc_h_2"
  bottom: "W_xc_x_3"
  top: "gate_input_3"
  eltwise_param {
    operation: SUM
  }
}
layer {
  name: "lstm1_unit_3"
  type: "LSTMUnit"
  bottom: "c_2"
  bottom: "gate_input_3"
  bottom: "cont_3"
  top: "c_3"
  top: "h_3"
}
layer {
  name: "lstm1_h_conted_3"
  type: "Scale"
  bottom: "h_3"
  bottom: "cont_4"
  top: "h_conted_3"
  scale_param {
    axis: 0
  }
}
layer {
  name: "lstm1_transform_4"
  type: "InnerProduct"
  bottom: "h_conted_3"
  top: "W_hc_h_3"
  param {
    name: "W_hc"
  }
  inner_product_param {
    num_output: 2048
    bias_term: false
    weight_filler {
      type: "uniform"
      min: -0.01
      max: 0.01
    }
    axis: 2
  }
}
layer {
  name: "lstm1_gate_input_4"
  type: "Eltwise"
  bottom: "W_hc_h_3"
  bottom: "W_xc_x_4"
  top: "gate_input_4"
  eltwise_param {
    operation: SUM
  }
}
layer {
  name: "lstm1_unit_4"
  type: "LSTMUnit"
  bottom: "c_3"
  bottom: "gate_input_4"
  bottom: "cont_4"
  top: "c_4"
  top: "h_4"
}
layer {
  name: "lstm1_h_conted_4"
  type: "Scale"
  bottom: "h_4"
  bottom: "cont_5"
  top: "h_conted_4"
  scale_param {
    axis: 0
  }
}
layer {
  name: "lstm1_transform_5"
  type: "InnerProduct"
  bottom: "h_conted_4"
  top: "W_hc_h_4"
  param {
    name: "W_hc"
  }
  inner_product_param {
    num_output: 2048
    bias_term: false
    weight_filler {
      type: "uniform"
      min: -0.01
      max: 0.01
    }
    axis: 2
  }
}
layer {
  name: "lstm1_gate_input_5"
  type: "Eltwise"
  bottom: "W_hc_h_4"
  bottom: "W_xc_x_5"
  top: "gate_input_5"
  eltwise_param {
    operation: SUM
  }
}
layer {
  name: "lstm1_unit_5"
  type: "LSTMUnit"
  bottom: "c_4"
  bottom: "gate_input_5"
  bottom: "cont_5"
  top: "c_5"
  top: "h_5"
}
layer {
  name: "lstm1_h_conted_5"
  type: "Scale"
  bottom: "h_5"
  bottom: "cont_6"
  top: "h_conted_5"
  scale_param {
    axis: 0
  }
}
layer {
  name: "lstm1_transform_6"
  type: "InnerProduct"
  bottom: "h_conted_5"
  top: "W_hc_h_5"
  param {
    name: "W_hc"
  }
  inner_product_param {
    num_output: 2048
    bias_term: false
    weight_filler {
      type: "uniform"
      min: -0.01
      max: 0.01
    }
    axis: 2
  }
}
layer {
  name: "lstm1_gate_input_6"
  type: "Eltwise"
  bottom: "W_hc_h_5"
  bottom: "W_xc_x_6"
  top: "gate_input_6"
  eltwise_param {
    operation: SUM
  }
}
layer {
  name: "lstm1_unit_6"
  type: "LSTMUnit"
  bottom: "c_5"
  bottom: "gate_input_6"
  bottom: "cont_6"
  top: "c_6"
  top: "h_6"
}
layer {
  name: "lstm1_h_conted_6"
  type: "Scale"
  bottom: "h_6"
  bottom: "cont_7"
  top: "h_conted_6"
  scale_param {
    axis: 0
  }
}
layer {
  name: "lstm1_transform_7"
  type: "InnerProduct"
  bottom: "h_conted_6"
  top: "W_hc_h_6"
  param {
    name: "W_hc"
  }
  inner_product_param {
    num_output: 2048
    bias_term: false
    weight_filler {
      type: "uniform"
      min: -0.01
      max: 0.01
    }
    axis: 2
  }
}
layer {
  name: "lstm1_gate_input_7"
  type: "Eltwise"
  bottom: "W_hc_h_6"
  bottom: "W_xc_x_7"
  top: "gate_input_7"
  eltwise_param {
    operation: SUM
  }
}
layer {
  name: "lstm1_unit_7"
  type: "LSTMUnit"
  bottom: "c_6"
  bottom: "gate_input_7"
  bottom: "cont_7"
  top: "c_7"
  top: "h_7"
}
layer {
  name: "lstm1_h_conted_7"
  type: "Scale"
  bottom: "h_7"
  bottom: "cont_8"
  top: "h_conted_7"
  scale_param {
    axis: 0
  }
}
layer {
  name: "lstm1_transform_8"
  type: "InnerProduct"
  bottom: "h_conted_7"
  top: "W_hc_h_7"
  param {
    name: "W_hc"
  }
  inner_product_param {
    num_output: 2048
    bias_term: false
    weight_filler {
      type: "uniform"
      min: -0.01
      max: 0.01
    }
    axis: 2
  }
}
layer {
  name: "lstm1_gate_input_8"
  type: "Eltwise"
  bottom: "W_hc_h_7"
  bottom: "W_xc_x_8"
  top: "gate_input_8"
  eltwise_param {
    operation: SUM
  }
}
layer {
  name: "lstm1_unit_8"
  type: "LSTMUnit"
  bottom: "c_7"
  bottom: "gate_input_8"
  bottom: "cont_8"
  top: "c_8"
  top: "h_8"
}
layer {
  name: "lstm1_h_conted_8"
  type: "Scale"
  bottom: "h_8"
  bottom: "cont_9"
  top: "h_conted_8"
  scale_param {
    axis: 0
  }
}
layer {
  name: "lstm1_transform_9"
  type: "InnerProduct"
  bottom: "h_conted_8"
  top: "W_hc_h_8"
  param {
    name: "W_hc"
  }
  inner_product_param {
    num_output: 2048
    bias_term: false
    weight_filler {
      type: "uniform"
      min: -0.01
      max: 0.01
    }
    axis: 2
  }
}
layer {
  name: "lstm1_gate_input_9"
  type: "Eltwise"
  bottom: "W_hc_h_8"
  bottom: "W_xc_x_9"
  top: "gate_input_9"
  eltwise_param {
    operation: SUM
  }
}
layer {
  name: "lstm1_unit_9"
  type: "LSTMUnit"
  bottom: "c_8"
  bottom: "gate_input_9"
  bottom: "cont_9"
  top: "c_9"
  top: "h_9"
}
layer {
  name: "lstm1_h_conted_9"
  type: "Scale"
  bottom: "h_9"
  bottom: "cont_10"
  top: "h_conted_9"
  scale_param {
    axis: 0
  }
}
layer {
  name: "lstm1_transform_10"
  type: "InnerProduct"
  bottom: "h_conted_9"
  top: "W_hc_h_9"
  param {
    name: "W_hc"
  }
  inner_product_param {
    num_output: 2048
    bias_term: false
    weight_filler {
      type: "uniform"
      min: -0.01
      max: 0.01
    }
    axis: 2
  }
}
layer {
  name: "lstm1_gate_input_10"
  type: "Eltwise"
  bottom: "W_hc_h_9"
  bottom: "W_xc_x_10"
  top: "gate_input_10"
  eltwise_param {
    operation: SUM
  }
}
layer {
  name: "lstm1_unit_10"
  type: "LSTMUnit"
  bottom: "c_9"
  bottom: "gate_input_10"
  bottom: "cont_10"
  top: "c_10"
  top: "h_10"
}
layer {
  name: "lstm1_h_conted_10"
  type: "Scale"
  bottom: "h_10"
  bottom: "cont_11"
  top: "h_conted_10"
  scale_param {
    axis: 0
  }
}
layer {
  name: "lstm1_transform_11"
  type: "InnerProduct"
  bottom: "h_conted_10"
  top: "W_hc_h_10"
  param {
    name: "W_hc"
  }
  inner_product_param {
    num_output: 2048
    bias_term: false
    weight_filler {
      type: "uniform"
      min: -0.01
      max: 0.01
    }
    axis: 2
  }
}
layer {
  name: "lstm1_gate_input_11"
  type: "Eltwise"
  bottom: "W_hc_h_10"
  bottom: "W_xc_x_11"
  top: "gate_input_11"
  eltwise_param {
    operation: SUM
  }
}
layer {
  name: "lstm1_unit_11"
  type: "LSTMUnit"
  bottom: "c_10"
  bottom: "gate_input_11"
  bottom: "cont_11"
  top: "c_11"
  top: "h_11"
}
layer {
  name: "lstm1_h_conted_11"
  type: "Scale"
  bottom: "h_11"
  bottom: "cont_12"
  top: "h_conted_11"
  scale_param {
    axis: 0
  }
}
layer {
  name: "lstm1_transform_12"
  type: "InnerProduct"
  bottom: "h_conted_11"
  top: "W_hc_h_11"
  param {
    name: "W_hc"
  }
  inner_product_param {
    num_output: 2048
    bias_term: false
    weight_filler {
      type: "uniform"
      min: -0.01
      max: 0.01
    }
    axis: 2
  }
}
layer {
  name: "lstm1_gate_input_12"
  type: "Eltwise"
  bottom: "W_hc_h_11"
  bottom: "W_xc_x_12"
  top: "gate_input_12"
  eltwise_param {
    operation: SUM
  }
}
layer {
  name: "lstm1_unit_12"
  type: "LSTMUnit"
  bottom: "c_11"
  bottom: "gate_input_12"
  bottom: "cont_12"
  top: "c_12"
  top: "h_12"
}
layer {
  name: "lstm1_h_conted_12"
  type: "Scale"
  bottom: "h_12"
  bottom: "cont_13"
  top: "h_conted_12"
  scale_param {
    axis: 0
  }
}
layer {
  name: "lstm1_transform_13"
  type: "InnerProduct"
  bottom: "h_conted_12"
  top: "W_hc_h_12"
  param {
    name: "W_hc"
  }
  inner_product_param {
    num_output: 2048
    bias_term: false
    weight_filler {
      type: "uniform"
      min: -0.01
      max: 0.01
    }
    axis: 2
  }
}
layer {
  name: "lstm1_gate_input_13"
  type: "Eltwise"
  bottom: "W_hc_h_12"
  bottom: "W_xc_x_13"
  top: "gate_input_13"
  eltwise_param {
    operation: SUM
  }
}
layer {
  name: "lstm1_unit_13"
  type: "LSTMUnit"
  bottom: "c_12"
  bottom: "gate_input_13"
  bottom: "cont_13"
  top: "c_13"
  top: "h_13"
}
layer {
  name: "lstm1_h_conted_13"
  type: "Scale"
  bottom: "h_13"
  bottom: "cont_14"
  top: "h_conted_13"
  scale_param {
    axis: 0
  }
}
layer {
  name: "lstm1_transform_14"
  type: "InnerProduct"
  bottom: "h_conted_13"
  top: "W_hc_h_13"
  param {
    name: "W_hc"
  }
  inner_product_param {
    num_output: 2048
    bias_term: false
    weight_filler {
      type: "uniform"
      min: -0.01
      max: 0.01
    }
    axis: 2
  }
}
layer {
  name: "lstm1_gate_input_14"
  type: "Eltwise"
  bottom: "W_hc_h_13"
  bottom: "W_xc_x_14"
  top: "gate_input_14"
  eltwise_param {
    operation: SUM
  }
}
layer {
  name: "lstm1_unit_14"
  type: "LSTMUnit"
  bottom: "c_13"
  bottom: "gate_input_14"
  bottom: "cont_14"
  top: "c_14"
  top: "h_14"
}
layer {
  name: "lstm1_h_conted_14"
  type: "Scale"
  bottom: "h_14"
  bottom: "cont_15"
  top: "h_conted_14"
  scale_param {
    axis: 0
  }
}
layer {
  name: "lstm1_transform_15"
  type: "InnerProduct"
  bottom: "h_conted_14"
  top: "W_hc_h_14"
  param {
    name: "W_hc"
  }
  inner_product_param {
    num_output: 2048
    bias_term: false
    weight_filler {
      type: "uniform"
      min: -0.01
      max: 0.01
    }
    axis: 2
  }
}
layer {
  name: "lstm1_gate_input_15"
  type: "Eltwise"
  bottom: "W_hc_h_14"
  bottom: "W_xc_x_15"
  top: "gate_input_15"
  eltwise_param {
    operation: SUM
  }
}
layer {
  name: "lstm1_unit_15"
  type: "LSTMUnit"
  bottom: "c_14"
  bottom: "gate_input_15"
  bottom: "cont_15"
  top: "c_15"
  top: "h_15"
}
layer {
  name: "lstm1_h_conted_15"
  type: "Scale"
  bottom: "h_15"
  bottom: "cont_16"
  top: "h_conted_15"
  scale_param {
    axis: 0
  }
}
layer {
  name: "lstm1_transform_16"
  type: "InnerProduct"
  bottom: "h_conted_15"
  top: "W_hc_h_15"
  param {
    name: "W_hc"
  }
  inner_product_param {
    num_output: 2048
    bias_term: false
    weight_filler {
      type: "uniform"
      min: -0.01
      max: 0.01
    }
    axis: 2
  }
}
layer {
  name: "lstm1_gate_input_16"
  type: "Eltwise"
  bottom: "W_hc_h_15"
  bottom: "W_xc_x_16"
  top: "gate_input_16"
  eltwise_param {
    operation: SUM
  }
}
layer {
  name: "lstm1_unit_16"
  type: "LSTMUnit"
  bottom: "c_15"
  bottom: "gate_input_16"
  bottom: "cont_16"
  top: "c_16"
  top: "h_16"
}
layer {
  name: "lstm1_h_conted_16"
  type: "Scale"
  bottom: "h_16"
  bottom: "cont_17"
  top: "h_conted_16"
  scale_param {
    axis: 0
  }
}
layer {
  name: "lstm1_transform_17"
  type: "InnerProduct"
  bottom: "h_conted_16"
  top: "W_hc_h_16"
  param {
    name: "W_hc"
  }
  inner_product_param {
    num_output: 2048
    bias_term: false
    weight_filler {
      type: "uniform"
      min: -0.01
      max: 0.01
    }
    axis: 2
  }
}
layer {
  name: "lstm1_gate_input_17"
  type: "Eltwise"
  bottom: "W_hc_h_16"
  bottom: "W_xc_x_17"
  top: "gate_input_17"
  eltwise_param {
    operation: SUM
  }
}
layer {
  name: "lstm1_unit_17"
  type: "LSTMUnit"
  bottom: "c_16"
  bottom: "gate_input_17"
  bottom: "cont_17"
  top: "c_17"
  top: "h_17"
}
layer {
  name: "lstm1_h_conted_17"
  type: "Scale"
  bottom: "h_17"
  bottom: "cont_18"
  top: "h_conted_17"
  scale_param {
    axis: 0
  }
}
layer {
  name: "lstm1_transform_18"
  type: "InnerProduct"
  bottom: "h_conted_17"
  top: "W_hc_h_17"
  param {
    name: "W_hc"
  }
  inner_product_param {
    num_output: 2048
    bias_term: false
    weight_filler {
      type: "uniform"
      min: -0.01
      max: 0.01
    }
    axis: 2
  }
}
layer {
  name: "lstm1_gate_input_18"
  type: "Eltwise"
  bottom: "W_hc_h_17"
  bottom: "W_xc_x_18"
  top: "gate_input_18"
  eltwise_param {
    operation: SUM
  }
}
layer {
  name: "lstm1_unit_18"
  type: "LSTMUnit"
  bottom: "c_17"
  bottom: "gate_input_18"
  bottom: "cont_18"
  top: "c_18"
  top: "h_18"
}
layer {
  name: "lstm1_h_conted_18"
  type: "Scale"
  bottom: "h_18"
  bottom: "cont_19"
  top: "h_conted_18"
  scale_param {
    axis: 0
  }
}
layer {
  name: "lstm1_transform_19"
  type: "InnerProduct"
  bottom: "h_conted_18"
  top: "W_hc_h_18"
  param {
    name: "W_hc"
  }
  inner_product_param {
    num_output: 2048
    bias_term: false
    weight_filler {
      type: "uniform"
      min: -0.01
      max: 0.01
    }
    axis: 2
  }
}
layer {
  name: "lstm1_gate_input_19"
  type: "Eltwise"
  bottom: "W_hc_h_18"
  bottom: "W_xc_x_19"
  top: "gate_input_19"
  eltwise_param {
    operation: SUM
  }
}
layer {
  name: "lstm1_unit_19"
  type: "LSTMUnit"
  bottom: "c_18"
  bottom: "gate_input_19"
  bottom: "cont_19"
  top: "c_19"
  top: "h_19"
}
layer {
  name: "lstm1_h_conted_19"
  type: "Scale"
  bottom: "h_19"
  bottom: "cont_20"
  top: "h_conted_19"
  scale_param {
    axis: 0
  }
}
layer {
  name: "lstm1_transform_20"
  type: "InnerProduct"
  bottom: "h_conted_19"
  top: "W_hc_h_19"
  param {
    name: "W_hc"
  }
  inner_product_param {
    num_output: 2048
    bias_term: false
    weight_filler {
      type: "uniform"
      min: -0.01
      max: 0.01
    }
    axis: 2
  }
}
layer {
  name: "lstm1_gate_input_20"
  type: "Eltwise"
  bottom: "W_hc_h_19"
  bottom: "W_xc_x_20"
  top: "gate_input_20"
  eltwise_param {
    operation: SUM
  }
}
layer {
  name: "lstm1_unit_20"
  type: "LSTMUnit"
  bottom: "c_19"
  bottom: "gate_input_20"
  bottom: "cont_20"
  top: "c_20"
  top: "h_20"
}
layer {
  name: "lstm1_h_conted_20"
  type: "Scale"
  bottom: "h_20"
  bottom: "cont_21"
  top: "h_conted_20"
  scale_param {
    axis: 0
  }
}
layer {
  name: "lstm1_transform_21"
  type: "InnerProduct"
  bottom: "h_conted_20"
  top: "W_hc_h_20"
  param {
    name: "W_hc"
  }
  inner_product_param {
    num_output: 2048
    bias_term: false
    weight_filler {
      type: "uniform"
      min: -0.01
      max: 0.01
    }
    axis: 2
  }
}
layer {
  name: "lstm1_gate_input_21"
  type: "Eltwise"
  bottom: "W_hc_h_20"
  bottom: "W_xc_x_21"
  top: "gate_input_21"
  eltwise_param {
    operation: SUM
  }
}
layer {
  name: "lstm1_unit_21"
  type: "LSTMUnit"
  bottom: "c_20"
  bottom: "gate_input_21"
  bottom: "cont_21"
  top: "c_21"
  top: "h_21"
}
layer {
  name: "lstm1_h_conted_21"
  type: "Scale"
  bottom: "h_21"
  bottom: "cont_22"
  top: "h_conted_21"
  scale_param {
    axis: 0
  }
}
layer {
  name: "lstm1_transform_22"
  type: "InnerProduct"
  bottom: "h_conted_21"
  top: "W_hc_h_21"
  param {
    name: "W_hc"
  }
  inner_product_param {
    num_output: 2048
    bias_term: false
    weight_filler {
      type: "uniform"
      min: -0.01
      max: 0.01
    }
    axis: 2
  }
}
layer {
  name: "lstm1_gate_input_22"
  type: "Eltwise"
  bottom: "W_hc_h_21"
  bottom: "W_xc_x_22"
  top: "gate_input_22"
  eltwise_param {
    operation: SUM
  }
}
layer {
  name: "lstm1_unit_22"
  type: "LSTMUnit"
  bottom: "c_21"
  bottom: "gate_input_22"
  bottom: "cont_22"
  top: "c_22"
  top: "h_22"
}
layer {
  name: "lstm1_h_conted_22"
  type: "Scale"
  bottom: "h_22"
  bottom: "cont_23"
  top: "h_conted_22"
  scale_param {
    axis: 0
  }
}
layer {
  name: "lstm1_transform_23"
  type: "InnerProduct"
  bottom: "h_conted_22"
  top: "W_hc_h_22"
  param {
    name: "W_hc"
  }
  inner_product_param {
    num_output: 2048
    bias_term: false
    weight_filler {
      type: "uniform"
      min: -0.01
      max: 0.01
    }
    axis: 2
  }
}
layer {
  name: "lstm1_gate_input_23"
  type: "Eltwise"
  bottom: "W_hc_h_22"
  bottom: "W_xc_x_23"
  top: "gate_input_23"
  eltwise_param {
    operation: SUM
  }
}
layer {
  name: "lstm1_unit_23"
  type: "LSTMUnit"
  bottom: "c_22"
  bottom: "gate_input_23"
  bottom: "cont_23"
  top: "c_23"
  top: "h_23"
}
layer {
  name: "lstm1_h_conted_23"
  type: "Scale"
  bottom: "h_23"
  bottom: "cont_24"
  top: "h_conted_23"
  scale_param {
    axis: 0
  }
}
layer {
  name: "lstm1_transform_24"
  type: "InnerProduct"
  bottom: "h_conted_23"
  top: "W_hc_h_23"
  param {
    name: "W_hc"
  }
  inner_product_param {
    num_output: 2048
    bias_term: false
    weight_filler {
      type: "uniform"
      min: -0.01
      max: 0.01
    }
    axis: 2
  }
}
layer {
  name: "lstm1_gate_input_24"
  type: "Eltwise"
  bottom: "W_hc_h_23"
  bottom: "W_xc_x_24"
  top: "gate_input_24"
  eltwise_param {
    operation: SUM
  }
}
layer {
  name: "lstm1_unit_24"
  type: "LSTMUnit"
  bottom: "c_23"
  bottom: "gate_input_24"
  bottom: "cont_24"
  top: "c_24"
  top: "h_24"
}
layer {
  name: "lstm1_h_conted_24"
  type: "Scale"
  bottom: "h_24"
  bottom: "cont_25"
  top: "h_conted_24"
  scale_param {
    axis: 0
  }
}
layer {
  name: "lstm1_transform_25"
  type: "InnerProduct"
  bottom: "h_conted_24"
  top: "W_hc_h_24"
  param {
    name: "W_hc"
  }
  inner_product_param {
    num_output: 2048
    bias_term: false
    weight_filler {
      type: "uniform"
      min: -0.01
      max: 0.01
    }
    axis: 2
  }
}
layer {
  name: "lstm1_gate_input_25"
  type: "Eltwise"
  bottom: "W_hc_h_24"
  bottom: "W_xc_x_25"
  top: "gate_input_25"
  eltwise_param {
    operation: SUM
  }
}
layer {
  name: "lstm1_unit_25"
  type: "LSTMUnit"
  bottom: "c_24"
  bottom: "gate_input_25"
  bottom: "cont_25"
  top: "c_25"
  top: "h_25"
}
layer {
  name: "lstm1_h_conted_25"
  type: "Scale"
  bottom: "h_25"
  bottom: "cont_26"
  top: "h_conted_25"
  scale_param {
    axis: 0
  }
}
layer {
  name: "lstm1_transform_26"
  type: "InnerProduct"
  bottom: "h_conted_25"
  top: "W_hc_h_25"
  param {
    name: "W_hc"
  }
  inner_product_param {
    num_output: 2048
    bias_term: false
    weight_filler {
      type: "uniform"
      min: -0.01
      max: 0.01
    }
    axis: 2
  }
}
layer {
  name: "lstm1_gate_input_26"
  type: "Eltwise"
  bottom: "W_hc_h_25"
  bottom: "W_xc_x_26"
  top: "gate_input_26"
  eltwise_param {
    operation: SUM
  }
}
layer {
  name: "lstm1_unit_26"
  type: "LSTMUnit"
  bottom: "c_25"
  bottom: "gate_input_26"
  bottom: "cont_26"
  top: "c_26"
  top: "h_26"
}
layer {
  name: "lstm1_h_conted_26"
  type: "Scale"
  bottom: "h_26"
  bottom: "cont_27"
  top: "h_conted_26"
  scale_param {
    axis: 0
  }
}
layer {
  name: "lstm1_transform_27"
  type: "InnerProduct"
  bottom: "h_conted_26"
  top: "W_hc_h_26"
  param {
    name: "W_hc"
  }
  inner_product_param {
    num_output: 2048
    bias_term: false
    weight_filler {
      type: "uniform"
      min: -0.01
      max: 0.01
    }
    axis: 2
  }
}
layer {
  name: "lstm1_gate_input_27"
  type: "Eltwise"
  bottom: "W_hc_h_26"
  bottom: "W_xc_x_27"
  top: "gate_input_27"
  eltwise_param {
    operation: SUM
  }
}
layer {
  name: "lstm1_unit_27"
  type: "LSTMUnit"
  bottom: "c_26"
  bottom: "gate_input_27"
  bottom: "cont_27"
  top: "c_27"
  top: "h_27"
}
layer {
  name: "lstm1_h_conted_27"
  type: "Scale"
  bottom: "h_27"
  bottom: "cont_28"
  top: "h_conted_27"
  scale_param {
    axis: 0
  }
}
layer {
  name: "lstm1_transform_28"
  type: "InnerProduct"
  bottom: "h_conted_27"
  top: "W_hc_h_27"
  param {
    name: "W_hc"
  }
  inner_product_param {
    num_output: 2048
    bias_term: false
    weight_filler {
      type: "uniform"
      min: -0.01
      max: 0.01
    }
    axis: 2
  }
}
layer {
  name: "lstm1_gate_input_28"
  type: "Eltwise"
  bottom: "W_hc_h_27"
  bottom: "W_xc_x_28"
  top: "gate_input_28"
  eltwise_param {
    operation: SUM
  }
}
layer {
  name: "lstm1_unit_28"
  type: "LSTMUnit"
  bottom: "c_27"
  bottom: "gate_input_28"
  bottom: "cont_28"
  top: "c_28"
  top: "h_28"
}
layer {
  name: "lstm1_h_conted_28"
  type: "Scale"
  bottom: "h_28"
  bottom: "cont_29"
  top: "h_conted_28"
  scale_param {
    axis: 0
  }
}
layer {
  name: "lstm1_transform_29"
  type: "InnerProduct"
  bottom: "h_conted_28"
  top: "W_hc_h_28"
  param {
    name: "W_hc"
  }
  inner_product_param {
    num_output: 2048
    bias_term: false
    weight_filler {
      type: "uniform"
      min: -0.01
      max: 0.01
    }
    axis: 2
  }
}
layer {
  name: "lstm1_gate_input_29"
  type: "Eltwise"
  bottom: "W_hc_h_28"
  bottom: "W_xc_x_29"
  top: "gate_input_29"
  eltwise_param {
    operation: SUM
  }
}
layer {
  name: "lstm1_unit_29"
  type: "LSTMUnit"
  bottom: "c_28"
  bottom: "gate_input_29"
  bottom: "cont_29"
  top: "c_29"
  top: "h_29"
}
layer {
  name: "lstm1_h_conted_29"
  type: "Scale"
  bottom: "h_29"
  bottom: "cont_30"
  top: "h_conted_29"
  scale_param {
    axis: 0
  }
}
layer {
  name: "lstm1_transform_30"
  type: "InnerProduct"
  bottom: "h_conted_29"
  top: "W_hc_h_29"
  param {
    name: "W_hc"
  }
  inner_product_param {
    num_output: 2048
    bias_term: false
    weight_filler {
      type: "uniform"
      min: -0.01
      max: 0.01
    }
    axis: 2
  }
}
layer {
  name: "lstm1_gate_input_30"
  type: "Eltwise"
  bottom: "W_hc_h_29"
  bottom: "W_xc_x_30"
  top: "gate_input_30"
  eltwise_param {
    operation: SUM
  }
}
layer {
  name: "lstm1_unit_30"
  type: "LSTMUnit"
  bottom: "c_29"
  bottom: "gate_input_30"
  bottom: "cont_30"
  top: "c_30"
  top: "h_30"
}
layer {
  name: "lstm1_h_conted_30"
  type: "Scale"
  bottom: "h_30"
  bottom: "cont_31"
  top: "h_conted_30"
  scale_param {
    axis: 0
  }
}
layer {
  name: "lstm1_transform_31"
  type: "InnerProduct"
  bottom: "h_conted_30"
  top: "W_hc_h_30"
  param {
    name: "W_hc"
  }
  inner_product_param {
    num_output: 2048
    bias_term: false
    weight_filler {
      type: "uniform"
      min: -0.01
      max: 0.01
    }
    axis: 2
  }
}
layer {
  name: "lstm1_gate_input_31"
  type: "Eltwise"
  bottom: "W_hc_h_30"
  bottom: "W_xc_x_31"
  top: "gate_input_31"
  eltwise_param {
    operation: SUM
  }
}
layer {
  name: "lstm1_unit_31"
  type: "LSTMUnit"
  bottom: "c_30"
  bottom: "gate_input_31"
  bottom: "cont_31"
  top: "c_31"
  top: "h_31"
}
layer {
  name: "lstm1_h_conted_31"
  type: "Scale"
  bottom: "h_31"
  bottom: "cont_32"
  top: "h_conted_31"
  scale_param {
    axis: 0
  }
}
layer {
  name: "lstm1_transform_32"
  type: "InnerProduct"
  bottom: "h_conted_31"
  top: "W_hc_h_31"
  param {
    name: "W_hc"
  }
  inner_product_param {
    num_output: 2048
    bias_term: false
    weight_filler {
      type: "uniform"
      min: -0.01
      max: 0.01
    }
    axis: 2
  }
}
layer {
  name: "lstm1_gate_input_32"
  type: "Eltwise"
  bottom: "W_hc_h_31"
  bottom: "W_xc_x_32"
  top: "gate_input_32"
  eltwise_param {
    operation: SUM
  }
}
layer {
  name: "lstm1_unit_32"
  type: "LSTMUnit"
  bottom: "c_31"
  bottom: "gate_input_32"
  bottom: "cont_32"
  top: "c_32"
  top: "h_32"
}
layer {
  name: "lstm1_h_conted_32"
  type: "Scale"
  bottom: "h_32"
  bottom: "cont_33"
  top: "h_conted_32"
  scale_param {
    axis: 0
  }
}
layer {
  name: "lstm1_transform_33"
  type: "InnerProduct"
  bottom: "h_conted_32"
  top: "W_hc_h_32"
  param {
    name: "W_hc"
  }
  inner_product_param {
    num_output: 2048
    bia
I1018 12:08:51.617373 34502 layer_factory.hpp:77] Creating layer lstm1_
I1018 12:08:51.617393 34502 net.cpp:84] Creating Layer lstm1_
I1018 12:08:51.617399 34502 net.cpp:380] lstm1_ -> x
I1018 12:08:51.617425 34502 net.cpp:380] lstm1_ -> cont
I1018 12:08:51.617475 34502 net.cpp:122] Setting up lstm1_
I1018 12:08:51.617482 34502 net.cpp:129] Top shape: 128 5 512 (327680)
I1018 12:08:51.617488 34502 net.cpp:129] Top shape: 128 5 (640)
I1018 12:08:51.617492 34502 net.cpp:137] Memory required for data: 1313280
I1018 12:08:51.617497 34502 layer_factory.hpp:77] Creating layer lstm1_
I1018 12:08:51.617504 34502 net.cpp:84] Creating Layer lstm1_
I1018 12:08:51.617509 34502 net.cpp:380] lstm1_ -> c_0
I1018 12:08:51.617517 34502 net.cpp:380] lstm1_ -> h_0
I1018 12:08:51.617553 34502 net.cpp:122] Setting up lstm1_
I1018 12:08:51.617560 34502 net.cpp:129] Top shape: 1 5 512 (2560)
I1018 12:08:51.617566 34502 net.cpp:129] Top shape: 1 5 512 (2560)
I1018 12:08:51.617570 34502 net.cpp:137] Memory required for data: 1333760
I1018 12:08:51.617574 34502 layer_factory.hpp:77] Creating layer lstm1_cont_slice
I1018 12:08:51.617594 34502 net.cpp:84] Creating Layer lstm1_cont_slice
I1018 12:08:51.617599 34502 net.cpp:406] lstm1_cont_slice <- cont
I1018 12:08:51.617612 34502 net.cpp:380] lstm1_cont_slice -> cont_1
I1018 12:08:51.617632 34502 net.cpp:380] lstm1_cont_slice -> cont_2
…
I1018 12:08:51.619812 34502 net.cpp:380] lstm1_cont_slice -> cont_122
I1018 12:08:51.619829 34502 net.cpp:380] lstm1_cont_slice -> cont_123
I1018 12:08:51.619846 34502 net.cpp:380] lstm1_cont_slice -> cont_124
I1018 12:08:51.619863 34502 net.cpp:380] lstm1_cont_slice -> cont_125
I1018 12:08:51.619887 34502 net.cpp:380] lstm1_cont_slice -> cont_126
I1018 12:08:51.619905 34502 net.cpp:380] lstm1_cont_slice -> cont_127
I1018 12:08:51.619922 34502 net.cpp:380] lstm1_cont_slice -> cont_128
I1018 12:08:51.621256 34502 net.cpp:122] Setting up lstm1_cont_slice
I1018 12:08:51.621265 34502 net.cpp:129] Top shape: 1 5 (5)
I1018 12:08:51.621271 34502 net.cpp:129] Top shape: 1 5 (5)
I1018 12:08:51.621275 34502 net.cpp:129] Top shape: 1 5 (5)
I1018 12:08:51.621279 34502 net.cpp:129] Top shape: 1 5 (5)
I1018 12:08:51.621284 34502 net.cpp:129] Top shape: 1 5 (5)
I1018 12:08:51.621289 34502 net.cpp:129] Top shape: 1 5 (5)
I1018 12:08:51.621294 34502 net.cpp:129] Top shape: 1 5 (5)
I1018 12:08:51.621299 34502 net.cpp:129] Top shape: 1 5 (5)
I1018 12:08:51.621302 34502 net.cpp:129] Top shape: 1 5 (5)
I1018 12:08:51.621306 34502 net.cpp:129] Top shape: 1 5 (5)
I1018 12:08:51.621311 34502 net.cpp:129] Top shape: 1 5 (5)
I1018 12:08:51.621315 34502 net.cpp:129] Top shape: 1 5 (5)
I1018 12:08:51.621320 34502 net.cpp:129] Top shape: 1 5 (5)
I1018 12:08:51.621325 34502 net.cpp:129] Top shape: 1 5 (5)
I1018 12:08:51.621328 34502 net.cpp:129] Top shape: 1 5 (5)
I1018 12:08:51.621333 34502 net.cpp:129] Top shape: 1 5 (5)
I1018 12:08:51.621337 34502 net.cpp:129] Top shape: 1 5 (5)
I1018 12:08:51.621341 34502 net.cpp:129] Top shape: 1 5 (5)
I1018 12:08:51.621346 34502 net.cpp:129] Top shape: 1 5 (5)
I1018 12:08:51.621351 34502 net.cpp:129] Top shape: 1 5 (5)
I1018 12:08:51.621354 34502 net.cpp:129] Top shape: 1 5 (5)
I1018 12:08:51.621359 34502 net.cpp:129] Top shape: 1 5 (5)
I1018 12:08:51.621363 34502 net.cpp:129] Top shape: 1 5 (5)
I1018 12:08:51.621367 34502 net.cpp:129] Top shape: 1 5 (5)
I1018 12:08:51.621371 34502 net.cpp:129] Top shape: 1 5 (5)
I1018 12:08:51.621376 34502 net.cpp:129] Top shape: 1 5 (5)
I1018 12:08:51.621381 34502 net.cpp:129] Top shape: 1 5 (5)
I1018 12:08:51.621384 34502 net.cpp:129] Top shape: 1 5 (5)
I1018 12:08:51.621389 34502 net.cpp:129] Top shape: 1 5 (5)
I1018 12:08:51.621393 34502 net.cpp:129] Top shape: 1 5 (5)
I1018 12:08:51.621398 34502 net.cpp:129] Top shape: 1 5 (5)
I1018 12:08:51.621402 34502 net.cpp:129] Top shape: 1 5 (5)
I1018 12:08:51.621407 34502 net.cpp:129] Top shape: 1 5 (5)
I1018 12:08:51.621412 34502 net.cpp:129] Top shape: 1 5 (5)
I1018 12:08:51.621415 34502 net.cpp:129] Top shape: 1 5 (5)
I1018 12:08:51.621420 34502 net.cpp:129] Top shape: 1 5 (5)
I1018 12:08:51.621424 34502 net.cpp:129] Top shape: 1 5 (5)
I1018 12:08:51.621428 34502 net.cpp:129] Top shape: 1 5 (5)
I1018 12:08:51.621433 34502 net.cpp:129] Top shape: 1 5 (5)
I1018 12:08:51.621438 34502 net.cpp:129] Top shape: 1 5 (5)
I1018 12:08:51.621441 34502 net.cpp:129] Top shape: 1 5 (5)
I1018 12:08:51.621446 34502 net.cpp:129] Top shape: 1 5 (5)
I1018 12:08:51.621450 34502 net.cpp:129] Top shape: 1 5 (5)
I1018 12:08:51.621454 34502 net.cpp:129] Top shape: 1 5 (5)
I1018 12:08:51.621459 34502 net.cpp:129] Top shape: 1 5 (5)
I1018 12:08:51.621464 34502 net.cpp:129] Top shape: 1 5 (5)
I1018 12:08:51.621467 34502 net.cpp:129] Top shape: 1 5 (5)
I1018 12:08:51.621472 34502 net.cpp:129] Top shape: 1 5 (5)
I1018 12:08:51.621476 34502 net.cpp:129] Top shape: 1 5 (5)
I1018 12:08:51.621480 34502 net.cpp:129] Top shape: 1 5 (5)
I1018 12:08:51.621485 34502 net.cpp:129] Top shape: 1 5 (5)
I1018 12:08:51.621490 34502 net.cpp:129] Top shape: 1 5 (5)
I1018 12:08:51.621493 34502 net.cpp:129] Top shape: 1 5 (5)
I1018 12:08:51.621498 34502 net.cpp:129] Top shape: 1 5 (5)
I1018 12:08:51.621502 34502 net.cpp:129] Top shape: 1 5 (5)
I1018 12:08:51.621507 34502 net.cpp:129] Top shape: 1 5 (5)
I1018 12:08:51.621511 34502 net.cpp:129] Top shape: 1 5 (5)
I1018 12:08:51.621515 34502 net.cpp:129] Top shape: 1 5 (5)
I1018 12:08:51.621520 34502 net.cpp:129] Top shape: 1 5 (5)
I1018 12:08:51.621525 34502 net.cpp:129] Top shape: 1 5 (5)
I1018 12:08:51.621529 34502 net.cpp:129] Top shape: 1 5 (5)
I1018 12:08:51.621533 34502 net.cpp:129] Top shape: 1 5 (5)
I1018 12:08:51.621538 34502 net.cpp:129] Top shape: 1 5 (5)
I1018 12:08:51.621542 34502 net.cpp:129] Top shape: 1 5 (5)
I1018 12:08:51.621546 34502 net.cpp:129] Top shape: 1 5 (5)
I1018 12:08:51.621551 34502 net.cpp:129] Top shape: 1 5 (5)
I1018 12:08:51.621556 34502 net.cpp:129] Top shape: 1 5 (5)
I1018 12:08:51.621559 34502 net.cpp:129] Top shape: 1 5 (5)
I1018 12:08:51.621564 34502 net.cpp:129] Top shape: 1 5 (5)
I1018 12:08:51.621568 34502 net.cpp:129] Top shape: 1 5 (5)
I1018 12:08:51.621572 34502 net.cpp:129] Top shape: 1 5 (5)
I1018 12:08:51.621577 34502 net.cpp:129] Top shape: 1 5 (5)
I1018 12:08:51.621582 34502 net.cpp:129] Top shape: 1 5 (5)
I1018 12:08:51.621587 34502 net.cpp:129] Top shape: 1 5 (5)
I1018 12:08:51.621590 34502 net.cpp:129] Top shape: 1 5 (5)
I1018 12:08:51.621594 34502 net.cpp:129] Top shape: 1 5 (5)
I1018 12:08:51.621599 34502 net.cpp:129] Top shape: 1 5 (5)
I1018 12:08:51.621603 34502 net.cpp:129] Top shape: 1 5 (5)
I1018 12:08:51.621608 34502 net.cpp:129] Top shape: 1 5 (5)
I1018 12:08:51.621613 34502 net.cpp:129] Top shape: 1 5 (5)
I1018 12:08:51.621616 34502 net.cpp:129] Top shape: 1 5 (5)
I1018 12:08:51.621621 34502 net.cpp:129] Top shape: 1 5 (5)
I1018 12:08:51.621625 34502 net.cpp:129] Top shape: 1 5 (5)
I1018 12:08:51.621630 34502 net.cpp:129] Top shape: 1 5 (5)
I1018 12:08:51.621634 34502 net.cpp:129] Top shape: 1 5 (5)
I1018 12:08:51.621639 34502 net.cpp:129] Top shape: 1 5 (5)
I1018 12:08:51.621644 34502 net.cpp:129] Top shape: 1 5 (5)
I1018 12:08:51.621647 34502 net.cpp:129] Top shape: 1 5 (5)
I1018 12:08:51.621652 34502 net.cpp:129] Top shape: 1 5 (5)
I1018 12:08:51.621656 34502 net.cpp:129] Top shape: 1 5 (5)
I1018 12:08:51.621660 34502 net.cpp:129] Top shape: 1 5 (5)
I1018 12:08:51.621665 34502 net.cpp:129] Top shape: 1 5 (5)
I1018 12:08:51.621670 34502 net.cpp:129] Top shape: 1 5 (5)
I1018 12:08:51.621673 34502 net.cpp:129] Top shape: 1 5 (5)
I1018 12:08:51.621678 34502 net.cpp:129] Top shape: 1 5 (5)
I1018 12:08:51.621682 34502 net.cpp:129] Top shape: 1 5 (5)
I1018 12:08:51.621687 34502 net.cpp:129] Top shape: 1 5 (5)
I1018 12:08:51.621691 34502 net.cpp:129] Top shape: 1 5 (5)
I1018 12:08:51.621695 34502 net.cpp:129] Top shape: 1 5 (5)
I1018 12:08:51.621701 34502 net.cpp:129] Top shape: 1 5 (5)
I1018 12:08:51.621704 34502 net.cpp:129] Top shape: 1 5 (5)
I1018 12:08:51.621709 34502 net.cpp:129] Top shape: 1 5 (5)
I1018 12:08:51.621713 34502 net.cpp:129] Top shape: 1 5 (5)
I1018 12:08:51.621717 34502 net.cpp:129] Top shape: 1 5 (5)
I1018 12:08:51.621722 34502 net.cpp:129] Top shape: 1 5 (5)
I1018 12:08:51.621726 34502 net.cpp:129] Top shape: 1 5 (5)
I1018 12:08:51.621731 34502 net.cpp:129] Top shape: 1 5 (5)
I1018 12:08:51.621736 34502 net.cpp:129] Top shape: 1 5 (5)
I1018 12:08:51.621739 34502 net.cpp:129] Top shape: 1 5 (5)
I1018 12:08:51.621744 34502 net.cpp:129] Top shape: 1 5 (5)
I1018 12:08:51.621748 34502 net.cpp:129] Top shape: 1 5 (5)
I1018 12:08:51.621753 34502 net.cpp:129] Top shape: 1 5 (5)
I1018 12:08:51.621757 34502 net.cpp:129] Top shape: 1 5 (5)
I1018 12:08:51.621762 34502 net.cpp:129] Top shape: 1 5 (5)
I1018 12:08:51.621767 34502 net.cpp:129] Top shape: 1 5 (5)
I1018 12:08:51.621770 34502 net.cpp:129] Top shape: 1 5 (5)
I1018 12:08:51.621774 34502 net.cpp:129] Top shape: 1 5 (5)
I1018 12:08:51.621779 34502 net.cpp:129] Top shape: 1 5 (5)
I1018 12:08:51.621783 34502 net.cpp:129] Top shape: 1 5 (5)
I1018 12:08:51.621788 34502 net.cpp:129] Top shape: 1 5 (5)
I1018 12:08:51.621793 34502 net.cpp:129] Top shape: 1 5 (5)
I1018 12:08:51.621796 34502 net.cpp:129] Top shape: 1 5 (5)
I1018 12:08:51.621800 34502 net.cpp:129] Top shape: 1 5 (5)
I1018 12:08:51.621805 34502 net.cpp:129] Top shape: 1 5 (5)
I1018 12:08:51.621810 34502 net.cpp:129] Top shape: 1 5 (5)
I1018 12:08:51.621814 34502 net.cpp:129] Top shape: 1 5 (5)
I1018 12:08:51.621819 34502 net.cpp:129] Top shape: 1 5 (5)
I1018 12:08:51.621824 34502 net.cpp:129] Top shape: 1 5 (5)
I1018 12:08:51.621827 34502 net.cpp:137] Memory required for data: 1336320
I1018 12:08:51.621831 34502 layer_factory.hpp:77] Creating layer cont_1_lstm1_cont_slice_0_split
I1018 12:08:51.621840 34502 net.cpp:84] Creating Layer cont_1_lstm1_cont_slice_0_split
I1018 12:08:51.621845 34502 net.cpp:406] cont_1_lstm1_cont_slice_0_split <- cont_1
I1018 12:08:51.621851 34502 net.cpp:380] cont_1_lstm1_cont_slice_0_split -> cont_1_lstm1_cont_slice_0_split_0
I1018 12:08:51.621860 34502 net.cpp:380] cont_1_lstm1_cont_slice_0_split -> cont_1_lstm1_cont_slice_0_split_1
I1018 12:08:51.621894 34502 net.cpp:122] Setting up cont_1_lstm1_cont_slice_0_split
I1018 12:08:51.621901 34502 net.cpp:129] Top shape: 1 5 (5)
I1018 12:08:51.621904 34502 net.cpp:129] Top shape: 1 5 (5)
I1018 12:08:51.621908 34502 net.cpp:137] Memory required for data: 1336360
I1018 12:08:51.621912 34502 layer_factory.hpp:77] Creating layer cont_2_lstm1_cont_slice_1_split
I1018 12:08:51.621920 34502 net.cpp:84] Creating Layer cont_2_lstm1_cont_slice_1_split
I1018 12:08:51.621924 34502 net.cpp:406] cont_2_lstm1_cont_slice_1_split <- cont_2
I1018 12:08:51.621930 34502 net.cpp:380] cont_2_lstm1_cont_slice_1_split -> cont_2_lstm1_cont_slice_1_split_0
I1018 12:08:51.621937 34502 net.cpp:380] cont_2_lstm1_cont_slice_1_split -> cont_2_lstm1_cont_slice_1_split_1
I1018 12:08:51.621971 34502 net.cpp:122] Setting up cont_2_lstm1_cont_slice_1_split
I1018 12:08:51.621976 34502 net.cpp:129] Top shape: 1 5 (5)
I1018 12:08:51.621981 34502 net.cpp:129] Top shape: 1 5 (5)
I1018 12:08:51.621985 34502 net.cpp:137] Memory required for data: 1336400
I1018 12:08:51.621989 34502 layer_factory.hpp:77] Creating layer cont_3_lstm1_cont_slice_2_split
I1018 12:08:51.621994 34502 net.cpp:84] Creating Layer cont_3_lstm1_cont_slice_2_split
I1018 12:08:51.621999 34502 net.cpp:406] cont_3_lstm1_cont_slice_2_split <- cont_3
I1018 12:08:51.622004 34502 net.cpp:380] cont_3_lstm1_cont_slice_2_split -> cont_3_lstm1_cont_slice_2_split_0
I1018 12:08:51.622010 34502 net.cpp:380] cont_3_lstm1_cont_slice_2_split -> cont_3_lstm1_cont_slice_2_split_1
I1018 12:08:51.622041 34502 net.cpp:122] Setting up cont_3_lstm1_cont_slice_2_split
I1018 12:08:51.622047 34502 net.cpp:129] Top shape: 1 5 (5)
I1018 12:08:51.622052 34502 net.cpp:129] Top shape: 1 5 (5)
I1018 12:08:51.622056 34502 net.cpp:137] Memory required for data: 1336440
I1018 12:08:51.622059 34502 layer_factory.hpp:77] Creating layer cont_4_lstm1_cont_slice_3_split
I1018 12:08:51.622064 34502 net.cpp:84] Creating Layer cont_4_lstm1_cont_slice_3_split
I1018 12:08:51.622068 34502 net.cpp:406] cont_4_lstm1_cont_slice_3_split <- cont_4
I1018 12:08:51.622076 34502 net.cpp:380] cont_4_lstm1_cont_slice_3_split -> cont_4_lstm1_cont_slice_3_split_0
I1018 12:08:51.622082 34502 net.cpp:380] cont_4_lstm1_cont_slice_3_split -> cont_4_lstm1_cont_slice_3_split_1
I1018 12:08:51.622113 34502 net.cpp:122] Setting up cont_4_lstm1_cont_slice_3_split
I1018 12:08:51.622118 34502 net.cpp:129] Top shape: 1 5 (5)
I1018 12:08:51.622123 34502 net.cpp:129] Top shape: 1 5 (5)
I1018 12:08:51.622128 34502 net.cpp:137] Memory required for data: 1336480
I1018 12:08:51.622130 34502 layer_factory.hpp:77] Creating layer cont_5_lstm1_cont_slice_4_split
I1018 12:08:51.622135 34502 net.cpp:84] Creating Layer cont_5_lstm1_cont_slice_4_split
I1018 12:08:51.622139 34502 net.cpp:406] cont_5_lstm1_cont_slice_4_split <- cont_5
I1018 12:08:51.622148 34502 net.cpp:380] cont_5_lstm1_cont_slice_4_split -> cont_5_lstm1_cont_slice_4_split_0
I1018 12:08:51.622153 34502 net.cpp:380] cont_5_lstm1_cont_slice_4_split -> cont_5_lstm1_cont_slice_4_split_1
I1018 12:08:51.622184 34502 net.cpp:122] Setting up cont_5_lstm1_cont_slice_4_split
I1018 12:08:51.622189 34502 net.cpp:129] Top shape: 1 5 (5)
I1018 12:08:51.622193 34502 net.cpp:129] Top shape: 1 5 (5)
I1018 12:08:51.622197 34502 net.cpp:137] Memory required for data: 1336520
I1018 12:08:51.622200 34502 layer_factory.hpp:77] Creating layer cont_6_lstm1_cont_slice_5_split
I1018 12:08:51.622206 34502 net.cpp:84] Creating Layer cont_6_lstm1_cont_slice_5_split
I1018 12:08:51.622210 34502 net.cpp:406] cont_6_lstm1_cont_slice_5_split <- cont_6
I1018 12:08:51.622216 34502 net.cpp:380] cont_6_lstm1_cont_slice_5_split -> cont_6_lstm1_cont_slice_5_split_0
I1018 12:08:51.622222 34502 net.cpp:380] cont_6_lstm1_cont_slice_5_split -> cont_6_lstm1_cont_slice_5_split_1
I1018 12:08:51.622252 34502 net.cpp:122] Setting up cont_6_lstm1_cont_slice_5_split
I1018 12:08:51.622258 34502 net.cpp:129] Top shape: 1 5 (5)
I1018 12:08:51.622262 34502 net.cpp:129] Top shape: 1 5 (5)
I1018 12:08:51.622267 34502 net.cpp:137] Memory required for data: 1336560
I1018 12:08:51.622270 34502 layer_factory.hpp:77] Creating layer cont_7_lstm1_cont_slice_6_split
I1018 12:08:51.622275 34502 net.cpp:84] Creating Layer cont_7_lstm1_cont_slice_6_split
I1018 12:08:51.622279 34502 net.cpp:406] cont_7_lstm1_cont_slice_6_split <- cont_7
I1018 12:08:51.622287 34502 net.cpp:380] cont_7_lstm1_cont_slice_6_split -> cont_7_lstm1_cont_slice_6_split_0
I1018 12:08:51.622293 34502 net.cpp:380] cont_7_lstm1_cont_slice_6_split -> cont_7_lstm1_cont_slice_6_split_1
I1018 12:08:51.622320 34502 net.cpp:122] Setting up cont_7_lstm1_cont_slice_6_split
I1018 12:08:51.622326 34502 net.cpp:129] Top shape: 1 5 (5)
I1018 12:08:51.622331 34502 net.cpp:129] Top shape: 1 5 (5)
I1018 12:08:51.622335 34502 net.cpp:137] Memory required for data: 1336600
I1018 12:08:51.622339 34502 layer_factory.hpp:77] Creating layer cont_8_lstm1_cont_slice_7_split
I1018 12:08:51.622345 34502 net.cpp:84] Creating Layer cont_8_lstm1_cont_slice_7_split
I1018 12:08:51.622349 34502 net.cpp:406] cont_8_lstm1_cont_slice_7_split <- cont_8
I1018 12:08:51.622354 34502 net.cpp:380] cont_8_lstm1_cont_slice_7_split -> cont_8_lstm1_cont_slice_7_split_0
I1018 12:08:51.622361 34502 net.cpp:380] cont_8_lstm1_cont_slice_7_split -> cont_8_lstm1_cont_slice_7_split_1
I1018 12:08:51.622390 34502 net.cpp:122] Setting up cont_8_lstm1_cont_slice_7_split
I1018 12:08:51.622396 34502 net.cpp:129] Top shape: 1 5 (5)
I1018 12:08:51.622400 34502 net.cpp:129] Top shape: 1 5 (5)
I1018 12:08:51.622404 34502 net.cpp:137] Memory required for data: 1336640
I1018 12:08:51.622408 34502 layer_factory.hpp:77] Creating layer cont_9_lstm1_cont_slice_8_split
I1018 12:08:51.622412 34502 net.cpp:84] Creating Layer cont_9_lstm1_cont_slice_8_split
I1018 12:08:51.622416 34502 net.cpp:406] cont_9_lstm1_cont_slice_8_split <- cont_9
I1018 12:08:51.622422 34502 net.cpp:380] cont_9_lstm1_cont_slice_8_split -> cont_9_lstm1_cont_slice_8_split_0
I1018 12:08:51.622428 34502 net.cpp:380] cont_9_lstm1_cont_slice_8_split -> cont_9_lstm1_cont_slice_8_split_1
I1018 12:08:51.622457 34502 net.cpp:122] Setting up cont_9_lstm1_cont_slice_8_split
I1018 12:08:51.622463 34502 net.cpp:129] Top shape: 1 5 (5)
I1018 12:08:51.622468 34502 net.cpp:129] Top shape: 1 5 (5)
I1018 12:08:51.622472 34502 net.cpp:137] Memory required for data: 1336680
I1018 12:08:51.622475 34502 layer_factory.hpp:77] Creating layer cont_10_lstm1_cont_slice_9_split
I1018 12:08:51.622480 34502 net.cpp:84] Creating Layer cont_10_lstm1_cont_slice_9_split
I1018 12:08:51.622484 34502 net.cpp:406] cont_10_lstm1_cont_slice_9_split <- cont_10
I1018 12:08:51.622490 34502 net.cpp:380] cont_10_lstm1_cont_slice_9_split -> cont_10_lstm1_cont_slice_9_split_0
I1018 12:08:51.622498 34502 net.cpp:380] cont_10_lstm1_cont_slice_9_split -> cont_10_lstm1_cont_slice_9_split_1
I1018 12:08:51.622525 34502 net.cpp:122] Setting up cont_10_lstm1_cont_slice_9_split
I1018 12:08:51.622531 34502 net.cpp:129] Top shape: 1 5 (5)
I1018 12:08:51.622536 34502 net.cpp:129] Top shape: 1 5 (5)
I1018 12:08:51.622539 34502 net.cpp:137] Memory required for data: 1336720
I1018 12:08:51.622544 34502 layer_factory.hpp:77] Creating layer cont_11_lstm1_cont_slice_10_split
I1018 12:08:51.622548 34502 net.cpp:84] Creating Layer cont_11_lstm1_cont_slice_10_split
I1018 12:08:51.622552 34502 net.cpp:406] cont_11_lstm1_cont_slice_10_split <- cont_11
I1018 12:08:51.622560 34502 net.cpp:380] cont_11_lstm1_cont_slice_10_split -> cont_11_lstm1_cont_slice_10_split_0
I1018 12:08:51.622567 34502 net.cpp:380] cont_11_lstm1_cont_slice_10_split -> cont_11_lstm1_cont_slice_10_split_1
I1018 12:08:51.622596 34502 net.cpp:122] Setting up cont_11_lstm1_cont_slice_10_split
I1018 12:08:51.622601 34502 net.cpp:129] Top shape: 1 5 (5)
I1018 12:08:51.622606 34502 net.cpp:129] Top shape: 1 5 (5)
I1018 12:08:51.622609 34502 net.cpp:137] Memory required for data: 1336760
I1018 12:08:51.622613 34502 layer_factory.hpp:77] Creating layer cont_12_lstm1_cont_slice_11_split
I1018 12:08:51.622618 34502 net.cpp:84] Creating Layer cont_12_lstm1_cont_slice_11_split
I1018 12:08:51.622623 34502 net.cpp:406] cont_12_lstm1_cont_slice_11_split <- cont_12
I1018 12:08:51.622628 34502 net.cpp:380] cont_12_lstm1_cont_slice_11_split -> cont_12_lstm1_cont_slice_11_split_0
I1018 12:08:51.622635 34502 net.cpp:380] cont_12_lstm1_cont_slice_11_split -> cont_12_lstm1_cont_slice_11_split_1
I1018 12:08:51.622666 34502 net.cpp:122] Setting up cont_12_lstm1_cont_slice_11_split
I1018 12:08:51.622673 34502 net.cpp:129] Top shape: 1 5 (5)
I1018 12:08:51.622676 34502 net.cpp:129] Top shape: 1 5 (5)
I1018 12:08:51.622680 34502 net.cpp:137] Memory required for data: 1336800
I1018 12:08:51.622685 34502 layer_factory.hpp:77] Creating layer cont_13_lstm1_cont_slice_12_split
I1018 12:08:51.622689 34502 net.cpp:84] Creating Layer cont_13_lstm1_cont_slice_12_split
I1018 12:08:51.622694 34502 net.cpp:406] cont_13_lstm1_cont_slice_12_split <- cont_13
I1018 12:08:51.622700 34502 net.cpp:380] cont_13_lstm1_cont_slice_12_split -> cont_13_lstm1_cont_slice_12_split_0
I1018 12:08:51.622707 34502 net.cpp:380] cont_13_lstm1_cont_slice_12_split -> cont_13_lstm1_cont_slice_12_split_1
I1018 12:08:51.622736 34502 net.cpp:122] Setting up cont_13_lstm1_cont_slice_12_split
I1018 12:08:51.622741 34502 net.cpp:129] Top shape: 1 5 (5)
I1018 12:08:51.622746 34502 net.cpp:129] Top shape: 1 5 (5)
I1018 12:08:51.622750 34502 net.cpp:137] Memory required for data: 1336840
I1018 12:08:51.622755 34502 layer_factory.hpp:77] Creating layer cont_14_lstm1_cont_slice_13_split
I1018 12:08:51.622759 34502 net.cpp:84] Creating Layer cont_14_lstm1_cont_slice_13_split
I1018 12:08:51.622764 34502 net.cpp:406] cont_14_lstm1_cont_slice_13_split <- cont_14
I1018 12:08:51.622771 34502 net.cpp:380] cont_14_lstm1_cont_slice_13_split -> cont_14_lstm1_cont_slice_13_split_0
I1018 12:08:51.622778 34502 net.cpp:380] cont_14_lstm1_cont_slice_13_split -> cont_14_lstm1_cont_slice_13_split_1
I1018 12:08:51.622805 34502 net.cpp:122] Setting up cont_14_lstm1_cont_slice_13_split
I1018 12:08:51.622812 34502 net.cpp:129] Top shape: 1 5 (5)
I1018 12:08:51.622815 34502 net.cpp:129] Top shape: 1 5 (5)
I1018 12:08:51.622819 34502 net.cpp:137] Memory required for data: 1336880
I1018 12:08:51.622823 34502 layer_factory.hpp:77] Creating layer cont_15_lstm1_cont_slice_14_split
I1018 12:08:51.622829 34502 net.cpp:84] Creating Layer cont_15_lstm1_cont_slice_14_split
I1018 12:08:51.622834 34502 net.cpp:406] cont_15_lstm1_cont_slice_14_split <- cont_15
I1018 12:08:51.622839 34502 net.cpp:380] cont_15_lstm1_cont_slice_14_split -> cont_15_lstm1_cont_slice_14_split_0
I1018 12:08:51.622846 34502 net.cpp:380] cont_15_lstm1_cont_slice_14_split -> cont_15_lstm1_cont_slice_14_split_1
I1018 12:08:51.622875 34502 net.cpp:122] Setting up cont_15_lstm1_cont_slice_14_split
I1018 12:08:51.622881 34502 net.cpp:129] Top shape: 1 5 (5)
I1018 12:08:51.622885 34502 net.cpp:129] Top shape: 1 5 (5)
I1018 12:08:51.622889 34502 net.cpp:137] Memory required for data: 1336920
I1018 12:08:51.622894 34502 layer_factory.hpp:77] Creating layer cont_16_lstm1_cont_slice_15_split
I1018 12:08:51.622898 34502 net.cpp:84] Creating Layer cont_16_lstm1_cont_slice_15_split
I1018 12:08:51.622902 34502 net.cpp:406] cont_16_lstm1_cont_slice_15_split <- cont_16
I1018 12:08:51.622907 34502 net.cpp:380] cont_16_lstm1_cont_slice_15_split -> cont_16_lstm1_cont_slice_15_split_0
I1018 12:08:51.622913 34502 net.cpp:380] cont_16_lstm1_cont_slice_15_split -> cont_16_lstm1_cont_slice_15_split_1
I1018 12:08:51.622953 34502 net.cpp:122] Setting up cont_16_lstm1_cont_slice_15_split
I1018 12:08:51.622959 34502 net.cpp:129] Top shape: 1 5 (5)
I1018 12:08:51.622964 34502 net.cpp:129] Top shape: 1 5 (5)
I1018 12:08:51.622968 34502 net.cpp:137] Memory required for data: 1336960
I1018 12:08:51.622972 34502 layer_factory.hpp:77] Creating layer cont_17_lstm1_cont_slice_16_split
I1018 12:08:51.622977 34502 net.cpp:84] Creating Layer cont_17_lstm1_cont_slice_16_split
I1018 12:08:51.622982 34502 net.cpp:406] cont_17_lstm1_cont_slice_16_split <- cont_17
I1018 12:08:51.622987 34502 net.cpp:380] cont_17_lstm1_cont_slice_16_split -> cont_17_lstm1_cont_slice_16_split_0
I1018 12:08:51.622995 34502 net.cpp:380] cont_17_lstm1_cont_slice_16_split -> cont_17_lstm1_cont_slice_16_split_1
I1018 12:08:51.623024 34502 net.cpp:122] Setting up cont_17_lstm1_cont_slice_16_split
I1018 12:08:51.623030 34502 net.cpp:129] Top shape: 1 5 (5)
I1018 12:08:51.623034 34502 net.cpp:129] Top shape: 1 5 (5)
I1018 12:08:51.623039 34502 net.cpp:137] Memory required for data: 1337000
I1018 12:08:51.623042 34502 layer_factory.hpp:77] Creating layer cont_18_lstm1_cont_slice_17_split
I1018 12:08:51.623050 34502 net.cpp:84] Creating Layer cont_18_lstm1_cont_slice_17_split
I1018 12:08:51.623054 34502 net.cpp:406] cont_18_lstm1_cont_slice_17_split <- cont_18
I1018 12:08:51.623060 34502 net.cpp:380] cont_18_lstm1_cont_slice_17_split -> cont_18_lstm1_cont_slice_17_split_0
I1018 12:08:51.623067 34502 net.cpp:380] cont_18_lstm1_cont_slice_17_split -> cont_18_lstm1_cont_slice_17_split_1
I1018 12:08:51.623097 34502 net.cpp:122] Setting up cont_18_lstm1_cont_slice_17_split
I1018 12:08:51.623103 34502 net.cpp:129] Top shape: 1 5 (5)
I1018 12:08:51.623108 34502 net.cpp:129] Top shape: 1 5 (5)
I1018 12:08:51.623111 34502 net.cpp:137] Memory required for data: 1337040
I1018 12:08:51.623116 34502 layer_factory.hpp:77] Creating layer cont_19_lstm1_cont_slice_18_split
I1018 12:08:51.623121 34502 net.cpp:84] Creating Layer cont_19_lstm1_cont_slice_18_split
I1018 12:08:51.623124 34502 net.cpp:406] cont_19_lstm1_cont_slice_18_split <- cont_19
I1018 12:08:51.623131 34502 net.cpp:380] cont_19_lstm1_cont_slice_18_split -> cont_19_lstm1_cont_slice_18_split_0
I1018 12:08:51.623137 34502 net.cpp:380] cont_19_lstm1_cont_slice_18_split -> cont_19_lstm1_cont_slice_18_split_1
I1018 12:08:51.623167 34502 net.cpp:122] Setting up cont_19_lstm1_cont_slice_18_split
I1018 12:08:51.623172 34502 net.cpp:129] Top shape: 1 5 (5)
I1018 12:08:51.623178 34502 net.cpp:129] Top shape: 1 5 (5)
I1018 12:08:51.623180 34502 net.cpp:137] Memory required for data: 1337080
I1018 12:08:51.623184 34502 layer_factory.hpp:77] Creating layer cont_20_lstm1_cont_slice_19_split
I1018 12:08:51.623189 34502 net.cpp:84] Creating Layer cont_20_lstm1_cont_slice_19_split
I1018 12:08:51.623194 34502 net.cpp:406] cont_20_lstm1_cont_slice_19_split <- cont_20
I1018 12:08:51.623199 34502 net.cpp:380] cont_20_lstm1_cont_slice_19_split -> cont_20_lstm1_cont_slice_19_split_0
I1018 12:08:51.623206 34502 net.cpp:380] cont_20_lstm1_cont_slice_19_split -> cont_20_lstm1_cont_slice_19_split_1
I1018 12:08:51.623236 34502 net.cpp:122] Setting up cont_20_lstm1_cont_slice_19_split
I1018 12:08:51.623242 34502 net.cpp:129] Top shape: 1 5 (5)
I1018 12:08:51.623247 34502 net.cpp:129] Top shape: 1 5 (5)
I1018 12:08:51.623251 34502 net.cpp:137] Memory required for data: 1337120
I1018 12:08:51.623255 34502 layer_factory.hpp:77] Creating layer cont_21_lstm1_cont_slice_20_split
I1018 12:08:51.623260 34502 net.cpp:84] Creating Layer cont_21_lstm1_cont_slice_20_split
I1018 12:08:51.623265 34502 net.cpp:406] cont_21_lstm1_cont_slice_20_split <- cont_21
I1018 12:08:51.623271 34502 net.cpp:380] cont_21_lstm1_cont_slice_20_split -> cont_21_lstm1_cont_slice_20_split_0
I1018 12:08:51.623278 34502 net.cpp:380] cont_21_lstm1_cont_slice_20_split -> cont_21_lstm1_cont_slice_20_split_1
I1018 12:08:51.623316 34502 net.cpp:122] Setting up cont_21_lstm1_cont_slice_20_split
I1018 12:08:51.623322 34502 net.cpp:129] Top shape: 1 5 (5)
I1018 12:08:51.623325 34502 net.cpp:129] Top shape: 1 5 (5)
I1018 12:08:51.623329 34502 net.cpp:137] Memory required for data: 1337160
I1018 12:08:51.623333 34502 layer_factory.hpp:77] Creating layer cont_22_lstm1_cont_slice_21_split
I1018 12:08:51.623339 34502 net.cpp:84] Creating Layer cont_22_lstm1_cont_slice_21_split
I1018 12:08:51.623344 34502 net.cpp:406] cont_22_lstm1_cont_slice_21_split <- cont_22
I1018 12:08:51.623349 34502 net.cpp:380] cont_22_lstm1_cont_slice_21_split -> cont_22_lstm1_cont_slice_21_split_0
I1018 12:08:51.623356 34502 net.cpp:380] cont_22_lstm1_cont_slice_21_split -> cont_22_lstm1_cont_slice_21_split_1
I1018 12:08:51.623384 34502 net.cpp:122] Setting up cont_22_lstm1_cont_slice_21_split
I1018 12:08:51.623390 34502 net.cpp:129] Top shape: 1 5 (5)
I1018 12:08:51.623395 34502 net.cpp:129] Top shape: 1 5 (5)
I1018 12:08:51.623399 34502 net.cpp:137] Memory required for data: 1337200
I1018 12:08:51.623402 34502 layer_factory.hpp:77] Creating layer cont_23_lstm1_cont_slice_22_split
I1018 12:08:51.623407 34502 net.cpp:84] Creating Layer cont_23_lstm1_cont_slice_22_split
I1018 12:08:51.623411 34502 net.cpp:406] cont_23_lstm1_cont_slice_22_split <- cont_23
I1018 12:08:51.623416 34502 net.cpp:380] cont_23_lstm1_cont_slice_22_split -> cont_23_lstm1_cont_slice_22_split_0
I1018 12:08:51.623423 34502 net.cpp:380] cont_23_lstm1_cont_slice_22_split -> cont_23_lstm1_cont_slice_22_split_1
I1018 12:08:51.623451 34502 net.cpp:122] Setting up cont_23_lstm1_cont_slice_22_split
I1018 12:08:51.623457 34502 net.cpp:129] Top shape: 1 5 (5)
I1018 12:08:51.623462 34502 net.cpp:129] Top shape: 1 5 (5)
I1018 12:08:51.623466 34502 net.cpp:137] Memory required for data: 1337240
I1018 12:08:51.623469 34502 layer_factory.hpp:77] Creating layer cont_24_lstm1_cont_slice_23_split
I1018 12:08:51.623474 34502 net.cpp:84] Creating Layer cont_24_lstm1_cont_slice_23_split
I1018 12:08:51.623478 34502 net.cpp:406] cont_24_lstm1_cont_slice_23_split <- cont_24
I1018 12:08:51.623484 34502 net.cpp:380] cont_24_lstm1_cont_slice_23_split -> cont_24_lstm1_cont_slice_23_split_0
I1018 12:08:51.623494 34502 net.cpp:380] cont_24_lstm1_cont_slice_23_split -> cont_24_lstm1_cont_slice_23_split_1
I1018 12:08:51.623522 34502 net.cpp:122] Setting up cont_24_lstm1_cont_slice_23_split
I1018 12:08:51.623528 34502 net.cpp:129] Top shape: 1 5 (5)
I1018 12:08:51.623531 34502 net.cpp:129] Top shape: 1 5 (5)
I1018 12:08:51.623535 34502 net.cpp:137] Memory required for data: 1337280
I1018 12:08:51.623539 34502 layer_factory.hpp:77] Creating layer cont_25_lstm1_cont_slice_24_split
I1018 12:08:51.623545 34502 net.cpp:84] Creating Layer cont_25_lstm1_cont_slice_24_split
I1018 12:08:51.623550 34502 net.cpp:406] cont_25_lstm1_cont_slice_24_split <- cont_25
I1018 12:08:51.623555 34502 net.cpp:380] cont_25_lstm1_cont_slice_24_split -> cont_25_lstm1_cont_slice_24_split_0
I1018 12:08:51.623561 34502 net.cpp:380] cont_25_lstm1_cont_slice_24_split -> cont_25_lstm1_cont_slice_24_split_1
I1018 12:08:51.623589 34502 net.cpp:122] Setting up cont_25_lstm1_cont_slice_24_split
I1018 12:08:51.623595 34502 net.cpp:129] Top shape: 1 5 (5)
I1018 12:08:51.623600 34502 net.cpp:129] Top shape: 1 5 (5)
I1018 12:08:51.623605 34502 net.cpp:137] Memory required for data: 1337320
I1018 12:08:51.623607 34502 layer_factory.hpp:77] Creating layer cont_26_lstm1_cont_slice_25_split
I1018 12:08:51.623612 34502 net.cpp:84] Creating Layer cont_26_lstm1_cont_slice_25_split
I1018 12:08:51.623616 34502 net.cpp:406] cont_26_lstm1_cont_slice_25_split <- cont_26
I1018 12:08:51.623622 34502 net.cpp:380] cont_26_lstm1_cont_slice_25_split -> cont_26_lstm1_cont_slice_25_split_0
I1018 12:08:51.623628 34502 net.cpp:380] cont_26_lstm1_cont_slice_25_split -> cont_26_lstm1_cont_slice_25_split_1
I1018 12:08:51.623656 34502 net.cpp:122] Setting up cont_26_lstm1_cont_slice_25_split
I1018 12:08:51.623662 34502 net.cpp:129] Top shape: 1 5 (5)
I1018 12:08:51.623667 34502 net.cpp:129] Top shape: 1 5 (5)
I1018 12:08:51.623670 34502 net.cpp:137] Memory required for data: 1337360
I1018 12:08:51.623674 34502 layer_factory.hpp:77] Creating layer cont_27_lstm1_cont_slice_26_split
I1018 12:08:51.623679 34502 net.cpp:84] Creating Layer cont_27_lstm1_cont_slice_26_split
I1018 12:08:51.623683 34502 net.cpp:406] cont_27_lstm1_cont_slice_26_split <- cont_27
I1018 12:08:51.623688 34502 net.cpp:380] cont_27_lstm1_cont_slice_26_split -> cont_27_lstm1_cont_slice_26_split_0
I1018 12:08:51.623695 34502 net.cpp:380] cont_27_lstm1_cont_slice_26_split -> cont_27_lstm1_cont_slice_26_split_1
I1018 12:08:51.623723 34502 net.cpp:122] Setting up cont_27_lstm1_cont_slice_26_split
I1018 12:08:51.623729 34502 net.cpp:129] Top shape: 1 5 (5)
I1018 12:08:51.623733 34502 net.cpp:129] Top shape: 1 5 (5)
I1018 12:08:51.623738 34502 net.cpp:137] Memory required for data: 1337400
I1018 12:08:51.623741 34502 layer_factory.hpp:77] Creating layer cont_28_lstm1_cont_slice_27_split
I1018 12:08:51.623745 34502 net.cpp:84] Creating Layer cont_28_lstm1_cont_slice_27_split
I1018 12:08:51.623749 34502 net.cpp:406] cont_28_lstm1_cont_slice_27_split <- cont_28
I1018 12:08:51.623756 34502 net.cpp:380] cont_28_lstm1_cont_slice_27_split -> cont_28_lstm1_cont_slice_27_split_0
I1018 12:08:51.623764 34502 net.cpp:380] cont_28_lstm1_cont_slice_27_split -> cont_28_lstm1_cont_slice_27_split_1
I1018 12:08:51.623790 34502 net.cpp:122] Setting up cont_28_lstm1_cont_slice_27_split
I1018 12:08:51.623795 34502 net.cpp:129] Top shape: 1 5 (5)
I1018 12:08:51.623800 34502 net.cpp:129] Top shape: 1 5 (5)
I1018 12:08:51.623803 34502 net.cpp:137] Memory required for data: 1337440
I1018 12:08:51.623807 34502 layer_factory.hpp:77] Creating layer cont_29_lstm1_cont_slice_28_split
I1018 12:08:51.623814 34502 net.cpp:84] Creating Layer cont_29_lstm1_cont_slice_28_split
I1018 12:08:51.623818 34502 net.cpp:406] cont_29_lstm1_cont_slice_28_split <- cont_29
I1018 12:08:51.623824 34502 net.cpp:380] cont_29_lstm1_cont_slice_28_split -> cont_29_lstm1_cont_slice_28_split_0
I1018 12:08:51.623831 34502 net.cpp:380] cont_29_lstm1_cont_slice_28_split -> cont_29_lstm1_cont_slice_28_split_1
I1018 12:08:51.623859 34502 net.cpp:122] Setting up cont_29_lstm1_cont_slice_28_split
I1018 12:08:51.623865 34502 net.cpp:129] Top shape: 1 5 (5)
I1018 12:08:51.623869 34502 net.cpp:129] Top shape: 1 5 (5)
I1018 12:08:51.623873 34502 net.cpp:137] Memory required for data: 1337480
I1018 12:08:51.623878 34502 layer_factory.hpp:77] Creating layer cont_30_lstm1_cont_slice_29_split
I1018 12:08:51.623884 34502 net.cpp:84] Creating Layer cont_30_lstm1_cont_slice_29_split
I1018 12:08:51.623888 34502 net.cpp:406] cont_30_lstm1_cont_slice_29_split <- cont_30
I1018 12:08:51.623894 34502 net.cpp:380] cont_30_lstm1_cont_slice_29_split -> cont_30_lstm1_cont_slice_29_split_0
I1018 12:08:51.623900 34502 net.cpp:380] cont_30_lstm1_cont_slice_29_split -> cont_30_lstm1_cont_slice_29_split_1
I1018 12:08:51.623929 34502 net.cpp:122] Setting up cont_30_lstm1_cont_slice_29_split
I1018 12:08:51.623935 34502 net.cpp:129] Top shape: 1 5 (5)
I1018 12:08:51.623940 34502 net.cpp:129] Top shape: 1 5 (5)
I1018 12:08:51.623944 34502 net.cpp:137] Memory required for data: 1337520
I1018 12:08:51.623947 34502 layer_factory.hpp:77] Creating layer cont_31_lstm1_cont_slice_30_split
I1018 12:08:51.623952 34502 net.cpp:84] Creating Layer cont_31_lstm1_cont_slice_30_split
I1018 12:08:51.623956 34502 net.cpp:406] cont_31_lstm1_cont_slice_30_split <- cont_31
I1018 12:08:51.623963 34502 net.cpp:380] cont_31_lstm1_cont_slice_30_split -> cont_31_lstm1_cont_slice_30_split_0
I1018 12:08:51.623970 34502 net.cpp:380] cont_31_lstm1_cont_slice_30_split -> cont_31_lstm1_cont_slice_30_split_1
I1018 12:08:51.623996 34502 net.cpp:122] Setting up cont_31_lstm1_cont_slice_30_split
I1018 12:08:51.624002 34502 net.cpp:129] Top shape: 1 5 (5)
I1018 12:08:51.624007 34502 net.cpp:129] Top shape: 1 5 (5)
I1018 12:08:51.624011 34502 net.cpp:137] Memory required for data: 1337560
I1018 12:08:51.624014 34502 layer_factory.hpp:77] Creating layer cont_32_lstm1_cont_slice_31_split
I1018 12:08:51.624022 34502 net.cpp:84] Creating Layer cont_32_lstm1_cont_slice_31_split
I1018 12:08:51.624030 34502 net.cpp:406] cont_32_lstm1_cont_slice_31_split <- cont_32
I1018 12:08:51.624047 34502 net.cpp:380] cont_32_lstm1_cont_slice_31_split -> cont_32_lstm1_cont_slice_31_split_0
I1018 12:08:51.624054 34502 net.cpp:380] cont_32_lstm1_cont_slice_31_split -> cont_32_lstm1_cont_slice_31_split_1
I1018 12:08:51.624085 34502 net.cpp:122] Setting up cont_32_lstm1_cont_slice_31_split
I1018 12:08:51.624091 34502 net.cpp:129] Top shape: 1 5 (5)
I1018 12:08:51.624096 34502 net.cpp:129] Top shape: 1 5 (5)
I1018 12:08:51.624100 34502 net.cpp:137] Memory required for data: 1337600
I1018 12:08:51.624104 34502 layer_factory.hpp:77] Creating layer cont_33_lstm1_cont_slice_32_split
I1018 12:08:51.624109 34502 net.cpp:84] Creating Layer cont_33_lstm1_cont_slice_32_split
I1018 12:08:51.624114 34502 net.cpp:406] cont_33_lstm1_cont_slice_32_split <- cont_33
I1018 12:08:51.624119 34502 net.cpp:380] cont_33_lstm1_cont_slice_32_split -> cont_33_lstm1_cont_slice_32_split_0
I1018 12:08:51.624126 34502 net.cpp:380] cont_33_lstm1_cont_slice_32_split -> cont_33_lstm1_cont_slice_32_split_1
I1018 12:08:51.624155 34502 net.cpp:122] Setting up cont_33_lstm1_cont_slice_32_split
I1018 12:08:51.624161 34502 net.cpp:129] Top shape: 1 5 (5)
I1018 12:08:51.624166 34502 net.cpp:129] Top shape: 1 5 (5)
I1018 12:08:51.624171 34502 net.cpp:137] Memory required for data: 1337640
I1018 12:08:51.624174 34502 layer_factory.hpp:77] Creating layer cont_34_lstm1_cont_slice_33_split
I1018 12:08:51.624178 34502 net.cpp:84] Creating Layer cont_34_lstm1_cont_slice_33_split
I1018 12:08:51.624183 34502 net.cpp:406] cont_34_lstm1_cont_slice_33_split <- cont_34
I1018 12:08:51.624188 34502 net.cpp:380] cont_34_lstm1_cont_slice_33_split -> cont_34_lstm1_cont_slice_33_split_0
I1018 12:08:51.624197 34502 net.cpp:380] cont_34_lstm1_cont_slice_33_split -> cont_34_lstm1_cont_slice_33_split_1
I1018 12:08:51.624225 34502 net.cpp:122] Setting up cont_34_lstm1_cont_slice_33_split
I1018 12:08:51.624231 34502 net.cpp:129] Top shape: 1 5 (5)
I1018 12:08:51.624236 34502 net.cpp:129] Top shape: 1 5 (5)
I1018 12:08:51.624239 34502 net.cpp:137] Memory required for data: 1337680
I1018 12:08:51.624243 34502 layer_factory.hpp:77] Creating layer cont_35_lstm1_cont_slice_34_split
I1018 12:08:51.624250 34502 net.cpp:84] Creating Layer cont_35_lstm1_cont_slice_34_split
I1018 12:08:51.624254 34502 net.cpp:406] cont_35_lstm1_cont_slice_34_split <- cont_35
I1018 12:08:51.624260 34502 net.cpp:380] cont_35_lstm1_cont_slice_34_split -> cont_35_lstm1_cont_slice_34_split_0
I1018 12:08:51.624266 34502 net.cpp:380] cont_35_lstm1_cont_slice_34_split -> cont_35_lstm1_cont_slice_34_split_1
I1018 12:08:51.624296 34502 net.cpp:122] Setting up cont_35_lstm1_cont_slice_34_split
I1018 12:08:51.624302 34502 net.cpp:129] Top shape: 1 5 (5)
I1018 12:08:51.624307 34502 net.cpp:129] Top shape: 1 5 (5)
I1018 12:08:51.624311 34502 net.cpp:137] Memory required for data: 1337720
I1018 12:08:51.624315 34502 layer_factory.hpp:77] Creating layer cont_36_lstm1_cont_slice_35_split
I1018 12:08:51.624320 34502 net.cpp:84] Creating Layer cont_36_lstm1_cont_slice_35_split
I1018 12:08:51.624323 34502 net.cpp:406] cont_36_lstm1_cont_slice_35_split <- cont_36
I1018 12:08:51.624330 34502 net.cpp:380] cont_36_lstm1_cont_slice_35_split -> cont_36_lstm1_cont_slice_35_split_0
I1018 12:08:51.624336 34502 net.cpp:380] cont_36_lstm1_cont_slice_35_split -> cont_36_lstm1_cont_slice_35_split_1
I1018 12:08:51.624366 34502 net.cpp:122] Setting up cont_36_lstm1_cont_slice_35_split
I1018 12:08:51.624372 34502 net.cpp:129] Top shape: 1 5 (5)
I1018 12:08:51.624377 34502 net.cpp:129] Top shape: 1 5 (5)
I1018 12:08:51.624379 34502 net.cpp:137] Memory required for data: 1337760
I1018 12:08:51.624383 34502 layer_factory.hpp:77] Creating layer cont_37_lstm1_cont_slice_36_split
I1018 12:08:51.624388 34502 net.cpp:84] Creating Layer cont_37_lstm1_cont_slice_36_split
I1018 12:08:51.624392 34502 net.cpp:406] cont_37_lstm1_cont_slice_36_split <- cont_37
I1018 12:08:51.624398 34502 net.cpp:380] cont_37_lstm1_cont_slice_36_split -> cont_37_lstm1_cont_slice_36_split_0
I1018 12:08:51.624404 34502 net.cpp:380] cont_37_lstm1_cont_slice_36_split -> cont_37_lstm1_cont_slice_36_split_1
I1018 12:08:51.624444 34502 net.cpp:122] Setting up cont_37_lstm1_cont_slice_36_split
I1018 12:08:51.624449 34502 net.cpp:129] Top shape: 1 5 (5)
I1018 12:08:51.624454 34502 net.cpp:129] Top shape: 1 5 (5)
I1018 12:08:51.624459 34502 net.cpp:137] Memory required for data: 1337800
I1018 12:08:51.624461 34502 layer_factory.hpp:77] Creating layer cont_38_lstm1_cont_slice_37_split
I1018 12:08:51.624466 34502 net.cpp:84] Creating Layer cont_38_lstm1_cont_slice_37_split
I1018 12:08:51.624470 34502 net.cpp:406] cont_38_lstm1_cont_slice_37_split <- cont_38
I1018 12:08:51.624480 34502 net.cpp:380] cont_38_lstm1_cont_slice_37_split -> cont_38_lstm1_cont_slice_37_split_0
I1018 12:08:51.624485 34502 net.cpp:380] cont_38_lstm1_cont_slice_37_split -> cont_38_lstm1_cont_slice_37_split_1
I1018 12:08:51.624513 34502 net.cpp:122] Setting up cont_38_lstm1_cont_slice_37_split
I1018 12:08:51.624519 34502 net.cpp:129] Top shape: 1 5 (5)
I1018 12:08:51.624523 34502 net.cpp:129] Top shape: 1 5 (5)
I1018 12:08:51.624527 34502 net.cpp:137] Memory required for data: 1337840
I1018 12:08:51.624531 34502 layer_factory.hpp:77] Creating layer cont_39_lstm1_cont_slice_38_split
I1018 12:08:51.624538 34502 net.cpp:84] Creating Layer cont_39_lstm1_cont_slice_38_split
I1018 12:08:51.624542 34502 net.cpp:406] cont_39_lstm1_cont_slice_38_split <- cont_39
I1018 12:08:51.624547 34502 net.cpp:380] cont_39_lstm1_cont_slice_38_split -> cont_39_lstm1_cont_slice_38_split_0
I1018 12:08:51.624554 34502 net.cpp:380] cont_39_lstm1_cont_slice_38_split -> cont_39_lstm1_cont_slice_38_split_1
I1018 12:08:51.624583 34502 net.cpp:122] Setting up cont_39_lstm1_cont_slice_38_split
I1018 12:08:51.624589 34502 net.cpp:129] Top shape: 1 5 (5)
I1018 12:08:51.624594 34502 net.cpp:129] Top shape: 1 5 (5)
I1018 12:08:51.624598 34502 net.cpp:137] Memory required for data: 1337880
I1018 12:08:51.624601 34502 layer_factory.hpp:77] Creating layer cont_40_lstm1_cont_slice_39_split
I1018 12:08:51.624606 34502 net.cpp:84] Creating Layer cont_40_lstm1_cont_slice_39_split
I1018 12:08:51.624610 34502 net.cpp:406] cont_40_lstm1_cont_slice_39_split <- cont_40
I1018 12:08:51.624616 34502 net.cpp:380] cont_40_lstm1_cont_slice_39_split -> cont_40_lstm1_cont_slice_39_split_0
I1018 12:08:51.624622 34502 net.cpp:380] cont_40_lstm1_cont_slice_39_split -> cont_40_lstm1_cont_slice_39_split_1
I1018 12:08:51.624651 34502 net.cpp:122] Setting up cont_40_lstm1_cont_slice_39_split
I1018 12:08:51.624657 34502 net.cpp:129] Top shape: 1 5 (5)
I1018 12:08:51.624661 34502 net.cpp:129] Top shape: 1 5 (5)
I1018 12:08:51.624665 34502 net.cpp:137] Memory required for data: 1337920
I1018 12:08:51.624670 34502 layer_factory.hpp:77] Creating layer cont_41_lstm1_cont_slice_40_split
I1018 12:08:51.624673 34502 net.cpp:84] Creating Layer cont_41_lstm1_cont_slice_40_split
I1018 12:08:51.624677 34502 net.cpp:406] cont_41_lstm1_cont_slice_40_split <- cont_41
I1018 12:08:51.624683 34502 net.cpp:380] cont_41_lstm1_cont_slice_40_split -> cont_41_lstm1_cont_slice_40_split_0
I1018 12:08:51.624691 34502 net.cpp:380] cont_41_lstm1_cont_slice_40_split -> cont_41_lstm1_cont_slice_40_split_1
I1018 12:08:51.624718 34502 net.cpp:122] Setting up cont_41_lstm1_cont_slice_40_split
I1018 12:08:51.624724 34502 net.cpp:129] Top shape: 1 5 (5)
I1018 12:08:51.624729 34502 net.cpp:129] Top shape: 1 5 (5)
I1018 12:08:51.624732 34502 net.cpp:137] Memory required for data: 1337960
I1018 12:08:51.624737 34502 layer_factory.hpp:77] Creating layer cont_42_lstm1_cont_slice_41_split
I1018 12:08:51.624742 34502 net.cpp:84] Creating Layer cont_42_lstm1_cont_slice_41_split
I1018 12:08:51.624745 34502 net.cpp:406] cont_42_lstm1_cont_slice_41_split <- cont_42
I1018 12:08:51.624752 34502 net.cpp:380] cont_42_lstm1_cont_slice_41_split -> cont_42_lstm1_cont_slice_41_split_0
I1018 12:08:51.624759 34502 net.cpp:380] cont_42_lstm1_cont_slice_41_split -> cont_42_lstm1_cont_slice_41_split_1
I1018 12:08:51.624788 34502 net.cpp:122] Setting up cont_42_lstm1_cont_slice_41_split
I1018 12:08:51.624794 34502 net.cpp:129] Top shape: 1 5 (5)
I1018 12:08:51.624799 34502 net.cpp:129] Top shape: 1 5 (5)
I1018 12:08:51.624802 34502 net.cpp:137] Memory required for data: 1338000
I1018 12:08:51.624806 34502 layer_factory.hpp:77] Creating layer cont_43_lstm1_cont_slice_42_split
I1018 12:08:51.624810 34502 net.cpp:84] Creating Layer cont_43_lstm1_cont_slice_42_split
I1018 12:08:51.624814 34502 net.cpp:406] cont_43_lstm1_cont_slice_42_split <- cont_43
I1018 12:08:51.624820 34502 net.cpp:380] cont_43_lstm1_cont_slice_42_split -> cont_43_lstm1_cont_slice_42_split_0
I1018 12:08:51.624826 34502 net.cpp:380] cont_43_lstm1_cont_slice_42_split -> cont_43_lstm1_cont_slice_42_split_1
I1018 12:08:51.624855 34502 net.cpp:122] Setting up cont_43_lstm1_cont_slice_42_split
I1018 12:08:51.624861 34502 net.cpp:129] Top shape: 1 5 (5)
I1018 12:08:51.624866 34502 net.cpp:129] Top shape: 1 5 (5)
I1018 12:08:51.624869 34502 net.cpp:137] Memory required for data: 1338040
I1018 12:08:51.624872 34502 layer_factory.hpp:77] Creating layer cont_44_lstm1_cont_slice_43_split
I1018 12:08:51.624877 34502 net.cpp:84] Creating Layer cont_44_lstm1_cont_slice_43_split
I1018 12:08:51.624882 34502 net.cpp:406] cont_44_lstm1_cont_slice_43_split <- cont_44
I1018 12:08:51.624887 34502 net.cpp:380] cont_44_lstm1_cont_slice_43_split -> cont_44_lstm1_cont_slice_43_split_0
I1018 12:08:51.624893 34502 net.cpp:380] cont_44_lstm1_cont_slice_43_split -> cont_44_lstm1_cont_slice_43_split_1
I1018 12:08:51.624922 34502 net.cpp:122] Setting up cont_44_lstm1_cont_slice_43_split
I1018 12:08:51.624927 34502 net.cpp:129] Top shape: 1 5 (5)
I1018 12:08:51.624933 34502 net.cpp:129] Top shape: 1 5 (5)
I1018 12:08:51.624936 34502 net.cpp:137] Memory required for data: 1338080
I1018 12:08:51.624939 34502 layer_factory.hpp:77] Creating layer cont_45_lstm1_cont_slice_44_split
I1018 12:08:51.624944 34502 net.cpp:84] Creating Layer cont_45_lstm1_cont_slice_44_split
I1018 12:08:51.624948 34502 net.cpp:406] cont_45_lstm1_cont_slice_44_split <- cont_45
I1018 12:08:51.624955 34502 net.cpp:380] cont_45_lstm1_cont_slice_44_split -> cont_45_lstm1_cont_slice_44_split_0
I1018 12:08:51.624963 34502 net.cpp:380] cont_45_lstm1_cont_slice_44_split -> cont_45_lstm1_cont_slice_44_split_1
I1018 12:08:51.624989 34502 net.cpp:122] Setting up cont_45_lstm1_cont_slice_44_split
I1018 12:08:51.624994 34502 net.cpp:129] Top shape: 1 5 (5)
I1018 12:08:51.624999 34502 net.cpp:129] Top shape: 1 5 (5)
I1018 12:08:51.625002 34502 net.cpp:137] Memory required for data: 1338120
I1018 12:08:51.625005 34502 layer_factory.hpp:77] Creating layer cont_46_lstm1_cont_slice_45_split
I1018 12:08:51.625012 34502 net.cpp:84] Creating Layer cont_46_lstm1_cont_slice_45_split
I1018 12:08:51.625016 34502 net.cpp:406] cont_46_lstm1_cont_slice_45_split <- cont_46
I1018 12:08:51.625021 34502 net.cpp:380] cont_46_lstm1_cont_slice_45_split -> cont_46_lstm1_cont_slice_45_split_0
I1018 12:08:51.625028 34502 net.cpp:380] cont_46_lstm1_cont_slice_45_split -> cont_46_lstm1_cont_slice_45_split_1
I1018 12:08:51.625058 34502 net.cpp:122] Setting up cont_46_lstm1_cont_slice_45_split
I1018 12:08:51.625064 34502 net.cpp:129] Top shape: 1 5 (5)
I1018 12:08:51.625068 34502 net.cpp:129] Top shape: 1 5 (5)
I1018 12:08:51.625072 34502 net.cpp:137] Memory required for data: 1338160
I1018 12:08:51.625077 34502 layer_factory.hpp:77] Creating layer cont_47_lstm1_cont_slice_46_split
I1018 12:08:51.625082 34502 net.cpp:84] Creating Layer cont_47_lstm1_cont_slice_46_split
I1018 12:08:51.625085 34502 net.cpp:406] cont_47_lstm1_cont_slice_46_split <- cont_47
I1018 12:08:51.625092 34502 net.cpp:380] cont_47_lstm1_cont_slice_46_split -> cont_47_lstm1_cont_slice_46_split_0
I1018 12:08:51.625097 34502 net.cpp:380] cont_47_lstm1_cont_slice_46_split -> cont_47_lstm1_cont_slice_46_split_1
I1018 12:08:51.625128 34502 net.cpp:122] Setting up cont_47_lstm1_cont_slice_46_split
I1018 12:08:51.625133 34502 net.cpp:129] Top shape: 1 5 (5)
I1018 12:08:51.625138 34502 net.cpp:129] Top shape: 1 5 (5)
I1018 12:08:51.625142 34502 net.cpp:137] Memory required for data: 1338200
I1018 12:08:51.625145 34502 layer_factory.hpp:77] Creating layer cont_48_lstm1_cont_slice_47_split
I1018 12:08:51.625150 34502 net.cpp:84] Creating Layer cont_48_lstm1_cont_slice_47_split
I1018 12:08:51.625154 34502 net.cpp:406] cont_48_lstm1_cont_slice_47_split <- cont_48
I1018 12:08:51.625160 34502 net.cpp:380] cont_48_lstm1_cont_slice_47_split -> cont_48_lstm1_cont_slice_47_split_0
I1018 12:08:51.625166 34502 net.cpp:380] cont_48_lstm1_cont_slice_47_split -> cont_48_lstm1_cont_slice_47_split_1
I1018 12:08:51.625198 34502 net.cpp:122] Setting up cont_48_lstm1_cont_slice_47_split
I1018 12:08:51.625205 34502 net.cpp:129] Top shape: 1 5 (5)
I1018 12:08:51.625208 34502 net.cpp:129] Top shape: 1 5 (5)
I1018 12:08:51.625212 34502 net.cpp:137] Memory required for data: 1338240
I1018 12:08:51.625216 34502 layer_factory.hpp:77] Creating layer cont_49_lstm1_cont_slice_48_split
I1018 12:08:51.625221 34502 net.cpp:84] Creating Layer cont_49_lstm1_cont_slice_48_split
I1018 12:08:51.625226 34502 net.cpp:406] cont_49_lstm1_cont_slice_48_split <- cont_49
I1018 12:08:51.625232 34502 net.cpp:380] cont_49_lstm1_cont_slice_48_split -> cont_49_lstm1_cont_slice_48_split_0
I1018 12:08:51.625238 34502 net.cpp:380] cont_49_lstm1_cont_slice_48_split -> cont_49_lstm1_cont_slice_48_split_1
I1018 12:08:51.625267 34502 net.cpp:122] Setting up cont_49_lstm1_cont_slice_48_split
I1018 12:08:51.625274 34502 net.cpp:129] Top shape: 1 5 (5)
I1018 12:08:51.625279 34502 net.cpp:129] Top shape: 1 5 (5)
I1018 12:08:51.625283 34502 net.cpp:137] Memory required for data: 1338280
I1018 12:08:51.625286 34502 layer_factory.hpp:77] Creating layer cont_50_lstm1_cont_slice_49_split
I1018 12:08:51.625291 34502 net.cpp:84] Creating Layer cont_50_lstm1_cont_slice_49_split
I1018 12:08:51.625295 34502 net.cpp:406] cont_50_lstm1_cont_slice_49_split <- cont_50
I1018 12:08:51.625301 34502 net.cpp:380] cont_50_lstm1_cont_slice_49_split -> cont_50_lstm1_cont_slice_49_split_0
I1018 12:08:51.625308 34502 net.cpp:380] cont_50_lstm1_cont_slice_49_split -> cont_50_lstm1_cont_slice_49_split_1
I1018 12:08:51.625337 34502 net.cpp:122] Setting up cont_50_lstm1_cont_slice_49_split
I1018 12:08:51.625344 34502 net.cpp:129] Top shape: 1 5 (5)
I1018 12:08:51.625349 34502 net.cpp:129] Top shape: 1 5 (5)
I1018 12:08:51.625352 34502 net.cpp:137] Memory required for data: 1338320
I1018 12:08:51.625355 34502 layer_factory.hpp:77] Creating layer cont_51_lstm1_cont_slice_50_split
I1018 12:08:51.625360 34502 net.cpp:84] Creating Layer cont_51_lstm1_cont_slice_50_split
I1018 12:08:51.625365 34502 net.cpp:406] cont_51_lstm1_cont_slice_50_split <- cont_51
I1018 12:08:51.625370 34502 net.cpp:380] cont_51_lstm1_cont_slice_50_split -> cont_51_lstm1_cont_slice_50_split_0
I1018 12:08:51.625376 34502 net.cpp:380] cont_51_lstm1_cont_slice_50_split -> cont_51_lstm1_cont_slice_50_split_1
I1018 12:08:51.625406 34502 net.cpp:122] Setting up cont_51_lstm1_cont_slice_50_split
I1018 12:08:51.625411 34502 net.cpp:129] Top shape: 1 5 (5)
I1018 12:08:51.625416 34502 net.cpp:129] Top shape: 1 5 (5)
I1018 12:08:51.625419 34502 net.cpp:137] Memory required for data: 1338360
I1018 12:08:51.625422 34502 layer_factory.hpp:77] Creating layer cont_52_lstm1_cont_slice_51_split
I1018 12:08:51.625427 34502 net.cpp:84] Creating Layer cont_52_lstm1_cont_slice_51_split
I1018 12:08:51.625432 34502 net.cpp:406] cont_52_lstm1_cont_slice_51_split <- cont_52
I1018 12:08:51.625438 34502 net.cpp:380] cont_52_lstm1_cont_slice_51_split -> cont_52_lstm1_cont_slice_51_split_0
I1018 12:08:51.625445 34502 net.cpp:380] cont_52_lstm1_cont_slice_51_split -> cont_52_lstm1_cont_slice_51_split_1
I1018 12:08:51.625471 34502 net.cpp:122] Setting up cont_52_lstm1_cont_slice_51_split
I1018 12:08:51.625478 34502 net.cpp:129] Top shape: 1 5 (5)
I1018 12:08:51.625481 34502 net.cpp:129] Top shape: 1 5 (5)
I1018 12:08:51.625485 34502 net.cpp:137] Memory required for data: 1338400
I1018 12:08:51.625489 34502 layer_factory.hpp:77] Creating layer cont_53_lstm1_cont_slice_52_split
I1018 12:08:51.625495 34502 net.cpp:84] Creating Layer cont_53_lstm1_cont_slice_52_split
I1018 12:08:51.625500 34502 net.cpp:406] cont_53_lstm1_cont_slice_52_split <- cont_53
I1018 12:08:51.625505 34502 net.cpp:380] cont_53_lstm1_cont_slice_52_split -> cont_53_lstm1_cont_slice_52_split_0
I1018 12:08:51.625511 34502 net.cpp:380] cont_53_lstm1_cont_slice_52_split -> cont_53_lstm1_cont_slice_52_split_1
I1018 12:08:51.625540 34502 net.cpp:122] Setting up cont_53_lstm1_cont_slice_52_split
I1018 12:08:51.625546 34502 net.cpp:129] Top shape: 1 5 (5)
I1018 12:08:51.625550 34502 net.cpp:129] Top shape: 1 5 (5)
I1018 12:08:51.625555 34502 net.cpp:137] Memory required for data: 1338440
I1018 12:08:51.625558 34502 layer_factory.hpp:77] Creating layer cont_54_lstm1_cont_slice_53_split
I1018 12:08:51.625562 34502 net.cpp:84] Creating Layer cont_54_lstm1_cont_slice_53_split
I1018 12:08:51.625567 34502 net.cpp:406] cont_54_lstm1_cont_slice_53_split <- cont_54
I1018 12:08:51.625572 34502 net.cpp:380] cont_54_lstm1_cont_slice_53_split -> cont_54_lstm1_cont_slice_53_split_0
I1018 12:08:51.625579 34502 net.cpp:380] cont_54_lstm1_cont_slice_53_split -> cont_54_lstm1_cont_slice_53_split_1
I1018 12:08:51.625607 34502 net.cpp:122] Setting up cont_54_lstm1_cont_slice_53_split
I1018 12:08:51.625613 34502 net.cpp:129] Top shape: 1 5 (5)
I1018 12:08:51.625618 34502 net.cpp:129] Top shape: 1 5 (5)
I1018 12:08:51.625622 34502 net.cpp:137] Memory required for data: 1338480
I1018 12:08:51.625625 34502 layer_factory.hpp:77] Creating layer cont_55_lstm1_cont_slice_54_split
I1018 12:08:51.625630 34502 net.cpp:84] Creating Layer cont_55_lstm1_cont_slice_54_split
I1018 12:08:51.625635 34502 net.cpp:406] cont_55_lstm1_cont_slice_54_split <- cont_55
I1018 12:08:51.625640 34502 net.cpp:380] cont_55_lstm1_cont_slice_54_split -> cont_55_lstm1_cont_slice_54_split_0
I1018 12:08:51.625648 34502 net.cpp:380] cont_55_lstm1_cont_slice_54_split -> cont_55_lstm1_cont_slice_54_split_1
I1018 12:08:51.625676 34502 net.cpp:122] Setting up cont_55_lstm1_cont_slice_54_split
I1018 12:08:51.625682 34502 net.cpp:129] Top shape: 1 5 (5)
I1018 12:08:51.625687 34502 net.cpp:129] Top shape: 1 5 (5)
I1018 12:08:51.625690 34502 net.cpp:137] Memory required for data: 1338520
I1018 12:08:51.625694 34502 layer_factory.hpp:77] Creating layer cont_56_lstm1_cont_slice_55_split
I1018 12:08:51.625699 34502 net.cpp:84] Creating Layer cont_56_lstm1_cont_slice_55_split
I1018 12:08:51.625704 34502 net.cpp:406] cont_56_lstm1_cont_slice_55_split <- cont_56
I1018 12:08:51.625710 34502 net.cpp:380] cont_56_lstm1_cont_slice_55_split -> cont_56_lstm1_cont_slice_55_split_0
I1018 12:08:51.625716 34502 net.cpp:380] cont_56_lstm1_cont_slice_55_split -> cont_56_lstm1_cont_slice_55_split_1
I1018 12:08:51.625743 34502 net.cpp:122] Setting up cont_56_lstm1_cont_slice_55_split
I1018 12:08:51.625749 34502 net.cpp:129] Top shape: 1 5 (5)
I1018 12:08:51.625754 34502 net.cpp:129] Top shape: 1 5 (5)
I1018 12:08:51.625758 34502 net.cpp:137] Memory required for data: 1338560
I1018 12:08:51.625762 34502 layer_factory.hpp:77] Creating layer cont_57_lstm1_cont_slice_56_split
I1018 12:08:51.625768 34502 net.cpp:84] Creating Layer cont_57_lstm1_cont_slice_56_split
I1018 12:08:51.625772 34502 net.cpp:406] cont_57_lstm1_cont_slice_56_split <- cont_57
I1018 12:08:51.625778 34502 net.cpp:380] cont_57_lstm1_cont_slice_56_split -> cont_57_lstm1_cont_slice_56_split_0
I1018 12:08:51.625784 34502 net.cpp:380] cont_57_lstm1_cont_slice_56_split -> cont_57_lstm1_cont_slice_56_split_1
I1018 12:08:51.625814 34502 net.cpp:122] Setting up cont_57_lstm1_cont_slice_56_split
I1018 12:08:51.625820 34502 net.cpp:129] Top shape: 1 5 (5)
I1018 12:08:51.625824 34502 net.cpp:129] Top shape: 1 5 (5)
I1018 12:08:51.625828 34502 net.cpp:137] Memory required for data: 1338600
I1018 12:08:51.625833 34502 layer_factory.hpp:77] Creating layer cont_58_lstm1_cont_slice_57_split
I1018 12:08:51.625838 34502 net.cpp:84] Creating Layer cont_58_lstm1_cont_slice_57_split
I1018 12:08:51.625841 34502 net.cpp:406] cont_58_lstm1_cont_slice_57_split <- cont_58
I1018 12:08:51.625846 34502 net.cpp:380] cont_58_lstm1_cont_slice_57_split -> cont_58_lstm1_cont_slice_57_split_0
I1018 12:08:51.625852 34502 net.cpp:380] cont_58_lstm1_cont_slice_57_split -> cont_58_lstm1_cont_slice_57_split_1
I1018 12:08:51.625880 34502 net.cpp:122] Setting up cont_58_lstm1_cont_slice_57_split
I1018 12:08:51.625886 34502 net.cpp:129] Top shape: 1 5 (5)
I1018 12:08:51.625891 34502 net.cpp:129] Top shape: 1 5 (5)
I1018 12:08:51.625895 34502 net.cpp:137] Memory required for data: 1338640
I1018 12:08:51.625898 34502 layer_factory.hpp:77] Creating layer cont_59_lstm1_cont_slice_58_split
I1018 12:08:51.625903 34502 net.cpp:84] Creating Layer cont_59_lstm1_cont_slice_58_split
I1018 12:08:51.625907 34502 net.cpp:406] cont_59_lstm1_cont_slice_58_split <- cont_59
I1018 12:08:51.625912 34502 net.cpp:380] cont_59_lstm1_cont_slice_58_split -> cont_59_lstm1_cont_slice_58_split_0
I1018 12:08:51.625921 34502 net.cpp:380] cont_59_lstm1_cont_slice_58_split -> cont_59_lstm1_cont_slice_58_split_1
I1018 12:08:51.625949 34502 net.cpp:122] Setting up cont_59_lstm1_cont_slice_58_split
I1018 12:08:51.625954 34502 net.cpp:129] Top shape: 1 5 (5)
I1018 12:08:51.625959 34502 net.cpp:129] Top shape: 1 5 (5)
I1018 12:08:51.625963 34502 net.cpp:137] Memory required for data: 1338680
I1018 12:08:51.625967 34502 layer_factory.hpp:77] Creating layer cont_60_lstm1_cont_slice_59_split
I1018 12:08:51.625973 34502 net.cpp:84] Creating Layer cont_60_lstm1_cont_slice_59_split
I1018 12:08:51.625977 34502 net.cpp:406] cont_60_lstm1_cont_slice_59_split <- cont_60
I1018 12:08:51.625982 34502 net.cpp:380] cont_60_lstm1_cont_slice_59_split -> cont_60_lstm1_cont_slice_59_split_0
I1018 12:08:51.625989 34502 net.cpp:380] cont_60_lstm1_cont_slice_59_split -> cont_60_lstm1_cont_slice_59_split_1
I1018 12:08:51.626018 34502 net.cpp:122] Setting up cont_60_lstm1_cont_slice_59_split
I1018 12:08:51.626024 34502 net.cpp:129] Top shape: 1 5 (5)
I1018 12:08:51.626029 34502 net.cpp:129] Top shape: 1 5 (5)
I1018 12:08:51.626031 34502 net.cpp:137] Memory required for data: 1338720
I1018 12:08:51.626035 34502 layer_factory.hpp:77] Creating layer cont_61_lstm1_cont_slice_60_split
I1018 12:08:51.626040 34502 net.cpp:84] Creating Layer cont_61_lstm1_cont_slice_60_split
I1018 12:08:51.626044 34502 net.cpp:406] cont_61_lstm1_cont_slice_60_split <- cont_61
I1018 12:08:51.626050 34502 net.cpp:380] cont_61_lstm1_cont_slice_60_split -> cont_61_lstm1_cont_slice_60_split_0
I1018 12:08:51.626056 34502 net.cpp:380] cont_61_lstm1_cont_slice_60_split -> cont_61_lstm1_cont_slice_60_split_1
I1018 12:08:51.626085 34502 net.cpp:122] Setting up cont_61_lstm1_cont_slice_60_split
I1018 12:08:51.626091 34502 net.cpp:129] Top shape: 1 5 (5)
I1018 12:08:51.626096 34502 net.cpp:129] Top shape: 1 5 (5)
I1018 12:08:51.626099 34502 net.cpp:137] Memory required for data: 1338760
I1018 12:08:51.626103 34502 layer_factory.hpp:77] Creating layer cont_62_lstm1_cont_slice_61_split
I1018 12:08:51.626113 34502 net.cpp:84] Creating Layer cont_62_lstm1_cont_slice_61_split
I1018 12:08:51.626118 34502 net.cpp:406] cont_62_lstm1_cont_slice_61_split <- cont_62
I1018 12:08:51.626124 34502 net.cpp:380] cont_62_lstm1_cont_slice_61_split -> cont_62_lstm1_cont_slice_61_split_0
I1018 12:08:51.626130 34502 net.cpp:380] cont_62_lstm1_cont_slice_61_split -> cont_62_lstm1_cont_slice_61_split_1
I1018 12:08:51.626160 34502 net.cpp:122] Setting up cont_62_lstm1_cont_slice_61_split
I1018 12:08:51.626166 34502 net.cpp:129] Top shape: 1 5 (5)
I1018 12:08:51.626171 34502 net.cpp:129] Top shape: 1 5 (5)
I1018 12:08:51.626174 34502 net.cpp:137] Memory required for data: 1338800
I1018 12:08:51.626179 34502 layer_factory.hpp:77] Creating layer cont_63_lstm1_cont_slice_62_split
I1018 12:08:51.626184 34502 net.cpp:84] Creating Layer cont_63_lstm1_cont_slice_62_split
I1018 12:08:51.626188 34502 net.cpp:406] cont_63_lstm1_cont_slice_62_split <- cont_63
I1018 12:08:51.626194 34502 net.cpp:380] cont_63_lstm1_cont_slice_62_split -> cont_63_lstm1_cont_slice_62_split_0
I1018 12:08:51.626219 34502 net.cpp:380] cont_63_lstm1_cont_slice_62_split -> cont_63_lstm1_cont_slice_62_split_1
I1018 12:08:51.626250 34502 net.cpp:122] Setting up cont_63_lstm1_cont_slice_62_split
I1018 12:08:51.626258 34502 net.cpp:129] Top shape: 1 5 (5)
I1018 12:08:51.626263 34502 net.cpp:129] Top shape: 1 5 (5)
I1018 12:08:51.626267 34502 net.cpp:137] Memory required for data: 1338840
I1018 12:08:51.626271 34502 layer_factory.hpp:77] Creating layer cont_64_lstm1_cont_slice_63_split
I1018 12:08:51.626276 34502 net.cpp:84] Creating Layer cont_64_lstm1_cont_slice_63_split
I1018 12:08:51.626281 34502 net.cpp:406] cont_64_lstm1_cont_slice_63_split <- cont_64
I1018 12:08:51.626286 34502 net.cpp:380] cont_64_lstm1_cont_slice_63_split -> cont_64_lstm1_cont_slice_63_split_0
I1018 12:08:51.626293 34502 net.cpp:380] cont_64_lstm1_cont_slice_63_split -> cont_64_lstm1_cont_slice_63_split_1
I1018 12:08:51.626322 34502 net.cpp:122] Setting up cont_64_lstm1_cont_slice_63_split
I1018 12:08:51.626797 34502 net.cpp:129] Top shape: 1 5 (5)
I1018 12:08:51.626808 34502 net.cpp:129] Top shape: 1 5 (5)
I1018 12:08:51.626813 34502 net.cpp:137] Memory required for data: 1338880
I1018 12:08:51.626817 34502 layer_factory.hpp:77] Creating layer cont_65_lstm1_cont_slice_64_split
I1018 12:08:51.626824 34502 net.cpp:84] Creating Layer cont_65_lstm1_cont_slice_64_split
I1018 12:08:51.626829 34502 net.cpp:406] cont_65_lstm1_cont_slice_64_split <- cont_65
I1018 12:08:51.626837 34502 net.cpp:380] cont_65_lstm1_cont_slice_64_split -> cont_65_lstm1_cont_slice_64_split_0
I1018 12:08:51.626845 34502 net.cpp:380] cont_65_lstm1_cont_slice_64_split -> cont_65_lstm1_cont_slice_64_split_1
I1018 12:08:51.626895 34502 net.cpp:122] Setting up cont_65_lstm1_cont_slice_64_split
I1018 12:08:51.626902 34502 net.cpp:129] Top shape: 1 5 (5)
I1018 12:08:51.626907 34502 net.cpp:129] Top shape: 1 5 (5)
I1018 12:08:51.626911 34502 net.cpp:137] Memory required for data: 1338920
I1018 12:08:51.626915 34502 layer_factory.hpp:77] Creating layer cont_66_lstm1_cont_slice_65_split
I1018 12:08:51.626920 34502 net.cpp:84] Creating Layer cont_66_lstm1_cont_slice_65_split
I1018 12:08:51.626925 34502 net.cpp:406] cont_66_lstm1_cont_slice_65_split <- cont_66
I1018 12:08:51.626932 34502 net.cpp:380] cont_66_lstm1_cont_slice_65_split -> cont_66_lstm1_cont_slice_65_split_0
I1018 12:08:51.626940 34502 net.cpp:380] cont_66_lstm1_cont_slice_65_split -> cont_66_lstm1_cont_slice_65_split_1
I1018 12:08:51.626971 34502 net.cpp:122] Setting up cont_66_lstm1_cont_slice_65_split
I1018 12:08:51.626977 34502 net.cpp:129] Top shape: 1 5 (5)
I1018 12:08:51.626981 34502 net.cpp:129] Top shape: 1 5 (5)
I1018 12:08:51.626986 34502 net.cpp:137] Memory required for data: 1338960
I1018 12:08:51.626989 34502 layer_factory.hpp:77] Creating layer cont_67_lstm1_cont_slice_66_split
I1018 12:08:51.626996 34502 net.cpp:84] Creating Layer cont_67_lstm1_cont_slice_66_split
I1018 12:08:51.627001 34502 net.cpp:406] cont_67_lstm1_cont_slice_66_split <- cont_67
I1018 12:08:51.627005 34502 net.cpp:380] cont_67_lstm1_cont_slice_66_split -> cont_67_lstm1_cont_slice_66_split_0
I1018 12:08:51.627012 34502 net.cpp:380] cont_67_lstm1_cont_slice_66_split -> cont_67_lstm1_cont_slice_66_split_1
I1018 12:08:51.627043 34502 net.cpp:122] Setting up cont_67_lstm1_cont_slice_66_split
I1018 12:08:51.627048 34502 net.cpp:129] Top shape: 1 5 (5)
I1018 12:08:51.627053 34502 net.cpp:129] Top shape: 1 5 (5)
I1018 12:08:51.627056 34502 net.cpp:137] Memory required for data: 1339000
I1018 12:08:51.627060 34502 layer_factory.hpp:77] Creating layer cont_68_lstm1_cont_slice_67_split
I1018 12:08:51.627068 34502 net.cpp:84] Creating Layer cont_68_lstm1_cont_slice_67_split
I1018 12:08:51.627071 34502 net.cpp:406] cont_68_lstm1_cont_slice_67_split <- cont_68
I1018 12:08:51.627076 34502 net.cpp:380] cont_68_lstm1_cont_slice_67_split -> cont_68_lstm1_cont_slice_67_split_0
I1018 12:08:51.627084 34502 net.cpp:380] cont_68_lstm1_cont_slice_67_split -> cont_68_lstm1_cont_slice_67_split_1
I1018 12:08:51.627113 34502 net.cpp:122] Setting up cont_68_lstm1_cont_slice_67_split
I1018 12:08:51.627120 34502 net.cpp:129] Top shape: 1 5 (5)
I1018 12:08:51.627123 34502 net.cpp:129] Top shape: 1 5 (5)
I1018 12:08:51.627127 34502 net.cpp:137] Memory required for data: 1339040
I1018 12:08:51.627131 34502 layer_factory.hpp:77] Creating layer cont_69_lstm1_cont_slice_68_split
I1018 12:08:51.627136 34502 net.cpp:84] Creating Layer cont_69_lstm1_cont_slice_68_split
I1018 12:08:51.627140 34502 net.cpp:406] cont_69_lstm1_cont_slice_68_split <- cont_69
I1018 12:08:51.627146 34502 net.cpp:380] cont_69_lstm1_cont_slice_68_split -> cont_69_lstm1_cont_slice_68_split_0
I1018 12:08:51.627154 34502 net.cpp:380] cont_69_lstm1_cont_slice_68_split -> cont_69_lstm1_cont_slice_68_split_1
I1018 12:08:51.627182 34502 net.cpp:122] Setting up cont_69_lstm1_cont_slice_68_split
I1018 12:08:51.627187 34502 net.cpp:129] Top shape: 1 5 (5)
I1018 12:08:51.627192 34502 net.cpp:129] Top shape: 1 5 (5)
I1018 12:08:51.627197 34502 net.cpp:137] Memory required for data: 1339080
I1018 12:08:51.627199 34502 layer_factory.hpp:77] Creating layer cont_70_lstm1_cont_slice_69_split
I1018 12:08:51.627207 34502 net.cpp:84] Creating Layer cont_70_lstm1_cont_slice_69_split
I1018 12:08:51.627210 34502 net.cpp:406] cont_70_lstm1_cont_slice_69_split <- cont_70
I1018 12:08:51.627216 34502 net.cpp:380] cont_70_lstm1_cont_slice_69_split -> cont_70_lstm1_cont_slice_69_split_0
I1018 12:08:51.627223 34502 net.cpp:380] cont_70_lstm1_cont_slice_69_split -> cont_70_lstm1_cont_slice_69_split_1
I1018 12:08:51.627256 34502 net.cpp:122] Setting up cont_70_lstm1_cont_slice_69_split
I1018 12:08:51.627262 34502 net.cpp:129] Top shape: 1 5 (5)
I1018 12:08:51.627267 34502 net.cpp:129] Top shape: 1 5 (5)
I1018 12:08:51.627271 34502 net.cpp:137] Memory required for data: 1339120
I1018 12:08:51.627274 34502 layer_factory.hpp:77] Creating layer cont_71_lstm1_cont_slice_70_split
I1018 12:08:51.627279 34502 net.cpp:84] Creating Layer cont_71_lstm1_cont_slice_70_split
I1018 12:08:51.627284 34502 net.cpp:406] cont_71_lstm1_cont_slice_70_split <- cont_71
I1018 12:08:51.627290 34502 net.cpp:380] cont_71_lstm1_cont_slice_70_split -> cont_71_lstm1_cont_slice_70_split_0
I1018 12:08:51.627296 34502 net.cpp:380] cont_71_lstm1_cont_slice_70_split -> cont_71_lstm1_cont_slice_70_split_1
I1018 12:08:51.627326 34502 net.cpp:122] Setting up cont_71_lstm1_cont_slice_70_split
I1018 12:08:51.627331 34502 net.cpp:129] Top shape: 1 5 (5)
I1018 12:08:51.627336 34502 net.cpp:129] Top shape: 1 5 (5)
I1018 12:08:51.627341 34502 net.cpp:137] Memory required for data: 1339160
I1018 12:08:51.627343 34502 layer_factory.hpp:77] Creating layer cont_72_lstm1_cont_slice_71_split
I1018 12:08:51.627348 34502 net.cpp:84] Creating Layer cont_72_lstm1_cont_slice_71_split
I1018 12:08:51.627352 34502 net.cpp:406] cont_72_lstm1_cont_slice_71_split <- cont_72
I1018 12:08:51.627358 34502 net.cpp:380] cont_72_lstm1_cont_slice_71_split -> cont_72_lstm1_cont_slice_71_split_0
I1018 12:08:51.627364 34502 net.cpp:380] cont_72_lstm1_cont_slice_71_split -> cont_72_lstm1_cont_slice_71_split_1
I1018 12:08:51.627393 34502 net.cpp:122] Setting up cont_72_lstm1_cont_slice_71_split
I1018 12:08:51.627399 34502 net.cpp:129] Top shape: 1 5 (5)
I1018 12:08:51.627404 34502 net.cpp:129] Top shape: 1 5 (5)
I1018 12:08:51.627408 34502 net.cpp:137] Memory required for data: 1339200
I1018 12:08:51.627411 34502 layer_factory.hpp:77] Creating layer cont_73_lstm1_cont_slice_72_split
I1018 12:08:51.627416 34502 net.cpp:84] Creating Layer cont_73_lstm1_cont_slice_72_split
I1018 12:08:51.627420 34502 net.cpp:406] cont_73_lstm1_cont_slice_72_split <- cont_73
I1018 12:08:51.627429 34502 net.cpp:380] cont_73_lstm1_cont_slice_72_split -> cont_73_lstm1_cont_slice_72_split_0
I1018 12:08:51.627434 34502 net.cpp:380] cont_73_lstm1_cont_slice_72_split -> cont_73_lstm1_cont_slice_72_split_1
I1018 12:08:51.627462 34502 net.cpp:122] Setting up cont_73_lstm1_cont_slice_72_split
I1018 12:08:51.627468 34502 net.cpp:129] Top shape: 1 5 (5)
I1018 12:08:51.627472 34502 net.cpp:129] Top shape: 1 5 (5)
I1018 12:08:51.627476 34502 net.cpp:137] Memory required for data: 1339240
I1018 12:08:51.627480 34502 layer_factory.hpp:77] Creating layer cont_74_lstm1_cont_slice_73_split
I1018 12:08:51.627486 34502 net.cpp:84] Creating Layer cont_74_lstm1_cont_slice_73_split
I1018 12:08:51.627491 34502 net.cpp:406] cont_74_lstm1_cont_slice_73_split <- cont_74
I1018 12:08:51.627496 34502 net.cpp:380] cont_74_lstm1_cont_slice_73_split -> cont_74_lstm1_cont_slice_73_split_0
I1018 12:08:51.627503 34502 net.cpp:380] cont_74_lstm1_cont_slice_73_split -> cont_74_lstm1_cont_slice_73_split_1
I1018 12:08:51.627532 34502 net.cpp:122] Setting up cont_74_lstm1_cont_slice_73_split
I1018 12:08:51.627538 34502 net.cpp:129] Top shape: 1 5 (5)
I1018 12:08:51.627542 34502 net.cpp:129] Top shape: 1 5 (5)
I1018 12:08:51.627547 34502 net.cpp:137] Memory required for data: 1339280
I1018 12:08:51.627550 34502 layer_factory.hpp:77] Creating layer cont_75_lstm1_cont_slice_74_split
I1018 12:08:51.627656 34502 net.cpp:84] Creating Layer cont_75_lstm1_cont_slice_74_split
I1018 12:08:51.627662 34502 net.cpp:406] cont_75_lstm1_cont_slice_74_split <- cont_75
I1018 12:08:51.627668 34502 net.cpp:380] cont_75_lstm1_cont_slice_74_split -> cont_75_lstm1_cont_slice_74_split_0
I1018 12:08:51.627676 34502 net.cpp:380] cont_75_lstm1_cont_slice_74_split -> cont_75_lstm1_cont_slice_74_split_1
I1018 12:08:51.627712 34502 net.cpp:122] Setting up cont_75_lstm1_cont_slice_74_split
I1018 12:08:51.627717 34502 net.cpp:129] Top shape: 1 5 (5)
I1018 12:08:51.627722 34502 net.cpp:129] Top shape: 1 5 (5)
I1018 12:08:51.627727 34502 net.cpp:137] Memory required for data: 1339320
I1018 12:08:51.627730 34502 layer_factory.hpp:77] Creating layer cont_76_lstm1_cont_slice_75_split
I1018 12:08:51.627734 34502 net.cpp:84] Creating Layer cont_76_lstm1_cont_slice_75_split
I1018 12:08:51.627738 34502 net.cpp:406] cont_76_lstm1_cont_slice_75_split <- cont_76
I1018 12:08:51.627744 34502 net.cpp:380] cont_76_lstm1_cont_slice_75_split -> cont_76_lstm1_cont_slice_75_split_0
I1018 12:08:51.627750 34502 net.cpp:380] cont_76_lstm1_cont_slice_75_split -> cont_76_lstm1_cont_slice_75_split_1
I1018 12:08:51.627780 34502 net.cpp:122] Setting up cont_76_lstm1_cont_slice_75_split
I1018 12:08:51.627786 34502 net.cpp:129] Top shape: 1 5 (5)
I1018 12:08:51.627790 34502 net.cpp:129] Top shape: 1 5 (5)
I1018 12:08:51.627794 34502 net.cpp:137] Memory required for data: 1339360
I1018 12:08:51.627797 34502 layer_factory.hpp:77] Creating layer cont_77_lstm1_cont_slice_76_split
I1018 12:08:51.627802 34502 net.cpp:84] Creating Layer cont_77_lstm1_cont_slice_76_split
I1018 12:08:51.627806 34502 net.cpp:406] cont_77_lstm1_cont_slice_76_split <- cont_77
I1018 12:08:51.627813 34502 net.cpp:380] cont_77_lstm1_cont_slice_76_split -> cont_77_lstm1_cont_slice_76_split_0
I1018 12:08:51.627820 34502 net.cpp:380] cont_77_lstm1_cont_slice_76_split -> cont_77_lstm1_cont_slice_76_split_1
I1018 12:08:51.627849 34502 net.cpp:122] Setting up cont_77_lstm1_cont_slice_76_split
I1018 12:08:51.627856 34502 net.cpp:129] Top shape: 1 5 (5)
I1018 12:08:51.627859 34502 net.cpp:129] Top shape: 1 5 (5)
I1018 12:08:51.627863 34502 net.cpp:137] Memory required for data: 1339400
I1018 12:08:51.627867 34502 layer_factory.hpp:77] Creating layer cont_78_lstm1_cont_slice_77_split
I1018 12:08:51.627871 34502 net.cpp:84] Creating Layer cont_78_lstm1_cont_slice_77_split
I1018 12:08:51.627876 34502 net.cpp:406] cont_78_lstm1_cont_slice_77_split <- cont_78
I1018 12:08:51.627881 34502 net.cpp:380] cont_78_lstm1_cont_slice_77_split -> cont_78_lstm1_cont_slice_77_split_0
I1018 12:08:51.627887 34502 net.cpp:380] cont_78_lstm1_cont_slice_77_split -> cont_78_lstm1_cont_slice_77_split_1
I1018 12:08:51.627916 34502 net.cpp:122] Setting up cont_78_lstm1_cont_slice_77_split
I1018 12:08:51.627923 34502 net.cpp:129] Top shape: 1 5 (5)
I1018 12:08:51.627928 34502 net.cpp:129] Top shape: 1 5 (5)
I1018 12:08:51.627930 34502 net.cpp:137] Memory required for data: 1339440
I1018 12:08:51.627934 34502 layer_factory.hpp:77] Creating layer cont_79_lstm1_cont_slice_78_split
I1018 12:08:51.627939 34502 net.cpp:84] Creating Layer cont_79_lstm1_cont_slice_78_split
I1018 12:08:51.627943 34502 net.cpp:406] cont_79_lstm1_cont_slice_78_split <- cont_79
I1018 12:08:51.627948 34502 net.cpp:380] cont_79_lstm1_cont_slice_78_split -> cont_79_lstm1_cont_slice_78_split_0
I1018 12:08:51.627955 34502 net.cpp:380] cont_79_lstm1_cont_slice_78_split -> cont_79_lstm1_cont_slice_78_split_1
I1018 12:08:51.627984 34502 net.cpp:122] Setting up cont_79_lstm1_cont_slice_78_split
I1018 12:08:51.627990 34502 net.cpp:129] Top shape: 1 5 (5)
I1018 12:08:51.627995 34502 net.cpp:129] Top shape: 1 5 (5)
I1018 12:08:51.627997 34502 net.cpp:137] Memory required for data: 1339480
I1018 12:08:51.628001 34502 layer_factory.hpp:77] Creating layer cont_80_lstm1_cont_slice_79_split
I1018 12:08:51.628005 34502 net.cpp:84] Creating Layer cont_80_lstm1_cont_slice_79_split
I1018 12:08:51.628010 34502 net.cpp:406] cont_80_lstm1_cont_slice_79_split <- cont_80
I1018 12:08:51.628017 34502 net.cpp:380] cont_80_lstm1_cont_slice_79_split -> cont_80_lstm1_cont_slice_79_split_0
I1018 12:08:51.628024 34502 net.cpp:380] cont_80_lstm1_cont_slice_79_split -> cont_80_lstm1_cont_slice_79_split_1
I1018 12:08:51.628085 34502 net.cpp:122] Setting up cont_80_lstm1_cont_slice_79_split
I1018 12:08:51.628093 34502 net.cpp:129] Top shape: 1 5 (5)
I1018 12:08:51.628098 34502 net.cpp:129] Top shape: 1 5 (5)
I1018 12:08:51.628103 34502 net.cpp:137] Memory required for data: 1339520
I1018 12:08:51.628106 34502 layer_factory.hpp:77] Creating layer cont_81_lstm1_cont_slice_80_split
I1018 12:08:51.628113 34502 net.cpp:84] Creating Layer cont_81_lstm1_cont_slice_80_split
I1018 12:08:51.628118 34502 net.cpp:406] cont_81_lstm1_cont_slice_80_split <- cont_81
I1018 12:08:51.628124 34502 net.cpp:380] cont_81_lstm1_cont_slice_80_split -> cont_81_lstm1_cont_slice_80_split_0
I1018 12:08:51.628131 34502 net.cpp:380] cont_81_lstm1_cont_slice_80_split -> cont_81_lstm1_cont_slice_80_split_1
I1018 12:08:51.628162 34502 net.cpp:122] Setting up cont_81_lstm1_cont_slice_80_split
I1018 12:08:51.628168 34502 net.cpp:129] Top shape: 1 5 (5)
I1018 12:08:51.628173 34502 net.cpp:129] Top shape: 1 5 (5)
I1018 12:08:51.628177 34502 net.cpp:137] Memory required for data: 1339560
I1018 12:08:51.628181 34502 layer_factory.hpp:77] Creating layer cont_82_lstm1_cont_slice_81_split
I1018 12:08:51.628186 34502 net.cpp:84] Creating Layer cont_82_lstm1_cont_slice_81_split
I1018 12:08:51.628190 34502 net.cpp:406] cont_82_lstm1_cont_slice_81_split <- cont_82
I1018 12:08:51.628196 34502 net.cpp:380] cont_82_lstm1_cont_slice_81_split -> cont_82_lstm1_cont_slice_81_split_0
I1018 12:08:51.628202 34502 net.cpp:380] cont_82_lstm1_cont_slice_81_split -> cont_82_lstm1_cont_slice_81_split_1
I1018 12:08:51.628233 34502 net.cpp:122] Setting up cont_82_lstm1_cont_slice_81_split
I1018 12:08:51.628239 34502 net.cpp:129] Top shape: 1 5 (5)
I1018 12:08:51.628244 34502 net.cpp:129] Top shape: 1 5 (5)
I1018 12:08:51.628247 34502 net.cpp:137] Memory required for data: 1339600
I1018 12:08:51.628252 34502 layer_factory.hpp:77] Creating layer cont_83_lstm1_cont_slice_82_split
I1018 12:08:51.628257 34502 net.cpp:84] Creating Layer cont_83_lstm1_cont_slice_82_split
I1018 12:08:51.628262 34502 net.cpp:406] cont_83_lstm1_cont_slice_82_split <- cont_83
I1018 12:08:51.628267 34502 net.cpp:380] cont_83_lstm1_cont_slice_82_split -> cont_83_lstm1_cont_slice_82_split_0
I1018 12:08:51.628273 34502 net.cpp:380] cont_83_lstm1_cont_slice_82_split -> cont_83_lstm1_cont_slice_82_split_1
I1018 12:08:51.628304 34502 net.cpp:122] Setting up cont_83_lstm1_cont_slice_82_split
I1018 12:08:51.628310 34502 net.cpp:129] Top shape: 1 5 (5)
I1018 12:08:51.628315 34502 net.cpp:129] Top shape: 1 5 (5)
I1018 12:08:51.628319 34502 net.cpp:137] Memory required for data: 1339640
I1018 12:08:51.628322 34502 layer_factory.hpp:77] Creating layer cont_84_lstm1_cont_slice_83_split
I1018 12:08:51.628327 34502 net.cpp:84] Creating Layer cont_84_lstm1_cont_slice_83_split
I1018 12:08:51.628331 34502 net.cpp:406] cont_84_lstm1_cont_slice_83_split <- cont_84
I1018 12:08:51.628340 34502 net.cpp:380] cont_84_lstm1_cont_slice_83_split -> cont_84_lstm1_cont_slice_83_split_0
I1018 12:08:51.628346 34502 net.cpp:380] cont_84_lstm1_cont_slice_83_split -> cont_84_lstm1_cont_slice_83_split_1
I1018 12:08:51.628374 34502 net.cpp:122] Setting up cont_84_lstm1_cont_slice_83_split
I1018 12:08:51.628381 34502 net.cpp:129] Top shape: 1 5 (5)
I1018 12:08:51.628386 34502 net.cpp:129] Top shape: 1 5 (5)
I1018 12:08:51.628389 34502 net.cpp:137] Memory required for data: 1339680
I1018 12:08:51.628393 34502 layer_factory.hpp:77] Creating layer cont_85_lstm1_cont_slice_84_split
I1018 12:08:51.628399 34502 net.cpp:84] Creating Layer cont_85_lstm1_cont_slice_84_split
I1018 12:08:51.628404 34502 net.cpp:406] cont_85_lstm1_cont_slice_84_split <- cont_85
I1018 12:08:51.628409 34502 net.cpp:380] cont_85_lstm1_cont_slice_84_split -> cont_85_lstm1_cont_slice_84_split_0
I1018 12:08:51.628463 34502 net.cpp:380] cont_85_lstm1_cont_slice_84_split -> cont_85_lstm1_cont_slice_84_split_1
I1018 12:08:51.628510 34502 net.cpp:122] Setting up cont_85_lstm1_cont_slice_84_split
I1018 12:08:51.628517 34502 net.cpp:129] Top shape: 1 5 (5)
I1018 12:08:51.628522 34502 net.cpp:129] Top shape: 1 5 (5)
I1018 12:08:51.628526 34502 net.cpp:137] Memory required for data: 1339720
I1018 12:08:51.628530 34502 layer_factory.hpp:77] Creating layer cont_86_lstm1_cont_slice_85_split
I1018 12:08:51.628535 34502 net.cpp:84] Creating Layer cont_86_lstm1_cont_slice_85_split
I1018 12:08:51.628538 34502 net.cpp:406] cont_86_lstm1_cont_slice_85_split <- cont_86
I1018 12:08:51.628545 34502 net.cpp:380] cont_86_lstm1_cont_slice_85_split -> cont_86_lstm1_cont_slice_85_split_0
I1018 12:08:51.628551 34502 net.cpp:380] cont_86_lstm1_cont_slice_85_split -> cont_86_lstm1_cont_slice_85_split_1
I1018 12:08:51.628598 34502 net.cpp:122] Setting up cont_86_lstm1_cont_slice_85_split
I1018 12:08:51.628607 34502 net.cpp:129] Top shape: 1 5 (5)
I1018 12:08:51.628612 34502 net.cpp:129] Top shape: 1 5 (5)
I1018 12:08:51.628615 34502 net.cpp:137] Memory required for data: 1339760
I1018 12:08:51.628620 34502 layer_factory.hpp:77] Creating layer cont_87_lstm1_cont_slice_86_split
I1018 12:08:51.628626 34502 net.cpp:84] Creating Layer cont_87_lstm1_cont_slice_86_split
I1018 12:08:51.628630 34502 net.cpp:406] cont_87_lstm1_cont_slice_86_split <- cont_87
I1018 12:08:51.628639 34502 net.cpp:380] cont_87_lstm1_cont_slice_86_split -> cont_87_lstm1_cont_slice_86_split_0
I1018 12:08:51.628648 34502 net.cpp:380] cont_87_lstm1_cont_slice_86_split -> cont_87_lstm1_cont_slice_86_split_1
I1018 12:08:51.628680 34502 net.cpp:122] Setting up cont_87_lstm1_cont_slice_86_split
I1018 12:08:51.628687 34502 net.cpp:129] Top shape: 1 5 (5)
I1018 12:08:51.628692 34502 net.cpp:129] Top shape: 1 5 (5)
I1018 12:08:51.628697 34502 net.cpp:137] Memory required for data: 1339800
I1018 12:08:51.628701 34502 layer_factory.hpp:77] Creating layer cont_88_lstm1_cont_slice_87_split
I1018 12:08:51.628710 34502 net.cpp:84] Creating Layer cont_88_lstm1_cont_slice_87_split
I1018 12:08:51.628715 34502 net.cpp:406] cont_88_lstm1_cont_slice_87_split <- cont_88
I1018 12:08:51.628721 34502 net.cpp:380] cont_88_lstm1_cont_slice_87_split -> cont_88_lstm1_cont_slice_87_split_0
I1018 12:08:51.628729 34502 net.cpp:380] cont_88_lstm1_cont_slice_87_split -> cont_88_lstm1_cont_slice_87_split_1
I1018 12:08:51.628767 34502 net.cpp:122] Setting up cont_88_lstm1_cont_slice_87_split
I1018 12:08:51.628774 34502 net.cpp:129] Top shape: 1 5 (5)
I1018 12:08:51.628780 34502 net.cpp:129] Top shape: 1 5 (5)
I1018 12:08:51.628784 34502 net.cpp:137] Memory required for data: 1339840
I1018 12:08:51.628789 34502 layer_factory.hpp:77] Creating layer cont_89_lstm1_cont_slice_88_split
I1018 12:08:51.628795 34502 net.cpp:84] Creating Layer cont_89_lstm1_cont_slice_88_split
I1018 12:08:51.628799 34502 net.cpp:406] cont_89_lstm1_cont_slice_88_split <- cont_89
I1018 12:08:51.628806 34502 net.cpp:380] cont_89_lstm1_cont_slice_88_split -> cont_89_lstm1_cont_slice_88_split_0
I1018 12:08:51.628814 34502 net.cpp:380] cont_89_lstm1_cont_slice_88_split -> cont_89_lstm1_cont_slice_88_split_1
I1018 12:08:51.628852 34502 net.cpp:122] Setting up cont_89_lstm1_cont_slice_88_split
I1018 12:08:51.628859 34502 net.cpp:129] Top shape: 1 5 (5)
I1018 12:08:51.628865 34502 net.cpp:129] Top shape: 1 5 (5)
I1018 12:08:51.628870 34502 net.cpp:137] Memory required for data: 1339880
I1018 12:08:51.628873 34502 layer_factory.hpp:77] Creating layer cont_90_lstm1_cont_slice_89_split
I1018 12:08:51.628880 34502 net.cpp:84] Creating Layer cont_90_lstm1_cont_slice_89_split
I1018 12:08:51.628885 34502 net.cpp:406] cont_90_lstm1_cont_slice_89_split <- cont_90
I1018 12:08:51.628890 34502 net.cpp:380] cont_90_lstm1_cont_slice_89_split -> cont_90_lstm1_cont_slice_89_split_0
I1018 12:08:51.628898 34502 net.cpp:380] cont_90_lstm1_cont_slice_89_split -> cont_90_lstm1_cont_slice_89_split_1
I1018 12:08:51.628934 34502 net.cpp:122] Setting up cont_90_lstm1_cont_slice_89_split
I1018 12:08:51.628942 34502 net.cpp:129] Top shape: 1 5 (5)
I1018 12:08:51.628947 34502 net.cpp:129] Top shape: 1 5 (5)
I1018 12:08:51.628952 34502 net.cpp:137] Memory required for data: 1339920
I1018 12:08:51.628955 34502 layer_factory.hpp:77] Creating layer cont_91_lstm1_cont_slice_90_split
I1018 12:08:51.628962 34502 net.cpp:84] Creating Layer cont_91_lstm1_cont_slice_90_split
I1018 12:08:51.628967 34502 net.cpp:406] cont_91_lstm1_cont_slice_90_split <- cont_91
I1018 12:08:51.628974 34502 net.cpp:380] cont_91_lstm1_cont_slice_90_split -> cont_91_lstm1_cont_slice_90_split_0
I1018 12:08:51.628983 34502 net.cpp:380] cont_91_lstm1_cont_slice_90_split -> cont_91_lstm1_cont_slice_90_split_1
I1018 12:08:51.629014 34502 net.cpp:122] Setting up cont_91_lstm1_cont_slice_90_split
I1018 12:08:51.629021 34502 net.cpp:129] Top shape: 1 5 (5)
I1018 12:08:51.629027 34502 net.cpp:129] Top shape: 1 5 (5)
I1018 12:08:51.629031 34502 net.cpp:137] Memory required for data: 1339960
I1018 12:08:51.629036 34502 layer_factory.hpp:77] Creating layer cont_92_lstm1_cont_slice_91_split
I1018 12:08:51.629043 34502 net.cpp:84] Creating Layer cont_92_lstm1_cont_slice_91_split
I1018 12:08:51.629048 34502 net.cpp:406] cont_92_lstm1_cont_slice_91_split <- cont_92
I1018 12:08:51.629056 34502 net.cpp:380] cont_92_lstm1_cont_slice_91_split -> cont_92_lstm1_cont_slice_91_split_0
I1018 12:08:51.629063 34502 net.cpp:380] cont_92_lstm1_cont_slice_91_split -> cont_92_lstm1_cont_slice_91_split_1
I1018 12:08:51.629101 34502 net.cpp:122] Setting up cont_92_lstm1_cont_slice_91_split
I1018 12:08:51.629107 34502 net.cpp:129] Top shape: 1 5 (5)
I1018 12:08:51.629113 34502 net.cpp:129] Top shape: 1 5 (5)
I1018 12:08:51.629117 34502 net.cpp:137] Memory required for data: 1340000
I1018 12:08:51.629122 34502 layer_factory.hpp:77] Creating layer cont_93_lstm1_cont_slice_92_split
I1018 12:08:51.629128 34502 net.cpp:84] Creating Layer cont_93_lstm1_cont_slice_92_split
I1018 12:08:51.629132 34502 net.cpp:406] cont_93_lstm1_cont_slice_92_split <- cont_93
I1018 12:08:51.629139 34502 net.cpp:380] cont_93_lstm1_cont_slice_92_split -> cont_93_lstm1_cont_slice_92_split_0
I1018 12:08:51.629148 34502 net.cpp:380] cont_93_lstm1_cont_slice_92_split -> cont_93_lstm1_cont_slice_92_split_1
I1018 12:08:51.629182 34502 net.cpp:122] Setting up cont_93_lstm1_cont_slice_92_split
I1018 12:08:51.629189 34502 net.cpp:129] Top shape: 1 5 (5)
I1018 12:08:51.629195 34502 net.cpp:129] Top shape: 1 5 (5)
I1018 12:08:51.629199 34502 net.cpp:137] Memory required for data: 1340040
I1018 12:08:51.629204 34502 layer_factory.hpp:77] Creating layer cont_94_lstm1_cont_slice_93_split
I1018 12:08:51.629209 34502 net.cpp:84] Creating Layer cont_94_lstm1_cont_slice_93_split
I1018 12:08:51.629215 34502 net.cpp:406] cont_94_lstm1_cont_slice_93_split <- cont_94
I1018 12:08:51.629220 34502 net.cpp:380] cont_94_lstm1_cont_slice_93_split -> cont_94_lstm1_cont_slice_93_split_0
I1018 12:08:51.629230 34502 net.cpp:380] cont_94_lstm1_cont_slice_93_split -> cont_94_lstm1_cont_slice_93_split_1
I1018 12:08:51.629263 34502 net.cpp:122] Setting up cont_94_lstm1_cont_slice_93_split
I1018 12:08:51.629271 34502 net.cpp:129] Top shape: 1 5 (5)
I1018 12:08:51.629276 34502 net.cpp:129] Top shape: 1 5 (5)
I1018 12:08:51.629281 34502 net.cpp:137] Memory required for data: 1340080
I1018 12:08:51.629286 34502 layer_factory.hpp:77] Creating layer cont_95_lstm1_cont_slice_94_split
I1018 12:08:51.629294 34502 net.cpp:84] Creating Layer cont_95_lstm1_cont_slice_94_split
I1018 12:08:51.629299 34502 net.cpp:406] cont_95_lstm1_cont_slice_94_split <- cont_95
I1018 12:08:51.629307 34502 net.cpp:380] cont_95_lstm1_cont_slice_94_split -> cont_95_lstm1_cont_slice_94_split_0
I1018 12:08:51.629313 34502 net.cpp:380] cont_95_lstm1_cont_slice_94_split -> cont_95_lstm1_cont_slice_94_split_1
I1018 12:08:51.629348 34502 net.cpp:122] Setting up cont_95_lstm1_cont_slice_94_split
I1018 12:08:51.629356 34502 net.cpp:129] Top shape: 1 5 (5)
I1018 12:08:51.629362 34502 net.cpp:129] Top shape: 1 5 (5)
I1018 12:08:51.629366 34502 net.cpp:137] Memory required for data: 1340120
I1018 12:08:51.629370 34502 layer_factory.hpp:77] Creating layer cont_96_lstm1_cont_slice_95_split
I1018 12:08:51.629376 34502 net.cpp:84] Creating Layer cont_96_lstm1_cont_slice_95_split
I1018 12:08:51.629381 34502 net.cpp:406] cont_96_lstm1_cont_slice_95_split <- cont_96
I1018 12:08:51.629389 34502 net.cpp:380] cont_96_lstm1_cont_slice_95_split -> cont_96_lstm1_cont_slice_95_split_0
I1018 12:08:51.629396 34502 net.cpp:380] cont_96_lstm1_cont_slice_95_split -> cont_96_lstm1_cont_slice_95_split_1
I1018 12:08:51.629436 34502 net.cpp:122] Setting up cont_96_lstm1_cont_slice_95_split
I1018 12:08:51.629443 34502 net.cpp:129] Top shape: 1 5 (5)
I1018 12:08:51.629448 34502 net.cpp:129] Top shape: 1 5 (5)
I1018 12:08:51.629453 34502 net.cpp:137] Memory required for data: 1340160
I1018 12:08:51.629457 34502 layer_factory.hpp:77] Creating layer cont_97_lstm1_cont_slice_96_split
I1018 12:08:51.629463 34502 net.cpp:84] Creating Layer cont_97_lstm1_cont_slice_96_split
I1018 12:08:51.629468 34502 net.cpp:406] cont_97_lstm1_cont_slice_96_split <- cont_97
I1018 12:08:51.629474 34502 net.cpp:380] cont_97_lstm1_cont_slice_96_split -> cont_97_lstm1_cont_slice_96_split_0
I1018 12:08:51.629482 34502 net.cpp:380] cont_97_lstm1_cont_slice_96_split -> cont_97_lstm1_cont_slice_96_split_1
I1018 12:08:51.629516 34502 net.cpp:122] Setting up cont_97_lstm1_cont_slice_96_split
I1018 12:08:51.629523 34502 net.cpp:129] Top shape: 1 5 (5)
I1018 12:08:51.629529 34502 net.cpp:129] Top shape: 1 5 (5)
I1018 12:08:51.629534 34502 net.cpp:137] Memory required for data: 1340200
I1018 12:08:51.629539 34502 layer_factory.hpp:77] Creating layer cont_98_lstm1_cont_slice_97_split
I1018 12:08:51.629544 34502 net.cpp:84] Creating Layer cont_98_lstm1_cont_slice_97_split
I1018 12:08:51.629549 34502 net.cpp:406] cont_98_lstm1_cont_slice_97_split <- cont_98
I1018 12:08:51.629557 34502 net.cpp:380] cont_98_lstm1_cont_slice_97_split -> cont_98_lstm1_cont_slice_97_split_0
I1018 12:08:51.629565 34502 net.cpp:380] cont_98_lstm1_cont_slice_97_split -> cont_98_lstm1_cont_slice_97_split_1
I1018 12:08:51.629600 34502 net.cpp:122] Setting up cont_98_lstm1_cont_slice_97_split
I1018 12:08:51.629606 34502 net.cpp:129] Top shape: 1 5 (5)
I1018 12:08:51.629611 34502 net.cpp:129] Top shape: 1 5 (5)
I1018 12:08:51.629621 34502 net.cpp:137] Memory required for data: 1340240
I1018 12:08:51.629626 34502 layer_factory.hpp:77] Creating layer cont_99_lstm1_cont_slice_98_split
I1018 12:08:51.629633 34502 net.cpp:84] Creating Layer cont_99_lstm1_cont_slice_98_split
I1018 12:08:51.629638 34502 net.cpp:406] cont_99_lstm1_cont_slice_98_split <- cont_99
I1018 12:08:51.629645 34502 net.cpp:380] cont_99_lstm1_cont_slice_98_split -> cont_99_lstm1_cont_slice_98_split_0
I1018 12:08:51.629652 34502 net.cpp:380] cont_99_lstm1_cont_slice_98_split -> cont_99_lstm1_cont_slice_98_split_1
I1018 12:08:51.629688 34502 net.cpp:122] Setting up cont_99_lstm1_cont_slice_98_split
I1018 12:08:51.629695 34502 net.cpp:129] Top shape: 1 5 (5)
I1018 12:08:51.629700 34502 net.cpp:129] Top shape: 1 5 (5)
I1018 12:08:51.629705 34502 net.cpp:137] Memory required for data: 1340280
I1018 12:08:51.629709 34502 layer_factory.hpp:77] Creating layer cont_100_lstm1_cont_slice_99_split
I1018 12:08:51.629715 34502 net.cpp:84] Creating Layer cont_100_lstm1_cont_slice_99_split
I1018 12:08:51.629720 34502 net.cpp:406] cont_100_lstm1_cont_slice_99_split <- cont_100
I1018 12:08:51.629727 34502 net.cpp:380] cont_100_lstm1_cont_slice_99_split -> cont_100_lstm1_cont_slice_99_split_0
I1018 12:08:51.629735 34502 net.cpp:380] cont_100_lstm1_cont_slice_99_split -> cont_100_lstm1_cont_slice_99_split_1
I1018 12:08:51.629776 34502 net.cpp:122] Setting up cont_100_lstm1_cont_slice_99_split
I1018 12:08:51.629783 34502 net.cpp:129] Top shape: 1 5 (5)
I1018 12:08:51.629788 34502 net.cpp:129] Top shape: 1 5 (5)
I1018 12:08:51.629793 34502 net.cpp:137] Memory required for data: 1340320
I1018 12:08:51.629798 34502 layer_factory.hpp:77] Creating layer cont_101_lstm1_cont_slice_100_split
I1018 12:08:51.629803 34502 net.cpp:84] Creating Layer cont_101_lstm1_cont_slice_100_split
I1018 12:08:51.629808 34502 net.cpp:406] cont_101_lstm1_cont_slice_100_split <- cont_101
I1018 12:08:51.629815 34502 net.cpp:380] cont_101_lstm1_cont_slice_100_split -> cont_101_lstm1_cont_slice_100_split_0
I1018 12:08:51.629825 34502 net.cpp:380] cont_101_lstm1_cont_slice_100_split -> cont_101_lstm1_cont_slice_100_split_1
I1018 12:08:51.629858 34502 net.cpp:122] Setting up cont_101_lstm1_cont_slice_100_split
I1018 12:08:51.629864 34502 net.cpp:129] Top shape: 1 5 (5)
I1018 12:08:51.629870 34502 net.cpp:129] Top shape: 1 5 (5)
I1018 12:08:51.629875 34502 net.cpp:137] Memory required for data: 1340360
I1018 12:08:51.629879 34502 layer_factory.hpp:77] Creating layer cont_102_lstm1_cont_slice_101_split
I1018 12:08:51.629887 34502 net.cpp:84] Creating Layer cont_102_lstm1_cont_slice_101_split
I1018 12:08:51.629892 34502 net.cpp:406] cont_102_lstm1_cont_slice_101_split <- cont_102
I1018 12:08:51.629899 34502 net.cpp:380] cont_102_lstm1_cont_slice_101_split -> cont_102_lstm1_cont_slice_101_split_0
I1018 12:08:51.629906 34502 net.cpp:380] cont_102_lstm1_cont_slice_101_split -> cont_102_lstm1_cont_slice_101_split_1
I1018 12:08:51.629942 34502 net.cpp:122] Setting up cont_102_lstm1_cont_slice_101_split
I1018 12:08:51.629951 34502 net.cpp:129] Top shape: 1 5 (5)
I1018 12:08:51.629956 34502 net.cpp:129] Top shape: 1 5 (5)
I1018 12:08:51.629961 34502 net.cpp:137] Memory required for data: 1340400
I1018 12:08:51.629964 34502 layer_factory.hpp:77] Creating layer cont_103_lstm1_cont_slice_102_split
I1018 12:08:51.629971 34502 net.cpp:84] Creating Layer cont_103_lstm1_cont_slice_102_split
I1018 12:08:51.629976 34502 net.cpp:406] cont_103_lstm1_cont_slice_102_split <- cont_103
I1018 12:08:51.629982 34502 net.cpp:380] cont_103_lstm1_cont_slice_102_split -> cont_103_lstm1_cont_slice_102_split_0
I1018 12:08:51.629990 34502 net.cpp:380] cont_103_lstm1_cont_slice_102_split -> cont_103_lstm1_cont_slice_102_split_1
I1018 12:08:51.630026 34502 net.cpp:122] Setting up cont_103_lstm1_cont_slice_102_split
I1018 12:08:51.630033 34502 net.cpp:129] Top shape: 1 5 (5)
I1018 12:08:51.630038 34502 net.cpp:129] Top shape: 1 5 (5)
I1018 12:08:51.630043 34502 net.cpp:137] Memory required for data: 1340440
I1018 12:08:51.630048 34502 layer_factory.hpp:77] Creating layer cont_104_lstm1_cont_slice_103_split
I1018 12:08:51.630056 34502 net.cpp:84] Creating Layer cont_104_lstm1_cont_slice_103_split
I1018 12:08:51.630061 34502 net.cpp:406] cont_104_lstm1_cont_slice_103_split <- cont_104
I1018 12:08:51.630069 34502 net.cpp:380] cont_104_lstm1_cont_slice_103_split -> cont_104_lstm1_cont_slice_103_split_0
I1018 12:08:51.630076 34502 net.cpp:380] cont_104_lstm1_cont_slice_103_split -> cont_104_lstm1_cont_slice_103_split_1
I1018 12:08:51.630111 34502 net.cpp:122] Setting up cont_104_lstm1_cont_slice_103_split
I1018 12:08:51.630118 34502 net.cpp:129] Top shape: 1 5 (5)
I1018 12:08:51.630123 34502 net.cpp:129] Top shape: 1 5 (5)
I1018 12:08:51.630128 34502 net.cpp:137] Memory required for data: 1340480
I1018 12:08:51.630132 34502 layer_factory.hpp:77] Creating layer cont_105_lstm1_cont_slice_104_split
I1018 12:08:51.630138 34502 net.cpp:84] Creating Layer cont_105_lstm1_cont_slice_104_split
I1018 12:08:51.630143 34502 net.cpp:406] cont_105_lstm1_cont_slice_104_split <- cont_105
I1018 12:08:51.630151 34502 net.cpp:380] cont_105_lstm1_cont_slice_104_split -> cont_105_lstm1_cont_slice_104_split_0
I1018 12:08:51.630159 34502 net.cpp:380] cont_105_lstm1_cont_slice_104_split -> cont_105_lstm1_cont_slice_104_split_1
I1018 12:08:51.630192 34502 net.cpp:122] Setting up cont_105_lstm1_cont_slice_104_split
I1018 12:08:51.630199 34502 net.cpp:129] Top shape: 1 5 (5)
I1018 12:08:51.630204 34502 net.cpp:129] Top shape: 1 5 (5)
I1018 12:08:51.630209 34502 net.cpp:137] Memory required for data: 1340520
I1018 12:08:51.635763 34502 layer_factory.hpp:77] Creating layer cont_106_lstm1_cont_slice_105_split
I1018 12:08:51.635782 34502 net.cpp:84] Creating Layer cont_106_lstm1_cont_slice_105_split
I1018 12:08:51.635787 34502 net.cpp:406] cont_106_lstm1_cont_slice_105_split <- cont_106
I1018 12:08:51.635795 34502 net.cpp:380] cont_106_lstm1_cont_slice_105_split -> cont_106_lstm1_cont_slice_105_split_0
I1018 12:08:51.635805 34502 net.cpp:380] cont_106_lstm1_cont_slice_105_split -> cont_106_lstm1_cont_slice_105_split_1
I1018 12:08:51.635856 34502 net.cpp:122] Setting up cont_106_lstm1_cont_slice_105_split
I1018 12:08:51.635865 34502 net.cpp:129] Top shape: 1 5 (5)
I1018 12:08:51.635870 34502 net.cpp:129] Top shape: 1 5 (5)
I1018 12:08:51.635874 34502 net.cpp:137] Memory required for data: 1340560
I1018 12:08:51.635879 34502 layer_factory.hpp:77] Creating layer cont_107_lstm1_cont_slice_106_split
I1018 12:08:51.635884 34502 net.cpp:84] Creating Layer cont_107_lstm1_cont_slice_106_split
I1018 12:08:51.635888 34502 net.cpp:406] cont_107_lstm1_cont_slice_106_split <- cont_107
I1018 12:08:51.635895 34502 net.cpp:380] cont_107_lstm1_cont_slice_106_split -> cont_107_lstm1_cont_slice_106_split_0
I1018 12:08:51.635901 34502 net.cpp:380] cont_107_lstm1_cont_slice_106_split -> cont_107_lstm1_cont_slice_106_split_1
I1018 12:08:51.635952 34502 net.cpp:122] Setting up cont_107_lstm1_cont_slice_106_split
I1018 12:08:51.635959 34502 net.cpp:129] Top shape: 1 5 (5)
I1018 12:08:51.635965 34502 net.cpp:129] Top shape: 1 5 (5)
I1018 12:08:51.635969 34502 net.cpp:137] Memory required for data: 1340600
I1018 12:08:51.635974 34502 layer_factory.hpp:77] Creating layer cont_108_lstm1_cont_slice_107_split
I1018 12:08:51.635980 34502 net.cpp:84] Creating Layer cont_108_lstm1_cont_slice_107_split
I1018 12:08:51.635985 34502 net.cpp:406] cont_108_lstm1_cont_slice_107_split <- cont_108
I1018 12:08:51.635993 34502 net.cpp:380] cont_108_lstm1_cont_slice_107_split -> cont_108_lstm1_cont_slice_107_split_0
I1018 12:08:51.636000 34502 net.cpp:380] cont_108_lstm1_cont_slice_107_split -> cont_108_lstm1_cont_slice_107_split_1
I1018 12:08:51.636046 34502 net.cpp:122] Setting up cont_108_lstm1_cont_slice_107_split
I1018 12:08:51.636055 34502 net.cpp:129] Top shape: 1 5 (5)
I1018 12:08:51.636060 34502 net.cpp:129] Top shape: 1 5 (5)
I1018 12:08:51.636065 34502 net.cpp:137] Memory required for data: 1340640
I1018 12:08:51.636070 34502 layer_factory.hpp:77] Creating layer cont_109_lstm1_cont_slice_108_split
I1018 12:08:51.636076 34502 net.cpp:84] Creating Layer cont_109_lstm1_cont_slice_108_split
I1018 12:08:51.636081 34502 net.cpp:406] cont_109_lstm1_cont_slice_108_split <- cont_109
I1018 12:08:51.636090 34502 net.cpp:380] cont_109_lstm1_cont_slice_108_split -> cont_109_lstm1_cont_slice_108_split_0
I1018 12:08:51.636099 34502 net.cpp:380] cont_109_lstm1_cont_slice_108_split -> cont_109_lstm1_cont_slice_108_split_1
I1018 12:08:51.636137 34502 net.cpp:122] Setting up cont_109_lstm1_cont_slice_108_split
I1018 12:08:51.636143 34502 net.cpp:129] Top shape: 1 5 (5)
I1018 12:08:51.636149 34502 net.cpp:129] Top shape: 1 5 (5)
I1018 12:08:51.636153 34502 net.cpp:137] Memory required for data: 1340680
I1018 12:08:51.636158 34502 layer_factory.hpp:77] Creating layer cont_110_lstm1_cont_slice_109_split
I1018 12:08:51.636164 34502 net.cpp:84] Creating Layer cont_110_lstm1_cont_slice_109_split
I1018 12:08:51.636169 34502 net.cpp:406] cont_110_lstm1_cont_slice_109_split <- cont_110
I1018 12:08:51.636176 34502 net.cpp:380] cont_110_lstm1_cont_slice_109_split -> cont_110_lstm1_cont_slice_109_split_0
I1018 12:08:51.636184 34502 net.cpp:380] cont_110_lstm1_cont_slice_109_split -> cont_110_lstm1_cont_slice_109_split_1
I1018 12:08:51.636222 34502 net.cpp:122] Setting up cont_110_lstm1_cont_slice_109_split
I1018 12:08:51.636229 34502 net.cpp:129] Top shape: 1 5 (5)
I1018 12:08:51.636235 34502 net.cpp:129] Top shape: 1 5 (5)
I1018 12:08:51.636240 34502 net.cpp:137] Memory required for data: 1340720
I1018 12:08:51.636245 34502 layer_factory.hpp:77] Creating layer cont_111_lstm1_cont_slice_110_split
I1018 12:08:51.636250 34502 net.cpp:84] Creating Layer cont_111_lstm1_cont_slice_110_split
I1018 12:08:51.636256 34502 net.cpp:406] cont_111_lstm1_cont_slice_110_split <- cont_111
I1018 12:08:51.636263 34502 net.cpp:380] cont_111_lstm1_cont_slice_110_split -> cont_111_lstm1_cont_slice_110_split_0
I1018 12:08:51.636270 34502 net.cpp:380] cont_111_lstm1_cont_slice_110_split -> cont_111_lstm1_cont_slice_110_split_1
I1018 12:08:51.636307 34502 net.cpp:122] Setting up cont_111_lstm1_cont_slice_110_split
I1018 12:08:51.636314 34502 net.cpp:129] Top shape: 1 5 (5)
I1018 12:08:51.636320 34502 net.cpp:129] Top shape: 1 5 (5)
I1018 12:08:51.636325 34502 net.cpp:137] Memory required for data: 1340760
I1018 12:08:51.636329 34502 layer_factory.hpp:77] Creating layer cont_112_lstm1_cont_slice_111_split
I1018 12:08:51.636335 34502 net.cpp:84] Creating Layer cont_112_lstm1_cont_slice_111_split
I1018 12:08:51.636340 34502 net.cpp:406] cont_112_lstm1_cont_slice_111_split <- cont_112
I1018 12:08:51.636349 34502 net.cpp:380] cont_112_lstm1_cont_slice_111_split -> cont_112_lstm1_cont_slice_111_split_0
I1018 12:08:51.636358 34502 net.cpp:380] cont_112_lstm1_cont_slice_111_split -> cont_112_lstm1_cont_slice_111_split_1
I1018 12:08:51.636390 34502 net.cpp:122] Setting up cont_112_lstm1_cont_slice_111_split
I1018 12:08:51.636396 34502 net.cpp:129] Top shape: 1 5 (5)
I1018 12:08:51.636402 34502 net.cpp:129] Top shape: 1 5 (5)
I1018 12:08:51.636407 34502 net.cpp:137] Memory required for data: 1340800
I1018 12:08:51.636411 34502 layer_factory.hpp:77] Creating layer cont_113_lstm1_cont_slice_112_split
I1018 12:08:51.636420 34502 net.cpp:84] Creating Layer cont_113_lstm1_cont_slice_112_split
I1018 12:08:51.636425 34502 net.cpp:406] cont_113_lstm1_cont_slice_112_split <- cont_113
I1018 12:08:51.636431 34502 net.cpp:380] cont_113_lstm1_cont_slice_112_split -> cont_113_lstm1_cont_slice_112_split_0
I1018 12:08:51.636440 34502 net.cpp:380] cont_113_lstm1_cont_slice_112_split -> cont_113_lstm1_cont_slice_112_split_1
I1018 12:08:51.636474 34502 net.cpp:122] Setting up cont_113_lstm1_cont_slice_112_split
I1018 12:08:51.636482 34502 net.cpp:129] Top shape: 1 5 (5)
I1018 12:08:51.636487 34502 net.cpp:129] Top shape: 1 5 (5)
I1018 12:08:51.636492 34502 net.cpp:137] Memory required for data: 1340840
I1018 12:08:51.636497 34502 layer_factory.hpp:77] Creating layer cont_114_lstm1_cont_slice_113_split
I1018 12:08:51.636502 34502 net.cpp:84] Creating Layer cont_114_lstm1_cont_slice_113_split
I1018 12:08:51.636507 34502 net.cpp:406] cont_114_lstm1_cont_slice_113_split <- cont_114
I1018 12:08:51.636513 34502 net.cpp:380] cont_114_lstm1_cont_slice_113_split -> cont_114_lstm1_cont_slice_113_split_0
I1018 12:08:51.636521 34502 net.cpp:380] cont_114_lstm1_cont_slice_113_split -> cont_114_lstm1_cont_slice_113_split_1
I1018 12:08:51.636561 34502 net.cpp:122] Setting up cont_114_lstm1_cont_slice_113_split
I1018 12:08:51.636569 34502 net.cpp:129] Top shape: 1 5 (5)
I1018 12:08:51.636575 34502 net.cpp:129] Top shape: 1 5 (5)
I1018 12:08:51.636579 34502 net.cpp:137] Memory required for data: 1340880
I1018 12:08:51.636584 34502 layer_factory.hpp:77] Creating layer cont_115_lstm1_cont_slice_114_split
I1018 12:08:51.636590 34502 net.cpp:84] Creating Layer cont_115_lstm1_cont_slice_114_split
I1018 12:08:51.636595 34502 net.cpp:406] cont_115_lstm1_cont_slice_114_split <- cont_115
I1018 12:08:51.636602 34502 net.cpp:380] cont_115_lstm1_cont_slice_114_split -> cont_115_lstm1_cont_slice_114_split_0
I1018 12:08:51.636610 34502 net.cpp:380] cont_115_lstm1_cont_slice_114_split -> cont_115_lstm1_cont_slice_114_split_1
I1018 12:08:51.636646 34502 net.cpp:122] Setting up cont_115_lstm1_cont_slice_114_split
I1018 12:08:51.636653 34502 net.cpp:129] Top shape: 1 5 (5)
I1018 12:08:51.636658 34502 net.cpp:129] Top shape: 1 5 (5)
I1018 12:08:51.636663 34502 net.cpp:137] Memory required for data: 1340920
I1018 12:08:51.636667 34502 layer_factory.hpp:77] Creating layer cont_116_lstm1_cont_slice_115_split
I1018 12:08:51.658565 34502 net.cpp:84] Creating Layer cont_116_lstm1_cont_slice_115_split
I1018 12:08:51.658591 34502 net.cpp:406] cont_116_lstm1_cont_slice_115_split <- cont_116
I1018 12:08:51.658607 34502 net.cpp:380] cont_116_lstm1_cont_slice_115_split -> cont_116_lstm1_cont_slice_115_split_0
I1018 12:08:51.658619 34502 net.cpp:380] cont_116_lstm1_cont_slice_115_split -> cont_116_lstm1_cont_slice_115_split_1
…
I1018 12:08:55.542115 34502 net.cpp:406] lstm1_unit_114 <- gate_input_114
I1018 12:08:55.542120 34502 net.cpp:406] lstm1_unit_114 <- cont_114_lstm1_cont_slice_113_split_1
I1018 12:08:55.542127 34502 net.cpp:380] lstm1_unit_114 -> c_114
I1018 12:08:55.542138 34502 net.cpp:380] lstm1_unit_114 -> h_114
I1018 12:08:55.542186 34502 net.cpp:122] Setting up lstm1_unit_114
I1018 12:08:55.542196 34502 net.cpp:129] Top shape: 1 150 512 (76800)
I1018 12:08:55.542201 34502 net.cpp:129] Top shape: 1 150 512 (76800)
I1018 12:08:55.542204 34502 net.cpp:137] Memory required for data: 809472000
I1018 12:08:55.542209 34502 layer_factory.hpp:77] Creating layer h_114_lstm1_unit_114_1_split
I1018 12:08:55.542217 34502 net.cpp:84] Creating Layer h_114_lstm1_unit_114_1_split
I1018 12:08:55.542222 34502 net.cpp:406] h_114_lstm1_unit_114_1_split <- h_114
I1018 12:08:55.542227 34502 net.cpp:380] h_114_lstm1_unit_114_1_split -> h_114_lstm1_unit_114_1_split_0
I1018 12:08:55.542234 34502 net.cpp:380] h_114_lstm1_unit_114_1_split -> h_114_lstm1_unit_114_1_split_1
I1018 12:08:55.542270 34502 net.cpp:122] Setting up h_114_lstm1_unit_114_1_split
I1018 12:08:55.542279 34502 net.cpp:129] Top shape: 1 150 512 (76800)
I1018 12:08:55.542284 34502 net.cpp:129] Top shape: 1 150 512 (76800)
I1018 12:08:55.542287 34502 net.cpp:137] Memory required for data: 810086400
I1018 12:08:55.542291 34502 layer_factory.hpp:77] Creating layer lstm1_h_conted_114
I1018 12:08:55.542299 34502 net.cpp:84] Creating Layer lstm1_h_conted_114
I1018 12:08:55.542304 34502 net.cpp:406] lstm1_h_conted_114 <- h_114_lstm1_unit_114_1_split_0
I1018 12:08:55.542311 34502 net.cpp:406] lstm1_h_conted_114 <- cont_115_lstm1_cont_slice_114_split_0
I1018 12:08:55.542323 34502 net.cpp:380] lstm1_h_conted_114 -> h_conted_114
I1018 12:08:55.542397 34502 net.cpp:122] Setting up lstm1_h_conted_114
I1018 12:08:55.542405 34502 net.cpp:129] Top shape: 1 150 512 (76800)
I1018 12:08:55.542409 34502 net.cpp:137] Memory required for data: 810393600
I1018 12:08:55.542413 34502 layer_factory.hpp:77] Creating layer lstm1_transform_115
I1018 12:08:55.542421 34502 net.cpp:84] Creating Layer lstm1_transform_115
I1018 12:08:55.542426 34502 net.cpp:406] lstm1_transform_115 <- h_conted_114
I1018 12:08:55.542436 34502 net.cpp:380] lstm1_transform_115 -> W_hc_h_114
I1018 12:08:55.554716 34502 net.cpp:122] Setting up lstm1_transform_115
I1018 12:08:55.554733 34502 net.cpp:129] Top shape: 1 150 2048 (307200)
I1018 12:08:55.554749 34502 net.cpp:137] Memory required for data: 811622400
I1018 12:08:55.554754 34502 net.cpp:465] Sharing parameters 'W_hc' owned by layer 'lstm1_transform_1', param index 0
I1018 12:08:55.554759 34502 layer_factory.hpp:77] Creating layer lstm1_gate_input_115
I1018 12:08:55.554766 34502 net.cpp:84] Creating Layer lstm1_gate_input_115
I1018 12:08:55.554772 34502 net.cpp:406] lstm1_gate_input_115 <- W_hc_h_114
I1018 12:08:55.554778 34502 net.cpp:406] lstm1_gate_input_115 <- W_xc_x_115
I1018 12:08:55.554785 34502 net.cpp:380] lstm1_gate_input_115 -> gate_input_115
I1018 12:08:55.554838 34502 net.cpp:122] Setting up lstm1_gate_input_115
I1018 12:08:55.554852 34502 net.cpp:129] Top shape: 1 150 2048 (307200)
I1018 12:08:55.554857 34502 net.cpp:137] Memory required for data: 812851200
I1018 12:08:55.554862 34502 layer_factory.hpp:77] Creating layer lstm1_unit_115
I1018 12:08:55.554870 34502 net.cpp:84] Creating Layer lstm1_unit_115
I1018 12:08:55.554877 34502 net.cpp:406] lstm1_unit_115 <- c_114
I1018 12:08:55.554883 34502 net.cpp:406] lstm1_unit_115 <- gate_input_115
I1018 12:08:55.554888 34502 net.cpp:406] lstm1_unit_115 <- cont_115_lstm1_cont_slice_114_split_1
I1018 12:08:55.554894 34502 net.cpp:380] lstm1_unit_115 -> c_115
I1018 12:08:55.554904 34502 net.cpp:380] lstm1_unit_115 -> h_115
I1018 12:08:55.554955 34502 net.cpp:122] Setting up lstm1_unit_115
I1018 12:08:55.554965 34502 net.cpp:129] Top shape: 1 150 512 (76800)
I1018 12:08:55.554970 34502 net.cpp:129] Top shape: 1 150 512 (76800)
I1018 12:08:55.554973 34502 net.cpp:137] Memory required for data: 813465600
I1018 12:08:55.554977 34502 layer_factory.hpp:77] Creating layer h_115_lstm1_unit_115_1_split
I1018 12:08:55.554983 34502 net.cpp:84] Creating Layer h_115_lstm1_unit_115_1_split
I1018 12:08:55.554988 34502 net.cpp:406] h_115_lstm1_unit_115_1_split <- h_115
I1018 12:08:55.554994 34502 net.cpp:380] h_115_lstm1_unit_115_1_split -> h_115_lstm1_unit_115_1_split_0
I1018 12:08:55.555002 34502 net.cpp:380] h_115_lstm1_unit_115_1_split -> h_115_lstm1_unit_115_1_split_1
I1018 12:08:55.555035 34502 net.cpp:122] Setting up h_115_lstm1_unit_115_1_split
I1018 12:08:55.555043 34502 net.cpp:129] Top shape: 1 150 512 (76800)
I1018 12:08:55.555048 34502 net.cpp:129] Top shape: 1 150 512 (76800)
I1018 12:08:55.555052 34502 net.cpp:137] Memory required for data: 814080000
I1018 12:08:55.555057 34502 layer_factory.hpp:77] Creating layer lstm1_h_conted_115
I1018 12:08:55.555064 34502 net.cpp:84] Creating Layer lstm1_h_conted_115
I1018 12:08:55.555069 34502 net.cpp:406] lstm1_h_conted_115 <- h_115_lstm1_unit_115_1_split_0
I1018 12:08:55.555078 34502 net.cpp:406] lstm1_h_conted_115 <- cont_116_lstm1_cont_slice_115_split_0
I1018 12:08:55.555085 34502 net.cpp:380] lstm1_h_conted_115 -> h_conted_115
I1018 12:08:55.555155 34502 net.cpp:122] Setting up lstm1_h_conted_115
I1018 12:08:55.555164 34502 net.cpp:129] Top shape: 1 150 512 (76800)
I1018 12:08:55.555168 34502 net.cpp:137] Memory required for data: 814387200
I1018 12:08:55.555172 34502 layer_factory.hpp:77] Creating layer lstm1_transform_116
I1018 12:08:55.555179 34502 net.cpp:84] Creating Layer lstm1_transform_116
I1018 12:08:55.555184 34502 net.cpp:406] lstm1_transform_116 <- h_conted_115
I1018 12:08:55.555191 34502 net.cpp:380] lstm1_transform_116 -> W_hc_h_115
I1018 12:08:55.566679 34502 net.cpp:122] Setting up lstm1_transform_116
I1018 12:08:55.566694 34502 net.cpp:129] Top shape: 1 150 2048 (307200)
I1018 12:08:55.566710 34502 net.cpp:137] Memory required for data: 815616000
I1018 12:08:55.566715 34502 net.cpp:465] Sharing parameters 'W_hc' owned by layer 'lstm1_transform_1', param index 0
I1018 12:08:55.566721 34502 layer_factory.hpp:77] Creating layer lstm1_gate_input_116
I1018 12:08:55.566730 34502 net.cpp:84] Creating Layer lstm1_gate_input_116
I1018 12:08:55.566735 34502 net.cpp:406] lstm1_gate_input_116 <- W_hc_h_115
I1018 12:08:55.566741 34502 net.cpp:406] lstm1_gate_input_116 <- W_xc_x_116
I1018 12:08:55.566748 34502 net.cpp:380] lstm1_gate_input_116 -> gate_input_116
I1018 12:08:55.566788 34502 net.cpp:122] Setting up lstm1_gate_input_116
I1018 12:08:55.566802 34502 net.cpp:129] Top shape: 1 150 2048 (307200)
I1018 12:08:55.566818 34502 net.cpp:137] Memory required for data: 816844800
I1018 12:08:55.566823 34502 layer_factory.hpp:77] Creating layer lstm1_unit_116
I1018 12:08:55.566830 34502 net.cpp:84] Creating Layer lstm1_unit_116
I1018 12:08:55.566835 34502 net.cpp:406] lstm1_unit_116 <- c_115
I1018 12:08:55.566843 34502 net.cpp:406] lstm1_unit_116 <- gate_input_116
I1018 12:08:55.566848 34502 net.cpp:406] lstm1_unit_116 <- cont_116_lstm1_cont_slice_115_split_1
I1018 12:08:55.566854 34502 net.cpp:380] lstm1_unit_116 -> c_116
I1018 12:08:55.566864 34502 net.cpp:380] lstm1_unit_116 -> h_116
I1018 12:08:55.566917 34502 net.cpp:122] Setting up lstm1_unit_116
I1018 12:08:55.566926 34502 net.cpp:129] Top shape: 1 150 512 (76800)
I1018 12:08:55.566931 34502 net.cpp:129] Top shape: 1 150 512 (76800)
I1018 12:08:55.566936 34502 net.cpp:137] Memory required for data: 817459200
I1018 12:08:55.566939 34502 layer_factory.hpp:77] Creating layer h_116_lstm1_unit_116_1_split
I1018 12:08:55.566947 34502 net.cpp:84] Creating Layer h_116_lstm1_unit_116_1_split
I1018 12:08:55.566952 34502 net.cpp:406] h_116_lstm1_unit_116_1_split <- h_116
I1018 12:08:55.566958 34502 net.cpp:380] h_116_lstm1_unit_116_1_split -> h_116_lstm1_unit_116_1_split_0
I1018 12:08:55.566967 34502 net.cpp:380] h_116_lstm1_unit_116_1_split -> h_116_lstm1_unit_116_1_split_1
I1018 12:08:55.567004 34502 net.cpp:122] Setting up h_116_lstm1_unit_116_1_split
I1018 12:08:55.567013 34502 net.cpp:129] Top shape: 1 150 512 (76800)
I1018 12:08:55.567018 34502 net.cpp:129] Top shape: 1 150 512 (76800)
I1018 12:08:55.567021 34502 net.cpp:137] Memory required for data: 818073600
I1018 12:08:55.567025 34502 layer_factory.hpp:77] Creating layer lstm1_h_conted_116
I1018 12:08:55.567035 34502 net.cpp:84] Creating Layer lstm1_h_conted_116
I1018 12:08:55.567041 34502 net.cpp:406] lstm1_h_conted_116 <- h_116_lstm1_unit_116_1_split_0
I1018 12:08:55.567047 34502 net.cpp:406] lstm1_h_conted_116 <- cont_117_lstm1_cont_slice_116_split_0
I1018 12:08:55.567054 34502 net.cpp:380] lstm1_h_conted_116 -> h_conted_116
I1018 12:08:55.567136 34502 net.cpp:122] Setting up lstm1_h_conted_116
I1018 12:08:55.567144 34502 net.cpp:129] Top shape: 1 150 512 (76800)
I1018 12:08:55.567148 34502 net.cpp:137] Memory required for data: 818380800
I1018 12:08:55.567152 34502 layer_factory.hpp:77] Creating layer lstm1_transform_117
I1018 12:08:55.567162 34502 net.cpp:84] Creating Layer lstm1_transform_117
I1018 12:08:55.567167 34502 net.cpp:406] lstm1_transform_117 <- h_conted_116
I1018 12:08:55.567174 34502 net.cpp:380] lstm1_transform_117 -> W_hc_h_116
I1018 12:08:55.578912 34502 net.cpp:122] Setting up lstm1_transform_117
I1018 12:08:55.578927 34502 net.cpp:129] Top shape: 1 150 2048 (307200)
I1018 12:08:55.578943 34502 net.cpp:137] Memory required for data: 819609600
I1018 12:08:55.578948 34502 net.cpp:465] Sharing parameters 'W_hc' owned by layer 'lstm1_transform_1', param index 0
I1018 12:08:55.578953 34502 layer_factory.hpp:77] Creating layer lstm1_gate_input_117
I1018 12:08:55.578960 34502 net.cpp:84] Creating Layer lstm1_gate_input_117
I1018 12:08:55.578966 34502 net.cpp:406] lstm1_gate_input_117 <- W_hc_h_116
I1018 12:08:55.578972 34502 net.cpp:406] lstm1_gate_input_117 <- W_xc_x_117
I1018 12:08:55.578979 34502 net.cpp:380] lstm1_gate_input_117 -> gate_input_117
I1018 12:08:55.579030 34502 net.cpp:122] Setting up lstm1_gate_input_117
I1018 12:08:55.579042 34502 net.cpp:129] Top shape: 1 150 2048 (307200)
I1018 12:08:55.579046 34502 net.cpp:137] Memory required for data: 820838400
I1018 12:08:55.579051 34502 layer_factory.hpp:77] Creating layer lstm1_unit_117
I1018 12:08:55.579061 34502 net.cpp:84] Creating Layer lstm1_unit_117
I1018 12:08:55.579067 34502 net.cpp:406] lstm1_unit_117 <- c_116
I1018 12:08:55.579074 34502 net.cpp:406] lstm1_unit_117 <- gate_input_117
I1018 12:08:55.579080 34502 net.cpp:406] lstm1_unit_117 <- cont_117_lstm1_cont_slice_116_split_1
I1018 12:08:55.579087 34502 net.cpp:380] lstm1_unit_117 -> c_117
I1018 12:08:55.579097 34502 net.cpp:380] lstm1_unit_117 -> h_117
I1018 12:08:55.579149 34502 net.cpp:122] Setting up lstm1_unit_117
I1018 12:08:55.579157 34502 net.cpp:129] Top shape: 1 150 512 (76800)
I1018 12:08:55.579162 34502 net.cpp:129] Top shape: 1 150 512 (76800)
I1018 12:08:55.579166 34502 net.cpp:137] Memory required for data: 821452800
I1018 12:08:55.579171 34502 layer_factory.hpp:77] Creating layer h_117_lstm1_unit_117_1_split
I1018 12:08:55.579177 34502 net.cpp:84] Creating Layer h_117_lstm1_unit_117_1_split
I1018 12:08:55.579182 34502 net.cpp:406] h_117_lstm1_unit_117_1_split <- h_117
I1018 12:08:55.579190 34502 net.cpp:380] h_117_lstm1_unit_117_1_split -> h_117_lstm1_unit_117_1_split_0
I1018 12:08:55.579198 34502 net.cpp:380] h_117_lstm1_unit_117_1_split -> h_117_lstm1_unit_117_1_split_1
I1018 12:08:55.579232 34502 net.cpp:122] Setting up h_117_lstm1_unit_117_1_split
I1018 12:08:55.579241 34502 net.cpp:129] Top shape: 1 150 512 (76800)
I1018 12:08:55.579246 34502 net.cpp:129] Top shape: 1 150 512 (76800)
I1018 12:08:55.579249 34502 net.cpp:137] Memory required for data: 822067200
I1018 12:08:55.579253 34502 layer_factory.hpp:77] Creating layer lstm1_h_conted_117
I1018 12:08:55.579262 34502 net.cpp:84] Creating Layer lstm1_h_conted_117
I1018 12:08:55.579272 34502 net.cpp:406] lstm1_h_conted_117 <- h_117_lstm1_unit_117_1_split_0
I1018 12:08:55.579280 34502 net.cpp:406] lstm1_h_conted_117 <- cont_118_lstm1_cont_slice_117_split_0
I1018 12:08:55.579289 34502 net.cpp:380] lstm1_h_conted_117 -> h_conted_117
I1018 12:08:55.579376 34502 net.cpp:122] Setting up lstm1_h_conted_117
I1018 12:08:55.579386 34502 net.cpp:129] Top shape: 1 150 512 (76800)
I1018 12:08:55.579391 34502 net.cpp:137] Memory required for data: 822374400
I1018 12:08:55.579394 34502 layer_factory.hpp:77] Creating layer lstm1_transform_118
I1018 12:08:55.579401 34502 net.cpp:84] Creating Layer lstm1_transform_118
I1018 12:08:55.579406 34502 net.cpp:406] lstm1_transform_118 <- h_conted_117
I1018 12:08:55.579416 34502 net.cpp:380] lstm1_transform_118 -> W_hc_h_117
I1018 12:08:55.590829 34502 net.cpp:122] Setting up lstm1_transform_118
I1018 12:08:55.590844 34502 net.cpp:129] Top shape: 1 150 2048 (307200)
I1018 12:08:55.590860 34502 net.cpp:137] Memory required for data: 823603200
I1018 12:08:55.590865 34502 net.cpp:465] Sharing parameters 'W_hc' owned by layer 'lstm1_transform_1', param index 0
I1018 12:08:55.590870 34502 layer_factory.hpp:77] Creating layer lstm1_gate_input_118
I1018 12:08:55.590879 34502 net.cpp:84] Creating Layer lstm1_gate_input_118
I1018 12:08:55.590884 34502 net.cpp:406] lstm1_gate_input_118 <- W_hc_h_117
I1018 12:08:55.590894 34502 net.cpp:406] lstm1_gate_input_118 <- W_xc_x_118
I1018 12:08:55.590903 34502 net.cpp:380] lstm1_gate_input_118 -> gate_input_118
I1018 12:08:55.590952 34502 net.cpp:122] Setting up lstm1_gate_input_118
I1018 12:08:55.590963 34502 net.cpp:129] Top shape: 1 150 2048 (307200)
I1018 12:08:55.590967 34502 net.cpp:137] Memory required for data: 824832000
I1018 12:08:55.590973 34502 layer_factory.hpp:77] Creating layer lstm1_unit_118
I1018 12:08:55.590983 34502 net.cpp:84] Creating Layer lstm1_unit_118
I1018 12:08:55.590989 34502 net.cpp:406] lstm1_unit_118 <- c_117
I1018 12:08:55.590996 34502 net.cpp:406] lstm1_unit_118 <- gate_input_118
I1018 12:08:55.591001 34502 net.cpp:406] lstm1_unit_118 <- cont_118_lstm1_cont_slice_117_split_1
I1018 12:08:55.591008 34502 net.cpp:380] lstm1_unit_118 -> c_118
I1018 12:08:55.591017 34502 net.cpp:380] lstm1_unit_118 -> h_118
I1018 12:08:55.591068 34502 net.cpp:122] Setting up lstm1_unit_118
I1018 12:08:55.591076 34502 net.cpp:129] Top shape: 1 150 512 (76800)
I1018 12:08:55.591081 34502 net.cpp:129] Top shape: 1 150 512 (76800)
I1018 12:08:55.591085 34502 net.cpp:137] Memory required for data: 825446400
I1018 12:08:55.591089 34502 layer_factory.hpp:77] Creating layer h_118_lstm1_unit_118_1_split
I1018 12:08:55.591095 34502 net.cpp:84] Creating Layer h_118_lstm1_unit_118_1_split
I1018 12:08:55.591100 34502 net.cpp:406] h_118_lstm1_unit_118_1_split <- h_118
I1018 12:08:55.591109 34502 net.cpp:380] h_118_lstm1_unit_118_1_split -> h_118_lstm1_unit_118_1_split_0
I1018 12:08:55.591116 34502 net.cpp:380] h_118_lstm1_unit_118_1_split -> h_118_lstm1_unit_118_1_split_1
I1018 12:08:55.591150 34502 net.cpp:122] Setting up h_118_lstm1_unit_118_1_split
I1018 12:08:55.591156 34502 net.cpp:129] Top shape: 1 150 512 (76800)
I1018 12:08:55.591161 34502 net.cpp:129] Top shape: 1 150 512 (76800)
I1018 12:08:55.591166 34502 net.cpp:137] Memory required for data: 826060800
I1018 12:08:55.591169 34502 layer_factory.hpp:77] Creating layer lstm1_h_conted_118
I1018 12:08:55.591181 34502 net.cpp:84] Creating Layer lstm1_h_conted_118
I1018 12:08:55.591187 34502 net.cpp:406] lstm1_h_conted_118 <- h_118_lstm1_unit_118_1_split_0
I1018 12:08:55.591194 34502 net.cpp:406] lstm1_h_conted_118 <- cont_119_lstm1_cont_slice_118_split_0
I1018 12:08:55.591202 34502 net.cpp:380] lstm1_h_conted_118 -> h_conted_118
I1018 12:08:55.591284 34502 net.cpp:122] Setting up lstm1_h_conted_118
I1018 12:08:55.591292 34502 net.cpp:129] Top shape: 1 150 512 (76800)
I1018 12:08:55.591296 34502 net.cpp:137] Memory required for data: 826368000
I1018 12:08:55.591300 34502 layer_factory.hpp:77] Creating layer lstm1_transform_119
I1018 12:08:55.591310 34502 net.cpp:84] Creating Layer lstm1_transform_119
I1018 12:08:55.591316 34502 net.cpp:406] lstm1_transform_119 <- h_conted_118
I1018 12:08:55.591323 34502 net.cpp:380] lstm1_transform_119 -> W_hc_h_118
I1018 12:08:55.602972 34502 net.cpp:122] Setting up lstm1_transform_119
I1018 12:08:55.602988 34502 net.cpp:129] Top shape: 1 150 2048 (307200)
I1018 12:08:55.603003 34502 net.cpp:137] Memory required for data: 827596800
I1018 12:08:55.603008 34502 net.cpp:465] Sharing parameters 'W_hc' owned by layer 'lstm1_transform_1', param index 0
I1018 12:08:55.603015 34502 layer_factory.hpp:77] Creating layer lstm1_gate_input_119
I1018 12:08:55.603025 34502 net.cpp:84] Creating Layer lstm1_gate_input_119
I1018 12:08:55.603031 34502 net.cpp:406] lstm1_gate_input_119 <- W_hc_h_118
I1018 12:08:55.603037 34502 net.cpp:406] lstm1_gate_input_119 <- W_xc_x_119
I1018 12:08:55.603044 34502 net.cpp:380] lstm1_gate_input_119 -> gate_input_119
I1018 12:08:55.603092 34502 net.cpp:122] Setting up lstm1_gate_input_119
I1018 12:08:55.603104 34502 net.cpp:129] Top shape: 1 150 2048 (307200)
I1018 12:08:55.603108 34502 net.cpp:137] Memory required for data: 828825600
I1018 12:08:55.603112 34502 layer_factory.hpp:77] Creating layer lstm1_unit_119
I1018 12:08:55.603119 34502 net.cpp:84] Creating Layer lstm1_unit_119
I1018 12:08:55.603126 34502 net.cpp:406] lstm1_unit_119 <- c_118
I1018 12:08:55.603132 34502 net.cpp:406] lstm1_unit_119 <- gate_input_119
I1018 12:08:55.603138 34502 net.cpp:406] lstm1_unit_119 <- cont_119_lstm1_cont_slice_118_split_1
I1018 12:08:55.603147 34502 net.cpp:380] lstm1_unit_119 -> c_119
I1018 12:08:55.603157 34502 net.cpp:380] lstm1_unit_119 -> h_119
I1018 12:08:55.603205 34502 net.cpp:122] Setting up lstm1_unit_119
I1018 12:08:55.603214 34502 net.cpp:129] Top shape: 1 150 512 (76800)
I1018 12:08:55.603219 34502 net.cpp:129] Top shape: 1 150 512 (76800)
I1018 12:08:55.603222 34502 net.cpp:137] Memory required for data: 829440000
I1018 12:08:55.603226 34502 layer_factory.hpp:77] Creating layer h_119_lstm1_unit_119_1_split
I1018 12:08:55.603232 34502 net.cpp:84] Creating Layer h_119_lstm1_unit_119_1_split
I1018 12:08:55.603236 34502 net.cpp:406] h_119_lstm1_unit_119_1_split <- h_119
I1018 12:08:55.603243 34502 net.cpp:380] h_119_lstm1_unit_119_1_split -> h_119_lstm1_unit_119_1_split_0
I1018 12:08:55.603250 34502 net.cpp:380] h_119_lstm1_unit_119_1_split -> h_119_lstm1_unit_119_1_split_1
I1018 12:08:55.603284 34502 net.cpp:122] Setting up h_119_lstm1_unit_119_1_split
I1018 12:08:55.603292 34502 net.cpp:129] Top shape: 1 150 512 (76800)
I1018 12:08:55.603297 34502 net.cpp:129] Top shape: 1 150 512 (76800)
I1018 12:08:55.603301 34502 net.cpp:137] Memory required for data: 830054400
I1018 12:08:55.603305 34502 layer_factory.hpp:77] Creating layer lstm1_h_conted_119
I1018 12:08:55.603314 34502 net.cpp:84] Creating Layer lstm1_h_conted_119
I1018 12:08:55.603320 34502 net.cpp:406] lstm1_h_conted_119 <- h_119_lstm1_unit_119_1_split_0
I1018 12:08:55.603329 34502 net.cpp:406] lstm1_h_conted_119 <- cont_120_lstm1_cont_slice_119_split_0
I1018 12:08:55.603343 34502 net.cpp:380] lstm1_h_conted_119 -> h_conted_119
I1018 12:08:55.603413 34502 net.cpp:122] Setting up lstm1_h_conted_119
I1018 12:08:55.603422 34502 net.cpp:129] Top shape: 1 150 512 (76800)
I1018 12:08:55.603426 34502 net.cpp:137] Memory required for data: 830361600
I1018 12:08:55.603430 34502 layer_factory.hpp:77] Creating layer lstm1_transform_120
I1018 12:08:55.603440 34502 net.cpp:84] Creating Layer lstm1_transform_120
I1018 12:08:55.603446 34502 net.cpp:406] lstm1_transform_120 <- h_conted_119
I1018 12:08:55.603452 34502 net.cpp:380] lstm1_transform_120 -> W_hc_h_119
I1018 12:08:55.615187 34502 net.cpp:122] Setting up lstm1_transform_120
I1018 12:08:55.615205 34502 net.cpp:129] Top shape: 1 150 2048 (307200)
I1018 12:08:55.615209 34502 net.cpp:137] Memory required for data: 831590400
I1018 12:08:55.615214 34502 net.cpp:465] Sharing parameters 'W_hc' owned by layer 'lstm1_transform_1', param index 0
I1018 12:08:55.615221 34502 layer_factory.hpp:77] Creating layer lstm1_gate_input_120
I1018 12:08:55.615231 34502 net.cpp:84] Creating Layer lstm1_gate_input_120
I1018 12:08:55.615238 34502 net.cpp:406] lstm1_gate_input_120 <- W_hc_h_119
I1018 12:08:55.615248 34502 net.cpp:406] lstm1_gate_input_120 <- W_xc_x_120
I1018 12:08:55.615263 34502 net.cpp:380] lstm1_gate_input_120 -> gate_input_120
I1018 12:08:55.615300 34502 net.cpp:122] Setting up lstm1_gate_input_120
I1018 12:08:55.615309 34502 net.cpp:129] Top shape: 1 150 2048 (307200)
I1018 12:08:55.615314 34502 net.cpp:137] Memory required for data: 832819200
I1018 12:08:55.615317 34502 layer_factory.hpp:77] Creating layer lstm1_unit_120
I1018 12:08:55.615324 34502 net.cpp:84] Creating Layer lstm1_unit_120
I1018 12:08:55.615329 34502 net.cpp:406] lstm1_unit_120 <- c_119
I1018 12:08:55.615335 34502 net.cpp:406] lstm1_unit_120 <- gate_input_120
I1018 12:08:55.615341 34502 net.cpp:406] lstm1_unit_120 <- cont_120_lstm1_cont_slice_119_split_1
I1018 12:08:55.615348 34502 net.cpp:380] lstm1_unit_120 -> c_120
I1018 12:08:55.615360 34502 net.cpp:380] lstm1_unit_120 -> h_120
I1018 12:08:55.615408 34502 net.cpp:122] Setting up lstm1_unit_120
I1018 12:08:55.615417 34502 net.cpp:129] Top shape: 1 150 512 (76800)
I1018 12:08:55.615422 34502 net.cpp:129] Top shape: 1 150 512 (76800)
I1018 12:08:55.615425 34502 net.cpp:137] Memory required for data: 833433600
I1018 12:08:55.615430 34502 layer_factory.hpp:77] Creating layer h_120_lstm1_unit_120_1_split
I1018 12:08:55.615437 34502 net.cpp:84] Creating Layer h_120_lstm1_unit_120_1_split
I1018 12:08:55.615442 34502 net.cpp:406] h_120_lstm1_unit_120_1_split <- h_120
I1018 12:08:55.615448 34502 net.cpp:380] h_120_lstm1_unit_120_1_split -> h_120_lstm1_unit_120_1_split_0
I1018 12:08:55.615456 34502 net.cpp:380] h_120_lstm1_unit_120_1_split -> h_120_lstm1_unit_120_1_split_1
I1018 12:08:55.615492 34502 net.cpp:122] Setting up h_120_lstm1_unit_120_1_split
I1018 12:08:55.615500 34502 net.cpp:129] Top shape: 1 150 512 (76800)
I1018 12:08:55.615505 34502 net.cpp:129] Top shape: 1 150 512 (76800)
I1018 12:08:55.615509 34502 net.cpp:137] Memory required for data: 834048000
I1018 12:08:55.615514 34502 layer_factory.hpp:77] Creating layer lstm1_h_conted_120
I1018 12:08:55.615520 34502 net.cpp:84] Creating Layer lstm1_h_conted_120
I1018 12:08:55.615525 34502 net.cpp:406] lstm1_h_conted_120 <- h_120_lstm1_unit_120_1_split_0
I1018 12:08:55.615532 34502 net.cpp:406] lstm1_h_conted_120 <- cont_121_lstm1_cont_slice_120_split_0
I1018 12:08:55.615563 34502 net.cpp:380] lstm1_h_conted_120 -> h_conted_120
I1018 12:08:55.615648 34502 net.cpp:122] Setting up lstm1_h_conted_120
I1018 12:08:55.615658 34502 net.cpp:129] Top shape: 1 150 512 (76800)
I1018 12:08:55.615661 34502 net.cpp:137] Memory required for data: 834355200
I1018 12:08:55.615666 34502 layer_factory.hpp:77] Creating layer lstm1_transform_121
I1018 12:08:55.615674 34502 net.cpp:84] Creating Layer lstm1_transform_121
I1018 12:08:55.615680 34502 net.cpp:406] lstm1_transform_121 <- h_conted_120
I1018 12:08:55.615689 34502 net.cpp:380] lstm1_transform_121 -> W_hc_h_120
I1018 12:08:55.627389 34502 net.cpp:122] Setting up lstm1_transform_121
I1018 12:08:55.627418 34502 net.cpp:129] Top shape: 1 150 2048 (307200)
I1018 12:08:55.627423 34502 net.cpp:137] Memory required for data: 835584000
I1018 12:08:55.627427 34502 net.cpp:465] Sharing parameters 'W_hc' owned by layer 'lstm1_transform_1', param index 0
I1018 12:08:55.627432 34502 layer_factory.hpp:77] Creating layer lstm1_gate_input_121
I1018 12:08:55.627440 34502 net.cpp:84] Creating Layer lstm1_gate_input_121
I1018 12:08:55.627446 34502 net.cpp:406] lstm1_gate_input_121 <- W_hc_h_120
I1018 12:08:55.627454 34502 net.cpp:406] lstm1_gate_input_121 <- W_xc_x_121
I1018 12:08:55.627463 34502 net.cpp:380] lstm1_gate_input_121 -> gate_input_121
I1018 12:08:55.627496 34502 net.cpp:122] Setting up lstm1_gate_input_121
I1018 12:08:55.627508 34502 net.cpp:129] Top shape: 1 150 2048 (307200)
I1018 12:08:55.627516 34502 net.cpp:137] Memory required for data: 836812800
I1018 12:08:55.627523 34502 layer_factory.hpp:77] Creating layer lstm1_unit_121
I1018 12:08:55.627530 34502 net.cpp:84] Creating Layer lstm1_unit_121
I1018 12:08:55.627537 34502 net.cpp:406] lstm1_unit_121 <- c_120
I1018 12:08:55.627542 34502 net.cpp:406] lstm1_unit_121 <- gate_input_121
I1018 12:08:55.627548 34502 net.cpp:406] lstm1_unit_121 <- cont_121_lstm1_cont_slice_120_split_1
I1018 12:08:55.627555 34502 net.cpp:380] lstm1_unit_121 -> c_121
I1018 12:08:55.627563 34502 net.cpp:380] lstm1_unit_121 -> h_121
I1018 12:08:55.627617 34502 net.cpp:122] Setting up lstm1_unit_121
I1018 12:08:55.627626 34502 net.cpp:129] Top shape: 1 150 512 (76800)
I1018 12:08:55.627632 34502 net.cpp:129] Top shape: 1 150 512 (76800)
I1018 12:08:55.627635 34502 net.cpp:137] Memory required for data: 837427200
I1018 12:08:55.627640 34502 layer_factory.hpp:77] Creating layer h_121_lstm1_unit_121_1_split
I1018 12:08:55.627646 34502 net.cpp:84] Creating Layer h_121_lstm1_unit_121_1_split
I1018 12:08:55.627651 34502 net.cpp:406] h_121_lstm1_unit_121_1_split <- h_121
I1018 12:08:55.627657 34502 net.cpp:380] h_121_lstm1_unit_121_1_split -> h_121_lstm1_unit_121_1_split_0
I1018 12:08:55.627665 34502 net.cpp:380] h_121_lstm1_unit_121_1_split -> h_121_lstm1_unit_121_1_split_1
I1018 12:08:55.627701 34502 net.cpp:122] Setting up h_121_lstm1_unit_121_1_split
I1018 12:08:55.627707 34502 net.cpp:129] Top shape: 1 150 512 (76800)
I1018 12:08:55.627712 34502 net.cpp:129] Top shape: 1 150 512 (76800)
I1018 12:08:55.627717 34502 net.cpp:137] Memory required for data: 838041600
I1018 12:08:55.627722 34502 layer_factory.hpp:77] Creating layer lstm1_h_conted_121
I1018 12:08:55.627729 34502 net.cpp:84] Creating Layer lstm1_h_conted_121
I1018 12:08:55.627734 34502 net.cpp:406] lstm1_h_conted_121 <- h_121_lstm1_unit_121_1_split_0
I1018 12:08:55.627743 34502 net.cpp:406] lstm1_h_conted_121 <- cont_122_lstm1_cont_slice_121_split_0
I1018 12:08:55.627749 34502 net.cpp:380] lstm1_h_conted_121 -> h_conted_121
I1018 12:08:55.627825 34502 net.cpp:122] Setting up lstm1_h_conted_121
I1018 12:08:55.627833 34502 net.cpp:129] Top shape: 1 150 512 (76800)
I1018 12:08:55.627837 34502 net.cpp:137] Memory required for data: 838348800
I1018 12:08:55.627848 34502 layer_factory.hpp:77] Creating layer lstm1_transform_122
I1018 12:08:55.627856 34502 net.cpp:84] Creating Layer lstm1_transform_122
I1018 12:08:55.627862 34502 net.cpp:406] lstm1_transform_122 <- h_conted_121
I1018 12:08:55.627869 34502 net.cpp:380] lstm1_transform_122 -> W_hc_h_121
I1018 12:08:55.639506 34502 net.cpp:122] Setting up lstm1_transform_122
I1018 12:08:55.639523 34502 net.cpp:129] Top shape: 1 150 2048 (307200)
I1018 12:08:55.639526 34502 net.cpp:137] Memory required for data: 839577600
I1018 12:08:55.639533 34502 net.cpp:465] Sharing parameters 'W_hc' owned by layer 'lstm1_transform_1', param index 0
I1018 12:08:55.639539 34502 layer_factory.hpp:77] Creating layer lstm1_gate_input_122
I1018 12:08:55.639545 34502 net.cpp:84] Creating Layer lstm1_gate_input_122
I1018 12:08:55.639551 34502 net.cpp:406] lstm1_gate_input_122 <- W_hc_h_121
I1018 12:08:55.639557 34502 net.cpp:406] lstm1_gate_input_122 <- W_xc_x_122
I1018 12:08:55.639564 34502 net.cpp:380] lstm1_gate_input_122 -> gate_input_122
I1018 12:08:55.639603 34502 net.cpp:122] Setting up lstm1_gate_input_122
I1018 12:08:55.639617 34502 net.cpp:129] Top shape: 1 150 2048 (307200)
I1018 12:08:55.639621 34502 net.cpp:137] Memory required for data: 840806400
I1018 12:08:55.639626 34502 layer_factory.hpp:77] Creating layer lstm1_unit_122
I1018 12:08:55.639633 34502 net.cpp:84] Creating Layer lstm1_unit_122
I1018 12:08:55.639638 34502 net.cpp:406] lstm1_unit_122 <- c_121
I1018 12:08:55.639645 34502 net.cpp:406] lstm1_unit_122 <- gate_input_122
I1018 12:08:55.639652 34502 net.cpp:406] lstm1_unit_122 <- cont_122_lstm1_cont_slice_121_split_1
I1018 12:08:55.639657 34502 net.cpp:380] lstm1_unit_122 -> c_122
I1018 12:08:55.639667 34502 net.cpp:380] lstm1_unit_122 -> h_122
I1018 12:08:55.639719 34502 net.cpp:122] Setting up lstm1_unit_122
I1018 12:08:55.639727 34502 net.cpp:129] Top shape: 1 150 512 (76800)
I1018 12:08:55.639732 34502 net.cpp:129] Top shape: 1 150 512 (76800)
I1018 12:08:55.639736 34502 net.cpp:137] Memory required for data: 841420800
I1018 12:08:55.639741 34502 layer_factory.hpp:77] Creating layer h_122_lstm1_unit_122_1_split
I1018 12:08:55.639749 34502 net.cpp:84] Creating Layer h_122_lstm1_unit_122_1_split
I1018 12:08:55.639753 34502 net.cpp:406] h_122_lstm1_unit_122_1_split <- h_122
I1018 12:08:55.639760 34502 net.cpp:380] h_122_lstm1_unit_122_1_split -> h_122_lstm1_unit_122_1_split_0
I1018 12:08:55.639767 34502 net.cpp:380] h_122_lstm1_unit_122_1_split -> h_122_lstm1_unit_122_1_split_1
I1018 12:08:55.639803 34502 net.cpp:122] Setting up h_122_lstm1_unit_122_1_split
I1018 12:08:55.639811 34502 net.cpp:129] Top shape: 1 150 512 (76800)
I1018 12:08:55.639816 34502 net.cpp:129] Top shape: 1 150 512 (76800)
I1018 12:08:55.639819 34502 net.cpp:137] Memory required for data: 842035200
I1018 12:08:55.639824 34502 layer_factory.hpp:77] Creating layer lstm1_h_conted_122
I1018 12:08:55.639834 34502 net.cpp:84] Creating Layer lstm1_h_conted_122
I1018 12:08:55.639840 34502 net.cpp:406] lstm1_h_conted_122 <- h_122_lstm1_unit_122_1_split_0
I1018 12:08:55.639848 34502 net.cpp:406] lstm1_h_conted_122 <- cont_123_lstm1_cont_slice_122_split_0
I1018 12:08:55.639855 34502 net.cpp:380] lstm1_h_conted_122 -> h_conted_122
I1018 12:08:55.639927 34502 net.cpp:122] Setting up lstm1_h_conted_122
I1018 12:08:55.639937 34502 net.cpp:129] Top shape: 1 150 512 (76800)
I1018 12:08:55.639941 34502 net.cpp:137] Memory required for data: 842342400
I1018 12:08:55.639945 34502 layer_factory.hpp:77] Creating layer lstm1_transform_123
I1018 12:08:55.639956 34502 net.cpp:84] Creating Layer lstm1_transform_123
I1018 12:08:55.639966 34502 net.cpp:406] lstm1_transform_123 <- h_conted_122
I1018 12:08:55.639972 34502 net.cpp:380] lstm1_transform_123 -> W_hc_h_122
I1018 12:08:55.651664 34502 net.cpp:122] Setting up lstm1_transform_123
I1018 12:08:55.651681 34502 net.cpp:129] Top shape: 1 150 2048 (307200)
I1018 12:08:55.651685 34502 net.cpp:137] Memory required for data: 843571200
I1018 12:08:55.651691 34502 net.cpp:465] Sharing parameters 'W_hc' owned by layer 'lstm1_transform_1', param index 0
I1018 12:08:55.651696 34502 layer_factory.hpp:77] Creating layer lstm1_gate_input_123
I1018 12:08:55.651705 34502 net.cpp:84] Creating Layer lstm1_gate_input_123
I1018 12:08:55.651710 34502 net.cpp:406] lstm1_gate_input_123 <- W_hc_h_122
I1018 12:08:55.651716 34502 net.cpp:406] lstm1_gate_input_123 <- W_xc_x_123
I1018 12:08:55.651723 34502 net.cpp:380] lstm1_gate_input_123 -> gate_input_123
I1018 12:08:55.651760 34502 net.cpp:122] Setting up lstm1_gate_input_123
I1018 12:08:55.651778 34502 net.cpp:129] Top shape: 1 150 2048 (307200)
I1018 12:08:55.651783 34502 net.cpp:137] Memory required for data: 844800000
I1018 12:08:55.651787 34502 layer_factory.hpp:77] Creating layer lstm1_unit_123
I1018 12:08:55.651794 34502 net.cpp:84] Creating Layer lstm1_unit_123
I1018 12:08:55.651800 34502 net.cpp:406] lstm1_unit_123 <- c_122
I1018 12:08:55.651808 34502 net.cpp:406] lstm1_unit_123 <- gate_input_123
I1018 12:08:55.651816 34502 net.cpp:406] lstm1_unit_123 <- cont_123_lstm1_cont_slice_122_split_1
I1018 12:08:55.651823 34502 net.cpp:380] lstm1_unit_123 -> c_123
I1018 12:08:55.651831 34502 net.cpp:380] lstm1_unit_123 -> h_123
I1018 12:08:55.651883 34502 net.cpp:122] Setting up lstm1_unit_123
I1018 12:08:55.651891 34502 net.cpp:129] Top shape: 1 150 512 (76800)
I1018 12:08:55.651897 34502 net.cpp:129] Top shape: 1 150 512 (76800)
I1018 12:08:55.651901 34502 net.cpp:137] Memory required for data: 845414400
I1018 12:08:55.651906 34502 layer_factory.hpp:77] Creating layer h_123_lstm1_unit_123_1_split
I1018 12:08:55.651912 34502 net.cpp:84] Creating Layer h_123_lstm1_unit_123_1_split
I1018 12:08:55.651917 34502 net.cpp:406] h_123_lstm1_unit_123_1_split <- h_123
I1018 12:08:55.651926 34502 net.cpp:380] h_123_lstm1_unit_123_1_split -> h_123_lstm1_unit_123_1_split_0
I1018 12:08:55.651934 34502 net.cpp:380] h_123_lstm1_unit_123_1_split -> h_123_lstm1_unit_123_1_split_1
I1018 12:08:55.651971 34502 net.cpp:122] Setting up h_123_lstm1_unit_123_1_split
I1018 12:08:55.651980 34502 net.cpp:129] Top shape: 1 150 512 (76800)
I1018 12:08:55.651985 34502 net.cpp:129] Top shape: 1 150 512 (76800)
I1018 12:08:55.651988 34502 net.cpp:137] Memory required for data: 846028800
I1018 12:08:55.651993 34502 layer_factory.hpp:77] Creating layer lstm1_h_conted_123
I1018 12:08:55.652003 34502 net.cpp:84] Creating Layer lstm1_h_conted_123
I1018 12:08:55.652007 34502 net.cpp:406] lstm1_h_conted_123 <- h_123_lstm1_unit_123_1_split_0
I1018 12:08:55.652015 34502 net.cpp:406] lstm1_h_conted_123 <- cont_124_lstm1_cont_slice_123_split_0
I1018 12:08:55.652024 34502 net.cpp:380] lstm1_h_conted_123 -> h_conted_123
I1018 12:08:55.652107 34502 net.cpp:122] Setting up lstm1_h_conted_123
I1018 12:08:55.652117 34502 net.cpp:129] Top shape: 1 150 512 (76800)
I1018 12:08:55.652122 34502 net.cpp:137] Memory required for data: 846336000
I1018 12:08:55.652125 34502 layer_factory.hpp:77] Creating layer lstm1_transform_124
I1018 12:08:55.652133 34502 net.cpp:84] Creating Layer lstm1_transform_124
I1018 12:08:55.652138 34502 net.cpp:406] lstm1_transform_124 <- h_conted_123
I1018 12:08:55.652148 34502 net.cpp:380] lstm1_transform_124 -> W_hc_h_123
I1018 12:08:55.664111 34502 net.cpp:122] Setting up lstm1_transform_124
I1018 12:08:55.664127 34502 net.cpp:129] Top shape: 1 150 2048 (307200)
I1018 12:08:55.664132 34502 net.cpp:137] Memory required for data: 847564800
I1018 12:08:55.664137 34502 net.cpp:465] Sharing parameters 'W_hc' owned by layer 'lstm1_transform_1', param index 0
I1018 12:08:55.664142 34502 layer_factory.hpp:77] Creating layer lstm1_gate_input_124
I1018 12:08:55.664150 34502 net.cpp:84] Creating Layer lstm1_gate_input_124
I1018 12:08:55.664155 34502 net.cpp:406] lstm1_gate_input_124 <- W_hc_h_123
I1018 12:08:55.664162 34502 net.cpp:406] lstm1_gate_input_124 <- W_xc_x_124
I1018 12:08:55.664170 34502 net.cpp:380] lstm1_gate_input_124 -> gate_input_124
I1018 12:08:55.664212 34502 net.cpp:122] Setting up lstm1_gate_input_124
I1018 12:08:55.664222 34502 net.cpp:129] Top shape: 1 150 2048 (307200)
I1018 12:08:55.664227 34502 net.cpp:137] Memory required for data: 848793600
I1018 12:08:55.664237 34502 layer_factory.hpp:77] Creating layer lstm1_unit_124
I1018 12:08:55.664249 34502 net.cpp:84] Creating Layer lstm1_unit_124
I1018 12:08:55.664258 34502 net.cpp:406] lstm1_unit_124 <- c_123
I1018 12:08:55.664268 34502 net.cpp:406] lstm1_unit_124 <- gate_input_124
I1018 12:08:55.664273 34502 net.cpp:406] lstm1_unit_124 <- cont_124_lstm1_cont_slice_123_split_1
I1018 12:08:55.664279 34502 net.cpp:380] lstm1_unit_124 -> c_124
I1018 12:08:55.664290 34502 net.cpp:380] lstm1_unit_124 -> h_124
I1018 12:08:55.664342 34502 net.cpp:122] Setting up lstm1_unit_124
I1018 12:08:55.664350 34502 net.cpp:129] Top shape: 1 150 512 (76800)
I1018 12:08:55.664355 34502 net.cpp:129] Top shape: 1 150 512 (76800)
I1018 12:08:55.664358 34502 net.cpp:137] Memory required for data: 849408000
I1018 12:08:55.664362 34502 layer_factory.hpp:77] Creating layer h_124_lstm1_unit_124_1_split
I1018 12:08:55.664368 34502 net.cpp:84] Creating Layer h_124_lstm1_unit_124_1_split
I1018 12:08:55.664373 34502 net.cpp:406] h_124_lstm1_unit_124_1_split <- h_124
I1018 12:08:55.664381 34502 net.cpp:380] h_124_lstm1_unit_124_1_split -> h_124_lstm1_unit_124_1_split_0
I1018 12:08:55.664388 34502 net.cpp:380] h_124_lstm1_unit_124_1_split -> h_124_lstm1_unit_124_1_split_1
I1018 12:08:55.664422 34502 net.cpp:122] Setting up h_124_lstm1_unit_124_1_split
I1018 12:08:55.664427 34502 net.cpp:129] Top shape: 1 150 512 (76800)
I1018 12:08:55.664433 34502 net.cpp:129] Top shape: 1 150 512 (76800)
I1018 12:08:55.664436 34502 net.cpp:137] Memory required for data: 850022400
I1018 12:08:55.664440 34502 layer_factory.hpp:77] Creating layer lstm1_h_conted_124
I1018 12:08:55.664450 34502 net.cpp:84] Creating Layer lstm1_h_conted_124
I1018 12:08:55.664455 34502 net.cpp:406] lstm1_h_conted_124 <- h_124_lstm1_unit_124_1_split_0
I1018 12:08:55.664463 34502 net.cpp:406] lstm1_h_conted_124 <- cont_125_lstm1_cont_slice_124_split_0
I1018 12:08:55.664469 34502 net.cpp:380] lstm1_h_conted_124 -> h_conted_124
I1018 12:08:55.664542 34502 net.cpp:122] Setting up lstm1_h_conted_124
I1018 12:08:55.664551 34502 net.cpp:129] Top shape: 1 150 512 (76800)
I1018 12:08:55.664554 34502 net.cpp:137] Memory required for data: 850329600
I1018 12:08:55.664558 34502 layer_factory.hpp:77] Creating layer lstm1_transform_125
I1018 12:08:55.664568 34502 net.cpp:84] Creating Layer lstm1_transform_125
I1018 12:08:55.664573 34502 net.cpp:406] lstm1_transform_125 <- h_conted_124
I1018 12:08:55.664582 34502 net.cpp:380] lstm1_transform_125 -> W_hc_h_124
I1018 12:08:55.676250 34502 net.cpp:122] Setting up lstm1_transform_125
I1018 12:08:55.676268 34502 net.cpp:129] Top shape: 1 150 2048 (307200)
I1018 12:08:55.676272 34502 net.cpp:137] Memory required for data: 851558400
I1018 12:08:55.676278 34502 net.cpp:465] Sharing parameters 'W_hc' owned by layer 'lstm1_transform_1', param index 0
I1018 12:08:55.676285 34502 layer_factory.hpp:77] Creating layer lstm1_gate_input_125
I1018 12:08:55.676295 34502 net.cpp:84] Creating Layer lstm1_gate_input_125
I1018 12:08:55.676301 34502 net.cpp:406] lstm1_gate_input_125 <- W_hc_h_124
I1018 12:08:55.676309 34502 net.cpp:406] lstm1_gate_input_125 <- W_xc_x_125
I1018 12:08:55.676317 34502 net.cpp:380] lstm1_gate_input_125 -> gate_input_125
I1018 12:08:55.676347 34502 net.cpp:122] Setting up lstm1_gate_input_125
I1018 12:08:55.676354 34502 net.cpp:129] Top shape: 1 150 2048 (307200)
I1018 12:08:55.676358 34502 net.cpp:137] Memory required for data: 852787200
I1018 12:08:55.676362 34502 layer_factory.hpp:77] Creating layer lstm1_unit_125
I1018 12:08:55.676373 34502 net.cpp:84] Creating Layer lstm1_unit_125
I1018 12:08:55.676380 34502 net.cpp:406] lstm1_unit_125 <- c_124
I1018 12:08:55.676390 34502 net.cpp:406] lstm1_unit_125 <- gate_input_125
I1018 12:08:55.676399 34502 net.cpp:406] lstm1_unit_125 <- cont_125_lstm1_cont_slice_124_split_1
I1018 12:08:55.676411 34502 net.cpp:380] lstm1_unit_125 -> c_125
I1018 12:08:55.676421 34502 net.cpp:380] lstm1_unit_125 -> h_125
I1018 12:08:55.676476 34502 net.cpp:122] Setting up lstm1_unit_125
I1018 12:08:55.676483 34502 net.cpp:129] Top shape: 1 150 512 (76800)
I1018 12:08:55.676488 34502 net.cpp:129] Top shape: 1 150 512 (76800)
I1018 12:08:55.676492 34502 net.cpp:137] Memory required for data: 853401600
I1018 12:08:55.676496 34502 layer_factory.hpp:77] Creating layer h_125_lstm1_unit_125_1_split
I1018 12:08:55.676502 34502 net.cpp:84] Creating Layer h_125_lstm1_unit_125_1_split
I1018 12:08:55.676507 34502 net.cpp:406] h_125_lstm1_unit_125_1_split <- h_125
I1018 12:08:55.676514 34502 net.cpp:380] h_125_lstm1_unit_125_1_split -> h_125_lstm1_unit_125_1_split_0
I1018 12:08:55.676522 34502 net.cpp:380] h_125_lstm1_unit_125_1_split -> h_125_lstm1_unit_125_1_split_1
I1018 12:08:55.676558 34502 net.cpp:122] Setting up h_125_lstm1_unit_125_1_split
I1018 12:08:55.676564 34502 net.cpp:129] Top shape: 1 150 512 (76800)
I1018 12:08:55.676569 34502 net.cpp:129] Top shape: 1 150 512 (76800)
I1018 12:08:55.676573 34502 net.cpp:137] Memory required for data: 854016000
I1018 12:08:55.676578 34502 layer_factory.hpp:77] Creating layer lstm1_h_conted_125
I1018 12:08:55.676589 34502 net.cpp:84] Creating Layer lstm1_h_conted_125
I1018 12:08:55.676594 34502 net.cpp:406] lstm1_h_conted_125 <- h_125_lstm1_unit_125_1_split_0
I1018 12:08:55.676601 34502 net.cpp:406] lstm1_h_conted_125 <- cont_126_lstm1_cont_slice_125_split_0
I1018 12:08:55.676609 34502 net.cpp:380] lstm1_h_conted_125 -> h_conted_125
I1018 12:08:55.676687 34502 net.cpp:122] Setting up lstm1_h_conted_125
I1018 12:08:55.676697 34502 net.cpp:129] Top shape: 1 150 512 (76800)
I1018 12:08:55.676700 34502 net.cpp:137] Memory required for data: 854323200
I1018 12:08:55.676704 34502 layer_factory.hpp:77] Creating layer lstm1_transform_126
I1018 12:08:55.676714 34502 net.cpp:84] Creating Layer lstm1_transform_126
I1018 12:08:55.676720 34502 net.cpp:406] lstm1_transform_126 <- h_conted_125
I1018 12:08:55.676728 34502 net.cpp:380] lstm1_transform_126 -> W_hc_h_125
I1018 12:08:55.688554 34502 net.cpp:122] Setting up lstm1_transform_126
I1018 12:08:55.688571 34502 net.cpp:129] Top shape: 1 150 2048 (307200)
I1018 12:08:55.688576 34502 net.cpp:137] Memory required for data: 855552000
I1018 12:08:55.688581 34502 net.cpp:465] Sharing parameters 'W_hc' owned by layer 'lstm1_transform_1', param index 0
I1018 12:08:55.688586 34502 layer_factory.hpp:77] Creating layer lstm1_gate_input_126
I1018 12:08:55.688596 34502 net.cpp:84] Creating Layer lstm1_gate_input_126
I1018 12:08:55.688601 34502 net.cpp:406] lstm1_gate_input_126 <- W_hc_h_125
I1018 12:08:55.688609 34502 net.cpp:406] lstm1_gate_input_126 <- W_xc_x_126
I1018 12:08:55.688617 34502 net.cpp:380] lstm1_gate_input_126 -> gate_input_126
I1018 12:08:55.688661 34502 net.cpp:122] Setting up lstm1_gate_input_126
I1018 12:08:55.688669 34502 net.cpp:129] Top shape: 1 150 2048 (307200)
I1018 12:08:55.688676 34502 net.cpp:137] Memory required for data: 856780800
I1018 12:08:55.688683 34502 layer_factory.hpp:77] Creating layer lstm1_unit_126
I1018 12:08:55.688696 34502 net.cpp:84] Creating Layer lstm1_unit_126
I1018 12:08:55.688705 34502 net.cpp:406] lstm1_unit_126 <- c_125
I1018 12:08:55.688714 34502 net.cpp:406] lstm1_unit_126 <- gate_input_126
I1018 12:08:55.688720 34502 net.cpp:406] lstm1_unit_126 <- cont_126_lstm1_cont_slice_125_split_1
I1018 12:08:55.688732 34502 net.cpp:380] lstm1_unit_126 -> c_126
I1018 12:08:55.688742 34502 net.cpp:380] lstm1_unit_126 -> h_126
I1018 12:08:55.688796 34502 net.cpp:122] Setting up lstm1_unit_126
I1018 12:08:55.688804 34502 net.cpp:129] Top shape: 1 150 512 (76800)
I1018 12:08:55.688809 34502 net.cpp:129] Top shape: 1 150 512 (76800)
I1018 12:08:55.688813 34502 net.cpp:137] Memory required for data: 857395200
I1018 12:08:55.688818 34502 layer_factory.hpp:77] Creating layer h_126_lstm1_unit_126_1_split
I1018 12:08:55.688824 34502 net.cpp:84] Creating Layer h_126_lstm1_unit_126_1_split
I1018 12:08:55.688829 34502 net.cpp:406] h_126_lstm1_unit_126_1_split <- h_126
I1018 12:08:55.688835 34502 net.cpp:380] h_126_lstm1_unit_126_1_split -> h_126_lstm1_unit_126_1_split_0
I1018 12:08:55.688843 34502 net.cpp:380] h_126_lstm1_unit_126_1_split -> h_126_lstm1_unit_126_1_split_1
I1018 12:08:55.688879 34502 net.cpp:122] Setting up h_126_lstm1_unit_126_1_split
I1018 12:08:55.688885 34502 net.cpp:129] Top shape: 1 150 512 (76800)
I1018 12:08:55.688890 34502 net.cpp:129] Top shape: 1 150 512 (76800)
I1018 12:08:55.688894 34502 net.cpp:137] Memory required for data: 858009600
I1018 12:08:55.688899 34502 layer_factory.hpp:77] Creating layer lstm1_h_conted_126
I1018 12:08:55.688905 34502 net.cpp:84] Creating Layer lstm1_h_conted_126
I1018 12:08:55.688910 34502 net.cpp:406] lstm1_h_conted_126 <- h_126_lstm1_unit_126_1_split_0
I1018 12:08:55.688918 34502 net.cpp:406] lstm1_h_conted_126 <- cont_127_lstm1_cont_slice_126_split_0
I1018 12:08:55.688927 34502 net.cpp:380] lstm1_h_conted_126 -> h_conted_126
I1018 12:08:55.689002 34502 net.cpp:122] Setting up lstm1_h_conted_126
I1018 12:08:55.689015 34502 net.cpp:129] Top shape: 1 150 512 (76800)
I1018 12:08:55.689019 34502 net.cpp:137] Memory required for data: 858316800
I1018 12:08:55.689023 34502 layer_factory.hpp:77] Creating layer lstm1_transform_127
I1018 12:08:55.689031 34502 net.cpp:84] Creating Layer lstm1_transform_127
I1018 12:08:55.689036 34502 net.cpp:406] lstm1_transform_127 <- h_conted_126
I1018 12:08:55.689045 34502 net.cpp:380] lstm1_transform_127 -> W_hc_h_126
I1018 12:08:55.700814 34502 net.cpp:122] Setting up lstm1_transform_127
I1018 12:08:55.700832 34502 net.cpp:129] Top shape: 1 150 2048 (307200)
I1018 12:08:55.700837 34502 net.cpp:137] Memory required for data: 859545600
I1018 12:08:55.700932 34502 net.cpp:465] Sharing parameters 'W_hc' owned by layer 'lstm1_transform_1', param index 0
I1018 12:08:55.700944 34502 layer_factory.hpp:77] Creating layer lstm1_gate_input_127
I1018 12:08:55.700954 34502 net.cpp:84] Creating Layer lstm1_gate_input_127
I1018 12:08:55.700960 34502 net.cpp:406] lstm1_gate_input_127 <- W_hc_h_126
I1018 12:08:55.700968 34502 net.cpp:406] lstm1_gate_input_127 <- W_xc_x_127
I1018 12:08:55.700975 34502 net.cpp:380] lstm1_gate_input_127 -> gate_input_127
I1018 12:08:55.701010 34502 net.cpp:122] Setting up lstm1_gate_input_127
I1018 12:08:55.701020 34502 net.cpp:129] Top shape: 1 150 2048 (307200)
I1018 12:08:55.701025 34502 net.cpp:137] Memory required for data: 860774400
I1018 12:08:55.701030 34502 layer_factory.hpp:77] Creating layer lstm1_unit_127
I1018 12:08:55.701036 34502 net.cpp:84] Creating Layer lstm1_unit_127
I1018 12:08:55.701041 34502 net.cpp:406] lstm1_unit_127 <- c_126
I1018 12:08:55.701048 34502 net.cpp:406] lstm1_unit_127 <- gate_input_127
I1018 12:08:55.701055 34502 net.cpp:406] lstm1_unit_127 <- cont_127_lstm1_cont_slice_126_split_1
I1018 12:08:55.701062 34502 net.cpp:380] lstm1_unit_127 -> c_127
I1018 12:08:55.701071 34502 net.cpp:380] lstm1_unit_127 -> h_127
I1018 12:08:55.701122 34502 net.cpp:122] Setting up lstm1_unit_127
I1018 12:08:55.701129 34502 net.cpp:129] Top shape: 1 150 512 (76800)
I1018 12:08:55.701135 34502 net.cpp:129] Top shape: 1 150 512 (76800)
I1018 12:08:55.701138 34502 net.cpp:137] Memory required for data: 861388800
I1018 12:08:55.701143 34502 layer_factory.hpp:77] Creating layer h_127_lstm1_unit_127_1_split
I1018 12:08:55.701149 34502 net.cpp:84] Creating Layer h_127_lstm1_unit_127_1_split
I1018 12:08:55.701154 34502 net.cpp:406] h_127_lstm1_unit_127_1_split <- h_127
I1018 12:08:55.701160 34502 net.cpp:380] h_127_lstm1_unit_127_1_split -> h_127_lstm1_unit_127_1_split_0
I1018 12:08:55.701169 34502 net.cpp:380] h_127_lstm1_unit_127_1_split -> h_127_lstm1_unit_127_1_split_1
I1018 12:08:55.701205 34502 net.cpp:122] Setting up h_127_lstm1_unit_127_1_split
I1018 12:08:55.701212 34502 net.cpp:129] Top shape: 1 150 512 (76800)
I1018 12:08:55.701217 34502 net.cpp:129] Top shape: 1 150 512 (76800)
I1018 12:08:55.701221 34502 net.cpp:137] Memory required for data: 862003200
I1018 12:08:55.701225 34502 layer_factory.hpp:77] Creating layer lstm1_h_conted_127
I1018 12:08:55.701232 34502 net.cpp:84] Creating Layer lstm1_h_conted_127
I1018 12:08:55.701237 34502 net.cpp:406] lstm1_h_conted_127 <- h_127_lstm1_unit_127_1_split_0
I1018 12:08:55.701247 34502 net.cpp:406] lstm1_h_conted_127 <- cont_128_lstm1_cont_slice_127_split_0
I1018 12:08:55.701256 34502 net.cpp:380] lstm1_h_conted_127 -> h_conted_127
I1018 12:08:55.701329 34502 net.cpp:122] Setting up lstm1_h_conted_127
I1018 12:08:55.701339 34502 net.cpp:129] Top shape: 1 150 512 (76800)
I1018 12:08:55.701342 34502 net.cpp:137] Memory required for data: 862310400
I1018 12:08:55.701347 34502 layer_factory.hpp:77] Creating layer lstm1_transform_128
I1018 12:08:55.701356 34502 net.cpp:84] Creating Layer lstm1_transform_128
I1018 12:08:55.701361 34502 net.cpp:406] lstm1_transform_128 <- h_conted_127
I1018 12:08:55.701373 34502 net.cpp:380] lstm1_transform_128 -> W_hc_h_127
I1018 12:08:55.712960 34502 net.cpp:122] Setting up lstm1_transform_128
I1018 12:08:55.712975 34502 net.cpp:129] Top shape: 1 150 2048 (307200)
I1018 12:08:55.712991 34502 net.cpp:137] Memory required for data: 863539200
I1018 12:08:55.712997 34502 net.cpp:465] Sharing parameters 'W_hc' owned by layer 'lstm1_transform_1', param index 0
I1018 12:08:55.713003 34502 layer_factory.hpp:77] Creating layer lstm1_gate_input_128
I1018 12:08:55.713012 34502 net.cpp:84] Creating Layer lstm1_gate_input_128
I1018 12:08:55.713018 34502 net.cpp:406] lstm1_gate_input_128 <- W_hc_h_127
I1018 12:08:55.713024 34502 net.cpp:406] lstm1_gate_input_128 <- W_xc_x_128
I1018 12:08:55.713033 34502 net.cpp:380] lstm1_gate_input_128 -> gate_input_128
I1018 12:08:55.713083 34502 net.cpp:122] Setting up lstm1_gate_input_128
I1018 12:08:55.713096 34502 net.cpp:129] Top shape: 1 150 2048 (307200)
I1018 12:08:55.713100 34502 net.cpp:137] Memory required for data: 864768000
I1018 12:08:55.713105 34502 layer_factory.hpp:77] Creating layer lstm1_unit_128
I1018 12:08:55.713112 34502 net.cpp:84] Creating Layer lstm1_unit_128
I1018 12:08:55.713119 34502 net.cpp:406] lstm1_unit_128 <- c_127
I1018 12:08:55.713125 34502 net.cpp:406] lstm1_unit_128 <- gate_input_128
I1018 12:08:55.713131 34502 net.cpp:406] lstm1_unit_128 <- cont_128_lstm1_cont_slice_127_split_1
I1018 12:08:55.713137 34502 net.cpp:380] lstm1_unit_128 -> c_128
I1018 12:08:55.713150 34502 net.cpp:380] lstm1_unit_128 -> h_128
I1018 12:08:55.713201 34502 net.cpp:122] Setting up lstm1_unit_128
I1018 12:08:55.713210 34502 net.cpp:129] Top shape: 1 150 512 (76800)
I1018 12:08:55.713215 34502 net.cpp:129] Top shape: 1 150 512 (76800)
I1018 12:08:55.713219 34502 net.cpp:137] Memory required for data: 865382400
I1018 12:08:55.713223 34502 layer_factory.hpp:77] Creating layer lstm1_
I1018 12:08:55.713230 34502 net.cpp:84] Creating Layer lstm1_
I1018 12:08:55.713234 34502 net.cpp:406] lstm1_ <- c_128
I1018 12:08:55.713243 34502 net.cpp:380] lstm1_ -> c_T
I1018 12:08:55.713265 34502 net.cpp:122] Setting up lstm1_
I1018 12:08:55.713274 34502 net.cpp:129] Top shape: 1 150 512 (76800)
I1018 12:08:55.713277 34502 net.cpp:137] Memory required for data: 865689600
I1018 12:08:55.713281 34502 layer_factory.hpp:77] Creating layer lstm1_h_concat
I1018 12:08:55.713305 34502 net.cpp:84] Creating Layer lstm1_h_concat
I1018 12:08:55.713318 34502 net.cpp:406] lstm1_h_concat <- h_1_lstm1_unit_1_1_split_1
I1018 12:08:55.713338 34502 net.cpp:406] lstm1_h_concat <- h_2_lstm1_unit_2_1_split_1
…
