…
I1018 00:03:28.050796 29837 net.cpp:294] The NetState phase (0) differed from the phase (1) specified by a rule in layer Silence
I1018 00:03:28.051002 29837 net.cpp:51] Initializing net from parameters: 
name: "VGG-Places365"
state {
  phase: TRAIN
  level: 0
  stage: ""
}
layer {
  name: "data"
  type: "ImageData"
  top: "data"
  top: "label"
  include {
    phase: TRAIN
  }
  transform_param {
    mirror: true
    crop_size: 224
    mean_value: 104
    mean_value: 117
    mean_value: 123
  }
  image_data_param {
    source: "../Data/lsun_train_list_12w.txt"
    batch_size: 5
    shuffle: true
    new_height: 256
    new_width: 256
  }
}
layer {
  name: "label_tran"
  type: "Python"
  bottom: "label"
  top: "reshape-label"
  top: "clip_markers"
  python_param {
    module: "data_preparation_sort_max_clip"
    layer: "ReshapeLabel"
  }
}
layer {
  name: "conv1_1"
  type: "Convolution"
  bottom: "data"
  top: "conv1_1"
  convolution_param {
    num_output: 64
    pad: 1
    kernel_size: 3
  }
}
layer {
  name: "relu1_1"
  type: "ReLU"
  bottom: "conv1_1"
  top: "conv1_1"
}
layer {
  name: "conv1_2"
  type: "Convolution"
  bottom: "conv1_1"
  top: "conv1_2"
  convolution_param {
    num_output: 64
    pad: 1
    kernel_size: 3
  }
}
layer {
  name: "relu1_2"
  type: "ReLU"
  bottom: "conv1_2"
  top: "conv1_2"
}
layer {
  name: "pool1"
  type: "Pooling"
  bottom: "conv1_2"
  top: "pool1"
  pooling_param {
    pool: MAX
    kernel_size: 2
    stride: 2
  }
}
layer {
  name: "conv2_1"
  type: "Convolution"
  bottom: "pool1"
  top: "conv2_1"
  convolution_param {
    num_output: 128
    pad: 1
    kernel_size: 3
  }
}
layer {
  name: "relu2_1"
  type: "ReLU"
  bottom: "conv2_1"
  top: "conv2_1"
}
layer {
  name: "conv2_2"
  type: "Convolution"
  bottom: "conv2_1"
  top: "conv2_2"
  convolution_param {
    num_output: 128
    pad: 1
    kernel_size: 3
  }
}
layer {
  name: "relu2_2"
  type: "ReLU"
  bottom: "conv2_2"
  top: "conv2_2"
}
layer {
  name: "pool2"
  type: "Pooling"
  bottom: "conv2_2"
  top: "pool2"
  pooling_param {
    pool: MAX
    kernel_size: 2
    stride: 2
  }
}
layer {
  name: "conv3_1"
  type: "Convolution"
  bottom: "pool2"
  top: "conv3_1"
  convolution_param {
    num_output: 256
    pad: 1
    kernel_size: 3
  }
}
layer {
  name: "relu3_1"
  type: "ReLU"
  bottom: "conv3_1"
  top: "conv3_1"
}
layer {
  name: "conv3_2"
  type: "Convolution"
  bottom: "conv3_1"
  top: "conv3_2"
  convolution_param {
    num_output: 256
    pad: 1
    kernel_size: 3
  }
}
layer {
  name: "relu3_2"
  type: "ReLU"
  bottom: "conv3_2"
  top: "conv3_2"
}
layer {
  name: "conv3_3"
  type: "Convolution"
  bottom: "conv3_2"
  top: "conv3_3"
  convolution_param {
    num_output: 256
    pad: 1
    kernel_size: 3
  }
}
layer {
  name: "relu3_3"
  type: "ReLU"
  bottom: "conv3_3"
  top: "conv3_3"
}
layer {
  name: "pool3"
  type: "Pooling"
  bottom: "conv3_3"
  top: "pool3"
  pooling_param {
    pool: MAX
    kernel_size: 2
    stride: 2
  }
}
layer {
  name: "conv4_1"
  type: "Convolution"
  bottom: "pool3"
  top: "conv4_1"
  convolution_param {
    num_output: 512
    pad: 1
    kernel_size: 3
  }
}
layer {
  name: "relu4_1"
  type: "ReLU"
  bottom: "conv4_1"
  top: "conv4_1"
}
layer {
  name: "conv4_2"
  type: "Convolution"
  bottom: "conv4_1"
  top: "conv4_2"
  convolution_param {
    num_output: 512
    pad: 1
    kernel_size: 3
  }
}
layer {
  name: "relu4_2"
  type: "ReLU"
  bottom: "conv4_2"
  top: "conv4_2"
}
layer {
  name: "conv4_3"
  type: "Convolution"
  bottom: "conv4_2"
  top: "conv4_3"
  convolution_param {
    num_output: 512
    pad: 1
    kernel_size: 3
  }
}
layer {
  name: "relu4_3"
  type: "ReLU"
  bottom: "conv4_3"
  top: "conv4_3"
}
layer {
  name: "pool4"
  type: "Pooling"
  bottom: "conv4_3"
  top: "pool4"
  pooling_param {
    pool: MAX
    kernel_size: 2
    stride: 2
  }
}
layer {
  name: "conv5_1"
  type: "Convolution"
  bottom: "pool4"
  top: "conv5_1"
  convolution_param {
    num_output: 512
    pad: 1
    kernel_size: 3
  }
}
layer {
  name: "relu5_1"
  type: "ReLU"
  bottom: "conv5_1"
  top: "conv5_1"
}
layer {
  name: "conv5_2"
  type: "Convolution"
  bottom: "conv5_1"
  top: "conv5_2"
  convolution_param {
    num_output: 512
    pad: 1
    kernel_size: 3
  }
}
layer {
  name: "relu5_2"
  type: "ReLU"
  bottom: "conv5_2"
  top: "conv5_2"
}
layer {
  name: "conv5_3"
  type: "Convolution"
  bottom: "conv5_2"
  top: "conv5_3"
  convolution_param {
    num_output: 512
    pad: 1
    kernel_size: 3
  }
}
layer {
  name: "relu5_3"
  type: "ReLU"
  bottom: "conv5_3"
  top: "conv5_3"
}
layer {
  name: "conv5_3_re"
  type: "Reshape"
  bottom: "conv5_3"
  top: "conv5_3_re"
  reshape_param {
    shape {
      dim: 0
      dim: 0
      dim: -1
    }
  }
}
layer {
  name: "conv5_3_tran"
  type: "Python"
  bottom: "conv5_3_re"
  top: "conv5_3_tran"
  python_param {
    module: "data_preparation_sort_max_clip"
    layer: "DataTransposeSortMaxClip"
  }
}
layer {
  name: "lstm1"
  type: "LSTM"
  bottom: "conv5_3_tran"
  bottom: "clip_markers"
  top: "lstm1"
  recurrent_param {
    num_output: 512
    weight_filler {
      type: "uniform"
      min: -0.01
      max: 0.01
    }
    bias_filler {
      type: "constant"
      value: 0
    }
  }
}
layer {
  name: "lstm1-drop"
  type: "Dropout"
  bottom: "lstm1"
  top: "lstm1-drop"
  dropout_param {
    dropout_ratio: 0.5
  }
}
layer {
  name: "fc-final"
  type: "InnerProduct"
  bottom: "lstm1-drop"
  top: "fc-final"
  param {
    lr_mult: 1
    decay_mult: 1
  }
  param {
    lr_mult: 2
    decay_mult: 0
  }
  inner_product_param {
    num_output: 10
    weight_filler {
      type: "gaussian"
      std: 0.01
    }
    bias_filler {
      type: "constant"
      value: 0
    }
    axis: 2
  }
}
layer {
  name: "loss"
  type: "SoftmaxWithLoss"
  bottom: "fc-final"
  bottom: "reshape-label"
  top: "loss"
  softmax_param {
    axis: 2
  }
}
layer {
  name: "accuracy"
  type: "Accuracy"
  bottom: "fc-final"
  bottom: "reshape-label"
  top: "accuracy"
  accuracy_param {
    axis: 2
  }
}
I1018 00:03:28.051251 29837 layer_factory.hpp:77] Creating layer data
I1018 00:03:28.051311 29837 net.cpp:84] Creating Layer data
I1018 00:03:28.051326 29837 net.cpp:380] data -> data
I1018 00:03:28.051378 29837 net.cpp:380] data -> label
I1018 00:03:28.051415 29837 image_data_layer.cpp:38] Opening file ../Data/lsun_train_list_12w.txt
I1018 00:03:28.713914 29837 image_data_layer.cpp:53] Shuffling data
I1018 00:03:29.006382 29837 image_data_layer.cpp:63] A total of 1200000 images.
I1018 00:03:29.011950 29837 image_data_layer.cpp:90] output data size: 5,3,224,224
I1018 00:03:29.022814 29837 net.cpp:122] Setting up data
I1018 00:03:29.022923 29837 net.cpp:129] Top shape: 5 3 224 224 (752640)
I1018 00:03:29.022953 29837 net.cpp:129] Top shape: 5 (5)
I1018 00:03:29.022960 29837 net.cpp:137] Memory required for data: 3010580
I1018 00:03:29.022976 29837 layer_factory.hpp:77] Creating layer label_tran
I1018 00:03:29.722681 29837 net.cpp:84] Creating Layer label_tran
I1018 00:03:29.722715 29837 net.cpp:406] label_tran <- label
I1018 00:03:29.722741 29837 net.cpp:380] label_tran -> reshape-label
I1018 00:03:29.722760 29837 net.cpp:380] label_tran -> clip_markers
I1018 00:03:29.723086 29837 net.cpp:122] Setting up label_tran
I1018 00:03:29.723104 29837 net.cpp:129] Top shape: 128 5 (640)
I1018 00:03:29.723110 29837 net.cpp:129] Top shape: 128 5 (640)
I1018 00:03:29.723115 29837 net.cpp:137] Memory required for data: 3015700
I1018 00:03:29.723121 29837 layer_factory.hpp:77] Creating layer reshape-label_label_tran_0_split
I1018 00:03:29.723146 29837 net.cpp:84] Creating Layer reshape-label_label_tran_0_split
I1018 00:03:29.723152 29837 net.cpp:406] reshape-label_label_tran_0_split <- reshape-label
I1018 00:03:29.723160 29837 net.cpp:380] reshape-label_label_tran_0_split -> reshape-label_label_tran_0_split_0
I1018 00:03:29.723170 29837 net.cpp:380] reshape-label_label_tran_0_split -> reshape-label_label_tran_0_split_1
I1018 00:03:29.723209 29837 net.cpp:122] Setting up reshape-label_label_tran_0_split
I1018 00:03:29.723219 29837 net.cpp:129] Top shape: 128 5 (640)
I1018 00:03:29.723225 29837 net.cpp:129] Top shape: 128 5 (640)
I1018 00:03:29.723229 29837 net.cpp:137] Memory required for data: 3020820
I1018 00:03:29.723234 29837 layer_factory.hpp:77] Creating layer conv1_1
I1018 00:03:29.723256 29837 net.cpp:84] Creating Layer conv1_1
I1018 00:03:29.723265 29837 net.cpp:406] conv1_1 <- data
I1018 00:03:29.723273 29837 net.cpp:380] conv1_1 -> conv1_1
I1018 00:03:29.725244 29837 net.cpp:122] Setting up conv1_1
I1018 00:03:29.725262 29837 net.cpp:129] Top shape: 5 64 224 224 (16056320)
I1018 00:03:29.725267 29837 net.cpp:137] Memory required for data: 67246100
I1018 00:03:29.725291 29837 layer_factory.hpp:77] Creating layer relu1_1
I1018 00:03:29.725304 29837 net.cpp:84] Creating Layer relu1_1
I1018 00:03:29.725311 29837 net.cpp:406] relu1_1 <- conv1_1
I1018 00:03:29.725317 29837 net.cpp:367] relu1_1 -> conv1_1 (in-place)
I1018 00:03:29.725330 29837 net.cpp:122] Setting up relu1_1
I1018 00:03:29.725342 29837 net.cpp:129] Top shape: 5 64 224 224 (16056320)
I1018 00:03:29.725347 29837 net.cpp:137] Memory required for data: 131471380
I1018 00:03:29.725353 29837 layer_factory.hpp:77] Creating layer conv1_2
I1018 00:03:29.725363 29837 net.cpp:84] Creating Layer conv1_2
I1018 00:03:29.725368 29837 net.cpp:406] conv1_2 <- conv1_1
I1018 00:03:29.725374 29837 net.cpp:380] conv1_2 -> conv1_2
I1018 00:03:29.725639 29837 net.cpp:122] Setting up conv1_2
I1018 00:03:29.725652 29837 net.cpp:129] Top shape: 5 64 224 224 (16056320)
I1018 00:03:29.725657 29837 net.cpp:137] Memory required for data: 195696660
I1018 00:03:29.725666 29837 layer_factory.hpp:77] Creating layer relu1_2
I1018 00:03:29.725674 29837 net.cpp:84] Creating Layer relu1_2
I1018 00:03:29.725679 29837 net.cpp:406] relu1_2 <- conv1_2
I1018 00:03:29.725685 29837 net.cpp:367] relu1_2 -> conv1_2 (in-place)
I1018 00:03:29.725692 29837 net.cpp:122] Setting up relu1_2
I1018 00:03:29.725698 29837 net.cpp:129] Top shape: 5 64 224 224 (16056320)
I1018 00:03:29.725703 29837 net.cpp:137] Memory required for data: 259921940
I1018 00:03:29.725706 29837 layer_factory.hpp:77] Creating layer pool1
I1018 00:03:29.725718 29837 net.cpp:84] Creating Layer pool1
I1018 00:03:29.725723 29837 net.cpp:406] pool1 <- conv1_2
I1018 00:03:29.725728 29837 net.cpp:380] pool1 -> pool1
I1018 00:03:29.725775 29837 net.cpp:122] Setting up pool1
I1018 00:03:29.725785 29837 net.cpp:129] Top shape: 5 64 112 112 (4014080)
I1018 00:03:29.725790 29837 net.cpp:137] Memory required for data: 275978260
I1018 00:03:29.725796 29837 layer_factory.hpp:77] Creating layer conv2_1
I1018 00:03:29.725806 29837 net.cpp:84] Creating Layer conv2_1
I1018 00:03:29.725811 29837 net.cpp:406] conv2_1 <- pool1
I1018 00:03:29.725818 29837 net.cpp:380] conv2_1 -> conv2_1
I1018 00:03:29.729460 29837 net.cpp:122] Setting up conv2_1
I1018 00:03:29.729508 29837 net.cpp:129] Top shape: 5 128 112 112 (8028160)
I1018 00:03:29.729521 29837 net.cpp:137] Memory required for data: 308090900
I1018 00:03:29.729550 29837 layer_factory.hpp:77] Creating layer relu2_1
I1018 00:03:29.729578 29837 net.cpp:84] Creating Layer relu2_1
I1018 00:03:29.729593 29837 net.cpp:406] relu2_1 <- conv2_1
I1018 00:03:29.729614 29837 net.cpp:367] relu2_1 -> conv2_1 (in-place)
I1018 00:03:29.729637 29837 net.cpp:122] Setting up relu2_1
I1018 00:03:29.729653 29837 net.cpp:129] Top shape: 5 128 112 112 (8028160)
I1018 00:03:29.729663 29837 net.cpp:137] Memory required for data: 340203540
I1018 00:03:29.729672 29837 layer_factory.hpp:77] Creating layer conv2_2
I1018 00:03:29.729691 29837 net.cpp:84] Creating Layer conv2_2
I1018 00:03:29.729702 29837 net.cpp:406] conv2_2 <- conv2_1
I1018 00:03:29.729719 29837 net.cpp:380] conv2_2 -> conv2_2
I1018 00:03:29.730403 29837 net.cpp:122] Setting up conv2_2
I1018 00:03:29.730427 29837 net.cpp:129] Top shape: 5 128 112 112 (8028160)
I1018 00:03:29.730439 29837 net.cpp:137] Memory required for data: 372316180
I1018 00:03:29.730461 29837 layer_factory.hpp:77] Creating layer relu2_2
I1018 00:03:29.730475 29837 net.cpp:84] Creating Layer relu2_2
I1018 00:03:29.730486 29837 net.cpp:406] relu2_2 <- conv2_2
I1018 00:03:29.730499 29837 net.cpp:367] relu2_2 -> conv2_2 (in-place)
I1018 00:03:29.730518 29837 net.cpp:122] Setting up relu2_2
I1018 00:03:29.730532 29837 net.cpp:129] Top shape: 5 128 112 112 (8028160)
I1018 00:03:29.730541 29837 net.cpp:137] Memory required for data: 404428820
I1018 00:03:29.730551 29837 layer_factory.hpp:77] Creating layer pool2
I1018 00:03:29.730564 29837 net.cpp:84] Creating Layer pool2
I1018 00:03:29.730576 29837 net.cpp:406] pool2 <- conv2_2
I1018 00:03:29.730589 29837 net.cpp:380] pool2 -> pool2
I1018 00:03:29.730667 29837 net.cpp:122] Setting up pool2
I1018 00:03:29.730686 29837 net.cpp:129] Top shape: 5 128 56 56 (2007040)
I1018 00:03:29.730698 29837 net.cpp:137] Memory required for data: 412456980
I1018 00:03:29.730713 29837 layer_factory.hpp:77] Creating layer conv3_1
I1018 00:03:29.730736 29837 net.cpp:84] Creating Layer conv3_1
I1018 00:03:29.730748 29837 net.cpp:406] conv3_1 <- pool2
I1018 00:03:29.730764 29837 net.cpp:380] conv3_1 -> conv3_1
I1018 00:03:29.732903 29837 net.cpp:122] Setting up conv3_1
I1018 00:03:29.732935 29837 net.cpp:129] Top shape: 5 256 56 56 (4014080)
I1018 00:03:29.732949 29837 net.cpp:137] Memory required for data: 428513300
I1018 00:03:29.732975 29837 layer_factory.hpp:77] Creating layer relu3_1
I1018 00:03:29.732992 29837 net.cpp:84] Creating Layer relu3_1
I1018 00:03:29.733006 29837 net.cpp:406] relu3_1 <- conv3_1
I1018 00:03:29.733021 29837 net.cpp:367] relu3_1 -> conv3_1 (in-place)
I1018 00:03:29.733042 29837 net.cpp:122] Setting up relu3_1
I1018 00:03:29.733055 29837 net.cpp:129] Top shape: 5 256 56 56 (4014080)
I1018 00:03:29.733067 29837 net.cpp:137] Memory required for data: 444569620
I1018 00:03:29.733077 29837 layer_factory.hpp:77] Creating layer conv3_2
I1018 00:03:29.733094 29837 net.cpp:84] Creating Layer conv3_2
I1018 00:03:29.733106 29837 net.cpp:406] conv3_2 <- conv3_1
I1018 00:03:29.733122 29837 net.cpp:380] conv3_2 -> conv3_2
I1018 00:03:29.736410 29837 net.cpp:122] Setting up conv3_2
I1018 00:03:29.736443 29837 net.cpp:129] Top shape: 5 256 56 56 (4014080)
I1018 00:03:29.736455 29837 net.cpp:137] Memory required for data: 460625940
I1018 00:03:29.736471 29837 layer_factory.hpp:77] Creating layer relu3_2
I1018 00:03:29.736493 29837 net.cpp:84] Creating Layer relu3_2
I1018 00:03:29.736505 29837 net.cpp:406] relu3_2 <- conv3_2
I1018 00:03:29.736526 29837 net.cpp:367] relu3_2 -> conv3_2 (in-place)
I1018 00:03:29.736546 29837 net.cpp:122] Setting up relu3_2
I1018 00:03:29.736560 29837 net.cpp:129] Top shape: 5 256 56 56 (4014080)
I1018 00:03:29.736572 29837 net.cpp:137] Memory required for data: 476682260
I1018 00:03:29.736583 29837 layer_factory.hpp:77] Creating layer conv3_3
I1018 00:03:29.736603 29837 net.cpp:84] Creating Layer conv3_3
I1018 00:03:29.736615 29837 net.cpp:406] conv3_3 <- conv3_2
I1018 00:03:29.736634 29837 net.cpp:380] conv3_3 -> conv3_3
I1018 00:03:29.739872 29837 net.cpp:122] Setting up conv3_3
I1018 00:03:29.739902 29837 net.cpp:129] Top shape: 5 256 56 56 (4014080)
I1018 00:03:29.739915 29837 net.cpp:137] Memory required for data: 492738580
I1018 00:03:29.739933 29837 layer_factory.hpp:77] Creating layer relu3_3
I1018 00:03:29.739954 29837 net.cpp:84] Creating Layer relu3_3
I1018 00:03:29.739967 29837 net.cpp:406] relu3_3 <- conv3_3
I1018 00:03:29.739984 29837 net.cpp:367] relu3_3 -> conv3_3 (in-place)
I1018 00:03:29.740002 29837 net.cpp:122] Setting up relu3_3
I1018 00:03:29.740016 29837 net.cpp:129] Top shape: 5 256 56 56 (4014080)
I1018 00:03:29.740056 29837 net.cpp:137] Memory required for data: 508794900
I1018 00:03:29.740072 29837 layer_factory.hpp:77] Creating layer pool3
I1018 00:03:29.740088 29837 net.cpp:84] Creating Layer pool3
I1018 00:03:29.740100 29837 net.cpp:406] pool3 <- conv3_3
I1018 00:03:29.740121 29837 net.cpp:380] pool3 -> pool3
I1018 00:03:29.740206 29837 net.cpp:122] Setting up pool3
I1018 00:03:29.740226 29837 net.cpp:129] Top shape: 5 256 28 28 (1003520)
I1018 00:03:29.740237 29837 net.cpp:137] Memory required for data: 512808980
I1018 00:03:29.740247 29837 layer_factory.hpp:77] Creating layer conv4_1
I1018 00:03:29.740267 29837 net.cpp:84] Creating Layer conv4_1
I1018 00:03:29.740279 29837 net.cpp:406] conv4_1 <- pool3
I1018 00:03:29.740298 29837 net.cpp:380] conv4_1 -> conv4_1
I1018 00:03:29.744362 29837 net.cpp:122] Setting up conv4_1
I1018 00:03:29.744381 29837 net.cpp:129] Top shape: 5 512 28 28 (2007040)
I1018 00:03:29.744386 29837 net.cpp:137] Memory required for data: 520837140
I1018 00:03:29.744395 29837 layer_factory.hpp:77] Creating layer relu4_1
I1018 00:03:29.744403 29837 net.cpp:84] Creating Layer relu4_1
I1018 00:03:29.744408 29837 net.cpp:406] relu4_1 <- conv4_1
I1018 00:03:29.744415 29837 net.cpp:367] relu4_1 -> conv4_1 (in-place)
I1018 00:03:29.744423 29837 net.cpp:122] Setting up relu4_1
I1018 00:03:29.744429 29837 net.cpp:129] Top shape: 5 512 28 28 (2007040)
I1018 00:03:29.744433 29837 net.cpp:137] Memory required for data: 528865300
I1018 00:03:29.744438 29837 layer_factory.hpp:77] Creating layer conv4_2
I1018 00:03:29.744448 29837 net.cpp:84] Creating Layer conv4_2
I1018 00:03:29.744453 29837 net.cpp:406] conv4_2 <- conv4_1
I1018 00:03:29.744462 29837 net.cpp:380] conv4_2 -> conv4_2
I1018 00:03:29.750365 29837 net.cpp:122] Setting up conv4_2
I1018 00:03:29.750386 29837 net.cpp:129] Top shape: 5 512 28 28 (2007040)
I1018 00:03:29.750391 29837 net.cpp:137] Memory required for data: 536893460
I1018 00:03:29.750408 29837 layer_factory.hpp:77] Creating layer relu4_2
I1018 00:03:29.750421 29837 net.cpp:84] Creating Layer relu4_2
I1018 00:03:29.750427 29837 net.cpp:406] relu4_2 <- conv4_2
I1018 00:03:29.750434 29837 net.cpp:367] relu4_2 -> conv4_2 (in-place)
I1018 00:03:29.750443 29837 net.cpp:122] Setting up relu4_2
I1018 00:03:29.750449 29837 net.cpp:129] Top shape: 5 512 28 28 (2007040)
I1018 00:03:29.750453 29837 net.cpp:137] Memory required for data: 544921620
I1018 00:03:29.750458 29837 layer_factory.hpp:77] Creating layer conv4_3
I1018 00:03:29.750468 29837 net.cpp:84] Creating Layer conv4_3
I1018 00:03:29.750473 29837 net.cpp:406] conv4_3 <- conv4_2
I1018 00:03:29.750480 29837 net.cpp:380] conv4_3 -> conv4_3
I1018 00:03:29.756523 29837 net.cpp:122] Setting up conv4_3
I1018 00:03:29.756554 29837 net.cpp:129] Top shape: 5 512 28 28 (2007040)
I1018 00:03:29.756559 29837 net.cpp:137] Memory required for data: 552949780
I1018 00:03:29.756580 29837 layer_factory.hpp:77] Creating layer relu4_3
I1018 00:03:29.756593 29837 net.cpp:84] Creating Layer relu4_3
I1018 00:03:29.756600 29837 net.cpp:406] relu4_3 <- conv4_3
I1018 00:03:29.756610 29837 net.cpp:367] relu4_3 -> conv4_3 (in-place)
I1018 00:03:29.756623 29837 net.cpp:122] Setting up relu4_3
I1018 00:03:29.756633 29837 net.cpp:129] Top shape: 5 512 28 28 (2007040)
I1018 00:03:29.756636 29837 net.cpp:137] Memory required for data: 560977940
I1018 00:03:29.756644 29837 layer_factory.hpp:77] Creating layer pool4
I1018 00:03:29.756651 29837 net.cpp:84] Creating Layer pool4
I1018 00:03:29.756655 29837 net.cpp:406] pool4 <- conv4_3
I1018 00:03:29.756662 29837 net.cpp:380] pool4 -> pool4
I1018 00:03:29.756707 29837 net.cpp:122] Setting up pool4
I1018 00:03:29.756717 29837 net.cpp:129] Top shape: 5 512 14 14 (501760)
I1018 00:03:29.756721 29837 net.cpp:137] Memory required for data: 562984980
I1018 00:03:29.756726 29837 layer_factory.hpp:77] Creating layer conv5_1
I1018 00:03:29.756737 29837 net.cpp:84] Creating Layer conv5_1
I1018 00:03:29.756742 29837 net.cpp:406] conv5_1 <- pool4
I1018 00:03:29.756749 29837 net.cpp:380] conv5_1 -> conv5_1
I1018 00:03:29.762658 29837 net.cpp:122] Setting up conv5_1
I1018 00:03:29.762681 29837 net.cpp:129] Top shape: 5 512 14 14 (501760)
I1018 00:03:29.762686 29837 net.cpp:137] Memory required for data: 564992020
I1018 00:03:29.762694 29837 layer_factory.hpp:77] Creating layer relu5_1
I1018 00:03:29.762704 29837 net.cpp:84] Creating Layer relu5_1
I1018 00:03:29.762711 29837 net.cpp:406] relu5_1 <- conv5_1
I1018 00:03:29.762719 29837 net.cpp:367] relu5_1 -> conv5_1 (in-place)
I1018 00:03:29.762728 29837 net.cpp:122] Setting up relu5_1
I1018 00:03:29.762740 29837 net.cpp:129] Top shape: 5 512 14 14 (501760)
I1018 00:03:29.762745 29837 net.cpp:137] Memory required for data: 566999060
I1018 00:03:29.762749 29837 layer_factory.hpp:77] Creating layer conv5_2
I1018 00:03:29.762758 29837 net.cpp:84] Creating Layer conv5_2
I1018 00:03:29.762761 29837 net.cpp:406] conv5_2 <- conv5_1
I1018 00:03:29.762770 29837 net.cpp:380] conv5_2 -> conv5_2
I1018 00:03:29.778604 29837 net.cpp:122] Setting up conv5_2
I1018 00:03:29.779275 29837 net.cpp:129] Top shape: 5 512 14 14 (501760)
I1018 00:03:29.779351 29837 net.cpp:137] Memory required for data: 569006100
I1018 00:03:29.779435 29837 layer_factory.hpp:77] Creating layer relu5_2
I1018 00:03:29.779448 29837 net.cpp:84] Creating Layer relu5_2
I1018 00:03:29.779455 29837 net.cpp:406] relu5_2 <- conv5_2
I1018 00:03:29.779467 29837 net.cpp:367] relu5_2 -> conv5_2 (in-place)
I1018 00:03:29.779479 29837 net.cpp:122] Setting up relu5_2
I1018 00:03:29.779485 29837 net.cpp:129] Top shape: 5 512 14 14 (501760)
I1018 00:03:29.779489 29837 net.cpp:137] Memory required for data: 571013140
I1018 00:03:29.779495 29837 layer_factory.hpp:77] Creating layer conv5_3
I1018 00:03:29.779506 29837 net.cpp:84] Creating Layer conv5_3
I1018 00:03:29.779511 29837 net.cpp:406] conv5_3 <- conv5_2
I1018 00:03:29.779520 29837 net.cpp:380] conv5_3 -> conv5_3
I1018 00:03:29.792749 29837 net.cpp:122] Setting up conv5_3
I1018 00:03:29.792798 29837 net.cpp:129] Top shape: 5 512 14 14 (501760)
I1018 00:03:29.792803 29837 net.cpp:137] Memory required for data: 573020180
I1018 00:03:29.792815 29837 layer_factory.hpp:77] Creating layer relu5_3
I1018 00:03:29.792836 29837 net.cpp:84] Creating Layer relu5_3
I1018 00:03:29.792843 29837 net.cpp:406] relu5_3 <- conv5_3
I1018 00:03:29.792853 29837 net.cpp:367] relu5_3 -> conv5_3 (in-place)
I1018 00:03:29.792865 29837 net.cpp:122] Setting up relu5_3
I1018 00:03:29.792877 29837 net.cpp:129] Top shape: 5 512 14 14 (501760)
I1018 00:03:29.792881 29837 net.cpp:137] Memory required for data: 575027220
I1018 00:03:29.792886 29837 layer_factory.hpp:77] Creating layer conv5_3_re
I1018 00:03:29.792902 29837 net.cpp:84] Creating Layer conv5_3_re
I1018 00:03:29.792910 29837 net.cpp:406] conv5_3_re <- conv5_3
I1018 00:03:29.792918 29837 net.cpp:380] conv5_3_re -> conv5_3_re
I1018 00:03:29.792978 29837 net.cpp:122] Setting up conv5_3_re
I1018 00:03:29.792987 29837 net.cpp:129] Top shape: 5 512 196 (501760)
I1018 00:03:29.792992 29837 net.cpp:137] Memory required for data: 577034260
I1018 00:03:29.792996 29837 layer_factory.hpp:77] Creating layer conv5_3_tran
I1018 00:03:29.793067 29837 net.cpp:84] Creating Layer conv5_3_tran
I1018 00:03:29.793077 29837 net.cpp:406] conv5_3_tran <- conv5_3_re
I1018 00:03:29.793085 29837 net.cpp:380] conv5_3_tran -> conv5_3_tran
I1018 00:03:29.794556 29837 net.cpp:122] Setting up conv5_3_tran
I1018 00:03:29.794584 29837 net.cpp:129] Top shape: 128 5 512 (327680)
I1018 00:03:29.794590 29837 net.cpp:137] Memory required for data: 578344980
I1018 00:03:29.794597 29837 layer_factory.hpp:77] Creating layer lstm1
I1018 00:03:29.794615 29837 net.cpp:84] Creating Layer lstm1
I1018 00:03:29.794620 29837 net.cpp:406] lstm1 <- conv5_3_tran
I1018 00:03:29.794627 29837 net.cpp:406] lstm1 <- clip_markers
I1018 00:03:29.794634 29837 net.cpp:380] lstm1 -> lstm1
I1018 00:03:29.794651 29837 recurrent_layer.cpp:20] Initializing recurrent layer: assuming input batch contains 128 timesteps of 5 independent streams.
I1018 00:03:29.798961 29837 net.cpp:51] Initializing net from parameters: 
layer {
  name: "lstm1_"
  type: "Input"
  top: "x"
  top: "cont"
  input_param {
    shape {
      dim: 128
      dim: 5
      dim: 512
    }
    shape {
      dim: 128
      dim: 5
    }
  }
}
layer {
  name: "lstm1_"
  type: "Input"
  top: "c_0"
  top: "h_0"
  input_param {
    shape {
      dim: 1
      dim: 5
      dim: 512
    }
    shape {
      dim: 1
      dim: 5
      dim: 512
    }
  }
}
layer {
  name: "lstm1_cont_slice"
  type: "Slice"
  bottom: "cont"
  top: "cont_1"
  top: "cont_2"
  top: "cont_3"
  top: "cont_4"
  top: "cont_5"
  top: "cont_6"
  top: "cont_7"
  top: "cont_8"
  top: "cont_9"
  top: "cont_10"
  top: "cont_11"
  top: "cont_12"
  top: "cont_13"
  top: "cont_14"
  top: "cont_15"
  top: "cont_16"
  top: "cont_17"
  top: "cont_18"
  top: "cont_19"
  top: "cont_20"
  top: "cont_21"
  top: "cont_22"
  top: "cont_23"
  top: "cont_24"
…
  top: "W_xc_x_103"
  top: "W_xc_x_104"
  top: "W_xc_x_105"
  top: "W_xc_x_106"
  top: "W_xc_x_107"
  top: "W_xc_x_108"
  top: "W_xc_x_109"
  top: "W_xc_x_110"
  top: "W_xc_x_111"
  top: "W_xc_x_112"
  top: "W_xc_x_113"
  top: "W_xc_x_114"
  top: "W_xc_x_115"
  top: "W_xc_x_116"
  top: "W_xc_x_117"
  top: "W_xc_x_118"
  top: "W_xc_x_119"
  top: "W_xc_x_120"
  top: "W_xc_x_121"
  top: "W_xc_x_122"
  top: "W_xc_x_123"
  top: "W_xc_x_124"
  top: "W_xc_x_125"
  top: "W_xc_x_126"
  top: "W_xc_x_127"
  top: "W_xc_x_128"
  slice_param {
    axis: 0
  }
}
layer {
  name: "lstm1_h_conted_0"
  type: "Scale"
  bottom: "h_0"
  bottom: "cont_1"
  top: "h_conted_0"
  scale_param {
    axis: 0
  }
}
layer {
  name: "lstm1_transform_1"
  type: "InnerProduct"
  bottom: "h_conted_0"
  top: "W_hc_h_0"
  param {
    name: "W_hc"
  }
  inner_product_param {
    num_output: 2048
    bias_term: false
    weight_filler {
      type: "uniform"
      min: -0.01
      max: 0.01
    }
    axis: 2
  }
}
layer {
  name: "lstm1_gate_input_1"
  type: "Eltwise"
  bottom: "W_hc_h_0"
  bottom: "W_xc_x_1"
  top: "gate_input_1"
  eltwise_param {
    operation: SUM
  }
}
layer {
  name: "lstm1_unit_1"
  type: "LSTMUnit"
  bottom: "c_0"
  bottom: "gate_input_1"
  bottom: "cont_1"
  top: "c_1"
  top: "h_1"
}
layer {
  name: "lstm1_h_conted_1"
  type: "Scale"
  bottom: "h_1"
  bottom: "cont_2"
  top: "h_conted_1"
  scale_param {
    axis: 0
  }
}
layer {
  name: "lstm1_transform_2"
  type: "InnerProduct"
  bottom: "h_conted_1"
  top: "W_hc_h_1"
  param {
    name: "W_hc"
  }
  inner_product_param {
    num_output: 2048
    bias_term: false
    weight_filler {
      type: "uniform"
      min: -0.01
      max: 0.01
    }
    axis: 2
  }
}
layer {
  name: "lstm1_gate_input_2"
  type: "Eltwise"
  bottom: "W_hc_h_1"
  bottom: "W_xc_x_2"
  top: "gate_input_2"
  eltwise_param {
    operation: SUM
  }
}
layer {
  name: "lstm1_unit_2"
  type: "LSTMUnit"
  bottom: "c_1"
  bottom: "gate_input_2"
  bottom: "cont_2"
  top: "c_2"
  top: "h_2"
}
layer {
  name: "lstm1_h_conted_2"
  type: "Scale"
  bottom: "h_2"
  bottom: "cont_3"
  top: "h_conted_2"
  scale_param {
    axis: 0
  }
}
layer {
  name: "lstm1_transform_3"
  type: "InnerProduct"
  bottom: "h_conted_2"
  top: "W_hc_h_2"
  param {
    name: "W_hc"
  }
  inner_product_param {
    num_output: 2048
    bias_term: false
    weight_filler {
      type: "uniform"
      min: -0.01
      max: 0.01
    }
    axis: 2
  }
}
layer {
  name: "lstm1_gate_input_3"
  type: "Eltwise"
  bottom: "W_hc_h_2"
  bottom: "W_xc_x_3"
  top: "gate_input_3"
  eltwise_param {
    operation: SUM
  }
}
layer {
  name: "lstm1_unit_3"
  type: "LSTMUnit"
  bottom: "c_2"
  bottom: "gate_input_3"
  bottom: "cont_3"
  top: "c_3"
  top: "h_3"
}
layer {
  name: "lstm1_h_conted_3"
  type: "Scale"
  bottom: "h_3"
  bottom: "cont_4"
  top: "h_conted_3"
  scale_param {
    axis: 0
  }
}
layer {
  name: "lstm1_transform_4"
  type: "InnerProduct"
  bottom: "h_conted_3"
  top: "W_hc_h_3"
  param {
    name: "W_hc"
  }
  inner_product_param {
    num_output: 2048
    bias_term: false
    weight_filler {
      type: "uniform"
      min: -0.01
      max: 0.01
    }
    axis: 2
  }
}
layer {
  name: "lstm1_gate_input_4"
  type: "Eltwise"
  bottom: "W_hc_h_3"
  bottom: "W_xc_x_4"
  top: "gate_input_4"
  eltwise_param {
    operation: SUM
  }
}
layer {
  name: "lstm1_unit_4"
  type: "LSTMUnit"
  bottom: "c_3"
  bottom: "gate_input_4"
  bottom: "cont_4"
  top: "c_4"
  top: "h_4"
}
layer {
  name: "lstm1_h_conted_4"
  type: "Scale"
  bottom: "h_4"
  bottom: "cont_5"
  top: "h_conted_4"
  scale_param {
    axis: 0
  }
}
layer {
  name: "lstm1_transform_5"
  type: "InnerProduct"
  bottom: "h_conted_4"
  top: "W_hc_h_4"
  param {
    name: "W_hc"
  }
  inner_product_param {
    num_output: 2048
    bias_term: false
    weight_filler {
      type: "uniform"
      min: -0.01
      max: 0.01
    }
    axis: 2
  }
}
layer {
  name: "lstm1_gate_input_5"
  type: "Eltwise"
  bottom: "W_hc_h_4"
  bottom: "W_xc_x_5"
  top: "gate_input_5"
  eltwise_param {
    operation: SUM
  }
}
layer {
  name: "lstm1_unit_5"
  type: "LSTMUnit"
  bottom: "c_4"
  bottom: "gate_input_5"
  bottom: "cont_5"
  top: "c_5"
  top: "h_5"
}
layer {
  name: "lstm1_h_conted_5"
  type: "Scale"
  bottom: "h_5"
  bottom: "cont_6"
  top: "h_conted_5"
  scale_param {
    axis: 0
  }
}
layer {
  name: "lstm1_transform_6"
  type: "InnerProduct"
  bottom: "h_conted_5"
  top: "W_hc_h_5"
  param {
    name: "W_hc"
  }
  inner_product_param {
    num_output: 2048
    bias_term: false
    weight_filler {
      type: "uniform"
      min: -0.01
      max: 0.01
    }
    axis: 2
  }
}
layer {
  name: "lstm1_gate_input_6"
  type: "Eltwise"
  bottom: "W_hc_h_5"
  bottom: "W_xc_x_6"
  top: "gate_input_6"
  eltwise_param {
    operation: SUM
  }
}
layer {
  name: "lstm1_unit_6"
  type: "LSTMUnit"
  bottom: "c_5"
  bottom: "gate_input_6"
  bottom: "cont_6"
  top: "c_6"
  top: "h_6"
}
layer {
  name: "lstm1_h_conted_6"
  type: "Scale"
  bottom: "h_6"
  bottom: "cont_7"
  top: "h_conted_6"
  scale_param {
    axis: 0
  }
}
layer {
  name: "lstm1_transform_7"
  type: "InnerProduct"
  bottom: "h_conted_6"
  top: "W_hc_h_6"
  param {
    name: "W_hc"
  }
  inner_product_param {
    num_output: 2048
    bias_term: false
    weight_filler {
      type: "uniform"
      min: -0.01
      max: 0.01
    }
    axis: 2
  }
}
layer {
  name: "lstm1_gate_input_7"
  type: "Eltwise"
  bottom: "W_hc_h_6"
  bottom: "W_xc_x_7"
  top: "gate_input_7"
  eltwise_param {
    operation: SUM
  }
}
layer {
  name: "lstm1_unit_7"
  type: "LSTMUnit"
  bottom: "c_6"
  bottom: "gate_input_7"
  bottom: "cont_7"
  top: "c_7"
  top: "h_7"
}
layer {
  name: "lstm1_h_conted_7"
  type: "Scale"
  bottom: "h_7"
  bottom: "cont_8"
  top: "h_conted_7"
  scale_param {
    axis: 0
  }
}
layer {
  name: "lstm1_transform_8"
  type: "InnerProduct"
  bottom: "h_conted_7"
  top: "W_hc_h_7"
  param {
    name: "W_hc"
  }
  inner_product_param {
    num_output: 2048
    bias_term: false
    weight_filler {
      type: "uniform"
      min: -0.01
      max: 0.01
    }
    axis: 2
  }
}
layer {
  name: "lstm1_gate_input_8"
  type: "Eltwise"
  bottom: "W_hc_h_7"
  bottom: "W_xc_x_8"
  top: "gate_input_8"
  eltwise_param {
    operation: SUM
  }
}
layer {
  name: "lstm1_unit_8"
  type: "LSTMUnit"
  bottom: "c_7"
  bottom: "gate_input_8"
  bottom: "cont_8"
  top: "c_8"
  top: "h_8"
}
layer {
  name: "lstm1_h_conted_8"
  type: "Scale"
  bottom: "h_8"
  bottom: "cont_9"
  top: "h_conted_8"
  scale_param {
    axis: 0
  }
}
layer {
  name: "lstm1_transform_9"
  type: "InnerProduct"
  bottom: "h_conted_8"
  top: "W_hc_h_8"
  param {
    name: "W_hc"
  }
  inner_product_param {
    num_output: 2048
    bias_term: false
    weight_filler {
      type: "uniform"
      min: -0.01
      max: 0.01
    }
    axis: 2
  }
}
layer {
  name: "lstm1_gate_input_9"
  type: "Eltwise"
  bottom: "W_hc_h_8"
  bottom: "W_xc_x_9"
  top: "gate_input_9"
  eltwise_param {
    operation: SUM
  }
}
layer {
  name: "lstm1_unit_9"
  type: "LSTMUnit"
  bottom: "c_8"
  bottom: "gate_input_9"
  bottom: "cont_9"
  top: "c_9"
  top: "h_9"
}
layer {
  name: "lstm1_h_conted_9"
  type: "Scale"
  bottom: "h_9"
  bottom: "cont_10"
  top: "h_conted_9"
  scale_param {
    axis: 0
  }
}
layer {
  name: "lstm1_transform_10"
  type: "InnerProduct"
  bottom: "h_conted_9"
  top: "W_hc_h_9"
  param {
    name: "W_hc"
  }
  inner_product_param {
    num_output: 2048
    bias_term: false
    weight_filler {
      type: "uniform"
      min: -0.01
      max: 0.01
    }
    axis: 2
  }
}
layer {
  name: "lstm1_gate_input_10"
  type: "Eltwise"
  bottom: "W_hc_h_9"
  bottom: "W_xc_x_10"
  top: "gate_input_10"
  eltwise_param {
    operation: SUM
  }
}
layer {
  name: "lstm1_unit_10"
  type: "LSTMUnit"
  bottom: "c_9"
  bottom: "gate_input_10"
  bottom: "cont_10"
  top: "c_10"
  top: "h_10"
}
layer {
  name: "lstm1_h_conted_10"
  type: "Scale"
  bottom: "h_10"
  bottom: "cont_11"
  top: "h_conted_10"
  scale_param {
    axis: 0
  }
}
layer {
  name: "lstm1_transform_11"
  type: "InnerProduct"
  bottom: "h_conted_10"
  top: "W_hc_h_10"
  param {
    name: "W_hc"
  }
  inner_product_param {
    num_output: 2048
    bias_term: false
    weight_filler {
      type: "uniform"
      min: -0.01
      max: 0.01
    }
    axis: 2
  }
}
layer {
  name: "lstm1_gate_input_11"
  type: "Eltwise"
  bottom: "W_hc_h_10"
  bottom: "W_xc_x_11"
  top: "gate_input_11"
  eltwise_param {
    operation: SUM
  }
}
layer {
  name: "lstm1_unit_11"
  type: "LSTMUnit"
  bottom: "c_10"
  bottom: "gate_input_11"
  bottom: "cont_11"
  top: "c_11"
  top: "h_11"
}
layer {
  name: "lstm1_h_conted_11"
  type: "Scale"
  bottom: "h_11"
  bottom: "cont_12"
  top: "h_conted_11"
  scale_param {
    axis: 0
  }
}
layer {
  name: "lstm1_transform_12"
  type: "InnerProduct"
  bottom: "h_conted_11"
  top: "W_hc_h_11"
  param {
    name: "W_hc"
  }
  inner_product_param {
    num_output: 2048
    bias_term: false
    weight_filler {
      type: "uniform"
      min: -0.01
      max: 0.01
    }
    axis: 2
  }
}
layer {
  name: "lstm1_gate_input_12"
  type: "Eltwise"
  bottom: "W_hc_h_11"
  bottom: "W_xc_x_12"
  top: "gate_input_12"
  eltwise_param {
    operation: SUM
  }
}
layer {
  name: "lstm1_unit_12"
  type: "LSTMUnit"
  bottom: "c_11"
  bottom: "gate_input_12"
  bottom: "cont_12"
  top: "c_12"
  top: "h_12"
}
layer {
  name: "lstm1_h_conted_12"
  type: "Scale"
  bottom: "h_12"
  bottom: "cont_13"
  top: "h_conted_12"
  scale_param {
    axis: 0
  }
}
layer {
  name: "lstm1_transform_13"
  type: "InnerProduct"
  bottom: "h_conted_12"
  top: "W_hc_h_12"
  param {
    name: "W_hc"
  }
  inner_product_param {
    num_output: 2048
    bias_term: false
    weight_filler {
      type: "uniform"
      min: -0.01
      max: 0.01
    }
    axis: 2
  }
}
layer {
  name: "lstm1_gate_input_13"
  type: "Eltwise"
  bottom: "W_hc_h_12"
  bottom: "W_xc_x_13"
  top: "gate_input_13"
  eltwise_param {
    operation: SUM
  }
}
layer {
  name: "lstm1_unit_13"
  type: "LSTMUnit"
  bottom: "c_12"
  bottom: "gate_input_13"
  bottom: "cont_13"
  top: "c_13"
  top: "h_13"
}
layer {
  name: "lstm1_h_conted_13"
  type: "Scale"
  bottom: "h_13"
  bottom: "cont_14"
  top: "h_conted_13"
  scale_param {
    axis: 0
  }
}
layer {
  name: "lstm1_transform_14"
  type: "InnerProduct"
  bottom: "h_conted_13"
  top: "W_hc_h_13"
  param {
    name: "W_hc"
  }
  inner_product_param {
    num_output: 2048
    bias_term: false
    weight_filler {
      type: "uniform"
      min: -0.01
      max: 0.01
    }
    axis: 2
  }
}
layer {
  name: "lstm1_gate_input_14"
  type: "Eltwise"
  bottom: "W_hc_h_13"
  bottom: "W_xc_x_14"
  top: "gate_input_14"
  eltwise_param {
    operation: SUM
  }
}
layer {
  name: "lstm1_unit_14"
  type: "LSTMUnit"
  bottom: "c_13"
  bottom: "gate_input_14"
  bottom: "cont_14"
  top: "c_14"
  top: "h_14"
}
layer {
  name: "lstm1_h_conted_14"
  type: "Scale"
  bottom: "h_14"
  bottom: "cont_15"
  top: "h_conted_14"
  scale_param {
    axis: 0
  }
}
layer {
  name: "lstm1_transform_15"
  type: "InnerProduct"
  bottom: "h_conted_14"
  top: "W_hc_h_14"
  param {
    name: "W_hc"
  }
  inner_product_param {
    num_output: 2048
    bias_term: false
    weight_filler {
      type: "uniform"
      min: -0.01
      max: 0.01
    }
    axis: 2
  }
}
layer {
  name: "lstm1_gate_input_15"
  type: "Eltwise"
  bottom: "W_hc_h_14"
  bottom: "W_xc_x_15"
  top: "gate_input_15"
  eltwise_param {
    operation: SUM
  }
}
layer {
  name: "lstm1_unit_15"
  type: "LSTMUnit"
  bottom: "c_14"
  bottom: "gate_input_15"
  bottom: "cont_15"
  top: "c_15"
  top: "h_15"
}
layer {
  name: "lstm1_h_conted_15"
  type: "Scale"
  bottom: "h_15"
  bottom: "cont_16"
  top: "h_conted_15"
  scale_param {
    axis: 0
  }
}
layer {
  name: "lstm1_transform_16"
  type: "InnerProduct"
  bottom: "h_conted_15"
  top: "W_hc_h_15"
  param {
    name: "W_hc"
  }
  inner_product_param {
    num_output: 2048
    bias_term: false
    weight_filler {
      type: "uniform"
      min: -0.01
      max: 0.01
    }
    axis: 2
  }
}
layer {
  name: "lstm1_gate_input_16"
  type: "Eltwise"
  bottom: "W_hc_h_15"
  bottom: "W_xc_x_16"
  top: "gate_input_16"
  eltwise_param {
    operation: SUM
  }
}
layer {
  name: "lstm1_unit_16"
  type: "LSTMUnit"
  bottom: "c_15"
  bottom: "gate_input_16"
  bottom: "cont_16"
  top: "c_16"
  top: "h_16"
}
layer {
  name: "lstm1_h_conted_16"
  type: "Scale"
  bottom: "h_16"
  bottom: "cont_17"
  top: "h_conted_16"
  scale_param {
    axis: 0
  }
}
layer {
  name: "lstm1_transform_17"
  type: "InnerProduct"
  bottom: "h_conted_16"
  top: "W_hc_h_16"
  param {
    name: "W_hc"
  }
  inner_product_param {
    num_output: 2048
    bias_term: false
    weight_filler {
      type: "uniform"
      min: -0.01
      max: 0.01
    }
    axis: 2
  }
}
layer {
  name: "lstm1_gate_input_17"
  type: "Eltwise"
  bottom: "W_hc_h_16"
  bottom: "W_xc_x_17"
  top: "gate_input_17"
  eltwise_param {
    operation: SUM
  }
}
layer {
  name: "lstm1_unit_17"
  type: "LSTMUnit"
  bottom: "c_16"
  bottom: "gate_input_17"
  bottom: "cont_17"
  top: "c_17"
  top: "h_17"
}
layer {
  name: "lstm1_h_conted_17"
  type: "Scale"
  bottom: "h_17"
  bottom: "cont_18"
  top: "h_conted_17"
  scale_param {
    axis: 0
  }
}
layer {
  name: "lstm1_transform_18"
  type: "InnerProduct"
  bottom: "h_conted_17"
  top: "W_hc_h_17"
  param {
    name: "W_hc"
  }
  inner_product_param {
    num_output: 2048
    bias_term: false
    weight_filler {
      type: "uniform"
      min: -0.01
      max: 0.01
    }
    axis: 2
  }
}
layer {
  name: "lstm1_gate_input_18"
  type: "Eltwise"
  bottom: "W_hc_h_17"
  bottom: "W_xc_x_18"
  top: "gate_input_18"
  eltwise_param {
    operation: SUM
  }
}
layer {
  name: "lstm1_unit_18"
  type: "LSTMUnit"
  bottom: "c_17"
  bottom: "gate_input_18"
  bottom: "cont_18"
  top: "c_18"
  top: "h_18"
}
layer {
  name: "lstm1_h_conted_18"
  type: "Scale"
  bottom: "h_18"
  bottom: "cont_19"
  top: "h_conted_18"
  scale_param {
    axis: 0
  }
}
layer {
  name: "lstm1_transform_19"
  type: "InnerProduct"
  bottom: "h_conted_18"
  top: "W_hc_h_18"
  param {
    name: "W_hc"
  }
  inner_product_param {
    num_output: 2048
    bias_term: false
    weight_filler {
      type: "uniform"
      min: -0.01
      max: 0.01
    }
    axis: 2
  }
}
layer {
  name: "lstm1_gate_input_19"
  type: "Eltwise"
  bottom: "W_hc_h_18"
  bottom: "W_xc_x_19"
  top: "gate_input_19"
  eltwise_param {
    operation: SUM
  }
}
layer {
  name: "lstm1_unit_19"
  type: "LSTMUnit"
  bottom: "c_18"
  bottom: "gate_input_19"
  bottom: "cont_19"
  top: "c_19"
  top: "h_19"
}
layer {
  name: "lstm1_h_conted_19"
  type: "Scale"
  bottom: "h_19"
  bottom: "cont_20"
  top: "h_conted_19"
  scale_param {
    axis: 0
  }
}
layer {
  name: "lstm1_transform_20"
  type: "InnerProduct"
  bottom: "h_conted_19"
  top: "W_hc_h_19"
  param {
    name: "W_hc"
  }
  inner_product_param {
    num_output: 2048
    bias_term: false
    weight_filler {
      type: "uniform"
      min: -0.01
      max: 0.01
    }
    axis: 2
  }
}
layer {
  name: "lstm1_gate_input_20"
  type: "Eltwise"
  bottom: "W_hc_h_19"
  bottom: "W_xc_x_20"
  top: "gate_input_20"
  eltwise_param {
    operation: SUM
  }
}
layer {
  name: "lstm1_unit_20"
  type: "LSTMUnit"
  bottom: "c_19"
  bottom: "gate_input_20"
  bottom: "cont_20"
  top: "c_20"
  top: "h_20"
}
layer {
  name: "lstm1_h_conted_20"
  type: "Scale"
  bottom: "h_20"
  bottom: "cont_21"
  top: "h_conted_20"
  scale_param {
    axis: 0
  }
}
layer {
  name: "lstm1_transform_21"
  type: "InnerProduct"
  bottom: "h_conted_20"
  top: "W_hc_h_20"
  param {
    name: "W_hc"
  }
  inner_product_param {
    num_output: 2048
    bias_term: false
    weight_filler {
      type: "uniform"
      min: -0.01
      max: 0.01
    }
    axis: 2
  }
}
layer {
  name: "lstm1_gate_input_21"
  type: "Eltwise"
  bottom: "W_hc_h_20"
  bottom: "W_xc_x_21"
  top: "gate_input_21"
  eltwise_param {
    operation: SUM
  }
}
layer {
  name: "lstm1_unit_21"
  type: "LSTMUnit"
  bottom: "c_20"
  bottom: "gate_input_21"
  bottom: "cont_21"
  top: "c_21"
  top: "h_21"
}
layer {
  name: "lstm1_h_conted_21"
  type: "Scale"
  bottom: "h_21"
  bottom: "cont_22"
  top: "h_conted_21"
  scale_param {
    axis: 0
  }
}
layer {
  name: "lstm1_transform_22"
  type: "InnerProduct"
  bottom: "h_conted_21"
  top: "W_hc_h_21"
  param {
    name: "W_hc"
  }
  inner_product_param {
    num_output: 2048
    bias_term: false
    weight_filler {
      type: "uniform"
      min: -0.01
      max: 0.01
    }
    axis: 2
  }
}
layer {
  name: "lstm1_gate_input_22"
  type: "Eltwise"
  bottom: "W_hc_h_21"
  bottom: "W_xc_x_22"
  top: "gate_input_22"
  eltwise_param {
    operation: SUM
  }
}
layer {
  name: "lstm1_unit_22"
  type: "LSTMUnit"
  bottom: "c_21"
  bottom: "gate_input_22"
  bottom: "cont_22"
  top: "c_22"
  top: "h_22"
}
layer {
  name: "lstm1_h_conted_22"
  type: "Scale"
  bottom: "h_22"
  bottom: "cont_23"
  top: "h_conted_22"
  scale_param {
    axis: 0
  }
}
layer {
  name: "lstm1_transform_23"
  type: "InnerProduct"
  bottom: "h_conted_22"
  top: "W_hc_h_22"
  param {
    name: "W_hc"
  }
  inner_product_param {
    num_output: 2048
    bias_term: false
    weight_filler {
      type: "uniform"
      min: -0.01
      max: 0.01
    }
    axis: 2
  }
}
layer {
  name: "lstm1_gate_input_23"
  type: "Eltwise"
  bottom: "W_hc_h_22"
  bottom: "W_xc_x_23"
  top: "gate_input_23"
  eltwise_param {
    operation: SUM
  }
}
layer {
  name: "lstm1_unit_23"
  type: "LSTMUnit"
  bottom: "c_22"
  bottom: "gate_input_23"
  bottom: "cont_23"
  top: "c_23"
  top: "h_23"
}
layer {
  name: "lstm1_h_conted_23"
  type: "Scale"
  bottom: "h_23"
  bottom: "cont_24"
  top: "h_conted_23"
  scale_param {
    axis: 0
  }
}
layer {
  name: "lstm1_transform_24"
  type: "InnerProduct"
  bottom: "h_conted_23"
  top: "W_hc_h_23"
  param {
    name: "W_hc"
  }
  inner_product_param {
    num_output: 2048
    bias_term: false
    weight_filler {
      type: "uniform"
      min: -0.01
      max: 0.01
    }
    axis: 2
  }
}
layer {
  name: "lstm1_gate_input_24"
  type: "Eltwise"
  bottom: "W_hc_h_23"
  bottom: "W_xc_x_24"
  top: "gate_input_24"
  eltwise_param {
    operation: SUM
  }
}
layer {
  name: "lstm1_unit_24"
  type: "LSTMUnit"
  bottom: "c_23"
  bottom: "gate_input_24"
  bottom: "cont_24"
  top: "c_24"
  top: "h_24"
}
layer {
  name: "lstm1_h_conted_24"
  type: "Scale"
  bottom: "h_24"
  bottom: "cont_25"
  top: "h_conted_24"
  scale_param {
    axis: 0
  }
}
layer {
  name: "lstm1_transform_25"
  type: "InnerProduct"
  bottom: "h_conted_24"
  top: "W_hc_h_24"
  param {
    name: "W_hc"
  }
  inner_product_param {
    num_output: 2048
    bias_term: false
    weight_filler {
      type: "uniform"
      min: -0.01
      max: 0.01
    }
    axis: 2
  }
}
layer {
  name: "lstm1_gate_input_25"
  type: "Eltwise"
  bottom: "W_hc_h_24"
  bottom: "W_xc_x_25"
  top: "gate_input_25"
  eltwise_param {
    operation: SUM
  }
}
layer {
  name: "lstm1_unit_25"
  type: "LSTMUnit"
  bottom: "c_24"
  bottom: "gate_input_25"
  bottom: "cont_25"
  top: "c_25"
  top: "h_25"
}
layer {
  name: "lstm1_h_conted_25"
  type: "Scale"
  bottom: "h_25"
  bottom: "cont_26"
  top: "h_conted_25"
  scale_param {
    axis: 0
  }
}
layer {
  name: "lstm1_transform_26"
  type: "InnerProduct"
  bottom: "h_conted_25"
  top: "W_hc_h_25"
  param {
    name: "W_hc"
  }
  inner_product_param {
    num_output: 2048
    bias_term: false
    weight_filler {
      type: "uniform"
      min: -0.01
      max: 0.01
    }
    axis: 2
  }
}
layer {
  name: "lstm1_gate_input_26"
  type: "Eltwise"
  bottom: "W_hc_h_25"
  bottom: "W_xc_x_26"
  top: "gate_input_26"
  eltwise_param {
    operation: SUM
  }
}
layer {
  name: "lstm1_unit_26"
  type: "LSTMUnit"
  bottom: "c_25"
  bottom: "gate_input_26"
  bottom: "cont_26"
  top: "c_26"
  top: "h_26"
}
layer {
  name: "lstm1_h_conted_26"
  type: "Scale"
  bottom: "h_26"
  bottom: "cont_27"
  top: "h_conted_26"
  scale_param {
    axis: 0
  }
}
layer {
  name: "lstm1_transform_27"
  type: "InnerProduct"
  bottom: "h_conted_26"
  top: "W_hc_h_26"
  param {
    name: "W_hc"
  }
  inner_product_param {
    num_output: 2048
    bias_term: false
    weight_filler {
      type: "uniform"
      min: -0.01
      max: 0.01
    }
    axis: 2
  }
}
layer {
  name: "lstm1_gate_input_27"
  type: "Eltwise"
  bottom: "W_hc_h_26"
  bottom: "W_xc_x_27"
  top: "gate_input_27"
  eltwise_param {
    operation: SUM
  }
}
layer {
  name: "lstm1_unit_27"
  type: "LSTMUnit"
  bottom: "c_26"
  bottom: "gate_input_27"
  bottom: "cont_27"
  top: "c_27"
  top: "h_27"
}
layer {
  name: "lstm1_h_conted_27"
  type: "Scale"
  bottom: "h_27"
  bottom: "cont_28"
  top: "h_conted_27"
  scale_param {
    axis: 0
  }
}
layer {
  name: "lstm1_transform_28"
  type: "InnerProduct"
  bottom: "h_conted_27"
  top: "W_hc_h_27"
  param {
    name: "W_hc"
  }
  inner_product_param {
    num_output: 2048
    bias_term: false
    weight_filler {
      type: "uniform"
      min: -0.01
      max: 0.01
    }
    axis: 2
  }
}
layer {
  name: "lstm1_gate_input_28"
  type: "Eltwise"
  bottom: "W_hc_h_27"
  bottom: "W_xc_x_28"
  top: "gate_input_28"
  eltwise_param {
    operation: SUM
  }
}
layer {
  name: "lstm1_unit_28"
  type: "LSTMUnit"
  bottom: "c_27"
  bottom: "gate_input_28"
  bottom: "cont_28"
  top: "c_28"
  top: "h_28"
}
layer {
  name: "lstm1_h_conted_28"
  type: "Scale"
  bottom: "h_28"
  bottom: "cont_29"
  top: "h_conted_28"
  scale_param {
    axis: 0
  }
}
layer {
  name: "lstm1_transform_29"
  type: "InnerProduct"
  bottom: "h_conted_28"
  top: "W_hc_h_28"
  param {
    name: "W_hc"
  }
  inner_product_param {
    num_output: 2048
    bias_term: false
    weight_filler {
      type: "uniform"
      min: -0.01
      max: 0.01
    }
    axis: 2
  }
}
layer {
  name: "lstm1_gate_input_29"
  type: "Eltwise"
  bottom: "W_hc_h_28"
  bottom: "W_xc_x_29"
  top: "gate_input_29"
  eltwise_param {
    operation: SUM
  }
}
layer {
  name: "lstm1_unit_29"
  type: "LSTMUnit"
  bottom: "c_28"
  bottom: "gate_input_29"
  bottom: "cont_29"
  top: "c_29"
  top: "h_29"
}
layer {
  name: "lstm1_h_conted_29"
  type: "Scale"
  bottom: "h_29"
  bottom: "cont_30"
  top: "h_conted_29"
  scale_param {
    axis: 0
  }
}
layer {
  name: "lstm1_transform_30"
  type: "InnerProduct"
  bottom: "h_conted_29"
  top: "W_hc_h_29"
  param {
    name: "W_hc"
  }
  inner_product_param {
    num_output: 2048
    bias_term: false
    weight_filler {
      type: "uniform"
      min: -0.01
      max: 0.01
    }
    axis: 2
  }
}
layer {
  name: "lstm1_gate_input_30"
  type: "Eltwise"
  bottom: "W_hc_h_29"
  bottom: "W_xc_x_30"
  top: "gate_input_30"
  eltwise_param {
    operation: SUM
  }
}
layer {
  name: "lstm1_unit_30"
  type: "LSTMUnit"
  bottom: "c_29"
  bottom: "gate_input_30"
  bottom: "cont_30"
  top: "c_30"
  top: "h_30"
}
layer {
  name: "lstm1_h_conted_30"
  type: "Scale"
  bottom: "h_30"
  bottom: "cont_31"
  top: "h_conted_30"
  scale_param {
    axis: 0
  }
}
layer {
  name: "lstm1_transform_31"
  type: "InnerProduct"
  bottom: "h_conted_30"
  top: "W_hc_h_30"
  param {
    name: "W_hc"
  }
  inner_product_param {
    num_output: 2048
    bias_term: false
    weight_filler {
      type: "uniform"
      min: -0.01
      max: 0.01
    }
    axis: 2
  }
}
layer {
  name: "lstm1_gate_input_31"
  type: "Eltwise"
  bottom: "W_hc_h_30"
  bottom: "W_xc_x_31"
  top: "gate_input_31"
  eltwise_param {
    operation: SUM
  }
}
layer {
  name: "lstm1_unit_31"
  type: "LSTMUnit"
  bottom: "c_30"
  bottom: "gate_input_31"
  bottom: "cont_31"
  top: "c_31"
  top: "h_31"
}
layer {
  name: "lstm1_h_conted_31"
  type: "Scale"
  bottom: "h_31"
  bottom: "cont_32"
  top: "h_conted_31"
  scale_param {
    axis: 0
  }
}
layer {
  name: "lstm1_transform_32"
  type: "InnerProduct"
  bottom: "h_conted_31"
  top: "W_hc_h_31"
  param {
    name: "W_hc"
  }
  inner_product_param {
    num_output: 2048
    bias_term: false
    weight_filler {
      type: "uniform"
      min: -0.01
      max: 0.01
    }
    axis: 2
  }
}
layer {
  name: "lstm1_gate_input_32"
  type: "Eltwise"
  bottom: "W_hc_h_31"
  bottom: "W_xc_x_32"
  top: "gate_input_32"
  eltwise_param {
    operation: SUM
  }
}
layer {
  name: "lstm1_unit_32"
  type: "LSTMUnit"
  bottom: "c_31"
  bottom: "gate_input_32"
  bottom: "cont_32"
  top: "c_32"
  top: "h_32"
}
layer {
  name: "lstm1_h_conted_32"
  type: "Scale"
  bottom: "h_32"
  bottom: "cont_33"
  top: "h_conted_32"
  scale_param {
    axis: 0
  }
}
layer {
  name: "lstm1_transform_33"
  type: "InnerProduct"
  bottom: "h_conted_32"
  top: "W_hc_h_32"
  param {
    name: "W_hc"
  }
  inner_product_param {
    num_output: 2048
    bia
I1018 00:03:29.803352 29837 layer_factory.hpp:77] Creating layer lstm1_
I1018 00:03:29.803395 29837 net.cpp:84] Creating Layer lstm1_
I1018 00:03:29.803402 29837 net.cpp:380] lstm1_ -> x
I1018 00:03:29.803419 29837 net.cpp:380] lstm1_ -> cont
I1018 00:03:29.803504 29837 net.cpp:122] Setting up lstm1_
I1018 00:03:29.803517 29837 net.cpp:129] Top shape: 128 5 512 (327680)
I1018 00:03:29.803524 29837 net.cpp:129] Top shape: 128 5 (640)
I1018 00:03:29.803527 29837 net.cpp:137] Memory required for data: 1313280
I1018 00:03:29.803534 29837 layer_factory.hpp:77] Creating layer lstm1_
I1018 00:03:29.803541 29837 net.cpp:84] Creating Layer lstm1_
I1018 00:03:29.803546 29837 net.cpp:380] lstm1_ -> c_0
I1018 00:03:29.803555 29837 net.cpp:380] lstm1_ -> h_0
I1018 00:03:29.803599 29837 net.cpp:122] Setting up lstm1_
I1018 00:03:29.803611 29837 net.cpp:129] Top shape: 1 5 512 (2560)
I1018 00:03:29.803616 29837 net.cpp:129] Top shape: 1 5 512 (2560)
I1018 00:03:29.803620 29837 net.cpp:137] Memory required for data: 1333760
I1018 00:03:29.803624 29837 layer_factory.hpp:77] Creating layer lstm1_cont_slice
I1018 00:03:29.803647 29837 net.cpp:84] Creating Layer lstm1_cont_slice
I1018 00:03:29.803653 29837 net.cpp:406] lstm1_cont_slice <- cont
I1018 00:03:29.803669 29837 net.cpp:380] lstm1_cont_slice -> cont_1
I1018 00:03:29.803690 29837 net.cpp:380] lstm1_cont_slice -> cont_2
…
I1018 00:03:29.806131 29837 net.cpp:380] lstm1_cont_slice -> cont_122
I1018 00:03:29.806150 29837 net.cpp:380] lstm1_cont_slice -> cont_123
I1018 00:03:29.806169 29837 net.cpp:380] lstm1_cont_slice -> cont_124
I1018 00:03:29.806187 29837 net.cpp:380] lstm1_cont_slice -> cont_125
I1018 00:03:29.806211 29837 net.cpp:380] lstm1_cont_slice -> cont_126
I1018 00:03:29.806231 29837 net.cpp:380] lstm1_cont_slice -> cont_127
I1018 00:03:29.806249 29837 net.cpp:380] lstm1_cont_slice -> cont_128
I1018 00:03:29.807627 29837 net.cpp:122] Setting up lstm1_cont_slice
I1018 00:03:29.807644 29837 net.cpp:129] Top shape: 1 5 (5)
I1018 00:03:29.807651 29837 net.cpp:129] Top shape: 1 5 (5)
I1018 00:03:29.807656 29837 net.cpp:129] Top shape: 1 5 (5)
I1018 00:03:29.807660 29837 net.cpp:129] Top shape: 1 5 (5)
I1018 00:03:29.807665 29837 net.cpp:129] Top shape: 1 5 (5)
I1018 00:03:29.807670 29837 net.cpp:129] Top shape: 1 5 (5)
I1018 00:03:29.807675 29837 net.cpp:129] Top shape: 1 5 (5)
I1018 00:03:29.807679 29837 net.cpp:129] Top shape: 1 5 (5)
I1018 00:03:29.807684 29837 net.cpp:129] Top shape: 1 5 (5)
I1018 00:03:29.807688 29837 net.cpp:129] Top shape: 1 5 (5)
I1018 00:03:29.807693 29837 net.cpp:129] Top shape: 1 5 (5)
I1018 00:03:29.807698 29837 net.cpp:129] Top shape: 1 5 (5)
I1018 00:03:29.807703 29837 net.cpp:129] Top shape: 1 5 (5)
I1018 00:03:29.807708 29837 net.cpp:129] Top shape: 1 5 (5)
I1018 00:03:29.807713 29837 net.cpp:129] Top shape: 1 5 (5)
I1018 00:03:29.807716 29837 net.cpp:129] Top shape: 1 5 (5)
I1018 00:03:29.807721 29837 net.cpp:129] Top shape: 1 5 (5)
I1018 00:03:29.807725 29837 net.cpp:129] Top shape: 1 5 (5)
I1018 00:03:29.807730 29837 net.cpp:129] Top shape: 1 5 (5)
I1018 00:03:29.807735 29837 net.cpp:129] Top shape: 1 5 (5)
I1018 00:03:29.807740 29837 net.cpp:129] Top shape: 1 5 (5)
I1018 00:03:29.807744 29837 net.cpp:129] Top shape: 1 5 (5)
I1018 00:03:29.807749 29837 net.cpp:129] Top shape: 1 5 (5)
I1018 00:03:29.807754 29837 net.cpp:129] Top shape: 1 5 (5)
I1018 00:03:29.807759 29837 net.cpp:129] Top shape: 1 5 (5)
I1018 00:03:29.807762 29837 net.cpp:129] Top shape: 1 5 (5)
I1018 00:03:29.807767 29837 net.cpp:129] Top shape: 1 5 (5)
I1018 00:03:29.807772 29837 net.cpp:129] Top shape: 1 5 (5)
I1018 00:03:29.807777 29837 net.cpp:129] Top shape: 1 5 (5)
I1018 00:03:29.807781 29837 net.cpp:129] Top shape: 1 5 (5)
I1018 00:03:29.807786 29837 net.cpp:129] Top shape: 1 5 (5)
I1018 00:03:29.807790 29837 net.cpp:129] Top shape: 1 5 (5)
I1018 00:03:29.807796 29837 net.cpp:129] Top shape: 1 5 (5)
I1018 00:03:29.807801 29837 net.cpp:129] Top shape: 1 5 (5)
I1018 00:03:29.807806 29837 net.cpp:129] Top shape: 1 5 (5)
I1018 00:03:29.807809 29837 net.cpp:129] Top shape: 1 5 (5)
I1018 00:03:29.807814 29837 net.cpp:129] Top shape: 1 5 (5)
I1018 00:03:29.807818 29837 net.cpp:129] Top shape: 1 5 (5)
I1018 00:03:29.807824 29837 net.cpp:129] Top shape: 1 5 (5)
I1018 00:03:29.807829 29837 net.cpp:129] Top shape: 1 5 (5)
I1018 00:03:29.807833 29837 net.cpp:129] Top shape: 1 5 (5)
I1018 00:03:29.807838 29837 net.cpp:129] Top shape: 1 5 (5)
I1018 00:03:29.807843 29837 net.cpp:129] Top shape: 1 5 (5)
I1018 00:03:29.807847 29837 net.cpp:129] Top shape: 1 5 (5)
I1018 00:03:29.807852 29837 net.cpp:129] Top shape: 1 5 (5)
I1018 00:03:29.807857 29837 net.cpp:129] Top shape: 1 5 (5)
I1018 00:03:29.807862 29837 net.cpp:129] Top shape: 1 5 (5)
I1018 00:03:29.807867 29837 net.cpp:129] Top shape: 1 5 (5)
I1018 00:03:29.807871 29837 net.cpp:129] Top shape: 1 5 (5)
I1018 00:03:29.807875 29837 net.cpp:129] Top shape: 1 5 (5)
I1018 00:03:29.807880 29837 net.cpp:129] Top shape: 1 5 (5)
I1018 00:03:29.807885 29837 net.cpp:129] Top shape: 1 5 (5)
I1018 00:03:29.807889 29837 net.cpp:129] Top shape: 1 5 (5)
I1018 00:03:29.807894 29837 net.cpp:129] Top shape: 1 5 (5)
I1018 00:03:29.807899 29837 net.cpp:129] Top shape: 1 5 (5)
I1018 00:03:29.807904 29837 net.cpp:129] Top shape: 1 5 (5)
I1018 00:03:29.807909 29837 net.cpp:129] Top shape: 1 5 (5)
I1018 00:03:29.807914 29837 net.cpp:129] Top shape: 1 5 (5)
I1018 00:03:29.807917 29837 net.cpp:129] Top shape: 1 5 (5)
I1018 00:03:29.807922 29837 net.cpp:129] Top shape: 1 5 (5)
I1018 00:03:29.807929 29837 net.cpp:129] Top shape: 1 5 (5)
I1018 00:03:29.807934 29837 net.cpp:129] Top shape: 1 5 (5)
I1018 00:03:29.807940 29837 net.cpp:129] Top shape: 1 5 (5)
I1018 00:03:29.807943 29837 net.cpp:129] Top shape: 1 5 (5)
I1018 00:03:29.807948 29837 net.cpp:129] Top shape: 1 5 (5)
I1018 00:03:29.807953 29837 net.cpp:129] Top shape: 1 5 (5)
I1018 00:03:29.807958 29837 net.cpp:129] Top shape: 1 5 (5)
I1018 00:03:29.807962 29837 net.cpp:129] Top shape: 1 5 (5)
I1018 00:03:29.807967 29837 net.cpp:129] Top shape: 1 5 (5)
I1018 00:03:29.807972 29837 net.cpp:129] Top shape: 1 5 (5)
I1018 00:03:29.807976 29837 net.cpp:129] Top shape: 1 5 (5)
I1018 00:03:29.807981 29837 net.cpp:129] Top shape: 1 5 (5)
I1018 00:03:29.807987 29837 net.cpp:129] Top shape: 1 5 (5)
I1018 00:03:29.807991 29837 net.cpp:129] Top shape: 1 5 (5)
I1018 00:03:29.807996 29837 net.cpp:129] Top shape: 1 5 (5)
I1018 00:03:29.808001 29837 net.cpp:129] Top shape: 1 5 (5)
I1018 00:03:29.808006 29837 net.cpp:129] Top shape: 1 5 (5)
I1018 00:03:29.808010 29837 net.cpp:129] Top shape: 1 5 (5)
I1018 00:03:29.808015 29837 net.cpp:129] Top shape: 1 5 (5)
I1018 00:03:29.808019 29837 net.cpp:129] Top shape: 1 5 (5)
I1018 00:03:29.808024 29837 net.cpp:129] Top shape: 1 5 (5)
I1018 00:03:29.808035 29837 net.cpp:129] Top shape: 1 5 (5)
I1018 00:03:29.808040 29837 net.cpp:129] Top shape: 1 5 (5)
I1018 00:03:29.808044 29837 net.cpp:129] Top shape: 1 5 (5)
I1018 00:03:29.808049 29837 net.cpp:129] Top shape: 1 5 (5)
I1018 00:03:29.808054 29837 net.cpp:129] Top shape: 1 5 (5)
I1018 00:03:29.808059 29837 net.cpp:129] Top shape: 1 5 (5)
I1018 00:03:29.808063 29837 net.cpp:129] Top shape: 1 5 (5)
I1018 00:03:29.808068 29837 net.cpp:129] Top shape: 1 5 (5)
I1018 00:03:29.808073 29837 net.cpp:129] Top shape: 1 5 (5)
I1018 00:03:29.808078 29837 net.cpp:129] Top shape: 1 5 (5)
I1018 00:03:29.808082 29837 net.cpp:129] Top shape: 1 5 (5)
I1018 00:03:29.808087 29837 net.cpp:129] Top shape: 1 5 (5)
I1018 00:03:29.808091 29837 net.cpp:129] Top shape: 1 5 (5)
I1018 00:03:29.808096 29837 net.cpp:129] Top shape: 1 5 (5)
I1018 00:03:29.808101 29837 net.cpp:129] Top shape: 1 5 (5)
I1018 00:03:29.808105 29837 net.cpp:129] Top shape: 1 5 (5)
I1018 00:03:29.808110 29837 net.cpp:129] Top shape: 1 5 (5)
I1018 00:03:29.808115 29837 net.cpp:129] Top shape: 1 5 (5)
I1018 00:03:29.808120 29837 net.cpp:129] Top shape: 1 5 (5)
I1018 00:03:29.808125 29837 net.cpp:129] Top shape: 1 5 (5)
I1018 00:03:29.808130 29837 net.cpp:129] Top shape: 1 5 (5)
I1018 00:03:29.808133 29837 net.cpp:129] Top shape: 1 5 (5)
I1018 00:03:29.808138 29837 net.cpp:129] Top shape: 1 5 (5)
I1018 00:03:29.808143 29837 net.cpp:129] Top shape: 1 5 (5)
I1018 00:03:29.808147 29837 net.cpp:129] Top shape: 1 5 (5)
I1018 00:03:29.808152 29837 net.cpp:129] Top shape: 1 5 (5)
I1018 00:03:29.808156 29837 net.cpp:129] Top shape: 1 5 (5)
I1018 00:03:29.808161 29837 net.cpp:129] Top shape: 1 5 (5)
I1018 00:03:29.808166 29837 net.cpp:129] Top shape: 1 5 (5)
I1018 00:03:29.808171 29837 net.cpp:129] Top shape: 1 5 (5)
I1018 00:03:29.808176 29837 net.cpp:129] Top shape: 1 5 (5)
I1018 00:03:29.808181 29837 net.cpp:129] Top shape: 1 5 (5)
I1018 00:03:29.808184 29837 net.cpp:129] Top shape: 1 5 (5)
I1018 00:03:29.808189 29837 net.cpp:129] Top shape: 1 5 (5)
I1018 00:03:29.808194 29837 net.cpp:129] Top shape: 1 5 (5)
I1018 00:03:29.808198 29837 net.cpp:129] Top shape: 1 5 (5)
I1018 00:03:29.808203 29837 net.cpp:129] Top shape: 1 5 (5)
I1018 00:03:29.808208 29837 net.cpp:129] Top shape: 1 5 (5)
I1018 00:03:29.808212 29837 net.cpp:129] Top shape: 1 5 (5)
I1018 00:03:29.808218 29837 net.cpp:129] Top shape: 1 5 (5)
I1018 00:03:29.808223 29837 net.cpp:129] Top shape: 1 5 (5)
I1018 00:03:29.808226 29837 net.cpp:129] Top shape: 1 5 (5)
I1018 00:03:29.808231 29837 net.cpp:129] Top shape: 1 5 (5)
I1018 00:03:29.808236 29837 net.cpp:129] Top shape: 1 5 (5)
I1018 00:03:29.808241 29837 net.cpp:129] Top shape: 1 5 (5)
I1018 00:03:29.808246 29837 net.cpp:129] Top shape: 1 5 (5)
I1018 00:03:29.808250 29837 net.cpp:129] Top shape: 1 5 (5)
I1018 00:03:29.808254 29837 net.cpp:137] Memory required for data: 1336320
I1018 00:03:29.808259 29837 layer_factory.hpp:77] Creating layer cont_1_lstm1_cont_slice_0_split
I1018 00:03:29.808267 29837 net.cpp:84] Creating Layer cont_1_lstm1_cont_slice_0_split
I1018 00:03:29.808272 29837 net.cpp:406] cont_1_lstm1_cont_slice_0_split <- cont_1
I1018 00:03:29.808282 29837 net.cpp:380] cont_1_lstm1_cont_slice_0_split -> cont_1_lstm1_cont_slice_0_split_0
I1018 00:03:29.808292 29837 net.cpp:380] cont_1_lstm1_cont_slice_0_split -> cont_1_lstm1_cont_slice_0_split_1
I1018 00:03:29.808331 29837 net.cpp:122] Setting up cont_1_lstm1_cont_slice_0_split
I1018 00:03:29.808341 29837 net.cpp:129] Top shape: 1 5 (5)
I1018 00:03:29.808346 29837 net.cpp:129] Top shape: 1 5 (5)
I1018 00:03:29.808351 29837 net.cpp:137] Memory required for data: 1336360
I1018 00:03:29.808356 29837 layer_factory.hpp:77] Creating layer cont_2_lstm1_cont_slice_1_split
I1018 00:03:29.808362 29837 net.cpp:84] Creating Layer cont_2_lstm1_cont_slice_1_split
I1018 00:03:29.808367 29837 net.cpp:406] cont_2_lstm1_cont_slice_1_split <- cont_2
I1018 00:03:29.808373 29837 net.cpp:380] cont_2_lstm1_cont_slice_1_split -> cont_2_lstm1_cont_slice_1_split_0
I1018 00:03:29.808382 29837 net.cpp:380] cont_2_lstm1_cont_slice_1_split -> cont_2_lstm1_cont_slice_1_split_1
I1018 00:03:29.808416 29837 net.cpp:122] Setting up cont_2_lstm1_cont_slice_1_split
I1018 00:03:29.808423 29837 net.cpp:129] Top shape: 1 5 (5)
I1018 00:03:29.808429 29837 net.cpp:129] Top shape: 1 5 (5)
I1018 00:03:29.808432 29837 net.cpp:137] Memory required for data: 1336400
I1018 00:03:29.808436 29837 layer_factory.hpp:77] Creating layer cont_3_lstm1_cont_slice_2_split
I1018 00:03:29.808442 29837 net.cpp:84] Creating Layer cont_3_lstm1_cont_slice_2_split
I1018 00:03:29.808447 29837 net.cpp:406] cont_3_lstm1_cont_slice_2_split <- cont_3
I1018 00:03:29.808455 29837 net.cpp:380] cont_3_lstm1_cont_slice_2_split -> cont_3_lstm1_cont_slice_2_split_0
I1018 00:03:29.808462 29837 net.cpp:380] cont_3_lstm1_cont_slice_2_split -> cont_3_lstm1_cont_slice_2_split_1
I1018 00:03:29.808495 29837 net.cpp:122] Setting up cont_3_lstm1_cont_slice_2_split
I1018 00:03:29.808502 29837 net.cpp:129] Top shape: 1 5 (5)
I1018 00:03:29.808506 29837 net.cpp:129] Top shape: 1 5 (5)
I1018 00:03:29.808511 29837 net.cpp:137] Memory required for data: 1336440
I1018 00:03:29.808516 29837 layer_factory.hpp:77] Creating layer cont_4_lstm1_cont_slice_3_split
I1018 00:03:29.808522 29837 net.cpp:84] Creating Layer cont_4_lstm1_cont_slice_3_split
I1018 00:03:29.808527 29837 net.cpp:406] cont_4_lstm1_cont_slice_3_split <- cont_4
I1018 00:03:29.808535 29837 net.cpp:380] cont_4_lstm1_cont_slice_3_split -> cont_4_lstm1_cont_slice_3_split_0
I1018 00:03:29.808542 29837 net.cpp:380] cont_4_lstm1_cont_slice_3_split -> cont_4_lstm1_cont_slice_3_split_1
I1018 00:03:29.808573 29837 net.cpp:122] Setting up cont_4_lstm1_cont_slice_3_split
I1018 00:03:29.808580 29837 net.cpp:129] Top shape: 1 5 (5)
I1018 00:03:29.808585 29837 net.cpp:129] Top shape: 1 5 (5)
I1018 00:03:29.808589 29837 net.cpp:137] Memory required for data: 1336480
I1018 00:03:29.808593 29837 layer_factory.hpp:77] Creating layer cont_5_lstm1_cont_slice_4_split
I1018 00:03:29.808600 29837 net.cpp:84] Creating Layer cont_5_lstm1_cont_slice_4_split
I1018 00:03:29.808605 29837 net.cpp:406] cont_5_lstm1_cont_slice_4_split <- cont_5
I1018 00:03:29.808611 29837 net.cpp:380] cont_5_lstm1_cont_slice_4_split -> cont_5_lstm1_cont_slice_4_split_0
I1018 00:03:29.808619 29837 net.cpp:380] cont_5_lstm1_cont_slice_4_split -> cont_5_lstm1_cont_slice_4_split_1
I1018 00:03:29.808650 29837 net.cpp:122] Setting up cont_5_lstm1_cont_slice_4_split
I1018 00:03:29.808658 29837 net.cpp:129] Top shape: 1 5 (5)
I1018 00:03:29.808662 29837 net.cpp:129] Top shape: 1 5 (5)
I1018 00:03:29.808666 29837 net.cpp:137] Memory required for data: 1336520
I1018 00:03:29.808671 29837 layer_factory.hpp:77] Creating layer cont_6_lstm1_cont_slice_5_split
I1018 00:03:29.808677 29837 net.cpp:84] Creating Layer cont_6_lstm1_cont_slice_5_split
I1018 00:03:29.808682 29837 net.cpp:406] cont_6_lstm1_cont_slice_5_split <- cont_6
I1018 00:03:29.808691 29837 net.cpp:380] cont_6_lstm1_cont_slice_5_split -> cont_6_lstm1_cont_slice_5_split_0
I1018 00:03:29.808698 29837 net.cpp:380] cont_6_lstm1_cont_slice_5_split -> cont_6_lstm1_cont_slice_5_split_1
I1018 00:03:29.808728 29837 net.cpp:122] Setting up cont_6_lstm1_cont_slice_5_split
I1018 00:03:29.808735 29837 net.cpp:129] Top shape: 1 5 (5)
I1018 00:03:29.808740 29837 net.cpp:129] Top shape: 1 5 (5)
I1018 00:03:29.808744 29837 net.cpp:137] Memory required for data: 1336560
I1018 00:03:29.808748 29837 layer_factory.hpp:77] Creating layer cont_7_lstm1_cont_slice_6_split
I1018 00:03:29.808755 29837 net.cpp:84] Creating Layer cont_7_lstm1_cont_slice_6_split
I1018 00:03:29.808760 29837 net.cpp:406] cont_7_lstm1_cont_slice_6_split <- cont_7
I1018 00:03:29.808766 29837 net.cpp:380] cont_7_lstm1_cont_slice_6_split -> cont_7_lstm1_cont_slice_6_split_0
I1018 00:03:29.808773 29837 net.cpp:380] cont_7_lstm1_cont_slice_6_split -> cont_7_lstm1_cont_slice_6_split_1
I1018 00:03:29.808805 29837 net.cpp:122] Setting up cont_7_lstm1_cont_slice_6_split
I1018 00:03:29.808812 29837 net.cpp:129] Top shape: 1 5 (5)
I1018 00:03:29.808816 29837 net.cpp:129] Top shape: 1 5 (5)
I1018 00:03:29.808820 29837 net.cpp:137] Memory required for data: 1336600
I1018 00:03:29.808825 29837 layer_factory.hpp:77] Creating layer cont_8_lstm1_cont_slice_7_split
I1018 00:03:29.808830 29837 net.cpp:84] Creating Layer cont_8_lstm1_cont_slice_7_split
I1018 00:03:29.808835 29837 net.cpp:406] cont_8_lstm1_cont_slice_7_split <- cont_8
I1018 00:03:29.808840 29837 net.cpp:380] cont_8_lstm1_cont_slice_7_split -> cont_8_lstm1_cont_slice_7_split_0
I1018 00:03:29.808847 29837 net.cpp:380] cont_8_lstm1_cont_slice_7_split -> cont_8_lstm1_cont_slice_7_split_1
I1018 00:03:29.808879 29837 net.cpp:122] Setting up cont_8_lstm1_cont_slice_7_split
I1018 00:03:29.808887 29837 net.cpp:129] Top shape: 1 5 (5)
I1018 00:03:29.808892 29837 net.cpp:129] Top shape: 1 5 (5)
I1018 00:03:29.808895 29837 net.cpp:137] Memory required for data: 1336640
I1018 00:03:29.808899 29837 layer_factory.hpp:77] Creating layer cont_9_lstm1_cont_slice_8_split
I1018 00:03:29.808904 29837 net.cpp:84] Creating Layer cont_9_lstm1_cont_slice_8_split
I1018 00:03:29.808909 29837 net.cpp:406] cont_9_lstm1_cont_slice_8_split <- cont_9
I1018 00:03:29.808915 29837 net.cpp:380] cont_9_lstm1_cont_slice_8_split -> cont_9_lstm1_cont_slice_8_split_0
I1018 00:03:29.808923 29837 net.cpp:380] cont_9_lstm1_cont_slice_8_split -> cont_9_lstm1_cont_slice_8_split_1
I1018 00:03:29.808954 29837 net.cpp:122] Setting up cont_9_lstm1_cont_slice_8_split
I1018 00:03:29.808961 29837 net.cpp:129] Top shape: 1 5 (5)
I1018 00:03:29.808965 29837 net.cpp:129] Top shape: 1 5 (5)
I1018 00:03:29.808969 29837 net.cpp:137] Memory required for data: 1336680
I1018 00:03:29.808974 29837 layer_factory.hpp:77] Creating layer cont_10_lstm1_cont_slice_9_split
I1018 00:03:29.808979 29837 net.cpp:84] Creating Layer cont_10_lstm1_cont_slice_9_split
I1018 00:03:29.808984 29837 net.cpp:406] cont_10_lstm1_cont_slice_9_split <- cont_10
I1018 00:03:29.808992 29837 net.cpp:380] cont_10_lstm1_cont_slice_9_split -> cont_10_lstm1_cont_slice_9_split_0
I1018 00:03:29.809000 29837 net.cpp:380] cont_10_lstm1_cont_slice_9_split -> cont_10_lstm1_cont_slice_9_split_1
I1018 00:03:29.809028 29837 net.cpp:122] Setting up cont_10_lstm1_cont_slice_9_split
I1018 00:03:29.809036 29837 net.cpp:129] Top shape: 1 5 (5)
I1018 00:03:29.809041 29837 net.cpp:129] Top shape: 1 5 (5)
I1018 00:03:29.809044 29837 net.cpp:137] Memory required for data: 1336720
I1018 00:03:29.809048 29837 layer_factory.hpp:77] Creating layer cont_11_lstm1_cont_slice_10_split
I1018 00:03:29.809056 29837 net.cpp:84] Creating Layer cont_11_lstm1_cont_slice_10_split
I1018 00:03:29.809061 29837 net.cpp:406] cont_11_lstm1_cont_slice_10_split <- cont_11
I1018 00:03:29.809067 29837 net.cpp:380] cont_11_lstm1_cont_slice_10_split -> cont_11_lstm1_cont_slice_10_split_0
I1018 00:03:29.809073 29837 net.cpp:380] cont_11_lstm1_cont_slice_10_split -> cont_11_lstm1_cont_slice_10_split_1
I1018 00:03:29.809105 29837 net.cpp:122] Setting up cont_11_lstm1_cont_slice_10_split
I1018 00:03:29.809113 29837 net.cpp:129] Top shape: 1 5 (5)
I1018 00:03:29.809118 29837 net.cpp:129] Top shape: 1 5 (5)
I1018 00:03:29.809121 29837 net.cpp:137] Memory required for data: 1336760
I1018 00:03:29.809125 29837 layer_factory.hpp:77] Creating layer cont_12_lstm1_cont_slice_11_split
I1018 00:03:29.809130 29837 net.cpp:84] Creating Layer cont_12_lstm1_cont_slice_11_split
I1018 00:03:29.809135 29837 net.cpp:406] cont_12_lstm1_cont_slice_11_split <- cont_12
I1018 00:03:29.809141 29837 net.cpp:380] cont_12_lstm1_cont_slice_11_split -> cont_12_lstm1_cont_slice_11_split_0
I1018 00:03:29.809149 29837 net.cpp:380] cont_12_lstm1_cont_slice_11_split -> cont_12_lstm1_cont_slice_11_split_1
I1018 00:03:29.809180 29837 net.cpp:122] Setting up cont_12_lstm1_cont_slice_11_split
I1018 00:03:29.809186 29837 net.cpp:129] Top shape: 1 5 (5)
I1018 00:03:29.809191 29837 net.cpp:129] Top shape: 1 5 (5)
I1018 00:03:29.809195 29837 net.cpp:137] Memory required for data: 1336800
I1018 00:03:29.809200 29837 layer_factory.hpp:77] Creating layer cont_13_lstm1_cont_slice_12_split
I1018 00:03:29.809204 29837 net.cpp:84] Creating Layer cont_13_lstm1_cont_slice_12_split
I1018 00:03:29.809209 29837 net.cpp:406] cont_13_lstm1_cont_slice_12_split <- cont_13
I1018 00:03:29.809221 29837 net.cpp:380] cont_13_lstm1_cont_slice_12_split -> cont_13_lstm1_cont_slice_12_split_0
I1018 00:03:29.809227 29837 net.cpp:380] cont_13_lstm1_cont_slice_12_split -> cont_13_lstm1_cont_slice_12_split_1
I1018 00:03:29.809257 29837 net.cpp:122] Setting up cont_13_lstm1_cont_slice_12_split
I1018 00:03:29.809264 29837 net.cpp:129] Top shape: 1 5 (5)
I1018 00:03:29.809269 29837 net.cpp:129] Top shape: 1 5 (5)
I1018 00:03:29.809273 29837 net.cpp:137] Memory required for data: 1336840
I1018 00:03:29.809278 29837 layer_factory.hpp:77] Creating layer cont_14_lstm1_cont_slice_13_split
I1018 00:03:29.809286 29837 net.cpp:84] Creating Layer cont_14_lstm1_cont_slice_13_split
I1018 00:03:29.809290 29837 net.cpp:406] cont_14_lstm1_cont_slice_13_split <- cont_14
I1018 00:03:29.809298 29837 net.cpp:380] cont_14_lstm1_cont_slice_13_split -> cont_14_lstm1_cont_slice_13_split_0
I1018 00:03:29.809304 29837 net.cpp:380] cont_14_lstm1_cont_slice_13_split -> cont_14_lstm1_cont_slice_13_split_1
I1018 00:03:29.809335 29837 net.cpp:122] Setting up cont_14_lstm1_cont_slice_13_split
I1018 00:03:29.809342 29837 net.cpp:129] Top shape: 1 5 (5)
I1018 00:03:29.809347 29837 net.cpp:129] Top shape: 1 5 (5)
I1018 00:03:29.809351 29837 net.cpp:137] Memory required for data: 1336880
I1018 00:03:29.809355 29837 layer_factory.hpp:77] Creating layer cont_15_lstm1_cont_slice_14_split
I1018 00:03:29.809360 29837 net.cpp:84] Creating Layer cont_15_lstm1_cont_slice_14_split
I1018 00:03:29.809365 29837 net.cpp:406] cont_15_lstm1_cont_slice_14_split <- cont_15
I1018 00:03:29.809371 29837 net.cpp:380] cont_15_lstm1_cont_slice_14_split -> cont_15_lstm1_cont_slice_14_split_0
I1018 00:03:29.809378 29837 net.cpp:380] cont_15_lstm1_cont_slice_14_split -> cont_15_lstm1_cont_slice_14_split_1
I1018 00:03:29.809409 29837 net.cpp:122] Setting up cont_15_lstm1_cont_slice_14_split
I1018 00:03:29.809417 29837 net.cpp:129] Top shape: 1 5 (5)
I1018 00:03:29.809422 29837 net.cpp:129] Top shape: 1 5 (5)
I1018 00:03:29.809427 29837 net.cpp:137] Memory required for data: 1336920
I1018 00:03:29.809432 29837 layer_factory.hpp:77] Creating layer cont_16_lstm1_cont_slice_15_split
I1018 00:03:29.809437 29837 net.cpp:84] Creating Layer cont_16_lstm1_cont_slice_15_split
I1018 00:03:29.809442 29837 net.cpp:406] cont_16_lstm1_cont_slice_15_split <- cont_16
I1018 00:03:29.809447 29837 net.cpp:380] cont_16_lstm1_cont_slice_15_split -> cont_16_lstm1_cont_slice_15_split_0
I1018 00:03:29.809459 29837 net.cpp:380] cont_16_lstm1_cont_slice_15_split -> cont_16_lstm1_cont_slice_15_split_1
I1018 00:03:29.809489 29837 net.cpp:122] Setting up cont_16_lstm1_cont_slice_15_split
I1018 00:03:29.809495 29837 net.cpp:129] Top shape: 1 5 (5)
I1018 00:03:29.809500 29837 net.cpp:129] Top shape: 1 5 (5)
I1018 00:03:29.809504 29837 net.cpp:137] Memory required for data: 1336960
I1018 00:03:29.809509 29837 layer_factory.hpp:77] Creating layer cont_17_lstm1_cont_slice_16_split
I1018 00:03:29.809516 29837 net.cpp:84] Creating Layer cont_17_lstm1_cont_slice_16_split
I1018 00:03:29.809520 29837 net.cpp:406] cont_17_lstm1_cont_slice_16_split <- cont_17
I1018 00:03:29.809526 29837 net.cpp:380] cont_17_lstm1_cont_slice_16_split -> cont_17_lstm1_cont_slice_16_split_0
I1018 00:03:29.809533 29837 net.cpp:380] cont_17_lstm1_cont_slice_16_split -> cont_17_lstm1_cont_slice_16_split_1
I1018 00:03:29.809566 29837 net.cpp:122] Setting up cont_17_lstm1_cont_slice_16_split
I1018 00:03:29.809572 29837 net.cpp:129] Top shape: 1 5 (5)
I1018 00:03:29.809576 29837 net.cpp:129] Top shape: 1 5 (5)
I1018 00:03:29.809581 29837 net.cpp:137] Memory required for data: 1337000
I1018 00:03:29.809586 29837 layer_factory.hpp:77] Creating layer cont_18_lstm1_cont_slice_17_split
I1018 00:03:29.809590 29837 net.cpp:84] Creating Layer cont_18_lstm1_cont_slice_17_split
I1018 00:03:29.809594 29837 net.cpp:406] cont_18_lstm1_cont_slice_17_split <- cont_18
I1018 00:03:29.809600 29837 net.cpp:380] cont_18_lstm1_cont_slice_17_split -> cont_18_lstm1_cont_slice_17_split_0
I1018 00:03:29.809607 29837 net.cpp:380] cont_18_lstm1_cont_slice_17_split -> cont_18_lstm1_cont_slice_17_split_1
I1018 00:03:29.809638 29837 net.cpp:122] Setting up cont_18_lstm1_cont_slice_17_split
I1018 00:03:29.809645 29837 net.cpp:129] Top shape: 1 5 (5)
I1018 00:03:29.809650 29837 net.cpp:129] Top shape: 1 5 (5)
I1018 00:03:29.809654 29837 net.cpp:137] Memory required for data: 1337040
I1018 00:03:29.809659 29837 layer_factory.hpp:77] Creating layer cont_19_lstm1_cont_slice_18_split
I1018 00:03:29.809664 29837 net.cpp:84] Creating Layer cont_19_lstm1_cont_slice_18_split
I1018 00:03:29.809669 29837 net.cpp:406] cont_19_lstm1_cont_slice_18_split <- cont_19
I1018 00:03:29.809674 29837 net.cpp:380] cont_19_lstm1_cont_slice_18_split -> cont_19_lstm1_cont_slice_18_split_0
I1018 00:03:29.809681 29837 net.cpp:380] cont_19_lstm1_cont_slice_18_split -> cont_19_lstm1_cont_slice_18_split_1
I1018 00:03:29.809713 29837 net.cpp:122] Setting up cont_19_lstm1_cont_slice_18_split
I1018 00:03:29.809720 29837 net.cpp:129] Top shape: 1 5 (5)
I1018 00:03:29.809725 29837 net.cpp:129] Top shape: 1 5 (5)
I1018 00:03:29.809728 29837 net.cpp:137] Memory required for data: 1337080
I1018 00:03:29.809733 29837 layer_factory.hpp:77] Creating layer cont_20_lstm1_cont_slice_19_split
I1018 00:03:29.809738 29837 net.cpp:84] Creating Layer cont_20_lstm1_cont_slice_19_split
I1018 00:03:29.809743 29837 net.cpp:406] cont_20_lstm1_cont_slice_19_split <- cont_20
I1018 00:03:29.809751 29837 net.cpp:380] cont_20_lstm1_cont_slice_19_split -> cont_20_lstm1_cont_slice_19_split_0
I1018 00:03:29.809758 29837 net.cpp:380] cont_20_lstm1_cont_slice_19_split -> cont_20_lstm1_cont_slice_19_split_1
I1018 00:03:29.809787 29837 net.cpp:122] Setting up cont_20_lstm1_cont_slice_19_split
I1018 00:03:29.809794 29837 net.cpp:129] Top shape: 1 5 (5)
I1018 00:03:29.809799 29837 net.cpp:129] Top shape: 1 5 (5)
I1018 00:03:29.809803 29837 net.cpp:137] Memory required for data: 1337120
I1018 00:03:29.809808 29837 layer_factory.hpp:77] Creating layer cont_21_lstm1_cont_slice_20_split
I1018 00:03:29.809815 29837 net.cpp:84] Creating Layer cont_21_lstm1_cont_slice_20_split
I1018 00:03:29.809819 29837 net.cpp:406] cont_21_lstm1_cont_slice_20_split <- cont_21
I1018 00:03:29.809825 29837 net.cpp:380] cont_21_lstm1_cont_slice_20_split -> cont_21_lstm1_cont_slice_20_split_0
I1018 00:03:29.809833 29837 net.cpp:380] cont_21_lstm1_cont_slice_20_split -> cont_21_lstm1_cont_slice_20_split_1
I1018 00:03:29.809864 29837 net.cpp:122] Setting up cont_21_lstm1_cont_slice_20_split
I1018 00:03:29.809870 29837 net.cpp:129] Top shape: 1 5 (5)
I1018 00:03:29.809875 29837 net.cpp:129] Top shape: 1 5 (5)
I1018 00:03:29.809880 29837 net.cpp:137] Memory required for data: 1337160
I1018 00:03:29.809883 29837 layer_factory.hpp:77] Creating layer cont_22_lstm1_cont_slice_21_split
I1018 00:03:29.809888 29837 net.cpp:84] Creating Layer cont_22_lstm1_cont_slice_21_split
I1018 00:03:29.809893 29837 net.cpp:406] cont_22_lstm1_cont_slice_21_split <- cont_22
I1018 00:03:29.809900 29837 net.cpp:380] cont_22_lstm1_cont_slice_21_split -> cont_22_lstm1_cont_slice_21_split_0
I1018 00:03:29.809906 29837 net.cpp:380] cont_22_lstm1_cont_slice_21_split -> cont_22_lstm1_cont_slice_21_split_1
I1018 00:03:29.809937 29837 net.cpp:122] Setting up cont_22_lstm1_cont_slice_21_split
I1018 00:03:29.809943 29837 net.cpp:129] Top shape: 1 5 (5)
I1018 00:03:29.809948 29837 net.cpp:129] Top shape: 1 5 (5)
I1018 00:03:29.809952 29837 net.cpp:137] Memory required for data: 1337200
I1018 00:03:29.809957 29837 layer_factory.hpp:77] Creating layer cont_23_lstm1_cont_slice_22_split
I1018 00:03:29.809962 29837 net.cpp:84] Creating Layer cont_23_lstm1_cont_slice_22_split
I1018 00:03:29.809967 29837 net.cpp:406] cont_23_lstm1_cont_slice_22_split <- cont_23
I1018 00:03:29.809973 29837 net.cpp:380] cont_23_lstm1_cont_slice_22_split -> cont_23_lstm1_cont_slice_22_split_0
I1018 00:03:29.809979 29837 net.cpp:380] cont_23_lstm1_cont_slice_22_split -> cont_23_lstm1_cont_slice_22_split_1
I1018 00:03:29.810014 29837 net.cpp:122] Setting up cont_23_lstm1_cont_slice_22_split
I1018 00:03:29.810019 29837 net.cpp:129] Top shape: 1 5 (5)
I1018 00:03:29.810024 29837 net.cpp:129] Top shape: 1 5 (5)
I1018 00:03:29.810029 29837 net.cpp:137] Memory required for data: 1337240
I1018 00:03:29.810032 29837 layer_factory.hpp:77] Creating layer cont_24_lstm1_cont_slice_23_split
I1018 00:03:29.810039 29837 net.cpp:84] Creating Layer cont_24_lstm1_cont_slice_23_split
I1018 00:03:29.810042 29837 net.cpp:406] cont_24_lstm1_cont_slice_23_split <- cont_24
I1018 00:03:29.810050 29837 net.cpp:380] cont_24_lstm1_cont_slice_23_split -> cont_24_lstm1_cont_slice_23_split_0
I1018 00:03:29.810057 29837 net.cpp:380] cont_24_lstm1_cont_slice_23_split -> cont_24_lstm1_cont_slice_23_split_1
I1018 00:03:29.810088 29837 net.cpp:122] Setting up cont_24_lstm1_cont_slice_23_split
I1018 00:03:29.810096 29837 net.cpp:129] Top shape: 1 5 (5)
I1018 00:03:29.810101 29837 net.cpp:129] Top shape: 1 5 (5)
I1018 00:03:29.810104 29837 net.cpp:137] Memory required for data: 1337280
I1018 00:03:29.810108 29837 layer_factory.hpp:77] Creating layer cont_25_lstm1_cont_slice_24_split
I1018 00:03:29.810113 29837 net.cpp:84] Creating Layer cont_25_lstm1_cont_slice_24_split
I1018 00:03:29.810118 29837 net.cpp:406] cont_25_lstm1_cont_slice_24_split <- cont_25
I1018 00:03:29.810124 29837 net.cpp:380] cont_25_lstm1_cont_slice_24_split -> cont_25_lstm1_cont_slice_24_split_0
I1018 00:03:29.810130 29837 net.cpp:380] cont_25_lstm1_cont_slice_24_split -> cont_25_lstm1_cont_slice_24_split_1
I1018 00:03:29.810161 29837 net.cpp:122] Setting up cont_25_lstm1_cont_slice_24_split
I1018 00:03:29.810168 29837 net.cpp:129] Top shape: 1 5 (5)
I1018 00:03:29.810173 29837 net.cpp:129] Top shape: 1 5 (5)
I1018 00:03:29.810178 29837 net.cpp:137] Memory required for data: 1337320
I1018 00:03:29.810181 29837 layer_factory.hpp:77] Creating layer cont_26_lstm1_cont_slice_25_split
I1018 00:03:29.810187 29837 net.cpp:84] Creating Layer cont_26_lstm1_cont_slice_25_split
I1018 00:03:29.810191 29837 net.cpp:406] cont_26_lstm1_cont_slice_25_split <- cont_26
I1018 00:03:29.810197 29837 net.cpp:380] cont_26_lstm1_cont_slice_25_split -> cont_26_lstm1_cont_slice_25_split_0
I1018 00:03:29.810204 29837 net.cpp:380] cont_26_lstm1_cont_slice_25_split -> cont_26_lstm1_cont_slice_25_split_1
I1018 00:03:29.810235 29837 net.cpp:122] Setting up cont_26_lstm1_cont_slice_25_split
I1018 00:03:29.810242 29837 net.cpp:129] Top shape: 1 5 (5)
I1018 00:03:29.810246 29837 net.cpp:129] Top shape: 1 5 (5)
I1018 00:03:29.810250 29837 net.cpp:137] Memory required for data: 1337360
I1018 00:03:29.810256 29837 layer_factory.hpp:77] Creating layer cont_27_lstm1_cont_slice_26_split
I1018 00:03:29.810261 29837 net.cpp:84] Creating Layer cont_27_lstm1_cont_slice_26_split
I1018 00:03:29.810264 29837 net.cpp:406] cont_27_lstm1_cont_slice_26_split <- cont_27
I1018 00:03:29.810272 29837 net.cpp:380] cont_27_lstm1_cont_slice_26_split -> cont_27_lstm1_cont_slice_26_split_0
I1018 00:03:29.810279 29837 net.cpp:380] cont_27_lstm1_cont_slice_26_split -> cont_27_lstm1_cont_slice_26_split_1
I1018 00:03:29.810308 29837 net.cpp:122] Setting up cont_27_lstm1_cont_slice_26_split
I1018 00:03:29.810314 29837 net.cpp:129] Top shape: 1 5 (5)
I1018 00:03:29.810319 29837 net.cpp:129] Top shape: 1 5 (5)
I1018 00:03:29.810323 29837 net.cpp:137] Memory required for data: 1337400
I1018 00:03:29.810328 29837 layer_factory.hpp:77] Creating layer cont_28_lstm1_cont_slice_27_split
I1018 00:03:29.810335 29837 net.cpp:84] Creating Layer cont_28_lstm1_cont_slice_27_split
I1018 00:03:29.810339 29837 net.cpp:406] cont_28_lstm1_cont_slice_27_split <- cont_28
I1018 00:03:29.810345 29837 net.cpp:380] cont_28_lstm1_cont_slice_27_split -> cont_28_lstm1_cont_slice_27_split_0
I1018 00:03:29.810353 29837 net.cpp:380] cont_28_lstm1_cont_slice_27_split -> cont_28_lstm1_cont_slice_27_split_1
I1018 00:03:29.810382 29837 net.cpp:122] Setting up cont_28_lstm1_cont_slice_27_split
I1018 00:03:29.810389 29837 net.cpp:129] Top shape: 1 5 (5)
I1018 00:03:29.810395 29837 net.cpp:129] Top shape: 1 5 (5)
I1018 00:03:29.810398 29837 net.cpp:137] Memory required for data: 1337440
I1018 00:03:29.810402 29837 layer_factory.hpp:77] Creating layer cont_29_lstm1_cont_slice_28_split
I1018 00:03:29.810408 29837 net.cpp:84] Creating Layer cont_29_lstm1_cont_slice_28_split
I1018 00:03:29.810412 29837 net.cpp:406] cont_29_lstm1_cont_slice_28_split <- cont_29
I1018 00:03:29.810418 29837 net.cpp:380] cont_29_lstm1_cont_slice_28_split -> cont_29_lstm1_cont_slice_28_split_0
I1018 00:03:29.810425 29837 net.cpp:380] cont_29_lstm1_cont_slice_28_split -> cont_29_lstm1_cont_slice_28_split_1
I1018 00:03:29.810456 29837 net.cpp:122] Setting up cont_29_lstm1_cont_slice_28_split
I1018 00:03:29.810463 29837 net.cpp:129] Top shape: 1 5 (5)
I1018 00:03:29.810467 29837 net.cpp:129] Top shape: 1 5 (5)
I1018 00:03:29.810472 29837 net.cpp:137] Memory required for data: 1337480
I1018 00:03:29.810477 29837 layer_factory.hpp:77] Creating layer cont_30_lstm1_cont_slice_29_split
I1018 00:03:29.810483 29837 net.cpp:84] Creating Layer cont_30_lstm1_cont_slice_29_split
I1018 00:03:29.810488 29837 net.cpp:406] cont_30_lstm1_cont_slice_29_split <- cont_30
I1018 00:03:29.810497 29837 net.cpp:380] cont_30_lstm1_cont_slice_29_split -> cont_30_lstm1_cont_slice_29_split_0
I1018 00:03:29.810505 29837 net.cpp:380] cont_30_lstm1_cont_slice_29_split -> cont_30_lstm1_cont_slice_29_split_1
I1018 00:03:29.810534 29837 net.cpp:122] Setting up cont_30_lstm1_cont_slice_29_split
I1018 00:03:29.810541 29837 net.cpp:129] Top shape: 1 5 (5)
I1018 00:03:29.810546 29837 net.cpp:129] Top shape: 1 5 (5)
I1018 00:03:29.810549 29837 net.cpp:137] Memory required for data: 1337520
I1018 00:03:29.810554 29837 layer_factory.hpp:77] Creating layer cont_31_lstm1_cont_slice_30_split
I1018 00:03:29.810561 29837 net.cpp:84] Creating Layer cont_31_lstm1_cont_slice_30_split
I1018 00:03:29.810566 29837 net.cpp:406] cont_31_lstm1_cont_slice_30_split <- cont_31
I1018 00:03:29.810572 29837 net.cpp:380] cont_31_lstm1_cont_slice_30_split -> cont_31_lstm1_cont_slice_30_split_0
I1018 00:03:29.810578 29837 net.cpp:380] cont_31_lstm1_cont_slice_30_split -> cont_31_lstm1_cont_slice_30_split_1
I1018 00:03:29.810609 29837 net.cpp:122] Setting up cont_31_lstm1_cont_slice_30_split
I1018 00:03:29.810616 29837 net.cpp:129] Top shape: 1 5 (5)
I1018 00:03:29.810621 29837 net.cpp:129] Top shape: 1 5 (5)
I1018 00:03:29.810626 29837 net.cpp:137] Memory required for data: 1337560
I1018 00:03:29.810629 29837 layer_factory.hpp:77] Creating layer cont_32_lstm1_cont_slice_31_split
I1018 00:03:29.810636 29837 net.cpp:84] Creating Layer cont_32_lstm1_cont_slice_31_split
I1018 00:03:29.810639 29837 net.cpp:406] cont_32_lstm1_cont_slice_31_split <- cont_32
I1018 00:03:29.810645 29837 net.cpp:380] cont_32_lstm1_cont_slice_31_split -> cont_32_lstm1_cont_slice_31_split_0
I1018 00:03:29.810652 29837 net.cpp:380] cont_32_lstm1_cont_slice_31_split -> cont_32_lstm1_cont_slice_31_split_1
I1018 00:03:29.810683 29837 net.cpp:122] Setting up cont_32_lstm1_cont_slice_31_split
I1018 00:03:29.810690 29837 net.cpp:129] Top shape: 1 5 (5)
I1018 00:03:29.810694 29837 net.cpp:129] Top shape: 1 5 (5)
I1018 00:03:29.810698 29837 net.cpp:137] Memory required for data: 1337600
I1018 00:03:29.810703 29837 layer_factory.hpp:77] Creating layer cont_33_lstm1_cont_slice_32_split
I1018 00:03:29.810708 29837 net.cpp:84] Creating Layer cont_33_lstm1_cont_slice_32_split
I1018 00:03:29.810714 29837 net.cpp:406] cont_33_lstm1_cont_slice_32_split <- cont_33
I1018 00:03:29.810719 29837 net.cpp:380] cont_33_lstm1_cont_slice_32_split -> cont_33_lstm1_cont_slice_32_split_0
I1018 00:03:29.810726 29837 net.cpp:380] cont_33_lstm1_cont_slice_32_split -> cont_33_lstm1_cont_slice_32_split_1
I1018 00:03:29.810757 29837 net.cpp:122] Setting up cont_33_lstm1_cont_slice_32_split
I1018 00:03:29.810763 29837 net.cpp:129] Top shape: 1 5 (5)
I1018 00:03:29.810768 29837 net.cpp:129] Top shape: 1 5 (5)
I1018 00:03:29.810773 29837 net.cpp:137] Memory required for data: 1337640
I1018 00:03:29.810777 29837 layer_factory.hpp:77] Creating layer cont_34_lstm1_cont_slice_33_split
I1018 00:03:29.810782 29837 net.cpp:84] Creating Layer cont_34_lstm1_cont_slice_33_split
I1018 00:03:29.810787 29837 net.cpp:406] cont_34_lstm1_cont_slice_33_split <- cont_34
I1018 00:03:29.810794 29837 net.cpp:380] cont_34_lstm1_cont_slice_33_split -> cont_34_lstm1_cont_slice_33_split_0
I1018 00:03:29.810801 29837 net.cpp:380] cont_34_lstm1_cont_slice_33_split -> cont_34_lstm1_cont_slice_33_split_1
I1018 00:03:29.810832 29837 net.cpp:122] Setting up cont_34_lstm1_cont_slice_33_split
I1018 00:03:29.810839 29837 net.cpp:129] Top shape: 1 5 (5)
I1018 00:03:29.810844 29837 net.cpp:129] Top shape: 1 5 (5)
I1018 00:03:29.810848 29837 net.cpp:137] Memory required for data: 1337680
I1018 00:03:29.810853 29837 layer_factory.hpp:77] Creating layer cont_35_lstm1_cont_slice_34_split
I1018 00:03:29.810858 29837 net.cpp:84] Creating Layer cont_35_lstm1_cont_slice_34_split
I1018 00:03:29.810863 29837 net.cpp:406] cont_35_lstm1_cont_slice_34_split <- cont_35
I1018 00:03:29.810868 29837 net.cpp:380] cont_35_lstm1_cont_slice_34_split -> cont_35_lstm1_cont_slice_34_split_0
I1018 00:03:29.810875 29837 net.cpp:380] cont_35_lstm1_cont_slice_34_split -> cont_35_lstm1_cont_slice_34_split_1
I1018 00:03:29.810906 29837 net.cpp:122] Setting up cont_35_lstm1_cont_slice_34_split
I1018 00:03:29.810914 29837 net.cpp:129] Top shape: 1 5 (5)
I1018 00:03:29.810919 29837 net.cpp:129] Top shape: 1 5 (5)
I1018 00:03:29.810922 29837 net.cpp:137] Memory required for data: 1337720
I1018 00:03:29.810926 29837 layer_factory.hpp:77] Creating layer cont_36_lstm1_cont_slice_35_split
I1018 00:03:29.810932 29837 net.cpp:84] Creating Layer cont_36_lstm1_cont_slice_35_split
I1018 00:03:29.810936 29837 net.cpp:406] cont_36_lstm1_cont_slice_35_split <- cont_36
I1018 00:03:29.810942 29837 net.cpp:380] cont_36_lstm1_cont_slice_35_split -> cont_36_lstm1_cont_slice_35_split_0
I1018 00:03:29.810950 29837 net.cpp:380] cont_36_lstm1_cont_slice_35_split -> cont_36_lstm1_cont_slice_35_split_1
I1018 00:03:29.810981 29837 net.cpp:122] Setting up cont_36_lstm1_cont_slice_35_split
I1018 00:03:29.810987 29837 net.cpp:129] Top shape: 1 5 (5)
I1018 00:03:29.810992 29837 net.cpp:129] Top shape: 1 5 (5)
I1018 00:03:29.810995 29837 net.cpp:137] Memory required for data: 1337760
I1018 00:03:29.811000 29837 layer_factory.hpp:77] Creating layer cont_37_lstm1_cont_slice_36_split
I1018 00:03:29.811005 29837 net.cpp:84] Creating Layer cont_37_lstm1_cont_slice_36_split
I1018 00:03:29.811009 29837 net.cpp:406] cont_37_lstm1_cont_slice_36_split <- cont_37
I1018 00:03:29.811017 29837 net.cpp:380] cont_37_lstm1_cont_slice_36_split -> cont_37_lstm1_cont_slice_36_split_0
I1018 00:03:29.811024 29837 net.cpp:380] cont_37_lstm1_cont_slice_36_split -> cont_37_lstm1_cont_slice_36_split_1
I1018 00:03:29.811053 29837 net.cpp:122] Setting up cont_37_lstm1_cont_slice_36_split
I1018 00:03:29.811060 29837 net.cpp:129] Top shape: 1 5 (5)
I1018 00:03:29.811065 29837 net.cpp:129] Top shape: 1 5 (5)
I1018 00:03:29.811069 29837 net.cpp:137] Memory required for data: 1337800
I1018 00:03:29.811074 29837 layer_factory.hpp:77] Creating layer cont_38_lstm1_cont_slice_37_split
I1018 00:03:29.811081 29837 net.cpp:84] Creating Layer cont_38_lstm1_cont_slice_37_split
I1018 00:03:29.811085 29837 net.cpp:406] cont_38_lstm1_cont_slice_37_split <- cont_38
I1018 00:03:29.811091 29837 net.cpp:380] cont_38_lstm1_cont_slice_37_split -> cont_38_lstm1_cont_slice_37_split_0
I1018 00:03:29.811098 29837 net.cpp:380] cont_38_lstm1_cont_slice_37_split -> cont_38_lstm1_cont_slice_37_split_1
I1018 00:03:29.811131 29837 net.cpp:122] Setting up cont_38_lstm1_cont_slice_37_split
I1018 00:03:29.811138 29837 net.cpp:129] Top shape: 1 5 (5)
I1018 00:03:29.811143 29837 net.cpp:129] Top shape: 1 5 (5)
I1018 00:03:29.811147 29837 net.cpp:137] Memory required for data: 1337840
I1018 00:03:29.811151 29837 layer_factory.hpp:77] Creating layer cont_39_lstm1_cont_slice_38_split
I1018 00:03:29.811158 29837 net.cpp:84] Creating Layer cont_39_lstm1_cont_slice_38_split
I1018 00:03:29.811162 29837 net.cpp:406] cont_39_lstm1_cont_slice_38_split <- cont_39
I1018 00:03:29.811168 29837 net.cpp:380] cont_39_lstm1_cont_slice_38_split -> cont_39_lstm1_cont_slice_38_split_0
I1018 00:03:29.811177 29837 net.cpp:380] cont_39_lstm1_cont_slice_38_split -> cont_39_lstm1_cont_slice_38_split_1
I1018 00:03:29.811208 29837 net.cpp:122] Setting up cont_39_lstm1_cont_slice_38_split
I1018 00:03:29.811214 29837 net.cpp:129] Top shape: 1 5 (5)
I1018 00:03:29.811219 29837 net.cpp:129] Top shape: 1 5 (5)
I1018 00:03:29.811223 29837 net.cpp:137] Memory required for data: 1337880
I1018 00:03:29.811228 29837 layer_factory.hpp:77] Creating layer cont_40_lstm1_cont_slice_39_split
I1018 00:03:29.811233 29837 net.cpp:84] Creating Layer cont_40_lstm1_cont_slice_39_split
I1018 00:03:29.811236 29837 net.cpp:406] cont_40_lstm1_cont_slice_39_split <- cont_40
I1018 00:03:29.811244 29837 net.cpp:380] cont_40_lstm1_cont_slice_39_split -> cont_40_lstm1_cont_slice_39_split_0
I1018 00:03:29.811250 29837 net.cpp:380] cont_40_lstm1_cont_slice_39_split -> cont_40_lstm1_cont_slice_39_split_1
I1018 00:03:29.811285 29837 net.cpp:122] Setting up cont_40_lstm1_cont_slice_39_split
I1018 00:03:29.811291 29837 net.cpp:129] Top shape: 1 5 (5)
I1018 00:03:29.811296 29837 net.cpp:129] Top shape: 1 5 (5)
I1018 00:03:29.811300 29837 net.cpp:137] Memory required for data: 1337920
I1018 00:03:29.811305 29837 layer_factory.hpp:77] Creating layer cont_41_lstm1_cont_slice_40_split
I1018 00:03:29.811309 29837 net.cpp:84] Creating Layer cont_41_lstm1_cont_slice_40_split
I1018 00:03:29.811314 29837 net.cpp:406] cont_41_lstm1_cont_slice_40_split <- cont_41
I1018 00:03:29.811322 29837 net.cpp:380] cont_41_lstm1_cont_slice_40_split -> cont_41_lstm1_cont_slice_40_split_0
I1018 00:03:29.811331 29837 net.cpp:380] cont_41_lstm1_cont_slice_40_split -> cont_41_lstm1_cont_slice_40_split_1
I1018 00:03:29.811358 29837 net.cpp:122] Setting up cont_41_lstm1_cont_slice_40_split
I1018 00:03:29.811365 29837 net.cpp:129] Top shape: 1 5 (5)
I1018 00:03:29.811370 29837 net.cpp:129] Top shape: 1 5 (5)
I1018 00:03:29.811374 29837 net.cpp:137] Memory required for data: 1337960
I1018 00:03:29.811378 29837 layer_factory.hpp:77] Creating layer cont_42_lstm1_cont_slice_41_split
I1018 00:03:29.811385 29837 net.cpp:84] Creating Layer cont_42_lstm1_cont_slice_41_split
I1018 00:03:29.811390 29837 net.cpp:406] cont_42_lstm1_cont_slice_41_split <- cont_42
I1018 00:03:29.811396 29837 net.cpp:380] cont_42_lstm1_cont_slice_41_split -> cont_42_lstm1_cont_slice_41_split_0
I1018 00:03:29.811403 29837 net.cpp:380] cont_42_lstm1_cont_slice_41_split -> cont_42_lstm1_cont_slice_41_split_1
I1018 00:03:29.811434 29837 net.cpp:122] Setting up cont_42_lstm1_cont_slice_41_split
I1018 00:03:29.811441 29837 net.cpp:129] Top shape: 1 5 (5)
I1018 00:03:29.811446 29837 net.cpp:129] Top shape: 1 5 (5)
I1018 00:03:29.811450 29837 net.cpp:137] Memory required for data: 1338000
I1018 00:03:29.811455 29837 layer_factory.hpp:77] Creating layer cont_43_lstm1_cont_slice_42_split
I1018 00:03:29.811460 29837 net.cpp:84] Creating Layer cont_43_lstm1_cont_slice_42_split
I1018 00:03:29.811465 29837 net.cpp:406] cont_43_lstm1_cont_slice_42_split <- cont_43
I1018 00:03:29.811470 29837 net.cpp:380] cont_43_lstm1_cont_slice_42_split -> cont_43_lstm1_cont_slice_42_split_0
I1018 00:03:29.811477 29837 net.cpp:380] cont_43_lstm1_cont_slice_42_split -> cont_43_lstm1_cont_slice_42_split_1
I1018 00:03:29.811508 29837 net.cpp:122] Setting up cont_43_lstm1_cont_slice_42_split
I1018 00:03:29.811516 29837 net.cpp:129] Top shape: 1 5 (5)
I1018 00:03:29.811520 29837 net.cpp:129] Top shape: 1 5 (5)
I1018 00:03:29.811524 29837 net.cpp:137] Memory required for data: 1338040
I1018 00:03:29.811528 29837 layer_factory.hpp:77] Creating layer cont_44_lstm1_cont_slice_43_split
I1018 00:03:29.811533 29837 net.cpp:84] Creating Layer cont_44_lstm1_cont_slice_43_split
I1018 00:03:29.811538 29837 net.cpp:406] cont_44_lstm1_cont_slice_43_split <- cont_44
I1018 00:03:29.811547 29837 net.cpp:380] cont_44_lstm1_cont_slice_43_split -> cont_44_lstm1_cont_slice_43_split_0
I1018 00:03:29.811553 29837 net.cpp:380] cont_44_lstm1_cont_slice_43_split -> cont_44_lstm1_cont_slice_43_split_1
I1018 00:03:29.811581 29837 net.cpp:122] Setting up cont_44_lstm1_cont_slice_43_split
I1018 00:03:29.811589 29837 net.cpp:129] Top shape: 1 5 (5)
I1018 00:03:29.811594 29837 net.cpp:129] Top shape: 1 5 (5)
I1018 00:03:29.811597 29837 net.cpp:137] Memory required for data: 1338080
I1018 00:03:29.811601 29837 layer_factory.hpp:77] Creating layer cont_45_lstm1_cont_slice_44_split
I1018 00:03:29.811609 29837 net.cpp:84] Creating Layer cont_45_lstm1_cont_slice_44_split
I1018 00:03:29.811614 29837 net.cpp:406] cont_45_lstm1_cont_slice_44_split <- cont_45
I1018 00:03:29.811619 29837 net.cpp:380] cont_45_lstm1_cont_slice_44_split -> cont_45_lstm1_cont_slice_44_split_0
I1018 00:03:29.811626 29837 net.cpp:380] cont_45_lstm1_cont_slice_44_split -> cont_45_lstm1_cont_slice_44_split_1
I1018 00:03:29.811657 29837 net.cpp:122] Setting up cont_45_lstm1_cont_slice_44_split
I1018 00:03:29.811664 29837 net.cpp:129] Top shape: 1 5 (5)
I1018 00:03:29.811669 29837 net.cpp:129] Top shape: 1 5 (5)
I1018 00:03:29.811673 29837 net.cpp:137] Memory required for data: 1338120
I1018 00:03:29.811677 29837 layer_factory.hpp:77] Creating layer cont_46_lstm1_cont_slice_45_split
I1018 00:03:29.811682 29837 net.cpp:84] Creating Layer cont_46_lstm1_cont_slice_45_split
I1018 00:03:29.811687 29837 net.cpp:406] cont_46_lstm1_cont_slice_45_split <- cont_46
I1018 00:03:29.811693 29837 net.cpp:380] cont_46_lstm1_cont_slice_45_split -> cont_46_lstm1_cont_slice_45_split_0
I1018 00:03:29.811699 29837 net.cpp:380] cont_46_lstm1_cont_slice_45_split -> cont_46_lstm1_cont_slice_45_split_1
I1018 00:03:29.811731 29837 net.cpp:122] Setting up cont_46_lstm1_cont_slice_45_split
I1018 00:03:29.811741 29837 net.cpp:129] Top shape: 1 5 (5)
I1018 00:03:29.811746 29837 net.cpp:129] Top shape: 1 5 (5)
I1018 00:03:29.811750 29837 net.cpp:137] Memory required for data: 1338160
I1018 00:03:29.811754 29837 layer_factory.hpp:77] Creating layer cont_47_lstm1_cont_slice_46_split
I1018 00:03:29.811759 29837 net.cpp:84] Creating Layer cont_47_lstm1_cont_slice_46_split
I1018 00:03:29.811764 29837 net.cpp:406] cont_47_lstm1_cont_slice_46_split <- cont_47
I1018 00:03:29.811769 29837 net.cpp:380] cont_47_lstm1_cont_slice_46_split -> cont_47_lstm1_cont_slice_46_split_0
I1018 00:03:29.811776 29837 net.cpp:380] cont_47_lstm1_cont_slice_46_split -> cont_47_lstm1_cont_slice_46_split_1
I1018 00:03:29.811808 29837 net.cpp:122] Setting up cont_47_lstm1_cont_slice_46_split
I1018 00:03:29.811815 29837 net.cpp:129] Top shape: 1 5 (5)
I1018 00:03:29.811820 29837 net.cpp:129] Top shape: 1 5 (5)
I1018 00:03:29.811823 29837 net.cpp:137] Memory required for data: 1338200
I1018 00:03:29.811827 29837 layer_factory.hpp:77] Creating layer cont_48_lstm1_cont_slice_47_split
I1018 00:03:29.811833 29837 net.cpp:84] Creating Layer cont_48_lstm1_cont_slice_47_split
I1018 00:03:29.811837 29837 net.cpp:406] cont_48_lstm1_cont_slice_47_split <- cont_48
I1018 00:03:29.811846 29837 net.cpp:380] cont_48_lstm1_cont_slice_47_split -> cont_48_lstm1_cont_slice_47_split_0
I1018 00:03:29.811852 29837 net.cpp:380] cont_48_lstm1_cont_slice_47_split -> cont_48_lstm1_cont_slice_47_split_1
I1018 00:03:29.811882 29837 net.cpp:122] Setting up cont_48_lstm1_cont_slice_47_split
I1018 00:03:29.811888 29837 net.cpp:129] Top shape: 1 5 (5)
I1018 00:03:29.811892 29837 net.cpp:129] Top shape: 1 5 (5)
I1018 00:03:29.811897 29837 net.cpp:137] Memory required for data: 1338240
I1018 00:03:29.811900 29837 layer_factory.hpp:77] Creating layer cont_49_lstm1_cont_slice_48_split
I1018 00:03:29.811908 29837 net.cpp:84] Creating Layer cont_49_lstm1_cont_slice_48_split
I1018 00:03:29.811913 29837 net.cpp:406] cont_49_lstm1_cont_slice_48_split <- cont_49
I1018 00:03:29.811918 29837 net.cpp:380] cont_49_lstm1_cont_slice_48_split -> cont_49_lstm1_cont_slice_48_split_0
I1018 00:03:29.811926 29837 net.cpp:380] cont_49_lstm1_cont_slice_48_split -> cont_49_lstm1_cont_slice_48_split_1
I1018 00:03:29.811956 29837 net.cpp:122] Setting up cont_49_lstm1_cont_slice_48_split
I1018 00:03:29.811964 29837 net.cpp:129] Top shape: 1 5 (5)
I1018 00:03:29.811969 29837 net.cpp:129] Top shape: 1 5 (5)
I1018 00:03:29.811972 29837 net.cpp:137] Memory required for data: 1338280
I1018 00:03:29.811976 29837 layer_factory.hpp:77] Creating layer cont_50_lstm1_cont_slice_49_split
I1018 00:03:29.811982 29837 net.cpp:84] Creating Layer cont_50_lstm1_cont_slice_49_split
I1018 00:03:29.811986 29837 net.cpp:406] cont_50_lstm1_cont_slice_49_split <- cont_50
I1018 00:03:29.811992 29837 net.cpp:380] cont_50_lstm1_cont_slice_49_split -> cont_50_lstm1_cont_slice_49_split_0
I1018 00:03:29.812000 29837 net.cpp:380] cont_50_lstm1_cont_slice_49_split -> cont_50_lstm1_cont_slice_49_split_1
I1018 00:03:29.812045 29837 net.cpp:122] Setting up cont_50_lstm1_cont_slice_49_split
I1018 00:03:29.812055 29837 net.cpp:129] Top shape: 1 5 (5)
I1018 00:03:29.812060 29837 net.cpp:129] Top shape: 1 5 (5)
I1018 00:03:29.812064 29837 net.cpp:137] Memory required for data: 1338320
I1018 00:03:29.812068 29837 layer_factory.hpp:77] Creating layer cont_51_lstm1_cont_slice_50_split
I1018 00:03:29.812074 29837 net.cpp:84] Creating Layer cont_51_lstm1_cont_slice_50_split
I1018 00:03:29.812079 29837 net.cpp:406] cont_51_lstm1_cont_slice_50_split <- cont_51
I1018 00:03:29.812086 29837 net.cpp:380] cont_51_lstm1_cont_slice_50_split -> cont_51_lstm1_cont_slice_50_split_0
I1018 00:03:29.812095 29837 net.cpp:380] cont_51_lstm1_cont_slice_50_split -> cont_51_lstm1_cont_slice_50_split_1
I1018 00:03:29.812127 29837 net.cpp:122] Setting up cont_51_lstm1_cont_slice_50_split
I1018 00:03:29.812134 29837 net.cpp:129] Top shape: 1 5 (5)
I1018 00:03:29.812139 29837 net.cpp:129] Top shape: 1 5 (5)
I1018 00:03:29.812144 29837 net.cpp:137] Memory required for data: 1338360
I1018 00:03:29.812147 29837 layer_factory.hpp:77] Creating layer cont_52_lstm1_cont_slice_51_split
I1018 00:03:29.812156 29837 net.cpp:84] Creating Layer cont_52_lstm1_cont_slice_51_split
I1018 00:03:29.812161 29837 net.cpp:406] cont_52_lstm1_cont_slice_51_split <- cont_52
I1018 00:03:29.812167 29837 net.cpp:380] cont_52_lstm1_cont_slice_51_split -> cont_52_lstm1_cont_slice_51_split_0
I1018 00:03:29.812175 29837 net.cpp:380] cont_52_lstm1_cont_slice_51_split -> cont_52_lstm1_cont_slice_51_split_1
I1018 00:03:29.812204 29837 net.cpp:122] Setting up cont_52_lstm1_cont_slice_51_split
I1018 00:03:29.812211 29837 net.cpp:129] Top shape: 1 5 (5)
I1018 00:03:29.812216 29837 net.cpp:129] Top shape: 1 5 (5)
I1018 00:03:29.812221 29837 net.cpp:137] Memory required for data: 1338400
I1018 00:03:29.812224 29837 layer_factory.hpp:77] Creating layer cont_53_lstm1_cont_slice_52_split
I1018 00:03:29.812230 29837 net.cpp:84] Creating Layer cont_53_lstm1_cont_slice_52_split
I1018 00:03:29.812234 29837 net.cpp:406] cont_53_lstm1_cont_slice_52_split <- cont_53
I1018 00:03:29.812240 29837 net.cpp:380] cont_53_lstm1_cont_slice_52_split -> cont_53_lstm1_cont_slice_52_split_0
I1018 00:03:29.812247 29837 net.cpp:380] cont_53_lstm1_cont_slice_52_split -> cont_53_lstm1_cont_slice_52_split_1
I1018 00:03:29.812279 29837 net.cpp:122] Setting up cont_53_lstm1_cont_slice_52_split
I1018 00:03:29.812286 29837 net.cpp:129] Top shape: 1 5 (5)
I1018 00:03:29.812291 29837 net.cpp:129] Top shape: 1 5 (5)
I1018 00:03:29.812294 29837 net.cpp:137] Memory required for data: 1338440
I1018 00:03:29.812299 29837 layer_factory.hpp:77] Creating layer cont_54_lstm1_cont_slice_53_split
I1018 00:03:29.812304 29837 net.cpp:84] Creating Layer cont_54_lstm1_cont_slice_53_split
I1018 00:03:29.812309 29837 net.cpp:406] cont_54_lstm1_cont_slice_53_split <- cont_54
I1018 00:03:29.812314 29837 net.cpp:380] cont_54_lstm1_cont_slice_53_split -> cont_54_lstm1_cont_slice_53_split_0
I1018 00:03:29.812321 29837 net.cpp:380] cont_54_lstm1_cont_slice_53_split -> cont_54_lstm1_cont_slice_53_split_1
I1018 00:03:29.812361 29837 net.cpp:122] Setting up cont_54_lstm1_cont_slice_53_split
I1018 00:03:29.812368 29837 net.cpp:129] Top shape: 1 5 (5)
I1018 00:03:29.812373 29837 net.cpp:129] Top shape: 1 5 (5)
I1018 00:03:29.812377 29837 net.cpp:137] Memory required for data: 1338480
I1018 00:03:29.812381 29837 layer_factory.hpp:77] Creating layer cont_55_lstm1_cont_slice_54_split
I1018 00:03:29.812386 29837 net.cpp:84] Creating Layer cont_55_lstm1_cont_slice_54_split
I1018 00:03:29.812391 29837 net.cpp:406] cont_55_lstm1_cont_slice_54_split <- cont_55
I1018 00:03:29.812398 29837 net.cpp:380] cont_55_lstm1_cont_slice_54_split -> cont_55_lstm1_cont_slice_54_split_0
I1018 00:03:29.812405 29837 net.cpp:380] cont_55_lstm1_cont_slice_54_split -> cont_55_lstm1_cont_slice_54_split_1
I1018 00:03:29.812434 29837 net.cpp:122] Setting up cont_55_lstm1_cont_slice_54_split
I1018 00:03:29.812441 29837 net.cpp:129] Top shape: 1 5 (5)
I1018 00:03:29.812446 29837 net.cpp:129] Top shape: 1 5 (5)
I1018 00:03:29.812450 29837 net.cpp:137] Memory required for data: 1338520
I1018 00:03:29.812454 29837 layer_factory.hpp:77] Creating layer cont_56_lstm1_cont_slice_55_split
I1018 00:03:29.812463 29837 net.cpp:84] Creating Layer cont_56_lstm1_cont_slice_55_split
I1018 00:03:29.812466 29837 net.cpp:406] cont_56_lstm1_cont_slice_55_split <- cont_56
I1018 00:03:29.812472 29837 net.cpp:380] cont_56_lstm1_cont_slice_55_split -> cont_56_lstm1_cont_slice_55_split_0
I1018 00:03:29.812479 29837 net.cpp:380] cont_56_lstm1_cont_slice_55_split -> cont_56_lstm1_cont_slice_55_split_1
I1018 00:03:29.812510 29837 net.cpp:122] Setting up cont_56_lstm1_cont_slice_55_split
I1018 00:03:29.812517 29837 net.cpp:129] Top shape: 1 5 (5)
I1018 00:03:29.812521 29837 net.cpp:129] Top shape: 1 5 (5)
I1018 00:03:29.812525 29837 net.cpp:137] Memory required for data: 1338560
I1018 00:03:29.812530 29837 layer_factory.hpp:77] Creating layer cont_57_lstm1_cont_slice_56_split
I1018 00:03:29.812536 29837 net.cpp:84] Creating Layer cont_57_lstm1_cont_slice_56_split
I1018 00:03:29.812539 29837 net.cpp:406] cont_57_lstm1_cont_slice_56_split <- cont_57
I1018 00:03:29.812546 29837 net.cpp:380] cont_57_lstm1_cont_slice_56_split -> cont_57_lstm1_cont_slice_56_split_0
I1018 00:03:29.812552 29837 net.cpp:380] cont_57_lstm1_cont_slice_56_split -> cont_57_lstm1_cont_slice_56_split_1
I1018 00:03:29.812584 29837 net.cpp:122] Setting up cont_57_lstm1_cont_slice_56_split
I1018 00:03:29.812592 29837 net.cpp:129] Top shape: 1 5 (5)
I1018 00:03:29.812597 29837 net.cpp:129] Top shape: 1 5 (5)
I1018 00:03:29.812599 29837 net.cpp:137] Memory required for data: 1338600
I1018 00:03:29.812604 29837 layer_factory.hpp:77] Creating layer cont_58_lstm1_cont_slice_57_split
I1018 00:03:29.812609 29837 net.cpp:84] Creating Layer cont_58_lstm1_cont_slice_57_split
I1018 00:03:29.812614 29837 net.cpp:406] cont_58_lstm1_cont_slice_57_split <- cont_58
I1018 00:03:29.812620 29837 net.cpp:380] cont_58_lstm1_cont_slice_57_split -> cont_58_lstm1_cont_slice_57_split_0
I1018 00:03:29.812630 29837 net.cpp:380] cont_58_lstm1_cont_slice_57_split -> cont_58_lstm1_cont_slice_57_split_1
I1018 00:03:29.812659 29837 net.cpp:122] Setting up cont_58_lstm1_cont_slice_57_split
I1018 00:03:29.812667 29837 net.cpp:129] Top shape: 1 5 (5)
I1018 00:03:29.812672 29837 net.cpp:129] Top shape: 1 5 (5)
I1018 00:03:29.812675 29837 net.cpp:137] Memory required for data: 1338640
I1018 00:03:29.812680 29837 layer_factory.hpp:77] Creating layer cont_59_lstm1_cont_slice_58_split
I1018 00:03:29.812687 29837 net.cpp:84] Creating Layer cont_59_lstm1_cont_slice_58_split
I1018 00:03:29.812692 29837 net.cpp:406] cont_59_lstm1_cont_slice_58_split <- cont_59
I1018 00:03:29.812697 29837 net.cpp:380] cont_59_lstm1_cont_slice_58_split -> cont_59_lstm1_cont_slice_58_split_0
I1018 00:03:29.812705 29837 net.cpp:380] cont_59_lstm1_cont_slice_58_split -> cont_59_lstm1_cont_slice_58_split_1
I1018 00:03:29.812736 29837 net.cpp:122] Setting up cont_59_lstm1_cont_slice_58_split
I1018 00:03:29.812743 29837 net.cpp:129] Top shape: 1 5 (5)
I1018 00:03:29.812748 29837 net.cpp:129] Top shape: 1 5 (5)
I1018 00:03:29.812752 29837 net.cpp:137] Memory required for data: 1338680
I1018 00:03:29.812757 29837 layer_factory.hpp:77] Creating layer cont_60_lstm1_cont_slice_59_split
I1018 00:03:29.812762 29837 net.cpp:84] Creating Layer cont_60_lstm1_cont_slice_59_split
I1018 00:03:29.812767 29837 net.cpp:406] cont_60_lstm1_cont_slice_59_split <- cont_60
I1018 00:03:29.812772 29837 net.cpp:380] cont_60_lstm1_cont_slice_59_split -> cont_60_lstm1_cont_slice_59_split_0
I1018 00:03:29.812779 29837 net.cpp:380] cont_60_lstm1_cont_slice_59_split -> cont_60_lstm1_cont_slice_59_split_1
I1018 00:03:29.812810 29837 net.cpp:122] Setting up cont_60_lstm1_cont_slice_59_split
I1018 00:03:29.812818 29837 net.cpp:129] Top shape: 1 5 (5)
I1018 00:03:29.812822 29837 net.cpp:129] Top shape: 1 5 (5)
I1018 00:03:29.812826 29837 net.cpp:137] Memory required for data: 1338720
I1018 00:03:29.812830 29837 layer_factory.hpp:77] Creating layer cont_61_lstm1_cont_slice_60_split
I1018 00:03:29.812835 29837 net.cpp:84] Creating Layer cont_61_lstm1_cont_slice_60_split
I1018 00:03:29.812840 29837 net.cpp:406] cont_61_lstm1_cont_slice_60_split <- cont_61
I1018 00:03:29.812845 29837 net.cpp:380] cont_61_lstm1_cont_slice_60_split -> cont_61_lstm1_cont_slice_60_split_0
I1018 00:03:29.812852 29837 net.cpp:380] cont_61_lstm1_cont_slice_60_split -> cont_61_lstm1_cont_slice_60_split_1
I1018 00:03:29.812883 29837 net.cpp:122] Setting up cont_61_lstm1_cont_slice_60_split
I1018 00:03:29.812891 29837 net.cpp:129] Top shape: 1 5 (5)
I1018 00:03:29.812894 29837 net.cpp:129] Top shape: 1 5 (5)
I1018 00:03:29.812902 29837 net.cpp:137] Memory required for data: 1338760
I1018 00:03:29.812906 29837 layer_factory.hpp:77] Creating layer cont_62_lstm1_cont_slice_61_split
I1018 00:03:29.812917 29837 net.cpp:84] Creating Layer cont_62_lstm1_cont_slice_61_split
I1018 00:03:29.812922 29837 net.cpp:406] cont_62_lstm1_cont_slice_61_split <- cont_62
I1018 00:03:29.812929 29837 net.cpp:380] cont_62_lstm1_cont_slice_61_split -> cont_62_lstm1_cont_slice_61_split_0
I1018 00:03:29.812937 29837 net.cpp:380] cont_62_lstm1_cont_slice_61_split -> cont_62_lstm1_cont_slice_61_split_1
I1018 00:03:29.812969 29837 net.cpp:122] Setting up cont_62_lstm1_cont_slice_61_split
I1018 00:03:29.812976 29837 net.cpp:129] Top shape: 1 5 (5)
I1018 00:03:29.812981 29837 net.cpp:129] Top shape: 1 5 (5)
I1018 00:03:29.812985 29837 net.cpp:137] Memory required for data: 1338800
I1018 00:03:29.812989 29837 layer_factory.hpp:77] Creating layer cont_63_lstm1_cont_slice_62_split
I1018 00:03:29.812995 29837 net.cpp:84] Creating Layer cont_63_lstm1_cont_slice_62_split
I1018 00:03:29.812999 29837 net.cpp:406] cont_63_lstm1_cont_slice_62_split <- cont_63
I1018 00:03:29.813005 29837 net.cpp:380] cont_63_lstm1_cont_slice_62_split -> cont_63_lstm1_cont_slice_62_split_0
I1018 00:03:29.813030 29837 net.cpp:380] cont_63_lstm1_cont_slice_62_split -> cont_63_lstm1_cont_slice_62_split_1
I1018 00:03:29.813071 29837 net.cpp:122] Setting up cont_63_lstm1_cont_slice_62_split
I1018 00:03:29.813079 29837 net.cpp:129] Top shape: 1 5 (5)
I1018 00:03:29.813084 29837 net.cpp:129] Top shape: 1 5 (5)
I1018 00:03:29.813088 29837 net.cpp:137] Memory required for data: 1338840
I1018 00:03:29.813093 29837 layer_factory.hpp:77] Creating layer cont_64_lstm1_cont_slice_63_split
I1018 00:03:29.813099 29837 net.cpp:84] Creating Layer cont_64_lstm1_cont_slice_63_split
I1018 00:03:29.813103 29837 net.cpp:406] cont_64_lstm1_cont_slice_63_split <- cont_64
I1018 00:03:29.813109 29837 net.cpp:380] cont_64_lstm1_cont_slice_63_split -> cont_64_lstm1_cont_slice_63_split_0
I1018 00:03:29.813117 29837 net.cpp:380] cont_64_lstm1_cont_slice_63_split -> cont_64_lstm1_cont_slice_63_split_1
I1018 00:03:29.813149 29837 net.cpp:122] Setting up cont_64_lstm1_cont_slice_63_split
I1018 00:03:29.813156 29837 net.cpp:129] Top shape: 1 5 (5)
I1018 00:03:29.813161 29837 net.cpp:129] Top shape: 1 5 (5)
I1018 00:03:29.813165 29837 net.cpp:137] Memory required for data: 1338880
I1018 00:03:29.813170 29837 layer_factory.hpp:77] Creating layer cont_65_lstm1_cont_slice_64_split
I1018 00:03:29.813175 29837 net.cpp:84] Creating Layer cont_65_lstm1_cont_slice_64_split
I1018 00:03:29.813179 29837 net.cpp:406] cont_65_lstm1_cont_slice_64_split <- cont_65
I1018 00:03:29.813187 29837 net.cpp:380] cont_65_lstm1_cont_slice_64_split -> cont_65_lstm1_cont_slice_64_split_0
I1018 00:03:29.813194 29837 net.cpp:380] cont_65_lstm1_cont_slice_64_split -> cont_65_lstm1_cont_slice_64_split_1
I1018 00:03:29.813223 29837 net.cpp:122] Setting up cont_65_lstm1_cont_slice_64_split
I1018 00:03:29.813230 29837 net.cpp:129] Top shape: 1 5 (5)
I1018 00:03:29.813235 29837 net.cpp:129] Top shape: 1 5 (5)
I1018 00:03:29.813239 29837 net.cpp:137] Memory required for data: 1338920
I1018 00:03:29.813243 29837 layer_factory.hpp:77] Creating layer cont_66_lstm1_cont_slice_65_split
I1018 00:03:29.813251 29837 net.cpp:84] Creating Layer cont_66_lstm1_cont_slice_65_split
I1018 00:03:29.813256 29837 net.cpp:406] cont_66_lstm1_cont_slice_65_split <- cont_66
I1018 00:03:29.813261 29837 net.cpp:380] cont_66_lstm1_cont_slice_65_split -> cont_66_lstm1_cont_slice_65_split_0
I1018 00:03:29.813268 29837 net.cpp:380] cont_66_lstm1_cont_slice_65_split -> cont_66_lstm1_cont_slice_65_split_1
I1018 00:03:29.813300 29837 net.cpp:122] Setting up cont_66_lstm1_cont_slice_65_split
I1018 00:03:29.813308 29837 net.cpp:129] Top shape: 1 5 (5)
I1018 00:03:29.813313 29837 net.cpp:129] Top shape: 1 5 (5)
I1018 00:03:29.813316 29837 net.cpp:137] Memory required for data: 1338960
I1018 00:03:29.813320 29837 layer_factory.hpp:77] Creating layer cont_67_lstm1_cont_slice_66_split
I1018 00:03:29.813325 29837 net.cpp:84] Creating Layer cont_67_lstm1_cont_slice_66_split
I1018 00:03:29.813330 29837 net.cpp:406] cont_67_lstm1_cont_slice_66_split <- cont_67
I1018 00:03:29.813335 29837 net.cpp:380] cont_67_lstm1_cont_slice_66_split -> cont_67_lstm1_cont_slice_66_split_0
I1018 00:03:29.813343 29837 net.cpp:380] cont_67_lstm1_cont_slice_66_split -> cont_67_lstm1_cont_slice_66_split_1
I1018 00:03:29.813375 29837 net.cpp:122] Setting up cont_67_lstm1_cont_slice_66_split
I1018 00:03:29.813382 29837 net.cpp:129] Top shape: 1 5 (5)
I1018 00:03:29.813387 29837 net.cpp:129] Top shape: 1 5 (5)
I1018 00:03:29.813391 29837 net.cpp:137] Memory required for data: 1339000
I1018 00:03:29.813395 29837 layer_factory.hpp:77] Creating layer cont_68_lstm1_cont_slice_67_split
I1018 00:03:29.813401 29837 net.cpp:84] Creating Layer cont_68_lstm1_cont_slice_67_split
I1018 00:03:29.813405 29837 net.cpp:406] cont_68_lstm1_cont_slice_67_split <- cont_68
I1018 00:03:29.813411 29837 net.cpp:380] cont_68_lstm1_cont_slice_67_split -> cont_68_lstm1_cont_slice_67_split_0
I1018 00:03:29.813418 29837 net.cpp:380] cont_68_lstm1_cont_slice_67_split -> cont_68_lstm1_cont_slice_67_split_1
I1018 00:03:29.813449 29837 net.cpp:122] Setting up cont_68_lstm1_cont_slice_67_split
I1018 00:03:29.813457 29837 net.cpp:129] Top shape: 1 5 (5)
I1018 00:03:29.813462 29837 net.cpp:129] Top shape: 1 5 (5)
I1018 00:03:29.813465 29837 net.cpp:137] Memory required for data: 1339040
I1018 00:03:29.813469 29837 layer_factory.hpp:77] Creating layer cont_69_lstm1_cont_slice_68_split
I1018 00:03:29.813474 29837 net.cpp:84] Creating Layer cont_69_lstm1_cont_slice_68_split
I1018 00:03:29.813479 29837 net.cpp:406] cont_69_lstm1_cont_slice_68_split <- cont_69
I1018 00:03:29.813486 29837 net.cpp:380] cont_69_lstm1_cont_slice_68_split -> cont_69_lstm1_cont_slice_68_split_0
I1018 00:03:29.813494 29837 net.cpp:380] cont_69_lstm1_cont_slice_68_split -> cont_69_lstm1_cont_slice_68_split_1
I1018 00:03:29.813524 29837 net.cpp:122] Setting up cont_69_lstm1_cont_slice_68_split
I1018 00:03:29.813532 29837 net.cpp:129] Top shape: 1 5 (5)
I1018 00:03:29.813537 29837 net.cpp:129] Top shape: 1 5 (5)
I1018 00:03:29.813541 29837 net.cpp:137] Memory required for data: 1339080
I1018 00:03:29.813545 29837 layer_factory.hpp:77] Creating layer cont_70_lstm1_cont_slice_69_split
I1018 00:03:29.813551 29837 net.cpp:84] Creating Layer cont_70_lstm1_cont_slice_69_split
I1018 00:03:29.813555 29837 net.cpp:406] cont_70_lstm1_cont_slice_69_split <- cont_70
I1018 00:03:29.813561 29837 net.cpp:380] cont_70_lstm1_cont_slice_69_split -> cont_70_lstm1_cont_slice_69_split_0
I1018 00:03:29.813568 29837 net.cpp:380] cont_70_lstm1_cont_slice_69_split -> cont_70_lstm1_cont_slice_69_split_1
I1018 00:03:29.813601 29837 net.cpp:122] Setting up cont_70_lstm1_cont_slice_69_split
I1018 00:03:29.813608 29837 net.cpp:129] Top shape: 1 5 (5)
I1018 00:03:29.813612 29837 net.cpp:129] Top shape: 1 5 (5)
I1018 00:03:29.813616 29837 net.cpp:137] Memory required for data: 1339120
I1018 00:03:29.813621 29837 layer_factory.hpp:77] Creating layer cont_71_lstm1_cont_slice_70_split
I1018 00:03:29.813627 29837 net.cpp:84] Creating Layer cont_71_lstm1_cont_slice_70_split
I1018 00:03:29.813632 29837 net.cpp:406] cont_71_lstm1_cont_slice_70_split <- cont_71
I1018 00:03:29.813637 29837 net.cpp:380] cont_71_lstm1_cont_slice_70_split -> cont_71_lstm1_cont_slice_70_split_0
I1018 00:03:29.813644 29837 net.cpp:380] cont_71_lstm1_cont_slice_70_split -> cont_71_lstm1_cont_slice_70_split_1
I1018 00:03:29.813675 29837 net.cpp:122] Setting up cont_71_lstm1_cont_slice_70_split
I1018 00:03:29.813683 29837 net.cpp:129] Top shape: 1 5 (5)
I1018 00:03:29.813688 29837 net.cpp:129] Top shape: 1 5 (5)
I1018 00:03:29.813691 29837 net.cpp:137] Memory required for data: 1339160
I1018 00:03:29.813695 29837 layer_factory.hpp:77] Creating layer cont_72_lstm1_cont_slice_71_split
I1018 00:03:29.813700 29837 net.cpp:84] Creating Layer cont_72_lstm1_cont_slice_71_split
I1018 00:03:29.813705 29837 net.cpp:406] cont_72_lstm1_cont_slice_71_split <- cont_72
I1018 00:03:29.813714 29837 net.cpp:380] cont_72_lstm1_cont_slice_71_split -> cont_72_lstm1_cont_slice_71_split_0
I1018 00:03:29.813720 29837 net.cpp:380] cont_72_lstm1_cont_slice_71_split -> cont_72_lstm1_cont_slice_71_split_1
I1018 00:03:29.813750 29837 net.cpp:122] Setting up cont_72_lstm1_cont_slice_71_split
I1018 00:03:29.813756 29837 net.cpp:129] Top shape: 1 5 (5)
I1018 00:03:29.813761 29837 net.cpp:129] Top shape: 1 5 (5)
I1018 00:03:29.813766 29837 net.cpp:137] Memory required for data: 1339200
I1018 00:03:29.813769 29837 layer_factory.hpp:77] Creating layer cont_73_lstm1_cont_slice_72_split
I1018 00:03:29.813777 29837 net.cpp:84] Creating Layer cont_73_lstm1_cont_slice_72_split
I1018 00:03:29.813781 29837 net.cpp:406] cont_73_lstm1_cont_slice_72_split <- cont_73
I1018 00:03:29.813787 29837 net.cpp:380] cont_73_lstm1_cont_slice_72_split -> cont_73_lstm1_cont_slice_72_split_0
I1018 00:03:29.813794 29837 net.cpp:380] cont_73_lstm1_cont_slice_72_split -> cont_73_lstm1_cont_slice_72_split_1
I1018 00:03:29.813827 29837 net.cpp:122] Setting up cont_73_lstm1_cont_slice_72_split
I1018 00:03:29.813833 29837 net.cpp:129] Top shape: 1 5 (5)
I1018 00:03:29.813838 29837 net.cpp:129] Top shape: 1 5 (5)
I1018 00:03:29.813843 29837 net.cpp:137] Memory required for data: 1339240
I1018 00:03:29.813846 29837 layer_factory.hpp:77] Creating layer cont_74_lstm1_cont_slice_73_split
I1018 00:03:29.813851 29837 net.cpp:84] Creating Layer cont_74_lstm1_cont_slice_73_split
I1018 00:03:29.813856 29837 net.cpp:406] cont_74_lstm1_cont_slice_73_split <- cont_74
I1018 00:03:29.813863 29837 net.cpp:380] cont_74_lstm1_cont_slice_73_split -> cont_74_lstm1_cont_slice_73_split_0
I1018 00:03:29.813869 29837 net.cpp:380] cont_74_lstm1_cont_slice_73_split -> cont_74_lstm1_cont_slice_73_split_1
I1018 00:03:29.813901 29837 net.cpp:122] Setting up cont_74_lstm1_cont_slice_73_split
I1018 00:03:29.813908 29837 net.cpp:129] Top shape: 1 5 (5)
I1018 00:03:29.813913 29837 net.cpp:129] Top shape: 1 5 (5)
I1018 00:03:29.813917 29837 net.cpp:137] Memory required for data: 1339280
I1018 00:03:29.813921 29837 layer_factory.hpp:77] Creating layer cont_75_lstm1_cont_slice_74_split
I1018 00:03:29.813926 29837 net.cpp:84] Creating Layer cont_75_lstm1_cont_slice_74_split
I1018 00:03:29.813931 29837 net.cpp:406] cont_75_lstm1_cont_slice_74_split <- cont_75
I1018 00:03:29.813937 29837 net.cpp:380] cont_75_lstm1_cont_slice_74_split -> cont_75_lstm1_cont_slice_74_split_0
I1018 00:03:29.813944 29837 net.cpp:380] cont_75_lstm1_cont_slice_74_split -> cont_75_lstm1_cont_slice_74_split_1
I1018 00:03:29.813977 29837 net.cpp:122] Setting up cont_75_lstm1_cont_slice_74_split
I1018 00:03:29.813983 29837 net.cpp:129] Top shape: 1 5 (5)
I1018 00:03:29.813987 29837 net.cpp:129] Top shape: 1 5 (5)
I1018 00:03:29.813992 29837 net.cpp:137] Memory required for data: 1339320
I1018 00:03:29.813997 29837 layer_factory.hpp:77] Creating layer cont_76_lstm1_cont_slice_75_split
I1018 00:03:29.814002 29837 net.cpp:84] Creating Layer cont_76_lstm1_cont_slice_75_split
I1018 00:03:29.814005 29837 net.cpp:406] cont_76_lstm1_cont_slice_75_split <- cont_76
I1018 00:03:29.814013 29837 net.cpp:380] cont_76_lstm1_cont_slice_75_split -> cont_76_lstm1_cont_slice_75_split_0
I1018 00:03:29.814020 29837 net.cpp:380] cont_76_lstm1_cont_slice_75_split -> cont_76_lstm1_cont_slice_75_split_1
I1018 00:03:29.814054 29837 net.cpp:122] Setting up cont_76_lstm1_cont_slice_75_split
I1018 00:03:29.814061 29837 net.cpp:129] Top shape: 1 5 (5)
I1018 00:03:29.814066 29837 net.cpp:129] Top shape: 1 5 (5)
I1018 00:03:29.814070 29837 net.cpp:137] Memory required for data: 1339360
I1018 00:03:29.814074 29837 layer_factory.hpp:77] Creating layer cont_77_lstm1_cont_slice_76_split
I1018 00:03:29.814081 29837 net.cpp:84] Creating Layer cont_77_lstm1_cont_slice_76_split
I1018 00:03:29.814086 29837 net.cpp:406] cont_77_lstm1_cont_slice_76_split <- cont_77
I1018 00:03:29.814092 29837 net.cpp:380] cont_77_lstm1_cont_slice_76_split -> cont_77_lstm1_cont_slice_76_split_0
I1018 00:03:29.814100 29837 net.cpp:380] cont_77_lstm1_cont_slice_76_split -> cont_77_lstm1_cont_slice_76_split_1
I1018 00:03:29.814131 29837 net.cpp:122] Setting up cont_77_lstm1_cont_slice_76_split
I1018 00:03:29.814137 29837 net.cpp:129] Top shape: 1 5 (5)
I1018 00:03:29.814142 29837 net.cpp:129] Top shape: 1 5 (5)
I1018 00:03:29.814146 29837 net.cpp:137] Memory required for data: 1339400
I1018 00:03:29.814151 29837 layer_factory.hpp:77] Creating layer cont_78_lstm1_cont_slice_77_split
I1018 00:03:29.814157 29837 net.cpp:84] Creating Layer cont_78_lstm1_cont_slice_77_split
I1018 00:03:29.814160 29837 net.cpp:406] cont_78_lstm1_cont_slice_77_split <- cont_78
I1018 00:03:29.814167 29837 net.cpp:380] cont_78_lstm1_cont_slice_77_split -> cont_78_lstm1_cont_slice_77_split_0
I1018 00:03:29.814173 29837 net.cpp:380] cont_78_lstm1_cont_slice_77_split -> cont_78_lstm1_cont_slice_77_split_1
I1018 00:03:29.814205 29837 net.cpp:122] Setting up cont_78_lstm1_cont_slice_77_split
I1018 00:03:29.814213 29837 net.cpp:129] Top shape: 1 5 (5)
I1018 00:03:29.814216 29837 net.cpp:129] Top shape: 1 5 (5)
I1018 00:03:29.814220 29837 net.cpp:137] Memory required for data: 1339440
I1018 00:03:29.814225 29837 layer_factory.hpp:77] Creating layer cont_79_lstm1_cont_slice_78_split
I1018 00:03:29.814230 29837 net.cpp:84] Creating Layer cont_79_lstm1_cont_slice_78_split
I1018 00:03:29.814234 29837 net.cpp:406] cont_79_lstm1_cont_slice_78_split <- cont_79
I1018 00:03:29.814240 29837 net.cpp:380] cont_79_lstm1_cont_slice_78_split -> cont_79_lstm1_cont_slice_78_split_0
I1018 00:03:29.814249 29837 net.cpp:380] cont_79_lstm1_cont_slice_78_split -> cont_79_lstm1_cont_slice_78_split_1
I1018 00:03:29.814280 29837 net.cpp:122] Setting up cont_79_lstm1_cont_slice_78_split
I1018 00:03:29.814286 29837 net.cpp:129] Top shape: 1 5 (5)
I1018 00:03:29.814291 29837 net.cpp:129] Top shape: 1 5 (5)
I1018 00:03:29.814296 29837 net.cpp:137] Memory required for data: 1339480
I1018 00:03:29.814299 29837 layer_factory.hpp:77] Creating layer cont_80_lstm1_cont_slice_79_split
I1018 00:03:29.814306 29837 net.cpp:84] Creating Layer cont_80_lstm1_cont_slice_79_split
I1018 00:03:29.814311 29837 net.cpp:406] cont_80_lstm1_cont_slice_79_split <- cont_80
I1018 00:03:29.814317 29837 net.cpp:380] cont_80_lstm1_cont_slice_79_split -> cont_80_lstm1_cont_slice_79_split_0
I1018 00:03:29.814324 29837 net.cpp:380] cont_80_lstm1_cont_slice_79_split -> cont_80_lstm1_cont_slice_79_split_1
I1018 00:03:29.814357 29837 net.cpp:122] Setting up cont_80_lstm1_cont_slice_79_split
I1018 00:03:29.814363 29837 net.cpp:129] Top shape: 1 5 (5)
I1018 00:03:29.814368 29837 net.cpp:129] Top shape: 1 5 (5)
I1018 00:03:29.814373 29837 net.cpp:137] Memory required for data: 1339520
I1018 00:03:29.814376 29837 layer_factory.hpp:77] Creating layer cont_81_lstm1_cont_slice_80_split
I1018 00:03:29.814381 29837 net.cpp:84] Creating Layer cont_81_lstm1_cont_slice_80_split
I1018 00:03:29.814386 29837 net.cpp:406] cont_81_lstm1_cont_slice_80_split <- cont_81
I1018 00:03:29.814391 29837 net.cpp:380] cont_81_lstm1_cont_slice_80_split -> cont_81_lstm1_cont_slice_80_split_0
I1018 00:03:29.814399 29837 net.cpp:380] cont_81_lstm1_cont_slice_80_split -> cont_81_lstm1_cont_slice_80_split_1
I1018 00:03:29.814430 29837 net.cpp:122] Setting up cont_81_lstm1_cont_slice_80_split
I1018 00:03:29.814437 29837 net.cpp:129] Top shape: 1 5 (5)
I1018 00:03:29.814441 29837 net.cpp:129] Top shape: 1 5 (5)
I1018 00:03:29.814445 29837 net.cpp:137] Memory required for data: 1339560
I1018 00:03:29.814450 29837 layer_factory.hpp:77] Creating layer cont_82_lstm1_cont_slice_81_split
I1018 00:03:29.814455 29837 net.cpp:84] Creating Layer cont_82_lstm1_cont_slice_81_split
I1018 00:03:29.814460 29837 net.cpp:406] cont_82_lstm1_cont_slice_81_split <- cont_82
I1018 00:03:29.814465 29837 net.cpp:380] cont_82_lstm1_cont_slice_81_split -> cont_82_lstm1_cont_slice_81_split_0
I1018 00:03:29.814473 29837 net.cpp:380] cont_82_lstm1_cont_slice_81_split -> cont_82_lstm1_cont_slice_81_split_1
I1018 00:03:29.814517 29837 net.cpp:122] Setting up cont_82_lstm1_cont_slice_81_split
I1018 00:03:29.814527 29837 net.cpp:129] Top shape: 1 5 (5)
I1018 00:03:29.814532 29837 net.cpp:129] Top shape: 1 5 (5)
I1018 00:03:29.814535 29837 net.cpp:137] Memory required for data: 1339600
I1018 00:03:29.814543 29837 layer_factory.hpp:77] Creating layer cont_83_lstm1_cont_slice_82_split
I1018 00:03:29.814563 29837 net.cpp:84] Creating Layer cont_83_lstm1_cont_slice_82_split
I1018 00:03:29.814574 29837 net.cpp:406] cont_83_lstm1_cont_slice_82_split <- cont_83
I1018 00:03:29.814589 29837 net.cpp:380] cont_83_lstm1_cont_slice_82_split -> cont_83_lstm1_cont_slice_82_split_0
I1018 00:03:29.814601 29837 net.cpp:380] cont_83_lstm1_cont_slice_82_split -> cont_83_lstm1_cont_slice_82_split_1
I1018 00:03:29.814656 29837 net.cpp:122] Setting up cont_83_lstm1_cont_slice_82_split
I1018 00:03:29.814666 29837 net.cpp:129] Top shape: 1 5 (5)
I1018 00:03:29.814674 29837 net.cpp:129] Top shape: 1 5 (5)
I1018 00:03:29.814680 29837 net.cpp:137] Memory required for data: 1339640
I1018 00:03:29.814687 29837 layer_factory.hpp:77] Creating layer cont_84_lstm1_cont_slice_83_split
I1018 00:03:29.814698 29837 net.cpp:84] Creating Layer cont_84_lstm1_cont_slice_83_split
I1018 00:03:29.814705 29837 net.cpp:406] cont_84_lstm1_cont_slice_83_split <- cont_84
I1018 00:03:29.814715 29837 net.cpp:380] cont_84_lstm1_cont_slice_83_split -> cont_84_lstm1_cont_slice_83_split_0
I1018 00:03:29.814726 29837 net.cpp:380] cont_84_lstm1_cont_slice_83_split -> cont_84_lstm1_cont_slice_83_split_1
I1018 00:03:29.814774 29837 net.cpp:122] Setting up cont_84_lstm1_cont_slice_83_split
I1018 00:03:29.814784 29837 net.cpp:129] Top shape: 1 5 (5)
I1018 00:03:29.814792 29837 net.cpp:129] Top shape: 1 5 (5)
I1018 00:03:29.814798 29837 net.cpp:137] Memory required for data: 1339680
I1018 00:03:29.814805 29837 layer_factory.hpp:77] Creating layer cont_85_lstm1_cont_slice_84_split
I1018 00:03:29.814815 29837 net.cpp:84] Creating Layer cont_85_lstm1_cont_slice_84_split
I1018 00:03:29.814821 29837 net.cpp:406] cont_85_lstm1_cont_slice_84_split <- cont_85
I1018 00:03:29.814831 29837 net.cpp:380] cont_85_lstm1_cont_slice_84_split -> cont_85_lstm1_cont_slice_84_split_0
I1018 00:03:29.814842 29837 net.cpp:380] cont_85_lstm1_cont_slice_84_split -> cont_85_lstm1_cont_slice_84_split_1
I1018 00:03:29.814889 29837 net.cpp:122] Setting up cont_85_lstm1_cont_slice_84_split
I1018 00:03:29.814899 29837 net.cpp:129] Top shape: 1 5 (5)
I1018 00:03:29.814908 29837 net.cpp:129] Top shape: 1 5 (5)
I1018 00:03:29.814913 29837 net.cpp:137] Memory required for data: 1339720
I1018 00:03:29.814920 29837 layer_factory.hpp:77] Creating layer cont_86_lstm1_cont_slice_85_split
I1018 00:03:29.814929 29837 net.cpp:84] Creating Layer cont_86_lstm1_cont_slice_85_split
I1018 00:03:29.814936 29837 net.cpp:406] cont_86_lstm1_cont_slice_85_split <- cont_86
I1018 00:03:29.814945 29837 net.cpp:380] cont_86_lstm1_cont_slice_85_split -> cont_86_lstm1_cont_slice_85_split_0
I1018 00:03:29.814960 29837 net.cpp:380] cont_86_lstm1_cont_slice_85_split -> cont_86_lstm1_cont_slice_85_split_1
I1018 00:03:29.815006 29837 net.cpp:122] Setting up cont_86_lstm1_cont_slice_85_split
I1018 00:03:29.815016 29837 net.cpp:129] Top shape: 1 5 (5)
I1018 00:03:29.815023 29837 net.cpp:129] Top shape: 1 5 (5)
I1018 00:03:29.815037 29837 net.cpp:137] Memory required for data: 1339760
I1018 00:03:29.815042 29837 layer_factory.hpp:77] Creating layer cont_87_lstm1_cont_slice_86_split
I1018 00:03:29.815057 29837 net.cpp:84] Creating Layer cont_87_lstm1_cont_slice_86_split
I1018 00:03:29.815064 29837 net.cpp:406] cont_87_lstm1_cont_slice_86_split <- cont_87
I1018 00:03:29.815074 29837 net.cpp:380] cont_87_lstm1_cont_slice_86_split -> cont_87_lstm1_cont_slice_86_split_0
I1018 00:03:29.815084 29837 net.cpp:380] cont_87_lstm1_cont_slice_86_split -> cont_87_lstm1_cont_slice_86_split_1
I1018 00:03:29.815131 29837 net.cpp:122] Setting up cont_87_lstm1_cont_slice_86_split
I1018 00:03:29.815142 29837 net.cpp:129] Top shape: 1 5 (5)
I1018 00:03:29.815150 29837 net.cpp:129] Top shape: 1 5 (5)
I1018 00:03:29.815157 29837 net.cpp:137] Memory required for data: 1339800
I1018 00:03:29.815165 29837 layer_factory.hpp:77] Creating layer cont_88_lstm1_cont_slice_87_split
I1018 00:03:29.815173 29837 net.cpp:84] Creating Layer cont_88_lstm1_cont_slice_87_split
I1018 00:03:29.815181 29837 net.cpp:406] cont_88_lstm1_cont_slice_87_split <- cont_88
I1018 00:03:29.815189 29837 net.cpp:380] cont_88_lstm1_cont_slice_87_split -> cont_88_lstm1_cont_slice_87_split_0
I1018 00:03:29.815201 29837 net.cpp:380] cont_88_lstm1_cont_slice_87_split -> cont_88_lstm1_cont_slice_87_split_1
I1018 00:03:29.815250 29837 net.cpp:122] Setting up cont_88_lstm1_cont_slice_87_split
I1018 00:03:29.815261 29837 net.cpp:129] Top shape: 1 5 (5)
I1018 00:03:29.815268 29837 net.cpp:129] Top shape: 1 5 (5)
I1018 00:03:29.815275 29837 net.cpp:137] Memory required for data: 1339840
I1018 00:03:29.815281 29837 layer_factory.hpp:77] Creating layer cont_89_lstm1_cont_slice_88_split
I1018 00:03:29.815290 29837 net.cpp:84] Creating Layer cont_89_lstm1_cont_slice_88_split
I1018 00:03:29.815297 29837 net.cpp:406] cont_89_lstm1_cont_slice_88_split <- cont_89
I1018 00:03:29.815306 29837 net.cpp:380] cont_89_lstm1_cont_slice_88_split -> cont_89_lstm1_cont_slice_88_split_0
I1018 00:03:29.815317 29837 net.cpp:380] cont_89_lstm1_cont_slice_88_split -> cont_89_lstm1_cont_slice_88_split_1
I1018 00:03:29.815364 29837 net.cpp:122] Setting up cont_89_lstm1_cont_slice_88_split
I1018 00:03:29.815376 29837 net.cpp:129] Top shape: 1 5 (5)
I1018 00:03:29.815383 29837 net.cpp:129] Top shape: 1 5 (5)
I1018 00:03:29.815389 29837 net.cpp:137] Memory required for data: 1339880
I1018 00:03:29.815395 29837 layer_factory.hpp:77] Creating layer cont_90_lstm1_cont_slice_89_split
I1018 00:03:29.815403 29837 net.cpp:84] Creating Layer cont_90_lstm1_cont_slice_89_split
I1018 00:03:29.815410 29837 net.cpp:406] cont_90_lstm1_cont_slice_89_split <- cont_90
I1018 00:03:29.815423 29837 net.cpp:380] cont_90_lstm1_cont_slice_89_split -> cont_90_lstm1_cont_slice_89_split_0
I1018 00:03:29.815433 29837 net.cpp:380] cont_90_lstm1_cont_slice_89_split -> cont_90_lstm1_cont_slice_89_split_1
I1018 00:03:29.815477 29837 net.cpp:122] Setting up cont_90_lstm1_cont_slice_89_split
I1018 00:03:29.815488 29837 net.cpp:129] Top shape: 1 5 (5)
I1018 00:03:29.815495 29837 net.cpp:129] Top shape: 1 5 (5)
I1018 00:03:29.815500 29837 net.cpp:137] Memory required for data: 1339920
I1018 00:03:29.815507 29837 layer_factory.hpp:77] Creating layer cont_91_lstm1_cont_slice_90_split
I1018 00:03:29.815518 29837 net.cpp:84] Creating Layer cont_91_lstm1_cont_slice_90_split
I1018 00:03:29.815524 29837 net.cpp:406] cont_91_lstm1_cont_slice_90_split <- cont_91
I1018 00:03:29.815534 29837 net.cpp:380] cont_91_lstm1_cont_slice_90_split -> cont_91_lstm1_cont_slice_90_split_0
I1018 00:03:29.815544 29837 net.cpp:380] cont_91_lstm1_cont_slice_90_split -> cont_91_lstm1_cont_slice_90_split_1
I1018 00:03:29.815590 29837 net.cpp:122] Setting up cont_91_lstm1_cont_slice_90_split
I1018 00:03:29.815601 29837 net.cpp:129] Top shape: 1 5 (5)
I1018 00:03:29.815609 29837 net.cpp:129] Top shape: 1 5 (5)
I1018 00:03:29.815616 29837 net.cpp:137] Memory required for data: 1339960
I1018 00:03:29.815623 29837 layer_factory.hpp:77] Creating layer cont_92_lstm1_cont_slice_91_split
I1018 00:03:29.815631 29837 net.cpp:84] Creating Layer cont_92_lstm1_cont_slice_91_split
I1018 00:03:29.815639 29837 net.cpp:406] cont_92_lstm1_cont_slice_91_split <- cont_92
I1018 00:03:29.815647 29837 net.cpp:380] cont_92_lstm1_cont_slice_91_split -> cont_92_lstm1_cont_slice_91_split_0
I1018 00:03:29.815657 29837 net.cpp:380] cont_92_lstm1_cont_slice_91_split -> cont_92_lstm1_cont_slice_91_split_1
I1018 00:03:29.815703 29837 net.cpp:122] Setting up cont_92_lstm1_cont_slice_91_split
I1018 00:03:29.815713 29837 net.cpp:129] Top shape: 1 5 (5)
I1018 00:03:29.815721 29837 net.cpp:129] Top shape: 1 5 (5)
I1018 00:03:29.815728 29837 net.cpp:137] Memory required for data: 1340000
I1018 00:03:29.815735 29837 layer_factory.hpp:77] Creating layer cont_93_lstm1_cont_slice_92_split
I1018 00:03:29.815744 29837 net.cpp:84] Creating Layer cont_93_lstm1_cont_slice_92_split
I1018 00:03:29.815752 29837 net.cpp:406] cont_93_lstm1_cont_slice_92_split <- cont_93
I1018 00:03:29.815760 29837 net.cpp:380] cont_93_lstm1_cont_slice_92_split -> cont_93_lstm1_cont_slice_92_split_0
I1018 00:03:29.815773 29837 net.cpp:380] cont_93_lstm1_cont_slice_92_split -> cont_93_lstm1_cont_slice_92_split_1
I1018 00:03:29.815815 29837 net.cpp:122] Setting up cont_93_lstm1_cont_slice_92_split
I1018 00:03:29.815825 29837 net.cpp:129] Top shape: 1 5 (5)
I1018 00:03:29.815834 29837 net.cpp:129] Top shape: 1 5 (5)
I1018 00:03:29.815840 29837 net.cpp:137] Memory required for data: 1340040
I1018 00:03:29.815846 29837 layer_factory.hpp:77] Creating layer cont_94_lstm1_cont_slice_93_split
I1018 00:03:29.815855 29837 net.cpp:84] Creating Layer cont_94_lstm1_cont_slice_93_split
I1018 00:03:29.815862 29837 net.cpp:406] cont_94_lstm1_cont_slice_93_split <- cont_94
I1018 00:03:29.815876 29837 net.cpp:380] cont_94_lstm1_cont_slice_93_split -> cont_94_lstm1_cont_slice_93_split_0
I1018 00:03:29.815887 29837 net.cpp:380] cont_94_lstm1_cont_slice_93_split -> cont_94_lstm1_cont_slice_93_split_1
I1018 00:03:29.815932 29837 net.cpp:122] Setting up cont_94_lstm1_cont_slice_93_split
I1018 00:03:29.815943 29837 net.cpp:129] Top shape: 1 5 (5)
I1018 00:03:29.815950 29837 net.cpp:129] Top shape: 1 5 (5)
I1018 00:03:29.815958 29837 net.cpp:137] Memory required for data: 1340080
I1018 00:03:29.815964 29837 layer_factory.hpp:77] Creating layer cont_95_lstm1_cont_slice_94_split
I1018 00:03:29.815973 29837 net.cpp:84] Creating Layer cont_95_lstm1_cont_slice_94_split
I1018 00:03:29.815980 29837 net.cpp:406] cont_95_lstm1_cont_slice_94_split <- cont_95
I1018 00:03:29.815989 29837 net.cpp:380] cont_95_lstm1_cont_slice_94_split -> cont_95_lstm1_cont_slice_94_split_0
I1018 00:03:29.816000 29837 net.cpp:380] cont_95_lstm1_cont_slice_94_split -> cont_95_lstm1_cont_slice_94_split_1
I1018 00:03:29.816058 29837 net.cpp:122] Setting up cont_95_lstm1_cont_slice_94_split
I1018 00:03:29.816071 29837 net.cpp:129] Top shape: 1 5 (5)
I1018 00:03:29.816079 29837 net.cpp:129] Top shape: 1 5 (5)
I1018 00:03:29.816087 29837 net.cpp:137] Memory required for data: 1340120
I1018 00:03:29.816093 29837 layer_factory.hpp:77] Creating layer cont_96_lstm1_cont_slice_95_split
I1018 00:03:29.816102 29837 net.cpp:84] Creating Layer cont_96_lstm1_cont_slice_95_split
I1018 00:03:29.816108 29837 net.cpp:406] cont_96_lstm1_cont_slice_95_split <- cont_96
I1018 00:03:29.816118 29837 net.cpp:380] cont_96_lstm1_cont_slice_95_split -> cont_96_lstm1_cont_slice_95_split_0
I1018 00:03:29.816130 29837 net.cpp:380] cont_96_lstm1_cont_slice_95_split -> cont_96_lstm1_cont_slice_95_split_1
I1018 00:03:29.816184 29837 net.cpp:122] Setting up cont_96_lstm1_cont_slice_95_split
I1018 00:03:29.816195 29837 net.cpp:129] Top shape: 1 5 (5)
I1018 00:03:29.816202 29837 net.cpp:129] Top shape: 1 5 (5)
I1018 00:03:29.816208 29837 net.cpp:137] Memory required for data: 1340160
I1018 00:03:29.816215 29837 layer_factory.hpp:77] Creating layer cont_97_lstm1_cont_slice_96_split
I1018 00:03:29.816223 29837 net.cpp:84] Creating Layer cont_97_lstm1_cont_slice_96_split
I1018 00:03:29.816231 29837 net.cpp:406] cont_97_lstm1_cont_slice_96_split <- cont_97
I1018 00:03:29.816241 29837 net.cpp:380] cont_97_lstm1_cont_slice_96_split -> cont_97_lstm1_cont_slice_96_split_0
I1018 00:03:29.816252 29837 net.cpp:380] cont_97_lstm1_cont_slice_96_split -> cont_97_lstm1_cont_slice_96_split_1
I1018 00:03:29.816296 29837 net.cpp:122] Setting up cont_97_lstm1_cont_slice_96_split
I1018 00:03:29.816308 29837 net.cpp:129] Top shape: 1 5 (5)
I1018 00:03:29.816314 29837 net.cpp:129] Top shape: 1 5 (5)
I1018 00:03:29.816321 29837 net.cpp:137] Memory required for data: 1340200
I1018 00:03:29.816328 29837 layer_factory.hpp:77] Creating layer cont_98_lstm1_cont_slice_97_split
I1018 00:03:29.816339 29837 net.cpp:84] Creating Layer cont_98_lstm1_cont_slice_97_split
I1018 00:03:29.816345 29837 net.cpp:406] cont_98_lstm1_cont_slice_97_split <- cont_98
I1018 00:03:29.816354 29837 net.cpp:380] cont_98_lstm1_cont_slice_97_split -> cont_98_lstm1_cont_slice_97_split_0
I1018 00:03:29.816365 29837 net.cpp:380] cont_98_lstm1_cont_slice_97_split -> cont_98_lstm1_cont_slice_97_split_1
I1018 00:03:29.816411 29837 net.cpp:122] Setting up cont_98_lstm1_cont_slice_97_split
I1018 00:03:29.816422 29837 net.cpp:129] Top shape: 1 5 (5)
I1018 00:03:29.816431 29837 net.cpp:129] Top shape: 1 5 (5)
I1018 00:03:29.816437 29837 net.cpp:137] Memory required for data: 1340240
I1018 00:03:29.816444 29837 layer_factory.hpp:77] Creating layer cont_99_lstm1_cont_slice_98_split
I1018 00:03:29.816452 29837 net.cpp:84] Creating Layer cont_99_lstm1_cont_slice_98_split
I1018 00:03:29.816459 29837 net.cpp:406] cont_99_lstm1_cont_slice_98_split <- cont_99
I1018 00:03:29.816468 29837 net.cpp:380] cont_99_lstm1_cont_slice_98_split -> cont_99_lstm1_cont_slice_98_split_0
I1018 00:03:29.816478 29837 net.cpp:380] cont_99_lstm1_cont_slice_98_split -> cont_99_lstm1_cont_slice_98_split_1
I1018 00:03:29.816524 29837 net.cpp:122] Setting up cont_99_lstm1_cont_slice_98_split
I1018 00:03:29.816534 29837 net.cpp:129] Top shape: 1 5 (5)
I1018 00:03:29.816542 29837 net.cpp:129] Top shape: 1 5 (5)
I1018 00:03:29.816550 29837 net.cpp:137] Memory required for data: 1340280
I1018 00:03:29.816556 29837 layer_factory.hpp:77] Creating layer cont_100_lstm1_cont_slice_99_split
I1018 00:03:29.816565 29837 net.cpp:84] Creating Layer cont_100_lstm1_cont_slice_99_split
I1018 00:03:29.816573 29837 net.cpp:406] cont_100_lstm1_cont_slice_99_split <- cont_100
I1018 00:03:29.816582 29837 net.cpp:380] cont_100_lstm1_cont_slice_99_split -> cont_100_lstm1_cont_slice_99_split_0
I1018 00:03:29.816593 29837 net.cpp:380] cont_100_lstm1_cont_slice_99_split -> cont_100_lstm1_cont_slice_99_split_1
I1018 00:03:29.816640 29837 net.cpp:122] Setting up cont_100_lstm1_cont_slice_99_split
I1018 00:03:29.816650 29837 net.cpp:129] Top shape: 1 5 (5)
I1018 00:03:29.816658 29837 net.cpp:129] Top shape: 1 5 (5)
I1018 00:03:29.816664 29837 net.cpp:137] Memory required for data: 1340320
I1018 00:03:29.816670 29837 layer_factory.hpp:77] Creating layer cont_101_lstm1_cont_slice_100_split
I1018 00:03:29.816679 29837 net.cpp:84] Creating Layer cont_101_lstm1_cont_slice_100_split
I1018 00:03:29.816687 29837 net.cpp:406] cont_101_lstm1_cont_slice_100_split <- cont_101
I1018 00:03:29.816699 29837 net.cpp:380] cont_101_lstm1_cont_slice_100_split -> cont_101_lstm1_cont_slice_100_split_0
I1018 00:03:29.816710 29837 net.cpp:380] cont_101_lstm1_cont_slice_100_split -> cont_101_lstm1_cont_slice_100_split_1
I1018 00:03:29.816754 29837 net.cpp:122] Setting up cont_101_lstm1_cont_slice_100_split
I1018 00:03:29.816767 29837 net.cpp:129] Top shape: 1 5 (5)
I1018 00:03:29.816776 29837 net.cpp:129] Top shape: 1 5 (5)
I1018 00:03:29.816781 29837 net.cpp:137] Memory required for data: 1340360
I1018 00:03:29.816787 29837 layer_factory.hpp:77] Creating layer cont_102_lstm1_cont_slice_101_split
I1018 00:03:29.816797 29837 net.cpp:84] Creating Layer cont_102_lstm1_cont_slice_101_split
I1018 00:03:29.816803 29837 net.cpp:406] cont_102_lstm1_cont_slice_101_split <- cont_102
I1018 00:03:29.816812 29837 net.cpp:380] cont_102_lstm1_cont_slice_101_split -> cont_102_lstm1_cont_slice_101_split_0
I1018 00:03:29.816823 29837 net.cpp:380] cont_102_lstm1_cont_slice_101_split -> cont_102_lstm1_cont_slice_101_split_1
I1018 00:03:29.816871 29837 net.cpp:122] Setting up cont_102_lstm1_cont_slice_101_split
I1018 00:03:29.816882 29837 net.cpp:129] Top shape: 1 5 (5)
I1018 00:03:29.816890 29837 net.cpp:129] Top shape: 1 5 (5)
I1018 00:03:29.816897 29837 net.cpp:137] Memory required for data: 1340400
I1018 00:03:29.816905 29837 layer_factory.hpp:77] Creating layer cont_103_lstm1_cont_slice_102_split
I1018 00:03:29.816912 29837 net.cpp:84] Creating Layer cont_103_lstm1_cont_slice_102_split
I1018 00:03:29.816920 29837 net.cpp:406] cont_103_lstm1_cont_slice_102_split <- cont_103
I1018 00:03:29.816929 29837 net.cpp:380] cont_103_lstm1_cont_slice_102_split -> cont_103_lstm1_cont_slice_102_split_0
I1018 00:03:29.816941 29837 net.cpp:380] cont_103_lstm1_cont_slice_102_split -> cont_103_lstm1_cont_slice_102_split_1
I1018 00:03:29.816987 29837 net.cpp:122] Setting up cont_103_lstm1_cont_slice_102_split
I1018 00:03:29.816998 29837 net.cpp:129] Top shape: 1 5 (5)
I1018 00:03:29.817005 29837 net.cpp:129] Top shape: 1 5 (5)
I1018 00:03:29.817009 29837 net.cpp:137] Memory required for data: 1340440
I1018 00:03:29.817014 29837 layer_factory.hpp:77] Creating layer cont_104_lstm1_cont_slice_103_split
I1018 00:03:29.817020 29837 net.cpp:84] Creating Layer cont_104_lstm1_cont_slice_103_split
I1018 00:03:29.817025 29837 net.cpp:406] cont_104_lstm1_cont_slice_103_split <- cont_104
I1018 00:03:29.817034 29837 net.cpp:380] cont_104_lstm1_cont_slice_103_split -> cont_104_lstm1_cont_slice_103_split_0
I1018 00:03:29.817041 29837 net.cpp:380] cont_104_lstm1_cont_slice_103_split -> cont_104_lstm1_cont_slice_103_split_1
I1018 00:03:29.817080 29837 net.cpp:122] Setting up cont_104_lstm1_cont_slice_103_split
I1018 00:03:29.817091 29837 net.cpp:129] Top shape: 1 5 (5)
I1018 00:03:29.817100 29837 net.cpp:129] Top shape: 1 5 (5)
I1018 00:03:29.817106 29837 net.cpp:137] Memory required for data: 1340480
I1018 00:03:29.817113 29837 layer_factory.hpp:77] Creating layer cont_105_lstm1_cont_slice_104_split
I1018 00:03:29.817128 29837 net.cpp:84] Creating Layer cont_105_lstm1_cont_slice_104_split
I1018 00:03:29.817136 29837 net.cpp:406] cont_105_lstm1_cont_slice_104_split <- cont_105
I1018 00:03:29.817142 29837 net.cpp:380] cont_105_lstm1_cont_slice_104_split -> cont_105_lstm1_cont_slice_104_split_0
I1018 00:03:29.817150 29837 net.cpp:380] cont_105_lstm1_cont_slice_104_split -> cont_105_lstm1_cont_slice_104_split_1
I1018 00:03:29.817188 29837 net.cpp:122] Setting up cont_105_lstm1_cont_slice_104_split
I1018 00:03:29.817195 29837 net.cpp:129] Top shape: 1 5 (5)
I1018 00:03:29.817200 29837 net.cpp:129] Top shape: 1 5 (5)
I1018 00:03:29.817204 29837 net.cpp:137] Memory required for data: 1340520
I1018 00:03:29.817209 29837 layer_factory.hpp:77] Creating layer cont_106_lstm1_cont_slice_105_split
I1018 00:03:29.820613 29837 net.cpp:84] Creating Layer cont_106_lstm1_cont_slice_105_split
I1018 00:03:29.820631 29837 net.cpp:406] cont_106_lstm1_cont_slice_105_split <- cont_106
I1018 00:03:29.820641 29837 net.cpp:380] cont_106_lstm1_cont_slice_105_split -> cont_106_lstm1_cont_slice_105_split_0
I1018 00:03:29.820650 29837 net.cpp:380] cont_106_lstm1_cont_slice_105_split -> cont_106_lstm1_cont_slice_105_split_1
I1018 00:03:29.820715 29837 net.cpp:122] Setting up cont_106_lstm1_cont_slice_105_split
I1018 00:03:29.820726 29837 net.cpp:129] Top shape: 1 5 (5)
I1018 00:03:29.820731 29837 net.cpp:129] Top shape: 1 5 (5)
I1018 00:03:29.820735 29837 net.cpp:137] Memory required for data: 1340560
I1018 00:03:29.820740 29837 layer_factory.hpp:77] Creating layer cont_107_lstm1_cont_slice_106_split
I1018 00:03:29.820746 29837 net.cpp:84] Creating Layer cont_107_lstm1_cont_slice_106_split
I1018 00:03:29.820751 29837 net.cpp:406] cont_107_lstm1_cont_slice_106_split <- cont_107
I1018 00:03:29.820760 29837 net.cpp:380] cont_107_lstm1_cont_slice_106_split -> cont_107_lstm1_cont_slice_106_split_0
I1018 00:03:29.820766 29837 net.cpp:380] cont_107_lstm1_cont_slice_106_split -> cont_107_lstm1_cont_slice_106_split_1
I1018 00:03:29.820803 29837 net.cpp:122] Setting up cont_107_lstm1_cont_slice_106_split
I1018 00:03:29.820955 29837 net.cpp:129] Top shape: 1 5 (5)
I1018 00:03:29.821002 29837 net.cpp:129] Top shape: 1 5 (5)
I1018 00:03:29.821033 29837 net.cpp:137] Memory required for data: 1340600
I1018 00:03:29.821071 29837 layer_factory.hpp:77] Creating layer cont_108_lstm1_cont_slice_107_split
I1018 00:03:29.821142 29837 net.cpp:84] Creating Layer cont_108_lstm1_cont_slice_107_split
I1018 00:03:29.821211 29837 net.cpp:406] cont_108_lstm1_cont_slice_107_split <- cont_108
I1018 00:03:29.821337 29837 net.cpp:380] cont_108_lstm1_cont_slice_107_split -> cont_108_lstm1_cont_slice_107_split_0
I1018 00:03:29.821455 29837 net.cpp:380] cont_108_lstm1_cont_slice_107_split -> cont_108_lstm1_cont_slice_107_split_1
I1018 00:03:29.821962 29837 net.cpp:122] Setting up cont_108_lstm1_cont_slice_107_split
I1018 00:03:29.822181 29837 net.cpp:129] Top shape: 1 5 (5)
I1018 00:03:29.822186 29837 net.cpp:129] Top shape: 1 5 (5)
I1018 00:03:29.822190 29837 net.cpp:137] Memory required for data: 1340640
I1018 00:03:29.822193 29837 layer_factory.hpp:77] Creating layer cont_109_lstm1_cont_slice_108_split
I1018 00:03:29.822201 29837 net.cpp:84] Creating Layer cont_109_lstm1_cont_slice_108_split
I1018 00:03:29.822206 29837 net.cpp:406] cont_109_lstm1_cont_slice_108_split <- cont_109
I1018 00:03:29.822212 29837 net.cpp:380] cont_109_lstm1_cont_slice_108_split -> cont_109_lstm1_cont_slice_108_split_0
I1018 00:03:29.822218 29837 net.cpp:380] cont_109_lstm1_cont_slice_108_split -> cont_109_lstm1_cont_slice_108_split_1
I1018 00:03:29.822263 29837 net.cpp:122] Setting up cont_109_lstm1_cont_slice_108_split
I1018 00:03:29.822269 29837 net.cpp:129] Top shape: 1 5 (5)
I1018 00:03:29.822273 29837 net.cpp:129] Top shape: 1 5 (5)
I1018 00:03:29.822278 29837 net.cpp:137] Memory required for data: 1340680
I1018 00:03:29.822283 29837 layer_factory.hpp:77] Creating layer cont_110_lstm1_cont_slice_109_split
I1018 00:03:29.822288 29837 net.cpp:84] Creating Layer cont_110_lstm1_cont_slice_109_split
I1018 00:03:29.822293 29837 net.cpp:406] cont_110_lstm1_cont_slice_109_split <- cont_110
I1018 00:03:29.822300 29837 net.cpp:380] cont_110_lstm1_cont_slice_109_split -> cont_110_lstm1_cont_slice_109_split_0
I1018 00:03:29.822307 29837 net.cpp:380] cont_110_lstm1_cont_slice_109_split -> cont_110_lstm1_cont_slice_109_split_1
I1018 00:03:29.822342 29837 net.cpp:122] Setting up cont_110_lstm1_cont_slice_109_split
I1018 00:03:29.822350 29837 net.cpp:129] Top shape: 1 5 (5)
I1018 00:03:29.822353 29837 net.cpp:129] Top shape: 1 5 (5)
I1018 00:03:29.822357 29837 net.cpp:137] Memory required for data: 1340720
I1018 00:03:29.822361 29837 layer_factory.hpp:77] Creating layer cont_111_lstm1_cont_slice_110_split
I1018 00:03:29.822368 29837 net.cpp:84] Creating Layer cont_111_lstm1_cont_slice_110_split
I1018 00:03:29.822373 29837 net.cpp:406] cont_111_lstm1_cont_slice_110_split <- cont_111
I1018 00:03:29.822379 29837 net.cpp:380] cont_111_lstm1_cont_slice_110_split -> cont_111_lstm1_cont_slice_110_split_0
I1018 00:03:29.822391 29837 net.cpp:380] cont_111_lstm1_cont_slice_110_split -> cont_111_lstm1_cont_slice_110_split_1
I1018 00:03:29.822423 29837 net.cpp:122] Setting up cont_111_lstm1_cont_slice_110_split
I1018 00:03:29.822430 29837 net.cpp:129] Top shape: 1 5 (5)
I1018 00:03:29.822434 29837 net.cpp:129] Top shape: 1 5 (5)
I1018 00:03:29.822438 29837 net.cpp:137] Memory required for data: 1340760
I1018 00:03:29.822443 29837 layer_factory.hpp:77] Creating layer cont_112_lstm1_cont_slice_111_split
I1018 00:03:29.822576 29837 net.cpp:84] Creating Layer cont_112_lstm1_cont_slice_111_split
I1018 00:03:29.822639 29837 net.cpp:406] cont_112_lstm1_cont_slice_111_split <- cont_112
I1018 00:03:29.822734 29837 net.cpp:380] cont_112_lstm1_cont_slice_111_split -> cont_112_lstm1_cont_slice_111_split_0
I1018 00:03:29.822805 29837 net.cpp:380] cont_112_lstm1_cont_slice_111_split -> cont_112_lstm1_cont_slice_111_split_1
I1018 00:03:29.823251 29837 net.cpp:122] Setting up cont_112_lstm1_cont_slice_111_split
I1018 00:03:29.823416 29837 net.cpp:129] Top shape: 1 5 (5)
I1018 00:03:29.823465 29837 net.cpp:129] Top shape: 1 5 (5)
I1018 00:03:29.823506 29837 net.cpp:137] Memory required for data: 1340800
I1018 00:03:29.823544 29837 layer_factory.hpp:77] Creating layer cont_113_lstm1_cont_slice_112_split
I1018 00:03:29.823609 29837 net.cpp:84] Creating Layer cont_113_lstm1_cont_slice_112_split
I1018 00:03:29.823678 29837 net.cpp:406] cont_113_lstm1_cont_slice_112_split <- cont_113
I1018 00:03:29.823776 29837 net.cpp:380] cont_113_lstm1_cont_slice_112_split -> cont_113_lstm1_cont_slice_112_split_0
I1018 00:03:29.823824 29837 net.cpp:380] cont_113_lstm1_cont_slice_112_split -> cont_113_lstm1_cont_slice_112_split_1
I1018 00:03:29.823855 29837 net.cpp:122] Setting up cont_113_lstm1_cont_slice_112_split
I1018 00:03:29.823863 29837 net.cpp:129] Top shape: 1 5 (5)
I1018 00:03:29.823868 29837 net.cpp:129] Top shape: 1 5 (5)
I1018 00:03:29.823871 29837 net.cpp:137] Memory required for data: 1340840
I1018 00:03:29.823875 29837 layer_factory.hpp:77] Creating layer cont_114_lstm1_cont_slice_113_split
I1018 00:03:29.823881 29837 net.cpp:84] Creating Layer cont_114_lstm1_cont_slice_113_split
I1018 00:03:29.823886 29837 net.cpp:406] cont_114_lstm1_cont_slice_113_split <- cont_114
I1018 00:03:29.823892 29837 net.cpp:380] cont_114_lstm1_cont_slice_113_split -> cont_114_lstm1_cont_slice_113_split_0
I1018 00:03:29.823899 29837 net.cpp:380] cont_114_lstm1_cont_slice_113_split -> cont_114_lstm1_cont_slice_113_split_1
I1018 00:03:29.823937 29837 net.cpp:122] Setting up cont_114_lstm1_cont_slice_113_split
I1018 00:03:29.823945 29837 net.cpp:129] Top shape: 1 5 (5)
I1018 00:03:29.823949 29837 net.cpp:129] Top shape: 1 5 (5)
I1018 00:03:29.823953 29837 net.cpp:137] Memory required for data: 1340880
I1018 00:03:29.823957 29837 layer_factory.hpp:77] Creating layer cont_115_lstm1_cont_slice_114_split
I1018 00:03:29.823963 29837 net.cpp:84] Creating Layer cont_115_lstm1_cont_slice_114_split
I1018 00:03:29.823968 29837 net.cpp:406] cont_115_lstm1_cont_slice_114_split <- cont_115
I1018 00:03:29.823976 29837 net.cpp:380] cont_115_lstm1_cont_slice_114_split -> cont_115_lstm1_cont_slice_114_split_0
I1018 00:03:29.823983 29837 net.cpp:380] cont_115_lstm1_cont_slice_114_split -> cont_115_lstm1_cont_slice_114_split_1
I1018 00:03:29.824013 29837 net.cpp:122] Setting up cont_115_lstm1_cont_slice_114_split
I1018 00:03:29.824020 29837 net.cpp:129] Top shape: 1 5 (5)
I1018 00:03:29.824024 29837 net.cpp:129] Top shape: 1 5 (5)
I1018 00:03:29.824050 29837 net.cpp:137] Memory required for data: 1340920
I1018 00:03:29.824056 29837 layer_factory.hpp:77] Creating layer cont_116_lstm1_cont_slice_115_split
I1018 00:03:29.850045 29837 net.cpp:84] Creating Layer cont_116_lstm1_cont_slice_115_split
I1018 00:03:29.850083 29837 net.cpp:406] cont_116_lstm1_cont_slice_115_split <- cont_116
I1018 00:03:29.850107 29837 net.cpp:380] cont_116_lstm1_cont_slice_115_split -> cont_116_lstm1_cont_slice_115_split_0
I1018 00:03:29.850133 29837 net.cpp:380] cont_116_lstm1_cont_slice_115_split -> cont_116_lstm1_cont_slice_115_split_1
…
I1018 00:03:34.033017 29837 net.cpp:406] lstm1_gate_input_115 <- W_hc_h_114
I1018 00:03:34.033025 29837 net.cpp:406] lstm1_gate_input_115 <- W_xc_x_115
I1018 00:03:34.033033 29837 net.cpp:380] lstm1_gate_input_115 -> gate_input_115
I1018 00:03:34.033069 29837 net.cpp:122] Setting up lstm1_gate_input_115
I1018 00:03:34.033079 29837 net.cpp:129] Top shape: 1 150 2048 (307200)
I1018 00:03:34.033083 29837 net.cpp:137] Memory required for data: 812851200
I1018 00:03:34.033088 29837 layer_factory.hpp:77] Creating layer lstm1_unit_115
I1018 00:03:34.033098 29837 net.cpp:84] Creating Layer lstm1_unit_115
I1018 00:03:34.033104 29837 net.cpp:406] lstm1_unit_115 <- c_114
I1018 00:03:34.033112 29837 net.cpp:406] lstm1_unit_115 <- gate_input_115
I1018 00:03:34.033118 29837 net.cpp:406] lstm1_unit_115 <- cont_115_lstm1_cont_slice_114_split_1
I1018 00:03:34.033126 29837 net.cpp:380] lstm1_unit_115 -> c_115
I1018 00:03:34.033135 29837 net.cpp:380] lstm1_unit_115 -> h_115
I1018 00:03:34.033192 29837 net.cpp:122] Setting up lstm1_unit_115
I1018 00:03:34.033200 29837 net.cpp:129] Top shape: 1 150 512 (76800)
I1018 00:03:34.033206 29837 net.cpp:129] Top shape: 1 150 512 (76800)
I1018 00:03:34.033211 29837 net.cpp:137] Memory required for data: 813465600
I1018 00:03:34.033215 29837 layer_factory.hpp:77] Creating layer h_115_lstm1_unit_115_1_split
I1018 00:03:34.033222 29837 net.cpp:84] Creating Layer h_115_lstm1_unit_115_1_split
I1018 00:03:34.033228 29837 net.cpp:406] h_115_lstm1_unit_115_1_split <- h_115
I1018 00:03:34.033236 29837 net.cpp:380] h_115_lstm1_unit_115_1_split -> h_115_lstm1_unit_115_1_split_0
I1018 00:03:34.033247 29837 net.cpp:380] h_115_lstm1_unit_115_1_split -> h_115_lstm1_unit_115_1_split_1
I1018 00:03:34.033285 29837 net.cpp:122] Setting up h_115_lstm1_unit_115_1_split
I1018 00:03:34.033293 29837 net.cpp:129] Top shape: 1 150 512 (76800)
I1018 00:03:34.033299 29837 net.cpp:129] Top shape: 1 150 512 (76800)
I1018 00:03:34.033303 29837 net.cpp:137] Memory required for data: 814080000
I1018 00:03:34.033310 29837 layer_factory.hpp:77] Creating layer lstm1_h_conted_115
I1018 00:03:34.033320 29837 net.cpp:84] Creating Layer lstm1_h_conted_115
I1018 00:03:34.033326 29837 net.cpp:406] lstm1_h_conted_115 <- h_115_lstm1_unit_115_1_split_0
I1018 00:03:34.033335 29837 net.cpp:406] lstm1_h_conted_115 <- cont_116_lstm1_cont_slice_115_split_0
I1018 00:03:34.033344 29837 net.cpp:380] lstm1_h_conted_115 -> h_conted_115
I1018 00:03:34.033427 29837 net.cpp:122] Setting up lstm1_h_conted_115
I1018 00:03:34.033438 29837 net.cpp:129] Top shape: 1 150 512 (76800)
I1018 00:03:34.033443 29837 net.cpp:137] Memory required for data: 814387200
I1018 00:03:34.033448 29837 layer_factory.hpp:77] Creating layer lstm1_transform_116
I1018 00:03:34.033478 29837 net.cpp:84] Creating Layer lstm1_transform_116
I1018 00:03:34.033486 29837 net.cpp:406] lstm1_transform_116 <- h_conted_115
I1018 00:03:34.033495 29837 net.cpp:380] lstm1_transform_116 -> W_hc_h_115
I1018 00:03:34.046665 29837 net.cpp:122] Setting up lstm1_transform_116
I1018 00:03:34.046684 29837 net.cpp:129] Top shape: 1 150 2048 (307200)
I1018 00:03:34.046690 29837 net.cpp:137] Memory required for data: 815616000
I1018 00:03:34.046696 29837 net.cpp:465] Sharing parameters 'W_hc' owned by layer 'lstm1_transform_1', param index 0
I1018 00:03:34.046702 29837 layer_factory.hpp:77] Creating layer lstm1_gate_input_116
I1018 00:03:34.046712 29837 net.cpp:84] Creating Layer lstm1_gate_input_116
I1018 00:03:34.046720 29837 net.cpp:406] lstm1_gate_input_116 <- W_hc_h_115
I1018 00:03:34.046727 29837 net.cpp:406] lstm1_gate_input_116 <- W_xc_x_116
I1018 00:03:34.046736 29837 net.cpp:380] lstm1_gate_input_116 -> gate_input_116
I1018 00:03:34.046773 29837 net.cpp:122] Setting up lstm1_gate_input_116
I1018 00:03:34.046782 29837 net.cpp:129] Top shape: 1 150 2048 (307200)
I1018 00:03:34.046787 29837 net.cpp:137] Memory required for data: 816844800
I1018 00:03:34.046792 29837 layer_factory.hpp:77] Creating layer lstm1_unit_116
I1018 00:03:34.046808 29837 net.cpp:84] Creating Layer lstm1_unit_116
I1018 00:03:34.046818 29837 net.cpp:406] lstm1_unit_116 <- c_115
I1018 00:03:34.046824 29837 net.cpp:406] lstm1_unit_116 <- gate_input_116
I1018 00:03:34.046831 29837 net.cpp:406] lstm1_unit_116 <- cont_116_lstm1_cont_slice_115_split_1
I1018 00:03:34.046841 29837 net.cpp:380] lstm1_unit_116 -> c_116
I1018 00:03:34.046852 29837 net.cpp:380] lstm1_unit_116 -> h_116
I1018 00:03:34.046912 29837 net.cpp:122] Setting up lstm1_unit_116
I1018 00:03:34.046921 29837 net.cpp:129] Top shape: 1 150 512 (76800)
I1018 00:03:34.046926 29837 net.cpp:129] Top shape: 1 150 512 (76800)
I1018 00:03:34.046931 29837 net.cpp:137] Memory required for data: 817459200
I1018 00:03:34.046936 29837 layer_factory.hpp:77] Creating layer h_116_lstm1_unit_116_1_split
I1018 00:03:34.046943 29837 net.cpp:84] Creating Layer h_116_lstm1_unit_116_1_split
I1018 00:03:34.046948 29837 net.cpp:406] h_116_lstm1_unit_116_1_split <- h_116
I1018 00:03:34.046957 29837 net.cpp:380] h_116_lstm1_unit_116_1_split -> h_116_lstm1_unit_116_1_split_0
I1018 00:03:34.046972 29837 net.cpp:380] h_116_lstm1_unit_116_1_split -> h_116_lstm1_unit_116_1_split_1
I1018 00:03:34.047013 29837 net.cpp:122] Setting up h_116_lstm1_unit_116_1_split
I1018 00:03:34.047020 29837 net.cpp:129] Top shape: 1 150 512 (76800)
I1018 00:03:34.047026 29837 net.cpp:129] Top shape: 1 150 512 (76800)
I1018 00:03:34.047031 29837 net.cpp:137] Memory required for data: 818073600
I1018 00:03:34.047036 29837 layer_factory.hpp:77] Creating layer lstm1_h_conted_116
I1018 00:03:34.047044 29837 net.cpp:84] Creating Layer lstm1_h_conted_116
I1018 00:03:34.047049 29837 net.cpp:406] lstm1_h_conted_116 <- h_116_lstm1_unit_116_1_split_0
I1018 00:03:34.047060 29837 net.cpp:406] lstm1_h_conted_116 <- cont_117_lstm1_cont_slice_116_split_0
I1018 00:03:34.047070 29837 net.cpp:380] lstm1_h_conted_116 -> h_conted_116
I1018 00:03:34.047149 29837 net.cpp:122] Setting up lstm1_h_conted_116
I1018 00:03:34.047161 29837 net.cpp:129] Top shape: 1 150 512 (76800)
I1018 00:03:34.047166 29837 net.cpp:137] Memory required for data: 818380800
I1018 00:03:34.047171 29837 layer_factory.hpp:77] Creating layer lstm1_transform_117
I1018 00:03:34.047188 29837 net.cpp:84] Creating Layer lstm1_transform_117
I1018 00:03:34.047195 29837 net.cpp:406] lstm1_transform_117 <- h_conted_116
I1018 00:03:34.047205 29837 net.cpp:380] lstm1_transform_117 -> W_hc_h_116
I1018 00:03:34.060366 29837 net.cpp:122] Setting up lstm1_transform_117
I1018 00:03:34.060389 29837 net.cpp:129] Top shape: 1 150 2048 (307200)
I1018 00:03:34.060395 29837 net.cpp:137] Memory required for data: 819609600
I1018 00:03:34.060401 29837 net.cpp:465] Sharing parameters 'W_hc' owned by layer 'lstm1_transform_1', param index 0
I1018 00:03:34.060406 29837 layer_factory.hpp:77] Creating layer lstm1_gate_input_117
I1018 00:03:34.060417 29837 net.cpp:84] Creating Layer lstm1_gate_input_117
I1018 00:03:34.060425 29837 net.cpp:406] lstm1_gate_input_117 <- W_hc_h_116
I1018 00:03:34.060431 29837 net.cpp:406] lstm1_gate_input_117 <- W_xc_x_117
I1018 00:03:34.060442 29837 net.cpp:380] lstm1_gate_input_117 -> gate_input_117
I1018 00:03:34.060477 29837 net.cpp:122] Setting up lstm1_gate_input_117
I1018 00:03:34.060485 29837 net.cpp:129] Top shape: 1 150 2048 (307200)
I1018 00:03:34.060490 29837 net.cpp:137] Memory required for data: 820838400
I1018 00:03:34.060494 29837 layer_factory.hpp:77] Creating layer lstm1_unit_117
I1018 00:03:34.060503 29837 net.cpp:84] Creating Layer lstm1_unit_117
I1018 00:03:34.060508 29837 net.cpp:406] lstm1_unit_117 <- c_116
I1018 00:03:34.060518 29837 net.cpp:406] lstm1_unit_117 <- gate_input_117
I1018 00:03:34.060524 29837 net.cpp:406] lstm1_unit_117 <- cont_117_lstm1_cont_slice_116_split_1
I1018 00:03:34.060531 29837 net.cpp:380] lstm1_unit_117 -> c_117
I1018 00:03:34.060544 29837 net.cpp:380] lstm1_unit_117 -> h_117
I1018 00:03:34.060600 29837 net.cpp:122] Setting up lstm1_unit_117
I1018 00:03:34.060607 29837 net.cpp:129] Top shape: 1 150 512 (76800)
I1018 00:03:34.060613 29837 net.cpp:129] Top shape: 1 150 512 (76800)
I1018 00:03:34.060617 29837 net.cpp:137] Memory required for data: 821452800
I1018 00:03:34.060622 29837 layer_factory.hpp:77] Creating layer h_117_lstm1_unit_117_1_split
I1018 00:03:34.060629 29837 net.cpp:84] Creating Layer h_117_lstm1_unit_117_1_split
I1018 00:03:34.060634 29837 net.cpp:406] h_117_lstm1_unit_117_1_split <- h_117
I1018 00:03:34.060642 29837 net.cpp:380] h_117_lstm1_unit_117_1_split -> h_117_lstm1_unit_117_1_split_0
I1018 00:03:34.060650 29837 net.cpp:380] h_117_lstm1_unit_117_1_split -> h_117_lstm1_unit_117_1_split_1
I1018 00:03:34.060691 29837 net.cpp:122] Setting up h_117_lstm1_unit_117_1_split
I1018 00:03:34.060699 29837 net.cpp:129] Top shape: 1 150 512 (76800)
I1018 00:03:34.060704 29837 net.cpp:129] Top shape: 1 150 512 (76800)
I1018 00:03:34.060709 29837 net.cpp:137] Memory required for data: 822067200
I1018 00:03:34.060714 29837 layer_factory.hpp:77] Creating layer lstm1_h_conted_117
I1018 00:03:34.060721 29837 net.cpp:84] Creating Layer lstm1_h_conted_117
I1018 00:03:34.060727 29837 net.cpp:406] lstm1_h_conted_117 <- h_117_lstm1_unit_117_1_split_0
I1018 00:03:34.060737 29837 net.cpp:406] lstm1_h_conted_117 <- cont_118_lstm1_cont_slice_117_split_0
I1018 00:03:34.060747 29837 net.cpp:380] lstm1_h_conted_117 -> h_conted_117
I1018 00:03:34.060835 29837 net.cpp:122] Setting up lstm1_h_conted_117
I1018 00:03:34.060848 29837 net.cpp:129] Top shape: 1 150 512 (76800)
I1018 00:03:34.060853 29837 net.cpp:137] Memory required for data: 822374400
I1018 00:03:34.060859 29837 layer_factory.hpp:77] Creating layer lstm1_transform_118
I1018 00:03:34.060876 29837 net.cpp:84] Creating Layer lstm1_transform_118
I1018 00:03:34.060885 29837 net.cpp:406] lstm1_transform_118 <- h_conted_117
I1018 00:03:34.060896 29837 net.cpp:380] lstm1_transform_118 -> W_hc_h_117
I1018 00:03:34.074028 29837 net.cpp:122] Setting up lstm1_transform_118
I1018 00:03:34.074048 29837 net.cpp:129] Top shape: 1 150 2048 (307200)
I1018 00:03:34.074057 29837 net.cpp:137] Memory required for data: 823603200
I1018 00:03:34.074064 29837 net.cpp:465] Sharing parameters 'W_hc' owned by layer 'lstm1_transform_1', param index 0
I1018 00:03:34.074075 29837 layer_factory.hpp:77] Creating layer lstm1_gate_input_118
I1018 00:03:34.074084 29837 net.cpp:84] Creating Layer lstm1_gate_input_118
I1018 00:03:34.074090 29837 net.cpp:406] lstm1_gate_input_118 <- W_hc_h_117
I1018 00:03:34.074103 29837 net.cpp:406] lstm1_gate_input_118 <- W_xc_x_118
I1018 00:03:34.074111 29837 net.cpp:380] lstm1_gate_input_118 -> gate_input_118
I1018 00:03:34.074159 29837 net.cpp:122] Setting up lstm1_gate_input_118
I1018 00:03:34.074170 29837 net.cpp:129] Top shape: 1 150 2048 (307200)
I1018 00:03:34.074174 29837 net.cpp:137] Memory required for data: 824832000
I1018 00:03:34.074179 29837 layer_factory.hpp:77] Creating layer lstm1_unit_118
I1018 00:03:34.074187 29837 net.cpp:84] Creating Layer lstm1_unit_118
I1018 00:03:34.074194 29837 net.cpp:406] lstm1_unit_118 <- c_117
I1018 00:03:34.074201 29837 net.cpp:406] lstm1_unit_118 <- gate_input_118
I1018 00:03:34.074209 29837 net.cpp:406] lstm1_unit_118 <- cont_118_lstm1_cont_slice_117_split_1
I1018 00:03:34.074216 29837 net.cpp:380] lstm1_unit_118 -> c_118
I1018 00:03:34.074226 29837 net.cpp:380] lstm1_unit_118 -> h_118
I1018 00:03:34.074285 29837 net.cpp:122] Setting up lstm1_unit_118
I1018 00:03:34.074293 29837 net.cpp:129] Top shape: 1 150 512 (76800)
I1018 00:03:34.074300 29837 net.cpp:129] Top shape: 1 150 512 (76800)
I1018 00:03:34.074303 29837 net.cpp:137] Memory required for data: 825446400
I1018 00:03:34.074308 29837 layer_factory.hpp:77] Creating layer h_118_lstm1_unit_118_1_split
I1018 00:03:34.074316 29837 net.cpp:84] Creating Layer h_118_lstm1_unit_118_1_split
I1018 00:03:34.074321 29837 net.cpp:406] h_118_lstm1_unit_118_1_split <- h_118
I1018 00:03:34.074328 29837 net.cpp:380] h_118_lstm1_unit_118_1_split -> h_118_lstm1_unit_118_1_split_0
I1018 00:03:34.074337 29837 net.cpp:380] h_118_lstm1_unit_118_1_split -> h_118_lstm1_unit_118_1_split_1
I1018 00:03:34.074378 29837 net.cpp:122] Setting up h_118_lstm1_unit_118_1_split
I1018 00:03:34.074385 29837 net.cpp:129] Top shape: 1 150 512 (76800)
I1018 00:03:34.074391 29837 net.cpp:129] Top shape: 1 150 512 (76800)
I1018 00:03:34.074396 29837 net.cpp:137] Memory required for data: 826060800
I1018 00:03:34.074403 29837 layer_factory.hpp:77] Creating layer lstm1_h_conted_118
I1018 00:03:34.074419 29837 net.cpp:84] Creating Layer lstm1_h_conted_118
I1018 00:03:34.074425 29837 net.cpp:406] lstm1_h_conted_118 <- h_118_lstm1_unit_118_1_split_0
I1018 00:03:34.074432 29837 net.cpp:406] lstm1_h_conted_118 <- cont_119_lstm1_cont_slice_118_split_0
I1018 00:03:34.074440 29837 net.cpp:380] lstm1_h_conted_118 -> h_conted_118
I1018 00:03:34.074522 29837 net.cpp:122] Setting up lstm1_h_conted_118
I1018 00:03:34.074534 29837 net.cpp:129] Top shape: 1 150 512 (76800)
I1018 00:03:34.074539 29837 net.cpp:137] Memory required for data: 826368000
I1018 00:03:34.074544 29837 layer_factory.hpp:77] Creating layer lstm1_transform_119
I1018 00:03:34.074553 29837 net.cpp:84] Creating Layer lstm1_transform_119
I1018 00:03:34.074559 29837 net.cpp:406] lstm1_transform_119 <- h_conted_118
I1018 00:03:34.074568 29837 net.cpp:380] lstm1_transform_119 -> W_hc_h_118
I1018 00:03:34.087761 29837 net.cpp:122] Setting up lstm1_transform_119
I1018 00:03:34.087781 29837 net.cpp:129] Top shape: 1 150 2048 (307200)
I1018 00:03:34.087787 29837 net.cpp:137] Memory required for data: 827596800
I1018 00:03:34.087793 29837 net.cpp:465] Sharing parameters 'W_hc' owned by layer 'lstm1_transform_1', param index 0
I1018 00:03:34.087800 29837 layer_factory.hpp:77] Creating layer lstm1_gate_input_119
I1018 00:03:34.087808 29837 net.cpp:84] Creating Layer lstm1_gate_input_119
I1018 00:03:34.087815 29837 net.cpp:406] lstm1_gate_input_119 <- W_hc_h_118
I1018 00:03:34.087822 29837 net.cpp:406] lstm1_gate_input_119 <- W_xc_x_119
I1018 00:03:34.087831 29837 net.cpp:380] lstm1_gate_input_119 -> gate_input_119
I1018 00:03:34.087867 29837 net.cpp:122] Setting up lstm1_gate_input_119
I1018 00:03:34.087875 29837 net.cpp:129] Top shape: 1 150 2048 (307200)
I1018 00:03:34.087880 29837 net.cpp:137] Memory required for data: 828825600
I1018 00:03:34.087885 29837 layer_factory.hpp:77] Creating layer lstm1_unit_119
I1018 00:03:34.087901 29837 net.cpp:84] Creating Layer lstm1_unit_119
I1018 00:03:34.087910 29837 net.cpp:406] lstm1_unit_119 <- c_118
I1018 00:03:34.087918 29837 net.cpp:406] lstm1_unit_119 <- gate_input_119
I1018 00:03:34.087925 29837 net.cpp:406] lstm1_unit_119 <- cont_119_lstm1_cont_slice_118_split_1
I1018 00:03:34.087932 29837 net.cpp:380] lstm1_unit_119 -> c_119
I1018 00:03:34.087942 29837 net.cpp:380] lstm1_unit_119 -> h_119
I1018 00:03:34.088004 29837 net.cpp:122] Setting up lstm1_unit_119
I1018 00:03:34.088013 29837 net.cpp:129] Top shape: 1 150 512 (76800)
I1018 00:03:34.088019 29837 net.cpp:129] Top shape: 1 150 512 (76800)
I1018 00:03:34.088023 29837 net.cpp:137] Memory required for data: 829440000
I1018 00:03:34.088037 29837 layer_factory.hpp:77] Creating layer h_119_lstm1_unit_119_1_split
I1018 00:03:34.088045 29837 net.cpp:84] Creating Layer h_119_lstm1_unit_119_1_split
I1018 00:03:34.088052 29837 net.cpp:406] h_119_lstm1_unit_119_1_split <- h_119
I1018 00:03:34.088058 29837 net.cpp:380] h_119_lstm1_unit_119_1_split -> h_119_lstm1_unit_119_1_split_0
I1018 00:03:34.088068 29837 net.cpp:380] h_119_lstm1_unit_119_1_split -> h_119_lstm1_unit_119_1_split_1
I1018 00:03:34.088110 29837 net.cpp:122] Setting up h_119_lstm1_unit_119_1_split
I1018 00:03:34.088119 29837 net.cpp:129] Top shape: 1 150 512 (76800)
I1018 00:03:34.088125 29837 net.cpp:129] Top shape: 1 150 512 (76800)
I1018 00:03:34.088129 29837 net.cpp:137] Memory required for data: 830054400
I1018 00:03:34.088135 29837 layer_factory.hpp:77] Creating layer lstm1_h_conted_119
I1018 00:03:34.088152 29837 net.cpp:84] Creating Layer lstm1_h_conted_119
I1018 00:03:34.088161 29837 net.cpp:406] lstm1_h_conted_119 <- h_119_lstm1_unit_119_1_split_0
I1018 00:03:34.088173 29837 net.cpp:406] lstm1_h_conted_119 <- cont_120_lstm1_cont_slice_119_split_0
I1018 00:03:34.088182 29837 net.cpp:380] lstm1_h_conted_119 -> h_conted_119
I1018 00:03:34.088269 29837 net.cpp:122] Setting up lstm1_h_conted_119
I1018 00:03:34.088281 29837 net.cpp:129] Top shape: 1 150 512 (76800)
I1018 00:03:34.088287 29837 net.cpp:137] Memory required for data: 830361600
I1018 00:03:34.088291 29837 layer_factory.hpp:77] Creating layer lstm1_transform_120
I1018 00:03:34.088302 29837 net.cpp:84] Creating Layer lstm1_transform_120
I1018 00:03:34.088309 29837 net.cpp:406] lstm1_transform_120 <- h_conted_119
I1018 00:03:34.088316 29837 net.cpp:380] lstm1_transform_120 -> W_hc_h_119
I1018 00:03:34.101481 29837 net.cpp:122] Setting up lstm1_transform_120
I1018 00:03:34.101500 29837 net.cpp:129] Top shape: 1 150 2048 (307200)
I1018 00:03:34.101505 29837 net.cpp:137] Memory required for data: 831590400
I1018 00:03:34.101512 29837 net.cpp:465] Sharing parameters 'W_hc' owned by layer 'lstm1_transform_1', param index 0
I1018 00:03:34.101517 29837 layer_factory.hpp:77] Creating layer lstm1_gate_input_120
I1018 00:03:34.101527 29837 net.cpp:84] Creating Layer lstm1_gate_input_120
I1018 00:03:34.101534 29837 net.cpp:406] lstm1_gate_input_120 <- W_hc_h_119
I1018 00:03:34.101542 29837 net.cpp:406] lstm1_gate_input_120 <- W_xc_x_120
I1018 00:03:34.101550 29837 net.cpp:380] lstm1_gate_input_120 -> gate_input_120
I1018 00:03:34.101598 29837 net.cpp:122] Setting up lstm1_gate_input_120
I1018 00:03:34.101609 29837 net.cpp:129] Top shape: 1 150 2048 (307200)
I1018 00:03:34.101614 29837 net.cpp:137] Memory required for data: 832819200
I1018 00:03:34.101619 29837 layer_factory.hpp:77] Creating layer lstm1_unit_120
I1018 00:03:34.101634 29837 net.cpp:84] Creating Layer lstm1_unit_120
I1018 00:03:34.101641 29837 net.cpp:406] lstm1_unit_120 <- c_119
I1018 00:03:34.101649 29837 net.cpp:406] lstm1_unit_120 <- gate_input_120
I1018 00:03:34.101656 29837 net.cpp:406] lstm1_unit_120 <- cont_120_lstm1_cont_slice_119_split_1
I1018 00:03:34.101663 29837 net.cpp:380] lstm1_unit_120 -> c_120
I1018 00:03:34.101673 29837 net.cpp:380] lstm1_unit_120 -> h_120
I1018 00:03:34.101730 29837 net.cpp:122] Setting up lstm1_unit_120
I1018 00:03:34.101739 29837 net.cpp:129] Top shape: 1 150 512 (76800)
I1018 00:03:34.101745 29837 net.cpp:129] Top shape: 1 150 512 (76800)
I1018 00:03:34.101750 29837 net.cpp:137] Memory required for data: 833433600
I1018 00:03:34.101755 29837 layer_factory.hpp:77] Creating layer h_120_lstm1_unit_120_1_split
I1018 00:03:34.101763 29837 net.cpp:84] Creating Layer h_120_lstm1_unit_120_1_split
I1018 00:03:34.101768 29837 net.cpp:406] h_120_lstm1_unit_120_1_split <- h_120
I1018 00:03:34.101778 29837 net.cpp:380] h_120_lstm1_unit_120_1_split -> h_120_lstm1_unit_120_1_split_0
I1018 00:03:34.101788 29837 net.cpp:380] h_120_lstm1_unit_120_1_split -> h_120_lstm1_unit_120_1_split_1
I1018 00:03:34.101826 29837 net.cpp:122] Setting up h_120_lstm1_unit_120_1_split
I1018 00:03:34.101835 29837 net.cpp:129] Top shape: 1 150 512 (76800)
I1018 00:03:34.101840 29837 net.cpp:129] Top shape: 1 150 512 (76800)
I1018 00:03:34.101845 29837 net.cpp:137] Memory required for data: 834048000
I1018 00:03:34.101848 29837 layer_factory.hpp:77] Creating layer lstm1_h_conted_120
I1018 00:03:34.101864 29837 net.cpp:84] Creating Layer lstm1_h_conted_120
I1018 00:03:34.101871 29837 net.cpp:406] lstm1_h_conted_120 <- h_120_lstm1_unit_120_1_split_0
I1018 00:03:34.101878 29837 net.cpp:406] lstm1_h_conted_120 <- cont_121_lstm1_cont_slice_120_split_0
I1018 00:03:34.101902 29837 net.cpp:380] lstm1_h_conted_120 -> h_conted_120
I1018 00:03:34.101986 29837 net.cpp:122] Setting up lstm1_h_conted_120
I1018 00:03:34.101999 29837 net.cpp:129] Top shape: 1 150 512 (76800)
I1018 00:03:34.102003 29837 net.cpp:137] Memory required for data: 834355200
I1018 00:03:34.102010 29837 layer_factory.hpp:77] Creating layer lstm1_transform_121
I1018 00:03:34.102020 29837 net.cpp:84] Creating Layer lstm1_transform_121
I1018 00:03:34.102026 29837 net.cpp:406] lstm1_transform_121 <- h_conted_120
I1018 00:03:34.102037 29837 net.cpp:380] lstm1_transform_121 -> W_hc_h_120
I1018 00:03:34.124472 29837 net.cpp:122] Setting up lstm1_transform_121
I1018 00:03:34.124516 29837 net.cpp:129] Top shape: 1 150 2048 (307200)
I1018 00:03:34.124521 29837 net.cpp:137] Memory required for data: 835584000
I1018 00:03:34.124531 29837 net.cpp:465] Sharing parameters 'W_hc' owned by layer 'lstm1_transform_1', param index 0
I1018 00:03:34.124538 29837 layer_factory.hpp:77] Creating layer lstm1_gate_input_121
I1018 00:03:34.124557 29837 net.cpp:84] Creating Layer lstm1_gate_input_121
I1018 00:03:34.124567 29837 net.cpp:406] lstm1_gate_input_121 <- W_hc_h_120
I1018 00:03:34.124579 29837 net.cpp:406] lstm1_gate_input_121 <- W_xc_x_121
I1018 00:03:34.124590 29837 net.cpp:380] lstm1_gate_input_121 -> gate_input_121
I1018 00:03:34.124641 29837 net.cpp:122] Setting up lstm1_gate_input_121
I1018 00:03:34.124650 29837 net.cpp:129] Top shape: 1 150 2048 (307200)
I1018 00:03:34.124655 29837 net.cpp:137] Memory required for data: 836812800
I1018 00:03:34.124660 29837 layer_factory.hpp:77] Creating layer lstm1_unit_121
I1018 00:03:34.124675 29837 net.cpp:84] Creating Layer lstm1_unit_121
I1018 00:03:34.124682 29837 net.cpp:406] lstm1_unit_121 <- c_120
I1018 00:03:34.124691 29837 net.cpp:406] lstm1_unit_121 <- gate_input_121
I1018 00:03:34.124698 29837 net.cpp:406] lstm1_unit_121 <- cont_121_lstm1_cont_slice_120_split_1
I1018 00:03:34.124706 29837 net.cpp:380] lstm1_unit_121 -> c_121
I1018 00:03:34.124718 29837 net.cpp:380] lstm1_unit_121 -> h_121
I1018 00:03:34.124779 29837 net.cpp:122] Setting up lstm1_unit_121
I1018 00:03:34.124796 29837 net.cpp:129] Top shape: 1 150 512 (76800)
I1018 00:03:34.124802 29837 net.cpp:129] Top shape: 1 150 512 (76800)
I1018 00:03:34.124807 29837 net.cpp:137] Memory required for data: 837427200
I1018 00:03:34.124812 29837 layer_factory.hpp:77] Creating layer h_121_lstm1_unit_121_1_split
I1018 00:03:34.124820 29837 net.cpp:84] Creating Layer h_121_lstm1_unit_121_1_split
I1018 00:03:34.124826 29837 net.cpp:406] h_121_lstm1_unit_121_1_split <- h_121
I1018 00:03:34.124835 29837 net.cpp:380] h_121_lstm1_unit_121_1_split -> h_121_lstm1_unit_121_1_split_0
I1018 00:03:34.124846 29837 net.cpp:380] h_121_lstm1_unit_121_1_split -> h_121_lstm1_unit_121_1_split_1
I1018 00:03:34.124889 29837 net.cpp:122] Setting up h_121_lstm1_unit_121_1_split
I1018 00:03:34.124898 29837 net.cpp:129] Top shape: 1 150 512 (76800)
I1018 00:03:34.124903 29837 net.cpp:129] Top shape: 1 150 512 (76800)
I1018 00:03:34.124908 29837 net.cpp:137] Memory required for data: 838041600
I1018 00:03:34.124914 29837 layer_factory.hpp:77] Creating layer lstm1_h_conted_121
I1018 00:03:34.124927 29837 net.cpp:84] Creating Layer lstm1_h_conted_121
I1018 00:03:34.124934 29837 net.cpp:406] lstm1_h_conted_121 <- h_121_lstm1_unit_121_1_split_0
I1018 00:03:34.124943 29837 net.cpp:406] lstm1_h_conted_121 <- cont_122_lstm1_cont_slice_121_split_0
I1018 00:03:34.124953 29837 net.cpp:380] lstm1_h_conted_121 -> h_conted_121
I1018 00:03:34.125072 29837 net.cpp:122] Setting up lstm1_h_conted_121
I1018 00:03:34.125084 29837 net.cpp:129] Top shape: 1 150 512 (76800)
I1018 00:03:34.125089 29837 net.cpp:137] Memory required for data: 838348800
I1018 00:03:34.125094 29837 layer_factory.hpp:77] Creating layer lstm1_transform_122
I1018 00:03:34.125108 29837 net.cpp:84] Creating Layer lstm1_transform_122
I1018 00:03:34.125114 29837 net.cpp:406] lstm1_transform_122 <- h_conted_121
I1018 00:03:34.125123 29837 net.cpp:380] lstm1_transform_122 -> W_hc_h_121
I1018 00:03:34.138530 29837 net.cpp:122] Setting up lstm1_transform_122
I1018 00:03:34.138548 29837 net.cpp:129] Top shape: 1 150 2048 (307200)
I1018 00:03:34.138555 29837 net.cpp:137] Memory required for data: 839577600
I1018 00:03:34.138561 29837 net.cpp:465] Sharing parameters 'W_hc' owned by layer 'lstm1_transform_1', param index 0
I1018 00:03:34.138566 29837 layer_factory.hpp:77] Creating layer lstm1_gate_input_122
I1018 00:03:34.138579 29837 net.cpp:84] Creating Layer lstm1_gate_input_122
I1018 00:03:34.138586 29837 net.cpp:406] lstm1_gate_input_122 <- W_hc_h_121
I1018 00:03:34.138594 29837 net.cpp:406] lstm1_gate_input_122 <- W_xc_x_122
I1018 00:03:34.138602 29837 net.cpp:380] lstm1_gate_input_122 -> gate_input_122
I1018 00:03:34.138638 29837 net.cpp:122] Setting up lstm1_gate_input_122
I1018 00:03:34.138646 29837 net.cpp:129] Top shape: 1 150 2048 (307200)
I1018 00:03:34.138651 29837 net.cpp:137] Memory required for data: 840806400
I1018 00:03:34.138656 29837 layer_factory.hpp:77] Creating layer lstm1_unit_122
I1018 00:03:34.138665 29837 net.cpp:84] Creating Layer lstm1_unit_122
I1018 00:03:34.138671 29837 net.cpp:406] lstm1_unit_122 <- c_121
I1018 00:03:34.138679 29837 net.cpp:406] lstm1_unit_122 <- gate_input_122
I1018 00:03:34.138685 29837 net.cpp:406] lstm1_unit_122 <- cont_122_lstm1_cont_slice_121_split_1
I1018 00:03:34.138695 29837 net.cpp:380] lstm1_unit_122 -> c_122
I1018 00:03:34.138705 29837 net.cpp:380] lstm1_unit_122 -> h_122
I1018 00:03:34.138762 29837 net.cpp:122] Setting up lstm1_unit_122
I1018 00:03:34.138772 29837 net.cpp:129] Top shape: 1 150 512 (76800)
I1018 00:03:34.138777 29837 net.cpp:129] Top shape: 1 150 512 (76800)
I1018 00:03:34.138782 29837 net.cpp:137] Memory required for data: 841420800
I1018 00:03:34.138787 29837 layer_factory.hpp:77] Creating layer h_122_lstm1_unit_122_1_split
I1018 00:03:34.138793 29837 net.cpp:84] Creating Layer h_122_lstm1_unit_122_1_split
I1018 00:03:34.138798 29837 net.cpp:406] h_122_lstm1_unit_122_1_split <- h_122
I1018 00:03:34.138806 29837 net.cpp:380] h_122_lstm1_unit_122_1_split -> h_122_lstm1_unit_122_1_split_0
I1018 00:03:34.138815 29837 net.cpp:380] h_122_lstm1_unit_122_1_split -> h_122_lstm1_unit_122_1_split_1
I1018 00:03:34.138855 29837 net.cpp:122] Setting up h_122_lstm1_unit_122_1_split
I1018 00:03:34.138864 29837 net.cpp:129] Top shape: 1 150 512 (76800)
I1018 00:03:34.138870 29837 net.cpp:129] Top shape: 1 150 512 (76800)
I1018 00:03:34.138875 29837 net.cpp:137] Memory required for data: 842035200
I1018 00:03:34.138880 29837 layer_factory.hpp:77] Creating layer lstm1_h_conted_122
I1018 00:03:34.138888 29837 net.cpp:84] Creating Layer lstm1_h_conted_122
I1018 00:03:34.138895 29837 net.cpp:406] lstm1_h_conted_122 <- h_122_lstm1_unit_122_1_split_0
I1018 00:03:34.138906 29837 net.cpp:406] lstm1_h_conted_122 <- cont_123_lstm1_cont_slice_122_split_0
I1018 00:03:34.138913 29837 net.cpp:380] lstm1_h_conted_122 -> h_conted_122
I1018 00:03:34.139001 29837 net.cpp:122] Setting up lstm1_h_conted_122
I1018 00:03:34.139014 29837 net.cpp:129] Top shape: 1 150 512 (76800)
I1018 00:03:34.139019 29837 net.cpp:137] Memory required for data: 842342400
I1018 00:03:34.139024 29837 layer_factory.hpp:77] Creating layer lstm1_transform_123
I1018 00:03:34.139034 29837 net.cpp:84] Creating Layer lstm1_transform_123
I1018 00:03:34.139039 29837 net.cpp:406] lstm1_transform_123 <- h_conted_122
I1018 00:03:34.139050 29837 net.cpp:380] lstm1_transform_123 -> W_hc_h_122
I1018 00:03:34.153045 29837 net.cpp:122] Setting up lstm1_transform_123
I1018 00:03:34.153080 29837 net.cpp:129] Top shape: 1 150 2048 (307200)
I1018 00:03:34.153093 29837 net.cpp:137] Memory required for data: 843571200
I1018 00:03:34.153101 29837 net.cpp:465] Sharing parameters 'W_hc' owned by layer 'lstm1_transform_1', param index 0
I1018 00:03:34.153107 29837 layer_factory.hpp:77] Creating layer lstm1_gate_input_123
I1018 00:03:34.153125 29837 net.cpp:84] Creating Layer lstm1_gate_input_123
I1018 00:03:34.153133 29837 net.cpp:406] lstm1_gate_input_123 <- W_hc_h_122
I1018 00:03:34.153143 29837 net.cpp:406] lstm1_gate_input_123 <- W_xc_x_123
I1018 00:03:34.153156 29837 net.cpp:380] lstm1_gate_input_123 -> gate_input_123
I1018 00:03:34.153192 29837 net.cpp:122] Setting up lstm1_gate_input_123
I1018 00:03:34.153200 29837 net.cpp:129] Top shape: 1 150 2048 (307200)
I1018 00:03:34.153205 29837 net.cpp:137] Memory required for data: 844800000
I1018 00:03:34.153210 29837 layer_factory.hpp:77] Creating layer lstm1_unit_123
I1018 00:03:34.153223 29837 net.cpp:84] Creating Layer lstm1_unit_123
I1018 00:03:34.153230 29837 net.cpp:406] lstm1_unit_123 <- c_122
I1018 00:03:34.153237 29837 net.cpp:406] lstm1_unit_123 <- gate_input_123
I1018 00:03:34.153244 29837 net.cpp:406] lstm1_unit_123 <- cont_123_lstm1_cont_slice_122_split_1
I1018 00:03:34.153252 29837 net.cpp:380] lstm1_unit_123 -> c_123
I1018 00:03:34.153264 29837 net.cpp:380] lstm1_unit_123 -> h_123
I1018 00:03:34.153321 29837 net.cpp:122] Setting up lstm1_unit_123
I1018 00:03:34.153348 29837 net.cpp:129] Top shape: 1 150 512 (76800)
I1018 00:03:34.153354 29837 net.cpp:129] Top shape: 1 150 512 (76800)
I1018 00:03:34.153359 29837 net.cpp:137] Memory required for data: 845414400
I1018 00:03:34.153364 29837 layer_factory.hpp:77] Creating layer h_123_lstm1_unit_123_1_split
I1018 00:03:34.153373 29837 net.cpp:84] Creating Layer h_123_lstm1_unit_123_1_split
I1018 00:03:34.153378 29837 net.cpp:406] h_123_lstm1_unit_123_1_split <- h_123
I1018 00:03:34.153386 29837 net.cpp:380] h_123_lstm1_unit_123_1_split -> h_123_lstm1_unit_123_1_split_0
I1018 00:03:34.153403 29837 net.cpp:380] h_123_lstm1_unit_123_1_split -> h_123_lstm1_unit_123_1_split_1
I1018 00:03:34.153456 29837 net.cpp:122] Setting up h_123_lstm1_unit_123_1_split
I1018 00:03:34.153470 29837 net.cpp:129] Top shape: 1 150 512 (76800)
I1018 00:03:34.153475 29837 net.cpp:129] Top shape: 1 150 512 (76800)
I1018 00:03:34.153481 29837 net.cpp:137] Memory required for data: 846028800
I1018 00:03:34.153486 29837 layer_factory.hpp:77] Creating layer lstm1_h_conted_123
I1018 00:03:34.153493 29837 net.cpp:84] Creating Layer lstm1_h_conted_123
I1018 00:03:34.153501 29837 net.cpp:406] lstm1_h_conted_123 <- h_123_lstm1_unit_123_1_split_0
I1018 00:03:34.153509 29837 net.cpp:406] lstm1_h_conted_123 <- cont_124_lstm1_cont_slice_123_split_0
I1018 00:03:34.153520 29837 net.cpp:380] lstm1_h_conted_123 -> h_conted_123
I1018 00:03:34.153623 29837 net.cpp:122] Setting up lstm1_h_conted_123
I1018 00:03:34.153635 29837 net.cpp:129] Top shape: 1 150 512 (76800)
I1018 00:03:34.153640 29837 net.cpp:137] Memory required for data: 846336000
I1018 00:03:34.153646 29837 layer_factory.hpp:77] Creating layer lstm1_transform_124
I1018 00:03:34.153657 29837 net.cpp:84] Creating Layer lstm1_transform_124
I1018 00:03:34.153664 29837 net.cpp:406] lstm1_transform_124 <- h_conted_123
I1018 00:03:34.153676 29837 net.cpp:380] lstm1_transform_124 -> W_hc_h_123
I1018 00:03:34.166971 29837 net.cpp:122] Setting up lstm1_transform_124
I1018 00:03:34.166990 29837 net.cpp:129] Top shape: 1 150 2048 (307200)
I1018 00:03:34.167001 29837 net.cpp:137] Memory required for data: 847564800
I1018 00:03:34.167008 29837 net.cpp:465] Sharing parameters 'W_hc' owned by layer 'lstm1_transform_1', param index 0
I1018 00:03:34.167014 29837 layer_factory.hpp:77] Creating layer lstm1_gate_input_124
I1018 00:03:34.167023 29837 net.cpp:84] Creating Layer lstm1_gate_input_124
I1018 00:03:34.167031 29837 net.cpp:406] lstm1_gate_input_124 <- W_hc_h_123
I1018 00:03:34.167039 29837 net.cpp:406] lstm1_gate_input_124 <- W_xc_x_124
I1018 00:03:34.167054 29837 net.cpp:380] lstm1_gate_input_124 -> gate_input_124
I1018 00:03:34.167093 29837 net.cpp:122] Setting up lstm1_gate_input_124
I1018 00:03:34.167101 29837 net.cpp:129] Top shape: 1 150 2048 (307200)
I1018 00:03:34.167105 29837 net.cpp:137] Memory required for data: 848793600
I1018 00:03:34.167110 29837 layer_factory.hpp:77] Creating layer lstm1_unit_124
I1018 00:03:34.167119 29837 net.cpp:84] Creating Layer lstm1_unit_124
I1018 00:03:34.167124 29837 net.cpp:406] lstm1_unit_124 <- c_123
I1018 00:03:34.167131 29837 net.cpp:406] lstm1_unit_124 <- gate_input_124
I1018 00:03:34.167138 29837 net.cpp:406] lstm1_unit_124 <- cont_124_lstm1_cont_slice_123_split_1
I1018 00:03:34.167145 29837 net.cpp:380] lstm1_unit_124 -> c_124
I1018 00:03:34.167155 29837 net.cpp:380] lstm1_unit_124 -> h_124
I1018 00:03:34.167218 29837 net.cpp:122] Setting up lstm1_unit_124
I1018 00:03:34.167227 29837 net.cpp:129] Top shape: 1 150 512 (76800)
I1018 00:03:34.167233 29837 net.cpp:129] Top shape: 1 150 512 (76800)
I1018 00:03:34.167237 29837 net.cpp:137] Memory required for data: 849408000
I1018 00:03:34.167243 29837 layer_factory.hpp:77] Creating layer h_124_lstm1_unit_124_1_split
I1018 00:03:34.167250 29837 net.cpp:84] Creating Layer h_124_lstm1_unit_124_1_split
I1018 00:03:34.167255 29837 net.cpp:406] h_124_lstm1_unit_124_1_split <- h_124
I1018 00:03:34.167263 29837 net.cpp:380] h_124_lstm1_unit_124_1_split -> h_124_lstm1_unit_124_1_split_0
I1018 00:03:34.167273 29837 net.cpp:380] h_124_lstm1_unit_124_1_split -> h_124_lstm1_unit_124_1_split_1
I1018 00:03:34.167315 29837 net.cpp:122] Setting up h_124_lstm1_unit_124_1_split
I1018 00:03:34.167322 29837 net.cpp:129] Top shape: 1 150 512 (76800)
I1018 00:03:34.167328 29837 net.cpp:129] Top shape: 1 150 512 (76800)
I1018 00:03:34.167333 29837 net.cpp:137] Memory required for data: 850022400
I1018 00:03:34.167340 29837 layer_factory.hpp:77] Creating layer lstm1_h_conted_124
I1018 00:03:34.167347 29837 net.cpp:84] Creating Layer lstm1_h_conted_124
I1018 00:03:34.167354 29837 net.cpp:406] lstm1_h_conted_124 <- h_124_lstm1_unit_124_1_split_0
I1018 00:03:34.167361 29837 net.cpp:406] lstm1_h_conted_124 <- cont_125_lstm1_cont_slice_124_split_0
I1018 00:03:34.167371 29837 net.cpp:380] lstm1_h_conted_124 -> h_conted_124
I1018 00:03:34.167459 29837 net.cpp:122] Setting up lstm1_h_conted_124
I1018 00:03:34.167470 29837 net.cpp:129] Top shape: 1 150 512 (76800)
I1018 00:03:34.167475 29837 net.cpp:137] Memory required for data: 850329600
I1018 00:03:34.167481 29837 layer_factory.hpp:77] Creating layer lstm1_transform_125
I1018 00:03:34.167493 29837 net.cpp:84] Creating Layer lstm1_transform_125
I1018 00:03:34.167500 29837 net.cpp:406] lstm1_transform_125 <- h_conted_124
I1018 00:03:34.167508 29837 net.cpp:380] lstm1_transform_125 -> W_hc_h_124
I1018 00:03:34.180752 29837 net.cpp:122] Setting up lstm1_transform_125
I1018 00:03:34.180769 29837 net.cpp:129] Top shape: 1 150 2048 (307200)
I1018 00:03:34.180775 29837 net.cpp:137] Memory required for data: 851558400
I1018 00:03:34.180781 29837 net.cpp:465] Sharing parameters 'W_hc' owned by layer 'lstm1_transform_1', param index 0
I1018 00:03:34.180788 29837 layer_factory.hpp:77] Creating layer lstm1_gate_input_125
I1018 00:03:34.180796 29837 net.cpp:84] Creating Layer lstm1_gate_input_125
I1018 00:03:34.180804 29837 net.cpp:406] lstm1_gate_input_125 <- W_hc_h_124
I1018 00:03:34.180814 29837 net.cpp:406] lstm1_gate_input_125 <- W_xc_x_125
I1018 00:03:34.180822 29837 net.cpp:380] lstm1_gate_input_125 -> gate_input_125
I1018 00:03:34.180860 29837 net.cpp:122] Setting up lstm1_gate_input_125
I1018 00:03:34.180871 29837 net.cpp:129] Top shape: 1 150 2048 (307200)
I1018 00:03:34.180874 29837 net.cpp:137] Memory required for data: 852787200
I1018 00:03:34.180879 29837 layer_factory.hpp:77] Creating layer lstm1_unit_125
I1018 00:03:34.180888 29837 net.cpp:84] Creating Layer lstm1_unit_125
I1018 00:03:34.180896 29837 net.cpp:406] lstm1_unit_125 <- c_124
I1018 00:03:34.180902 29837 net.cpp:406] lstm1_unit_125 <- gate_input_125
I1018 00:03:34.180908 29837 net.cpp:406] lstm1_unit_125 <- cont_125_lstm1_cont_slice_124_split_1
I1018 00:03:34.180915 29837 net.cpp:380] lstm1_unit_125 -> c_125
I1018 00:03:34.180925 29837 net.cpp:380] lstm1_unit_125 -> h_125
I1018 00:03:34.180981 29837 net.cpp:122] Setting up lstm1_unit_125
I1018 00:03:34.180990 29837 net.cpp:129] Top shape: 1 150 512 (76800)
I1018 00:03:34.180996 29837 net.cpp:129] Top shape: 1 150 512 (76800)
I1018 00:03:34.181000 29837 net.cpp:137] Memory required for data: 853401600
I1018 00:03:34.181005 29837 layer_factory.hpp:77] Creating layer h_125_lstm1_unit_125_1_split
I1018 00:03:34.181015 29837 net.cpp:84] Creating Layer h_125_lstm1_unit_125_1_split
I1018 00:03:34.181020 29837 net.cpp:406] h_125_lstm1_unit_125_1_split <- h_125
I1018 00:03:34.181027 29837 net.cpp:380] h_125_lstm1_unit_125_1_split -> h_125_lstm1_unit_125_1_split_0
I1018 00:03:34.181036 29837 net.cpp:380] h_125_lstm1_unit_125_1_split -> h_125_lstm1_unit_125_1_split_1
I1018 00:03:34.181077 29837 net.cpp:122] Setting up h_125_lstm1_unit_125_1_split
I1018 00:03:34.181085 29837 net.cpp:129] Top shape: 1 150 512 (76800)
I1018 00:03:34.181092 29837 net.cpp:129] Top shape: 1 150 512 (76800)
I1018 00:03:34.181097 29837 net.cpp:137] Memory required for data: 854016000
I1018 00:03:34.181100 29837 layer_factory.hpp:77] Creating layer lstm1_h_conted_125
I1018 00:03:34.181110 29837 net.cpp:84] Creating Layer lstm1_h_conted_125
I1018 00:03:34.181116 29837 net.cpp:406] lstm1_h_conted_125 <- h_125_lstm1_unit_125_1_split_0
I1018 00:03:34.181124 29837 net.cpp:406] lstm1_h_conted_125 <- cont_126_lstm1_cont_slice_125_split_0
I1018 00:03:34.181133 29837 net.cpp:380] lstm1_h_conted_125 -> h_conted_125
I1018 00:03:34.181216 29837 net.cpp:122] Setting up lstm1_h_conted_125
I1018 00:03:34.181228 29837 net.cpp:129] Top shape: 1 150 512 (76800)
I1018 00:03:34.181233 29837 net.cpp:137] Memory required for data: 854323200
I1018 00:03:34.181238 29837 layer_factory.hpp:77] Creating layer lstm1_transform_126
I1018 00:03:34.181254 29837 net.cpp:84] Creating Layer lstm1_transform_126
I1018 00:03:34.181260 29837 net.cpp:406] lstm1_transform_126 <- h_conted_125
I1018 00:03:34.181269 29837 net.cpp:380] lstm1_transform_126 -> W_hc_h_125
I1018 00:03:34.194463 29837 net.cpp:122] Setting up lstm1_transform_126
I1018 00:03:34.194483 29837 net.cpp:129] Top shape: 1 150 2048 (307200)
I1018 00:03:34.194489 29837 net.cpp:137] Memory required for data: 855552000
I1018 00:03:34.194497 29837 net.cpp:465] Sharing parameters 'W_hc' owned by layer 'lstm1_transform_1', param index 0
I1018 00:03:34.194504 29837 layer_factory.hpp:77] Creating layer lstm1_gate_input_126
I1018 00:03:34.194514 29837 net.cpp:84] Creating Layer lstm1_gate_input_126
I1018 00:03:34.194521 29837 net.cpp:406] lstm1_gate_input_126 <- W_hc_h_125
I1018 00:03:34.194528 29837 net.cpp:406] lstm1_gate_input_126 <- W_xc_x_126
I1018 00:03:34.194536 29837 net.cpp:380] lstm1_gate_input_126 -> gate_input_126
I1018 00:03:34.194571 29837 net.cpp:122] Setting up lstm1_gate_input_126
I1018 00:03:34.194583 29837 net.cpp:129] Top shape: 1 150 2048 (307200)
I1018 00:03:34.194588 29837 net.cpp:137] Memory required for data: 856780800
I1018 00:03:34.194593 29837 layer_factory.hpp:77] Creating layer lstm1_unit_126
I1018 00:03:34.194603 29837 net.cpp:84] Creating Layer lstm1_unit_126
I1018 00:03:34.194610 29837 net.cpp:406] lstm1_unit_126 <- c_125
I1018 00:03:34.194617 29837 net.cpp:406] lstm1_unit_126 <- gate_input_126
I1018 00:03:34.194624 29837 net.cpp:406] lstm1_unit_126 <- cont_126_lstm1_cont_slice_125_split_1
I1018 00:03:34.194631 29837 net.cpp:380] lstm1_unit_126 -> c_126
I1018 00:03:34.194640 29837 net.cpp:380] lstm1_unit_126 -> h_126
I1018 00:03:34.194699 29837 net.cpp:122] Setting up lstm1_unit_126
I1018 00:03:34.194710 29837 net.cpp:129] Top shape: 1 150 512 (76800)
I1018 00:03:34.194715 29837 net.cpp:129] Top shape: 1 150 512 (76800)
I1018 00:03:34.194720 29837 net.cpp:137] Memory required for data: 857395200
I1018 00:03:34.194725 29837 layer_factory.hpp:77] Creating layer h_126_lstm1_unit_126_1_split
I1018 00:03:34.194732 29837 net.cpp:84] Creating Layer h_126_lstm1_unit_126_1_split
I1018 00:03:34.194737 29837 net.cpp:406] h_126_lstm1_unit_126_1_split <- h_126
I1018 00:03:34.194747 29837 net.cpp:380] h_126_lstm1_unit_126_1_split -> h_126_lstm1_unit_126_1_split_0
I1018 00:03:34.194756 29837 net.cpp:380] h_126_lstm1_unit_126_1_split -> h_126_lstm1_unit_126_1_split_1
I1018 00:03:34.194797 29837 net.cpp:122] Setting up h_126_lstm1_unit_126_1_split
I1018 00:03:34.194808 29837 net.cpp:129] Top shape: 1 150 512 (76800)
I1018 00:03:34.194815 29837 net.cpp:129] Top shape: 1 150 512 (76800)
I1018 00:03:34.194819 29837 net.cpp:137] Memory required for data: 858009600
I1018 00:03:34.194824 29837 layer_factory.hpp:77] Creating layer lstm1_h_conted_126
I1018 00:03:34.194835 29837 net.cpp:84] Creating Layer lstm1_h_conted_126
I1018 00:03:34.194841 29837 net.cpp:406] lstm1_h_conted_126 <- h_126_lstm1_unit_126_1_split_0
I1018 00:03:34.194854 29837 net.cpp:406] lstm1_h_conted_126 <- cont_127_lstm1_cont_slice_126_split_0
I1018 00:03:34.194864 29837 net.cpp:380] lstm1_h_conted_126 -> h_conted_126
I1018 00:03:34.194949 29837 net.cpp:122] Setting up lstm1_h_conted_126
I1018 00:03:34.194962 29837 net.cpp:129] Top shape: 1 150 512 (76800)
I1018 00:03:34.194967 29837 net.cpp:137] Memory required for data: 858316800
I1018 00:03:34.194973 29837 layer_factory.hpp:77] Creating layer lstm1_transform_127
I1018 00:03:34.194981 29837 net.cpp:84] Creating Layer lstm1_transform_127
I1018 00:03:34.194988 29837 net.cpp:406] lstm1_transform_127 <- h_conted_126
I1018 00:03:34.194998 29837 net.cpp:380] lstm1_transform_127 -> W_hc_h_126
I1018 00:03:34.208189 29837 net.cpp:122] Setting up lstm1_transform_127
I1018 00:03:34.208209 29837 net.cpp:129] Top shape: 1 150 2048 (307200)
I1018 00:03:34.208214 29837 net.cpp:137] Memory required for data: 859545600
I1018 00:03:34.208400 29837 net.cpp:465] Sharing parameters 'W_hc' owned by layer 'lstm1_transform_1', param index 0
I1018 00:03:34.208413 29837 layer_factory.hpp:77] Creating layer lstm1_gate_input_127
I1018 00:03:34.208423 29837 net.cpp:84] Creating Layer lstm1_gate_input_127
I1018 00:03:34.208431 29837 net.cpp:406] lstm1_gate_input_127 <- W_hc_h_126
I1018 00:03:34.208438 29837 net.cpp:406] lstm1_gate_input_127 <- W_xc_x_127
I1018 00:03:34.208447 29837 net.cpp:380] lstm1_gate_input_127 -> gate_input_127
I1018 00:03:34.208493 29837 net.cpp:122] Setting up lstm1_gate_input_127
I1018 00:03:34.208505 29837 net.cpp:129] Top shape: 1 150 2048 (307200)
I1018 00:03:34.208511 29837 net.cpp:137] Memory required for data: 860774400
I1018 00:03:34.208516 29837 layer_factory.hpp:77] Creating layer lstm1_unit_127
I1018 00:03:34.208524 29837 net.cpp:84] Creating Layer lstm1_unit_127
I1018 00:03:34.208531 29837 net.cpp:406] lstm1_unit_127 <- c_126
I1018 00:03:34.208539 29837 net.cpp:406] lstm1_unit_127 <- gate_input_127
I1018 00:03:34.208545 29837 net.cpp:406] lstm1_unit_127 <- cont_127_lstm1_cont_slice_126_split_1
I1018 00:03:34.208554 29837 net.cpp:380] lstm1_unit_127 -> c_127
I1018 00:03:34.208562 29837 net.cpp:380] lstm1_unit_127 -> h_127
I1018 00:03:34.208627 29837 net.cpp:122] Setting up lstm1_unit_127
I1018 00:03:34.208638 29837 net.cpp:129] Top shape: 1 150 512 (76800)
I1018 00:03:34.208645 29837 net.cpp:129] Top shape: 1 150 512 (76800)
I1018 00:03:34.208650 29837 net.cpp:137] Memory required for data: 861388800
I1018 00:03:34.208655 29837 layer_factory.hpp:77] Creating layer h_127_lstm1_unit_127_1_split
I1018 00:03:34.208663 29837 net.cpp:84] Creating Layer h_127_lstm1_unit_127_1_split
I1018 00:03:34.208669 29837 net.cpp:406] h_127_lstm1_unit_127_1_split <- h_127
I1018 00:03:34.208678 29837 net.cpp:380] h_127_lstm1_unit_127_1_split -> h_127_lstm1_unit_127_1_split_0
I1018 00:03:34.208686 29837 net.cpp:380] h_127_lstm1_unit_127_1_split -> h_127_lstm1_unit_127_1_split_1
I1018 00:03:34.208729 29837 net.cpp:122] Setting up h_127_lstm1_unit_127_1_split
I1018 00:03:34.208739 29837 net.cpp:129] Top shape: 1 150 512 (76800)
I1018 00:03:34.208746 29837 net.cpp:129] Top shape: 1 150 512 (76800)
I1018 00:03:34.208750 29837 net.cpp:137] Memory required for data: 862003200
I1018 00:03:34.208756 29837 layer_factory.hpp:77] Creating layer lstm1_h_conted_127
I1018 00:03:34.208765 29837 net.cpp:84] Creating Layer lstm1_h_conted_127
I1018 00:03:34.208771 29837 net.cpp:406] lstm1_h_conted_127 <- h_127_lstm1_unit_127_1_split_0
I1018 00:03:34.208781 29837 net.cpp:406] lstm1_h_conted_127 <- cont_128_lstm1_cont_slice_127_split_0
I1018 00:03:34.208788 29837 net.cpp:380] lstm1_h_conted_127 -> h_conted_127
I1018 00:03:34.208874 29837 net.cpp:122] Setting up lstm1_h_conted_127
I1018 00:03:34.208886 29837 net.cpp:129] Top shape: 1 150 512 (76800)
I1018 00:03:34.208892 29837 net.cpp:137] Memory required for data: 862310400
I1018 00:03:34.208897 29837 layer_factory.hpp:77] Creating layer lstm1_transform_128
I1018 00:03:34.208909 29837 net.cpp:84] Creating Layer lstm1_transform_128
I1018 00:03:34.208914 29837 net.cpp:406] lstm1_transform_128 <- h_conted_127
I1018 00:03:34.208923 29837 net.cpp:380] lstm1_transform_128 -> W_hc_h_127
I1018 00:03:34.222122 29837 net.cpp:122] Setting up lstm1_transform_128
I1018 00:03:34.222141 29837 net.cpp:129] Top shape: 1 150 2048 (307200)
I1018 00:03:34.222151 29837 net.cpp:137] Memory required for data: 863539200
I1018 00:03:34.222157 29837 net.cpp:465] Sharing parameters 'W_hc' owned by layer 'lstm1_transform_1', param index 0
I1018 00:03:34.222163 29837 layer_factory.hpp:77] Creating layer lstm1_gate_input_128
I1018 00:03:34.222174 29837 net.cpp:84] Creating Layer lstm1_gate_input_128
I1018 00:03:34.222182 29837 net.cpp:406] lstm1_gate_input_128 <- W_hc_h_127
I1018 00:03:34.222188 29837 net.cpp:406] lstm1_gate_input_128 <- W_xc_x_128
I1018 00:03:34.222198 29837 net.cpp:380] lstm1_gate_input_128 -> gate_input_128
I1018 00:03:34.222232 29837 net.cpp:122] Setting up lstm1_gate_input_128
I1018 00:03:34.222247 29837 net.cpp:129] Top shape: 1 150 2048 (307200)
I1018 00:03:34.222252 29837 net.cpp:137] Memory required for data: 864768000
I1018 00:03:34.222256 29837 layer_factory.hpp:77] Creating layer lstm1_unit_128
I1018 00:03:34.222268 29837 net.cpp:84] Creating Layer lstm1_unit_128
I1018 00:03:34.222275 29837 net.cpp:406] lstm1_unit_128 <- c_127
I1018 00:03:34.222282 29837 net.cpp:406] lstm1_unit_128 <- gate_input_128
I1018 00:03:34.222290 29837 net.cpp:406] lstm1_unit_128 <- cont_128_lstm1_cont_slice_127_split_1
I1018 00:03:34.222296 29837 net.cpp:380] lstm1_unit_128 -> c_128
I1018 00:03:34.222306 29837 net.cpp:380] lstm1_unit_128 -> h_128
I1018 00:03:34.222368 29837 net.cpp:122] Setting up lstm1_unit_128
I1018 00:03:34.222378 29837 net.cpp:129] Top shape: 1 150 512 (76800)
I1018 00:03:34.222385 29837 net.cpp:129] Top shape: 1 150 512 (76800)
I1018 00:03:34.222389 29837 net.cpp:137] Memory required for data: 865382400
I1018 00:03:34.222394 29837 layer_factory.hpp:77] Creating layer lstm1_
I1018 00:03:34.222404 29837 net.cpp:84] Creating Layer lstm1_
I1018 00:03:34.222409 29837 net.cpp:406] lstm1_ <- c_128
I1018 00:03:34.222420 29837 net.cpp:380] lstm1_ -> c_T
I1018 00:03:34.222450 29837 net.cpp:122] Setting up lstm1_
I1018 00:03:34.222460 29837 net.cpp:129] Top shape: 1 150 512 (76800)
I1018 00:03:34.222465 29837 net.cpp:137] Memory required for data: 865689600
I1018 00:03:34.222470 29837 layer_factory.hpp:77] Creating layer lstm1_h_concat
I1018 00:03:34.222497 29837 net.cpp:84] Creating Layer lstm1_h_concat
I1018 00:03:34.222517 29837 net.cpp:406] lstm1_h_concat <- h_1_lstm1_unit_1_1_split_1
I1018 00:03:34.222565 29837 net.cpp:406] lstm1_h_concat <- h_2_lstm1_unit_2_1_split_1
…
I1018 00:03:34.259302 29837 net.cpp:200] lstm1_ does not need backward computation.
I1018 00:03:34.259307 29837 net.cpp:242] This network produces output c_T
I1018 00:03:34.259316 29837 net.cpp:242] This network produces output h_pseudoloss
I1018 00:03:34.389614 29837 net.cpp:255] Network initialization done.
I1018 00:03:34.392771 29837 recurrent_layer.cpp:150] Adding parameter 0: W_xc
I1018 00:03:34.392787 29837 recurrent_layer.cpp:150] Adding parameter 1: b_c
I1018 00:03:34.392802 29837 recurrent_layer.cpp:150] Adding parameter 2: W_hc
I1018 00:03:34.402812 29837 net.cpp:122] Setting up lstm1
I1018 00:03:34.402863 29837 net.cpp:129] Top shape: 128 150 512 (9830400)
I1018 00:03:34.402869 29837 net.cpp:137] Memory required for data: 17389672200
I1018 00:03:34.402909 29837 layer_factory.hpp:77] Creating layer lstm1-drop
I1018 00:03:34.402925 29837 net.cpp:84] Creating Layer lstm1-drop
I1018 00:03:34.402951 29837 net.cpp:406] lstm1-drop <- lstm1
I1018 00:03:34.402978 29837 net.cpp:380] lstm1-drop -> lstm1-drop
I1018 00:03:34.403051 29837 net.cpp:122] Setting up lstm1-drop
I1018 00:03:34.403071 29837 net.cpp:129] Top shape: 128 150 512 (9830400)
I1018 00:03:34.403077 29837 net.cpp:137] Memory required for data: 17428993800
I1018 00:03:34.403082 29837 layer_factory.hpp:77] Creating layer fc-final
I1018 00:03:34.403113 29837 net.cpp:84] Creating Layer fc-final
I1018 00:03:34.403120 29837 net.cpp:406] fc-final <- lstm1-drop
I1018 00:03:34.403153 29837 net.cpp:380] fc-final -> fc-final
I1018 00:03:34.403712 29837 net.cpp:122] Setting up fc-final
I1018 00:03:34.403728 29837 net.cpp:129] Top shape: 128 150 10 (192000)
I1018 00:03:34.403733 29837 net.cpp:137] Memory required for data: 17429761800
I1018 00:03:34.403743 29837 layer_factory.hpp:77] Creating layer fc-final_fc-final_0_split
I1018 00:03:34.403772 29837 net.cpp:84] Creating Layer fc-final_fc-final_0_split
I1018 00:03:34.403779 29837 net.cpp:406] fc-final_fc-final_0_split <- fc-final
I1018 00:03:34.403789 29837 net.cpp:380] fc-final_fc-final_0_split -> fc-final_fc-final_0_split_0
I1018 00:03:34.403798 29837 net.cpp:380] fc-final_fc-final_0_split -> fc-final_fc-final_0_split_1
I1018 00:03:34.403856 29837 net.cpp:122] Setting up fc-final_fc-final_0_split
I1018 00:03:34.403867 29837 net.cpp:129] Top shape: 128 150 10 (192000)
I1018 00:03:34.403872 29837 net.cpp:129] Top shape: 128 150 10 (192000)
I1018 00:03:34.403877 29837 net.cpp:137] Memory required for data: 17431297800
I1018 00:03:34.403882 29837 layer_factory.hpp:77] Creating layer loss
I1018 00:03:34.403897 29837 net.cpp:84] Creating Layer loss
I1018 00:03:34.403903 29837 net.cpp:406] loss <- fc-final_fc-final_0_split_0
I1018 00:03:34.403910 29837 net.cpp:406] loss <- reshape-label_label_tran_0_split_0
I1018 00:03:34.403918 29837 net.cpp:380] loss -> loss
…
