…
I1018 12:05:30.017527 34212 net.cpp:294] The NetState phase (0) differed from the phase (1) specified by a rule in layer Silence
I1018 12:05:30.017724 34212 net.cpp:51] Initializing net from parameters: 
name: "VGG-Places365"
state {
  phase: TRAIN
  level: 0
  stage: ""
}
layer {
  name: "data"
  type: "ImageData"
  top: "data"
  top: "label"
  include {
    phase: TRAIN
  }
  transform_param {
    mirror: true
    crop_size: 224
    mean_value: 104
    mean_value: 117
    mean_value: 123
  }
  image_data_param {
    source: "../Data/lsun_train_list_12w.txt"
    batch_size: 5
    shuffle: true
    new_height: 256
    new_width: 256
  }
}
layer {
  name: "label_tran"
  type: "Python"
  bottom: "label"
  top: "reshape-label"
  top: "clip_markers"
  python_param {
    module: "data_preparation_sort_max_clip"
    layer: "ReshapeLabel"
  }
}
layer {
  name: "conv1_1"
  type: "Convolution"
  bottom: "data"
  top: "conv1_1"
  convolution_param {
    num_output: 64
    pad: 1
    kernel_size: 3
  }
}
layer {
  name: "relu1_1"
  type: "ReLU"
  bottom: "conv1_1"
  top: "conv1_1"
}
layer {
  name: "conv1_2"
  type: "Convolution"
  bottom: "conv1_1"
  top: "conv1_2"
  convolution_param {
    num_output: 64
    pad: 1
    kernel_size: 3
  }
}
layer {
  name: "relu1_2"
  type: "ReLU"
  bottom: "conv1_2"
  top: "conv1_2"
}
layer {
  name: "pool1"
  type: "Pooling"
  bottom: "conv1_2"
  top: "pool1"
  pooling_param {
    pool: MAX
    kernel_size: 2
    stride: 2
  }
}
layer {
  name: "conv2_1"
  type: "Convolution"
  bottom: "pool1"
  top: "conv2_1"
  convolution_param {
    num_output: 128
    pad: 1
    kernel_size: 3
  }
}
layer {
  name: "relu2_1"
  type: "ReLU"
  bottom: "conv2_1"
  top: "conv2_1"
}
layer {
  name: "conv2_2"
  type: "Convolution"
  bottom: "conv2_1"
  top: "conv2_2"
  convolution_param {
    num_output: 128
    pad: 1
    kernel_size: 3
  }
}
layer {
  name: "relu2_2"
  type: "ReLU"
  bottom: "conv2_2"
  top: "conv2_2"
}
layer {
  name: "pool2"
  type: "Pooling"
  bottom: "conv2_2"
  top: "pool2"
  pooling_param {
    pool: MAX
    kernel_size: 2
    stride: 2
  }
}
layer {
  name: "conv3_1"
  type: "Convolution"
  bottom: "pool2"
  top: "conv3_1"
  convolution_param {
    num_output: 256
    pad: 1
    kernel_size: 3
  }
}
layer {
  name: "relu3_1"
  type: "ReLU"
  bottom: "conv3_1"
  top: "conv3_1"
}
layer {
  name: "conv3_2"
  type: "Convolution"
  bottom: "conv3_1"
  top: "conv3_2"
  convolution_param {
    num_output: 256
    pad: 1
    kernel_size: 3
  }
}
layer {
  name: "relu3_2"
  type: "ReLU"
  bottom: "conv3_2"
  top: "conv3_2"
}
layer {
  name: "conv3_3"
  type: "Convolution"
  bottom: "conv3_2"
  top: "conv3_3"
  convolution_param {
    num_output: 256
    pad: 1
    kernel_size: 3
  }
}
layer {
  name: "relu3_3"
  type: "ReLU"
  bottom: "conv3_3"
  top: "conv3_3"
}
layer {
  name: "pool3"
  type: "Pooling"
  bottom: "conv3_3"
  top: "pool3"
  pooling_param {
    pool: MAX
    kernel_size: 2
    stride: 2
  }
}
layer {
  name: "conv4_1"
  type: "Convolution"
  bottom: "pool3"
  top: "conv4_1"
  convolution_param {
    num_output: 512
    pad: 1
    kernel_size: 3
  }
}
layer {
  name: "relu4_1"
  type: "ReLU"
  bottom: "conv4_1"
  top: "conv4_1"
}
layer {
  name: "conv4_2"
  type: "Convolution"
  bottom: "conv4_1"
  top: "conv4_2"
  convolution_param {
    num_output: 512
    pad: 1
    kernel_size: 3
  }
}
layer {
  name: "relu4_2"
  type: "ReLU"
  bottom: "conv4_2"
  top: "conv4_2"
}
layer {
  name: "conv4_3"
  type: "Convolution"
  bottom: "conv4_2"
  top: "conv4_3"
  convolution_param {
    num_output: 512
    pad: 1
    kernel_size: 3
  }
}
layer {
  name: "relu4_3"
  type: "ReLU"
  bottom: "conv4_3"
  top: "conv4_3"
}
layer {
  name: "pool4"
  type: "Pooling"
  bottom: "conv4_3"
  top: "pool4"
  pooling_param {
    pool: MAX
    kernel_size: 2
    stride: 2
  }
}
layer {
  name: "conv5_1"
  type: "Convolution"
  bottom: "pool4"
  top: "conv5_1"
  convolution_param {
    num_output: 512
    pad: 1
    kernel_size: 3
  }
}
layer {
  name: "relu5_1"
  type: "ReLU"
  bottom: "conv5_1"
  top: "conv5_1"
}
layer {
  name: "conv5_2"
  type: "Convolution"
  bottom: "conv5_1"
  top: "conv5_2"
  convolution_param {
    num_output: 512
    pad: 1
    kernel_size: 3
  }
}
layer {
  name: "relu5_2"
  type: "ReLU"
  bottom: "conv5_2"
  top: "conv5_2"
}
layer {
  name: "conv5_3"
  type: "Convolution"
  bottom: "conv5_2"
  top: "conv5_3"
  convolution_param {
    num_output: 512
    pad: 1
    kernel_size: 3
  }
}
layer {
  name: "relu5_3"
  type: "ReLU"
  bottom: "conv5_3"
  top: "conv5_3"
}
layer {
  name: "conv5_3_re"
  type: "Reshape"
  bottom: "conv5_3"
  top: "conv5_3_re"
  reshape_param {
    shape {
      dim: 0
      dim: 0
      dim: -1
    }
  }
}
layer {
  name: "conv5_3_tran"
  type: "Python"
  bottom: "conv5_3_re"
  top: "conv5_3_tran"
  python_param {
    module: "data_preparation_sort_max_clip"
    layer: "DataTransposeSortRandomClip"
  }
}
layer {
  name: "lstm1"
  type: "LSTM"
  bottom: "conv5_3_tran"
  bottom: "clip_markers"
  top: "lstm1"
  recurrent_param {
    num_output: 512
    weight_filler {
      type: "uniform"
      min: -0.01
      max: 0.01
    }
    bias_filler {
      type: "constant"
      value: 0
    }
  }
}
layer {
  name: "lstm1-drop"
  type: "Dropout"
  bottom: "lstm1"
  top: "lstm1-drop"
  dropout_param {
    dropout_ratio: 0.5
  }
}
layer {
  name: "fc-final"
  type: "InnerProduct"
  bottom: "lstm1-drop"
  top: "fc-final"
  param {
    lr_mult: 1
    decay_mult: 1
  }
  param {
    lr_mult: 2
    decay_mult: 0
  }
  inner_product_param {
    num_output: 10
    weight_filler {
      type: "gaussian"
      std: 0.01
    }
    bias_filler {
      type: "constant"
      value: 0
    }
    axis: 2
  }
}
layer {
  name: "loss"
  type: "SoftmaxWithLoss"
  bottom: "fc-final"
  bottom: "reshape-label"
  top: "loss"
  softmax_param {
    axis: 2
  }
}
layer {
  name: "accuracy"
  type: "Accuracy"
  bottom: "fc-final"
  bottom: "reshape-label"
  top: "accuracy"
  accuracy_param {
    axis: 2
  }
}
I1018 12:05:30.017935 34212 layer_factory.hpp:77] Creating layer data
I1018 12:05:30.017985 34212 net.cpp:84] Creating Layer data
I1018 12:05:30.017997 34212 net.cpp:380] data -> data
I1018 12:05:30.018064 34212 net.cpp:380] data -> label
I1018 12:05:30.018097 34212 image_data_layer.cpp:38] Opening file ../Data/lsun_train_list_12w.txt
I1018 12:05:30.619004 34212 image_data_layer.cpp:53] Shuffling data
I1018 12:05:30.913426 34212 image_data_layer.cpp:63] A total of 1200000 images.
I1018 12:05:30.919505 34212 image_data_layer.cpp:90] output data size: 5,3,224,224
I1018 12:05:30.936283 34212 net.cpp:122] Setting up data
I1018 12:05:30.936341 34212 net.cpp:129] Top shape: 5 3 224 224 (752640)
I1018 12:05:30.936350 34212 net.cpp:129] Top shape: 5 (5)
I1018 12:05:30.936355 34212 net.cpp:137] Memory required for data: 3010580
I1018 12:05:30.936373 34212 layer_factory.hpp:77] Creating layer label_tran
I1018 12:05:31.578887 34212 net.cpp:84] Creating Layer label_tran
I1018 12:05:31.578920 34212 net.cpp:406] label_tran <- label
I1018 12:05:31.578946 34212 net.cpp:380] label_tran -> reshape-label
I1018 12:05:31.578960 34212 net.cpp:380] label_tran -> clip_markers
I1018 12:05:31.579113 34212 net.cpp:122] Setting up label_tran
I1018 12:05:31.579130 34212 net.cpp:129] Top shape: 16 5 (80)
I1018 12:05:31.579135 34212 net.cpp:129] Top shape: 16 5 (80)
I1018 12:05:31.579140 34212 net.cpp:137] Memory required for data: 3011220
I1018 12:05:31.579146 34212 layer_factory.hpp:77] Creating layer reshape-label_label_tran_0_split
I1018 12:05:31.579165 34212 net.cpp:84] Creating Layer reshape-label_label_tran_0_split
I1018 12:05:31.579171 34212 net.cpp:406] reshape-label_label_tran_0_split <- reshape-label
I1018 12:05:31.579179 34212 net.cpp:380] reshape-label_label_tran_0_split -> reshape-label_label_tran_0_split_0
I1018 12:05:31.579187 34212 net.cpp:380] reshape-label_label_tran_0_split -> reshape-label_label_tran_0_split_1
I1018 12:05:31.579227 34212 net.cpp:122] Setting up reshape-label_label_tran_0_split
I1018 12:05:31.579237 34212 net.cpp:129] Top shape: 16 5 (80)
I1018 12:05:31.579242 34212 net.cpp:129] Top shape: 16 5 (80)
I1018 12:05:31.579247 34212 net.cpp:137] Memory required for data: 3011860
I1018 12:05:31.579257 34212 layer_factory.hpp:77] Creating layer conv1_1
I1018 12:05:31.579283 34212 net.cpp:84] Creating Layer conv1_1
I1018 12:05:31.579290 34212 net.cpp:406] conv1_1 <- data
I1018 12:05:31.579298 34212 net.cpp:380] conv1_1 -> conv1_1
I1018 12:05:31.581259 34212 net.cpp:122] Setting up conv1_1
I1018 12:05:31.581279 34212 net.cpp:129] Top shape: 5 64 224 224 (16056320)
I1018 12:05:31.581284 34212 net.cpp:137] Memory required for data: 67237140
I1018 12:05:31.581307 34212 layer_factory.hpp:77] Creating layer relu1_1
I1018 12:05:31.581317 34212 net.cpp:84] Creating Layer relu1_1
I1018 12:05:31.581323 34212 net.cpp:406] relu1_1 <- conv1_1
I1018 12:05:31.581329 34212 net.cpp:367] relu1_1 -> conv1_1 (in-place)
I1018 12:05:31.581342 34212 net.cpp:122] Setting up relu1_1
I1018 12:05:31.581347 34212 net.cpp:129] Top shape: 5 64 224 224 (16056320)
I1018 12:05:31.581352 34212 net.cpp:137] Memory required for data: 131462420
I1018 12:05:31.581363 34212 layer_factory.hpp:77] Creating layer conv1_2
I1018 12:05:31.581377 34212 net.cpp:84] Creating Layer conv1_2
I1018 12:05:31.581382 34212 net.cpp:406] conv1_2 <- conv1_1
I1018 12:05:31.581389 34212 net.cpp:380] conv1_2 -> conv1_2
I1018 12:05:31.581655 34212 net.cpp:122] Setting up conv1_2
I1018 12:05:31.581666 34212 net.cpp:129] Top shape: 5 64 224 224 (16056320)
I1018 12:05:31.581670 34212 net.cpp:137] Memory required for data: 195687700
I1018 12:05:31.581679 34212 layer_factory.hpp:77] Creating layer relu1_2
I1018 12:05:31.581686 34212 net.cpp:84] Creating Layer relu1_2
I1018 12:05:31.581691 34212 net.cpp:406] relu1_2 <- conv1_2
I1018 12:05:31.581696 34212 net.cpp:367] relu1_2 -> conv1_2 (in-place)
I1018 12:05:31.581704 34212 net.cpp:122] Setting up relu1_2
I1018 12:05:31.581709 34212 net.cpp:129] Top shape: 5 64 224 224 (16056320)
I1018 12:05:31.581713 34212 net.cpp:137] Memory required for data: 259912980
I1018 12:05:31.581724 34212 layer_factory.hpp:77] Creating layer pool1
I1018 12:05:31.581738 34212 net.cpp:84] Creating Layer pool1
I1018 12:05:31.581743 34212 net.cpp:406] pool1 <- conv1_2
I1018 12:05:31.581749 34212 net.cpp:380] pool1 -> pool1
I1018 12:05:31.581799 34212 net.cpp:122] Setting up pool1
I1018 12:05:31.581807 34212 net.cpp:129] Top shape: 5 64 112 112 (4014080)
I1018 12:05:31.581812 34212 net.cpp:137] Memory required for data: 275969300
I1018 12:05:31.581816 34212 layer_factory.hpp:77] Creating layer conv2_1
I1018 12:05:31.581825 34212 net.cpp:84] Creating Layer conv2_1
I1018 12:05:31.581830 34212 net.cpp:406] conv2_1 <- pool1
I1018 12:05:31.581836 34212 net.cpp:380] conv2_1 -> conv2_1
I1018 12:05:31.583585 34212 net.cpp:122] Setting up conv2_1
I1018 12:05:31.583600 34212 net.cpp:129] Top shape: 5 128 112 112 (8028160)
I1018 12:05:31.583606 34212 net.cpp:137] Memory required for data: 308081940
I1018 12:05:31.583616 34212 layer_factory.hpp:77] Creating layer relu2_1
I1018 12:05:31.583631 34212 net.cpp:84] Creating Layer relu2_1
I1018 12:05:31.583637 34212 net.cpp:406] relu2_1 <- conv2_1
I1018 12:05:31.583644 34212 net.cpp:367] relu2_1 -> conv2_1 (in-place)
I1018 12:05:31.583652 34212 net.cpp:122] Setting up relu2_1
I1018 12:05:31.583658 34212 net.cpp:129] Top shape: 5 128 112 112 (8028160)
I1018 12:05:31.583662 34212 net.cpp:137] Memory required for data: 340194580
I1018 12:05:31.583667 34212 layer_factory.hpp:77] Creating layer conv2_2
I1018 12:05:31.583673 34212 net.cpp:84] Creating Layer conv2_2
I1018 12:05:31.583678 34212 net.cpp:406] conv2_2 <- conv2_1
I1018 12:05:31.583684 34212 net.cpp:380] conv2_2 -> conv2_2
I1018 12:05:31.583987 34212 net.cpp:122] Setting up conv2_2
I1018 12:05:31.583999 34212 net.cpp:129] Top shape: 5 128 112 112 (8028160)
I1018 12:05:31.584003 34212 net.cpp:137] Memory required for data: 372307220
I1018 12:05:31.584010 34212 layer_factory.hpp:77] Creating layer relu2_2
I1018 12:05:31.584018 34212 net.cpp:84] Creating Layer relu2_2
I1018 12:05:31.584023 34212 net.cpp:406] relu2_2 <- conv2_2
I1018 12:05:31.584035 34212 net.cpp:367] relu2_2 -> conv2_2 (in-place)
I1018 12:05:31.584043 34212 net.cpp:122] Setting up relu2_2
I1018 12:05:31.584048 34212 net.cpp:129] Top shape: 5 128 112 112 (8028160)
I1018 12:05:31.584051 34212 net.cpp:137] Memory required for data: 404419860
I1018 12:05:31.584055 34212 layer_factory.hpp:77] Creating layer pool2
I1018 12:05:31.584069 34212 net.cpp:84] Creating Layer pool2
I1018 12:05:31.584074 34212 net.cpp:406] pool2 <- conv2_2
I1018 12:05:31.584080 34212 net.cpp:380] pool2 -> pool2
I1018 12:05:31.584116 34212 net.cpp:122] Setting up pool2
I1018 12:05:31.584123 34212 net.cpp:129] Top shape: 5 128 56 56 (2007040)
I1018 12:05:31.584127 34212 net.cpp:137] Memory required for data: 412448020
I1018 12:05:31.584137 34212 layer_factory.hpp:77] Creating layer conv3_1
I1018 12:05:31.584146 34212 net.cpp:84] Creating Layer conv3_1
I1018 12:05:31.584151 34212 net.cpp:406] conv3_1 <- pool2
I1018 12:05:31.584157 34212 net.cpp:380] conv3_1 -> conv3_1
I1018 12:05:31.585361 34212 net.cpp:122] Setting up conv3_1
I1018 12:05:31.585377 34212 net.cpp:129] Top shape: 5 256 56 56 (4014080)
I1018 12:05:31.585381 34212 net.cpp:137] Memory required for data: 428504340
I1018 12:05:31.585392 34212 layer_factory.hpp:77] Creating layer relu3_1
I1018 12:05:31.585399 34212 net.cpp:84] Creating Layer relu3_1
I1018 12:05:31.585404 34212 net.cpp:406] relu3_1 <- conv3_1
I1018 12:05:31.585412 34212 net.cpp:367] relu3_1 -> conv3_1 (in-place)
I1018 12:05:31.585419 34212 net.cpp:122] Setting up relu3_1
I1018 12:05:31.585424 34212 net.cpp:129] Top shape: 5 256 56 56 (4014080)
I1018 12:05:31.585428 34212 net.cpp:137] Memory required for data: 444560660
I1018 12:05:31.585433 34212 layer_factory.hpp:77] Creating layer conv3_2
I1018 12:05:31.585439 34212 net.cpp:84] Creating Layer conv3_2
I1018 12:05:31.585443 34212 net.cpp:406] conv3_2 <- conv3_1
I1018 12:05:31.585449 34212 net.cpp:380] conv3_2 -> conv3_2
I1018 12:05:31.587287 34212 net.cpp:122] Setting up conv3_2
I1018 12:05:31.587302 34212 net.cpp:129] Top shape: 5 256 56 56 (4014080)
I1018 12:05:31.587306 34212 net.cpp:137] Memory required for data: 460616980
I1018 12:05:31.587313 34212 layer_factory.hpp:77] Creating layer relu3_2
I1018 12:05:31.587332 34212 net.cpp:84] Creating Layer relu3_2
I1018 12:05:31.587337 34212 net.cpp:406] relu3_2 <- conv3_2
I1018 12:05:31.587343 34212 net.cpp:367] relu3_2 -> conv3_2 (in-place)
I1018 12:05:31.587352 34212 net.cpp:122] Setting up relu3_2
I1018 12:05:31.587357 34212 net.cpp:129] Top shape: 5 256 56 56 (4014080)
I1018 12:05:31.587361 34212 net.cpp:137] Memory required for data: 476673300
I1018 12:05:31.587369 34212 layer_factory.hpp:77] Creating layer conv3_3
I1018 12:05:31.587378 34212 net.cpp:84] Creating Layer conv3_3
I1018 12:05:31.587383 34212 net.cpp:406] conv3_3 <- conv3_2
I1018 12:05:31.587389 34212 net.cpp:380] conv3_3 -> conv3_3
I1018 12:05:31.589244 34212 net.cpp:122] Setting up conv3_3
I1018 12:05:31.589260 34212 net.cpp:129] Top shape: 5 256 56 56 (4014080)
I1018 12:05:31.589265 34212 net.cpp:137] Memory required for data: 492729620
I1018 12:05:31.589272 34212 layer_factory.hpp:77] Creating layer relu3_3
I1018 12:05:31.589279 34212 net.cpp:84] Creating Layer relu3_3
I1018 12:05:31.589283 34212 net.cpp:406] relu3_3 <- conv3_3
I1018 12:05:31.589289 34212 net.cpp:367] relu3_3 -> conv3_3 (in-place)
I1018 12:05:31.589298 34212 net.cpp:122] Setting up relu3_3
I1018 12:05:31.589303 34212 net.cpp:129] Top shape: 5 256 56 56 (4014080)
I1018 12:05:31.589308 34212 net.cpp:137] Memory required for data: 508785940
I1018 12:05:31.589311 34212 layer_factory.hpp:77] Creating layer pool3
I1018 12:05:31.589328 34212 net.cpp:84] Creating Layer pool3
I1018 12:05:31.589334 34212 net.cpp:406] pool3 <- conv3_3
I1018 12:05:31.589340 34212 net.cpp:380] pool3 -> pool3
I1018 12:05:31.589383 34212 net.cpp:122] Setting up pool3
I1018 12:05:31.589393 34212 net.cpp:129] Top shape: 5 256 28 28 (1003520)
I1018 12:05:31.589398 34212 net.cpp:137] Memory required for data: 512800020
I1018 12:05:31.589402 34212 layer_factory.hpp:77] Creating layer conv4_1
I1018 12:05:31.589411 34212 net.cpp:84] Creating Layer conv4_1
I1018 12:05:31.589416 34212 net.cpp:406] conv4_1 <- pool3
I1018 12:05:31.589422 34212 net.cpp:380] conv4_1 -> conv4_1
I1018 12:05:31.593422 34212 net.cpp:122] Setting up conv4_1
I1018 12:05:31.593441 34212 net.cpp:129] Top shape: 5 512 28 28 (2007040)
I1018 12:05:31.593446 34212 net.cpp:137] Memory required for data: 520828180
I1018 12:05:31.593461 34212 layer_factory.hpp:77] Creating layer relu4_1
I1018 12:05:31.593473 34212 net.cpp:84] Creating Layer relu4_1
I1018 12:05:31.593478 34212 net.cpp:406] relu4_1 <- conv4_1
I1018 12:05:31.593487 34212 net.cpp:367] relu4_1 -> conv4_1 (in-place)
I1018 12:05:31.593494 34212 net.cpp:122] Setting up relu4_1
I1018 12:05:31.593500 34212 net.cpp:129] Top shape: 5 512 28 28 (2007040)
I1018 12:05:31.593504 34212 net.cpp:137] Memory required for data: 528856340
I1018 12:05:31.593508 34212 layer_factory.hpp:77] Creating layer conv4_2
I1018 12:05:31.593518 34212 net.cpp:84] Creating Layer conv4_2
I1018 12:05:31.593523 34212 net.cpp:406] conv4_2 <- conv4_1
I1018 12:05:31.593528 34212 net.cpp:380] conv4_2 -> conv4_2
I1018 12:05:31.599252 34212 net.cpp:122] Setting up conv4_2
I1018 12:05:31.599269 34212 net.cpp:129] Top shape: 5 512 28 28 (2007040)
I1018 12:05:31.599274 34212 net.cpp:137] Memory required for data: 536884500
I1018 12:05:31.599287 34212 layer_factory.hpp:77] Creating layer relu4_2
I1018 12:05:31.599305 34212 net.cpp:84] Creating Layer relu4_2
I1018 12:05:31.599313 34212 net.cpp:406] relu4_2 <- conv4_2
I1018 12:05:31.599319 34212 net.cpp:367] relu4_2 -> conv4_2 (in-place)
I1018 12:05:31.599328 34212 net.cpp:122] Setting up relu4_2
I1018 12:05:31.599334 34212 net.cpp:129] Top shape: 5 512 28 28 (2007040)
I1018 12:05:31.599337 34212 net.cpp:137] Memory required for data: 544912660
I1018 12:05:31.599342 34212 layer_factory.hpp:77] Creating layer conv4_3
I1018 12:05:31.599352 34212 net.cpp:84] Creating Layer conv4_3
I1018 12:05:31.599357 34212 net.cpp:406] conv4_3 <- conv4_2
I1018 12:05:31.599364 34212 net.cpp:380] conv4_3 -> conv4_3
I1018 12:05:31.605259 34212 net.cpp:122] Setting up conv4_3
I1018 12:05:31.605280 34212 net.cpp:129] Top shape: 5 512 28 28 (2007040)
I1018 12:05:31.605285 34212 net.cpp:137] Memory required for data: 552940820
I1018 12:05:31.605293 34212 layer_factory.hpp:77] Creating layer relu4_3
I1018 12:05:31.605303 34212 net.cpp:84] Creating Layer relu4_3
I1018 12:05:31.605306 34212 net.cpp:406] relu4_3 <- conv4_3
I1018 12:05:31.605314 34212 net.cpp:367] relu4_3 -> conv4_3 (in-place)
I1018 12:05:31.605321 34212 net.cpp:122] Setting up relu4_3
I1018 12:05:31.605327 34212 net.cpp:129] Top shape: 5 512 28 28 (2007040)
I1018 12:05:31.605331 34212 net.cpp:137] Memory required for data: 560968980
I1018 12:05:31.605343 34212 layer_factory.hpp:77] Creating layer pool4
I1018 12:05:31.605353 34212 net.cpp:84] Creating Layer pool4
I1018 12:05:31.605358 34212 net.cpp:406] pool4 <- conv4_3
I1018 12:05:31.605366 34212 net.cpp:380] pool4 -> pool4
I1018 12:05:31.605410 34212 net.cpp:122] Setting up pool4
I1018 12:05:31.605422 34212 net.cpp:129] Top shape: 5 512 14 14 (501760)
I1018 12:05:31.605425 34212 net.cpp:137] Memory required for data: 562976020
I1018 12:05:31.605429 34212 layer_factory.hpp:77] Creating layer conv5_1
I1018 12:05:31.605444 34212 net.cpp:84] Creating Layer conv5_1
I1018 12:05:31.605450 34212 net.cpp:406] conv5_1 <- pool4
I1018 12:05:31.605458 34212 net.cpp:380] conv5_1 -> conv5_1
I1018 12:05:31.611189 34212 net.cpp:122] Setting up conv5_1
I1018 12:05:31.611222 34212 net.cpp:129] Top shape: 5 512 14 14 (501760)
I1018 12:05:31.611227 34212 net.cpp:137] Memory required for data: 564983060
I1018 12:05:31.611237 34212 layer_factory.hpp:77] Creating layer relu5_1
I1018 12:05:31.611243 34212 net.cpp:84] Creating Layer relu5_1
I1018 12:05:31.611248 34212 net.cpp:406] relu5_1 <- conv5_1
I1018 12:05:31.611255 34212 net.cpp:367] relu5_1 -> conv5_1 (in-place)
I1018 12:05:31.611263 34212 net.cpp:122] Setting up relu5_1
I1018 12:05:31.611268 34212 net.cpp:129] Top shape: 5 512 14 14 (501760)
I1018 12:05:31.611274 34212 net.cpp:137] Memory required for data: 566990100
I1018 12:05:31.611277 34212 layer_factory.hpp:77] Creating layer conv5_2
I1018 12:05:31.611286 34212 net.cpp:84] Creating Layer conv5_2
I1018 12:05:31.611291 34212 net.cpp:406] conv5_2 <- conv5_1
I1018 12:05:31.611297 34212 net.cpp:380] conv5_2 -> conv5_2
I1018 12:05:31.617308 34212 net.cpp:122] Setting up conv5_2
I1018 12:05:31.617336 34212 net.cpp:129] Top shape: 5 512 14 14 (501760)
I1018 12:05:31.617341 34212 net.cpp:137] Memory required for data: 568997140
I1018 12:05:31.617358 34212 layer_factory.hpp:77] Creating layer relu5_2
I1018 12:05:31.617377 34212 net.cpp:84] Creating Layer relu5_2
I1018 12:05:31.617383 34212 net.cpp:406] relu5_2 <- conv5_2
I1018 12:05:31.617390 34212 net.cpp:367] relu5_2 -> conv5_2 (in-place)
I1018 12:05:31.617398 34212 net.cpp:122] Setting up relu5_2
I1018 12:05:31.617404 34212 net.cpp:129] Top shape: 5 512 14 14 (501760)
I1018 12:05:31.617408 34212 net.cpp:137] Memory required for data: 571004180
I1018 12:05:31.617413 34212 layer_factory.hpp:77] Creating layer conv5_3
I1018 12:05:31.617421 34212 net.cpp:84] Creating Layer conv5_3
I1018 12:05:31.617426 34212 net.cpp:406] conv5_3 <- conv5_2
I1018 12:05:31.617432 34212 net.cpp:380] conv5_3 -> conv5_3
I1018 12:05:31.623121 34212 net.cpp:122] Setting up conv5_3
I1018 12:05:31.623150 34212 net.cpp:129] Top shape: 5 512 14 14 (501760)
I1018 12:05:31.623154 34212 net.cpp:137] Memory required for data: 573011220
I1018 12:05:31.623162 34212 layer_factory.hpp:77] Creating layer relu5_3
I1018 12:05:31.623175 34212 net.cpp:84] Creating Layer relu5_3
I1018 12:05:31.623180 34212 net.cpp:406] relu5_3 <- conv5_3
I1018 12:05:31.623189 34212 net.cpp:367] relu5_3 -> conv5_3 (in-place)
I1018 12:05:31.623198 34212 net.cpp:122] Setting up relu5_3
I1018 12:05:31.623204 34212 net.cpp:129] Top shape: 5 512 14 14 (501760)
I1018 12:05:31.623208 34212 net.cpp:137] Memory required for data: 575018260
I1018 12:05:31.623211 34212 layer_factory.hpp:77] Creating layer conv5_3_re
I1018 12:05:31.623225 34212 net.cpp:84] Creating Layer conv5_3_re
I1018 12:05:31.623230 34212 net.cpp:406] conv5_3_re <- conv5_3
I1018 12:05:31.623239 34212 net.cpp:380] conv5_3_re -> conv5_3_re
I1018 12:05:31.623280 34212 net.cpp:122] Setting up conv5_3_re
I1018 12:05:31.623301 34212 net.cpp:129] Top shape: 5 512 196 (501760)
I1018 12:05:31.623304 34212 net.cpp:137] Memory required for data: 577025300
I1018 12:05:31.623319 34212 layer_factory.hpp:77] Creating layer conv5_3_tran
I1018 12:05:31.623409 34212 net.cpp:84] Creating Layer conv5_3_tran
I1018 12:05:31.623419 34212 net.cpp:406] conv5_3_tran <- conv5_3_re
I1018 12:05:31.623426 34212 net.cpp:380] conv5_3_tran -> conv5_3_tran
I1018 12:05:31.625005 34212 net.cpp:122] Setting up conv5_3_tran
I1018 12:05:31.625032 34212 net.cpp:129] Top shape: 16 5 512 (40960)
I1018 12:05:31.625038 34212 net.cpp:137] Memory required for data: 577189140
I1018 12:05:31.625043 34212 layer_factory.hpp:77] Creating layer lstm1
I1018 12:05:31.625057 34212 net.cpp:84] Creating Layer lstm1
I1018 12:05:31.625062 34212 net.cpp:406] lstm1 <- conv5_3_tran
I1018 12:05:31.625069 34212 net.cpp:406] lstm1 <- clip_markers
I1018 12:05:31.625077 34212 net.cpp:380] lstm1 -> lstm1
I1018 12:05:31.625092 34212 recurrent_layer.cpp:20] Initializing recurrent layer: assuming input batch contains 16 timesteps of 5 independent streams.
I1018 12:05:31.625898 34212 net.cpp:51] Initializing net from parameters: 
layer {
  name: "lstm1_"
  type: "Input"
  top: "x"
  top: "cont"
  input_param {
    shape {
      dim: 16
      dim: 5
      dim: 512
    }
    shape {
      dim: 16
      dim: 5
    }
  }
}
layer {
  name: "lstm1_"
  type: "Input"
  top: "c_0"
  top: "h_0"
  input_param {
    shape {
      dim: 1
      dim: 5
      dim: 512
    }
    shape {
      dim: 1
      dim: 5
      dim: 512
    }
  }
}
layer {
  name: "lstm1_cont_slice"
  type: "Slice"
  bottom: "cont"
  top: "cont_1"
  top: "cont_2"
  top: "cont_3"
  top: "cont_4"
  top: "cont_5"
  top: "cont_6"
  top: "cont_7"
  top: "cont_8"
  top: "cont_9"
  top: "cont_10"
  top: "cont_11"
  top: "cont_12"
  top: "cont_13"
  top: "cont_14"
  top: "cont_15"
  top: "cont_16"
  slice_param {
    axis: 0
  }
}
layer {
  name: "lstm1_x_transform"
  type: "InnerProduct"
  bottom: "x"
  top: "W_xc_x"
  param {
    name: "W_xc"
  }
  param {
    name: "b_c"
  }
  propagate_down: true
  inner_product_param {
    num_output: 2048
    bias_term: true
    weight_filler {
      type: "uniform"
      min: -0.01
      max: 0.01
    }
    bias_filler {
      type: "constant"
      value: 0
    }
    axis: 2
  }
}
layer {
  name: "lstm1_W_xc_x_slice"
  type: "Slice"
  bottom: "W_xc_x"
  top: "W_xc_x_1"
  top: "W_xc_x_2"
  top: "W_xc_x_3"
  top: "W_xc_x_4"
  top: "W_xc_x_5"
  top: "W_xc_x_6"
  top: "W_xc_x_7"
  top: "W_xc_x_8"
  top: "W_xc_x_9"
  top: "W_xc_x_10"
  top: "W_xc_x_11"
  top: "W_xc_x_12"
  top: "W_xc_x_13"
  top: "W_xc_x_14"
  top: "W_xc_x_15"
  top: "W_xc_x_16"
  slice_param {
    axis: 0
  }
}
layer {
  name: "lstm1_h_conted_0"
  type: "Scale"
  bottom: "h_0"
  bottom: "cont_1"
  top: "h_conted_0"
  scale_param {
    axis: 0
  }
}
layer {
  name: "lstm1_transform_1"
  type: "InnerProduct"
  bottom: "h_conted_0"
  top: "W_hc_h_0"
  param {
    name: "W_hc"
  }
  inner_product_param {
    num_output: 2048
    bias_term: false
    weight_filler {
      type: "uniform"
      min: -0.01
      max: 0.01
    }
    axis: 2
  }
}
layer {
  name: "lstm1_gate_input_1"
  type: "Eltwise"
  bottom: "W_hc_h_0"
  bottom: "W_xc_x_1"
  top: "gate_input_1"
  eltwise_param {
    operation: SUM
  }
}
layer {
  name: "lstm1_unit_1"
  type: "LSTMUnit"
  bottom: "c_0"
  bottom: "gate_input_1"
  bottom: "cont_1"
  top: "c_1"
  top: "h_1"
}
layer {
  name: "lstm1_h_conted_1"
  type: "Scale"
  bottom: "h_1"
  bottom: "cont_2"
  top: "h_conted_1"
  scale_param {
    axis: 0
  }
}
layer {
  name: "lstm1_transform_2"
  type: "InnerProduct"
  bottom: "h_conted_1"
  top: "W_hc_h_1"
  param {
    name: "W_hc"
  }
  inner_product_param {
    num_output: 2048
    bias_term: false
    weight_filler {
      type: "uniform"
      min: -0.01
      max: 0.01
    }
    axis: 2
  }
}
layer {
  name: "lstm1_gate_input_2"
  type: "Eltwise"
  bottom: "W_hc_h_1"
  bottom: "W_xc_x_2"
  top: "gate_input_2"
  eltwise_param {
    operation: SUM
  }
}
layer {
  name: "lstm1_unit_2"
  type: "LSTMUnit"
  bottom: "c_1"
  bottom: "gate_input_2"
  bottom: "cont_2"
  top: "c_2"
  top: "h_2"
}
layer {
  name: "lstm1_h_conted_2"
  type: "Scale"
  bottom: "h_2"
  bottom: "cont_3"
  top: "h_conted_2"
  scale_param {
    axis: 0
  }
}
layer {
  name: "lstm1_transform_3"
  type: "InnerProduct"
  bottom: "h_conted_2"
  top: "W_hc_h_2"
  param {
    name: "W_hc"
  }
  inner_product_param {
    num_output: 2048
    bias_term: false
    weight_filler {
      type: "uniform"
      min: -0.01
      max: 0.01
    }
    axis: 2
  }
}
layer {
  name: "lstm1_gate_input_3"
  type: "Eltwise"
  bottom: "W_hc_h_2"
  bottom: "W_xc_x_3"
  top: "gate_input_3"
  eltwise_param {
    operation: SUM
  }
}
layer {
  name: "lstm1_unit_3"
  type: "LSTMUnit"
  bottom: "c_2"
  bottom: "gate_input_3"
  bottom: "cont_3"
  top: "c_3"
  top: "h_3"
}
layer {
  name: "lstm1_h_conted_3"
  type: "Scale"
  bottom: "h_3"
  bottom: "cont_4"
  top: "h_conted_3"
  scale_param {
    axis: 0
  }
}
layer {
  name: "lstm1_transform_4"
  type: "InnerProduct"
  bottom: "h_conted_3"
  top: "W_hc_h_3"
  param {
    name: "W_hc"
  }
  inner_product_param {
    num_output: 2048
    bias_term: false
    weight_filler {
      type: "uniform"
      min: -0.01
      max: 0.01
    }
    axis: 2
  }
}
layer {
  name: "lstm1_gate_input_4"
  type: "Eltwise"
  bottom: "W_hc_h_3"
  bottom: "W_xc_x_4"
  top: "gate_input_4"
  eltwise_param {
    operation: SUM
  }
}
layer {
  name: "lstm1_unit_4"
  type: "LSTMUnit"
  bottom: "c_3"
  bottom: "gate_input_4"
  bottom: "cont_4"
  top: "c_4"
  top: "h_4"
}
layer {
  name: "lstm1_h_conted_4"
  type: "Scale"
  bottom: "h_4"
  bottom: "cont_5"
  top: "h_conted_4"
  scale_param {
    axis: 0
  }
}
layer {
  name: "lstm1_transform_5"
  type: "InnerProduct"
  bottom: "h_conted_4"
  top: "W_hc_h_4"
  param {
    name: "W_hc"
  }
  inner_product_param {
    num_output: 2048
    bias_term: false
    weight_filler {
      type: "uniform"
      min: -0.01
      max: 0.01
    }
    axis: 2
  }
}
layer {
  name: "lstm1_gate_input_5"
  type: "Eltwise"
  bottom: "W_hc_h_4"
  bottom: "W_xc_x_5"
  top: "gate_input_5"
  eltwise_param {
    operation: SUM
  }
}
layer {
  name: "lstm1_unit_5"
  type: "LSTMUnit"
  bottom: "c_4"
  bottom: "gate_input_5"
  bottom: "cont_5"
  top: "c_5"
  top: "h_5"
}
layer {
  name: "lstm1_h_conted_5"
  type: "Scale"
  bottom: "h_5"
  bottom: "cont_6"
  top: "h_conted_5"
  scale_param {
    axis: 0
  }
}
layer {
  name: "lstm1_transform_6"
  type: "InnerProduct"
  bottom: "h_conted_5"
  top: "W_hc_h_5"
  param {
    name: "W_hc"
  }
  inner_product_param {
    num_output: 2048
    bias_term: false
    weight_filler {
      type: "uniform"
      min: -0.01
      max: 0.01
    }
    axis: 2
  }
}
layer {
  name: "lstm1_gate_input_6"
  type: "Eltwise"
  bottom: "W_hc_h_5"
  bottom: "W_xc_x_6"
  top: "gate_input_6"
  eltwise_param {
    operation: SUM
  }
}
layer {
  name: "lstm1_unit_6"
  type: "LSTMUnit"
  bottom: "c_5"
  bottom: "gate_input_6"
  bottom: "cont_6"
  top: "c_6"
  top: "h_6"
}
layer {
  name: "lstm1_h_conted_6"
  type: "Scale"
  bottom: "h_6"
  bottom: "cont_7"
  top: "h_conted_6"
  scale_param {
    axis: 0
  }
}
layer {
  name: "lstm1_transform_7"
  type: "InnerProduct"
  bottom: "h_conted_6"
  top: "W_hc_h_6"
  param {
    name: "W_hc"
  }
  inner_product_param {
    num_output: 2048
    bias_term: false
    weight_filler {
      type: "uniform"
      min: -0.01
      max: 0.01
    }
    axis: 2
  }
}
layer {
  name: "lstm1_gate_input_7"
  type: "Eltwise"
  bottom: "W_hc_h_6"
  bottom: "W_xc_x_7"
  top: "gate_input_7"
  eltwise_param {
    operation: SUM
  }
}
layer {
  name: "lstm1_unit_7"
  type: "LSTMUnit"
  bottom: "c_6"
  bottom: "gate_input_7"
  bottom: "cont_7"
  top: "c_7"
  top: "h_7"
}
layer {
  name: "lstm1_h_conted_7"
  type: "Scale"
  bottom: "h_7"
  bottom: "cont_8"
  top: "h_conted_7"
  scale_param {
    axis: 0
  }
}
layer {
  name: "lstm1_transform_8"
  type: "InnerProduct"
  bottom: "h_conted_7"
  top: "W_hc_h_7"
  param {
    name: "W_hc"
  }
  inner_product_param {
    num_output: 2048
    bias_term: false
    weight_filler {
      type: "uniform"
      min: -0.01
      max: 0.01
    }
    axis: 2
  }
}
layer {
  name: "lstm1_gate_input_8"
  type: "Eltwise"
  bottom: "W_hc_h_7"
  bottom: "W_xc_x_8"
  top: "gate_input_8"
  eltwise_param {
    operation: SUM
  }
}
layer {
  name: "lstm1_unit_8"
  type: "LSTMUnit"
  bottom: "c_7"
  bottom: "gate_input_8"
  bottom: "cont_8"
  top: "c_8"
  top: "h_8"
}
layer {
  name: "lstm1_h_conted_8"
  type: "Scale"
  bottom: "h_8"
  bottom: "cont_9"
  top: "h_conted_8"
  scale_param {
    axis: 0
  }
}
layer {
  name: "lstm1_transform_9"
  type: "InnerProduct"
  bottom: "h_conted_8"
  top: "W_hc_h_8"
  param {
    name: "W_hc"
  }
  inner_product_param {
    num_output: 2048
    bias_term: false
    weight_filler {
      type: "uniform"
      min: -0.01
      max: 0.01
    }
    axis: 2
  }
}
layer {
  name: "lstm1_gate_input_9"
  type: "Eltwise"
  bottom: "W_hc_h_8"
  bottom: "W_xc_x_9"
  top: "gate_input_9"
  eltwise_param {
    operation: SUM
  }
}
layer {
  name: "lstm1_unit_9"
  type: "LSTMUnit"
  bottom: "c_8"
  bottom: "gate_input_9"
  bottom: "cont_9"
  top: "c_9"
  top: "h_9"
}
layer {
  name: "lstm1_h_conted_9"
  type: "Scale"
  bottom: "h_9"
  bottom: "cont_10"
  top: "h_conted_9"
  scale_param {
    axis: 0
  }
}
layer {
  name: "lstm1_transform_10"
  type: "InnerProduct"
  bottom: "h_conted_9"
  top: "W_hc_h_9"
  param {
    name: "W_hc"
  }
  inner_product_param {
    num_output: 2048
    bias_term: false
    weight_filler {
      type: "uniform"
      min: -0.01
      max: 0.01
    }
    axis: 2
  }
}
layer {
  name: "lstm1_gate_input_10"
  type: "Eltwise"
  bottom: "W_hc_h_9"
  bottom: "W_xc_x_10"
  top: "gate_input_10"
  eltwise_param {
    operation: SUM
  }
}
layer {
  name: "lstm1_unit_10"
  type: "LSTMUnit"
  bottom: "c_9"
  bottom: "gate_input_10"
  bottom: "cont_10"
  top: "c_10"
  top: "h_10"
}
layer {
  name: "lstm1_h_conted_10"
  type: "Scale"
  bottom: "h_10"
  bottom: "cont_11"
  top: "h_conted_10"
  scale_param {
    axis: 0
  }
}
layer {
  name: "lstm1_transform_11"
  type: "InnerProduct"
  bottom: "h_conted_10"
  top: "W_hc_h_10"
  param {
    name: "W_hc"
  }
  inner_product_param {
    num_output: 2048
    bias_term: false
    weight_filler {
      type: "uniform"
      min: -0.01
      max: 0.01
    }
    axis: 2
  }
}
layer {
  name: "lstm1_gate_input_11"
  type: "Eltwise"
  bottom: "W_hc_h_10"
  bottom: "W_xc_x_11"
  top: "gate_input_11"
  eltwise_param {
    operation: SUM
  }
}
layer {
  name: "lstm1_unit_11"
  type: "LSTMUnit"
  bottom: "c_10"
  bottom: "gate_input_11"
  bottom: "cont_11"
  top: "c_11"
  top: "h_11"
}
layer {
  name: "lstm1_h_conted_11"
  type: "Scale"
  bottom: "h_11"
  bottom: "cont_12"
  top: "h_conted_11"
  scale_param {
    axis: 0
  }
}
layer {
  name: "lstm1_transform_12"
  type: "InnerProduct"
  bottom: "h_conted_11"
  top: "W_hc_h_11"
  param {
    name: "W_hc"
  }
  inner_product_param {
    num_output: 2048
    bias_term: false
    weight_filler {
      type: "uniform"
      min: -0.01
      max: 0.01
    }
    axis: 2
  }
}
layer {
  name: "lstm1_gate_input_12"
  type: "Eltwise"
  bottom: "W_hc_h_11"
  bottom: "W_xc_x_12"
  top: "gate_input_12"
  eltwise_param {
    operation: SUM
  }
}
layer {
  name: "lstm1_unit_12"
  type: "LSTMUnit"
  bottom: "c_11"
  bottom: "gate_input_12"
  bottom: "cont_12"
  top: "c_12"
  top: "h_12"
}
layer {
  name: "lstm1_h_conted_12"
  type: "Scale"
  bottom: "h_12"
  bottom: "cont_13"
  top: "h_conted_12"
  scale_param {
    axis: 0
  }
}
layer {
  name: "lstm1_transform_13"
  type: "InnerProduct"
  bottom: "h_conted_12"
  top: "W_hc_h_12"
  param {
    name: "W_hc"
  }
  inner_product_param {
    num_output: 2048
    bias_term: false
    weight_filler {
      type: "uniform"
      min: -0.01
      max: 0.01
    }
    axis: 2
  }
}
layer {
  name: "lstm1_gate_input_13"
  type: "Eltwise"
  bottom: "W_hc_h_12"
  bottom: "W_xc_x_13"
  top: "gate_input_13"
  eltwise_param {
    operation: SUM
  }
}
layer {
  name: "lstm1_unit_13"
  type: "LSTMUnit"
  bottom: "c_12"
  bottom: "gate_input_13"
  bottom: "cont_13"
  top: "c_13"
  top: "h_13"
}
layer {
  name: "lstm1_h_conted_13"
  type: "Scale"
  bottom: "h_13"
  bottom: "cont_14"
  top: "h_conted_13"
  scale_param {
    axis: 0
  }
}
layer {
  name: "lstm1_transform_14"
  type: "InnerProduct"
  bottom: "h_conted_13"
  top: "W_hc_h_13"
  param {
    name: "W_hc"
  }
  inner_product_param {
    num_output: 2048
    bias_term: false
    weight_filler {
      type: "uniform"
      min: -0.01
      max: 0.01
    }
    axis: 2
  }
}
layer {
  name: "lstm1_gate_input_14"
  type: "Eltwise"
  bottom: "W_hc_h_13"
  bottom: "W_xc_x_14"
  top: "gate_input_14"
  eltwise_param {
    operation: SUM
  }
}
layer {
  name: "lstm1_unit_14"
  type: "LSTMUnit"
  bottom: "c_13"
  bottom: "gate_input_14"
  bottom: "cont_14"
  top: "c_14"
  top: "h_14"
}
layer {
  name: "lstm1_h_conted_14"
  type: "Scale"
  bottom: "h_14"
  bottom: "cont_15"
  top: "h_conted_14"
  scale_param {
    axis: 0
  }
}
layer {
  name: "lstm1_transform_15"
  type: "InnerProduct"
  bottom: "h_conted_14"
  top: "W_hc_h_14"
  param {
    name: "W_hc"
  }
  inner_product_param {
    num_output: 2048
    bias_term: false
    weight_filler {
      type: "uniform"
      min: -0.01
      max: 0.01
    }
    axis: 2
  }
}
layer {
  name: "lstm1_gate_input_15"
  type: "Eltwise"
  bottom: "W_hc_h_14"
  bottom: "W_xc_x_15"
  top: "gate_input_15"
  eltwise_param {
    operation: SUM
  }
}
layer {
  name: "lstm1_unit_15"
  type: "LSTMUnit"
  bottom: "c_14"
  bottom: "gate_input_15"
  bottom: "cont_15"
  top: "c_15"
  top: "h_15"
}
layer {
  name: "lstm1_h_conted_15"
  type: "Scale"
  bottom: "h_15"
  bottom: "cont_16"
  top: "h_conted_15"
  scale_param {
    axis: 0
  }
}
layer {
  name: "lstm1_transform_16"
  type: "InnerProduct"
  bottom: "h_conted_15"
  top: "W_hc_h_15"
  param {
    name: "W_hc"
  }
  inner_product_param {
    num_output: 2048
    bias_term: false
    weight_filler {
      type: "uniform"
      min: -0.01
      max: 0.01
    }
    axis: 2
  }
}
layer {
  name: "lstm1_gate_input_16"
  type: "Eltwise"
  bottom: "W_hc_h_15"
  bottom: "W_xc_x_16"
  top: "gate_input_16"
  eltwise_param {
    operation: SUM
  }
}
layer {
  name: "lstm1_unit_16"
  type: "LSTMUnit"
  bottom: "c_15"
  bottom: "gate_input_16"
  bottom: "cont_16"
  top: "c_16"
  top: "h_16"
}
layer {
  name: "lstm1_"
  type: "Split"
  bottom: "c_16"
  top: "c_T"
}
layer {
  name: "lstm1_h_concat"
  type: "Concat"
  bottom: "h_1"
  bottom: "h_2"
  bottom: "h_3"
  bottom: "h_4"
  bottom: "h_5"
  bottom: "h_6"
  bottom: "h_7"
  bottom: "h_8"
  bottom: "h_9"
  bottom: "h_10"
  bottom: "h_11"
  bottom: "h_12"
  bottom: "h_13"
  bottom: "h_14"
  bottom: "h_15"
  bottom: "h_16"
  top: "h"
  concat_param {
    axis: 0
  }
}
layer {
  name: "h_pseudoloss"
  type: "Reduction"
  bottom: "h"
  top: "h_pseudoloss"
  loss_weight: 1
}
I1018 12:05:31.626435 34212 layer_factory.hpp:77] Creating layer lstm1_
I1018 12:05:31.626458 34212 net.cpp:84] Creating Layer lstm1_
I1018 12:05:31.626464 34212 net.cpp:380] lstm1_ -> x
I1018 12:05:31.626478 34212 net.cpp:380] lstm1_ -> cont
I1018 12:05:31.626525 34212 net.cpp:122] Setting up lstm1_
I1018 12:05:31.626533 34212 net.cpp:129] Top shape: 16 5 512 (40960)
I1018 12:05:31.626539 34212 net.cpp:129] Top shape: 16 5 (80)
I1018 12:05:31.626543 34212 net.cpp:137] Memory required for data: 164160
I1018 12:05:31.626549 34212 layer_factory.hpp:77] Creating layer lstm1_
I1018 12:05:31.626555 34212 net.cpp:84] Creating Layer lstm1_
I1018 12:05:31.626560 34212 net.cpp:380] lstm1_ -> c_0
I1018 12:05:31.626569 34212 net.cpp:380] lstm1_ -> h_0
I1018 12:05:31.626603 34212 net.cpp:122] Setting up lstm1_
I1018 12:05:31.626610 34212 net.cpp:129] Top shape: 1 5 512 (2560)
I1018 12:05:31.626616 34212 net.cpp:129] Top shape: 1 5 512 (2560)
I1018 12:05:31.626619 34212 net.cpp:137] Memory required for data: 184640
I1018 12:05:31.626623 34212 layer_factory.hpp:77] Creating layer lstm1_cont_slice
I1018 12:05:31.626633 34212 net.cpp:84] Creating Layer lstm1_cont_slice
I1018 12:05:31.626637 34212 net.cpp:406] lstm1_cont_slice <- cont
I1018 12:05:31.626648 34212 net.cpp:380] lstm1_cont_slice -> cont_1
I1018 12:05:31.626657 34212 net.cpp:380] lstm1_cont_slice -> cont_2
…
I1018 12:05:31.626711 34212 net.cpp:380] lstm1_cont_slice -> cont_9
I1018 12:05:31.626718 34212 net.cpp:380] lstm1_cont_slice -> cont_10
I1018 12:05:31.626725 34212 net.cpp:380] lstm1_cont_slice -> cont_11
I1018 12:05:31.626732 34212 net.cpp:380] lstm1_cont_slice -> cont_12
I1018 12:05:31.626739 34212 net.cpp:380] lstm1_cont_slice -> cont_13
I1018 12:05:31.626749 34212 net.cpp:380] lstm1_cont_slice -> cont_14
I1018 12:05:31.626756 34212 net.cpp:380] lstm1_cont_slice -> cont_15
I1018 12:05:31.626763 34212 net.cpp:380] lstm1_cont_slice -> cont_16
I1018 12:05:31.626948 34212 net.cpp:122] Setting up lstm1_cont_slice
I1018 12:05:31.626956 34212 net.cpp:129] Top shape: 1 5 (5)
I1018 12:05:31.626961 34212 net.cpp:129] Top shape: 1 5 (5)
I1018 12:05:31.626966 34212 net.cpp:129] Top shape: 1 5 (5)
I1018 12:05:31.626971 34212 net.cpp:129] Top shape: 1 5 (5)
I1018 12:05:31.626976 34212 net.cpp:129] Top shape: 1 5 (5)
I1018 12:05:31.626981 34212 net.cpp:129] Top shape: 1 5 (5)
I1018 12:05:31.626986 34212 net.cpp:129] Top shape: 1 5 (5)
I1018 12:05:31.626989 34212 net.cpp:129] Top shape: 1 5 (5)
I1018 12:05:31.626994 34212 net.cpp:129] Top shape: 1 5 (5)
I1018 12:05:31.626998 34212 net.cpp:129] Top shape: 1 5 (5)
I1018 12:05:31.627003 34212 net.cpp:129] Top shape: 1 5 (5)
I1018 12:05:31.627007 34212 net.cpp:129] Top shape: 1 5 (5)
I1018 12:05:31.627012 34212 net.cpp:129] Top shape: 1 5 (5)
I1018 12:05:31.627017 34212 net.cpp:129] Top shape: 1 5 (5)
I1018 12:05:31.627022 34212 net.cpp:129] Top shape: 1 5 (5)
I1018 12:05:31.627027 34212 net.cpp:129] Top shape: 1 5 (5)
I1018 12:05:31.627030 34212 net.cpp:137] Memory required for data: 184960
I1018 12:05:31.627034 34212 layer_factory.hpp:77] Creating layer cont_1_lstm1_cont_slice_0_split
I1018 12:05:31.627040 34212 net.cpp:84] Creating Layer cont_1_lstm1_cont_slice_0_split
I1018 12:05:31.627044 34212 net.cpp:406] cont_1_lstm1_cont_slice_0_split <- cont_1
I1018 12:05:31.627050 34212 net.cpp:380] cont_1_lstm1_cont_slice_0_split -> cont_1_lstm1_cont_slice_0_split_0
I1018 12:05:31.627058 34212 net.cpp:380] cont_1_lstm1_cont_slice_0_split -> cont_1_lstm1_cont_slice_0_split_1
I1018 12:05:31.627091 34212 net.cpp:122] Setting up cont_1_lstm1_cont_slice_0_split
I1018 12:05:31.627097 34212 net.cpp:129] Top shape: 1 5 (5)
I1018 12:05:31.627102 34212 net.cpp:129] Top shape: 1 5 (5)
I1018 12:05:31.627106 34212 net.cpp:137] Memory required for data: 185000
I1018 12:05:31.627110 34212 layer_factory.hpp:77] Creating layer cont_2_lstm1_cont_slice_1_split
I1018 12:05:31.627116 34212 net.cpp:84] Creating Layer cont_2_lstm1_cont_slice_1_split
I1018 12:05:31.627120 34212 net.cpp:406] cont_2_lstm1_cont_slice_1_split <- cont_2
I1018 12:05:31.627126 34212 net.cpp:380] cont_2_lstm1_cont_slice_1_split -> cont_2_lstm1_cont_slice_1_split_0
I1018 12:05:31.627135 34212 net.cpp:380] cont_2_lstm1_cont_slice_1_split -> cont_2_lstm1_cont_slice_1_split_1
I1018 12:05:31.627166 34212 net.cpp:122] Setting up cont_2_lstm1_cont_slice_1_split
I1018 12:05:31.627173 34212 net.cpp:129] Top shape: 1 5 (5)
I1018 12:05:31.627178 34212 net.cpp:129] Top shape: 1 5 (5)
I1018 12:05:31.627182 34212 net.cpp:137] Memory required for data: 185040
I1018 12:05:31.627185 34212 layer_factory.hpp:77] Creating layer cont_3_lstm1_cont_slice_2_split
I1018 12:05:31.627190 34212 net.cpp:84] Creating Layer cont_3_lstm1_cont_slice_2_split
I1018 12:05:31.627194 34212 net.cpp:406] cont_3_lstm1_cont_slice_2_split <- cont_3
I1018 12:05:31.627202 34212 net.cpp:380] cont_3_lstm1_cont_slice_2_split -> cont_3_lstm1_cont_slice_2_split_0
I1018 12:05:31.627209 34212 net.cpp:380] cont_3_lstm1_cont_slice_2_split -> cont_3_lstm1_cont_slice_2_split_1
I1018 12:05:31.627240 34212 net.cpp:122] Setting up cont_3_lstm1_cont_slice_2_split
I1018 12:05:31.627246 34212 net.cpp:129] Top shape: 1 5 (5)
I1018 12:05:31.627251 34212 net.cpp:129] Top shape: 1 5 (5)
I1018 12:05:31.627255 34212 net.cpp:137] Memory required for data: 185080
I1018 12:05:31.627259 34212 layer_factory.hpp:77] Creating layer cont_4_lstm1_cont_slice_3_split
I1018 12:05:31.627264 34212 net.cpp:84] Creating Layer cont_4_lstm1_cont_slice_3_split
I1018 12:05:31.627269 34212 net.cpp:406] cont_4_lstm1_cont_slice_3_split <- cont_4
I1018 12:05:31.627275 34212 net.cpp:380] cont_4_lstm1_cont_slice_3_split -> cont_4_lstm1_cont_slice_3_split_0
I1018 12:05:31.627282 34212 net.cpp:380] cont_4_lstm1_cont_slice_3_split -> cont_4_lstm1_cont_slice_3_split_1
I1018 12:05:31.627311 34212 net.cpp:122] Setting up cont_4_lstm1_cont_slice_3_split
I1018 12:05:31.627317 34212 net.cpp:129] Top shape: 1 5 (5)
I1018 12:05:31.627324 34212 net.cpp:129] Top shape: 1 5 (5)
I1018 12:05:31.627328 34212 net.cpp:137] Memory required for data: 185120
I1018 12:05:31.627332 34212 layer_factory.hpp:77] Creating layer cont_5_lstm1_cont_slice_4_split
I1018 12:05:31.627337 34212 net.cpp:84] Creating Layer cont_5_lstm1_cont_slice_4_split
I1018 12:05:31.627341 34212 net.cpp:406] cont_5_lstm1_cont_slice_4_split <- cont_5
I1018 12:05:31.627347 34212 net.cpp:380] cont_5_lstm1_cont_slice_4_split -> cont_5_lstm1_cont_slice_4_split_0
I1018 12:05:31.627354 34212 net.cpp:380] cont_5_lstm1_cont_slice_4_split -> cont_5_lstm1_cont_slice_4_split_1
I1018 12:05:31.627384 34212 net.cpp:122] Setting up cont_5_lstm1_cont_slice_4_split
I1018 12:05:31.627391 34212 net.cpp:129] Top shape: 1 5 (5)
I1018 12:05:31.627396 34212 net.cpp:129] Top shape: 1 5 (5)
I1018 12:05:31.627399 34212 net.cpp:137] Memory required for data: 185160
I1018 12:05:31.627403 34212 layer_factory.hpp:77] Creating layer cont_6_lstm1_cont_slice_5_split
I1018 12:05:31.627409 34212 net.cpp:84] Creating Layer cont_6_lstm1_cont_slice_5_split
I1018 12:05:31.627413 34212 net.cpp:406] cont_6_lstm1_cont_slice_5_split <- cont_6
I1018 12:05:31.627421 34212 net.cpp:380] cont_6_lstm1_cont_slice_5_split -> cont_6_lstm1_cont_slice_5_split_0
I1018 12:05:31.627429 34212 net.cpp:380] cont_6_lstm1_cont_slice_5_split -> cont_6_lstm1_cont_slice_5_split_1
I1018 12:05:31.627455 34212 net.cpp:122] Setting up cont_6_lstm1_cont_slice_5_split
I1018 12:05:31.627461 34212 net.cpp:129] Top shape: 1 5 (5)
I1018 12:05:31.627465 34212 net.cpp:129] Top shape: 1 5 (5)
I1018 12:05:31.627470 34212 net.cpp:137] Memory required for data: 185200
I1018 12:05:31.627473 34212 layer_factory.hpp:77] Creating layer cont_7_lstm1_cont_slice_6_split
I1018 12:05:31.627480 34212 net.cpp:84] Creating Layer cont_7_lstm1_cont_slice_6_split
I1018 12:05:31.627485 34212 net.cpp:406] cont_7_lstm1_cont_slice_6_split <- cont_7
I1018 12:05:31.627490 34212 net.cpp:380] cont_7_lstm1_cont_slice_6_split -> cont_7_lstm1_cont_slice_6_split_0
I1018 12:05:31.627499 34212 net.cpp:380] cont_7_lstm1_cont_slice_6_split -> cont_7_lstm1_cont_slice_6_split_1
I1018 12:05:31.627528 34212 net.cpp:122] Setting up cont_7_lstm1_cont_slice_6_split
I1018 12:05:31.627534 34212 net.cpp:129] Top shape: 1 5 (5)
I1018 12:05:31.627540 34212 net.cpp:129] Top shape: 1 5 (5)
I1018 12:05:31.627543 34212 net.cpp:137] Memory required for data: 185240
I1018 12:05:31.627547 34212 layer_factory.hpp:77] Creating layer cont_8_lstm1_cont_slice_7_split
I1018 12:05:31.627552 34212 net.cpp:84] Creating Layer cont_8_lstm1_cont_slice_7_split
I1018 12:05:31.627557 34212 net.cpp:406] cont_8_lstm1_cont_slice_7_split <- cont_8
I1018 12:05:31.627562 34212 net.cpp:380] cont_8_lstm1_cont_slice_7_split -> cont_8_lstm1_cont_slice_7_split_0
I1018 12:05:31.627568 34212 net.cpp:380] cont_8_lstm1_cont_slice_7_split -> cont_8_lstm1_cont_slice_7_split_1
I1018 12:05:31.627599 34212 net.cpp:122] Setting up cont_8_lstm1_cont_slice_7_split
I1018 12:05:31.627604 34212 net.cpp:129] Top shape: 1 5 (5)
I1018 12:05:31.627609 34212 net.cpp:129] Top shape: 1 5 (5)
I1018 12:05:31.627614 34212 net.cpp:137] Memory required for data: 185280
I1018 12:05:31.627617 34212 layer_factory.hpp:77] Creating layer cont_9_lstm1_cont_slice_8_split
I1018 12:05:31.627621 34212 net.cpp:84] Creating Layer cont_9_lstm1_cont_slice_8_split
I1018 12:05:31.627626 34212 net.cpp:406] cont_9_lstm1_cont_slice_8_split <- cont_9
I1018 12:05:31.627634 34212 net.cpp:380] cont_9_lstm1_cont_slice_8_split -> cont_9_lstm1_cont_slice_8_split_0
I1018 12:05:31.627640 34212 net.cpp:380] cont_9_lstm1_cont_slice_8_split -> cont_9_lstm1_cont_slice_8_split_1
I1018 12:05:31.627666 34212 net.cpp:122] Setting up cont_9_lstm1_cont_slice_8_split
I1018 12:05:31.627677 34212 net.cpp:129] Top shape: 1 5 (5)
I1018 12:05:31.627683 34212 net.cpp:129] Top shape: 1 5 (5)
I1018 12:05:31.627687 34212 net.cpp:137] Memory required for data: 185320
I1018 12:05:31.627691 34212 layer_factory.hpp:77] Creating layer cont_10_lstm1_cont_slice_9_split
I1018 12:05:31.627696 34212 net.cpp:84] Creating Layer cont_10_lstm1_cont_slice_9_split
I1018 12:05:31.627701 34212 net.cpp:406] cont_10_lstm1_cont_slice_9_split <- cont_10
I1018 12:05:31.627707 34212 net.cpp:380] cont_10_lstm1_cont_slice_9_split -> cont_10_lstm1_cont_slice_9_split_0
I1018 12:05:31.627713 34212 net.cpp:380] cont_10_lstm1_cont_slice_9_split -> cont_10_lstm1_cont_slice_9_split_1
I1018 12:05:31.627743 34212 net.cpp:122] Setting up cont_10_lstm1_cont_slice_9_split
I1018 12:05:31.627754 34212 net.cpp:129] Top shape: 1 5 (5)
I1018 12:05:31.627759 34212 net.cpp:129] Top shape: 1 5 (5)
I1018 12:05:31.627763 34212 net.cpp:137] Memory required for data: 185360
I1018 12:05:31.627766 34212 layer_factory.hpp:77] Creating layer cont_11_lstm1_cont_slice_10_split
I1018 12:05:31.627771 34212 net.cpp:84] Creating Layer cont_11_lstm1_cont_slice_10_split
I1018 12:05:31.627776 34212 net.cpp:406] cont_11_lstm1_cont_slice_10_split <- cont_11
I1018 12:05:31.627781 34212 net.cpp:380] cont_11_lstm1_cont_slice_10_split -> cont_11_lstm1_cont_slice_10_split_0
I1018 12:05:31.627789 34212 net.cpp:380] cont_11_lstm1_cont_slice_10_split -> cont_11_lstm1_cont_slice_10_split_1
I1018 12:05:31.627817 34212 net.cpp:122] Setting up cont_11_lstm1_cont_slice_10_split
I1018 12:05:31.627823 34212 net.cpp:129] Top shape: 1 5 (5)
I1018 12:05:31.627828 34212 net.cpp:129] Top shape: 1 5 (5)
I1018 12:05:31.627832 34212 net.cpp:137] Memory required for data: 185400
I1018 12:05:31.627836 34212 layer_factory.hpp:77] Creating layer cont_12_lstm1_cont_slice_11_split
I1018 12:05:31.627840 34212 net.cpp:84] Creating Layer cont_12_lstm1_cont_slice_11_split
I1018 12:05:31.627846 34212 net.cpp:406] cont_12_lstm1_cont_slice_11_split <- cont_12
I1018 12:05:31.627852 34212 net.cpp:380] cont_12_lstm1_cont_slice_11_split -> cont_12_lstm1_cont_slice_11_split_0
I1018 12:05:31.627859 34212 net.cpp:380] cont_12_lstm1_cont_slice_11_split -> cont_12_lstm1_cont_slice_11_split_1
I1018 12:05:31.627885 34212 net.cpp:122] Setting up cont_12_lstm1_cont_slice_11_split
I1018 12:05:31.627892 34212 net.cpp:129] Top shape: 1 5 (5)
I1018 12:05:31.627897 34212 net.cpp:129] Top shape: 1 5 (5)
I1018 12:05:31.627900 34212 net.cpp:137] Memory required for data: 185440
I1018 12:05:31.627904 34212 layer_factory.hpp:77] Creating layer cont_13_lstm1_cont_slice_12_split
I1018 12:05:31.627912 34212 net.cpp:84] Creating Layer cont_13_lstm1_cont_slice_12_split
I1018 12:05:31.627915 34212 net.cpp:406] cont_13_lstm1_cont_slice_12_split <- cont_13
I1018 12:05:31.627921 34212 net.cpp:380] cont_13_lstm1_cont_slice_12_split -> cont_13_lstm1_cont_slice_12_split_0
I1018 12:05:31.627928 34212 net.cpp:380] cont_13_lstm1_cont_slice_12_split -> cont_13_lstm1_cont_slice_12_split_1
I1018 12:05:31.627956 34212 net.cpp:122] Setting up cont_13_lstm1_cont_slice_12_split
I1018 12:05:31.627964 34212 net.cpp:129] Top shape: 1 5 (5)
I1018 12:05:31.627967 34212 net.cpp:129] Top shape: 1 5 (5)
I1018 12:05:31.627971 34212 net.cpp:137] Memory required for data: 185480
I1018 12:05:31.627975 34212 layer_factory.hpp:77] Creating layer cont_14_lstm1_cont_slice_13_split
I1018 12:05:31.627981 34212 net.cpp:84] Creating Layer cont_14_lstm1_cont_slice_13_split
I1018 12:05:31.627985 34212 net.cpp:406] cont_14_lstm1_cont_slice_13_split <- cont_14
I1018 12:05:31.627991 34212 net.cpp:380] cont_14_lstm1_cont_slice_13_split -> cont_14_lstm1_cont_slice_13_split_0
I1018 12:05:31.627997 34212 net.cpp:380] cont_14_lstm1_cont_slice_13_split -> cont_14_lstm1_cont_slice_13_split_1
I1018 12:05:31.628047 34212 net.cpp:122] Setting up cont_14_lstm1_cont_slice_13_split
I1018 12:05:31.628057 34212 net.cpp:129] Top shape: 1 5 (5)
I1018 12:05:31.628062 34212 net.cpp:129] Top shape: 1 5 (5)
I1018 12:05:31.628065 34212 net.cpp:137] Memory required for data: 185520
I1018 12:05:31.628069 34212 layer_factory.hpp:77] Creating layer cont_15_lstm1_cont_slice_14_split
I1018 12:05:31.628075 34212 net.cpp:84] Creating Layer cont_15_lstm1_cont_slice_14_split
I1018 12:05:31.628079 34212 net.cpp:406] cont_15_lstm1_cont_slice_14_split <- cont_15
I1018 12:05:31.628087 34212 net.cpp:380] cont_15_lstm1_cont_slice_14_split -> cont_15_lstm1_cont_slice_14_split_0
I1018 12:05:31.628096 34212 net.cpp:380] cont_15_lstm1_cont_slice_14_split -> cont_15_lstm1_cont_slice_14_split_1
I1018 12:05:31.628126 34212 net.cpp:122] Setting up cont_15_lstm1_cont_slice_14_split
I1018 12:05:31.628132 34212 net.cpp:129] Top shape: 1 5 (5)
I1018 12:05:31.628137 34212 net.cpp:129] Top shape: 1 5 (5)
I1018 12:05:31.628141 34212 net.cpp:137] Memory required for data: 185560
I1018 12:05:31.628145 34212 layer_factory.hpp:77] Creating layer cont_16_lstm1_cont_slice_15_split
I1018 12:05:31.628154 34212 net.cpp:84] Creating Layer cont_16_lstm1_cont_slice_15_split
I1018 12:05:31.628159 34212 net.cpp:406] cont_16_lstm1_cont_slice_15_split <- cont_16
I1018 12:05:31.628165 34212 net.cpp:380] cont_16_lstm1_cont_slice_15_split -> cont_16_lstm1_cont_slice_15_split_0
I1018 12:05:31.628171 34212 net.cpp:380] cont_16_lstm1_cont_slice_15_split -> cont_16_lstm1_cont_slice_15_split_1
I1018 12:05:31.628201 34212 net.cpp:122] Setting up cont_16_lstm1_cont_slice_15_split
I1018 12:05:31.628206 34212 net.cpp:129] Top shape: 1 5 (5)
I1018 12:05:31.628211 34212 net.cpp:129] Top shape: 1 5 (5)
I1018 12:05:31.628216 34212 net.cpp:137] Memory required for data: 185600
I1018 12:05:31.628219 34212 layer_factory.hpp:77] Creating layer lstm1_x_transform
I1018 12:05:31.628231 34212 net.cpp:84] Creating Layer lstm1_x_transform
I1018 12:05:31.628235 34212 net.cpp:406] lstm1_x_transform <- x
I1018 12:05:31.628242 34212 net.cpp:380] lstm1_x_transform -> W_xc_x
I1018 12:05:31.640050 34212 net.cpp:122] Setting up lstm1_x_transform
I1018 12:05:31.640072 34212 net.cpp:129] Top shape: 16 5 2048 (163840)
I1018 12:05:31.640077 34212 net.cpp:137] Memory required for data: 840960
I1018 12:05:31.640089 34212 layer_factory.hpp:77] Creating layer lstm1_W_xc_x_slice
I1018 12:05:31.640097 34212 net.cpp:84] Creating Layer lstm1_W_xc_x_slice
I1018 12:05:31.640102 34212 net.cpp:406] lstm1_W_xc_x_slice <- W_xc_x
I1018 12:05:31.640110 34212 net.cpp:380] lstm1_W_xc_x_slice -> W_xc_x_1
I1018 12:05:31.640120 34212 net.cpp:380] lstm1_W_xc_x_slice -> W_xc_x_2
…
I1018 12:05:31.640179 34212 net.cpp:380] lstm1_W_xc_x_slice -> W_xc_x_10
I1018 12:05:31.640187 34212 net.cpp:380] lstm1_W_xc_x_slice -> W_xc_x_11
I1018 12:05:31.640198 34212 net.cpp:380] lstm1_W_xc_x_slice -> W_xc_x_12
I1018 12:05:31.640216 34212 net.cpp:380] lstm1_W_xc_x_slice -> W_xc_x_13
I1018 12:05:31.640233 34212 net.cpp:380] lstm1_W_xc_x_slice -> W_xc_x_14
I1018 12:05:31.640244 34212 net.cpp:380] lstm1_W_xc_x_slice -> W_xc_x_15
I1018 12:05:31.640260 34212 net.cpp:380] lstm1_W_xc_x_slice -> W_xc_x_16
I1018 12:05:31.640573 34212 net.cpp:122] Setting up lstm1_W_xc_x_slice
I1018 12:05:31.640588 34212 net.cpp:129] Top shape: 1 5 2048 (10240)
I1018 12:05:31.640594 34212 net.cpp:129] Top shape: 1 5 2048 (10240)
I1018 12:05:31.640599 34212 net.cpp:129] Top shape: 1 5 2048 (10240)
I1018 12:05:31.640604 34212 net.cpp:129] Top shape: 1 5 2048 (10240)
I1018 12:05:31.640609 34212 net.cpp:129] Top shape: 1 5 2048 (10240)
I1018 12:05:31.640612 34212 net.cpp:129] Top shape: 1 5 2048 (10240)
I1018 12:05:31.640617 34212 net.cpp:129] Top shape: 1 5 2048 (10240)
I1018 12:05:31.640622 34212 net.cpp:129] Top shape: 1 5 2048 (10240)
I1018 12:05:31.640626 34212 net.cpp:129] Top shape: 1 5 2048 (10240)
I1018 12:05:31.640631 34212 net.cpp:129] Top shape: 1 5 2048 (10240)
I1018 12:05:31.640636 34212 net.cpp:129] Top shape: 1 5 2048 (10240)
I1018 12:05:31.640641 34212 net.cpp:129] Top shape: 1 5 2048 (10240)
I1018 12:05:31.640645 34212 net.cpp:129] Top shape: 1 5 2048 (10240)
I1018 12:05:31.640651 34212 net.cpp:129] Top shape: 1 5 2048 (10240)
I1018 12:05:31.640655 34212 net.cpp:129] Top shape: 1 5 2048 (10240)
I1018 12:05:31.640661 34212 net.cpp:129] Top shape: 1 5 2048 (10240)
I1018 12:05:31.640664 34212 net.cpp:137] Memory required for data: 1496320
I1018 12:05:31.640668 34212 layer_factory.hpp:77] Creating layer lstm1_h_conted_0
I1018 12:05:31.640681 34212 net.cpp:84] Creating Layer lstm1_h_conted_0
I1018 12:05:31.640686 34212 net.cpp:406] lstm1_h_conted_0 <- h_0
I1018 12:05:31.640693 34212 net.cpp:406] lstm1_h_conted_0 <- cont_1_lstm1_cont_slice_0_split_0
I1018 12:05:31.640700 34212 net.cpp:380] lstm1_h_conted_0 -> h_conted_0
I1018 12:05:31.640770 34212 net.cpp:122] Setting up lstm1_h_conted_0
I1018 12:05:31.640779 34212 net.cpp:129] Top shape: 1 5 512 (2560)
I1018 12:05:31.640784 34212 net.cpp:137] Memory required for data: 1506560
I1018 12:05:31.640787 34212 layer_factory.hpp:77] Creating layer lstm1_transform_1
I1018 12:05:31.640796 34212 net.cpp:84] Creating Layer lstm1_transform_1
I1018 12:05:31.640801 34212 net.cpp:406] lstm1_transform_1 <- h_conted_0
I1018 12:05:31.640808 34212 net.cpp:380] lstm1_transform_1 -> W_hc_h_0
I1018 12:05:31.652529 34212 net.cpp:122] Setting up lstm1_transform_1
I1018 12:05:31.652545 34212 net.cpp:129] Top shape: 1 5 2048 (10240)
I1018 12:05:31.652550 34212 net.cpp:137] Memory required for data: 1547520
I1018 12:05:31.652559 34212 layer_factory.hpp:77] Creating layer lstm1_gate_input_1
I1018 12:05:31.652570 34212 net.cpp:84] Creating Layer lstm1_gate_input_1
I1018 12:05:31.652575 34212 net.cpp:406] lstm1_gate_input_1 <- W_hc_h_0
I1018 12:05:31.652581 34212 net.cpp:406] lstm1_gate_input_1 <- W_xc_x_1
I1018 12:05:31.652587 34212 net.cpp:380] lstm1_gate_input_1 -> gate_input_1
I1018 12:05:31.652622 34212 net.cpp:122] Setting up lstm1_gate_input_1
I1018 12:05:31.652631 34212 net.cpp:129] Top shape: 1 5 2048 (10240)
I1018 12:05:31.652635 34212 net.cpp:137] Memory required for data: 1588480
I1018 12:05:31.652639 34212 layer_factory.hpp:77] Creating layer lstm1_unit_1
I1018 12:05:31.652647 34212 net.cpp:84] Creating Layer lstm1_unit_1
I1018 12:05:31.652652 34212 net.cpp:406] lstm1_unit_1 <- c_0
I1018 12:05:31.652658 34212 net.cpp:406] lstm1_unit_1 <- gate_input_1
I1018 12:05:31.652663 34212 net.cpp:406] lstm1_unit_1 <- cont_1_lstm1_cont_slice_0_split_1
I1018 12:05:31.652671 34212 net.cpp:380] lstm1_unit_1 -> c_1
I1018 12:05:31.652679 34212 net.cpp:380] lstm1_unit_1 -> h_1
I1018 12:05:31.652727 34212 net.cpp:122] Setting up lstm1_unit_1
I1018 12:05:31.652735 34212 net.cpp:129] Top shape: 1 5 512 (2560)
I1018 12:05:31.652740 34212 net.cpp:129] Top shape: 1 5 512 (2560)
I1018 12:05:31.652745 34212 net.cpp:137] Memory required for data: 1608960
I1018 12:05:31.652750 34212 layer_factory.hpp:77] Creating layer h_1_lstm1_unit_1_1_split
I1018 12:05:31.652755 34212 net.cpp:84] Creating Layer h_1_lstm1_unit_1_1_split
I1018 12:05:31.652760 34212 net.cpp:406] h_1_lstm1_unit_1_1_split <- h_1
I1018 12:05:31.652768 34212 net.cpp:380] h_1_lstm1_unit_1_1_split -> h_1_lstm1_unit_1_1_split_0
I1018 12:05:31.652776 34212 net.cpp:380] h_1_lstm1_unit_1_1_split -> h_1_lstm1_unit_1_1_split_1
I1018 12:05:31.652807 34212 net.cpp:122] Setting up h_1_lstm1_unit_1_1_split
I1018 12:05:31.652815 34212 net.cpp:129] Top shape: 1 5 512 (2560)
I1018 12:05:31.652820 34212 net.cpp:129] Top shape: 1 5 512 (2560)
I1018 12:05:31.652824 34212 net.cpp:137] Memory required for data: 1629440
I1018 12:05:31.652828 34212 layer_factory.hpp:77] Creating layer lstm1_h_conted_1
I1018 12:05:31.652834 34212 net.cpp:84] Creating Layer lstm1_h_conted_1
I1018 12:05:31.652839 34212 net.cpp:406] lstm1_h_conted_1 <- h_1_lstm1_unit_1_1_split_0
I1018 12:05:31.652845 34212 net.cpp:406] lstm1_h_conted_1 <- cont_2_lstm1_cont_slice_1_split_0
I1018 12:05:31.652853 34212 net.cpp:380] lstm1_h_conted_1 -> h_conted_1
I1018 12:05:31.652907 34212 net.cpp:122] Setting up lstm1_h_conted_1
I1018 12:05:31.652916 34212 net.cpp:129] Top shape: 1 5 512 (2560)
I1018 12:05:31.652920 34212 net.cpp:137] Memory required for data: 1639680
I1018 12:05:31.652925 34212 layer_factory.hpp:77] Creating layer lstm1_transform_2
I1018 12:05:31.652932 34212 net.cpp:84] Creating Layer lstm1_transform_2
I1018 12:05:31.652936 34212 net.cpp:406] lstm1_transform_2 <- h_conted_1
I1018 12:05:31.652946 34212 net.cpp:380] lstm1_transform_2 -> W_hc_h_1
I1018 12:05:31.664705 34212 net.cpp:122] Setting up lstm1_transform_2
I1018 12:05:31.664721 34212 net.cpp:129] Top shape: 1 5 2048 (10240)
I1018 12:05:31.664726 34212 net.cpp:137] Memory required for data: 1680640
I1018 12:05:31.664731 34212 net.cpp:465] Sharing parameters 'W_hc' owned by layer 'lstm1_transform_1', param index 0
I1018 12:05:31.664737 34212 layer_factory.hpp:77] Creating layer lstm1_gate_input_2
I1018 12:05:31.664746 34212 net.cpp:84] Creating Layer lstm1_gate_input_2
I1018 12:05:31.664750 34212 net.cpp:406] lstm1_gate_input_2 <- W_hc_h_1
I1018 12:05:31.664757 34212 net.cpp:406] lstm1_gate_input_2 <- W_xc_x_2
I1018 12:05:31.664763 34212 net.cpp:380] lstm1_gate_input_2 -> gate_input_2
I1018 12:05:31.664791 34212 net.cpp:122] Setting up lstm1_gate_input_2
I1018 12:05:31.664803 34212 net.cpp:129] Top shape: 1 5 2048 (10240)
I1018 12:05:31.664806 34212 net.cpp:137] Memory required for data: 1721600
I1018 12:05:31.664810 34212 layer_factory.hpp:77] Creating layer lstm1_unit_2
I1018 12:05:31.664819 34212 net.cpp:84] Creating Layer lstm1_unit_2
I1018 12:05:31.664824 34212 net.cpp:406] lstm1_unit_2 <- c_1
I1018 12:05:31.664830 34212 net.cpp:406] lstm1_unit_2 <- gate_input_2
I1018 12:05:31.664835 34212 net.cpp:406] lstm1_unit_2 <- cont_2_lstm1_cont_slice_1_split_1
I1018 12:05:31.664841 34212 net.cpp:380] lstm1_unit_2 -> c_2
I1018 12:05:31.664849 34212 net.cpp:380] lstm1_unit_2 -> h_2
I1018 12:05:31.664892 34212 net.cpp:122] Setting up lstm1_unit_2
I1018 12:05:31.664901 34212 net.cpp:129] Top shape: 1 5 512 (2560)
I1018 12:05:31.664906 34212 net.cpp:129] Top shape: 1 5 512 (2560)
I1018 12:05:31.664909 34212 net.cpp:137] Memory required for data: 1742080
I1018 12:05:31.664913 34212 layer_factory.hpp:77] Creating layer h_2_lstm1_unit_2_1_split
I1018 12:05:31.664919 34212 net.cpp:84] Creating Layer h_2_lstm1_unit_2_1_split
I1018 12:05:31.664924 34212 net.cpp:406] h_2_lstm1_unit_2_1_split <- h_2
I1018 12:05:31.664932 34212 net.cpp:380] h_2_lstm1_unit_2_1_split -> h_2_lstm1_unit_2_1_split_0
I1018 12:05:31.664939 34212 net.cpp:380] h_2_lstm1_unit_2_1_split -> h_2_lstm1_unit_2_1_split_1
I1018 12:05:31.664968 34212 net.cpp:122] Setting up h_2_lstm1_unit_2_1_split
I1018 12:05:31.664976 34212 net.cpp:129] Top shape: 1 5 512 (2560)
I1018 12:05:31.664981 34212 net.cpp:129] Top shape: 1 5 512 (2560)
I1018 12:05:31.664985 34212 net.cpp:137] Memory required for data: 1762560
I1018 12:05:31.664989 34212 layer_factory.hpp:77] Creating layer lstm1_h_conted_2
I1018 12:05:31.664997 34212 net.cpp:84] Creating Layer lstm1_h_conted_2
I1018 12:05:31.665002 34212 net.cpp:406] lstm1_h_conted_2 <- h_2_lstm1_unit_2_1_split_0
I1018 12:05:31.665009 34212 net.cpp:406] lstm1_h_conted_2 <- cont_3_lstm1_cont_slice_2_split_0
I1018 12:05:31.665014 34212 net.cpp:380] lstm1_h_conted_2 -> h_conted_2
I1018 12:05:31.665067 34212 net.cpp:122] Setting up lstm1_h_conted_2
I1018 12:05:31.665076 34212 net.cpp:129] Top shape: 1 5 512 (2560)
I1018 12:05:31.665081 34212 net.cpp:137] Memory required for data: 1772800
I1018 12:05:31.665084 34212 layer_factory.hpp:77] Creating layer lstm1_transform_3
I1018 12:05:31.665097 34212 net.cpp:84] Creating Layer lstm1_transform_3
I1018 12:05:31.665103 34212 net.cpp:406] lstm1_transform_3 <- h_conted_2
I1018 12:05:31.665110 34212 net.cpp:380] lstm1_transform_3 -> W_hc_h_2
I1018 12:05:31.679695 34212 net.cpp:122] Setting up lstm1_transform_3
I1018 12:05:31.679716 34212 net.cpp:129] Top shape: 1 5 2048 (10240)
I1018 12:05:31.679721 34212 net.cpp:137] Memory required for data: 1813760
I1018 12:05:31.679729 34212 net.cpp:465] Sharing parameters 'W_hc' owned by layer 'lstm1_transform_1', param index 0
I1018 12:05:31.679735 34212 layer_factory.hpp:77] Creating layer lstm1_gate_input_3
I1018 12:05:31.679744 34212 net.cpp:84] Creating Layer lstm1_gate_input_3
I1018 12:05:31.679749 34212 net.cpp:406] lstm1_gate_input_3 <- W_hc_h_2
I1018 12:05:31.679755 34212 net.cpp:406] lstm1_gate_input_3 <- W_xc_x_3
I1018 12:05:31.679762 34212 net.cpp:380] lstm1_gate_input_3 -> gate_input_3
I1018 12:05:31.679792 34212 net.cpp:122] Setting up lstm1_gate_input_3
I1018 12:05:31.679800 34212 net.cpp:129] Top shape: 1 5 2048 (10240)
I1018 12:05:31.679805 34212 net.cpp:137] Memory required for data: 1854720
I1018 12:05:31.679808 34212 layer_factory.hpp:77] Creating layer lstm1_unit_3
I1018 12:05:31.679818 34212 net.cpp:84] Creating Layer lstm1_unit_3
I1018 12:05:31.679823 34212 net.cpp:406] lstm1_unit_3 <- c_2
I1018 12:05:31.679829 34212 net.cpp:406] lstm1_unit_3 <- gate_input_3
I1018 12:05:31.679836 34212 net.cpp:406] lstm1_unit_3 <- cont_3_lstm1_cont_slice_2_split_1
I1018 12:05:31.679841 34212 net.cpp:380] lstm1_unit_3 -> c_3
I1018 12:05:31.679848 34212 net.cpp:380] lstm1_unit_3 -> h_3
I1018 12:05:31.679895 34212 net.cpp:122] Setting up lstm1_unit_3
I1018 12:05:31.679904 34212 net.cpp:129] Top shape: 1 5 512 (2560)
I1018 12:05:31.679909 34212 net.cpp:129] Top shape: 1 5 512 (2560)
I1018 12:05:31.679918 34212 net.cpp:137] Memory required for data: 1875200
I1018 12:05:31.679921 34212 layer_factory.hpp:77] Creating layer h_3_lstm1_unit_3_1_split
I1018 12:05:31.679929 34212 net.cpp:84] Creating Layer h_3_lstm1_unit_3_1_split
I1018 12:05:31.679934 34212 net.cpp:406] h_3_lstm1_unit_3_1_split <- h_3
I1018 12:05:31.679941 34212 net.cpp:380] h_3_lstm1_unit_3_1_split -> h_3_lstm1_unit_3_1_split_0
I1018 12:05:31.679949 34212 net.cpp:380] h_3_lstm1_unit_3_1_split -> h_3_lstm1_unit_3_1_split_1
I1018 12:05:31.679980 34212 net.cpp:122] Setting up h_3_lstm1_unit_3_1_split
I1018 12:05:31.679986 34212 net.cpp:129] Top shape: 1 5 512 (2560)
I1018 12:05:31.679991 34212 net.cpp:129] Top shape: 1 5 512 (2560)
I1018 12:05:31.679994 34212 net.cpp:137] Memory required for data: 1895680
I1018 12:05:31.679998 34212 layer_factory.hpp:77] Creating layer lstm1_h_conted_3
I1018 12:05:31.680008 34212 net.cpp:84] Creating Layer lstm1_h_conted_3
I1018 12:05:31.680013 34212 net.cpp:406] lstm1_h_conted_3 <- h_3_lstm1_unit_3_1_split_0
I1018 12:05:31.680019 34212 net.cpp:406] lstm1_h_conted_3 <- cont_4_lstm1_cont_slice_3_split_0
I1018 12:05:31.680124 34212 net.cpp:380] lstm1_h_conted_3 -> h_conted_3
I1018 12:05:31.680191 34212 net.cpp:122] Setting up lstm1_h_conted_3
I1018 12:05:31.680202 34212 net.cpp:129] Top shape: 1 5 512 (2560)
I1018 12:05:31.680205 34212 net.cpp:137] Memory required for data: 1905920
I1018 12:05:31.680209 34212 layer_factory.hpp:77] Creating layer lstm1_transform_4
I1018 12:05:31.680219 34212 net.cpp:84] Creating Layer lstm1_transform_4
I1018 12:05:31.680225 34212 net.cpp:406] lstm1_transform_4 <- h_conted_3
I1018 12:05:31.680234 34212 net.cpp:380] lstm1_transform_4 -> W_hc_h_3
I1018 12:05:31.691978 34212 net.cpp:122] Setting up lstm1_transform_4
I1018 12:05:31.691994 34212 net.cpp:129] Top shape: 1 5 2048 (10240)
I1018 12:05:31.691999 34212 net.cpp:137] Memory required for data: 1946880
I1018 12:05:31.692004 34212 net.cpp:465] Sharing parameters 'W_hc' owned by layer 'lstm1_transform_1', param index 0
I1018 12:05:31.692009 34212 layer_factory.hpp:77] Creating layer lstm1_gate_input_4
I1018 12:05:31.692020 34212 net.cpp:84] Creating Layer lstm1_gate_input_4
I1018 12:05:31.692031 34212 net.cpp:406] lstm1_gate_input_4 <- W_hc_h_3
I1018 12:05:31.692039 34212 net.cpp:406] lstm1_gate_input_4 <- W_xc_x_4
I1018 12:05:31.692045 34212 net.cpp:380] lstm1_gate_input_4 -> gate_input_4
I1018 12:05:31.692072 34212 net.cpp:122] Setting up lstm1_gate_input_4
I1018 12:05:31.692080 34212 net.cpp:129] Top shape: 1 5 2048 (10240)
I1018 12:05:31.692083 34212 net.cpp:137] Memory required for data: 1987840
I1018 12:05:31.692087 34212 layer_factory.hpp:77] Creating layer lstm1_unit_4
I1018 12:05:31.692096 34212 net.cpp:84] Creating Layer lstm1_unit_4
I1018 12:05:31.692101 34212 net.cpp:406] lstm1_unit_4 <- c_3
I1018 12:05:31.692107 34212 net.cpp:406] lstm1_unit_4 <- gate_input_4
I1018 12:05:31.692112 34212 net.cpp:406] lstm1_unit_4 <- cont_4_lstm1_cont_slice_3_split_1
I1018 12:05:31.692118 34212 net.cpp:380] lstm1_unit_4 -> c_4
I1018 12:05:31.692126 34212 net.cpp:380] lstm1_unit_4 -> h_4
I1018 12:05:31.692169 34212 net.cpp:122] Setting up lstm1_unit_4
I1018 12:05:31.692178 34212 net.cpp:129] Top shape: 1 5 512 (2560)
I1018 12:05:31.692183 34212 net.cpp:129] Top shape: 1 5 512 (2560)
I1018 12:05:31.692188 34212 net.cpp:137] Memory required for data: 2008320
I1018 12:05:31.692193 34212 layer_factory.hpp:77] Creating layer h_4_lstm1_unit_4_1_split
I1018 12:05:31.692198 34212 net.cpp:84] Creating Layer h_4_lstm1_unit_4_1_split
I1018 12:05:31.692210 34212 net.cpp:406] h_4_lstm1_unit_4_1_split <- h_4
I1018 12:05:31.692216 34212 net.cpp:380] h_4_lstm1_unit_4_1_split -> h_4_lstm1_unit_4_1_split_0
I1018 12:05:31.692225 34212 net.cpp:380] h_4_lstm1_unit_4_1_split -> h_4_lstm1_unit_4_1_split_1
I1018 12:05:31.692256 34212 net.cpp:122] Setting up h_4_lstm1_unit_4_1_split
I1018 12:05:31.692262 34212 net.cpp:129] Top shape: 1 5 512 (2560)
I1018 12:05:31.692267 34212 net.cpp:129] Top shape: 1 5 512 (2560)
I1018 12:05:31.692270 34212 net.cpp:137] Memory required for data: 2028800
I1018 12:05:31.692275 34212 layer_factory.hpp:77] Creating layer lstm1_h_conted_4
I1018 12:05:31.692284 34212 net.cpp:84] Creating Layer lstm1_h_conted_4
I1018 12:05:31.692288 34212 net.cpp:406] lstm1_h_conted_4 <- h_4_lstm1_unit_4_1_split_0
I1018 12:05:31.692294 34212 net.cpp:406] lstm1_h_conted_4 <- cont_5_lstm1_cont_slice_4_split_0
I1018 12:05:31.692301 34212 net.cpp:380] lstm1_h_conted_4 -> h_conted_4
I1018 12:05:31.692354 34212 net.cpp:122] Setting up lstm1_h_conted_4
I1018 12:05:31.692361 34212 net.cpp:129] Top shape: 1 5 512 (2560)
I1018 12:05:31.692365 34212 net.cpp:137] Memory required for data: 2039040
I1018 12:05:31.692369 34212 layer_factory.hpp:77] Creating layer lstm1_transform_5
I1018 12:05:31.692378 34212 net.cpp:84] Creating Layer lstm1_transform_5
I1018 12:05:31.692384 34212 net.cpp:406] lstm1_transform_5 <- h_conted_4
I1018 12:05:31.692391 34212 net.cpp:380] lstm1_transform_5 -> W_hc_h_4
I1018 12:05:31.704111 34212 net.cpp:122] Setting up lstm1_transform_5
I1018 12:05:31.704128 34212 net.cpp:129] Top shape: 1 5 2048 (10240)
I1018 12:05:31.704133 34212 net.cpp:137] Memory required for data: 2080000
I1018 12:05:31.704138 34212 net.cpp:465] Sharing parameters 'W_hc' owned by layer 'lstm1_transform_1', param index 0
I1018 12:05:31.704144 34212 layer_factory.hpp:77] Creating layer lstm1_gate_input_5
I1018 12:05:31.704154 34212 net.cpp:84] Creating Layer lstm1_gate_input_5
I1018 12:05:31.704159 34212 net.cpp:406] lstm1_gate_input_5 <- W_hc_h_4
I1018 12:05:31.704165 34212 net.cpp:406] lstm1_gate_input_5 <- W_xc_x_5
I1018 12:05:31.704172 34212 net.cpp:380] lstm1_gate_input_5 -> gate_input_5
I1018 12:05:31.704198 34212 net.cpp:122] Setting up lstm1_gate_input_5
I1018 12:05:31.704205 34212 net.cpp:129] Top shape: 1 5 2048 (10240)
I1018 12:05:31.704210 34212 net.cpp:137] Memory required for data: 2120960
I1018 12:05:31.704213 34212 layer_factory.hpp:77] Creating layer lstm1_unit_5
I1018 12:05:31.704219 34212 net.cpp:84] Creating Layer lstm1_unit_5
I1018 12:05:31.704224 34212 net.cpp:406] lstm1_unit_5 <- c_4
I1018 12:05:31.704231 34212 net.cpp:406] lstm1_unit_5 <- gate_input_5
I1018 12:05:31.704236 34212 net.cpp:406] lstm1_unit_5 <- cont_5_lstm1_cont_slice_4_split_1
I1018 12:05:31.704243 34212 net.cpp:380] lstm1_unit_5 -> c_5
I1018 12:05:31.704252 34212 net.cpp:380] lstm1_unit_5 -> h_5
I1018 12:05:31.704294 34212 net.cpp:122] Setting up lstm1_unit_5
I1018 12:05:31.704300 34212 net.cpp:129] Top shape: 1 5 512 (2560)
I1018 12:05:31.704305 34212 net.cpp:129] Top shape: 1 5 512 (2560)
I1018 12:05:31.704309 34212 net.cpp:137] Memory required for data: 2141440
I1018 12:05:31.704313 34212 layer_factory.hpp:77] Creating layer h_5_lstm1_unit_5_1_split
I1018 12:05:31.704319 34212 net.cpp:84] Creating Layer h_5_lstm1_unit_5_1_split
I1018 12:05:31.704324 34212 net.cpp:406] h_5_lstm1_unit_5_1_split <- h_5
I1018 12:05:31.704330 34212 net.cpp:380] h_5_lstm1_unit_5_1_split -> h_5_lstm1_unit_5_1_split_0
I1018 12:05:31.704336 34212 net.cpp:380] h_5_lstm1_unit_5_1_split -> h_5_lstm1_unit_5_1_split_1
I1018 12:05:31.704370 34212 net.cpp:122] Setting up h_5_lstm1_unit_5_1_split
I1018 12:05:31.704375 34212 net.cpp:129] Top shape: 1 5 512 (2560)
I1018 12:05:31.704380 34212 net.cpp:129] Top shape: 1 5 512 (2560)
I1018 12:05:31.704385 34212 net.cpp:137] Memory required for data: 2161920
I1018 12:05:31.704388 34212 layer_factory.hpp:77] Creating layer lstm1_h_conted_5
I1018 12:05:31.704394 34212 net.cpp:84] Creating Layer lstm1_h_conted_5
I1018 12:05:31.704399 34212 net.cpp:406] lstm1_h_conted_5 <- h_5_lstm1_unit_5_1_split_0
I1018 12:05:31.704406 34212 net.cpp:406] lstm1_h_conted_5 <- cont_6_lstm1_cont_slice_5_split_0
I1018 12:05:31.704413 34212 net.cpp:380] lstm1_h_conted_5 -> h_conted_5
I1018 12:05:31.704468 34212 net.cpp:122] Setting up lstm1_h_conted_5
I1018 12:05:31.704474 34212 net.cpp:129] Top shape: 1 5 512 (2560)
I1018 12:05:31.704478 34212 net.cpp:137] Memory required for data: 2172160
I1018 12:05:31.704483 34212 layer_factory.hpp:77] Creating layer lstm1_transform_6
I1018 12:05:31.704490 34212 net.cpp:84] Creating Layer lstm1_transform_6
I1018 12:05:31.704494 34212 net.cpp:406] lstm1_transform_6 <- h_conted_5
I1018 12:05:31.704504 34212 net.cpp:380] lstm1_transform_6 -> W_hc_h_5
I1018 12:05:31.716259 34212 net.cpp:122] Setting up lstm1_transform_6
I1018 12:05:31.716276 34212 net.cpp:129] Top shape: 1 5 2048 (10240)
I1018 12:05:31.716280 34212 net.cpp:137] Memory required for data: 2213120
I1018 12:05:31.716286 34212 net.cpp:465] Sharing parameters 'W_hc' owned by layer 'lstm1_transform_1', param index 0
I1018 12:05:31.716290 34212 layer_factory.hpp:77] Creating layer lstm1_gate_input_6
I1018 12:05:31.716298 34212 net.cpp:84] Creating Layer lstm1_gate_input_6
I1018 12:05:31.716303 34212 net.cpp:406] lstm1_gate_input_6 <- W_hc_h_5
I1018 12:05:31.716310 34212 net.cpp:406] lstm1_gate_input_6 <- W_xc_x_6
I1018 12:05:31.716323 34212 net.cpp:380] lstm1_gate_input_6 -> gate_input_6
I1018 12:05:31.716351 34212 net.cpp:122] Setting up lstm1_gate_input_6
I1018 12:05:31.716358 34212 net.cpp:129] Top shape: 1 5 2048 (10240)
I1018 12:05:31.716362 34212 net.cpp:137] Memory required for data: 2254080
I1018 12:05:31.716367 34212 layer_factory.hpp:77] Creating layer lstm1_unit_6
I1018 12:05:31.716372 34212 net.cpp:84] Creating Layer lstm1_unit_6
I1018 12:05:31.716377 34212 net.cpp:406] lstm1_unit_6 <- c_5
I1018 12:05:31.716382 34212 net.cpp:406] lstm1_unit_6 <- gate_input_6
I1018 12:05:31.716387 34212 net.cpp:406] lstm1_unit_6 <- cont_6_lstm1_cont_slice_5_split_1
I1018 12:05:31.716393 34212 net.cpp:380] lstm1_unit_6 -> c_6
I1018 12:05:31.716403 34212 net.cpp:380] lstm1_unit_6 -> h_6
I1018 12:05:31.716449 34212 net.cpp:122] Setting up lstm1_unit_6
I1018 12:05:31.716454 34212 net.cpp:129] Top shape: 1 5 512 (2560)
I1018 12:05:31.716459 34212 net.cpp:129] Top shape: 1 5 512 (2560)
I1018 12:05:31.716464 34212 net.cpp:137] Memory required for data: 2274560
I1018 12:05:31.716467 34212 layer_factory.hpp:77] Creating layer h_6_lstm1_unit_6_1_split
I1018 12:05:31.716473 34212 net.cpp:84] Creating Layer h_6_lstm1_unit_6_1_split
I1018 12:05:31.716478 34212 net.cpp:406] h_6_lstm1_unit_6_1_split <- h_6
I1018 12:05:31.716483 34212 net.cpp:380] h_6_lstm1_unit_6_1_split -> h_6_lstm1_unit_6_1_split_0
I1018 12:05:31.716490 34212 net.cpp:380] h_6_lstm1_unit_6_1_split -> h_6_lstm1_unit_6_1_split_1
I1018 12:05:31.716522 34212 net.cpp:122] Setting up h_6_lstm1_unit_6_1_split
I1018 12:05:31.716529 34212 net.cpp:129] Top shape: 1 5 512 (2560)
I1018 12:05:31.716534 34212 net.cpp:129] Top shape: 1 5 512 (2560)
I1018 12:05:31.716538 34212 net.cpp:137] Memory required for data: 2295040
I1018 12:05:31.716542 34212 layer_factory.hpp:77] Creating layer lstm1_h_conted_6
I1018 12:05:31.716549 34212 net.cpp:84] Creating Layer lstm1_h_conted_6
I1018 12:05:31.716554 34212 net.cpp:406] lstm1_h_conted_6 <- h_6_lstm1_unit_6_1_split_0
I1018 12:05:31.716559 34212 net.cpp:406] lstm1_h_conted_6 <- cont_7_lstm1_cont_slice_6_split_0
I1018 12:05:31.716567 34212 net.cpp:380] lstm1_h_conted_6 -> h_conted_6
I1018 12:05:31.716622 34212 net.cpp:122] Setting up lstm1_h_conted_6
I1018 12:05:31.716629 34212 net.cpp:129] Top shape: 1 5 512 (2560)
I1018 12:05:31.716634 34212 net.cpp:137] Memory required for data: 2305280
I1018 12:05:31.716637 34212 layer_factory.hpp:77] Creating layer lstm1_transform_7
I1018 12:05:31.716645 34212 net.cpp:84] Creating Layer lstm1_transform_7
I1018 12:05:31.716650 34212 net.cpp:406] lstm1_transform_7 <- h_conted_6
I1018 12:05:31.716657 34212 net.cpp:380] lstm1_transform_7 -> W_hc_h_6
I1018 12:05:31.728374 34212 net.cpp:122] Setting up lstm1_transform_7
I1018 12:05:31.728389 34212 net.cpp:129] Top shape: 1 5 2048 (10240)
I1018 12:05:31.728394 34212 net.cpp:137] Memory required for data: 2346240
I1018 12:05:31.728402 34212 net.cpp:465] Sharing parameters 'W_hc' owned by layer 'lstm1_transform_1', param index 0
I1018 12:05:31.728407 34212 layer_factory.hpp:77] Creating layer lstm1_gate_input_7
I1018 12:05:31.728415 34212 net.cpp:84] Creating Layer lstm1_gate_input_7
I1018 12:05:31.728420 34212 net.cpp:406] lstm1_gate_input_7 <- W_hc_h_6
I1018 12:05:31.728426 34212 net.cpp:406] lstm1_gate_input_7 <- W_xc_x_7
I1018 12:05:31.728435 34212 net.cpp:380] lstm1_gate_input_7 -> gate_input_7
I1018 12:05:31.728461 34212 net.cpp:122] Setting up lstm1_gate_input_7
I1018 12:05:31.728468 34212 net.cpp:129] Top shape: 1 5 2048 (10240)
I1018 12:05:31.728472 34212 net.cpp:137] Memory required for data: 2387200
I1018 12:05:31.728477 34212 layer_factory.hpp:77] Creating layer lstm1_unit_7
I1018 12:05:31.728482 34212 net.cpp:84] Creating Layer lstm1_unit_7
I1018 12:05:31.728487 34212 net.cpp:406] lstm1_unit_7 <- c_6
I1018 12:05:31.728492 34212 net.cpp:406] lstm1_unit_7 <- gate_input_7
I1018 12:05:31.728498 34212 net.cpp:406] lstm1_unit_7 <- cont_7_lstm1_cont_slice_6_split_1
I1018 12:05:31.728504 34212 net.cpp:380] lstm1_unit_7 -> c_7
I1018 12:05:31.728512 34212 net.cpp:380] lstm1_unit_7 -> h_7
I1018 12:05:31.728555 34212 net.cpp:122] Setting up lstm1_unit_7
I1018 12:05:31.728562 34212 net.cpp:129] Top shape: 1 5 512 (2560)
I1018 12:05:31.728567 34212 net.cpp:129] Top shape: 1 5 512 (2560)
I1018 12:05:31.728571 34212 net.cpp:137] Memory required for data: 2407680
I1018 12:05:31.728575 34212 layer_factory.hpp:77] Creating layer h_7_lstm1_unit_7_1_split
I1018 12:05:31.728581 34212 net.cpp:84] Creating Layer h_7_lstm1_unit_7_1_split
I1018 12:05:31.728585 34212 net.cpp:406] h_7_lstm1_unit_7_1_split <- h_7
I1018 12:05:31.728591 34212 net.cpp:380] h_7_lstm1_unit_7_1_split -> h_7_lstm1_unit_7_1_split_0
I1018 12:05:31.728598 34212 net.cpp:380] h_7_lstm1_unit_7_1_split -> h_7_lstm1_unit_7_1_split_1
I1018 12:05:31.728631 34212 net.cpp:122] Setting up h_7_lstm1_unit_7_1_split
I1018 12:05:31.728636 34212 net.cpp:129] Top shape: 1 5 512 (2560)
I1018 12:05:31.728642 34212 net.cpp:129] Top shape: 1 5 512 (2560)
I1018 12:05:31.728646 34212 net.cpp:137] Memory required for data: 2428160
I1018 12:05:31.728651 34212 layer_factory.hpp:77] Creating layer lstm1_h_conted_7
I1018 12:05:31.728657 34212 net.cpp:84] Creating Layer lstm1_h_conted_7
I1018 12:05:31.728662 34212 net.cpp:406] lstm1_h_conted_7 <- h_7_lstm1_unit_7_1_split_0
I1018 12:05:31.728667 34212 net.cpp:406] lstm1_h_conted_7 <- cont_8_lstm1_cont_slice_7_split_0
I1018 12:05:31.728673 34212 net.cpp:380] lstm1_h_conted_7 -> h_conted_7
I1018 12:05:31.728729 34212 net.cpp:122] Setting up lstm1_h_conted_7
I1018 12:05:31.728734 34212 net.cpp:129] Top shape: 1 5 512 (2560)
I1018 12:05:31.728739 34212 net.cpp:137] Memory required for data: 2438400
I1018 12:05:31.728742 34212 layer_factory.hpp:77] Creating layer lstm1_transform_8
I1018 12:05:31.728750 34212 net.cpp:84] Creating Layer lstm1_transform_8
I1018 12:05:31.728754 34212 net.cpp:406] lstm1_transform_8 <- h_conted_7
I1018 12:05:31.728763 34212 net.cpp:380] lstm1_transform_8 -> W_hc_h_7
I1018 12:05:31.740402 34212 net.cpp:122] Setting up lstm1_transform_8
I1018 12:05:31.740428 34212 net.cpp:129] Top shape: 1 5 2048 (10240)
I1018 12:05:31.740433 34212 net.cpp:137] Memory required for data: 2479360
I1018 12:05:31.740438 34212 net.cpp:465] Sharing parameters 'W_hc' owned by layer 'lstm1_transform_1', param index 0
I1018 12:05:31.740443 34212 layer_factory.hpp:77] Creating layer lstm1_gate_input_8
I1018 12:05:31.740451 34212 net.cpp:84] Creating Layer lstm1_gate_input_8
I1018 12:05:31.740456 34212 net.cpp:406] lstm1_gate_input_8 <- W_hc_h_7
I1018 12:05:31.740463 34212 net.cpp:406] lstm1_gate_input_8 <- W_xc_x_8
I1018 12:05:31.740469 34212 net.cpp:380] lstm1_gate_input_8 -> gate_input_8
I1018 12:05:31.740499 34212 net.cpp:122] Setting up lstm1_gate_input_8
I1018 12:05:31.740505 34212 net.cpp:129] Top shape: 1 5 2048 (10240)
I1018 12:05:31.740509 34212 net.cpp:137] Memory required for data: 2520320
I1018 12:05:31.740514 34212 layer_factory.hpp:77] Creating layer lstm1_unit_8
I1018 12:05:31.740520 34212 net.cpp:84] Creating Layer lstm1_unit_8
I1018 12:05:31.740525 34212 net.cpp:406] lstm1_unit_8 <- c_7
I1018 12:05:31.740530 34212 net.cpp:406] lstm1_unit_8 <- gate_input_8
I1018 12:05:31.740536 34212 net.cpp:406] lstm1_unit_8 <- cont_8_lstm1_cont_slice_7_split_1
I1018 12:05:31.740542 34212 net.cpp:380] lstm1_unit_8 -> c_8
I1018 12:05:31.740550 34212 net.cpp:380] lstm1_unit_8 -> h_8
I1018 12:05:31.740602 34212 net.cpp:122] Setting up lstm1_unit_8
I1018 12:05:31.740608 34212 net.cpp:129] Top shape: 1 5 512 (2560)
I1018 12:05:31.740613 34212 net.cpp:129] Top shape: 1 5 512 (2560)
I1018 12:05:31.740617 34212 net.cpp:137] Memory required for data: 2540800
I1018 12:05:31.740622 34212 layer_factory.hpp:77] Creating layer h_8_lstm1_unit_8_1_split
I1018 12:05:31.740629 34212 net.cpp:84] Creating Layer h_8_lstm1_unit_8_1_split
I1018 12:05:31.740634 34212 net.cpp:406] h_8_lstm1_unit_8_1_split <- h_8
I1018 12:05:31.740640 34212 net.cpp:380] h_8_lstm1_unit_8_1_split -> h_8_lstm1_unit_8_1_split_0
I1018 12:05:31.740646 34212 net.cpp:380] h_8_lstm1_unit_8_1_split -> h_8_lstm1_unit_8_1_split_1
I1018 12:05:31.740677 34212 net.cpp:122] Setting up h_8_lstm1_unit_8_1_split
I1018 12:05:31.740684 34212 net.cpp:129] Top shape: 1 5 512 (2560)
I1018 12:05:31.740689 34212 net.cpp:129] Top shape: 1 5 512 (2560)
I1018 12:05:31.740692 34212 net.cpp:137] Memory required for data: 2561280
I1018 12:05:31.740696 34212 layer_factory.hpp:77] Creating layer lstm1_h_conted_8
I1018 12:05:31.740708 34212 net.cpp:84] Creating Layer lstm1_h_conted_8
I1018 12:05:31.740713 34212 net.cpp:406] lstm1_h_conted_8 <- h_8_lstm1_unit_8_1_split_0
I1018 12:05:31.740718 34212 net.cpp:406] lstm1_h_conted_8 <- cont_9_lstm1_cont_slice_8_split_0
I1018 12:05:31.740725 34212 net.cpp:380] lstm1_h_conted_8 -> h_conted_8
I1018 12:05:31.740777 34212 net.cpp:122] Setting up lstm1_h_conted_8
I1018 12:05:31.740783 34212 net.cpp:129] Top shape: 1 5 512 (2560)
I1018 12:05:31.740787 34212 net.cpp:137] Memory required for data: 2571520
I1018 12:05:31.740792 34212 layer_factory.hpp:77] Creating layer lstm1_transform_9
I1018 12:05:31.740798 34212 net.cpp:84] Creating Layer lstm1_transform_9
I1018 12:05:31.740803 34212 net.cpp:406] lstm1_transform_9 <- h_conted_8
I1018 12:05:31.740809 34212 net.cpp:380] lstm1_transform_9 -> W_hc_h_8
I1018 12:05:31.751479 34212 net.cpp:122] Setting up lstm1_transform_9
I1018 12:05:31.751493 34212 net.cpp:129] Top shape: 1 5 2048 (10240)
I1018 12:05:31.751508 34212 net.cpp:137] Memory required for data: 2612480
I1018 12:05:31.751513 34212 net.cpp:465] Sharing parameters 'W_hc' owned by layer 'lstm1_transform_1', param index 0
I1018 12:05:31.751518 34212 layer_factory.hpp:77] Creating layer lstm1_gate_input_9
I1018 12:05:31.751525 34212 net.cpp:84] Creating Layer lstm1_gate_input_9
I1018 12:05:31.751529 34212 net.cpp:406] lstm1_gate_input_9 <- W_hc_h_8
I1018 12:05:31.751535 34212 net.cpp:406] lstm1_gate_input_9 <- W_xc_x_9
I1018 12:05:31.751541 34212 net.cpp:380] lstm1_gate_input_9 -> gate_input_9
I1018 12:05:31.751569 34212 net.cpp:122] Setting up lstm1_gate_input_9
I1018 12:05:31.751575 34212 net.cpp:129] Top shape: 1 5 2048 (10240)
I1018 12:05:31.751579 34212 net.cpp:137] Memory required for data: 2653440
I1018 12:05:31.751583 34212 layer_factory.hpp:77] Creating layer lstm1_unit_9
I1018 12:05:31.751596 34212 net.cpp:84] Creating Layer lstm1_unit_9
I1018 12:05:31.751601 34212 net.cpp:406] lstm1_unit_9 <- c_8
I1018 12:05:31.751606 34212 net.cpp:406] lstm1_unit_9 <- gate_input_9
I1018 12:05:31.751612 34212 net.cpp:406] lstm1_unit_9 <- cont_9_lstm1_cont_slice_8_split_1
I1018 12:05:31.751617 34212 net.cpp:380] lstm1_unit_9 -> c_9
I1018 12:05:31.751637 34212 net.cpp:380] lstm1_unit_9 -> h_9
I1018 12:05:31.751680 34212 net.cpp:122] Setting up lstm1_unit_9
I1018 12:05:31.751689 34212 net.cpp:129] Top shape: 1 5 512 (2560)
I1018 12:05:31.751694 34212 net.cpp:129] Top shape: 1 5 512 (2560)
I1018 12:05:31.751698 34212 net.cpp:137] Memory required for data: 2673920
I1018 12:05:31.751703 34212 layer_factory.hpp:77] Creating layer h_9_lstm1_unit_9_1_split
I1018 12:05:31.751708 34212 net.cpp:84] Creating Layer h_9_lstm1_unit_9_1_split
I1018 12:05:31.751713 34212 net.cpp:406] h_9_lstm1_unit_9_1_split <- h_9
I1018 12:05:31.751720 34212 net.cpp:380] h_9_lstm1_unit_9_1_split -> h_9_lstm1_unit_9_1_split_0
I1018 12:05:31.751726 34212 net.cpp:380] h_9_lstm1_unit_9_1_split -> h_9_lstm1_unit_9_1_split_1
I1018 12:05:31.751757 34212 net.cpp:122] Setting up h_9_lstm1_unit_9_1_split
I1018 12:05:31.751763 34212 net.cpp:129] Top shape: 1 5 512 (2560)
I1018 12:05:31.751768 34212 net.cpp:129] Top shape: 1 5 512 (2560)
I1018 12:05:31.751772 34212 net.cpp:137] Memory required for data: 2694400
I1018 12:05:31.751776 34212 layer_factory.hpp:77] Creating layer lstm1_h_conted_9
I1018 12:05:31.751783 34212 net.cpp:84] Creating Layer lstm1_h_conted_9
I1018 12:05:31.751787 34212 net.cpp:406] lstm1_h_conted_9 <- h_9_lstm1_unit_9_1_split_0
I1018 12:05:31.751793 34212 net.cpp:406] lstm1_h_conted_9 <- cont_10_lstm1_cont_slice_9_split_0
I1018 12:05:31.751799 34212 net.cpp:380] lstm1_h_conted_9 -> h_conted_9
I1018 12:05:31.751852 34212 net.cpp:122] Setting up lstm1_h_conted_9
I1018 12:05:31.751858 34212 net.cpp:129] Top shape: 1 5 512 (2560)
I1018 12:05:31.751863 34212 net.cpp:137] Memory required for data: 2704640
I1018 12:05:31.751865 34212 layer_factory.hpp:77] Creating layer lstm1_transform_10
I1018 12:05:31.751873 34212 net.cpp:84] Creating Layer lstm1_transform_10
I1018 12:05:31.751878 34212 net.cpp:406] lstm1_transform_10 <- h_conted_9
I1018 12:05:31.751883 34212 net.cpp:380] lstm1_transform_10 -> W_hc_h_9
I1018 12:05:31.762722 34212 net.cpp:122] Setting up lstm1_transform_10
I1018 12:05:31.762781 34212 net.cpp:129] Top shape: 1 5 2048 (10240)
I1018 12:05:31.762814 34212 net.cpp:137] Memory required for data: 2745600
I1018 12:05:31.762846 34212 net.cpp:465] Sharing parameters 'W_hc' owned by layer 'lstm1_transform_1', param index 0
I1018 12:05:31.762876 34212 layer_factory.hpp:77] Creating layer lstm1_gate_input_10
I1018 12:05:31.762909 34212 net.cpp:84] Creating Layer lstm1_gate_input_10
I1018 12:05:31.762939 34212 net.cpp:406] lstm1_gate_input_10 <- W_hc_h_9
I1018 12:05:31.762970 34212 net.cpp:406] lstm1_gate_input_10 <- W_xc_x_10
I1018 12:05:31.763003 34212 net.cpp:380] lstm1_gate_input_10 -> gate_input_10
I1018 12:05:31.763062 34212 net.cpp:122] Setting up lstm1_gate_input_10
I1018 12:05:31.763077 34212 net.cpp:129] Top shape: 1 5 2048 (10240)
I1018 12:05:31.763082 34212 net.cpp:137] Memory required for data: 2786560
I1018 12:05:31.763090 34212 layer_factory.hpp:77] Creating layer lstm1_unit_10
I1018 12:05:31.763100 34212 net.cpp:84] Creating Layer lstm1_unit_10
I1018 12:05:31.763108 34212 net.cpp:406] lstm1_unit_10 <- c_9
I1018 12:05:31.763116 34212 net.cpp:406] lstm1_unit_10 <- gate_input_10
I1018 12:05:31.763125 34212 net.cpp:406] lstm1_unit_10 <- cont_10_lstm1_cont_slice_9_split_1
I1018 12:05:31.763134 34212 net.cpp:380] lstm1_unit_10 -> c_10
I1018 12:05:31.763145 34212 net.cpp:380] lstm1_unit_10 -> h_10
I1018 12:05:31.763216 34212 net.cpp:122] Setting up lstm1_unit_10
I1018 12:05:31.763257 34212 net.cpp:129] Top shape: 1 5 512 (2560)
I1018 12:05:31.763269 34212 net.cpp:129] Top shape: 1 5 512 (2560)
I1018 12:05:31.763276 34212 net.cpp:137] Memory required for data: 2807040
I1018 12:05:31.763283 34212 layer_factory.hpp:77] Creating layer h_10_lstm1_unit_10_1_split
I1018 12:05:31.763295 34212 net.cpp:84] Creating Layer h_10_lstm1_unit_10_1_split
I1018 12:05:31.763304 34212 net.cpp:406] h_10_lstm1_unit_10_1_split <- h_10
I1018 12:05:31.763314 34212 net.cpp:380] h_10_lstm1_unit_10_1_split -> h_10_lstm1_unit_10_1_split_0
I1018 12:05:31.763325 34212 net.cpp:380] h_10_lstm1_unit_10_1_split -> h_10_lstm1_unit_10_1_split_1
I1018 12:05:31.763382 34212 net.cpp:122] Setting up h_10_lstm1_unit_10_1_split
I1018 12:05:31.763397 34212 net.cpp:129] Top shape: 1 5 512 (2560)
I1018 12:05:31.763406 34212 net.cpp:129] Top shape: 1 5 512 (2560)
I1018 12:05:31.763411 34212 net.cpp:137] Memory required for data: 2827520
I1018 12:05:31.763418 34212 layer_factory.hpp:77] Creating layer lstm1_h_conted_10
I1018 12:05:31.763432 34212 net.cpp:84] Creating Layer lstm1_h_conted_10
I1018 12:05:31.763440 34212 net.cpp:406] lstm1_h_conted_10 <- h_10_lstm1_unit_10_1_split_0
I1018 12:05:31.763449 34212 net.cpp:406] lstm1_h_conted_10 <- cont_11_lstm1_cont_slice_10_split_0
I1018 12:05:31.763458 34212 net.cpp:380] lstm1_h_conted_10 -> h_conted_10
I1018 12:05:31.763520 34212 net.cpp:122] Setting up lstm1_h_conted_10
I1018 12:05:31.763530 34212 net.cpp:129] Top shape: 1 5 512 (2560)
I1018 12:05:31.763533 34212 net.cpp:137] Memory required for data: 2837760
I1018 12:05:31.763537 34212 layer_factory.hpp:77] Creating layer lstm1_transform_11
I1018 12:05:31.763547 34212 net.cpp:84] Creating Layer lstm1_transform_11
I1018 12:05:31.763552 34212 net.cpp:406] lstm1_transform_11 <- h_conted_10
I1018 12:05:31.763559 34212 net.cpp:380] lstm1_transform_11 -> W_hc_h_10
I1018 12:05:31.775666 34212 net.cpp:122] Setting up lstm1_transform_11
I1018 12:05:31.775686 34212 net.cpp:129] Top shape: 1 5 2048 (10240)
I1018 12:05:31.775691 34212 net.cpp:137] Memory required for data: 2878720
I1018 12:05:31.775697 34212 net.cpp:465] Sharing parameters 'W_hc' owned by layer 'lstm1_transform_1', param index 0
I1018 12:05:31.775702 34212 layer_factory.hpp:77] Creating layer lstm1_gate_input_11
I1018 12:05:31.775712 34212 net.cpp:84] Creating Layer lstm1_gate_input_11
I1018 12:05:31.775717 34212 net.cpp:406] lstm1_gate_input_11 <- W_hc_h_10
I1018 12:05:31.775722 34212 net.cpp:406] lstm1_gate_input_11 <- W_xc_x_11
I1018 12:05:31.775729 34212 net.cpp:380] lstm1_gate_input_11 -> gate_input_11
I1018 12:05:31.775760 34212 net.cpp:122] Setting up lstm1_gate_input_11
I1018 12:05:31.775769 34212 net.cpp:129] Top shape: 1 5 2048 (10240)
I1018 12:05:31.775774 34212 net.cpp:137] Memory required for data: 2919680
I1018 12:05:31.775777 34212 layer_factory.hpp:77] Creating layer lstm1_unit_11
I1018 12:05:31.775787 34212 net.cpp:84] Creating Layer lstm1_unit_11
I1018 12:05:31.775792 34212 net.cpp:406] lstm1_unit_11 <- c_10
I1018 12:05:31.775799 34212 net.cpp:406] lstm1_unit_11 <- gate_input_11
I1018 12:05:31.775805 34212 net.cpp:406] lstm1_unit_11 <- cont_11_lstm1_cont_slice_10_split_1
I1018 12:05:31.775811 34212 net.cpp:380] lstm1_unit_11 -> c_11
I1018 12:05:31.775820 34212 net.cpp:380] lstm1_unit_11 -> h_11
I1018 12:05:31.775866 34212 net.cpp:122] Setting up lstm1_unit_11
I1018 12:05:31.775874 34212 net.cpp:129] Top shape: 1 5 512 (2560)
I1018 12:05:31.775879 34212 net.cpp:129] Top shape: 1 5 512 (2560)
I1018 12:05:31.775883 34212 net.cpp:137] Memory required for data: 2940160
I1018 12:05:31.775888 34212 layer_factory.hpp:77] Creating layer h_11_lstm1_unit_11_1_split
I1018 12:05:31.775895 34212 net.cpp:84] Creating Layer h_11_lstm1_unit_11_1_split
I1018 12:05:31.775899 34212 net.cpp:406] h_11_lstm1_unit_11_1_split <- h_11
I1018 12:05:31.775908 34212 net.cpp:380] h_11_lstm1_unit_11_1_split -> h_11_lstm1_unit_11_1_split_0
I1018 12:05:31.775915 34212 net.cpp:380] h_11_lstm1_unit_11_1_split -> h_11_lstm1_unit_11_1_split_1
I1018 12:05:31.775948 34212 net.cpp:122] Setting up h_11_lstm1_unit_11_1_split
I1018 12:05:31.775955 34212 net.cpp:129] Top shape: 1 5 512 (2560)
I1018 12:05:31.775960 34212 net.cpp:129] Top shape: 1 5 512 (2560)
I1018 12:05:31.775964 34212 net.cpp:137] Memory required for data: 2960640
I1018 12:05:31.775969 34212 layer_factory.hpp:77] Creating layer lstm1_h_conted_11
I1018 12:05:31.775977 34212 net.cpp:84] Creating Layer lstm1_h_conted_11
I1018 12:05:31.775982 34212 net.cpp:406] lstm1_h_conted_11 <- h_11_lstm1_unit_11_1_split_0
I1018 12:05:31.775990 34212 net.cpp:406] lstm1_h_conted_11 <- cont_12_lstm1_cont_slice_11_split_0
I1018 12:05:31.775997 34212 net.cpp:380] lstm1_h_conted_11 -> h_conted_11
I1018 12:05:31.776063 34212 net.cpp:122] Setting up lstm1_h_conted_11
I1018 12:05:31.776073 34212 net.cpp:129] Top shape: 1 5 512 (2560)
I1018 12:05:31.776078 34212 net.cpp:137] Memory required for data: 2970880
I1018 12:05:31.776082 34212 layer_factory.hpp:77] Creating layer lstm1_transform_12
I1018 12:05:31.776090 34212 net.cpp:84] Creating Layer lstm1_transform_12
I1018 12:05:31.776095 34212 net.cpp:406] lstm1_transform_12 <- h_conted_11
I1018 12:05:31.776104 34212 net.cpp:380] lstm1_transform_12 -> W_hc_h_11
I1018 12:05:31.787873 34212 net.cpp:122] Setting up lstm1_transform_12
I1018 12:05:31.787889 34212 net.cpp:129] Top shape: 1 5 2048 (10240)
I1018 12:05:31.787894 34212 net.cpp:137] Memory required for data: 3011840
I1018 12:05:31.787899 34212 net.cpp:465] Sharing parameters 'W_hc' owned by layer 'lstm1_transform_1', param index 0
I1018 12:05:31.787904 34212 layer_factory.hpp:77] Creating layer lstm1_gate_input_12
I1018 12:05:31.787912 34212 net.cpp:84] Creating Layer lstm1_gate_input_12
I1018 12:05:31.787917 34212 net.cpp:406] lstm1_gate_input_12 <- W_hc_h_11
I1018 12:05:31.787923 34212 net.cpp:406] lstm1_gate_input_12 <- W_xc_x_12
I1018 12:05:31.787930 34212 net.cpp:380] lstm1_gate_input_12 -> gate_input_12
I1018 12:05:31.787957 34212 net.cpp:122] Setting up lstm1_gate_input_12
I1018 12:05:31.787967 34212 net.cpp:129] Top shape: 1 5 2048 (10240)
I1018 12:05:31.787971 34212 net.cpp:137] Memory required for data: 3052800
I1018 12:05:31.787976 34212 layer_factory.hpp:77] Creating layer lstm1_unit_12
I1018 12:05:31.787984 34212 net.cpp:84] Creating Layer lstm1_unit_12
I1018 12:05:31.787989 34212 net.cpp:406] lstm1_unit_12 <- c_11
I1018 12:05:31.787995 34212 net.cpp:406] lstm1_unit_12 <- gate_input_12
I1018 12:05:31.788000 34212 net.cpp:406] lstm1_unit_12 <- cont_12_lstm1_cont_slice_11_split_1
I1018 12:05:31.788007 34212 net.cpp:380] lstm1_unit_12 -> c_12
I1018 12:05:31.788014 34212 net.cpp:380] lstm1_unit_12 -> h_12
I1018 12:05:31.788066 34212 net.cpp:122] Setting up lstm1_unit_12
I1018 12:05:31.788076 34212 net.cpp:129] Top shape: 1 5 512 (2560)
I1018 12:05:31.788081 34212 net.cpp:129] Top shape: 1 5 512 (2560)
I1018 12:05:31.788085 34212 net.cpp:137] Memory required for data: 3073280
I1018 12:05:31.788090 34212 layer_factory.hpp:77] Creating layer h_12_lstm1_unit_12_1_split
I1018 12:05:31.788096 34212 net.cpp:84] Creating Layer h_12_lstm1_unit_12_1_split
I1018 12:05:31.788101 34212 net.cpp:406] h_12_lstm1_unit_12_1_split <- h_12
I1018 12:05:31.788110 34212 net.cpp:380] h_12_lstm1_unit_12_1_split -> h_12_lstm1_unit_12_1_split_0
I1018 12:05:31.788116 34212 net.cpp:380] h_12_lstm1_unit_12_1_split -> h_12_lstm1_unit_12_1_split_1
I1018 12:05:31.788148 34212 net.cpp:122] Setting up h_12_lstm1_unit_12_1_split
I1018 12:05:31.788156 34212 net.cpp:129] Top shape: 1 5 512 (2560)
I1018 12:05:31.788161 34212 net.cpp:129] Top shape: 1 5 512 (2560)
I1018 12:05:31.788166 34212 net.cpp:137] Memory required for data: 3093760
I1018 12:05:31.788169 34212 layer_factory.hpp:77] Creating layer lstm1_h_conted_12
I1018 12:05:31.788179 34212 net.cpp:84] Creating Layer lstm1_h_conted_12
I1018 12:05:31.788184 34212 net.cpp:406] lstm1_h_conted_12 <- h_12_lstm1_unit_12_1_split_0
I1018 12:05:31.788190 34212 net.cpp:406] lstm1_h_conted_12 <- cont_13_lstm1_cont_slice_12_split_0
I1018 12:05:31.788197 34212 net.cpp:380] lstm1_h_conted_12 -> h_conted_12
I1018 12:05:31.788254 34212 net.cpp:122] Setting up lstm1_h_conted_12
I1018 12:05:31.788264 34212 net.cpp:129] Top shape: 1 5 512 (2560)
I1018 12:05:31.788267 34212 net.cpp:137] Memory required for data: 3104000
I1018 12:05:31.788271 34212 layer_factory.hpp:77] Creating layer lstm1_transform_13
I1018 12:05:31.788281 34212 net.cpp:84] Creating Layer lstm1_transform_13
I1018 12:05:31.788286 34212 net.cpp:406] lstm1_transform_13 <- h_conted_12
I1018 12:05:31.788293 34212 net.cpp:380] lstm1_transform_13 -> W_hc_h_12
I1018 12:05:31.800066 34212 net.cpp:122] Setting up lstm1_transform_13
I1018 12:05:31.800086 34212 net.cpp:129] Top shape: 1 5 2048 (10240)
I1018 12:05:31.800091 34212 net.cpp:137] Memory required for data: 3144960
I1018 12:05:31.800096 34212 net.cpp:465] Sharing parameters 'W_hc' owned by layer 'lstm1_transform_1', param index 0
I1018 12:05:31.800101 34212 layer_factory.hpp:77] Creating layer lstm1_gate_input_13
I1018 12:05:31.800112 34212 net.cpp:84] Creating Layer lstm1_gate_input_13
I1018 12:05:31.800117 34212 net.cpp:406] lstm1_gate_input_13 <- W_hc_h_12
I1018 12:05:31.800123 34212 net.cpp:406] lstm1_gate_input_13 <- W_xc_x_13
I1018 12:05:31.800130 34212 net.cpp:380] lstm1_gate_input_13 -> gate_input_13
I1018 12:05:31.800159 34212 net.cpp:122] Setting up lstm1_gate_input_13
I1018 12:05:31.800169 34212 net.cpp:129] Top shape: 1 5 2048 (10240)
I1018 12:05:31.800173 34212 net.cpp:137] Memory required for data: 3185920
I1018 12:05:31.800177 34212 layer_factory.hpp:77] Creating layer lstm1_unit_13
I1018 12:05:31.800184 34212 net.cpp:84] Creating Layer lstm1_unit_13
I1018 12:05:31.800189 34212 net.cpp:406] lstm1_unit_13 <- c_12
I1018 12:05:31.800194 34212 net.cpp:406] lstm1_unit_13 <- gate_input_13
I1018 12:05:31.800199 34212 net.cpp:406] lstm1_unit_13 <- cont_13_lstm1_cont_slice_12_split_1
I1018 12:05:31.800207 34212 net.cpp:380] lstm1_unit_13 -> c_13
I1018 12:05:31.800215 34212 net.cpp:380] lstm1_unit_13 -> h_13
I1018 12:05:31.800262 34212 net.cpp:122] Setting up lstm1_unit_13
I1018 12:05:31.800271 34212 net.cpp:129] Top shape: 1 5 512 (2560)
I1018 12:05:31.800276 34212 net.cpp:129] Top shape: 1 5 512 (2560)
I1018 12:05:31.800281 34212 net.cpp:137] Memory required for data: 3206400
I1018 12:05:31.800284 34212 layer_factory.hpp:77] Creating layer h_13_lstm1_unit_13_1_split
I1018 12:05:31.800290 34212 net.cpp:84] Creating Layer h_13_lstm1_unit_13_1_split
I1018 12:05:31.800294 34212 net.cpp:406] h_13_lstm1_unit_13_1_split <- h_13
I1018 12:05:31.800300 34212 net.cpp:380] h_13_lstm1_unit_13_1_split -> h_13_lstm1_unit_13_1_split_0
I1018 12:05:31.800307 34212 net.cpp:380] h_13_lstm1_unit_13_1_split -> h_13_lstm1_unit_13_1_split_1
I1018 12:05:31.800341 34212 net.cpp:122] Setting up h_13_lstm1_unit_13_1_split
I1018 12:05:31.800349 34212 net.cpp:129] Top shape: 1 5 512 (2560)
I1018 12:05:31.800354 34212 net.cpp:129] Top shape: 1 5 512 (2560)
I1018 12:05:31.800359 34212 net.cpp:137] Memory required for data: 3226880
I1018 12:05:31.800362 34212 layer_factory.hpp:77] Creating layer lstm1_h_conted_13
I1018 12:05:31.800371 34212 net.cpp:84] Creating Layer lstm1_h_conted_13
I1018 12:05:31.800376 34212 net.cpp:406] lstm1_h_conted_13 <- h_13_lstm1_unit_13_1_split_0
I1018 12:05:31.800382 34212 net.cpp:406] lstm1_h_conted_13 <- cont_14_lstm1_cont_slice_13_split_0
I1018 12:05:31.800390 34212 net.cpp:380] lstm1_h_conted_13 -> h_conted_13
I1018 12:05:31.800449 34212 net.cpp:122] Setting up lstm1_h_conted_13
I1018 12:05:31.800458 34212 net.cpp:129] Top shape: 1 5 512 (2560)
I1018 12:05:31.800462 34212 net.cpp:137] Memory required for data: 3237120
I1018 12:05:31.800467 34212 layer_factory.hpp:77] Creating layer lstm1_transform_14
I1018 12:05:31.800477 34212 net.cpp:84] Creating Layer lstm1_transform_14
I1018 12:05:31.800482 34212 net.cpp:406] lstm1_transform_14 <- h_conted_13
I1018 12:05:31.800488 34212 net.cpp:380] lstm1_transform_14 -> W_hc_h_13
I1018 12:05:31.812264 34212 net.cpp:122] Setting up lstm1_transform_14
I1018 12:05:31.812280 34212 net.cpp:129] Top shape: 1 5 2048 (10240)
I1018 12:05:31.812284 34212 net.cpp:137] Memory required for data: 3278080
I1018 12:05:31.812290 34212 net.cpp:465] Sharing parameters 'W_hc' owned by layer 'lstm1_transform_1', param index 0
I1018 12:05:31.812295 34212 layer_factory.hpp:77] Creating layer lstm1_gate_input_14
I1018 12:05:31.812302 34212 net.cpp:84] Creating Layer lstm1_gate_input_14
I1018 12:05:31.812309 34212 net.cpp:406] lstm1_gate_input_14 <- W_hc_h_13
I1018 12:05:31.812314 34212 net.cpp:406] lstm1_gate_input_14 <- W_xc_x_14
I1018 12:05:31.812322 34212 net.cpp:380] lstm1_gate_input_14 -> gate_input_14
I1018 12:05:31.812350 34212 net.cpp:122] Setting up lstm1_gate_input_14
I1018 12:05:31.812360 34212 net.cpp:129] Top shape: 1 5 2048 (10240)
I1018 12:05:31.812363 34212 net.cpp:137] Memory required for data: 3319040
I1018 12:05:31.812367 34212 layer_factory.hpp:77] Creating layer lstm1_unit_14
I1018 12:05:31.812376 34212 net.cpp:84] Creating Layer lstm1_unit_14
I1018 12:05:31.812379 34212 net.cpp:406] lstm1_unit_14 <- c_13
I1018 12:05:31.812386 34212 net.cpp:406] lstm1_unit_14 <- gate_input_14
I1018 12:05:31.812391 34212 net.cpp:406] lstm1_unit_14 <- cont_14_lstm1_cont_slice_13_split_1
I1018 12:05:31.812397 34212 net.cpp:380] lstm1_unit_14 -> c_14
I1018 12:05:31.812407 34212 net.cpp:380] lstm1_unit_14 -> h_14
I1018 12:05:31.812458 34212 net.cpp:122] Setting up lstm1_unit_14
I1018 12:05:31.812469 34212 net.cpp:129] Top shape: 1 5 512 (2560)
I1018 12:05:31.812474 34212 net.cpp:129] Top shape: 1 5 512 (2560)
I1018 12:05:31.812477 34212 net.cpp:137] Memory required for data: 3339520
I1018 12:05:31.812481 34212 layer_factory.hpp:77] Creating layer h_14_lstm1_unit_14_1_split
I1018 12:05:31.812487 34212 net.cpp:84] Creating Layer h_14_lstm1_unit_14_1_split
I1018 12:05:31.812492 34212 net.cpp:406] h_14_lstm1_unit_14_1_split <- h_14
I1018 12:05:31.812499 34212 net.cpp:380] h_14_lstm1_unit_14_1_split -> h_14_lstm1_unit_14_1_split_0
I1018 12:05:31.812505 34212 net.cpp:380] h_14_lstm1_unit_14_1_split -> h_14_lstm1_unit_14_1_split_1
I1018 12:05:31.812538 34212 net.cpp:122] Setting up h_14_lstm1_unit_14_1_split
I1018 12:05:31.812547 34212 net.cpp:129] Top shape: 1 5 512 (2560)
I1018 12:05:31.812552 34212 net.cpp:129] Top shape: 1 5 512 (2560)
I1018 12:05:31.812556 34212 net.cpp:137] Memory required for data: 3360000
I1018 12:05:31.812561 34212 layer_factory.hpp:77] Creating layer lstm1_h_conted_14
I1018 12:05:31.812566 34212 net.cpp:84] Creating Layer lstm1_h_conted_14
I1018 12:05:31.812572 34212 net.cpp:406] lstm1_h_conted_14 <- h_14_lstm1_unit_14_1_split_0
I1018 12:05:31.812577 34212 net.cpp:406] lstm1_h_conted_14 <- cont_15_lstm1_cont_slice_14_split_0
I1018 12:05:31.812587 34212 net.cpp:380] lstm1_h_conted_14 -> h_conted_14
I1018 12:05:31.812644 34212 net.cpp:122] Setting up lstm1_h_conted_14
I1018 12:05:31.812651 34212 net.cpp:129] Top shape: 1 5 512 (2560)
I1018 12:05:31.812655 34212 net.cpp:137] Memory required for data: 3370240
I1018 12:05:31.812660 34212 layer_factory.hpp:77] Creating layer lstm1_transform_15
I1018 12:05:31.812667 34212 net.cpp:84] Creating Layer lstm1_transform_15
I1018 12:05:31.812672 34212 net.cpp:406] lstm1_transform_15 <- h_conted_14
I1018 12:05:31.812681 34212 net.cpp:380] lstm1_transform_15 -> W_hc_h_14
I1018 12:05:31.824259 34212 net.cpp:122] Setting up lstm1_transform_15
I1018 12:05:31.824275 34212 net.cpp:129] Top shape: 1 5 2048 (10240)
I1018 12:05:31.824290 34212 net.cpp:137] Memory required for data: 3411200
I1018 12:05:31.824301 34212 net.cpp:465] Sharing parameters 'W_hc' owned by layer 'lstm1_transform_1', param index 0
I1018 12:05:31.824306 34212 layer_factory.hpp:77] Creating layer lstm1_gate_input_15
I1018 12:05:31.824313 34212 net.cpp:84] Creating Layer lstm1_gate_input_15
I1018 12:05:31.824318 34212 net.cpp:406] lstm1_gate_input_15 <- W_hc_h_14
I1018 12:05:31.824324 34212 net.cpp:406] lstm1_gate_input_15 <- W_xc_x_15
I1018 12:05:31.824333 34212 net.cpp:380] lstm1_gate_input_15 -> gate_input_15
I1018 12:05:31.824360 34212 net.cpp:122] Setting up lstm1_gate_input_15
I1018 12:05:31.824370 34212 net.cpp:129] Top shape: 1 5 2048 (10240)
I1018 12:05:31.824373 34212 net.cpp:137] Memory required for data: 3452160
I1018 12:05:31.824378 34212 layer_factory.hpp:77] Creating layer lstm1_unit_15
I1018 12:05:31.824384 34212 net.cpp:84] Creating Layer lstm1_unit_15
I1018 12:05:31.824389 34212 net.cpp:406] lstm1_unit_15 <- c_14
I1018 12:05:31.824394 34212 net.cpp:406] lstm1_unit_15 <- gate_input_15
I1018 12:05:31.824400 34212 net.cpp:406] lstm1_unit_15 <- cont_15_lstm1_cont_slice_14_split_1
I1018 12:05:31.824406 34212 net.cpp:380] lstm1_unit_15 -> c_15
I1018 12:05:31.824415 34212 net.cpp:380] lstm1_unit_15 -> h_15
I1018 12:05:31.824462 34212 net.cpp:122] Setting up lstm1_unit_15
I1018 12:05:31.824476 34212 net.cpp:129] Top shape: 1 5 512 (2560)
I1018 12:05:31.824481 34212 net.cpp:129] Top shape: 1 5 512 (2560)
I1018 12:05:31.824484 34212 net.cpp:137] Memory required for data: 3472640
I1018 12:05:31.824488 34212 layer_factory.hpp:77] Creating layer h_15_lstm1_unit_15_1_split
I1018 12:05:31.824496 34212 net.cpp:84] Creating Layer h_15_lstm1_unit_15_1_split
I1018 12:05:31.824499 34212 net.cpp:406] h_15_lstm1_unit_15_1_split <- h_15
I1018 12:05:31.824506 34212 net.cpp:380] h_15_lstm1_unit_15_1_split -> h_15_lstm1_unit_15_1_split_0
I1018 12:05:31.824512 34212 net.cpp:380] h_15_lstm1_unit_15_1_split -> h_15_lstm1_unit_15_1_split_1
I1018 12:05:31.824546 34212 net.cpp:122] Setting up h_15_lstm1_unit_15_1_split
I1018 12:05:31.824555 34212 net.cpp:129] Top shape: 1 5 512 (2560)
I1018 12:05:31.824560 34212 net.cpp:129] Top shape: 1 5 512 (2560)
I1018 12:05:31.824564 34212 net.cpp:137] Memory required for data: 3493120
I1018 12:05:31.824568 34212 layer_factory.hpp:77] Creating layer lstm1_h_conted_15
I1018 12:05:31.824574 34212 net.cpp:84] Creating Layer lstm1_h_conted_15
I1018 12:05:31.824579 34212 net.cpp:406] lstm1_h_conted_15 <- h_15_lstm1_unit_15_1_split_0
I1018 12:05:31.824585 34212 net.cpp:406] lstm1_h_conted_15 <- cont_16_lstm1_cont_slice_15_split_0
I1018 12:05:31.824594 34212 net.cpp:380] lstm1_h_conted_15 -> h_conted_15
I1018 12:05:31.824651 34212 net.cpp:122] Setting up lstm1_h_conted_15
I1018 12:05:31.824658 34212 net.cpp:129] Top shape: 1 5 512 (2560)
I1018 12:05:31.824663 34212 net.cpp:137] Memory required for data: 3503360
I1018 12:05:31.824667 34212 layer_factory.hpp:77] Creating layer lstm1_transform_16
I1018 12:05:31.824674 34212 net.cpp:84] Creating Layer lstm1_transform_16
I1018 12:05:31.824679 34212 net.cpp:406] lstm1_transform_16 <- h_conted_15
I1018 12:05:31.824689 34212 net.cpp:380] lstm1_transform_16 -> W_hc_h_15
I1018 12:05:31.836279 34212 net.cpp:122] Setting up lstm1_transform_16
I1018 12:05:31.836295 34212 net.cpp:129] Top shape: 1 5 2048 (10240)
I1018 12:05:31.836300 34212 net.cpp:137] Memory required for data: 3544320
I1018 12:05:31.836305 34212 net.cpp:465] Sharing parameters 'W_hc' owned by layer 'lstm1_transform_1', param index 0
I1018 12:05:31.836310 34212 layer_factory.hpp:77] Creating layer lstm1_gate_input_16
I1018 12:05:31.836318 34212 net.cpp:84] Creating Layer lstm1_gate_input_16
I1018 12:05:31.836323 34212 net.cpp:406] lstm1_gate_input_16 <- W_hc_h_15
I1018 12:05:31.836328 34212 net.cpp:406] lstm1_gate_input_16 <- W_xc_x_16
I1018 12:05:31.836338 34212 net.cpp:380] lstm1_gate_input_16 -> gate_input_16
I1018 12:05:31.836365 34212 net.cpp:122] Setting up lstm1_gate_input_16
I1018 12:05:31.836376 34212 net.cpp:129] Top shape: 1 5 2048 (10240)
I1018 12:05:31.836380 34212 net.cpp:137] Memory required for data: 3585280
I1018 12:05:31.836385 34212 layer_factory.hpp:77] Creating layer lstm1_unit_16
I1018 12:05:31.836391 34212 net.cpp:84] Creating Layer lstm1_unit_16
I1018 12:05:31.836396 34212 net.cpp:406] lstm1_unit_16 <- c_15
I1018 12:05:31.836402 34212 net.cpp:406] lstm1_unit_16 <- gate_input_16
I1018 12:05:31.836410 34212 net.cpp:406] lstm1_unit_16 <- cont_16_lstm1_cont_slice_15_split_1
I1018 12:05:31.836416 34212 net.cpp:380] lstm1_unit_16 -> c_16
I1018 12:05:31.836422 34212 net.cpp:380] lstm1_unit_16 -> h_16
I1018 12:05:31.836470 34212 net.cpp:122] Setting up lstm1_unit_16
I1018 12:05:31.836479 34212 net.cpp:129] Top shape: 1 5 512 (2560)
I1018 12:05:31.836484 34212 net.cpp:129] Top shape: 1 5 512 (2560)
I1018 12:05:31.836488 34212 net.cpp:137] Memory required for data: 3605760
I1018 12:05:31.836493 34212 layer_factory.hpp:77] Creating layer lstm1_
I1018 12:05:31.836503 34212 net.cpp:84] Creating Layer lstm1_
I1018 12:05:31.836508 34212 net.cpp:406] lstm1_ <- c_16
I1018 12:05:31.836514 34212 net.cpp:380] lstm1_ -> c_T
I1018 12:05:31.836535 34212 net.cpp:122] Setting up lstm1_
I1018 12:05:31.836541 34212 net.cpp:129] Top shape: 1 5 512 (2560)
I1018 12:05:31.836545 34212 net.cpp:137] Memory required for data: 3616000
I1018 12:05:31.836549 34212 layer_factory.hpp:77] Creating layer lstm1_h_concat
I1018 12:05:31.836560 34212 net.cpp:84] Creating Layer lstm1_h_concat
I1018 12:05:31.836565 34212 net.cpp:406] lstm1_h_concat <- h_1_lstm1_unit_1_1_split_1
I1018 12:05:31.836572 34212 net.cpp:406] lstm1_h_concat <- h_2_lstm1_unit_2_1_split_1
…
I1018 12:05:31.837417 34212 net.cpp:200] lstm1_ does not need backward computation.
I1018 12:05:31.837420 34212 net.cpp:242] This network produces output c_T
I1018 12:05:31.837425 34212 net.cpp:242] This network produces output h_pseudoloss
I1018 12:05:31.849954 34212 net.cpp:255] Network initialization done.
I1018 12:05:31.850183 34212 recurrent_layer.cpp:150] Adding parameter 0: W_xc
I1018 12:05:31.850193 34212 recurrent_layer.cpp:150] Adding parameter 1: b_c
I1018 12:05:31.850198 34212 recurrent_layer.cpp:150] Adding parameter 2: W_hc
I1018 12:05:31.850390 34212 net.cpp:122] Setting up lstm1
I1018 12:05:31.850404 34212 net.cpp:129] Top shape: 16 5 512 (40960)
I1018 12:05:31.850407 34212 net.cpp:137] Memory required for data: 577352980
I1018 12:05:31.850417 34212 layer_factory.hpp:77] Creating layer lstm1-drop
I1018 12:05:31.850428 34212 net.cpp:84] Creating Layer lstm1-drop
I1018 12:05:31.850433 34212 net.cpp:406] lstm1-drop <- lstm1
I1018 12:05:31.850441 34212 net.cpp:380] lstm1-drop -> lstm1-drop
I1018 12:05:31.850483 34212 net.cpp:122] Setting up lstm1-drop
I1018 12:05:31.850492 34212 net.cpp:129] Top shape: 16 5 512 (40960)
I1018 12:05:31.850497 34212 net.cpp:137] Memory required for data: 577516820
I1018 12:05:31.850500 34212 layer_factory.hpp:77] Creating layer fc-final
I1018 12:05:31.850517 34212 net.cpp:84] Creating Layer fc-final
I1018 12:05:31.850528 34212 net.cpp:406] fc-final <- lstm1-drop
I1018 12:05:31.850535 34212 net.cpp:380] fc-final -> fc-final
I1018 12:05:31.850854 34212 net.cpp:122] Setting up fc-final
I1018 12:05:31.850864 34212 net.cpp:129] Top shape: 16 5 10 (800)
I1018 12:05:31.850880 34212 net.cpp:137] Memory required for data: 577520020
I1018 12:05:31.850888 34212 layer_factory.hpp:77] Creating layer fc-final_fc-final_0_split
I1018 12:05:31.850894 34212 net.cpp:84] Creating Layer fc-final_fc-final_0_split
I1018 12:05:31.850899 34212 net.cpp:406] fc-final_fc-final_0_split <- fc-final
I1018 12:05:31.850905 34212 net.cpp:380] fc-final_fc-final_0_split -> fc-final_fc-final_0_split_0
I1018 12:05:31.850914 34212 net.cpp:380] fc-final_fc-final_0_split -> fc-final_fc-final_0_split_1
I1018 12:05:31.850950 34212 net.cpp:122] Setting up fc-final_fc-final_0_split
I1018 12:05:31.850960 34212 net.cpp:129] Top shape: 16 5 10 (800)
I1018 12:05:31.850965 34212 net.cpp:129] Top shape: 16 5 10 (800)
I1018 12:05:31.850968 34212 net.cpp:137] Memory required for data: 577526420
I1018 12:05:31.850972 34212 layer_factory.hpp:77] Creating layer loss
I1018 12:05:31.850981 34212 net.cpp:84] Creating Layer loss
I1018 12:05:31.850986 34212 net.cpp:406] loss <- fc-final_fc-final_0_split_0
I1018 12:05:31.850994 34212 net.cpp:406] loss <- reshape-label_label_tran_0_split_0
I1018 12:05:31.851001 34212 net.cpp:380] loss -> loss
…
I1018 12:05:31.852341 34212 net.cpp:294] The NetState phase (1) differed from the phase (0) specified by a rule in layer data
I1018 12:05:31.852530 34212 net.cpp:51] Initializing net from parameters: 
name: "VGG-Places365"
state {
  phase: TEST
  stage: "test-on-test"
}
layer {
  name: "data"
  type: "ImageData"
  top: "data"
  top: "label"
  include {
    phase: TEST
  }
  transform_param {
    mirror: false
    crop_size: 224
    mean_value: 104
    mean_value: 117
    mean_value: 123
  }
  image_data_param {
    source: "../Data/lsun_val_list.txt"
    batch_size: 150
    new_height: 256
    new_width: 256
  }
}
layer {
  name: "Silence"
  type: "Silence"
  bottom: "label"
  include {
    phase: TEST
  }
}
layer {
  name: "label_tran"
  type: "Python"
  bottom: "label"
  top: "reshape-label"
  top: "clip_markers"
  python_param {
    module: "data_preparation_sort_max_clip"
    layer: "ReshapeLabel"
  }
}
layer {
  name: "conv1_1"
  type: "Convolution"
  bottom: "data"
  top: "conv1_1"
  convolution_param {
    num_output: 64
    pad: 1
    kernel_size: 3
  }
}
layer {
  name: "relu1_1"
  type: "ReLU"
  bottom: "conv1_1"
  top: "conv1_1"
}
layer {
  name: "conv1_2"
  type: "Convolution"
  bottom: "conv1_1"
  top: "conv1_2"
  convolution_param {
    num_output: 64
    pad: 1
    kernel_size: 3
  }
}
layer {
  name: "relu1_2"
  type: "ReLU"
  bottom: "conv1_2"
  top: "conv1_2"
}
layer {
  name: "pool1"
  type: "Pooling"
  bottom: "conv1_2"
  top: "pool1"
  pooling_param {
    pool: MAX
    kernel_size: 2
    stride: 2
  }
}
layer {
  name: "conv2_1"
  type: "Convolution"
  bottom: "pool1"
  top: "conv2_1"
  convolution_param {
    num_output: 128
    pad: 1
    kernel_size: 3
  }
}
layer {
  name: "relu2_1"
  type: "ReLU"
  bottom: "conv2_1"
  top: "conv2_1"
}
layer {
  name: "conv2_2"
  type: "Convolution"
  bottom: "conv2_1"
  top: "conv2_2"
  convolution_param {
    num_output: 128
    pad: 1
    kernel_size: 3
  }
}
layer {
  name: "relu2_2"
  type: "ReLU"
  bottom: "conv2_2"
  top: "conv2_2"
}
layer {
  name: "pool2"
  type: "Pooling"
  bottom: "conv2_2"
  top: "pool2"
  pooling_param {
    pool: MAX
    kernel_size: 2
    stride: 2
  }
}
layer {
  name: "conv3_1"
  type: "Convolution"
  bottom: "pool2"
  top: "conv3_1"
  convolution_param {
    num_output: 256
    pad: 1
    kernel_size: 3
  }
}
layer {
  name: "relu3_1"
  type: "ReLU"
  bottom: "conv3_1"
  top: "conv3_1"
}
layer {
  name: "conv3_2"
  type: "Convolution"
  bottom: "conv3_1"
  top: "conv3_2"
  convolution_param {
    num_output: 256
    pad: 1
    kernel_size: 3
  }
}
layer {
  name: "relu3_2"
  type: "ReLU"
  bottom: "conv3_2"
  top: "conv3_2"
}
layer {
  name: "conv3_3"
  type: "Convolution"
  bottom: "conv3_2"
  top: "conv3_3"
  convolution_param {
    num_output: 256
    pad: 1
    kernel_size: 3
  }
}
layer {
  name: "relu3_3"
  type: "ReLU"
  bottom: "conv3_3"
  top: "conv3_3"
}
layer {
  name: "pool3"
  type: "Pooling"
  bottom: "conv3_3"
  top: "pool3"
  pooling_param {
    pool: MAX
    kernel_size: 2
    stride: 2
  }
}
layer {
  name: "conv4_1"
  type: "Convolution"
  bottom: "pool3"
  top: "conv4_1"
  convolution_param {
    num_output: 512
    pad: 1
    kernel_size: 3
  }
}
layer {
  name: "relu4_1"
  type: "ReLU"
  bottom: "conv4_1"
  top: "conv4_1"
}
layer {
  name: "conv4_2"
  type: "Convolution"
  bottom: "conv4_1"
  top: "conv4_2"
  convolution_param {
    num_output: 512
    pad: 1
    kernel_size: 3
  }
}
layer {
  name: "relu4_2"
  type: "ReLU"
  bottom: "conv4_2"
  top: "conv4_2"
}
layer {
  name: "conv4_3"
  type: "Convolution"
  bottom: "conv4_2"
  top: "conv4_3"
  convolution_param {
    num_output: 512
    pad: 1
    kernel_size: 3
  }
}
layer {
  name: "relu4_3"
  type: "ReLU"
  bottom: "conv4_3"
  top: "conv4_3"
}
layer {
  name: "pool4"
  type: "Pooling"
  bottom: "conv4_3"
  top: "pool4"
  pooling_param {
    pool: MAX
    kernel_size: 2
    stride: 2
  }
}
layer {
  name: "conv5_1"
  type: "Convolution"
  bottom: "pool4"
  top: "conv5_1"
  convolution_param {
    num_output: 512
    pad: 1
    kernel_size: 3
  }
}
layer {
  name: "relu5_1"
  type: "ReLU"
  bottom: "conv5_1"
  top: "conv5_1"
}
layer {
  name: "conv5_2"
  type: "Convolution"
  bottom: "conv5_1"
  top: "conv5_2"
  convolution_param {
    num_output: 512
    pad: 1
    kernel_size: 3
  }
}
layer {
  name: "relu5_2"
  type: "ReLU"
  bottom: "conv5_2"
  top: "conv5_2"
}
layer {
  name: "conv5_3"
  type: "Convolution"
  bottom: "conv5_2"
  top: "conv5_3"
  convolution_param {
    num_output: 512
    pad: 1
    kernel_size: 3
  }
}
layer {
  name: "relu5_3"
  type: "ReLU"
  bottom: "conv5_3"
  top: "conv5_3"
}
layer {
  name: "conv5_3_re"
  type: "Reshape"
  bottom: "conv5_3"
  top: "conv5_3_re"
  reshape_param {
    shape {
      dim: 0
      dim: 0
      dim: -1
    }
  }
}
layer {
  name: "conv5_3_tran"
  type: "Python"
  bottom: "conv5_3_re"
  top: "conv5_3_tran"
  python_param {
    module: "data_preparation_sort_max_clip"
    layer: "DataTransposeSortRandomClip"
  }
}
layer {
  name: "lstm1"
  type: "LSTM"
  bottom: "conv5_3_tran"
  bottom: "clip_markers"
  top: "lstm1"
  recurrent_param {
    num_output: 512
    weight_filler {
      type: "uniform"
      min: -0.01
      max: 0.01
    }
    bias_filler {
      type: "constant"
      value: 0
    }
  }
}
layer {
  name: "lstm1-drop"
  type: "Dropout"
  bottom: "lstm1"
  top: "lstm1-drop"
  dropout_param {
    dropout_ratio: 0.5
  }
}
layer {
  name: "fc-final"
  type: "InnerProduct"
  bottom: "lstm1-drop"
  top: "fc-final"
  param {
    lr_mult: 1
    decay_mult: 1
  }
  param {
    lr_mult: 2
    decay_mult: 0
  }
  inner_product_param {
    num_output: 10
    weight_filler {
      type: "gaussian"
      std: 0.01
    }
    bias_filler {
      type: "constant"
      value: 0
    }
    axis: 2
  }
}
layer {
  name: "loss"
  type: "SoftmaxWithLoss"
  bottom: "fc-final"
  bottom: "reshape-label"
  top: "loss"
  softmax_param {
    axis: 2
  }
}
layer {
  name: "accuracy"
  type: "Accuracy"
  bottom: "fc-final"
  bottom: "reshape-label"
  top: "accuracy"
  accuracy_param {
    axis: 2
  }
}
I1018 12:05:31.852685 34212 layer_factory.hpp:77] Creating layer data
I1018 12:05:31.852704 34212 net.cpp:84] Creating Layer data
I1018 12:05:31.852710 34212 net.cpp:380] data -> data
I1018 12:05:31.852720 34212 net.cpp:380] data -> label
I1018 12:05:31.852730 34212 image_data_layer.cpp:38] Opening file ../Data/lsun_val_list.txt
I1018 12:05:31.853652 34212 image_data_layer.cpp:63] A total of 3000 images.
I1018 12:05:31.855139 34212 image_data_layer.cpp:90] output data size: 150,3,224,224
I1018 12:05:32.081521 34212 net.cpp:122] Setting up data
I1018 12:05:32.081666 34212 net.cpp:129] Top shape: 150 3 224 224 (22579200)
I1018 12:05:32.081701 34212 net.cpp:129] Top shape: 150 (150)
I1018 12:05:32.081712 34212 net.cpp:137] Memory required for data: 90317400
I1018 12:05:32.081727 34212 layer_factory.hpp:77] Creating layer label_data_1_split
I1018 12:05:32.081770 34212 net.cpp:84] Creating Layer label_data_1_split
I1018 12:05:32.081784 34212 net.cpp:406] label_data_1_split <- label
I1018 12:05:32.081804 34212 net.cpp:380] label_data_1_split -> label_data_1_split_0
I1018 12:05:32.081830 34212 net.cpp:380] label_data_1_split -> label_data_1_split_1
I1018 12:05:32.081996 34212 net.cpp:122] Setting up label_data_1_split
I1018 12:05:32.082013 34212 net.cpp:129] Top shape: 150 (150)
I1018 12:05:32.082024 34212 net.cpp:129] Top shape: 150 (150)
I1018 12:05:32.082033 34212 net.cpp:137] Memory required for data: 90318600
I1018 12:05:32.082044 34212 layer_factory.hpp:77] Creating layer Silence
I1018 12:05:32.082068 34212 net.cpp:84] Creating Layer Silence
I1018 12:05:32.082078 34212 net.cpp:406] Silence <- label_data_1_split_0
I1018 12:05:32.082090 34212 net.cpp:122] Setting up Silence
I1018 12:05:32.082098 34212 net.cpp:137] Memory required for data: 90318600
I1018 12:05:32.082108 34212 layer_factory.hpp:77] Creating layer label_tran
I1018 12:05:32.082238 34212 net.cpp:84] Creating Layer label_tran
I1018 12:05:32.082257 34212 net.cpp:406] label_tran <- label_data_1_split_1
I1018 12:05:32.082273 34212 net.cpp:380] label_tran -> reshape-label
I1018 12:05:32.082290 34212 net.cpp:380] label_tran -> clip_markers
I1018 12:05:32.082943 34212 net.cpp:122] Setting up label_tran
I1018 12:05:32.082970 34212 net.cpp:129] Top shape: 16 150 (2400)
I1018 12:05:32.082981 34212 net.cpp:129] Top shape: 16 150 (2400)
I1018 12:05:32.082990 34212 net.cpp:137] Memory required for data: 90337800
I1018 12:05:32.082999 34212 layer_factory.hpp:77] Creating layer reshape-label_label_tran_0_split
I1018 12:05:32.083017 34212 net.cpp:84] Creating Layer reshape-label_label_tran_0_split
I1018 12:05:32.083027 34212 net.cpp:406] reshape-label_label_tran_0_split <- reshape-label
I1018 12:05:32.083041 34212 net.cpp:380] reshape-label_label_tran_0_split -> reshape-label_label_tran_0_split_0
I1018 12:05:32.083058 34212 net.cpp:380] reshape-label_label_tran_0_split -> reshape-label_label_tran_0_split_1
I1018 12:05:32.083132 34212 net.cpp:122] Setting up reshape-label_label_tran_0_split
I1018 12:05:32.083147 34212 net.cpp:129] Top shape: 16 150 (2400)
I1018 12:05:32.083158 34212 net.cpp:129] Top shape: 16 150 (2400)
I1018 12:05:32.083166 34212 net.cpp:137] Memory required for data: 90357000
I1018 12:05:32.083204 34212 layer_factory.hpp:77] Creating layer conv1_1
I1018 12:05:32.083237 34212 net.cpp:84] Creating Layer conv1_1
I1018 12:05:32.083250 34212 net.cpp:406] conv1_1 <- data
I1018 12:05:32.083263 34212 net.cpp:380] conv1_1 -> conv1_1
I1018 12:05:32.083972 34212 net.cpp:122] Setting up conv1_1
I1018 12:05:32.083997 34212 net.cpp:129] Top shape: 150 64 224 224 (481689600)
I1018 12:05:32.084007 34212 net.cpp:137] Memory required for data: 2017115400
I1018 12:05:32.084059 34212 layer_factory.hpp:77] Creating layer relu1_1
I1018 12:05:32.084079 34212 net.cpp:84] Creating Layer relu1_1
I1018 12:05:32.084090 34212 net.cpp:406] relu1_1 <- conv1_1
I1018 12:05:32.084105 34212 net.cpp:367] relu1_1 -> conv1_1 (in-place)
I1018 12:05:32.084122 34212 net.cpp:122] Setting up relu1_1
I1018 12:05:32.084134 34212 net.cpp:129] Top shape: 150 64 224 224 (481689600)
I1018 12:05:32.084143 34212 net.cpp:137] Memory required for data: 3943873800
I1018 12:05:32.084152 34212 layer_factory.hpp:77] Creating layer conv1_2
I1018 12:05:32.084175 34212 net.cpp:84] Creating Layer conv1_2
I1018 12:05:32.084184 34212 net.cpp:406] conv1_2 <- conv1_1
I1018 12:05:32.084201 34212 net.cpp:380] conv1_2 -> conv1_2
I1018 12:05:32.086107 34212 net.cpp:122] Setting up conv1_2
I1018 12:05:32.086138 34212 net.cpp:129] Top shape: 150 64 224 224 (481689600)
I1018 12:05:32.086148 34212 net.cpp:137] Memory required for data: 5870632200
I1018 12:05:32.086169 34212 layer_factory.hpp:77] Creating layer relu1_2
I1018 12:05:32.086186 34212 net.cpp:84] Creating Layer relu1_2
I1018 12:05:32.086196 34212 net.cpp:406] relu1_2 <- conv1_2
I1018 12:05:32.086211 34212 net.cpp:367] relu1_2 -> conv1_2 (in-place)
I1018 12:05:32.086228 34212 net.cpp:122] Setting up relu1_2
I1018 12:05:32.086239 34212 net.cpp:129] Top shape: 150 64 224 224 (481689600)
I1018 12:05:32.086247 34212 net.cpp:137] Memory required for data: 7797390600
I1018 12:05:32.086256 34212 layer_factory.hpp:77] Creating layer pool1
I1018 12:05:32.086277 34212 net.cpp:84] Creating Layer pool1
I1018 12:05:32.086287 34212 net.cpp:406] pool1 <- conv1_2
I1018 12:05:32.086299 34212 net.cpp:380] pool1 -> pool1
I1018 12:05:32.086380 34212 net.cpp:122] Setting up pool1
I1018 12:05:32.086395 34212 net.cpp:129] Top shape: 150 64 112 112 (120422400)
I1018 12:05:32.086405 34212 net.cpp:137] Memory required for data: 8279080200
I1018 12:05:32.086413 34212 layer_factory.hpp:77] Creating layer conv2_1
I1018 12:05:32.086434 34212 net.cpp:84] Creating Layer conv2_1
I1018 12:05:32.086443 34212 net.cpp:406] conv2_1 <- pool1
I1018 12:05:32.086458 34212 net.cpp:380] conv2_1 -> conv2_1
I1018 12:05:32.088214 34212 net.cpp:122] Setting up conv2_1
I1018 12:05:32.088243 34212 net.cpp:129] Top shape: 150 128 112 112 (240844800)
I1018 12:05:32.088253 34212 net.cpp:137] Memory required for data: 9242459400
I1018 12:05:32.088275 34212 layer_factory.hpp:77] Creating layer relu2_1
I1018 12:05:32.088291 34212 net.cpp:84] Creating Layer relu2_1
I1018 12:05:32.088301 34212 net.cpp:406] relu2_1 <- conv2_1
I1018 12:05:32.088315 34212 net.cpp:367] relu2_1 -> conv2_1 (in-place)
I1018 12:05:32.088332 34212 net.cpp:122] Setting up relu2_1
I1018 12:05:32.088343 34212 net.cpp:129] Top shape: 150 128 112 112 (240844800)
I1018 12:05:32.088351 34212 net.cpp:137] Memory required for data: 10205838600
I1018 12:05:32.088359 34212 layer_factory.hpp:77] Creating layer conv2_2
I1018 12:05:32.088376 34212 net.cpp:84] Creating Layer conv2_2
I1018 12:05:32.088385 34212 net.cpp:406] conv2_2 <- conv2_1
I1018 12:05:32.088398 34212 net.cpp:380] conv2_2 -> conv2_2
I1018 12:05:32.100225 34212 net.cpp:122] Setting up conv2_2
I1018 12:05:32.100265 34212 net.cpp:129] Top shape: 150 128 112 112 (240844800)
I1018 12:05:32.100275 34212 net.cpp:137] Memory required for data: 11169217800
I1018 12:05:32.100291 34212 layer_factory.hpp:77] Creating layer relu2_2
I1018 12:05:32.100307 34212 net.cpp:84] Creating Layer relu2_2
I1018 12:05:32.100318 34212 net.cpp:406] relu2_2 <- conv2_2
I1018 12:05:32.100333 34212 net.cpp:367] relu2_2 -> conv2_2 (in-place)
I1018 12:05:32.100353 34212 net.cpp:122] Setting up relu2_2
I1018 12:05:32.100364 34212 net.cpp:129] Top shape: 150 128 112 112 (240844800)
I1018 12:05:32.100373 34212 net.cpp:137] Memory required for data: 12132597000
I1018 12:05:32.100383 34212 layer_factory.hpp:77] Creating layer pool2
I1018 12:05:32.100396 34212 net.cpp:84] Creating Layer pool2
I1018 12:05:32.100406 34212 net.cpp:406] pool2 <- conv2_2
I1018 12:05:32.100420 34212 net.cpp:380] pool2 -> pool2
I1018 12:05:32.100502 34212 net.cpp:122] Setting up pool2
I1018 12:05:32.100518 34212 net.cpp:129] Top shape: 150 128 56 56 (60211200)
I1018 12:05:32.100528 34212 net.cpp:137] Memory required for data: 12373441800
I1018 12:05:32.100535 34212 layer_factory.hpp:77] Creating layer conv3_1
I1018 12:05:32.100553 34212 net.cpp:84] Creating Layer conv3_1
I1018 12:05:32.100564 34212 net.cpp:406] conv3_1 <- pool2
I1018 12:05:32.100579 34212 net.cpp:380] conv3_1 -> conv3_1
I1018 12:05:32.102756 34212 net.cpp:122] Setting up conv3_1
I1018 12:05:32.102792 34212 net.cpp:129] Top shape: 150 256 56 56 (120422400)
I1018 12:05:32.102802 34212 net.cpp:137] Memory required for data: 12855131400
I1018 12:05:32.102826 34212 layer_factory.hpp:77] Creating layer relu3_1
I1018 12:05:32.102859 34212 net.cpp:84] Creating Layer relu3_1
I1018 12:05:32.102869 34212 net.cpp:406] relu3_1 <- conv3_1
I1018 12:05:32.102885 34212 net.cpp:367] relu3_1 -> conv3_1 (in-place)
I1018 12:05:32.102902 34212 net.cpp:122] Setting up relu3_1
I1018 12:05:32.102915 34212 net.cpp:129] Top shape: 150 256 56 56 (120422400)
I1018 12:05:32.102922 34212 net.cpp:137] Memory required for data: 13336821000
I1018 12:05:32.102931 34212 layer_factory.hpp:77] Creating layer conv3_2
I1018 12:05:32.102951 34212 net.cpp:84] Creating Layer conv3_2
I1018 12:05:32.102960 34212 net.cpp:406] conv3_2 <- conv3_1
I1018 12:05:32.102975 34212 net.cpp:380] conv3_2 -> conv3_2
I1018 12:05:32.105587 34212 net.cpp:122] Setting up conv3_2
I1018 12:05:32.105604 34212 net.cpp:129] Top shape: 150 256 56 56 (120422400)
I1018 12:05:32.105609 34212 net.cpp:137] Memory required for data: 13818510600
I1018 12:05:32.105618 34212 layer_factory.hpp:77] Creating layer relu3_2
I1018 12:05:32.105630 34212 net.cpp:84] Creating Layer relu3_2
I1018 12:05:32.105636 34212 net.cpp:406] relu3_2 <- conv3_2
I1018 12:05:32.105645 34212 net.cpp:367] relu3_2 -> conv3_2 (in-place)
I1018 12:05:32.105654 34212 net.cpp:122] Setting up relu3_2
I1018 12:05:32.105660 34212 net.cpp:129] Top shape: 150 256 56 56 (120422400)
I1018 12:05:32.105665 34212 net.cpp:137] Memory required for data: 14300200200
I1018 12:05:32.105669 34212 layer_factory.hpp:77] Creating layer conv3_3
I1018 12:05:32.105679 34212 net.cpp:84] Creating Layer conv3_3
I1018 12:05:32.105684 34212 net.cpp:406] conv3_3 <- conv3_2
I1018 12:05:32.105693 34212 net.cpp:380] conv3_3 -> conv3_3
I1018 12:05:32.107753 34212 net.cpp:122] Setting up conv3_3
I1018 12:05:32.107769 34212 net.cpp:129] Top shape: 150 256 56 56 (120422400)
I1018 12:05:32.107775 34212 net.cpp:137] Memory required for data: 14781889800
I1018 12:05:32.107784 34212 layer_factory.hpp:77] Creating layer relu3_3
I1018 12:05:32.107803 34212 net.cpp:84] Creating Layer relu3_3
I1018 12:05:32.107808 34212 net.cpp:406] relu3_3 <- conv3_3
I1018 12:05:32.107817 34212 net.cpp:367] relu3_3 -> conv3_3 (in-place)
I1018 12:05:32.107826 34212 net.cpp:122] Setting up relu3_3
I1018 12:05:32.107832 34212 net.cpp:129] Top shape: 150 256 56 56 (120422400)
I1018 12:05:32.107837 34212 net.cpp:137] Memory required for data: 15263579400
I1018 12:05:32.107841 34212 layer_factory.hpp:77] Creating layer pool3
I1018 12:05:32.107851 34212 net.cpp:84] Creating Layer pool3
I1018 12:05:32.107856 34212 net.cpp:406] pool3 <- conv3_3
I1018 12:05:32.107864 34212 net.cpp:380] pool3 -> pool3
I1018 12:05:32.107910 34212 net.cpp:122] Setting up pool3
I1018 12:05:32.107918 34212 net.cpp:129] Top shape: 150 256 28 28 (30105600)
I1018 12:05:32.107923 34212 net.cpp:137] Memory required for data: 15384001800
I1018 12:05:32.107928 34212 layer_factory.hpp:77] Creating layer conv4_1
I1018 12:05:32.107939 34212 net.cpp:84] Creating Layer conv4_1
I1018 12:05:32.107944 34212 net.cpp:406] conv4_1 <- pool3
I1018 12:05:32.107954 34212 net.cpp:380] conv4_1 -> conv4_1
I1018 12:05:32.111455 34212 net.cpp:122] Setting up conv4_1
I1018 12:05:32.111474 34212 net.cpp:129] Top shape: 150 512 28 28 (60211200)
I1018 12:05:32.111485 34212 net.cpp:137] Memory required for data: 15624846600
I1018 12:05:32.111493 34212 layer_factory.hpp:77] Creating layer relu4_1
I1018 12:05:32.111505 34212 net.cpp:84] Creating Layer relu4_1
I1018 12:05:32.111510 34212 net.cpp:406] relu4_1 <- conv4_1
I1018 12:05:32.111519 34212 net.cpp:367] relu4_1 -> conv4_1 (in-place)
I1018 12:05:32.111528 34212 net.cpp:122] Setting up relu4_1
I1018 12:05:32.111534 34212 net.cpp:129] Top shape: 150 512 28 28 (60211200)
I1018 12:05:32.111539 34212 net.cpp:137] Memory required for data: 15865691400
I1018 12:05:32.111543 34212 layer_factory.hpp:77] Creating layer conv4_2
I1018 12:05:32.111554 34212 net.cpp:84] Creating Layer conv4_2
I1018 12:05:32.111559 34212 net.cpp:406] conv4_2 <- conv4_1
I1018 12:05:32.111567 34212 net.cpp:380] conv4_2 -> conv4_2
I1018 12:05:32.117950 34212 net.cpp:122] Setting up conv4_2
I1018 12:05:32.117969 34212 net.cpp:129] Top shape: 150 512 28 28 (60211200)
I1018 12:05:32.117974 34212 net.cpp:137] Memory required for data: 16106536200
I1018 12:05:32.117990 34212 layer_factory.hpp:77] Creating layer relu4_2
I1018 12:05:32.118000 34212 net.cpp:84] Creating Layer relu4_2
I1018 12:05:32.118006 34212 net.cpp:406] relu4_2 <- conv4_2
I1018 12:05:32.118015 34212 net.cpp:367] relu4_2 -> conv4_2 (in-place)
I1018 12:05:32.118023 34212 net.cpp:122] Setting up relu4_2
I1018 12:05:32.118031 34212 net.cpp:129] Top shape: 150 512 28 28 (60211200)
I1018 12:05:32.118034 34212 net.cpp:137] Memory required for data: 16347381000
I1018 12:05:32.118039 34212 layer_factory.hpp:77] Creating layer conv4_3
I1018 12:05:32.118049 34212 net.cpp:84] Creating Layer conv4_3
I1018 12:05:32.118054 34212 net.cpp:406] conv4_3 <- conv4_2
I1018 12:05:32.118062 34212 net.cpp:380] conv4_3 -> conv4_3
I1018 12:05:32.124264 34212 net.cpp:122] Setting up conv4_3
I1018 12:05:32.124292 34212 net.cpp:129] Top shape: 150 512 28 28 (60211200)
I1018 12:05:32.124297 34212 net.cpp:137] Memory required for data: 16588225800
I1018 12:05:32.124306 34212 layer_factory.hpp:77] Creating layer relu4_3
I1018 12:05:32.124316 34212 net.cpp:84] Creating Layer relu4_3
I1018 12:05:32.124322 34212 net.cpp:406] relu4_3 <- conv4_3
I1018 12:05:32.124331 34212 net.cpp:367] relu4_3 -> conv4_3 (in-place)
I1018 12:05:32.124341 34212 net.cpp:122] Setting up relu4_3
I1018 12:05:32.124346 34212 net.cpp:129] Top shape: 150 512 28 28 (60211200)
I1018 12:05:32.124351 34212 net.cpp:137] Memory required for data: 16829070600
I1018 12:05:32.124356 34212 layer_factory.hpp:77] Creating layer pool4
I1018 12:05:32.124363 34212 net.cpp:84] Creating Layer pool4
I1018 12:05:32.124369 34212 net.cpp:406] pool4 <- conv4_3
I1018 12:05:32.124377 34212 net.cpp:380] pool4 -> pool4
I1018 12:05:32.124423 34212 net.cpp:122] Setting up pool4
I1018 12:05:32.124431 34212 net.cpp:129] Top shape: 150 512 14 14 (15052800)
I1018 12:05:32.124435 34212 net.cpp:137] Memory required for data: 16889281800
I1018 12:05:32.124440 34212 layer_factory.hpp:77] Creating layer conv5_1
I1018 12:05:32.124450 34212 net.cpp:84] Creating Layer conv5_1
I1018 12:05:32.124455 34212 net.cpp:406] conv5_1 <- pool4
I1018 12:05:32.124464 34212 net.cpp:380] conv5_1 -> conv5_1
I1018 12:05:32.130753 34212 net.cpp:122] Setting up conv5_1
I1018 12:05:32.130771 34212 net.cpp:129] Top shape: 150 512 14 14 (15052800)
I1018 12:05:32.130776 34212 net.cpp:137] Memory required for data: 16949493000
I1018 12:05:32.130785 34212 layer_factory.hpp:77] Creating layer relu5_1
I1018 12:05:32.130795 34212 net.cpp:84] Creating Layer relu5_1
I1018 12:05:32.130800 34212 net.cpp:406] relu5_1 <- conv5_1
I1018 12:05:32.130808 34212 net.cpp:367] relu5_1 -> conv5_1 (in-place)
I1018 12:05:32.130817 34212 net.cpp:122] Setting up relu5_1
I1018 12:05:32.130823 34212 net.cpp:129] Top shape: 150 512 14 14 (15052800)
I1018 12:05:32.130828 34212 net.cpp:137] Memory required for data: 17009704200
I1018 12:05:32.130832 34212 layer_factory.hpp:77] Creating layer conv5_2
I1018 12:05:32.130841 34212 net.cpp:84] Creating Layer conv5_2
I1018 12:05:32.130846 34212 net.cpp:406] conv5_2 <- conv5_1
I1018 12:05:32.130856 34212 net.cpp:380] conv5_2 -> conv5_2
I1018 12:05:32.137171 34212 net.cpp:122] Setting up conv5_2
I1018 12:05:32.137188 34212 net.cpp:129] Top shape: 150 512 14 14 (15052800)
I1018 12:05:32.137193 34212 net.cpp:137] Memory required for data: 17069915400
I1018 12:05:32.137202 34212 layer_factory.hpp:77] Creating layer relu5_2
I1018 12:05:32.137221 34212 net.cpp:84] Creating Layer relu5_2
I1018 12:05:32.137228 34212 net.cpp:406] relu5_2 <- conv5_2
I1018 12:05:32.137236 34212 net.cpp:367] relu5_2 -> conv5_2 (in-place)
I1018 12:05:32.137245 34212 net.cpp:122] Setting up relu5_2
I1018 12:05:32.137251 34212 net.cpp:129] Top shape: 150 512 14 14 (15052800)
I1018 12:05:32.137256 34212 net.cpp:137] Memory required for data: 17130126600
I1018 12:05:32.137261 34212 layer_factory.hpp:77] Creating layer conv5_3
I1018 12:05:32.137272 34212 net.cpp:84] Creating Layer conv5_3
I1018 12:05:32.137277 34212 net.cpp:406] conv5_3 <- conv5_2
I1018 12:05:32.137284 34212 net.cpp:380] conv5_3 -> conv5_3
I1018 12:05:32.143493 34212 net.cpp:122] Setting up conv5_3
I1018 12:05:32.143512 34212 net.cpp:129] Top shape: 150 512 14 14 (15052800)
I1018 12:05:32.143517 34212 net.cpp:137] Memory required for data: 17190337800
I1018 12:05:32.143527 34212 layer_factory.hpp:77] Creating layer relu5_3
I1018 12:05:32.143535 34212 net.cpp:84] Creating Layer relu5_3
I1018 12:05:32.143541 34212 net.cpp:406] relu5_3 <- conv5_3
I1018 12:05:32.143549 34212 net.cpp:367] relu5_3 -> conv5_3 (in-place)
I1018 12:05:32.143558 34212 net.cpp:122] Setting up relu5_3
I1018 12:05:32.143564 34212 net.cpp:129] Top shape: 150 512 14 14 (15052800)
I1018 12:05:32.143569 34212 net.cpp:137] Memory required for data: 17250549000
I1018 12:05:32.143574 34212 layer_factory.hpp:77] Creating layer conv5_3_re
I1018 12:05:32.143587 34212 net.cpp:84] Creating Layer conv5_3_re
I1018 12:05:32.143592 34212 net.cpp:406] conv5_3_re <- conv5_3
I1018 12:05:32.143599 34212 net.cpp:380] conv5_3_re -> conv5_3_re
I1018 12:05:32.143645 34212 net.cpp:122] Setting up conv5_3_re
I1018 12:05:32.143653 34212 net.cpp:129] Top shape: 150 512 196 (15052800)
I1018 12:05:32.143658 34212 net.cpp:137] Memory required for data: 17310760200
I1018 12:05:32.143663 34212 layer_factory.hpp:77] Creating layer conv5_3_tran
I1018 12:05:32.143741 34212 net.cpp:84] Creating Layer conv5_3_tran
I1018 12:05:32.143757 34212 net.cpp:406] conv5_3_tran <- conv5_3_re
I1018 12:05:32.143769 34212 net.cpp:380] conv5_3_tran -> conv5_3_tran
I1018 12:05:32.179222 34212 net.cpp:122] Setting up conv5_3_tran
I1018 12:05:32.179266 34212 net.cpp:129] Top shape: 16 150 512 (1228800)
I1018 12:05:32.179273 34212 net.cpp:137] Memory required for data: 17315675400
I1018 12:05:32.179281 34212 layer_factory.hpp:77] Creating layer lstm1
I1018 12:05:32.179299 34212 net.cpp:84] Creating Layer lstm1
I1018 12:05:32.179308 34212 net.cpp:406] lstm1 <- conv5_3_tran
I1018 12:05:32.179321 34212 net.cpp:406] lstm1 <- clip_markers
I1018 12:05:32.179330 34212 net.cpp:380] lstm1 -> lstm1
I1018 12:05:32.179347 34212 recurrent_layer.cpp:20] Initializing recurrent layer: assuming input batch contains 16 timesteps of 150 independent streams.
I1018 12:05:32.180014 34212 net.cpp:51] Initializing net from parameters: 
layer {
  name: "lstm1_"
  type: "Input"
  top: "x"
  top: "cont"
  input_param {
    shape {
      dim: 16
      dim: 150
      dim: 512
    }
    shape {
      dim: 16
      dim: 150
    }
  }
}
layer {
  name: "lstm1_"
  type: "Input"
  top: "c_0"
  top: "h_0"
  input_param {
    shape {
      dim: 1
      dim: 150
      dim: 512
    }
    shape {
      dim: 1
      dim: 150
      dim: 512
    }
  }
}
layer {
  name: "lstm1_cont_slice"
  type: "Slice"
  bottom: "cont"
  top: "cont_1"
  top: "cont_2"
  top: "cont_3"
  top: "cont_4"
  top: "cont_5"
  top: "cont_6"
  top: "cont_7"
  top: "cont_8"
  top: "cont_9"
  top: "cont_10"
  top: "cont_11"
  top: "cont_12"
  top: "cont_13"
  top: "cont_14"
  top: "cont_15"
  top: "cont_16"
  slice_param {
    axis: 0
  }
}
layer {
  name: "lstm1_x_transform"
  type: "InnerProduct"
  bottom: "x"
  top: "W_xc_x"
  param {
    name: "W_xc"
  }
  param {
    name: "b_c"
  }
  propagate_down: true
  inner_product_param {
    num_output: 2048
    bias_term: true
    weight_filler {
      type: "uniform"
      min: -0.01
      max: 0.01
    }
    bias_filler {
      type: "constant"
      value: 0
    }
    axis: 2
  }
}
layer {
  name: "lstm1_W_xc_x_slice"
  type: "Slice"
  bottom: "W_xc_x"
  top: "W_xc_x_1"
  top: "W_xc_x_2"
  top: "W_xc_x_3"
  top: "W_xc_x_4"
  top: "W_xc_x_5"
  top: "W_xc_x_6"
  top: "W_xc_x_7"
  top: "W_xc_x_8"
  top: "W_xc_x_9"
  top: "W_xc_x_10"
  top: "W_xc_x_11"
  top: "W_xc_x_12"
  top: "W_xc_x_13"
  top: "W_xc_x_14"
  top: "W_xc_x_15"
  top: "W_xc_x_16"
  slice_param {
    axis: 0
  }
}
layer {
  name: "lstm1_h_conted_0"
  type: "Scale"
  bottom: "h_0"
  bottom: "cont_1"
  top: "h_conted_0"
  scale_param {
    axis: 0
  }
}
layer {
  name: "lstm1_transform_1"
  type: "InnerProduct"
  bottom: "h_conted_0"
  top: "W_hc_h_0"
  param {
    name: "W_hc"
  }
  inner_product_param {
    num_output: 2048
    bias_term: false
    weight_filler {
      type: "uniform"
      min: -0.01
      max: 0.01
    }
    axis: 2
  }
}
layer {
  name: "lstm1_gate_input_1"
  type: "Eltwise"
  bottom: "W_hc_h_0"
  bottom: "W_xc_x_1"
  top: "gate_input_1"
  eltwise_param {
    operation: SUM
  }
}
layer {
  name: "lstm1_unit_1"
  type: "LSTMUnit"
  bottom: "c_0"
  bottom: "gate_input_1"
  bottom: "cont_1"
  top: "c_1"
  top: "h_1"
}
layer {
  name: "lstm1_h_conted_1"
  type: "Scale"
  bottom: "h_1"
  bottom: "cont_2"
  top: "h_conted_1"
  scale_param {
    axis: 0
  }
}
layer {
  name: "lstm1_transform_2"
  type: "InnerProduct"
  bottom: "h_conted_1"
  top: "W_hc_h_1"
  param {
    name: "W_hc"
  }
  inner_product_param {
    num_output: 2048
    bias_term: false
    weight_filler {
      type: "uniform"
      min: -0.01
      max: 0.01
    }
    axis: 2
  }
}
layer {
  name: "lstm1_gate_input_2"
  type: "Eltwise"
  bottom: "W_hc_h_1"
  bottom: "W_xc_x_2"
  top: "gate_input_2"
  eltwise_param {
    operation: SUM
  }
}
layer {
  name: "lstm1_unit_2"
  type: "LSTMUnit"
  bottom: "c_1"
  bottom: "gate_input_2"
  bottom: "cont_2"
  top: "c_2"
  top: "h_2"
}
layer {
  name: "lstm1_h_conted_2"
  type: "Scale"
  bottom: "h_2"
  bottom: "cont_3"
  top: "h_conted_2"
  scale_param {
    axis: 0
  }
}
layer {
  name: "lstm1_transform_3"
  type: "InnerProduct"
  bottom: "h_conted_2"
  top: "W_hc_h_2"
  param {
    name: "W_hc"
  }
  inner_product_param {
    num_output: 2048
    bias_term: false
    weight_filler {
      type: "uniform"
      min: -0.01
      max: 0.01
    }
    axis: 2
  }
}
layer {
  name: "lstm1_gate_input_3"
  type: "Eltwise"
  bottom: "W_hc_h_2"
  bottom: "W_xc_x_3"
  top: "gate_input_3"
  eltwise_param {
    operation: SUM
  }
}
layer {
  name: "lstm1_unit_3"
  type: "LSTMUnit"
  bottom: "c_2"
  bottom: "gate_input_3"
  bottom: "cont_3"
  top: "c_3"
  top: "h_3"
}
layer {
  name: "lstm1_h_conted_3"
  type: "Scale"
  bottom: "h_3"
  bottom: "cont_4"
  top: "h_conted_3"
  scale_param {
    axis: 0
  }
}
layer {
  name: "lstm1_transform_4"
  type: "InnerProduct"
  bottom: "h_conted_3"
  top: "W_hc_h_3"
  param {
    name: "W_hc"
  }
  inner_product_param {
    num_output: 2048
    bias_term: false
    weight_filler {
      type: "uniform"
      min: -0.01
      max: 0.01
    }
    axis: 2
  }
}
layer {
  name: "lstm1_gate_input_4"
  type: "Eltwise"
  bottom: "W_hc_h_3"
  bottom: "W_xc_x_4"
  top: "gate_input_4"
  eltwise_param {
    operation: SUM
  }
}
layer {
  name: "lstm1_unit_4"
  type: "LSTMUnit"
  bottom: "c_3"
  bottom: "gate_input_4"
  bottom: "cont_4"
  top: "c_4"
  top: "h_4"
}
layer {
  name: "lstm1_h_conted_4"
  type: "Scale"
  bottom: "h_4"
  bottom: "cont_5"
  top: "h_conted_4"
  scale_param {
    axis: 0
  }
}
layer {
  name: "lstm1_transform_5"
  type: "InnerProduct"
  bottom: "h_conted_4"
  top: "W_hc_h_4"
  param {
    name: "W_hc"
  }
  inner_product_param {
    num_output: 2048
    bias_term: false
    weight_filler {
      type: "uniform"
      min: -0.01
      max: 0.01
    }
    axis: 2
  }
}
layer {
  name: "lstm1_gate_input_5"
  type: "Eltwise"
  bottom: "W_hc_h_4"
  bottom: "W_xc_x_5"
  top: "gate_input_5"
  eltwise_param {
    operation: SUM
  }
}
layer {
  name: "lstm1_unit_5"
  type: "LSTMUnit"
  bottom: "c_4"
  bottom: "gate_input_5"
  bottom: "cont_5"
  top: "c_5"
  top: "h_5"
}
layer {
  name: "lstm1_h_conted_5"
  type: "Scale"
  bottom: "h_5"
  bottom: "cont_6"
  top: "h_conted_5"
  scale_param {
    axis: 0
  }
}
layer {
  name: "lstm1_transform_6"
  type: "InnerProduct"
  bottom: "h_conted_5"
  top: "W_hc_h_5"
  param {
    name: "W_hc"
  }
  inner_product_param {
    num_output: 2048
    bias_term: false
    weight_filler {
      type: "uniform"
      min: -0.01
      max: 0.01
    }
    axis: 2
  }
}
layer {
  name: "lstm1_gate_input_6"
  type: "Eltwise"
  bottom: "W_hc_h_5"
  bottom: "W_xc_x_6"
  top: "gate_input_6"
  eltwise_param {
    operation: SUM
  }
}
layer {
  name: "lstm1_unit_6"
  type: "LSTMUnit"
  bottom: "c_5"
  bottom: "gate_input_6"
  bottom: "cont_6"
  top: "c_6"
  top: "h_6"
}
layer {
  name: "lstm1_h_conted_6"
  type: "Scale"
  bottom: "h_6"
  bottom: "cont_7"
  top: "h_conted_6"
  scale_param {
    axis: 0
  }
}
layer {
  name: "lstm1_transform_7"
  type: "InnerProduct"
  bottom: "h_conted_6"
  top: "W_hc_h_6"
  param {
    name: "W_hc"
  }
  inner_product_param {
    num_output: 2048
    bias_term: false
    weight_filler {
      type: "uniform"
      min: -0.01
      max: 0.01
    }
    axis: 2
  }
}
layer {
  name: "lstm1_gate_input_7"
  type: "Eltwise"
  bottom: "W_hc_h_6"
  bottom: "W_xc_x_7"
  top: "gate_input_7"
  eltwise_param {
    operation: SUM
  }
}
layer {
  name: "lstm1_unit_7"
  type: "LSTMUnit"
  bottom: "c_6"
  bottom: "gate_input_7"
  bottom: "cont_7"
  top: "c_7"
  top: "h_7"
}
layer {
  name: "lstm1_h_conted_7"
  type: "Scale"
  bottom: "h_7"
  bottom: "cont_8"
  top: "h_conted_7"
  scale_param {
    axis: 0
  }
}
layer {
  name: "lstm1_transform_8"
  type: "InnerProduct"
  bottom: "h_conted_7"
  top: "W_hc_h_7"
  param {
    name: "W_hc"
  }
  inner_product_param {
    num_output: 2048
    bias_term: false
    weight_filler {
      type: "uniform"
      min: -0.01
      max: 0.01
    }
    axis: 2
  }
}
layer {
  name: "lstm1_gate_input_8"
  type: "Eltwise"
  bottom: "W_hc_h_7"
  bottom: "W_xc_x_8"
  top: "gate_input_8"
  eltwise_param {
    operation: SUM
  }
}
layer {
  name: "lstm1_unit_8"
  type: "LSTMUnit"
  bottom: "c_7"
  bottom: "gate_input_8"
  bottom: "cont_8"
  top: "c_8"
  top: "h_8"
}
layer {
  name: "lstm1_h_conted_8"
  type: "Scale"
  bottom: "h_8"
  bottom: "cont_9"
  top: "h_conted_8"
  scale_param {
    axis: 0
  }
}
layer {
  name: "lstm1_transform_9"
  type: "InnerProduct"
  bottom: "h_conted_8"
  top: "W_hc_h_8"
  param {
    name: "W_hc"
  }
  inner_product_param {
    num_output: 2048
    bias_term: false
    weight_filler {
      type: "uniform"
      min: -0.01
      max: 0.01
    }
    axis: 2
  }
}
layer {
  name: "lstm1_gate_input_9"
  type: "Eltwise"
  bottom: "W_hc_h_8"
  bottom: "W_xc_x_9"
  top: "gate_input_9"
  eltwise_param {
    operation: SUM
  }
}
layer {
  name: "lstm1_unit_9"
  type: "LSTMUnit"
  bottom: "c_8"
  bottom: "gate_input_9"
  bottom: "cont_9"
  top: "c_9"
  top: "h_9"
}
layer {
  name: "lstm1_h_conted_9"
  type: "Scale"
  bottom: "h_9"
  bottom: "cont_10"
  top: "h_conted_9"
  scale_param {
    axis: 0
  }
}
layer {
  name: "lstm1_transform_10"
  type: "InnerProduct"
  bottom: "h_conted_9"
  top: "W_hc_h_9"
  param {
    name: "W_hc"
  }
  inner_product_param {
    num_output: 2048
    bias_term: false
    weight_filler {
      type: "uniform"
      min: -0.01
      max: 0.01
    }
    axis: 2
  }
}
layer {
  name: "lstm1_gate_input_10"
  type: "Eltwise"
  bottom: "W_hc_h_9"
  bottom: "W_xc_x_10"
  top: "gate_input_10"
  eltwise_param {
    operation: SUM
  }
}
layer {
  name: "lstm1_unit_10"
  type: "LSTMUnit"
  bottom: "c_9"
  bottom: "gate_input_10"
  bottom: "cont_10"
  top: "c_10"
  top: "h_10"
}
layer {
  name: "lstm1_h_conted_10"
  type: "Scale"
  bottom: "h_10"
  bottom: "cont_11"
  top: "h_conted_10"
  scale_param {
    axis: 0
  }
}
layer {
  name: "lstm1_transform_11"
  type: "InnerProduct"
  bottom: "h_conted_10"
  top: "W_hc_h_10"
  param {
    name: "W_hc"
  }
  inner_product_param {
    num_output: 2048
    bias_term: false
    weight_filler {
      type: "uniform"
      min: -0.01
      max: 0.01
    }
    axis: 2
  }
}
layer {
  name: "lstm1_gate_input_11"
  type: "Eltwise"
  bottom: "W_hc_h_10"
  bottom: "W_xc_x_11"
  top: "gate_input_11"
  eltwise_param {
    operation: SUM
  }
}
layer {
  name: "lstm1_unit_11"
  type: "LSTMUnit"
  bottom: "c_10"
  bottom: "gate_input_11"
  bottom: "cont_11"
  top: "c_11"
  top: "h_11"
}
layer {
  name: "lstm1_h_conted_11"
  type: "Scale"
  bottom: "h_11"
  bottom: "cont_12"
  top: "h_conted_11"
  scale_param {
    axis: 0
  }
}
layer {
  name: "lstm1_transform_12"
  type: "InnerProduct"
  bottom: "h_conted_11"
  top: "W_hc_h_11"
  param {
    name: "W_hc"
  }
  inner_product_param {
    num_output: 2048
    bias_term: false
    weight_filler {
      type: "uniform"
      min: -0.01
      max: 0.01
    }
    axis: 2
  }
}
layer {
  name: "lstm1_gate_input_12"
  type: "Eltwise"
  bottom: "W_hc_h_11"
  bottom: "W_xc_x_12"
  top: "gate_input_12"
  eltwise_param {
    operation: SUM
  }
}
layer {
  name: "lstm1_unit_12"
  type: "LSTMUnit"
  bottom: "c_11"
  bottom: "gate_input_12"
  bottom: "cont_12"
  top: "c_12"
  top: "h_12"
}
layer {
  name: "lstm1_h_conted_12"
  type: "Scale"
  bottom: "h_12"
  bottom: "cont_13"
  top: "h_conted_12"
  scale_param {
    axis: 0
  }
}
layer {
  name: "lstm1_transform_13"
  type: "InnerProduct"
  bottom: "h_conted_12"
  top: "W_hc_h_12"
  param {
    name: "W_hc"
  }
  inner_product_param {
    num_output: 2048
    bias_term: false
    weight_filler {
      type: "uniform"
      min: -0.01
      max: 0.01
    }
    axis: 2
  }
}
layer {
  name: "lstm1_gate_input_13"
  type: "Eltwise"
  bottom: "W_hc_h_12"
  bottom: "W_xc_x_13"
  top: "gate_input_13"
  eltwise_param {
    operation: SUM
  }
}
layer {
  name: "lstm1_unit_13"
  type: "LSTMUnit"
  bottom: "c_12"
  bottom: "gate_input_13"
  bottom: "cont_13"
  top: "c_13"
  top: "h_13"
}
layer {
  name: "lstm1_h_conted_13"
  type: "Scale"
  bottom: "h_13"
  bottom: "cont_14"
  top: "h_conted_13"
  scale_param {
    axis: 0
  }
}
layer {
  name: "lstm1_transform_14"
  type: "InnerProduct"
  bottom: "h_conted_13"
  top: "W_hc_h_13"
  param {
    name: "W_hc"
  }
  inner_product_param {
    num_output: 2048
    bias_term: false
    weight_filler {
      type: "uniform"
      min: -0.01
      max: 0.01
    }
    axis: 2
  }
}
layer {
  name: "lstm1_gate_input_14"
  type: "Eltwise"
  bottom: "W_hc_h_13"
  bottom: "W_xc_x_14"
  top: "gate_input_14"
  eltwise_param {
    operation: SUM
  }
}
layer {
  name: "lstm1_unit_14"
  type: "LSTMUnit"
  bottom: "c_13"
  bottom: "gate_input_14"
  bottom: "cont_14"
  top: "c_14"
  top: "h_14"
}
layer {
  name: "lstm1_h_conted_14"
  type: "Scale"
  bottom: "h_14"
  bottom: "cont_15"
  top: "h_conted_14"
  scale_param {
    axis: 0
  }
}
layer {
  name: "lstm1_transform_15"
  type: "InnerProduct"
  bottom: "h_conted_14"
  top: "W_hc_h_14"
  param {
    name: "W_hc"
  }
  inner_product_param {
    num_output: 2048
    bias_term: false
    weight_filler {
      type: "uniform"
      min: -0.01
      max: 0.01
    }
    axis: 2
  }
}
layer {
  name: "lstm1_gate_input_15"
  type: "Eltwise"
  bottom: "W_hc_h_14"
  bottom: "W_xc_x_15"
  top: "gate_input_15"
  eltwise_param {
    operation: SUM
  }
}
layer {
  name: "lstm1_unit_15"
  type: "LSTMUnit"
  bottom: "c_14"
  bottom: "gate_input_15"
…
I1018 12:05:32.223896 34212 net.cpp:406] lstm1_h_conted_2 <- h_2_lstm1_unit_2_1_split_0
I1018 12:05:32.223902 34212 net.cpp:406] lstm1_h_conted_2 <- cont_3_lstm1_cont_slice_2_split_0
I1018 12:05:32.223908 34212 net.cpp:380] lstm1_h_conted_2 -> h_conted_2
I1018 12:05:32.223974 34212 net.cpp:122] Setting up lstm1_h_conted_2
I1018 12:05:32.223999 34212 net.cpp:129] Top shape: 1 150 512 (76800)
I1018 12:05:32.224004 34212 net.cpp:137] Memory required for data: 53184000
I1018 12:05:32.224009 34212 layer_factory.hpp:77] Creating layer lstm1_transform_3
I1018 12:05:32.224021 34212 net.cpp:84] Creating Layer lstm1_transform_3
I1018 12:05:32.224042 34212 net.cpp:406] lstm1_transform_3 <- h_conted_2
I1018 12:05:32.224052 34212 net.cpp:380] lstm1_transform_3 -> W_hc_h_2
I1018 12:05:32.237210 34212 net.cpp:122] Setting up lstm1_transform_3
I1018 12:05:32.237237 34212 net.cpp:129] Top shape: 1 150 2048 (307200)
I1018 12:05:32.237243 34212 net.cpp:137] Memory required for data: 54412800
I1018 12:05:32.237256 34212 net.cpp:465] Sharing parameters 'W_hc' owned by layer 'lstm1_transform_1', param index 0
I1018 12:05:32.237263 34212 layer_factory.hpp:77] Creating layer lstm1_gate_input_3
I1018 12:05:32.237274 34212 net.cpp:84] Creating Layer lstm1_gate_input_3
I1018 12:05:32.237280 34212 net.cpp:406] lstm1_gate_input_3 <- W_hc_h_2
I1018 12:05:32.237289 34212 net.cpp:406] lstm1_gate_input_3 <- W_xc_x_3
I1018 12:05:32.237298 34212 net.cpp:380] lstm1_gate_input_3 -> gate_input_3
I1018 12:05:32.237342 34212 net.cpp:122] Setting up lstm1_gate_input_3
I1018 12:05:32.237350 34212 net.cpp:129] Top shape: 1 150 2048 (307200)
I1018 12:05:32.237354 34212 net.cpp:137] Memory required for data: 55641600
I1018 12:05:32.237360 34212 layer_factory.hpp:77] Creating layer lstm1_unit_3
I1018 12:05:32.237367 34212 net.cpp:84] Creating Layer lstm1_unit_3
I1018 12:05:32.237372 34212 net.cpp:406] lstm1_unit_3 <- c_2
I1018 12:05:32.237380 34212 net.cpp:406] lstm1_unit_3 <- gate_input_3
I1018 12:05:32.237385 34212 net.cpp:406] lstm1_unit_3 <- cont_3_lstm1_cont_slice_2_split_1
I1018 12:05:32.237392 34212 net.cpp:380] lstm1_unit_3 -> c_3
I1018 12:05:32.237401 34212 net.cpp:380] lstm1_unit_3 -> h_3
I1018 12:05:32.237455 34212 net.cpp:122] Setting up lstm1_unit_3
I1018 12:05:32.237463 34212 net.cpp:129] Top shape: 1 150 512 (76800)
I1018 12:05:32.237468 34212 net.cpp:129] Top shape: 1 150 512 (76800)
I1018 12:05:32.237473 34212 net.cpp:137] Memory required for data: 56256000
I1018 12:05:32.237478 34212 layer_factory.hpp:77] Creating layer h_3_lstm1_unit_3_1_split
I1018 12:05:32.237488 34212 net.cpp:84] Creating Layer h_3_lstm1_unit_3_1_split
I1018 12:05:32.237493 34212 net.cpp:406] h_3_lstm1_unit_3_1_split <- h_3
I1018 12:05:32.237499 34212 net.cpp:380] h_3_lstm1_unit_3_1_split -> h_3_lstm1_unit_3_1_split_0
I1018 12:05:32.237507 34212 net.cpp:380] h_3_lstm1_unit_3_1_split -> h_3_lstm1_unit_3_1_split_1
I1018 12:05:32.237550 34212 net.cpp:122] Setting up h_3_lstm1_unit_3_1_split
I1018 12:05:32.237556 34212 net.cpp:129] Top shape: 1 150 512 (76800)
I1018 12:05:32.237561 34212 net.cpp:129] Top shape: 1 150 512 (76800)
I1018 12:05:32.237566 34212 net.cpp:137] Memory required for data: 56870400
I1018 12:05:32.237571 34212 layer_factory.hpp:77] Creating layer lstm1_h_conted_3
I1018 12:05:32.237582 34212 net.cpp:84] Creating Layer lstm1_h_conted_3
I1018 12:05:32.237588 34212 net.cpp:406] lstm1_h_conted_3 <- h_3_lstm1_unit_3_1_split_0
I1018 12:05:32.237594 34212 net.cpp:406] lstm1_h_conted_3 <- cont_4_lstm1_cont_slice_3_split_0
I1018 12:05:32.237601 34212 net.cpp:380] lstm1_h_conted_3 -> h_conted_3
I1018 12:05:32.237679 34212 net.cpp:122] Setting up lstm1_h_conted_3
I1018 12:05:32.237689 34212 net.cpp:129] Top shape: 1 150 512 (76800)
I1018 12:05:32.237694 34212 net.cpp:137] Memory required for data: 57177600
I1018 12:05:32.237699 34212 layer_factory.hpp:77] Creating layer lstm1_transform_4
I1018 12:05:32.237710 34212 net.cpp:84] Creating Layer lstm1_transform_4
I1018 12:05:32.237716 34212 net.cpp:406] lstm1_transform_4 <- h_conted_3
I1018 12:05:32.237723 34212 net.cpp:380] lstm1_transform_4 -> W_hc_h_3
I1018 12:05:32.250933 34212 net.cpp:122] Setting up lstm1_transform_4
I1018 12:05:32.250952 34212 net.cpp:129] Top shape: 1 150 2048 (307200)
I1018 12:05:32.250957 34212 net.cpp:137] Memory required for data: 58406400
I1018 12:05:32.250963 34212 net.cpp:465] Sharing parameters 'W_hc' owned by layer 'lstm1_transform_1', param index 0
I1018 12:05:32.250970 34212 layer_factory.hpp:77] Creating layer lstm1_gate_input_4
I1018 12:05:32.250979 34212 net.cpp:84] Creating Layer lstm1_gate_input_4
I1018 12:05:32.250985 34212 net.cpp:406] lstm1_gate_input_4 <- W_hc_h_3
I1018 12:05:32.250993 34212 net.cpp:406] lstm1_gate_input_4 <- W_xc_x_4
I1018 12:05:32.251000 34212 net.cpp:380] lstm1_gate_input_4 -> gate_input_4
I1018 12:05:32.251031 34212 net.cpp:122] Setting up lstm1_gate_input_4
I1018 12:05:32.251041 34212 net.cpp:129] Top shape: 1 150 2048 (307200)
I1018 12:05:32.251045 34212 net.cpp:137] Memory required for data: 59635200
I1018 12:05:32.251050 34212 layer_factory.hpp:77] Creating layer lstm1_unit_4
I1018 12:05:32.251060 34212 net.cpp:84] Creating Layer lstm1_unit_4
I1018 12:05:32.251068 34212 net.cpp:406] lstm1_unit_4 <- c_3
I1018 12:05:32.251075 34212 net.cpp:406] lstm1_unit_4 <- gate_input_4
I1018 12:05:32.251080 34212 net.cpp:406] lstm1_unit_4 <- cont_4_lstm1_cont_slice_3_split_1
I1018 12:05:32.251087 34212 net.cpp:380] lstm1_unit_4 -> c_4
I1018 12:05:32.251096 34212 net.cpp:380] lstm1_unit_4 -> h_4
I1018 12:05:32.251147 34212 net.cpp:122] Setting up lstm1_unit_4
I1018 12:05:32.251157 34212 net.cpp:129] Top shape: 1 150 512 (76800)
I1018 12:05:32.251163 34212 net.cpp:129] Top shape: 1 150 512 (76800)
I1018 12:05:32.251168 34212 net.cpp:137] Memory required for data: 60249600
I1018 12:05:32.251173 34212 layer_factory.hpp:77] Creating layer h_4_lstm1_unit_4_1_split
I1018 12:05:32.251178 34212 net.cpp:84] Creating Layer h_4_lstm1_unit_4_1_split
I1018 12:05:32.251183 34212 net.cpp:406] h_4_lstm1_unit_4_1_split <- h_4
I1018 12:05:32.251193 34212 net.cpp:380] h_4_lstm1_unit_4_1_split -> h_4_lstm1_unit_4_1_split_0
I1018 12:05:32.251205 34212 net.cpp:380] h_4_lstm1_unit_4_1_split -> h_4_lstm1_unit_4_1_split_1
I1018 12:05:32.251241 34212 net.cpp:122] Setting up h_4_lstm1_unit_4_1_split
I1018 12:05:32.251252 34212 net.cpp:129] Top shape: 1 150 512 (76800)
I1018 12:05:32.251258 34212 net.cpp:129] Top shape: 1 150 512 (76800)
I1018 12:05:32.251263 34212 net.cpp:137] Memory required for data: 60864000
I1018 12:05:32.251268 34212 layer_factory.hpp:77] Creating layer lstm1_h_conted_4
I1018 12:05:32.251276 34212 net.cpp:84] Creating Layer lstm1_h_conted_4
I1018 12:05:32.251281 34212 net.cpp:406] lstm1_h_conted_4 <- h_4_lstm1_unit_4_1_split_0
I1018 12:05:32.251288 34212 net.cpp:406] lstm1_h_conted_4 <- cont_5_lstm1_cont_slice_4_split_0
I1018 12:05:32.251297 34212 net.cpp:380] lstm1_h_conted_4 -> h_conted_4
I1018 12:05:32.251374 34212 net.cpp:122] Setting up lstm1_h_conted_4
I1018 12:05:32.251384 34212 net.cpp:129] Top shape: 1 150 512 (76800)
I1018 12:05:32.251389 34212 net.cpp:137] Memory required for data: 61171200
I1018 12:05:32.251392 34212 layer_factory.hpp:77] Creating layer lstm1_transform_5
I1018 12:05:32.251401 34212 net.cpp:84] Creating Layer lstm1_transform_5
I1018 12:05:32.251407 34212 net.cpp:406] lstm1_transform_5 <- h_conted_4
I1018 12:05:32.251417 34212 net.cpp:380] lstm1_transform_5 -> W_hc_h_4
I1018 12:05:32.264569 34212 net.cpp:122] Setting up lstm1_transform_5
I1018 12:05:32.264587 34212 net.cpp:129] Top shape: 1 150 2048 (307200)
I1018 12:05:32.264592 34212 net.cpp:137] Memory required for data: 62400000
I1018 12:05:32.264598 34212 net.cpp:465] Sharing parameters 'W_hc' owned by layer 'lstm1_transform_1', param index 0
I1018 12:05:32.264605 34212 layer_factory.hpp:77] Creating layer lstm1_gate_input_5
I1018 12:05:32.264612 34212 net.cpp:84] Creating Layer lstm1_gate_input_5
I1018 12:05:32.264618 34212 net.cpp:406] lstm1_gate_input_5 <- W_hc_h_4
I1018 12:05:32.264626 34212 net.cpp:406] lstm1_gate_input_5 <- W_xc_x_5
I1018 12:05:32.264632 34212 net.cpp:380] lstm1_gate_input_5 -> gate_input_5
I1018 12:05:32.264663 34212 net.cpp:122] Setting up lstm1_gate_input_5
I1018 12:05:32.264670 34212 net.cpp:129] Top shape: 1 150 2048 (307200)
I1018 12:05:32.264674 34212 net.cpp:137] Memory required for data: 63628800
I1018 12:05:32.264679 34212 layer_factory.hpp:77] Creating layer lstm1_unit_5
I1018 12:05:32.264689 34212 net.cpp:84] Creating Layer lstm1_unit_5
I1018 12:05:32.264694 34212 net.cpp:406] lstm1_unit_5 <- c_4
I1018 12:05:32.264701 34212 net.cpp:406] lstm1_unit_5 <- gate_input_5
I1018 12:05:32.264708 34212 net.cpp:406] lstm1_unit_5 <- cont_5_lstm1_cont_slice_4_split_1
I1018 12:05:32.264714 34212 net.cpp:380] lstm1_unit_5 -> c_5
I1018 12:05:32.264721 34212 net.cpp:380] lstm1_unit_5 -> h_5
I1018 12:05:32.264773 34212 net.cpp:122] Setting up lstm1_unit_5
I1018 12:05:32.264780 34212 net.cpp:129] Top shape: 1 150 512 (76800)
I1018 12:05:32.264786 34212 net.cpp:129] Top shape: 1 150 512 (76800)
I1018 12:05:32.264791 34212 net.cpp:137] Memory required for data: 64243200
I1018 12:05:32.264796 34212 layer_factory.hpp:77] Creating layer h_5_lstm1_unit_5_1_split
I1018 12:05:32.264802 34212 net.cpp:84] Creating Layer h_5_lstm1_unit_5_1_split
I1018 12:05:32.264806 34212 net.cpp:406] h_5_lstm1_unit_5_1_split <- h_5
I1018 12:05:32.264816 34212 net.cpp:380] h_5_lstm1_unit_5_1_split -> h_5_lstm1_unit_5_1_split_0
I1018 12:05:32.264823 34212 net.cpp:380] h_5_lstm1_unit_5_1_split -> h_5_lstm1_unit_5_1_split_1
I1018 12:05:32.264859 34212 net.cpp:122] Setting up h_5_lstm1_unit_5_1_split
I1018 12:05:32.264866 34212 net.cpp:129] Top shape: 1 150 512 (76800)
I1018 12:05:32.264871 34212 net.cpp:129] Top shape: 1 150 512 (76800)
I1018 12:05:32.264876 34212 net.cpp:137] Memory required for data: 64857600
I1018 12:05:32.264880 34212 layer_factory.hpp:77] Creating layer lstm1_h_conted_5
I1018 12:05:32.264890 34212 net.cpp:84] Creating Layer lstm1_h_conted_5
I1018 12:05:32.264896 34212 net.cpp:406] lstm1_h_conted_5 <- h_5_lstm1_unit_5_1_split_0
I1018 12:05:32.264902 34212 net.cpp:406] lstm1_h_conted_5 <- cont_6_lstm1_cont_slice_5_split_0
I1018 12:05:32.264909 34212 net.cpp:380] lstm1_h_conted_5 -> h_conted_5
I1018 12:05:32.264982 34212 net.cpp:122] Setting up lstm1_h_conted_5
I1018 12:05:32.264997 34212 net.cpp:129] Top shape: 1 150 512 (76800)
I1018 12:05:32.265002 34212 net.cpp:137] Memory required for data: 65164800
I1018 12:05:32.265007 34212 layer_factory.hpp:77] Creating layer lstm1_transform_6
I1018 12:05:32.265017 34212 net.cpp:84] Creating Layer lstm1_transform_6
I1018 12:05:32.265022 34212 net.cpp:406] lstm1_transform_6 <- h_conted_5
I1018 12:05:32.265030 34212 net.cpp:380] lstm1_transform_6 -> W_hc_h_5
I1018 12:05:32.278228 34212 net.cpp:122] Setting up lstm1_transform_6
I1018 12:05:32.278245 34212 net.cpp:129] Top shape: 1 150 2048 (307200)
I1018 12:05:32.278250 34212 net.cpp:137] Memory required for data: 66393600
I1018 12:05:32.278256 34212 net.cpp:465] Sharing parameters 'W_hc' owned by layer 'lstm1_transform_1', param index 0
I1018 12:05:32.278262 34212 layer_factory.hpp:77] Creating layer lstm1_gate_input_6
I1018 12:05:32.278273 34212 net.cpp:84] Creating Layer lstm1_gate_input_6
I1018 12:05:32.278280 34212 net.cpp:406] lstm1_gate_input_6 <- W_hc_h_5
I1018 12:05:32.278286 34212 net.cpp:406] lstm1_gate_input_6 <- W_xc_x_6
I1018 12:05:32.278293 34212 net.cpp:380] lstm1_gate_input_6 -> gate_input_6
I1018 12:05:32.278324 34212 net.cpp:122] Setting up lstm1_gate_input_6
I1018 12:05:32.278331 34212 net.cpp:129] Top shape: 1 150 2048 (307200)
I1018 12:05:32.278336 34212 net.cpp:137] Memory required for data: 67622400
I1018 12:05:32.278340 34212 layer_factory.hpp:77] Creating layer lstm1_unit_6
I1018 12:05:32.278347 34212 net.cpp:84] Creating Layer lstm1_unit_6
I1018 12:05:32.278352 34212 net.cpp:406] lstm1_unit_6 <- c_5
I1018 12:05:32.278358 34212 net.cpp:406] lstm1_unit_6 <- gate_input_6
I1018 12:05:32.278364 34212 net.cpp:406] lstm1_unit_6 <- cont_6_lstm1_cont_slice_5_split_1
I1018 12:05:32.278373 34212 net.cpp:380] lstm1_unit_6 -> c_6
I1018 12:05:32.278381 34212 net.cpp:380] lstm1_unit_6 -> h_6
I1018 12:05:32.278434 34212 net.cpp:122] Setting up lstm1_unit_6
I1018 12:05:32.278441 34212 net.cpp:129] Top shape: 1 150 512 (76800)
I1018 12:05:32.278447 34212 net.cpp:129] Top shape: 1 150 512 (76800)
I1018 12:05:32.278452 34212 net.cpp:137] Memory required for data: 68236800
I1018 12:05:32.278456 34212 layer_factory.hpp:77] Creating layer h_6_lstm1_unit_6_1_split
I1018 12:05:32.278463 34212 net.cpp:84] Creating Layer h_6_lstm1_unit_6_1_split
I1018 12:05:32.278468 34212 net.cpp:406] h_6_lstm1_unit_6_1_split <- h_6
I1018 12:05:32.278475 34212 net.cpp:380] h_6_lstm1_unit_6_1_split -> h_6_lstm1_unit_6_1_split_0
I1018 12:05:32.278482 34212 net.cpp:380] h_6_lstm1_unit_6_1_split -> h_6_lstm1_unit_6_1_split_1
I1018 12:05:32.278520 34212 net.cpp:122] Setting up h_6_lstm1_unit_6_1_split
I1018 12:05:32.278528 34212 net.cpp:129] Top shape: 1 150 512 (76800)
I1018 12:05:32.278533 34212 net.cpp:129] Top shape: 1 150 512 (76800)
I1018 12:05:32.278538 34212 net.cpp:137] Memory required for data: 68851200
I1018 12:05:32.278542 34212 layer_factory.hpp:77] Creating layer lstm1_h_conted_6
I1018 12:05:32.278553 34212 net.cpp:84] Creating Layer lstm1_h_conted_6
I1018 12:05:32.278558 34212 net.cpp:406] lstm1_h_conted_6 <- h_6_lstm1_unit_6_1_split_0
I1018 12:05:32.278564 34212 net.cpp:406] lstm1_h_conted_6 <- cont_7_lstm1_cont_slice_6_split_0
I1018 12:05:32.278571 34212 net.cpp:380] lstm1_h_conted_6 -> h_conted_6
I1018 12:05:32.278640 34212 net.cpp:122] Setting up lstm1_h_conted_6
I1018 12:05:32.278666 34212 net.cpp:129] Top shape: 1 150 512 (76800)
I1018 12:05:32.278669 34212 net.cpp:137] Memory required for data: 69158400
I1018 12:05:32.278674 34212 layer_factory.hpp:77] Creating layer lstm1_transform_7
I1018 12:05:32.278684 34212 net.cpp:84] Creating Layer lstm1_transform_7
I1018 12:05:32.278690 34212 net.cpp:406] lstm1_transform_7 <- h_conted_6
I1018 12:05:32.278698 34212 net.cpp:380] lstm1_transform_7 -> W_hc_h_6
I1018 12:05:32.291837 34212 net.cpp:122] Setting up lstm1_transform_7
I1018 12:05:32.291853 34212 net.cpp:129] Top shape: 1 150 2048 (307200)
I1018 12:05:32.291858 34212 net.cpp:137] Memory required for data: 70387200
I1018 12:05:32.291868 34212 net.cpp:465] Sharing parameters 'W_hc' owned by layer 'lstm1_transform_1', param index 0
I1018 12:05:32.291874 34212 layer_factory.hpp:77] Creating layer lstm1_gate_input_7
I1018 12:05:32.291887 34212 net.cpp:84] Creating Layer lstm1_gate_input_7
I1018 12:05:32.291893 34212 net.cpp:406] lstm1_gate_input_7 <- W_hc_h_6
I1018 12:05:32.291899 34212 net.cpp:406] lstm1_gate_input_7 <- W_xc_x_7
I1018 12:05:32.291906 34212 net.cpp:380] lstm1_gate_input_7 -> gate_input_7
I1018 12:05:32.291937 34212 net.cpp:122] Setting up lstm1_gate_input_7
I1018 12:05:32.291944 34212 net.cpp:129] Top shape: 1 150 2048 (307200)
I1018 12:05:32.291949 34212 net.cpp:137] Memory required for data: 71616000
I1018 12:05:32.291954 34212 layer_factory.hpp:77] Creating layer lstm1_unit_7
I1018 12:05:32.291961 34212 net.cpp:84] Creating Layer lstm1_unit_7
I1018 12:05:32.291966 34212 net.cpp:406] lstm1_unit_7 <- c_6
I1018 12:05:32.291972 34212 net.cpp:406] lstm1_unit_7 <- gate_input_7
I1018 12:05:32.291978 34212 net.cpp:406] lstm1_unit_7 <- cont_7_lstm1_cont_slice_6_split_1
I1018 12:05:32.291987 34212 net.cpp:380] lstm1_unit_7 -> c_7
I1018 12:05:32.291996 34212 net.cpp:380] lstm1_unit_7 -> h_7
I1018 12:05:32.292055 34212 net.cpp:122] Setting up lstm1_unit_7
I1018 12:05:32.292064 34212 net.cpp:129] Top shape: 1 150 512 (76800)
I1018 12:05:32.292069 34212 net.cpp:129] Top shape: 1 150 512 (76800)
I1018 12:05:32.292076 34212 net.cpp:137] Memory required for data: 72230400
I1018 12:05:32.292081 34212 layer_factory.hpp:77] Creating layer h_7_lstm1_unit_7_1_split
I1018 12:05:32.292088 34212 net.cpp:84] Creating Layer h_7_lstm1_unit_7_1_split
I1018 12:05:32.292093 34212 net.cpp:406] h_7_lstm1_unit_7_1_split <- h_7
I1018 12:05:32.292099 34212 net.cpp:380] h_7_lstm1_unit_7_1_split -> h_7_lstm1_unit_7_1_split_0
I1018 12:05:32.292106 34212 net.cpp:380] h_7_lstm1_unit_7_1_split -> h_7_lstm1_unit_7_1_split_1
I1018 12:05:32.292160 34212 net.cpp:122] Setting up h_7_lstm1_unit_7_1_split
I1018 12:05:32.292170 34212 net.cpp:129] Top shape: 1 150 512 (76800)
I1018 12:05:32.292174 34212 net.cpp:129] Top shape: 1 150 512 (76800)
I1018 12:05:32.292179 34212 net.cpp:137] Memory required for data: 72844800
I1018 12:05:32.292184 34212 layer_factory.hpp:77] Creating layer lstm1_h_conted_7
I1018 12:05:32.292192 34212 net.cpp:84] Creating Layer lstm1_h_conted_7
I1018 12:05:32.292197 34212 net.cpp:406] lstm1_h_conted_7 <- h_7_lstm1_unit_7_1_split_0
I1018 12:05:32.292204 34212 net.cpp:406] lstm1_h_conted_7 <- cont_8_lstm1_cont_slice_7_split_0
I1018 12:05:32.292213 34212 net.cpp:380] lstm1_h_conted_7 -> h_conted_7
I1018 12:05:32.292281 34212 net.cpp:122] Setting up lstm1_h_conted_7
I1018 12:05:32.292289 34212 net.cpp:129] Top shape: 1 150 512 (76800)
I1018 12:05:32.292294 34212 net.cpp:137] Memory required for data: 73152000
I1018 12:05:32.292299 34212 layer_factory.hpp:77] Creating layer lstm1_transform_8
I1018 12:05:32.292306 34212 net.cpp:84] Creating Layer lstm1_transform_8
I1018 12:05:32.292312 34212 net.cpp:406] lstm1_transform_8 <- h_conted_7
I1018 12:05:32.292321 34212 net.cpp:380] lstm1_transform_8 -> W_hc_h_7
I1018 12:05:32.305433 34212 net.cpp:122] Setting up lstm1_transform_8
I1018 12:05:32.305449 34212 net.cpp:129] Top shape: 1 150 2048 (307200)
I1018 12:05:32.305454 34212 net.cpp:137] Memory required for data: 74380800
I1018 12:05:32.305459 34212 net.cpp:465] Sharing parameters 'W_hc' owned by layer 'lstm1_transform_1', param index 0
I1018 12:05:32.305465 34212 layer_factory.hpp:77] Creating layer lstm1_gate_input_8
I1018 12:05:32.305474 34212 net.cpp:84] Creating Layer lstm1_gate_input_8
I1018 12:05:32.305480 34212 net.cpp:406] lstm1_gate_input_8 <- W_hc_h_7
I1018 12:05:32.305486 34212 net.cpp:406] lstm1_gate_input_8 <- W_xc_x_8
I1018 12:05:32.305496 34212 net.cpp:380] lstm1_gate_input_8 -> gate_input_8
I1018 12:05:32.305527 34212 net.cpp:122] Setting up lstm1_gate_input_8
I1018 12:05:32.305534 34212 net.cpp:129] Top shape: 1 150 2048 (307200)
I1018 12:05:32.305538 34212 net.cpp:137] Memory required for data: 75609600
I1018 12:05:32.305543 34212 layer_factory.hpp:77] Creating layer lstm1_unit_8
I1018 12:05:32.305550 34212 net.cpp:84] Creating Layer lstm1_unit_8
I1018 12:05:32.305555 34212 net.cpp:406] lstm1_unit_8 <- c_7
I1018 12:05:32.305562 34212 net.cpp:406] lstm1_unit_8 <- gate_input_8
I1018 12:05:32.305574 34212 net.cpp:406] lstm1_unit_8 <- cont_8_lstm1_cont_slice_7_split_1
I1018 12:05:32.305580 34212 net.cpp:380] lstm1_unit_8 -> c_8
I1018 12:05:32.305588 34212 net.cpp:380] lstm1_unit_8 -> h_8
I1018 12:05:32.305641 34212 net.cpp:122] Setting up lstm1_unit_8
I1018 12:05:32.305649 34212 net.cpp:129] Top shape: 1 150 512 (76800)
I1018 12:05:32.305655 34212 net.cpp:129] Top shape: 1 150 512 (76800)
I1018 12:05:32.305660 34212 net.cpp:137] Memory required for data: 76224000
I1018 12:05:32.305663 34212 layer_factory.hpp:77] Creating layer h_8_lstm1_unit_8_1_split
I1018 12:05:32.305670 34212 net.cpp:84] Creating Layer h_8_lstm1_unit_8_1_split
I1018 12:05:32.305675 34212 net.cpp:406] h_8_lstm1_unit_8_1_split <- h_8
I1018 12:05:32.305681 34212 net.cpp:380] h_8_lstm1_unit_8_1_split -> h_8_lstm1_unit_8_1_split_0
I1018 12:05:32.305690 34212 net.cpp:380] h_8_lstm1_unit_8_1_split -> h_8_lstm1_unit_8_1_split_1
I1018 12:05:32.305727 34212 net.cpp:122] Setting up h_8_lstm1_unit_8_1_split
I1018 12:05:32.305735 34212 net.cpp:129] Top shape: 1 150 512 (76800)
I1018 12:05:32.305740 34212 net.cpp:129] Top shape: 1 150 512 (76800)
I1018 12:05:32.305745 34212 net.cpp:137] Memory required for data: 76838400
I1018 12:05:32.305749 34212 layer_factory.hpp:77] Creating layer lstm1_h_conted_8
I1018 12:05:32.305757 34212 net.cpp:84] Creating Layer lstm1_h_conted_8
I1018 12:05:32.305763 34212 net.cpp:406] lstm1_h_conted_8 <- h_8_lstm1_unit_8_1_split_0
I1018 12:05:32.305768 34212 net.cpp:406] lstm1_h_conted_8 <- cont_9_lstm1_cont_slice_8_split_0
I1018 12:05:32.305775 34212 net.cpp:380] lstm1_h_conted_8 -> h_conted_8
I1018 12:05:32.305841 34212 net.cpp:122] Setting up lstm1_h_conted_8
I1018 12:05:32.305850 34212 net.cpp:129] Top shape: 1 150 512 (76800)
I1018 12:05:32.305853 34212 net.cpp:137] Memory required for data: 77145600
I1018 12:05:32.305858 34212 layer_factory.hpp:77] Creating layer lstm1_transform_9
I1018 12:05:32.305866 34212 net.cpp:84] Creating Layer lstm1_transform_9
I1018 12:05:32.305871 34212 net.cpp:406] lstm1_transform_9 <- h_conted_8
I1018 12:05:32.305887 34212 net.cpp:380] lstm1_transform_9 -> W_hc_h_8
I1018 12:05:32.317893 34212 net.cpp:122] Setting up lstm1_transform_9
I1018 12:05:32.317909 34212 net.cpp:129] Top shape: 1 150 2048 (307200)
I1018 12:05:32.317912 34212 net.cpp:137] Memory required for data: 78374400
I1018 12:05:32.317919 34212 net.cpp:465] Sharing parameters 'W_hc' owned by layer 'lstm1_transform_1', param index 0
I1018 12:05:32.317922 34212 layer_factory.hpp:77] Creating layer lstm1_gate_input_9
I1018 12:05:32.317930 34212 net.cpp:84] Creating Layer lstm1_gate_input_9
I1018 12:05:32.317935 34212 net.cpp:406] lstm1_gate_input_9 <- W_hc_h_8
I1018 12:05:32.317941 34212 net.cpp:406] lstm1_gate_input_9 <- W_xc_x_9
I1018 12:05:32.317948 34212 net.cpp:380] lstm1_gate_input_9 -> gate_input_9
I1018 12:05:32.317986 34212 net.cpp:122] Setting up lstm1_gate_input_9
I1018 12:05:32.317992 34212 net.cpp:129] Top shape: 1 150 2048 (307200)
I1018 12:05:32.317996 34212 net.cpp:137] Memory required for data: 79603200
I1018 12:05:32.318001 34212 layer_factory.hpp:77] Creating layer lstm1_unit_9
I1018 12:05:32.318017 34212 net.cpp:84] Creating Layer lstm1_unit_9
I1018 12:05:32.318022 34212 net.cpp:406] lstm1_unit_9 <- c_8
I1018 12:05:32.318029 34212 net.cpp:406] lstm1_unit_9 <- gate_input_9
I1018 12:05:32.318034 34212 net.cpp:406] lstm1_unit_9 <- cont_9_lstm1_cont_slice_8_split_1
I1018 12:05:32.318042 34212 net.cpp:380] lstm1_unit_9 -> c_9
I1018 12:05:32.318064 34212 net.cpp:380] lstm1_unit_9 -> h_9
I1018 12:05:32.318114 34212 net.cpp:122] Setting up lstm1_unit_9
I1018 12:05:32.318123 34212 net.cpp:129] Top shape: 1 150 512 (76800)
I1018 12:05:32.318128 34212 net.cpp:129] Top shape: 1 150 512 (76800)
I1018 12:05:32.318132 34212 net.cpp:137] Memory required for data: 80217600
I1018 12:05:32.318137 34212 layer_factory.hpp:77] Creating layer h_9_lstm1_unit_9_1_split
I1018 12:05:32.318143 34212 net.cpp:84] Creating Layer h_9_lstm1_unit_9_1_split
I1018 12:05:32.318147 34212 net.cpp:406] h_9_lstm1_unit_9_1_split <- h_9
I1018 12:05:32.318153 34212 net.cpp:380] h_9_lstm1_unit_9_1_split -> h_9_lstm1_unit_9_1_split_0
I1018 12:05:32.318161 34212 net.cpp:380] h_9_lstm1_unit_9_1_split -> h_9_lstm1_unit_9_1_split_1
I1018 12:05:32.318197 34212 net.cpp:122] Setting up h_9_lstm1_unit_9_1_split
I1018 12:05:32.318202 34212 net.cpp:129] Top shape: 1 150 512 (76800)
I1018 12:05:32.318207 34212 net.cpp:129] Top shape: 1 150 512 (76800)
I1018 12:05:32.318212 34212 net.cpp:137] Memory required for data: 80832000
I1018 12:05:32.318215 34212 layer_factory.hpp:77] Creating layer lstm1_h_conted_9
I1018 12:05:32.318222 34212 net.cpp:84] Creating Layer lstm1_h_conted_9
I1018 12:05:32.318228 34212 net.cpp:406] lstm1_h_conted_9 <- h_9_lstm1_unit_9_1_split_0
I1018 12:05:32.318233 34212 net.cpp:406] lstm1_h_conted_9 <- cont_10_lstm1_cont_slice_9_split_0
I1018 12:05:32.318241 34212 net.cpp:380] lstm1_h_conted_9 -> h_conted_9
I1018 12:05:32.318300 34212 net.cpp:122] Setting up lstm1_h_conted_9
I1018 12:05:32.318307 34212 net.cpp:129] Top shape: 1 150 512 (76800)
I1018 12:05:32.318311 34212 net.cpp:137] Memory required for data: 81139200
I1018 12:05:32.318315 34212 layer_factory.hpp:77] Creating layer lstm1_transform_10
I1018 12:05:32.318323 34212 net.cpp:84] Creating Layer lstm1_transform_10
I1018 12:05:32.318327 34212 net.cpp:406] lstm1_transform_10 <- h_conted_9
I1018 12:05:32.318336 34212 net.cpp:380] lstm1_transform_10 -> W_hc_h_9
I1018 12:05:32.329514 34212 net.cpp:122] Setting up lstm1_transform_10
I1018 12:05:32.329526 34212 net.cpp:129] Top shape: 1 150 2048 (307200)
I1018 12:05:32.329542 34212 net.cpp:137] Memory required for data: 82368000
I1018 12:05:32.329547 34212 net.cpp:465] Sharing parameters 'W_hc' owned by layer 'lstm1_transform_1', param index 0
I1018 12:05:32.329551 34212 layer_factory.hpp:77] Creating layer lstm1_gate_input_10
I1018 12:05:32.329560 34212 net.cpp:84] Creating Layer lstm1_gate_input_10
I1018 12:05:32.329563 34212 net.cpp:406] lstm1_gate_input_10 <- W_hc_h_9
I1018 12:05:32.329569 34212 net.cpp:406] lstm1_gate_input_10 <- W_xc_x_10
I1018 12:05:32.329577 34212 net.cpp:380] lstm1_gate_input_10 -> gate_input_10
I1018 12:05:32.329617 34212 net.cpp:122] Setting up lstm1_gate_input_10
I1018 12:05:32.329622 34212 net.cpp:129] Top shape: 1 150 2048 (307200)
I1018 12:05:32.329627 34212 net.cpp:137] Memory required for data: 83596800
I1018 12:05:32.329630 34212 layer_factory.hpp:77] Creating layer lstm1_unit_10
I1018 12:05:32.329637 34212 net.cpp:84] Creating Layer lstm1_unit_10
I1018 12:05:32.329653 34212 net.cpp:406] lstm1_unit_10 <- c_9
I1018 12:05:32.329658 34212 net.cpp:406] lstm1_unit_10 <- gate_input_10
I1018 12:05:32.329664 34212 net.cpp:406] lstm1_unit_10 <- cont_10_lstm1_cont_slice_9_split_1
I1018 12:05:32.329670 34212 net.cpp:380] lstm1_unit_10 -> c_10
I1018 12:05:32.329677 34212 net.cpp:380] lstm1_unit_10 -> h_10
I1018 12:05:32.329725 34212 net.cpp:122] Setting up lstm1_unit_10
I1018 12:05:32.329732 34212 net.cpp:129] Top shape: 1 150 512 (76800)
I1018 12:05:32.329737 34212 net.cpp:129] Top shape: 1 150 512 (76800)
I1018 12:05:32.329741 34212 net.cpp:137] Memory required for data: 84211200
I1018 12:05:32.329746 34212 layer_factory.hpp:77] Creating layer h_10_lstm1_unit_10_1_split
I1018 12:05:32.329751 34212 net.cpp:84] Creating Layer h_10_lstm1_unit_10_1_split
I1018 12:05:32.329756 34212 net.cpp:406] h_10_lstm1_unit_10_1_split <- h_10
I1018 12:05:32.329761 34212 net.cpp:380] h_10_lstm1_unit_10_1_split -> h_10_lstm1_unit_10_1_split_0
I1018 12:05:32.329768 34212 net.cpp:380] h_10_lstm1_unit_10_1_split -> h_10_lstm1_unit_10_1_split_1
I1018 12:05:32.329803 34212 net.cpp:122] Setting up h_10_lstm1_unit_10_1_split
I1018 12:05:32.329810 34212 net.cpp:129] Top shape: 1 150 512 (76800)
I1018 12:05:32.329814 34212 net.cpp:129] Top shape: 1 150 512 (76800)
I1018 12:05:32.329818 34212 net.cpp:137] Memory required for data: 84825600
I1018 12:05:32.329823 34212 layer_factory.hpp:77] Creating layer lstm1_h_conted_10
I1018 12:05:32.329829 34212 net.cpp:84] Creating Layer lstm1_h_conted_10
I1018 12:05:32.329834 34212 net.cpp:406] lstm1_h_conted_10 <- h_10_lstm1_unit_10_1_split_0
I1018 12:05:32.329840 34212 net.cpp:406] lstm1_h_conted_10 <- cont_11_lstm1_cont_slice_10_split_0
I1018 12:05:32.329846 34212 net.cpp:380] lstm1_h_conted_10 -> h_conted_10
I1018 12:05:32.329906 34212 net.cpp:122] Setting up lstm1_h_conted_10
I1018 12:05:32.329913 34212 net.cpp:129] Top shape: 1 150 512 (76800)
I1018 12:05:32.329917 34212 net.cpp:137] Memory required for data: 85132800
I1018 12:05:32.329921 34212 layer_factory.hpp:77] Creating layer lstm1_transform_11
I1018 12:05:32.329928 34212 net.cpp:84] Creating Layer lstm1_transform_11
I1018 12:05:32.329933 34212 net.cpp:406] lstm1_transform_11 <- h_conted_10
I1018 12:05:32.329941 34212 net.cpp:380] lstm1_transform_11 -> W_hc_h_10
I1018 12:05:32.341148 34212 net.cpp:122] Setting up lstm1_transform_11
I1018 12:05:32.341161 34212 net.cpp:129] Top shape: 1 150 2048 (307200)
I1018 12:05:32.341176 34212 net.cpp:137] Memory required for data: 86361600
I1018 12:05:32.341181 34212 net.cpp:465] Sharing parameters 'W_hc' owned by layer 'lstm1_transform_1', param index 0
I1018 12:05:32.341187 34212 layer_factory.hpp:77] Creating layer lstm1_gate_input_11
I1018 12:05:32.341192 34212 net.cpp:84] Creating Layer lstm1_gate_input_11
I1018 12:05:32.341197 34212 net.cpp:406] lstm1_gate_input_11 <- W_hc_h_10
I1018 12:05:32.341203 34212 net.cpp:406] lstm1_gate_input_11 <- W_xc_x_11
I1018 12:05:32.341209 34212 net.cpp:380] lstm1_gate_input_11 -> gate_input_11
I1018 12:05:32.341249 34212 net.cpp:122] Setting up lstm1_gate_input_11
I1018 12:05:32.341256 34212 net.cpp:129] Top shape: 1 150 2048 (307200)
I1018 12:05:32.341260 34212 net.cpp:137] Memory required for data: 87590400
I1018 12:05:32.341264 34212 layer_factory.hpp:77] Creating layer lstm1_unit_11
I1018 12:05:32.341270 34212 net.cpp:84] Creating Layer lstm1_unit_11
I1018 12:05:32.341286 34212 net.cpp:406] lstm1_unit_11 <- c_10
I1018 12:05:32.341292 34212 net.cpp:406] lstm1_unit_11 <- gate_input_11
I1018 12:05:32.341297 34212 net.cpp:406] lstm1_unit_11 <- cont_11_lstm1_cont_slice_10_split_1
I1018 12:05:32.341303 34212 net.cpp:380] lstm1_unit_11 -> c_11
I1018 12:05:32.341310 34212 net.cpp:380] lstm1_unit_11 -> h_11
I1018 12:05:32.341357 34212 net.cpp:122] Setting up lstm1_unit_11
I1018 12:05:32.341364 34212 net.cpp:129] Top shape: 1 150 512 (76800)
I1018 12:05:32.341369 34212 net.cpp:129] Top shape: 1 150 512 (76800)
I1018 12:05:32.341373 34212 net.cpp:137] Memory required for data: 88204800
I1018 12:05:32.341377 34212 layer_factory.hpp:77] Creating layer h_11_lstm1_unit_11_1_split
I1018 12:05:32.341385 34212 net.cpp:84] Creating Layer h_11_lstm1_unit_11_1_split
I1018 12:05:32.341390 34212 net.cpp:406] h_11_lstm1_unit_11_1_split <- h_11
I1018 12:05:32.341397 34212 net.cpp:380] h_11_lstm1_unit_11_1_split -> h_11_lstm1_unit_11_1_split_0
I1018 12:05:32.341403 34212 net.cpp:380] h_11_lstm1_unit_11_1_split -> h_11_lstm1_unit_11_1_split_1
I1018 12:05:32.341436 34212 net.cpp:122] Setting up h_11_lstm1_unit_11_1_split
I1018 12:05:32.341444 34212 net.cpp:129] Top shape: 1 150 512 (76800)
I1018 12:05:32.341449 34212 net.cpp:129] Top shape: 1 150 512 (76800)
I1018 12:05:32.341452 34212 net.cpp:137] Memory required for data: 88819200
I1018 12:05:32.341456 34212 layer_factory.hpp:77] Creating layer lstm1_h_conted_11
I1018 12:05:32.341464 34212 net.cpp:84] Creating Layer lstm1_h_conted_11
I1018 12:05:32.341470 34212 net.cpp:406] lstm1_h_conted_11 <- h_11_lstm1_unit_11_1_split_0
I1018 12:05:32.341475 34212 net.cpp:406] lstm1_h_conted_11 <- cont_12_lstm1_cont_slice_11_split_0
I1018 12:05:32.341481 34212 net.cpp:380] lstm1_h_conted_11 -> h_conted_11
I1018 12:05:32.341539 34212 net.cpp:122] Setting up lstm1_h_conted_11
I1018 12:05:32.341547 34212 net.cpp:129] Top shape: 1 150 512 (76800)
I1018 12:05:32.341550 34212 net.cpp:137] Memory required for data: 89126400
I1018 12:05:32.341554 34212 layer_factory.hpp:77] Creating layer lstm1_transform_12
I1018 12:05:32.341593 34212 net.cpp:84] Creating Layer lstm1_transform_12
I1018 12:05:32.341599 34212 net.cpp:406] lstm1_transform_12 <- h_conted_11
I1018 12:05:32.341606 34212 net.cpp:380] lstm1_transform_12 -> W_hc_h_11
I1018 12:05:32.352741 34212 net.cpp:122] Setting up lstm1_transform_12
I1018 12:05:32.352756 34212 net.cpp:129] Top shape: 1 150 2048 (307200)
I1018 12:05:32.352771 34212 net.cpp:137] Memory required for data: 90355200
I1018 12:05:32.352776 34212 net.cpp:465] Sharing parameters 'W_hc' owned by layer 'lstm1_transform_1', param index 0
I1018 12:05:32.352780 34212 layer_factory.hpp:77] Creating layer lstm1_gate_input_12
I1018 12:05:32.352789 34212 net.cpp:84] Creating Layer lstm1_gate_input_12
I1018 12:05:32.352794 34212 net.cpp:406] lstm1_gate_input_12 <- W_hc_h_11
I1018 12:05:32.352800 34212 net.cpp:406] lstm1_gate_input_12 <- W_xc_x_12
I1018 12:05:32.352807 34212 net.cpp:380] lstm1_gate_input_12 -> gate_input_12
I1018 12:05:32.352838 34212 net.cpp:122] Setting up lstm1_gate_input_12
I1018 12:05:32.352845 34212 net.cpp:129] Top shape: 1 150 2048 (307200)
I1018 12:05:32.352849 34212 net.cpp:137] Memory required for data: 91584000
I1018 12:05:32.352865 34212 layer_factory.hpp:77] Creating layer lstm1_unit_12
I1018 12:05:32.352872 34212 net.cpp:84] Creating Layer lstm1_unit_12
I1018 12:05:32.352876 34212 net.cpp:406] lstm1_unit_12 <- c_11
I1018 12:05:32.352882 34212 net.cpp:406] lstm1_unit_12 <- gate_input_12
I1018 12:05:32.352887 34212 net.cpp:406] lstm1_unit_12 <- cont_12_lstm1_cont_slice_11_split_1
I1018 12:05:32.352893 34212 net.cpp:380] lstm1_unit_12 -> c_12
I1018 12:05:32.352900 34212 net.cpp:380] lstm1_unit_12 -> h_12
I1018 12:05:32.352948 34212 net.cpp:122] Setting up lstm1_unit_12
I1018 12:05:32.352955 34212 net.cpp:129] Top shape: 1 150 512 (76800)
I1018 12:05:32.352960 34212 net.cpp:129] Top shape: 1 150 512 (76800)
I1018 12:05:32.352963 34212 net.cpp:137] Memory required for data: 92198400
I1018 12:05:32.352968 34212 layer_factory.hpp:77] Creating layer h_12_lstm1_unit_12_1_split
I1018 12:05:32.352975 34212 net.cpp:84] Creating Layer h_12_lstm1_unit_12_1_split
I1018 12:05:32.352980 34212 net.cpp:406] h_12_lstm1_unit_12_1_split <- h_12
I1018 12:05:32.352986 34212 net.cpp:380] h_12_lstm1_unit_12_1_split -> h_12_lstm1_unit_12_1_split_0
I1018 12:05:32.352993 34212 net.cpp:380] h_12_lstm1_unit_12_1_split -> h_12_lstm1_unit_12_1_split_1
I1018 12:05:32.353029 34212 net.cpp:122] Setting up h_12_lstm1_unit_12_1_split
I1018 12:05:32.353034 34212 net.cpp:129] Top shape: 1 150 512 (76800)
I1018 12:05:32.353039 34212 net.cpp:129] Top shape: 1 150 512 (76800)
I1018 12:05:32.353044 34212 net.cpp:137] Memory required for data: 92812800
I1018 12:05:32.353047 34212 layer_factory.hpp:77] Creating layer lstm1_h_conted_12
I1018 12:05:32.353054 34212 net.cpp:84] Creating Layer lstm1_h_conted_12
I1018 12:05:32.353058 34212 net.cpp:406] lstm1_h_conted_12 <- h_12_lstm1_unit_12_1_split_0
I1018 12:05:32.353065 34212 net.cpp:406] lstm1_h_conted_12 <- cont_13_lstm1_cont_slice_12_split_0
I1018 12:05:32.353072 34212 net.cpp:380] lstm1_h_conted_12 -> h_conted_12
I1018 12:05:32.353133 34212 net.cpp:122] Setting up lstm1_h_conted_12
I1018 12:05:32.353140 34212 net.cpp:129] Top shape: 1 150 512 (76800)
I1018 12:05:32.353144 34212 net.cpp:137] Memory required for data: 93120000
I1018 12:05:32.353148 34212 layer_factory.hpp:77] Creating layer lstm1_transform_13
I1018 12:05:32.353155 34212 net.cpp:84] Creating Layer lstm1_transform_13
I1018 12:05:32.353160 34212 net.cpp:406] lstm1_transform_13 <- h_conted_12
I1018 12:05:32.353168 34212 net.cpp:380] lstm1_transform_13 -> W_hc_h_12
I1018 12:05:32.364156 34212 net.cpp:122] Setting up lstm1_transform_13
I1018 12:05:32.364169 34212 net.cpp:129] Top shape: 1 150 2048 (307200)
I1018 12:05:32.364174 34212 net.cpp:137] Memory required for data: 94348800
I1018 12:05:32.364179 34212 net.cpp:465] Sharing parameters 'W_hc' owned by layer 'lstm1_transform_1', param index 0
I1018 12:05:32.364184 34212 layer_factory.hpp:77] Creating layer lstm1_gate_input_13
I1018 12:05:32.364192 34212 net.cpp:84] Creating Layer lstm1_gate_input_13
I1018 12:05:32.364197 34212 net.cpp:406] lstm1_gate_input_13 <- W_hc_h_12
I1018 12:05:32.364203 34212 net.cpp:406] lstm1_gate_input_13 <- W_xc_x_13
I1018 12:05:32.364210 34212 net.cpp:380] lstm1_gate_input_13 -> gate_input_13
I1018 12:05:32.364238 34212 net.cpp:122] Setting up lstm1_gate_input_13
I1018 12:05:32.364244 34212 net.cpp:129] Top shape: 1 150 2048 (307200)
I1018 12:05:32.364248 34212 net.cpp:137] Memory required for data: 95577600
I1018 12:05:32.364253 34212 layer_factory.hpp:77] Creating layer lstm1_unit_13
I1018 12:05:32.364261 34212 net.cpp:84] Creating Layer lstm1_unit_13
I1018 12:05:32.364266 34212 net.cpp:406] lstm1_unit_13 <- c_12
I1018 12:05:32.364272 34212 net.cpp:406] lstm1_unit_13 <- gate_input_13
I1018 12:05:32.364277 34212 net.cpp:406] lstm1_unit_13 <- cont_13_lstm1_cont_slice_12_split_1
I1018 12:05:32.364284 34212 net.cpp:380] lstm1_unit_13 -> c_13
I1018 12:05:32.364290 34212 net.cpp:380] lstm1_unit_13 -> h_13
I1018 12:05:32.364342 34212 net.cpp:122] Setting up lstm1_unit_13
I1018 12:05:32.364348 34212 net.cpp:129] Top shape: 1 150 512 (76800)
I1018 12:05:32.364353 34212 net.cpp:129] Top shape: 1 150 512 (76800)
I1018 12:05:32.364357 34212 net.cpp:137] Memory required for data: 96192000
I1018 12:05:32.364362 34212 layer_factory.hpp:77] Creating layer h_13_lstm1_unit_13_1_split
I1018 12:05:32.364367 34212 net.cpp:84] Creating Layer h_13_lstm1_unit_13_1_split
I1018 12:05:32.364372 34212 net.cpp:406] h_13_lstm1_unit_13_1_split <- h_13
I1018 12:05:32.364380 34212 net.cpp:380] h_13_lstm1_unit_13_1_split -> h_13_lstm1_unit_13_1_split_0
I1018 12:05:32.364387 34212 net.cpp:380] h_13_lstm1_unit_13_1_split -> h_13_lstm1_unit_13_1_split_1
I1018 12:05:32.364420 34212 net.cpp:122] Setting up h_13_lstm1_unit_13_1_split
I1018 12:05:32.364426 34212 net.cpp:129] Top shape: 1 150 512 (76800)
I1018 12:05:32.364431 34212 net.cpp:129] Top shape: 1 150 512 (76800)
I1018 12:05:32.364435 34212 net.cpp:137] Memory required for data: 96806400
I1018 12:05:32.364439 34212 layer_factory.hpp:77] Creating layer lstm1_h_conted_13
I1018 12:05:32.364449 34212 net.cpp:84] Creating Layer lstm1_h_conted_13
I1018 12:05:32.364454 34212 net.cpp:406] lstm1_h_conted_13 <- h_13_lstm1_unit_13_1_split_0
I1018 12:05:32.364459 34212 net.cpp:406] lstm1_h_conted_13 <- cont_14_lstm1_cont_slice_13_split_0
I1018 12:05:32.364465 34212 net.cpp:380] lstm1_h_conted_13 -> h_conted_13
I1018 12:05:32.364524 34212 net.cpp:122] Setting up lstm1_h_conted_13
I1018 12:05:32.364531 34212 net.cpp:129] Top shape: 1 150 512 (76800)
I1018 12:05:32.364536 34212 net.cpp:137] Memory required for data: 97113600
I1018 12:05:32.364540 34212 layer_factory.hpp:77] Creating layer lstm1_transform_14
I1018 12:05:32.364549 34212 net.cpp:84] Creating Layer lstm1_transform_14
I1018 12:05:32.364554 34212 net.cpp:406] lstm1_transform_14 <- h_conted_13
I1018 12:05:32.364562 34212 net.cpp:380] lstm1_transform_14 -> W_hc_h_13
I1018 12:05:32.375320 34212 net.cpp:122] Setting up lstm1_transform_14
I1018 12:05:32.375334 34212 net.cpp:129] Top shape: 1 150 2048 (307200)
I1018 12:05:32.375349 34212 net.cpp:137] Memory required for data: 98342400
I1018 12:05:32.375355 34212 net.cpp:465] Sharing parameters 'W_hc' owned by layer 'lstm1_transform_1', param index 0
I1018 12:05:32.375358 34212 layer_factory.hpp:77] Creating layer lstm1_gate_input_14
I1018 12:05:32.375368 34212 net.cpp:84] Creating Layer lstm1_gate_input_14
I1018 12:05:32.375373 34212 net.cpp:406] lstm1_gate_input_14 <- W_hc_h_13
I1018 12:05:32.375378 34212 net.cpp:406] lstm1_gate_input_14 <- W_xc_x_14
I1018 12:05:32.375385 34212 net.cpp:380] lstm1_gate_input_14 -> gate_input_14
I1018 12:05:32.375411 34212 net.cpp:122] Setting up lstm1_gate_input_14
I1018 12:05:32.375417 34212 net.cpp:129] Top shape: 1 150 2048 (307200)
I1018 12:05:32.375421 34212 net.cpp:137] Memory required for data: 99571200
I1018 12:05:32.375424 34212 layer_factory.hpp:77] Creating layer lstm1_unit_14
I1018 12:05:32.375430 34212 net.cpp:84] Creating Layer lstm1_unit_14
I1018 12:05:32.375434 34212 net.cpp:406] lstm1_unit_14 <- c_13
I1018 12:05:32.375452 34212 net.cpp:406] lstm1_unit_14 <- gate_input_14
I1018 12:05:32.375457 34212 net.cpp:406] lstm1_unit_14 <- cont_14_lstm1_cont_slice_13_split_1
I1018 12:05:32.375464 34212 net.cpp:380] lstm1_unit_14 -> c_14
I1018 12:05:32.375471 34212 net.cpp:380] lstm1_unit_14 -> h_14
I1018 12:05:32.375519 34212 net.cpp:122] Setting up lstm1_unit_14
I1018 12:05:32.375524 34212 net.cpp:129] Top shape: 1 150 512 (76800)
I1018 12:05:32.375530 34212 net.cpp:129] Top shape: 1 150 512 (76800)
I1018 12:05:32.375533 34212 net.cpp:137] Memory required for data: 100185600
I1018 12:05:32.375537 34212 layer_factory.hpp:77] Creating layer h_14_lstm1_unit_14_1_split
I1018 12:05:32.375543 34212 net.cpp:84] Creating Layer h_14_lstm1_unit_14_1_split
I1018 12:05:32.375547 34212 net.cpp:406] h_14_lstm1_unit_14_1_split <- h_14
I1018 12:05:32.375552 34212 net.cpp:380] h_14_lstm1_unit_14_1_split -> h_14_lstm1_unit_14_1_split_0
I1018 12:05:32.375560 34212 net.cpp:380] h_14_lstm1_unit_14_1_split -> h_14_lstm1_unit_14_1_split_1
I1018 12:05:32.375592 34212 net.cpp:122] Setting up h_14_lstm1_unit_14_1_split
I1018 12:05:32.375598 34212 net.cpp:129] Top shape: 1 150 512 (76800)
I1018 12:05:32.375603 34212 net.cpp:129] Top shape: 1 150 512 (76800)
I1018 12:05:32.375607 34212 net.cpp:137] Memory required for data: 100800000
I1018 12:05:32.375610 34212 layer_factory.hpp:77] Creating layer lstm1_h_conted_14
I1018 12:05:32.375618 34212 net.cpp:84] Creating Layer lstm1_h_conted_14
I1018 12:05:32.375623 34212 net.cpp:406] lstm1_h_conted_14 <- h_14_lstm1_unit_14_1_split_0
I1018 12:05:32.375629 34212 net.cpp:406] lstm1_h_conted_14 <- cont_15_lstm1_cont_slice_14_split_0
I1018 12:05:32.375635 34212 net.cpp:380] lstm1_h_conted_14 -> h_conted_14
I1018 12:05:32.375706 34212 net.cpp:122] Setting up lstm1_h_conted_14
I1018 12:05:32.375712 34212 net.cpp:129] Top shape: 1 150 512 (76800)
I1018 12:05:32.375716 34212 net.cpp:137] Memory required for data: 101107200
I1018 12:05:32.375720 34212 layer_factory.hpp:77] Creating layer lstm1_transform_15
I1018 12:05:32.375730 34212 net.cpp:84] Creating Layer lstm1_transform_15
I1018 12:05:32.375735 34212 net.cpp:406] lstm1_transform_15 <- h_conted_14
I1018 12:05:32.375741 34212 net.cpp:380] lstm1_transform_15 -> W_hc_h_14
I1018 12:05:32.386795 34212 net.cpp:122] Setting up lstm1_transform_15
I1018 12:05:32.386808 34212 net.cpp:129] Top shape: 1 150 2048 (307200)
I1018 12:05:32.386823 34212 net.cpp:137] Memory required for data: 102336000
I1018 12:05:32.386832 34212 net.cpp:465] Sharing parameters 'W_hc' owned by layer 'lstm1_transform_1', param index 0
I1018 12:05:32.386837 34212 layer_factory.hpp:77] Creating layer lstm1_gate_input_15
I1018 12:05:32.386847 34212 net.cpp:84] Creating Layer lstm1_gate_input_15
I1018 12:05:32.386852 34212 net.cpp:406] lstm1_gate_input_15 <- W_hc_h_14
I1018 12:05:32.386858 34212 net.cpp:406] lstm1_gate_input_15 <- W_xc_x_15
I1018 12:05:32.386875 34212 net.cpp:380] lstm1_gate_input_15 -> gate_input_15
I1018 12:05:32.386904 34212 net.cpp:122] Setting up lstm1_gate_input_15
I1018 12:05:32.386910 34212 net.cpp:129] Top shape: 1 150 2048 (307200)
I1018 12:05:32.386926 34212 net.cpp:137] Memory required for data: 103564800
I1018 12:05:32.386930 34212 layer_factory.hpp:77] Creating layer lstm1_unit_15
I1018 12:05:32.386936 34212 net.cpp:84] Creating Layer lstm1_unit_15
I1018 12:05:32.386941 34212 net.cpp:406] lstm1_unit_15 <- c_14
I1018 12:05:32.386946 34212 net.cpp:406] lstm1_unit_15 <- gate_input_15
I1018 12:05:32.386952 34212 net.cpp:406] lstm1_unit_15 <- cont_15_lstm1_cont_slice_14_split_1
I1018 12:05:32.386962 34212 net.cpp:380] lstm1_unit_15 -> c_15
I1018 12:05:32.386970 34212 net.cpp:380] lstm1_unit_15 -> h_15
I1018 12:05:32.387017 34212 net.cpp:122] Setting up lstm1_unit_15
I1018 12:05:32.387024 34212 net.cpp:129] Top shape: 1 150 512 (76800)
I1018 12:05:32.387029 34212 net.cpp:129] Top shape: 1 150 512 (76800)
I1018 12:05:32.387033 34212 net.cpp:137] Memory required for data: 104179200
I1018 12:05:32.387037 34212 layer_factory.hpp:77] Creating layer h_15_lstm1_unit_15_1_split
I1018 12:05:32.387043 34212 net.cpp:84] Creating Layer h_15_lstm1_unit_15_1_split
I1018 12:05:32.387048 34212 net.cpp:406] h_15_lstm1_unit_15_1_split <- h_15
I1018 12:05:32.387053 34212 net.cpp:380] h_15_lstm1_unit_15_1_split -> h_15_lstm1_unit_15_1_split_0
I1018 12:05:32.387059 34212 net.cpp:380] h_15_lstm1_unit_15_1_split -> h_15_lstm1_unit_15_1_split_1
I1018 12:05:32.387094 34212 net.cpp:122] Setting up h_15_lstm1_unit_15_1_split
I1018 12:05:32.387101 34212 net.cpp:129] Top shape: 1 150 512 (76800)
I1018 12:05:32.387106 34212 net.cpp:129] Top shape: 1 150 512 (76800)
I1018 12:05:32.387109 34212 net.cpp:137] Memory required for data: 104793600
I1018 12:05:32.387114 34212 layer_factory.hpp:77] Creating layer lstm1_h_conted_15
I1018 12:05:32.387122 34212 net.cpp:84] Creating Layer lstm1_h_conted_15
I1018 12:05:32.387127 34212 net.cpp:406] lstm1_h_conted_15 <- h_15_lstm1_unit_15_1_split_0
I1018 12:05:32.387133 34212 net.cpp:406] lstm1_h_conted_15 <- cont_16_lstm1_cont_slice_15_split_0
I1018 12:05:32.387140 34212 net.cpp:380] lstm1_h_conted_15 -> h_conted_15
I1018 12:05:32.387199 34212 net.cpp:122] Setting up lstm1_h_conted_15
I1018 12:05:32.387207 34212 net.cpp:129] Top shape: 1 150 512 (76800)
I1018 12:05:32.387210 34212 net.cpp:137] Memory required for data: 105100800
I1018 12:05:32.387214 34212 layer_factory.hpp:77] Creating layer lstm1_transform_16
I1018 12:05:32.387224 34212 net.cpp:84] Creating Layer lstm1_transform_16
I1018 12:05:32.387228 34212 net.cpp:406] lstm1_transform_16 <- h_conted_15
I1018 12:05:32.387235 34212 net.cpp:380] lstm1_transform_16 -> W_hc_h_15
I1018 12:05:32.398238 34212 net.cpp:122] Setting up lstm1_transform_16
I1018 12:05:32.398254 34212 net.cpp:129] Top shape: 1 150 2048 (307200)
I1018 12:05:32.398259 34212 net.cpp:137] Memory required for data: 106329600
I1018 12:05:32.398264 34212 net.cpp:465] Sharing parameters 'W_hc' owned by layer 'lstm1_transform_1', param index 0
I1018 12:05:32.398269 34212 layer_factory.hpp:77] Creating layer lstm1_gate_input_16
I1018 12:05:32.398278 34212 net.cpp:84] Creating Layer lstm1_gate_input_16
I1018 12:05:32.398284 34212 net.cpp:406] lstm1_gate_input_16 <- W_hc_h_15
I1018 12:05:32.398291 34212 net.cpp:406] lstm1_gate_input_16 <- W_xc_x_16
I1018 12:05:32.398298 34212 net.cpp:380] lstm1_gate_input_16 -> gate_input_16
I1018 12:05:32.398325 34212 net.cpp:122] Setting up lstm1_gate_input_16
I1018 12:05:32.398334 34212 net.cpp:129] Top shape: 1 150 2048 (307200)
I1018 12:05:32.398339 34212 net.cpp:137] Memory required for data: 107558400
I1018 12:05:32.398342 34212 layer_factory.hpp:77] Creating layer lstm1_unit_16
I1018 12:05:32.398349 34212 net.cpp:84] Creating Layer lstm1_unit_16
I1018 12:05:32.398353 34212 net.cpp:406] lstm1_unit_16 <- c_15
I1018 12:05:32.398358 34212 net.cpp:406] lstm1_unit_16 <- gate_input_16
I1018 12:05:32.398366 34212 net.cpp:406] lstm1_unit_16 <- cont_16_lstm1_cont_slice_15_split_1
I1018 12:05:32.398375 34212 net.cpp:380] lstm1_unit_16 -> c_16
I1018 12:05:32.398383 34212 net.cpp:380] lstm1_unit_16 -> h_16
I1018 12:05:32.398432 34212 net.cpp:122] Setting up lstm1_unit_16
I1018 12:05:32.398442 34212 net.cpp:129] Top shape: 1 150 512 (76800)
I1018 12:05:32.398447 34212 net.cpp:129] Top shape: 1 150 512 (76800)
I1018 12:05:32.398450 34212 net.cpp:137] Memory required for data: 108172800
I1018 12:05:32.398454 34212 layer_factory.hpp:77] Creating layer lstm1_
I1018 12:05:32.398460 34212 net.cpp:84] Creating Layer lstm1_
I1018 12:05:32.398464 34212 net.cpp:406] lstm1_ <- c_16
I1018 12:05:32.398471 34212 net.cpp:380] lstm1_ -> c_T
I1018 12:05:32.398499 34212 net.cpp:122] Setting up lstm1_
I1018 12:05:32.398505 34212 net.cpp:129] Top shape: 1 150 512 (76800)
I1018 12:05:32.398509 34212 net.cpp:137] Memory required for data: 108480000
I1018 12:05:32.398514 34212 layer_factory.hpp:77] Creating layer lstm1_h_concat
I1018 12:05:32.398522 34212 net.cpp:84] Creating Layer lstm1_h_concat
I1018 12:05:32.398526 34212 net.cpp:406] lstm1_h_concat <- h_1_lstm1_unit_1_1_split_1
I1018 12:05:32.398532 34212 net.cpp:406] lstm1_h_concat <- h_2_lstm1_unit_2_1_split_1
…
I1018 12:05:32.402160 34212 net.cpp:200] lstm1_ does not need backward computation.
I1018 12:05:32.402164 34212 net.cpp:242] This network produces output c_T
I1018 12:05:32.402169 34212 net.cpp:242] This network produces output h_pseudoloss
I1018 12:05:32.414098 34212 net.cpp:255] Network initialization done.
I1018 12:05:32.414294 34212 recurrent_layer.cpp:150] Adding parameter 0: W_xc
I1018 12:05:32.414304 34212 recurrent_layer.cpp:150] Adding parameter 1: b_c
I1018 12:05:32.414309 34212 recurrent_layer.cpp:150] Adding parameter 2: W_hc
I1018 12:05:32.415699 34212 net.cpp:122] Setting up lstm1
I1018 12:05:32.415726 34212 net.cpp:129] Top shape: 16 150 512 (1228800)
I1018 12:05:32.415731 34212 net.cpp:137] Memory required for data: 17320590600
I1018 12:05:32.415742 34212 layer_factory.hpp:77] Creating layer lstm1-drop
I1018 12:05:32.415751 34212 net.cpp:84] Creating Layer lstm1-drop
I1018 12:05:32.415760 34212 net.cpp:406] lstm1-drop <- lstm1
I1018 12:05:32.415779 34212 net.cpp:380] lstm1-drop -> lstm1-drop
I1018 12:05:32.415819 34212 net.cpp:122] Setting up lstm1-drop
I1018 12:05:32.415832 34212 net.cpp:129] Top shape: 16 150 512 (1228800)
I1018 12:05:32.415835 34212 net.cpp:137] Memory required for data: 17325505800
I1018 12:05:32.415839 34212 layer_factory.hpp:77] Creating layer fc-final
I1018 12:05:32.415851 34212 net.cpp:84] Creating Layer fc-final
I1018 12:05:32.415858 34212 net.cpp:406] fc-final <- lstm1-drop
I1018 12:05:32.415864 34212 net.cpp:380] fc-final -> fc-final
I1018 12:05:32.416273 34212 net.cpp:122] Setting up fc-final
I1018 12:05:32.416285 34212 net.cpp:129] Top shape: 16 150 10 (24000)
I1018 12:05:32.416301 34212 net.cpp:137] Memory required for data: 17325601800
I1018 12:05:32.416309 34212 layer_factory.hpp:77] Creating layer fc-final_fc-final_0_split
I1018 12:05:32.416316 34212 net.cpp:84] Creating Layer fc-final_fc-final_0_split
I1018 12:05:32.416321 34212 net.cpp:406] fc-final_fc-final_0_split <- fc-final
I1018 12:05:32.416327 34212 net.cpp:380] fc-final_fc-final_0_split -> fc-final_fc-final_0_split_0
I1018 12:05:32.416335 34212 net.cpp:380] fc-final_fc-final_0_split -> fc-final_fc-final_0_split_1
I1018 12:05:32.416373 34212 net.cpp:122] Setting up fc-final_fc-final_0_split
I1018 12:05:32.416380 34212 net.cpp:129] Top shape: 16 150 10 (24000)
I1018 12:05:32.416398 34212 net.cpp:129] Top shape: 16 150 10 (24000)
I1018 12:05:32.416401 34212 net.cpp:137] Memory required for data: 17325793800
I1018 12:05:32.416405 34212 layer_factory.hpp:77] Creating layer loss
I1018 12:05:32.416414 34212 net.cpp:84] Creating Layer loss
I1018 12:05:32.416429 34212 net.cpp:406] loss <- fc-final_fc-final_0_split_0
I1018 12:05:32.416435 34212 net.cpp:406] loss <- reshape-label_label_tran_0_split_0
I1018 12:05:32.416441 34212 net.cpp:380] loss -> loss
…
