…
I1018 12:24:27.295117 35040 net.cpp:294] The NetState phase (0) differed from the phase (1) specified by a rule in layer Silence
I1018 12:24:27.295336 35040 net.cpp:51] Initializing net from parameters: 
name: "VGG_16_layers_LSTM"
state {
  phase: TRAIN
  level: 0
  stage: ""
}
layer {
  name: "data"
  type: "ImageData"
  top: "data"
  top: "label"
  include {
    phase: TRAIN
  }
  transform_param {
    mirror: true
    crop_size: 288
    mean_value: 104
    mean_value: 117
    mean_value: 123
  }
  image_data_param {
    source: "../Data/lsun_train_list_12w.txt"
    batch_size: 4
    shuffle: true
    new_height: 320
    new_width: 320
  }
}
layer {
  name: "label_tran"
  type: "Python"
  bottom: "label"
  top: "reshape-label"
  top: "clip_markers"
  python_param {
    module: "data_preparation_sort_max_clip"
    layer: "ReshapeLabel"
  }
}
layer {
  name: "conv1_1"
  type: "Convolution"
  bottom: "data"
  top: "conv1_1"
  convolution_param {
    num_output: 64
    pad: 1
    kernel_size: 3
  }
}
layer {
  name: "relu1_1"
  type: "ReLU"
  bottom: "conv1_1"
  top: "conv1_1"
}
layer {
  name: "conv1_2"
  type: "Convolution"
  bottom: "conv1_1"
  top: "conv1_2"
  convolution_param {
    num_output: 64
    pad: 1
    kernel_size: 3
  }
}
layer {
  name: "relu1_2"
  type: "ReLU"
  bottom: "conv1_2"
  top: "conv1_2"
}
layer {
  name: "pool1"
  type: "Pooling"
  bottom: "conv1_2"
  top: "pool1"
  pooling_param {
    pool: MAX
    kernel_size: 2
    stride: 2
  }
}
layer {
  name: "conv2_1"
  type: "Convolution"
  bottom: "pool1"
  top: "conv2_1"
  convolution_param {
    num_output: 128
    pad: 1
    kernel_size: 3
  }
}
layer {
  name: "relu2_1"
  type: "ReLU"
  bottom: "conv2_1"
  top: "conv2_1"
}
layer {
  name: "conv2_2"
  type: "Convolution"
  bottom: "conv2_1"
  top: "conv2_2"
  convolution_param {
    num_output: 128
    pad: 1
    kernel_size: 3
  }
}
layer {
  name: "relu2_2"
  type: "ReLU"
  bottom: "conv2_2"
  top: "conv2_2"
}
layer {
  name: "pool2"
  type: "Pooling"
  bottom: "conv2_2"
  top: "pool2"
  pooling_param {
    pool: MAX
    kernel_size: 2
    stride: 2
  }
}
layer {
  name: "conv3_1"
  type: "Convolution"
  bottom: "pool2"
  top: "conv3_1"
  convolution_param {
    num_output: 256
    pad: 1
    kernel_size: 3
  }
}
layer {
  name: "relu3_1"
  type: "ReLU"
  bottom: "conv3_1"
  top: "conv3_1"
}
layer {
  name: "conv3_2"
  type: "Convolution"
  bottom: "conv3_1"
  top: "conv3_2"
  convolution_param {
    num_output: 256
    pad: 1
    kernel_size: 3
  }
}
layer {
  name: "relu3_2"
  type: "ReLU"
  bottom: "conv3_2"
  top: "conv3_2"
}
layer {
  name: "conv3_3"
  type: "Convolution"
  bottom: "conv3_2"
  top: "conv3_3"
  convolution_param {
    num_output: 256
    pad: 1
    kernel_size: 3
  }
}
layer {
  name: "relu3_3"
  type: "ReLU"
  bottom: "conv3_3"
  top: "conv3_3"
}
layer {
  name: "pool3"
  type: "Pooling"
  bottom: "conv3_3"
  top: "pool3"
  pooling_param {
    pool: MAX
    kernel_size: 2
    stride: 2
  }
}
layer {
  name: "conv4_1"
  type: "Convolution"
  bottom: "pool3"
  top: "conv4_1"
  convolution_param {
    num_output: 512
    pad: 1
    kernel_size: 3
  }
}
layer {
  name: "relu4_1"
  type: "ReLU"
  bottom: "conv4_1"
  top: "conv4_1"
}
layer {
  name: "conv4_2"
  type: "Convolution"
  bottom: "conv4_1"
  top: "conv4_2"
  convolution_param {
    num_output: 512
    pad: 1
    kernel_size: 3
  }
}
layer {
  name: "relu4_2"
  type: "ReLU"
  bottom: "conv4_2"
  top: "conv4_2"
}
layer {
  name: "conv4_3"
  type: "Convolution"
  bottom: "conv4_2"
  top: "conv4_3"
  convolution_param {
    num_output: 512
    pad: 1
    kernel_size: 3
  }
}
layer {
  name: "relu4_3"
  type: "ReLU"
  bottom: "conv4_3"
  top: "conv4_3"
}
layer {
  name: "pool4"
  type: "Pooling"
  bottom: "conv4_3"
  top: "pool4"
  pooling_param {
    pool: MAX
    kernel_size: 2
    stride: 2
  }
}
layer {
  name: "conv5_1"
  type: "Convolution"
  bottom: "pool4"
  top: "conv5_1"
  convolution_param {
    num_output: 512
    pad: 1
    kernel_size: 3
  }
}
layer {
  name: "relu5_1"
  type: "ReLU"
  bottom: "conv5_1"
  top: "conv5_1"
}
layer {
  name: "conv5_2"
  type: "Convolution"
  bottom: "conv5_1"
  top: "conv5_2"
  convolution_param {
    num_output: 512
    pad: 1
    kernel_size: 3
  }
}
layer {
  name: "relu5_2"
  type: "ReLU"
  bottom: "conv5_2"
  top: "conv5_2"
}
layer {
  name: "conv5_3"
  type: "Convolution"
  bottom: "conv5_2"
  top: "conv5_3"
  convolution_param {
    num_output: 512
    pad: 1
    kernel_size: 3
  }
}
layer {
  name: "relu5_3"
  type: "ReLU"
  bottom: "conv5_3"
  top: "conv5_3"
}
layer {
  name: "pool5"
  type: "Pooling"
  bottom: "conv5_3"
  top: "pool5"
  pooling_param {
    pool: MAX
    kernel_size: 2
    stride: 2
  }
}
layer {
  name: "fc6-conv"
  type: "Convolution"
  bottom: "pool5"
  top: "fc6-conv"
  convolution_param {
    num_output: 4096
    kernel_size: 7
  }
}
layer {
  name: "relu6"
  type: "ReLU"
  bottom: "fc6-conv"
  top: "fc6-conv"
}
layer {
  name: "drop6"
  type: "Dropout"
  bottom: "fc6-conv"
  top: "fc6-conv"
  dropout_param {
    dropout_ratio: 0.5
  }
}
layer {
  name: "fc7-conv"
  type: "Convolution"
  bottom: "fc6-conv"
  top: "fc7-conv"
  convolution_param {
    num_output: 4096
    kernel_size: 1
  }
}
layer {
  name: "relu7"
  type: "ReLU"
  bottom: "fc7-conv"
  top: "fc7-conv"
}
layer {
  name: "drop7"
  type: "Dropout"
  bottom: "fc7-conv"
  top: "fc7-conv"
  dropout_param {
    dropout_ratio: 0.9
  }
}
layer {
  name: "fc7-conv_re"
  type: "Reshape"
  bottom: "fc7-conv"
  top: "fc7-conv_re"
  reshape_param {
    shape {
      dim: 0
      dim: 0
      dim: -1
    }
  }
}
layer {
  name: "fc7-conv_tran"
  type: "Python"
  bottom: "fc7-conv_re"
  top: "fc7-conv_tran"
  python_param {
    module: "data_preparation_sort_max_clip"
    layer: "DataTransposeSortRandomClip"
  }
}
layer {
  name: "lstm1"
  type: "LSTM"
  bottom: "fc7-conv_tran"
  bottom: "clip_markers"
  top: "lstm1"
  recurrent_param {
    num_output: 512
    weight_filler {
      type: "uniform"
      min: -0.01
      max: 0.01
    }
    bias_filler {
      type: "constant"
      value: 0
    }
  }
}
layer {
  name: "lstm1-drop"
  type: "Dropout"
  bottom: "lstm1"
  top: "lstm1-drop"
  dropout_param {
    dropout_ratio: 0.5
  }
}
layer {
  name: "fc-final"
  type: "InnerProduct"
  bottom: "lstm1-drop"
  top: "fc-final"
  param {
    lr_mult: 1
    decay_mult: 1
  }
  param {
    lr_mult: 2
    decay_mult: 0
  }
  inner_product_param {
    num_output: 10
    weight_filler {
      type: "gaussian"
      std: 0.01
    }
    bias_filler {
      type: "constant"
      value: 0
    }
    axis: 2
  }
}
layer {
  name: "loss"
  type: "SoftmaxWithLoss"
  bottom: "fc-final"
  bottom: "reshape-label"
  top: "loss"
  softmax_param {
    axis: 2
  }
}
layer {
  name: "accuracy"
  type: "Accuracy"
  bottom: "fc-final"
  bottom: "reshape-label"
  top: "accuracy"
  accuracy_param {
    axis: 2
  }
}
I1018 12:24:27.295548 35040 layer_factory.hpp:77] Creating layer data
I1018 12:24:27.295599 35040 net.cpp:84] Creating Layer data
I1018 12:24:27.295609 35040 net.cpp:380] data -> data
I1018 12:24:27.295650 35040 net.cpp:380] data -> label
I1018 12:24:27.295686 35040 image_data_layer.cpp:38] Opening file ../Data/lsun_train_list_12w.txt
I1018 12:24:27.825963 35040 image_data_layer.cpp:53] Shuffling data
I1018 12:24:28.209547 35040 image_data_layer.cpp:63] A total of 1200000 images.
I1018 12:24:28.220474 35040 image_data_layer.cpp:90] output data size: 4,3,288,288
I1018 12:24:28.245077 35040 net.cpp:122] Setting up data
I1018 12:24:28.245429 35040 net.cpp:129] Top shape: 4 3 288 288 (995328)
I1018 12:24:28.245574 35040 net.cpp:129] Top shape: 4 (4)
I1018 12:24:28.245637 35040 net.cpp:137] Memory required for data: 3981328
I1018 12:24:28.245816 35040 layer_factory.hpp:77] Creating layer label_tran
I1018 12:24:28.896920 35040 net.cpp:84] Creating Layer label_tran
I1018 12:24:28.896956 35040 net.cpp:406] label_tran <- label
I1018 12:24:28.896981 35040 net.cpp:380] label_tran -> reshape-label
I1018 12:24:28.896994 35040 net.cpp:380] label_tran -> clip_markers
I1018 12:24:28.897282 35040 net.cpp:122] Setting up label_tran
I1018 12:24:28.897300 35040 net.cpp:129] Top shape: 8 4 (32)
I1018 12:24:28.897306 35040 net.cpp:129] Top shape: 8 4 (32)
I1018 12:24:28.897310 35040 net.cpp:137] Memory required for data: 3981584
I1018 12:24:28.897317 35040 layer_factory.hpp:77] Creating layer reshape-label_label_tran_0_split
I1018 12:24:28.897334 35040 net.cpp:84] Creating Layer reshape-label_label_tran_0_split
I1018 12:24:28.897343 35040 net.cpp:406] reshape-label_label_tran_0_split <- reshape-label
I1018 12:24:28.897351 35040 net.cpp:380] reshape-label_label_tran_0_split -> reshape-label_label_tran_0_split_0
I1018 12:24:28.897359 35040 net.cpp:380] reshape-label_label_tran_0_split -> reshape-label_label_tran_0_split_1
I1018 12:24:28.897408 35040 net.cpp:122] Setting up reshape-label_label_tran_0_split
I1018 12:24:28.897415 35040 net.cpp:129] Top shape: 8 4 (32)
I1018 12:24:28.897420 35040 net.cpp:129] Top shape: 8 4 (32)
I1018 12:24:28.897424 35040 net.cpp:137] Memory required for data: 3981840
I1018 12:24:28.897428 35040 layer_factory.hpp:77] Creating layer conv1_1
I1018 12:24:28.897456 35040 net.cpp:84] Creating Layer conv1_1
I1018 12:24:28.897462 35040 net.cpp:406] conv1_1 <- data
I1018 12:24:28.897469 35040 net.cpp:380] conv1_1 -> conv1_1
I1018 12:24:28.899420 35040 net.cpp:122] Setting up conv1_1
I1018 12:24:28.899436 35040 net.cpp:129] Top shape: 4 64 288 288 (21233664)
I1018 12:24:28.899441 35040 net.cpp:137] Memory required for data: 88916496
I1018 12:24:28.899464 35040 layer_factory.hpp:77] Creating layer relu1_1
I1018 12:24:28.899474 35040 net.cpp:84] Creating Layer relu1_1
I1018 12:24:28.899479 35040 net.cpp:406] relu1_1 <- conv1_1
I1018 12:24:28.899485 35040 net.cpp:367] relu1_1 -> conv1_1 (in-place)
I1018 12:24:28.899498 35040 net.cpp:122] Setting up relu1_1
I1018 12:24:28.899504 35040 net.cpp:129] Top shape: 4 64 288 288 (21233664)
I1018 12:24:28.899508 35040 net.cpp:137] Memory required for data: 173851152
I1018 12:24:28.899513 35040 layer_factory.hpp:77] Creating layer conv1_2
I1018 12:24:28.899519 35040 net.cpp:84] Creating Layer conv1_2
I1018 12:24:28.899530 35040 net.cpp:406] conv1_2 <- conv1_1
I1018 12:24:28.899536 35040 net.cpp:380] conv1_2 -> conv1_2
I1018 12:24:28.900629 35040 net.cpp:122] Setting up conv1_2
I1018 12:24:28.900647 35040 net.cpp:129] Top shape: 4 64 288 288 (21233664)
I1018 12:24:28.900652 35040 net.cpp:137] Memory required for data: 258785808
I1018 12:24:28.900665 35040 layer_factory.hpp:77] Creating layer relu1_2
I1018 12:24:28.900674 35040 net.cpp:84] Creating Layer relu1_2
I1018 12:24:28.900679 35040 net.cpp:406] relu1_2 <- conv1_2
I1018 12:24:28.900686 35040 net.cpp:367] relu1_2 -> conv1_2 (in-place)
I1018 12:24:28.900693 35040 net.cpp:122] Setting up relu1_2
I1018 12:24:28.900699 35040 net.cpp:129] Top shape: 4 64 288 288 (21233664)
I1018 12:24:28.900703 35040 net.cpp:137] Memory required for data: 343720464
I1018 12:24:28.900707 35040 layer_factory.hpp:77] Creating layer pool1
I1018 12:24:28.900725 35040 net.cpp:84] Creating Layer pool1
I1018 12:24:28.900732 35040 net.cpp:406] pool1 <- conv1_2
I1018 12:24:28.900738 35040 net.cpp:380] pool1 -> pool1
I1018 12:24:28.900791 35040 net.cpp:122] Setting up pool1
I1018 12:24:28.900806 35040 net.cpp:129] Top shape: 4 64 144 144 (5308416)
I1018 12:24:28.900813 35040 net.cpp:137] Memory required for data: 364954128
I1018 12:24:28.900821 35040 layer_factory.hpp:77] Creating layer conv2_1
I1018 12:24:28.900840 35040 net.cpp:84] Creating Layer conv2_1
I1018 12:24:28.900849 35040 net.cpp:406] conv2_1 <- pool1
I1018 12:24:28.900861 35040 net.cpp:380] conv2_1 -> conv2_1
I1018 12:24:28.901144 35040 net.cpp:122] Setting up conv2_1
I1018 12:24:28.901160 35040 net.cpp:129] Top shape: 4 128 144 144 (10616832)
I1018 12:24:28.901167 35040 net.cpp:137] Memory required for data: 407421456
I1018 12:24:28.901190 35040 layer_factory.hpp:77] Creating layer relu2_1
I1018 12:24:28.901206 35040 net.cpp:84] Creating Layer relu2_1
I1018 12:24:28.901214 35040 net.cpp:406] relu2_1 <- conv2_1
I1018 12:24:28.901226 35040 net.cpp:367] relu2_1 -> conv2_1 (in-place)
I1018 12:24:28.901238 35040 net.cpp:122] Setting up relu2_1
I1018 12:24:28.901249 35040 net.cpp:129] Top shape: 4 128 144 144 (10616832)
I1018 12:24:28.901257 35040 net.cpp:137] Memory required for data: 449888784
I1018 12:24:28.901264 35040 layer_factory.hpp:77] Creating layer conv2_2
I1018 12:24:28.901278 35040 net.cpp:84] Creating Layer conv2_2
I1018 12:24:28.901285 35040 net.cpp:406] conv2_2 <- conv2_1
I1018 12:24:28.901299 35040 net.cpp:380] conv2_2 -> conv2_2
I1018 12:24:28.902351 35040 net.cpp:122] Setting up conv2_2
I1018 12:24:28.902370 35040 net.cpp:129] Top shape: 4 128 144 144 (10616832)
I1018 12:24:28.902379 35040 net.cpp:137] Memory required for data: 492356112
I1018 12:24:28.902392 35040 layer_factory.hpp:77] Creating layer relu2_2
I1018 12:24:28.902405 35040 net.cpp:84] Creating Layer relu2_2
I1018 12:24:28.902412 35040 net.cpp:406] relu2_2 <- conv2_2
I1018 12:24:28.902425 35040 net.cpp:367] relu2_2 -> conv2_2 (in-place)
I1018 12:24:28.902437 35040 net.cpp:122] Setting up relu2_2
I1018 12:24:28.902447 35040 net.cpp:129] Top shape: 4 128 144 144 (10616832)
I1018 12:24:28.902456 35040 net.cpp:137] Memory required for data: 534823440
I1018 12:24:28.902462 35040 layer_factory.hpp:77] Creating layer pool2
I1018 12:24:28.902473 35040 net.cpp:84] Creating Layer pool2
I1018 12:24:28.902482 35040 net.cpp:406] pool2 <- conv2_2
I1018 12:24:28.902493 35040 net.cpp:380] pool2 -> pool2
I1018 12:24:28.902542 35040 net.cpp:122] Setting up pool2
I1018 12:24:28.902556 35040 net.cpp:129] Top shape: 4 128 72 72 (2654208)
I1018 12:24:28.902565 35040 net.cpp:137] Memory required for data: 545440272
I1018 12:24:28.902575 35040 layer_factory.hpp:77] Creating layer conv3_1
I1018 12:24:28.902590 35040 net.cpp:84] Creating Layer conv3_1
I1018 12:24:28.902597 35040 net.cpp:406] conv3_1 <- pool2
I1018 12:24:28.902609 35040 net.cpp:380] conv3_1 -> conv3_1
I1018 12:24:28.904570 35040 net.cpp:122] Setting up conv3_1
I1018 12:24:28.904589 35040 net.cpp:129] Top shape: 4 256 72 72 (5308416)
I1018 12:24:28.904597 35040 net.cpp:137] Memory required for data: 566673936
I1018 12:24:28.904616 35040 layer_factory.hpp:77] Creating layer relu3_1
I1018 12:24:28.904633 35040 net.cpp:84] Creating Layer relu3_1
I1018 12:24:28.904641 35040 net.cpp:406] relu3_1 <- conv3_1
I1018 12:24:28.904652 35040 net.cpp:367] relu3_1 -> conv3_1 (in-place)
I1018 12:24:28.904666 35040 net.cpp:122] Setting up relu3_1
I1018 12:24:28.904676 35040 net.cpp:129] Top shape: 4 256 72 72 (5308416)
I1018 12:24:28.904685 35040 net.cpp:137] Memory required for data: 587907600
I1018 12:24:28.904691 35040 layer_factory.hpp:77] Creating layer conv3_2
I1018 12:24:28.904705 35040 net.cpp:84] Creating Layer conv3_2
I1018 12:24:28.904712 35040 net.cpp:406] conv3_2 <- conv3_1
I1018 12:24:28.904723 35040 net.cpp:380] conv3_2 -> conv3_2
I1018 12:24:28.906654 35040 net.cpp:122] Setting up conv3_2
I1018 12:24:28.906672 35040 net.cpp:129] Top shape: 4 256 72 72 (5308416)
I1018 12:24:28.906680 35040 net.cpp:137] Memory required for data: 609141264
I1018 12:24:28.906692 35040 layer_factory.hpp:77] Creating layer relu3_2
I1018 12:24:28.906709 35040 net.cpp:84] Creating Layer relu3_2
I1018 12:24:28.906718 35040 net.cpp:406] relu3_2 <- conv3_2
I1018 12:24:28.906733 35040 net.cpp:367] relu3_2 -> conv3_2 (in-place)
I1018 12:24:28.906746 35040 net.cpp:122] Setting up relu3_2
I1018 12:24:28.906756 35040 net.cpp:129] Top shape: 4 256 72 72 (5308416)
I1018 12:24:28.906764 35040 net.cpp:137] Memory required for data: 630374928
I1018 12:24:28.906771 35040 layer_factory.hpp:77] Creating layer conv3_3
I1018 12:24:28.906783 35040 net.cpp:84] Creating Layer conv3_3
I1018 12:24:28.906791 35040 net.cpp:406] conv3_3 <- conv3_2
I1018 12:24:28.906805 35040 net.cpp:380] conv3_3 -> conv3_3
I1018 12:24:28.908694 35040 net.cpp:122] Setting up conv3_3
I1018 12:24:28.908712 35040 net.cpp:129] Top shape: 4 256 72 72 (5308416)
I1018 12:24:28.908720 35040 net.cpp:137] Memory required for data: 651608592
I1018 12:24:28.908732 35040 layer_factory.hpp:77] Creating layer relu3_3
I1018 12:24:28.908749 35040 net.cpp:84] Creating Layer relu3_3
I1018 12:24:28.908758 35040 net.cpp:406] relu3_3 <- conv3_3
I1018 12:24:28.908769 35040 net.cpp:367] relu3_3 -> conv3_3 (in-place)
I1018 12:24:28.908782 35040 net.cpp:122] Setting up relu3_3
I1018 12:24:28.908793 35040 net.cpp:129] Top shape: 4 256 72 72 (5308416)
I1018 12:24:28.908800 35040 net.cpp:137] Memory required for data: 672842256
I1018 12:24:28.908808 35040 layer_factory.hpp:77] Creating layer pool3
I1018 12:24:28.908828 35040 net.cpp:84] Creating Layer pool3
I1018 12:24:28.908835 35040 net.cpp:406] pool3 <- conv3_3
I1018 12:24:28.908846 35040 net.cpp:380] pool3 -> pool3
I1018 12:24:28.908903 35040 net.cpp:122] Setting up pool3
I1018 12:24:28.908917 35040 net.cpp:129] Top shape: 4 256 36 36 (1327104)
I1018 12:24:28.908924 35040 net.cpp:137] Memory required for data: 678150672
I1018 12:24:28.908931 35040 layer_factory.hpp:77] Creating layer conv4_1
I1018 12:24:28.908943 35040 net.cpp:84] Creating Layer conv4_1
I1018 12:24:28.908951 35040 net.cpp:406] conv4_1 <- pool3
I1018 12:24:28.908967 35040 net.cpp:380] conv4_1 -> conv4_1
I1018 12:24:28.912928 35040 net.cpp:122] Setting up conv4_1
I1018 12:24:28.912948 35040 net.cpp:129] Top shape: 4 512 36 36 (2654208)
I1018 12:24:28.912956 35040 net.cpp:137] Memory required for data: 688767504
I1018 12:24:28.912969 35040 layer_factory.hpp:77] Creating layer relu4_1
I1018 12:24:28.912986 35040 net.cpp:84] Creating Layer relu4_1
I1018 12:24:28.912995 35040 net.cpp:406] relu4_1 <- conv4_1
I1018 12:24:28.913007 35040 net.cpp:367] relu4_1 -> conv4_1 (in-place)
I1018 12:24:28.913019 35040 net.cpp:122] Setting up relu4_1
I1018 12:24:28.913029 35040 net.cpp:129] Top shape: 4 512 36 36 (2654208)
I1018 12:24:28.913036 35040 net.cpp:137] Memory required for data: 699384336
I1018 12:24:28.913045 35040 layer_factory.hpp:77] Creating layer conv4_2
I1018 12:24:28.913060 35040 net.cpp:84] Creating Layer conv4_2
I1018 12:24:28.913069 35040 net.cpp:406] conv4_2 <- conv4_1
I1018 12:24:28.913080 35040 net.cpp:380] conv4_2 -> conv4_2
I1018 12:24:28.919147 35040 net.cpp:122] Setting up conv4_2
I1018 12:24:28.919172 35040 net.cpp:129] Top shape: 4 512 36 36 (2654208)
I1018 12:24:28.919179 35040 net.cpp:137] Memory required for data: 710001168
I1018 12:24:28.919205 35040 layer_factory.hpp:77] Creating layer relu4_2
I1018 12:24:28.919222 35040 net.cpp:84] Creating Layer relu4_2
I1018 12:24:28.919232 35040 net.cpp:406] relu4_2 <- conv4_2
I1018 12:24:28.919245 35040 net.cpp:367] relu4_2 -> conv4_2 (in-place)
I1018 12:24:28.919257 35040 net.cpp:122] Setting up relu4_2
I1018 12:24:28.919268 35040 net.cpp:129] Top shape: 4 512 36 36 (2654208)
I1018 12:24:28.919275 35040 net.cpp:137] Memory required for data: 720618000
I1018 12:24:28.919282 35040 layer_factory.hpp:77] Creating layer conv4_3
I1018 12:24:28.919296 35040 net.cpp:84] Creating Layer conv4_3
I1018 12:24:28.919302 35040 net.cpp:406] conv4_3 <- conv4_2
I1018 12:24:28.919317 35040 net.cpp:380] conv4_3 -> conv4_3
I1018 12:24:28.925302 35040 net.cpp:122] Setting up conv4_3
I1018 12:24:28.925326 35040 net.cpp:129] Top shape: 4 512 36 36 (2654208)
I1018 12:24:28.925334 35040 net.cpp:137] Memory required for data: 731234832
I1018 12:24:28.925348 35040 layer_factory.hpp:77] Creating layer relu4_3
I1018 12:24:28.925364 35040 net.cpp:84] Creating Layer relu4_3
I1018 12:24:28.925374 35040 net.cpp:406] relu4_3 <- conv4_3
I1018 12:24:28.925384 35040 net.cpp:367] relu4_3 -> conv4_3 (in-place)
I1018 12:24:28.925400 35040 net.cpp:122] Setting up relu4_3
I1018 12:24:28.925410 35040 net.cpp:129] Top shape: 4 512 36 36 (2654208)
I1018 12:24:28.925418 35040 net.cpp:137] Memory required for data: 741851664
I1018 12:24:28.925428 35040 layer_factory.hpp:77] Creating layer pool4
I1018 12:24:28.925446 35040 net.cpp:84] Creating Layer pool4
I1018 12:24:28.925456 35040 net.cpp:406] pool4 <- conv4_3
I1018 12:24:28.925467 35040 net.cpp:380] pool4 -> pool4
I1018 12:24:28.925523 35040 net.cpp:122] Setting up pool4
I1018 12:24:28.925539 35040 net.cpp:129] Top shape: 4 512 18 18 (663552)
I1018 12:24:28.925545 35040 net.cpp:137] Memory required for data: 744505872
I1018 12:24:28.925554 35040 layer_factory.hpp:77] Creating layer conv5_1
I1018 12:24:28.925566 35040 net.cpp:84] Creating Layer conv5_1
I1018 12:24:28.925575 35040 net.cpp:406] conv5_1 <- pool4
I1018 12:24:28.925590 35040 net.cpp:380] conv5_1 -> conv5_1
I1018 12:24:28.931689 35040 net.cpp:122] Setting up conv5_1
I1018 12:24:28.931720 35040 net.cpp:129] Top shape: 4 512 18 18 (663552)
I1018 12:24:28.931727 35040 net.cpp:137] Memory required for data: 747160080
I1018 12:24:28.931741 35040 layer_factory.hpp:77] Creating layer relu5_1
I1018 12:24:28.931756 35040 net.cpp:84] Creating Layer relu5_1
I1018 12:24:28.931766 35040 net.cpp:406] relu5_1 <- conv5_1
I1018 12:24:28.931778 35040 net.cpp:367] relu5_1 -> conv5_1 (in-place)
I1018 12:24:28.931793 35040 net.cpp:122] Setting up relu5_1
I1018 12:24:28.931804 35040 net.cpp:129] Top shape: 4 512 18 18 (663552)
I1018 12:24:28.931812 35040 net.cpp:137] Memory required for data: 749814288
I1018 12:24:28.931819 35040 layer_factory.hpp:77] Creating layer conv5_2
I1018 12:24:28.931836 35040 net.cpp:84] Creating Layer conv5_2
I1018 12:24:28.931844 35040 net.cpp:406] conv5_2 <- conv5_1
I1018 12:24:28.931859 35040 net.cpp:380] conv5_2 -> conv5_2
I1018 12:24:28.938103 35040 net.cpp:122] Setting up conv5_2
I1018 12:24:28.938143 35040 net.cpp:129] Top shape: 4 512 18 18 (663552)
I1018 12:24:28.938149 35040 net.cpp:137] Memory required for data: 752468496
I1018 12:24:28.938164 35040 layer_factory.hpp:77] Creating layer relu5_2
I1018 12:24:28.938180 35040 net.cpp:84] Creating Layer relu5_2
I1018 12:24:28.938189 35040 net.cpp:406] relu5_2 <- conv5_2
I1018 12:24:28.938205 35040 net.cpp:367] relu5_2 -> conv5_2 (in-place)
I1018 12:24:28.938221 35040 net.cpp:122] Setting up relu5_2
I1018 12:24:28.938232 35040 net.cpp:129] Top shape: 4 512 18 18 (663552)
I1018 12:24:28.938241 35040 net.cpp:137] Memory required for data: 755122704
I1018 12:24:28.938247 35040 layer_factory.hpp:77] Creating layer conv5_3
I1018 12:24:28.938262 35040 net.cpp:84] Creating Layer conv5_3
I1018 12:24:28.938271 35040 net.cpp:406] conv5_3 <- conv5_2
I1018 12:24:28.938283 35040 net.cpp:380] conv5_3 -> conv5_3
I1018 12:24:28.944633 35040 net.cpp:122] Setting up conv5_3
I1018 12:24:28.944661 35040 net.cpp:129] Top shape: 4 512 18 18 (663552)
I1018 12:24:28.944669 35040 net.cpp:137] Memory required for data: 757776912
I1018 12:24:28.944682 35040 layer_factory.hpp:77] Creating layer relu5_3
I1018 12:24:28.944707 35040 net.cpp:84] Creating Layer relu5_3
I1018 12:24:28.944716 35040 net.cpp:406] relu5_3 <- conv5_3
I1018 12:24:28.944728 35040 net.cpp:367] relu5_3 -> conv5_3 (in-place)
I1018 12:24:28.944743 35040 net.cpp:122] Setting up relu5_3
I1018 12:24:28.944754 35040 net.cpp:129] Top shape: 4 512 18 18 (663552)
I1018 12:24:28.944761 35040 net.cpp:137] Memory required for data: 760431120
I1018 12:24:28.944768 35040 layer_factory.hpp:77] Creating layer pool5
I1018 12:24:28.944783 35040 net.cpp:84] Creating Layer pool5
I1018 12:24:28.944792 35040 net.cpp:406] pool5 <- conv5_3
I1018 12:24:28.944802 35040 net.cpp:380] pool5 -> pool5
I1018 12:24:28.944864 35040 net.cpp:122] Setting up pool5
I1018 12:24:28.944877 35040 net.cpp:129] Top shape: 4 512 9 9 (165888)
I1018 12:24:28.944885 35040 net.cpp:137] Memory required for data: 761094672
I1018 12:24:28.944891 35040 layer_factory.hpp:77] Creating layer fc6-conv
I1018 12:24:28.944905 35040 net.cpp:84] Creating Layer fc6-conv
I1018 12:24:28.944912 35040 net.cpp:406] fc6-conv <- pool5
I1018 12:24:28.944926 35040 net.cpp:380] fc6-conv -> fc6-conv
I1018 12:24:29.220245 35040 net.cpp:122] Setting up fc6-conv
I1018 12:24:29.220291 35040 net.cpp:129] Top shape: 4 4096 3 3 (147456)
I1018 12:24:29.220296 35040 net.cpp:137] Memory required for data: 761684496
I1018 12:24:29.220315 35040 layer_factory.hpp:77] Creating layer relu6
I1018 12:24:29.220330 35040 net.cpp:84] Creating Layer relu6
I1018 12:24:29.220340 35040 net.cpp:406] relu6 <- fc6-conv
I1018 12:24:29.220350 35040 net.cpp:367] relu6 -> fc6-conv (in-place)
I1018 12:24:29.220363 35040 net.cpp:122] Setting up relu6
I1018 12:24:29.220369 35040 net.cpp:129] Top shape: 4 4096 3 3 (147456)
I1018 12:24:29.220373 35040 net.cpp:137] Memory required for data: 762274320
I1018 12:24:29.220377 35040 layer_factory.hpp:77] Creating layer drop6
I1018 12:24:29.220393 35040 net.cpp:84] Creating Layer drop6
I1018 12:24:29.220398 35040 net.cpp:406] drop6 <- fc6-conv
I1018 12:24:29.220404 35040 net.cpp:367] drop6 -> fc6-conv (in-place)
I1018 12:24:29.220433 35040 net.cpp:122] Setting up drop6
I1018 12:24:29.220446 35040 net.cpp:129] Top shape: 4 4096 3 3 (147456)
I1018 12:24:29.220450 35040 net.cpp:137] Memory required for data: 762864144
I1018 12:24:29.220454 35040 layer_factory.hpp:77] Creating layer fc7-conv
I1018 12:24:29.220469 35040 net.cpp:84] Creating Layer fc7-conv
I1018 12:24:29.220474 35040 net.cpp:406] fc7-conv <- fc6-conv
I1018 12:24:29.220481 35040 net.cpp:380] fc7-conv -> fc7-conv
I1018 12:24:29.266556 35040 net.cpp:122] Setting up fc7-conv
I1018 12:24:29.266597 35040 net.cpp:129] Top shape: 4 4096 3 3 (147456)
I1018 12:24:29.266602 35040 net.cpp:137] Memory required for data: 763453968
I1018 12:24:29.266614 35040 layer_factory.hpp:77] Creating layer relu7
I1018 12:24:29.266630 35040 net.cpp:84] Creating Layer relu7
I1018 12:24:29.266638 35040 net.cpp:406] relu7 <- fc7-conv
I1018 12:24:29.266646 35040 net.cpp:367] relu7 -> fc7-conv (in-place)
I1018 12:24:29.266659 35040 net.cpp:122] Setting up relu7
I1018 12:24:29.266665 35040 net.cpp:129] Top shape: 4 4096 3 3 (147456)
I1018 12:24:29.266669 35040 net.cpp:137] Memory required for data: 764043792
I1018 12:24:29.266674 35040 layer_factory.hpp:77] Creating layer drop7
I1018 12:24:29.266682 35040 net.cpp:84] Creating Layer drop7
I1018 12:24:29.266692 35040 net.cpp:406] drop7 <- fc7-conv
I1018 12:24:29.266700 35040 net.cpp:367] drop7 -> fc7-conv (in-place)
I1018 12:24:29.266727 35040 net.cpp:122] Setting up drop7
I1018 12:24:29.266734 35040 net.cpp:129] Top shape: 4 4096 3 3 (147456)
I1018 12:24:29.266738 35040 net.cpp:137] Memory required for data: 764633616
I1018 12:24:29.266742 35040 layer_factory.hpp:77] Creating layer fc7-conv_re
I1018 12:24:29.266760 35040 net.cpp:84] Creating Layer fc7-conv_re
I1018 12:24:29.266764 35040 net.cpp:406] fc7-conv_re <- fc7-conv
I1018 12:24:29.266770 35040 net.cpp:380] fc7-conv_re -> fc7-conv_re
I1018 12:24:29.266815 35040 net.cpp:122] Setting up fc7-conv_re
I1018 12:24:29.266825 35040 net.cpp:129] Top shape: 4 4096 9 (147456)
I1018 12:24:29.266829 35040 net.cpp:137] Memory required for data: 765223440
I1018 12:24:29.266834 35040 layer_factory.hpp:77] Creating layer fc7-conv_tran
I1018 12:24:29.266918 35040 net.cpp:84] Creating Layer fc7-conv_tran
I1018 12:24:29.266928 35040 net.cpp:406] fc7-conv_tran <- fc7-conv_re
I1018 12:24:29.266935 35040 net.cpp:380] fc7-conv_tran -> fc7-conv_tran
I1018 12:24:29.268422 35040 net.cpp:122] Setting up fc7-conv_tran
I1018 12:24:29.268440 35040 net.cpp:129] Top shape: 8 4 4096 (131072)
I1018 12:24:29.268445 35040 net.cpp:137] Memory required for data: 765747728
I1018 12:24:29.268450 35040 layer_factory.hpp:77] Creating layer lstm1
I1018 12:24:29.268467 35040 net.cpp:84] Creating Layer lstm1
I1018 12:24:29.268472 35040 net.cpp:406] lstm1 <- fc7-conv_tran
I1018 12:24:29.268481 35040 net.cpp:406] lstm1 <- clip_markers
I1018 12:24:29.268502 35040 net.cpp:380] lstm1 -> lstm1
I1018 12:24:29.268519 35040 recurrent_layer.cpp:20] Initializing recurrent layer: assuming input batch contains 8 timesteps of 4 independent streams.
I1018 12:24:29.269095 35040 net.cpp:51] Initializing net from parameters: 
layer {
  name: "lstm1_"
  type: "Input"
  top: "x"
  top: "cont"
  input_param {
    shape {
      dim: 8
      dim: 4
      dim: 4096
    }
    shape {
      dim: 8
      dim: 4
    }
  }
}
layer {
  name: "lstm1_"
  type: "Input"
  top: "c_0"
  top: "h_0"
  input_param {
    shape {
      dim: 1
      dim: 4
      dim: 512
    }
    shape {
      dim: 1
      dim: 4
      dim: 512
    }
  }
}
layer {
  name: "lstm1_cont_slice"
  type: "Slice"
  bottom: "cont"
  top: "cont_1"
  top: "cont_2"
  top: "cont_3"
  top: "cont_4"
  top: "cont_5"
  top: "cont_6"
  top: "cont_7"
  top: "cont_8"
  slice_param {
    axis: 0
  }
}
layer {
  name: "lstm1_x_transform"
  type: "InnerProduct"
  bottom: "x"
  top: "W_xc_x"
  param {
    name: "W_xc"
  }
  param {
    name: "b_c"
  }
  propagate_down: true
  inner_product_param {
    num_output: 2048
    bias_term: true
    weight_filler {
      type: "uniform"
      min: -0.01
      max: 0.01
    }
    bias_filler {
      type: "constant"
      value: 0
    }
    axis: 2
  }
}
layer {
  name: "lstm1_W_xc_x_slice"
  type: "Slice"
  bottom: "W_xc_x"
  top: "W_xc_x_1"
  top: "W_xc_x_2"
  top: "W_xc_x_3"
  top: "W_xc_x_4"
  top: "W_xc_x_5"
  top: "W_xc_x_6"
  top: "W_xc_x_7"
  top: "W_xc_x_8"
  slice_param {
    axis: 0
  }
}
layer {
  name: "lstm1_h_conted_0"
  type: "Scale"
  bottom: "h_0"
  bottom: "cont_1"
  top: "h_conted_0"
  scale_param {
    axis: 0
  }
}
layer {
  name: "lstm1_transform_1"
  type: "InnerProduct"
  bottom: "h_conted_0"
  top: "W_hc_h_0"
  param {
    name: "W_hc"
  }
  inner_product_param {
    num_output: 2048
    bias_term: false
    weight_filler {
      type: "uniform"
      min: -0.01
      max: 0.01
    }
    axis: 2
  }
}
layer {
  name: "lstm1_gate_input_1"
  type: "Eltwise"
  bottom: "W_hc_h_0"
  bottom: "W_xc_x_1"
  top: "gate_input_1"
  eltwise_param {
    operation: SUM
  }
}
layer {
  name: "lstm1_unit_1"
  type: "LSTMUnit"
  bottom: "c_0"
  bottom: "gate_input_1"
  bottom: "cont_1"
  top: "c_1"
  top: "h_1"
}
layer {
  name: "lstm1_h_conted_1"
  type: "Scale"
  bottom: "h_1"
  bottom: "cont_2"
  top: "h_conted_1"
  scale_param {
    axis: 0
  }
}
layer {
  name: "lstm1_transform_2"
  type: "InnerProduct"
  bottom: "h_conted_1"
  top: "W_hc_h_1"
  param {
    name: "W_hc"
  }
  inner_product_param {
    num_output: 2048
    bias_term: false
    weight_filler {
      type: "uniform"
      min: -0.01
      max: 0.01
    }
    axis: 2
  }
}
layer {
  name: "lstm1_gate_input_2"
  type: "Eltwise"
  bottom: "W_hc_h_1"
  bottom: "W_xc_x_2"
  top: "gate_input_2"
  eltwise_param {
    operation: SUM
  }
}
layer {
  name: "lstm1_unit_2"
  type: "LSTMUnit"
  bottom: "c_1"
  bottom: "gate_input_2"
  bottom: "cont_2"
  top: "c_2"
  top: "h_2"
}
layer {
  name: "lstm1_h_conted_2"
  type: "Scale"
  bottom: "h_2"
  bottom: "cont_3"
  top: "h_conted_2"
  scale_param {
    axis: 0
  }
}
layer {
  name: "lstm1_transform_3"
  type: "InnerProduct"
  bottom: "h_conted_2"
  top: "W_hc_h_2"
  param {
    name: "W_hc"
  }
  inner_product_param {
    num_output: 2048
    bias_term: false
    weight_filler {
      type: "uniform"
      min: -0.01
      max: 0.01
    }
    axis: 2
  }
}
layer {
  name: "lstm1_gate_input_3"
  type: "Eltwise"
  bottom: "W_hc_h_2"
  bottom: "W_xc_x_3"
  top: "gate_input_3"
  eltwise_param {
    operation: SUM
  }
}
layer {
  name: "lstm1_unit_3"
  type: "LSTMUnit"
  bottom: "c_2"
  bottom: "gate_input_3"
  bottom: "cont_3"
  top: "c_3"
  top: "h_3"
}
layer {
  name: "lstm1_h_conted_3"
  type: "Scale"
  bottom: "h_3"
  bottom: "cont_4"
  top: "h_conted_3"
  scale_param {
    axis: 0
  }
}
layer {
  name: "lstm1_transform_4"
  type: "InnerProduct"
  bottom: "h_conted_3"
  top: "W_hc_h_3"
  param {
    name: "W_hc"
  }
  inner_product_param {
    num_output: 2048
    bias_term: false
    weight_filler {
      type: "uniform"
      min: -0.01
      max: 0.01
    }
    axis: 2
  }
}
layer {
  name: "lstm1_gate_input_4"
  type: "Eltwise"
  bottom: "W_hc_h_3"
  bottom: "W_xc_x_4"
  top: "gate_input_4"
  eltwise_param {
    operation: SUM
  }
}
layer {
  name: "lstm1_unit_4"
  type: "LSTMUnit"
  bottom: "c_3"
  bottom: "gate_input_4"
  bottom: "cont_4"
  top: "c_4"
  top: "h_4"
}
layer {
  name: "lstm1_h_conted_4"
  type: "Scale"
  bottom: "h_4"
  bottom: "cont_5"
  top: "h_conted_4"
  scale_param {
    axis: 0
  }
}
layer {
  name: "lstm1_transform_5"
  type: "InnerProduct"
  bottom: "h_conted_4"
  top: "W_hc_h_4"
  param {
    name: "W_hc"
  }
  inner_product_param {
    num_output: 2048
    bias_term: false
    weight_filler {
      type: "uniform"
      min: -0.01
      max: 0.01
    }
    axis: 2
  }
}
layer {
  name: "lstm1_gate_input_5"
  type: "Eltwise"
  bottom: "W_hc_h_4"
  bottom: "W_xc_x_5"
  top: "gate_input_5"
  eltwise_param {
    operation: SUM
  }
}
layer {
  name: "lstm1_unit_5"
  type: "LSTMUnit"
  bottom: "c_4"
  bottom: "gate_input_5"
  bottom: "cont_5"
  top: "c_5"
  top: "h_5"
}
layer {
  name: "lstm1_h_conted_5"
  type: "Scale"
  bottom: "h_5"
  bottom: "cont_6"
  top: "h_conted_5"
  scale_param {
    axis: 0
  }
}
layer {
  name: "lstm1_transform_6"
  type: "InnerProduct"
  bottom: "h_conted_5"
  top: "W_hc_h_5"
  param {
    name: "W_hc"
  }
  inner_product_param {
    num_output: 2048
    bias_term: false
    weight_filler {
      type: "uniform"
      min: -0.01
      max: 0.01
    }
    axis: 2
  }
}
layer {
  name: "lstm1_gate_input_6"
  type: "Eltwise"
  bottom: "W_hc_h_5"
  bottom: "W_xc_x_6"
  top: "gate_input_6"
  eltwise_param {
    operation: SUM
  }
}
layer {
  name: "lstm1_unit_6"
  type: "LSTMUnit"
  bottom: "c_5"
  bottom: "gate_input_6"
  bottom: "cont_6"
  top: "c_6"
  top: "h_6"
}
layer {
  name: "lstm1_h_conted_6"
  type: "Scale"
  bottom: "h_6"
  bottom: "cont_7"
  top: "h_conted_6"
  scale_param {
    axis: 0
  }
}
layer {
  name: "lstm1_transform_7"
  type: "InnerProduct"
  bottom: "h_conted_6"
  top: "W_hc_h_6"
  param {
    name: "W_hc"
  }
  inner_product_param {
    num_output: 2048
    bias_term: false
    weight_filler {
      type: "uniform"
      min: -0.01
      max: 0.01
    }
    axis: 2
  }
}
layer {
  name: "lstm1_gate_input_7"
  type: "Eltwise"
  bottom: "W_hc_h_6"
  bottom: "W_xc_x_7"
  top: "gate_input_7"
  eltwise_param {
    operation: SUM
  }
}
layer {
  name: "lstm1_unit_7"
  type: "LSTMUnit"
  bottom: "c_6"
  bottom: "gate_input_7"
  bottom: "cont_7"
  top: "c_7"
  top: "h_7"
}
layer {
  name: "lstm1_h_conted_7"
  type: "Scale"
  bottom: "h_7"
  bottom: "cont_8"
  top: "h_conted_7"
  scale_param {
    axis: 0
  }
}
layer {
  name: "lstm1_transform_8"
  type: "InnerProduct"
  bottom: "h_conted_7"
  top: "W_hc_h_7"
  param {
    name: "W_hc"
  }
  inner_product_param {
    num_output: 2048
    bias_term: false
    weight_filler {
      type: "uniform"
      min: -0.01
      max: 0.01
    }
    axis: 2
  }
}
layer {
  name: "lstm1_gate_input_8"
  type: "Eltwise"
  bottom: "W_hc_h_7"
  bottom: "W_xc_x_8"
  top: "gate_input_8"
  eltwise_param {
    operation: SUM
  }
}
layer {
  name: "lstm1_unit_8"
  type: "LSTMUnit"
  bottom: "c_7"
  bottom: "gate_input_8"
  bottom: "cont_8"
  top: "c_8"
  top: "h_8"
}
layer {
  name: "lstm1_"
  type: "Split"
  bottom: "c_8"
  top: "c_T"
}
layer {
  name: "lstm1_h_concat"
  type: "Concat"
  bottom: "h_1"
  bottom: "h_2"
  bottom: "h_3"
  bottom: "h_4"
  bottom: "h_5"
  bottom: "h_6"
  bottom: "h_7"
  bottom: "h_8"
  top: "h"
  concat_param {
    axis: 0
  }
}
layer {
  name: "h_pseudoloss"
  type: "Reduction"
  bottom: "h"
  top: "h_pseudoloss"
  loss_weight: 1
}
I1018 12:24:29.269383 35040 layer_factory.hpp:77] Creating layer lstm1_
I1018 12:24:29.269403 35040 net.cpp:84] Creating Layer lstm1_
I1018 12:24:29.269409 35040 net.cpp:380] lstm1_ -> x
I1018 12:24:29.269423 35040 net.cpp:380] lstm1_ -> cont
I1018 12:24:29.269469 35040 net.cpp:122] Setting up lstm1_
I1018 12:24:29.269480 35040 net.cpp:129] Top shape: 8 4 4096 (131072)
I1018 12:24:29.269486 35040 net.cpp:129] Top shape: 8 4 (32)
I1018 12:24:29.269490 35040 net.cpp:137] Memory required for data: 524416
I1018 12:24:29.269495 35040 layer_factory.hpp:77] Creating layer lstm1_
I1018 12:24:29.269502 35040 net.cpp:84] Creating Layer lstm1_
I1018 12:24:29.269510 35040 net.cpp:380] lstm1_ -> c_0
I1018 12:24:29.269520 35040 net.cpp:380] lstm1_ -> h_0
I1018 12:24:29.269562 35040 net.cpp:122] Setting up lstm1_
I1018 12:24:29.269572 35040 net.cpp:129] Top shape: 1 4 512 (2048)
I1018 12:24:29.269577 35040 net.cpp:129] Top shape: 1 4 512 (2048)
I1018 12:24:29.269580 35040 net.cpp:137] Memory required for data: 540800
I1018 12:24:29.269584 35040 layer_factory.hpp:77] Creating layer lstm1_cont_slice
I1018 12:24:29.269596 35040 net.cpp:84] Creating Layer lstm1_cont_slice
I1018 12:24:29.269601 35040 net.cpp:406] lstm1_cont_slice <- cont
I1018 12:24:29.269609 35040 net.cpp:380] lstm1_cont_slice -> cont_1
I1018 12:24:29.269618 35040 net.cpp:380] lstm1_cont_slice -> cont_2
I1018 12:24:29.269625 35040 net.cpp:380] lstm1_cont_slice -> cont_3
I1018 12:24:29.269631 35040 net.cpp:380] lstm1_cont_slice -> cont_4
I1018 12:24:29.269637 35040 net.cpp:380] lstm1_cont_slice -> cont_5
I1018 12:24:29.269645 35040 net.cpp:380] lstm1_cont_slice -> cont_6
I1018 12:24:29.269651 35040 net.cpp:380] lstm1_cont_slice -> cont_7
I1018 12:24:29.269657 35040 net.cpp:380] lstm1_cont_slice -> cont_8
I1018 12:24:29.269763 35040 net.cpp:122] Setting up lstm1_cont_slice
I1018 12:24:29.269775 35040 net.cpp:129] Top shape: 1 4 (4)
I1018 12:24:29.269780 35040 net.cpp:129] Top shape: 1 4 (4)
I1018 12:24:29.269784 35040 net.cpp:129] Top shape: 1 4 (4)
I1018 12:24:29.269789 35040 net.cpp:129] Top shape: 1 4 (4)
I1018 12:24:29.269793 35040 net.cpp:129] Top shape: 1 4 (4)
I1018 12:24:29.269798 35040 net.cpp:129] Top shape: 1 4 (4)
I1018 12:24:29.269803 35040 net.cpp:129] Top shape: 1 4 (4)
I1018 12:24:29.269807 35040 net.cpp:129] Top shape: 1 4 (4)
I1018 12:24:29.269810 35040 net.cpp:137] Memory required for data: 540928
I1018 12:24:29.269814 35040 layer_factory.hpp:77] Creating layer cont_1_lstm1_cont_slice_0_split
I1018 12:24:29.269821 35040 net.cpp:84] Creating Layer cont_1_lstm1_cont_slice_0_split
I1018 12:24:29.269825 35040 net.cpp:406] cont_1_lstm1_cont_slice_0_split <- cont_1
I1018 12:24:29.269832 35040 net.cpp:380] cont_1_lstm1_cont_slice_0_split -> cont_1_lstm1_cont_slice_0_split_0
I1018 12:24:29.269839 35040 net.cpp:380] cont_1_lstm1_cont_slice_0_split -> cont_1_lstm1_cont_slice_0_split_1
I1018 12:24:29.269871 35040 net.cpp:122] Setting up cont_1_lstm1_cont_slice_0_split
I1018 12:24:29.269879 35040 net.cpp:129] Top shape: 1 4 (4)
I1018 12:24:29.269884 35040 net.cpp:129] Top shape: 1 4 (4)
I1018 12:24:29.269888 35040 net.cpp:137] Memory required for data: 540960
I1018 12:24:29.269892 35040 layer_factory.hpp:77] Creating layer cont_2_lstm1_cont_slice_1_split
I1018 12:24:29.269898 35040 net.cpp:84] Creating Layer cont_2_lstm1_cont_slice_1_split
I1018 12:24:29.269902 35040 net.cpp:406] cont_2_lstm1_cont_slice_1_split <- cont_2
I1018 12:24:29.269911 35040 net.cpp:380] cont_2_lstm1_cont_slice_1_split -> cont_2_lstm1_cont_slice_1_split_0
I1018 12:24:29.269918 35040 net.cpp:380] cont_2_lstm1_cont_slice_1_split -> cont_2_lstm1_cont_slice_1_split_1
I1018 12:24:29.269946 35040 net.cpp:122] Setting up cont_2_lstm1_cont_slice_1_split
I1018 12:24:29.269954 35040 net.cpp:129] Top shape: 1 4 (4)
I1018 12:24:29.269959 35040 net.cpp:129] Top shape: 1 4 (4)
I1018 12:24:29.269963 35040 net.cpp:137] Memory required for data: 540992
I1018 12:24:29.269968 35040 layer_factory.hpp:77] Creating layer cont_3_lstm1_cont_slice_2_split
I1018 12:24:29.269974 35040 net.cpp:84] Creating Layer cont_3_lstm1_cont_slice_2_split
I1018 12:24:29.269979 35040 net.cpp:406] cont_3_lstm1_cont_slice_2_split <- cont_3
I1018 12:24:29.269985 35040 net.cpp:380] cont_3_lstm1_cont_slice_2_split -> cont_3_lstm1_cont_slice_2_split_0
I1018 12:24:29.269992 35040 net.cpp:380] cont_3_lstm1_cont_slice_2_split -> cont_3_lstm1_cont_slice_2_split_1
I1018 12:24:29.270025 35040 net.cpp:122] Setting up cont_3_lstm1_cont_slice_2_split
I1018 12:24:29.270036 35040 net.cpp:129] Top shape: 1 4 (4)
I1018 12:24:29.270041 35040 net.cpp:129] Top shape: 1 4 (4)
I1018 12:24:29.270045 35040 net.cpp:137] Memory required for data: 541024
I1018 12:24:29.270048 35040 layer_factory.hpp:77] Creating layer cont_4_lstm1_cont_slice_3_split
I1018 12:24:29.270054 35040 net.cpp:84] Creating Layer cont_4_lstm1_cont_slice_3_split
I1018 12:24:29.270058 35040 net.cpp:406] cont_4_lstm1_cont_slice_3_split <- cont_4
I1018 12:24:29.270063 35040 net.cpp:380] cont_4_lstm1_cont_slice_3_split -> cont_4_lstm1_cont_slice_3_split_0
I1018 12:24:29.270071 35040 net.cpp:380] cont_4_lstm1_cont_slice_3_split -> cont_4_lstm1_cont_slice_3_split_1
I1018 12:24:29.270102 35040 net.cpp:122] Setting up cont_4_lstm1_cont_slice_3_split
I1018 12:24:29.270110 35040 net.cpp:129] Top shape: 1 4 (4)
I1018 12:24:29.270115 35040 net.cpp:129] Top shape: 1 4 (4)
I1018 12:24:29.270119 35040 net.cpp:137] Memory required for data: 541056
I1018 12:24:29.270123 35040 layer_factory.hpp:77] Creating layer cont_5_lstm1_cont_slice_4_split
I1018 12:24:29.270128 35040 net.cpp:84] Creating Layer cont_5_lstm1_cont_slice_4_split
I1018 12:24:29.270131 35040 net.cpp:406] cont_5_lstm1_cont_slice_4_split <- cont_5
I1018 12:24:29.270139 35040 net.cpp:380] cont_5_lstm1_cont_slice_4_split -> cont_5_lstm1_cont_slice_4_split_0
I1018 12:24:29.270146 35040 net.cpp:380] cont_5_lstm1_cont_slice_4_split -> cont_5_lstm1_cont_slice_4_split_1
I1018 12:24:29.270175 35040 net.cpp:122] Setting up cont_5_lstm1_cont_slice_4_split
I1018 12:24:29.270184 35040 net.cpp:129] Top shape: 1 4 (4)
I1018 12:24:29.270189 35040 net.cpp:129] Top shape: 1 4 (4)
I1018 12:24:29.270191 35040 net.cpp:137] Memory required for data: 541088
I1018 12:24:29.270195 35040 layer_factory.hpp:77] Creating layer cont_6_lstm1_cont_slice_5_split
I1018 12:24:29.270203 35040 net.cpp:84] Creating Layer cont_6_lstm1_cont_slice_5_split
I1018 12:24:29.270207 35040 net.cpp:406] cont_6_lstm1_cont_slice_5_split <- cont_6
I1018 12:24:29.270213 35040 net.cpp:380] cont_6_lstm1_cont_slice_5_split -> cont_6_lstm1_cont_slice_5_split_0
I1018 12:24:29.270220 35040 net.cpp:380] cont_6_lstm1_cont_slice_5_split -> cont_6_lstm1_cont_slice_5_split_1
I1018 12:24:29.270251 35040 net.cpp:122] Setting up cont_6_lstm1_cont_slice_5_split
I1018 12:24:29.270257 35040 net.cpp:129] Top shape: 1 4 (4)
I1018 12:24:29.270262 35040 net.cpp:129] Top shape: 1 4 (4)
I1018 12:24:29.270267 35040 net.cpp:137] Memory required for data: 541120
I1018 12:24:29.270270 35040 layer_factory.hpp:77] Creating layer cont_7_lstm1_cont_slice_6_split
I1018 12:24:29.270275 35040 net.cpp:84] Creating Layer cont_7_lstm1_cont_slice_6_split
I1018 12:24:29.270279 35040 net.cpp:406] cont_7_lstm1_cont_slice_6_split <- cont_7
I1018 12:24:29.270285 35040 net.cpp:380] cont_7_lstm1_cont_slice_6_split -> cont_7_lstm1_cont_slice_6_split_0
I1018 12:24:29.270292 35040 net.cpp:380] cont_7_lstm1_cont_slice_6_split -> cont_7_lstm1_cont_slice_6_split_1
I1018 12:24:29.270320 35040 net.cpp:122] Setting up cont_7_lstm1_cont_slice_6_split
I1018 12:24:29.270328 35040 net.cpp:129] Top shape: 1 4 (4)
I1018 12:24:29.270334 35040 net.cpp:129] Top shape: 1 4 (4)
I1018 12:24:29.270336 35040 net.cpp:137] Memory required for data: 541152
I1018 12:24:29.270340 35040 layer_factory.hpp:77] Creating layer cont_8_lstm1_cont_slice_7_split
I1018 12:24:29.270345 35040 net.cpp:84] Creating Layer cont_8_lstm1_cont_slice_7_split
I1018 12:24:29.270349 35040 net.cpp:406] cont_8_lstm1_cont_slice_7_split <- cont_8
I1018 12:24:29.270355 35040 net.cpp:380] cont_8_lstm1_cont_slice_7_split -> cont_8_lstm1_cont_slice_7_split_0
I1018 12:24:29.270364 35040 net.cpp:380] cont_8_lstm1_cont_slice_7_split -> cont_8_lstm1_cont_slice_7_split_1
I1018 12:24:29.270391 35040 net.cpp:122] Setting up cont_8_lstm1_cont_slice_7_split
I1018 12:24:29.270398 35040 net.cpp:129] Top shape: 1 4 (4)
I1018 12:24:29.270403 35040 net.cpp:129] Top shape: 1 4 (4)
I1018 12:24:29.270406 35040 net.cpp:137] Memory required for data: 541184
I1018 12:24:29.270411 35040 layer_factory.hpp:77] Creating layer lstm1_x_transform
I1018 12:24:29.270424 35040 net.cpp:84] Creating Layer lstm1_x_transform
I1018 12:24:29.270429 35040 net.cpp:406] lstm1_x_transform <- x
I1018 12:24:29.270437 35040 net.cpp:380] lstm1_x_transform -> W_xc_x
I1018 12:24:29.364787 35040 net.cpp:122] Setting up lstm1_x_transform
I1018 12:24:29.364816 35040 net.cpp:129] Top shape: 8 4 2048 (65536)
I1018 12:24:29.364821 35040 net.cpp:137] Memory required for data: 803328
I1018 12:24:29.364840 35040 layer_factory.hpp:77] Creating layer lstm1_W_xc_x_slice
I1018 12:24:29.364853 35040 net.cpp:84] Creating Layer lstm1_W_xc_x_slice
I1018 12:24:29.364861 35040 net.cpp:406] lstm1_W_xc_x_slice <- W_xc_x
I1018 12:24:29.364871 35040 net.cpp:380] lstm1_W_xc_x_slice -> W_xc_x_1
I1018 12:24:29.364884 35040 net.cpp:380] lstm1_W_xc_x_slice -> W_xc_x_2
I1018 12:24:29.364892 35040 net.cpp:380] lstm1_W_xc_x_slice -> W_xc_x_3
I1018 12:24:29.364898 35040 net.cpp:380] lstm1_W_xc_x_slice -> W_xc_x_4
I1018 12:24:29.364910 35040 net.cpp:380] lstm1_W_xc_x_slice -> W_xc_x_5
I1018 12:24:29.364917 35040 net.cpp:380] lstm1_W_xc_x_slice -> W_xc_x_6
I1018 12:24:29.364923 35040 net.cpp:380] lstm1_W_xc_x_slice -> W_xc_x_7
I1018 12:24:29.364929 35040 net.cpp:380] lstm1_W_xc_x_slice -> W_xc_x_8
I1018 12:24:29.365067 35040 net.cpp:122] Setting up lstm1_W_xc_x_slice
I1018 12:24:29.365078 35040 net.cpp:129] Top shape: 1 4 2048 (8192)
I1018 12:24:29.365083 35040 net.cpp:129] Top shape: 1 4 2048 (8192)
I1018 12:24:29.365088 35040 net.cpp:129] Top shape: 1 4 2048 (8192)
I1018 12:24:29.365095 35040 net.cpp:129] Top shape: 1 4 2048 (8192)
I1018 12:24:29.365100 35040 net.cpp:129] Top shape: 1 4 2048 (8192)
I1018 12:24:29.365105 35040 net.cpp:129] Top shape: 1 4 2048 (8192)
I1018 12:24:29.365109 35040 net.cpp:129] Top shape: 1 4 2048 (8192)
I1018 12:24:29.365114 35040 net.cpp:129] Top shape: 1 4 2048 (8192)
I1018 12:24:29.365118 35040 net.cpp:137] Memory required for data: 1065472
I1018 12:24:29.365123 35040 layer_factory.hpp:77] Creating layer lstm1_h_conted_0
I1018 12:24:29.365139 35040 net.cpp:84] Creating Layer lstm1_h_conted_0
I1018 12:24:29.365144 35040 net.cpp:406] lstm1_h_conted_0 <- h_0
I1018 12:24:29.365151 35040 net.cpp:406] lstm1_h_conted_0 <- cont_1_lstm1_cont_slice_0_split_0
I1018 12:24:29.365157 35040 net.cpp:380] lstm1_h_conted_0 -> h_conted_0
I1018 12:24:29.365242 35040 net.cpp:122] Setting up lstm1_h_conted_0
I1018 12:24:29.365252 35040 net.cpp:129] Top shape: 1 4 512 (2048)
I1018 12:24:29.365257 35040 net.cpp:137] Memory required for data: 1073664
I1018 12:24:29.365260 35040 layer_factory.hpp:77] Creating layer lstm1_transform_1
I1018 12:24:29.365269 35040 net.cpp:84] Creating Layer lstm1_transform_1
I1018 12:24:29.365274 35040 net.cpp:406] lstm1_transform_1 <- h_conted_0
I1018 12:24:29.365283 35040 net.cpp:380] lstm1_transform_1 -> W_hc_h_0
I1018 12:24:29.377306 35040 net.cpp:122] Setting up lstm1_transform_1
I1018 12:24:29.377323 35040 net.cpp:129] Top shape: 1 4 2048 (8192)
I1018 12:24:29.377328 35040 net.cpp:137] Memory required for data: 1106432
I1018 12:24:29.377337 35040 layer_factory.hpp:77] Creating layer lstm1_gate_input_1
I1018 12:24:29.377346 35040 net.cpp:84] Creating Layer lstm1_gate_input_1
I1018 12:24:29.377351 35040 net.cpp:406] lstm1_gate_input_1 <- W_hc_h_0
I1018 12:24:29.377357 35040 net.cpp:406] lstm1_gate_input_1 <- W_xc_x_1
I1018 12:24:29.377363 35040 net.cpp:380] lstm1_gate_input_1 -> gate_input_1
I1018 12:24:29.377398 35040 net.cpp:122] Setting up lstm1_gate_input_1
I1018 12:24:29.377408 35040 net.cpp:129] Top shape: 1 4 2048 (8192)
I1018 12:24:29.377413 35040 net.cpp:137] Memory required for data: 1139200
I1018 12:24:29.377416 35040 layer_factory.hpp:77] Creating layer lstm1_unit_1
I1018 12:24:29.377429 35040 net.cpp:84] Creating Layer lstm1_unit_1
I1018 12:24:29.377434 35040 net.cpp:406] lstm1_unit_1 <- c_0
I1018 12:24:29.377439 35040 net.cpp:406] lstm1_unit_1 <- gate_input_1
I1018 12:24:29.377444 35040 net.cpp:406] lstm1_unit_1 <- cont_1_lstm1_cont_slice_0_split_1
I1018 12:24:29.377450 35040 net.cpp:380] lstm1_unit_1 -> c_1
I1018 12:24:29.377459 35040 net.cpp:380] lstm1_unit_1 -> h_1
I1018 12:24:29.377506 35040 net.cpp:122] Setting up lstm1_unit_1
I1018 12:24:29.377516 35040 net.cpp:129] Top shape: 1 4 512 (2048)
I1018 12:24:29.377521 35040 net.cpp:129] Top shape: 1 4 512 (2048)
I1018 12:24:29.377524 35040 net.cpp:137] Memory required for data: 1155584
I1018 12:24:29.377528 35040 layer_factory.hpp:77] Creating layer h_1_lstm1_unit_1_1_split
I1018 12:24:29.377535 35040 net.cpp:84] Creating Layer h_1_lstm1_unit_1_1_split
I1018 12:24:29.377540 35040 net.cpp:406] h_1_lstm1_unit_1_1_split <- h_1
I1018 12:24:29.377547 35040 net.cpp:380] h_1_lstm1_unit_1_1_split -> h_1_lstm1_unit_1_1_split_0
I1018 12:24:29.377553 35040 net.cpp:380] h_1_lstm1_unit_1_1_split -> h_1_lstm1_unit_1_1_split_1
I1018 12:24:29.377586 35040 net.cpp:122] Setting up h_1_lstm1_unit_1_1_split
I1018 12:24:29.377595 35040 net.cpp:129] Top shape: 1 4 512 (2048)
I1018 12:24:29.377600 35040 net.cpp:129] Top shape: 1 4 512 (2048)
I1018 12:24:29.377604 35040 net.cpp:137] Memory required for data: 1171968
I1018 12:24:29.377609 35040 layer_factory.hpp:77] Creating layer lstm1_h_conted_1
I1018 12:24:29.377616 35040 net.cpp:84] Creating Layer lstm1_h_conted_1
I1018 12:24:29.377620 35040 net.cpp:406] lstm1_h_conted_1 <- h_1_lstm1_unit_1_1_split_0
I1018 12:24:29.377626 35040 net.cpp:406] lstm1_h_conted_1 <- cont_2_lstm1_cont_slice_1_split_0
I1018 12:24:29.377632 35040 net.cpp:380] lstm1_h_conted_1 -> h_conted_1
I1018 12:24:29.377686 35040 net.cpp:122] Setting up lstm1_h_conted_1
I1018 12:24:29.377696 35040 net.cpp:129] Top shape: 1 4 512 (2048)
I1018 12:24:29.377699 35040 net.cpp:137] Memory required for data: 1180160
I1018 12:24:29.377703 35040 layer_factory.hpp:77] Creating layer lstm1_transform_2
I1018 12:24:29.377710 35040 net.cpp:84] Creating Layer lstm1_transform_2
I1018 12:24:29.377715 35040 net.cpp:406] lstm1_transform_2 <- h_conted_1
I1018 12:24:29.377723 35040 net.cpp:380] lstm1_transform_2 -> W_hc_h_1
I1018 12:24:29.389592 35040 net.cpp:122] Setting up lstm1_transform_2
I1018 12:24:29.389608 35040 net.cpp:129] Top shape: 1 4 2048 (8192)
I1018 12:24:29.389613 35040 net.cpp:137] Memory required for data: 1212928
I1018 12:24:29.389619 35040 net.cpp:465] Sharing parameters 'W_hc' owned by layer 'lstm1_transform_1', param index 0
I1018 12:24:29.389626 35040 layer_factory.hpp:77] Creating layer lstm1_gate_input_2
I1018 12:24:29.389633 35040 net.cpp:84] Creating Layer lstm1_gate_input_2
I1018 12:24:29.389638 35040 net.cpp:406] lstm1_gate_input_2 <- W_hc_h_1
I1018 12:24:29.389644 35040 net.cpp:406] lstm1_gate_input_2 <- W_xc_x_2
I1018 12:24:29.389650 35040 net.cpp:380] lstm1_gate_input_2 -> gate_input_2
I1018 12:24:29.389679 35040 net.cpp:122] Setting up lstm1_gate_input_2
I1018 12:24:29.389688 35040 net.cpp:129] Top shape: 1 4 2048 (8192)
I1018 12:24:29.389693 35040 net.cpp:137] Memory required for data: 1245696
I1018 12:24:29.389696 35040 layer_factory.hpp:77] Creating layer lstm1_unit_2
I1018 12:24:29.389704 35040 net.cpp:84] Creating Layer lstm1_unit_2
I1018 12:24:29.389708 35040 net.cpp:406] lstm1_unit_2 <- c_1
I1018 12:24:29.389714 35040 net.cpp:406] lstm1_unit_2 <- gate_input_2
I1018 12:24:29.389720 35040 net.cpp:406] lstm1_unit_2 <- cont_2_lstm1_cont_slice_1_split_1
I1018 12:24:29.389725 35040 net.cpp:380] lstm1_unit_2 -> c_2
I1018 12:24:29.389734 35040 net.cpp:380] lstm1_unit_2 -> h_2
I1018 12:24:29.389777 35040 net.cpp:122] Setting up lstm1_unit_2
I1018 12:24:29.389786 35040 net.cpp:129] Top shape: 1 4 512 (2048)
I1018 12:24:29.389791 35040 net.cpp:129] Top shape: 1 4 512 (2048)
I1018 12:24:29.389794 35040 net.cpp:137] Memory required for data: 1262080
I1018 12:24:29.389798 35040 layer_factory.hpp:77] Creating layer h_2_lstm1_unit_2_1_split
I1018 12:24:29.389806 35040 net.cpp:84] Creating Layer h_2_lstm1_unit_2_1_split
I1018 12:24:29.389811 35040 net.cpp:406] h_2_lstm1_unit_2_1_split <- h_2
I1018 12:24:29.389816 35040 net.cpp:380] h_2_lstm1_unit_2_1_split -> h_2_lstm1_unit_2_1_split_0
I1018 12:24:29.389823 35040 net.cpp:380] h_2_lstm1_unit_2_1_split -> h_2_lstm1_unit_2_1_split_1
I1018 12:24:29.389854 35040 net.cpp:122] Setting up h_2_lstm1_unit_2_1_split
I1018 12:24:29.389863 35040 net.cpp:129] Top shape: 1 4 512 (2048)
I1018 12:24:29.389868 35040 net.cpp:129] Top shape: 1 4 512 (2048)
I1018 12:24:29.389871 35040 net.cpp:137] Memory required for data: 1278464
I1018 12:24:29.389875 35040 layer_factory.hpp:77] Creating layer lstm1_h_conted_2
I1018 12:24:29.389883 35040 net.cpp:84] Creating Layer lstm1_h_conted_2
I1018 12:24:29.389889 35040 net.cpp:406] lstm1_h_conted_2 <- h_2_lstm1_unit_2_1_split_0
I1018 12:24:29.389894 35040 net.cpp:406] lstm1_h_conted_2 <- cont_3_lstm1_cont_slice_2_split_0
I1018 12:24:29.389900 35040 net.cpp:380] lstm1_h_conted_2 -> h_conted_2
I1018 12:24:29.389957 35040 net.cpp:122] Setting up lstm1_h_conted_2
I1018 12:24:29.389966 35040 net.cpp:129] Top shape: 1 4 512 (2048)
I1018 12:24:29.389969 35040 net.cpp:137] Memory required for data: 1286656
I1018 12:24:29.389973 35040 layer_factory.hpp:77] Creating layer lstm1_transform_3
I1018 12:24:29.389981 35040 net.cpp:84] Creating Layer lstm1_transform_3
I1018 12:24:29.389986 35040 net.cpp:406] lstm1_transform_3 <- h_conted_2
I1018 12:24:29.389993 35040 net.cpp:380] lstm1_transform_3 -> W_hc_h_2
I1018 12:24:29.401726 35040 net.cpp:122] Setting up lstm1_transform_3
I1018 12:24:29.401742 35040 net.cpp:129] Top shape: 1 4 2048 (8192)
I1018 12:24:29.401747 35040 net.cpp:137] Memory required for data: 1319424
I1018 12:24:29.401756 35040 net.cpp:465] Sharing parameters 'W_hc' owned by layer 'lstm1_transform_1', param index 0
I1018 12:24:29.401760 35040 layer_factory.hpp:77] Creating layer lstm1_gate_input_3
I1018 12:24:29.401768 35040 net.cpp:84] Creating Layer lstm1_gate_input_3
I1018 12:24:29.401773 35040 net.cpp:406] lstm1_gate_input_3 <- W_hc_h_2
I1018 12:24:29.401780 35040 net.cpp:406] lstm1_gate_input_3 <- W_xc_x_3
I1018 12:24:29.401787 35040 net.cpp:380] lstm1_gate_input_3 -> gate_input_3
I1018 12:24:29.401816 35040 net.cpp:122] Setting up lstm1_gate_input_3
I1018 12:24:29.401823 35040 net.cpp:129] Top shape: 1 4 2048 (8192)
I1018 12:24:29.401826 35040 net.cpp:137] Memory required for data: 1352192
I1018 12:24:29.401830 35040 layer_factory.hpp:77] Creating layer lstm1_unit_3
I1018 12:24:29.401844 35040 net.cpp:84] Creating Layer lstm1_unit_3
I1018 12:24:29.401849 35040 net.cpp:406] lstm1_unit_3 <- c_2
I1018 12:24:29.401855 35040 net.cpp:406] lstm1_unit_3 <- gate_input_3
I1018 12:24:29.401860 35040 net.cpp:406] lstm1_unit_3 <- cont_3_lstm1_cont_slice_2_split_1
I1018 12:24:29.401866 35040 net.cpp:380] lstm1_unit_3 -> c_3
I1018 12:24:29.401873 35040 net.cpp:380] lstm1_unit_3 -> h_3
I1018 12:24:29.401918 35040 net.cpp:122] Setting up lstm1_unit_3
I1018 12:24:29.401928 35040 net.cpp:129] Top shape: 1 4 512 (2048)
I1018 12:24:29.401933 35040 net.cpp:129] Top shape: 1 4 512 (2048)
I1018 12:24:29.401937 35040 net.cpp:137] Memory required for data: 1368576
I1018 12:24:29.401940 35040 layer_factory.hpp:77] Creating layer h_3_lstm1_unit_3_1_split
I1018 12:24:29.401948 35040 net.cpp:84] Creating Layer h_3_lstm1_unit_3_1_split
I1018 12:24:29.401952 35040 net.cpp:406] h_3_lstm1_unit_3_1_split <- h_3
I1018 12:24:29.401959 35040 net.cpp:380] h_3_lstm1_unit_3_1_split -> h_3_lstm1_unit_3_1_split_0
I1018 12:24:29.401967 35040 net.cpp:380] h_3_lstm1_unit_3_1_split -> h_3_lstm1_unit_3_1_split_1
I1018 12:24:29.401998 35040 net.cpp:122] Setting up h_3_lstm1_unit_3_1_split
I1018 12:24:29.402005 35040 net.cpp:129] Top shape: 1 4 512 (2048)
I1018 12:24:29.402010 35040 net.cpp:129] Top shape: 1 4 512 (2048)
I1018 12:24:29.402014 35040 net.cpp:137] Memory required for data: 1384960
I1018 12:24:29.402017 35040 layer_factory.hpp:77] Creating layer lstm1_h_conted_3
I1018 12:24:29.402026 35040 net.cpp:84] Creating Layer lstm1_h_conted_3
I1018 12:24:29.402031 35040 net.cpp:406] lstm1_h_conted_3 <- h_3_lstm1_unit_3_1_split_0
I1018 12:24:29.402037 35040 net.cpp:406] lstm1_h_conted_3 <- cont_4_lstm1_cont_slice_3_split_0
I1018 12:24:29.402043 35040 net.cpp:380] lstm1_h_conted_3 -> h_conted_3
I1018 12:24:29.402097 35040 net.cpp:122] Setting up lstm1_h_conted_3
I1018 12:24:29.402107 35040 net.cpp:129] Top shape: 1 4 512 (2048)
I1018 12:24:29.402110 35040 net.cpp:137] Memory required for data: 1393152
I1018 12:24:29.402114 35040 layer_factory.hpp:77] Creating layer lstm1_transform_4
I1018 12:24:29.402123 35040 net.cpp:84] Creating Layer lstm1_transform_4
I1018 12:24:29.402128 35040 net.cpp:406] lstm1_transform_4 <- h_conted_3
I1018 12:24:29.402137 35040 net.cpp:380] lstm1_transform_4 -> W_hc_h_3
I1018 12:24:29.413842 35040 net.cpp:122] Setting up lstm1_transform_4
I1018 12:24:29.413859 35040 net.cpp:129] Top shape: 1 4 2048 (8192)
I1018 12:24:29.413864 35040 net.cpp:137] Memory required for data: 1425920
I1018 12:24:29.413869 35040 net.cpp:465] Sharing parameters 'W_hc' owned by layer 'lstm1_transform_1', param index 0
I1018 12:24:29.413874 35040 layer_factory.hpp:77] Creating layer lstm1_gate_input_4
I1018 12:24:29.413882 35040 net.cpp:84] Creating Layer lstm1_gate_input_4
I1018 12:24:29.413887 35040 net.cpp:406] lstm1_gate_input_4 <- W_hc_h_3
I1018 12:24:29.413893 35040 net.cpp:406] lstm1_gate_input_4 <- W_xc_x_4
I1018 12:24:29.413899 35040 net.cpp:380] lstm1_gate_input_4 -> gate_input_4
I1018 12:24:29.413925 35040 net.cpp:122] Setting up lstm1_gate_input_4
I1018 12:24:29.413933 35040 net.cpp:129] Top shape: 1 4 2048 (8192)
I1018 12:24:29.413936 35040 net.cpp:137] Memory required for data: 1458688
I1018 12:24:29.413940 35040 layer_factory.hpp:77] Creating layer lstm1_unit_4
I1018 12:24:29.413949 35040 net.cpp:84] Creating Layer lstm1_unit_4
I1018 12:24:29.413954 35040 net.cpp:406] lstm1_unit_4 <- c_3
I1018 12:24:29.413959 35040 net.cpp:406] lstm1_unit_4 <- gate_input_4
I1018 12:24:29.413964 35040 net.cpp:406] lstm1_unit_4 <- cont_4_lstm1_cont_slice_3_split_1
I1018 12:24:29.413970 35040 net.cpp:380] lstm1_unit_4 -> c_4
I1018 12:24:29.413977 35040 net.cpp:380] lstm1_unit_4 -> h_4
I1018 12:24:29.414021 35040 net.cpp:122] Setting up lstm1_unit_4
I1018 12:24:29.414031 35040 net.cpp:129] Top shape: 1 4 512 (2048)
I1018 12:24:29.414036 35040 net.cpp:129] Top shape: 1 4 512 (2048)
I1018 12:24:29.414039 35040 net.cpp:137] Memory required for data: 1475072
I1018 12:24:29.414043 35040 layer_factory.hpp:77] Creating layer h_4_lstm1_unit_4_1_split
I1018 12:24:29.414054 35040 net.cpp:84] Creating Layer h_4_lstm1_unit_4_1_split
I1018 12:24:29.414059 35040 net.cpp:406] h_4_lstm1_unit_4_1_split <- h_4
I1018 12:24:29.414065 35040 net.cpp:380] h_4_lstm1_unit_4_1_split -> h_4_lstm1_unit_4_1_split_0
I1018 12:24:29.414072 35040 net.cpp:380] h_4_lstm1_unit_4_1_split -> h_4_lstm1_unit_4_1_split_1
I1018 12:24:29.414113 35040 net.cpp:122] Setting up h_4_lstm1_unit_4_1_split
I1018 12:24:29.414122 35040 net.cpp:129] Top shape: 1 4 512 (2048)
I1018 12:24:29.414127 35040 net.cpp:129] Top shape: 1 4 512 (2048)
I1018 12:24:29.414131 35040 net.cpp:137] Memory required for data: 1491456
I1018 12:24:29.414135 35040 layer_factory.hpp:77] Creating layer lstm1_h_conted_4
I1018 12:24:29.414144 35040 net.cpp:84] Creating Layer lstm1_h_conted_4
I1018 12:24:29.414149 35040 net.cpp:406] lstm1_h_conted_4 <- h_4_lstm1_unit_4_1_split_0
I1018 12:24:29.414155 35040 net.cpp:406] lstm1_h_conted_4 <- cont_5_lstm1_cont_slice_4_split_0
I1018 12:24:29.414162 35040 net.cpp:380] lstm1_h_conted_4 -> h_conted_4
I1018 12:24:29.414219 35040 net.cpp:122] Setting up lstm1_h_conted_4
I1018 12:24:29.414227 35040 net.cpp:129] Top shape: 1 4 512 (2048)
I1018 12:24:29.414232 35040 net.cpp:137] Memory required for data: 1499648
I1018 12:24:29.414235 35040 layer_factory.hpp:77] Creating layer lstm1_transform_5
I1018 12:24:29.414243 35040 net.cpp:84] Creating Layer lstm1_transform_5
I1018 12:24:29.414247 35040 net.cpp:406] lstm1_transform_5 <- h_conted_4
I1018 12:24:29.414257 35040 net.cpp:380] lstm1_transform_5 -> W_hc_h_4
I1018 12:24:29.426162 35040 net.cpp:122] Setting up lstm1_transform_5
I1018 12:24:29.426182 35040 net.cpp:129] Top shape: 1 4 2048 (8192)
I1018 12:24:29.426187 35040 net.cpp:137] Memory required for data: 1532416
I1018 12:24:29.426192 35040 net.cpp:465] Sharing parameters 'W_hc' owned by layer 'lstm1_transform_1', param index 0
I1018 12:24:29.426198 35040 layer_factory.hpp:77] Creating layer lstm1_gate_input_5
I1018 12:24:29.426206 35040 net.cpp:84] Creating Layer lstm1_gate_input_5
I1018 12:24:29.426211 35040 net.cpp:406] lstm1_gate_input_5 <- W_hc_h_4
I1018 12:24:29.426218 35040 net.cpp:406] lstm1_gate_input_5 <- W_xc_x_5
I1018 12:24:29.426226 35040 net.cpp:380] lstm1_gate_input_5 -> gate_input_5
I1018 12:24:29.426257 35040 net.cpp:122] Setting up lstm1_gate_input_5
I1018 12:24:29.426265 35040 net.cpp:129] Top shape: 1 4 2048 (8192)
I1018 12:24:29.426270 35040 net.cpp:137] Memory required for data: 1565184
I1018 12:24:29.426273 35040 layer_factory.hpp:77] Creating layer lstm1_unit_5
I1018 12:24:29.426280 35040 net.cpp:84] Creating Layer lstm1_unit_5
I1018 12:24:29.426285 35040 net.cpp:406] lstm1_unit_5 <- c_4
I1018 12:24:29.426291 35040 net.cpp:406] lstm1_unit_5 <- gate_input_5
I1018 12:24:29.426300 35040 net.cpp:406] lstm1_unit_5 <- cont_5_lstm1_cont_slice_4_split_1
I1018 12:24:29.426306 35040 net.cpp:380] lstm1_unit_5 -> c_5
I1018 12:24:29.426312 35040 net.cpp:380] lstm1_unit_5 -> h_5
I1018 12:24:29.426357 35040 net.cpp:122] Setting up lstm1_unit_5
I1018 12:24:29.426365 35040 net.cpp:129] Top shape: 1 4 512 (2048)
I1018 12:24:29.426370 35040 net.cpp:129] Top shape: 1 4 512 (2048)
I1018 12:24:29.426374 35040 net.cpp:137] Memory required for data: 1581568
I1018 12:24:29.426378 35040 layer_factory.hpp:77] Creating layer h_5_lstm1_unit_5_1_split
I1018 12:24:29.426384 35040 net.cpp:84] Creating Layer h_5_lstm1_unit_5_1_split
I1018 12:24:29.426388 35040 net.cpp:406] h_5_lstm1_unit_5_1_split <- h_5
I1018 12:24:29.426395 35040 net.cpp:380] h_5_lstm1_unit_5_1_split -> h_5_lstm1_unit_5_1_split_0
I1018 12:24:29.426403 35040 net.cpp:380] h_5_lstm1_unit_5_1_split -> h_5_lstm1_unit_5_1_split_1
I1018 12:24:29.426437 35040 net.cpp:122] Setting up h_5_lstm1_unit_5_1_split
I1018 12:24:29.426445 35040 net.cpp:129] Top shape: 1 4 512 (2048)
I1018 12:24:29.426450 35040 net.cpp:129] Top shape: 1 4 512 (2048)
I1018 12:24:29.426455 35040 net.cpp:137] Memory required for data: 1597952
I1018 12:24:29.426458 35040 layer_factory.hpp:77] Creating layer lstm1_h_conted_5
I1018 12:24:29.426466 35040 net.cpp:84] Creating Layer lstm1_h_conted_5
I1018 12:24:29.426471 35040 net.cpp:406] lstm1_h_conted_5 <- h_5_lstm1_unit_5_1_split_0
I1018 12:24:29.426476 35040 net.cpp:406] lstm1_h_conted_5 <- cont_6_lstm1_cont_slice_5_split_0
I1018 12:24:29.426484 35040 net.cpp:380] lstm1_h_conted_5 -> h_conted_5
I1018 12:24:29.426544 35040 net.cpp:122] Setting up lstm1_h_conted_5
I1018 12:24:29.426553 35040 net.cpp:129] Top shape: 1 4 512 (2048)
I1018 12:24:29.426558 35040 net.cpp:137] Memory required for data: 1606144
I1018 12:24:29.426561 35040 layer_factory.hpp:77] Creating layer lstm1_transform_6
I1018 12:24:29.426568 35040 net.cpp:84] Creating Layer lstm1_transform_6
I1018 12:24:29.426573 35040 net.cpp:406] lstm1_transform_6 <- h_conted_5
I1018 12:24:29.426582 35040 net.cpp:380] lstm1_transform_6 -> W_hc_h_5
I1018 12:24:29.438490 35040 net.cpp:122] Setting up lstm1_transform_6
I1018 12:24:29.438524 35040 net.cpp:129] Top shape: 1 4 2048 (8192)
I1018 12:24:29.438529 35040 net.cpp:137] Memory required for data: 1638912
I1018 12:24:29.438536 35040 net.cpp:465] Sharing parameters 'W_hc' owned by layer 'lstm1_transform_1', param index 0
I1018 12:24:29.438544 35040 layer_factory.hpp:77] Creating layer lstm1_gate_input_6
I1018 12:24:29.438555 35040 net.cpp:84] Creating Layer lstm1_gate_input_6
I1018 12:24:29.438560 35040 net.cpp:406] lstm1_gate_input_6 <- W_hc_h_5
I1018 12:24:29.438567 35040 net.cpp:406] lstm1_gate_input_6 <- W_xc_x_6
I1018 12:24:29.438573 35040 net.cpp:380] lstm1_gate_input_6 -> gate_input_6
I1018 12:24:29.438607 35040 net.cpp:122] Setting up lstm1_gate_input_6
I1018 12:24:29.438617 35040 net.cpp:129] Top shape: 1 4 2048 (8192)
I1018 12:24:29.438621 35040 net.cpp:137] Memory required for data: 1671680
I1018 12:24:29.438626 35040 layer_factory.hpp:77] Creating layer lstm1_unit_6
I1018 12:24:29.438640 35040 net.cpp:84] Creating Layer lstm1_unit_6
I1018 12:24:29.438645 35040 net.cpp:406] lstm1_unit_6 <- c_5
I1018 12:24:29.438652 35040 net.cpp:406] lstm1_unit_6 <- gate_input_6
I1018 12:24:29.438657 35040 net.cpp:406] lstm1_unit_6 <- cont_6_lstm1_cont_slice_5_split_1
I1018 12:24:29.438663 35040 net.cpp:380] lstm1_unit_6 -> c_6
I1018 12:24:29.438669 35040 net.cpp:380] lstm1_unit_6 -> h_6
I1018 12:24:29.438715 35040 net.cpp:122] Setting up lstm1_unit_6
I1018 12:24:29.438725 35040 net.cpp:129] Top shape: 1 4 512 (2048)
I1018 12:24:29.438730 35040 net.cpp:129] Top shape: 1 4 512 (2048)
I1018 12:24:29.438735 35040 net.cpp:137] Memory required for data: 1688064
I1018 12:24:29.438738 35040 layer_factory.hpp:77] Creating layer h_6_lstm1_unit_6_1_split
I1018 12:24:29.438745 35040 net.cpp:84] Creating Layer h_6_lstm1_unit_6_1_split
I1018 12:24:29.438750 35040 net.cpp:406] h_6_lstm1_unit_6_1_split <- h_6
I1018 12:24:29.438755 35040 net.cpp:380] h_6_lstm1_unit_6_1_split -> h_6_lstm1_unit_6_1_split_0
I1018 12:24:29.438762 35040 net.cpp:380] h_6_lstm1_unit_6_1_split -> h_6_lstm1_unit_6_1_split_1
I1018 12:24:29.438801 35040 net.cpp:122] Setting up h_6_lstm1_unit_6_1_split
I1018 12:24:29.438808 35040 net.cpp:129] Top shape: 1 4 512 (2048)
I1018 12:24:29.438813 35040 net.cpp:129] Top shape: 1 4 512 (2048)
I1018 12:24:29.438817 35040 net.cpp:137] Memory required for data: 1704448
I1018 12:24:29.438820 35040 layer_factory.hpp:77] Creating layer lstm1_h_conted_6
I1018 12:24:29.438828 35040 net.cpp:84] Creating Layer lstm1_h_conted_6
I1018 12:24:29.438833 35040 net.cpp:406] lstm1_h_conted_6 <- h_6_lstm1_unit_6_1_split_0
I1018 12:24:29.438838 35040 net.cpp:406] lstm1_h_conted_6 <- cont_7_lstm1_cont_slice_6_split_0
I1018 12:24:29.438844 35040 net.cpp:380] lstm1_h_conted_6 -> h_conted_6
I1018 12:24:29.438906 35040 net.cpp:122] Setting up lstm1_h_conted_6
I1018 12:24:29.438916 35040 net.cpp:129] Top shape: 1 4 512 (2048)
I1018 12:24:29.438920 35040 net.cpp:137] Memory required for data: 1712640
I1018 12:24:29.438923 35040 layer_factory.hpp:77] Creating layer lstm1_transform_7
I1018 12:24:29.438931 35040 net.cpp:84] Creating Layer lstm1_transform_7
I1018 12:24:29.438936 35040 net.cpp:406] lstm1_transform_7 <- h_conted_6
I1018 12:24:29.438943 35040 net.cpp:380] lstm1_transform_7 -> W_hc_h_6
I1018 12:24:29.450626 35040 net.cpp:122] Setting up lstm1_transform_7
I1018 12:24:29.450646 35040 net.cpp:129] Top shape: 1 4 2048 (8192)
I1018 12:24:29.450650 35040 net.cpp:137] Memory required for data: 1745408
I1018 12:24:29.450660 35040 net.cpp:465] Sharing parameters 'W_hc' owned by layer 'lstm1_transform_1', param index 0
I1018 12:24:29.450665 35040 layer_factory.hpp:77] Creating layer lstm1_gate_input_7
I1018 12:24:29.450673 35040 net.cpp:84] Creating Layer lstm1_gate_input_7
I1018 12:24:29.450678 35040 net.cpp:406] lstm1_gate_input_7 <- W_hc_h_6
I1018 12:24:29.450685 35040 net.cpp:406] lstm1_gate_input_7 <- W_xc_x_7
I1018 12:24:29.450690 35040 net.cpp:380] lstm1_gate_input_7 -> gate_input_7
I1018 12:24:29.450721 35040 net.cpp:122] Setting up lstm1_gate_input_7
I1018 12:24:29.450731 35040 net.cpp:129] Top shape: 1 4 2048 (8192)
I1018 12:24:29.450734 35040 net.cpp:137] Memory required for data: 1778176
I1018 12:24:29.450738 35040 layer_factory.hpp:77] Creating layer lstm1_unit_7
I1018 12:24:29.450745 35040 net.cpp:84] Creating Layer lstm1_unit_7
I1018 12:24:29.450750 35040 net.cpp:406] lstm1_unit_7 <- c_6
I1018 12:24:29.450757 35040 net.cpp:406] lstm1_unit_7 <- gate_input_7
I1018 12:24:29.450762 35040 net.cpp:406] lstm1_unit_7 <- cont_7_lstm1_cont_slice_6_split_1
I1018 12:24:29.450768 35040 net.cpp:380] lstm1_unit_7 -> c_7
I1018 12:24:29.450775 35040 net.cpp:380] lstm1_unit_7 -> h_7
I1018 12:24:29.450820 35040 net.cpp:122] Setting up lstm1_unit_7
I1018 12:24:29.450829 35040 net.cpp:129] Top shape: 1 4 512 (2048)
I1018 12:24:29.450834 35040 net.cpp:129] Top shape: 1 4 512 (2048)
I1018 12:24:29.450839 35040 net.cpp:137] Memory required for data: 1794560
I1018 12:24:29.450844 35040 layer_factory.hpp:77] Creating layer h_7_lstm1_unit_7_1_split
I1018 12:24:29.450851 35040 net.cpp:84] Creating Layer h_7_lstm1_unit_7_1_split
I1018 12:24:29.450855 35040 net.cpp:406] h_7_lstm1_unit_7_1_split <- h_7
I1018 12:24:29.450861 35040 net.cpp:380] h_7_lstm1_unit_7_1_split -> h_7_lstm1_unit_7_1_split_0
I1018 12:24:29.450868 35040 net.cpp:380] h_7_lstm1_unit_7_1_split -> h_7_lstm1_unit_7_1_split_1
I1018 12:24:29.450901 35040 net.cpp:122] Setting up h_7_lstm1_unit_7_1_split
I1018 12:24:29.450909 35040 net.cpp:129] Top shape: 1 4 512 (2048)
I1018 12:24:29.450914 35040 net.cpp:129] Top shape: 1 4 512 (2048)
I1018 12:24:29.450918 35040 net.cpp:137] Memory required for data: 1810944
I1018 12:24:29.450922 35040 layer_factory.hpp:77] Creating layer lstm1_h_conted_7
I1018 12:24:29.450932 35040 net.cpp:84] Creating Layer lstm1_h_conted_7
I1018 12:24:29.450937 35040 net.cpp:406] lstm1_h_conted_7 <- h_7_lstm1_unit_7_1_split_0
I1018 12:24:29.450942 35040 net.cpp:406] lstm1_h_conted_7 <- cont_8_lstm1_cont_slice_7_split_0
I1018 12:24:29.450948 35040 net.cpp:380] lstm1_h_conted_7 -> h_conted_7
I1018 12:24:29.451005 35040 net.cpp:122] Setting up lstm1_h_conted_7
I1018 12:24:29.451014 35040 net.cpp:129] Top shape: 1 4 512 (2048)
I1018 12:24:29.451019 35040 net.cpp:137] Memory required for data: 1819136
I1018 12:24:29.451022 35040 layer_factory.hpp:77] Creating layer lstm1_transform_8
I1018 12:24:29.451031 35040 net.cpp:84] Creating Layer lstm1_transform_8
I1018 12:24:29.451036 35040 net.cpp:406] lstm1_transform_8 <- h_conted_7
I1018 12:24:29.451043 35040 net.cpp:380] lstm1_transform_8 -> W_hc_h_7
I1018 12:24:29.462761 35040 net.cpp:122] Setting up lstm1_transform_8
I1018 12:24:29.462786 35040 net.cpp:129] Top shape: 1 4 2048 (8192)
I1018 12:24:29.462802 35040 net.cpp:137] Memory required for data: 1851904
I1018 12:24:29.462808 35040 net.cpp:465] Sharing parameters 'W_hc' owned by layer 'lstm1_transform_1', param index 0
I1018 12:24:29.462815 35040 layer_factory.hpp:77] Creating layer lstm1_gate_input_8
I1018 12:24:29.462824 35040 net.cpp:84] Creating Layer lstm1_gate_input_8
I1018 12:24:29.462831 35040 net.cpp:406] lstm1_gate_input_8 <- W_hc_h_7
I1018 12:24:29.462837 35040 net.cpp:406] lstm1_gate_input_8 <- W_xc_x_8
I1018 12:24:29.462844 35040 net.cpp:380] lstm1_gate_input_8 -> gate_input_8
I1018 12:24:29.462877 35040 net.cpp:122] Setting up lstm1_gate_input_8
I1018 12:24:29.462888 35040 net.cpp:129] Top shape: 1 4 2048 (8192)
I1018 12:24:29.462891 35040 net.cpp:137] Memory required for data: 1884672
I1018 12:24:29.462895 35040 layer_factory.hpp:77] Creating layer lstm1_unit_8
I1018 12:24:29.462901 35040 net.cpp:84] Creating Layer lstm1_unit_8
I1018 12:24:29.462906 35040 net.cpp:406] lstm1_unit_8 <- c_7
I1018 12:24:29.462913 35040 net.cpp:406] lstm1_unit_8 <- gate_input_8
I1018 12:24:29.462918 35040 net.cpp:406] lstm1_unit_8 <- cont_8_lstm1_cont_slice_7_split_1
I1018 12:24:29.462924 35040 net.cpp:380] lstm1_unit_8 -> c_8
I1018 12:24:29.462931 35040 net.cpp:380] lstm1_unit_8 -> h_8
I1018 12:24:29.462976 35040 net.cpp:122] Setting up lstm1_unit_8
I1018 12:24:29.462985 35040 net.cpp:129] Top shape: 1 4 512 (2048)
I1018 12:24:29.462990 35040 net.cpp:129] Top shape: 1 4 512 (2048)
I1018 12:24:29.462994 35040 net.cpp:137] Memory required for data: 1901056
I1018 12:24:29.462998 35040 layer_factory.hpp:77] Creating layer lstm1_
I1018 12:24:29.463004 35040 net.cpp:84] Creating Layer lstm1_
I1018 12:24:29.463008 35040 net.cpp:406] lstm1_ <- c_8
I1018 12:24:29.463016 35040 net.cpp:380] lstm1_ -> c_T
I1018 12:24:29.463038 35040 net.cpp:122] Setting up lstm1_
I1018 12:24:29.463045 35040 net.cpp:129] Top shape: 1 4 512 (2048)
I1018 12:24:29.463050 35040 net.cpp:137] Memory required for data: 1909248
I1018 12:24:29.463054 35040 layer_factory.hpp:77] Creating layer lstm1_h_concat
I1018 12:24:29.463063 35040 net.cpp:84] Creating Layer lstm1_h_concat
I1018 12:24:29.463073 35040 net.cpp:406] lstm1_h_concat <- h_1_lstm1_unit_1_1_split_1
I1018 12:24:29.463078 35040 net.cpp:406] lstm1_h_concat <- h_2_lstm1_unit_2_1_split_1
I1018 12:24:29.463083 35040 net.cpp:406] lstm1_h_concat <- h_3_lstm1_unit_3_1_split_1
I1018 12:24:29.463088 35040 net.cpp:406] lstm1_h_concat <- h_4_lstm1_unit_4_1_split_1
I1018 12:24:29.463093 35040 net.cpp:406] lstm1_h_concat <- h_5_lstm1_unit_5_1_split_1
I1018 12:24:29.463099 35040 net.cpp:406] lstm1_h_concat <- h_6_lstm1_unit_6_1_split_1
I1018 12:24:29.463102 35040 net.cpp:406] lstm1_h_concat <- h_7_lstm1_unit_7_1_split_1
I1018 12:24:29.463106 35040 net.cpp:406] lstm1_h_concat <- h_8
I1018 12:24:29.463114 35040 net.cpp:380] lstm1_h_concat -> h
I1018 12:24:29.463145 35040 net.cpp:122] Setting up lstm1_h_concat
I1018 12:24:29.463156 35040 net.cpp:129] Top shape: 8 4 512 (16384)
I1018 12:24:29.463160 35040 net.cpp:137] Memory required for data: 1974784
I1018 12:24:29.463165 35040 layer_factory.hpp:77] Creating layer h_pseudoloss
I1018 12:24:29.463173 35040 net.cpp:84] Creating Layer h_pseudoloss
I1018 12:24:29.463178 35040 net.cpp:406] h_pseudoloss <- h
I1018 12:24:29.463184 35040 net.cpp:380] h_pseudoloss -> h_pseudoloss
I1018 12:24:29.463270 35040 net.cpp:122] Setting up h_pseudoloss
…
I1018 12:24:29.463599 35040 net.cpp:200] lstm1_ does not need backward computation.
I1018 12:24:29.463603 35040 net.cpp:242] This network produces output c_T
I1018 12:24:29.463608 35040 net.cpp:242] This network produces output h_pseudoloss
I1018 12:24:29.471945 35040 net.cpp:255] Network initialization done.
I1018 12:24:29.472249 35040 recurrent_layer.cpp:150] Adding parameter 0: W_xc
I1018 12:24:29.472270 35040 recurrent_layer.cpp:150] Adding parameter 1: b_c
I1018 12:24:29.472283 35040 recurrent_layer.cpp:150] Adding parameter 2: W_hc
I1018 12:24:29.472556 35040 net.cpp:122] Setting up lstm1
I1018 12:24:29.472584 35040 net.cpp:129] Top shape: 8 4 512 (16384)
I1018 12:24:29.472595 35040 net.cpp:137] Memory required for data: 765813264
I1018 12:24:29.472676 35040 layer_factory.hpp:77] Creating layer lstm1-drop
I1018 12:24:29.472697 35040 net.cpp:84] Creating Layer lstm1-drop
I1018 12:24:29.472710 35040 net.cpp:406] lstm1-drop <- lstm1
I1018 12:24:29.472725 35040 net.cpp:380] lstm1-drop -> lstm1-drop
I1018 12:24:29.472810 35040 net.cpp:122] Setting up lstm1-drop
I1018 12:24:29.472826 35040 net.cpp:129] Top shape: 8 4 512 (16384)
I1018 12:24:29.472837 35040 net.cpp:137] Memory required for data: 765878800
I1018 12:24:29.472847 35040 layer_factory.hpp:77] Creating layer fc-final
I1018 12:24:29.472865 35040 net.cpp:84] Creating Layer fc-final
I1018 12:24:29.472877 35040 net.cpp:406] fc-final <- lstm1-drop
I1018 12:24:29.472893 35040 net.cpp:380] fc-final -> fc-final
I1018 12:24:29.473510 35040 net.cpp:122] Setting up fc-final
I1018 12:24:29.473531 35040 net.cpp:129] Top shape: 8 4 10 (320)
I1018 12:24:29.473541 35040 net.cpp:137] Memory required for data: 765880080
I1018 12:24:29.473558 35040 layer_factory.hpp:77] Creating layer fc-final_fc-final_0_split
I1018 12:24:29.473573 35040 net.cpp:84] Creating Layer fc-final_fc-final_0_split
I1018 12:24:29.473585 35040 net.cpp:406] fc-final_fc-final_0_split <- fc-final
I1018 12:24:29.473600 35040 net.cpp:380] fc-final_fc-final_0_split -> fc-final_fc-final_0_split_0
I1018 12:24:29.473619 35040 net.cpp:380] fc-final_fc-final_0_split -> fc-final_fc-final_0_split_1
I1018 12:24:29.473738 35040 net.cpp:122] Setting up fc-final_fc-final_0_split
I1018 12:24:29.473757 35040 net.cpp:129] Top shape: 8 4 10 (320)
I1018 12:24:29.473768 35040 net.cpp:129] Top shape: 8 4 10 (320)
I1018 12:24:29.473778 35040 net.cpp:137] Memory required for data: 765882640
I1018 12:24:29.473789 35040 layer_factory.hpp:77] Creating layer loss
I1018 12:24:29.473811 35040 net.cpp:84] Creating Layer loss
I1018 12:24:29.473824 35040 net.cpp:406] loss <- fc-final_fc-final_0_split_0
I1018 12:24:29.473841 35040 net.cpp:406] loss <- reshape-label_label_tran_0_split_0
I1018 12:24:29.473856 35040 net.cpp:380] loss -> loss
…
I1018 12:24:29.476620 35040 net.cpp:294] The NetState phase (1) differed from the phase (0) specified by a rule in layer data
I1018 12:24:29.476847 35040 net.cpp:51] Initializing net from parameters: 
name: "VGG_16_layers_LSTM"
state {
  phase: TEST
  stage: "test-on-test"
}
layer {
  name: "data"
  type: "ImageData"
  top: "data"
  top: "label"
  include {
    phase: TEST
  }
  transform_param {
    mirror: false
    crop_size: 288
    mean_value: 104
    mean_value: 117
    mean_value: 123
  }
  image_data_param {
    source: "../Data/lsun_val_list.txt"
    batch_size: 50
    new_height: 320
    new_width: 320
  }
}
layer {
  name: "Silence"
  type: "Silence"
  bottom: "label"
  include {
    phase: TEST
  }
}
layer {
  name: "label_tran"
  type: "Python"
  bottom: "label"
  top: "reshape-label"
  top: "clip_markers"
  python_param {
    module: "data_preparation_sort_max_clip"
    layer: "ReshapeLabel"
  }
}
layer {
  name: "conv1_1"
  type: "Convolution"
  bottom: "data"
  top: "conv1_1"
  convolution_param {
    num_output: 64
    pad: 1
    kernel_size: 3
  }
}
layer {
  name: "relu1_1"
  type: "ReLU"
  bottom: "conv1_1"
  top: "conv1_1"
}
layer {
  name: "conv1_2"
  type: "Convolution"
  bottom: "conv1_1"
  top: "conv1_2"
  convolution_param {
    num_output: 64
    pad: 1
    kernel_size: 3
  }
}
layer {
  name: "relu1_2"
  type: "ReLU"
  bottom: "conv1_2"
  top: "conv1_2"
}
layer {
  name: "pool1"
  type: "Pooling"
  bottom: "conv1_2"
  top: "pool1"
  pooling_param {
    pool: MAX
    kernel_size: 2
    stride: 2
  }
}
layer {
  name: "conv2_1"
  type: "Convolution"
  bottom: "pool1"
  top: "conv2_1"
  convolution_param {
    num_output: 128
    pad: 1
    kernel_size: 3
  }
}
layer {
  name: "relu2_1"
  type: "ReLU"
  bottom: "conv2_1"
  top: "conv2_1"
}
layer {
  name: "conv2_2"
  type: "Convolution"
  bottom: "conv2_1"
  top: "conv2_2"
  convolution_param {
    num_output: 128
    pad: 1
    kernel_size: 3
  }
}
layer {
  name: "relu2_2"
  type: "ReLU"
  bottom: "conv2_2"
  top: "conv2_2"
}
layer {
  name: "pool2"
  type: "Pooling"
  bottom: "conv2_2"
  top: "pool2"
  pooling_param {
    pool: MAX
    kernel_size: 2
    stride: 2
  }
}
layer {
  name: "conv3_1"
  type: "Convolution"
  bottom: "pool2"
  top: "conv3_1"
  convolution_param {
    num_output: 256
    pad: 1
    kernel_size: 3
  }
}
layer {
  name: "relu3_1"
  type: "ReLU"
  bottom: "conv3_1"
  top: "conv3_1"
}
layer {
  name: "conv3_2"
  type: "Convolution"
  bottom: "conv3_1"
  top: "conv3_2"
  convolution_param {
    num_output: 256
    pad: 1
    kernel_size: 3
  }
}
layer {
  name: "relu3_2"
  type: "ReLU"
  bottom: "conv3_2"
  top: "conv3_2"
}
layer {
  name: "conv3_3"
  type: "Convolution"
  bottom: "conv3_2"
  top: "conv3_3"
  convolution_param {
    num_output: 256
    pad: 1
    kernel_size: 3
  }
}
layer {
  name: "relu3_3"
  type: "ReLU"
  bottom: "conv3_3"
  top: "conv3_3"
}
layer {
  name: "pool3"
  type: "Pooling"
  bottom: "conv3_3"
  top: "pool3"
  pooling_param {
    pool: MAX
    kernel_size: 2
    stride: 2
  }
}
layer {
  name: "conv4_1"
  type: "Convolution"
  bottom: "pool3"
  top: "conv4_1"
  convolution_param {
    num_output: 512
    pad: 1
    kernel_size: 3
  }
}
layer {
  name: "relu4_1"
  type: "ReLU"
  bottom: "conv4_1"
  top: "conv4_1"
}
layer {
  name: "conv4_2"
  type: "Convolution"
  bottom: "conv4_1"
  top: "conv4_2"
  convolution_param {
    num_output: 512
    pad: 1
    kernel_size: 3
  }
}
layer {
  name: "relu4_2"
  type: "ReLU"
  bottom: "conv4_2"
  top: "conv4_2"
}
layer {
  name: "conv4_3"
  type: "Convolution"
  bottom: "conv4_2"
  top: "conv4_3"
  convolution_param {
    num_output: 512
    pad: 1
    kernel_size: 3
  }
}
layer {
  name: "relu4_3"
  type: "ReLU"
  bottom: "conv4_3"
  top: "conv4_3"
}
layer {
  name: "pool4"
  type: "Pooling"
  bottom: "conv4_3"
  top: "pool4"
  pooling_param {
    pool: MAX
    kernel_size: 2
    stride: 2
  }
}
layer {
  name: "conv5_1"
  type: "Convolution"
  bottom: "pool4"
  top: "conv5_1"
  convolution_param {
    num_output: 512
    pad: 1
    kernel_size: 3
  }
}
layer {
  name: "relu5_1"
  type: "ReLU"
  bottom: "conv5_1"
  top: "conv5_1"
}
layer {
  name: "conv5_2"
  type: "Convolution"
  bottom: "conv5_1"
  top: "conv5_2"
  convolution_param {
    num_output: 512
    pad: 1
    kernel_size: 3
  }
}
layer {
  name: "relu5_2"
  type: "ReLU"
  bottom: "conv5_2"
  top: "conv5_2"
}
layer {
  name: "conv5_3"
  type: "Convolution"
  bottom: "conv5_2"
  top: "conv5_3"
  convolution_param {
    num_output: 512
    pad: 1
    kernel_size: 3
  }
}
layer {
  name: "relu5_3"
  type: "ReLU"
  bottom: "conv5_3"
  top: "conv5_3"
}
layer {
  name: "pool5"
  type: "Pooling"
  bottom: "conv5_3"
  top: "pool5"
  pooling_param {
    pool: MAX
    kernel_size: 2
    stride: 2
  }
}
layer {
  name: "fc6-conv"
  type: "Convolution"
  bottom: "pool5"
  top: "fc6-conv"
  convolution_param {
    num_output: 4096
    kernel_size: 7
  }
}
layer {
  name: "relu6"
  type: "ReLU"
  bottom: "fc6-conv"
  top: "fc6-conv"
}
layer {
  name: "drop6"
  type: "Dropout"
  bottom: "fc6-conv"
  top: "fc6-conv"
  dropout_param {
    dropout_ratio: 0.5
  }
}
layer {
  name: "fc7-conv"
  type: "Convolution"
  bottom: "fc6-conv"
  top: "fc7-conv"
  convolution_param {
    num_output: 4096
    kernel_size: 1
  }
}
layer {
  name: "relu7"
  type: "ReLU"
  bottom: "fc7-conv"
  top: "fc7-conv"
}
layer {
  name: "drop7"
  type: "Dropout"
  bottom: "fc7-conv"
  top: "fc7-conv"
  dropout_param {
    dropout_ratio: 0.9
  }
}
layer {
  name: "fc7-conv_re"
  type: "Reshape"
  bottom: "fc7-conv"
  top: "fc7-conv_re"
  reshape_param {
    shape {
      dim: 0
      dim: 0
      dim: -1
    }
  }
}
layer {
  name: "fc7-conv_tran"
  type: "Python"
  bottom: "fc7-conv_re"
  top: "fc7-conv_tran"
  python_param {
    module: "data_preparation_sort_max_clip"
    layer: "DataTransposeSortRandomClip"
  }
}
layer {
  name: "lstm1"
  type: "LSTM"
  bottom: "fc7-conv_tran"
  bottom: "clip_markers"
  top: "lstm1"
  recurrent_param {
    num_output: 512
    weight_filler {
      type: "uniform"
      min: -0.01
      max: 0.01
    }
    bias_filler {
      type: "constant"
      value: 0
    }
  }
}
layer {
  name: "lstm1-drop"
  type: "Dropout"
  bottom: "lstm1"
  top: "lstm1-drop"
  dropout_param {
    dropout_ratio: 0.5
  }
}
layer {
  name: "fc-final"
  type: "InnerProduct"
  bottom: "lstm1-drop"
  top: "fc-final"
  param {
    lr_mult: 1
    decay_mult: 1
  }
  param {
    lr_mult: 2
    decay_mult: 0
  }
  inner_product_param {
    num_output: 10
    weight_filler {
      type: "gaussian"
      std: 0.01
    }
    bias_filler {
      type: "constant"
      value: 0
    }
    axis: 2
  }
}
layer {
  name: "loss"
  type: "SoftmaxWithLoss"
  bottom: "fc-final"
  bottom: "reshape-label"
  top: "loss"
  softmax_param {
    axis: 2
  }
}
layer {
  name: "accuracy"
  type: "Accuracy"
  bottom: "fc-final"
  bottom: "reshape-label"
  top: "accuracy"
  accuracy_param {
    axis: 2
  }
}
I1018 12:24:29.477023 35040 layer_factory.hpp:77] Creating layer data
I1018 12:24:29.477043 35040 net.cpp:84] Creating Layer data
I1018 12:24:29.477052 35040 net.cpp:380] data -> data
I1018 12:24:29.477064 35040 net.cpp:380] data -> label
I1018 12:24:29.477077 35040 image_data_layer.cpp:38] Opening file ../Data/lsun_val_list.txt
I1018 12:24:29.478178 35040 image_data_layer.cpp:63] A total of 3000 images.
I1018 12:24:29.480370 35040 image_data_layer.cpp:90] output data size: 50,3,288,288
I1018 12:24:29.626730 35040 net.cpp:122] Setting up data
I1018 12:24:29.626771 35040 net.cpp:129] Top shape: 50 3 288 288 (12441600)
I1018 12:24:29.626778 35040 net.cpp:129] Top shape: 50 (50)
I1018 12:24:29.626783 35040 net.cpp:137] Memory required for data: 49766600
I1018 12:24:29.626792 35040 layer_factory.hpp:77] Creating layer label_data_1_split
I1018 12:24:29.626809 35040 net.cpp:84] Creating Layer label_data_1_split
I1018 12:24:29.626816 35040 net.cpp:406] label_data_1_split <- label
I1018 12:24:29.626827 35040 net.cpp:380] label_data_1_split -> label_data_1_split_0
I1018 12:24:29.626843 35040 net.cpp:380] label_data_1_split -> label_data_1_split_1
I1018 12:24:29.626983 35040 net.cpp:122] Setting up label_data_1_split
I1018 12:24:29.626996 35040 net.cpp:129] Top shape: 50 (50)
I1018 12:24:29.627002 35040 net.cpp:129] Top shape: 50 (50)
I1018 12:24:29.627007 35040 net.cpp:137] Memory required for data: 49767000
I1018 12:24:29.627012 35040 layer_factory.hpp:77] Creating layer Silence
I1018 12:24:29.627027 35040 net.cpp:84] Creating Layer Silence
I1018 12:24:29.627032 35040 net.cpp:406] Silence <- label_data_1_split_0
I1018 12:24:29.627039 35040 net.cpp:122] Setting up Silence
I1018 12:24:29.627043 35040 net.cpp:137] Memory required for data: 49767000
I1018 12:24:29.627048 35040 layer_factory.hpp:77] Creating layer label_tran
I1018 12:24:29.627113 35040 net.cpp:84] Creating Layer label_tran
I1018 12:24:29.627123 35040 net.cpp:406] label_tran <- label_data_1_split_1
I1018 12:24:29.627131 35040 net.cpp:380] label_tran -> reshape-label
I1018 12:24:29.627141 35040 net.cpp:380] label_tran -> clip_markers
I1018 12:24:29.627274 35040 net.cpp:122] Setting up label_tran
I1018 12:24:29.627287 35040 net.cpp:129] Top shape: 8 50 (400)
I1018 12:24:29.627293 35040 net.cpp:129] Top shape: 8 50 (400)
I1018 12:24:29.627297 35040 net.cpp:137] Memory required for data: 49770200
I1018 12:24:29.627302 35040 layer_factory.hpp:77] Creating layer reshape-label_label_tran_0_split
I1018 12:24:29.627311 35040 net.cpp:84] Creating Layer reshape-label_label_tran_0_split
I1018 12:24:29.627316 35040 net.cpp:406] reshape-label_label_tran_0_split <- reshape-label
I1018 12:24:29.627324 35040 net.cpp:380] reshape-label_label_tran_0_split -> reshape-label_label_tran_0_split_0
I1018 12:24:29.627333 35040 net.cpp:380] reshape-label_label_tran_0_split -> reshape-label_label_tran_0_split_1
I1018 12:24:29.627372 35040 net.cpp:122] Setting up reshape-label_label_tran_0_split
I1018 12:24:29.627382 35040 net.cpp:129] Top shape: 8 50 (400)
I1018 12:24:29.627387 35040 net.cpp:129] Top shape: 8 50 (400)
I1018 12:24:29.627391 35040 net.cpp:137] Memory required for data: 49773400
I1018 12:24:29.627395 35040 layer_factory.hpp:77] Creating layer conv1_1
I1018 12:24:29.627409 35040 net.cpp:84] Creating Layer conv1_1
I1018 12:24:29.627413 35040 net.cpp:406] conv1_1 <- data
I1018 12:24:29.627421 35040 net.cpp:380] conv1_1 -> conv1_1
I1018 12:24:29.627771 35040 net.cpp:122] Setting up conv1_1
I1018 12:24:29.627784 35040 net.cpp:129] Top shape: 50 64 288 288 (265420800)
I1018 12:24:29.627789 35040 net.cpp:137] Memory required for data: 1111456600
I1018 12:24:29.627804 35040 layer_factory.hpp:77] Creating layer relu1_1
I1018 12:24:29.627812 35040 net.cpp:84] Creating Layer relu1_1
I1018 12:24:29.627818 35040 net.cpp:406] relu1_1 <- conv1_1
I1018 12:24:29.627825 35040 net.cpp:367] relu1_1 -> conv1_1 (in-place)
I1018 12:24:29.627833 35040 net.cpp:122] Setting up relu1_1
I1018 12:24:29.627840 35040 net.cpp:129] Top shape: 50 64 288 288 (265420800)
I1018 12:24:29.627845 35040 net.cpp:137] Memory required for data: 2173139800
I1018 12:24:29.627848 35040 layer_factory.hpp:77] Creating layer conv1_2
I1018 12:24:29.627856 35040 net.cpp:84] Creating Layer conv1_2
I1018 12:24:29.627861 35040 net.cpp:406] conv1_2 <- conv1_1
I1018 12:24:29.627868 35040 net.cpp:380] conv1_2 -> conv1_2
I1018 12:24:29.628264 35040 net.cpp:122] Setting up conv1_2
I1018 12:24:29.628278 35040 net.cpp:129] Top shape: 50 64 288 288 (265420800)
I1018 12:24:29.628283 35040 net.cpp:137] Memory required for data: 3234823000
I1018 12:24:29.628293 35040 layer_factory.hpp:77] Creating layer relu1_2
I1018 12:24:29.628302 35040 net.cpp:84] Creating Layer relu1_2
I1018 12:24:29.628307 35040 net.cpp:406] relu1_2 <- conv1_2
I1018 12:24:29.628314 35040 net.cpp:367] relu1_2 -> conv1_2 (in-place)
I1018 12:24:29.628324 35040 net.cpp:122] Setting up relu1_2
I1018 12:24:29.628329 35040 net.cpp:129] Top shape: 50 64 288 288 (265420800)
I1018 12:24:29.628334 35040 net.cpp:137] Memory required for data: 4296506200
I1018 12:24:29.628338 35040 layer_factory.hpp:77] Creating layer pool1
I1018 12:24:29.628346 35040 net.cpp:84] Creating Layer pool1
I1018 12:24:29.628351 35040 net.cpp:406] pool1 <- conv1_2
I1018 12:24:29.628358 35040 net.cpp:380] pool1 -> pool1
I1018 12:24:29.628402 35040 net.cpp:122] Setting up pool1
I1018 12:24:29.628413 35040 net.cpp:129] Top shape: 50 64 144 144 (66355200)
I1018 12:24:29.628417 35040 net.cpp:137] Memory required for data: 4561927000
I1018 12:24:29.628422 35040 layer_factory.hpp:77] Creating layer conv2_1
I1018 12:24:29.628430 35040 net.cpp:84] Creating Layer conv2_1
I1018 12:24:29.628435 35040 net.cpp:406] conv2_1 <- pool1
I1018 12:24:29.628443 35040 net.cpp:380] conv2_1 -> conv2_1
I1018 12:24:29.629699 35040 net.cpp:122] Setting up conv2_1
I1018 12:24:29.629717 35040 net.cpp:129] Top shape: 50 128 144 144 (132710400)
I1018 12:24:29.629722 35040 net.cpp:137] Memory required for data: 5092768600
I1018 12:24:29.629734 35040 layer_factory.hpp:77] Creating layer relu2_1
I1018 12:24:29.629742 35040 net.cpp:84] Creating Layer relu2_1
I1018 12:24:29.629748 35040 net.cpp:406] relu2_1 <- conv2_1
I1018 12:24:29.629755 35040 net.cpp:367] relu2_1 -> conv2_1 (in-place)
I1018 12:24:29.629765 35040 net.cpp:122] Setting up relu2_1
I1018 12:24:29.629770 35040 net.cpp:129] Top shape: 50 128 144 144 (132710400)
I1018 12:24:29.629776 35040 net.cpp:137] Memory required for data: 5623610200
I1018 12:24:29.629779 35040 layer_factory.hpp:77] Creating layer conv2_2
I1018 12:24:29.629788 35040 net.cpp:84] Creating Layer conv2_2
I1018 12:24:29.629796 35040 net.cpp:406] conv2_2 <- conv2_1
I1018 12:24:29.629812 35040 net.cpp:380] conv2_2 -> conv2_2
I1018 12:24:29.630384 35040 net.cpp:122] Setting up conv2_2
I1018 12:24:29.630398 35040 net.cpp:129] Top shape: 50 128 144 144 (132710400)
I1018 12:24:29.630403 35040 net.cpp:137] Memory required for data: 6154451800
I1018 12:24:29.630410 35040 layer_factory.hpp:77] Creating layer relu2_2
I1018 12:24:29.630417 35040 net.cpp:84] Creating Layer relu2_2
I1018 12:24:29.630422 35040 net.cpp:406] relu2_2 <- conv2_2
I1018 12:24:29.630430 35040 net.cpp:367] relu2_2 -> conv2_2 (in-place)
I1018 12:24:29.630439 35040 net.cpp:122] Setting up relu2_2
I1018 12:24:29.630445 35040 net.cpp:129] Top shape: 50 128 144 144 (132710400)
I1018 12:24:29.630448 35040 net.cpp:137] Memory required for data: 6685293400
I1018 12:24:29.630453 35040 layer_factory.hpp:77] Creating layer pool2
I1018 12:24:29.630461 35040 net.cpp:84] Creating Layer pool2
I1018 12:24:29.630466 35040 net.cpp:406] pool2 <- conv2_2
I1018 12:24:29.630472 35040 net.cpp:380] pool2 -> pool2
I1018 12:24:29.630517 35040 net.cpp:122] Setting up pool2
I1018 12:24:29.630527 35040 net.cpp:129] Top shape: 50 128 72 72 (33177600)
I1018 12:24:29.630530 35040 net.cpp:137] Memory required for data: 6818003800
I1018 12:24:29.630535 35040 layer_factory.hpp:77] Creating layer conv3_1
I1018 12:24:29.630544 35040 net.cpp:84] Creating Layer conv3_1
I1018 12:24:29.630549 35040 net.cpp:406] conv3_1 <- pool2
I1018 12:24:29.630558 35040 net.cpp:380] conv3_1 -> conv3_1
I1018 12:24:29.631909 35040 net.cpp:122] Setting up conv3_1
I1018 12:24:29.631927 35040 net.cpp:129] Top shape: 50 256 72 72 (66355200)
I1018 12:24:29.631932 35040 net.cpp:137] Memory required for data: 7083424600
I1018 12:24:29.631943 35040 layer_factory.hpp:77] Creating layer relu3_1
I1018 12:24:29.631954 35040 net.cpp:84] Creating Layer relu3_1
I1018 12:24:29.631959 35040 net.cpp:406] relu3_1 <- conv3_1
I1018 12:24:29.631968 35040 net.cpp:367] relu3_1 -> conv3_1 (in-place)
I1018 12:24:29.631975 35040 net.cpp:122] Setting up relu3_1
I1018 12:24:29.631981 35040 net.cpp:129] Top shape: 50 256 72 72 (66355200)
I1018 12:24:29.631986 35040 net.cpp:137] Memory required for data: 7348845400
I1018 12:24:29.631990 35040 layer_factory.hpp:77] Creating layer conv3_2
I1018 12:24:29.631999 35040 net.cpp:84] Creating Layer conv3_2
I1018 12:24:29.632004 35040 net.cpp:406] conv3_2 <- conv3_1
I1018 12:24:29.632011 35040 net.cpp:380] conv3_2 -> conv3_2
I1018 12:24:29.639430 35040 net.cpp:122] Setting up conv3_2
I1018 12:24:29.639474 35040 net.cpp:129] Top shape: 50 256 72 72 (66355200)
I1018 12:24:29.639485 35040 net.cpp:137] Memory required for data: 7614266200
I1018 12:24:29.639503 35040 layer_factory.hpp:77] Creating layer relu3_2
I1018 12:24:29.639526 35040 net.cpp:84] Creating Layer relu3_2
I1018 12:24:29.639539 35040 net.cpp:406] relu3_2 <- conv3_2
I1018 12:24:29.639560 35040 net.cpp:367] relu3_2 -> conv3_2 (in-place)
I1018 12:24:29.639581 35040 net.cpp:122] Setting up relu3_2
I1018 12:24:29.639595 35040 net.cpp:129] Top shape: 50 256 72 72 (66355200)
I1018 12:24:29.639602 35040 net.cpp:137] Memory required for data: 7879687000
I1018 12:24:29.639611 35040 layer_factory.hpp:77] Creating layer conv3_3
I1018 12:24:29.639628 35040 net.cpp:84] Creating Layer conv3_3
I1018 12:24:29.639644 35040 net.cpp:406] conv3_3 <- conv3_2
I1018 12:24:29.639658 35040 net.cpp:380] conv3_3 -> conv3_3
I1018 12:24:29.642490 35040 net.cpp:122] Setting up conv3_3
I1018 12:24:29.642509 35040 net.cpp:129] Top shape: 50 256 72 72 (66355200)
I1018 12:24:29.642514 35040 net.cpp:137] Memory required for data: 8145107800
I1018 12:24:29.642521 35040 layer_factory.hpp:77] Creating layer relu3_3
I1018 12:24:29.642530 35040 net.cpp:84] Creating Layer relu3_3
I1018 12:24:29.642535 35040 net.cpp:406] relu3_3 <- conv3_3
I1018 12:24:29.642544 35040 net.cpp:367] relu3_3 -> conv3_3 (in-place)
I1018 12:24:29.642551 35040 net.cpp:122] Setting up relu3_3
I1018 12:24:29.642557 35040 net.cpp:129] Top shape: 50 256 72 72 (66355200)
I1018 12:24:29.642561 35040 net.cpp:137] Memory required for data: 8410528600
I1018 12:24:29.642565 35040 layer_factory.hpp:77] Creating layer pool3
I1018 12:24:29.642573 35040 net.cpp:84] Creating Layer pool3
I1018 12:24:29.642577 35040 net.cpp:406] pool3 <- conv3_3
I1018 12:24:29.642590 35040 net.cpp:380] pool3 -> pool3
I1018 12:24:29.642637 35040 net.cpp:122] Setting up pool3
I1018 12:24:29.642644 35040 net.cpp:129] Top shape: 50 256 36 36 (16588800)
I1018 12:24:29.642648 35040 net.cpp:137] Memory required for data: 8476883800
I1018 12:24:29.642652 35040 layer_factory.hpp:77] Creating layer conv4_1
I1018 12:24:29.642662 35040 net.cpp:84] Creating Layer conv4_1
I1018 12:24:29.642666 35040 net.cpp:406] conv4_1 <- pool3
I1018 12:24:29.642675 35040 net.cpp:380] conv4_1 -> conv4_1
I1018 12:24:29.645901 35040 net.cpp:122] Setting up conv4_1
I1018 12:24:29.645972 35040 net.cpp:129] Top shape: 50 512 36 36 (33177600)
I1018 12:24:29.646005 35040 net.cpp:137] Memory required for data: 8609594200
I1018 12:24:29.646042 35040 layer_factory.hpp:77] Creating layer relu4_1
I1018 12:24:29.646080 35040 net.cpp:84] Creating Layer relu4_1
I1018 12:24:29.646111 35040 net.cpp:406] relu4_1 <- conv4_1
I1018 12:24:29.646147 35040 net.cpp:367] relu4_1 -> conv4_1 (in-place)
I1018 12:24:29.646203 35040 net.cpp:122] Setting up relu4_1
I1018 12:24:29.646224 35040 net.cpp:129] Top shape: 50 512 36 36 (33177600)
I1018 12:24:29.646230 35040 net.cpp:137] Memory required for data: 8742304600
I1018 12:24:29.646235 35040 layer_factory.hpp:77] Creating layer conv4_2
I1018 12:24:29.646248 35040 net.cpp:84] Creating Layer conv4_2
I1018 12:24:29.646255 35040 net.cpp:406] conv4_2 <- conv4_1
I1018 12:24:29.646265 35040 net.cpp:380] conv4_2 -> conv4_2
I1018 12:24:29.655791 35040 net.cpp:122] Setting up conv4_2
I1018 12:24:29.655838 35040 net.cpp:129] Top shape: 50 512 36 36 (33177600)
I1018 12:24:29.655848 35040 net.cpp:137] Memory required for data: 8875015000
I1018 12:24:29.655879 35040 layer_factory.hpp:77] Creating layer relu4_2
I1018 12:24:29.655900 35040 net.cpp:84] Creating Layer relu4_2
I1018 12:24:29.655911 35040 net.cpp:406] relu4_2 <- conv4_2
I1018 12:24:29.655928 35040 net.cpp:367] relu4_2 -> conv4_2 (in-place)
I1018 12:24:29.655947 35040 net.cpp:122] Setting up relu4_2
I1018 12:24:29.655962 35040 net.cpp:129] Top shape: 50 512 36 36 (33177600)
I1018 12:24:29.655973 35040 net.cpp:137] Memory required for data: 9007725400
I1018 12:24:29.655982 35040 layer_factory.hpp:77] Creating layer conv4_3
I1018 12:24:29.655999 35040 net.cpp:84] Creating Layer conv4_3
I1018 12:24:29.656008 35040 net.cpp:406] conv4_3 <- conv4_2
I1018 12:24:29.656023 35040 net.cpp:380] conv4_3 -> conv4_3
I1018 12:24:29.662492 35040 net.cpp:122] Setting up conv4_3
I1018 12:24:29.662515 35040 net.cpp:129] Top shape: 50 512 36 36 (33177600)
I1018 12:24:29.662521 35040 net.cpp:137] Memory required for data: 9140435800
I1018 12:24:29.662530 35040 layer_factory.hpp:77] Creating layer relu4_3
I1018 12:24:29.662541 35040 net.cpp:84] Creating Layer relu4_3
I1018 12:24:29.662547 35040 net.cpp:406] relu4_3 <- conv4_3
I1018 12:24:29.662557 35040 net.cpp:367] relu4_3 -> conv4_3 (in-place)
I1018 12:24:29.662567 35040 net.cpp:122] Setting up relu4_3
I1018 12:24:29.662573 35040 net.cpp:129] Top shape: 50 512 36 36 (33177600)
I1018 12:24:29.662578 35040 net.cpp:137] Memory required for data: 9273146200
I1018 12:24:29.662582 35040 layer_factory.hpp:77] Creating layer pool4
I1018 12:24:29.662592 35040 net.cpp:84] Creating Layer pool4
I1018 12:24:29.662602 35040 net.cpp:406] pool4 <- conv4_3
I1018 12:24:29.662616 35040 net.cpp:380] pool4 -> pool4
I1018 12:24:29.662668 35040 net.cpp:122] Setting up pool4
I1018 12:24:29.662677 35040 net.cpp:129] Top shape: 50 512 18 18 (8294400)
I1018 12:24:29.662681 35040 net.cpp:137] Memory required for data: 9306323800
I1018 12:24:29.662685 35040 layer_factory.hpp:77] Creating layer conv5_1
I1018 12:24:29.662695 35040 net.cpp:84] Creating Layer conv5_1
I1018 12:24:29.662700 35040 net.cpp:406] conv5_1 <- pool4
I1018 12:24:29.662708 35040 net.cpp:380] conv5_1 -> conv5_1
I1018 12:24:29.669935 35040 net.cpp:122] Setting up conv5_1
I1018 12:24:29.669960 35040 net.cpp:129] Top shape: 50 512 18 18 (8294400)
I1018 12:24:29.669965 35040 net.cpp:137] Memory required for data: 9339501400
I1018 12:24:29.669975 35040 layer_factory.hpp:77] Creating layer relu5_1
I1018 12:24:29.669984 35040 net.cpp:84] Creating Layer relu5_1
I1018 12:24:29.669991 35040 net.cpp:406] relu5_1 <- conv5_1
I1018 12:24:29.669999 35040 net.cpp:367] relu5_1 -> conv5_1 (in-place)
I1018 12:24:29.670009 35040 net.cpp:122] Setting up relu5_1
I1018 12:24:29.670016 35040 net.cpp:129] Top shape: 50 512 18 18 (8294400)
I1018 12:24:29.670020 35040 net.cpp:137] Memory required for data: 9372679000
I1018 12:24:29.670024 35040 layer_factory.hpp:77] Creating layer conv5_2
I1018 12:24:29.670034 35040 net.cpp:84] Creating Layer conv5_2
I1018 12:24:29.670038 35040 net.cpp:406] conv5_2 <- conv5_1
I1018 12:24:29.670047 35040 net.cpp:380] conv5_2 -> conv5_2
I1018 12:24:29.676553 35040 net.cpp:122] Setting up conv5_2
I1018 12:24:29.676578 35040 net.cpp:129] Top shape: 50 512 18 18 (8294400)
I1018 12:24:29.676582 35040 net.cpp:137] Memory required for data: 9405856600
I1018 12:24:29.676592 35040 layer_factory.hpp:77] Creating layer relu5_2
I1018 12:24:29.676609 35040 net.cpp:84] Creating Layer relu5_2
I1018 12:24:29.676615 35040 net.cpp:406] relu5_2 <- conv5_2
I1018 12:24:29.676625 35040 net.cpp:367] relu5_2 -> conv5_2 (in-place)
I1018 12:24:29.676635 35040 net.cpp:122] Setting up relu5_2
I1018 12:24:29.676640 35040 net.cpp:129] Top shape: 50 512 18 18 (8294400)
I1018 12:24:29.676645 35040 net.cpp:137] Memory required for data: 9439034200
I1018 12:24:29.676650 35040 layer_factory.hpp:77] Creating layer conv5_3
I1018 12:24:29.676659 35040 net.cpp:84] Creating Layer conv5_3
I1018 12:24:29.676664 35040 net.cpp:406] conv5_3 <- conv5_2
I1018 12:24:29.676671 35040 net.cpp:380] conv5_3 -> conv5_3
I1018 12:24:29.684267 35040 net.cpp:122] Setting up conv5_3
I1018 12:24:29.684291 35040 net.cpp:129] Top shape: 50 512 18 18 (8294400)
I1018 12:24:29.684296 35040 net.cpp:137] Memory required for data: 9472211800
I1018 12:24:29.684306 35040 layer_factory.hpp:77] Creating layer relu5_3
I1018 12:24:29.684315 35040 net.cpp:84] Creating Layer relu5_3
I1018 12:24:29.684321 35040 net.cpp:406] relu5_3 <- conv5_3
I1018 12:24:29.684330 35040 net.cpp:367] relu5_3 -> conv5_3 (in-place)
I1018 12:24:29.684341 35040 net.cpp:122] Setting up relu5_3
I1018 12:24:29.684347 35040 net.cpp:129] Top shape: 50 512 18 18 (8294400)
I1018 12:24:29.684352 35040 net.cpp:137] Memory required for data: 9505389400
I1018 12:24:29.684356 35040 layer_factory.hpp:77] Creating layer pool5
I1018 12:24:29.684366 35040 net.cpp:84] Creating Layer pool5
I1018 12:24:29.684370 35040 net.cpp:406] pool5 <- conv5_3
I1018 12:24:29.684378 35040 net.cpp:380] pool5 -> pool5
I1018 12:24:29.684429 35040 net.cpp:122] Setting up pool5
I1018 12:24:29.684437 35040 net.cpp:129] Top shape: 50 512 9 9 (2073600)
I1018 12:24:29.684442 35040 net.cpp:137] Memory required for data: 9513683800
I1018 12:24:29.684447 35040 layer_factory.hpp:77] Creating layer fc6-conv
I1018 12:24:29.684458 35040 net.cpp:84] Creating Layer fc6-conv
I1018 12:24:29.684463 35040 net.cpp:406] fc6-conv <- pool5
I1018 12:24:29.684470 35040 net.cpp:380] fc6-conv -> fc6-conv
I1018 12:24:30.011781 35040 net.cpp:122] Setting up fc6-conv
I1018 12:24:30.011819 35040 net.cpp:129] Top shape: 50 4096 3 3 (1843200)
I1018 12:24:30.011824 35040 net.cpp:137] Memory required for data: 9521056600
I1018 12:24:30.011835 35040 layer_factory.hpp:77] Creating layer relu6
I1018 12:24:30.011847 35040 net.cpp:84] Creating Layer relu6
I1018 12:24:30.011854 35040 net.cpp:406] relu6 <- fc6-conv
I1018 12:24:30.011863 35040 net.cpp:367] relu6 -> fc6-conv (in-place)
I1018 12:24:30.011875 35040 net.cpp:122] Setting up relu6
I1018 12:24:30.011881 35040 net.cpp:129] Top shape: 50 4096 3 3 (1843200)
I1018 12:24:30.011885 35040 net.cpp:137] Memory required for data: 9528429400
I1018 12:24:30.011890 35040 layer_factory.hpp:77] Creating layer drop6
I1018 12:24:30.011898 35040 net.cpp:84] Creating Layer drop6
I1018 12:24:30.011903 35040 net.cpp:406] drop6 <- fc6-conv
I1018 12:24:30.011909 35040 net.cpp:367] drop6 -> fc6-conv (in-place)
I1018 12:24:30.011940 35040 net.cpp:122] Setting up drop6
I1018 12:24:30.011947 35040 net.cpp:129] Top shape: 50 4096 3 3 (1843200)
I1018 12:24:30.011951 35040 net.cpp:137] Memory required for data: 9535802200
I1018 12:24:30.011955 35040 layer_factory.hpp:77] Creating layer fc7-conv
I1018 12:24:30.011966 35040 net.cpp:84] Creating Layer fc7-conv
I1018 12:24:30.011970 35040 net.cpp:406] fc7-conv <- fc6-conv
I1018 12:24:30.011977 35040 net.cpp:380] fc7-conv -> fc7-conv
I1018 12:24:30.060703 35040 net.cpp:122] Setting up fc7-conv
I1018 12:24:30.060739 35040 net.cpp:129] Top shape: 50 4096 3 3 (1843200)
I1018 12:24:30.060745 35040 net.cpp:137] Memory required for data: 9543175000
I1018 12:24:30.060756 35040 layer_factory.hpp:77] Creating layer relu7
I1018 12:24:30.060766 35040 net.cpp:84] Creating Layer relu7
I1018 12:24:30.060773 35040 net.cpp:406] relu7 <- fc7-conv
I1018 12:24:30.060782 35040 net.cpp:367] relu7 -> fc7-conv (in-place)
I1018 12:24:30.060793 35040 net.cpp:122] Setting up relu7
I1018 12:24:30.060799 35040 net.cpp:129] Top shape: 50 4096 3 3 (1843200)
I1018 12:24:30.060803 35040 net.cpp:137] Memory required for data: 9550547800
I1018 12:24:30.060808 35040 layer_factory.hpp:77] Creating layer drop7
I1018 12:24:30.060816 35040 net.cpp:84] Creating Layer drop7
I1018 12:24:30.060820 35040 net.cpp:406] drop7 <- fc7-conv
I1018 12:24:30.060827 35040 net.cpp:367] drop7 -> fc7-conv (in-place)
I1018 12:24:30.060858 35040 net.cpp:122] Setting up drop7
I1018 12:24:30.060868 35040 net.cpp:129] Top shape: 50 4096 3 3 (1843200)
I1018 12:24:30.060873 35040 net.cpp:137] Memory required for data: 9557920600
I1018 12:24:30.060876 35040 layer_factory.hpp:77] Creating layer fc7-conv_re
I1018 12:24:30.060884 35040 net.cpp:84] Creating Layer fc7-conv_re
I1018 12:24:30.060889 35040 net.cpp:406] fc7-conv_re <- fc7-conv
I1018 12:24:30.060894 35040 net.cpp:380] fc7-conv_re -> fc7-conv_re
I1018 12:24:30.060926 35040 net.cpp:122] Setting up fc7-conv_re
I1018 12:24:30.060933 35040 net.cpp:129] Top shape: 50 4096 9 (1843200)
I1018 12:24:30.060937 35040 net.cpp:137] Memory required for data: 9565293400
I1018 12:24:30.060941 35040 layer_factory.hpp:77] Creating layer fc7-conv_tran
I1018 12:24:30.061012 35040 net.cpp:84] Creating Layer fc7-conv_tran
I1018 12:24:30.061020 35040 net.cpp:406] fc7-conv_tran <- fc7-conv_re
I1018 12:24:30.061028 35040 net.cpp:380] fc7-conv_tran -> fc7-conv_tran
I1018 12:24:30.065752 35040 net.cpp:122] Setting up fc7-conv_tran
I1018 12:24:30.065775 35040 net.cpp:129] Top shape: 8 50 4096 (1638400)
I1018 12:24:30.065783 35040 net.cpp:137] Memory required for data: 9571847000
I1018 12:24:30.065791 35040 layer_factory.hpp:77] Creating layer lstm1
I1018 12:24:30.065805 35040 net.cpp:84] Creating Layer lstm1
I1018 12:24:30.065850 35040 net.cpp:406] lstm1 <- fc7-conv_tran
I1018 12:24:30.065866 35040 net.cpp:406] lstm1 <- clip_markers
I1018 12:24:30.065881 35040 net.cpp:380] lstm1 -> lstm1
I1018 12:24:30.065899 35040 recurrent_layer.cpp:20] Initializing recurrent layer: assuming input batch contains 8 timesteps of 50 independent streams.
I1018 12:24:30.066334 35040 net.cpp:51] Initializing net from parameters: 
layer {
  name: "lstm1_"
  type: "Input"
  top: "x"
  top: "cont"
  input_param {
    shape {
      dim: 8
      dim: 50
      dim: 4096
    }
    shape {
      dim: 8
      dim: 50
    }
  }
}
layer {
  name: "lstm1_"
  type: "Input"
  top: "c_0"
  top: "h_0"
  input_param {
    shape {
      dim: 1
      dim: 50
      dim: 512
    }
    shape {
      dim: 1
      dim: 50
      dim: 512
    }
  }
}
layer {
  name: "lstm1_cont_slice"
  type: "Slice"
  bottom: "cont"
  top: "cont_1"
  top: "cont_2"
  top: "cont_3"
  top: "cont_4"
  top: "cont_5"
  top: "cont_6"
  top: "cont_7"
  top: "cont_8"
  slice_param {
    axis: 0
  }
}
layer {
  name: "lstm1_x_transform"
  type: "InnerProduct"
  bottom: "x"
  top: "W_xc_x"
  param {
    name: "W_xc"
  }
  param {
    name: "b_c"
  }
  propagate_down: true
  inner_product_param {
    num_output: 2048
    bias_term: true
    weight_filler {
      type: "uniform"
      min: -0.01
      max: 0.01
    }
    bias_filler {
      type: "constant"
      value: 0
    }
    axis: 2
  }
}
layer {
  name: "lstm1_W_xc_x_slice"
  type: "Slice"
  bottom: "W_xc_x"
  top: "W_xc_x_1"
  top: "W_xc_x_2"
  top: "W_xc_x_3"
  top: "W_xc_x_4"
  top: "W_xc_x_5"
  top: "W_xc_x_6"
  top: "W_xc_x_7"
  top: "W_xc_x_8"
  slice_param {
    axis: 0
  }
}
layer {
  name: "lstm1_h_conted_0"
  type: "Scale"
  bottom: "h_0"
  bottom: "cont_1"
  top: "h_conted_0"
  scale_param {
    axis: 0
  }
}
layer {
  name: "lstm1_transform_1"
  type: "InnerProduct"
  bottom: "h_conted_0"
  top: "W_hc_h_0"
  param {
    name: "W_hc"
  }
  inner_product_param {
    num_output: 2048
    bias_term: false
    weight_filler {
      type: "uniform"
      min: -0.01
      max: 0.01
    }
    axis: 2
  }
}
layer {
  name: "lstm1_gate_input_1"
  type: "Eltwise"
  bottom: "W_hc_h_0"
  bottom: "W_xc_x_1"
  top: "gate_input_1"
  eltwise_param {
    operation: SUM
  }
}
layer {
  name: "lstm1_unit_1"
  type: "LSTMUnit"
  bottom: "c_0"
  bottom: "gate_input_1"
  bottom: "cont_1"
  top: "c_1"
  top: "h_1"
}
layer {
  name: "lstm1_h_conted_1"
  type: "Scale"
  bottom: "h_1"
  bottom: "cont_2"
  top: "h_conted_1"
  scale_param {
    axis: 0
  }
}
layer {
  name: "lstm1_transform_2"
  type: "InnerProduct"
  bottom: "h_conted_1"
  top: "W_hc_h_1"
  param {
    name: "W_hc"
  }
  inner_product_param {
    num_output: 2048
    bias_term: false
    weight_filler {
      type: "uniform"
      min: -0.01
      max: 0.01
    }
    axis: 2
  }
}
layer {
  name: "lstm1_gate_input_2"
  type: "Eltwise"
  bottom: "W_hc_h_1"
  bottom: "W_xc_x_2"
  top: "gate_input_2"
  eltwise_param {
    operation: SUM
  }
}
layer {
  name: "lstm1_unit_2"
  type: "LSTMUnit"
  bottom: "c_1"
  bottom: "gate_input_2"
  bottom: "cont_2"
  top: "c_2"
  top: "h_2"
}
layer {
  name: "lstm1_h_conted_2"
  type: "Scale"
  bottom: "h_2"
  bottom: "cont_3"
  top: "h_conted_2"
  scale_param {
    axis: 0
  }
}
layer {
  name: "lstm1_transform_3"
  type: "InnerProduct"
  bottom: "h_conted_2"
  top: "W_hc_h_2"
  param {
    name: "W_hc"
  }
  inner_product_param {
    num_output: 2048
    bias_term: false
    weight_filler {
      type: "uniform"
      min: -0.01
      max: 0.01
    }
    axis: 2
  }
}
layer {
  name: "lstm1_gate_input_3"
  type: "Eltwise"
  bottom: "W_hc_h_2"
  bottom: "W_xc_x_3"
  top: "gate_input_3"
  eltwise_param {
    operation: SUM
  }
}
layer {
  name: "lstm1_unit_3"
  type: "LSTMUnit"
  bottom: "c_2"
  bottom: "gate_input_3"
  bottom: "cont_3"
  top: "c_3"
  top: "h_3"
}
layer {
  name: "lstm1_h_conted_3"
  type: "Scale"
  bottom: "h_3"
  bottom: "cont_4"
  top: "h_conted_3"
  scale_param {
    axis: 0
  }
}
layer {
  name: "lstm1_transform_4"
  type: "InnerProduct"
  bottom: "h_conted_3"
  top: "W_hc_h_3"
  param {
    name: "W_hc"
  }
  inner_product_param {
    num_output: 2048
    bias_term: false
    weight_filler {
      type: "uniform"
      min: -0.01
      max: 0.01
    }
    axis: 2
  }
}
layer {
  name: "lstm1_gate_input_4"
  type: "Eltwise"
  bottom: "W_hc_h_3"
  bottom: "W_xc_x_4"
  top: "gate_input_4"
  eltwise_param {
    operation: SUM
  }
}
layer {
  name: "lstm1_unit_4"
  type: "LSTMUnit"
  bottom: "c_3"
  bottom: "gate_input_4"
  bottom: "cont_4"
  top: "c_4"
  top: "h_4"
}
layer {
  name: "lstm1_h_conted_4"
  type: "Scale"
  bottom: "h_4"
  bottom: "cont_5"
  top: "h_conted_4"
  scale_param {
    axis: 0
  }
}
layer {
  name: "lstm1_transform_5"
  type: "InnerProduct"
  bottom: "h_conted_4"
  top: "W_hc_h_4"
  param {
    name: "W_hc"
  }
  inner_product_param {
    num_output: 2048
    bias_term: false
    weight_filler {
      type: "uniform"
      min: -0.01
      max: 0.01
    }
    axis: 2
  }
}
layer {
  name: "lstm1_gate_input_5"
  type: "Eltwise"
  bottom: "W_hc_h_4"
  bottom: "W_xc_x_5"
  top: "gate_input_5"
  eltwise_param {
    operation: SUM
  }
}
layer {
  name: "lstm1_unit_5"
  type: "LSTMUnit"
  bottom: "c_4"
  bottom: "gate_input_5"
  bottom: "cont_5"
  top: "c_5"
  top: "h_5"
}
layer {
  name: "lstm1_h_conted_5"
  type: "Scale"
  bottom: "h_5"
  bottom: "cont_6"
  top: "h_conted_5"
  scale_param {
    axis: 0
  }
}
layer {
  name: "lstm1_transform_6"
  type: "InnerProduct"
  bottom: "h_conted_5"
  top: "W_hc_h_5"
  param {
    name: "W_hc"
  }
  inner_product_param {
    num_output: 2048
    bias_term: false
    weight_filler {
      type: "uniform"
      min: -0.01
      max: 0.01
    }
    axis: 2
  }
}
layer {
  name: "lstm1_gate_input_6"
  type: "Eltwise"
  bottom: "W_hc_h_5"
  bottom: "W_xc_x_6"
  top: "gate_input_6"
  eltwise_param {
    operation: SUM
  }
}
layer {
  name: "lstm1_unit_6"
  type: "LSTMUnit"
  bottom: "c_5"
  bottom: "gate_input_6"
  bottom: "cont_6"
  top: "c_6"
  top: "h_6"
}
layer {
  name: "lstm1_h_conted_6"
  type: "Scale"
  bottom: "h_6"
  bottom: "cont_7"
  top: "h_conted_6"
  scale_param {
    axis: 0
  }
}
layer {
  name: "lstm1_transform_7"
  type: "InnerProduct"
  bottom: "h_conted_6"
  top: "W_hc_h_6"
  param {
    name: "W_hc"
  }
  inner_product_param {
    num_output: 2048
    bias_term: false
    weight_filler {
      type: "uniform"
      min: -0.01
      max: 0.01
    }
    axis: 2
  }
}
layer {
  name: "lstm1_gate_input_7"
  type: "Eltwise"
  bottom: "W_hc_h_6"
  bottom: "W_xc_x_7"
  top: "gate_input_7"
  eltwise_param {
    operation: SUM
  }
}
layer {
  name: "lstm1_unit_7"
  type: "LSTMUnit"
  bottom: "c_6"
  bottom: "gate_input_7"
  bottom: "cont_7"
  top: "c_7"
  top: "h_7"
}
layer {
  name: "lstm1_h_conted_7"
  type: "Scale"
  bottom: "h_7"
  bottom: "cont_8"
  top: "h_conted_7"
  scale_param {
    axis: 0
  }
}
layer {
  name: "lstm1_transform_8"
  type: "InnerProduct"
  bottom: "h_conted_7"
  top: "W_hc_h_7"
  param {
    name: "W_hc"
  }
  inner_product_param {
    num_output: 2048
    bias_term: false
    weight_filler {
      type: "uniform"
      min: -0.01
      max: 0.01
    }
    axis: 2
  }
}
layer {
  name: "lstm1_gate_input_8"
  type: "Eltwise"
  bottom: "W_hc_h_7"
  bottom: "W_xc_x_8"
  top: "gate_input_8"
  eltwise_param {
    operation: SUM
  }
}
layer {
  name: "lstm1_unit_8"
  type: "LSTMUnit"
  bottom: "c_7"
  bottom: "gate_input_8"
  bottom: "cont_8"
  top: "c_8"
  top: "h_8"
}
layer {
  name: "lstm1_"
  type: "Split"
  bottom: "c_8"
  top: "c_T"
}
layer {
  name: "lstm1_h_concat"
  type: "Concat"
  bottom: "h_1"
  bottom: "h_2"
  bottom: "h_3"
  bottom: "h_4"
  bottom: "h_5"
  bottom: "h_6"
  bottom: "h_7"
  bottom: "h_8"
  top: "h"
  concat_param {
    axis: 0
  }
}
layer {
  name: "h_pseudoloss"
  type: "Reduction"
  bottom: "h"
  top: "h_pseudoloss"
  loss_weight: 1
}
I1018 12:24:30.066717 35040 layer_factory.hpp:77] Creating layer lstm1_
I1018 12:24:30.066736 35040 net.cpp:84] Creating Layer lstm1_
I1018 12:24:30.066746 35040 net.cpp:380] lstm1_ -> x
I1018 12:24:30.066766 35040 net.cpp:380] lstm1_ -> cont
I1018 12:24:30.066821 35040 net.cpp:122] Setting up lstm1_
I1018 12:24:30.066830 35040 net.cpp:129] Top shape: 8 50 4096 (1638400)
I1018 12:24:30.066836 35040 net.cpp:129] Top shape: 8 50 (400)
I1018 12:24:30.066840 35040 net.cpp:137] Memory required for data: 6555200
I1018 12:24:30.066845 35040 layer_factory.hpp:77] Creating layer lstm1_
I1018 12:24:30.066853 35040 net.cpp:84] Creating Layer lstm1_
I1018 12:24:30.066857 35040 net.cpp:380] lstm1_ -> c_0
I1018 12:24:30.066866 35040 net.cpp:380] lstm1_ -> h_0
I1018 12:24:30.066908 35040 net.cpp:122] Setting up lstm1_
I1018 12:24:30.066915 35040 net.cpp:129] Top shape: 1 50 512 (25600)
I1018 12:24:30.066920 35040 net.cpp:129] Top shape: 1 50 512 (25600)
I1018 12:24:30.066925 35040 net.cpp:137] Memory required for data: 6760000
I1018 12:24:30.066928 35040 layer_factory.hpp:77] Creating layer lstm1_cont_slice
I1018 12:24:30.066936 35040 net.cpp:84] Creating Layer lstm1_cont_slice
I1018 12:24:30.066941 35040 net.cpp:406] lstm1_cont_slice <- cont
I1018 12:24:30.066951 35040 net.cpp:380] lstm1_cont_slice -> cont_1
I1018 12:24:30.066959 35040 net.cpp:380] lstm1_cont_slice -> cont_2
I1018 12:24:30.066967 35040 net.cpp:380] lstm1_cont_slice -> cont_3
I1018 12:24:30.066973 35040 net.cpp:380] lstm1_cont_slice -> cont_4
I1018 12:24:30.066979 35040 net.cpp:380] lstm1_cont_slice -> cont_5
I1018 12:24:30.066990 35040 net.cpp:380] lstm1_cont_slice -> cont_6
I1018 12:24:30.066996 35040 net.cpp:380] lstm1_cont_slice -> cont_7
I1018 12:24:30.067004 35040 net.cpp:380] lstm1_cont_slice -> cont_8
I1018 12:24:30.067121 35040 net.cpp:122] Setting up lstm1_cont_slice
I1018 12:24:30.067131 35040 net.cpp:129] Top shape: 1 50 (50)
I1018 12:24:30.067136 35040 net.cpp:129] Top shape: 1 50 (50)
I1018 12:24:30.067139 35040 net.cpp:129] Top shape: 1 50 (50)
I1018 12:24:30.067144 35040 net.cpp:129] Top shape: 1 50 (50)
I1018 12:24:30.067148 35040 net.cpp:129] Top shape: 1 50 (50)
I1018 12:24:30.067153 35040 net.cpp:129] Top shape: 1 50 (50)
I1018 12:24:30.067157 35040 net.cpp:129] Top shape: 1 50 (50)
I1018 12:24:30.067162 35040 net.cpp:129] Top shape: 1 50 (50)
I1018 12:24:30.067165 35040 net.cpp:137] Memory required for data: 6761600
I1018 12:24:30.067169 35040 layer_factory.hpp:77] Creating layer cont_1_lstm1_cont_slice_0_split
I1018 12:24:30.067175 35040 net.cpp:84] Creating Layer cont_1_lstm1_cont_slice_0_split
I1018 12:24:30.067180 35040 net.cpp:406] cont_1_lstm1_cont_slice_0_split <- cont_1
I1018 12:24:30.067188 35040 net.cpp:380] cont_1_lstm1_cont_slice_0_split -> cont_1_lstm1_cont_slice_0_split_0
I1018 12:24:30.067195 35040 net.cpp:380] cont_1_lstm1_cont_slice_0_split -> cont_1_lstm1_cont_slice_0_split_1
I1018 12:24:30.067230 35040 net.cpp:122] Setting up cont_1_lstm1_cont_slice_0_split
I1018 12:24:30.067236 35040 net.cpp:129] Top shape: 1 50 (50)
I1018 12:24:30.067241 35040 net.cpp:129] Top shape: 1 50 (50)
I1018 12:24:30.067245 35040 net.cpp:137] Memory required for data: 6762000
I1018 12:24:30.067248 35040 layer_factory.hpp:77] Creating layer cont_2_lstm1_cont_slice_1_split
I1018 12:24:30.067256 35040 net.cpp:84] Creating Layer cont_2_lstm1_cont_slice_1_split
I1018 12:24:30.067260 35040 net.cpp:406] cont_2_lstm1_cont_slice_1_split <- cont_2
I1018 12:24:30.067266 35040 net.cpp:380] cont_2_lstm1_cont_slice_1_split -> cont_2_lstm1_cont_slice_1_split_0
I1018 12:24:30.067273 35040 net.cpp:380] cont_2_lstm1_cont_slice_1_split -> cont_2_lstm1_cont_slice_1_split_1
I1018 12:24:30.067306 35040 net.cpp:122] Setting up cont_2_lstm1_cont_slice_1_split
I1018 12:24:30.067312 35040 net.cpp:129] Top shape: 1 50 (50)
I1018 12:24:30.067317 35040 net.cpp:129] Top shape: 1 50 (50)
I1018 12:24:30.067320 35040 net.cpp:137] Memory required for data: 6762400
I1018 12:24:30.067324 35040 layer_factory.hpp:77] Creating layer cont_3_lstm1_cont_slice_2_split
I1018 12:24:30.067329 35040 net.cpp:84] Creating Layer cont_3_lstm1_cont_slice_2_split
I1018 12:24:30.067333 35040 net.cpp:406] cont_3_lstm1_cont_slice_2_split <- cont_3
I1018 12:24:30.067342 35040 net.cpp:380] cont_3_lstm1_cont_slice_2_split -> cont_3_lstm1_cont_slice_2_split_0
I1018 12:24:30.067349 35040 net.cpp:380] cont_3_lstm1_cont_slice_2_split -> cont_3_lstm1_cont_slice_2_split_1
I1018 12:24:30.067379 35040 net.cpp:122] Setting up cont_3_lstm1_cont_slice_2_split
I1018 12:24:30.067385 35040 net.cpp:129] Top shape: 1 50 (50)
I1018 12:24:30.067390 35040 net.cpp:129] Top shape: 1 50 (50)
I1018 12:24:30.067394 35040 net.cpp:137] Memory required for data: 6762800
I1018 12:24:30.067399 35040 layer_factory.hpp:77] Creating layer cont_4_lstm1_cont_slice_3_split
I1018 12:24:30.067405 35040 net.cpp:84] Creating Layer cont_4_lstm1_cont_slice_3_split
I1018 12:24:30.067409 35040 net.cpp:406] cont_4_lstm1_cont_slice_3_split <- cont_4
I1018 12:24:30.067416 35040 net.cpp:380] cont_4_lstm1_cont_slice_3_split -> cont_4_lstm1_cont_slice_3_split_0
I1018 12:24:30.067422 35040 net.cpp:380] cont_4_lstm1_cont_slice_3_split -> cont_4_lstm1_cont_slice_3_split_1
I1018 12:24:30.067454 35040 net.cpp:122] Setting up cont_4_lstm1_cont_slice_3_split
I1018 12:24:30.067461 35040 net.cpp:129] Top shape: 1 50 (50)
I1018 12:24:30.067466 35040 net.cpp:129] Top shape: 1 50 (50)
I1018 12:24:30.067468 35040 net.cpp:137] Memory required for data: 6763200
I1018 12:24:30.067472 35040 layer_factory.hpp:77] Creating layer cont_5_lstm1_cont_slice_4_split
I1018 12:24:30.067481 35040 net.cpp:84] Creating Layer cont_5_lstm1_cont_slice_4_split
I1018 12:24:30.067484 35040 net.cpp:406] cont_5_lstm1_cont_slice_4_split <- cont_5
I1018 12:24:30.067489 35040 net.cpp:380] cont_5_lstm1_cont_slice_4_split -> cont_5_lstm1_cont_slice_4_split_0
I1018 12:24:30.067497 35040 net.cpp:380] cont_5_lstm1_cont_slice_4_split -> cont_5_lstm1_cont_slice_4_split_1
I1018 12:24:30.067528 35040 net.cpp:122] Setting up cont_5_lstm1_cont_slice_4_split
I1018 12:24:30.067533 35040 net.cpp:129] Top shape: 1 50 (50)
I1018 12:24:30.067538 35040 net.cpp:129] Top shape: 1 50 (50)
I1018 12:24:30.067543 35040 net.cpp:137] Memory required for data: 6763600
I1018 12:24:30.067546 35040 layer_factory.hpp:77] Creating layer cont_6_lstm1_cont_slice_5_split
I1018 12:24:30.067551 35040 net.cpp:84] Creating Layer cont_6_lstm1_cont_slice_5_split
I1018 12:24:30.067555 35040 net.cpp:406] cont_6_lstm1_cont_slice_5_split <- cont_6
I1018 12:24:30.067564 35040 net.cpp:380] cont_6_lstm1_cont_slice_5_split -> cont_6_lstm1_cont_slice_5_split_0
I1018 12:24:30.067569 35040 net.cpp:380] cont_6_lstm1_cont_slice_5_split -> cont_6_lstm1_cont_slice_5_split_1
I1018 12:24:30.067600 35040 net.cpp:122] Setting up cont_6_lstm1_cont_slice_5_split
I1018 12:24:30.067605 35040 net.cpp:129] Top shape: 1 50 (50)
I1018 12:24:30.067610 35040 net.cpp:129] Top shape: 1 50 (50)
I1018 12:24:30.067613 35040 net.cpp:137] Memory required for data: 6764000
I1018 12:24:30.067617 35040 layer_factory.hpp:77] Creating layer cont_7_lstm1_cont_slice_6_split
I1018 12:24:30.067625 35040 net.cpp:84] Creating Layer cont_7_lstm1_cont_slice_6_split
I1018 12:24:30.067628 35040 net.cpp:406] cont_7_lstm1_cont_slice_6_split <- cont_7
I1018 12:24:30.067634 35040 net.cpp:380] cont_7_lstm1_cont_slice_6_split -> cont_7_lstm1_cont_slice_6_split_0
I1018 12:24:30.067641 35040 net.cpp:380] cont_7_lstm1_cont_slice_6_split -> cont_7_lstm1_cont_slice_6_split_1
I1018 12:24:30.067672 35040 net.cpp:122] Setting up cont_7_lstm1_cont_slice_6_split
I1018 12:24:30.067678 35040 net.cpp:129] Top shape: 1 50 (50)
I1018 12:24:30.067682 35040 net.cpp:129] Top shape: 1 50 (50)
I1018 12:24:30.067687 35040 net.cpp:137] Memory required for data: 6764400
I1018 12:24:30.067690 35040 layer_factory.hpp:77] Creating layer cont_8_lstm1_cont_slice_7_split
I1018 12:24:30.067695 35040 net.cpp:84] Creating Layer cont_8_lstm1_cont_slice_7_split
I1018 12:24:30.067699 35040 net.cpp:406] cont_8_lstm1_cont_slice_7_split <- cont_8
I1018 12:24:30.067704 35040 net.cpp:380] cont_8_lstm1_cont_slice_7_split -> cont_8_lstm1_cont_slice_7_split_0
I1018 12:24:30.067710 35040 net.cpp:380] cont_8_lstm1_cont_slice_7_split -> cont_8_lstm1_cont_slice_7_split_1
I1018 12:24:30.067742 35040 net.cpp:122] Setting up cont_8_lstm1_cont_slice_7_split
I1018 12:24:30.067749 35040 net.cpp:129] Top shape: 1 50 (50)
I1018 12:24:30.067752 35040 net.cpp:129] Top shape: 1 50 (50)
I1018 12:24:30.067756 35040 net.cpp:137] Memory required for data: 6764800
I1018 12:24:30.067760 35040 layer_factory.hpp:77] Creating layer lstm1_x_transform
I1018 12:24:30.067767 35040 net.cpp:84] Creating Layer lstm1_x_transform
I1018 12:24:30.067771 35040 net.cpp:406] lstm1_x_transform <- x
I1018 12:24:30.067780 35040 net.cpp:380] lstm1_x_transform -> W_xc_x
I1018 12:24:30.166088 35040 net.cpp:122] Setting up lstm1_x_transform
I1018 12:24:30.166122 35040 net.cpp:129] Top shape: 8 50 2048 (819200)
I1018 12:24:30.166128 35040 net.cpp:137] Memory required for data: 10041600
I1018 12:24:30.166149 35040 layer_factory.hpp:77] Creating layer lstm1_W_xc_x_slice
I1018 12:24:30.166163 35040 net.cpp:84] Creating Layer lstm1_W_xc_x_slice
I1018 12:24:30.166169 35040 net.cpp:406] lstm1_W_xc_x_slice <- W_xc_x
I1018 12:24:30.166178 35040 net.cpp:380] lstm1_W_xc_x_slice -> W_xc_x_1
I1018 12:24:30.166195 35040 net.cpp:380] lstm1_W_xc_x_slice -> W_xc_x_2
I1018 12:24:30.166204 35040 net.cpp:380] lstm1_W_xc_x_slice -> W_xc_x_3
I1018 12:24:30.166213 35040 net.cpp:380] lstm1_W_xc_x_slice -> W_xc_x_4
I1018 12:24:30.166224 35040 net.cpp:380] lstm1_W_xc_x_slice -> W_xc_x_5
I1018 12:24:30.166231 35040 net.cpp:380] lstm1_W_xc_x_slice -> W_xc_x_6
I1018 12:24:30.166239 35040 net.cpp:380] lstm1_W_xc_x_slice -> W_xc_x_7
I1018 12:24:30.166246 35040 net.cpp:380] lstm1_W_xc_x_slice -> W_xc_x_8
I1018 12:24:30.166373 35040 net.cpp:122] Setting up lstm1_W_xc_x_slice
I1018 12:24:30.166383 35040 net.cpp:129] Top shape: 1 50 2048 (102400)
I1018 12:24:30.166389 35040 net.cpp:129] Top shape: 1 50 2048 (102400)
I1018 12:24:30.166394 35040 net.cpp:129] Top shape: 1 50 2048 (102400)
I1018 12:24:30.166400 35040 net.cpp:129] Top shape: 1 50 2048 (102400)
I1018 12:24:30.166405 35040 net.cpp:129] Top shape: 1 50 2048 (102400)
I1018 12:24:30.166410 35040 net.cpp:129] Top shape: 1 50 2048 (102400)
I1018 12:24:30.166415 35040 net.cpp:129] Top shape: 1 50 2048 (102400)
I1018 12:24:30.166420 35040 net.cpp:129] Top shape: 1 50 2048 (102400)
I1018 12:24:30.166425 35040 net.cpp:137] Memory required for data: 13318400
I1018 12:24:30.166429 35040 layer_factory.hpp:77] Creating layer lstm1_h_conted_0
I1018 12:24:30.166440 35040 net.cpp:84] Creating Layer lstm1_h_conted_0
I1018 12:24:30.166445 35040 net.cpp:406] lstm1_h_conted_0 <- h_0
I1018 12:24:30.166452 35040 net.cpp:406] lstm1_h_conted_0 <- cont_1_lstm1_cont_slice_0_split_0
I1018 12:24:30.166461 35040 net.cpp:380] lstm1_h_conted_0 -> h_conted_0
I1018 12:24:30.166543 35040 net.cpp:122] Setting up lstm1_h_conted_0
I1018 12:24:30.166551 35040 net.cpp:129] Top shape: 1 50 512 (25600)
I1018 12:24:30.166555 35040 net.cpp:137] Memory required for data: 13420800
I1018 12:24:30.166560 35040 layer_factory.hpp:77] Creating layer lstm1_transform_1
I1018 12:24:30.166570 35040 net.cpp:84] Creating Layer lstm1_transform_1
I1018 12:24:30.166575 35040 net.cpp:406] lstm1_transform_1 <- h_conted_0
I1018 12:24:30.166582 35040 net.cpp:380] lstm1_transform_1 -> W_hc_h_0
I1018 12:24:30.180570 35040 net.cpp:122] Setting up lstm1_transform_1
I1018 12:24:30.180691 35040 net.cpp:129] Top shape: 1 50 2048 (102400)
I1018 12:24:30.180696 35040 net.cpp:137] Memory required for data: 13830400
I1018 12:24:30.180706 35040 layer_factory.hpp:77] Creating layer lstm1_gate_input_1
I1018 12:24:30.180722 35040 net.cpp:84] Creating Layer lstm1_gate_input_1
I1018 12:24:30.180728 35040 net.cpp:406] lstm1_gate_input_1 <- W_hc_h_0
I1018 12:24:30.180734 35040 net.cpp:406] lstm1_gate_input_1 <- W_xc_x_1
I1018 12:24:30.180742 35040 net.cpp:380] lstm1_gate_input_1 -> gate_input_1
I1018 12:24:30.180779 35040 net.cpp:122] Setting up lstm1_gate_input_1
I1018 12:24:30.180788 35040 net.cpp:129] Top shape: 1 50 2048 (102400)
I1018 12:24:30.180791 35040 net.cpp:137] Memory required for data: 14240000
I1018 12:24:30.180796 35040 layer_factory.hpp:77] Creating layer lstm1_unit_1
I1018 12:24:30.180806 35040 net.cpp:84] Creating Layer lstm1_unit_1
I1018 12:24:30.180812 35040 net.cpp:406] lstm1_unit_1 <- c_0
I1018 12:24:30.180819 35040 net.cpp:406] lstm1_unit_1 <- gate_input_1
I1018 12:24:30.180824 35040 net.cpp:406] lstm1_unit_1 <- cont_1_lstm1_cont_slice_0_split_1
I1018 12:24:30.180833 35040 net.cpp:380] lstm1_unit_1 -> c_1
I1018 12:24:30.180841 35040 net.cpp:380] lstm1_unit_1 -> h_1
I1018 12:24:30.180894 35040 net.cpp:122] Setting up lstm1_unit_1
I1018 12:24:30.180902 35040 net.cpp:129] Top shape: 1 50 512 (25600)
I1018 12:24:30.180907 35040 net.cpp:129] Top shape: 1 50 512 (25600)
I1018 12:24:30.180912 35040 net.cpp:137] Memory required for data: 14444800
I1018 12:24:30.180917 35040 layer_factory.hpp:77] Creating layer h_1_lstm1_unit_1_1_split
I1018 12:24:30.180927 35040 net.cpp:84] Creating Layer h_1_lstm1_unit_1_1_split
I1018 12:24:30.180932 35040 net.cpp:406] h_1_lstm1_unit_1_1_split <- h_1
I1018 12:24:30.180938 35040 net.cpp:380] h_1_lstm1_unit_1_1_split -> h_1_lstm1_unit_1_1_split_0
I1018 12:24:30.180945 35040 net.cpp:380] h_1_lstm1_unit_1_1_split -> h_1_lstm1_unit_1_1_split_1
I1018 12:24:30.180984 35040 net.cpp:122] Setting up h_1_lstm1_unit_1_1_split
I1018 12:24:30.180991 35040 net.cpp:129] Top shape: 1 50 512 (25600)
I1018 12:24:30.180996 35040 net.cpp:129] Top shape: 1 50 512 (25600)
I1018 12:24:30.181000 35040 net.cpp:137] Memory required for data: 14649600
I1018 12:24:30.181005 35040 layer_factory.hpp:77] Creating layer lstm1_h_conted_1
I1018 12:24:30.181015 35040 net.cpp:84] Creating Layer lstm1_h_conted_1
I1018 12:24:30.181020 35040 net.cpp:406] lstm1_h_conted_1 <- h_1_lstm1_unit_1_1_split_0
I1018 12:24:30.181027 35040 net.cpp:406] lstm1_h_conted_1 <- cont_2_lstm1_cont_slice_1_split_0
I1018 12:24:30.181035 35040 net.cpp:380] lstm1_h_conted_1 -> h_conted_1
I1018 12:24:30.181099 35040 net.cpp:122] Setting up lstm1_h_conted_1
I1018 12:24:30.181113 35040 net.cpp:129] Top shape: 1 50 512 (25600)
I1018 12:24:30.181118 35040 net.cpp:137] Memory required for data: 14752000
I1018 12:24:30.181123 35040 layer_factory.hpp:77] Creating layer lstm1_transform_2
I1018 12:24:30.181133 35040 net.cpp:84] Creating Layer lstm1_transform_2
I1018 12:24:30.181138 35040 net.cpp:406] lstm1_transform_2 <- h_conted_1
I1018 12:24:30.181145 35040 net.cpp:380] lstm1_transform_2 -> W_hc_h_1
I1018 12:24:30.194483 35040 net.cpp:122] Setting up lstm1_transform_2
I1018 12:24:30.194501 35040 net.cpp:129] Top shape: 1 50 2048 (102400)
I1018 12:24:30.194507 35040 net.cpp:137] Memory required for data: 15161600
I1018 12:24:30.194514 35040 net.cpp:465] Sharing parameters 'W_hc' owned by layer 'lstm1_transform_1', param index 0
I1018 12:24:30.194519 35040 layer_factory.hpp:77] Creating layer lstm1_gate_input_2
I1018 12:24:30.194526 35040 net.cpp:84] Creating Layer lstm1_gate_input_2
I1018 12:24:30.194531 35040 net.cpp:406] lstm1_gate_input_2 <- W_hc_h_1
I1018 12:24:30.194538 35040 net.cpp:406] lstm1_gate_input_2 <- W_xc_x_2
I1018 12:24:30.194545 35040 net.cpp:380] lstm1_gate_input_2 -> gate_input_2
I1018 12:24:30.194577 35040 net.cpp:122] Setting up lstm1_gate_input_2
I1018 12:24:30.194584 35040 net.cpp:129] Top shape: 1 50 2048 (102400)
I1018 12:24:30.194588 35040 net.cpp:137] Memory required for data: 15571200
I1018 12:24:30.194592 35040 layer_factory.hpp:77] Creating layer lstm1_unit_2
I1018 12:24:30.194607 35040 net.cpp:84] Creating Layer lstm1_unit_2
I1018 12:24:30.194612 35040 net.cpp:406] lstm1_unit_2 <- c_1
I1018 12:24:30.194619 35040 net.cpp:406] lstm1_unit_2 <- gate_input_2
I1018 12:24:30.194625 35040 net.cpp:406] lstm1_unit_2 <- cont_2_lstm1_cont_slice_1_split_1
I1018 12:24:30.194631 35040 net.cpp:380] lstm1_unit_2 -> c_2
I1018 12:24:30.194639 35040 net.cpp:380] lstm1_unit_2 -> h_2
I1018 12:24:30.194691 35040 net.cpp:122] Setting up lstm1_unit_2
I1018 12:24:30.194700 35040 net.cpp:129] Top shape: 1 50 512 (25600)
I1018 12:24:30.194705 35040 net.cpp:129] Top shape: 1 50 512 (25600)
I1018 12:24:30.194710 35040 net.cpp:137] Memory required for data: 15776000
I1018 12:24:30.194713 35040 layer_factory.hpp:77] Creating layer h_2_lstm1_unit_2_1_split
I1018 12:24:30.194720 35040 net.cpp:84] Creating Layer h_2_lstm1_unit_2_1_split
I1018 12:24:30.194725 35040 net.cpp:406] h_2_lstm1_unit_2_1_split <- h_2
I1018 12:24:30.194733 35040 net.cpp:380] h_2_lstm1_unit_2_1_split -> h_2_lstm1_unit_2_1_split_0
I1018 12:24:30.194741 35040 net.cpp:380] h_2_lstm1_unit_2_1_split -> h_2_lstm1_unit_2_1_split_1
I1018 12:24:30.194777 35040 net.cpp:122] Setting up h_2_lstm1_unit_2_1_split
I1018 12:24:30.194783 35040 net.cpp:129] Top shape: 1 50 512 (25600)
I1018 12:24:30.194788 35040 net.cpp:129] Top shape: 1 50 512 (25600)
I1018 12:24:30.194792 35040 net.cpp:137] Memory required for data: 15980800
I1018 12:24:30.194797 35040 layer_factory.hpp:77] Creating layer lstm1_h_conted_2
I1018 12:24:30.194806 35040 net.cpp:84] Creating Layer lstm1_h_conted_2
I1018 12:24:30.194811 35040 net.cpp:406] lstm1_h_conted_2 <- h_2_lstm1_unit_2_1_split_0
I1018 12:24:30.194818 35040 net.cpp:406] lstm1_h_conted_2 <- cont_3_lstm1_cont_slice_2_split_0
I1018 12:24:30.194826 35040 net.cpp:380] lstm1_h_conted_2 -> h_conted_2
I1018 12:24:30.194892 35040 net.cpp:122] Setting up lstm1_h_conted_2
I1018 12:24:30.194900 35040 net.cpp:129] Top shape: 1 50 512 (25600)
I1018 12:24:30.194905 35040 net.cpp:137] Memory required for data: 16083200
I1018 12:24:30.194908 35040 layer_factory.hpp:77] Creating layer lstm1_transform_3
I1018 12:24:30.194921 35040 net.cpp:84] Creating Layer lstm1_transform_3
I1018 12:24:30.194926 35040 net.cpp:406] lstm1_transform_3 <- h_conted_2
I1018 12:24:30.194934 35040 net.cpp:380] lstm1_transform_3 -> W_hc_h_2
I1018 12:24:30.208205 35040 net.cpp:122] Setting up lstm1_transform_3
I1018 12:24:30.208230 35040 net.cpp:129] Top shape: 1 50 2048 (102400)
I1018 12:24:30.208235 35040 net.cpp:137] Memory required for data: 16492800
I1018 12:24:30.208254 35040 net.cpp:465] Sharing parameters 'W_hc' owned by layer 'lstm1_transform_1', param index 0
I1018 12:24:30.208261 35040 layer_factory.hpp:77] Creating layer lstm1_gate_input_3
I1018 12:24:30.208271 35040 net.cpp:84] Creating Layer lstm1_gate_input_3
I1018 12:24:30.208276 35040 net.cpp:406] lstm1_gate_input_3 <- W_hc_h_2
I1018 12:24:30.208284 35040 net.cpp:406] lstm1_gate_input_3 <- W_xc_x_3
I1018 12:24:30.208292 35040 net.cpp:380] lstm1_gate_input_3 -> gate_input_3
I1018 12:24:30.208330 35040 net.cpp:122] Setting up lstm1_gate_input_3
I1018 12:24:30.208338 35040 net.cpp:129] Top shape: 1 50 2048 (102400)
I1018 12:24:30.208343 35040 net.cpp:137] Memory required for data: 16902400
I1018 12:24:30.208348 35040 layer_factory.hpp:77] Creating layer lstm1_unit_3
I1018 12:24:30.208358 35040 net.cpp:84] Creating Layer lstm1_unit_3
I1018 12:24:30.208362 35040 net.cpp:406] lstm1_unit_3 <- c_2
I1018 12:24:30.208369 35040 net.cpp:406] lstm1_unit_3 <- gate_input_3
I1018 12:24:30.208376 35040 net.cpp:406] lstm1_unit_3 <- cont_3_lstm1_cont_slice_2_split_1
I1018 12:24:30.208382 35040 net.cpp:380] lstm1_unit_3 -> c_3
I1018 12:24:30.208391 35040 net.cpp:380] lstm1_unit_3 -> h_3
I1018 12:24:30.208446 35040 net.cpp:122] Setting up lstm1_unit_3
I1018 12:24:30.208453 35040 net.cpp:129] Top shape: 1 50 512 (25600)
I1018 12:24:30.208458 35040 net.cpp:129] Top shape: 1 50 512 (25600)
I1018 12:24:30.208462 35040 net.cpp:137] Memory required for data: 17107200
I1018 12:24:30.208467 35040 layer_factory.hpp:77] Creating layer h_3_lstm1_unit_3_1_split
I1018 12:24:30.208474 35040 net.cpp:84] Creating Layer h_3_lstm1_unit_3_1_split
I1018 12:24:30.208479 35040 net.cpp:406] h_3_lstm1_unit_3_1_split <- h_3
I1018 12:24:30.208487 35040 net.cpp:380] h_3_lstm1_unit_3_1_split -> h_3_lstm1_unit_3_1_split_0
I1018 12:24:30.208495 35040 net.cpp:380] h_3_lstm1_unit_3_1_split -> h_3_lstm1_unit_3_1_split_1
I1018 12:24:30.208531 35040 net.cpp:122] Setting up h_3_lstm1_unit_3_1_split
I1018 12:24:30.208539 35040 net.cpp:129] Top shape: 1 50 512 (25600)
I1018 12:24:30.208544 35040 net.cpp:129] Top shape: 1 50 512 (25600)
I1018 12:24:30.208547 35040 net.cpp:137] Memory required for data: 17312000
I1018 12:24:30.208552 35040 layer_factory.hpp:77] Creating layer lstm1_h_conted_3
I1018 12:24:30.208562 35040 net.cpp:84] Creating Layer lstm1_h_conted_3
I1018 12:24:30.208567 35040 net.cpp:406] lstm1_h_conted_3 <- h_3_lstm1_unit_3_1_split_0
I1018 12:24:30.208575 35040 net.cpp:406] lstm1_h_conted_3 <- cont_4_lstm1_cont_slice_3_split_0
I1018 12:24:30.208581 35040 net.cpp:380] lstm1_h_conted_3 -> h_conted_3
I1018 12:24:30.208653 35040 net.cpp:122] Setting up lstm1_h_conted_3
I1018 12:24:30.208664 35040 net.cpp:129] Top shape: 1 50 512 (25600)
I1018 12:24:30.208668 35040 net.cpp:137] Memory required for data: 17414400
I1018 12:24:30.208673 35040 layer_factory.hpp:77] Creating layer lstm1_transform_4
I1018 12:24:30.208684 35040 net.cpp:84] Creating Layer lstm1_transform_4
I1018 12:24:30.208689 35040 net.cpp:406] lstm1_transform_4 <- h_conted_3
I1018 12:24:30.208696 35040 net.cpp:380] lstm1_transform_4 -> W_hc_h_3
I1018 12:24:30.222070 35040 net.cpp:122] Setting up lstm1_transform_4
I1018 12:24:30.222091 35040 net.cpp:129] Top shape: 1 50 2048 (102400)
I1018 12:24:30.222096 35040 net.cpp:137] Memory required for data: 17824000
I1018 12:24:30.222102 35040 net.cpp:465] Sharing parameters 'W_hc' owned by layer 'lstm1_transform_1', param index 0
I1018 12:24:30.222108 35040 layer_factory.hpp:77] Creating layer lstm1_gate_input_4
I1018 12:24:30.222120 35040 net.cpp:84] Creating Layer lstm1_gate_input_4
I1018 12:24:30.222126 35040 net.cpp:406] lstm1_gate_input_4 <- W_hc_h_3
I1018 12:24:30.222131 35040 net.cpp:406] lstm1_gate_input_4 <- W_xc_x_4
I1018 12:24:30.222139 35040 net.cpp:380] lstm1_gate_input_4 -> gate_input_4
I1018 12:24:30.222172 35040 net.cpp:122] Setting up lstm1_gate_input_4
I1018 12:24:30.222179 35040 net.cpp:129] Top shape: 1 50 2048 (102400)
I1018 12:24:30.222184 35040 net.cpp:137] Memory required for data: 18233600
I1018 12:24:30.222188 35040 layer_factory.hpp:77] Creating layer lstm1_unit_4
I1018 12:24:30.222196 35040 net.cpp:84] Creating Layer lstm1_unit_4
I1018 12:24:30.222201 35040 net.cpp:406] lstm1_unit_4 <- c_3
I1018 12:24:30.222208 35040 net.cpp:406] lstm1_unit_4 <- gate_input_4
I1018 12:24:30.222213 35040 net.cpp:406] lstm1_unit_4 <- cont_4_lstm1_cont_slice_3_split_1
I1018 12:24:30.222223 35040 net.cpp:380] lstm1_unit_4 -> c_4
I1018 12:24:30.222230 35040 net.cpp:380] lstm1_unit_4 -> h_4
I1018 12:24:30.222283 35040 net.cpp:122] Setting up lstm1_unit_4
I1018 12:24:30.222293 35040 net.cpp:129] Top shape: 1 50 512 (25600)
I1018 12:24:30.222298 35040 net.cpp:129] Top shape: 1 50 512 (25600)
I1018 12:24:30.222303 35040 net.cpp:137] Memory required for data: 18438400
I1018 12:24:30.222307 35040 layer_factory.hpp:77] Creating layer h_4_lstm1_unit_4_1_split
I1018 12:24:30.222319 35040 net.cpp:84] Creating Layer h_4_lstm1_unit_4_1_split
I1018 12:24:30.222324 35040 net.cpp:406] h_4_lstm1_unit_4_1_split <- h_4
I1018 12:24:30.222333 35040 net.cpp:380] h_4_lstm1_unit_4_1_split -> h_4_lstm1_unit_4_1_split_0
I1018 12:24:30.222342 35040 net.cpp:380] h_4_lstm1_unit_4_1_split -> h_4_lstm1_unit_4_1_split_1
I1018 12:24:30.222388 35040 net.cpp:122] Setting up h_4_lstm1_unit_4_1_split
I1018 12:24:30.222396 35040 net.cpp:129] Top shape: 1 50 512 (25600)
I1018 12:24:30.222404 35040 net.cpp:129] Top shape: 1 50 512 (25600)
I1018 12:24:30.222407 35040 net.cpp:137] Memory required for data: 18643200
I1018 12:24:30.222412 35040 layer_factory.hpp:77] Creating layer lstm1_h_conted_4
I1018 12:24:30.222420 35040 net.cpp:84] Creating Layer lstm1_h_conted_4
I1018 12:24:30.222426 35040 net.cpp:406] lstm1_h_conted_4 <- h_4_lstm1_unit_4_1_split_0
I1018 12:24:30.222432 35040 net.cpp:406] lstm1_h_conted_4 <- cont_5_lstm1_cont_slice_4_split_0
I1018 12:24:30.222440 35040 net.cpp:380] lstm1_h_conted_4 -> h_conted_4
I1018 12:24:30.222508 35040 net.cpp:122] Setting up lstm1_h_conted_4
I1018 12:24:30.222518 35040 net.cpp:129] Top shape: 1 50 512 (25600)
I1018 12:24:30.222522 35040 net.cpp:137] Memory required for data: 18745600
I1018 12:24:30.222527 35040 layer_factory.hpp:77] Creating layer lstm1_transform_5
I1018 12:24:30.222535 35040 net.cpp:84] Creating Layer lstm1_transform_5
I1018 12:24:30.222540 35040 net.cpp:406] lstm1_transform_5 <- h_conted_4
I1018 12:24:30.222548 35040 net.cpp:380] lstm1_transform_5 -> W_hc_h_4
I1018 12:24:30.235821 35040 net.cpp:122] Setting up lstm1_transform_5
I1018 12:24:30.235849 35040 net.cpp:129] Top shape: 1 50 2048 (102400)
I1018 12:24:30.235855 35040 net.cpp:137] Memory required for data: 19155200
I1018 12:24:30.235863 35040 net.cpp:465] Sharing parameters 'W_hc' owned by layer 'lstm1_transform_1', param index 0
I1018 12:24:30.235869 35040 layer_factory.hpp:77] Creating layer lstm1_gate_input_5
I1018 12:24:30.235882 35040 net.cpp:84] Creating Layer lstm1_gate_input_5
I1018 12:24:30.235888 35040 net.cpp:406] lstm1_gate_input_5 <- W_hc_h_4
I1018 12:24:30.235896 35040 net.cpp:406] lstm1_gate_input_5 <- W_xc_x_5
I1018 12:24:30.235904 35040 net.cpp:380] lstm1_gate_input_5 -> gate_input_5
I1018 12:24:30.235945 35040 net.cpp:122] Setting up lstm1_gate_input_5
I1018 12:24:30.235956 35040 net.cpp:129] Top shape: 1 50 2048 (102400)
I1018 12:24:30.235960 35040 net.cpp:137] Memory required for data: 19564800
I1018 12:24:30.235965 35040 layer_factory.hpp:77] Creating layer lstm1_unit_5
I1018 12:24:30.235973 35040 net.cpp:84] Creating Layer lstm1_unit_5
I1018 12:24:30.235978 35040 net.cpp:406] lstm1_unit_5 <- c_4
I1018 12:24:30.235985 35040 net.cpp:406] lstm1_unit_5 <- gate_input_5
I1018 12:24:30.235991 35040 net.cpp:406] lstm1_unit_5 <- cont_5_lstm1_cont_slice_4_split_1
I1018 12:24:30.235998 35040 net.cpp:380] lstm1_unit_5 -> c_5
I1018 12:24:30.236007 35040 net.cpp:380] lstm1_unit_5 -> h_5
I1018 12:24:30.236069 35040 net.cpp:122] Setting up lstm1_unit_5
I1018 12:24:30.236079 35040 net.cpp:129] Top shape: 1 50 512 (25600)
I1018 12:24:30.236085 35040 net.cpp:129] Top shape: 1 50 512 (25600)
I1018 12:24:30.236089 35040 net.cpp:137] Memory required for data: 19769600
I1018 12:24:30.236094 35040 layer_factory.hpp:77] Creating layer h_5_lstm1_unit_5_1_split
I1018 12:24:30.236104 35040 net.cpp:84] Creating Layer h_5_lstm1_unit_5_1_split
I1018 12:24:30.236109 35040 net.cpp:406] h_5_lstm1_unit_5_1_split <- h_5
I1018 12:24:30.236116 35040 net.cpp:380] h_5_lstm1_unit_5_1_split -> h_5_lstm1_unit_5_1_split_0
I1018 12:24:30.236124 35040 net.cpp:380] h_5_lstm1_unit_5_1_split -> h_5_lstm1_unit_5_1_split_1
I1018 12:24:30.236166 35040 net.cpp:122] Setting up h_5_lstm1_unit_5_1_split
I1018 12:24:30.236174 35040 net.cpp:129] Top shape: 1 50 512 (25600)
I1018 12:24:30.236181 35040 net.cpp:129] Top shape: 1 50 512 (25600)
I1018 12:24:30.236184 35040 net.cpp:137] Memory required for data: 19974400
I1018 12:24:30.236189 35040 layer_factory.hpp:77] Creating layer lstm1_h_conted_5
I1018 12:24:30.236199 35040 net.cpp:84] Creating Layer lstm1_h_conted_5
I1018 12:24:30.236205 35040 net.cpp:406] lstm1_h_conted_5 <- h_5_lstm1_unit_5_1_split_0
I1018 12:24:30.236212 35040 net.cpp:406] lstm1_h_conted_5 <- cont_6_lstm1_cont_slice_5_split_0
I1018 12:24:30.236218 35040 net.cpp:380] lstm1_h_conted_5 -> h_conted_5
I1018 12:24:30.236296 35040 net.cpp:122] Setting up lstm1_h_conted_5
I1018 12:24:30.236306 35040 net.cpp:129] Top shape: 1 50 512 (25600)
I1018 12:24:30.236310 35040 net.cpp:137] Memory required for data: 20076800
I1018 12:24:30.236315 35040 layer_factory.hpp:77] Creating layer lstm1_transform_6
I1018 12:24:30.236326 35040 net.cpp:84] Creating Layer lstm1_transform_6
I1018 12:24:30.236332 35040 net.cpp:406] lstm1_transform_6 <- h_conted_5
I1018 12:24:30.236340 35040 net.cpp:380] lstm1_transform_6 -> W_hc_h_5
I1018 12:24:30.251152 35040 net.cpp:122] Setting up lstm1_transform_6
I1018 12:24:30.251173 35040 net.cpp:129] Top shape: 1 50 2048 (102400)
I1018 12:24:30.251178 35040 net.cpp:137] Memory required for data: 20486400
I1018 12:24:30.251184 35040 net.cpp:465] Sharing parameters 'W_hc' owned by layer 'lstm1_transform_1', param index 0
I1018 12:24:30.251190 35040 layer_factory.hpp:77] Creating layer lstm1_gate_input_6
I1018 12:24:30.251199 35040 net.cpp:84] Creating Layer lstm1_gate_input_6
I1018 12:24:30.251204 35040 net.cpp:406] lstm1_gate_input_6 <- W_hc_h_5
I1018 12:24:30.251212 35040 net.cpp:406] lstm1_gate_input_6 <- W_xc_x_6
I1018 12:24:30.251219 35040 net.cpp:380] lstm1_gate_input_6 -> gate_input_6
I1018 12:24:30.251255 35040 net.cpp:122] Setting up lstm1_gate_input_6
I1018 12:24:30.251263 35040 net.cpp:129] Top shape: 1 50 2048 (102400)
I1018 12:24:30.251267 35040 net.cpp:137] Memory required for data: 20896000
I1018 12:24:30.251272 35040 layer_factory.hpp:77] Creating layer lstm1_unit_6
I1018 12:24:30.251282 35040 net.cpp:84] Creating Layer lstm1_unit_6
I1018 12:24:30.251288 35040 net.cpp:406] lstm1_unit_6 <- c_5
I1018 12:24:30.251294 35040 net.cpp:406] lstm1_unit_6 <- gate_input_6
I1018 12:24:30.251301 35040 net.cpp:406] lstm1_unit_6 <- cont_6_lstm1_cont_slice_5_split_1
I1018 12:24:30.251307 35040 net.cpp:380] lstm1_unit_6 -> c_6
I1018 12:24:30.251315 35040 net.cpp:380] lstm1_unit_6 -> h_6
I1018 12:24:30.251379 35040 net.cpp:122] Setting up lstm1_unit_6
I1018 12:24:30.251389 35040 net.cpp:129] Top shape: 1 50 512 (25600)
I1018 12:24:30.251395 35040 net.cpp:129] Top shape: 1 50 512 (25600)
I1018 12:24:30.251400 35040 net.cpp:137] Memory required for data: 21100800
I1018 12:24:30.251405 35040 layer_factory.hpp:77] Creating layer h_6_lstm1_unit_6_1_split
I1018 12:24:30.251412 35040 net.cpp:84] Creating Layer h_6_lstm1_unit_6_1_split
I1018 12:24:30.251417 35040 net.cpp:406] h_6_lstm1_unit_6_1_split <- h_6
I1018 12:24:30.251426 35040 net.cpp:380] h_6_lstm1_unit_6_1_split -> h_6_lstm1_unit_6_1_split_0
I1018 12:24:30.251435 35040 net.cpp:380] h_6_lstm1_unit_6_1_split -> h_6_lstm1_unit_6_1_split_1
I1018 12:24:30.251471 35040 net.cpp:122] Setting up h_6_lstm1_unit_6_1_split
I1018 12:24:30.251480 35040 net.cpp:129] Top shape: 1 50 512 (25600)
I1018 12:24:30.251487 35040 net.cpp:129] Top shape: 1 50 512 (25600)
I1018 12:24:30.251490 35040 net.cpp:137] Memory required for data: 21305600
I1018 12:24:30.251495 35040 layer_factory.hpp:77] Creating layer lstm1_h_conted_6
I1018 12:24:30.251505 35040 net.cpp:84] Creating Layer lstm1_h_conted_6
I1018 12:24:30.251510 35040 net.cpp:406] lstm1_h_conted_6 <- h_6_lstm1_unit_6_1_split_0
I1018 12:24:30.251516 35040 net.cpp:406] lstm1_h_conted_6 <- cont_7_lstm1_cont_slice_6_split_0
I1018 12:24:30.251525 35040 net.cpp:380] lstm1_h_conted_6 -> h_conted_6
I1018 12:24:30.251596 35040 net.cpp:122] Setting up lstm1_h_conted_6
I1018 12:24:30.251605 35040 net.cpp:129] Top shape: 1 50 512 (25600)
I1018 12:24:30.251610 35040 net.cpp:137] Memory required for data: 21408000
I1018 12:24:30.251615 35040 layer_factory.hpp:77] Creating layer lstm1_transform_7
I1018 12:24:30.251623 35040 net.cpp:84] Creating Layer lstm1_transform_7
I1018 12:24:30.251628 35040 net.cpp:406] lstm1_transform_7 <- h_conted_6
I1018 12:24:30.251638 35040 net.cpp:380] lstm1_transform_7 -> W_hc_h_6
I1018 12:24:30.266013 35040 net.cpp:122] Setting up lstm1_transform_7
I1018 12:24:30.266039 35040 net.cpp:129] Top shape: 1 50 2048 (102400)
I1018 12:24:30.266046 35040 net.cpp:137] Memory required for data: 21817600
I1018 12:24:30.266057 35040 net.cpp:465] Sharing parameters 'W_hc' owned by layer 'lstm1_transform_1', param index 0
I1018 12:24:30.266064 35040 layer_factory.hpp:77] Creating layer lstm1_gate_input_7
I1018 12:24:30.266075 35040 net.cpp:84] Creating Layer lstm1_gate_input_7
I1018 12:24:30.266083 35040 net.cpp:406] lstm1_gate_input_7 <- W_hc_h_6
I1018 12:24:30.266090 35040 net.cpp:406] lstm1_gate_input_7 <- W_xc_x_7
I1018 12:24:30.266098 35040 net.cpp:380] lstm1_gate_input_7 -> gate_input_7
I1018 12:24:30.266139 35040 net.cpp:122] Setting up lstm1_gate_input_7
I1018 12:24:30.266149 35040 net.cpp:129] Top shape: 1 50 2048 (102400)
I1018 12:24:30.266155 35040 net.cpp:137] Memory required for data: 22227200
I1018 12:24:30.266160 35040 layer_factory.hpp:77] Creating layer lstm1_unit_7
I1018 12:24:30.266170 35040 net.cpp:84] Creating Layer lstm1_unit_7
I1018 12:24:30.266175 35040 net.cpp:406] lstm1_unit_7 <- c_6
I1018 12:24:30.266183 35040 net.cpp:406] lstm1_unit_7 <- gate_input_7
I1018 12:24:30.266189 35040 net.cpp:406] lstm1_unit_7 <- cont_7_lstm1_cont_slice_6_split_1
I1018 12:24:30.266197 35040 net.cpp:380] lstm1_unit_7 -> c_7
I1018 12:24:30.266206 35040 net.cpp:380] lstm1_unit_7 -> h_7
I1018 12:24:30.266266 35040 net.cpp:122] Setting up lstm1_unit_7
I1018 12:24:30.266276 35040 net.cpp:129] Top shape: 1 50 512 (25600)
I1018 12:24:30.266283 35040 net.cpp:129] Top shape: 1 50 512 (25600)
I1018 12:24:30.266288 35040 net.cpp:137] Memory required for data: 22432000
I1018 12:24:30.266293 35040 layer_factory.hpp:77] Creating layer h_7_lstm1_unit_7_1_split
I1018 12:24:30.266299 35040 net.cpp:84] Creating Layer h_7_lstm1_unit_7_1_split
I1018 12:24:30.266305 35040 net.cpp:406] h_7_lstm1_unit_7_1_split <- h_7
I1018 12:24:30.266314 35040 net.cpp:380] h_7_lstm1_unit_7_1_split -> h_7_lstm1_unit_7_1_split_0
I1018 12:24:30.266324 35040 net.cpp:380] h_7_lstm1_unit_7_1_split -> h_7_lstm1_unit_7_1_split_1
I1018 12:24:30.266371 35040 net.cpp:122] Setting up h_7_lstm1_unit_7_1_split
I1018 12:24:30.266381 35040 net.cpp:129] Top shape: 1 50 512 (25600)
I1018 12:24:30.266388 35040 net.cpp:129] Top shape: 1 50 512 (25600)
I1018 12:24:30.266392 35040 net.cpp:137] Memory required for data: 22636800
I1018 12:24:30.266397 35040 layer_factory.hpp:77] Creating layer lstm1_h_conted_7
I1018 12:24:30.266409 35040 net.cpp:84] Creating Layer lstm1_h_conted_7
I1018 12:24:30.266415 35040 net.cpp:406] lstm1_h_conted_7 <- h_7_lstm1_unit_7_1_split_0
I1018 12:24:30.266422 35040 net.cpp:406] lstm1_h_conted_7 <- cont_8_lstm1_cont_slice_7_split_0
I1018 12:24:30.266430 35040 net.cpp:380] lstm1_h_conted_7 -> h_conted_7
I1018 12:24:30.266515 35040 net.cpp:122] Setting up lstm1_h_conted_7
I1018 12:24:30.266525 35040 net.cpp:129] Top shape: 1 50 512 (25600)
I1018 12:24:30.266528 35040 net.cpp:137] Memory required for data: 22739200
I1018 12:24:30.266533 35040 layer_factory.hpp:77] Creating layer lstm1_transform_8
I1018 12:24:30.266546 35040 net.cpp:84] Creating Layer lstm1_transform_8
I1018 12:24:30.266551 35040 net.cpp:406] lstm1_transform_8 <- h_conted_7
I1018 12:24:30.266559 35040 net.cpp:380] lstm1_transform_8 -> W_hc_h_7
I1018 12:24:30.280158 35040 net.cpp:122] Setting up lstm1_transform_8
I1018 12:24:30.280185 35040 net.cpp:129] Top shape: 1 50 2048 (102400)
I1018 12:24:30.280190 35040 net.cpp:137] Memory required for data: 23148800
I1018 12:24:30.280200 35040 net.cpp:465] Sharing parameters 'W_hc' owned by layer 'lstm1_transform_1', param index 0
I1018 12:24:30.280205 35040 layer_factory.hpp:77] Creating layer lstm1_gate_input_8
I1018 12:24:30.280220 35040 net.cpp:84] Creating Layer lstm1_gate_input_8
I1018 12:24:30.280227 35040 net.cpp:406] lstm1_gate_input_8 <- W_hc_h_7
I1018 12:24:30.280236 35040 net.cpp:406] lstm1_gate_input_8 <- W_xc_x_8
I1018 12:24:30.280244 35040 net.cpp:380] lstm1_gate_input_8 -> gate_input_8
I1018 12:24:30.280287 35040 net.cpp:122] Setting up lstm1_gate_input_8
I1018 12:24:30.280297 35040 net.cpp:129] Top shape: 1 50 2048 (102400)
I1018 12:24:30.280302 35040 net.cpp:137] Memory required for data: 23558400
I1018 12:24:30.280306 35040 layer_factory.hpp:77] Creating layer lstm1_unit_8
I1018 12:24:30.280314 35040 net.cpp:84] Creating Layer lstm1_unit_8
I1018 12:24:30.280320 35040 net.cpp:406] lstm1_unit_8 <- c_7
I1018 12:24:30.280329 35040 net.cpp:406] lstm1_unit_8 <- gate_input_8
I1018 12:24:30.280335 35040 net.cpp:406] lstm1_unit_8 <- cont_8_lstm1_cont_slice_7_split_1
I1018 12:24:30.280341 35040 net.cpp:380] lstm1_unit_8 -> c_8
I1018 12:24:30.280350 35040 net.cpp:380] lstm1_unit_8 -> h_8
I1018 12:24:30.280406 35040 net.cpp:122] Setting up lstm1_unit_8
I1018 12:24:30.280416 35040 net.cpp:129] Top shape: 1 50 512 (25600)
I1018 12:24:30.280421 35040 net.cpp:129] Top shape: 1 50 512 (25600)
I1018 12:24:30.280426 35040 net.cpp:137] Memory required for data: 23763200
I1018 12:24:30.280431 35040 layer_factory.hpp:77] Creating layer lstm1_
I1018 12:24:30.280438 35040 net.cpp:84] Creating Layer lstm1_
I1018 12:24:30.280443 35040 net.cpp:406] lstm1_ <- c_8
I1018 12:24:30.280450 35040 net.cpp:380] lstm1_ -> c_T
I1018 12:24:30.280478 35040 net.cpp:122] Setting up lstm1_
I1018 12:24:30.280488 35040 net.cpp:129] Top shape: 1 50 512 (25600)
I1018 12:24:30.280493 35040 net.cpp:137] Memory required for data: 23865600
I1018 12:24:30.280496 35040 layer_factory.hpp:77] Creating layer lstm1_h_concat
I1018 12:24:30.280505 35040 net.cpp:84] Creating Layer lstm1_h_concat
I1018 12:24:30.280510 35040 net.cpp:406] lstm1_h_concat <- h_1_lstm1_unit_1_1_split_1
I1018 12:24:30.280517 35040 net.cpp:406] lstm1_h_concat <- h_2_lstm1_unit_2_1_split_1
I1018 12:24:30.280524 35040 net.cpp:406] lstm1_h_concat <- h_3_lstm1_unit_3_1_split_1
I1018 12:24:30.280529 35040 net.cpp:406] lstm1_h_concat <- h_4_lstm1_unit_4_1_split_1
I1018 12:24:30.280534 35040 net.cpp:406] lstm1_h_concat <- h_5_lstm1_unit_5_1_split_1
I1018 12:24:30.280540 35040 net.cpp:406] lstm1_h_concat <- h_6_lstm1_unit_6_1_split_1
I1018 12:24:30.280545 35040 net.cpp:406] lstm1_h_concat <- h_7_lstm1_unit_7_1_split_1
I1018 12:24:30.280550 35040 net.cpp:406] lstm1_h_concat <- h_8
I1018 12:24:30.280557 35040 net.cpp:380] lstm1_h_concat -> h
I1018 12:24:30.280587 35040 net.cpp:122] Setting up lstm1_h_concat
I1018 12:24:30.280599 35040 net.cpp:129] Top shape: 8 50 512 (204800)
I1018 12:24:30.280604 35040 net.cpp:137] Memory required for data: 24684800
I1018 12:24:30.280609 35040 layer_factory.hpp:77] Creating layer h_pseudoloss
I1018 12:24:30.280617 35040 net.cpp:84] Creating Layer h_pseudoloss
I1018 12:24:30.280622 35040 net.cpp:406] h_pseudoloss <- h
I1018 12:24:30.280632 35040 net.cpp:380] h_pseudoloss -> h_pseudoloss
I1018 12:24:30.281831 35040 net.cpp:122] Setting up h_pseudoloss
…
I1018 12:24:30.282397 35040 net.cpp:200] lstm1_ does not need backward computation.
I1018 12:24:30.282403 35040 net.cpp:242] This network produces output c_T
I1018 12:24:30.282413 35040 net.cpp:242] This network produces output h_pseudoloss
I1018 12:24:30.289589 35040 net.cpp:255] Network initialization done.
I1018 12:24:30.289744 35040 recurrent_layer.cpp:150] Adding parameter 0: W_xc
I1018 12:24:30.289758 35040 recurrent_layer.cpp:150] Adding parameter 1: b_c
I1018 12:24:30.289767 35040 recurrent_layer.cpp:150] Adding parameter 2: W_hc
I1018 12:24:30.290073 35040 net.cpp:122] Setting up lstm1
I1018 12:24:30.290096 35040 net.cpp:129] Top shape: 8 50 512 (204800)
I1018 12:24:30.290105 35040 net.cpp:137] Memory required for data: 9572666200
I1018 12:24:30.290133 35040 layer_factory.hpp:77] Creating layer lstm1-drop
I1018 12:24:30.290156 35040 net.cpp:84] Creating Layer lstm1-drop
I1018 12:24:30.290168 35040 net.cpp:406] lstm1-drop <- lstm1
I1018 12:24:30.290180 35040 net.cpp:380] lstm1-drop -> lstm1-drop
I1018 12:24:30.290243 35040 net.cpp:122] Setting up lstm1-drop
I1018 12:24:30.290258 35040 net.cpp:129] Top shape: 8 50 512 (204800)
I1018 12:24:30.290266 35040 net.cpp:137] Memory required for data: 9573485400
I1018 12:24:30.290276 35040 layer_factory.hpp:77] Creating layer fc-final
I1018 12:24:30.290290 35040 net.cpp:84] Creating Layer fc-final
I1018 12:24:30.290299 35040 net.cpp:406] fc-final <- lstm1-drop
I1018 12:24:30.290313 35040 net.cpp:380] fc-final -> fc-final
I1018 12:24:30.290688 35040 net.cpp:122] Setting up fc-final
I1018 12:24:30.290745 35040 net.cpp:129] Top shape: 8 50 10 (4000)
I1018 12:24:30.290777 35040 net.cpp:137] Memory required for data: 9573501400
I1018 12:24:30.290815 35040 layer_factory.hpp:77] Creating layer fc-final_fc-final_0_split
I1018 12:24:30.290837 35040 net.cpp:84] Creating Layer fc-final_fc-final_0_split
I1018 12:24:30.290846 35040 net.cpp:406] fc-final_fc-final_0_split <- fc-final
I1018 12:24:30.290860 35040 net.cpp:380] fc-final_fc-final_0_split -> fc-final_fc-final_0_split_0
I1018 12:24:30.290875 35040 net.cpp:380] fc-final_fc-final_0_split -> fc-final_fc-final_0_split_1
I1018 12:24:30.290941 35040 net.cpp:122] Setting up fc-final_fc-final_0_split
I1018 12:24:30.290957 35040 net.cpp:129] Top shape: 8 50 10 (4000)
I1018 12:24:30.290967 35040 net.cpp:129] Top shape: 8 50 10 (4000)
I1018 12:24:30.290976 35040 net.cpp:137] Memory required for data: 9573533400
I1018 12:24:30.290984 35040 layer_factory.hpp:77] Creating layer loss
I1018 12:24:30.290997 35040 net.cpp:84] Creating Layer loss
I1018 12:24:30.291007 35040 net.cpp:406] loss <- fc-final_fc-final_0_split_0
I1018 12:24:30.291018 35040 net.cpp:406] loss <- reshape-label_label_tran_0_split_0
I1018 12:24:30.291031 35040 net.cpp:380] loss -> loss
…
