…
I1018 00:09:07.277951 30096 net.cpp:294] The NetState phase (0) differed from the phase (1) specified by a rule in layer Silence
I1018 00:09:07.278147 30096 net.cpp:51] Initializing net from parameters: 
name: "VGG-Places365"
state {
  phase: TRAIN
  level: 0
  stage: ""
}
layer {
  name: "data"
  type: "ImageData"
  top: "data"
  top: "label"
  include {
    phase: TRAIN
  }
  transform_param {
    mirror: true
    crop_size: 224
    mean_value: 104
    mean_value: 117
    mean_value: 123
  }
  image_data_param {
    source: "../Data/lsun_train_list_12w.txt"
    batch_size: 2
    shuffle: true
    new_height: 256
    new_width: 256
  }
}
layer {
  name: "label_tran"
  type: "Python"
  bottom: "label"
  top: "reshape-label"
  top: "clip_markers"
  python_param {
    module: "data_preparation_sort_max_clip"
    layer: "ReshapeLabel"
  }
}
layer {
  name: "conv1_1"
  type: "Convolution"
  bottom: "data"
  top: "conv1_1"
  convolution_param {
    num_output: 64
    pad: 1
    kernel_size: 3
  }
}
layer {
  name: "relu1_1"
  type: "ReLU"
  bottom: "conv1_1"
  top: "conv1_1"
}
layer {
  name: "conv1_2"
  type: "Convolution"
  bottom: "conv1_1"
  top: "conv1_2"
  convolution_param {
    num_output: 64
    pad: 1
    kernel_size: 3
  }
}
layer {
  name: "relu1_2"
  type: "ReLU"
  bottom: "conv1_2"
  top: "conv1_2"
}
layer {
  name: "pool1"
  type: "Pooling"
  bottom: "conv1_2"
  top: "pool1"
  pooling_param {
    pool: MAX
    kernel_size: 2
    stride: 2
  }
}
layer {
  name: "conv2_1"
  type: "Convolution"
  bottom: "pool1"
  top: "conv2_1"
  convolution_param {
    num_output: 128
    pad: 1
    kernel_size: 3
  }
}
layer {
  name: "relu2_1"
  type: "ReLU"
  bottom: "conv2_1"
  top: "conv2_1"
}
layer {
  name: "conv2_2"
  type: "Convolution"
  bottom: "conv2_1"
  top: "conv2_2"
  convolution_param {
    num_output: 128
    pad: 1
    kernel_size: 3
  }
}
layer {
  name: "relu2_2"
  type: "ReLU"
  bottom: "conv2_2"
  top: "conv2_2"
}
layer {
  name: "pool2"
  type: "Pooling"
  bottom: "conv2_2"
  top: "pool2"
  pooling_param {
    pool: MAX
    kernel_size: 2
    stride: 2
  }
}
layer {
  name: "conv3_1"
  type: "Convolution"
  bottom: "pool2"
  top: "conv3_1"
  convolution_param {
    num_output: 256
    pad: 1
    kernel_size: 3
  }
}
layer {
  name: "relu3_1"
  type: "ReLU"
  bottom: "conv3_1"
  top: "conv3_1"
}
layer {
  name: "conv3_2"
  type: "Convolution"
  bottom: "conv3_1"
  top: "conv3_2"
  convolution_param {
    num_output: 256
    pad: 1
    kernel_size: 3
  }
}
layer {
  name: "relu3_2"
  type: "ReLU"
  bottom: "conv3_2"
  top: "conv3_2"
}
layer {
  name: "conv3_3"
  type: "Convolution"
  bottom: "conv3_2"
  top: "conv3_3"
  convolution_param {
    num_output: 256
    pad: 1
    kernel_size: 3
  }
}
layer {
  name: "relu3_3"
  type: "ReLU"
  bottom: "conv3_3"
  top: "conv3_3"
}
layer {
  name: "pool3"
  type: "Pooling"
  bottom: "conv3_3"
  top: "pool3"
  pooling_param {
    pool: MAX
    kernel_size: 2
    stride: 2
  }
}
layer {
  name: "conv4_1"
  type: "Convolution"
  bottom: "pool3"
  top: "conv4_1"
  convolution_param {
    num_output: 512
    pad: 1
    kernel_size: 3
  }
}
layer {
  name: "relu4_1"
  type: "ReLU"
  bottom: "conv4_1"
  top: "conv4_1"
}
layer {
  name: "conv4_2"
  type: "Convolution"
  bottom: "conv4_1"
  top: "conv4_2"
  convolution_param {
    num_output: 512
    pad: 1
    kernel_size: 3
  }
}
layer {
  name: "relu4_2"
  type: "ReLU"
  bottom: "conv4_2"
  top: "conv4_2"
}
layer {
  name: "conv4_3"
  type: "Convolution"
  bottom: "conv4_2"
  top: "conv4_3"
  convolution_param {
    num_output: 512
    pad: 1
    kernel_size: 3
  }
}
layer {
  name: "relu4_3"
  type: "ReLU"
  bottom: "conv4_3"
  top: "conv4_3"
}
layer {
  name: "pool4"
  type: "Pooling"
  bottom: "conv4_3"
  top: "pool4"
  pooling_param {
    pool: MAX
    kernel_size: 2
    stride: 2
  }
}
layer {
  name: "conv5_1"
  type: "Convolution"
  bottom: "pool4"
  top: "conv5_1"
  convolution_param {
    num_output: 512
    pad: 1
    kernel_size: 3
  }
}
layer {
  name: "relu5_1"
  type: "ReLU"
  bottom: "conv5_1"
  top: "conv5_1"
}
layer {
  name: "conv5_2"
  type: "Convolution"
  bottom: "conv5_1"
  top: "conv5_2"
  convolution_param {
    num_output: 512
    pad: 1
    kernel_size: 3
  }
}
layer {
  name: "relu5_2"
  type: "ReLU"
  bottom: "conv5_2"
  top: "conv5_2"
}
layer {
  name: "conv5_3"
  type: "Convolution"
  bottom: "conv5_2"
  top: "conv5_3"
  convolution_param {
    num_output: 512
    pad: 1
    kernel_size: 3
  }
}
layer {
  name: "relu5_3"
  type: "ReLU"
  bottom: "conv5_3"
  top: "conv5_3"
}
layer {
  name: "conv5_3_re"
  type: "Reshape"
  bottom: "conv5_3"
  top: "conv5_3_re"
  reshape_param {
    shape {
      dim: 0
      dim: 0
      dim: -1
    }
  }
}
layer {
  name: "conv5_3_tran"
  type: "Python"
  bottom: "conv5_3_re"
  top: "conv5_3_tran"
  python_param {
    module: "data_preparation_sort_max_clip"
    layer: "DataTransposeSortMaxClip"
  }
}
layer {
  name: "lstm1"
  type: "LSTM"
  bottom: "conv5_3_tran"
  bottom: "clip_markers"
  top: "lstm1"
  recurrent_param {
    num_output: 512
    weight_filler {
      type: "uniform"
      min: -0.01
      max: 0.01
    }
    bias_filler {
      type: "constant"
      value: 0
    }
  }
}
layer {
  name: "lstm1-drop"
  type: "Dropout"
  bottom: "lstm1"
  top: "lstm1-drop"
  dropout_param {
    dropout_ratio: 0.5
  }
}
layer {
  name: "fc-final"
  type: "InnerProduct"
  bottom: "lstm1-drop"
  top: "fc-final"
  param {
    lr_mult: 1
    decay_mult: 1
  }
  param {
    lr_mult: 2
    decay_mult: 0
  }
  inner_product_param {
    num_output: 10
    weight_filler {
      type: "gaussian"
      std: 0.01
    }
    bias_filler {
      type: "constant"
      value: 0
    }
    axis: 2
  }
}
layer {
  name: "loss"
  type: "SoftmaxWithLoss"
  bottom: "fc-final"
  bottom: "reshape-label"
  top: "loss"
  softmax_param {
    axis: 2
  }
}
layer {
  name: "accuracy"
  type: "Accuracy"
  bottom: "fc-final"
  bottom: "reshape-label"
  top: "accuracy"
  accuracy_param {
    axis: 2
  }
}
I1018 00:09:07.278354 30096 layer_factory.hpp:77] Creating layer data
I1018 00:09:07.278409 30096 net.cpp:84] Creating Layer data
I1018 00:09:07.278425 30096 net.cpp:380] data -> data
I1018 00:09:07.278473 30096 net.cpp:380] data -> label
I1018 00:09:07.278509 30096 image_data_layer.cpp:38] Opening file ../Data/lsun_train_list_12w.txt
I1018 00:09:07.811852 30096 image_data_layer.cpp:53] Shuffling data
I1018 00:09:08.104735 30096 image_data_layer.cpp:63] A total of 1200000 images.
I1018 00:09:08.109371 30096 image_data_layer.cpp:90] output data size: 2,3,224,224
I1018 00:09:08.116665 30096 net.cpp:122] Setting up data
I1018 00:09:08.116700 30096 net.cpp:129] Top shape: 2 3 224 224 (301056)
I1018 00:09:08.116708 30096 net.cpp:129] Top shape: 2 (2)
I1018 00:09:08.116713 30096 net.cpp:137] Memory required for data: 1204232
I1018 00:09:08.116818 30096 layer_factory.hpp:77] Creating layer label_tran
I1018 00:09:08.715557 30096 net.cpp:84] Creating Layer label_tran
I1018 00:09:08.715607 30096 net.cpp:406] label_tran <- label
I1018 00:09:08.715632 30096 net.cpp:380] label_tran -> reshape-label
I1018 00:09:08.715656 30096 net.cpp:380] label_tran -> clip_markers
I1018 00:09:08.715806 30096 net.cpp:122] Setting up label_tran
I1018 00:09:08.715824 30096 net.cpp:129] Top shape: 128 2 (256)
I1018 00:09:08.715829 30096 net.cpp:129] Top shape: 128 2 (256)
I1018 00:09:08.715834 30096 net.cpp:137] Memory required for data: 1206280
I1018 00:09:08.715840 30096 layer_factory.hpp:77] Creating layer reshape-label_label_tran_0_split
I1018 00:09:08.715855 30096 net.cpp:84] Creating Layer reshape-label_label_tran_0_split
I1018 00:09:08.715862 30096 net.cpp:406] reshape-label_label_tran_0_split <- reshape-label
I1018 00:09:08.715868 30096 net.cpp:380] reshape-label_label_tran_0_split -> reshape-label_label_tran_0_split_0
I1018 00:09:08.715878 30096 net.cpp:380] reshape-label_label_tran_0_split -> reshape-label_label_tran_0_split_1
I1018 00:09:08.715915 30096 net.cpp:122] Setting up reshape-label_label_tran_0_split
I1018 00:09:08.715924 30096 net.cpp:129] Top shape: 128 2 (256)
I1018 00:09:08.715929 30096 net.cpp:129] Top shape: 128 2 (256)
I1018 00:09:08.715934 30096 net.cpp:137] Memory required for data: 1208328
I1018 00:09:08.715939 30096 layer_factory.hpp:77] Creating layer conv1_1
I1018 00:09:08.715958 30096 net.cpp:84] Creating Layer conv1_1
I1018 00:09:08.715963 30096 net.cpp:406] conv1_1 <- data
I1018 00:09:08.715970 30096 net.cpp:380] conv1_1 -> conv1_1
I1018 00:09:08.717855 30096 net.cpp:122] Setting up conv1_1
I1018 00:09:08.717885 30096 net.cpp:129] Top shape: 2 64 224 224 (6422528)
I1018 00:09:08.717890 30096 net.cpp:137] Memory required for data: 26898440
I1018 00:09:08.717927 30096 layer_factory.hpp:77] Creating layer relu1_1
I1018 00:09:08.717938 30096 net.cpp:84] Creating Layer relu1_1
I1018 00:09:08.717944 30096 net.cpp:406] relu1_1 <- conv1_1
I1018 00:09:08.717950 30096 net.cpp:367] relu1_1 -> conv1_1 (in-place)
I1018 00:09:08.717964 30096 net.cpp:122] Setting up relu1_1
I1018 00:09:08.717970 30096 net.cpp:129] Top shape: 2 64 224 224 (6422528)
I1018 00:09:08.717974 30096 net.cpp:137] Memory required for data: 52588552
I1018 00:09:08.717980 30096 layer_factory.hpp:77] Creating layer conv1_2
I1018 00:09:08.717990 30096 net.cpp:84] Creating Layer conv1_2
I1018 00:09:08.717994 30096 net.cpp:406] conv1_2 <- conv1_1
I1018 00:09:08.718001 30096 net.cpp:380] conv1_2 -> conv1_2
I1018 00:09:08.718287 30096 net.cpp:122] Setting up conv1_2
I1018 00:09:08.718299 30096 net.cpp:129] Top shape: 2 64 224 224 (6422528)
I1018 00:09:08.718303 30096 net.cpp:137] Memory required for data: 78278664
I1018 00:09:08.718313 30096 layer_factory.hpp:77] Creating layer relu1_2
I1018 00:09:08.718319 30096 net.cpp:84] Creating Layer relu1_2
I1018 00:09:08.718324 30096 net.cpp:406] relu1_2 <- conv1_2
I1018 00:09:08.718330 30096 net.cpp:367] relu1_2 -> conv1_2 (in-place)
I1018 00:09:08.718338 30096 net.cpp:122] Setting up relu1_2
I1018 00:09:08.718343 30096 net.cpp:129] Top shape: 2 64 224 224 (6422528)
I1018 00:09:08.718346 30096 net.cpp:137] Memory required for data: 103968776
I1018 00:09:08.718364 30096 layer_factory.hpp:77] Creating layer pool1
I1018 00:09:08.718374 30096 net.cpp:84] Creating Layer pool1
I1018 00:09:08.718379 30096 net.cpp:406] pool1 <- conv1_2
I1018 00:09:08.718384 30096 net.cpp:380] pool1 -> pool1
I1018 00:09:08.718433 30096 net.cpp:122] Setting up pool1
I1018 00:09:08.718441 30096 net.cpp:129] Top shape: 2 64 112 112 (1605632)
I1018 00:09:08.718446 30096 net.cpp:137] Memory required for data: 110391304
I1018 00:09:08.718449 30096 layer_factory.hpp:77] Creating layer conv2_1
I1018 00:09:08.718459 30096 net.cpp:84] Creating Layer conv2_1
I1018 00:09:08.718464 30096 net.cpp:406] conv2_1 <- pool1
I1018 00:09:08.718472 30096 net.cpp:380] conv2_1 -> conv2_1
I1018 00:09:08.720252 30096 net.cpp:122] Setting up conv2_1
I1018 00:09:08.720269 30096 net.cpp:129] Top shape: 2 128 112 112 (3211264)
I1018 00:09:08.720286 30096 net.cpp:137] Memory required for data: 123236360
I1018 00:09:08.720299 30096 layer_factory.hpp:77] Creating layer relu2_1
I1018 00:09:08.720309 30096 net.cpp:84] Creating Layer relu2_1
I1018 00:09:08.720314 30096 net.cpp:406] relu2_1 <- conv2_1
I1018 00:09:08.720324 30096 net.cpp:367] relu2_1 -> conv2_1 (in-place)
I1018 00:09:08.720332 30096 net.cpp:122] Setting up relu2_1
I1018 00:09:08.720337 30096 net.cpp:129] Top shape: 2 128 112 112 (3211264)
I1018 00:09:08.720342 30096 net.cpp:137] Memory required for data: 136081416
I1018 00:09:08.720346 30096 layer_factory.hpp:77] Creating layer conv2_2
I1018 00:09:08.720355 30096 net.cpp:84] Creating Layer conv2_2
I1018 00:09:08.720358 30096 net.cpp:406] conv2_2 <- conv2_1
I1018 00:09:08.720366 30096 net.cpp:380] conv2_2 -> conv2_2
I1018 00:09:08.720677 30096 net.cpp:122] Setting up conv2_2
I1018 00:09:08.720701 30096 net.cpp:129] Top shape: 2 128 112 112 (3211264)
I1018 00:09:08.720717 30096 net.cpp:137] Memory required for data: 148926472
I1018 00:09:08.720726 30096 layer_factory.hpp:77] Creating layer relu2_2
I1018 00:09:08.720732 30096 net.cpp:84] Creating Layer relu2_2
I1018 00:09:08.720737 30096 net.cpp:406] relu2_2 <- conv2_2
I1018 00:09:08.720743 30096 net.cpp:367] relu2_2 -> conv2_2 (in-place)
I1018 00:09:08.720751 30096 net.cpp:122] Setting up relu2_2
I1018 00:09:08.720755 30096 net.cpp:129] Top shape: 2 128 112 112 (3211264)
I1018 00:09:08.720759 30096 net.cpp:137] Memory required for data: 161771528
I1018 00:09:08.720763 30096 layer_factory.hpp:77] Creating layer pool2
I1018 00:09:08.720769 30096 net.cpp:84] Creating Layer pool2
I1018 00:09:08.720773 30096 net.cpp:406] pool2 <- conv2_2
I1018 00:09:08.720779 30096 net.cpp:380] pool2 -> pool2
I1018 00:09:08.720813 30096 net.cpp:122] Setting up pool2
I1018 00:09:08.720819 30096 net.cpp:129] Top shape: 2 128 56 56 (802816)
I1018 00:09:08.720824 30096 net.cpp:137] Memory required for data: 164982792
I1018 00:09:08.720827 30096 layer_factory.hpp:77] Creating layer conv3_1
I1018 00:09:08.720834 30096 net.cpp:84] Creating Layer conv3_1
I1018 00:09:08.720839 30096 net.cpp:406] conv3_1 <- pool2
I1018 00:09:08.720845 30096 net.cpp:380] conv3_1 -> conv3_1
I1018 00:09:08.722054 30096 net.cpp:122] Setting up conv3_1
I1018 00:09:08.722070 30096 net.cpp:129] Top shape: 2 256 56 56 (1605632)
I1018 00:09:08.722087 30096 net.cpp:137] Memory required for data: 171405320
I1018 00:09:08.722098 30096 layer_factory.hpp:77] Creating layer relu3_1
I1018 00:09:08.722108 30096 net.cpp:84] Creating Layer relu3_1
I1018 00:09:08.722113 30096 net.cpp:406] relu3_1 <- conv3_1
I1018 00:09:08.722120 30096 net.cpp:367] relu3_1 -> conv3_1 (in-place)
I1018 00:09:08.722128 30096 net.cpp:122] Setting up relu3_1
I1018 00:09:08.722133 30096 net.cpp:129] Top shape: 2 256 56 56 (1605632)
I1018 00:09:08.722137 30096 net.cpp:137] Memory required for data: 177827848
I1018 00:09:08.722141 30096 layer_factory.hpp:77] Creating layer conv3_2
I1018 00:09:08.722151 30096 net.cpp:84] Creating Layer conv3_2
I1018 00:09:08.722154 30096 net.cpp:406] conv3_2 <- conv3_1
I1018 00:09:08.722160 30096 net.cpp:380] conv3_2 -> conv3_2
I1018 00:09:08.724177 30096 net.cpp:122] Setting up conv3_2
I1018 00:09:08.724196 30096 net.cpp:129] Top shape: 2 256 56 56 (1605632)
I1018 00:09:08.724213 30096 net.cpp:137] Memory required for data: 184250376
I1018 00:09:08.724221 30096 layer_factory.hpp:77] Creating layer relu3_2
I1018 00:09:08.724239 30096 net.cpp:84] Creating Layer relu3_2
I1018 00:09:08.724246 30096 net.cpp:406] relu3_2 <- conv3_2
I1018 00:09:08.724252 30096 net.cpp:367] relu3_2 -> conv3_2 (in-place)
I1018 00:09:08.724262 30096 net.cpp:122] Setting up relu3_2
I1018 00:09:08.724267 30096 net.cpp:129] Top shape: 2 256 56 56 (1605632)
I1018 00:09:08.724272 30096 net.cpp:137] Memory required for data: 190672904
I1018 00:09:08.724275 30096 layer_factory.hpp:77] Creating layer conv3_3
I1018 00:09:08.724285 30096 net.cpp:84] Creating Layer conv3_3
I1018 00:09:08.724289 30096 net.cpp:406] conv3_3 <- conv3_2
I1018 00:09:08.724297 30096 net.cpp:380] conv3_3 -> conv3_3
I1018 00:09:08.726092 30096 net.cpp:122] Setting up conv3_3
I1018 00:09:08.726107 30096 net.cpp:129] Top shape: 2 256 56 56 (1605632)
I1018 00:09:08.726125 30096 net.cpp:137] Memory required for data: 197095432
I1018 00:09:08.726131 30096 layer_factory.hpp:77] Creating layer relu3_3
I1018 00:09:08.726140 30096 net.cpp:84] Creating Layer relu3_3
I1018 00:09:08.726145 30096 net.cpp:406] relu3_3 <- conv3_3
I1018 00:09:08.726151 30096 net.cpp:367] relu3_3 -> conv3_3 (in-place)
I1018 00:09:08.726164 30096 net.cpp:122] Setting up relu3_3
I1018 00:09:08.726171 30096 net.cpp:129] Top shape: 2 256 56 56 (1605632)
I1018 00:09:08.726174 30096 net.cpp:137] Memory required for data: 203517960
I1018 00:09:08.726178 30096 layer_factory.hpp:77] Creating layer pool3
I1018 00:09:08.726186 30096 net.cpp:84] Creating Layer pool3
I1018 00:09:08.726191 30096 net.cpp:406] pool3 <- conv3_3
I1018 00:09:08.726197 30096 net.cpp:380] pool3 -> pool3
I1018 00:09:08.726236 30096 net.cpp:122] Setting up pool3
I1018 00:09:08.726243 30096 net.cpp:129] Top shape: 2 256 28 28 (401408)
I1018 00:09:08.726248 30096 net.cpp:137] Memory required for data: 205123592
I1018 00:09:08.726253 30096 layer_factory.hpp:77] Creating layer conv4_1
I1018 00:09:08.726261 30096 net.cpp:84] Creating Layer conv4_1
I1018 00:09:08.726266 30096 net.cpp:406] conv4_1 <- pool3
I1018 00:09:08.726274 30096 net.cpp:380] conv4_1 -> conv4_1
I1018 00:09:08.730298 30096 net.cpp:122] Setting up conv4_1
I1018 00:09:08.730315 30096 net.cpp:129] Top shape: 2 512 28 28 (802816)
I1018 00:09:08.730320 30096 net.cpp:137] Memory required for data: 208334856
I1018 00:09:08.730340 30096 layer_factory.hpp:77] Creating layer relu4_1
I1018 00:09:08.730347 30096 net.cpp:84] Creating Layer relu4_1
I1018 00:09:08.730352 30096 net.cpp:406] relu4_1 <- conv4_1
I1018 00:09:08.730360 30096 net.cpp:367] relu4_1 -> conv4_1 (in-place)
I1018 00:09:08.730366 30096 net.cpp:122] Setting up relu4_1
I1018 00:09:08.730372 30096 net.cpp:129] Top shape: 2 512 28 28 (802816)
I1018 00:09:08.730376 30096 net.cpp:137] Memory required for data: 211546120
I1018 00:09:08.730381 30096 layer_factory.hpp:77] Creating layer conv4_2
I1018 00:09:08.730391 30096 net.cpp:84] Creating Layer conv4_2
I1018 00:09:08.730394 30096 net.cpp:406] conv4_2 <- conv4_1
I1018 00:09:08.730402 30096 net.cpp:380] conv4_2 -> conv4_2
I1018 00:09:08.736214 30096 net.cpp:122] Setting up conv4_2
I1018 00:09:08.736233 30096 net.cpp:129] Top shape: 2 512 28 28 (802816)
I1018 00:09:08.736238 30096 net.cpp:137] Memory required for data: 214757384
I1018 00:09:08.736258 30096 layer_factory.hpp:77] Creating layer relu4_2
I1018 00:09:08.736271 30096 net.cpp:84] Creating Layer relu4_2
I1018 00:09:08.736276 30096 net.cpp:406] relu4_2 <- conv4_2
I1018 00:09:08.736282 30096 net.cpp:367] relu4_2 -> conv4_2 (in-place)
I1018 00:09:08.736291 30096 net.cpp:122] Setting up relu4_2
I1018 00:09:08.736296 30096 net.cpp:129] Top shape: 2 512 28 28 (802816)
I1018 00:09:08.736300 30096 net.cpp:137] Memory required for data: 217968648
I1018 00:09:08.736305 30096 layer_factory.hpp:77] Creating layer conv4_3
I1018 00:09:08.736315 30096 net.cpp:84] Creating Layer conv4_3
I1018 00:09:08.736320 30096 net.cpp:406] conv4_3 <- conv4_2
I1018 00:09:08.736327 30096 net.cpp:380] conv4_3 -> conv4_3
I1018 00:09:08.742388 30096 net.cpp:122] Setting up conv4_3
I1018 00:09:08.742419 30096 net.cpp:129] Top shape: 2 512 28 28 (802816)
I1018 00:09:08.742424 30096 net.cpp:137] Memory required for data: 221179912
I1018 00:09:08.742431 30096 layer_factory.hpp:77] Creating layer relu4_3
I1018 00:09:08.742439 30096 net.cpp:84] Creating Layer relu4_3
I1018 00:09:08.742444 30096 net.cpp:406] relu4_3 <- conv4_3
I1018 00:09:08.742460 30096 net.cpp:367] relu4_3 -> conv4_3 (in-place)
I1018 00:09:08.742468 30096 net.cpp:122] Setting up relu4_3
I1018 00:09:08.742475 30096 net.cpp:129] Top shape: 2 512 28 28 (802816)
I1018 00:09:08.742478 30096 net.cpp:137] Memory required for data: 224391176
I1018 00:09:08.742482 30096 layer_factory.hpp:77] Creating layer pool4
I1018 00:09:08.742488 30096 net.cpp:84] Creating Layer pool4
I1018 00:09:08.742493 30096 net.cpp:406] pool4 <- conv4_3
I1018 00:09:08.742499 30096 net.cpp:380] pool4 -> pool4
I1018 00:09:08.742545 30096 net.cpp:122] Setting up pool4
I1018 00:09:08.742553 30096 net.cpp:129] Top shape: 2 512 14 14 (200704)
I1018 00:09:08.742558 30096 net.cpp:137] Memory required for data: 225193992
I1018 00:09:08.742561 30096 layer_factory.hpp:77] Creating layer conv5_1
I1018 00:09:08.742573 30096 net.cpp:84] Creating Layer conv5_1
I1018 00:09:08.742578 30096 net.cpp:406] conv5_1 <- pool4
I1018 00:09:08.742583 30096 net.cpp:380] conv5_1 -> conv5_1
I1018 00:09:08.749053 30096 net.cpp:122] Setting up conv5_1
I1018 00:09:08.749080 30096 net.cpp:129] Top shape: 2 512 14 14 (200704)
I1018 00:09:08.749085 30096 net.cpp:137] Memory required for data: 225996808
I1018 00:09:08.749094 30096 layer_factory.hpp:77] Creating layer relu5_1
I1018 00:09:08.749104 30096 net.cpp:84] Creating Layer relu5_1
I1018 00:09:08.749109 30096 net.cpp:406] relu5_1 <- conv5_1
I1018 00:09:08.749119 30096 net.cpp:367] relu5_1 -> conv5_1 (in-place)
I1018 00:09:08.749130 30096 net.cpp:122] Setting up relu5_1
I1018 00:09:08.749136 30096 net.cpp:129] Top shape: 2 512 14 14 (200704)
I1018 00:09:08.749140 30096 net.cpp:137] Memory required for data: 226799624
I1018 00:09:08.749146 30096 layer_factory.hpp:77] Creating layer conv5_2
I1018 00:09:08.749155 30096 net.cpp:84] Creating Layer conv5_2
I1018 00:09:08.749161 30096 net.cpp:406] conv5_2 <- conv5_1
I1018 00:09:08.749168 30096 net.cpp:380] conv5_2 -> conv5_2
I1018 00:09:08.755177 30096 net.cpp:122] Setting up conv5_2
I1018 00:09:08.755197 30096 net.cpp:129] Top shape: 2 512 14 14 (200704)
I1018 00:09:08.755201 30096 net.cpp:137] Memory required for data: 227602440
I1018 00:09:08.755209 30096 layer_factory.hpp:77] Creating layer relu5_2
I1018 00:09:08.755220 30096 net.cpp:84] Creating Layer relu5_2
I1018 00:09:08.755225 30096 net.cpp:406] relu5_2 <- conv5_2
I1018 00:09:08.755234 30096 net.cpp:367] relu5_2 -> conv5_2 (in-place)
I1018 00:09:08.755242 30096 net.cpp:122] Setting up relu5_2
I1018 00:09:08.755249 30096 net.cpp:129] Top shape: 2 512 14 14 (200704)
I1018 00:09:08.755252 30096 net.cpp:137] Memory required for data: 228405256
I1018 00:09:08.755257 30096 layer_factory.hpp:77] Creating layer conv5_3
I1018 00:09:08.755265 30096 net.cpp:84] Creating Layer conv5_3
I1018 00:09:08.755271 30096 net.cpp:406] conv5_3 <- conv5_2
I1018 00:09:08.755277 30096 net.cpp:380] conv5_3 -> conv5_3
I1018 00:09:08.761260 30096 net.cpp:122] Setting up conv5_3
I1018 00:09:08.761279 30096 net.cpp:129] Top shape: 2 512 14 14 (200704)
I1018 00:09:08.761284 30096 net.cpp:137] Memory required for data: 229208072
I1018 00:09:08.761292 30096 layer_factory.hpp:77] Creating layer relu5_3
I1018 00:09:08.761308 30096 net.cpp:84] Creating Layer relu5_3
I1018 00:09:08.761314 30096 net.cpp:406] relu5_3 <- conv5_3
I1018 00:09:08.761320 30096 net.cpp:367] relu5_3 -> conv5_3 (in-place)
I1018 00:09:08.761329 30096 net.cpp:122] Setting up relu5_3
I1018 00:09:08.761335 30096 net.cpp:129] Top shape: 2 512 14 14 (200704)
I1018 00:09:08.761339 30096 net.cpp:137] Memory required for data: 230010888
I1018 00:09:08.761345 30096 layer_factory.hpp:77] Creating layer conv5_3_re
I1018 00:09:08.761361 30096 net.cpp:84] Creating Layer conv5_3_re
I1018 00:09:08.761365 30096 net.cpp:406] conv5_3_re <- conv5_3
I1018 00:09:08.761371 30096 net.cpp:380] conv5_3_re -> conv5_3_re
I1018 00:09:08.761418 30096 net.cpp:122] Setting up conv5_3_re
I1018 00:09:08.761428 30096 net.cpp:129] Top shape: 2 512 196 (200704)
I1018 00:09:08.761432 30096 net.cpp:137] Memory required for data: 230813704
I1018 00:09:08.761436 30096 layer_factory.hpp:77] Creating layer conv5_3_tran
I1018 00:09:08.761500 30096 net.cpp:84] Creating Layer conv5_3_tran
I1018 00:09:08.761509 30096 net.cpp:406] conv5_3_tran <- conv5_3_re
I1018 00:09:08.761520 30096 net.cpp:380] conv5_3_tran -> conv5_3_tran
I1018 00:09:08.762578 30096 net.cpp:122] Setting up conv5_3_tran
I1018 00:09:08.762594 30096 net.cpp:129] Top shape: 128 2 512 (131072)
I1018 00:09:08.762599 30096 net.cpp:137] Memory required for data: 231337992
I1018 00:09:08.762604 30096 layer_factory.hpp:77] Creating layer lstm1
I1018 00:09:08.762620 30096 net.cpp:84] Creating Layer lstm1
I1018 00:09:08.762626 30096 net.cpp:406] lstm1 <- conv5_3_tran
I1018 00:09:08.762634 30096 net.cpp:406] lstm1 <- clip_markers
I1018 00:09:08.762640 30096 net.cpp:380] lstm1 -> lstm1
I1018 00:09:08.762658 30096 recurrent_layer.cpp:20] Initializing recurrent layer: assuming input batch contains 128 timesteps of 2 independent streams.
I1018 00:09:08.766933 30096 net.cpp:51] Initializing net from parameters: 
layer {
  name: "lstm1_"
  type: "Input"
  top: "x"
  top: "cont"
  input_param {
    shape {
      dim: 128
      dim: 2
      dim: 512
    }
    shape {
      dim: 128
      dim: 2
    }
  }
}
layer {
  name: "lstm1_"
  type: "Input"
  top: "c_0"
  top: "h_0"
  input_param {
    shape {
      dim: 1
      dim: 2
      dim: 512
    }
    shape {
      dim: 1
      dim: 2
      dim: 512
    }
  }
}
layer {
  name: "lstm1_cont_slice"
  type: "Slice"
  bottom: "cont"
  top: "cont_1"
  top: "cont_2"
  top: "cont_3"
  top: "cont_4"
  top: "cont_5"
  top: "cont_6"
  top: "cont_7"
  top: "cont_8"
  top: "cont_9"
  top: "cont_10"
  top: "cont_11"
  top: "cont_12"
  top: "cont_13"
  top: "cont_14"
  top: "cont_15"
  top: "cont_16"
  top: "cont_17"
  top: "cont_18"
  top: "cont_19"
  top: "cont_20"
  top: "cont_21"
  top: "cont_22"
  top: "cont_23"
  top: "cont_24"
…
  top: "W_xc_x_103"
  top: "W_xc_x_104"
  top: "W_xc_x_105"
  top: "W_xc_x_106"
  top: "W_xc_x_107"
  top: "W_xc_x_108"
  top: "W_xc_x_109"
  top: "W_xc_x_110"
  top: "W_xc_x_111"
  top: "W_xc_x_112"
  top: "W_xc_x_113"
  top: "W_xc_x_114"
  top: "W_xc_x_115"
  top: "W_xc_x_116"
  top: "W_xc_x_117"
  top: "W_xc_x_118"
  top: "W_xc_x_119"
  top: "W_xc_x_120"
  top: "W_xc_x_121"
  top: "W_xc_x_122"
  top: "W_xc_x_123"
  top: "W_xc_x_124"
  top: "W_xc_x_125"
  top: "W_xc_x_126"
  top: "W_xc_x_127"
  top: "W_xc_x_128"
  slice_param {
    axis: 0
  }
}
layer {
  name: "lstm1_h_conted_0"
  type: "Scale"
  bottom: "h_0"
  bottom: "cont_1"
  top: "h_conted_0"
  scale_param {
    axis: 0
  }
}
layer {
  name: "lstm1_transform_1"
  type: "InnerProduct"
  bottom: "h_conted_0"
  top: "W_hc_h_0"
  param {
    name: "W_hc"
  }
  inner_product_param {
    num_output: 2048
    bias_term: false
    weight_filler {
      type: "uniform"
      min: -0.01
      max: 0.01
    }
    axis: 2
  }
}
layer {
  name: "lstm1_gate_input_1"
  type: "Eltwise"
  bottom: "W_hc_h_0"
  bottom: "W_xc_x_1"
  top: "gate_input_1"
  eltwise_param {
    operation: SUM
  }
}
layer {
  name: "lstm1_unit_1"
  type: "LSTMUnit"
  bottom: "c_0"
  bottom: "gate_input_1"
  bottom: "cont_1"
  top: "c_1"
  top: "h_1"
}
layer {
  name: "lstm1_h_conted_1"
  type: "Scale"
  bottom: "h_1"
  bottom: "cont_2"
  top: "h_conted_1"
  scale_param {
    axis: 0
  }
}
layer {
  name: "lstm1_transform_2"
  type: "InnerProduct"
  bottom: "h_conted_1"
  top: "W_hc_h_1"
  param {
    name: "W_hc"
  }
  inner_product_param {
    num_output: 2048
    bias_term: false
    weight_filler {
      type: "uniform"
      min: -0.01
      max: 0.01
    }
    axis: 2
  }
}
layer {
  name: "lstm1_gate_input_2"
  type: "Eltwise"
  bottom: "W_hc_h_1"
  bottom: "W_xc_x_2"
  top: "gate_input_2"
  eltwise_param {
    operation: SUM
  }
}
layer {
  name: "lstm1_unit_2"
  type: "LSTMUnit"
  bottom: "c_1"
  bottom: "gate_input_2"
  bottom: "cont_2"
  top: "c_2"
  top: "h_2"
}
layer {
  name: "lstm1_h_conted_2"
  type: "Scale"
  bottom: "h_2"
  bottom: "cont_3"
  top: "h_conted_2"
  scale_param {
    axis: 0
  }
}
layer {
  name: "lstm1_transform_3"
  type: "InnerProduct"
  bottom: "h_conted_2"
  top: "W_hc_h_2"
  param {
    name: "W_hc"
  }
  inner_product_param {
    num_output: 2048
    bias_term: false
    weight_filler {
      type: "uniform"
      min: -0.01
      max: 0.01
    }
    axis: 2
  }
}
layer {
  name: "lstm1_gate_input_3"
  type: "Eltwise"
  bottom: "W_hc_h_2"
  bottom: "W_xc_x_3"
  top: "gate_input_3"
  eltwise_param {
    operation: SUM
  }
}
layer {
  name: "lstm1_unit_3"
  type: "LSTMUnit"
  bottom: "c_2"
  bottom: "gate_input_3"
  bottom: "cont_3"
  top: "c_3"
  top: "h_3"
}
layer {
  name: "lstm1_h_conted_3"
  type: "Scale"
  bottom: "h_3"
  bottom: "cont_4"
  top: "h_conted_3"
  scale_param {
    axis: 0
  }
}
layer {
  name: "lstm1_transform_4"
  type: "InnerProduct"
  bottom: "h_conted_3"
  top: "W_hc_h_3"
  param {
    name: "W_hc"
  }
  inner_product_param {
    num_output: 2048
    bias_term: false
    weight_filler {
      type: "uniform"
      min: -0.01
      max: 0.01
    }
    axis: 2
  }
}
layer {
  name: "lstm1_gate_input_4"
  type: "Eltwise"
  bottom: "W_hc_h_3"
  bottom: "W_xc_x_4"
  top: "gate_input_4"
  eltwise_param {
    operation: SUM
  }
}
layer {
  name: "lstm1_unit_4"
  type: "LSTMUnit"
  bottom: "c_3"
  bottom: "gate_input_4"
  bottom: "cont_4"
  top: "c_4"
  top: "h_4"
}
layer {
  name: "lstm1_h_conted_4"
  type: "Scale"
  bottom: "h_4"
  bottom: "cont_5"
  top: "h_conted_4"
  scale_param {
    axis: 0
  }
}
layer {
  name: "lstm1_transform_5"
  type: "InnerProduct"
  bottom: "h_conted_4"
  top: "W_hc_h_4"
  param {
    name: "W_hc"
  }
  inner_product_param {
    num_output: 2048
    bias_term: false
    weight_filler {
      type: "uniform"
      min: -0.01
      max: 0.01
    }
    axis: 2
  }
}
layer {
  name: "lstm1_gate_input_5"
  type: "Eltwise"
  bottom: "W_hc_h_4"
  bottom: "W_xc_x_5"
  top: "gate_input_5"
  eltwise_param {
    operation: SUM
  }
}
layer {
  name: "lstm1_unit_5"
  type: "LSTMUnit"
  bottom: "c_4"
  bottom: "gate_input_5"
  bottom: "cont_5"
  top: "c_5"
  top: "h_5"
}
layer {
  name: "lstm1_h_conted_5"
  type: "Scale"
  bottom: "h_5"
  bottom: "cont_6"
  top: "h_conted_5"
  scale_param {
    axis: 0
  }
}
layer {
  name: "lstm1_transform_6"
  type: "InnerProduct"
  bottom: "h_conted_5"
  top: "W_hc_h_5"
  param {
    name: "W_hc"
  }
  inner_product_param {
    num_output: 2048
    bias_term: false
    weight_filler {
      type: "uniform"
      min: -0.01
      max: 0.01
    }
    axis: 2
  }
}
layer {
  name: "lstm1_gate_input_6"
  type: "Eltwise"
  bottom: "W_hc_h_5"
  bottom: "W_xc_x_6"
  top: "gate_input_6"
  eltwise_param {
    operation: SUM
  }
}
layer {
  name: "lstm1_unit_6"
  type: "LSTMUnit"
  bottom: "c_5"
  bottom: "gate_input_6"
  bottom: "cont_6"
  top: "c_6"
  top: "h_6"
}
layer {
  name: "lstm1_h_conted_6"
  type: "Scale"
  bottom: "h_6"
  bottom: "cont_7"
  top: "h_conted_6"
  scale_param {
    axis: 0
  }
}
layer {
  name: "lstm1_transform_7"
  type: "InnerProduct"
  bottom: "h_conted_6"
  top: "W_hc_h_6"
  param {
    name: "W_hc"
  }
  inner_product_param {
    num_output: 2048
    bias_term: false
    weight_filler {
      type: "uniform"
      min: -0.01
      max: 0.01
    }
    axis: 2
  }
}
layer {
  name: "lstm1_gate_input_7"
  type: "Eltwise"
  bottom: "W_hc_h_6"
  bottom: "W_xc_x_7"
  top: "gate_input_7"
  eltwise_param {
    operation: SUM
  }
}
layer {
  name: "lstm1_unit_7"
  type: "LSTMUnit"
  bottom: "c_6"
  bottom: "gate_input_7"
  bottom: "cont_7"
  top: "c_7"
  top: "h_7"
}
layer {
  name: "lstm1_h_conted_7"
  type: "Scale"
  bottom: "h_7"
  bottom: "cont_8"
  top: "h_conted_7"
  scale_param {
    axis: 0
  }
}
layer {
  name: "lstm1_transform_8"
  type: "InnerProduct"
  bottom: "h_conted_7"
  top: "W_hc_h_7"
  param {
    name: "W_hc"
  }
  inner_product_param {
    num_output: 2048
    bias_term: false
    weight_filler {
      type: "uniform"
      min: -0.01
      max: 0.01
    }
    axis: 2
  }
}
layer {
  name: "lstm1_gate_input_8"
  type: "Eltwise"
  bottom: "W_hc_h_7"
  bottom: "W_xc_x_8"
  top: "gate_input_8"
  eltwise_param {
    operation: SUM
  }
}
layer {
  name: "lstm1_unit_8"
  type: "LSTMUnit"
  bottom: "c_7"
  bottom: "gate_input_8"
  bottom: "cont_8"
  top: "c_8"
  top: "h_8"
}
layer {
  name: "lstm1_h_conted_8"
  type: "Scale"
  bottom: "h_8"
  bottom: "cont_9"
  top: "h_conted_8"
  scale_param {
    axis: 0
  }
}
layer {
  name: "lstm1_transform_9"
  type: "InnerProduct"
  bottom: "h_conted_8"
  top: "W_hc_h_8"
  param {
    name: "W_hc"
  }
  inner_product_param {
    num_output: 2048
    bias_term: false
    weight_filler {
      type: "uniform"
      min: -0.01
      max: 0.01
    }
    axis: 2
  }
}
layer {
  name: "lstm1_gate_input_9"
  type: "Eltwise"
  bottom: "W_hc_h_8"
  bottom: "W_xc_x_9"
  top: "gate_input_9"
  eltwise_param {
    operation: SUM
  }
}
layer {
  name: "lstm1_unit_9"
  type: "LSTMUnit"
  bottom: "c_8"
  bottom: "gate_input_9"
  bottom: "cont_9"
  top: "c_9"
  top: "h_9"
}
layer {
  name: "lstm1_h_conted_9"
  type: "Scale"
  bottom: "h_9"
  bottom: "cont_10"
  top: "h_conted_9"
  scale_param {
    axis: 0
  }
}
layer {
  name: "lstm1_transform_10"
  type: "InnerProduct"
  bottom: "h_conted_9"
  top: "W_hc_h_9"
  param {
    name: "W_hc"
  }
  inner_product_param {
    num_output: 2048
    bias_term: false
    weight_filler {
      type: "uniform"
      min: -0.01
      max: 0.01
    }
    axis: 2
  }
}
layer {
  name: "lstm1_gate_input_10"
  type: "Eltwise"
  bottom: "W_hc_h_9"
  bottom: "W_xc_x_10"
  top: "gate_input_10"
  eltwise_param {
    operation: SUM
  }
}
layer {
  name: "lstm1_unit_10"
  type: "LSTMUnit"
  bottom: "c_9"
  bottom: "gate_input_10"
  bottom: "cont_10"
  top: "c_10"
  top: "h_10"
}
layer {
  name: "lstm1_h_conted_10"
  type: "Scale"
  bottom: "h_10"
  bottom: "cont_11"
  top: "h_conted_10"
  scale_param {
    axis: 0
  }
}
layer {
  name: "lstm1_transform_11"
  type: "InnerProduct"
  bottom: "h_conted_10"
  top: "W_hc_h_10"
  param {
    name: "W_hc"
  }
  inner_product_param {
    num_output: 2048
    bias_term: false
    weight_filler {
      type: "uniform"
      min: -0.01
      max: 0.01
    }
    axis: 2
  }
}
layer {
  name: "lstm1_gate_input_11"
  type: "Eltwise"
  bottom: "W_hc_h_10"
  bottom: "W_xc_x_11"
  top: "gate_input_11"
  eltwise_param {
    operation: SUM
  }
}
layer {
  name: "lstm1_unit_11"
  type: "LSTMUnit"
  bottom: "c_10"
  bottom: "gate_input_11"
  bottom: "cont_11"
  top: "c_11"
  top: "h_11"
}
layer {
  name: "lstm1_h_conted_11"
  type: "Scale"
  bottom: "h_11"
  bottom: "cont_12"
  top: "h_conted_11"
  scale_param {
    axis: 0
  }
}
layer {
  name: "lstm1_transform_12"
  type: "InnerProduct"
  bottom: "h_conted_11"
  top: "W_hc_h_11"
  param {
    name: "W_hc"
  }
  inner_product_param {
    num_output: 2048
    bias_term: false
    weight_filler {
      type: "uniform"
      min: -0.01
      max: 0.01
    }
    axis: 2
  }
}
layer {
  name: "lstm1_gate_input_12"
  type: "Eltwise"
  bottom: "W_hc_h_11"
  bottom: "W_xc_x_12"
  top: "gate_input_12"
  eltwise_param {
    operation: SUM
  }
}
layer {
  name: "lstm1_unit_12"
  type: "LSTMUnit"
  bottom: "c_11"
  bottom: "gate_input_12"
  bottom: "cont_12"
  top: "c_12"
  top: "h_12"
}
layer {
  name: "lstm1_h_conted_12"
  type: "Scale"
  bottom: "h_12"
  bottom: "cont_13"
  top: "h_conted_12"
  scale_param {
    axis: 0
  }
}
layer {
  name: "lstm1_transform_13"
  type: "InnerProduct"
  bottom: "h_conted_12"
  top: "W_hc_h_12"
  param {
    name: "W_hc"
  }
  inner_product_param {
    num_output: 2048
    bias_term: false
    weight_filler {
      type: "uniform"
      min: -0.01
      max: 0.01
    }
    axis: 2
  }
}
layer {
  name: "lstm1_gate_input_13"
  type: "Eltwise"
  bottom: "W_hc_h_12"
  bottom: "W_xc_x_13"
  top: "gate_input_13"
  eltwise_param {
    operation: SUM
  }
}
layer {
  name: "lstm1_unit_13"
  type: "LSTMUnit"
  bottom: "c_12"
  bottom: "gate_input_13"
  bottom: "cont_13"
  top: "c_13"
  top: "h_13"
}
layer {
  name: "lstm1_h_conted_13"
  type: "Scale"
  bottom: "h_13"
  bottom: "cont_14"
  top: "h_conted_13"
  scale_param {
    axis: 0
  }
}
layer {
  name: "lstm1_transform_14"
  type: "InnerProduct"
  bottom: "h_conted_13"
  top: "W_hc_h_13"
  param {
    name: "W_hc"
  }
  inner_product_param {
    num_output: 2048
    bias_term: false
    weight_filler {
      type: "uniform"
      min: -0.01
      max: 0.01
    }
    axis: 2
  }
}
layer {
  name: "lstm1_gate_input_14"
  type: "Eltwise"
  bottom: "W_hc_h_13"
  bottom: "W_xc_x_14"
  top: "gate_input_14"
  eltwise_param {
    operation: SUM
  }
}
layer {
  name: "lstm1_unit_14"
  type: "LSTMUnit"
  bottom: "c_13"
  bottom: "gate_input_14"
  bottom: "cont_14"
  top: "c_14"
  top: "h_14"
}
layer {
  name: "lstm1_h_conted_14"
  type: "Scale"
  bottom: "h_14"
  bottom: "cont_15"
  top: "h_conted_14"
  scale_param {
    axis: 0
  }
}
layer {
  name: "lstm1_transform_15"
  type: "InnerProduct"
  bottom: "h_conted_14"
  top: "W_hc_h_14"
  param {
    name: "W_hc"
  }
  inner_product_param {
    num_output: 2048
    bias_term: false
    weight_filler {
      type: "uniform"
      min: -0.01
      max: 0.01
    }
    axis: 2
  }
}
layer {
  name: "lstm1_gate_input_15"
  type: "Eltwise"
  bottom: "W_hc_h_14"
  bottom: "W_xc_x_15"
  top: "gate_input_15"
  eltwise_param {
    operation: SUM
  }
}
layer {
  name: "lstm1_unit_15"
  type: "LSTMUnit"
  bottom: "c_14"
  bottom: "gate_input_15"
  bottom: "cont_15"
  top: "c_15"
  top: "h_15"
}
layer {
  name: "lstm1_h_conted_15"
  type: "Scale"
  bottom: "h_15"
  bottom: "cont_16"
  top: "h_conted_15"
  scale_param {
    axis: 0
  }
}
layer {
  name: "lstm1_transform_16"
  type: "InnerProduct"
  bottom: "h_conted_15"
  top: "W_hc_h_15"
  param {
    name: "W_hc"
  }
  inner_product_param {
    num_output: 2048
    bias_term: false
    weight_filler {
      type: "uniform"
      min: -0.01
      max: 0.01
    }
    axis: 2
  }
}
layer {
  name: "lstm1_gate_input_16"
  type: "Eltwise"
  bottom: "W_hc_h_15"
  bottom: "W_xc_x_16"
  top: "gate_input_16"
  eltwise_param {
    operation: SUM
  }
}
layer {
  name: "lstm1_unit_16"
  type: "LSTMUnit"
  bottom: "c_15"
  bottom: "gate_input_16"
  bottom: "cont_16"
  top: "c_16"
  top: "h_16"
}
layer {
  name: "lstm1_h_conted_16"
  type: "Scale"
  bottom: "h_16"
  bottom: "cont_17"
  top: "h_conted_16"
  scale_param {
    axis: 0
  }
}
layer {
  name: "lstm1_transform_17"
  type: "InnerProduct"
  bottom: "h_conted_16"
  top: "W_hc_h_16"
  param {
    name: "W_hc"
  }
  inner_product_param {
    num_output: 2048
    bias_term: false
    weight_filler {
      type: "uniform"
      min: -0.01
      max: 0.01
    }
    axis: 2
  }
}
layer {
  name: "lstm1_gate_input_17"
  type: "Eltwise"
  bottom: "W_hc_h_16"
  bottom: "W_xc_x_17"
  top: "gate_input_17"
  eltwise_param {
    operation: SUM
  }
}
layer {
  name: "lstm1_unit_17"
  type: "LSTMUnit"
  bottom: "c_16"
  bottom: "gate_input_17"
  bottom: "cont_17"
  top: "c_17"
  top: "h_17"
}
layer {
  name: "lstm1_h_conted_17"
  type: "Scale"
  bottom: "h_17"
  bottom: "cont_18"
  top: "h_conted_17"
  scale_param {
    axis: 0
  }
}
layer {
  name: "lstm1_transform_18"
  type: "InnerProduct"
  bottom: "h_conted_17"
  top: "W_hc_h_17"
  param {
    name: "W_hc"
  }
  inner_product_param {
    num_output: 2048
    bias_term: false
    weight_filler {
      type: "uniform"
      min: -0.01
      max: 0.01
    }
    axis: 2
  }
}
layer {
  name: "lstm1_gate_input_18"
  type: "Eltwise"
  bottom: "W_hc_h_17"
  bottom: "W_xc_x_18"
  top: "gate_input_18"
  eltwise_param {
    operation: SUM
  }
}
layer {
  name: "lstm1_unit_18"
  type: "LSTMUnit"
  bottom: "c_17"
  bottom: "gate_input_18"
  bottom: "cont_18"
  top: "c_18"
  top: "h_18"
}
layer {
  name: "lstm1_h_conted_18"
  type: "Scale"
  bottom: "h_18"
  bottom: "cont_19"
  top: "h_conted_18"
  scale_param {
    axis: 0
  }
}
layer {
  name: "lstm1_transform_19"
  type: "InnerProduct"
  bottom: "h_conted_18"
  top: "W_hc_h_18"
  param {
    name: "W_hc"
  }
  inner_product_param {
    num_output: 2048
    bias_term: false
    weight_filler {
      type: "uniform"
      min: -0.01
      max: 0.01
    }
    axis: 2
  }
}
layer {
  name: "lstm1_gate_input_19"
  type: "Eltwise"
  bottom: "W_hc_h_18"
  bottom: "W_xc_x_19"
  top: "gate_input_19"
  eltwise_param {
    operation: SUM
  }
}
layer {
  name: "lstm1_unit_19"
  type: "LSTMUnit"
  bottom: "c_18"
  bottom: "gate_input_19"
  bottom: "cont_19"
  top: "c_19"
  top: "h_19"
}
layer {
  name: "lstm1_h_conted_19"
  type: "Scale"
  bottom: "h_19"
  bottom: "cont_20"
  top: "h_conted_19"
  scale_param {
    axis: 0
  }
}
layer {
  name: "lstm1_transform_20"
  type: "InnerProduct"
  bottom: "h_conted_19"
  top: "W_hc_h_19"
  param {
    name: "W_hc"
  }
  inner_product_param {
    num_output: 2048
    bias_term: false
    weight_filler {
      type: "uniform"
      min: -0.01
      max: 0.01
    }
    axis: 2
  }
}
layer {
  name: "lstm1_gate_input_20"
  type: "Eltwise"
  bottom: "W_hc_h_19"
  bottom: "W_xc_x_20"
  top: "gate_input_20"
  eltwise_param {
    operation: SUM
  }
}
layer {
  name: "lstm1_unit_20"
  type: "LSTMUnit"
  bottom: "c_19"
  bottom: "gate_input_20"
  bottom: "cont_20"
  top: "c_20"
  top: "h_20"
}
layer {
  name: "lstm1_h_conted_20"
  type: "Scale"
  bottom: "h_20"
  bottom: "cont_21"
  top: "h_conted_20"
  scale_param {
    axis: 0
  }
}
layer {
  name: "lstm1_transform_21"
  type: "InnerProduct"
  bottom: "h_conted_20"
  top: "W_hc_h_20"
  param {
    name: "W_hc"
  }
  inner_product_param {
    num_output: 2048
    bias_term: false
    weight_filler {
      type: "uniform"
      min: -0.01
      max: 0.01
    }
    axis: 2
  }
}
layer {
  name: "lstm1_gate_input_21"
  type: "Eltwise"
  bottom: "W_hc_h_20"
  bottom: "W_xc_x_21"
  top: "gate_input_21"
  eltwise_param {
    operation: SUM
  }
}
layer {
  name: "lstm1_unit_21"
  type: "LSTMUnit"
  bottom: "c_20"
  bottom: "gate_input_21"
  bottom: "cont_21"
  top: "c_21"
  top: "h_21"
}
layer {
  name: "lstm1_h_conted_21"
  type: "Scale"
  bottom: "h_21"
  bottom: "cont_22"
  top: "h_conted_21"
  scale_param {
    axis: 0
  }
}
layer {
  name: "lstm1_transform_22"
  type: "InnerProduct"
  bottom: "h_conted_21"
  top: "W_hc_h_21"
  param {
    name: "W_hc"
  }
  inner_product_param {
    num_output: 2048
    bias_term: false
    weight_filler {
      type: "uniform"
      min: -0.01
      max: 0.01
    }
    axis: 2
  }
}
layer {
  name: "lstm1_gate_input_22"
  type: "Eltwise"
  bottom: "W_hc_h_21"
  bottom: "W_xc_x_22"
  top: "gate_input_22"
  eltwise_param {
    operation: SUM
  }
}
layer {
  name: "lstm1_unit_22"
  type: "LSTMUnit"
  bottom: "c_21"
  bottom: "gate_input_22"
  bottom: "cont_22"
  top: "c_22"
  top: "h_22"
}
layer {
  name: "lstm1_h_conted_22"
  type: "Scale"
  bottom: "h_22"
  bottom: "cont_23"
  top: "h_conted_22"
  scale_param {
    axis: 0
  }
}
layer {
  name: "lstm1_transform_23"
  type: "InnerProduct"
  bottom: "h_conted_22"
  top: "W_hc_h_22"
  param {
    name: "W_hc"
  }
  inner_product_param {
    num_output: 2048
    bias_term: false
    weight_filler {
      type: "uniform"
      min: -0.01
      max: 0.01
    }
    axis: 2
  }
}
layer {
  name: "lstm1_gate_input_23"
  type: "Eltwise"
  bottom: "W_hc_h_22"
  bottom: "W_xc_x_23"
  top: "gate_input_23"
  eltwise_param {
    operation: SUM
  }
}
layer {
  name: "lstm1_unit_23"
  type: "LSTMUnit"
  bottom: "c_22"
  bottom: "gate_input_23"
  bottom: "cont_23"
  top: "c_23"
  top: "h_23"
}
layer {
  name: "lstm1_h_conted_23"
  type: "Scale"
  bottom: "h_23"
  bottom: "cont_24"
  top: "h_conted_23"
  scale_param {
    axis: 0
  }
}
layer {
  name: "lstm1_transform_24"
  type: "InnerProduct"
  bottom: "h_conted_23"
  top: "W_hc_h_23"
  param {
    name: "W_hc"
  }
  inner_product_param {
    num_output: 2048
    bias_term: false
    weight_filler {
      type: "uniform"
      min: -0.01
      max: 0.01
    }
    axis: 2
  }
}
layer {
  name: "lstm1_gate_input_24"
  type: "Eltwise"
  bottom: "W_hc_h_23"
  bottom: "W_xc_x_24"
  top: "gate_input_24"
  eltwise_param {
    operation: SUM
  }
}
layer {
  name: "lstm1_unit_24"
  type: "LSTMUnit"
  bottom: "c_23"
  bottom: "gate_input_24"
  bottom: "cont_24"
  top: "c_24"
  top: "h_24"
}
layer {
  name: "lstm1_h_conted_24"
  type: "Scale"
  bottom: "h_24"
  bottom: "cont_25"
  top: "h_conted_24"
  scale_param {
    axis: 0
  }
}
layer {
  name: "lstm1_transform_25"
  type: "InnerProduct"
  bottom: "h_conted_24"
  top: "W_hc_h_24"
  param {
    name: "W_hc"
  }
  inner_product_param {
    num_output: 2048
    bias_term: false
    weight_filler {
      type: "uniform"
      min: -0.01
      max: 0.01
    }
    axis: 2
  }
}
layer {
  name: "lstm1_gate_input_25"
  type: "Eltwise"
  bottom: "W_hc_h_24"
  bottom: "W_xc_x_25"
  top: "gate_input_25"
  eltwise_param {
    operation: SUM
  }
}
layer {
  name: "lstm1_unit_25"
  type: "LSTMUnit"
  bottom: "c_24"
  bottom: "gate_input_25"
  bottom: "cont_25"
  top: "c_25"
  top: "h_25"
}
layer {
  name: "lstm1_h_conted_25"
  type: "Scale"
  bottom: "h_25"
  bottom: "cont_26"
  top: "h_conted_25"
  scale_param {
    axis: 0
  }
}
layer {
  name: "lstm1_transform_26"
  type: "InnerProduct"
  bottom: "h_conted_25"
  top: "W_hc_h_25"
  param {
    name: "W_hc"
  }
  inner_product_param {
    num_output: 2048
    bias_term: false
    weight_filler {
      type: "uniform"
      min: -0.01
      max: 0.01
    }
    axis: 2
  }
}
layer {
  name: "lstm1_gate_input_26"
  type: "Eltwise"
  bottom: "W_hc_h_25"
  bottom: "W_xc_x_26"
  top: "gate_input_26"
  eltwise_param {
    operation: SUM
  }
}
layer {
  name: "lstm1_unit_26"
  type: "LSTMUnit"
  bottom: "c_25"
  bottom: "gate_input_26"
  bottom: "cont_26"
  top: "c_26"
  top: "h_26"
}
layer {
  name: "lstm1_h_conted_26"
  type: "Scale"
  bottom: "h_26"
  bottom: "cont_27"
  top: "h_conted_26"
  scale_param {
    axis: 0
  }
}
layer {
  name: "lstm1_transform_27"
  type: "InnerProduct"
  bottom: "h_conted_26"
  top: "W_hc_h_26"
  param {
    name: "W_hc"
  }
  inner_product_param {
    num_output: 2048
    bias_term: false
    weight_filler {
      type: "uniform"
      min: -0.01
      max: 0.01
    }
    axis: 2
  }
}
layer {
  name: "lstm1_gate_input_27"
  type: "Eltwise"
  bottom: "W_hc_h_26"
  bottom: "W_xc_x_27"
  top: "gate_input_27"
  eltwise_param {
    operation: SUM
  }
}
layer {
  name: "lstm1_unit_27"
  type: "LSTMUnit"
  bottom: "c_26"
  bottom: "gate_input_27"
  bottom: "cont_27"
  top: "c_27"
  top: "h_27"
}
layer {
  name: "lstm1_h_conted_27"
  type: "Scale"
  bottom: "h_27"
  bottom: "cont_28"
  top: "h_conted_27"
  scale_param {
    axis: 0
  }
}
layer {
  name: "lstm1_transform_28"
  type: "InnerProduct"
  bottom: "h_conted_27"
  top: "W_hc_h_27"
  param {
    name: "W_hc"
  }
  inner_product_param {
    num_output: 2048
    bias_term: false
    weight_filler {
      type: "uniform"
      min: -0.01
      max: 0.01
    }
    axis: 2
  }
}
layer {
  name: "lstm1_gate_input_28"
  type: "Eltwise"
  bottom: "W_hc_h_27"
  bottom: "W_xc_x_28"
  top: "gate_input_28"
  eltwise_param {
    operation: SUM
  }
}
layer {
  name: "lstm1_unit_28"
  type: "LSTMUnit"
  bottom: "c_27"
  bottom: "gate_input_28"
  bottom: "cont_28"
  top: "c_28"
  top: "h_28"
}
layer {
  name: "lstm1_h_conted_28"
  type: "Scale"
  bottom: "h_28"
  bottom: "cont_29"
  top: "h_conted_28"
  scale_param {
    axis: 0
  }
}
layer {
  name: "lstm1_transform_29"
  type: "InnerProduct"
  bottom: "h_conted_28"
  top: "W_hc_h_28"
  param {
    name: "W_hc"
  }
  inner_product_param {
    num_output: 2048
    bias_term: false
    weight_filler {
      type: "uniform"
      min: -0.01
      max: 0.01
    }
    axis: 2
  }
}
layer {
  name: "lstm1_gate_input_29"
  type: "Eltwise"
  bottom: "W_hc_h_28"
  bottom: "W_xc_x_29"
  top: "gate_input_29"
  eltwise_param {
    operation: SUM
  }
}
layer {
  name: "lstm1_unit_29"
  type: "LSTMUnit"
  bottom: "c_28"
  bottom: "gate_input_29"
  bottom: "cont_29"
  top: "c_29"
  top: "h_29"
}
layer {
  name: "lstm1_h_conted_29"
  type: "Scale"
  bottom: "h_29"
  bottom: "cont_30"
  top: "h_conted_29"
  scale_param {
    axis: 0
  }
}
layer {
  name: "lstm1_transform_30"
  type: "InnerProduct"
  bottom: "h_conted_29"
  top: "W_hc_h_29"
  param {
    name: "W_hc"
  }
  inner_product_param {
    num_output: 2048
    bias_term: false
    weight_filler {
      type: "uniform"
      min: -0.01
      max: 0.01
    }
    axis: 2
  }
}
layer {
  name: "lstm1_gate_input_30"
  type: "Eltwise"
  bottom: "W_hc_h_29"
  bottom: "W_xc_x_30"
  top: "gate_input_30"
  eltwise_param {
    operation: SUM
  }
}
layer {
  name: "lstm1_unit_30"
  type: "LSTMUnit"
  bottom: "c_29"
  bottom: "gate_input_30"
  bottom: "cont_30"
  top: "c_30"
  top: "h_30"
}
layer {
  name: "lstm1_h_conted_30"
  type: "Scale"
  bottom: "h_30"
  bottom: "cont_31"
  top: "h_conted_30"
  scale_param {
    axis: 0
  }
}
layer {
  name: "lstm1_transform_31"
  type: "InnerProduct"
  bottom: "h_conted_30"
  top: "W_hc_h_30"
  param {
    name: "W_hc"
  }
  inner_product_param {
    num_output: 2048
    bias_term: false
    weight_filler {
      type: "uniform"
      min: -0.01
      max: 0.01
    }
    axis: 2
  }
}
layer {
  name: "lstm1_gate_input_31"
  type: "Eltwise"
  bottom: "W_hc_h_30"
  bottom: "W_xc_x_31"
  top: "gate_input_31"
  eltwise_param {
    operation: SUM
  }
}
layer {
  name: "lstm1_unit_31"
  type: "LSTMUnit"
  bottom: "c_30"
  bottom: "gate_input_31"
  bottom: "cont_31"
  top: "c_31"
  top: "h_31"
}
layer {
  name: "lstm1_h_conted_31"
  type: "Scale"
  bottom: "h_31"
  bottom: "cont_32"
  top: "h_conted_31"
  scale_param {
    axis: 0
  }
}
layer {
  name: "lstm1_transform_32"
  type: "InnerProduct"
  bottom: "h_conted_31"
  top: "W_hc_h_31"
  param {
    name: "W_hc"
  }
  inner_product_param {
    num_output: 2048
    bias_term: false
    weight_filler {
      type: "uniform"
      min: -0.01
      max: 0.01
    }
    axis: 2
  }
}
layer {
  name: "lstm1_gate_input_32"
  type: "Eltwise"
  bottom: "W_hc_h_31"
  bottom: "W_xc_x_32"
  top: "gate_input_32"
  eltwise_param {
    operation: SUM
  }
}
layer {
  name: "lstm1_unit_32"
  type: "LSTMUnit"
  bottom: "c_31"
  bottom: "gate_input_32"
  bottom: "cont_32"
  top: "c_32"
  top: "h_32"
}
layer {
  name: "lstm1_h_conted_32"
  type: "Scale"
  bottom: "h_32"
  bottom: "cont_33"
  top: "h_conted_32"
  scale_param {
    axis: 0
  }
}
layer {
  name: "lstm1_transform_33"
  type: "InnerProduct"
  bottom: "h_conted_32"
  top: "W_hc_h_32"
  param {
    name: "W_hc"
  }
  inner_product_param {
    num_output: 2048
    bia
I1018 00:09:08.771244 30096 layer_factory.hpp:77] Creating layer lstm1_
I1018 00:09:08.771266 30096 net.cpp:84] Creating Layer lstm1_
I1018 00:09:08.771272 30096 net.cpp:380] lstm1_ -> x
I1018 00:09:08.771289 30096 net.cpp:380] lstm1_ -> cont
I1018 00:09:08.771337 30096 net.cpp:122] Setting up lstm1_
I1018 00:09:08.771347 30096 net.cpp:129] Top shape: 128 2 512 (131072)
I1018 00:09:08.771353 30096 net.cpp:129] Top shape: 128 2 (256)
I1018 00:09:08.771356 30096 net.cpp:137] Memory required for data: 525312
I1018 00:09:08.771361 30096 layer_factory.hpp:77] Creating layer lstm1_
I1018 00:09:08.771368 30096 net.cpp:84] Creating Layer lstm1_
I1018 00:09:08.771374 30096 net.cpp:380] lstm1_ -> c_0
I1018 00:09:08.771384 30096 net.cpp:380] lstm1_ -> h_0
I1018 00:09:08.771421 30096 net.cpp:122] Setting up lstm1_
I1018 00:09:08.771430 30096 net.cpp:129] Top shape: 1 2 512 (1024)
I1018 00:09:08.771436 30096 net.cpp:129] Top shape: 1 2 512 (1024)
I1018 00:09:08.771443 30096 net.cpp:137] Memory required for data: 533504
I1018 00:09:08.771450 30096 layer_factory.hpp:77] Creating layer lstm1_cont_slice
I1018 00:09:08.771486 30096 net.cpp:84] Creating Layer lstm1_cont_slice
I1018 00:09:08.771493 30096 net.cpp:406] lstm1_cont_slice <- cont
I1018 00:09:08.771509 30096 net.cpp:380] lstm1_cont_slice -> cont_1
I1018 00:09:08.771533 30096 net.cpp:380] lstm1_cont_slice -> cont_2
…
I1018 00:09:08.773761 30096 net.cpp:380] lstm1_cont_slice -> cont_122
I1018 00:09:08.773779 30096 net.cpp:380] lstm1_cont_slice -> cont_123
I1018 00:09:08.773797 30096 net.cpp:380] lstm1_cont_slice -> cont_124
I1018 00:09:08.773815 30096 net.cpp:380] lstm1_cont_slice -> cont_125
I1018 00:09:08.773839 30096 net.cpp:380] lstm1_cont_slice -> cont_126
I1018 00:09:08.773859 30096 net.cpp:380] lstm1_cont_slice -> cont_127
I1018 00:09:08.773876 30096 net.cpp:380] lstm1_cont_slice -> cont_128
I1018 00:09:08.775207 30096 net.cpp:122] Setting up lstm1_cont_slice
I1018 00:09:08.775218 30096 net.cpp:129] Top shape: 1 2 (2)
I1018 00:09:08.775223 30096 net.cpp:129] Top shape: 1 2 (2)
I1018 00:09:08.775228 30096 net.cpp:129] Top shape: 1 2 (2)
I1018 00:09:08.775233 30096 net.cpp:129] Top shape: 1 2 (2)
I1018 00:09:08.775238 30096 net.cpp:129] Top shape: 1 2 (2)
I1018 00:09:08.775243 30096 net.cpp:129] Top shape: 1 2 (2)
I1018 00:09:08.775248 30096 net.cpp:129] Top shape: 1 2 (2)
I1018 00:09:08.775252 30096 net.cpp:129] Top shape: 1 2 (2)
I1018 00:09:08.775257 30096 net.cpp:129] Top shape: 1 2 (2)
I1018 00:09:08.775261 30096 net.cpp:129] Top shape: 1 2 (2)
I1018 00:09:08.775266 30096 net.cpp:129] Top shape: 1 2 (2)
I1018 00:09:08.775271 30096 net.cpp:129] Top shape: 1 2 (2)
I1018 00:09:08.775275 30096 net.cpp:129] Top shape: 1 2 (2)
I1018 00:09:08.775280 30096 net.cpp:129] Top shape: 1 2 (2)
I1018 00:09:08.775285 30096 net.cpp:129] Top shape: 1 2 (2)
I1018 00:09:08.775290 30096 net.cpp:129] Top shape: 1 2 (2)
I1018 00:09:08.775295 30096 net.cpp:129] Top shape: 1 2 (2)
I1018 00:09:08.775298 30096 net.cpp:129] Top shape: 1 2 (2)
I1018 00:09:08.775303 30096 net.cpp:129] Top shape: 1 2 (2)
I1018 00:09:08.775307 30096 net.cpp:129] Top shape: 1 2 (2)
I1018 00:09:08.775312 30096 net.cpp:129] Top shape: 1 2 (2)
I1018 00:09:08.775317 30096 net.cpp:129] Top shape: 1 2 (2)
I1018 00:09:08.775321 30096 net.cpp:129] Top shape: 1 2 (2)
I1018 00:09:08.775326 30096 net.cpp:129] Top shape: 1 2 (2)
I1018 00:09:08.775331 30096 net.cpp:129] Top shape: 1 2 (2)
I1018 00:09:08.775336 30096 net.cpp:129] Top shape: 1 2 (2)
I1018 00:09:08.775339 30096 net.cpp:129] Top shape: 1 2 (2)
I1018 00:09:08.775344 30096 net.cpp:129] Top shape: 1 2 (2)
I1018 00:09:08.775349 30096 net.cpp:129] Top shape: 1 2 (2)
I1018 00:09:08.775353 30096 net.cpp:129] Top shape: 1 2 (2)
I1018 00:09:08.775358 30096 net.cpp:129] Top shape: 1 2 (2)
I1018 00:09:08.775363 30096 net.cpp:129] Top shape: 1 2 (2)
I1018 00:09:08.775367 30096 net.cpp:129] Top shape: 1 2 (2)
I1018 00:09:08.775372 30096 net.cpp:129] Top shape: 1 2 (2)
I1018 00:09:08.775377 30096 net.cpp:129] Top shape: 1 2 (2)
I1018 00:09:08.775382 30096 net.cpp:129] Top shape: 1 2 (2)
I1018 00:09:08.775387 30096 net.cpp:129] Top shape: 1 2 (2)
I1018 00:09:08.775390 30096 net.cpp:129] Top shape: 1 2 (2)
I1018 00:09:08.775395 30096 net.cpp:129] Top shape: 1 2 (2)
I1018 00:09:08.775399 30096 net.cpp:129] Top shape: 1 2 (2)
I1018 00:09:08.775404 30096 net.cpp:129] Top shape: 1 2 (2)
I1018 00:09:08.775408 30096 net.cpp:129] Top shape: 1 2 (2)
I1018 00:09:08.775413 30096 net.cpp:129] Top shape: 1 2 (2)
I1018 00:09:08.775418 30096 net.cpp:129] Top shape: 1 2 (2)
I1018 00:09:08.775423 30096 net.cpp:129] Top shape: 1 2 (2)
I1018 00:09:08.775427 30096 net.cpp:129] Top shape: 1 2 (2)
I1018 00:09:08.775431 30096 net.cpp:129] Top shape: 1 2 (2)
I1018 00:09:08.775436 30096 net.cpp:129] Top shape: 1 2 (2)
I1018 00:09:08.775440 30096 net.cpp:129] Top shape: 1 2 (2)
I1018 00:09:08.775445 30096 net.cpp:129] Top shape: 1 2 (2)
I1018 00:09:08.775450 30096 net.cpp:129] Top shape: 1 2 (2)
I1018 00:09:08.775454 30096 net.cpp:129] Top shape: 1 2 (2)
I1018 00:09:08.775460 30096 net.cpp:129] Top shape: 1 2 (2)
I1018 00:09:08.775463 30096 net.cpp:129] Top shape: 1 2 (2)
I1018 00:09:08.775468 30096 net.cpp:129] Top shape: 1 2 (2)
I1018 00:09:08.775472 30096 net.cpp:129] Top shape: 1 2 (2)
I1018 00:09:08.775477 30096 net.cpp:129] Top shape: 1 2 (2)
I1018 00:09:08.775481 30096 net.cpp:129] Top shape: 1 2 (2)
I1018 00:09:08.775486 30096 net.cpp:129] Top shape: 1 2 (2)
I1018 00:09:08.775491 30096 net.cpp:129] Top shape: 1 2 (2)
I1018 00:09:08.775497 30096 net.cpp:129] Top shape: 1 2 (2)
I1018 00:09:08.775502 30096 net.cpp:129] Top shape: 1 2 (2)
I1018 00:09:08.775507 30096 net.cpp:129] Top shape: 1 2 (2)
I1018 00:09:08.775511 30096 net.cpp:129] Top shape: 1 2 (2)
I1018 00:09:08.775516 30096 net.cpp:129] Top shape: 1 2 (2)
I1018 00:09:08.775521 30096 net.cpp:129] Top shape: 1 2 (2)
I1018 00:09:08.775526 30096 net.cpp:129] Top shape: 1 2 (2)
I1018 00:09:08.775530 30096 net.cpp:129] Top shape: 1 2 (2)
I1018 00:09:08.775535 30096 net.cpp:129] Top shape: 1 2 (2)
I1018 00:09:08.775539 30096 net.cpp:129] Top shape: 1 2 (2)
I1018 00:09:08.775544 30096 net.cpp:129] Top shape: 1 2 (2)
I1018 00:09:08.775548 30096 net.cpp:129] Top shape: 1 2 (2)
I1018 00:09:08.775553 30096 net.cpp:129] Top shape: 1 2 (2)
I1018 00:09:08.775557 30096 net.cpp:129] Top shape: 1 2 (2)
I1018 00:09:08.775563 30096 net.cpp:129] Top shape: 1 2 (2)
I1018 00:09:08.775568 30096 net.cpp:129] Top shape: 1 2 (2)
I1018 00:09:08.775571 30096 net.cpp:129] Top shape: 1 2 (2)
I1018 00:09:08.775576 30096 net.cpp:129] Top shape: 1 2 (2)
I1018 00:09:08.775580 30096 net.cpp:129] Top shape: 1 2 (2)
I1018 00:09:08.775585 30096 net.cpp:129] Top shape: 1 2 (2)
I1018 00:09:08.775589 30096 net.cpp:129] Top shape: 1 2 (2)
I1018 00:09:08.775594 30096 net.cpp:129] Top shape: 1 2 (2)
I1018 00:09:08.775599 30096 net.cpp:129] Top shape: 1 2 (2)
I1018 00:09:08.775604 30096 net.cpp:129] Top shape: 1 2 (2)
I1018 00:09:08.775609 30096 net.cpp:129] Top shape: 1 2 (2)
I1018 00:09:08.775612 30096 net.cpp:129] Top shape: 1 2 (2)
I1018 00:09:08.775617 30096 net.cpp:129] Top shape: 1 2 (2)
I1018 00:09:08.775621 30096 net.cpp:129] Top shape: 1 2 (2)
I1018 00:09:08.775626 30096 net.cpp:129] Top shape: 1 2 (2)
I1018 00:09:08.775631 30096 net.cpp:129] Top shape: 1 2 (2)
I1018 00:09:08.775635 30096 net.cpp:129] Top shape: 1 2 (2)
I1018 00:09:08.775640 30096 net.cpp:129] Top shape: 1 2 (2)
I1018 00:09:08.775645 30096 net.cpp:129] Top shape: 1 2 (2)
I1018 00:09:08.775650 30096 net.cpp:129] Top shape: 1 2 (2)
I1018 00:09:08.775653 30096 net.cpp:129] Top shape: 1 2 (2)
I1018 00:09:08.775658 30096 net.cpp:129] Top shape: 1 2 (2)
I1018 00:09:08.775662 30096 net.cpp:129] Top shape: 1 2 (2)
I1018 00:09:08.775667 30096 net.cpp:129] Top shape: 1 2 (2)
I1018 00:09:08.775672 30096 net.cpp:129] Top shape: 1 2 (2)
I1018 00:09:08.775676 30096 net.cpp:129] Top shape: 1 2 (2)
I1018 00:09:08.775681 30096 net.cpp:129] Top shape: 1 2 (2)
I1018 00:09:08.775686 30096 net.cpp:129] Top shape: 1 2 (2)
I1018 00:09:08.775691 30096 net.cpp:129] Top shape: 1 2 (2)
I1018 00:09:08.775694 30096 net.cpp:129] Top shape: 1 2 (2)
I1018 00:09:08.775699 30096 net.cpp:129] Top shape: 1 2 (2)
I1018 00:09:08.775703 30096 net.cpp:129] Top shape: 1 2 (2)
I1018 00:09:08.775708 30096 net.cpp:129] Top shape: 1 2 (2)
I1018 00:09:08.775712 30096 net.cpp:129] Top shape: 1 2 (2)
I1018 00:09:08.775717 30096 net.cpp:129] Top shape: 1 2 (2)
I1018 00:09:08.775722 30096 net.cpp:129] Top shape: 1 2 (2)
I1018 00:09:08.775727 30096 net.cpp:129] Top shape: 1 2 (2)
I1018 00:09:08.775732 30096 net.cpp:129] Top shape: 1 2 (2)
I1018 00:09:08.775735 30096 net.cpp:129] Top shape: 1 2 (2)
I1018 00:09:08.775740 30096 net.cpp:129] Top shape: 1 2 (2)
I1018 00:09:08.775745 30096 net.cpp:129] Top shape: 1 2 (2)
I1018 00:09:08.775749 30096 net.cpp:129] Top shape: 1 2 (2)
I1018 00:09:08.775754 30096 net.cpp:129] Top shape: 1 2 (2)
I1018 00:09:08.775758 30096 net.cpp:129] Top shape: 1 2 (2)
I1018 00:09:08.775763 30096 net.cpp:129] Top shape: 1 2 (2)
I1018 00:09:08.775768 30096 net.cpp:129] Top shape: 1 2 (2)
I1018 00:09:08.775773 30096 net.cpp:129] Top shape: 1 2 (2)
I1018 00:09:08.775777 30096 net.cpp:129] Top shape: 1 2 (2)
I1018 00:09:08.775781 30096 net.cpp:129] Top shape: 1 2 (2)
I1018 00:09:08.775786 30096 net.cpp:129] Top shape: 1 2 (2)
I1018 00:09:08.775791 30096 net.cpp:129] Top shape: 1 2 (2)
I1018 00:09:08.775796 30096 net.cpp:129] Top shape: 1 2 (2)
I1018 00:09:08.775800 30096 net.cpp:129] Top shape: 1 2 (2)
I1018 00:09:08.775805 30096 net.cpp:129] Top shape: 1 2 (2)
I1018 00:09:08.775810 30096 net.cpp:137] Memory required for data: 534528
I1018 00:09:08.775815 30096 layer_factory.hpp:77] Creating layer cont_1_lstm1_cont_slice_0_split
I1018 00:09:08.775821 30096 net.cpp:84] Creating Layer cont_1_lstm1_cont_slice_0_split
I1018 00:09:08.775828 30096 net.cpp:406] cont_1_lstm1_cont_slice_0_split <- cont_1
I1018 00:09:08.775836 30096 net.cpp:380] cont_1_lstm1_cont_slice_0_split -> cont_1_lstm1_cont_slice_0_split_0
I1018 00:09:08.775845 30096 net.cpp:380] cont_1_lstm1_cont_slice_0_split -> cont_1_lstm1_cont_slice_0_split_1
I1018 00:09:08.775878 30096 net.cpp:122] Setting up cont_1_lstm1_cont_slice_0_split
I1018 00:09:08.775887 30096 net.cpp:129] Top shape: 1 2 (2)
I1018 00:09:08.775892 30096 net.cpp:129] Top shape: 1 2 (2)
I1018 00:09:08.775895 30096 net.cpp:137] Memory required for data: 534544
I1018 00:09:08.775900 30096 layer_factory.hpp:77] Creating layer cont_2_lstm1_cont_slice_1_split
I1018 00:09:08.775907 30096 net.cpp:84] Creating Layer cont_2_lstm1_cont_slice_1_split
I1018 00:09:08.775912 30096 net.cpp:406] cont_2_lstm1_cont_slice_1_split <- cont_2
I1018 00:09:08.775918 30096 net.cpp:380] cont_2_lstm1_cont_slice_1_split -> cont_2_lstm1_cont_slice_1_split_0
I1018 00:09:08.775924 30096 net.cpp:380] cont_2_lstm1_cont_slice_1_split -> cont_2_lstm1_cont_slice_1_split_1
I1018 00:09:08.775961 30096 net.cpp:122] Setting up cont_2_lstm1_cont_slice_1_split
I1018 00:09:08.775967 30096 net.cpp:129] Top shape: 1 2 (2)
I1018 00:09:08.775972 30096 net.cpp:129] Top shape: 1 2 (2)
I1018 00:09:08.775976 30096 net.cpp:137] Memory required for data: 534560
I1018 00:09:08.775980 30096 layer_factory.hpp:77] Creating layer cont_3_lstm1_cont_slice_2_split
I1018 00:09:08.775986 30096 net.cpp:84] Creating Layer cont_3_lstm1_cont_slice_2_split
I1018 00:09:08.775990 30096 net.cpp:406] cont_3_lstm1_cont_slice_2_split <- cont_3
I1018 00:09:08.775998 30096 net.cpp:380] cont_3_lstm1_cont_slice_2_split -> cont_3_lstm1_cont_slice_2_split_0
I1018 00:09:08.776005 30096 net.cpp:380] cont_3_lstm1_cont_slice_2_split -> cont_3_lstm1_cont_slice_2_split_1
I1018 00:09:08.776064 30096 net.cpp:122] Setting up cont_3_lstm1_cont_slice_2_split
I1018 00:09:08.776080 30096 net.cpp:129] Top shape: 1 2 (2)
I1018 00:09:08.776089 30096 net.cpp:129] Top shape: 1 2 (2)
I1018 00:09:08.776095 30096 net.cpp:137] Memory required for data: 534576
I1018 00:09:08.776103 30096 layer_factory.hpp:77] Creating layer cont_4_lstm1_cont_slice_3_split
I1018 00:09:08.776110 30096 net.cpp:84] Creating Layer cont_4_lstm1_cont_slice_3_split
I1018 00:09:08.776118 30096 net.cpp:406] cont_4_lstm1_cont_slice_3_split <- cont_4
I1018 00:09:08.776129 30096 net.cpp:380] cont_4_lstm1_cont_slice_3_split -> cont_4_lstm1_cont_slice_3_split_0
I1018 00:09:08.776140 30096 net.cpp:380] cont_4_lstm1_cont_slice_3_split -> cont_4_lstm1_cont_slice_3_split_1
I1018 00:09:08.776182 30096 net.cpp:122] Setting up cont_4_lstm1_cont_slice_3_split
I1018 00:09:08.776190 30096 net.cpp:129] Top shape: 1 2 (2)
I1018 00:09:08.776195 30096 net.cpp:129] Top shape: 1 2 (2)
I1018 00:09:08.776198 30096 net.cpp:137] Memory required for data: 534592
I1018 00:09:08.776202 30096 layer_factory.hpp:77] Creating layer cont_5_lstm1_cont_slice_4_split
I1018 00:09:08.776211 30096 net.cpp:84] Creating Layer cont_5_lstm1_cont_slice_4_split
I1018 00:09:08.776214 30096 net.cpp:406] cont_5_lstm1_cont_slice_4_split <- cont_5
I1018 00:09:08.776221 30096 net.cpp:380] cont_5_lstm1_cont_slice_4_split -> cont_5_lstm1_cont_slice_4_split_0
I1018 00:09:08.776228 30096 net.cpp:380] cont_5_lstm1_cont_slice_4_split -> cont_5_lstm1_cont_slice_4_split_1
I1018 00:09:08.776259 30096 net.cpp:122] Setting up cont_5_lstm1_cont_slice_4_split
I1018 00:09:08.776265 30096 net.cpp:129] Top shape: 1 2 (2)
I1018 00:09:08.776270 30096 net.cpp:129] Top shape: 1 2 (2)
I1018 00:09:08.776280 30096 net.cpp:137] Memory required for data: 534608
I1018 00:09:08.776285 30096 layer_factory.hpp:77] Creating layer cont_6_lstm1_cont_slice_5_split
I1018 00:09:08.776293 30096 net.cpp:84] Creating Layer cont_6_lstm1_cont_slice_5_split
I1018 00:09:08.776296 30096 net.cpp:406] cont_6_lstm1_cont_slice_5_split <- cont_6
I1018 00:09:08.776305 30096 net.cpp:380] cont_6_lstm1_cont_slice_5_split -> cont_6_lstm1_cont_slice_5_split_0
I1018 00:09:08.776312 30096 net.cpp:380] cont_6_lstm1_cont_slice_5_split -> cont_6_lstm1_cont_slice_5_split_1
I1018 00:09:08.776340 30096 net.cpp:122] Setting up cont_6_lstm1_cont_slice_5_split
I1018 00:09:08.776346 30096 net.cpp:129] Top shape: 1 2 (2)
I1018 00:09:08.776351 30096 net.cpp:129] Top shape: 1 2 (2)
I1018 00:09:08.776355 30096 net.cpp:137] Memory required for data: 534624
I1018 00:09:08.776360 30096 layer_factory.hpp:77] Creating layer cont_7_lstm1_cont_slice_6_split
I1018 00:09:08.776366 30096 net.cpp:84] Creating Layer cont_7_lstm1_cont_slice_6_split
I1018 00:09:08.776371 30096 net.cpp:406] cont_7_lstm1_cont_slice_6_split <- cont_7
I1018 00:09:08.776377 30096 net.cpp:380] cont_7_lstm1_cont_slice_6_split -> cont_7_lstm1_cont_slice_6_split_0
I1018 00:09:08.776383 30096 net.cpp:380] cont_7_lstm1_cont_slice_6_split -> cont_7_lstm1_cont_slice_6_split_1
I1018 00:09:08.776413 30096 net.cpp:122] Setting up cont_7_lstm1_cont_slice_6_split
I1018 00:09:08.776419 30096 net.cpp:129] Top shape: 1 2 (2)
I1018 00:09:08.776424 30096 net.cpp:129] Top shape: 1 2 (2)
I1018 00:09:08.776428 30096 net.cpp:137] Memory required for data: 534640
I1018 00:09:08.776432 30096 layer_factory.hpp:77] Creating layer cont_8_lstm1_cont_slice_7_split
I1018 00:09:08.776438 30096 net.cpp:84] Creating Layer cont_8_lstm1_cont_slice_7_split
I1018 00:09:08.776443 30096 net.cpp:406] cont_8_lstm1_cont_slice_7_split <- cont_8
I1018 00:09:08.776448 30096 net.cpp:380] cont_8_lstm1_cont_slice_7_split -> cont_8_lstm1_cont_slice_7_split_0
I1018 00:09:08.776454 30096 net.cpp:380] cont_8_lstm1_cont_slice_7_split -> cont_8_lstm1_cont_slice_7_split_1
I1018 00:09:08.776484 30096 net.cpp:122] Setting up cont_8_lstm1_cont_slice_7_split
I1018 00:09:08.776490 30096 net.cpp:129] Top shape: 1 2 (2)
I1018 00:09:08.776495 30096 net.cpp:129] Top shape: 1 2 (2)
I1018 00:09:08.776499 30096 net.cpp:137] Memory required for data: 534656
I1018 00:09:08.776504 30096 layer_factory.hpp:77] Creating layer cont_9_lstm1_cont_slice_8_split
I1018 00:09:08.776509 30096 net.cpp:84] Creating Layer cont_9_lstm1_cont_slice_8_split
I1018 00:09:08.776512 30096 net.cpp:406] cont_9_lstm1_cont_slice_8_split <- cont_9
I1018 00:09:08.776518 30096 net.cpp:380] cont_9_lstm1_cont_slice_8_split -> cont_9_lstm1_cont_slice_8_split_0
I1018 00:09:08.776525 30096 net.cpp:380] cont_9_lstm1_cont_slice_8_split -> cont_9_lstm1_cont_slice_8_split_1
I1018 00:09:08.776556 30096 net.cpp:122] Setting up cont_9_lstm1_cont_slice_8_split
I1018 00:09:08.776561 30096 net.cpp:129] Top shape: 1 2 (2)
I1018 00:09:08.776566 30096 net.cpp:129] Top shape: 1 2 (2)
I1018 00:09:08.776571 30096 net.cpp:137] Memory required for data: 534672
I1018 00:09:08.776574 30096 layer_factory.hpp:77] Creating layer cont_10_lstm1_cont_slice_9_split
I1018 00:09:08.776579 30096 net.cpp:84] Creating Layer cont_10_lstm1_cont_slice_9_split
I1018 00:09:08.776584 30096 net.cpp:406] cont_10_lstm1_cont_slice_9_split <- cont_10
I1018 00:09:08.776592 30096 net.cpp:380] cont_10_lstm1_cont_slice_9_split -> cont_10_lstm1_cont_slice_9_split_0
I1018 00:09:08.776598 30096 net.cpp:380] cont_10_lstm1_cont_slice_9_split -> cont_10_lstm1_cont_slice_9_split_1
I1018 00:09:08.776628 30096 net.cpp:122] Setting up cont_10_lstm1_cont_slice_9_split
I1018 00:09:08.776634 30096 net.cpp:129] Top shape: 1 2 (2)
I1018 00:09:08.776639 30096 net.cpp:129] Top shape: 1 2 (2)
I1018 00:09:08.776643 30096 net.cpp:137] Memory required for data: 534688
I1018 00:09:08.776648 30096 layer_factory.hpp:77] Creating layer cont_11_lstm1_cont_slice_10_split
I1018 00:09:08.776652 30096 net.cpp:84] Creating Layer cont_11_lstm1_cont_slice_10_split
I1018 00:09:08.776657 30096 net.cpp:406] cont_11_lstm1_cont_slice_10_split <- cont_11
I1018 00:09:08.776664 30096 net.cpp:380] cont_11_lstm1_cont_slice_10_split -> cont_11_lstm1_cont_slice_10_split_0
I1018 00:09:08.776670 30096 net.cpp:380] cont_11_lstm1_cont_slice_10_split -> cont_11_lstm1_cont_slice_10_split_1
I1018 00:09:08.776700 30096 net.cpp:122] Setting up cont_11_lstm1_cont_slice_10_split
I1018 00:09:08.776706 30096 net.cpp:129] Top shape: 1 2 (2)
I1018 00:09:08.776711 30096 net.cpp:129] Top shape: 1 2 (2)
I1018 00:09:08.776715 30096 net.cpp:137] Memory required for data: 534704
I1018 00:09:08.776720 30096 layer_factory.hpp:77] Creating layer cont_12_lstm1_cont_slice_11_split
I1018 00:09:08.776724 30096 net.cpp:84] Creating Layer cont_12_lstm1_cont_slice_11_split
I1018 00:09:08.776729 30096 net.cpp:406] cont_12_lstm1_cont_slice_11_split <- cont_12
I1018 00:09:08.776736 30096 net.cpp:380] cont_12_lstm1_cont_slice_11_split -> cont_12_lstm1_cont_slice_11_split_0
I1018 00:09:08.776741 30096 net.cpp:380] cont_12_lstm1_cont_slice_11_split -> cont_12_lstm1_cont_slice_11_split_1
I1018 00:09:08.776774 30096 net.cpp:122] Setting up cont_12_lstm1_cont_slice_11_split
I1018 00:09:08.776780 30096 net.cpp:129] Top shape: 1 2 (2)
I1018 00:09:08.776785 30096 net.cpp:129] Top shape: 1 2 (2)
I1018 00:09:08.776789 30096 net.cpp:137] Memory required for data: 534720
I1018 00:09:08.776793 30096 layer_factory.hpp:77] Creating layer cont_13_lstm1_cont_slice_12_split
I1018 00:09:08.776800 30096 net.cpp:84] Creating Layer cont_13_lstm1_cont_slice_12_split
I1018 00:09:08.776805 30096 net.cpp:406] cont_13_lstm1_cont_slice_12_split <- cont_13
I1018 00:09:08.776813 30096 net.cpp:380] cont_13_lstm1_cont_slice_12_split -> cont_13_lstm1_cont_slice_12_split_0
I1018 00:09:08.776820 30096 net.cpp:380] cont_13_lstm1_cont_slice_12_split -> cont_13_lstm1_cont_slice_12_split_1
I1018 00:09:08.776847 30096 net.cpp:122] Setting up cont_13_lstm1_cont_slice_12_split
I1018 00:09:08.776854 30096 net.cpp:129] Top shape: 1 2 (2)
I1018 00:09:08.776859 30096 net.cpp:129] Top shape: 1 2 (2)
I1018 00:09:08.776862 30096 net.cpp:137] Memory required for data: 534736
I1018 00:09:08.776866 30096 layer_factory.hpp:77] Creating layer cont_14_lstm1_cont_slice_13_split
I1018 00:09:08.776875 30096 net.cpp:84] Creating Layer cont_14_lstm1_cont_slice_13_split
I1018 00:09:08.776880 30096 net.cpp:406] cont_14_lstm1_cont_slice_13_split <- cont_14
I1018 00:09:08.776886 30096 net.cpp:380] cont_14_lstm1_cont_slice_13_split -> cont_14_lstm1_cont_slice_13_split_0
I1018 00:09:08.776893 30096 net.cpp:380] cont_14_lstm1_cont_slice_13_split -> cont_14_lstm1_cont_slice_13_split_1
I1018 00:09:08.776923 30096 net.cpp:122] Setting up cont_14_lstm1_cont_slice_13_split
I1018 00:09:08.776929 30096 net.cpp:129] Top shape: 1 2 (2)
I1018 00:09:08.776933 30096 net.cpp:129] Top shape: 1 2 (2)
I1018 00:09:08.776937 30096 net.cpp:137] Memory required for data: 534752
I1018 00:09:08.776942 30096 layer_factory.hpp:77] Creating layer cont_15_lstm1_cont_slice_14_split
I1018 00:09:08.776947 30096 net.cpp:84] Creating Layer cont_15_lstm1_cont_slice_14_split
I1018 00:09:08.776952 30096 net.cpp:406] cont_15_lstm1_cont_slice_14_split <- cont_15
I1018 00:09:08.776957 30096 net.cpp:380] cont_15_lstm1_cont_slice_14_split -> cont_15_lstm1_cont_slice_14_split_0
I1018 00:09:08.776963 30096 net.cpp:380] cont_15_lstm1_cont_slice_14_split -> cont_15_lstm1_cont_slice_14_split_1
I1018 00:09:08.776993 30096 net.cpp:122] Setting up cont_15_lstm1_cont_slice_14_split
I1018 00:09:08.776999 30096 net.cpp:129] Top shape: 1 2 (2)
I1018 00:09:08.777004 30096 net.cpp:129] Top shape: 1 2 (2)
I1018 00:09:08.777009 30096 net.cpp:137] Memory required for data: 534768
I1018 00:09:08.777012 30096 layer_factory.hpp:77] Creating layer cont_16_lstm1_cont_slice_15_split
I1018 00:09:08.777019 30096 net.cpp:84] Creating Layer cont_16_lstm1_cont_slice_15_split
I1018 00:09:08.777022 30096 net.cpp:406] cont_16_lstm1_cont_slice_15_split <- cont_16
I1018 00:09:08.777029 30096 net.cpp:380] cont_16_lstm1_cont_slice_15_split -> cont_16_lstm1_cont_slice_15_split_0
I1018 00:09:08.777036 30096 net.cpp:380] cont_16_lstm1_cont_slice_15_split -> cont_16_lstm1_cont_slice_15_split_1
I1018 00:09:08.777065 30096 net.cpp:122] Setting up cont_16_lstm1_cont_slice_15_split
I1018 00:09:08.777070 30096 net.cpp:129] Top shape: 1 2 (2)
I1018 00:09:08.777074 30096 net.cpp:129] Top shape: 1 2 (2)
I1018 00:09:08.777078 30096 net.cpp:137] Memory required for data: 534784
I1018 00:09:08.777082 30096 layer_factory.hpp:77] Creating layer cont_17_lstm1_cont_slice_16_split
I1018 00:09:08.777091 30096 net.cpp:84] Creating Layer cont_17_lstm1_cont_slice_16_split
I1018 00:09:08.777096 30096 net.cpp:406] cont_17_lstm1_cont_slice_16_split <- cont_17
I1018 00:09:08.777101 30096 net.cpp:380] cont_17_lstm1_cont_slice_16_split -> cont_17_lstm1_cont_slice_16_split_0
I1018 00:09:08.777108 30096 net.cpp:380] cont_17_lstm1_cont_slice_16_split -> cont_17_lstm1_cont_slice_16_split_1
I1018 00:09:08.777137 30096 net.cpp:122] Setting up cont_17_lstm1_cont_slice_16_split
I1018 00:09:08.777143 30096 net.cpp:129] Top shape: 1 2 (2)
I1018 00:09:08.777148 30096 net.cpp:129] Top shape: 1 2 (2)
I1018 00:09:08.777153 30096 net.cpp:137] Memory required for data: 534800
I1018 00:09:08.777156 30096 layer_factory.hpp:77] Creating layer cont_18_lstm1_cont_slice_17_split
I1018 00:09:08.777161 30096 net.cpp:84] Creating Layer cont_18_lstm1_cont_slice_17_split
I1018 00:09:08.777165 30096 net.cpp:406] cont_18_lstm1_cont_slice_17_split <- cont_18
I1018 00:09:08.777171 30096 net.cpp:380] cont_18_lstm1_cont_slice_17_split -> cont_18_lstm1_cont_slice_17_split_0
I1018 00:09:08.777179 30096 net.cpp:380] cont_18_lstm1_cont_slice_17_split -> cont_18_lstm1_cont_slice_17_split_1
I1018 00:09:08.777207 30096 net.cpp:122] Setting up cont_18_lstm1_cont_slice_17_split
I1018 00:09:08.777214 30096 net.cpp:129] Top shape: 1 2 (2)
I1018 00:09:08.777218 30096 net.cpp:129] Top shape: 1 2 (2)
I1018 00:09:08.777222 30096 net.cpp:137] Memory required for data: 534816
I1018 00:09:08.777226 30096 layer_factory.hpp:77] Creating layer cont_19_lstm1_cont_slice_18_split
I1018 00:09:08.777231 30096 net.cpp:84] Creating Layer cont_19_lstm1_cont_slice_18_split
I1018 00:09:08.777235 30096 net.cpp:406] cont_19_lstm1_cont_slice_18_split <- cont_19
I1018 00:09:08.777241 30096 net.cpp:380] cont_19_lstm1_cont_slice_18_split -> cont_19_lstm1_cont_slice_18_split_0
I1018 00:09:08.777247 30096 net.cpp:380] cont_19_lstm1_cont_slice_18_split -> cont_19_lstm1_cont_slice_18_split_1
I1018 00:09:08.777277 30096 net.cpp:122] Setting up cont_19_lstm1_cont_slice_18_split
I1018 00:09:08.777283 30096 net.cpp:129] Top shape: 1 2 (2)
I1018 00:09:08.777288 30096 net.cpp:129] Top shape: 1 2 (2)
I1018 00:09:08.777292 30096 net.cpp:137] Memory required for data: 534832
I1018 00:09:08.777297 30096 layer_factory.hpp:77] Creating layer cont_20_lstm1_cont_slice_19_split
I1018 00:09:08.777302 30096 net.cpp:84] Creating Layer cont_20_lstm1_cont_slice_19_split
I1018 00:09:08.777305 30096 net.cpp:406] cont_20_lstm1_cont_slice_19_split <- cont_20
I1018 00:09:08.777313 30096 net.cpp:380] cont_20_lstm1_cont_slice_19_split -> cont_20_lstm1_cont_slice_19_split_0
I1018 00:09:08.777320 30096 net.cpp:380] cont_20_lstm1_cont_slice_19_split -> cont_20_lstm1_cont_slice_19_split_1
I1018 00:09:08.777348 30096 net.cpp:122] Setting up cont_20_lstm1_cont_slice_19_split
I1018 00:09:08.777354 30096 net.cpp:129] Top shape: 1 2 (2)
I1018 00:09:08.777359 30096 net.cpp:129] Top shape: 1 2 (2)
I1018 00:09:08.777362 30096 net.cpp:137] Memory required for data: 534848
I1018 00:09:08.777366 30096 layer_factory.hpp:77] Creating layer cont_21_lstm1_cont_slice_20_split
I1018 00:09:08.777374 30096 net.cpp:84] Creating Layer cont_21_lstm1_cont_slice_20_split
I1018 00:09:08.777379 30096 net.cpp:406] cont_21_lstm1_cont_slice_20_split <- cont_21
I1018 00:09:08.777384 30096 net.cpp:380] cont_21_lstm1_cont_slice_20_split -> cont_21_lstm1_cont_slice_20_split_0
I1018 00:09:08.777390 30096 net.cpp:380] cont_21_lstm1_cont_slice_20_split -> cont_21_lstm1_cont_slice_20_split_1
I1018 00:09:08.777420 30096 net.cpp:122] Setting up cont_21_lstm1_cont_slice_20_split
I1018 00:09:08.777426 30096 net.cpp:129] Top shape: 1 2 (2)
I1018 00:09:08.777431 30096 net.cpp:129] Top shape: 1 2 (2)
I1018 00:09:08.777434 30096 net.cpp:137] Memory required for data: 534864
I1018 00:09:08.777438 30096 layer_factory.hpp:77] Creating layer cont_22_lstm1_cont_slice_21_split
I1018 00:09:08.777444 30096 net.cpp:84] Creating Layer cont_22_lstm1_cont_slice_21_split
I1018 00:09:08.777448 30096 net.cpp:406] cont_22_lstm1_cont_slice_21_split <- cont_22
I1018 00:09:08.777454 30096 net.cpp:380] cont_22_lstm1_cont_slice_21_split -> cont_22_lstm1_cont_slice_21_split_0
I1018 00:09:08.777460 30096 net.cpp:380] cont_22_lstm1_cont_slice_21_split -> cont_22_lstm1_cont_slice_21_split_1
I1018 00:09:08.777490 30096 net.cpp:122] Setting up cont_22_lstm1_cont_slice_21_split
I1018 00:09:08.777496 30096 net.cpp:129] Top shape: 1 2 (2)
I1018 00:09:08.777501 30096 net.cpp:129] Top shape: 1 2 (2)
I1018 00:09:08.777505 30096 net.cpp:137] Memory required for data: 534880
I1018 00:09:08.777509 30096 layer_factory.hpp:77] Creating layer cont_23_lstm1_cont_slice_22_split
I1018 00:09:08.777514 30096 net.cpp:84] Creating Layer cont_23_lstm1_cont_slice_22_split
I1018 00:09:08.777519 30096 net.cpp:406] cont_23_lstm1_cont_slice_22_split <- cont_23
I1018 00:09:08.777524 30096 net.cpp:380] cont_23_lstm1_cont_slice_22_split -> cont_23_lstm1_cont_slice_22_split_0
I1018 00:09:08.777534 30096 net.cpp:380] cont_23_lstm1_cont_slice_22_split -> cont_23_lstm1_cont_slice_22_split_1
I1018 00:09:08.777560 30096 net.cpp:122] Setting up cont_23_lstm1_cont_slice_22_split
I1018 00:09:08.777566 30096 net.cpp:129] Top shape: 1 2 (2)
I1018 00:09:08.777571 30096 net.cpp:129] Top shape: 1 2 (2)
I1018 00:09:08.777575 30096 net.cpp:137] Memory required for data: 534896
I1018 00:09:08.777578 30096 layer_factory.hpp:77] Creating layer cont_24_lstm1_cont_slice_23_split
I1018 00:09:08.777585 30096 net.cpp:84] Creating Layer cont_24_lstm1_cont_slice_23_split
I1018 00:09:08.777590 30096 net.cpp:406] cont_24_lstm1_cont_slice_23_split <- cont_24
I1018 00:09:08.777596 30096 net.cpp:380] cont_24_lstm1_cont_slice_23_split -> cont_24_lstm1_cont_slice_23_split_0
I1018 00:09:08.777602 30096 net.cpp:380] cont_24_lstm1_cont_slice_23_split -> cont_24_lstm1_cont_slice_23_split_1
I1018 00:09:08.777631 30096 net.cpp:122] Setting up cont_24_lstm1_cont_slice_23_split
I1018 00:09:08.777637 30096 net.cpp:129] Top shape: 1 2 (2)
I1018 00:09:08.777642 30096 net.cpp:129] Top shape: 1 2 (2)
I1018 00:09:08.777647 30096 net.cpp:137] Memory required for data: 534912
I1018 00:09:08.777650 30096 layer_factory.hpp:77] Creating layer cont_25_lstm1_cont_slice_24_split
I1018 00:09:08.777655 30096 net.cpp:84] Creating Layer cont_25_lstm1_cont_slice_24_split
I1018 00:09:08.777659 30096 net.cpp:406] cont_25_lstm1_cont_slice_24_split <- cont_25
I1018 00:09:08.777665 30096 net.cpp:380] cont_25_lstm1_cont_slice_24_split -> cont_25_lstm1_cont_slice_24_split_0
I1018 00:09:08.777673 30096 net.cpp:380] cont_25_lstm1_cont_slice_24_split -> cont_25_lstm1_cont_slice_24_split_1
I1018 00:09:08.777703 30096 net.cpp:122] Setting up cont_25_lstm1_cont_slice_24_split
I1018 00:09:08.777709 30096 net.cpp:129] Top shape: 1 2 (2)
I1018 00:09:08.777714 30096 net.cpp:129] Top shape: 1 2 (2)
I1018 00:09:08.777717 30096 net.cpp:137] Memory required for data: 534928
I1018 00:09:08.777721 30096 layer_factory.hpp:77] Creating layer cont_26_lstm1_cont_slice_25_split
I1018 00:09:08.777726 30096 net.cpp:84] Creating Layer cont_26_lstm1_cont_slice_25_split
I1018 00:09:08.777730 30096 net.cpp:406] cont_26_lstm1_cont_slice_25_split <- cont_26
I1018 00:09:08.777736 30096 net.cpp:380] cont_26_lstm1_cont_slice_25_split -> cont_26_lstm1_cont_slice_25_split_0
I1018 00:09:08.777742 30096 net.cpp:380] cont_26_lstm1_cont_slice_25_split -> cont_26_lstm1_cont_slice_25_split_1
I1018 00:09:08.777772 30096 net.cpp:122] Setting up cont_26_lstm1_cont_slice_25_split
I1018 00:09:08.777778 30096 net.cpp:129] Top shape: 1 2 (2)
I1018 00:09:08.777783 30096 net.cpp:129] Top shape: 1 2 (2)
I1018 00:09:08.777787 30096 net.cpp:137] Memory required for data: 534944
I1018 00:09:08.777791 30096 layer_factory.hpp:77] Creating layer cont_27_lstm1_cont_slice_26_split
I1018 00:09:08.777796 30096 net.cpp:84] Creating Layer cont_27_lstm1_cont_slice_26_split
I1018 00:09:08.777801 30096 net.cpp:406] cont_27_lstm1_cont_slice_26_split <- cont_27
I1018 00:09:08.777808 30096 net.cpp:380] cont_27_lstm1_cont_slice_26_split -> cont_27_lstm1_cont_slice_26_split_0
I1018 00:09:08.777815 30096 net.cpp:380] cont_27_lstm1_cont_slice_26_split -> cont_27_lstm1_cont_slice_26_split_1
I1018 00:09:08.777842 30096 net.cpp:122] Setting up cont_27_lstm1_cont_slice_26_split
I1018 00:09:08.777848 30096 net.cpp:129] Top shape: 1 2 (2)
I1018 00:09:08.777853 30096 net.cpp:129] Top shape: 1 2 (2)
I1018 00:09:08.777858 30096 net.cpp:137] Memory required for data: 534960
I1018 00:09:08.777861 30096 layer_factory.hpp:77] Creating layer cont_28_lstm1_cont_slice_27_split
I1018 00:09:08.777869 30096 net.cpp:84] Creating Layer cont_28_lstm1_cont_slice_27_split
I1018 00:09:08.777873 30096 net.cpp:406] cont_28_lstm1_cont_slice_27_split <- cont_28
I1018 00:09:08.777879 30096 net.cpp:380] cont_28_lstm1_cont_slice_27_split -> cont_28_lstm1_cont_slice_27_split_0
I1018 00:09:08.777886 30096 net.cpp:380] cont_28_lstm1_cont_slice_27_split -> cont_28_lstm1_cont_slice_27_split_1
I1018 00:09:08.777916 30096 net.cpp:122] Setting up cont_28_lstm1_cont_slice_27_split
I1018 00:09:08.777922 30096 net.cpp:129] Top shape: 1 2 (2)
I1018 00:09:08.777927 30096 net.cpp:129] Top shape: 1 2 (2)
I1018 00:09:08.777931 30096 net.cpp:137] Memory required for data: 534976
I1018 00:09:08.777935 30096 layer_factory.hpp:77] Creating layer cont_29_lstm1_cont_slice_28_split
I1018 00:09:08.777940 30096 net.cpp:84] Creating Layer cont_29_lstm1_cont_slice_28_split
I1018 00:09:08.777945 30096 net.cpp:406] cont_29_lstm1_cont_slice_28_split <- cont_29
I1018 00:09:08.777950 30096 net.cpp:380] cont_29_lstm1_cont_slice_28_split -> cont_29_lstm1_cont_slice_28_split_0
I1018 00:09:08.777956 30096 net.cpp:380] cont_29_lstm1_cont_slice_28_split -> cont_29_lstm1_cont_slice_28_split_1
I1018 00:09:08.777986 30096 net.cpp:122] Setting up cont_29_lstm1_cont_slice_28_split
I1018 00:09:08.777992 30096 net.cpp:129] Top shape: 1 2 (2)
I1018 00:09:08.777997 30096 net.cpp:129] Top shape: 1 2 (2)
I1018 00:09:08.778000 30096 net.cpp:137] Memory required for data: 534992
I1018 00:09:08.778004 30096 layer_factory.hpp:77] Creating layer cont_30_lstm1_cont_slice_29_split
I1018 00:09:08.778012 30096 net.cpp:84] Creating Layer cont_30_lstm1_cont_slice_29_split
I1018 00:09:08.778017 30096 net.cpp:406] cont_30_lstm1_cont_slice_29_split <- cont_30
I1018 00:09:08.778024 30096 net.cpp:380] cont_30_lstm1_cont_slice_29_split -> cont_30_lstm1_cont_slice_29_split_0
I1018 00:09:08.778030 30096 net.cpp:380] cont_30_lstm1_cont_slice_29_split -> cont_30_lstm1_cont_slice_29_split_1
I1018 00:09:08.778059 30096 net.cpp:122] Setting up cont_30_lstm1_cont_slice_29_split
I1018 00:09:08.778064 30096 net.cpp:129] Top shape: 1 2 (2)
I1018 00:09:08.778069 30096 net.cpp:129] Top shape: 1 2 (2)
I1018 00:09:08.778074 30096 net.cpp:137] Memory required for data: 535008
I1018 00:09:08.778077 30096 layer_factory.hpp:77] Creating layer cont_31_lstm1_cont_slice_30_split
I1018 00:09:08.778084 30096 net.cpp:84] Creating Layer cont_31_lstm1_cont_slice_30_split
I1018 00:09:08.778089 30096 net.cpp:406] cont_31_lstm1_cont_slice_30_split <- cont_31
I1018 00:09:08.778095 30096 net.cpp:380] cont_31_lstm1_cont_slice_30_split -> cont_31_lstm1_cont_slice_30_split_0
I1018 00:09:08.778101 30096 net.cpp:380] cont_31_lstm1_cont_slice_30_split -> cont_31_lstm1_cont_slice_30_split_1
I1018 00:09:08.778131 30096 net.cpp:122] Setting up cont_31_lstm1_cont_slice_30_split
I1018 00:09:08.778136 30096 net.cpp:129] Top shape: 1 2 (2)
I1018 00:09:08.778141 30096 net.cpp:129] Top shape: 1 2 (2)
I1018 00:09:08.778146 30096 net.cpp:137] Memory required for data: 535024
I1018 00:09:08.778149 30096 layer_factory.hpp:77] Creating layer cont_32_lstm1_cont_slice_31_split
I1018 00:09:08.778156 30096 net.cpp:84] Creating Layer cont_32_lstm1_cont_slice_31_split
I1018 00:09:08.778159 30096 net.cpp:406] cont_32_lstm1_cont_slice_31_split <- cont_32
I1018 00:09:08.778165 30096 net.cpp:380] cont_32_lstm1_cont_slice_31_split -> cont_32_lstm1_cont_slice_31_split_0
I1018 00:09:08.778172 30096 net.cpp:380] cont_32_lstm1_cont_slice_31_split -> cont_32_lstm1_cont_slice_31_split_1
I1018 00:09:08.778200 30096 net.cpp:122] Setting up cont_32_lstm1_cont_slice_31_split
I1018 00:09:08.778206 30096 net.cpp:129] Top shape: 1 2 (2)
I1018 00:09:08.778211 30096 net.cpp:129] Top shape: 1 2 (2)
I1018 00:09:08.778215 30096 net.cpp:137] Memory required for data: 535040
I1018 00:09:08.778219 30096 layer_factory.hpp:77] Creating layer cont_33_lstm1_cont_slice_32_split
I1018 00:09:08.778224 30096 net.cpp:84] Creating Layer cont_33_lstm1_cont_slice_32_split
I1018 00:09:08.778229 30096 net.cpp:406] cont_33_lstm1_cont_slice_32_split <- cont_33
I1018 00:09:08.778234 30096 net.cpp:380] cont_33_lstm1_cont_slice_32_split -> cont_33_lstm1_cont_slice_32_split_0
I1018 00:09:08.778244 30096 net.cpp:380] cont_33_lstm1_cont_slice_32_split -> cont_33_lstm1_cont_slice_32_split_1
I1018 00:09:08.778270 30096 net.cpp:122] Setting up cont_33_lstm1_cont_slice_32_split
I1018 00:09:08.778276 30096 net.cpp:129] Top shape: 1 2 (2)
I1018 00:09:08.778281 30096 net.cpp:129] Top shape: 1 2 (2)
I1018 00:09:08.778285 30096 net.cpp:137] Memory required for data: 535056
I1018 00:09:08.778290 30096 layer_factory.hpp:77] Creating layer cont_34_lstm1_cont_slice_33_split
I1018 00:09:08.778296 30096 net.cpp:84] Creating Layer cont_34_lstm1_cont_slice_33_split
I1018 00:09:08.778301 30096 net.cpp:406] cont_34_lstm1_cont_slice_33_split <- cont_34
I1018 00:09:08.778306 30096 net.cpp:380] cont_34_lstm1_cont_slice_33_split -> cont_34_lstm1_cont_slice_33_split_0
I1018 00:09:08.778312 30096 net.cpp:380] cont_34_lstm1_cont_slice_33_split -> cont_34_lstm1_cont_slice_33_split_1
I1018 00:09:08.778342 30096 net.cpp:122] Setting up cont_34_lstm1_cont_slice_33_split
I1018 00:09:08.778348 30096 net.cpp:129] Top shape: 1 2 (2)
I1018 00:09:08.778353 30096 net.cpp:129] Top shape: 1 2 (2)
I1018 00:09:08.778357 30096 net.cpp:137] Memory required for data: 535072
I1018 00:09:08.778362 30096 layer_factory.hpp:77] Creating layer cont_35_lstm1_cont_slice_34_split
I1018 00:09:08.778367 30096 net.cpp:84] Creating Layer cont_35_lstm1_cont_slice_34_split
I1018 00:09:08.778372 30096 net.cpp:406] cont_35_lstm1_cont_slice_34_split <- cont_35
I1018 00:09:08.778376 30096 net.cpp:380] cont_35_lstm1_cont_slice_34_split -> cont_35_lstm1_cont_slice_34_split_0
I1018 00:09:08.778383 30096 net.cpp:380] cont_35_lstm1_cont_slice_34_split -> cont_35_lstm1_cont_slice_34_split_1
I1018 00:09:08.778414 30096 net.cpp:122] Setting up cont_35_lstm1_cont_slice_34_split
I1018 00:09:08.778419 30096 net.cpp:129] Top shape: 1 2 (2)
I1018 00:09:08.778424 30096 net.cpp:129] Top shape: 1 2 (2)
I1018 00:09:08.778429 30096 net.cpp:137] Memory required for data: 535088
I1018 00:09:08.778432 30096 layer_factory.hpp:77] Creating layer cont_36_lstm1_cont_slice_35_split
I1018 00:09:08.778437 30096 net.cpp:84] Creating Layer cont_36_lstm1_cont_slice_35_split
I1018 00:09:08.778441 30096 net.cpp:406] cont_36_lstm1_cont_slice_35_split <- cont_36
I1018 00:09:08.778447 30096 net.cpp:380] cont_36_lstm1_cont_slice_35_split -> cont_36_lstm1_cont_slice_35_split_0
I1018 00:09:08.778453 30096 net.cpp:380] cont_36_lstm1_cont_slice_35_split -> cont_36_lstm1_cont_slice_35_split_1
I1018 00:09:08.778483 30096 net.cpp:122] Setting up cont_36_lstm1_cont_slice_35_split
I1018 00:09:08.778489 30096 net.cpp:129] Top shape: 1 2 (2)
I1018 00:09:08.778494 30096 net.cpp:129] Top shape: 1 2 (2)
I1018 00:09:08.778498 30096 net.cpp:137] Memory required for data: 535104
I1018 00:09:08.778502 30096 layer_factory.hpp:77] Creating layer cont_37_lstm1_cont_slice_36_split
I1018 00:09:08.778507 30096 net.cpp:84] Creating Layer cont_37_lstm1_cont_slice_36_split
I1018 00:09:08.778512 30096 net.cpp:406] cont_37_lstm1_cont_slice_36_split <- cont_37
I1018 00:09:08.778518 30096 net.cpp:380] cont_37_lstm1_cont_slice_36_split -> cont_37_lstm1_cont_slice_36_split_0
I1018 00:09:08.778525 30096 net.cpp:380] cont_37_lstm1_cont_slice_36_split -> cont_37_lstm1_cont_slice_36_split_1
I1018 00:09:08.778553 30096 net.cpp:122] Setting up cont_37_lstm1_cont_slice_36_split
I1018 00:09:08.778558 30096 net.cpp:129] Top shape: 1 2 (2)
I1018 00:09:08.778563 30096 net.cpp:129] Top shape: 1 2 (2)
I1018 00:09:08.778568 30096 net.cpp:137] Memory required for data: 535120
I1018 00:09:08.778571 30096 layer_factory.hpp:77] Creating layer cont_38_lstm1_cont_slice_37_split
I1018 00:09:08.778580 30096 net.cpp:84] Creating Layer cont_38_lstm1_cont_slice_37_split
I1018 00:09:08.778584 30096 net.cpp:406] cont_38_lstm1_cont_slice_37_split <- cont_38
I1018 00:09:08.778590 30096 net.cpp:380] cont_38_lstm1_cont_slice_37_split -> cont_38_lstm1_cont_slice_37_split_0
I1018 00:09:08.778596 30096 net.cpp:380] cont_38_lstm1_cont_slice_37_split -> cont_38_lstm1_cont_slice_37_split_1
I1018 00:09:08.778627 30096 net.cpp:122] Setting up cont_38_lstm1_cont_slice_37_split
I1018 00:09:08.778633 30096 net.cpp:129] Top shape: 1 2 (2)
I1018 00:09:08.778638 30096 net.cpp:129] Top shape: 1 2 (2)
I1018 00:09:08.778642 30096 net.cpp:137] Memory required for data: 535136
I1018 00:09:08.778646 30096 layer_factory.hpp:77] Creating layer cont_39_lstm1_cont_slice_38_split
I1018 00:09:08.778651 30096 net.cpp:84] Creating Layer cont_39_lstm1_cont_slice_38_split
I1018 00:09:08.778656 30096 net.cpp:406] cont_39_lstm1_cont_slice_38_split <- cont_39
I1018 00:09:08.778661 30096 net.cpp:380] cont_39_lstm1_cont_slice_38_split -> cont_39_lstm1_cont_slice_38_split_0
I1018 00:09:08.778668 30096 net.cpp:380] cont_39_lstm1_cont_slice_38_split -> cont_39_lstm1_cont_slice_38_split_1
I1018 00:09:08.778698 30096 net.cpp:122] Setting up cont_39_lstm1_cont_slice_38_split
I1018 00:09:08.778704 30096 net.cpp:129] Top shape: 1 2 (2)
I1018 00:09:08.778709 30096 net.cpp:129] Top shape: 1 2 (2)
I1018 00:09:08.778713 30096 net.cpp:137] Memory required for data: 535152
I1018 00:09:08.778717 30096 layer_factory.hpp:77] Creating layer cont_40_lstm1_cont_slice_39_split
I1018 00:09:08.778723 30096 net.cpp:84] Creating Layer cont_40_lstm1_cont_slice_39_split
I1018 00:09:08.778726 30096 net.cpp:406] cont_40_lstm1_cont_slice_39_split <- cont_40
I1018 00:09:08.778733 30096 net.cpp:380] cont_40_lstm1_cont_slice_39_split -> cont_40_lstm1_cont_slice_39_split_0
I1018 00:09:08.778739 30096 net.cpp:380] cont_40_lstm1_cont_slice_39_split -> cont_40_lstm1_cont_slice_39_split_1
I1018 00:09:08.778769 30096 net.cpp:122] Setting up cont_40_lstm1_cont_slice_39_split
I1018 00:09:08.778775 30096 net.cpp:129] Top shape: 1 2 (2)
I1018 00:09:08.778780 30096 net.cpp:129] Top shape: 1 2 (2)
I1018 00:09:08.778784 30096 net.cpp:137] Memory required for data: 535168
I1018 00:09:08.778789 30096 layer_factory.hpp:77] Creating layer cont_41_lstm1_cont_slice_40_split
I1018 00:09:08.778794 30096 net.cpp:84] Creating Layer cont_41_lstm1_cont_slice_40_split
I1018 00:09:08.778798 30096 net.cpp:406] cont_41_lstm1_cont_slice_40_split <- cont_41
I1018 00:09:08.778805 30096 net.cpp:380] cont_41_lstm1_cont_slice_40_split -> cont_41_lstm1_cont_slice_40_split_0
I1018 00:09:08.778812 30096 net.cpp:380] cont_41_lstm1_cont_slice_40_split -> cont_41_lstm1_cont_slice_40_split_1
I1018 00:09:08.778842 30096 net.cpp:122] Setting up cont_41_lstm1_cont_slice_40_split
I1018 00:09:08.778848 30096 net.cpp:129] Top shape: 1 2 (2)
I1018 00:09:08.778853 30096 net.cpp:129] Top shape: 1 2 (2)
I1018 00:09:08.778857 30096 net.cpp:137] Memory required for data: 535184
I1018 00:09:08.778861 30096 layer_factory.hpp:77] Creating layer cont_42_lstm1_cont_slice_41_split
I1018 00:09:08.778867 30096 net.cpp:84] Creating Layer cont_42_lstm1_cont_slice_41_split
I1018 00:09:08.778872 30096 net.cpp:406] cont_42_lstm1_cont_slice_41_split <- cont_42
I1018 00:09:08.778877 30096 net.cpp:380] cont_42_lstm1_cont_slice_41_split -> cont_42_lstm1_cont_slice_41_split_0
I1018 00:09:08.778883 30096 net.cpp:380] cont_42_lstm1_cont_slice_41_split -> cont_42_lstm1_cont_slice_41_split_1
I1018 00:09:08.778913 30096 net.cpp:122] Setting up cont_42_lstm1_cont_slice_41_split
I1018 00:09:08.778919 30096 net.cpp:129] Top shape: 1 2 (2)
I1018 00:09:08.778924 30096 net.cpp:129] Top shape: 1 2 (2)
I1018 00:09:08.778928 30096 net.cpp:137] Memory required for data: 535200
I1018 00:09:08.778931 30096 layer_factory.hpp:77] Creating layer cont_43_lstm1_cont_slice_42_split
I1018 00:09:08.778937 30096 net.cpp:84] Creating Layer cont_43_lstm1_cont_slice_42_split
I1018 00:09:08.778941 30096 net.cpp:406] cont_43_lstm1_cont_slice_42_split <- cont_43
I1018 00:09:08.778947 30096 net.cpp:380] cont_43_lstm1_cont_slice_42_split -> cont_43_lstm1_cont_slice_42_split_0
I1018 00:09:08.778954 30096 net.cpp:380] cont_43_lstm1_cont_slice_42_split -> cont_43_lstm1_cont_slice_42_split_1
I1018 00:09:08.778983 30096 net.cpp:122] Setting up cont_43_lstm1_cont_slice_42_split
I1018 00:09:08.778990 30096 net.cpp:129] Top shape: 1 2 (2)
I1018 00:09:08.778995 30096 net.cpp:129] Top shape: 1 2 (2)
I1018 00:09:08.778998 30096 net.cpp:137] Memory required for data: 535216
I1018 00:09:08.779002 30096 layer_factory.hpp:77] Creating layer cont_44_lstm1_cont_slice_43_split
I1018 00:09:08.779007 30096 net.cpp:84] Creating Layer cont_44_lstm1_cont_slice_43_split
I1018 00:09:08.779011 30096 net.cpp:406] cont_44_lstm1_cont_slice_43_split <- cont_44
I1018 00:09:08.779019 30096 net.cpp:380] cont_44_lstm1_cont_slice_43_split -> cont_44_lstm1_cont_slice_43_split_0
I1018 00:09:08.779026 30096 net.cpp:380] cont_44_lstm1_cont_slice_43_split -> cont_44_lstm1_cont_slice_43_split_1
I1018 00:09:08.779052 30096 net.cpp:122] Setting up cont_44_lstm1_cont_slice_43_split
I1018 00:09:08.779058 30096 net.cpp:129] Top shape: 1 2 (2)
I1018 00:09:08.779063 30096 net.cpp:129] Top shape: 1 2 (2)
I1018 00:09:08.779067 30096 net.cpp:137] Memory required for data: 535232
I1018 00:09:08.779072 30096 layer_factory.hpp:77] Creating layer cont_45_lstm1_cont_slice_44_split
I1018 00:09:08.779078 30096 net.cpp:84] Creating Layer cont_45_lstm1_cont_slice_44_split
I1018 00:09:08.779083 30096 net.cpp:406] cont_45_lstm1_cont_slice_44_split <- cont_45
I1018 00:09:08.779088 30096 net.cpp:380] cont_45_lstm1_cont_slice_44_split -> cont_45_lstm1_cont_slice_44_split_0
I1018 00:09:08.779094 30096 net.cpp:380] cont_45_lstm1_cont_slice_44_split -> cont_45_lstm1_cont_slice_44_split_1
I1018 00:09:08.779125 30096 net.cpp:122] Setting up cont_45_lstm1_cont_slice_44_split
I1018 00:09:08.779131 30096 net.cpp:129] Top shape: 1 2 (2)
I1018 00:09:08.779136 30096 net.cpp:129] Top shape: 1 2 (2)
I1018 00:09:08.779140 30096 net.cpp:137] Memory required for data: 535248
I1018 00:09:08.779145 30096 layer_factory.hpp:77] Creating layer cont_46_lstm1_cont_slice_45_split
I1018 00:09:08.779150 30096 net.cpp:84] Creating Layer cont_46_lstm1_cont_slice_45_split
I1018 00:09:08.779153 30096 net.cpp:406] cont_46_lstm1_cont_slice_45_split <- cont_46
I1018 00:09:08.779160 30096 net.cpp:380] cont_46_lstm1_cont_slice_45_split -> cont_46_lstm1_cont_slice_45_split_0
I1018 00:09:08.779165 30096 net.cpp:380] cont_46_lstm1_cont_slice_45_split -> cont_46_lstm1_cont_slice_45_split_1
I1018 00:09:08.779196 30096 net.cpp:122] Setting up cont_46_lstm1_cont_slice_45_split
I1018 00:09:08.779201 30096 net.cpp:129] Top shape: 1 2 (2)
I1018 00:09:08.779206 30096 net.cpp:129] Top shape: 1 2 (2)
I1018 00:09:08.779211 30096 net.cpp:137] Memory required for data: 535264
I1018 00:09:08.779214 30096 layer_factory.hpp:77] Creating layer cont_47_lstm1_cont_slice_46_split
I1018 00:09:08.779219 30096 net.cpp:84] Creating Layer cont_47_lstm1_cont_slice_46_split
I1018 00:09:08.779223 30096 net.cpp:406] cont_47_lstm1_cont_slice_46_split <- cont_47
I1018 00:09:08.779229 30096 net.cpp:380] cont_47_lstm1_cont_slice_46_split -> cont_47_lstm1_cont_slice_46_split_0
I1018 00:09:08.779235 30096 net.cpp:380] cont_47_lstm1_cont_slice_46_split -> cont_47_lstm1_cont_slice_46_split_1
I1018 00:09:08.779265 30096 net.cpp:122] Setting up cont_47_lstm1_cont_slice_46_split
I1018 00:09:08.779271 30096 net.cpp:129] Top shape: 1 2 (2)
I1018 00:09:08.779276 30096 net.cpp:129] Top shape: 1 2 (2)
I1018 00:09:08.779280 30096 net.cpp:137] Memory required for data: 535280
I1018 00:09:08.779284 30096 layer_factory.hpp:77] Creating layer cont_48_lstm1_cont_slice_47_split
I1018 00:09:08.779289 30096 net.cpp:84] Creating Layer cont_48_lstm1_cont_slice_47_split
I1018 00:09:08.779294 30096 net.cpp:406] cont_48_lstm1_cont_slice_47_split <- cont_48
I1018 00:09:08.779300 30096 net.cpp:380] cont_48_lstm1_cont_slice_47_split -> cont_48_lstm1_cont_slice_47_split_0
I1018 00:09:08.779307 30096 net.cpp:380] cont_48_lstm1_cont_slice_47_split -> cont_48_lstm1_cont_slice_47_split_1
I1018 00:09:08.779335 30096 net.cpp:122] Setting up cont_48_lstm1_cont_slice_47_split
I1018 00:09:08.779340 30096 net.cpp:129] Top shape: 1 2 (2)
I1018 00:09:08.779345 30096 net.cpp:129] Top shape: 1 2 (2)
I1018 00:09:08.779348 30096 net.cpp:137] Memory required for data: 535296
I1018 00:09:08.779352 30096 layer_factory.hpp:77] Creating layer cont_49_lstm1_cont_slice_48_split
I1018 00:09:08.779359 30096 net.cpp:84] Creating Layer cont_49_lstm1_cont_slice_48_split
I1018 00:09:08.779364 30096 net.cpp:406] cont_49_lstm1_cont_slice_48_split <- cont_49
I1018 00:09:08.779371 30096 net.cpp:380] cont_49_lstm1_cont_slice_48_split -> cont_49_lstm1_cont_slice_48_split_0
I1018 00:09:08.779377 30096 net.cpp:380] cont_49_lstm1_cont_slice_48_split -> cont_49_lstm1_cont_slice_48_split_1
I1018 00:09:08.779417 30096 net.cpp:122] Setting up cont_49_lstm1_cont_slice_48_split
I1018 00:09:08.779423 30096 net.cpp:129] Top shape: 1 2 (2)
I1018 00:09:08.779428 30096 net.cpp:129] Top shape: 1 2 (2)
I1018 00:09:08.779433 30096 net.cpp:137] Memory required for data: 535312
I1018 00:09:08.779436 30096 layer_factory.hpp:77] Creating layer cont_50_lstm1_cont_slice_49_split
I1018 00:09:08.779441 30096 net.cpp:84] Creating Layer cont_50_lstm1_cont_slice_49_split
I1018 00:09:08.779446 30096 net.cpp:406] cont_50_lstm1_cont_slice_49_split <- cont_50
I1018 00:09:08.779451 30096 net.cpp:380] cont_50_lstm1_cont_slice_49_split -> cont_50_lstm1_cont_slice_49_split_0
I1018 00:09:08.779458 30096 net.cpp:380] cont_50_lstm1_cont_slice_49_split -> cont_50_lstm1_cont_slice_49_split_1
I1018 00:09:08.779489 30096 net.cpp:122] Setting up cont_50_lstm1_cont_slice_49_split
I1018 00:09:08.779495 30096 net.cpp:129] Top shape: 1 2 (2)
I1018 00:09:08.779500 30096 net.cpp:129] Top shape: 1 2 (2)
I1018 00:09:08.779502 30096 net.cpp:137] Memory required for data: 535328
I1018 00:09:08.779506 30096 layer_factory.hpp:77] Creating layer cont_51_lstm1_cont_slice_50_split
I1018 00:09:08.779511 30096 net.cpp:84] Creating Layer cont_51_lstm1_cont_slice_50_split
I1018 00:09:08.779516 30096 net.cpp:406] cont_51_lstm1_cont_slice_50_split <- cont_51
I1018 00:09:08.779525 30096 net.cpp:380] cont_51_lstm1_cont_slice_50_split -> cont_51_lstm1_cont_slice_50_split_0
I1018 00:09:08.779531 30096 net.cpp:380] cont_51_lstm1_cont_slice_50_split -> cont_51_lstm1_cont_slice_50_split_1
I1018 00:09:08.779558 30096 net.cpp:122] Setting up cont_51_lstm1_cont_slice_50_split
I1018 00:09:08.779564 30096 net.cpp:129] Top shape: 1 2 (2)
I1018 00:09:08.779569 30096 net.cpp:129] Top shape: 1 2 (2)
I1018 00:09:08.779573 30096 net.cpp:137] Memory required for data: 535344
I1018 00:09:08.779577 30096 layer_factory.hpp:77] Creating layer cont_52_lstm1_cont_slice_51_split
I1018 00:09:08.779583 30096 net.cpp:84] Creating Layer cont_52_lstm1_cont_slice_51_split
I1018 00:09:08.779588 30096 net.cpp:406] cont_52_lstm1_cont_slice_51_split <- cont_52
I1018 00:09:08.779593 30096 net.cpp:380] cont_52_lstm1_cont_slice_51_split -> cont_52_lstm1_cont_slice_51_split_0
I1018 00:09:08.779600 30096 net.cpp:380] cont_52_lstm1_cont_slice_51_split -> cont_52_lstm1_cont_slice_51_split_1
I1018 00:09:08.779629 30096 net.cpp:122] Setting up cont_52_lstm1_cont_slice_51_split
I1018 00:09:08.779635 30096 net.cpp:129] Top shape: 1 2 (2)
I1018 00:09:08.779640 30096 net.cpp:129] Top shape: 1 2 (2)
I1018 00:09:08.779644 30096 net.cpp:137] Memory required for data: 535360
I1018 00:09:08.779649 30096 layer_factory.hpp:77] Creating layer cont_53_lstm1_cont_slice_52_split
I1018 00:09:08.779654 30096 net.cpp:84] Creating Layer cont_53_lstm1_cont_slice_52_split
I1018 00:09:08.779659 30096 net.cpp:406] cont_53_lstm1_cont_slice_52_split <- cont_53
I1018 00:09:08.779664 30096 net.cpp:380] cont_53_lstm1_cont_slice_52_split -> cont_53_lstm1_cont_slice_52_split_0
I1018 00:09:08.779673 30096 net.cpp:380] cont_53_lstm1_cont_slice_52_split -> cont_53_lstm1_cont_slice_52_split_1
I1018 00:09:08.779716 30096 net.cpp:122] Setting up cont_53_lstm1_cont_slice_52_split
I1018 00:09:08.779723 30096 net.cpp:129] Top shape: 1 2 (2)
I1018 00:09:08.779728 30096 net.cpp:129] Top shape: 1 2 (2)
I1018 00:09:08.779732 30096 net.cpp:137] Memory required for data: 535376
I1018 00:09:08.779736 30096 layer_factory.hpp:77] Creating layer cont_54_lstm1_cont_slice_53_split
I1018 00:09:08.779742 30096 net.cpp:84] Creating Layer cont_54_lstm1_cont_slice_53_split
I1018 00:09:08.779747 30096 net.cpp:406] cont_54_lstm1_cont_slice_53_split <- cont_54
I1018 00:09:08.779753 30096 net.cpp:380] cont_54_lstm1_cont_slice_53_split -> cont_54_lstm1_cont_slice_53_split_0
I1018 00:09:08.779759 30096 net.cpp:380] cont_54_lstm1_cont_slice_53_split -> cont_54_lstm1_cont_slice_53_split_1
I1018 00:09:08.779789 30096 net.cpp:122] Setting up cont_54_lstm1_cont_slice_53_split
I1018 00:09:08.779795 30096 net.cpp:129] Top shape: 1 2 (2)
I1018 00:09:08.779800 30096 net.cpp:129] Top shape: 1 2 (2)
I1018 00:09:08.779804 30096 net.cpp:137] Memory required for data: 535392
I1018 00:09:08.779808 30096 layer_factory.hpp:77] Creating layer cont_55_lstm1_cont_slice_54_split
I1018 00:09:08.779814 30096 net.cpp:84] Creating Layer cont_55_lstm1_cont_slice_54_split
I1018 00:09:08.779819 30096 net.cpp:406] cont_55_lstm1_cont_slice_54_split <- cont_55
I1018 00:09:08.779825 30096 net.cpp:380] cont_55_lstm1_cont_slice_54_split -> cont_55_lstm1_cont_slice_54_split_0
I1018 00:09:08.779832 30096 net.cpp:380] cont_55_lstm1_cont_slice_54_split -> cont_55_lstm1_cont_slice_54_split_1
I1018 00:09:08.779860 30096 net.cpp:122] Setting up cont_55_lstm1_cont_slice_54_split
I1018 00:09:08.779865 30096 net.cpp:129] Top shape: 1 2 (2)
I1018 00:09:08.779870 30096 net.cpp:129] Top shape: 1 2 (2)
I1018 00:09:08.779875 30096 net.cpp:137] Memory required for data: 535408
I1018 00:09:08.779878 30096 layer_factory.hpp:77] Creating layer cont_56_lstm1_cont_slice_55_split
I1018 00:09:08.779886 30096 net.cpp:84] Creating Layer cont_56_lstm1_cont_slice_55_split
I1018 00:09:08.779891 30096 net.cpp:406] cont_56_lstm1_cont_slice_55_split <- cont_56
I1018 00:09:08.779896 30096 net.cpp:380] cont_56_lstm1_cont_slice_55_split -> cont_56_lstm1_cont_slice_55_split_0
I1018 00:09:08.779901 30096 net.cpp:380] cont_56_lstm1_cont_slice_55_split -> cont_56_lstm1_cont_slice_55_split_1
I1018 00:09:08.779930 30096 net.cpp:122] Setting up cont_56_lstm1_cont_slice_55_split
I1018 00:09:08.779937 30096 net.cpp:129] Top shape: 1 2 (2)
I1018 00:09:08.779942 30096 net.cpp:129] Top shape: 1 2 (2)
I1018 00:09:08.779945 30096 net.cpp:137] Memory required for data: 535424
I1018 00:09:08.779949 30096 layer_factory.hpp:77] Creating layer cont_57_lstm1_cont_slice_56_split
I1018 00:09:08.779954 30096 net.cpp:84] Creating Layer cont_57_lstm1_cont_slice_56_split
I1018 00:09:08.779959 30096 net.cpp:406] cont_57_lstm1_cont_slice_56_split <- cont_57
I1018 00:09:08.779964 30096 net.cpp:380] cont_57_lstm1_cont_slice_56_split -> cont_57_lstm1_cont_slice_56_split_0
I1018 00:09:08.779971 30096 net.cpp:380] cont_57_lstm1_cont_slice_56_split -> cont_57_lstm1_cont_slice_56_split_1
I1018 00:09:08.780001 30096 net.cpp:122] Setting up cont_57_lstm1_cont_slice_56_split
I1018 00:09:08.780007 30096 net.cpp:129] Top shape: 1 2 (2)
I1018 00:09:08.780015 30096 net.cpp:129] Top shape: 1 2 (2)
I1018 00:09:08.780021 30096 net.cpp:137] Memory required for data: 535440
I1018 00:09:08.780038 30096 layer_factory.hpp:77] Creating layer cont_58_lstm1_cont_slice_57_split
I1018 00:09:08.780047 30096 net.cpp:84] Creating Layer cont_58_lstm1_cont_slice_57_split
I1018 00:09:08.780055 30096 net.cpp:406] cont_58_lstm1_cont_slice_57_split <- cont_58
I1018 00:09:08.780066 30096 net.cpp:380] cont_58_lstm1_cont_slice_57_split -> cont_58_lstm1_cont_slice_57_split_0
I1018 00:09:08.780076 30096 net.cpp:380] cont_58_lstm1_cont_slice_57_split -> cont_58_lstm1_cont_slice_57_split_1
I1018 00:09:08.780110 30096 net.cpp:122] Setting up cont_58_lstm1_cont_slice_57_split
I1018 00:09:08.780117 30096 net.cpp:129] Top shape: 1 2 (2)
I1018 00:09:08.780122 30096 net.cpp:129] Top shape: 1 2 (2)
I1018 00:09:08.780125 30096 net.cpp:137] Memory required for data: 535456
I1018 00:09:08.780129 30096 layer_factory.hpp:77] Creating layer cont_59_lstm1_cont_slice_58_split
I1018 00:09:08.780138 30096 net.cpp:84] Creating Layer cont_59_lstm1_cont_slice_58_split
I1018 00:09:08.780141 30096 net.cpp:406] cont_59_lstm1_cont_slice_58_split <- cont_59
I1018 00:09:08.780148 30096 net.cpp:380] cont_59_lstm1_cont_slice_58_split -> cont_59_lstm1_cont_slice_58_split_0
I1018 00:09:08.780154 30096 net.cpp:380] cont_59_lstm1_cont_slice_58_split -> cont_59_lstm1_cont_slice_58_split_1
I1018 00:09:08.780184 30096 net.cpp:122] Setting up cont_59_lstm1_cont_slice_58_split
I1018 00:09:08.780191 30096 net.cpp:129] Top shape: 1 2 (2)
I1018 00:09:08.780195 30096 net.cpp:129] Top shape: 1 2 (2)
I1018 00:09:08.780200 30096 net.cpp:137] Memory required for data: 535472
I1018 00:09:08.780203 30096 layer_factory.hpp:77] Creating layer cont_60_lstm1_cont_slice_59_split
I1018 00:09:08.780208 30096 net.cpp:84] Creating Layer cont_60_lstm1_cont_slice_59_split
I1018 00:09:08.780213 30096 net.cpp:406] cont_60_lstm1_cont_slice_59_split <- cont_60
I1018 00:09:08.780220 30096 net.cpp:380] cont_60_lstm1_cont_slice_59_split -> cont_60_lstm1_cont_slice_59_split_0
I1018 00:09:08.780225 30096 net.cpp:380] cont_60_lstm1_cont_slice_59_split -> cont_60_lstm1_cont_slice_59_split_1
I1018 00:09:08.780256 30096 net.cpp:122] Setting up cont_60_lstm1_cont_slice_59_split
I1018 00:09:08.780262 30096 net.cpp:129] Top shape: 1 2 (2)
I1018 00:09:08.780267 30096 net.cpp:129] Top shape: 1 2 (2)
I1018 00:09:08.780270 30096 net.cpp:137] Memory required for data: 535488
I1018 00:09:08.780274 30096 layer_factory.hpp:77] Creating layer cont_61_lstm1_cont_slice_60_split
I1018 00:09:08.780279 30096 net.cpp:84] Creating Layer cont_61_lstm1_cont_slice_60_split
I1018 00:09:08.780284 30096 net.cpp:406] cont_61_lstm1_cont_slice_60_split <- cont_61
I1018 00:09:08.780289 30096 net.cpp:380] cont_61_lstm1_cont_slice_60_split -> cont_61_lstm1_cont_slice_60_split_0
I1018 00:09:08.780297 30096 net.cpp:380] cont_61_lstm1_cont_slice_60_split -> cont_61_lstm1_cont_slice_60_split_1
I1018 00:09:08.780325 30096 net.cpp:122] Setting up cont_61_lstm1_cont_slice_60_split
I1018 00:09:08.780331 30096 net.cpp:129] Top shape: 1 2 (2)
I1018 00:09:08.780336 30096 net.cpp:129] Top shape: 1 2 (2)
I1018 00:09:08.780340 30096 net.cpp:137] Memory required for data: 535504
I1018 00:09:08.780344 30096 layer_factory.hpp:77] Creating layer cont_62_lstm1_cont_slice_61_split
I1018 00:09:08.780355 30096 net.cpp:84] Creating Layer cont_62_lstm1_cont_slice_61_split
I1018 00:09:08.780360 30096 net.cpp:406] cont_62_lstm1_cont_slice_61_split <- cont_62
I1018 00:09:08.780366 30096 net.cpp:380] cont_62_lstm1_cont_slice_61_split -> cont_62_lstm1_cont_slice_61_split_0
I1018 00:09:08.780374 30096 net.cpp:380] cont_62_lstm1_cont_slice_61_split -> cont_62_lstm1_cont_slice_61_split_1
I1018 00:09:08.780403 30096 net.cpp:122] Setting up cont_62_lstm1_cont_slice_61_split
I1018 00:09:08.780409 30096 net.cpp:129] Top shape: 1 2 (2)
I1018 00:09:08.780414 30096 net.cpp:129] Top shape: 1 2 (2)
I1018 00:09:08.780418 30096 net.cpp:137] Memory required for data: 535520
I1018 00:09:08.780426 30096 layer_factory.hpp:77] Creating layer cont_63_lstm1_cont_slice_62_split
I1018 00:09:08.780431 30096 net.cpp:84] Creating Layer cont_63_lstm1_cont_slice_62_split
I1018 00:09:08.780436 30096 net.cpp:406] cont_63_lstm1_cont_slice_62_split <- cont_63
I1018 00:09:08.780441 30096 net.cpp:380] cont_63_lstm1_cont_slice_62_split -> cont_63_lstm1_cont_slice_62_split_0
I1018 00:09:08.780465 30096 net.cpp:380] cont_63_lstm1_cont_slice_62_split -> cont_63_lstm1_cont_slice_62_split_1
I1018 00:09:08.780500 30096 net.cpp:122] Setting up cont_63_lstm1_cont_slice_62_split
I1018 00:09:08.780508 30096 net.cpp:129] Top shape: 1 2 (2)
I1018 00:09:08.780513 30096 net.cpp:129] Top shape: 1 2 (2)
I1018 00:09:08.780516 30096 net.cpp:137] Memory required for data: 535536
I1018 00:09:08.780520 30096 layer_factory.hpp:77] Creating layer cont_64_lstm1_cont_slice_63_split
I1018 00:09:08.780525 30096 net.cpp:84] Creating Layer cont_64_lstm1_cont_slice_63_split
I1018 00:09:08.780530 30096 net.cpp:406] cont_64_lstm1_cont_slice_63_split <- cont_64
I1018 00:09:08.780536 30096 net.cpp:380] cont_64_lstm1_cont_slice_63_split -> cont_64_lstm1_cont_slice_63_split_0
I1018 00:09:08.780544 30096 net.cpp:380] cont_64_lstm1_cont_slice_63_split -> cont_64_lstm1_cont_slice_63_split_1
I1018 00:09:08.780573 30096 net.cpp:122] Setting up cont_64_lstm1_cont_slice_63_split
I1018 00:09:08.780580 30096 net.cpp:129] Top shape: 1 2 (2)
I1018 00:09:08.780585 30096 net.cpp:129] Top shape: 1 2 (2)
I1018 00:09:08.780589 30096 net.cpp:137] Memory required for data: 535552
I1018 00:09:08.780593 30096 layer_factory.hpp:77] Creating layer cont_65_lstm1_cont_slice_64_split
I1018 00:09:08.780598 30096 net.cpp:84] Creating Layer cont_65_lstm1_cont_slice_64_split
I1018 00:09:08.780602 30096 net.cpp:406] cont_65_lstm1_cont_slice_64_split <- cont_65
I1018 00:09:08.780614 30096 net.cpp:380] cont_65_lstm1_cont_slice_64_split -> cont_65_lstm1_cont_slice_64_split_0
I1018 00:09:08.780622 30096 net.cpp:380] cont_65_lstm1_cont_slice_64_split -> cont_65_lstm1_cont_slice_64_split_1
I1018 00:09:08.780649 30096 net.cpp:122] Setting up cont_65_lstm1_cont_slice_64_split
I1018 00:09:08.780655 30096 net.cpp:129] Top shape: 1 2 (2)
I1018 00:09:08.780660 30096 net.cpp:129] Top shape: 1 2 (2)
I1018 00:09:08.780664 30096 net.cpp:137] Memory required for data: 535568
I1018 00:09:08.780668 30096 layer_factory.hpp:77] Creating layer cont_66_lstm1_cont_slice_65_split
I1018 00:09:08.780675 30096 net.cpp:84] Creating Layer cont_66_lstm1_cont_slice_65_split
I1018 00:09:08.780680 30096 net.cpp:406] cont_66_lstm1_cont_slice_65_split <- cont_66
I1018 00:09:08.780685 30096 net.cpp:380] cont_66_lstm1_cont_slice_65_split -> cont_66_lstm1_cont_slice_65_split_0
I1018 00:09:08.780692 30096 net.cpp:380] cont_66_lstm1_cont_slice_65_split -> cont_66_lstm1_cont_slice_65_split_1
I1018 00:09:08.780722 30096 net.cpp:122] Setting up cont_66_lstm1_cont_slice_65_split
I1018 00:09:08.780728 30096 net.cpp:129] Top shape: 1 2 (2)
I1018 00:09:08.780733 30096 net.cpp:129] Top shape: 1 2 (2)
I1018 00:09:08.780737 30096 net.cpp:137] Memory required for data: 535584
I1018 00:09:08.780741 30096 layer_factory.hpp:77] Creating layer cont_67_lstm1_cont_slice_66_split
I1018 00:09:08.780746 30096 net.cpp:84] Creating Layer cont_67_lstm1_cont_slice_66_split
I1018 00:09:08.780750 30096 net.cpp:406] cont_67_lstm1_cont_slice_66_split <- cont_67
I1018 00:09:08.780756 30096 net.cpp:380] cont_67_lstm1_cont_slice_66_split -> cont_67_lstm1_cont_slice_66_split_0
I1018 00:09:08.780762 30096 net.cpp:380] cont_67_lstm1_cont_slice_66_split -> cont_67_lstm1_cont_slice_66_split_1
I1018 00:09:08.780794 30096 net.cpp:122] Setting up cont_67_lstm1_cont_slice_66_split
I1018 00:09:08.780799 30096 net.cpp:129] Top shape: 1 2 (2)
I1018 00:09:08.780804 30096 net.cpp:129] Top shape: 1 2 (2)
I1018 00:09:08.780808 30096 net.cpp:137] Memory required for data: 535600
I1018 00:09:08.780812 30096 layer_factory.hpp:77] Creating layer cont_68_lstm1_cont_slice_67_split
I1018 00:09:08.780817 30096 net.cpp:84] Creating Layer cont_68_lstm1_cont_slice_67_split
I1018 00:09:08.780822 30096 net.cpp:406] cont_68_lstm1_cont_slice_67_split <- cont_68
I1018 00:09:08.780827 30096 net.cpp:380] cont_68_lstm1_cont_slice_67_split -> cont_68_lstm1_cont_slice_67_split_0
I1018 00:09:08.780836 30096 net.cpp:380] cont_68_lstm1_cont_slice_67_split -> cont_68_lstm1_cont_slice_67_split_1
I1018 00:09:08.780864 30096 net.cpp:122] Setting up cont_68_lstm1_cont_slice_67_split
I1018 00:09:08.780870 30096 net.cpp:129] Top shape: 1 2 (2)
I1018 00:09:08.780875 30096 net.cpp:129] Top shape: 1 2 (2)
I1018 00:09:08.780879 30096 net.cpp:137] Memory required for data: 535616
I1018 00:09:08.780884 30096 layer_factory.hpp:77] Creating layer cont_69_lstm1_cont_slice_68_split
I1018 00:09:08.780889 30096 net.cpp:84] Creating Layer cont_69_lstm1_cont_slice_68_split
I1018 00:09:08.780892 30096 net.cpp:406] cont_69_lstm1_cont_slice_68_split <- cont_69
I1018 00:09:08.780900 30096 net.cpp:380] cont_69_lstm1_cont_slice_68_split -> cont_69_lstm1_cont_slice_68_split_0
I1018 00:09:08.780907 30096 net.cpp:380] cont_69_lstm1_cont_slice_68_split -> cont_69_lstm1_cont_slice_68_split_1
I1018 00:09:08.780937 30096 net.cpp:122] Setting up cont_69_lstm1_cont_slice_68_split
I1018 00:09:08.780943 30096 net.cpp:129] Top shape: 1 2 (2)
I1018 00:09:08.780948 30096 net.cpp:129] Top shape: 1 2 (2)
I1018 00:09:08.780952 30096 net.cpp:137] Memory required for data: 535632
I1018 00:09:08.780957 30096 layer_factory.hpp:77] Creating layer cont_70_lstm1_cont_slice_69_split
I1018 00:09:08.780961 30096 net.cpp:84] Creating Layer cont_70_lstm1_cont_slice_69_split
I1018 00:09:08.780966 30096 net.cpp:406] cont_70_lstm1_cont_slice_69_split <- cont_70
I1018 00:09:08.780972 30096 net.cpp:380] cont_70_lstm1_cont_slice_69_split -> cont_70_lstm1_cont_slice_69_split_0
I1018 00:09:08.780978 30096 net.cpp:380] cont_70_lstm1_cont_slice_69_split -> cont_70_lstm1_cont_slice_69_split_1
I1018 00:09:08.781008 30096 net.cpp:122] Setting up cont_70_lstm1_cont_slice_69_split
I1018 00:09:08.781014 30096 net.cpp:129] Top shape: 1 2 (2)
I1018 00:09:08.781019 30096 net.cpp:129] Top shape: 1 2 (2)
I1018 00:09:08.781023 30096 net.cpp:137] Memory required for data: 535648
I1018 00:09:08.781028 30096 layer_factory.hpp:77] Creating layer cont_71_lstm1_cont_slice_70_split
I1018 00:09:08.781033 30096 net.cpp:84] Creating Layer cont_71_lstm1_cont_slice_70_split
I1018 00:09:08.781036 30096 net.cpp:406] cont_71_lstm1_cont_slice_70_split <- cont_71
I1018 00:09:08.781042 30096 net.cpp:380] cont_71_lstm1_cont_slice_70_split -> cont_71_lstm1_cont_slice_70_split_0
I1018 00:09:08.781049 30096 net.cpp:380] cont_71_lstm1_cont_slice_70_split -> cont_71_lstm1_cont_slice_70_split_1
I1018 00:09:08.781078 30096 net.cpp:122] Setting up cont_71_lstm1_cont_slice_70_split
I1018 00:09:08.781085 30096 net.cpp:129] Top shape: 1 2 (2)
I1018 00:09:08.781090 30096 net.cpp:129] Top shape: 1 2 (2)
I1018 00:09:08.781093 30096 net.cpp:137] Memory required for data: 535664
I1018 00:09:08.781097 30096 layer_factory.hpp:77] Creating layer cont_72_lstm1_cont_slice_71_split
I1018 00:09:08.781102 30096 net.cpp:84] Creating Layer cont_72_lstm1_cont_slice_71_split
I1018 00:09:08.781107 30096 net.cpp:406] cont_72_lstm1_cont_slice_71_split <- cont_72
I1018 00:09:08.781116 30096 net.cpp:380] cont_72_lstm1_cont_slice_71_split -> cont_72_lstm1_cont_slice_71_split_0
I1018 00:09:08.781123 30096 net.cpp:380] cont_72_lstm1_cont_slice_71_split -> cont_72_lstm1_cont_slice_71_split_1
I1018 00:09:08.781150 30096 net.cpp:122] Setting up cont_72_lstm1_cont_slice_71_split
I1018 00:09:08.781157 30096 net.cpp:129] Top shape: 1 2 (2)
I1018 00:09:08.781162 30096 net.cpp:129] Top shape: 1 2 (2)
I1018 00:09:08.781165 30096 net.cpp:137] Memory required for data: 535680
I1018 00:09:08.781169 30096 layer_factory.hpp:77] Creating layer cont_73_lstm1_cont_slice_72_split
I1018 00:09:08.781177 30096 net.cpp:84] Creating Layer cont_73_lstm1_cont_slice_72_split
I1018 00:09:08.781182 30096 net.cpp:406] cont_73_lstm1_cont_slice_72_split <- cont_73
I1018 00:09:08.781186 30096 net.cpp:380] cont_73_lstm1_cont_slice_72_split -> cont_73_lstm1_cont_slice_72_split_0
I1018 00:09:08.781193 30096 net.cpp:380] cont_73_lstm1_cont_slice_72_split -> cont_73_lstm1_cont_slice_72_split_1
I1018 00:09:08.781222 30096 net.cpp:122] Setting up cont_73_lstm1_cont_slice_72_split
I1018 00:09:08.781229 30096 net.cpp:129] Top shape: 1 2 (2)
I1018 00:09:08.781234 30096 net.cpp:129] Top shape: 1 2 (2)
I1018 00:09:08.781237 30096 net.cpp:137] Memory required for data: 535696
I1018 00:09:08.781241 30096 layer_factory.hpp:77] Creating layer cont_74_lstm1_cont_slice_73_split
I1018 00:09:08.781246 30096 net.cpp:84] Creating Layer cont_74_lstm1_cont_slice_73_split
I1018 00:09:08.781251 30096 net.cpp:406] cont_74_lstm1_cont_slice_73_split <- cont_74
I1018 00:09:08.781257 30096 net.cpp:380] cont_74_lstm1_cont_slice_73_split -> cont_74_lstm1_cont_slice_73_split_0
I1018 00:09:08.781263 30096 net.cpp:380] cont_74_lstm1_cont_slice_73_split -> cont_74_lstm1_cont_slice_73_split_1
I1018 00:09:08.781293 30096 net.cpp:122] Setting up cont_74_lstm1_cont_slice_73_split
I1018 00:09:08.781299 30096 net.cpp:129] Top shape: 1 2 (2)
I1018 00:09:08.781304 30096 net.cpp:129] Top shape: 1 2 (2)
I1018 00:09:08.781308 30096 net.cpp:137] Memory required for data: 535712
I1018 00:09:08.781312 30096 layer_factory.hpp:77] Creating layer cont_75_lstm1_cont_slice_74_split
I1018 00:09:08.781317 30096 net.cpp:84] Creating Layer cont_75_lstm1_cont_slice_74_split
I1018 00:09:08.781322 30096 net.cpp:406] cont_75_lstm1_cont_slice_74_split <- cont_75
I1018 00:09:08.781327 30096 net.cpp:380] cont_75_lstm1_cont_slice_74_split -> cont_75_lstm1_cont_slice_74_split_0
I1018 00:09:08.781334 30096 net.cpp:380] cont_75_lstm1_cont_slice_74_split -> cont_75_lstm1_cont_slice_74_split_1
I1018 00:09:08.781363 30096 net.cpp:122] Setting up cont_75_lstm1_cont_slice_74_split
I1018 00:09:08.781369 30096 net.cpp:129] Top shape: 1 2 (2)
I1018 00:09:08.781374 30096 net.cpp:129] Top shape: 1 2 (2)
I1018 00:09:08.781378 30096 net.cpp:137] Memory required for data: 535728
I1018 00:09:08.781383 30096 layer_factory.hpp:77] Creating layer cont_76_lstm1_cont_slice_75_split
I1018 00:09:08.781388 30096 net.cpp:84] Creating Layer cont_76_lstm1_cont_slice_75_split
I1018 00:09:08.781392 30096 net.cpp:406] cont_76_lstm1_cont_slice_75_split <- cont_76
I1018 00:09:08.781399 30096 net.cpp:380] cont_76_lstm1_cont_slice_75_split -> cont_76_lstm1_cont_slice_75_split_0
I1018 00:09:08.781406 30096 net.cpp:380] cont_76_lstm1_cont_slice_75_split -> cont_76_lstm1_cont_slice_75_split_1
I1018 00:09:08.781433 30096 net.cpp:122] Setting up cont_76_lstm1_cont_slice_75_split
I1018 00:09:08.781441 30096 net.cpp:129] Top shape: 1 2 (2)
I1018 00:09:08.781446 30096 net.cpp:129] Top shape: 1 2 (2)
I1018 00:09:08.781450 30096 net.cpp:137] Memory required for data: 535744
I1018 00:09:08.781455 30096 layer_factory.hpp:77] Creating layer cont_77_lstm1_cont_slice_76_split
I1018 00:09:08.781460 30096 net.cpp:84] Creating Layer cont_77_lstm1_cont_slice_76_split
I1018 00:09:08.781463 30096 net.cpp:406] cont_77_lstm1_cont_slice_76_split <- cont_77
I1018 00:09:08.781469 30096 net.cpp:380] cont_77_lstm1_cont_slice_76_split -> cont_77_lstm1_cont_slice_76_split_0
I1018 00:09:08.781476 30096 net.cpp:380] cont_77_lstm1_cont_slice_76_split -> cont_77_lstm1_cont_slice_76_split_1
I1018 00:09:08.781505 30096 net.cpp:122] Setting up cont_77_lstm1_cont_slice_76_split
I1018 00:09:08.781512 30096 net.cpp:129] Top shape: 1 2 (2)
I1018 00:09:08.781517 30096 net.cpp:129] Top shape: 1 2 (2)
I1018 00:09:08.781520 30096 net.cpp:137] Memory required for data: 535760
I1018 00:09:08.781524 30096 layer_factory.hpp:77] Creating layer cont_78_lstm1_cont_slice_77_split
I1018 00:09:08.781529 30096 net.cpp:84] Creating Layer cont_78_lstm1_cont_slice_77_split
I1018 00:09:08.781533 30096 net.cpp:406] cont_78_lstm1_cont_slice_77_split <- cont_78
I1018 00:09:08.781539 30096 net.cpp:380] cont_78_lstm1_cont_slice_77_split -> cont_78_lstm1_cont_slice_77_split_0
I1018 00:09:08.781546 30096 net.cpp:380] cont_78_lstm1_cont_slice_77_split -> cont_78_lstm1_cont_slice_77_split_1
I1018 00:09:08.781576 30096 net.cpp:122] Setting up cont_78_lstm1_cont_slice_77_split
I1018 00:09:08.781582 30096 net.cpp:129] Top shape: 1 2 (2)
I1018 00:09:08.781587 30096 net.cpp:129] Top shape: 1 2 (2)
I1018 00:09:08.781591 30096 net.cpp:137] Memory required for data: 535776
I1018 00:09:08.781595 30096 layer_factory.hpp:77] Creating layer cont_79_lstm1_cont_slice_78_split
I1018 00:09:08.781600 30096 net.cpp:84] Creating Layer cont_79_lstm1_cont_slice_78_split
I1018 00:09:08.781605 30096 net.cpp:406] cont_79_lstm1_cont_slice_78_split <- cont_79
I1018 00:09:08.781612 30096 net.cpp:380] cont_79_lstm1_cont_slice_78_split -> cont_79_lstm1_cont_slice_78_split_0
I1018 00:09:08.781618 30096 net.cpp:380] cont_79_lstm1_cont_slice_78_split -> cont_79_lstm1_cont_slice_78_split_1
I1018 00:09:08.781646 30096 net.cpp:122] Setting up cont_79_lstm1_cont_slice_78_split
I1018 00:09:08.781652 30096 net.cpp:129] Top shape: 1 2 (2)
I1018 00:09:08.781657 30096 net.cpp:129] Top shape: 1 2 (2)
I1018 00:09:08.781661 30096 net.cpp:137] Memory required for data: 535792
I1018 00:09:08.781664 30096 layer_factory.hpp:77] Creating layer cont_80_lstm1_cont_slice_79_split
I1018 00:09:08.781672 30096 net.cpp:84] Creating Layer cont_80_lstm1_cont_slice_79_split
I1018 00:09:08.781677 30096 net.cpp:406] cont_80_lstm1_cont_slice_79_split <- cont_80
I1018 00:09:08.781682 30096 net.cpp:380] cont_80_lstm1_cont_slice_79_split -> cont_80_lstm1_cont_slice_79_split_0
I1018 00:09:08.781688 30096 net.cpp:380] cont_80_lstm1_cont_slice_79_split -> cont_80_lstm1_cont_slice_79_split_1
I1018 00:09:08.781719 30096 net.cpp:122] Setting up cont_80_lstm1_cont_slice_79_split
I1018 00:09:08.781725 30096 net.cpp:129] Top shape: 1 2 (2)
I1018 00:09:08.781730 30096 net.cpp:129] Top shape: 1 2 (2)
I1018 00:09:08.781734 30096 net.cpp:137] Memory required for data: 535808
I1018 00:09:08.781738 30096 layer_factory.hpp:77] Creating layer cont_81_lstm1_cont_slice_80_split
I1018 00:09:08.781744 30096 net.cpp:84] Creating Layer cont_81_lstm1_cont_slice_80_split
I1018 00:09:08.781749 30096 net.cpp:406] cont_81_lstm1_cont_slice_80_split <- cont_81
I1018 00:09:08.781754 30096 net.cpp:380] cont_81_lstm1_cont_slice_80_split -> cont_81_lstm1_cont_slice_80_split_0
I1018 00:09:08.781760 30096 net.cpp:380] cont_81_lstm1_cont_slice_80_split -> cont_81_lstm1_cont_slice_80_split_1
I1018 00:09:08.781790 30096 net.cpp:122] Setting up cont_81_lstm1_cont_slice_80_split
I1018 00:09:08.781796 30096 net.cpp:129] Top shape: 1 2 (2)
I1018 00:09:08.781801 30096 net.cpp:129] Top shape: 1 2 (2)
I1018 00:09:08.781805 30096 net.cpp:137] Memory required for data: 535824
I1018 00:09:08.781810 30096 layer_factory.hpp:77] Creating layer cont_82_lstm1_cont_slice_81_split
I1018 00:09:08.781814 30096 net.cpp:84] Creating Layer cont_82_lstm1_cont_slice_81_split
I1018 00:09:08.781818 30096 net.cpp:406] cont_82_lstm1_cont_slice_81_split <- cont_82
I1018 00:09:08.781824 30096 net.cpp:380] cont_82_lstm1_cont_slice_81_split -> cont_82_lstm1_cont_slice_81_split_0
I1018 00:09:08.781831 30096 net.cpp:380] cont_82_lstm1_cont_slice_81_split -> cont_82_lstm1_cont_slice_81_split_1
I1018 00:09:08.781862 30096 net.cpp:122] Setting up cont_82_lstm1_cont_slice_81_split
I1018 00:09:08.781867 30096 net.cpp:129] Top shape: 1 2 (2)
I1018 00:09:08.781872 30096 net.cpp:129] Top shape: 1 2 (2)
I1018 00:09:08.781877 30096 net.cpp:137] Memory required for data: 535840
I1018 00:09:08.781880 30096 layer_factory.hpp:77] Creating layer cont_83_lstm1_cont_slice_82_split
I1018 00:09:08.781885 30096 net.cpp:84] Creating Layer cont_83_lstm1_cont_slice_82_split
I1018 00:09:08.781889 30096 net.cpp:406] cont_83_lstm1_cont_slice_82_split <- cont_83
I1018 00:09:08.781898 30096 net.cpp:380] cont_83_lstm1_cont_slice_82_split -> cont_83_lstm1_cont_slice_82_split_0
I1018 00:09:08.781903 30096 net.cpp:380] cont_83_lstm1_cont_slice_82_split -> cont_83_lstm1_cont_slice_82_split_1
I1018 00:09:08.781931 30096 net.cpp:122] Setting up cont_83_lstm1_cont_slice_82_split
I1018 00:09:08.781937 30096 net.cpp:129] Top shape: 1 2 (2)
I1018 00:09:08.781942 30096 net.cpp:129] Top shape: 1 2 (2)
I1018 00:09:08.781946 30096 net.cpp:137] Memory required for data: 535856
I1018 00:09:08.781950 30096 layer_factory.hpp:77] Creating layer cont_84_lstm1_cont_slice_83_split
I1018 00:09:08.781957 30096 net.cpp:84] Creating Layer cont_84_lstm1_cont_slice_83_split
I1018 00:09:08.781961 30096 net.cpp:406] cont_84_lstm1_cont_slice_83_split <- cont_84
I1018 00:09:08.781967 30096 net.cpp:380] cont_84_lstm1_cont_slice_83_split -> cont_84_lstm1_cont_slice_83_split_0
I1018 00:09:08.781973 30096 net.cpp:380] cont_84_lstm1_cont_slice_83_split -> cont_84_lstm1_cont_slice_83_split_1
I1018 00:09:08.782003 30096 net.cpp:122] Setting up cont_84_lstm1_cont_slice_83_split
I1018 00:09:08.782009 30096 net.cpp:129] Top shape: 1 2 (2)
I1018 00:09:08.782014 30096 net.cpp:129] Top shape: 1 2 (2)
I1018 00:09:08.782018 30096 net.cpp:137] Memory required for data: 535872
I1018 00:09:08.782022 30096 layer_factory.hpp:77] Creating layer cont_85_lstm1_cont_slice_84_split
I1018 00:09:08.782027 30096 net.cpp:84] Creating Layer cont_85_lstm1_cont_slice_84_split
I1018 00:09:08.782032 30096 net.cpp:406] cont_85_lstm1_cont_slice_84_split <- cont_85
I1018 00:09:08.782037 30096 net.cpp:380] cont_85_lstm1_cont_slice_84_split -> cont_85_lstm1_cont_slice_84_split_0
I1018 00:09:08.782044 30096 net.cpp:380] cont_85_lstm1_cont_slice_84_split -> cont_85_lstm1_cont_slice_84_split_1
I1018 00:09:08.782073 30096 net.cpp:122] Setting up cont_85_lstm1_cont_slice_84_split
I1018 00:09:08.782079 30096 net.cpp:129] Top shape: 1 2 (2)
I1018 00:09:08.782084 30096 net.cpp:129] Top shape: 1 2 (2)
I1018 00:09:08.782088 30096 net.cpp:137] Memory required for data: 535888
I1018 00:09:08.782093 30096 layer_factory.hpp:77] Creating layer cont_86_lstm1_cont_slice_85_split
I1018 00:09:08.782097 30096 net.cpp:84] Creating Layer cont_86_lstm1_cont_slice_85_split
I1018 00:09:08.782102 30096 net.cpp:406] cont_86_lstm1_cont_slice_85_split <- cont_86
I1018 00:09:08.782107 30096 net.cpp:380] cont_86_lstm1_cont_slice_85_split -> cont_86_lstm1_cont_slice_85_split_0
I1018 00:09:08.782116 30096 net.cpp:380] cont_86_lstm1_cont_slice_85_split -> cont_86_lstm1_cont_slice_85_split_1
I1018 00:09:08.782143 30096 net.cpp:122] Setting up cont_86_lstm1_cont_slice_85_split
I1018 00:09:08.782150 30096 net.cpp:129] Top shape: 1 2 (2)
I1018 00:09:08.782155 30096 net.cpp:129] Top shape: 1 2 (2)
I1018 00:09:08.782158 30096 net.cpp:137] Memory required for data: 535904
I1018 00:09:08.782162 30096 layer_factory.hpp:77] Creating layer cont_87_lstm1_cont_slice_86_split
I1018 00:09:08.782169 30096 net.cpp:84] Creating Layer cont_87_lstm1_cont_slice_86_split
I1018 00:09:08.782173 30096 net.cpp:406] cont_87_lstm1_cont_slice_86_split <- cont_87
I1018 00:09:08.782179 30096 net.cpp:380] cont_87_lstm1_cont_slice_86_split -> cont_87_lstm1_cont_slice_86_split_0
I1018 00:09:08.782186 30096 net.cpp:380] cont_87_lstm1_cont_slice_86_split -> cont_87_lstm1_cont_slice_86_split_1
I1018 00:09:08.782215 30096 net.cpp:122] Setting up cont_87_lstm1_cont_slice_86_split
I1018 00:09:08.782222 30096 net.cpp:129] Top shape: 1 2 (2)
I1018 00:09:08.782227 30096 net.cpp:129] Top shape: 1 2 (2)
I1018 00:09:08.782230 30096 net.cpp:137] Memory required for data: 535920
I1018 00:09:08.782234 30096 layer_factory.hpp:77] Creating layer cont_88_lstm1_cont_slice_87_split
I1018 00:09:08.782239 30096 net.cpp:84] Creating Layer cont_88_lstm1_cont_slice_87_split
I1018 00:09:08.782243 30096 net.cpp:406] cont_88_lstm1_cont_slice_87_split <- cont_88
I1018 00:09:08.782249 30096 net.cpp:380] cont_88_lstm1_cont_slice_87_split -> cont_88_lstm1_cont_slice_87_split_0
I1018 00:09:08.782255 30096 net.cpp:380] cont_88_lstm1_cont_slice_87_split -> cont_88_lstm1_cont_slice_87_split_1
I1018 00:09:08.782287 30096 net.cpp:122] Setting up cont_88_lstm1_cont_slice_87_split
I1018 00:09:08.782294 30096 net.cpp:129] Top shape: 1 2 (2)
I1018 00:09:08.782299 30096 net.cpp:129] Top shape: 1 2 (2)
I1018 00:09:08.782302 30096 net.cpp:137] Memory required for data: 535936
I1018 00:09:08.782306 30096 layer_factory.hpp:77] Creating layer cont_89_lstm1_cont_slice_88_split
I1018 00:09:08.782311 30096 net.cpp:84] Creating Layer cont_89_lstm1_cont_slice_88_split
I1018 00:09:08.782316 30096 net.cpp:406] cont_89_lstm1_cont_slice_88_split <- cont_89
I1018 00:09:08.782322 30096 net.cpp:380] cont_89_lstm1_cont_slice_88_split -> cont_89_lstm1_cont_slice_88_split_0
I1018 00:09:08.782328 30096 net.cpp:380] cont_89_lstm1_cont_slice_88_split -> cont_89_lstm1_cont_slice_88_split_1
I1018 00:09:08.782359 30096 net.cpp:122] Setting up cont_89_lstm1_cont_slice_88_split
I1018 00:09:08.782366 30096 net.cpp:129] Top shape: 1 2 (2)
I1018 00:09:08.782371 30096 net.cpp:129] Top shape: 1 2 (2)
I1018 00:09:08.782374 30096 net.cpp:137] Memory required for data: 535952
I1018 00:09:08.782378 30096 layer_factory.hpp:77] Creating layer cont_90_lstm1_cont_slice_89_split
I1018 00:09:08.782383 30096 net.cpp:84] Creating Layer cont_90_lstm1_cont_slice_89_split
I1018 00:09:08.782387 30096 net.cpp:406] cont_90_lstm1_cont_slice_89_split <- cont_90
I1018 00:09:08.782395 30096 net.cpp:380] cont_90_lstm1_cont_slice_89_split -> cont_90_lstm1_cont_slice_89_split_0
I1018 00:09:08.782402 30096 net.cpp:380] cont_90_lstm1_cont_slice_89_split -> cont_90_lstm1_cont_slice_89_split_1
I1018 00:09:08.782430 30096 net.cpp:122] Setting up cont_90_lstm1_cont_slice_89_split
I1018 00:09:08.782436 30096 net.cpp:129] Top shape: 1 2 (2)
I1018 00:09:08.782441 30096 net.cpp:129] Top shape: 1 2 (2)
I1018 00:09:08.782445 30096 net.cpp:137] Memory required for data: 535968
I1018 00:09:08.782449 30096 layer_factory.hpp:77] Creating layer cont_91_lstm1_cont_slice_90_split
I1018 00:09:08.782455 30096 net.cpp:84] Creating Layer cont_91_lstm1_cont_slice_90_split
I1018 00:09:08.782460 30096 net.cpp:406] cont_91_lstm1_cont_slice_90_split <- cont_91
I1018 00:09:08.782466 30096 net.cpp:380] cont_91_lstm1_cont_slice_90_split -> cont_91_lstm1_cont_slice_90_split_0
I1018 00:09:08.782472 30096 net.cpp:380] cont_91_lstm1_cont_slice_90_split -> cont_91_lstm1_cont_slice_90_split_1
I1018 00:09:08.782503 30096 net.cpp:122] Setting up cont_91_lstm1_cont_slice_90_split
I1018 00:09:08.782510 30096 net.cpp:129] Top shape: 1 2 (2)
I1018 00:09:08.782515 30096 net.cpp:129] Top shape: 1 2 (2)
I1018 00:09:08.782518 30096 net.cpp:137] Memory required for data: 535984
I1018 00:09:08.782522 30096 layer_factory.hpp:77] Creating layer cont_92_lstm1_cont_slice_91_split
I1018 00:09:08.782527 30096 net.cpp:84] Creating Layer cont_92_lstm1_cont_slice_91_split
I1018 00:09:08.782531 30096 net.cpp:406] cont_92_lstm1_cont_slice_91_split <- cont_92
I1018 00:09:08.782537 30096 net.cpp:380] cont_92_lstm1_cont_slice_91_split -> cont_92_lstm1_cont_slice_91_split_0
I1018 00:09:08.782543 30096 net.cpp:380] cont_92_lstm1_cont_slice_91_split -> cont_92_lstm1_cont_slice_91_split_1
I1018 00:09:08.782573 30096 net.cpp:122] Setting up cont_92_lstm1_cont_slice_91_split
I1018 00:09:08.782579 30096 net.cpp:129] Top shape: 1 2 (2)
I1018 00:09:08.782584 30096 net.cpp:129] Top shape: 1 2 (2)
I1018 00:09:08.782588 30096 net.cpp:137] Memory required for data: 536000
I1018 00:09:08.782593 30096 layer_factory.hpp:77] Creating layer cont_93_lstm1_cont_slice_92_split
I1018 00:09:08.782598 30096 net.cpp:84] Creating Layer cont_93_lstm1_cont_slice_92_split
I1018 00:09:08.782603 30096 net.cpp:406] cont_93_lstm1_cont_slice_92_split <- cont_93
I1018 00:09:08.782608 30096 net.cpp:380] cont_93_lstm1_cont_slice_92_split -> cont_93_lstm1_cont_slice_92_split_0
I1018 00:09:08.782616 30096 net.cpp:380] cont_93_lstm1_cont_slice_92_split -> cont_93_lstm1_cont_slice_92_split_1
I1018 00:09:08.782644 30096 net.cpp:122] Setting up cont_93_lstm1_cont_slice_92_split
I1018 00:09:08.782650 30096 net.cpp:129] Top shape: 1 2 (2)
I1018 00:09:08.782655 30096 net.cpp:129] Top shape: 1 2 (2)
I1018 00:09:08.782658 30096 net.cpp:137] Memory required for data: 536016
I1018 00:09:08.782662 30096 layer_factory.hpp:77] Creating layer cont_94_lstm1_cont_slice_93_split
I1018 00:09:08.782670 30096 net.cpp:84] Creating Layer cont_94_lstm1_cont_slice_93_split
I1018 00:09:08.782675 30096 net.cpp:406] cont_94_lstm1_cont_slice_93_split <- cont_94
I1018 00:09:08.782680 30096 net.cpp:380] cont_94_lstm1_cont_slice_93_split -> cont_94_lstm1_cont_slice_93_split_0
I1018 00:09:08.782686 30096 net.cpp:380] cont_94_lstm1_cont_slice_93_split -> cont_94_lstm1_cont_slice_93_split_1
I1018 00:09:08.782716 30096 net.cpp:122] Setting up cont_94_lstm1_cont_slice_93_split
I1018 00:09:08.782722 30096 net.cpp:129] Top shape: 1 2 (2)
I1018 00:09:08.782727 30096 net.cpp:129] Top shape: 1 2 (2)
I1018 00:09:08.782732 30096 net.cpp:137] Memory required for data: 536032
I1018 00:09:08.782735 30096 layer_factory.hpp:77] Creating layer cont_95_lstm1_cont_slice_94_split
I1018 00:09:08.782740 30096 net.cpp:84] Creating Layer cont_95_lstm1_cont_slice_94_split
I1018 00:09:08.782744 30096 net.cpp:406] cont_95_lstm1_cont_slice_94_split <- cont_95
I1018 00:09:08.782750 30096 net.cpp:380] cont_95_lstm1_cont_slice_94_split -> cont_95_lstm1_cont_slice_94_split_0
I1018 00:09:08.782757 30096 net.cpp:380] cont_95_lstm1_cont_slice_94_split -> cont_95_lstm1_cont_slice_94_split_1
I1018 00:09:08.782786 30096 net.cpp:122] Setting up cont_95_lstm1_cont_slice_94_split
I1018 00:09:08.782793 30096 net.cpp:129] Top shape: 1 2 (2)
I1018 00:09:08.782799 30096 net.cpp:129] Top shape: 1 2 (2)
I1018 00:09:08.782802 30096 net.cpp:137] Memory required for data: 536048
I1018 00:09:08.782806 30096 layer_factory.hpp:77] Creating layer cont_96_lstm1_cont_slice_95_split
I1018 00:09:08.782811 30096 net.cpp:84] Creating Layer cont_96_lstm1_cont_slice_95_split
I1018 00:09:08.782815 30096 net.cpp:406] cont_96_lstm1_cont_slice_95_split <- cont_96
I1018 00:09:08.782821 30096 net.cpp:380] cont_96_lstm1_cont_slice_95_split -> cont_96_lstm1_cont_slice_95_split_0
I1018 00:09:08.782829 30096 net.cpp:380] cont_96_lstm1_cont_slice_95_split -> cont_96_lstm1_cont_slice_95_split_1
I1018 00:09:08.782860 30096 net.cpp:122] Setting up cont_96_lstm1_cont_slice_95_split
I1018 00:09:08.782866 30096 net.cpp:129] Top shape: 1 2 (2)
I1018 00:09:08.782871 30096 net.cpp:129] Top shape: 1 2 (2)
I1018 00:09:08.782874 30096 net.cpp:137] Memory required for data: 536064
I1018 00:09:08.782879 30096 layer_factory.hpp:77] Creating layer cont_97_lstm1_cont_slice_96_split
I1018 00:09:08.782883 30096 net.cpp:84] Creating Layer cont_97_lstm1_cont_slice_96_split
I1018 00:09:08.782888 30096 net.cpp:406] cont_97_lstm1_cont_slice_96_split <- cont_97
I1018 00:09:08.782896 30096 net.cpp:380] cont_97_lstm1_cont_slice_96_split -> cont_97_lstm1_cont_slice_96_split_0
I1018 00:09:08.782902 30096 net.cpp:380] cont_97_lstm1_cont_slice_96_split -> cont_97_lstm1_cont_slice_96_split_1
I1018 00:09:08.782929 30096 net.cpp:122] Setting up cont_97_lstm1_cont_slice_96_split
I1018 00:09:08.782935 30096 net.cpp:129] Top shape: 1 2 (2)
I1018 00:09:08.782940 30096 net.cpp:129] Top shape: 1 2 (2)
I1018 00:09:08.782944 30096 net.cpp:137] Memory required for data: 536080
I1018 00:09:08.782948 30096 layer_factory.hpp:77] Creating layer cont_98_lstm1_cont_slice_97_split
I1018 00:09:08.782955 30096 net.cpp:84] Creating Layer cont_98_lstm1_cont_slice_97_split
I1018 00:09:08.782960 30096 net.cpp:406] cont_98_lstm1_cont_slice_97_split <- cont_98
I1018 00:09:08.782965 30096 net.cpp:380] cont_98_lstm1_cont_slice_97_split -> cont_98_lstm1_cont_slice_97_split_0
I1018 00:09:08.782972 30096 net.cpp:380] cont_98_lstm1_cont_slice_97_split -> cont_98_lstm1_cont_slice_97_split_1
I1018 00:09:08.783002 30096 net.cpp:122] Setting up cont_98_lstm1_cont_slice_97_split
I1018 00:09:08.783008 30096 net.cpp:129] Top shape: 1 2 (2)
I1018 00:09:08.783013 30096 net.cpp:129] Top shape: 1 2 (2)
I1018 00:09:08.783017 30096 net.cpp:137] Memory required for data: 536096
I1018 00:09:08.783021 30096 layer_factory.hpp:77] Creating layer cont_99_lstm1_cont_slice_98_split
I1018 00:09:08.783026 30096 net.cpp:84] Creating Layer cont_99_lstm1_cont_slice_98_split
I1018 00:09:08.783031 30096 net.cpp:406] cont_99_lstm1_cont_slice_98_split <- cont_99
I1018 00:09:08.783036 30096 net.cpp:380] cont_99_lstm1_cont_slice_98_split -> cont_99_lstm1_cont_slice_98_split_0
I1018 00:09:08.783043 30096 net.cpp:380] cont_99_lstm1_cont_slice_98_split -> cont_99_lstm1_cont_slice_98_split_1
I1018 00:09:08.783074 30096 net.cpp:122] Setting up cont_99_lstm1_cont_slice_98_split
I1018 00:09:08.783080 30096 net.cpp:129] Top shape: 1 2 (2)
I1018 00:09:08.783085 30096 net.cpp:129] Top shape: 1 2 (2)
I1018 00:09:08.783089 30096 net.cpp:137] Memory required for data: 536112
I1018 00:09:08.783093 30096 layer_factory.hpp:77] Creating layer cont_100_lstm1_cont_slice_99_split
I1018 00:09:08.783098 30096 net.cpp:84] Creating Layer cont_100_lstm1_cont_slice_99_split
I1018 00:09:08.783103 30096 net.cpp:406] cont_100_lstm1_cont_slice_99_split <- cont_100
I1018 00:09:08.783109 30096 net.cpp:380] cont_100_lstm1_cont_slice_99_split -> cont_100_lstm1_cont_slice_99_split_0
I1018 00:09:08.783118 30096 net.cpp:380] cont_100_lstm1_cont_slice_99_split -> cont_100_lstm1_cont_slice_99_split_1
I1018 00:09:08.783146 30096 net.cpp:122] Setting up cont_100_lstm1_cont_slice_99_split
I1018 00:09:08.783152 30096 net.cpp:129] Top shape: 1 2 (2)
I1018 00:09:08.783157 30096 net.cpp:129] Top shape: 1 2 (2)
I1018 00:09:08.783162 30096 net.cpp:137] Memory required for data: 536128
I1018 00:09:08.783166 30096 layer_factory.hpp:77] Creating layer cont_101_lstm1_cont_slice_100_split
I1018 00:09:08.783171 30096 net.cpp:84] Creating Layer cont_101_lstm1_cont_slice_100_split
I1018 00:09:08.783175 30096 net.cpp:406] cont_101_lstm1_cont_slice_100_split <- cont_101
I1018 00:09:08.783183 30096 net.cpp:380] cont_101_lstm1_cont_slice_100_split -> cont_101_lstm1_cont_slice_100_split_0
I1018 00:09:08.783190 30096 net.cpp:380] cont_101_lstm1_cont_slice_100_split -> cont_101_lstm1_cont_slice_100_split_1
I1018 00:09:08.783221 30096 net.cpp:122] Setting up cont_101_lstm1_cont_slice_100_split
I1018 00:09:08.783226 30096 net.cpp:129] Top shape: 1 2 (2)
I1018 00:09:08.783231 30096 net.cpp:129] Top shape: 1 2 (2)
I1018 00:09:08.783236 30096 net.cpp:137] Memory required for data: 536144
I1018 00:09:08.783239 30096 layer_factory.hpp:77] Creating layer cont_102_lstm1_cont_slice_101_split
I1018 00:09:08.783243 30096 net.cpp:84] Creating Layer cont_102_lstm1_cont_slice_101_split
I1018 00:09:08.783248 30096 net.cpp:406] cont_102_lstm1_cont_slice_101_split <- cont_102
I1018 00:09:08.783254 30096 net.cpp:380] cont_102_lstm1_cont_slice_101_split -> cont_102_lstm1_cont_slice_101_split_0
I1018 00:09:08.783260 30096 net.cpp:380] cont_102_lstm1_cont_slice_101_split -> cont_102_lstm1_cont_slice_101_split_1
I1018 00:09:08.783293 30096 net.cpp:122] Setting up cont_102_lstm1_cont_slice_101_split
I1018 00:09:08.783298 30096 net.cpp:129] Top shape: 1 2 (2)
I1018 00:09:08.783303 30096 net.cpp:129] Top shape: 1 2 (2)
I1018 00:09:08.783308 30096 net.cpp:137] Memory required for data: 536160
I1018 00:09:08.783311 30096 layer_factory.hpp:77] Creating layer cont_103_lstm1_cont_slice_102_split
I1018 00:09:08.783316 30096 net.cpp:84] Creating Layer cont_103_lstm1_cont_slice_102_split
I1018 00:09:08.783321 30096 net.cpp:406] cont_103_lstm1_cont_slice_102_split <- cont_103
I1018 00:09:08.783327 30096 net.cpp:380] cont_103_lstm1_cont_slice_102_split -> cont_103_lstm1_cont_slice_102_split_0
I1018 00:09:08.783334 30096 net.cpp:380] cont_103_lstm1_cont_slice_102_split -> cont_103_lstm1_cont_slice_102_split_1
I1018 00:09:08.783363 30096 net.cpp:122] Setting up cont_103_lstm1_cont_slice_102_split
I1018 00:09:08.783370 30096 net.cpp:129] Top shape: 1 2 (2)
I1018 00:09:08.783375 30096 net.cpp:129] Top shape: 1 2 (2)
I1018 00:09:08.783378 30096 net.cpp:137] Memory required for data: 536176
I1018 00:09:08.783382 30096 layer_factory.hpp:77] Creating layer cont_104_lstm1_cont_slice_103_split
I1018 00:09:08.783387 30096 net.cpp:84] Creating Layer cont_104_lstm1_cont_slice_103_split
I1018 00:09:08.783392 30096 net.cpp:406] cont_104_lstm1_cont_slice_103_split <- cont_104
I1018 00:09:08.783399 30096 net.cpp:380] cont_104_lstm1_cont_slice_103_split -> cont_104_lstm1_cont_slice_103_split_0
I1018 00:09:08.783406 30096 net.cpp:380] cont_104_lstm1_cont_slice_103_split -> cont_104_lstm1_cont_slice_103_split_1
I1018 00:09:08.783434 30096 net.cpp:122] Setting up cont_104_lstm1_cont_slice_103_split
I1018 00:09:08.783440 30096 net.cpp:129] Top shape: 1 2 (2)
I1018 00:09:08.783445 30096 net.cpp:129] Top shape: 1 2 (2)
I1018 00:09:08.783449 30096 net.cpp:137] Memory required for data: 536192
I1018 00:09:08.783453 30096 layer_factory.hpp:77] Creating layer cont_105_lstm1_cont_slice_104_split
I1018 00:09:08.783460 30096 net.cpp:84] Creating Layer cont_105_lstm1_cont_slice_104_split
I1018 00:09:08.783464 30096 net.cpp:406] cont_105_lstm1_cont_slice_104_split <- cont_105
I1018 00:09:08.783470 30096 net.cpp:380] cont_105_lstm1_cont_slice_104_split -> cont_105_lstm1_cont_slice_104_split_0
I1018 00:09:08.783476 30096 net.cpp:380] cont_105_lstm1_cont_slice_104_split -> cont_105_lstm1_cont_slice_104_split_1
I1018 00:09:08.783517 30096 net.cpp:122] Setting up cont_105_lstm1_cont_slice_104_split
I1018 00:09:08.783524 30096 net.cpp:129] Top shape: 1 2 (2)
I1018 00:09:08.783529 30096 net.cpp:129] Top shape: 1 2 (2)
I1018 00:09:08.783531 30096 net.cpp:137] Memory required for data: 536208
I1018 00:09:08.784718 30096 layer_factory.hpp:77] Creating layer cont_106_lstm1_cont_slice_105_split
I1018 00:09:08.784745 30096 net.cpp:84] Creating Layer cont_106_lstm1_cont_slice_105_split
I1018 00:09:08.784751 30096 net.cpp:406] cont_106_lstm1_cont_slice_105_split <- cont_106
I1018 00:09:08.784759 30096 net.cpp:380] cont_106_lstm1_cont_slice_105_split -> cont_106_lstm1_cont_slice_105_split_0
I1018 00:09:08.784768 30096 net.cpp:380] cont_106_lstm1_cont_slice_105_split -> cont_106_lstm1_cont_slice_105_split_1
I1018 00:09:08.784821 30096 net.cpp:122] Setting up cont_106_lstm1_cont_slice_105_split
I1018 00:09:08.784829 30096 net.cpp:129] Top shape: 1 2 (2)
I1018 00:09:08.784834 30096 net.cpp:129] Top shape: 1 2 (2)
I1018 00:09:08.784838 30096 net.cpp:137] Memory required for data: 536224
I1018 00:09:08.784842 30096 layer_factory.hpp:77] Creating layer cont_107_lstm1_cont_slice_106_split
I1018 00:09:08.784848 30096 net.cpp:84] Creating Layer cont_107_lstm1_cont_slice_106_split
I1018 00:09:08.784853 30096 net.cpp:406] cont_107_lstm1_cont_slice_106_split <- cont_107
I1018 00:09:08.784860 30096 net.cpp:380] cont_107_lstm1_cont_slice_106_split -> cont_107_lstm1_cont_slice_106_split_0
I1018 00:09:08.784868 30096 net.cpp:380] cont_107_lstm1_cont_slice_106_split -> cont_107_lstm1_cont_slice_106_split_1
I1018 00:09:08.784901 30096 net.cpp:122] Setting up cont_107_lstm1_cont_slice_106_split
I1018 00:09:08.784907 30096 net.cpp:129] Top shape: 1 2 (2)
I1018 00:09:08.784912 30096 net.cpp:129] Top shape: 1 2 (2)
I1018 00:09:08.784916 30096 net.cpp:137] Memory required for data: 536240
I1018 00:09:08.784920 30096 layer_factory.hpp:77] Creating layer cont_108_lstm1_cont_slice_107_split
I1018 00:09:08.784925 30096 net.cpp:84] Creating Layer cont_108_lstm1_cont_slice_107_split
I1018 00:09:08.784930 30096 net.cpp:406] cont_108_lstm1_cont_slice_107_split <- cont_108
I1018 00:09:08.784939 30096 net.cpp:380] cont_108_lstm1_cont_slice_107_split -> cont_108_lstm1_cont_slice_107_split_0
I1018 00:09:08.784945 30096 net.cpp:380] cont_108_lstm1_cont_slice_107_split -> cont_108_lstm1_cont_slice_107_split_1
I1018 00:09:08.784974 30096 net.cpp:122] Setting up cont_108_lstm1_cont_slice_107_split
I1018 00:09:08.784982 30096 net.cpp:129] Top shape: 1 2 (2)
I1018 00:09:08.784987 30096 net.cpp:129] Top shape: 1 2 (2)
I1018 00:09:08.784991 30096 net.cpp:137] Memory required for data: 536256
I1018 00:09:08.784996 30096 layer_factory.hpp:77] Creating layer cont_109_lstm1_cont_slice_108_split
I1018 00:09:08.785001 30096 net.cpp:84] Creating Layer cont_109_lstm1_cont_slice_108_split
I1018 00:09:08.785006 30096 net.cpp:406] cont_109_lstm1_cont_slice_108_split <- cont_109
I1018 00:09:08.785012 30096 net.cpp:380] cont_109_lstm1_cont_slice_108_split -> cont_109_lstm1_cont_slice_108_split_0
I1018 00:09:08.785017 30096 net.cpp:380] cont_109_lstm1_cont_slice_108_split -> cont_109_lstm1_cont_slice_108_split_1
I1018 00:09:08.785048 30096 net.cpp:122] Setting up cont_109_lstm1_cont_slice_108_split
I1018 00:09:08.785054 30096 net.cpp:129] Top shape: 1 2 (2)
I1018 00:09:08.785058 30096 net.cpp:129] Top shape: 1 2 (2)
I1018 00:09:08.785063 30096 net.cpp:137] Memory required for data: 536272
I1018 00:09:08.785066 30096 layer_factory.hpp:77] Creating layer cont_110_lstm1_cont_slice_109_split
I1018 00:09:08.785071 30096 net.cpp:84] Creating Layer cont_110_lstm1_cont_slice_109_split
I1018 00:09:08.785076 30096 net.cpp:406] cont_110_lstm1_cont_slice_109_split <- cont_110
I1018 00:09:08.785082 30096 net.cpp:380] cont_110_lstm1_cont_slice_109_split -> cont_110_lstm1_cont_slice_109_split_0
I1018 00:09:08.785089 30096 net.cpp:380] cont_110_lstm1_cont_slice_109_split -> cont_110_lstm1_cont_slice_109_split_1
I1018 00:09:08.785120 30096 net.cpp:122] Setting up cont_110_lstm1_cont_slice_109_split
I1018 00:09:08.785126 30096 net.cpp:129] Top shape: 1 2 (2)
I1018 00:09:08.785131 30096 net.cpp:129] Top shape: 1 2 (2)
I1018 00:09:08.785135 30096 net.cpp:137] Memory required for data: 536288
I1018 00:09:08.785138 30096 layer_factory.hpp:77] Creating layer cont_111_lstm1_cont_slice_110_split
I1018 00:09:08.785145 30096 net.cpp:84] Creating Layer cont_111_lstm1_cont_slice_110_split
I1018 00:09:08.785149 30096 net.cpp:406] cont_111_lstm1_cont_slice_110_split <- cont_111
I1018 00:09:08.785157 30096 net.cpp:380] cont_111_lstm1_cont_slice_110_split -> cont_111_lstm1_cont_slice_110_split_0
I1018 00:09:08.785163 30096 net.cpp:380] cont_111_lstm1_cont_slice_110_split -> cont_111_lstm1_cont_slice_110_split_1
I1018 00:09:08.785192 30096 net.cpp:122] Setting up cont_111_lstm1_cont_slice_110_split
I1018 00:09:08.785198 30096 net.cpp:129] Top shape: 1 2 (2)
I1018 00:09:08.785203 30096 net.cpp:129] Top shape: 1 2 (2)
I1018 00:09:08.785207 30096 net.cpp:137] Memory required for data: 536304
I1018 00:09:08.785212 30096 layer_factory.hpp:77] Creating layer cont_112_lstm1_cont_slice_111_split
I1018 00:09:08.785218 30096 net.cpp:84] Creating Layer cont_112_lstm1_cont_slice_111_split
I1018 00:09:08.785223 30096 net.cpp:406] cont_112_lstm1_cont_slice_111_split <- cont_112
I1018 00:09:08.785229 30096 net.cpp:380] cont_112_lstm1_cont_slice_111_split -> cont_112_lstm1_cont_slice_111_split_0
I1018 00:09:08.785235 30096 net.cpp:380] cont_112_lstm1_cont_slice_111_split -> cont_112_lstm1_cont_slice_111_split_1
I1018 00:09:08.785265 30096 net.cpp:122] Setting up cont_112_lstm1_cont_slice_111_split
I1018 00:09:08.785282 30096 net.cpp:129] Top shape: 1 2 (2)
I1018 00:09:08.785287 30096 net.cpp:129] Top shape: 1 2 (2)
I1018 00:09:08.785291 30096 net.cpp:137] Memory required for data: 536320
I1018 00:09:08.785295 30096 layer_factory.hpp:77] Creating layer cont_113_lstm1_cont_slice_112_split
I1018 00:09:08.785300 30096 net.cpp:84] Creating Layer cont_113_lstm1_cont_slice_112_split
I1018 00:09:08.785305 30096 net.cpp:406] cont_113_lstm1_cont_slice_112_split <- cont_113
I1018 00:09:08.785310 30096 net.cpp:380] cont_113_lstm1_cont_slice_112_split -> cont_113_lstm1_cont_slice_112_split_0
I1018 00:09:08.785316 30096 net.cpp:380] cont_113_lstm1_cont_slice_112_split -> cont_113_lstm1_cont_slice_112_split_1
I1018 00:09:08.785347 30096 net.cpp:122] Setting up cont_113_lstm1_cont_slice_112_split
I1018 00:09:08.785353 30096 net.cpp:129] Top shape: 1 2 (2)
I1018 00:09:08.785358 30096 net.cpp:129] Top shape: 1 2 (2)
I1018 00:09:08.785362 30096 net.cpp:137] Memory required for data: 536336
I1018 00:09:08.785365 30096 layer_factory.hpp:77] Creating layer cont_114_lstm1_cont_slice_113_split
I1018 00:09:08.785372 30096 net.cpp:84] Creating Layer cont_114_lstm1_cont_slice_113_split
I1018 00:09:08.785375 30096 net.cpp:406] cont_114_lstm1_cont_slice_113_split <- cont_114
I1018 00:09:08.785380 30096 net.cpp:380] cont_114_lstm1_cont_slice_113_split -> cont_114_lstm1_cont_slice_113_split_0
I1018 00:09:08.785387 30096 net.cpp:380] cont_114_lstm1_cont_slice_113_split -> cont_114_lstm1_cont_slice_113_split_1
I1018 00:09:08.785420 30096 net.cpp:122] Setting up cont_114_lstm1_cont_slice_113_split
I1018 00:09:08.785426 30096 net.cpp:129] Top shape: 1 2 (2)
I1018 00:09:08.785431 30096 net.cpp:129] Top shape: 1 2 (2)
I1018 00:09:08.785435 30096 net.cpp:137] Memory required for data: 536352
I1018 00:09:08.785439 30096 layer_factory.hpp:77] Creating layer cont_115_lstm1_cont_slice_114_split
I1018 00:09:08.785444 30096 net.cpp:84] Creating Layer cont_115_lstm1_cont_slice_114_split
I1018 00:09:08.785449 30096 net.cpp:406] cont_115_lstm1_cont_slice_114_split <- cont_115
I1018 00:09:08.785456 30096 net.cpp:380] cont_115_lstm1_cont_slice_114_split -> cont_115_lstm1_cont_slice_114_split_0
I1018 00:09:08.785464 30096 net.cpp:380] cont_115_lstm1_cont_slice_114_split -> cont_115_lstm1_cont_slice_114_split_1
I1018 00:09:08.785491 30096 net.cpp:122] Setting up cont_115_lstm1_cont_slice_114_split
I1018 00:09:08.785497 30096 net.cpp:129] Top shape: 1 2 (2)
I1018 00:09:08.785501 30096 net.cpp:129] Top shape: 1 2 (2)
I1018 00:09:08.785506 30096 net.cpp:137] Memory required for data: 536368
I1018 00:09:08.785509 30096 layer_factory.hpp:77] Creating layer cont_116_lstm1_cont_slice_115_split
I1018 00:09:08.785516 30096 net.cpp:84] Creating Layer cont_116_lstm1_cont_slice_115_split
I1018 00:09:08.811385 30096 net.cpp:406] cont_116_lstm1_cont_slice_115_split <- cont_116
I1018 00:09:08.811408 30096 net.cpp:380] cont_116_lstm1_cont_slice_115_split -> cont_116_lstm1_cont_slice_115_split_0
I1018 00:09:08.811417 30096 net.cpp:380] cont_116_lstm1_cont_slice_115_split -> cont_116_lstm1_cont_slice_115_split_1
I1018 00:09:08.811470 30096 net.cpp:122] Setting up cont_116_lstm1_cont_slice_115_split
I1018 00:09:08.811477 30096 net.cpp:129] Top shape: 1 2 (2)
…
I1018 00:09:13.270417 30096 net.cpp:406] lstm1_gate_input_115 <- W_hc_h_114
I1018 00:09:13.270429 30096 net.cpp:406] lstm1_gate_input_115 <- W_xc_x_115
I1018 00:09:13.270443 30096 net.cpp:380] lstm1_gate_input_115 -> gate_input_115
I1018 00:09:13.270493 30096 net.cpp:122] Setting up lstm1_gate_input_115
I1018 00:09:13.270508 30096 net.cpp:129] Top shape: 1 150 2048 (307200)
I1018 00:09:13.270515 30096 net.cpp:137] Memory required for data: 812851200
I1018 00:09:13.270524 30096 layer_factory.hpp:77] Creating layer lstm1_unit_115
I1018 00:09:13.270536 30096 net.cpp:84] Creating Layer lstm1_unit_115
I1018 00:09:13.270546 30096 net.cpp:406] lstm1_unit_115 <- c_114
I1018 00:09:13.270560 30096 net.cpp:406] lstm1_unit_115 <- gate_input_115
I1018 00:09:13.270570 30096 net.cpp:406] lstm1_unit_115 <- cont_115_lstm1_cont_slice_114_split_1
I1018 00:09:13.270582 30096 net.cpp:380] lstm1_unit_115 -> c_115
I1018 00:09:13.270598 30096 net.cpp:380] lstm1_unit_115 -> h_115
I1018 00:09:13.270671 30096 net.cpp:122] Setting up lstm1_unit_115
I1018 00:09:13.270685 30096 net.cpp:129] Top shape: 1 150 512 (76800)
I1018 00:09:13.270695 30096 net.cpp:129] Top shape: 1 150 512 (76800)
I1018 00:09:13.270704 30096 net.cpp:137] Memory required for data: 813465600
I1018 00:09:13.270712 30096 layer_factory.hpp:77] Creating layer h_115_lstm1_unit_115_1_split
I1018 00:09:13.270727 30096 net.cpp:84] Creating Layer h_115_lstm1_unit_115_1_split
I1018 00:09:13.270737 30096 net.cpp:406] h_115_lstm1_unit_115_1_split <- h_115
I1018 00:09:13.270750 30096 net.cpp:380] h_115_lstm1_unit_115_1_split -> h_115_lstm1_unit_115_1_split_0
I1018 00:09:13.270766 30096 net.cpp:380] h_115_lstm1_unit_115_1_split -> h_115_lstm1_unit_115_1_split_1
I1018 00:09:13.270823 30096 net.cpp:122] Setting up h_115_lstm1_unit_115_1_split
I1018 00:09:13.270835 30096 net.cpp:129] Top shape: 1 150 512 (76800)
I1018 00:09:13.270845 30096 net.cpp:129] Top shape: 1 150 512 (76800)
I1018 00:09:13.270853 30096 net.cpp:137] Memory required for data: 814080000
I1018 00:09:13.270861 30096 layer_factory.hpp:77] Creating layer lstm1_h_conted_115
I1018 00:09:13.270877 30096 net.cpp:84] Creating Layer lstm1_h_conted_115
I1018 00:09:13.270887 30096 net.cpp:406] lstm1_h_conted_115 <- h_115_lstm1_unit_115_1_split_0
I1018 00:09:13.270900 30096 net.cpp:406] lstm1_h_conted_115 <- cont_116_lstm1_cont_slice_115_split_0
I1018 00:09:13.270913 30096 net.cpp:380] lstm1_h_conted_115 -> h_conted_115
I1018 00:09:13.271015 30096 net.cpp:122] Setting up lstm1_h_conted_115
I1018 00:09:13.271029 30096 net.cpp:129] Top shape: 1 150 512 (76800)
I1018 00:09:13.271037 30096 net.cpp:137] Memory required for data: 814387200
I1018 00:09:13.271045 30096 layer_factory.hpp:77] Creating layer lstm1_transform_116
I1018 00:09:13.271066 30096 net.cpp:84] Creating Layer lstm1_transform_116
I1018 00:09:13.271077 30096 net.cpp:406] lstm1_transform_116 <- h_conted_115
I1018 00:09:13.271091 30096 net.cpp:380] lstm1_transform_116 -> W_hc_h_115
I1018 00:09:13.284690 30096 net.cpp:122] Setting up lstm1_transform_116
I1018 00:09:13.284711 30096 net.cpp:129] Top shape: 1 150 2048 (307200)
I1018 00:09:13.284720 30096 net.cpp:137] Memory required for data: 815616000
I1018 00:09:13.284730 30096 net.cpp:465] Sharing parameters 'W_hc' owned by layer 'lstm1_transform_1', param index 0
I1018 00:09:13.284740 30096 layer_factory.hpp:77] Creating layer lstm1_gate_input_116
I1018 00:09:13.284760 30096 net.cpp:84] Creating Layer lstm1_gate_input_116
I1018 00:09:13.284770 30096 net.cpp:406] lstm1_gate_input_116 <- W_hc_h_115
I1018 00:09:13.284782 30096 net.cpp:406] lstm1_gate_input_116 <- W_xc_x_116
I1018 00:09:13.284795 30096 net.cpp:380] lstm1_gate_input_116 -> gate_input_116
I1018 00:09:13.284844 30096 net.cpp:122] Setting up lstm1_gate_input_116
I1018 00:09:13.284865 30096 net.cpp:129] Top shape: 1 150 2048 (307200)
I1018 00:09:13.284874 30096 net.cpp:137] Memory required for data: 816844800
I1018 00:09:13.284883 30096 layer_factory.hpp:77] Creating layer lstm1_unit_116
I1018 00:09:13.284899 30096 net.cpp:84] Creating Layer lstm1_unit_116
I1018 00:09:13.284910 30096 net.cpp:406] lstm1_unit_116 <- c_115
I1018 00:09:13.284924 30096 net.cpp:406] lstm1_unit_116 <- gate_input_116
I1018 00:09:13.284934 30096 net.cpp:406] lstm1_unit_116 <- cont_116_lstm1_cont_slice_115_split_1
I1018 00:09:13.284947 30096 net.cpp:380] lstm1_unit_116 -> c_116
I1018 00:09:13.284965 30096 net.cpp:380] lstm1_unit_116 -> h_116
I1018 00:09:13.285034 30096 net.cpp:122] Setting up lstm1_unit_116
I1018 00:09:13.285048 30096 net.cpp:129] Top shape: 1 150 512 (76800)
I1018 00:09:13.285059 30096 net.cpp:129] Top shape: 1 150 512 (76800)
I1018 00:09:13.285068 30096 net.cpp:137] Memory required for data: 817459200
I1018 00:09:13.285075 30096 layer_factory.hpp:77] Creating layer h_116_lstm1_unit_116_1_split
I1018 00:09:13.285087 30096 net.cpp:84] Creating Layer h_116_lstm1_unit_116_1_split
I1018 00:09:13.285096 30096 net.cpp:406] h_116_lstm1_unit_116_1_split <- h_116
I1018 00:09:13.285114 30096 net.cpp:380] h_116_lstm1_unit_116_1_split -> h_116_lstm1_unit_116_1_split_0
I1018 00:09:13.285128 30096 net.cpp:380] h_116_lstm1_unit_116_1_split -> h_116_lstm1_unit_116_1_split_1
I1018 00:09:13.285182 30096 net.cpp:122] Setting up h_116_lstm1_unit_116_1_split
I1018 00:09:13.285195 30096 net.cpp:129] Top shape: 1 150 512 (76800)
I1018 00:09:13.285205 30096 net.cpp:129] Top shape: 1 150 512 (76800)
I1018 00:09:13.285213 30096 net.cpp:137] Memory required for data: 818073600
I1018 00:09:13.285223 30096 layer_factory.hpp:77] Creating layer lstm1_h_conted_116
I1018 00:09:13.285239 30096 net.cpp:84] Creating Layer lstm1_h_conted_116
I1018 00:09:13.285249 30096 net.cpp:406] lstm1_h_conted_116 <- h_116_lstm1_unit_116_1_split_0
I1018 00:09:13.285262 30096 net.cpp:406] lstm1_h_conted_116 <- cont_117_lstm1_cont_slice_116_split_0
I1018 00:09:13.285279 30096 net.cpp:380] lstm1_h_conted_116 -> h_conted_116
I1018 00:09:13.285377 30096 net.cpp:122] Setting up lstm1_h_conted_116
I1018 00:09:13.285392 30096 net.cpp:129] Top shape: 1 150 512 (76800)
I1018 00:09:13.285399 30096 net.cpp:137] Memory required for data: 818380800
I1018 00:09:13.285408 30096 layer_factory.hpp:77] Creating layer lstm1_transform_117
I1018 00:09:13.285425 30096 net.cpp:84] Creating Layer lstm1_transform_117
I1018 00:09:13.285435 30096 net.cpp:406] lstm1_transform_117 <- h_conted_116
I1018 00:09:13.285452 30096 net.cpp:380] lstm1_transform_117 -> W_hc_h_116
I1018 00:09:13.298599 30096 net.cpp:122] Setting up lstm1_transform_117
I1018 00:09:13.298620 30096 net.cpp:129] Top shape: 1 150 2048 (307200)
I1018 00:09:13.298629 30096 net.cpp:137] Memory required for data: 819609600
I1018 00:09:13.298640 30096 net.cpp:465] Sharing parameters 'W_hc' owned by layer 'lstm1_transform_1', param index 0
I1018 00:09:13.298648 30096 layer_factory.hpp:77] Creating layer lstm1_gate_input_117
I1018 00:09:13.298666 30096 net.cpp:84] Creating Layer lstm1_gate_input_117
I1018 00:09:13.298676 30096 net.cpp:406] lstm1_gate_input_117 <- W_hc_h_116
I1018 00:09:13.298688 30096 net.cpp:406] lstm1_gate_input_117 <- W_xc_x_117
I1018 00:09:13.298702 30096 net.cpp:380] lstm1_gate_input_117 -> gate_input_117
I1018 00:09:13.298748 30096 net.cpp:122] Setting up lstm1_gate_input_117
I1018 00:09:13.298763 30096 net.cpp:129] Top shape: 1 150 2048 (307200)
I1018 00:09:13.298770 30096 net.cpp:137] Memory required for data: 820838400
I1018 00:09:13.298779 30096 layer_factory.hpp:77] Creating layer lstm1_unit_117
I1018 00:09:13.298795 30096 net.cpp:84] Creating Layer lstm1_unit_117
I1018 00:09:13.298806 30096 net.cpp:406] lstm1_unit_117 <- c_116
I1018 00:09:13.298820 30096 net.cpp:406] lstm1_unit_117 <- gate_input_117
I1018 00:09:13.298830 30096 net.cpp:406] lstm1_unit_117 <- cont_117_lstm1_cont_slice_116_split_1
I1018 00:09:13.298844 30096 net.cpp:380] lstm1_unit_117 -> c_117
I1018 00:09:13.298861 30096 net.cpp:380] lstm1_unit_117 -> h_117
I1018 00:09:13.298935 30096 net.cpp:122] Setting up lstm1_unit_117
I1018 00:09:13.298949 30096 net.cpp:129] Top shape: 1 150 512 (76800)
I1018 00:09:13.298959 30096 net.cpp:129] Top shape: 1 150 512 (76800)
I1018 00:09:13.298967 30096 net.cpp:137] Memory required for data: 821452800
I1018 00:09:13.298975 30096 layer_factory.hpp:77] Creating layer h_117_lstm1_unit_117_1_split
I1018 00:09:13.298986 30096 net.cpp:84] Creating Layer h_117_lstm1_unit_117_1_split
I1018 00:09:13.298995 30096 net.cpp:406] h_117_lstm1_unit_117_1_split <- h_117
I1018 00:09:13.299008 30096 net.cpp:380] h_117_lstm1_unit_117_1_split -> h_117_lstm1_unit_117_1_split_0
I1018 00:09:13.299026 30096 net.cpp:380] h_117_lstm1_unit_117_1_split -> h_117_lstm1_unit_117_1_split_1
I1018 00:09:13.299084 30096 net.cpp:122] Setting up h_117_lstm1_unit_117_1_split
I1018 00:09:13.299098 30096 net.cpp:129] Top shape: 1 150 512 (76800)
I1018 00:09:13.299108 30096 net.cpp:129] Top shape: 1 150 512 (76800)
I1018 00:09:13.299115 30096 net.cpp:137] Memory required for data: 822067200
I1018 00:09:13.299124 30096 layer_factory.hpp:77] Creating layer lstm1_h_conted_117
I1018 00:09:13.299140 30096 net.cpp:84] Creating Layer lstm1_h_conted_117
I1018 00:09:13.299150 30096 net.cpp:406] lstm1_h_conted_117 <- h_117_lstm1_unit_117_1_split_0
I1018 00:09:13.299165 30096 net.cpp:406] lstm1_h_conted_117 <- cont_118_lstm1_cont_slice_117_split_0
I1018 00:09:13.299178 30096 net.cpp:380] lstm1_h_conted_117 -> h_conted_117
I1018 00:09:13.299278 30096 net.cpp:122] Setting up lstm1_h_conted_117
I1018 00:09:13.299291 30096 net.cpp:129] Top shape: 1 150 512 (76800)
I1018 00:09:13.299299 30096 net.cpp:137] Memory required for data: 822374400
I1018 00:09:13.299309 30096 layer_factory.hpp:77] Creating layer lstm1_transform_118
I1018 00:09:13.299324 30096 net.cpp:84] Creating Layer lstm1_transform_118
I1018 00:09:13.299335 30096 net.cpp:406] lstm1_transform_118 <- h_conted_117
I1018 00:09:13.299350 30096 net.cpp:380] lstm1_transform_118 -> W_hc_h_117
I1018 00:09:13.312639 30096 net.cpp:122] Setting up lstm1_transform_118
I1018 00:09:13.312660 30096 net.cpp:129] Top shape: 1 150 2048 (307200)
I1018 00:09:13.312669 30096 net.cpp:137] Memory required for data: 823603200
I1018 00:09:13.312680 30096 net.cpp:465] Sharing parameters 'W_hc' owned by layer 'lstm1_transform_1', param index 0
I1018 00:09:13.312690 30096 layer_factory.hpp:77] Creating layer lstm1_gate_input_118
I1018 00:09:13.312706 30096 net.cpp:84] Creating Layer lstm1_gate_input_118
I1018 00:09:13.312717 30096 net.cpp:406] lstm1_gate_input_118 <- W_hc_h_117
I1018 00:09:13.312729 30096 net.cpp:406] lstm1_gate_input_118 <- W_xc_x_118
I1018 00:09:13.312743 30096 net.cpp:380] lstm1_gate_input_118 -> gate_input_118
I1018 00:09:13.312791 30096 net.cpp:122] Setting up lstm1_gate_input_118
I1018 00:09:13.312805 30096 net.cpp:129] Top shape: 1 150 2048 (307200)
I1018 00:09:13.312813 30096 net.cpp:137] Memory required for data: 824832000
I1018 00:09:13.312821 30096 layer_factory.hpp:77] Creating layer lstm1_unit_118
I1018 00:09:13.312834 30096 net.cpp:84] Creating Layer lstm1_unit_118
I1018 00:09:13.312844 30096 net.cpp:406] lstm1_unit_118 <- c_117
I1018 00:09:13.312856 30096 net.cpp:406] lstm1_unit_118 <- gate_input_118
I1018 00:09:13.312867 30096 net.cpp:406] lstm1_unit_118 <- cont_118_lstm1_cont_slice_117_split_1
I1018 00:09:13.312885 30096 net.cpp:380] lstm1_unit_118 -> c_118
I1018 00:09:13.312901 30096 net.cpp:380] lstm1_unit_118 -> h_118
I1018 00:09:13.312988 30096 net.cpp:122] Setting up lstm1_unit_118
I1018 00:09:13.313001 30096 net.cpp:129] Top shape: 1 150 512 (76800)
I1018 00:09:13.313011 30096 net.cpp:129] Top shape: 1 150 512 (76800)
I1018 00:09:13.313019 30096 net.cpp:137] Memory required for data: 825446400
I1018 00:09:13.313029 30096 layer_factory.hpp:77] Creating layer h_118_lstm1_unit_118_1_split
I1018 00:09:13.313040 30096 net.cpp:84] Creating Layer h_118_lstm1_unit_118_1_split
I1018 00:09:13.313048 30096 net.cpp:406] h_118_lstm1_unit_118_1_split <- h_118
I1018 00:09:13.313061 30096 net.cpp:380] h_118_lstm1_unit_118_1_split -> h_118_lstm1_unit_118_1_split_0
I1018 00:09:13.313077 30096 net.cpp:380] h_118_lstm1_unit_118_1_split -> h_118_lstm1_unit_118_1_split_1
I1018 00:09:13.313136 30096 net.cpp:122] Setting up h_118_lstm1_unit_118_1_split
I1018 00:09:13.313149 30096 net.cpp:129] Top shape: 1 150 512 (76800)
I1018 00:09:13.313160 30096 net.cpp:129] Top shape: 1 150 512 (76800)
I1018 00:09:13.313169 30096 net.cpp:137] Memory required for data: 826060800
I1018 00:09:13.313176 30096 layer_factory.hpp:77] Creating layer lstm1_h_conted_118
I1018 00:09:13.313189 30096 net.cpp:84] Creating Layer lstm1_h_conted_118
I1018 00:09:13.313199 30096 net.cpp:406] lstm1_h_conted_118 <- h_118_lstm1_unit_118_1_split_0
I1018 00:09:13.313212 30096 net.cpp:406] lstm1_h_conted_118 <- cont_119_lstm1_cont_slice_118_split_0
I1018 00:09:13.313228 30096 net.cpp:380] lstm1_h_conted_118 -> h_conted_118
I1018 00:09:13.313344 30096 net.cpp:122] Setting up lstm1_h_conted_118
I1018 00:09:13.313364 30096 net.cpp:129] Top shape: 1 150 512 (76800)
I1018 00:09:13.313371 30096 net.cpp:137] Memory required for data: 826368000
I1018 00:09:13.313380 30096 layer_factory.hpp:77] Creating layer lstm1_transform_119
I1018 00:09:13.313393 30096 net.cpp:84] Creating Layer lstm1_transform_119
I1018 00:09:13.313402 30096 net.cpp:406] lstm1_transform_119 <- h_conted_118
I1018 00:09:13.313417 30096 net.cpp:380] lstm1_transform_119 -> W_hc_h_118
I1018 00:09:13.327172 30096 net.cpp:122] Setting up lstm1_transform_119
I1018 00:09:13.327199 30096 net.cpp:129] Top shape: 1 150 2048 (307200)
I1018 00:09:13.327205 30096 net.cpp:137] Memory required for data: 827596800
I1018 00:09:13.327224 30096 net.cpp:465] Sharing parameters 'W_hc' owned by layer 'lstm1_transform_1', param index 0
I1018 00:09:13.327255 30096 layer_factory.hpp:77] Creating layer lstm1_gate_input_119
I1018 00:09:13.327271 30096 net.cpp:84] Creating Layer lstm1_gate_input_119
I1018 00:09:13.327327 30096 net.cpp:406] lstm1_gate_input_119 <- W_hc_h_118
I1018 00:09:13.327350 30096 net.cpp:406] lstm1_gate_input_119 <- W_xc_x_119
I1018 00:09:13.327394 30096 net.cpp:380] lstm1_gate_input_119 -> gate_input_119
I1018 00:09:13.327464 30096 net.cpp:122] Setting up lstm1_gate_input_119
I1018 00:09:13.327474 30096 net.cpp:129] Top shape: 1 150 2048 (307200)
I1018 00:09:13.327479 30096 net.cpp:137] Memory required for data: 828825600
I1018 00:09:13.327484 30096 layer_factory.hpp:77] Creating layer lstm1_unit_119
I1018 00:09:13.327494 30096 net.cpp:84] Creating Layer lstm1_unit_119
I1018 00:09:13.327527 30096 net.cpp:406] lstm1_unit_119 <- c_118
I1018 00:09:13.327539 30096 net.cpp:406] lstm1_unit_119 <- gate_input_119
I1018 00:09:13.327556 30096 net.cpp:406] lstm1_unit_119 <- cont_119_lstm1_cont_slice_118_split_1
I1018 00:09:13.327566 30096 net.cpp:380] lstm1_unit_119 -> c_119
I1018 00:09:13.327603 30096 net.cpp:380] lstm1_unit_119 -> h_119
I1018 00:09:13.327672 30096 net.cpp:122] Setting up lstm1_unit_119
I1018 00:09:13.327682 30096 net.cpp:129] Top shape: 1 150 512 (76800)
I1018 00:09:13.327687 30096 net.cpp:129] Top shape: 1 150 512 (76800)
I1018 00:09:13.327692 30096 net.cpp:137] Memory required for data: 829440000
I1018 00:09:13.327697 30096 layer_factory.hpp:77] Creating layer h_119_lstm1_unit_119_1_split
I1018 00:09:13.327703 30096 net.cpp:84] Creating Layer h_119_lstm1_unit_119_1_split
I1018 00:09:13.327710 30096 net.cpp:406] h_119_lstm1_unit_119_1_split <- h_119
I1018 00:09:13.327718 30096 net.cpp:380] h_119_lstm1_unit_119_1_split -> h_119_lstm1_unit_119_1_split_0
I1018 00:09:13.327726 30096 net.cpp:380] h_119_lstm1_unit_119_1_split -> h_119_lstm1_unit_119_1_split_1
I1018 00:09:13.327769 30096 net.cpp:122] Setting up h_119_lstm1_unit_119_1_split
I1018 00:09:13.327780 30096 net.cpp:129] Top shape: 1 150 512 (76800)
I1018 00:09:13.327785 30096 net.cpp:129] Top shape: 1 150 512 (76800)
I1018 00:09:13.327790 30096 net.cpp:137] Memory required for data: 830054400
I1018 00:09:13.327795 30096 layer_factory.hpp:77] Creating layer lstm1_h_conted_119
I1018 00:09:13.327803 30096 net.cpp:84] Creating Layer lstm1_h_conted_119
I1018 00:09:13.327810 30096 net.cpp:406] lstm1_h_conted_119 <- h_119_lstm1_unit_119_1_split_0
I1018 00:09:13.327821 30096 net.cpp:406] lstm1_h_conted_119 <- cont_120_lstm1_cont_slice_119_split_0
I1018 00:09:13.327869 30096 net.cpp:380] lstm1_h_conted_119 -> h_conted_119
I1018 00:09:13.328387 30096 net.cpp:122] Setting up lstm1_h_conted_119
I1018 00:09:13.328402 30096 net.cpp:129] Top shape: 1 150 512 (76800)
I1018 00:09:13.328407 30096 net.cpp:137] Memory required for data: 830361600
I1018 00:09:13.328411 30096 layer_factory.hpp:77] Creating layer lstm1_transform_120
I1018 00:09:13.328423 30096 net.cpp:84] Creating Layer lstm1_transform_120
I1018 00:09:13.328429 30096 net.cpp:406] lstm1_transform_120 <- h_conted_119
I1018 00:09:13.328440 30096 net.cpp:380] lstm1_transform_120 -> W_hc_h_119
I1018 00:09:13.341650 30096 net.cpp:122] Setting up lstm1_transform_120
I1018 00:09:13.341670 30096 net.cpp:129] Top shape: 1 150 2048 (307200)
I1018 00:09:13.341675 30096 net.cpp:137] Memory required for data: 831590400
I1018 00:09:13.341682 30096 net.cpp:465] Sharing parameters 'W_hc' owned by layer 'lstm1_transform_1', param index 0
I1018 00:09:13.341689 30096 layer_factory.hpp:77] Creating layer lstm1_gate_input_120
I1018 00:09:13.341699 30096 net.cpp:84] Creating Layer lstm1_gate_input_120
I1018 00:09:13.341706 30096 net.cpp:406] lstm1_gate_input_120 <- W_hc_h_119
I1018 00:09:13.341717 30096 net.cpp:406] lstm1_gate_input_120 <- W_xc_x_120
I1018 00:09:13.341725 30096 net.cpp:380] lstm1_gate_input_120 -> gate_input_120
I1018 00:09:13.341768 30096 net.cpp:122] Setting up lstm1_gate_input_120
I1018 00:09:13.341778 30096 net.cpp:129] Top shape: 1 150 2048 (307200)
I1018 00:09:13.341783 30096 net.cpp:137] Memory required for data: 832819200
I1018 00:09:13.341787 30096 layer_factory.hpp:77] Creating layer lstm1_unit_120
I1018 00:09:13.341799 30096 net.cpp:84] Creating Layer lstm1_unit_120
I1018 00:09:13.341804 30096 net.cpp:406] lstm1_unit_120 <- c_119
I1018 00:09:13.341811 30096 net.cpp:406] lstm1_unit_120 <- gate_input_120
I1018 00:09:13.341820 30096 net.cpp:406] lstm1_unit_120 <- cont_120_lstm1_cont_slice_119_split_1
I1018 00:09:13.341826 30096 net.cpp:380] lstm1_unit_120 -> c_120
I1018 00:09:13.341837 30096 net.cpp:380] lstm1_unit_120 -> h_120
I1018 00:09:13.341898 30096 net.cpp:122] Setting up lstm1_unit_120
I1018 00:09:13.341907 30096 net.cpp:129] Top shape: 1 150 512 (76800)
I1018 00:09:13.341912 30096 net.cpp:129] Top shape: 1 150 512 (76800)
I1018 00:09:13.341917 30096 net.cpp:137] Memory required for data: 833433600
I1018 00:09:13.341922 30096 layer_factory.hpp:77] Creating layer h_120_lstm1_unit_120_1_split
I1018 00:09:13.341930 30096 net.cpp:84] Creating Layer h_120_lstm1_unit_120_1_split
I1018 00:09:13.341936 30096 net.cpp:406] h_120_lstm1_unit_120_1_split <- h_120
I1018 00:09:13.341944 30096 net.cpp:380] h_120_lstm1_unit_120_1_split -> h_120_lstm1_unit_120_1_split_0
I1018 00:09:13.341953 30096 net.cpp:380] h_120_lstm1_unit_120_1_split -> h_120_lstm1_unit_120_1_split_1
I1018 00:09:13.341994 30096 net.cpp:122] Setting up h_120_lstm1_unit_120_1_split
I1018 00:09:13.342003 30096 net.cpp:129] Top shape: 1 150 512 (76800)
I1018 00:09:13.342010 30096 net.cpp:129] Top shape: 1 150 512 (76800)
I1018 00:09:13.342013 30096 net.cpp:137] Memory required for data: 834048000
I1018 00:09:13.342018 30096 layer_factory.hpp:77] Creating layer lstm1_h_conted_120
I1018 00:09:13.342027 30096 net.cpp:84] Creating Layer lstm1_h_conted_120
I1018 00:09:13.342033 30096 net.cpp:406] lstm1_h_conted_120 <- h_120_lstm1_unit_120_1_split_0
I1018 00:09:13.342041 30096 net.cpp:406] lstm1_h_conted_120 <- cont_121_lstm1_cont_slice_120_split_0
I1018 00:09:13.342064 30096 net.cpp:380] lstm1_h_conted_120 -> h_conted_120
I1018 00:09:13.342157 30096 net.cpp:122] Setting up lstm1_h_conted_120
I1018 00:09:13.342170 30096 net.cpp:129] Top shape: 1 150 512 (76800)
I1018 00:09:13.342175 30096 net.cpp:137] Memory required for data: 834355200
I1018 00:09:13.342180 30096 layer_factory.hpp:77] Creating layer lstm1_transform_121
I1018 00:09:13.342190 30096 net.cpp:84] Creating Layer lstm1_transform_121
I1018 00:09:13.342197 30096 net.cpp:406] lstm1_transform_121 <- h_conted_120
I1018 00:09:13.342206 30096 net.cpp:380] lstm1_transform_121 -> W_hc_h_120
I1018 00:09:13.355413 30096 net.cpp:122] Setting up lstm1_transform_121
I1018 00:09:13.355432 30096 net.cpp:129] Top shape: 1 150 2048 (307200)
I1018 00:09:13.355437 30096 net.cpp:137] Memory required for data: 835584000
I1018 00:09:13.355443 30096 net.cpp:465] Sharing parameters 'W_hc' owned by layer 'lstm1_transform_1', param index 0
I1018 00:09:13.355448 30096 layer_factory.hpp:77] Creating layer lstm1_gate_input_121
I1018 00:09:13.355456 30096 net.cpp:84] Creating Layer lstm1_gate_input_121
I1018 00:09:13.355463 30096 net.cpp:406] lstm1_gate_input_121 <- W_hc_h_120
I1018 00:09:13.355473 30096 net.cpp:406] lstm1_gate_input_121 <- W_xc_x_121
I1018 00:09:13.355481 30096 net.cpp:380] lstm1_gate_input_121 -> gate_input_121
I1018 00:09:13.355517 30096 net.cpp:122] Setting up lstm1_gate_input_121
I1018 00:09:13.355526 30096 net.cpp:129] Top shape: 1 150 2048 (307200)
I1018 00:09:13.355530 30096 net.cpp:137] Memory required for data: 836812800
I1018 00:09:13.355535 30096 layer_factory.hpp:77] Creating layer lstm1_unit_121
I1018 00:09:13.355543 30096 net.cpp:84] Creating Layer lstm1_unit_121
I1018 00:09:13.355551 30096 net.cpp:406] lstm1_unit_121 <- c_120
I1018 00:09:13.355557 30096 net.cpp:406] lstm1_unit_121 <- gate_input_121
I1018 00:09:13.355563 30096 net.cpp:406] lstm1_unit_121 <- cont_121_lstm1_cont_slice_120_split_1
I1018 00:09:13.355571 30096 net.cpp:380] lstm1_unit_121 -> c_121
I1018 00:09:13.355579 30096 net.cpp:380] lstm1_unit_121 -> h_121
I1018 00:09:13.355633 30096 net.cpp:122] Setting up lstm1_unit_121
I1018 00:09:13.355640 30096 net.cpp:129] Top shape: 1 150 512 (76800)
I1018 00:09:13.355646 30096 net.cpp:129] Top shape: 1 150 512 (76800)
I1018 00:09:13.355651 30096 net.cpp:137] Memory required for data: 837427200
I1018 00:09:13.355656 30096 layer_factory.hpp:77] Creating layer h_121_lstm1_unit_121_1_split
I1018 00:09:13.355665 30096 net.cpp:84] Creating Layer h_121_lstm1_unit_121_1_split
I1018 00:09:13.355671 30096 net.cpp:406] h_121_lstm1_unit_121_1_split <- h_121
I1018 00:09:13.355679 30096 net.cpp:380] h_121_lstm1_unit_121_1_split -> h_121_lstm1_unit_121_1_split_0
I1018 00:09:13.355686 30096 net.cpp:380] h_121_lstm1_unit_121_1_split -> h_121_lstm1_unit_121_1_split_1
I1018 00:09:13.355741 30096 net.cpp:122] Setting up h_121_lstm1_unit_121_1_split
I1018 00:09:13.355767 30096 net.cpp:129] Top shape: 1 150 512 (76800)
I1018 00:09:13.355777 30096 net.cpp:129] Top shape: 1 150 512 (76800)
I1018 00:09:13.355782 30096 net.cpp:137] Memory required for data: 838041600
I1018 00:09:13.355787 30096 layer_factory.hpp:77] Creating layer lstm1_h_conted_121
I1018 00:09:13.355796 30096 net.cpp:84] Creating Layer lstm1_h_conted_121
I1018 00:09:13.355803 30096 net.cpp:406] lstm1_h_conted_121 <- h_121_lstm1_unit_121_1_split_0
I1018 00:09:13.355811 30096 net.cpp:406] lstm1_h_conted_121 <- cont_122_lstm1_cont_slice_121_split_0
I1018 00:09:13.355819 30096 net.cpp:380] lstm1_h_conted_121 -> h_conted_121
I1018 00:09:13.355903 30096 net.cpp:122] Setting up lstm1_h_conted_121
I1018 00:09:13.355914 30096 net.cpp:129] Top shape: 1 150 512 (76800)
I1018 00:09:13.355919 30096 net.cpp:137] Memory required for data: 838348800
I1018 00:09:13.355923 30096 layer_factory.hpp:77] Creating layer lstm1_transform_122
I1018 00:09:13.355936 30096 net.cpp:84] Creating Layer lstm1_transform_122
I1018 00:09:13.355942 30096 net.cpp:406] lstm1_transform_122 <- h_conted_121
I1018 00:09:13.355949 30096 net.cpp:380] lstm1_transform_122 -> W_hc_h_121
I1018 00:09:13.369181 30096 net.cpp:122] Setting up lstm1_transform_122
I1018 00:09:13.369199 30096 net.cpp:129] Top shape: 1 150 2048 (307200)
I1018 00:09:13.369208 30096 net.cpp:137] Memory required for data: 839577600
I1018 00:09:13.369216 30096 net.cpp:465] Sharing parameters 'W_hc' owned by layer 'lstm1_transform_1', param index 0
I1018 00:09:13.369222 30096 layer_factory.hpp:77] Creating layer lstm1_gate_input_122
I1018 00:09:13.369232 30096 net.cpp:84] Creating Layer lstm1_gate_input_122
I1018 00:09:13.369240 30096 net.cpp:406] lstm1_gate_input_122 <- W_hc_h_121
I1018 00:09:13.369246 30096 net.cpp:406] lstm1_gate_input_122 <- W_xc_x_122
I1018 00:09:13.369254 30096 net.cpp:380] lstm1_gate_input_122 -> gate_input_122
I1018 00:09:13.369302 30096 net.cpp:122] Setting up lstm1_gate_input_122
I1018 00:09:13.369312 30096 net.cpp:129] Top shape: 1 150 2048 (307200)
I1018 00:09:13.369316 30096 net.cpp:137] Memory required for data: 840806400
I1018 00:09:13.369320 30096 layer_factory.hpp:77] Creating layer lstm1_unit_122
I1018 00:09:13.369333 30096 net.cpp:84] Creating Layer lstm1_unit_122
I1018 00:09:13.369339 30096 net.cpp:406] lstm1_unit_122 <- c_121
I1018 00:09:13.369346 30096 net.cpp:406] lstm1_unit_122 <- gate_input_122
I1018 00:09:13.369354 30096 net.cpp:406] lstm1_unit_122 <- cont_122_lstm1_cont_slice_121_split_1
I1018 00:09:13.369361 30096 net.cpp:380] lstm1_unit_122 -> c_122
I1018 00:09:13.369371 30096 net.cpp:380] lstm1_unit_122 -> h_122
I1018 00:09:13.369427 30096 net.cpp:122] Setting up lstm1_unit_122
I1018 00:09:13.369434 30096 net.cpp:129] Top shape: 1 150 512 (76800)
I1018 00:09:13.369441 30096 net.cpp:129] Top shape: 1 150 512 (76800)
I1018 00:09:13.369446 30096 net.cpp:137] Memory required for data: 841420800
I1018 00:09:13.369449 30096 layer_factory.hpp:77] Creating layer h_122_lstm1_unit_122_1_split
I1018 00:09:13.369457 30096 net.cpp:84] Creating Layer h_122_lstm1_unit_122_1_split
I1018 00:09:13.369462 30096 net.cpp:406] h_122_lstm1_unit_122_1_split <- h_122
I1018 00:09:13.369470 30096 net.cpp:380] h_122_lstm1_unit_122_1_split -> h_122_lstm1_unit_122_1_split_0
I1018 00:09:13.369479 30096 net.cpp:380] h_122_lstm1_unit_122_1_split -> h_122_lstm1_unit_122_1_split_1
I1018 00:09:13.369515 30096 net.cpp:122] Setting up h_122_lstm1_unit_122_1_split
I1018 00:09:13.369523 30096 net.cpp:129] Top shape: 1 150 512 (76800)
I1018 00:09:13.369529 30096 net.cpp:129] Top shape: 1 150 512 (76800)
I1018 00:09:13.369532 30096 net.cpp:137] Memory required for data: 842035200
I1018 00:09:13.369537 30096 layer_factory.hpp:77] Creating layer lstm1_h_conted_122
I1018 00:09:13.369547 30096 net.cpp:84] Creating Layer lstm1_h_conted_122
I1018 00:09:13.369554 30096 net.cpp:406] lstm1_h_conted_122 <- h_122_lstm1_unit_122_1_split_0
I1018 00:09:13.369561 30096 net.cpp:406] lstm1_h_conted_122 <- cont_123_lstm1_cont_slice_122_split_0
I1018 00:09:13.369571 30096 net.cpp:380] lstm1_h_conted_122 -> h_conted_122
I1018 00:09:13.369650 30096 net.cpp:122] Setting up lstm1_h_conted_122
I1018 00:09:13.369664 30096 net.cpp:129] Top shape: 1 150 512 (76800)
I1018 00:09:13.369669 30096 net.cpp:137] Memory required for data: 842342400
I1018 00:09:13.369674 30096 layer_factory.hpp:77] Creating layer lstm1_transform_123
I1018 00:09:13.369684 30096 net.cpp:84] Creating Layer lstm1_transform_123
I1018 00:09:13.369690 30096 net.cpp:406] lstm1_transform_123 <- h_conted_122
I1018 00:09:13.369701 30096 net.cpp:380] lstm1_transform_123 -> W_hc_h_122
I1018 00:09:13.383312 30096 net.cpp:122] Setting up lstm1_transform_123
I1018 00:09:13.383344 30096 net.cpp:129] Top shape: 1 150 2048 (307200)
I1018 00:09:13.383349 30096 net.cpp:137] Memory required for data: 843571200
I1018 00:09:13.383358 30096 net.cpp:465] Sharing parameters 'W_hc' owned by layer 'lstm1_transform_1', param index 0
I1018 00:09:13.383366 30096 layer_factory.hpp:77] Creating layer lstm1_gate_input_123
I1018 00:09:13.383383 30096 net.cpp:84] Creating Layer lstm1_gate_input_123
I1018 00:09:13.383397 30096 net.cpp:406] lstm1_gate_input_123 <- W_hc_h_122
I1018 00:09:13.383407 30096 net.cpp:406] lstm1_gate_input_123 <- W_xc_x_123
I1018 00:09:13.383416 30096 net.cpp:380] lstm1_gate_input_123 -> gate_input_123
I1018 00:09:13.383460 30096 net.cpp:122] Setting up lstm1_gate_input_123
I1018 00:09:13.383471 30096 net.cpp:129] Top shape: 1 150 2048 (307200)
I1018 00:09:13.383476 30096 net.cpp:137] Memory required for data: 844800000
I1018 00:09:13.383481 30096 layer_factory.hpp:77] Creating layer lstm1_unit_123
I1018 00:09:13.383491 30096 net.cpp:84] Creating Layer lstm1_unit_123
I1018 00:09:13.383500 30096 net.cpp:406] lstm1_unit_123 <- c_122
I1018 00:09:13.383507 30096 net.cpp:406] lstm1_unit_123 <- gate_input_123
I1018 00:09:13.383514 30096 net.cpp:406] lstm1_unit_123 <- cont_123_lstm1_cont_slice_122_split_1
I1018 00:09:13.383522 30096 net.cpp:380] lstm1_unit_123 -> c_123
I1018 00:09:13.383533 30096 net.cpp:380] lstm1_unit_123 -> h_123
I1018 00:09:13.383594 30096 net.cpp:122] Setting up lstm1_unit_123
I1018 00:09:13.383604 30096 net.cpp:129] Top shape: 1 150 512 (76800)
I1018 00:09:13.383610 30096 net.cpp:129] Top shape: 1 150 512 (76800)
I1018 00:09:13.383613 30096 net.cpp:137] Memory required for data: 845414400
I1018 00:09:13.383618 30096 layer_factory.hpp:77] Creating layer h_123_lstm1_unit_123_1_split
I1018 00:09:13.383625 30096 net.cpp:84] Creating Layer h_123_lstm1_unit_123_1_split
I1018 00:09:13.383631 30096 net.cpp:406] h_123_lstm1_unit_123_1_split <- h_123
I1018 00:09:13.383641 30096 net.cpp:380] h_123_lstm1_unit_123_1_split -> h_123_lstm1_unit_123_1_split_0
I1018 00:09:13.383656 30096 net.cpp:380] h_123_lstm1_unit_123_1_split -> h_123_lstm1_unit_123_1_split_1
I1018 00:09:13.383698 30096 net.cpp:122] Setting up h_123_lstm1_unit_123_1_split
I1018 00:09:13.383708 30096 net.cpp:129] Top shape: 1 150 512 (76800)
I1018 00:09:13.383713 30096 net.cpp:129] Top shape: 1 150 512 (76800)
I1018 00:09:13.383718 30096 net.cpp:137] Memory required for data: 846028800
I1018 00:09:13.383723 30096 layer_factory.hpp:77] Creating layer lstm1_h_conted_123
I1018 00:09:13.383738 30096 net.cpp:84] Creating Layer lstm1_h_conted_123
I1018 00:09:13.383746 30096 net.cpp:406] lstm1_h_conted_123 <- h_123_lstm1_unit_123_1_split_0
I1018 00:09:13.383757 30096 net.cpp:406] lstm1_h_conted_123 <- cont_124_lstm1_cont_slice_123_split_0
I1018 00:09:13.383766 30096 net.cpp:380] lstm1_h_conted_123 -> h_conted_123
I1018 00:09:13.383889 30096 net.cpp:122] Setting up lstm1_h_conted_123
I1018 00:09:13.383901 30096 net.cpp:129] Top shape: 1 150 512 (76800)
I1018 00:09:13.383905 30096 net.cpp:137] Memory required for data: 846336000
I1018 00:09:13.383910 30096 layer_factory.hpp:77] Creating layer lstm1_transform_124
I1018 00:09:13.383924 30096 net.cpp:84] Creating Layer lstm1_transform_124
I1018 00:09:13.383929 30096 net.cpp:406] lstm1_transform_124 <- h_conted_123
I1018 00:09:13.383939 30096 net.cpp:380] lstm1_transform_124 -> W_hc_h_123
I1018 00:09:13.397330 30096 net.cpp:122] Setting up lstm1_transform_124
I1018 00:09:13.397357 30096 net.cpp:129] Top shape: 1 150 2048 (307200)
I1018 00:09:13.397368 30096 net.cpp:137] Memory required for data: 847564800
I1018 00:09:13.397377 30096 net.cpp:465] Sharing parameters 'W_hc' owned by layer 'lstm1_transform_1', param index 0
I1018 00:09:13.397382 30096 layer_factory.hpp:77] Creating layer lstm1_gate_input_124
I1018 00:09:13.397397 30096 net.cpp:84] Creating Layer lstm1_gate_input_124
I1018 00:09:13.397403 30096 net.cpp:406] lstm1_gate_input_124 <- W_hc_h_123
I1018 00:09:13.397411 30096 net.cpp:406] lstm1_gate_input_124 <- W_xc_x_124
I1018 00:09:13.397421 30096 net.cpp:380] lstm1_gate_input_124 -> gate_input_124
I1018 00:09:13.397459 30096 net.cpp:122] Setting up lstm1_gate_input_124
I1018 00:09:13.397469 30096 net.cpp:129] Top shape: 1 150 2048 (307200)
I1018 00:09:13.397472 30096 net.cpp:137] Memory required for data: 848793600
I1018 00:09:13.397477 30096 layer_factory.hpp:77] Creating layer lstm1_unit_124
I1018 00:09:13.397485 30096 net.cpp:84] Creating Layer lstm1_unit_124
I1018 00:09:13.397491 30096 net.cpp:406] lstm1_unit_124 <- c_123
I1018 00:09:13.397498 30096 net.cpp:406] lstm1_unit_124 <- gate_input_124
I1018 00:09:13.397505 30096 net.cpp:406] lstm1_unit_124 <- cont_124_lstm1_cont_slice_123_split_1
I1018 00:09:13.397518 30096 net.cpp:380] lstm1_unit_124 -> c_124
I1018 00:09:13.397531 30096 net.cpp:380] lstm1_unit_124 -> h_124
I1018 00:09:13.397588 30096 net.cpp:122] Setting up lstm1_unit_124
I1018 00:09:13.397596 30096 net.cpp:129] Top shape: 1 150 512 (76800)
I1018 00:09:13.397603 30096 net.cpp:129] Top shape: 1 150 512 (76800)
I1018 00:09:13.397608 30096 net.cpp:137] Memory required for data: 849408000
I1018 00:09:13.397614 30096 layer_factory.hpp:77] Creating layer h_124_lstm1_unit_124_1_split
I1018 00:09:13.397621 30096 net.cpp:84] Creating Layer h_124_lstm1_unit_124_1_split
I1018 00:09:13.397626 30096 net.cpp:406] h_124_lstm1_unit_124_1_split <- h_124
I1018 00:09:13.397634 30096 net.cpp:380] h_124_lstm1_unit_124_1_split -> h_124_lstm1_unit_124_1_split_0
I1018 00:09:13.397642 30096 net.cpp:380] h_124_lstm1_unit_124_1_split -> h_124_lstm1_unit_124_1_split_1
I1018 00:09:13.397703 30096 net.cpp:122] Setting up h_124_lstm1_unit_124_1_split
I1018 00:09:13.397716 30096 net.cpp:129] Top shape: 1 150 512 (76800)
I1018 00:09:13.397722 30096 net.cpp:129] Top shape: 1 150 512 (76800)
I1018 00:09:13.397725 30096 net.cpp:137] Memory required for data: 850022400
I1018 00:09:13.397730 30096 layer_factory.hpp:77] Creating layer lstm1_h_conted_124
I1018 00:09:13.397739 30096 net.cpp:84] Creating Layer lstm1_h_conted_124
I1018 00:09:13.397745 30096 net.cpp:406] lstm1_h_conted_124 <- h_124_lstm1_unit_124_1_split_0
I1018 00:09:13.397753 30096 net.cpp:406] lstm1_h_conted_124 <- cont_125_lstm1_cont_slice_124_split_0
I1018 00:09:13.397763 30096 net.cpp:380] lstm1_h_conted_124 -> h_conted_124
I1018 00:09:13.397866 30096 net.cpp:122] Setting up lstm1_h_conted_124
I1018 00:09:13.397877 30096 net.cpp:129] Top shape: 1 150 512 (76800)
I1018 00:09:13.397882 30096 net.cpp:137] Memory required for data: 850329600
I1018 00:09:13.397887 30096 layer_factory.hpp:77] Creating layer lstm1_transform_125
I1018 00:09:13.397897 30096 net.cpp:84] Creating Layer lstm1_transform_125
I1018 00:09:13.397903 30096 net.cpp:406] lstm1_transform_125 <- h_conted_124
I1018 00:09:13.397914 30096 net.cpp:380] lstm1_transform_125 -> W_hc_h_124
I1018 00:09:13.411243 30096 net.cpp:122] Setting up lstm1_transform_125
I1018 00:09:13.411267 30096 net.cpp:129] Top shape: 1 150 2048 (307200)
I1018 00:09:13.411273 30096 net.cpp:137] Memory required for data: 851558400
I1018 00:09:13.411280 30096 net.cpp:465] Sharing parameters 'W_hc' owned by layer 'lstm1_transform_1', param index 0
I1018 00:09:13.411288 30096 layer_factory.hpp:77] Creating layer lstm1_gate_input_125
I1018 00:09:13.411300 30096 net.cpp:84] Creating Layer lstm1_gate_input_125
I1018 00:09:13.411309 30096 net.cpp:406] lstm1_gate_input_125 <- W_hc_h_124
I1018 00:09:13.411319 30096 net.cpp:406] lstm1_gate_input_125 <- W_xc_x_125
I1018 00:09:13.411337 30096 net.cpp:380] lstm1_gate_input_125 -> gate_input_125
I1018 00:09:13.411378 30096 net.cpp:122] Setting up lstm1_gate_input_125
I1018 00:09:13.411387 30096 net.cpp:129] Top shape: 1 150 2048 (307200)
I1018 00:09:13.411391 30096 net.cpp:137] Memory required for data: 852787200
I1018 00:09:13.411396 30096 layer_factory.hpp:77] Creating layer lstm1_unit_125
I1018 00:09:13.411406 30096 net.cpp:84] Creating Layer lstm1_unit_125
I1018 00:09:13.411412 30096 net.cpp:406] lstm1_unit_125 <- c_124
I1018 00:09:13.411420 30096 net.cpp:406] lstm1_unit_125 <- gate_input_125
I1018 00:09:13.411427 30096 net.cpp:406] lstm1_unit_125 <- cont_125_lstm1_cont_slice_124_split_1
I1018 00:09:13.411434 30096 net.cpp:380] lstm1_unit_125 -> c_125
I1018 00:09:13.411445 30096 net.cpp:380] lstm1_unit_125 -> h_125
I1018 00:09:13.411504 30096 net.cpp:122] Setting up lstm1_unit_125
I1018 00:09:13.411511 30096 net.cpp:129] Top shape: 1 150 512 (76800)
I1018 00:09:13.411516 30096 net.cpp:129] Top shape: 1 150 512 (76800)
I1018 00:09:13.411521 30096 net.cpp:137] Memory required for data: 853401600
I1018 00:09:13.411526 30096 layer_factory.hpp:77] Creating layer h_125_lstm1_unit_125_1_split
I1018 00:09:13.411533 30096 net.cpp:84] Creating Layer h_125_lstm1_unit_125_1_split
I1018 00:09:13.411538 30096 net.cpp:406] h_125_lstm1_unit_125_1_split <- h_125
I1018 00:09:13.411546 30096 net.cpp:380] h_125_lstm1_unit_125_1_split -> h_125_lstm1_unit_125_1_split_0
I1018 00:09:13.411554 30096 net.cpp:380] h_125_lstm1_unit_125_1_split -> h_125_lstm1_unit_125_1_split_1
I1018 00:09:13.411597 30096 net.cpp:122] Setting up h_125_lstm1_unit_125_1_split
I1018 00:09:13.411605 30096 net.cpp:129] Top shape: 1 150 512 (76800)
I1018 00:09:13.411610 30096 net.cpp:129] Top shape: 1 150 512 (76800)
I1018 00:09:13.411615 30096 net.cpp:137] Memory required for data: 854016000
I1018 00:09:13.411619 30096 layer_factory.hpp:77] Creating layer lstm1_h_conted_125
I1018 00:09:13.411628 30096 net.cpp:84] Creating Layer lstm1_h_conted_125
I1018 00:09:13.411634 30096 net.cpp:406] lstm1_h_conted_125 <- h_125_lstm1_unit_125_1_split_0
I1018 00:09:13.411643 30096 net.cpp:406] lstm1_h_conted_125 <- cont_126_lstm1_cont_slice_125_split_0
I1018 00:09:13.411653 30096 net.cpp:380] lstm1_h_conted_125 -> h_conted_125
I1018 00:09:13.411758 30096 net.cpp:122] Setting up lstm1_h_conted_125
I1018 00:09:13.411769 30096 net.cpp:129] Top shape: 1 150 512 (76800)
I1018 00:09:13.411774 30096 net.cpp:137] Memory required for data: 854323200
I1018 00:09:13.411778 30096 layer_factory.hpp:77] Creating layer lstm1_transform_126
I1018 00:09:13.411789 30096 net.cpp:84] Creating Layer lstm1_transform_126
I1018 00:09:13.411797 30096 net.cpp:406] lstm1_transform_126 <- h_conted_125
I1018 00:09:13.411806 30096 net.cpp:380] lstm1_transform_126 -> W_hc_h_125
I1018 00:09:13.425154 30096 net.cpp:122] Setting up lstm1_transform_126
I1018 00:09:13.425175 30096 net.cpp:129] Top shape: 1 150 2048 (307200)
I1018 00:09:13.425181 30096 net.cpp:137] Memory required for data: 855552000
I1018 00:09:13.425187 30096 net.cpp:465] Sharing parameters 'W_hc' owned by layer 'lstm1_transform_1', param index 0
I1018 00:09:13.425195 30096 layer_factory.hpp:77] Creating layer lstm1_gate_input_126
I1018 00:09:13.425206 30096 net.cpp:84] Creating Layer lstm1_gate_input_126
I1018 00:09:13.425213 30096 net.cpp:406] lstm1_gate_input_126 <- W_hc_h_125
I1018 00:09:13.425221 30096 net.cpp:406] lstm1_gate_input_126 <- W_xc_x_126
I1018 00:09:13.425230 30096 net.cpp:380] lstm1_gate_input_126 -> gate_input_126
I1018 00:09:13.425269 30096 net.cpp:122] Setting up lstm1_gate_input_126
I1018 00:09:13.425278 30096 net.cpp:129] Top shape: 1 150 2048 (307200)
I1018 00:09:13.425282 30096 net.cpp:137] Memory required for data: 856780800
I1018 00:09:13.425287 30096 layer_factory.hpp:77] Creating layer lstm1_unit_126
I1018 00:09:13.425294 30096 net.cpp:84] Creating Layer lstm1_unit_126
I1018 00:09:13.425302 30096 net.cpp:406] lstm1_unit_126 <- c_125
I1018 00:09:13.425312 30096 net.cpp:406] lstm1_unit_126 <- gate_input_126
I1018 00:09:13.425318 30096 net.cpp:406] lstm1_unit_126 <- cont_126_lstm1_cont_slice_125_split_1
I1018 00:09:13.425326 30096 net.cpp:380] lstm1_unit_126 -> c_126
I1018 00:09:13.425335 30096 net.cpp:380] lstm1_unit_126 -> h_126
I1018 00:09:13.425410 30096 net.cpp:122] Setting up lstm1_unit_126
I1018 00:09:13.425423 30096 net.cpp:129] Top shape: 1 150 512 (76800)
I1018 00:09:13.425429 30096 net.cpp:129] Top shape: 1 150 512 (76800)
I1018 00:09:13.425433 30096 net.cpp:137] Memory required for data: 857395200
I1018 00:09:13.425438 30096 layer_factory.hpp:77] Creating layer h_126_lstm1_unit_126_1_split
I1018 00:09:13.425446 30096 net.cpp:84] Creating Layer h_126_lstm1_unit_126_1_split
I1018 00:09:13.425451 30096 net.cpp:406] h_126_lstm1_unit_126_1_split <- h_126
I1018 00:09:13.425458 30096 net.cpp:380] h_126_lstm1_unit_126_1_split -> h_126_lstm1_unit_126_1_split_0
I1018 00:09:13.425467 30096 net.cpp:380] h_126_lstm1_unit_126_1_split -> h_126_lstm1_unit_126_1_split_1
I1018 00:09:13.425508 30096 net.cpp:122] Setting up h_126_lstm1_unit_126_1_split
I1018 00:09:13.425516 30096 net.cpp:129] Top shape: 1 150 512 (76800)
I1018 00:09:13.425521 30096 net.cpp:129] Top shape: 1 150 512 (76800)
I1018 00:09:13.425526 30096 net.cpp:137] Memory required for data: 858009600
I1018 00:09:13.425531 30096 layer_factory.hpp:77] Creating layer lstm1_h_conted_126
I1018 00:09:13.425541 30096 net.cpp:84] Creating Layer lstm1_h_conted_126
I1018 00:09:13.425546 30096 net.cpp:406] lstm1_h_conted_126 <- h_126_lstm1_unit_126_1_split_0
I1018 00:09:13.425559 30096 net.cpp:406] lstm1_h_conted_126 <- cont_127_lstm1_cont_slice_126_split_0
I1018 00:09:13.425568 30096 net.cpp:380] lstm1_h_conted_126 -> h_conted_126
I1018 00:09:13.425660 30096 net.cpp:122] Setting up lstm1_h_conted_126
I1018 00:09:13.425671 30096 net.cpp:129] Top shape: 1 150 512 (76800)
I1018 00:09:13.425676 30096 net.cpp:137] Memory required for data: 858316800
I1018 00:09:13.425681 30096 layer_factory.hpp:77] Creating layer lstm1_transform_127
I1018 00:09:13.425691 30096 net.cpp:84] Creating Layer lstm1_transform_127
I1018 00:09:13.425698 30096 net.cpp:406] lstm1_transform_127 <- h_conted_126
I1018 00:09:13.425706 30096 net.cpp:380] lstm1_transform_127 -> W_hc_h_126
I1018 00:09:13.438994 30096 net.cpp:122] Setting up lstm1_transform_127
I1018 00:09:13.439012 30096 net.cpp:129] Top shape: 1 150 2048 (307200)
I1018 00:09:13.439018 30096 net.cpp:137] Memory required for data: 859545600
I1018 00:09:13.439193 30096 net.cpp:465] Sharing parameters 'W_hc' owned by layer 'lstm1_transform_1', param index 0
I1018 00:09:13.439203 30096 layer_factory.hpp:77] Creating layer lstm1_gate_input_127
I1018 00:09:13.439213 30096 net.cpp:84] Creating Layer lstm1_gate_input_127
I1018 00:09:13.439219 30096 net.cpp:406] lstm1_gate_input_127 <- W_hc_h_126
I1018 00:09:13.439229 30096 net.cpp:406] lstm1_gate_input_127 <- W_xc_x_127
I1018 00:09:13.439239 30096 net.cpp:380] lstm1_gate_input_127 -> gate_input_127
I1018 00:09:13.439278 30096 net.cpp:122] Setting up lstm1_gate_input_127
I1018 00:09:13.439287 30096 net.cpp:129] Top shape: 1 150 2048 (307200)
I1018 00:09:13.439292 30096 net.cpp:137] Memory required for data: 860774400
I1018 00:09:13.439297 30096 layer_factory.hpp:77] Creating layer lstm1_unit_127
I1018 00:09:13.439311 30096 net.cpp:84] Creating Layer lstm1_unit_127
I1018 00:09:13.439317 30096 net.cpp:406] lstm1_unit_127 <- c_126
I1018 00:09:13.439324 30096 net.cpp:406] lstm1_unit_127 <- gate_input_127
I1018 00:09:13.439330 30096 net.cpp:406] lstm1_unit_127 <- cont_127_lstm1_cont_slice_126_split_1
I1018 00:09:13.439337 30096 net.cpp:380] lstm1_unit_127 -> c_127
I1018 00:09:13.439347 30096 net.cpp:380] lstm1_unit_127 -> h_127
I1018 00:09:13.439402 30096 net.cpp:122] Setting up lstm1_unit_127
I1018 00:09:13.439414 30096 net.cpp:129] Top shape: 1 150 512 (76800)
I1018 00:09:13.439419 30096 net.cpp:129] Top shape: 1 150 512 (76800)
I1018 00:09:13.439424 30096 net.cpp:137] Memory required for data: 861388800
I1018 00:09:13.439429 30096 layer_factory.hpp:77] Creating layer h_127_lstm1_unit_127_1_split
I1018 00:09:13.439436 30096 net.cpp:84] Creating Layer h_127_lstm1_unit_127_1_split
I1018 00:09:13.439442 30096 net.cpp:406] h_127_lstm1_unit_127_1_split <- h_127
I1018 00:09:13.439451 30096 net.cpp:380] h_127_lstm1_unit_127_1_split -> h_127_lstm1_unit_127_1_split_0
I1018 00:09:13.439460 30096 net.cpp:380] h_127_lstm1_unit_127_1_split -> h_127_lstm1_unit_127_1_split_1
I1018 00:09:13.439502 30096 net.cpp:122] Setting up h_127_lstm1_unit_127_1_split
I1018 00:09:13.439509 30096 net.cpp:129] Top shape: 1 150 512 (76800)
I1018 00:09:13.439515 30096 net.cpp:129] Top shape: 1 150 512 (76800)
I1018 00:09:13.439519 30096 net.cpp:137] Memory required for data: 862003200
I1018 00:09:13.439524 30096 layer_factory.hpp:77] Creating layer lstm1_h_conted_127
I1018 00:09:13.439532 30096 net.cpp:84] Creating Layer lstm1_h_conted_127
I1018 00:09:13.439538 30096 net.cpp:406] lstm1_h_conted_127 <- h_127_lstm1_unit_127_1_split_0
I1018 00:09:13.439546 30096 net.cpp:406] lstm1_h_conted_127 <- cont_128_lstm1_cont_slice_127_split_0
I1018 00:09:13.439554 30096 net.cpp:380] lstm1_h_conted_127 -> h_conted_127
I1018 00:09:13.439640 30096 net.cpp:122] Setting up lstm1_h_conted_127
I1018 00:09:13.439651 30096 net.cpp:129] Top shape: 1 150 512 (76800)
I1018 00:09:13.439656 30096 net.cpp:137] Memory required for data: 862310400
I1018 00:09:13.439661 30096 layer_factory.hpp:77] Creating layer lstm1_transform_128
I1018 00:09:13.439671 30096 net.cpp:84] Creating Layer lstm1_transform_128
I1018 00:09:13.439677 30096 net.cpp:406] lstm1_transform_128 <- h_conted_127
I1018 00:09:13.439687 30096 net.cpp:380] lstm1_transform_128 -> W_hc_h_127
I1018 00:09:13.452879 30096 net.cpp:122] Setting up lstm1_transform_128
I1018 00:09:13.452898 30096 net.cpp:129] Top shape: 1 150 2048 (307200)
I1018 00:09:13.452903 30096 net.cpp:137] Memory required for data: 863539200
I1018 00:09:13.452909 30096 net.cpp:465] Sharing parameters 'W_hc' owned by layer 'lstm1_transform_1', param index 0
I1018 00:09:13.452915 30096 layer_factory.hpp:77] Creating layer lstm1_gate_input_128
I1018 00:09:13.452925 30096 net.cpp:84] Creating Layer lstm1_gate_input_128
I1018 00:09:13.452932 30096 net.cpp:406] lstm1_gate_input_128 <- W_hc_h_127
I1018 00:09:13.452939 30096 net.cpp:406] lstm1_gate_input_128 <- W_xc_x_128
I1018 00:09:13.452950 30096 net.cpp:380] lstm1_gate_input_128 -> gate_input_128
I1018 00:09:13.452989 30096 net.cpp:122] Setting up lstm1_gate_input_128
I1018 00:09:13.452997 30096 net.cpp:129] Top shape: 1 150 2048 (307200)
I1018 00:09:13.453002 30096 net.cpp:137] Memory required for data: 864768000
I1018 00:09:13.453008 30096 layer_factory.hpp:77] Creating layer lstm1_unit_128
I1018 00:09:13.453018 30096 net.cpp:84] Creating Layer lstm1_unit_128
I1018 00:09:13.453024 30096 net.cpp:406] lstm1_unit_128 <- c_127
I1018 00:09:13.453032 30096 net.cpp:406] lstm1_unit_128 <- gate_input_128
I1018 00:09:13.453038 30096 net.cpp:406] lstm1_unit_128 <- cont_128_lstm1_cont_slice_127_split_1
I1018 00:09:13.453045 30096 net.cpp:380] lstm1_unit_128 -> c_128
I1018 00:09:13.453057 30096 net.cpp:380] lstm1_unit_128 -> h_128
I1018 00:09:13.453116 30096 net.cpp:122] Setting up lstm1_unit_128
I1018 00:09:13.453143 30096 net.cpp:129] Top shape: 1 150 512 (76800)
I1018 00:09:13.453150 30096 net.cpp:129] Top shape: 1 150 512 (76800)
I1018 00:09:13.453153 30096 net.cpp:137] Memory required for data: 865382400
I1018 00:09:13.453158 30096 layer_factory.hpp:77] Creating layer lstm1_
I1018 00:09:13.453171 30096 net.cpp:84] Creating Layer lstm1_
I1018 00:09:13.453176 30096 net.cpp:406] lstm1_ <- c_128
I1018 00:09:13.453217 30096 net.cpp:380] lstm1_ -> c_T
I1018 00:09:13.453265 30096 net.cpp:122] Setting up lstm1_
I1018 00:09:13.453275 30096 net.cpp:129] Top shape: 1 150 512 (76800)
I1018 00:09:13.453280 30096 net.cpp:137] Memory required for data: 865689600
I1018 00:09:13.453285 30096 layer_factory.hpp:77] Creating layer lstm1_h_concat
I1018 00:09:13.453310 30096 net.cpp:84] Creating Layer lstm1_h_concat
I1018 00:09:13.453325 30096 net.cpp:406] lstm1_h_concat <- h_1_lstm1_unit_1_1_split_1
I1018 00:09:13.453351 30096 net.cpp:406] lstm1_h_concat <- h_2_lstm1_unit_2_1_split_1
…
I1018 00:09:13.489174 30096 net.cpp:200] lstm1_ does not need backward computation.
I1018 00:09:13.489179 30096 net.cpp:242] This network produces output c_T
I1018 00:09:13.489189 30096 net.cpp:242] This network produces output h_pseudoloss
I1018 00:09:13.609624 30096 net.cpp:255] Network initialization done.
I1018 00:09:13.611915 30096 recurrent_layer.cpp:150] Adding parameter 0: W_xc
I1018 00:09:13.611927 30096 recurrent_layer.cpp:150] Adding parameter 1: b_c
I1018 00:09:13.611943 30096 recurrent_layer.cpp:150] Adding parameter 2: W_hc
I1018 00:09:13.620491 30096 net.cpp:122] Setting up lstm1
I1018 00:09:13.620559 30096 net.cpp:129] Top shape: 128 150 512 (9830400)
I1018 00:09:13.620565 30096 net.cpp:137] Memory required for data: 17389672200
I1018 00:09:13.620584 30096 layer_factory.hpp:77] Creating layer lstm1-drop
I1018 00:09:13.620601 30096 net.cpp:84] Creating Layer lstm1-drop
I1018 00:09:13.620615 30096 net.cpp:406] lstm1-drop <- lstm1
I1018 00:09:13.620628 30096 net.cpp:380] lstm1-drop -> lstm1-drop
I1018 00:09:13.620692 30096 net.cpp:122] Setting up lstm1-drop
I1018 00:09:13.620707 30096 net.cpp:129] Top shape: 128 150 512 (9830400)
I1018 00:09:13.620712 30096 net.cpp:137] Memory required for data: 17428993800
I1018 00:09:13.620715 30096 layer_factory.hpp:77] Creating layer fc-final
I1018 00:09:13.620731 30096 net.cpp:84] Creating Layer fc-final
I1018 00:09:13.620736 30096 net.cpp:406] fc-final <- lstm1-drop
I1018 00:09:13.620748 30096 net.cpp:380] fc-final -> fc-final
I1018 00:09:13.621184 30096 net.cpp:122] Setting up fc-final
I1018 00:09:13.621196 30096 net.cpp:129] Top shape: 128 150 10 (192000)
I1018 00:09:13.621212 30096 net.cpp:137] Memory required for data: 17429761800
I1018 00:09:13.621219 30096 layer_factory.hpp:77] Creating layer fc-final_fc-final_0_split
I1018 00:09:13.621228 30096 net.cpp:84] Creating Layer fc-final_fc-final_0_split
I1018 00:09:13.621233 30096 net.cpp:406] fc-final_fc-final_0_split <- fc-final
I1018 00:09:13.621240 30096 net.cpp:380] fc-final_fc-final_0_split -> fc-final_fc-final_0_split_0
I1018 00:09:13.621248 30096 net.cpp:380] fc-final_fc-final_0_split -> fc-final_fc-final_0_split_1
I1018 00:09:13.621294 30096 net.cpp:122] Setting up fc-final_fc-final_0_split
I1018 00:09:13.621301 30096 net.cpp:129] Top shape: 128 150 10 (192000)
I1018 00:09:13.621305 30096 net.cpp:129] Top shape: 128 150 10 (192000)
I1018 00:09:13.621309 30096 net.cpp:137] Memory required for data: 17431297800
I1018 00:09:13.621315 30096 layer_factory.hpp:77] Creating layer loss
I1018 00:09:13.621325 30096 net.cpp:84] Creating Layer loss
I1018 00:09:13.621330 30096 net.cpp:406] loss <- fc-final_fc-final_0_split_0
I1018 00:09:13.621338 30096 net.cpp:406] loss <- reshape-label_label_tran_0_split_0
I1018 00:09:13.621345 30096 net.cpp:380] loss -> loss
…
