…
I1018 00:04:49.369093 29901 net.cpp:294] The NetState phase (0) differed from the phase (1) specified by a rule in layer Silence
I1018 00:04:49.369300 29901 net.cpp:51] Initializing net from parameters: 
name: "VGG-Places365"
state {
  phase: TRAIN
  level: 0
  stage: ""
}
layer {
  name: "data"
  type: "ImageData"
  top: "data"
  top: "label"
  include {
    phase: TRAIN
  }
  transform_param {
    mirror: true
    crop_size: 224
    mean_value: 104
    mean_value: 117
    mean_value: 123
  }
  image_data_param {
    source: "../Data/lsun_train_list_12w.txt"
    batch_size: 5
    shuffle: true
    new_height: 256
    new_width: 256
  }
}
layer {
  name: "label_tran"
  type: "Python"
  bottom: "label"
  top: "reshape-label"
  top: "clip_markers"
  python_param {
    module: "data_preparation_sort_max_clip"
    layer: "ReshapeLabel"
  }
}
layer {
  name: "conv1_1"
  type: "Convolution"
  bottom: "data"
  top: "conv1_1"
  convolution_param {
    num_output: 64
    pad: 1
    kernel_size: 3
  }
}
layer {
  name: "relu1_1"
  type: "ReLU"
  bottom: "conv1_1"
  top: "conv1_1"
}
layer {
  name: "conv1_2"
  type: "Convolution"
  bottom: "conv1_1"
  top: "conv1_2"
  convolution_param {
    num_output: 64
    pad: 1
    kernel_size: 3
  }
}
layer {
  name: "relu1_2"
  type: "ReLU"
  bottom: "conv1_2"
  top: "conv1_2"
}
layer {
  name: "pool1"
  type: "Pooling"
  bottom: "conv1_2"
  top: "pool1"
  pooling_param {
    pool: MAX
    kernel_size: 2
    stride: 2
  }
}
layer {
  name: "conv2_1"
  type: "Convolution"
  bottom: "pool1"
  top: "conv2_1"
  convolution_param {
    num_output: 128
    pad: 1
    kernel_size: 3
  }
}
layer {
  name: "relu2_1"
  type: "ReLU"
  bottom: "conv2_1"
  top: "conv2_1"
}
layer {
  name: "conv2_2"
  type: "Convolution"
  bottom: "conv2_1"
  top: "conv2_2"
  convolution_param {
    num_output: 128
    pad: 1
    kernel_size: 3
  }
}
layer {
  name: "relu2_2"
  type: "ReLU"
  bottom: "conv2_2"
  top: "conv2_2"
}
layer {
  name: "pool2"
  type: "Pooling"
  bottom: "conv2_2"
  top: "pool2"
  pooling_param {
    pool: MAX
    kernel_size: 2
    stride: 2
  }
}
layer {
  name: "conv3_1"
  type: "Convolution"
  bottom: "pool2"
  top: "conv3_1"
  convolution_param {
    num_output: 256
    pad: 1
    kernel_size: 3
  }
}
layer {
  name: "relu3_1"
  type: "ReLU"
  bottom: "conv3_1"
  top: "conv3_1"
}
layer {
  name: "conv3_2"
  type: "Convolution"
  bottom: "conv3_1"
  top: "conv3_2"
  convolution_param {
    num_output: 256
    pad: 1
    kernel_size: 3
  }
}
layer {
  name: "relu3_2"
  type: "ReLU"
  bottom: "conv3_2"
  top: "conv3_2"
}
layer {
  name: "conv3_3"
  type: "Convolution"
  bottom: "conv3_2"
  top: "conv3_3"
  convolution_param {
    num_output: 256
    pad: 1
    kernel_size: 3
  }
}
layer {
  name: "relu3_3"
  type: "ReLU"
  bottom: "conv3_3"
  top: "conv3_3"
}
layer {
  name: "pool3"
  type: "Pooling"
  bottom: "conv3_3"
  top: "pool3"
  pooling_param {
    pool: MAX
    kernel_size: 2
    stride: 2
  }
}
layer {
  name: "conv4_1"
  type: "Convolution"
  bottom: "pool3"
  top: "conv4_1"
  convolution_param {
    num_output: 512
    pad: 1
    kernel_size: 3
  }
}
layer {
  name: "relu4_1"
  type: "ReLU"
  bottom: "conv4_1"
  top: "conv4_1"
}
layer {
  name: "conv4_2"
  type: "Convolution"
  bottom: "conv4_1"
  top: "conv4_2"
  convolution_param {
    num_output: 512
    pad: 1
    kernel_size: 3
  }
}
layer {
  name: "relu4_2"
  type: "ReLU"
  bottom: "conv4_2"
  top: "conv4_2"
}
layer {
  name: "conv4_3"
  type: "Convolution"
  bottom: "conv4_2"
  top: "conv4_3"
  convolution_param {
    num_output: 512
    pad: 1
    kernel_size: 3
  }
}
layer {
  name: "relu4_3"
  type: "ReLU"
  bottom: "conv4_3"
  top: "conv4_3"
}
layer {
  name: "pool4"
  type: "Pooling"
  bottom: "conv4_3"
  top: "pool4"
  pooling_param {
    pool: MAX
    kernel_size: 2
    stride: 2
  }
}
layer {
  name: "conv5_1"
  type: "Convolution"
  bottom: "pool4"
  top: "conv5_1"
  convolution_param {
    num_output: 512
    pad: 1
    kernel_size: 3
  }
}
layer {
  name: "relu5_1"
  type: "ReLU"
  bottom: "conv5_1"
  top: "conv5_1"
}
layer {
  name: "conv5_2"
  type: "Convolution"
  bottom: "conv5_1"
  top: "conv5_2"
  convolution_param {
    num_output: 512
    pad: 1
    kernel_size: 3
  }
}
layer {
  name: "relu5_2"
  type: "ReLU"
  bottom: "conv5_2"
  top: "conv5_2"
}
layer {
  name: "conv5_3"
  type: "Convolution"
  bottom: "conv5_2"
  top: "conv5_3"
  convolution_param {
    num_output: 512
    pad: 1
    kernel_size: 3
  }
}
layer {
  name: "relu5_3"
  type: "ReLU"
  bottom: "conv5_3"
  top: "conv5_3"
}
layer {
  name: "conv5_3_re"
  type: "Reshape"
  bottom: "conv5_3"
  top: "conv5_3_re"
  reshape_param {
    shape {
      dim: 0
      dim: 0
      dim: -1
    }
  }
}
layer {
  name: "conv5_3_tran"
  type: "Python"
  bottom: "conv5_3_re"
  top: "conv5_3_tran"
  python_param {
    module: "data_preparation_sort_max_clip"
    layer: "DataTransposeSortMaxClip"
  }
}
layer {
  name: "lstm1"
  type: "LSTM"
  bottom: "conv5_3_tran"
  bottom: "clip_markers"
  top: "lstm1"
  recurrent_param {
    num_output: 512
    weight_filler {
      type: "uniform"
      min: -0.01
      max: 0.01
    }
    bias_filler {
      type: "constant"
      value: 0
    }
  }
}
layer {
  name: "lstm1-drop"
  type: "Dropout"
  bottom: "lstm1"
  top: "lstm1-drop"
  dropout_param {
    dropout_ratio: 0.5
  }
}
layer {
  name: "fc-final"
  type: "InnerProduct"
  bottom: "lstm1-drop"
  top: "fc-final"
  param {
    lr_mult: 1
    decay_mult: 1
  }
  param {
    lr_mult: 2
    decay_mult: 0
  }
  inner_product_param {
    num_output: 10
    weight_filler {
      type: "gaussian"
      std: 0.01
    }
    bias_filler {
      type: "constant"
      value: 0
    }
    axis: 2
  }
}
layer {
  name: "loss"
  type: "SoftmaxWithLoss"
  bottom: "fc-final"
  bottom: "reshape-label"
  top: "loss"
  softmax_param {
    axis: 2
  }
}
layer {
  name: "accuracy"
  type: "Accuracy"
  bottom: "fc-final"
  bottom: "reshape-label"
  top: "accuracy"
  accuracy_param {
    axis: 2
  }
}
I1018 00:04:49.369539 29901 layer_factory.hpp:77] Creating layer data
I1018 00:04:49.369601 29901 net.cpp:84] Creating Layer data
I1018 00:04:49.369611 29901 net.cpp:380] data -> data
I1018 00:04:49.369657 29901 net.cpp:380] data -> label
I1018 00:04:49.369693 29901 image_data_layer.cpp:38] Opening file ../Data/lsun_train_list_12w.txt
I1018 00:04:49.882923 29901 image_data_layer.cpp:53] Shuffling data
I1018 00:04:50.200212 29901 image_data_layer.cpp:63] A total of 1200000 images.
I1018 00:04:50.206338 29901 image_data_layer.cpp:90] output data size: 5,3,224,224
I1018 00:04:50.218545 29901 net.cpp:122] Setting up data
I1018 00:04:50.218612 29901 net.cpp:129] Top shape: 5 3 224 224 (752640)
I1018 00:04:50.218621 29901 net.cpp:129] Top shape: 5 (5)
I1018 00:04:50.218626 29901 net.cpp:137] Memory required for data: 3010580
I1018 00:04:50.218649 29901 layer_factory.hpp:77] Creating layer label_tran
I1018 00:04:50.803863 29901 net.cpp:84] Creating Layer label_tran
I1018 00:04:50.803903 29901 net.cpp:406] label_tran <- label
I1018 00:04:50.803928 29901 net.cpp:380] label_tran -> reshape-label
I1018 00:04:50.803942 29901 net.cpp:380] label_tran -> clip_markers
I1018 00:04:50.804277 29901 net.cpp:122] Setting up label_tran
I1018 00:04:50.804296 29901 net.cpp:129] Top shape: 196 5 (980)
I1018 00:04:50.804302 29901 net.cpp:129] Top shape: 196 5 (980)
I1018 00:04:50.804307 29901 net.cpp:137] Memory required for data: 3018420
I1018 00:04:50.804313 29901 layer_factory.hpp:77] Creating layer reshape-label_label_tran_0_split
I1018 00:04:50.804332 29901 net.cpp:84] Creating Layer reshape-label_label_tran_0_split
I1018 00:04:50.804337 29901 net.cpp:406] reshape-label_label_tran_0_split <- reshape-label
I1018 00:04:50.804344 29901 net.cpp:380] reshape-label_label_tran_0_split -> reshape-label_label_tran_0_split_0
I1018 00:04:50.804354 29901 net.cpp:380] reshape-label_label_tran_0_split -> reshape-label_label_tran_0_split_1
I1018 00:04:50.804392 29901 net.cpp:122] Setting up reshape-label_label_tran_0_split
I1018 00:04:50.804401 29901 net.cpp:129] Top shape: 196 5 (980)
I1018 00:04:50.804406 29901 net.cpp:129] Top shape: 196 5 (980)
I1018 00:04:50.804410 29901 net.cpp:137] Memory required for data: 3026260
I1018 00:04:50.804415 29901 layer_factory.hpp:77] Creating layer conv1_1
I1018 00:04:50.804435 29901 net.cpp:84] Creating Layer conv1_1
I1018 00:04:50.804445 29901 net.cpp:406] conv1_1 <- data
I1018 00:04:50.804452 29901 net.cpp:380] conv1_1 -> conv1_1
I1018 00:04:50.806406 29901 net.cpp:122] Setting up conv1_1
I1018 00:04:50.806424 29901 net.cpp:129] Top shape: 5 64 224 224 (16056320)
I1018 00:04:50.806430 29901 net.cpp:137] Memory required for data: 67251540
I1018 00:04:50.806454 29901 layer_factory.hpp:77] Creating layer relu1_1
I1018 00:04:50.806466 29901 net.cpp:84] Creating Layer relu1_1
I1018 00:04:50.806471 29901 net.cpp:406] relu1_1 <- conv1_1
I1018 00:04:50.806478 29901 net.cpp:367] relu1_1 -> conv1_1 (in-place)
I1018 00:04:50.806491 29901 net.cpp:122] Setting up relu1_1
I1018 00:04:50.806498 29901 net.cpp:129] Top shape: 5 64 224 224 (16056320)
I1018 00:04:50.806501 29901 net.cpp:137] Memory required for data: 131476820
I1018 00:04:50.806507 29901 layer_factory.hpp:77] Creating layer conv1_2
I1018 00:04:50.806516 29901 net.cpp:84] Creating Layer conv1_2
I1018 00:04:50.806520 29901 net.cpp:406] conv1_2 <- conv1_1
I1018 00:04:50.806526 29901 net.cpp:380] conv1_2 -> conv1_2
I1018 00:04:50.806795 29901 net.cpp:122] Setting up conv1_2
I1018 00:04:50.806807 29901 net.cpp:129] Top shape: 5 64 224 224 (16056320)
I1018 00:04:50.806813 29901 net.cpp:137] Memory required for data: 195702100
I1018 00:04:50.806821 29901 layer_factory.hpp:77] Creating layer relu1_2
I1018 00:04:50.806829 29901 net.cpp:84] Creating Layer relu1_2
I1018 00:04:50.806833 29901 net.cpp:406] relu1_2 <- conv1_2
I1018 00:04:50.806839 29901 net.cpp:367] relu1_2 -> conv1_2 (in-place)
I1018 00:04:50.806846 29901 net.cpp:122] Setting up relu1_2
I1018 00:04:50.806851 29901 net.cpp:129] Top shape: 5 64 224 224 (16056320)
I1018 00:04:50.806855 29901 net.cpp:137] Memory required for data: 259927380
I1018 00:04:50.806859 29901 layer_factory.hpp:77] Creating layer pool1
I1018 00:04:50.806871 29901 net.cpp:84] Creating Layer pool1
I1018 00:04:50.806875 29901 net.cpp:406] pool1 <- conv1_2
I1018 00:04:50.806880 29901 net.cpp:380] pool1 -> pool1
I1018 00:04:50.806928 29901 net.cpp:122] Setting up pool1
I1018 00:04:50.806938 29901 net.cpp:129] Top shape: 5 64 112 112 (4014080)
I1018 00:04:50.806943 29901 net.cpp:137] Memory required for data: 275983700
I1018 00:04:50.806947 29901 layer_factory.hpp:77] Creating layer conv2_1
I1018 00:04:50.806957 29901 net.cpp:84] Creating Layer conv2_1
I1018 00:04:50.806960 29901 net.cpp:406] conv2_1 <- pool1
I1018 00:04:50.806967 29901 net.cpp:380] conv2_1 -> conv2_1
I1018 00:04:50.808703 29901 net.cpp:122] Setting up conv2_1
I1018 00:04:50.808720 29901 net.cpp:129] Top shape: 5 128 112 112 (8028160)
I1018 00:04:50.808725 29901 net.cpp:137] Memory required for data: 308096340
I1018 00:04:50.808737 29901 layer_factory.hpp:77] Creating layer relu2_1
I1018 00:04:50.808745 29901 net.cpp:84] Creating Layer relu2_1
I1018 00:04:50.808750 29901 net.cpp:406] relu2_1 <- conv2_1
I1018 00:04:50.808756 29901 net.cpp:367] relu2_1 -> conv2_1 (in-place)
I1018 00:04:50.808764 29901 net.cpp:122] Setting up relu2_1
I1018 00:04:50.808769 29901 net.cpp:129] Top shape: 5 128 112 112 (8028160)
I1018 00:04:50.808773 29901 net.cpp:137] Memory required for data: 340208980
I1018 00:04:50.808778 29901 layer_factory.hpp:77] Creating layer conv2_2
I1018 00:04:50.808785 29901 net.cpp:84] Creating Layer conv2_2
I1018 00:04:50.808789 29901 net.cpp:406] conv2_2 <- conv2_1
I1018 00:04:50.808795 29901 net.cpp:380] conv2_2 -> conv2_2
I1018 00:04:50.809094 29901 net.cpp:122] Setting up conv2_2
I1018 00:04:50.809105 29901 net.cpp:129] Top shape: 5 128 112 112 (8028160)
I1018 00:04:50.809109 29901 net.cpp:137] Memory required for data: 372321620
I1018 00:04:50.809119 29901 layer_factory.hpp:77] Creating layer relu2_2
I1018 00:04:50.809126 29901 net.cpp:84] Creating Layer relu2_2
I1018 00:04:50.809130 29901 net.cpp:406] relu2_2 <- conv2_2
I1018 00:04:50.809136 29901 net.cpp:367] relu2_2 -> conv2_2 (in-place)
I1018 00:04:50.809144 29901 net.cpp:122] Setting up relu2_2
I1018 00:04:50.809149 29901 net.cpp:129] Top shape: 5 128 112 112 (8028160)
I1018 00:04:50.809154 29901 net.cpp:137] Memory required for data: 404434260
I1018 00:04:50.809157 29901 layer_factory.hpp:77] Creating layer pool2
I1018 00:04:50.809164 29901 net.cpp:84] Creating Layer pool2
I1018 00:04:50.809167 29901 net.cpp:406] pool2 <- conv2_2
I1018 00:04:50.809172 29901 net.cpp:380] pool2 -> pool2
I1018 00:04:50.809206 29901 net.cpp:122] Setting up pool2
I1018 00:04:50.809216 29901 net.cpp:129] Top shape: 5 128 56 56 (2007040)
I1018 00:04:50.809219 29901 net.cpp:137] Memory required for data: 412462420
I1018 00:04:50.809223 29901 layer_factory.hpp:77] Creating layer conv3_1
I1018 00:04:50.809231 29901 net.cpp:84] Creating Layer conv3_1
I1018 00:04:50.809236 29901 net.cpp:406] conv3_1 <- pool2
I1018 00:04:50.809242 29901 net.cpp:380] conv3_1 -> conv3_1
I1018 00:04:50.810425 29901 net.cpp:122] Setting up conv3_1
I1018 00:04:50.810442 29901 net.cpp:129] Top shape: 5 256 56 56 (4014080)
I1018 00:04:50.810447 29901 net.cpp:137] Memory required for data: 428518740
I1018 00:04:50.810457 29901 layer_factory.hpp:77] Creating layer relu3_1
I1018 00:04:50.810467 29901 net.cpp:84] Creating Layer relu3_1
I1018 00:04:50.810470 29901 net.cpp:406] relu3_1 <- conv3_1
I1018 00:04:50.810477 29901 net.cpp:367] relu3_1 -> conv3_1 (in-place)
I1018 00:04:50.810485 29901 net.cpp:122] Setting up relu3_1
I1018 00:04:50.810490 29901 net.cpp:129] Top shape: 5 256 56 56 (4014080)
I1018 00:04:50.810494 29901 net.cpp:137] Memory required for data: 444575060
I1018 00:04:50.810499 29901 layer_factory.hpp:77] Creating layer conv3_2
I1018 00:04:50.810508 29901 net.cpp:84] Creating Layer conv3_2
I1018 00:04:50.810511 29901 net.cpp:406] conv3_2 <- conv3_1
I1018 00:04:50.810516 29901 net.cpp:380] conv3_2 -> conv3_2
I1018 00:04:50.812376 29901 net.cpp:122] Setting up conv3_2
I1018 00:04:50.812392 29901 net.cpp:129] Top shape: 5 256 56 56 (4014080)
I1018 00:04:50.812397 29901 net.cpp:137] Memory required for data: 460631380
I1018 00:04:50.812405 29901 layer_factory.hpp:77] Creating layer relu3_2
I1018 00:04:50.812413 29901 net.cpp:84] Creating Layer relu3_2
I1018 00:04:50.812418 29901 net.cpp:406] relu3_2 <- conv3_2
I1018 00:04:50.812429 29901 net.cpp:367] relu3_2 -> conv3_2 (in-place)
I1018 00:04:50.812438 29901 net.cpp:122] Setting up relu3_2
I1018 00:04:50.812443 29901 net.cpp:129] Top shape: 5 256 56 56 (4014080)
I1018 00:04:50.812448 29901 net.cpp:137] Memory required for data: 476687700
I1018 00:04:50.812451 29901 layer_factory.hpp:77] Creating layer conv3_3
I1018 00:04:50.812458 29901 net.cpp:84] Creating Layer conv3_3
I1018 00:04:50.812463 29901 net.cpp:406] conv3_3 <- conv3_2
I1018 00:04:50.812470 29901 net.cpp:380] conv3_3 -> conv3_3
I1018 00:04:50.814302 29901 net.cpp:122] Setting up conv3_3
I1018 00:04:50.814318 29901 net.cpp:129] Top shape: 5 256 56 56 (4014080)
I1018 00:04:50.814322 29901 net.cpp:137] Memory required for data: 492744020
I1018 00:04:50.814330 29901 layer_factory.hpp:77] Creating layer relu3_3
I1018 00:04:50.814340 29901 net.cpp:84] Creating Layer relu3_3
I1018 00:04:50.814345 29901 net.cpp:406] relu3_3 <- conv3_3
I1018 00:04:50.814352 29901 net.cpp:367] relu3_3 -> conv3_3 (in-place)
I1018 00:04:50.814360 29901 net.cpp:122] Setting up relu3_3
I1018 00:04:50.814365 29901 net.cpp:129] Top shape: 5 256 56 56 (4014080)
I1018 00:04:50.814369 29901 net.cpp:137] Memory required for data: 508800340
I1018 00:04:50.814373 29901 layer_factory.hpp:77] Creating layer pool3
I1018 00:04:50.814381 29901 net.cpp:84] Creating Layer pool3
I1018 00:04:50.814386 29901 net.cpp:406] pool3 <- conv3_3
I1018 00:04:50.814391 29901 net.cpp:380] pool3 -> pool3
I1018 00:04:50.814431 29901 net.cpp:122] Setting up pool3
I1018 00:04:50.814441 29901 net.cpp:129] Top shape: 5 256 28 28 (1003520)
I1018 00:04:50.814445 29901 net.cpp:137] Memory required for data: 512814420
I1018 00:04:50.814450 29901 layer_factory.hpp:77] Creating layer conv4_1
I1018 00:04:50.814457 29901 net.cpp:84] Creating Layer conv4_1
I1018 00:04:50.814462 29901 net.cpp:406] conv4_1 <- pool3
I1018 00:04:50.814471 29901 net.cpp:380] conv4_1 -> conv4_1
I1018 00:04:50.818325 29901 net.cpp:122] Setting up conv4_1
I1018 00:04:50.818341 29901 net.cpp:129] Top shape: 5 512 28 28 (2007040)
I1018 00:04:50.818346 29901 net.cpp:137] Memory required for data: 520842580
I1018 00:04:50.818353 29901 layer_factory.hpp:77] Creating layer relu4_1
I1018 00:04:50.818361 29901 net.cpp:84] Creating Layer relu4_1
I1018 00:04:50.818369 29901 net.cpp:406] relu4_1 <- conv4_1
I1018 00:04:50.818375 29901 net.cpp:367] relu4_1 -> conv4_1 (in-place)
I1018 00:04:50.818383 29901 net.cpp:122] Setting up relu4_1
I1018 00:04:50.818389 29901 net.cpp:129] Top shape: 5 512 28 28 (2007040)
I1018 00:04:50.818392 29901 net.cpp:137] Memory required for data: 528870740
I1018 00:04:50.818397 29901 layer_factory.hpp:77] Creating layer conv4_2
I1018 00:04:50.818404 29901 net.cpp:84] Creating Layer conv4_2
I1018 00:04:50.818408 29901 net.cpp:406] conv4_2 <- conv4_1
I1018 00:04:50.818418 29901 net.cpp:380] conv4_2 -> conv4_2
I1018 00:04:50.824270 29901 net.cpp:122] Setting up conv4_2
I1018 00:04:50.824290 29901 net.cpp:129] Top shape: 5 512 28 28 (2007040)
I1018 00:04:50.824295 29901 net.cpp:137] Memory required for data: 536898900
I1018 00:04:50.824311 29901 layer_factory.hpp:77] Creating layer relu4_2
I1018 00:04:50.824318 29901 net.cpp:84] Creating Layer relu4_2
I1018 00:04:50.824326 29901 net.cpp:406] relu4_2 <- conv4_2
I1018 00:04:50.824332 29901 net.cpp:367] relu4_2 -> conv4_2 (in-place)
I1018 00:04:50.824340 29901 net.cpp:122] Setting up relu4_2
I1018 00:04:50.824347 29901 net.cpp:129] Top shape: 5 512 28 28 (2007040)
I1018 00:04:50.824350 29901 net.cpp:137] Memory required for data: 544927060
I1018 00:04:50.824355 29901 layer_factory.hpp:77] Creating layer conv4_3
I1018 00:04:50.824363 29901 net.cpp:84] Creating Layer conv4_3
I1018 00:04:50.824368 29901 net.cpp:406] conv4_3 <- conv4_2
I1018 00:04:50.824375 29901 net.cpp:380] conv4_3 -> conv4_3
I1018 00:04:50.830133 29901 net.cpp:122] Setting up conv4_3
I1018 00:04:50.830152 29901 net.cpp:129] Top shape: 5 512 28 28 (2007040)
I1018 00:04:50.830155 29901 net.cpp:137] Memory required for data: 552955220
I1018 00:04:50.830163 29901 layer_factory.hpp:77] Creating layer relu4_3
I1018 00:04:50.830171 29901 net.cpp:84] Creating Layer relu4_3
I1018 00:04:50.830176 29901 net.cpp:406] relu4_3 <- conv4_3
I1018 00:04:50.830185 29901 net.cpp:367] relu4_3 -> conv4_3 (in-place)
I1018 00:04:50.830193 29901 net.cpp:122] Setting up relu4_3
I1018 00:04:50.830199 29901 net.cpp:129] Top shape: 5 512 28 28 (2007040)
I1018 00:04:50.830204 29901 net.cpp:137] Memory required for data: 560983380
I1018 00:04:50.830207 29901 layer_factory.hpp:77] Creating layer pool4
I1018 00:04:50.830214 29901 net.cpp:84] Creating Layer pool4
I1018 00:04:50.830217 29901 net.cpp:406] pool4 <- conv4_3
I1018 00:04:50.830226 29901 net.cpp:380] pool4 -> pool4
I1018 00:04:50.830265 29901 net.cpp:122] Setting up pool4
I1018 00:04:50.830276 29901 net.cpp:129] Top shape: 5 512 14 14 (501760)
I1018 00:04:50.830279 29901 net.cpp:137] Memory required for data: 562990420
I1018 00:04:50.830287 29901 layer_factory.hpp:77] Creating layer conv5_1
I1018 00:04:50.830302 29901 net.cpp:84] Creating Layer conv5_1
I1018 00:04:50.830307 29901 net.cpp:406] conv5_1 <- pool4
I1018 00:04:50.830314 29901 net.cpp:380] conv5_1 -> conv5_1
I1018 00:04:50.836181 29901 net.cpp:122] Setting up conv5_1
I1018 00:04:50.836210 29901 net.cpp:129] Top shape: 5 512 14 14 (501760)
I1018 00:04:50.836215 29901 net.cpp:137] Memory required for data: 564997460
I1018 00:04:50.836222 29901 layer_factory.hpp:77] Creating layer relu5_1
I1018 00:04:50.836232 29901 net.cpp:84] Creating Layer relu5_1
I1018 00:04:50.836236 29901 net.cpp:406] relu5_1 <- conv5_1
I1018 00:04:50.836244 29901 net.cpp:367] relu5_1 -> conv5_1 (in-place)
I1018 00:04:50.836253 29901 net.cpp:122] Setting up relu5_1
I1018 00:04:50.836258 29901 net.cpp:129] Top shape: 5 512 14 14 (501760)
I1018 00:04:50.836262 29901 net.cpp:137] Memory required for data: 567004500
I1018 00:04:50.836266 29901 layer_factory.hpp:77] Creating layer conv5_2
I1018 00:04:50.836279 29901 net.cpp:84] Creating Layer conv5_2
I1018 00:04:50.836283 29901 net.cpp:406] conv5_2 <- conv5_1
I1018 00:04:50.836289 29901 net.cpp:380] conv5_2 -> conv5_2
I1018 00:04:50.842175 29901 net.cpp:122] Setting up conv5_2
I1018 00:04:50.842206 29901 net.cpp:129] Top shape: 5 512 14 14 (501760)
I1018 00:04:50.842209 29901 net.cpp:137] Memory required for data: 569011540
I1018 00:04:50.842217 29901 layer_factory.hpp:77] Creating layer relu5_2
I1018 00:04:50.842226 29901 net.cpp:84] Creating Layer relu5_2
I1018 00:04:50.842229 29901 net.cpp:406] relu5_2 <- conv5_2
I1018 00:04:50.842236 29901 net.cpp:367] relu5_2 -> conv5_2 (in-place)
I1018 00:04:50.842245 29901 net.cpp:122] Setting up relu5_2
I1018 00:04:50.842250 29901 net.cpp:129] Top shape: 5 512 14 14 (501760)
I1018 00:04:50.842254 29901 net.cpp:137] Memory required for data: 571018580
I1018 00:04:50.842258 29901 layer_factory.hpp:77] Creating layer conv5_3
I1018 00:04:50.842267 29901 net.cpp:84] Creating Layer conv5_3
I1018 00:04:50.842272 29901 net.cpp:406] conv5_3 <- conv5_2
I1018 00:04:50.842278 29901 net.cpp:380] conv5_3 -> conv5_3
I1018 00:04:50.848146 29901 net.cpp:122] Setting up conv5_3
I1018 00:04:50.848165 29901 net.cpp:129] Top shape: 5 512 14 14 (501760)
I1018 00:04:50.848168 29901 net.cpp:137] Memory required for data: 573025620
I1018 00:04:50.848176 29901 layer_factory.hpp:77] Creating layer relu5_3
I1018 00:04:50.848194 29901 net.cpp:84] Creating Layer relu5_3
I1018 00:04:50.848199 29901 net.cpp:406] relu5_3 <- conv5_3
I1018 00:04:50.848208 29901 net.cpp:367] relu5_3 -> conv5_3 (in-place)
I1018 00:04:50.848217 29901 net.cpp:122] Setting up relu5_3
I1018 00:04:50.848222 29901 net.cpp:129] Top shape: 5 512 14 14 (501760)
I1018 00:04:50.848225 29901 net.cpp:137] Memory required for data: 575032660
I1018 00:04:50.848230 29901 layer_factory.hpp:77] Creating layer conv5_3_re
I1018 00:04:50.848244 29901 net.cpp:84] Creating Layer conv5_3_re
I1018 00:04:50.848249 29901 net.cpp:406] conv5_3_re <- conv5_3
I1018 00:04:50.848255 29901 net.cpp:380] conv5_3_re -> conv5_3_re
I1018 00:04:50.848305 29901 net.cpp:122] Setting up conv5_3_re
I1018 00:04:50.848315 29901 net.cpp:129] Top shape: 5 512 196 (501760)
I1018 00:04:50.848320 29901 net.cpp:137] Memory required for data: 577039700
I1018 00:04:50.848323 29901 layer_factory.hpp:77] Creating layer conv5_3_tran
I1018 00:04:50.848389 29901 net.cpp:84] Creating Layer conv5_3_tran
I1018 00:04:50.848399 29901 net.cpp:406] conv5_3_tran <- conv5_3_re
I1018 00:04:50.848407 29901 net.cpp:380] conv5_3_tran -> conv5_3_tran
I1018 00:04:50.849905 29901 net.cpp:122] Setting up conv5_3_tran
I1018 00:04:50.849921 29901 net.cpp:129] Top shape: 196 5 512 (501760)
I1018 00:04:50.849925 29901 net.cpp:137] Memory required for data: 579046740
I1018 00:04:50.849931 29901 layer_factory.hpp:77] Creating layer lstm1
I1018 00:04:50.849948 29901 net.cpp:84] Creating Layer lstm1
I1018 00:04:50.849954 29901 net.cpp:406] lstm1 <- conv5_3_tran
I1018 00:04:50.849961 29901 net.cpp:406] lstm1 <- clip_markers
I1018 00:04:50.849970 29901 net.cpp:380] lstm1 -> lstm1
I1018 00:04:50.849987 29901 recurrent_layer.cpp:20] Initializing recurrent layer: assuming input batch contains 196 timesteps of 5 independent streams.
I1018 00:04:50.856343 29901 net.cpp:51] Initializing net from parameters: 
layer {
  name: "lstm1_"
  type: "Input"
  top: "x"
  top: "cont"
  input_param {
    shape {
      dim: 196
      dim: 5
      dim: 512
    }
    shape {
      dim: 196
      dim: 5
    }
  }
}
layer {
  name: "lstm1_"
  type: "Input"
  top: "c_0"
  top: "h_0"
  input_param {
    shape {
      dim: 1
      dim: 5
      dim: 512
    }
    shape {
      dim: 1
      dim: 5
      dim: 512
    }
  }
}
layer {
  name: "lstm1_cont_slice"
  type: "Slice"
  bottom: "cont"
  top: "cont_1"
  top: "cont_2"
  top: "cont_3"
  top: "cont_4"
  top: "cont_5"
  top: "cont_6"
  top: "cont_7"
  top: "cont_8"
  top: "cont_9"
  top: "cont_10"
  top: "cont_11"
  top: "cont_12"
  top: "cont_13"
  top: "cont_14"
  top: "cont_15"
  top: "cont_16"
  top: "cont_17"
  top: "cont_18"
  top: "cont_19"
  top: "cont_20"
  top: "cont_21"
  top: "cont_22"
  top: "cont_23"
  top: "cont_24"
…
  top: "W_xc_x_171"
  top: "W_xc_x_172"
  top: "W_xc_x_173"
  top: "W_xc_x_174"
  top: "W_xc_x_175"
  top: "W_xc_x_176"
  top: "W_xc_x_177"
  top: "W_xc_x_178"
  top: "W_xc_x_179"
  top: "W_xc_x_180"
  top: "W_xc_x_181"
  top: "W_xc_x_182"
  top: "W_xc_x_183"
  top: "W_xc_x_184"
  top: "W_xc_x_185"
  top: "W_xc_x_186"
  top: "W_xc_x_187"
  top: "W_xc_x_188"
  top: "W_xc_x_189"
  top: "W_xc_x_190"
  top: "W_xc_x_191"
  top: "W_xc_x_192"
  top: "W_xc_x_193"
  top: "W_xc_x_194"
  top: "W_xc_x_195"
  top: "W_xc_x_196"
  slice_param {
    axis: 0
  }
}
layer {
  name: "lstm1_h_conted_0"
  type: "Scale"
  bottom: "h_0"
  bottom: "cont_1"
  top: "h_conted_0"
  scale_param {
    axis: 0
  }
}
layer {
  name: "lstm1_transform_1"
  type: "InnerProduct"
  bottom: "h_conted_0"
  top: "W_hc_h_0"
  param {
    name: "W_hc"
  }
  inner_product_param {
    num_output: 2048
    bias_term: false
    weight_filler {
      type: "uniform"
      min: -0.01
      max: 0.01
    }
    axis: 2
  }
}
layer {
  name: "lstm1_gate_input_1"
  type: "Eltwise"
  bottom: "W_hc_h_0"
  bottom: "W_xc_x_1"
  top: "gate_input_1"
  eltwise_param {
    operation: SUM
  }
}
layer {
  name: "lstm1_unit_1"
  type: "LSTMUnit"
  bottom: "c_0"
  bottom: "gate_input_1"
  bottom: "cont_1"
  top: "c_1"
  top: "h_1"
}
layer {
  name: "lstm1_h_conted_1"
  type: "Scale"
  bottom: "h_1"
  bottom: "cont_2"
  top: "h_conted_1"
  scale_param {
    axis: 0
  }
}
layer {
  name: "lstm1_transform_2"
  type: "InnerProduct"
  bottom: "h_conted_1"
  top: "W_hc_h_1"
  param {
    name: "W_hc"
  }
  inner_product_param {
    num_output: 2048
    bias_term: false
    weight_filler {
      type: "uniform"
      min: -0.01
      max: 0.01
    }
    axis: 2
  }
}
layer {
  name: "lstm1_gate_input_2"
  type: "Eltwise"
  bottom: "W_hc_h_1"
  bottom: "W_xc_x_2"
  top: "gate_input_2"
  eltwise_param {
    operation: SUM
  }
}
layer {
  name: "lstm1_unit_2"
  type: "LSTMUnit"
  bottom: "c_1"
  bottom: "gate_input_2"
  bottom: "cont_2"
  top: "c_2"
  top: "h_2"
}
layer {
  name: "lstm1_h_conted_2"
  type: "Scale"
  bottom: "h_2"
  bottom: "cont_3"
  top: "h_conted_2"
  scale_param {
    axis: 0
  }
}
layer {
  name: "lstm1_transform_3"
  type: "InnerProduct"
  bottom: "h_conted_2"
  top: "W_hc_h_2"
  param {
    name: "W_hc"
  }
  inner_product_param {
    num_output: 2048
    bias_term: false
    weight_filler {
      type: "uniform"
      min: -0.01
      max: 0.01
    }
    axis: 2
  }
}
layer {
  name: "lstm1_gate_input_3"
  type: "Eltwise"
  bottom: "W_hc_h_2"
  bottom: "W_xc_x_3"
  top: "gate_input_3"
  eltwise_param {
    operation: SUM
  }
}
layer {
  name: "lstm1_unit_3"
  type: "LSTMUnit"
  bottom: "c_2"
  bottom: "gate_input_3"
  bottom: "cont_3"
  top: "c_3"
  top: "h_3"
}
layer {
  name: "lstm1_h_conted_3"
  type: "Scale"
  bottom: "h_3"
  bottom: "cont_4"
  top: "h_conted_3"
  scale_param {
    axis: 0
  }
}
layer {
  name: "lstm1_transform_4"
  type: "InnerProduct"
  bottom: "h_conted_3"
  top: "W_hc_h_3"
  param {
    name: "W_hc"
  }
  inner_product_param {
    num_output: 2048
    bias_term: false
    weight_filler {
      type: "uniform"
      min: -0.01
      max: 0.01
    }
    axis: 2
  }
}
layer {
  name: "lstm1_gate_input_4"
  type: "Eltwise"
  bottom: "W_hc_h_3"
  bottom: "W_xc_x_4"
  top: "gate_input_4"
  eltwise_param {
    operation: SUM
  }
}
layer {
  name: "lstm1_unit_4"
  type: "LSTMUnit"
  bottom: "c_3"
  bottom: "gate_input_4"
  bottom: "cont_4"
  top: "c_4"
  top: "h_4"
}
layer {
  name: "lstm1_h_conted_4"
  type: "Scale"
  bottom: "h_4"
  bottom: "cont_5"
  top: "h_conted_4"
  scale_param {
    axis: 0
  }
}
layer {
  name: "lstm1_transform_5"
  type: "InnerProduct"
  bottom: "h_conted_4"
  top: "W_hc_h_4"
  param {
    name: "W_hc"
  }
  inner_product_param {
    num_output: 2048
    bias_term: false
    weight_filler {
      type: "uniform"
      min: -0.01
      max: 0.01
    }
    axis: 2
  }
}
layer {
  name: "lstm1_gate_input_5"
  type: "Eltwise"
  bottom: "W_hc_h_4"
  bottom: "W_xc_x_5"
  top: "gate_input_5"
  eltwise_param {
    operation: SUM
  }
}
layer {
  name: "lstm1_unit_5"
  type: "LSTMUnit"
  bottom: "c_4"
  bottom: "gate_input_5"
  bottom: "cont_5"
  top: "c_5"
  top: "h_5"
}
layer {
  name: "lstm1_h_conted_5"
  type: "Scale"
  bottom: "h_5"
  bottom: "cont_6"
  top: "h_conted_5"
  scale_param {
    axis: 0
  }
}
layer {
  name: "lstm1_transform_6"
  type: "InnerProduct"
  bottom: "h_conted_5"
  top: "W_hc_h_5"
  param {
    name: "W_hc"
  }
  inner_product_param {
    num_output: 2048
    bias_term: false
    weight_filler {
      type: "uniform"
      min: -0.01
      max: 0.01
    }
    axis: 2
  }
}
layer {
  name: "lstm1_gate_input_6"
  type: "Eltwise"
  bottom: "W_hc_h_5"
  bottom: "W_xc_x_6"
  top: "gate_input_6"
  eltwise_param {
    operation: SUM
  }
}
layer {
  name: "lstm1_unit_6"
  type: "LSTMUnit"
  bottom: "c_5"
  bottom: "gate_input_6"
  bottom: "cont_6"
  top: "c_6"
  top: "h_6"
}
layer {
  name: "lstm1_h_conted_6"
  type: "Scale"
  bottom: "h_6"
  bottom: "cont_7"
  top: "h_conted_6"
  scale_param {
    axis: 0
  }
}
layer {
  name: "lstm1_transform_7"
  type: "InnerProduct"
  bottom: "h_conted_6"
  top: "W_hc_h_6"
  param {
    name: "W_hc"
  }
  inner_product_param {
    num_output: 2048
    bias_term: false
    weight_filler {
      type: "uniform"
      min: -0.01
      max: 0.01
    }
    axis: 2
  }
}
layer {
  name: "lstm1_gate_input_7"
  type: "Eltwise"
  bottom: "W_hc_h_6"
  bottom: "W_xc_x_7"
  top: "gate_input_7"
  eltwise_param {
    operation: SUM
  }
}
layer {
  name: "lstm1_unit_7"
  type: "LSTMUnit"
  bottom: "c_6"
  bottom: "gate_input_7"
  bottom: "cont_7"
  top: "c_7"
  top: "h_7"
}
layer {
  name: "lstm1_h_conted_7"
  type: "Scale"
  bottom: "h_7"
  bottom: "cont_8"
  top: "h_conted_7"
  scale_param {
    axis: 0
  }
}
layer {
  name: "lstm1_transform_8"
  type: "InnerProduct"
  bottom: "h_conted_7"
  top: "W_hc_h_7"
  param {
    name: "W_hc"
  }
  inner_product_param {
    num_output: 2048
    bias_term: false
    weight_filler {
      type: "uniform"
      min: -0.01
      max: 0.01
    }
    axis: 2
  }
}
layer {
  name: "lstm1_gate_input_8"
  type: "Eltwise"
  bottom: "W_hc_h_7"
  bottom: "W_xc_x_8"
  top: "gate_input_8"
  eltwise_param {
    operation: SUM
  }
}
layer {
  name: "lstm1_unit_8"
  type: "LSTMUnit"
  bottom: "c_7"
  bottom: "gate_input_8"
  bottom: "cont_8"
  top: "c_8"
  top: "h_8"
}
layer {
  name: "lstm1_h_conted_8"
  type: "Scale"
  bottom: "h_8"
  bottom: "cont_9"
  top: "h_conted_8"
  scale_param {
    axis: 0
  }
}
layer {
  name: "lstm1_transform_9"
  type: "InnerProduct"
  bottom: "h_conted_8"
  top: "W_hc_h_8"
  param {
    name: "W_hc"
  }
  inner_product_param {
    num_output: 2048
    bias_term: false
    weight_filler {
      type: "uniform"
      min: -0.01
      max: 0.01
    }
    axis: 2
  }
}
layer {
  name: "lstm1_gate_input_9"
  type: "Eltwise"
  bottom: "W_hc_h_8"
  bottom: "W_xc_x_9"
  top: "gate_input_9"
  eltwise_param {
    operation: SUM
  }
}
layer {
  name: "lstm1_unit_9"
  type: "LSTMUnit"
  bottom: "c_8"
  bottom: "gate_input_9"
  bottom: "cont_9"
  top: "c_9"
  top: "h_9"
}
layer {
  name: "lstm1_h_conted_9"
  type: "Scale"
  bottom: "h_9"
  bottom: "cont_10"
  top: "h_conted_9"
  scale_param {
    axis: 0
  }
}
layer {
  name: "lstm1_transform_10"
  type: "InnerProduct"
  bottom: "h_conted_9"
  top: "W_hc_h_9"
  param {
    name: "W_hc"
  }
  inner_product_param {
    num_output: 2048
    bias_term: false
    weight_filler {
      type: "uniform"
      min: -0.01
      max: 0.01
    }
    axis: 2
  }
}
layer {
  name: "lstm1_gate_input_10"
  type: "Eltwise"
  bottom: "W_hc_h_9"
  bottom: "W_xc_x_10"
  top: "gate_input_10"
  eltwise_param {
    operation: SUM
  }
}
layer {
  name: "lstm1_unit_10"
  type: "LSTMUnit"
  bottom: "c_9"
  bottom: "gate_input_10"
  bottom: "cont_10"
  top: "c_10"
  top: "h_10"
}
layer {
  name: "lstm1_h_conted_10"
  type: "Scale"
  bottom: "h_10"
  bottom: "cont_11"
  top: "h_conted_10"
  scale_param {
    axis: 0
  }
}
layer {
  name: "lstm1_transform_11"
  type: "InnerProduct"
  bottom: "h_conted_10"
  top: "W_hc_h_10"
  param {
    name: "W_hc"
  }
  inner_product_param {
    num_output: 2048
    bias_term: false
    weight_filler {
      type: "uniform"
      min: -0.01
      max: 0.01
    }
    axis: 2
  }
}
layer {
  name: "lstm1_gate_input_11"
  type: "Eltwise"
  bottom: "W_hc_h_10"
  bottom: "W_xc_x_11"
  top: "gate_input_11"
  eltwise_param {
    operation: SUM
  }
}
layer {
  name: "lstm1_unit_11"
  type: "LSTMUnit"
  bottom: "c_10"
  bottom: "gate_input_11"
  bottom: "cont_11"
  top: "c_11"
  top: "h_11"
}
layer {
  name: "lstm1_h_conted_11"
  type: "Scale"
  bottom: "h_11"
  bottom: "cont_12"
  top: "h_conted_11"
  scale_param {
    axis: 0
  }
}
layer {
  name: "lstm1_transform_12"
  type: "InnerProduct"
  bottom: "h_conted_11"
  top: "W_hc_h_11"
  param {
    name: "W_hc"
  }
  inner_product_param {
    num_output: 2048
    bias_term: false
    weight_filler {
      type: "uniform"
      min: -0.01
      max: 0.01
    }
    axis: 2
  }
}
layer {
  name: "lstm1_gate_input_12"
  type: "Eltwise"
  bottom: "W_hc_h_11"
  bottom: "W_xc_x_12"
  top: "gate_input_12"
  eltwise_param {
    operation: SUM
  }
}
layer {
  name: "lstm1_unit_12"
  type: "LSTMUnit"
  bottom: "c_11"
  bottom: "gate_input_12"
  bottom: "cont_12"
  top: "c_12"
  top: "h_12"
}
layer {
  name: "lstm1_h_conted_12"
  type: "Scale"
  bottom: "h_12"
  bottom: "cont_13"
  top: "h_conted_12"
  scale_param {
    axis: 0
  }
}
layer {
  name: "lstm1_transform_13"
  type: "InnerProduct"
  bottom: "h_conted_12"
  top: "W_hc_h_12"
  param {
    name: "W_hc"
  }
  inner_product_param {
    num_output: 2048
    bias_term: false
    weight_filler {
      type: "uniform"
      min: -0.01
      max: 0.01
    }
    axis: 2
  }
}
layer {
  name: "lstm1_gate_input_13"
  type: "Eltwise"
  bottom: "W_hc_h_12"
  bottom: "W_xc_x_13"
  top: "gate_input_13"
  eltwise_param {
    operation: SUM
  }
}
layer {
  name: "lstm1_unit_13"
  type: "LSTMUnit"
  bottom: "c_12"
  bottom: "gate_input_13"
  bottom: "cont_13"
  top: "c_13"
  top: "h_13"
}
layer {
  name: "lstm1_h_conted_13"
  type: "Scale"
  bottom: "h_13"
  bottom: "cont_14"
  top: "h_conted_13"
  scale_param {
    axis: 0
  }
}
layer {
  name: "lstm1_transform_14"
  type: "InnerProduct"
  bottom: "h_conted_13"
  top: "W_hc_h_13"
  param {
    name: "W_hc"
  }
  inner_product_param {
    num_output: 2048
    bias_term: false
    weight_filler {
      type: "uniform"
      min: -0.01
      max: 0.01
    }
    axis: 2
  }
}
layer {
  name: "lstm1_gate_input_14"
  type: "Eltwise"
  bottom: "W_hc_h_13"
  bottom: "W_xc_x_14"
  top: "gate_input_14"
  eltwise_param {
    operation: SUM
  }
}
layer {
  name: "lstm1_unit_14"
  type: "LSTMUnit"
  bottom: "c_13"
  bottom: "gate_input_14"
  bottom: "cont_14"
  top: "c_14"
  top: "h_14"
}
layer {
  name: "lstm1_h_conted_14"
  type: "Scale"
  bottom: "h_14"
  bottom: "cont_15"
  top: "h_conted_14"
  scale_param {
    axis: 0
  }
}
layer {
  name: "lstm1_transform_15"
  type: "InnerProduct"
  bottom: "h_conted_14"
  top: "W_hc_h_14"
  param {
    name: "W_hc"
  }
  inner_product_param {
    num_output: 2048
    bias_term: false
    weight_filler {
      type: "uniform"
      min: -0.01
      max: 0.01
    }
    axis: 2
  }
}
layer {
  name: "lstm1_gate_input_15"
  type: "Eltwise"
  bottom: "W_hc_h_14"
  bottom: "W_xc_x_15"
  top: "gate_input_15"
  eltwise_param {
    operation: SUM
  }
}
layer {
  name: "lstm1_unit_15"
  type: "LSTMUnit"
  bottom: "c_14"
  bottom: "gate_input_15"
  bottom: "cont_15"
  top: "c_15"
  top: "h_15"
}
layer {
  name: "lstm1_h_conted_15"
  type: "Scale"
  bottom: "h_15"
  bottom: "cont_16"
  top: "h_conted_15"
  scale_param {
    axis: 0
  }
}
layer {
  name: "lstm1_transform_16"
  type: "InnerProduct"
  bottom: "h_conted_15"
  top: "W_hc_h_15"
  param {
    name: "W_hc"
  }
  inner_product_param {
    num_output: 2048
    bias_term: false
    weight_filler {
      type: "uniform"
      min: -0.01
      max: 0.01
    }
    axis: 2
  }
}
layer {
  name: "lstm1_gate_input_16"
  type: "Eltwise"
  bottom: "W_hc_h_15"
  bottom: "W_xc_x_16"
  top: "gate_input_16"
  eltwise_param {
    operation: SUM
  }
}
layer {
  name: "lstm1_unit_16"
  type: "LSTMUnit"
  bottom: "c_15"
  bottom: "gate_input_16"
  bottom: "cont_16"
  top: "c_16"
  top: "h_16"
}
layer {
  name: "lstm1_h_conted_16"
  type: "Scale"
  bottom: "h_16"
  bottom: "cont_17"
  top: "h_conted_16"
  scale_param {
    axis: 0
  }
}
layer {
  name: "lstm1_transform_17"
  type: "InnerProduct"
  bottom: "h_conted_16"
  top: "W_hc_h_16"
  param {
    name: "W_hc"
  }
  inner_product_param {
    num_output: 2048
    bias_term: false
    weight_filler {
      type: "uniform"
      min: -0.01
      max: 0.01
    }
    axis: 2
  }
}
layer {
  name: "lstm1_gate_input_17"
  type: "Eltwise"
  bottom: "W_hc_h_16"
  bottom: "W_xc_x_17"
  top: "gate_input_17"
  eltwise_param {
    operation: SUM
  }
}
layer {
  name: "lstm1_unit_17"
  type: "LSTMUnit"
  bottom: "c_16"
  bottom: "gate_input_17"
  bottom: "cont_17"
  top: "c_17"
  top: "h_17"
}
layer {
  name: "lstm1_h_conted_17"
  type: "Scale"
  bottom: "h_17"
  bottom: "cont_18"
  top: "h_conted_17"
  scale_param {
    axis: 0
  }
}
layer {
  name: "lstm1_transform_18"
  type: "InnerProduct"
  bottom: "h_conted_17"
  top: "W_hc_h_17"
  param {
    name: "W_hc"
  }
  inner_product_param {
    num_output: 2048
    bias_term: false
    weight_filler {
      type: "uniform"
      min: -0.01
      max: 0.01
    }
    axis: 2
  }
}
layer {
  name: "lstm1_gate_input_18"
  type: "Eltwise"
  bottom: "W_hc_h_17"
  bottom: "W_xc_x_18"
  top: "gate_input_18"
  eltwise_param {
    operation: SUM
  }
}
layer {
  name: "lstm1_unit_18"
  type: "LSTMUnit"
  bottom: "c_17"
  bottom: "gate_input_18"
  bottom: "cont_18"
  top: "c_18"
  top: "h_18"
}
layer {
  name: "lstm1_h_conted_18"
  type: "Scale"
  bottom: "h_18"
  bottom: "cont_19"
  top: "h_conted_18"
  scale_param {
    axis: 0
  }
}
layer {
  name: "lstm1_transform_19"
  type: "InnerProduct"
  bottom: "h_conted_18"
  top: "W_hc_h_18"
  param {
    name: "W_hc"
  }
  inner_product_param {
    num_output: 2048
    bias_term: false
    weight_filler {
      type: "uniform"
      min: -0.01
      max: 0.01
    }
    axis: 2
  }
}
layer {
  name: "lstm1_gate_input_19"
  type: "Eltwise"
  bottom: "W_hc_h_18"
  bottom: "W_xc_x_19"
  top: "gate_input_19"
  eltwise_param {
    operation: SUM
  }
}
layer {
  name: "lstm1_unit_19"
  type: "LSTMUnit"
  bottom: "c_18"
  bottom: "gate_input_19"
  bottom: "cont_19"
  top: "c_19"
  top: "h_19"
}
layer {
  name: "lstm1_h_conted_19"
  type: "Scale"
  bottom: "h_19"
  bottom: "cont_20"
  top: "h_conted_19"
  scale_param {
    axis: 0
  }
}
layer {
  name: "lstm1_transform_20"
  type: "InnerProduct"
  bottom: "h_conted_19"
  top: "W_hc_h_19"
  param {
    name: "W_hc"
  }
  inner_product_param {
    num_output: 2048
    bias_term: false
    weight_filler {
      type: "uniform"
      min: -0.01
      max: 0.01
    }
    axis: 2
  }
}
layer {
  name: "lstm1_gate_input_20"
  type: "Eltwise"
  bottom: "W_hc_h_19"
  bottom: "W_xc_x_20"
  top: "gate_input_20"
  eltwise_param {
    operation: SUM
  }
}
layer {
  name: "lstm1_unit_20"
  type: "LSTMUnit"
  bottom: "c_19"
  bottom: "gate_input_20"
  bottom: "cont_20"
  top: "c_20"
  top: "h_20"
}
layer {
  name: "lstm1_h_conted_20"
  type: "Scale"
  bottom: "h_20"
  bottom: "cont_21"
  top: "h_conted_20"
  scale_param {
    axis: 0
  }
}
layer {
  name: "lstm1_transform_21"
  type: "InnerProduct"
  bottom: "h_conted_20"
  top: "W_hc_h_20"
  param {
    name: "W_hc"
  }
  inner_product_param {
    num_output: 2048
    bias_term: false
    weight_filler {
      type: "uniform"
      min: -0.01
      max: 0.01
    }
    axis: 2
  }
}
layer {
  name: "lstm1_gate_input_21"
  type: "Eltwise"
  bottom: "W_hc_h_20"
  bottom: "W_xc_x_21"
  top: "gate_input_21"
  eltwise_param {
    operation: SUM
  }
}
layer {
  name: "lstm1_unit_21"
  type: "LSTMUnit"
  bottom: "c_20"
  bottom: "gate_input_21"
  bottom: "cont_21"
  top: "c_21"
  top: "h_21"
}
layer {
  name: "lstm1_h_conted_21"
  type: "Scale"
  bottom: "h_21"
  bottom: "cont_22"
  top: "h_conted_21"
  scale_param {
    axis: 0
  }
}
layer {
  name: "lstm1_transform_22"
  type: "InnerProduct"
  bottom: "h_conted_21"
  top: "W_hc_h_21"
  param {
    name: "W_hc"
  }
  inner_product_param {
    num_output: 2048
    bias_term: false
    weight_filler {
      type: "uniform"
      min: -0.01
      max: 0.01
    }
    axis: 2
  }
}
layer {
  name: "lstm1_gate_input_22"
  type: "Eltwise"
  bottom: "W_hc_h_21"
  bottom: "W_xc_x_22"
  top: "gate_input_22"
  eltwise_param {
    operation: SUM
  }
}
layer {
  name: "lstm1_unit_22"
  type: "LSTMUnit"
  bottom: "c_21"
  bottom: "gate_input_22"
  bottom: "cont_22"
  top: "c_22"
  top: "h_22"
}
layer {
  name: "lstm1_h_conted_22"
  type: "Scale"
  bottom: "h_22"
  bottom: "cont_23"
  top: "h_conted_22"
  scale_param {
    axis: 0
  }
}
layer {
  name: "lstm1_transform_23"
  type: "InnerProduct"
  bottom: "h_conted_22"
  top: "W_hc_h_22"
  param {
    name: "W_hc"
  }
  inner_product_param {
    num_output: 2048
    bias_term: false
    weight_filler {
      type: "uniform"
      min: -0.01
      max: 0.01
    }
    axis: 2
  }
}
layer {
  name: "lstm1_gate_input_23"
  type: "Eltwise"
  bottom: "W_hc_h_22"
  bottom: "W_xc_x_23"
  top: "gate_input_23"
  eltwise_param {
    operation: SUM
  }
}
layer {
  name: "lstm1_unit_23"
  type: "LSTMUnit"
  bottom: "c_22"
  bottom: "gate_input_23"
  bottom: "cont_23"
  top: "c_23"
  top: "h_23"
}
layer {
  name: "lstm1_h_conted_23"
  type: "Scale"
  bottom: "h_23"
  bottom: "cont_24"
  top: "h_conted_23"
  scale_param {
    axis: 0
  }
}
layer {
  name: "lstm1_transform_24"
  type: "InnerProduct"
  bottom: "h_conted_23"
  top: "W_hc_h_23"
  param {
    name: "W_hc"
  }
  inner_product_param {
    num_output: 2048
    bias_term: false
    weight_filler {
      type: "uniform"
      min: -0.01
      max: 0.01
    }
    axis: 2
  }
}
layer {
  name: "lstm1_gate_input_24"
  type: "Eltwise"
  bottom: "W_hc_h_23"
  bottom: "W_xc_x_24"
  top: "gate_input_24"
  eltwise_param {
    operation: SUM
  }
}
layer {
  name: "lstm1_unit_24"
  type: "LSTMUnit"
  bottom: "c_23"
  bottom: "gate_input_24"
  bottom: "cont_24"
  top: "c_24"
  top: "h_24"
}
layer {
  name: "lstm1_h_conted_24"
  type: "Scale"
  bottom: "h_24"
  bottom: "cont_25"
  top: "h_conted_24"
  scale_param {
    axis: 0
  }
}
layer {
  name: "lstm1_transform_25"
  type: "InnerProduct"
  bottom: "h_conted_24"
  top: "W_hc_h_24"
  param {
    name: "W_hc"
  }
  inner_product_param {
    num_output: 2048
    bias_term: false
    weight_filler {
      type: "uniform"
      min: -0.01
      max: 0.01
    }
    axis: 2
  }
}
layer {
  name: "lstm1_gate_input_25"
  type: "Eltwise"
  bottom: "W_hc_h_24"
  bottom: "W_xc_x_25"
  top: "gate_input_25"
  eltwise_param {
    operation: SUM
  }
}
layer {
  name: "lstm1_unit_25"
  type: "LSTMUnit"
  bottom: "c_24"
  bottom: "gate_input_25"
  bottom: "cont_25"
  top: "c_25"
  top: "h_25"
}
layer {
  name: "lstm1_h_conted_25"
  type: "Scale"
  bottom: "h_25"
  bottom: "cont_26"
  top: "h_conted_25"
  scale_param {
    axis: 0
  }
}
layer {
  name: "lstm1_transform_26"
  type: "InnerProduct"
  bottom: "h_conted_25"
  top: "W_hc_h_25"
  param {
    name: "W_hc"
  }
  inner_product_param {
    num_output: 2048
    bias_term: false
    weight_filler {
      type: "uniform"
      min: -0.01
      max: 0.01
    }
    axis: 2
  }
}
layer {
  name: "lstm1_gate_input_26"
  type: "Eltwise"
  bottom: "W_hc_h_25"
  bottom: "W_xc_x_26"
  top: "gate_input_26"
  eltwise_param {
    operation: SUM
  }
}
layer {
  name: "lstm1_unit_26"
  type: "LSTMUnit"
  bottom: "c_25"
  bottom: "gate_input_26"
  bottom: "cont_26"
  top: "c_26"
  top: "h_26"
}
layer {
  name: "lstm1_h_conted_26"
  type: "Scale"
  bottom: "h_26"
  bottom: "cont_27"
  top: "h_conted_26"
  scale_param {
    axis: 0
  }
}
layer {
  name: "lstm1_transform_27"
  type: "InnerProduct"
  bottom: "h_conted_26"
  top: "W_hc_h_26"
  param {
    name: "W_hc"
  }
  inner_product_param {
    num_output: 2048
    bias_term: false
    weight_filler {
      type: "uniform"
      min: -0.01
      max: 0.01
    }
    axis: 2
  }
}
layer {
  name: "lstm1_gate_input_27"
  type: "Eltwise"
  bottom: "W_hc_h_26"
  bottom: "W_xc_x_27"
  top: "gate_input_27"
  eltwise_param {
    operation: SUM
  }
}
layer {
  name: "lstm1_unit_27"
  type: "LSTMUnit"
  bottom: "c_26"
  bottom: "gate_input_27"
  bottom: "cont_27"
  top: "c_27"
  top: "h_27"
}
layer {
  name: "lstm1_h_conted_27"
  type: "Scale"
  bottom: "h_27"
  bottom: "cont_28"
  top: "h_conted_27"
  scale_param {
    axis: 0
  }
}
layer {
  name: "lstm1_transform_28"
  type: "InnerProduct"
  bottom: "h_conted_27"
  top: "W_hc_h_27"
  param {
    name: "W_hc"
  }
  inner_product_param {
    num_output: 2048
    bias_term: false
    weight_filler {
      type: "uniform"
      min: -0.01
      max: 0.01
    }
    axis: 2
  }
}
layer {
  name: "lstm1_gate_input_28"
  type: "Eltwise"
  bottom: "W_hc_h_27"
  bottom: "W_xc_x_28"
  top: "gate_input_28"
  eltwise_param {
    operation: SUM
  }
}
layer {
  name: "lstm1_unit_28"
  type: "LSTMUnit"
  bottom: "c_27"
  bottom: "gate_input_28"
  bottom: "cont_28"
  top: "c_28"
  top: "h_28"
}
layer {
  name: "lstm1_h_conted_28"
  type: "Scale"
  bottom: "h_28"
  bottom: "cont_29"
  top: "h_conted_28"
  scale_param {
    axis: 0
  }
}
layer {
  name: "lstm1_transform_29"
  type: "InnerProduct"
  bottom: "h_conted_28"
  top: "W_hc_h_28"
  param {
    name: "W_hc"
  }
  inner_product_param {
    num_output: 2048
    bias_term: false
    weight_filler {
      type: "uniform"
      min: -0.01
      max: 0.01
    }
    axis: 2
  }
}
layer {
  name: "lstm1_gate_input_29"
  type: "Eltwise"
  bottom: "W_hc_h_28"
  bottom: "W_xc_x_29"
  top: "gate_input_29"
  eltwise_param {
    operation: SUM
  }
}
layer {
  name: "lstm1_unit_29"
  type: "LSTMUnit"
  bottom: "c_28"
  bottom: "gate_input_29"
  bottom: "cont_29"
  top: "c_29"
  top: "h_29"
}
layer
I1018 00:04:50.862713 29901 layer_factory.hpp:77] Creating layer lstm1_
I1018 00:04:50.862733 29901 net.cpp:84] Creating Layer lstm1_
I1018 00:04:50.862740 29901 net.cpp:380] lstm1_ -> x
I1018 00:04:50.862753 29901 net.cpp:380] lstm1_ -> cont
I1018 00:04:50.862814 29901 net.cpp:122] Setting up lstm1_
I1018 00:04:50.862823 29901 net.cpp:129] Top shape: 196 5 512 (501760)
I1018 00:04:50.862828 29901 net.cpp:129] Top shape: 196 5 (980)
I1018 00:04:50.862833 29901 net.cpp:137] Memory required for data: 2010960
I1018 00:04:50.862836 29901 layer_factory.hpp:77] Creating layer lstm1_
I1018 00:04:50.862843 29901 net.cpp:84] Creating Layer lstm1_
I1018 00:04:50.862848 29901 net.cpp:380] lstm1_ -> c_0
I1018 00:04:50.862856 29901 net.cpp:380] lstm1_ -> h_0
I1018 00:04:50.862895 29901 net.cpp:122] Setting up lstm1_
I1018 00:04:50.862901 29901 net.cpp:129] Top shape: 1 5 512 (2560)
I1018 00:04:50.862906 29901 net.cpp:129] Top shape: 1 5 512 (2560)
I1018 00:04:50.862910 29901 net.cpp:137] Memory required for data: 2031440
I1018 00:04:50.862915 29901 layer_factory.hpp:77] Creating layer lstm1_cont_slice
I1018 00:04:50.862938 29901 net.cpp:84] Creating Layer lstm1_cont_slice
I1018 00:04:50.862943 29901 net.cpp:406] lstm1_cont_slice <- cont
I1018 00:04:50.862962 29901 net.cpp:380] lstm1_cont_slice -> cont_1
I1018 00:04:50.862988 29901 net.cpp:380] lstm1_cont_slice -> cont_2
…
I1018 00:04:50.867530 29901 net.cpp:380] lstm1_cont_slice -> cont_190
I1018 00:04:50.867553 29901 net.cpp:380] lstm1_cont_slice -> cont_191
I1018 00:04:50.867578 29901 net.cpp:380] lstm1_cont_slice -> cont_192
I1018 00:04:50.867601 29901 net.cpp:380] lstm1_cont_slice -> cont_193
I1018 00:04:50.867624 29901 net.cpp:380] lstm1_cont_slice -> cont_194
I1018 00:04:50.867648 29901 net.cpp:380] lstm1_cont_slice -> cont_195
I1018 00:04:50.867672 29901 net.cpp:380] lstm1_cont_slice -> cont_196
I1018 00:04:50.869729 29901 net.cpp:122] Setting up lstm1_cont_slice
I1018 00:04:50.869741 29901 net.cpp:129] Top shape: 1 5 (5)
I1018 00:04:50.869747 29901 net.cpp:129] Top shape: 1 5 (5)
I1018 00:04:50.869751 29901 net.cpp:129] Top shape: 1 5 (5)
I1018 00:04:50.869755 29901 net.cpp:129] Top shape: 1 5 (5)
I1018 00:04:50.869762 29901 net.cpp:129] Top shape: 1 5 (5)
I1018 00:04:50.869767 29901 net.cpp:129] Top shape: 1 5 (5)
I1018 00:04:50.869771 29901 net.cpp:129] Top shape: 1 5 (5)
I1018 00:04:50.869776 29901 net.cpp:129] Top shape: 1 5 (5)
I1018 00:04:50.869781 29901 net.cpp:129] Top shape: 1 5 (5)
I1018 00:04:50.869786 29901 net.cpp:129] Top shape: 1 5 (5)
I1018 00:04:50.869789 29901 net.cpp:129] Top shape: 1 5 (5)
I1018 00:04:50.869793 29901 net.cpp:129] Top shape: 1 5 (5)
I1018 00:04:50.869798 29901 net.cpp:129] Top shape: 1 5 (5)
I1018 00:04:50.869802 29901 net.cpp:129] Top shape: 1 5 (5)
I1018 00:04:50.869807 29901 net.cpp:129] Top shape: 1 5 (5)
I1018 00:04:50.869812 29901 net.cpp:129] Top shape: 1 5 (5)
I1018 00:04:50.869817 29901 net.cpp:129] Top shape: 1 5 (5)
I1018 00:04:50.869820 29901 net.cpp:129] Top shape: 1 5 (5)
I1018 00:04:50.869825 29901 net.cpp:129] Top shape: 1 5 (5)
I1018 00:04:50.869829 29901 net.cpp:129] Top shape: 1 5 (5)
I1018 00:04:50.869833 29901 net.cpp:129] Top shape: 1 5 (5)
I1018 00:04:50.869838 29901 net.cpp:129] Top shape: 1 5 (5)
I1018 00:04:50.869843 29901 net.cpp:129] Top shape: 1 5 (5)
I1018 00:04:50.869846 29901 net.cpp:129] Top shape: 1 5 (5)
I1018 00:04:50.869851 29901 net.cpp:129] Top shape: 1 5 (5)
I1018 00:04:50.869855 29901 net.cpp:129] Top shape: 1 5 (5)
I1018 00:04:50.869859 29901 net.cpp:129] Top shape: 1 5 (5)
I1018 00:04:50.869864 29901 net.cpp:129] Top shape: 1 5 (5)
I1018 00:04:50.869868 29901 net.cpp:129] Top shape: 1 5 (5)
I1018 00:04:50.869874 29901 net.cpp:129] Top shape: 1 5 (5)
I1018 00:04:50.869877 29901 net.cpp:129] Top shape: 1 5 (5)
I1018 00:04:50.869882 29901 net.cpp:129] Top shape: 1 5 (5)
I1018 00:04:50.869886 29901 net.cpp:129] Top shape: 1 5 (5)
I1018 00:04:50.869891 29901 net.cpp:129] Top shape: 1 5 (5)
I1018 00:04:50.869895 29901 net.cpp:129] Top shape: 1 5 (5)
I1018 00:04:50.869899 29901 net.cpp:129] Top shape: 1 5 (5)
I1018 00:04:50.869904 29901 net.cpp:129] Top shape: 1 5 (5)
I1018 00:04:50.869909 29901 net.cpp:129] Top shape: 1 5 (5)
I1018 00:04:50.869913 29901 net.cpp:129] Top shape: 1 5 (5)
I1018 00:04:50.869917 29901 net.cpp:129] Top shape: 1 5 (5)
I1018 00:04:50.869922 29901 net.cpp:129] Top shape: 1 5 (5)
I1018 00:04:50.869926 29901 net.cpp:129] Top shape: 1 5 (5)
I1018 00:04:50.869931 29901 net.cpp:129] Top shape: 1 5 (5)
I1018 00:04:50.869935 29901 net.cpp:129] Top shape: 1 5 (5)
I1018 00:04:50.869940 29901 net.cpp:129] Top shape: 1 5 (5)
I1018 00:04:50.869945 29901 net.cpp:129] Top shape: 1 5 (5)
I1018 00:04:50.869948 29901 net.cpp:129] Top shape: 1 5 (5)
I1018 00:04:50.869952 29901 net.cpp:129] Top shape: 1 5 (5)
I1018 00:04:50.869957 29901 net.cpp:129] Top shape: 1 5 (5)
I1018 00:04:50.869961 29901 net.cpp:129] Top shape: 1 5 (5)
I1018 00:04:50.869966 29901 net.cpp:129] Top shape: 1 5 (5)
I1018 00:04:50.869971 29901 net.cpp:129] Top shape: 1 5 (5)
I1018 00:04:50.869974 29901 net.cpp:129] Top shape: 1 5 (5)
I1018 00:04:50.869979 29901 net.cpp:129] Top shape: 1 5 (5)
I1018 00:04:50.869983 29901 net.cpp:129] Top shape: 1 5 (5)
I1018 00:04:50.869988 29901 net.cpp:129] Top shape: 1 5 (5)
I1018 00:04:50.869992 29901 net.cpp:129] Top shape: 1 5 (5)
I1018 00:04:50.869997 29901 net.cpp:129] Top shape: 1 5 (5)
I1018 00:04:50.870002 29901 net.cpp:129] Top shape: 1 5 (5)
I1018 00:04:50.870005 29901 net.cpp:129] Top shape: 1 5 (5)
I1018 00:04:50.870018 29901 net.cpp:129] Top shape: 1 5 (5)
I1018 00:04:50.870023 29901 net.cpp:129] Top shape: 1 5 (5)
I1018 00:04:50.870028 29901 net.cpp:129] Top shape: 1 5 (5)
I1018 00:04:50.870031 29901 net.cpp:129] Top shape: 1 5 (5)
I1018 00:04:50.870036 29901 net.cpp:129] Top shape: 1 5 (5)
I1018 00:04:50.870040 29901 net.cpp:129] Top shape: 1 5 (5)
I1018 00:04:50.870044 29901 net.cpp:129] Top shape: 1 5 (5)
I1018 00:04:50.870049 29901 net.cpp:129] Top shape: 1 5 (5)
I1018 00:04:50.870054 29901 net.cpp:129] Top shape: 1 5 (5)
I1018 00:04:50.870057 29901 net.cpp:129] Top shape: 1 5 (5)
I1018 00:04:50.870062 29901 net.cpp:129] Top shape: 1 5 (5)
I1018 00:04:50.870066 29901 net.cpp:129] Top shape: 1 5 (5)
I1018 00:04:50.870071 29901 net.cpp:129] Top shape: 1 5 (5)
I1018 00:04:50.870076 29901 net.cpp:129] Top shape: 1 5 (5)
I1018 00:04:50.870080 29901 net.cpp:129] Top shape: 1 5 (5)
I1018 00:04:50.870085 29901 net.cpp:129] Top shape: 1 5 (5)
I1018 00:04:50.870090 29901 net.cpp:129] Top shape: 1 5 (5)
I1018 00:04:50.870093 29901 net.cpp:129] Top shape: 1 5 (5)
I1018 00:04:50.870097 29901 net.cpp:129] Top shape: 1 5 (5)
I1018 00:04:50.870102 29901 net.cpp:129] Top shape: 1 5 (5)
I1018 00:04:50.870106 29901 net.cpp:129] Top shape: 1 5 (5)
I1018 00:04:50.870111 29901 net.cpp:129] Top shape: 1 5 (5)
I1018 00:04:50.870115 29901 net.cpp:129] Top shape: 1 5 (5)
I1018 00:04:50.870120 29901 net.cpp:129] Top shape: 1 5 (5)
I1018 00:04:50.870124 29901 net.cpp:129] Top shape: 1 5 (5)
I1018 00:04:50.870128 29901 net.cpp:129] Top shape: 1 5 (5)
I1018 00:04:50.870132 29901 net.cpp:129] Top shape: 1 5 (5)
I1018 00:04:50.870137 29901 net.cpp:129] Top shape: 1 5 (5)
I1018 00:04:50.870141 29901 net.cpp:129] Top shape: 1 5 (5)
I1018 00:04:50.870146 29901 net.cpp:129] Top shape: 1 5 (5)
I1018 00:04:50.870151 29901 net.cpp:129] Top shape: 1 5 (5)
I1018 00:04:50.870154 29901 net.cpp:129] Top shape: 1 5 (5)
I1018 00:04:50.870159 29901 net.cpp:129] Top shape: 1 5 (5)
I1018 00:04:50.870163 29901 net.cpp:129] Top shape: 1 5 (5)
I1018 00:04:50.870168 29901 net.cpp:129] Top shape: 1 5 (5)
I1018 00:04:50.870172 29901 net.cpp:129] Top shape: 1 5 (5)
I1018 00:04:50.870177 29901 net.cpp:129] Top shape: 1 5 (5)
I1018 00:04:50.870182 29901 net.cpp:129] Top shape: 1 5 (5)
I1018 00:04:50.870185 29901 net.cpp:129] Top shape: 1 5 (5)
I1018 00:04:50.870189 29901 net.cpp:129] Top shape: 1 5 (5)
I1018 00:04:50.870194 29901 net.cpp:129] Top shape: 1 5 (5)
I1018 00:04:50.870198 29901 net.cpp:129] Top shape: 1 5 (5)
I1018 00:04:50.870203 29901 net.cpp:129] Top shape: 1 5 (5)
I1018 00:04:50.870208 29901 net.cpp:129] Top shape: 1 5 (5)
I1018 00:04:50.870213 29901 net.cpp:129] Top shape: 1 5 (5)
I1018 00:04:50.870216 29901 net.cpp:129] Top shape: 1 5 (5)
I1018 00:04:50.870221 29901 net.cpp:129] Top shape: 1 5 (5)
I1018 00:04:50.870225 29901 net.cpp:129] Top shape: 1 5 (5)
I1018 00:04:50.870229 29901 net.cpp:129] Top shape: 1 5 (5)
I1018 00:04:50.870234 29901 net.cpp:129] Top shape: 1 5 (5)
I1018 00:04:50.870239 29901 net.cpp:129] Top shape: 1 5 (5)
I1018 00:04:50.870244 29901 net.cpp:129] Top shape: 1 5 (5)
I1018 00:04:50.870247 29901 net.cpp:129] Top shape: 1 5 (5)
I1018 00:04:50.870251 29901 net.cpp:129] Top shape: 1 5 (5)
I1018 00:04:50.870256 29901 net.cpp:129] Top shape: 1 5 (5)
I1018 00:04:50.870260 29901 net.cpp:129] Top shape: 1 5 (5)
I1018 00:04:50.870265 29901 net.cpp:129] Top shape: 1 5 (5)
I1018 00:04:50.870270 29901 net.cpp:129] Top shape: 1 5 (5)
I1018 00:04:50.870273 29901 net.cpp:129] Top shape: 1 5 (5)
I1018 00:04:50.870277 29901 net.cpp:129] Top shape: 1 5 (5)
I1018 00:04:50.870282 29901 net.cpp:129] Top shape: 1 5 (5)
I1018 00:04:50.870286 29901 net.cpp:129] Top shape: 1 5 (5)
I1018 00:04:50.870291 29901 net.cpp:129] Top shape: 1 5 (5)
I1018 00:04:50.870296 29901 net.cpp:129] Top shape: 1 5 (5)
I1018 00:04:50.870301 29901 net.cpp:129] Top shape: 1 5 (5)
I1018 00:04:50.870304 29901 net.cpp:129] Top shape: 1 5 (5)
I1018 00:04:50.870309 29901 net.cpp:129] Top shape: 1 5 (5)
I1018 00:04:50.870313 29901 net.cpp:129] Top shape: 1 5 (5)
I1018 00:04:50.870318 29901 net.cpp:129] Top shape: 1 5 (5)
I1018 00:04:50.870322 29901 net.cpp:129] Top shape: 1 5 (5)
I1018 00:04:50.870326 29901 net.cpp:129] Top shape: 1 5 (5)
I1018 00:04:50.870332 29901 net.cpp:129] Top shape: 1 5 (5)
I1018 00:04:50.870335 29901 net.cpp:129] Top shape: 1 5 (5)
I1018 00:04:50.870339 29901 net.cpp:129] Top shape: 1 5 (5)
I1018 00:04:50.870344 29901 net.cpp:129] Top shape: 1 5 (5)
I1018 00:04:50.870348 29901 net.cpp:129] Top shape: 1 5 (5)
I1018 00:04:50.870352 29901 net.cpp:129] Top shape: 1 5 (5)
I1018 00:04:50.870357 29901 net.cpp:129] Top shape: 1 5 (5)
I1018 00:04:50.870362 29901 net.cpp:129] Top shape: 1 5 (5)
I1018 00:04:50.870365 29901 net.cpp:129] Top shape: 1 5 (5)
I1018 00:04:50.870370 29901 net.cpp:129] Top shape: 1 5 (5)
I1018 00:04:50.870374 29901 net.cpp:129] Top shape: 1 5 (5)
I1018 00:04:50.870378 29901 net.cpp:129] Top shape: 1 5 (5)
I1018 00:04:50.870383 29901 net.cpp:129] Top shape: 1 5 (5)
I1018 00:04:50.870388 29901 net.cpp:129] Top shape: 1 5 (5)
I1018 00:04:50.870393 29901 net.cpp:129] Top shape: 1 5 (5)
I1018 00:04:50.870396 29901 net.cpp:129] Top shape: 1 5 (5)
I1018 00:04:50.870401 29901 net.cpp:129] Top shape: 1 5 (5)
I1018 00:04:50.870405 29901 net.cpp:129] Top shape: 1 5 (5)
I1018 00:04:50.870410 29901 net.cpp:129] Top shape: 1 5 (5)
I1018 00:04:50.870414 29901 net.cpp:129] Top shape: 1 5 (5)
I1018 00:04:50.870419 29901 net.cpp:129] Top shape: 1 5 (5)
I1018 00:04:50.870424 29901 net.cpp:129] Top shape: 1 5 (5)
I1018 00:04:50.870427 29901 net.cpp:129] Top shape: 1 5 (5)
I1018 00:04:50.870432 29901 net.cpp:129] Top shape: 1 5 (5)
I1018 00:04:50.870436 29901 net.cpp:129] Top shape: 1 5 (5)
I1018 00:04:50.870440 29901 net.cpp:129] Top shape: 1 5 (5)
I1018 00:04:50.870445 29901 net.cpp:129] Top shape: 1 5 (5)
I1018 00:04:50.870450 29901 net.cpp:129] Top shape: 1 5 (5)
I1018 00:04:50.870453 29901 net.cpp:129] Top shape: 1 5 (5)
I1018 00:04:50.870458 29901 net.cpp:129] Top shape: 1 5 (5)
I1018 00:04:50.870462 29901 net.cpp:129] Top shape: 1 5 (5)
I1018 00:04:50.870466 29901 net.cpp:129] Top shape: 1 5 (5)
I1018 00:04:50.870471 29901 net.cpp:129] Top shape: 1 5 (5)
I1018 00:04:50.870476 29901 net.cpp:129] Top shape: 1 5 (5)
I1018 00:04:50.870481 29901 net.cpp:129] Top shape: 1 5 (5)
I1018 00:04:50.870484 29901 net.cpp:129] Top shape: 1 5 (5)
I1018 00:04:50.870489 29901 net.cpp:129] Top shape: 1 5 (5)
I1018 00:04:50.870493 29901 net.cpp:129] Top shape: 1 5 (5)
I1018 00:04:50.870497 29901 net.cpp:129] Top shape: 1 5 (5)
I1018 00:04:50.870502 29901 net.cpp:129] Top shape: 1 5 (5)
I1018 00:04:50.870507 29901 net.cpp:129] Top shape: 1 5 (5)
I1018 00:04:50.870512 29901 net.cpp:129] Top shape: 1 5 (5)
I1018 00:04:50.870515 29901 net.cpp:129] Top shape: 1 5 (5)
I1018 00:04:50.870519 29901 net.cpp:129] Top shape: 1 5 (5)
I1018 00:04:50.870524 29901 net.cpp:129] Top shape: 1 5 (5)
I1018 00:04:50.870528 29901 net.cpp:129] Top shape: 1 5 (5)
I1018 00:04:50.870533 29901 net.cpp:129] Top shape: 1 5 (5)
I1018 00:04:50.870537 29901 net.cpp:129] Top shape: 1 5 (5)
I1018 00:04:50.870543 29901 net.cpp:129] Top shape: 1 5 (5)
I1018 00:04:50.870546 29901 net.cpp:129] Top shape: 1 5 (5)
I1018 00:04:50.870550 29901 net.cpp:129] Top shape: 1 5 (5)
I1018 00:04:50.870555 29901 net.cpp:129] Top shape: 1 5 (5)
I1018 00:04:50.870559 29901 net.cpp:129] Top shape: 1 5 (5)
I1018 00:04:50.870563 29901 net.cpp:129] Top shape: 1 5 (5)
I1018 00:04:50.870568 29901 net.cpp:129] Top shape: 1 5 (5)
I1018 00:04:50.870573 29901 net.cpp:129] Top shape: 1 5 (5)
I1018 00:04:50.870576 29901 net.cpp:129] Top shape: 1 5 (5)
I1018 00:04:50.870580 29901 net.cpp:129] Top shape: 1 5 (5)
I1018 00:04:50.870585 29901 net.cpp:129] Top shape: 1 5 (5)
I1018 00:04:50.870589 29901 net.cpp:129] Top shape: 1 5 (5)
I1018 00:04:50.870594 29901 net.cpp:129] Top shape: 1 5 (5)
I1018 00:04:50.870599 29901 net.cpp:129] Top shape: 1 5 (5)
I1018 00:04:50.870602 29901 net.cpp:129] Top shape: 1 5 (5)
I1018 00:04:50.870607 29901 net.cpp:129] Top shape: 1 5 (5)
I1018 00:04:50.870611 29901 net.cpp:129] Top shape: 1 5 (5)
I1018 00:04:50.870615 29901 net.cpp:137] Memory required for data: 2035360
I1018 00:04:50.870620 29901 layer_factory.hpp:77] Creating layer cont_1_lstm1_cont_slice_0_split
I1018 00:04:50.870626 29901 net.cpp:84] Creating Layer cont_1_lstm1_cont_slice_0_split
I1018 00:04:50.870630 29901 net.cpp:406] cont_1_lstm1_cont_slice_0_split <- cont_1
I1018 00:04:50.870637 29901 net.cpp:380] cont_1_lstm1_cont_slice_0_split -> cont_1_lstm1_cont_slice_0_split_0
I1018 00:04:50.870648 29901 net.cpp:380] cont_1_lstm1_cont_slice_0_split -> cont_1_lstm1_cont_slice_0_split_1
I1018 00:04:50.870687 29901 net.cpp:122] Setting up cont_1_lstm1_cont_slice_0_split
I1018 00:04:50.870693 29901 net.cpp:129] Top shape: 1 5 (5)
I1018 00:04:50.870698 29901 net.cpp:129] Top shape: 1 5 (5)
I1018 00:04:50.870702 29901 net.cpp:137] Memory required for data: 2035400
I1018 00:04:50.870705 29901 layer_factory.hpp:77] Creating layer cont_2_lstm1_cont_slice_1_split
I1018 00:04:50.870714 29901 net.cpp:84] Creating Layer cont_2_lstm1_cont_slice_1_split
I1018 00:04:50.870719 29901 net.cpp:406] cont_2_lstm1_cont_slice_1_split <- cont_2
I1018 00:04:50.870725 29901 net.cpp:380] cont_2_lstm1_cont_slice_1_split -> cont_2_lstm1_cont_slice_1_split_0
I1018 00:04:50.870733 29901 net.cpp:380] cont_2_lstm1_cont_slice_1_split -> cont_2_lstm1_cont_slice_1_split_1
I1018 00:04:50.870767 29901 net.cpp:122] Setting up cont_2_lstm1_cont_slice_1_split
I1018 00:04:50.870774 29901 net.cpp:129] Top shape: 1 5 (5)
I1018 00:04:50.870779 29901 net.cpp:129] Top shape: 1 5 (5)
I1018 00:04:50.870782 29901 net.cpp:137] Memory required for data: 2035440
I1018 00:04:50.870786 29901 layer_factory.hpp:77] Creating layer cont_3_lstm1_cont_slice_2_split
I1018 00:04:50.870791 29901 net.cpp:84] Creating Layer cont_3_lstm1_cont_slice_2_split
I1018 00:04:50.870795 29901 net.cpp:406] cont_3_lstm1_cont_slice_2_split <- cont_3
I1018 00:04:50.870803 29901 net.cpp:380] cont_3_lstm1_cont_slice_2_split -> cont_3_lstm1_cont_slice_2_split_0
I1018 00:04:50.870810 29901 net.cpp:380] cont_3_lstm1_cont_slice_2_split -> cont_3_lstm1_cont_slice_2_split_1
I1018 00:04:50.870841 29901 net.cpp:122] Setting up cont_3_lstm1_cont_slice_2_split
I1018 00:04:50.870849 29901 net.cpp:129] Top shape: 1 5 (5)
I1018 00:04:50.870854 29901 net.cpp:129] Top shape: 1 5 (5)
I1018 00:04:50.870858 29901 net.cpp:137] Memory required for data: 2035480
I1018 00:04:50.870862 29901 layer_factory.hpp:77] Creating layer cont_4_lstm1_cont_slice_3_split
I1018 00:04:50.870867 29901 net.cpp:84] Creating Layer cont_4_lstm1_cont_slice_3_split
I1018 00:04:50.870872 29901 net.cpp:406] cont_4_lstm1_cont_slice_3_split <- cont_4
I1018 00:04:50.870877 29901 net.cpp:380] cont_4_lstm1_cont_slice_3_split -> cont_4_lstm1_cont_slice_3_split_0
I1018 00:04:50.870883 29901 net.cpp:380] cont_4_lstm1_cont_slice_3_split -> cont_4_lstm1_cont_slice_3_split_1
I1018 00:04:50.870916 29901 net.cpp:122] Setting up cont_4_lstm1_cont_slice_3_split
I1018 00:04:50.870923 29901 net.cpp:129] Top shape: 1 5 (5)
I1018 00:04:50.870928 29901 net.cpp:129] Top shape: 1 5 (5)
I1018 00:04:50.870931 29901 net.cpp:137] Memory required for data: 2035520
I1018 00:04:50.870935 29901 layer_factory.hpp:77] Creating layer cont_5_lstm1_cont_slice_4_split
I1018 00:04:50.870940 29901 net.cpp:84] Creating Layer cont_5_lstm1_cont_slice_4_split
I1018 00:04:50.870944 29901 net.cpp:406] cont_5_lstm1_cont_slice_4_split <- cont_5
I1018 00:04:50.870952 29901 net.cpp:380] cont_5_lstm1_cont_slice_4_split -> cont_5_lstm1_cont_slice_4_split_0
I1018 00:04:50.870959 29901 net.cpp:380] cont_5_lstm1_cont_slice_4_split -> cont_5_lstm1_cont_slice_4_split_1
I1018 00:04:50.870990 29901 net.cpp:122] Setting up cont_5_lstm1_cont_slice_4_split
I1018 00:04:50.870996 29901 net.cpp:129] Top shape: 1 5 (5)
I1018 00:04:50.871001 29901 net.cpp:129] Top shape: 1 5 (5)
I1018 00:04:50.871004 29901 net.cpp:137] Memory required for data: 2035560
I1018 00:04:50.871008 29901 layer_factory.hpp:77] Creating layer cont_6_lstm1_cont_slice_5_split
I1018 00:04:50.871016 29901 net.cpp:84] Creating Layer cont_6_lstm1_cont_slice_5_split
I1018 00:04:50.871021 29901 net.cpp:406] cont_6_lstm1_cont_slice_5_split <- cont_6
I1018 00:04:50.871026 29901 net.cpp:380] cont_6_lstm1_cont_slice_5_split -> cont_6_lstm1_cont_slice_5_split_0
I1018 00:04:50.871032 29901 net.cpp:380] cont_6_lstm1_cont_slice_5_split -> cont_6_lstm1_cont_slice_5_split_1
I1018 00:04:50.871062 29901 net.cpp:122] Setting up cont_6_lstm1_cont_slice_5_split
I1018 00:04:50.871068 29901 net.cpp:129] Top shape: 1 5 (5)
I1018 00:04:50.871073 29901 net.cpp:129] Top shape: 1 5 (5)
I1018 00:04:50.871076 29901 net.cpp:137] Memory required for data: 2035600
I1018 00:04:50.871080 29901 layer_factory.hpp:77] Creating layer cont_7_lstm1_cont_slice_6_split
I1018 00:04:50.871085 29901 net.cpp:84] Creating Layer cont_7_lstm1_cont_slice_6_split
I1018 00:04:50.871089 29901 net.cpp:406] cont_7_lstm1_cont_slice_6_split <- cont_7
I1018 00:04:50.871095 29901 net.cpp:380] cont_7_lstm1_cont_slice_6_split -> cont_7_lstm1_cont_slice_6_split_0
I1018 00:04:50.871101 29901 net.cpp:380] cont_7_lstm1_cont_slice_6_split -> cont_7_lstm1_cont_slice_6_split_1
I1018 00:04:50.871131 29901 net.cpp:122] Setting up cont_7_lstm1_cont_slice_6_split
I1018 00:04:50.871137 29901 net.cpp:129] Top shape: 1 5 (5)
I1018 00:04:50.871142 29901 net.cpp:129] Top shape: 1 5 (5)
I1018 00:04:50.871146 29901 net.cpp:137] Memory required for data: 2035640
I1018 00:04:50.871150 29901 layer_factory.hpp:77] Creating layer cont_8_lstm1_cont_slice_7_split
I1018 00:04:50.871155 29901 net.cpp:84] Creating Layer cont_8_lstm1_cont_slice_7_split
I1018 00:04:50.871158 29901 net.cpp:406] cont_8_lstm1_cont_slice_7_split <- cont_8
I1018 00:04:50.871165 29901 net.cpp:380] cont_8_lstm1_cont_slice_7_split -> cont_8_lstm1_cont_slice_7_split_0
I1018 00:04:50.871172 29901 net.cpp:380] cont_8_lstm1_cont_slice_7_split -> cont_8_lstm1_cont_slice_7_split_1
I1018 00:04:50.871201 29901 net.cpp:122] Setting up cont_8_lstm1_cont_slice_7_split
I1018 00:04:50.871206 29901 net.cpp:129] Top shape: 1 5 (5)
I1018 00:04:50.871210 29901 net.cpp:129] Top shape: 1 5 (5)
I1018 00:04:50.871214 29901 net.cpp:137] Memory required for data: 2035680
I1018 00:04:50.871217 29901 layer_factory.hpp:77] Creating layer cont_9_lstm1_cont_slice_8_split
I1018 00:04:50.871224 29901 net.cpp:84] Creating Layer cont_9_lstm1_cont_slice_8_split
I1018 00:04:50.871229 29901 net.cpp:406] cont_9_lstm1_cont_slice_8_split <- cont_9
I1018 00:04:50.871234 29901 net.cpp:380] cont_9_lstm1_cont_slice_8_split -> cont_9_lstm1_cont_slice_8_split_0
I1018 00:04:50.871242 29901 net.cpp:380] cont_9_lstm1_cont_slice_8_split -> cont_9_lstm1_cont_slice_8_split_1
I1018 00:04:50.871282 29901 net.cpp:122] Setting up cont_9_lstm1_cont_slice_8_split
I1018 00:04:50.871289 29901 net.cpp:129] Top shape: 1 5 (5)
I1018 00:04:50.871294 29901 net.cpp:129] Top shape: 1 5 (5)
I1018 00:04:50.871296 29901 net.cpp:137] Memory required for data: 2035720
I1018 00:04:50.871301 29901 layer_factory.hpp:77] Creating layer cont_10_lstm1_cont_slice_9_split
I1018 00:04:50.871305 29901 net.cpp:84] Creating Layer cont_10_lstm1_cont_slice_9_split
I1018 00:04:50.871309 29901 net.cpp:406] cont_10_lstm1_cont_slice_9_split <- cont_10
I1018 00:04:50.871315 29901 net.cpp:380] cont_10_lstm1_cont_slice_9_split -> cont_10_lstm1_cont_slice_9_split_0
I1018 00:04:50.871321 29901 net.cpp:380] cont_10_lstm1_cont_slice_9_split -> cont_10_lstm1_cont_slice_9_split_1
I1018 00:04:50.871351 29901 net.cpp:122] Setting up cont_10_lstm1_cont_slice_9_split
I1018 00:04:50.871357 29901 net.cpp:129] Top shape: 1 5 (5)
I1018 00:04:50.871362 29901 net.cpp:129] Top shape: 1 5 (5)
I1018 00:04:50.871366 29901 net.cpp:137] Memory required for data: 2035760
I1018 00:04:50.871369 29901 layer_factory.hpp:77] Creating layer cont_11_lstm1_cont_slice_10_split
I1018 00:04:50.871373 29901 net.cpp:84] Creating Layer cont_11_lstm1_cont_slice_10_split
I1018 00:04:50.871378 29901 net.cpp:406] cont_11_lstm1_cont_slice_10_split <- cont_11
I1018 00:04:50.871383 29901 net.cpp:380] cont_11_lstm1_cont_slice_10_split -> cont_11_lstm1_cont_slice_10_split_0
I1018 00:04:50.871390 29901 net.cpp:380] cont_11_lstm1_cont_slice_10_split -> cont_11_lstm1_cont_slice_10_split_1
I1018 00:04:50.871423 29901 net.cpp:122] Setting up cont_11_lstm1_cont_slice_10_split
I1018 00:04:50.871428 29901 net.cpp:129] Top shape: 1 5 (5)
I1018 00:04:50.871433 29901 net.cpp:129] Top shape: 1 5 (5)
I1018 00:04:50.871436 29901 net.cpp:137] Memory required for data: 2035800
I1018 00:04:50.871439 29901 layer_factory.hpp:77] Creating layer cont_12_lstm1_cont_slice_11_split
I1018 00:04:50.871444 29901 net.cpp:84] Creating Layer cont_12_lstm1_cont_slice_11_split
I1018 00:04:50.871448 29901 net.cpp:406] cont_12_lstm1_cont_slice_11_split <- cont_12
I1018 00:04:50.871455 29901 net.cpp:380] cont_12_lstm1_cont_slice_11_split -> cont_12_lstm1_cont_slice_11_split_0
I1018 00:04:50.871462 29901 net.cpp:380] cont_12_lstm1_cont_slice_11_split -> cont_12_lstm1_cont_slice_11_split_1
I1018 00:04:50.871490 29901 net.cpp:122] Setting up cont_12_lstm1_cont_slice_11_split
I1018 00:04:50.871495 29901 net.cpp:129] Top shape: 1 5 (5)
I1018 00:04:50.871500 29901 net.cpp:129] Top shape: 1 5 (5)
I1018 00:04:50.871503 29901 net.cpp:137] Memory required for data: 2035840
I1018 00:04:50.871507 29901 layer_factory.hpp:77] Creating layer cont_13_lstm1_cont_slice_12_split
I1018 00:04:50.871513 29901 net.cpp:84] Creating Layer cont_13_lstm1_cont_slice_12_split
I1018 00:04:50.871518 29901 net.cpp:406] cont_13_lstm1_cont_slice_12_split <- cont_13
I1018 00:04:50.871523 29901 net.cpp:380] cont_13_lstm1_cont_slice_12_split -> cont_13_lstm1_cont_slice_12_split_0
I1018 00:04:50.871531 29901 net.cpp:380] cont_13_lstm1_cont_slice_12_split -> cont_13_lstm1_cont_slice_12_split_1
I1018 00:04:50.871559 29901 net.cpp:122] Setting up cont_13_lstm1_cont_slice_12_split
I1018 00:04:50.871565 29901 net.cpp:129] Top shape: 1 5 (5)
I1018 00:04:50.871569 29901 net.cpp:129] Top shape: 1 5 (5)
I1018 00:04:50.871573 29901 net.cpp:137] Memory required for data: 2035880
I1018 00:04:50.871577 29901 layer_factory.hpp:77] Creating layer cont_14_lstm1_cont_slice_13_split
I1018 00:04:50.871582 29901 net.cpp:84] Creating Layer cont_14_lstm1_cont_slice_13_split
I1018 00:04:50.871587 29901 net.cpp:406] cont_14_lstm1_cont_slice_13_split <- cont_14
I1018 00:04:50.871592 29901 net.cpp:380] cont_14_lstm1_cont_slice_13_split -> cont_14_lstm1_cont_slice_13_split_0
I1018 00:04:50.871598 29901 net.cpp:380] cont_14_lstm1_cont_slice_13_split -> cont_14_lstm1_cont_slice_13_split_1
I1018 00:04:50.871628 29901 net.cpp:122] Setting up cont_14_lstm1_cont_slice_13_split
I1018 00:04:50.871634 29901 net.cpp:129] Top shape: 1 5 (5)
I1018 00:04:50.871637 29901 net.cpp:129] Top shape: 1 5 (5)
I1018 00:04:50.871641 29901 net.cpp:137] Memory required for data: 2035920
I1018 00:04:50.871644 29901 layer_factory.hpp:77] Creating layer cont_15_lstm1_cont_slice_14_split
I1018 00:04:50.871649 29901 net.cpp:84] Creating Layer cont_15_lstm1_cont_slice_14_split
I1018 00:04:50.871654 29901 net.cpp:406] cont_15_lstm1_cont_slice_14_split <- cont_15
I1018 00:04:50.871660 29901 net.cpp:380] cont_15_lstm1_cont_slice_14_split -> cont_15_lstm1_cont_slice_14_split_0
I1018 00:04:50.871666 29901 net.cpp:380] cont_15_lstm1_cont_slice_14_split -> cont_15_lstm1_cont_slice_14_split_1
I1018 00:04:50.871693 29901 net.cpp:122] Setting up cont_15_lstm1_cont_slice_14_split
I1018 00:04:50.871698 29901 net.cpp:129] Top shape: 1 5 (5)
I1018 00:04:50.871703 29901 net.cpp:129] Top shape: 1 5 (5)
I1018 00:04:50.871706 29901 net.cpp:137] Memory required for data: 2035960
I1018 00:04:50.871711 29901 layer_factory.hpp:77] Creating layer cont_16_lstm1_cont_slice_15_split
I1018 00:04:50.871718 29901 net.cpp:84] Creating Layer cont_16_lstm1_cont_slice_15_split
I1018 00:04:50.871723 29901 net.cpp:406] cont_16_lstm1_cont_slice_15_split <- cont_16
I1018 00:04:50.871728 29901 net.cpp:380] cont_16_lstm1_cont_slice_15_split -> cont_16_lstm1_cont_slice_15_split_0
I1018 00:04:50.871736 29901 net.cpp:380] cont_16_lstm1_cont_slice_15_split -> cont_16_lstm1_cont_slice_15_split_1
I1018 00:04:50.871765 29901 net.cpp:122] Setting up cont_16_lstm1_cont_slice_15_split
I1018 00:04:50.871772 29901 net.cpp:129] Top shape: 1 5 (5)
I1018 00:04:50.871775 29901 net.cpp:129] Top shape: 1 5 (5)
I1018 00:04:50.871779 29901 net.cpp:137] Memory required for data: 2036000
I1018 00:04:50.871783 29901 layer_factory.hpp:77] Creating layer cont_17_lstm1_cont_slice_16_split
I1018 00:04:50.871788 29901 net.cpp:84] Creating Layer cont_17_lstm1_cont_slice_16_split
I1018 00:04:50.871793 29901 net.cpp:406] cont_17_lstm1_cont_slice_16_split <- cont_17
I1018 00:04:50.871798 29901 net.cpp:380] cont_17_lstm1_cont_slice_16_split -> cont_17_lstm1_cont_slice_16_split_0
I1018 00:04:50.871804 29901 net.cpp:380] cont_17_lstm1_cont_slice_16_split -> cont_17_lstm1_cont_slice_16_split_1
I1018 00:04:50.871845 29901 net.cpp:122] Setting up cont_17_lstm1_cont_slice_16_split
I1018 00:04:50.871851 29901 net.cpp:129] Top shape: 1 5 (5)
I1018 00:04:50.871855 29901 net.cpp:129] Top shape: 1 5 (5)
I1018 00:04:50.871860 29901 net.cpp:137] Memory required for data: 2036040
I1018 00:04:50.871862 29901 layer_factory.hpp:77] Creating layer cont_18_lstm1_cont_slice_17_split
I1018 00:04:50.871866 29901 net.cpp:84] Creating Layer cont_18_lstm1_cont_slice_17_split
I1018 00:04:50.871870 29901 net.cpp:406] cont_18_lstm1_cont_slice_17_split <- cont_18
I1018 00:04:50.871876 29901 net.cpp:380] cont_18_lstm1_cont_slice_17_split -> cont_18_lstm1_cont_slice_17_split_0
I1018 00:04:50.871882 29901 net.cpp:380] cont_18_lstm1_cont_slice_17_split -> cont_18_lstm1_cont_slice_17_split_1
I1018 00:04:50.871911 29901 net.cpp:122] Setting up cont_18_lstm1_cont_slice_17_split
I1018 00:04:50.871915 29901 net.cpp:129] Top shape: 1 5 (5)
I1018 00:04:50.871920 29901 net.cpp:129] Top shape: 1 5 (5)
I1018 00:04:50.871923 29901 net.cpp:137] Memory required for data: 2036080
I1018 00:04:50.871927 29901 layer_factory.hpp:77] Creating layer cont_19_lstm1_cont_slice_18_split
I1018 00:04:50.871932 29901 net.cpp:84] Creating Layer cont_19_lstm1_cont_slice_18_split
I1018 00:04:50.871935 29901 net.cpp:406] cont_19_lstm1_cont_slice_18_split <- cont_19
I1018 00:04:50.871942 29901 net.cpp:380] cont_19_lstm1_cont_slice_18_split -> cont_19_lstm1_cont_slice_18_split_0
I1018 00:04:50.871949 29901 net.cpp:380] cont_19_lstm1_cont_slice_18_split -> cont_19_lstm1_cont_slice_18_split_1
I1018 00:04:50.871975 29901 net.cpp:122] Setting up cont_19_lstm1_cont_slice_18_split
I1018 00:04:50.871981 29901 net.cpp:129] Top shape: 1 5 (5)
I1018 00:04:50.871985 29901 net.cpp:129] Top shape: 1 5 (5)
I1018 00:04:50.871989 29901 net.cpp:137] Memory required for data: 2036120
I1018 00:04:50.871992 29901 layer_factory.hpp:77] Creating layer cont_20_lstm1_cont_slice_19_split
I1018 00:04:50.871999 29901 net.cpp:84] Creating Layer cont_20_lstm1_cont_slice_19_split
I1018 00:04:50.872004 29901 net.cpp:406] cont_20_lstm1_cont_slice_19_split <- cont_20
I1018 00:04:50.872009 29901 net.cpp:380] cont_20_lstm1_cont_slice_19_split -> cont_20_lstm1_cont_slice_19_split_0
I1018 00:04:50.872014 29901 net.cpp:380] cont_20_lstm1_cont_slice_19_split -> cont_20_lstm1_cont_slice_19_split_1
I1018 00:04:50.872062 29901 net.cpp:122] Setting up cont_20_lstm1_cont_slice_19_split
I1018 00:04:50.872069 29901 net.cpp:129] Top shape: 1 5 (5)
I1018 00:04:50.872073 29901 net.cpp:129] Top shape: 1 5 (5)
I1018 00:04:50.872077 29901 net.cpp:137] Memory required for data: 2036160
I1018 00:04:50.872081 29901 layer_factory.hpp:77] Creating layer cont_21_lstm1_cont_slice_20_split
I1018 00:04:50.872087 29901 net.cpp:84] Creating Layer cont_21_lstm1_cont_slice_20_split
I1018 00:04:50.872090 29901 net.cpp:406] cont_21_lstm1_cont_slice_20_split <- cont_21
I1018 00:04:50.872097 29901 net.cpp:380] cont_21_lstm1_cont_slice_20_split -> cont_21_lstm1_cont_slice_20_split_0
I1018 00:04:50.872102 29901 net.cpp:380] cont_21_lstm1_cont_slice_20_split -> cont_21_lstm1_cont_slice_20_split_1
I1018 00:04:50.872131 29901 net.cpp:122] Setting up cont_21_lstm1_cont_slice_20_split
I1018 00:04:50.872138 29901 net.cpp:129] Top shape: 1 5 (5)
I1018 00:04:50.872143 29901 net.cpp:129] Top shape: 1 5 (5)
I1018 00:04:50.872145 29901 net.cpp:137] Memory required for data: 2036200
I1018 00:04:50.872149 29901 layer_factory.hpp:77] Creating layer cont_22_lstm1_cont_slice_21_split
I1018 00:04:50.872154 29901 net.cpp:84] Creating Layer cont_22_lstm1_cont_slice_21_split
I1018 00:04:50.872159 29901 net.cpp:406] cont_22_lstm1_cont_slice_21_split <- cont_22
I1018 00:04:50.872165 29901 net.cpp:380] cont_22_lstm1_cont_slice_21_split -> cont_22_lstm1_cont_slice_21_split_0
I1018 00:04:50.872172 29901 net.cpp:380] cont_22_lstm1_cont_slice_21_split -> cont_22_lstm1_cont_slice_21_split_1
I1018 00:04:50.872200 29901 net.cpp:122] Setting up cont_22_lstm1_cont_slice_21_split
I1018 00:04:50.872205 29901 net.cpp:129] Top shape: 1 5 (5)
I1018 00:04:50.872210 29901 net.cpp:129] Top shape: 1 5 (5)
I1018 00:04:50.872213 29901 net.cpp:137] Memory required for data: 2036240
I1018 00:04:50.872217 29901 layer_factory.hpp:77] Creating layer cont_23_lstm1_cont_slice_22_split
I1018 00:04:50.872223 29901 net.cpp:84] Creating Layer cont_23_lstm1_cont_slice_22_split
I1018 00:04:50.872228 29901 net.cpp:406] cont_23_lstm1_cont_slice_22_split <- cont_23
I1018 00:04:50.872233 29901 net.cpp:380] cont_23_lstm1_cont_slice_22_split -> cont_23_lstm1_cont_slice_22_split_0
I1018 00:04:50.872241 29901 net.cpp:380] cont_23_lstm1_cont_slice_22_split -> cont_23_lstm1_cont_slice_22_split_1
I1018 00:04:50.872269 29901 net.cpp:122] Setting up cont_23_lstm1_cont_slice_22_split
I1018 00:04:50.872277 29901 net.cpp:129] Top shape: 1 5 (5)
I1018 00:04:50.872280 29901 net.cpp:129] Top shape: 1 5 (5)
I1018 00:04:50.872284 29901 net.cpp:137] Memory required for data: 2036280
I1018 00:04:50.872287 29901 layer_factory.hpp:77] Creating layer cont_24_lstm1_cont_slice_23_split
I1018 00:04:50.872292 29901 net.cpp:84] Creating Layer cont_24_lstm1_cont_slice_23_split
I1018 00:04:50.872297 29901 net.cpp:406] cont_24_lstm1_cont_slice_23_split <- cont_24
I1018 00:04:50.872301 29901 net.cpp:380] cont_24_lstm1_cont_slice_23_split -> cont_24_lstm1_cont_slice_23_split_0
I1018 00:04:50.872308 29901 net.cpp:380] cont_24_lstm1_cont_slice_23_split -> cont_24_lstm1_cont_slice_23_split_1
I1018 00:04:50.872337 29901 net.cpp:122] Setting up cont_24_lstm1_cont_slice_23_split
I1018 00:04:50.872344 29901 net.cpp:129] Top shape: 1 5 (5)
I1018 00:04:50.872347 29901 net.cpp:129] Top shape: 1 5 (5)
I1018 00:04:50.872351 29901 net.cpp:137] Memory required for data: 2036320
I1018 00:04:50.872354 29901 layer_factory.hpp:77] Creating layer cont_25_lstm1_cont_slice_24_split
I1018 00:04:50.872359 29901 net.cpp:84] Creating Layer cont_25_lstm1_cont_slice_24_split
I1018 00:04:50.872364 29901 net.cpp:406] cont_25_lstm1_cont_slice_24_split <- cont_25
I1018 00:04:50.872368 29901 net.cpp:380] cont_25_lstm1_cont_slice_24_split -> cont_25_lstm1_cont_slice_24_split_0
I1018 00:04:50.872375 29901 net.cpp:380] cont_25_lstm1_cont_slice_24_split -> cont_25_lstm1_cont_slice_24_split_1
I1018 00:04:50.872403 29901 net.cpp:122] Setting up cont_25_lstm1_cont_slice_24_split
I1018 00:04:50.872409 29901 net.cpp:129] Top shape: 1 5 (5)
I1018 00:04:50.872414 29901 net.cpp:129] Top shape: 1 5 (5)
I1018 00:04:50.872417 29901 net.cpp:137] Memory required for data: 2036360
I1018 00:04:50.872421 29901 layer_factory.hpp:77] Creating layer cont_26_lstm1_cont_slice_25_split
I1018 00:04:50.872426 29901 net.cpp:84] Creating Layer cont_26_lstm1_cont_slice_25_split
I1018 00:04:50.872431 29901 net.cpp:406] cont_26_lstm1_cont_slice_25_split <- cont_26
I1018 00:04:50.872437 29901 net.cpp:380] cont_26_lstm1_cont_slice_25_split -> cont_26_lstm1_cont_slice_25_split_0
I1018 00:04:50.872443 29901 net.cpp:380] cont_26_lstm1_cont_slice_25_split -> cont_26_lstm1_cont_slice_25_split_1
I1018 00:04:50.872483 29901 net.cpp:122] Setting up cont_26_lstm1_cont_slice_25_split
I1018 00:04:50.872488 29901 net.cpp:129] Top shape: 1 5 (5)
I1018 00:04:50.872491 29901 net.cpp:129] Top shape: 1 5 (5)
I1018 00:04:50.872495 29901 net.cpp:137] Memory required for data: 2036400
I1018 00:04:50.872498 29901 layer_factory.hpp:77] Creating layer cont_27_lstm1_cont_slice_26_split
I1018 00:04:50.872505 29901 net.cpp:84] Creating Layer cont_27_lstm1_cont_slice_26_split
I1018 00:04:50.872509 29901 net.cpp:406] cont_27_lstm1_cont_slice_26_split <- cont_27
I1018 00:04:50.872515 29901 net.cpp:380] cont_27_lstm1_cont_slice_26_split -> cont_27_lstm1_cont_slice_26_split_0
I1018 00:04:50.872521 29901 net.cpp:380] cont_27_lstm1_cont_slice_26_split -> cont_27_lstm1_cont_slice_26_split_1
I1018 00:04:50.872548 29901 net.cpp:122] Setting up cont_27_lstm1_cont_slice_26_split
I1018 00:04:50.872555 29901 net.cpp:129] Top shape: 1 5 (5)
I1018 00:04:50.872560 29901 net.cpp:129] Top shape: 1 5 (5)
I1018 00:04:50.872562 29901 net.cpp:137] Memory required for data: 2036440
I1018 00:04:50.872566 29901 layer_factory.hpp:77] Creating layer cont_28_lstm1_cont_slice_27_split
I1018 00:04:50.872570 29901 net.cpp:84] Creating Layer cont_28_lstm1_cont_slice_27_split
I1018 00:04:50.872575 29901 net.cpp:406] cont_28_lstm1_cont_slice_27_split <- cont_28
I1018 00:04:50.872579 29901 net.cpp:380] cont_28_lstm1_cont_slice_27_split -> cont_28_lstm1_cont_slice_27_split_0
I1018 00:04:50.872586 29901 net.cpp:380] cont_28_lstm1_cont_slice_27_split -> cont_28_lstm1_cont_slice_27_split_1
I1018 00:04:50.872613 29901 net.cpp:122] Setting up cont_28_lstm1_cont_slice_27_split
I1018 00:04:50.872619 29901 net.cpp:129] Top shape: 1 5 (5)
I1018 00:04:50.872623 29901 net.cpp:129] Top shape: 1 5 (5)
I1018 00:04:50.872627 29901 net.cpp:137] Memory required for data: 2036480
I1018 00:04:50.872630 29901 layer_factory.hpp:77] Creating layer cont_29_lstm1_cont_slice_28_split
I1018 00:04:50.872635 29901 net.cpp:84] Creating Layer cont_29_lstm1_cont_slice_28_split
I1018 00:04:50.872638 29901 net.cpp:406] cont_29_lstm1_cont_slice_28_split <- cont_29
I1018 00:04:50.872644 29901 net.cpp:380] cont_29_lstm1_cont_slice_28_split -> cont_29_lstm1_cont_slice_28_split_0
I1018 00:04:50.872664 29901 net.cpp:380] cont_29_lstm1_cont_slice_28_split -> cont_29_lstm1_cont_slice_28_split_1
I1018 00:04:50.872696 29901 net.cpp:122] Setting up cont_29_lstm1_cont_slice_28_split
I1018 00:04:50.872704 29901 net.cpp:129] Top shape: 1 5 (5)
I1018 00:04:50.872709 29901 net.cpp:129] Top shape: 1 5 (5)
I1018 00:04:50.872711 29901 net.cpp:137] Memory required for data: 2036520
I1018 00:04:50.872715 29901 layer_factory.hpp:77] Creating layer cont_30_lstm1_cont_slice_29_split
I1018 00:04:50.872725 29901 net.cpp:84] Creating Layer cont_30_lstm1_cont_slice_29_split
I1018 00:04:50.872728 29901 net.cpp:406] cont_30_lstm1_cont_slice_29_split <- cont_30
I1018 00:04:50.872735 29901 net.cpp:380] cont_30_lstm1_cont_slice_29_split -> cont_30_lstm1_cont_slice_29_split_0
I1018 00:04:50.872740 29901 net.cpp:380] cont_30_lstm1_cont_slice_29_split -> cont_30_lstm1_cont_slice_29_split_1
I1018 00:04:50.872771 29901 net.cpp:122] Setting up cont_30_lstm1_cont_slice_29_split
I1018 00:04:50.872776 29901 net.cpp:129] Top shape: 1 5 (5)
I1018 00:04:50.872781 29901 net.cpp:129] Top shape: 1 5 (5)
I1018 00:04:50.872784 29901 net.cpp:137] Memory required for data: 2036560
I1018 00:04:50.872788 29901 layer_factory.hpp:77] Creating layer cont_31_lstm1_cont_slice_30_split
I1018 00:04:50.872792 29901 net.cpp:84] Creating Layer cont_31_lstm1_cont_slice_30_split
I1018 00:04:50.872797 29901 net.cpp:406] cont_31_lstm1_cont_slice_30_split <- cont_31
I1018 00:04:50.872802 29901 net.cpp:380] cont_31_lstm1_cont_slice_30_split -> cont_31_lstm1_cont_slice_30_split_0
I1018 00:04:50.872808 29901 net.cpp:380] cont_31_lstm1_cont_slice_30_split -> cont_31_lstm1_cont_slice_30_split_1
I1018 00:04:50.872836 29901 net.cpp:122] Setting up cont_31_lstm1_cont_slice_30_split
I1018 00:04:50.872843 29901 net.cpp:129] Top shape: 1 5 (5)
I1018 00:04:50.872848 29901 net.cpp:129] Top shape: 1 5 (5)
I1018 00:04:50.872850 29901 net.cpp:137] Memory required for data: 2036600
I1018 00:04:50.872854 29901 layer_factory.hpp:77] Creating layer cont_32_lstm1_cont_slice_31_split
I1018 00:04:50.872859 29901 net.cpp:84] Creating Layer cont_32_lstm1_cont_slice_31_split
I1018 00:04:50.872862 29901 net.cpp:406] cont_32_lstm1_cont_slice_31_split <- cont_32
I1018 00:04:50.872867 29901 net.cpp:380] cont_32_lstm1_cont_slice_31_split -> cont_32_lstm1_cont_slice_31_split_0
I1018 00:04:50.872874 29901 net.cpp:380] cont_32_lstm1_cont_slice_31_split -> cont_32_lstm1_cont_slice_31_split_1
I1018 00:04:50.872902 29901 net.cpp:122] Setting up cont_32_lstm1_cont_slice_31_split
I1018 00:04:50.872908 29901 net.cpp:129] Top shape: 1 5 (5)
I1018 00:04:50.872912 29901 net.cpp:129] Top shape: 1 5 (5)
I1018 00:04:50.872915 29901 net.cpp:137] Memory required for data: 2036640
I1018 00:04:50.872920 29901 layer_factory.hpp:77] Creating layer cont_33_lstm1_cont_slice_32_split
I1018 00:04:50.872923 29901 net.cpp:84] Creating Layer cont_33_lstm1_cont_slice_32_split
I1018 00:04:50.872927 29901 net.cpp:406] cont_33_lstm1_cont_slice_32_split <- cont_33
I1018 00:04:50.872936 29901 net.cpp:380] cont_33_lstm1_cont_slice_32_split -> cont_33_lstm1_cont_slice_32_split_0
I1018 00:04:50.872941 29901 net.cpp:380] cont_33_lstm1_cont_slice_32_split -> cont_33_lstm1_cont_slice_32_split_1
I1018 00:04:50.872969 29901 net.cpp:122] Setting up cont_33_lstm1_cont_slice_32_split
I1018 00:04:50.872975 29901 net.cpp:129] Top shape: 1 5 (5)
I1018 00:04:50.872980 29901 net.cpp:129] Top shape: 1 5 (5)
I1018 00:04:50.872983 29901 net.cpp:137] Memory required for data: 2036680
I1018 00:04:50.872987 29901 layer_factory.hpp:77] Creating layer cont_34_lstm1_cont_slice_33_split
I1018 00:04:50.872994 29901 net.cpp:84] Creating Layer cont_34_lstm1_cont_slice_33_split
I1018 00:04:50.872999 29901 net.cpp:406] cont_34_lstm1_cont_slice_33_split <- cont_34
I1018 00:04:50.873004 29901 net.cpp:380] cont_34_lstm1_cont_slice_33_split -> cont_34_lstm1_cont_slice_33_split_0
I1018 00:04:50.873010 29901 net.cpp:380] cont_34_lstm1_cont_slice_33_split -> cont_34_lstm1_cont_slice_33_split_1
I1018 00:04:50.873039 29901 net.cpp:122] Setting up cont_34_lstm1_cont_slice_33_split
I1018 00:04:50.873044 29901 net.cpp:129] Top shape: 1 5 (5)
I1018 00:04:50.873049 29901 net.cpp:129] Top shape: 1 5 (5)
I1018 00:04:50.873052 29901 net.cpp:137] Memory required for data: 2036720
I1018 00:04:50.873056 29901 layer_factory.hpp:77] Creating layer cont_35_lstm1_cont_slice_34_split
I1018 00:04:50.873060 29901 net.cpp:84] Creating Layer cont_35_lstm1_cont_slice_34_split
I1018 00:04:50.873064 29901 net.cpp:406] cont_35_lstm1_cont_slice_34_split <- cont_35
I1018 00:04:50.873070 29901 net.cpp:380] cont_35_lstm1_cont_slice_34_split -> cont_35_lstm1_cont_slice_34_split_0
I1018 00:04:50.873075 29901 net.cpp:380] cont_35_lstm1_cont_slice_34_split -> cont_35_lstm1_cont_slice_34_split_1
I1018 00:04:50.873103 29901 net.cpp:122] Setting up cont_35_lstm1_cont_slice_34_split
I1018 00:04:50.873109 29901 net.cpp:129] Top shape: 1 5 (5)
I1018 00:04:50.873113 29901 net.cpp:129] Top shape: 1 5 (5)
I1018 00:04:50.873116 29901 net.cpp:137] Memory required for data: 2036760
I1018 00:04:50.873121 29901 layer_factory.hpp:77] Creating layer cont_36_lstm1_cont_slice_35_split
I1018 00:04:50.873124 29901 net.cpp:84] Creating Layer cont_36_lstm1_cont_slice_35_split
I1018 00:04:50.873128 29901 net.cpp:406] cont_36_lstm1_cont_slice_35_split <- cont_36
I1018 00:04:50.873133 29901 net.cpp:380] cont_36_lstm1_cont_slice_35_split -> cont_36_lstm1_cont_slice_35_split_0
I1018 00:04:50.873139 29901 net.cpp:380] cont_36_lstm1_cont_slice_35_split -> cont_36_lstm1_cont_slice_35_split_1
I1018 00:04:50.873169 29901 net.cpp:122] Setting up cont_36_lstm1_cont_slice_35_split
I1018 00:04:50.873175 29901 net.cpp:129] Top shape: 1 5 (5)
I1018 00:04:50.873179 29901 net.cpp:129] Top shape: 1 5 (5)
I1018 00:04:50.873183 29901 net.cpp:137] Memory required for data: 2036800
I1018 00:04:50.873186 29901 layer_factory.hpp:77] Creating layer cont_37_lstm1_cont_slice_36_split
I1018 00:04:50.873191 29901 net.cpp:84] Creating Layer cont_37_lstm1_cont_slice_36_split
I1018 00:04:50.873194 29901 net.cpp:406] cont_37_lstm1_cont_slice_36_split <- cont_37
I1018 00:04:50.873201 29901 net.cpp:380] cont_37_lstm1_cont_slice_36_split -> cont_37_lstm1_cont_slice_36_split_0
I1018 00:04:50.873208 29901 net.cpp:380] cont_37_lstm1_cont_slice_36_split -> cont_37_lstm1_cont_slice_36_split_1
I1018 00:04:50.873234 29901 net.cpp:122] Setting up cont_37_lstm1_cont_slice_36_split
I1018 00:04:50.873242 29901 net.cpp:129] Top shape: 1 5 (5)
I1018 00:04:50.873247 29901 net.cpp:129] Top shape: 1 5 (5)
I1018 00:04:50.873250 29901 net.cpp:137] Memory required for data: 2036840
I1018 00:04:50.873255 29901 layer_factory.hpp:77] Creating layer cont_38_lstm1_cont_slice_37_split
I1018 00:04:50.873258 29901 net.cpp:84] Creating Layer cont_38_lstm1_cont_slice_37_split
I1018 00:04:50.873262 29901 net.cpp:406] cont_38_lstm1_cont_slice_37_split <- cont_38
I1018 00:04:50.873267 29901 net.cpp:380] cont_38_lstm1_cont_slice_37_split -> cont_38_lstm1_cont_slice_37_split_0
I1018 00:04:50.873272 29901 net.cpp:380] cont_38_lstm1_cont_slice_37_split -> cont_38_lstm1_cont_slice_37_split_1
I1018 00:04:50.873301 29901 net.cpp:122] Setting up cont_38_lstm1_cont_slice_37_split
I1018 00:04:50.873306 29901 net.cpp:129] Top shape: 1 5 (5)
I1018 00:04:50.873311 29901 net.cpp:129] Top shape: 1 5 (5)
I1018 00:04:50.873314 29901 net.cpp:137] Memory required for data: 2036880
I1018 00:04:50.873318 29901 layer_factory.hpp:77] Creating layer cont_39_lstm1_cont_slice_38_split
I1018 00:04:50.873322 29901 net.cpp:84] Creating Layer cont_39_lstm1_cont_slice_38_split
I1018 00:04:50.873327 29901 net.cpp:406] cont_39_lstm1_cont_slice_38_split <- cont_39
I1018 00:04:50.873332 29901 net.cpp:380] cont_39_lstm1_cont_slice_38_split -> cont_39_lstm1_cont_slice_38_split_0
I1018 00:04:50.873337 29901 net.cpp:380] cont_39_lstm1_cont_slice_38_split -> cont_39_lstm1_cont_slice_38_split_1
I1018 00:04:50.873378 29901 net.cpp:122] Setting up cont_39_lstm1_cont_slice_38_split
I1018 00:04:50.873384 29901 net.cpp:129] Top shape: 1 5 (5)
I1018 00:04:50.873389 29901 net.cpp:129] Top shape: 1 5 (5)
I1018 00:04:50.873404 29901 net.cpp:137] Memory required for data: 2036920
I1018 00:04:50.873409 29901 layer_factory.hpp:77] Creating layer cont_40_lstm1_cont_slice_39_split
I1018 00:04:50.873414 29901 net.cpp:84] Creating Layer cont_40_lstm1_cont_slice_39_split
I1018 00:04:50.873417 29901 net.cpp:406] cont_40_lstm1_cont_slice_39_split <- cont_40
I1018 00:04:50.873426 29901 net.cpp:380] cont_40_lstm1_cont_slice_39_split -> cont_40_lstm1_cont_slice_39_split_0
I1018 00:04:50.873433 29901 net.cpp:380] cont_40_lstm1_cont_slice_39_split -> cont_40_lstm1_cont_slice_39_split_1
I1018 00:04:50.873462 29901 net.cpp:122] Setting up cont_40_lstm1_cont_slice_39_split
I1018 00:04:50.873468 29901 net.cpp:129] Top shape: 1 5 (5)
I1018 00:04:50.873473 29901 net.cpp:129] Top shape: 1 5 (5)
I1018 00:04:50.873477 29901 net.cpp:137] Memory required for data: 2036960
I1018 00:04:50.873481 29901 layer_factory.hpp:77] Creating layer cont_41_lstm1_cont_slice_40_split
I1018 00:04:50.873489 29901 net.cpp:84] Creating Layer cont_41_lstm1_cont_slice_40_split
I1018 00:04:50.873493 29901 net.cpp:406] cont_41_lstm1_cont_slice_40_split <- cont_41
I1018 00:04:50.873499 29901 net.cpp:380] cont_41_lstm1_cont_slice_40_split -> cont_41_lstm1_cont_slice_40_split_0
I1018 00:04:50.873505 29901 net.cpp:380] cont_41_lstm1_cont_slice_40_split -> cont_41_lstm1_cont_slice_40_split_1
I1018 00:04:50.873536 29901 net.cpp:122] Setting up cont_41_lstm1_cont_slice_40_split
I1018 00:04:50.873543 29901 net.cpp:129] Top shape: 1 5 (5)
I1018 00:04:50.873548 29901 net.cpp:129] Top shape: 1 5 (5)
I1018 00:04:50.873551 29901 net.cpp:137] Memory required for data: 2037000
I1018 00:04:50.873555 29901 layer_factory.hpp:77] Creating layer cont_42_lstm1_cont_slice_41_split
I1018 00:04:50.873560 29901 net.cpp:84] Creating Layer cont_42_lstm1_cont_slice_41_split
I1018 00:04:50.873564 29901 net.cpp:406] cont_42_lstm1_cont_slice_41_split <- cont_42
I1018 00:04:50.873569 29901 net.cpp:380] cont_42_lstm1_cont_slice_41_split -> cont_42_lstm1_cont_slice_41_split_0
I1018 00:04:50.873576 29901 net.cpp:380] cont_42_lstm1_cont_slice_41_split -> cont_42_lstm1_cont_slice_41_split_1
I1018 00:04:50.873606 29901 net.cpp:122] Setting up cont_42_lstm1_cont_slice_41_split
I1018 00:04:50.873615 29901 net.cpp:129] Top shape: 1 5 (5)
I1018 00:04:50.873620 29901 net.cpp:129] Top shape: 1 5 (5)
I1018 00:04:50.873623 29901 net.cpp:137] Memory required for data: 2037040
I1018 00:04:50.873628 29901 layer_factory.hpp:77] Creating layer cont_43_lstm1_cont_slice_42_split
I1018 00:04:50.873633 29901 net.cpp:84] Creating Layer cont_43_lstm1_cont_slice_42_split
I1018 00:04:50.873637 29901 net.cpp:406] cont_43_lstm1_cont_slice_42_split <- cont_43
I1018 00:04:50.873642 29901 net.cpp:380] cont_43_lstm1_cont_slice_42_split -> cont_43_lstm1_cont_slice_42_split_0
I1018 00:04:50.873649 29901 net.cpp:380] cont_43_lstm1_cont_slice_42_split -> cont_43_lstm1_cont_slice_42_split_1
I1018 00:04:50.873679 29901 net.cpp:122] Setting up cont_43_lstm1_cont_slice_42_split
I1018 00:04:50.873687 29901 net.cpp:129] Top shape: 1 5 (5)
I1018 00:04:50.873690 29901 net.cpp:129] Top shape: 1 5 (5)
I1018 00:04:50.873694 29901 net.cpp:137] Memory required for data: 2037080
I1018 00:04:50.873698 29901 layer_factory.hpp:77] Creating layer cont_44_lstm1_cont_slice_43_split
I1018 00:04:50.873703 29901 net.cpp:84] Creating Layer cont_44_lstm1_cont_slice_43_split
I1018 00:04:50.873708 29901 net.cpp:406] cont_44_lstm1_cont_slice_43_split <- cont_44
I1018 00:04:50.873714 29901 net.cpp:380] cont_44_lstm1_cont_slice_43_split -> cont_44_lstm1_cont_slice_43_split_0
I1018 00:04:50.873720 29901 net.cpp:380] cont_44_lstm1_cont_slice_43_split -> cont_44_lstm1_cont_slice_43_split_1
I1018 00:04:50.873760 29901 net.cpp:122] Setting up cont_44_lstm1_cont_slice_43_split
I1018 00:04:50.873766 29901 net.cpp:129] Top shape: 1 5 (5)
I1018 00:04:50.873770 29901 net.cpp:129] Top shape: 1 5 (5)
I1018 00:04:50.873773 29901 net.cpp:137] Memory required for data: 2037120
I1018 00:04:50.873777 29901 layer_factory.hpp:77] Creating layer cont_45_lstm1_cont_slice_44_split
I1018 00:04:50.873783 29901 net.cpp:84] Creating Layer cont_45_lstm1_cont_slice_44_split
I1018 00:04:50.873788 29901 net.cpp:406] cont_45_lstm1_cont_slice_44_split <- cont_45
I1018 00:04:50.873793 29901 net.cpp:380] cont_45_lstm1_cont_slice_44_split -> cont_45_lstm1_cont_slice_44_split_0
I1018 00:04:50.873800 29901 net.cpp:380] cont_45_lstm1_cont_slice_44_split -> cont_45_lstm1_cont_slice_44_split_1
I1018 00:04:50.873827 29901 net.cpp:122] Setting up cont_45_lstm1_cont_slice_44_split
I1018 00:04:50.873832 29901 net.cpp:129] Top shape: 1 5 (5)
I1018 00:04:50.873837 29901 net.cpp:129] Top shape: 1 5 (5)
I1018 00:04:50.873841 29901 net.cpp:137] Memory required for data: 2037160
I1018 00:04:50.873844 29901 layer_factory.hpp:77] Creating layer cont_46_lstm1_cont_slice_45_split
I1018 00:04:50.873848 29901 net.cpp:84] Creating Layer cont_46_lstm1_cont_slice_45_split
I1018 00:04:50.873852 29901 net.cpp:406] cont_46_lstm1_cont_slice_45_split <- cont_46
I1018 00:04:50.873857 29901 net.cpp:380] cont_46_lstm1_cont_slice_45_split -> cont_46_lstm1_cont_slice_45_split_0
I1018 00:04:50.873863 29901 net.cpp:380] cont_46_lstm1_cont_slice_45_split -> cont_46_lstm1_cont_slice_45_split_1
I1018 00:04:50.873891 29901 net.cpp:122] Setting up cont_46_lstm1_cont_slice_45_split
I1018 00:04:50.873898 29901 net.cpp:129] Top shape: 1 5 (5)
I1018 00:04:50.873901 29901 net.cpp:129] Top shape: 1 5 (5)
I1018 00:04:50.873905 29901 net.cpp:137] Memory required for data: 2037200
I1018 00:04:50.873908 29901 layer_factory.hpp:77] Creating layer cont_47_lstm1_cont_slice_46_split
I1018 00:04:50.873914 29901 net.cpp:84] Creating Layer cont_47_lstm1_cont_slice_46_split
I1018 00:04:50.873917 29901 net.cpp:406] cont_47_lstm1_cont_slice_46_split <- cont_47
I1018 00:04:50.873922 29901 net.cpp:380] cont_47_lstm1_cont_slice_46_split -> cont_47_lstm1_cont_slice_46_split_0
I1018 00:04:50.873929 29901 net.cpp:380] cont_47_lstm1_cont_slice_46_split -> cont_47_lstm1_cont_slice_46_split_1
I1018 00:04:50.873955 29901 net.cpp:122] Setting up cont_47_lstm1_cont_slice_46_split
I1018 00:04:50.873960 29901 net.cpp:129] Top shape: 1 5 (5)
I1018 00:04:50.873965 29901 net.cpp:129] Top shape: 1 5 (5)
I1018 00:04:50.873968 29901 net.cpp:137] Memory required for data: 2037240
I1018 00:04:50.873972 29901 layer_factory.hpp:77] Creating layer cont_48_lstm1_cont_slice_47_split
I1018 00:04:50.873978 29901 net.cpp:84] Creating Layer cont_48_lstm1_cont_slice_47_split
I1018 00:04:50.873983 29901 net.cpp:406] cont_48_lstm1_cont_slice_47_split <- cont_48
I1018 00:04:50.873988 29901 net.cpp:380] cont_48_lstm1_cont_slice_47_split -> cont_48_lstm1_cont_slice_47_split_0
I1018 00:04:50.873994 29901 net.cpp:380] cont_48_lstm1_cont_slice_47_split -> cont_48_lstm1_cont_slice_47_split_1
I1018 00:04:50.874022 29901 net.cpp:122] Setting up cont_48_lstm1_cont_slice_47_split
I1018 00:04:50.874027 29901 net.cpp:129] Top shape: 1 5 (5)
I1018 00:04:50.874032 29901 net.cpp:129] Top shape: 1 5 (5)
I1018 00:04:50.874035 29901 net.cpp:137] Memory required for data: 2037280
I1018 00:04:50.874039 29901 layer_factory.hpp:77] Creating layer cont_49_lstm1_cont_slice_48_split
I1018 00:04:50.874043 29901 net.cpp:84] Creating Layer cont_49_lstm1_cont_slice_48_split
I1018 00:04:50.874047 29901 net.cpp:406] cont_49_lstm1_cont_slice_48_split <- cont_49
I1018 00:04:50.874053 29901 net.cpp:380] cont_49_lstm1_cont_slice_48_split -> cont_49_lstm1_cont_slice_48_split_0
I1018 00:04:50.874058 29901 net.cpp:380] cont_49_lstm1_cont_slice_48_split -> cont_49_lstm1_cont_slice_48_split_1
I1018 00:04:50.874085 29901 net.cpp:122] Setting up cont_49_lstm1_cont_slice_48_split
I1018 00:04:50.874091 29901 net.cpp:129] Top shape: 1 5 (5)
I1018 00:04:50.874096 29901 net.cpp:129] Top shape: 1 5 (5)
I1018 00:04:50.874099 29901 net.cpp:137] Memory required for data: 2037320
I1018 00:04:50.874104 29901 layer_factory.hpp:77] Creating layer cont_50_lstm1_cont_slice_49_split
I1018 00:04:50.874107 29901 net.cpp:84] Creating Layer cont_50_lstm1_cont_slice_49_split
I1018 00:04:50.874111 29901 net.cpp:406] cont_50_lstm1_cont_slice_49_split <- cont_50
I1018 00:04:50.874116 29901 net.cpp:380] cont_50_lstm1_cont_slice_49_split -> cont_50_lstm1_cont_slice_49_split_0
I1018 00:04:50.874122 29901 net.cpp:380] cont_50_lstm1_cont_slice_49_split -> cont_50_lstm1_cont_slice_49_split_1
I1018 00:04:50.874151 29901 net.cpp:122] Setting up cont_50_lstm1_cont_slice_49_split
I1018 00:04:50.874157 29901 net.cpp:129] Top shape: 1 5 (5)
I1018 00:04:50.874161 29901 net.cpp:129] Top shape: 1 5 (5)
I1018 00:04:50.874166 29901 net.cpp:137] Memory required for data: 2037360
I1018 00:04:50.874168 29901 layer_factory.hpp:77] Creating layer cont_51_lstm1_cont_slice_50_split
I1018 00:04:50.874173 29901 net.cpp:84] Creating Layer cont_51_lstm1_cont_slice_50_split
I1018 00:04:50.874177 29901 net.cpp:406] cont_51_lstm1_cont_slice_50_split <- cont_51
I1018 00:04:50.874184 29901 net.cpp:380] cont_51_lstm1_cont_slice_50_split -> cont_51_lstm1_cont_slice_50_split_0
I1018 00:04:50.874191 29901 net.cpp:380] cont_51_lstm1_cont_slice_50_split -> cont_51_lstm1_cont_slice_50_split_1
I1018 00:04:50.874217 29901 net.cpp:122] Setting up cont_51_lstm1_cont_slice_50_split
I1018 00:04:50.874222 29901 net.cpp:129] Top shape: 1 5 (5)
I1018 00:04:50.874227 29901 net.cpp:129] Top shape: 1 5 (5)
I1018 00:04:50.874229 29901 net.cpp:137] Memory required for data: 2037400
I1018 00:04:50.874233 29901 layer_factory.hpp:77] Creating layer cont_52_lstm1_cont_slice_51_split
I1018 00:04:50.874240 29901 net.cpp:84] Creating Layer cont_52_lstm1_cont_slice_51_split
I1018 00:04:50.874244 29901 net.cpp:406] cont_52_lstm1_cont_slice_51_split <- cont_52
I1018 00:04:50.874249 29901 net.cpp:380] cont_52_lstm1_cont_slice_51_split -> cont_52_lstm1_cont_slice_51_split_0
I1018 00:04:50.874255 29901 net.cpp:380] cont_52_lstm1_cont_slice_51_split -> cont_52_lstm1_cont_slice_51_split_1
I1018 00:04:50.874284 29901 net.cpp:122] Setting up cont_52_lstm1_cont_slice_51_split
I1018 00:04:50.874289 29901 net.cpp:129] Top shape: 1 5 (5)
I1018 00:04:50.874294 29901 net.cpp:129] Top shape: 1 5 (5)
I1018 00:04:50.874296 29901 net.cpp:137] Memory required for data: 2037440
I1018 00:04:50.874300 29901 layer_factory.hpp:77] Creating layer cont_53_lstm1_cont_slice_52_split
I1018 00:04:50.874305 29901 net.cpp:84] Creating Layer cont_53_lstm1_cont_slice_52_split
I1018 00:04:50.874310 29901 net.cpp:406] cont_53_lstm1_cont_slice_52_split <- cont_53
I1018 00:04:50.874315 29901 net.cpp:380] cont_53_lstm1_cont_slice_52_split -> cont_53_lstm1_cont_slice_52_split_0
I1018 00:04:50.874320 29901 net.cpp:380] cont_53_lstm1_cont_slice_52_split -> cont_53_lstm1_cont_slice_52_split_1
I1018 00:04:50.874347 29901 net.cpp:122] Setting up cont_53_lstm1_cont_slice_52_split
I1018 00:04:50.874353 29901 net.cpp:129] Top shape: 1 5 (5)
I1018 00:04:50.874357 29901 net.cpp:129] Top shape: 1 5 (5)
I1018 00:04:50.874361 29901 net.cpp:137] Memory required for data: 2037480
I1018 00:04:50.874364 29901 layer_factory.hpp:77] Creating layer cont_54_lstm1_cont_slice_53_split
I1018 00:04:50.874369 29901 net.cpp:84] Creating Layer cont_54_lstm1_cont_slice_53_split
I1018 00:04:50.874373 29901 net.cpp:406] cont_54_lstm1_cont_slice_53_split <- cont_54
I1018 00:04:50.874378 29901 net.cpp:380] cont_54_lstm1_cont_slice_53_split -> cont_54_lstm1_cont_slice_53_split_0
I1018 00:04:50.874385 29901 net.cpp:380] cont_54_lstm1_cont_slice_53_split -> cont_54_lstm1_cont_slice_53_split_1
I1018 00:04:50.874411 29901 net.cpp:122] Setting up cont_54_lstm1_cont_slice_53_split
I1018 00:04:50.874418 29901 net.cpp:129] Top shape: 1 5 (5)
I1018 00:04:50.874421 29901 net.cpp:129] Top shape: 1 5 (5)
I1018 00:04:50.874424 29901 net.cpp:137] Memory required for data: 2037520
I1018 00:04:50.874428 29901 layer_factory.hpp:77] Creating layer cont_55_lstm1_cont_slice_54_split
I1018 00:04:50.874434 29901 net.cpp:84] Creating Layer cont_55_lstm1_cont_slice_54_split
I1018 00:04:50.874439 29901 net.cpp:406] cont_55_lstm1_cont_slice_54_split <- cont_55
I1018 00:04:50.874444 29901 net.cpp:380] cont_55_lstm1_cont_slice_54_split -> cont_55_lstm1_cont_slice_54_split_0
I1018 00:04:50.874450 29901 net.cpp:380] cont_55_lstm1_cont_slice_54_split -> cont_55_lstm1_cont_slice_54_split_1
I1018 00:04:50.874480 29901 net.cpp:122] Setting up cont_55_lstm1_cont_slice_54_split
I1018 00:04:50.874485 29901 net.cpp:129] Top shape: 1 5 (5)
I1018 00:04:50.874490 29901 net.cpp:129] Top shape: 1 5 (5)
I1018 00:04:50.874492 29901 net.cpp:137] Memory required for data: 2037560
I1018 00:04:50.874496 29901 layer_factory.hpp:77] Creating layer cont_56_lstm1_cont_slice_55_split
I1018 00:04:50.874500 29901 net.cpp:84] Creating Layer cont_56_lstm1_cont_slice_55_split
I1018 00:04:50.874505 29901 net.cpp:406] cont_56_lstm1_cont_slice_55_split <- cont_56
I1018 00:04:50.874510 29901 net.cpp:380] cont_56_lstm1_cont_slice_55_split -> cont_56_lstm1_cont_slice_55_split_0
I1018 00:04:50.874516 29901 net.cpp:380] cont_56_lstm1_cont_slice_55_split -> cont_56_lstm1_cont_slice_55_split_1
I1018 00:04:50.874543 29901 net.cpp:122] Setting up cont_56_lstm1_cont_slice_55_split
I1018 00:04:50.874549 29901 net.cpp:129] Top shape: 1 5 (5)
I1018 00:04:50.874553 29901 net.cpp:129] Top shape: 1 5 (5)
I1018 00:04:50.874557 29901 net.cpp:137] Memory required for data: 2037600
I1018 00:04:50.874560 29901 layer_factory.hpp:77] Creating layer cont_57_lstm1_cont_slice_56_split
I1018 00:04:50.874565 29901 net.cpp:84] Creating Layer cont_57_lstm1_cont_slice_56_split
I1018 00:04:50.874568 29901 net.cpp:406] cont_57_lstm1_cont_slice_56_split <- cont_57
I1018 00:04:50.874574 29901 net.cpp:380] cont_57_lstm1_cont_slice_56_split -> cont_57_lstm1_cont_slice_56_split_0
I1018 00:04:50.874580 29901 net.cpp:380] cont_57_lstm1_cont_slice_56_split -> cont_57_lstm1_cont_slice_56_split_1
I1018 00:04:50.874608 29901 net.cpp:122] Setting up cont_57_lstm1_cont_slice_56_split
I1018 00:04:50.874614 29901 net.cpp:129] Top shape: 1 5 (5)
I1018 00:04:50.874619 29901 net.cpp:129] Top shape: 1 5 (5)
I1018 00:04:50.874621 29901 net.cpp:137] Memory required for data: 2037640
I1018 00:04:50.874625 29901 layer_factory.hpp:77] Creating layer cont_58_lstm1_cont_slice_57_split
I1018 00:04:50.874629 29901 net.cpp:84] Creating Layer cont_58_lstm1_cont_slice_57_split
I1018 00:04:50.874634 29901 net.cpp:406] cont_58_lstm1_cont_slice_57_split <- cont_58
I1018 00:04:50.874642 29901 net.cpp:380] cont_58_lstm1_cont_slice_57_split -> cont_58_lstm1_cont_slice_57_split_0
I1018 00:04:50.874650 29901 net.cpp:380] cont_58_lstm1_cont_slice_57_split -> cont_58_lstm1_cont_slice_57_split_1
I1018 00:04:50.874675 29901 net.cpp:122] Setting up cont_58_lstm1_cont_slice_57_split
I1018 00:04:50.874681 29901 net.cpp:129] Top shape: 1 5 (5)
I1018 00:04:50.874686 29901 net.cpp:129] Top shape: 1 5 (5)
I1018 00:04:50.874688 29901 net.cpp:137] Memory required for data: 2037680
I1018 00:04:50.874692 29901 layer_factory.hpp:77] Creating layer cont_59_lstm1_cont_slice_58_split
I1018 00:04:50.874699 29901 net.cpp:84] Creating Layer cont_59_lstm1_cont_slice_58_split
I1018 00:04:50.874703 29901 net.cpp:406] cont_59_lstm1_cont_slice_58_split <- cont_59
I1018 00:04:50.874708 29901 net.cpp:380] cont_59_lstm1_cont_slice_58_split -> cont_59_lstm1_cont_slice_58_split_0
I1018 00:04:50.874714 29901 net.cpp:380] cont_59_lstm1_cont_slice_58_split -> cont_59_lstm1_cont_slice_58_split_1
I1018 00:04:50.874743 29901 net.cpp:122] Setting up cont_59_lstm1_cont_slice_58_split
I1018 00:04:50.874749 29901 net.cpp:129] Top shape: 1 5 (5)
I1018 00:04:50.874753 29901 net.cpp:129] Top shape: 1 5 (5)
I1018 00:04:50.874758 29901 net.cpp:137] Memory required for data: 2037720
I1018 00:04:50.874760 29901 layer_factory.hpp:77] Creating layer cont_60_lstm1_cont_slice_59_split
I1018 00:04:50.874765 29901 net.cpp:84] Creating Layer cont_60_lstm1_cont_slice_59_split
I1018 00:04:50.874769 29901 net.cpp:406] cont_60_lstm1_cont_slice_59_split <- cont_60
I1018 00:04:50.874774 29901 net.cpp:380] cont_60_lstm1_cont_slice_59_split -> cont_60_lstm1_cont_slice_59_split_0
I1018 00:04:50.874780 29901 net.cpp:380] cont_60_lstm1_cont_slice_59_split -> cont_60_lstm1_cont_slice_59_split_1
I1018 00:04:50.874809 29901 net.cpp:122] Setting up cont_60_lstm1_cont_slice_59_split
I1018 00:04:50.874814 29901 net.cpp:129] Top shape: 1 5 (5)
I1018 00:04:50.874819 29901 net.cpp:129] Top shape: 1 5 (5)
I1018 00:04:50.874822 29901 net.cpp:137] Memory required for data: 2037760
I1018 00:04:50.874825 29901 layer_factory.hpp:77] Creating layer cont_61_lstm1_cont_slice_60_split
I1018 00:04:50.874830 29901 net.cpp:84] Creating Layer cont_61_lstm1_cont_slice_60_split
I1018 00:04:50.874833 29901 net.cpp:406] cont_61_lstm1_cont_slice_60_split <- cont_61
I1018 00:04:50.874838 29901 net.cpp:380] cont_61_lstm1_cont_slice_60_split -> cont_61_lstm1_cont_slice_60_split_0
I1018 00:04:50.874858 29901 net.cpp:380] cont_61_lstm1_cont_slice_60_split -> cont_61_lstm1_cont_slice_60_split_1
I1018 00:04:50.874886 29901 net.cpp:122] Setting up cont_61_lstm1_cont_slice_60_split
I1018 00:04:50.874891 29901 net.cpp:129] Top shape: 1 5 (5)
I1018 00:04:50.874896 29901 net.cpp:129] Top shape: 1 5 (5)
I1018 00:04:50.874898 29901 net.cpp:137] Memory required for data: 2037800
I1018 00:04:50.874902 29901 layer_factory.hpp:77] Creating layer cont_62_lstm1_cont_slice_61_split
I1018 00:04:50.874912 29901 net.cpp:84] Creating Layer cont_62_lstm1_cont_slice_61_split
I1018 00:04:50.874917 29901 net.cpp:406] cont_62_lstm1_cont_slice_61_split <- cont_62
I1018 00:04:50.874923 29901 net.cpp:380] cont_62_lstm1_cont_slice_61_split -> cont_62_lstm1_cont_slice_61_split_0
I1018 00:04:50.874929 29901 net.cpp:380] cont_62_lstm1_cont_slice_61_split -> cont_62_lstm1_cont_slice_61_split_1
I1018 00:04:50.874960 29901 net.cpp:122] Setting up cont_62_lstm1_cont_slice_61_split
I1018 00:04:50.874967 29901 net.cpp:129] Top shape: 1 5 (5)
I1018 00:04:50.874971 29901 net.cpp:129] Top shape: 1 5 (5)
I1018 00:04:50.874974 29901 net.cpp:137] Memory required for data: 2037840
I1018 00:04:50.874979 29901 layer_factory.hpp:77] Creating layer cont_63_lstm1_cont_slice_62_split
I1018 00:04:50.874984 29901 net.cpp:84] Creating Layer cont_63_lstm1_cont_slice_62_split
I1018 00:04:50.874989 29901 net.cpp:406] cont_63_lstm1_cont_slice_62_split <- cont_63
I1018 00:04:50.874994 29901 net.cpp:380] cont_63_lstm1_cont_slice_62_split -> cont_63_lstm1_cont_slice_62_split_0
I1018 00:04:50.875000 29901 net.cpp:380] cont_63_lstm1_cont_slice_62_split -> cont_63_lstm1_cont_slice_62_split_1
I1018 00:04:50.875030 29901 net.cpp:122] Setting up cont_63_lstm1_cont_slice_62_split
I1018 00:04:50.875036 29901 net.cpp:129] Top shape: 1 5 (5)
I1018 00:04:50.875039 29901 net.cpp:129] Top shape: 1 5 (5)
I1018 00:04:50.875043 29901 net.cpp:137] Memory required for data: 2037880
I1018 00:04:50.875047 29901 layer_factory.hpp:77] Creating layer cont_64_lstm1_cont_slice_63_split
I1018 00:04:50.875051 29901 net.cpp:84] Creating Layer cont_64_lstm1_cont_slice_63_split
I1018 00:04:50.875056 29901 net.cpp:406] cont_64_lstm1_cont_slice_63_split <- cont_64
I1018 00:04:50.875062 29901 net.cpp:380] cont_64_lstm1_cont_slice_63_split -> cont_64_lstm1_cont_slice_63_split_0
I1018 00:04:50.875069 29901 net.cpp:380] cont_64_lstm1_cont_slice_63_split -> cont_64_lstm1_cont_slice_63_split_1
I1018 00:04:50.875097 29901 net.cpp:122] Setting up cont_64_lstm1_cont_slice_63_split
I1018 00:04:50.875102 29901 net.cpp:129] Top shape: 1 5 (5)
I1018 00:04:50.875108 29901 net.cpp:129] Top shape: 1 5 (5)
I1018 00:04:50.875110 29901 net.cpp:137] Memory required for data: 2037920
I1018 00:04:50.875114 29901 layer_factory.hpp:77] Creating layer cont_65_lstm1_cont_slice_64_split
I1018 00:04:50.875120 29901 net.cpp:84] Creating Layer cont_65_lstm1_cont_slice_64_split
I1018 00:04:50.875124 29901 net.cpp:406] cont_65_lstm1_cont_slice_64_split <- cont_65
I1018 00:04:50.875130 29901 net.cpp:380] cont_65_lstm1_cont_slice_64_split -> cont_65_lstm1_cont_slice_64_split_0
I1018 00:04:50.875136 29901 net.cpp:380] cont_65_lstm1_cont_slice_64_split -> cont_65_lstm1_cont_slice_64_split_1
I1018 00:04:50.875180 29901 net.cpp:122] Setting up cont_65_lstm1_cont_slice_64_split
I1018 00:04:50.875185 29901 net.cpp:129] Top shape: 1 5 (5)
I1018 00:04:50.875190 29901 net.cpp:129] Top shape: 1 5 (5)
I1018 00:04:50.875193 29901 net.cpp:137] Memory required for data: 2037960
I1018 00:04:50.875197 29901 layer_factory.hpp:77] Creating layer cont_66_lstm1_cont_slice_65_split
I1018 00:04:50.875201 29901 net.cpp:84] Creating Layer cont_66_lstm1_cont_slice_65_split
I1018 00:04:50.875205 29901 net.cpp:406] cont_66_lstm1_cont_slice_65_split <- cont_66
I1018 00:04:50.875211 29901 net.cpp:380] cont_66_lstm1_cont_slice_65_split -> cont_66_lstm1_cont_slice_65_split_0
I1018 00:04:50.875216 29901 net.cpp:380] cont_66_lstm1_cont_slice_65_split -> cont_66_lstm1_cont_slice_65_split_1
I1018 00:04:50.875246 29901 net.cpp:122] Setting up cont_66_lstm1_cont_slice_65_split
I1018 00:04:50.875252 29901 net.cpp:129] Top shape: 1 5 (5)
I1018 00:04:50.875257 29901 net.cpp:129] Top shape: 1 5 (5)
I1018 00:04:50.875259 29901 net.cpp:137] Memory required for data: 2038000
I1018 00:04:50.875263 29901 layer_factory.hpp:77] Creating layer cont_67_lstm1_cont_slice_66_split
I1018 00:04:50.875267 29901 net.cpp:84] Creating Layer cont_67_lstm1_cont_slice_66_split
I1018 00:04:50.875272 29901 net.cpp:406] cont_67_lstm1_cont_slice_66_split <- cont_67
I1018 00:04:50.875277 29901 net.cpp:380] cont_67_lstm1_cont_slice_66_split -> cont_67_lstm1_cont_slice_66_split_0
I1018 00:04:50.875284 29901 net.cpp:380] cont_67_lstm1_cont_slice_66_split -> cont_67_lstm1_cont_slice_66_split_1
I1018 00:04:50.875310 29901 net.cpp:122] Setting up cont_67_lstm1_cont_slice_66_split
I1018 00:04:50.875316 29901 net.cpp:129] Top shape: 1 5 (5)
I1018 00:04:50.875320 29901 net.cpp:129] Top shape: 1 5 (5)
I1018 00:04:50.875324 29901 net.cpp:137] Memory required for data: 2038040
I1018 00:04:50.875327 29901 layer_factory.hpp:77] Creating layer cont_68_lstm1_cont_slice_67_split
I1018 00:04:50.875334 29901 net.cpp:84] Creating Layer cont_68_lstm1_cont_slice_67_split
I1018 00:04:50.875339 29901 net.cpp:406] cont_68_lstm1_cont_slice_67_split <- cont_68
I1018 00:04:50.875344 29901 net.cpp:380] cont_68_lstm1_cont_slice_67_split -> cont_68_lstm1_cont_slice_67_split_0
I1018 00:04:50.875349 29901 net.cpp:380] cont_68_lstm1_cont_slice_67_split -> cont_68_lstm1_cont_slice_67_split_1
I1018 00:04:50.875378 29901 net.cpp:122] Setting up cont_68_lstm1_cont_slice_67_split
I1018 00:04:50.875385 29901 net.cpp:129] Top shape: 1 5 (5)
I1018 00:04:50.875388 29901 net.cpp:129] Top shape: 1 5 (5)
I1018 00:04:50.875392 29901 net.cpp:137] Memory required for data: 2038080
I1018 00:04:50.875396 29901 layer_factory.hpp:77] Creating layer cont_69_lstm1_cont_slice_68_split
I1018 00:04:50.875401 29901 net.cpp:84] Creating Layer cont_69_lstm1_cont_slice_68_split
I1018 00:04:50.875403 29901 net.cpp:406] cont_69_lstm1_cont_slice_68_split <- cont_69
I1018 00:04:50.875409 29901 net.cpp:380] cont_69_lstm1_cont_slice_68_split -> cont_69_lstm1_cont_slice_68_split_0
I1018 00:04:50.875416 29901 net.cpp:380] cont_69_lstm1_cont_slice_68_split -> cont_69_lstm1_cont_slice_68_split_1
I1018 00:04:50.875443 29901 net.cpp:122] Setting up cont_69_lstm1_cont_slice_68_split
I1018 00:04:50.875448 29901 net.cpp:129] Top shape: 1 5 (5)
I1018 00:04:50.875453 29901 net.cpp:129] Top shape: 1 5 (5)
I1018 00:04:50.875457 29901 net.cpp:137] Memory required for data: 2038120
I1018 00:04:50.875460 29901 layer_factory.hpp:77] Creating layer cont_70_lstm1_cont_slice_69_split
I1018 00:04:50.875464 29901 net.cpp:84] Creating Layer cont_70_lstm1_cont_slice_69_split
I1018 00:04:50.875468 29901 net.cpp:406] cont_70_lstm1_cont_slice_69_split <- cont_70
I1018 00:04:50.875473 29901 net.cpp:380] cont_70_lstm1_cont_slice_69_split -> cont_70_lstm1_cont_slice_69_split_0
I1018 00:04:50.875479 29901 net.cpp:380] cont_70_lstm1_cont_slice_69_split -> cont_70_lstm1_cont_slice_69_split_1
I1018 00:04:50.875507 29901 net.cpp:122] Setting up cont_70_lstm1_cont_slice_69_split
I1018 00:04:50.875514 29901 net.cpp:129] Top shape: 1 5 (5)
I1018 00:04:50.875517 29901 net.cpp:129] Top shape: 1 5 (5)
I1018 00:04:50.875520 29901 net.cpp:137] Memory required for data: 2038160
I1018 00:04:50.875524 29901 layer_factory.hpp:77] Creating layer cont_71_lstm1_cont_slice_70_split
I1018 00:04:50.875529 29901 net.cpp:84] Creating Layer cont_71_lstm1_cont_slice_70_split
I1018 00:04:50.875532 29901 net.cpp:406] cont_71_lstm1_cont_slice_70_split <- cont_71
I1018 00:04:50.875540 29901 net.cpp:380] cont_71_lstm1_cont_slice_70_split -> cont_71_lstm1_cont_slice_70_split_0
I1018 00:04:50.875545 29901 net.cpp:380] cont_71_lstm1_cont_slice_70_split -> cont_71_lstm1_cont_slice_70_split_1
I1018 00:04:50.875572 29901 net.cpp:122] Setting up cont_71_lstm1_cont_slice_70_split
I1018 00:04:50.875577 29901 net.cpp:129] Top shape: 1 5 (5)
I1018 00:04:50.875582 29901 net.cpp:129] Top shape: 1 5 (5)
I1018 00:04:50.875586 29901 net.cpp:137] Memory required for data: 2038200
I1018 00:04:50.875588 29901 layer_factory.hpp:77] Creating layer cont_72_lstm1_cont_slice_71_split
I1018 00:04:50.875596 29901 net.cpp:84] Creating Layer cont_72_lstm1_cont_slice_71_split
I1018 00:04:50.875599 29901 net.cpp:406] cont_72_lstm1_cont_slice_71_split <- cont_72
I1018 00:04:50.875604 29901 net.cpp:380] cont_72_lstm1_cont_slice_71_split -> cont_72_lstm1_cont_slice_71_split_0
I1018 00:04:50.875610 29901 net.cpp:380] cont_72_lstm1_cont_slice_71_split -> cont_72_lstm1_cont_slice_71_split_1
I1018 00:04:50.875639 29901 net.cpp:122] Setting up cont_72_lstm1_cont_slice_71_split
I1018 00:04:50.875645 29901 net.cpp:129] Top shape: 1 5 (5)
I1018 00:04:50.875649 29901 net.cpp:129] Top shape: 1 5 (5)
I1018 00:04:50.875653 29901 net.cpp:137] Memory required for data: 2038240
I1018 00:04:50.875656 29901 layer_factory.hpp:77] Creating layer cont_73_lstm1_cont_slice_72_split
I1018 00:04:50.875660 29901 net.cpp:84] Creating Layer cont_73_lstm1_cont_slice_72_split
I1018 00:04:50.875664 29901 net.cpp:406] cont_73_lstm1_cont_slice_72_split <- cont_73
I1018 00:04:50.875669 29901 net.cpp:380] cont_73_lstm1_cont_slice_72_split -> cont_73_lstm1_cont_slice_72_split_0
I1018 00:04:50.875675 29901 net.cpp:380] cont_73_lstm1_cont_slice_72_split -> cont_73_lstm1_cont_slice_72_split_1
I1018 00:04:50.875705 29901 net.cpp:122] Setting up cont_73_lstm1_cont_slice_72_split
I1018 00:04:50.875710 29901 net.cpp:129] Top shape: 1 5 (5)
I1018 00:04:50.875715 29901 net.cpp:129] Top shape: 1 5 (5)
I1018 00:04:50.875718 29901 net.cpp:137] Memory required for data: 2038280
I1018 00:04:50.875722 29901 layer_factory.hpp:77] Creating layer cont_74_lstm1_cont_slice_73_split
I1018 00:04:50.875726 29901 net.cpp:84] Creating Layer cont_74_lstm1_cont_slice_73_split
I1018 00:04:50.875730 29901 net.cpp:406] cont_74_lstm1_cont_slice_73_split <- cont_74
I1018 00:04:50.875735 29901 net.cpp:380] cont_74_lstm1_cont_slice_73_split -> cont_74_lstm1_cont_slice_73_split_0
I1018 00:04:50.875742 29901 net.cpp:380] cont_74_lstm1_cont_slice_73_split -> cont_74_lstm1_cont_slice_73_split_1
I1018 00:04:50.875769 29901 net.cpp:122] Setting up cont_74_lstm1_cont_slice_73_split
I1018 00:04:50.875774 29901 net.cpp:129] Top shape: 1 5 (5)
I1018 00:04:50.875778 29901 net.cpp:129] Top shape: 1 5 (5)
I1018 00:04:50.875782 29901 net.cpp:137] Memory required for data: 2038320
I1018 00:04:50.875785 29901 layer_factory.hpp:77] Creating layer cont_75_lstm1_cont_slice_74_split
I1018 00:04:50.875792 29901 net.cpp:84] Creating Layer cont_75_lstm1_cont_slice_74_split
I1018 00:04:50.875797 29901 net.cpp:406] cont_75_lstm1_cont_slice_74_split <- cont_75
I1018 00:04:50.875802 29901 net.cpp:380] cont_75_lstm1_cont_slice_74_split -> cont_75_lstm1_cont_slice_74_split_0
I1018 00:04:50.875808 29901 net.cpp:380] cont_75_lstm1_cont_slice_74_split -> cont_75_lstm1_cont_slice_74_split_1
I1018 00:04:50.875836 29901 net.cpp:122] Setting up cont_75_lstm1_cont_slice_74_split
I1018 00:04:50.875841 29901 net.cpp:129] Top shape: 1 5 (5)
I1018 00:04:50.875845 29901 net.cpp:129] Top shape: 1 5 (5)
I1018 00:04:50.875849 29901 net.cpp:137] Memory required for data: 2038360
I1018 00:04:50.875852 29901 layer_factory.hpp:77] Creating layer cont_76_lstm1_cont_slice_75_split
I1018 00:04:50.875857 29901 net.cpp:84] Creating Layer cont_76_lstm1_cont_slice_75_split
I1018 00:04:50.875861 29901 net.cpp:406] cont_76_lstm1_cont_slice_75_split <- cont_76
I1018 00:04:50.875866 29901 net.cpp:380] cont_76_lstm1_cont_slice_75_split -> cont_76_lstm1_cont_slice_75_split_0
I1018 00:04:50.875871 29901 net.cpp:380] cont_76_lstm1_cont_slice_75_split -> cont_76_lstm1_cont_slice_75_split_1
I1018 00:04:50.875900 29901 net.cpp:122] Setting up cont_76_lstm1_cont_slice_75_split
I1018 00:04:50.875906 29901 net.cpp:129] Top shape: 1 5 (5)
I1018 00:04:50.875910 29901 net.cpp:129] Top shape: 1 5 (5)
I1018 00:04:50.875915 29901 net.cpp:137] Memory required for data: 2038400
I1018 00:04:50.875917 29901 layer_factory.hpp:77] Creating layer cont_77_lstm1_cont_slice_76_split
I1018 00:04:50.875922 29901 net.cpp:84] Creating Layer cont_77_lstm1_cont_slice_76_split
I1018 00:04:50.875926 29901 net.cpp:406] cont_77_lstm1_cont_slice_76_split <- cont_77
I1018 00:04:50.875931 29901 net.cpp:380] cont_77_lstm1_cont_slice_76_split -> cont_77_lstm1_cont_slice_76_split_0
I1018 00:04:50.875937 29901 net.cpp:380] cont_77_lstm1_cont_slice_76_split -> cont_77_lstm1_cont_slice_76_split_1
I1018 00:04:50.875965 29901 net.cpp:122] Setting up cont_77_lstm1_cont_slice_76_split
I1018 00:04:50.875972 29901 net.cpp:129] Top shape: 1 5 (5)
I1018 00:04:50.875975 29901 net.cpp:129] Top shape: 1 5 (5)
I1018 00:04:50.875978 29901 net.cpp:137] Memory required for data: 2038440
I1018 00:04:50.875982 29901 layer_factory.hpp:77] Creating layer cont_78_lstm1_cont_slice_77_split
I1018 00:04:50.875986 29901 net.cpp:84] Creating Layer cont_78_lstm1_cont_slice_77_split
I1018 00:04:50.875990 29901 net.cpp:406] cont_78_lstm1_cont_slice_77_split <- cont_78
I1018 00:04:50.875998 29901 net.cpp:380] cont_78_lstm1_cont_slice_77_split -> cont_78_lstm1_cont_slice_77_split_0
I1018 00:04:50.876003 29901 net.cpp:380] cont_78_lstm1_cont_slice_77_split -> cont_78_lstm1_cont_slice_77_split_1
I1018 00:04:50.876052 29901 net.cpp:122] Setting up cont_78_lstm1_cont_slice_77_split
I1018 00:04:50.876060 29901 net.cpp:129] Top shape: 1 5 (5)
I1018 00:04:50.876076 29901 net.cpp:129] Top shape: 1 5 (5)
I1018 00:04:50.876081 29901 net.cpp:137] Memory required for data: 2038480
I1018 00:04:50.876085 29901 layer_factory.hpp:77] Creating layer cont_79_lstm1_cont_slice_78_split
I1018 00:04:50.876098 29901 net.cpp:84] Creating Layer cont_79_lstm1_cont_slice_78_split
I1018 00:04:50.876103 29901 net.cpp:406] cont_79_lstm1_cont_slice_78_split <- cont_79
I1018 00:04:50.876109 29901 net.cpp:380] cont_79_lstm1_cont_slice_78_split -> cont_79_lstm1_cont_slice_78_split_0
I1018 00:04:50.876116 29901 net.cpp:380] cont_79_lstm1_cont_slice_78_split -> cont_79_lstm1_cont_slice_78_split_1
I1018 00:04:50.876149 29901 net.cpp:122] Setting up cont_79_lstm1_cont_slice_78_split
I1018 00:04:50.876155 29901 net.cpp:129] Top shape: 1 5 (5)
I1018 00:04:50.876160 29901 net.cpp:129] Top shape: 1 5 (5)
I1018 00:04:50.876164 29901 net.cpp:137] Memory required for data: 2038520
I1018 00:04:50.876168 29901 layer_factory.hpp:77] Creating layer cont_80_lstm1_cont_slice_79_split
I1018 00:04:50.876173 29901 net.cpp:84] Creating Layer cont_80_lstm1_cont_slice_79_split
I1018 00:04:50.876178 29901 net.cpp:406] cont_80_lstm1_cont_slice_79_split <- cont_80
I1018 00:04:50.876183 29901 net.cpp:380] cont_80_lstm1_cont_slice_79_split -> cont_80_lstm1_cont_slice_79_split_0
I1018 00:04:50.876189 29901 net.cpp:380] cont_80_lstm1_cont_slice_79_split -> cont_80_lstm1_cont_slice_79_split_1
I1018 00:04:50.876219 29901 net.cpp:122] Setting up cont_80_lstm1_cont_slice_79_split
I1018 00:04:50.876225 29901 net.cpp:129] Top shape: 1 5 (5)
I1018 00:04:50.876230 29901 net.cpp:129] Top shape: 1 5 (5)
I1018 00:04:50.876235 29901 net.cpp:137] Memory required for data: 2038560
I1018 00:04:50.876238 29901 layer_factory.hpp:77] Creating layer cont_81_lstm1_cont_slice_80_split
I1018 00:04:50.876242 29901 net.cpp:84] Creating Layer cont_81_lstm1_cont_slice_80_split
I1018 00:04:50.876246 29901 net.cpp:406] cont_81_lstm1_cont_slice_80_split <- cont_81
I1018 00:04:50.876252 29901 net.cpp:380] cont_81_lstm1_cont_slice_80_split -> cont_81_lstm1_cont_slice_80_split_0
I1018 00:04:50.876258 29901 net.cpp:380] cont_81_lstm1_cont_slice_80_split -> cont_81_lstm1_cont_slice_80_split_1
I1018 00:04:50.876288 29901 net.cpp:122] Setting up cont_81_lstm1_cont_slice_80_split
I1018 00:04:50.876294 29901 net.cpp:129] Top shape: 1 5 (5)
I1018 00:04:50.876299 29901 net.cpp:129] Top shape: 1 5 (5)
I1018 00:04:50.876303 29901 net.cpp:137] Memory required for data: 2038600
I1018 00:04:50.876307 29901 layer_factory.hpp:77] Creating layer cont_82_lstm1_cont_slice_81_split
I1018 00:04:50.876312 29901 net.cpp:84] Creating Layer cont_82_lstm1_cont_slice_81_split
I1018 00:04:50.876315 29901 net.cpp:406] cont_82_lstm1_cont_slice_81_split <- cont_82
I1018 00:04:50.876324 29901 net.cpp:380] cont_82_lstm1_cont_slice_81_split -> cont_82_lstm1_cont_slice_81_split_0
I1018 00:04:50.876332 29901 net.cpp:380] cont_82_lstm1_cont_slice_81_split -> cont_82_lstm1_cont_slice_81_split_1
I1018 00:04:50.876361 29901 net.cpp:122] Setting up cont_82_lstm1_cont_slice_81_split
I1018 00:04:50.876368 29901 net.cpp:129] Top shape: 1 5 (5)
I1018 00:04:50.876372 29901 net.cpp:129] Top shape: 1 5 (5)
I1018 00:04:50.876376 29901 net.cpp:137] Memory required for data: 2038640
I1018 00:04:50.876379 29901 layer_factory.hpp:77] Creating layer cont_83_lstm1_cont_slice_82_split
I1018 00:04:50.876384 29901 net.cpp:84] Creating Layer cont_83_lstm1_cont_slice_82_split
I1018 00:04:50.876389 29901 net.cpp:406] cont_83_lstm1_cont_slice_82_split <- cont_83
I1018 00:04:50.876405 29901 net.cpp:380] cont_83_lstm1_cont_slice_82_split -> cont_83_lstm1_cont_slice_82_split_0
I1018 00:04:50.876411 29901 net.cpp:380] cont_83_lstm1_cont_slice_82_split -> cont_83_lstm1_cont_slice_82_split_1
I1018 00:04:50.876441 29901 net.cpp:122] Setting up cont_83_lstm1_cont_slice_82_split
I1018 00:04:50.876446 29901 net.cpp:129] Top shape: 1 5 (5)
I1018 00:04:50.876451 29901 net.cpp:129] Top shape: 1 5 (5)
I1018 00:04:50.876454 29901 net.cpp:137] Memory required for data: 2038680
I1018 00:04:50.876458 29901 layer_factory.hpp:77] Creating layer cont_84_lstm1_cont_slice_83_split
I1018 00:04:50.876463 29901 net.cpp:84] Creating Layer cont_84_lstm1_cont_slice_83_split
I1018 00:04:50.876467 29901 net.cpp:406] cont_84_lstm1_cont_slice_83_split <- cont_84
I1018 00:04:50.876485 29901 net.cpp:380] cont_84_lstm1_cont_slice_83_split -> cont_84_lstm1_cont_slice_83_split_0
I1018 00:04:50.876492 29901 net.cpp:380] cont_84_lstm1_cont_slice_83_split -> cont_84_lstm1_cont_slice_83_split_1
I1018 00:04:50.876520 29901 net.cpp:122] Setting up cont_84_lstm1_cont_slice_83_split
I1018 00:04:50.876526 29901 net.cpp:129] Top shape: 1 5 (5)
I1018 00:04:50.876530 29901 net.cpp:129] Top shape: 1 5 (5)
I1018 00:04:50.876534 29901 net.cpp:137] Memory required for data: 2038720
I1018 00:04:50.876538 29901 layer_factory.hpp:77] Creating layer cont_85_lstm1_cont_slice_84_split
I1018 00:04:50.876543 29901 net.cpp:84] Creating Layer cont_85_lstm1_cont_slice_84_split
I1018 00:04:50.876546 29901 net.cpp:406] cont_85_lstm1_cont_slice_84_split <- cont_85
I1018 00:04:50.876554 29901 net.cpp:380] cont_85_lstm1_cont_slice_84_split -> cont_85_lstm1_cont_slice_84_split_0
I1018 00:04:50.876559 29901 net.cpp:380] cont_85_lstm1_cont_slice_84_split -> cont_85_lstm1_cont_slice_84_split_1
I1018 00:04:50.876585 29901 net.cpp:122] Setting up cont_85_lstm1_cont_slice_84_split
I1018 00:04:50.876590 29901 net.cpp:129] Top shape: 1 5 (5)
I1018 00:04:50.876595 29901 net.cpp:129] Top shape: 1 5 (5)
I1018 00:04:50.876598 29901 net.cpp:137] Memory required for data: 2038760
I1018 00:04:50.876602 29901 layer_factory.hpp:77] Creating layer cont_86_lstm1_cont_slice_85_split
I1018 00:04:50.876608 29901 net.cpp:84] Creating Layer cont_86_lstm1_cont_slice_85_split
I1018 00:04:50.876612 29901 net.cpp:406] cont_86_lstm1_cont_slice_85_split <- cont_86
I1018 00:04:50.876617 29901 net.cpp:380] cont_86_lstm1_cont_slice_85_split -> cont_86_lstm1_cont_slice_85_split_0
I1018 00:04:50.876623 29901 net.cpp:380] cont_86_lstm1_cont_slice_85_split -> cont_86_lstm1_cont_slice_85_split_1
I1018 00:04:50.876652 29901 net.cpp:122] Setting up cont_86_lstm1_cont_slice_85_split
I1018 00:04:50.876658 29901 net.cpp:129] Top shape: 1 5 (5)
I1018 00:04:50.876662 29901 net.cpp:129] Top shape: 1 5 (5)
I1018 00:04:50.876667 29901 net.cpp:137] Memory required for data: 2038800
I1018 00:04:50.876669 29901 layer_factory.hpp:77] Creating layer cont_87_lstm1_cont_slice_86_split
I1018 00:04:50.876674 29901 net.cpp:84] Creating Layer cont_87_lstm1_cont_slice_86_split
I1018 00:04:50.876677 29901 net.cpp:406] cont_87_lstm1_cont_slice_86_split <- cont_87
I1018 00:04:50.876682 29901 net.cpp:380] cont_87_lstm1_cont_slice_86_split -> cont_87_lstm1_cont_slice_86_split_0
I1018 00:04:50.876688 29901 net.cpp:380] cont_87_lstm1_cont_slice_86_split -> cont_87_lstm1_cont_slice_86_split_1
I1018 00:04:50.876716 29901 net.cpp:122] Setting up cont_87_lstm1_cont_slice_86_split
I1018 00:04:50.876722 29901 net.cpp:129] Top shape: 1 5 (5)
I1018 00:04:50.876727 29901 net.cpp:129] Top shape: 1 5 (5)
I1018 00:04:50.876730 29901 net.cpp:137] Memory required for data: 2038840
I1018 00:04:50.876734 29901 layer_factory.hpp:77] Creating layer cont_88_lstm1_cont_slice_87_split
I1018 00:04:50.876739 29901 net.cpp:84] Creating Layer cont_88_lstm1_cont_slice_87_split
I1018 00:04:50.876742 29901 net.cpp:406] cont_88_lstm1_cont_slice_87_split <- cont_88
I1018 00:04:50.876747 29901 net.cpp:380] cont_88_lstm1_cont_slice_87_split -> cont_88_lstm1_cont_slice_87_split_0
I1018 00:04:50.876754 29901 net.cpp:380] cont_88_lstm1_cont_slice_87_split -> cont_88_lstm1_cont_slice_87_split_1
I1018 00:04:50.876781 29901 net.cpp:122] Setting up cont_88_lstm1_cont_slice_87_split
I1018 00:04:50.876787 29901 net.cpp:129] Top shape: 1 5 (5)
I1018 00:04:50.876792 29901 net.cpp:129] Top shape: 1 5 (5)
I1018 00:04:50.876796 29901 net.cpp:137] Memory required for data: 2038880
I1018 00:04:50.876798 29901 layer_factory.hpp:77] Creating layer cont_89_lstm1_cont_slice_88_split
I1018 00:04:50.876803 29901 net.cpp:84] Creating Layer cont_89_lstm1_cont_slice_88_split
I1018 00:04:50.876807 29901 net.cpp:406] cont_89_lstm1_cont_slice_88_split <- cont_89
I1018 00:04:50.876814 29901 net.cpp:380] cont_89_lstm1_cont_slice_88_split -> cont_89_lstm1_cont_slice_88_split_0
I1018 00:04:50.876821 29901 net.cpp:380] cont_89_lstm1_cont_slice_88_split -> cont_89_lstm1_cont_slice_88_split_1
I1018 00:04:50.876847 29901 net.cpp:122] Setting up cont_89_lstm1_cont_slice_88_split
I1018 00:04:50.876852 29901 net.cpp:129] Top shape: 1 5 (5)
I1018 00:04:50.876857 29901 net.cpp:129] Top shape: 1 5 (5)
I1018 00:04:50.876859 29901 net.cpp:137] Memory required for data: 2038920
I1018 00:04:50.876863 29901 layer_factory.hpp:77] Creating layer cont_90_lstm1_cont_slice_89_split
I1018 00:04:50.876869 29901 net.cpp:84] Creating Layer cont_90_lstm1_cont_slice_89_split
I1018 00:04:50.876874 29901 net.cpp:406] cont_90_lstm1_cont_slice_89_split <- cont_90
I1018 00:04:50.876879 29901 net.cpp:380] cont_90_lstm1_cont_slice_89_split -> cont_90_lstm1_cont_slice_89_split_0
I1018 00:04:50.876885 29901 net.cpp:380] cont_90_lstm1_cont_slice_89_split -> cont_90_lstm1_cont_slice_89_split_1
I1018 00:04:50.876914 29901 net.cpp:122] Setting up cont_90_lstm1_cont_slice_89_split
I1018 00:04:50.876919 29901 net.cpp:129] Top shape: 1 5 (5)
I1018 00:04:50.876924 29901 net.cpp:129] Top shape: 1 5 (5)
I1018 00:04:50.876927 29901 net.cpp:137] Memory required for data: 2038960
I1018 00:04:50.876930 29901 layer_factory.hpp:77] Creating layer cont_91_lstm1_cont_slice_90_split
I1018 00:04:50.876935 29901 net.cpp:84] Creating Layer cont_91_lstm1_cont_slice_90_split
I1018 00:04:50.876938 29901 net.cpp:406] cont_91_lstm1_cont_slice_90_split <- cont_91
I1018 00:04:50.876943 29901 net.cpp:380] cont_91_lstm1_cont_slice_90_split -> cont_91_lstm1_cont_slice_90_split_0
I1018 00:04:50.876950 29901 net.cpp:380] cont_91_lstm1_cont_slice_90_split -> cont_91_lstm1_cont_slice_90_split_1
I1018 00:04:50.876979 29901 net.cpp:122] Setting up cont_91_lstm1_cont_slice_90_split
I1018 00:04:50.876986 29901 net.cpp:129] Top shape: 1 5 (5)
I1018 00:04:50.876989 29901 net.cpp:129] Top shape: 1 5 (5)
I1018 00:04:50.876993 29901 net.cpp:137] Memory required for data: 2039000
I1018 00:04:50.876996 29901 layer_factory.hpp:77] Creating layer cont_92_lstm1_cont_slice_91_split
I1018 00:04:50.877002 29901 net.cpp:84] Creating Layer cont_92_lstm1_cont_slice_91_split
I1018 00:04:50.877005 29901 net.cpp:406] cont_92_lstm1_cont_slice_91_split <- cont_92
I1018 00:04:50.877012 29901 net.cpp:380] cont_92_lstm1_cont_slice_91_split -> cont_92_lstm1_cont_slice_91_split_0
I1018 00:04:50.877018 29901 net.cpp:380] cont_92_lstm1_cont_slice_91_split -> cont_92_lstm1_cont_slice_91_split_1
I1018 00:04:50.877058 29901 net.cpp:122] Setting up cont_92_lstm1_cont_slice_91_split
I1018 00:04:50.877063 29901 net.cpp:129] Top shape: 1 5 (5)
I1018 00:04:50.877068 29901 net.cpp:129] Top shape: 1 5 (5)
I1018 00:04:50.877070 29901 net.cpp:137] Memory required for data: 2039040
I1018 00:04:50.877074 29901 layer_factory.hpp:77] Creating layer cont_93_lstm1_cont_slice_92_split
I1018 00:04:50.877081 29901 net.cpp:84] Creating Layer cont_93_lstm1_cont_slice_92_split
I1018 00:04:50.877085 29901 net.cpp:406] cont_93_lstm1_cont_slice_92_split <- cont_93
I1018 00:04:50.877091 29901 net.cpp:380] cont_93_lstm1_cont_slice_92_split -> cont_93_lstm1_cont_slice_92_split_0
I1018 00:04:50.877097 29901 net.cpp:380] cont_93_lstm1_cont_slice_92_split -> cont_93_lstm1_cont_slice_92_split_1
I1018 00:04:50.877126 29901 net.cpp:122] Setting up cont_93_lstm1_cont_slice_92_split
I1018 00:04:50.877132 29901 net.cpp:129] Top shape: 1 5 (5)
I1018 00:04:50.877137 29901 net.cpp:129] Top shape: 1 5 (5)
I1018 00:04:50.877140 29901 net.cpp:137] Memory required for data: 2039080
I1018 00:04:50.877144 29901 layer_factory.hpp:77] Creating layer cont_94_lstm1_cont_slice_93_split
I1018 00:04:50.877149 29901 net.cpp:84] Creating Layer cont_94_lstm1_cont_slice_93_split
I1018 00:04:50.877152 29901 net.cpp:406] cont_94_lstm1_cont_slice_93_split <- cont_94
I1018 00:04:50.877158 29901 net.cpp:380] cont_94_lstm1_cont_slice_93_split -> cont_94_lstm1_cont_slice_93_split_0
I1018 00:04:50.895346 29901 net.cpp:380] cont_94_lstm1_cont_slice_93_split -> cont_94_lstm1_cont_slice_93_split_1
I1018 00:04:50.895428 29901 net.cpp:122] Setting up cont_94_lstm1_cont_slice_93_split
I1018 00:04:50.895440 29901 net.cpp:129] Top shape: 1 5 (5)
I1018 00:04:50.895445 29901 net.cpp:129] Top shape: 1 5 (5)
I1018 00:04:50.895449 29901 net.cpp:137] Memory required for data: 2039120
I1018 00:04:50.895453 29901 layer_factory.hpp:77] Creating layer cont_95_lstm1_cont_slice_94_split
I1018 00:04:50.895459 29901 net.cpp:84] Creating Layer cont_95_lstm1_cont_slice_94_split
I1018 00:04:50.895464 29901 net.cpp:406] cont_95_lstm1_cont_slice_94_split <- cont_95
I1018 00:04:50.895473 29901 net.cpp:380] cont_95_lstm1_cont_slice_94_split -> cont_95_lstm1_cont_slice_94_split_0
I1018 00:04:50.895480 29901 net.cpp:380] cont_95_lstm1_cont_slice_94_split -> cont_95_lstm1_cont_slice_94_split_1
I1018 00:04:50.895520 29901 net.cpp:122] Setting up cont_95_lstm1_cont_slice_94_split
I1018 00:04:50.895529 29901 net.cpp:129] Top shape: 1 5 (5)
I1018 00:04:50.895534 29901 net.cpp:129] Top shape: 1 5 (5)
I1018 00:04:50.895539 29901 net.cpp:137] Memory required for data: 2039160
I1018 00:04:50.895542 29901 layer_factory.hpp:77] Creating layer cont_96_lstm1_cont_slice_95_split
I1018 00:04:50.895558 29901 net.cpp:84] Creating Layer cont_96_lstm1_cont_slice_95_split
I1018 00:04:50.895563 29901 net.cpp:406] cont_96_lstm1_cont_slice_95_split <- cont_96
I1018 00:04:50.895571 29901 net.cpp:380] cont_96_lstm1_cont_slice_95_split -> cont_96_lstm1_cont_slice_95_split_0
I1018 00:04:50.895578 29901 net.cpp:380] cont_96_lstm1_cont_slice_95_split -> cont_96_lstm1_cont_slice_95_split_1
I1018 00:04:50.895609 29901 net.cpp:122] Setting up cont_96_lstm1_cont_slice_95_split
I1018 00:04:50.895615 29901 net.cpp:129] Top shape: 1 5 (5)
I1018 00:04:50.895620 29901 net.cpp:129] Top shape: 1 5 (5)
I1018 00:04:50.895624 29901 net.cpp:137] Memory required for data: 2039200
I1018 00:04:50.895627 29901 layer_factory.hpp:77] Creating layer cont_97_lstm1_cont_slice_96_split
I1018 00:04:50.895635 29901 net.cpp:84] Creating Layer cont_97_lstm1_cont_slice_96_split
I1018 00:04:50.895640 29901 net.cpp:406] cont_97_lstm1_cont_slice_96_split <- cont_97
I1018 00:04:50.895647 29901 net.cpp:380] cont_97_lstm1_cont_slice_96_split -> cont_97_lstm1_cont_slice_96_split_0
I1018 00:04:50.895653 29901 net.cpp:380] cont_97_lstm1_cont_slice_96_split -> cont_97_lstm1_cont_slice_96_split_1
I1018 00:04:50.895686 29901 net.cpp:122] Setting up cont_97_lstm1_cont_slice_96_split
I1018 00:04:50.895694 29901 net.cpp:129] Top shape: 1 5 (5)
I1018 00:04:50.895697 29901 net.cpp:129] Top shape: 1 5 (5)
I1018 00:04:50.895701 29901 net.cpp:137] Memory required for data: 2039240
I1018 00:04:50.895704 29901 layer_factory.hpp:77] Creating layer cont_98_lstm1_cont_slice_97_split
I1018 00:04:50.895710 29901 net.cpp:84] Creating Layer cont_98_lstm1_cont_slice_97_split
I1018 00:04:50.895714 29901 net.cpp:406] cont_98_lstm1_cont_slice_97_split <- cont_98
I1018 00:04:50.895721 29901 net.cpp:380] cont_98_lstm1_cont_slice_97_split -> cont_98_lstm1_cont_slice_97_split_0
I1018 00:04:50.895727 29901 net.cpp:380] cont_98_lstm1_cont_slice_97_split -> cont_98_lstm1_cont_slice_97_split_1
I1018 00:04:50.895759 29901 net.cpp:122] Setting up cont_98_lstm1_cont_slice_97_split
I1018 00:04:50.895766 29901 net.cpp:129] Top shape: 1 5 (5)
I1018 00:04:50.895771 29901 net.cpp:129] Top shape: 1 5 (5)
I1018 00:04:50.895773 29901 net.cpp:137] Memory required for data: 2039280
I1018 00:04:50.895777 29901 layer_factory.hpp:77] Creating layer cont_99_lstm1_cont_slice_98_split
I1018 00:04:50.895782 29901 net.cpp:84] Creating Layer cont_99_lstm1_cont_slice_98_split
I1018 00:04:50.895787 29901 net.cpp:406] cont_99_lstm1_cont_slice_98_split <- cont_99
I1018 00:04:50.895792 29901 net.cpp:380] cont_99_lstm1_cont_slice_98_split -> cont_99_lstm1_cont_slice_98_split_0
I1018 00:04:50.895800 29901 net.cpp:380] cont_99_lstm1_cont_slice_98_split -> cont_99_lstm1_cont_slice_98_split_1
I1018 00:04:50.895829 29901 net.cpp:122] Setting up cont_99_lstm1_cont_slice_98_split
I1018 00:04:50.895835 29901 net.cpp:129] Top shape: 1 5 (5)
I1018 00:04:50.895840 29901 net.cpp:129] Top shape: 1 5 (5)
I1018 00:04:50.895843 29901 net.cpp:137] Memory required for data: 2039320
I1018 00:04:50.895848 29901 layer_factory.hpp:77] Creating layer cont_100_lstm1_cont_slice_99_split
I1018 00:04:50.895855 29901 net.cpp:84] Creating Layer cont_100_lstm1_cont_slice_99_split
I1018 00:04:50.895860 29901 net.cpp:406] cont_100_lstm1_cont_slice_99_split <- cont_100
I1018 00:04:50.895866 29901 net.cpp:380] cont_100_lstm1_cont_slice_99_split -> cont_100_lstm1_cont_slice_99_split_0
I1018 00:04:50.895874 29901 net.cpp:380] cont_100_lstm1_cont_slice_99_split -> cont_100_lstm1_cont_slice_99_split_1
I1018 00:04:50.895905 29901 net.cpp:122] Setting up cont_100_lstm1_cont_slice_99_split
I1018 00:04:50.895910 29901 net.cpp:129] Top shape: 1 5 (5)
I1018 00:04:50.895915 29901 net.cpp:129] Top shape: 1 5 (5)
I1018 00:04:50.895918 29901 net.cpp:137] Memory required for data: 2039360
I1018 00:04:50.895922 29901 layer_factory.hpp:77] Creating layer cont_101_lstm1_cont_slice_100_split
I1018 00:04:50.895927 29901 net.cpp:84] Creating Layer cont_101_lstm1_cont_slice_100_split
I1018 00:04:50.895931 29901 net.cpp:406] cont_101_lstm1_cont_slice_100_split <- cont_101
I1018 00:04:50.895937 29901 net.cpp:380] cont_101_lstm1_cont_slice_100_split -> cont_101_lstm1_cont_slice_100_split_0
I1018 00:04:50.895943 29901 net.cpp:380] cont_101_lstm1_cont_slice_100_split -> cont_101_lstm1_cont_slice_100_split_1
I1018 00:04:50.895973 29901 net.cpp:122] Setting up cont_101_lstm1_cont_slice_100_split
I1018 00:04:50.895980 29901 net.cpp:129] Top shape: 1 5 (5)
I1018 00:04:50.895984 29901 net.cpp:129] Top shape: 1 5 (5)
I1018 00:04:50.895988 29901 net.cpp:137] Memory required for data: 2039400
I1018 00:04:50.895992 29901 layer_factory.hpp:77] Creating layer cont_102_lstm1_cont_slice_101_split
I1018 00:04:50.895997 29901 net.cpp:84] Creating Layer cont_102_lstm1_cont_slice_101_split
I1018 00:04:50.896000 29901 net.cpp:406] cont_102_lstm1_cont_slice_101_split <- cont_102
I1018 00:04:50.896006 29901 net.cpp:380] cont_102_lstm1_cont_slice_101_split -> cont_102_lstm1_cont_slice_101_split_0
I1018 00:04:50.896013 29901 net.cpp:380] cont_102_lstm1_cont_slice_101_split -> cont_102_lstm1_cont_slice_101_split_1
I1018 00:04:50.896076 29901 net.cpp:122] Setting up cont_102_lstm1_cont_slice_101_split
I1018 00:04:50.896085 29901 net.cpp:129] Top shape: 1 5 (5)
I1018 00:04:50.896090 29901 net.cpp:129] Top shape: 1 5 (5)
I1018 00:04:50.896093 29901 net.cpp:137] Memory required for data: 2039440
I1018 00:04:50.896097 29901 layer_factory.hpp:77] Creating layer cont_103_lstm1_cont_slice_102_split
I1018 00:04:50.896102 29901 net.cpp:84] Creating Layer cont_103_lstm1_cont_slice_102_split
I1018 00:04:50.896106 29901 net.cpp:406] cont_103_lstm1_cont_slice_102_split <- cont_103
I1018 00:04:50.896129 29901 net.cpp:380] cont_103_lstm1_cont_slice_102_split -> cont_103_lstm1_cont_slice_102_split_0
I1018 00:04:50.896144 29901 net.cpp:380] cont_103_lstm1_cont_slice_102_split -> cont_103_lstm1_cont_slice_102_split_1
I1018 00:04:50.896209 29901 net.cpp:122] Setting up cont_103_lstm1_cont_slice_102_split
I1018 00:04:50.896220 29901 net.cpp:129] Top shape: 1 5 (5)
I1018 00:04:50.896230 29901 net.cpp:129] Top shape: 1 5 (5)
I1018 00:04:50.896237 29901 net.cpp:137] Memory required for data: 2039480
I1018 00:04:50.896245 29901 layer_factory.hpp:77] Creating layer cont_104_lstm1_cont_slice_103_split
I1018 00:04:50.896260 29901 net.cpp:84] Creating Layer cont_104_lstm1_cont_slice_103_split
I1018 00:04:50.896270 29901 net.cpp:406] cont_104_lstm1_cont_slice_103_split <- cont_104
I1018 00:04:50.896287 29901 net.cpp:380] cont_104_lstm1_cont_slice_103_split -> cont_104_lstm1_cont_slice_103_split_0
I1018 00:04:50.896306 29901 net.cpp:380] cont_104_lstm1_cont_slice_103_split -> cont_104_lstm1_cont_slice_103_split_1
I1018 00:04:50.939018 29901 net.cpp:122] Setting up cont_104_lstm1_cont_slice_103_split
I1018 00:04:50.939055 29901 net.cpp:129] Top shape: 1 5 (5)
I1018 00:04:50.939067 29901 net.cpp:129] Top shape: 1 5 (5)
I1018 00:04:50.939075 29901 net.cpp:137] Memory required for data: 2039520
I1018 00:04:50.939085 29901 layer_factory.hpp:77] Creating layer cont_105_lstm1_cont_slice_104_split
I1018 00:04:50.939100 29901 net.cpp:84] Creating Layer cont_105_lstm1_cont_slice_104_split
I1018 00:04:50.939110 29901 net.cpp:406] cont_105_lstm1_cont_slice_104_split <- cont_105
I1018 00:04:50.939126 29901 net.cpp:380] cont_105_lstm1_cont_slice_104_split -> cont_105_lstm1_cont_slice_104_split_0
I1018 00:04:50.939141 29901 net.cpp:380] cont_105_lstm1_cont_slice_104_split -> cont_105_lstm1_cont_slice_104_split_1
I1018 00:04:50.939216 29901 net.cpp:122] Setting up cont_105_lstm1_cont_slice_104_split
I1018 00:04:50.939231 29901 net.cpp:129] Top shape: 1 5 (5)
I1018 00:04:50.939241 29901 net.cpp:129] Top shape: 1 5 (5)
I1018 00:04:50.939249 29901 net.cpp:137] Memory required for data: 2039560
I1018 00:04:50.939257 29901 layer_factory.hpp:77] Creating layer cont_106_lstm1_cont_slice_105_split
I1018 00:04:50.939268 29901 net.cpp:84] Creating Layer cont_106_lstm1_cont_slice_105_split
I1018 00:04:50.939277 29901 net.cpp:406] cont_106_lstm1_cont_slice_105_split <- cont_106
I1018 00:04:50.939291 29901 net.cpp:380] cont_106_lstm1_cont_slice_105_split -> cont_106_lstm1_cont_slice_105_split_0
I1018 00:04:50.939316 29901 net.cpp:380] cont_106_lstm1_cont_slice_105_split -> cont_106_lstm1_cont_slice_105_split_1
I1018 00:04:50.939380 29901 net.cpp:122] Setting up cont_106_lstm1_cont_slice_105_split
I1018 00:04:50.939393 29901 net.cpp:129] Top shape: 1 5 (5)
I1018 00:04:50.939404 29901 net.cpp:129] Top shape: 1 5 (5)
I1018 00:04:50.939410 29901 net.cpp:137] Memory required for data: 2039600
I1018 00:04:50.939419 29901 layer_factory.hpp:77] Creating layer cont_107_lstm1_cont_slice_106_split
I1018 00:04:50.939433 29901 net.cpp:84] Creating Layer cont_107_lstm1_cont_slice_106_split
I1018 00:04:50.939443 29901 net.cpp:406] cont_107_lstm1_cont_slice_106_split <- cont_107
I1018 00:04:50.939455 29901 net.cpp:380] cont_107_lstm1_cont_slice_106_split -> cont_107_lstm1_cont_slice_106_split_0
I1018 00:04:50.939469 29901 net.cpp:380] cont_107_lstm1_cont_slice_106_split -> cont_107_lstm1_cont_slice_106_split_1
I1018 00:04:50.939535 29901 net.cpp:122] Setting up cont_107_lstm1_cont_slice_106_split
I1018 00:04:50.939548 29901 net.cpp:129] Top shape: 1 5 (5)
I1018 00:04:50.939558 29901 net.cpp:129] Top shape: 1 5 (5)
I1018 00:04:50.939566 29901 net.cpp:137] Memory required for data: 2039640
I1018 00:04:50.939574 29901 layer_factory.hpp:77] Creating layer cont_108_lstm1_cont_slice_107_split
I1018 00:04:50.939585 29901 net.cpp:84] Creating Layer cont_108_lstm1_cont_slice_107_split
I1018 00:04:50.939594 29901 net.cpp:406] cont_108_lstm1_cont_slice_107_split <- cont_108
I1018 00:04:50.939606 29901 net.cpp:380] cont_108_lstm1_cont_slice_107_split -> cont_108_lstm1_cont_slice_107_split_0
I1018 00:04:50.939620 29901 net.cpp:380] cont_108_lstm1_cont_slice_107_split -> cont_108_lstm1_cont_slice_107_split_1
I1018 00:04:50.939685 29901 net.cpp:122] Setting up cont_108_lstm1_cont_slice_107_split
I1018 00:04:50.939699 29901 net.cpp:129] Top shape: 1 5 (5)
I1018 00:04:50.939708 29901 net.cpp:129] Top shape: 1 5 (5)
I1018 00:04:50.939716 29901 net.cpp:137] Memory required for data: 2039680
I1018 00:04:50.939725 29901 layer_factory.hpp:77] Creating layer cont_109_lstm1_cont_slice_108_split
I1018 00:04:50.939735 29901 net.cpp:84] Creating Layer cont_109_lstm1_cont_slice_108_split
I1018 00:04:50.939743 29901 net.cpp:406] cont_109_lstm1_cont_slice_108_split <- cont_109
I1018 00:04:50.939755 29901 net.cpp:380] cont_109_lstm1_cont_slice_108_split -> cont_109_lstm1_cont_slice_108_split_0
I1018 00:04:50.939769 29901 net.cpp:380] cont_109_lstm1_cont_slice_108_split -> cont_109_lstm1_cont_slice_108_split_1
I1018 00:04:50.939837 29901 net.cpp:122] Setting up cont_109_lstm1_cont_slice_108_split
I1018 00:04:50.939851 29901 net.cpp:129] Top shape: 1 5 (5)
I1018 00:04:50.939860 29901 net.cpp:129] Top shape: 1 5 (5)
I1018 00:04:50.939868 29901 net.cpp:137] Memory required for data: 2039720
I1018 00:04:50.939877 29901 layer_factory.hpp:77] Creating layer cont_110_lstm1_cont_slice_109_split
I1018 00:04:50.939887 29901 net.cpp:84] Creating Layer cont_110_lstm1_cont_slice_109_split
I1018 00:04:50.939895 29901 net.cpp:406] cont_110_lstm1_cont_slice_109_split <- cont_110
I1018 00:04:50.939911 29901 net.cpp:380] cont_110_lstm1_cont_slice_109_split -> cont_110_lstm1_cont_slice_109_split_0
I1018 00:04:50.939925 29901 net.cpp:380] cont_110_lstm1_cont_slice_109_split -> cont_110_lstm1_cont_slice_109_split_1
I1018 00:04:50.939985 29901 net.cpp:122] Setting up cont_110_lstm1_cont_slice_109_split
I1018 00:04:50.939997 29901 net.cpp:129] Top shape: 1 5 (5)
I1018 00:04:50.940007 29901 net.cpp:129] Top shape: 1 5 (5)
I1018 00:04:50.940016 29901 net.cpp:137] Memory required for data: 2039760
I1018 00:04:50.940023 29901 layer_factory.hpp:77] Creating layer cont_111_lstm1_cont_slice_110_split
I1018 00:04:50.940070 29901 net.cpp:84] Creating Layer cont_111_lstm1_cont_slice_110_split
I1018 00:04:50.940083 29901 net.cpp:406] cont_111_lstm1_cont_slice_110_split <- cont_111
I1018 00:04:50.940095 29901 net.cpp:380] cont_111_lstm1_cont_slice_110_split -> cont_111_lstm1_cont_slice_110_split_0
I1018 00:04:50.940109 29901 net.cpp:380] cont_111_lstm1_cont_slice_110_split -> cont_111_lstm1_cont_slice_110_split_1
I1018 00:04:50.940178 29901 net.cpp:122] Setting up cont_111_lstm1_cont_slice_110_split
I1018 00:04:50.940192 29901 net.cpp:129] Top shape: 1 5 (5)
I1018 00:04:50.940202 29901 net.cpp:129] Top shape: 1 5 (5)
I1018 00:04:50.940210 29901 net.cpp:137] Memory required for data: 2039800
I1018 00:04:50.940218 29901 layer_factory.hpp:77] Creating layer cont_112_lstm1_cont_slice_111_split
I1018 00:04:50.940229 29901 net.cpp:84] Creating Layer cont_112_lstm1_cont_slice_111_split
I1018 00:04:50.940238 29901 net.cpp:406] cont_112_lstm1_cont_slice_111_split <- cont_112
I1018 00:04:50.940249 29901 net.cpp:380] cont_112_lstm1_cont_slice_111_split -> cont_112_lstm1_cont_slice_111_split_0
I1018 00:04:50.940263 29901 net.cpp:380] cont_112_lstm1_cont_slice_111_split -> cont_112_lstm1_cont_slice_111_split_1
I1018 00:04:50.940327 29901 net.cpp:122] Setting up cont_112_lstm1_cont_slice_111_split
I1018 00:04:50.940341 29901 net.cpp:129] Top shape: 1 5 (5)
I1018 00:04:50.940351 29901 net.cpp:129] Top shape: 1 5 (5)
I1018 00:04:50.940358 29901 net.cpp:137] Memory required for data: 2039840
I1018 00:04:50.940366 29901 layer_factory.hpp:77] Creating layer cont_113_lstm1_cont_slice_112_split
I1018 00:04:50.940377 29901 net.cpp:84] Creating Layer cont_113_lstm1_cont_slice_112_split
I1018 00:04:50.940385 29901 net.cpp:406] cont_113_lstm1_cont_slice_112_split <- cont_113
I1018 00:04:50.940397 29901 net.cpp:380] cont_113_lstm1_cont_slice_112_split -> cont_113_lstm1_cont_slice_112_split_0
I1018 00:04:50.940410 29901 net.cpp:380] cont_113_lstm1_cont_slice_112_split -> cont_113_lstm1_cont_slice_112_split_1
I1018 00:04:50.940474 29901 net.cpp:122] Setting up cont_113_lstm1_cont_slice_112_split
I1018 00:04:50.940487 29901 net.cpp:129] Top shape: 1 5 (5)
I1018 00:04:50.940496 29901 net.cpp:129] Top shape: 1 5 (5)
I1018 00:04:50.940505 29901 net.cpp:137] Memory required for data: 2039880
I1018 00:04:50.940513 29901 layer_factory.hpp:77] Creating layer cont_114_lstm1_cont_slice_113_split
I1018 00:04:50.940523 29901 net.cpp:84] Creating Layer cont_114_lstm1_cont_slice_113_split
I1018 00:04:50.940532 29901 net.cpp:406] cont_114_lstm1_cont_slice_113_split <- cont_114
I1018 00:04:50.940546 29901 net.cpp:380] cont_114_lstm1_cont_slice_113_split -> cont_114_lstm1_cont_slice_113_split_0
I1018 00:04:50.940559 29901 net.cpp:380] cont_114_lstm1_cont_slice_113_split -> cont_114_lstm1_cont_slice_113_split_1
I1018 00:04:50.947059 29901 net.cpp:122] Setting up cont_114_lstm1_cont_slice_113_split
I1018 00:04:50.947088 29901 net.cpp:129] Top shape: 1 5 (5)
…
I1018 00:04:57.104663 29901 net.cpp:406] lstm1_gate_input_183 <- W_xc_x_183
I1018 00:04:57.104673 29901 net.cpp:380] lstm1_gate_input_183 -> gate_input_183
I1018 00:04:57.104725 29901 net.cpp:122] Setting up lstm1_gate_input_183
I1018 00:04:57.104735 29901 net.cpp:129] Top shape: 1 150 2048 (307200)
I1018 00:04:57.104739 29901 net.cpp:137] Memory required for data: 1272585600
I1018 00:04:57.104743 29901 layer_factory.hpp:77] Creating layer lstm1_unit_183
I1018 00:04:57.104755 29901 net.cpp:84] Creating Layer lstm1_unit_183
I1018 00:04:57.104768 29901 net.cpp:406] lstm1_unit_183 <- c_182
I1018 00:04:57.104787 29901 net.cpp:406] lstm1_unit_183 <- gate_input_183
I1018 00:04:57.104794 29901 net.cpp:406] lstm1_unit_183 <- cont_183_lstm1_cont_slice_182_split_1
I1018 00:04:57.104804 29901 net.cpp:380] lstm1_unit_183 -> c_183
I1018 00:04:57.104815 29901 net.cpp:380] lstm1_unit_183 -> h_183
I1018 00:04:57.104871 29901 net.cpp:122] Setting up lstm1_unit_183
I1018 00:04:57.104879 29901 net.cpp:129] Top shape: 1 150 512 (76800)
I1018 00:04:57.104884 29901 net.cpp:129] Top shape: 1 150 512 (76800)
I1018 00:04:57.104888 29901 net.cpp:137] Memory required for data: 1273200000
I1018 00:04:57.104893 29901 layer_factory.hpp:77] Creating layer h_183_lstm1_unit_183_1_split
I1018 00:04:57.104900 29901 net.cpp:84] Creating Layer h_183_lstm1_unit_183_1_split
I1018 00:04:57.104905 29901 net.cpp:406] h_183_lstm1_unit_183_1_split <- h_183
I1018 00:04:57.104915 29901 net.cpp:380] h_183_lstm1_unit_183_1_split -> h_183_lstm1_unit_183_1_split_0
I1018 00:04:57.104924 29901 net.cpp:380] h_183_lstm1_unit_183_1_split -> h_183_lstm1_unit_183_1_split_1
I1018 00:04:57.104960 29901 net.cpp:122] Setting up h_183_lstm1_unit_183_1_split
I1018 00:04:57.104969 29901 net.cpp:129] Top shape: 1 150 512 (76800)
I1018 00:04:57.104974 29901 net.cpp:129] Top shape: 1 150 512 (76800)
I1018 00:04:57.104977 29901 net.cpp:137] Memory required for data: 1273814400
I1018 00:04:57.104982 29901 layer_factory.hpp:77] Creating layer lstm1_h_conted_183
I1018 00:04:57.104995 29901 net.cpp:84] Creating Layer lstm1_h_conted_183
I1018 00:04:57.105000 29901 net.cpp:406] lstm1_h_conted_183 <- h_183_lstm1_unit_183_1_split_0
I1018 00:04:57.105008 29901 net.cpp:406] lstm1_h_conted_183 <- cont_184_lstm1_cont_slice_183_split_0
I1018 00:04:57.105020 29901 net.cpp:380] lstm1_h_conted_183 -> h_conted_183
I1018 00:04:57.105152 29901 net.cpp:122] Setting up lstm1_h_conted_183
I1018 00:04:57.105162 29901 net.cpp:129] Top shape: 1 150 512 (76800)
I1018 00:04:57.105166 29901 net.cpp:137] Memory required for data: 1274121600
I1018 00:04:57.105170 29901 layer_factory.hpp:77] Creating layer lstm1_transform_184
I1018 00:04:57.105182 29901 net.cpp:84] Creating Layer lstm1_transform_184
I1018 00:04:57.105188 29901 net.cpp:406] lstm1_transform_184 <- h_conted_183
I1018 00:04:57.105197 29901 net.cpp:380] lstm1_transform_184 -> W_hc_h_183
I1018 00:04:57.116463 29901 net.cpp:122] Setting up lstm1_transform_184
I1018 00:04:57.116490 29901 net.cpp:129] Top shape: 1 150 2048 (307200)
I1018 00:04:57.116495 29901 net.cpp:137] Memory required for data: 1275350400
I1018 00:04:57.116500 29901 net.cpp:465] Sharing parameters 'W_hc' owned by layer 'lstm1_transform_1', param index 0
I1018 00:04:57.116505 29901 layer_factory.hpp:77] Creating layer lstm1_gate_input_184
I1018 00:04:57.116516 29901 net.cpp:84] Creating Layer lstm1_gate_input_184
I1018 00:04:57.116523 29901 net.cpp:406] lstm1_gate_input_184 <- W_hc_h_183
I1018 00:04:57.116529 29901 net.cpp:406] lstm1_gate_input_184 <- W_xc_x_184
I1018 00:04:57.116536 29901 net.cpp:380] lstm1_gate_input_184 -> gate_input_184
I1018 00:04:57.116566 29901 net.cpp:122] Setting up lstm1_gate_input_184
I1018 00:04:57.116574 29901 net.cpp:129] Top shape: 1 150 2048 (307200)
I1018 00:04:57.116577 29901 net.cpp:137] Memory required for data: 1276579200
I1018 00:04:57.116581 29901 layer_factory.hpp:77] Creating layer lstm1_unit_184
I1018 00:04:57.116592 29901 net.cpp:84] Creating Layer lstm1_unit_184
I1018 00:04:57.116597 29901 net.cpp:406] lstm1_unit_184 <- c_183
I1018 00:04:57.116605 29901 net.cpp:406] lstm1_unit_184 <- gate_input_184
I1018 00:04:57.116611 29901 net.cpp:406] lstm1_unit_184 <- cont_184_lstm1_cont_slice_183_split_1
I1018 00:04:57.116616 29901 net.cpp:380] lstm1_unit_184 -> c_184
I1018 00:04:57.116624 29901 net.cpp:380] lstm1_unit_184 -> h_184
I1018 00:04:57.116685 29901 net.cpp:122] Setting up lstm1_unit_184
I1018 00:04:57.116694 29901 net.cpp:129] Top shape: 1 150 512 (76800)
I1018 00:04:57.116699 29901 net.cpp:129] Top shape: 1 150 512 (76800)
I1018 00:04:57.116703 29901 net.cpp:137] Memory required for data: 1277193600
I1018 00:04:57.116708 29901 layer_factory.hpp:77] Creating layer h_184_lstm1_unit_184_1_split
I1018 00:04:57.116714 29901 net.cpp:84] Creating Layer h_184_lstm1_unit_184_1_split
I1018 00:04:57.116719 29901 net.cpp:406] h_184_lstm1_unit_184_1_split <- h_184
I1018 00:04:57.116725 29901 net.cpp:380] h_184_lstm1_unit_184_1_split -> h_184_lstm1_unit_184_1_split_0
I1018 00:04:57.116735 29901 net.cpp:380] h_184_lstm1_unit_184_1_split -> h_184_lstm1_unit_184_1_split_1
I1018 00:04:57.116770 29901 net.cpp:122] Setting up h_184_lstm1_unit_184_1_split
I1018 00:04:57.116777 29901 net.cpp:129] Top shape: 1 150 512 (76800)
I1018 00:04:57.116782 29901 net.cpp:129] Top shape: 1 150 512 (76800)
I1018 00:04:57.116786 29901 net.cpp:137] Memory required for data: 1277808000
I1018 00:04:57.116801 29901 layer_factory.hpp:77] Creating layer lstm1_h_conted_184
I1018 00:04:57.116809 29901 net.cpp:84] Creating Layer lstm1_h_conted_184
I1018 00:04:57.116814 29901 net.cpp:406] lstm1_h_conted_184 <- h_184_lstm1_unit_184_1_split_0
I1018 00:04:57.116822 29901 net.cpp:406] lstm1_h_conted_184 <- cont_185_lstm1_cont_slice_184_split_0
I1018 00:04:57.116828 29901 net.cpp:380] lstm1_h_conted_184 -> h_conted_184
I1018 00:04:57.116904 29901 net.cpp:122] Setting up lstm1_h_conted_184
I1018 00:04:57.116915 29901 net.cpp:129] Top shape: 1 150 512 (76800)
I1018 00:04:57.116919 29901 net.cpp:137] Memory required for data: 1278115200
I1018 00:04:57.116924 29901 layer_factory.hpp:77] Creating layer lstm1_transform_185
I1018 00:04:57.116932 29901 net.cpp:84] Creating Layer lstm1_transform_185
I1018 00:04:57.116937 29901 net.cpp:406] lstm1_transform_185 <- h_conted_184
I1018 00:04:57.116945 29901 net.cpp:380] lstm1_transform_185 -> W_hc_h_184
I1018 00:04:57.128448 29901 net.cpp:122] Setting up lstm1_transform_185
I1018 00:04:57.128464 29901 net.cpp:129] Top shape: 1 150 2048 (307200)
I1018 00:04:57.128468 29901 net.cpp:137] Memory required for data: 1279344000
I1018 00:04:57.128474 29901 net.cpp:465] Sharing parameters 'W_hc' owned by layer 'lstm1_transform_1', param index 0
I1018 00:04:57.128479 29901 layer_factory.hpp:77] Creating layer lstm1_gate_input_185
I1018 00:04:57.128491 29901 net.cpp:84] Creating Layer lstm1_gate_input_185
I1018 00:04:57.128497 29901 net.cpp:406] lstm1_gate_input_185 <- W_hc_h_184
I1018 00:04:57.128504 29901 net.cpp:406] lstm1_gate_input_185 <- W_xc_x_185
I1018 00:04:57.128510 29901 net.cpp:380] lstm1_gate_input_185 -> gate_input_185
I1018 00:04:57.128540 29901 net.cpp:122] Setting up lstm1_gate_input_185
I1018 00:04:57.128561 29901 net.cpp:129] Top shape: 1 150 2048 (307200)
I1018 00:04:57.128566 29901 net.cpp:137] Memory required for data: 1280572800
I1018 00:04:57.128569 29901 layer_factory.hpp:77] Creating layer lstm1_unit_185
I1018 00:04:57.128587 29901 net.cpp:84] Creating Layer lstm1_unit_185
I1018 00:04:57.128593 29901 net.cpp:406] lstm1_unit_185 <- c_184
I1018 00:04:57.128599 29901 net.cpp:406] lstm1_unit_185 <- gate_input_185
I1018 00:04:57.128604 29901 net.cpp:406] lstm1_unit_185 <- cont_185_lstm1_cont_slice_184_split_1
I1018 00:04:57.128612 29901 net.cpp:380] lstm1_unit_185 -> c_185
I1018 00:04:57.128621 29901 net.cpp:380] lstm1_unit_185 -> h_185
I1018 00:04:57.128667 29901 net.cpp:122] Setting up lstm1_unit_185
I1018 00:04:57.128676 29901 net.cpp:129] Top shape: 1 150 512 (76800)
I1018 00:04:57.128680 29901 net.cpp:129] Top shape: 1 150 512 (76800)
I1018 00:04:57.128684 29901 net.cpp:137] Memory required for data: 1281187200
I1018 00:04:57.128689 29901 layer_factory.hpp:77] Creating layer h_185_lstm1_unit_185_1_split
I1018 00:04:57.128693 29901 net.cpp:84] Creating Layer h_185_lstm1_unit_185_1_split
I1018 00:04:57.128697 29901 net.cpp:406] h_185_lstm1_unit_185_1_split <- h_185
I1018 00:04:57.128703 29901 net.cpp:380] h_185_lstm1_unit_185_1_split -> h_185_lstm1_unit_185_1_split_0
I1018 00:04:57.128711 29901 net.cpp:380] h_185_lstm1_unit_185_1_split -> h_185_lstm1_unit_185_1_split_1
I1018 00:04:57.128743 29901 net.cpp:122] Setting up h_185_lstm1_unit_185_1_split
I1018 00:04:57.128751 29901 net.cpp:129] Top shape: 1 150 512 (76800)
I1018 00:04:57.128756 29901 net.cpp:129] Top shape: 1 150 512 (76800)
I1018 00:04:57.128759 29901 net.cpp:137] Memory required for data: 1281801600
I1018 00:04:57.128762 29901 layer_factory.hpp:77] Creating layer lstm1_h_conted_185
I1018 00:04:57.128769 29901 net.cpp:84] Creating Layer lstm1_h_conted_185
I1018 00:04:57.128774 29901 net.cpp:406] lstm1_h_conted_185 <- h_185_lstm1_unit_185_1_split_0
I1018 00:04:57.128780 29901 net.cpp:406] lstm1_h_conted_185 <- cont_186_lstm1_cont_slice_185_split_0
I1018 00:04:57.128789 29901 net.cpp:380] lstm1_h_conted_185 -> h_conted_185
I1018 00:04:57.128865 29901 net.cpp:122] Setting up lstm1_h_conted_185
I1018 00:04:57.128873 29901 net.cpp:129] Top shape: 1 150 512 (76800)
I1018 00:04:57.128877 29901 net.cpp:137] Memory required for data: 1282108800
I1018 00:04:57.128881 29901 layer_factory.hpp:77] Creating layer lstm1_transform_186
I1018 00:04:57.128888 29901 net.cpp:84] Creating Layer lstm1_transform_186
I1018 00:04:57.128893 29901 net.cpp:406] lstm1_transform_186 <- h_conted_185
I1018 00:04:57.128902 29901 net.cpp:380] lstm1_transform_186 -> W_hc_h_185
I1018 00:04:57.139762 29901 net.cpp:122] Setting up lstm1_transform_186
I1018 00:04:57.139778 29901 net.cpp:129] Top shape: 1 150 2048 (307200)
I1018 00:04:57.139782 29901 net.cpp:137] Memory required for data: 1283337600
I1018 00:04:57.139788 29901 net.cpp:465] Sharing parameters 'W_hc' owned by layer 'lstm1_transform_1', param index 0
I1018 00:04:57.139792 29901 layer_factory.hpp:77] Creating layer lstm1_gate_input_186
I1018 00:04:57.139801 29901 net.cpp:84] Creating Layer lstm1_gate_input_186
I1018 00:04:57.139806 29901 net.cpp:406] lstm1_gate_input_186 <- W_hc_h_185
I1018 00:04:57.139813 29901 net.cpp:406] lstm1_gate_input_186 <- W_xc_x_186
I1018 00:04:57.139822 29901 net.cpp:380] lstm1_gate_input_186 -> gate_input_186
I1018 00:04:57.139853 29901 net.cpp:122] Setting up lstm1_gate_input_186
I1018 00:04:57.139861 29901 net.cpp:129] Top shape: 1 150 2048 (307200)
I1018 00:04:57.139865 29901 net.cpp:137] Memory required for data: 1284566400
I1018 00:04:57.139869 29901 layer_factory.hpp:77] Creating layer lstm1_unit_186
I1018 00:04:57.139876 29901 net.cpp:84] Creating Layer lstm1_unit_186
I1018 00:04:57.139881 29901 net.cpp:406] lstm1_unit_186 <- c_185
I1018 00:04:57.139888 29901 net.cpp:406] lstm1_unit_186 <- gate_input_186
I1018 00:04:57.139892 29901 net.cpp:406] lstm1_unit_186 <- cont_186_lstm1_cont_slice_185_split_1
I1018 00:04:57.139899 29901 net.cpp:380] lstm1_unit_186 -> c_186
I1018 00:04:57.139914 29901 net.cpp:380] lstm1_unit_186 -> h_186
I1018 00:04:57.139967 29901 net.cpp:122] Setting up lstm1_unit_186
I1018 00:04:57.139976 29901 net.cpp:129] Top shape: 1 150 512 (76800)
I1018 00:04:57.139981 29901 net.cpp:129] Top shape: 1 150 512 (76800)
I1018 00:04:57.139986 29901 net.cpp:137] Memory required for data: 1285180800
I1018 00:04:57.139989 29901 layer_factory.hpp:77] Creating layer h_186_lstm1_unit_186_1_split
I1018 00:04:57.139995 29901 net.cpp:84] Creating Layer h_186_lstm1_unit_186_1_split
I1018 00:04:57.139999 29901 net.cpp:406] h_186_lstm1_unit_186_1_split <- h_186
I1018 00:04:57.140007 29901 net.cpp:380] h_186_lstm1_unit_186_1_split -> h_186_lstm1_unit_186_1_split_0
I1018 00:04:57.140013 29901 net.cpp:380] h_186_lstm1_unit_186_1_split -> h_186_lstm1_unit_186_1_split_1
I1018 00:04:57.140067 29901 net.cpp:122] Setting up h_186_lstm1_unit_186_1_split
I1018 00:04:57.140077 29901 net.cpp:129] Top shape: 1 150 512 (76800)
I1018 00:04:57.140082 29901 net.cpp:129] Top shape: 1 150 512 (76800)
I1018 00:04:57.140086 29901 net.cpp:137] Memory required for data: 1285795200
I1018 00:04:57.140090 29901 layer_factory.hpp:77] Creating layer lstm1_h_conted_186
I1018 00:04:57.140097 29901 net.cpp:84] Creating Layer lstm1_h_conted_186
I1018 00:04:57.140103 29901 net.cpp:406] lstm1_h_conted_186 <- h_186_lstm1_unit_186_1_split_0
I1018 00:04:57.140110 29901 net.cpp:406] lstm1_h_conted_186 <- cont_187_lstm1_cont_slice_186_split_0
I1018 00:04:57.140120 29901 net.cpp:380] lstm1_h_conted_186 -> h_conted_186
I1018 00:04:57.140200 29901 net.cpp:122] Setting up lstm1_h_conted_186
I1018 00:04:57.140211 29901 net.cpp:129] Top shape: 1 150 512 (76800)
I1018 00:04:57.140215 29901 net.cpp:137] Memory required for data: 1286102400
I1018 00:04:57.140219 29901 layer_factory.hpp:77] Creating layer lstm1_transform_187
I1018 00:04:57.140229 29901 net.cpp:84] Creating Layer lstm1_transform_187
I1018 00:04:57.140234 29901 net.cpp:406] lstm1_transform_187 <- h_conted_186
I1018 00:04:57.140244 29901 net.cpp:380] lstm1_transform_187 -> W_hc_h_186
I1018 00:04:57.151667 29901 net.cpp:122] Setting up lstm1_transform_187
I1018 00:04:57.151684 29901 net.cpp:129] Top shape: 1 150 2048 (307200)
I1018 00:04:57.151690 29901 net.cpp:137] Memory required for data: 1287331200
I1018 00:04:57.151695 29901 net.cpp:465] Sharing parameters 'W_hc' owned by layer 'lstm1_transform_1', param index 0
I1018 00:04:57.151698 29901 layer_factory.hpp:77] Creating layer lstm1_gate_input_187
I1018 00:04:57.151707 29901 net.cpp:84] Creating Layer lstm1_gate_input_187
I1018 00:04:57.151713 29901 net.cpp:406] lstm1_gate_input_187 <- W_hc_h_186
I1018 00:04:57.151721 29901 net.cpp:406] lstm1_gate_input_187 <- W_xc_x_187
I1018 00:04:57.151727 29901 net.cpp:380] lstm1_gate_input_187 -> gate_input_187
I1018 00:04:57.151760 29901 net.cpp:122] Setting up lstm1_gate_input_187
I1018 00:04:57.151775 29901 net.cpp:129] Top shape: 1 150 2048 (307200)
I1018 00:04:57.151779 29901 net.cpp:137] Memory required for data: 1288560000
I1018 00:04:57.151795 29901 layer_factory.hpp:77] Creating layer lstm1_unit_187
I1018 00:04:57.151803 29901 net.cpp:84] Creating Layer lstm1_unit_187
I1018 00:04:57.151808 29901 net.cpp:406] lstm1_unit_187 <- c_186
I1018 00:04:57.151814 29901 net.cpp:406] lstm1_unit_187 <- gate_input_187
I1018 00:04:57.151820 29901 net.cpp:406] lstm1_unit_187 <- cont_187_lstm1_cont_slice_186_split_1
I1018 00:04:57.151826 29901 net.cpp:380] lstm1_unit_187 -> c_187
I1018 00:04:57.151835 29901 net.cpp:380] lstm1_unit_187 -> h_187
I1018 00:04:57.151887 29901 net.cpp:122] Setting up lstm1_unit_187
I1018 00:04:57.151895 29901 net.cpp:129] Top shape: 1 150 512 (76800)
I1018 00:04:57.151901 29901 net.cpp:129] Top shape: 1 150 512 (76800)
I1018 00:04:57.151904 29901 net.cpp:137] Memory required for data: 1289174400
I1018 00:04:57.151909 29901 layer_factory.hpp:77] Creating layer h_187_lstm1_unit_187_1_split
I1018 00:04:57.151916 29901 net.cpp:84] Creating Layer h_187_lstm1_unit_187_1_split
I1018 00:04:57.151921 29901 net.cpp:406] h_187_lstm1_unit_187_1_split <- h_187
I1018 00:04:57.151927 29901 net.cpp:380] h_187_lstm1_unit_187_1_split -> h_187_lstm1_unit_187_1_split_0
I1018 00:04:57.151934 29901 net.cpp:380] h_187_lstm1_unit_187_1_split -> h_187_lstm1_unit_187_1_split_1
I1018 00:04:57.151970 29901 net.cpp:122] Setting up h_187_lstm1_unit_187_1_split
I1018 00:04:57.151979 29901 net.cpp:129] Top shape: 1 150 512 (76800)
I1018 00:04:57.151984 29901 net.cpp:129] Top shape: 1 150 512 (76800)
I1018 00:04:57.151988 29901 net.cpp:137] Memory required for data: 1289788800
I1018 00:04:57.151991 29901 layer_factory.hpp:77] Creating layer lstm1_h_conted_187
I1018 00:04:57.151998 29901 net.cpp:84] Creating Layer lstm1_h_conted_187
I1018 00:04:57.152004 29901 net.cpp:406] lstm1_h_conted_187 <- h_187_lstm1_unit_187_1_split_0
I1018 00:04:57.152010 29901 net.cpp:406] lstm1_h_conted_187 <- cont_188_lstm1_cont_slice_187_split_0
I1018 00:04:57.152019 29901 net.cpp:380] lstm1_h_conted_187 -> h_conted_187
I1018 00:04:57.152107 29901 net.cpp:122] Setting up lstm1_h_conted_187
I1018 00:04:57.152118 29901 net.cpp:129] Top shape: 1 150 512 (76800)
I1018 00:04:57.152122 29901 net.cpp:137] Memory required for data: 1290096000
I1018 00:04:57.152127 29901 layer_factory.hpp:77] Creating layer lstm1_transform_188
I1018 00:04:57.152135 29901 net.cpp:84] Creating Layer lstm1_transform_188
I1018 00:04:57.152142 29901 net.cpp:406] lstm1_transform_188 <- h_conted_187
I1018 00:04:57.152148 29901 net.cpp:380] lstm1_transform_188 -> W_hc_h_187
I1018 00:04:57.163759 29901 net.cpp:122] Setting up lstm1_transform_188
I1018 00:04:57.163787 29901 net.cpp:129] Top shape: 1 150 2048 (307200)
I1018 00:04:57.163791 29901 net.cpp:137] Memory required for data: 1291324800
I1018 00:04:57.163797 29901 net.cpp:465] Sharing parameters 'W_hc' owned by layer 'lstm1_transform_1', param index 0
I1018 00:04:57.163802 29901 layer_factory.hpp:77] Creating layer lstm1_gate_input_188
I1018 00:04:57.163811 29901 net.cpp:84] Creating Layer lstm1_gate_input_188
I1018 00:04:57.163817 29901 net.cpp:406] lstm1_gate_input_188 <- W_hc_h_187
I1018 00:04:57.163825 29901 net.cpp:406] lstm1_gate_input_188 <- W_xc_x_188
I1018 00:04:57.163831 29901 net.cpp:380] lstm1_gate_input_188 -> gate_input_188
I1018 00:04:57.163864 29901 net.cpp:122] Setting up lstm1_gate_input_188
I1018 00:04:57.163874 29901 net.cpp:129] Top shape: 1 150 2048 (307200)
I1018 00:04:57.163890 29901 net.cpp:137] Memory required for data: 1292553600
I1018 00:04:57.163894 29901 layer_factory.hpp:77] Creating layer lstm1_unit_188
I1018 00:04:57.163900 29901 net.cpp:84] Creating Layer lstm1_unit_188
I1018 00:04:57.163906 29901 net.cpp:406] lstm1_unit_188 <- c_187
I1018 00:04:57.163913 29901 net.cpp:406] lstm1_unit_188 <- gate_input_188
I1018 00:04:57.163919 29901 net.cpp:406] lstm1_unit_188 <- cont_188_lstm1_cont_slice_187_split_1
I1018 00:04:57.163926 29901 net.cpp:380] lstm1_unit_188 -> c_188
I1018 00:04:57.163934 29901 net.cpp:380] lstm1_unit_188 -> h_188
I1018 00:04:57.163985 29901 net.cpp:122] Setting up lstm1_unit_188
I1018 00:04:57.163995 29901 net.cpp:129] Top shape: 1 150 512 (76800)
I1018 00:04:57.164000 29901 net.cpp:129] Top shape: 1 150 512 (76800)
I1018 00:04:57.164003 29901 net.cpp:137] Memory required for data: 1293168000
I1018 00:04:57.164007 29901 layer_factory.hpp:77] Creating layer h_188_lstm1_unit_188_1_split
I1018 00:04:57.164014 29901 net.cpp:84] Creating Layer h_188_lstm1_unit_188_1_split
I1018 00:04:57.164019 29901 net.cpp:406] h_188_lstm1_unit_188_1_split <- h_188
I1018 00:04:57.164032 29901 net.cpp:380] h_188_lstm1_unit_188_1_split -> h_188_lstm1_unit_188_1_split_0
I1018 00:04:57.164041 29901 net.cpp:380] h_188_lstm1_unit_188_1_split -> h_188_lstm1_unit_188_1_split_1
I1018 00:04:57.164079 29901 net.cpp:122] Setting up h_188_lstm1_unit_188_1_split
I1018 00:04:57.164088 29901 net.cpp:129] Top shape: 1 150 512 (76800)
I1018 00:04:57.164093 29901 net.cpp:129] Top shape: 1 150 512 (76800)
I1018 00:04:57.164098 29901 net.cpp:137] Memory required for data: 1293782400
I1018 00:04:57.164101 29901 layer_factory.hpp:77] Creating layer lstm1_h_conted_188
I1018 00:04:57.164111 29901 net.cpp:84] Creating Layer lstm1_h_conted_188
I1018 00:04:57.164117 29901 net.cpp:406] lstm1_h_conted_188 <- h_188_lstm1_unit_188_1_split_0
I1018 00:04:57.164124 29901 net.cpp:406] lstm1_h_conted_188 <- cont_189_lstm1_cont_slice_188_split_0
I1018 00:04:57.164132 29901 net.cpp:380] lstm1_h_conted_188 -> h_conted_188
I1018 00:04:57.164218 29901 net.cpp:122] Setting up lstm1_h_conted_188
I1018 00:04:57.164229 29901 net.cpp:129] Top shape: 1 150 512 (76800)
I1018 00:04:57.164233 29901 net.cpp:137] Memory required for data: 1294089600
I1018 00:04:57.164237 29901 layer_factory.hpp:77] Creating layer lstm1_transform_189
I1018 00:04:57.164248 29901 net.cpp:84] Creating Layer lstm1_transform_189
I1018 00:04:57.164254 29901 net.cpp:406] lstm1_transform_189 <- h_conted_188
I1018 00:04:57.164261 29901 net.cpp:380] lstm1_transform_189 -> W_hc_h_188
I1018 00:04:57.175595 29901 net.cpp:122] Setting up lstm1_transform_189
I1018 00:04:57.175616 29901 net.cpp:129] Top shape: 1 150 2048 (307200)
I1018 00:04:57.175637 29901 net.cpp:137] Memory required for data: 1295318400
I1018 00:04:57.175642 29901 net.cpp:465] Sharing parameters 'W_hc' owned by layer 'lstm1_transform_1', param index 0
I1018 00:04:57.175647 29901 layer_factory.hpp:77] Creating layer lstm1_gate_input_189
I1018 00:04:57.175655 29901 net.cpp:84] Creating Layer lstm1_gate_input_189
I1018 00:04:57.175660 29901 net.cpp:406] lstm1_gate_input_189 <- W_hc_h_188
I1018 00:04:57.175668 29901 net.cpp:406] lstm1_gate_input_189 <- W_xc_x_189
I1018 00:04:57.175674 29901 net.cpp:380] lstm1_gate_input_189 -> gate_input_189
I1018 00:04:57.175704 29901 net.cpp:122] Setting up lstm1_gate_input_189
I1018 00:04:57.175714 29901 net.cpp:129] Top shape: 1 150 2048 (307200)
I1018 00:04:57.175729 29901 net.cpp:137] Memory required for data: 1296547200
I1018 00:04:57.175732 29901 layer_factory.hpp:77] Creating layer lstm1_unit_189
I1018 00:04:57.175742 29901 net.cpp:84] Creating Layer lstm1_unit_189
I1018 00:04:57.175750 29901 net.cpp:406] lstm1_unit_189 <- c_188
I1018 00:04:57.175755 29901 net.cpp:406] lstm1_unit_189 <- gate_input_189
I1018 00:04:57.175762 29901 net.cpp:406] lstm1_unit_189 <- cont_189_lstm1_cont_slice_188_split_1
I1018 00:04:57.175768 29901 net.cpp:380] lstm1_unit_189 -> c_189
I1018 00:04:57.175777 29901 net.cpp:380] lstm1_unit_189 -> h_189
I1018 00:04:57.175827 29901 net.cpp:122] Setting up lstm1_unit_189
I1018 00:04:57.175837 29901 net.cpp:129] Top shape: 1 150 512 (76800)
I1018 00:04:57.175842 29901 net.cpp:129] Top shape: 1 150 512 (76800)
I1018 00:04:57.175845 29901 net.cpp:137] Memory required for data: 1297161600
I1018 00:04:57.175850 29901 layer_factory.hpp:77] Creating layer h_189_lstm1_unit_189_1_split
I1018 00:04:57.175855 29901 net.cpp:84] Creating Layer h_189_lstm1_unit_189_1_split
I1018 00:04:57.175860 29901 net.cpp:406] h_189_lstm1_unit_189_1_split <- h_189
I1018 00:04:57.175868 29901 net.cpp:380] h_189_lstm1_unit_189_1_split -> h_189_lstm1_unit_189_1_split_0
I1018 00:04:57.175876 29901 net.cpp:380] h_189_lstm1_unit_189_1_split -> h_189_lstm1_unit_189_1_split_1
I1018 00:04:57.175910 29901 net.cpp:122] Setting up h_189_lstm1_unit_189_1_split
I1018 00:04:57.175918 29901 net.cpp:129] Top shape: 1 150 512 (76800)
I1018 00:04:57.175923 29901 net.cpp:129] Top shape: 1 150 512 (76800)
I1018 00:04:57.175926 29901 net.cpp:137] Memory required for data: 1297776000
I1018 00:04:57.175930 29901 layer_factory.hpp:77] Creating layer lstm1_h_conted_189
I1018 00:04:57.175943 29901 net.cpp:84] Creating Layer lstm1_h_conted_189
I1018 00:04:57.175948 29901 net.cpp:406] lstm1_h_conted_189 <- h_189_lstm1_unit_189_1_split_0
I1018 00:04:57.175956 29901 net.cpp:406] lstm1_h_conted_189 <- cont_190_lstm1_cont_slice_189_split_0
I1018 00:04:57.175966 29901 net.cpp:380] lstm1_h_conted_189 -> h_conted_189
I1018 00:04:57.176087 29901 net.cpp:122] Setting up lstm1_h_conted_189
I1018 00:04:57.176097 29901 net.cpp:129] Top shape: 1 150 512 (76800)
I1018 00:04:57.176101 29901 net.cpp:137] Memory required for data: 1298083200
I1018 00:04:57.176105 29901 layer_factory.hpp:77] Creating layer lstm1_transform_190
I1018 00:04:57.176116 29901 net.cpp:84] Creating Layer lstm1_transform_190
I1018 00:04:57.176121 29901 net.cpp:406] lstm1_transform_190 <- h_conted_189
I1018 00:04:57.176131 29901 net.cpp:380] lstm1_transform_190 -> W_hc_h_189
I1018 00:04:57.187093 29901 net.cpp:122] Setting up lstm1_transform_190
I1018 00:04:57.187108 29901 net.cpp:129] Top shape: 1 150 2048 (307200)
I1018 00:04:57.187124 29901 net.cpp:137] Memory required for data: 1299312000
I1018 00:04:57.187129 29901 net.cpp:465] Sharing parameters 'W_hc' owned by layer 'lstm1_transform_1', param index 0
I1018 00:04:57.187134 29901 layer_factory.hpp:77] Creating layer lstm1_gate_input_190
I1018 00:04:57.187142 29901 net.cpp:84] Creating Layer lstm1_gate_input_190
I1018 00:04:57.187147 29901 net.cpp:406] lstm1_gate_input_190 <- W_hc_h_189
I1018 00:04:57.187155 29901 net.cpp:406] lstm1_gate_input_190 <- W_xc_x_190
I1018 00:04:57.187161 29901 net.cpp:380] lstm1_gate_input_190 -> gate_input_190
I1018 00:04:57.187191 29901 net.cpp:122] Setting up lstm1_gate_input_190
I1018 00:04:57.187199 29901 net.cpp:129] Top shape: 1 150 2048 (307200)
I1018 00:04:57.187216 29901 net.cpp:137] Memory required for data: 1300540800
I1018 00:04:57.187219 29901 layer_factory.hpp:77] Creating layer lstm1_unit_190
I1018 00:04:57.187229 29901 net.cpp:84] Creating Layer lstm1_unit_190
I1018 00:04:57.187235 29901 net.cpp:406] lstm1_unit_190 <- c_189
I1018 00:04:57.187242 29901 net.cpp:406] lstm1_unit_190 <- gate_input_190
I1018 00:04:57.187247 29901 net.cpp:406] lstm1_unit_190 <- cont_190_lstm1_cont_slice_189_split_1
I1018 00:04:57.187258 29901 net.cpp:380] lstm1_unit_190 -> c_190
I1018 00:04:57.187265 29901 net.cpp:380] lstm1_unit_190 -> h_190
I1018 00:04:57.187316 29901 net.cpp:122] Setting up lstm1_unit_190
I1018 00:04:57.187325 29901 net.cpp:129] Top shape: 1 150 512 (76800)
I1018 00:04:57.187330 29901 net.cpp:129] Top shape: 1 150 512 (76800)
I1018 00:04:57.187335 29901 net.cpp:137] Memory required for data: 1301155200
I1018 00:04:57.187338 29901 layer_factory.hpp:77] Creating layer h_190_lstm1_unit_190_1_split
I1018 00:04:57.187343 29901 net.cpp:84] Creating Layer h_190_lstm1_unit_190_1_split
I1018 00:04:57.187348 29901 net.cpp:406] h_190_lstm1_unit_190_1_split <- h_190
I1018 00:04:57.187355 29901 net.cpp:380] h_190_lstm1_unit_190_1_split -> h_190_lstm1_unit_190_1_split_0
I1018 00:04:57.187368 29901 net.cpp:380] h_190_lstm1_unit_190_1_split -> h_190_lstm1_unit_190_1_split_1
I1018 00:04:57.187414 29901 net.cpp:122] Setting up h_190_lstm1_unit_190_1_split
I1018 00:04:57.187423 29901 net.cpp:129] Top shape: 1 150 512 (76800)
I1018 00:04:57.187428 29901 net.cpp:129] Top shape: 1 150 512 (76800)
I1018 00:04:57.187432 29901 net.cpp:137] Memory required for data: 1301769600
I1018 00:04:57.187436 29901 layer_factory.hpp:77] Creating layer lstm1_h_conted_190
I1018 00:04:57.187444 29901 net.cpp:84] Creating Layer lstm1_h_conted_190
I1018 00:04:57.187450 29901 net.cpp:406] lstm1_h_conted_190 <- h_190_lstm1_unit_190_1_split_0
I1018 00:04:57.187458 29901 net.cpp:406] lstm1_h_conted_190 <- cont_191_lstm1_cont_slice_190_split_0
I1018 00:04:57.187464 29901 net.cpp:380] lstm1_h_conted_190 -> h_conted_190
I1018 00:04:57.187552 29901 net.cpp:122] Setting up lstm1_h_conted_190
I1018 00:04:57.187561 29901 net.cpp:129] Top shape: 1 150 512 (76800)
I1018 00:04:57.187566 29901 net.cpp:137] Memory required for data: 1302076800
I1018 00:04:57.187569 29901 layer_factory.hpp:77] Creating layer lstm1_transform_191
I1018 00:04:57.187578 29901 net.cpp:84] Creating Layer lstm1_transform_191
I1018 00:04:57.187583 29901 net.cpp:406] lstm1_transform_191 <- h_conted_190
I1018 00:04:57.187590 29901 net.cpp:380] lstm1_transform_191 -> W_hc_h_190
I1018 00:04:57.199128 29901 net.cpp:122] Setting up lstm1_transform_191
I1018 00:04:57.199154 29901 net.cpp:129] Top shape: 1 150 2048 (307200)
I1018 00:04:57.199159 29901 net.cpp:137] Memory required for data: 1303305600
I1018 00:04:57.199164 29901 net.cpp:465] Sharing parameters 'W_hc' owned by layer 'lstm1_transform_1', param index 0
I1018 00:04:57.199169 29901 layer_factory.hpp:77] Creating layer lstm1_gate_input_191
I1018 00:04:57.199179 29901 net.cpp:84] Creating Layer lstm1_gate_input_191
I1018 00:04:57.199185 29901 net.cpp:406] lstm1_gate_input_191 <- W_hc_h_190
I1018 00:04:57.199192 29901 net.cpp:406] lstm1_gate_input_191 <- W_xc_x_191
I1018 00:04:57.199198 29901 net.cpp:380] lstm1_gate_input_191 -> gate_input_191
I1018 00:04:57.199228 29901 net.cpp:122] Setting up lstm1_gate_input_191
I1018 00:04:57.199237 29901 net.cpp:129] Top shape: 1 150 2048 (307200)
I1018 00:04:57.199252 29901 net.cpp:137] Memory required for data: 1304534400
I1018 00:04:57.199256 29901 layer_factory.hpp:77] Creating layer lstm1_unit_191
I1018 00:04:57.199265 29901 net.cpp:84] Creating Layer lstm1_unit_191
I1018 00:04:57.199271 29901 net.cpp:406] lstm1_unit_191 <- c_190
I1018 00:04:57.199278 29901 net.cpp:406] lstm1_unit_191 <- gate_input_191
I1018 00:04:57.199285 29901 net.cpp:406] lstm1_unit_191 <- cont_191_lstm1_cont_slice_190_split_1
I1018 00:04:57.199292 29901 net.cpp:380] lstm1_unit_191 -> c_191
I1018 00:04:57.199301 29901 net.cpp:380] lstm1_unit_191 -> h_191
I1018 00:04:57.199350 29901 net.cpp:122] Setting up lstm1_unit_191
I1018 00:04:57.199359 29901 net.cpp:129] Top shape: 1 150 512 (76800)
I1018 00:04:57.199365 29901 net.cpp:129] Top shape: 1 150 512 (76800)
I1018 00:04:57.199368 29901 net.cpp:137] Memory required for data: 1305148800
I1018 00:04:57.199373 29901 layer_factory.hpp:77] Creating layer h_191_lstm1_unit_191_1_split
I1018 00:04:57.199378 29901 net.cpp:84] Creating Layer h_191_lstm1_unit_191_1_split
I1018 00:04:57.199383 29901 net.cpp:406] h_191_lstm1_unit_191_1_split <- h_191
I1018 00:04:57.199389 29901 net.cpp:380] h_191_lstm1_unit_191_1_split -> h_191_lstm1_unit_191_1_split_0
I1018 00:04:57.199398 29901 net.cpp:380] h_191_lstm1_unit_191_1_split -> h_191_lstm1_unit_191_1_split_1
I1018 00:04:57.199434 29901 net.cpp:122] Setting up h_191_lstm1_unit_191_1_split
I1018 00:04:57.199442 29901 net.cpp:129] Top shape: 1 150 512 (76800)
I1018 00:04:57.199447 29901 net.cpp:129] Top shape: 1 150 512 (76800)
I1018 00:04:57.199450 29901 net.cpp:137] Memory required for data: 1305763200
I1018 00:04:57.199455 29901 layer_factory.hpp:77] Creating layer lstm1_h_conted_191
I1018 00:04:57.199465 29901 net.cpp:84] Creating Layer lstm1_h_conted_191
I1018 00:04:57.199470 29901 net.cpp:406] lstm1_h_conted_191 <- h_191_lstm1_unit_191_1_split_0
I1018 00:04:57.199478 29901 net.cpp:406] lstm1_h_conted_191 <- cont_192_lstm1_cont_slice_191_split_0
I1018 00:04:57.199486 29901 net.cpp:380] lstm1_h_conted_191 -> h_conted_191
I1018 00:04:57.199580 29901 net.cpp:122] Setting up lstm1_h_conted_191
I1018 00:04:57.199589 29901 net.cpp:129] Top shape: 1 150 512 (76800)
I1018 00:04:57.199594 29901 net.cpp:137] Memory required for data: 1306070400
I1018 00:04:57.199597 29901 layer_factory.hpp:77] Creating layer lstm1_transform_192
I1018 00:04:57.199607 29901 net.cpp:84] Creating Layer lstm1_transform_192
I1018 00:04:57.199625 29901 net.cpp:406] lstm1_transform_192 <- h_conted_191
I1018 00:04:57.199635 29901 net.cpp:380] lstm1_transform_192 -> W_hc_h_191
I1018 00:04:57.210981 29901 net.cpp:122] Setting up lstm1_transform_192
I1018 00:04:57.211009 29901 net.cpp:129] Top shape: 1 150 2048 (307200)
I1018 00:04:57.211014 29901 net.cpp:137] Memory required for data: 1307299200
I1018 00:04:57.211019 29901 net.cpp:465] Sharing parameters 'W_hc' owned by layer 'lstm1_transform_1', param index 0
I1018 00:04:57.211024 29901 layer_factory.hpp:77] Creating layer lstm1_gate_input_192
I1018 00:04:57.211032 29901 net.cpp:84] Creating Layer lstm1_gate_input_192
I1018 00:04:57.211037 29901 net.cpp:406] lstm1_gate_input_192 <- W_hc_h_191
I1018 00:04:57.211056 29901 net.cpp:406] lstm1_gate_input_192 <- W_xc_x_192
I1018 00:04:57.211064 29901 net.cpp:380] lstm1_gate_input_192 -> gate_input_192
I1018 00:04:57.211094 29901 net.cpp:122] Setting up lstm1_gate_input_192
I1018 00:04:57.211103 29901 net.cpp:129] Top shape: 1 150 2048 (307200)
I1018 00:04:57.211119 29901 net.cpp:137] Memory required for data: 1308528000
I1018 00:04:57.211122 29901 layer_factory.hpp:77] Creating layer lstm1_unit_192
I1018 00:04:57.211132 29901 net.cpp:84] Creating Layer lstm1_unit_192
I1018 00:04:57.211138 29901 net.cpp:406] lstm1_unit_192 <- c_191
I1018 00:04:57.211143 29901 net.cpp:406] lstm1_unit_192 <- gate_input_192
I1018 00:04:57.211153 29901 net.cpp:406] lstm1_unit_192 <- cont_192_lstm1_cont_slice_191_split_1
I1018 00:04:57.211158 29901 net.cpp:380] lstm1_unit_192 -> c_192
I1018 00:04:57.211169 29901 net.cpp:380] lstm1_unit_192 -> h_192
I1018 00:04:57.211220 29901 net.cpp:122] Setting up lstm1_unit_192
I1018 00:04:57.211227 29901 net.cpp:129] Top shape: 1 150 512 (76800)
I1018 00:04:57.211232 29901 net.cpp:129] Top shape: 1 150 512 (76800)
I1018 00:04:57.211236 29901 net.cpp:137] Memory required for data: 1309142400
I1018 00:04:57.211241 29901 layer_factory.hpp:77] Creating layer h_192_lstm1_unit_192_1_split
I1018 00:04:57.211246 29901 net.cpp:84] Creating Layer h_192_lstm1_unit_192_1_split
I1018 00:04:57.211251 29901 net.cpp:406] h_192_lstm1_unit_192_1_split <- h_192
I1018 00:04:57.211257 29901 net.cpp:380] h_192_lstm1_unit_192_1_split -> h_192_lstm1_unit_192_1_split_0
I1018 00:04:57.211264 29901 net.cpp:380] h_192_lstm1_unit_192_1_split -> h_192_lstm1_unit_192_1_split_1
I1018 00:04:57.211300 29901 net.cpp:122] Setting up h_192_lstm1_unit_192_1_split
I1018 00:04:57.211308 29901 net.cpp:129] Top shape: 1 150 512 (76800)
I1018 00:04:57.211313 29901 net.cpp:129] Top shape: 1 150 512 (76800)
I1018 00:04:57.211318 29901 net.cpp:137] Memory required for data: 1309756800
I1018 00:04:57.211321 29901 layer_factory.hpp:77] Creating layer lstm1_h_conted_192
I1018 00:04:57.211329 29901 net.cpp:84] Creating Layer lstm1_h_conted_192
I1018 00:04:57.211334 29901 net.cpp:406] lstm1_h_conted_192 <- h_192_lstm1_unit_192_1_split_0
I1018 00:04:57.211341 29901 net.cpp:406] lstm1_h_conted_192 <- cont_193_lstm1_cont_slice_192_split_0
I1018 00:04:57.211350 29901 net.cpp:380] lstm1_h_conted_192 -> h_conted_192
I1018 00:04:57.211444 29901 net.cpp:122] Setting up lstm1_h_conted_192
I1018 00:04:57.211454 29901 net.cpp:129] Top shape: 1 150 512 (76800)
I1018 00:04:57.211458 29901 net.cpp:137] Memory required for data: 1310064000
I1018 00:04:57.211462 29901 layer_factory.hpp:77] Creating layer lstm1_transform_193
I1018 00:04:57.211468 29901 net.cpp:84] Creating Layer lstm1_transform_193
I1018 00:04:57.211473 29901 net.cpp:406] lstm1_transform_193 <- h_conted_192
I1018 00:04:57.211484 29901 net.cpp:380] lstm1_transform_193 -> W_hc_h_192
I1018 00:04:57.222782 29901 net.cpp:122] Setting up lstm1_transform_193
I1018 00:04:57.222812 29901 net.cpp:129] Top shape: 1 150 2048 (307200)
I1018 00:04:57.222816 29901 net.cpp:137] Memory required for data: 1311292800
I1018 00:04:57.222821 29901 net.cpp:465] Sharing parameters 'W_hc' owned by layer 'lstm1_transform_1', param index 0
I1018 00:04:57.222826 29901 layer_factory.hpp:77] Creating layer lstm1_gate_input_193
I1018 00:04:57.222836 29901 net.cpp:84] Creating Layer lstm1_gate_input_193
I1018 00:04:57.222841 29901 net.cpp:406] lstm1_gate_input_193 <- W_hc_h_192
I1018 00:04:57.222848 29901 net.cpp:406] lstm1_gate_input_193 <- W_xc_x_193
I1018 00:04:57.222857 29901 net.cpp:380] lstm1_gate_input_193 -> gate_input_193
I1018 00:04:57.222888 29901 net.cpp:122] Setting up lstm1_gate_input_193
I1018 00:04:57.222898 29901 net.cpp:129] Top shape: 1 150 2048 (307200)
I1018 00:04:57.222913 29901 net.cpp:137] Memory required for data: 1312521600
I1018 00:04:57.222918 29901 layer_factory.hpp:77] Creating layer lstm1_unit_193
I1018 00:04:57.222923 29901 net.cpp:84] Creating Layer lstm1_unit_193
I1018 00:04:57.222929 29901 net.cpp:406] lstm1_unit_193 <- c_192
I1018 00:04:57.222935 29901 net.cpp:406] lstm1_unit_193 <- gate_input_193
I1018 00:04:57.222941 29901 net.cpp:406] lstm1_unit_193 <- cont_193_lstm1_cont_slice_192_split_1
I1018 00:04:57.222947 29901 net.cpp:380] lstm1_unit_193 -> c_193
I1018 00:04:57.222957 29901 net.cpp:380] lstm1_unit_193 -> h_193
I1018 00:04:57.223008 29901 net.cpp:122] Setting up lstm1_unit_193
I1018 00:04:57.223016 29901 net.cpp:129] Top shape: 1 150 512 (76800)
I1018 00:04:57.223021 29901 net.cpp:129] Top shape: 1 150 512 (76800)
I1018 00:04:57.223026 29901 net.cpp:137] Memory required for data: 1313136000
I1018 00:04:57.223029 29901 layer_factory.hpp:77] Creating layer h_193_lstm1_unit_193_1_split
I1018 00:04:57.223036 29901 net.cpp:84] Creating Layer h_193_lstm1_unit_193_1_split
I1018 00:04:57.223040 29901 net.cpp:406] h_193_lstm1_unit_193_1_split <- h_193
I1018 00:04:57.223047 29901 net.cpp:380] h_193_lstm1_unit_193_1_split -> h_193_lstm1_unit_193_1_split_0
I1018 00:04:57.223053 29901 net.cpp:380] h_193_lstm1_unit_193_1_split -> h_193_lstm1_unit_193_1_split_1
I1018 00:04:57.223088 29901 net.cpp:122] Setting up h_193_lstm1_unit_193_1_split
I1018 00:04:57.223098 29901 net.cpp:129] Top shape: 1 150 512 (76800)
I1018 00:04:57.223103 29901 net.cpp:129] Top shape: 1 150 512 (76800)
I1018 00:04:57.223105 29901 net.cpp:137] Memory required for data: 1313750400
I1018 00:04:57.223109 29901 layer_factory.hpp:77] Creating layer lstm1_h_conted_193
I1018 00:04:57.223116 29901 net.cpp:84] Creating Layer lstm1_h_conted_193
I1018 00:04:57.223122 29901 net.cpp:406] lstm1_h_conted_193 <- h_193_lstm1_unit_193_1_split_0
I1018 00:04:57.223129 29901 net.cpp:406] lstm1_h_conted_193 <- cont_194_lstm1_cont_slice_193_split_0
I1018 00:04:57.223136 29901 net.cpp:380] lstm1_h_conted_193 -> h_conted_193
I1018 00:04:57.223233 29901 net.cpp:122] Setting up lstm1_h_conted_193
I1018 00:04:57.223243 29901 net.cpp:129] Top shape: 1 150 512 (76800)
I1018 00:04:57.223248 29901 net.cpp:137] Memory required for data: 1314057600
I1018 00:04:57.223251 29901 layer_factory.hpp:77] Creating layer lstm1_transform_194
I1018 00:04:57.223259 29901 net.cpp:84] Creating Layer lstm1_transform_194
I1018 00:04:57.223264 29901 net.cpp:406] lstm1_transform_194 <- h_conted_193
I1018 00:04:57.223271 29901 net.cpp:380] lstm1_transform_194 -> W_hc_h_193
I1018 00:04:57.234727 29901 net.cpp:122] Setting up lstm1_transform_194
I1018 00:04:57.234747 29901 net.cpp:129] Top shape: 1 150 2048 (307200)
I1018 00:04:57.234752 29901 net.cpp:137] Memory required for data: 1315286400
I1018 00:04:57.234757 29901 net.cpp:465] Sharing parameters 'W_hc' owned by layer 'lstm1_transform_1', param index 0
I1018 00:04:57.234762 29901 layer_factory.hpp:77] Creating layer lstm1_gate_input_194
I1018 00:04:57.234772 29901 net.cpp:84] Creating Layer lstm1_gate_input_194
I1018 00:04:57.234778 29901 net.cpp:406] lstm1_gate_input_194 <- W_hc_h_193
I1018 00:04:57.234786 29901 net.cpp:406] lstm1_gate_input_194 <- W_xc_x_194
I1018 00:04:57.234793 29901 net.cpp:380] lstm1_gate_input_194 -> gate_input_194
I1018 00:04:57.234828 29901 net.cpp:122] Setting up lstm1_gate_input_194
I1018 00:04:57.234838 29901 net.cpp:129] Top shape: 1 150 2048 (307200)
I1018 00:04:57.234841 29901 net.cpp:137] Memory required for data: 1316515200
I1018 00:04:57.234845 29901 layer_factory.hpp:77] Creating layer lstm1_unit_194
I1018 00:04:57.234853 29901 net.cpp:84] Creating Layer lstm1_unit_194
I1018 00:04:57.234858 29901 net.cpp:406] lstm1_unit_194 <- c_193
I1018 00:04:57.234865 29901 net.cpp:406] lstm1_unit_194 <- gate_input_194
I1018 00:04:57.234870 29901 net.cpp:406] lstm1_unit_194 <- cont_194_lstm1_cont_slice_193_split_1
I1018 00:04:57.234877 29901 net.cpp:380] lstm1_unit_194 -> c_194
I1018 00:04:57.234886 29901 net.cpp:380] lstm1_unit_194 -> h_194
I1018 00:04:57.234936 29901 net.cpp:122] Setting up lstm1_unit_194
I1018 00:04:57.234946 29901 net.cpp:129] Top shape: 1 150 512 (76800)
I1018 00:04:57.234951 29901 net.cpp:129] Top shape: 1 150 512 (76800)
I1018 00:04:57.234954 29901 net.cpp:137] Memory required for data: 1317129600
I1018 00:04:57.234958 29901 layer_factory.hpp:77] Creating layer h_194_lstm1_unit_194_1_split
I1018 00:04:57.234966 29901 net.cpp:84] Creating Layer h_194_lstm1_unit_194_1_split
I1018 00:04:57.234972 29901 net.cpp:406] h_194_lstm1_unit_194_1_split <- h_194
I1018 00:04:57.234978 29901 net.cpp:380] h_194_lstm1_unit_194_1_split -> h_194_lstm1_unit_194_1_split_0
I1018 00:04:57.234987 29901 net.cpp:380] h_194_lstm1_unit_194_1_split -> h_194_lstm1_unit_194_1_split_1
I1018 00:04:57.235023 29901 net.cpp:122] Setting up h_194_lstm1_unit_194_1_split
I1018 00:04:57.235030 29901 net.cpp:129] Top shape: 1 150 512 (76800)
I1018 00:04:57.235035 29901 net.cpp:129] Top shape: 1 150 512 (76800)
I1018 00:04:57.235039 29901 net.cpp:137] Memory required for data: 1317744000
I1018 00:04:57.235044 29901 layer_factory.hpp:77] Creating layer lstm1_h_conted_194
I1018 00:04:57.235051 29901 net.cpp:84] Creating Layer lstm1_h_conted_194
I1018 00:04:57.235057 29901 net.cpp:406] lstm1_h_conted_194 <- h_194_lstm1_unit_194_1_split_0
I1018 00:04:57.235065 29901 net.cpp:406] lstm1_h_conted_194 <- cont_195_lstm1_cont_slice_194_split_0
I1018 00:04:57.235072 29901 net.cpp:380] lstm1_h_conted_194 -> h_conted_194
I1018 00:04:57.235164 29901 net.cpp:122] Setting up lstm1_h_conted_194
I1018 00:04:57.235175 29901 net.cpp:129] Top shape: 1 150 512 (76800)
I1018 00:04:57.235179 29901 net.cpp:137] Memory required for data: 1318051200
I1018 00:04:57.235183 29901 layer_factory.hpp:77] Creating layer lstm1_transform_195
I1018 00:04:57.235195 29901 net.cpp:84] Creating Layer lstm1_transform_195
I1018 00:04:57.235200 29901 net.cpp:406] lstm1_transform_195 <- h_conted_194
I1018 00:04:57.235208 29901 net.cpp:380] lstm1_transform_195 -> W_hc_h_194
I1018 00:04:57.246754 29901 net.cpp:122] Setting up lstm1_transform_195
I1018 00:04:57.246770 29901 net.cpp:129] Top shape: 1 150 2048 (307200)
I1018 00:04:57.246785 29901 net.cpp:137] Memory required for data: 1319280000
I1018 00:04:57.246791 29901 net.cpp:465] Sharing parameters 'W_hc' owned by layer 'lstm1_transform_1', param index 0
I1018 00:04:57.246796 29901 layer_factory.hpp:77] Creating layer lstm1_gate_input_195
I1018 00:04:57.246804 29901 net.cpp:84] Creating Layer lstm1_gate_input_195
I1018 00:04:57.246809 29901 net.cpp:406] lstm1_gate_input_195 <- W_hc_h_194
I1018 00:04:57.246816 29901 net.cpp:406] lstm1_gate_input_195 <- W_xc_x_195
I1018 00:04:57.246822 29901 net.cpp:380] lstm1_gate_input_195 -> gate_input_195
I1018 00:04:57.246855 29901 net.cpp:122] Setting up lstm1_gate_input_195
I1018 00:04:57.246863 29901 net.cpp:129] Top shape: 1 150 2048 (307200)
I1018 00:04:57.246866 29901 net.cpp:137] Memory required for data: 1320508800
I1018 00:04:57.246870 29901 layer_factory.hpp:77] Creating layer lstm1_unit_195
I1018 00:04:57.246876 29901 net.cpp:84] Creating Layer lstm1_unit_195
I1018 00:04:57.246881 29901 net.cpp:406] lstm1_unit_195 <- c_194
I1018 00:04:57.246887 29901 net.cpp:406] lstm1_unit_195 <- gate_input_195
I1018 00:04:57.246892 29901 net.cpp:406] lstm1_unit_195 <- cont_195_lstm1_cont_slice_194_split_1
I1018 00:04:57.246899 29901 net.cpp:380] lstm1_unit_195 -> c_195
I1018 00:04:57.246906 29901 net.cpp:380] lstm1_unit_195 -> h_195
I1018 00:04:57.246954 29901 net.cpp:122] Setting up lstm1_unit_195
I1018 00:04:57.246961 29901 net.cpp:129] Top shape: 1 150 512 (76800)
I1018 00:04:57.246966 29901 net.cpp:129] Top shape: 1 150 512 (76800)
I1018 00:04:57.246969 29901 net.cpp:137] Memory required for data: 1321123200
I1018 00:04:57.246973 29901 layer_factory.hpp:77] Creating layer h_195_lstm1_unit_195_1_split
I1018 00:04:57.246979 29901 net.cpp:84] Creating Layer h_195_lstm1_unit_195_1_split
I1018 00:04:57.246984 29901 net.cpp:406] h_195_lstm1_unit_195_1_split <- h_195
I1018 00:04:57.246991 29901 net.cpp:380] h_195_lstm1_unit_195_1_split -> h_195_lstm1_unit_195_1_split_0
I1018 00:04:57.246999 29901 net.cpp:380] h_195_lstm1_unit_195_1_split -> h_195_lstm1_unit_195_1_split_1
I1018 00:04:57.247035 29901 net.cpp:122] Setting up h_195_lstm1_unit_195_1_split
I1018 00:04:57.247041 29901 net.cpp:129] Top shape: 1 150 512 (76800)
I1018 00:04:57.247045 29901 net.cpp:129] Top shape: 1 150 512 (76800)
I1018 00:04:57.247050 29901 net.cpp:137] Memory required for data: 1321737600
I1018 00:04:57.247054 29901 layer_factory.hpp:77] Creating layer lstm1_h_conted_195
I1018 00:04:57.247061 29901 net.cpp:84] Creating Layer lstm1_h_conted_195
I1018 00:04:57.247066 29901 net.cpp:406] lstm1_h_conted_195 <- h_195_lstm1_unit_195_1_split_0
I1018 00:04:57.247072 29901 net.cpp:406] lstm1_h_conted_195 <- cont_196_lstm1_cont_slice_195_split_0
I1018 00:04:57.247081 29901 net.cpp:380] lstm1_h_conted_195 -> h_conted_195
I1018 00:04:57.247161 29901 net.cpp:122] Setting up lstm1_h_conted_195
I1018 00:04:57.247172 29901 net.cpp:129] Top shape: 1 150 512 (76800)
I1018 00:04:57.247175 29901 net.cpp:137] Memory required for data: 1322044800
I1018 00:04:57.247179 29901 layer_factory.hpp:77] Creating layer lstm1_transform_196
I1018 00:04:57.247189 29901 net.cpp:84] Creating Layer lstm1_transform_196
I1018 00:04:57.247193 29901 net.cpp:406] lstm1_transform_196 <- h_conted_195
I1018 00:04:57.247202 29901 net.cpp:380] lstm1_transform_196 -> W_hc_h_195
I1018 00:04:57.258796 29901 net.cpp:122] Setting up lstm1_transform_196
I1018 00:04:57.258812 29901 net.cpp:129] Top shape: 1 150 2048 (307200)
I1018 00:04:57.258828 29901 net.cpp:137] Memory required for data: 1323273600
I1018 00:04:57.258833 29901 net.cpp:465] Sharing parameters 'W_hc' owned by layer 'lstm1_transform_1', param index 0
I1018 00:04:57.258838 29901 layer_factory.hpp:77] Creating layer lstm1_gate_input_196
I1018 00:04:57.258846 29901 net.cpp:84] Creating Layer lstm1_gate_input_196
I1018 00:04:57.258852 29901 net.cpp:406] lstm1_gate_input_196 <- W_hc_h_195
I1018 00:04:57.258858 29901 net.cpp:406] lstm1_gate_input_196 <- W_xc_x_196
I1018 00:04:57.258865 29901 net.cpp:380] lstm1_gate_input_196 -> gate_input_196
I1018 00:04:57.258894 29901 net.cpp:122] Setting up lstm1_gate_input_196
I1018 00:04:57.258900 29901 net.cpp:129] Top shape: 1 150 2048 (307200)
I1018 00:04:57.258904 29901 net.cpp:137] Memory required for data: 1324502400
I1018 00:04:57.258908 29901 layer_factory.hpp:77] Creating layer lstm1_unit_196
I1018 00:04:57.258919 29901 net.cpp:84] Creating Layer lstm1_unit_196
I1018 00:04:57.258924 29901 net.cpp:406] lstm1_unit_196 <- c_195
I1018 00:04:57.258929 29901 net.cpp:406] lstm1_unit_196 <- gate_input_196
I1018 00:04:57.258935 29901 net.cpp:406] lstm1_unit_196 <- cont_196_lstm1_cont_slice_195_split_1
I1018 00:04:57.258940 29901 net.cpp:380] lstm1_unit_196 -> c_196
I1018 00:04:57.258949 29901 net.cpp:380] lstm1_unit_196 -> h_196
I1018 00:04:57.259014 29901 net.cpp:122] Setting up lstm1_unit_196
I1018 00:04:57.259021 29901 net.cpp:129] Top shape: 1 150 512 (76800)
I1018 00:04:57.259027 29901 net.cpp:129] Top shape: 1 150 512 (76800)
I1018 00:04:57.259030 29901 net.cpp:137] Memory required for data: 1325116800
I1018 00:04:57.259034 29901 layer_factory.hpp:77] Creating layer lstm1_
I1018 00:04:57.259042 29901 net.cpp:84] Creating Layer lstm1_
I1018 00:04:57.259045 29901 net.cpp:406] lstm1_ <- c_196
I1018 00:04:57.259055 29901 net.cpp:380] lstm1_ -> c_T
I1018 00:04:57.259079 29901 net.cpp:122] Setting up lstm1_
I1018 00:04:57.259085 29901 net.cpp:129] Top shape: 1 150 512 (76800)
I1018 00:04:57.259089 29901 net.cpp:137] Memory required for data: 1325424000
I1018 00:04:57.259093 29901 layer_factory.hpp:77] Creating layer lstm1_h_concat
I1018 00:04:57.259120 29901 net.cpp:84] Creating Layer lstm1_h_concat
I1018 00:04:57.259126 29901 net.cpp:406] lstm1_h_concat <- h_1_lstm1_unit_1_1_split_1
I1018 00:04:57.259136 29901 net.cpp:406] lstm1_h_concat <- h_2_lstm1_unit_2_1_split_1
…
I1018 00:04:57.304873 29901 net.cpp:200] lstm1_ does not need backward computation.
I1018 00:04:57.304877 29901 net.cpp:242] This network produces output c_T
I1018 00:04:57.304884 29901 net.cpp:242] This network produces output h_pseudoloss
I1018 00:04:57.467965 29901 net.cpp:255] Network initialization done.
I1018 00:04:57.471416 29901 recurrent_layer.cpp:150] Adding parameter 0: W_xc
I1018 00:04:57.471428 29901 recurrent_layer.cpp:150] Adding parameter 1: b_c
I1018 00:04:57.471444 29901 recurrent_layer.cpp:150] Adding parameter 2: W_hc
I1018 00:04:57.483170 29901 net.cpp:122] Setting up lstm1
I1018 00:04:57.483222 29901 net.cpp:129] Top shape: 196 150 512 (15052800)
I1018 00:04:57.483227 29901 net.cpp:137] Memory required for data: 17431614600
I1018 00:04:57.483243 29901 layer_factory.hpp:77] Creating layer lstm1-drop
I1018 00:04:57.483258 29901 net.cpp:84] Creating Layer lstm1-drop
I1018 00:04:57.483264 29901 net.cpp:406] lstm1-drop <- lstm1
I1018 00:04:57.483278 29901 net.cpp:380] lstm1-drop -> lstm1-drop
I1018 00:04:57.483340 29901 net.cpp:122] Setting up lstm1-drop
I1018 00:04:57.483374 29901 net.cpp:129] Top shape: 196 150 512 (15052800)
I1018 00:04:57.483378 29901 net.cpp:137] Memory required for data: 17491825800
I1018 00:04:57.483383 29901 layer_factory.hpp:77] Creating layer fc-final
I1018 00:04:57.483394 29901 net.cpp:84] Creating Layer fc-final
I1018 00:04:57.483399 29901 net.cpp:406] fc-final <- lstm1-drop
I1018 00:04:57.483410 29901 net.cpp:380] fc-final -> fc-final
I1018 00:04:57.483899 29901 net.cpp:122] Setting up fc-final
I1018 00:04:57.483912 29901 net.cpp:129] Top shape: 196 150 10 (294000)
I1018 00:04:57.483916 29901 net.cpp:137] Memory required for data: 17493001800
I1018 00:04:57.483925 29901 layer_factory.hpp:77] Creating layer fc-final_fc-final_0_split
I1018 00:04:57.483934 29901 net.cpp:84] Creating Layer fc-final_fc-final_0_split
I1018 00:04:57.483939 29901 net.cpp:406] fc-final_fc-final_0_split <- fc-final
I1018 00:04:57.483947 29901 net.cpp:380] fc-final_fc-final_0_split -> fc-final_fc-final_0_split_0
I1018 00:04:57.483966 29901 net.cpp:380] fc-final_fc-final_0_split -> fc-final_fc-final_0_split_1
I1018 00:04:57.484012 29901 net.cpp:122] Setting up fc-final_fc-final_0_split
I1018 00:04:57.484021 29901 net.cpp:129] Top shape: 196 150 10 (294000)
I1018 00:04:57.484050 29901 net.cpp:129] Top shape: 196 150 10 (294000)
I1018 00:04:57.484056 29901 net.cpp:137] Memory required for data: 17495353800
I1018 00:04:57.484061 29901 layer_factory.hpp:77] Creating layer loss
I1018 00:04:57.484069 29901 net.cpp:84] Creating Layer loss
I1018 00:04:57.484074 29901 net.cpp:406] loss <- fc-final_fc-final_0_split_0
I1018 00:04:57.484082 29901 net.cpp:406] loss <- reshape-label_label_tran_0_split_0
I1018 00:04:57.484089 29901 net.cpp:380] loss -> loss
…
