…
I1018 12:24:06.961549 34948 net.cpp:294] The NetState phase (0) differed from the phase (1) specified by a rule in layer Silence
I1018 12:24:06.961786 34948 net.cpp:51] Initializing net from parameters: 
name: "VGG_16_layers_LSTM"
state {
  phase: TRAIN
  level: 0
  stage: ""
}
layer {
  name: "data"
  type: "ImageData"
  top: "data"
  top: "label"
  include {
    phase: TRAIN
  }
  transform_param {
    mirror: true
    crop_size: 288
    mean_value: 104
    mean_value: 117
    mean_value: 123
  }
  image_data_param {
    source: "../Data/lsun_train_list_12w.txt"
    batch_size: 4
    shuffle: true
    new_height: 320
    new_width: 320
  }
}
layer {
  name: "label_tran"
  type: "Python"
  bottom: "label"
  top: "reshape-label"
  top: "clip_markers"
  python_param {
    module: "data_preparation_sort_max_clip"
    layer: "ReshapeLabel"
  }
}
layer {
  name: "conv1_1"
  type: "Convolution"
  bottom: "data"
  top: "conv1_1"
  convolution_param {
    num_output: 64
    pad: 1
    kernel_size: 3
  }
}
layer {
  name: "relu1_1"
  type: "ReLU"
  bottom: "conv1_1"
  top: "conv1_1"
}
layer {
  name: "conv1_2"
  type: "Convolution"
  bottom: "conv1_1"
  top: "conv1_2"
  convolution_param {
    num_output: 64
    pad: 1
    kernel_size: 3
  }
}
layer {
  name: "relu1_2"
  type: "ReLU"
  bottom: "conv1_2"
  top: "conv1_2"
}
layer {
  name: "pool1"
  type: "Pooling"
  bottom: "conv1_2"
  top: "pool1"
  pooling_param {
    pool: MAX
    kernel_size: 2
    stride: 2
  }
}
layer {
  name: "conv2_1"
  type: "Convolution"
  bottom: "pool1"
  top: "conv2_1"
  convolution_param {
    num_output: 128
    pad: 1
    kernel_size: 3
  }
}
layer {
  name: "relu2_1"
  type: "ReLU"
  bottom: "conv2_1"
  top: "conv2_1"
}
layer {
  name: "conv2_2"
  type: "Convolution"
  bottom: "conv2_1"
  top: "conv2_2"
  convolution_param {
    num_output: 128
    pad: 1
    kernel_size: 3
  }
}
layer {
  name: "relu2_2"
  type: "ReLU"
  bottom: "conv2_2"
  top: "conv2_2"
}
layer {
  name: "pool2"
  type: "Pooling"
  bottom: "conv2_2"
  top: "pool2"
  pooling_param {
    pool: MAX
    kernel_size: 2
    stride: 2
  }
}
layer {
  name: "conv3_1"
  type: "Convolution"
  bottom: "pool2"
  top: "conv3_1"
  convolution_param {
    num_output: 256
    pad: 1
    kernel_size: 3
  }
}
layer {
  name: "relu3_1"
  type: "ReLU"
  bottom: "conv3_1"
  top: "conv3_1"
}
layer {
  name: "conv3_2"
  type: "Convolution"
  bottom: "conv3_1"
  top: "conv3_2"
  convolution_param {
    num_output: 256
    pad: 1
    kernel_size: 3
  }
}
layer {
  name: "relu3_2"
  type: "ReLU"
  bottom: "conv3_2"
  top: "conv3_2"
}
layer {
  name: "conv3_3"
  type: "Convolution"
  bottom: "conv3_2"
  top: "conv3_3"
  convolution_param {
    num_output: 256
    pad: 1
    kernel_size: 3
  }
}
layer {
  name: "relu3_3"
  type: "ReLU"
  bottom: "conv3_3"
  top: "conv3_3"
}
layer {
  name: "pool3"
  type: "Pooling"
  bottom: "conv3_3"
  top: "pool3"
  pooling_param {
    pool: MAX
    kernel_size: 2
    stride: 2
  }
}
layer {
  name: "conv4_1"
  type: "Convolution"
  bottom: "pool3"
  top: "conv4_1"
  convolution_param {
    num_output: 512
    pad: 1
    kernel_size: 3
  }
}
layer {
  name: "relu4_1"
  type: "ReLU"
  bottom: "conv4_1"
  top: "conv4_1"
}
layer {
  name: "conv4_2"
  type: "Convolution"
  bottom: "conv4_1"
  top: "conv4_2"
  convolution_param {
    num_output: 512
    pad: 1
    kernel_size: 3
  }
}
layer {
  name: "relu4_2"
  type: "ReLU"
  bottom: "conv4_2"
  top: "conv4_2"
}
layer {
  name: "conv4_3"
  type: "Convolution"
  bottom: "conv4_2"
  top: "conv4_3"
  convolution_param {
    num_output: 512
    pad: 1
    kernel_size: 3
  }
}
layer {
  name: "relu4_3"
  type: "ReLU"
  bottom: "conv4_3"
  top: "conv4_3"
}
layer {
  name: "pool4"
  type: "Pooling"
  bottom: "conv4_3"
  top: "pool4"
  pooling_param {
    pool: MAX
    kernel_size: 2
    stride: 2
  }
}
layer {
  name: "conv5_1"
  type: "Convolution"
  bottom: "pool4"
  top: "conv5_1"
  convolution_param {
    num_output: 512
    pad: 1
    kernel_size: 3
  }
}
layer {
  name: "relu5_1"
  type: "ReLU"
  bottom: "conv5_1"
  top: "conv5_1"
}
layer {
  name: "conv5_2"
  type: "Convolution"
  bottom: "conv5_1"
  top: "conv5_2"
  convolution_param {
    num_output: 512
    pad: 1
    kernel_size: 3
  }
}
layer {
  name: "relu5_2"
  type: "ReLU"
  bottom: "conv5_2"
  top: "conv5_2"
}
layer {
  name: "conv5_3"
  type: "Convolution"
  bottom: "conv5_2"
  top: "conv5_3"
  convolution_param {
    num_output: 512
    pad: 1
    kernel_size: 3
  }
}
layer {
  name: "relu5_3"
  type: "ReLU"
  bottom: "conv5_3"
  top: "conv5_3"
}
layer {
  name: "pool5"
  type: "Pooling"
  bottom: "conv5_3"
  top: "pool5"
  pooling_param {
    pool: MAX
    kernel_size: 2
    stride: 2
  }
}
layer {
  name: "fc6-conv"
  type: "Convolution"
  bottom: "pool5"
  top: "fc6-conv"
  convolution_param {
    num_output: 4096
    kernel_size: 7
  }
}
layer {
  name: "relu6"
  type: "ReLU"
  bottom: "fc6-conv"
  top: "fc6-conv"
}
layer {
  name: "drop6"
  type: "Dropout"
  bottom: "fc6-conv"
  top: "fc6-conv"
  dropout_param {
    dropout_ratio: 0.5
  }
}
layer {
  name: "fc7-conv"
  type: "Convolution"
  bottom: "fc6-conv"
  top: "fc7-conv"
  convolution_param {
    num_output: 4096
    kernel_size: 1
  }
}
layer {
  name: "relu7"
  type: "ReLU"
  bottom: "fc7-conv"
  top: "fc7-conv"
}
layer {
  name: "drop7"
  type: "Dropout"
  bottom: "fc7-conv"
  top: "fc7-conv"
  dropout_param {
    dropout_ratio: 0.9
  }
}
layer {
  name: "fc7-conv_re"
  type: "Reshape"
  bottom: "fc7-conv"
  top: "fc7-conv_re"
  reshape_param {
    shape {
      dim: 0
      dim: 0
      dim: -1
    }
  }
}
layer {
  name: "fc7-conv_tran"
  type: "Python"
  bottom: "fc7-conv_re"
  top: "fc7-conv_tran"
  python_param {
    module: "data_preparation_sort_max_clip"
    layer: "DataTransposeSortRandomClip"
  }
}
layer {
  name: "lstm1"
  type: "LSTM"
  bottom: "fc7-conv_tran"
  bottom: "clip_markers"
  top: "lstm1"
  recurrent_param {
    num_output: 512
    weight_filler {
      type: "uniform"
      min: -0.01
      max: 0.01
    }
    bias_filler {
      type: "constant"
      value: 0
    }
  }
}
layer {
  name: "lstm1-drop"
  type: "Dropout"
  bottom: "lstm1"
  top: "lstm1-drop"
  dropout_param {
    dropout_ratio: 0.5
  }
}
layer {
  name: "fc-final"
  type: "InnerProduct"
  bottom: "lstm1-drop"
  top: "fc-final"
  param {
    lr_mult: 1
    decay_mult: 1
  }
  param {
    lr_mult: 2
    decay_mult: 0
  }
  inner_product_param {
    num_output: 10
    weight_filler {
      type: "gaussian"
      std: 0.01
    }
    bias_filler {
      type: "constant"
      value: 0
    }
    axis: 2
  }
}
layer {
  name: "loss"
  type: "SoftmaxWithLoss"
  bottom: "fc-final"
  bottom: "reshape-label"
  top: "loss"
  softmax_param {
    axis: 2
  }
}
layer {
  name: "accuracy"
  type: "Accuracy"
  bottom: "fc-final"
  bottom: "reshape-label"
  top: "accuracy"
  accuracy_param {
    axis: 2
  }
}
I1018 12:24:06.962041 34948 layer_factory.hpp:77] Creating layer data
I1018 12:24:06.962105 34948 net.cpp:84] Creating Layer data
I1018 12:24:06.962121 34948 net.cpp:380] data -> data
I1018 12:24:06.962170 34948 net.cpp:380] data -> label
I1018 12:24:06.962208 34948 image_data_layer.cpp:38] Opening file ../Data/lsun_train_list_12w.txt
I1018 12:24:07.566682 34948 image_data_layer.cpp:53] Shuffling data
I1018 12:24:07.911303 34948 image_data_layer.cpp:63] A total of 1200000 images.
I1018 12:24:07.921610 34948 image_data_layer.cpp:90] output data size: 4,3,288,288
I1018 12:24:07.940312 34948 net.cpp:122] Setting up data
I1018 12:24:07.940383 34948 net.cpp:129] Top shape: 4 3 288 288 (995328)
I1018 12:24:07.940398 34948 net.cpp:129] Top shape: 4 (4)
I1018 12:24:07.940408 34948 net.cpp:137] Memory required for data: 3981328
I1018 12:24:07.940429 34948 layer_factory.hpp:77] Creating layer label_tran
I1018 12:24:08.618706 34948 net.cpp:84] Creating Layer label_tran
I1018 12:24:08.618744 34948 net.cpp:406] label_tran <- label
I1018 12:24:08.618768 34948 net.cpp:380] label_tran -> reshape-label
I1018 12:24:08.618783 34948 net.cpp:380] label_tran -> clip_markers
I1018 12:24:08.619096 34948 net.cpp:122] Setting up label_tran
I1018 12:24:08.619114 34948 net.cpp:129] Top shape: 4 4 (16)
I1018 12:24:08.619122 34948 net.cpp:129] Top shape: 4 4 (16)
I1018 12:24:08.619125 34948 net.cpp:137] Memory required for data: 3981456
I1018 12:24:08.619137 34948 layer_factory.hpp:77] Creating layer reshape-label_label_tran_0_split
I1018 12:24:08.619163 34948 net.cpp:84] Creating Layer reshape-label_label_tran_0_split
I1018 12:24:08.619170 34948 net.cpp:406] reshape-label_label_tran_0_split <- reshape-label
I1018 12:24:08.619177 34948 net.cpp:380] reshape-label_label_tran_0_split -> reshape-label_label_tran_0_split_0
I1018 12:24:08.619186 34948 net.cpp:380] reshape-label_label_tran_0_split -> reshape-label_label_tran_0_split_1
I1018 12:24:08.619227 34948 net.cpp:122] Setting up reshape-label_label_tran_0_split
I1018 12:24:08.619237 34948 net.cpp:129] Top shape: 4 4 (16)
I1018 12:24:08.619242 34948 net.cpp:129] Top shape: 4 4 (16)
I1018 12:24:08.619246 34948 net.cpp:137] Memory required for data: 3981584
I1018 12:24:08.619251 34948 layer_factory.hpp:77] Creating layer conv1_1
I1018 12:24:08.619277 34948 net.cpp:84] Creating Layer conv1_1
I1018 12:24:08.619284 34948 net.cpp:406] conv1_1 <- data
I1018 12:24:08.619292 34948 net.cpp:380] conv1_1 -> conv1_1
I1018 12:24:08.621268 34948 net.cpp:122] Setting up conv1_1
I1018 12:24:08.621286 34948 net.cpp:129] Top shape: 4 64 288 288 (21233664)
I1018 12:24:08.621292 34948 net.cpp:137] Memory required for data: 88916240
I1018 12:24:08.621317 34948 layer_factory.hpp:77] Creating layer relu1_1
I1018 12:24:08.621330 34948 net.cpp:84] Creating Layer relu1_1
I1018 12:24:08.621335 34948 net.cpp:406] relu1_1 <- conv1_1
I1018 12:24:08.621341 34948 net.cpp:367] relu1_1 -> conv1_1 (in-place)
I1018 12:24:08.621354 34948 net.cpp:122] Setting up relu1_1
I1018 12:24:08.621363 34948 net.cpp:129] Top shape: 4 64 288 288 (21233664)
I1018 12:24:08.621367 34948 net.cpp:137] Memory required for data: 173850896
I1018 12:24:08.621371 34948 layer_factory.hpp:77] Creating layer conv1_2
I1018 12:24:08.621381 34948 net.cpp:84] Creating Layer conv1_2
I1018 12:24:08.621384 34948 net.cpp:406] conv1_2 <- conv1_1
I1018 12:24:08.621390 34948 net.cpp:380] conv1_2 -> conv1_2
I1018 12:24:08.622412 34948 net.cpp:122] Setting up conv1_2
I1018 12:24:08.622429 34948 net.cpp:129] Top shape: 4 64 288 288 (21233664)
I1018 12:24:08.622434 34948 net.cpp:137] Memory required for data: 258785552
I1018 12:24:08.622447 34948 layer_factory.hpp:77] Creating layer relu1_2
I1018 12:24:08.622457 34948 net.cpp:84] Creating Layer relu1_2
I1018 12:24:08.622462 34948 net.cpp:406] relu1_2 <- conv1_2
I1018 12:24:08.622468 34948 net.cpp:367] relu1_2 -> conv1_2 (in-place)
I1018 12:24:08.622476 34948 net.cpp:122] Setting up relu1_2
I1018 12:24:08.622481 34948 net.cpp:129] Top shape: 4 64 288 288 (21233664)
I1018 12:24:08.622485 34948 net.cpp:137] Memory required for data: 343720208
I1018 12:24:08.622489 34948 layer_factory.hpp:77] Creating layer pool1
I1018 12:24:08.622508 34948 net.cpp:84] Creating Layer pool1
I1018 12:24:08.622514 34948 net.cpp:406] pool1 <- conv1_2
I1018 12:24:08.622520 34948 net.cpp:380] pool1 -> pool1
I1018 12:24:08.622576 34948 net.cpp:122] Setting up pool1
I1018 12:24:08.622584 34948 net.cpp:129] Top shape: 4 64 144 144 (5308416)
I1018 12:24:08.622589 34948 net.cpp:137] Memory required for data: 364953872
I1018 12:24:08.622594 34948 layer_factory.hpp:77] Creating layer conv2_1
I1018 12:24:08.622604 34948 net.cpp:84] Creating Layer conv2_1
I1018 12:24:08.622609 34948 net.cpp:406] conv2_1 <- pool1
I1018 12:24:08.622617 34948 net.cpp:380] conv2_1 -> conv2_1
I1018 12:24:08.622869 34948 net.cpp:122] Setting up conv2_1
I1018 12:24:08.622881 34948 net.cpp:129] Top shape: 4 128 144 144 (10616832)
I1018 12:24:08.622885 34948 net.cpp:137] Memory required for data: 407421200
I1018 12:24:08.622895 34948 layer_factory.hpp:77] Creating layer relu2_1
I1018 12:24:08.622905 34948 net.cpp:84] Creating Layer relu2_1
I1018 12:24:08.622910 34948 net.cpp:406] relu2_1 <- conv2_1
I1018 12:24:08.622915 34948 net.cpp:367] relu2_1 -> conv2_1 (in-place)
I1018 12:24:08.622923 34948 net.cpp:122] Setting up relu2_1
I1018 12:24:08.622928 34948 net.cpp:129] Top shape: 4 128 144 144 (10616832)
I1018 12:24:08.622932 34948 net.cpp:137] Memory required for data: 449888528
I1018 12:24:08.622937 34948 layer_factory.hpp:77] Creating layer conv2_2
I1018 12:24:08.622944 34948 net.cpp:84] Creating Layer conv2_2
I1018 12:24:08.622948 34948 net.cpp:406] conv2_2 <- conv2_1
I1018 12:24:08.622954 34948 net.cpp:380] conv2_2 -> conv2_2
I1018 12:24:08.623986 34948 net.cpp:122] Setting up conv2_2
I1018 12:24:08.624002 34948 net.cpp:129] Top shape: 4 128 144 144 (10616832)
I1018 12:24:08.624007 34948 net.cpp:137] Memory required for data: 492355856
I1018 12:24:08.624018 34948 layer_factory.hpp:77] Creating layer relu2_2
I1018 12:24:08.624032 34948 net.cpp:84] Creating Layer relu2_2
I1018 12:24:08.624045 34948 net.cpp:406] relu2_2 <- conv2_2
I1018 12:24:08.624053 34948 net.cpp:367] relu2_2 -> conv2_2 (in-place)
I1018 12:24:08.624060 34948 net.cpp:122] Setting up relu2_2
I1018 12:24:08.624065 34948 net.cpp:129] Top shape: 4 128 144 144 (10616832)
I1018 12:24:08.624069 34948 net.cpp:137] Memory required for data: 534823184
I1018 12:24:08.624073 34948 layer_factory.hpp:77] Creating layer pool2
I1018 12:24:08.624080 34948 net.cpp:84] Creating Layer pool2
I1018 12:24:08.624084 34948 net.cpp:406] pool2 <- conv2_2
I1018 12:24:08.624090 34948 net.cpp:380] pool2 -> pool2
I1018 12:24:08.624126 34948 net.cpp:122] Setting up pool2
I1018 12:24:08.624133 34948 net.cpp:129] Top shape: 4 128 72 72 (2654208)
I1018 12:24:08.624137 34948 net.cpp:137] Memory required for data: 545440016
I1018 12:24:08.624141 34948 layer_factory.hpp:77] Creating layer conv3_1
I1018 12:24:08.624150 34948 net.cpp:84] Creating Layer conv3_1
I1018 12:24:08.624155 34948 net.cpp:406] conv3_1 <- pool2
I1018 12:24:08.624161 34948 net.cpp:380] conv3_1 -> conv3_1
I1018 12:24:08.626036 34948 net.cpp:122] Setting up conv3_1
I1018 12:24:08.626054 34948 net.cpp:129] Top shape: 4 256 72 72 (5308416)
I1018 12:24:08.626058 34948 net.cpp:137] Memory required for data: 566673680
I1018 12:24:08.626070 34948 layer_factory.hpp:77] Creating layer relu3_1
I1018 12:24:08.626080 34948 net.cpp:84] Creating Layer relu3_1
I1018 12:24:08.626085 34948 net.cpp:406] relu3_1 <- conv3_1
I1018 12:24:08.626091 34948 net.cpp:367] relu3_1 -> conv3_1 (in-place)
I1018 12:24:08.626099 34948 net.cpp:122] Setting up relu3_1
I1018 12:24:08.626104 34948 net.cpp:129] Top shape: 4 256 72 72 (5308416)
I1018 12:24:08.626108 34948 net.cpp:137] Memory required for data: 587907344
I1018 12:24:08.626116 34948 layer_factory.hpp:77] Creating layer conv3_2
I1018 12:24:08.626124 34948 net.cpp:84] Creating Layer conv3_2
I1018 12:24:08.626128 34948 net.cpp:406] conv3_2 <- conv3_1
I1018 12:24:08.626135 34948 net.cpp:380] conv3_2 -> conv3_2
I1018 12:24:08.627962 34948 net.cpp:122] Setting up conv3_2
I1018 12:24:08.627977 34948 net.cpp:129] Top shape: 4 256 72 72 (5308416)
I1018 12:24:08.627982 34948 net.cpp:137] Memory required for data: 609141008
I1018 12:24:08.627990 34948 layer_factory.hpp:77] Creating layer relu3_2
I1018 12:24:08.628000 34948 net.cpp:84] Creating Layer relu3_2
I1018 12:24:08.628005 34948 net.cpp:406] relu3_2 <- conv3_2
I1018 12:24:08.628011 34948 net.cpp:367] relu3_2 -> conv3_2 (in-place)
I1018 12:24:08.628020 34948 net.cpp:122] Setting up relu3_2
I1018 12:24:08.628024 34948 net.cpp:129] Top shape: 4 256 72 72 (5308416)
I1018 12:24:08.628034 34948 net.cpp:137] Memory required for data: 630374672
I1018 12:24:08.628038 34948 layer_factory.hpp:77] Creating layer conv3_3
I1018 12:24:08.628051 34948 net.cpp:84] Creating Layer conv3_3
I1018 12:24:08.628056 34948 net.cpp:406] conv3_3 <- conv3_2
I1018 12:24:08.628062 34948 net.cpp:380] conv3_3 -> conv3_3
I1018 12:24:08.629904 34948 net.cpp:122] Setting up conv3_3
I1018 12:24:08.629920 34948 net.cpp:129] Top shape: 4 256 72 72 (5308416)
I1018 12:24:08.629925 34948 net.cpp:137] Memory required for data: 651608336
I1018 12:24:08.629932 34948 layer_factory.hpp:77] Creating layer relu3_3
I1018 12:24:08.629938 34948 net.cpp:84] Creating Layer relu3_3
I1018 12:24:08.629943 34948 net.cpp:406] relu3_3 <- conv3_3
I1018 12:24:08.629951 34948 net.cpp:367] relu3_3 -> conv3_3 (in-place)
I1018 12:24:08.629957 34948 net.cpp:122] Setting up relu3_3
I1018 12:24:08.629963 34948 net.cpp:129] Top shape: 4 256 72 72 (5308416)
I1018 12:24:08.629966 34948 net.cpp:137] Memory required for data: 672842000
I1018 12:24:08.629971 34948 layer_factory.hpp:77] Creating layer pool3
I1018 12:24:08.629979 34948 net.cpp:84] Creating Layer pool3
I1018 12:24:08.629983 34948 net.cpp:406] pool3 <- conv3_3
I1018 12:24:08.629989 34948 net.cpp:380] pool3 -> pool3
I1018 12:24:08.630028 34948 net.cpp:122] Setting up pool3
I1018 12:24:08.630034 34948 net.cpp:129] Top shape: 4 256 36 36 (1327104)
I1018 12:24:08.630038 34948 net.cpp:137] Memory required for data: 678150416
I1018 12:24:08.630044 34948 layer_factory.hpp:77] Creating layer conv4_1
I1018 12:24:08.630053 34948 net.cpp:84] Creating Layer conv4_1
I1018 12:24:08.630058 34948 net.cpp:406] conv4_1 <- pool3
I1018 12:24:08.630064 34948 net.cpp:380] conv4_1 -> conv4_1
I1018 12:24:08.634023 34948 net.cpp:122] Setting up conv4_1
I1018 12:24:08.634042 34948 net.cpp:129] Top shape: 4 512 36 36 (2654208)
I1018 12:24:08.634047 34948 net.cpp:137] Memory required for data: 688767248
I1018 12:24:08.634055 34948 layer_factory.hpp:77] Creating layer relu4_1
I1018 12:24:08.634066 34948 net.cpp:84] Creating Layer relu4_1
I1018 12:24:08.634071 34948 net.cpp:406] relu4_1 <- conv4_1
I1018 12:24:08.634078 34948 net.cpp:367] relu4_1 -> conv4_1 (in-place)
I1018 12:24:08.634086 34948 net.cpp:122] Setting up relu4_1
I1018 12:24:08.634091 34948 net.cpp:129] Top shape: 4 512 36 36 (2654208)
I1018 12:24:08.634095 34948 net.cpp:137] Memory required for data: 699384080
I1018 12:24:08.634099 34948 layer_factory.hpp:77] Creating layer conv4_2
I1018 12:24:08.634109 34948 net.cpp:84] Creating Layer conv4_2
I1018 12:24:08.634114 34948 net.cpp:406] conv4_2 <- conv4_1
I1018 12:24:08.634119 34948 net.cpp:380] conv4_2 -> conv4_2
I1018 12:24:08.639936 34948 net.cpp:122] Setting up conv4_2
I1018 12:24:08.639956 34948 net.cpp:129] Top shape: 4 512 36 36 (2654208)
I1018 12:24:08.639961 34948 net.cpp:137] Memory required for data: 710000912
I1018 12:24:08.639974 34948 layer_factory.hpp:77] Creating layer relu4_2
I1018 12:24:08.639984 34948 net.cpp:84] Creating Layer relu4_2
I1018 12:24:08.639989 34948 net.cpp:406] relu4_2 <- conv4_2
I1018 12:24:08.639997 34948 net.cpp:367] relu4_2 -> conv4_2 (in-place)
I1018 12:24:08.640004 34948 net.cpp:122] Setting up relu4_2
I1018 12:24:08.640010 34948 net.cpp:129] Top shape: 4 512 36 36 (2654208)
I1018 12:24:08.640014 34948 net.cpp:137] Memory required for data: 720617744
I1018 12:24:08.640019 34948 layer_factory.hpp:77] Creating layer conv4_3
I1018 12:24:08.640043 34948 net.cpp:84] Creating Layer conv4_3
I1018 12:24:08.640048 34948 net.cpp:406] conv4_3 <- conv4_2
I1018 12:24:08.640055 34948 net.cpp:380] conv4_3 -> conv4_3
I1018 12:24:08.645954 34948 net.cpp:122] Setting up conv4_3
I1018 12:24:08.645978 34948 net.cpp:129] Top shape: 4 512 36 36 (2654208)
I1018 12:24:08.645983 34948 net.cpp:137] Memory required for data: 731234576
I1018 12:24:08.645992 34948 layer_factory.hpp:77] Creating layer relu4_3
I1018 12:24:08.645999 34948 net.cpp:84] Creating Layer relu4_3
I1018 12:24:08.646004 34948 net.cpp:406] relu4_3 <- conv4_3
I1018 12:24:08.646013 34948 net.cpp:367] relu4_3 -> conv4_3 (in-place)
I1018 12:24:08.646021 34948 net.cpp:122] Setting up relu4_3
I1018 12:24:08.646026 34948 net.cpp:129] Top shape: 4 512 36 36 (2654208)
I1018 12:24:08.646030 34948 net.cpp:137] Memory required for data: 741851408
I1018 12:24:08.646034 34948 layer_factory.hpp:77] Creating layer pool4
I1018 12:24:08.646044 34948 net.cpp:84] Creating Layer pool4
I1018 12:24:08.646049 34948 net.cpp:406] pool4 <- conv4_3
I1018 12:24:08.646055 34948 net.cpp:380] pool4 -> pool4
I1018 12:24:08.646096 34948 net.cpp:122] Setting up pool4
I1018 12:24:08.646103 34948 net.cpp:129] Top shape: 4 512 18 18 (663552)
I1018 12:24:08.646107 34948 net.cpp:137] Memory required for data: 744505616
I1018 12:24:08.646111 34948 layer_factory.hpp:77] Creating layer conv5_1
I1018 12:24:08.646124 34948 net.cpp:84] Creating Layer conv5_1
I1018 12:24:08.646129 34948 net.cpp:406] conv5_1 <- pool4
I1018 12:24:08.646136 34948 net.cpp:380] conv5_1 -> conv5_1
I1018 12:24:08.652518 34948 net.cpp:122] Setting up conv5_1
I1018 12:24:08.652542 34948 net.cpp:129] Top shape: 4 512 18 18 (663552)
I1018 12:24:08.652546 34948 net.cpp:137] Memory required for data: 747159824
I1018 12:24:08.652556 34948 layer_factory.hpp:77] Creating layer relu5_1
I1018 12:24:08.652566 34948 net.cpp:84] Creating Layer relu5_1
I1018 12:24:08.652571 34948 net.cpp:406] relu5_1 <- conv5_1
I1018 12:24:08.652580 34948 net.cpp:367] relu5_1 -> conv5_1 (in-place)
I1018 12:24:08.652590 34948 net.cpp:122] Setting up relu5_1
I1018 12:24:08.652600 34948 net.cpp:129] Top shape: 4 512 18 18 (663552)
I1018 12:24:08.652603 34948 net.cpp:137] Memory required for data: 749814032
I1018 12:24:08.652608 34948 layer_factory.hpp:77] Creating layer conv5_2
I1018 12:24:08.652616 34948 net.cpp:84] Creating Layer conv5_2
I1018 12:24:08.652621 34948 net.cpp:406] conv5_2 <- conv5_1
I1018 12:24:08.652629 34948 net.cpp:380] conv5_2 -> conv5_2
I1018 12:24:08.658596 34948 net.cpp:122] Setting up conv5_2
I1018 12:24:08.658617 34948 net.cpp:129] Top shape: 4 512 18 18 (663552)
I1018 12:24:08.658622 34948 net.cpp:137] Memory required for data: 752468240
I1018 12:24:08.658629 34948 layer_factory.hpp:77] Creating layer relu5_2
I1018 12:24:08.658638 34948 net.cpp:84] Creating Layer relu5_2
I1018 12:24:08.658643 34948 net.cpp:406] relu5_2 <- conv5_2
I1018 12:24:08.658653 34948 net.cpp:367] relu5_2 -> conv5_2 (in-place)
I1018 12:24:08.658660 34948 net.cpp:122] Setting up relu5_2
I1018 12:24:08.658666 34948 net.cpp:129] Top shape: 4 512 18 18 (663552)
I1018 12:24:08.658670 34948 net.cpp:137] Memory required for data: 755122448
I1018 12:24:08.658674 34948 layer_factory.hpp:77] Creating layer conv5_3
I1018 12:24:08.658684 34948 net.cpp:84] Creating Layer conv5_3
I1018 12:24:08.658689 34948 net.cpp:406] conv5_3 <- conv5_2
I1018 12:24:08.658694 34948 net.cpp:380] conv5_3 -> conv5_3
I1018 12:24:08.664566 34948 net.cpp:122] Setting up conv5_3
I1018 12:24:08.664592 34948 net.cpp:129] Top shape: 4 512 18 18 (663552)
I1018 12:24:08.664597 34948 net.cpp:137] Memory required for data: 757776656
I1018 12:24:08.664605 34948 layer_factory.hpp:77] Creating layer relu5_3
I1018 12:24:08.664621 34948 net.cpp:84] Creating Layer relu5_3
I1018 12:24:08.664626 34948 net.cpp:406] relu5_3 <- conv5_3
I1018 12:24:08.664633 34948 net.cpp:367] relu5_3 -> conv5_3 (in-place)
I1018 12:24:08.664643 34948 net.cpp:122] Setting up relu5_3
I1018 12:24:08.664647 34948 net.cpp:129] Top shape: 4 512 18 18 (663552)
I1018 12:24:08.664651 34948 net.cpp:137] Memory required for data: 760430864
I1018 12:24:08.664656 34948 layer_factory.hpp:77] Creating layer pool5
I1018 12:24:08.664665 34948 net.cpp:84] Creating Layer pool5
I1018 12:24:08.664670 34948 net.cpp:406] pool5 <- conv5_3
I1018 12:24:08.664676 34948 net.cpp:380] pool5 -> pool5
I1018 12:24:08.664717 34948 net.cpp:122] Setting up pool5
I1018 12:24:08.664724 34948 net.cpp:129] Top shape: 4 512 9 9 (165888)
I1018 12:24:08.664728 34948 net.cpp:137] Memory required for data: 761094416
I1018 12:24:08.664732 34948 layer_factory.hpp:77] Creating layer fc6-conv
I1018 12:24:08.664743 34948 net.cpp:84] Creating Layer fc6-conv
I1018 12:24:08.664747 34948 net.cpp:406] fc6-conv <- pool5
I1018 12:24:08.664753 34948 net.cpp:380] fc6-conv -> fc6-conv
I1018 12:24:08.932826 34948 net.cpp:122] Setting up fc6-conv
I1018 12:24:08.932868 34948 net.cpp:129] Top shape: 4 4096 3 3 (147456)
I1018 12:24:08.932873 34948 net.cpp:137] Memory required for data: 761684240
I1018 12:24:08.932885 34948 layer_factory.hpp:77] Creating layer relu6
I1018 12:24:08.932901 34948 net.cpp:84] Creating Layer relu6
I1018 12:24:08.932909 34948 net.cpp:406] relu6 <- fc6-conv
I1018 12:24:08.932919 34948 net.cpp:367] relu6 -> fc6-conv (in-place)
I1018 12:24:08.932932 34948 net.cpp:122] Setting up relu6
I1018 12:24:08.932937 34948 net.cpp:129] Top shape: 4 4096 3 3 (147456)
I1018 12:24:08.932941 34948 net.cpp:137] Memory required for data: 762274064
I1018 12:24:08.932946 34948 layer_factory.hpp:77] Creating layer drop6
I1018 12:24:08.932963 34948 net.cpp:84] Creating Layer drop6
I1018 12:24:08.932971 34948 net.cpp:406] drop6 <- fc6-conv
I1018 12:24:08.932976 34948 net.cpp:367] drop6 -> fc6-conv (in-place)
I1018 12:24:08.933008 34948 net.cpp:122] Setting up drop6
I1018 12:24:08.933018 34948 net.cpp:129] Top shape: 4 4096 3 3 (147456)
I1018 12:24:08.933022 34948 net.cpp:137] Memory required for data: 762863888
I1018 12:24:08.933027 34948 layer_factory.hpp:77] Creating layer fc7-conv
I1018 12:24:08.933037 34948 net.cpp:84] Creating Layer fc7-conv
I1018 12:24:08.933044 34948 net.cpp:406] fc7-conv <- fc6-conv
I1018 12:24:08.933053 34948 net.cpp:380] fc7-conv -> fc7-conv
I1018 12:24:08.978057 34948 net.cpp:122] Setting up fc7-conv
I1018 12:24:08.978102 34948 net.cpp:129] Top shape: 4 4096 3 3 (147456)
I1018 12:24:08.978108 34948 net.cpp:137] Memory required for data: 763453712
I1018 12:24:08.978121 34948 layer_factory.hpp:77] Creating layer relu7
I1018 12:24:08.978138 34948 net.cpp:84] Creating Layer relu7
I1018 12:24:08.978145 34948 net.cpp:406] relu7 <- fc7-conv
I1018 12:24:08.978154 34948 net.cpp:367] relu7 -> fc7-conv (in-place)
I1018 12:24:08.978168 34948 net.cpp:122] Setting up relu7
I1018 12:24:08.978174 34948 net.cpp:129] Top shape: 4 4096 3 3 (147456)
I1018 12:24:08.978178 34948 net.cpp:137] Memory required for data: 764043536
I1018 12:24:08.978183 34948 layer_factory.hpp:77] Creating layer drop7
I1018 12:24:08.978193 34948 net.cpp:84] Creating Layer drop7
I1018 12:24:08.978201 34948 net.cpp:406] drop7 <- fc7-conv
I1018 12:24:08.978207 34948 net.cpp:367] drop7 -> fc7-conv (in-place)
I1018 12:24:08.978237 34948 net.cpp:122] Setting up drop7
I1018 12:24:08.978245 34948 net.cpp:129] Top shape: 4 4096 3 3 (147456)
I1018 12:24:08.978248 34948 net.cpp:137] Memory required for data: 764633360
I1018 12:24:08.978252 34948 layer_factory.hpp:77] Creating layer fc7-conv_re
I1018 12:24:08.978272 34948 net.cpp:84] Creating Layer fc7-conv_re
I1018 12:24:08.978276 34948 net.cpp:406] fc7-conv_re <- fc7-conv
I1018 12:24:08.978282 34948 net.cpp:380] fc7-conv_re -> fc7-conv_re
I1018 12:24:08.978328 34948 net.cpp:122] Setting up fc7-conv_re
I1018 12:24:08.978335 34948 net.cpp:129] Top shape: 4 4096 9 (147456)
I1018 12:24:08.978339 34948 net.cpp:137] Memory required for data: 765223184
I1018 12:24:08.978343 34948 layer_factory.hpp:77] Creating layer fc7-conv_tran
I1018 12:24:08.978421 34948 net.cpp:84] Creating Layer fc7-conv_tran
I1018 12:24:08.978432 34948 net.cpp:406] fc7-conv_tran <- fc7-conv_re
I1018 12:24:08.978440 34948 net.cpp:380] fc7-conv_tran -> fc7-conv_tran
I1018 12:24:08.979678 34948 net.cpp:122] Setting up fc7-conv_tran
I1018 12:24:08.979696 34948 net.cpp:129] Top shape: 4 4 4096 (65536)
I1018 12:24:08.979701 34948 net.cpp:137] Memory required for data: 765485328
I1018 12:24:08.979707 34948 layer_factory.hpp:77] Creating layer lstm1
I1018 12:24:08.979722 34948 net.cpp:84] Creating Layer lstm1
I1018 12:24:08.979727 34948 net.cpp:406] lstm1 <- fc7-conv_tran
I1018 12:24:08.979733 34948 net.cpp:406] lstm1 <- clip_markers
I1018 12:24:08.979743 34948 net.cpp:380] lstm1 -> lstm1
I1018 12:24:08.979760 34948 recurrent_layer.cpp:20] Initializing recurrent layer: assuming input batch contains 4 timesteps of 4 independent streams.
I1018 12:24:08.980240 34948 net.cpp:51] Initializing net from parameters: 
layer {
  name: "lstm1_"
  type: "Input"
  top: "x"
  top: "cont"
  input_param {
    shape {
      dim: 4
      dim: 4
      dim: 4096
    }
    shape {
      dim: 4
      dim: 4
    }
  }
}
layer {
  name: "lstm1_"
  type: "Input"
  top: "c_0"
  top: "h_0"
  input_param {
    shape {
      dim: 1
      dim: 4
      dim: 512
    }
    shape {
      dim: 1
      dim: 4
      dim: 512
    }
  }
}
layer {
  name: "lstm1_cont_slice"
  type: "Slice"
  bottom: "cont"
  top: "cont_1"
  top: "cont_2"
  top: "cont_3"
  top: "cont_4"
  slice_param {
    axis: 0
  }
}
layer {
  name: "lstm1_x_transform"
  type: "InnerProduct"
  bottom: "x"
  top: "W_xc_x"
  param {
    name: "W_xc"
  }
  param {
    name: "b_c"
  }
  propagate_down: true
  inner_product_param {
    num_output: 2048
    bias_term: true
    weight_filler {
      type: "uniform"
      min: -0.01
      max: 0.01
    }
    bias_filler {
      type: "constant"
      value: 0
    }
    axis: 2
  }
}
layer {
  name: "lstm1_W_xc_x_slice"
  type: "Slice"
  bottom: "W_xc_x"
  top: "W_xc_x_1"
  top: "W_xc_x_2"
  top: "W_xc_x_3"
  top: "W_xc_x_4"
  slice_param {
    axis: 0
  }
}
layer {
  name: "lstm1_h_conted_0"
  type: "Scale"
  bottom: "h_0"
  bottom: "cont_1"
  top: "h_conted_0"
  scale_param {
    axis: 0
  }
}
layer {
  name: "lstm1_transform_1"
  type: "InnerProduct"
  bottom: "h_conted_0"
  top: "W_hc_h_0"
  param {
    name: "W_hc"
  }
  inner_product_param {
    num_output: 2048
    bias_term: false
    weight_filler {
      type: "uniform"
      min: -0.01
      max: 0.01
    }
    axis: 2
  }
}
layer {
  name: "lstm1_gate_input_1"
  type: "Eltwise"
  bottom: "W_hc_h_0"
  bottom: "W_xc_x_1"
  top: "gate_input_1"
  eltwise_param {
    operation: SUM
  }
}
layer {
  name: "lstm1_unit_1"
  type: "LSTMUnit"
  bottom: "c_0"
  bottom: "gate_input_1"
  bottom: "cont_1"
  top: "c_1"
  top: "h_1"
}
layer {
  name: "lstm1_h_conted_1"
  type: "Scale"
  bottom: "h_1"
  bottom: "cont_2"
  top: "h_conted_1"
  scale_param {
    axis: 0
  }
}
layer {
  name: "lstm1_transform_2"
  type: "InnerProduct"
  bottom: "h_conted_1"
  top: "W_hc_h_1"
  param {
    name: "W_hc"
  }
  inner_product_param {
    num_output: 2048
    bias_term: false
    weight_filler {
      type: "uniform"
      min: -0.01
      max: 0.01
    }
    axis: 2
  }
}
layer {
  name: "lstm1_gate_input_2"
  type: "Eltwise"
  bottom: "W_hc_h_1"
  bottom: "W_xc_x_2"
  top: "gate_input_2"
  eltwise_param {
    operation: SUM
  }
}
layer {
  name: "lstm1_unit_2"
  type: "LSTMUnit"
  bottom: "c_1"
  bottom: "gate_input_2"
  bottom: "cont_2"
  top: "c_2"
  top: "h_2"
}
layer {
  name: "lstm1_h_conted_2"
  type: "Scale"
  bottom: "h_2"
  bottom: "cont_3"
  top: "h_conted_2"
  scale_param {
    axis: 0
  }
}
layer {
  name: "lstm1_transform_3"
  type: "InnerProduct"
  bottom: "h_conted_2"
  top: "W_hc_h_2"
  param {
    name: "W_hc"
  }
  inner_product_param {
    num_output: 2048
    bias_term: false
    weight_filler {
      type: "uniform"
      min: -0.01
      max: 0.01
    }
    axis: 2
  }
}
layer {
  name: "lstm1_gate_input_3"
  type: "Eltwise"
  bottom: "W_hc_h_2"
  bottom: "W_xc_x_3"
  top: "gate_input_3"
  eltwise_param {
    operation: SUM
  }
}
layer {
  name: "lstm1_unit_3"
  type: "LSTMUnit"
  bottom: "c_2"
  bottom: "gate_input_3"
  bottom: "cont_3"
  top: "c_3"
  top: "h_3"
}
layer {
  name: "lstm1_h_conted_3"
  type: "Scale"
  bottom: "h_3"
  bottom: "cont_4"
  top: "h_conted_3"
  scale_param {
    axis: 0
  }
}
layer {
  name: "lstm1_transform_4"
  type: "InnerProduct"
  bottom: "h_conted_3"
  top: "W_hc_h_3"
  param {
    name: "W_hc"
  }
  inner_product_param {
    num_output: 2048
    bias_term: false
    weight_filler {
      type: "uniform"
      min: -0.01
      max: 0.01
    }
    axis: 2
  }
}
layer {
  name: "lstm1_gate_input_4"
  type: "Eltwise"
  bottom: "W_hc_h_3"
  bottom: "W_xc_x_4"
  top: "gate_input_4"
  eltwise_param {
    operation: SUM
  }
}
layer {
  name: "lstm1_unit_4"
  type: "LSTMUnit"
  bottom: "c_3"
  bottom: "gate_input_4"
  bottom: "cont_4"
  top: "c_4"
  top: "h_4"
}
layer {
  name: "lstm1_"
  type: "Split"
  bottom: "c_4"
  top: "c_T"
}
layer {
  name: "lstm1_h_concat"
  type: "Concat"
  bottom: "h_1"
  bottom: "h_2"
  bottom: "h_3"
  bottom: "h_4"
  top: "h"
  concat_param {
    axis: 0
  }
}
layer {
  name: "h_pseudoloss"
  type: "Reduction"
  bottom: "h"
  top: "h_pseudoloss"
  loss_weight: 1
}
I1018 12:24:08.980418 34948 layer_factory.hpp:77] Creating layer lstm1_
I1018 12:24:08.980438 34948 net.cpp:84] Creating Layer lstm1_
I1018 12:24:08.980445 34948 net.cpp:380] lstm1_ -> x
I1018 12:24:08.980459 34948 net.cpp:380] lstm1_ -> cont
I1018 12:24:08.980507 34948 net.cpp:122] Setting up lstm1_
I1018 12:24:08.980516 34948 net.cpp:129] Top shape: 4 4 4096 (65536)
I1018 12:24:08.980522 34948 net.cpp:129] Top shape: 4 4 (16)
I1018 12:24:08.980526 34948 net.cpp:137] Memory required for data: 262208
I1018 12:24:08.980531 34948 layer_factory.hpp:77] Creating layer lstm1_
I1018 12:24:08.980538 34948 net.cpp:84] Creating Layer lstm1_
I1018 12:24:08.980543 34948 net.cpp:380] lstm1_ -> c_0
I1018 12:24:08.980552 34948 net.cpp:380] lstm1_ -> h_0
I1018 12:24:08.980594 34948 net.cpp:122] Setting up lstm1_
I1018 12:24:08.980602 34948 net.cpp:129] Top shape: 1 4 512 (2048)
I1018 12:24:08.980607 34948 net.cpp:129] Top shape: 1 4 512 (2048)
I1018 12:24:08.980610 34948 net.cpp:137] Memory required for data: 278592
I1018 12:24:08.980614 34948 layer_factory.hpp:77] Creating layer lstm1_cont_slice
I1018 12:24:08.980626 34948 net.cpp:84] Creating Layer lstm1_cont_slice
I1018 12:24:08.980630 34948 net.cpp:406] lstm1_cont_slice <- cont
I1018 12:24:08.980640 34948 net.cpp:380] lstm1_cont_slice -> cont_1
I1018 12:24:08.980649 34948 net.cpp:380] lstm1_cont_slice -> cont_2
I1018 12:24:08.980655 34948 net.cpp:380] lstm1_cont_slice -> cont_3
I1018 12:24:08.980661 34948 net.cpp:380] lstm1_cont_slice -> cont_4
I1018 12:24:08.980722 34948 net.cpp:122] Setting up lstm1_cont_slice
I1018 12:24:08.980729 34948 net.cpp:129] Top shape: 1 4 (4)
I1018 12:24:08.980734 34948 net.cpp:129] Top shape: 1 4 (4)
I1018 12:24:08.980738 34948 net.cpp:129] Top shape: 1 4 (4)
I1018 12:24:08.980743 34948 net.cpp:129] Top shape: 1 4 (4)
I1018 12:24:08.980747 34948 net.cpp:137] Memory required for data: 278656
I1018 12:24:08.980751 34948 layer_factory.hpp:77] Creating layer cont_1_lstm1_cont_slice_0_split
I1018 12:24:08.980758 34948 net.cpp:84] Creating Layer cont_1_lstm1_cont_slice_0_split
I1018 12:24:08.980762 34948 net.cpp:406] cont_1_lstm1_cont_slice_0_split <- cont_1
I1018 12:24:08.980768 34948 net.cpp:380] cont_1_lstm1_cont_slice_0_split -> cont_1_lstm1_cont_slice_0_split_0
I1018 12:24:08.980775 34948 net.cpp:380] cont_1_lstm1_cont_slice_0_split -> cont_1_lstm1_cont_slice_0_split_1
I1018 12:24:08.980809 34948 net.cpp:122] Setting up cont_1_lstm1_cont_slice_0_split
I1018 12:24:08.980816 34948 net.cpp:129] Top shape: 1 4 (4)
I1018 12:24:08.980820 34948 net.cpp:129] Top shape: 1 4 (4)
I1018 12:24:08.980824 34948 net.cpp:137] Memory required for data: 278688
I1018 12:24:08.980829 34948 layer_factory.hpp:77] Creating layer cont_2_lstm1_cont_slice_1_split
I1018 12:24:08.980834 34948 net.cpp:84] Creating Layer cont_2_lstm1_cont_slice_1_split
I1018 12:24:08.980837 34948 net.cpp:406] cont_2_lstm1_cont_slice_1_split <- cont_2
I1018 12:24:08.980849 34948 net.cpp:380] cont_2_lstm1_cont_slice_1_split -> cont_2_lstm1_cont_slice_1_split_0
I1018 12:24:08.980855 34948 net.cpp:380] cont_2_lstm1_cont_slice_1_split -> cont_2_lstm1_cont_slice_1_split_1
I1018 12:24:08.980885 34948 net.cpp:122] Setting up cont_2_lstm1_cont_slice_1_split
I1018 12:24:08.980891 34948 net.cpp:129] Top shape: 1 4 (4)
I1018 12:24:08.980896 34948 net.cpp:129] Top shape: 1 4 (4)
I1018 12:24:08.980900 34948 net.cpp:137] Memory required for data: 278720
I1018 12:24:08.980903 34948 layer_factory.hpp:77] Creating layer cont_3_lstm1_cont_slice_2_split
I1018 12:24:08.980911 34948 net.cpp:84] Creating Layer cont_3_lstm1_cont_slice_2_split
I1018 12:24:08.980914 34948 net.cpp:406] cont_3_lstm1_cont_slice_2_split <- cont_3
I1018 12:24:08.980919 34948 net.cpp:380] cont_3_lstm1_cont_slice_2_split -> cont_3_lstm1_cont_slice_2_split_0
I1018 12:24:08.980928 34948 net.cpp:380] cont_3_lstm1_cont_slice_2_split -> cont_3_lstm1_cont_slice_2_split_1
I1018 12:24:08.980960 34948 net.cpp:122] Setting up cont_3_lstm1_cont_slice_2_split
I1018 12:24:08.980967 34948 net.cpp:129] Top shape: 1 4 (4)
I1018 12:24:08.980971 34948 net.cpp:129] Top shape: 1 4 (4)
I1018 12:24:08.980975 34948 net.cpp:137] Memory required for data: 278752
I1018 12:24:08.980979 34948 layer_factory.hpp:77] Creating layer cont_4_lstm1_cont_slice_3_split
I1018 12:24:08.980984 34948 net.cpp:84] Creating Layer cont_4_lstm1_cont_slice_3_split
I1018 12:24:08.980988 34948 net.cpp:406] cont_4_lstm1_cont_slice_3_split <- cont_4
I1018 12:24:08.980993 34948 net.cpp:380] cont_4_lstm1_cont_slice_3_split -> cont_4_lstm1_cont_slice_3_split_0
I1018 12:24:08.980999 34948 net.cpp:380] cont_4_lstm1_cont_slice_3_split -> cont_4_lstm1_cont_slice_3_split_1
I1018 12:24:08.981030 34948 net.cpp:122] Setting up cont_4_lstm1_cont_slice_3_split
I1018 12:24:08.981036 34948 net.cpp:129] Top shape: 1 4 (4)
I1018 12:24:08.981040 34948 net.cpp:129] Top shape: 1 4 (4)
I1018 12:24:08.981045 34948 net.cpp:137] Memory required for data: 278784
I1018 12:24:08.981048 34948 layer_factory.hpp:77] Creating layer lstm1_x_transform
I1018 12:24:08.981060 34948 net.cpp:84] Creating Layer lstm1_x_transform
I1018 12:24:08.981065 34948 net.cpp:406] lstm1_x_transform <- x
I1018 12:24:08.981072 34948 net.cpp:380] lstm1_x_transform -> W_xc_x
I1018 12:24:09.086222 34948 net.cpp:122] Setting up lstm1_x_transform
I1018 12:24:09.086266 34948 net.cpp:129] Top shape: 4 4 2048 (32768)
I1018 12:24:09.086272 34948 net.cpp:137] Memory required for data: 409856
I1018 12:24:09.086289 34948 layer_factory.hpp:77] Creating layer lstm1_W_xc_x_slice
I1018 12:24:09.086307 34948 net.cpp:84] Creating Layer lstm1_W_xc_x_slice
I1018 12:24:09.086313 34948 net.cpp:406] lstm1_W_xc_x_slice <- W_xc_x
I1018 12:24:09.086324 34948 net.cpp:380] lstm1_W_xc_x_slice -> W_xc_x_1
I1018 12:24:09.086338 34948 net.cpp:380] lstm1_W_xc_x_slice -> W_xc_x_2
I1018 12:24:09.086346 34948 net.cpp:380] lstm1_W_xc_x_slice -> W_xc_x_3
I1018 12:24:09.086354 34948 net.cpp:380] lstm1_W_xc_x_slice -> W_xc_x_4
I1018 12:24:09.086426 34948 net.cpp:122] Setting up lstm1_W_xc_x_slice
I1018 12:24:09.086444 34948 net.cpp:129] Top shape: 1 4 2048 (8192)
I1018 12:24:09.086450 34948 net.cpp:129] Top shape: 1 4 2048 (8192)
I1018 12:24:09.086457 34948 net.cpp:129] Top shape: 1 4 2048 (8192)
I1018 12:24:09.086462 34948 net.cpp:129] Top shape: 1 4 2048 (8192)
I1018 12:24:09.086467 34948 net.cpp:137] Memory required for data: 540928
I1018 12:24:09.086472 34948 layer_factory.hpp:77] Creating layer lstm1_h_conted_0
I1018 12:24:09.086494 34948 net.cpp:84] Creating Layer lstm1_h_conted_0
I1018 12:24:09.086503 34948 net.cpp:406] lstm1_h_conted_0 <- h_0
I1018 12:24:09.086510 34948 net.cpp:406] lstm1_h_conted_0 <- cont_1_lstm1_cont_slice_0_split_0
I1018 12:24:09.086518 34948 net.cpp:380] lstm1_h_conted_0 -> h_conted_0
I1018 12:24:09.086618 34948 net.cpp:122] Setting up lstm1_h_conted_0
I1018 12:24:09.086628 34948 net.cpp:129] Top shape: 1 4 512 (2048)
I1018 12:24:09.086632 34948 net.cpp:137] Memory required for data: 549120
I1018 12:24:09.086637 34948 layer_factory.hpp:77] Creating layer lstm1_transform_1
I1018 12:24:09.086647 34948 net.cpp:84] Creating Layer lstm1_transform_1
I1018 12:24:09.086653 34948 net.cpp:406] lstm1_transform_1 <- h_conted_0
I1018 12:24:09.086663 34948 net.cpp:380] lstm1_transform_1 -> W_hc_h_0
I1018 12:24:09.100193 34948 net.cpp:122] Setting up lstm1_transform_1
I1018 12:24:09.100221 34948 net.cpp:129] Top shape: 1 4 2048 (8192)
I1018 12:24:09.100226 34948 net.cpp:137] Memory required for data: 581888
I1018 12:24:09.100240 34948 layer_factory.hpp:77] Creating layer lstm1_gate_input_1
I1018 12:24:09.100252 34948 net.cpp:84] Creating Layer lstm1_gate_input_1
I1018 12:24:09.100258 34948 net.cpp:406] lstm1_gate_input_1 <- W_hc_h_0
I1018 12:24:09.100265 34948 net.cpp:406] lstm1_gate_input_1 <- W_xc_x_1
I1018 12:24:09.100273 34948 net.cpp:380] lstm1_gate_input_1 -> gate_input_1
I1018 12:24:09.100317 34948 net.cpp:122] Setting up lstm1_gate_input_1
I1018 12:24:09.100338 34948 net.cpp:129] Top shape: 1 4 2048 (8192)
I1018 12:24:09.100343 34948 net.cpp:137] Memory required for data: 614656
I1018 12:24:09.100347 34948 layer_factory.hpp:77] Creating layer lstm1_unit_1
I1018 12:24:09.100363 34948 net.cpp:84] Creating Layer lstm1_unit_1
I1018 12:24:09.100368 34948 net.cpp:406] lstm1_unit_1 <- c_0
I1018 12:24:09.100375 34948 net.cpp:406] lstm1_unit_1 <- gate_input_1
I1018 12:24:09.100380 34948 net.cpp:406] lstm1_unit_1 <- cont_1_lstm1_cont_slice_0_split_1
I1018 12:24:09.100388 34948 net.cpp:380] lstm1_unit_1 -> c_1
I1018 12:24:09.100396 34948 net.cpp:380] lstm1_unit_1 -> h_1
I1018 12:24:09.100450 34948 net.cpp:122] Setting up lstm1_unit_1
I1018 12:24:09.100461 34948 net.cpp:129] Top shape: 1 4 512 (2048)
I1018 12:24:09.100466 34948 net.cpp:129] Top shape: 1 4 512 (2048)
I1018 12:24:09.100471 34948 net.cpp:137] Memory required for data: 631040
I1018 12:24:09.100474 34948 layer_factory.hpp:77] Creating layer h_1_lstm1_unit_1_1_split
I1018 12:24:09.100482 34948 net.cpp:84] Creating Layer h_1_lstm1_unit_1_1_split
I1018 12:24:09.100487 34948 net.cpp:406] h_1_lstm1_unit_1_1_split <- h_1
I1018 12:24:09.100497 34948 net.cpp:380] h_1_lstm1_unit_1_1_split -> h_1_lstm1_unit_1_1_split_0
I1018 12:24:09.100504 34948 net.cpp:380] h_1_lstm1_unit_1_1_split -> h_1_lstm1_unit_1_1_split_1
I1018 12:24:09.100538 34948 net.cpp:122] Setting up h_1_lstm1_unit_1_1_split
I1018 12:24:09.100546 34948 net.cpp:129] Top shape: 1 4 512 (2048)
I1018 12:24:09.100553 34948 net.cpp:129] Top shape: 1 4 512 (2048)
I1018 12:24:09.100556 34948 net.cpp:137] Memory required for data: 647424
I1018 12:24:09.100561 34948 layer_factory.hpp:77] Creating layer lstm1_h_conted_1
I1018 12:24:09.100579 34948 net.cpp:84] Creating Layer lstm1_h_conted_1
I1018 12:24:09.100584 34948 net.cpp:406] lstm1_h_conted_1 <- h_1_lstm1_unit_1_1_split_0
I1018 12:24:09.100591 34948 net.cpp:406] lstm1_h_conted_1 <- cont_2_lstm1_cont_slice_1_split_0
I1018 12:24:09.100599 34948 net.cpp:380] lstm1_h_conted_1 -> h_conted_1
I1018 12:24:09.100672 34948 net.cpp:122] Setting up lstm1_h_conted_1
I1018 12:24:09.100682 34948 net.cpp:129] Top shape: 1 4 512 (2048)
I1018 12:24:09.100685 34948 net.cpp:137] Memory required for data: 655616
I1018 12:24:09.100690 34948 layer_factory.hpp:77] Creating layer lstm1_transform_2
I1018 12:24:09.100703 34948 net.cpp:84] Creating Layer lstm1_transform_2
I1018 12:24:09.100708 34948 net.cpp:406] lstm1_transform_2 <- h_conted_1
I1018 12:24:09.100715 34948 net.cpp:380] lstm1_transform_2 -> W_hc_h_1
I1018 12:24:09.113894 34948 net.cpp:122] Setting up lstm1_transform_2
I1018 12:24:09.113914 34948 net.cpp:129] Top shape: 1 4 2048 (8192)
I1018 12:24:09.113925 34948 net.cpp:137] Memory required for data: 688384
I1018 12:24:09.113931 34948 net.cpp:465] Sharing parameters 'W_hc' owned by layer 'lstm1_transform_1', param index 0
I1018 12:24:09.113940 34948 layer_factory.hpp:77] Creating layer lstm1_gate_input_2
I1018 12:24:09.113955 34948 net.cpp:84] Creating Layer lstm1_gate_input_2
I1018 12:24:09.113960 34948 net.cpp:406] lstm1_gate_input_2 <- W_hc_h_1
I1018 12:24:09.113967 34948 net.cpp:406] lstm1_gate_input_2 <- W_xc_x_2
I1018 12:24:09.113975 34948 net.cpp:380] lstm1_gate_input_2 -> gate_input_2
I1018 12:24:09.114012 34948 net.cpp:122] Setting up lstm1_gate_input_2
I1018 12:24:09.114019 34948 net.cpp:129] Top shape: 1 4 2048 (8192)
I1018 12:24:09.114024 34948 net.cpp:137] Memory required for data: 721152
I1018 12:24:09.114028 34948 layer_factory.hpp:77] Creating layer lstm1_unit_2
I1018 12:24:09.114039 34948 net.cpp:84] Creating Layer lstm1_unit_2
I1018 12:24:09.114044 34948 net.cpp:406] lstm1_unit_2 <- c_1
I1018 12:24:09.114050 34948 net.cpp:406] lstm1_unit_2 <- gate_input_2
I1018 12:24:09.114056 34948 net.cpp:406] lstm1_unit_2 <- cont_2_lstm1_cont_slice_1_split_1
I1018 12:24:09.114063 34948 net.cpp:380] lstm1_unit_2 -> c_2
I1018 12:24:09.114070 34948 net.cpp:380] lstm1_unit_2 -> h_2
I1018 12:24:09.114121 34948 net.cpp:122] Setting up lstm1_unit_2
I1018 12:24:09.114130 34948 net.cpp:129] Top shape: 1 4 512 (2048)
I1018 12:24:09.114135 34948 net.cpp:129] Top shape: 1 4 512 (2048)
I1018 12:24:09.114140 34948 net.cpp:137] Memory required for data: 737536
I1018 12:24:09.114145 34948 layer_factory.hpp:77] Creating layer h_2_lstm1_unit_2_1_split
I1018 12:24:09.114152 34948 net.cpp:84] Creating Layer h_2_lstm1_unit_2_1_split
I1018 12:24:09.114156 34948 net.cpp:406] h_2_lstm1_unit_2_1_split <- h_2
I1018 12:24:09.114166 34948 net.cpp:380] h_2_lstm1_unit_2_1_split -> h_2_lstm1_unit_2_1_split_0
I1018 12:24:09.114172 34948 net.cpp:380] h_2_lstm1_unit_2_1_split -> h_2_lstm1_unit_2_1_split_1
I1018 12:24:09.114207 34948 net.cpp:122] Setting up h_2_lstm1_unit_2_1_split
I1018 12:24:09.114214 34948 net.cpp:129] Top shape: 1 4 512 (2048)
I1018 12:24:09.114220 34948 net.cpp:129] Top shape: 1 4 512 (2048)
I1018 12:24:09.114224 34948 net.cpp:137] Memory required for data: 753920
I1018 12:24:09.114229 34948 layer_factory.hpp:77] Creating layer lstm1_h_conted_2
I1018 12:24:09.114238 34948 net.cpp:84] Creating Layer lstm1_h_conted_2
I1018 12:24:09.114243 34948 net.cpp:406] lstm1_h_conted_2 <- h_2_lstm1_unit_2_1_split_0
I1018 12:24:09.114248 34948 net.cpp:406] lstm1_h_conted_2 <- cont_3_lstm1_cont_slice_2_split_0
I1018 12:24:09.114255 34948 net.cpp:380] lstm1_h_conted_2 -> h_conted_2
I1018 12:24:09.114321 34948 net.cpp:122] Setting up lstm1_h_conted_2
I1018 12:24:09.114336 34948 net.cpp:129] Top shape: 1 4 512 (2048)
I1018 12:24:09.114341 34948 net.cpp:137] Memory required for data: 762112
I1018 12:24:09.114346 34948 layer_factory.hpp:77] Creating layer lstm1_transform_3
I1018 12:24:09.114356 34948 net.cpp:84] Creating Layer lstm1_transform_3
I1018 12:24:09.114361 34948 net.cpp:406] lstm1_transform_3 <- h_conted_2
I1018 12:24:09.114367 34948 net.cpp:380] lstm1_transform_3 -> W_hc_h_2
I1018 12:24:09.127648 34948 net.cpp:122] Setting up lstm1_transform_3
I1018 12:24:09.127667 34948 net.cpp:129] Top shape: 1 4 2048 (8192)
I1018 12:24:09.127672 34948 net.cpp:137] Memory required for data: 794880
I1018 12:24:09.127681 34948 net.cpp:465] Sharing parameters 'W_hc' owned by layer 'lstm1_transform_1', param index 0
I1018 12:24:09.127687 34948 layer_factory.hpp:77] Creating layer lstm1_gate_input_3
I1018 12:24:09.127696 34948 net.cpp:84] Creating Layer lstm1_gate_input_3
I1018 12:24:09.127702 34948 net.cpp:406] lstm1_gate_input_3 <- W_hc_h_2
I1018 12:24:09.127709 34948 net.cpp:406] lstm1_gate_input_3 <- W_xc_x_3
I1018 12:24:09.127715 34948 net.cpp:380] lstm1_gate_input_3 -> gate_input_3
I1018 12:24:09.127745 34948 net.cpp:122] Setting up lstm1_gate_input_3
I1018 12:24:09.127753 34948 net.cpp:129] Top shape: 1 4 2048 (8192)
I1018 12:24:09.127758 34948 net.cpp:137] Memory required for data: 827648
I1018 12:24:09.127761 34948 layer_factory.hpp:77] Creating layer lstm1_unit_3
I1018 12:24:09.127773 34948 net.cpp:84] Creating Layer lstm1_unit_3
I1018 12:24:09.127777 34948 net.cpp:406] lstm1_unit_3 <- c_2
I1018 12:24:09.127784 34948 net.cpp:406] lstm1_unit_3 <- gate_input_3
I1018 12:24:09.127789 34948 net.cpp:406] lstm1_unit_3 <- cont_3_lstm1_cont_slice_2_split_1
I1018 12:24:09.127795 34948 net.cpp:380] lstm1_unit_3 -> c_3
I1018 12:24:09.127804 34948 net.cpp:380] lstm1_unit_3 -> h_3
I1018 12:24:09.127852 34948 net.cpp:122] Setting up lstm1_unit_3
I1018 12:24:09.127861 34948 net.cpp:129] Top shape: 1 4 512 (2048)
I1018 12:24:09.127867 34948 net.cpp:129] Top shape: 1 4 512 (2048)
I1018 12:24:09.127871 34948 net.cpp:137] Memory required for data: 844032
I1018 12:24:09.127876 34948 layer_factory.hpp:77] Creating layer h_3_lstm1_unit_3_1_split
I1018 12:24:09.127883 34948 net.cpp:84] Creating Layer h_3_lstm1_unit_3_1_split
I1018 12:24:09.127888 34948 net.cpp:406] h_3_lstm1_unit_3_1_split <- h_3
I1018 12:24:09.127897 34948 net.cpp:380] h_3_lstm1_unit_3_1_split -> h_3_lstm1_unit_3_1_split_0
I1018 12:24:09.127904 34948 net.cpp:380] h_3_lstm1_unit_3_1_split -> h_3_lstm1_unit_3_1_split_1
I1018 12:24:09.127938 34948 net.cpp:122] Setting up h_3_lstm1_unit_3_1_split
I1018 12:24:09.127944 34948 net.cpp:129] Top shape: 1 4 512 (2048)
I1018 12:24:09.127949 34948 net.cpp:129] Top shape: 1 4 512 (2048)
I1018 12:24:09.127954 34948 net.cpp:137] Memory required for data: 860416
I1018 12:24:09.127959 34948 layer_factory.hpp:77] Creating layer lstm1_h_conted_3
I1018 12:24:09.127969 34948 net.cpp:84] Creating Layer lstm1_h_conted_3
I1018 12:24:09.127974 34948 net.cpp:406] lstm1_h_conted_3 <- h_3_lstm1_unit_3_1_split_0
I1018 12:24:09.127980 34948 net.cpp:406] lstm1_h_conted_3 <- cont_4_lstm1_cont_slice_3_split_0
I1018 12:24:09.127986 34948 net.cpp:380] lstm1_h_conted_3 -> h_conted_3
I1018 12:24:09.128053 34948 net.cpp:122] Setting up lstm1_h_conted_3
I1018 12:24:09.128062 34948 net.cpp:129] Top shape: 1 4 512 (2048)
I1018 12:24:09.128067 34948 net.cpp:137] Memory required for data: 868608
I1018 12:24:09.128072 34948 layer_factory.hpp:77] Creating layer lstm1_transform_4
I1018 12:24:09.128082 34948 net.cpp:84] Creating Layer lstm1_transform_4
I1018 12:24:09.128087 34948 net.cpp:406] lstm1_transform_4 <- h_conted_3
I1018 12:24:09.128094 34948 net.cpp:380] lstm1_transform_4 -> W_hc_h_3
I1018 12:24:09.141222 34948 net.cpp:122] Setting up lstm1_transform_4
I1018 12:24:09.141245 34948 net.cpp:129] Top shape: 1 4 2048 (8192)
I1018 12:24:09.141258 34948 net.cpp:137] Memory required for data: 901376
I1018 12:24:09.141264 34948 net.cpp:465] Sharing parameters 'W_hc' owned by layer 'lstm1_transform_1', param index 0
I1018 12:24:09.141270 34948 layer_factory.hpp:77] Creating layer lstm1_gate_input_4
I1018 12:24:09.141283 34948 net.cpp:84] Creating Layer lstm1_gate_input_4
I1018 12:24:09.141288 34948 net.cpp:406] lstm1_gate_input_4 <- W_hc_h_3
I1018 12:24:09.141295 34948 net.cpp:406] lstm1_gate_input_4 <- W_xc_x_4
I1018 12:24:09.141304 34948 net.cpp:380] lstm1_gate_input_4 -> gate_input_4
I1018 12:24:09.141336 34948 net.cpp:122] Setting up lstm1_gate_input_4
I1018 12:24:09.141353 34948 net.cpp:129] Top shape: 1 4 2048 (8192)
I1018 12:24:09.141357 34948 net.cpp:137] Memory required for data: 934144
I1018 12:24:09.141362 34948 layer_factory.hpp:77] Creating layer lstm1_unit_4
I1018 12:24:09.141371 34948 net.cpp:84] Creating Layer lstm1_unit_4
I1018 12:24:09.141376 34948 net.cpp:406] lstm1_unit_4 <- c_3
I1018 12:24:09.141384 34948 net.cpp:406] lstm1_unit_4 <- gate_input_4
I1018 12:24:09.141391 34948 net.cpp:406] lstm1_unit_4 <- cont_4_lstm1_cont_slice_3_split_1
I1018 12:24:09.141397 34948 net.cpp:380] lstm1_unit_4 -> c_4
I1018 12:24:09.141405 34948 net.cpp:380] lstm1_unit_4 -> h_4
I1018 12:24:09.141454 34948 net.cpp:122] Setting up lstm1_unit_4
I1018 12:24:09.141463 34948 net.cpp:129] Top shape: 1 4 512 (2048)
I1018 12:24:09.141469 34948 net.cpp:129] Top shape: 1 4 512 (2048)
I1018 12:24:09.141474 34948 net.cpp:137] Memory required for data: 950528
I1018 12:24:09.141479 34948 layer_factory.hpp:77] Creating layer lstm1_
I1018 12:24:09.141486 34948 net.cpp:84] Creating Layer lstm1_
I1018 12:24:09.141491 34948 net.cpp:406] lstm1_ <- c_4
I1018 12:24:09.141497 34948 net.cpp:380] lstm1_ -> c_T
I1018 12:24:09.141522 34948 net.cpp:122] Setting up lstm1_
I1018 12:24:09.141531 34948 net.cpp:129] Top shape: 1 4 512 (2048)
I1018 12:24:09.141535 34948 net.cpp:137] Memory required for data: 958720
I1018 12:24:09.141541 34948 layer_factory.hpp:77] Creating layer lstm1_h_concat
I1018 12:24:09.141549 34948 net.cpp:84] Creating Layer lstm1_h_concat
I1018 12:24:09.141554 34948 net.cpp:406] lstm1_h_concat <- h_1_lstm1_unit_1_1_split_1
I1018 12:24:09.141561 34948 net.cpp:406] lstm1_h_concat <- h_2_lstm1_unit_2_1_split_1
I1018 12:24:09.141566 34948 net.cpp:406] lstm1_h_concat <- h_3_lstm1_unit_3_1_split_1
I1018 12:24:09.141571 34948 net.cpp:406] lstm1_h_concat <- h_4
I1018 12:24:09.141578 34948 net.cpp:380] lstm1_h_concat -> h
I1018 12:24:09.141613 34948 net.cpp:122] Setting up lstm1_h_concat
I1018 12:24:09.141631 34948 net.cpp:129] Top shape: 4 4 512 (8192)
I1018 12:24:09.141635 34948 net.cpp:137] Memory required for data: 991488
I1018 12:24:09.141640 34948 layer_factory.hpp:77] Creating layer h_pseudoloss
I1018 12:24:09.141650 34948 net.cpp:84] Creating Layer h_pseudoloss
I1018 12:24:09.141655 34948 net.cpp:406] h_pseudoloss <- h
I1018 12:24:09.141662 34948 net.cpp:380] h_pseudoloss -> h_pseudoloss
I1018 12:24:09.141742 34948 net.cpp:122] Setting up h_pseudoloss
…
I1018 12:24:09.141968 34948 net.cpp:200] lstm1_ does not need backward computation.
I1018 12:24:09.141971 34948 net.cpp:242] This network produces output c_T
I1018 12:24:09.141976 34948 net.cpp:242] This network produces output h_pseudoloss
I1018 12:24:09.144764 34948 net.cpp:255] Network initialization done.
I1018 12:24:09.144883 34948 recurrent_layer.cpp:150] Adding parameter 0: W_xc
I1018 12:24:09.144892 34948 recurrent_layer.cpp:150] Adding parameter 1: b_c
I1018 12:24:09.144897 34948 recurrent_layer.cpp:150] Adding parameter 2: W_hc
I1018 12:24:09.145015 34948 net.cpp:122] Setting up lstm1
I1018 12:24:09.145028 34948 net.cpp:129] Top shape: 4 4 512 (8192)
I1018 12:24:09.145033 34948 net.cpp:137] Memory required for data: 765518096
I1018 12:24:09.145054 34948 layer_factory.hpp:77] Creating layer lstm1-drop
I1018 12:24:09.145064 34948 net.cpp:84] Creating Layer lstm1-drop
I1018 12:24:09.145071 34948 net.cpp:406] lstm1-drop <- lstm1
I1018 12:24:09.145078 34948 net.cpp:380] lstm1-drop -> lstm1-drop
I1018 12:24:09.145121 34948 net.cpp:122] Setting up lstm1-drop
I1018 12:24:09.145129 34948 net.cpp:129] Top shape: 4 4 512 (8192)
I1018 12:24:09.145134 34948 net.cpp:137] Memory required for data: 765550864
I1018 12:24:09.145138 34948 layer_factory.hpp:77] Creating layer fc-final
I1018 12:24:09.145149 34948 net.cpp:84] Creating Layer fc-final
I1018 12:24:09.145154 34948 net.cpp:406] fc-final <- lstm1-drop
I1018 12:24:09.145161 34948 net.cpp:380] fc-final -> fc-final
I1018 12:24:09.145550 34948 net.cpp:122] Setting up fc-final
I1018 12:24:09.145560 34948 net.cpp:129] Top shape: 4 4 10 (160)
I1018 12:24:09.145565 34948 net.cpp:137] Memory required for data: 765551504
I1018 12:24:09.145575 34948 layer_factory.hpp:77] Creating layer fc-final_fc-final_0_split
I1018 12:24:09.145582 34948 net.cpp:84] Creating Layer fc-final_fc-final_0_split
I1018 12:24:09.145587 34948 net.cpp:406] fc-final_fc-final_0_split <- fc-final
I1018 12:24:09.145594 34948 net.cpp:380] fc-final_fc-final_0_split -> fc-final_fc-final_0_split_0
I1018 12:24:09.145603 34948 net.cpp:380] fc-final_fc-final_0_split -> fc-final_fc-final_0_split_1
I1018 12:24:09.145647 34948 net.cpp:122] Setting up fc-final_fc-final_0_split
I1018 12:24:09.145653 34948 net.cpp:129] Top shape: 4 4 10 (160)
I1018 12:24:09.145660 34948 net.cpp:129] Top shape: 4 4 10 (160)
I1018 12:24:09.145664 34948 net.cpp:137] Memory required for data: 765552784
I1018 12:24:09.145670 34948 layer_factory.hpp:77] Creating layer loss
I1018 12:24:09.145684 34948 net.cpp:84] Creating Layer loss
I1018 12:24:09.145689 34948 net.cpp:406] loss <- fc-final_fc-final_0_split_0
I1018 12:24:09.145696 34948 net.cpp:406] loss <- reshape-label_label_tran_0_split_0
I1018 12:24:09.145702 34948 net.cpp:380] loss -> loss
…
I1018 12:24:09.147204 34948 net.cpp:294] The NetState phase (1) differed from the phase (0) specified by a rule in layer data
I1018 12:24:09.147435 34948 net.cpp:51] Initializing net from parameters: 
name: "VGG_16_layers_LSTM"
state {
  phase: TEST
  stage: "test-on-test"
}
layer {
  name: "data"
  type: "ImageData"
  top: "data"
  top: "label"
  include {
    phase: TEST
  }
  transform_param {
    mirror: false
    crop_size: 288
    mean_value: 104
    mean_value: 117
    mean_value: 123
  }
  image_data_param {
    source: "../Data/lsun_val_list.txt"
    batch_size: 50
    new_height: 320
    new_width: 320
  }
}
layer {
  name: "Silence"
  type: "Silence"
  bottom: "label"
  include {
    phase: TEST
  }
}
layer {
  name: "label_tran"
  type: "Python"
  bottom: "label"
  top: "reshape-label"
  top: "clip_markers"
  python_param {
    module: "data_preparation_sort_max_clip"
    layer: "ReshapeLabel"
  }
}
layer {
  name: "conv1_1"
  type: "Convolution"
  bottom: "data"
  top: "conv1_1"
  convolution_param {
    num_output: 64
    pad: 1
    kernel_size: 3
  }
}
layer {
  name: "relu1_1"
  type: "ReLU"
  bottom: "conv1_1"
  top: "conv1_1"
}
layer {
  name: "conv1_2"
  type: "Convolution"
  bottom: "conv1_1"
  top: "conv1_2"
  convolution_param {
    num_output: 64
    pad: 1
    kernel_size: 3
  }
}
layer {
  name: "relu1_2"
  type: "ReLU"
  bottom: "conv1_2"
  top: "conv1_2"
}
layer {
  name: "pool1"
  type: "Pooling"
  bottom: "conv1_2"
  top: "pool1"
  pooling_param {
    pool: MAX
    kernel_size: 2
    stride: 2
  }
}
layer {
  name: "conv2_1"
  type: "Convolution"
  bottom: "pool1"
  top: "conv2_1"
  convolution_param {
    num_output: 128
    pad: 1
    kernel_size: 3
  }
}
layer {
  name: "relu2_1"
  type: "ReLU"
  bottom: "conv2_1"
  top: "conv2_1"
}
layer {
  name: "conv2_2"
  type: "Convolution"
  bottom: "conv2_1"
  top: "conv2_2"
  convolution_param {
    num_output: 128
    pad: 1
    kernel_size: 3
  }
}
layer {
  name: "relu2_2"
  type: "ReLU"
  bottom: "conv2_2"
  top: "conv2_2"
}
layer {
  name: "pool2"
  type: "Pooling"
  bottom: "conv2_2"
  top: "pool2"
  pooling_param {
    pool: MAX
    kernel_size: 2
    stride: 2
  }
}
layer {
  name: "conv3_1"
  type: "Convolution"
  bottom: "pool2"
  top: "conv3_1"
  convolution_param {
    num_output: 256
    pad: 1
    kernel_size: 3
  }
}
layer {
  name: "relu3_1"
  type: "ReLU"
  bottom: "conv3_1"
  top: "conv3_1"
}
layer {
  name: "conv3_2"
  type: "Convolution"
  bottom: "conv3_1"
  top: "conv3_2"
  convolution_param {
    num_output: 256
    pad: 1
    kernel_size: 3
  }
}
layer {
  name: "relu3_2"
  type: "ReLU"
  bottom: "conv3_2"
  top: "conv3_2"
}
layer {
  name: "conv3_3"
  type: "Convolution"
  bottom: "conv3_2"
  top: "conv3_3"
  convolution_param {
    num_output: 256
    pad: 1
    kernel_size: 3
  }
}
layer {
  name: "relu3_3"
  type: "ReLU"
  bottom: "conv3_3"
  top: "conv3_3"
}
layer {
  name: "pool3"
  type: "Pooling"
  bottom: "conv3_3"
  top: "pool3"
  pooling_param {
    pool: MAX
    kernel_size: 2
    stride: 2
  }
}
layer {
  name: "conv4_1"
  type: "Convolution"
  bottom: "pool3"
  top: "conv4_1"
  convolution_param {
    num_output: 512
    pad: 1
    kernel_size: 3
  }
}
layer {
  name: "relu4_1"
  type: "ReLU"
  bottom: "conv4_1"
  top: "conv4_1"
}
layer {
  name: "conv4_2"
  type: "Convolution"
  bottom: "conv4_1"
  top: "conv4_2"
  convolution_param {
    num_output: 512
    pad: 1
    kernel_size: 3
  }
}
layer {
  name: "relu4_2"
  type: "ReLU"
  bottom: "conv4_2"
  top: "conv4_2"
}
layer {
  name: "conv4_3"
  type: "Convolution"
  bottom: "conv4_2"
  top: "conv4_3"
  convolution_param {
    num_output: 512
    pad: 1
    kernel_size: 3
  }
}
layer {
  name: "relu4_3"
  type: "ReLU"
  bottom: "conv4_3"
  top: "conv4_3"
}
layer {
  name: "pool4"
  type: "Pooling"
  bottom: "conv4_3"
  top: "pool4"
  pooling_param {
    pool: MAX
    kernel_size: 2
    stride: 2
  }
}
layer {
  name: "conv5_1"
  type: "Convolution"
  bottom: "pool4"
  top: "conv5_1"
  convolution_param {
    num_output: 512
    pad: 1
    kernel_size: 3
  }
}
layer {
  name: "relu5_1"
  type: "ReLU"
  bottom: "conv5_1"
  top: "conv5_1"
}
layer {
  name: "conv5_2"
  type: "Convolution"
  bottom: "conv5_1"
  top: "conv5_2"
  convolution_param {
    num_output: 512
    pad: 1
    kernel_size: 3
  }
}
layer {
  name: "relu5_2"
  type: "ReLU"
  bottom: "conv5_2"
  top: "conv5_2"
}
layer {
  name: "conv5_3"
  type: "Convolution"
  bottom: "conv5_2"
  top: "conv5_3"
  convolution_param {
    num_output: 512
    pad: 1
    kernel_size: 3
  }
}
layer {
  name: "relu5_3"
  type: "ReLU"
  bottom: "conv5_3"
  top: "conv5_3"
}
layer {
  name: "pool5"
  type: "Pooling"
  bottom: "conv5_3"
  top: "pool5"
  pooling_param {
    pool: MAX
    kernel_size: 2
    stride: 2
  }
}
layer {
  name: "fc6-conv"
  type: "Convolution"
  bottom: "pool5"
  top: "fc6-conv"
  convolution_param {
    num_output: 4096
    kernel_size: 7
  }
}
layer {
  name: "relu6"
  type: "ReLU"
  bottom: "fc6-conv"
  top: "fc6-conv"
}
layer {
  name: "drop6"
  type: "Dropout"
  bottom: "fc6-conv"
  top: "fc6-conv"
  dropout_param {
    dropout_ratio: 0.5
  }
}
layer {
  name: "fc7-conv"
  type: "Convolution"
  bottom: "fc6-conv"
  top: "fc7-conv"
  convolution_param {
    num_output: 4096
    kernel_size: 1
  }
}
layer {
  name: "relu7"
  type: "ReLU"
  bottom: "fc7-conv"
  top: "fc7-conv"
}
layer {
  name: "drop7"
  type: "Dropout"
  bottom: "fc7-conv"
  top: "fc7-conv"
  dropout_param {
    dropout_ratio: 0.9
  }
}
layer {
  name: "fc7-conv_re"
  type: "Reshape"
  bottom: "fc7-conv"
  top: "fc7-conv_re"
  reshape_param {
    shape {
      dim: 0
      dim: 0
      dim: -1
    }
  }
}
layer {
  name: "fc7-conv_tran"
  type: "Python"
  bottom: "fc7-conv_re"
  top: "fc7-conv_tran"
  python_param {
    module: "data_preparation_sort_max_clip"
    layer: "DataTransposeSortRandomClip"
  }
}
layer {
  name: "lstm1"
  type: "LSTM"
  bottom: "fc7-conv_tran"
  bottom: "clip_markers"
  top: "lstm1"
  recurrent_param {
    num_output: 512
    weight_filler {
      type: "uniform"
      min: -0.01
      max: 0.01
    }
    bias_filler {
      type: "constant"
      value: 0
    }
  }
}
layer {
  name: "lstm1-drop"
  type: "Dropout"
  bottom: "lstm1"
  top: "lstm1-drop"
  dropout_param {
    dropout_ratio: 0.5
  }
}
layer {
  name: "fc-final"
  type: "InnerProduct"
  bottom: "lstm1-drop"
  top: "fc-final"
  param {
    lr_mult: 1
    decay_mult: 1
  }
  param {
    lr_mult: 2
    decay_mult: 0
  }
  inner_product_param {
    num_output: 10
    weight_filler {
      type: "gaussian"
      std: 0.01
    }
    bias_filler {
      type: "constant"
      value: 0
    }
    axis: 2
  }
}
layer {
  name: "loss"
  type: "SoftmaxWithLoss"
  bottom: "fc-final"
  bottom: "reshape-label"
  top: "loss"
  softmax_param {
    axis: 2
  }
}
layer {
  name: "accuracy"
  type: "Accuracy"
  bottom: "fc-final"
  bottom: "reshape-label"
  top: "accuracy"
  accuracy_param {
    axis: 2
  }
}
I1018 12:24:09.147606 34948 layer_factory.hpp:77] Creating layer data
I1018 12:24:09.147625 34948 net.cpp:84] Creating Layer data
I1018 12:24:09.147632 34948 net.cpp:380] data -> data
I1018 12:24:09.147644 34948 net.cpp:380] data -> label
I1018 12:24:09.147655 34948 image_data_layer.cpp:38] Opening file ../Data/lsun_val_list.txt
I1018 12:24:09.148754 34948 image_data_layer.cpp:63] A total of 3000 images.
I1018 12:24:09.150373 34948 image_data_layer.cpp:90] output data size: 50,3,288,288
I1018 12:24:09.274030 34948 net.cpp:122] Setting up data
I1018 12:24:09.274068 34948 net.cpp:129] Top shape: 50 3 288 288 (12441600)
I1018 12:24:09.274075 34948 net.cpp:129] Top shape: 50 (50)
I1018 12:24:09.274080 34948 net.cpp:137] Memory required for data: 49766600
I1018 12:24:09.274089 34948 layer_factory.hpp:77] Creating layer label_data_1_split
I1018 12:24:09.274106 34948 net.cpp:84] Creating Layer label_data_1_split
I1018 12:24:09.274111 34948 net.cpp:406] label_data_1_split <- label
I1018 12:24:09.274121 34948 net.cpp:380] label_data_1_split -> label_data_1_split_0
I1018 12:24:09.274137 34948 net.cpp:380] label_data_1_split -> label_data_1_split_1
I1018 12:24:09.274432 34948 net.cpp:122] Setting up label_data_1_split
I1018 12:24:09.274479 34948 net.cpp:129] Top shape: 50 (50)
I1018 12:24:09.274492 34948 net.cpp:129] Top shape: 50 (50)
I1018 12:24:09.274502 34948 net.cpp:137] Memory required for data: 49767000
I1018 12:24:09.274513 34948 layer_factory.hpp:77] Creating layer Silence
I1018 12:24:09.274544 34948 net.cpp:84] Creating Layer Silence
I1018 12:24:09.274559 34948 net.cpp:406] Silence <- label_data_1_split_0
I1018 12:24:09.274575 34948 net.cpp:122] Setting up Silence
I1018 12:24:09.274583 34948 net.cpp:137] Memory required for data: 49767000
I1018 12:24:09.274591 34948 layer_factory.hpp:77] Creating layer label_tran
I1018 12:24:09.274683 34948 net.cpp:84] Creating Layer label_tran
I1018 12:24:09.274701 34948 net.cpp:406] label_tran <- label_data_1_split_1
I1018 12:24:09.274716 34948 net.cpp:380] label_tran -> reshape-label
I1018 12:24:09.274742 34948 net.cpp:380] label_tran -> clip_markers
I1018 12:24:09.274955 34948 net.cpp:122] Setting up label_tran
I1018 12:24:09.274979 34948 net.cpp:129] Top shape: 4 50 (200)
I1018 12:24:09.274993 34948 net.cpp:129] Top shape: 4 50 (200)
I1018 12:24:09.275002 34948 net.cpp:137] Memory required for data: 49768600
I1018 12:24:09.275010 34948 layer_factory.hpp:77] Creating layer reshape-label_label_tran_0_split
I1018 12:24:09.275027 34948 net.cpp:84] Creating Layer reshape-label_label_tran_0_split
I1018 12:24:09.275037 34948 net.cpp:406] reshape-label_label_tran_0_split <- reshape-label
I1018 12:24:09.275050 34948 net.cpp:380] reshape-label_label_tran_0_split -> reshape-label_label_tran_0_split_0
I1018 12:24:09.275066 34948 net.cpp:380] reshape-label_label_tran_0_split -> reshape-label_label_tran_0_split_1
I1018 12:24:09.275141 34948 net.cpp:122] Setting up reshape-label_label_tran_0_split
I1018 12:24:09.275156 34948 net.cpp:129] Top shape: 4 50 (200)
I1018 12:24:09.275166 34948 net.cpp:129] Top shape: 4 50 (200)
I1018 12:24:09.275174 34948 net.cpp:137] Memory required for data: 49770200
I1018 12:24:09.275183 34948 layer_factory.hpp:77] Creating layer conv1_1
I1018 12:24:09.275203 34948 net.cpp:84] Creating Layer conv1_1
I1018 12:24:09.275215 34948 net.cpp:406] conv1_1 <- data
I1018 12:24:09.275228 34948 net.cpp:380] conv1_1 -> conv1_1
I1018 12:24:09.275845 34948 net.cpp:122] Setting up conv1_1
I1018 12:24:09.275866 34948 net.cpp:129] Top shape: 50 64 288 288 (265420800)
I1018 12:24:09.275876 34948 net.cpp:137] Memory required for data: 1111453400
I1018 12:24:09.275898 34948 layer_factory.hpp:77] Creating layer relu1_1
I1018 12:24:09.275914 34948 net.cpp:84] Creating Layer relu1_1
I1018 12:24:09.275924 34948 net.cpp:406] relu1_1 <- conv1_1
I1018 12:24:09.275938 34948 net.cpp:367] relu1_1 -> conv1_1 (in-place)
I1018 12:24:09.275954 34948 net.cpp:122] Setting up relu1_1
I1018 12:24:09.275969 34948 net.cpp:129] Top shape: 50 64 288 288 (265420800)
I1018 12:24:09.275977 34948 net.cpp:137] Memory required for data: 2173136600
I1018 12:24:09.275986 34948 layer_factory.hpp:77] Creating layer conv1_2
I1018 12:24:09.276002 34948 net.cpp:84] Creating Layer conv1_2
I1018 12:24:09.276011 34948 net.cpp:406] conv1_2 <- conv1_1
I1018 12:24:09.276024 34948 net.cpp:380] conv1_2 -> conv1_2
I1018 12:24:09.276722 34948 net.cpp:122] Setting up conv1_2
I1018 12:24:09.276746 34948 net.cpp:129] Top shape: 50 64 288 288 (265420800)
I1018 12:24:09.276758 34948 net.cpp:137] Memory required for data: 3234819800
I1018 12:24:09.276779 34948 layer_factory.hpp:77] Creating layer relu1_2
I1018 12:24:09.276795 34948 net.cpp:84] Creating Layer relu1_2
I1018 12:24:09.276805 34948 net.cpp:406] relu1_2 <- conv1_2
I1018 12:24:09.276821 34948 net.cpp:367] relu1_2 -> conv1_2 (in-place)
I1018 12:24:09.276844 34948 net.cpp:122] Setting up relu1_2
I1018 12:24:09.276854 34948 net.cpp:129] Top shape: 50 64 288 288 (265420800)
I1018 12:24:09.276862 34948 net.cpp:137] Memory required for data: 4296503000
I1018 12:24:09.276870 34948 layer_factory.hpp:77] Creating layer pool1
I1018 12:24:09.276885 34948 net.cpp:84] Creating Layer pool1
I1018 12:24:09.276895 34948 net.cpp:406] pool1 <- conv1_2
I1018 12:24:09.276907 34948 net.cpp:380] pool1 -> pool1
I1018 12:24:09.276990 34948 net.cpp:122] Setting up pool1
I1018 12:24:09.277006 34948 net.cpp:129] Top shape: 50 64 144 144 (66355200)
I1018 12:24:09.277014 34948 net.cpp:137] Memory required for data: 4561923800
I1018 12:24:09.277024 34948 layer_factory.hpp:77] Creating layer conv2_1
I1018 12:24:09.277040 34948 net.cpp:84] Creating Layer conv2_1
I1018 12:24:09.277052 34948 net.cpp:406] conv2_1 <- pool1
I1018 12:24:09.277066 34948 net.cpp:380] conv2_1 -> conv2_1
I1018 12:24:09.278820 34948 net.cpp:122] Setting up conv2_1
I1018 12:24:09.278919 34948 net.cpp:129] Top shape: 50 128 144 144 (132710400)
I1018 12:24:09.278980 34948 net.cpp:137] Memory required for data: 5092765400
I1018 12:24:09.279052 34948 layer_factory.hpp:77] Creating layer relu2_1
I1018 12:24:09.279114 34948 net.cpp:84] Creating Layer relu2_1
I1018 12:24:09.279176 34948 net.cpp:406] relu2_1 <- conv2_1
I1018 12:24:09.279204 34948 net.cpp:367] relu2_1 -> conv2_1 (in-place)
I1018 12:24:09.279223 34948 net.cpp:122] Setting up relu2_1
I1018 12:24:09.279235 34948 net.cpp:129] Top shape: 50 128 144 144 (132710400)
I1018 12:24:09.279244 34948 net.cpp:137] Memory required for data: 5623607000
I1018 12:24:09.279253 34948 layer_factory.hpp:77] Creating layer conv2_2
I1018 12:24:09.279268 34948 net.cpp:84] Creating Layer conv2_2
I1018 12:24:09.279278 34948 net.cpp:406] conv2_2 <- conv2_1
I1018 12:24:09.279290 34948 net.cpp:380] conv2_2 -> conv2_2
I1018 12:24:09.284729 34948 net.cpp:122] Setting up conv2_2
I1018 12:24:09.284766 34948 net.cpp:129] Top shape: 50 128 144 144 (132710400)
I1018 12:24:09.284778 34948 net.cpp:137] Memory required for data: 6154448600
I1018 12:24:09.284795 34948 layer_factory.hpp:77] Creating layer relu2_2
I1018 12:24:09.284811 34948 net.cpp:84] Creating Layer relu2_2
I1018 12:24:09.284821 34948 net.cpp:406] relu2_2 <- conv2_2
I1018 12:24:09.284837 34948 net.cpp:367] relu2_2 -> conv2_2 (in-place)
I1018 12:24:09.284854 34948 net.cpp:122] Setting up relu2_2
I1018 12:24:09.284867 34948 net.cpp:129] Top shape: 50 128 144 144 (132710400)
I1018 12:24:09.284875 34948 net.cpp:137] Memory required for data: 6685290200
I1018 12:24:09.284884 34948 layer_factory.hpp:77] Creating layer pool2
I1018 12:24:09.284898 34948 net.cpp:84] Creating Layer pool2
I1018 12:24:09.284907 34948 net.cpp:406] pool2 <- conv2_2
I1018 12:24:09.284921 34948 net.cpp:380] pool2 -> pool2
I1018 12:24:09.285004 34948 net.cpp:122] Setting up pool2
I1018 12:24:09.285022 34948 net.cpp:129] Top shape: 50 128 72 72 (33177600)
I1018 12:24:09.285030 34948 net.cpp:137] Memory required for data: 6818000600
I1018 12:24:09.285039 34948 layer_factory.hpp:77] Creating layer conv3_1
I1018 12:24:09.285058 34948 net.cpp:84] Creating Layer conv3_1
I1018 12:24:09.285068 34948 net.cpp:406] conv3_1 <- pool2
I1018 12:24:09.285080 34948 net.cpp:380] conv3_1 -> conv3_1
I1018 12:24:09.287371 34948 net.cpp:122] Setting up conv3_1
I1018 12:24:09.287405 34948 net.cpp:129] Top shape: 50 256 72 72 (66355200)
I1018 12:24:09.287415 34948 net.cpp:137] Memory required for data: 7083421400
I1018 12:24:09.287438 34948 layer_factory.hpp:77] Creating layer relu3_1
I1018 12:24:09.287461 34948 net.cpp:84] Creating Layer relu3_1
I1018 12:24:09.287477 34948 net.cpp:406] relu3_1 <- conv3_1
I1018 12:24:09.287492 34948 net.cpp:367] relu3_1 -> conv3_1 (in-place)
I1018 12:24:09.287508 34948 net.cpp:122] Setting up relu3_1
I1018 12:24:09.287520 34948 net.cpp:129] Top shape: 50 256 72 72 (66355200)
I1018 12:24:09.287528 34948 net.cpp:137] Memory required for data: 7348842200
I1018 12:24:09.287537 34948 layer_factory.hpp:77] Creating layer conv3_2
I1018 12:24:09.287554 34948 net.cpp:84] Creating Layer conv3_2
I1018 12:24:09.287562 34948 net.cpp:406] conv3_2 <- conv3_1
I1018 12:24:09.287576 34948 net.cpp:380] conv3_2 -> conv3_2
I1018 12:24:09.291076 34948 net.cpp:122] Setting up conv3_2
I1018 12:24:09.291103 34948 net.cpp:129] Top shape: 50 256 72 72 (66355200)
I1018 12:24:09.291111 34948 net.cpp:137] Memory required for data: 7614263000
I1018 12:24:09.291124 34948 layer_factory.hpp:77] Creating layer relu3_2
I1018 12:24:09.291137 34948 net.cpp:84] Creating Layer relu3_2
I1018 12:24:09.291146 34948 net.cpp:406] relu3_2 <- conv3_2
I1018 12:24:09.291157 34948 net.cpp:367] relu3_2 -> conv3_2 (in-place)
I1018 12:24:09.291170 34948 net.cpp:122] Setting up relu3_2
I1018 12:24:09.291179 34948 net.cpp:129] Top shape: 50 256 72 72 (66355200)
I1018 12:24:09.291187 34948 net.cpp:137] Memory required for data: 7879683800
I1018 12:24:09.291193 34948 layer_factory.hpp:77] Creating layer conv3_3
I1018 12:24:09.291206 34948 net.cpp:84] Creating Layer conv3_3
I1018 12:24:09.291214 34948 net.cpp:406] conv3_3 <- conv3_2
I1018 12:24:09.291225 34948 net.cpp:380] conv3_3 -> conv3_3
I1018 12:24:09.294620 34948 net.cpp:122] Setting up conv3_3
I1018 12:24:09.294672 34948 net.cpp:129] Top shape: 50 256 72 72 (66355200)
I1018 12:24:09.294682 34948 net.cpp:137] Memory required for data: 8145104600
I1018 12:24:09.294706 34948 layer_factory.hpp:77] Creating layer relu3_3
I1018 12:24:09.294725 34948 net.cpp:84] Creating Layer relu3_3
I1018 12:24:09.294736 34948 net.cpp:406] relu3_3 <- conv3_3
I1018 12:24:09.294752 34948 net.cpp:367] relu3_3 -> conv3_3 (in-place)
I1018 12:24:09.294780 34948 net.cpp:122] Setting up relu3_3
I1018 12:24:09.294792 34948 net.cpp:129] Top shape: 50 256 72 72 (66355200)
I1018 12:24:09.294806 34948 net.cpp:137] Memory required for data: 8410525400
I1018 12:24:09.294814 34948 layer_factory.hpp:77] Creating layer pool3
I1018 12:24:09.294828 34948 net.cpp:84] Creating Layer pool3
I1018 12:24:09.294840 34948 net.cpp:406] pool3 <- conv3_3
I1018 12:24:09.294854 34948 net.cpp:380] pool3 -> pool3
I1018 12:24:09.294939 34948 net.cpp:122] Setting up pool3
I1018 12:24:09.294965 34948 net.cpp:129] Top shape: 50 256 36 36 (16588800)
I1018 12:24:09.294976 34948 net.cpp:137] Memory required for data: 8476880600
I1018 12:24:09.294993 34948 layer_factory.hpp:77] Creating layer conv4_1
I1018 12:24:09.295011 34948 net.cpp:84] Creating Layer conv4_1
I1018 12:24:09.295022 34948 net.cpp:406] conv4_1 <- pool3
I1018 12:24:09.295037 34948 net.cpp:380] conv4_1 -> conv4_1
I1018 12:24:09.300777 34948 net.cpp:122] Setting up conv4_1
I1018 12:24:09.300812 34948 net.cpp:129] Top shape: 50 512 36 36 (33177600)
I1018 12:24:09.300822 34948 net.cpp:137] Memory required for data: 8609591000
I1018 12:24:09.300838 34948 layer_factory.hpp:77] Creating layer relu4_1
I1018 12:24:09.300854 34948 net.cpp:84] Creating Layer relu4_1
I1018 12:24:09.300868 34948 net.cpp:406] relu4_1 <- conv4_1
I1018 12:24:09.300882 34948 net.cpp:367] relu4_1 -> conv4_1 (in-place)
I1018 12:24:09.300899 34948 net.cpp:122] Setting up relu4_1
I1018 12:24:09.300911 34948 net.cpp:129] Top shape: 50 512 36 36 (33177600)
I1018 12:24:09.300920 34948 net.cpp:137] Memory required for data: 8742301400
I1018 12:24:09.300932 34948 layer_factory.hpp:77] Creating layer conv4_2
I1018 12:24:09.300948 34948 net.cpp:84] Creating Layer conv4_2
I1018 12:24:09.300993 34948 net.cpp:406] conv4_2 <- conv4_1
I1018 12:24:09.301012 34948 net.cpp:380] conv4_2 -> conv4_2
I1018 12:24:09.308634 34948 net.cpp:122] Setting up conv4_2
I1018 12:24:09.308655 34948 net.cpp:129] Top shape: 50 512 36 36 (33177600)
I1018 12:24:09.308660 34948 net.cpp:137] Memory required for data: 8875011800
I1018 12:24:09.308676 34948 layer_factory.hpp:77] Creating layer relu4_2
I1018 12:24:09.308686 34948 net.cpp:84] Creating Layer relu4_2
I1018 12:24:09.308691 34948 net.cpp:406] relu4_2 <- conv4_2
I1018 12:24:09.308699 34948 net.cpp:367] relu4_2 -> conv4_2 (in-place)
I1018 12:24:09.308708 34948 net.cpp:122] Setting up relu4_2
I1018 12:24:09.308714 34948 net.cpp:129] Top shape: 50 512 36 36 (33177600)
I1018 12:24:09.308719 34948 net.cpp:137] Memory required for data: 9007722200
I1018 12:24:09.308723 34948 layer_factory.hpp:77] Creating layer conv4_3
I1018 12:24:09.308733 34948 net.cpp:84] Creating Layer conv4_3
I1018 12:24:09.308738 34948 net.cpp:406] conv4_3 <- conv4_2
I1018 12:24:09.308746 34948 net.cpp:380] conv4_3 -> conv4_3
I1018 12:24:09.315014 34948 net.cpp:122] Setting up conv4_3
I1018 12:24:09.315035 34948 net.cpp:129] Top shape: 50 512 36 36 (33177600)
I1018 12:24:09.315040 34948 net.cpp:137] Memory required for data: 9140432600
I1018 12:24:09.315049 34948 layer_factory.hpp:77] Creating layer relu4_3
I1018 12:24:09.315058 34948 net.cpp:84] Creating Layer relu4_3
I1018 12:24:09.315063 34948 net.cpp:406] relu4_3 <- conv4_3
I1018 12:24:09.315071 34948 net.cpp:367] relu4_3 -> conv4_3 (in-place)
I1018 12:24:09.315080 34948 net.cpp:122] Setting up relu4_3
I1018 12:24:09.315086 34948 net.cpp:129] Top shape: 50 512 36 36 (33177600)
I1018 12:24:09.315091 34948 net.cpp:137] Memory required for data: 9273143000
I1018 12:24:09.315095 34948 layer_factory.hpp:77] Creating layer pool4
I1018 12:24:09.315105 34948 net.cpp:84] Creating Layer pool4
I1018 12:24:09.315110 34948 net.cpp:406] pool4 <- conv4_3
I1018 12:24:09.315119 34948 net.cpp:380] pool4 -> pool4
I1018 12:24:09.315166 34948 net.cpp:122] Setting up pool4
I1018 12:24:09.315176 34948 net.cpp:129] Top shape: 50 512 18 18 (8294400)
I1018 12:24:09.315181 34948 net.cpp:137] Memory required for data: 9306320600
I1018 12:24:09.315186 34948 layer_factory.hpp:77] Creating layer conv5_1
I1018 12:24:09.315196 34948 net.cpp:84] Creating Layer conv5_1
I1018 12:24:09.315201 34948 net.cpp:406] conv5_1 <- pool4
I1018 12:24:09.315209 34948 net.cpp:380] conv5_1 -> conv5_1
I1018 12:24:09.321828 34948 net.cpp:122] Setting up conv5_1
I1018 12:24:09.321856 34948 net.cpp:129] Top shape: 50 512 18 18 (8294400)
I1018 12:24:09.321862 34948 net.cpp:137] Memory required for data: 9339498200
I1018 12:24:09.321871 34948 layer_factory.hpp:77] Creating layer relu5_1
I1018 12:24:09.321882 34948 net.cpp:84] Creating Layer relu5_1
I1018 12:24:09.321889 34948 net.cpp:406] relu5_1 <- conv5_1
I1018 12:24:09.321899 34948 net.cpp:367] relu5_1 -> conv5_1 (in-place)
I1018 12:24:09.321909 34948 net.cpp:122] Setting up relu5_1
I1018 12:24:09.321915 34948 net.cpp:129] Top shape: 50 512 18 18 (8294400)
I1018 12:24:09.321920 34948 net.cpp:137] Memory required for data: 9372675800
I1018 12:24:09.321924 34948 layer_factory.hpp:77] Creating layer conv5_2
I1018 12:24:09.321943 34948 net.cpp:84] Creating Layer conv5_2
I1018 12:24:09.321947 34948 net.cpp:406] conv5_2 <- conv5_1
I1018 12:24:09.321956 34948 net.cpp:380] conv5_2 -> conv5_2
I1018 12:24:09.328562 34948 net.cpp:122] Setting up conv5_2
I1018 12:24:09.328593 34948 net.cpp:129] Top shape: 50 512 18 18 (8294400)
I1018 12:24:09.328598 34948 net.cpp:137] Memory required for data: 9405853400
I1018 12:24:09.328613 34948 layer_factory.hpp:77] Creating layer relu5_2
I1018 12:24:09.328634 34948 net.cpp:84] Creating Layer relu5_2
I1018 12:24:09.328640 34948 net.cpp:406] relu5_2 <- conv5_2
I1018 12:24:09.328650 34948 net.cpp:367] relu5_2 -> conv5_2 (in-place)
I1018 12:24:09.328663 34948 net.cpp:122] Setting up relu5_2
I1018 12:24:09.328670 34948 net.cpp:129] Top shape: 50 512 18 18 (8294400)
I1018 12:24:09.328675 34948 net.cpp:137] Memory required for data: 9439031000
I1018 12:24:09.328678 34948 layer_factory.hpp:77] Creating layer conv5_3
I1018 12:24:09.328691 34948 net.cpp:84] Creating Layer conv5_3
I1018 12:24:09.328694 34948 net.cpp:406] conv5_3 <- conv5_2
I1018 12:24:09.328704 34948 net.cpp:380] conv5_3 -> conv5_3
I1018 12:24:09.335180 34948 net.cpp:122] Setting up conv5_3
I1018 12:24:09.335212 34948 net.cpp:129] Top shape: 50 512 18 18 (8294400)
I1018 12:24:09.335222 34948 net.cpp:137] Memory required for data: 9472208600
I1018 12:24:09.335239 34948 layer_factory.hpp:77] Creating layer relu5_3
I1018 12:24:09.335258 34948 net.cpp:84] Creating Layer relu5_3
I1018 12:24:09.335269 34948 net.cpp:406] relu5_3 <- conv5_3
I1018 12:24:09.335283 34948 net.cpp:367] relu5_3 -> conv5_3 (in-place)
I1018 12:24:09.335302 34948 net.cpp:122] Setting up relu5_3
I1018 12:24:09.335310 34948 net.cpp:129] Top shape: 50 512 18 18 (8294400)
I1018 12:24:09.335314 34948 net.cpp:137] Memory required for data: 9505386200
I1018 12:24:09.335319 34948 layer_factory.hpp:77] Creating layer pool5
I1018 12:24:09.335330 34948 net.cpp:84] Creating Layer pool5
I1018 12:24:09.335335 34948 net.cpp:406] pool5 <- conv5_3
I1018 12:24:09.335343 34948 net.cpp:380] pool5 -> pool5
I1018 12:24:09.335395 34948 net.cpp:122] Setting up pool5
I1018 12:24:09.335403 34948 net.cpp:129] Top shape: 50 512 9 9 (2073600)
I1018 12:24:09.335408 34948 net.cpp:137] Memory required for data: 9513680600
I1018 12:24:09.335413 34948 layer_factory.hpp:77] Creating layer fc6-conv
I1018 12:24:09.335424 34948 net.cpp:84] Creating Layer fc6-conv
I1018 12:24:09.335429 34948 net.cpp:406] fc6-conv <- pool5
I1018 12:24:09.335438 34948 net.cpp:380] fc6-conv -> fc6-conv
I1018 12:24:09.626911 34948 net.cpp:122] Setting up fc6-conv
I1018 12:24:09.626950 34948 net.cpp:129] Top shape: 50 4096 3 3 (1843200)
I1018 12:24:09.626957 34948 net.cpp:137] Memory required for data: 9521053400
I1018 12:24:09.626969 34948 layer_factory.hpp:77] Creating layer relu6
I1018 12:24:09.626983 34948 net.cpp:84] Creating Layer relu6
I1018 12:24:09.626991 34948 net.cpp:406] relu6 <- fc6-conv
I1018 12:24:09.627001 34948 net.cpp:367] relu6 -> fc6-conv (in-place)
I1018 12:24:09.627013 34948 net.cpp:122] Setting up relu6
I1018 12:24:09.627020 34948 net.cpp:129] Top shape: 50 4096 3 3 (1843200)
I1018 12:24:09.627024 34948 net.cpp:137] Memory required for data: 9528426200
I1018 12:24:09.627029 34948 layer_factory.hpp:77] Creating layer drop6
I1018 12:24:09.627039 34948 net.cpp:84] Creating Layer drop6
I1018 12:24:09.627044 34948 net.cpp:406] drop6 <- fc6-conv
I1018 12:24:09.627053 34948 net.cpp:367] drop6 -> fc6-conv (in-place)
I1018 12:24:09.627086 34948 net.cpp:122] Setting up drop6
I1018 12:24:09.627094 34948 net.cpp:129] Top shape: 50 4096 3 3 (1843200)
I1018 12:24:09.627099 34948 net.cpp:137] Memory required for data: 9535799000
I1018 12:24:09.627104 34948 layer_factory.hpp:77] Creating layer fc7-conv
I1018 12:24:09.627115 34948 net.cpp:84] Creating Layer fc7-conv
I1018 12:24:09.627120 34948 net.cpp:406] fc7-conv <- fc6-conv
I1018 12:24:09.627130 34948 net.cpp:380] fc7-conv -> fc7-conv
I1018 12:24:09.676949 34948 net.cpp:122] Setting up fc7-conv
I1018 12:24:09.676987 34948 net.cpp:129] Top shape: 50 4096 3 3 (1843200)
I1018 12:24:09.676993 34948 net.cpp:137] Memory required for data: 9543171800
I1018 12:24:09.677007 34948 layer_factory.hpp:77] Creating layer relu7
I1018 12:24:09.677026 34948 net.cpp:84] Creating Layer relu7
I1018 12:24:09.677033 34948 net.cpp:406] relu7 <- fc7-conv
I1018 12:24:09.677047 34948 net.cpp:367] relu7 -> fc7-conv (in-place)
I1018 12:24:09.677062 34948 net.cpp:122] Setting up relu7
I1018 12:24:09.677068 34948 net.cpp:129] Top shape: 50 4096 3 3 (1843200)
I1018 12:24:09.677073 34948 net.cpp:137] Memory required for data: 9550544600
I1018 12:24:09.677078 34948 layer_factory.hpp:77] Creating layer drop7
I1018 12:24:09.677086 34948 net.cpp:84] Creating Layer drop7
I1018 12:24:09.677091 34948 net.cpp:406] drop7 <- fc7-conv
I1018 12:24:09.677100 34948 net.cpp:367] drop7 -> fc7-conv (in-place)
I1018 12:24:09.677135 34948 net.cpp:122] Setting up drop7
I1018 12:24:09.677144 34948 net.cpp:129] Top shape: 50 4096 3 3 (1843200)
I1018 12:24:09.677148 34948 net.cpp:137] Memory required for data: 9557917400
I1018 12:24:09.677152 34948 layer_factory.hpp:77] Creating layer fc7-conv_re
I1018 12:24:09.677165 34948 net.cpp:84] Creating Layer fc7-conv_re
I1018 12:24:09.677170 34948 net.cpp:406] fc7-conv_re <- fc7-conv
I1018 12:24:09.677177 34948 net.cpp:380] fc7-conv_re -> fc7-conv_re
I1018 12:24:09.677211 34948 net.cpp:122] Setting up fc7-conv_re
I1018 12:24:09.677219 34948 net.cpp:129] Top shape: 50 4096 9 (1843200)
I1018 12:24:09.677223 34948 net.cpp:137] Memory required for data: 9565290200
I1018 12:24:09.677228 34948 layer_factory.hpp:77] Creating layer fc7-conv_tran
I1018 12:24:09.677311 34948 net.cpp:84] Creating Layer fc7-conv_tran
I1018 12:24:09.677322 34948 net.cpp:406] fc7-conv_tran <- fc7-conv_re
I1018 12:24:09.677333 34948 net.cpp:380] fc7-conv_tran -> fc7-conv_tran
I1018 12:24:09.682245 34948 net.cpp:122] Setting up fc7-conv_tran
I1018 12:24:09.682265 34948 net.cpp:129] Top shape: 4 50 4096 (819200)
I1018 12:24:09.682271 34948 net.cpp:137] Memory required for data: 9568567000
I1018 12:24:09.682277 34948 layer_factory.hpp:77] Creating layer lstm1
I1018 12:24:09.682289 34948 net.cpp:84] Creating Layer lstm1
I1018 12:24:09.682296 34948 net.cpp:406] lstm1 <- fc7-conv_tran
I1018 12:24:09.682303 34948 net.cpp:406] lstm1 <- clip_markers
I1018 12:24:09.682312 34948 net.cpp:380] lstm1 -> lstm1
I1018 12:24:09.682327 34948 recurrent_layer.cpp:20] Initializing recurrent layer: assuming input batch contains 4 timesteps of 50 independent streams.
I1018 12:24:09.682663 34948 net.cpp:51] Initializing net from parameters: 
layer {
  name: "lstm1_"
  type: "Input"
  top: "x"
  top: "cont"
  input_param {
    shape {
      dim: 4
      dim: 50
      dim: 4096
    }
    shape {
      dim: 4
      dim: 50
    }
  }
}
layer {
  name: "lstm1_"
  type: "Input"
  top: "c_0"
  top: "h_0"
  input_param {
    shape {
      dim: 1
      dim: 50
      dim: 512
    }
    shape {
      dim: 1
      dim: 50
      dim: 512
    }
  }
}
layer {
  name: "lstm1_cont_slice"
  type: "Slice"
  bottom: "cont"
  top: "cont_1"
  top: "cont_2"
  top: "cont_3"
  top: "cont_4"
  slice_param {
    axis: 0
  }
}
layer {
  name: "lstm1_x_transform"
  type: "InnerProduct"
  bottom: "x"
  top: "W_xc_x"
  param {
    name: "W_xc"
  }
  param {
    name: "b_c"
  }
  propagate_down: true
  inner_product_param {
    num_output: 2048
    bias_term: true
    weight_filler {
      type: "uniform"
      min: -0.01
      max: 0.01
    }
    bias_filler {
      type: "constant"
      value: 0
    }
    axis: 2
  }
}
layer {
  name: "lstm1_W_xc_x_slice"
  type: "Slice"
  bottom: "W_xc_x"
  top: "W_xc_x_1"
  top: "W_xc_x_2"
  top: "W_xc_x_3"
  top: "W_xc_x_4"
  slice_param {
    axis: 0
  }
}
layer {
  name: "lstm1_h_conted_0"
  type: "Scale"
  bottom: "h_0"
  bottom: "cont_1"
  top: "h_conted_0"
  scale_param {
    axis: 0
  }
}
layer {
  name: "lstm1_transform_1"
  type: "InnerProduct"
  bottom: "h_conted_0"
  top: "W_hc_h_0"
  param {
    name: "W_hc"
  }
  inner_product_param {
    num_output: 2048
    bias_term: false
    weight_filler {
      type: "uniform"
      min: -0.01
      max: 0.01
    }
    axis: 2
  }
}
layer {
  name: "lstm1_gate_input_1"
  type: "Eltwise"
  bottom: "W_hc_h_0"
  bottom: "W_xc_x_1"
  top: "gate_input_1"
  eltwise_param {
    operation: SUM
  }
}
layer {
  name: "lstm1_unit_1"
  type: "LSTMUnit"
  bottom: "c_0"
  bottom: "gate_input_1"
  bottom: "cont_1"
  top: "c_1"
  top: "h_1"
}
layer {
  name: "lstm1_h_conted_1"
  type: "Scale"
  bottom: "h_1"
  bottom: "cont_2"
  top: "h_conted_1"
  scale_param {
    axis: 0
  }
}
layer {
  name: "lstm1_transform_2"
  type: "InnerProduct"
  bottom: "h_conted_1"
  top: "W_hc_h_1"
  param {
    name: "W_hc"
  }
  inner_product_param {
    num_output: 2048
    bias_term: false
    weight_filler {
      type: "uniform"
      min: -0.01
      max: 0.01
    }
    axis: 2
  }
}
layer {
  name: "lstm1_gate_input_2"
  type: "Eltwise"
  bottom: "W_hc_h_1"
  bottom: "W_xc_x_2"
  top: "gate_input_2"
  eltwise_param {
    operation: SUM
  }
}
layer {
  name: "lstm1_unit_2"
  type: "LSTMUnit"
  bottom: "c_1"
  bottom: "gate_input_2"
  bottom: "cont_2"
  top: "c_2"
  top: "h_2"
}
layer {
  name: "lstm1_h_conted_2"
  type: "Scale"
  bottom: "h_2"
  bottom: "cont_3"
  top: "h_conted_2"
  scale_param {
    axis: 0
  }
}
layer {
  name: "lstm1_transform_3"
  type: "InnerProduct"
  bottom: "h_conted_2"
  top: "W_hc_h_2"
  param {
    name: "W_hc"
  }
  inner_product_param {
    num_output: 2048
    bias_term: false
    weight_filler {
      type: "uniform"
      min: -0.01
      max: 0.01
    }
    axis: 2
  }
}
layer {
  name: "lstm1_gate_input_3"
  type: "Eltwise"
  bottom: "W_hc_h_2"
  bottom: "W_xc_x_3"
  top: "gate_input_3"
  eltwise_param {
    operation: SUM
  }
}
layer {
  name: "lstm1_unit_3"
  type: "LSTMUnit"
  bottom: "c_2"
  bottom: "gate_input_3"
  bottom: "cont_3"
  top: "c_3"
  top: "h_3"
}
layer {
  name: "lstm1_h_conted_3"
  type: "Scale"
  bottom: "h_3"
  bottom: "cont_4"
  top: "h_conted_3"
  scale_param {
    axis: 0
  }
}
layer {
  name: "lstm1_transform_4"
  type: "InnerProduct"
  bottom: "h_conted_3"
  top: "W_hc_h_3"
  param {
    name: "W_hc"
  }
  inner_product_param {
    num_output: 2048
    bias_term: false
    weight_filler {
      type: "uniform"
      min: -0.01
      max: 0.01
    }
    axis: 2
  }
}
layer {
  name: "lstm1_gate_input_4"
  type: "Eltwise"
  bottom: "W_hc_h_3"
  bottom: "W_xc_x_4"
  top: "gate_input_4"
  eltwise_param {
    operation: SUM
  }
}
layer {
  name: "lstm1_unit_4"
  type: "LSTMUnit"
  bottom: "c_3"
  bottom: "gate_input_4"
  bottom: "cont_4"
  top: "c_4"
  top: "h_4"
}
layer {
  name: "lstm1_"
  type: "Split"
  bottom: "c_4"
  top: "c_T"
}
layer {
  name: "lstm1_h_concat"
  type: "Concat"
  bottom: "h_1"
  bottom: "h_2"
  bottom: "h_3"
  bottom: "h_4"
  top: "h"
  concat_param {
    axis: 0
  }
}
layer {
  name: "h_pseudoloss"
  type: "Reduction"
  bottom: "h"
  top: "h_pseudoloss"
  loss_weight: 1
}
I1018 12:24:09.682860 34948 layer_factory.hpp:77] Creating layer lstm1_
I1018 12:24:09.682873 34948 net.cpp:84] Creating Layer lstm1_
I1018 12:24:09.682879 34948 net.cpp:380] lstm1_ -> x
I1018 12:24:09.682891 34948 net.cpp:380] lstm1_ -> cont
I1018 12:24:09.682950 34948 net.cpp:122] Setting up lstm1_
I1018 12:24:09.682960 34948 net.cpp:129] Top shape: 4 50 4096 (819200)
I1018 12:24:09.682965 34948 net.cpp:129] Top shape: 4 50 (200)
I1018 12:24:09.682971 34948 net.cpp:137] Memory required for data: 3277600
I1018 12:24:09.682976 34948 layer_factory.hpp:77] Creating layer lstm1_
I1018 12:24:09.682983 34948 net.cpp:84] Creating Layer lstm1_
I1018 12:24:09.682991 34948 net.cpp:380] lstm1_ -> c_0
I1018 12:24:09.683001 34948 net.cpp:380] lstm1_ -> h_0
I1018 12:24:09.683053 34948 net.cpp:122] Setting up lstm1_
I1018 12:24:09.683063 34948 net.cpp:129] Top shape: 1 50 512 (25600)
I1018 12:24:09.683068 34948 net.cpp:129] Top shape: 1 50 512 (25600)
I1018 12:24:09.683073 34948 net.cpp:137] Memory required for data: 3482400
I1018 12:24:09.683076 34948 layer_factory.hpp:77] Creating layer lstm1_cont_slice
I1018 12:24:09.683084 34948 net.cpp:84] Creating Layer lstm1_cont_slice
I1018 12:24:09.683089 34948 net.cpp:406] lstm1_cont_slice <- cont
I1018 12:24:09.683097 34948 net.cpp:380] lstm1_cont_slice -> cont_1
I1018 12:24:09.683109 34948 net.cpp:380] lstm1_cont_slice -> cont_2
I1018 12:24:09.683116 34948 net.cpp:380] lstm1_cont_slice -> cont_3
I1018 12:24:09.683123 34948 net.cpp:380] lstm1_cont_slice -> cont_4
I1018 12:24:09.683197 34948 net.cpp:122] Setting up lstm1_cont_slice
I1018 12:24:09.683203 34948 net.cpp:129] Top shape: 1 50 (50)
I1018 12:24:09.683209 34948 net.cpp:129] Top shape: 1 50 (50)
I1018 12:24:09.683215 34948 net.cpp:129] Top shape: 1 50 (50)
I1018 12:24:09.683220 34948 net.cpp:129] Top shape: 1 50 (50)
I1018 12:24:09.683224 34948 net.cpp:137] Memory required for data: 3483200
I1018 12:24:09.683229 34948 layer_factory.hpp:77] Creating layer cont_1_lstm1_cont_slice_0_split
I1018 12:24:09.683238 34948 net.cpp:84] Creating Layer cont_1_lstm1_cont_slice_0_split
I1018 12:24:09.683243 34948 net.cpp:406] cont_1_lstm1_cont_slice_0_split <- cont_1
I1018 12:24:09.683250 34948 net.cpp:380] cont_1_lstm1_cont_slice_0_split -> cont_1_lstm1_cont_slice_0_split_0
I1018 12:24:09.683261 34948 net.cpp:380] cont_1_lstm1_cont_slice_0_split -> cont_1_lstm1_cont_slice_0_split_1
I1018 12:24:09.683302 34948 net.cpp:122] Setting up cont_1_lstm1_cont_slice_0_split
I1018 12:24:09.683310 34948 net.cpp:129] Top shape: 1 50 (50)
I1018 12:24:09.683315 34948 net.cpp:129] Top shape: 1 50 (50)
I1018 12:24:09.683320 34948 net.cpp:137] Memory required for data: 3483600
I1018 12:24:09.683324 34948 layer_factory.hpp:77] Creating layer cont_2_lstm1_cont_slice_1_split
I1018 12:24:09.683332 34948 net.cpp:84] Creating Layer cont_2_lstm1_cont_slice_1_split
I1018 12:24:09.683337 34948 net.cpp:406] cont_2_lstm1_cont_slice_1_split <- cont_2
I1018 12:24:09.683344 34948 net.cpp:380] cont_2_lstm1_cont_slice_1_split -> cont_2_lstm1_cont_slice_1_split_0
I1018 12:24:09.683351 34948 net.cpp:380] cont_2_lstm1_cont_slice_1_split -> cont_2_lstm1_cont_slice_1_split_1
I1018 12:24:09.683394 34948 net.cpp:122] Setting up cont_2_lstm1_cont_slice_1_split
I1018 12:24:09.683401 34948 net.cpp:129] Top shape: 1 50 (50)
I1018 12:24:09.683406 34948 net.cpp:129] Top shape: 1 50 (50)
I1018 12:24:09.683411 34948 net.cpp:137] Memory required for data: 3484000
I1018 12:24:09.683415 34948 layer_factory.hpp:77] Creating layer cont_3_lstm1_cont_slice_2_split
I1018 12:24:09.683421 34948 net.cpp:84] Creating Layer cont_3_lstm1_cont_slice_2_split
I1018 12:24:09.683426 34948 net.cpp:406] cont_3_lstm1_cont_slice_2_split <- cont_3
I1018 12:24:09.683432 34948 net.cpp:380] cont_3_lstm1_cont_slice_2_split -> cont_3_lstm1_cont_slice_2_split_0
I1018 12:24:09.683442 34948 net.cpp:380] cont_3_lstm1_cont_slice_2_split -> cont_3_lstm1_cont_slice_2_split_1
I1018 12:24:09.683477 34948 net.cpp:122] Setting up cont_3_lstm1_cont_slice_2_split
I1018 12:24:09.683485 34948 net.cpp:129] Top shape: 1 50 (50)
I1018 12:24:09.683490 34948 net.cpp:129] Top shape: 1 50 (50)
I1018 12:24:09.683495 34948 net.cpp:137] Memory required for data: 3484400
I1018 12:24:09.683499 34948 layer_factory.hpp:77] Creating layer cont_4_lstm1_cont_slice_3_split
I1018 12:24:09.683506 34948 net.cpp:84] Creating Layer cont_4_lstm1_cont_slice_3_split
I1018 12:24:09.683509 34948 net.cpp:406] cont_4_lstm1_cont_slice_3_split <- cont_4
I1018 12:24:09.683518 34948 net.cpp:380] cont_4_lstm1_cont_slice_3_split -> cont_4_lstm1_cont_slice_3_split_0
I1018 12:24:09.683526 34948 net.cpp:380] cont_4_lstm1_cont_slice_3_split -> cont_4_lstm1_cont_slice_3_split_1
I1018 12:24:09.683564 34948 net.cpp:122] Setting up cont_4_lstm1_cont_slice_3_split
I1018 12:24:09.683571 34948 net.cpp:129] Top shape: 1 50 (50)
I1018 12:24:09.683576 34948 net.cpp:129] Top shape: 1 50 (50)
I1018 12:24:09.683581 34948 net.cpp:137] Memory required for data: 3484800
I1018 12:24:09.683585 34948 layer_factory.hpp:77] Creating layer lstm1_x_transform
I1018 12:24:09.683593 34948 net.cpp:84] Creating Layer lstm1_x_transform
I1018 12:24:09.683598 34948 net.cpp:406] lstm1_x_transform <- x
I1018 12:24:09.683606 34948 net.cpp:380] lstm1_x_transform -> W_xc_x
I1018 12:24:09.797041 34948 net.cpp:122] Setting up lstm1_x_transform
I1018 12:24:09.797077 34948 net.cpp:129] Top shape: 4 50 2048 (409600)
I1018 12:24:09.797083 34948 net.cpp:137] Memory required for data: 5123200
I1018 12:24:09.797104 34948 layer_factory.hpp:77] Creating layer lstm1_W_xc_x_slice
I1018 12:24:09.797124 34948 net.cpp:84] Creating Layer lstm1_W_xc_x_slice
I1018 12:24:09.797132 34948 net.cpp:406] lstm1_W_xc_x_slice <- W_xc_x
I1018 12:24:09.797142 34948 net.cpp:380] lstm1_W_xc_x_slice -> W_xc_x_1
I1018 12:24:09.797155 34948 net.cpp:380] lstm1_W_xc_x_slice -> W_xc_x_2
I1018 12:24:09.797163 34948 net.cpp:380] lstm1_W_xc_x_slice -> W_xc_x_3
I1018 12:24:09.797171 34948 net.cpp:380] lstm1_W_xc_x_slice -> W_xc_x_4
I1018 12:24:09.797263 34948 net.cpp:122] Setting up lstm1_W_xc_x_slice
I1018 12:24:09.797273 34948 net.cpp:129] Top shape: 1 50 2048 (102400)
I1018 12:24:09.797279 34948 net.cpp:129] Top shape: 1 50 2048 (102400)
I1018 12:24:09.797286 34948 net.cpp:129] Top shape: 1 50 2048 (102400)
I1018 12:24:09.797291 34948 net.cpp:129] Top shape: 1 50 2048 (102400)
I1018 12:24:09.797294 34948 net.cpp:137] Memory required for data: 6761600
I1018 12:24:09.797299 34948 layer_factory.hpp:77] Creating layer lstm1_h_conted_0
I1018 12:24:09.797310 34948 net.cpp:84] Creating Layer lstm1_h_conted_0
I1018 12:24:09.797317 34948 net.cpp:406] lstm1_h_conted_0 <- h_0
I1018 12:24:09.797324 34948 net.cpp:406] lstm1_h_conted_0 <- cont_1_lstm1_cont_slice_0_split_0
I1018 12:24:09.797334 34948 net.cpp:380] lstm1_h_conted_0 -> h_conted_0
I1018 12:24:09.797426 34948 net.cpp:122] Setting up lstm1_h_conted_0
I1018 12:24:09.797436 34948 net.cpp:129] Top shape: 1 50 512 (25600)
I1018 12:24:09.797441 34948 net.cpp:137] Memory required for data: 6864000
I1018 12:24:09.797446 34948 layer_factory.hpp:77] Creating layer lstm1_transform_1
I1018 12:24:09.797457 34948 net.cpp:84] Creating Layer lstm1_transform_1
I1018 12:24:09.797462 34948 net.cpp:406] lstm1_transform_1 <- h_conted_0
I1018 12:24:09.797483 34948 net.cpp:380] lstm1_transform_1 -> W_hc_h_0
I1018 12:24:09.810928 34948 net.cpp:122] Setting up lstm1_transform_1
I1018 12:24:09.810947 34948 net.cpp:129] Top shape: 1 50 2048 (102400)
I1018 12:24:09.810952 34948 net.cpp:137] Memory required for data: 7273600
I1018 12:24:09.810963 34948 layer_factory.hpp:77] Creating layer lstm1_gate_input_1
I1018 12:24:09.810974 34948 net.cpp:84] Creating Layer lstm1_gate_input_1
I1018 12:24:09.810979 34948 net.cpp:406] lstm1_gate_input_1 <- W_hc_h_0
I1018 12:24:09.810986 34948 net.cpp:406] lstm1_gate_input_1 <- W_xc_x_1
I1018 12:24:09.810995 34948 net.cpp:380] lstm1_gate_input_1 -> gate_input_1
I1018 12:24:09.811030 34948 net.cpp:122] Setting up lstm1_gate_input_1
I1018 12:24:09.811038 34948 net.cpp:129] Top shape: 1 50 2048 (102400)
I1018 12:24:09.811043 34948 net.cpp:137] Memory required for data: 7683200
I1018 12:24:09.811048 34948 layer_factory.hpp:77] Creating layer lstm1_unit_1
I1018 12:24:09.811056 34948 net.cpp:84] Creating Layer lstm1_unit_1
I1018 12:24:09.811061 34948 net.cpp:406] lstm1_unit_1 <- c_0
I1018 12:24:09.811069 34948 net.cpp:406] lstm1_unit_1 <- gate_input_1
I1018 12:24:09.811074 34948 net.cpp:406] lstm1_unit_1 <- cont_1_lstm1_cont_slice_0_split_1
I1018 12:24:09.811080 34948 net.cpp:380] lstm1_unit_1 -> c_1
I1018 12:24:09.811090 34948 net.cpp:380] lstm1_unit_1 -> h_1
I1018 12:24:09.811147 34948 net.cpp:122] Setting up lstm1_unit_1
I1018 12:24:09.811154 34948 net.cpp:129] Top shape: 1 50 512 (25600)
I1018 12:24:09.811161 34948 net.cpp:129] Top shape: 1 50 512 (25600)
I1018 12:24:09.811166 34948 net.cpp:137] Memory required for data: 7888000
I1018 12:24:09.811170 34948 layer_factory.hpp:77] Creating layer h_1_lstm1_unit_1_1_split
I1018 12:24:09.811177 34948 net.cpp:84] Creating Layer h_1_lstm1_unit_1_1_split
I1018 12:24:09.811182 34948 net.cpp:406] h_1_lstm1_unit_1_1_split <- h_1
I1018 12:24:09.811189 34948 net.cpp:380] h_1_lstm1_unit_1_1_split -> h_1_lstm1_unit_1_1_split_0
I1018 12:24:09.811197 34948 net.cpp:380] h_1_lstm1_unit_1_1_split -> h_1_lstm1_unit_1_1_split_1
I1018 12:24:09.811236 34948 net.cpp:122] Setting up h_1_lstm1_unit_1_1_split
I1018 12:24:09.811244 34948 net.cpp:129] Top shape: 1 50 512 (25600)
I1018 12:24:09.811249 34948 net.cpp:129] Top shape: 1 50 512 (25600)
I1018 12:24:09.811254 34948 net.cpp:137] Memory required for data: 8092800
I1018 12:24:09.811259 34948 layer_factory.hpp:77] Creating layer lstm1_h_conted_1
I1018 12:24:09.811266 34948 net.cpp:84] Creating Layer lstm1_h_conted_1
I1018 12:24:09.811271 34948 net.cpp:406] lstm1_h_conted_1 <- h_1_lstm1_unit_1_1_split_0
I1018 12:24:09.811277 34948 net.cpp:406] lstm1_h_conted_1 <- cont_2_lstm1_cont_slice_1_split_0
I1018 12:24:09.811291 34948 net.cpp:380] lstm1_h_conted_1 -> h_conted_1
I1018 12:24:09.811358 34948 net.cpp:122] Setting up lstm1_h_conted_1
I1018 12:24:09.811365 34948 net.cpp:129] Top shape: 1 50 512 (25600)
I1018 12:24:09.811370 34948 net.cpp:137] Memory required for data: 8195200
I1018 12:24:09.811375 34948 layer_factory.hpp:77] Creating layer lstm1_transform_2
I1018 12:24:09.811383 34948 net.cpp:84] Creating Layer lstm1_transform_2
I1018 12:24:09.811388 34948 net.cpp:406] lstm1_transform_2 <- h_conted_1
I1018 12:24:09.811398 34948 net.cpp:380] lstm1_transform_2 -> W_hc_h_1
I1018 12:24:09.824668 34948 net.cpp:122] Setting up lstm1_transform_2
I1018 12:24:09.824739 34948 net.cpp:129] Top shape: 1 50 2048 (102400)
I1018 12:24:09.824774 34948 net.cpp:137] Memory required for data: 8604800
I1018 12:24:09.824805 34948 net.cpp:465] Sharing parameters 'W_hc' owned by layer 'lstm1_transform_1', param index 0
I1018 12:24:09.824837 34948 layer_factory.hpp:77] Creating layer lstm1_gate_input_2
I1018 12:24:09.824895 34948 net.cpp:84] Creating Layer lstm1_gate_input_2
I1018 12:24:09.824908 34948 net.cpp:406] lstm1_gate_input_2 <- W_hc_h_1
I1018 12:24:09.824916 34948 net.cpp:406] lstm1_gate_input_2 <- W_xc_x_2
I1018 12:24:09.824928 34948 net.cpp:380] lstm1_gate_input_2 -> gate_input_2
I1018 12:24:09.824967 34948 net.cpp:122] Setting up lstm1_gate_input_2
I1018 12:24:09.824975 34948 net.cpp:129] Top shape: 1 50 2048 (102400)
I1018 12:24:09.824980 34948 net.cpp:137] Memory required for data: 9014400
I1018 12:24:09.824985 34948 layer_factory.hpp:77] Creating layer lstm1_unit_2
I1018 12:24:09.824993 34948 net.cpp:84] Creating Layer lstm1_unit_2
I1018 12:24:09.824997 34948 net.cpp:406] lstm1_unit_2 <- c_1
I1018 12:24:09.825004 34948 net.cpp:406] lstm1_unit_2 <- gate_input_2
I1018 12:24:09.825011 34948 net.cpp:406] lstm1_unit_2 <- cont_2_lstm1_cont_slice_1_split_1
I1018 12:24:09.825016 34948 net.cpp:380] lstm1_unit_2 -> c_2
I1018 12:24:09.825024 34948 net.cpp:380] lstm1_unit_2 -> h_2
I1018 12:24:09.825083 34948 net.cpp:122] Setting up lstm1_unit_2
I1018 12:24:09.825105 34948 net.cpp:129] Top shape: 1 50 512 (25600)
I1018 12:24:09.825141 34948 net.cpp:129] Top shape: 1 50 512 (25600)
I1018 12:24:09.825145 34948 net.cpp:137] Memory required for data: 9219200
I1018 12:24:09.825150 34948 layer_factory.hpp:77] Creating layer h_2_lstm1_unit_2_1_split
I1018 12:24:09.825157 34948 net.cpp:84] Creating Layer h_2_lstm1_unit_2_1_split
I1018 12:24:09.825163 34948 net.cpp:406] h_2_lstm1_unit_2_1_split <- h_2
I1018 12:24:09.825170 34948 net.cpp:380] h_2_lstm1_unit_2_1_split -> h_2_lstm1_unit_2_1_split_0
I1018 12:24:09.825178 34948 net.cpp:380] h_2_lstm1_unit_2_1_split -> h_2_lstm1_unit_2_1_split_1
I1018 12:24:09.825222 34948 net.cpp:122] Setting up h_2_lstm1_unit_2_1_split
I1018 12:24:09.825228 34948 net.cpp:129] Top shape: 1 50 512 (25600)
I1018 12:24:09.825234 34948 net.cpp:129] Top shape: 1 50 512 (25600)
I1018 12:24:09.825238 34948 net.cpp:137] Memory required for data: 9424000
I1018 12:24:09.825243 34948 layer_factory.hpp:77] Creating layer lstm1_h_conted_2
I1018 12:24:09.825251 34948 net.cpp:84] Creating Layer lstm1_h_conted_2
I1018 12:24:09.825256 34948 net.cpp:406] lstm1_h_conted_2 <- h_2_lstm1_unit_2_1_split_0
I1018 12:24:09.825265 34948 net.cpp:406] lstm1_h_conted_2 <- cont_3_lstm1_cont_slice_2_split_0
I1018 12:24:09.825271 34948 net.cpp:380] lstm1_h_conted_2 -> h_conted_2
I1018 12:24:09.825338 34948 net.cpp:122] Setting up lstm1_h_conted_2
I1018 12:24:09.825350 34948 net.cpp:129] Top shape: 1 50 512 (25600)
I1018 12:24:09.825354 34948 net.cpp:137] Memory required for data: 9526400
I1018 12:24:09.825359 34948 layer_factory.hpp:77] Creating layer lstm1_transform_3
I1018 12:24:09.825369 34948 net.cpp:84] Creating Layer lstm1_transform_3
I1018 12:24:09.825374 34948 net.cpp:406] lstm1_transform_3 <- h_conted_2
I1018 12:24:09.825383 34948 net.cpp:380] lstm1_transform_3 -> W_hc_h_2
I1018 12:24:09.838634 34948 net.cpp:122] Setting up lstm1_transform_3
I1018 12:24:09.838654 34948 net.cpp:129] Top shape: 1 50 2048 (102400)
I1018 12:24:09.838665 34948 net.cpp:137] Memory required for data: 9936000
I1018 12:24:09.838673 34948 net.cpp:465] Sharing parameters 'W_hc' owned by layer 'lstm1_transform_1', param index 0
I1018 12:24:09.838680 34948 layer_factory.hpp:77] Creating layer lstm1_gate_input_3
I1018 12:24:09.838688 34948 net.cpp:84] Creating Layer lstm1_gate_input_3
I1018 12:24:09.838695 34948 net.cpp:406] lstm1_gate_input_3 <- W_hc_h_2
I1018 12:24:09.838703 34948 net.cpp:406] lstm1_gate_input_3 <- W_xc_x_3
I1018 12:24:09.838711 34948 net.cpp:380] lstm1_gate_input_3 -> gate_input_3
I1018 12:24:09.838745 34948 net.cpp:122] Setting up lstm1_gate_input_3
I1018 12:24:09.838754 34948 net.cpp:129] Top shape: 1 50 2048 (102400)
I1018 12:24:09.838758 34948 net.cpp:137] Memory required for data: 10345600
I1018 12:24:09.838769 34948 layer_factory.hpp:77] Creating layer lstm1_unit_3
I1018 12:24:09.838776 34948 net.cpp:84] Creating Layer lstm1_unit_3
I1018 12:24:09.838781 34948 net.cpp:406] lstm1_unit_3 <- c_2
I1018 12:24:09.838788 34948 net.cpp:406] lstm1_unit_3 <- gate_input_3
I1018 12:24:09.838793 34948 net.cpp:406] lstm1_unit_3 <- cont_3_lstm1_cont_slice_2_split_1
I1018 12:24:09.838802 34948 net.cpp:380] lstm1_unit_3 -> c_3
I1018 12:24:09.838810 34948 net.cpp:380] lstm1_unit_3 -> h_3
I1018 12:24:09.838862 34948 net.cpp:122] Setting up lstm1_unit_3
I1018 12:24:09.838871 34948 net.cpp:129] Top shape: 1 50 512 (25600)
I1018 12:24:09.838876 34948 net.cpp:129] Top shape: 1 50 512 (25600)
I1018 12:24:09.838881 34948 net.cpp:137] Memory required for data: 10550400
I1018 12:24:09.838886 34948 layer_factory.hpp:77] Creating layer h_3_lstm1_unit_3_1_split
I1018 12:24:09.838892 34948 net.cpp:84] Creating Layer h_3_lstm1_unit_3_1_split
I1018 12:24:09.838896 34948 net.cpp:406] h_3_lstm1_unit_3_1_split <- h_3
I1018 12:24:09.838903 34948 net.cpp:380] h_3_lstm1_unit_3_1_split -> h_3_lstm1_unit_3_1_split_0
I1018 12:24:09.838912 34948 net.cpp:380] h_3_lstm1_unit_3_1_split -> h_3_lstm1_unit_3_1_split_1
I1018 12:24:09.838949 34948 net.cpp:122] Setting up h_3_lstm1_unit_3_1_split
I1018 12:24:09.838958 34948 net.cpp:129] Top shape: 1 50 512 (25600)
I1018 12:24:09.838963 34948 net.cpp:129] Top shape: 1 50 512 (25600)
I1018 12:24:09.838966 34948 net.cpp:137] Memory required for data: 10755200
I1018 12:24:09.838971 34948 layer_factory.hpp:77] Creating layer lstm1_h_conted_3
I1018 12:24:09.838981 34948 net.cpp:84] Creating Layer lstm1_h_conted_3
I1018 12:24:09.838986 34948 net.cpp:406] lstm1_h_conted_3 <- h_3_lstm1_unit_3_1_split_0
I1018 12:24:09.838992 34948 net.cpp:406] lstm1_h_conted_3 <- cont_4_lstm1_cont_slice_3_split_0
I1018 12:24:09.839000 34948 net.cpp:380] lstm1_h_conted_3 -> h_conted_3
I1018 12:24:09.839066 34948 net.cpp:122] Setting up lstm1_h_conted_3
I1018 12:24:09.839092 34948 net.cpp:129] Top shape: 1 50 512 (25600)
I1018 12:24:09.839097 34948 net.cpp:137] Memory required for data: 10857600
I1018 12:24:09.839102 34948 layer_factory.hpp:77] Creating layer lstm1_transform_4
I1018 12:24:09.839110 34948 net.cpp:84] Creating Layer lstm1_transform_4
I1018 12:24:09.839115 34948 net.cpp:406] lstm1_transform_4 <- h_conted_3
I1018 12:24:09.839125 34948 net.cpp:380] lstm1_transform_4 -> W_hc_h_3
I1018 12:24:09.852401 34948 net.cpp:122] Setting up lstm1_transform_4
I1018 12:24:09.852427 34948 net.cpp:129] Top shape: 1 50 2048 (102400)
I1018 12:24:09.852432 34948 net.cpp:137] Memory required for data: 11267200
I1018 12:24:09.852440 34948 net.cpp:465] Sharing parameters 'W_hc' owned by layer 'lstm1_transform_1', param index 0
I1018 12:24:09.852445 34948 layer_factory.hpp:77] Creating layer lstm1_gate_input_4
I1018 12:24:09.852455 34948 net.cpp:84] Creating Layer lstm1_gate_input_4
I1018 12:24:09.852461 34948 net.cpp:406] lstm1_gate_input_4 <- W_hc_h_3
I1018 12:24:09.852468 34948 net.cpp:406] lstm1_gate_input_4 <- W_xc_x_4
I1018 12:24:09.852478 34948 net.cpp:380] lstm1_gate_input_4 -> gate_input_4
I1018 12:24:09.852512 34948 net.cpp:122] Setting up lstm1_gate_input_4
I1018 12:24:09.852520 34948 net.cpp:129] Top shape: 1 50 2048 (102400)
I1018 12:24:09.852524 34948 net.cpp:137] Memory required for data: 11676800
I1018 12:24:09.852529 34948 layer_factory.hpp:77] Creating layer lstm1_unit_4
I1018 12:24:09.852543 34948 net.cpp:84] Creating Layer lstm1_unit_4
I1018 12:24:09.852548 34948 net.cpp:406] lstm1_unit_4 <- c_3
I1018 12:24:09.852555 34948 net.cpp:406] lstm1_unit_4 <- gate_input_4
I1018 12:24:09.852560 34948 net.cpp:406] lstm1_unit_4 <- cont_4_lstm1_cont_slice_3_split_1
I1018 12:24:09.852566 34948 net.cpp:380] lstm1_unit_4 -> c_4
I1018 12:24:09.852574 34948 net.cpp:380] lstm1_unit_4 -> h_4
I1018 12:24:09.852627 34948 net.cpp:122] Setting up lstm1_unit_4
I1018 12:24:09.852635 34948 net.cpp:129] Top shape: 1 50 512 (25600)
I1018 12:24:09.852641 34948 net.cpp:129] Top shape: 1 50 512 (25600)
I1018 12:24:09.852645 34948 net.cpp:137] Memory required for data: 11881600
I1018 12:24:09.852650 34948 layer_factory.hpp:77] Creating layer lstm1_
I1018 12:24:09.852658 34948 net.cpp:84] Creating Layer lstm1_
I1018 12:24:09.852661 34948 net.cpp:406] lstm1_ <- c_4
I1018 12:24:09.852669 34948 net.cpp:380] lstm1_ -> c_T
I1018 12:24:09.852692 34948 net.cpp:122] Setting up lstm1_
I1018 12:24:09.852699 34948 net.cpp:129] Top shape: 1 50 512 (25600)
I1018 12:24:09.852705 34948 net.cpp:137] Memory required for data: 11984000
I1018 12:24:09.852708 34948 layer_factory.hpp:77] Creating layer lstm1_h_concat
I1018 12:24:09.852720 34948 net.cpp:84] Creating Layer lstm1_h_concat
I1018 12:24:09.852725 34948 net.cpp:406] lstm1_h_concat <- h_1_lstm1_unit_1_1_split_1
I1018 12:24:09.852731 34948 net.cpp:406] lstm1_h_concat <- h_2_lstm1_unit_2_1_split_1
I1018 12:24:09.852737 34948 net.cpp:406] lstm1_h_concat <- h_3_lstm1_unit_3_1_split_1
I1018 12:24:09.852742 34948 net.cpp:406] lstm1_h_concat <- h_4
I1018 12:24:09.852748 34948 net.cpp:380] lstm1_h_concat -> h
I1018 12:24:09.852774 34948 net.cpp:122] Setting up lstm1_h_concat
I1018 12:24:09.852782 34948 net.cpp:129] Top shape: 4 50 512 (102400)
I1018 12:24:09.852785 34948 net.cpp:137] Memory required for data: 12393600
I1018 12:24:09.852789 34948 layer_factory.hpp:77] Creating layer h_pseudoloss
I1018 12:24:09.852797 34948 net.cpp:84] Creating Layer h_pseudoloss
I1018 12:24:09.852802 34948 net.cpp:406] h_pseudoloss <- h
I1018 12:24:09.852810 34948 net.cpp:380] h_pseudoloss -> h_pseudoloss
I1018 12:24:09.853773 34948 net.cpp:122] Setting up h_pseudoloss
…
I1018 12:24:09.853991 34948 net.cpp:200] lstm1_ does not need backward computation.
I1018 12:24:09.853994 34948 net.cpp:242] This network produces output c_T
I1018 12:24:09.853999 34948 net.cpp:242] This network produces output h_pseudoloss
I1018 12:24:09.856968 34948 net.cpp:255] Network initialization done.
I1018 12:24:09.857070 34948 recurrent_layer.cpp:150] Adding parameter 0: W_xc
I1018 12:24:09.857080 34948 recurrent_layer.cpp:150] Adding parameter 1: b_c
I1018 12:24:09.857085 34948 recurrent_layer.cpp:150] Adding parameter 2: W_hc
I1018 12:24:09.857316 34948 net.cpp:122] Setting up lstm1
I1018 12:24:09.857332 34948 net.cpp:129] Top shape: 4 50 512 (102400)
I1018 12:24:09.857337 34948 net.cpp:137] Memory required for data: 9568976600
I1018 12:24:09.857357 34948 layer_factory.hpp:77] Creating layer lstm1-drop
I1018 12:24:09.857367 34948 net.cpp:84] Creating Layer lstm1-drop
I1018 12:24:09.857373 34948 net.cpp:406] lstm1-drop <- lstm1
I1018 12:24:09.857381 34948 net.cpp:380] lstm1-drop -> lstm1-drop
I1018 12:24:09.857427 34948 net.cpp:122] Setting up lstm1-drop
I1018 12:24:09.857437 34948 net.cpp:129] Top shape: 4 50 512 (102400)
I1018 12:24:09.857442 34948 net.cpp:137] Memory required for data: 9569386200
I1018 12:24:09.857447 34948 layer_factory.hpp:77] Creating layer fc-final
I1018 12:24:09.857455 34948 net.cpp:84] Creating Layer fc-final
I1018 12:24:09.857461 34948 net.cpp:406] fc-final <- lstm1-drop
I1018 12:24:09.857470 34948 net.cpp:380] fc-final -> fc-final
I1018 12:24:09.857825 34948 net.cpp:122] Setting up fc-final
I1018 12:24:09.857836 34948 net.cpp:129] Top shape: 4 50 10 (2000)
I1018 12:24:09.857841 34948 net.cpp:137] Memory required for data: 9569394200
I1018 12:24:09.857848 34948 layer_factory.hpp:77] Creating layer fc-final_fc-final_0_split
I1018 12:24:09.857856 34948 net.cpp:84] Creating Layer fc-final_fc-final_0_split
I1018 12:24:09.857861 34948 net.cpp:406] fc-final_fc-final_0_split <- fc-final
I1018 12:24:09.857868 34948 net.cpp:380] fc-final_fc-final_0_split -> fc-final_fc-final_0_split_0
I1018 12:24:09.857877 34948 net.cpp:380] fc-final_fc-final_0_split -> fc-final_fc-final_0_split_1
I1018 12:24:09.857921 34948 net.cpp:122] Setting up fc-final_fc-final_0_split
I1018 12:24:09.857929 34948 net.cpp:129] Top shape: 4 50 10 (2000)
I1018 12:24:09.857934 34948 net.cpp:129] Top shape: 4 50 10 (2000)
I1018 12:24:09.857939 34948 net.cpp:137] Memory required for data: 9569410200
I1018 12:24:09.857944 34948 layer_factory.hpp:77] Creating layer loss
I1018 12:24:09.857952 34948 net.cpp:84] Creating Layer loss
I1018 12:24:09.857957 34948 net.cpp:406] loss <- fc-final_fc-final_0_split_0
I1018 12:24:09.857964 34948 net.cpp:406] loss <- reshape-label_label_tran_0_split_0
I1018 12:24:09.857971 34948 net.cpp:380] loss -> loss
…
