…
I1018 12:22:42.016607 34854 net.cpp:294] The NetState phase (0) differed from the phase (1) specified by a rule in layer Silence
I1018 12:22:42.016826 34854 net.cpp:51] Initializing net from parameters: 
name: "VGG_16_layers_LSTM"
state {
  phase: TRAIN
  level: 0
  stage: ""
}
layer {
  name: "data"
  type: "ImageData"
  top: "data"
  top: "label"
  include {
    phase: TRAIN
  }
  transform_param {
    mirror: true
    crop_size: 288
    mean_value: 104
    mean_value: 117
    mean_value: 123
  }
  image_data_param {
    source: "../Data/lsun_train_list_12w.txt"
    batch_size: 4
    shuffle: true
    new_height: 320
    new_width: 320
  }
}
layer {
  name: "label_tran"
  type: "Python"
  bottom: "label"
  top: "reshape-label"
  top: "clip_markers"
  python_param {
    module: "data_preparation_sort_max_clip"
    layer: "ReshapeLabel"
  }
}
layer {
  name: "conv1_1"
  type: "Convolution"
  bottom: "data"
  top: "conv1_1"
  convolution_param {
    num_output: 64
    pad: 1
    kernel_size: 3
  }
}
layer {
  name: "relu1_1"
  type: "ReLU"
  bottom: "conv1_1"
  top: "conv1_1"
}
layer {
  name: "conv1_2"
  type: "Convolution"
  bottom: "conv1_1"
  top: "conv1_2"
  convolution_param {
    num_output: 64
    pad: 1
    kernel_size: 3
  }
}
layer {
  name: "relu1_2"
  type: "ReLU"
  bottom: "conv1_2"
  top: "conv1_2"
}
layer {
  name: "pool1"
  type: "Pooling"
  bottom: "conv1_2"
  top: "pool1"
  pooling_param {
    pool: MAX
    kernel_size: 2
    stride: 2
  }
}
layer {
  name: "conv2_1"
  type: "Convolution"
  bottom: "pool1"
  top: "conv2_1"
  convolution_param {
    num_output: 128
    pad: 1
    kernel_size: 3
  }
}
layer {
  name: "relu2_1"
  type: "ReLU"
  bottom: "conv2_1"
  top: "conv2_1"
}
layer {
  name: "conv2_2"
  type: "Convolution"
  bottom: "conv2_1"
  top: "conv2_2"
  convolution_param {
    num_output: 128
    pad: 1
    kernel_size: 3
  }
}
layer {
  name: "relu2_2"
  type: "ReLU"
  bottom: "conv2_2"
  top: "conv2_2"
}
layer {
  name: "pool2"
  type: "Pooling"
  bottom: "conv2_2"
  top: "pool2"
  pooling_param {
    pool: MAX
    kernel_size: 2
    stride: 2
  }
}
layer {
  name: "conv3_1"
  type: "Convolution"
  bottom: "pool2"
  top: "conv3_1"
  convolution_param {
    num_output: 256
    pad: 1
    kernel_size: 3
  }
}
layer {
  name: "relu3_1"
  type: "ReLU"
  bottom: "conv3_1"
  top: "conv3_1"
}
layer {
  name: "conv3_2"
  type: "Convolution"
  bottom: "conv3_1"
  top: "conv3_2"
  convolution_param {
    num_output: 256
    pad: 1
    kernel_size: 3
  }
}
layer {
  name: "relu3_2"
  type: "ReLU"
  bottom: "conv3_2"
  top: "conv3_2"
}
layer {
  name: "conv3_3"
  type: "Convolution"
  bottom: "conv3_2"
  top: "conv3_3"
  convolution_param {
    num_output: 256
    pad: 1
    kernel_size: 3
  }
}
layer {
  name: "relu3_3"
  type: "ReLU"
  bottom: "conv3_3"
  top: "conv3_3"
}
layer {
  name: "pool3"
  type: "Pooling"
  bottom: "conv3_3"
  top: "pool3"
  pooling_param {
    pool: MAX
    kernel_size: 2
    stride: 2
  }
}
layer {
  name: "conv4_1"
  type: "Convolution"
  bottom: "pool3"
  top: "conv4_1"
  convolution_param {
    num_output: 512
    pad: 1
    kernel_size: 3
  }
}
layer {
  name: "relu4_1"
  type: "ReLU"
  bottom: "conv4_1"
  top: "conv4_1"
}
layer {
  name: "conv4_2"
  type: "Convolution"
  bottom: "conv4_1"
  top: "conv4_2"
  convolution_param {
    num_output: 512
    pad: 1
    kernel_size: 3
  }
}
layer {
  name: "relu4_2"
  type: "ReLU"
  bottom: "conv4_2"
  top: "conv4_2"
}
layer {
  name: "conv4_3"
  type: "Convolution"
  bottom: "conv4_2"
  top: "conv4_3"
  convolution_param {
    num_output: 512
    pad: 1
    kernel_size: 3
  }
}
layer {
  name: "relu4_3"
  type: "ReLU"
  bottom: "conv4_3"
  top: "conv4_3"
}
layer {
  name: "pool4"
  type: "Pooling"
  bottom: "conv4_3"
  top: "pool4"
  pooling_param {
    pool: MAX
    kernel_size: 2
    stride: 2
  }
}
layer {
  name: "conv5_1"
  type: "Convolution"
  bottom: "pool4"
  top: "conv5_1"
  convolution_param {
    num_output: 512
    pad: 1
    kernel_size: 3
  }
}
layer {
  name: "relu5_1"
  type: "ReLU"
  bottom: "conv5_1"
  top: "conv5_1"
}
layer {
  name: "conv5_2"
  type: "Convolution"
  bottom: "conv5_1"
  top: "conv5_2"
  convolution_param {
    num_output: 512
    pad: 1
    kernel_size: 3
  }
}
layer {
  name: "relu5_2"
  type: "ReLU"
  bottom: "conv5_2"
  top: "conv5_2"
}
layer {
  name: "conv5_3"
  type: "Convolution"
  bottom: "conv5_2"
  top: "conv5_3"
  convolution_param {
    num_output: 512
    pad: 1
    kernel_size: 3
  }
}
layer {
  name: "relu5_3"
  type: "ReLU"
  bottom: "conv5_3"
  top: "conv5_3"
}
layer {
  name: "pool5"
  type: "Pooling"
  bottom: "conv5_3"
  top: "pool5"
  pooling_param {
    pool: MAX
    kernel_size: 2
    stride: 2
  }
}
layer {
  name: "fc6-conv"
  type: "Convolution"
  bottom: "pool5"
  top: "fc6-conv"
  convolution_param {
    num_output: 4096
    kernel_size: 7
  }
}
layer {
  name: "relu6"
  type: "ReLU"
  bottom: "fc6-conv"
  top: "fc6-conv"
}
layer {
  name: "drop6"
  type: "Dropout"
  bottom: "fc6-conv"
  top: "fc6-conv"
  dropout_param {
    dropout_ratio: 0.5
  }
}
layer {
  name: "fc6-conv_re"
  type: "Reshape"
  bottom: "fc6-conv"
  top: "fc6-conv_re"
  reshape_param {
    shape {
      dim: 0
      dim: 0
      dim: -1
    }
  }
}
layer {
  name: "fc6-conv_tran"
  type: "Python"
  bottom: "fc6-conv_re"
  top: "fc6-conv_tran"
  python_param {
    module: "data_preparation_sort_max_clip"
    layer: "DataTransposeSortRandomClip"
  }
}
layer {
  name: "lstm1"
  type: "LSTM"
  bottom: "fc6-conv_tran"
  bottom: "clip_markers"
  top: "lstm1"
  recurrent_param {
    num_output: 512
    weight_filler {
      type: "uniform"
      min: -0.01
      max: 0.01
    }
    bias_filler {
      type: "constant"
      value: 0
    }
  }
}
layer {
  name: "lstm1-drop"
  type: "Dropout"
  bottom: "lstm1"
  top: "lstm1-drop"
  dropout_param {
    dropout_ratio: 0.5
  }
}
layer {
  name: "fc-final"
  type: "InnerProduct"
  bottom: "lstm1-drop"
  top: "fc-final"
  param {
    lr_mult: 1
    decay_mult: 1
  }
  param {
    lr_mult: 2
    decay_mult: 0
  }
  inner_product_param {
    num_output: 10
    weight_filler {
      type: "gaussian"
      std: 0.01
    }
    bias_filler {
      type: "constant"
      value: 0
    }
    axis: 2
  }
}
layer {
  name: "loss"
  type: "SoftmaxWithLoss"
  bottom: "fc-final"
  bottom: "reshape-label"
  top: "loss"
  softmax_param {
    axis: 2
  }
}
layer {
  name: "accuracy"
  type: "Accuracy"
  bottom: "fc-final"
  bottom: "reshape-label"
  top: "accuracy"
  accuracy_param {
    axis: 2
  }
}
I1018 12:22:42.017041 34854 layer_factory.hpp:77] Creating layer data
I1018 12:22:42.017096 34854 net.cpp:84] Creating Layer data
I1018 12:22:42.017107 34854 net.cpp:380] data -> data
I1018 12:22:42.017150 34854 net.cpp:380] data -> label
I1018 12:22:42.017186 34854 image_data_layer.cpp:38] Opening file ../Data/lsun_train_list_12w.txt
I1018 12:22:42.614671 34854 image_data_layer.cpp:53] Shuffling data
I1018 12:22:42.881307 34854 image_data_layer.cpp:63] A total of 1200000 images.
I1018 12:22:42.890130 34854 image_data_layer.cpp:90] output data size: 4,3,288,288
I1018 12:22:42.905964 34854 net.cpp:122] Setting up data
I1018 12:22:42.906029 34854 net.cpp:129] Top shape: 4 3 288 288 (995328)
I1018 12:22:42.906040 34854 net.cpp:129] Top shape: 4 (4)
I1018 12:22:42.906045 34854 net.cpp:137] Memory required for data: 3981328
I1018 12:22:42.906069 34854 layer_factory.hpp:77] Creating layer label_tran
I1018 12:22:43.610209 34854 net.cpp:84] Creating Layer label_tran
I1018 12:22:43.610241 34854 net.cpp:406] label_tran <- label
I1018 12:22:43.610273 34854 net.cpp:380] label_tran -> reshape-label
I1018 12:22:43.610290 34854 net.cpp:380] label_tran -> clip_markers
I1018 12:22:43.610610 34854 net.cpp:122] Setting up label_tran
I1018 12:22:43.610628 34854 net.cpp:129] Top shape: 4 4 (16)
I1018 12:22:43.610635 34854 net.cpp:129] Top shape: 4 4 (16)
I1018 12:22:43.610640 34854 net.cpp:137] Memory required for data: 3981456
I1018 12:22:43.610646 34854 layer_factory.hpp:77] Creating layer reshape-label_label_tran_0_split
I1018 12:22:43.610666 34854 net.cpp:84] Creating Layer reshape-label_label_tran_0_split
I1018 12:22:43.610671 34854 net.cpp:406] reshape-label_label_tran_0_split <- reshape-label
I1018 12:22:43.610677 34854 net.cpp:380] reshape-label_label_tran_0_split -> reshape-label_label_tran_0_split_0
I1018 12:22:43.610685 34854 net.cpp:380] reshape-label_label_tran_0_split -> reshape-label_label_tran_0_split_1
I1018 12:22:43.610724 34854 net.cpp:122] Setting up reshape-label_label_tran_0_split
I1018 12:22:43.610734 34854 net.cpp:129] Top shape: 4 4 (16)
I1018 12:22:43.610740 34854 net.cpp:129] Top shape: 4 4 (16)
I1018 12:22:43.610744 34854 net.cpp:137] Memory required for data: 3981584
I1018 12:22:43.610749 34854 layer_factory.hpp:77] Creating layer conv1_1
I1018 12:22:43.610769 34854 net.cpp:84] Creating Layer conv1_1
I1018 12:22:43.610780 34854 net.cpp:406] conv1_1 <- data
I1018 12:22:43.610785 34854 net.cpp:380] conv1_1 -> conv1_1
I1018 12:22:43.612772 34854 net.cpp:122] Setting up conv1_1
I1018 12:22:43.612797 34854 net.cpp:129] Top shape: 4 64 288 288 (21233664)
I1018 12:22:43.612803 34854 net.cpp:137] Memory required for data: 88916240
I1018 12:22:43.612830 34854 layer_factory.hpp:77] Creating layer relu1_1
I1018 12:22:43.612850 34854 net.cpp:84] Creating Layer relu1_1
I1018 12:22:43.612857 34854 net.cpp:406] relu1_1 <- conv1_1
I1018 12:22:43.612870 34854 net.cpp:367] relu1_1 -> conv1_1 (in-place)
I1018 12:22:43.612885 34854 net.cpp:122] Setting up relu1_1
I1018 12:22:43.612891 34854 net.cpp:129] Top shape: 4 64 288 288 (21233664)
I1018 12:22:43.612896 34854 net.cpp:137] Memory required for data: 173850896
I1018 12:22:43.612900 34854 layer_factory.hpp:77] Creating layer conv1_2
I1018 12:22:43.612908 34854 net.cpp:84] Creating Layer conv1_2
I1018 12:22:43.612912 34854 net.cpp:406] conv1_2 <- conv1_1
I1018 12:22:43.612918 34854 net.cpp:380] conv1_2 -> conv1_2
I1018 12:22:43.613958 34854 net.cpp:122] Setting up conv1_2
I1018 12:22:43.613976 34854 net.cpp:129] Top shape: 4 64 288 288 (21233664)
I1018 12:22:43.613981 34854 net.cpp:137] Memory required for data: 258785552
I1018 12:22:43.613999 34854 layer_factory.hpp:77] Creating layer relu1_2
I1018 12:22:43.614007 34854 net.cpp:84] Creating Layer relu1_2
I1018 12:22:43.614012 34854 net.cpp:406] relu1_2 <- conv1_2
I1018 12:22:43.614019 34854 net.cpp:367] relu1_2 -> conv1_2 (in-place)
I1018 12:22:43.614027 34854 net.cpp:122] Setting up relu1_2
I1018 12:22:43.614032 34854 net.cpp:129] Top shape: 4 64 288 288 (21233664)
I1018 12:22:43.614037 34854 net.cpp:137] Memory required for data: 343720208
I1018 12:22:43.614042 34854 layer_factory.hpp:77] Creating layer pool1
I1018 12:22:43.614055 34854 net.cpp:84] Creating Layer pool1
I1018 12:22:43.614060 34854 net.cpp:406] pool1 <- conv1_2
I1018 12:22:43.614068 34854 net.cpp:380] pool1 -> pool1
I1018 12:22:43.614120 34854 net.cpp:122] Setting up pool1
I1018 12:22:43.614131 34854 net.cpp:129] Top shape: 4 64 144 144 (5308416)
I1018 12:22:43.614135 34854 net.cpp:137] Memory required for data: 364953872
I1018 12:22:43.614145 34854 layer_factory.hpp:77] Creating layer conv2_1
I1018 12:22:43.614156 34854 net.cpp:84] Creating Layer conv2_1
I1018 12:22:43.614159 34854 net.cpp:406] conv2_1 <- pool1
I1018 12:22:43.614167 34854 net.cpp:380] conv2_1 -> conv2_1
I1018 12:22:43.614423 34854 net.cpp:122] Setting up conv2_1
I1018 12:22:43.614434 34854 net.cpp:129] Top shape: 4 128 144 144 (10616832)
I1018 12:22:43.614439 34854 net.cpp:137] Memory required for data: 407421200
I1018 12:22:43.614449 34854 layer_factory.hpp:77] Creating layer relu2_1
I1018 12:22:43.614455 34854 net.cpp:84] Creating Layer relu2_1
I1018 12:22:43.614460 34854 net.cpp:406] relu2_1 <- conv2_1
I1018 12:22:43.614466 34854 net.cpp:367] relu2_1 -> conv2_1 (in-place)
I1018 12:22:43.614473 34854 net.cpp:122] Setting up relu2_1
I1018 12:22:43.614478 34854 net.cpp:129] Top shape: 4 128 144 144 (10616832)
I1018 12:22:43.614482 34854 net.cpp:137] Memory required for data: 449888528
I1018 12:22:43.614486 34854 layer_factory.hpp:77] Creating layer conv2_2
I1018 12:22:43.614500 34854 net.cpp:84] Creating Layer conv2_2
I1018 12:22:43.614504 34854 net.cpp:406] conv2_2 <- conv2_1
I1018 12:22:43.614511 34854 net.cpp:380] conv2_2 -> conv2_2
I1018 12:22:43.615552 34854 net.cpp:122] Setting up conv2_2
I1018 12:22:43.615568 34854 net.cpp:129] Top shape: 4 128 144 144 (10616832)
I1018 12:22:43.615573 34854 net.cpp:137] Memory required for data: 492355856
I1018 12:22:43.615581 34854 layer_factory.hpp:77] Creating layer relu2_2
I1018 12:22:43.615588 34854 net.cpp:84] Creating Layer relu2_2
I1018 12:22:43.615593 34854 net.cpp:406] relu2_2 <- conv2_2
I1018 12:22:43.615600 34854 net.cpp:367] relu2_2 -> conv2_2 (in-place)
I1018 12:22:43.615608 34854 net.cpp:122] Setting up relu2_2
I1018 12:22:43.615613 34854 net.cpp:129] Top shape: 4 128 144 144 (10616832)
I1018 12:22:43.615617 34854 net.cpp:137] Memory required for data: 534823184
I1018 12:22:43.615622 34854 layer_factory.hpp:77] Creating layer pool2
I1018 12:22:43.615627 34854 net.cpp:84] Creating Layer pool2
I1018 12:22:43.615630 34854 net.cpp:406] pool2 <- conv2_2
I1018 12:22:43.615636 34854 net.cpp:380] pool2 -> pool2
I1018 12:22:43.615671 34854 net.cpp:122] Setting up pool2
I1018 12:22:43.615681 34854 net.cpp:129] Top shape: 4 128 72 72 (2654208)
I1018 12:22:43.615686 34854 net.cpp:137] Memory required for data: 545440016
I1018 12:22:43.615698 34854 layer_factory.hpp:77] Creating layer conv3_1
I1018 12:22:43.615707 34854 net.cpp:84] Creating Layer conv3_1
I1018 12:22:43.615712 34854 net.cpp:406] conv3_1 <- pool2
I1018 12:22:43.615720 34854 net.cpp:380] conv3_1 -> conv3_1
I1018 12:22:43.617635 34854 net.cpp:122] Setting up conv3_1
I1018 12:22:43.617653 34854 net.cpp:129] Top shape: 4 256 72 72 (5308416)
I1018 12:22:43.617658 34854 net.cpp:137] Memory required for data: 566673680
I1018 12:22:43.617669 34854 layer_factory.hpp:77] Creating layer relu3_1
I1018 12:22:43.617686 34854 net.cpp:84] Creating Layer relu3_1
I1018 12:22:43.617691 34854 net.cpp:406] relu3_1 <- conv3_1
I1018 12:22:43.617698 34854 net.cpp:367] relu3_1 -> conv3_1 (in-place)
I1018 12:22:43.617707 34854 net.cpp:122] Setting up relu3_1
I1018 12:22:43.617712 34854 net.cpp:129] Top shape: 4 256 72 72 (5308416)
I1018 12:22:43.617717 34854 net.cpp:137] Memory required for data: 587907344
I1018 12:22:43.617720 34854 layer_factory.hpp:77] Creating layer conv3_2
I1018 12:22:43.617728 34854 net.cpp:84] Creating Layer conv3_2
I1018 12:22:43.617733 34854 net.cpp:406] conv3_2 <- conv3_1
I1018 12:22:43.617738 34854 net.cpp:380] conv3_2 -> conv3_2
I1018 12:22:43.619603 34854 net.cpp:122] Setting up conv3_2
I1018 12:22:43.619618 34854 net.cpp:129] Top shape: 4 256 72 72 (5308416)
I1018 12:22:43.619635 34854 net.cpp:137] Memory required for data: 609141008
I1018 12:22:43.619642 34854 layer_factory.hpp:77] Creating layer relu3_2
I1018 12:22:43.619652 34854 net.cpp:84] Creating Layer relu3_2
I1018 12:22:43.619657 34854 net.cpp:406] relu3_2 <- conv3_2
I1018 12:22:43.619663 34854 net.cpp:367] relu3_2 -> conv3_2 (in-place)
I1018 12:22:43.619670 34854 net.cpp:122] Setting up relu3_2
I1018 12:22:43.619675 34854 net.cpp:129] Top shape: 4 256 72 72 (5308416)
I1018 12:22:43.619679 34854 net.cpp:137] Memory required for data: 630374672
I1018 12:22:43.619690 34854 layer_factory.hpp:77] Creating layer conv3_3
I1018 12:22:43.619704 34854 net.cpp:84] Creating Layer conv3_3
I1018 12:22:43.619709 34854 net.cpp:406] conv3_3 <- conv3_2
I1018 12:22:43.619717 34854 net.cpp:380] conv3_3 -> conv3_3
I1018 12:22:43.621590 34854 net.cpp:122] Setting up conv3_3
I1018 12:22:43.621606 34854 net.cpp:129] Top shape: 4 256 72 72 (5308416)
I1018 12:22:43.621611 34854 net.cpp:137] Memory required for data: 651608336
I1018 12:22:43.621618 34854 layer_factory.hpp:77] Creating layer relu3_3
I1018 12:22:43.621631 34854 net.cpp:84] Creating Layer relu3_3
I1018 12:22:43.621637 34854 net.cpp:406] relu3_3 <- conv3_3
I1018 12:22:43.621645 34854 net.cpp:367] relu3_3 -> conv3_3 (in-place)
I1018 12:22:43.621654 34854 net.cpp:122] Setting up relu3_3
I1018 12:22:43.621659 34854 net.cpp:129] Top shape: 4 256 72 72 (5308416)
I1018 12:22:43.621662 34854 net.cpp:137] Memory required for data: 672842000
I1018 12:22:43.621666 34854 layer_factory.hpp:77] Creating layer pool3
I1018 12:22:43.621673 34854 net.cpp:84] Creating Layer pool3
I1018 12:22:43.621677 34854 net.cpp:406] pool3 <- conv3_3
I1018 12:22:43.621682 34854 net.cpp:380] pool3 -> pool3
I1018 12:22:43.621722 34854 net.cpp:122] Setting up pool3
I1018 12:22:43.621731 34854 net.cpp:129] Top shape: 4 256 36 36 (1327104)
I1018 12:22:43.621736 34854 net.cpp:137] Memory required for data: 678150416
I1018 12:22:43.621739 34854 layer_factory.hpp:77] Creating layer conv4_1
I1018 12:22:43.621748 34854 net.cpp:84] Creating Layer conv4_1
I1018 12:22:43.621752 34854 net.cpp:406] conv4_1 <- pool3
I1018 12:22:43.621759 34854 net.cpp:380] conv4_1 -> conv4_1
I1018 12:22:43.625697 34854 net.cpp:122] Setting up conv4_1
I1018 12:22:43.625716 34854 net.cpp:129] Top shape: 4 512 36 36 (2654208)
I1018 12:22:43.625720 34854 net.cpp:137] Memory required for data: 688767248
I1018 12:22:43.625733 34854 layer_factory.hpp:77] Creating layer relu4_1
I1018 12:22:43.625747 34854 net.cpp:84] Creating Layer relu4_1
I1018 12:22:43.625752 34854 net.cpp:406] relu4_1 <- conv4_1
I1018 12:22:43.625759 34854 net.cpp:367] relu4_1 -> conv4_1 (in-place)
I1018 12:22:43.625767 34854 net.cpp:122] Setting up relu4_1
I1018 12:22:43.625773 34854 net.cpp:129] Top shape: 4 512 36 36 (2654208)
I1018 12:22:43.625777 34854 net.cpp:137] Memory required for data: 699384080
I1018 12:22:43.625782 34854 layer_factory.hpp:77] Creating layer conv4_2
I1018 12:22:43.625790 34854 net.cpp:84] Creating Layer conv4_2
I1018 12:22:43.625794 34854 net.cpp:406] conv4_2 <- conv4_1
I1018 12:22:43.625802 34854 net.cpp:380] conv4_2 -> conv4_2
I1018 12:22:43.632169 34854 net.cpp:122] Setting up conv4_2
I1018 12:22:43.632207 34854 net.cpp:129] Top shape: 4 512 36 36 (2654208)
I1018 12:22:43.632212 34854 net.cpp:137] Memory required for data: 710000912
I1018 12:22:43.632235 34854 layer_factory.hpp:77] Creating layer relu4_2
I1018 12:22:43.632244 34854 net.cpp:84] Creating Layer relu4_2
I1018 12:22:43.632251 34854 net.cpp:406] relu4_2 <- conv4_2
I1018 12:22:43.632259 34854 net.cpp:367] relu4_2 -> conv4_2 (in-place)
I1018 12:22:43.632277 34854 net.cpp:122] Setting up relu4_2
I1018 12:22:43.632282 34854 net.cpp:129] Top shape: 4 512 36 36 (2654208)
I1018 12:22:43.632285 34854 net.cpp:137] Memory required for data: 720617744
I1018 12:22:43.632289 34854 layer_factory.hpp:77] Creating layer conv4_3
I1018 12:22:43.632315 34854 net.cpp:84] Creating Layer conv4_3
I1018 12:22:43.632324 34854 net.cpp:406] conv4_3 <- conv4_2
I1018 12:22:43.632333 34854 net.cpp:380] conv4_3 -> conv4_3
I1018 12:22:43.638295 34854 net.cpp:122] Setting up conv4_3
I1018 12:22:43.638321 34854 net.cpp:129] Top shape: 4 512 36 36 (2654208)
I1018 12:22:43.638326 34854 net.cpp:137] Memory required for data: 731234576
I1018 12:22:43.638334 34854 layer_factory.hpp:77] Creating layer relu4_3
I1018 12:22:43.638344 34854 net.cpp:84] Creating Layer relu4_3
I1018 12:22:43.638348 34854 net.cpp:406] relu4_3 <- conv4_3
I1018 12:22:43.638357 34854 net.cpp:367] relu4_3 -> conv4_3 (in-place)
I1018 12:22:43.638366 34854 net.cpp:122] Setting up relu4_3
I1018 12:22:43.638376 34854 net.cpp:129] Top shape: 4 512 36 36 (2654208)
I1018 12:22:43.638381 34854 net.cpp:137] Memory required for data: 741851408
I1018 12:22:43.638396 34854 layer_factory.hpp:77] Creating layer pool4
I1018 12:22:43.638406 34854 net.cpp:84] Creating Layer pool4
I1018 12:22:43.638409 34854 net.cpp:406] pool4 <- conv4_3
I1018 12:22:43.638417 34854 net.cpp:380] pool4 -> pool4
I1018 12:22:43.638463 34854 net.cpp:122] Setting up pool4
I1018 12:22:43.638471 34854 net.cpp:129] Top shape: 4 512 18 18 (663552)
I1018 12:22:43.638475 34854 net.cpp:137] Memory required for data: 744505616
I1018 12:22:43.638479 34854 layer_factory.hpp:77] Creating layer conv5_1
I1018 12:22:43.638489 34854 net.cpp:84] Creating Layer conv5_1
I1018 12:22:43.638497 34854 net.cpp:406] conv5_1 <- pool4
I1018 12:22:43.638504 34854 net.cpp:380] conv5_1 -> conv5_1
I1018 12:22:43.645078 34854 net.cpp:122] Setting up conv5_1
I1018 12:22:43.645114 34854 net.cpp:129] Top shape: 4 512 18 18 (663552)
I1018 12:22:43.645119 34854 net.cpp:137] Memory required for data: 747159824
I1018 12:22:43.645131 34854 layer_factory.hpp:77] Creating layer relu5_1
I1018 12:22:43.645154 34854 net.cpp:84] Creating Layer relu5_1
I1018 12:22:43.645162 34854 net.cpp:406] relu5_1 <- conv5_1
I1018 12:22:43.645171 34854 net.cpp:367] relu5_1 -> conv5_1 (in-place)
I1018 12:22:43.645184 34854 net.cpp:122] Setting up relu5_1
I1018 12:22:43.645190 34854 net.cpp:129] Top shape: 4 512 18 18 (663552)
I1018 12:22:43.645193 34854 net.cpp:137] Memory required for data: 749814032
I1018 12:22:43.645197 34854 layer_factory.hpp:77] Creating layer conv5_2
I1018 12:22:43.645211 34854 net.cpp:84] Creating Layer conv5_2
I1018 12:22:43.645216 34854 net.cpp:406] conv5_2 <- conv5_1
I1018 12:22:43.645222 34854 net.cpp:380] conv5_2 -> conv5_2
I1018 12:22:43.651682 34854 net.cpp:122] Setting up conv5_2
I1018 12:22:43.651708 34854 net.cpp:129] Top shape: 4 512 18 18 (663552)
I1018 12:22:43.651713 34854 net.cpp:137] Memory required for data: 752468240
I1018 12:22:43.651727 34854 layer_factory.hpp:77] Creating layer relu5_2
I1018 12:22:43.651736 34854 net.cpp:84] Creating Layer relu5_2
I1018 12:22:43.651741 34854 net.cpp:406] relu5_2 <- conv5_2
I1018 12:22:43.651747 34854 net.cpp:367] relu5_2 -> conv5_2 (in-place)
I1018 12:22:43.651757 34854 net.cpp:122] Setting up relu5_2
I1018 12:22:43.651763 34854 net.cpp:129] Top shape: 4 512 18 18 (663552)
I1018 12:22:43.651767 34854 net.cpp:137] Memory required for data: 755122448
I1018 12:22:43.651772 34854 layer_factory.hpp:77] Creating layer conv5_3
I1018 12:22:43.651782 34854 net.cpp:84] Creating Layer conv5_3
I1018 12:22:43.651785 34854 net.cpp:406] conv5_3 <- conv5_2
I1018 12:22:43.651792 34854 net.cpp:380] conv5_3 -> conv5_3
I1018 12:22:43.658138 34854 net.cpp:122] Setting up conv5_3
I1018 12:22:43.658165 34854 net.cpp:129] Top shape: 4 512 18 18 (663552)
I1018 12:22:43.658170 34854 net.cpp:137] Memory required for data: 757776656
I1018 12:22:43.658179 34854 layer_factory.hpp:77] Creating layer relu5_3
I1018 12:22:43.658279 34854 net.cpp:84] Creating Layer relu5_3
I1018 12:22:43.658289 34854 net.cpp:406] relu5_3 <- conv5_3
I1018 12:22:43.658300 34854 net.cpp:367] relu5_3 -> conv5_3 (in-place)
I1018 12:22:43.658310 34854 net.cpp:122] Setting up relu5_3
I1018 12:22:43.658316 34854 net.cpp:129] Top shape: 4 512 18 18 (663552)
I1018 12:22:43.658320 34854 net.cpp:137] Memory required for data: 760430864
I1018 12:22:43.658324 34854 layer_factory.hpp:77] Creating layer pool5
I1018 12:22:43.658330 34854 net.cpp:84] Creating Layer pool5
I1018 12:22:43.658335 34854 net.cpp:406] pool5 <- conv5_3
I1018 12:22:43.658341 34854 net.cpp:380] pool5 -> pool5
I1018 12:22:43.658386 34854 net.cpp:122] Setting up pool5
I1018 12:22:43.658393 34854 net.cpp:129] Top shape: 4 512 9 9 (165888)
I1018 12:22:43.658397 34854 net.cpp:137] Memory required for data: 761094416
I1018 12:22:43.658406 34854 layer_factory.hpp:77] Creating layer fc6-conv
I1018 12:22:43.658417 34854 net.cpp:84] Creating Layer fc6-conv
I1018 12:22:43.658421 34854 net.cpp:406] fc6-conv <- pool5
I1018 12:22:43.658428 34854 net.cpp:380] fc6-conv -> fc6-conv
I1018 12:22:44.089481 34854 net.cpp:122] Setting up fc6-conv
I1018 12:22:44.089514 34854 net.cpp:129] Top shape: 4 4096 3 3 (147456)
I1018 12:22:44.089520 34854 net.cpp:137] Memory required for data: 761684240
I1018 12:22:44.089532 34854 layer_factory.hpp:77] Creating layer relu6
I1018 12:22:44.089552 34854 net.cpp:84] Creating Layer relu6
I1018 12:22:44.089560 34854 net.cpp:406] relu6 <- fc6-conv
I1018 12:22:44.089572 34854 net.cpp:367] relu6 -> fc6-conv (in-place)
I1018 12:22:44.089586 34854 net.cpp:122] Setting up relu6
I1018 12:22:44.089591 34854 net.cpp:129] Top shape: 4 4096 3 3 (147456)
I1018 12:22:44.089596 34854 net.cpp:137] Memory required for data: 762274064
I1018 12:22:44.089601 34854 layer_factory.hpp:77] Creating layer drop6
I1018 12:22:44.089614 34854 net.cpp:84] Creating Layer drop6
I1018 12:22:44.089625 34854 net.cpp:406] drop6 <- fc6-conv
I1018 12:22:44.089632 34854 net.cpp:367] drop6 -> fc6-conv (in-place)
I1018 12:22:44.089673 34854 net.cpp:122] Setting up drop6
I1018 12:22:44.089682 34854 net.cpp:129] Top shape: 4 4096 3 3 (147456)
I1018 12:22:44.089687 34854 net.cpp:137] Memory required for data: 762863888
I1018 12:22:44.089691 34854 layer_factory.hpp:77] Creating layer fc6-conv_re
I1018 12:22:44.089704 34854 net.cpp:84] Creating Layer fc6-conv_re
I1018 12:22:44.089710 34854 net.cpp:406] fc6-conv_re <- fc6-conv
I1018 12:22:44.089716 34854 net.cpp:380] fc6-conv_re -> fc6-conv_re
I1018 12:22:44.089761 34854 net.cpp:122] Setting up fc6-conv_re
I1018 12:22:44.089771 34854 net.cpp:129] Top shape: 4 4096 9 (147456)
I1018 12:22:44.089774 34854 net.cpp:137] Memory required for data: 763453712
I1018 12:22:44.089779 34854 layer_factory.hpp:77] Creating layer fc6-conv_tran
I1018 12:22:44.089854 34854 net.cpp:84] Creating Layer fc6-conv_tran
I1018 12:22:44.089864 34854 net.cpp:406] fc6-conv_tran <- fc6-conv_re
I1018 12:22:44.089877 34854 net.cpp:380] fc6-conv_tran -> fc6-conv_tran
I1018 12:22:44.094617 34854 net.cpp:122] Setting up fc6-conv_tran
I1018 12:22:44.094635 34854 net.cpp:129] Top shape: 4 4 4096 (65536)
I1018 12:22:44.094640 34854 net.cpp:137] Memory required for data: 763715856
I1018 12:22:44.094652 34854 layer_factory.hpp:77] Creating layer lstm1
I1018 12:22:44.094669 34854 net.cpp:84] Creating Layer lstm1
I1018 12:22:44.094676 34854 net.cpp:406] lstm1 <- fc6-conv_tran
I1018 12:22:44.094683 34854 net.cpp:406] lstm1 <- clip_markers
I1018 12:22:44.094692 34854 net.cpp:380] lstm1 -> lstm1
I1018 12:22:44.094709 34854 recurrent_layer.cpp:20] Initializing recurrent layer: assuming input batch contains 4 timesteps of 4 independent streams.
I1018 12:22:44.095090 34854 net.cpp:51] Initializing net from parameters: 
layer {
  name: "lstm1_"
  type: "Input"
  top: "x"
  top: "cont"
  input_param {
    shape {
      dim: 4
      dim: 4
      dim: 4096
    }
    shape {
      dim: 4
      dim: 4
    }
  }
}
layer {
  name: "lstm1_"
  type: "Input"
  top: "c_0"
  top: "h_0"
  input_param {
    shape {
      dim: 1
      dim: 4
      dim: 512
    }
    shape {
      dim: 1
      dim: 4
      dim: 512
    }
  }
}
layer {
  name: "lstm1_cont_slice"
  type: "Slice"
  bottom: "cont"
  top: "cont_1"
  top: "cont_2"
  top: "cont_3"
  top: "cont_4"
  slice_param {
    axis: 0
  }
}
layer {
  name: "lstm1_x_transform"
  type: "InnerProduct"
  bottom: "x"
  top: "W_xc_x"
  param {
    name: "W_xc"
  }
  param {
    name: "b_c"
  }
  propagate_down: true
  inner_product_param {
    num_output: 2048
    bias_term: true
    weight_filler {
      type: "uniform"
      min: -0.01
      max: 0.01
    }
    bias_filler {
      type: "constant"
      value: 0
    }
    axis: 2
  }
}
layer {
  name: "lstm1_W_xc_x_slice"
  type: "Slice"
  bottom: "W_xc_x"
  top: "W_xc_x_1"
  top: "W_xc_x_2"
  top: "W_xc_x_3"
  top: "W_xc_x_4"
  slice_param {
    axis: 0
  }
}
layer {
  name: "lstm1_h_conted_0"
  type: "Scale"
  bottom: "h_0"
  bottom: "cont_1"
  top: "h_conted_0"
  scale_param {
    axis: 0
  }
}
layer {
  name: "lstm1_transform_1"
  type: "InnerProduct"
  bottom: "h_conted_0"
  top: "W_hc_h_0"
  param {
    name: "W_hc"
  }
  inner_product_param {
    num_output: 2048
    bias_term: false
    weight_filler {
      type: "uniform"
      min: -0.01
      max: 0.01
    }
    axis: 2
  }
}
layer {
  name: "lstm1_gate_input_1"
  type: "Eltwise"
  bottom: "W_hc_h_0"
  bottom: "W_xc_x_1"
  top: "gate_input_1"
  eltwise_param {
    operation: SUM
  }
}
layer {
  name: "lstm1_unit_1"
  type: "LSTMUnit"
  bottom: "c_0"
  bottom: "gate_input_1"
  bottom: "cont_1"
  top: "c_1"
  top: "h_1"
}
layer {
  name: "lstm1_h_conted_1"
  type: "Scale"
  bottom: "h_1"
  bottom: "cont_2"
  top: "h_conted_1"
  scale_param {
    axis: 0
  }
}
layer {
  name: "lstm1_transform_2"
  type: "InnerProduct"
  bottom: "h_conted_1"
  top: "W_hc_h_1"
  param {
    name: "W_hc"
  }
  inner_product_param {
    num_output: 2048
    bias_term: false
    weight_filler {
      type: "uniform"
      min: -0.01
      max: 0.01
    }
    axis: 2
  }
}
layer {
  name: "lstm1_gate_input_2"
  type: "Eltwise"
  bottom: "W_hc_h_1"
  bottom: "W_xc_x_2"
  top: "gate_input_2"
  eltwise_param {
    operation: SUM
  }
}
layer {
  name: "lstm1_unit_2"
  type: "LSTMUnit"
  bottom: "c_1"
  bottom: "gate_input_2"
  bottom: "cont_2"
  top: "c_2"
  top: "h_2"
}
layer {
  name: "lstm1_h_conted_2"
  type: "Scale"
  bottom: "h_2"
  bottom: "cont_3"
  top: "h_conted_2"
  scale_param {
    axis: 0
  }
}
layer {
  name: "lstm1_transform_3"
  type: "InnerProduct"
  bottom: "h_conted_2"
  top: "W_hc_h_2"
  param {
    name: "W_hc"
  }
  inner_product_param {
    num_output: 2048
    bias_term: false
    weight_filler {
      type: "uniform"
      min: -0.01
      max: 0.01
    }
    axis: 2
  }
}
layer {
  name: "lstm1_gate_input_3"
  type: "Eltwise"
  bottom: "W_hc_h_2"
  bottom: "W_xc_x_3"
  top: "gate_input_3"
  eltwise_param {
    operation: SUM
  }
}
layer {
  name: "lstm1_unit_3"
  type: "LSTMUnit"
  bottom: "c_2"
  bottom: "gate_input_3"
  bottom: "cont_3"
  top: "c_3"
  top: "h_3"
}
layer {
  name: "lstm1_h_conted_3"
  type: "Scale"
  bottom: "h_3"
  bottom: "cont_4"
  top: "h_conted_3"
  scale_param {
    axis: 0
  }
}
layer {
  name: "lstm1_transform_4"
  type: "InnerProduct"
  bottom: "h_conted_3"
  top: "W_hc_h_3"
  param {
    name: "W_hc"
  }
  inner_product_param {
    num_output: 2048
    bias_term: false
    weight_filler {
      type: "uniform"
      min: -0.01
      max: 0.01
    }
    axis: 2
  }
}
layer {
  name: "lstm1_gate_input_4"
  type: "Eltwise"
  bottom: "W_hc_h_3"
  bottom: "W_xc_x_4"
  top: "gate_input_4"
  eltwise_param {
    operation: SUM
  }
}
layer {
  name: "lstm1_unit_4"
  type: "LSTMUnit"
  bottom: "c_3"
  bottom: "gate_input_4"
  bottom: "cont_4"
  top: "c_4"
  top: "h_4"
}
layer {
  name: "lstm1_"
  type: "Split"
  bottom: "c_4"
  top: "c_T"
}
layer {
  name: "lstm1_h_concat"
  type: "Concat"
  bottom: "h_1"
  bottom: "h_2"
  bottom: "h_3"
  bottom: "h_4"
  top: "h"
  concat_param {
    axis: 0
  }
}
layer {
  name: "h_pseudoloss"
  type: "Reduction"
  bottom: "h"
  top: "h_pseudoloss"
  loss_weight: 1
}
I1018 12:22:44.095263 34854 layer_factory.hpp:77] Creating layer lstm1_
I1018 12:22:44.095278 34854 net.cpp:84] Creating Layer lstm1_
I1018 12:22:44.095283 34854 net.cpp:380] lstm1_ -> x
I1018 12:22:44.095296 34854 net.cpp:380] lstm1_ -> cont
I1018 12:22:44.095345 34854 net.cpp:122] Setting up lstm1_
I1018 12:22:44.095356 34854 net.cpp:129] Top shape: 4 4 4096 (65536)
I1018 12:22:44.095362 34854 net.cpp:129] Top shape: 4 4 (16)
I1018 12:22:44.095366 34854 net.cpp:137] Memory required for data: 262208
I1018 12:22:44.095371 34854 layer_factory.hpp:77] Creating layer lstm1_
I1018 12:22:44.095378 34854 net.cpp:84] Creating Layer lstm1_
I1018 12:22:44.095383 34854 net.cpp:380] lstm1_ -> c_0
I1018 12:22:44.095391 34854 net.cpp:380] lstm1_ -> h_0
I1018 12:22:44.095443 34854 net.cpp:122] Setting up lstm1_
I1018 12:22:44.095453 34854 net.cpp:129] Top shape: 1 4 512 (2048)
I1018 12:22:44.095458 34854 net.cpp:129] Top shape: 1 4 512 (2048)
I1018 12:22:44.095461 34854 net.cpp:137] Memory required for data: 278592
I1018 12:22:44.095465 34854 layer_factory.hpp:77] Creating layer lstm1_cont_slice
I1018 12:22:44.095479 34854 net.cpp:84] Creating Layer lstm1_cont_slice
I1018 12:22:44.095484 34854 net.cpp:406] lstm1_cont_slice <- cont
I1018 12:22:44.095490 34854 net.cpp:380] lstm1_cont_slice -> cont_1
I1018 12:22:44.095499 34854 net.cpp:380] lstm1_cont_slice -> cont_2
I1018 12:22:44.095505 34854 net.cpp:380] lstm1_cont_slice -> cont_3
I1018 12:22:44.095513 34854 net.cpp:380] lstm1_cont_slice -> cont_4
I1018 12:22:44.095580 34854 net.cpp:122] Setting up lstm1_cont_slice
I1018 12:22:44.095589 34854 net.cpp:129] Top shape: 1 4 (4)
I1018 12:22:44.095594 34854 net.cpp:129] Top shape: 1 4 (4)
I1018 12:22:44.095599 34854 net.cpp:129] Top shape: 1 4 (4)
I1018 12:22:44.095603 34854 net.cpp:129] Top shape: 1 4 (4)
I1018 12:22:44.095607 34854 net.cpp:137] Memory required for data: 278656
I1018 12:22:44.095612 34854 layer_factory.hpp:77] Creating layer cont_1_lstm1_cont_slice_0_split
I1018 12:22:44.095618 34854 net.cpp:84] Creating Layer cont_1_lstm1_cont_slice_0_split
I1018 12:22:44.095623 34854 net.cpp:406] cont_1_lstm1_cont_slice_0_split <- cont_1
I1018 12:22:44.095630 34854 net.cpp:380] cont_1_lstm1_cont_slice_0_split -> cont_1_lstm1_cont_slice_0_split_0
I1018 12:22:44.095638 34854 net.cpp:380] cont_1_lstm1_cont_slice_0_split -> cont_1_lstm1_cont_slice_0_split_1
I1018 12:22:44.095741 34854 net.cpp:122] Setting up cont_1_lstm1_cont_slice_0_split
I1018 12:22:44.095801 34854 net.cpp:129] Top shape: 1 4 (4)
I1018 12:22:44.095818 34854 net.cpp:129] Top shape: 1 4 (4)
I1018 12:22:44.095830 34854 net.cpp:137] Memory required for data: 278688
I1018 12:22:44.095840 34854 layer_factory.hpp:77] Creating layer cont_2_lstm1_cont_slice_1_split
I1018 12:22:44.095880 34854 net.cpp:84] Creating Layer cont_2_lstm1_cont_slice_1_split
I1018 12:22:44.095904 34854 net.cpp:406] cont_2_lstm1_cont_slice_1_split <- cont_2
I1018 12:22:44.095927 34854 net.cpp:380] cont_2_lstm1_cont_slice_1_split -> cont_2_lstm1_cont_slice_1_split_0
I1018 12:22:44.095976 34854 net.cpp:380] cont_2_lstm1_cont_slice_1_split -> cont_2_lstm1_cont_slice_1_split_1
I1018 12:22:44.096168 34854 net.cpp:122] Setting up cont_2_lstm1_cont_slice_1_split
I1018 12:22:44.096256 34854 net.cpp:129] Top shape: 1 4 (4)
I1018 12:22:44.096272 34854 net.cpp:129] Top shape: 1 4 (4)
I1018 12:22:44.096284 34854 net.cpp:137] Memory required for data: 278720
I1018 12:22:44.096302 34854 layer_factory.hpp:77] Creating layer cont_3_lstm1_cont_slice_2_split
I1018 12:22:44.096360 34854 net.cpp:84] Creating Layer cont_3_lstm1_cont_slice_2_split
I1018 12:22:44.096379 34854 net.cpp:406] cont_3_lstm1_cont_slice_2_split <- cont_3
I1018 12:22:44.096410 34854 net.cpp:380] cont_3_lstm1_cont_slice_2_split -> cont_3_lstm1_cont_slice_2_split_0
I1018 12:22:44.096448 34854 net.cpp:380] cont_3_lstm1_cont_slice_2_split -> cont_3_lstm1_cont_slice_2_split_1
I1018 12:22:44.096648 34854 net.cpp:122] Setting up cont_3_lstm1_cont_slice_2_split
I1018 12:22:44.096712 34854 net.cpp:129] Top shape: 1 4 (4)
I1018 12:22:44.096724 34854 net.cpp:129] Top shape: 1 4 (4)
I1018 12:22:44.096736 34854 net.cpp:137] Memory required for data: 278752
I1018 12:22:44.096751 34854 layer_factory.hpp:77] Creating layer cont_4_lstm1_cont_slice_3_split
I1018 12:22:44.096765 34854 net.cpp:84] Creating Layer cont_4_lstm1_cont_slice_3_split
I1018 12:22:44.096781 34854 net.cpp:406] cont_4_lstm1_cont_slice_3_split <- cont_4
I1018 12:22:44.096813 34854 net.cpp:380] cont_4_lstm1_cont_slice_3_split -> cont_4_lstm1_cont_slice_3_split_0
I1018 12:22:44.096858 34854 net.cpp:380] cont_4_lstm1_cont_slice_3_split -> cont_4_lstm1_cont_slice_3_split_1
I1018 12:22:44.097029 34854 net.cpp:122] Setting up cont_4_lstm1_cont_slice_3_split
I1018 12:22:44.097055 34854 net.cpp:129] Top shape: 1 4 (4)
I1018 12:22:44.097059 34854 net.cpp:129] Top shape: 1 4 (4)
I1018 12:22:44.097064 34854 net.cpp:137] Memory required for data: 278784
I1018 12:22:44.097067 34854 layer_factory.hpp:77] Creating layer lstm1_x_transform
I1018 12:22:44.097082 34854 net.cpp:84] Creating Layer lstm1_x_transform
I1018 12:22:44.097087 34854 net.cpp:406] lstm1_x_transform <- x
I1018 12:22:44.097095 34854 net.cpp:380] lstm1_x_transform -> W_xc_x
I1018 12:22:44.244626 34854 net.cpp:122] Setting up lstm1_x_transform
I1018 12:22:44.244832 34854 net.cpp:129] Top shape: 4 4 2048 (32768)
I1018 12:22:44.244850 34854 net.cpp:137] Memory required for data: 409856
I1018 12:22:44.244946 34854 layer_factory.hpp:77] Creating layer lstm1_W_xc_x_slice
I1018 12:22:44.245062 34854 net.cpp:84] Creating Layer lstm1_W_xc_x_slice
I1018 12:22:44.245090 34854 net.cpp:406] lstm1_W_xc_x_slice <- W_xc_x
I1018 12:22:44.245120 34854 net.cpp:380] lstm1_W_xc_x_slice -> W_xc_x_1
I1018 12:22:44.245162 34854 net.cpp:380] lstm1_W_xc_x_slice -> W_xc_x_2
I1018 12:22:44.245175 34854 net.cpp:380] lstm1_W_xc_x_slice -> W_xc_x_3
I1018 12:22:44.245193 34854 net.cpp:380] lstm1_W_xc_x_slice -> W_xc_x_4
I1018 12:22:44.245488 34854 net.cpp:122] Setting up lstm1_W_xc_x_slice
I1018 12:22:44.245558 34854 net.cpp:129] Top shape: 1 4 2048 (8192)
I1018 12:22:44.245574 34854 net.cpp:129] Top shape: 1 4 2048 (8192)
I1018 12:22:44.245585 34854 net.cpp:129] Top shape: 1 4 2048 (8192)
I1018 12:22:44.245596 34854 net.cpp:129] Top shape: 1 4 2048 (8192)
I1018 12:22:44.245604 34854 net.cpp:137] Memory required for data: 540928
I1018 12:22:44.245620 34854 layer_factory.hpp:77] Creating layer lstm1_h_conted_0
I1018 12:22:44.245721 34854 net.cpp:84] Creating Layer lstm1_h_conted_0
I1018 12:22:44.245748 34854 net.cpp:406] lstm1_h_conted_0 <- h_0
I1018 12:22:44.245784 34854 net.cpp:406] lstm1_h_conted_0 <- cont_1_lstm1_cont_slice_0_split_0
I1018 12:22:44.245803 34854 net.cpp:380] lstm1_h_conted_0 -> h_conted_0
I1018 12:22:44.246073 34854 net.cpp:122] Setting up lstm1_h_conted_0
I1018 12:22:44.246083 34854 net.cpp:129] Top shape: 1 4 512 (2048)
I1018 12:22:44.246086 34854 net.cpp:137] Memory required for data: 549120
I1018 12:22:44.246090 34854 layer_factory.hpp:77] Creating layer lstm1_transform_1
I1018 12:22:44.246103 34854 net.cpp:84] Creating Layer lstm1_transform_1
I1018 12:22:44.246106 34854 net.cpp:406] lstm1_transform_1 <- h_conted_0
I1018 12:22:44.246114 34854 net.cpp:380] lstm1_transform_1 -> W_hc_h_0
I1018 12:22:44.260229 34854 net.cpp:122] Setting up lstm1_transform_1
I1018 12:22:44.260390 34854 net.cpp:129] Top shape: 1 4 2048 (8192)
I1018 12:22:44.260401 34854 net.cpp:137] Memory required for data: 581888
I1018 12:22:44.260483 34854 layer_factory.hpp:77] Creating layer lstm1_gate_input_1
I1018 12:22:44.260532 34854 net.cpp:84] Creating Layer lstm1_gate_input_1
I1018 12:22:44.260545 34854 net.cpp:406] lstm1_gate_input_1 <- W_hc_h_0
I1018 12:22:44.260568 34854 net.cpp:406] lstm1_gate_input_1 <- W_xc_x_1
I1018 12:22:44.260587 34854 net.cpp:380] lstm1_gate_input_1 -> gate_input_1
I1018 12:22:44.260884 34854 net.cpp:122] Setting up lstm1_gate_input_1
I1018 12:22:44.260962 34854 net.cpp:129] Top shape: 1 4 2048 (8192)
I1018 12:22:44.260967 34854 net.cpp:137] Memory required for data: 614656
I1018 12:22:44.260980 34854 layer_factory.hpp:77] Creating layer lstm1_unit_1
I1018 12:22:44.260992 34854 net.cpp:84] Creating Layer lstm1_unit_1
I1018 12:22:44.260996 34854 net.cpp:406] lstm1_unit_1 <- c_0
I1018 12:22:44.261003 34854 net.cpp:406] lstm1_unit_1 <- gate_input_1
I1018 12:22:44.261008 34854 net.cpp:406] lstm1_unit_1 <- cont_1_lstm1_cont_slice_0_split_1
I1018 12:22:44.261014 34854 net.cpp:380] lstm1_unit_1 -> c_1
I1018 12:22:44.261021 34854 net.cpp:380] lstm1_unit_1 -> h_1
I1018 12:22:44.261072 34854 net.cpp:122] Setting up lstm1_unit_1
I1018 12:22:44.261080 34854 net.cpp:129] Top shape: 1 4 512 (2048)
I1018 12:22:44.261085 34854 net.cpp:129] Top shape: 1 4 512 (2048)
I1018 12:22:44.261090 34854 net.cpp:137] Memory required for data: 631040
I1018 12:22:44.261093 34854 layer_factory.hpp:77] Creating layer h_1_lstm1_unit_1_1_split
I1018 12:22:44.261102 34854 net.cpp:84] Creating Layer h_1_lstm1_unit_1_1_split
I1018 12:22:44.261106 34854 net.cpp:406] h_1_lstm1_unit_1_1_split <- h_1
I1018 12:22:44.261112 34854 net.cpp:380] h_1_lstm1_unit_1_1_split -> h_1_lstm1_unit_1_1_split_0
I1018 12:22:44.261119 34854 net.cpp:380] h_1_lstm1_unit_1_1_split -> h_1_lstm1_unit_1_1_split_1
I1018 12:22:44.261153 34854 net.cpp:122] Setting up h_1_lstm1_unit_1_1_split
I1018 12:22:44.261162 34854 net.cpp:129] Top shape: 1 4 512 (2048)
I1018 12:22:44.261167 34854 net.cpp:129] Top shape: 1 4 512 (2048)
I1018 12:22:44.261170 34854 net.cpp:137] Memory required for data: 647424
I1018 12:22:44.261174 34854 layer_factory.hpp:77] Creating layer lstm1_h_conted_1
I1018 12:22:44.261184 34854 net.cpp:84] Creating Layer lstm1_h_conted_1
I1018 12:22:44.261189 34854 net.cpp:406] lstm1_h_conted_1 <- h_1_lstm1_unit_1_1_split_0
I1018 12:22:44.261194 34854 net.cpp:406] lstm1_h_conted_1 <- cont_2_lstm1_cont_slice_1_split_0
I1018 12:22:44.261200 34854 net.cpp:380] lstm1_h_conted_1 -> h_conted_1
I1018 12:22:44.261346 34854 net.cpp:122] Setting up lstm1_h_conted_1
I1018 12:22:44.261420 34854 net.cpp:129] Top shape: 1 4 512 (2048)
I1018 12:22:44.261436 34854 net.cpp:137] Memory required for data: 655616
I1018 12:22:44.261454 34854 layer_factory.hpp:77] Creating layer lstm1_transform_2
I1018 12:22:44.261554 34854 net.cpp:84] Creating Layer lstm1_transform_2
I1018 12:22:44.261575 34854 net.cpp:406] lstm1_transform_2 <- h_conted_1
I1018 12:22:44.261605 34854 net.cpp:380] lstm1_transform_2 -> W_hc_h_1
I1018 12:22:44.282889 34854 net.cpp:122] Setting up lstm1_transform_2
I1018 12:22:44.282919 34854 net.cpp:129] Top shape: 1 4 2048 (8192)
I1018 12:22:44.282925 34854 net.cpp:137] Memory required for data: 688384
I1018 12:22:44.282933 34854 net.cpp:465] Sharing parameters 'W_hc' owned by layer 'lstm1_transform_1', param index 0
I1018 12:22:44.282940 34854 layer_factory.hpp:77] Creating layer lstm1_gate_input_2
I1018 12:22:44.282954 34854 net.cpp:84] Creating Layer lstm1_gate_input_2
I1018 12:22:44.282960 34854 net.cpp:406] lstm1_gate_input_2 <- W_hc_h_1
I1018 12:22:44.282968 34854 net.cpp:406] lstm1_gate_input_2 <- W_xc_x_2
I1018 12:22:44.282976 34854 net.cpp:380] lstm1_gate_input_2 -> gate_input_2
I1018 12:22:44.283015 34854 net.cpp:122] Setting up lstm1_gate_input_2
I1018 12:22:44.283026 34854 net.cpp:129] Top shape: 1 4 2048 (8192)
I1018 12:22:44.283031 34854 net.cpp:137] Memory required for data: 721152
I1018 12:22:44.283036 34854 layer_factory.hpp:77] Creating layer lstm1_unit_2
I1018 12:22:44.283043 34854 net.cpp:84] Creating Layer lstm1_unit_2
I1018 12:22:44.283051 34854 net.cpp:406] lstm1_unit_2 <- c_1
I1018 12:22:44.283056 34854 net.cpp:406] lstm1_unit_2 <- gate_input_2
I1018 12:22:44.283062 34854 net.cpp:406] lstm1_unit_2 <- cont_2_lstm1_cont_slice_1_split_1
I1018 12:22:44.283069 34854 net.cpp:380] lstm1_unit_2 -> c_2
I1018 12:22:44.283077 34854 net.cpp:380] lstm1_unit_2 -> h_2
I1018 12:22:44.283134 34854 net.cpp:122] Setting up lstm1_unit_2
I1018 12:22:44.283143 34854 net.cpp:129] Top shape: 1 4 512 (2048)
I1018 12:22:44.283150 34854 net.cpp:129] Top shape: 1 4 512 (2048)
I1018 12:22:44.283154 34854 net.cpp:137] Memory required for data: 737536
I1018 12:22:44.283159 34854 layer_factory.hpp:77] Creating layer h_2_lstm1_unit_2_1_split
I1018 12:22:44.283166 34854 net.cpp:84] Creating Layer h_2_lstm1_unit_2_1_split
I1018 12:22:44.283171 34854 net.cpp:406] h_2_lstm1_unit_2_1_split <- h_2
I1018 12:22:44.283179 34854 net.cpp:380] h_2_lstm1_unit_2_1_split -> h_2_lstm1_unit_2_1_split_0
I1018 12:22:44.283186 34854 net.cpp:380] h_2_lstm1_unit_2_1_split -> h_2_lstm1_unit_2_1_split_1
I1018 12:22:44.283224 34854 net.cpp:122] Setting up h_2_lstm1_unit_2_1_split
I1018 12:22:44.283236 34854 net.cpp:129] Top shape: 1 4 512 (2048)
I1018 12:22:44.283241 34854 net.cpp:129] Top shape: 1 4 512 (2048)
I1018 12:22:44.283246 34854 net.cpp:137] Memory required for data: 753920
I1018 12:22:44.283251 34854 layer_factory.hpp:77] Creating layer lstm1_h_conted_2
I1018 12:22:44.283259 34854 net.cpp:84] Creating Layer lstm1_h_conted_2
I1018 12:22:44.283264 34854 net.cpp:406] lstm1_h_conted_2 <- h_2_lstm1_unit_2_1_split_0
I1018 12:22:44.283270 34854 net.cpp:406] lstm1_h_conted_2 <- cont_3_lstm1_cont_slice_2_split_0
I1018 12:22:44.283277 34854 net.cpp:380] lstm1_h_conted_2 -> h_conted_2
I1018 12:22:44.283344 34854 net.cpp:122] Setting up lstm1_h_conted_2
I1018 12:22:44.283355 34854 net.cpp:129] Top shape: 1 4 512 (2048)
I1018 12:22:44.283360 34854 net.cpp:137] Memory required for data: 762112
I1018 12:22:44.283365 34854 layer_factory.hpp:77] Creating layer lstm1_transform_3
I1018 12:22:44.283375 34854 net.cpp:84] Creating Layer lstm1_transform_3
I1018 12:22:44.283380 34854 net.cpp:406] lstm1_transform_3 <- h_conted_2
I1018 12:22:44.283386 34854 net.cpp:380] lstm1_transform_3 -> W_hc_h_2
I1018 12:22:44.299988 34854 net.cpp:122] Setting up lstm1_transform_3
I1018 12:22:44.300022 34854 net.cpp:129] Top shape: 1 4 2048 (8192)
I1018 12:22:44.300034 34854 net.cpp:137] Memory required for data: 794880
I1018 12:22:44.300053 34854 net.cpp:465] Sharing parameters 'W_hc' owned by layer 'lstm1_transform_1', param index 0
I1018 12:22:44.300060 34854 layer_factory.hpp:77] Creating layer lstm1_gate_input_3
I1018 12:22:44.300073 34854 net.cpp:84] Creating Layer lstm1_gate_input_3
I1018 12:22:44.300081 34854 net.cpp:406] lstm1_gate_input_3 <- W_hc_h_2
I1018 12:22:44.300089 34854 net.cpp:406] lstm1_gate_input_3 <- W_xc_x_3
I1018 12:22:44.300097 34854 net.cpp:380] lstm1_gate_input_3 -> gate_input_3
I1018 12:22:44.300217 34854 net.cpp:122] Setting up lstm1_gate_input_3
I1018 12:22:44.300320 34854 net.cpp:129] Top shape: 1 4 2048 (8192)
I1018 12:22:44.300340 34854 net.cpp:137] Memory required for data: 827648
I1018 12:22:44.300354 34854 layer_factory.hpp:77] Creating layer lstm1_unit_3
I1018 12:22:44.300410 34854 net.cpp:84] Creating Layer lstm1_unit_3
I1018 12:22:44.300482 34854 net.cpp:406] lstm1_unit_3 <- c_2
I1018 12:22:44.300513 34854 net.cpp:406] lstm1_unit_3 <- gate_input_3
I1018 12:22:44.300529 34854 net.cpp:406] lstm1_unit_3 <- cont_3_lstm1_cont_slice_2_split_1
I1018 12:22:44.300552 34854 net.cpp:380] lstm1_unit_3 -> c_3
I1018 12:22:44.300602 34854 net.cpp:380] lstm1_unit_3 -> h_3
I1018 12:22:44.300842 34854 net.cpp:122] Setting up lstm1_unit_3
I1018 12:22:44.300899 34854 net.cpp:129] Top shape: 1 4 512 (2048)
I1018 12:22:44.300910 34854 net.cpp:129] Top shape: 1 4 512 (2048)
I1018 12:22:44.300920 34854 net.cpp:137] Memory required for data: 844032
I1018 12:22:44.300936 34854 layer_factory.hpp:77] Creating layer h_3_lstm1_unit_3_1_split
I1018 12:22:44.300984 34854 net.cpp:84] Creating Layer h_3_lstm1_unit_3_1_split
I1018 12:22:44.301031 34854 net.cpp:406] h_3_lstm1_unit_3_1_split <- h_3
I1018 12:22:44.301054 34854 net.cpp:380] h_3_lstm1_unit_3_1_split -> h_3_lstm1_unit_3_1_split_0
I1018 12:22:44.301089 34854 net.cpp:380] h_3_lstm1_unit_3_1_split -> h_3_lstm1_unit_3_1_split_1
I1018 12:22:44.301260 34854 net.cpp:122] Setting up h_3_lstm1_unit_3_1_split
I1018 12:22:44.301324 34854 net.cpp:129] Top shape: 1 4 512 (2048)
I1018 12:22:44.301342 34854 net.cpp:129] Top shape: 1 4 512 (2048)
I1018 12:22:44.301357 34854 net.cpp:137] Memory required for data: 860416
I1018 12:22:44.301378 34854 layer_factory.hpp:77] Creating layer lstm1_h_conted_3
I1018 12:22:44.301437 34854 net.cpp:84] Creating Layer lstm1_h_conted_3
I1018 12:22:44.301465 34854 net.cpp:406] lstm1_h_conted_3 <- h_3_lstm1_unit_3_1_split_0
I1018 12:22:44.301488 34854 net.cpp:406] lstm1_h_conted_3 <- cont_4_lstm1_cont_slice_3_split_0
I1018 12:22:44.301508 34854 net.cpp:380] lstm1_h_conted_3 -> h_conted_3
I1018 12:22:44.301604 34854 net.cpp:122] Setting up lstm1_h_conted_3
I1018 12:22:44.301614 34854 net.cpp:129] Top shape: 1 4 512 (2048)
I1018 12:22:44.301617 34854 net.cpp:137] Memory required for data: 868608
I1018 12:22:44.301622 34854 layer_factory.hpp:77] Creating layer lstm1_transform_4
I1018 12:22:44.301635 34854 net.cpp:84] Creating Layer lstm1_transform_4
I1018 12:22:44.301642 34854 net.cpp:406] lstm1_transform_4 <- h_conted_3
I1018 12:22:44.301650 34854 net.cpp:380] lstm1_transform_4 -> W_hc_h_3
I1018 12:22:44.318486 34854 net.cpp:122] Setting up lstm1_transform_4
I1018 12:22:44.318512 34854 net.cpp:129] Top shape: 1 4 2048 (8192)
I1018 12:22:44.318517 34854 net.cpp:137] Memory required for data: 901376
I1018 12:22:44.318526 34854 net.cpp:465] Sharing parameters 'W_hc' owned by layer 'lstm1_transform_1', param index 0
I1018 12:22:44.318533 34854 layer_factory.hpp:77] Creating layer lstm1_gate_input_4
I1018 12:22:44.318547 34854 net.cpp:84] Creating Layer lstm1_gate_input_4
I1018 12:22:44.318553 34854 net.cpp:406] lstm1_gate_input_4 <- W_hc_h_3
I1018 12:22:44.318563 34854 net.cpp:406] lstm1_gate_input_4 <- W_xc_x_4
I1018 12:22:44.318572 34854 net.cpp:380] lstm1_gate_input_4 -> gate_input_4
I1018 12:22:44.318614 34854 net.cpp:122] Setting up lstm1_gate_input_4
I1018 12:22:44.318624 34854 net.cpp:129] Top shape: 1 4 2048 (8192)
I1018 12:22:44.318627 34854 net.cpp:137] Memory required for data: 934144
I1018 12:22:44.318632 34854 layer_factory.hpp:77] Creating layer lstm1_unit_4
I1018 12:22:44.318640 34854 net.cpp:84] Creating Layer lstm1_unit_4
I1018 12:22:44.318645 34854 net.cpp:406] lstm1_unit_4 <- c_3
I1018 12:22:44.318652 34854 net.cpp:406] lstm1_unit_4 <- gate_input_4
I1018 12:22:44.318657 34854 net.cpp:406] lstm1_unit_4 <- cont_4_lstm1_cont_slice_3_split_1
I1018 12:22:44.318665 34854 net.cpp:380] lstm1_unit_4 -> c_4
I1018 12:22:44.318672 34854 net.cpp:380] lstm1_unit_4 -> h_4
I1018 12:22:44.318723 34854 net.cpp:122] Setting up lstm1_unit_4
I1018 12:22:44.318732 34854 net.cpp:129] Top shape: 1 4 512 (2048)
I1018 12:22:44.318737 34854 net.cpp:129] Top shape: 1 4 512 (2048)
I1018 12:22:44.318742 34854 net.cpp:137] Memory required for data: 950528
I1018 12:22:44.318747 34854 layer_factory.hpp:77] Creating layer lstm1_
I1018 12:22:44.318754 34854 net.cpp:84] Creating Layer lstm1_
I1018 12:22:44.318759 34854 net.cpp:406] lstm1_ <- c_4
I1018 12:22:44.318768 34854 net.cpp:380] lstm1_ -> c_T
I1018 12:22:44.318792 34854 net.cpp:122] Setting up lstm1_
I1018 12:22:44.318801 34854 net.cpp:129] Top shape: 1 4 512 (2048)
I1018 12:22:44.318805 34854 net.cpp:137] Memory required for data: 958720
I1018 12:22:44.318810 34854 layer_factory.hpp:77] Creating layer lstm1_h_concat
I1018 12:22:44.318819 34854 net.cpp:84] Creating Layer lstm1_h_concat
I1018 12:22:44.318823 34854 net.cpp:406] lstm1_h_concat <- h_1_lstm1_unit_1_1_split_1
I1018 12:22:44.318830 34854 net.cpp:406] lstm1_h_concat <- h_2_lstm1_unit_2_1_split_1
I1018 12:22:44.318835 34854 net.cpp:406] lstm1_h_concat <- h_3_lstm1_unit_3_1_split_1
I1018 12:22:44.318840 34854 net.cpp:406] lstm1_h_concat <- h_4
I1018 12:22:44.318850 34854 net.cpp:380] lstm1_h_concat -> h
I1018 12:22:44.318882 34854 net.cpp:122] Setting up lstm1_h_concat
I1018 12:22:44.318893 34854 net.cpp:129] Top shape: 4 4 512 (8192)
I1018 12:22:44.318898 34854 net.cpp:137] Memory required for data: 991488
I1018 12:22:44.318902 34854 layer_factory.hpp:77] Creating layer h_pseudoloss
I1018 12:22:44.318912 34854 net.cpp:84] Creating Layer h_pseudoloss
I1018 12:22:44.318917 34854 net.cpp:406] h_pseudoloss <- h
I1018 12:22:44.318923 34854 net.cpp:380] h_pseudoloss -> h_pseudoloss
I1018 12:22:44.319005 34854 net.cpp:122] Setting up h_pseudoloss
…
I1018 12:22:44.319219 34854 net.cpp:200] lstm1_ does not need backward computation.
I1018 12:22:44.319223 34854 net.cpp:242] This network produces output c_T
I1018 12:22:44.319228 34854 net.cpp:242] This network produces output h_pseudoloss
I1018 12:22:44.322265 34854 net.cpp:255] Network initialization done.
I1018 12:22:44.322402 34854 recurrent_layer.cpp:150] Adding parameter 0: W_xc
I1018 12:22:44.322415 34854 recurrent_layer.cpp:150] Adding parameter 1: b_c
I1018 12:22:44.322423 34854 recurrent_layer.cpp:150] Adding parameter 2: W_hc
I1018 12:22:44.322552 34854 net.cpp:122] Setting up lstm1
I1018 12:22:44.322571 34854 net.cpp:129] Top shape: 4 4 512 (8192)
I1018 12:22:44.322578 34854 net.cpp:137] Memory required for data: 763748624
I1018 12:22:44.322595 34854 layer_factory.hpp:77] Creating layer lstm1-drop
I1018 12:22:44.322613 34854 net.cpp:84] Creating Layer lstm1-drop
I1018 12:22:44.322619 34854 net.cpp:406] lstm1-drop <- lstm1
I1018 12:22:44.322628 34854 net.cpp:380] lstm1-drop -> lstm1-drop
I1018 12:22:44.322674 34854 net.cpp:122] Setting up lstm1-drop
I1018 12:22:44.322685 34854 net.cpp:129] Top shape: 4 4 512 (8192)
I1018 12:22:44.322688 34854 net.cpp:137] Memory required for data: 763781392
I1018 12:22:44.322693 34854 layer_factory.hpp:77] Creating layer fc-final
I1018 12:22:44.322705 34854 net.cpp:84] Creating Layer fc-final
I1018 12:22:44.322710 34854 net.cpp:406] fc-final <- lstm1-drop
I1018 12:22:44.322717 34854 net.cpp:380] fc-final -> fc-final
I1018 12:22:44.323361 34854 net.cpp:122] Setting up fc-final
I1018 12:22:44.323431 34854 net.cpp:129] Top shape: 4 4 10 (160)
I1018 12:22:44.323441 34854 net.cpp:137] Memory required for data: 763782032
I1018 12:22:44.323518 34854 layer_factory.hpp:77] Creating layer fc-final_fc-final_0_split
I1018 12:22:44.323556 34854 net.cpp:84] Creating Layer fc-final_fc-final_0_split
I1018 12:22:44.323578 34854 net.cpp:406] fc-final_fc-final_0_split <- fc-final
I1018 12:22:44.323606 34854 net.cpp:380] fc-final_fc-final_0_split -> fc-final_fc-final_0_split_0
I1018 12:22:44.323665 34854 net.cpp:380] fc-final_fc-final_0_split -> fc-final_fc-final_0_split_1
I1018 12:22:44.323833 34854 net.cpp:122] Setting up fc-final_fc-final_0_split
I1018 12:22:44.323907 34854 net.cpp:129] Top shape: 4 4 10 (160)
I1018 12:22:44.323922 34854 net.cpp:129] Top shape: 4 4 10 (160)
I1018 12:22:44.323935 34854 net.cpp:137] Memory required for data: 763783312
I1018 12:22:44.323952 34854 layer_factory.hpp:77] Creating layer loss
I1018 12:22:44.324057 34854 net.cpp:84] Creating Layer loss
I1018 12:22:44.324167 34854 net.cpp:406] loss <- fc-final_fc-final_0_split_0
I1018 12:22:44.324185 34854 net.cpp:406] loss <- reshape-label_label_tran_0_split_0
I1018 12:22:44.324203 34854 net.cpp:380] loss -> loss
…
I1018 12:22:44.327491 34854 net.cpp:294] The NetState phase (1) differed from the phase (0) specified by a rule in layer data
I1018 12:22:44.327916 34854 net.cpp:51] Initializing net from parameters: 
name: "VGG_16_layers_LSTM"
state {
  phase: TEST
  stage: "test-on-test"
}
layer {
  name: "data"
  type: "ImageData"
  top: "data"
  top: "label"
  include {
    phase: TEST
  }
  transform_param {
    mirror: false
    crop_size: 288
    mean_value: 104
    mean_value: 117
    mean_value: 123
  }
  image_data_param {
    source: "../Data/lsun_val_list.txt"
    batch_size: 50
    new_height: 320
    new_width: 320
  }
}
layer {
  name: "Silence"
  type: "Silence"
  bottom: "label"
  include {
    phase: TEST
  }
}
layer {
  name: "label_tran"
  type: "Python"
  bottom: "label"
  top: "reshape-label"
  top: "clip_markers"
  python_param {
    module: "data_preparation_sort_max_clip"
    layer: "ReshapeLabel"
  }
}
layer {
  name: "conv1_1"
  type: "Convolution"
  bottom: "data"
  top: "conv1_1"
  convolution_param {
    num_output: 64
    pad: 1
    kernel_size: 3
  }
}
layer {
  name: "relu1_1"
  type: "ReLU"
  bottom: "conv1_1"
  top: "conv1_1"
}
layer {
  name: "conv1_2"
  type: "Convolution"
  bottom: "conv1_1"
  top: "conv1_2"
  convolution_param {
    num_output: 64
    pad: 1
    kernel_size: 3
  }
}
layer {
  name: "relu1_2"
  type: "ReLU"
  bottom: "conv1_2"
  top: "conv1_2"
}
layer {
  name: "pool1"
  type: "Pooling"
  bottom: "conv1_2"
  top: "pool1"
  pooling_param {
    pool: MAX
    kernel_size: 2
    stride: 2
  }
}
layer {
  name: "conv2_1"
  type: "Convolution"
  bottom: "pool1"
  top: "conv2_1"
  convolution_param {
    num_output: 128
    pad: 1
    kernel_size: 3
  }
}
layer {
  name: "relu2_1"
  type: "ReLU"
  bottom: "conv2_1"
  top: "conv2_1"
}
layer {
  name: "conv2_2"
  type: "Convolution"
  bottom: "conv2_1"
  top: "conv2_2"
  convolution_param {
    num_output: 128
    pad: 1
    kernel_size: 3
  }
}
layer {
  name: "relu2_2"
  type: "ReLU"
  bottom: "conv2_2"
  top: "conv2_2"
}
layer {
  name: "pool2"
  type: "Pooling"
  bottom: "conv2_2"
  top: "pool2"
  pooling_param {
    pool: MAX
    kernel_size: 2
    stride: 2
  }
}
layer {
  name: "conv3_1"
  type: "Convolution"
  bottom: "pool2"
  top: "conv3_1"
  convolution_param {
    num_output: 256
    pad: 1
    kernel_size: 3
  }
}
layer {
  name: "relu3_1"
  type: "ReLU"
  bottom: "conv3_1"
  top: "conv3_1"
}
layer {
  name: "conv3_2"
  type: "Convolution"
  bottom: "conv3_1"
  top: "conv3_2"
  convolution_param {
    num_output: 256
    pad: 1
    kernel_size: 3
  }
}
layer {
  name: "relu3_2"
  type: "ReLU"
  bottom: "conv3_2"
  top: "conv3_2"
}
layer {
  name: "conv3_3"
  type: "Convolution"
  bottom: "conv3_2"
  top: "conv3_3"
  convolution_param {
    num_output: 256
    pad: 1
    kernel_size: 3
  }
}
layer {
  name: "relu3_3"
  type: "ReLU"
  bottom: "conv3_3"
  top: "conv3_3"
}
layer {
  name: "pool3"
  type: "Pooling"
  bottom: "conv3_3"
  top: "pool3"
  pooling_param {
    pool: MAX
    kernel_size: 2
    stride: 2
  }
}
layer {
  name: "conv4_1"
  type: "Convolution"
  bottom: "pool3"
  top: "conv4_1"
  convolution_param {
    num_output: 512
    pad: 1
    kernel_size: 3
  }
}
layer {
  name: "relu4_1"
  type: "ReLU"
  bottom: "conv4_1"
  top: "conv4_1"
}
layer {
  name: "conv4_2"
  type: "Convolution"
  bottom: "conv4_1"
  top: "conv4_2"
  convolution_param {
    num_output: 512
    pad: 1
    kernel_size: 3
  }
}
layer {
  name: "relu4_2"
  type: "ReLU"
  bottom: "conv4_2"
  top: "conv4_2"
}
layer {
  name: "conv4_3"
  type: "Convolution"
  bottom: "conv4_2"
  top: "conv4_3"
  convolution_param {
    num_output: 512
    pad: 1
    kernel_size: 3
  }
}
layer {
  name: "relu4_3"
  type: "ReLU"
  bottom: "conv4_3"
  top: "conv4_3"
}
layer {
  name: "pool4"
  type: "Pooling"
  bottom: "conv4_3"
  top: "pool4"
  pooling_param {
    pool: MAX
    kernel_size: 2
    stride: 2
  }
}
layer {
  name: "conv5_1"
  type: "Convolution"
  bottom: "pool4"
  top: "conv5_1"
  convolution_param {
    num_output: 512
    pad: 1
    kernel_size: 3
  }
}
layer {
  name: "relu5_1"
  type: "ReLU"
  bottom: "conv5_1"
  top: "conv5_1"
}
layer {
  name: "conv5_2"
  type: "Convolution"
  bottom: "conv5_1"
  top: "conv5_2"
  convolution_param {
    num_output: 512
    pad: 1
    kernel_size: 3
  }
}
layer {
  name: "relu5_2"
  type: "ReLU"
  bottom: "conv5_2"
  top: "conv5_2"
}
layer {
  name: "conv5_3"
  type: "Convolution"
  bottom: "conv5_2"
  top: "conv5_3"
  convolution_param {
    num_output: 512
    pad: 1
    kernel_size: 3
  }
}
layer {
  name: "relu5_3"
  type: "ReLU"
  bottom: "conv5_3"
  top: "conv5_3"
}
layer {
  name: "pool5"
  type: "Pooling"
  bottom: "conv5_3"
  top: "pool5"
  pooling_param {
    pool: MAX
    kernel_size: 2
    stride: 2
  }
}
layer {
  name: "fc6-conv"
  type: "Convolution"
  bottom: "pool5"
  top: "fc6-conv"
  convolution_param {
    num_output: 4096
    kernel_size: 7
  }
}
layer {
  name: "relu6"
  type: "ReLU"
  bottom: "fc6-conv"
  top: "fc6-conv"
}
layer {
  name: "drop6"
  type: "Dropout"
  bottom: "fc6-conv"
  top: "fc6-conv"
  dropout_param {
    dropout_ratio: 0.5
  }
}
layer {
  name: "fc6-conv_re"
  type: "Reshape"
  bottom: "fc6-conv"
  top: "fc6-conv_re"
  reshape_param {
    shape {
      dim: 0
      dim: 0
      dim: -1
    }
  }
}
layer {
  name: "fc6-conv_tran"
  type: "Python"
  bottom: "fc6-conv_re"
  top: "fc6-conv_tran"
  python_param {
    module: "data_preparation_sort_max_clip"
    layer: "DataTransposeSortRandomClip"
  }
}
layer {
  name: "lstm1"
  type: "LSTM"
  bottom: "fc6-conv_tran"
  bottom: "clip_markers"
  top: "lstm1"
  recurrent_param {
    num_output: 512
    weight_filler {
      type: "uniform"
      min: -0.01
      max: 0.01
    }
    bias_filler {
      type: "constant"
      value: 0
    }
  }
}
layer {
  name: "lstm1-drop"
  type: "Dropout"
  bottom: "lstm1"
  top: "lstm1-drop"
  dropout_param {
    dropout_ratio: 0.5
  }
}
layer {
  name: "fc-final"
  type: "InnerProduct"
  bottom: "lstm1-drop"
  top: "fc-final"
  param {
    lr_mult: 1
    decay_mult: 1
  }
  param {
    lr_mult: 2
    decay_mult: 0
  }
  inner_product_param {
    num_output: 10
    weight_filler {
      type: "gaussian"
      std: 0.01
    }
    bias_filler {
      type: "constant"
      value: 0
    }
    axis: 2
  }
}
layer {
  name: "loss"
  type: "SoftmaxWithLoss"
  bottom: "fc-final"
  bottom: "reshape-label"
  top: "loss"
  softmax_param {
    axis: 2
  }
}
layer {
  name: "accuracy"
  type: "Accuracy"
  bottom: "fc-final"
  bottom: "reshape-label"
  top: "accuracy"
  accuracy_param {
    axis: 2
  }
}
I1018 12:22:44.328820 34854 layer_factory.hpp:77] Creating layer data
I1018 12:22:44.328966 34854 net.cpp:84] Creating Layer data
I1018 12:22:44.328974 34854 net.cpp:380] data -> data
I1018 12:22:44.328986 34854 net.cpp:380] data -> label
I1018 12:22:44.328999 34854 image_data_layer.cpp:38] Opening file ../Data/lsun_val_list.txt
I1018 12:22:44.331630 34854 image_data_layer.cpp:63] A total of 3000 images.
I1018 12:22:44.335319 34854 image_data_layer.cpp:90] output data size: 50,3,288,288
I1018 12:22:44.497053 34854 net.cpp:122] Setting up data
I1018 12:22:44.497090 34854 net.cpp:129] Top shape: 50 3 288 288 (12441600)
I1018 12:22:44.497099 34854 net.cpp:129] Top shape: 50 (50)
I1018 12:22:44.497103 34854 net.cpp:137] Memory required for data: 49766600
I1018 12:22:44.497113 34854 layer_factory.hpp:77] Creating layer label_data_1_split
I1018 12:22:44.497131 34854 net.cpp:84] Creating Layer label_data_1_split
I1018 12:22:44.497138 34854 net.cpp:406] label_data_1_split <- label
I1018 12:22:44.497149 34854 net.cpp:380] label_data_1_split -> label_data_1_split_0
I1018 12:22:44.497164 34854 net.cpp:380] label_data_1_split -> label_data_1_split_1
I1018 12:22:44.497545 34854 net.cpp:122] Setting up label_data_1_split
I1018 12:22:44.497591 34854 net.cpp:129] Top shape: 50 (50)
I1018 12:22:44.497603 34854 net.cpp:129] Top shape: 50 (50)
I1018 12:22:44.497612 34854 net.cpp:137] Memory required for data: 49767000
I1018 12:22:44.497623 34854 layer_factory.hpp:77] Creating layer Silence
I1018 12:22:44.497656 34854 net.cpp:84] Creating Layer Silence
I1018 12:22:44.497671 34854 net.cpp:406] Silence <- label_data_1_split_0
I1018 12:22:44.497687 34854 net.cpp:122] Setting up Silence
I1018 12:22:44.497695 34854 net.cpp:137] Memory required for data: 49767000
I1018 12:22:44.497704 34854 layer_factory.hpp:77] Creating layer label_tran
I1018 12:22:44.497798 34854 net.cpp:84] Creating Layer label_tran
I1018 12:22:44.497817 34854 net.cpp:406] label_tran <- label_data_1_split_1
I1018 12:22:44.497833 34854 net.cpp:380] label_tran -> reshape-label
I1018 12:22:44.497859 34854 net.cpp:380] label_tran -> clip_markers
I1018 12:22:44.498073 34854 net.cpp:122] Setting up label_tran
I1018 12:22:44.498097 34854 net.cpp:129] Top shape: 4 50 (200)
I1018 12:22:44.498111 34854 net.cpp:129] Top shape: 4 50 (200)
I1018 12:22:44.498123 34854 net.cpp:137] Memory required for data: 49768600
I1018 12:22:44.498132 34854 layer_factory.hpp:77] Creating layer reshape-label_label_tran_0_split
I1018 12:22:44.498149 34854 net.cpp:84] Creating Layer reshape-label_label_tran_0_split
I1018 12:22:44.498159 34854 net.cpp:406] reshape-label_label_tran_0_split <- reshape-label
I1018 12:22:44.498173 34854 net.cpp:380] reshape-label_label_tran_0_split -> reshape-label_label_tran_0_split_0
I1018 12:22:44.498189 34854 net.cpp:380] reshape-label_label_tran_0_split -> reshape-label_label_tran_0_split_1
I1018 12:22:44.498260 34854 net.cpp:122] Setting up reshape-label_label_tran_0_split
I1018 12:22:44.498275 34854 net.cpp:129] Top shape: 4 50 (200)
I1018 12:22:44.498286 34854 net.cpp:129] Top shape: 4 50 (200)
I1018 12:22:44.498293 34854 net.cpp:137] Memory required for data: 49770200
I1018 12:22:44.498302 34854 layer_factory.hpp:77] Creating layer conv1_1
I1018 12:22:44.498322 34854 net.cpp:84] Creating Layer conv1_1
I1018 12:22:44.498334 34854 net.cpp:406] conv1_1 <- data
I1018 12:22:44.498348 34854 net.cpp:380] conv1_1 -> conv1_1
I1018 12:22:44.498986 34854 net.cpp:122] Setting up conv1_1
I1018 12:22:44.499008 34854 net.cpp:129] Top shape: 50 64 288 288 (265420800)
I1018 12:22:44.499017 34854 net.cpp:137] Memory required for data: 1111453400
I1018 12:22:44.499040 34854 layer_factory.hpp:77] Creating layer relu1_1
I1018 12:22:44.499056 34854 net.cpp:84] Creating Layer relu1_1
I1018 12:22:44.499066 34854 net.cpp:406] relu1_1 <- conv1_1
I1018 12:22:44.499081 34854 net.cpp:367] relu1_1 -> conv1_1 (in-place)
I1018 12:22:44.499097 34854 net.cpp:122] Setting up relu1_1
I1018 12:22:44.499114 34854 net.cpp:129] Top shape: 50 64 288 288 (265420800)
I1018 12:22:44.499121 34854 net.cpp:137] Memory required for data: 2173136600
I1018 12:22:44.499133 34854 layer_factory.hpp:77] Creating layer conv1_2
I1018 12:22:44.499148 34854 net.cpp:84] Creating Layer conv1_2
I1018 12:22:44.499157 34854 net.cpp:406] conv1_2 <- conv1_1
I1018 12:22:44.499172 34854 net.cpp:380] conv1_2 -> conv1_2
I1018 12:22:44.499842 34854 net.cpp:122] Setting up conv1_2
I1018 12:22:44.499861 34854 net.cpp:129] Top shape: 50 64 288 288 (265420800)
I1018 12:22:44.499871 34854 net.cpp:137] Memory required for data: 3234819800
I1018 12:22:44.499889 34854 layer_factory.hpp:77] Creating layer relu1_2
I1018 12:22:44.499908 34854 net.cpp:84] Creating Layer relu1_2
I1018 12:22:44.499924 34854 net.cpp:406] relu1_2 <- conv1_2
I1018 12:22:44.499938 34854 net.cpp:367] relu1_2 -> conv1_2 (in-place)
I1018 12:22:44.499951 34854 net.cpp:122] Setting up relu1_2
I1018 12:22:44.499963 34854 net.cpp:129] Top shape: 50 64 288 288 (265420800)
I1018 12:22:44.499971 34854 net.cpp:137] Memory required for data: 4296503000
I1018 12:22:44.499979 34854 layer_factory.hpp:77] Creating layer pool1
I1018 12:22:44.499994 34854 net.cpp:84] Creating Layer pool1
I1018 12:22:44.500003 34854 net.cpp:406] pool1 <- conv1_2
I1018 12:22:44.500016 34854 net.cpp:380] pool1 -> pool1
I1018 12:22:44.500233 34854 net.cpp:122] Setting up pool1
I1018 12:22:44.500257 34854 net.cpp:129] Top shape: 50 64 144 144 (66355200)
I1018 12:22:44.500265 34854 net.cpp:137] Memory required for data: 4561923800
I1018 12:22:44.500274 34854 layer_factory.hpp:77] Creating layer conv2_1
I1018 12:22:44.500298 34854 net.cpp:84] Creating Layer conv2_1
I1018 12:22:44.500311 34854 net.cpp:406] conv2_1 <- pool1
I1018 12:22:44.500326 34854 net.cpp:380] conv2_1 -> conv2_1
I1018 12:22:44.502267 34854 net.cpp:122] Setting up conv2_1
I1018 12:22:44.502365 34854 net.cpp:129] Top shape: 50 128 144 144 (132710400)
I1018 12:22:44.502427 34854 net.cpp:137] Memory required for data: 5092765400
I1018 12:22:44.502502 34854 layer_factory.hpp:77] Creating layer relu2_1
I1018 12:22:44.502526 34854 net.cpp:84] Creating Layer relu2_1
I1018 12:22:44.502537 34854 net.cpp:406] relu2_1 <- conv2_1
I1018 12:22:44.502552 34854 net.cpp:367] relu2_1 -> conv2_1 (in-place)
I1018 12:22:44.502569 34854 net.cpp:122] Setting up relu2_1
I1018 12:22:44.502584 34854 net.cpp:129] Top shape: 50 128 144 144 (132710400)
I1018 12:22:44.502593 34854 net.cpp:137] Memory required for data: 5623607000
I1018 12:22:44.502601 34854 layer_factory.hpp:77] Creating layer conv2_2
I1018 12:22:44.502617 34854 net.cpp:84] Creating Layer conv2_2
I1018 12:22:44.502629 34854 net.cpp:406] conv2_2 <- conv2_1
I1018 12:22:44.502643 34854 net.cpp:380] conv2_2 -> conv2_2
I1018 12:22:44.507167 34854 net.cpp:122] Setting up conv2_2
I1018 12:22:44.507190 34854 net.cpp:129] Top shape: 50 128 144 144 (132710400)
I1018 12:22:44.507200 34854 net.cpp:137] Memory required for data: 6154448600
I1018 12:22:44.507215 34854 layer_factory.hpp:77] Creating layer relu2_2
I1018 12:22:44.507228 34854 net.cpp:84] Creating Layer relu2_2
I1018 12:22:44.507237 34854 net.cpp:406] relu2_2 <- conv2_2
I1018 12:22:44.507251 34854 net.cpp:367] relu2_2 -> conv2_2 (in-place)
I1018 12:22:44.507267 34854 net.cpp:122] Setting up relu2_2
I1018 12:22:44.507282 34854 net.cpp:129] Top shape: 50 128 144 144 (132710400)
I1018 12:22:44.507290 34854 net.cpp:137] Memory required for data: 6685290200
I1018 12:22:44.507299 34854 layer_factory.hpp:77] Creating layer pool2
I1018 12:22:44.507313 34854 net.cpp:84] Creating Layer pool2
I1018 12:22:44.507321 34854 net.cpp:406] pool2 <- conv2_2
I1018 12:22:44.507334 34854 net.cpp:380] pool2 -> pool2
I1018 12:22:44.507413 34854 net.cpp:122] Setting up pool2
I1018 12:22:44.507429 34854 net.cpp:129] Top shape: 50 128 72 72 (33177600)
I1018 12:22:44.507437 34854 net.cpp:137] Memory required for data: 6818000600
I1018 12:22:44.507446 34854 layer_factory.hpp:77] Creating layer conv3_1
I1018 12:22:44.507462 34854 net.cpp:84] Creating Layer conv3_1
I1018 12:22:44.507474 34854 net.cpp:406] conv3_1 <- pool2
I1018 12:22:44.507488 34854 net.cpp:380] conv3_1 -> conv3_1
I1018 12:22:44.509675 34854 net.cpp:122] Setting up conv3_1
I1018 12:22:44.509707 34854 net.cpp:129] Top shape: 50 256 72 72 (66355200)
I1018 12:22:44.509717 34854 net.cpp:137] Memory required for data: 7083421400
I1018 12:22:44.509740 34854 layer_factory.hpp:77] Creating layer relu3_1
I1018 12:22:44.509762 34854 net.cpp:84] Creating Layer relu3_1
I1018 12:22:44.509771 34854 net.cpp:406] relu3_1 <- conv3_1
I1018 12:22:44.509785 34854 net.cpp:367] relu3_1 -> conv3_1 (in-place)
I1018 12:22:44.509801 34854 net.cpp:122] Setting up relu3_1
I1018 12:22:44.509814 34854 net.cpp:129] Top shape: 50 256 72 72 (66355200)
I1018 12:22:44.509822 34854 net.cpp:137] Memory required for data: 7348842200
I1018 12:22:44.509830 34854 layer_factory.hpp:77] Creating layer conv3_2
I1018 12:22:44.509847 34854 net.cpp:84] Creating Layer conv3_2
I1018 12:22:44.509856 34854 net.cpp:406] conv3_2 <- conv3_1
I1018 12:22:44.509871 34854 net.cpp:380] conv3_2 -> conv3_2
I1018 12:22:44.513068 34854 net.cpp:122] Setting up conv3_2
I1018 12:22:44.513092 34854 net.cpp:129] Top shape: 50 256 72 72 (66355200)
I1018 12:22:44.513099 34854 net.cpp:137] Memory required for data: 7614263000
I1018 12:22:44.513111 34854 layer_factory.hpp:77] Creating layer relu3_2
I1018 12:22:44.513123 34854 net.cpp:84] Creating Layer relu3_2
I1018 12:22:44.513130 34854 net.cpp:406] relu3_2 <- conv3_2
I1018 12:22:44.513140 34854 net.cpp:367] relu3_2 -> conv3_2 (in-place)
I1018 12:22:44.513152 34854 net.cpp:122] Setting up relu3_2
I1018 12:22:44.513161 34854 net.cpp:129] Top shape: 50 256 72 72 (66355200)
I1018 12:22:44.513169 34854 net.cpp:137] Memory required for data: 7879683800
I1018 12:22:44.513175 34854 layer_factory.hpp:77] Creating layer conv3_3
I1018 12:22:44.513187 34854 net.cpp:84] Creating Layer conv3_3
I1018 12:22:44.513195 34854 net.cpp:406] conv3_3 <- conv3_2
I1018 12:22:44.513204 34854 net.cpp:380] conv3_3 -> conv3_3
I1018 12:22:44.516010 34854 net.cpp:122] Setting up conv3_3
I1018 12:22:44.516047 34854 net.cpp:129] Top shape: 50 256 72 72 (66355200)
I1018 12:22:44.516054 34854 net.cpp:137] Memory required for data: 8145104600
I1018 12:22:44.516067 34854 layer_factory.hpp:77] Creating layer relu3_3
I1018 12:22:44.516079 34854 net.cpp:84] Creating Layer relu3_3
I1018 12:22:44.516088 34854 net.cpp:406] relu3_3 <- conv3_3
I1018 12:22:44.516098 34854 net.cpp:367] relu3_3 -> conv3_3 (in-place)
I1018 12:22:44.516111 34854 net.cpp:122] Setting up relu3_3
I1018 12:22:44.516120 34854 net.cpp:129] Top shape: 50 256 72 72 (66355200)
I1018 12:22:44.516126 34854 net.cpp:137] Memory required for data: 8410525400
I1018 12:22:44.516132 34854 layer_factory.hpp:77] Creating layer pool3
I1018 12:22:44.516145 34854 net.cpp:84] Creating Layer pool3
I1018 12:22:44.516151 34854 net.cpp:406] pool3 <- conv3_3
I1018 12:22:44.516162 34854 net.cpp:380] pool3 -> pool3
I1018 12:22:44.516225 34854 net.cpp:122] Setting up pool3
I1018 12:22:44.516237 34854 net.cpp:129] Top shape: 50 256 36 36 (16588800)
I1018 12:22:44.516242 34854 net.cpp:137] Memory required for data: 8476880600
I1018 12:22:44.516249 34854 layer_factory.hpp:77] Creating layer conv4_1
I1018 12:22:44.516263 34854 net.cpp:84] Creating Layer conv4_1
I1018 12:22:44.516269 34854 net.cpp:406] conv4_1 <- pool3
I1018 12:22:44.516280 34854 net.cpp:380] conv4_1 -> conv4_1
I1018 12:22:44.533452 34854 net.cpp:122] Setting up conv4_1
I1018 12:22:44.533488 34854 net.cpp:129] Top shape: 50 512 36 36 (33177600)
I1018 12:22:44.533493 34854 net.cpp:137] Memory required for data: 8609591000
I1018 12:22:44.533505 34854 layer_factory.hpp:77] Creating layer relu4_1
I1018 12:22:44.533520 34854 net.cpp:84] Creating Layer relu4_1
I1018 12:22:44.533529 34854 net.cpp:406] relu4_1 <- conv4_1
I1018 12:22:44.533540 34854 net.cpp:367] relu4_1 -> conv4_1 (in-place)
I1018 12:22:44.533551 34854 net.cpp:122] Setting up relu4_1
I1018 12:22:44.533558 34854 net.cpp:129] Top shape: 50 512 36 36 (33177600)
I1018 12:22:44.533562 34854 net.cpp:137] Memory required for data: 8742301400
I1018 12:22:44.533567 34854 layer_factory.hpp:77] Creating layer conv4_2
I1018 12:22:44.533581 34854 net.cpp:84] Creating Layer conv4_2
I1018 12:22:44.533586 34854 net.cpp:406] conv4_2 <- conv4_1
I1018 12:22:44.533593 34854 net.cpp:380] conv4_2 -> conv4_2
I1018 12:22:44.543170 34854 net.cpp:122] Setting up conv4_2
I1018 12:22:44.543205 34854 net.cpp:129] Top shape: 50 512 36 36 (33177600)
I1018 12:22:44.543210 34854 net.cpp:137] Memory required for data: 8875011800
I1018 12:22:44.543232 34854 layer_factory.hpp:77] Creating layer relu4_2
I1018 12:22:44.543247 34854 net.cpp:84] Creating Layer relu4_2
I1018 12:22:44.543256 34854 net.cpp:406] relu4_2 <- conv4_2
I1018 12:22:44.543264 34854 net.cpp:367] relu4_2 -> conv4_2 (in-place)
I1018 12:22:44.543278 34854 net.cpp:122] Setting up relu4_2
I1018 12:22:44.543284 34854 net.cpp:129] Top shape: 50 512 36 36 (33177600)
I1018 12:22:44.543289 34854 net.cpp:137] Memory required for data: 9007722200
I1018 12:22:44.543293 34854 layer_factory.hpp:77] Creating layer conv4_3
I1018 12:22:44.543305 34854 net.cpp:84] Creating Layer conv4_3
I1018 12:22:44.543310 34854 net.cpp:406] conv4_3 <- conv4_2
I1018 12:22:44.543319 34854 net.cpp:380] conv4_3 -> conv4_3
I1018 12:22:44.566514 34854 net.cpp:122] Setting up conv4_3
I1018 12:22:44.566546 34854 net.cpp:129] Top shape: 50 512 36 36 (33177600)
I1018 12:22:44.566552 34854 net.cpp:137] Memory required for data: 9140432600
I1018 12:22:44.566565 34854 layer_factory.hpp:77] Creating layer relu4_3
I1018 12:22:44.566581 34854 net.cpp:84] Creating Layer relu4_3
I1018 12:22:44.566588 34854 net.cpp:406] relu4_3 <- conv4_3
I1018 12:22:44.566599 34854 net.cpp:367] relu4_3 -> conv4_3 (in-place)
I1018 12:22:44.566613 34854 net.cpp:122] Setting up relu4_3
I1018 12:22:44.566620 34854 net.cpp:129] Top shape: 50 512 36 36 (33177600)
I1018 12:22:44.566624 34854 net.cpp:137] Memory required for data: 9273143000
I1018 12:22:44.566629 34854 layer_factory.hpp:77] Creating layer pool4
I1018 12:22:44.566639 34854 net.cpp:84] Creating Layer pool4
I1018 12:22:44.566644 34854 net.cpp:406] pool4 <- conv4_3
I1018 12:22:44.566653 34854 net.cpp:380] pool4 -> pool4
I1018 12:22:44.566709 34854 net.cpp:122] Setting up pool4
I1018 12:22:44.566717 34854 net.cpp:129] Top shape: 50 512 18 18 (8294400)
I1018 12:22:44.566721 34854 net.cpp:137] Memory required for data: 9306320600
I1018 12:22:44.566726 34854 layer_factory.hpp:77] Creating layer conv5_1
I1018 12:22:44.566740 34854 net.cpp:84] Creating Layer conv5_1
I1018 12:22:44.566750 34854 net.cpp:406] conv5_1 <- pool4
I1018 12:22:44.566761 34854 net.cpp:380] conv5_1 -> conv5_1
I1018 12:22:44.574787 34854 net.cpp:122] Setting up conv5_1
I1018 12:22:44.574837 34854 net.cpp:129] Top shape: 50 512 18 18 (8294400)
I1018 12:22:44.574846 34854 net.cpp:137] Memory required for data: 9339498200
I1018 12:22:44.574865 34854 layer_factory.hpp:77] Creating layer relu5_1
I1018 12:22:44.574879 34854 net.cpp:84] Creating Layer relu5_1
I1018 12:22:44.574890 34854 net.cpp:406] relu5_1 <- conv5_1
I1018 12:22:44.574901 34854 net.cpp:367] relu5_1 -> conv5_1 (in-place)
I1018 12:22:44.574914 34854 net.cpp:122] Setting up relu5_1
I1018 12:22:44.574921 34854 net.cpp:129] Top shape: 50 512 18 18 (8294400)
I1018 12:22:44.574925 34854 net.cpp:137] Memory required for data: 9372675800
I1018 12:22:44.574930 34854 layer_factory.hpp:77] Creating layer conv5_2
I1018 12:22:44.574941 34854 net.cpp:84] Creating Layer conv5_2
I1018 12:22:44.574946 34854 net.cpp:406] conv5_2 <- conv5_1
I1018 12:22:44.574954 34854 net.cpp:380] conv5_2 -> conv5_2
I1018 12:22:44.581809 34854 net.cpp:122] Setting up conv5_2
I1018 12:22:44.581838 34854 net.cpp:129] Top shape: 50 512 18 18 (8294400)
I1018 12:22:44.581845 34854 net.cpp:137] Memory required for data: 9405853400
I1018 12:22:44.581856 34854 layer_factory.hpp:77] Creating layer relu5_2
I1018 12:22:44.581877 34854 net.cpp:84] Creating Layer relu5_2
I1018 12:22:44.581884 34854 net.cpp:406] relu5_2 <- conv5_2
I1018 12:22:44.581894 34854 net.cpp:367] relu5_2 -> conv5_2 (in-place)
I1018 12:22:44.581905 34854 net.cpp:122] Setting up relu5_2
I1018 12:22:44.581912 34854 net.cpp:129] Top shape: 50 512 18 18 (8294400)
I1018 12:22:44.581918 34854 net.cpp:137] Memory required for data: 9439031000
I1018 12:22:44.581923 34854 layer_factory.hpp:77] Creating layer conv5_3
I1018 12:22:44.581938 34854 net.cpp:84] Creating Layer conv5_3
I1018 12:22:44.581943 34854 net.cpp:406] conv5_3 <- conv5_2
I1018 12:22:44.581950 34854 net.cpp:380] conv5_3 -> conv5_3
I1018 12:22:44.604856 34854 net.cpp:122] Setting up conv5_3
I1018 12:22:44.604892 34854 net.cpp:129] Top shape: 50 512 18 18 (8294400)
I1018 12:22:44.604898 34854 net.cpp:137] Memory required for data: 9472208600
I1018 12:22:44.604912 34854 layer_factory.hpp:77] Creating layer relu5_3
I1018 12:22:44.604928 34854 net.cpp:84] Creating Layer relu5_3
I1018 12:22:44.604936 34854 net.cpp:406] relu5_3 <- conv5_3
I1018 12:22:44.604948 34854 net.cpp:367] relu5_3 -> conv5_3 (in-place)
I1018 12:22:44.604960 34854 net.cpp:122] Setting up relu5_3
I1018 12:22:44.604967 34854 net.cpp:129] Top shape: 50 512 18 18 (8294400)
I1018 12:22:44.604971 34854 net.cpp:137] Memory required for data: 9505386200
I1018 12:22:44.604976 34854 layer_factory.hpp:77] Creating layer pool5
I1018 12:22:44.604985 34854 net.cpp:84] Creating Layer pool5
I1018 12:22:44.604990 34854 net.cpp:406] pool5 <- conv5_3
I1018 12:22:44.604998 34854 net.cpp:380] pool5 -> pool5
I1018 12:22:44.605049 34854 net.cpp:122] Setting up pool5
I1018 12:22:44.605059 34854 net.cpp:129] Top shape: 50 512 9 9 (2073600)
I1018 12:22:44.605064 34854 net.cpp:137] Memory required for data: 9513680600
I1018 12:22:44.605068 34854 layer_factory.hpp:77] Creating layer fc6-conv
I1018 12:22:44.605080 34854 net.cpp:84] Creating Layer fc6-conv
I1018 12:22:44.605089 34854 net.cpp:406] fc6-conv <- pool5
I1018 12:22:44.605098 34854 net.cpp:380] fc6-conv -> fc6-conv
I1018 12:22:44.921609 34854 net.cpp:122] Setting up fc6-conv
I1018 12:22:44.921664 34854 net.cpp:129] Top shape: 50 4096 3 3 (1843200)
I1018 12:22:44.921669 34854 net.cpp:137] Memory required for data: 9521053400
I1018 12:22:44.921681 34854 layer_factory.hpp:77] Creating layer relu6
I1018 12:22:44.921695 34854 net.cpp:84] Creating Layer relu6
I1018 12:22:44.921702 34854 net.cpp:406] relu6 <- fc6-conv
I1018 12:22:44.921712 34854 net.cpp:367] relu6 -> fc6-conv (in-place)
I1018 12:22:44.921737 34854 net.cpp:122] Setting up relu6
I1018 12:22:44.921743 34854 net.cpp:129] Top shape: 50 4096 3 3 (1843200)
I1018 12:22:44.921747 34854 net.cpp:137] Memory required for data: 9528426200
I1018 12:22:44.921751 34854 layer_factory.hpp:77] Creating layer drop6
I1018 12:22:44.921761 34854 net.cpp:84] Creating Layer drop6
I1018 12:22:44.921764 34854 net.cpp:406] drop6 <- fc6-conv
I1018 12:22:44.921773 34854 net.cpp:367] drop6 -> fc6-conv (in-place)
I1018 12:22:44.921802 34854 net.cpp:122] Setting up drop6
I1018 12:22:44.921808 34854 net.cpp:129] Top shape: 50 4096 3 3 (1843200)
I1018 12:22:44.921813 34854 net.cpp:137] Memory required for data: 9535799000
I1018 12:22:44.921818 34854 layer_factory.hpp:77] Creating layer fc6-conv_re
I1018 12:22:44.921826 34854 net.cpp:84] Creating Layer fc6-conv_re
I1018 12:22:44.921831 34854 net.cpp:406] fc6-conv_re <- fc6-conv
I1018 12:22:44.921838 34854 net.cpp:380] fc6-conv_re -> fc6-conv_re
I1018 12:22:44.921872 34854 net.cpp:122] Setting up fc6-conv_re
I1018 12:22:44.921880 34854 net.cpp:129] Top shape: 50 4096 9 (1843200)
I1018 12:22:44.921883 34854 net.cpp:137] Memory required for data: 9543171800
I1018 12:22:44.921887 34854 layer_factory.hpp:77] Creating layer fc6-conv_tran
I1018 12:22:44.922009 34854 net.cpp:84] Creating Layer fc6-conv_tran
I1018 12:22:44.922020 34854 net.cpp:406] fc6-conv_tran <- fc6-conv_re
I1018 12:22:44.922027 34854 net.cpp:380] fc6-conv_tran -> fc6-conv_tran
I1018 12:22:44.926620 34854 net.cpp:122] Setting up fc6-conv_tran
I1018 12:22:44.926643 34854 net.cpp:129] Top shape: 4 50 4096 (819200)
I1018 12:22:44.926651 34854 net.cpp:137] Memory required for data: 9546448600
I1018 12:22:44.926659 34854 layer_factory.hpp:77] Creating layer lstm1
I1018 12:22:44.926674 34854 net.cpp:84] Creating Layer lstm1
I1018 12:22:44.926714 34854 net.cpp:406] lstm1 <- fc6-conv_tran
I1018 12:22:44.926728 34854 net.cpp:406] lstm1 <- clip_markers
I1018 12:22:44.926741 34854 net.cpp:380] lstm1 -> lstm1
I1018 12:22:44.926784 34854 recurrent_layer.cpp:20] Initializing recurrent layer: assuming input batch contains 4 timesteps of 50 independent streams.
I1018 12:22:44.927256 34854 net.cpp:51] Initializing net from parameters: 
layer {
  name: "lstm1_"
  type: "Input"
  top: "x"
  top: "cont"
  input_param {
    shape {
      dim: 4
      dim: 50
      dim: 4096
    }
    shape {
      dim: 4
      dim: 50
    }
  }
}
layer {
  name: "lstm1_"
  type: "Input"
  top: "c_0"
  top: "h_0"
  input_param {
    shape {
      dim: 1
      dim: 50
      dim: 512
    }
    shape {
      dim: 1
      dim: 50
      dim: 512
    }
  }
}
layer {
  name: "lstm1_cont_slice"
  type: "Slice"
  bottom: "cont"
  top: "cont_1"
  top: "cont_2"
  top: "cont_3"
  top: "cont_4"
  slice_param {
    axis: 0
  }
}
layer {
  name: "lstm1_x_transform"
  type: "InnerProduct"
  bottom: "x"
  top: "W_xc_x"
  param {
    name: "W_xc"
  }
  param {
    name: "b_c"
  }
  propagate_down: true
  inner_product_param {
    num_output: 2048
    bias_term: true
    weight_filler {
      type: "uniform"
      min: -0.01
      max: 0.01
    }
    bias_filler {
      type: "constant"
      value: 0
    }
    axis: 2
  }
}
layer {
  name: "lstm1_W_xc_x_slice"
  type: "Slice"
  bottom: "W_xc_x"
  top: "W_xc_x_1"
  top: "W_xc_x_2"
  top: "W_xc_x_3"
  top: "W_xc_x_4"
  slice_param {
    axis: 0
  }
}
layer {
  name: "lstm1_h_conted_0"
  type: "Scale"
  bottom: "h_0"
  bottom: "cont_1"
  top: "h_conted_0"
  scale_param {
    axis: 0
  }
}
layer {
  name: "lstm1_transform_1"
  type: "InnerProduct"
  bottom: "h_conted_0"
  top: "W_hc_h_0"
  param {
    name: "W_hc"
  }
  inner_product_param {
    num_output: 2048
    bias_term: false
    weight_filler {
      type: "uniform"
      min: -0.01
      max: 0.01
    }
    axis: 2
  }
}
layer {
  name: "lstm1_gate_input_1"
  type: "Eltwise"
  bottom: "W_hc_h_0"
  bottom: "W_xc_x_1"
  top: "gate_input_1"
  eltwise_param {
    operation: SUM
  }
}
layer {
  name: "lstm1_unit_1"
  type: "LSTMUnit"
  bottom: "c_0"
  bottom: "gate_input_1"
  bottom: "cont_1"
  top: "c_1"
  top: "h_1"
}
layer {
  name: "lstm1_h_conted_1"
  type: "Scale"
  bottom: "h_1"
  bottom: "cont_2"
  top: "h_conted_1"
  scale_param {
    axis: 0
  }
}
layer {
  name: "lstm1_transform_2"
  type: "InnerProduct"
  bottom: "h_conted_1"
  top: "W_hc_h_1"
  param {
    name: "W_hc"
  }
  inner_product_param {
    num_output: 2048
    bias_term: false
    weight_filler {
      type: "uniform"
      min: -0.01
      max: 0.01
    }
    axis: 2
  }
}
layer {
  name: "lstm1_gate_input_2"
  type: "Eltwise"
  bottom: "W_hc_h_1"
  bottom: "W_xc_x_2"
  top: "gate_input_2"
  eltwise_param {
    operation: SUM
  }
}
layer {
  name: "lstm1_unit_2"
  type: "LSTMUnit"
  bottom: "c_1"
  bottom: "gate_input_2"
  bottom: "cont_2"
  top: "c_2"
  top: "h_2"
}
layer {
  name: "lstm1_h_conted_2"
  type: "Scale"
  bottom: "h_2"
  bottom: "cont_3"
  top: "h_conted_2"
  scale_param {
    axis: 0
  }
}
layer {
  name: "lstm1_transform_3"
  type: "InnerProduct"
  bottom: "h_conted_2"
  top: "W_hc_h_2"
  param {
    name: "W_hc"
  }
  inner_product_param {
    num_output: 2048
    bias_term: false
    weight_filler {
      type: "uniform"
      min: -0.01
      max: 0.01
    }
    axis: 2
  }
}
layer {
  name: "lstm1_gate_input_3"
  type: "Eltwise"
  bottom: "W_hc_h_2"
  bottom: "W_xc_x_3"
  top: "gate_input_3"
  eltwise_param {
    operation: SUM
  }
}
layer {
  name: "lstm1_unit_3"
  type: "LSTMUnit"
  bottom: "c_2"
  bottom: "gate_input_3"
  bottom: "cont_3"
  top: "c_3"
  top: "h_3"
}
layer {
  name: "lstm1_h_conted_3"
  type: "Scale"
  bottom: "h_3"
  bottom: "cont_4"
  top: "h_conted_3"
  scale_param {
    axis: 0
  }
}
layer {
  name: "lstm1_transform_4"
  type: "InnerProduct"
  bottom: "h_conted_3"
  top: "W_hc_h_3"
  param {
    name: "W_hc"
  }
  inner_product_param {
    num_output: 2048
    bias_term: false
    weight_filler {
      type: "uniform"
      min: -0.01
      max: 0.01
    }
    axis: 2
  }
}
layer {
  name: "lstm1_gate_input_4"
  type: "Eltwise"
  bottom: "W_hc_h_3"
  bottom: "W_xc_x_4"
  top: "gate_input_4"
  eltwise_param {
    operation: SUM
  }
}
layer {
  name: "lstm1_unit_4"
  type: "LSTMUnit"
  bottom: "c_3"
  bottom: "gate_input_4"
  bottom: "cont_4"
  top: "c_4"
  top: "h_4"
}
layer {
  name: "lstm1_"
  type: "Split"
  bottom: "c_4"
  top: "c_T"
}
layer {
  name: "lstm1_h_concat"
  type: "Concat"
  bottom: "h_1"
  bottom: "h_2"
  bottom: "h_3"
  bottom: "h_4"
  top: "h"
  concat_param {
    axis: 0
  }
}
layer {
  name: "h_pseudoloss"
  type: "Reduction"
  bottom: "h"
  top: "h_pseudoloss"
  loss_weight: 1
}
I1018 12:22:44.927464 34854 layer_factory.hpp:77] Creating layer lstm1_
I1018 12:22:44.927479 34854 net.cpp:84] Creating Layer lstm1_
I1018 12:22:44.927485 34854 net.cpp:380] lstm1_ -> x
I1018 12:22:44.927497 34854 net.cpp:380] lstm1_ -> cont
I1018 12:22:44.931408 34854 net.cpp:122] Setting up lstm1_
I1018 12:22:44.931427 34854 net.cpp:129] Top shape: 4 50 4096 (819200)
I1018 12:22:44.931444 34854 net.cpp:129] Top shape: 4 50 (200)
I1018 12:22:44.931448 34854 net.cpp:137] Memory required for data: 3277600
I1018 12:22:44.931453 34854 layer_factory.hpp:77] Creating layer lstm1_
I1018 12:22:44.931463 34854 net.cpp:84] Creating Layer lstm1_
I1018 12:22:44.931468 34854 net.cpp:380] lstm1_ -> c_0
I1018 12:22:44.931479 34854 net.cpp:380] lstm1_ -> h_0
I1018 12:22:44.931525 34854 net.cpp:122] Setting up lstm1_
I1018 12:22:44.931532 34854 net.cpp:129] Top shape: 1 50 512 (25600)
I1018 12:22:44.931537 34854 net.cpp:129] Top shape: 1 50 512 (25600)
I1018 12:22:44.931540 34854 net.cpp:137] Memory required for data: 3482400
I1018 12:22:44.931545 34854 layer_factory.hpp:77] Creating layer lstm1_cont_slice
I1018 12:22:44.931552 34854 net.cpp:84] Creating Layer lstm1_cont_slice
I1018 12:22:44.931556 34854 net.cpp:406] lstm1_cont_slice <- cont
I1018 12:22:44.931569 34854 net.cpp:380] lstm1_cont_slice -> cont_1
I1018 12:22:44.931582 34854 net.cpp:380] lstm1_cont_slice -> cont_2
I1018 12:22:44.931594 34854 net.cpp:380] lstm1_cont_slice -> cont_3
I1018 12:22:44.931604 34854 net.cpp:380] lstm1_cont_slice -> cont_4
I1018 12:22:44.931675 34854 net.cpp:122] Setting up lstm1_cont_slice
I1018 12:22:44.931685 34854 net.cpp:129] Top shape: 1 50 (50)
I1018 12:22:44.931690 34854 net.cpp:129] Top shape: 1 50 (50)
I1018 12:22:44.931694 34854 net.cpp:129] Top shape: 1 50 (50)
I1018 12:22:44.931699 34854 net.cpp:129] Top shape: 1 50 (50)
I1018 12:22:44.931702 34854 net.cpp:137] Memory required for data: 3483200
I1018 12:22:44.931707 34854 layer_factory.hpp:77] Creating layer cont_1_lstm1_cont_slice_0_split
I1018 12:22:44.931713 34854 net.cpp:84] Creating Layer cont_1_lstm1_cont_slice_0_split
I1018 12:22:44.931717 34854 net.cpp:406] cont_1_lstm1_cont_slice_0_split <- cont_1
I1018 12:22:44.931723 34854 net.cpp:380] cont_1_lstm1_cont_slice_0_split -> cont_1_lstm1_cont_slice_0_split_0
I1018 12:22:44.931732 34854 net.cpp:380] cont_1_lstm1_cont_slice_0_split -> cont_1_lstm1_cont_slice_0_split_1
I1018 12:22:44.931767 34854 net.cpp:122] Setting up cont_1_lstm1_cont_slice_0_split
I1018 12:22:44.931774 34854 net.cpp:129] Top shape: 1 50 (50)
I1018 12:22:44.931778 34854 net.cpp:129] Top shape: 1 50 (50)
I1018 12:22:44.931782 34854 net.cpp:137] Memory required for data: 3483600
I1018 12:22:44.931787 34854 layer_factory.hpp:77] Creating layer cont_2_lstm1_cont_slice_1_split
I1018 12:22:44.931793 34854 net.cpp:84] Creating Layer cont_2_lstm1_cont_slice_1_split
I1018 12:22:44.931798 34854 net.cpp:406] cont_2_lstm1_cont_slice_1_split <- cont_2
I1018 12:22:44.931803 34854 net.cpp:380] cont_2_lstm1_cont_slice_1_split -> cont_2_lstm1_cont_slice_1_split_0
I1018 12:22:44.931809 34854 net.cpp:380] cont_2_lstm1_cont_slice_1_split -> cont_2_lstm1_cont_slice_1_split_1
I1018 12:22:44.931843 34854 net.cpp:122] Setting up cont_2_lstm1_cont_slice_1_split
I1018 12:22:44.931849 34854 net.cpp:129] Top shape: 1 50 (50)
I1018 12:22:44.931854 34854 net.cpp:129] Top shape: 1 50 (50)
I1018 12:22:44.931857 34854 net.cpp:137] Memory required for data: 3484000
I1018 12:22:44.931861 34854 layer_factory.hpp:77] Creating layer cont_3_lstm1_cont_slice_2_split
I1018 12:22:44.931865 34854 net.cpp:84] Creating Layer cont_3_lstm1_cont_slice_2_split
I1018 12:22:44.931869 34854 net.cpp:406] cont_3_lstm1_cont_slice_2_split <- cont_3
I1018 12:22:44.931876 34854 net.cpp:380] cont_3_lstm1_cont_slice_2_split -> cont_3_lstm1_cont_slice_2_split_0
I1018 12:22:44.931882 34854 net.cpp:380] cont_3_lstm1_cont_slice_2_split -> cont_3_lstm1_cont_slice_2_split_1
I1018 12:22:44.931913 34854 net.cpp:122] Setting up cont_3_lstm1_cont_slice_2_split
I1018 12:22:44.931921 34854 net.cpp:129] Top shape: 1 50 (50)
I1018 12:22:44.931926 34854 net.cpp:129] Top shape: 1 50 (50)
I1018 12:22:44.931929 34854 net.cpp:137] Memory required for data: 3484400
I1018 12:22:44.931933 34854 layer_factory.hpp:77] Creating layer cont_4_lstm1_cont_slice_3_split
I1018 12:22:44.931938 34854 net.cpp:84] Creating Layer cont_4_lstm1_cont_slice_3_split
I1018 12:22:44.931941 34854 net.cpp:406] cont_4_lstm1_cont_slice_3_split <- cont_4
I1018 12:22:44.931947 34854 net.cpp:380] cont_4_lstm1_cont_slice_3_split -> cont_4_lstm1_cont_slice_3_split_0
I1018 12:22:44.931952 34854 net.cpp:380] cont_4_lstm1_cont_slice_3_split -> cont_4_lstm1_cont_slice_3_split_1
I1018 12:22:44.931983 34854 net.cpp:122] Setting up cont_4_lstm1_cont_slice_3_split
I1018 12:22:44.931989 34854 net.cpp:129] Top shape: 1 50 (50)
I1018 12:22:44.931994 34854 net.cpp:129] Top shape: 1 50 (50)
I1018 12:22:44.931998 34854 net.cpp:137] Memory required for data: 3484800
I1018 12:22:44.932001 34854 layer_factory.hpp:77] Creating layer lstm1_x_transform
I1018 12:22:44.932010 34854 net.cpp:84] Creating Layer lstm1_x_transform
I1018 12:22:44.932014 34854 net.cpp:406] lstm1_x_transform <- x
I1018 12:22:44.932020 34854 net.cpp:380] lstm1_x_transform -> W_xc_x
I1018 12:22:45.035365 34854 net.cpp:122] Setting up lstm1_x_transform
I1018 12:22:45.035408 34854 net.cpp:129] Top shape: 4 50 2048 (409600)
I1018 12:22:45.035413 34854 net.cpp:137] Memory required for data: 5123200
I1018 12:22:45.035434 34854 layer_factory.hpp:77] Creating layer lstm1_W_xc_x_slice
I1018 12:22:45.035451 34854 net.cpp:84] Creating Layer lstm1_W_xc_x_slice
I1018 12:22:45.035457 34854 net.cpp:406] lstm1_W_xc_x_slice <- W_xc_x
I1018 12:22:45.035470 34854 net.cpp:380] lstm1_W_xc_x_slice -> W_xc_x_1
I1018 12:22:45.035483 34854 net.cpp:380] lstm1_W_xc_x_slice -> W_xc_x_2
I1018 12:22:45.035490 34854 net.cpp:380] lstm1_W_xc_x_slice -> W_xc_x_3
I1018 12:22:45.035496 34854 net.cpp:380] lstm1_W_xc_x_slice -> W_xc_x_4
I1018 12:22:45.035646 34854 net.cpp:122] Setting up lstm1_W_xc_x_slice
I1018 12:22:45.035656 34854 net.cpp:129] Top shape: 1 50 2048 (102400)
I1018 12:22:45.035661 34854 net.cpp:129] Top shape: 1 50 2048 (102400)
I1018 12:22:45.035666 34854 net.cpp:129] Top shape: 1 50 2048 (102400)
I1018 12:22:45.035670 34854 net.cpp:129] Top shape: 1 50 2048 (102400)
I1018 12:22:45.035675 34854 net.cpp:137] Memory required for data: 6761600
I1018 12:22:45.035678 34854 layer_factory.hpp:77] Creating layer lstm1_h_conted_0
I1018 12:22:45.035687 34854 net.cpp:84] Creating Layer lstm1_h_conted_0
I1018 12:22:45.035693 34854 net.cpp:406] lstm1_h_conted_0 <- h_0
I1018 12:22:45.035698 34854 net.cpp:406] lstm1_h_conted_0 <- cont_1_lstm1_cont_slice_0_split_0
I1018 12:22:45.035706 34854 net.cpp:380] lstm1_h_conted_0 -> h_conted_0
I1018 12:22:45.035784 34854 net.cpp:122] Setting up lstm1_h_conted_0
I1018 12:22:45.035791 34854 net.cpp:129] Top shape: 1 50 512 (25600)
I1018 12:22:45.035795 34854 net.cpp:137] Memory required for data: 6864000
I1018 12:22:45.035799 34854 layer_factory.hpp:77] Creating layer lstm1_transform_1
I1018 12:22:45.035811 34854 net.cpp:84] Creating Layer lstm1_transform_1
I1018 12:22:45.035816 34854 net.cpp:406] lstm1_transform_1 <- h_conted_0
I1018 12:22:45.035822 34854 net.cpp:380] lstm1_transform_1 -> W_hc_h_0
I1018 12:22:45.047678 34854 net.cpp:122] Setting up lstm1_transform_1
I1018 12:22:45.047698 34854 net.cpp:129] Top shape: 1 50 2048 (102400)
I1018 12:22:45.047706 34854 net.cpp:137] Memory required for data: 7273600
I1018 12:22:45.047720 34854 layer_factory.hpp:77] Creating layer lstm1_gate_input_1
I1018 12:22:45.047735 34854 net.cpp:84] Creating Layer lstm1_gate_input_1
I1018 12:22:45.047744 34854 net.cpp:406] lstm1_gate_input_1 <- W_hc_h_0
I1018 12:22:45.047752 34854 net.cpp:406] lstm1_gate_input_1 <- W_xc_x_1
I1018 12:22:45.047763 34854 net.cpp:380] lstm1_gate_input_1 -> gate_input_1
I1018 12:22:45.047811 34854 net.cpp:122] Setting up lstm1_gate_input_1
I1018 12:22:45.047854 34854 net.cpp:129] Top shape: 1 50 2048 (102400)
I1018 12:22:45.047883 34854 net.cpp:137] Memory required for data: 7683200
I1018 12:22:45.047909 34854 layer_factory.hpp:77] Creating layer lstm1_unit_1
I1018 12:22:45.047960 34854 net.cpp:84] Creating Layer lstm1_unit_1
I1018 12:22:45.047993 34854 net.cpp:406] lstm1_unit_1 <- c_0
I1018 12:22:45.048004 34854 net.cpp:406] lstm1_unit_1 <- gate_input_1
I1018 12:22:45.048010 34854 net.cpp:406] lstm1_unit_1 <- cont_1_lstm1_cont_slice_0_split_1
I1018 12:22:45.048017 34854 net.cpp:380] lstm1_unit_1 -> c_1
I1018 12:22:45.048025 34854 net.cpp:380] lstm1_unit_1 -> h_1
I1018 12:22:45.048091 34854 net.cpp:122] Setting up lstm1_unit_1
I1018 12:22:45.048099 34854 net.cpp:129] Top shape: 1 50 512 (25600)
I1018 12:22:45.048105 34854 net.cpp:129] Top shape: 1 50 512 (25600)
I1018 12:22:45.048108 34854 net.cpp:137] Memory required for data: 7888000
I1018 12:22:45.048112 34854 layer_factory.hpp:77] Creating layer h_1_lstm1_unit_1_1_split
I1018 12:22:45.048121 34854 net.cpp:84] Creating Layer h_1_lstm1_unit_1_1_split
I1018 12:22:45.048126 34854 net.cpp:406] h_1_lstm1_unit_1_1_split <- h_1
I1018 12:22:45.048132 34854 net.cpp:380] h_1_lstm1_unit_1_1_split -> h_1_lstm1_unit_1_1_split_0
I1018 12:22:45.048140 34854 net.cpp:380] h_1_lstm1_unit_1_1_split -> h_1_lstm1_unit_1_1_split_1
I1018 12:22:45.048174 34854 net.cpp:122] Setting up h_1_lstm1_unit_1_1_split
I1018 12:22:45.048182 34854 net.cpp:129] Top shape: 1 50 512 (25600)
I1018 12:22:45.048187 34854 net.cpp:129] Top shape: 1 50 512 (25600)
I1018 12:22:45.048189 34854 net.cpp:137] Memory required for data: 8092800
I1018 12:22:45.048194 34854 layer_factory.hpp:77] Creating layer lstm1_h_conted_1
I1018 12:22:45.048202 34854 net.cpp:84] Creating Layer lstm1_h_conted_1
I1018 12:22:45.048207 34854 net.cpp:406] lstm1_h_conted_1 <- h_1_lstm1_unit_1_1_split_0
I1018 12:22:45.048213 34854 net.cpp:406] lstm1_h_conted_1 <- cont_2_lstm1_cont_slice_1_split_0
I1018 12:22:45.048219 34854 net.cpp:380] lstm1_h_conted_1 -> h_conted_1
I1018 12:22:45.048279 34854 net.cpp:122] Setting up lstm1_h_conted_1
I1018 12:22:45.048285 34854 net.cpp:129] Top shape: 1 50 512 (25600)
I1018 12:22:45.048288 34854 net.cpp:137] Memory required for data: 8195200
I1018 12:22:45.048293 34854 layer_factory.hpp:77] Creating layer lstm1_transform_2
I1018 12:22:45.048302 34854 net.cpp:84] Creating Layer lstm1_transform_2
I1018 12:22:45.048307 34854 net.cpp:406] lstm1_transform_2 <- h_conted_1
I1018 12:22:45.048313 34854 net.cpp:380] lstm1_transform_2 -> W_hc_h_1
I1018 12:22:45.059885 34854 net.cpp:122] Setting up lstm1_transform_2
I1018 12:22:45.059916 34854 net.cpp:129] Top shape: 1 50 2048 (102400)
I1018 12:22:45.059919 34854 net.cpp:137] Memory required for data: 8604800
I1018 12:22:45.059926 34854 net.cpp:465] Sharing parameters 'W_hc' owned by layer 'lstm1_transform_1', param index 0
I1018 12:22:45.059931 34854 layer_factory.hpp:77] Creating layer lstm1_gate_input_2
I1018 12:22:45.059942 34854 net.cpp:84] Creating Layer lstm1_gate_input_2
I1018 12:22:45.059947 34854 net.cpp:406] lstm1_gate_input_2 <- W_hc_h_1
I1018 12:22:45.059953 34854 net.cpp:406] lstm1_gate_input_2 <- W_xc_x_2
I1018 12:22:45.059959 34854 net.cpp:380] lstm1_gate_input_2 -> gate_input_2
I1018 12:22:45.059990 34854 net.cpp:122] Setting up lstm1_gate_input_2
I1018 12:22:45.059998 34854 net.cpp:129] Top shape: 1 50 2048 (102400)
I1018 12:22:45.060001 34854 net.cpp:137] Memory required for data: 9014400
I1018 12:22:45.060005 34854 layer_factory.hpp:77] Creating layer lstm1_unit_2
I1018 12:22:45.060011 34854 net.cpp:84] Creating Layer lstm1_unit_2
I1018 12:22:45.060015 34854 net.cpp:406] lstm1_unit_2 <- c_1
I1018 12:22:45.060021 34854 net.cpp:406] lstm1_unit_2 <- gate_input_2
I1018 12:22:45.060034 34854 net.cpp:406] lstm1_unit_2 <- cont_2_lstm1_cont_slice_1_split_1
I1018 12:22:45.060055 34854 net.cpp:380] lstm1_unit_2 -> c_2
I1018 12:22:45.060065 34854 net.cpp:380] lstm1_unit_2 -> h_2
I1018 12:22:45.060123 34854 net.cpp:122] Setting up lstm1_unit_2
I1018 12:22:45.060130 34854 net.cpp:129] Top shape: 1 50 512 (25600)
I1018 12:22:45.060138 34854 net.cpp:129] Top shape: 1 50 512 (25600)
I1018 12:22:45.060142 34854 net.cpp:137] Memory required for data: 9219200
I1018 12:22:45.060147 34854 layer_factory.hpp:77] Creating layer h_2_lstm1_unit_2_1_split
I1018 12:22:45.060153 34854 net.cpp:84] Creating Layer h_2_lstm1_unit_2_1_split
I1018 12:22:45.060156 34854 net.cpp:406] h_2_lstm1_unit_2_1_split <- h_2
I1018 12:22:45.060163 34854 net.cpp:380] h_2_lstm1_unit_2_1_split -> h_2_lstm1_unit_2_1_split_0
I1018 12:22:45.060169 34854 net.cpp:380] h_2_lstm1_unit_2_1_split -> h_2_lstm1_unit_2_1_split_1
I1018 12:22:45.060206 34854 net.cpp:122] Setting up h_2_lstm1_unit_2_1_split
I1018 12:22:45.060214 34854 net.cpp:129] Top shape: 1 50 512 (25600)
I1018 12:22:45.060219 34854 net.cpp:129] Top shape: 1 50 512 (25600)
I1018 12:22:45.060222 34854 net.cpp:137] Memory required for data: 9424000
I1018 12:22:45.060226 34854 layer_factory.hpp:77] Creating layer lstm1_h_conted_2
I1018 12:22:45.060235 34854 net.cpp:84] Creating Layer lstm1_h_conted_2
I1018 12:22:45.060240 34854 net.cpp:406] lstm1_h_conted_2 <- h_2_lstm1_unit_2_1_split_0
I1018 12:22:45.060245 34854 net.cpp:406] lstm1_h_conted_2 <- cont_3_lstm1_cont_slice_2_split_0
I1018 12:22:45.060250 34854 net.cpp:380] lstm1_h_conted_2 -> h_conted_2
I1018 12:22:45.060312 34854 net.cpp:122] Setting up lstm1_h_conted_2
I1018 12:22:45.060319 34854 net.cpp:129] Top shape: 1 50 512 (25600)
I1018 12:22:45.060322 34854 net.cpp:137] Memory required for data: 9526400
I1018 12:22:45.060326 34854 layer_factory.hpp:77] Creating layer lstm1_transform_3
I1018 12:22:45.060336 34854 net.cpp:84] Creating Layer lstm1_transform_3
I1018 12:22:45.060341 34854 net.cpp:406] lstm1_transform_3 <- h_conted_2
I1018 12:22:45.060348 34854 net.cpp:380] lstm1_transform_3 -> W_hc_h_2
I1018 12:22:45.072262 34854 net.cpp:122] Setting up lstm1_transform_3
I1018 12:22:45.072288 34854 net.cpp:129] Top shape: 1 50 2048 (102400)
I1018 12:22:45.072293 34854 net.cpp:137] Memory required for data: 9936000
I1018 12:22:45.072300 34854 net.cpp:465] Sharing parameters 'W_hc' owned by layer 'lstm1_transform_1', param index 0
I1018 12:22:45.072306 34854 layer_factory.hpp:77] Creating layer lstm1_gate_input_3
I1018 12:22:45.072314 34854 net.cpp:84] Creating Layer lstm1_gate_input_3
I1018 12:22:45.072319 34854 net.cpp:406] lstm1_gate_input_3 <- W_hc_h_2
I1018 12:22:45.072324 34854 net.cpp:406] lstm1_gate_input_3 <- W_xc_x_3
I1018 12:22:45.072329 34854 net.cpp:380] lstm1_gate_input_3 -> gate_input_3
I1018 12:22:45.072360 34854 net.cpp:122] Setting up lstm1_gate_input_3
I1018 12:22:45.072366 34854 net.cpp:129] Top shape: 1 50 2048 (102400)
I1018 12:22:45.072371 34854 net.cpp:137] Memory required for data: 10345600
I1018 12:22:45.072374 34854 layer_factory.hpp:77] Creating layer lstm1_unit_3
I1018 12:22:45.072381 34854 net.cpp:84] Creating Layer lstm1_unit_3
I1018 12:22:45.072384 34854 net.cpp:406] lstm1_unit_3 <- c_2
I1018 12:22:45.072391 34854 net.cpp:406] lstm1_unit_3 <- gate_input_3
I1018 12:22:45.072396 34854 net.cpp:406] lstm1_unit_3 <- cont_3_lstm1_cont_slice_2_split_1
I1018 12:22:45.072401 34854 net.cpp:380] lstm1_unit_3 -> c_3
I1018 12:22:45.072407 34854 net.cpp:380] lstm1_unit_3 -> h_3
I1018 12:22:45.072453 34854 net.cpp:122] Setting up lstm1_unit_3
I1018 12:22:45.072458 34854 net.cpp:129] Top shape: 1 50 512 (25600)
I1018 12:22:45.072463 34854 net.cpp:129] Top shape: 1 50 512 (25600)
I1018 12:22:45.072468 34854 net.cpp:137] Memory required for data: 10550400
I1018 12:22:45.072471 34854 layer_factory.hpp:77] Creating layer h_3_lstm1_unit_3_1_split
I1018 12:22:45.072479 34854 net.cpp:84] Creating Layer h_3_lstm1_unit_3_1_split
I1018 12:22:45.072482 34854 net.cpp:406] h_3_lstm1_unit_3_1_split <- h_3
I1018 12:22:45.072489 34854 net.cpp:380] h_3_lstm1_unit_3_1_split -> h_3_lstm1_unit_3_1_split_0
I1018 12:22:45.072494 34854 net.cpp:380] h_3_lstm1_unit_3_1_split -> h_3_lstm1_unit_3_1_split_1
I1018 12:22:45.072540 34854 net.cpp:122] Setting up h_3_lstm1_unit_3_1_split
I1018 12:22:45.072547 34854 net.cpp:129] Top shape: 1 50 512 (25600)
I1018 12:22:45.072552 34854 net.cpp:129] Top shape: 1 50 512 (25600)
I1018 12:22:45.072556 34854 net.cpp:137] Memory required for data: 10755200
I1018 12:22:45.072559 34854 layer_factory.hpp:77] Creating layer lstm1_h_conted_3
I1018 12:22:45.072571 34854 net.cpp:84] Creating Layer lstm1_h_conted_3
I1018 12:22:45.072576 34854 net.cpp:406] lstm1_h_conted_3 <- h_3_lstm1_unit_3_1_split_0
I1018 12:22:45.072582 34854 net.cpp:406] lstm1_h_conted_3 <- cont_4_lstm1_cont_slice_3_split_0
I1018 12:22:45.072587 34854 net.cpp:380] lstm1_h_conted_3 -> h_conted_3
I1018 12:22:45.072655 34854 net.cpp:122] Setting up lstm1_h_conted_3
I1018 12:22:45.072666 34854 net.cpp:129] Top shape: 1 50 512 (25600)
I1018 12:22:45.072671 34854 net.cpp:137] Memory required for data: 10857600
I1018 12:22:45.072675 34854 layer_factory.hpp:77] Creating layer lstm1_transform_4
I1018 12:22:45.072685 34854 net.cpp:84] Creating Layer lstm1_transform_4
I1018 12:22:45.072690 34854 net.cpp:406] lstm1_transform_4 <- h_conted_3
I1018 12:22:45.072697 34854 net.cpp:380] lstm1_transform_4 -> W_hc_h_3
I1018 12:22:45.084460 34854 net.cpp:122] Setting up lstm1_transform_4
I1018 12:22:45.084478 34854 net.cpp:129] Top shape: 1 50 2048 (102400)
I1018 12:22:45.084484 34854 net.cpp:137] Memory required for data: 11267200
I1018 12:22:45.084489 34854 net.cpp:465] Sharing parameters 'W_hc' owned by layer 'lstm1_transform_1', param index 0
I1018 12:22:45.084494 34854 layer_factory.hpp:77] Creating layer lstm1_gate_input_4
I1018 12:22:45.084502 34854 net.cpp:84] Creating Layer lstm1_gate_input_4
I1018 12:22:45.084507 34854 net.cpp:406] lstm1_gate_input_4 <- W_hc_h_3
I1018 12:22:45.084513 34854 net.cpp:406] lstm1_gate_input_4 <- W_xc_x_4
I1018 12:22:45.084519 34854 net.cpp:380] lstm1_gate_input_4 -> gate_input_4
I1018 12:22:45.084548 34854 net.cpp:122] Setting up lstm1_gate_input_4
I1018 12:22:45.084555 34854 net.cpp:129] Top shape: 1 50 2048 (102400)
I1018 12:22:45.084559 34854 net.cpp:137] Memory required for data: 11676800
I1018 12:22:45.084563 34854 layer_factory.hpp:77] Creating layer lstm1_unit_4
I1018 12:22:45.084573 34854 net.cpp:84] Creating Layer lstm1_unit_4
I1018 12:22:45.084576 34854 net.cpp:406] lstm1_unit_4 <- c_3
I1018 12:22:45.084583 34854 net.cpp:406] lstm1_unit_4 <- gate_input_4
I1018 12:22:45.084588 34854 net.cpp:406] lstm1_unit_4 <- cont_4_lstm1_cont_slice_3_split_1
I1018 12:22:45.084592 34854 net.cpp:380] lstm1_unit_4 -> c_4
I1018 12:22:45.084600 34854 net.cpp:380] lstm1_unit_4 -> h_4
I1018 12:22:45.084647 34854 net.cpp:122] Setting up lstm1_unit_4
I1018 12:22:45.084655 34854 net.cpp:129] Top shape: 1 50 512 (25600)
I1018 12:22:45.084659 34854 net.cpp:129] Top shape: 1 50 512 (25600)
I1018 12:22:45.084663 34854 net.cpp:137] Memory required for data: 11881600
I1018 12:22:45.084667 34854 layer_factory.hpp:77] Creating layer lstm1_
I1018 12:22:45.084673 34854 net.cpp:84] Creating Layer lstm1_
I1018 12:22:45.084677 34854 net.cpp:406] lstm1_ <- c_4
I1018 12:22:45.084684 34854 net.cpp:380] lstm1_ -> c_T
I1018 12:22:45.084707 34854 net.cpp:122] Setting up lstm1_
I1018 12:22:45.084712 34854 net.cpp:129] Top shape: 1 50 512 (25600)
I1018 12:22:45.084717 34854 net.cpp:137] Memory required for data: 11984000
I1018 12:22:45.084720 34854 layer_factory.hpp:77] Creating layer lstm1_h_concat
I1018 12:22:45.084728 34854 net.cpp:84] Creating Layer lstm1_h_concat
I1018 12:22:45.084733 34854 net.cpp:406] lstm1_h_concat <- h_1_lstm1_unit_1_1_split_1
I1018 12:22:45.084738 34854 net.cpp:406] lstm1_h_concat <- h_2_lstm1_unit_2_1_split_1
I1018 12:22:45.084743 34854 net.cpp:406] lstm1_h_concat <- h_3_lstm1_unit_3_1_split_1
I1018 12:22:45.084748 34854 net.cpp:406] lstm1_h_concat <- h_4
I1018 12:22:45.084753 34854 net.cpp:380] lstm1_h_concat -> h
I1018 12:22:45.084779 34854 net.cpp:122] Setting up lstm1_h_concat
I1018 12:22:45.084784 34854 net.cpp:129] Top shape: 4 50 512 (102400)
I1018 12:22:45.084789 34854 net.cpp:137] Memory required for data: 12393600
I1018 12:22:45.084792 34854 layer_factory.hpp:77] Creating layer h_pseudoloss
I1018 12:22:45.084800 34854 net.cpp:84] Creating Layer h_pseudoloss
I1018 12:22:45.084805 34854 net.cpp:406] h_pseudoloss <- h
I1018 12:22:45.084810 34854 net.cpp:380] h_pseudoloss -> h_pseudoloss
I1018 12:22:45.085706 34854 net.cpp:122] Setting up h_pseudoloss
…
I1018 12:22:45.085891 34854 net.cpp:200] lstm1_ does not need backward computation.
I1018 12:22:45.085896 34854 net.cpp:242] This network produces output c_T
I1018 12:22:45.085899 34854 net.cpp:242] This network produces output h_pseudoloss
I1018 12:22:45.088979 34854 net.cpp:255] Network initialization done.
I1018 12:22:45.089068 34854 recurrent_layer.cpp:150] Adding parameter 0: W_xc
I1018 12:22:45.089082 34854 recurrent_layer.cpp:150] Adding parameter 1: b_c
I1018 12:22:45.089087 34854 recurrent_layer.cpp:150] Adding parameter 2: W_hc
I1018 12:22:45.089280 34854 net.cpp:122] Setting up lstm1
I1018 12:22:45.089294 34854 net.cpp:129] Top shape: 4 50 512 (102400)
I1018 12:22:45.089299 34854 net.cpp:137] Memory required for data: 9546858200
I1018 12:22:45.089309 34854 layer_factory.hpp:77] Creating layer lstm1-drop
I1018 12:22:45.089318 34854 net.cpp:84] Creating Layer lstm1-drop
I1018 12:22:45.089323 34854 net.cpp:406] lstm1-drop <- lstm1
I1018 12:22:45.089330 34854 net.cpp:380] lstm1-drop -> lstm1-drop
I1018 12:22:45.089372 34854 net.cpp:122] Setting up lstm1-drop
I1018 12:22:45.089387 34854 net.cpp:129] Top shape: 4 50 512 (102400)
I1018 12:22:45.089392 34854 net.cpp:137] Memory required for data: 9547267800
I1018 12:22:45.089396 34854 layer_factory.hpp:77] Creating layer fc-final
I1018 12:22:45.089406 34854 net.cpp:84] Creating Layer fc-final
I1018 12:22:45.089409 34854 net.cpp:406] fc-final <- lstm1-drop
I1018 12:22:45.089416 34854 net.cpp:380] fc-final -> fc-final
I1018 12:22:45.089714 34854 net.cpp:122] Setting up fc-final
I1018 12:22:45.089725 34854 net.cpp:129] Top shape: 4 50 10 (2000)
I1018 12:22:45.089730 34854 net.cpp:137] Memory required for data: 9547275800
I1018 12:22:45.089743 34854 layer_factory.hpp:77] Creating layer fc-final_fc-final_0_split
I1018 12:22:45.089751 34854 net.cpp:84] Creating Layer fc-final_fc-final_0_split
I1018 12:22:45.089754 34854 net.cpp:406] fc-final_fc-final_0_split <- fc-final
I1018 12:22:45.089761 34854 net.cpp:380] fc-final_fc-final_0_split -> fc-final_fc-final_0_split_0
I1018 12:22:45.089772 34854 net.cpp:380] fc-final_fc-final_0_split -> fc-final_fc-final_0_split_1
I1018 12:22:45.089813 34854 net.cpp:122] Setting up fc-final_fc-final_0_split
I1018 12:22:45.089820 34854 net.cpp:129] Top shape: 4 50 10 (2000)
I1018 12:22:45.089825 34854 net.cpp:129] Top shape: 4 50 10 (2000)
I1018 12:22:45.089829 34854 net.cpp:137] Memory required for data: 9547291800
I1018 12:22:45.089833 34854 layer_factory.hpp:77] Creating layer loss
I1018 12:22:45.089840 34854 net.cpp:84] Creating Layer loss
I1018 12:22:45.089845 34854 net.cpp:406] loss <- fc-final_fc-final_0_split_0
I1018 12:22:45.089851 34854 net.cpp:406] loss <- reshape-label_label_tran_0_split_0
I1018 12:22:45.089857 34854 net.cpp:380] loss -> loss
…
