…
I1018 00:14:27.586400 30443 net.cpp:294] The NetState phase (0) differed from the phase (1) specified by a rule in layer Silence
I1018 00:14:27.586607 30443 net.cpp:51] Initializing net from parameters: 
name: "VGG_16_layers_LSTM"
state {
  phase: TRAIN
  level: 0
  stage: ""
}
layer {
  name: "data"
  type: "ImageData"
  top: "data"
  top: "label"
  include {
    phase: TRAIN
  }
  transform_param {
    mirror: true
    crop_size: 288
    mean_value: 104
    mean_value: 117
    mean_value: 123
  }
  image_data_param {
    source: "../Data/lsun_train_list_12w.txt"
    batch_size: 4
    shuffle: true
    new_height: 320
    new_width: 320
  }
}
layer {
  name: "label_tran"
  type: "Python"
  bottom: "label"
  top: "reshape-label"
  top: "clip_markers"
  python_param {
    module: "data_preparation_sort_max_clip"
    layer: "ReshapeLabel"
  }
}
layer {
  name: "conv1_1"
  type: "Convolution"
  bottom: "data"
  top: "conv1_1"
  convolution_param {
    num_output: 64
    pad: 1
    kernel_size: 3
  }
}
layer {
  name: "relu1_1"
  type: "ReLU"
  bottom: "conv1_1"
  top: "conv1_1"
}
layer {
  name: "conv1_2"
  type: "Convolution"
  bottom: "conv1_1"
  top: "conv1_2"
  convolution_param {
    num_output: 64
    pad: 1
    kernel_size: 3
  }
}
layer {
  name: "relu1_2"
  type: "ReLU"
  bottom: "conv1_2"
  top: "conv1_2"
}
layer {
  name: "pool1"
  type: "Pooling"
  bottom: "conv1_2"
  top: "pool1"
  pooling_param {
    pool: MAX
    kernel_size: 2
    stride: 2
  }
}
layer {
  name: "conv2_1"
  type: "Convolution"
  bottom: "pool1"
  top: "conv2_1"
  convolution_param {
    num_output: 128
    pad: 1
    kernel_size: 3
  }
}
layer {
  name: "relu2_1"
  type: "ReLU"
  bottom: "conv2_1"
  top: "conv2_1"
}
layer {
  name: "conv2_2"
  type: "Convolution"
  bottom: "conv2_1"
  top: "conv2_2"
  convolution_param {
    num_output: 128
    pad: 1
    kernel_size: 3
  }
}
layer {
  name: "relu2_2"
  type: "ReLU"
  bottom: "conv2_2"
  top: "conv2_2"
}
layer {
  name: "pool2"
  type: "Pooling"
  bottom: "conv2_2"
  top: "pool2"
  pooling_param {
    pool: MAX
    kernel_size: 2
    stride: 2
  }
}
layer {
  name: "conv3_1"
  type: "Convolution"
  bottom: "pool2"
  top: "conv3_1"
  convolution_param {
    num_output: 256
    pad: 1
    kernel_size: 3
  }
}
layer {
  name: "relu3_1"
  type: "ReLU"
  bottom: "conv3_1"
  top: "conv3_1"
}
layer {
  name: "conv3_2"
  type: "Convolution"
  bottom: "conv3_1"
  top: "conv3_2"
  convolution_param {
    num_output: 256
    pad: 1
    kernel_size: 3
  }
}
layer {
  name: "relu3_2"
  type: "ReLU"
  bottom: "conv3_2"
  top: "conv3_2"
}
layer {
  name: "conv3_3"
  type: "Convolution"
  bottom: "conv3_2"
  top: "conv3_3"
  convolution_param {
    num_output: 256
    pad: 1
    kernel_size: 3
  }
}
layer {
  name: "relu3_3"
  type: "ReLU"
  bottom: "conv3_3"
  top: "conv3_3"
}
layer {
  name: "pool3"
  type: "Pooling"
  bottom: "conv3_3"
  top: "pool3"
  pooling_param {
    pool: MAX
    kernel_size: 2
    stride: 2
  }
}
layer {
  name: "conv4_1"
  type: "Convolution"
  bottom: "pool3"
  top: "conv4_1"
  convolution_param {
    num_output: 512
    pad: 1
    kernel_size: 3
  }
}
layer {
  name: "relu4_1"
  type: "ReLU"
  bottom: "conv4_1"
  top: "conv4_1"
}
layer {
  name: "conv4_2"
  type: "Convolution"
  bottom: "conv4_1"
  top: "conv4_2"
  convolution_param {
    num_output: 512
    pad: 1
    kernel_size: 3
  }
}
layer {
  name: "relu4_2"
  type: "ReLU"
  bottom: "conv4_2"
  top: "conv4_2"
}
layer {
  name: "conv4_3"
  type: "Convolution"
  bottom: "conv4_2"
  top: "conv4_3"
  convolution_param {
    num_output: 512
    pad: 1
    kernel_size: 3
  }
}
layer {
  name: "relu4_3"
  type: "ReLU"
  bottom: "conv4_3"
  top: "conv4_3"
}
layer {
  name: "pool4"
  type: "Pooling"
  bottom: "conv4_3"
  top: "pool4"
  pooling_param {
    pool: MAX
    kernel_size: 2
    stride: 2
  }
}
layer {
  name: "conv5_1"
  type: "Convolution"
  bottom: "pool4"
  top: "conv5_1"
  convolution_param {
    num_output: 512
    pad: 1
    kernel_size: 3
  }
}
layer {
  name: "relu5_1"
  type: "ReLU"
  bottom: "conv5_1"
  top: "conv5_1"
}
layer {
  name: "conv5_2"
  type: "Convolution"
  bottom: "conv5_1"
  top: "conv5_2"
  convolution_param {
    num_output: 512
    pad: 1
    kernel_size: 3
  }
}
layer {
  name: "relu5_2"
  type: "ReLU"
  bottom: "conv5_2"
  top: "conv5_2"
}
layer {
  name: "conv5_3"
  type: "Convolution"
  bottom: "conv5_2"
  top: "conv5_3"
  convolution_param {
    num_output: 512
    pad: 1
    kernel_size: 3
  }
}
layer {
  name: "relu5_3"
  type: "ReLU"
  bottom: "conv5_3"
  top: "conv5_3"
}
layer {
  name: "pool5"
  type: "Pooling"
  bottom: "conv5_3"
  top: "pool5"
  pooling_param {
    pool: MAX
    kernel_size: 2
    stride: 2
  }
}
layer {
  name: "fc6-conv"
  type: "Convolution"
  bottom: "pool5"
  top: "fc6-conv"
  convolution_param {
    num_output: 4096
    kernel_size: 7
  }
}
layer {
  name: "relu6"
  type: "ReLU"
  bottom: "fc6-conv"
  top: "fc6-conv"
}
layer {
  name: "drop6"
  type: "Dropout"
  bottom: "fc6-conv"
  top: "fc6-conv"
  dropout_param {
    dropout_ratio: 0.5
  }
}
layer {
  name: "fc7-conv"
  type: "Convolution"
  bottom: "fc6-conv"
  top: "fc7-conv"
  convolution_param {
    num_output: 4096
    kernel_size: 1
  }
}
layer {
  name: "relu7"
  type: "ReLU"
  bottom: "fc7-conv"
  top: "fc7-conv"
}
layer {
  name: "drop7"
  type: "Dropout"
  bottom: "fc7-conv"
  top: "fc7-conv"
  dropout_param {
    dropout_ratio: 0.9
  }
}
layer {
  name: "fc7-conv_re"
  type: "Reshape"
  bottom: "fc7-conv"
  top: "fc7-conv_re"
  reshape_param {
    shape {
      dim: 0
      dim: 0
      dim: -1
    }
  }
}
layer {
  name: "fc7-conv_tran"
  type: "Python"
  bottom: "fc7-conv_re"
  top: "fc7-conv_tran"
  python_param {
    module: "data_preparation_sort_max_clip"
    layer: "DataTransposeSortMaxClip"
  }
}
layer {
  name: "lstm1"
  type: "LSTM"
  bottom: "fc7-conv_tran"
  bottom: "clip_markers"
  top: "lstm1"
  recurrent_param {
    num_output: 512
    weight_filler {
      type: "uniform"
      min: -0.01
      max: 0.01
    }
    bias_filler {
      type: "constant"
      value: 0
    }
  }
}
layer {
  name: "lstm1-drop"
  type: "Dropout"
  bottom: "lstm1"
  top: "lstm1-drop"
  dropout_param {
    dropout_ratio: 0.5
  }
}
layer {
  name: "fc-final"
  type: "InnerProduct"
  bottom: "lstm1-drop"
  top: "fc-final"
  param {
    lr_mult: 1
    decay_mult: 1
  }
  param {
    lr_mult: 2
    decay_mult: 0
  }
  inner_product_param {
    num_output: 10
    weight_filler {
      type: "gaussian"
      std: 0.01
    }
    bias_filler {
      type: "constant"
      value: 0
    }
    axis: 2
  }
}
layer {
  name: "loss"
  type: "SoftmaxWithLoss"
  bottom: "fc-final"
  bottom: "reshape-label"
  top: "loss"
  softmax_param {
    axis: 2
  }
}
layer {
  name: "accuracy"
  type: "Accuracy"
  bottom: "fc-final"
  bottom: "reshape-label"
  top: "accuracy"
  accuracy_param {
    axis: 2
  }
}
I1018 00:14:27.586833 30443 layer_factory.hpp:77] Creating layer data
I1018 00:14:27.586881 30443 net.cpp:84] Creating Layer data
I1018 00:14:27.586892 30443 net.cpp:380] data -> data
I1018 00:14:27.586930 30443 net.cpp:380] data -> label
I1018 00:14:27.586963 30443 image_data_layer.cpp:38] Opening file ../Data/lsun_train_list_12w.txt
I1018 00:14:28.235260 30443 image_data_layer.cpp:53] Shuffling data
I1018 00:14:28.575086 30443 image_data_layer.cpp:63] A total of 1200000 images.
I1018 00:14:28.587915 30443 image_data_layer.cpp:90] output data size: 4,3,288,288
I1018 00:14:28.602687 30443 net.cpp:122] Setting up data
I1018 00:14:28.603049 30443 net.cpp:129] Top shape: 4 3 288 288 (995328)
I1018 00:14:28.603098 30443 net.cpp:129] Top shape: 4 (4)
I1018 00:14:28.603116 30443 net.cpp:137] Memory required for data: 3981328
I1018 00:14:28.603199 30443 layer_factory.hpp:77] Creating layer label_tran
I1018 00:14:29.326861 30443 net.cpp:84] Creating Layer label_tran
I1018 00:14:29.326900 30443 net.cpp:406] label_tran <- label
I1018 00:14:29.326926 30443 net.cpp:380] label_tran -> reshape-label
I1018 00:14:29.326941 30443 net.cpp:380] label_tran -> clip_markers
I1018 00:14:29.327258 30443 net.cpp:122] Setting up label_tran
I1018 00:14:29.327276 30443 net.cpp:129] Top shape: 8 4 (32)
I1018 00:14:29.327283 30443 net.cpp:129] Top shape: 8 4 (32)
I1018 00:14:29.327287 30443 net.cpp:137] Memory required for data: 3981584
I1018 00:14:29.327296 30443 layer_factory.hpp:77] Creating layer reshape-label_label_tran_0_split
I1018 00:14:29.327314 30443 net.cpp:84] Creating Layer reshape-label_label_tran_0_split
I1018 00:14:29.327322 30443 net.cpp:406] reshape-label_label_tran_0_split <- reshape-label
I1018 00:14:29.327330 30443 net.cpp:380] reshape-label_label_tran_0_split -> reshape-label_label_tran_0_split_0
I1018 00:14:29.327340 30443 net.cpp:380] reshape-label_label_tran_0_split -> reshape-label_label_tran_0_split_1
I1018 00:14:29.327389 30443 net.cpp:122] Setting up reshape-label_label_tran_0_split
I1018 00:14:29.327400 30443 net.cpp:129] Top shape: 8 4 (32)
I1018 00:14:29.327406 30443 net.cpp:129] Top shape: 8 4 (32)
I1018 00:14:29.327410 30443 net.cpp:137] Memory required for data: 3981840
I1018 00:14:29.327414 30443 layer_factory.hpp:77] Creating layer conv1_1
I1018 00:14:29.327435 30443 net.cpp:84] Creating Layer conv1_1
I1018 00:14:29.327440 30443 net.cpp:406] conv1_1 <- data
I1018 00:14:29.327448 30443 net.cpp:380] conv1_1 -> conv1_1
I1018 00:14:29.329507 30443 net.cpp:122] Setting up conv1_1
I1018 00:14:29.329527 30443 net.cpp:129] Top shape: 4 64 288 288 (21233664)
I1018 00:14:29.329533 30443 net.cpp:137] Memory required for data: 88916496
I1018 00:14:29.329560 30443 layer_factory.hpp:77] Creating layer relu1_1
I1018 00:14:29.329569 30443 net.cpp:84] Creating Layer relu1_1
I1018 00:14:29.329574 30443 net.cpp:406] relu1_1 <- conv1_1
I1018 00:14:29.329591 30443 net.cpp:367] relu1_1 -> conv1_1 (in-place)
I1018 00:14:29.329617 30443 net.cpp:122] Setting up relu1_1
I1018 00:14:29.329623 30443 net.cpp:129] Top shape: 4 64 288 288 (21233664)
I1018 00:14:29.329627 30443 net.cpp:137] Memory required for data: 173851152
I1018 00:14:29.329632 30443 layer_factory.hpp:77] Creating layer conv1_2
I1018 00:14:29.329646 30443 net.cpp:84] Creating Layer conv1_2
I1018 00:14:29.329651 30443 net.cpp:406] conv1_2 <- conv1_1
I1018 00:14:29.329658 30443 net.cpp:380] conv1_2 -> conv1_2
I1018 00:14:29.330716 30443 net.cpp:122] Setting up conv1_2
I1018 00:14:29.330734 30443 net.cpp:129] Top shape: 4 64 288 288 (21233664)
I1018 00:14:29.330739 30443 net.cpp:137] Memory required for data: 258785808
I1018 00:14:29.330756 30443 layer_factory.hpp:77] Creating layer relu1_2
I1018 00:14:29.330767 30443 net.cpp:84] Creating Layer relu1_2
I1018 00:14:29.330772 30443 net.cpp:406] relu1_2 <- conv1_2
I1018 00:14:29.330780 30443 net.cpp:367] relu1_2 -> conv1_2 (in-place)
I1018 00:14:29.330787 30443 net.cpp:122] Setting up relu1_2
I1018 00:14:29.330793 30443 net.cpp:129] Top shape: 4 64 288 288 (21233664)
I1018 00:14:29.330797 30443 net.cpp:137] Memory required for data: 343720464
I1018 00:14:29.330801 30443 layer_factory.hpp:77] Creating layer pool1
I1018 00:14:29.330812 30443 net.cpp:84] Creating Layer pool1
I1018 00:14:29.330817 30443 net.cpp:406] pool1 <- conv1_2
I1018 00:14:29.330822 30443 net.cpp:380] pool1 -> pool1
I1018 00:14:29.330878 30443 net.cpp:122] Setting up pool1
I1018 00:14:29.330888 30443 net.cpp:129] Top shape: 4 64 144 144 (5308416)
I1018 00:14:29.330893 30443 net.cpp:137] Memory required for data: 364954128
I1018 00:14:29.330898 30443 layer_factory.hpp:77] Creating layer conv2_1
I1018 00:14:29.330906 30443 net.cpp:84] Creating Layer conv2_1
I1018 00:14:29.330911 30443 net.cpp:406] conv2_1 <- pool1
I1018 00:14:29.330919 30443 net.cpp:380] conv2_1 -> conv2_1
I1018 00:14:29.331168 30443 net.cpp:122] Setting up conv2_1
I1018 00:14:29.331181 30443 net.cpp:129] Top shape: 4 128 144 144 (10616832)
I1018 00:14:29.331185 30443 net.cpp:137] Memory required for data: 407421456
I1018 00:14:29.331202 30443 layer_factory.hpp:77] Creating layer relu2_1
I1018 00:14:29.331217 30443 net.cpp:84] Creating Layer relu2_1
I1018 00:14:29.331221 30443 net.cpp:406] relu2_1 <- conv2_1
I1018 00:14:29.331228 30443 net.cpp:367] relu2_1 -> conv2_1 (in-place)
I1018 00:14:29.331235 30443 net.cpp:122] Setting up relu2_1
I1018 00:14:29.331241 30443 net.cpp:129] Top shape: 4 128 144 144 (10616832)
I1018 00:14:29.331245 30443 net.cpp:137] Memory required for data: 449888784
I1018 00:14:29.331249 30443 layer_factory.hpp:77] Creating layer conv2_2
I1018 00:14:29.331256 30443 net.cpp:84] Creating Layer conv2_2
I1018 00:14:29.331260 30443 net.cpp:406] conv2_2 <- conv2_1
I1018 00:14:29.331266 30443 net.cpp:380] conv2_2 -> conv2_2
I1018 00:14:29.332469 30443 net.cpp:122] Setting up conv2_2
I1018 00:14:29.332486 30443 net.cpp:129] Top shape: 4 128 144 144 (10616832)
I1018 00:14:29.332491 30443 net.cpp:137] Memory required for data: 492356112
I1018 00:14:29.332499 30443 layer_factory.hpp:77] Creating layer relu2_2
I1018 00:14:29.332507 30443 net.cpp:84] Creating Layer relu2_2
I1018 00:14:29.332512 30443 net.cpp:406] relu2_2 <- conv2_2
I1018 00:14:29.332520 30443 net.cpp:367] relu2_2 -> conv2_2 (in-place)
I1018 00:14:29.332527 30443 net.cpp:122] Setting up relu2_2
I1018 00:14:29.332533 30443 net.cpp:129] Top shape: 4 128 144 144 (10616832)
I1018 00:14:29.332537 30443 net.cpp:137] Memory required for data: 534823440
I1018 00:14:29.332541 30443 layer_factory.hpp:77] Creating layer pool2
I1018 00:14:29.332557 30443 net.cpp:84] Creating Layer pool2
I1018 00:14:29.332566 30443 net.cpp:406] pool2 <- conv2_2
I1018 00:14:29.332572 30443 net.cpp:380] pool2 -> pool2
I1018 00:14:29.332613 30443 net.cpp:122] Setting up pool2
I1018 00:14:29.332623 30443 net.cpp:129] Top shape: 4 128 72 72 (2654208)
I1018 00:14:29.332628 30443 net.cpp:137] Memory required for data: 545440272
I1018 00:14:29.332631 30443 layer_factory.hpp:77] Creating layer conv3_1
I1018 00:14:29.332640 30443 net.cpp:84] Creating Layer conv3_1
I1018 00:14:29.332645 30443 net.cpp:406] conv3_1 <- pool2
I1018 00:14:29.332653 30443 net.cpp:380] conv3_1 -> conv3_1
I1018 00:14:29.334547 30443 net.cpp:122] Setting up conv3_1
I1018 00:14:29.334563 30443 net.cpp:129] Top shape: 4 256 72 72 (5308416)
I1018 00:14:29.334568 30443 net.cpp:137] Memory required for data: 566673936
I1018 00:14:29.334580 30443 layer_factory.hpp:77] Creating layer relu3_1
I1018 00:14:29.334595 30443 net.cpp:84] Creating Layer relu3_1
I1018 00:14:29.334600 30443 net.cpp:406] relu3_1 <- conv3_1
I1018 00:14:29.334607 30443 net.cpp:367] relu3_1 -> conv3_1 (in-place)
I1018 00:14:29.334616 30443 net.cpp:122] Setting up relu3_1
I1018 00:14:29.334622 30443 net.cpp:129] Top shape: 4 256 72 72 (5308416)
I1018 00:14:29.334626 30443 net.cpp:137] Memory required for data: 587907600
I1018 00:14:29.334630 30443 layer_factory.hpp:77] Creating layer conv3_2
I1018 00:14:29.334637 30443 net.cpp:84] Creating Layer conv3_2
I1018 00:14:29.334641 30443 net.cpp:406] conv3_2 <- conv3_1
I1018 00:14:29.334647 30443 net.cpp:380] conv3_2 -> conv3_2
I1018 00:14:29.336489 30443 net.cpp:122] Setting up conv3_2
I1018 00:14:29.336506 30443 net.cpp:129] Top shape: 4 256 72 72 (5308416)
I1018 00:14:29.336510 30443 net.cpp:137] Memory required for data: 609141264
I1018 00:14:29.336519 30443 layer_factory.hpp:77] Creating layer relu3_2
I1018 00:14:29.336539 30443 net.cpp:84] Creating Layer relu3_2
I1018 00:14:29.336544 30443 net.cpp:406] relu3_2 <- conv3_2
I1018 00:14:29.336550 30443 net.cpp:367] relu3_2 -> conv3_2 (in-place)
I1018 00:14:29.336558 30443 net.cpp:122] Setting up relu3_2
I1018 00:14:29.336565 30443 net.cpp:129] Top shape: 4 256 72 72 (5308416)
I1018 00:14:29.336568 30443 net.cpp:137] Memory required for data: 630374928
I1018 00:14:29.336572 30443 layer_factory.hpp:77] Creating layer conv3_3
I1018 00:14:29.336582 30443 net.cpp:84] Creating Layer conv3_3
I1018 00:14:29.336586 30443 net.cpp:406] conv3_3 <- conv3_2
I1018 00:14:29.336592 30443 net.cpp:380] conv3_3 -> conv3_3
I1018 00:14:29.338415 30443 net.cpp:122] Setting up conv3_3
I1018 00:14:29.338433 30443 net.cpp:129] Top shape: 4 256 72 72 (5308416)
I1018 00:14:29.338438 30443 net.cpp:137] Memory required for data: 651608592
I1018 00:14:29.338445 30443 layer_factory.hpp:77] Creating layer relu3_3
I1018 00:14:29.338452 30443 net.cpp:84] Creating Layer relu3_3
I1018 00:14:29.338457 30443 net.cpp:406] relu3_3 <- conv3_3
I1018 00:14:29.338464 30443 net.cpp:367] relu3_3 -> conv3_3 (in-place)
I1018 00:14:29.338471 30443 net.cpp:122] Setting up relu3_3
I1018 00:14:29.338476 30443 net.cpp:129] Top shape: 4 256 72 72 (5308416)
I1018 00:14:29.338480 30443 net.cpp:137] Memory required for data: 672842256
I1018 00:14:29.338491 30443 layer_factory.hpp:77] Creating layer pool3
I1018 00:14:29.338505 30443 net.cpp:84] Creating Layer pool3
I1018 00:14:29.338511 30443 net.cpp:406] pool3 <- conv3_3
I1018 00:14:29.338518 30443 net.cpp:380] pool3 -> pool3
I1018 00:14:29.338557 30443 net.cpp:122] Setting up pool3
I1018 00:14:29.338567 30443 net.cpp:129] Top shape: 4 256 36 36 (1327104)
I1018 00:14:29.338570 30443 net.cpp:137] Memory required for data: 678150672
I1018 00:14:29.338574 30443 layer_factory.hpp:77] Creating layer conv4_1
I1018 00:14:29.338587 30443 net.cpp:84] Creating Layer conv4_1
I1018 00:14:29.338593 30443 net.cpp:406] conv4_1 <- pool3
I1018 00:14:29.338601 30443 net.cpp:380] conv4_1 -> conv4_1
I1018 00:14:29.342566 30443 net.cpp:122] Setting up conv4_1
I1018 00:14:29.342593 30443 net.cpp:129] Top shape: 4 512 36 36 (2654208)
I1018 00:14:29.342598 30443 net.cpp:137] Memory required for data: 688767504
I1018 00:14:29.342607 30443 layer_factory.hpp:77] Creating layer relu4_1
I1018 00:14:29.342617 30443 net.cpp:84] Creating Layer relu4_1
I1018 00:14:29.342623 30443 net.cpp:406] relu4_1 <- conv4_1
I1018 00:14:29.342633 30443 net.cpp:367] relu4_1 -> conv4_1 (in-place)
I1018 00:14:29.342641 30443 net.cpp:122] Setting up relu4_1
I1018 00:14:29.342648 30443 net.cpp:129] Top shape: 4 512 36 36 (2654208)
I1018 00:14:29.342651 30443 net.cpp:137] Memory required for data: 699384336
I1018 00:14:29.342656 30443 layer_factory.hpp:77] Creating layer conv4_2
I1018 00:14:29.342665 30443 net.cpp:84] Creating Layer conv4_2
I1018 00:14:29.342669 30443 net.cpp:406] conv4_2 <- conv4_1
I1018 00:14:29.342676 30443 net.cpp:380] conv4_2 -> conv4_2
I1018 00:14:29.349128 30443 net.cpp:122] Setting up conv4_2
I1018 00:14:29.349166 30443 net.cpp:129] Top shape: 4 512 36 36 (2654208)
I1018 00:14:29.349171 30443 net.cpp:137] Memory required for data: 710001168
I1018 00:14:29.349200 30443 layer_factory.hpp:77] Creating layer relu4_2
I1018 00:14:29.349221 30443 net.cpp:84] Creating Layer relu4_2
I1018 00:14:29.349227 30443 net.cpp:406] relu4_2 <- conv4_2
I1018 00:14:29.349238 30443 net.cpp:367] relu4_2 -> conv4_2 (in-place)
I1018 00:14:29.349251 30443 net.cpp:122] Setting up relu4_2
I1018 00:14:29.349257 30443 net.cpp:129] Top shape: 4 512 36 36 (2654208)
I1018 00:14:29.349262 30443 net.cpp:137] Memory required for data: 720618000
I1018 00:14:29.349267 30443 layer_factory.hpp:77] Creating layer conv4_3
I1018 00:14:29.349277 30443 net.cpp:84] Creating Layer conv4_3
I1018 00:14:29.349282 30443 net.cpp:406] conv4_3 <- conv4_2
I1018 00:14:29.349288 30443 net.cpp:380] conv4_3 -> conv4_3
I1018 00:14:29.355155 30443 net.cpp:122] Setting up conv4_3
I1018 00:14:29.355181 30443 net.cpp:129] Top shape: 4 512 36 36 (2654208)
I1018 00:14:29.355186 30443 net.cpp:137] Memory required for data: 731234832
I1018 00:14:29.355195 30443 layer_factory.hpp:77] Creating layer relu4_3
I1018 00:14:29.355204 30443 net.cpp:84] Creating Layer relu4_3
I1018 00:14:29.355211 30443 net.cpp:406] relu4_3 <- conv4_3
I1018 00:14:29.355217 30443 net.cpp:367] relu4_3 -> conv4_3 (in-place)
I1018 00:14:29.355228 30443 net.cpp:122] Setting up relu4_3
I1018 00:14:29.355233 30443 net.cpp:129] Top shape: 4 512 36 36 (2654208)
I1018 00:14:29.355238 30443 net.cpp:137] Memory required for data: 741851664
I1018 00:14:29.355242 30443 layer_factory.hpp:77] Creating layer pool4
I1018 00:14:29.355249 30443 net.cpp:84] Creating Layer pool4
I1018 00:14:29.355253 30443 net.cpp:406] pool4 <- conv4_3
I1018 00:14:29.355262 30443 net.cpp:380] pool4 -> pool4
I1018 00:14:29.355305 30443 net.cpp:122] Setting up pool4
I1018 00:14:29.355315 30443 net.cpp:129] Top shape: 4 512 18 18 (663552)
I1018 00:14:29.355319 30443 net.cpp:137] Memory required for data: 744505872
I1018 00:14:29.355324 30443 layer_factory.hpp:77] Creating layer conv5_1
I1018 00:14:29.355363 30443 net.cpp:84] Creating Layer conv5_1
I1018 00:14:29.355372 30443 net.cpp:406] conv5_1 <- pool4
I1018 00:14:29.355381 30443 net.cpp:380] conv5_1 -> conv5_1
I1018 00:14:29.361512 30443 net.cpp:122] Setting up conv5_1
I1018 00:14:29.361539 30443 net.cpp:129] Top shape: 4 512 18 18 (663552)
I1018 00:14:29.361543 30443 net.cpp:137] Memory required for data: 747160080
I1018 00:14:29.361553 30443 layer_factory.hpp:77] Creating layer relu5_1
I1018 00:14:29.361562 30443 net.cpp:84] Creating Layer relu5_1
I1018 00:14:29.361569 30443 net.cpp:406] relu5_1 <- conv5_1
I1018 00:14:29.361578 30443 net.cpp:367] relu5_1 -> conv5_1 (in-place)
I1018 00:14:29.361588 30443 net.cpp:122] Setting up relu5_1
I1018 00:14:29.361594 30443 net.cpp:129] Top shape: 4 512 18 18 (663552)
I1018 00:14:29.361598 30443 net.cpp:137] Memory required for data: 749814288
I1018 00:14:29.361603 30443 layer_factory.hpp:77] Creating layer conv5_2
I1018 00:14:29.361610 30443 net.cpp:84] Creating Layer conv5_2
I1018 00:14:29.361614 30443 net.cpp:406] conv5_2 <- conv5_1
I1018 00:14:29.361623 30443 net.cpp:380] conv5_2 -> conv5_2
I1018 00:14:29.374157 30443 net.cpp:122] Setting up conv5_2
I1018 00:14:29.374289 30443 net.cpp:129] Top shape: 4 512 18 18 (663552)
I1018 00:14:29.374305 30443 net.cpp:137] Memory required for data: 752468496
I1018 00:14:29.374325 30443 layer_factory.hpp:77] Creating layer relu5_2
I1018 00:14:29.374430 30443 net.cpp:84] Creating Layer relu5_2
I1018 00:14:29.374456 30443 net.cpp:406] relu5_2 <- conv5_2
I1018 00:14:29.374502 30443 net.cpp:367] relu5_2 -> conv5_2 (in-place)
I1018 00:14:29.374539 30443 net.cpp:122] Setting up relu5_2
I1018 00:14:29.374583 30443 net.cpp:129] Top shape: 4 512 18 18 (663552)
I1018 00:14:29.374591 30443 net.cpp:137] Memory required for data: 755122704
I1018 00:14:29.374603 30443 layer_factory.hpp:77] Creating layer conv5_3
I1018 00:14:29.374634 30443 net.cpp:84] Creating Layer conv5_3
I1018 00:14:29.374644 30443 net.cpp:406] conv5_3 <- conv5_2
I1018 00:14:29.374665 30443 net.cpp:380] conv5_3 -> conv5_3
I1018 00:14:29.387269 30443 net.cpp:122] Setting up conv5_3
I1018 00:14:29.387301 30443 net.cpp:129] Top shape: 4 512 18 18 (663552)
I1018 00:14:29.387306 30443 net.cpp:137] Memory required for data: 757776912
I1018 00:14:29.387329 30443 layer_factory.hpp:77] Creating layer relu5_3
I1018 00:14:29.387349 30443 net.cpp:84] Creating Layer relu5_3
I1018 00:14:29.387359 30443 net.cpp:406] relu5_3 <- conv5_3
I1018 00:14:29.387367 30443 net.cpp:367] relu5_3 -> conv5_3 (in-place)
I1018 00:14:29.387378 30443 net.cpp:122] Setting up relu5_3
I1018 00:14:29.387383 30443 net.cpp:129] Top shape: 4 512 18 18 (663552)
I1018 00:14:29.387387 30443 net.cpp:137] Memory required for data: 760431120
I1018 00:14:29.387392 30443 layer_factory.hpp:77] Creating layer pool5
I1018 00:14:29.387403 30443 net.cpp:84] Creating Layer pool5
I1018 00:14:29.387406 30443 net.cpp:406] pool5 <- conv5_3
I1018 00:14:29.387413 30443 net.cpp:380] pool5 -> pool5
I1018 00:14:29.387466 30443 net.cpp:122] Setting up pool5
I1018 00:14:29.387476 30443 net.cpp:129] Top shape: 4 512 9 9 (165888)
I1018 00:14:29.387480 30443 net.cpp:137] Memory required for data: 761094672
I1018 00:14:29.387485 30443 layer_factory.hpp:77] Creating layer fc6-conv
I1018 00:14:29.387502 30443 net.cpp:84] Creating Layer fc6-conv
I1018 00:14:29.387507 30443 net.cpp:406] fc6-conv <- pool5
I1018 00:14:29.387513 30443 net.cpp:380] fc6-conv -> fc6-conv
I1018 00:14:29.754099 30443 net.cpp:122] Setting up fc6-conv
I1018 00:14:29.754134 30443 net.cpp:129] Top shape: 4 4096 3 3 (147456)
I1018 00:14:29.754142 30443 net.cpp:137] Memory required for data: 761684496
I1018 00:14:29.754156 30443 layer_factory.hpp:77] Creating layer relu6
I1018 00:14:29.754171 30443 net.cpp:84] Creating Layer relu6
I1018 00:14:29.754180 30443 net.cpp:406] relu6 <- fc6-conv
I1018 00:14:29.754192 30443 net.cpp:367] relu6 -> fc6-conv (in-place)
I1018 00:14:29.754209 30443 net.cpp:122] Setting up relu6
I1018 00:14:29.754218 30443 net.cpp:129] Top shape: 4 4096 3 3 (147456)
I1018 00:14:29.754223 30443 net.cpp:137] Memory required for data: 762274320
I1018 00:14:29.754230 30443 layer_factory.hpp:77] Creating layer drop6
I1018 00:14:29.754245 30443 net.cpp:84] Creating Layer drop6
I1018 00:14:29.754251 30443 net.cpp:406] drop6 <- fc6-conv
I1018 00:14:29.754259 30443 net.cpp:367] drop6 -> fc6-conv (in-place)
I1018 00:14:29.754321 30443 net.cpp:122] Setting up drop6
I1018 00:14:29.754333 30443 net.cpp:129] Top shape: 4 4096 3 3 (147456)
I1018 00:14:29.754336 30443 net.cpp:137] Memory required for data: 762864144
I1018 00:14:29.754341 30443 layer_factory.hpp:77] Creating layer fc7-conv
I1018 00:14:29.754353 30443 net.cpp:84] Creating Layer fc7-conv
I1018 00:14:29.754359 30443 net.cpp:406] fc7-conv <- fc6-conv
I1018 00:14:29.754372 30443 net.cpp:380] fc7-conv -> fc7-conv
I1018 00:14:29.818084 30443 net.cpp:122] Setting up fc7-conv
I1018 00:14:29.818127 30443 net.cpp:129] Top shape: 4 4096 3 3 (147456)
I1018 00:14:29.818133 30443 net.cpp:137] Memory required for data: 763453968
I1018 00:14:29.818146 30443 layer_factory.hpp:77] Creating layer relu7
I1018 00:14:29.818162 30443 net.cpp:84] Creating Layer relu7
I1018 00:14:29.818171 30443 net.cpp:406] relu7 <- fc7-conv
I1018 00:14:29.818186 30443 net.cpp:367] relu7 -> fc7-conv (in-place)
I1018 00:14:29.818200 30443 net.cpp:122] Setting up relu7
I1018 00:14:29.818207 30443 net.cpp:129] Top shape: 4 4096 3 3 (147456)
I1018 00:14:29.818212 30443 net.cpp:137] Memory required for data: 764043792
I1018 00:14:29.818215 30443 layer_factory.hpp:77] Creating layer drop7
I1018 00:14:29.818225 30443 net.cpp:84] Creating Layer drop7
I1018 00:14:29.818230 30443 net.cpp:406] drop7 <- fc7-conv
I1018 00:14:29.818238 30443 net.cpp:367] drop7 -> fc7-conv (in-place)
I1018 00:14:29.818269 30443 net.cpp:122] Setting up drop7
I1018 00:14:29.818276 30443 net.cpp:129] Top shape: 4 4096 3 3 (147456)
I1018 00:14:29.818281 30443 net.cpp:137] Memory required for data: 764633616
I1018 00:14:29.818285 30443 layer_factory.hpp:77] Creating layer fc7-conv_re
I1018 00:14:29.818305 30443 net.cpp:84] Creating Layer fc7-conv_re
I1018 00:14:29.818310 30443 net.cpp:406] fc7-conv_re <- fc7-conv
I1018 00:14:29.818316 30443 net.cpp:380] fc7-conv_re -> fc7-conv_re
I1018 00:14:29.818367 30443 net.cpp:122] Setting up fc7-conv_re
I1018 00:14:29.818375 30443 net.cpp:129] Top shape: 4 4096 9 (147456)
I1018 00:14:29.818379 30443 net.cpp:137] Memory required for data: 765223440
I1018 00:14:29.818385 30443 layer_factory.hpp:77] Creating layer fc7-conv_tran
I1018 00:14:29.818459 30443 net.cpp:84] Creating Layer fc7-conv_tran
I1018 00:14:29.818469 30443 net.cpp:406] fc7-conv_tran <- fc7-conv_re
I1018 00:14:29.818480 30443 net.cpp:380] fc7-conv_tran -> fc7-conv_tran
I1018 00:14:29.819591 30443 net.cpp:122] Setting up fc7-conv_tran
I1018 00:14:29.819610 30443 net.cpp:129] Top shape: 8 4 4096 (131072)
I1018 00:14:29.819615 30443 net.cpp:137] Memory required for data: 765747728
I1018 00:14:29.819622 30443 layer_factory.hpp:77] Creating layer lstm1
I1018 00:14:29.819639 30443 net.cpp:84] Creating Layer lstm1
I1018 00:14:29.819645 30443 net.cpp:406] lstm1 <- fc7-conv_tran
I1018 00:14:29.819653 30443 net.cpp:406] lstm1 <- clip_markers
I1018 00:14:29.819661 30443 net.cpp:380] lstm1 -> lstm1
I1018 00:14:29.819679 30443 recurrent_layer.cpp:20] Initializing recurrent layer: assuming input batch contains 8 timesteps of 4 independent streams.
I1018 00:14:29.820230 30443 net.cpp:51] Initializing net from parameters: 
layer {
  name: "lstm1_"
  type: "Input"
  top: "x"
  top: "cont"
  input_param {
    shape {
      dim: 8
      dim: 4
      dim: 4096
    }
    shape {
      dim: 8
      dim: 4
    }
  }
}
layer {
  name: "lstm1_"
  type: "Input"
  top: "c_0"
  top: "h_0"
  input_param {
    shape {
      dim: 1
      dim: 4
      dim: 512
    }
    shape {
      dim: 1
      dim: 4
      dim: 512
    }
  }
}
layer {
  name: "lstm1_cont_slice"
  type: "Slice"
  bottom: "cont"
  top: "cont_1"
  top: "cont_2"
  top: "cont_3"
  top: "cont_4"
  top: "cont_5"
  top: "cont_6"
  top: "cont_7"
  top: "cont_8"
  slice_param {
    axis: 0
  }
}
layer {
  name: "lstm1_x_transform"
  type: "InnerProduct"
  bottom: "x"
  top: "W_xc_x"
  param {
    name: "W_xc"
  }
  param {
    name: "b_c"
  }
  propagate_down: true
  inner_product_param {
    num_output: 2048
    bias_term: true
    weight_filler {
      type: "uniform"
      min: -0.01
      max: 0.01
    }
    bias_filler {
      type: "constant"
      value: 0
    }
    axis: 2
  }
}
layer {
  name: "lstm1_W_xc_x_slice"
  type: "Slice"
  bottom: "W_xc_x"
  top: "W_xc_x_1"
  top: "W_xc_x_2"
  top: "W_xc_x_3"
  top: "W_xc_x_4"
  top: "W_xc_x_5"
  top: "W_xc_x_6"
  top: "W_xc_x_7"
  top: "W_xc_x_8"
  slice_param {
    axis: 0
  }
}
layer {
  name: "lstm1_h_conted_0"
  type: "Scale"
  bottom: "h_0"
  bottom: "cont_1"
  top: "h_conted_0"
  scale_param {
    axis: 0
  }
}
layer {
  name: "lstm1_transform_1"
  type: "InnerProduct"
  bottom: "h_conted_0"
  top: "W_hc_h_0"
  param {
    name: "W_hc"
  }
  inner_product_param {
    num_output: 2048
    bias_term: false
    weight_filler {
      type: "uniform"
      min: -0.01
      max: 0.01
    }
    axis: 2
  }
}
layer {
  name: "lstm1_gate_input_1"
  type: "Eltwise"
  bottom: "W_hc_h_0"
  bottom: "W_xc_x_1"
  top: "gate_input_1"
  eltwise_param {
    operation: SUM
  }
}
layer {
  name: "lstm1_unit_1"
  type: "LSTMUnit"
  bottom: "c_0"
  bottom: "gate_input_1"
  bottom: "cont_1"
  top: "c_1"
  top: "h_1"
}
layer {
  name: "lstm1_h_conted_1"
  type: "Scale"
  bottom: "h_1"
  bottom: "cont_2"
  top: "h_conted_1"
  scale_param {
    axis: 0
  }
}
layer {
  name: "lstm1_transform_2"
  type: "InnerProduct"
  bottom: "h_conted_1"
  top: "W_hc_h_1"
  param {
    name: "W_hc"
  }
  inner_product_param {
    num_output: 2048
    bias_term: false
    weight_filler {
      type: "uniform"
      min: -0.01
      max: 0.01
    }
    axis: 2
  }
}
layer {
  name: "lstm1_gate_input_2"
  type: "Eltwise"
  bottom: "W_hc_h_1"
  bottom: "W_xc_x_2"
  top: "gate_input_2"
  eltwise_param {
    operation: SUM
  }
}
layer {
  name: "lstm1_unit_2"
  type: "LSTMUnit"
  bottom: "c_1"
  bottom: "gate_input_2"
  bottom: "cont_2"
  top: "c_2"
  top: "h_2"
}
layer {
  name: "lstm1_h_conted_2"
  type: "Scale"
  bottom: "h_2"
  bottom: "cont_3"
  top: "h_conted_2"
  scale_param {
    axis: 0
  }
}
layer {
  name: "lstm1_transform_3"
  type: "InnerProduct"
  bottom: "h_conted_2"
  top: "W_hc_h_2"
  param {
    name: "W_hc"
  }
  inner_product_param {
    num_output: 2048
    bias_term: false
    weight_filler {
      type: "uniform"
      min: -0.01
      max: 0.01
    }
    axis: 2
  }
}
layer {
  name: "lstm1_gate_input_3"
  type: "Eltwise"
  bottom: "W_hc_h_2"
  bottom: "W_xc_x_3"
  top: "gate_input_3"
  eltwise_param {
    operation: SUM
  }
}
layer {
  name: "lstm1_unit_3"
  type: "LSTMUnit"
  bottom: "c_2"
  bottom: "gate_input_3"
  bottom: "cont_3"
  top: "c_3"
  top: "h_3"
}
layer {
  name: "lstm1_h_conted_3"
  type: "Scale"
  bottom: "h_3"
  bottom: "cont_4"
  top: "h_conted_3"
  scale_param {
    axis: 0
  }
}
layer {
  name: "lstm1_transform_4"
  type: "InnerProduct"
  bottom: "h_conted_3"
  top: "W_hc_h_3"
  param {
    name: "W_hc"
  }
  inner_product_param {
    num_output: 2048
    bias_term: false
    weight_filler {
      type: "uniform"
      min: -0.01
      max: 0.01
    }
    axis: 2
  }
}
layer {
  name: "lstm1_gate_input_4"
  type: "Eltwise"
  bottom: "W_hc_h_3"
  bottom: "W_xc_x_4"
  top: "gate_input_4"
  eltwise_param {
    operation: SUM
  }
}
layer {
  name: "lstm1_unit_4"
  type: "LSTMUnit"
  bottom: "c_3"
  bottom: "gate_input_4"
  bottom: "cont_4"
  top: "c_4"
  top: "h_4"
}
layer {
  name: "lstm1_h_conted_4"
  type: "Scale"
  bottom: "h_4"
  bottom: "cont_5"
  top: "h_conted_4"
  scale_param {
    axis: 0
  }
}
layer {
  name: "lstm1_transform_5"
  type: "InnerProduct"
  bottom: "h_conted_4"
  top: "W_hc_h_4"
  param {
    name: "W_hc"
  }
  inner_product_param {
    num_output: 2048
    bias_term: false
    weight_filler {
      type: "uniform"
      min: -0.01
      max: 0.01
    }
    axis: 2
  }
}
layer {
  name: "lstm1_gate_input_5"
  type: "Eltwise"
  bottom: "W_hc_h_4"
  bottom: "W_xc_x_5"
  top: "gate_input_5"
  eltwise_param {
    operation: SUM
  }
}
layer {
  name: "lstm1_unit_5"
  type: "LSTMUnit"
  bottom: "c_4"
  bottom: "gate_input_5"
  bottom: "cont_5"
  top: "c_5"
  top: "h_5"
}
layer {
  name: "lstm1_h_conted_5"
  type: "Scale"
  bottom: "h_5"
  bottom: "cont_6"
  top: "h_conted_5"
  scale_param {
    axis: 0
  }
}
layer {
  name: "lstm1_transform_6"
  type: "InnerProduct"
  bottom: "h_conted_5"
  top: "W_hc_h_5"
  param {
    name: "W_hc"
  }
  inner_product_param {
    num_output: 2048
    bias_term: false
    weight_filler {
      type: "uniform"
      min: -0.01
      max: 0.01
    }
    axis: 2
  }
}
layer {
  name: "lstm1_gate_input_6"
  type: "Eltwise"
  bottom: "W_hc_h_5"
  bottom: "W_xc_x_6"
  top: "gate_input_6"
  eltwise_param {
    operation: SUM
  }
}
layer {
  name: "lstm1_unit_6"
  type: "LSTMUnit"
  bottom: "c_5"
  bottom: "gate_input_6"
  bottom: "cont_6"
  top: "c_6"
  top: "h_6"
}
layer {
  name: "lstm1_h_conted_6"
  type: "Scale"
  bottom: "h_6"
  bottom: "cont_7"
  top: "h_conted_6"
  scale_param {
    axis: 0
  }
}
layer {
  name: "lstm1_transform_7"
  type: "InnerProduct"
  bottom: "h_conted_6"
  top: "W_hc_h_6"
  param {
    name: "W_hc"
  }
  inner_product_param {
    num_output: 2048
    bias_term: false
    weight_filler {
      type: "uniform"
      min: -0.01
      max: 0.01
    }
    axis: 2
  }
}
layer {
  name: "lstm1_gate_input_7"
  type: "Eltwise"
  bottom: "W_hc_h_6"
  bottom: "W_xc_x_7"
  top: "gate_input_7"
  eltwise_param {
    operation: SUM
  }
}
layer {
  name: "lstm1_unit_7"
  type: "LSTMUnit"
  bottom: "c_6"
  bottom: "gate_input_7"
  bottom: "cont_7"
  top: "c_7"
  top: "h_7"
}
layer {
  name: "lstm1_h_conted_7"
  type: "Scale"
  bottom: "h_7"
  bottom: "cont_8"
  top: "h_conted_7"
  scale_param {
    axis: 0
  }
}
layer {
  name: "lstm1_transform_8"
  type: "InnerProduct"
  bottom: "h_conted_7"
  top: "W_hc_h_7"
  param {
    name: "W_hc"
  }
  inner_product_param {
    num_output: 2048
    bias_term: false
    weight_filler {
      type: "uniform"
      min: -0.01
      max: 0.01
    }
    axis: 2
  }
}
layer {
  name: "lstm1_gate_input_8"
  type: "Eltwise"
  bottom: "W_hc_h_7"
  bottom: "W_xc_x_8"
  top: "gate_input_8"
  eltwise_param {
    operation: SUM
  }
}
layer {
  name: "lstm1_unit_8"
  type: "LSTMUnit"
  bottom: "c_7"
  bottom: "gate_input_8"
  bottom: "cont_8"
  top: "c_8"
  top: "h_8"
}
layer {
  name: "lstm1_"
  type: "Split"
  bottom: "c_8"
  top: "c_T"
}
layer {
  name: "lstm1_h_concat"
  type: "Concat"
  bottom: "h_1"
  bottom: "h_2"
  bottom: "h_3"
  bottom: "h_4"
  bottom: "h_5"
  bottom: "h_6"
  bottom: "h_7"
  bottom: "h_8"
  top: "h"
  concat_param {
    axis: 0
  }
}
layer {
  name: "h_pseudoloss"
  type: "Reduction"
  bottom: "h"
  top: "h_pseudoloss"
  loss_weight: 1
}
I1018 00:14:29.820552 30443 layer_factory.hpp:77] Creating layer lstm1_
I1018 00:14:29.820569 30443 net.cpp:84] Creating Layer lstm1_
I1018 00:14:29.820576 30443 net.cpp:380] lstm1_ -> x
I1018 00:14:29.820592 30443 net.cpp:380] lstm1_ -> cont
I1018 00:14:29.820644 30443 net.cpp:122] Setting up lstm1_
I1018 00:14:29.820653 30443 net.cpp:129] Top shape: 8 4 4096 (131072)
I1018 00:14:29.820660 30443 net.cpp:129] Top shape: 8 4 (32)
I1018 00:14:29.820664 30443 net.cpp:137] Memory required for data: 524416
I1018 00:14:29.820669 30443 layer_factory.hpp:77] Creating layer lstm1_
I1018 00:14:29.820680 30443 net.cpp:84] Creating Layer lstm1_
I1018 00:14:29.820686 30443 net.cpp:380] lstm1_ -> c_0
I1018 00:14:29.820698 30443 net.cpp:380] lstm1_ -> h_0
I1018 00:14:29.820746 30443 net.cpp:122] Setting up lstm1_
I1018 00:14:29.820755 30443 net.cpp:129] Top shape: 1 4 512 (2048)
I1018 00:14:29.820760 30443 net.cpp:129] Top shape: 1 4 512 (2048)
I1018 00:14:29.820765 30443 net.cpp:137] Memory required for data: 540800
I1018 00:14:29.820768 30443 layer_factory.hpp:77] Creating layer lstm1_cont_slice
I1018 00:14:29.820781 30443 net.cpp:84] Creating Layer lstm1_cont_slice
I1018 00:14:29.820786 30443 net.cpp:406] lstm1_cont_slice <- cont
I1018 00:14:29.820793 30443 net.cpp:380] lstm1_cont_slice -> cont_1
I1018 00:14:29.820802 30443 net.cpp:380] lstm1_cont_slice -> cont_2
I1018 00:14:29.820811 30443 net.cpp:380] lstm1_cont_slice -> cont_3
I1018 00:14:29.820818 30443 net.cpp:380] lstm1_cont_slice -> cont_4
I1018 00:14:29.820827 30443 net.cpp:380] lstm1_cont_slice -> cont_5
I1018 00:14:29.820835 30443 net.cpp:380] lstm1_cont_slice -> cont_6
I1018 00:14:29.820842 30443 net.cpp:380] lstm1_cont_slice -> cont_7
I1018 00:14:29.820849 30443 net.cpp:380] lstm1_cont_slice -> cont_8
I1018 00:14:29.820967 30443 net.cpp:122] Setting up lstm1_cont_slice
I1018 00:14:29.820976 30443 net.cpp:129] Top shape: 1 4 (4)
I1018 00:14:29.820981 30443 net.cpp:129] Top shape: 1 4 (4)
I1018 00:14:29.820986 30443 net.cpp:129] Top shape: 1 4 (4)
I1018 00:14:29.820991 30443 net.cpp:129] Top shape: 1 4 (4)
I1018 00:14:29.820996 30443 net.cpp:129] Top shape: 1 4 (4)
I1018 00:14:29.821002 30443 net.cpp:129] Top shape: 1 4 (4)
I1018 00:14:29.821007 30443 net.cpp:129] Top shape: 1 4 (4)
I1018 00:14:29.821012 30443 net.cpp:129] Top shape: 1 4 (4)
I1018 00:14:29.821015 30443 net.cpp:137] Memory required for data: 540928
I1018 00:14:29.821020 30443 layer_factory.hpp:77] Creating layer cont_1_lstm1_cont_slice_0_split
I1018 00:14:29.821027 30443 net.cpp:84] Creating Layer cont_1_lstm1_cont_slice_0_split
I1018 00:14:29.821032 30443 net.cpp:406] cont_1_lstm1_cont_slice_0_split <- cont_1
I1018 00:14:29.821041 30443 net.cpp:380] cont_1_lstm1_cont_slice_0_split -> cont_1_lstm1_cont_slice_0_split_0
I1018 00:14:29.821048 30443 net.cpp:380] cont_1_lstm1_cont_slice_0_split -> cont_1_lstm1_cont_slice_0_split_1
I1018 00:14:29.821082 30443 net.cpp:122] Setting up cont_1_lstm1_cont_slice_0_split
I1018 00:14:29.821089 30443 net.cpp:129] Top shape: 1 4 (4)
I1018 00:14:29.821095 30443 net.cpp:129] Top shape: 1 4 (4)
I1018 00:14:29.821099 30443 net.cpp:137] Memory required for data: 540960
I1018 00:14:29.821105 30443 layer_factory.hpp:77] Creating layer cont_2_lstm1_cont_slice_1_split
I1018 00:14:29.821112 30443 net.cpp:84] Creating Layer cont_2_lstm1_cont_slice_1_split
I1018 00:14:29.821117 30443 net.cpp:406] cont_2_lstm1_cont_slice_1_split <- cont_2
I1018 00:14:29.821123 30443 net.cpp:380] cont_2_lstm1_cont_slice_1_split -> cont_2_lstm1_cont_slice_1_split_0
I1018 00:14:29.821131 30443 net.cpp:380] cont_2_lstm1_cont_slice_1_split -> cont_2_lstm1_cont_slice_1_split_1
I1018 00:14:29.821168 30443 net.cpp:122] Setting up cont_2_lstm1_cont_slice_1_split
I1018 00:14:29.821175 30443 net.cpp:129] Top shape: 1 4 (4)
I1018 00:14:29.821182 30443 net.cpp:129] Top shape: 1 4 (4)
I1018 00:14:29.821185 30443 net.cpp:137] Memory required for data: 540992
I1018 00:14:29.821189 30443 layer_factory.hpp:77] Creating layer cont_3_lstm1_cont_slice_2_split
I1018 00:14:29.821195 30443 net.cpp:84] Creating Layer cont_3_lstm1_cont_slice_2_split
I1018 00:14:29.821200 30443 net.cpp:406] cont_3_lstm1_cont_slice_2_split <- cont_3
I1018 00:14:29.821208 30443 net.cpp:380] cont_3_lstm1_cont_slice_2_split -> cont_3_lstm1_cont_slice_2_split_0
I1018 00:14:29.821216 30443 net.cpp:380] cont_3_lstm1_cont_slice_2_split -> cont_3_lstm1_cont_slice_2_split_1
I1018 00:14:29.821254 30443 net.cpp:122] Setting up cont_3_lstm1_cont_slice_2_split
I1018 00:14:29.821261 30443 net.cpp:129] Top shape: 1 4 (4)
I1018 00:14:29.821267 30443 net.cpp:129] Top shape: 1 4 (4)
I1018 00:14:29.821271 30443 net.cpp:137] Memory required for data: 541024
I1018 00:14:29.821275 30443 layer_factory.hpp:77] Creating layer cont_4_lstm1_cont_slice_3_split
I1018 00:14:29.821281 30443 net.cpp:84] Creating Layer cont_4_lstm1_cont_slice_3_split
I1018 00:14:29.821286 30443 net.cpp:406] cont_4_lstm1_cont_slice_3_split <- cont_4
I1018 00:14:29.821295 30443 net.cpp:380] cont_4_lstm1_cont_slice_3_split -> cont_4_lstm1_cont_slice_3_split_0
I1018 00:14:29.821302 30443 net.cpp:380] cont_4_lstm1_cont_slice_3_split -> cont_4_lstm1_cont_slice_3_split_1
I1018 00:14:29.821336 30443 net.cpp:122] Setting up cont_4_lstm1_cont_slice_3_split
I1018 00:14:29.821343 30443 net.cpp:129] Top shape: 1 4 (4)
I1018 00:14:29.821349 30443 net.cpp:129] Top shape: 1 4 (4)
I1018 00:14:29.821353 30443 net.cpp:137] Memory required for data: 541056
I1018 00:14:29.821357 30443 layer_factory.hpp:77] Creating layer cont_5_lstm1_cont_slice_4_split
I1018 00:14:29.821365 30443 net.cpp:84] Creating Layer cont_5_lstm1_cont_slice_4_split
I1018 00:14:29.821370 30443 net.cpp:406] cont_5_lstm1_cont_slice_4_split <- cont_5
I1018 00:14:29.821377 30443 net.cpp:380] cont_5_lstm1_cont_slice_4_split -> cont_5_lstm1_cont_slice_4_split_0
I1018 00:14:29.821385 30443 net.cpp:380] cont_5_lstm1_cont_slice_4_split -> cont_5_lstm1_cont_slice_4_split_1
I1018 00:14:29.821419 30443 net.cpp:122] Setting up cont_5_lstm1_cont_slice_4_split
I1018 00:14:29.821426 30443 net.cpp:129] Top shape: 1 4 (4)
I1018 00:14:29.821431 30443 net.cpp:129] Top shape: 1 4 (4)
I1018 00:14:29.821436 30443 net.cpp:137] Memory required for data: 541088
I1018 00:14:29.821440 30443 layer_factory.hpp:77] Creating layer cont_6_lstm1_cont_slice_5_split
I1018 00:14:29.821446 30443 net.cpp:84] Creating Layer cont_6_lstm1_cont_slice_5_split
I1018 00:14:29.821451 30443 net.cpp:406] cont_6_lstm1_cont_slice_5_split <- cont_6
I1018 00:14:29.821458 30443 net.cpp:380] cont_6_lstm1_cont_slice_5_split -> cont_6_lstm1_cont_slice_5_split_0
I1018 00:14:29.821465 30443 net.cpp:380] cont_6_lstm1_cont_slice_5_split -> cont_6_lstm1_cont_slice_5_split_1
I1018 00:14:29.821498 30443 net.cpp:122] Setting up cont_6_lstm1_cont_slice_5_split
I1018 00:14:29.821506 30443 net.cpp:129] Top shape: 1 4 (4)
I1018 00:14:29.821511 30443 net.cpp:129] Top shape: 1 4 (4)
I1018 00:14:29.821516 30443 net.cpp:137] Memory required for data: 541120
I1018 00:14:29.821519 30443 layer_factory.hpp:77] Creating layer cont_7_lstm1_cont_slice_6_split
I1018 00:14:29.821526 30443 net.cpp:84] Creating Layer cont_7_lstm1_cont_slice_6_split
I1018 00:14:29.821529 30443 net.cpp:406] cont_7_lstm1_cont_slice_6_split <- cont_7
I1018 00:14:29.821535 30443 net.cpp:380] cont_7_lstm1_cont_slice_6_split -> cont_7_lstm1_cont_slice_6_split_0
I1018 00:14:29.821545 30443 net.cpp:380] cont_7_lstm1_cont_slice_6_split -> cont_7_lstm1_cont_slice_6_split_1
I1018 00:14:29.821576 30443 net.cpp:122] Setting up cont_7_lstm1_cont_slice_6_split
I1018 00:14:29.821583 30443 net.cpp:129] Top shape: 1 4 (4)
I1018 00:14:29.821588 30443 net.cpp:129] Top shape: 1 4 (4)
I1018 00:14:29.821593 30443 net.cpp:137] Memory required for data: 541152
I1018 00:14:29.821597 30443 layer_factory.hpp:77] Creating layer cont_8_lstm1_cont_slice_7_split
I1018 00:14:29.821604 30443 net.cpp:84] Creating Layer cont_8_lstm1_cont_slice_7_split
I1018 00:14:29.821609 30443 net.cpp:406] cont_8_lstm1_cont_slice_7_split <- cont_8
I1018 00:14:29.821615 30443 net.cpp:380] cont_8_lstm1_cont_slice_7_split -> cont_8_lstm1_cont_slice_7_split_0
I1018 00:14:29.821624 30443 net.cpp:380] cont_8_lstm1_cont_slice_7_split -> cont_8_lstm1_cont_slice_7_split_1
I1018 00:14:29.821656 30443 net.cpp:122] Setting up cont_8_lstm1_cont_slice_7_split
I1018 00:14:29.821663 30443 net.cpp:129] Top shape: 1 4 (4)
I1018 00:14:29.821669 30443 net.cpp:129] Top shape: 1 4 (4)
I1018 00:14:29.821673 30443 net.cpp:137] Memory required for data: 541184
I1018 00:14:29.821678 30443 layer_factory.hpp:77] Creating layer lstm1_x_transform
I1018 00:14:29.821691 30443 net.cpp:84] Creating Layer lstm1_x_transform
I1018 00:14:29.821696 30443 net.cpp:406] lstm1_x_transform <- x
I1018 00:14:29.821703 30443 net.cpp:380] lstm1_x_transform -> W_xc_x
I1018 00:14:29.934442 30443 net.cpp:122] Setting up lstm1_x_transform
I1018 00:14:29.934478 30443 net.cpp:129] Top shape: 8 4 2048 (65536)
I1018 00:14:29.934484 30443 net.cpp:137] Memory required for data: 803328
I1018 00:14:29.934504 30443 layer_factory.hpp:77] Creating layer lstm1_W_xc_x_slice
I1018 00:14:29.934525 30443 net.cpp:84] Creating Layer lstm1_W_xc_x_slice
I1018 00:14:29.934531 30443 net.cpp:406] lstm1_W_xc_x_slice <- W_xc_x
I1018 00:14:29.934540 30443 net.cpp:380] lstm1_W_xc_x_slice -> W_xc_x_1
I1018 00:14:29.934553 30443 net.cpp:380] lstm1_W_xc_x_slice -> W_xc_x_2
I1018 00:14:29.934561 30443 net.cpp:380] lstm1_W_xc_x_slice -> W_xc_x_3
I1018 00:14:29.934569 30443 net.cpp:380] lstm1_W_xc_x_slice -> W_xc_x_4
I1018 00:14:29.934582 30443 net.cpp:380] lstm1_W_xc_x_slice -> W_xc_x_5
I1018 00:14:29.934592 30443 net.cpp:380] lstm1_W_xc_x_slice -> W_xc_x_6
I1018 00:14:29.934598 30443 net.cpp:380] lstm1_W_xc_x_slice -> W_xc_x_7
I1018 00:14:29.934605 30443 net.cpp:380] lstm1_W_xc_x_slice -> W_xc_x_8
I1018 00:14:29.934715 30443 net.cpp:122] Setting up lstm1_W_xc_x_slice
I1018 00:14:29.934723 30443 net.cpp:129] Top shape: 1 4 2048 (8192)
I1018 00:14:29.934729 30443 net.cpp:129] Top shape: 1 4 2048 (8192)
I1018 00:14:29.934734 30443 net.cpp:129] Top shape: 1 4 2048 (8192)
I1018 00:14:29.934741 30443 net.cpp:129] Top shape: 1 4 2048 (8192)
I1018 00:14:29.934744 30443 net.cpp:129] Top shape: 1 4 2048 (8192)
I1018 00:14:29.934749 30443 net.cpp:129] Top shape: 1 4 2048 (8192)
I1018 00:14:29.934754 30443 net.cpp:129] Top shape: 1 4 2048 (8192)
I1018 00:14:29.934758 30443 net.cpp:129] Top shape: 1 4 2048 (8192)
I1018 00:14:29.934762 30443 net.cpp:137] Memory required for data: 1065472
I1018 00:14:29.934767 30443 layer_factory.hpp:77] Creating layer lstm1_h_conted_0
I1018 00:14:29.934784 30443 net.cpp:84] Creating Layer lstm1_h_conted_0
I1018 00:14:29.934792 30443 net.cpp:406] lstm1_h_conted_0 <- h_0
I1018 00:14:29.934798 30443 net.cpp:406] lstm1_h_conted_0 <- cont_1_lstm1_cont_slice_0_split_0
I1018 00:14:29.934808 30443 net.cpp:380] lstm1_h_conted_0 -> h_conted_0
I1018 00:14:29.934897 30443 net.cpp:122] Setting up lstm1_h_conted_0
I1018 00:14:29.934906 30443 net.cpp:129] Top shape: 1 4 512 (2048)
I1018 00:14:29.934911 30443 net.cpp:137] Memory required for data: 1073664
I1018 00:14:29.934914 30443 layer_factory.hpp:77] Creating layer lstm1_transform_1
I1018 00:14:29.934926 30443 net.cpp:84] Creating Layer lstm1_transform_1
I1018 00:14:29.934932 30443 net.cpp:406] lstm1_transform_1 <- h_conted_0
I1018 00:14:29.934939 30443 net.cpp:380] lstm1_transform_1 -> W_hc_h_0
I1018 00:14:29.947144 30443 net.cpp:122] Setting up lstm1_transform_1
I1018 00:14:29.947166 30443 net.cpp:129] Top shape: 1 4 2048 (8192)
I1018 00:14:29.947171 30443 net.cpp:137] Memory required for data: 1106432
I1018 00:14:29.947185 30443 layer_factory.hpp:77] Creating layer lstm1_gate_input_1
I1018 00:14:29.947202 30443 net.cpp:84] Creating Layer lstm1_gate_input_1
I1018 00:14:29.947208 30443 net.cpp:406] lstm1_gate_input_1 <- W_hc_h_0
I1018 00:14:29.947216 30443 net.cpp:406] lstm1_gate_input_1 <- W_xc_x_1
I1018 00:14:29.947221 30443 net.cpp:380] lstm1_gate_input_1 -> gate_input_1
I1018 00:14:29.947260 30443 net.cpp:122] Setting up lstm1_gate_input_1
I1018 00:14:29.947269 30443 net.cpp:129] Top shape: 1 4 2048 (8192)
I1018 00:14:29.947273 30443 net.cpp:137] Memory required for data: 1139200
I1018 00:14:29.947278 30443 layer_factory.hpp:77] Creating layer lstm1_unit_1
I1018 00:14:29.947289 30443 net.cpp:84] Creating Layer lstm1_unit_1
I1018 00:14:29.947296 30443 net.cpp:406] lstm1_unit_1 <- c_0
I1018 00:14:29.947302 30443 net.cpp:406] lstm1_unit_1 <- gate_input_1
I1018 00:14:29.947307 30443 net.cpp:406] lstm1_unit_1 <- cont_1_lstm1_cont_slice_0_split_1
I1018 00:14:29.947315 30443 net.cpp:380] lstm1_unit_1 -> c_1
I1018 00:14:29.947325 30443 net.cpp:380] lstm1_unit_1 -> h_1
I1018 00:14:29.947376 30443 net.cpp:122] Setting up lstm1_unit_1
I1018 00:14:29.947386 30443 net.cpp:129] Top shape: 1 4 512 (2048)
I1018 00:14:29.947391 30443 net.cpp:129] Top shape: 1 4 512 (2048)
I1018 00:14:29.947394 30443 net.cpp:137] Memory required for data: 1155584
I1018 00:14:29.947399 30443 layer_factory.hpp:77] Creating layer h_1_lstm1_unit_1_1_split
I1018 00:14:29.947407 30443 net.cpp:84] Creating Layer h_1_lstm1_unit_1_1_split
I1018 00:14:29.947410 30443 net.cpp:406] h_1_lstm1_unit_1_1_split <- h_1
I1018 00:14:29.947417 30443 net.cpp:380] h_1_lstm1_unit_1_1_split -> h_1_lstm1_unit_1_1_split_0
I1018 00:14:29.947424 30443 net.cpp:380] h_1_lstm1_unit_1_1_split -> h_1_lstm1_unit_1_1_split_1
I1018 00:14:29.947460 30443 net.cpp:122] Setting up h_1_lstm1_unit_1_1_split
I1018 00:14:29.947469 30443 net.cpp:129] Top shape: 1 4 512 (2048)
I1018 00:14:29.947474 30443 net.cpp:129] Top shape: 1 4 512 (2048)
I1018 00:14:29.947479 30443 net.cpp:137] Memory required for data: 1171968
I1018 00:14:29.947482 30443 layer_factory.hpp:77] Creating layer lstm1_h_conted_1
I1018 00:14:29.947494 30443 net.cpp:84] Creating Layer lstm1_h_conted_1
I1018 00:14:29.947500 30443 net.cpp:406] lstm1_h_conted_1 <- h_1_lstm1_unit_1_1_split_0
I1018 00:14:29.947506 30443 net.cpp:406] lstm1_h_conted_1 <- cont_2_lstm1_cont_slice_1_split_0
I1018 00:14:29.947512 30443 net.cpp:380] lstm1_h_conted_1 -> h_conted_1
I1018 00:14:29.947576 30443 net.cpp:122] Setting up lstm1_h_conted_1
I1018 00:14:29.947585 30443 net.cpp:129] Top shape: 1 4 512 (2048)
I1018 00:14:29.947589 30443 net.cpp:137] Memory required for data: 1180160
I1018 00:14:29.947593 30443 layer_factory.hpp:77] Creating layer lstm1_transform_2
I1018 00:14:29.947604 30443 net.cpp:84] Creating Layer lstm1_transform_2
I1018 00:14:29.947612 30443 net.cpp:406] lstm1_transform_2 <- h_conted_1
I1018 00:14:29.947618 30443 net.cpp:380] lstm1_transform_2 -> W_hc_h_1
I1018 00:14:29.959185 30443 net.cpp:122] Setting up lstm1_transform_2
I1018 00:14:29.959223 30443 net.cpp:129] Top shape: 1 4 2048 (8192)
I1018 00:14:29.959228 30443 net.cpp:137] Memory required for data: 1212928
I1018 00:14:29.959234 30443 net.cpp:465] Sharing parameters 'W_hc' owned by layer 'lstm1_transform_1', param index 0
I1018 00:14:29.959242 30443 layer_factory.hpp:77] Creating layer lstm1_gate_input_2
I1018 00:14:29.959252 30443 net.cpp:84] Creating Layer lstm1_gate_input_2
I1018 00:14:29.959257 30443 net.cpp:406] lstm1_gate_input_2 <- W_hc_h_1
I1018 00:14:29.959265 30443 net.cpp:406] lstm1_gate_input_2 <- W_xc_x_2
I1018 00:14:29.959275 30443 net.cpp:380] lstm1_gate_input_2 -> gate_input_2
I1018 00:14:29.959306 30443 net.cpp:122] Setting up lstm1_gate_input_2
I1018 00:14:29.959313 30443 net.cpp:129] Top shape: 1 4 2048 (8192)
I1018 00:14:29.959317 30443 net.cpp:137] Memory required for data: 1245696
I1018 00:14:29.959321 30443 layer_factory.hpp:77] Creating layer lstm1_unit_2
I1018 00:14:29.959328 30443 net.cpp:84] Creating Layer lstm1_unit_2
I1018 00:14:29.959333 30443 net.cpp:406] lstm1_unit_2 <- c_1
I1018 00:14:29.959339 30443 net.cpp:406] lstm1_unit_2 <- gate_input_2
I1018 00:14:29.959344 30443 net.cpp:406] lstm1_unit_2 <- cont_2_lstm1_cont_slice_1_split_1
I1018 00:14:29.959352 30443 net.cpp:380] lstm1_unit_2 -> c_2
I1018 00:14:29.959362 30443 net.cpp:380] lstm1_unit_2 -> h_2
I1018 00:14:29.959408 30443 net.cpp:122] Setting up lstm1_unit_2
I1018 00:14:29.959416 30443 net.cpp:129] Top shape: 1 4 512 (2048)
I1018 00:14:29.959421 30443 net.cpp:129] Top shape: 1 4 512 (2048)
I1018 00:14:29.959425 30443 net.cpp:137] Memory required for data: 1262080
I1018 00:14:29.959430 30443 layer_factory.hpp:77] Creating layer h_2_lstm1_unit_2_1_split
I1018 00:14:29.959436 30443 net.cpp:84] Creating Layer h_2_lstm1_unit_2_1_split
I1018 00:14:29.959444 30443 net.cpp:406] h_2_lstm1_unit_2_1_split <- h_2
I1018 00:14:29.959450 30443 net.cpp:380] h_2_lstm1_unit_2_1_split -> h_2_lstm1_unit_2_1_split_0
I1018 00:14:29.959457 30443 net.cpp:380] h_2_lstm1_unit_2_1_split -> h_2_lstm1_unit_2_1_split_1
I1018 00:14:29.959491 30443 net.cpp:122] Setting up h_2_lstm1_unit_2_1_split
I1018 00:14:29.959498 30443 net.cpp:129] Top shape: 1 4 512 (2048)
I1018 00:14:29.959503 30443 net.cpp:129] Top shape: 1 4 512 (2048)
I1018 00:14:29.959507 30443 net.cpp:137] Memory required for data: 1278464
I1018 00:14:29.959511 30443 layer_factory.hpp:77] Creating layer lstm1_h_conted_2
I1018 00:14:29.959520 30443 net.cpp:84] Creating Layer lstm1_h_conted_2
I1018 00:14:29.959524 30443 net.cpp:406] lstm1_h_conted_2 <- h_2_lstm1_unit_2_1_split_0
I1018 00:14:29.959530 30443 net.cpp:406] lstm1_h_conted_2 <- cont_3_lstm1_cont_slice_2_split_0
I1018 00:14:29.959538 30443 net.cpp:380] lstm1_h_conted_2 -> h_conted_2
I1018 00:14:29.959602 30443 net.cpp:122] Setting up lstm1_h_conted_2
I1018 00:14:29.959611 30443 net.cpp:129] Top shape: 1 4 512 (2048)
I1018 00:14:29.959616 30443 net.cpp:137] Memory required for data: 1286656
I1018 00:14:29.959620 30443 layer_factory.hpp:77] Creating layer lstm1_transform_3
I1018 00:14:29.959628 30443 net.cpp:84] Creating Layer lstm1_transform_3
I1018 00:14:29.959633 30443 net.cpp:406] lstm1_transform_3 <- h_conted_2
I1018 00:14:29.959642 30443 net.cpp:380] lstm1_transform_3 -> W_hc_h_2
I1018 00:14:29.971498 30443 net.cpp:122] Setting up lstm1_transform_3
I1018 00:14:29.971524 30443 net.cpp:129] Top shape: 1 4 2048 (8192)
I1018 00:14:29.971529 30443 net.cpp:137] Memory required for data: 1319424
I1018 00:14:29.971539 30443 net.cpp:465] Sharing parameters 'W_hc' owned by layer 'lstm1_transform_1', param index 0
I1018 00:14:29.971545 30443 layer_factory.hpp:77] Creating layer lstm1_gate_input_3
I1018 00:14:29.971559 30443 net.cpp:84] Creating Layer lstm1_gate_input_3
I1018 00:14:29.971563 30443 net.cpp:406] lstm1_gate_input_3 <- W_hc_h_2
I1018 00:14:29.971570 30443 net.cpp:406] lstm1_gate_input_3 <- W_xc_x_3
I1018 00:14:29.971580 30443 net.cpp:380] lstm1_gate_input_3 -> gate_input_3
I1018 00:14:29.971611 30443 net.cpp:122] Setting up lstm1_gate_input_3
I1018 00:14:29.971621 30443 net.cpp:129] Top shape: 1 4 2048 (8192)
I1018 00:14:29.971624 30443 net.cpp:137] Memory required for data: 1352192
I1018 00:14:29.971628 30443 layer_factory.hpp:77] Creating layer lstm1_unit_3
I1018 00:14:29.971634 30443 net.cpp:84] Creating Layer lstm1_unit_3
I1018 00:14:29.971639 30443 net.cpp:406] lstm1_unit_3 <- c_2
I1018 00:14:29.971645 30443 net.cpp:406] lstm1_unit_3 <- gate_input_3
I1018 00:14:29.971652 30443 net.cpp:406] lstm1_unit_3 <- cont_3_lstm1_cont_slice_2_split_1
I1018 00:14:29.971657 30443 net.cpp:380] lstm1_unit_3 -> c_3
I1018 00:14:29.971665 30443 net.cpp:380] lstm1_unit_3 -> h_3
I1018 00:14:29.971709 30443 net.cpp:122] Setting up lstm1_unit_3
I1018 00:14:29.971719 30443 net.cpp:129] Top shape: 1 4 512 (2048)
I1018 00:14:29.971724 30443 net.cpp:129] Top shape: 1 4 512 (2048)
I1018 00:14:29.971727 30443 net.cpp:137] Memory required for data: 1368576
I1018 00:14:29.971731 30443 layer_factory.hpp:77] Creating layer h_3_lstm1_unit_3_1_split
I1018 00:14:29.971737 30443 net.cpp:84] Creating Layer h_3_lstm1_unit_3_1_split
I1018 00:14:29.971742 30443 net.cpp:406] h_3_lstm1_unit_3_1_split <- h_3
I1018 00:14:29.971748 30443 net.cpp:380] h_3_lstm1_unit_3_1_split -> h_3_lstm1_unit_3_1_split_0
I1018 00:14:29.971755 30443 net.cpp:380] h_3_lstm1_unit_3_1_split -> h_3_lstm1_unit_3_1_split_1
I1018 00:14:29.971787 30443 net.cpp:122] Setting up h_3_lstm1_unit_3_1_split
I1018 00:14:29.971797 30443 net.cpp:129] Top shape: 1 4 512 (2048)
I1018 00:14:29.971803 30443 net.cpp:129] Top shape: 1 4 512 (2048)
I1018 00:14:29.971807 30443 net.cpp:137] Memory required for data: 1384960
I1018 00:14:29.971810 30443 layer_factory.hpp:77] Creating layer lstm1_h_conted_3
I1018 00:14:29.971819 30443 net.cpp:84] Creating Layer lstm1_h_conted_3
I1018 00:14:29.971824 30443 net.cpp:406] lstm1_h_conted_3 <- h_3_lstm1_unit_3_1_split_0
I1018 00:14:29.971830 30443 net.cpp:406] lstm1_h_conted_3 <- cont_4_lstm1_cont_slice_3_split_0
I1018 00:14:29.971837 30443 net.cpp:380] lstm1_h_conted_3 -> h_conted_3
I1018 00:14:29.971895 30443 net.cpp:122] Setting up lstm1_h_conted_3
I1018 00:14:29.971905 30443 net.cpp:129] Top shape: 1 4 512 (2048)
I1018 00:14:29.971909 30443 net.cpp:137] Memory required for data: 1393152
I1018 00:14:29.971913 30443 layer_factory.hpp:77] Creating layer lstm1_transform_4
I1018 00:14:29.971921 30443 net.cpp:84] Creating Layer lstm1_transform_4
I1018 00:14:29.971926 30443 net.cpp:406] lstm1_transform_4 <- h_conted_3
I1018 00:14:29.971935 30443 net.cpp:380] lstm1_transform_4 -> W_hc_h_3
I1018 00:14:29.983906 30443 net.cpp:122] Setting up lstm1_transform_4
I1018 00:14:29.983920 30443 net.cpp:129] Top shape: 1 4 2048 (8192)
I1018 00:14:29.983925 30443 net.cpp:137] Memory required for data: 1425920
I1018 00:14:29.983930 30443 net.cpp:465] Sharing parameters 'W_hc' owned by layer 'lstm1_transform_1', param index 0
I1018 00:14:29.983935 30443 layer_factory.hpp:77] Creating layer lstm1_gate_input_4
I1018 00:14:29.983943 30443 net.cpp:84] Creating Layer lstm1_gate_input_4
I1018 00:14:29.983947 30443 net.cpp:406] lstm1_gate_input_4 <- W_hc_h_3
I1018 00:14:29.983953 30443 net.cpp:406] lstm1_gate_input_4 <- W_xc_x_4
I1018 00:14:29.983960 30443 net.cpp:380] lstm1_gate_input_4 -> gate_input_4
I1018 00:14:29.983989 30443 net.cpp:122] Setting up lstm1_gate_input_4
I1018 00:14:29.984004 30443 net.cpp:129] Top shape: 1 4 2048 (8192)
I1018 00:14:29.984007 30443 net.cpp:137] Memory required for data: 1458688
I1018 00:14:29.984011 30443 layer_factory.hpp:77] Creating layer lstm1_unit_4
I1018 00:14:29.984019 30443 net.cpp:84] Creating Layer lstm1_unit_4
I1018 00:14:29.984024 30443 net.cpp:406] lstm1_unit_4 <- c_3
I1018 00:14:29.984035 30443 net.cpp:406] lstm1_unit_4 <- gate_input_4
I1018 00:14:29.984040 30443 net.cpp:406] lstm1_unit_4 <- cont_4_lstm1_cont_slice_3_split_1
I1018 00:14:29.984045 30443 net.cpp:380] lstm1_unit_4 -> c_4
I1018 00:14:29.984053 30443 net.cpp:380] lstm1_unit_4 -> h_4
I1018 00:14:29.984099 30443 net.cpp:122] Setting up lstm1_unit_4
I1018 00:14:29.984109 30443 net.cpp:129] Top shape: 1 4 512 (2048)
I1018 00:14:29.984114 30443 net.cpp:129] Top shape: 1 4 512 (2048)
I1018 00:14:29.984118 30443 net.cpp:137] Memory required for data: 1475072
I1018 00:14:29.984122 30443 layer_factory.hpp:77] Creating layer h_4_lstm1_unit_4_1_split
I1018 00:14:29.984134 30443 net.cpp:84] Creating Layer h_4_lstm1_unit_4_1_split
I1018 00:14:29.984139 30443 net.cpp:406] h_4_lstm1_unit_4_1_split <- h_4
I1018 00:14:29.984146 30443 net.cpp:380] h_4_lstm1_unit_4_1_split -> h_4_lstm1_unit_4_1_split_0
I1018 00:14:29.984153 30443 net.cpp:380] h_4_lstm1_unit_4_1_split -> h_4_lstm1_unit_4_1_split_1
I1018 00:14:29.984197 30443 net.cpp:122] Setting up h_4_lstm1_unit_4_1_split
I1018 00:14:29.984206 30443 net.cpp:129] Top shape: 1 4 512 (2048)
I1018 00:14:29.984212 30443 net.cpp:129] Top shape: 1 4 512 (2048)
I1018 00:14:29.984216 30443 net.cpp:137] Memory required for data: 1491456
I1018 00:14:29.984220 30443 layer_factory.hpp:77] Creating layer lstm1_h_conted_4
I1018 00:14:29.984230 30443 net.cpp:84] Creating Layer lstm1_h_conted_4
I1018 00:14:29.984235 30443 net.cpp:406] lstm1_h_conted_4 <- h_4_lstm1_unit_4_1_split_0
I1018 00:14:29.984241 30443 net.cpp:406] lstm1_h_conted_4 <- cont_5_lstm1_cont_slice_4_split_0
I1018 00:14:29.984246 30443 net.cpp:380] lstm1_h_conted_4 -> h_conted_4
I1018 00:14:29.984302 30443 net.cpp:122] Setting up lstm1_h_conted_4
I1018 00:14:29.984310 30443 net.cpp:129] Top shape: 1 4 512 (2048)
I1018 00:14:29.984314 30443 net.cpp:137] Memory required for data: 1499648
I1018 00:14:29.984318 30443 layer_factory.hpp:77] Creating layer lstm1_transform_5
I1018 00:14:29.984328 30443 net.cpp:84] Creating Layer lstm1_transform_5
I1018 00:14:29.984334 30443 net.cpp:406] lstm1_transform_5 <- h_conted_4
I1018 00:14:29.984340 30443 net.cpp:380] lstm1_transform_5 -> W_hc_h_4
I1018 00:14:29.996340 30443 net.cpp:122] Setting up lstm1_transform_5
I1018 00:14:29.996361 30443 net.cpp:129] Top shape: 1 4 2048 (8192)
I1018 00:14:29.996366 30443 net.cpp:137] Memory required for data: 1532416
I1018 00:14:29.996372 30443 net.cpp:465] Sharing parameters 'W_hc' owned by layer 'lstm1_transform_1', param index 0
I1018 00:14:29.996378 30443 layer_factory.hpp:77] Creating layer lstm1_gate_input_5
I1018 00:14:29.996390 30443 net.cpp:84] Creating Layer lstm1_gate_input_5
I1018 00:14:29.996397 30443 net.cpp:406] lstm1_gate_input_5 <- W_hc_h_4
I1018 00:14:29.996402 30443 net.cpp:406] lstm1_gate_input_5 <- W_xc_x_5
I1018 00:14:29.996409 30443 net.cpp:380] lstm1_gate_input_5 -> gate_input_5
I1018 00:14:29.996440 30443 net.cpp:122] Setting up lstm1_gate_input_5
I1018 00:14:29.996448 30443 net.cpp:129] Top shape: 1 4 2048 (8192)
I1018 00:14:29.996451 30443 net.cpp:137] Memory required for data: 1565184
I1018 00:14:29.996455 30443 layer_factory.hpp:77] Creating layer lstm1_unit_5
I1018 00:14:29.996462 30443 net.cpp:84] Creating Layer lstm1_unit_5
I1018 00:14:29.996467 30443 net.cpp:406] lstm1_unit_5 <- c_4
I1018 00:14:29.996472 30443 net.cpp:406] lstm1_unit_5 <- gate_input_5
I1018 00:14:29.996479 30443 net.cpp:406] lstm1_unit_5 <- cont_5_lstm1_cont_slice_4_split_1
I1018 00:14:29.996485 30443 net.cpp:380] lstm1_unit_5 -> c_5
I1018 00:14:29.996493 30443 net.cpp:380] lstm1_unit_5 -> h_5
I1018 00:14:29.996537 30443 net.cpp:122] Setting up lstm1_unit_5
I1018 00:14:29.996546 30443 net.cpp:129] Top shape: 1 4 512 (2048)
I1018 00:14:29.996551 30443 net.cpp:129] Top shape: 1 4 512 (2048)
I1018 00:14:29.996556 30443 net.cpp:137] Memory required for data: 1581568
I1018 00:14:29.996559 30443 layer_factory.hpp:77] Creating layer h_5_lstm1_unit_5_1_split
I1018 00:14:29.996565 30443 net.cpp:84] Creating Layer h_5_lstm1_unit_5_1_split
I1018 00:14:29.996570 30443 net.cpp:406] h_5_lstm1_unit_5_1_split <- h_5
I1018 00:14:29.996577 30443 net.cpp:380] h_5_lstm1_unit_5_1_split -> h_5_lstm1_unit_5_1_split_0
I1018 00:14:29.996583 30443 net.cpp:380] h_5_lstm1_unit_5_1_split -> h_5_lstm1_unit_5_1_split_1
I1018 00:14:29.996616 30443 net.cpp:122] Setting up h_5_lstm1_unit_5_1_split
I1018 00:14:29.996624 30443 net.cpp:129] Top shape: 1 4 512 (2048)
I1018 00:14:29.996629 30443 net.cpp:129] Top shape: 1 4 512 (2048)
I1018 00:14:29.996634 30443 net.cpp:137] Memory required for data: 1597952
I1018 00:14:29.996637 30443 layer_factory.hpp:77] Creating layer lstm1_h_conted_5
I1018 00:14:29.996646 30443 net.cpp:84] Creating Layer lstm1_h_conted_5
I1018 00:14:29.996651 30443 net.cpp:406] lstm1_h_conted_5 <- h_5_lstm1_unit_5_1_split_0
I1018 00:14:29.996657 30443 net.cpp:406] lstm1_h_conted_5 <- cont_6_lstm1_cont_slice_5_split_0
I1018 00:14:29.996662 30443 net.cpp:380] lstm1_h_conted_5 -> h_conted_5
I1018 00:14:29.996719 30443 net.cpp:122] Setting up lstm1_h_conted_5
I1018 00:14:29.996728 30443 net.cpp:129] Top shape: 1 4 512 (2048)
I1018 00:14:29.996732 30443 net.cpp:137] Memory required for data: 1606144
I1018 00:14:29.996737 30443 layer_factory.hpp:77] Creating layer lstm1_transform_6
I1018 00:14:29.996747 30443 net.cpp:84] Creating Layer lstm1_transform_6
I1018 00:14:29.996752 30443 net.cpp:406] lstm1_transform_6 <- h_conted_5
I1018 00:14:29.996757 30443 net.cpp:380] lstm1_transform_6 -> W_hc_h_5
I1018 00:14:30.008561 30443 net.cpp:122] Setting up lstm1_transform_6
I1018 00:14:30.008587 30443 net.cpp:129] Top shape: 1 4 2048 (8192)
I1018 00:14:30.008591 30443 net.cpp:137] Memory required for data: 1638912
I1018 00:14:30.008600 30443 net.cpp:465] Sharing parameters 'W_hc' owned by layer 'lstm1_transform_1', param index 0
I1018 00:14:30.008605 30443 layer_factory.hpp:77] Creating layer lstm1_gate_input_6
I1018 00:14:30.008620 30443 net.cpp:84] Creating Layer lstm1_gate_input_6
I1018 00:14:30.008626 30443 net.cpp:406] lstm1_gate_input_6 <- W_hc_h_5
I1018 00:14:30.008635 30443 net.cpp:406] lstm1_gate_input_6 <- W_xc_x_6
I1018 00:14:30.008642 30443 net.cpp:380] lstm1_gate_input_6 -> gate_input_6
I1018 00:14:30.008672 30443 net.cpp:122] Setting up lstm1_gate_input_6
I1018 00:14:30.008682 30443 net.cpp:129] Top shape: 1 4 2048 (8192)
I1018 00:14:30.008687 30443 net.cpp:137] Memory required for data: 1671680
I1018 00:14:30.008692 30443 layer_factory.hpp:77] Creating layer lstm1_unit_6
I1018 00:14:30.008698 30443 net.cpp:84] Creating Layer lstm1_unit_6
I1018 00:14:30.008703 30443 net.cpp:406] lstm1_unit_6 <- c_5
I1018 00:14:30.008709 30443 net.cpp:406] lstm1_unit_6 <- gate_input_6
I1018 00:14:30.008714 30443 net.cpp:406] lstm1_unit_6 <- cont_6_lstm1_cont_slice_5_split_1
I1018 00:14:30.008723 30443 net.cpp:380] lstm1_unit_6 -> c_6
I1018 00:14:30.008730 30443 net.cpp:380] lstm1_unit_6 -> h_6
I1018 00:14:30.008776 30443 net.cpp:122] Setting up lstm1_unit_6
I1018 00:14:30.008785 30443 net.cpp:129] Top shape: 1 4 512 (2048)
I1018 00:14:30.008790 30443 net.cpp:129] Top shape: 1 4 512 (2048)
I1018 00:14:30.008795 30443 net.cpp:137] Memory required for data: 1688064
I1018 00:14:30.008798 30443 layer_factory.hpp:77] Creating layer h_6_lstm1_unit_6_1_split
I1018 00:14:30.008805 30443 net.cpp:84] Creating Layer h_6_lstm1_unit_6_1_split
I1018 00:14:30.008810 30443 net.cpp:406] h_6_lstm1_unit_6_1_split <- h_6
I1018 00:14:30.008816 30443 net.cpp:380] h_6_lstm1_unit_6_1_split -> h_6_lstm1_unit_6_1_split_0
I1018 00:14:30.008823 30443 net.cpp:380] h_6_lstm1_unit_6_1_split -> h_6_lstm1_unit_6_1_split_1
I1018 00:14:30.008857 30443 net.cpp:122] Setting up h_6_lstm1_unit_6_1_split
I1018 00:14:30.008867 30443 net.cpp:129] Top shape: 1 4 512 (2048)
I1018 00:14:30.008872 30443 net.cpp:129] Top shape: 1 4 512 (2048)
I1018 00:14:30.008875 30443 net.cpp:137] Memory required for data: 1704448
I1018 00:14:30.008879 30443 layer_factory.hpp:77] Creating layer lstm1_h_conted_6
I1018 00:14:30.008888 30443 net.cpp:84] Creating Layer lstm1_h_conted_6
I1018 00:14:30.008893 30443 net.cpp:406] lstm1_h_conted_6 <- h_6_lstm1_unit_6_1_split_0
I1018 00:14:30.008898 30443 net.cpp:406] lstm1_h_conted_6 <- cont_7_lstm1_cont_slice_6_split_0
I1018 00:14:30.008906 30443 net.cpp:380] lstm1_h_conted_6 -> h_conted_6
I1018 00:14:30.008967 30443 net.cpp:122] Setting up lstm1_h_conted_6
I1018 00:14:30.008976 30443 net.cpp:129] Top shape: 1 4 512 (2048)
I1018 00:14:30.008980 30443 net.cpp:137] Memory required for data: 1712640
I1018 00:14:30.008985 30443 layer_factory.hpp:77] Creating layer lstm1_transform_7
I1018 00:14:30.008993 30443 net.cpp:84] Creating Layer lstm1_transform_7
I1018 00:14:30.008999 30443 net.cpp:406] lstm1_transform_7 <- h_conted_6
I1018 00:14:30.009013 30443 net.cpp:380] lstm1_transform_7 -> W_hc_h_6
I1018 00:14:30.021059 30443 net.cpp:122] Setting up lstm1_transform_7
I1018 00:14:30.021075 30443 net.cpp:129] Top shape: 1 4 2048 (8192)
I1018 00:14:30.021080 30443 net.cpp:137] Memory required for data: 1745408
I1018 00:14:30.021088 30443 net.cpp:465] Sharing parameters 'W_hc' owned by layer 'lstm1_transform_1', param index 0
I1018 00:14:30.021093 30443 layer_factory.hpp:77] Creating layer lstm1_gate_input_7
I1018 00:14:30.021102 30443 net.cpp:84] Creating Layer lstm1_gate_input_7
I1018 00:14:30.021107 30443 net.cpp:406] lstm1_gate_input_7 <- W_hc_h_6
I1018 00:14:30.021113 30443 net.cpp:406] lstm1_gate_input_7 <- W_xc_x_7
I1018 00:14:30.021121 30443 net.cpp:380] lstm1_gate_input_7 -> gate_input_7
I1018 00:14:30.021148 30443 net.cpp:122] Setting up lstm1_gate_input_7
I1018 00:14:30.021158 30443 net.cpp:129] Top shape: 1 4 2048 (8192)
I1018 00:14:30.021162 30443 net.cpp:137] Memory required for data: 1778176
I1018 00:14:30.021167 30443 layer_factory.hpp:77] Creating layer lstm1_unit_7
I1018 00:14:30.021173 30443 net.cpp:84] Creating Layer lstm1_unit_7
I1018 00:14:30.021178 30443 net.cpp:406] lstm1_unit_7 <- c_6
I1018 00:14:30.021183 30443 net.cpp:406] lstm1_unit_7 <- gate_input_7
I1018 00:14:30.021188 30443 net.cpp:406] lstm1_unit_7 <- cont_7_lstm1_cont_slice_6_split_1
I1018 00:14:30.021194 30443 net.cpp:380] lstm1_unit_7 -> c_7
I1018 00:14:30.021203 30443 net.cpp:380] lstm1_unit_7 -> h_7
I1018 00:14:30.021247 30443 net.cpp:122] Setting up lstm1_unit_7
I1018 00:14:30.021256 30443 net.cpp:129] Top shape: 1 4 512 (2048)
I1018 00:14:30.021262 30443 net.cpp:129] Top shape: 1 4 512 (2048)
I1018 00:14:30.021265 30443 net.cpp:137] Memory required for data: 1794560
I1018 00:14:30.021270 30443 layer_factory.hpp:77] Creating layer h_7_lstm1_unit_7_1_split
I1018 00:14:30.021276 30443 net.cpp:84] Creating Layer h_7_lstm1_unit_7_1_split
I1018 00:14:30.021281 30443 net.cpp:406] h_7_lstm1_unit_7_1_split <- h_7
I1018 00:14:30.021286 30443 net.cpp:380] h_7_lstm1_unit_7_1_split -> h_7_lstm1_unit_7_1_split_0
I1018 00:14:30.021293 30443 net.cpp:380] h_7_lstm1_unit_7_1_split -> h_7_lstm1_unit_7_1_split_1
I1018 00:14:30.021325 30443 net.cpp:122] Setting up h_7_lstm1_unit_7_1_split
I1018 00:14:30.021333 30443 net.cpp:129] Top shape: 1 4 512 (2048)
I1018 00:14:30.021338 30443 net.cpp:129] Top shape: 1 4 512 (2048)
I1018 00:14:30.021342 30443 net.cpp:137] Memory required for data: 1810944
I1018 00:14:30.021347 30443 layer_factory.hpp:77] Creating layer lstm1_h_conted_7
I1018 00:14:30.021353 30443 net.cpp:84] Creating Layer lstm1_h_conted_7
I1018 00:14:30.021358 30443 net.cpp:406] lstm1_h_conted_7 <- h_7_lstm1_unit_7_1_split_0
I1018 00:14:30.021363 30443 net.cpp:406] lstm1_h_conted_7 <- cont_8_lstm1_cont_slice_7_split_0
I1018 00:14:30.021373 30443 net.cpp:380] lstm1_h_conted_7 -> h_conted_7
I1018 00:14:30.021430 30443 net.cpp:122] Setting up lstm1_h_conted_7
I1018 00:14:30.021440 30443 net.cpp:129] Top shape: 1 4 512 (2048)
I1018 00:14:30.021443 30443 net.cpp:137] Memory required for data: 1819136
I1018 00:14:30.021447 30443 layer_factory.hpp:77] Creating layer lstm1_transform_8
I1018 00:14:30.021456 30443 net.cpp:84] Creating Layer lstm1_transform_8
I1018 00:14:30.021461 30443 net.cpp:406] lstm1_transform_8 <- h_conted_7
I1018 00:14:30.021472 30443 net.cpp:380] lstm1_transform_8 -> W_hc_h_7
I1018 00:14:30.033320 30443 net.cpp:122] Setting up lstm1_transform_8
I1018 00:14:30.033334 30443 net.cpp:129] Top shape: 1 4 2048 (8192)
I1018 00:14:30.033349 30443 net.cpp:137] Memory required for data: 1851904
I1018 00:14:30.033356 30443 net.cpp:465] Sharing parameters 'W_hc' owned by layer 'lstm1_transform_1', param index 0
I1018 00:14:30.033361 30443 layer_factory.hpp:77] Creating layer lstm1_gate_input_8
I1018 00:14:30.033368 30443 net.cpp:84] Creating Layer lstm1_gate_input_8
I1018 00:14:30.033373 30443 net.cpp:406] lstm1_gate_input_8 <- W_hc_h_7
I1018 00:14:30.033380 30443 net.cpp:406] lstm1_gate_input_8 <- W_xc_x_8
I1018 00:14:30.033386 30443 net.cpp:380] lstm1_gate_input_8 -> gate_input_8
I1018 00:14:30.033416 30443 net.cpp:122] Setting up lstm1_gate_input_8
I1018 00:14:30.033424 30443 net.cpp:129] Top shape: 1 4 2048 (8192)
I1018 00:14:30.033428 30443 net.cpp:137] Memory required for data: 1884672
I1018 00:14:30.033433 30443 layer_factory.hpp:77] Creating layer lstm1_unit_8
I1018 00:14:30.033439 30443 net.cpp:84] Creating Layer lstm1_unit_8
I1018 00:14:30.033444 30443 net.cpp:406] lstm1_unit_8 <- c_7
I1018 00:14:30.033449 30443 net.cpp:406] lstm1_unit_8 <- gate_input_8
I1018 00:14:30.033455 30443 net.cpp:406] lstm1_unit_8 <- cont_8_lstm1_cont_slice_7_split_1
I1018 00:14:30.033462 30443 net.cpp:380] lstm1_unit_8 -> c_8
I1018 00:14:30.033468 30443 net.cpp:380] lstm1_unit_8 -> h_8
I1018 00:14:30.033514 30443 net.cpp:122] Setting up lstm1_unit_8
I1018 00:14:30.033524 30443 net.cpp:129] Top shape: 1 4 512 (2048)
I1018 00:14:30.033529 30443 net.cpp:129] Top shape: 1 4 512 (2048)
I1018 00:14:30.033532 30443 net.cpp:137] Memory required for data: 1901056
I1018 00:14:30.033536 30443 layer_factory.hpp:77] Creating layer lstm1_
I1018 00:14:30.033542 30443 net.cpp:84] Creating Layer lstm1_
I1018 00:14:30.033546 30443 net.cpp:406] lstm1_ <- c_8
I1018 00:14:30.033552 30443 net.cpp:380] lstm1_ -> c_T
I1018 00:14:30.033572 30443 net.cpp:122] Setting up lstm1_
I1018 00:14:30.033581 30443 net.cpp:129] Top shape: 1 4 512 (2048)
I1018 00:14:30.033586 30443 net.cpp:137] Memory required for data: 1909248
I1018 00:14:30.033589 30443 layer_factory.hpp:77] Creating layer lstm1_h_concat
I1018 00:14:30.033601 30443 net.cpp:84] Creating Layer lstm1_h_concat
I1018 00:14:30.033608 30443 net.cpp:406] lstm1_h_concat <- h_1_lstm1_unit_1_1_split_1
I1018 00:14:30.033614 30443 net.cpp:406] lstm1_h_concat <- h_2_lstm1_unit_2_1_split_1
I1018 00:14:30.033619 30443 net.cpp:406] lstm1_h_concat <- h_3_lstm1_unit_3_1_split_1
I1018 00:14:30.033624 30443 net.cpp:406] lstm1_h_concat <- h_4_lstm1_unit_4_1_split_1
I1018 00:14:30.033628 30443 net.cpp:406] lstm1_h_concat <- h_5_lstm1_unit_5_1_split_1
I1018 00:14:30.033633 30443 net.cpp:406] lstm1_h_concat <- h_6_lstm1_unit_6_1_split_1
I1018 00:14:30.033638 30443 net.cpp:406] lstm1_h_concat <- h_7_lstm1_unit_7_1_split_1
I1018 00:14:30.033643 30443 net.cpp:406] lstm1_h_concat <- h_8
I1018 00:14:30.033648 30443 net.cpp:380] lstm1_h_concat -> h
I1018 00:14:30.033679 30443 net.cpp:122] Setting up lstm1_h_concat
I1018 00:14:30.033685 30443 net.cpp:129] Top shape: 8 4 512 (16384)
I1018 00:14:30.033689 30443 net.cpp:137] Memory required for data: 1974784
I1018 00:14:30.033694 30443 layer_factory.hpp:77] Creating layer h_pseudoloss
I1018 00:14:30.033701 30443 net.cpp:84] Creating Layer h_pseudoloss
I1018 00:14:30.033705 30443 net.cpp:406] h_pseudoloss <- h
I1018 00:14:30.033715 30443 net.cpp:380] h_pseudoloss -> h_pseudoloss
I1018 00:14:30.033793 30443 net.cpp:122] Setting up h_pseudoloss
…
I1018 00:14:30.034112 30443 net.cpp:200] lstm1_ does not need backward computation.
I1018 00:14:30.034116 30443 net.cpp:242] This network produces output c_T
I1018 00:14:30.034121 30443 net.cpp:242] This network produces output h_pseudoloss
I1018 00:14:30.039819 30443 net.cpp:255] Network initialization done.
I1018 00:14:30.039974 30443 recurrent_layer.cpp:150] Adding parameter 0: W_xc
I1018 00:14:30.039984 30443 recurrent_layer.cpp:150] Adding parameter 1: b_c
I1018 00:14:30.039988 30443 recurrent_layer.cpp:150] Adding parameter 2: W_hc
I1018 00:14:30.040138 30443 net.cpp:122] Setting up lstm1
I1018 00:14:30.040153 30443 net.cpp:129] Top shape: 8 4 512 (16384)
I1018 00:14:30.040158 30443 net.cpp:137] Memory required for data: 765813264
I1018 00:14:30.040174 30443 layer_factory.hpp:77] Creating layer lstm1-drop
I1018 00:14:30.040185 30443 net.cpp:84] Creating Layer lstm1-drop
I1018 00:14:30.040191 30443 net.cpp:406] lstm1-drop <- lstm1
I1018 00:14:30.040199 30443 net.cpp:380] lstm1-drop -> lstm1-drop
I1018 00:14:30.040238 30443 net.cpp:122] Setting up lstm1-drop
I1018 00:14:30.040249 30443 net.cpp:129] Top shape: 8 4 512 (16384)
I1018 00:14:30.040253 30443 net.cpp:137] Memory required for data: 765878800
I1018 00:14:30.040258 30443 layer_factory.hpp:77] Creating layer fc-final
I1018 00:14:30.040279 30443 net.cpp:84] Creating Layer fc-final
I1018 00:14:30.040287 30443 net.cpp:406] fc-final <- lstm1-drop
I1018 00:14:30.040294 30443 net.cpp:380] fc-final -> fc-final
I1018 00:14:30.040627 30443 net.cpp:122] Setting up fc-final
I1018 00:14:30.040638 30443 net.cpp:129] Top shape: 8 4 10 (320)
I1018 00:14:30.040654 30443 net.cpp:137] Memory required for data: 765880080
I1018 00:14:30.040663 30443 layer_factory.hpp:77] Creating layer fc-final_fc-final_0_split
I1018 00:14:30.040668 30443 net.cpp:84] Creating Layer fc-final_fc-final_0_split
I1018 00:14:30.040673 30443 net.cpp:406] fc-final_fc-final_0_split <- fc-final
I1018 00:14:30.040679 30443 net.cpp:380] fc-final_fc-final_0_split -> fc-final_fc-final_0_split_0
I1018 00:14:30.040688 30443 net.cpp:380] fc-final_fc-final_0_split -> fc-final_fc-final_0_split_1
I1018 00:14:30.040725 30443 net.cpp:122] Setting up fc-final_fc-final_0_split
I1018 00:14:30.040735 30443 net.cpp:129] Top shape: 8 4 10 (320)
I1018 00:14:30.040740 30443 net.cpp:129] Top shape: 8 4 10 (320)
I1018 00:14:30.040745 30443 net.cpp:137] Memory required for data: 765882640
I1018 00:14:30.040748 30443 layer_factory.hpp:77] Creating layer loss
I1018 00:14:30.040758 30443 net.cpp:84] Creating Layer loss
I1018 00:14:30.040765 30443 net.cpp:406] loss <- fc-final_fc-final_0_split_0
I1018 00:14:30.040771 30443 net.cpp:406] loss <- reshape-label_label_tran_0_split_0
I1018 00:14:30.040776 30443 net.cpp:380] loss -> loss
…
I1018 00:14:30.042192 30443 net.cpp:294] The NetState phase (1) differed from the phase (0) specified by a rule in layer data
I1018 00:14:30.042409 30443 net.cpp:51] Initializing net from parameters: 
name: "VGG_16_layers_LSTM"
state {
  phase: TEST
  stage: "test-on-test"
}
layer {
  name: "data"
  type: "ImageData"
  top: "data"
  top: "label"
  include {
    phase: TEST
  }
  transform_param {
    mirror: false
    crop_size: 288
    mean_value: 104
    mean_value: 117
    mean_value: 123
  }
  image_data_param {
    source: "../Data/lsun_val_list.txt"
    batch_size: 50
    new_height: 320
    new_width: 320
  }
}
layer {
  name: "Silence"
  type: "Silence"
  bottom: "label"
  include {
    phase: TEST
  }
}
layer {
  name: "label_tran"
  type: "Python"
  bottom: "label"
  top: "reshape-label"
  top: "clip_markers"
  python_param {
    module: "data_preparation_sort_max_clip"
    layer: "ReshapeLabel"
  }
}
layer {
  name: "conv1_1"
  type: "Convolution"
  bottom: "data"
  top: "conv1_1"
  convolution_param {
    num_output: 64
    pad: 1
    kernel_size: 3
  }
}
layer {
  name: "relu1_1"
  type: "ReLU"
  bottom: "conv1_1"
  top: "conv1_1"
}
layer {
  name: "conv1_2"
  type: "Convolution"
  bottom: "conv1_1"
  top: "conv1_2"
  convolution_param {
    num_output: 64
    pad: 1
    kernel_size: 3
  }
}
layer {
  name: "relu1_2"
  type: "ReLU"
  bottom: "conv1_2"
  top: "conv1_2"
}
layer {
  name: "pool1"
  type: "Pooling"
  bottom: "conv1_2"
  top: "pool1"
  pooling_param {
    pool: MAX
    kernel_size: 2
    stride: 2
  }
}
layer {
  name: "conv2_1"
  type: "Convolution"
  bottom: "pool1"
  top: "conv2_1"
  convolution_param {
    num_output: 128
    pad: 1
    kernel_size: 3
  }
}
layer {
  name: "relu2_1"
  type: "ReLU"
  bottom: "conv2_1"
  top: "conv2_1"
}
layer {
  name: "conv2_2"
  type: "Convolution"
  bottom: "conv2_1"
  top: "conv2_2"
  convolution_param {
    num_output: 128
    pad: 1
    kernel_size: 3
  }
}
layer {
  name: "relu2_2"
  type: "ReLU"
  bottom: "conv2_2"
  top: "conv2_2"
}
layer {
  name: "pool2"
  type: "Pooling"
  bottom: "conv2_2"
  top: "pool2"
  pooling_param {
    pool: MAX
    kernel_size: 2
    stride: 2
  }
}
layer {
  name: "conv3_1"
  type: "Convolution"
  bottom: "pool2"
  top: "conv3_1"
  convolution_param {
    num_output: 256
    pad: 1
    kernel_size: 3
  }
}
layer {
  name: "relu3_1"
  type: "ReLU"
  bottom: "conv3_1"
  top: "conv3_1"
}
layer {
  name: "conv3_2"
  type: "Convolution"
  bottom: "conv3_1"
  top: "conv3_2"
  convolution_param {
    num_output: 256
    pad: 1
    kernel_size: 3
  }
}
layer {
  name: "relu3_2"
  type: "ReLU"
  bottom: "conv3_2"
  top: "conv3_2"
}
layer {
  name: "conv3_3"
  type: "Convolution"
  bottom: "conv3_2"
  top: "conv3_3"
  convolution_param {
    num_output: 256
    pad: 1
    kernel_size: 3
  }
}
layer {
  name: "relu3_3"
  type: "ReLU"
  bottom: "conv3_3"
  top: "conv3_3"
}
layer {
  name: "pool3"
  type: "Pooling"
  bottom: "conv3_3"
  top: "pool3"
  pooling_param {
    pool: MAX
    kernel_size: 2
    stride: 2
  }
}
layer {
  name: "conv4_1"
  type: "Convolution"
  bottom: "pool3"
  top: "conv4_1"
  convolution_param {
    num_output: 512
    pad: 1
    kernel_size: 3
  }
}
layer {
  name: "relu4_1"
  type: "ReLU"
  bottom: "conv4_1"
  top: "conv4_1"
}
layer {
  name: "conv4_2"
  type: "Convolution"
  bottom: "conv4_1"
  top: "conv4_2"
  convolution_param {
    num_output: 512
    pad: 1
    kernel_size: 3
  }
}
layer {
  name: "relu4_2"
  type: "ReLU"
  bottom: "conv4_2"
  top: "conv4_2"
}
layer {
  name: "conv4_3"
  type: "Convolution"
  bottom: "conv4_2"
  top: "conv4_3"
  convolution_param {
    num_output: 512
    pad: 1
    kernel_size: 3
  }
}
layer {
  name: "relu4_3"
  type: "ReLU"
  bottom: "conv4_3"
  top: "conv4_3"
}
layer {
  name: "pool4"
  type: "Pooling"
  bottom: "conv4_3"
  top: "pool4"
  pooling_param {
    pool: MAX
    kernel_size: 2
    stride: 2
  }
}
layer {
  name: "conv5_1"
  type: "Convolution"
  bottom: "pool4"
  top: "conv5_1"
  convolution_param {
    num_output: 512
    pad: 1
    kernel_size: 3
  }
}
layer {
  name: "relu5_1"
  type: "ReLU"
  bottom: "conv5_1"
  top: "conv5_1"
}
layer {
  name: "conv5_2"
  type: "Convolution"
  bottom: "conv5_1"
  top: "conv5_2"
  convolution_param {
    num_output: 512
    pad: 1
    kernel_size: 3
  }
}
layer {
  name: "relu5_2"
  type: "ReLU"
  bottom: "conv5_2"
  top: "conv5_2"
}
layer {
  name: "conv5_3"
  type: "Convolution"
  bottom: "conv5_2"
  top: "conv5_3"
  convolution_param {
    num_output: 512
    pad: 1
    kernel_size: 3
  }
}
layer {
  name: "relu5_3"
  type: "ReLU"
  bottom: "conv5_3"
  top: "conv5_3"
}
layer {
  name: "pool5"
  type: "Pooling"
  bottom: "conv5_3"
  top: "pool5"
  pooling_param {
    pool: MAX
    kernel_size: 2
    stride: 2
  }
}
layer {
  name: "fc6-conv"
  type: "Convolution"
  bottom: "pool5"
  top: "fc6-conv"
  convolution_param {
    num_output: 4096
    kernel_size: 7
  }
}
layer {
  name: "relu6"
  type: "ReLU"
  bottom: "fc6-conv"
  top: "fc6-conv"
}
layer {
  name: "drop6"
  type: "Dropout"
  bottom: "fc6-conv"
  top: "fc6-conv"
  dropout_param {
    dropout_ratio: 0.5
  }
}
layer {
  name: "fc7-conv"
  type: "Convolution"
  bottom: "fc6-conv"
  top: "fc7-conv"
  convolution_param {
    num_output: 4096
    kernel_size: 1
  }
}
layer {
  name: "relu7"
  type: "ReLU"
  bottom: "fc7-conv"
  top: "fc7-conv"
}
layer {
  name: "drop7"
  type: "Dropout"
  bottom: "fc7-conv"
  top: "fc7-conv"
  dropout_param {
    dropout_ratio: 0.9
  }
}
layer {
  name: "fc7-conv_re"
  type: "Reshape"
  bottom: "fc7-conv"
  top: "fc7-conv_re"
  reshape_param {
    shape {
      dim: 0
      dim: 0
      dim: -1
    }
  }
}
layer {
  name: "fc7-conv_tran"
  type: "Python"
  bottom: "fc7-conv_re"
  top: "fc7-conv_tran"
  python_param {
    module: "data_preparation_sort_max_clip"
    layer: "DataTransposeSortMaxClip"
  }
}
layer {
  name: "lstm1"
  type: "LSTM"
  bottom: "fc7-conv_tran"
  bottom: "clip_markers"
  top: "lstm1"
  recurrent_param {
    num_output: 512
    weight_filler {
      type: "uniform"
      min: -0.01
      max: 0.01
    }
    bias_filler {
      type: "constant"
      value: 0
    }
  }
}
layer {
  name: "lstm1-drop"
  type: "Dropout"
  bottom: "lstm1"
  top: "lstm1-drop"
  dropout_param {
    dropout_ratio: 0.5
  }
}
layer {
  name: "fc-final"
  type: "InnerProduct"
  bottom: "lstm1-drop"
  top: "fc-final"
  param {
    lr_mult: 1
    decay_mult: 1
  }
  param {
    lr_mult: 2
    decay_mult: 0
  }
  inner_product_param {
    num_output: 10
    weight_filler {
      type: "gaussian"
      std: 0.01
    }
    bias_filler {
      type: "constant"
      value: 0
    }
    axis: 2
  }
}
layer {
  name: "loss"
  type: "SoftmaxWithLoss"
  bottom: "fc-final"
  bottom: "reshape-label"
  top: "loss"
  softmax_param {
    axis: 2
  }
}
layer {
  name: "accuracy"
  type: "Accuracy"
  bottom: "fc-final"
  bottom: "reshape-label"
  top: "accuracy"
  accuracy_param {
    axis: 2
  }
}
I1018 00:14:30.042572 30443 layer_factory.hpp:77] Creating layer data
I1018 00:14:30.042590 30443 net.cpp:84] Creating Layer data
I1018 00:14:30.042596 30443 net.cpp:380] data -> data
I1018 00:14:30.042606 30443 net.cpp:380] data -> label
I1018 00:14:30.042616 30443 image_data_layer.cpp:38] Opening file ../Data/lsun_val_list.txt
I1018 00:14:30.043582 30443 image_data_layer.cpp:63] A total of 3000 images.
I1018 00:14:30.045480 30443 image_data_layer.cpp:90] output data size: 50,3,288,288
I1018 00:14:30.194270 30443 net.cpp:122] Setting up data
I1018 00:14:30.194329 30443 net.cpp:129] Top shape: 50 3 288 288 (12441600)
I1018 00:14:30.194342 30443 net.cpp:129] Top shape: 50 (50)
I1018 00:14:30.194350 30443 net.cpp:137] Memory required for data: 49766600
I1018 00:14:30.194365 30443 layer_factory.hpp:77] Creating layer label_data_1_split
I1018 00:14:30.194392 30443 net.cpp:84] Creating Layer label_data_1_split
I1018 00:14:30.194403 30443 net.cpp:406] label_data_1_split <- label
I1018 00:14:30.194422 30443 net.cpp:380] label_data_1_split -> label_data_1_split_0
I1018 00:14:30.194452 30443 net.cpp:380] label_data_1_split -> label_data_1_split_1
I1018 00:14:30.194581 30443 net.cpp:122] Setting up label_data_1_split
I1018 00:14:30.194597 30443 net.cpp:129] Top shape: 50 (50)
I1018 00:14:30.194607 30443 net.cpp:129] Top shape: 50 (50)
I1018 00:14:30.194615 30443 net.cpp:137] Memory required for data: 49767000
I1018 00:14:30.194623 30443 layer_factory.hpp:77] Creating layer Silence
I1018 00:14:30.194645 30443 net.cpp:84] Creating Layer Silence
I1018 00:14:30.194658 30443 net.cpp:406] Silence <- label_data_1_split_0
I1018 00:14:30.194667 30443 net.cpp:122] Setting up Silence
I1018 00:14:30.194674 30443 net.cpp:137] Memory required for data: 49767000
I1018 00:14:30.194684 30443 layer_factory.hpp:77] Creating layer label_tran
I1018 00:14:30.194784 30443 net.cpp:84] Creating Layer label_tran
I1018 00:14:30.194798 30443 net.cpp:406] label_tran <- label_data_1_split_1
I1018 00:14:30.194813 30443 net.cpp:380] label_tran -> reshape-label
I1018 00:14:30.194833 30443 net.cpp:380] label_tran -> clip_markers
I1018 00:14:30.195122 30443 net.cpp:122] Setting up label_tran
I1018 00:14:30.195144 30443 net.cpp:129] Top shape: 8 50 (400)
I1018 00:14:30.195155 30443 net.cpp:129] Top shape: 8 50 (400)
I1018 00:14:30.195163 30443 net.cpp:137] Memory required for data: 49770200
I1018 00:14:30.195171 30443 layer_factory.hpp:77] Creating layer reshape-label_label_tran_0_split
I1018 00:14:30.195186 30443 net.cpp:84] Creating Layer reshape-label_label_tran_0_split
I1018 00:14:30.195194 30443 net.cpp:406] reshape-label_label_tran_0_split <- reshape-label
I1018 00:14:30.195207 30443 net.cpp:380] reshape-label_label_tran_0_split -> reshape-label_label_tran_0_split_0
I1018 00:14:30.195225 30443 net.cpp:380] reshape-label_label_tran_0_split -> reshape-label_label_tran_0_split_1
I1018 00:14:30.195292 30443 net.cpp:122] Setting up reshape-label_label_tran_0_split
I1018 00:14:30.195312 30443 net.cpp:129] Top shape: 8 50 (400)
I1018 00:14:30.195324 30443 net.cpp:129] Top shape: 8 50 (400)
I1018 00:14:30.195333 30443 net.cpp:137] Memory required for data: 49773400
I1018 00:14:30.195341 30443 layer_factory.hpp:77] Creating layer conv1_1
I1018 00:14:30.195361 30443 net.cpp:84] Creating Layer conv1_1
I1018 00:14:30.195371 30443 net.cpp:406] conv1_1 <- data
I1018 00:14:30.195385 30443 net.cpp:380] conv1_1 -> conv1_1
I1018 00:14:30.195999 30443 net.cpp:122] Setting up conv1_1
I1018 00:14:30.196019 30443 net.cpp:129] Top shape: 50 64 288 288 (265420800)
I1018 00:14:30.196099 30443 net.cpp:137] Memory required for data: 1111456600
I1018 00:14:30.196128 30443 layer_factory.hpp:77] Creating layer relu1_1
I1018 00:14:30.196146 30443 net.cpp:84] Creating Layer relu1_1
I1018 00:14:30.196156 30443 net.cpp:406] relu1_1 <- conv1_1
I1018 00:14:30.196182 30443 net.cpp:367] relu1_1 -> conv1_1 (in-place)
I1018 00:14:30.196198 30443 net.cpp:122] Setting up relu1_1
I1018 00:14:30.196209 30443 net.cpp:129] Top shape: 50 64 288 288 (265420800)
I1018 00:14:30.196218 30443 net.cpp:137] Memory required for data: 2173139800
I1018 00:14:30.196226 30443 layer_factory.hpp:77] Creating layer conv1_2
I1018 00:14:30.196243 30443 net.cpp:84] Creating Layer conv1_2
I1018 00:14:30.196256 30443 net.cpp:406] conv1_2 <- conv1_1
I1018 00:14:30.196269 30443 net.cpp:380] conv1_2 -> conv1_2
I1018 00:14:30.196889 30443 net.cpp:122] Setting up conv1_2
I1018 00:14:30.196908 30443 net.cpp:129] Top shape: 50 64 288 288 (265420800)
I1018 00:14:30.196916 30443 net.cpp:137] Memory required for data: 3234823000
I1018 00:14:30.196933 30443 layer_factory.hpp:77] Creating layer relu1_2
I1018 00:14:30.196947 30443 net.cpp:84] Creating Layer relu1_2
I1018 00:14:30.196959 30443 net.cpp:406] relu1_2 <- conv1_2
I1018 00:14:30.196971 30443 net.cpp:367] relu1_2 -> conv1_2 (in-place)
I1018 00:14:30.196983 30443 net.cpp:122] Setting up relu1_2
I1018 00:14:30.196995 30443 net.cpp:129] Top shape: 50 64 288 288 (265420800)
I1018 00:14:30.197003 30443 net.cpp:137] Memory required for data: 4296506200
I1018 00:14:30.197010 30443 layer_factory.hpp:77] Creating layer pool1
I1018 00:14:30.197024 30443 net.cpp:84] Creating Layer pool1
I1018 00:14:30.197032 30443 net.cpp:406] pool1 <- conv1_2
I1018 00:14:30.197044 30443 net.cpp:380] pool1 -> pool1
I1018 00:14:30.197114 30443 net.cpp:122] Setting up pool1
I1018 00:14:30.197129 30443 net.cpp:129] Top shape: 50 64 144 144 (66355200)
I1018 00:14:30.197137 30443 net.cpp:137] Memory required for data: 4561927000
I1018 00:14:30.197144 30443 layer_factory.hpp:77] Creating layer conv2_1
I1018 00:14:30.197160 30443 net.cpp:84] Creating Layer conv2_1
I1018 00:14:30.197171 30443 net.cpp:406] conv2_1 <- pool1
I1018 00:14:30.197185 30443 net.cpp:380] conv2_1 -> conv2_1
I1018 00:14:30.198859 30443 net.cpp:122] Setting up conv2_1
I1018 00:14:30.198889 30443 net.cpp:129] Top shape: 50 128 144 144 (132710400)
I1018 00:14:30.198899 30443 net.cpp:137] Memory required for data: 5092768600
I1018 00:14:30.198918 30443 layer_factory.hpp:77] Creating layer relu2_1
I1018 00:14:30.198938 30443 net.cpp:84] Creating Layer relu2_1
I1018 00:14:30.198952 30443 net.cpp:406] relu2_1 <- conv2_1
I1018 00:14:30.198967 30443 net.cpp:367] relu2_1 -> conv2_1 (in-place)
I1018 00:14:30.199023 30443 net.cpp:122] Setting up relu2_1
I1018 00:14:30.199039 30443 net.cpp:129] Top shape: 50 128 144 144 (132710400)
I1018 00:14:30.199048 30443 net.cpp:137] Memory required for data: 5623610200
I1018 00:14:30.199055 30443 layer_factory.hpp:77] Creating layer conv2_2
I1018 00:14:30.199074 30443 net.cpp:84] Creating Layer conv2_2
I1018 00:14:30.199084 30443 net.cpp:406] conv2_2 <- conv2_1
I1018 00:14:30.199100 30443 net.cpp:380] conv2_2 -> conv2_2
I1018 00:14:30.203482 30443 net.cpp:122] Setting up conv2_2
I1018 00:14:30.203506 30443 net.cpp:129] Top shape: 50 128 144 144 (132710400)
I1018 00:14:30.203516 30443 net.cpp:137] Memory required for data: 6154451800
I1018 00:14:30.203529 30443 layer_factory.hpp:77] Creating layer relu2_2
I1018 00:14:30.203547 30443 net.cpp:84] Creating Layer relu2_2
I1018 00:14:30.203557 30443 net.cpp:406] relu2_2 <- conv2_2
I1018 00:14:30.203570 30443 net.cpp:367] relu2_2 -> conv2_2 (in-place)
I1018 00:14:30.203586 30443 net.cpp:122] Setting up relu2_2
I1018 00:14:30.203599 30443 net.cpp:129] Top shape: 50 128 144 144 (132710400)
I1018 00:14:30.203608 30443 net.cpp:137] Memory required for data: 6685293400
I1018 00:14:30.203618 30443 layer_factory.hpp:77] Creating layer pool2
I1018 00:14:30.203630 30443 net.cpp:84] Creating Layer pool2
I1018 00:14:30.203640 30443 net.cpp:406] pool2 <- conv2_2
I1018 00:14:30.203655 30443 net.cpp:380] pool2 -> pool2
I1018 00:14:30.203733 30443 net.cpp:122] Setting up pool2
I1018 00:14:30.203753 30443 net.cpp:129] Top shape: 50 128 72 72 (33177600)
I1018 00:14:30.203761 30443 net.cpp:137] Memory required for data: 6818003800
I1018 00:14:30.203770 30443 layer_factory.hpp:77] Creating layer conv3_1
I1018 00:14:30.203785 30443 net.cpp:84] Creating Layer conv3_1
I1018 00:14:30.203794 30443 net.cpp:406] conv3_1 <- pool2
I1018 00:14:30.203807 30443 net.cpp:380] conv3_1 -> conv3_1
I1018 00:14:30.205641 30443 net.cpp:122] Setting up conv3_1
I1018 00:14:30.205667 30443 net.cpp:129] Top shape: 50 256 72 72 (66355200)
I1018 00:14:30.205674 30443 net.cpp:137] Memory required for data: 7083424600
I1018 00:14:30.205694 30443 layer_factory.hpp:77] Creating layer relu3_1
I1018 00:14:30.205711 30443 net.cpp:84] Creating Layer relu3_1
I1018 00:14:30.205720 30443 net.cpp:406] relu3_1 <- conv3_1
I1018 00:14:30.205734 30443 net.cpp:367] relu3_1 -> conv3_1 (in-place)
I1018 00:14:30.205746 30443 net.cpp:122] Setting up relu3_1
I1018 00:14:30.205757 30443 net.cpp:129] Top shape: 50 256 72 72 (66355200)
I1018 00:14:30.205765 30443 net.cpp:137] Memory required for data: 7348845400
I1018 00:14:30.205773 30443 layer_factory.hpp:77] Creating layer conv3_2
I1018 00:14:30.205787 30443 net.cpp:84] Creating Layer conv3_2
I1018 00:14:30.205796 30443 net.cpp:406] conv3_2 <- conv3_1
I1018 00:14:30.205807 30443 net.cpp:380] conv3_2 -> conv3_2
I1018 00:14:30.208595 30443 net.cpp:122] Setting up conv3_2
I1018 00:14:30.208618 30443 net.cpp:129] Top shape: 50 256 72 72 (66355200)
I1018 00:14:30.208627 30443 net.cpp:137] Memory required for data: 7614266200
I1018 00:14:30.208642 30443 layer_factory.hpp:77] Creating layer relu3_2
I1018 00:14:30.208654 30443 net.cpp:84] Creating Layer relu3_2
I1018 00:14:30.208663 30443 net.cpp:406] relu3_2 <- conv3_2
I1018 00:14:30.208676 30443 net.cpp:367] relu3_2 -> conv3_2 (in-place)
I1018 00:14:30.208690 30443 net.cpp:122] Setting up relu3_2
I1018 00:14:30.208701 30443 net.cpp:129] Top shape: 50 256 72 72 (66355200)
I1018 00:14:30.208709 30443 net.cpp:137] Memory required for data: 7879687000
I1018 00:14:30.208716 30443 layer_factory.hpp:77] Creating layer conv3_3
I1018 00:14:30.208730 30443 net.cpp:84] Creating Layer conv3_3
I1018 00:14:30.208739 30443 net.cpp:406] conv3_3 <- conv3_2
I1018 00:14:30.208751 30443 net.cpp:380] conv3_3 -> conv3_3
I1018 00:14:30.212100 30443 net.cpp:122] Setting up conv3_3
I1018 00:14:30.212127 30443 net.cpp:129] Top shape: 50 256 72 72 (66355200)
I1018 00:14:30.212139 30443 net.cpp:137] Memory required for data: 8145107800
I1018 00:14:30.212152 30443 layer_factory.hpp:77] Creating layer relu3_3
I1018 00:14:30.212163 30443 net.cpp:84] Creating Layer relu3_3
I1018 00:14:30.212172 30443 net.cpp:406] relu3_3 <- conv3_3
I1018 00:14:30.212186 30443 net.cpp:367] relu3_3 -> conv3_3 (in-place)
I1018 00:14:30.212206 30443 net.cpp:122] Setting up relu3_3
I1018 00:14:30.212215 30443 net.cpp:129] Top shape: 50 256 72 72 (66355200)
I1018 00:14:30.212222 30443 net.cpp:137] Memory required for data: 8410528600
I1018 00:14:30.212229 30443 layer_factory.hpp:77] Creating layer pool3
I1018 00:14:30.212241 30443 net.cpp:84] Creating Layer pool3
I1018 00:14:30.212249 30443 net.cpp:406] pool3 <- conv3_3
I1018 00:14:30.212260 30443 net.cpp:380] pool3 -> pool3
I1018 00:14:30.212327 30443 net.cpp:122] Setting up pool3
I1018 00:14:30.212358 30443 net.cpp:129] Top shape: 50 256 36 36 (16588800)
I1018 00:14:30.212365 30443 net.cpp:137] Memory required for data: 8476883800
I1018 00:14:30.212373 30443 layer_factory.hpp:77] Creating layer conv4_1
I1018 00:14:30.212388 30443 net.cpp:84] Creating Layer conv4_1
I1018 00:14:30.212395 30443 net.cpp:406] conv4_1 <- pool3
I1018 00:14:30.212405 30443 net.cpp:380] conv4_1 -> conv4_1
I1018 00:14:30.217360 30443 net.cpp:122] Setting up conv4_1
I1018 00:14:30.217388 30443 net.cpp:129] Top shape: 50 512 36 36 (33177600)
I1018 00:14:30.217399 30443 net.cpp:137] Memory required for data: 8609594200
I1018 00:14:30.217416 30443 layer_factory.hpp:77] Creating layer relu4_1
I1018 00:14:30.217432 30443 net.cpp:84] Creating Layer relu4_1
I1018 00:14:30.217442 30443 net.cpp:406] relu4_1 <- conv4_1
I1018 00:14:30.217455 30443 net.cpp:367] relu4_1 -> conv4_1 (in-place)
I1018 00:14:30.217471 30443 net.cpp:122] Setting up relu4_1
I1018 00:14:30.217484 30443 net.cpp:129] Top shape: 50 512 36 36 (33177600)
I1018 00:14:30.217492 30443 net.cpp:137] Memory required for data: 8742304600
I1018 00:14:30.217501 30443 layer_factory.hpp:77] Creating layer conv4_2
I1018 00:14:30.217516 30443 net.cpp:84] Creating Layer conv4_2
I1018 00:14:30.217526 30443 net.cpp:406] conv4_2 <- conv4_1
I1018 00:14:30.217541 30443 net.cpp:380] conv4_2 -> conv4_2
I1018 00:14:30.233994 30443 net.cpp:122] Setting up conv4_2
I1018 00:14:30.234025 30443 net.cpp:129] Top shape: 50 512 36 36 (33177600)
I1018 00:14:30.234030 30443 net.cpp:137] Memory required for data: 8875015000
I1018 00:14:30.234051 30443 layer_factory.hpp:77] Creating layer relu4_2
I1018 00:14:30.234062 30443 net.cpp:84] Creating Layer relu4_2
I1018 00:14:30.234069 30443 net.cpp:406] relu4_2 <- conv4_2
I1018 00:14:30.234079 30443 net.cpp:367] relu4_2 -> conv4_2 (in-place)
I1018 00:14:30.234091 30443 net.cpp:122] Setting up relu4_2
I1018 00:14:30.234098 30443 net.cpp:129] Top shape: 50 512 36 36 (33177600)
I1018 00:14:30.234102 30443 net.cpp:137] Memory required for data: 9007725400
I1018 00:14:30.234107 30443 layer_factory.hpp:77] Creating layer conv4_3
I1018 00:14:30.234119 30443 net.cpp:84] Creating Layer conv4_3
I1018 00:14:30.234124 30443 net.cpp:406] conv4_3 <- conv4_2
I1018 00:14:30.234133 30443 net.cpp:380] conv4_3 -> conv4_3
I1018 00:14:30.253195 30443 net.cpp:122] Setting up conv4_3
I1018 00:14:30.253234 30443 net.cpp:129] Top shape: 50 512 36 36 (33177600)
I1018 00:14:30.253240 30443 net.cpp:137] Memory required for data: 9140435800
I1018 00:14:30.253252 30443 layer_factory.hpp:77] Creating layer relu4_3
I1018 00:14:30.253273 30443 net.cpp:84] Creating Layer relu4_3
I1018 00:14:30.253279 30443 net.cpp:406] relu4_3 <- conv4_3
I1018 00:14:30.253291 30443 net.cpp:367] relu4_3 -> conv4_3 (in-place)
I1018 00:14:30.253304 30443 net.cpp:122] Setting up relu4_3
I1018 00:14:30.253311 30443 net.cpp:129] Top shape: 50 512 36 36 (33177600)
I1018 00:14:30.253316 30443 net.cpp:137] Memory required for data: 9273146200
I1018 00:14:30.253320 30443 layer_factory.hpp:77] Creating layer pool4
I1018 00:14:30.253330 30443 net.cpp:84] Creating Layer pool4
I1018 00:14:30.253335 30443 net.cpp:406] pool4 <- conv4_3
I1018 00:14:30.253343 30443 net.cpp:380] pool4 -> pool4
I1018 00:14:30.253398 30443 net.cpp:122] Setting up pool4
I1018 00:14:30.253407 30443 net.cpp:129] Top shape: 50 512 18 18 (8294400)
I1018 00:14:30.253412 30443 net.cpp:137] Memory required for data: 9306323800
I1018 00:14:30.253417 30443 layer_factory.hpp:77] Creating layer conv5_1
I1018 00:14:30.253428 30443 net.cpp:84] Creating Layer conv5_1
I1018 00:14:30.253433 30443 net.cpp:406] conv5_1 <- pool4
I1018 00:14:30.253443 30443 net.cpp:380] conv5_1 -> conv5_1
I1018 00:14:30.260994 30443 net.cpp:122] Setting up conv5_1
I1018 00:14:30.261036 30443 net.cpp:129] Top shape: 50 512 18 18 (8294400)
I1018 00:14:30.261046 30443 net.cpp:137] Memory required for data: 9339501400
I1018 00:14:30.261060 30443 layer_factory.hpp:77] Creating layer relu5_1
I1018 00:14:30.261075 30443 net.cpp:84] Creating Layer relu5_1
I1018 00:14:30.261081 30443 net.cpp:406] relu5_1 <- conv5_1
I1018 00:14:30.261092 30443 net.cpp:367] relu5_1 -> conv5_1 (in-place)
I1018 00:14:30.261106 30443 net.cpp:122] Setting up relu5_1
I1018 00:14:30.261112 30443 net.cpp:129] Top shape: 50 512 18 18 (8294400)
I1018 00:14:30.261117 30443 net.cpp:137] Memory required for data: 9372679000
I1018 00:14:30.261122 30443 layer_factory.hpp:77] Creating layer conv5_2
I1018 00:14:30.261134 30443 net.cpp:84] Creating Layer conv5_2
I1018 00:14:30.261139 30443 net.cpp:406] conv5_2 <- conv5_1
I1018 00:14:30.261147 30443 net.cpp:380] conv5_2 -> conv5_2
I1018 00:14:30.273957 30443 net.cpp:122] Setting up conv5_2
I1018 00:14:30.273999 30443 net.cpp:129] Top shape: 50 512 18 18 (8294400)
I1018 00:14:30.274004 30443 net.cpp:137] Memory required for data: 9405856600
I1018 00:14:30.274019 30443 layer_factory.hpp:77] Creating layer relu5_2
I1018 00:14:30.274044 30443 net.cpp:84] Creating Layer relu5_2
I1018 00:14:30.274052 30443 net.cpp:406] relu5_2 <- conv5_2
I1018 00:14:30.274063 30443 net.cpp:367] relu5_2 -> conv5_2 (in-place)
I1018 00:14:30.274077 30443 net.cpp:122] Setting up relu5_2
I1018 00:14:30.274085 30443 net.cpp:129] Top shape: 50 512 18 18 (8294400)
I1018 00:14:30.274088 30443 net.cpp:137] Memory required for data: 9439034200
I1018 00:14:30.274093 30443 layer_factory.hpp:77] Creating layer conv5_3
I1018 00:14:30.274106 30443 net.cpp:84] Creating Layer conv5_3
I1018 00:14:30.274111 30443 net.cpp:406] conv5_3 <- conv5_2
I1018 00:14:30.274118 30443 net.cpp:380] conv5_3 -> conv5_3
I1018 00:14:30.281981 30443 net.cpp:122] Setting up conv5_3
I1018 00:14:30.282021 30443 net.cpp:129] Top shape: 50 512 18 18 (8294400)
I1018 00:14:30.282030 30443 net.cpp:137] Memory required for data: 9472211800
I1018 00:14:30.282047 30443 layer_factory.hpp:77] Creating layer relu5_3
I1018 00:14:30.282064 30443 net.cpp:84] Creating Layer relu5_3
I1018 00:14:30.282109 30443 net.cpp:406] relu5_3 <- conv5_3
I1018 00:14:30.282147 30443 net.cpp:367] relu5_3 -> conv5_3 (in-place)
I1018 00:14:30.282192 30443 net.cpp:122] Setting up relu5_3
I1018 00:14:30.282234 30443 net.cpp:129] Top shape: 50 512 18 18 (8294400)
I1018 00:14:30.282263 30443 net.cpp:137] Memory required for data: 9505389400
I1018 00:14:30.282292 30443 layer_factory.hpp:77] Creating layer pool5
I1018 00:14:30.282312 30443 net.cpp:84] Creating Layer pool5
I1018 00:14:30.282321 30443 net.cpp:406] pool5 <- conv5_3
I1018 00:14:30.282336 30443 net.cpp:380] pool5 -> pool5
I1018 00:14:30.282418 30443 net.cpp:122] Setting up pool5
I1018 00:14:30.282435 30443 net.cpp:129] Top shape: 50 512 9 9 (2073600)
I1018 00:14:30.282444 30443 net.cpp:137] Memory required for data: 9513683800
I1018 00:14:30.282450 30443 layer_factory.hpp:77] Creating layer fc6-conv
I1018 00:14:30.282462 30443 net.cpp:84] Creating Layer fc6-conv
I1018 00:14:30.282469 30443 net.cpp:406] fc6-conv <- pool5
I1018 00:14:30.282476 30443 net.cpp:380] fc6-conv -> fc6-conv
I1018 00:14:30.595160 30443 net.cpp:122] Setting up fc6-conv
I1018 00:14:30.595201 30443 net.cpp:129] Top shape: 50 4096 3 3 (1843200)
I1018 00:14:30.595208 30443 net.cpp:137] Memory required for data: 9521056600
I1018 00:14:30.595222 30443 layer_factory.hpp:77] Creating layer relu6
I1018 00:14:30.595238 30443 net.cpp:84] Creating Layer relu6
I1018 00:14:30.595245 30443 net.cpp:406] relu6 <- fc6-conv
I1018 00:14:30.595257 30443 net.cpp:367] relu6 -> fc6-conv (in-place)
I1018 00:14:30.595274 30443 net.cpp:122] Setting up relu6
I1018 00:14:30.595281 30443 net.cpp:129] Top shape: 50 4096 3 3 (1843200)
I1018 00:14:30.595285 30443 net.cpp:137] Memory required for data: 9528429400
I1018 00:14:30.595290 30443 layer_factory.hpp:77] Creating layer drop6
I1018 00:14:30.595300 30443 net.cpp:84] Creating Layer drop6
I1018 00:14:30.595306 30443 net.cpp:406] drop6 <- fc6-conv
I1018 00:14:30.595315 30443 net.cpp:367] drop6 -> fc6-conv (in-place)
I1018 00:14:30.595347 30443 net.cpp:122] Setting up drop6
I1018 00:14:30.595355 30443 net.cpp:129] Top shape: 50 4096 3 3 (1843200)
I1018 00:14:30.595360 30443 net.cpp:137] Memory required for data: 9535802200
I1018 00:14:30.595365 30443 layer_factory.hpp:77] Creating layer fc7-conv
I1018 00:14:30.595376 30443 net.cpp:84] Creating Layer fc7-conv
I1018 00:14:30.595381 30443 net.cpp:406] fc7-conv <- fc6-conv
I1018 00:14:30.595393 30443 net.cpp:380] fc7-conv -> fc7-conv
I1018 00:14:30.644987 30443 net.cpp:122] Setting up fc7-conv
I1018 00:14:30.645035 30443 net.cpp:129] Top shape: 50 4096 3 3 (1843200)
I1018 00:14:30.645042 30443 net.cpp:137] Memory required for data: 9543175000
I1018 00:14:30.645056 30443 layer_factory.hpp:77] Creating layer relu7
I1018 00:14:30.645071 30443 net.cpp:84] Creating Layer relu7
I1018 00:14:30.645078 30443 net.cpp:406] relu7 <- fc7-conv
I1018 00:14:30.645092 30443 net.cpp:367] relu7 -> fc7-conv (in-place)
I1018 00:14:30.645114 30443 net.cpp:122] Setting up relu7
I1018 00:14:30.645121 30443 net.cpp:129] Top shape: 50 4096 3 3 (1843200)
I1018 00:14:30.645125 30443 net.cpp:137] Memory required for data: 9550547800
I1018 00:14:30.645130 30443 layer_factory.hpp:77] Creating layer drop7
I1018 00:14:30.645141 30443 net.cpp:84] Creating Layer drop7
I1018 00:14:30.645145 30443 net.cpp:406] drop7 <- fc7-conv
I1018 00:14:30.645153 30443 net.cpp:367] drop7 -> fc7-conv (in-place)
I1018 00:14:30.645190 30443 net.cpp:122] Setting up drop7
I1018 00:14:30.645197 30443 net.cpp:129] Top shape: 50 4096 3 3 (1843200)
I1018 00:14:30.645202 30443 net.cpp:137] Memory required for data: 9557920600
I1018 00:14:30.645207 30443 layer_factory.hpp:77] Creating layer fc7-conv_re
I1018 00:14:30.645218 30443 net.cpp:84] Creating Layer fc7-conv_re
I1018 00:14:30.645223 30443 net.cpp:406] fc7-conv_re <- fc7-conv
I1018 00:14:30.645233 30443 net.cpp:380] fc7-conv_re -> fc7-conv_re
I1018 00:14:30.645268 30443 net.cpp:122] Setting up fc7-conv_re
I1018 00:14:30.645277 30443 net.cpp:129] Top shape: 50 4096 9 (1843200)
I1018 00:14:30.645282 30443 net.cpp:137] Memory required for data: 9565293400
I1018 00:14:30.645287 30443 layer_factory.hpp:77] Creating layer fc7-conv_tran
I1018 00:14:30.645550 30443 net.cpp:84] Creating Layer fc7-conv_tran
I1018 00:14:30.645563 30443 net.cpp:406] fc7-conv_tran <- fc7-conv_re
I1018 00:14:30.645571 30443 net.cpp:380] fc7-conv_tran -> fc7-conv_tran
I1018 00:14:30.649971 30443 net.cpp:122] Setting up fc7-conv_tran
I1018 00:14:30.649989 30443 net.cpp:129] Top shape: 8 50 4096 (1638400)
I1018 00:14:30.649994 30443 net.cpp:137] Memory required for data: 9571847000
I1018 00:14:30.650001 30443 layer_factory.hpp:77] Creating layer lstm1
I1018 00:14:30.650012 30443 net.cpp:84] Creating Layer lstm1
I1018 00:14:30.650018 30443 net.cpp:406] lstm1 <- fc7-conv_tran
I1018 00:14:30.650027 30443 net.cpp:406] lstm1 <- clip_markers
I1018 00:14:30.650043 30443 net.cpp:380] lstm1 -> lstm1
I1018 00:14:30.650055 30443 recurrent_layer.cpp:20] Initializing recurrent layer: assuming input batch contains 8 timesteps of 50 independent streams.
I1018 00:14:30.650506 30443 net.cpp:51] Initializing net from parameters: 
layer {
  name: "lstm1_"
  type: "Input"
  top: "x"
  top: "cont"
  input_param {
    shape {
      dim: 8
      dim: 50
      dim: 4096
    }
    shape {
      dim: 8
      dim: 50
    }
  }
}
layer {
  name: "lstm1_"
  type: "Input"
  top: "c_0"
  top: "h_0"
  input_param {
    shape {
      dim: 1
      dim: 50
      dim: 512
    }
    shape {
      dim: 1
      dim: 50
      dim: 512
    }
  }
}
layer {
  name: "lstm1_cont_slice"
  type: "Slice"
  bottom: "cont"
  top: "cont_1"
  top: "cont_2"
  top: "cont_3"
  top: "cont_4"
  top: "cont_5"
  top: "cont_6"
  top: "cont_7"
  top: "cont_8"
  slice_param {
    axis: 0
  }
}
layer {
  name: "lstm1_x_transform"
  type: "InnerProduct"
  bottom: "x"
  top: "W_xc_x"
  param {
    name: "W_xc"
  }
  param {
    name: "b_c"
  }
  propagate_down: true
  inner_product_param {
    num_output: 2048
    bias_term: true
    weight_filler {
      type: "uniform"
      min: -0.01
      max: 0.01
    }
    bias_filler {
      type: "constant"
      value: 0
    }
    axis: 2
  }
}
layer {
  name: "lstm1_W_xc_x_slice"
  type: "Slice"
  bottom: "W_xc_x"
  top: "W_xc_x_1"
  top: "W_xc_x_2"
  top: "W_xc_x_3"
  top: "W_xc_x_4"
  top: "W_xc_x_5"
  top: "W_xc_x_6"
  top: "W_xc_x_7"
  top: "W_xc_x_8"
  slice_param {
    axis: 0
  }
}
layer {
  name: "lstm1_h_conted_0"
  type: "Scale"
  bottom: "h_0"
  bottom: "cont_1"
  top: "h_conted_0"
  scale_param {
    axis: 0
  }
}
layer {
  name: "lstm1_transform_1"
  type: "InnerProduct"
  bottom: "h_conted_0"
  top: "W_hc_h_0"
  param {
    name: "W_hc"
  }
  inner_product_param {
    num_output: 2048
    bias_term: false
    weight_filler {
      type: "uniform"
      min: -0.01
      max: 0.01
    }
    axis: 2
  }
}
layer {
  name: "lstm1_gate_input_1"
  type: "Eltwise"
  bottom: "W_hc_h_0"
  bottom: "W_xc_x_1"
  top: "gate_input_1"
  eltwise_param {
    operation: SUM
  }
}
layer {
  name: "lstm1_unit_1"
  type: "LSTMUnit"
  bottom: "c_0"
  bottom: "gate_input_1"
  bottom: "cont_1"
  top: "c_1"
  top: "h_1"
}
layer {
  name: "lstm1_h_conted_1"
  type: "Scale"
  bottom: "h_1"
  bottom: "cont_2"
  top: "h_conted_1"
  scale_param {
    axis: 0
  }
}
layer {
  name: "lstm1_transform_2"
  type: "InnerProduct"
  bottom: "h_conted_1"
  top: "W_hc_h_1"
  param {
    name: "W_hc"
  }
  inner_product_param {
    num_output: 2048
    bias_term: false
    weight_filler {
      type: "uniform"
      min: -0.01
      max: 0.01
    }
    axis: 2
  }
}
layer {
  name: "lstm1_gate_input_2"
  type: "Eltwise"
  bottom: "W_hc_h_1"
  bottom: "W_xc_x_2"
  top: "gate_input_2"
  eltwise_param {
    operation: SUM
  }
}
layer {
  name: "lstm1_unit_2"
  type: "LSTMUnit"
  bottom: "c_1"
  bottom: "gate_input_2"
  bottom: "cont_2"
  top: "c_2"
  top: "h_2"
}
layer {
  name: "lstm1_h_conted_2"
  type: "Scale"
  bottom: "h_2"
  bottom: "cont_3"
  top: "h_conted_2"
  scale_param {
    axis: 0
  }
}
layer {
  name: "lstm1_transform_3"
  type: "InnerProduct"
  bottom: "h_conted_2"
  top: "W_hc_h_2"
  param {
    name: "W_hc"
  }
  inner_product_param {
    num_output: 2048
    bias_term: false
    weight_filler {
      type: "uniform"
      min: -0.01
      max: 0.01
    }
    axis: 2
  }
}
layer {
  name: "lstm1_gate_input_3"
  type: "Eltwise"
  bottom: "W_hc_h_2"
  bottom: "W_xc_x_3"
  top: "gate_input_3"
  eltwise_param {
    operation: SUM
  }
}
layer {
  name: "lstm1_unit_3"
  type: "LSTMUnit"
  bottom: "c_2"
  bottom: "gate_input_3"
  bottom: "cont_3"
  top: "c_3"
  top: "h_3"
}
layer {
  name: "lstm1_h_conted_3"
  type: "Scale"
  bottom: "h_3"
  bottom: "cont_4"
  top: "h_conted_3"
  scale_param {
    axis: 0
  }
}
layer {
  name: "lstm1_transform_4"
  type: "InnerProduct"
  bottom: "h_conted_3"
  top: "W_hc_h_3"
  param {
    name: "W_hc"
  }
  inner_product_param {
    num_output: 2048
    bias_term: false
    weight_filler {
      type: "uniform"
      min: -0.01
      max: 0.01
    }
    axis: 2
  }
}
layer {
  name: "lstm1_gate_input_4"
  type: "Eltwise"
  bottom: "W_hc_h_3"
  bottom: "W_xc_x_4"
  top: "gate_input_4"
  eltwise_param {
    operation: SUM
  }
}
layer {
  name: "lstm1_unit_4"
  type: "LSTMUnit"
  bottom: "c_3"
  bottom: "gate_input_4"
  bottom: "cont_4"
  top: "c_4"
  top: "h_4"
}
layer {
  name: "lstm1_h_conted_4"
  type: "Scale"
  bottom: "h_4"
  bottom: "cont_5"
  top: "h_conted_4"
  scale_param {
    axis: 0
  }
}
layer {
  name: "lstm1_transform_5"
  type: "InnerProduct"
  bottom: "h_conted_4"
  top: "W_hc_h_4"
  param {
    name: "W_hc"
  }
  inner_product_param {
    num_output: 2048
    bias_term: false
    weight_filler {
      type: "uniform"
      min: -0.01
      max: 0.01
    }
    axis: 2
  }
}
layer {
  name: "lstm1_gate_input_5"
  type: "Eltwise"
  bottom: "W_hc_h_4"
  bottom: "W_xc_x_5"
  top: "gate_input_5"
  eltwise_param {
    operation: SUM
  }
}
layer {
  name: "lstm1_unit_5"
  type: "LSTMUnit"
  bottom: "c_4"
  bottom: "gate_input_5"
  bottom: "cont_5"
  top: "c_5"
  top: "h_5"
}
layer {
  name: "lstm1_h_conted_5"
  type: "Scale"
  bottom: "h_5"
  bottom: "cont_6"
  top: "h_conted_5"
  scale_param {
    axis: 0
  }
}
layer {
  name: "lstm1_transform_6"
  type: "InnerProduct"
  bottom: "h_conted_5"
  top: "W_hc_h_5"
  param {
    name: "W_hc"
  }
  inner_product_param {
    num_output: 2048
    bias_term: false
    weight_filler {
      type: "uniform"
      min: -0.01
      max: 0.01
    }
    axis: 2
  }
}
layer {
  name: "lstm1_gate_input_6"
  type: "Eltwise"
  bottom: "W_hc_h_5"
  bottom: "W_xc_x_6"
  top: "gate_input_6"
  eltwise_param {
    operation: SUM
  }
}
layer {
  name: "lstm1_unit_6"
  type: "LSTMUnit"
  bottom: "c_5"
  bottom: "gate_input_6"
  bottom: "cont_6"
  top: "c_6"
  top: "h_6"
}
layer {
  name: "lstm1_h_conted_6"
  type: "Scale"
  bottom: "h_6"
  bottom: "cont_7"
  top: "h_conted_6"
  scale_param {
    axis: 0
  }
}
layer {
  name: "lstm1_transform_7"
  type: "InnerProduct"
  bottom: "h_conted_6"
  top: "W_hc_h_6"
  param {
    name: "W_hc"
  }
  inner_product_param {
    num_output: 2048
    bias_term: false
    weight_filler {
      type: "uniform"
      min: -0.01
      max: 0.01
    }
    axis: 2
  }
}
layer {
  name: "lstm1_gate_input_7"
  type: "Eltwise"
  bottom: "W_hc_h_6"
  bottom: "W_xc_x_7"
  top: "gate_input_7"
  eltwise_param {
    operation: SUM
  }
}
layer {
  name: "lstm1_unit_7"
  type: "LSTMUnit"
  bottom: "c_6"
  bottom: "gate_input_7"
  bottom: "cont_7"
  top: "c_7"
  top: "h_7"
}
layer {
  name: "lstm1_h_conted_7"
  type: "Scale"
  bottom: "h_7"
  bottom: "cont_8"
  top: "h_conted_7"
  scale_param {
    axis: 0
  }
}
layer {
  name: "lstm1_transform_8"
  type: "InnerProduct"
  bottom: "h_conted_7"
  top: "W_hc_h_7"
  param {
    name: "W_hc"
  }
  inner_product_param {
    num_output: 2048
    bias_term: false
    weight_filler {
      type: "uniform"
      min: -0.01
      max: 0.01
    }
    axis: 2
  }
}
layer {
  name: "lstm1_gate_input_8"
  type: "Eltwise"
  bottom: "W_hc_h_7"
  bottom: "W_xc_x_8"
  top: "gate_input_8"
  eltwise_param {
    operation: SUM
  }
}
layer {
  name: "lstm1_unit_8"
  type: "LSTMUnit"
  bottom: "c_7"
  bottom: "gate_input_8"
  bottom: "cont_8"
  top: "c_8"
  top: "h_8"
}
layer {
  name: "lstm1_"
  type: "Split"
  bottom: "c_8"
  top: "c_T"
}
layer {
  name: "lstm1_h_concat"
  type: "Concat"
  bottom: "h_1"
  bottom: "h_2"
  bottom: "h_3"
  bottom: "h_4"
  bottom: "h_5"
  bottom: "h_6"
  bottom: "h_7"
  bottom: "h_8"
  top: "h"
  concat_param {
    axis: 0
  }
}
layer {
  name: "h_pseudoloss"
  type: "Reduction"
  bottom: "h"
  top: "h_pseudoloss"
  loss_weight: 1
}
I1018 00:14:30.650825 30443 layer_factory.hpp:77] Creating layer lstm1_
I1018 00:14:30.650838 30443 net.cpp:84] Creating Layer lstm1_
I1018 00:14:30.650845 30443 net.cpp:380] lstm1_ -> x
I1018 00:14:30.650856 30443 net.cpp:380] lstm1_ -> cont
I1018 00:14:30.650910 30443 net.cpp:122] Setting up lstm1_
I1018 00:14:30.650919 30443 net.cpp:129] Top shape: 8 50 4096 (1638400)
I1018 00:14:30.650926 30443 net.cpp:129] Top shape: 8 50 (400)
I1018 00:14:30.650930 30443 net.cpp:137] Memory required for data: 6555200
I1018 00:14:30.650935 30443 layer_factory.hpp:77] Creating layer lstm1_
I1018 00:14:30.650943 30443 net.cpp:84] Creating Layer lstm1_
I1018 00:14:30.650949 30443 net.cpp:380] lstm1_ -> c_0
I1018 00:14:30.650959 30443 net.cpp:380] lstm1_ -> h_0
I1018 00:14:30.651005 30443 net.cpp:122] Setting up lstm1_
I1018 00:14:30.651013 30443 net.cpp:129] Top shape: 1 50 512 (25600)
I1018 00:14:30.651018 30443 net.cpp:129] Top shape: 1 50 512 (25600)
I1018 00:14:30.651023 30443 net.cpp:137] Memory required for data: 6760000
I1018 00:14:30.651027 30443 layer_factory.hpp:77] Creating layer lstm1_cont_slice
I1018 00:14:30.651036 30443 net.cpp:84] Creating Layer lstm1_cont_slice
I1018 00:14:30.651041 30443 net.cpp:406] lstm1_cont_slice <- cont
I1018 00:14:30.651049 30443 net.cpp:380] lstm1_cont_slice -> cont_1
I1018 00:14:30.651058 30443 net.cpp:380] lstm1_cont_slice -> cont_2
I1018 00:14:30.651067 30443 net.cpp:380] lstm1_cont_slice -> cont_3
I1018 00:14:30.651074 30443 net.cpp:380] lstm1_cont_slice -> cont_4
I1018 00:14:30.651082 30443 net.cpp:380] lstm1_cont_slice -> cont_5
I1018 00:14:30.651089 30443 net.cpp:380] lstm1_cont_slice -> cont_6
I1018 00:14:30.651096 30443 net.cpp:380] lstm1_cont_slice -> cont_7
I1018 00:14:30.651108 30443 net.cpp:380] lstm1_cont_slice -> cont_8
I1018 00:14:30.651237 30443 net.cpp:122] Setting up lstm1_cont_slice
I1018 00:14:30.651245 30443 net.cpp:129] Top shape: 1 50 (50)
I1018 00:14:30.651250 30443 net.cpp:129] Top shape: 1 50 (50)
I1018 00:14:30.651255 30443 net.cpp:129] Top shape: 1 50 (50)
I1018 00:14:30.651260 30443 net.cpp:129] Top shape: 1 50 (50)
I1018 00:14:30.651265 30443 net.cpp:129] Top shape: 1 50 (50)
I1018 00:14:30.651271 30443 net.cpp:129] Top shape: 1 50 (50)
I1018 00:14:30.651276 30443 net.cpp:129] Top shape: 1 50 (50)
I1018 00:14:30.651281 30443 net.cpp:129] Top shape: 1 50 (50)
I1018 00:14:30.651288 30443 net.cpp:137] Memory required for data: 6761600
I1018 00:14:30.651291 30443 layer_factory.hpp:77] Creating layer cont_1_lstm1_cont_slice_0_split
I1018 00:14:30.651299 30443 net.cpp:84] Creating Layer cont_1_lstm1_cont_slice_0_split
I1018 00:14:30.651304 30443 net.cpp:406] cont_1_lstm1_cont_slice_0_split <- cont_1
I1018 00:14:30.651310 30443 net.cpp:380] cont_1_lstm1_cont_slice_0_split -> cont_1_lstm1_cont_slice_0_split_0
I1018 00:14:30.651319 30443 net.cpp:380] cont_1_lstm1_cont_slice_0_split -> cont_1_lstm1_cont_slice_0_split_1
I1018 00:14:30.651360 30443 net.cpp:122] Setting up cont_1_lstm1_cont_slice_0_split
I1018 00:14:30.651367 30443 net.cpp:129] Top shape: 1 50 (50)
I1018 00:14:30.651373 30443 net.cpp:129] Top shape: 1 50 (50)
I1018 00:14:30.651377 30443 net.cpp:137] Memory required for data: 6762000
I1018 00:14:30.651383 30443 layer_factory.hpp:77] Creating layer cont_2_lstm1_cont_slice_1_split
I1018 00:14:30.651393 30443 net.cpp:84] Creating Layer cont_2_lstm1_cont_slice_1_split
I1018 00:14:30.651401 30443 net.cpp:406] cont_2_lstm1_cont_slice_1_split <- cont_2
I1018 00:14:30.651415 30443 net.cpp:380] cont_2_lstm1_cont_slice_1_split -> cont_2_lstm1_cont_slice_1_split_0
I1018 00:14:30.651427 30443 net.cpp:380] cont_2_lstm1_cont_slice_1_split -> cont_2_lstm1_cont_slice_1_split_1
I1018 00:14:30.651481 30443 net.cpp:122] Setting up cont_2_lstm1_cont_slice_1_split
I1018 00:14:30.651492 30443 net.cpp:129] Top shape: 1 50 (50)
I1018 00:14:30.651501 30443 net.cpp:129] Top shape: 1 50 (50)
I1018 00:14:30.651509 30443 net.cpp:137] Memory required for data: 6762400
I1018 00:14:30.651516 30443 layer_factory.hpp:77] Creating layer cont_3_lstm1_cont_slice_2_split
I1018 00:14:30.651527 30443 net.cpp:84] Creating Layer cont_3_lstm1_cont_slice_2_split
I1018 00:14:30.651536 30443 net.cpp:406] cont_3_lstm1_cont_slice_2_split <- cont_3
I1018 00:14:30.651546 30443 net.cpp:380] cont_3_lstm1_cont_slice_2_split -> cont_3_lstm1_cont_slice_2_split_0
I1018 00:14:30.651561 30443 net.cpp:380] cont_3_lstm1_cont_slice_2_split -> cont_3_lstm1_cont_slice_2_split_1
I1018 00:14:30.651612 30443 net.cpp:122] Setting up cont_3_lstm1_cont_slice_2_split
I1018 00:14:30.651625 30443 net.cpp:129] Top shape: 1 50 (50)
I1018 00:14:30.651633 30443 net.cpp:129] Top shape: 1 50 (50)
I1018 00:14:30.651640 30443 net.cpp:137] Memory required for data: 6762800
I1018 00:14:30.651645 30443 layer_factory.hpp:77] Creating layer cont_4_lstm1_cont_slice_3_split
I1018 00:14:30.651651 30443 net.cpp:84] Creating Layer cont_4_lstm1_cont_slice_3_split
I1018 00:14:30.651656 30443 net.cpp:406] cont_4_lstm1_cont_slice_3_split <- cont_4
I1018 00:14:30.651662 30443 net.cpp:380] cont_4_lstm1_cont_slice_3_split -> cont_4_lstm1_cont_slice_3_split_0
I1018 00:14:30.651670 30443 net.cpp:380] cont_4_lstm1_cont_slice_3_split -> cont_4_lstm1_cont_slice_3_split_1
I1018 00:14:30.651711 30443 net.cpp:122] Setting up cont_4_lstm1_cont_slice_3_split
I1018 00:14:30.651718 30443 net.cpp:129] Top shape: 1 50 (50)
I1018 00:14:30.651724 30443 net.cpp:129] Top shape: 1 50 (50)
I1018 00:14:30.651728 30443 net.cpp:137] Memory required for data: 6763200
I1018 00:14:30.651732 30443 layer_factory.hpp:77] Creating layer cont_5_lstm1_cont_slice_4_split
I1018 00:14:30.651738 30443 net.cpp:84] Creating Layer cont_5_lstm1_cont_slice_4_split
I1018 00:14:30.651742 30443 net.cpp:406] cont_5_lstm1_cont_slice_4_split <- cont_5
I1018 00:14:30.651752 30443 net.cpp:380] cont_5_lstm1_cont_slice_4_split -> cont_5_lstm1_cont_slice_4_split_0
I1018 00:14:30.651759 30443 net.cpp:380] cont_5_lstm1_cont_slice_4_split -> cont_5_lstm1_cont_slice_4_split_1
I1018 00:14:30.651799 30443 net.cpp:122] Setting up cont_5_lstm1_cont_slice_4_split
I1018 00:14:30.651806 30443 net.cpp:129] Top shape: 1 50 (50)
I1018 00:14:30.651813 30443 net.cpp:129] Top shape: 1 50 (50)
I1018 00:14:30.651816 30443 net.cpp:137] Memory required for data: 6763600
I1018 00:14:30.651820 30443 layer_factory.hpp:77] Creating layer cont_6_lstm1_cont_slice_5_split
I1018 00:14:30.651829 30443 net.cpp:84] Creating Layer cont_6_lstm1_cont_slice_5_split
I1018 00:14:30.651834 30443 net.cpp:406] cont_6_lstm1_cont_slice_5_split <- cont_6
I1018 00:14:30.651840 30443 net.cpp:380] cont_6_lstm1_cont_slice_5_split -> cont_6_lstm1_cont_slice_5_split_0
I1018 00:14:30.651847 30443 net.cpp:380] cont_6_lstm1_cont_slice_5_split -> cont_6_lstm1_cont_slice_5_split_1
I1018 00:14:30.651883 30443 net.cpp:122] Setting up cont_6_lstm1_cont_slice_5_split
I1018 00:14:30.651890 30443 net.cpp:129] Top shape: 1 50 (50)
I1018 00:14:30.651896 30443 net.cpp:129] Top shape: 1 50 (50)
I1018 00:14:30.651901 30443 net.cpp:137] Memory required for data: 6764000
I1018 00:14:30.651904 30443 layer_factory.hpp:77] Creating layer cont_7_lstm1_cont_slice_6_split
I1018 00:14:30.651911 30443 net.cpp:84] Creating Layer cont_7_lstm1_cont_slice_6_split
I1018 00:14:30.651916 30443 net.cpp:406] cont_7_lstm1_cont_slice_6_split <- cont_7
I1018 00:14:30.651921 30443 net.cpp:380] cont_7_lstm1_cont_slice_6_split -> cont_7_lstm1_cont_slice_6_split_0
I1018 00:14:30.651928 30443 net.cpp:380] cont_7_lstm1_cont_slice_6_split -> cont_7_lstm1_cont_slice_6_split_1
I1018 00:14:30.651964 30443 net.cpp:122] Setting up cont_7_lstm1_cont_slice_6_split
I1018 00:14:30.651976 30443 net.cpp:129] Top shape: 1 50 (50)
I1018 00:14:30.651981 30443 net.cpp:129] Top shape: 1 50 (50)
I1018 00:14:30.651985 30443 net.cpp:137] Memory required for data: 6764400
I1018 00:14:30.651990 30443 layer_factory.hpp:77] Creating layer cont_8_lstm1_cont_slice_7_split
I1018 00:14:30.651995 30443 net.cpp:84] Creating Layer cont_8_lstm1_cont_slice_7_split
I1018 00:14:30.652000 30443 net.cpp:406] cont_8_lstm1_cont_slice_7_split <- cont_8
I1018 00:14:30.652009 30443 net.cpp:380] cont_8_lstm1_cont_slice_7_split -> cont_8_lstm1_cont_slice_7_split_0
I1018 00:14:30.652015 30443 net.cpp:380] cont_8_lstm1_cont_slice_7_split -> cont_8_lstm1_cont_slice_7_split_1
I1018 00:14:30.652068 30443 net.cpp:122] Setting up cont_8_lstm1_cont_slice_7_split
I1018 00:14:30.652077 30443 net.cpp:129] Top shape: 1 50 (50)
I1018 00:14:30.652083 30443 net.cpp:129] Top shape: 1 50 (50)
I1018 00:14:30.652087 30443 net.cpp:137] Memory required for data: 6764800
I1018 00:14:30.652092 30443 layer_factory.hpp:77] Creating layer lstm1_x_transform
I1018 00:14:30.652102 30443 net.cpp:84] Creating Layer lstm1_x_transform
I1018 00:14:30.652107 30443 net.cpp:406] lstm1_x_transform <- x
I1018 00:14:30.652115 30443 net.cpp:380] lstm1_x_transform -> W_xc_x
I1018 00:14:30.759694 30443 net.cpp:122] Setting up lstm1_x_transform
I1018 00:14:30.759804 30443 net.cpp:129] Top shape: 8 50 2048 (819200)
I1018 00:14:30.759815 30443 net.cpp:137] Memory required for data: 10041600
I1018 00:14:30.759837 30443 layer_factory.hpp:77] Creating layer lstm1_W_xc_x_slice
I1018 00:14:30.759857 30443 net.cpp:84] Creating Layer lstm1_W_xc_x_slice
I1018 00:14:30.759865 30443 net.cpp:406] lstm1_W_xc_x_slice <- W_xc_x
I1018 00:14:30.759874 30443 net.cpp:380] lstm1_W_xc_x_slice -> W_xc_x_1
I1018 00:14:30.759888 30443 net.cpp:380] lstm1_W_xc_x_slice -> W_xc_x_2
I1018 00:14:30.759897 30443 net.cpp:380] lstm1_W_xc_x_slice -> W_xc_x_3
I1018 00:14:30.759905 30443 net.cpp:380] lstm1_W_xc_x_slice -> W_xc_x_4
I1018 00:14:30.759917 30443 net.cpp:380] lstm1_W_xc_x_slice -> W_xc_x_5
I1018 00:14:30.759927 30443 net.cpp:380] lstm1_W_xc_x_slice -> W_xc_x_6
I1018 00:14:30.759933 30443 net.cpp:380] lstm1_W_xc_x_slice -> W_xc_x_7
I1018 00:14:30.759940 30443 net.cpp:380] lstm1_W_xc_x_slice -> W_xc_x_8
I1018 00:14:30.760082 30443 net.cpp:122] Setting up lstm1_W_xc_x_slice
I1018 00:14:30.760094 30443 net.cpp:129] Top shape: 1 50 2048 (102400)
I1018 00:14:30.760100 30443 net.cpp:129] Top shape: 1 50 2048 (102400)
I1018 00:14:30.760107 30443 net.cpp:129] Top shape: 1 50 2048 (102400)
I1018 00:14:30.760113 30443 net.cpp:129] Top shape: 1 50 2048 (102400)
I1018 00:14:30.760118 30443 net.cpp:129] Top shape: 1 50 2048 (102400)
I1018 00:14:30.760123 30443 net.cpp:129] Top shape: 1 50 2048 (102400)
I1018 00:14:30.760128 30443 net.cpp:129] Top shape: 1 50 2048 (102400)
I1018 00:14:30.760133 30443 net.cpp:129] Top shape: 1 50 2048 (102400)
I1018 00:14:30.760138 30443 net.cpp:137] Memory required for data: 13318400
I1018 00:14:30.760143 30443 layer_factory.hpp:77] Creating layer lstm1_h_conted_0
I1018 00:14:30.760152 30443 net.cpp:84] Creating Layer lstm1_h_conted_0
I1018 00:14:30.760157 30443 net.cpp:406] lstm1_h_conted_0 <- h_0
I1018 00:14:30.760165 30443 net.cpp:406] lstm1_h_conted_0 <- cont_1_lstm1_cont_slice_0_split_0
I1018 00:14:30.760172 30443 net.cpp:380] lstm1_h_conted_0 -> h_conted_0
I1018 00:14:30.760258 30443 net.cpp:122] Setting up lstm1_h_conted_0
I1018 00:14:30.760267 30443 net.cpp:129] Top shape: 1 50 512 (25600)
I1018 00:14:30.760272 30443 net.cpp:137] Memory required for data: 13420800
I1018 00:14:30.760277 30443 layer_factory.hpp:77] Creating layer lstm1_transform_1
I1018 00:14:30.760288 30443 net.cpp:84] Creating Layer lstm1_transform_1
I1018 00:14:30.760293 30443 net.cpp:406] lstm1_transform_1 <- h_conted_0
I1018 00:14:30.760301 30443 net.cpp:380] lstm1_transform_1 -> W_hc_h_0
I1018 00:14:30.773753 30443 net.cpp:122] Setting up lstm1_transform_1
I1018 00:14:30.773773 30443 net.cpp:129] Top shape: 1 50 2048 (102400)
I1018 00:14:30.773778 30443 net.cpp:137] Memory required for data: 13830400
I1018 00:14:30.773789 30443 layer_factory.hpp:77] Creating layer lstm1_gate_input_1
I1018 00:14:30.773800 30443 net.cpp:84] Creating Layer lstm1_gate_input_1
I1018 00:14:30.773807 30443 net.cpp:406] lstm1_gate_input_1 <- W_hc_h_0
I1018 00:14:30.773813 30443 net.cpp:406] lstm1_gate_input_1 <- W_xc_x_1
I1018 00:14:30.773823 30443 net.cpp:380] lstm1_gate_input_1 -> gate_input_1
I1018 00:14:30.773855 30443 net.cpp:122] Setting up lstm1_gate_input_1
I1018 00:14:30.773865 30443 net.cpp:129] Top shape: 1 50 2048 (102400)
I1018 00:14:30.773870 30443 net.cpp:137] Memory required for data: 14240000
I1018 00:14:30.773875 30443 layer_factory.hpp:77] Creating layer lstm1_unit_1
I1018 00:14:30.773885 30443 net.cpp:84] Creating Layer lstm1_unit_1
I1018 00:14:30.773890 30443 net.cpp:406] lstm1_unit_1 <- c_0
I1018 00:14:30.773897 30443 net.cpp:406] lstm1_unit_1 <- gate_input_1
I1018 00:14:30.773903 30443 net.cpp:406] lstm1_unit_1 <- cont_1_lstm1_cont_slice_0_split_1
I1018 00:14:30.773910 30443 net.cpp:380] lstm1_unit_1 -> c_1
I1018 00:14:30.773919 30443 net.cpp:380] lstm1_unit_1 -> h_1
I1018 00:14:30.773977 30443 net.cpp:122] Setting up lstm1_unit_1
I1018 00:14:30.773983 30443 net.cpp:129] Top shape: 1 50 512 (25600)
I1018 00:14:30.773989 30443 net.cpp:129] Top shape: 1 50 512 (25600)
I1018 00:14:30.773994 30443 net.cpp:137] Memory required for data: 14444800
I1018 00:14:30.773999 30443 layer_factory.hpp:77] Creating layer h_1_lstm1_unit_1_1_split
I1018 00:14:30.774006 30443 net.cpp:84] Creating Layer h_1_lstm1_unit_1_1_split
I1018 00:14:30.774011 30443 net.cpp:406] h_1_lstm1_unit_1_1_split <- h_1
I1018 00:14:30.774018 30443 net.cpp:380] h_1_lstm1_unit_1_1_split -> h_1_lstm1_unit_1_1_split_0
I1018 00:14:30.774025 30443 net.cpp:380] h_1_lstm1_unit_1_1_split -> h_1_lstm1_unit_1_1_split_1
I1018 00:14:30.774068 30443 net.cpp:122] Setting up h_1_lstm1_unit_1_1_split
I1018 00:14:30.774075 30443 net.cpp:129] Top shape: 1 50 512 (25600)
I1018 00:14:30.774081 30443 net.cpp:129] Top shape: 1 50 512 (25600)
I1018 00:14:30.774085 30443 net.cpp:137] Memory required for data: 14649600
I1018 00:14:30.774091 30443 layer_factory.hpp:77] Creating layer lstm1_h_conted_1
I1018 00:14:30.774098 30443 net.cpp:84] Creating Layer lstm1_h_conted_1
I1018 00:14:30.774104 30443 net.cpp:406] lstm1_h_conted_1 <- h_1_lstm1_unit_1_1_split_0
I1018 00:14:30.774111 30443 net.cpp:406] lstm1_h_conted_1 <- cont_2_lstm1_cont_slice_1_split_0
I1018 00:14:30.774118 30443 net.cpp:380] lstm1_h_conted_1 -> h_conted_1
I1018 00:14:30.774188 30443 net.cpp:122] Setting up lstm1_h_conted_1
I1018 00:14:30.774204 30443 net.cpp:129] Top shape: 1 50 512 (25600)
I1018 00:14:30.774209 30443 net.cpp:137] Memory required for data: 14752000
I1018 00:14:30.774214 30443 layer_factory.hpp:77] Creating layer lstm1_transform_2
I1018 00:14:30.774221 30443 net.cpp:84] Creating Layer lstm1_transform_2
I1018 00:14:30.774226 30443 net.cpp:406] lstm1_transform_2 <- h_conted_1
I1018 00:14:30.774235 30443 net.cpp:380] lstm1_transform_2 -> W_hc_h_1
I1018 00:14:30.787714 30443 net.cpp:122] Setting up lstm1_transform_2
I1018 00:14:30.787736 30443 net.cpp:129] Top shape: 1 50 2048 (102400)
I1018 00:14:30.787741 30443 net.cpp:137] Memory required for data: 15161600
I1018 00:14:30.787748 30443 net.cpp:465] Sharing parameters 'W_hc' owned by layer 'lstm1_transform_1', param index 0
I1018 00:14:30.787755 30443 layer_factory.hpp:77] Creating layer lstm1_gate_input_2
I1018 00:14:30.787765 30443 net.cpp:84] Creating Layer lstm1_gate_input_2
I1018 00:14:30.787771 30443 net.cpp:406] lstm1_gate_input_2 <- W_hc_h_1
I1018 00:14:30.787778 30443 net.cpp:406] lstm1_gate_input_2 <- W_xc_x_2
I1018 00:14:30.787787 30443 net.cpp:380] lstm1_gate_input_2 -> gate_input_2
I1018 00:14:30.787824 30443 net.cpp:122] Setting up lstm1_gate_input_2
I1018 00:14:30.787832 30443 net.cpp:129] Top shape: 1 50 2048 (102400)
I1018 00:14:30.787837 30443 net.cpp:137] Memory required for data: 15571200
I1018 00:14:30.787842 30443 layer_factory.hpp:77] Creating layer lstm1_unit_2
I1018 00:14:30.787850 30443 net.cpp:84] Creating Layer lstm1_unit_2
I1018 00:14:30.787855 30443 net.cpp:406] lstm1_unit_2 <- c_1
I1018 00:14:30.787863 30443 net.cpp:406] lstm1_unit_2 <- gate_input_2
I1018 00:14:30.787868 30443 net.cpp:406] lstm1_unit_2 <- cont_2_lstm1_cont_slice_1_split_1
I1018 00:14:30.787874 30443 net.cpp:380] lstm1_unit_2 -> c_2
I1018 00:14:30.787883 30443 net.cpp:380] lstm1_unit_2 -> h_2
I1018 00:14:30.787942 30443 net.cpp:122] Setting up lstm1_unit_2
I1018 00:14:30.787950 30443 net.cpp:129] Top shape: 1 50 512 (25600)
I1018 00:14:30.787956 30443 net.cpp:129] Top shape: 1 50 512 (25600)
I1018 00:14:30.787961 30443 net.cpp:137] Memory required for data: 15776000
I1018 00:14:30.787966 30443 layer_factory.hpp:77] Creating layer h_2_lstm1_unit_2_1_split
I1018 00:14:30.787972 30443 net.cpp:84] Creating Layer h_2_lstm1_unit_2_1_split
I1018 00:14:30.787977 30443 net.cpp:406] h_2_lstm1_unit_2_1_split <- h_2
I1018 00:14:30.787984 30443 net.cpp:380] h_2_lstm1_unit_2_1_split -> h_2_lstm1_unit_2_1_split_0
I1018 00:14:30.787992 30443 net.cpp:380] h_2_lstm1_unit_2_1_split -> h_2_lstm1_unit_2_1_split_1
I1018 00:14:30.788038 30443 net.cpp:122] Setting up h_2_lstm1_unit_2_1_split
I1018 00:14:30.788048 30443 net.cpp:129] Top shape: 1 50 512 (25600)
I1018 00:14:30.788053 30443 net.cpp:129] Top shape: 1 50 512 (25600)
I1018 00:14:30.788058 30443 net.cpp:137] Memory required for data: 15980800
I1018 00:14:30.788063 30443 layer_factory.hpp:77] Creating layer lstm1_h_conted_2
I1018 00:14:30.788069 30443 net.cpp:84] Creating Layer lstm1_h_conted_2
I1018 00:14:30.788074 30443 net.cpp:406] lstm1_h_conted_2 <- h_2_lstm1_unit_2_1_split_0
I1018 00:14:30.788081 30443 net.cpp:406] lstm1_h_conted_2 <- cont_3_lstm1_cont_slice_2_split_0
I1018 00:14:30.788087 30443 net.cpp:380] lstm1_h_conted_2 -> h_conted_2
I1018 00:14:30.788159 30443 net.cpp:122] Setting up lstm1_h_conted_2
I1018 00:14:30.788167 30443 net.cpp:129] Top shape: 1 50 512 (25600)
I1018 00:14:30.788172 30443 net.cpp:137] Memory required for data: 16083200
I1018 00:14:30.788177 30443 layer_factory.hpp:77] Creating layer lstm1_transform_3
I1018 00:14:30.788187 30443 net.cpp:84] Creating Layer lstm1_transform_3
I1018 00:14:30.788192 30443 net.cpp:406] lstm1_transform_3 <- h_conted_2
I1018 00:14:30.788199 30443 net.cpp:380] lstm1_transform_3 -> W_hc_h_2
I1018 00:14:30.801683 30443 net.cpp:122] Setting up lstm1_transform_3
I1018 00:14:30.801702 30443 net.cpp:129] Top shape: 1 50 2048 (102400)
I1018 00:14:30.801707 30443 net.cpp:137] Memory required for data: 16492800
I1018 00:14:30.801717 30443 net.cpp:465] Sharing parameters 'W_hc' owned by layer 'lstm1_transform_1', param index 0
I1018 00:14:30.801762 30443 layer_factory.hpp:77] Creating layer lstm1_gate_input_3
I1018 00:14:30.801771 30443 net.cpp:84] Creating Layer lstm1_gate_input_3
I1018 00:14:30.801777 30443 net.cpp:406] lstm1_gate_input_3 <- W_hc_h_2
I1018 00:14:30.801786 30443 net.cpp:406] lstm1_gate_input_3 <- W_xc_x_3
I1018 00:14:30.801795 30443 net.cpp:380] lstm1_gate_input_3 -> gate_input_3
I1018 00:14:30.801838 30443 net.cpp:122] Setting up lstm1_gate_input_3
I1018 00:14:30.801847 30443 net.cpp:129] Top shape: 1 50 2048 (102400)
I1018 00:14:30.801851 30443 net.cpp:137] Memory required for data: 16902400
I1018 00:14:30.801856 30443 layer_factory.hpp:77] Creating layer lstm1_unit_3
I1018 00:14:30.801864 30443 net.cpp:84] Creating Layer lstm1_unit_3
I1018 00:14:30.801869 30443 net.cpp:406] lstm1_unit_3 <- c_2
I1018 00:14:30.801877 30443 net.cpp:406] lstm1_unit_3 <- gate_input_3
I1018 00:14:30.801882 30443 net.cpp:406] lstm1_unit_3 <- cont_3_lstm1_cont_slice_2_split_1
I1018 00:14:30.801888 30443 net.cpp:380] lstm1_unit_3 -> c_3
I1018 00:14:30.801898 30443 net.cpp:380] lstm1_unit_3 -> h_3
I1018 00:14:30.801950 30443 net.cpp:122] Setting up lstm1_unit_3
I1018 00:14:30.801959 30443 net.cpp:129] Top shape: 1 50 512 (25600)
I1018 00:14:30.801964 30443 net.cpp:129] Top shape: 1 50 512 (25600)
I1018 00:14:30.801968 30443 net.cpp:137] Memory required for data: 17107200
I1018 00:14:30.801973 30443 layer_factory.hpp:77] Creating layer h_3_lstm1_unit_3_1_split
I1018 00:14:30.801981 30443 net.cpp:84] Creating Layer h_3_lstm1_unit_3_1_split
I1018 00:14:30.801986 30443 net.cpp:406] h_3_lstm1_unit_3_1_split <- h_3
I1018 00:14:30.801992 30443 net.cpp:380] h_3_lstm1_unit_3_1_split -> h_3_lstm1_unit_3_1_split_0
I1018 00:14:30.802000 30443 net.cpp:380] h_3_lstm1_unit_3_1_split -> h_3_lstm1_unit_3_1_split_1
I1018 00:14:30.802039 30443 net.cpp:122] Setting up h_3_lstm1_unit_3_1_split
I1018 00:14:30.802047 30443 net.cpp:129] Top shape: 1 50 512 (25600)
I1018 00:14:30.802052 30443 net.cpp:129] Top shape: 1 50 512 (25600)
I1018 00:14:30.802057 30443 net.cpp:137] Memory required for data: 17312000
I1018 00:14:30.802060 30443 layer_factory.hpp:77] Creating layer lstm1_h_conted_3
I1018 00:14:30.802069 30443 net.cpp:84] Creating Layer lstm1_h_conted_3
I1018 00:14:30.802075 30443 net.cpp:406] lstm1_h_conted_3 <- h_3_lstm1_unit_3_1_split_0
I1018 00:14:30.802081 30443 net.cpp:406] lstm1_h_conted_3 <- cont_4_lstm1_cont_slice_3_split_0
I1018 00:14:30.802088 30443 net.cpp:380] lstm1_h_conted_3 -> h_conted_3
I1018 00:14:30.802156 30443 net.cpp:122] Setting up lstm1_h_conted_3
I1018 00:14:30.802172 30443 net.cpp:129] Top shape: 1 50 512 (25600)
I1018 00:14:30.802176 30443 net.cpp:137] Memory required for data: 17414400
I1018 00:14:30.802181 30443 layer_factory.hpp:77] Creating layer lstm1_transform_4
I1018 00:14:30.802191 30443 net.cpp:84] Creating Layer lstm1_transform_4
I1018 00:14:30.802197 30443 net.cpp:406] lstm1_transform_4 <- h_conted_3
I1018 00:14:30.802203 30443 net.cpp:380] lstm1_transform_4 -> W_hc_h_3
I1018 00:14:30.815444 30443 net.cpp:122] Setting up lstm1_transform_4
I1018 00:14:30.815464 30443 net.cpp:129] Top shape: 1 50 2048 (102400)
I1018 00:14:30.815469 30443 net.cpp:137] Memory required for data: 17824000
I1018 00:14:30.815474 30443 net.cpp:465] Sharing parameters 'W_hc' owned by layer 'lstm1_transform_1', param index 0
I1018 00:14:30.815480 30443 layer_factory.hpp:77] Creating layer lstm1_gate_input_4
I1018 00:14:30.815488 30443 net.cpp:84] Creating Layer lstm1_gate_input_4
I1018 00:14:30.815493 30443 net.cpp:406] lstm1_gate_input_4 <- W_hc_h_3
I1018 00:14:30.815500 30443 net.cpp:406] lstm1_gate_input_4 <- W_xc_x_4
I1018 00:14:30.815507 30443 net.cpp:380] lstm1_gate_input_4 -> gate_input_4
I1018 00:14:30.815541 30443 net.cpp:122] Setting up lstm1_gate_input_4
I1018 00:14:30.815548 30443 net.cpp:129] Top shape: 1 50 2048 (102400)
I1018 00:14:30.815552 30443 net.cpp:137] Memory required for data: 18233600
I1018 00:14:30.815558 30443 layer_factory.hpp:77] Creating layer lstm1_unit_4
I1018 00:14:30.815565 30443 net.cpp:84] Creating Layer lstm1_unit_4
I1018 00:14:30.815570 30443 net.cpp:406] lstm1_unit_4 <- c_3
I1018 00:14:30.815577 30443 net.cpp:406] lstm1_unit_4 <- gate_input_4
I1018 00:14:30.815582 30443 net.cpp:406] lstm1_unit_4 <- cont_4_lstm1_cont_slice_3_split_1
I1018 00:14:30.815589 30443 net.cpp:380] lstm1_unit_4 -> c_4
I1018 00:14:30.815598 30443 net.cpp:380] lstm1_unit_4 -> h_4
I1018 00:14:30.815650 30443 net.cpp:122] Setting up lstm1_unit_4
I1018 00:14:30.815659 30443 net.cpp:129] Top shape: 1 50 512 (25600)
I1018 00:14:30.815665 30443 net.cpp:129] Top shape: 1 50 512 (25600)
I1018 00:14:30.815668 30443 net.cpp:137] Memory required for data: 18438400
I1018 00:14:30.815673 30443 layer_factory.hpp:77] Creating layer h_4_lstm1_unit_4_1_split
I1018 00:14:30.815686 30443 net.cpp:84] Creating Layer h_4_lstm1_unit_4_1_split
I1018 00:14:30.815692 30443 net.cpp:406] h_4_lstm1_unit_4_1_split <- h_4
I1018 00:14:30.815699 30443 net.cpp:380] h_4_lstm1_unit_4_1_split -> h_4_lstm1_unit_4_1_split_0
I1018 00:14:30.815706 30443 net.cpp:380] h_4_lstm1_unit_4_1_split -> h_4_lstm1_unit_4_1_split_1
I1018 00:14:30.815754 30443 net.cpp:122] Setting up h_4_lstm1_unit_4_1_split
I1018 00:14:30.815822 30443 net.cpp:129] Top shape: 1 50 512 (25600)
I1018 00:14:30.815829 30443 net.cpp:129] Top shape: 1 50 512 (25600)
I1018 00:14:30.815834 30443 net.cpp:137] Memory required for data: 18643200
I1018 00:14:30.815838 30443 layer_factory.hpp:77] Creating layer lstm1_h_conted_4
I1018 00:14:30.815848 30443 net.cpp:84] Creating Layer lstm1_h_conted_4
I1018 00:14:30.815855 30443 net.cpp:406] lstm1_h_conted_4 <- h_4_lstm1_unit_4_1_split_0
I1018 00:14:30.815861 30443 net.cpp:406] lstm1_h_conted_4 <- cont_5_lstm1_cont_slice_4_split_0
I1018 00:14:30.815868 30443 net.cpp:380] lstm1_h_conted_4 -> h_conted_4
I1018 00:14:30.815944 30443 net.cpp:122] Setting up lstm1_h_conted_4
I1018 00:14:30.815954 30443 net.cpp:129] Top shape: 1 50 512 (25600)
I1018 00:14:30.815959 30443 net.cpp:137] Memory required for data: 18745600
I1018 00:14:30.815964 30443 layer_factory.hpp:77] Creating layer lstm1_transform_5
I1018 00:14:30.815978 30443 net.cpp:84] Creating Layer lstm1_transform_5
I1018 00:14:30.815984 30443 net.cpp:406] lstm1_transform_5 <- h_conted_4
I1018 00:14:30.815990 30443 net.cpp:380] lstm1_transform_5 -> W_hc_h_4
I1018 00:14:30.829172 30443 net.cpp:122] Setting up lstm1_transform_5
I1018 00:14:30.829191 30443 net.cpp:129] Top shape: 1 50 2048 (102400)
I1018 00:14:30.829196 30443 net.cpp:137] Memory required for data: 19155200
I1018 00:14:30.829202 30443 net.cpp:465] Sharing parameters 'W_hc' owned by layer 'lstm1_transform_1', param index 0
I1018 00:14:30.829208 30443 layer_factory.hpp:77] Creating layer lstm1_gate_input_5
I1018 00:14:30.829217 30443 net.cpp:84] Creating Layer lstm1_gate_input_5
I1018 00:14:30.829222 30443 net.cpp:406] lstm1_gate_input_5 <- W_hc_h_4
I1018 00:14:30.829231 30443 net.cpp:406] lstm1_gate_input_5 <- W_xc_x_5
I1018 00:14:30.829241 30443 net.cpp:380] lstm1_gate_input_5 -> gate_input_5
I1018 00:14:30.829273 30443 net.cpp:122] Setting up lstm1_gate_input_5
I1018 00:14:30.829283 30443 net.cpp:129] Top shape: 1 50 2048 (102400)
I1018 00:14:30.829288 30443 net.cpp:137] Memory required for data: 19564800
I1018 00:14:30.829293 30443 layer_factory.hpp:77] Creating layer lstm1_unit_5
I1018 00:14:30.829300 30443 net.cpp:84] Creating Layer lstm1_unit_5
I1018 00:14:30.829306 30443 net.cpp:406] lstm1_unit_5 <- c_4
I1018 00:14:30.829313 30443 net.cpp:406] lstm1_unit_5 <- gate_input_5
I1018 00:14:30.829319 30443 net.cpp:406] lstm1_unit_5 <- cont_5_lstm1_cont_slice_4_split_1
I1018 00:14:30.829327 30443 net.cpp:380] lstm1_unit_5 -> c_5
I1018 00:14:30.829335 30443 net.cpp:380] lstm1_unit_5 -> h_5
I1018 00:14:30.829388 30443 net.cpp:122] Setting up lstm1_unit_5
I1018 00:14:30.829396 30443 net.cpp:129] Top shape: 1 50 512 (25600)
I1018 00:14:30.829402 30443 net.cpp:129] Top shape: 1 50 512 (25600)
I1018 00:14:30.829406 30443 net.cpp:137] Memory required for data: 19769600
I1018 00:14:30.829411 30443 layer_factory.hpp:77] Creating layer h_5_lstm1_unit_5_1_split
I1018 00:14:30.829418 30443 net.cpp:84] Creating Layer h_5_lstm1_unit_5_1_split
I1018 00:14:30.829423 30443 net.cpp:406] h_5_lstm1_unit_5_1_split <- h_5
I1018 00:14:30.829430 30443 net.cpp:380] h_5_lstm1_unit_5_1_split -> h_5_lstm1_unit_5_1_split_0
I1018 00:14:30.829437 30443 net.cpp:380] h_5_lstm1_unit_5_1_split -> h_5_lstm1_unit_5_1_split_1
I1018 00:14:30.829476 30443 net.cpp:122] Setting up h_5_lstm1_unit_5_1_split
I1018 00:14:30.829483 30443 net.cpp:129] Top shape: 1 50 512 (25600)
I1018 00:14:30.829489 30443 net.cpp:129] Top shape: 1 50 512 (25600)
I1018 00:14:30.829493 30443 net.cpp:137] Memory required for data: 19974400
I1018 00:14:30.829499 30443 layer_factory.hpp:77] Creating layer lstm1_h_conted_5
I1018 00:14:30.829505 30443 net.cpp:84] Creating Layer lstm1_h_conted_5
I1018 00:14:30.829510 30443 net.cpp:406] lstm1_h_conted_5 <- h_5_lstm1_unit_5_1_split_0
I1018 00:14:30.829516 30443 net.cpp:406] lstm1_h_conted_5 <- cont_6_lstm1_cont_slice_5_split_0
I1018 00:14:30.829525 30443 net.cpp:380] lstm1_h_conted_5 -> h_conted_5
I1018 00:14:30.829592 30443 net.cpp:122] Setting up lstm1_h_conted_5
I1018 00:14:30.829605 30443 net.cpp:129] Top shape: 1 50 512 (25600)
I1018 00:14:30.829610 30443 net.cpp:137] Memory required for data: 20076800
I1018 00:14:30.829614 30443 layer_factory.hpp:77] Creating layer lstm1_transform_6
I1018 00:14:30.829623 30443 net.cpp:84] Creating Layer lstm1_transform_6
I1018 00:14:30.829628 30443 net.cpp:406] lstm1_transform_6 <- h_conted_5
I1018 00:14:30.829638 30443 net.cpp:380] lstm1_transform_6 -> W_hc_h_5
I1018 00:14:30.841851 30443 net.cpp:122] Setting up lstm1_transform_6
I1018 00:14:30.841867 30443 net.cpp:129] Top shape: 1 50 2048 (102400)
I1018 00:14:30.841871 30443 net.cpp:137] Memory required for data: 20486400
I1018 00:14:30.841876 30443 net.cpp:465] Sharing parameters 'W_hc' owned by layer 'lstm1_transform_1', param index 0
I1018 00:14:30.841881 30443 layer_factory.hpp:77] Creating layer lstm1_gate_input_6
I1018 00:14:30.841889 30443 net.cpp:84] Creating Layer lstm1_gate_input_6
I1018 00:14:30.841894 30443 net.cpp:406] lstm1_gate_input_6 <- W_hc_h_5
I1018 00:14:30.841902 30443 net.cpp:406] lstm1_gate_input_6 <- W_xc_x_6
I1018 00:14:30.841909 30443 net.cpp:380] lstm1_gate_input_6 -> gate_input_6
I1018 00:14:30.841938 30443 net.cpp:122] Setting up lstm1_gate_input_6
I1018 00:14:30.841944 30443 net.cpp:129] Top shape: 1 50 2048 (102400)
I1018 00:14:30.841948 30443 net.cpp:137] Memory required for data: 20896000
I1018 00:14:30.841953 30443 layer_factory.hpp:77] Creating layer lstm1_unit_6
I1018 00:14:30.841958 30443 net.cpp:84] Creating Layer lstm1_unit_6
I1018 00:14:30.841964 30443 net.cpp:406] lstm1_unit_6 <- c_5
I1018 00:14:30.841969 30443 net.cpp:406] lstm1_unit_6 <- gate_input_6
I1018 00:14:30.841974 30443 net.cpp:406] lstm1_unit_6 <- cont_6_lstm1_cont_slice_5_split_1
I1018 00:14:30.841979 30443 net.cpp:380] lstm1_unit_6 -> c_6
I1018 00:14:30.841986 30443 net.cpp:380] lstm1_unit_6 -> h_6
I1018 00:14:30.842041 30443 net.cpp:122] Setting up lstm1_unit_6
I1018 00:14:30.842047 30443 net.cpp:129] Top shape: 1 50 512 (25600)
I1018 00:14:30.842052 30443 net.cpp:129] Top shape: 1 50 512 (25600)
I1018 00:14:30.842056 30443 net.cpp:137] Memory required for data: 21100800
I1018 00:14:30.842061 30443 layer_factory.hpp:77] Creating layer h_6_lstm1_unit_6_1_split
I1018 00:14:30.842067 30443 net.cpp:84] Creating Layer h_6_lstm1_unit_6_1_split
I1018 00:14:30.842070 30443 net.cpp:406] h_6_lstm1_unit_6_1_split <- h_6
I1018 00:14:30.842077 30443 net.cpp:380] h_6_lstm1_unit_6_1_split -> h_6_lstm1_unit_6_1_split_0
I1018 00:14:30.842083 30443 net.cpp:380] h_6_lstm1_unit_6_1_split -> h_6_lstm1_unit_6_1_split_1
I1018 00:14:30.842118 30443 net.cpp:122] Setting up h_6_lstm1_unit_6_1_split
I1018 00:14:30.842125 30443 net.cpp:129] Top shape: 1 50 512 (25600)
I1018 00:14:30.842130 30443 net.cpp:129] Top shape: 1 50 512 (25600)
I1018 00:14:30.842134 30443 net.cpp:137] Memory required for data: 21305600
I1018 00:14:30.842139 30443 layer_factory.hpp:77] Creating layer lstm1_h_conted_6
I1018 00:14:30.842145 30443 net.cpp:84] Creating Layer lstm1_h_conted_6
I1018 00:14:30.842149 30443 net.cpp:406] lstm1_h_conted_6 <- h_6_lstm1_unit_6_1_split_0
I1018 00:14:30.842155 30443 net.cpp:406] lstm1_h_conted_6 <- cont_7_lstm1_cont_slice_6_split_0
I1018 00:14:30.842160 30443 net.cpp:380] lstm1_h_conted_6 -> h_conted_6
I1018 00:14:30.842221 30443 net.cpp:122] Setting up lstm1_h_conted_6
I1018 00:14:30.842228 30443 net.cpp:129] Top shape: 1 50 512 (25600)
I1018 00:14:30.842232 30443 net.cpp:137] Memory required for data: 21408000
I1018 00:14:30.842236 30443 layer_factory.hpp:77] Creating layer lstm1_transform_7
I1018 00:14:30.842243 30443 net.cpp:84] Creating Layer lstm1_transform_7
I1018 00:14:30.842247 30443 net.cpp:406] lstm1_transform_7 <- h_conted_6
I1018 00:14:30.842257 30443 net.cpp:380] lstm1_transform_7 -> W_hc_h_6
I1018 00:14:30.856278 30443 net.cpp:122] Setting up lstm1_transform_7
I1018 00:14:30.856294 30443 net.cpp:129] Top shape: 1 50 2048 (102400)
I1018 00:14:30.856298 30443 net.cpp:137] Memory required for data: 21817600
I1018 00:14:30.856307 30443 net.cpp:465] Sharing parameters 'W_hc' owned by layer 'lstm1_transform_1', param index 0
I1018 00:14:30.856312 30443 layer_factory.hpp:77] Creating layer lstm1_gate_input_7
I1018 00:14:30.856319 30443 net.cpp:84] Creating Layer lstm1_gate_input_7
I1018 00:14:30.856324 30443 net.cpp:406] lstm1_gate_input_7 <- W_hc_h_6
I1018 00:14:30.856330 30443 net.cpp:406] lstm1_gate_input_7 <- W_xc_x_7
I1018 00:14:30.856336 30443 net.cpp:380] lstm1_gate_input_7 -> gate_input_7
I1018 00:14:30.856367 30443 net.cpp:122] Setting up lstm1_gate_input_7
I1018 00:14:30.856374 30443 net.cpp:129] Top shape: 1 50 2048 (102400)
I1018 00:14:30.856379 30443 net.cpp:137] Memory required for data: 22227200
I1018 00:14:30.856382 30443 layer_factory.hpp:77] Creating layer lstm1_unit_7
I1018 00:14:30.856389 30443 net.cpp:84] Creating Layer lstm1_unit_7
I1018 00:14:30.856393 30443 net.cpp:406] lstm1_unit_7 <- c_6
I1018 00:14:30.856400 30443 net.cpp:406] lstm1_unit_7 <- gate_input_7
I1018 00:14:30.856405 30443 net.cpp:406] lstm1_unit_7 <- cont_7_lstm1_cont_slice_6_split_1
I1018 00:14:30.856410 30443 net.cpp:380] lstm1_unit_7 -> c_7
I1018 00:14:30.856417 30443 net.cpp:380] lstm1_unit_7 -> h_7
I1018 00:14:30.856467 30443 net.cpp:122] Setting up lstm1_unit_7
I1018 00:14:30.856473 30443 net.cpp:129] Top shape: 1 50 512 (25600)
I1018 00:14:30.856478 30443 net.cpp:129] Top shape: 1 50 512 (25600)
I1018 00:14:30.856482 30443 net.cpp:137] Memory required for data: 22432000
I1018 00:14:30.856487 30443 layer_factory.hpp:77] Creating layer h_7_lstm1_unit_7_1_split
I1018 00:14:30.856492 30443 net.cpp:84] Creating Layer h_7_lstm1_unit_7_1_split
I1018 00:14:30.856498 30443 net.cpp:406] h_7_lstm1_unit_7_1_split <- h_7
I1018 00:14:30.856503 30443 net.cpp:380] h_7_lstm1_unit_7_1_split -> h_7_lstm1_unit_7_1_split_0
I1018 00:14:30.856509 30443 net.cpp:380] h_7_lstm1_unit_7_1_split -> h_7_lstm1_unit_7_1_split_1
I1018 00:14:30.856544 30443 net.cpp:122] Setting up h_7_lstm1_unit_7_1_split
I1018 00:14:30.856550 30443 net.cpp:129] Top shape: 1 50 512 (25600)
I1018 00:14:30.856555 30443 net.cpp:129] Top shape: 1 50 512 (25600)
I1018 00:14:30.856559 30443 net.cpp:137] Memory required for data: 22636800
I1018 00:14:30.856564 30443 layer_factory.hpp:77] Creating layer lstm1_h_conted_7
I1018 00:14:30.856572 30443 net.cpp:84] Creating Layer lstm1_h_conted_7
I1018 00:14:30.856577 30443 net.cpp:406] lstm1_h_conted_7 <- h_7_lstm1_unit_7_1_split_0
I1018 00:14:30.856582 30443 net.cpp:406] lstm1_h_conted_7 <- cont_8_lstm1_cont_slice_7_split_0
I1018 00:14:30.856588 30443 net.cpp:380] lstm1_h_conted_7 -> h_conted_7
I1018 00:14:30.856648 30443 net.cpp:122] Setting up lstm1_h_conted_7
I1018 00:14:30.856667 30443 net.cpp:129] Top shape: 1 50 512 (25600)
I1018 00:14:30.856670 30443 net.cpp:137] Memory required for data: 22739200
I1018 00:14:30.856674 30443 layer_factory.hpp:77] Creating layer lstm1_transform_8
I1018 00:14:30.856681 30443 net.cpp:84] Creating Layer lstm1_transform_8
I1018 00:14:30.856686 30443 net.cpp:406] lstm1_transform_8 <- h_conted_7
I1018 00:14:30.856693 30443 net.cpp:380] lstm1_transform_8 -> W_hc_h_7
I1018 00:14:30.868472 30443 net.cpp:122] Setting up lstm1_transform_8
I1018 00:14:30.868489 30443 net.cpp:129] Top shape: 1 50 2048 (102400)
I1018 00:14:30.868494 30443 net.cpp:137] Memory required for data: 23148800
I1018 00:14:30.868499 30443 net.cpp:465] Sharing parameters 'W_hc' owned by layer 'lstm1_transform_1', param index 0
I1018 00:14:30.868504 30443 layer_factory.hpp:77] Creating layer lstm1_gate_input_8
I1018 00:14:30.868511 30443 net.cpp:84] Creating Layer lstm1_gate_input_8
I1018 00:14:30.868515 30443 net.cpp:406] lstm1_gate_input_8 <- W_hc_h_7
I1018 00:14:30.868522 30443 net.cpp:406] lstm1_gate_input_8 <- W_xc_x_8
I1018 00:14:30.868530 30443 net.cpp:380] lstm1_gate_input_8 -> gate_input_8
I1018 00:14:30.868561 30443 net.cpp:122] Setting up lstm1_gate_input_8
I1018 00:14:30.868567 30443 net.cpp:129] Top shape: 1 50 2048 (102400)
I1018 00:14:30.868571 30443 net.cpp:137] Memory required for data: 23558400
I1018 00:14:30.868576 30443 layer_factory.hpp:77] Creating layer lstm1_unit_8
I1018 00:14:30.868582 30443 net.cpp:84] Creating Layer lstm1_unit_8
I1018 00:14:30.868587 30443 net.cpp:406] lstm1_unit_8 <- c_7
I1018 00:14:30.868592 30443 net.cpp:406] lstm1_unit_8 <- gate_input_8
I1018 00:14:30.868597 30443 net.cpp:406] lstm1_unit_8 <- cont_8_lstm1_cont_slice_7_split_1
I1018 00:14:30.868602 30443 net.cpp:380] lstm1_unit_8 -> c_8
I1018 00:14:30.868609 30443 net.cpp:380] lstm1_unit_8 -> h_8
I1018 00:14:30.868657 30443 net.cpp:122] Setting up lstm1_unit_8
I1018 00:14:30.868664 30443 net.cpp:129] Top shape: 1 50 512 (25600)
I1018 00:14:30.868669 30443 net.cpp:129] Top shape: 1 50 512 (25600)
I1018 00:14:30.868674 30443 net.cpp:137] Memory required for data: 23763200
I1018 00:14:30.868677 30443 layer_factory.hpp:77] Creating layer lstm1_
I1018 00:14:30.868687 30443 net.cpp:84] Creating Layer lstm1_
I1018 00:14:30.868691 30443 net.cpp:406] lstm1_ <- c_8
I1018 00:14:30.868697 30443 net.cpp:380] lstm1_ -> c_T
I1018 00:14:30.868719 30443 net.cpp:122] Setting up lstm1_
I1018 00:14:30.868726 30443 net.cpp:129] Top shape: 1 50 512 (25600)
I1018 00:14:30.868731 30443 net.cpp:137] Memory required for data: 23865600
I1018 00:14:30.868734 30443 layer_factory.hpp:77] Creating layer lstm1_h_concat
I1018 00:14:30.868743 30443 net.cpp:84] Creating Layer lstm1_h_concat
I1018 00:14:30.868747 30443 net.cpp:406] lstm1_h_concat <- h_1_lstm1_unit_1_1_split_1
I1018 00:14:30.868753 30443 net.cpp:406] lstm1_h_concat <- h_2_lstm1_unit_2_1_split_1
I1018 00:14:30.868759 30443 net.cpp:406] lstm1_h_concat <- h_3_lstm1_unit_3_1_split_1
I1018 00:14:30.868764 30443 net.cpp:406] lstm1_h_concat <- h_4_lstm1_unit_4_1_split_1
I1018 00:14:30.868768 30443 net.cpp:406] lstm1_h_concat <- h_5_lstm1_unit_5_1_split_1
I1018 00:14:30.868773 30443 net.cpp:406] lstm1_h_concat <- h_6_lstm1_unit_6_1_split_1
I1018 00:14:30.868777 30443 net.cpp:406] lstm1_h_concat <- h_7_lstm1_unit_7_1_split_1
I1018 00:14:30.868782 30443 net.cpp:406] lstm1_h_concat <- h_8
I1018 00:14:30.868790 30443 net.cpp:380] lstm1_h_concat -> h
I1018 00:14:30.868818 30443 net.cpp:122] Setting up lstm1_h_concat
I1018 00:14:30.868824 30443 net.cpp:129] Top shape: 8 50 512 (204800)
I1018 00:14:30.868829 30443 net.cpp:137] Memory required for data: 24684800
I1018 00:14:30.868832 30443 layer_factory.hpp:77] Creating layer h_pseudoloss
I1018 00:14:30.868839 30443 net.cpp:84] Creating Layer h_pseudoloss
I1018 00:14:30.868844 30443 net.cpp:406] h_pseudoloss <- h
I1018 00:14:30.868850 30443 net.cpp:380] h_pseudoloss -> h_pseudoloss
I1018 00:14:30.869789 30443 net.cpp:122] Setting up h_pseudoloss
…
I1018 00:14:30.870091 30443 net.cpp:200] lstm1_ does not need backward computation.
I1018 00:14:30.870095 30443 net.cpp:242] This network produces output c_T
I1018 00:14:30.870100 30443 net.cpp:242] This network produces output h_pseudoloss
I1018 00:14:30.876087 30443 net.cpp:255] Network initialization done.
I1018 00:14:30.876219 30443 recurrent_layer.cpp:150] Adding parameter 0: W_xc
I1018 00:14:30.876227 30443 recurrent_layer.cpp:150] Adding parameter 1: b_c
I1018 00:14:30.876232 30443 recurrent_layer.cpp:150] Adding parameter 2: W_hc
I1018 00:14:30.876562 30443 net.cpp:122] Setting up lstm1
I1018 00:14:30.876580 30443 net.cpp:129] Top shape: 8 50 512 (204800)
I1018 00:14:30.876588 30443 net.cpp:137] Memory required for data: 9572666200
I1018 00:14:30.876617 30443 layer_factory.hpp:77] Creating layer lstm1-drop
I1018 00:14:30.876677 30443 net.cpp:84] Creating Layer lstm1-drop
I1018 00:14:30.876726 30443 net.cpp:406] lstm1-drop <- lstm1
I1018 00:14:30.876739 30443 net.cpp:380] lstm1-drop -> lstm1-drop
I1018 00:14:30.876802 30443 net.cpp:122] Setting up lstm1-drop
I1018 00:14:30.876816 30443 net.cpp:129] Top shape: 8 50 512 (204800)
I1018 00:14:30.876822 30443 net.cpp:137] Memory required for data: 9573485400
I1018 00:14:30.876830 30443 layer_factory.hpp:77] Creating layer fc-final
I1018 00:14:30.876844 30443 net.cpp:84] Creating Layer fc-final
I1018 00:14:30.876853 30443 net.cpp:406] fc-final <- lstm1-drop
I1018 00:14:30.876865 30443 net.cpp:380] fc-final -> fc-final
I1018 00:14:30.877207 30443 net.cpp:122] Setting up fc-final
I1018 00:14:30.877223 30443 net.cpp:129] Top shape: 8 50 10 (4000)
I1018 00:14:30.877231 30443 net.cpp:137] Memory required for data: 9573501400
I1018 00:14:30.877244 30443 layer_factory.hpp:77] Creating layer fc-final_fc-final_0_split
I1018 00:14:30.877255 30443 net.cpp:84] Creating Layer fc-final_fc-final_0_split
I1018 00:14:30.877264 30443 net.cpp:406] fc-final_fc-final_0_split <- fc-final
I1018 00:14:30.877275 30443 net.cpp:380] fc-final_fc-final_0_split -> fc-final_fc-final_0_split_0
I1018 00:14:30.877308 30443 net.cpp:380] fc-final_fc-final_0_split -> fc-final_fc-final_0_split_1
I1018 00:14:30.877377 30443 net.cpp:122] Setting up fc-final_fc-final_0_split
I1018 00:14:30.877390 30443 net.cpp:129] Top shape: 8 50 10 (4000)
I1018 00:14:30.877399 30443 net.cpp:129] Top shape: 8 50 10 (4000)
I1018 00:14:30.877406 30443 net.cpp:137] Memory required for data: 9573533400
I1018 00:14:30.877414 30443 layer_factory.hpp:77] Creating layer loss
I1018 00:14:30.877427 30443 net.cpp:84] Creating Layer loss
I1018 00:14:30.877436 30443 net.cpp:406] loss <- fc-final_fc-final_0_split_0
I1018 00:14:30.877446 30443 net.cpp:406] loss <- reshape-label_label_tran_0_split_0
I1018 00:14:30.877457 30443 net.cpp:380] loss -> loss
…
