…
I1018 00:02:00.433053 29678 net.cpp:294] The NetState phase (0) differed from the phase (1) specified by a rule in layer Silence
I1018 00:02:00.433261 29678 net.cpp:51] Initializing net from parameters: 
name: "VGG-Places365"
state {
  phase: TRAIN
  level: 0
  stage: ""
}
layer {
  name: "data"
  type: "ImageData"
  top: "data"
  top: "label"
  include {
    phase: TRAIN
  }
  transform_param {
    mirror: true
    crop_size: 224
    mean_value: 104
    mean_value: 117
    mean_value: 123
  }
  image_data_param {
    source: "../Data/lsun_train_list_12w.txt"
    batch_size: 5
    shuffle: true
    new_height: 256
    new_width: 256
  }
}
layer {
  name: "label_tran"
  type: "Python"
  bottom: "label"
  top: "reshape-label"
  top: "clip_markers"
  python_param {
    module: "data_preparation_sort_max_clip"
    layer: "ReshapeLabel"
  }
}
layer {
  name: "conv1_1"
  type: "Convolution"
  bottom: "data"
  top: "conv1_1"
  convolution_param {
    num_output: 64
    pad: 1
    kernel_size: 3
  }
}
layer {
  name: "relu1_1"
  type: "ReLU"
  bottom: "conv1_1"
  top: "conv1_1"
}
layer {
  name: "conv1_2"
  type: "Convolution"
  bottom: "conv1_1"
  top: "conv1_2"
  convolution_param {
    num_output: 64
    pad: 1
    kernel_size: 3
  }
}
layer {
  name: "relu1_2"
  type: "ReLU"
  bottom: "conv1_2"
  top: "conv1_2"
}
layer {
  name: "pool1"
  type: "Pooling"
  bottom: "conv1_2"
  top: "pool1"
  pooling_param {
    pool: MAX
    kernel_size: 2
    stride: 2
  }
}
layer {
  name: "conv2_1"
  type: "Convolution"
  bottom: "pool1"
  top: "conv2_1"
  convolution_param {
    num_output: 128
    pad: 1
    kernel_size: 3
  }
}
layer {
  name: "relu2_1"
  type: "ReLU"
  bottom: "conv2_1"
  top: "conv2_1"
}
layer {
  name: "conv2_2"
  type: "Convolution"
  bottom: "conv2_1"
  top: "conv2_2"
  convolution_param {
    num_output: 128
    pad: 1
    kernel_size: 3
  }
}
layer {
  name: "relu2_2"
  type: "ReLU"
  bottom: "conv2_2"
  top: "conv2_2"
}
layer {
  name: "pool2"
  type: "Pooling"
  bottom: "conv2_2"
  top: "pool2"
  pooling_param {
    pool: MAX
    kernel_size: 2
    stride: 2
  }
}
layer {
  name: "conv3_1"
  type: "Convolution"
  bottom: "pool2"
  top: "conv3_1"
  convolution_param {
    num_output: 256
    pad: 1
    kernel_size: 3
  }
}
layer {
  name: "relu3_1"
  type: "ReLU"
  bottom: "conv3_1"
  top: "conv3_1"
}
layer {
  name: "conv3_2"
  type: "Convolution"
  bottom: "conv3_1"
  top: "conv3_2"
  convolution_param {
    num_output: 256
    pad: 1
    kernel_size: 3
  }
}
layer {
  name: "relu3_2"
  type: "ReLU"
  bottom: "conv3_2"
  top: "conv3_2"
}
layer {
  name: "conv3_3"
  type: "Convolution"
  bottom: "conv3_2"
  top: "conv3_3"
  convolution_param {
    num_output: 256
    pad: 1
    kernel_size: 3
  }
}
layer {
  name: "relu3_3"
  type: "ReLU"
  bottom: "conv3_3"
  top: "conv3_3"
}
layer {
  name: "pool3"
  type: "Pooling"
  bottom: "conv3_3"
  top: "pool3"
  pooling_param {
    pool: MAX
    kernel_size: 2
    stride: 2
  }
}
layer {
  name: "conv4_1"
  type: "Convolution"
  bottom: "pool3"
  top: "conv4_1"
  convolution_param {
    num_output: 512
    pad: 1
    kernel_size: 3
  }
}
layer {
  name: "relu4_1"
  type: "ReLU"
  bottom: "conv4_1"
  top: "conv4_1"
}
layer {
  name: "conv4_2"
  type: "Convolution"
  bottom: "conv4_1"
  top: "conv4_2"
  convolution_param {
    num_output: 512
    pad: 1
    kernel_size: 3
  }
}
layer {
  name: "relu4_2"
  type: "ReLU"
  bottom: "conv4_2"
  top: "conv4_2"
}
layer {
  name: "conv4_3"
  type: "Convolution"
  bottom: "conv4_2"
  top: "conv4_3"
  convolution_param {
    num_output: 512
    pad: 1
    kernel_size: 3
  }
}
layer {
  name: "relu4_3"
  type: "ReLU"
  bottom: "conv4_3"
  top: "conv4_3"
}
layer {
  name: "pool4"
  type: "Pooling"
  bottom: "conv4_3"
  top: "pool4"
  pooling_param {
    pool: MAX
    kernel_size: 2
    stride: 2
  }
}
layer {
  name: "conv5_1"
  type: "Convolution"
  bottom: "pool4"
  top: "conv5_1"
  convolution_param {
    num_output: 512
    pad: 1
    kernel_size: 3
  }
}
layer {
  name: "relu5_1"
  type: "ReLU"
  bottom: "conv5_1"
  top: "conv5_1"
}
layer {
  name: "conv5_2"
  type: "Convolution"
  bottom: "conv5_1"
  top: "conv5_2"
  convolution_param {
    num_output: 512
    pad: 1
    kernel_size: 3
  }
}
layer {
  name: "relu5_2"
  type: "ReLU"
  bottom: "conv5_2"
  top: "conv5_2"
}
layer {
  name: "conv5_3"
  type: "Convolution"
  bottom: "conv5_2"
  top: "conv5_3"
  convolution_param {
    num_output: 512
    pad: 1
    kernel_size: 3
  }
}
layer {
  name: "relu5_3"
  type: "ReLU"
  bottom: "conv5_3"
  top: "conv5_3"
}
layer {
  name: "conv5_3_re"
  type: "Reshape"
  bottom: "conv5_3"
  top: "conv5_3_re"
  reshape_param {
    shape {
      dim: 0
      dim: 0
      dim: -1
    }
  }
}
layer {
  name: "conv5_3_tran"
  type: "Python"
  bottom: "conv5_3_re"
  top: "conv5_3_tran"
  python_param {
    module: "data_preparation_sort_max_clip"
    layer: "DataTransposeSortMaxClip"
  }
}
layer {
  name: "lstm1"
  type: "LSTM"
  bottom: "conv5_3_tran"
  bottom: "clip_markers"
  top: "lstm1"
  recurrent_param {
    num_output: 512
    weight_filler {
      type: "uniform"
      min: -0.01
      max: 0.01
    }
    bias_filler {
      type: "constant"
      value: 0
    }
  }
}
layer {
  name: "lstm1-drop"
  type: "Dropout"
  bottom: "lstm1"
  top: "lstm1-drop"
  dropout_param {
    dropout_ratio: 0.5
  }
}
layer {
  name: "fc-final"
  type: "InnerProduct"
  bottom: "lstm1-drop"
  top: "fc-final"
  param {
    lr_mult: 1
    decay_mult: 1
  }
  param {
    lr_mult: 2
    decay_mult: 0
  }
  inner_product_param {
    num_output: 10
    weight_filler {
      type: "gaussian"
      std: 0.01
    }
    bias_filler {
      type: "constant"
      value: 0
    }
    axis: 2
  }
}
layer {
  name: "loss"
  type: "SoftmaxWithLoss"
  bottom: "fc-final"
  bottom: "reshape-label"
  top: "loss"
  softmax_param {
    axis: 2
  }
}
layer {
  name: "accuracy"
  type: "Accuracy"
  bottom: "fc-final"
  bottom: "reshape-label"
  top: "accuracy"
  accuracy_param {
    axis: 2
  }
}
I1018 00:02:00.433478 29678 layer_factory.hpp:77] Creating layer data
I1018 00:02:00.433531 29678 net.cpp:84] Creating Layer data
I1018 00:02:00.433542 29678 net.cpp:380] data -> data
I1018 00:02:00.433586 29678 net.cpp:380] data -> label
I1018 00:02:00.433619 29678 image_data_layer.cpp:38] Opening file ../Data/lsun_train_list_12w.txt
I1018 00:02:00.989493 29678 image_data_layer.cpp:53] Shuffling data
I1018 00:02:01.267524 29678 image_data_layer.cpp:63] A total of 1200000 images.
I1018 00:02:01.273178 29678 image_data_layer.cpp:90] output data size: 5,3,224,224
I1018 00:02:01.284119 29678 net.cpp:122] Setting up data
I1018 00:02:01.284195 29678 net.cpp:129] Top shape: 5 3 224 224 (752640)
I1018 00:02:01.284209 29678 net.cpp:129] Top shape: 5 (5)
I1018 00:02:01.284214 29678 net.cpp:137] Memory required for data: 3010580
I1018 00:02:01.284225 29678 layer_factory.hpp:77] Creating layer label_tran
I1018 00:02:01.946481 29678 net.cpp:84] Creating Layer label_tran
I1018 00:02:01.946521 29678 net.cpp:406] label_tran <- label
I1018 00:02:01.946542 29678 net.cpp:380] label_tran -> reshape-label
I1018 00:02:01.946555 29678 net.cpp:380] label_tran -> clip_markers
I1018 00:02:01.946852 29678 net.cpp:122] Setting up label_tran
I1018 00:02:01.946872 29678 net.cpp:129] Top shape: 16 5 (80)
I1018 00:02:01.946879 29678 net.cpp:129] Top shape: 16 5 (80)
I1018 00:02:01.946883 29678 net.cpp:137] Memory required for data: 3011220
I1018 00:02:01.946889 29678 layer_factory.hpp:77] Creating layer reshape-label_label_tran_0_split
I1018 00:02:01.946912 29678 net.cpp:84] Creating Layer reshape-label_label_tran_0_split
I1018 00:02:01.946918 29678 net.cpp:406] reshape-label_label_tran_0_split <- reshape-label
I1018 00:02:01.946924 29678 net.cpp:380] reshape-label_label_tran_0_split -> reshape-label_label_tran_0_split_0
I1018 00:02:01.946933 29678 net.cpp:380] reshape-label_label_tran_0_split -> reshape-label_label_tran_0_split_1
I1018 00:02:01.946971 29678 net.cpp:122] Setting up reshape-label_label_tran_0_split
I1018 00:02:01.946980 29678 net.cpp:129] Top shape: 16 5 (80)
I1018 00:02:01.946986 29678 net.cpp:129] Top shape: 16 5 (80)
I1018 00:02:01.946990 29678 net.cpp:137] Memory required for data: 3011860
I1018 00:02:01.946995 29678 layer_factory.hpp:77] Creating layer conv1_1
I1018 00:02:01.947021 29678 net.cpp:84] Creating Layer conv1_1
I1018 00:02:01.947026 29678 net.cpp:406] conv1_1 <- data
I1018 00:02:01.947033 29678 net.cpp:380] conv1_1 -> conv1_1
I1018 00:02:01.949009 29678 net.cpp:122] Setting up conv1_1
I1018 00:02:01.949028 29678 net.cpp:129] Top shape: 5 64 224 224 (16056320)
I1018 00:02:01.949033 29678 net.cpp:137] Memory required for data: 67237140
I1018 00:02:01.949056 29678 layer_factory.hpp:77] Creating layer relu1_1
I1018 00:02:01.949069 29678 net.cpp:84] Creating Layer relu1_1
I1018 00:02:01.949081 29678 net.cpp:406] relu1_1 <- conv1_1
I1018 00:02:01.949087 29678 net.cpp:367] relu1_1 -> conv1_1 (in-place)
I1018 00:02:01.949101 29678 net.cpp:122] Setting up relu1_1
I1018 00:02:01.949107 29678 net.cpp:129] Top shape: 5 64 224 224 (16056320)
I1018 00:02:01.949111 29678 net.cpp:137] Memory required for data: 131462420
I1018 00:02:01.949116 29678 layer_factory.hpp:77] Creating layer conv1_2
I1018 00:02:01.949126 29678 net.cpp:84] Creating Layer conv1_2
I1018 00:02:01.949131 29678 net.cpp:406] conv1_2 <- conv1_1
I1018 00:02:01.949137 29678 net.cpp:380] conv1_2 -> conv1_2
I1018 00:02:01.949414 29678 net.cpp:122] Setting up conv1_2
I1018 00:02:01.949429 29678 net.cpp:129] Top shape: 5 64 224 224 (16056320)
I1018 00:02:01.949435 29678 net.cpp:137] Memory required for data: 195687700
I1018 00:02:01.949450 29678 layer_factory.hpp:77] Creating layer relu1_2
I1018 00:02:01.949458 29678 net.cpp:84] Creating Layer relu1_2
I1018 00:02:01.949463 29678 net.cpp:406] relu1_2 <- conv1_2
I1018 00:02:01.949470 29678 net.cpp:367] relu1_2 -> conv1_2 (in-place)
I1018 00:02:01.949477 29678 net.cpp:122] Setting up relu1_2
I1018 00:02:01.949482 29678 net.cpp:129] Top shape: 5 64 224 224 (16056320)
I1018 00:02:01.949486 29678 net.cpp:137] Memory required for data: 259912980
I1018 00:02:01.949491 29678 layer_factory.hpp:77] Creating layer pool1
I1018 00:02:01.949510 29678 net.cpp:84] Creating Layer pool1
I1018 00:02:01.949517 29678 net.cpp:406] pool1 <- conv1_2
I1018 00:02:01.949522 29678 net.cpp:380] pool1 -> pool1
I1018 00:02:01.949580 29678 net.cpp:122] Setting up pool1
I1018 00:02:01.949591 29678 net.cpp:129] Top shape: 5 64 112 112 (4014080)
I1018 00:02:01.949595 29678 net.cpp:137] Memory required for data: 275969300
I1018 00:02:01.949600 29678 layer_factory.hpp:77] Creating layer conv2_1
I1018 00:02:01.949610 29678 net.cpp:84] Creating Layer conv2_1
I1018 00:02:01.949615 29678 net.cpp:406] conv2_1 <- pool1
I1018 00:02:01.949621 29678 net.cpp:380] conv2_1 -> conv2_1
I1018 00:02:01.951411 29678 net.cpp:122] Setting up conv2_1
I1018 00:02:01.951428 29678 net.cpp:129] Top shape: 5 128 112 112 (8028160)
I1018 00:02:01.951432 29678 net.cpp:137] Memory required for data: 308081940
I1018 00:02:01.951444 29678 layer_factory.hpp:77] Creating layer relu2_1
I1018 00:02:01.951452 29678 net.cpp:84] Creating Layer relu2_1
I1018 00:02:01.951457 29678 net.cpp:406] relu2_1 <- conv2_1
I1018 00:02:01.951463 29678 net.cpp:367] relu2_1 -> conv2_1 (in-place)
I1018 00:02:01.951472 29678 net.cpp:122] Setting up relu2_1
I1018 00:02:01.951478 29678 net.cpp:129] Top shape: 5 128 112 112 (8028160)
I1018 00:02:01.951483 29678 net.cpp:137] Memory required for data: 340194580
I1018 00:02:01.951489 29678 layer_factory.hpp:77] Creating layer conv2_2
I1018 00:02:01.951498 29678 net.cpp:84] Creating Layer conv2_2
I1018 00:02:01.951501 29678 net.cpp:406] conv2_2 <- conv2_1
I1018 00:02:01.951508 29678 net.cpp:380] conv2_2 -> conv2_2
I1018 00:02:01.951803 29678 net.cpp:122] Setting up conv2_2
I1018 00:02:01.951815 29678 net.cpp:129] Top shape: 5 128 112 112 (8028160)
I1018 00:02:01.951819 29678 net.cpp:137] Memory required for data: 372307220
I1018 00:02:01.951828 29678 layer_factory.hpp:77] Creating layer relu2_2
I1018 00:02:01.951835 29678 net.cpp:84] Creating Layer relu2_2
I1018 00:02:01.951839 29678 net.cpp:406] relu2_2 <- conv2_2
I1018 00:02:01.951846 29678 net.cpp:367] relu2_2 -> conv2_2 (in-place)
I1018 00:02:01.951853 29678 net.cpp:122] Setting up relu2_2
I1018 00:02:01.951858 29678 net.cpp:129] Top shape: 5 128 112 112 (8028160)
I1018 00:02:01.951863 29678 net.cpp:137] Memory required for data: 404419860
I1018 00:02:01.951866 29678 layer_factory.hpp:77] Creating layer pool2
I1018 00:02:01.951874 29678 net.cpp:84] Creating Layer pool2
I1018 00:02:01.951877 29678 net.cpp:406] pool2 <- conv2_2
I1018 00:02:01.951882 29678 net.cpp:380] pool2 -> pool2
I1018 00:02:01.951916 29678 net.cpp:122] Setting up pool2
I1018 00:02:01.951925 29678 net.cpp:129] Top shape: 5 128 56 56 (2007040)
I1018 00:02:01.951930 29678 net.cpp:137] Memory required for data: 412448020
I1018 00:02:01.951934 29678 layer_factory.hpp:77] Creating layer conv3_1
I1018 00:02:01.951941 29678 net.cpp:84] Creating Layer conv3_1
I1018 00:02:01.951946 29678 net.cpp:406] conv3_1 <- pool2
I1018 00:02:01.951953 29678 net.cpp:380] conv3_1 -> conv3_1
I1018 00:02:01.953166 29678 net.cpp:122] Setting up conv3_1
I1018 00:02:01.953181 29678 net.cpp:129] Top shape: 5 256 56 56 (4014080)
I1018 00:02:01.953186 29678 net.cpp:137] Memory required for data: 428504340
I1018 00:02:01.953198 29678 layer_factory.hpp:77] Creating layer relu3_1
I1018 00:02:01.953207 29678 net.cpp:84] Creating Layer relu3_1
I1018 00:02:01.953212 29678 net.cpp:406] relu3_1 <- conv3_1
I1018 00:02:01.953218 29678 net.cpp:367] relu3_1 -> conv3_1 (in-place)
I1018 00:02:01.953227 29678 net.cpp:122] Setting up relu3_1
I1018 00:02:01.953232 29678 net.cpp:129] Top shape: 5 256 56 56 (4014080)
I1018 00:02:01.953236 29678 net.cpp:137] Memory required for data: 444560660
I1018 00:02:01.953240 29678 layer_factory.hpp:77] Creating layer conv3_2
I1018 00:02:01.953248 29678 net.cpp:84] Creating Layer conv3_2
I1018 00:02:01.953253 29678 net.cpp:406] conv3_2 <- conv3_1
I1018 00:02:01.953258 29678 net.cpp:380] conv3_2 -> conv3_2
I1018 00:02:01.955082 29678 net.cpp:122] Setting up conv3_2
I1018 00:02:01.955097 29678 net.cpp:129] Top shape: 5 256 56 56 (4014080)
I1018 00:02:01.955102 29678 net.cpp:137] Memory required for data: 460616980
I1018 00:02:01.955111 29678 layer_factory.hpp:77] Creating layer relu3_2
I1018 00:02:01.955121 29678 net.cpp:84] Creating Layer relu3_2
I1018 00:02:01.955126 29678 net.cpp:406] relu3_2 <- conv3_2
I1018 00:02:01.955132 29678 net.cpp:367] relu3_2 -> conv3_2 (in-place)
I1018 00:02:01.955140 29678 net.cpp:122] Setting up relu3_2
I1018 00:02:01.955145 29678 net.cpp:129] Top shape: 5 256 56 56 (4014080)
I1018 00:02:01.955149 29678 net.cpp:137] Memory required for data: 476673300
I1018 00:02:01.955154 29678 layer_factory.hpp:77] Creating layer conv3_3
I1018 00:02:01.955162 29678 net.cpp:84] Creating Layer conv3_3
I1018 00:02:01.955165 29678 net.cpp:406] conv3_3 <- conv3_2
I1018 00:02:01.955173 29678 net.cpp:380] conv3_3 -> conv3_3
I1018 00:02:01.957021 29678 net.cpp:122] Setting up conv3_3
I1018 00:02:01.957037 29678 net.cpp:129] Top shape: 5 256 56 56 (4014080)
I1018 00:02:01.957042 29678 net.cpp:137] Memory required for data: 492729620
I1018 00:02:01.957051 29678 layer_factory.hpp:77] Creating layer relu3_3
I1018 00:02:01.957062 29678 net.cpp:84] Creating Layer relu3_3
I1018 00:02:01.957067 29678 net.cpp:406] relu3_3 <- conv3_3
I1018 00:02:01.957073 29678 net.cpp:367] relu3_3 -> conv3_3 (in-place)
I1018 00:02:01.957082 29678 net.cpp:122] Setting up relu3_3
I1018 00:02:01.957087 29678 net.cpp:129] Top shape: 5 256 56 56 (4014080)
I1018 00:02:01.957090 29678 net.cpp:137] Memory required for data: 508785940
I1018 00:02:01.957094 29678 layer_factory.hpp:77] Creating layer pool3
I1018 00:02:01.957103 29678 net.cpp:84] Creating Layer pool3
I1018 00:02:01.957108 29678 net.cpp:406] pool3 <- conv3_3
I1018 00:02:01.957113 29678 net.cpp:380] pool3 -> pool3
I1018 00:02:01.957149 29678 net.cpp:122] Setting up pool3
I1018 00:02:01.957160 29678 net.cpp:129] Top shape: 5 256 28 28 (1003520)
I1018 00:02:01.957165 29678 net.cpp:137] Memory required for data: 512800020
I1018 00:02:01.957170 29678 layer_factory.hpp:77] Creating layer conv4_1
I1018 00:02:01.957176 29678 net.cpp:84] Creating Layer conv4_1
I1018 00:02:01.957180 29678 net.cpp:406] conv4_1 <- pool3
I1018 00:02:01.957188 29678 net.cpp:380] conv4_1 -> conv4_1
I1018 00:02:01.961180 29678 net.cpp:122] Setting up conv4_1
I1018 00:02:01.961199 29678 net.cpp:129] Top shape: 5 512 28 28 (2007040)
I1018 00:02:01.961203 29678 net.cpp:137] Memory required for data: 520828180
I1018 00:02:01.961211 29678 layer_factory.hpp:77] Creating layer relu4_1
I1018 00:02:01.961218 29678 net.cpp:84] Creating Layer relu4_1
I1018 00:02:01.961223 29678 net.cpp:406] relu4_1 <- conv4_1
I1018 00:02:01.961232 29678 net.cpp:367] relu4_1 -> conv4_1 (in-place)
I1018 00:02:01.961241 29678 net.cpp:122] Setting up relu4_1
I1018 00:02:01.961246 29678 net.cpp:129] Top shape: 5 512 28 28 (2007040)
I1018 00:02:01.961251 29678 net.cpp:137] Memory required for data: 528856340
I1018 00:02:01.961254 29678 layer_factory.hpp:77] Creating layer conv4_2
I1018 00:02:01.961263 29678 net.cpp:84] Creating Layer conv4_2
I1018 00:02:01.961268 29678 net.cpp:406] conv4_2 <- conv4_1
I1018 00:02:01.961277 29678 net.cpp:380] conv4_2 -> conv4_2
I1018 00:02:01.967052 29678 net.cpp:122] Setting up conv4_2
I1018 00:02:01.967070 29678 net.cpp:129] Top shape: 5 512 28 28 (2007040)
I1018 00:02:01.967075 29678 net.cpp:137] Memory required for data: 536884500
I1018 00:02:01.967090 29678 layer_factory.hpp:77] Creating layer relu4_2
I1018 00:02:01.967104 29678 net.cpp:84] Creating Layer relu4_2
I1018 00:02:01.967110 29678 net.cpp:406] relu4_2 <- conv4_2
I1018 00:02:01.967118 29678 net.cpp:367] relu4_2 -> conv4_2 (in-place)
I1018 00:02:01.967126 29678 net.cpp:122] Setting up relu4_2
I1018 00:02:01.967133 29678 net.cpp:129] Top shape: 5 512 28 28 (2007040)
I1018 00:02:01.967136 29678 net.cpp:137] Memory required for data: 544912660
I1018 00:02:01.967140 29678 layer_factory.hpp:77] Creating layer conv4_3
I1018 00:02:01.967149 29678 net.cpp:84] Creating Layer conv4_3
I1018 00:02:01.967152 29678 net.cpp:406] conv4_3 <- conv4_2
I1018 00:02:01.967162 29678 net.cpp:380] conv4_3 -> conv4_3
I1018 00:02:01.973424 29678 net.cpp:122] Setting up conv4_3
I1018 00:02:01.973441 29678 net.cpp:129] Top shape: 5 512 28 28 (2007040)
I1018 00:02:01.973446 29678 net.cpp:137] Memory required for data: 552940820
I1018 00:02:01.973454 29678 layer_factory.hpp:77] Creating layer relu4_3
I1018 00:02:01.973464 29678 net.cpp:84] Creating Layer relu4_3
I1018 00:02:01.973469 29678 net.cpp:406] relu4_3 <- conv4_3
I1018 00:02:01.973476 29678 net.cpp:367] relu4_3 -> conv4_3 (in-place)
I1018 00:02:01.973485 29678 net.cpp:122] Setting up relu4_3
I1018 00:02:01.973491 29678 net.cpp:129] Top shape: 5 512 28 28 (2007040)
I1018 00:02:01.973495 29678 net.cpp:137] Memory required for data: 560968980
I1018 00:02:01.973500 29678 layer_factory.hpp:77] Creating layer pool4
I1018 00:02:01.973506 29678 net.cpp:84] Creating Layer pool4
I1018 00:02:01.973510 29678 net.cpp:406] pool4 <- conv4_3
I1018 00:02:01.973518 29678 net.cpp:380] pool4 -> pool4
I1018 00:02:01.973556 29678 net.cpp:122] Setting up pool4
I1018 00:02:01.973565 29678 net.cpp:129] Top shape: 5 512 14 14 (501760)
I1018 00:02:01.973569 29678 net.cpp:137] Memory required for data: 562976020
I1018 00:02:01.973575 29678 layer_factory.hpp:77] Creating layer conv5_1
I1018 00:02:01.973584 29678 net.cpp:84] Creating Layer conv5_1
I1018 00:02:01.973589 29678 net.cpp:406] conv5_1 <- pool4
I1018 00:02:01.973597 29678 net.cpp:380] conv5_1 -> conv5_1
I1018 00:02:01.979631 29678 net.cpp:122] Setting up conv5_1
I1018 00:02:01.979655 29678 net.cpp:129] Top shape: 5 512 14 14 (501760)
I1018 00:02:01.979660 29678 net.cpp:137] Memory required for data: 564983060
I1018 00:02:01.979670 29678 layer_factory.hpp:77] Creating layer relu5_1
I1018 00:02:01.979677 29678 net.cpp:84] Creating Layer relu5_1
I1018 00:02:01.979682 29678 net.cpp:406] relu5_1 <- conv5_1
I1018 00:02:01.979691 29678 net.cpp:367] relu5_1 -> conv5_1 (in-place)
I1018 00:02:01.979701 29678 net.cpp:122] Setting up relu5_1
I1018 00:02:01.979707 29678 net.cpp:129] Top shape: 5 512 14 14 (501760)
I1018 00:02:01.979712 29678 net.cpp:137] Memory required for data: 566990100
I1018 00:02:01.979715 29678 layer_factory.hpp:77] Creating layer conv5_2
I1018 00:02:01.979724 29678 net.cpp:84] Creating Layer conv5_2
I1018 00:02:01.979729 29678 net.cpp:406] conv5_2 <- conv5_1
I1018 00:02:01.979737 29678 net.cpp:380] conv5_2 -> conv5_2
I1018 00:02:01.986285 29678 net.cpp:122] Setting up conv5_2
I1018 00:02:01.986318 29678 net.cpp:129] Top shape: 5 512 14 14 (501760)
I1018 00:02:01.986323 29678 net.cpp:137] Memory required for data: 568997140
I1018 00:02:01.986333 29678 layer_factory.hpp:77] Creating layer relu5_2
I1018 00:02:01.986346 29678 net.cpp:84] Creating Layer relu5_2
I1018 00:02:01.986352 29678 net.cpp:406] relu5_2 <- conv5_2
I1018 00:02:01.986361 29678 net.cpp:367] relu5_2 -> conv5_2 (in-place)
I1018 00:02:01.986377 29678 net.cpp:122] Setting up relu5_2
I1018 00:02:01.986383 29678 net.cpp:129] Top shape: 5 512 14 14 (501760)
I1018 00:02:01.986387 29678 net.cpp:137] Memory required for data: 571004180
I1018 00:02:01.986392 29678 layer_factory.hpp:77] Creating layer conv5_3
I1018 00:02:01.986402 29678 net.cpp:84] Creating Layer conv5_3
I1018 00:02:01.986407 29678 net.cpp:406] conv5_3 <- conv5_2
I1018 00:02:01.986414 29678 net.cpp:380] conv5_3 -> conv5_3
I1018 00:02:01.992795 29678 net.cpp:122] Setting up conv5_3
I1018 00:02:01.992822 29678 net.cpp:129] Top shape: 5 512 14 14 (501760)
I1018 00:02:01.992827 29678 net.cpp:137] Memory required for data: 573011220
I1018 00:02:01.992836 29678 layer_factory.hpp:77] Creating layer relu5_3
I1018 00:02:01.992861 29678 net.cpp:84] Creating Layer relu5_3
I1018 00:02:01.992866 29678 net.cpp:406] relu5_3 <- conv5_3
I1018 00:02:01.992877 29678 net.cpp:367] relu5_3 -> conv5_3 (in-place)
I1018 00:02:01.992887 29678 net.cpp:122] Setting up relu5_3
I1018 00:02:01.992892 29678 net.cpp:129] Top shape: 5 512 14 14 (501760)
I1018 00:02:01.992897 29678 net.cpp:137] Memory required for data: 575018260
I1018 00:02:01.992902 29678 layer_factory.hpp:77] Creating layer conv5_3_re
I1018 00:02:01.992915 29678 net.cpp:84] Creating Layer conv5_3_re
I1018 00:02:01.992919 29678 net.cpp:406] conv5_3_re <- conv5_3
I1018 00:02:01.992925 29678 net.cpp:380] conv5_3_re -> conv5_3_re
I1018 00:02:01.992972 29678 net.cpp:122] Setting up conv5_3_re
I1018 00:02:01.992981 29678 net.cpp:129] Top shape: 5 512 196 (501760)
I1018 00:02:01.992985 29678 net.cpp:137] Memory required for data: 577025300
I1018 00:02:01.992990 29678 layer_factory.hpp:77] Creating layer conv5_3_tran
I1018 00:02:01.993064 29678 net.cpp:84] Creating Layer conv5_3_tran
I1018 00:02:01.993074 29678 net.cpp:406] conv5_3_tran <- conv5_3_re
I1018 00:02:01.993082 29678 net.cpp:380] conv5_3_tran -> conv5_3_tran
I1018 00:02:01.994613 29678 net.cpp:122] Setting up conv5_3_tran
I1018 00:02:01.994671 29678 net.cpp:129] Top shape: 16 5 512 (40960)
I1018 00:02:01.994699 29678 net.cpp:137] Memory required for data: 577189140
I1018 00:02:01.994722 29678 layer_factory.hpp:77] Creating layer lstm1
I1018 00:02:01.994765 29678 net.cpp:84] Creating Layer lstm1
I1018 00:02:01.994791 29678 net.cpp:406] lstm1 <- conv5_3_tran
I1018 00:02:01.994818 29678 net.cpp:406] lstm1 <- clip_markers
I1018 00:02:01.994848 29678 net.cpp:380] lstm1 -> lstm1
I1018 00:02:01.994887 29678 recurrent_layer.cpp:20] Initializing recurrent layer: assuming input batch contains 16 timesteps of 5 independent streams.
I1018 00:02:01.996392 29678 net.cpp:51] Initializing net from parameters: 
layer {
  name: "lstm1_"
  type: "Input"
  top: "x"
  top: "cont"
  input_param {
    shape {
      dim: 16
      dim: 5
      dim: 512
    }
    shape {
      dim: 16
      dim: 5
    }
  }
}
layer {
  name: "lstm1_"
  type: "Input"
  top: "c_0"
  top: "h_0"
  input_param {
    shape {
      dim: 1
      dim: 5
      dim: 512
    }
    shape {
      dim: 1
      dim: 5
      dim: 512
    }
  }
}
layer {
  name: "lstm1_cont_slice"
  type: "Slice"
  bottom: "cont"
  top: "cont_1"
  top: "cont_2"
  top: "cont_3"
  top: "cont_4"
  top: "cont_5"
  top: "cont_6"
  top: "cont_7"
  top: "cont_8"
  top: "cont_9"
  top: "cont_10"
  top: "cont_11"
  top: "cont_12"
  top: "cont_13"
  top: "cont_14"
  top: "cont_15"
  top: "cont_16"
  slice_param {
    axis: 0
  }
}
layer {
  name: "lstm1_x_transform"
  type: "InnerProduct"
  bottom: "x"
  top: "W_xc_x"
  param {
    name: "W_xc"
  }
  param {
    name: "b_c"
  }
  propagate_down: true
  inner_product_param {
    num_output: 2048
    bias_term: true
    weight_filler {
      type: "uniform"
      min: -0.01
      max: 0.01
    }
    bias_filler {
      type: "constant"
      value: 0
    }
    axis: 2
  }
}
layer {
  name: "lstm1_W_xc_x_slice"
  type: "Slice"
  bottom: "W_xc_x"
  top: "W_xc_x_1"
  top: "W_xc_x_2"
  top: "W_xc_x_3"
  top: "W_xc_x_4"
  top: "W_xc_x_5"
  top: "W_xc_x_6"
  top: "W_xc_x_7"
  top: "W_xc_x_8"
  top: "W_xc_x_9"
  top: "W_xc_x_10"
  top: "W_xc_x_11"
  top: "W_xc_x_12"
  top: "W_xc_x_13"
  top: "W_xc_x_14"
  top: "W_xc_x_15"
  top: "W_xc_x_16"
  slice_param {
    axis: 0
  }
}
layer {
  name: "lstm1_h_conted_0"
  type: "Scale"
  bottom: "h_0"
  bottom: "cont_1"
  top: "h_conted_0"
  scale_param {
    axis: 0
  }
}
layer {
  name: "lstm1_transform_1"
  type: "InnerProduct"
  bottom: "h_conted_0"
  top: "W_hc_h_0"
  param {
    name: "W_hc"
  }
  inner_product_param {
    num_output: 2048
    bias_term: false
    weight_filler {
      type: "uniform"
      min: -0.01
      max: 0.01
    }
    axis: 2
  }
}
layer {
  name: "lstm1_gate_input_1"
  type: "Eltwise"
  bottom: "W_hc_h_0"
  bottom: "W_xc_x_1"
  top: "gate_input_1"
  eltwise_param {
    operation: SUM
  }
}
layer {
  name: "lstm1_unit_1"
  type: "LSTMUnit"
  bottom: "c_0"
  bottom: "gate_input_1"
  bottom: "cont_1"
  top: "c_1"
  top: "h_1"
}
layer {
  name: "lstm1_h_conted_1"
  type: "Scale"
  bottom: "h_1"
  bottom: "cont_2"
  top: "h_conted_1"
  scale_param {
    axis: 0
  }
}
layer {
  name: "lstm1_transform_2"
  type: "InnerProduct"
  bottom: "h_conted_1"
  top: "W_hc_h_1"
  param {
    name: "W_hc"
  }
  inner_product_param {
    num_output: 2048
    bias_term: false
    weight_filler {
      type: "uniform"
      min: -0.01
      max: 0.01
    }
    axis: 2
  }
}
layer {
  name: "lstm1_gate_input_2"
  type: "Eltwise"
  bottom: "W_hc_h_1"
  bottom: "W_xc_x_2"
  top: "gate_input_2"
  eltwise_param {
    operation: SUM
  }
}
layer {
  name: "lstm1_unit_2"
  type: "LSTMUnit"
  bottom: "c_1"
  bottom: "gate_input_2"
  bottom: "cont_2"
  top: "c_2"
  top: "h_2"
}
layer {
  name: "lstm1_h_conted_2"
  type: "Scale"
  bottom: "h_2"
  bottom: "cont_3"
  top: "h_conted_2"
  scale_param {
    axis: 0
  }
}
layer {
  name: "lstm1_transform_3"
  type: "InnerProduct"
  bottom: "h_conted_2"
  top: "W_hc_h_2"
  param {
    name: "W_hc"
  }
  inner_product_param {
    num_output: 2048
    bias_term: false
    weight_filler {
      type: "uniform"
      min: -0.01
      max: 0.01
    }
    axis: 2
  }
}
layer {
  name: "lstm1_gate_input_3"
  type: "Eltwise"
  bottom: "W_hc_h_2"
  bottom: "W_xc_x_3"
  top: "gate_input_3"
  eltwise_param {
    operation: SUM
  }
}
layer {
  name: "lstm1_unit_3"
  type: "LSTMUnit"
  bottom: "c_2"
  bottom: "gate_input_3"
  bottom: "cont_3"
  top: "c_3"
  top: "h_3"
}
layer {
  name: "lstm1_h_conted_3"
  type: "Scale"
  bottom: "h_3"
  bottom: "cont_4"
  top: "h_conted_3"
  scale_param {
    axis: 0
  }
}
layer {
  name: "lstm1_transform_4"
  type: "InnerProduct"
  bottom: "h_conted_3"
  top: "W_hc_h_3"
  param {
    name: "W_hc"
  }
  inner_product_param {
    num_output: 2048
    bias_term: false
    weight_filler {
      type: "uniform"
      min: -0.01
      max: 0.01
    }
    axis: 2
  }
}
layer {
  name: "lstm1_gate_input_4"
  type: "Eltwise"
  bottom: "W_hc_h_3"
  bottom: "W_xc_x_4"
  top: "gate_input_4"
  eltwise_param {
    operation: SUM
  }
}
layer {
  name: "lstm1_unit_4"
  type: "LSTMUnit"
  bottom: "c_3"
  bottom: "gate_input_4"
  bottom: "cont_4"
  top: "c_4"
  top: "h_4"
}
layer {
  name: "lstm1_h_conted_4"
  type: "Scale"
  bottom: "h_4"
  bottom: "cont_5"
  top: "h_conted_4"
  scale_param {
    axis: 0
  }
}
layer {
  name: "lstm1_transform_5"
  type: "InnerProduct"
  bottom: "h_conted_4"
  top: "W_hc_h_4"
  param {
    name: "W_hc"
  }
  inner_product_param {
    num_output: 2048
    bias_term: false
    weight_filler {
      type: "uniform"
      min: -0.01
      max: 0.01
    }
    axis: 2
  }
}
layer {
  name: "lstm1_gate_input_5"
  type: "Eltwise"
  bottom: "W_hc_h_4"
  bottom: "W_xc_x_5"
  top: "gate_input_5"
  eltwise_param {
    operation: SUM
  }
}
layer {
  name: "lstm1_unit_5"
  type: "LSTMUnit"
  bottom: "c_4"
  bottom: "gate_input_5"
  bottom: "cont_5"
  top: "c_5"
  top: "h_5"
}
layer {
  name: "lstm1_h_conted_5"
  type: "Scale"
  bottom: "h_5"
  bottom: "cont_6"
  top: "h_conted_5"
  scale_param {
    axis: 0
  }
}
layer {
  name: "lstm1_transform_6"
  type: "InnerProduct"
  bottom: "h_conted_5"
  top: "W_hc_h_5"
  param {
    name: "W_hc"
  }
  inner_product_param {
    num_output: 2048
    bias_term: false
    weight_filler {
      type: "uniform"
      min: -0.01
      max: 0.01
    }
    axis: 2
  }
}
layer {
  name: "lstm1_gate_input_6"
  type: "Eltwise"
  bottom: "W_hc_h_5"
  bottom: "W_xc_x_6"
  top: "gate_input_6"
  eltwise_param {
    operation: SUM
  }
}
layer {
  name: "lstm1_unit_6"
  type: "LSTMUnit"
  bottom: "c_5"
  bottom: "gate_input_6"
  bottom: "cont_6"
  top: "c_6"
  top: "h_6"
}
layer {
  name: "lstm1_h_conted_6"
  type: "Scale"
  bottom: "h_6"
  bottom: "cont_7"
  top: "h_conted_6"
  scale_param {
    axis: 0
  }
}
layer {
  name: "lstm1_transform_7"
  type: "InnerProduct"
  bottom: "h_conted_6"
  top: "W_hc_h_6"
  param {
    name: "W_hc"
  }
  inner_product_param {
    num_output: 2048
    bias_term: false
    weight_filler {
      type: "uniform"
      min: -0.01
      max: 0.01
    }
    axis: 2
  }
}
layer {
  name: "lstm1_gate_input_7"
  type: "Eltwise"
  bottom: "W_hc_h_6"
  bottom: "W_xc_x_7"
  top: "gate_input_7"
  eltwise_param {
    operation: SUM
  }
}
layer {
  name: "lstm1_unit_7"
  type: "LSTMUnit"
  bottom: "c_6"
  bottom: "gate_input_7"
  bottom: "cont_7"
  top: "c_7"
  top: "h_7"
}
layer {
  name: "lstm1_h_conted_7"
  type: "Scale"
  bottom: "h_7"
  bottom: "cont_8"
  top: "h_conted_7"
  scale_param {
    axis: 0
  }
}
layer {
  name: "lstm1_transform_8"
  type: "InnerProduct"
  bottom: "h_conted_7"
  top: "W_hc_h_7"
  param {
    name: "W_hc"
  }
  inner_product_param {
    num_output: 2048
    bias_term: false
    weight_filler {
      type: "uniform"
      min: -0.01
      max: 0.01
    }
    axis: 2
  }
}
layer {
  name: "lstm1_gate_input_8"
  type: "Eltwise"
  bottom: "W_hc_h_7"
  bottom: "W_xc_x_8"
  top: "gate_input_8"
  eltwise_param {
    operation: SUM
  }
}
layer {
  name: "lstm1_unit_8"
  type: "LSTMUnit"
  bottom: "c_7"
  bottom: "gate_input_8"
  bottom: "cont_8"
  top: "c_8"
  top: "h_8"
}
layer {
  name: "lstm1_h_conted_8"
  type: "Scale"
  bottom: "h_8"
  bottom: "cont_9"
  top: "h_conted_8"
  scale_param {
    axis: 0
  }
}
layer {
  name: "lstm1_transform_9"
  type: "InnerProduct"
  bottom: "h_conted_8"
  top: "W_hc_h_8"
  param {
    name: "W_hc"
  }
  inner_product_param {
    num_output: 2048
    bias_term: false
    weight_filler {
      type: "uniform"
      min: -0.01
      max: 0.01
    }
    axis: 2
  }
}
layer {
  name: "lstm1_gate_input_9"
  type: "Eltwise"
  bottom: "W_hc_h_8"
  bottom: "W_xc_x_9"
  top: "gate_input_9"
  eltwise_param {
    operation: SUM
  }
}
layer {
  name: "lstm1_unit_9"
  type: "LSTMUnit"
  bottom: "c_8"
  bottom: "gate_input_9"
  bottom: "cont_9"
  top: "c_9"
  top: "h_9"
}
layer {
  name: "lstm1_h_conted_9"
  type: "Scale"
  bottom: "h_9"
  bottom: "cont_10"
  top: "h_conted_9"
  scale_param {
    axis: 0
  }
}
layer {
  name: "lstm1_transform_10"
  type: "InnerProduct"
  bottom: "h_conted_9"
  top: "W_hc_h_9"
  param {
    name: "W_hc"
  }
  inner_product_param {
    num_output: 2048
    bias_term: false
    weight_filler {
      type: "uniform"
      min: -0.01
      max: 0.01
    }
    axis: 2
  }
}
layer {
  name: "lstm1_gate_input_10"
  type: "Eltwise"
  bottom: "W_hc_h_9"
  bottom: "W_xc_x_10"
  top: "gate_input_10"
  eltwise_param {
    operation: SUM
  }
}
layer {
  name: "lstm1_unit_10"
  type: "LSTMUnit"
  bottom: "c_9"
  bottom: "gate_input_10"
  bottom: "cont_10"
  top: "c_10"
  top: "h_10"
}
layer {
  name: "lstm1_h_conted_10"
  type: "Scale"
  bottom: "h_10"
  bottom: "cont_11"
  top: "h_conted_10"
  scale_param {
    axis: 0
  }
}
layer {
  name: "lstm1_transform_11"
  type: "InnerProduct"
  bottom: "h_conted_10"
  top: "W_hc_h_10"
  param {
    name: "W_hc"
  }
  inner_product_param {
    num_output: 2048
    bias_term: false
    weight_filler {
      type: "uniform"
      min: -0.01
      max: 0.01
    }
    axis: 2
  }
}
layer {
  name: "lstm1_gate_input_11"
  type: "Eltwise"
  bottom: "W_hc_h_10"
  bottom: "W_xc_x_11"
  top: "gate_input_11"
  eltwise_param {
    operation: SUM
  }
}
layer {
  name: "lstm1_unit_11"
  type: "LSTMUnit"
  bottom: "c_10"
  bottom: "gate_input_11"
  bottom: "cont_11"
  top: "c_11"
  top: "h_11"
}
layer {
  name: "lstm1_h_conted_11"
  type: "Scale"
  bottom: "h_11"
  bottom: "cont_12"
  top: "h_conted_11"
  scale_param {
    axis: 0
  }
}
layer {
  name: "lstm1_transform_12"
  type: "InnerProduct"
  bottom: "h_conted_11"
  top: "W_hc_h_11"
  param {
    name: "W_hc"
  }
  inner_product_param {
    num_output: 2048
    bias_term: false
    weight_filler {
      type: "uniform"
      min: -0.01
      max: 0.01
    }
    axis: 2
  }
}
layer {
  name: "lstm1_gate_input_12"
  type: "Eltwise"
  bottom: "W_hc_h_11"
  bottom: "W_xc_x_12"
  top: "gate_input_12"
  eltwise_param {
    operation: SUM
  }
}
layer {
  name: "lstm1_unit_12"
  type: "LSTMUnit"
  bottom: "c_11"
  bottom: "gate_input_12"
  bottom: "cont_12"
  top: "c_12"
  top: "h_12"
}
layer {
  name: "lstm1_h_conted_12"
  type: "Scale"
  bottom: "h_12"
  bottom: "cont_13"
  top: "h_conted_12"
  scale_param {
    axis: 0
  }
}
layer {
  name: "lstm1_transform_13"
  type: "InnerProduct"
  bottom: "h_conted_12"
  top: "W_hc_h_12"
  param {
    name: "W_hc"
  }
  inner_product_param {
    num_output: 2048
    bias_term: false
    weight_filler {
      type: "uniform"
      min: -0.01
      max: 0.01
    }
    axis: 2
  }
}
layer {
  name: "lstm1_gate_input_13"
  type: "Eltwise"
  bottom: "W_hc_h_12"
  bottom: "W_xc_x_13"
  top: "gate_input_13"
  eltwise_param {
    operation: SUM
  }
}
layer {
  name: "lstm1_unit_13"
  type: "LSTMUnit"
  bottom: "c_12"
  bottom: "gate_input_13"
  bottom: "cont_13"
  top: "c_13"
  top: "h_13"
}
layer {
  name: "lstm1_h_conted_13"
  type: "Scale"
  bottom: "h_13"
  bottom: "cont_14"
  top: "h_conted_13"
  scale_param {
    axis: 0
  }
}
layer {
  name: "lstm1_transform_14"
  type: "InnerProduct"
  bottom: "h_conted_13"
  top: "W_hc_h_13"
  param {
    name: "W_hc"
  }
  inner_product_param {
    num_output: 2048
    bias_term: false
    weight_filler {
      type: "uniform"
      min: -0.01
      max: 0.01
    }
    axis: 2
  }
}
layer {
  name: "lstm1_gate_input_14"
  type: "Eltwise"
  bottom: "W_hc_h_13"
  bottom: "W_xc_x_14"
  top: "gate_input_14"
  eltwise_param {
    operation: SUM
  }
}
layer {
  name: "lstm1_unit_14"
  type: "LSTMUnit"
  bottom: "c_13"
  bottom: "gate_input_14"
  bottom: "cont_14"
  top: "c_14"
  top: "h_14"
}
layer {
  name: "lstm1_h_conted_14"
  type: "Scale"
  bottom: "h_14"
  bottom: "cont_15"
  top: "h_conted_14"
  scale_param {
    axis: 0
  }
}
layer {
  name: "lstm1_transform_15"
  type: "InnerProduct"
  bottom: "h_conted_14"
  top: "W_hc_h_14"
  param {
    name: "W_hc"
  }
  inner_product_param {
    num_output: 2048
    bias_term: false
    weight_filler {
      type: "uniform"
      min: -0.01
      max: 0.01
    }
    axis: 2
  }
}
layer {
  name: "lstm1_gate_input_15"
  type: "Eltwise"
  bottom: "W_hc_h_14"
  bottom: "W_xc_x_15"
  top: "gate_input_15"
  eltwise_param {
    operation: SUM
  }
}
layer {
  name: "lstm1_unit_15"
  type: "LSTMUnit"
  bottom: "c_14"
  bottom: "gate_input_15"
  bottom: "cont_15"
  top: "c_15"
  top: "h_15"
}
layer {
  name: "lstm1_h_conted_15"
  type: "Scale"
  bottom: "h_15"
  bottom: "cont_16"
  top: "h_conted_15"
  scale_param {
    axis: 0
  }
}
layer {
  name: "lstm1_transform_16"
  type: "InnerProduct"
  bottom: "h_conted_15"
  top: "W_hc_h_15"
  param {
    name: "W_hc"
  }
  inner_product_param {
    num_output: 2048
    bias_term: false
    weight_filler {
      type: "uniform"
      min: -0.01
      max: 0.01
    }
    axis: 2
  }
}
layer {
  name: "lstm1_gate_input_16"
  type: "Eltwise"
  bottom: "W_hc_h_15"
  bottom: "W_xc_x_16"
  top: "gate_input_16"
  eltwise_param {
    operation: SUM
  }
}
layer {
  name: "lstm1_unit_16"
  type: "LSTMUnit"
  bottom: "c_15"
  bottom: "gate_input_16"
  bottom: "cont_16"
  top: "c_16"
  top: "h_16"
}
layer {
  name: "lstm1_"
  type: "Split"
  bottom: "c_16"
  top: "c_T"
}
layer {
  name: "lstm1_h_concat"
  type: "Concat"
  bottom: "h_1"
  bottom: "h_2"
  bottom: "h_3"
  bottom: "h_4"
  bottom: "h_5"
  bottom: "h_6"
  bottom: "h_7"
  bottom: "h_8"
  bottom: "h_9"
  bottom: "h_10"
  bottom: "h_11"
  bottom: "h_12"
  bottom: "h_13"
  bottom: "h_14"
  bottom: "h_15"
  bottom: "h_16"
  top: "h"
  concat_param {
    axis: 0
  }
}
layer {
  name: "h_pseudoloss"
  type: "Reduction"
  bottom: "h"
  top: "h_pseudoloss"
  loss_weight: 1
}
I1018 00:02:01.997978 29678 layer_factory.hpp:77] Creating layer lstm1_
I1018 00:02:01.998148 29678 net.cpp:84] Creating Layer lstm1_
I1018 00:02:01.998180 29678 net.cpp:380] lstm1_ -> x
I1018 00:02:01.998245 29678 net.cpp:380] lstm1_ -> cont
I1018 00:02:01.998522 29678 net.cpp:122] Setting up lstm1_
I1018 00:02:01.998536 29678 net.cpp:129] Top shape: 16 5 512 (40960)
I1018 00:02:01.998541 29678 net.cpp:129] Top shape: 16 5 (80)
I1018 00:02:01.998546 29678 net.cpp:137] Memory required for data: 164160
I1018 00:02:01.998550 29678 layer_factory.hpp:77] Creating layer lstm1_
I1018 00:02:01.998558 29678 net.cpp:84] Creating Layer lstm1_
I1018 00:02:01.998562 29678 net.cpp:380] lstm1_ -> c_0
I1018 00:02:01.998570 29678 net.cpp:380] lstm1_ -> h_0
I1018 00:02:01.998616 29678 net.cpp:122] Setting up lstm1_
I1018 00:02:01.998625 29678 net.cpp:129] Top shape: 1 5 512 (2560)
I1018 00:02:01.998630 29678 net.cpp:129] Top shape: 1 5 512 (2560)
I1018 00:02:01.998633 29678 net.cpp:137] Memory required for data: 184640
I1018 00:02:01.998637 29678 layer_factory.hpp:77] Creating layer lstm1_cont_slice
I1018 00:02:01.998647 29678 net.cpp:84] Creating Layer lstm1_cont_slice
I1018 00:02:01.998652 29678 net.cpp:406] lstm1_cont_slice <- cont
I1018 00:02:01.998662 29678 net.cpp:380] lstm1_cont_slice -> cont_1
I1018 00:02:01.998672 29678 net.cpp:380] lstm1_cont_slice -> cont_2
…
I1018 00:02:01.998726 29678 net.cpp:380] lstm1_cont_slice -> cont_9
I1018 00:02:01.998733 29678 net.cpp:380] lstm1_cont_slice -> cont_10
I1018 00:02:01.998741 29678 net.cpp:380] lstm1_cont_slice -> cont_11
I1018 00:02:01.998749 29678 net.cpp:380] lstm1_cont_slice -> cont_12
I1018 00:02:01.998755 29678 net.cpp:380] lstm1_cont_slice -> cont_13
I1018 00:02:01.998764 29678 net.cpp:380] lstm1_cont_slice -> cont_14
I1018 00:02:01.998772 29678 net.cpp:380] lstm1_cont_slice -> cont_15
I1018 00:02:01.998785 29678 net.cpp:380] lstm1_cont_slice -> cont_16
I1018 00:02:01.999229 29678 net.cpp:122] Setting up lstm1_cont_slice
I1018 00:02:01.999279 29678 net.cpp:129] Top shape: 1 5 (5)
I1018 00:02:01.999291 29678 net.cpp:129] Top shape: 1 5 (5)
I1018 00:02:01.999300 29678 net.cpp:129] Top shape: 1 5 (5)
I1018 00:02:01.999310 29678 net.cpp:129] Top shape: 1 5 (5)
I1018 00:02:01.999322 29678 net.cpp:129] Top shape: 1 5 (5)
I1018 00:02:01.999330 29678 net.cpp:129] Top shape: 1 5 (5)
I1018 00:02:01.999342 29678 net.cpp:129] Top shape: 1 5 (5)
I1018 00:02:01.999349 29678 net.cpp:129] Top shape: 1 5 (5)
I1018 00:02:01.999359 29678 net.cpp:129] Top shape: 1 5 (5)
I1018 00:02:01.999366 29678 net.cpp:129] Top shape: 1 5 (5)
I1018 00:02:01.999377 29678 net.cpp:129] Top shape: 1 5 (5)
I1018 00:02:01.999387 29678 net.cpp:129] Top shape: 1 5 (5)
I1018 00:02:01.999403 29678 net.cpp:129] Top shape: 1 5 (5)
I1018 00:02:01.999410 29678 net.cpp:129] Top shape: 1 5 (5)
I1018 00:02:01.999423 29678 net.cpp:129] Top shape: 1 5 (5)
I1018 00:02:01.999433 29678 net.cpp:129] Top shape: 1 5 (5)
I1018 00:02:01.999449 29678 net.cpp:137] Memory required for data: 184960
I1018 00:02:01.999461 29678 layer_factory.hpp:77] Creating layer cont_1_lstm1_cont_slice_0_split
I1018 00:02:01.999498 29678 net.cpp:84] Creating Layer cont_1_lstm1_cont_slice_0_split
I1018 00:02:01.999514 29678 net.cpp:406] cont_1_lstm1_cont_slice_0_split <- cont_1
I1018 00:02:01.999531 29678 net.cpp:380] cont_1_lstm1_cont_slice_0_split -> cont_1_lstm1_cont_slice_0_split_0
I1018 00:02:01.999572 29678 net.cpp:380] cont_1_lstm1_cont_slice_0_split -> cont_1_lstm1_cont_slice_0_split_1
I1018 00:02:01.999735 29678 net.cpp:122] Setting up cont_1_lstm1_cont_slice_0_split
I1018 00:02:01.999759 29678 net.cpp:129] Top shape: 1 5 (5)
I1018 00:02:01.999770 29678 net.cpp:129] Top shape: 1 5 (5)
I1018 00:02:01.999780 29678 net.cpp:137] Memory required for data: 185000
I1018 00:02:01.999792 29678 layer_factory.hpp:77] Creating layer cont_2_lstm1_cont_slice_1_split
I1018 00:02:01.999830 29678 net.cpp:84] Creating Layer cont_2_lstm1_cont_slice_1_split
I1018 00:02:01.999841 29678 net.cpp:406] cont_2_lstm1_cont_slice_1_split <- cont_2
I1018 00:02:01.999866 29678 net.cpp:380] cont_2_lstm1_cont_slice_1_split -> cont_2_lstm1_cont_slice_1_split_0
I1018 00:02:01.999899 29678 net.cpp:380] cont_2_lstm1_cont_slice_1_split -> cont_2_lstm1_cont_slice_1_split_1
I1018 00:02:02.000123 29678 net.cpp:122] Setting up cont_2_lstm1_cont_slice_1_split
I1018 00:02:02.000167 29678 net.cpp:129] Top shape: 1 5 (5)
I1018 00:02:02.000183 29678 net.cpp:129] Top shape: 1 5 (5)
I1018 00:02:02.000195 29678 net.cpp:137] Memory required for data: 185040
I1018 00:02:02.000205 29678 layer_factory.hpp:77] Creating layer cont_3_lstm1_cont_slice_2_split
I1018 00:02:02.000228 29678 net.cpp:84] Creating Layer cont_3_lstm1_cont_slice_2_split
I1018 00:02:02.000236 29678 net.cpp:406] cont_3_lstm1_cont_slice_2_split <- cont_3
I1018 00:02:02.000280 29678 net.cpp:380] cont_3_lstm1_cont_slice_2_split -> cont_3_lstm1_cont_slice_2_split_0
I1018 00:02:02.000318 29678 net.cpp:380] cont_3_lstm1_cont_slice_2_split -> cont_3_lstm1_cont_slice_2_split_1
I1018 00:02:02.000437 29678 net.cpp:122] Setting up cont_3_lstm1_cont_slice_2_split
I1018 00:02:02.000473 29678 net.cpp:129] Top shape: 1 5 (5)
I1018 00:02:02.000486 29678 net.cpp:129] Top shape: 1 5 (5)
I1018 00:02:02.000504 29678 net.cpp:137] Memory required for data: 185080
I1018 00:02:02.000519 29678 layer_factory.hpp:77] Creating layer cont_4_lstm1_cont_slice_3_split
I1018 00:02:02.000535 29678 net.cpp:84] Creating Layer cont_4_lstm1_cont_slice_3_split
I1018 00:02:02.000555 29678 net.cpp:406] cont_4_lstm1_cont_slice_3_split <- cont_4
I1018 00:02:02.000579 29678 net.cpp:380] cont_4_lstm1_cont_slice_3_split -> cont_4_lstm1_cont_slice_3_split_0
I1018 00:02:02.000602 29678 net.cpp:380] cont_4_lstm1_cont_slice_3_split -> cont_4_lstm1_cont_slice_3_split_1
I1018 00:02:02.000723 29678 net.cpp:122] Setting up cont_4_lstm1_cont_slice_3_split
I1018 00:02:02.000762 29678 net.cpp:129] Top shape: 1 5 (5)
I1018 00:02:02.000774 29678 net.cpp:129] Top shape: 1 5 (5)
I1018 00:02:02.000788 29678 net.cpp:137] Memory required for data: 185120
I1018 00:02:02.000795 29678 layer_factory.hpp:77] Creating layer cont_5_lstm1_cont_slice_4_split
I1018 00:02:02.000818 29678 net.cpp:84] Creating Layer cont_5_lstm1_cont_slice_4_split
I1018 00:02:02.000828 29678 net.cpp:406] cont_5_lstm1_cont_slice_4_split <- cont_5
I1018 00:02:02.000869 29678 net.cpp:380] cont_5_lstm1_cont_slice_4_split -> cont_5_lstm1_cont_slice_4_split_0
I1018 00:02:02.000892 29678 net.cpp:380] cont_5_lstm1_cont_slice_4_split -> cont_5_lstm1_cont_slice_4_split_1
I1018 00:02:02.001003 29678 net.cpp:122] Setting up cont_5_lstm1_cont_slice_4_split
I1018 00:02:02.001032 29678 net.cpp:129] Top shape: 1 5 (5)
I1018 00:02:02.001040 29678 net.cpp:129] Top shape: 1 5 (5)
I1018 00:02:02.001055 29678 net.cpp:137] Memory required for data: 185160
I1018 00:02:02.001062 29678 layer_factory.hpp:77] Creating layer cont_6_lstm1_cont_slice_5_split
I1018 00:02:02.001087 29678 net.cpp:84] Creating Layer cont_6_lstm1_cont_slice_5_split
I1018 00:02:02.001103 29678 net.cpp:406] cont_6_lstm1_cont_slice_5_split <- cont_6
I1018 00:02:02.001127 29678 net.cpp:380] cont_6_lstm1_cont_slice_5_split -> cont_6_lstm1_cont_slice_5_split_0
I1018 00:02:02.001148 29678 net.cpp:380] cont_6_lstm1_cont_slice_5_split -> cont_6_lstm1_cont_slice_5_split_1
I1018 00:02:02.001268 29678 net.cpp:122] Setting up cont_6_lstm1_cont_slice_5_split
I1018 00:02:02.001320 29678 net.cpp:129] Top shape: 1 5 (5)
I1018 00:02:02.001343 29678 net.cpp:129] Top shape: 1 5 (5)
I1018 00:02:02.001350 29678 net.cpp:137] Memory required for data: 185200
I1018 00:02:02.001359 29678 layer_factory.hpp:77] Creating layer cont_7_lstm1_cont_slice_6_split
I1018 00:02:02.001376 29678 net.cpp:84] Creating Layer cont_7_lstm1_cont_slice_6_split
I1018 00:02:02.001384 29678 net.cpp:406] cont_7_lstm1_cont_slice_6_split <- cont_7
I1018 00:02:02.001410 29678 net.cpp:380] cont_7_lstm1_cont_slice_6_split -> cont_7_lstm1_cont_slice_6_split_0
I1018 00:02:02.001443 29678 net.cpp:380] cont_7_lstm1_cont_slice_6_split -> cont_7_lstm1_cont_slice_6_split_1
I1018 00:02:02.001576 29678 net.cpp:122] Setting up cont_7_lstm1_cont_slice_6_split
I1018 00:02:02.001583 29678 net.cpp:129] Top shape: 1 5 (5)
I1018 00:02:02.001587 29678 net.cpp:129] Top shape: 1 5 (5)
I1018 00:02:02.001591 29678 net.cpp:137] Memory required for data: 185240
I1018 00:02:02.001595 29678 layer_factory.hpp:77] Creating layer cont_8_lstm1_cont_slice_7_split
I1018 00:02:02.001600 29678 net.cpp:84] Creating Layer cont_8_lstm1_cont_slice_7_split
I1018 00:02:02.001605 29678 net.cpp:406] cont_8_lstm1_cont_slice_7_split <- cont_8
I1018 00:02:02.001612 29678 net.cpp:380] cont_8_lstm1_cont_slice_7_split -> cont_8_lstm1_cont_slice_7_split_0
I1018 00:02:02.001618 29678 net.cpp:380] cont_8_lstm1_cont_slice_7_split -> cont_8_lstm1_cont_slice_7_split_1
I1018 00:02:02.001647 29678 net.cpp:122] Setting up cont_8_lstm1_cont_slice_7_split
I1018 00:02:02.001653 29678 net.cpp:129] Top shape: 1 5 (5)
I1018 00:02:02.001658 29678 net.cpp:129] Top shape: 1 5 (5)
I1018 00:02:02.001662 29678 net.cpp:137] Memory required for data: 185280
I1018 00:02:02.001665 29678 layer_factory.hpp:77] Creating layer cont_9_lstm1_cont_slice_8_split
I1018 00:02:02.001670 29678 net.cpp:84] Creating Layer cont_9_lstm1_cont_slice_8_split
I1018 00:02:02.001674 29678 net.cpp:406] cont_9_lstm1_cont_slice_8_split <- cont_9
I1018 00:02:02.001679 29678 net.cpp:380] cont_9_lstm1_cont_slice_8_split -> cont_9_lstm1_cont_slice_8_split_0
I1018 00:02:02.001687 29678 net.cpp:380] cont_9_lstm1_cont_slice_8_split -> cont_9_lstm1_cont_slice_8_split_1
I1018 00:02:02.001768 29678 net.cpp:122] Setting up cont_9_lstm1_cont_slice_8_split
I1018 00:02:02.001817 29678 net.cpp:129] Top shape: 1 5 (5)
I1018 00:02:02.001833 29678 net.cpp:129] Top shape: 1 5 (5)
I1018 00:02:02.001847 29678 net.cpp:137] Memory required for data: 185320
I1018 00:02:02.001862 29678 layer_factory.hpp:77] Creating layer cont_10_lstm1_cont_slice_9_split
I1018 00:02:02.001893 29678 net.cpp:84] Creating Layer cont_10_lstm1_cont_slice_9_split
I1018 00:02:02.001905 29678 net.cpp:406] cont_10_lstm1_cont_slice_9_split <- cont_10
I1018 00:02:02.001922 29678 net.cpp:380] cont_10_lstm1_cont_slice_9_split -> cont_10_lstm1_cont_slice_9_split_0
I1018 00:02:02.001945 29678 net.cpp:380] cont_10_lstm1_cont_slice_9_split -> cont_10_lstm1_cont_slice_9_split_1
I1018 00:02:02.002089 29678 net.cpp:122] Setting up cont_10_lstm1_cont_slice_9_split
I1018 00:02:02.002141 29678 net.cpp:129] Top shape: 1 5 (5)
I1018 00:02:02.002147 29678 net.cpp:129] Top shape: 1 5 (5)
I1018 00:02:02.002159 29678 net.cpp:137] Memory required for data: 185360
I1018 00:02:02.002169 29678 layer_factory.hpp:77] Creating layer cont_11_lstm1_cont_slice_10_split
I1018 00:02:02.002182 29678 net.cpp:84] Creating Layer cont_11_lstm1_cont_slice_10_split
I1018 00:02:02.002190 29678 net.cpp:406] cont_11_lstm1_cont_slice_10_split <- cont_11
I1018 00:02:02.002218 29678 net.cpp:380] cont_11_lstm1_cont_slice_10_split -> cont_11_lstm1_cont_slice_10_split_0
I1018 00:02:02.002230 29678 net.cpp:380] cont_11_lstm1_cont_slice_10_split -> cont_11_lstm1_cont_slice_10_split_1
I1018 00:02:02.002351 29678 net.cpp:122] Setting up cont_11_lstm1_cont_slice_10_split
I1018 00:02:02.002385 29678 net.cpp:129] Top shape: 1 5 (5)
I1018 00:02:02.002394 29678 net.cpp:129] Top shape: 1 5 (5)
I1018 00:02:02.002406 29678 net.cpp:137] Memory required for data: 185400
I1018 00:02:02.002424 29678 layer_factory.hpp:77] Creating layer cont_12_lstm1_cont_slice_11_split
I1018 00:02:02.002449 29678 net.cpp:84] Creating Layer cont_12_lstm1_cont_slice_11_split
I1018 00:02:02.002460 29678 net.cpp:406] cont_12_lstm1_cont_slice_11_split <- cont_12
I1018 00:02:02.002490 29678 net.cpp:380] cont_12_lstm1_cont_slice_11_split -> cont_12_lstm1_cont_slice_11_split_0
I1018 00:02:02.002506 29678 net.cpp:380] cont_12_lstm1_cont_slice_11_split -> cont_12_lstm1_cont_slice_11_split_1
I1018 00:02:02.002635 29678 net.cpp:122] Setting up cont_12_lstm1_cont_slice_11_split
I1018 00:02:02.002665 29678 net.cpp:129] Top shape: 1 5 (5)
I1018 00:02:02.002679 29678 net.cpp:129] Top shape: 1 5 (5)
I1018 00:02:02.002686 29678 net.cpp:137] Memory required for data: 185440
I1018 00:02:02.002692 29678 layer_factory.hpp:77] Creating layer cont_13_lstm1_cont_slice_12_split
I1018 00:02:02.002709 29678 net.cpp:84] Creating Layer cont_13_lstm1_cont_slice_12_split
I1018 00:02:02.002732 29678 net.cpp:406] cont_13_lstm1_cont_slice_12_split <- cont_13
I1018 00:02:02.002748 29678 net.cpp:380] cont_13_lstm1_cont_slice_12_split -> cont_13_lstm1_cont_slice_12_split_0
I1018 00:02:02.002789 29678 net.cpp:380] cont_13_lstm1_cont_slice_12_split -> cont_13_lstm1_cont_slice_12_split_1
I1018 00:02:02.002892 29678 net.cpp:122] Setting up cont_13_lstm1_cont_slice_12_split
I1018 00:02:02.002939 29678 net.cpp:129] Top shape: 1 5 (5)
I1018 00:02:02.002951 29678 net.cpp:129] Top shape: 1 5 (5)
I1018 00:02:02.002957 29678 net.cpp:137] Memory required for data: 185480
I1018 00:02:02.002970 29678 layer_factory.hpp:77] Creating layer cont_14_lstm1_cont_slice_13_split
I1018 00:02:02.003000 29678 net.cpp:84] Creating Layer cont_14_lstm1_cont_slice_13_split
I1018 00:02:02.003006 29678 net.cpp:406] cont_14_lstm1_cont_slice_13_split <- cont_14
I1018 00:02:02.003026 29678 net.cpp:380] cont_14_lstm1_cont_slice_13_split -> cont_14_lstm1_cont_slice_13_split_0
I1018 00:02:02.003070 29678 net.cpp:380] cont_14_lstm1_cont_slice_13_split -> cont_14_lstm1_cont_slice_13_split_1
I1018 00:02:02.003104 29678 net.cpp:122] Setting up cont_14_lstm1_cont_slice_13_split
I1018 00:02:02.003110 29678 net.cpp:129] Top shape: 1 5 (5)
I1018 00:02:02.003115 29678 net.cpp:129] Top shape: 1 5 (5)
I1018 00:02:02.003118 29678 net.cpp:137] Memory required for data: 185520
I1018 00:02:02.003123 29678 layer_factory.hpp:77] Creating layer cont_15_lstm1_cont_slice_14_split
I1018 00:02:02.003129 29678 net.cpp:84] Creating Layer cont_15_lstm1_cont_slice_14_split
I1018 00:02:02.003134 29678 net.cpp:406] cont_15_lstm1_cont_slice_14_split <- cont_15
I1018 00:02:02.003139 29678 net.cpp:380] cont_15_lstm1_cont_slice_14_split -> cont_15_lstm1_cont_slice_14_split_0
I1018 00:02:02.003146 29678 net.cpp:380] cont_15_lstm1_cont_slice_14_split -> cont_15_lstm1_cont_slice_14_split_1
I1018 00:02:02.003175 29678 net.cpp:122] Setting up cont_15_lstm1_cont_slice_14_split
I1018 00:02:02.003180 29678 net.cpp:129] Top shape: 1 5 (5)
I1018 00:02:02.003185 29678 net.cpp:129] Top shape: 1 5 (5)
I1018 00:02:02.003190 29678 net.cpp:137] Memory required for data: 185560
I1018 00:02:02.003193 29678 layer_factory.hpp:77] Creating layer cont_16_lstm1_cont_slice_15_split
I1018 00:02:02.003198 29678 net.cpp:84] Creating Layer cont_16_lstm1_cont_slice_15_split
I1018 00:02:02.003202 29678 net.cpp:406] cont_16_lstm1_cont_slice_15_split <- cont_16
I1018 00:02:02.003208 29678 net.cpp:380] cont_16_lstm1_cont_slice_15_split -> cont_16_lstm1_cont_slice_15_split_0
I1018 00:02:02.003214 29678 net.cpp:380] cont_16_lstm1_cont_slice_15_split -> cont_16_lstm1_cont_slice_15_split_1
I1018 00:02:02.003244 29678 net.cpp:122] Setting up cont_16_lstm1_cont_slice_15_split
I1018 00:02:02.003250 29678 net.cpp:129] Top shape: 1 5 (5)
I1018 00:02:02.003255 29678 net.cpp:129] Top shape: 1 5 (5)
I1018 00:02:02.003259 29678 net.cpp:137] Memory required for data: 185600
I1018 00:02:02.003263 29678 layer_factory.hpp:77] Creating layer lstm1_x_transform
I1018 00:02:02.003275 29678 net.cpp:84] Creating Layer lstm1_x_transform
I1018 00:02:02.003279 29678 net.cpp:406] lstm1_x_transform <- x
I1018 00:02:02.003288 29678 net.cpp:380] lstm1_x_transform -> W_xc_x
I1018 00:02:02.022403 29678 net.cpp:122] Setting up lstm1_x_transform
I1018 00:02:02.022425 29678 net.cpp:129] Top shape: 16 5 2048 (163840)
I1018 00:02:02.022430 29678 net.cpp:137] Memory required for data: 840960
I1018 00:02:02.022442 29678 layer_factory.hpp:77] Creating layer lstm1_W_xc_x_slice
I1018 00:02:02.022452 29678 net.cpp:84] Creating Layer lstm1_W_xc_x_slice
I1018 00:02:02.022457 29678 net.cpp:406] lstm1_W_xc_x_slice <- W_xc_x
I1018 00:02:02.022467 29678 net.cpp:380] lstm1_W_xc_x_slice -> W_xc_x_1
I1018 00:02:02.022478 29678 net.cpp:380] lstm1_W_xc_x_slice -> W_xc_x_2
…
I1018 00:02:02.022539 29678 net.cpp:380] lstm1_W_xc_x_slice -> W_xc_x_10
I1018 00:02:02.022547 29678 net.cpp:380] lstm1_W_xc_x_slice -> W_xc_x_11
I1018 00:02:02.022553 29678 net.cpp:380] lstm1_W_xc_x_slice -> W_xc_x_12
I1018 00:02:02.022568 29678 net.cpp:380] lstm1_W_xc_x_slice -> W_xc_x_13
I1018 00:02:02.022577 29678 net.cpp:380] lstm1_W_xc_x_slice -> W_xc_x_14
I1018 00:02:02.022583 29678 net.cpp:380] lstm1_W_xc_x_slice -> W_xc_x_15
I1018 00:02:02.022590 29678 net.cpp:380] lstm1_W_xc_x_slice -> W_xc_x_16
I1018 00:02:02.022810 29678 net.cpp:122] Setting up lstm1_W_xc_x_slice
I1018 00:02:02.022821 29678 net.cpp:129] Top shape: 1 5 2048 (10240)
I1018 00:02:02.022827 29678 net.cpp:129] Top shape: 1 5 2048 (10240)
I1018 00:02:02.022831 29678 net.cpp:129] Top shape: 1 5 2048 (10240)
I1018 00:02:02.022836 29678 net.cpp:129] Top shape: 1 5 2048 (10240)
I1018 00:02:02.022841 29678 net.cpp:129] Top shape: 1 5 2048 (10240)
I1018 00:02:02.022845 29678 net.cpp:129] Top shape: 1 5 2048 (10240)
I1018 00:02:02.022850 29678 net.cpp:129] Top shape: 1 5 2048 (10240)
I1018 00:02:02.022855 29678 net.cpp:129] Top shape: 1 5 2048 (10240)
I1018 00:02:02.022860 29678 net.cpp:129] Top shape: 1 5 2048 (10240)
I1018 00:02:02.022864 29678 net.cpp:129] Top shape: 1 5 2048 (10240)
I1018 00:02:02.022868 29678 net.cpp:129] Top shape: 1 5 2048 (10240)
I1018 00:02:02.022874 29678 net.cpp:129] Top shape: 1 5 2048 (10240)
I1018 00:02:02.022879 29678 net.cpp:129] Top shape: 1 5 2048 (10240)
I1018 00:02:02.022883 29678 net.cpp:129] Top shape: 1 5 2048 (10240)
I1018 00:02:02.022888 29678 net.cpp:129] Top shape: 1 5 2048 (10240)
I1018 00:02:02.022893 29678 net.cpp:129] Top shape: 1 5 2048 (10240)
I1018 00:02:02.022897 29678 net.cpp:137] Memory required for data: 1496320
I1018 00:02:02.022902 29678 layer_factory.hpp:77] Creating layer lstm1_h_conted_0
I1018 00:02:02.022914 29678 net.cpp:84] Creating Layer lstm1_h_conted_0
I1018 00:02:02.022919 29678 net.cpp:406] lstm1_h_conted_0 <- h_0
I1018 00:02:02.022927 29678 net.cpp:406] lstm1_h_conted_0 <- cont_1_lstm1_cont_slice_0_split_0
I1018 00:02:02.022938 29678 net.cpp:380] lstm1_h_conted_0 -> h_conted_0
I1018 00:02:02.023005 29678 net.cpp:122] Setting up lstm1_h_conted_0
I1018 00:02:02.023013 29678 net.cpp:129] Top shape: 1 5 512 (2560)
I1018 00:02:02.023017 29678 net.cpp:137] Memory required for data: 1506560
I1018 00:02:02.023021 29678 layer_factory.hpp:77] Creating layer lstm1_transform_1
I1018 00:02:02.023030 29678 net.cpp:84] Creating Layer lstm1_transform_1
I1018 00:02:02.023033 29678 net.cpp:406] lstm1_transform_1 <- h_conted_0
I1018 00:02:02.023041 29678 net.cpp:380] lstm1_transform_1 -> W_hc_h_0
I1018 00:02:02.034900 29678 net.cpp:122] Setting up lstm1_transform_1
I1018 00:02:02.034932 29678 net.cpp:129] Top shape: 1 5 2048 (10240)
I1018 00:02:02.034937 29678 net.cpp:137] Memory required for data: 1547520
I1018 00:02:02.034950 29678 layer_factory.hpp:77] Creating layer lstm1_gate_input_1
I1018 00:02:02.034963 29678 net.cpp:84] Creating Layer lstm1_gate_input_1
I1018 00:02:02.034970 29678 net.cpp:406] lstm1_gate_input_1 <- W_hc_h_0
I1018 00:02:02.034976 29678 net.cpp:406] lstm1_gate_input_1 <- W_xc_x_1
I1018 00:02:02.034986 29678 net.cpp:380] lstm1_gate_input_1 -> gate_input_1
I1018 00:02:02.035024 29678 net.cpp:122] Setting up lstm1_gate_input_1
I1018 00:02:02.035033 29678 net.cpp:129] Top shape: 1 5 2048 (10240)
I1018 00:02:02.035037 29678 net.cpp:137] Memory required for data: 1588480
I1018 00:02:02.035042 29678 layer_factory.hpp:77] Creating layer lstm1_unit_1
I1018 00:02:02.035050 29678 net.cpp:84] Creating Layer lstm1_unit_1
I1018 00:02:02.035056 29678 net.cpp:406] lstm1_unit_1 <- c_0
I1018 00:02:02.035063 29678 net.cpp:406] lstm1_unit_1 <- gate_input_1
I1018 00:02:02.035068 29678 net.cpp:406] lstm1_unit_1 <- cont_1_lstm1_cont_slice_0_split_1
I1018 00:02:02.035074 29678 net.cpp:380] lstm1_unit_1 -> c_1
I1018 00:02:02.035082 29678 net.cpp:380] lstm1_unit_1 -> h_1
I1018 00:02:02.035132 29678 net.cpp:122] Setting up lstm1_unit_1
I1018 00:02:02.035140 29678 net.cpp:129] Top shape: 1 5 512 (2560)
I1018 00:02:02.035145 29678 net.cpp:129] Top shape: 1 5 512 (2560)
I1018 00:02:02.035148 29678 net.cpp:137] Memory required for data: 1608960
I1018 00:02:02.035152 29678 layer_factory.hpp:77] Creating layer h_1_lstm1_unit_1_1_split
I1018 00:02:02.035159 29678 net.cpp:84] Creating Layer h_1_lstm1_unit_1_1_split
I1018 00:02:02.035163 29678 net.cpp:406] h_1_lstm1_unit_1_1_split <- h_1
I1018 00:02:02.035169 29678 net.cpp:380] h_1_lstm1_unit_1_1_split -> h_1_lstm1_unit_1_1_split_0
I1018 00:02:02.035181 29678 net.cpp:380] h_1_lstm1_unit_1_1_split -> h_1_lstm1_unit_1_1_split_1
I1018 00:02:02.035213 29678 net.cpp:122] Setting up h_1_lstm1_unit_1_1_split
I1018 00:02:02.035219 29678 net.cpp:129] Top shape: 1 5 512 (2560)
I1018 00:02:02.035224 29678 net.cpp:129] Top shape: 1 5 512 (2560)
I1018 00:02:02.035228 29678 net.cpp:137] Memory required for data: 1629440
I1018 00:02:02.035233 29678 layer_factory.hpp:77] Creating layer lstm1_h_conted_1
I1018 00:02:02.035240 29678 net.cpp:84] Creating Layer lstm1_h_conted_1
I1018 00:02:02.035245 29678 net.cpp:406] lstm1_h_conted_1 <- h_1_lstm1_unit_1_1_split_0
I1018 00:02:02.035251 29678 net.cpp:406] lstm1_h_conted_1 <- cont_2_lstm1_cont_slice_1_split_0
I1018 00:02:02.035257 29678 net.cpp:380] lstm1_h_conted_1 -> h_conted_1
I1018 00:02:02.035318 29678 net.cpp:122] Setting up lstm1_h_conted_1
I1018 00:02:02.035336 29678 net.cpp:129] Top shape: 1 5 512 (2560)
I1018 00:02:02.035341 29678 net.cpp:137] Memory required for data: 1639680
I1018 00:02:02.035346 29678 layer_factory.hpp:77] Creating layer lstm1_transform_2
I1018 00:02:02.035354 29678 net.cpp:84] Creating Layer lstm1_transform_2
I1018 00:02:02.035358 29678 net.cpp:406] lstm1_transform_2 <- h_conted_1
I1018 00:02:02.035365 29678 net.cpp:380] lstm1_transform_2 -> W_hc_h_1
I1018 00:02:02.046943 29678 net.cpp:122] Setting up lstm1_transform_2
I1018 00:02:02.046972 29678 net.cpp:129] Top shape: 1 5 2048 (10240)
I1018 00:02:02.046977 29678 net.cpp:137] Memory required for data: 1680640
I1018 00:02:02.046982 29678 net.cpp:465] Sharing parameters 'W_hc' owned by layer 'lstm1_transform_1', param index 0
I1018 00:02:02.046988 29678 layer_factory.hpp:77] Creating layer lstm1_gate_input_2
I1018 00:02:02.046995 29678 net.cpp:84] Creating Layer lstm1_gate_input_2
I1018 00:02:02.047000 29678 net.cpp:406] lstm1_gate_input_2 <- W_hc_h_1
I1018 00:02:02.047019 29678 net.cpp:406] lstm1_gate_input_2 <- W_xc_x_2
I1018 00:02:02.047024 29678 net.cpp:380] lstm1_gate_input_2 -> gate_input_2
I1018 00:02:02.047055 29678 net.cpp:122] Setting up lstm1_gate_input_2
I1018 00:02:02.047061 29678 net.cpp:129] Top shape: 1 5 2048 (10240)
I1018 00:02:02.047065 29678 net.cpp:137] Memory required for data: 1721600
I1018 00:02:02.047070 29678 layer_factory.hpp:77] Creating layer lstm1_unit_2
I1018 00:02:02.047076 29678 net.cpp:84] Creating Layer lstm1_unit_2
I1018 00:02:02.047081 29678 net.cpp:406] lstm1_unit_2 <- c_1
I1018 00:02:02.047086 29678 net.cpp:406] lstm1_unit_2 <- gate_input_2
I1018 00:02:02.047092 29678 net.cpp:406] lstm1_unit_2 <- cont_2_lstm1_cont_slice_1_split_1
I1018 00:02:02.047098 29678 net.cpp:380] lstm1_unit_2 -> c_2
I1018 00:02:02.047106 29678 net.cpp:380] lstm1_unit_2 -> h_2
I1018 00:02:02.047149 29678 net.cpp:122] Setting up lstm1_unit_2
I1018 00:02:02.047155 29678 net.cpp:129] Top shape: 1 5 512 (2560)
I1018 00:02:02.047160 29678 net.cpp:129] Top shape: 1 5 512 (2560)
I1018 00:02:02.047164 29678 net.cpp:137] Memory required for data: 1742080
I1018 00:02:02.047169 29678 layer_factory.hpp:77] Creating layer h_2_lstm1_unit_2_1_split
I1018 00:02:02.047176 29678 net.cpp:84] Creating Layer h_2_lstm1_unit_2_1_split
I1018 00:02:02.047181 29678 net.cpp:406] h_2_lstm1_unit_2_1_split <- h_2
I1018 00:02:02.047188 29678 net.cpp:380] h_2_lstm1_unit_2_1_split -> h_2_lstm1_unit_2_1_split_0
I1018 00:02:02.047194 29678 net.cpp:380] h_2_lstm1_unit_2_1_split -> h_2_lstm1_unit_2_1_split_1
I1018 00:02:02.047226 29678 net.cpp:122] Setting up h_2_lstm1_unit_2_1_split
I1018 00:02:02.047232 29678 net.cpp:129] Top shape: 1 5 512 (2560)
I1018 00:02:02.047237 29678 net.cpp:129] Top shape: 1 5 512 (2560)
I1018 00:02:02.047241 29678 net.cpp:137] Memory required for data: 1762560
I1018 00:02:02.047245 29678 layer_factory.hpp:77] Creating layer lstm1_h_conted_2
I1018 00:02:02.047256 29678 net.cpp:84] Creating Layer lstm1_h_conted_2
I1018 00:02:02.047261 29678 net.cpp:406] lstm1_h_conted_2 <- h_2_lstm1_unit_2_1_split_0
I1018 00:02:02.047267 29678 net.cpp:406] lstm1_h_conted_2 <- cont_3_lstm1_cont_slice_2_split_0
I1018 00:02:02.047273 29678 net.cpp:380] lstm1_h_conted_2 -> h_conted_2
I1018 00:02:02.047327 29678 net.cpp:122] Setting up lstm1_h_conted_2
I1018 00:02:02.047334 29678 net.cpp:129] Top shape: 1 5 512 (2560)
I1018 00:02:02.047338 29678 net.cpp:137] Memory required for data: 1772800
I1018 00:02:02.047343 29678 layer_factory.hpp:77] Creating layer lstm1_transform_3
I1018 00:02:02.047366 29678 net.cpp:84] Creating Layer lstm1_transform_3
I1018 00:02:02.047371 29678 net.cpp:406] lstm1_transform_3 <- h_conted_2
I1018 00:02:02.047379 29678 net.cpp:380] lstm1_transform_3 -> W_hc_h_2
I1018 00:02:02.058787 29678 net.cpp:122] Setting up lstm1_transform_3
I1018 00:02:02.058820 29678 net.cpp:129] Top shape: 1 5 2048 (10240)
I1018 00:02:02.058825 29678 net.cpp:137] Memory required for data: 1813760
I1018 00:02:02.058832 29678 net.cpp:465] Sharing parameters 'W_hc' owned by layer 'lstm1_transform_1', param index 0
I1018 00:02:02.058838 29678 layer_factory.hpp:77] Creating layer lstm1_gate_input_3
I1018 00:02:02.058846 29678 net.cpp:84] Creating Layer lstm1_gate_input_3
I1018 00:02:02.058851 29678 net.cpp:406] lstm1_gate_input_3 <- W_hc_h_2
I1018 00:02:02.058857 29678 net.cpp:406] lstm1_gate_input_3 <- W_xc_x_3
I1018 00:02:02.058863 29678 net.cpp:380] lstm1_gate_input_3 -> gate_input_3
I1018 00:02:02.058894 29678 net.cpp:122] Setting up lstm1_gate_input_3
I1018 00:02:02.058902 29678 net.cpp:129] Top shape: 1 5 2048 (10240)
I1018 00:02:02.058905 29678 net.cpp:137] Memory required for data: 1854720
I1018 00:02:02.058909 29678 layer_factory.hpp:77] Creating layer lstm1_unit_3
I1018 00:02:02.058915 29678 net.cpp:84] Creating Layer lstm1_unit_3
I1018 00:02:02.058920 29678 net.cpp:406] lstm1_unit_3 <- c_2
I1018 00:02:02.058925 29678 net.cpp:406] lstm1_unit_3 <- gate_input_3
I1018 00:02:02.058931 29678 net.cpp:406] lstm1_unit_3 <- cont_3_lstm1_cont_slice_2_split_1
I1018 00:02:02.058936 29678 net.cpp:380] lstm1_unit_3 -> c_3
I1018 00:02:02.058944 29678 net.cpp:380] lstm1_unit_3 -> h_3
I1018 00:02:02.058986 29678 net.cpp:122] Setting up lstm1_unit_3
I1018 00:02:02.058992 29678 net.cpp:129] Top shape: 1 5 512 (2560)
I1018 00:02:02.058997 29678 net.cpp:129] Top shape: 1 5 512 (2560)
I1018 00:02:02.059001 29678 net.cpp:137] Memory required for data: 1875200
I1018 00:02:02.059005 29678 layer_factory.hpp:77] Creating layer h_3_lstm1_unit_3_1_split
I1018 00:02:02.059012 29678 net.cpp:84] Creating Layer h_3_lstm1_unit_3_1_split
I1018 00:02:02.059016 29678 net.cpp:406] h_3_lstm1_unit_3_1_split <- h_3
I1018 00:02:02.059022 29678 net.cpp:380] h_3_lstm1_unit_3_1_split -> h_3_lstm1_unit_3_1_split_0
I1018 00:02:02.059029 29678 net.cpp:380] h_3_lstm1_unit_3_1_split -> h_3_lstm1_unit_3_1_split_1
I1018 00:02:02.059059 29678 net.cpp:122] Setting up h_3_lstm1_unit_3_1_split
I1018 00:02:02.059065 29678 net.cpp:129] Top shape: 1 5 512 (2560)
I1018 00:02:02.059070 29678 net.cpp:129] Top shape: 1 5 512 (2560)
I1018 00:02:02.059073 29678 net.cpp:137] Memory required for data: 1895680
I1018 00:02:02.059077 29678 layer_factory.hpp:77] Creating layer lstm1_h_conted_3
I1018 00:02:02.059087 29678 net.cpp:84] Creating Layer lstm1_h_conted_3
I1018 00:02:02.059090 29678 net.cpp:406] lstm1_h_conted_3 <- h_3_lstm1_unit_3_1_split_0
I1018 00:02:02.059096 29678 net.cpp:406] lstm1_h_conted_3 <- cont_4_lstm1_cont_slice_3_split_0
I1018 00:02:02.059103 29678 net.cpp:380] lstm1_h_conted_3 -> h_conted_3
I1018 00:02:02.059154 29678 net.cpp:122] Setting up lstm1_h_conted_3
I1018 00:02:02.059160 29678 net.cpp:129] Top shape: 1 5 512 (2560)
I1018 00:02:02.059165 29678 net.cpp:137] Memory required for data: 1905920
I1018 00:02:02.059168 29678 layer_factory.hpp:77] Creating layer lstm1_transform_4
I1018 00:02:02.059175 29678 net.cpp:84] Creating Layer lstm1_transform_4
I1018 00:02:02.059180 29678 net.cpp:406] lstm1_transform_4 <- h_conted_3
I1018 00:02:02.059186 29678 net.cpp:380] lstm1_transform_4 -> W_hc_h_3
I1018 00:02:02.070461 29678 net.cpp:122] Setting up lstm1_transform_4
I1018 00:02:02.070493 29678 net.cpp:129] Top shape: 1 5 2048 (10240)
I1018 00:02:02.070498 29678 net.cpp:137] Memory required for data: 1946880
I1018 00:02:02.070504 29678 net.cpp:465] Sharing parameters 'W_hc' owned by layer 'lstm1_transform_1', param index 0
I1018 00:02:02.070509 29678 layer_factory.hpp:77] Creating layer lstm1_gate_input_4
I1018 00:02:02.070518 29678 net.cpp:84] Creating Layer lstm1_gate_input_4
I1018 00:02:02.070523 29678 net.cpp:406] lstm1_gate_input_4 <- W_hc_h_3
I1018 00:02:02.070529 29678 net.cpp:406] lstm1_gate_input_4 <- W_xc_x_4
I1018 00:02:02.070538 29678 net.cpp:380] lstm1_gate_input_4 -> gate_input_4
I1018 00:02:02.070569 29678 net.cpp:122] Setting up lstm1_gate_input_4
I1018 00:02:02.070576 29678 net.cpp:129] Top shape: 1 5 2048 (10240)
I1018 00:02:02.070580 29678 net.cpp:137] Memory required for data: 1987840
I1018 00:02:02.070585 29678 layer_factory.hpp:77] Creating layer lstm1_unit_4
I1018 00:02:02.070591 29678 net.cpp:84] Creating Layer lstm1_unit_4
I1018 00:02:02.070595 29678 net.cpp:406] lstm1_unit_4 <- c_3
I1018 00:02:02.070601 29678 net.cpp:406] lstm1_unit_4 <- gate_input_4
I1018 00:02:02.070606 29678 net.cpp:406] lstm1_unit_4 <- cont_4_lstm1_cont_slice_3_split_1
I1018 00:02:02.070613 29678 net.cpp:380] lstm1_unit_4 -> c_4
I1018 00:02:02.070621 29678 net.cpp:380] lstm1_unit_4 -> h_4
I1018 00:02:02.070663 29678 net.cpp:122] Setting up lstm1_unit_4
I1018 00:02:02.070670 29678 net.cpp:129] Top shape: 1 5 512 (2560)
I1018 00:02:02.070675 29678 net.cpp:129] Top shape: 1 5 512 (2560)
I1018 00:02:02.070679 29678 net.cpp:137] Memory required for data: 2008320
I1018 00:02:02.070683 29678 layer_factory.hpp:77] Creating layer h_4_lstm1_unit_4_1_split
I1018 00:02:02.070690 29678 net.cpp:84] Creating Layer h_4_lstm1_unit_4_1_split
I1018 00:02:02.070695 29678 net.cpp:406] h_4_lstm1_unit_4_1_split <- h_4
I1018 00:02:02.070701 29678 net.cpp:380] h_4_lstm1_unit_4_1_split -> h_4_lstm1_unit_4_1_split_0
I1018 00:02:02.070708 29678 net.cpp:380] h_4_lstm1_unit_4_1_split -> h_4_lstm1_unit_4_1_split_1
I1018 00:02:02.070740 29678 net.cpp:122] Setting up h_4_lstm1_unit_4_1_split
I1018 00:02:02.070746 29678 net.cpp:129] Top shape: 1 5 512 (2560)
I1018 00:02:02.070751 29678 net.cpp:129] Top shape: 1 5 512 (2560)
I1018 00:02:02.070755 29678 net.cpp:137] Memory required for data: 2028800
I1018 00:02:02.070758 29678 layer_factory.hpp:77] Creating layer lstm1_h_conted_4
I1018 00:02:02.070767 29678 net.cpp:84] Creating Layer lstm1_h_conted_4
I1018 00:02:02.070772 29678 net.cpp:406] lstm1_h_conted_4 <- h_4_lstm1_unit_4_1_split_0
I1018 00:02:02.070778 29678 net.cpp:406] lstm1_h_conted_4 <- cont_5_lstm1_cont_slice_4_split_0
I1018 00:02:02.070785 29678 net.cpp:380] lstm1_h_conted_4 -> h_conted_4
I1018 00:02:02.070839 29678 net.cpp:122] Setting up lstm1_h_conted_4
I1018 00:02:02.070845 29678 net.cpp:129] Top shape: 1 5 512 (2560)
I1018 00:02:02.070849 29678 net.cpp:137] Memory required for data: 2039040
I1018 00:02:02.070853 29678 layer_factory.hpp:77] Creating layer lstm1_transform_5
I1018 00:02:02.070863 29678 net.cpp:84] Creating Layer lstm1_transform_5
I1018 00:02:02.070868 29678 net.cpp:406] lstm1_transform_5 <- h_conted_4
I1018 00:02:02.070873 29678 net.cpp:380] lstm1_transform_5 -> W_hc_h_4
I1018 00:02:02.081459 29678 net.cpp:122] Setting up lstm1_transform_5
I1018 00:02:02.081485 29678 net.cpp:129] Top shape: 1 5 2048 (10240)
I1018 00:02:02.081490 29678 net.cpp:137] Memory required for data: 2080000
I1018 00:02:02.081495 29678 net.cpp:465] Sharing parameters 'W_hc' owned by layer 'lstm1_transform_1', param index 0
I1018 00:02:02.081499 29678 layer_factory.hpp:77] Creating layer lstm1_gate_input_5
I1018 00:02:02.081506 29678 net.cpp:84] Creating Layer lstm1_gate_input_5
I1018 00:02:02.081511 29678 net.cpp:406] lstm1_gate_input_5 <- W_hc_h_4
I1018 00:02:02.081517 29678 net.cpp:406] lstm1_gate_input_5 <- W_xc_x_5
I1018 00:02:02.081523 29678 net.cpp:380] lstm1_gate_input_5 -> gate_input_5
I1018 00:02:02.081548 29678 net.cpp:122] Setting up lstm1_gate_input_5
I1018 00:02:02.081554 29678 net.cpp:129] Top shape: 1 5 2048 (10240)
I1018 00:02:02.081558 29678 net.cpp:137] Memory required for data: 2120960
I1018 00:02:02.081562 29678 layer_factory.hpp:77] Creating layer lstm1_unit_5
I1018 00:02:02.081570 29678 net.cpp:84] Creating Layer lstm1_unit_5
I1018 00:02:02.081575 29678 net.cpp:406] lstm1_unit_5 <- c_4
I1018 00:02:02.081580 29678 net.cpp:406] lstm1_unit_5 <- gate_input_5
I1018 00:02:02.081585 29678 net.cpp:406] lstm1_unit_5 <- cont_5_lstm1_cont_slice_4_split_1
I1018 00:02:02.081591 29678 net.cpp:380] lstm1_unit_5 -> c_5
I1018 00:02:02.081598 29678 net.cpp:380] lstm1_unit_5 -> h_5
I1018 00:02:02.081650 29678 net.cpp:122] Setting up lstm1_unit_5
I1018 00:02:02.081656 29678 net.cpp:129] Top shape: 1 5 512 (2560)
I1018 00:02:02.081661 29678 net.cpp:129] Top shape: 1 5 512 (2560)
I1018 00:02:02.081665 29678 net.cpp:137] Memory required for data: 2141440
I1018 00:02:02.081668 29678 layer_factory.hpp:77] Creating layer h_5_lstm1_unit_5_1_split
I1018 00:02:02.081673 29678 net.cpp:84] Creating Layer h_5_lstm1_unit_5_1_split
I1018 00:02:02.081677 29678 net.cpp:406] h_5_lstm1_unit_5_1_split <- h_5
I1018 00:02:02.081684 29678 net.cpp:380] h_5_lstm1_unit_5_1_split -> h_5_lstm1_unit_5_1_split_0
I1018 00:02:02.081691 29678 net.cpp:380] h_5_lstm1_unit_5_1_split -> h_5_lstm1_unit_5_1_split_1
I1018 00:02:02.081717 29678 net.cpp:122] Setting up h_5_lstm1_unit_5_1_split
I1018 00:02:02.081722 29678 net.cpp:129] Top shape: 1 5 512 (2560)
I1018 00:02:02.081727 29678 net.cpp:129] Top shape: 1 5 512 (2560)
I1018 00:02:02.081730 29678 net.cpp:137] Memory required for data: 2161920
I1018 00:02:02.081734 29678 layer_factory.hpp:77] Creating layer lstm1_h_conted_5
I1018 00:02:02.081742 29678 net.cpp:84] Creating Layer lstm1_h_conted_5
I1018 00:02:02.081745 29678 net.cpp:406] lstm1_h_conted_5 <- h_5_lstm1_unit_5_1_split_0
I1018 00:02:02.081751 29678 net.cpp:406] lstm1_h_conted_5 <- cont_6_lstm1_cont_slice_5_split_0
I1018 00:02:02.081758 29678 net.cpp:380] lstm1_h_conted_5 -> h_conted_5
I1018 00:02:02.081805 29678 net.cpp:122] Setting up lstm1_h_conted_5
I1018 00:02:02.081811 29678 net.cpp:129] Top shape: 1 5 512 (2560)
I1018 00:02:02.081815 29678 net.cpp:137] Memory required for data: 2172160
I1018 00:02:02.081818 29678 layer_factory.hpp:77] Creating layer lstm1_transform_6
I1018 00:02:02.081826 29678 net.cpp:84] Creating Layer lstm1_transform_6
I1018 00:02:02.081830 29678 net.cpp:406] lstm1_transform_6 <- h_conted_5
I1018 00:02:02.081837 29678 net.cpp:380] lstm1_transform_6 -> W_hc_h_5
I1018 00:02:02.092725 29678 net.cpp:122] Setting up lstm1_transform_6
I1018 00:02:02.092743 29678 net.cpp:129] Top shape: 1 5 2048 (10240)
I1018 00:02:02.092747 29678 net.cpp:137] Memory required for data: 2213120
I1018 00:02:02.092752 29678 net.cpp:465] Sharing parameters 'W_hc' owned by layer 'lstm1_transform_1', param index 0
I1018 00:02:02.092757 29678 layer_factory.hpp:77] Creating layer lstm1_gate_input_6
I1018 00:02:02.092767 29678 net.cpp:84] Creating Layer lstm1_gate_input_6
I1018 00:02:02.092772 29678 net.cpp:406] lstm1_gate_input_6 <- W_hc_h_5
I1018 00:02:02.092777 29678 net.cpp:406] lstm1_gate_input_6 <- W_xc_x_6
I1018 00:02:02.092783 29678 net.cpp:380] lstm1_gate_input_6 -> gate_input_6
I1018 00:02:02.092823 29678 net.cpp:122] Setting up lstm1_gate_input_6
I1018 00:02:02.092828 29678 net.cpp:129] Top shape: 1 5 2048 (10240)
I1018 00:02:02.092833 29678 net.cpp:137] Memory required for data: 2254080
I1018 00:02:02.092836 29678 layer_factory.hpp:77] Creating layer lstm1_unit_6
I1018 00:02:02.092849 29678 net.cpp:84] Creating Layer lstm1_unit_6
I1018 00:02:02.092854 29678 net.cpp:406] lstm1_unit_6 <- c_5
I1018 00:02:02.092859 29678 net.cpp:406] lstm1_unit_6 <- gate_input_6
I1018 00:02:02.092864 29678 net.cpp:406] lstm1_unit_6 <- cont_6_lstm1_cont_slice_5_split_1
I1018 00:02:02.092869 29678 net.cpp:380] lstm1_unit_6 -> c_6
I1018 00:02:02.092877 29678 net.cpp:380] lstm1_unit_6 -> h_6
I1018 00:02:02.092927 29678 net.cpp:122] Setting up lstm1_unit_6
I1018 00:02:02.092934 29678 net.cpp:129] Top shape: 1 5 512 (2560)
I1018 00:02:02.092939 29678 net.cpp:129] Top shape: 1 5 512 (2560)
I1018 00:02:02.092942 29678 net.cpp:137] Memory required for data: 2274560
I1018 00:02:02.092947 29678 layer_factory.hpp:77] Creating layer h_6_lstm1_unit_6_1_split
I1018 00:02:02.092952 29678 net.cpp:84] Creating Layer h_6_lstm1_unit_6_1_split
I1018 00:02:02.092957 29678 net.cpp:406] h_6_lstm1_unit_6_1_split <- h_6
I1018 00:02:02.092962 29678 net.cpp:380] h_6_lstm1_unit_6_1_split -> h_6_lstm1_unit_6_1_split_0
I1018 00:02:02.092970 29678 net.cpp:380] h_6_lstm1_unit_6_1_split -> h_6_lstm1_unit_6_1_split_1
I1018 00:02:02.093000 29678 net.cpp:122] Setting up h_6_lstm1_unit_6_1_split
I1018 00:02:02.093006 29678 net.cpp:129] Top shape: 1 5 512 (2560)
I1018 00:02:02.093010 29678 net.cpp:129] Top shape: 1 5 512 (2560)
I1018 00:02:02.093014 29678 net.cpp:137] Memory required for data: 2295040
I1018 00:02:02.093019 29678 layer_factory.hpp:77] Creating layer lstm1_h_conted_6
I1018 00:02:02.093026 29678 net.cpp:84] Creating Layer lstm1_h_conted_6
I1018 00:02:02.093030 29678 net.cpp:406] lstm1_h_conted_6 <- h_6_lstm1_unit_6_1_split_0
I1018 00:02:02.093036 29678 net.cpp:406] lstm1_h_conted_6 <- cont_7_lstm1_cont_slice_6_split_0
I1018 00:02:02.093041 29678 net.cpp:380] lstm1_h_conted_6 -> h_conted_6
I1018 00:02:02.093096 29678 net.cpp:122] Setting up lstm1_h_conted_6
I1018 00:02:02.093102 29678 net.cpp:129] Top shape: 1 5 512 (2560)
I1018 00:02:02.093106 29678 net.cpp:137] Memory required for data: 2305280
I1018 00:02:02.093109 29678 layer_factory.hpp:77] Creating layer lstm1_transform_7
I1018 00:02:02.093118 29678 net.cpp:84] Creating Layer lstm1_transform_7
I1018 00:02:02.093122 29678 net.cpp:406] lstm1_transform_7 <- h_conted_6
I1018 00:02:02.093129 29678 net.cpp:380] lstm1_transform_7 -> W_hc_h_6
I1018 00:02:02.103689 29678 net.cpp:122] Setting up lstm1_transform_7
I1018 00:02:02.103706 29678 net.cpp:129] Top shape: 1 5 2048 (10240)
I1018 00:02:02.103710 29678 net.cpp:137] Memory required for data: 2346240
I1018 00:02:02.103718 29678 net.cpp:465] Sharing parameters 'W_hc' owned by layer 'lstm1_transform_1', param index 0
I1018 00:02:02.103724 29678 layer_factory.hpp:77] Creating layer lstm1_gate_input_7
I1018 00:02:02.103732 29678 net.cpp:84] Creating Layer lstm1_gate_input_7
I1018 00:02:02.103736 29678 net.cpp:406] lstm1_gate_input_7 <- W_hc_h_6
I1018 00:02:02.103742 29678 net.cpp:406] lstm1_gate_input_7 <- W_xc_x_7
I1018 00:02:02.103749 29678 net.cpp:380] lstm1_gate_input_7 -> gate_input_7
I1018 00:02:02.103786 29678 net.cpp:122] Setting up lstm1_gate_input_7
I1018 00:02:02.103793 29678 net.cpp:129] Top shape: 1 5 2048 (10240)
I1018 00:02:02.103797 29678 net.cpp:137] Memory required for data: 2387200
I1018 00:02:02.103801 29678 layer_factory.hpp:77] Creating layer lstm1_unit_7
I1018 00:02:02.103807 29678 net.cpp:84] Creating Layer lstm1_unit_7
I1018 00:02:02.103811 29678 net.cpp:406] lstm1_unit_7 <- c_6
I1018 00:02:02.103817 29678 net.cpp:406] lstm1_unit_7 <- gate_input_7
I1018 00:02:02.103822 29678 net.cpp:406] lstm1_unit_7 <- cont_7_lstm1_cont_slice_6_split_1
I1018 00:02:02.103830 29678 net.cpp:380] lstm1_unit_7 -> c_7
I1018 00:02:02.103837 29678 net.cpp:380] lstm1_unit_7 -> h_7
I1018 00:02:02.103881 29678 net.cpp:122] Setting up lstm1_unit_7
I1018 00:02:02.103888 29678 net.cpp:129] Top shape: 1 5 512 (2560)
I1018 00:02:02.103893 29678 net.cpp:129] Top shape: 1 5 512 (2560)
I1018 00:02:02.103896 29678 net.cpp:137] Memory required for data: 2407680
I1018 00:02:02.103900 29678 layer_factory.hpp:77] Creating layer h_7_lstm1_unit_7_1_split
I1018 00:02:02.103906 29678 net.cpp:84] Creating Layer h_7_lstm1_unit_7_1_split
I1018 00:02:02.103910 29678 net.cpp:406] h_7_lstm1_unit_7_1_split <- h_7
I1018 00:02:02.103916 29678 net.cpp:380] h_7_lstm1_unit_7_1_split -> h_7_lstm1_unit_7_1_split_0
I1018 00:02:02.103922 29678 net.cpp:380] h_7_lstm1_unit_7_1_split -> h_7_lstm1_unit_7_1_split_1
I1018 00:02:02.103953 29678 net.cpp:122] Setting up h_7_lstm1_unit_7_1_split
I1018 00:02:02.103960 29678 net.cpp:129] Top shape: 1 5 512 (2560)
I1018 00:02:02.103965 29678 net.cpp:129] Top shape: 1 5 512 (2560)
I1018 00:02:02.103968 29678 net.cpp:137] Memory required for data: 2428160
I1018 00:02:02.103972 29678 layer_factory.hpp:77] Creating layer lstm1_h_conted_7
I1018 00:02:02.103981 29678 net.cpp:84] Creating Layer lstm1_h_conted_7
I1018 00:02:02.103984 29678 net.cpp:406] lstm1_h_conted_7 <- h_7_lstm1_unit_7_1_split_0
I1018 00:02:02.103991 29678 net.cpp:406] lstm1_h_conted_7 <- cont_8_lstm1_cont_slice_7_split_0
I1018 00:02:02.103996 29678 net.cpp:380] lstm1_h_conted_7 -> h_conted_7
I1018 00:02:02.104071 29678 net.cpp:122] Setting up lstm1_h_conted_7
I1018 00:02:02.104080 29678 net.cpp:129] Top shape: 1 5 512 (2560)
I1018 00:02:02.104084 29678 net.cpp:137] Memory required for data: 2438400
I1018 00:02:02.104089 29678 layer_factory.hpp:77] Creating layer lstm1_transform_8
I1018 00:02:02.104097 29678 net.cpp:84] Creating Layer lstm1_transform_8
I1018 00:02:02.104102 29678 net.cpp:406] lstm1_transform_8 <- h_conted_7
I1018 00:02:02.104110 29678 net.cpp:380] lstm1_transform_8 -> W_hc_h_7
I1018 00:02:02.114905 29678 net.cpp:122] Setting up lstm1_transform_8
I1018 00:02:02.114933 29678 net.cpp:129] Top shape: 1 5 2048 (10240)
I1018 00:02:02.114938 29678 net.cpp:137] Memory required for data: 2479360
I1018 00:02:02.114943 29678 net.cpp:465] Sharing parameters 'W_hc' owned by layer 'lstm1_transform_1', param index 0
I1018 00:02:02.114948 29678 layer_factory.hpp:77] Creating layer lstm1_gate_input_8
I1018 00:02:02.114956 29678 net.cpp:84] Creating Layer lstm1_gate_input_8
I1018 00:02:02.114961 29678 net.cpp:406] lstm1_gate_input_8 <- W_hc_h_7
I1018 00:02:02.114967 29678 net.cpp:406] lstm1_gate_input_8 <- W_xc_x_8
I1018 00:02:02.114986 29678 net.cpp:380] lstm1_gate_input_8 -> gate_input_8
I1018 00:02:02.115013 29678 net.cpp:122] Setting up lstm1_gate_input_8
I1018 00:02:02.115020 29678 net.cpp:129] Top shape: 1 5 2048 (10240)
I1018 00:02:02.115023 29678 net.cpp:137] Memory required for data: 2520320
I1018 00:02:02.115028 29678 layer_factory.hpp:77] Creating layer lstm1_unit_8
I1018 00:02:02.115034 29678 net.cpp:84] Creating Layer lstm1_unit_8
I1018 00:02:02.115038 29678 net.cpp:406] lstm1_unit_8 <- c_7
I1018 00:02:02.115044 29678 net.cpp:406] lstm1_unit_8 <- gate_input_8
I1018 00:02:02.115049 29678 net.cpp:406] lstm1_unit_8 <- cont_8_lstm1_cont_slice_7_split_1
I1018 00:02:02.115056 29678 net.cpp:380] lstm1_unit_8 -> c_8
I1018 00:02:02.115064 29678 net.cpp:380] lstm1_unit_8 -> h_8
I1018 00:02:02.115106 29678 net.cpp:122] Setting up lstm1_unit_8
I1018 00:02:02.115113 29678 net.cpp:129] Top shape: 1 5 512 (2560)
I1018 00:02:02.115118 29678 net.cpp:129] Top shape: 1 5 512 (2560)
I1018 00:02:02.115121 29678 net.cpp:137] Memory required for data: 2540800
I1018 00:02:02.115125 29678 layer_factory.hpp:77] Creating layer h_8_lstm1_unit_8_1_split
I1018 00:02:02.115131 29678 net.cpp:84] Creating Layer h_8_lstm1_unit_8_1_split
I1018 00:02:02.115135 29678 net.cpp:406] h_8_lstm1_unit_8_1_split <- h_8
I1018 00:02:02.115141 29678 net.cpp:380] h_8_lstm1_unit_8_1_split -> h_8_lstm1_unit_8_1_split_0
I1018 00:02:02.115149 29678 net.cpp:380] h_8_lstm1_unit_8_1_split -> h_8_lstm1_unit_8_1_split_1
I1018 00:02:02.115180 29678 net.cpp:122] Setting up h_8_lstm1_unit_8_1_split
I1018 00:02:02.115185 29678 net.cpp:129] Top shape: 1 5 512 (2560)
I1018 00:02:02.115190 29678 net.cpp:129] Top shape: 1 5 512 (2560)
I1018 00:02:02.115195 29678 net.cpp:137] Memory required for data: 2561280
I1018 00:02:02.115198 29678 layer_factory.hpp:77] Creating layer lstm1_h_conted_8
I1018 00:02:02.115205 29678 net.cpp:84] Creating Layer lstm1_h_conted_8
I1018 00:02:02.115208 29678 net.cpp:406] lstm1_h_conted_8 <- h_8_lstm1_unit_8_1_split_0
I1018 00:02:02.115214 29678 net.cpp:406] lstm1_h_conted_8 <- cont_9_lstm1_cont_slice_8_split_0
I1018 00:02:02.115222 29678 net.cpp:380] lstm1_h_conted_8 -> h_conted_8
I1018 00:02:02.115274 29678 net.cpp:122] Setting up lstm1_h_conted_8
I1018 00:02:02.115280 29678 net.cpp:129] Top shape: 1 5 512 (2560)
I1018 00:02:02.115284 29678 net.cpp:137] Memory required for data: 2571520
I1018 00:02:02.115288 29678 layer_factory.hpp:77] Creating layer lstm1_transform_9
I1018 00:02:02.115295 29678 net.cpp:84] Creating Layer lstm1_transform_9
I1018 00:02:02.115299 29678 net.cpp:406] lstm1_transform_9 <- h_conted_8
I1018 00:02:02.115308 29678 net.cpp:380] lstm1_transform_9 -> W_hc_h_8
I1018 00:02:02.125897 29678 net.cpp:122] Setting up lstm1_transform_9
I1018 00:02:02.125913 29678 net.cpp:129] Top shape: 1 5 2048 (10240)
I1018 00:02:02.125917 29678 net.cpp:137] Memory required for data: 2612480
I1018 00:02:02.125921 29678 net.cpp:465] Sharing parameters 'W_hc' owned by layer 'lstm1_transform_1', param index 0
I1018 00:02:02.125926 29678 layer_factory.hpp:77] Creating layer lstm1_gate_input_9
I1018 00:02:02.125939 29678 net.cpp:84] Creating Layer lstm1_gate_input_9
I1018 00:02:02.125944 29678 net.cpp:406] lstm1_gate_input_9 <- W_hc_h_8
I1018 00:02:02.125949 29678 net.cpp:406] lstm1_gate_input_9 <- W_xc_x_9
I1018 00:02:02.125957 29678 net.cpp:380] lstm1_gate_input_9 -> gate_input_9
I1018 00:02:02.125982 29678 net.cpp:122] Setting up lstm1_gate_input_9
I1018 00:02:02.125988 29678 net.cpp:129] Top shape: 1 5 2048 (10240)
I1018 00:02:02.125990 29678 net.cpp:137] Memory required for data: 2653440
I1018 00:02:02.125994 29678 layer_factory.hpp:77] Creating layer lstm1_unit_9
I1018 00:02:02.126009 29678 net.cpp:84] Creating Layer lstm1_unit_9
I1018 00:02:02.126013 29678 net.cpp:406] lstm1_unit_9 <- c_8
I1018 00:02:02.126019 29678 net.cpp:406] lstm1_unit_9 <- gate_input_9
I1018 00:02:02.126024 29678 net.cpp:406] lstm1_unit_9 <- cont_9_lstm1_cont_slice_8_split_1
I1018 00:02:02.126029 29678 net.cpp:380] lstm1_unit_9 -> c_9
I1018 00:02:02.126051 29678 net.cpp:380] lstm1_unit_9 -> h_9
I1018 00:02:02.126092 29678 net.cpp:122] Setting up lstm1_unit_9
I1018 00:02:02.126098 29678 net.cpp:129] Top shape: 1 5 512 (2560)
I1018 00:02:02.126103 29678 net.cpp:129] Top shape: 1 5 512 (2560)
I1018 00:02:02.126106 29678 net.cpp:137] Memory required for data: 2673920
I1018 00:02:02.126111 29678 layer_factory.hpp:77] Creating layer h_9_lstm1_unit_9_1_split
I1018 00:02:02.126116 29678 net.cpp:84] Creating Layer h_9_lstm1_unit_9_1_split
I1018 00:02:02.126121 29678 net.cpp:406] h_9_lstm1_unit_9_1_split <- h_9
I1018 00:02:02.126126 29678 net.cpp:380] h_9_lstm1_unit_9_1_split -> h_9_lstm1_unit_9_1_split_0
I1018 00:02:02.126132 29678 net.cpp:380] h_9_lstm1_unit_9_1_split -> h_9_lstm1_unit_9_1_split_1
I1018 00:02:02.126160 29678 net.cpp:122] Setting up h_9_lstm1_unit_9_1_split
I1018 00:02:02.126166 29678 net.cpp:129] Top shape: 1 5 512 (2560)
I1018 00:02:02.126170 29678 net.cpp:129] Top shape: 1 5 512 (2560)
I1018 00:02:02.126174 29678 net.cpp:137] Memory required for data: 2694400
I1018 00:02:02.126178 29678 layer_factory.hpp:77] Creating layer lstm1_h_conted_9
I1018 00:02:02.126183 29678 net.cpp:84] Creating Layer lstm1_h_conted_9
I1018 00:02:02.126188 29678 net.cpp:406] lstm1_h_conted_9 <- h_9_lstm1_unit_9_1_split_0
I1018 00:02:02.126194 29678 net.cpp:406] lstm1_h_conted_9 <- cont_10_lstm1_cont_slice_9_split_0
I1018 00:02:02.126199 29678 net.cpp:380] lstm1_h_conted_9 -> h_conted_9
I1018 00:02:02.126247 29678 net.cpp:122] Setting up lstm1_h_conted_9
I1018 00:02:02.126253 29678 net.cpp:129] Top shape: 1 5 512 (2560)
I1018 00:02:02.126256 29678 net.cpp:137] Memory required for data: 2704640
I1018 00:02:02.126260 29678 layer_factory.hpp:77] Creating layer lstm1_transform_10
I1018 00:02:02.126266 29678 net.cpp:84] Creating Layer lstm1_transform_10
I1018 00:02:02.126271 29678 net.cpp:406] lstm1_transform_10 <- h_conted_9
I1018 00:02:02.126277 29678 net.cpp:380] lstm1_transform_10 -> W_hc_h_9
I1018 00:02:02.136801 29678 net.cpp:122] Setting up lstm1_transform_10
I1018 00:02:02.136816 29678 net.cpp:129] Top shape: 1 5 2048 (10240)
I1018 00:02:02.136821 29678 net.cpp:137] Memory required for data: 2745600
I1018 00:02:02.136826 29678 net.cpp:465] Sharing parameters 'W_hc' owned by layer 'lstm1_transform_1', param index 0
I1018 00:02:02.136831 29678 layer_factory.hpp:77] Creating layer lstm1_gate_input_10
I1018 00:02:02.136837 29678 net.cpp:84] Creating Layer lstm1_gate_input_10
I1018 00:02:02.136842 29678 net.cpp:406] lstm1_gate_input_10 <- W_hc_h_9
I1018 00:02:02.136847 29678 net.cpp:406] lstm1_gate_input_10 <- W_xc_x_10
I1018 00:02:02.136854 29678 net.cpp:380] lstm1_gate_input_10 -> gate_input_10
I1018 00:02:02.136890 29678 net.cpp:122] Setting up lstm1_gate_input_10
I1018 00:02:02.136896 29678 net.cpp:129] Top shape: 1 5 2048 (10240)
I1018 00:02:02.136900 29678 net.cpp:137] Memory required for data: 2786560
I1018 00:02:02.136904 29678 layer_factory.hpp:77] Creating layer lstm1_unit_10
I1018 00:02:02.136910 29678 net.cpp:84] Creating Layer lstm1_unit_10
I1018 00:02:02.136914 29678 net.cpp:406] lstm1_unit_10 <- c_9
I1018 00:02:02.136920 29678 net.cpp:406] lstm1_unit_10 <- gate_input_10
I1018 00:02:02.136925 29678 net.cpp:406] lstm1_unit_10 <- cont_10_lstm1_cont_slice_9_split_1
I1018 00:02:02.136931 29678 net.cpp:380] lstm1_unit_10 -> c_10
I1018 00:02:02.136943 29678 net.cpp:380] lstm1_unit_10 -> h_10
I1018 00:02:02.136986 29678 net.cpp:122] Setting up lstm1_unit_10
I1018 00:02:02.136992 29678 net.cpp:129] Top shape: 1 5 512 (2560)
I1018 00:02:02.136997 29678 net.cpp:129] Top shape: 1 5 512 (2560)
I1018 00:02:02.137001 29678 net.cpp:137] Memory required for data: 2807040
I1018 00:02:02.137006 29678 layer_factory.hpp:77] Creating layer h_10_lstm1_unit_10_1_split
I1018 00:02:02.137010 29678 net.cpp:84] Creating Layer h_10_lstm1_unit_10_1_split
I1018 00:02:02.137014 29678 net.cpp:406] h_10_lstm1_unit_10_1_split <- h_10
I1018 00:02:02.137020 29678 net.cpp:380] h_10_lstm1_unit_10_1_split -> h_10_lstm1_unit_10_1_split_0
I1018 00:02:02.137027 29678 net.cpp:380] h_10_lstm1_unit_10_1_split -> h_10_lstm1_unit_10_1_split_1
I1018 00:02:02.137058 29678 net.cpp:122] Setting up h_10_lstm1_unit_10_1_split
I1018 00:02:02.137063 29678 net.cpp:129] Top shape: 1 5 512 (2560)
I1018 00:02:02.137068 29678 net.cpp:129] Top shape: 1 5 512 (2560)
I1018 00:02:02.137071 29678 net.cpp:137] Memory required for data: 2827520
I1018 00:02:02.137080 29678 layer_factory.hpp:77] Creating layer lstm1_h_conted_10
I1018 00:02:02.137086 29678 net.cpp:84] Creating Layer lstm1_h_conted_10
I1018 00:02:02.137091 29678 net.cpp:406] lstm1_h_conted_10 <- h_10_lstm1_unit_10_1_split_0
I1018 00:02:02.137096 29678 net.cpp:406] lstm1_h_conted_10 <- cont_11_lstm1_cont_slice_10_split_0
I1018 00:02:02.137104 29678 net.cpp:380] lstm1_h_conted_10 -> h_conted_10
I1018 00:02:02.137156 29678 net.cpp:122] Setting up lstm1_h_conted_10
I1018 00:02:02.137162 29678 net.cpp:129] Top shape: 1 5 512 (2560)
I1018 00:02:02.137166 29678 net.cpp:137] Memory required for data: 2837760
I1018 00:02:02.137169 29678 layer_factory.hpp:77] Creating layer lstm1_transform_11
I1018 00:02:02.137176 29678 net.cpp:84] Creating Layer lstm1_transform_11
I1018 00:02:02.137181 29678 net.cpp:406] lstm1_transform_11 <- h_conted_10
I1018 00:02:02.137188 29678 net.cpp:380] lstm1_transform_11 -> W_hc_h_10
I1018 00:02:02.147708 29678 net.cpp:122] Setting up lstm1_transform_11
I1018 00:02:02.147727 29678 net.cpp:129] Top shape: 1 5 2048 (10240)
I1018 00:02:02.147732 29678 net.cpp:137] Memory required for data: 2878720
I1018 00:02:02.147737 29678 net.cpp:465] Sharing parameters 'W_hc' owned by layer 'lstm1_transform_1', param index 0
I1018 00:02:02.147742 29678 layer_factory.hpp:77] Creating layer lstm1_gate_input_11
I1018 00:02:02.147750 29678 net.cpp:84] Creating Layer lstm1_gate_input_11
I1018 00:02:02.147755 29678 net.cpp:406] lstm1_gate_input_11 <- W_hc_h_10
I1018 00:02:02.147763 29678 net.cpp:406] lstm1_gate_input_11 <- W_xc_x_11
I1018 00:02:02.147768 29678 net.cpp:380] lstm1_gate_input_11 -> gate_input_11
I1018 00:02:02.147799 29678 net.cpp:122] Setting up lstm1_gate_input_11
I1018 00:02:02.147805 29678 net.cpp:129] Top shape: 1 5 2048 (10240)
I1018 00:02:02.147809 29678 net.cpp:137] Memory required for data: 2919680
I1018 00:02:02.147814 29678 layer_factory.hpp:77] Creating layer lstm1_unit_11
I1018 00:02:02.147820 29678 net.cpp:84] Creating Layer lstm1_unit_11
I1018 00:02:02.147825 29678 net.cpp:406] lstm1_unit_11 <- c_10
I1018 00:02:02.147831 29678 net.cpp:406] lstm1_unit_11 <- gate_input_11
I1018 00:02:02.147836 29678 net.cpp:406] lstm1_unit_11 <- cont_11_lstm1_cont_slice_10_split_1
I1018 00:02:02.147842 29678 net.cpp:380] lstm1_unit_11 -> c_11
I1018 00:02:02.147850 29678 net.cpp:380] lstm1_unit_11 -> h_11
I1018 00:02:02.147895 29678 net.cpp:122] Setting up lstm1_unit_11
I1018 00:02:02.147902 29678 net.cpp:129] Top shape: 1 5 512 (2560)
I1018 00:02:02.147907 29678 net.cpp:129] Top shape: 1 5 512 (2560)
I1018 00:02:02.147912 29678 net.cpp:137] Memory required for data: 2940160
I1018 00:02:02.147915 29678 layer_factory.hpp:77] Creating layer h_11_lstm1_unit_11_1_split
I1018 00:02:02.147922 29678 net.cpp:84] Creating Layer h_11_lstm1_unit_11_1_split
I1018 00:02:02.147927 29678 net.cpp:406] h_11_lstm1_unit_11_1_split <- h_11
I1018 00:02:02.147933 29678 net.cpp:380] h_11_lstm1_unit_11_1_split -> h_11_lstm1_unit_11_1_split_0
I1018 00:02:02.147939 29678 net.cpp:380] h_11_lstm1_unit_11_1_split -> h_11_lstm1_unit_11_1_split_1
I1018 00:02:02.147971 29678 net.cpp:122] Setting up h_11_lstm1_unit_11_1_split
I1018 00:02:02.147979 29678 net.cpp:129] Top shape: 1 5 512 (2560)
I1018 00:02:02.147984 29678 net.cpp:129] Top shape: 1 5 512 (2560)
I1018 00:02:02.147986 29678 net.cpp:137] Memory required for data: 2960640
I1018 00:02:02.147997 29678 layer_factory.hpp:77] Creating layer lstm1_h_conted_11
I1018 00:02:02.148003 29678 net.cpp:84] Creating Layer lstm1_h_conted_11
I1018 00:02:02.148008 29678 net.cpp:406] lstm1_h_conted_11 <- h_11_lstm1_unit_11_1_split_0
I1018 00:02:02.148015 29678 net.cpp:406] lstm1_h_conted_11 <- cont_12_lstm1_cont_slice_11_split_0
I1018 00:02:02.148020 29678 net.cpp:380] lstm1_h_conted_11 -> h_conted_11
I1018 00:02:02.148083 29678 net.cpp:122] Setting up lstm1_h_conted_11
I1018 00:02:02.148092 29678 net.cpp:129] Top shape: 1 5 512 (2560)
I1018 00:02:02.148095 29678 net.cpp:137] Memory required for data: 2970880
I1018 00:02:02.148099 29678 layer_factory.hpp:77] Creating layer lstm1_transform_12
I1018 00:02:02.148106 29678 net.cpp:84] Creating Layer lstm1_transform_12
I1018 00:02:02.148111 29678 net.cpp:406] lstm1_transform_12 <- h_conted_11
I1018 00:02:02.148118 29678 net.cpp:380] lstm1_transform_12 -> W_hc_h_11
I1018 00:02:02.159850 29678 net.cpp:122] Setting up lstm1_transform_12
I1018 00:02:02.159867 29678 net.cpp:129] Top shape: 1 5 2048 (10240)
I1018 00:02:02.159871 29678 net.cpp:137] Memory required for data: 3011840
I1018 00:02:02.159876 29678 net.cpp:465] Sharing parameters 'W_hc' owned by layer 'lstm1_transform_1', param index 0
I1018 00:02:02.159881 29678 layer_factory.hpp:77] Creating layer lstm1_gate_input_12
I1018 00:02:02.159889 29678 net.cpp:84] Creating Layer lstm1_gate_input_12
I1018 00:02:02.159895 29678 net.cpp:406] lstm1_gate_input_12 <- W_hc_h_11
I1018 00:02:02.159901 29678 net.cpp:406] lstm1_gate_input_12 <- W_xc_x_12
I1018 00:02:02.159907 29678 net.cpp:380] lstm1_gate_input_12 -> gate_input_12
I1018 00:02:02.159937 29678 net.cpp:122] Setting up lstm1_gate_input_12
I1018 00:02:02.159945 29678 net.cpp:129] Top shape: 1 5 2048 (10240)
I1018 00:02:02.159948 29678 net.cpp:137] Memory required for data: 3052800
I1018 00:02:02.159952 29678 layer_factory.hpp:77] Creating layer lstm1_unit_12
I1018 00:02:02.159958 29678 net.cpp:84] Creating Layer lstm1_unit_12
I1018 00:02:02.159963 29678 net.cpp:406] lstm1_unit_12 <- c_11
I1018 00:02:02.159970 29678 net.cpp:406] lstm1_unit_12 <- gate_input_12
I1018 00:02:02.159976 29678 net.cpp:406] lstm1_unit_12 <- cont_12_lstm1_cont_slice_11_split_1
I1018 00:02:02.159981 29678 net.cpp:380] lstm1_unit_12 -> c_12
I1018 00:02:02.159988 29678 net.cpp:380] lstm1_unit_12 -> h_12
I1018 00:02:02.160039 29678 net.cpp:122] Setting up lstm1_unit_12
I1018 00:02:02.160046 29678 net.cpp:129] Top shape: 1 5 512 (2560)
I1018 00:02:02.160051 29678 net.cpp:129] Top shape: 1 5 512 (2560)
I1018 00:02:02.160055 29678 net.cpp:137] Memory required for data: 3073280
I1018 00:02:02.160060 29678 layer_factory.hpp:77] Creating layer h_12_lstm1_unit_12_1_split
I1018 00:02:02.160068 29678 net.cpp:84] Creating Layer h_12_lstm1_unit_12_1_split
I1018 00:02:02.160073 29678 net.cpp:406] h_12_lstm1_unit_12_1_split <- h_12
I1018 00:02:02.160079 29678 net.cpp:380] h_12_lstm1_unit_12_1_split -> h_12_lstm1_unit_12_1_split_0
I1018 00:02:02.160086 29678 net.cpp:380] h_12_lstm1_unit_12_1_split -> h_12_lstm1_unit_12_1_split_1
I1018 00:02:02.160127 29678 net.cpp:122] Setting up h_12_lstm1_unit_12_1_split
I1018 00:02:02.160138 29678 net.cpp:129] Top shape: 1 5 512 (2560)
I1018 00:02:02.160145 29678 net.cpp:129] Top shape: 1 5 512 (2560)
I1018 00:02:02.160151 29678 net.cpp:137] Memory required for data: 3093760
I1018 00:02:02.160158 29678 layer_factory.hpp:77] Creating layer lstm1_h_conted_12
I1018 00:02:02.160169 29678 net.cpp:84] Creating Layer lstm1_h_conted_12
I1018 00:02:02.160176 29678 net.cpp:406] lstm1_h_conted_12 <- h_12_lstm1_unit_12_1_split_0
I1018 00:02:02.160181 29678 net.cpp:406] lstm1_h_conted_12 <- cont_13_lstm1_cont_slice_12_split_0
I1018 00:02:02.160188 29678 net.cpp:380] lstm1_h_conted_12 -> h_conted_12
I1018 00:02:02.160249 29678 net.cpp:122] Setting up lstm1_h_conted_12
I1018 00:02:02.160256 29678 net.cpp:129] Top shape: 1 5 512 (2560)
I1018 00:02:02.160260 29678 net.cpp:137] Memory required for data: 3104000
I1018 00:02:02.160264 29678 layer_factory.hpp:77] Creating layer lstm1_transform_13
I1018 00:02:02.160274 29678 net.cpp:84] Creating Layer lstm1_transform_13
I1018 00:02:02.160279 29678 net.cpp:406] lstm1_transform_13 <- h_conted_12
I1018 00:02:02.160285 29678 net.cpp:380] lstm1_transform_13 -> W_hc_h_12
I1018 00:02:02.172250 29678 net.cpp:122] Setting up lstm1_transform_13
I1018 00:02:02.172277 29678 net.cpp:129] Top shape: 1 5 2048 (10240)
I1018 00:02:02.172282 29678 net.cpp:137] Memory required for data: 3144960
I1018 00:02:02.172287 29678 net.cpp:465] Sharing parameters 'W_hc' owned by layer 'lstm1_transform_1', param index 0
I1018 00:02:02.172292 29678 layer_factory.hpp:77] Creating layer lstm1_gate_input_13
I1018 00:02:02.172300 29678 net.cpp:84] Creating Layer lstm1_gate_input_13
I1018 00:02:02.172305 29678 net.cpp:406] lstm1_gate_input_13 <- W_hc_h_12
I1018 00:02:02.172312 29678 net.cpp:406] lstm1_gate_input_13 <- W_xc_x_13
I1018 00:02:02.172318 29678 net.cpp:380] lstm1_gate_input_13 -> gate_input_13
I1018 00:02:02.172348 29678 net.cpp:122] Setting up lstm1_gate_input_13
I1018 00:02:02.172354 29678 net.cpp:129] Top shape: 1 5 2048 (10240)
I1018 00:02:02.172358 29678 net.cpp:137] Memory required for data: 3185920
I1018 00:02:02.172363 29678 layer_factory.hpp:77] Creating layer lstm1_unit_13
I1018 00:02:02.172371 29678 net.cpp:84] Creating Layer lstm1_unit_13
I1018 00:02:02.172376 29678 net.cpp:406] lstm1_unit_13 <- c_12
I1018 00:02:02.172382 29678 net.cpp:406] lstm1_unit_13 <- gate_input_13
I1018 00:02:02.172387 29678 net.cpp:406] lstm1_unit_13 <- cont_13_lstm1_cont_slice_12_split_1
I1018 00:02:02.172394 29678 net.cpp:380] lstm1_unit_13 -> c_13
I1018 00:02:02.172401 29678 net.cpp:380] lstm1_unit_13 -> h_13
I1018 00:02:02.172448 29678 net.cpp:122] Setting up lstm1_unit_13
I1018 00:02:02.172456 29678 net.cpp:129] Top shape: 1 5 512 (2560)
I1018 00:02:02.172462 29678 net.cpp:129] Top shape: 1 5 512 (2560)
I1018 00:02:02.172466 29678 net.cpp:137] Memory required for data: 3206400
I1018 00:02:02.172471 29678 layer_factory.hpp:77] Creating layer h_13_lstm1_unit_13_1_split
I1018 00:02:02.172482 29678 net.cpp:84] Creating Layer h_13_lstm1_unit_13_1_split
I1018 00:02:02.172485 29678 net.cpp:406] h_13_lstm1_unit_13_1_split <- h_13
I1018 00:02:02.172494 29678 net.cpp:380] h_13_lstm1_unit_13_1_split -> h_13_lstm1_unit_13_1_split_0
I1018 00:02:02.172502 29678 net.cpp:380] h_13_lstm1_unit_13_1_split -> h_13_lstm1_unit_13_1_split_1
I1018 00:02:02.172538 29678 net.cpp:122] Setting up h_13_lstm1_unit_13_1_split
I1018 00:02:02.172545 29678 net.cpp:129] Top shape: 1 5 512 (2560)
I1018 00:02:02.172549 29678 net.cpp:129] Top shape: 1 5 512 (2560)
I1018 00:02:02.172554 29678 net.cpp:137] Memory required for data: 3226880
I1018 00:02:02.172559 29678 layer_factory.hpp:77] Creating layer lstm1_h_conted_13
I1018 00:02:02.172566 29678 net.cpp:84] Creating Layer lstm1_h_conted_13
I1018 00:02:02.172571 29678 net.cpp:406] lstm1_h_conted_13 <- h_13_lstm1_unit_13_1_split_0
I1018 00:02:02.172577 29678 net.cpp:406] lstm1_h_conted_13 <- cont_14_lstm1_cont_slice_13_split_0
I1018 00:02:02.172585 29678 net.cpp:380] lstm1_h_conted_13 -> h_conted_13
I1018 00:02:02.172644 29678 net.cpp:122] Setting up lstm1_h_conted_13
I1018 00:02:02.172652 29678 net.cpp:129] Top shape: 1 5 512 (2560)
I1018 00:02:02.172655 29678 net.cpp:137] Memory required for data: 3237120
I1018 00:02:02.172659 29678 layer_factory.hpp:77] Creating layer lstm1_transform_14
I1018 00:02:02.172667 29678 net.cpp:84] Creating Layer lstm1_transform_14
I1018 00:02:02.172672 29678 net.cpp:406] lstm1_transform_14 <- h_conted_13
I1018 00:02:02.172680 29678 net.cpp:380] lstm1_transform_14 -> W_hc_h_13
I1018 00:02:02.184152 29678 net.cpp:122] Setting up lstm1_transform_14
I1018 00:02:02.184181 29678 net.cpp:129] Top shape: 1 5 2048 (10240)
I1018 00:02:02.184186 29678 net.cpp:137] Memory required for data: 3278080
I1018 00:02:02.184191 29678 net.cpp:465] Sharing parameters 'W_hc' owned by layer 'lstm1_transform_1', param index 0
I1018 00:02:02.184196 29678 layer_factory.hpp:77] Creating layer lstm1_gate_input_14
I1018 00:02:02.184204 29678 net.cpp:84] Creating Layer lstm1_gate_input_14
I1018 00:02:02.184209 29678 net.cpp:406] lstm1_gate_input_14 <- W_hc_h_13
I1018 00:02:02.184216 29678 net.cpp:406] lstm1_gate_input_14 <- W_xc_x_14
I1018 00:02:02.184223 29678 net.cpp:380] lstm1_gate_input_14 -> gate_input_14
I1018 00:02:02.184250 29678 net.cpp:122] Setting up lstm1_gate_input_14
I1018 00:02:02.184257 29678 net.cpp:129] Top shape: 1 5 2048 (10240)
I1018 00:02:02.184262 29678 net.cpp:137] Memory required for data: 3319040
I1018 00:02:02.184267 29678 layer_factory.hpp:77] Creating layer lstm1_unit_14
I1018 00:02:02.184275 29678 net.cpp:84] Creating Layer lstm1_unit_14
I1018 00:02:02.184279 29678 net.cpp:406] lstm1_unit_14 <- c_13
I1018 00:02:02.184285 29678 net.cpp:406] lstm1_unit_14 <- gate_input_14
I1018 00:02:02.184291 29678 net.cpp:406] lstm1_unit_14 <- cont_14_lstm1_cont_slice_13_split_1
I1018 00:02:02.184298 29678 net.cpp:380] lstm1_unit_14 -> c_14
I1018 00:02:02.184305 29678 net.cpp:380] lstm1_unit_14 -> h_14
I1018 00:02:02.184351 29678 net.cpp:122] Setting up lstm1_unit_14
I1018 00:02:02.184358 29678 net.cpp:129] Top shape: 1 5 512 (2560)
I1018 00:02:02.184363 29678 net.cpp:129] Top shape: 1 5 512 (2560)
I1018 00:02:02.184367 29678 net.cpp:137] Memory required for data: 3339520
I1018 00:02:02.184371 29678 layer_factory.hpp:77] Creating layer h_14_lstm1_unit_14_1_split
I1018 00:02:02.184381 29678 net.cpp:84] Creating Layer h_14_lstm1_unit_14_1_split
I1018 00:02:02.184384 29678 net.cpp:406] h_14_lstm1_unit_14_1_split <- h_14
I1018 00:02:02.184396 29678 net.cpp:380] h_14_lstm1_unit_14_1_split -> h_14_lstm1_unit_14_1_split_0
I1018 00:02:02.184403 29678 net.cpp:380] h_14_lstm1_unit_14_1_split -> h_14_lstm1_unit_14_1_split_1
I1018 00:02:02.184435 29678 net.cpp:122] Setting up h_14_lstm1_unit_14_1_split
I1018 00:02:02.184442 29678 net.cpp:129] Top shape: 1 5 512 (2560)
I1018 00:02:02.184447 29678 net.cpp:129] Top shape: 1 5 512 (2560)
I1018 00:02:02.184450 29678 net.cpp:137] Memory required for data: 3360000
I1018 00:02:02.184454 29678 layer_factory.hpp:77] Creating layer lstm1_h_conted_14
I1018 00:02:02.184463 29678 net.cpp:84] Creating Layer lstm1_h_conted_14
I1018 00:02:02.184468 29678 net.cpp:406] lstm1_h_conted_14 <- h_14_lstm1_unit_14_1_split_0
I1018 00:02:02.184473 29678 net.cpp:406] lstm1_h_conted_14 <- cont_15_lstm1_cont_slice_14_split_0
I1018 00:02:02.184480 29678 net.cpp:380] lstm1_h_conted_14 -> h_conted_14
I1018 00:02:02.184537 29678 net.cpp:122] Setting up lstm1_h_conted_14
I1018 00:02:02.184545 29678 net.cpp:129] Top shape: 1 5 512 (2560)
I1018 00:02:02.184548 29678 net.cpp:137] Memory required for data: 3370240
I1018 00:02:02.184553 29678 layer_factory.hpp:77] Creating layer lstm1_transform_15
I1018 00:02:02.184562 29678 net.cpp:84] Creating Layer lstm1_transform_15
I1018 00:02:02.184567 29678 net.cpp:406] lstm1_transform_15 <- h_conted_14
I1018 00:02:02.184573 29678 net.cpp:380] lstm1_transform_15 -> W_hc_h_14
I1018 00:02:02.196290 29678 net.cpp:122] Setting up lstm1_transform_15
I1018 00:02:02.196307 29678 net.cpp:129] Top shape: 1 5 2048 (10240)
I1018 00:02:02.196312 29678 net.cpp:137] Memory required for data: 3411200
I1018 00:02:02.196324 29678 net.cpp:465] Sharing parameters 'W_hc' owned by layer 'lstm1_transform_1', param index 0
I1018 00:02:02.196341 29678 layer_factory.hpp:77] Creating layer lstm1_gate_input_15
I1018 00:02:02.196349 29678 net.cpp:84] Creating Layer lstm1_gate_input_15
I1018 00:02:02.196354 29678 net.cpp:406] lstm1_gate_input_15 <- W_hc_h_14
I1018 00:02:02.196360 29678 net.cpp:406] lstm1_gate_input_15 <- W_xc_x_15
I1018 00:02:02.196367 29678 net.cpp:380] lstm1_gate_input_15 -> gate_input_15
I1018 00:02:02.196395 29678 net.cpp:122] Setting up lstm1_gate_input_15
I1018 00:02:02.196403 29678 net.cpp:129] Top shape: 1 5 2048 (10240)
I1018 00:02:02.196406 29678 net.cpp:137] Memory required for data: 3452160
I1018 00:02:02.196410 29678 layer_factory.hpp:77] Creating layer lstm1_unit_15
I1018 00:02:02.196419 29678 net.cpp:84] Creating Layer lstm1_unit_15
I1018 00:02:02.196424 29678 net.cpp:406] lstm1_unit_15 <- c_14
I1018 00:02:02.196430 29678 net.cpp:406] lstm1_unit_15 <- gate_input_15
I1018 00:02:02.196435 29678 net.cpp:406] lstm1_unit_15 <- cont_15_lstm1_cont_slice_14_split_1
I1018 00:02:02.196441 29678 net.cpp:380] lstm1_unit_15 -> c_15
I1018 00:02:02.196449 29678 net.cpp:380] lstm1_unit_15 -> h_15
I1018 00:02:02.196493 29678 net.cpp:122] Setting up lstm1_unit_15
I1018 00:02:02.196501 29678 net.cpp:129] Top shape: 1 5 512 (2560)
I1018 00:02:02.196506 29678 net.cpp:129] Top shape: 1 5 512 (2560)
I1018 00:02:02.196509 29678 net.cpp:137] Memory required for data: 3472640
I1018 00:02:02.196513 29678 layer_factory.hpp:77] Creating layer h_15_lstm1_unit_15_1_split
I1018 00:02:02.196519 29678 net.cpp:84] Creating Layer h_15_lstm1_unit_15_1_split
I1018 00:02:02.196524 29678 net.cpp:406] h_15_lstm1_unit_15_1_split <- h_15
I1018 00:02:02.196532 29678 net.cpp:380] h_15_lstm1_unit_15_1_split -> h_15_lstm1_unit_15_1_split_0
I1018 00:02:02.196538 29678 net.cpp:380] h_15_lstm1_unit_15_1_split -> h_15_lstm1_unit_15_1_split_1
I1018 00:02:02.196569 29678 net.cpp:122] Setting up h_15_lstm1_unit_15_1_split
I1018 00:02:02.196576 29678 net.cpp:129] Top shape: 1 5 512 (2560)
I1018 00:02:02.196581 29678 net.cpp:129] Top shape: 1 5 512 (2560)
I1018 00:02:02.196585 29678 net.cpp:137] Memory required for data: 3493120
I1018 00:02:02.196589 29678 layer_factory.hpp:77] Creating layer lstm1_h_conted_15
I1018 00:02:02.196602 29678 net.cpp:84] Creating Layer lstm1_h_conted_15
I1018 00:02:02.196607 29678 net.cpp:406] lstm1_h_conted_15 <- h_15_lstm1_unit_15_1_split_0
I1018 00:02:02.196614 29678 net.cpp:406] lstm1_h_conted_15 <- cont_16_lstm1_cont_slice_15_split_0
I1018 00:02:02.196620 29678 net.cpp:380] lstm1_h_conted_15 -> h_conted_15
I1018 00:02:02.196676 29678 net.cpp:122] Setting up lstm1_h_conted_15
I1018 00:02:02.196683 29678 net.cpp:129] Top shape: 1 5 512 (2560)
I1018 00:02:02.196687 29678 net.cpp:137] Memory required for data: 3503360
I1018 00:02:02.196691 29678 layer_factory.hpp:77] Creating layer lstm1_transform_16
I1018 00:02:02.196701 29678 net.cpp:84] Creating Layer lstm1_transform_16
I1018 00:02:02.196705 29678 net.cpp:406] lstm1_transform_16 <- h_conted_15
I1018 00:02:02.196712 29678 net.cpp:380] lstm1_transform_16 -> W_hc_h_15
I1018 00:02:02.207777 29678 net.cpp:122] Setting up lstm1_transform_16
I1018 00:02:02.207806 29678 net.cpp:129] Top shape: 1 5 2048 (10240)
I1018 00:02:02.207811 29678 net.cpp:137] Memory required for data: 3544320
I1018 00:02:02.207816 29678 net.cpp:465] Sharing parameters 'W_hc' owned by layer 'lstm1_transform_1', param index 0
I1018 00:02:02.207821 29678 layer_factory.hpp:77] Creating layer lstm1_gate_input_16
I1018 00:02:02.207831 29678 net.cpp:84] Creating Layer lstm1_gate_input_16
I1018 00:02:02.207836 29678 net.cpp:406] lstm1_gate_input_16 <- W_hc_h_15
I1018 00:02:02.207842 29678 net.cpp:406] lstm1_gate_input_16 <- W_xc_x_16
I1018 00:02:02.207849 29678 net.cpp:380] lstm1_gate_input_16 -> gate_input_16
I1018 00:02:02.207880 29678 net.cpp:122] Setting up lstm1_gate_input_16
I1018 00:02:02.207886 29678 net.cpp:129] Top shape: 1 5 2048 (10240)
I1018 00:02:02.207890 29678 net.cpp:137] Memory required for data: 3585280
I1018 00:02:02.207895 29678 layer_factory.hpp:77] Creating layer lstm1_unit_16
I1018 00:02:02.207901 29678 net.cpp:84] Creating Layer lstm1_unit_16
I1018 00:02:02.207906 29678 net.cpp:406] lstm1_unit_16 <- c_15
I1018 00:02:02.207911 29678 net.cpp:406] lstm1_unit_16 <- gate_input_16
I1018 00:02:02.207916 29678 net.cpp:406] lstm1_unit_16 <- cont_16_lstm1_cont_slice_15_split_1
I1018 00:02:02.207927 29678 net.cpp:380] lstm1_unit_16 -> c_16
I1018 00:02:02.207936 29678 net.cpp:380] lstm1_unit_16 -> h_16
I1018 00:02:02.207983 29678 net.cpp:122] Setting up lstm1_unit_16
I1018 00:02:02.207989 29678 net.cpp:129] Top shape: 1 5 512 (2560)
I1018 00:02:02.207994 29678 net.cpp:129] Top shape: 1 5 512 (2560)
I1018 00:02:02.207998 29678 net.cpp:137] Memory required for data: 3605760
I1018 00:02:02.208003 29678 layer_factory.hpp:77] Creating layer lstm1_
I1018 00:02:02.208009 29678 net.cpp:84] Creating Layer lstm1_
I1018 00:02:02.208012 29678 net.cpp:406] lstm1_ <- c_16
I1018 00:02:02.208019 29678 net.cpp:380] lstm1_ -> c_T
I1018 00:02:02.208051 29678 net.cpp:122] Setting up lstm1_
I1018 00:02:02.208060 29678 net.cpp:129] Top shape: 1 5 512 (2560)
I1018 00:02:02.208063 29678 net.cpp:137] Memory required for data: 3616000
I1018 00:02:02.208067 29678 layer_factory.hpp:77] Creating layer lstm1_h_concat
I1018 00:02:02.208076 29678 net.cpp:84] Creating Layer lstm1_h_concat
I1018 00:02:02.208081 29678 net.cpp:406] lstm1_h_concat <- h_1_lstm1_unit_1_1_split_1
I1018 00:02:02.208087 29678 net.cpp:406] lstm1_h_concat <- h_2_lstm1_unit_2_1_split_1
…
I1018 00:02:02.208957 29678 net.cpp:200] lstm1_ does not need backward computation.
I1018 00:02:02.208961 29678 net.cpp:242] This network produces output c_T
I1018 00:02:02.208966 29678 net.cpp:242] This network produces output h_pseudoloss
I1018 00:02:02.221416 29678 net.cpp:255] Network initialization done.
I1018 00:02:02.221635 29678 recurrent_layer.cpp:150] Adding parameter 0: W_xc
I1018 00:02:02.221645 29678 recurrent_layer.cpp:150] Adding parameter 1: b_c
I1018 00:02:02.221649 29678 recurrent_layer.cpp:150] Adding parameter 2: W_hc
I1018 00:02:02.221832 29678 net.cpp:122] Setting up lstm1
I1018 00:02:02.221844 29678 net.cpp:129] Top shape: 16 5 512 (40960)
I1018 00:02:02.221848 29678 net.cpp:137] Memory required for data: 577352980
I1018 00:02:02.221858 29678 layer_factory.hpp:77] Creating layer lstm1-drop
I1018 00:02:02.221868 29678 net.cpp:84] Creating Layer lstm1-drop
I1018 00:02:02.221873 29678 net.cpp:406] lstm1-drop <- lstm1
I1018 00:02:02.221879 29678 net.cpp:380] lstm1-drop -> lstm1-drop
I1018 00:02:02.221918 29678 net.cpp:122] Setting up lstm1-drop
I1018 00:02:02.221931 29678 net.cpp:129] Top shape: 16 5 512 (40960)
I1018 00:02:02.221935 29678 net.cpp:137] Memory required for data: 577516820
I1018 00:02:02.221940 29678 layer_factory.hpp:77] Creating layer fc-final
I1018 00:02:02.221946 29678 net.cpp:84] Creating Layer fc-final
I1018 00:02:02.221951 29678 net.cpp:406] fc-final <- lstm1-drop
I1018 00:02:02.221957 29678 net.cpp:380] fc-final -> fc-final
I1018 00:02:02.222250 29678 net.cpp:122] Setting up fc-final
I1018 00:02:02.222260 29678 net.cpp:129] Top shape: 16 5 10 (800)
I1018 00:02:02.222265 29678 net.cpp:137] Memory required for data: 577520020
I1018 00:02:02.222271 29678 layer_factory.hpp:77] Creating layer fc-final_fc-final_0_split
I1018 00:02:02.222277 29678 net.cpp:84] Creating Layer fc-final_fc-final_0_split
I1018 00:02:02.222281 29678 net.cpp:406] fc-final_fc-final_0_split <- fc-final
I1018 00:02:02.222287 29678 net.cpp:380] fc-final_fc-final_0_split -> fc-final_fc-final_0_split_0
I1018 00:02:02.222295 29678 net.cpp:380] fc-final_fc-final_0_split -> fc-final_fc-final_0_split_1
I1018 00:02:02.222333 29678 net.cpp:122] Setting up fc-final_fc-final_0_split
I1018 00:02:02.222340 29678 net.cpp:129] Top shape: 16 5 10 (800)
I1018 00:02:02.222344 29678 net.cpp:129] Top shape: 16 5 10 (800)
I1018 00:02:02.222348 29678 net.cpp:137] Memory required for data: 577526420
I1018 00:02:02.222352 29678 layer_factory.hpp:77] Creating layer loss
I1018 00:02:02.222362 29678 net.cpp:84] Creating Layer loss
I1018 00:02:02.222365 29678 net.cpp:406] loss <- fc-final_fc-final_0_split_0
I1018 00:02:02.222373 29678 net.cpp:406] loss <- reshape-label_label_tran_0_split_0
I1018 00:02:02.222378 29678 net.cpp:380] loss -> loss
…
I1018 00:02:02.223708 29678 net.cpp:294] The NetState phase (1) differed from the phase (0) specified by a rule in layer data
I1018 00:02:02.223888 29678 net.cpp:51] Initializing net from parameters: 
name: "VGG-Places365"
state {
  phase: TEST
  stage: "test-on-test"
}
layer {
  name: "data"
  type: "ImageData"
  top: "data"
  top: "label"
  include {
    phase: TEST
  }
  transform_param {
    mirror: false
    crop_size: 224
    mean_value: 104
    mean_value: 117
    mean_value: 123
  }
  image_data_param {
    source: "../Data/lsun_val_list.txt"
    batch_size: 150
    new_height: 256
    new_width: 256
  }
}
layer {
  name: "Silence"
  type: "Silence"
  bottom: "label"
  include {
    phase: TEST
  }
}
layer {
  name: "label_tran"
  type: "Python"
  bottom: "label"
  top: "reshape-label"
  top: "clip_markers"
  python_param {
    module: "data_preparation_sort_max_clip"
    layer: "ReshapeLabel"
  }
}
layer {
  name: "conv1_1"
  type: "Convolution"
  bottom: "data"
  top: "conv1_1"
  convolution_param {
    num_output: 64
    pad: 1
    kernel_size: 3
  }
}
layer {
  name: "relu1_1"
  type: "ReLU"
  bottom: "conv1_1"
  top: "conv1_1"
}
layer {
  name: "conv1_2"
  type: "Convolution"
  bottom: "conv1_1"
  top: "conv1_2"
  convolution_param {
    num_output: 64
    pad: 1
    kernel_size: 3
  }
}
layer {
  name: "relu1_2"
  type: "ReLU"
  bottom: "conv1_2"
  top: "conv1_2"
}
layer {
  name: "pool1"
  type: "Pooling"
  bottom: "conv1_2"
  top: "pool1"
  pooling_param {
    pool: MAX
    kernel_size: 2
    stride: 2
  }
}
layer {
  name: "conv2_1"
  type: "Convolution"
  bottom: "pool1"
  top: "conv2_1"
  convolution_param {
    num_output: 128
    pad: 1
    kernel_size: 3
  }
}
layer {
  name: "relu2_1"
  type: "ReLU"
  bottom: "conv2_1"
  top: "conv2_1"
}
layer {
  name: "conv2_2"
  type: "Convolution"
  bottom: "conv2_1"
  top: "conv2_2"
  convolution_param {
    num_output: 128
    pad: 1
    kernel_size: 3
  }
}
layer {
  name: "relu2_2"
  type: "ReLU"
  bottom: "conv2_2"
  top: "conv2_2"
}
layer {
  name: "pool2"
  type: "Pooling"
  bottom: "conv2_2"
  top: "pool2"
  pooling_param {
    pool: MAX
    kernel_size: 2
    stride: 2
  }
}
layer {
  name: "conv3_1"
  type: "Convolution"
  bottom: "pool2"
  top: "conv3_1"
  convolution_param {
    num_output: 256
    pad: 1
    kernel_size: 3
  }
}
layer {
  name: "relu3_1"
  type: "ReLU"
  bottom: "conv3_1"
  top: "conv3_1"
}
layer {
  name: "conv3_2"
  type: "Convolution"
  bottom: "conv3_1"
  top: "conv3_2"
  convolution_param {
    num_output: 256
    pad: 1
    kernel_size: 3
  }
}
layer {
  name: "relu3_2"
  type: "ReLU"
  bottom: "conv3_2"
  top: "conv3_2"
}
layer {
  name: "conv3_3"
  type: "Convolution"
  bottom: "conv3_2"
  top: "conv3_3"
  convolution_param {
    num_output: 256
    pad: 1
    kernel_size: 3
  }
}
layer {
  name: "relu3_3"
  type: "ReLU"
  bottom: "conv3_3"
  top: "conv3_3"
}
layer {
  name: "pool3"
  type: "Pooling"
  bottom: "conv3_3"
  top: "pool3"
  pooling_param {
    pool: MAX
    kernel_size: 2
    stride: 2
  }
}
layer {
  name: "conv4_1"
  type: "Convolution"
  bottom: "pool3"
  top: "conv4_1"
  convolution_param {
    num_output: 512
    pad: 1
    kernel_size: 3
  }
}
layer {
  name: "relu4_1"
  type: "ReLU"
  bottom: "conv4_1"
  top: "conv4_1"
}
layer {
  name: "conv4_2"
  type: "Convolution"
  bottom: "conv4_1"
  top: "conv4_2"
  convolution_param {
    num_output: 512
    pad: 1
    kernel_size: 3
  }
}
layer {
  name: "relu4_2"
  type: "ReLU"
  bottom: "conv4_2"
  top: "conv4_2"
}
layer {
  name: "conv4_3"
  type: "Convolution"
  bottom: "conv4_2"
  top: "conv4_3"
  convolution_param {
    num_output: 512
    pad: 1
    kernel_size: 3
  }
}
layer {
  name: "relu4_3"
  type: "ReLU"
  bottom: "conv4_3"
  top: "conv4_3"
}
layer {
  name: "pool4"
  type: "Pooling"
  bottom: "conv4_3"
  top: "pool4"
  pooling_param {
    pool: MAX
    kernel_size: 2
    stride: 2
  }
}
layer {
  name: "conv5_1"
  type: "Convolution"
  bottom: "pool4"
  top: "conv5_1"
  convolution_param {
    num_output: 512
    pad: 1
    kernel_size: 3
  }
}
layer {
  name: "relu5_1"
  type: "ReLU"
  bottom: "conv5_1"
  top: "conv5_1"
}
layer {
  name: "conv5_2"
  type: "Convolution"
  bottom: "conv5_1"
  top: "conv5_2"
  convolution_param {
    num_output: 512
    pad: 1
    kernel_size: 3
  }
}
layer {
  name: "relu5_2"
  type: "ReLU"
  bottom: "conv5_2"
  top: "conv5_2"
}
layer {
  name: "conv5_3"
  type: "Convolution"
  bottom: "conv5_2"
  top: "conv5_3"
  convolution_param {
    num_output: 512
    pad: 1
    kernel_size: 3
  }
}
layer {
  name: "relu5_3"
  type: "ReLU"
  bottom: "conv5_3"
  top: "conv5_3"
}
layer {
  name: "conv5_3_re"
  type: "Reshape"
  bottom: "conv5_3"
  top: "conv5_3_re"
  reshape_param {
    shape {
      dim: 0
      dim: 0
      dim: -1
    }
  }
}
layer {
  name: "conv5_3_tran"
  type: "Python"
  bottom: "conv5_3_re"
  top: "conv5_3_tran"
  python_param {
    module: "data_preparation_sort_max_clip"
    layer: "DataTransposeSortMaxClip"
  }
}
layer {
  name: "lstm1"
  type: "LSTM"
  bottom: "conv5_3_tran"
  bottom: "clip_markers"
  top: "lstm1"
  recurrent_param {
    num_output: 512
    weight_filler {
      type: "uniform"
      min: -0.01
      max: 0.01
    }
    bias_filler {
      type: "constant"
      value: 0
    }
  }
}
layer {
  name: "lstm1-drop"
  type: "Dropout"
  bottom: "lstm1"
  top: "lstm1-drop"
  dropout_param {
    dropout_ratio: 0.5
  }
}
layer {
  name: "fc-final"
  type: "InnerProduct"
  bottom: "lstm1-drop"
  top: "fc-final"
  param {
    lr_mult: 1
    decay_mult: 1
  }
  param {
    lr_mult: 2
    decay_mult: 0
  }
  inner_product_param {
    num_output: 10
    weight_filler {
      type: "gaussian"
      std: 0.01
    }
    bias_filler {
      type: "constant"
      value: 0
    }
    axis: 2
  }
}
layer {
  name: "loss"
  type: "SoftmaxWithLoss"
  bottom: "fc-final"
  bottom: "reshape-label"
  top: "loss"
  softmax_param {
    axis: 2
  }
}
layer {
  name: "accuracy"
  type: "Accuracy"
  bottom: "fc-final"
  bottom: "reshape-label"
  top: "accuracy"
  accuracy_param {
    axis: 2
  }
}
I1018 00:02:02.224050 29678 layer_factory.hpp:77] Creating layer data
I1018 00:02:02.224069 29678 net.cpp:84] Creating Layer data
I1018 00:02:02.224076 29678 net.cpp:380] data -> data
I1018 00:02:02.224086 29678 net.cpp:380] data -> label
I1018 00:02:02.224095 29678 image_data_layer.cpp:38] Opening file ../Data/lsun_val_list.txt
I1018 00:02:02.225083 29678 image_data_layer.cpp:63] A total of 3000 images.
I1018 00:02:02.226601 29678 image_data_layer.cpp:90] output data size: 150,3,224,224
I1018 00:02:02.450943 29678 net.cpp:122] Setting up data
I1018 00:02:02.450990 29678 net.cpp:129] Top shape: 150 3 224 224 (22579200)
I1018 00:02:02.450997 29678 net.cpp:129] Top shape: 150 (150)
I1018 00:02:02.451002 29678 net.cpp:137] Memory required for data: 90317400
I1018 00:02:02.451010 29678 layer_factory.hpp:77] Creating layer label_data_1_split
I1018 00:02:02.451025 29678 net.cpp:84] Creating Layer label_data_1_split
I1018 00:02:02.451031 29678 net.cpp:406] label_data_1_split <- label
I1018 00:02:02.451042 29678 net.cpp:380] label_data_1_split -> label_data_1_split_0
I1018 00:02:02.451057 29678 net.cpp:380] label_data_1_split -> label_data_1_split_1
I1018 00:02:02.451166 29678 net.cpp:122] Setting up label_data_1_split
I1018 00:02:02.451177 29678 net.cpp:129] Top shape: 150 (150)
I1018 00:02:02.451182 29678 net.cpp:129] Top shape: 150 (150)
I1018 00:02:02.451194 29678 net.cpp:137] Memory required for data: 90318600
I1018 00:02:02.451197 29678 layer_factory.hpp:77] Creating layer Silence
I1018 00:02:02.451211 29678 net.cpp:84] Creating Layer Silence
I1018 00:02:02.451216 29678 net.cpp:406] Silence <- label_data_1_split_0
I1018 00:02:02.451222 29678 net.cpp:122] Setting up Silence
I1018 00:02:02.451226 29678 net.cpp:137] Memory required for data: 90318600
I1018 00:02:02.451231 29678 layer_factory.hpp:77] Creating layer label_tran
I1018 00:02:02.451298 29678 net.cpp:84] Creating Layer label_tran
I1018 00:02:02.451315 29678 net.cpp:406] label_tran <- label_data_1_split_1
I1018 00:02:02.451323 29678 net.cpp:380] label_tran -> reshape-label
I1018 00:02:02.451333 29678 net.cpp:380] label_tran -> clip_markers
I1018 00:02:02.451450 29678 net.cpp:122] Setting up label_tran
I1018 00:02:02.451463 29678 net.cpp:129] Top shape: 16 150 (2400)
I1018 00:02:02.451468 29678 net.cpp:129] Top shape: 16 150 (2400)
I1018 00:02:02.451472 29678 net.cpp:137] Memory required for data: 90337800
I1018 00:02:02.451477 29678 layer_factory.hpp:77] Creating layer reshape-label_label_tran_0_split
I1018 00:02:02.451484 29678 net.cpp:84] Creating Layer reshape-label_label_tran_0_split
I1018 00:02:02.451489 29678 net.cpp:406] reshape-label_label_tran_0_split <- reshape-label
I1018 00:02:02.451496 29678 net.cpp:380] reshape-label_label_tran_0_split -> reshape-label_label_tran_0_split_0
I1018 00:02:02.451504 29678 net.cpp:380] reshape-label_label_tran_0_split -> reshape-label_label_tran_0_split_1
I1018 00:02:02.451539 29678 net.cpp:122] Setting up reshape-label_label_tran_0_split
I1018 00:02:02.451545 29678 net.cpp:129] Top shape: 16 150 (2400)
I1018 00:02:02.451550 29678 net.cpp:129] Top shape: 16 150 (2400)
I1018 00:02:02.451555 29678 net.cpp:137] Memory required for data: 90357000
I1018 00:02:02.451558 29678 layer_factory.hpp:77] Creating layer conv1_1
I1018 00:02:02.451570 29678 net.cpp:84] Creating Layer conv1_1
I1018 00:02:02.451575 29678 net.cpp:406] conv1_1 <- data
I1018 00:02:02.451581 29678 net.cpp:380] conv1_1 -> conv1_1
I1018 00:02:02.451870 29678 net.cpp:122] Setting up conv1_1
I1018 00:02:02.451882 29678 net.cpp:129] Top shape: 150 64 224 224 (481689600)
I1018 00:02:02.451886 29678 net.cpp:137] Memory required for data: 2017115400
I1018 00:02:02.451900 29678 layer_factory.hpp:77] Creating layer relu1_1
I1018 00:02:02.451908 29678 net.cpp:84] Creating Layer relu1_1
I1018 00:02:02.451912 29678 net.cpp:406] relu1_1 <- conv1_1
I1018 00:02:02.451920 29678 net.cpp:367] relu1_1 -> conv1_1 (in-place)
I1018 00:02:02.451926 29678 net.cpp:122] Setting up relu1_1
I1018 00:02:02.451932 29678 net.cpp:129] Top shape: 150 64 224 224 (481689600)
I1018 00:02:02.451936 29678 net.cpp:137] Memory required for data: 3943873800
I1018 00:02:02.451941 29678 layer_factory.hpp:77] Creating layer conv1_2
I1018 00:02:02.451948 29678 net.cpp:84] Creating Layer conv1_2
I1018 00:02:02.451952 29678 net.cpp:406] conv1_2 <- conv1_1
I1018 00:02:02.451959 29678 net.cpp:380] conv1_2 -> conv1_2
I1018 00:02:02.453114 29678 net.cpp:122] Setting up conv1_2
I1018 00:02:02.453132 29678 net.cpp:129] Top shape: 150 64 224 224 (481689600)
I1018 00:02:02.453136 29678 net.cpp:137] Memory required for data: 5870632200
I1018 00:02:02.453147 29678 layer_factory.hpp:77] Creating layer relu1_2
I1018 00:02:02.453156 29678 net.cpp:84] Creating Layer relu1_2
I1018 00:02:02.453161 29678 net.cpp:406] relu1_2 <- conv1_2
I1018 00:02:02.453168 29678 net.cpp:367] relu1_2 -> conv1_2 (in-place)
I1018 00:02:02.453176 29678 net.cpp:122] Setting up relu1_2
I1018 00:02:02.453182 29678 net.cpp:129] Top shape: 150 64 224 224 (481689600)
I1018 00:02:02.453186 29678 net.cpp:137] Memory required for data: 7797390600
I1018 00:02:02.453191 29678 layer_factory.hpp:77] Creating layer pool1
I1018 00:02:02.453198 29678 net.cpp:84] Creating Layer pool1
I1018 00:02:02.453202 29678 net.cpp:406] pool1 <- conv1_2
I1018 00:02:02.453209 29678 net.cpp:380] pool1 -> pool1
I1018 00:02:02.453250 29678 net.cpp:122] Setting up pool1
I1018 00:02:02.453258 29678 net.cpp:129] Top shape: 150 64 112 112 (120422400)
I1018 00:02:02.453263 29678 net.cpp:137] Memory required for data: 8279080200
I1018 00:02:02.453266 29678 layer_factory.hpp:77] Creating layer conv2_1
I1018 00:02:02.453274 29678 net.cpp:84] Creating Layer conv2_1
I1018 00:02:02.453279 29678 net.cpp:406] conv2_1 <- pool1
I1018 00:02:02.453286 29678 net.cpp:380] conv2_1 -> conv2_1
I1018 00:02:02.454494 29678 net.cpp:122] Setting up conv2_1
I1018 00:02:02.454521 29678 net.cpp:129] Top shape: 150 128 112 112 (240844800)
I1018 00:02:02.454526 29678 net.cpp:137] Memory required for data: 9242459400
I1018 00:02:02.454537 29678 layer_factory.hpp:77] Creating layer relu2_1
I1018 00:02:02.454545 29678 net.cpp:84] Creating Layer relu2_1
I1018 00:02:02.454550 29678 net.cpp:406] relu2_1 <- conv2_1
I1018 00:02:02.454557 29678 net.cpp:367] relu2_1 -> conv2_1 (in-place)
I1018 00:02:02.454566 29678 net.cpp:122] Setting up relu2_1
I1018 00:02:02.454571 29678 net.cpp:129] Top shape: 150 128 112 112 (240844800)
I1018 00:02:02.454576 29678 net.cpp:137] Memory required for data: 10205838600
I1018 00:02:02.454579 29678 layer_factory.hpp:77] Creating layer conv2_2
I1018 00:02:02.454586 29678 net.cpp:84] Creating Layer conv2_2
I1018 00:02:02.454591 29678 net.cpp:406] conv2_2 <- conv2_1
I1018 00:02:02.454597 29678 net.cpp:380] conv2_2 -> conv2_2
I1018 00:02:02.454919 29678 net.cpp:122] Setting up conv2_2
I1018 00:02:02.454931 29678 net.cpp:129] Top shape: 150 128 112 112 (240844800)
I1018 00:02:02.454934 29678 net.cpp:137] Memory required for data: 11169217800
I1018 00:02:02.454942 29678 layer_factory.hpp:77] Creating layer relu2_2
I1018 00:02:02.454948 29678 net.cpp:84] Creating Layer relu2_2
I1018 00:02:02.454952 29678 net.cpp:406] relu2_2 <- conv2_2
I1018 00:02:02.454959 29678 net.cpp:367] relu2_2 -> conv2_2 (in-place)
I1018 00:02:02.454965 29678 net.cpp:122] Setting up relu2_2
I1018 00:02:02.454972 29678 net.cpp:129] Top shape: 150 128 112 112 (240844800)
I1018 00:02:02.454975 29678 net.cpp:137] Memory required for data: 12132597000
I1018 00:02:02.454979 29678 layer_factory.hpp:77] Creating layer pool2
I1018 00:02:02.454987 29678 net.cpp:84] Creating Layer pool2
I1018 00:02:02.454990 29678 net.cpp:406] pool2 <- conv2_2
I1018 00:02:02.454998 29678 net.cpp:380] pool2 -> pool2
I1018 00:02:02.455034 29678 net.cpp:122] Setting up pool2
I1018 00:02:02.455041 29678 net.cpp:129] Top shape: 150 128 56 56 (60211200)
I1018 00:02:02.455045 29678 net.cpp:137] Memory required for data: 12373441800
I1018 00:02:02.455049 29678 layer_factory.hpp:77] Creating layer conv3_1
I1018 00:02:02.455057 29678 net.cpp:84] Creating Layer conv3_1
I1018 00:02:02.455061 29678 net.cpp:406] conv3_1 <- pool2
I1018 00:02:02.455068 29678 net.cpp:380] conv3_1 -> conv3_1
I1018 00:02:02.456297 29678 net.cpp:122] Setting up conv3_1
I1018 00:02:02.456326 29678 net.cpp:129] Top shape: 150 256 56 56 (120422400)
I1018 00:02:02.456331 29678 net.cpp:137] Memory required for data: 12855131400
I1018 00:02:02.456341 29678 layer_factory.hpp:77] Creating layer relu3_1
I1018 00:02:02.456351 29678 net.cpp:84] Creating Layer relu3_1
I1018 00:02:02.456356 29678 net.cpp:406] relu3_1 <- conv3_1
I1018 00:02:02.456362 29678 net.cpp:367] relu3_1 -> conv3_1 (in-place)
I1018 00:02:02.456370 29678 net.cpp:122] Setting up relu3_1
I1018 00:02:02.456377 29678 net.cpp:129] Top shape: 150 256 56 56 (120422400)
I1018 00:02:02.456380 29678 net.cpp:137] Memory required for data: 13336821000
I1018 00:02:02.456384 29678 layer_factory.hpp:77] Creating layer conv3_2
I1018 00:02:02.456393 29678 net.cpp:84] Creating Layer conv3_2
I1018 00:02:02.456398 29678 net.cpp:406] conv3_2 <- conv3_1
I1018 00:02:02.456405 29678 net.cpp:380] conv3_2 -> conv3_2
I1018 00:02:02.465590 29678 net.cpp:122] Setting up conv3_2
I1018 00:02:02.465607 29678 net.cpp:129] Top shape: 150 256 56 56 (120422400)
I1018 00:02:02.465611 29678 net.cpp:137] Memory required for data: 13818510600
I1018 00:02:02.465620 29678 layer_factory.hpp:77] Creating layer relu3_2
I1018 00:02:02.465627 29678 net.cpp:84] Creating Layer relu3_2
I1018 00:02:02.465632 29678 net.cpp:406] relu3_2 <- conv3_2
I1018 00:02:02.465639 29678 net.cpp:367] relu3_2 -> conv3_2 (in-place)
I1018 00:02:02.465647 29678 net.cpp:122] Setting up relu3_2
I1018 00:02:02.465653 29678 net.cpp:129] Top shape: 150 256 56 56 (120422400)
I1018 00:02:02.465657 29678 net.cpp:137] Memory required for data: 14300200200
I1018 00:02:02.465662 29678 layer_factory.hpp:77] Creating layer conv3_3
I1018 00:02:02.465669 29678 net.cpp:84] Creating Layer conv3_3
I1018 00:02:02.465673 29678 net.cpp:406] conv3_3 <- conv3_2
I1018 00:02:02.465680 29678 net.cpp:380] conv3_3 -> conv3_3
I1018 00:02:02.467593 29678 net.cpp:122] Setting up conv3_3
I1018 00:02:02.467610 29678 net.cpp:129] Top shape: 150 256 56 56 (120422400)
I1018 00:02:02.467615 29678 net.cpp:137] Memory required for data: 14781889800
I1018 00:02:02.467623 29678 layer_factory.hpp:77] Creating layer relu3_3
I1018 00:02:02.467639 29678 net.cpp:84] Creating Layer relu3_3
I1018 00:02:02.467644 29678 net.cpp:406] relu3_3 <- conv3_3
I1018 00:02:02.467651 29678 net.cpp:367] relu3_3 -> conv3_3 (in-place)
I1018 00:02:02.467659 29678 net.cpp:122] Setting up relu3_3
I1018 00:02:02.467664 29678 net.cpp:129] Top shape: 150 256 56 56 (120422400)
I1018 00:02:02.467669 29678 net.cpp:137] Memory required for data: 15263579400
I1018 00:02:02.467674 29678 layer_factory.hpp:77] Creating layer pool3
I1018 00:02:02.467679 29678 net.cpp:84] Creating Layer pool3
I1018 00:02:02.467684 29678 net.cpp:406] pool3 <- conv3_3
I1018 00:02:02.467689 29678 net.cpp:380] pool3 -> pool3
I1018 00:02:02.467730 29678 net.cpp:122] Setting up pool3
I1018 00:02:02.467737 29678 net.cpp:129] Top shape: 150 256 28 28 (30105600)
I1018 00:02:02.467741 29678 net.cpp:137] Memory required for data: 15384001800
I1018 00:02:02.467746 29678 layer_factory.hpp:77] Creating layer conv4_1
I1018 00:02:02.467754 29678 net.cpp:84] Creating Layer conv4_1
I1018 00:02:02.467758 29678 net.cpp:406] conv4_1 <- pool3
I1018 00:02:02.467766 29678 net.cpp:380] conv4_1 -> conv4_1
I1018 00:02:02.471002 29678 net.cpp:122] Setting up conv4_1
I1018 00:02:02.471019 29678 net.cpp:129] Top shape: 150 512 28 28 (60211200)
I1018 00:02:02.471024 29678 net.cpp:137] Memory required for data: 15624846600
I1018 00:02:02.471032 29678 layer_factory.hpp:77] Creating layer relu4_1
I1018 00:02:02.471040 29678 net.cpp:84] Creating Layer relu4_1
I1018 00:02:02.471045 29678 net.cpp:406] relu4_1 <- conv4_1
I1018 00:02:02.471052 29678 net.cpp:367] relu4_1 -> conv4_1 (in-place)
I1018 00:02:02.471060 29678 net.cpp:122] Setting up relu4_1
I1018 00:02:02.471066 29678 net.cpp:129] Top shape: 150 512 28 28 (60211200)
I1018 00:02:02.471071 29678 net.cpp:137] Memory required for data: 15865691400
I1018 00:02:02.471074 29678 layer_factory.hpp:77] Creating layer conv4_2
I1018 00:02:02.471082 29678 net.cpp:84] Creating Layer conv4_2
I1018 00:02:02.471086 29678 net.cpp:406] conv4_2 <- conv4_1
I1018 00:02:02.471092 29678 net.cpp:380] conv4_2 -> conv4_2
I1018 00:02:02.476994 29678 net.cpp:122] Setting up conv4_2
I1018 00:02:02.477011 29678 net.cpp:129] Top shape: 150 512 28 28 (60211200)
I1018 00:02:02.477016 29678 net.cpp:137] Memory required for data: 16106536200
I1018 00:02:02.477030 29678 layer_factory.hpp:77] Creating layer relu4_2
I1018 00:02:02.477037 29678 net.cpp:84] Creating Layer relu4_2
I1018 00:02:02.477043 29678 net.cpp:406] relu4_2 <- conv4_2
I1018 00:02:02.477049 29678 net.cpp:367] relu4_2 -> conv4_2 (in-place)
I1018 00:02:02.477058 29678 net.cpp:122] Setting up relu4_2
I1018 00:02:02.477063 29678 net.cpp:129] Top shape: 150 512 28 28 (60211200)
I1018 00:02:02.477067 29678 net.cpp:137] Memory required for data: 16347381000
I1018 00:02:02.477072 29678 layer_factory.hpp:77] Creating layer conv4_3
I1018 00:02:02.477080 29678 net.cpp:84] Creating Layer conv4_3
I1018 00:02:02.477084 29678 net.cpp:406] conv4_3 <- conv4_2
I1018 00:02:02.477092 29678 net.cpp:380] conv4_3 -> conv4_3
I1018 00:02:02.483106 29678 net.cpp:122] Setting up conv4_3
I1018 00:02:02.483129 29678 net.cpp:129] Top shape: 150 512 28 28 (60211200)
I1018 00:02:02.483134 29678 net.cpp:137] Memory required for data: 16588225800
I1018 00:02:02.483144 29678 layer_factory.hpp:77] Creating layer relu4_3
I1018 00:02:02.483153 29678 net.cpp:84] Creating Layer relu4_3
I1018 00:02:02.483158 29678 net.cpp:406] relu4_3 <- conv4_3
I1018 00:02:02.483166 29678 net.cpp:367] relu4_3 -> conv4_3 (in-place)
I1018 00:02:02.483175 29678 net.cpp:122] Setting up relu4_3
I1018 00:02:02.483181 29678 net.cpp:129] Top shape: 150 512 28 28 (60211200)
I1018 00:02:02.483186 29678 net.cpp:137] Memory required for data: 16829070600
I1018 00:02:02.483189 29678 layer_factory.hpp:77] Creating layer pool4
I1018 00:02:02.483197 29678 net.cpp:84] Creating Layer pool4
I1018 00:02:02.483201 29678 net.cpp:406] pool4 <- conv4_3
I1018 00:02:02.483208 29678 net.cpp:380] pool4 -> pool4
I1018 00:02:02.483249 29678 net.cpp:122] Setting up pool4
I1018 00:02:02.483256 29678 net.cpp:129] Top shape: 150 512 14 14 (15052800)
I1018 00:02:02.483260 29678 net.cpp:137] Memory required for data: 16889281800
I1018 00:02:02.483264 29678 layer_factory.hpp:77] Creating layer conv5_1
I1018 00:02:02.483274 29678 net.cpp:84] Creating Layer conv5_1
I1018 00:02:02.483278 29678 net.cpp:406] conv5_1 <- pool4
I1018 00:02:02.483288 29678 net.cpp:380] conv5_1 -> conv5_1
I1018 00:02:02.489131 29678 net.cpp:122] Setting up conv5_1
I1018 00:02:02.489150 29678 net.cpp:129] Top shape: 150 512 14 14 (15052800)
I1018 00:02:02.489154 29678 net.cpp:137] Memory required for data: 16949493000
I1018 00:02:02.489162 29678 layer_factory.hpp:77] Creating layer relu5_1
I1018 00:02:02.489169 29678 net.cpp:84] Creating Layer relu5_1
I1018 00:02:02.489174 29678 net.cpp:406] relu5_1 <- conv5_1
I1018 00:02:02.489181 29678 net.cpp:367] relu5_1 -> conv5_1 (in-place)
I1018 00:02:02.489189 29678 net.cpp:122] Setting up relu5_1
I1018 00:02:02.489194 29678 net.cpp:129] Top shape: 150 512 14 14 (15052800)
I1018 00:02:02.489198 29678 net.cpp:137] Memory required for data: 17009704200
I1018 00:02:02.489202 29678 layer_factory.hpp:77] Creating layer conv5_2
I1018 00:02:02.489212 29678 net.cpp:84] Creating Layer conv5_2
I1018 00:02:02.489217 29678 net.cpp:406] conv5_2 <- conv5_1
I1018 00:02:02.489223 29678 net.cpp:380] conv5_2 -> conv5_2
I1018 00:02:02.495064 29678 net.cpp:122] Setting up conv5_2
I1018 00:02:02.495082 29678 net.cpp:129] Top shape: 150 512 14 14 (15052800)
I1018 00:02:02.495087 29678 net.cpp:137] Memory required for data: 17069915400
I1018 00:02:02.495095 29678 layer_factory.hpp:77] Creating layer relu5_2
I1018 00:02:02.495110 29678 net.cpp:84] Creating Layer relu5_2
I1018 00:02:02.495115 29678 net.cpp:406] relu5_2 <- conv5_2
I1018 00:02:02.495122 29678 net.cpp:367] relu5_2 -> conv5_2 (in-place)
I1018 00:02:02.495131 29678 net.cpp:122] Setting up relu5_2
I1018 00:02:02.495136 29678 net.cpp:129] Top shape: 150 512 14 14 (15052800)
I1018 00:02:02.495139 29678 net.cpp:137] Memory required for data: 17130126600
I1018 00:02:02.495143 29678 layer_factory.hpp:77] Creating layer conv5_3
I1018 00:02:02.495153 29678 net.cpp:84] Creating Layer conv5_3
I1018 00:02:02.495157 29678 net.cpp:406] conv5_3 <- conv5_2
I1018 00:02:02.495165 29678 net.cpp:380] conv5_3 -> conv5_3
I1018 00:02:02.501106 29678 net.cpp:122] Setting up conv5_3
I1018 00:02:02.501122 29678 net.cpp:129] Top shape: 150 512 14 14 (15052800)
I1018 00:02:02.501127 29678 net.cpp:137] Memory required for data: 17190337800
I1018 00:02:02.501135 29678 layer_factory.hpp:77] Creating layer relu5_3
I1018 00:02:02.501144 29678 net.cpp:84] Creating Layer relu5_3
I1018 00:02:02.501150 29678 net.cpp:406] relu5_3 <- conv5_3
I1018 00:02:02.501157 29678 net.cpp:367] relu5_3 -> conv5_3 (in-place)
I1018 00:02:02.501164 29678 net.cpp:122] Setting up relu5_3
I1018 00:02:02.501170 29678 net.cpp:129] Top shape: 150 512 14 14 (15052800)
I1018 00:02:02.501174 29678 net.cpp:137] Memory required for data: 17250549000
I1018 00:02:02.501178 29678 layer_factory.hpp:77] Creating layer conv5_3_re
I1018 00:02:02.501188 29678 net.cpp:84] Creating Layer conv5_3_re
I1018 00:02:02.501191 29678 net.cpp:406] conv5_3_re <- conv5_3
I1018 00:02:02.501199 29678 net.cpp:380] conv5_3_re -> conv5_3_re
I1018 00:02:02.501231 29678 net.cpp:122] Setting up conv5_3_re
I1018 00:02:02.501238 29678 net.cpp:129] Top shape: 150 512 196 (15052800)
I1018 00:02:02.501242 29678 net.cpp:137] Memory required for data: 17310760200
I1018 00:02:02.501246 29678 layer_factory.hpp:77] Creating layer conv5_3_tran
I1018 00:02:02.501317 29678 net.cpp:84] Creating Layer conv5_3_tran
I1018 00:02:02.501324 29678 net.cpp:406] conv5_3_tran <- conv5_3_re
I1018 00:02:02.501332 29678 net.cpp:380] conv5_3_tran -> conv5_3_tran
I1018 00:02:02.532356 29678 net.cpp:122] Setting up conv5_3_tran
I1018 00:02:02.532392 29678 net.cpp:129] Top shape: 16 150 512 (1228800)
I1018 00:02:02.532397 29678 net.cpp:137] Memory required for data: 17315675400
I1018 00:02:02.532404 29678 layer_factory.hpp:77] Creating layer lstm1
I1018 00:02:02.532420 29678 net.cpp:84] Creating Layer lstm1
I1018 00:02:02.532428 29678 net.cpp:406] lstm1 <- conv5_3_tran
I1018 00:02:02.532438 29678 net.cpp:406] lstm1 <- clip_markers
I1018 00:02:02.532447 29678 net.cpp:380] lstm1 -> lstm1
I1018 00:02:02.532464 29678 recurrent_layer.cpp:20] Initializing recurrent layer: assuming input batch contains 16 timesteps of 150 independent streams.
I1018 00:02:02.533133 29678 net.cpp:51] Initializing net from parameters: 
layer {
  name: "lstm1_"
  type: "Input"
  top: "x"
  top: "cont"
  input_param {
    shape {
      dim: 16
      dim: 150
      dim: 512
    }
    shape {
      dim: 16
      dim: 150
    }
  }
}
layer {
  name: "lstm1_"
  type: "Input"
  top: "c_0"
  top: "h_0"
  input_param {
    shape {
      dim: 1
      dim: 150
      dim: 512
    }
    shape {
      dim: 1
      dim: 150
      dim: 512
    }
  }
}
layer {
  name: "lstm1_cont_slice"
  type: "Slice"
  bottom: "cont"
  top: "cont_1"
  top: "cont_2"
  top: "cont_3"
  top: "cont_4"
  top: "cont_5"
  top: "cont_6"
  top: "cont_7"
  top: "cont_8"
  top: "cont_9"
  top: "cont_10"
  top: "cont_11"
  top: "cont_12"
  top: "cont_13"
  top: "cont_14"
  top: "cont_15"
  top: "cont_16"
  slice_param {
    axis: 0
  }
}
layer {
  name: "lstm1_x_transform"
  type: "InnerProduct"
  bottom: "x"
  top: "W_xc_x"
  param {
    name: "W_xc"
  }
  param {
    name: "b_c"
  }
  propagate_down: true
  inner_product_param {
    num_output: 2048
    bias_term: true
    weight_filler {
      type: "uniform"
      min: -0.01
      max: 0.01
    }
    bias_filler {
      type: "constant"
      value: 0
    }
    axis: 2
  }
}
layer {
  name: "lstm1_W_xc_x_slice"
  type: "Slice"
  bottom: "W_xc_x"
  top: "W_xc_x_1"
  top: "W_xc_x_2"
  top: "W_xc_x_3"
  top: "W_xc_x_4"
  top: "W_xc_x_5"
  top: "W_xc_x_6"
  top: "W_xc_x_7"
  top: "W_xc_x_8"
  top: "W_xc_x_9"
  top: "W_xc_x_10"
  top: "W_xc_x_11"
  top: "W_xc_x_12"
  top: "W_xc_x_13"
  top: "W_xc_x_14"
  top: "W_xc_x_15"
  top: "W_xc_x_16"
  slice_param {
    axis: 0
  }
}
layer {
  name: "lstm1_h_conted_0"
  type: "Scale"
  bottom: "h_0"
  bottom: "cont_1"
  top: "h_conted_0"
  scale_param {
    axis: 0
  }
}
layer {
  name: "lstm1_transform_1"
  type: "InnerProduct"
  bottom: "h_conted_0"
  top: "W_hc_h_0"
  param {
    name: "W_hc"
  }
  inner_product_param {
    num_output: 2048
    bias_term: false
    weight_filler {
      type: "uniform"
      min: -0.01
      max: 0.01
    }
    axis: 2
  }
}
layer {
  name: "lstm1_gate_input_1"
  type: "Eltwise"
  bottom: "W_hc_h_0"
  bottom: "W_xc_x_1"
  top: "gate_input_1"
  eltwise_param {
    operation: SUM
  }
}
layer {
  name: "lstm1_unit_1"
  type: "LSTMUnit"
  bottom: "c_0"
  bottom: "gate_input_1"
  bottom: "cont_1"
  top: "c_1"
  top: "h_1"
}
layer {
  name: "lstm1_h_conted_1"
  type: "Scale"
  bottom: "h_1"
  bottom: "cont_2"
  top: "h_conted_1"
  scale_param {
    axis: 0
  }
}
layer {
  name: "lstm1_transform_2"
  type: "InnerProduct"
  bottom: "h_conted_1"
  top: "W_hc_h_1"
  param {
    name: "W_hc"
  }
  inner_product_param {
    num_output: 2048
    bias_term: false
    weight_filler {
      type: "uniform"
      min: -0.01
      max: 0.01
    }
    axis: 2
  }
}
layer {
  name: "lstm1_gate_input_2"
  type: "Eltwise"
  bottom: "W_hc_h_1"
  bottom: "W_xc_x_2"
  top: "gate_input_2"
  eltwise_param {
    operation: SUM
  }
}
layer {
  name: "lstm1_unit_2"
  type: "LSTMUnit"
  bottom: "c_1"
  bottom: "gate_input_2"
  bottom: "cont_2"
  top: "c_2"
  top: "h_2"
}
layer {
  name: "lstm1_h_conted_2"
  type: "Scale"
  bottom: "h_2"
  bottom: "cont_3"
  top: "h_conted_2"
  scale_param {
    axis: 0
  }
}
layer {
  name: "lstm1_transform_3"
  type: "InnerProduct"
  bottom: "h_conted_2"
  top: "W_hc_h_2"
  param {
    name: "W_hc"
  }
  inner_product_param {
    num_output: 2048
    bias_term: false
    weight_filler {
      type: "uniform"
      min: -0.01
      max: 0.01
    }
    axis: 2
  }
}
layer {
  name: "lstm1_gate_input_3"
  type: "Eltwise"
  bottom: "W_hc_h_2"
  bottom: "W_xc_x_3"
  top: "gate_input_3"
  eltwise_param {
    operation: SUM
  }
}
layer {
  name: "lstm1_unit_3"
  type: "LSTMUnit"
  bottom: "c_2"
  bottom: "gate_input_3"
  bottom: "cont_3"
  top: "c_3"
  top: "h_3"
}
layer {
  name: "lstm1_h_conted_3"
  type: "Scale"
  bottom: "h_3"
  bottom: "cont_4"
  top: "h_conted_3"
  scale_param {
    axis: 0
  }
}
layer {
  name: "lstm1_transform_4"
  type: "InnerProduct"
  bottom: "h_conted_3"
  top: "W_hc_h_3"
  param {
    name: "W_hc"
  }
  inner_product_param {
    num_output: 2048
    bias_term: false
    weight_filler {
      type: "uniform"
      min: -0.01
      max: 0.01
    }
    axis: 2
  }
}
layer {
  name: "lstm1_gate_input_4"
  type: "Eltwise"
  bottom: "W_hc_h_3"
  bottom: "W_xc_x_4"
  top: "gate_input_4"
  eltwise_param {
    operation: SUM
  }
}
layer {
  name: "lstm1_unit_4"
  type: "LSTMUnit"
  bottom: "c_3"
  bottom: "gate_input_4"
  bottom: "cont_4"
  top: "c_4"
  top: "h_4"
}
layer {
  name: "lstm1_h_conted_4"
  type: "Scale"
  bottom: "h_4"
  bottom: "cont_5"
  top: "h_conted_4"
  scale_param {
    axis: 0
  }
}
layer {
  name: "lstm1_transform_5"
  type: "InnerProduct"
  bottom: "h_conted_4"
  top: "W_hc_h_4"
  param {
    name: "W_hc"
  }
  inner_product_param {
    num_output: 2048
    bias_term: false
    weight_filler {
      type: "uniform"
      min: -0.01
      max: 0.01
    }
    axis: 2
  }
}
layer {
  name: "lstm1_gate_input_5"
  type: "Eltwise"
  bottom: "W_hc_h_4"
  bottom: "W_xc_x_5"
  top: "gate_input_5"
  eltwise_param {
    operation: SUM
  }
}
layer {
  name: "lstm1_unit_5"
  type: "LSTMUnit"
  bottom: "c_4"
  bottom: "gate_input_5"
  bottom: "cont_5"
  top: "c_5"
  top: "h_5"
}
layer {
  name: "lstm1_h_conted_5"
  type: "Scale"
  bottom: "h_5"
  bottom: "cont_6"
  top: "h_conted_5"
  scale_param {
    axis: 0
  }
}
layer {
  name: "lstm1_transform_6"
  type: "InnerProduct"
  bottom: "h_conted_5"
  top: "W_hc_h_5"
  param {
    name: "W_hc"
  }
  inner_product_param {
    num_output: 2048
    bias_term: false
    weight_filler {
      type: "uniform"
      min: -0.01
      max: 0.01
    }
    axis: 2
  }
}
layer {
  name: "lstm1_gate_input_6"
  type: "Eltwise"
  bottom: "W_hc_h_5"
  bottom: "W_xc_x_6"
  top: "gate_input_6"
  eltwise_param {
    operation: SUM
  }
}
layer {
  name: "lstm1_unit_6"
  type: "LSTMUnit"
  bottom: "c_5"
  bottom: "gate_input_6"
  bottom: "cont_6"
  top: "c_6"
  top: "h_6"
}
layer {
  name: "lstm1_h_conted_6"
  type: "Scale"
  bottom: "h_6"
  bottom: "cont_7"
  top: "h_conted_6"
  scale_param {
    axis: 0
  }
}
layer {
  name: "lstm1_transform_7"
  type: "InnerProduct"
  bottom: "h_conted_6"
  top: "W_hc_h_6"
  param {
    name: "W_hc"
  }
  inner_product_param {
    num_output: 2048
    bias_term: false
    weight_filler {
      type: "uniform"
      min: -0.01
      max: 0.01
    }
    axis: 2
  }
}
layer {
  name: "lstm1_gate_input_7"
  type: "Eltwise"
  bottom: "W_hc_h_6"
  bottom: "W_xc_x_7"
  top: "gate_input_7"
  eltwise_param {
    operation: SUM
  }
}
layer {
  name: "lstm1_unit_7"
  type: "LSTMUnit"
  bottom: "c_6"
  bottom: "gate_input_7"
  bottom: "cont_7"
  top: "c_7"
  top: "h_7"
}
layer {
  name: "lstm1_h_conted_7"
  type: "Scale"
  bottom: "h_7"
  bottom: "cont_8"
  top: "h_conted_7"
  scale_param {
    axis: 0
  }
}
layer {
  name: "lstm1_transform_8"
  type: "InnerProduct"
  bottom: "h_conted_7"
  top: "W_hc_h_7"
  param {
    name: "W_hc"
  }
  inner_product_param {
    num_output: 2048
    bias_term: false
    weight_filler {
      type: "uniform"
      min: -0.01
      max: 0.01
    }
    axis: 2
  }
}
layer {
  name: "lstm1_gate_input_8"
  type: "Eltwise"
  bottom: "W_hc_h_7"
  bottom: "W_xc_x_8"
  top: "gate_input_8"
  eltwise_param {
    operation: SUM
  }
}
layer {
  name: "lstm1_unit_8"
  type: "LSTMUnit"
  bottom: "c_7"
  bottom: "gate_input_8"
  bottom: "cont_8"
  top: "c_8"
  top: "h_8"
}
layer {
  name: "lstm1_h_conted_8"
  type: "Scale"
  bottom: "h_8"
  bottom: "cont_9"
  top: "h_conted_8"
  scale_param {
    axis: 0
  }
}
layer {
  name: "lstm1_transform_9"
  type: "InnerProduct"
  bottom: "h_conted_8"
  top: "W_hc_h_8"
  param {
    name: "W_hc"
  }
  inner_product_param {
    num_output: 2048
    bias_term: false
    weight_filler {
      type: "uniform"
      min: -0.01
      max: 0.01
    }
    axis: 2
  }
}
layer {
  name: "lstm1_gate_input_9"
  type: "Eltwise"
  bottom: "W_hc_h_8"
  bottom: "W_xc_x_9"
  top: "gate_input_9"
  eltwise_param {
    operation: SUM
  }
}
layer {
  name: "lstm1_unit_9"
  type: "LSTMUnit"
  bottom: "c_8"
  bottom: "gate_input_9"
  bottom: "cont_9"
  top: "c_9"
  top: "h_9"
}
layer {
  name: "lstm1_h_conted_9"
  type: "Scale"
  bottom: "h_9"
  bottom: "cont_10"
  top: "h_conted_9"
  scale_param {
    axis: 0
  }
}
layer {
  name: "lstm1_transform_10"
  type: "InnerProduct"
  bottom: "h_conted_9"
  top: "W_hc_h_9"
  param {
    name: "W_hc"
  }
  inner_product_param {
    num_output: 2048
    bias_term: false
    weight_filler {
      type: "uniform"
      min: -0.01
      max: 0.01
    }
    axis: 2
  }
}
layer {
  name: "lstm1_gate_input_10"
  type: "Eltwise"
  bottom: "W_hc_h_9"
  bottom: "W_xc_x_10"
  top: "gate_input_10"
  eltwise_param {
    operation: SUM
  }
}
layer {
  name: "lstm1_unit_10"
  type: "LSTMUnit"
  bottom: "c_9"
  bottom: "gate_input_10"
  bottom: "cont_10"
  top: "c_10"
  top: "h_10"
}
layer {
  name: "lstm1_h_conted_10"
  type: "Scale"
  bottom: "h_10"
  bottom: "cont_11"
  top: "h_conted_10"
  scale_param {
    axis: 0
  }
}
layer {
  name: "lstm1_transform_11"
  type: "InnerProduct"
  bottom: "h_conted_10"
  top: "W_hc_h_10"
  param {
    name: "W_hc"
  }
  inner_product_param {
    num_output: 2048
    bias_term: false
    weight_filler {
      type: "uniform"
      min: -0.01
      max: 0.01
    }
    axis: 2
  }
}
layer {
  name: "lstm1_gate_input_11"
  type: "Eltwise"
  bottom: "W_hc_h_10"
  bottom: "W_xc_x_11"
  top: "gate_input_11"
  eltwise_param {
    operation: SUM
  }
}
layer {
  name: "lstm1_unit_11"
  type: "LSTMUnit"
  bottom: "c_10"
  bottom: "gate_input_11"
  bottom: "cont_11"
  top: "c_11"
  top: "h_11"
}
layer {
  name: "lstm1_h_conted_11"
  type: "Scale"
  bottom: "h_11"
  bottom: "cont_12"
  top: "h_conted_11"
  scale_param {
    axis: 0
  }
}
layer {
  name: "lstm1_transform_12"
  type: "InnerProduct"
  bottom: "h_conted_11"
  top: "W_hc_h_11"
  param {
    name: "W_hc"
  }
  inner_product_param {
    num_output: 2048
    bias_term: false
    weight_filler {
      type: "uniform"
      min: -0.01
      max: 0.01
    }
    axis: 2
  }
}
layer {
  name: "lstm1_gate_input_12"
  type: "Eltwise"
  bottom: "W_hc_h_11"
  bottom: "W_xc_x_12"
  top: "gate_input_12"
  eltwise_param {
    operation: SUM
  }
}
layer {
  name: "lstm1_unit_12"
  type: "LSTMUnit"
  bottom: "c_11"
  bottom: "gate_input_12"
  bottom: "cont_12"
  top: "c_12"
  top: "h_12"
}
layer {
  name: "lstm1_h_conted_12"
  type: "Scale"
  bottom: "h_12"
  bottom: "cont_13"
  top: "h_conted_12"
  scale_param {
    axis: 0
  }
}
layer {
  name: "lstm1_transform_13"
  type: "InnerProduct"
  bottom: "h_conted_12"
  top: "W_hc_h_12"
  param {
    name: "W_hc"
  }
  inner_product_param {
    num_output: 2048
    bias_term: false
    weight_filler {
      type: "uniform"
      min: -0.01
      max: 0.01
    }
    axis: 2
  }
}
layer {
  name: "lstm1_gate_input_13"
  type: "Eltwise"
  bottom: "W_hc_h_12"
  bottom: "W_xc_x_13"
  top: "gate_input_13"
  eltwise_param {
    operation: SUM
  }
}
layer {
  name: "lstm1_unit_13"
  type: "LSTMUnit"
  bottom: "c_12"
  bottom: "gate_input_13"
  bottom: "cont_13"
  top: "c_13"
  top: "h_13"
}
layer {
  name: "lstm1_h_conted_13"
  type: "Scale"
  bottom: "h_13"
  bottom: "cont_14"
  top: "h_conted_13"
  scale_param {
    axis: 0
  }
}
layer {
  name: "lstm1_transform_14"
  type: "InnerProduct"
  bottom: "h_conted_13"
  top: "W_hc_h_13"
  param {
    name: "W_hc"
  }
  inner_product_param {
    num_output: 2048
    bias_term: false
    weight_filler {
      type: "uniform"
      min: -0.01
      max: 0.01
    }
    axis: 2
  }
}
layer {
  name: "lstm1_gate_input_14"
  type: "Eltwise"
  bottom: "W_hc_h_13"
  bottom: "W_xc_x_14"
  top: "gate_input_14"
  eltwise_param {
    operation: SUM
  }
}
layer {
  name: "lstm1_unit_14"
  type: "LSTMUnit"
  bottom: "c_13"
  bottom: "gate_input_14"
  bottom: "cont_14"
  top: "c_14"
  top: "h_14"
}
layer {
  name: "lstm1_h_conted_14"
  type: "Scale"
  bottom: "h_14"
  bottom: "cont_15"
  top: "h_conted_14"
  scale_param {
    axis: 0
  }
}
layer {
  name: "lstm1_transform_15"
  type: "InnerProduct"
  bottom: "h_conted_14"
  top: "W_hc_h_14"
  param {
    name: "W_hc"
  }
  inner_product_param {
    num_output: 2048
    bias_term: false
    weight_filler {
      type: "uniform"
      min: -0.01
      max: 0.01
    }
    axis: 2
  }
}
layer {
  name: "lstm1_gate_input_15"
  type: "Eltwise"
  bottom: "W_hc_h_14"
  bottom: "W_xc_x_15"
  top: "gate_input_15"
  eltwise_param {
    operation: SUM
  }
}
layer {
  name: "lstm1_unit_15"
  type: "LSTMUnit"
  bottom: "c_14"
  bottom: "gate_input_15"
…
I1018 00:02:02.573578 29678 net.cpp:406] lstm1_h_conted_2 <- h_2_lstm1_unit_2_1_split_0
I1018 00:02:02.573583 29678 net.cpp:406] lstm1_h_conted_2 <- cont_3_lstm1_cont_slice_2_split_0
I1018 00:02:02.573590 29678 net.cpp:380] lstm1_h_conted_2 -> h_conted_2
I1018 00:02:02.573681 29678 net.cpp:122] Setting up lstm1_h_conted_2
I1018 00:02:02.573691 29678 net.cpp:129] Top shape: 1 150 512 (76800)
I1018 00:02:02.573695 29678 net.cpp:137] Memory required for data: 53184000
I1018 00:02:02.573699 29678 layer_factory.hpp:77] Creating layer lstm1_transform_3
I1018 00:02:02.573714 29678 net.cpp:84] Creating Layer lstm1_transform_3
I1018 00:02:02.573719 29678 net.cpp:406] lstm1_transform_3 <- h_conted_2
I1018 00:02:02.573725 29678 net.cpp:380] lstm1_transform_3 -> W_hc_h_2
I1018 00:02:02.585557 29678 net.cpp:122] Setting up lstm1_transform_3
I1018 00:02:02.585580 29678 net.cpp:129] Top shape: 1 150 2048 (307200)
I1018 00:02:02.585585 29678 net.cpp:137] Memory required for data: 54412800
I1018 00:02:02.585595 29678 net.cpp:465] Sharing parameters 'W_hc' owned by layer 'lstm1_transform_1', param index 0
I1018 00:02:02.585602 29678 layer_factory.hpp:77] Creating layer lstm1_gate_input_3
I1018 00:02:02.585611 29678 net.cpp:84] Creating Layer lstm1_gate_input_3
I1018 00:02:02.585618 29678 net.cpp:406] lstm1_gate_input_3 <- W_hc_h_2
I1018 00:02:02.585624 29678 net.cpp:406] lstm1_gate_input_3 <- W_xc_x_3
I1018 00:02:02.585633 29678 net.cpp:380] lstm1_gate_input_3 -> gate_input_3
I1018 00:02:02.585665 29678 net.cpp:122] Setting up lstm1_gate_input_3
I1018 00:02:02.585672 29678 net.cpp:129] Top shape: 1 150 2048 (307200)
I1018 00:02:02.585676 29678 net.cpp:137] Memory required for data: 55641600
I1018 00:02:02.585680 29678 layer_factory.hpp:77] Creating layer lstm1_unit_3
I1018 00:02:02.585690 29678 net.cpp:84] Creating Layer lstm1_unit_3
I1018 00:02:02.585695 29678 net.cpp:406] lstm1_unit_3 <- c_2
I1018 00:02:02.585700 29678 net.cpp:406] lstm1_unit_3 <- gate_input_3
I1018 00:02:02.585705 29678 net.cpp:406] lstm1_unit_3 <- cont_3_lstm1_cont_slice_2_split_1
I1018 00:02:02.585711 29678 net.cpp:380] lstm1_unit_3 -> c_3
I1018 00:02:02.585718 29678 net.cpp:380] lstm1_unit_3 -> h_3
I1018 00:02:02.585768 29678 net.cpp:122] Setting up lstm1_unit_3
I1018 00:02:02.585775 29678 net.cpp:129] Top shape: 1 150 512 (76800)
I1018 00:02:02.585781 29678 net.cpp:129] Top shape: 1 150 512 (76800)
I1018 00:02:02.585785 29678 net.cpp:137] Memory required for data: 56256000
I1018 00:02:02.585789 29678 layer_factory.hpp:77] Creating layer h_3_lstm1_unit_3_1_split
I1018 00:02:02.585796 29678 net.cpp:84] Creating Layer h_3_lstm1_unit_3_1_split
I1018 00:02:02.585800 29678 net.cpp:406] h_3_lstm1_unit_3_1_split <- h_3
I1018 00:02:02.585813 29678 net.cpp:380] h_3_lstm1_unit_3_1_split -> h_3_lstm1_unit_3_1_split_0
I1018 00:02:02.585820 29678 net.cpp:380] h_3_lstm1_unit_3_1_split -> h_3_lstm1_unit_3_1_split_1
I1018 00:02:02.585855 29678 net.cpp:122] Setting up h_3_lstm1_unit_3_1_split
I1018 00:02:02.585861 29678 net.cpp:129] Top shape: 1 150 512 (76800)
I1018 00:02:02.585866 29678 net.cpp:129] Top shape: 1 150 512 (76800)
I1018 00:02:02.585870 29678 net.cpp:137] Memory required for data: 56870400
I1018 00:02:02.585875 29678 layer_factory.hpp:77] Creating layer lstm1_h_conted_3
I1018 00:02:02.585885 29678 net.cpp:84] Creating Layer lstm1_h_conted_3
I1018 00:02:02.585889 29678 net.cpp:406] lstm1_h_conted_3 <- h_3_lstm1_unit_3_1_split_0
I1018 00:02:02.585896 29678 net.cpp:406] lstm1_h_conted_3 <- cont_4_lstm1_cont_slice_3_split_0
I1018 00:02:02.585901 29678 net.cpp:380] lstm1_h_conted_3 -> h_conted_3
I1018 00:02:02.585968 29678 net.cpp:122] Setting up lstm1_h_conted_3
I1018 00:02:02.585978 29678 net.cpp:129] Top shape: 1 150 512 (76800)
I1018 00:02:02.585981 29678 net.cpp:137] Memory required for data: 57177600
I1018 00:02:02.585985 29678 layer_factory.hpp:77] Creating layer lstm1_transform_4
I1018 00:02:02.585996 29678 net.cpp:84] Creating Layer lstm1_transform_4
I1018 00:02:02.586001 29678 net.cpp:406] lstm1_transform_4 <- h_conted_3
I1018 00:02:02.586009 29678 net.cpp:380] lstm1_transform_4 -> W_hc_h_3
I1018 00:02:02.597981 29678 net.cpp:122] Setting up lstm1_transform_4
I1018 00:02:02.598011 29678 net.cpp:129] Top shape: 1 150 2048 (307200)
I1018 00:02:02.598018 29678 net.cpp:137] Memory required for data: 58406400
I1018 00:02:02.598028 29678 net.cpp:465] Sharing parameters 'W_hc' owned by layer 'lstm1_transform_1', param index 0
I1018 00:02:02.598039 29678 layer_factory.hpp:77] Creating layer lstm1_gate_input_4
I1018 00:02:02.598057 29678 net.cpp:84] Creating Layer lstm1_gate_input_4
I1018 00:02:02.598067 29678 net.cpp:406] lstm1_gate_input_4 <- W_hc_h_3
I1018 00:02:02.598076 29678 net.cpp:406] lstm1_gate_input_4 <- W_xc_x_4
I1018 00:02:02.598089 29678 net.cpp:380] lstm1_gate_input_4 -> gate_input_4
I1018 00:02:02.598137 29678 net.cpp:122] Setting up lstm1_gate_input_4
I1018 00:02:02.598148 29678 net.cpp:129] Top shape: 1 150 2048 (307200)
I1018 00:02:02.598155 29678 net.cpp:137] Memory required for data: 59635200
I1018 00:02:02.598160 29678 layer_factory.hpp:77] Creating layer lstm1_unit_4
I1018 00:02:02.598170 29678 net.cpp:84] Creating Layer lstm1_unit_4
I1018 00:02:02.598178 29678 net.cpp:406] lstm1_unit_4 <- c_3
I1018 00:02:02.598187 29678 net.cpp:406] lstm1_unit_4 <- gate_input_4
I1018 00:02:02.598196 29678 net.cpp:406] lstm1_unit_4 <- cont_4_lstm1_cont_slice_3_split_1
I1018 00:02:02.598208 29678 net.cpp:380] lstm1_unit_4 -> c_4
I1018 00:02:02.598220 29678 net.cpp:380] lstm1_unit_4 -> h_4
I1018 00:02:02.598281 29678 net.cpp:122] Setting up lstm1_unit_4
I1018 00:02:02.598289 29678 net.cpp:129] Top shape: 1 150 512 (76800)
I1018 00:02:02.598294 29678 net.cpp:129] Top shape: 1 150 512 (76800)
I1018 00:02:02.598299 29678 net.cpp:137] Memory required for data: 60249600
I1018 00:02:02.598302 29678 layer_factory.hpp:77] Creating layer h_4_lstm1_unit_4_1_split
I1018 00:02:02.598310 29678 net.cpp:84] Creating Layer h_4_lstm1_unit_4_1_split
I1018 00:02:02.598315 29678 net.cpp:406] h_4_lstm1_unit_4_1_split <- h_4
I1018 00:02:02.598322 29678 net.cpp:380] h_4_lstm1_unit_4_1_split -> h_4_lstm1_unit_4_1_split_0
I1018 00:02:02.598335 29678 net.cpp:380] h_4_lstm1_unit_4_1_split -> h_4_lstm1_unit_4_1_split_1
I1018 00:02:02.598376 29678 net.cpp:122] Setting up h_4_lstm1_unit_4_1_split
I1018 00:02:02.598383 29678 net.cpp:129] Top shape: 1 150 512 (76800)
I1018 00:02:02.598388 29678 net.cpp:129] Top shape: 1 150 512 (76800)
I1018 00:02:02.598392 29678 net.cpp:137] Memory required for data: 60864000
I1018 00:02:02.598397 29678 layer_factory.hpp:77] Creating layer lstm1_h_conted_4
I1018 00:02:02.598407 29678 net.cpp:84] Creating Layer lstm1_h_conted_4
I1018 00:02:02.598410 29678 net.cpp:406] lstm1_h_conted_4 <- h_4_lstm1_unit_4_1_split_0
I1018 00:02:02.598417 29678 net.cpp:406] lstm1_h_conted_4 <- cont_5_lstm1_cont_slice_4_split_0
I1018 00:02:02.598424 29678 net.cpp:380] lstm1_h_conted_4 -> h_conted_4
I1018 00:02:02.598491 29678 net.cpp:122] Setting up lstm1_h_conted_4
I1018 00:02:02.598501 29678 net.cpp:129] Top shape: 1 150 512 (76800)
I1018 00:02:02.598505 29678 net.cpp:137] Memory required for data: 61171200
I1018 00:02:02.598510 29678 layer_factory.hpp:77] Creating layer lstm1_transform_5
I1018 00:02:02.598521 29678 net.cpp:84] Creating Layer lstm1_transform_5
I1018 00:02:02.598526 29678 net.cpp:406] lstm1_transform_5 <- h_conted_4
I1018 00:02:02.598536 29678 net.cpp:380] lstm1_transform_5 -> W_hc_h_4
I1018 00:02:02.618638 29678 net.cpp:122] Setting up lstm1_transform_5
I1018 00:02:02.618666 29678 net.cpp:129] Top shape: 1 150 2048 (307200)
I1018 00:02:02.618671 29678 net.cpp:137] Memory required for data: 62400000
I1018 00:02:02.618679 29678 net.cpp:465] Sharing parameters 'W_hc' owned by layer 'lstm1_transform_1', param index 0
I1018 00:02:02.618685 29678 layer_factory.hpp:77] Creating layer lstm1_gate_input_5
I1018 00:02:02.618692 29678 net.cpp:84] Creating Layer lstm1_gate_input_5
I1018 00:02:02.618697 29678 net.cpp:406] lstm1_gate_input_5 <- W_hc_h_4
I1018 00:02:02.618706 29678 net.cpp:406] lstm1_gate_input_5 <- W_xc_x_5
I1018 00:02:02.618713 29678 net.cpp:380] lstm1_gate_input_5 -> gate_input_5
I1018 00:02:02.618744 29678 net.cpp:122] Setting up lstm1_gate_input_5
I1018 00:02:02.618752 29678 net.cpp:129] Top shape: 1 150 2048 (307200)
I1018 00:02:02.618755 29678 net.cpp:137] Memory required for data: 63628800
I1018 00:02:02.618759 29678 layer_factory.hpp:77] Creating layer lstm1_unit_5
I1018 00:02:02.618767 29678 net.cpp:84] Creating Layer lstm1_unit_5
I1018 00:02:02.618770 29678 net.cpp:406] lstm1_unit_5 <- c_4
I1018 00:02:02.618777 29678 net.cpp:406] lstm1_unit_5 <- gate_input_5
I1018 00:02:02.618782 29678 net.cpp:406] lstm1_unit_5 <- cont_5_lstm1_cont_slice_4_split_1
I1018 00:02:02.618790 29678 net.cpp:380] lstm1_unit_5 -> c_5
I1018 00:02:02.618798 29678 net.cpp:380] lstm1_unit_5 -> h_5
I1018 00:02:02.618849 29678 net.cpp:122] Setting up lstm1_unit_5
I1018 00:02:02.618854 29678 net.cpp:129] Top shape: 1 150 512 (76800)
I1018 00:02:02.618860 29678 net.cpp:129] Top shape: 1 150 512 (76800)
I1018 00:02:02.618863 29678 net.cpp:137] Memory required for data: 64243200
I1018 00:02:02.618868 29678 layer_factory.hpp:77] Creating layer h_5_lstm1_unit_5_1_split
I1018 00:02:02.618880 29678 net.cpp:84] Creating Layer h_5_lstm1_unit_5_1_split
I1018 00:02:02.618885 29678 net.cpp:406] h_5_lstm1_unit_5_1_split <- h_5
I1018 00:02:02.618891 29678 net.cpp:380] h_5_lstm1_unit_5_1_split -> h_5_lstm1_unit_5_1_split_0
I1018 00:02:02.618897 29678 net.cpp:380] h_5_lstm1_unit_5_1_split -> h_5_lstm1_unit_5_1_split_1
I1018 00:02:02.618932 29678 net.cpp:122] Setting up h_5_lstm1_unit_5_1_split
I1018 00:02:02.618938 29678 net.cpp:129] Top shape: 1 150 512 (76800)
I1018 00:02:02.618943 29678 net.cpp:129] Top shape: 1 150 512 (76800)
I1018 00:02:02.618947 29678 net.cpp:137] Memory required for data: 64857600
I1018 00:02:02.618952 29678 layer_factory.hpp:77] Creating layer lstm1_h_conted_5
I1018 00:02:02.618959 29678 net.cpp:84] Creating Layer lstm1_h_conted_5
I1018 00:02:02.618964 29678 net.cpp:406] lstm1_h_conted_5 <- h_5_lstm1_unit_5_1_split_0
I1018 00:02:02.618971 29678 net.cpp:406] lstm1_h_conted_5 <- cont_6_lstm1_cont_slice_5_split_0
I1018 00:02:02.618979 29678 net.cpp:380] lstm1_h_conted_5 -> h_conted_5
I1018 00:02:02.619038 29678 net.cpp:122] Setting up lstm1_h_conted_5
I1018 00:02:02.619045 29678 net.cpp:129] Top shape: 1 150 512 (76800)
I1018 00:02:02.619050 29678 net.cpp:137] Memory required for data: 65164800
I1018 00:02:02.619053 29678 layer_factory.hpp:77] Creating layer lstm1_transform_6
I1018 00:02:02.619060 29678 net.cpp:84] Creating Layer lstm1_transform_6
I1018 00:02:02.619065 29678 net.cpp:406] lstm1_transform_6 <- h_conted_5
I1018 00:02:02.619077 29678 net.cpp:380] lstm1_transform_6 -> W_hc_h_5
I1018 00:02:02.631093 29678 net.cpp:122] Setting up lstm1_transform_6
I1018 00:02:02.631120 29678 net.cpp:129] Top shape: 1 150 2048 (307200)
I1018 00:02:02.631125 29678 net.cpp:137] Memory required for data: 66393600
I1018 00:02:02.631134 29678 net.cpp:465] Sharing parameters 'W_hc' owned by layer 'lstm1_transform_1', param index 0
I1018 00:02:02.631139 29678 layer_factory.hpp:77] Creating layer lstm1_gate_input_6
I1018 00:02:02.631151 29678 net.cpp:84] Creating Layer lstm1_gate_input_6
I1018 00:02:02.631157 29678 net.cpp:406] lstm1_gate_input_6 <- W_hc_h_5
I1018 00:02:02.631166 29678 net.cpp:406] lstm1_gate_input_6 <- W_xc_x_6
I1018 00:02:02.631177 29678 net.cpp:380] lstm1_gate_input_6 -> gate_input_6
I1018 00:02:02.631217 29678 net.cpp:122] Setting up lstm1_gate_input_6
I1018 00:02:02.631223 29678 net.cpp:129] Top shape: 1 150 2048 (307200)
I1018 00:02:02.631227 29678 net.cpp:137] Memory required for data: 67622400
I1018 00:02:02.631232 29678 layer_factory.hpp:77] Creating layer lstm1_unit_6
I1018 00:02:02.631239 29678 net.cpp:84] Creating Layer lstm1_unit_6
I1018 00:02:02.631244 29678 net.cpp:406] lstm1_unit_6 <- c_5
I1018 00:02:02.631250 29678 net.cpp:406] lstm1_unit_6 <- gate_input_6
I1018 00:02:02.631256 29678 net.cpp:406] lstm1_unit_6 <- cont_6_lstm1_cont_slice_5_split_1
I1018 00:02:02.631263 29678 net.cpp:380] lstm1_unit_6 -> c_6
I1018 00:02:02.631270 29678 net.cpp:380] lstm1_unit_6 -> h_6
I1018 00:02:02.631320 29678 net.cpp:122] Setting up lstm1_unit_6
I1018 00:02:02.631327 29678 net.cpp:129] Top shape: 1 150 512 (76800)
I1018 00:02:02.631332 29678 net.cpp:129] Top shape: 1 150 512 (76800)
I1018 00:02:02.631336 29678 net.cpp:137] Memory required for data: 68236800
I1018 00:02:02.631342 29678 layer_factory.hpp:77] Creating layer h_6_lstm1_unit_6_1_split
I1018 00:02:02.631350 29678 net.cpp:84] Creating Layer h_6_lstm1_unit_6_1_split
I1018 00:02:02.631355 29678 net.cpp:406] h_6_lstm1_unit_6_1_split <- h_6
I1018 00:02:02.631361 29678 net.cpp:380] h_6_lstm1_unit_6_1_split -> h_6_lstm1_unit_6_1_split_0
I1018 00:02:02.631367 29678 net.cpp:380] h_6_lstm1_unit_6_1_split -> h_6_lstm1_unit_6_1_split_1
I1018 00:02:02.631403 29678 net.cpp:122] Setting up h_6_lstm1_unit_6_1_split
I1018 00:02:02.631409 29678 net.cpp:129] Top shape: 1 150 512 (76800)
I1018 00:02:02.631414 29678 net.cpp:129] Top shape: 1 150 512 (76800)
I1018 00:02:02.631418 29678 net.cpp:137] Memory required for data: 68851200
I1018 00:02:02.631422 29678 layer_factory.hpp:77] Creating layer lstm1_h_conted_6
I1018 00:02:02.631433 29678 net.cpp:84] Creating Layer lstm1_h_conted_6
I1018 00:02:02.631436 29678 net.cpp:406] lstm1_h_conted_6 <- h_6_lstm1_unit_6_1_split_0
I1018 00:02:02.631443 29678 net.cpp:406] lstm1_h_conted_6 <- cont_7_lstm1_cont_slice_6_split_0
I1018 00:02:02.631449 29678 net.cpp:380] lstm1_h_conted_6 -> h_conted_6
I1018 00:02:02.631518 29678 net.cpp:122] Setting up lstm1_h_conted_6
I1018 00:02:02.631533 29678 net.cpp:129] Top shape: 1 150 512 (76800)
I1018 00:02:02.631537 29678 net.cpp:137] Memory required for data: 69158400
I1018 00:02:02.631541 29678 layer_factory.hpp:77] Creating layer lstm1_transform_7
I1018 00:02:02.631551 29678 net.cpp:84] Creating Layer lstm1_transform_7
I1018 00:02:02.631556 29678 net.cpp:406] lstm1_transform_7 <- h_conted_6
I1018 00:02:02.631564 29678 net.cpp:380] lstm1_transform_7 -> W_hc_h_6
I1018 00:02:02.643453 29678 net.cpp:122] Setting up lstm1_transform_7
I1018 00:02:02.643472 29678 net.cpp:129] Top shape: 1 150 2048 (307200)
I1018 00:02:02.643478 29678 net.cpp:137] Memory required for data: 70387200
I1018 00:02:02.643487 29678 net.cpp:465] Sharing parameters 'W_hc' owned by layer 'lstm1_transform_1', param index 0
I1018 00:02:02.643492 29678 layer_factory.hpp:77] Creating layer lstm1_gate_input_7
I1018 00:02:02.643501 29678 net.cpp:84] Creating Layer lstm1_gate_input_7
I1018 00:02:02.643506 29678 net.cpp:406] lstm1_gate_input_7 <- W_hc_h_6
I1018 00:02:02.643512 29678 net.cpp:406] lstm1_gate_input_7 <- W_xc_x_7
I1018 00:02:02.643518 29678 net.cpp:380] lstm1_gate_input_7 -> gate_input_7
I1018 00:02:02.643553 29678 net.cpp:122] Setting up lstm1_gate_input_7
I1018 00:02:02.643559 29678 net.cpp:129] Top shape: 1 150 2048 (307200)
I1018 00:02:02.643563 29678 net.cpp:137] Memory required for data: 71616000
I1018 00:02:02.643568 29678 layer_factory.hpp:77] Creating layer lstm1_unit_7
I1018 00:02:02.643577 29678 net.cpp:84] Creating Layer lstm1_unit_7
I1018 00:02:02.643582 29678 net.cpp:406] lstm1_unit_7 <- c_6
I1018 00:02:02.643589 29678 net.cpp:406] lstm1_unit_7 <- gate_input_7
I1018 00:02:02.643594 29678 net.cpp:406] lstm1_unit_7 <- cont_7_lstm1_cont_slice_6_split_1
I1018 00:02:02.643599 29678 net.cpp:380] lstm1_unit_7 -> c_7
I1018 00:02:02.643606 29678 net.cpp:380] lstm1_unit_7 -> h_7
I1018 00:02:02.643656 29678 net.cpp:122] Setting up lstm1_unit_7
I1018 00:02:02.643662 29678 net.cpp:129] Top shape: 1 150 512 (76800)
I1018 00:02:02.643667 29678 net.cpp:129] Top shape: 1 150 512 (76800)
I1018 00:02:02.643671 29678 net.cpp:137] Memory required for data: 72230400
I1018 00:02:02.643676 29678 layer_factory.hpp:77] Creating layer h_7_lstm1_unit_7_1_split
I1018 00:02:02.643682 29678 net.cpp:84] Creating Layer h_7_lstm1_unit_7_1_split
I1018 00:02:02.643687 29678 net.cpp:406] h_7_lstm1_unit_7_1_split <- h_7
I1018 00:02:02.643692 29678 net.cpp:380] h_7_lstm1_unit_7_1_split -> h_7_lstm1_unit_7_1_split_0
I1018 00:02:02.643699 29678 net.cpp:380] h_7_lstm1_unit_7_1_split -> h_7_lstm1_unit_7_1_split_1
I1018 00:02:02.643734 29678 net.cpp:122] Setting up h_7_lstm1_unit_7_1_split
I1018 00:02:02.643741 29678 net.cpp:129] Top shape: 1 150 512 (76800)
I1018 00:02:02.643748 29678 net.cpp:129] Top shape: 1 150 512 (76800)
I1018 00:02:02.643752 29678 net.cpp:137] Memory required for data: 72844800
I1018 00:02:02.643756 29678 layer_factory.hpp:77] Creating layer lstm1_h_conted_7
I1018 00:02:02.643764 29678 net.cpp:84] Creating Layer lstm1_h_conted_7
I1018 00:02:02.643769 29678 net.cpp:406] lstm1_h_conted_7 <- h_7_lstm1_unit_7_1_split_0
I1018 00:02:02.643774 29678 net.cpp:406] lstm1_h_conted_7 <- cont_8_lstm1_cont_slice_7_split_0
I1018 00:02:02.643780 29678 net.cpp:380] lstm1_h_conted_7 -> h_conted_7
I1018 00:02:02.643847 29678 net.cpp:122] Setting up lstm1_h_conted_7
I1018 00:02:02.643857 29678 net.cpp:129] Top shape: 1 150 512 (76800)
I1018 00:02:02.643862 29678 net.cpp:137] Memory required for data: 73152000
I1018 00:02:02.643865 29678 layer_factory.hpp:77] Creating layer lstm1_transform_8
I1018 00:02:02.643873 29678 net.cpp:84] Creating Layer lstm1_transform_8
I1018 00:02:02.643878 29678 net.cpp:406] lstm1_transform_8 <- h_conted_7
I1018 00:02:02.643885 29678 net.cpp:380] lstm1_transform_8 -> W_hc_h_7
I1018 00:02:02.655781 29678 net.cpp:122] Setting up lstm1_transform_8
I1018 00:02:02.655798 29678 net.cpp:129] Top shape: 1 150 2048 (307200)
I1018 00:02:02.655803 29678 net.cpp:137] Memory required for data: 74380800
I1018 00:02:02.655808 29678 net.cpp:465] Sharing parameters 'W_hc' owned by layer 'lstm1_transform_1', param index 0
I1018 00:02:02.655813 29678 layer_factory.hpp:77] Creating layer lstm1_gate_input_8
I1018 00:02:02.655822 29678 net.cpp:84] Creating Layer lstm1_gate_input_8
I1018 00:02:02.655827 29678 net.cpp:406] lstm1_gate_input_8 <- W_hc_h_7
I1018 00:02:02.655833 29678 net.cpp:406] lstm1_gate_input_8 <- W_xc_x_8
I1018 00:02:02.655840 29678 net.cpp:380] lstm1_gate_input_8 -> gate_input_8
I1018 00:02:02.655871 29678 net.cpp:122] Setting up lstm1_gate_input_8
I1018 00:02:02.655879 29678 net.cpp:129] Top shape: 1 150 2048 (307200)
I1018 00:02:02.655882 29678 net.cpp:137] Memory required for data: 75609600
I1018 00:02:02.655886 29678 layer_factory.hpp:77] Creating layer lstm1_unit_8
I1018 00:02:02.655894 29678 net.cpp:84] Creating Layer lstm1_unit_8
I1018 00:02:02.655900 29678 net.cpp:406] lstm1_unit_8 <- c_7
I1018 00:02:02.655910 29678 net.cpp:406] lstm1_unit_8 <- gate_input_8
I1018 00:02:02.655917 29678 net.cpp:406] lstm1_unit_8 <- cont_8_lstm1_cont_slice_7_split_1
I1018 00:02:02.655925 29678 net.cpp:380] lstm1_unit_8 -> c_8
I1018 00:02:02.655936 29678 net.cpp:380] lstm1_unit_8 -> h_8
I1018 00:02:02.656013 29678 net.cpp:122] Setting up lstm1_unit_8
I1018 00:02:02.656050 29678 net.cpp:129] Top shape: 1 150 512 (76800)
I1018 00:02:02.656061 29678 net.cpp:129] Top shape: 1 150 512 (76800)
I1018 00:02:02.656067 29678 net.cpp:137] Memory required for data: 76224000
I1018 00:02:02.656075 29678 layer_factory.hpp:77] Creating layer h_8_lstm1_unit_8_1_split
I1018 00:02:02.656087 29678 net.cpp:84] Creating Layer h_8_lstm1_unit_8_1_split
I1018 00:02:02.656093 29678 net.cpp:406] h_8_lstm1_unit_8_1_split <- h_8
I1018 00:02:02.656100 29678 net.cpp:380] h_8_lstm1_unit_8_1_split -> h_8_lstm1_unit_8_1_split_0
I1018 00:02:02.656110 29678 net.cpp:380] h_8_lstm1_unit_8_1_split -> h_8_lstm1_unit_8_1_split_1
I1018 00:02:02.656150 29678 net.cpp:122] Setting up h_8_lstm1_unit_8_1_split
I1018 00:02:02.656157 29678 net.cpp:129] Top shape: 1 150 512 (76800)
I1018 00:02:02.656162 29678 net.cpp:129] Top shape: 1 150 512 (76800)
I1018 00:02:02.656167 29678 net.cpp:137] Memory required for data: 76838400
I1018 00:02:02.656172 29678 layer_factory.hpp:77] Creating layer lstm1_h_conted_8
I1018 00:02:02.656180 29678 net.cpp:84] Creating Layer lstm1_h_conted_8
I1018 00:02:02.656185 29678 net.cpp:406] lstm1_h_conted_8 <- h_8_lstm1_unit_8_1_split_0
I1018 00:02:02.656191 29678 net.cpp:406] lstm1_h_conted_8 <- cont_9_lstm1_cont_slice_8_split_0
I1018 00:02:02.656198 29678 net.cpp:380] lstm1_h_conted_8 -> h_conted_8
I1018 00:02:02.656258 29678 net.cpp:122] Setting up lstm1_h_conted_8
I1018 00:02:02.656276 29678 net.cpp:129] Top shape: 1 150 512 (76800)
I1018 00:02:02.656280 29678 net.cpp:137] Memory required for data: 77145600
I1018 00:02:02.656286 29678 layer_factory.hpp:77] Creating layer lstm1_transform_9
I1018 00:02:02.656296 29678 net.cpp:84] Creating Layer lstm1_transform_9
I1018 00:02:02.656301 29678 net.cpp:406] lstm1_transform_9 <- h_conted_8
I1018 00:02:02.656308 29678 net.cpp:380] lstm1_transform_9 -> W_hc_h_8
I1018 00:02:02.668264 29678 net.cpp:122] Setting up lstm1_transform_9
I1018 00:02:02.668282 29678 net.cpp:129] Top shape: 1 150 2048 (307200)
I1018 00:02:02.668287 29678 net.cpp:137] Memory required for data: 78374400
I1018 00:02:02.668293 29678 net.cpp:465] Sharing parameters 'W_hc' owned by layer 'lstm1_transform_1', param index 0
I1018 00:02:02.668298 29678 layer_factory.hpp:77] Creating layer lstm1_gate_input_9
I1018 00:02:02.668306 29678 net.cpp:84] Creating Layer lstm1_gate_input_9
I1018 00:02:02.668311 29678 net.cpp:406] lstm1_gate_input_9 <- W_hc_h_8
I1018 00:02:02.668318 29678 net.cpp:406] lstm1_gate_input_9 <- W_xc_x_9
I1018 00:02:02.668324 29678 net.cpp:380] lstm1_gate_input_9 -> gate_input_9
I1018 00:02:02.668354 29678 net.cpp:122] Setting up lstm1_gate_input_9
I1018 00:02:02.668361 29678 net.cpp:129] Top shape: 1 150 2048 (307200)
I1018 00:02:02.668365 29678 net.cpp:137] Memory required for data: 79603200
I1018 00:02:02.668370 29678 layer_factory.hpp:77] Creating layer lstm1_unit_9
I1018 00:02:02.668386 29678 net.cpp:84] Creating Layer lstm1_unit_9
I1018 00:02:02.668392 29678 net.cpp:406] lstm1_unit_9 <- c_8
I1018 00:02:02.668401 29678 net.cpp:406] lstm1_unit_9 <- gate_input_9
I1018 00:02:02.668409 29678 net.cpp:406] lstm1_unit_9 <- cont_9_lstm1_cont_slice_8_split_1
I1018 00:02:02.668419 29678 net.cpp:380] lstm1_unit_9 -> c_9
I1018 00:02:02.668454 29678 net.cpp:380] lstm1_unit_9 -> h_9
I1018 00:02:02.668534 29678 net.cpp:122] Setting up lstm1_unit_9
I1018 00:02:02.668553 29678 net.cpp:129] Top shape: 1 150 512 (76800)
I1018 00:02:02.668558 29678 net.cpp:129] Top shape: 1 150 512 (76800)
I1018 00:02:02.668562 29678 net.cpp:137] Memory required for data: 80217600
I1018 00:02:02.668568 29678 layer_factory.hpp:77] Creating layer h_9_lstm1_unit_9_1_split
I1018 00:02:02.668576 29678 net.cpp:84] Creating Layer h_9_lstm1_unit_9_1_split
I1018 00:02:02.668579 29678 net.cpp:406] h_9_lstm1_unit_9_1_split <- h_9
I1018 00:02:02.668588 29678 net.cpp:380] h_9_lstm1_unit_9_1_split -> h_9_lstm1_unit_9_1_split_0
I1018 00:02:02.668597 29678 net.cpp:380] h_9_lstm1_unit_9_1_split -> h_9_lstm1_unit_9_1_split_1
I1018 00:02:02.668634 29678 net.cpp:122] Setting up h_9_lstm1_unit_9_1_split
I1018 00:02:02.668642 29678 net.cpp:129] Top shape: 1 150 512 (76800)
I1018 00:02:02.668647 29678 net.cpp:129] Top shape: 1 150 512 (76800)
I1018 00:02:02.668650 29678 net.cpp:137] Memory required for data: 80832000
I1018 00:02:02.668654 29678 layer_factory.hpp:77] Creating layer lstm1_h_conted_9
I1018 00:02:02.668663 29678 net.cpp:84] Creating Layer lstm1_h_conted_9
I1018 00:02:02.668668 29678 net.cpp:406] lstm1_h_conted_9 <- h_9_lstm1_unit_9_1_split_0
I1018 00:02:02.668673 29678 net.cpp:406] lstm1_h_conted_9 <- cont_10_lstm1_cont_slice_9_split_0
I1018 00:02:02.668679 29678 net.cpp:380] lstm1_h_conted_9 -> h_conted_9
I1018 00:02:02.668750 29678 net.cpp:122] Setting up lstm1_h_conted_9
I1018 00:02:02.668756 29678 net.cpp:129] Top shape: 1 150 512 (76800)
I1018 00:02:02.668761 29678 net.cpp:137] Memory required for data: 81139200
I1018 00:02:02.668766 29678 layer_factory.hpp:77] Creating layer lstm1_transform_10
I1018 00:02:02.668773 29678 net.cpp:84] Creating Layer lstm1_transform_10
I1018 00:02:02.668778 29678 net.cpp:406] lstm1_transform_10 <- h_conted_9
I1018 00:02:02.668786 29678 net.cpp:380] lstm1_transform_10 -> W_hc_h_9
I1018 00:02:02.680573 29678 net.cpp:122] Setting up lstm1_transform_10
I1018 00:02:02.680590 29678 net.cpp:129] Top shape: 1 150 2048 (307200)
I1018 00:02:02.680595 29678 net.cpp:137] Memory required for data: 82368000
I1018 00:02:02.680601 29678 net.cpp:465] Sharing parameters 'W_hc' owned by layer 'lstm1_transform_1', param index 0
I1018 00:02:02.680606 29678 layer_factory.hpp:77] Creating layer lstm1_gate_input_10
I1018 00:02:02.680614 29678 net.cpp:84] Creating Layer lstm1_gate_input_10
I1018 00:02:02.680619 29678 net.cpp:406] lstm1_gate_input_10 <- W_hc_h_9
I1018 00:02:02.680626 29678 net.cpp:406] lstm1_gate_input_10 <- W_xc_x_10
I1018 00:02:02.680634 29678 net.cpp:380] lstm1_gate_input_10 -> gate_input_10
I1018 00:02:02.680666 29678 net.cpp:122] Setting up lstm1_gate_input_10
I1018 00:02:02.680673 29678 net.cpp:129] Top shape: 1 150 2048 (307200)
I1018 00:02:02.680677 29678 net.cpp:137] Memory required for data: 83596800
I1018 00:02:02.680681 29678 layer_factory.hpp:77] Creating layer lstm1_unit_10
I1018 00:02:02.680687 29678 net.cpp:84] Creating Layer lstm1_unit_10
I1018 00:02:02.680692 29678 net.cpp:406] lstm1_unit_10 <- c_9
I1018 00:02:02.680698 29678 net.cpp:406] lstm1_unit_10 <- gate_input_10
I1018 00:02:02.680704 29678 net.cpp:406] lstm1_unit_10 <- cont_10_lstm1_cont_slice_9_split_1
I1018 00:02:02.680711 29678 net.cpp:380] lstm1_unit_10 -> c_10
I1018 00:02:02.680717 29678 net.cpp:380] lstm1_unit_10 -> h_10
I1018 00:02:02.680764 29678 net.cpp:122] Setting up lstm1_unit_10
I1018 00:02:02.680771 29678 net.cpp:129] Top shape: 1 150 512 (76800)
I1018 00:02:02.680776 29678 net.cpp:129] Top shape: 1 150 512 (76800)
I1018 00:02:02.680780 29678 net.cpp:137] Memory required for data: 84211200
I1018 00:02:02.680784 29678 layer_factory.hpp:77] Creating layer h_10_lstm1_unit_10_1_split
I1018 00:02:02.680791 29678 net.cpp:84] Creating Layer h_10_lstm1_unit_10_1_split
I1018 00:02:02.680796 29678 net.cpp:406] h_10_lstm1_unit_10_1_split <- h_10
I1018 00:02:02.680804 29678 net.cpp:380] h_10_lstm1_unit_10_1_split -> h_10_lstm1_unit_10_1_split_0
I1018 00:02:02.680811 29678 net.cpp:380] h_10_lstm1_unit_10_1_split -> h_10_lstm1_unit_10_1_split_1
I1018 00:02:02.680846 29678 net.cpp:122] Setting up h_10_lstm1_unit_10_1_split
I1018 00:02:02.680853 29678 net.cpp:129] Top shape: 1 150 512 (76800)
I1018 00:02:02.680858 29678 net.cpp:129] Top shape: 1 150 512 (76800)
I1018 00:02:02.680861 29678 net.cpp:137] Memory required for data: 84825600
I1018 00:02:02.680866 29678 layer_factory.hpp:77] Creating layer lstm1_h_conted_10
I1018 00:02:02.680872 29678 net.cpp:84] Creating Layer lstm1_h_conted_10
I1018 00:02:02.680879 29678 net.cpp:406] lstm1_h_conted_10 <- h_10_lstm1_unit_10_1_split_0
I1018 00:02:02.680886 29678 net.cpp:406] lstm1_h_conted_10 <- cont_11_lstm1_cont_slice_10_split_0
I1018 00:02:02.680892 29678 net.cpp:380] lstm1_h_conted_10 -> h_conted_10
I1018 00:02:02.680954 29678 net.cpp:122] Setting up lstm1_h_conted_10
I1018 00:02:02.680961 29678 net.cpp:129] Top shape: 1 150 512 (76800)
I1018 00:02:02.680965 29678 net.cpp:137] Memory required for data: 85132800
I1018 00:02:02.680969 29678 layer_factory.hpp:77] Creating layer lstm1_transform_11
I1018 00:02:02.680980 29678 net.cpp:84] Creating Layer lstm1_transform_11
I1018 00:02:02.680984 29678 net.cpp:406] lstm1_transform_11 <- h_conted_10
I1018 00:02:02.680991 29678 net.cpp:380] lstm1_transform_11 -> W_hc_h_10
I1018 00:02:02.692848 29678 net.cpp:122] Setting up lstm1_transform_11
I1018 00:02:02.692867 29678 net.cpp:129] Top shape: 1 150 2048 (307200)
I1018 00:02:02.692872 29678 net.cpp:137] Memory required for data: 86361600
I1018 00:02:02.692878 29678 net.cpp:465] Sharing parameters 'W_hc' owned by layer 'lstm1_transform_1', param index 0
I1018 00:02:02.692883 29678 layer_factory.hpp:77] Creating layer lstm1_gate_input_11
I1018 00:02:02.692893 29678 net.cpp:84] Creating Layer lstm1_gate_input_11
I1018 00:02:02.692898 29678 net.cpp:406] lstm1_gate_input_11 <- W_hc_h_10
I1018 00:02:02.692904 29678 net.cpp:406] lstm1_gate_input_11 <- W_xc_x_11
I1018 00:02:02.692911 29678 net.cpp:380] lstm1_gate_input_11 -> gate_input_11
I1018 00:02:02.692942 29678 net.cpp:122] Setting up lstm1_gate_input_11
I1018 00:02:02.692950 29678 net.cpp:129] Top shape: 1 150 2048 (307200)
I1018 00:02:02.692953 29678 net.cpp:137] Memory required for data: 87590400
I1018 00:02:02.692957 29678 layer_factory.hpp:77] Creating layer lstm1_unit_11
I1018 00:02:02.692968 29678 net.cpp:84] Creating Layer lstm1_unit_11
I1018 00:02:02.692973 29678 net.cpp:406] lstm1_unit_11 <- c_10
I1018 00:02:02.692979 29678 net.cpp:406] lstm1_unit_11 <- gate_input_11
I1018 00:02:02.692986 29678 net.cpp:406] lstm1_unit_11 <- cont_11_lstm1_cont_slice_10_split_1
I1018 00:02:02.692991 29678 net.cpp:380] lstm1_unit_11 -> c_11
I1018 00:02:02.692999 29678 net.cpp:380] lstm1_unit_11 -> h_11
I1018 00:02:02.693048 29678 net.cpp:122] Setting up lstm1_unit_11
I1018 00:02:02.693055 29678 net.cpp:129] Top shape: 1 150 512 (76800)
I1018 00:02:02.693060 29678 net.cpp:129] Top shape: 1 150 512 (76800)
I1018 00:02:02.693064 29678 net.cpp:137] Memory required for data: 88204800
I1018 00:02:02.693068 29678 layer_factory.hpp:77] Creating layer h_11_lstm1_unit_11_1_split
I1018 00:02:02.693074 29678 net.cpp:84] Creating Layer h_11_lstm1_unit_11_1_split
I1018 00:02:02.693078 29678 net.cpp:406] h_11_lstm1_unit_11_1_split <- h_11
I1018 00:02:02.693086 29678 net.cpp:380] h_11_lstm1_unit_11_1_split -> h_11_lstm1_unit_11_1_split_0
I1018 00:02:02.693094 29678 net.cpp:380] h_11_lstm1_unit_11_1_split -> h_11_lstm1_unit_11_1_split_1
I1018 00:02:02.693127 29678 net.cpp:122] Setting up h_11_lstm1_unit_11_1_split
I1018 00:02:02.693133 29678 net.cpp:129] Top shape: 1 150 512 (76800)
I1018 00:02:02.693138 29678 net.cpp:129] Top shape: 1 150 512 (76800)
I1018 00:02:02.693142 29678 net.cpp:137] Memory required for data: 88819200
I1018 00:02:02.693146 29678 layer_factory.hpp:77] Creating layer lstm1_h_conted_11
I1018 00:02:02.693156 29678 net.cpp:84] Creating Layer lstm1_h_conted_11
I1018 00:02:02.693161 29678 net.cpp:406] lstm1_h_conted_11 <- h_11_lstm1_unit_11_1_split_0
I1018 00:02:02.693166 29678 net.cpp:406] lstm1_h_conted_11 <- cont_12_lstm1_cont_slice_11_split_0
I1018 00:02:02.693174 29678 net.cpp:380] lstm1_h_conted_11 -> h_conted_11
I1018 00:02:02.693234 29678 net.cpp:122] Setting up lstm1_h_conted_11
I1018 00:02:02.693241 29678 net.cpp:129] Top shape: 1 150 512 (76800)
I1018 00:02:02.693245 29678 net.cpp:137] Memory required for data: 89126400
I1018 00:02:02.693249 29678 layer_factory.hpp:77] Creating layer lstm1_transform_12
I1018 00:02:02.693264 29678 net.cpp:84] Creating Layer lstm1_transform_12
I1018 00:02:02.693269 29678 net.cpp:406] lstm1_transform_12 <- h_conted_11
I1018 00:02:02.693277 29678 net.cpp:380] lstm1_transform_12 -> W_hc_h_11
I1018 00:02:02.705040 29678 net.cpp:122] Setting up lstm1_transform_12
I1018 00:02:02.705057 29678 net.cpp:129] Top shape: 1 150 2048 (307200)
I1018 00:02:02.705062 29678 net.cpp:137] Memory required for data: 90355200
I1018 00:02:02.705067 29678 net.cpp:465] Sharing parameters 'W_hc' owned by layer 'lstm1_transform_1', param index 0
I1018 00:02:02.705075 29678 layer_factory.hpp:77] Creating layer lstm1_gate_input_12
I1018 00:02:02.705083 29678 net.cpp:84] Creating Layer lstm1_gate_input_12
I1018 00:02:02.705088 29678 net.cpp:406] lstm1_gate_input_12 <- W_hc_h_11
I1018 00:02:02.705096 29678 net.cpp:406] lstm1_gate_input_12 <- W_xc_x_12
I1018 00:02:02.705102 29678 net.cpp:380] lstm1_gate_input_12 -> gate_input_12
I1018 00:02:02.705132 29678 net.cpp:122] Setting up lstm1_gate_input_12
I1018 00:02:02.705139 29678 net.cpp:129] Top shape: 1 150 2048 (307200)
I1018 00:02:02.705142 29678 net.cpp:137] Memory required for data: 91584000
I1018 00:02:02.705147 29678 layer_factory.hpp:77] Creating layer lstm1_unit_12
I1018 00:02:02.705155 29678 net.cpp:84] Creating Layer lstm1_unit_12
I1018 00:02:02.705160 29678 net.cpp:406] lstm1_unit_12 <- c_11
I1018 00:02:02.705168 29678 net.cpp:406] lstm1_unit_12 <- gate_input_12
I1018 00:02:02.705173 29678 net.cpp:406] lstm1_unit_12 <- cont_12_lstm1_cont_slice_11_split_1
I1018 00:02:02.705178 29678 net.cpp:380] lstm1_unit_12 -> c_12
I1018 00:02:02.705186 29678 net.cpp:380] lstm1_unit_12 -> h_12
I1018 00:02:02.705234 29678 net.cpp:122] Setting up lstm1_unit_12
I1018 00:02:02.705240 29678 net.cpp:129] Top shape: 1 150 512 (76800)
I1018 00:02:02.705245 29678 net.cpp:129] Top shape: 1 150 512 (76800)
I1018 00:02:02.705250 29678 net.cpp:137] Memory required for data: 92198400
I1018 00:02:02.705255 29678 layer_factory.hpp:77] Creating layer h_12_lstm1_unit_12_1_split
I1018 00:02:02.705260 29678 net.cpp:84] Creating Layer h_12_lstm1_unit_12_1_split
I1018 00:02:02.705265 29678 net.cpp:406] h_12_lstm1_unit_12_1_split <- h_12
I1018 00:02:02.705271 29678 net.cpp:380] h_12_lstm1_unit_12_1_split -> h_12_lstm1_unit_12_1_split_0
I1018 00:02:02.705279 29678 net.cpp:380] h_12_lstm1_unit_12_1_split -> h_12_lstm1_unit_12_1_split_1
I1018 00:02:02.705312 29678 net.cpp:122] Setting up h_12_lstm1_unit_12_1_split
I1018 00:02:02.705318 29678 net.cpp:129] Top shape: 1 150 512 (76800)
I1018 00:02:02.705323 29678 net.cpp:129] Top shape: 1 150 512 (76800)
I1018 00:02:02.705327 29678 net.cpp:137] Memory required for data: 92812800
I1018 00:02:02.705332 29678 layer_factory.hpp:77] Creating layer lstm1_h_conted_12
I1018 00:02:02.705340 29678 net.cpp:84] Creating Layer lstm1_h_conted_12
I1018 00:02:02.705344 29678 net.cpp:406] lstm1_h_conted_12 <- h_12_lstm1_unit_12_1_split_0
I1018 00:02:02.705350 29678 net.cpp:406] lstm1_h_conted_12 <- cont_13_lstm1_cont_slice_12_split_0
I1018 00:02:02.705358 29678 net.cpp:380] lstm1_h_conted_12 -> h_conted_12
I1018 00:02:02.705426 29678 net.cpp:122] Setting up lstm1_h_conted_12
I1018 00:02:02.705435 29678 net.cpp:129] Top shape: 1 150 512 (76800)
I1018 00:02:02.705438 29678 net.cpp:137] Memory required for data: 93120000
I1018 00:02:02.705442 29678 layer_factory.hpp:77] Creating layer lstm1_transform_13
I1018 00:02:02.705452 29678 net.cpp:84] Creating Layer lstm1_transform_13
I1018 00:02:02.705456 29678 net.cpp:406] lstm1_transform_13 <- h_conted_12
I1018 00:02:02.705463 29678 net.cpp:380] lstm1_transform_13 -> W_hc_h_12
I1018 00:02:02.717219 29678 net.cpp:122] Setting up lstm1_transform_13
I1018 00:02:02.717236 29678 net.cpp:129] Top shape: 1 150 2048 (307200)
I1018 00:02:02.717241 29678 net.cpp:137] Memory required for data: 94348800
I1018 00:02:02.717247 29678 net.cpp:465] Sharing parameters 'W_hc' owned by layer 'lstm1_transform_1', param index 0
I1018 00:02:02.717250 29678 layer_factory.hpp:77] Creating layer lstm1_gate_input_13
I1018 00:02:02.717260 29678 net.cpp:84] Creating Layer lstm1_gate_input_13
I1018 00:02:02.717265 29678 net.cpp:406] lstm1_gate_input_13 <- W_hc_h_12
I1018 00:02:02.717272 29678 net.cpp:406] lstm1_gate_input_13 <- W_xc_x_13
I1018 00:02:02.717278 29678 net.cpp:380] lstm1_gate_input_13 -> gate_input_13
I1018 00:02:02.717308 29678 net.cpp:122] Setting up lstm1_gate_input_13
I1018 00:02:02.717314 29678 net.cpp:129] Top shape: 1 150 2048 (307200)
I1018 00:02:02.717319 29678 net.cpp:137] Memory required for data: 95577600
I1018 00:02:02.717324 29678 layer_factory.hpp:77] Creating layer lstm1_unit_13
I1018 00:02:02.717331 29678 net.cpp:84] Creating Layer lstm1_unit_13
I1018 00:02:02.717335 29678 net.cpp:406] lstm1_unit_13 <- c_12
I1018 00:02:02.717341 29678 net.cpp:406] lstm1_unit_13 <- gate_input_13
I1018 00:02:02.717347 29678 net.cpp:406] lstm1_unit_13 <- cont_13_lstm1_cont_slice_12_split_1
I1018 00:02:02.717355 29678 net.cpp:380] lstm1_unit_13 -> c_13
I1018 00:02:02.717362 29678 net.cpp:380] lstm1_unit_13 -> h_13
I1018 00:02:02.717411 29678 net.cpp:122] Setting up lstm1_unit_13
I1018 00:02:02.717417 29678 net.cpp:129] Top shape: 1 150 512 (76800)
I1018 00:02:02.717422 29678 net.cpp:129] Top shape: 1 150 512 (76800)
I1018 00:02:02.717427 29678 net.cpp:137] Memory required for data: 96192000
I1018 00:02:02.717430 29678 layer_factory.hpp:77] Creating layer h_13_lstm1_unit_13_1_split
I1018 00:02:02.717437 29678 net.cpp:84] Creating Layer h_13_lstm1_unit_13_1_split
I1018 00:02:02.717442 29678 net.cpp:406] h_13_lstm1_unit_13_1_split <- h_13
I1018 00:02:02.717447 29678 net.cpp:380] h_13_lstm1_unit_13_1_split -> h_13_lstm1_unit_13_1_split_0
I1018 00:02:02.717454 29678 net.cpp:380] h_13_lstm1_unit_13_1_split -> h_13_lstm1_unit_13_1_split_1
I1018 00:02:02.717489 29678 net.cpp:122] Setting up h_13_lstm1_unit_13_1_split
I1018 00:02:02.717495 29678 net.cpp:129] Top shape: 1 150 512 (76800)
I1018 00:02:02.717500 29678 net.cpp:129] Top shape: 1 150 512 (76800)
I1018 00:02:02.717504 29678 net.cpp:137] Memory required for data: 96806400
I1018 00:02:02.717509 29678 layer_factory.hpp:77] Creating layer lstm1_h_conted_13
I1018 00:02:02.717514 29678 net.cpp:84] Creating Layer lstm1_h_conted_13
I1018 00:02:02.717519 29678 net.cpp:406] lstm1_h_conted_13 <- h_13_lstm1_unit_13_1_split_0
I1018 00:02:02.717525 29678 net.cpp:406] lstm1_h_conted_13 <- cont_14_lstm1_cont_slice_13_split_0
I1018 00:02:02.717533 29678 net.cpp:380] lstm1_h_conted_13 -> h_conted_13
I1018 00:02:02.717593 29678 net.cpp:122] Setting up lstm1_h_conted_13
I1018 00:02:02.717600 29678 net.cpp:129] Top shape: 1 150 512 (76800)
I1018 00:02:02.717604 29678 net.cpp:137] Memory required for data: 97113600
I1018 00:02:02.717608 29678 layer_factory.hpp:77] Creating layer lstm1_transform_14
I1018 00:02:02.717617 29678 net.cpp:84] Creating Layer lstm1_transform_14
I1018 00:02:02.717620 29678 net.cpp:406] lstm1_transform_14 <- h_conted_13
I1018 00:02:02.717628 29678 net.cpp:380] lstm1_transform_14 -> W_hc_h_13
I1018 00:02:02.729354 29678 net.cpp:122] Setting up lstm1_transform_14
I1018 00:02:02.729372 29678 net.cpp:129] Top shape: 1 150 2048 (307200)
I1018 00:02:02.729377 29678 net.cpp:137] Memory required for data: 98342400
I1018 00:02:02.729382 29678 net.cpp:465] Sharing parameters 'W_hc' owned by layer 'lstm1_transform_1', param index 0
I1018 00:02:02.729387 29678 layer_factory.hpp:77] Creating layer lstm1_gate_input_14
I1018 00:02:02.729394 29678 net.cpp:84] Creating Layer lstm1_gate_input_14
I1018 00:02:02.729399 29678 net.cpp:406] lstm1_gate_input_14 <- W_hc_h_13
I1018 00:02:02.729405 29678 net.cpp:406] lstm1_gate_input_14 <- W_xc_x_14
I1018 00:02:02.729414 29678 net.cpp:380] lstm1_gate_input_14 -> gate_input_14
I1018 00:02:02.729444 29678 net.cpp:122] Setting up lstm1_gate_input_14
I1018 00:02:02.729450 29678 net.cpp:129] Top shape: 1 150 2048 (307200)
I1018 00:02:02.729454 29678 net.cpp:137] Memory required for data: 99571200
I1018 00:02:02.729459 29678 layer_factory.hpp:77] Creating layer lstm1_unit_14
I1018 00:02:02.729465 29678 net.cpp:84] Creating Layer lstm1_unit_14
I1018 00:02:02.729470 29678 net.cpp:406] lstm1_unit_14 <- c_13
I1018 00:02:02.729475 29678 net.cpp:406] lstm1_unit_14 <- gate_input_14
I1018 00:02:02.729481 29678 net.cpp:406] lstm1_unit_14 <- cont_14_lstm1_cont_slice_13_split_1
I1018 00:02:02.729487 29678 net.cpp:380] lstm1_unit_14 -> c_14
I1018 00:02:02.729496 29678 net.cpp:380] lstm1_unit_14 -> h_14
I1018 00:02:02.729564 29678 net.cpp:122] Setting up lstm1_unit_14
I1018 00:02:02.729573 29678 net.cpp:129] Top shape: 1 150 512 (76800)
I1018 00:02:02.729578 29678 net.cpp:129] Top shape: 1 150 512 (76800)
I1018 00:02:02.729581 29678 net.cpp:137] Memory required for data: 100185600
I1018 00:02:02.729585 29678 layer_factory.hpp:77] Creating layer h_14_lstm1_unit_14_1_split
I1018 00:02:02.729591 29678 net.cpp:84] Creating Layer h_14_lstm1_unit_14_1_split
I1018 00:02:02.729596 29678 net.cpp:406] h_14_lstm1_unit_14_1_split <- h_14
I1018 00:02:02.729604 29678 net.cpp:380] h_14_lstm1_unit_14_1_split -> h_14_lstm1_unit_14_1_split_0
I1018 00:02:02.729610 29678 net.cpp:380] h_14_lstm1_unit_14_1_split -> h_14_lstm1_unit_14_1_split_1
I1018 00:02:02.729645 29678 net.cpp:122] Setting up h_14_lstm1_unit_14_1_split
I1018 00:02:02.729651 29678 net.cpp:129] Top shape: 1 150 512 (76800)
I1018 00:02:02.729656 29678 net.cpp:129] Top shape: 1 150 512 (76800)
I1018 00:02:02.729660 29678 net.cpp:137] Memory required for data: 100800000
I1018 00:02:02.729665 29678 layer_factory.hpp:77] Creating layer lstm1_h_conted_14
I1018 00:02:02.729672 29678 net.cpp:84] Creating Layer lstm1_h_conted_14
I1018 00:02:02.729677 29678 net.cpp:406] lstm1_h_conted_14 <- h_14_lstm1_unit_14_1_split_0
I1018 00:02:02.729683 29678 net.cpp:406] lstm1_h_conted_14 <- cont_15_lstm1_cont_slice_14_split_0
I1018 00:02:02.729691 29678 net.cpp:380] lstm1_h_conted_14 -> h_conted_14
I1018 00:02:02.729755 29678 net.cpp:122] Setting up lstm1_h_conted_14
I1018 00:02:02.729763 29678 net.cpp:129] Top shape: 1 150 512 (76800)
I1018 00:02:02.729766 29678 net.cpp:137] Memory required for data: 101107200
I1018 00:02:02.729770 29678 layer_factory.hpp:77] Creating layer lstm1_transform_15
I1018 00:02:02.729779 29678 net.cpp:84] Creating Layer lstm1_transform_15
I1018 00:02:02.729784 29678 net.cpp:406] lstm1_transform_15 <- h_conted_14
I1018 00:02:02.729791 29678 net.cpp:380] lstm1_transform_15 -> W_hc_h_14
I1018 00:02:02.741693 29678 net.cpp:122] Setting up lstm1_transform_15
I1018 00:02:02.741710 29678 net.cpp:129] Top shape: 1 150 2048 (307200)
I1018 00:02:02.741715 29678 net.cpp:137] Memory required for data: 102336000
I1018 00:02:02.741725 29678 net.cpp:465] Sharing parameters 'W_hc' owned by layer 'lstm1_transform_1', param index 0
I1018 00:02:02.741731 29678 layer_factory.hpp:77] Creating layer lstm1_gate_input_15
I1018 00:02:02.741739 29678 net.cpp:84] Creating Layer lstm1_gate_input_15
I1018 00:02:02.741744 29678 net.cpp:406] lstm1_gate_input_15 <- W_hc_h_14
I1018 00:02:02.741750 29678 net.cpp:406] lstm1_gate_input_15 <- W_xc_x_15
I1018 00:02:02.741760 29678 net.cpp:380] lstm1_gate_input_15 -> gate_input_15
I1018 00:02:02.741796 29678 net.cpp:122] Setting up lstm1_gate_input_15
I1018 00:02:02.741803 29678 net.cpp:129] Top shape: 1 150 2048 (307200)
I1018 00:02:02.741807 29678 net.cpp:137] Memory required for data: 103564800
I1018 00:02:02.741811 29678 layer_factory.hpp:77] Creating layer lstm1_unit_15
I1018 00:02:02.741818 29678 net.cpp:84] Creating Layer lstm1_unit_15
I1018 00:02:02.741822 29678 net.cpp:406] lstm1_unit_15 <- c_14
I1018 00:02:02.741828 29678 net.cpp:406] lstm1_unit_15 <- gate_input_15
I1018 00:02:02.741833 29678 net.cpp:406] lstm1_unit_15 <- cont_15_lstm1_cont_slice_14_split_1
I1018 00:02:02.741840 29678 net.cpp:380] lstm1_unit_15 -> c_15
I1018 00:02:02.741847 29678 net.cpp:380] lstm1_unit_15 -> h_15
I1018 00:02:02.741896 29678 net.cpp:122] Setting up lstm1_unit_15
I1018 00:02:02.741904 29678 net.cpp:129] Top shape: 1 150 512 (76800)
I1018 00:02:02.741909 29678 net.cpp:129] Top shape: 1 150 512 (76800)
I1018 00:02:02.741911 29678 net.cpp:137] Memory required for data: 104179200
I1018 00:02:02.741915 29678 layer_factory.hpp:77] Creating layer h_15_lstm1_unit_15_1_split
I1018 00:02:02.741921 29678 net.cpp:84] Creating Layer h_15_lstm1_unit_15_1_split
I1018 00:02:02.741926 29678 net.cpp:406] h_15_lstm1_unit_15_1_split <- h_15
I1018 00:02:02.741931 29678 net.cpp:380] h_15_lstm1_unit_15_1_split -> h_15_lstm1_unit_15_1_split_0
I1018 00:02:02.741938 29678 net.cpp:380] h_15_lstm1_unit_15_1_split -> h_15_lstm1_unit_15_1_split_1
I1018 00:02:02.741974 29678 net.cpp:122] Setting up h_15_lstm1_unit_15_1_split
I1018 00:02:02.741981 29678 net.cpp:129] Top shape: 1 150 512 (76800)
I1018 00:02:02.741986 29678 net.cpp:129] Top shape: 1 150 512 (76800)
I1018 00:02:02.741989 29678 net.cpp:137] Memory required for data: 104793600
I1018 00:02:02.741993 29678 layer_factory.hpp:77] Creating layer lstm1_h_conted_15
I1018 00:02:02.742000 29678 net.cpp:84] Creating Layer lstm1_h_conted_15
I1018 00:02:02.742005 29678 net.cpp:406] lstm1_h_conted_15 <- h_15_lstm1_unit_15_1_split_0
I1018 00:02:02.742012 29678 net.cpp:406] lstm1_h_conted_15 <- cont_16_lstm1_cont_slice_15_split_0
I1018 00:02:02.742019 29678 net.cpp:380] lstm1_h_conted_15 -> h_conted_15
I1018 00:02:02.742080 29678 net.cpp:122] Setting up lstm1_h_conted_15
I1018 00:02:02.742087 29678 net.cpp:129] Top shape: 1 150 512 (76800)
I1018 00:02:02.742091 29678 net.cpp:137] Memory required for data: 105100800
I1018 00:02:02.742095 29678 layer_factory.hpp:77] Creating layer lstm1_transform_16
I1018 00:02:02.742105 29678 net.cpp:84] Creating Layer lstm1_transform_16
I1018 00:02:02.742110 29678 net.cpp:406] lstm1_transform_16 <- h_conted_15
I1018 00:02:02.742117 29678 net.cpp:380] lstm1_transform_16 -> W_hc_h_15
I1018 00:02:02.753952 29678 net.cpp:122] Setting up lstm1_transform_16
I1018 00:02:02.753970 29678 net.cpp:129] Top shape: 1 150 2048 (307200)
I1018 00:02:02.753975 29678 net.cpp:137] Memory required for data: 106329600
I1018 00:02:02.753980 29678 net.cpp:465] Sharing parameters 'W_hc' owned by layer 'lstm1_transform_1', param index 0
I1018 00:02:02.753985 29678 layer_factory.hpp:77] Creating layer lstm1_gate_input_16
I1018 00:02:02.754001 29678 net.cpp:84] Creating Layer lstm1_gate_input_16
I1018 00:02:02.754006 29678 net.cpp:406] lstm1_gate_input_16 <- W_hc_h_15
I1018 00:02:02.754012 29678 net.cpp:406] lstm1_gate_input_16 <- W_xc_x_16
I1018 00:02:02.754019 29678 net.cpp:380] lstm1_gate_input_16 -> gate_input_16
I1018 00:02:02.754055 29678 net.cpp:122] Setting up lstm1_gate_input_16
I1018 00:02:02.754061 29678 net.cpp:129] Top shape: 1 150 2048 (307200)
I1018 00:02:02.754065 29678 net.cpp:137] Memory required for data: 107558400
I1018 00:02:02.754070 29678 layer_factory.hpp:77] Creating layer lstm1_unit_16
I1018 00:02:02.754081 29678 net.cpp:84] Creating Layer lstm1_unit_16
I1018 00:02:02.754086 29678 net.cpp:406] lstm1_unit_16 <- c_15
I1018 00:02:02.754091 29678 net.cpp:406] lstm1_unit_16 <- gate_input_16
I1018 00:02:02.754097 29678 net.cpp:406] lstm1_unit_16 <- cont_16_lstm1_cont_slice_15_split_1
I1018 00:02:02.754103 29678 net.cpp:380] lstm1_unit_16 -> c_16
I1018 00:02:02.754112 29678 net.cpp:380] lstm1_unit_16 -> h_16
I1018 00:02:02.754160 29678 net.cpp:122] Setting up lstm1_unit_16
I1018 00:02:02.754169 29678 net.cpp:129] Top shape: 1 150 512 (76800)
I1018 00:02:02.754175 29678 net.cpp:129] Top shape: 1 150 512 (76800)
I1018 00:02:02.754179 29678 net.cpp:137] Memory required for data: 108172800
I1018 00:02:02.754184 29678 layer_factory.hpp:77] Creating layer lstm1_
I1018 00:02:02.754189 29678 net.cpp:84] Creating Layer lstm1_
I1018 00:02:02.754194 29678 net.cpp:406] lstm1_ <- c_16
I1018 00:02:02.754200 29678 net.cpp:380] lstm1_ -> c_T
I1018 00:02:02.754222 29678 net.cpp:122] Setting up lstm1_
I1018 00:02:02.754228 29678 net.cpp:129] Top shape: 1 150 512 (76800)
I1018 00:02:02.754232 29678 net.cpp:137] Memory required for data: 108480000
I1018 00:02:02.754236 29678 layer_factory.hpp:77] Creating layer lstm1_h_concat
I1018 00:02:02.754247 29678 net.cpp:84] Creating Layer lstm1_h_concat
I1018 00:02:02.754252 29678 net.cpp:406] lstm1_h_concat <- h_1_lstm1_unit_1_1_split_1
I1018 00:02:02.754258 29678 net.cpp:406] lstm1_h_concat <- h_2_lstm1_unit_2_1_split_1
…
I1018 00:02:02.758093 29678 net.cpp:200] lstm1_ does not need backward computation.
I1018 00:02:02.758097 29678 net.cpp:242] This network produces output c_T
I1018 00:02:02.758102 29678 net.cpp:242] This network produces output h_pseudoloss
I1018 00:02:02.771216 29678 net.cpp:255] Network initialization done.
I1018 00:02:02.771452 29678 recurrent_layer.cpp:150] Adding parameter 0: W_xc
I1018 00:02:02.771462 29678 recurrent_layer.cpp:150] Adding parameter 1: b_c
I1018 00:02:02.771467 29678 recurrent_layer.cpp:150] Adding parameter 2: W_hc
I1018 00:02:02.773109 29678 net.cpp:122] Setting up lstm1
I1018 00:02:02.773131 29678 net.cpp:129] Top shape: 16 150 512 (1228800)
I1018 00:02:02.773136 29678 net.cpp:137] Memory required for data: 17320590600
I1018 00:02:02.773154 29678 layer_factory.hpp:77] Creating layer lstm1-drop
I1018 00:02:02.773164 29678 net.cpp:84] Creating Layer lstm1-drop
I1018 00:02:02.773176 29678 net.cpp:406] lstm1-drop <- lstm1
I1018 00:02:02.773185 29678 net.cpp:380] lstm1-drop -> lstm1-drop
I1018 00:02:02.773231 29678 net.cpp:122] Setting up lstm1-drop
I1018 00:02:02.773239 29678 net.cpp:129] Top shape: 16 150 512 (1228800)
I1018 00:02:02.773243 29678 net.cpp:137] Memory required for data: 17325505800
I1018 00:02:02.773250 29678 layer_factory.hpp:77] Creating layer fc-final
I1018 00:02:02.773262 29678 net.cpp:84] Creating Layer fc-final
I1018 00:02:02.773267 29678 net.cpp:406] fc-final <- lstm1-drop
I1018 00:02:02.773278 29678 net.cpp:380] fc-final -> fc-final
I1018 00:02:02.773604 29678 net.cpp:122] Setting up fc-final
I1018 00:02:02.773617 29678 net.cpp:129] Top shape: 16 150 10 (24000)
I1018 00:02:02.773620 29678 net.cpp:137] Memory required for data: 17325601800
I1018 00:02:02.773627 29678 layer_factory.hpp:77] Creating layer fc-final_fc-final_0_split
I1018 00:02:02.773634 29678 net.cpp:84] Creating Layer fc-final_fc-final_0_split
I1018 00:02:02.773638 29678 net.cpp:406] fc-final_fc-final_0_split <- fc-final
I1018 00:02:02.773645 29678 net.cpp:380] fc-final_fc-final_0_split -> fc-final_fc-final_0_split_0
I1018 00:02:02.773653 29678 net.cpp:380] fc-final_fc-final_0_split -> fc-final_fc-final_0_split_1
I1018 00:02:02.773690 29678 net.cpp:122] Setting up fc-final_fc-final_0_split
I1018 00:02:02.773697 29678 net.cpp:129] Top shape: 16 150 10 (24000)
I1018 00:02:02.773702 29678 net.cpp:129] Top shape: 16 150 10 (24000)
I1018 00:02:02.773706 29678 net.cpp:137] Memory required for data: 17325793800
I1018 00:02:02.773710 29678 layer_factory.hpp:77] Creating layer loss
I1018 00:02:02.773718 29678 net.cpp:84] Creating Layer loss
I1018 00:02:02.773723 29678 net.cpp:406] loss <- fc-final_fc-final_0_split_0
I1018 00:02:02.773732 29678 net.cpp:406] loss <- reshape-label_label_tran_0_split_0
I1018 00:02:02.773739 29678 net.cpp:380] loss -> loss
…
