…
I1018 00:07:51.928622 30031 net.cpp:294] The NetState phase (0) differed from the phase (1) specified by a rule in layer Silence
I1018 00:07:51.928819 30031 net.cpp:51] Initializing net from parameters: 
name: "VGG-Places365"
state {
  phase: TRAIN
  level: 0
  stage: ""
}
layer {
  name: "data"
  type: "ImageData"
  top: "data"
  top: "label"
  include {
    phase: TRAIN
  }
  transform_param {
    mirror: true
    crop_size: 224
    mean_value: 104
    mean_value: 117
    mean_value: 123
  }
  image_data_param {
    source: "../Data/lsun_train_list_12w.txt"
    batch_size: 2
    shuffle: true
    new_height: 256
    new_width: 256
  }
}
layer {
  name: "label_tran"
  type: "Python"
  bottom: "label"
  top: "reshape-label"
  top: "clip_markers"
  python_param {
    module: "data_preparation_sort_max_clip"
    layer: "ReshapeLabel"
  }
}
layer {
  name: "conv1_1"
  type: "Convolution"
  bottom: "data"
  top: "conv1_1"
  convolution_param {
    num_output: 64
    pad: 1
    kernel_size: 3
  }
}
layer {
  name: "relu1_1"
  type: "ReLU"
  bottom: "conv1_1"
  top: "conv1_1"
}
layer {
  name: "conv1_2"
  type: "Convolution"
  bottom: "conv1_1"
  top: "conv1_2"
  convolution_param {
    num_output: 64
    pad: 1
    kernel_size: 3
  }
}
layer {
  name: "relu1_2"
  type: "ReLU"
  bottom: "conv1_2"
  top: "conv1_2"
}
layer {
  name: "pool1"
  type: "Pooling"
  bottom: "conv1_2"
  top: "pool1"
  pooling_param {
    pool: MAX
    kernel_size: 2
    stride: 2
  }
}
layer {
  name: "conv2_1"
  type: "Convolution"
  bottom: "pool1"
  top: "conv2_1"
  convolution_param {
    num_output: 128
    pad: 1
    kernel_size: 3
  }
}
layer {
  name: "relu2_1"
  type: "ReLU"
  bottom: "conv2_1"
  top: "conv2_1"
}
layer {
  name: "conv2_2"
  type: "Convolution"
  bottom: "conv2_1"
  top: "conv2_2"
  convolution_param {
    num_output: 128
    pad: 1
    kernel_size: 3
  }
}
layer {
  name: "relu2_2"
  type: "ReLU"
  bottom: "conv2_2"
  top: "conv2_2"
}
layer {
  name: "pool2"
  type: "Pooling"
  bottom: "conv2_2"
  top: "pool2"
  pooling_param {
    pool: MAX
    kernel_size: 2
    stride: 2
  }
}
layer {
  name: "conv3_1"
  type: "Convolution"
  bottom: "pool2"
  top: "conv3_1"
  convolution_param {
    num_output: 256
    pad: 1
    kernel_size: 3
  }
}
layer {
  name: "relu3_1"
  type: "ReLU"
  bottom: "conv3_1"
  top: "conv3_1"
}
layer {
  name: "conv3_2"
  type: "Convolution"
  bottom: "conv3_1"
  top: "conv3_2"
  convolution_param {
    num_output: 256
    pad: 1
    kernel_size: 3
  }
}
layer {
  name: "relu3_2"
  type: "ReLU"
  bottom: "conv3_2"
  top: "conv3_2"
}
layer {
  name: "conv3_3"
  type: "Convolution"
  bottom: "conv3_2"
  top: "conv3_3"
  convolution_param {
    num_output: 256
    pad: 1
    kernel_size: 3
  }
}
layer {
  name: "relu3_3"
  type: "ReLU"
  bottom: "conv3_3"
  top: "conv3_3"
}
layer {
  name: "pool3"
  type: "Pooling"
  bottom: "conv3_3"
  top: "pool3"
  pooling_param {
    pool: MAX
    kernel_size: 2
    stride: 2
  }
}
layer {
  name: "conv4_1"
  type: "Convolution"
  bottom: "pool3"
  top: "conv4_1"
  convolution_param {
    num_output: 512
    pad: 1
    kernel_size: 3
  }
}
layer {
  name: "relu4_1"
  type: "ReLU"
  bottom: "conv4_1"
  top: "conv4_1"
}
layer {
  name: "conv4_2"
  type: "Convolution"
  bottom: "conv4_1"
  top: "conv4_2"
  convolution_param {
    num_output: 512
    pad: 1
    kernel_size: 3
  }
}
layer {
  name: "relu4_2"
  type: "ReLU"
  bottom: "conv4_2"
  top: "conv4_2"
}
layer {
  name: "conv4_3"
  type: "Convolution"
  bottom: "conv4_2"
  top: "conv4_3"
  convolution_param {
    num_output: 512
    pad: 1
    kernel_size: 3
  }
}
layer {
  name: "relu4_3"
  type: "ReLU"
  bottom: "conv4_3"
  top: "conv4_3"
}
layer {
  name: "pool4"
  type: "Pooling"
  bottom: "conv4_3"
  top: "pool4"
  pooling_param {
    pool: MAX
    kernel_size: 2
    stride: 2
  }
}
layer {
  name: "conv5_1"
  type: "Convolution"
  bottom: "pool4"
  top: "conv5_1"
  convolution_param {
    num_output: 512
    pad: 1
    kernel_size: 3
  }
}
layer {
  name: "relu5_1"
  type: "ReLU"
  bottom: "conv5_1"
  top: "conv5_1"
}
layer {
  name: "conv5_2"
  type: "Convolution"
  bottom: "conv5_1"
  top: "conv5_2"
  convolution_param {
    num_output: 512
    pad: 1
    kernel_size: 3
  }
}
layer {
  name: "relu5_2"
  type: "ReLU"
  bottom: "conv5_2"
  top: "conv5_2"
}
layer {
  name: "conv5_3"
  type: "Convolution"
  bottom: "conv5_2"
  top: "conv5_3"
  convolution_param {
    num_output: 512
    pad: 1
    kernel_size: 3
  }
}
layer {
  name: "relu5_3"
  type: "ReLU"
  bottom: "conv5_3"
  top: "conv5_3"
}
layer {
  name: "conv5_3_re"
  type: "Reshape"
  bottom: "conv5_3"
  top: "conv5_3_re"
  reshape_param {
    shape {
      dim: 0
      dim: 0
      dim: -1
    }
  }
}
layer {
  name: "conv5_3_tran"
  type: "Python"
  bottom: "conv5_3_re"
  top: "conv5_3_tran"
  python_param {
    module: "data_preparation_sort_max_clip"
    layer: "DataTransposeSortMaxClip"
  }
}
layer {
  name: "lstm1"
  type: "LSTM"
  bottom: "conv5_3_tran"
  bottom: "clip_markers"
  top: "lstm1"
  recurrent_param {
    num_output: 512
    weight_filler {
      type: "uniform"
      min: -0.01
      max: 0.01
    }
    bias_filler {
      type: "constant"
      value: 0
    }
  }
}
layer {
  name: "lstm1-drop"
  type: "Dropout"
  bottom: "lstm1"
  top: "lstm1-drop"
  dropout_param {
    dropout_ratio: 0.5
  }
}
layer {
  name: "fc-final"
  type: "InnerProduct"
  bottom: "lstm1-drop"
  top: "fc-final"
  param {
    lr_mult: 1
    decay_mult: 1
  }
  param {
    lr_mult: 2
    decay_mult: 0
  }
  inner_product_param {
    num_output: 10
    weight_filler {
      type: "gaussian"
      std: 0.01
    }
    bias_filler {
      type: "constant"
      value: 0
    }
    axis: 2
  }
}
layer {
  name: "loss"
  type: "SoftmaxWithLoss"
  bottom: "fc-final"
  bottom: "reshape-label"
  top: "loss"
  softmax_param {
    axis: 2
  }
}
layer {
  name: "accuracy"
  type: "Accuracy"
  bottom: "fc-final"
  bottom: "reshape-label"
  top: "accuracy"
  accuracy_param {
    axis: 2
  }
}
I1018 00:07:51.929038 30031 layer_factory.hpp:77] Creating layer data
I1018 00:07:51.929090 30031 net.cpp:84] Creating Layer data
I1018 00:07:51.929105 30031 net.cpp:380] data -> data
I1018 00:07:51.929150 30031 net.cpp:380] data -> label
I1018 00:07:51.929184 30031 image_data_layer.cpp:38] Opening file ../Data/lsun_train_list_12w.txt
I1018 00:07:52.591426 30031 image_data_layer.cpp:53] Shuffling data
I1018 00:07:53.049356 30031 image_data_layer.cpp:63] A total of 1200000 images.
I1018 00:07:53.056721 30031 image_data_layer.cpp:90] output data size: 2,3,224,224
I1018 00:07:53.065165 30031 net.cpp:122] Setting up data
I1018 00:07:53.065214 30031 net.cpp:129] Top shape: 2 3 224 224 (301056)
I1018 00:07:53.065227 30031 net.cpp:129] Top shape: 2 (2)
I1018 00:07:53.065241 30031 net.cpp:137] Memory required for data: 1204232
I1018 00:07:53.065264 30031 layer_factory.hpp:77] Creating layer label_tran
I1018 00:07:53.744469 30031 net.cpp:84] Creating Layer label_tran
I1018 00:07:53.744503 30031 net.cpp:406] label_tran <- label
I1018 00:07:53.744529 30031 net.cpp:380] label_tran -> reshape-label
I1018 00:07:53.744544 30031 net.cpp:380] label_tran -> clip_markers
I1018 00:07:53.744897 30031 net.cpp:122] Setting up label_tran
I1018 00:07:53.744922 30031 net.cpp:129] Top shape: 196 2 (392)
I1018 00:07:53.744928 30031 net.cpp:129] Top shape: 196 2 (392)
I1018 00:07:53.744932 30031 net.cpp:137] Memory required for data: 1207368
I1018 00:07:53.744940 30031 layer_factory.hpp:77] Creating layer reshape-label_label_tran_0_split
I1018 00:07:53.744966 30031 net.cpp:84] Creating Layer reshape-label_label_tran_0_split
I1018 00:07:53.744971 30031 net.cpp:406] reshape-label_label_tran_0_split <- reshape-label
I1018 00:07:53.744978 30031 net.cpp:380] reshape-label_label_tran_0_split -> reshape-label_label_tran_0_split_0
I1018 00:07:53.744987 30031 net.cpp:380] reshape-label_label_tran_0_split -> reshape-label_label_tran_0_split_1
I1018 00:07:53.745025 30031 net.cpp:122] Setting up reshape-label_label_tran_0_split
I1018 00:07:53.745033 30031 net.cpp:129] Top shape: 196 2 (392)
I1018 00:07:53.745038 30031 net.cpp:129] Top shape: 196 2 (392)
I1018 00:07:53.745043 30031 net.cpp:137] Memory required for data: 1210504
I1018 00:07:53.745046 30031 layer_factory.hpp:77] Creating layer conv1_1
I1018 00:07:53.745074 30031 net.cpp:84] Creating Layer conv1_1
I1018 00:07:53.745079 30031 net.cpp:406] conv1_1 <- data
I1018 00:07:53.745086 30031 net.cpp:380] conv1_1 -> conv1_1
I1018 00:07:53.747197 30031 net.cpp:122] Setting up conv1_1
I1018 00:07:53.747221 30031 net.cpp:129] Top shape: 2 64 224 224 (6422528)
I1018 00:07:53.747226 30031 net.cpp:137] Memory required for data: 26900616
I1018 00:07:53.747251 30031 layer_factory.hpp:77] Creating layer relu1_1
I1018 00:07:53.747273 30031 net.cpp:84] Creating Layer relu1_1
I1018 00:07:53.747280 30031 net.cpp:406] relu1_1 <- conv1_1
I1018 00:07:53.747287 30031 net.cpp:367] relu1_1 -> conv1_1 (in-place)
I1018 00:07:53.747303 30031 net.cpp:122] Setting up relu1_1
I1018 00:07:53.747309 30031 net.cpp:129] Top shape: 2 64 224 224 (6422528)
I1018 00:07:53.747313 30031 net.cpp:137] Memory required for data: 52590728
I1018 00:07:53.747323 30031 layer_factory.hpp:77] Creating layer conv1_2
I1018 00:07:53.747334 30031 net.cpp:84] Creating Layer conv1_2
I1018 00:07:53.747339 30031 net.cpp:406] conv1_2 <- conv1_1
I1018 00:07:53.747344 30031 net.cpp:380] conv1_2 -> conv1_2
I1018 00:07:53.747617 30031 net.cpp:122] Setting up conv1_2
I1018 00:07:53.747629 30031 net.cpp:129] Top shape: 2 64 224 224 (6422528)
I1018 00:07:53.747634 30031 net.cpp:137] Memory required for data: 78280840
I1018 00:07:53.747643 30031 layer_factory.hpp:77] Creating layer relu1_2
I1018 00:07:53.747658 30031 net.cpp:84] Creating Layer relu1_2
I1018 00:07:53.747663 30031 net.cpp:406] relu1_2 <- conv1_2
I1018 00:07:53.747669 30031 net.cpp:367] relu1_2 -> conv1_2 (in-place)
I1018 00:07:53.747676 30031 net.cpp:122] Setting up relu1_2
I1018 00:07:53.747683 30031 net.cpp:129] Top shape: 2 64 224 224 (6422528)
I1018 00:07:53.747686 30031 net.cpp:137] Memory required for data: 103970952
I1018 00:07:53.747690 30031 layer_factory.hpp:77] Creating layer pool1
I1018 00:07:53.747704 30031 net.cpp:84] Creating Layer pool1
I1018 00:07:53.747709 30031 net.cpp:406] pool1 <- conv1_2
I1018 00:07:53.747714 30031 net.cpp:380] pool1 -> pool1
I1018 00:07:53.747762 30031 net.cpp:122] Setting up pool1
I1018 00:07:53.747772 30031 net.cpp:129] Top shape: 2 64 112 112 (1605632)
I1018 00:07:53.747777 30031 net.cpp:137] Memory required for data: 110393480
I1018 00:07:53.747781 30031 layer_factory.hpp:77] Creating layer conv2_1
I1018 00:07:53.747790 30031 net.cpp:84] Creating Layer conv2_1
I1018 00:07:53.747795 30031 net.cpp:406] conv2_1 <- pool1
I1018 00:07:53.747802 30031 net.cpp:380] conv2_1 -> conv2_1
I1018 00:07:53.749531 30031 net.cpp:122] Setting up conv2_1
I1018 00:07:53.749547 30031 net.cpp:129] Top shape: 2 128 112 112 (3211264)
I1018 00:07:53.749552 30031 net.cpp:137] Memory required for data: 123238536
I1018 00:07:53.749572 30031 layer_factory.hpp:77] Creating layer relu2_1
I1018 00:07:53.749588 30031 net.cpp:84] Creating Layer relu2_1
I1018 00:07:53.749594 30031 net.cpp:406] relu2_1 <- conv2_1
I1018 00:07:53.749601 30031 net.cpp:367] relu2_1 -> conv2_1 (in-place)
I1018 00:07:53.749610 30031 net.cpp:122] Setting up relu2_1
I1018 00:07:53.749616 30031 net.cpp:129] Top shape: 2 128 112 112 (3211264)
I1018 00:07:53.749620 30031 net.cpp:137] Memory required for data: 136083592
I1018 00:07:53.749624 30031 layer_factory.hpp:77] Creating layer conv2_2
I1018 00:07:53.749631 30031 net.cpp:84] Creating Layer conv2_2
I1018 00:07:53.749636 30031 net.cpp:406] conv2_2 <- conv2_1
I1018 00:07:53.749642 30031 net.cpp:380] conv2_2 -> conv2_2
I1018 00:07:53.749941 30031 net.cpp:122] Setting up conv2_2
I1018 00:07:53.749953 30031 net.cpp:129] Top shape: 2 128 112 112 (3211264)
I1018 00:07:53.749958 30031 net.cpp:137] Memory required for data: 148928648
I1018 00:07:53.749965 30031 layer_factory.hpp:77] Creating layer relu2_2
I1018 00:07:53.749971 30031 net.cpp:84] Creating Layer relu2_2
I1018 00:07:53.749976 30031 net.cpp:406] relu2_2 <- conv2_2
I1018 00:07:53.749982 30031 net.cpp:367] relu2_2 -> conv2_2 (in-place)
I1018 00:07:53.749989 30031 net.cpp:122] Setting up relu2_2
I1018 00:07:53.749994 30031 net.cpp:129] Top shape: 2 128 112 112 (3211264)
I1018 00:07:53.749999 30031 net.cpp:137] Memory required for data: 161773704
I1018 00:07:53.750001 30031 layer_factory.hpp:77] Creating layer pool2
I1018 00:07:53.750007 30031 net.cpp:84] Creating Layer pool2
I1018 00:07:53.750011 30031 net.cpp:406] pool2 <- conv2_2
I1018 00:07:53.750017 30031 net.cpp:380] pool2 -> pool2
I1018 00:07:53.750051 30031 net.cpp:122] Setting up pool2
I1018 00:07:53.750059 30031 net.cpp:129] Top shape: 2 128 56 56 (802816)
I1018 00:07:53.750063 30031 net.cpp:137] Memory required for data: 164984968
I1018 00:07:53.750067 30031 layer_factory.hpp:77] Creating layer conv3_1
I1018 00:07:53.750074 30031 net.cpp:84] Creating Layer conv3_1
I1018 00:07:53.750079 30031 net.cpp:406] conv3_1 <- pool2
I1018 00:07:53.750085 30031 net.cpp:380] conv3_1 -> conv3_1
I1018 00:07:53.751260 30031 net.cpp:122] Setting up conv3_1
I1018 00:07:53.751276 30031 net.cpp:129] Top shape: 2 256 56 56 (1605632)
I1018 00:07:53.751281 30031 net.cpp:137] Memory required for data: 171407496
I1018 00:07:53.751298 30031 layer_factory.hpp:77] Creating layer relu3_1
I1018 00:07:53.751313 30031 net.cpp:84] Creating Layer relu3_1
I1018 00:07:53.751319 30031 net.cpp:406] relu3_1 <- conv3_1
I1018 00:07:53.751327 30031 net.cpp:367] relu3_1 -> conv3_1 (in-place)
I1018 00:07:53.751334 30031 net.cpp:122] Setting up relu3_1
I1018 00:07:53.751340 30031 net.cpp:129] Top shape: 2 256 56 56 (1605632)
I1018 00:07:53.751344 30031 net.cpp:137] Memory required for data: 177830024
I1018 00:07:53.751348 30031 layer_factory.hpp:77] Creating layer conv3_2
I1018 00:07:53.751355 30031 net.cpp:84] Creating Layer conv3_2
I1018 00:07:53.751359 30031 net.cpp:406] conv3_2 <- conv3_1
I1018 00:07:53.751365 30031 net.cpp:380] conv3_2 -> conv3_2
I1018 00:07:53.753206 30031 net.cpp:122] Setting up conv3_2
I1018 00:07:53.753221 30031 net.cpp:129] Top shape: 2 256 56 56 (1605632)
I1018 00:07:53.753226 30031 net.cpp:137] Memory required for data: 184252552
I1018 00:07:53.753234 30031 layer_factory.hpp:77] Creating layer relu3_2
I1018 00:07:53.753244 30031 net.cpp:84] Creating Layer relu3_2
I1018 00:07:53.753249 30031 net.cpp:406] relu3_2 <- conv3_2
I1018 00:07:53.753257 30031 net.cpp:367] relu3_2 -> conv3_2 (in-place)
I1018 00:07:53.753263 30031 net.cpp:122] Setting up relu3_2
I1018 00:07:53.753269 30031 net.cpp:129] Top shape: 2 256 56 56 (1605632)
I1018 00:07:53.753273 30031 net.cpp:137] Memory required for data: 190675080
I1018 00:07:53.753278 30031 layer_factory.hpp:77] Creating layer conv3_3
I1018 00:07:53.753294 30031 net.cpp:84] Creating Layer conv3_3
I1018 00:07:53.753304 30031 net.cpp:406] conv3_3 <- conv3_2
I1018 00:07:53.753309 30031 net.cpp:380] conv3_3 -> conv3_3
I1018 00:07:53.755172 30031 net.cpp:122] Setting up conv3_3
I1018 00:07:53.755189 30031 net.cpp:129] Top shape: 2 256 56 56 (1605632)
I1018 00:07:53.755193 30031 net.cpp:137] Memory required for data: 197097608
I1018 00:07:53.755208 30031 layer_factory.hpp:77] Creating layer relu3_3
I1018 00:07:53.755215 30031 net.cpp:84] Creating Layer relu3_3
I1018 00:07:53.755220 30031 net.cpp:406] relu3_3 <- conv3_3
I1018 00:07:53.755229 30031 net.cpp:367] relu3_3 -> conv3_3 (in-place)
I1018 00:07:53.755237 30031 net.cpp:122] Setting up relu3_3
I1018 00:07:53.755244 30031 net.cpp:129] Top shape: 2 256 56 56 (1605632)
I1018 00:07:53.755247 30031 net.cpp:137] Memory required for data: 203520136
I1018 00:07:53.755251 30031 layer_factory.hpp:77] Creating layer pool3
I1018 00:07:53.755256 30031 net.cpp:84] Creating Layer pool3
I1018 00:07:53.755260 30031 net.cpp:406] pool3 <- conv3_3
I1018 00:07:53.755266 30031 net.cpp:380] pool3 -> pool3
I1018 00:07:53.755306 30031 net.cpp:122] Setting up pool3
I1018 00:07:53.755316 30031 net.cpp:129] Top shape: 2 256 28 28 (401408)
I1018 00:07:53.755319 30031 net.cpp:137] Memory required for data: 205125768
I1018 00:07:53.755323 30031 layer_factory.hpp:77] Creating layer conv4_1
I1018 00:07:53.755332 30031 net.cpp:84] Creating Layer conv4_1
I1018 00:07:53.755337 30031 net.cpp:406] conv4_1 <- pool3
I1018 00:07:53.755343 30031 net.cpp:380] conv4_1 -> conv4_1
I1018 00:07:53.759347 30031 net.cpp:122] Setting up conv4_1
I1018 00:07:53.759369 30031 net.cpp:129] Top shape: 2 512 28 28 (802816)
I1018 00:07:53.759374 30031 net.cpp:137] Memory required for data: 208337032
I1018 00:07:53.759382 30031 layer_factory.hpp:77] Creating layer relu4_1
I1018 00:07:53.759407 30031 net.cpp:84] Creating Layer relu4_1
I1018 00:07:53.759418 30031 net.cpp:406] relu4_1 <- conv4_1
I1018 00:07:53.759425 30031 net.cpp:367] relu4_1 -> conv4_1 (in-place)
I1018 00:07:53.759434 30031 net.cpp:122] Setting up relu4_1
I1018 00:07:53.759440 30031 net.cpp:129] Top shape: 2 512 28 28 (802816)
I1018 00:07:53.759444 30031 net.cpp:137] Memory required for data: 211548296
I1018 00:07:53.759449 30031 layer_factory.hpp:77] Creating layer conv4_2
I1018 00:07:53.759461 30031 net.cpp:84] Creating Layer conv4_2
I1018 00:07:53.759466 30031 net.cpp:406] conv4_2 <- conv4_1
I1018 00:07:53.759474 30031 net.cpp:380] conv4_2 -> conv4_2
I1018 00:07:53.765431 30031 net.cpp:122] Setting up conv4_2
I1018 00:07:53.765450 30031 net.cpp:129] Top shape: 2 512 28 28 (802816)
I1018 00:07:53.765455 30031 net.cpp:137] Memory required for data: 214759560
I1018 00:07:53.765470 30031 layer_factory.hpp:77] Creating layer relu4_2
I1018 00:07:53.765481 30031 net.cpp:84] Creating Layer relu4_2
I1018 00:07:53.765486 30031 net.cpp:406] relu4_2 <- conv4_2
I1018 00:07:53.765492 30031 net.cpp:367] relu4_2 -> conv4_2 (in-place)
I1018 00:07:53.765501 30031 net.cpp:122] Setting up relu4_2
I1018 00:07:53.765506 30031 net.cpp:129] Top shape: 2 512 28 28 (802816)
I1018 00:07:53.765511 30031 net.cpp:137] Memory required for data: 217970824
I1018 00:07:53.765514 30031 layer_factory.hpp:77] Creating layer conv4_3
I1018 00:07:53.765532 30031 net.cpp:84] Creating Layer conv4_3
I1018 00:07:53.765538 30031 net.cpp:406] conv4_3 <- conv4_2
I1018 00:07:53.765547 30031 net.cpp:380] conv4_3 -> conv4_3
I1018 00:07:53.773084 30031 net.cpp:122] Setting up conv4_3
I1018 00:07:53.773129 30031 net.cpp:129] Top shape: 2 512 28 28 (802816)
I1018 00:07:53.773140 30031 net.cpp:137] Memory required for data: 221182088
I1018 00:07:53.773159 30031 layer_factory.hpp:77] Creating layer relu4_3
I1018 00:07:53.773180 30031 net.cpp:84] Creating Layer relu4_3
I1018 00:07:53.773203 30031 net.cpp:406] relu4_3 <- conv4_3
I1018 00:07:53.773219 30031 net.cpp:367] relu4_3 -> conv4_3 (in-place)
I1018 00:07:53.773242 30031 net.cpp:122] Setting up relu4_3
I1018 00:07:53.773257 30031 net.cpp:129] Top shape: 2 512 28 28 (802816)
I1018 00:07:53.773264 30031 net.cpp:137] Memory required for data: 224393352
I1018 00:07:53.773273 30031 layer_factory.hpp:77] Creating layer pool4
I1018 00:07:53.773291 30031 net.cpp:84] Creating Layer pool4
I1018 00:07:53.773303 30031 net.cpp:406] pool4 <- conv4_3
I1018 00:07:53.773315 30031 net.cpp:380] pool4 -> pool4
I1018 00:07:53.773398 30031 net.cpp:122] Setting up pool4
I1018 00:07:53.773418 30031 net.cpp:129] Top shape: 2 512 14 14 (200704)
I1018 00:07:53.773428 30031 net.cpp:137] Memory required for data: 225196168
I1018 00:07:53.773440 30031 layer_factory.hpp:77] Creating layer conv5_1
I1018 00:07:53.773458 30031 net.cpp:84] Creating Layer conv5_1
I1018 00:07:53.773466 30031 net.cpp:406] conv5_1 <- pool4
I1018 00:07:53.773483 30031 net.cpp:380] conv5_1 -> conv5_1
I1018 00:07:53.781136 30031 net.cpp:122] Setting up conv5_1
I1018 00:07:53.781168 30031 net.cpp:129] Top shape: 2 512 14 14 (200704)
I1018 00:07:53.781173 30031 net.cpp:137] Memory required for data: 225998984
I1018 00:07:53.781186 30031 layer_factory.hpp:77] Creating layer relu5_1
I1018 00:07:53.781203 30031 net.cpp:84] Creating Layer relu5_1
I1018 00:07:53.781210 30031 net.cpp:406] relu5_1 <- conv5_1
I1018 00:07:53.781220 30031 net.cpp:367] relu5_1 -> conv5_1 (in-place)
I1018 00:07:53.781249 30031 net.cpp:122] Setting up relu5_1
I1018 00:07:53.781263 30031 net.cpp:129] Top shape: 2 512 14 14 (200704)
I1018 00:07:53.781272 30031 net.cpp:137] Memory required for data: 226801800
I1018 00:07:53.781276 30031 layer_factory.hpp:77] Creating layer conv5_2
I1018 00:07:53.781289 30031 net.cpp:84] Creating Layer conv5_2
I1018 00:07:53.781296 30031 net.cpp:406] conv5_2 <- conv5_1
I1018 00:07:53.781302 30031 net.cpp:380] conv5_2 -> conv5_2
I1018 00:07:53.804060 30031 net.cpp:122] Setting up conv5_2
I1018 00:07:53.804096 30031 net.cpp:129] Top shape: 2 512 14 14 (200704)
I1018 00:07:53.804102 30031 net.cpp:137] Memory required for data: 227604616
I1018 00:07:53.804116 30031 layer_factory.hpp:77] Creating layer relu5_2
I1018 00:07:53.804126 30031 net.cpp:84] Creating Layer relu5_2
I1018 00:07:53.804133 30031 net.cpp:406] relu5_2 <- conv5_2
I1018 00:07:53.804149 30031 net.cpp:367] relu5_2 -> conv5_2 (in-place)
I1018 00:07:53.804168 30031 net.cpp:122] Setting up relu5_2
I1018 00:07:53.804180 30031 net.cpp:129] Top shape: 2 512 14 14 (200704)
I1018 00:07:53.804188 30031 net.cpp:137] Memory required for data: 228407432
I1018 00:07:53.804198 30031 layer_factory.hpp:77] Creating layer conv5_3
I1018 00:07:53.804217 30031 net.cpp:84] Creating Layer conv5_3
I1018 00:07:53.804229 30031 net.cpp:406] conv5_3 <- conv5_2
I1018 00:07:53.804239 30031 net.cpp:380] conv5_3 -> conv5_3
I1018 00:07:53.810801 30031 net.cpp:122] Setting up conv5_3
I1018 00:07:53.810832 30031 net.cpp:129] Top shape: 2 512 14 14 (200704)
I1018 00:07:53.810839 30031 net.cpp:137] Memory required for data: 229210248
I1018 00:07:53.810856 30031 layer_factory.hpp:77] Creating layer relu5_3
I1018 00:07:53.810891 30031 net.cpp:84] Creating Layer relu5_3
I1018 00:07:53.810901 30031 net.cpp:406] relu5_3 <- conv5_3
I1018 00:07:53.810909 30031 net.cpp:367] relu5_3 -> conv5_3 (in-place)
I1018 00:07:53.810921 30031 net.cpp:122] Setting up relu5_3
I1018 00:07:53.810927 30031 net.cpp:129] Top shape: 2 512 14 14 (200704)
I1018 00:07:53.810932 30031 net.cpp:137] Memory required for data: 230013064
I1018 00:07:53.810936 30031 layer_factory.hpp:77] Creating layer conv5_3_re
I1018 00:07:53.810953 30031 net.cpp:84] Creating Layer conv5_3_re
I1018 00:07:53.810958 30031 net.cpp:406] conv5_3_re <- conv5_3
I1018 00:07:53.810966 30031 net.cpp:380] conv5_3_re -> conv5_3_re
I1018 00:07:53.811022 30031 net.cpp:122] Setting up conv5_3_re
I1018 00:07:53.811030 30031 net.cpp:129] Top shape: 2 512 196 (200704)
I1018 00:07:53.811034 30031 net.cpp:137] Memory required for data: 230815880
I1018 00:07:53.811039 30031 layer_factory.hpp:77] Creating layer conv5_3_tran
I1018 00:07:53.811121 30031 net.cpp:84] Creating Layer conv5_3_tran
I1018 00:07:53.811132 30031 net.cpp:406] conv5_3_tran <- conv5_3_re
I1018 00:07:53.811141 30031 net.cpp:380] conv5_3_tran -> conv5_3_tran
I1018 00:07:53.812202 30031 net.cpp:122] Setting up conv5_3_tran
I1018 00:07:53.812219 30031 net.cpp:129] Top shape: 196 2 512 (200704)
I1018 00:07:53.812225 30031 net.cpp:137] Memory required for data: 231618696
I1018 00:07:53.812230 30031 layer_factory.hpp:77] Creating layer lstm1
I1018 00:07:53.812249 30031 net.cpp:84] Creating Layer lstm1
I1018 00:07:53.812255 30031 net.cpp:406] lstm1 <- conv5_3_tran
I1018 00:07:53.812263 30031 net.cpp:406] lstm1 <- clip_markers
I1018 00:07:53.812273 30031 net.cpp:380] lstm1 -> lstm1
I1018 00:07:53.812291 30031 recurrent_layer.cpp:20] Initializing recurrent layer: assuming input batch contains 196 timesteps of 2 independent streams.
I1018 00:07:53.819679 30031 net.cpp:51] Initializing net from parameters: 
layer {
  name: "lstm1_"
  type: "Input"
  top: "x"
  top: "cont"
  input_param {
    shape {
      dim: 196
      dim: 2
      dim: 512
    }
    shape {
      dim: 196
      dim: 2
    }
  }
}
layer {
  name: "lstm1_"
  type: "Input"
  top: "c_0"
  top: "h_0"
  input_param {
    shape {
      dim: 1
      dim: 2
      dim: 512
    }
    shape {
      dim: 1
      dim: 2
      dim: 512
    }
  }
}
layer {
  name: "lstm1_cont_slice"
  type: "Slice"
  bottom: "cont"
  top: "cont_1"
  top: "cont_2"
  top: "cont_3"
  top: "cont_4"
  top: "cont_5"
  top: "cont_6"
  top: "cont_7"
  top: "cont_8"
  top: "cont_9"
  top: "cont_10"
  top: "cont_11"
  top: "cont_12"
  top: "cont_13"
  top: "cont_14"
  top: "cont_15"
  top: "cont_16"
  top: "cont_17"
  top: "cont_18"
  top: "cont_19"
  top: "cont_20"
  top: "cont_21"
  top: "cont_22"
  top: "cont_23"
  top: "cont_24"
…
  top: "W_xc_x_171"
  top: "W_xc_x_172"
  top: "W_xc_x_173"
  top: "W_xc_x_174"
  top: "W_xc_x_175"
  top: "W_xc_x_176"
  top: "W_xc_x_177"
  top: "W_xc_x_178"
  top: "W_xc_x_179"
  top: "W_xc_x_180"
  top: "W_xc_x_181"
  top: "W_xc_x_182"
  top: "W_xc_x_183"
  top: "W_xc_x_184"
  top: "W_xc_x_185"
  top: "W_xc_x_186"
  top: "W_xc_x_187"
  top: "W_xc_x_188"
  top: "W_xc_x_189"
  top: "W_xc_x_190"
  top: "W_xc_x_191"
  top: "W_xc_x_192"
  top: "W_xc_x_193"
  top: "W_xc_x_194"
  top: "W_xc_x_195"
  top: "W_xc_x_196"
  slice_param {
    axis: 0
  }
}
layer {
  name: "lstm1_h_conted_0"
  type: "Scale"
  bottom: "h_0"
  bottom: "cont_1"
  top: "h_conted_0"
  scale_param {
    axis: 0
  }
}
layer {
  name: "lstm1_transform_1"
  type: "InnerProduct"
  bottom: "h_conted_0"
  top: "W_hc_h_0"
  param {
    name: "W_hc"
  }
  inner_product_param {
    num_output: 2048
    bias_term: false
    weight_filler {
      type: "uniform"
      min: -0.01
      max: 0.01
    }
    axis: 2
  }
}
layer {
  name: "lstm1_gate_input_1"
  type: "Eltwise"
  bottom: "W_hc_h_0"
  bottom: "W_xc_x_1"
  top: "gate_input_1"
  eltwise_param {
    operation: SUM
  }
}
layer {
  name: "lstm1_unit_1"
  type: "LSTMUnit"
  bottom: "c_0"
  bottom: "gate_input_1"
  bottom: "cont_1"
  top: "c_1"
  top: "h_1"
}
layer {
  name: "lstm1_h_conted_1"
  type: "Scale"
  bottom: "h_1"
  bottom: "cont_2"
  top: "h_conted_1"
  scale_param {
    axis: 0
  }
}
layer {
  name: "lstm1_transform_2"
  type: "InnerProduct"
  bottom: "h_conted_1"
  top: "W_hc_h_1"
  param {
    name: "W_hc"
  }
  inner_product_param {
    num_output: 2048
    bias_term: false
    weight_filler {
      type: "uniform"
      min: -0.01
      max: 0.01
    }
    axis: 2
  }
}
layer {
  name: "lstm1_gate_input_2"
  type: "Eltwise"
  bottom: "W_hc_h_1"
  bottom: "W_xc_x_2"
  top: "gate_input_2"
  eltwise_param {
    operation: SUM
  }
}
layer {
  name: "lstm1_unit_2"
  type: "LSTMUnit"
  bottom: "c_1"
  bottom: "gate_input_2"
  bottom: "cont_2"
  top: "c_2"
  top: "h_2"
}
layer {
  name: "lstm1_h_conted_2"
  type: "Scale"
  bottom: "h_2"
  bottom: "cont_3"
  top: "h_conted_2"
  scale_param {
    axis: 0
  }
}
layer {
  name: "lstm1_transform_3"
  type: "InnerProduct"
  bottom: "h_conted_2"
  top: "W_hc_h_2"
  param {
    name: "W_hc"
  }
  inner_product_param {
    num_output: 2048
    bias_term: false
    weight_filler {
      type: "uniform"
      min: -0.01
      max: 0.01
    }
    axis: 2
  }
}
layer {
  name: "lstm1_gate_input_3"
  type: "Eltwise"
  bottom: "W_hc_h_2"
  bottom: "W_xc_x_3"
  top: "gate_input_3"
  eltwise_param {
    operation: SUM
  }
}
layer {
  name: "lstm1_unit_3"
  type: "LSTMUnit"
  bottom: "c_2"
  bottom: "gate_input_3"
  bottom: "cont_3"
  top: "c_3"
  top: "h_3"
}
layer {
  name: "lstm1_h_conted_3"
  type: "Scale"
  bottom: "h_3"
  bottom: "cont_4"
  top: "h_conted_3"
  scale_param {
    axis: 0
  }
}
layer {
  name: "lstm1_transform_4"
  type: "InnerProduct"
  bottom: "h_conted_3"
  top: "W_hc_h_3"
  param {
    name: "W_hc"
  }
  inner_product_param {
    num_output: 2048
    bias_term: false
    weight_filler {
      type: "uniform"
      min: -0.01
      max: 0.01
    }
    axis: 2
  }
}
layer {
  name: "lstm1_gate_input_4"
  type: "Eltwise"
  bottom: "W_hc_h_3"
  bottom: "W_xc_x_4"
  top: "gate_input_4"
  eltwise_param {
    operation: SUM
  }
}
layer {
  name: "lstm1_unit_4"
  type: "LSTMUnit"
  bottom: "c_3"
  bottom: "gate_input_4"
  bottom: "cont_4"
  top: "c_4"
  top: "h_4"
}
layer {
  name: "lstm1_h_conted_4"
  type: "Scale"
  bottom: "h_4"
  bottom: "cont_5"
  top: "h_conted_4"
  scale_param {
    axis: 0
  }
}
layer {
  name: "lstm1_transform_5"
  type: "InnerProduct"
  bottom: "h_conted_4"
  top: "W_hc_h_4"
  param {
    name: "W_hc"
  }
  inner_product_param {
    num_output: 2048
    bias_term: false
    weight_filler {
      type: "uniform"
      min: -0.01
      max: 0.01
    }
    axis: 2
  }
}
layer {
  name: "lstm1_gate_input_5"
  type: "Eltwise"
  bottom: "W_hc_h_4"
  bottom: "W_xc_x_5"
  top: "gate_input_5"
  eltwise_param {
    operation: SUM
  }
}
layer {
  name: "lstm1_unit_5"
  type: "LSTMUnit"
  bottom: "c_4"
  bottom: "gate_input_5"
  bottom: "cont_5"
  top: "c_5"
  top: "h_5"
}
layer {
  name: "lstm1_h_conted_5"
  type: "Scale"
  bottom: "h_5"
  bottom: "cont_6"
  top: "h_conted_5"
  scale_param {
    axis: 0
  }
}
layer {
  name: "lstm1_transform_6"
  type: "InnerProduct"
  bottom: "h_conted_5"
  top: "W_hc_h_5"
  param {
    name: "W_hc"
  }
  inner_product_param {
    num_output: 2048
    bias_term: false
    weight_filler {
      type: "uniform"
      min: -0.01
      max: 0.01
    }
    axis: 2
  }
}
layer {
  name: "lstm1_gate_input_6"
  type: "Eltwise"
  bottom: "W_hc_h_5"
  bottom: "W_xc_x_6"
  top: "gate_input_6"
  eltwise_param {
    operation: SUM
  }
}
layer {
  name: "lstm1_unit_6"
  type: "LSTMUnit"
  bottom: "c_5"
  bottom: "gate_input_6"
  bottom: "cont_6"
  top: "c_6"
  top: "h_6"
}
layer {
  name: "lstm1_h_conted_6"
  type: "Scale"
  bottom: "h_6"
  bottom: "cont_7"
  top: "h_conted_6"
  scale_param {
    axis: 0
  }
}
layer {
  name: "lstm1_transform_7"
  type: "InnerProduct"
  bottom: "h_conted_6"
  top: "W_hc_h_6"
  param {
    name: "W_hc"
  }
  inner_product_param {
    num_output: 2048
    bias_term: false
    weight_filler {
      type: "uniform"
      min: -0.01
      max: 0.01
    }
    axis: 2
  }
}
layer {
  name: "lstm1_gate_input_7"
  type: "Eltwise"
  bottom: "W_hc_h_6"
  bottom: "W_xc_x_7"
  top: "gate_input_7"
  eltwise_param {
    operation: SUM
  }
}
layer {
  name: "lstm1_unit_7"
  type: "LSTMUnit"
  bottom: "c_6"
  bottom: "gate_input_7"
  bottom: "cont_7"
  top: "c_7"
  top: "h_7"
}
layer {
  name: "lstm1_h_conted_7"
  type: "Scale"
  bottom: "h_7"
  bottom: "cont_8"
  top: "h_conted_7"
  scale_param {
    axis: 0
  }
}
layer {
  name: "lstm1_transform_8"
  type: "InnerProduct"
  bottom: "h_conted_7"
  top: "W_hc_h_7"
  param {
    name: "W_hc"
  }
  inner_product_param {
    num_output: 2048
    bias_term: false
    weight_filler {
      type: "uniform"
      min: -0.01
      max: 0.01
    }
    axis: 2
  }
}
layer {
  name: "lstm1_gate_input_8"
  type: "Eltwise"
  bottom: "W_hc_h_7"
  bottom: "W_xc_x_8"
  top: "gate_input_8"
  eltwise_param {
    operation: SUM
  }
}
layer {
  name: "lstm1_unit_8"
  type: "LSTMUnit"
  bottom: "c_7"
  bottom: "gate_input_8"
  bottom: "cont_8"
  top: "c_8"
  top: "h_8"
}
layer {
  name: "lstm1_h_conted_8"
  type: "Scale"
  bottom: "h_8"
  bottom: "cont_9"
  top: "h_conted_8"
  scale_param {
    axis: 0
  }
}
layer {
  name: "lstm1_transform_9"
  type: "InnerProduct"
  bottom: "h_conted_8"
  top: "W_hc_h_8"
  param {
    name: "W_hc"
  }
  inner_product_param {
    num_output: 2048
    bias_term: false
    weight_filler {
      type: "uniform"
      min: -0.01
      max: 0.01
    }
    axis: 2
  }
}
layer {
  name: "lstm1_gate_input_9"
  type: "Eltwise"
  bottom: "W_hc_h_8"
  bottom: "W_xc_x_9"
  top: "gate_input_9"
  eltwise_param {
    operation: SUM
  }
}
layer {
  name: "lstm1_unit_9"
  type: "LSTMUnit"
  bottom: "c_8"
  bottom: "gate_input_9"
  bottom: "cont_9"
  top: "c_9"
  top: "h_9"
}
layer {
  name: "lstm1_h_conted_9"
  type: "Scale"
  bottom: "h_9"
  bottom: "cont_10"
  top: "h_conted_9"
  scale_param {
    axis: 0
  }
}
layer {
  name: "lstm1_transform_10"
  type: "InnerProduct"
  bottom: "h_conted_9"
  top: "W_hc_h_9"
  param {
    name: "W_hc"
  }
  inner_product_param {
    num_output: 2048
    bias_term: false
    weight_filler {
      type: "uniform"
      min: -0.01
      max: 0.01
    }
    axis: 2
  }
}
layer {
  name: "lstm1_gate_input_10"
  type: "Eltwise"
  bottom: "W_hc_h_9"
  bottom: "W_xc_x_10"
  top: "gate_input_10"
  eltwise_param {
    operation: SUM
  }
}
layer {
  name: "lstm1_unit_10"
  type: "LSTMUnit"
  bottom: "c_9"
  bottom: "gate_input_10"
  bottom: "cont_10"
  top: "c_10"
  top: "h_10"
}
layer {
  name: "lstm1_h_conted_10"
  type: "Scale"
  bottom: "h_10"
  bottom: "cont_11"
  top: "h_conted_10"
  scale_param {
    axis: 0
  }
}
layer {
  name: "lstm1_transform_11"
  type: "InnerProduct"
  bottom: "h_conted_10"
  top: "W_hc_h_10"
  param {
    name: "W_hc"
  }
  inner_product_param {
    num_output: 2048
    bias_term: false
    weight_filler {
      type: "uniform"
      min: -0.01
      max: 0.01
    }
    axis: 2
  }
}
layer {
  name: "lstm1_gate_input_11"
  type: "Eltwise"
  bottom: "W_hc_h_10"
  bottom: "W_xc_x_11"
  top: "gate_input_11"
  eltwise_param {
    operation: SUM
  }
}
layer {
  name: "lstm1_unit_11"
  type: "LSTMUnit"
  bottom: "c_10"
  bottom: "gate_input_11"
  bottom: "cont_11"
  top: "c_11"
  top: "h_11"
}
layer {
  name: "lstm1_h_conted_11"
  type: "Scale"
  bottom: "h_11"
  bottom: "cont_12"
  top: "h_conted_11"
  scale_param {
    axis: 0
  }
}
layer {
  name: "lstm1_transform_12"
  type: "InnerProduct"
  bottom: "h_conted_11"
  top: "W_hc_h_11"
  param {
    name: "W_hc"
  }
  inner_product_param {
    num_output: 2048
    bias_term: false
    weight_filler {
      type: "uniform"
      min: -0.01
      max: 0.01
    }
    axis: 2
  }
}
layer {
  name: "lstm1_gate_input_12"
  type: "Eltwise"
  bottom: "W_hc_h_11"
  bottom: "W_xc_x_12"
  top: "gate_input_12"
  eltwise_param {
    operation: SUM
  }
}
layer {
  name: "lstm1_unit_12"
  type: "LSTMUnit"
  bottom: "c_11"
  bottom: "gate_input_12"
  bottom: "cont_12"
  top: "c_12"
  top: "h_12"
}
layer {
  name: "lstm1_h_conted_12"
  type: "Scale"
  bottom: "h_12"
  bottom: "cont_13"
  top: "h_conted_12"
  scale_param {
    axis: 0
  }
}
layer {
  name: "lstm1_transform_13"
  type: "InnerProduct"
  bottom: "h_conted_12"
  top: "W_hc_h_12"
  param {
    name: "W_hc"
  }
  inner_product_param {
    num_output: 2048
    bias_term: false
    weight_filler {
      type: "uniform"
      min: -0.01
      max: 0.01
    }
    axis: 2
  }
}
layer {
  name: "lstm1_gate_input_13"
  type: "Eltwise"
  bottom: "W_hc_h_12"
  bottom: "W_xc_x_13"
  top: "gate_input_13"
  eltwise_param {
    operation: SUM
  }
}
layer {
  name: "lstm1_unit_13"
  type: "LSTMUnit"
  bottom: "c_12"
  bottom: "gate_input_13"
  bottom: "cont_13"
  top: "c_13"
  top: "h_13"
}
layer {
  name: "lstm1_h_conted_13"
  type: "Scale"
  bottom: "h_13"
  bottom: "cont_14"
  top: "h_conted_13"
  scale_param {
    axis: 0
  }
}
layer {
  name: "lstm1_transform_14"
  type: "InnerProduct"
  bottom: "h_conted_13"
  top: "W_hc_h_13"
  param {
    name: "W_hc"
  }
  inner_product_param {
    num_output: 2048
    bias_term: false
    weight_filler {
      type: "uniform"
      min: -0.01
      max: 0.01
    }
    axis: 2
  }
}
layer {
  name: "lstm1_gate_input_14"
  type: "Eltwise"
  bottom: "W_hc_h_13"
  bottom: "W_xc_x_14"
  top: "gate_input_14"
  eltwise_param {
    operation: SUM
  }
}
layer {
  name: "lstm1_unit_14"
  type: "LSTMUnit"
  bottom: "c_13"
  bottom: "gate_input_14"
  bottom: "cont_14"
  top: "c_14"
  top: "h_14"
}
layer {
  name: "lstm1_h_conted_14"
  type: "Scale"
  bottom: "h_14"
  bottom: "cont_15"
  top: "h_conted_14"
  scale_param {
    axis: 0
  }
}
layer {
  name: "lstm1_transform_15"
  type: "InnerProduct"
  bottom: "h_conted_14"
  top: "W_hc_h_14"
  param {
    name: "W_hc"
  }
  inner_product_param {
    num_output: 2048
    bias_term: false
    weight_filler {
      type: "uniform"
      min: -0.01
      max: 0.01
    }
    axis: 2
  }
}
layer {
  name: "lstm1_gate_input_15"
  type: "Eltwise"
  bottom: "W_hc_h_14"
  bottom: "W_xc_x_15"
  top: "gate_input_15"
  eltwise_param {
    operation: SUM
  }
}
layer {
  name: "lstm1_unit_15"
  type: "LSTMUnit"
  bottom: "c_14"
  bottom: "gate_input_15"
  bottom: "cont_15"
  top: "c_15"
  top: "h_15"
}
layer {
  name: "lstm1_h_conted_15"
  type: "Scale"
  bottom: "h_15"
  bottom: "cont_16"
  top: "h_conted_15"
  scale_param {
    axis: 0
  }
}
layer {
  name: "lstm1_transform_16"
  type: "InnerProduct"
  bottom: "h_conted_15"
  top: "W_hc_h_15"
  param {
    name: "W_hc"
  }
  inner_product_param {
    num_output: 2048
    bias_term: false
    weight_filler {
      type: "uniform"
      min: -0.01
      max: 0.01
    }
    axis: 2
  }
}
layer {
  name: "lstm1_gate_input_16"
  type: "Eltwise"
  bottom: "W_hc_h_15"
  bottom: "W_xc_x_16"
  top: "gate_input_16"
  eltwise_param {
    operation: SUM
  }
}
layer {
  name: "lstm1_unit_16"
  type: "LSTMUnit"
  bottom: "c_15"
  bottom: "gate_input_16"
  bottom: "cont_16"
  top: "c_16"
  top: "h_16"
}
layer {
  name: "lstm1_h_conted_16"
  type: "Scale"
  bottom: "h_16"
  bottom: "cont_17"
  top: "h_conted_16"
  scale_param {
    axis: 0
  }
}
layer {
  name: "lstm1_transform_17"
  type: "InnerProduct"
  bottom: "h_conted_16"
  top: "W_hc_h_16"
  param {
    name: "W_hc"
  }
  inner_product_param {
    num_output: 2048
    bias_term: false
    weight_filler {
      type: "uniform"
      min: -0.01
      max: 0.01
    }
    axis: 2
  }
}
layer {
  name: "lstm1_gate_input_17"
  type: "Eltwise"
  bottom: "W_hc_h_16"
  bottom: "W_xc_x_17"
  top: "gate_input_17"
  eltwise_param {
    operation: SUM
  }
}
layer {
  name: "lstm1_unit_17"
  type: "LSTMUnit"
  bottom: "c_16"
  bottom: "gate_input_17"
  bottom: "cont_17"
  top: "c_17"
  top: "h_17"
}
layer {
  name: "lstm1_h_conted_17"
  type: "Scale"
  bottom: "h_17"
  bottom: "cont_18"
  top: "h_conted_17"
  scale_param {
    axis: 0
  }
}
layer {
  name: "lstm1_transform_18"
  type: "InnerProduct"
  bottom: "h_conted_17"
  top: "W_hc_h_17"
  param {
    name: "W_hc"
  }
  inner_product_param {
    num_output: 2048
    bias_term: false
    weight_filler {
      type: "uniform"
      min: -0.01
      max: 0.01
    }
    axis: 2
  }
}
layer {
  name: "lstm1_gate_input_18"
  type: "Eltwise"
  bottom: "W_hc_h_17"
  bottom: "W_xc_x_18"
  top: "gate_input_18"
  eltwise_param {
    operation: SUM
  }
}
layer {
  name: "lstm1_unit_18"
  type: "LSTMUnit"
  bottom: "c_17"
  bottom: "gate_input_18"
  bottom: "cont_18"
  top: "c_18"
  top: "h_18"
}
layer {
  name: "lstm1_h_conted_18"
  type: "Scale"
  bottom: "h_18"
  bottom: "cont_19"
  top: "h_conted_18"
  scale_param {
    axis: 0
  }
}
layer {
  name: "lstm1_transform_19"
  type: "InnerProduct"
  bottom: "h_conted_18"
  top: "W_hc_h_18"
  param {
    name: "W_hc"
  }
  inner_product_param {
    num_output: 2048
    bias_term: false
    weight_filler {
      type: "uniform"
      min: -0.01
      max: 0.01
    }
    axis: 2
  }
}
layer {
  name: "lstm1_gate_input_19"
  type: "Eltwise"
  bottom: "W_hc_h_18"
  bottom: "W_xc_x_19"
  top: "gate_input_19"
  eltwise_param {
    operation: SUM
  }
}
layer {
  name: "lstm1_unit_19"
  type: "LSTMUnit"
  bottom: "c_18"
  bottom: "gate_input_19"
  bottom: "cont_19"
  top: "c_19"
  top: "h_19"
}
layer {
  name: "lstm1_h_conted_19"
  type: "Scale"
  bottom: "h_19"
  bottom: "cont_20"
  top: "h_conted_19"
  scale_param {
    axis: 0
  }
}
layer {
  name: "lstm1_transform_20"
  type: "InnerProduct"
  bottom: "h_conted_19"
  top: "W_hc_h_19"
  param {
    name: "W_hc"
  }
  inner_product_param {
    num_output: 2048
    bias_term: false
    weight_filler {
      type: "uniform"
      min: -0.01
      max: 0.01
    }
    axis: 2
  }
}
layer {
  name: "lstm1_gate_input_20"
  type: "Eltwise"
  bottom: "W_hc_h_19"
  bottom: "W_xc_x_20"
  top: "gate_input_20"
  eltwise_param {
    operation: SUM
  }
}
layer {
  name: "lstm1_unit_20"
  type: "LSTMUnit"
  bottom: "c_19"
  bottom: "gate_input_20"
  bottom: "cont_20"
  top: "c_20"
  top: "h_20"
}
layer {
  name: "lstm1_h_conted_20"
  type: "Scale"
  bottom: "h_20"
  bottom: "cont_21"
  top: "h_conted_20"
  scale_param {
    axis: 0
  }
}
layer {
  name: "lstm1_transform_21"
  type: "InnerProduct"
  bottom: "h_conted_20"
  top: "W_hc_h_20"
  param {
    name: "W_hc"
  }
  inner_product_param {
    num_output: 2048
    bias_term: false
    weight_filler {
      type: "uniform"
      min: -0.01
      max: 0.01
    }
    axis: 2
  }
}
layer {
  name: "lstm1_gate_input_21"
  type: "Eltwise"
  bottom: "W_hc_h_20"
  bottom: "W_xc_x_21"
  top: "gate_input_21"
  eltwise_param {
    operation: SUM
  }
}
layer {
  name: "lstm1_unit_21"
  type: "LSTMUnit"
  bottom: "c_20"
  bottom: "gate_input_21"
  bottom: "cont_21"
  top: "c_21"
  top: "h_21"
}
layer {
  name: "lstm1_h_conted_21"
  type: "Scale"
  bottom: "h_21"
  bottom: "cont_22"
  top: "h_conted_21"
  scale_param {
    axis: 0
  }
}
layer {
  name: "lstm1_transform_22"
  type: "InnerProduct"
  bottom: "h_conted_21"
  top: "W_hc_h_21"
  param {
    name: "W_hc"
  }
  inner_product_param {
    num_output: 2048
    bias_term: false
    weight_filler {
      type: "uniform"
      min: -0.01
      max: 0.01
    }
    axis: 2
  }
}
layer {
  name: "lstm1_gate_input_22"
  type: "Eltwise"
  bottom: "W_hc_h_21"
  bottom: "W_xc_x_22"
  top: "gate_input_22"
  eltwise_param {
    operation: SUM
  }
}
layer {
  name: "lstm1_unit_22"
  type: "LSTMUnit"
  bottom: "c_21"
  bottom: "gate_input_22"
  bottom: "cont_22"
  top: "c_22"
  top: "h_22"
}
layer {
  name: "lstm1_h_conted_22"
  type: "Scale"
  bottom: "h_22"
  bottom: "cont_23"
  top: "h_conted_22"
  scale_param {
    axis: 0
  }
}
layer {
  name: "lstm1_transform_23"
  type: "InnerProduct"
  bottom: "h_conted_22"
  top: "W_hc_h_22"
  param {
    name: "W_hc"
  }
  inner_product_param {
    num_output: 2048
    bias_term: false
    weight_filler {
      type: "uniform"
      min: -0.01
      max: 0.01
    }
    axis: 2
  }
}
layer {
  name: "lstm1_gate_input_23"
  type: "Eltwise"
  bottom: "W_hc_h_22"
  bottom: "W_xc_x_23"
  top: "gate_input_23"
  eltwise_param {
    operation: SUM
  }
}
layer {
  name: "lstm1_unit_23"
  type: "LSTMUnit"
  bottom: "c_22"
  bottom: "gate_input_23"
  bottom: "cont_23"
  top: "c_23"
  top: "h_23"
}
layer {
  name: "lstm1_h_conted_23"
  type: "Scale"
  bottom: "h_23"
  bottom: "cont_24"
  top: "h_conted_23"
  scale_param {
    axis: 0
  }
}
layer {
  name: "lstm1_transform_24"
  type: "InnerProduct"
  bottom: "h_conted_23"
  top: "W_hc_h_23"
  param {
    name: "W_hc"
  }
  inner_product_param {
    num_output: 2048
    bias_term: false
    weight_filler {
      type: "uniform"
      min: -0.01
      max: 0.01
    }
    axis: 2
  }
}
layer {
  name: "lstm1_gate_input_24"
  type: "Eltwise"
  bottom: "W_hc_h_23"
  bottom: "W_xc_x_24"
  top: "gate_input_24"
  eltwise_param {
    operation: SUM
  }
}
layer {
  name: "lstm1_unit_24"
  type: "LSTMUnit"
  bottom: "c_23"
  bottom: "gate_input_24"
  bottom: "cont_24"
  top: "c_24"
  top: "h_24"
}
layer {
  name: "lstm1_h_conted_24"
  type: "Scale"
  bottom: "h_24"
  bottom: "cont_25"
  top: "h_conted_24"
  scale_param {
    axis: 0
  }
}
layer {
  name: "lstm1_transform_25"
  type: "InnerProduct"
  bottom: "h_conted_24"
  top: "W_hc_h_24"
  param {
    name: "W_hc"
  }
  inner_product_param {
    num_output: 2048
    bias_term: false
    weight_filler {
      type: "uniform"
      min: -0.01
      max: 0.01
    }
    axis: 2
  }
}
layer {
  name: "lstm1_gate_input_25"
  type: "Eltwise"
  bottom: "W_hc_h_24"
  bottom: "W_xc_x_25"
  top: "gate_input_25"
  eltwise_param {
    operation: SUM
  }
}
layer {
  name: "lstm1_unit_25"
  type: "LSTMUnit"
  bottom: "c_24"
  bottom: "gate_input_25"
  bottom: "cont_25"
  top: "c_25"
  top: "h_25"
}
layer {
  name: "lstm1_h_conted_25"
  type: "Scale"
  bottom: "h_25"
  bottom: "cont_26"
  top: "h_conted_25"
  scale_param {
    axis: 0
  }
}
layer {
  name: "lstm1_transform_26"
  type: "InnerProduct"
  bottom: "h_conted_25"
  top: "W_hc_h_25"
  param {
    name: "W_hc"
  }
  inner_product_param {
    num_output: 2048
    bias_term: false
    weight_filler {
      type: "uniform"
      min: -0.01
      max: 0.01
    }
    axis: 2
  }
}
layer {
  name: "lstm1_gate_input_26"
  type: "Eltwise"
  bottom: "W_hc_h_25"
  bottom: "W_xc_x_26"
  top: "gate_input_26"
  eltwise_param {
    operation: SUM
  }
}
layer {
  name: "lstm1_unit_26"
  type: "LSTMUnit"
  bottom: "c_25"
  bottom: "gate_input_26"
  bottom: "cont_26"
  top: "c_26"
  top: "h_26"
}
layer {
  name: "lstm1_h_conted_26"
  type: "Scale"
  bottom: "h_26"
  bottom: "cont_27"
  top: "h_conted_26"
  scale_param {
    axis: 0
  }
}
layer {
  name: "lstm1_transform_27"
  type: "InnerProduct"
  bottom: "h_conted_26"
  top: "W_hc_h_26"
  param {
    name: "W_hc"
  }
  inner_product_param {
    num_output: 2048
    bias_term: false
    weight_filler {
      type: "uniform"
      min: -0.01
      max: 0.01
    }
    axis: 2
  }
}
layer {
  name: "lstm1_gate_input_27"
  type: "Eltwise"
  bottom: "W_hc_h_26"
  bottom: "W_xc_x_27"
  top: "gate_input_27"
  eltwise_param {
    operation: SUM
  }
}
layer {
  name: "lstm1_unit_27"
  type: "LSTMUnit"
  bottom: "c_26"
  bottom: "gate_input_27"
  bottom: "cont_27"
  top: "c_27"
  top: "h_27"
}
layer {
  name: "lstm1_h_conted_27"
  type: "Scale"
  bottom: "h_27"
  bottom: "cont_28"
  top: "h_conted_27"
  scale_param {
    axis: 0
  }
}
layer {
  name: "lstm1_transform_28"
  type: "InnerProduct"
  bottom: "h_conted_27"
  top: "W_hc_h_27"
  param {
    name: "W_hc"
  }
  inner_product_param {
    num_output: 2048
    bias_term: false
    weight_filler {
      type: "uniform"
      min: -0.01
      max: 0.01
    }
    axis: 2
  }
}
layer {
  name: "lstm1_gate_input_28"
  type: "Eltwise"
  bottom: "W_hc_h_27"
  bottom: "W_xc_x_28"
  top: "gate_input_28"
  eltwise_param {
    operation: SUM
  }
}
layer {
  name: "lstm1_unit_28"
  type: "LSTMUnit"
  bottom: "c_27"
  bottom: "gate_input_28"
  bottom: "cont_28"
  top: "c_28"
  top: "h_28"
}
layer {
  name: "lstm1_h_conted_28"
  type: "Scale"
  bottom: "h_28"
  bottom: "cont_29"
  top: "h_conted_28"
  scale_param {
    axis: 0
  }
}
layer {
  name: "lstm1_transform_29"
  type: "InnerProduct"
  bottom: "h_conted_28"
  top: "W_hc_h_28"
  param {
    name: "W_hc"
  }
  inner_product_param {
    num_output: 2048
    bias_term: false
    weight_filler {
      type: "uniform"
      min: -0.01
      max: 0.01
    }
    axis: 2
  }
}
layer {
  name: "lstm1_gate_input_29"
  type: "Eltwise"
  bottom: "W_hc_h_28"
  bottom: "W_xc_x_29"
  top: "gate_input_29"
  eltwise_param {
    operation: SUM
  }
}
layer {
  name: "lstm1_unit_29"
  type: "LSTMUnit"
  bottom: "c_28"
  bottom: "gate_input_29"
  bottom: "cont_29"
  top: "c_29"
  top: "h_29"
}
layer
I1018 00:07:53.831311 30031 layer_factory.hpp:77] Creating layer lstm1_
I1018 00:07:53.832049 30031 net.cpp:84] Creating Layer lstm1_
I1018 00:07:53.832180 30031 net.cpp:380] lstm1_ -> x
I1018 00:07:53.832713 30031 net.cpp:380] lstm1_ -> cont
I1018 00:07:53.832826 30031 net.cpp:122] Setting up lstm1_
I1018 00:07:53.832840 30031 net.cpp:129] Top shape: 196 2 512 (200704)
I1018 00:07:53.832846 30031 net.cpp:129] Top shape: 196 2 (392)
I1018 00:07:53.832851 30031 net.cpp:137] Memory required for data: 804384
I1018 00:07:53.832857 30031 layer_factory.hpp:77] Creating layer lstm1_
I1018 00:07:53.832866 30031 net.cpp:84] Creating Layer lstm1_
I1018 00:07:53.832872 30031 net.cpp:380] lstm1_ -> c_0
I1018 00:07:53.832882 30031 net.cpp:380] lstm1_ -> h_0
I1018 00:07:53.832931 30031 net.cpp:122] Setting up lstm1_
I1018 00:07:53.832942 30031 net.cpp:129] Top shape: 1 2 512 (1024)
I1018 00:07:53.832947 30031 net.cpp:129] Top shape: 1 2 512 (1024)
I1018 00:07:53.832952 30031 net.cpp:137] Memory required for data: 812576
I1018 00:07:53.832957 30031 layer_factory.hpp:77] Creating layer lstm1_cont_slice
I1018 00:07:53.832991 30031 net.cpp:84] Creating Layer lstm1_cont_slice
I1018 00:07:53.833153 30031 net.cpp:406] lstm1_cont_slice <- cont
I1018 00:07:53.833441 30031 net.cpp:380] lstm1_cont_slice -> cont_1
I1018 00:07:53.833789 30031 net.cpp:380] lstm1_cont_slice -> cont_2
…
I1018 00:07:53.848505 30031 net.cpp:380] lstm1_cont_slice -> cont_190
I1018 00:07:53.848531 30031 net.cpp:380] lstm1_cont_slice -> cont_191
I1018 00:07:53.848564 30031 net.cpp:380] lstm1_cont_slice -> cont_192
I1018 00:07:53.848590 30031 net.cpp:380] lstm1_cont_slice -> cont_193
I1018 00:07:53.848616 30031 net.cpp:380] lstm1_cont_slice -> cont_194
I1018 00:07:53.848642 30031 net.cpp:380] lstm1_cont_slice -> cont_195
I1018 00:07:53.848668 30031 net.cpp:380] lstm1_cont_slice -> cont_196
I1018 00:07:53.850706 30031 net.cpp:122] Setting up lstm1_cont_slice
I1018 00:07:53.850728 30031 net.cpp:129] Top shape: 1 2 (2)
I1018 00:07:53.850738 30031 net.cpp:129] Top shape: 1 2 (2)
I1018 00:07:53.850742 30031 net.cpp:129] Top shape: 1 2 (2)
I1018 00:07:53.850746 30031 net.cpp:129] Top shape: 1 2 (2)
I1018 00:07:53.850752 30031 net.cpp:129] Top shape: 1 2 (2)
I1018 00:07:53.850756 30031 net.cpp:129] Top shape: 1 2 (2)
I1018 00:07:53.850761 30031 net.cpp:129] Top shape: 1 2 (2)
I1018 00:07:53.850765 30031 net.cpp:129] Top shape: 1 2 (2)
I1018 00:07:53.850770 30031 net.cpp:129] Top shape: 1 2 (2)
I1018 00:07:53.850775 30031 net.cpp:129] Top shape: 1 2 (2)
I1018 00:07:53.850778 30031 net.cpp:129] Top shape: 1 2 (2)
I1018 00:07:53.850783 30031 net.cpp:129] Top shape: 1 2 (2)
I1018 00:07:53.850788 30031 net.cpp:129] Top shape: 1 2 (2)
I1018 00:07:53.850792 30031 net.cpp:129] Top shape: 1 2 (2)
I1018 00:07:53.850796 30031 net.cpp:129] Top shape: 1 2 (2)
I1018 00:07:53.850801 30031 net.cpp:129] Top shape: 1 2 (2)
I1018 00:07:53.850805 30031 net.cpp:129] Top shape: 1 2 (2)
I1018 00:07:53.850811 30031 net.cpp:129] Top shape: 1 2 (2)
I1018 00:07:53.850814 30031 net.cpp:129] Top shape: 1 2 (2)
I1018 00:07:53.850818 30031 net.cpp:129] Top shape: 1 2 (2)
I1018 00:07:53.850823 30031 net.cpp:129] Top shape: 1 2 (2)
I1018 00:07:53.850827 30031 net.cpp:129] Top shape: 1 2 (2)
I1018 00:07:53.850832 30031 net.cpp:129] Top shape: 1 2 (2)
I1018 00:07:53.850836 30031 net.cpp:129] Top shape: 1 2 (2)
I1018 00:07:53.850841 30031 net.cpp:129] Top shape: 1 2 (2)
I1018 00:07:53.850845 30031 net.cpp:129] Top shape: 1 2 (2)
I1018 00:07:53.850849 30031 net.cpp:129] Top shape: 1 2 (2)
I1018 00:07:53.850854 30031 net.cpp:129] Top shape: 1 2 (2)
I1018 00:07:53.850858 30031 net.cpp:129] Top shape: 1 2 (2)
I1018 00:07:53.850863 30031 net.cpp:129] Top shape: 1 2 (2)
I1018 00:07:53.850867 30031 net.cpp:129] Top shape: 1 2 (2)
I1018 00:07:53.850872 30031 net.cpp:129] Top shape: 1 2 (2)
I1018 00:07:53.850877 30031 net.cpp:129] Top shape: 1 2 (2)
I1018 00:07:53.850881 30031 net.cpp:129] Top shape: 1 2 (2)
I1018 00:07:53.850885 30031 net.cpp:129] Top shape: 1 2 (2)
I1018 00:07:53.850890 30031 net.cpp:129] Top shape: 1 2 (2)
I1018 00:07:53.850894 30031 net.cpp:129] Top shape: 1 2 (2)
I1018 00:07:53.850898 30031 net.cpp:129] Top shape: 1 2 (2)
I1018 00:07:53.850903 30031 net.cpp:129] Top shape: 1 2 (2)
I1018 00:07:53.850908 30031 net.cpp:129] Top shape: 1 2 (2)
I1018 00:07:53.850913 30031 net.cpp:129] Top shape: 1 2 (2)
I1018 00:07:53.850916 30031 net.cpp:129] Top shape: 1 2 (2)
I1018 00:07:53.850921 30031 net.cpp:129] Top shape: 1 2 (2)
I1018 00:07:53.850925 30031 net.cpp:129] Top shape: 1 2 (2)
I1018 00:07:53.850929 30031 net.cpp:129] Top shape: 1 2 (2)
I1018 00:07:53.850934 30031 net.cpp:129] Top shape: 1 2 (2)
I1018 00:07:53.850939 30031 net.cpp:129] Top shape: 1 2 (2)
I1018 00:07:53.850944 30031 net.cpp:129] Top shape: 1 2 (2)
I1018 00:07:53.850947 30031 net.cpp:129] Top shape: 1 2 (2)
I1018 00:07:53.850952 30031 net.cpp:129] Top shape: 1 2 (2)
I1018 00:07:53.850956 30031 net.cpp:129] Top shape: 1 2 (2)
I1018 00:07:53.850961 30031 net.cpp:129] Top shape: 1 2 (2)
I1018 00:07:53.850965 30031 net.cpp:129] Top shape: 1 2 (2)
I1018 00:07:53.850970 30031 net.cpp:129] Top shape: 1 2 (2)
I1018 00:07:53.850975 30031 net.cpp:129] Top shape: 1 2 (2)
I1018 00:07:53.850978 30031 net.cpp:129] Top shape: 1 2 (2)
I1018 00:07:53.850983 30031 net.cpp:129] Top shape: 1 2 (2)
I1018 00:07:53.850987 30031 net.cpp:129] Top shape: 1 2 (2)
I1018 00:07:53.850992 30031 net.cpp:129] Top shape: 1 2 (2)
I1018 00:07:53.850996 30031 net.cpp:129] Top shape: 1 2 (2)
I1018 00:07:53.851001 30031 net.cpp:129] Top shape: 1 2 (2)
I1018 00:07:53.851006 30031 net.cpp:129] Top shape: 1 2 (2)
I1018 00:07:53.851011 30031 net.cpp:129] Top shape: 1 2 (2)
I1018 00:07:53.851016 30031 net.cpp:129] Top shape: 1 2 (2)
I1018 00:07:53.851019 30031 net.cpp:129] Top shape: 1 2 (2)
I1018 00:07:53.851027 30031 net.cpp:129] Top shape: 1 2 (2)
I1018 00:07:53.851032 30031 net.cpp:129] Top shape: 1 2 (2)
I1018 00:07:53.851037 30031 net.cpp:129] Top shape: 1 2 (2)
I1018 00:07:53.851040 30031 net.cpp:129] Top shape: 1 2 (2)
I1018 00:07:53.851045 30031 net.cpp:129] Top shape: 1 2 (2)
I1018 00:07:53.851049 30031 net.cpp:129] Top shape: 1 2 (2)
I1018 00:07:53.851054 30031 net.cpp:129] Top shape: 1 2 (2)
I1018 00:07:53.851058 30031 net.cpp:129] Top shape: 1 2 (2)
I1018 00:07:53.851063 30031 net.cpp:129] Top shape: 1 2 (2)
I1018 00:07:53.851068 30031 net.cpp:129] Top shape: 1 2 (2)
I1018 00:07:53.851071 30031 net.cpp:129] Top shape: 1 2 (2)
I1018 00:07:53.851076 30031 net.cpp:129] Top shape: 1 2 (2)
I1018 00:07:53.851080 30031 net.cpp:129] Top shape: 1 2 (2)
I1018 00:07:53.851084 30031 net.cpp:129] Top shape: 1 2 (2)
I1018 00:07:53.851089 30031 net.cpp:129] Top shape: 1 2 (2)
I1018 00:07:53.851094 30031 net.cpp:129] Top shape: 1 2 (2)
I1018 00:07:53.851099 30031 net.cpp:129] Top shape: 1 2 (2)
I1018 00:07:53.851102 30031 net.cpp:129] Top shape: 1 2 (2)
I1018 00:07:53.851106 30031 net.cpp:129] Top shape: 1 2 (2)
I1018 00:07:53.851111 30031 net.cpp:129] Top shape: 1 2 (2)
I1018 00:07:53.851115 30031 net.cpp:129] Top shape: 1 2 (2)
I1018 00:07:53.851120 30031 net.cpp:129] Top shape: 1 2 (2)
I1018 00:07:53.851125 30031 net.cpp:129] Top shape: 1 2 (2)
I1018 00:07:53.851128 30031 net.cpp:129] Top shape: 1 2 (2)
I1018 00:07:53.851133 30031 net.cpp:129] Top shape: 1 2 (2)
I1018 00:07:53.851137 30031 net.cpp:129] Top shape: 1 2 (2)
I1018 00:07:53.851142 30031 net.cpp:129] Top shape: 1 2 (2)
I1018 00:07:53.851146 30031 net.cpp:129] Top shape: 1 2 (2)
I1018 00:07:53.851150 30031 net.cpp:129] Top shape: 1 2 (2)
I1018 00:07:53.851155 30031 net.cpp:129] Top shape: 1 2 (2)
I1018 00:07:53.851160 30031 net.cpp:129] Top shape: 1 2 (2)
I1018 00:07:53.851163 30031 net.cpp:129] Top shape: 1 2 (2)
I1018 00:07:53.851168 30031 net.cpp:129] Top shape: 1 2 (2)
I1018 00:07:53.851172 30031 net.cpp:129] Top shape: 1 2 (2)
I1018 00:07:53.851177 30031 net.cpp:129] Top shape: 1 2 (2)
I1018 00:07:53.851181 30031 net.cpp:129] Top shape: 1 2 (2)
I1018 00:07:53.851186 30031 net.cpp:129] Top shape: 1 2 (2)
I1018 00:07:53.851191 30031 net.cpp:129] Top shape: 1 2 (2)
I1018 00:07:53.851194 30031 net.cpp:129] Top shape: 1 2 (2)
I1018 00:07:53.851198 30031 net.cpp:129] Top shape: 1 2 (2)
I1018 00:07:53.851203 30031 net.cpp:129] Top shape: 1 2 (2)
I1018 00:07:53.851207 30031 net.cpp:129] Top shape: 1 2 (2)
I1018 00:07:53.851212 30031 net.cpp:129] Top shape: 1 2 (2)
I1018 00:07:53.851217 30031 net.cpp:129] Top shape: 1 2 (2)
I1018 00:07:53.851220 30031 net.cpp:129] Top shape: 1 2 (2)
I1018 00:07:53.851225 30031 net.cpp:129] Top shape: 1 2 (2)
I1018 00:07:53.851229 30031 net.cpp:129] Top shape: 1 2 (2)
I1018 00:07:53.851233 30031 net.cpp:129] Top shape: 1 2 (2)
I1018 00:07:53.851238 30031 net.cpp:129] Top shape: 1 2 (2)
I1018 00:07:53.851243 30031 net.cpp:129] Top shape: 1 2 (2)
I1018 00:07:53.851248 30031 net.cpp:129] Top shape: 1 2 (2)
I1018 00:07:53.851251 30031 net.cpp:129] Top shape: 1 2 (2)
I1018 00:07:53.851255 30031 net.cpp:129] Top shape: 1 2 (2)
I1018 00:07:53.851260 30031 net.cpp:129] Top shape: 1 2 (2)
I1018 00:07:53.851264 30031 net.cpp:129] Top shape: 1 2 (2)
I1018 00:07:53.851269 30031 net.cpp:129] Top shape: 1 2 (2)
I1018 00:07:53.851274 30031 net.cpp:129] Top shape: 1 2 (2)
I1018 00:07:53.851277 30031 net.cpp:129] Top shape: 1 2 (2)
I1018 00:07:53.851282 30031 net.cpp:129] Top shape: 1 2 (2)
I1018 00:07:53.851287 30031 net.cpp:129] Top shape: 1 2 (2)
I1018 00:07:53.851291 30031 net.cpp:129] Top shape: 1 2 (2)
I1018 00:07:53.851296 30031 net.cpp:129] Top shape: 1 2 (2)
I1018 00:07:53.851300 30031 net.cpp:129] Top shape: 1 2 (2)
I1018 00:07:53.851305 30031 net.cpp:129] Top shape: 1 2 (2)
I1018 00:07:53.851310 30031 net.cpp:129] Top shape: 1 2 (2)
I1018 00:07:53.851313 30031 net.cpp:129] Top shape: 1 2 (2)
I1018 00:07:53.851318 30031 net.cpp:129] Top shape: 1 2 (2)
I1018 00:07:53.851322 30031 net.cpp:129] Top shape: 1 2 (2)
I1018 00:07:53.851327 30031 net.cpp:129] Top shape: 1 2 (2)
I1018 00:07:53.851331 30031 net.cpp:129] Top shape: 1 2 (2)
I1018 00:07:53.851336 30031 net.cpp:129] Top shape: 1 2 (2)
I1018 00:07:53.851341 30031 net.cpp:129] Top shape: 1 2 (2)
I1018 00:07:53.851344 30031 net.cpp:129] Top shape: 1 2 (2)
I1018 00:07:53.851349 30031 net.cpp:129] Top shape: 1 2 (2)
I1018 00:07:53.851353 30031 net.cpp:129] Top shape: 1 2 (2)
I1018 00:07:53.851357 30031 net.cpp:129] Top shape: 1 2 (2)
I1018 00:07:53.851362 30031 net.cpp:129] Top shape: 1 2 (2)
I1018 00:07:53.851366 30031 net.cpp:129] Top shape: 1 2 (2)
I1018 00:07:53.851372 30031 net.cpp:129] Top shape: 1 2 (2)
I1018 00:07:53.851375 30031 net.cpp:129] Top shape: 1 2 (2)
I1018 00:07:53.851380 30031 net.cpp:129] Top shape: 1 2 (2)
I1018 00:07:53.851384 30031 net.cpp:129] Top shape: 1 2 (2)
I1018 00:07:53.851389 30031 net.cpp:129] Top shape: 1 2 (2)
I1018 00:07:53.851393 30031 net.cpp:129] Top shape: 1 2 (2)
I1018 00:07:53.851397 30031 net.cpp:129] Top shape: 1 2 (2)
I1018 00:07:53.851402 30031 net.cpp:129] Top shape: 1 2 (2)
I1018 00:07:53.851406 30031 net.cpp:129] Top shape: 1 2 (2)
I1018 00:07:53.851411 30031 net.cpp:129] Top shape: 1 2 (2)
I1018 00:07:53.851415 30031 net.cpp:129] Top shape: 1 2 (2)
I1018 00:07:53.851419 30031 net.cpp:129] Top shape: 1 2 (2)
I1018 00:07:53.851424 30031 net.cpp:129] Top shape: 1 2 (2)
I1018 00:07:53.851428 30031 net.cpp:129] Top shape: 1 2 (2)
I1018 00:07:53.851433 30031 net.cpp:129] Top shape: 1 2 (2)
I1018 00:07:53.851438 30031 net.cpp:129] Top shape: 1 2 (2)
I1018 00:07:53.851441 30031 net.cpp:129] Top shape: 1 2 (2)
I1018 00:07:53.851446 30031 net.cpp:129] Top shape: 1 2 (2)
I1018 00:07:53.851450 30031 net.cpp:129] Top shape: 1 2 (2)
I1018 00:07:53.851455 30031 net.cpp:129] Top shape: 1 2 (2)
I1018 00:07:53.851459 30031 net.cpp:129] Top shape: 1 2 (2)
I1018 00:07:53.851464 30031 net.cpp:129] Top shape: 1 2 (2)
I1018 00:07:53.851469 30031 net.cpp:129] Top shape: 1 2 (2)
I1018 00:07:53.851474 30031 net.cpp:129] Top shape: 1 2 (2)
I1018 00:07:53.851477 30031 net.cpp:129] Top shape: 1 2 (2)
I1018 00:07:53.851481 30031 net.cpp:129] Top shape: 1 2 (2)
I1018 00:07:53.851486 30031 net.cpp:129] Top shape: 1 2 (2)
I1018 00:07:53.851490 30031 net.cpp:129] Top shape: 1 2 (2)
I1018 00:07:53.851495 30031 net.cpp:129] Top shape: 1 2 (2)
I1018 00:07:53.851500 30031 net.cpp:129] Top shape: 1 2 (2)
I1018 00:07:53.851505 30031 net.cpp:129] Top shape: 1 2 (2)
I1018 00:07:53.851508 30031 net.cpp:129] Top shape: 1 2 (2)
I1018 00:07:53.851512 30031 net.cpp:129] Top shape: 1 2 (2)
I1018 00:07:53.851517 30031 net.cpp:129] Top shape: 1 2 (2)
I1018 00:07:53.851521 30031 net.cpp:129] Top shape: 1 2 (2)
I1018 00:07:53.851526 30031 net.cpp:129] Top shape: 1 2 (2)
I1018 00:07:53.851531 30031 net.cpp:129] Top shape: 1 2 (2)
I1018 00:07:53.851536 30031 net.cpp:129] Top shape: 1 2 (2)
I1018 00:07:53.851539 30031 net.cpp:129] Top shape: 1 2 (2)
I1018 00:07:53.851543 30031 net.cpp:129] Top shape: 1 2 (2)
I1018 00:07:53.851548 30031 net.cpp:129] Top shape: 1 2 (2)
I1018 00:07:53.851552 30031 net.cpp:129] Top shape: 1 2 (2)
I1018 00:07:53.851557 30031 net.cpp:129] Top shape: 1 2 (2)
I1018 00:07:53.851562 30031 net.cpp:129] Top shape: 1 2 (2)
I1018 00:07:53.851565 30031 net.cpp:129] Top shape: 1 2 (2)
I1018 00:07:53.851570 30031 net.cpp:129] Top shape: 1 2 (2)
I1018 00:07:53.851574 30031 net.cpp:129] Top shape: 1 2 (2)
I1018 00:07:53.851579 30031 net.cpp:129] Top shape: 1 2 (2)
I1018 00:07:53.851583 30031 net.cpp:129] Top shape: 1 2 (2)
I1018 00:07:53.851588 30031 net.cpp:129] Top shape: 1 2 (2)
I1018 00:07:53.851593 30031 net.cpp:129] Top shape: 1 2 (2)
I1018 00:07:53.851596 30031 net.cpp:129] Top shape: 1 2 (2)
I1018 00:07:53.851601 30031 net.cpp:129] Top shape: 1 2 (2)
I1018 00:07:53.851604 30031 net.cpp:137] Memory required for data: 814144
I1018 00:07:53.851610 30031 layer_factory.hpp:77] Creating layer cont_1_lstm1_cont_slice_0_split
I1018 00:07:53.851619 30031 net.cpp:84] Creating Layer cont_1_lstm1_cont_slice_0_split
I1018 00:07:53.851626 30031 net.cpp:406] cont_1_lstm1_cont_slice_0_split <- cont_1
I1018 00:07:53.851636 30031 net.cpp:380] cont_1_lstm1_cont_slice_0_split -> cont_1_lstm1_cont_slice_0_split_0
I1018 00:07:53.851647 30031 net.cpp:380] cont_1_lstm1_cont_slice_0_split -> cont_1_lstm1_cont_slice_0_split_1
I1018 00:07:53.851686 30031 net.cpp:122] Setting up cont_1_lstm1_cont_slice_0_split
I1018 00:07:53.851692 30031 net.cpp:129] Top shape: 1 2 (2)
I1018 00:07:53.851697 30031 net.cpp:129] Top shape: 1 2 (2)
I1018 00:07:53.851701 30031 net.cpp:137] Memory required for data: 814160
I1018 00:07:53.851706 30031 layer_factory.hpp:77] Creating layer cont_2_lstm1_cont_slice_1_split
I1018 00:07:53.851716 30031 net.cpp:84] Creating Layer cont_2_lstm1_cont_slice_1_split
I1018 00:07:53.851721 30031 net.cpp:406] cont_2_lstm1_cont_slice_1_split <- cont_2
I1018 00:07:53.851727 30031 net.cpp:380] cont_2_lstm1_cont_slice_1_split -> cont_2_lstm1_cont_slice_1_split_0
I1018 00:07:53.851733 30031 net.cpp:380] cont_2_lstm1_cont_slice_1_split -> cont_2_lstm1_cont_slice_1_split_1
I1018 00:07:53.851768 30031 net.cpp:122] Setting up cont_2_lstm1_cont_slice_1_split
I1018 00:07:53.851774 30031 net.cpp:129] Top shape: 1 2 (2)
I1018 00:07:53.851779 30031 net.cpp:129] Top shape: 1 2 (2)
I1018 00:07:53.851783 30031 net.cpp:137] Memory required for data: 814176
I1018 00:07:53.851788 30031 layer_factory.hpp:77] Creating layer cont_3_lstm1_cont_slice_2_split
I1018 00:07:53.851793 30031 net.cpp:84] Creating Layer cont_3_lstm1_cont_slice_2_split
I1018 00:07:53.851796 30031 net.cpp:406] cont_3_lstm1_cont_slice_2_split <- cont_3
I1018 00:07:53.851804 30031 net.cpp:380] cont_3_lstm1_cont_slice_2_split -> cont_3_lstm1_cont_slice_2_split_0
I1018 00:07:53.851811 30031 net.cpp:380] cont_3_lstm1_cont_slice_2_split -> cont_3_lstm1_cont_slice_2_split_1
I1018 00:07:53.851842 30031 net.cpp:122] Setting up cont_3_lstm1_cont_slice_2_split
I1018 00:07:53.851850 30031 net.cpp:129] Top shape: 1 2 (2)
I1018 00:07:53.851855 30031 net.cpp:129] Top shape: 1 2 (2)
I1018 00:07:53.851857 30031 net.cpp:137] Memory required for data: 814192
I1018 00:07:53.851861 30031 layer_factory.hpp:77] Creating layer cont_4_lstm1_cont_slice_3_split
I1018 00:07:53.851867 30031 net.cpp:84] Creating Layer cont_4_lstm1_cont_slice_3_split
I1018 00:07:53.851871 30031 net.cpp:406] cont_4_lstm1_cont_slice_3_split <- cont_4
I1018 00:07:53.851876 30031 net.cpp:380] cont_4_lstm1_cont_slice_3_split -> cont_4_lstm1_cont_slice_3_split_0
I1018 00:07:53.851883 30031 net.cpp:380] cont_4_lstm1_cont_slice_3_split -> cont_4_lstm1_cont_slice_3_split_1
I1018 00:07:53.851915 30031 net.cpp:122] Setting up cont_4_lstm1_cont_slice_3_split
I1018 00:07:53.851920 30031 net.cpp:129] Top shape: 1 2 (2)
I1018 00:07:53.851925 30031 net.cpp:129] Top shape: 1 2 (2)
I1018 00:07:53.851929 30031 net.cpp:137] Memory required for data: 814208
I1018 00:07:53.851933 30031 layer_factory.hpp:77] Creating layer cont_5_lstm1_cont_slice_4_split
I1018 00:07:53.851938 30031 net.cpp:84] Creating Layer cont_5_lstm1_cont_slice_4_split
I1018 00:07:53.851943 30031 net.cpp:406] cont_5_lstm1_cont_slice_4_split <- cont_5
I1018 00:07:53.851950 30031 net.cpp:380] cont_5_lstm1_cont_slice_4_split -> cont_5_lstm1_cont_slice_4_split_0
I1018 00:07:53.851958 30031 net.cpp:380] cont_5_lstm1_cont_slice_4_split -> cont_5_lstm1_cont_slice_4_split_1
I1018 00:07:53.851987 30031 net.cpp:122] Setting up cont_5_lstm1_cont_slice_4_split
I1018 00:07:53.851994 30031 net.cpp:129] Top shape: 1 2 (2)
I1018 00:07:53.851999 30031 net.cpp:129] Top shape: 1 2 (2)
I1018 00:07:53.852001 30031 net.cpp:137] Memory required for data: 814224
I1018 00:07:53.852005 30031 layer_factory.hpp:77] Creating layer cont_6_lstm1_cont_slice_5_split
I1018 00:07:53.852015 30031 net.cpp:84] Creating Layer cont_6_lstm1_cont_slice_5_split
I1018 00:07:53.852018 30031 net.cpp:406] cont_6_lstm1_cont_slice_5_split <- cont_6
I1018 00:07:53.852025 30031 net.cpp:380] cont_6_lstm1_cont_slice_5_split -> cont_6_lstm1_cont_slice_5_split_0
I1018 00:07:53.852037 30031 net.cpp:380] cont_6_lstm1_cont_slice_5_split -> cont_6_lstm1_cont_slice_5_split_1
I1018 00:07:53.852069 30031 net.cpp:122] Setting up cont_6_lstm1_cont_slice_5_split
I1018 00:07:53.852075 30031 net.cpp:129] Top shape: 1 2 (2)
I1018 00:07:53.852080 30031 net.cpp:129] Top shape: 1 2 (2)
I1018 00:07:53.852084 30031 net.cpp:137] Memory required for data: 814240
I1018 00:07:53.852088 30031 layer_factory.hpp:77] Creating layer cont_7_lstm1_cont_slice_6_split
I1018 00:07:53.852093 30031 net.cpp:84] Creating Layer cont_7_lstm1_cont_slice_6_split
I1018 00:07:53.852097 30031 net.cpp:406] cont_7_lstm1_cont_slice_6_split <- cont_7
I1018 00:07:53.852103 30031 net.cpp:380] cont_7_lstm1_cont_slice_6_split -> cont_7_lstm1_cont_slice_6_split_0
I1018 00:07:53.852109 30031 net.cpp:380] cont_7_lstm1_cont_slice_6_split -> cont_7_lstm1_cont_slice_6_split_1
I1018 00:07:53.852140 30031 net.cpp:122] Setting up cont_7_lstm1_cont_slice_6_split
I1018 00:07:53.852146 30031 net.cpp:129] Top shape: 1 2 (2)
I1018 00:07:53.852150 30031 net.cpp:129] Top shape: 1 2 (2)
I1018 00:07:53.852154 30031 net.cpp:137] Memory required for data: 814256
I1018 00:07:53.852159 30031 layer_factory.hpp:77] Creating layer cont_8_lstm1_cont_slice_7_split
I1018 00:07:53.852164 30031 net.cpp:84] Creating Layer cont_8_lstm1_cont_slice_7_split
I1018 00:07:53.852167 30031 net.cpp:406] cont_8_lstm1_cont_slice_7_split <- cont_8
I1018 00:07:53.852175 30031 net.cpp:380] cont_8_lstm1_cont_slice_7_split -> cont_8_lstm1_cont_slice_7_split_0
I1018 00:07:53.852182 30031 net.cpp:380] cont_8_lstm1_cont_slice_7_split -> cont_8_lstm1_cont_slice_7_split_1
I1018 00:07:53.852210 30031 net.cpp:122] Setting up cont_8_lstm1_cont_slice_7_split
I1018 00:07:53.852216 30031 net.cpp:129] Top shape: 1 2 (2)
I1018 00:07:53.852221 30031 net.cpp:129] Top shape: 1 2 (2)
I1018 00:07:53.852224 30031 net.cpp:137] Memory required for data: 814272
I1018 00:07:53.852228 30031 layer_factory.hpp:77] Creating layer cont_9_lstm1_cont_slice_8_split
I1018 00:07:53.852236 30031 net.cpp:84] Creating Layer cont_9_lstm1_cont_slice_8_split
I1018 00:07:53.852239 30031 net.cpp:406] cont_9_lstm1_cont_slice_8_split <- cont_9
I1018 00:07:53.852246 30031 net.cpp:380] cont_9_lstm1_cont_slice_8_split -> cont_9_lstm1_cont_slice_8_split_0
I1018 00:07:53.852252 30031 net.cpp:380] cont_9_lstm1_cont_slice_8_split -> cont_9_lstm1_cont_slice_8_split_1
I1018 00:07:53.852282 30031 net.cpp:122] Setting up cont_9_lstm1_cont_slice_8_split
I1018 00:07:53.852288 30031 net.cpp:129] Top shape: 1 2 (2)
I1018 00:07:53.852293 30031 net.cpp:129] Top shape: 1 2 (2)
I1018 00:07:53.852295 30031 net.cpp:137] Memory required for data: 814288
I1018 00:07:53.852299 30031 layer_factory.hpp:77] Creating layer cont_10_lstm1_cont_slice_9_split
I1018 00:07:53.852305 30031 net.cpp:84] Creating Layer cont_10_lstm1_cont_slice_9_split
I1018 00:07:53.852309 30031 net.cpp:406] cont_10_lstm1_cont_slice_9_split <- cont_10
I1018 00:07:53.852315 30031 net.cpp:380] cont_10_lstm1_cont_slice_9_split -> cont_10_lstm1_cont_slice_9_split_0
I1018 00:07:53.852322 30031 net.cpp:380] cont_10_lstm1_cont_slice_9_split -> cont_10_lstm1_cont_slice_9_split_1
I1018 00:07:53.852351 30031 net.cpp:122] Setting up cont_10_lstm1_cont_slice_9_split
I1018 00:07:53.852357 30031 net.cpp:129] Top shape: 1 2 (2)
I1018 00:07:53.852362 30031 net.cpp:129] Top shape: 1 2 (2)
I1018 00:07:53.852365 30031 net.cpp:137] Memory required for data: 814304
I1018 00:07:53.852370 30031 layer_factory.hpp:77] Creating layer cont_11_lstm1_cont_slice_10_split
I1018 00:07:53.852375 30031 net.cpp:84] Creating Layer cont_11_lstm1_cont_slice_10_split
I1018 00:07:53.852380 30031 net.cpp:406] cont_11_lstm1_cont_slice_10_split <- cont_11
I1018 00:07:53.852385 30031 net.cpp:380] cont_11_lstm1_cont_slice_10_split -> cont_11_lstm1_cont_slice_10_split_0
I1018 00:07:53.852392 30031 net.cpp:380] cont_11_lstm1_cont_slice_10_split -> cont_11_lstm1_cont_slice_10_split_1
I1018 00:07:53.852421 30031 net.cpp:122] Setting up cont_11_lstm1_cont_slice_10_split
I1018 00:07:53.852427 30031 net.cpp:129] Top shape: 1 2 (2)
I1018 00:07:53.852432 30031 net.cpp:129] Top shape: 1 2 (2)
I1018 00:07:53.852435 30031 net.cpp:137] Memory required for data: 814320
I1018 00:07:53.852439 30031 layer_factory.hpp:77] Creating layer cont_12_lstm1_cont_slice_11_split
I1018 00:07:53.852445 30031 net.cpp:84] Creating Layer cont_12_lstm1_cont_slice_11_split
I1018 00:07:53.852449 30031 net.cpp:406] cont_12_lstm1_cont_slice_11_split <- cont_12
I1018 00:07:53.852458 30031 net.cpp:380] cont_12_lstm1_cont_slice_11_split -> cont_12_lstm1_cont_slice_11_split_0
I1018 00:07:53.852464 30031 net.cpp:380] cont_12_lstm1_cont_slice_11_split -> cont_12_lstm1_cont_slice_11_split_1
I1018 00:07:53.852495 30031 net.cpp:122] Setting up cont_12_lstm1_cont_slice_11_split
I1018 00:07:53.852501 30031 net.cpp:129] Top shape: 1 2 (2)
I1018 00:07:53.852506 30031 net.cpp:129] Top shape: 1 2 (2)
I1018 00:07:53.852509 30031 net.cpp:137] Memory required for data: 814336
I1018 00:07:53.852514 30031 layer_factory.hpp:77] Creating layer cont_13_lstm1_cont_slice_12_split
I1018 00:07:53.852520 30031 net.cpp:84] Creating Layer cont_13_lstm1_cont_slice_12_split
I1018 00:07:53.852525 30031 net.cpp:406] cont_13_lstm1_cont_slice_12_split <- cont_13
I1018 00:07:53.852531 30031 net.cpp:380] cont_13_lstm1_cont_slice_12_split -> cont_13_lstm1_cont_slice_12_split_0
I1018 00:07:53.852538 30031 net.cpp:380] cont_13_lstm1_cont_slice_12_split -> cont_13_lstm1_cont_slice_12_split_1
I1018 00:07:53.852567 30031 net.cpp:122] Setting up cont_13_lstm1_cont_slice_12_split
I1018 00:07:53.852573 30031 net.cpp:129] Top shape: 1 2 (2)
I1018 00:07:53.852578 30031 net.cpp:129] Top shape: 1 2 (2)
I1018 00:07:53.852581 30031 net.cpp:137] Memory required for data: 814352
I1018 00:07:53.852586 30031 layer_factory.hpp:77] Creating layer cont_14_lstm1_cont_slice_13_split
I1018 00:07:53.852593 30031 net.cpp:84] Creating Layer cont_14_lstm1_cont_slice_13_split
I1018 00:07:53.852598 30031 net.cpp:406] cont_14_lstm1_cont_slice_13_split <- cont_14
I1018 00:07:53.852603 30031 net.cpp:380] cont_14_lstm1_cont_slice_13_split -> cont_14_lstm1_cont_slice_13_split_0
I1018 00:07:53.852612 30031 net.cpp:380] cont_14_lstm1_cont_slice_13_split -> cont_14_lstm1_cont_slice_13_split_1
I1018 00:07:53.852643 30031 net.cpp:122] Setting up cont_14_lstm1_cont_slice_13_split
I1018 00:07:53.852648 30031 net.cpp:129] Top shape: 1 2 (2)
I1018 00:07:53.852653 30031 net.cpp:129] Top shape: 1 2 (2)
I1018 00:07:53.852656 30031 net.cpp:137] Memory required for data: 814368
I1018 00:07:53.852660 30031 layer_factory.hpp:77] Creating layer cont_15_lstm1_cont_slice_14_split
I1018 00:07:53.852666 30031 net.cpp:84] Creating Layer cont_15_lstm1_cont_slice_14_split
I1018 00:07:53.852670 30031 net.cpp:406] cont_15_lstm1_cont_slice_14_split <- cont_15
I1018 00:07:53.852677 30031 net.cpp:380] cont_15_lstm1_cont_slice_14_split -> cont_15_lstm1_cont_slice_14_split_0
I1018 00:07:53.852684 30031 net.cpp:380] cont_15_lstm1_cont_slice_14_split -> cont_15_lstm1_cont_slice_14_split_1
I1018 00:07:53.852711 30031 net.cpp:122] Setting up cont_15_lstm1_cont_slice_14_split
I1018 00:07:53.852717 30031 net.cpp:129] Top shape: 1 2 (2)
I1018 00:07:53.852722 30031 net.cpp:129] Top shape: 1 2 (2)
I1018 00:07:53.852725 30031 net.cpp:137] Memory required for data: 814384
I1018 00:07:53.852730 30031 layer_factory.hpp:77] Creating layer cont_16_lstm1_cont_slice_15_split
I1018 00:07:53.852740 30031 net.cpp:84] Creating Layer cont_16_lstm1_cont_slice_15_split
I1018 00:07:53.852744 30031 net.cpp:406] cont_16_lstm1_cont_slice_15_split <- cont_16
I1018 00:07:53.852751 30031 net.cpp:380] cont_16_lstm1_cont_slice_15_split -> cont_16_lstm1_cont_slice_15_split_0
I1018 00:07:53.852757 30031 net.cpp:380] cont_16_lstm1_cont_slice_15_split -> cont_16_lstm1_cont_slice_15_split_1
I1018 00:07:53.852787 30031 net.cpp:122] Setting up cont_16_lstm1_cont_slice_15_split
I1018 00:07:53.852793 30031 net.cpp:129] Top shape: 1 2 (2)
I1018 00:07:53.852798 30031 net.cpp:129] Top shape: 1 2 (2)
I1018 00:07:53.852802 30031 net.cpp:137] Memory required for data: 814400
I1018 00:07:53.852805 30031 layer_factory.hpp:77] Creating layer cont_17_lstm1_cont_slice_16_split
I1018 00:07:53.852811 30031 net.cpp:84] Creating Layer cont_17_lstm1_cont_slice_16_split
I1018 00:07:53.852815 30031 net.cpp:406] cont_17_lstm1_cont_slice_16_split <- cont_17
I1018 00:07:53.852821 30031 net.cpp:380] cont_17_lstm1_cont_slice_16_split -> cont_17_lstm1_cont_slice_16_split_0
I1018 00:07:53.852828 30031 net.cpp:380] cont_17_lstm1_cont_slice_16_split -> cont_17_lstm1_cont_slice_16_split_1
I1018 00:07:53.852859 30031 net.cpp:122] Setting up cont_17_lstm1_cont_slice_16_split
I1018 00:07:53.852864 30031 net.cpp:129] Top shape: 1 2 (2)
I1018 00:07:53.852869 30031 net.cpp:129] Top shape: 1 2 (2)
I1018 00:07:53.852872 30031 net.cpp:137] Memory required for data: 814416
I1018 00:07:53.852876 30031 layer_factory.hpp:77] Creating layer cont_18_lstm1_cont_slice_17_split
I1018 00:07:53.852881 30031 net.cpp:84] Creating Layer cont_18_lstm1_cont_slice_17_split
I1018 00:07:53.852885 30031 net.cpp:406] cont_18_lstm1_cont_slice_17_split <- cont_18
I1018 00:07:53.852891 30031 net.cpp:380] cont_18_lstm1_cont_slice_17_split -> cont_18_lstm1_cont_slice_17_split_0
I1018 00:07:53.852900 30031 net.cpp:380] cont_18_lstm1_cont_slice_17_split -> cont_18_lstm1_cont_slice_17_split_1
I1018 00:07:53.852927 30031 net.cpp:122] Setting up cont_18_lstm1_cont_slice_17_split
I1018 00:07:53.852933 30031 net.cpp:129] Top shape: 1 2 (2)
I1018 00:07:53.852938 30031 net.cpp:129] Top shape: 1 2 (2)
I1018 00:07:53.852941 30031 net.cpp:137] Memory required for data: 814432
I1018 00:07:53.852946 30031 layer_factory.hpp:77] Creating layer cont_19_lstm1_cont_slice_18_split
I1018 00:07:53.852952 30031 net.cpp:84] Creating Layer cont_19_lstm1_cont_slice_18_split
I1018 00:07:53.852957 30031 net.cpp:406] cont_19_lstm1_cont_slice_18_split <- cont_19
I1018 00:07:53.852963 30031 net.cpp:380] cont_19_lstm1_cont_slice_18_split -> cont_19_lstm1_cont_slice_18_split_0
I1018 00:07:53.852969 30031 net.cpp:380] cont_19_lstm1_cont_slice_18_split -> cont_19_lstm1_cont_slice_18_split_1
I1018 00:07:53.852999 30031 net.cpp:122] Setting up cont_19_lstm1_cont_slice_18_split
I1018 00:07:53.853005 30031 net.cpp:129] Top shape: 1 2 (2)
I1018 00:07:53.853009 30031 net.cpp:129] Top shape: 1 2 (2)
I1018 00:07:53.853013 30031 net.cpp:137] Memory required for data: 814448
I1018 00:07:53.853018 30031 layer_factory.hpp:77] Creating layer cont_20_lstm1_cont_slice_19_split
I1018 00:07:53.853024 30031 net.cpp:84] Creating Layer cont_20_lstm1_cont_slice_19_split
I1018 00:07:53.853027 30031 net.cpp:406] cont_20_lstm1_cont_slice_19_split <- cont_20
I1018 00:07:53.853034 30031 net.cpp:380] cont_20_lstm1_cont_slice_19_split -> cont_20_lstm1_cont_slice_19_split_0
I1018 00:07:53.853040 30031 net.cpp:380] cont_20_lstm1_cont_slice_19_split -> cont_20_lstm1_cont_slice_19_split_1
I1018 00:07:53.853070 30031 net.cpp:122] Setting up cont_20_lstm1_cont_slice_19_split
I1018 00:07:53.853075 30031 net.cpp:129] Top shape: 1 2 (2)
I1018 00:07:53.853080 30031 net.cpp:129] Top shape: 1 2 (2)
I1018 00:07:53.853083 30031 net.cpp:137] Memory required for data: 814464
I1018 00:07:53.853087 30031 layer_factory.hpp:77] Creating layer cont_21_lstm1_cont_slice_20_split
I1018 00:07:53.853092 30031 net.cpp:84] Creating Layer cont_21_lstm1_cont_slice_20_split
I1018 00:07:53.853097 30031 net.cpp:406] cont_21_lstm1_cont_slice_20_split <- cont_21
I1018 00:07:53.853102 30031 net.cpp:380] cont_21_lstm1_cont_slice_20_split -> cont_21_lstm1_cont_slice_20_split_0
I1018 00:07:53.853109 30031 net.cpp:380] cont_21_lstm1_cont_slice_20_split -> cont_21_lstm1_cont_slice_20_split_1
I1018 00:07:53.853137 30031 net.cpp:122] Setting up cont_21_lstm1_cont_slice_20_split
I1018 00:07:53.853143 30031 net.cpp:129] Top shape: 1 2 (2)
I1018 00:07:53.853148 30031 net.cpp:129] Top shape: 1 2 (2)
I1018 00:07:53.853152 30031 net.cpp:137] Memory required for data: 814480
I1018 00:07:53.853155 30031 layer_factory.hpp:77] Creating layer cont_22_lstm1_cont_slice_21_split
I1018 00:07:53.853160 30031 net.cpp:84] Creating Layer cont_22_lstm1_cont_slice_21_split
I1018 00:07:53.853165 30031 net.cpp:406] cont_22_lstm1_cont_slice_21_split <- cont_22
I1018 00:07:53.853173 30031 net.cpp:380] cont_22_lstm1_cont_slice_21_split -> cont_22_lstm1_cont_slice_21_split_0
I1018 00:07:53.853179 30031 net.cpp:380] cont_22_lstm1_cont_slice_21_split -> cont_22_lstm1_cont_slice_21_split_1
I1018 00:07:53.853206 30031 net.cpp:122] Setting up cont_22_lstm1_cont_slice_21_split
I1018 00:07:53.853211 30031 net.cpp:129] Top shape: 1 2 (2)
I1018 00:07:53.853216 30031 net.cpp:129] Top shape: 1 2 (2)
I1018 00:07:53.853220 30031 net.cpp:137] Memory required for data: 814496
I1018 00:07:53.853224 30031 layer_factory.hpp:77] Creating layer cont_23_lstm1_cont_slice_22_split
I1018 00:07:53.853233 30031 net.cpp:84] Creating Layer cont_23_lstm1_cont_slice_22_split
I1018 00:07:53.853237 30031 net.cpp:406] cont_23_lstm1_cont_slice_22_split <- cont_23
I1018 00:07:53.853243 30031 net.cpp:380] cont_23_lstm1_cont_slice_22_split -> cont_23_lstm1_cont_slice_22_split_0
I1018 00:07:53.853250 30031 net.cpp:380] cont_23_lstm1_cont_slice_22_split -> cont_23_lstm1_cont_slice_22_split_1
I1018 00:07:53.853279 30031 net.cpp:122] Setting up cont_23_lstm1_cont_slice_22_split
I1018 00:07:53.853286 30031 net.cpp:129] Top shape: 1 2 (2)
I1018 00:07:53.853291 30031 net.cpp:129] Top shape: 1 2 (2)
I1018 00:07:53.853294 30031 net.cpp:137] Memory required for data: 814512
I1018 00:07:53.853297 30031 layer_factory.hpp:77] Creating layer cont_24_lstm1_cont_slice_23_split
I1018 00:07:53.853303 30031 net.cpp:84] Creating Layer cont_24_lstm1_cont_slice_23_split
I1018 00:07:53.853307 30031 net.cpp:406] cont_24_lstm1_cont_slice_23_split <- cont_24
I1018 00:07:53.853312 30031 net.cpp:380] cont_24_lstm1_cont_slice_23_split -> cont_24_lstm1_cont_slice_23_split_0
I1018 00:07:53.853319 30031 net.cpp:380] cont_24_lstm1_cont_slice_23_split -> cont_24_lstm1_cont_slice_23_split_1
I1018 00:07:53.853348 30031 net.cpp:122] Setting up cont_24_lstm1_cont_slice_23_split
I1018 00:07:53.853354 30031 net.cpp:129] Top shape: 1 2 (2)
I1018 00:07:53.853359 30031 net.cpp:129] Top shape: 1 2 (2)
I1018 00:07:53.853363 30031 net.cpp:137] Memory required for data: 814528
I1018 00:07:53.853366 30031 layer_factory.hpp:77] Creating layer cont_25_lstm1_cont_slice_24_split
I1018 00:07:53.853371 30031 net.cpp:84] Creating Layer cont_25_lstm1_cont_slice_24_split
I1018 00:07:53.853375 30031 net.cpp:406] cont_25_lstm1_cont_slice_24_split <- cont_25
I1018 00:07:53.853381 30031 net.cpp:380] cont_25_lstm1_cont_slice_24_split -> cont_25_lstm1_cont_slice_24_split_0
I1018 00:07:53.853387 30031 net.cpp:380] cont_25_lstm1_cont_slice_24_split -> cont_25_lstm1_cont_slice_24_split_1
I1018 00:07:53.853416 30031 net.cpp:122] Setting up cont_25_lstm1_cont_slice_24_split
I1018 00:07:53.853422 30031 net.cpp:129] Top shape: 1 2 (2)
I1018 00:07:53.853426 30031 net.cpp:129] Top shape: 1 2 (2)
I1018 00:07:53.853430 30031 net.cpp:137] Memory required for data: 814544
I1018 00:07:53.853435 30031 layer_factory.hpp:77] Creating layer cont_26_lstm1_cont_slice_25_split
I1018 00:07:53.853440 30031 net.cpp:84] Creating Layer cont_26_lstm1_cont_slice_25_split
I1018 00:07:53.853443 30031 net.cpp:406] cont_26_lstm1_cont_slice_25_split <- cont_26
I1018 00:07:53.853451 30031 net.cpp:380] cont_26_lstm1_cont_slice_25_split -> cont_26_lstm1_cont_slice_25_split_0
I1018 00:07:53.853457 30031 net.cpp:380] cont_26_lstm1_cont_slice_25_split -> cont_26_lstm1_cont_slice_25_split_1
I1018 00:07:53.853487 30031 net.cpp:122] Setting up cont_26_lstm1_cont_slice_25_split
I1018 00:07:53.853492 30031 net.cpp:129] Top shape: 1 2 (2)
I1018 00:07:53.853497 30031 net.cpp:129] Top shape: 1 2 (2)
I1018 00:07:53.853500 30031 net.cpp:137] Memory required for data: 814560
I1018 00:07:53.853504 30031 layer_factory.hpp:77] Creating layer cont_27_lstm1_cont_slice_26_split
I1018 00:07:53.853510 30031 net.cpp:84] Creating Layer cont_27_lstm1_cont_slice_26_split
I1018 00:07:53.853514 30031 net.cpp:406] cont_27_lstm1_cont_slice_26_split <- cont_27
I1018 00:07:53.853519 30031 net.cpp:380] cont_27_lstm1_cont_slice_26_split -> cont_27_lstm1_cont_slice_26_split_0
I1018 00:07:53.853526 30031 net.cpp:380] cont_27_lstm1_cont_slice_26_split -> cont_27_lstm1_cont_slice_26_split_1
I1018 00:07:53.853555 30031 net.cpp:122] Setting up cont_27_lstm1_cont_slice_26_split
I1018 00:07:53.853560 30031 net.cpp:129] Top shape: 1 2 (2)
I1018 00:07:53.853565 30031 net.cpp:129] Top shape: 1 2 (2)
I1018 00:07:53.853569 30031 net.cpp:137] Memory required for data: 814576
I1018 00:07:53.853572 30031 layer_factory.hpp:77] Creating layer cont_28_lstm1_cont_slice_27_split
I1018 00:07:53.853579 30031 net.cpp:84] Creating Layer cont_28_lstm1_cont_slice_27_split
I1018 00:07:53.853582 30031 net.cpp:406] cont_28_lstm1_cont_slice_27_split <- cont_28
I1018 00:07:53.853587 30031 net.cpp:380] cont_28_lstm1_cont_slice_27_split -> cont_28_lstm1_cont_slice_27_split_0
I1018 00:07:53.853595 30031 net.cpp:380] cont_28_lstm1_cont_slice_27_split -> cont_28_lstm1_cont_slice_27_split_1
I1018 00:07:53.853623 30031 net.cpp:122] Setting up cont_28_lstm1_cont_slice_27_split
I1018 00:07:53.853629 30031 net.cpp:129] Top shape: 1 2 (2)
I1018 00:07:53.853634 30031 net.cpp:129] Top shape: 1 2 (2)
I1018 00:07:53.853637 30031 net.cpp:137] Memory required for data: 814592
I1018 00:07:53.853641 30031 layer_factory.hpp:77] Creating layer cont_29_lstm1_cont_slice_28_split
I1018 00:07:53.853646 30031 net.cpp:84] Creating Layer cont_29_lstm1_cont_slice_28_split
I1018 00:07:53.853651 30031 net.cpp:406] cont_29_lstm1_cont_slice_28_split <- cont_29
I1018 00:07:53.853657 30031 net.cpp:380] cont_29_lstm1_cont_slice_28_split -> cont_29_lstm1_cont_slice_28_split_0
I1018 00:07:53.853680 30031 net.cpp:380] cont_29_lstm1_cont_slice_28_split -> cont_29_lstm1_cont_slice_28_split_1
I1018 00:07:53.853714 30031 net.cpp:122] Setting up cont_29_lstm1_cont_slice_28_split
I1018 00:07:53.853721 30031 net.cpp:129] Top shape: 1 2 (2)
I1018 00:07:53.853725 30031 net.cpp:129] Top shape: 1 2 (2)
I1018 00:07:53.853729 30031 net.cpp:137] Memory required for data: 814608
I1018 00:07:53.853734 30031 layer_factory.hpp:77] Creating layer cont_30_lstm1_cont_slice_29_split
I1018 00:07:53.853744 30031 net.cpp:84] Creating Layer cont_30_lstm1_cont_slice_29_split
I1018 00:07:53.853749 30031 net.cpp:406] cont_30_lstm1_cont_slice_29_split <- cont_30
I1018 00:07:53.853754 30031 net.cpp:380] cont_30_lstm1_cont_slice_29_split -> cont_30_lstm1_cont_slice_29_split_0
I1018 00:07:53.853761 30031 net.cpp:380] cont_30_lstm1_cont_slice_29_split -> cont_30_lstm1_cont_slice_29_split_1
I1018 00:07:53.853791 30031 net.cpp:122] Setting up cont_30_lstm1_cont_slice_29_split
I1018 00:07:53.853797 30031 net.cpp:129] Top shape: 1 2 (2)
I1018 00:07:53.853802 30031 net.cpp:129] Top shape: 1 2 (2)
I1018 00:07:53.853806 30031 net.cpp:137] Memory required for data: 814624
I1018 00:07:53.853809 30031 layer_factory.hpp:77] Creating layer cont_31_lstm1_cont_slice_30_split
I1018 00:07:53.853814 30031 net.cpp:84] Creating Layer cont_31_lstm1_cont_slice_30_split
I1018 00:07:53.853819 30031 net.cpp:406] cont_31_lstm1_cont_slice_30_split <- cont_31
I1018 00:07:53.853824 30031 net.cpp:380] cont_31_lstm1_cont_slice_30_split -> cont_31_lstm1_cont_slice_30_split_0
I1018 00:07:53.853832 30031 net.cpp:380] cont_31_lstm1_cont_slice_30_split -> cont_31_lstm1_cont_slice_30_split_1
I1018 00:07:53.853860 30031 net.cpp:122] Setting up cont_31_lstm1_cont_slice_30_split
I1018 00:07:53.853866 30031 net.cpp:129] Top shape: 1 2 (2)
I1018 00:07:53.853871 30031 net.cpp:129] Top shape: 1 2 (2)
I1018 00:07:53.853874 30031 net.cpp:137] Memory required for data: 814640
I1018 00:07:53.853878 30031 layer_factory.hpp:77] Creating layer cont_32_lstm1_cont_slice_31_split
I1018 00:07:53.853883 30031 net.cpp:84] Creating Layer cont_32_lstm1_cont_slice_31_split
I1018 00:07:53.853888 30031 net.cpp:406] cont_32_lstm1_cont_slice_31_split <- cont_32
I1018 00:07:53.853893 30031 net.cpp:380] cont_32_lstm1_cont_slice_31_split -> cont_32_lstm1_cont_slice_31_split_0
I1018 00:07:53.853899 30031 net.cpp:380] cont_32_lstm1_cont_slice_31_split -> cont_32_lstm1_cont_slice_31_split_1
I1018 00:07:53.853929 30031 net.cpp:122] Setting up cont_32_lstm1_cont_slice_31_split
I1018 00:07:53.853935 30031 net.cpp:129] Top shape: 1 2 (2)
I1018 00:07:53.853940 30031 net.cpp:129] Top shape: 1 2 (2)
I1018 00:07:53.853942 30031 net.cpp:137] Memory required for data: 814656
I1018 00:07:53.853946 30031 layer_factory.hpp:77] Creating layer cont_33_lstm1_cont_slice_32_split
I1018 00:07:53.853951 30031 net.cpp:84] Creating Layer cont_33_lstm1_cont_slice_32_split
I1018 00:07:53.853955 30031 net.cpp:406] cont_33_lstm1_cont_slice_32_split <- cont_33
I1018 00:07:53.853962 30031 net.cpp:380] cont_33_lstm1_cont_slice_32_split -> cont_33_lstm1_cont_slice_32_split_0
I1018 00:07:53.853970 30031 net.cpp:380] cont_33_lstm1_cont_slice_32_split -> cont_33_lstm1_cont_slice_32_split_1
I1018 00:07:53.853996 30031 net.cpp:122] Setting up cont_33_lstm1_cont_slice_32_split
I1018 00:07:53.854002 30031 net.cpp:129] Top shape: 1 2 (2)
I1018 00:07:53.854007 30031 net.cpp:129] Top shape: 1 2 (2)
I1018 00:07:53.854010 30031 net.cpp:137] Memory required for data: 814672
I1018 00:07:53.854014 30031 layer_factory.hpp:77] Creating layer cont_34_lstm1_cont_slice_33_split
I1018 00:07:53.854022 30031 net.cpp:84] Creating Layer cont_34_lstm1_cont_slice_33_split
I1018 00:07:53.854025 30031 net.cpp:406] cont_34_lstm1_cont_slice_33_split <- cont_34
I1018 00:07:53.854032 30031 net.cpp:380] cont_34_lstm1_cont_slice_33_split -> cont_34_lstm1_cont_slice_33_split_0
I1018 00:07:53.854038 30031 net.cpp:380] cont_34_lstm1_cont_slice_33_split -> cont_34_lstm1_cont_slice_33_split_1
I1018 00:07:53.854068 30031 net.cpp:122] Setting up cont_34_lstm1_cont_slice_33_split
I1018 00:07:53.854074 30031 net.cpp:129] Top shape: 1 2 (2)
I1018 00:07:53.854077 30031 net.cpp:129] Top shape: 1 2 (2)
I1018 00:07:53.854081 30031 net.cpp:137] Memory required for data: 814688
I1018 00:07:53.854084 30031 layer_factory.hpp:77] Creating layer cont_35_lstm1_cont_slice_34_split
I1018 00:07:53.854089 30031 net.cpp:84] Creating Layer cont_35_lstm1_cont_slice_34_split
I1018 00:07:53.854094 30031 net.cpp:406] cont_35_lstm1_cont_slice_34_split <- cont_35
I1018 00:07:53.854099 30031 net.cpp:380] cont_35_lstm1_cont_slice_34_split -> cont_35_lstm1_cont_slice_34_split_0
I1018 00:07:53.854106 30031 net.cpp:380] cont_35_lstm1_cont_slice_34_split -> cont_35_lstm1_cont_slice_34_split_1
I1018 00:07:53.854135 30031 net.cpp:122] Setting up cont_35_lstm1_cont_slice_34_split
I1018 00:07:53.854141 30031 net.cpp:129] Top shape: 1 2 (2)
I1018 00:07:53.854146 30031 net.cpp:129] Top shape: 1 2 (2)
I1018 00:07:53.854151 30031 net.cpp:137] Memory required for data: 814704
I1018 00:07:53.854153 30031 layer_factory.hpp:77] Creating layer cont_36_lstm1_cont_slice_35_split
I1018 00:07:53.854158 30031 net.cpp:84] Creating Layer cont_36_lstm1_cont_slice_35_split
I1018 00:07:53.854162 30031 net.cpp:406] cont_36_lstm1_cont_slice_35_split <- cont_36
I1018 00:07:53.854168 30031 net.cpp:380] cont_36_lstm1_cont_slice_35_split -> cont_36_lstm1_cont_slice_35_split_0
I1018 00:07:53.854176 30031 net.cpp:380] cont_36_lstm1_cont_slice_35_split -> cont_36_lstm1_cont_slice_35_split_1
I1018 00:07:53.854203 30031 net.cpp:122] Setting up cont_36_lstm1_cont_slice_35_split
I1018 00:07:53.854209 30031 net.cpp:129] Top shape: 1 2 (2)
I1018 00:07:53.854214 30031 net.cpp:129] Top shape: 1 2 (2)
I1018 00:07:53.854218 30031 net.cpp:137] Memory required for data: 814720
I1018 00:07:53.854221 30031 layer_factory.hpp:77] Creating layer cont_37_lstm1_cont_slice_36_split
I1018 00:07:53.854229 30031 net.cpp:84] Creating Layer cont_37_lstm1_cont_slice_36_split
I1018 00:07:53.854233 30031 net.cpp:406] cont_37_lstm1_cont_slice_36_split <- cont_37
I1018 00:07:53.854239 30031 net.cpp:380] cont_37_lstm1_cont_slice_36_split -> cont_37_lstm1_cont_slice_36_split_0
I1018 00:07:53.854245 30031 net.cpp:380] cont_37_lstm1_cont_slice_36_split -> cont_37_lstm1_cont_slice_36_split_1
I1018 00:07:53.854276 30031 net.cpp:122] Setting up cont_37_lstm1_cont_slice_36_split
I1018 00:07:53.854282 30031 net.cpp:129] Top shape: 1 2 (2)
I1018 00:07:53.854286 30031 net.cpp:129] Top shape: 1 2 (2)
I1018 00:07:53.854290 30031 net.cpp:137] Memory required for data: 814736
I1018 00:07:53.854295 30031 layer_factory.hpp:77] Creating layer cont_38_lstm1_cont_slice_37_split
I1018 00:07:53.854300 30031 net.cpp:84] Creating Layer cont_38_lstm1_cont_slice_37_split
I1018 00:07:53.854305 30031 net.cpp:406] cont_38_lstm1_cont_slice_37_split <- cont_38
I1018 00:07:53.854310 30031 net.cpp:380] cont_38_lstm1_cont_slice_37_split -> cont_38_lstm1_cont_slice_37_split_0
I1018 00:07:53.854316 30031 net.cpp:380] cont_38_lstm1_cont_slice_37_split -> cont_38_lstm1_cont_slice_37_split_1
I1018 00:07:53.854346 30031 net.cpp:122] Setting up cont_38_lstm1_cont_slice_37_split
I1018 00:07:53.854351 30031 net.cpp:129] Top shape: 1 2 (2)
I1018 00:07:53.854357 30031 net.cpp:129] Top shape: 1 2 (2)
I1018 00:07:53.854359 30031 net.cpp:137] Memory required for data: 814752
I1018 00:07:53.854363 30031 layer_factory.hpp:77] Creating layer cont_39_lstm1_cont_slice_38_split
I1018 00:07:53.854368 30031 net.cpp:84] Creating Layer cont_39_lstm1_cont_slice_38_split
I1018 00:07:53.854372 30031 net.cpp:406] cont_39_lstm1_cont_slice_38_split <- cont_39
I1018 00:07:53.854378 30031 net.cpp:380] cont_39_lstm1_cont_slice_38_split -> cont_39_lstm1_cont_slice_38_split_0
I1018 00:07:53.854385 30031 net.cpp:380] cont_39_lstm1_cont_slice_38_split -> cont_39_lstm1_cont_slice_38_split_1
I1018 00:07:53.854414 30031 net.cpp:122] Setting up cont_39_lstm1_cont_slice_38_split
I1018 00:07:53.854420 30031 net.cpp:129] Top shape: 1 2 (2)
I1018 00:07:53.854425 30031 net.cpp:129] Top shape: 1 2 (2)
I1018 00:07:53.854429 30031 net.cpp:137] Memory required for data: 814768
I1018 00:07:53.854434 30031 layer_factory.hpp:77] Creating layer cont_40_lstm1_cont_slice_39_split
I1018 00:07:53.854439 30031 net.cpp:84] Creating Layer cont_40_lstm1_cont_slice_39_split
I1018 00:07:53.854442 30031 net.cpp:406] cont_40_lstm1_cont_slice_39_split <- cont_40
I1018 00:07:53.854452 30031 net.cpp:380] cont_40_lstm1_cont_slice_39_split -> cont_40_lstm1_cont_slice_39_split_0
I1018 00:07:53.854460 30031 net.cpp:380] cont_40_lstm1_cont_slice_39_split -> cont_40_lstm1_cont_slice_39_split_1
I1018 00:07:53.854488 30031 net.cpp:122] Setting up cont_40_lstm1_cont_slice_39_split
I1018 00:07:53.854495 30031 net.cpp:129] Top shape: 1 2 (2)
I1018 00:07:53.854499 30031 net.cpp:129] Top shape: 1 2 (2)
I1018 00:07:53.854502 30031 net.cpp:137] Memory required for data: 814784
I1018 00:07:53.854506 30031 layer_factory.hpp:77] Creating layer cont_41_lstm1_cont_slice_40_split
I1018 00:07:53.854514 30031 net.cpp:84] Creating Layer cont_41_lstm1_cont_slice_40_split
I1018 00:07:53.854518 30031 net.cpp:406] cont_41_lstm1_cont_slice_40_split <- cont_41
I1018 00:07:53.854524 30031 net.cpp:380] cont_41_lstm1_cont_slice_40_split -> cont_41_lstm1_cont_slice_40_split_0
I1018 00:07:53.854531 30031 net.cpp:380] cont_41_lstm1_cont_slice_40_split -> cont_41_lstm1_cont_slice_40_split_1
I1018 00:07:53.854560 30031 net.cpp:122] Setting up cont_41_lstm1_cont_slice_40_split
I1018 00:07:53.854567 30031 net.cpp:129] Top shape: 1 2 (2)
I1018 00:07:53.854570 30031 net.cpp:129] Top shape: 1 2 (2)
I1018 00:07:53.854574 30031 net.cpp:137] Memory required for data: 814800
I1018 00:07:53.854578 30031 layer_factory.hpp:77] Creating layer cont_42_lstm1_cont_slice_41_split
I1018 00:07:53.854583 30031 net.cpp:84] Creating Layer cont_42_lstm1_cont_slice_41_split
I1018 00:07:53.854588 30031 net.cpp:406] cont_42_lstm1_cont_slice_41_split <- cont_42
I1018 00:07:53.854593 30031 net.cpp:380] cont_42_lstm1_cont_slice_41_split -> cont_42_lstm1_cont_slice_41_split_0
I1018 00:07:53.854599 30031 net.cpp:380] cont_42_lstm1_cont_slice_41_split -> cont_42_lstm1_cont_slice_41_split_1
I1018 00:07:53.854629 30031 net.cpp:122] Setting up cont_42_lstm1_cont_slice_41_split
I1018 00:07:53.854635 30031 net.cpp:129] Top shape: 1 2 (2)
I1018 00:07:53.854640 30031 net.cpp:129] Top shape: 1 2 (2)
I1018 00:07:53.854643 30031 net.cpp:137] Memory required for data: 814816
I1018 00:07:53.854647 30031 layer_factory.hpp:77] Creating layer cont_43_lstm1_cont_slice_42_split
I1018 00:07:53.854652 30031 net.cpp:84] Creating Layer cont_43_lstm1_cont_slice_42_split
I1018 00:07:53.854656 30031 net.cpp:406] cont_43_lstm1_cont_slice_42_split <- cont_43
I1018 00:07:53.854662 30031 net.cpp:380] cont_43_lstm1_cont_slice_42_split -> cont_43_lstm1_cont_slice_42_split_0
I1018 00:07:53.854671 30031 net.cpp:380] cont_43_lstm1_cont_slice_42_split -> cont_43_lstm1_cont_slice_42_split_1
I1018 00:07:53.854698 30031 net.cpp:122] Setting up cont_43_lstm1_cont_slice_42_split
I1018 00:07:53.854704 30031 net.cpp:129] Top shape: 1 2 (2)
I1018 00:07:53.854708 30031 net.cpp:129] Top shape: 1 2 (2)
I1018 00:07:53.854712 30031 net.cpp:137] Memory required for data: 814832
I1018 00:07:53.854717 30031 layer_factory.hpp:77] Creating layer cont_44_lstm1_cont_slice_43_split
I1018 00:07:53.854722 30031 net.cpp:84] Creating Layer cont_44_lstm1_cont_slice_43_split
I1018 00:07:53.854725 30031 net.cpp:406] cont_44_lstm1_cont_slice_43_split <- cont_44
I1018 00:07:53.854733 30031 net.cpp:380] cont_44_lstm1_cont_slice_43_split -> cont_44_lstm1_cont_slice_43_split_0
I1018 00:07:53.854739 30031 net.cpp:380] cont_44_lstm1_cont_slice_43_split -> cont_44_lstm1_cont_slice_43_split_1
I1018 00:07:53.854769 30031 net.cpp:122] Setting up cont_44_lstm1_cont_slice_43_split
I1018 00:07:53.854775 30031 net.cpp:129] Top shape: 1 2 (2)
I1018 00:07:53.854779 30031 net.cpp:129] Top shape: 1 2 (2)
I1018 00:07:53.854784 30031 net.cpp:137] Memory required for data: 814848
I1018 00:07:53.854787 30031 layer_factory.hpp:77] Creating layer cont_45_lstm1_cont_slice_44_split
I1018 00:07:53.854792 30031 net.cpp:84] Creating Layer cont_45_lstm1_cont_slice_44_split
I1018 00:07:53.854796 30031 net.cpp:406] cont_45_lstm1_cont_slice_44_split <- cont_45
I1018 00:07:53.854802 30031 net.cpp:380] cont_45_lstm1_cont_slice_44_split -> cont_45_lstm1_cont_slice_44_split_0
I1018 00:07:53.854809 30031 net.cpp:380] cont_45_lstm1_cont_slice_44_split -> cont_45_lstm1_cont_slice_44_split_1
I1018 00:07:53.854840 30031 net.cpp:122] Setting up cont_45_lstm1_cont_slice_44_split
I1018 00:07:53.854846 30031 net.cpp:129] Top shape: 1 2 (2)
I1018 00:07:53.854851 30031 net.cpp:129] Top shape: 1 2 (2)
I1018 00:07:53.854856 30031 net.cpp:137] Memory required for data: 814864
I1018 00:07:53.854859 30031 layer_factory.hpp:77] Creating layer cont_46_lstm1_cont_slice_45_split
I1018 00:07:53.854864 30031 net.cpp:84] Creating Layer cont_46_lstm1_cont_slice_45_split
I1018 00:07:53.854868 30031 net.cpp:406] cont_46_lstm1_cont_slice_45_split <- cont_46
I1018 00:07:53.854873 30031 net.cpp:380] cont_46_lstm1_cont_slice_45_split -> cont_46_lstm1_cont_slice_45_split_0
I1018 00:07:53.854881 30031 net.cpp:380] cont_46_lstm1_cont_slice_45_split -> cont_46_lstm1_cont_slice_45_split_1
I1018 00:07:53.854909 30031 net.cpp:122] Setting up cont_46_lstm1_cont_slice_45_split
I1018 00:07:53.854915 30031 net.cpp:129] Top shape: 1 2 (2)
I1018 00:07:53.854920 30031 net.cpp:129] Top shape: 1 2 (2)
I1018 00:07:53.854924 30031 net.cpp:137] Memory required for data: 814880
I1018 00:07:53.854928 30031 layer_factory.hpp:77] Creating layer cont_47_lstm1_cont_slice_46_split
I1018 00:07:53.854933 30031 net.cpp:84] Creating Layer cont_47_lstm1_cont_slice_46_split
I1018 00:07:53.854938 30031 net.cpp:406] cont_47_lstm1_cont_slice_46_split <- cont_47
I1018 00:07:53.854944 30031 net.cpp:380] cont_47_lstm1_cont_slice_46_split -> cont_47_lstm1_cont_slice_46_split_0
I1018 00:07:53.854951 30031 net.cpp:380] cont_47_lstm1_cont_slice_46_split -> cont_47_lstm1_cont_slice_46_split_1
I1018 00:07:53.854979 30031 net.cpp:122] Setting up cont_47_lstm1_cont_slice_46_split
I1018 00:07:53.854984 30031 net.cpp:129] Top shape: 1 2 (2)
I1018 00:07:53.854988 30031 net.cpp:129] Top shape: 1 2 (2)
I1018 00:07:53.854992 30031 net.cpp:137] Memory required for data: 814896
I1018 00:07:53.854996 30031 layer_factory.hpp:77] Creating layer cont_48_lstm1_cont_slice_47_split
I1018 00:07:53.855003 30031 net.cpp:84] Creating Layer cont_48_lstm1_cont_slice_47_split
I1018 00:07:53.855007 30031 net.cpp:406] cont_48_lstm1_cont_slice_47_split <- cont_48
I1018 00:07:53.855013 30031 net.cpp:380] cont_48_lstm1_cont_slice_47_split -> cont_48_lstm1_cont_slice_47_split_0
I1018 00:07:53.855020 30031 net.cpp:380] cont_48_lstm1_cont_slice_47_split -> cont_48_lstm1_cont_slice_47_split_1
I1018 00:07:53.855051 30031 net.cpp:122] Setting up cont_48_lstm1_cont_slice_47_split
I1018 00:07:53.855057 30031 net.cpp:129] Top shape: 1 2 (2)
I1018 00:07:53.855060 30031 net.cpp:129] Top shape: 1 2 (2)
I1018 00:07:53.855064 30031 net.cpp:137] Memory required for data: 814912
I1018 00:07:53.855068 30031 layer_factory.hpp:77] Creating layer cont_49_lstm1_cont_slice_48_split
I1018 00:07:53.855073 30031 net.cpp:84] Creating Layer cont_49_lstm1_cont_slice_48_split
I1018 00:07:53.855077 30031 net.cpp:406] cont_49_lstm1_cont_slice_48_split <- cont_49
I1018 00:07:53.855083 30031 net.cpp:380] cont_49_lstm1_cont_slice_48_split -> cont_49_lstm1_cont_slice_48_split_0
I1018 00:07:53.855089 30031 net.cpp:380] cont_49_lstm1_cont_slice_48_split -> cont_49_lstm1_cont_slice_48_split_1
I1018 00:07:53.855119 30031 net.cpp:122] Setting up cont_49_lstm1_cont_slice_48_split
I1018 00:07:53.855125 30031 net.cpp:129] Top shape: 1 2 (2)
I1018 00:07:53.855130 30031 net.cpp:129] Top shape: 1 2 (2)
I1018 00:07:53.855134 30031 net.cpp:137] Memory required for data: 814928
I1018 00:07:53.855137 30031 layer_factory.hpp:77] Creating layer cont_50_lstm1_cont_slice_49_split
I1018 00:07:53.855144 30031 net.cpp:84] Creating Layer cont_50_lstm1_cont_slice_49_split
I1018 00:07:53.855147 30031 net.cpp:406] cont_50_lstm1_cont_slice_49_split <- cont_50
I1018 00:07:53.855154 30031 net.cpp:380] cont_50_lstm1_cont_slice_49_split -> cont_50_lstm1_cont_slice_49_split_0
I1018 00:07:53.855159 30031 net.cpp:380] cont_50_lstm1_cont_slice_49_split -> cont_50_lstm1_cont_slice_49_split_1
I1018 00:07:53.855190 30031 net.cpp:122] Setting up cont_50_lstm1_cont_slice_49_split
I1018 00:07:53.855195 30031 net.cpp:129] Top shape: 1 2 (2)
I1018 00:07:53.855199 30031 net.cpp:129] Top shape: 1 2 (2)
I1018 00:07:53.855204 30031 net.cpp:137] Memory required for data: 814944
I1018 00:07:53.855208 30031 layer_factory.hpp:77] Creating layer cont_51_lstm1_cont_slice_50_split
I1018 00:07:53.855213 30031 net.cpp:84] Creating Layer cont_51_lstm1_cont_slice_50_split
I1018 00:07:53.855217 30031 net.cpp:406] cont_51_lstm1_cont_slice_50_split <- cont_51
I1018 00:07:53.855224 30031 net.cpp:380] cont_51_lstm1_cont_slice_50_split -> cont_51_lstm1_cont_slice_50_split_0
I1018 00:07:53.855232 30031 net.cpp:380] cont_51_lstm1_cont_slice_50_split -> cont_51_lstm1_cont_slice_50_split_1
I1018 00:07:53.855258 30031 net.cpp:122] Setting up cont_51_lstm1_cont_slice_50_split
I1018 00:07:53.855267 30031 net.cpp:129] Top shape: 1 2 (2)
I1018 00:07:53.855271 30031 net.cpp:129] Top shape: 1 2 (2)
I1018 00:07:53.855275 30031 net.cpp:137] Memory required for data: 814960
I1018 00:07:53.855279 30031 layer_factory.hpp:77] Creating layer cont_52_lstm1_cont_slice_51_split
I1018 00:07:53.855284 30031 net.cpp:84] Creating Layer cont_52_lstm1_cont_slice_51_split
I1018 00:07:53.855288 30031 net.cpp:406] cont_52_lstm1_cont_slice_51_split <- cont_52
I1018 00:07:53.855293 30031 net.cpp:380] cont_52_lstm1_cont_slice_51_split -> cont_52_lstm1_cont_slice_51_split_0
I1018 00:07:53.855299 30031 net.cpp:380] cont_52_lstm1_cont_slice_51_split -> cont_52_lstm1_cont_slice_51_split_1
I1018 00:07:53.855329 30031 net.cpp:122] Setting up cont_52_lstm1_cont_slice_51_split
I1018 00:07:53.855335 30031 net.cpp:129] Top shape: 1 2 (2)
I1018 00:07:53.855340 30031 net.cpp:129] Top shape: 1 2 (2)
I1018 00:07:53.855343 30031 net.cpp:137] Memory required for data: 814976
I1018 00:07:53.855347 30031 layer_factory.hpp:77] Creating layer cont_53_lstm1_cont_slice_52_split
I1018 00:07:53.855352 30031 net.cpp:84] Creating Layer cont_53_lstm1_cont_slice_52_split
I1018 00:07:53.855362 30031 net.cpp:406] cont_53_lstm1_cont_slice_52_split <- cont_53
I1018 00:07:53.855367 30031 net.cpp:380] cont_53_lstm1_cont_slice_52_split -> cont_53_lstm1_cont_slice_52_split_0
I1018 00:07:53.855374 30031 net.cpp:380] cont_53_lstm1_cont_slice_52_split -> cont_53_lstm1_cont_slice_52_split_1
I1018 00:07:53.855403 30031 net.cpp:122] Setting up cont_53_lstm1_cont_slice_52_split
I1018 00:07:53.855409 30031 net.cpp:129] Top shape: 1 2 (2)
I1018 00:07:53.855413 30031 net.cpp:129] Top shape: 1 2 (2)
I1018 00:07:53.855417 30031 net.cpp:137] Memory required for data: 814992
I1018 00:07:53.855422 30031 layer_factory.hpp:77] Creating layer cont_54_lstm1_cont_slice_53_split
I1018 00:07:53.855427 30031 net.cpp:84] Creating Layer cont_54_lstm1_cont_slice_53_split
I1018 00:07:53.855430 30031 net.cpp:406] cont_54_lstm1_cont_slice_53_split <- cont_54
I1018 00:07:53.855438 30031 net.cpp:380] cont_54_lstm1_cont_slice_53_split -> cont_54_lstm1_cont_slice_53_split_0
I1018 00:07:53.855444 30031 net.cpp:380] cont_54_lstm1_cont_slice_53_split -> cont_54_lstm1_cont_slice_53_split_1
I1018 00:07:53.855471 30031 net.cpp:122] Setting up cont_54_lstm1_cont_slice_53_split
I1018 00:07:53.855478 30031 net.cpp:129] Top shape: 1 2 (2)
I1018 00:07:53.855481 30031 net.cpp:129] Top shape: 1 2 (2)
I1018 00:07:53.855485 30031 net.cpp:137] Memory required for data: 815008
I1018 00:07:53.855489 30031 layer_factory.hpp:77] Creating layer cont_55_lstm1_cont_slice_54_split
I1018 00:07:53.855496 30031 net.cpp:84] Creating Layer cont_55_lstm1_cont_slice_54_split
I1018 00:07:53.855500 30031 net.cpp:406] cont_55_lstm1_cont_slice_54_split <- cont_55
I1018 00:07:53.855506 30031 net.cpp:380] cont_55_lstm1_cont_slice_54_split -> cont_55_lstm1_cont_slice_54_split_0
I1018 00:07:53.855512 30031 net.cpp:380] cont_55_lstm1_cont_slice_54_split -> cont_55_lstm1_cont_slice_54_split_1
I1018 00:07:53.855542 30031 net.cpp:122] Setting up cont_55_lstm1_cont_slice_54_split
I1018 00:07:53.855548 30031 net.cpp:129] Top shape: 1 2 (2)
I1018 00:07:53.855553 30031 net.cpp:129] Top shape: 1 2 (2)
I1018 00:07:53.855556 30031 net.cpp:137] Memory required for data: 815024
I1018 00:07:53.855561 30031 layer_factory.hpp:77] Creating layer cont_56_lstm1_cont_slice_55_split
I1018 00:07:53.855566 30031 net.cpp:84] Creating Layer cont_56_lstm1_cont_slice_55_split
I1018 00:07:53.855571 30031 net.cpp:406] cont_56_lstm1_cont_slice_55_split <- cont_56
I1018 00:07:53.855576 30031 net.cpp:380] cont_56_lstm1_cont_slice_55_split -> cont_56_lstm1_cont_slice_55_split_0
I1018 00:07:53.855582 30031 net.cpp:380] cont_56_lstm1_cont_slice_55_split -> cont_56_lstm1_cont_slice_55_split_1
I1018 00:07:53.855612 30031 net.cpp:122] Setting up cont_56_lstm1_cont_slice_55_split
I1018 00:07:53.855618 30031 net.cpp:129] Top shape: 1 2 (2)
I1018 00:07:53.855623 30031 net.cpp:129] Top shape: 1 2 (2)
I1018 00:07:53.855626 30031 net.cpp:137] Memory required for data: 815040
I1018 00:07:53.855630 30031 layer_factory.hpp:77] Creating layer cont_57_lstm1_cont_slice_56_split
I1018 00:07:53.855635 30031 net.cpp:84] Creating Layer cont_57_lstm1_cont_slice_56_split
I1018 00:07:53.855639 30031 net.cpp:406] cont_57_lstm1_cont_slice_56_split <- cont_57
I1018 00:07:53.855645 30031 net.cpp:380] cont_57_lstm1_cont_slice_56_split -> cont_57_lstm1_cont_slice_56_split_0
I1018 00:07:53.855651 30031 net.cpp:380] cont_57_lstm1_cont_slice_56_split -> cont_57_lstm1_cont_slice_56_split_1
I1018 00:07:53.855681 30031 net.cpp:122] Setting up cont_57_lstm1_cont_slice_56_split
I1018 00:07:53.855686 30031 net.cpp:129] Top shape: 1 2 (2)
I1018 00:07:53.855691 30031 net.cpp:129] Top shape: 1 2 (2)
I1018 00:07:53.855695 30031 net.cpp:137] Memory required for data: 815056
I1018 00:07:53.855700 30031 layer_factory.hpp:77] Creating layer cont_58_lstm1_cont_slice_57_split
I1018 00:07:53.855705 30031 net.cpp:84] Creating Layer cont_58_lstm1_cont_slice_57_split
I1018 00:07:53.855708 30031 net.cpp:406] cont_58_lstm1_cont_slice_57_split <- cont_58
I1018 00:07:53.855716 30031 net.cpp:380] cont_58_lstm1_cont_slice_57_split -> cont_58_lstm1_cont_slice_57_split_0
I1018 00:07:53.855723 30031 net.cpp:380] cont_58_lstm1_cont_slice_57_split -> cont_58_lstm1_cont_slice_57_split_1
I1018 00:07:53.855751 30031 net.cpp:122] Setting up cont_58_lstm1_cont_slice_57_split
I1018 00:07:53.855756 30031 net.cpp:129] Top shape: 1 2 (2)
I1018 00:07:53.855762 30031 net.cpp:129] Top shape: 1 2 (2)
I1018 00:07:53.855764 30031 net.cpp:137] Memory required for data: 815072
I1018 00:07:53.855768 30031 layer_factory.hpp:77] Creating layer cont_59_lstm1_cont_slice_58_split
I1018 00:07:53.855775 30031 net.cpp:84] Creating Layer cont_59_lstm1_cont_slice_58_split
I1018 00:07:53.855780 30031 net.cpp:406] cont_59_lstm1_cont_slice_58_split <- cont_59
I1018 00:07:53.855785 30031 net.cpp:380] cont_59_lstm1_cont_slice_58_split -> cont_59_lstm1_cont_slice_58_split_0
I1018 00:07:53.855792 30031 net.cpp:380] cont_59_lstm1_cont_slice_58_split -> cont_59_lstm1_cont_slice_58_split_1
I1018 00:07:53.855821 30031 net.cpp:122] Setting up cont_59_lstm1_cont_slice_58_split
I1018 00:07:53.855828 30031 net.cpp:129] Top shape: 1 2 (2)
I1018 00:07:53.855832 30031 net.cpp:129] Top shape: 1 2 (2)
I1018 00:07:53.855836 30031 net.cpp:137] Memory required for data: 815088
I1018 00:07:53.855840 30031 layer_factory.hpp:77] Creating layer cont_60_lstm1_cont_slice_59_split
I1018 00:07:53.855845 30031 net.cpp:84] Creating Layer cont_60_lstm1_cont_slice_59_split
I1018 00:07:53.855849 30031 net.cpp:406] cont_60_lstm1_cont_slice_59_split <- cont_60
I1018 00:07:53.855855 30031 net.cpp:380] cont_60_lstm1_cont_slice_59_split -> cont_60_lstm1_cont_slice_59_split_0
I1018 00:07:53.855861 30031 net.cpp:380] cont_60_lstm1_cont_slice_59_split -> cont_60_lstm1_cont_slice_59_split_1
I1018 00:07:53.855891 30031 net.cpp:122] Setting up cont_60_lstm1_cont_slice_59_split
I1018 00:07:53.855897 30031 net.cpp:129] Top shape: 1 2 (2)
I1018 00:07:53.855902 30031 net.cpp:129] Top shape: 1 2 (2)
I1018 00:07:53.855906 30031 net.cpp:137] Memory required for data: 815104
I1018 00:07:53.855909 30031 layer_factory.hpp:77] Creating layer cont_61_lstm1_cont_slice_60_split
I1018 00:07:53.855916 30031 net.cpp:84] Creating Layer cont_61_lstm1_cont_slice_60_split
I1018 00:07:53.855919 30031 net.cpp:406] cont_61_lstm1_cont_slice_60_split <- cont_61
I1018 00:07:53.855926 30031 net.cpp:380] cont_61_lstm1_cont_slice_60_split -> cont_61_lstm1_cont_slice_60_split_0
I1018 00:07:53.855933 30031 net.cpp:380] cont_61_lstm1_cont_slice_60_split -> cont_61_lstm1_cont_slice_60_split_1
I1018 00:07:53.855960 30031 net.cpp:122] Setting up cont_61_lstm1_cont_slice_60_split
I1018 00:07:53.855967 30031 net.cpp:129] Top shape: 1 2 (2)
I1018 00:07:53.855971 30031 net.cpp:129] Top shape: 1 2 (2)
I1018 00:07:53.855974 30031 net.cpp:137] Memory required for data: 815120
I1018 00:07:53.855978 30031 layer_factory.hpp:77] Creating layer cont_62_lstm1_cont_slice_61_split
I1018 00:07:53.855989 30031 net.cpp:84] Creating Layer cont_62_lstm1_cont_slice_61_split
I1018 00:07:53.855995 30031 net.cpp:406] cont_62_lstm1_cont_slice_61_split <- cont_62
I1018 00:07:53.856001 30031 net.cpp:380] cont_62_lstm1_cont_slice_61_split -> cont_62_lstm1_cont_slice_61_split_0
I1018 00:07:53.856007 30031 net.cpp:380] cont_62_lstm1_cont_slice_61_split -> cont_62_lstm1_cont_slice_61_split_1
I1018 00:07:53.856043 30031 net.cpp:122] Setting up cont_62_lstm1_cont_slice_61_split
I1018 00:07:53.856051 30031 net.cpp:129] Top shape: 1 2 (2)
I1018 00:07:53.856056 30031 net.cpp:129] Top shape: 1 2 (2)
I1018 00:07:53.856060 30031 net.cpp:137] Memory required for data: 815136
I1018 00:07:53.856065 30031 layer_factory.hpp:77] Creating layer cont_63_lstm1_cont_slice_62_split
I1018 00:07:53.856070 30031 net.cpp:84] Creating Layer cont_63_lstm1_cont_slice_62_split
I1018 00:07:53.856073 30031 net.cpp:406] cont_63_lstm1_cont_slice_62_split <- cont_63
I1018 00:07:53.856079 30031 net.cpp:380] cont_63_lstm1_cont_slice_62_split -> cont_63_lstm1_cont_slice_62_split_0
I1018 00:07:53.856087 30031 net.cpp:380] cont_63_lstm1_cont_slice_62_split -> cont_63_lstm1_cont_slice_62_split_1
I1018 00:07:53.856117 30031 net.cpp:122] Setting up cont_63_lstm1_cont_slice_62_split
I1018 00:07:53.856122 30031 net.cpp:129] Top shape: 1 2 (2)
I1018 00:07:53.856127 30031 net.cpp:129] Top shape: 1 2 (2)
I1018 00:07:53.856130 30031 net.cpp:137] Memory required for data: 815152
I1018 00:07:53.856134 30031 layer_factory.hpp:77] Creating layer cont_64_lstm1_cont_slice_63_split
I1018 00:07:53.856139 30031 net.cpp:84] Creating Layer cont_64_lstm1_cont_slice_63_split
I1018 00:07:53.856143 30031 net.cpp:406] cont_64_lstm1_cont_slice_63_split <- cont_64
I1018 00:07:53.856151 30031 net.cpp:380] cont_64_lstm1_cont_slice_63_split -> cont_64_lstm1_cont_slice_63_split_0
I1018 00:07:53.856158 30031 net.cpp:380] cont_64_lstm1_cont_slice_63_split -> cont_64_lstm1_cont_slice_63_split_1
I1018 00:07:53.856187 30031 net.cpp:122] Setting up cont_64_lstm1_cont_slice_63_split
I1018 00:07:53.856194 30031 net.cpp:129] Top shape: 1 2 (2)
I1018 00:07:53.856199 30031 net.cpp:129] Top shape: 1 2 (2)
I1018 00:07:53.856202 30031 net.cpp:137] Memory required for data: 815168
I1018 00:07:53.856206 30031 layer_factory.hpp:77] Creating layer cont_65_lstm1_cont_slice_64_split
I1018 00:07:53.856211 30031 net.cpp:84] Creating Layer cont_65_lstm1_cont_slice_64_split
I1018 00:07:53.856215 30031 net.cpp:406] cont_65_lstm1_cont_slice_64_split <- cont_65
I1018 00:07:53.856220 30031 net.cpp:380] cont_65_lstm1_cont_slice_64_split -> cont_65_lstm1_cont_slice_64_split_0
I1018 00:07:53.856227 30031 net.cpp:380] cont_65_lstm1_cont_slice_64_split -> cont_65_lstm1_cont_slice_64_split_1
I1018 00:07:53.856261 30031 net.cpp:122] Setting up cont_65_lstm1_cont_slice_64_split
I1018 00:07:53.856266 30031 net.cpp:129] Top shape: 1 2 (2)
I1018 00:07:53.856271 30031 net.cpp:129] Top shape: 1 2 (2)
I1018 00:07:53.856274 30031 net.cpp:137] Memory required for data: 815184
I1018 00:07:53.856278 30031 layer_factory.hpp:77] Creating layer cont_66_lstm1_cont_slice_65_split
I1018 00:07:53.856283 30031 net.cpp:84] Creating Layer cont_66_lstm1_cont_slice_65_split
I1018 00:07:53.856287 30031 net.cpp:406] cont_66_lstm1_cont_slice_65_split <- cont_66
I1018 00:07:53.856293 30031 net.cpp:380] cont_66_lstm1_cont_slice_65_split -> cont_66_lstm1_cont_slice_65_split_0
I1018 00:07:53.856300 30031 net.cpp:380] cont_66_lstm1_cont_slice_65_split -> cont_66_lstm1_cont_slice_65_split_1
I1018 00:07:53.856331 30031 net.cpp:122] Setting up cont_66_lstm1_cont_slice_65_split
I1018 00:07:53.856338 30031 net.cpp:129] Top shape: 1 2 (2)
I1018 00:07:53.856343 30031 net.cpp:129] Top shape: 1 2 (2)
I1018 00:07:53.856345 30031 net.cpp:137] Memory required for data: 815200
I1018 00:07:53.856349 30031 layer_factory.hpp:77] Creating layer cont_67_lstm1_cont_slice_66_split
I1018 00:07:53.856354 30031 net.cpp:84] Creating Layer cont_67_lstm1_cont_slice_66_split
I1018 00:07:53.856359 30031 net.cpp:406] cont_67_lstm1_cont_slice_66_split <- cont_67
I1018 00:07:53.856365 30031 net.cpp:380] cont_67_lstm1_cont_slice_66_split -> cont_67_lstm1_cont_slice_66_split_0
I1018 00:07:53.856372 30031 net.cpp:380] cont_67_lstm1_cont_slice_66_split -> cont_67_lstm1_cont_slice_66_split_1
I1018 00:07:53.856400 30031 net.cpp:122] Setting up cont_67_lstm1_cont_slice_66_split
I1018 00:07:53.856406 30031 net.cpp:129] Top shape: 1 2 (2)
I1018 00:07:53.856410 30031 net.cpp:129] Top shape: 1 2 (2)
I1018 00:07:53.856415 30031 net.cpp:137] Memory required for data: 815216
I1018 00:07:53.856418 30031 layer_factory.hpp:77] Creating layer cont_68_lstm1_cont_slice_67_split
I1018 00:07:53.856431 30031 net.cpp:84] Creating Layer cont_68_lstm1_cont_slice_67_split
I1018 00:07:53.856436 30031 net.cpp:406] cont_68_lstm1_cont_slice_67_split <- cont_68
I1018 00:07:53.856441 30031 net.cpp:380] cont_68_lstm1_cont_slice_67_split -> cont_68_lstm1_cont_slice_67_split_0
I1018 00:07:53.856448 30031 net.cpp:380] cont_68_lstm1_cont_slice_67_split -> cont_68_lstm1_cont_slice_67_split_1
I1018 00:07:53.856477 30031 net.cpp:122] Setting up cont_68_lstm1_cont_slice_67_split
I1018 00:07:53.856483 30031 net.cpp:129] Top shape: 1 2 (2)
I1018 00:07:53.856488 30031 net.cpp:129] Top shape: 1 2 (2)
I1018 00:07:53.856492 30031 net.cpp:137] Memory required for data: 815232
I1018 00:07:53.856497 30031 layer_factory.hpp:77] Creating layer cont_69_lstm1_cont_slice_68_split
I1018 00:07:53.856501 30031 net.cpp:84] Creating Layer cont_69_lstm1_cont_slice_68_split
I1018 00:07:53.856505 30031 net.cpp:406] cont_69_lstm1_cont_slice_68_split <- cont_69
I1018 00:07:53.856511 30031 net.cpp:380] cont_69_lstm1_cont_slice_68_split -> cont_69_lstm1_cont_slice_68_split_0
I1018 00:07:53.856518 30031 net.cpp:380] cont_69_lstm1_cont_slice_68_split -> cont_69_lstm1_cont_slice_68_split_1
I1018 00:07:53.856549 30031 net.cpp:122] Setting up cont_69_lstm1_cont_slice_68_split
I1018 00:07:53.856555 30031 net.cpp:129] Top shape: 1 2 (2)
I1018 00:07:53.856559 30031 net.cpp:129] Top shape: 1 2 (2)
I1018 00:07:53.856564 30031 net.cpp:137] Memory required for data: 815248
I1018 00:07:53.856567 30031 layer_factory.hpp:77] Creating layer cont_70_lstm1_cont_slice_69_split
I1018 00:07:53.856572 30031 net.cpp:84] Creating Layer cont_70_lstm1_cont_slice_69_split
I1018 00:07:53.856576 30031 net.cpp:406] cont_70_lstm1_cont_slice_69_split <- cont_70
I1018 00:07:53.856582 30031 net.cpp:380] cont_70_lstm1_cont_slice_69_split -> cont_70_lstm1_cont_slice_69_split_0
I1018 00:07:53.856590 30031 net.cpp:380] cont_70_lstm1_cont_slice_69_split -> cont_70_lstm1_cont_slice_69_split_1
I1018 00:07:53.856621 30031 net.cpp:122] Setting up cont_70_lstm1_cont_slice_69_split
I1018 00:07:53.856626 30031 net.cpp:129] Top shape: 1 2 (2)
I1018 00:07:53.856631 30031 net.cpp:129] Top shape: 1 2 (2)
I1018 00:07:53.856634 30031 net.cpp:137] Memory required for data: 815264
I1018 00:07:53.856638 30031 layer_factory.hpp:77] Creating layer cont_71_lstm1_cont_slice_70_split
I1018 00:07:53.856643 30031 net.cpp:84] Creating Layer cont_71_lstm1_cont_slice_70_split
I1018 00:07:53.856648 30031 net.cpp:406] cont_71_lstm1_cont_slice_70_split <- cont_71
I1018 00:07:53.856655 30031 net.cpp:380] cont_71_lstm1_cont_slice_70_split -> cont_71_lstm1_cont_slice_70_split_0
I1018 00:07:53.856662 30031 net.cpp:380] cont_71_lstm1_cont_slice_70_split -> cont_71_lstm1_cont_slice_70_split_1
I1018 00:07:53.856691 30031 net.cpp:122] Setting up cont_71_lstm1_cont_slice_70_split
I1018 00:07:53.856699 30031 net.cpp:129] Top shape: 1 2 (2)
I1018 00:07:53.856703 30031 net.cpp:129] Top shape: 1 2 (2)
I1018 00:07:53.856708 30031 net.cpp:137] Memory required for data: 815280
I1018 00:07:53.856711 30031 layer_factory.hpp:77] Creating layer cont_72_lstm1_cont_slice_71_split
I1018 00:07:53.856717 30031 net.cpp:84] Creating Layer cont_72_lstm1_cont_slice_71_split
I1018 00:07:53.856721 30031 net.cpp:406] cont_72_lstm1_cont_slice_71_split <- cont_72
I1018 00:07:53.856726 30031 net.cpp:380] cont_72_lstm1_cont_slice_71_split -> cont_72_lstm1_cont_slice_71_split_0
I1018 00:07:53.856734 30031 net.cpp:380] cont_72_lstm1_cont_slice_71_split -> cont_72_lstm1_cont_slice_71_split_1
I1018 00:07:53.856763 30031 net.cpp:122] Setting up cont_72_lstm1_cont_slice_71_split
I1018 00:07:53.856770 30031 net.cpp:129] Top shape: 1 2 (2)
I1018 00:07:53.856773 30031 net.cpp:129] Top shape: 1 2 (2)
I1018 00:07:53.856777 30031 net.cpp:137] Memory required for data: 815296
I1018 00:07:53.856781 30031 layer_factory.hpp:77] Creating layer cont_73_lstm1_cont_slice_72_split
I1018 00:07:53.856786 30031 net.cpp:84] Creating Layer cont_73_lstm1_cont_slice_72_split
I1018 00:07:53.856791 30031 net.cpp:406] cont_73_lstm1_cont_slice_72_split <- cont_73
I1018 00:07:53.856796 30031 net.cpp:380] cont_73_lstm1_cont_slice_72_split -> cont_73_lstm1_cont_slice_72_split_0
I1018 00:07:53.856802 30031 net.cpp:380] cont_73_lstm1_cont_slice_72_split -> cont_73_lstm1_cont_slice_72_split_1
I1018 00:07:53.856832 30031 net.cpp:122] Setting up cont_73_lstm1_cont_slice_72_split
I1018 00:07:53.856838 30031 net.cpp:129] Top shape: 1 2 (2)
I1018 00:07:53.856843 30031 net.cpp:129] Top shape: 1 2 (2)
I1018 00:07:53.856848 30031 net.cpp:137] Memory required for data: 815312
I1018 00:07:53.856851 30031 layer_factory.hpp:77] Creating layer cont_74_lstm1_cont_slice_73_split
I1018 00:07:53.856856 30031 net.cpp:84] Creating Layer cont_74_lstm1_cont_slice_73_split
I1018 00:07:53.856860 30031 net.cpp:406] cont_74_lstm1_cont_slice_73_split <- cont_74
I1018 00:07:53.856868 30031 net.cpp:380] cont_74_lstm1_cont_slice_73_split -> cont_74_lstm1_cont_slice_73_split_0
I1018 00:07:53.856874 30031 net.cpp:380] cont_74_lstm1_cont_slice_73_split -> cont_74_lstm1_cont_slice_73_split_1
I1018 00:07:53.856901 30031 net.cpp:122] Setting up cont_74_lstm1_cont_slice_73_split
I1018 00:07:53.856907 30031 net.cpp:129] Top shape: 1 2 (2)
I1018 00:07:53.856912 30031 net.cpp:129] Top shape: 1 2 (2)
I1018 00:07:53.856916 30031 net.cpp:137] Memory required for data: 815328
I1018 00:07:53.856920 30031 layer_factory.hpp:77] Creating layer cont_75_lstm1_cont_slice_74_split
I1018 00:07:53.856927 30031 net.cpp:84] Creating Layer cont_75_lstm1_cont_slice_74_split
I1018 00:07:53.856932 30031 net.cpp:406] cont_75_lstm1_cont_slice_74_split <- cont_75
I1018 00:07:53.856937 30031 net.cpp:380] cont_75_lstm1_cont_slice_74_split -> cont_75_lstm1_cont_slice_74_split_0
I1018 00:07:53.856945 30031 net.cpp:380] cont_75_lstm1_cont_slice_74_split -> cont_75_lstm1_cont_slice_74_split_1
I1018 00:07:53.856973 30031 net.cpp:122] Setting up cont_75_lstm1_cont_slice_74_split
I1018 00:07:53.856979 30031 net.cpp:129] Top shape: 1 2 (2)
I1018 00:07:53.856984 30031 net.cpp:129] Top shape: 1 2 (2)
I1018 00:07:53.856987 30031 net.cpp:137] Memory required for data: 815344
I1018 00:07:53.856992 30031 layer_factory.hpp:77] Creating layer cont_76_lstm1_cont_slice_75_split
I1018 00:07:53.856997 30031 net.cpp:84] Creating Layer cont_76_lstm1_cont_slice_75_split
I1018 00:07:53.857000 30031 net.cpp:406] cont_76_lstm1_cont_slice_75_split <- cont_76
I1018 00:07:53.857007 30031 net.cpp:380] cont_76_lstm1_cont_slice_75_split -> cont_76_lstm1_cont_slice_75_split_0
I1018 00:07:53.857012 30031 net.cpp:380] cont_76_lstm1_cont_slice_75_split -> cont_76_lstm1_cont_slice_75_split_1
I1018 00:07:53.857043 30031 net.cpp:122] Setting up cont_76_lstm1_cont_slice_75_split
I1018 00:07:53.857049 30031 net.cpp:129] Top shape: 1 2 (2)
I1018 00:07:53.857054 30031 net.cpp:129] Top shape: 1 2 (2)
I1018 00:07:53.857059 30031 net.cpp:137] Memory required for data: 815360
I1018 00:07:53.857061 30031 layer_factory.hpp:77] Creating layer cont_77_lstm1_cont_slice_76_split
I1018 00:07:53.857067 30031 net.cpp:84] Creating Layer cont_77_lstm1_cont_slice_76_split
I1018 00:07:53.857071 30031 net.cpp:406] cont_77_lstm1_cont_slice_76_split <- cont_77
I1018 00:07:53.857077 30031 net.cpp:380] cont_77_lstm1_cont_slice_76_split -> cont_77_lstm1_cont_slice_76_split_0
I1018 00:07:53.857084 30031 net.cpp:380] cont_77_lstm1_cont_slice_76_split -> cont_77_lstm1_cont_slice_76_split_1
I1018 00:07:53.857113 30031 net.cpp:122] Setting up cont_77_lstm1_cont_slice_76_split
I1018 00:07:53.857120 30031 net.cpp:129] Top shape: 1 2 (2)
I1018 00:07:53.857125 30031 net.cpp:129] Top shape: 1 2 (2)
I1018 00:07:53.857127 30031 net.cpp:137] Memory required for data: 815376
I1018 00:07:53.857131 30031 layer_factory.hpp:77] Creating layer cont_78_lstm1_cont_slice_77_split
I1018 00:07:53.857137 30031 net.cpp:84] Creating Layer cont_78_lstm1_cont_slice_77_split
I1018 00:07:53.857141 30031 net.cpp:406] cont_78_lstm1_cont_slice_77_split <- cont_78
I1018 00:07:53.857148 30031 net.cpp:380] cont_78_lstm1_cont_slice_77_split -> cont_78_lstm1_cont_slice_77_split_0
I1018 00:07:53.857156 30031 net.cpp:380] cont_78_lstm1_cont_slice_77_split -> cont_78_lstm1_cont_slice_77_split_1
I1018 00:07:53.857183 30031 net.cpp:122] Setting up cont_78_lstm1_cont_slice_77_split
I1018 00:07:53.857189 30031 net.cpp:129] Top shape: 1 2 (2)
I1018 00:07:53.857193 30031 net.cpp:129] Top shape: 1 2 (2)
I1018 00:07:53.857197 30031 net.cpp:137] Memory required for data: 815392
I1018 00:07:53.857201 30031 layer_factory.hpp:77] Creating layer cont_79_lstm1_cont_slice_78_split
I1018 00:07:53.857209 30031 net.cpp:84] Creating Layer cont_79_lstm1_cont_slice_78_split
I1018 00:07:53.857213 30031 net.cpp:406] cont_79_lstm1_cont_slice_78_split <- cont_79
I1018 00:07:53.857219 30031 net.cpp:380] cont_79_lstm1_cont_slice_78_split -> cont_79_lstm1_cont_slice_78_split_0
I1018 00:07:53.857226 30031 net.cpp:380] cont_79_lstm1_cont_slice_78_split -> cont_79_lstm1_cont_slice_78_split_1
I1018 00:07:53.857255 30031 net.cpp:122] Setting up cont_79_lstm1_cont_slice_78_split
I1018 00:07:53.857261 30031 net.cpp:129] Top shape: 1 2 (2)
I1018 00:07:53.857266 30031 net.cpp:129] Top shape: 1 2 (2)
I1018 00:07:53.857270 30031 net.cpp:137] Memory required for data: 815408
I1018 00:07:53.857273 30031 layer_factory.hpp:77] Creating layer cont_80_lstm1_cont_slice_79_split
I1018 00:07:53.857278 30031 net.cpp:84] Creating Layer cont_80_lstm1_cont_slice_79_split
I1018 00:07:53.857283 30031 net.cpp:406] cont_80_lstm1_cont_slice_79_split <- cont_80
I1018 00:07:53.857288 30031 net.cpp:380] cont_80_lstm1_cont_slice_79_split -> cont_80_lstm1_cont_slice_79_split_0
I1018 00:07:53.857295 30031 net.cpp:380] cont_80_lstm1_cont_slice_79_split -> cont_80_lstm1_cont_slice_79_split_1
I1018 00:07:53.857324 30031 net.cpp:122] Setting up cont_80_lstm1_cont_slice_79_split
I1018 00:07:53.857331 30031 net.cpp:129] Top shape: 1 2 (2)
I1018 00:07:53.857336 30031 net.cpp:129] Top shape: 1 2 (2)
I1018 00:07:53.857338 30031 net.cpp:137] Memory required for data: 815424
I1018 00:07:53.857342 30031 layer_factory.hpp:77] Creating layer cont_81_lstm1_cont_slice_80_split
I1018 00:07:53.857348 30031 net.cpp:84] Creating Layer cont_81_lstm1_cont_slice_80_split
I1018 00:07:53.857352 30031 net.cpp:406] cont_81_lstm1_cont_slice_80_split <- cont_81
I1018 00:07:53.857357 30031 net.cpp:380] cont_81_lstm1_cont_slice_80_split -> cont_81_lstm1_cont_slice_80_split_0
I1018 00:07:53.857367 30031 net.cpp:380] cont_81_lstm1_cont_slice_80_split -> cont_81_lstm1_cont_slice_80_split_1
I1018 00:07:53.857394 30031 net.cpp:122] Setting up cont_81_lstm1_cont_slice_80_split
I1018 00:07:53.857400 30031 net.cpp:129] Top shape: 1 2 (2)
I1018 00:07:53.857404 30031 net.cpp:129] Top shape: 1 2 (2)
I1018 00:07:53.857409 30031 net.cpp:137] Memory required for data: 815440
I1018 00:07:53.857412 30031 layer_factory.hpp:77] Creating layer cont_82_lstm1_cont_slice_81_split
I1018 00:07:53.857420 30031 net.cpp:84] Creating Layer cont_82_lstm1_cont_slice_81_split
I1018 00:07:53.857424 30031 net.cpp:406] cont_82_lstm1_cont_slice_81_split <- cont_82
I1018 00:07:53.857430 30031 net.cpp:380] cont_82_lstm1_cont_slice_81_split -> cont_82_lstm1_cont_slice_81_split_0
I1018 00:07:53.857436 30031 net.cpp:380] cont_82_lstm1_cont_slice_81_split -> cont_82_lstm1_cont_slice_81_split_1
I1018 00:07:53.857466 30031 net.cpp:122] Setting up cont_82_lstm1_cont_slice_81_split
I1018 00:07:53.857472 30031 net.cpp:129] Top shape: 1 2 (2)
I1018 00:07:53.857477 30031 net.cpp:129] Top shape: 1 2 (2)
I1018 00:07:53.857481 30031 net.cpp:137] Memory required for data: 815456
I1018 00:07:53.857484 30031 layer_factory.hpp:77] Creating layer cont_83_lstm1_cont_slice_82_split
I1018 00:07:53.857489 30031 net.cpp:84] Creating Layer cont_83_lstm1_cont_slice_82_split
I1018 00:07:53.857493 30031 net.cpp:406] cont_83_lstm1_cont_slice_82_split <- cont_83
I1018 00:07:53.857499 30031 net.cpp:380] cont_83_lstm1_cont_slice_82_split -> cont_83_lstm1_cont_slice_82_split_0
I1018 00:07:53.857506 30031 net.cpp:380] cont_83_lstm1_cont_slice_82_split -> cont_83_lstm1_cont_slice_82_split_1
I1018 00:07:53.857535 30031 net.cpp:122] Setting up cont_83_lstm1_cont_slice_82_split
I1018 00:07:53.857542 30031 net.cpp:129] Top shape: 1 2 (2)
I1018 00:07:53.857547 30031 net.cpp:129] Top shape: 1 2 (2)
I1018 00:07:53.857549 30031 net.cpp:137] Memory required for data: 815472
I1018 00:07:53.857553 30031 layer_factory.hpp:77] Creating layer cont_84_lstm1_cont_slice_83_split
I1018 00:07:53.857559 30031 net.cpp:84] Creating Layer cont_84_lstm1_cont_slice_83_split
I1018 00:07:53.857563 30031 net.cpp:406] cont_84_lstm1_cont_slice_83_split <- cont_84
I1018 00:07:53.857569 30031 net.cpp:380] cont_84_lstm1_cont_slice_83_split -> cont_84_lstm1_cont_slice_83_split_0
I1018 00:07:53.857575 30031 net.cpp:380] cont_84_lstm1_cont_slice_83_split -> cont_84_lstm1_cont_slice_83_split_1
I1018 00:07:53.857604 30031 net.cpp:122] Setting up cont_84_lstm1_cont_slice_83_split
I1018 00:07:53.857611 30031 net.cpp:129] Top shape: 1 2 (2)
I1018 00:07:53.857615 30031 net.cpp:129] Top shape: 1 2 (2)
I1018 00:07:53.857620 30031 net.cpp:137] Memory required for data: 815488
I1018 00:07:53.857623 30031 layer_factory.hpp:77] Creating layer cont_85_lstm1_cont_slice_84_split
I1018 00:07:53.857628 30031 net.cpp:84] Creating Layer cont_85_lstm1_cont_slice_84_split
I1018 00:07:53.857632 30031 net.cpp:406] cont_85_lstm1_cont_slice_84_split <- cont_85
I1018 00:07:53.857640 30031 net.cpp:380] cont_85_lstm1_cont_slice_84_split -> cont_85_lstm1_cont_slice_84_split_0
I1018 00:07:53.857646 30031 net.cpp:380] cont_85_lstm1_cont_slice_84_split -> cont_85_lstm1_cont_slice_84_split_1
I1018 00:07:53.857674 30031 net.cpp:122] Setting up cont_85_lstm1_cont_slice_84_split
I1018 00:07:53.857681 30031 net.cpp:129] Top shape: 1 2 (2)
I1018 00:07:53.857684 30031 net.cpp:129] Top shape: 1 2 (2)
I1018 00:07:53.857688 30031 net.cpp:137] Memory required for data: 815504
I1018 00:07:53.857692 30031 layer_factory.hpp:77] Creating layer cont_86_lstm1_cont_slice_85_split
I1018 00:07:53.857699 30031 net.cpp:84] Creating Layer cont_86_lstm1_cont_slice_85_split
I1018 00:07:53.857704 30031 net.cpp:406] cont_86_lstm1_cont_slice_85_split <- cont_86
I1018 00:07:53.857709 30031 net.cpp:380] cont_86_lstm1_cont_slice_85_split -> cont_86_lstm1_cont_slice_85_split_0
I1018 00:07:53.857715 30031 net.cpp:380] cont_86_lstm1_cont_slice_85_split -> cont_86_lstm1_cont_slice_85_split_1
I1018 00:07:53.857745 30031 net.cpp:122] Setting up cont_86_lstm1_cont_slice_85_split
I1018 00:07:53.857750 30031 net.cpp:129] Top shape: 1 2 (2)
I1018 00:07:53.857755 30031 net.cpp:129] Top shape: 1 2 (2)
I1018 00:07:53.857759 30031 net.cpp:137] Memory required for data: 815520
I1018 00:07:53.857764 30031 layer_factory.hpp:77] Creating layer cont_87_lstm1_cont_slice_86_split
I1018 00:07:53.857769 30031 net.cpp:84] Creating Layer cont_87_lstm1_cont_slice_86_split
I1018 00:07:53.857772 30031 net.cpp:406] cont_87_lstm1_cont_slice_86_split <- cont_87
I1018 00:07:53.857779 30031 net.cpp:380] cont_87_lstm1_cont_slice_86_split -> cont_87_lstm1_cont_slice_86_split_0
I1018 00:07:53.857784 30031 net.cpp:380] cont_87_lstm1_cont_slice_86_split -> cont_87_lstm1_cont_slice_86_split_1
I1018 00:07:53.857815 30031 net.cpp:122] Setting up cont_87_lstm1_cont_slice_86_split
I1018 00:07:53.857820 30031 net.cpp:129] Top shape: 1 2 (2)
I1018 00:07:53.857825 30031 net.cpp:129] Top shape: 1 2 (2)
I1018 00:07:53.857828 30031 net.cpp:137] Memory required for data: 815536
I1018 00:07:53.857832 30031 layer_factory.hpp:77] Creating layer cont_88_lstm1_cont_slice_87_split
I1018 00:07:53.857837 30031 net.cpp:84] Creating Layer cont_88_lstm1_cont_slice_87_split
I1018 00:07:53.857841 30031 net.cpp:406] cont_88_lstm1_cont_slice_87_split <- cont_88
I1018 00:07:53.857847 30031 net.cpp:380] cont_88_lstm1_cont_slice_87_split -> cont_88_lstm1_cont_slice_87_split_0
I1018 00:07:53.857856 30031 net.cpp:380] cont_88_lstm1_cont_slice_87_split -> cont_88_lstm1_cont_slice_87_split_1
I1018 00:07:53.857882 30031 net.cpp:122] Setting up cont_88_lstm1_cont_slice_87_split
I1018 00:07:53.857888 30031 net.cpp:129] Top shape: 1 2 (2)
I1018 00:07:53.857893 30031 net.cpp:129] Top shape: 1 2 (2)
I1018 00:07:53.857897 30031 net.cpp:137] Memory required for data: 815552
I1018 00:07:53.857902 30031 layer_factory.hpp:77] Creating layer cont_89_lstm1_cont_slice_88_split
I1018 00:07:53.857909 30031 net.cpp:84] Creating Layer cont_89_lstm1_cont_slice_88_split
I1018 00:07:53.857913 30031 net.cpp:406] cont_89_lstm1_cont_slice_88_split <- cont_89
I1018 00:07:53.857919 30031 net.cpp:380] cont_89_lstm1_cont_slice_88_split -> cont_89_lstm1_cont_slice_88_split_0
I1018 00:07:53.857925 30031 net.cpp:380] cont_89_lstm1_cont_slice_88_split -> cont_89_lstm1_cont_slice_88_split_1
I1018 00:07:53.857956 30031 net.cpp:122] Setting up cont_89_lstm1_cont_slice_88_split
I1018 00:07:53.857964 30031 net.cpp:129] Top shape: 1 2 (2)
I1018 00:07:53.857969 30031 net.cpp:129] Top shape: 1 2 (2)
I1018 00:07:53.857972 30031 net.cpp:137] Memory required for data: 815568
I1018 00:07:53.857976 30031 layer_factory.hpp:77] Creating layer cont_90_lstm1_cont_slice_89_split
I1018 00:07:53.857982 30031 net.cpp:84] Creating Layer cont_90_lstm1_cont_slice_89_split
I1018 00:07:53.857986 30031 net.cpp:406] cont_90_lstm1_cont_slice_89_split <- cont_90
I1018 00:07:53.857992 30031 net.cpp:380] cont_90_lstm1_cont_slice_89_split -> cont_90_lstm1_cont_slice_89_split_0
I1018 00:07:53.857998 30031 net.cpp:380] cont_90_lstm1_cont_slice_89_split -> cont_90_lstm1_cont_slice_89_split_1
I1018 00:07:53.858031 30031 net.cpp:122] Setting up cont_90_lstm1_cont_slice_89_split
I1018 00:07:53.858036 30031 net.cpp:129] Top shape: 1 2 (2)
I1018 00:07:53.858042 30031 net.cpp:129] Top shape: 1 2 (2)
I1018 00:07:53.858044 30031 net.cpp:137] Memory required for data: 815584
I1018 00:07:53.858048 30031 layer_factory.hpp:77] Creating layer cont_91_lstm1_cont_slice_90_split
I1018 00:07:53.858054 30031 net.cpp:84] Creating Layer cont_91_lstm1_cont_slice_90_split
I1018 00:07:53.858058 30031 net.cpp:406] cont_91_lstm1_cont_slice_90_split <- cont_91
I1018 00:07:53.858063 30031 net.cpp:380] cont_91_lstm1_cont_slice_90_split -> cont_91_lstm1_cont_slice_90_split_0
I1018 00:07:53.858070 30031 net.cpp:380] cont_91_lstm1_cont_slice_90_split -> cont_91_lstm1_cont_slice_90_split_1
I1018 00:07:53.858101 30031 net.cpp:122] Setting up cont_91_lstm1_cont_slice_90_split
I1018 00:07:53.858108 30031 net.cpp:129] Top shape: 1 2 (2)
I1018 00:07:53.858113 30031 net.cpp:129] Top shape: 1 2 (2)
I1018 00:07:53.858115 30031 net.cpp:137] Memory required for data: 815600
I1018 00:07:53.858119 30031 layer_factory.hpp:77] Creating layer cont_92_lstm1_cont_slice_91_split
I1018 00:07:53.858124 30031 net.cpp:84] Creating Layer cont_92_lstm1_cont_slice_91_split
I1018 00:07:53.858129 30031 net.cpp:406] cont_92_lstm1_cont_slice_91_split <- cont_92
I1018 00:07:53.858137 30031 net.cpp:380] cont_92_lstm1_cont_slice_91_split -> cont_92_lstm1_cont_slice_91_split_0
I1018 00:07:53.858144 30031 net.cpp:380] cont_92_lstm1_cont_slice_91_split -> cont_92_lstm1_cont_slice_91_split_1
I1018 00:07:53.858172 30031 net.cpp:122] Setting up cont_92_lstm1_cont_slice_91_split
I1018 00:07:53.858178 30031 net.cpp:129] Top shape: 1 2 (2)
I1018 00:07:53.858183 30031 net.cpp:129] Top shape: 1 2 (2)
I1018 00:07:53.858186 30031 net.cpp:137] Memory required for data: 815616
I1018 00:07:53.858191 30031 layer_factory.hpp:77] Creating layer cont_93_lstm1_cont_slice_92_split
I1018 00:07:53.858198 30031 net.cpp:84] Creating Layer cont_93_lstm1_cont_slice_92_split
I1018 00:07:53.858202 30031 net.cpp:406] cont_93_lstm1_cont_slice_92_split <- cont_93
I1018 00:07:53.858208 30031 net.cpp:380] cont_93_lstm1_cont_slice_92_split -> cont_93_lstm1_cont_slice_92_split_0
I1018 00:07:53.858214 30031 net.cpp:380] cont_93_lstm1_cont_slice_92_split -> cont_93_lstm1_cont_slice_92_split_1
I1018 00:07:53.858245 30031 net.cpp:122] Setting up cont_93_lstm1_cont_slice_92_split
I1018 00:07:53.858252 30031 net.cpp:129] Top shape: 1 2 (2)
I1018 00:07:53.858256 30031 net.cpp:129] Top shape: 1 2 (2)
I1018 00:07:53.858260 30031 net.cpp:137] Memory required for data: 815632
I1018 00:07:53.858264 30031 layer_factory.hpp:77] Creating layer cont_94_lstm1_cont_slice_93_split
I1018 00:07:53.858269 30031 net.cpp:84] Creating Layer cont_94_lstm1_cont_slice_93_split
I1018 00:07:53.858273 30031 net.cpp:406] cont_94_lstm1_cont_slice_93_split <- cont_94
I1018 00:07:53.858279 30031 net.cpp:380] cont_94_lstm1_cont_slice_93_split -> cont_94_lstm1_cont_slice_93_split_0
I1018 00:07:53.858285 30031 net.cpp:380] cont_94_lstm1_cont_slice_93_split -> cont_94_lstm1_cont_slice_93_split_1
I1018 00:07:53.858315 30031 net.cpp:122] Setting up cont_94_lstm1_cont_slice_93_split
I1018 00:07:53.858321 30031 net.cpp:129] Top shape: 1 2 (2)
I1018 00:07:53.858326 30031 net.cpp:129] Top shape: 1 2 (2)
I1018 00:07:53.858330 30031 net.cpp:137] Memory required for data: 815648
I1018 00:07:53.858333 30031 layer_factory.hpp:77] Creating layer cont_95_lstm1_cont_slice_94_split
I1018 00:07:53.858338 30031 net.cpp:84] Creating Layer cont_95_lstm1_cont_slice_94_split
I1018 00:07:53.858342 30031 net.cpp:406] cont_95_lstm1_cont_slice_94_split <- cont_95
I1018 00:07:53.858348 30031 net.cpp:380] cont_95_lstm1_cont_slice_94_split -> cont_95_lstm1_cont_slice_94_split_0
I1018 00:07:53.858356 30031 net.cpp:380] cont_95_lstm1_cont_slice_94_split -> cont_95_lstm1_cont_slice_94_split_1
I1018 00:07:53.858384 30031 net.cpp:122] Setting up cont_95_lstm1_cont_slice_94_split
I1018 00:07:53.858391 30031 net.cpp:129] Top shape: 1 2 (2)
I1018 00:07:53.858395 30031 net.cpp:129] Top shape: 1 2 (2)
I1018 00:07:53.858398 30031 net.cpp:137] Memory required for data: 815664
I1018 00:07:53.858402 30031 layer_factory.hpp:77] Creating layer cont_96_lstm1_cont_slice_95_split
I1018 00:07:53.858407 30031 net.cpp:84] Creating Layer cont_96_lstm1_cont_slice_95_split
I1018 00:07:53.858412 30031 net.cpp:406] cont_96_lstm1_cont_slice_95_split <- cont_96
I1018 00:07:53.858419 30031 net.cpp:380] cont_96_lstm1_cont_slice_95_split -> cont_96_lstm1_cont_slice_95_split_0
I1018 00:07:53.858425 30031 net.cpp:380] cont_96_lstm1_cont_slice_95_split -> cont_96_lstm1_cont_slice_95_split_1
I1018 00:07:53.858455 30031 net.cpp:122] Setting up cont_96_lstm1_cont_slice_95_split
I1018 00:07:53.858461 30031 net.cpp:129] Top shape: 1 2 (2)
I1018 00:07:53.858466 30031 net.cpp:129] Top shape: 1 2 (2)
I1018 00:07:53.858470 30031 net.cpp:137] Memory required for data: 815680
I1018 00:07:53.858474 30031 layer_factory.hpp:77] Creating layer cont_97_lstm1_cont_slice_96_split
I1018 00:07:53.858479 30031 net.cpp:84] Creating Layer cont_97_lstm1_cont_slice_96_split
I1018 00:07:53.858484 30031 net.cpp:406] cont_97_lstm1_cont_slice_96_split <- cont_97
I1018 00:07:53.858489 30031 net.cpp:380] cont_97_lstm1_cont_slice_96_split -> cont_97_lstm1_cont_slice_96_split_0
I1018 00:07:53.858496 30031 net.cpp:380] cont_97_lstm1_cont_slice_96_split -> cont_97_lstm1_cont_slice_96_split_1
I1018 00:07:53.858526 30031 net.cpp:122] Setting up cont_97_lstm1_cont_slice_96_split
I1018 00:07:53.858532 30031 net.cpp:129] Top shape: 1 2 (2)
I1018 00:07:53.858537 30031 net.cpp:129] Top shape: 1 2 (2)
I1018 00:07:53.858541 30031 net.cpp:137] Memory required for data: 815696
I1018 00:07:53.858546 30031 layer_factory.hpp:77] Creating layer cont_98_lstm1_cont_slice_97_split
I1018 00:07:53.858551 30031 net.cpp:84] Creating Layer cont_98_lstm1_cont_slice_97_split
I1018 00:07:53.858554 30031 net.cpp:406] cont_98_lstm1_cont_slice_97_split <- cont_98
I1018 00:07:53.858561 30031 net.cpp:380] cont_98_lstm1_cont_slice_97_split -> cont_98_lstm1_cont_slice_97_split_0
I1018 00:07:53.858566 30031 net.cpp:380] cont_98_lstm1_cont_slice_97_split -> cont_98_lstm1_cont_slice_97_split_1
I1018 00:07:53.858597 30031 net.cpp:122] Setting up cont_98_lstm1_cont_slice_97_split
I1018 00:07:53.858603 30031 net.cpp:129] Top shape: 1 2 (2)
I1018 00:07:53.858608 30031 net.cpp:129] Top shape: 1 2 (2)
I1018 00:07:53.858611 30031 net.cpp:137] Memory required for data: 815712
I1018 00:07:53.858615 30031 layer_factory.hpp:77] Creating layer cont_99_lstm1_cont_slice_98_split
I1018 00:07:53.858626 30031 net.cpp:84] Creating Layer cont_99_lstm1_cont_slice_98_split
I1018 00:07:53.858630 30031 net.cpp:406] cont_99_lstm1_cont_slice_98_split <- cont_99
I1018 00:07:53.858638 30031 net.cpp:380] cont_99_lstm1_cont_slice_98_split -> cont_99_lstm1_cont_slice_98_split_0
I1018 00:07:53.858644 30031 net.cpp:380] cont_99_lstm1_cont_slice_98_split -> cont_99_lstm1_cont_slice_98_split_1
I1018 00:07:53.858672 30031 net.cpp:122] Setting up cont_99_lstm1_cont_slice_98_split
I1018 00:07:53.858678 30031 net.cpp:129] Top shape: 1 2 (2)
I1018 00:07:53.858682 30031 net.cpp:129] Top shape: 1 2 (2)
I1018 00:07:53.858686 30031 net.cpp:137] Memory required for data: 815728
I1018 00:07:53.858690 30031 layer_factory.hpp:77] Creating layer cont_100_lstm1_cont_slice_99_split
I1018 00:07:53.858697 30031 net.cpp:84] Creating Layer cont_100_lstm1_cont_slice_99_split
I1018 00:07:53.858702 30031 net.cpp:406] cont_100_lstm1_cont_slice_99_split <- cont_100
I1018 00:07:53.858708 30031 net.cpp:380] cont_100_lstm1_cont_slice_99_split -> cont_100_lstm1_cont_slice_99_split_0
I1018 00:07:53.858714 30031 net.cpp:380] cont_100_lstm1_cont_slice_99_split -> cont_100_lstm1_cont_slice_99_split_1
I1018 00:07:53.858745 30031 net.cpp:122] Setting up cont_100_lstm1_cont_slice_99_split
I1018 00:07:53.858752 30031 net.cpp:129] Top shape: 1 2 (2)
I1018 00:07:53.858755 30031 net.cpp:129] Top shape: 1 2 (2)
I1018 00:07:53.858759 30031 net.cpp:137] Memory required for data: 815744
I1018 00:07:53.858763 30031 layer_factory.hpp:77] Creating layer cont_101_lstm1_cont_slice_100_split
I1018 00:07:53.858768 30031 net.cpp:84] Creating Layer cont_101_lstm1_cont_slice_100_split
I1018 00:07:53.858772 30031 net.cpp:406] cont_101_lstm1_cont_slice_100_split <- cont_101
I1018 00:07:53.858778 30031 net.cpp:380] cont_101_lstm1_cont_slice_100_split -> cont_101_lstm1_cont_slice_100_split_0
I1018 00:07:53.858784 30031 net.cpp:380] cont_101_lstm1_cont_slice_100_split -> cont_101_lstm1_cont_slice_100_split_1
I1018 00:07:53.858814 30031 net.cpp:122] Setting up cont_101_lstm1_cont_slice_100_split
I1018 00:07:53.858820 30031 net.cpp:129] Top shape: 1 2 (2)
I1018 00:07:53.858825 30031 net.cpp:129] Top shape: 1 2 (2)
I1018 00:07:53.858829 30031 net.cpp:137] Memory required for data: 815760
I1018 00:07:53.858832 30031 layer_factory.hpp:77] Creating layer cont_102_lstm1_cont_slice_101_split
I1018 00:07:53.858839 30031 net.cpp:84] Creating Layer cont_102_lstm1_cont_slice_101_split
I1018 00:07:53.858842 30031 net.cpp:406] cont_102_lstm1_cont_slice_101_split <- cont_102
I1018 00:07:53.858847 30031 net.cpp:380] cont_102_lstm1_cont_slice_101_split -> cont_102_lstm1_cont_slice_101_split_0
I1018 00:07:53.858855 30031 net.cpp:380] cont_102_lstm1_cont_slice_101_split -> cont_102_lstm1_cont_slice_101_split_1
I1018 00:07:53.858885 30031 net.cpp:122] Setting up cont_102_lstm1_cont_slice_101_split
I1018 00:07:53.858891 30031 net.cpp:129] Top shape: 1 2 (2)
I1018 00:07:53.858896 30031 net.cpp:129] Top shape: 1 2 (2)
I1018 00:07:53.858899 30031 net.cpp:137] Memory required for data: 815776
I1018 00:07:53.858903 30031 layer_factory.hpp:77] Creating layer cont_103_lstm1_cont_slice_102_split
I1018 00:07:53.858908 30031 net.cpp:84] Creating Layer cont_103_lstm1_cont_slice_102_split
I1018 00:07:53.858912 30031 net.cpp:406] cont_103_lstm1_cont_slice_102_split <- cont_103
I1018 00:07:53.858920 30031 net.cpp:380] cont_103_lstm1_cont_slice_102_split -> cont_103_lstm1_cont_slice_102_split_0
I1018 00:07:53.858927 30031 net.cpp:380] cont_103_lstm1_cont_slice_102_split -> cont_103_lstm1_cont_slice_102_split_1
I1018 00:07:53.858956 30031 net.cpp:122] Setting up cont_103_lstm1_cont_slice_102_split
I1018 00:07:53.858963 30031 net.cpp:129] Top shape: 1 2 (2)
I1018 00:07:53.858968 30031 net.cpp:129] Top shape: 1 2 (2)
I1018 00:07:53.858973 30031 net.cpp:137] Memory required for data: 815792
I1018 00:07:53.858976 30031 layer_factory.hpp:77] Creating layer cont_104_lstm1_cont_slice_103_split
I1018 00:07:53.858983 30031 net.cpp:84] Creating Layer cont_104_lstm1_cont_slice_103_split
I1018 00:07:53.858986 30031 net.cpp:406] cont_104_lstm1_cont_slice_103_split <- cont_104
I1018 00:07:53.858992 30031 net.cpp:380] cont_104_lstm1_cont_slice_103_split -> cont_104_lstm1_cont_slice_103_split_0
I1018 00:07:53.858999 30031 net.cpp:380] cont_104_lstm1_cont_slice_103_split -> cont_104_lstm1_cont_slice_103_split_1
I1018 00:07:53.859028 30031 net.cpp:122] Setting up cont_104_lstm1_cont_slice_103_split
I1018 00:07:53.859035 30031 net.cpp:129] Top shape: 1 2 (2)
I1018 00:07:53.859040 30031 net.cpp:129] Top shape: 1 2 (2)
I1018 00:07:53.859042 30031 net.cpp:137] Memory required for data: 815808
I1018 00:07:53.859046 30031 layer_factory.hpp:77] Creating layer cont_105_lstm1_cont_slice_104_split
I1018 00:07:53.859051 30031 net.cpp:84] Creating Layer cont_105_lstm1_cont_slice_104_split
I1018 00:07:53.859056 30031 net.cpp:406] cont_105_lstm1_cont_slice_104_split <- cont_105
I1018 00:07:53.859061 30031 net.cpp:380] cont_105_lstm1_cont_slice_104_split -> cont_105_lstm1_cont_slice_104_split_0
I1018 00:07:53.859067 30031 net.cpp:380] cont_105_lstm1_cont_slice_104_split -> cont_105_lstm1_cont_slice_104_split_1
I1018 00:07:53.859097 30031 net.cpp:122] Setting up cont_105_lstm1_cont_slice_104_split
I1018 00:07:53.859103 30031 net.cpp:129] Top shape: 1 2 (2)
I1018 00:07:53.859108 30031 net.cpp:129] Top shape: 1 2 (2)
I1018 00:07:53.859112 30031 net.cpp:137] Memory required for data: 815824
I1018 00:07:53.859115 30031 layer_factory.hpp:77] Creating layer cont_106_lstm1_cont_slice_105_split
I1018 00:07:53.859120 30031 net.cpp:84] Creating Layer cont_106_lstm1_cont_slice_105_split
I1018 00:07:53.859124 30031 net.cpp:406] cont_106_lstm1_cont_slice_105_split <- cont_106
I1018 00:07:53.859133 30031 net.cpp:380] cont_106_lstm1_cont_slice_105_split -> cont_106_lstm1_cont_slice_105_split_0
I1018 00:07:53.859138 30031 net.cpp:380] cont_106_lstm1_cont_slice_105_split -> cont_106_lstm1_cont_slice_105_split_1
I1018 00:07:53.859166 30031 net.cpp:122] Setting up cont_106_lstm1_cont_slice_105_split
I1018 00:07:53.859172 30031 net.cpp:129] Top shape: 1 2 (2)
I1018 00:07:53.859177 30031 net.cpp:129] Top shape: 1 2 (2)
I1018 00:07:53.859180 30031 net.cpp:137] Memory required for data: 815840
I1018 00:07:53.859184 30031 layer_factory.hpp:77] Creating layer cont_107_lstm1_cont_slice_106_split
I1018 00:07:53.859191 30031 net.cpp:84] Creating Layer cont_107_lstm1_cont_slice_106_split
I1018 00:07:53.859196 30031 net.cpp:406] cont_107_lstm1_cont_slice_106_split <- cont_107
I1018 00:07:53.859201 30031 net.cpp:380] cont_107_lstm1_cont_slice_106_split -> cont_107_lstm1_cont_slice_106_split_0
I1018 00:07:53.859208 30031 net.cpp:380] cont_107_lstm1_cont_slice_106_split -> cont_107_lstm1_cont_slice_106_split_1
I1018 00:07:53.859238 30031 net.cpp:122] Setting up cont_107_lstm1_cont_slice_106_split
I1018 00:07:53.859244 30031 net.cpp:129] Top shape: 1 2 (2)
I1018 00:07:53.859248 30031 net.cpp:129] Top shape: 1 2 (2)
I1018 00:07:53.859252 30031 net.cpp:137] Memory required for data: 815856
I1018 00:07:53.859256 30031 layer_factory.hpp:77] Creating layer cont_108_lstm1_cont_slice_107_split
I1018 00:07:53.859261 30031 net.cpp:84] Creating Layer cont_108_lstm1_cont_slice_107_split
I1018 00:07:53.859266 30031 net.cpp:406] cont_108_lstm1_cont_slice_107_split <- cont_108
I1018 00:07:53.859272 30031 net.cpp:380] cont_108_lstm1_cont_slice_107_split -> cont_108_lstm1_cont_slice_107_split_0
I1018 00:07:53.859277 30031 net.cpp:380] cont_108_lstm1_cont_slice_107_split -> cont_108_lstm1_cont_slice_107_split_1
I1018 00:07:53.859308 30031 net.cpp:122] Setting up cont_108_lstm1_cont_slice_107_split
I1018 00:07:53.859313 30031 net.cpp:129] Top shape: 1 2 (2)
I1018 00:07:53.859318 30031 net.cpp:129] Top shape: 1 2 (2)
I1018 00:07:53.859321 30031 net.cpp:137] Memory required for data: 815872
I1018 00:07:53.859325 30031 layer_factory.hpp:77] Creating layer cont_109_lstm1_cont_slice_108_split
I1018 00:07:53.859331 30031 net.cpp:84] Creating Layer cont_109_lstm1_cont_slice_108_split
I1018 00:07:53.859335 30031 net.cpp:406] cont_109_lstm1_cont_slice_108_split <- cont_109
I1018 00:07:53.859340 30031 net.cpp:380] cont_109_lstm1_cont_slice_108_split -> cont_109_lstm1_cont_slice_108_split_0
I1018 00:07:53.859347 30031 net.cpp:380] cont_109_lstm1_cont_slice_108_split -> cont_109_lstm1_cont_slice_108_split_1
I1018 00:07:53.859376 30031 net.cpp:122] Setting up cont_109_lstm1_cont_slice_108_split
I1018 00:07:53.859382 30031 net.cpp:129] Top shape: 1 2 (2)
I1018 00:07:53.859387 30031 net.cpp:129] Top shape: 1 2 (2)
I1018 00:07:53.859391 30031 net.cpp:137] Memory required for data: 815888
I1018 00:07:53.859395 30031 layer_factory.hpp:77] Creating layer cont_110_lstm1_cont_slice_109_split
I1018 00:07:53.859400 30031 net.cpp:84] Creating Layer cont_110_lstm1_cont_slice_109_split
I1018 00:07:53.859405 30031 net.cpp:406] cont_110_lstm1_cont_slice_109_split <- cont_110
I1018 00:07:53.859412 30031 net.cpp:380] cont_110_lstm1_cont_slice_109_split -> cont_110_lstm1_cont_slice_109_split_0
I1018 00:07:53.859418 30031 net.cpp:380] cont_110_lstm1_cont_slice_109_split -> cont_110_lstm1_cont_slice_109_split_1
I1018 00:07:53.859447 30031 net.cpp:122] Setting up cont_110_lstm1_cont_slice_109_split
I1018 00:07:53.859452 30031 net.cpp:129] Top shape: 1 2 (2)
I1018 00:07:53.859457 30031 net.cpp:129] Top shape: 1 2 (2)
I1018 00:07:53.859460 30031 net.cpp:137] Memory required for data: 815904
I1018 00:07:53.859464 30031 layer_factory.hpp:77] Creating layer cont_111_lstm1_cont_slice_110_split
I1018 00:07:53.859472 30031 net.cpp:84] Creating Layer cont_111_lstm1_cont_slice_110_split
I1018 00:07:53.859477 30031 net.cpp:406] cont_111_lstm1_cont_slice_110_split <- cont_111
I1018 00:07:53.859482 30031 net.cpp:380] cont_111_lstm1_cont_slice_110_split -> cont_111_lstm1_cont_slice_110_split_0
I1018 00:07:53.859488 30031 net.cpp:380] cont_111_lstm1_cont_slice_110_split -> cont_111_lstm1_cont_slice_110_split_1
I1018 00:07:53.859517 30031 net.cpp:122] Setting up cont_111_lstm1_cont_slice_110_split
I1018 00:07:53.859524 30031 net.cpp:129] Top shape: 1 2 (2)
I1018 00:07:53.859529 30031 net.cpp:129] Top shape: 1 2 (2)
I1018 00:07:53.859532 30031 net.cpp:137] Memory required for data: 815920
I1018 00:07:53.859536 30031 layer_factory.hpp:77] Creating layer cont_112_lstm1_cont_slice_111_split
I1018 00:07:53.859541 30031 net.cpp:84] Creating Layer cont_112_lstm1_cont_slice_111_split
I1018 00:07:53.859545 30031 net.cpp:406] cont_112_lstm1_cont_slice_111_split <- cont_112
I1018 00:07:53.859550 30031 net.cpp:380] cont_112_lstm1_cont_slice_111_split -> cont_112_lstm1_cont_slice_111_split_0
I1018 00:07:53.859557 30031 net.cpp:380] cont_112_lstm1_cont_slice_111_split -> cont_112_lstm1_cont_slice_111_split_1
I1018 00:07:53.876247 30031 net.cpp:122] Setting up cont_112_lstm1_cont_slice_111_split
I1018 00:07:53.876292 30031 net.cpp:129] Top shape: 1 2 (2)
I1018 00:07:53.876305 30031 net.cpp:129] Top shape: 1 2 (2)
I1018 00:07:53.876314 30031 net.cpp:137] Memory required for data: 815936
I1018 00:07:53.876325 30031 layer_factory.hpp:77] Creating layer cont_113_lstm1_cont_slice_112_split
I1018 00:07:53.876344 30031 net.cpp:84] Creating Layer cont_113_lstm1_cont_slice_112_split
I1018 00:07:53.876358 30031 net.cpp:406] cont_113_lstm1_cont_slice_112_split <- cont_113
I1018 00:07:53.876379 30031 net.cpp:380] cont_113_lstm1_cont_slice_112_split -> cont_113_lstm1_cont_slice_112_split_0
I1018 00:07:53.876405 30031 net.cpp:380] cont_113_lstm1_cont_slice_112_split -> cont_113_lstm1_cont_slice_112_split_1
I1018 00:07:53.876489 30031 net.cpp:122] Setting up cont_113_lstm1_cont_slice_112_split
I1018 00:07:53.876503 30031 net.cpp:129] Top shape: 1 2 (2)
I1018 00:07:53.876513 30031 net.cpp:129] Top shape: 1 2 (2)
I1018 00:07:53.876521 30031 net.cpp:137] Memory required for data: 815952
I1018 00:07:53.876529 30031 layer_factory.hpp:77] Creating layer cont_114_lstm1_cont_slice_113_split
I1018 00:07:53.876545 30031 net.cpp:84] Creating Layer cont_114_lstm1_cont_slice_113_split
I1018 00:07:53.876555 30031 net.cpp:406] cont_114_lstm1_cont_slice_113_split <- cont_114
I1018 00:07:53.876569 30031 net.cpp:380] cont_114_lstm1_cont_slice_113_split -> cont_114_lstm1_cont_slice_113_split_0
I1018 00:07:53.876583 30031 net.cpp:380] cont_114_lstm1_cont_slice_113_split -> cont_114_lstm1_cont_slice_113_split_1
I1018 00:07:53.876652 30031 net.cpp:122] Setting up cont_114_lstm1_cont_slice_113_split
I1018 00:07:53.876663 30031 net.cpp:129] Top shape: 1 2 (2)
I1018 00:07:53.876673 30031 net.cpp:129] Top shape: 1 2 (2)
I1018 00:07:53.876682 30031 net.cpp:137] Memory required for data: 815968
…
I1018 00:08:01.372439 30031 net.cpp:406] lstm1_gate_input_183 <- W_xc_x_183
I1018 00:08:01.372452 30031 net.cpp:380] lstm1_gate_input_183 -> gate_input_183
I1018 00:08:01.372494 30031 net.cpp:122] Setting up lstm1_gate_input_183
I1018 00:08:01.372508 30031 net.cpp:129] Top shape: 1 150 2048 (307200)
I1018 00:08:01.372514 30031 net.cpp:137] Memory required for data: 1272585600
I1018 00:08:01.372521 30031 layer_factory.hpp:77] Creating layer lstm1_unit_183
I1018 00:08:01.372548 30031 net.cpp:84] Creating Layer lstm1_unit_183
I1018 00:08:01.372562 30031 net.cpp:406] lstm1_unit_183 <- c_182
I1018 00:08:01.372573 30031 net.cpp:406] lstm1_unit_183 <- gate_input_183
I1018 00:08:01.372586 30031 net.cpp:406] lstm1_unit_183 <- cont_183_lstm1_cont_slice_182_split_1
I1018 00:08:01.372607 30031 net.cpp:380] lstm1_unit_183 -> c_183
I1018 00:08:01.372622 30031 net.cpp:380] lstm1_unit_183 -> h_183
I1018 00:08:01.372697 30031 net.cpp:122] Setting up lstm1_unit_183
I1018 00:08:01.372712 30031 net.cpp:129] Top shape: 1 150 512 (76800)
I1018 00:08:01.372720 30031 net.cpp:129] Top shape: 1 150 512 (76800)
I1018 00:08:01.372727 30031 net.cpp:137] Memory required for data: 1273200000
I1018 00:08:01.372735 30031 layer_factory.hpp:77] Creating layer h_183_lstm1_unit_183_1_split
I1018 00:08:01.372745 30031 net.cpp:84] Creating Layer h_183_lstm1_unit_183_1_split
I1018 00:08:01.372752 30031 net.cpp:406] h_183_lstm1_unit_183_1_split <- h_183
I1018 00:08:01.372766 30031 net.cpp:380] h_183_lstm1_unit_183_1_split -> h_183_lstm1_unit_183_1_split_0
I1018 00:08:01.372786 30031 net.cpp:380] h_183_lstm1_unit_183_1_split -> h_183_lstm1_unit_183_1_split_1
I1018 00:08:01.372866 30031 net.cpp:122] Setting up h_183_lstm1_unit_183_1_split
I1018 00:08:01.372890 30031 net.cpp:129] Top shape: 1 150 512 (76800)
I1018 00:08:01.372907 30031 net.cpp:129] Top shape: 1 150 512 (76800)
I1018 00:08:01.372922 30031 net.cpp:137] Memory required for data: 1273814400
I1018 00:08:01.372941 30031 layer_factory.hpp:77] Creating layer lstm1_h_conted_183
I1018 00:08:01.372968 30031 net.cpp:84] Creating Layer lstm1_h_conted_183
I1018 00:08:01.372987 30031 net.cpp:406] lstm1_h_conted_183 <- h_183_lstm1_unit_183_1_split_0
I1018 00:08:01.373008 30031 net.cpp:406] lstm1_h_conted_183 <- cont_184_lstm1_cont_slice_183_split_0
I1018 00:08:01.373030 30031 net.cpp:380] lstm1_h_conted_183 -> h_conted_183
I1018 00:08:01.373210 30031 net.cpp:122] Setting up lstm1_h_conted_183
I1018 00:08:01.373229 30031 net.cpp:129] Top shape: 1 150 512 (76800)
I1018 00:08:01.373239 30031 net.cpp:137] Memory required for data: 1274121600
I1018 00:08:01.373245 30031 layer_factory.hpp:77] Creating layer lstm1_transform_184
I1018 00:08:01.373262 30031 net.cpp:84] Creating Layer lstm1_transform_184
I1018 00:08:01.373275 30031 net.cpp:406] lstm1_transform_184 <- h_conted_183
I1018 00:08:01.373289 30031 net.cpp:380] lstm1_transform_184 -> W_hc_h_183
I1018 00:08:01.386755 30031 net.cpp:122] Setting up lstm1_transform_184
I1018 00:08:01.386783 30031 net.cpp:129] Top shape: 1 150 2048 (307200)
I1018 00:08:01.386790 30031 net.cpp:137] Memory required for data: 1275350400
I1018 00:08:01.386800 30031 net.cpp:465] Sharing parameters 'W_hc' owned by layer 'lstm1_transform_1', param index 0
I1018 00:08:01.386811 30031 layer_factory.hpp:77] Creating layer lstm1_gate_input_184
I1018 00:08:01.386847 30031 net.cpp:84] Creating Layer lstm1_gate_input_184
I1018 00:08:01.386858 30031 net.cpp:406] lstm1_gate_input_184 <- W_hc_h_183
I1018 00:08:01.386871 30031 net.cpp:406] lstm1_gate_input_184 <- W_xc_x_184
I1018 00:08:01.386883 30031 net.cpp:380] lstm1_gate_input_184 -> gate_input_184
I1018 00:08:01.386932 30031 net.cpp:122] Setting up lstm1_gate_input_184
I1018 00:08:01.386946 30031 net.cpp:129] Top shape: 1 150 2048 (307200)
I1018 00:08:01.386952 30031 net.cpp:137] Memory required for data: 1276579200
I1018 00:08:01.386960 30031 layer_factory.hpp:77] Creating layer lstm1_unit_184
I1018 00:08:01.386970 30031 net.cpp:84] Creating Layer lstm1_unit_184
I1018 00:08:01.386983 30031 net.cpp:406] lstm1_unit_184 <- c_183
I1018 00:08:01.386992 30031 net.cpp:406] lstm1_unit_184 <- gate_input_184
I1018 00:08:01.387004 30031 net.cpp:406] lstm1_unit_184 <- cont_184_lstm1_cont_slice_183_split_1
I1018 00:08:01.387017 30031 net.cpp:380] lstm1_unit_184 -> c_184
I1018 00:08:01.387032 30031 net.cpp:380] lstm1_unit_184 -> h_184
I1018 00:08:01.387118 30031 net.cpp:122] Setting up lstm1_unit_184
I1018 00:08:01.387132 30031 net.cpp:129] Top shape: 1 150 512 (76800)
I1018 00:08:01.387141 30031 net.cpp:129] Top shape: 1 150 512 (76800)
I1018 00:08:01.387148 30031 net.cpp:137] Memory required for data: 1277193600
I1018 00:08:01.387154 30031 layer_factory.hpp:77] Creating layer h_184_lstm1_unit_184_1_split
I1018 00:08:01.387166 30031 net.cpp:84] Creating Layer h_184_lstm1_unit_184_1_split
I1018 00:08:01.387178 30031 net.cpp:406] h_184_lstm1_unit_184_1_split <- h_184
I1018 00:08:01.387188 30031 net.cpp:380] h_184_lstm1_unit_184_1_split -> h_184_lstm1_unit_184_1_split_0
I1018 00:08:01.387203 30031 net.cpp:380] h_184_lstm1_unit_184_1_split -> h_184_lstm1_unit_184_1_split_1
I1018 00:08:01.387256 30031 net.cpp:122] Setting up h_184_lstm1_unit_184_1_split
I1018 00:08:01.387269 30031 net.cpp:129] Top shape: 1 150 512 (76800)
I1018 00:08:01.387277 30031 net.cpp:129] Top shape: 1 150 512 (76800)
I1018 00:08:01.387284 30031 net.cpp:137] Memory required for data: 1277808000
I1018 00:08:01.387290 30031 layer_factory.hpp:77] Creating layer lstm1_h_conted_184
I1018 00:08:01.387305 30031 net.cpp:84] Creating Layer lstm1_h_conted_184
I1018 00:08:01.387313 30031 net.cpp:406] lstm1_h_conted_184 <- h_184_lstm1_unit_184_1_split_0
I1018 00:08:01.387325 30031 net.cpp:406] lstm1_h_conted_184 <- cont_185_lstm1_cont_slice_184_split_0
I1018 00:08:01.387338 30031 net.cpp:380] lstm1_h_conted_184 -> h_conted_184
I1018 00:08:01.387465 30031 net.cpp:122] Setting up lstm1_h_conted_184
I1018 00:08:01.387480 30031 net.cpp:129] Top shape: 1 150 512 (76800)
I1018 00:08:01.387487 30031 net.cpp:137] Memory required for data: 1278115200
I1018 00:08:01.387495 30031 layer_factory.hpp:77] Creating layer lstm1_transform_185
I1018 00:08:01.387508 30031 net.cpp:84] Creating Layer lstm1_transform_185
I1018 00:08:01.387521 30031 net.cpp:406] lstm1_transform_185 <- h_conted_184
I1018 00:08:01.387533 30031 net.cpp:380] lstm1_transform_185 -> W_hc_h_184
I1018 00:08:01.400826 30031 net.cpp:122] Setting up lstm1_transform_185
I1018 00:08:01.400848 30031 net.cpp:129] Top shape: 1 150 2048 (307200)
I1018 00:08:01.400856 30031 net.cpp:137] Memory required for data: 1279344000
I1018 00:08:01.400864 30031 net.cpp:465] Sharing parameters 'W_hc' owned by layer 'lstm1_transform_1', param index 0
I1018 00:08:01.400872 30031 layer_factory.hpp:77] Creating layer lstm1_gate_input_185
I1018 00:08:01.400895 30031 net.cpp:84] Creating Layer lstm1_gate_input_185
I1018 00:08:01.400909 30031 net.cpp:406] lstm1_gate_input_185 <- W_hc_h_184
I1018 00:08:01.400931 30031 net.cpp:406] lstm1_gate_input_185 <- W_xc_x_185
I1018 00:08:01.400945 30031 net.cpp:380] lstm1_gate_input_185 -> gate_input_185
I1018 00:08:01.400988 30031 net.cpp:122] Setting up lstm1_gate_input_185
I1018 00:08:01.401002 30031 net.cpp:129] Top shape: 1 150 2048 (307200)
I1018 00:08:01.401010 30031 net.cpp:137] Memory required for data: 1280572800
I1018 00:08:01.401016 30031 layer_factory.hpp:77] Creating layer lstm1_unit_185
I1018 00:08:01.401026 30031 net.cpp:84] Creating Layer lstm1_unit_185
I1018 00:08:01.401034 30031 net.cpp:406] lstm1_unit_185 <- c_184
I1018 00:08:01.401044 30031 net.cpp:406] lstm1_unit_185 <- gate_input_185
I1018 00:08:01.401055 30031 net.cpp:406] lstm1_unit_185 <- cont_185_lstm1_cont_slice_184_split_1
I1018 00:08:01.401067 30031 net.cpp:380] lstm1_unit_185 -> c_185
I1018 00:08:01.401084 30031 net.cpp:380] lstm1_unit_185 -> h_185
I1018 00:08:01.401157 30031 net.cpp:122] Setting up lstm1_unit_185
I1018 00:08:01.401171 30031 net.cpp:129] Top shape: 1 150 512 (76800)
I1018 00:08:01.401181 30031 net.cpp:129] Top shape: 1 150 512 (76800)
I1018 00:08:01.401188 30031 net.cpp:137] Memory required for data: 1281187200
I1018 00:08:01.401196 30031 layer_factory.hpp:77] Creating layer h_185_lstm1_unit_185_1_split
I1018 00:08:01.401206 30031 net.cpp:84] Creating Layer h_185_lstm1_unit_185_1_split
I1018 00:08:01.401213 30031 net.cpp:406] h_185_lstm1_unit_185_1_split <- h_185
I1018 00:08:01.401223 30031 net.cpp:380] h_185_lstm1_unit_185_1_split -> h_185_lstm1_unit_185_1_split_0
I1018 00:08:01.401239 30031 net.cpp:380] h_185_lstm1_unit_185_1_split -> h_185_lstm1_unit_185_1_split_1
I1018 00:08:01.401301 30031 net.cpp:122] Setting up h_185_lstm1_unit_185_1_split
I1018 00:08:01.401314 30031 net.cpp:129] Top shape: 1 150 512 (76800)
I1018 00:08:01.401324 30031 net.cpp:129] Top shape: 1 150 512 (76800)
I1018 00:08:01.401331 30031 net.cpp:137] Memory required for data: 1281801600
I1018 00:08:01.401338 30031 layer_factory.hpp:77] Creating layer lstm1_h_conted_185
I1018 00:08:01.401352 30031 net.cpp:84] Creating Layer lstm1_h_conted_185
I1018 00:08:01.401360 30031 net.cpp:406] lstm1_h_conted_185 <- h_185_lstm1_unit_185_1_split_0
I1018 00:08:01.401371 30031 net.cpp:406] lstm1_h_conted_185 <- cont_186_lstm1_cont_slice_185_split_0
I1018 00:08:01.401383 30031 net.cpp:380] lstm1_h_conted_185 -> h_conted_185
I1018 00:08:01.401491 30031 net.cpp:122] Setting up lstm1_h_conted_185
I1018 00:08:01.401505 30031 net.cpp:129] Top shape: 1 150 512 (76800)
I1018 00:08:01.401513 30031 net.cpp:137] Memory required for data: 1282108800
I1018 00:08:01.401521 30031 layer_factory.hpp:77] Creating layer lstm1_transform_186
I1018 00:08:01.401541 30031 net.cpp:84] Creating Layer lstm1_transform_186
I1018 00:08:01.401552 30031 net.cpp:406] lstm1_transform_186 <- h_conted_185
I1018 00:08:01.401567 30031 net.cpp:380] lstm1_transform_186 -> W_hc_h_185
I1018 00:08:01.414764 30031 net.cpp:122] Setting up lstm1_transform_186
I1018 00:08:01.414785 30031 net.cpp:129] Top shape: 1 150 2048 (307200)
I1018 00:08:01.414793 30031 net.cpp:137] Memory required for data: 1283337600
I1018 00:08:01.414800 30031 net.cpp:465] Sharing parameters 'W_hc' owned by layer 'lstm1_transform_1', param index 0
I1018 00:08:01.414808 30031 layer_factory.hpp:77] Creating layer lstm1_gate_input_186
I1018 00:08:01.414820 30031 net.cpp:84] Creating Layer lstm1_gate_input_186
I1018 00:08:01.414839 30031 net.cpp:406] lstm1_gate_input_186 <- W_hc_h_185
I1018 00:08:01.414849 30031 net.cpp:406] lstm1_gate_input_186 <- W_xc_x_186
I1018 00:08:01.414862 30031 net.cpp:380] lstm1_gate_input_186 -> gate_input_186
I1018 00:08:01.414903 30031 net.cpp:122] Setting up lstm1_gate_input_186
I1018 00:08:01.414916 30031 net.cpp:129] Top shape: 1 150 2048 (307200)
I1018 00:08:01.414922 30031 net.cpp:137] Memory required for data: 1284566400
I1018 00:08:01.414929 30031 layer_factory.hpp:77] Creating layer lstm1_unit_186
I1018 00:08:01.414939 30031 net.cpp:84] Creating Layer lstm1_unit_186
I1018 00:08:01.414947 30031 net.cpp:406] lstm1_unit_186 <- c_185
I1018 00:08:01.414957 30031 net.cpp:406] lstm1_unit_186 <- gate_input_186
I1018 00:08:01.414965 30031 net.cpp:406] lstm1_unit_186 <- cont_186_lstm1_cont_slice_185_split_1
I1018 00:08:01.414975 30031 net.cpp:380] lstm1_unit_186 -> c_186
I1018 00:08:01.414988 30031 net.cpp:380] lstm1_unit_186 -> h_186
I1018 00:08:01.415069 30031 net.cpp:122] Setting up lstm1_unit_186
I1018 00:08:01.415083 30031 net.cpp:129] Top shape: 1 150 512 (76800)
I1018 00:08:01.415094 30031 net.cpp:129] Top shape: 1 150 512 (76800)
I1018 00:08:01.415112 30031 net.cpp:137] Memory required for data: 1285180800
I1018 00:08:01.415118 30031 layer_factory.hpp:77] Creating layer h_186_lstm1_unit_186_1_split
I1018 00:08:01.415129 30031 net.cpp:84] Creating Layer h_186_lstm1_unit_186_1_split
I1018 00:08:01.415138 30031 net.cpp:406] h_186_lstm1_unit_186_1_split <- h_186
I1018 00:08:01.415148 30031 net.cpp:380] h_186_lstm1_unit_186_1_split -> h_186_lstm1_unit_186_1_split_0
I1018 00:08:01.415159 30031 net.cpp:380] h_186_lstm1_unit_186_1_split -> h_186_lstm1_unit_186_1_split_1
I1018 00:08:01.415211 30031 net.cpp:122] Setting up h_186_lstm1_unit_186_1_split
I1018 00:08:01.415225 30031 net.cpp:129] Top shape: 1 150 512 (76800)
I1018 00:08:01.415233 30031 net.cpp:129] Top shape: 1 150 512 (76800)
I1018 00:08:01.415240 30031 net.cpp:137] Memory required for data: 1285795200
I1018 00:08:01.415248 30031 layer_factory.hpp:77] Creating layer lstm1_h_conted_186
I1018 00:08:01.415258 30031 net.cpp:84] Creating Layer lstm1_h_conted_186
I1018 00:08:01.415266 30031 net.cpp:406] lstm1_h_conted_186 <- h_186_lstm1_unit_186_1_split_0
I1018 00:08:01.415277 30031 net.cpp:406] lstm1_h_conted_186 <- cont_187_lstm1_cont_slice_186_split_0
I1018 00:08:01.415298 30031 net.cpp:380] lstm1_h_conted_186 -> h_conted_186
I1018 00:08:01.415405 30031 net.cpp:122] Setting up lstm1_h_conted_186
I1018 00:08:01.415419 30031 net.cpp:129] Top shape: 1 150 512 (76800)
I1018 00:08:01.415426 30031 net.cpp:137] Memory required for data: 1286102400
I1018 00:08:01.415432 30031 layer_factory.hpp:77] Creating layer lstm1_transform_187
I1018 00:08:01.415452 30031 net.cpp:84] Creating Layer lstm1_transform_187
I1018 00:08:01.415465 30031 net.cpp:406] lstm1_transform_187 <- h_conted_186
I1018 00:08:01.415488 30031 net.cpp:380] lstm1_transform_187 -> W_hc_h_186
I1018 00:08:01.428604 30031 net.cpp:122] Setting up lstm1_transform_187
I1018 00:08:01.428627 30031 net.cpp:129] Top shape: 1 150 2048 (307200)
I1018 00:08:01.428633 30031 net.cpp:137] Memory required for data: 1287331200
I1018 00:08:01.428642 30031 net.cpp:465] Sharing parameters 'W_hc' owned by layer 'lstm1_transform_1', param index 0
I1018 00:08:01.428649 30031 layer_factory.hpp:77] Creating layer lstm1_gate_input_187
I1018 00:08:01.428660 30031 net.cpp:84] Creating Layer lstm1_gate_input_187
I1018 00:08:01.428668 30031 net.cpp:406] lstm1_gate_input_187 <- W_hc_h_186
I1018 00:08:01.428679 30031 net.cpp:406] lstm1_gate_input_187 <- W_xc_x_187
I1018 00:08:01.428690 30031 net.cpp:380] lstm1_gate_input_187 -> gate_input_187
I1018 00:08:01.428732 30031 net.cpp:122] Setting up lstm1_gate_input_187
I1018 00:08:01.428746 30031 net.cpp:129] Top shape: 1 150 2048 (307200)
I1018 00:08:01.428753 30031 net.cpp:137] Memory required for data: 1288560000
I1018 00:08:01.428759 30031 layer_factory.hpp:77] Creating layer lstm1_unit_187
I1018 00:08:01.428771 30031 net.cpp:84] Creating Layer lstm1_unit_187
I1018 00:08:01.428783 30031 net.cpp:406] lstm1_unit_187 <- c_186
I1018 00:08:01.428793 30031 net.cpp:406] lstm1_unit_187 <- gate_input_187
I1018 00:08:01.428805 30031 net.cpp:406] lstm1_unit_187 <- cont_187_lstm1_cont_slice_186_split_1
I1018 00:08:01.428815 30031 net.cpp:380] lstm1_unit_187 -> c_187
I1018 00:08:01.428828 30031 net.cpp:380] lstm1_unit_187 -> h_187
I1018 00:08:01.428899 30031 net.cpp:122] Setting up lstm1_unit_187
I1018 00:08:01.428912 30031 net.cpp:129] Top shape: 1 150 512 (76800)
I1018 00:08:01.428920 30031 net.cpp:129] Top shape: 1 150 512 (76800)
I1018 00:08:01.428927 30031 net.cpp:137] Memory required for data: 1289174400
I1018 00:08:01.428934 30031 layer_factory.hpp:77] Creating layer h_187_lstm1_unit_187_1_split
I1018 00:08:01.428946 30031 net.cpp:84] Creating Layer h_187_lstm1_unit_187_1_split
I1018 00:08:01.428953 30031 net.cpp:406] h_187_lstm1_unit_187_1_split <- h_187
I1018 00:08:01.428963 30031 net.cpp:380] h_187_lstm1_unit_187_1_split -> h_187_lstm1_unit_187_1_split_0
I1018 00:08:01.428975 30031 net.cpp:380] h_187_lstm1_unit_187_1_split -> h_187_lstm1_unit_187_1_split_1
I1018 00:08:01.429030 30031 net.cpp:122] Setting up h_187_lstm1_unit_187_1_split
I1018 00:08:01.429044 30031 net.cpp:129] Top shape: 1 150 512 (76800)
I1018 00:08:01.429052 30031 net.cpp:129] Top shape: 1 150 512 (76800)
I1018 00:08:01.429059 30031 net.cpp:137] Memory required for data: 1289788800
I1018 00:08:01.429065 30031 layer_factory.hpp:77] Creating layer lstm1_h_conted_187
I1018 00:08:01.429086 30031 net.cpp:84] Creating Layer lstm1_h_conted_187
I1018 00:08:01.429100 30031 net.cpp:406] lstm1_h_conted_187 <- h_187_lstm1_unit_187_1_split_0
I1018 00:08:01.429111 30031 net.cpp:406] lstm1_h_conted_187 <- cont_188_lstm1_cont_slice_187_split_0
I1018 00:08:01.429124 30031 net.cpp:380] lstm1_h_conted_187 -> h_conted_187
I1018 00:08:01.429234 30031 net.cpp:122] Setting up lstm1_h_conted_187
I1018 00:08:01.429250 30031 net.cpp:129] Top shape: 1 150 512 (76800)
I1018 00:08:01.429256 30031 net.cpp:137] Memory required for data: 1290096000
I1018 00:08:01.429263 30031 layer_factory.hpp:77] Creating layer lstm1_transform_188
I1018 00:08:01.429276 30031 net.cpp:84] Creating Layer lstm1_transform_188
I1018 00:08:01.429286 30031 net.cpp:406] lstm1_transform_188 <- h_conted_187
I1018 00:08:01.429297 30031 net.cpp:380] lstm1_transform_188 -> W_hc_h_187
I1018 00:08:01.442339 30031 net.cpp:122] Setting up lstm1_transform_188
I1018 00:08:01.442370 30031 net.cpp:129] Top shape: 1 150 2048 (307200)
I1018 00:08:01.442378 30031 net.cpp:137] Memory required for data: 1291324800
I1018 00:08:01.442385 30031 net.cpp:465] Sharing parameters 'W_hc' owned by layer 'lstm1_transform_1', param index 0
I1018 00:08:01.442394 30031 layer_factory.hpp:77] Creating layer lstm1_gate_input_188
I1018 00:08:01.442406 30031 net.cpp:84] Creating Layer lstm1_gate_input_188
I1018 00:08:01.442414 30031 net.cpp:406] lstm1_gate_input_188 <- W_hc_h_187
I1018 00:08:01.442425 30031 net.cpp:406] lstm1_gate_input_188 <- W_xc_x_188
I1018 00:08:01.442435 30031 net.cpp:380] lstm1_gate_input_188 -> gate_input_188
I1018 00:08:01.442476 30031 net.cpp:122] Setting up lstm1_gate_input_188
I1018 00:08:01.442489 30031 net.cpp:129] Top shape: 1 150 2048 (307200)
I1018 00:08:01.442495 30031 net.cpp:137] Memory required for data: 1292553600
I1018 00:08:01.442502 30031 layer_factory.hpp:77] Creating layer lstm1_unit_188
I1018 00:08:01.442512 30031 net.cpp:84] Creating Layer lstm1_unit_188
I1018 00:08:01.442519 30031 net.cpp:406] lstm1_unit_188 <- c_187
I1018 00:08:01.442529 30031 net.cpp:406] lstm1_unit_188 <- gate_input_188
I1018 00:08:01.442538 30031 net.cpp:406] lstm1_unit_188 <- cont_188_lstm1_cont_slice_187_split_1
I1018 00:08:01.442548 30031 net.cpp:380] lstm1_unit_188 -> c_188
I1018 00:08:01.442560 30031 net.cpp:380] lstm1_unit_188 -> h_188
I1018 00:08:01.442638 30031 net.cpp:122] Setting up lstm1_unit_188
I1018 00:08:01.442651 30031 net.cpp:129] Top shape: 1 150 512 (76800)
I1018 00:08:01.442662 30031 net.cpp:129] Top shape: 1 150 512 (76800)
I1018 00:08:01.442668 30031 net.cpp:137] Memory required for data: 1293168000
I1018 00:08:01.442675 30031 layer_factory.hpp:77] Creating layer h_188_lstm1_unit_188_1_split
I1018 00:08:01.442683 30031 net.cpp:84] Creating Layer h_188_lstm1_unit_188_1_split
I1018 00:08:01.442690 30031 net.cpp:406] h_188_lstm1_unit_188_1_split <- h_188
I1018 00:08:01.442703 30031 net.cpp:380] h_188_lstm1_unit_188_1_split -> h_188_lstm1_unit_188_1_split_0
I1018 00:08:01.442718 30031 net.cpp:380] h_188_lstm1_unit_188_1_split -> h_188_lstm1_unit_188_1_split_1
I1018 00:08:01.442770 30031 net.cpp:122] Setting up h_188_lstm1_unit_188_1_split
I1018 00:08:01.442783 30031 net.cpp:129] Top shape: 1 150 512 (76800)
I1018 00:08:01.442791 30031 net.cpp:129] Top shape: 1 150 512 (76800)
I1018 00:08:01.442797 30031 net.cpp:137] Memory required for data: 1293782400
I1018 00:08:01.442804 30031 layer_factory.hpp:77] Creating layer lstm1_h_conted_188
I1018 00:08:01.442823 30031 net.cpp:84] Creating Layer lstm1_h_conted_188
I1018 00:08:01.442834 30031 net.cpp:406] lstm1_h_conted_188 <- h_188_lstm1_unit_188_1_split_0
I1018 00:08:01.442844 30031 net.cpp:406] lstm1_h_conted_188 <- cont_189_lstm1_cont_slice_188_split_0
I1018 00:08:01.442860 30031 net.cpp:380] lstm1_h_conted_188 -> h_conted_188
I1018 00:08:01.442970 30031 net.cpp:122] Setting up lstm1_h_conted_188
I1018 00:08:01.442982 30031 net.cpp:129] Top shape: 1 150 512 (76800)
I1018 00:08:01.442991 30031 net.cpp:137] Memory required for data: 1294089600
I1018 00:08:01.442999 30031 layer_factory.hpp:77] Creating layer lstm1_transform_189
I1018 00:08:01.443012 30031 net.cpp:84] Creating Layer lstm1_transform_189
I1018 00:08:01.443022 30031 net.cpp:406] lstm1_transform_189 <- h_conted_188
I1018 00:08:01.443038 30031 net.cpp:380] lstm1_transform_189 -> W_hc_h_188
I1018 00:08:01.456135 30031 net.cpp:122] Setting up lstm1_transform_189
I1018 00:08:01.456166 30031 net.cpp:129] Top shape: 1 150 2048 (307200)
I1018 00:08:01.456174 30031 net.cpp:137] Memory required for data: 1295318400
I1018 00:08:01.456182 30031 net.cpp:465] Sharing parameters 'W_hc' owned by layer 'lstm1_transform_1', param index 0
I1018 00:08:01.456190 30031 layer_factory.hpp:77] Creating layer lstm1_gate_input_189
I1018 00:08:01.456202 30031 net.cpp:84] Creating Layer lstm1_gate_input_189
I1018 00:08:01.456210 30031 net.cpp:406] lstm1_gate_input_189 <- W_hc_h_188
I1018 00:08:01.456220 30031 net.cpp:406] lstm1_gate_input_189 <- W_xc_x_189
I1018 00:08:01.456231 30031 net.cpp:380] lstm1_gate_input_189 -> gate_input_189
I1018 00:08:01.456271 30031 net.cpp:122] Setting up lstm1_gate_input_189
I1018 00:08:01.456286 30031 net.cpp:129] Top shape: 1 150 2048 (307200)
I1018 00:08:01.456292 30031 net.cpp:137] Memory required for data: 1296547200
I1018 00:08:01.456301 30031 layer_factory.hpp:77] Creating layer lstm1_unit_189
I1018 00:08:01.456313 30031 net.cpp:84] Creating Layer lstm1_unit_189
I1018 00:08:01.456321 30031 net.cpp:406] lstm1_unit_189 <- c_188
I1018 00:08:01.456331 30031 net.cpp:406] lstm1_unit_189 <- gate_input_189
I1018 00:08:01.456341 30031 net.cpp:406] lstm1_unit_189 <- cont_189_lstm1_cont_slice_188_split_1
I1018 00:08:01.456351 30031 net.cpp:380] lstm1_unit_189 -> c_189
I1018 00:08:01.456362 30031 net.cpp:380] lstm1_unit_189 -> h_189
I1018 00:08:01.456434 30031 net.cpp:122] Setting up lstm1_unit_189
I1018 00:08:01.456447 30031 net.cpp:129] Top shape: 1 150 512 (76800)
I1018 00:08:01.456457 30031 net.cpp:129] Top shape: 1 150 512 (76800)
I1018 00:08:01.456465 30031 net.cpp:137] Memory required for data: 1297161600
I1018 00:08:01.456470 30031 layer_factory.hpp:77] Creating layer h_189_lstm1_unit_189_1_split
I1018 00:08:01.456480 30031 net.cpp:84] Creating Layer h_189_lstm1_unit_189_1_split
I1018 00:08:01.456487 30031 net.cpp:406] h_189_lstm1_unit_189_1_split <- h_189
I1018 00:08:01.456499 30031 net.cpp:380] h_189_lstm1_unit_189_1_split -> h_189_lstm1_unit_189_1_split_0
I1018 00:08:01.456511 30031 net.cpp:380] h_189_lstm1_unit_189_1_split -> h_189_lstm1_unit_189_1_split_1
I1018 00:08:01.456558 30031 net.cpp:122] Setting up h_189_lstm1_unit_189_1_split
I1018 00:08:01.456573 30031 net.cpp:129] Top shape: 1 150 512 (76800)
I1018 00:08:01.456581 30031 net.cpp:129] Top shape: 1 150 512 (76800)
I1018 00:08:01.456588 30031 net.cpp:137] Memory required for data: 1297776000
I1018 00:08:01.456595 30031 layer_factory.hpp:77] Creating layer lstm1_h_conted_189
I1018 00:08:01.456616 30031 net.cpp:84] Creating Layer lstm1_h_conted_189
I1018 00:08:01.456627 30031 net.cpp:406] lstm1_h_conted_189 <- h_189_lstm1_unit_189_1_split_0
I1018 00:08:01.456637 30031 net.cpp:406] lstm1_h_conted_189 <- cont_190_lstm1_cont_slice_189_split_0
I1018 00:08:01.456648 30031 net.cpp:380] lstm1_h_conted_189 -> h_conted_189
I1018 00:08:01.456756 30031 net.cpp:122] Setting up lstm1_h_conted_189
I1018 00:08:01.456771 30031 net.cpp:129] Top shape: 1 150 512 (76800)
I1018 00:08:01.456779 30031 net.cpp:137] Memory required for data: 1298083200
I1018 00:08:01.456784 30031 layer_factory.hpp:77] Creating layer lstm1_transform_190
I1018 00:08:01.456799 30031 net.cpp:84] Creating Layer lstm1_transform_190
I1018 00:08:01.456807 30031 net.cpp:406] lstm1_transform_190 <- h_conted_189
I1018 00:08:01.456818 30031 net.cpp:380] lstm1_transform_190 -> W_hc_h_189
I1018 00:08:01.469573 30031 net.cpp:122] Setting up lstm1_transform_190
I1018 00:08:01.469604 30031 net.cpp:129] Top shape: 1 150 2048 (307200)
I1018 00:08:01.469611 30031 net.cpp:137] Memory required for data: 1299312000
I1018 00:08:01.469619 30031 net.cpp:465] Sharing parameters 'W_hc' owned by layer 'lstm1_transform_1', param index 0
I1018 00:08:01.469626 30031 layer_factory.hpp:77] Creating layer lstm1_gate_input_190
I1018 00:08:01.469641 30031 net.cpp:84] Creating Layer lstm1_gate_input_190
I1018 00:08:01.469650 30031 net.cpp:406] lstm1_gate_input_190 <- W_hc_h_189
I1018 00:08:01.469660 30031 net.cpp:406] lstm1_gate_input_190 <- W_xc_x_190
I1018 00:08:01.469671 30031 net.cpp:380] lstm1_gate_input_190 -> gate_input_190
I1018 00:08:01.469707 30031 net.cpp:122] Setting up lstm1_gate_input_190
I1018 00:08:01.469717 30031 net.cpp:129] Top shape: 1 150 2048 (307200)
I1018 00:08:01.469724 30031 net.cpp:137] Memory required for data: 1300540800
I1018 00:08:01.469730 30031 layer_factory.hpp:77] Creating layer lstm1_unit_190
I1018 00:08:01.469748 30031 net.cpp:84] Creating Layer lstm1_unit_190
I1018 00:08:01.469758 30031 net.cpp:406] lstm1_unit_190 <- c_189
I1018 00:08:01.469766 30031 net.cpp:406] lstm1_unit_190 <- gate_input_190
I1018 00:08:01.469775 30031 net.cpp:406] lstm1_unit_190 <- cont_190_lstm1_cont_slice_189_split_1
I1018 00:08:01.469787 30031 net.cpp:380] lstm1_unit_190 -> c_190
I1018 00:08:01.469800 30031 net.cpp:380] lstm1_unit_190 -> h_190
I1018 00:08:01.469868 30031 net.cpp:122] Setting up lstm1_unit_190
I1018 00:08:01.469882 30031 net.cpp:129] Top shape: 1 150 512 (76800)
I1018 00:08:01.469890 30031 net.cpp:129] Top shape: 1 150 512 (76800)
I1018 00:08:01.469897 30031 net.cpp:137] Memory required for data: 1301155200
I1018 00:08:01.469903 30031 layer_factory.hpp:77] Creating layer h_190_lstm1_unit_190_1_split
I1018 00:08:01.469913 30031 net.cpp:84] Creating Layer h_190_lstm1_unit_190_1_split
I1018 00:08:01.469919 30031 net.cpp:406] h_190_lstm1_unit_190_1_split <- h_190
I1018 00:08:01.469929 30031 net.cpp:380] h_190_lstm1_unit_190_1_split -> h_190_lstm1_unit_190_1_split_0
I1018 00:08:01.469941 30031 net.cpp:380] h_190_lstm1_unit_190_1_split -> h_190_lstm1_unit_190_1_split_1
I1018 00:08:01.469991 30031 net.cpp:122] Setting up h_190_lstm1_unit_190_1_split
I1018 00:08:01.470003 30031 net.cpp:129] Top shape: 1 150 512 (76800)
I1018 00:08:01.470011 30031 net.cpp:129] Top shape: 1 150 512 (76800)
I1018 00:08:01.470017 30031 net.cpp:137] Memory required for data: 1301769600
I1018 00:08:01.470024 30031 layer_factory.hpp:77] Creating layer lstm1_h_conted_190
I1018 00:08:01.470041 30031 net.cpp:84] Creating Layer lstm1_h_conted_190
I1018 00:08:01.470049 30031 net.cpp:406] lstm1_h_conted_190 <- h_190_lstm1_unit_190_1_split_0
I1018 00:08:01.470060 30031 net.cpp:406] lstm1_h_conted_190 <- cont_191_lstm1_cont_slice_190_split_0
I1018 00:08:01.470070 30031 net.cpp:380] lstm1_h_conted_190 -> h_conted_190
I1018 00:08:01.470176 30031 net.cpp:122] Setting up lstm1_h_conted_190
I1018 00:08:01.470190 30031 net.cpp:129] Top shape: 1 150 512 (76800)
I1018 00:08:01.470196 30031 net.cpp:137] Memory required for data: 1302076800
I1018 00:08:01.470203 30031 layer_factory.hpp:77] Creating layer lstm1_transform_191
I1018 00:08:01.470218 30031 net.cpp:84] Creating Layer lstm1_transform_191
I1018 00:08:01.470227 30031 net.cpp:406] lstm1_transform_191 <- h_conted_190
I1018 00:08:01.470238 30031 net.cpp:380] lstm1_transform_191 -> W_hc_h_190
I1018 00:08:01.483361 30031 net.cpp:122] Setting up lstm1_transform_191
I1018 00:08:01.483392 30031 net.cpp:129] Top shape: 1 150 2048 (307200)
I1018 00:08:01.483398 30031 net.cpp:137] Memory required for data: 1303305600
I1018 00:08:01.483407 30031 net.cpp:465] Sharing parameters 'W_hc' owned by layer 'lstm1_transform_1', param index 0
I1018 00:08:01.483417 30031 layer_factory.hpp:77] Creating layer lstm1_gate_input_191
I1018 00:08:01.483428 30031 net.cpp:84] Creating Layer lstm1_gate_input_191
I1018 00:08:01.483436 30031 net.cpp:406] lstm1_gate_input_191 <- W_hc_h_190
I1018 00:08:01.483448 30031 net.cpp:406] lstm1_gate_input_191 <- W_xc_x_191
I1018 00:08:01.483459 30031 net.cpp:380] lstm1_gate_input_191 -> gate_input_191
I1018 00:08:01.483499 30031 net.cpp:122] Setting up lstm1_gate_input_191
I1018 00:08:01.483510 30031 net.cpp:129] Top shape: 1 150 2048 (307200)
I1018 00:08:01.483515 30031 net.cpp:137] Memory required for data: 1304534400
I1018 00:08:01.483521 30031 layer_factory.hpp:77] Creating layer lstm1_unit_191
I1018 00:08:01.483543 30031 net.cpp:84] Creating Layer lstm1_unit_191
I1018 00:08:01.483553 30031 net.cpp:406] lstm1_unit_191 <- c_190
I1018 00:08:01.483563 30031 net.cpp:406] lstm1_unit_191 <- gate_input_191
I1018 00:08:01.483572 30031 net.cpp:406] lstm1_unit_191 <- cont_191_lstm1_cont_slice_190_split_1
I1018 00:08:01.483584 30031 net.cpp:380] lstm1_unit_191 -> c_191
I1018 00:08:01.483597 30031 net.cpp:380] lstm1_unit_191 -> h_191
I1018 00:08:01.483669 30031 net.cpp:122] Setting up lstm1_unit_191
I1018 00:08:01.483682 30031 net.cpp:129] Top shape: 1 150 512 (76800)
I1018 00:08:01.483691 30031 net.cpp:129] Top shape: 1 150 512 (76800)
I1018 00:08:01.483697 30031 net.cpp:137] Memory required for data: 1305148800
I1018 00:08:01.483705 30031 layer_factory.hpp:77] Creating layer h_191_lstm1_unit_191_1_split
I1018 00:08:01.483712 30031 net.cpp:84] Creating Layer h_191_lstm1_unit_191_1_split
I1018 00:08:01.483721 30031 net.cpp:406] h_191_lstm1_unit_191_1_split <- h_191
I1018 00:08:01.483731 30031 net.cpp:380] h_191_lstm1_unit_191_1_split -> h_191_lstm1_unit_191_1_split_0
I1018 00:08:01.483741 30031 net.cpp:380] h_191_lstm1_unit_191_1_split -> h_191_lstm1_unit_191_1_split_1
I1018 00:08:01.483793 30031 net.cpp:122] Setting up h_191_lstm1_unit_191_1_split
I1018 00:08:01.483814 30031 net.cpp:129] Top shape: 1 150 512 (76800)
I1018 00:08:01.483822 30031 net.cpp:129] Top shape: 1 150 512 (76800)
I1018 00:08:01.483829 30031 net.cpp:137] Memory required for data: 1305763200
I1018 00:08:01.483835 30031 layer_factory.hpp:77] Creating layer lstm1_h_conted_191
I1018 00:08:01.483846 30031 net.cpp:84] Creating Layer lstm1_h_conted_191
I1018 00:08:01.483855 30031 net.cpp:406] lstm1_h_conted_191 <- h_191_lstm1_unit_191_1_split_0
I1018 00:08:01.483865 30031 net.cpp:406] lstm1_h_conted_191 <- cont_192_lstm1_cont_slice_191_split_0
I1018 00:08:01.483878 30031 net.cpp:380] lstm1_h_conted_191 -> h_conted_191
I1018 00:08:01.483981 30031 net.cpp:122] Setting up lstm1_h_conted_191
I1018 00:08:01.483996 30031 net.cpp:129] Top shape: 1 150 512 (76800)
I1018 00:08:01.484002 30031 net.cpp:137] Memory required for data: 1306070400
I1018 00:08:01.484009 30031 layer_factory.hpp:77] Creating layer lstm1_transform_192
I1018 00:08:01.484021 30031 net.cpp:84] Creating Layer lstm1_transform_192
I1018 00:08:01.484051 30031 net.cpp:406] lstm1_transform_192 <- h_conted_191
I1018 00:08:01.484071 30031 net.cpp:380] lstm1_transform_192 -> W_hc_h_191
I1018 00:08:01.496832 30031 net.cpp:122] Setting up lstm1_transform_192
I1018 00:08:01.496851 30031 net.cpp:129] Top shape: 1 150 2048 (307200)
I1018 00:08:01.496856 30031 net.cpp:137] Memory required for data: 1307299200
I1018 00:08:01.496862 30031 net.cpp:465] Sharing parameters 'W_hc' owned by layer 'lstm1_transform_1', param index 0
I1018 00:08:01.496867 30031 layer_factory.hpp:77] Creating layer lstm1_gate_input_192
I1018 00:08:01.496886 30031 net.cpp:84] Creating Layer lstm1_gate_input_192
I1018 00:08:01.496893 30031 net.cpp:406] lstm1_gate_input_192 <- W_hc_h_191
I1018 00:08:01.496901 30031 net.cpp:406] lstm1_gate_input_192 <- W_xc_x_192
I1018 00:08:01.496909 30031 net.cpp:380] lstm1_gate_input_192 -> gate_input_192
I1018 00:08:01.496944 30031 net.cpp:122] Setting up lstm1_gate_input_192
I1018 00:08:01.496953 30031 net.cpp:129] Top shape: 1 150 2048 (307200)
I1018 00:08:01.496956 30031 net.cpp:137] Memory required for data: 1308528000
I1018 00:08:01.496960 30031 layer_factory.hpp:77] Creating layer lstm1_unit_192
I1018 00:08:01.496966 30031 net.cpp:84] Creating Layer lstm1_unit_192
I1018 00:08:01.496971 30031 net.cpp:406] lstm1_unit_192 <- c_191
I1018 00:08:01.496978 30031 net.cpp:406] lstm1_unit_192 <- gate_input_192
I1018 00:08:01.496984 30031 net.cpp:406] lstm1_unit_192 <- cont_192_lstm1_cont_slice_191_split_1
I1018 00:08:01.496989 30031 net.cpp:380] lstm1_unit_192 -> c_192
I1018 00:08:01.496997 30031 net.cpp:380] lstm1_unit_192 -> h_192
I1018 00:08:01.497050 30031 net.cpp:122] Setting up lstm1_unit_192
I1018 00:08:01.497057 30031 net.cpp:129] Top shape: 1 150 512 (76800)
I1018 00:08:01.497062 30031 net.cpp:129] Top shape: 1 150 512 (76800)
I1018 00:08:01.497066 30031 net.cpp:137] Memory required for data: 1309142400
I1018 00:08:01.497071 30031 layer_factory.hpp:77] Creating layer h_192_lstm1_unit_192_1_split
I1018 00:08:01.497076 30031 net.cpp:84] Creating Layer h_192_lstm1_unit_192_1_split
I1018 00:08:01.497081 30031 net.cpp:406] h_192_lstm1_unit_192_1_split <- h_192
I1018 00:08:01.497087 30031 net.cpp:380] h_192_lstm1_unit_192_1_split -> h_192_lstm1_unit_192_1_split_0
I1018 00:08:01.497094 30031 net.cpp:380] h_192_lstm1_unit_192_1_split -> h_192_lstm1_unit_192_1_split_1
I1018 00:08:01.497131 30031 net.cpp:122] Setting up h_192_lstm1_unit_192_1_split
I1018 00:08:01.497138 30031 net.cpp:129] Top shape: 1 150 512 (76800)
I1018 00:08:01.497143 30031 net.cpp:129] Top shape: 1 150 512 (76800)
I1018 00:08:01.497146 30031 net.cpp:137] Memory required for data: 1309756800
I1018 00:08:01.497151 30031 layer_factory.hpp:77] Creating layer lstm1_h_conted_192
I1018 00:08:01.497159 30031 net.cpp:84] Creating Layer lstm1_h_conted_192
I1018 00:08:01.497164 30031 net.cpp:406] lstm1_h_conted_192 <- h_192_lstm1_unit_192_1_split_0
I1018 00:08:01.497172 30031 net.cpp:406] lstm1_h_conted_192 <- cont_193_lstm1_cont_slice_192_split_0
I1018 00:08:01.497180 30031 net.cpp:380] lstm1_h_conted_192 -> h_conted_192
I1018 00:08:01.497258 30031 net.cpp:122] Setting up lstm1_h_conted_192
I1018 00:08:01.497277 30031 net.cpp:129] Top shape: 1 150 512 (76800)
I1018 00:08:01.497282 30031 net.cpp:137] Memory required for data: 1310064000
I1018 00:08:01.497285 30031 layer_factory.hpp:77] Creating layer lstm1_transform_193
I1018 00:08:01.497292 30031 net.cpp:84] Creating Layer lstm1_transform_193
I1018 00:08:01.497298 30031 net.cpp:406] lstm1_transform_193 <- h_conted_192
I1018 00:08:01.497308 30031 net.cpp:380] lstm1_transform_193 -> W_hc_h_192
I1018 00:08:01.509059 30031 net.cpp:122] Setting up lstm1_transform_193
I1018 00:08:01.509075 30031 net.cpp:129] Top shape: 1 150 2048 (307200)
I1018 00:08:01.509079 30031 net.cpp:137] Memory required for data: 1311292800
I1018 00:08:01.509085 30031 net.cpp:465] Sharing parameters 'W_hc' owned by layer 'lstm1_transform_1', param index 0
I1018 00:08:01.509090 30031 layer_factory.hpp:77] Creating layer lstm1_gate_input_193
I1018 00:08:01.509106 30031 net.cpp:84] Creating Layer lstm1_gate_input_193
I1018 00:08:01.509114 30031 net.cpp:406] lstm1_gate_input_193 <- W_hc_h_192
I1018 00:08:01.509120 30031 net.cpp:406] lstm1_gate_input_193 <- W_xc_x_193
I1018 00:08:01.509127 30031 net.cpp:380] lstm1_gate_input_193 -> gate_input_193
I1018 00:08:01.509163 30031 net.cpp:122] Setting up lstm1_gate_input_193
I1018 00:08:01.509171 30031 net.cpp:129] Top shape: 1 150 2048 (307200)
I1018 00:08:01.509174 30031 net.cpp:137] Memory required for data: 1312521600
I1018 00:08:01.509179 30031 layer_factory.hpp:77] Creating layer lstm1_unit_193
I1018 00:08:01.509188 30031 net.cpp:84] Creating Layer lstm1_unit_193
I1018 00:08:01.509193 30031 net.cpp:406] lstm1_unit_193 <- c_192
I1018 00:08:01.509199 30031 net.cpp:406] lstm1_unit_193 <- gate_input_193
I1018 00:08:01.509205 30031 net.cpp:406] lstm1_unit_193 <- cont_193_lstm1_cont_slice_192_split_1
I1018 00:08:01.509212 30031 net.cpp:380] lstm1_unit_193 -> c_193
I1018 00:08:01.509219 30031 net.cpp:380] lstm1_unit_193 -> h_193
I1018 00:08:01.509268 30031 net.cpp:122] Setting up lstm1_unit_193
I1018 00:08:01.509275 30031 net.cpp:129] Top shape: 1 150 512 (76800)
I1018 00:08:01.509280 30031 net.cpp:129] Top shape: 1 150 512 (76800)
I1018 00:08:01.509284 30031 net.cpp:137] Memory required for data: 1313136000
I1018 00:08:01.509287 30031 layer_factory.hpp:77] Creating layer h_193_lstm1_unit_193_1_split
I1018 00:08:01.509295 30031 net.cpp:84] Creating Layer h_193_lstm1_unit_193_1_split
I1018 00:08:01.509300 30031 net.cpp:406] h_193_lstm1_unit_193_1_split <- h_193
I1018 00:08:01.509306 30031 net.cpp:380] h_193_lstm1_unit_193_1_split -> h_193_lstm1_unit_193_1_split_0
I1018 00:08:01.509315 30031 net.cpp:380] h_193_lstm1_unit_193_1_split -> h_193_lstm1_unit_193_1_split_1
I1018 00:08:01.509351 30031 net.cpp:122] Setting up h_193_lstm1_unit_193_1_split
I1018 00:08:01.509356 30031 net.cpp:129] Top shape: 1 150 512 (76800)
I1018 00:08:01.509361 30031 net.cpp:129] Top shape: 1 150 512 (76800)
I1018 00:08:01.509366 30031 net.cpp:137] Memory required for data: 1313750400
I1018 00:08:01.509368 30031 layer_factory.hpp:77] Creating layer lstm1_h_conted_193
I1018 00:08:01.509378 30031 net.cpp:84] Creating Layer lstm1_h_conted_193
I1018 00:08:01.509384 30031 net.cpp:406] lstm1_h_conted_193 <- h_193_lstm1_unit_193_1_split_0
I1018 00:08:01.509392 30031 net.cpp:406] lstm1_h_conted_193 <- cont_194_lstm1_cont_slice_193_split_0
I1018 00:08:01.509398 30031 net.cpp:380] lstm1_h_conted_193 -> h_conted_193
I1018 00:08:01.509476 30031 net.cpp:122] Setting up lstm1_h_conted_193
I1018 00:08:01.509493 30031 net.cpp:129] Top shape: 1 150 512 (76800)
I1018 00:08:01.509497 30031 net.cpp:137] Memory required for data: 1314057600
I1018 00:08:01.509501 30031 layer_factory.hpp:77] Creating layer lstm1_transform_194
I1018 00:08:01.509516 30031 net.cpp:84] Creating Layer lstm1_transform_194
I1018 00:08:01.509521 30031 net.cpp:406] lstm1_transform_194 <- h_conted_193
I1018 00:08:01.509528 30031 net.cpp:380] lstm1_transform_194 -> W_hc_h_193
I1018 00:08:01.521107 30031 net.cpp:122] Setting up lstm1_transform_194
I1018 00:08:01.521136 30031 net.cpp:129] Top shape: 1 150 2048 (307200)
I1018 00:08:01.521139 30031 net.cpp:137] Memory required for data: 1315286400
I1018 00:08:01.521145 30031 net.cpp:465] Sharing parameters 'W_hc' owned by layer 'lstm1_transform_1', param index 0
I1018 00:08:01.521152 30031 layer_factory.hpp:77] Creating layer lstm1_gate_input_194
I1018 00:08:01.521159 30031 net.cpp:84] Creating Layer lstm1_gate_input_194
I1018 00:08:01.521165 30031 net.cpp:406] lstm1_gate_input_194 <- W_hc_h_193
I1018 00:08:01.521173 30031 net.cpp:406] lstm1_gate_input_194 <- W_xc_x_194
I1018 00:08:01.521179 30031 net.cpp:380] lstm1_gate_input_194 -> gate_input_194
I1018 00:08:01.521211 30031 net.cpp:122] Setting up lstm1_gate_input_194
I1018 00:08:01.521219 30031 net.cpp:129] Top shape: 1 150 2048 (307200)
I1018 00:08:01.521222 30031 net.cpp:137] Memory required for data: 1316515200
I1018 00:08:01.521226 30031 layer_factory.hpp:77] Creating layer lstm1_unit_194
I1018 00:08:01.521232 30031 net.cpp:84] Creating Layer lstm1_unit_194
I1018 00:08:01.521237 30031 net.cpp:406] lstm1_unit_194 <- c_193
I1018 00:08:01.521244 30031 net.cpp:406] lstm1_unit_194 <- gate_input_194
I1018 00:08:01.521250 30031 net.cpp:406] lstm1_unit_194 <- cont_194_lstm1_cont_slice_193_split_1
I1018 00:08:01.521255 30031 net.cpp:380] lstm1_unit_194 -> c_194
I1018 00:08:01.521263 30031 net.cpp:380] lstm1_unit_194 -> h_194
I1018 00:08:01.521313 30031 net.cpp:122] Setting up lstm1_unit_194
I1018 00:08:01.521320 30031 net.cpp:129] Top shape: 1 150 512 (76800)
I1018 00:08:01.521325 30031 net.cpp:129] Top shape: 1 150 512 (76800)
I1018 00:08:01.521328 30031 net.cpp:137] Memory required for data: 1317129600
I1018 00:08:01.521333 30031 layer_factory.hpp:77] Creating layer h_194_lstm1_unit_194_1_split
I1018 00:08:01.521342 30031 net.cpp:84] Creating Layer h_194_lstm1_unit_194_1_split
I1018 00:08:01.521347 30031 net.cpp:406] h_194_lstm1_unit_194_1_split <- h_194
I1018 00:08:01.521353 30031 net.cpp:380] h_194_lstm1_unit_194_1_split -> h_194_lstm1_unit_194_1_split_0
I1018 00:08:01.521359 30031 net.cpp:380] h_194_lstm1_unit_194_1_split -> h_194_lstm1_unit_194_1_split_1
I1018 00:08:01.521395 30031 net.cpp:122] Setting up h_194_lstm1_unit_194_1_split
I1018 00:08:01.521402 30031 net.cpp:129] Top shape: 1 150 512 (76800)
I1018 00:08:01.521406 30031 net.cpp:129] Top shape: 1 150 512 (76800)
I1018 00:08:01.521410 30031 net.cpp:137] Memory required for data: 1317744000
I1018 00:08:01.521414 30031 layer_factory.hpp:77] Creating layer lstm1_h_conted_194
I1018 00:08:01.521422 30031 net.cpp:84] Creating Layer lstm1_h_conted_194
I1018 00:08:01.521430 30031 net.cpp:406] lstm1_h_conted_194 <- h_194_lstm1_unit_194_1_split_0
I1018 00:08:01.521436 30031 net.cpp:406] lstm1_h_conted_194 <- cont_195_lstm1_cont_slice_194_split_0
I1018 00:08:01.521443 30031 net.cpp:380] lstm1_h_conted_194 -> h_conted_194
I1018 00:08:01.521528 30031 net.cpp:122] Setting up lstm1_h_conted_194
I1018 00:08:01.521538 30031 net.cpp:129] Top shape: 1 150 512 (76800)
I1018 00:08:01.521541 30031 net.cpp:137] Memory required for data: 1318051200
I1018 00:08:01.521545 30031 layer_factory.hpp:77] Creating layer lstm1_transform_195
I1018 00:08:01.521562 30031 net.cpp:84] Creating Layer lstm1_transform_195
I1018 00:08:01.521572 30031 net.cpp:406] lstm1_transform_195 <- h_conted_194
I1018 00:08:01.521580 30031 net.cpp:380] lstm1_transform_195 -> W_hc_h_194
I1018 00:08:01.533202 30031 net.cpp:122] Setting up lstm1_transform_195
I1018 00:08:01.533219 30031 net.cpp:129] Top shape: 1 150 2048 (307200)
I1018 00:08:01.533224 30031 net.cpp:137] Memory required for data: 1319280000
I1018 00:08:01.533229 30031 net.cpp:465] Sharing parameters 'W_hc' owned by layer 'lstm1_transform_1', param index 0
I1018 00:08:01.533234 30031 layer_factory.hpp:77] Creating layer lstm1_gate_input_195
I1018 00:08:01.533243 30031 net.cpp:84] Creating Layer lstm1_gate_input_195
I1018 00:08:01.533249 30031 net.cpp:406] lstm1_gate_input_195 <- W_hc_h_194
I1018 00:08:01.533255 30031 net.cpp:406] lstm1_gate_input_195 <- W_xc_x_195
I1018 00:08:01.533267 30031 net.cpp:380] lstm1_gate_input_195 -> gate_input_195
I1018 00:08:01.533298 30031 net.cpp:122] Setting up lstm1_gate_input_195
I1018 00:08:01.533305 30031 net.cpp:129] Top shape: 1 150 2048 (307200)
I1018 00:08:01.533309 30031 net.cpp:137] Memory required for data: 1320508800
I1018 00:08:01.533313 30031 layer_factory.hpp:77] Creating layer lstm1_unit_195
I1018 00:08:01.533324 30031 net.cpp:84] Creating Layer lstm1_unit_195
I1018 00:08:01.533329 30031 net.cpp:406] lstm1_unit_195 <- c_194
I1018 00:08:01.533336 30031 net.cpp:406] lstm1_unit_195 <- gate_input_195
I1018 00:08:01.533341 30031 net.cpp:406] lstm1_unit_195 <- cont_195_lstm1_cont_slice_194_split_1
I1018 00:08:01.533349 30031 net.cpp:380] lstm1_unit_195 -> c_195
I1018 00:08:01.533356 30031 net.cpp:380] lstm1_unit_195 -> h_195
I1018 00:08:01.533424 30031 net.cpp:122] Setting up lstm1_unit_195
I1018 00:08:01.533438 30031 net.cpp:129] Top shape: 1 150 512 (76800)
I1018 00:08:01.533447 30031 net.cpp:129] Top shape: 1 150 512 (76800)
I1018 00:08:01.533453 30031 net.cpp:137] Memory required for data: 1321123200
I1018 00:08:01.533459 30031 layer_factory.hpp:77] Creating layer h_195_lstm1_unit_195_1_split
I1018 00:08:01.533466 30031 net.cpp:84] Creating Layer h_195_lstm1_unit_195_1_split
I1018 00:08:01.533471 30031 net.cpp:406] h_195_lstm1_unit_195_1_split <- h_195
I1018 00:08:01.533481 30031 net.cpp:380] h_195_lstm1_unit_195_1_split -> h_195_lstm1_unit_195_1_split_0
I1018 00:08:01.533490 30031 net.cpp:380] h_195_lstm1_unit_195_1_split -> h_195_lstm1_unit_195_1_split_1
I1018 00:08:01.533529 30031 net.cpp:122] Setting up h_195_lstm1_unit_195_1_split
I1018 00:08:01.533537 30031 net.cpp:129] Top shape: 1 150 512 (76800)
I1018 00:08:01.533541 30031 net.cpp:129] Top shape: 1 150 512 (76800)
I1018 00:08:01.533545 30031 net.cpp:137] Memory required for data: 1321737600
I1018 00:08:01.533551 30031 layer_factory.hpp:77] Creating layer lstm1_h_conted_195
I1018 00:08:01.533561 30031 net.cpp:84] Creating Layer lstm1_h_conted_195
I1018 00:08:01.533566 30031 net.cpp:406] lstm1_h_conted_195 <- h_195_lstm1_unit_195_1_split_0
I1018 00:08:01.533574 30031 net.cpp:406] lstm1_h_conted_195 <- cont_196_lstm1_cont_slice_195_split_0
I1018 00:08:01.533591 30031 net.cpp:380] lstm1_h_conted_195 -> h_conted_195
I1018 00:08:01.533680 30031 net.cpp:122] Setting up lstm1_h_conted_195
I1018 00:08:01.533690 30031 net.cpp:129] Top shape: 1 150 512 (76800)
I1018 00:08:01.533694 30031 net.cpp:137] Memory required for data: 1322044800
I1018 00:08:01.533699 30031 layer_factory.hpp:77] Creating layer lstm1_transform_196
I1018 00:08:01.533710 30031 net.cpp:84] Creating Layer lstm1_transform_196
I1018 00:08:01.533716 30031 net.cpp:406] lstm1_transform_196 <- h_conted_195
I1018 00:08:01.533725 30031 net.cpp:380] lstm1_transform_196 -> W_hc_h_195
I1018 00:08:01.545491 30031 net.cpp:122] Setting up lstm1_transform_196
I1018 00:08:01.545508 30031 net.cpp:129] Top shape: 1 150 2048 (307200)
I1018 00:08:01.545512 30031 net.cpp:137] Memory required for data: 1323273600
I1018 00:08:01.545518 30031 net.cpp:465] Sharing parameters 'W_hc' owned by layer 'lstm1_transform_1', param index 0
I1018 00:08:01.545523 30031 layer_factory.hpp:77] Creating layer lstm1_gate_input_196
I1018 00:08:01.545533 30031 net.cpp:84] Creating Layer lstm1_gate_input_196
I1018 00:08:01.545539 30031 net.cpp:406] lstm1_gate_input_196 <- W_hc_h_195
I1018 00:08:01.545545 30031 net.cpp:406] lstm1_gate_input_196 <- W_xc_x_196
I1018 00:08:01.545553 30031 net.cpp:380] lstm1_gate_input_196 -> gate_input_196
I1018 00:08:01.545583 30031 net.cpp:122] Setting up lstm1_gate_input_196
I1018 00:08:01.545589 30031 net.cpp:129] Top shape: 1 150 2048 (307200)
I1018 00:08:01.545593 30031 net.cpp:137] Memory required for data: 1324502400
I1018 00:08:01.545598 30031 layer_factory.hpp:77] Creating layer lstm1_unit_196
I1018 00:08:01.545605 30031 net.cpp:84] Creating Layer lstm1_unit_196
I1018 00:08:01.545610 30031 net.cpp:406] lstm1_unit_196 <- c_195
I1018 00:08:01.545619 30031 net.cpp:406] lstm1_unit_196 <- gate_input_196
I1018 00:08:01.545624 30031 net.cpp:406] lstm1_unit_196 <- cont_196_lstm1_cont_slice_195_split_1
I1018 00:08:01.545631 30031 net.cpp:380] lstm1_unit_196 -> c_196
I1018 00:08:01.545639 30031 net.cpp:380] lstm1_unit_196 -> h_196
I1018 00:08:01.545689 30031 net.cpp:122] Setting up lstm1_unit_196
I1018 00:08:01.545698 30031 net.cpp:129] Top shape: 1 150 512 (76800)
I1018 00:08:01.545703 30031 net.cpp:129] Top shape: 1 150 512 (76800)
I1018 00:08:01.545707 30031 net.cpp:137] Memory required for data: 1325116800
I1018 00:08:01.545712 30031 layer_factory.hpp:77] Creating layer lstm1_
I1018 00:08:01.545719 30031 net.cpp:84] Creating Layer lstm1_
I1018 00:08:01.545724 30031 net.cpp:406] lstm1_ <- c_196
I1018 00:08:01.545733 30031 net.cpp:380] lstm1_ -> c_T
I1018 00:08:01.545759 30031 net.cpp:122] Setting up lstm1_
I1018 00:08:01.545768 30031 net.cpp:129] Top shape: 1 150 512 (76800)
I1018 00:08:01.545773 30031 net.cpp:137] Memory required for data: 1325424000
I1018 00:08:01.545776 30031 layer_factory.hpp:77] Creating layer lstm1_h_concat
I1018 00:08:01.545804 30031 net.cpp:84] Creating Layer lstm1_h_concat
I1018 00:08:01.545811 30031 net.cpp:406] lstm1_h_concat <- h_1_lstm1_unit_1_1_split_1
I1018 00:08:01.545820 30031 net.cpp:406] lstm1_h_concat <- h_2_lstm1_unit_2_1_split_1
…
I1018 00:08:01.595156 30031 net.cpp:200] lstm1_ does not need backward computation.
I1018 00:08:01.595160 30031 net.cpp:242] This network produces output c_T
I1018 00:08:01.595170 30031 net.cpp:242] This network produces output h_pseudoloss
I1018 00:08:01.871634 30031 net.cpp:255] Network initialization done.
I1018 00:08:01.886536 30031 recurrent_layer.cpp:150] Adding parameter 0: W_xc
I1018 00:08:01.886564 30031 recurrent_layer.cpp:150] Adding parameter 1: b_c
I1018 00:08:01.886574 30031 recurrent_layer.cpp:150] Adding parameter 2: W_hc
I1018 00:08:01.911887 30031 net.cpp:122] Setting up lstm1
I1018 00:08:01.911948 30031 net.cpp:129] Top shape: 196 150 512 (15052800)
I1018 00:08:01.911958 30031 net.cpp:137] Memory required for data: 17431614600
I1018 00:08:01.911991 30031 layer_factory.hpp:77] Creating layer lstm1-drop
I1018 00:08:01.912017 30031 net.cpp:84] Creating Layer lstm1-drop
I1018 00:08:01.912128 30031 net.cpp:406] lstm1-drop <- lstm1
I1018 00:08:01.912156 30031 net.cpp:380] lstm1-drop -> lstm1-drop
I1018 00:08:01.912257 30031 net.cpp:122] Setting up lstm1-drop
I1018 00:08:01.912271 30031 net.cpp:129] Top shape: 196 150 512 (15052800)
I1018 00:08:01.912279 30031 net.cpp:137] Memory required for data: 17491825800
I1018 00:08:01.912287 30031 layer_factory.hpp:77] Creating layer fc-final
I1018 00:08:01.912307 30031 net.cpp:84] Creating Layer fc-final
I1018 00:08:01.912315 30031 net.cpp:406] fc-final <- lstm1-drop
I1018 00:08:01.912333 30031 net.cpp:380] fc-final -> fc-final
I1018 00:08:01.913018 30031 net.cpp:122] Setting up fc-final
I1018 00:08:01.913036 30031 net.cpp:129] Top shape: 196 150 10 (294000)
I1018 00:08:01.913043 30031 net.cpp:137] Memory required for data: 17493001800
I1018 00:08:01.913058 30031 layer_factory.hpp:77] Creating layer fc-final_fc-final_0_split
I1018 00:08:01.913072 30031 net.cpp:84] Creating Layer fc-final_fc-final_0_split
I1018 00:08:01.913080 30031 net.cpp:406] fc-final_fc-final_0_split <- fc-final
I1018 00:08:01.913092 30031 net.cpp:380] fc-final_fc-final_0_split -> fc-final_fc-final_0_split_0
I1018 00:08:01.913107 30031 net.cpp:380] fc-final_fc-final_0_split -> fc-final_fc-final_0_split_1
I1018 00:08:01.913184 30031 net.cpp:122] Setting up fc-final_fc-final_0_split
I1018 00:08:01.913197 30031 net.cpp:129] Top shape: 196 150 10 (294000)
I1018 00:08:01.913205 30031 net.cpp:129] Top shape: 196 150 10 (294000)
I1018 00:08:01.913213 30031 net.cpp:137] Memory required for data: 17495353800
I1018 00:08:01.913220 30031 layer_factory.hpp:77] Creating layer loss
I1018 00:08:01.913235 30031 net.cpp:84] Creating Layer loss
I1018 00:08:01.913244 30031 net.cpp:406] loss <- fc-final_fc-final_0_split_0
I1018 00:08:01.913255 30031 net.cpp:406] loss <- reshape-label_label_tran_0_split_0
I1018 00:08:01.913267 30031 net.cpp:380] loss -> loss
…
