…
I1018 00:13:44.264725 30341 net.cpp:294] The NetState phase (0) differed from the phase (1) specified by a rule in layer Silence
I1018 00:13:44.264961 30341 net.cpp:51] Initializing net from parameters: 
name: "VGG_16_layers_LSTM"
state {
  phase: TRAIN
  level: 0
  stage: ""
}
layer {
  name: "data"
  type: "ImageData"
  top: "data"
  top: "label"
  include {
    phase: TRAIN
  }
  transform_param {
    mirror: true
    crop_size: 288
    mean_value: 104
    mean_value: 117
    mean_value: 123
  }
  image_data_param {
    source: "../Data/lsun_train_list_12w.txt"
    batch_size: 4
    shuffle: true
    new_height: 320
    new_width: 320
  }
}
layer {
  name: "label_tran"
  type: "Python"
  bottom: "label"
  top: "reshape-label"
  top: "clip_markers"
  python_param {
    module: "data_preparation_sort_max_clip"
    layer: "ReshapeLabel"
  }
}
layer {
  name: "conv1_1"
  type: "Convolution"
  bottom: "data"
  top: "conv1_1"
  convolution_param {
    num_output: 64
    pad: 1
    kernel_size: 3
  }
}
layer {
  name: "relu1_1"
  type: "ReLU"
  bottom: "conv1_1"
  top: "conv1_1"
}
layer {
  name: "conv1_2"
  type: "Convolution"
  bottom: "conv1_1"
  top: "conv1_2"
  convolution_param {
    num_output: 64
    pad: 1
    kernel_size: 3
  }
}
layer {
  name: "relu1_2"
  type: "ReLU"
  bottom: "conv1_2"
  top: "conv1_2"
}
layer {
  name: "pool1"
  type: "Pooling"
  bottom: "conv1_2"
  top: "pool1"
  pooling_param {
    pool: MAX
    kernel_size: 2
    stride: 2
  }
}
layer {
  name: "conv2_1"
  type: "Convolution"
  bottom: "pool1"
  top: "conv2_1"
  convolution_param {
    num_output: 128
    pad: 1
    kernel_size: 3
  }
}
layer {
  name: "relu2_1"
  type: "ReLU"
  bottom: "conv2_1"
  top: "conv2_1"
}
layer {
  name: "conv2_2"
  type: "Convolution"
  bottom: "conv2_1"
  top: "conv2_2"
  convolution_param {
    num_output: 128
    pad: 1
    kernel_size: 3
  }
}
layer {
  name: "relu2_2"
  type: "ReLU"
  bottom: "conv2_2"
  top: "conv2_2"
}
layer {
  name: "pool2"
  type: "Pooling"
  bottom: "conv2_2"
  top: "pool2"
  pooling_param {
    pool: MAX
    kernel_size: 2
    stride: 2
  }
}
layer {
  name: "conv3_1"
  type: "Convolution"
  bottom: "pool2"
  top: "conv3_1"
  convolution_param {
    num_output: 256
    pad: 1
    kernel_size: 3
  }
}
layer {
  name: "relu3_1"
  type: "ReLU"
  bottom: "conv3_1"
  top: "conv3_1"
}
layer {
  name: "conv3_2"
  type: "Convolution"
  bottom: "conv3_1"
  top: "conv3_2"
  convolution_param {
    num_output: 256
    pad: 1
    kernel_size: 3
  }
}
layer {
  name: "relu3_2"
  type: "ReLU"
  bottom: "conv3_2"
  top: "conv3_2"
}
layer {
  name: "conv3_3"
  type: "Convolution"
  bottom: "conv3_2"
  top: "conv3_3"
  convolution_param {
    num_output: 256
    pad: 1
    kernel_size: 3
  }
}
layer {
  name: "relu3_3"
  type: "ReLU"
  bottom: "conv3_3"
  top: "conv3_3"
}
layer {
  name: "pool3"
  type: "Pooling"
  bottom: "conv3_3"
  top: "pool3"
  pooling_param {
    pool: MAX
    kernel_size: 2
    stride: 2
  }
}
layer {
  name: "conv4_1"
  type: "Convolution"
  bottom: "pool3"
  top: "conv4_1"
  convolution_param {
    num_output: 512
    pad: 1
    kernel_size: 3
  }
}
layer {
  name: "relu4_1"
  type: "ReLU"
  bottom: "conv4_1"
  top: "conv4_1"
}
layer {
  name: "conv4_2"
  type: "Convolution"
  bottom: "conv4_1"
  top: "conv4_2"
  convolution_param {
    num_output: 512
    pad: 1
    kernel_size: 3
  }
}
layer {
  name: "relu4_2"
  type: "ReLU"
  bottom: "conv4_2"
  top: "conv4_2"
}
layer {
  name: "conv4_3"
  type: "Convolution"
  bottom: "conv4_2"
  top: "conv4_3"
  convolution_param {
    num_output: 512
    pad: 1
    kernel_size: 3
  }
}
layer {
  name: "relu4_3"
  type: "ReLU"
  bottom: "conv4_3"
  top: "conv4_3"
}
layer {
  name: "pool4"
  type: "Pooling"
  bottom: "conv4_3"
  top: "pool4"
  pooling_param {
    pool: MAX
    kernel_size: 2
    stride: 2
  }
}
layer {
  name: "conv5_1"
  type: "Convolution"
  bottom: "pool4"
  top: "conv5_1"
  convolution_param {
    num_output: 512
    pad: 1
    kernel_size: 3
  }
}
layer {
  name: "relu5_1"
  type: "ReLU"
  bottom: "conv5_1"
  top: "conv5_1"
}
layer {
  name: "conv5_2"
  type: "Convolution"
  bottom: "conv5_1"
  top: "conv5_2"
  convolution_param {
    num_output: 512
    pad: 1
    kernel_size: 3
  }
}
layer {
  name: "relu5_2"
  type: "ReLU"
  bottom: "conv5_2"
  top: "conv5_2"
}
layer {
  name: "conv5_3"
  type: "Convolution"
  bottom: "conv5_2"
  top: "conv5_3"
  convolution_param {
    num_output: 512
    pad: 1
    kernel_size: 3
  }
}
layer {
  name: "relu5_3"
  type: "ReLU"
  bottom: "conv5_3"
  top: "conv5_3"
}
layer {
  name: "pool5"
  type: "Pooling"
  bottom: "conv5_3"
  top: "pool5"
  pooling_param {
    pool: MAX
    kernel_size: 2
    stride: 2
  }
}
layer {
  name: "fc6-conv"
  type: "Convolution"
  bottom: "pool5"
  top: "fc6-conv"
  convolution_param {
    num_output: 4096
    kernel_size: 7
  }
}
layer {
  name: "relu6"
  type: "ReLU"
  bottom: "fc6-conv"
  top: "fc6-conv"
}
layer {
  name: "drop6"
  type: "Dropout"
  bottom: "fc6-conv"
  top: "fc6-conv"
  dropout_param {
    dropout_ratio: 0.5
  }
}
layer {
  name: "fc7-conv"
  type: "Convolution"
  bottom: "fc6-conv"
  top: "fc7-conv"
  convolution_param {
    num_output: 4096
    kernel_size: 1
  }
}
layer {
  name: "relu7"
  type: "ReLU"
  bottom: "fc7-conv"
  top: "fc7-conv"
}
layer {
  name: "drop7"
  type: "Dropout"
  bottom: "fc7-conv"
  top: "fc7-conv"
  dropout_param {
    dropout_ratio: 0.9
  }
}
layer {
  name: "fc7-conv_re"
  type: "Reshape"
  bottom: "fc7-conv"
  top: "fc7-conv_re"
  reshape_param {
    shape {
      dim: 0
      dim: 0
      dim: -1
    }
  }
}
layer {
  name: "fc7-conv_tran"
  type: "Python"
  bottom: "fc7-conv_re"
  top: "fc7-conv_tran"
  python_param {
    module: "data_preparation_sort_max_clip"
    layer: "DataTransposeSortMaxClip"
  }
}
layer {
  name: "lstm1"
  type: "LSTM"
  bottom: "fc7-conv_tran"
  bottom: "clip_markers"
  top: "lstm1"
  recurrent_param {
    num_output: 512
    weight_filler {
      type: "uniform"
      min: -0.01
      max: 0.01
    }
    bias_filler {
      type: "constant"
      value: 0
    }
  }
}
layer {
  name: "lstm1-drop"
  type: "Dropout"
  bottom: "lstm1"
  top: "lstm1-drop"
  dropout_param {
    dropout_ratio: 0.5
  }
}
layer {
  name: "fc-final"
  type: "InnerProduct"
  bottom: "lstm1-drop"
  top: "fc-final"
  param {
    lr_mult: 1
    decay_mult: 1
  }
  param {
    lr_mult: 2
    decay_mult: 0
  }
  inner_product_param {
    num_output: 10
    weight_filler {
      type: "gaussian"
      std: 0.01
    }
    bias_filler {
      type: "constant"
      value: 0
    }
    axis: 2
  }
}
layer {
  name: "loss"
  type: "SoftmaxWithLoss"
  bottom: "fc-final"
  bottom: "reshape-label"
  top: "loss"
  softmax_param {
    axis: 2
  }
}
layer {
  name: "accuracy"
  type: "Accuracy"
  bottom: "fc-final"
  bottom: "reshape-label"
  top: "accuracy"
  accuracy_param {
    axis: 2
  }
}
I1018 00:13:44.265223 30341 layer_factory.hpp:77] Creating layer data
I1018 00:13:44.265282 30341 net.cpp:84] Creating Layer data
I1018 00:13:44.265296 30341 net.cpp:380] data -> data
I1018 00:13:44.265347 30341 net.cpp:380] data -> label
I1018 00:13:44.265386 30341 image_data_layer.cpp:38] Opening file ../Data/lsun_train_list_12w.txt
I1018 00:13:44.905232 30341 image_data_layer.cpp:53] Shuffling data
I1018 00:13:45.208405 30341 image_data_layer.cpp:63] A total of 1200000 images.
I1018 00:13:45.219574 30341 image_data_layer.cpp:90] output data size: 4,3,288,288
I1018 00:13:45.236898 30341 net.cpp:122] Setting up data
I1018 00:13:45.236949 30341 net.cpp:129] Top shape: 4 3 288 288 (995328)
I1018 00:13:45.236959 30341 net.cpp:129] Top shape: 4 (4)
I1018 00:13:45.236963 30341 net.cpp:137] Memory required for data: 3981328
I1018 00:13:45.236982 30341 layer_factory.hpp:77] Creating layer label_tran
I1018 00:13:45.919340 30341 net.cpp:84] Creating Layer label_tran
I1018 00:13:45.919389 30341 net.cpp:406] label_tran <- label
I1018 00:13:45.919412 30341 net.cpp:380] label_tran -> reshape-label
I1018 00:13:45.919426 30341 net.cpp:380] label_tran -> clip_markers
I1018 00:13:45.919726 30341 net.cpp:122] Setting up label_tran
I1018 00:13:45.919745 30341 net.cpp:129] Top shape: 4 4 (16)
I1018 00:13:45.919752 30341 net.cpp:129] Top shape: 4 4 (16)
I1018 00:13:45.919757 30341 net.cpp:137] Memory required for data: 3981456
I1018 00:13:45.919764 30341 layer_factory.hpp:77] Creating layer reshape-label_label_tran_0_split
I1018 00:13:45.919783 30341 net.cpp:84] Creating Layer reshape-label_label_tran_0_split
I1018 00:13:45.919790 30341 net.cpp:406] reshape-label_label_tran_0_split <- reshape-label
I1018 00:13:45.919796 30341 net.cpp:380] reshape-label_label_tran_0_split -> reshape-label_label_tran_0_split_0
I1018 00:13:45.919806 30341 net.cpp:380] reshape-label_label_tran_0_split -> reshape-label_label_tran_0_split_1
I1018 00:13:45.919844 30341 net.cpp:122] Setting up reshape-label_label_tran_0_split
I1018 00:13:45.919852 30341 net.cpp:129] Top shape: 4 4 (16)
I1018 00:13:45.919857 30341 net.cpp:129] Top shape: 4 4 (16)
I1018 00:13:45.919862 30341 net.cpp:137] Memory required for data: 3981584
I1018 00:13:45.919867 30341 layer_factory.hpp:77] Creating layer conv1_1
I1018 00:13:45.919886 30341 net.cpp:84] Creating Layer conv1_1
I1018 00:13:45.919893 30341 net.cpp:406] conv1_1 <- data
I1018 00:13:45.919898 30341 net.cpp:380] conv1_1 -> conv1_1
I1018 00:13:45.921852 30341 net.cpp:122] Setting up conv1_1
I1018 00:13:45.921869 30341 net.cpp:129] Top shape: 4 64 288 288 (21233664)
I1018 00:13:45.921887 30341 net.cpp:137] Memory required for data: 88916240
I1018 00:13:45.921912 30341 layer_factory.hpp:77] Creating layer relu1_1
I1018 00:13:45.921931 30341 net.cpp:84] Creating Layer relu1_1
I1018 00:13:45.921938 30341 net.cpp:406] relu1_1 <- conv1_1
I1018 00:13:45.921950 30341 net.cpp:367] relu1_1 -> conv1_1 (in-place)
I1018 00:13:45.921964 30341 net.cpp:122] Setting up relu1_1
I1018 00:13:45.921970 30341 net.cpp:129] Top shape: 4 64 288 288 (21233664)
I1018 00:13:45.921974 30341 net.cpp:137] Memory required for data: 173850896
I1018 00:13:45.921978 30341 layer_factory.hpp:77] Creating layer conv1_2
I1018 00:13:45.921988 30341 net.cpp:84] Creating Layer conv1_2
I1018 00:13:45.921991 30341 net.cpp:406] conv1_2 <- conv1_1
I1018 00:13:45.921998 30341 net.cpp:380] conv1_2 -> conv1_2
I1018 00:13:45.923035 30341 net.cpp:122] Setting up conv1_2
I1018 00:13:45.923051 30341 net.cpp:129] Top shape: 4 64 288 288 (21233664)
I1018 00:13:45.923069 30341 net.cpp:137] Memory required for data: 258785552
I1018 00:13:45.923089 30341 layer_factory.hpp:77] Creating layer relu1_2
I1018 00:13:45.923097 30341 net.cpp:84] Creating Layer relu1_2
I1018 00:13:45.923102 30341 net.cpp:406] relu1_2 <- conv1_2
I1018 00:13:45.923108 30341 net.cpp:367] relu1_2 -> conv1_2 (in-place)
I1018 00:13:45.923116 30341 net.cpp:122] Setting up relu1_2
I1018 00:13:45.923121 30341 net.cpp:129] Top shape: 4 64 288 288 (21233664)
I1018 00:13:45.923125 30341 net.cpp:137] Memory required for data: 343720208
I1018 00:13:45.923130 30341 layer_factory.hpp:77] Creating layer pool1
I1018 00:13:45.923143 30341 net.cpp:84] Creating Layer pool1
I1018 00:13:45.923148 30341 net.cpp:406] pool1 <- conv1_2
I1018 00:13:45.923156 30341 net.cpp:380] pool1 -> pool1
I1018 00:13:45.923207 30341 net.cpp:122] Setting up pool1
I1018 00:13:45.923216 30341 net.cpp:129] Top shape: 4 64 144 144 (5308416)
I1018 00:13:45.923220 30341 net.cpp:137] Memory required for data: 364953872
I1018 00:13:45.923224 30341 layer_factory.hpp:77] Creating layer conv2_1
I1018 00:13:45.923233 30341 net.cpp:84] Creating Layer conv2_1
I1018 00:13:45.923238 30341 net.cpp:406] conv2_1 <- pool1
I1018 00:13:45.923244 30341 net.cpp:380] conv2_1 -> conv2_1
I1018 00:13:45.923496 30341 net.cpp:122] Setting up conv2_1
I1018 00:13:45.923507 30341 net.cpp:129] Top shape: 4 128 144 144 (10616832)
I1018 00:13:45.923511 30341 net.cpp:137] Memory required for data: 407421200
I1018 00:13:45.923521 30341 layer_factory.hpp:77] Creating layer relu2_1
I1018 00:13:45.923528 30341 net.cpp:84] Creating Layer relu2_1
I1018 00:13:45.923532 30341 net.cpp:406] relu2_1 <- conv2_1
I1018 00:13:45.923538 30341 net.cpp:367] relu2_1 -> conv2_1 (in-place)
I1018 00:13:45.923545 30341 net.cpp:122] Setting up relu2_1
I1018 00:13:45.923550 30341 net.cpp:129] Top shape: 4 128 144 144 (10616832)
I1018 00:13:45.923554 30341 net.cpp:137] Memory required for data: 449888528
I1018 00:13:45.923565 30341 layer_factory.hpp:77] Creating layer conv2_2
I1018 00:13:45.923578 30341 net.cpp:84] Creating Layer conv2_2
I1018 00:13:45.923583 30341 net.cpp:406] conv2_2 <- conv2_1
I1018 00:13:45.923589 30341 net.cpp:380] conv2_2 -> conv2_2
I1018 00:13:45.924679 30341 net.cpp:122] Setting up conv2_2
I1018 00:13:45.924696 30341 net.cpp:129] Top shape: 4 128 144 144 (10616832)
I1018 00:13:45.924713 30341 net.cpp:137] Memory required for data: 492355856
I1018 00:13:45.924721 30341 layer_factory.hpp:77] Creating layer relu2_2
I1018 00:13:45.924727 30341 net.cpp:84] Creating Layer relu2_2
I1018 00:13:45.924733 30341 net.cpp:406] relu2_2 <- conv2_2
I1018 00:13:45.924739 30341 net.cpp:367] relu2_2 -> conv2_2 (in-place)
I1018 00:13:45.924747 30341 net.cpp:122] Setting up relu2_2
I1018 00:13:45.924752 30341 net.cpp:129] Top shape: 4 128 144 144 (10616832)
I1018 00:13:45.924757 30341 net.cpp:137] Memory required for data: 534823184
I1018 00:13:45.924760 30341 layer_factory.hpp:77] Creating layer pool2
I1018 00:13:45.924765 30341 net.cpp:84] Creating Layer pool2
I1018 00:13:45.924769 30341 net.cpp:406] pool2 <- conv2_2
I1018 00:13:45.924775 30341 net.cpp:380] pool2 -> pool2
I1018 00:13:45.924809 30341 net.cpp:122] Setting up pool2
I1018 00:13:45.924818 30341 net.cpp:129] Top shape: 4 128 72 72 (2654208)
I1018 00:13:45.924821 30341 net.cpp:137] Memory required for data: 545440016
I1018 00:13:45.924825 30341 layer_factory.hpp:77] Creating layer conv3_1
I1018 00:13:45.924832 30341 net.cpp:84] Creating Layer conv3_1
I1018 00:13:45.924837 30341 net.cpp:406] conv3_1 <- pool2
I1018 00:13:45.924844 30341 net.cpp:380] conv3_1 -> conv3_1
I1018 00:13:45.926714 30341 net.cpp:122] Setting up conv3_1
I1018 00:13:45.926730 30341 net.cpp:129] Top shape: 4 256 72 72 (5308416)
I1018 00:13:45.926748 30341 net.cpp:137] Memory required for data: 566673680
I1018 00:13:45.926759 30341 layer_factory.hpp:77] Creating layer relu3_1
I1018 00:13:45.926774 30341 net.cpp:84] Creating Layer relu3_1
I1018 00:13:45.926780 30341 net.cpp:406] relu3_1 <- conv3_1
I1018 00:13:45.926787 30341 net.cpp:367] relu3_1 -> conv3_1 (in-place)
I1018 00:13:45.926795 30341 net.cpp:122] Setting up relu3_1
I1018 00:13:45.926801 30341 net.cpp:129] Top shape: 4 256 72 72 (5308416)
I1018 00:13:45.926805 30341 net.cpp:137] Memory required for data: 587907344
I1018 00:13:45.926815 30341 layer_factory.hpp:77] Creating layer conv3_2
I1018 00:13:45.926825 30341 net.cpp:84] Creating Layer conv3_2
I1018 00:13:45.926828 30341 net.cpp:406] conv3_2 <- conv3_1
I1018 00:13:45.926834 30341 net.cpp:380] conv3_2 -> conv3_2
I1018 00:13:45.928753 30341 net.cpp:122] Setting up conv3_2
I1018 00:13:45.928769 30341 net.cpp:129] Top shape: 4 256 72 72 (5308416)
I1018 00:13:45.928774 30341 net.cpp:137] Memory required for data: 609141008
I1018 00:13:45.928782 30341 layer_factory.hpp:77] Creating layer relu3_2
I1018 00:13:45.928791 30341 net.cpp:84] Creating Layer relu3_2
I1018 00:13:45.928795 30341 net.cpp:406] relu3_2 <- conv3_2
I1018 00:13:45.928804 30341 net.cpp:367] relu3_2 -> conv3_2 (in-place)
I1018 00:13:45.928812 30341 net.cpp:122] Setting up relu3_2
I1018 00:13:45.928818 30341 net.cpp:129] Top shape: 4 256 72 72 (5308416)
I1018 00:13:45.928822 30341 net.cpp:137] Memory required for data: 630374672
I1018 00:13:45.928825 30341 layer_factory.hpp:77] Creating layer conv3_3
I1018 00:13:45.928840 30341 net.cpp:84] Creating Layer conv3_3
I1018 00:13:45.928848 30341 net.cpp:406] conv3_3 <- conv3_2
I1018 00:13:45.928855 30341 net.cpp:380] conv3_3 -> conv3_3
I1018 00:13:45.930694 30341 net.cpp:122] Setting up conv3_3
I1018 00:13:45.930711 30341 net.cpp:129] Top shape: 4 256 72 72 (5308416)
I1018 00:13:45.930716 30341 net.cpp:137] Memory required for data: 651608336
I1018 00:13:45.930722 30341 layer_factory.hpp:77] Creating layer relu3_3
I1018 00:13:45.930729 30341 net.cpp:84] Creating Layer relu3_3
I1018 00:13:45.930733 30341 net.cpp:406] relu3_3 <- conv3_3
I1018 00:13:45.930742 30341 net.cpp:367] relu3_3 -> conv3_3 (in-place)
I1018 00:13:45.930749 30341 net.cpp:122] Setting up relu3_3
I1018 00:13:45.930755 30341 net.cpp:129] Top shape: 4 256 72 72 (5308416)
I1018 00:13:45.930759 30341 net.cpp:137] Memory required for data: 672842000
I1018 00:13:45.930763 30341 layer_factory.hpp:77] Creating layer pool3
I1018 00:13:45.930768 30341 net.cpp:84] Creating Layer pool3
I1018 00:13:45.930773 30341 net.cpp:406] pool3 <- conv3_3
I1018 00:13:45.930780 30341 net.cpp:380] pool3 -> pool3
I1018 00:13:45.930819 30341 net.cpp:122] Setting up pool3
I1018 00:13:45.930827 30341 net.cpp:129] Top shape: 4 256 36 36 (1327104)
I1018 00:13:45.930830 30341 net.cpp:137] Memory required for data: 678150416
I1018 00:13:45.930842 30341 layer_factory.hpp:77] Creating layer conv4_1
I1018 00:13:45.930851 30341 net.cpp:84] Creating Layer conv4_1
I1018 00:13:45.930857 30341 net.cpp:406] conv4_1 <- pool3
I1018 00:13:45.930866 30341 net.cpp:380] conv4_1 -> conv4_1
I1018 00:13:45.934774 30341 net.cpp:122] Setting up conv4_1
I1018 00:13:45.934792 30341 net.cpp:129] Top shape: 4 512 36 36 (2654208)
I1018 00:13:45.934798 30341 net.cpp:137] Memory required for data: 688767248
I1018 00:13:45.934804 30341 layer_factory.hpp:77] Creating layer relu4_1
I1018 00:13:45.934819 30341 net.cpp:84] Creating Layer relu4_1
I1018 00:13:45.934826 30341 net.cpp:406] relu4_1 <- conv4_1
I1018 00:13:45.934835 30341 net.cpp:367] relu4_1 -> conv4_1 (in-place)
I1018 00:13:45.934844 30341 net.cpp:122] Setting up relu4_1
I1018 00:13:45.934849 30341 net.cpp:129] Top shape: 4 512 36 36 (2654208)
I1018 00:13:45.934854 30341 net.cpp:137] Memory required for data: 699384080
I1018 00:13:45.934857 30341 layer_factory.hpp:77] Creating layer conv4_2
I1018 00:13:45.934864 30341 net.cpp:84] Creating Layer conv4_2
I1018 00:13:45.934868 30341 net.cpp:406] conv4_2 <- conv4_1
I1018 00:13:45.934876 30341 net.cpp:380] conv4_2 -> conv4_2
I1018 00:13:45.940554 30341 net.cpp:122] Setting up conv4_2
I1018 00:13:45.940570 30341 net.cpp:129] Top shape: 4 512 36 36 (2654208)
I1018 00:13:45.940575 30341 net.cpp:137] Memory required for data: 710000912
I1018 00:13:45.940589 30341 layer_factory.hpp:77] Creating layer relu4_2
I1018 00:13:45.940596 30341 net.cpp:84] Creating Layer relu4_2
I1018 00:13:45.940601 30341 net.cpp:406] relu4_2 <- conv4_2
I1018 00:13:45.940608 30341 net.cpp:367] relu4_2 -> conv4_2 (in-place)
I1018 00:13:45.940615 30341 net.cpp:122] Setting up relu4_2
I1018 00:13:45.940620 30341 net.cpp:129] Top shape: 4 512 36 36 (2654208)
I1018 00:13:45.940624 30341 net.cpp:137] Memory required for data: 720617744
I1018 00:13:45.940637 30341 layer_factory.hpp:77] Creating layer conv4_3
I1018 00:13:45.940650 30341 net.cpp:84] Creating Layer conv4_3
I1018 00:13:45.940655 30341 net.cpp:406] conv4_3 <- conv4_2
I1018 00:13:45.940663 30341 net.cpp:380] conv4_3 -> conv4_3
I1018 00:13:45.946410 30341 net.cpp:122] Setting up conv4_3
I1018 00:13:45.946427 30341 net.cpp:129] Top shape: 4 512 36 36 (2654208)
I1018 00:13:45.946432 30341 net.cpp:137] Memory required for data: 731234576
I1018 00:13:45.946439 30341 layer_factory.hpp:77] Creating layer relu4_3
I1018 00:13:45.946455 30341 net.cpp:84] Creating Layer relu4_3
I1018 00:13:45.946461 30341 net.cpp:406] relu4_3 <- conv4_3
I1018 00:13:45.946470 30341 net.cpp:367] relu4_3 -> conv4_3 (in-place)
I1018 00:13:45.946478 30341 net.cpp:122] Setting up relu4_3
I1018 00:13:45.946485 30341 net.cpp:129] Top shape: 4 512 36 36 (2654208)
I1018 00:13:45.946488 30341 net.cpp:137] Memory required for data: 741851408
I1018 00:13:45.946491 30341 layer_factory.hpp:77] Creating layer pool4
I1018 00:13:45.946498 30341 net.cpp:84] Creating Layer pool4
I1018 00:13:45.946502 30341 net.cpp:406] pool4 <- conv4_3
I1018 00:13:45.946507 30341 net.cpp:380] pool4 -> pool4
I1018 00:13:45.946554 30341 net.cpp:122] Setting up pool4
I1018 00:13:45.946563 30341 net.cpp:129] Top shape: 4 512 18 18 (663552)
I1018 00:13:45.946566 30341 net.cpp:137] Memory required for data: 744505616
I1018 00:13:45.946569 30341 layer_factory.hpp:77] Creating layer conv5_1
I1018 00:13:45.946578 30341 net.cpp:84] Creating Layer conv5_1
I1018 00:13:45.946583 30341 net.cpp:406] conv5_1 <- pool4
I1018 00:13:45.946590 30341 net.cpp:380] conv5_1 -> conv5_1
I1018 00:13:45.952435 30341 net.cpp:122] Setting up conv5_1
I1018 00:13:45.952452 30341 net.cpp:129] Top shape: 4 512 18 18 (663552)
I1018 00:13:45.952456 30341 net.cpp:137] Memory required for data: 747159824
I1018 00:13:45.952469 30341 layer_factory.hpp:77] Creating layer relu5_1
I1018 00:13:45.952486 30341 net.cpp:84] Creating Layer relu5_1
I1018 00:13:45.952491 30341 net.cpp:406] relu5_1 <- conv5_1
I1018 00:13:45.952498 30341 net.cpp:367] relu5_1 -> conv5_1 (in-place)
I1018 00:13:45.952514 30341 net.cpp:122] Setting up relu5_1
I1018 00:13:45.952520 30341 net.cpp:129] Top shape: 4 512 18 18 (663552)
I1018 00:13:45.952524 30341 net.cpp:137] Memory required for data: 749814032
I1018 00:13:45.952527 30341 layer_factory.hpp:77] Creating layer conv5_2
I1018 00:13:45.952538 30341 net.cpp:84] Creating Layer conv5_2
I1018 00:13:45.952541 30341 net.cpp:406] conv5_2 <- conv5_1
I1018 00:13:45.952548 30341 net.cpp:380] conv5_2 -> conv5_2
I1018 00:13:45.958453 30341 net.cpp:122] Setting up conv5_2
I1018 00:13:45.958477 30341 net.cpp:129] Top shape: 4 512 18 18 (663552)
I1018 00:13:45.958482 30341 net.cpp:137] Memory required for data: 752468240
I1018 00:13:45.958489 30341 layer_factory.hpp:77] Creating layer relu5_2
I1018 00:13:45.958495 30341 net.cpp:84] Creating Layer relu5_2
I1018 00:13:45.958500 30341 net.cpp:406] relu5_2 <- conv5_2
I1018 00:13:45.958508 30341 net.cpp:367] relu5_2 -> conv5_2 (in-place)
I1018 00:13:45.958514 30341 net.cpp:122] Setting up relu5_2
I1018 00:13:45.958520 30341 net.cpp:129] Top shape: 4 512 18 18 (663552)
I1018 00:13:45.958524 30341 net.cpp:137] Memory required for data: 755122448
I1018 00:13:45.958528 30341 layer_factory.hpp:77] Creating layer conv5_3
I1018 00:13:45.958537 30341 net.cpp:84] Creating Layer conv5_3
I1018 00:13:45.958542 30341 net.cpp:406] conv5_3 <- conv5_2
I1018 00:13:45.958550 30341 net.cpp:380] conv5_3 -> conv5_3
I1018 00:13:45.964304 30341 net.cpp:122] Setting up conv5_3
I1018 00:13:45.964324 30341 net.cpp:129] Top shape: 4 512 18 18 (663552)
I1018 00:13:45.964329 30341 net.cpp:137] Memory required for data: 757776656
I1018 00:13:45.964337 30341 layer_factory.hpp:77] Creating layer relu5_3
I1018 00:13:45.964361 30341 net.cpp:84] Creating Layer relu5_3
I1018 00:13:45.964370 30341 net.cpp:406] relu5_3 <- conv5_3
I1018 00:13:45.964376 30341 net.cpp:367] relu5_3 -> conv5_3 (in-place)
I1018 00:13:45.964385 30341 net.cpp:122] Setting up relu5_3
I1018 00:13:45.964390 30341 net.cpp:129] Top shape: 4 512 18 18 (663552)
I1018 00:13:45.964395 30341 net.cpp:137] Memory required for data: 760430864
I1018 00:13:45.964402 30341 layer_factory.hpp:77] Creating layer pool5
I1018 00:13:45.964411 30341 net.cpp:84] Creating Layer pool5
I1018 00:13:45.964414 30341 net.cpp:406] pool5 <- conv5_3
I1018 00:13:45.964422 30341 net.cpp:380] pool5 -> pool5
I1018 00:13:45.964463 30341 net.cpp:122] Setting up pool5
I1018 00:13:45.964471 30341 net.cpp:129] Top shape: 4 512 9 9 (165888)
I1018 00:13:45.964474 30341 net.cpp:137] Memory required for data: 761094416
I1018 00:13:45.964478 30341 layer_factory.hpp:77] Creating layer fc6-conv
I1018 00:13:45.964488 30341 net.cpp:84] Creating Layer fc6-conv
I1018 00:13:45.964493 30341 net.cpp:406] fc6-conv <- pool5
I1018 00:13:45.964500 30341 net.cpp:380] fc6-conv -> fc6-conv
I1018 00:13:46.235800 30341 net.cpp:122] Setting up fc6-conv
I1018 00:13:46.235842 30341 net.cpp:129] Top shape: 4 4096 3 3 (147456)
I1018 00:13:46.235848 30341 net.cpp:137] Memory required for data: 761684240
I1018 00:13:46.235859 30341 layer_factory.hpp:77] Creating layer relu6
I1018 00:13:46.235878 30341 net.cpp:84] Creating Layer relu6
I1018 00:13:46.235887 30341 net.cpp:406] relu6 <- fc6-conv
I1018 00:13:46.235895 30341 net.cpp:367] relu6 -> fc6-conv (in-place)
I1018 00:13:46.235908 30341 net.cpp:122] Setting up relu6
I1018 00:13:46.235913 30341 net.cpp:129] Top shape: 4 4096 3 3 (147456)
I1018 00:13:46.235918 30341 net.cpp:137] Memory required for data: 762274064
I1018 00:13:46.235920 30341 layer_factory.hpp:77] Creating layer drop6
I1018 00:13:46.235935 30341 net.cpp:84] Creating Layer drop6
I1018 00:13:46.235939 30341 net.cpp:406] drop6 <- fc6-conv
I1018 00:13:46.235945 30341 net.cpp:367] drop6 -> fc6-conv (in-place)
I1018 00:13:46.235978 30341 net.cpp:122] Setting up drop6
I1018 00:13:46.235991 30341 net.cpp:129] Top shape: 4 4096 3 3 (147456)
I1018 00:13:46.235997 30341 net.cpp:137] Memory required for data: 762863888
I1018 00:13:46.236024 30341 layer_factory.hpp:77] Creating layer fc7-conv
I1018 00:13:46.236054 30341 net.cpp:84] Creating Layer fc7-conv
I1018 00:13:46.236063 30341 net.cpp:406] fc7-conv <- fc6-conv
I1018 00:13:46.236075 30341 net.cpp:380] fc7-conv -> fc7-conv
I1018 00:13:46.280699 30341 net.cpp:122] Setting up fc7-conv
I1018 00:13:46.280735 30341 net.cpp:129] Top shape: 4 4096 3 3 (147456)
I1018 00:13:46.280742 30341 net.cpp:137] Memory required for data: 763453712
I1018 00:13:46.280757 30341 layer_factory.hpp:77] Creating layer relu7
I1018 00:13:46.280787 30341 net.cpp:84] Creating Layer relu7
I1018 00:13:46.280799 30341 net.cpp:406] relu7 <- fc7-conv
I1018 00:13:46.280813 30341 net.cpp:367] relu7 -> fc7-conv (in-place)
I1018 00:13:46.280830 30341 net.cpp:122] Setting up relu7
I1018 00:13:46.280848 30341 net.cpp:129] Top shape: 4 4096 3 3 (147456)
I1018 00:13:46.280855 30341 net.cpp:137] Memory required for data: 764043536
I1018 00:13:46.280863 30341 layer_factory.hpp:77] Creating layer drop7
I1018 00:13:46.280877 30341 net.cpp:84] Creating Layer drop7
I1018 00:13:46.280885 30341 net.cpp:406] drop7 <- fc7-conv
I1018 00:13:46.280894 30341 net.cpp:367] drop7 -> fc7-conv (in-place)
I1018 00:13:46.280939 30341 net.cpp:122] Setting up drop7
I1018 00:13:46.280951 30341 net.cpp:129] Top shape: 4 4096 3 3 (147456)
I1018 00:13:46.280958 30341 net.cpp:137] Memory required for data: 764633360
I1018 00:13:46.280966 30341 layer_factory.hpp:77] Creating layer fc7-conv_re
I1018 00:13:46.280984 30341 net.cpp:84] Creating Layer fc7-conv_re
I1018 00:13:46.280992 30341 net.cpp:406] fc7-conv_re <- fc7-conv
I1018 00:13:46.281005 30341 net.cpp:380] fc7-conv_re -> fc7-conv_re
I1018 00:13:46.281061 30341 net.cpp:122] Setting up fc7-conv_re
I1018 00:13:46.281074 30341 net.cpp:129] Top shape: 4 4096 9 (147456)
I1018 00:13:46.281080 30341 net.cpp:137] Memory required for data: 765223184
I1018 00:13:46.281086 30341 layer_factory.hpp:77] Creating layer fc7-conv_tran
I1018 00:13:46.281177 30341 net.cpp:84] Creating Layer fc7-conv_tran
I1018 00:13:46.281188 30341 net.cpp:406] fc7-conv_tran <- fc7-conv_re
I1018 00:13:46.281200 30341 net.cpp:380] fc7-conv_tran -> fc7-conv_tran
I1018 00:13:46.282248 30341 net.cpp:122] Setting up fc7-conv_tran
I1018 00:13:46.282266 30341 net.cpp:129] Top shape: 4 4 4096 (65536)
I1018 00:13:46.282274 30341 net.cpp:137] Memory required for data: 765485328
I1018 00:13:46.282282 30341 layer_factory.hpp:77] Creating layer lstm1
I1018 00:13:46.282302 30341 net.cpp:84] Creating Layer lstm1
I1018 00:13:46.282312 30341 net.cpp:406] lstm1 <- fc7-conv_tran
I1018 00:13:46.282321 30341 net.cpp:406] lstm1 <- clip_markers
I1018 00:13:46.282337 30341 net.cpp:380] lstm1 -> lstm1
I1018 00:13:46.282371 30341 recurrent_layer.cpp:20] Initializing recurrent layer: assuming input batch contains 4 timesteps of 4 independent streams.
I1018 00:13:46.282711 30341 net.cpp:51] Initializing net from parameters: 
layer {
  name: "lstm1_"
  type: "Input"
  top: "x"
  top: "cont"
  input_param {
    shape {
      dim: 4
      dim: 4
      dim: 4096
    }
    shape {
      dim: 4
      dim: 4
    }
  }
}
layer {
  name: "lstm1_"
  type: "Input"
  top: "c_0"
  top: "h_0"
  input_param {
    shape {
      dim: 1
      dim: 4
      dim: 512
    }
    shape {
      dim: 1
      dim: 4
      dim: 512
    }
  }
}
layer {
  name: "lstm1_cont_slice"
  type: "Slice"
  bottom: "cont"
  top: "cont_1"
  top: "cont_2"
  top: "cont_3"
  top: "cont_4"
  slice_param {
    axis: 0
  }
}
layer {
  name: "lstm1_x_transform"
  type: "InnerProduct"
  bottom: "x"
  top: "W_xc_x"
  param {
    name: "W_xc"
  }
  param {
    name: "b_c"
  }
  propagate_down: true
  inner_product_param {
    num_output: 2048
    bias_term: true
    weight_filler {
      type: "uniform"
      min: -0.01
      max: 0.01
    }
    bias_filler {
      type: "constant"
      value: 0
    }
    axis: 2
  }
}
layer {
  name: "lstm1_W_xc_x_slice"
  type: "Slice"
  bottom: "W_xc_x"
  top: "W_xc_x_1"
  top: "W_xc_x_2"
  top: "W_xc_x_3"
  top: "W_xc_x_4"
  slice_param {
    axis: 0
  }
}
layer {
  name: "lstm1_h_conted_0"
  type: "Scale"
  bottom: "h_0"
  bottom: "cont_1"
  top: "h_conted_0"
  scale_param {
    axis: 0
  }
}
layer {
  name: "lstm1_transform_1"
  type: "InnerProduct"
  bottom: "h_conted_0"
  top: "W_hc_h_0"
  param {
    name: "W_hc"
  }
  inner_product_param {
    num_output: 2048
    bias_term: false
    weight_filler {
      type: "uniform"
      min: -0.01
      max: 0.01
    }
    axis: 2
  }
}
layer {
  name: "lstm1_gate_input_1"
  type: "Eltwise"
  bottom: "W_hc_h_0"
  bottom: "W_xc_x_1"
  top: "gate_input_1"
  eltwise_param {
    operation: SUM
  }
}
layer {
  name: "lstm1_unit_1"
  type: "LSTMUnit"
  bottom: "c_0"
  bottom: "gate_input_1"
  bottom: "cont_1"
  top: "c_1"
  top: "h_1"
}
layer {
  name: "lstm1_h_conted_1"
  type: "Scale"
  bottom: "h_1"
  bottom: "cont_2"
  top: "h_conted_1"
  scale_param {
    axis: 0
  }
}
layer {
  name: "lstm1_transform_2"
  type: "InnerProduct"
  bottom: "h_conted_1"
  top: "W_hc_h_1"
  param {
    name: "W_hc"
  }
  inner_product_param {
    num_output: 2048
    bias_term: false
    weight_filler {
      type: "uniform"
      min: -0.01
      max: 0.01
    }
    axis: 2
  }
}
layer {
  name: "lstm1_gate_input_2"
  type: "Eltwise"
  bottom: "W_hc_h_1"
  bottom: "W_xc_x_2"
  top: "gate_input_2"
  eltwise_param {
    operation: SUM
  }
}
layer {
  name: "lstm1_unit_2"
  type: "LSTMUnit"
  bottom: "c_1"
  bottom: "gate_input_2"
  bottom: "cont_2"
  top: "c_2"
  top: "h_2"
}
layer {
  name: "lstm1_h_conted_2"
  type: "Scale"
  bottom: "h_2"
  bottom: "cont_3"
  top: "h_conted_2"
  scale_param {
    axis: 0
  }
}
layer {
  name: "lstm1_transform_3"
  type: "InnerProduct"
  bottom: "h_conted_2"
  top: "W_hc_h_2"
  param {
    name: "W_hc"
  }
  inner_product_param {
    num_output: 2048
    bias_term: false
    weight_filler {
      type: "uniform"
      min: -0.01
      max: 0.01
    }
    axis: 2
  }
}
layer {
  name: "lstm1_gate_input_3"
  type: "Eltwise"
  bottom: "W_hc_h_2"
  bottom: "W_xc_x_3"
  top: "gate_input_3"
  eltwise_param {
    operation: SUM
  }
}
layer {
  name: "lstm1_unit_3"
  type: "LSTMUnit"
  bottom: "c_2"
  bottom: "gate_input_3"
  bottom: "cont_3"
  top: "c_3"
  top: "h_3"
}
layer {
  name: "lstm1_h_conted_3"
  type: "Scale"
  bottom: "h_3"
  bottom: "cont_4"
  top: "h_conted_3"
  scale_param {
    axis: 0
  }
}
layer {
  name: "lstm1_transform_4"
  type: "InnerProduct"
  bottom: "h_conted_3"
  top: "W_hc_h_3"
  param {
    name: "W_hc"
  }
  inner_product_param {
    num_output: 2048
    bias_term: false
    weight_filler {
      type: "uniform"
      min: -0.01
      max: 0.01
    }
    axis: 2
  }
}
layer {
  name: "lstm1_gate_input_4"
  type: "Eltwise"
  bottom: "W_hc_h_3"
  bottom: "W_xc_x_4"
  top: "gate_input_4"
  eltwise_param {
    operation: SUM
  }
}
layer {
  name: "lstm1_unit_4"
  type: "LSTMUnit"
  bottom: "c_3"
  bottom: "gate_input_4"
  bottom: "cont_4"
  top: "c_4"
  top: "h_4"
}
layer {
  name: "lstm1_"
  type: "Split"
  bottom: "c_4"
  top: "c_T"
}
layer {
  name: "lstm1_h_concat"
  type: "Concat"
  bottom: "h_1"
  bottom: "h_2"
  bottom: "h_3"
  bottom: "h_4"
  top: "h"
  concat_param {
    axis: 0
  }
}
layer {
  name: "h_pseudoloss"
  type: "Reduction"
  bottom: "h"
  top: "h_pseudoloss"
  loss_weight: 1
}
I1018 00:13:46.282968 30341 layer_factory.hpp:77] Creating layer lstm1_
I1018 00:13:46.282987 30341 net.cpp:84] Creating Layer lstm1_
I1018 00:13:46.282996 30341 net.cpp:380] lstm1_ -> x
I1018 00:13:46.283015 30341 net.cpp:380] lstm1_ -> cont
I1018 00:13:46.283079 30341 net.cpp:122] Setting up lstm1_
I1018 00:13:46.283093 30341 net.cpp:129] Top shape: 4 4 4096 (65536)
I1018 00:13:46.283102 30341 net.cpp:129] Top shape: 4 4 (16)
I1018 00:13:46.283109 30341 net.cpp:137] Memory required for data: 262208
I1018 00:13:46.283116 30341 layer_factory.hpp:77] Creating layer lstm1_
I1018 00:13:46.283128 30341 net.cpp:84] Creating Layer lstm1_
I1018 00:13:46.283136 30341 net.cpp:380] lstm1_ -> c_0
I1018 00:13:46.283150 30341 net.cpp:380] lstm1_ -> h_0
I1018 00:13:46.283207 30341 net.cpp:122] Setting up lstm1_
I1018 00:13:46.283224 30341 net.cpp:129] Top shape: 1 4 512 (2048)
I1018 00:13:46.283232 30341 net.cpp:129] Top shape: 1 4 512 (2048)
I1018 00:13:46.283239 30341 net.cpp:137] Memory required for data: 278592
I1018 00:13:46.283246 30341 layer_factory.hpp:77] Creating layer lstm1_cont_slice
I1018 00:13:46.283258 30341 net.cpp:84] Creating Layer lstm1_cont_slice
I1018 00:13:46.283265 30341 net.cpp:406] lstm1_cont_slice <- cont
I1018 00:13:46.283275 30341 net.cpp:380] lstm1_cont_slice -> cont_1
I1018 00:13:46.283288 30341 net.cpp:380] lstm1_cont_slice -> cont_2
I1018 00:13:46.283303 30341 net.cpp:380] lstm1_cont_slice -> cont_3
I1018 00:13:46.283313 30341 net.cpp:380] lstm1_cont_slice -> cont_4
I1018 00:13:46.283418 30341 net.cpp:122] Setting up lstm1_cont_slice
I1018 00:13:46.283430 30341 net.cpp:129] Top shape: 1 4 (4)
I1018 00:13:46.283439 30341 net.cpp:129] Top shape: 1 4 (4)
I1018 00:13:46.283447 30341 net.cpp:129] Top shape: 1 4 (4)
I1018 00:13:46.283455 30341 net.cpp:129] Top shape: 1 4 (4)
I1018 00:13:46.283463 30341 net.cpp:137] Memory required for data: 278656
I1018 00:13:46.283469 30341 layer_factory.hpp:77] Creating layer cont_1_lstm1_cont_slice_0_split
I1018 00:13:46.283478 30341 net.cpp:84] Creating Layer cont_1_lstm1_cont_slice_0_split
I1018 00:13:46.283485 30341 net.cpp:406] cont_1_lstm1_cont_slice_0_split <- cont_1
I1018 00:13:46.283498 30341 net.cpp:380] cont_1_lstm1_cont_slice_0_split -> cont_1_lstm1_cont_slice_0_split_0
I1018 00:13:46.283510 30341 net.cpp:380] cont_1_lstm1_cont_slice_0_split -> cont_1_lstm1_cont_slice_0_split_1
I1018 00:13:46.283562 30341 net.cpp:122] Setting up cont_1_lstm1_cont_slice_0_split
I1018 00:13:46.283573 30341 net.cpp:129] Top shape: 1 4 (4)
I1018 00:13:46.283582 30341 net.cpp:129] Top shape: 1 4 (4)
I1018 00:13:46.283589 30341 net.cpp:137] Memory required for data: 278688
I1018 00:13:46.283596 30341 layer_factory.hpp:77] Creating layer cont_2_lstm1_cont_slice_1_split
I1018 00:13:46.283605 30341 net.cpp:84] Creating Layer cont_2_lstm1_cont_slice_1_split
I1018 00:13:46.283612 30341 net.cpp:406] cont_2_lstm1_cont_slice_1_split <- cont_2
I1018 00:13:46.283624 30341 net.cpp:380] cont_2_lstm1_cont_slice_1_split -> cont_2_lstm1_cont_slice_1_split_0
I1018 00:13:46.283635 30341 net.cpp:380] cont_2_lstm1_cont_slice_1_split -> cont_2_lstm1_cont_slice_1_split_1
I1018 00:13:46.283684 30341 net.cpp:122] Setting up cont_2_lstm1_cont_slice_1_split
I1018 00:13:46.283696 30341 net.cpp:129] Top shape: 1 4 (4)
I1018 00:13:46.283705 30341 net.cpp:129] Top shape: 1 4 (4)
I1018 00:13:46.283722 30341 net.cpp:137] Memory required for data: 278720
I1018 00:13:46.283730 30341 layer_factory.hpp:77] Creating layer cont_3_lstm1_cont_slice_2_split
I1018 00:13:46.283736 30341 net.cpp:84] Creating Layer cont_3_lstm1_cont_slice_2_split
I1018 00:13:46.283743 30341 net.cpp:406] cont_3_lstm1_cont_slice_2_split <- cont_3
I1018 00:13:46.283752 30341 net.cpp:380] cont_3_lstm1_cont_slice_2_split -> cont_3_lstm1_cont_slice_2_split_0
I1018 00:13:46.283762 30341 net.cpp:380] cont_3_lstm1_cont_slice_2_split -> cont_3_lstm1_cont_slice_2_split_1
I1018 00:13:46.283812 30341 net.cpp:122] Setting up cont_3_lstm1_cont_slice_2_split
I1018 00:13:46.283823 30341 net.cpp:129] Top shape: 1 4 (4)
I1018 00:13:46.283830 30341 net.cpp:129] Top shape: 1 4 (4)
I1018 00:13:46.283838 30341 net.cpp:137] Memory required for data: 278752
I1018 00:13:46.283844 30341 layer_factory.hpp:77] Creating layer cont_4_lstm1_cont_slice_3_split
I1018 00:13:46.283852 30341 net.cpp:84] Creating Layer cont_4_lstm1_cont_slice_3_split
I1018 00:13:46.283859 30341 net.cpp:406] cont_4_lstm1_cont_slice_3_split <- cont_4
I1018 00:13:46.283870 30341 net.cpp:380] cont_4_lstm1_cont_slice_3_split -> cont_4_lstm1_cont_slice_3_split_0
I1018 00:13:46.283881 30341 net.cpp:380] cont_4_lstm1_cont_slice_3_split -> cont_4_lstm1_cont_slice_3_split_1
I1018 00:13:46.283922 30341 net.cpp:122] Setting up cont_4_lstm1_cont_slice_3_split
I1018 00:13:46.283932 30341 net.cpp:129] Top shape: 1 4 (4)
I1018 00:13:46.283941 30341 net.cpp:129] Top shape: 1 4 (4)
I1018 00:13:46.283947 30341 net.cpp:137] Memory required for data: 278784
I1018 00:13:46.283953 30341 layer_factory.hpp:77] Creating layer lstm1_x_transform
I1018 00:13:46.283972 30341 net.cpp:84] Creating Layer lstm1_x_transform
I1018 00:13:46.283980 30341 net.cpp:406] lstm1_x_transform <- x
I1018 00:13:46.283991 30341 net.cpp:380] lstm1_x_transform -> W_xc_x
I1018 00:13:46.383174 30341 net.cpp:122] Setting up lstm1_x_transform
I1018 00:13:46.383215 30341 net.cpp:129] Top shape: 4 4 2048 (32768)
I1018 00:13:46.383220 30341 net.cpp:137] Memory required for data: 409856
I1018 00:13:46.383239 30341 layer_factory.hpp:77] Creating layer lstm1_W_xc_x_slice
I1018 00:13:46.383255 30341 net.cpp:84] Creating Layer lstm1_W_xc_x_slice
I1018 00:13:46.383261 30341 net.cpp:406] lstm1_W_xc_x_slice <- W_xc_x
I1018 00:13:46.383270 30341 net.cpp:380] lstm1_W_xc_x_slice -> W_xc_x_1
I1018 00:13:46.383282 30341 net.cpp:380] lstm1_W_xc_x_slice -> W_xc_x_2
I1018 00:13:46.383289 30341 net.cpp:380] lstm1_W_xc_x_slice -> W_xc_x_3
I1018 00:13:46.383296 30341 net.cpp:380] lstm1_W_xc_x_slice -> W_xc_x_4
I1018 00:13:46.383361 30341 net.cpp:122] Setting up lstm1_W_xc_x_slice
I1018 00:13:46.383370 30341 net.cpp:129] Top shape: 1 4 2048 (8192)
I1018 00:13:46.383375 30341 net.cpp:129] Top shape: 1 4 2048 (8192)
I1018 00:13:46.383379 30341 net.cpp:129] Top shape: 1 4 2048 (8192)
I1018 00:13:46.383384 30341 net.cpp:129] Top shape: 1 4 2048 (8192)
I1018 00:13:46.383388 30341 net.cpp:137] Memory required for data: 540928
I1018 00:13:46.383393 30341 layer_factory.hpp:77] Creating layer lstm1_h_conted_0
I1018 00:13:46.383409 30341 net.cpp:84] Creating Layer lstm1_h_conted_0
I1018 00:13:46.383414 30341 net.cpp:406] lstm1_h_conted_0 <- h_0
I1018 00:13:46.383420 30341 net.cpp:406] lstm1_h_conted_0 <- cont_1_lstm1_cont_slice_0_split_0
I1018 00:13:46.383427 30341 net.cpp:380] lstm1_h_conted_0 -> h_conted_0
I1018 00:13:46.383512 30341 net.cpp:122] Setting up lstm1_h_conted_0
I1018 00:13:46.383520 30341 net.cpp:129] Top shape: 1 4 512 (2048)
I1018 00:13:46.383524 30341 net.cpp:137] Memory required for data: 549120
I1018 00:13:46.383528 30341 layer_factory.hpp:77] Creating layer lstm1_transform_1
I1018 00:13:46.383538 30341 net.cpp:84] Creating Layer lstm1_transform_1
I1018 00:13:46.383543 30341 net.cpp:406] lstm1_transform_1 <- h_conted_0
I1018 00:13:46.383550 30341 net.cpp:380] lstm1_transform_1 -> W_hc_h_0
I1018 00:13:46.396067 30341 net.cpp:122] Setting up lstm1_transform_1
I1018 00:13:46.396087 30341 net.cpp:129] Top shape: 1 4 2048 (8192)
I1018 00:13:46.396092 30341 net.cpp:137] Memory required for data: 581888
I1018 00:13:46.396102 30341 layer_factory.hpp:77] Creating layer lstm1_gate_input_1
I1018 00:13:46.396113 30341 net.cpp:84] Creating Layer lstm1_gate_input_1
I1018 00:13:46.396118 30341 net.cpp:406] lstm1_gate_input_1 <- W_hc_h_0
I1018 00:13:46.396124 30341 net.cpp:406] lstm1_gate_input_1 <- W_xc_x_1
I1018 00:13:46.396134 30341 net.cpp:380] lstm1_gate_input_1 -> gate_input_1
I1018 00:13:46.396172 30341 net.cpp:122] Setting up lstm1_gate_input_1
I1018 00:13:46.396188 30341 net.cpp:129] Top shape: 1 4 2048 (8192)
I1018 00:13:46.396193 30341 net.cpp:137] Memory required for data: 614656
I1018 00:13:46.396198 30341 layer_factory.hpp:77] Creating layer lstm1_unit_1
I1018 00:13:46.396206 30341 net.cpp:84] Creating Layer lstm1_unit_1
I1018 00:13:46.396211 30341 net.cpp:406] lstm1_unit_1 <- c_0
I1018 00:13:46.396217 30341 net.cpp:406] lstm1_unit_1 <- gate_input_1
I1018 00:13:46.396224 30341 net.cpp:406] lstm1_unit_1 <- cont_1_lstm1_cont_slice_0_split_1
I1018 00:13:46.396229 30341 net.cpp:380] lstm1_unit_1 -> c_1
I1018 00:13:46.396237 30341 net.cpp:380] lstm1_unit_1 -> h_1
I1018 00:13:46.396296 30341 net.cpp:122] Setting up lstm1_unit_1
I1018 00:13:46.396306 30341 net.cpp:129] Top shape: 1 4 512 (2048)
I1018 00:13:46.396311 30341 net.cpp:129] Top shape: 1 4 512 (2048)
I1018 00:13:46.396315 30341 net.cpp:137] Memory required for data: 631040
I1018 00:13:46.396320 30341 layer_factory.hpp:77] Creating layer h_1_lstm1_unit_1_1_split
I1018 00:13:46.396327 30341 net.cpp:84] Creating Layer h_1_lstm1_unit_1_1_split
I1018 00:13:46.396332 30341 net.cpp:406] h_1_lstm1_unit_1_1_split <- h_1
I1018 00:13:46.396339 30341 net.cpp:380] h_1_lstm1_unit_1_1_split -> h_1_lstm1_unit_1_1_split_0
I1018 00:13:46.396347 30341 net.cpp:380] h_1_lstm1_unit_1_1_split -> h_1_lstm1_unit_1_1_split_1
I1018 00:13:46.396384 30341 net.cpp:122] Setting up h_1_lstm1_unit_1_1_split
I1018 00:13:46.396397 30341 net.cpp:129] Top shape: 1 4 512 (2048)
I1018 00:13:46.396404 30341 net.cpp:129] Top shape: 1 4 512 (2048)
I1018 00:13:46.396409 30341 net.cpp:137] Memory required for data: 647424
I1018 00:13:46.396414 30341 layer_factory.hpp:77] Creating layer lstm1_h_conted_1
I1018 00:13:46.396420 30341 net.cpp:84] Creating Layer lstm1_h_conted_1
I1018 00:13:46.396425 30341 net.cpp:406] lstm1_h_conted_1 <- h_1_lstm1_unit_1_1_split_0
I1018 00:13:46.396431 30341 net.cpp:406] lstm1_h_conted_1 <- cont_2_lstm1_cont_slice_1_split_0
I1018 00:13:46.396437 30341 net.cpp:380] lstm1_h_conted_1 -> h_conted_1
I1018 00:13:46.396498 30341 net.cpp:122] Setting up lstm1_h_conted_1
I1018 00:13:46.396508 30341 net.cpp:129] Top shape: 1 4 512 (2048)
I1018 00:13:46.396512 30341 net.cpp:137] Memory required for data: 655616
I1018 00:13:46.396517 30341 layer_factory.hpp:77] Creating layer lstm1_transform_2
I1018 00:13:46.396525 30341 net.cpp:84] Creating Layer lstm1_transform_2
I1018 00:13:46.396530 30341 net.cpp:406] lstm1_transform_2 <- h_conted_1
I1018 00:13:46.396538 30341 net.cpp:380] lstm1_transform_2 -> W_hc_h_1
I1018 00:13:46.409725 30341 net.cpp:122] Setting up lstm1_transform_2
I1018 00:13:46.409745 30341 net.cpp:129] Top shape: 1 4 2048 (8192)
I1018 00:13:46.409750 30341 net.cpp:137] Memory required for data: 688384
I1018 00:13:46.409757 30341 net.cpp:465] Sharing parameters 'W_hc' owned by layer 'lstm1_transform_1', param index 0
I1018 00:13:46.409763 30341 layer_factory.hpp:77] Creating layer lstm1_gate_input_2
I1018 00:13:46.409775 30341 net.cpp:84] Creating Layer lstm1_gate_input_2
I1018 00:13:46.409780 30341 net.cpp:406] lstm1_gate_input_2 <- W_hc_h_1
I1018 00:13:46.409786 30341 net.cpp:406] lstm1_gate_input_2 <- W_xc_x_2
I1018 00:13:46.409793 30341 net.cpp:380] lstm1_gate_input_2 -> gate_input_2
I1018 00:13:46.409828 30341 net.cpp:122] Setting up lstm1_gate_input_2
I1018 00:13:46.409838 30341 net.cpp:129] Top shape: 1 4 2048 (8192)
I1018 00:13:46.409842 30341 net.cpp:137] Memory required for data: 721152
I1018 00:13:46.409847 30341 layer_factory.hpp:77] Creating layer lstm1_unit_2
I1018 00:13:46.409854 30341 net.cpp:84] Creating Layer lstm1_unit_2
I1018 00:13:46.409858 30341 net.cpp:406] lstm1_unit_2 <- c_1
I1018 00:13:46.409865 30341 net.cpp:406] lstm1_unit_2 <- gate_input_2
I1018 00:13:46.409870 30341 net.cpp:406] lstm1_unit_2 <- cont_2_lstm1_cont_slice_1_split_1
I1018 00:13:46.409876 30341 net.cpp:380] lstm1_unit_2 -> c_2
I1018 00:13:46.409884 30341 net.cpp:380] lstm1_unit_2 -> h_2
I1018 00:13:46.409940 30341 net.cpp:122] Setting up lstm1_unit_2
I1018 00:13:46.409948 30341 net.cpp:129] Top shape: 1 4 512 (2048)
I1018 00:13:46.409955 30341 net.cpp:129] Top shape: 1 4 512 (2048)
I1018 00:13:46.409960 30341 net.cpp:137] Memory required for data: 737536
I1018 00:13:46.409963 30341 layer_factory.hpp:77] Creating layer h_2_lstm1_unit_2_1_split
I1018 00:13:46.409970 30341 net.cpp:84] Creating Layer h_2_lstm1_unit_2_1_split
I1018 00:13:46.409976 30341 net.cpp:406] h_2_lstm1_unit_2_1_split <- h_2
I1018 00:13:46.409982 30341 net.cpp:380] h_2_lstm1_unit_2_1_split -> h_2_lstm1_unit_2_1_split_0
I1018 00:13:46.409989 30341 net.cpp:380] h_2_lstm1_unit_2_1_split -> h_2_lstm1_unit_2_1_split_1
I1018 00:13:46.410027 30341 net.cpp:122] Setting up h_2_lstm1_unit_2_1_split
I1018 00:13:46.410035 30341 net.cpp:129] Top shape: 1 4 512 (2048)
I1018 00:13:46.410042 30341 net.cpp:129] Top shape: 1 4 512 (2048)
I1018 00:13:46.410045 30341 net.cpp:137] Memory required for data: 753920
I1018 00:13:46.410050 30341 layer_factory.hpp:77] Creating layer lstm1_h_conted_2
I1018 00:13:46.410056 30341 net.cpp:84] Creating Layer lstm1_h_conted_2
I1018 00:13:46.410061 30341 net.cpp:406] lstm1_h_conted_2 <- h_2_lstm1_unit_2_1_split_0
I1018 00:13:46.410068 30341 net.cpp:406] lstm1_h_conted_2 <- cont_3_lstm1_cont_slice_2_split_0
I1018 00:13:46.410084 30341 net.cpp:380] lstm1_h_conted_2 -> h_conted_2
I1018 00:13:46.410147 30341 net.cpp:122] Setting up lstm1_h_conted_2
I1018 00:13:46.410157 30341 net.cpp:129] Top shape: 1 4 512 (2048)
I1018 00:13:46.410161 30341 net.cpp:137] Memory required for data: 762112
I1018 00:13:46.410166 30341 layer_factory.hpp:77] Creating layer lstm1_transform_3
I1018 00:13:46.410174 30341 net.cpp:84] Creating Layer lstm1_transform_3
I1018 00:13:46.410179 30341 net.cpp:406] lstm1_transform_3 <- h_conted_2
I1018 00:13:46.410193 30341 net.cpp:380] lstm1_transform_3 -> W_hc_h_2
I1018 00:13:46.423681 30341 net.cpp:122] Setting up lstm1_transform_3
I1018 00:13:46.423702 30341 net.cpp:129] Top shape: 1 4 2048 (8192)
I1018 00:13:46.423707 30341 net.cpp:137] Memory required for data: 794880
I1018 00:13:46.423714 30341 net.cpp:465] Sharing parameters 'W_hc' owned by layer 'lstm1_transform_1', param index 0
I1018 00:13:46.423720 30341 layer_factory.hpp:77] Creating layer lstm1_gate_input_3
I1018 00:13:46.423728 30341 net.cpp:84] Creating Layer lstm1_gate_input_3
I1018 00:13:46.423734 30341 net.cpp:406] lstm1_gate_input_3 <- W_hc_h_2
I1018 00:13:46.423741 30341 net.cpp:406] lstm1_gate_input_3 <- W_xc_x_3
I1018 00:13:46.423750 30341 net.cpp:380] lstm1_gate_input_3 -> gate_input_3
I1018 00:13:46.423782 30341 net.cpp:122] Setting up lstm1_gate_input_3
I1018 00:13:46.423799 30341 net.cpp:129] Top shape: 1 4 2048 (8192)
I1018 00:13:46.423810 30341 net.cpp:137] Memory required for data: 827648
I1018 00:13:46.423815 30341 layer_factory.hpp:77] Creating layer lstm1_unit_3
I1018 00:13:46.423821 30341 net.cpp:84] Creating Layer lstm1_unit_3
I1018 00:13:46.423826 30341 net.cpp:406] lstm1_unit_3 <- c_2
I1018 00:13:46.423833 30341 net.cpp:406] lstm1_unit_3 <- gate_input_3
I1018 00:13:46.423838 30341 net.cpp:406] lstm1_unit_3 <- cont_3_lstm1_cont_slice_2_split_1
I1018 00:13:46.423844 30341 net.cpp:380] lstm1_unit_3 -> c_3
I1018 00:13:46.423852 30341 net.cpp:380] lstm1_unit_3 -> h_3
I1018 00:13:46.423902 30341 net.cpp:122] Setting up lstm1_unit_3
I1018 00:13:46.423913 30341 net.cpp:129] Top shape: 1 4 512 (2048)
I1018 00:13:46.423918 30341 net.cpp:129] Top shape: 1 4 512 (2048)
I1018 00:13:46.423923 30341 net.cpp:137] Memory required for data: 844032
I1018 00:13:46.423926 30341 layer_factory.hpp:77] Creating layer h_3_lstm1_unit_3_1_split
I1018 00:13:46.423933 30341 net.cpp:84] Creating Layer h_3_lstm1_unit_3_1_split
I1018 00:13:46.423938 30341 net.cpp:406] h_3_lstm1_unit_3_1_split <- h_3
I1018 00:13:46.423944 30341 net.cpp:380] h_3_lstm1_unit_3_1_split -> h_3_lstm1_unit_3_1_split_0
I1018 00:13:46.423952 30341 net.cpp:380] h_3_lstm1_unit_3_1_split -> h_3_lstm1_unit_3_1_split_1
I1018 00:13:46.423990 30341 net.cpp:122] Setting up h_3_lstm1_unit_3_1_split
I1018 00:13:46.423998 30341 net.cpp:129] Top shape: 1 4 512 (2048)
I1018 00:13:46.424003 30341 net.cpp:129] Top shape: 1 4 512 (2048)
I1018 00:13:46.424008 30341 net.cpp:137] Memory required for data: 860416
I1018 00:13:46.424012 30341 layer_factory.hpp:77] Creating layer lstm1_h_conted_3
I1018 00:13:46.424019 30341 net.cpp:84] Creating Layer lstm1_h_conted_3
I1018 00:13:46.424024 30341 net.cpp:406] lstm1_h_conted_3 <- h_3_lstm1_unit_3_1_split_0
I1018 00:13:46.424042 30341 net.cpp:406] lstm1_h_conted_3 <- cont_4_lstm1_cont_slice_3_split_0
I1018 00:13:46.424059 30341 net.cpp:380] lstm1_h_conted_3 -> h_conted_3
I1018 00:13:46.424149 30341 net.cpp:122] Setting up lstm1_h_conted_3
I1018 00:13:46.424162 30341 net.cpp:129] Top shape: 1 4 512 (2048)
I1018 00:13:46.424167 30341 net.cpp:137] Memory required for data: 868608
I1018 00:13:46.424172 30341 layer_factory.hpp:77] Creating layer lstm1_transform_4
I1018 00:13:46.424180 30341 net.cpp:84] Creating Layer lstm1_transform_4
I1018 00:13:46.424185 30341 net.cpp:406] lstm1_transform_4 <- h_conted_3
I1018 00:13:46.424196 30341 net.cpp:380] lstm1_transform_4 -> W_hc_h_3
I1018 00:13:46.437360 30341 net.cpp:122] Setting up lstm1_transform_4
I1018 00:13:46.437377 30341 net.cpp:129] Top shape: 1 4 2048 (8192)
I1018 00:13:46.437382 30341 net.cpp:137] Memory required for data: 901376
I1018 00:13:46.437389 30341 net.cpp:465] Sharing parameters 'W_hc' owned by layer 'lstm1_transform_1', param index 0
I1018 00:13:46.437396 30341 layer_factory.hpp:77] Creating layer lstm1_gate_input_4
I1018 00:13:46.437404 30341 net.cpp:84] Creating Layer lstm1_gate_input_4
I1018 00:13:46.437409 30341 net.cpp:406] lstm1_gate_input_4 <- W_hc_h_3
I1018 00:13:46.437415 30341 net.cpp:406] lstm1_gate_input_4 <- W_xc_x_4
I1018 00:13:46.437422 30341 net.cpp:380] lstm1_gate_input_4 -> gate_input_4
I1018 00:13:46.437456 30341 net.cpp:122] Setting up lstm1_gate_input_4
I1018 00:13:46.437470 30341 net.cpp:129] Top shape: 1 4 2048 (8192)
I1018 00:13:46.437474 30341 net.cpp:137] Memory required for data: 934144
I1018 00:13:46.437479 30341 layer_factory.hpp:77] Creating layer lstm1_unit_4
I1018 00:13:46.437489 30341 net.cpp:84] Creating Layer lstm1_unit_4
I1018 00:13:46.437494 30341 net.cpp:406] lstm1_unit_4 <- c_3
I1018 00:13:46.437500 30341 net.cpp:406] lstm1_unit_4 <- gate_input_4
I1018 00:13:46.437506 30341 net.cpp:406] lstm1_unit_4 <- cont_4_lstm1_cont_slice_3_split_1
I1018 00:13:46.437512 30341 net.cpp:380] lstm1_unit_4 -> c_4
I1018 00:13:46.437520 30341 net.cpp:380] lstm1_unit_4 -> h_4
I1018 00:13:46.437569 30341 net.cpp:122] Setting up lstm1_unit_4
I1018 00:13:46.437579 30341 net.cpp:129] Top shape: 1 4 512 (2048)
I1018 00:13:46.437584 30341 net.cpp:129] Top shape: 1 4 512 (2048)
I1018 00:13:46.437588 30341 net.cpp:137] Memory required for data: 950528
I1018 00:13:46.437593 30341 layer_factory.hpp:77] Creating layer lstm1_
I1018 00:13:46.437602 30341 net.cpp:84] Creating Layer lstm1_
I1018 00:13:46.437608 30341 net.cpp:406] lstm1_ <- c_4
I1018 00:13:46.437613 30341 net.cpp:380] lstm1_ -> c_T
I1018 00:13:46.437636 30341 net.cpp:122] Setting up lstm1_
I1018 00:13:46.437642 30341 net.cpp:129] Top shape: 1 4 512 (2048)
I1018 00:13:46.437647 30341 net.cpp:137] Memory required for data: 958720
I1018 00:13:46.437651 30341 layer_factory.hpp:77] Creating layer lstm1_h_concat
I1018 00:13:46.437660 30341 net.cpp:84] Creating Layer lstm1_h_concat
I1018 00:13:46.437665 30341 net.cpp:406] lstm1_h_concat <- h_1_lstm1_unit_1_1_split_1
I1018 00:13:46.437671 30341 net.cpp:406] lstm1_h_concat <- h_2_lstm1_unit_2_1_split_1
I1018 00:13:46.437676 30341 net.cpp:406] lstm1_h_concat <- h_3_lstm1_unit_3_1_split_1
I1018 00:13:46.437681 30341 net.cpp:406] lstm1_h_concat <- h_4
I1018 00:13:46.437691 30341 net.cpp:380] lstm1_h_concat -> h
I1018 00:13:46.437724 30341 net.cpp:122] Setting up lstm1_h_concat
I1018 00:13:46.437736 30341 net.cpp:129] Top shape: 4 4 512 (8192)
I1018 00:13:46.437741 30341 net.cpp:137] Memory required for data: 991488
I1018 00:13:46.437746 30341 layer_factory.hpp:77] Creating layer h_pseudoloss
I1018 00:13:46.437759 30341 net.cpp:84] Creating Layer h_pseudoloss
I1018 00:13:46.437764 30341 net.cpp:406] h_pseudoloss <- h
I1018 00:13:46.437772 30341 net.cpp:380] h_pseudoloss -> h_pseudoloss
I1018 00:13:46.437844 30341 net.cpp:122] Setting up h_pseudoloss
…
I1018 00:13:46.438047 30341 net.cpp:200] lstm1_ does not need backward computation.
I1018 00:13:46.438051 30341 net.cpp:242] This network produces output c_T
I1018 00:13:46.438056 30341 net.cpp:242] This network produces output h_pseudoloss
I1018 00:13:46.440867 30341 net.cpp:255] Network initialization done.
I1018 00:13:46.440971 30341 recurrent_layer.cpp:150] Adding parameter 0: W_xc
I1018 00:13:46.440980 30341 recurrent_layer.cpp:150] Adding parameter 1: b_c
I1018 00:13:46.440985 30341 recurrent_layer.cpp:150] Adding parameter 2: W_hc
I1018 00:13:46.441094 30341 net.cpp:122] Setting up lstm1
I1018 00:13:46.441107 30341 net.cpp:129] Top shape: 4 4 512 (8192)
I1018 00:13:46.441112 30341 net.cpp:137] Memory required for data: 765518096
I1018 00:13:46.441129 30341 layer_factory.hpp:77] Creating layer lstm1-drop
I1018 00:13:46.441144 30341 net.cpp:84] Creating Layer lstm1-drop
I1018 00:13:46.441150 30341 net.cpp:406] lstm1-drop <- lstm1
I1018 00:13:46.441159 30341 net.cpp:380] lstm1-drop -> lstm1-drop
I1018 00:13:46.441208 30341 net.cpp:122] Setting up lstm1-drop
I1018 00:13:46.441221 30341 net.cpp:129] Top shape: 4 4 512 (8192)
I1018 00:13:46.441226 30341 net.cpp:137] Memory required for data: 765550864
I1018 00:13:46.441231 30341 layer_factory.hpp:77] Creating layer fc-final
I1018 00:13:46.441241 30341 net.cpp:84] Creating Layer fc-final
I1018 00:13:46.441246 30341 net.cpp:406] fc-final <- lstm1-drop
I1018 00:13:46.441253 30341 net.cpp:380] fc-final -> fc-final
I1018 00:13:46.441599 30341 net.cpp:122] Setting up fc-final
I1018 00:13:46.441612 30341 net.cpp:129] Top shape: 4 4 10 (160)
I1018 00:13:46.441617 30341 net.cpp:137] Memory required for data: 765551504
I1018 00:13:46.441624 30341 layer_factory.hpp:77] Creating layer fc-final_fc-final_0_split
I1018 00:13:46.441632 30341 net.cpp:84] Creating Layer fc-final_fc-final_0_split
I1018 00:13:46.441637 30341 net.cpp:406] fc-final_fc-final_0_split <- fc-final
I1018 00:13:46.441644 30341 net.cpp:380] fc-final_fc-final_0_split -> fc-final_fc-final_0_split_0
I1018 00:13:46.441653 30341 net.cpp:380] fc-final_fc-final_0_split -> fc-final_fc-final_0_split_1
I1018 00:13:46.441695 30341 net.cpp:122] Setting up fc-final_fc-final_0_split
I1018 00:13:46.441704 30341 net.cpp:129] Top shape: 4 4 10 (160)
I1018 00:13:46.441710 30341 net.cpp:129] Top shape: 4 4 10 (160)
I1018 00:13:46.441715 30341 net.cpp:137] Memory required for data: 765552784
I1018 00:13:46.441720 30341 layer_factory.hpp:77] Creating layer loss
I1018 00:13:46.441736 30341 net.cpp:84] Creating Layer loss
I1018 00:13:46.441742 30341 net.cpp:406] loss <- fc-final_fc-final_0_split_0
I1018 00:13:46.441750 30341 net.cpp:406] loss <- reshape-label_label_tran_0_split_0
I1018 00:13:46.441756 30341 net.cpp:380] loss -> loss
…
I1018 00:13:46.443294 30341 net.cpp:294] The NetState phase (1) differed from the phase (0) specified by a rule in layer data
I1018 00:13:46.443585 30341 net.cpp:51] Initializing net from parameters: 
name: "VGG_16_layers_LSTM"
state {
  phase: TEST
  stage: "test-on-test"
}
layer {
  name: "data"
  type: "ImageData"
  top: "data"
  top: "label"
  include {
    phase: TEST
  }
  transform_param {
    mirror: false
    crop_size: 288
    mean_value: 104
    mean_value: 117
    mean_value: 123
  }
  image_data_param {
    source: "../Data/lsun_val_list.txt"
    batch_size: 50
    new_height: 320
    new_width: 320
  }
}
layer {
  name: "Silence"
  type: "Silence"
  bottom: "label"
  include {
    phase: TEST
  }
}
layer {
  name: "label_tran"
  type: "Python"
  bottom: "label"
  top: "reshape-label"
  top: "clip_markers"
  python_param {
    module: "data_preparation_sort_max_clip"
    layer: "ReshapeLabel"
  }
}
layer {
  name: "conv1_1"
  type: "Convolution"
  bottom: "data"
  top: "conv1_1"
  convolution_param {
    num_output: 64
    pad: 1
    kernel_size: 3
  }
}
layer {
  name: "relu1_1"
  type: "ReLU"
  bottom: "conv1_1"
  top: "conv1_1"
}
layer {
  name: "conv1_2"
  type: "Convolution"
  bottom: "conv1_1"
  top: "conv1_2"
  convolution_param {
    num_output: 64
    pad: 1
    kernel_size: 3
  }
}
layer {
  name: "relu1_2"
  type: "ReLU"
  bottom: "conv1_2"
  top: "conv1_2"
}
layer {
  name: "pool1"
  type: "Pooling"
  bottom: "conv1_2"
  top: "pool1"
  pooling_param {
    pool: MAX
    kernel_size: 2
    stride: 2
  }
}
layer {
  name: "conv2_1"
  type: "Convolution"
  bottom: "pool1"
  top: "conv2_1"
  convolution_param {
    num_output: 128
    pad: 1
    kernel_size: 3
  }
}
layer {
  name: "relu2_1"
  type: "ReLU"
  bottom: "conv2_1"
  top: "conv2_1"
}
layer {
  name: "conv2_2"
  type: "Convolution"
  bottom: "conv2_1"
  top: "conv2_2"
  convolution_param {
    num_output: 128
    pad: 1
    kernel_size: 3
  }
}
layer {
  name: "relu2_2"
  type: "ReLU"
  bottom: "conv2_2"
  top: "conv2_2"
}
layer {
  name: "pool2"
  type: "Pooling"
  bottom: "conv2_2"
  top: "pool2"
  pooling_param {
    pool: MAX
    kernel_size: 2
    stride: 2
  }
}
layer {
  name: "conv3_1"
  type: "Convolution"
  bottom: "pool2"
  top: "conv3_1"
  convolution_param {
    num_output: 256
    pad: 1
    kernel_size: 3
  }
}
layer {
  name: "relu3_1"
  type: "ReLU"
  bottom: "conv3_1"
  top: "conv3_1"
}
layer {
  name: "conv3_2"
  type: "Convolution"
  bottom: "conv3_1"
  top: "conv3_2"
  convolution_param {
    num_output: 256
    pad: 1
    kernel_size: 3
  }
}
layer {
  name: "relu3_2"
  type: "ReLU"
  bottom: "conv3_2"
  top: "conv3_2"
}
layer {
  name: "conv3_3"
  type: "Convolution"
  bottom: "conv3_2"
  top: "conv3_3"
  convolution_param {
    num_output: 256
    pad: 1
    kernel_size: 3
  }
}
layer {
  name: "relu3_3"
  type: "ReLU"
  bottom: "conv3_3"
  top: "conv3_3"
}
layer {
  name: "pool3"
  type: "Pooling"
  bottom: "conv3_3"
  top: "pool3"
  pooling_param {
    pool: MAX
    kernel_size: 2
    stride: 2
  }
}
layer {
  name: "conv4_1"
  type: "Convolution"
  bottom: "pool3"
  top: "conv4_1"
  convolution_param {
    num_output: 512
    pad: 1
    kernel_size: 3
  }
}
layer {
  name: "relu4_1"
  type: "ReLU"
  bottom: "conv4_1"
  top: "conv4_1"
}
layer {
  name: "conv4_2"
  type: "Convolution"
  bottom: "conv4_1"
  top: "conv4_2"
  convolution_param {
    num_output: 512
    pad: 1
    kernel_size: 3
  }
}
layer {
  name: "relu4_2"
  type: "ReLU"
  bottom: "conv4_2"
  top: "conv4_2"
}
layer {
  name: "conv4_3"
  type: "Convolution"
  bottom: "conv4_2"
  top: "conv4_3"
  convolution_param {
    num_output: 512
    pad: 1
    kernel_size: 3
  }
}
layer {
  name: "relu4_3"
  type: "ReLU"
  bottom: "conv4_3"
  top: "conv4_3"
}
layer {
  name: "pool4"
  type: "Pooling"
  bottom: "conv4_3"
  top: "pool4"
  pooling_param {
    pool: MAX
    kernel_size: 2
    stride: 2
  }
}
layer {
  name: "conv5_1"
  type: "Convolution"
  bottom: "pool4"
  top: "conv5_1"
  convolution_param {
    num_output: 512
    pad: 1
    kernel_size: 3
  }
}
layer {
  name: "relu5_1"
  type: "ReLU"
  bottom: "conv5_1"
  top: "conv5_1"
}
layer {
  name: "conv5_2"
  type: "Convolution"
  bottom: "conv5_1"
  top: "conv5_2"
  convolution_param {
    num_output: 512
    pad: 1
    kernel_size: 3
  }
}
layer {
  name: "relu5_2"
  type: "ReLU"
  bottom: "conv5_2"
  top: "conv5_2"
}
layer {
  name: "conv5_3"
  type: "Convolution"
  bottom: "conv5_2"
  top: "conv5_3"
  convolution_param {
    num_output: 512
    pad: 1
    kernel_size: 3
  }
}
layer {
  name: "relu5_3"
  type: "ReLU"
  bottom: "conv5_3"
  top: "conv5_3"
}
layer {
  name: "pool5"
  type: "Pooling"
  bottom: "conv5_3"
  top: "pool5"
  pooling_param {
    pool: MAX
    kernel_size: 2
    stride: 2
  }
}
layer {
  name: "fc6-conv"
  type: "Convolution"
  bottom: "pool5"
  top: "fc6-conv"
  convolution_param {
    num_output: 4096
    kernel_size: 7
  }
}
layer {
  name: "relu6"
  type: "ReLU"
  bottom: "fc6-conv"
  top: "fc6-conv"
}
layer {
  name: "drop6"
  type: "Dropout"
  bottom: "fc6-conv"
  top: "fc6-conv"
  dropout_param {
    dropout_ratio: 0.5
  }
}
layer {
  name: "fc7-conv"
  type: "Convolution"
  bottom: "fc6-conv"
  top: "fc7-conv"
  convolution_param {
    num_output: 4096
    kernel_size: 1
  }
}
layer {
  name: "relu7"
  type: "ReLU"
  bottom: "fc7-conv"
  top: "fc7-conv"
}
layer {
  name: "drop7"
  type: "Dropout"
  bottom: "fc7-conv"
  top: "fc7-conv"
  dropout_param {
    dropout_ratio: 0.9
  }
}
layer {
  name: "fc7-conv_re"
  type: "Reshape"
  bottom: "fc7-conv"
  top: "fc7-conv_re"
  reshape_param {
    shape {
      dim: 0
      dim: 0
      dim: -1
    }
  }
}
layer {
  name: "fc7-conv_tran"
  type: "Python"
  bottom: "fc7-conv_re"
  top: "fc7-conv_tran"
  python_param {
    module: "data_preparation_sort_max_clip"
    layer: "DataTransposeSortMaxClip"
  }
}
layer {
  name: "lstm1"
  type: "LSTM"
  bottom: "fc7-conv_tran"
  bottom: "clip_markers"
  top: "lstm1"
  recurrent_param {
    num_output: 512
    weight_filler {
      type: "uniform"
      min: -0.01
      max: 0.01
    }
    bias_filler {
      type: "constant"
      value: 0
    }
  }
}
layer {
  name: "lstm1-drop"
  type: "Dropout"
  bottom: "lstm1"
  top: "lstm1-drop"
  dropout_param {
    dropout_ratio: 0.5
  }
}
layer {
  name: "fc-final"
  type: "InnerProduct"
  bottom: "lstm1-drop"
  top: "fc-final"
  param {
    lr_mult: 1
    decay_mult: 1
  }
  param {
    lr_mult: 2
    decay_mult: 0
  }
  inner_product_param {
    num_output: 10
    weight_filler {
      type: "gaussian"
      std: 0.01
    }
    bias_filler {
      type: "constant"
      value: 0
    }
    axis: 2
  }
}
layer {
  name: "loss"
  type: "SoftmaxWithLoss"
  bottom: "fc-final"
  bottom: "reshape-label"
  top: "loss"
  softmax_param {
    axis: 2
  }
}
layer {
  name: "accuracy"
  type: "Accuracy"
  bottom: "fc-final"
  bottom: "reshape-label"
  top: "accuracy"
  accuracy_param {
    axis: 2
  }
}
I1018 00:13:46.443768 30341 layer_factory.hpp:77] Creating layer data
I1018 00:13:46.443789 30341 net.cpp:84] Creating Layer data
I1018 00:13:46.443795 30341 net.cpp:380] data -> data
I1018 00:13:46.443807 30341 net.cpp:380] data -> label
I1018 00:13:46.443819 30341 image_data_layer.cpp:38] Opening file ../Data/lsun_val_list.txt
I1018 00:13:46.445008 30341 image_data_layer.cpp:63] A total of 3000 images.
I1018 00:13:46.446578 30341 image_data_layer.cpp:90] output data size: 50,3,288,288
I1018 00:13:46.580502 30341 net.cpp:122] Setting up data
I1018 00:13:46.580536 30341 net.cpp:129] Top shape: 50 3 288 288 (12441600)
I1018 00:13:46.580543 30341 net.cpp:129] Top shape: 50 (50)
I1018 00:13:46.580548 30341 net.cpp:137] Memory required for data: 49766600
I1018 00:13:46.580555 30341 layer_factory.hpp:77] Creating layer label_data_1_split
I1018 00:13:46.580571 30341 net.cpp:84] Creating Layer label_data_1_split
I1018 00:13:46.580579 30341 net.cpp:406] label_data_1_split <- label
I1018 00:13:46.580588 30341 net.cpp:380] label_data_1_split -> label_data_1_split_0
I1018 00:13:46.580601 30341 net.cpp:380] label_data_1_split -> label_data_1_split_1
I1018 00:13:46.580672 30341 net.cpp:122] Setting up label_data_1_split
I1018 00:13:46.580680 30341 net.cpp:129] Top shape: 50 (50)
I1018 00:13:46.580685 30341 net.cpp:129] Top shape: 50 (50)
I1018 00:13:46.580689 30341 net.cpp:137] Memory required for data: 49767000
I1018 00:13:46.580694 30341 layer_factory.hpp:77] Creating layer Silence
I1018 00:13:46.580708 30341 net.cpp:84] Creating Layer Silence
I1018 00:13:46.580713 30341 net.cpp:406] Silence <- label_data_1_split_0
I1018 00:13:46.580718 30341 net.cpp:122] Setting up Silence
I1018 00:13:46.580721 30341 net.cpp:137] Memory required for data: 49767000
I1018 00:13:46.580725 30341 layer_factory.hpp:77] Creating layer label_tran
I1018 00:13:46.580783 30341 net.cpp:84] Creating Layer label_tran
I1018 00:13:46.580792 30341 net.cpp:406] label_tran <- label_data_1_split_1
I1018 00:13:46.580799 30341 net.cpp:380] label_tran -> reshape-label
I1018 00:13:46.580808 30341 net.cpp:380] label_tran -> clip_markers
I1018 00:13:46.581151 30341 net.cpp:122] Setting up label_tran
I1018 00:13:46.581204 30341 net.cpp:129] Top shape: 4 50 (200)
I1018 00:13:46.581217 30341 net.cpp:129] Top shape: 4 50 (200)
I1018 00:13:46.581229 30341 net.cpp:137] Memory required for data: 49768600
I1018 00:13:46.581241 30341 layer_factory.hpp:77] Creating layer reshape-label_label_tran_0_split
I1018 00:13:46.581264 30341 net.cpp:84] Creating Layer reshape-label_label_tran_0_split
I1018 00:13:46.581275 30341 net.cpp:406] reshape-label_label_tran_0_split <- reshape-label
I1018 00:13:46.581293 30341 net.cpp:380] reshape-label_label_tran_0_split -> reshape-label_label_tran_0_split_0
I1018 00:13:46.581315 30341 net.cpp:380] reshape-label_label_tran_0_split -> reshape-label_label_tran_0_split_1
I1018 00:13:46.581387 30341 net.cpp:122] Setting up reshape-label_label_tran_0_split
I1018 00:13:46.581398 30341 net.cpp:129] Top shape: 4 50 (200)
I1018 00:13:46.581403 30341 net.cpp:129] Top shape: 4 50 (200)
I1018 00:13:46.581408 30341 net.cpp:137] Memory required for data: 49770200
I1018 00:13:46.581413 30341 layer_factory.hpp:77] Creating layer conv1_1
I1018 00:13:46.581429 30341 net.cpp:84] Creating Layer conv1_1
I1018 00:13:46.581436 30341 net.cpp:406] conv1_1 <- data
I1018 00:13:46.581444 30341 net.cpp:380] conv1_1 -> conv1_1
I1018 00:13:46.581883 30341 net.cpp:122] Setting up conv1_1
I1018 00:13:46.581897 30341 net.cpp:129] Top shape: 50 64 288 288 (265420800)
I1018 00:13:46.581903 30341 net.cpp:137] Memory required for data: 1111453400
I1018 00:13:46.581919 30341 layer_factory.hpp:77] Creating layer relu1_1
I1018 00:13:46.581931 30341 net.cpp:84] Creating Layer relu1_1
I1018 00:13:46.581936 30341 net.cpp:406] relu1_1 <- conv1_1
I1018 00:13:46.581946 30341 net.cpp:367] relu1_1 -> conv1_1 (in-place)
I1018 00:13:46.581956 30341 net.cpp:122] Setting up relu1_1
I1018 00:13:46.581962 30341 net.cpp:129] Top shape: 50 64 288 288 (265420800)
I1018 00:13:46.581967 30341 net.cpp:137] Memory required for data: 2173136600
I1018 00:13:46.581972 30341 layer_factory.hpp:77] Creating layer conv1_2
I1018 00:13:46.581982 30341 net.cpp:84] Creating Layer conv1_2
I1018 00:13:46.581989 30341 net.cpp:406] conv1_2 <- conv1_1
I1018 00:13:46.581997 30341 net.cpp:380] conv1_2 -> conv1_2
I1018 00:13:46.582439 30341 net.cpp:122] Setting up conv1_2
I1018 00:13:46.582453 30341 net.cpp:129] Top shape: 50 64 288 288 (265420800)
I1018 00:13:46.582458 30341 net.cpp:137] Memory required for data: 3234819800
I1018 00:13:46.582468 30341 layer_factory.hpp:77] Creating layer relu1_2
I1018 00:13:46.582479 30341 net.cpp:84] Creating Layer relu1_2
I1018 00:13:46.582484 30341 net.cpp:406] relu1_2 <- conv1_2
I1018 00:13:46.582492 30341 net.cpp:367] relu1_2 -> conv1_2 (in-place)
I1018 00:13:46.582501 30341 net.cpp:122] Setting up relu1_2
I1018 00:13:46.582507 30341 net.cpp:129] Top shape: 50 64 288 288 (265420800)
I1018 00:13:46.582512 30341 net.cpp:137] Memory required for data: 4296503000
I1018 00:13:46.582517 30341 layer_factory.hpp:77] Creating layer pool1
I1018 00:13:46.582527 30341 net.cpp:84] Creating Layer pool1
I1018 00:13:46.582532 30341 net.cpp:406] pool1 <- conv1_2
I1018 00:13:46.582541 30341 net.cpp:380] pool1 -> pool1
I1018 00:13:46.582590 30341 net.cpp:122] Setting up pool1
I1018 00:13:46.582600 30341 net.cpp:129] Top shape: 50 64 144 144 (66355200)
I1018 00:13:46.582605 30341 net.cpp:137] Memory required for data: 4561923800
I1018 00:13:46.582609 30341 layer_factory.hpp:77] Creating layer conv2_1
I1018 00:13:46.582621 30341 net.cpp:84] Creating Layer conv2_1
I1018 00:13:46.582626 30341 net.cpp:406] conv2_1 <- pool1
I1018 00:13:46.582635 30341 net.cpp:380] conv2_1 -> conv2_1
I1018 00:13:46.584216 30341 net.cpp:122] Setting up conv2_1
I1018 00:13:46.584240 30341 net.cpp:129] Top shape: 50 128 144 144 (132710400)
I1018 00:13:46.584246 30341 net.cpp:137] Memory required for data: 5092765400
I1018 00:13:46.584270 30341 layer_factory.hpp:77] Creating layer relu2_1
I1018 00:13:46.584282 30341 net.cpp:84] Creating Layer relu2_1
I1018 00:13:46.584288 30341 net.cpp:406] relu2_1 <- conv2_1
I1018 00:13:46.584298 30341 net.cpp:367] relu2_1 -> conv2_1 (in-place)
I1018 00:13:46.584309 30341 net.cpp:122] Setting up relu2_1
I1018 00:13:46.584316 30341 net.cpp:129] Top shape: 50 128 144 144 (132710400)
I1018 00:13:46.584321 30341 net.cpp:137] Memory required for data: 5623607000
I1018 00:13:46.584326 30341 layer_factory.hpp:77] Creating layer conv2_2
I1018 00:13:46.584337 30341 net.cpp:84] Creating Layer conv2_2
I1018 00:13:46.584342 30341 net.cpp:406] conv2_2 <- conv2_1
I1018 00:13:46.584352 30341 net.cpp:380] conv2_2 -> conv2_2
I1018 00:13:46.584955 30341 net.cpp:122] Setting up conv2_2
I1018 00:13:46.584975 30341 net.cpp:129] Top shape: 50 128 144 144 (132710400)
I1018 00:13:46.584982 30341 net.cpp:137] Memory required for data: 6154448600
I1018 00:13:46.584997 30341 layer_factory.hpp:77] Creating layer relu2_2
I1018 00:13:46.585009 30341 net.cpp:84] Creating Layer relu2_2
I1018 00:13:46.585019 30341 net.cpp:406] relu2_2 <- conv2_2
I1018 00:13:46.585032 30341 net.cpp:367] relu2_2 -> conv2_2 (in-place)
I1018 00:13:46.585050 30341 net.cpp:122] Setting up relu2_2
I1018 00:13:46.585064 30341 net.cpp:129] Top shape: 50 128 144 144 (132710400)
I1018 00:13:46.585072 30341 net.cpp:137] Memory required for data: 6685290200
I1018 00:13:46.585081 30341 layer_factory.hpp:77] Creating layer pool2
I1018 00:13:46.585095 30341 net.cpp:84] Creating Layer pool2
I1018 00:13:46.585108 30341 net.cpp:406] pool2 <- conv2_2
I1018 00:13:46.585120 30341 net.cpp:380] pool2 -> pool2
I1018 00:13:46.585199 30341 net.cpp:122] Setting up pool2
I1018 00:13:46.585216 30341 net.cpp:129] Top shape: 50 128 72 72 (33177600)
I1018 00:13:46.585227 30341 net.cpp:137] Memory required for data: 6818000600
I1018 00:13:46.585237 30341 layer_factory.hpp:77] Creating layer conv3_1
I1018 00:13:46.585253 30341 net.cpp:84] Creating Layer conv3_1
I1018 00:13:46.585265 30341 net.cpp:406] conv3_1 <- pool2
I1018 00:13:46.585283 30341 net.cpp:380] conv3_1 -> conv3_1
I1018 00:13:46.595197 30341 net.cpp:122] Setting up conv3_1
I1018 00:13:46.595244 30341 net.cpp:129] Top shape: 50 256 72 72 (66355200)
I1018 00:13:46.595262 30341 net.cpp:137] Memory required for data: 7083421400
I1018 00:13:46.595290 30341 layer_factory.hpp:77] Creating layer relu3_1
I1018 00:13:46.595312 30341 net.cpp:84] Creating Layer relu3_1
I1018 00:13:46.595329 30341 net.cpp:406] relu3_1 <- conv3_1
I1018 00:13:46.595347 30341 net.cpp:367] relu3_1 -> conv3_1 (in-place)
I1018 00:13:46.595371 30341 net.cpp:122] Setting up relu3_1
I1018 00:13:46.595386 30341 net.cpp:129] Top shape: 50 256 72 72 (66355200)
I1018 00:13:46.595396 30341 net.cpp:137] Memory required for data: 7348842200
I1018 00:13:46.595407 30341 layer_factory.hpp:77] Creating layer conv3_2
I1018 00:13:46.595423 30341 net.cpp:84] Creating Layer conv3_2
I1018 00:13:46.595435 30341 net.cpp:406] conv3_2 <- conv3_1
I1018 00:13:46.595453 30341 net.cpp:380] conv3_2 -> conv3_2
I1018 00:13:46.598843 30341 net.cpp:122] Setting up conv3_2
I1018 00:13:46.598877 30341 net.cpp:129] Top shape: 50 256 72 72 (66355200)
I1018 00:13:46.598891 30341 net.cpp:137] Memory required for data: 7614263000
I1018 00:13:46.598909 30341 layer_factory.hpp:77] Creating layer relu3_2
I1018 00:13:46.598925 30341 net.cpp:84] Creating Layer relu3_2
I1018 00:13:46.598935 30341 net.cpp:406] relu3_2 <- conv3_2
I1018 00:13:46.598949 30341 net.cpp:367] relu3_2 -> conv3_2 (in-place)
I1018 00:13:46.598966 30341 net.cpp:122] Setting up relu3_2
I1018 00:13:46.598981 30341 net.cpp:129] Top shape: 50 256 72 72 (66355200)
I1018 00:13:46.598992 30341 net.cpp:137] Memory required for data: 7879683800
I1018 00:13:46.599000 30341 layer_factory.hpp:77] Creating layer conv3_3
I1018 00:13:46.599017 30341 net.cpp:84] Creating Layer conv3_3
I1018 00:13:46.599028 30341 net.cpp:406] conv3_3 <- conv3_2
I1018 00:13:46.599046 30341 net.cpp:380] conv3_3 -> conv3_3
I1018 00:13:46.601673 30341 net.cpp:122] Setting up conv3_3
I1018 00:13:46.601693 30341 net.cpp:129] Top shape: 50 256 72 72 (66355200)
I1018 00:13:46.601699 30341 net.cpp:137] Memory required for data: 8145104600
I1018 00:13:46.601708 30341 layer_factory.hpp:77] Creating layer relu3_3
I1018 00:13:46.601716 30341 net.cpp:84] Creating Layer relu3_3
I1018 00:13:46.601722 30341 net.cpp:406] relu3_3 <- conv3_3
I1018 00:13:46.601732 30341 net.cpp:367] relu3_3 -> conv3_3 (in-place)
I1018 00:13:46.601739 30341 net.cpp:122] Setting up relu3_3
I1018 00:13:46.601747 30341 net.cpp:129] Top shape: 50 256 72 72 (66355200)
I1018 00:13:46.601750 30341 net.cpp:137] Memory required for data: 8410525400
I1018 00:13:46.601755 30341 layer_factory.hpp:77] Creating layer pool3
I1018 00:13:46.601764 30341 net.cpp:84] Creating Layer pool3
I1018 00:13:46.601769 30341 net.cpp:406] pool3 <- conv3_3
I1018 00:13:46.601778 30341 net.cpp:380] pool3 -> pool3
I1018 00:13:46.601824 30341 net.cpp:122] Setting up pool3
I1018 00:13:46.601833 30341 net.cpp:129] Top shape: 50 256 36 36 (16588800)
I1018 00:13:46.601837 30341 net.cpp:137] Memory required for data: 8476880600
I1018 00:13:46.601842 30341 layer_factory.hpp:77] Creating layer conv4_1
I1018 00:13:46.601852 30341 net.cpp:84] Creating Layer conv4_1
I1018 00:13:46.601857 30341 net.cpp:406] conv4_1 <- pool3
I1018 00:13:46.601866 30341 net.cpp:380] conv4_1 -> conv4_1
I1018 00:13:46.605384 30341 net.cpp:122] Setting up conv4_1
I1018 00:13:46.605402 30341 net.cpp:129] Top shape: 50 512 36 36 (33177600)
I1018 00:13:46.605407 30341 net.cpp:137] Memory required for data: 8609591000
I1018 00:13:46.605417 30341 layer_factory.hpp:77] Creating layer relu4_1
I1018 00:13:46.605425 30341 net.cpp:84] Creating Layer relu4_1
I1018 00:13:46.605432 30341 net.cpp:406] relu4_1 <- conv4_1
I1018 00:13:46.605440 30341 net.cpp:367] relu4_1 -> conv4_1 (in-place)
I1018 00:13:46.605449 30341 net.cpp:122] Setting up relu4_1
I1018 00:13:46.605458 30341 net.cpp:129] Top shape: 50 512 36 36 (33177600)
I1018 00:13:46.605463 30341 net.cpp:137] Memory required for data: 8742301400
I1018 00:13:46.605466 30341 layer_factory.hpp:77] Creating layer conv4_2
I1018 00:13:46.605476 30341 net.cpp:84] Creating Layer conv4_2
I1018 00:13:46.605481 30341 net.cpp:406] conv4_2 <- conv4_1
I1018 00:13:46.605490 30341 net.cpp:380] conv4_2 -> conv4_2
I1018 00:13:46.612063 30341 net.cpp:122] Setting up conv4_2
I1018 00:13:46.612087 30341 net.cpp:129] Top shape: 50 512 36 36 (33177600)
I1018 00:13:46.612097 30341 net.cpp:137] Memory required for data: 8875011800
I1018 00:13:46.612113 30341 layer_factory.hpp:77] Creating layer relu4_2
I1018 00:13:46.612123 30341 net.cpp:84] Creating Layer relu4_2
I1018 00:13:46.612129 30341 net.cpp:406] relu4_2 <- conv4_2
I1018 00:13:46.612138 30341 net.cpp:367] relu4_2 -> conv4_2 (in-place)
I1018 00:13:46.612148 30341 net.cpp:122] Setting up relu4_2
I1018 00:13:46.612154 30341 net.cpp:129] Top shape: 50 512 36 36 (33177600)
I1018 00:13:46.612159 30341 net.cpp:137] Memory required for data: 9007722200
I1018 00:13:46.612162 30341 layer_factory.hpp:77] Creating layer conv4_3
I1018 00:13:46.612174 30341 net.cpp:84] Creating Layer conv4_3
I1018 00:13:46.612179 30341 net.cpp:406] conv4_3 <- conv4_2
I1018 00:13:46.612186 30341 net.cpp:380] conv4_3 -> conv4_3
I1018 00:13:46.618638 30341 net.cpp:122] Setting up conv4_3
I1018 00:13:46.618657 30341 net.cpp:129] Top shape: 50 512 36 36 (33177600)
I1018 00:13:46.618662 30341 net.cpp:137] Memory required for data: 9140432600
I1018 00:13:46.618671 30341 layer_factory.hpp:77] Creating layer relu4_3
I1018 00:13:46.618681 30341 net.cpp:84] Creating Layer relu4_3
I1018 00:13:46.618713 30341 net.cpp:406] relu4_3 <- conv4_3
I1018 00:13:46.618722 30341 net.cpp:367] relu4_3 -> conv4_3 (in-place)
I1018 00:13:46.618732 30341 net.cpp:122] Setting up relu4_3
I1018 00:13:46.618738 30341 net.cpp:129] Top shape: 50 512 36 36 (33177600)
I1018 00:13:46.618743 30341 net.cpp:137] Memory required for data: 9273143000
I1018 00:13:46.618747 30341 layer_factory.hpp:77] Creating layer pool4
I1018 00:13:46.618757 30341 net.cpp:84] Creating Layer pool4
I1018 00:13:46.618762 30341 net.cpp:406] pool4 <- conv4_3
I1018 00:13:46.618769 30341 net.cpp:380] pool4 -> pool4
I1018 00:13:46.618816 30341 net.cpp:122] Setting up pool4
I1018 00:13:46.618824 30341 net.cpp:129] Top shape: 50 512 18 18 (8294400)
I1018 00:13:46.618829 30341 net.cpp:137] Memory required for data: 9306320600
I1018 00:13:46.618834 30341 layer_factory.hpp:77] Creating layer conv5_1
I1018 00:13:46.618844 30341 net.cpp:84] Creating Layer conv5_1
I1018 00:13:46.618849 30341 net.cpp:406] conv5_1 <- pool4
I1018 00:13:46.618856 30341 net.cpp:380] conv5_1 -> conv5_1
I1018 00:13:46.625392 30341 net.cpp:122] Setting up conv5_1
I1018 00:13:46.625438 30341 net.cpp:129] Top shape: 50 512 18 18 (8294400)
I1018 00:13:46.625443 30341 net.cpp:137] Memory required for data: 9339498200
I1018 00:13:46.625452 30341 layer_factory.hpp:77] Creating layer relu5_1
I1018 00:13:46.625463 30341 net.cpp:84] Creating Layer relu5_1
I1018 00:13:46.625470 30341 net.cpp:406] relu5_1 <- conv5_1
I1018 00:13:46.625478 30341 net.cpp:367] relu5_1 -> conv5_1 (in-place)
I1018 00:13:46.625489 30341 net.cpp:122] Setting up relu5_1
I1018 00:13:46.625495 30341 net.cpp:129] Top shape: 50 512 18 18 (8294400)
I1018 00:13:46.625500 30341 net.cpp:137] Memory required for data: 9372675800
I1018 00:13:46.625504 30341 layer_factory.hpp:77] Creating layer conv5_2
I1018 00:13:46.625514 30341 net.cpp:84] Creating Layer conv5_2
I1018 00:13:46.625519 30341 net.cpp:406] conv5_2 <- conv5_1
I1018 00:13:46.625526 30341 net.cpp:380] conv5_2 -> conv5_2
I1018 00:13:46.632052 30341 net.cpp:122] Setting up conv5_2
I1018 00:13:46.632072 30341 net.cpp:129] Top shape: 50 512 18 18 (8294400)
I1018 00:13:46.632077 30341 net.cpp:137] Memory required for data: 9405853400
I1018 00:13:46.632087 30341 layer_factory.hpp:77] Creating layer relu5_2
I1018 00:13:46.632104 30341 net.cpp:84] Creating Layer relu5_2
I1018 00:13:46.632110 30341 net.cpp:406] relu5_2 <- conv5_2
I1018 00:13:46.632119 30341 net.cpp:367] relu5_2 -> conv5_2 (in-place)
I1018 00:13:46.632134 30341 net.cpp:122] Setting up relu5_2
I1018 00:13:46.632141 30341 net.cpp:129] Top shape: 50 512 18 18 (8294400)
I1018 00:13:46.632145 30341 net.cpp:137] Memory required for data: 9439031000
I1018 00:13:46.632149 30341 layer_factory.hpp:77] Creating layer conv5_3
I1018 00:13:46.632159 30341 net.cpp:84] Creating Layer conv5_3
I1018 00:13:46.632164 30341 net.cpp:406] conv5_3 <- conv5_2
I1018 00:13:46.632171 30341 net.cpp:380] conv5_3 -> conv5_3
I1018 00:13:46.638540 30341 net.cpp:122] Setting up conv5_3
I1018 00:13:46.638559 30341 net.cpp:129] Top shape: 50 512 18 18 (8294400)
I1018 00:13:46.638564 30341 net.cpp:137] Memory required for data: 9472208600
I1018 00:13:46.638573 30341 layer_factory.hpp:77] Creating layer relu5_3
I1018 00:13:46.638582 30341 net.cpp:84] Creating Layer relu5_3
I1018 00:13:46.638587 30341 net.cpp:406] relu5_3 <- conv5_3
I1018 00:13:46.638595 30341 net.cpp:367] relu5_3 -> conv5_3 (in-place)
I1018 00:13:46.638605 30341 net.cpp:122] Setting up relu5_3
I1018 00:13:46.638612 30341 net.cpp:129] Top shape: 50 512 18 18 (8294400)
I1018 00:13:46.638615 30341 net.cpp:137] Memory required for data: 9505386200
I1018 00:13:46.638620 30341 layer_factory.hpp:77] Creating layer pool5
I1018 00:13:46.638629 30341 net.cpp:84] Creating Layer pool5
I1018 00:13:46.638634 30341 net.cpp:406] pool5 <- conv5_3
I1018 00:13:46.638643 30341 net.cpp:380] pool5 -> pool5
I1018 00:13:46.638687 30341 net.cpp:122] Setting up pool5
I1018 00:13:46.638695 30341 net.cpp:129] Top shape: 50 512 9 9 (2073600)
I1018 00:13:46.638700 30341 net.cpp:137] Memory required for data: 9513680600
I1018 00:13:46.638705 30341 layer_factory.hpp:77] Creating layer fc6-conv
I1018 00:13:46.638715 30341 net.cpp:84] Creating Layer fc6-conv
I1018 00:13:46.638720 30341 net.cpp:406] fc6-conv <- pool5
I1018 00:13:46.638726 30341 net.cpp:380] fc6-conv -> fc6-conv
I1018 00:13:46.940758 30341 net.cpp:122] Setting up fc6-conv
I1018 00:13:46.940810 30341 net.cpp:129] Top shape: 50 4096 3 3 (1843200)
I1018 00:13:46.940816 30341 net.cpp:137] Memory required for data: 9521053400
I1018 00:13:46.940831 30341 layer_factory.hpp:77] Creating layer relu6
I1018 00:13:46.940855 30341 net.cpp:84] Creating Layer relu6
I1018 00:13:46.940863 30341 net.cpp:406] relu6 <- fc6-conv
I1018 00:13:46.940874 30341 net.cpp:367] relu6 -> fc6-conv (in-place)
I1018 00:13:46.940889 30341 net.cpp:122] Setting up relu6
I1018 00:13:46.940896 30341 net.cpp:129] Top shape: 50 4096 3 3 (1843200)
I1018 00:13:46.940901 30341 net.cpp:137] Memory required for data: 9528426200
I1018 00:13:46.940906 30341 layer_factory.hpp:77] Creating layer drop6
I1018 00:13:46.940915 30341 net.cpp:84] Creating Layer drop6
I1018 00:13:46.940920 30341 net.cpp:406] drop6 <- fc6-conv
I1018 00:13:46.940927 30341 net.cpp:367] drop6 -> fc6-conv (in-place)
I1018 00:13:46.940958 30341 net.cpp:122] Setting up drop6
I1018 00:13:46.940965 30341 net.cpp:129] Top shape: 50 4096 3 3 (1843200)
I1018 00:13:46.940970 30341 net.cpp:137] Memory required for data: 9535799000
I1018 00:13:46.940974 30341 layer_factory.hpp:77] Creating layer fc7-conv
I1018 00:13:46.940987 30341 net.cpp:84] Creating Layer fc7-conv
I1018 00:13:46.940992 30341 net.cpp:406] fc7-conv <- fc6-conv
I1018 00:13:46.941000 30341 net.cpp:380] fc7-conv -> fc7-conv
I1018 00:13:46.988556 30341 net.cpp:122] Setting up fc7-conv
I1018 00:13:46.988596 30341 net.cpp:129] Top shape: 50 4096 3 3 (1843200)
I1018 00:13:46.988602 30341 net.cpp:137] Memory required for data: 9543171800
I1018 00:13:46.988615 30341 layer_factory.hpp:77] Creating layer relu7
I1018 00:13:46.988632 30341 net.cpp:84] Creating Layer relu7
I1018 00:13:46.988641 30341 net.cpp:406] relu7 <- fc7-conv
I1018 00:13:46.988651 30341 net.cpp:367] relu7 -> fc7-conv (in-place)
I1018 00:13:46.988665 30341 net.cpp:122] Setting up relu7
I1018 00:13:46.988674 30341 net.cpp:129] Top shape: 50 4096 3 3 (1843200)
I1018 00:13:46.988679 30341 net.cpp:137] Memory required for data: 9550544600
I1018 00:13:46.988684 30341 layer_factory.hpp:77] Creating layer drop7
I1018 00:13:46.988694 30341 net.cpp:84] Creating Layer drop7
I1018 00:13:46.988699 30341 net.cpp:406] drop7 <- fc7-conv
I1018 00:13:46.988708 30341 net.cpp:367] drop7 -> fc7-conv (in-place)
I1018 00:13:46.988744 30341 net.cpp:122] Setting up drop7
I1018 00:13:46.988754 30341 net.cpp:129] Top shape: 50 4096 3 3 (1843200)
I1018 00:13:46.988759 30341 net.cpp:137] Memory required for data: 9557917400
I1018 00:13:46.988762 30341 layer_factory.hpp:77] Creating layer fc7-conv_re
I1018 00:13:46.988775 30341 net.cpp:84] Creating Layer fc7-conv_re
I1018 00:13:46.988780 30341 net.cpp:406] fc7-conv_re <- fc7-conv
I1018 00:13:46.988788 30341 net.cpp:380] fc7-conv_re -> fc7-conv_re
I1018 00:13:46.988823 30341 net.cpp:122] Setting up fc7-conv_re
I1018 00:13:46.988831 30341 net.cpp:129] Top shape: 50 4096 9 (1843200)
I1018 00:13:46.988837 30341 net.cpp:137] Memory required for data: 9565290200
I1018 00:13:46.988840 30341 layer_factory.hpp:77] Creating layer fc7-conv_tran
I1018 00:13:46.988967 30341 net.cpp:84] Creating Layer fc7-conv_tran
I1018 00:13:46.988981 30341 net.cpp:406] fc7-conv_tran <- fc7-conv_re
I1018 00:13:46.988989 30341 net.cpp:380] fc7-conv_tran -> fc7-conv_tran
I1018 00:13:46.993202 30341 net.cpp:122] Setting up fc7-conv_tran
I1018 00:13:46.993221 30341 net.cpp:129] Top shape: 4 50 4096 (819200)
I1018 00:13:46.993233 30341 net.cpp:137] Memory required for data: 9568567000
I1018 00:13:46.993239 30341 layer_factory.hpp:77] Creating layer lstm1
I1018 00:13:46.993253 30341 net.cpp:84] Creating Layer lstm1
I1018 00:13:46.993259 30341 net.cpp:406] lstm1 <- fc7-conv_tran
I1018 00:13:46.993268 30341 net.cpp:406] lstm1 <- clip_markers
I1018 00:13:46.993275 30341 net.cpp:380] lstm1 -> lstm1
I1018 00:13:46.993286 30341 recurrent_layer.cpp:20] Initializing recurrent layer: assuming input batch contains 4 timesteps of 50 independent streams.
I1018 00:13:46.993615 30341 net.cpp:51] Initializing net from parameters: 
layer {
  name: "lstm1_"
  type: "Input"
  top: "x"
  top: "cont"
  input_param {
    shape {
      dim: 4
      dim: 50
      dim: 4096
    }
    shape {
      dim: 4
      dim: 50
    }
  }
}
layer {
  name: "lstm1_"
  type: "Input"
  top: "c_0"
  top: "h_0"
  input_param {
    shape {
      dim: 1
      dim: 50
      dim: 512
    }
    shape {
      dim: 1
      dim: 50
      dim: 512
    }
  }
}
layer {
  name: "lstm1_cont_slice"
  type: "Slice"
  bottom: "cont"
  top: "cont_1"
  top: "cont_2"
  top: "cont_3"
  top: "cont_4"
  slice_param {
    axis: 0
  }
}
layer {
  name: "lstm1_x_transform"
  type: "InnerProduct"
  bottom: "x"
  top: "W_xc_x"
  param {
    name: "W_xc"
  }
  param {
    name: "b_c"
  }
  propagate_down: true
  inner_product_param {
    num_output: 2048
    bias_term: true
    weight_filler {
      type: "uniform"
      min: -0.01
      max: 0.01
    }
    bias_filler {
      type: "constant"
      value: 0
    }
    axis: 2
  }
}
layer {
  name: "lstm1_W_xc_x_slice"
  type: "Slice"
  bottom: "W_xc_x"
  top: "W_xc_x_1"
  top: "W_xc_x_2"
  top: "W_xc_x_3"
  top: "W_xc_x_4"
  slice_param {
    axis: 0
  }
}
layer {
  name: "lstm1_h_conted_0"
  type: "Scale"
  bottom: "h_0"
  bottom: "cont_1"
  top: "h_conted_0"
  scale_param {
    axis: 0
  }
}
layer {
  name: "lstm1_transform_1"
  type: "InnerProduct"
  bottom: "h_conted_0"
  top: "W_hc_h_0"
  param {
    name: "W_hc"
  }
  inner_product_param {
    num_output: 2048
    bias_term: false
    weight_filler {
      type: "uniform"
      min: -0.01
      max: 0.01
    }
    axis: 2
  }
}
layer {
  name: "lstm1_gate_input_1"
  type: "Eltwise"
  bottom: "W_hc_h_0"
  bottom: "W_xc_x_1"
  top: "gate_input_1"
  eltwise_param {
    operation: SUM
  }
}
layer {
  name: "lstm1_unit_1"
  type: "LSTMUnit"
  bottom: "c_0"
  bottom: "gate_input_1"
  bottom: "cont_1"
  top: "c_1"
  top: "h_1"
}
layer {
  name: "lstm1_h_conted_1"
  type: "Scale"
  bottom: "h_1"
  bottom: "cont_2"
  top: "h_conted_1"
  scale_param {
    axis: 0
  }
}
layer {
  name: "lstm1_transform_2"
  type: "InnerProduct"
  bottom: "h_conted_1"
  top: "W_hc_h_1"
  param {
    name: "W_hc"
  }
  inner_product_param {
    num_output: 2048
    bias_term: false
    weight_filler {
      type: "uniform"
      min: -0.01
      max: 0.01
    }
    axis: 2
  }
}
layer {
  name: "lstm1_gate_input_2"
  type: "Eltwise"
  bottom: "W_hc_h_1"
  bottom: "W_xc_x_2"
  top: "gate_input_2"
  eltwise_param {
    operation: SUM
  }
}
layer {
  name: "lstm1_unit_2"
  type: "LSTMUnit"
  bottom: "c_1"
  bottom: "gate_input_2"
  bottom: "cont_2"
  top: "c_2"
  top: "h_2"
}
layer {
  name: "lstm1_h_conted_2"
  type: "Scale"
  bottom: "h_2"
  bottom: "cont_3"
  top: "h_conted_2"
  scale_param {
    axis: 0
  }
}
layer {
  name: "lstm1_transform_3"
  type: "InnerProduct"
  bottom: "h_conted_2"
  top: "W_hc_h_2"
  param {
    name: "W_hc"
  }
  inner_product_param {
    num_output: 2048
    bias_term: false
    weight_filler {
      type: "uniform"
      min: -0.01
      max: 0.01
    }
    axis: 2
  }
}
layer {
  name: "lstm1_gate_input_3"
  type: "Eltwise"
  bottom: "W_hc_h_2"
  bottom: "W_xc_x_3"
  top: "gate_input_3"
  eltwise_param {
    operation: SUM
  }
}
layer {
  name: "lstm1_unit_3"
  type: "LSTMUnit"
  bottom: "c_2"
  bottom: "gate_input_3"
  bottom: "cont_3"
  top: "c_3"
  top: "h_3"
}
layer {
  name: "lstm1_h_conted_3"
  type: "Scale"
  bottom: "h_3"
  bottom: "cont_4"
  top: "h_conted_3"
  scale_param {
    axis: 0
  }
}
layer {
  name: "lstm1_transform_4"
  type: "InnerProduct"
  bottom: "h_conted_3"
  top: "W_hc_h_3"
  param {
    name: "W_hc"
  }
  inner_product_param {
    num_output: 2048
    bias_term: false
    weight_filler {
      type: "uniform"
      min: -0.01
      max: 0.01
    }
    axis: 2
  }
}
layer {
  name: "lstm1_gate_input_4"
  type: "Eltwise"
  bottom: "W_hc_h_3"
  bottom: "W_xc_x_4"
  top: "gate_input_4"
  eltwise_param {
    operation: SUM
  }
}
layer {
  name: "lstm1_unit_4"
  type: "LSTMUnit"
  bottom: "c_3"
  bottom: "gate_input_4"
  bottom: "cont_4"
  top: "c_4"
  top: "h_4"
}
layer {
  name: "lstm1_"
  type: "Split"
  bottom: "c_4"
  top: "c_T"
}
layer {
  name: "lstm1_h_concat"
  type: "Concat"
  bottom: "h_1"
  bottom: "h_2"
  bottom: "h_3"
  bottom: "h_4"
  top: "h"
  concat_param {
    axis: 0
  }
}
layer {
  name: "h_pseudoloss"
  type: "Reduction"
  bottom: "h"
  top: "h_pseudoloss"
  loss_weight: 1
}
I1018 00:13:46.993811 30341 layer_factory.hpp:77] Creating layer lstm1_
I1018 00:13:46.993825 30341 net.cpp:84] Creating Layer lstm1_
I1018 00:13:46.993831 30341 net.cpp:380] lstm1_ -> x
I1018 00:13:46.993844 30341 net.cpp:380] lstm1_ -> cont
I1018 00:13:46.993896 30341 net.cpp:122] Setting up lstm1_
I1018 00:13:46.993906 30341 net.cpp:129] Top shape: 4 50 4096 (819200)
I1018 00:13:46.993911 30341 net.cpp:129] Top shape: 4 50 (200)
I1018 00:13:46.993916 30341 net.cpp:137] Memory required for data: 3277600
I1018 00:13:46.993921 30341 layer_factory.hpp:77] Creating layer lstm1_
I1018 00:13:46.993928 30341 net.cpp:84] Creating Layer lstm1_
I1018 00:13:46.993937 30341 net.cpp:380] lstm1_ -> c_0
I1018 00:13:46.993947 30341 net.cpp:380] lstm1_ -> h_0
I1018 00:13:46.994001 30341 net.cpp:122] Setting up lstm1_
I1018 00:13:46.994009 30341 net.cpp:129] Top shape: 1 50 512 (25600)
I1018 00:13:46.994014 30341 net.cpp:129] Top shape: 1 50 512 (25600)
I1018 00:13:46.994019 30341 net.cpp:137] Memory required for data: 3482400
I1018 00:13:46.994024 30341 layer_factory.hpp:77] Creating layer lstm1_cont_slice
I1018 00:13:46.994031 30341 net.cpp:84] Creating Layer lstm1_cont_slice
I1018 00:13:46.994036 30341 net.cpp:406] lstm1_cont_slice <- cont
I1018 00:13:46.994045 30341 net.cpp:380] lstm1_cont_slice -> cont_1
I1018 00:13:46.994055 30341 net.cpp:380] lstm1_cont_slice -> cont_2
I1018 00:13:46.994062 30341 net.cpp:380] lstm1_cont_slice -> cont_3
I1018 00:13:46.994069 30341 net.cpp:380] lstm1_cont_slice -> cont_4
I1018 00:13:46.994141 30341 net.cpp:122] Setting up lstm1_cont_slice
I1018 00:13:46.994151 30341 net.cpp:129] Top shape: 1 50 (50)
I1018 00:13:46.994158 30341 net.cpp:129] Top shape: 1 50 (50)
I1018 00:13:46.994163 30341 net.cpp:129] Top shape: 1 50 (50)
I1018 00:13:46.994168 30341 net.cpp:129] Top shape: 1 50 (50)
I1018 00:13:46.994173 30341 net.cpp:137] Memory required for data: 3483200
I1018 00:13:46.994176 30341 layer_factory.hpp:77] Creating layer cont_1_lstm1_cont_slice_0_split
I1018 00:13:46.994184 30341 net.cpp:84] Creating Layer cont_1_lstm1_cont_slice_0_split
I1018 00:13:46.994189 30341 net.cpp:406] cont_1_lstm1_cont_slice_0_split <- cont_1
I1018 00:13:46.994194 30341 net.cpp:380] cont_1_lstm1_cont_slice_0_split -> cont_1_lstm1_cont_slice_0_split_0
I1018 00:13:46.994205 30341 net.cpp:380] cont_1_lstm1_cont_slice_0_split -> cont_1_lstm1_cont_slice_0_split_1
I1018 00:13:46.994246 30341 net.cpp:122] Setting up cont_1_lstm1_cont_slice_0_split
I1018 00:13:46.994253 30341 net.cpp:129] Top shape: 1 50 (50)
I1018 00:13:46.994258 30341 net.cpp:129] Top shape: 1 50 (50)
I1018 00:13:46.994262 30341 net.cpp:137] Memory required for data: 3483600
I1018 00:13:46.994267 30341 layer_factory.hpp:77] Creating layer cont_2_lstm1_cont_slice_1_split
I1018 00:13:46.994276 30341 net.cpp:84] Creating Layer cont_2_lstm1_cont_slice_1_split
I1018 00:13:46.994280 30341 net.cpp:406] cont_2_lstm1_cont_slice_1_split <- cont_2
I1018 00:13:46.994287 30341 net.cpp:380] cont_2_lstm1_cont_slice_1_split -> cont_2_lstm1_cont_slice_1_split_0
I1018 00:13:46.994294 30341 net.cpp:380] cont_2_lstm1_cont_slice_1_split -> cont_2_lstm1_cont_slice_1_split_1
I1018 00:13:46.994335 30341 net.cpp:122] Setting up cont_2_lstm1_cont_slice_1_split
I1018 00:13:46.994343 30341 net.cpp:129] Top shape: 1 50 (50)
I1018 00:13:46.994348 30341 net.cpp:129] Top shape: 1 50 (50)
I1018 00:13:46.994352 30341 net.cpp:137] Memory required for data: 3484000
I1018 00:13:46.994356 30341 layer_factory.hpp:77] Creating layer cont_3_lstm1_cont_slice_2_split
I1018 00:13:46.994361 30341 net.cpp:84] Creating Layer cont_3_lstm1_cont_slice_2_split
I1018 00:13:46.994366 30341 net.cpp:406] cont_3_lstm1_cont_slice_2_split <- cont_3
I1018 00:13:46.994372 30341 net.cpp:380] cont_3_lstm1_cont_slice_2_split -> cont_3_lstm1_cont_slice_2_split_0
I1018 00:13:46.994379 30341 net.cpp:380] cont_3_lstm1_cont_slice_2_split -> cont_3_lstm1_cont_slice_2_split_1
I1018 00:13:46.994416 30341 net.cpp:122] Setting up cont_3_lstm1_cont_slice_2_split
I1018 00:13:46.994424 30341 net.cpp:129] Top shape: 1 50 (50)
I1018 00:13:46.994429 30341 net.cpp:129] Top shape: 1 50 (50)
I1018 00:13:46.994434 30341 net.cpp:137] Memory required for data: 3484400
I1018 00:13:46.994438 30341 layer_factory.hpp:77] Creating layer cont_4_lstm1_cont_slice_3_split
I1018 00:13:46.994443 30341 net.cpp:84] Creating Layer cont_4_lstm1_cont_slice_3_split
I1018 00:13:46.994448 30341 net.cpp:406] cont_4_lstm1_cont_slice_3_split <- cont_4
I1018 00:13:46.994454 30341 net.cpp:380] cont_4_lstm1_cont_slice_3_split -> cont_4_lstm1_cont_slice_3_split_0
I1018 00:13:46.994462 30341 net.cpp:380] cont_4_lstm1_cont_slice_3_split -> cont_4_lstm1_cont_slice_3_split_1
I1018 00:13:46.994498 30341 net.cpp:122] Setting up cont_4_lstm1_cont_slice_3_split
I1018 00:13:46.994505 30341 net.cpp:129] Top shape: 1 50 (50)
I1018 00:13:46.994511 30341 net.cpp:129] Top shape: 1 50 (50)
I1018 00:13:46.994515 30341 net.cpp:137] Memory required for data: 3484800
I1018 00:13:46.994519 30341 layer_factory.hpp:77] Creating layer lstm1_x_transform
I1018 00:13:46.994529 30341 net.cpp:84] Creating Layer lstm1_x_transform
I1018 00:13:46.994534 30341 net.cpp:406] lstm1_x_transform <- x
I1018 00:13:46.994542 30341 net.cpp:380] lstm1_x_transform -> W_xc_x
I1018 00:13:47.098377 30341 net.cpp:122] Setting up lstm1_x_transform
I1018 00:13:47.098409 30341 net.cpp:129] Top shape: 4 50 2048 (409600)
I1018 00:13:47.098415 30341 net.cpp:137] Memory required for data: 5123200
I1018 00:13:47.098433 30341 layer_factory.hpp:77] Creating layer lstm1_W_xc_x_slice
I1018 00:13:47.098451 30341 net.cpp:84] Creating Layer lstm1_W_xc_x_slice
I1018 00:13:47.098459 30341 net.cpp:406] lstm1_W_xc_x_slice <- W_xc_x
I1018 00:13:47.098472 30341 net.cpp:380] lstm1_W_xc_x_slice -> W_xc_x_1
I1018 00:13:47.098484 30341 net.cpp:380] lstm1_W_xc_x_slice -> W_xc_x_2
I1018 00:13:47.098492 30341 net.cpp:380] lstm1_W_xc_x_slice -> W_xc_x_3
I1018 00:13:47.098500 30341 net.cpp:380] lstm1_W_xc_x_slice -> W_xc_x_4
I1018 00:13:47.098659 30341 net.cpp:122] Setting up lstm1_W_xc_x_slice
I1018 00:13:47.098670 30341 net.cpp:129] Top shape: 1 50 2048 (102400)
I1018 00:13:47.098675 30341 net.cpp:129] Top shape: 1 50 2048 (102400)
I1018 00:13:47.098680 30341 net.cpp:129] Top shape: 1 50 2048 (102400)
I1018 00:13:47.098685 30341 net.cpp:129] Top shape: 1 50 2048 (102400)
I1018 00:13:47.098688 30341 net.cpp:137] Memory required for data: 6761600
I1018 00:13:47.098692 30341 layer_factory.hpp:77] Creating layer lstm1_h_conted_0
I1018 00:13:47.098702 30341 net.cpp:84] Creating Layer lstm1_h_conted_0
I1018 00:13:47.098707 30341 net.cpp:406] lstm1_h_conted_0 <- h_0
I1018 00:13:47.098714 30341 net.cpp:406] lstm1_h_conted_0 <- cont_1_lstm1_cont_slice_0_split_0
I1018 00:13:47.098721 30341 net.cpp:380] lstm1_h_conted_0 -> h_conted_0
I1018 00:13:47.098808 30341 net.cpp:122] Setting up lstm1_h_conted_0
I1018 00:13:47.098817 30341 net.cpp:129] Top shape: 1 50 512 (25600)
I1018 00:13:47.098821 30341 net.cpp:137] Memory required for data: 6864000
I1018 00:13:47.098825 30341 layer_factory.hpp:77] Creating layer lstm1_transform_1
I1018 00:13:47.098836 30341 net.cpp:84] Creating Layer lstm1_transform_1
I1018 00:13:47.098842 30341 net.cpp:406] lstm1_transform_1 <- h_conted_0
I1018 00:13:47.098848 30341 net.cpp:380] lstm1_transform_1 -> W_hc_h_0
I1018 00:13:47.111003 30341 net.cpp:122] Setting up lstm1_transform_1
I1018 00:13:47.111062 30341 net.cpp:129] Top shape: 1 50 2048 (102400)
I1018 00:13:47.111091 30341 net.cpp:137] Memory required for data: 7273600
I1018 00:13:47.111124 30341 layer_factory.hpp:77] Creating layer lstm1_gate_input_1
I1018 00:13:47.111157 30341 net.cpp:84] Creating Layer lstm1_gate_input_1
I1018 00:13:47.111184 30341 net.cpp:406] lstm1_gate_input_1 <- W_hc_h_0
I1018 00:13:47.111212 30341 net.cpp:406] lstm1_gate_input_1 <- W_xc_x_1
I1018 00:13:47.111253 30341 net.cpp:380] lstm1_gate_input_1 -> gate_input_1
I1018 00:13:47.111307 30341 net.cpp:122] Setting up lstm1_gate_input_1
I1018 00:13:47.111321 30341 net.cpp:129] Top shape: 1 50 2048 (102400)
I1018 00:13:47.111330 30341 net.cpp:137] Memory required for data: 7683200
I1018 00:13:47.111336 30341 layer_factory.hpp:77] Creating layer lstm1_unit_1
I1018 00:13:47.111348 30341 net.cpp:84] Creating Layer lstm1_unit_1
I1018 00:13:47.111356 30341 net.cpp:406] lstm1_unit_1 <- c_0
I1018 00:13:47.111366 30341 net.cpp:406] lstm1_unit_1 <- gate_input_1
I1018 00:13:47.111373 30341 net.cpp:406] lstm1_unit_1 <- cont_1_lstm1_cont_slice_0_split_1
I1018 00:13:47.111383 30341 net.cpp:380] lstm1_unit_1 -> c_1
I1018 00:13:47.111397 30341 net.cpp:380] lstm1_unit_1 -> h_1
I1018 00:13:47.111469 30341 net.cpp:122] Setting up lstm1_unit_1
I1018 00:13:47.111484 30341 net.cpp:129] Top shape: 1 50 512 (25600)
I1018 00:13:47.111492 30341 net.cpp:129] Top shape: 1 50 512 (25600)
I1018 00:13:47.111500 30341 net.cpp:137] Memory required for data: 7888000
I1018 00:13:47.111507 30341 layer_factory.hpp:77] Creating layer h_1_lstm1_unit_1_1_split
I1018 00:13:47.111522 30341 net.cpp:84] Creating Layer h_1_lstm1_unit_1_1_split
I1018 00:13:47.111531 30341 net.cpp:406] h_1_lstm1_unit_1_1_split <- h_1
I1018 00:13:47.111541 30341 net.cpp:380] h_1_lstm1_unit_1_1_split -> h_1_lstm1_unit_1_1_split_0
I1018 00:13:47.111554 30341 net.cpp:380] h_1_lstm1_unit_1_1_split -> h_1_lstm1_unit_1_1_split_1
I1018 00:13:47.111609 30341 net.cpp:122] Setting up h_1_lstm1_unit_1_1_split
I1018 00:13:47.111623 30341 net.cpp:129] Top shape: 1 50 512 (25600)
I1018 00:13:47.111631 30341 net.cpp:129] Top shape: 1 50 512 (25600)
I1018 00:13:47.111639 30341 net.cpp:137] Memory required for data: 8092800
I1018 00:13:47.111645 30341 layer_factory.hpp:77] Creating layer lstm1_h_conted_1
I1018 00:13:47.111657 30341 net.cpp:84] Creating Layer lstm1_h_conted_1
I1018 00:13:47.111670 30341 net.cpp:406] lstm1_h_conted_1 <- h_1_lstm1_unit_1_1_split_0
I1018 00:13:47.111680 30341 net.cpp:406] lstm1_h_conted_1 <- cont_2_lstm1_cont_slice_1_split_0
I1018 00:13:47.111690 30341 net.cpp:380] lstm1_h_conted_1 -> h_conted_1
I1018 00:13:47.111775 30341 net.cpp:122] Setting up lstm1_h_conted_1
I1018 00:13:47.111789 30341 net.cpp:129] Top shape: 1 50 512 (25600)
I1018 00:13:47.111796 30341 net.cpp:137] Memory required for data: 8195200
I1018 00:13:47.111804 30341 layer_factory.hpp:77] Creating layer lstm1_transform_2
I1018 00:13:47.111817 30341 net.cpp:84] Creating Layer lstm1_transform_2
I1018 00:13:47.111829 30341 net.cpp:406] lstm1_transform_2 <- h_conted_1
I1018 00:13:47.111840 30341 net.cpp:380] lstm1_transform_2 -> W_hc_h_1
I1018 00:13:47.123664 30341 net.cpp:122] Setting up lstm1_transform_2
I1018 00:13:47.123685 30341 net.cpp:129] Top shape: 1 50 2048 (102400)
I1018 00:13:47.123693 30341 net.cpp:137] Memory required for data: 8604800
I1018 00:13:47.123706 30341 net.cpp:465] Sharing parameters 'W_hc' owned by layer 'lstm1_transform_1', param index 0
I1018 00:13:47.123714 30341 layer_factory.hpp:77] Creating layer lstm1_gate_input_2
I1018 00:13:47.123730 30341 net.cpp:84] Creating Layer lstm1_gate_input_2
I1018 00:13:47.123739 30341 net.cpp:406] lstm1_gate_input_2 <- W_hc_h_1
I1018 00:13:47.123749 30341 net.cpp:406] lstm1_gate_input_2 <- W_xc_x_2
I1018 00:13:47.123760 30341 net.cpp:380] lstm1_gate_input_2 -> gate_input_2
I1018 00:13:47.123805 30341 net.cpp:122] Setting up lstm1_gate_input_2
I1018 00:13:47.123817 30341 net.cpp:129] Top shape: 1 50 2048 (102400)
I1018 00:13:47.123824 30341 net.cpp:137] Memory required for data: 9014400
I1018 00:13:47.123832 30341 layer_factory.hpp:77] Creating layer lstm1_unit_2
I1018 00:13:47.123847 30341 net.cpp:84] Creating Layer lstm1_unit_2
I1018 00:13:47.123855 30341 net.cpp:406] lstm1_unit_2 <- c_1
I1018 00:13:47.123865 30341 net.cpp:406] lstm1_unit_2 <- gate_input_2
I1018 00:13:47.123875 30341 net.cpp:406] lstm1_unit_2 <- cont_2_lstm1_cont_slice_1_split_1
I1018 00:13:47.123885 30341 net.cpp:380] lstm1_unit_2 -> c_2
I1018 00:13:47.123898 30341 net.cpp:380] lstm1_unit_2 -> h_2
I1018 00:13:47.123968 30341 net.cpp:122] Setting up lstm1_unit_2
I1018 00:13:47.123981 30341 net.cpp:129] Top shape: 1 50 512 (25600)
I1018 00:13:47.123994 30341 net.cpp:129] Top shape: 1 50 512 (25600)
I1018 00:13:47.124002 30341 net.cpp:137] Memory required for data: 9219200
I1018 00:13:47.124011 30341 layer_factory.hpp:77] Creating layer h_2_lstm1_unit_2_1_split
I1018 00:13:47.124022 30341 net.cpp:84] Creating Layer h_2_lstm1_unit_2_1_split
I1018 00:13:47.124035 30341 net.cpp:406] h_2_lstm1_unit_2_1_split <- h_2
I1018 00:13:47.124048 30341 net.cpp:380] h_2_lstm1_unit_2_1_split -> h_2_lstm1_unit_2_1_split_0
I1018 00:13:47.124061 30341 net.cpp:380] h_2_lstm1_unit_2_1_split -> h_2_lstm1_unit_2_1_split_1
I1018 00:13:47.124120 30341 net.cpp:122] Setting up h_2_lstm1_unit_2_1_split
I1018 00:13:47.124135 30341 net.cpp:129] Top shape: 1 50 512 (25600)
I1018 00:13:47.124143 30341 net.cpp:129] Top shape: 1 50 512 (25600)
I1018 00:13:47.124150 30341 net.cpp:137] Memory required for data: 9424000
I1018 00:13:47.124158 30341 layer_factory.hpp:77] Creating layer lstm1_h_conted_2
I1018 00:13:47.124173 30341 net.cpp:84] Creating Layer lstm1_h_conted_2
I1018 00:13:47.124182 30341 net.cpp:406] lstm1_h_conted_2 <- h_2_lstm1_unit_2_1_split_0
I1018 00:13:47.124192 30341 net.cpp:406] lstm1_h_conted_2 <- cont_3_lstm1_cont_slice_2_split_0
I1018 00:13:47.124203 30341 net.cpp:380] lstm1_h_conted_2 -> h_conted_2
I1018 00:13:47.124308 30341 net.cpp:122] Setting up lstm1_h_conted_2
I1018 00:13:47.124348 30341 net.cpp:129] Top shape: 1 50 512 (25600)
I1018 00:13:47.124374 30341 net.cpp:137] Memory required for data: 9526400
I1018 00:13:47.124399 30341 layer_factory.hpp:77] Creating layer lstm1_transform_3
I1018 00:13:47.124433 30341 net.cpp:84] Creating Layer lstm1_transform_3
I1018 00:13:47.124460 30341 net.cpp:406] lstm1_transform_3 <- h_conted_2
I1018 00:13:47.124500 30341 net.cpp:380] lstm1_transform_3 -> W_hc_h_2
I1018 00:13:47.136386 30341 net.cpp:122] Setting up lstm1_transform_3
I1018 00:13:47.136405 30341 net.cpp:129] Top shape: 1 50 2048 (102400)
I1018 00:13:47.136410 30341 net.cpp:137] Memory required for data: 9936000
I1018 00:13:47.136418 30341 net.cpp:465] Sharing parameters 'W_hc' owned by layer 'lstm1_transform_1', param index 0
I1018 00:13:47.136425 30341 layer_factory.hpp:77] Creating layer lstm1_gate_input_3
I1018 00:13:47.136432 30341 net.cpp:84] Creating Layer lstm1_gate_input_3
I1018 00:13:47.136437 30341 net.cpp:406] lstm1_gate_input_3 <- W_hc_h_2
I1018 00:13:47.136445 30341 net.cpp:406] lstm1_gate_input_3 <- W_xc_x_3
I1018 00:13:47.136451 30341 net.cpp:380] lstm1_gate_input_3 -> gate_input_3
I1018 00:13:47.136484 30341 net.cpp:122] Setting up lstm1_gate_input_3
I1018 00:13:47.136492 30341 net.cpp:129] Top shape: 1 50 2048 (102400)
I1018 00:13:47.136495 30341 net.cpp:137] Memory required for data: 10345600
I1018 00:13:47.136500 30341 layer_factory.hpp:77] Creating layer lstm1_unit_3
I1018 00:13:47.136507 30341 net.cpp:84] Creating Layer lstm1_unit_3
I1018 00:13:47.136512 30341 net.cpp:406] lstm1_unit_3 <- c_2
I1018 00:13:47.136518 30341 net.cpp:406] lstm1_unit_3 <- gate_input_3
I1018 00:13:47.136523 30341 net.cpp:406] lstm1_unit_3 <- cont_3_lstm1_cont_slice_2_split_1
I1018 00:13:47.136528 30341 net.cpp:380] lstm1_unit_3 -> c_3
I1018 00:13:47.136536 30341 net.cpp:380] lstm1_unit_3 -> h_3
I1018 00:13:47.136585 30341 net.cpp:122] Setting up lstm1_unit_3
I1018 00:13:47.136592 30341 net.cpp:129] Top shape: 1 50 512 (25600)
I1018 00:13:47.136597 30341 net.cpp:129] Top shape: 1 50 512 (25600)
I1018 00:13:47.136601 30341 net.cpp:137] Memory required for data: 10550400
I1018 00:13:47.136605 30341 layer_factory.hpp:77] Creating layer h_3_lstm1_unit_3_1_split
I1018 00:13:47.136613 30341 net.cpp:84] Creating Layer h_3_lstm1_unit_3_1_split
I1018 00:13:47.136618 30341 net.cpp:406] h_3_lstm1_unit_3_1_split <- h_3
I1018 00:13:47.136624 30341 net.cpp:380] h_3_lstm1_unit_3_1_split -> h_3_lstm1_unit_3_1_split_0
I1018 00:13:47.136631 30341 net.cpp:380] h_3_lstm1_unit_3_1_split -> h_3_lstm1_unit_3_1_split_1
I1018 00:13:47.136667 30341 net.cpp:122] Setting up h_3_lstm1_unit_3_1_split
I1018 00:13:47.136673 30341 net.cpp:129] Top shape: 1 50 512 (25600)
I1018 00:13:47.136678 30341 net.cpp:129] Top shape: 1 50 512 (25600)
I1018 00:13:47.136682 30341 net.cpp:137] Memory required for data: 10755200
I1018 00:13:47.136687 30341 layer_factory.hpp:77] Creating layer lstm1_h_conted_3
I1018 00:13:47.136695 30341 net.cpp:84] Creating Layer lstm1_h_conted_3
I1018 00:13:47.136700 30341 net.cpp:406] lstm1_h_conted_3 <- h_3_lstm1_unit_3_1_split_0
I1018 00:13:47.136706 30341 net.cpp:406] lstm1_h_conted_3 <- cont_4_lstm1_cont_slice_3_split_0
I1018 00:13:47.136711 30341 net.cpp:380] lstm1_h_conted_3 -> h_conted_3
I1018 00:13:47.136776 30341 net.cpp:122] Setting up lstm1_h_conted_3
I1018 00:13:47.136783 30341 net.cpp:129] Top shape: 1 50 512 (25600)
I1018 00:13:47.136787 30341 net.cpp:137] Memory required for data: 10857600
I1018 00:13:47.136791 30341 layer_factory.hpp:77] Creating layer lstm1_transform_4
I1018 00:13:47.136801 30341 net.cpp:84] Creating Layer lstm1_transform_4
I1018 00:13:47.136806 30341 net.cpp:406] lstm1_transform_4 <- h_conted_3
I1018 00:13:47.136813 30341 net.cpp:380] lstm1_transform_4 -> W_hc_h_3
I1018 00:13:47.149199 30341 net.cpp:122] Setting up lstm1_transform_4
I1018 00:13:47.149216 30341 net.cpp:129] Top shape: 1 50 2048 (102400)
I1018 00:13:47.149221 30341 net.cpp:137] Memory required for data: 11267200
I1018 00:13:47.149227 30341 net.cpp:465] Sharing parameters 'W_hc' owned by layer 'lstm1_transform_1', param index 0
I1018 00:13:47.149232 30341 layer_factory.hpp:77] Creating layer lstm1_gate_input_4
I1018 00:13:47.149240 30341 net.cpp:84] Creating Layer lstm1_gate_input_4
I1018 00:13:47.149246 30341 net.cpp:406] lstm1_gate_input_4 <- W_hc_h_3
I1018 00:13:47.149252 30341 net.cpp:406] lstm1_gate_input_4 <- W_xc_x_4
I1018 00:13:47.149260 30341 net.cpp:380] lstm1_gate_input_4 -> gate_input_4
I1018 00:13:47.149291 30341 net.cpp:122] Setting up lstm1_gate_input_4
I1018 00:13:47.149297 30341 net.cpp:129] Top shape: 1 50 2048 (102400)
I1018 00:13:47.149302 30341 net.cpp:137] Memory required for data: 11676800
I1018 00:13:47.149312 30341 layer_factory.hpp:77] Creating layer lstm1_unit_4
I1018 00:13:47.149320 30341 net.cpp:84] Creating Layer lstm1_unit_4
I1018 00:13:47.149325 30341 net.cpp:406] lstm1_unit_4 <- c_3
I1018 00:13:47.149332 30341 net.cpp:406] lstm1_unit_4 <- gate_input_4
I1018 00:13:47.149336 30341 net.cpp:406] lstm1_unit_4 <- cont_4_lstm1_cont_slice_3_split_1
I1018 00:13:47.149345 30341 net.cpp:380] lstm1_unit_4 -> c_4
I1018 00:13:47.149358 30341 net.cpp:380] lstm1_unit_4 -> h_4
I1018 00:13:47.149423 30341 net.cpp:122] Setting up lstm1_unit_4
I1018 00:13:47.149435 30341 net.cpp:129] Top shape: 1 50 512 (25600)
I1018 00:13:47.149442 30341 net.cpp:129] Top shape: 1 50 512 (25600)
I1018 00:13:47.149448 30341 net.cpp:137] Memory required for data: 11881600
I1018 00:13:47.149454 30341 layer_factory.hpp:77] Creating layer lstm1_
I1018 00:13:47.149464 30341 net.cpp:84] Creating Layer lstm1_
I1018 00:13:47.149471 30341 net.cpp:406] lstm1_ <- c_4
I1018 00:13:47.149483 30341 net.cpp:380] lstm1_ -> c_T
I1018 00:13:47.149514 30341 net.cpp:122] Setting up lstm1_
I1018 00:13:47.149524 30341 net.cpp:129] Top shape: 1 50 512 (25600)
I1018 00:13:47.149531 30341 net.cpp:137] Memory required for data: 11984000
I1018 00:13:47.149538 30341 layer_factory.hpp:77] Creating layer lstm1_h_concat
I1018 00:13:47.149549 30341 net.cpp:84] Creating Layer lstm1_h_concat
I1018 00:13:47.149556 30341 net.cpp:406] lstm1_h_concat <- h_1_lstm1_unit_1_1_split_1
I1018 00:13:47.149564 30341 net.cpp:406] lstm1_h_concat <- h_2_lstm1_unit_2_1_split_1
I1018 00:13:47.149572 30341 net.cpp:406] lstm1_h_concat <- h_3_lstm1_unit_3_1_split_1
I1018 00:13:47.149580 30341 net.cpp:406] lstm1_h_concat <- h_4
I1018 00:13:47.149588 30341 net.cpp:380] lstm1_h_concat -> h
I1018 00:13:47.149638 30341 net.cpp:122] Setting up lstm1_h_concat
I1018 00:13:47.149651 30341 net.cpp:129] Top shape: 4 50 512 (102400)
I1018 00:13:47.149657 30341 net.cpp:137] Memory required for data: 12393600
I1018 00:13:47.149662 30341 layer_factory.hpp:77] Creating layer h_pseudoloss
I1018 00:13:47.149674 30341 net.cpp:84] Creating Layer h_pseudoloss
I1018 00:13:47.149682 30341 net.cpp:406] h_pseudoloss <- h
I1018 00:13:47.149690 30341 net.cpp:380] h_pseudoloss -> h_pseudoloss
I1018 00:13:47.150784 30341 net.cpp:122] Setting up h_pseudoloss
…
I1018 00:13:47.150974 30341 net.cpp:200] lstm1_ does not need backward computation.
I1018 00:13:47.150976 30341 net.cpp:242] This network produces output c_T
I1018 00:13:47.150981 30341 net.cpp:242] This network produces output h_pseudoloss
I1018 00:13:47.153924 30341 net.cpp:255] Network initialization done.
I1018 00:13:47.154021 30341 recurrent_layer.cpp:150] Adding parameter 0: W_xc
I1018 00:13:47.154029 30341 recurrent_layer.cpp:150] Adding parameter 1: b_c
I1018 00:13:47.154034 30341 recurrent_layer.cpp:150] Adding parameter 2: W_hc
I1018 00:13:47.154227 30341 net.cpp:122] Setting up lstm1
I1018 00:13:47.154240 30341 net.cpp:129] Top shape: 4 50 512 (102400)
I1018 00:13:47.154245 30341 net.cpp:137] Memory required for data: 9568976600
I1018 00:13:47.154263 30341 layer_factory.hpp:77] Creating layer lstm1-drop
I1018 00:13:47.154271 30341 net.cpp:84] Creating Layer lstm1-drop
I1018 00:13:47.154278 30341 net.cpp:406] lstm1-drop <- lstm1
I1018 00:13:47.154284 30341 net.cpp:380] lstm1-drop -> lstm1-drop
I1018 00:13:47.154327 30341 net.cpp:122] Setting up lstm1-drop
I1018 00:13:47.154336 30341 net.cpp:129] Top shape: 4 50 512 (102400)
I1018 00:13:47.154340 30341 net.cpp:137] Memory required for data: 9569386200
I1018 00:13:47.154345 30341 layer_factory.hpp:77] Creating layer fc-final
I1018 00:13:47.154353 30341 net.cpp:84] Creating Layer fc-final
I1018 00:13:47.154357 30341 net.cpp:406] fc-final <- lstm1-drop
I1018 00:13:47.154364 30341 net.cpp:380] fc-final -> fc-final
I1018 00:13:47.154685 30341 net.cpp:122] Setting up fc-final
I1018 00:13:47.154696 30341 net.cpp:129] Top shape: 4 50 10 (2000)
I1018 00:13:47.154700 30341 net.cpp:137] Memory required for data: 9569394200
I1018 00:13:47.154708 30341 layer_factory.hpp:77] Creating layer fc-final_fc-final_0_split
I1018 00:13:47.154714 30341 net.cpp:84] Creating Layer fc-final_fc-final_0_split
I1018 00:13:47.154719 30341 net.cpp:406] fc-final_fc-final_0_split <- fc-final
I1018 00:13:47.154726 30341 net.cpp:380] fc-final_fc-final_0_split -> fc-final_fc-final_0_split_0
I1018 00:13:47.154733 30341 net.cpp:380] fc-final_fc-final_0_split -> fc-final_fc-final_0_split_1
I1018 00:13:47.154774 30341 net.cpp:122] Setting up fc-final_fc-final_0_split
I1018 00:13:47.154781 30341 net.cpp:129] Top shape: 4 50 10 (2000)
I1018 00:13:47.154785 30341 net.cpp:129] Top shape: 4 50 10 (2000)
I1018 00:13:47.154789 30341 net.cpp:137] Memory required for data: 9569410200
I1018 00:13:47.154794 30341 layer_factory.hpp:77] Creating layer loss
I1018 00:13:47.154803 30341 net.cpp:84] Creating Layer loss
I1018 00:13:47.154806 30341 net.cpp:406] loss <- fc-final_fc-final_0_split_0
I1018 00:13:47.154812 30341 net.cpp:406] loss <- reshape-label_label_tran_0_split_0
I1018 00:13:47.154819 30341 net.cpp:380] loss -> loss
…
