…
I1017 12:03:34.351989 26593 net.cpp:294] The NetState phase (0) differed from the phase (1) specified by a rule in layer Silence
I1017 12:03:34.352232 26593 net.cpp:51] Initializing net from parameters: 
name: "VGG_16_layers_LSTM"
state {
  phase: TRAIN
  level: 0
  stage: ""
}
layer {
  name: "data"
  type: "ImageData"
  top: "data"
  top: "label"
  include {
    phase: TRAIN
  }
  transform_param {
    mirror: true
    crop_size: 288
    mean_value: 104
    mean_value: 117
    mean_value: 123
  }
  image_data_param {
    source: "../Data/lsun_train_list_12w.txt"
    batch_size: 4
    shuffle: true
    new_height: 320
    new_width: 320
  }
}
layer {
  name: "label_tran"
  type: "Python"
  bottom: "label"
  top: "reshape-label"
  top: "clip_markers"
  python_param {
    module: "data_preparation_sort_max_clip"
    layer: "ReshapeLabel"
  }
}
layer {
  name: "conv1_1"
  type: "Convolution"
  bottom: "data"
  top: "conv1_1"
  convolution_param {
    num_output: 64
    pad: 1
    kernel_size: 3
  }
}
layer {
  name: "relu1_1"
  type: "ReLU"
  bottom: "conv1_1"
  top: "conv1_1"
}
layer {
  name: "conv1_2"
  type: "Convolution"
  bottom: "conv1_1"
  top: "conv1_2"
  convolution_param {
    num_output: 64
    pad: 1
    kernel_size: 3
  }
}
layer {
  name: "relu1_2"
  type: "ReLU"
  bottom: "conv1_2"
  top: "conv1_2"
}
layer {
  name: "pool1"
  type: "Pooling"
  bottom: "conv1_2"
  top: "pool1"
  pooling_param {
    pool: MAX
    kernel_size: 2
    stride: 2
  }
}
layer {
  name: "conv2_1"
  type: "Convolution"
  bottom: "pool1"
  top: "conv2_1"
  convolution_param {
    num_output: 128
    pad: 1
    kernel_size: 3
  }
}
layer {
  name: "relu2_1"
  type: "ReLU"
  bottom: "conv2_1"
  top: "conv2_1"
}
layer {
  name: "conv2_2"
  type: "Convolution"
  bottom: "conv2_1"
  top: "conv2_2"
  convolution_param {
    num_output: 128
    pad: 1
    kernel_size: 3
  }
}
layer {
  name: "relu2_2"
  type: "ReLU"
  bottom: "conv2_2"
  top: "conv2_2"
}
layer {
  name: "pool2"
  type: "Pooling"
  bottom: "conv2_2"
  top: "pool2"
  pooling_param {
    pool: MAX
    kernel_size: 2
    stride: 2
  }
}
layer {
  name: "conv3_1"
  type: "Convolution"
  bottom: "pool2"
  top: "conv3_1"
  convolution_param {
    num_output: 256
    pad: 1
    kernel_size: 3
  }
}
layer {
  name: "relu3_1"
  type: "ReLU"
  bottom: "conv3_1"
  top: "conv3_1"
}
layer {
  name: "conv3_2"
  type: "Convolution"
  bottom: "conv3_1"
  top: "conv3_2"
  convolution_param {
    num_output: 256
    pad: 1
    kernel_size: 3
  }
}
layer {
  name: "relu3_2"
  type: "ReLU"
  bottom: "conv3_2"
  top: "conv3_2"
}
layer {
  name: "conv3_3"
  type: "Convolution"
  bottom: "conv3_2"
  top: "conv3_3"
  convolution_param {
    num_output: 256
    pad: 1
    kernel_size: 3
  }
}
layer {
  name: "relu3_3"
  type: "ReLU"
  bottom: "conv3_3"
  top: "conv3_3"
}
layer {
  name: "pool3"
  type: "Pooling"
  bottom: "conv3_3"
  top: "pool3"
  pooling_param {
    pool: MAX
    kernel_size: 2
    stride: 2
  }
}
layer {
  name: "conv4_1"
  type: "Convolution"
  bottom: "pool3"
  top: "conv4_1"
  convolution_param {
    num_output: 512
    pad: 1
    kernel_size: 3
  }
}
layer {
  name: "relu4_1"
  type: "ReLU"
  bottom: "conv4_1"
  top: "conv4_1"
}
layer {
  name: "conv4_2"
  type: "Convolution"
  bottom: "conv4_1"
  top: "conv4_2"
  convolution_param {
    num_output: 512
    pad: 1
    kernel_size: 3
  }
}
layer {
  name: "relu4_2"
  type: "ReLU"
  bottom: "conv4_2"
  top: "conv4_2"
}
layer {
  name: "conv4_3"
  type: "Convolution"
  bottom: "conv4_2"
  top: "conv4_3"
  convolution_param {
    num_output: 512
    pad: 1
    kernel_size: 3
  }
}
layer {
  name: "relu4_3"
  type: "ReLU"
  bottom: "conv4_3"
  top: "conv4_3"
}
layer {
  name: "pool4"
  type: "Pooling"
  bottom: "conv4_3"
  top: "pool4"
  pooling_param {
    pool: MAX
    kernel_size: 2
    stride: 2
  }
}
layer {
  name: "conv5_1"
  type: "Convolution"
  bottom: "pool4"
  top: "conv5_1"
  convolution_param {
    num_output: 512
    pad: 1
    kernel_size: 3
  }
}
layer {
  name: "relu5_1"
  type: "ReLU"
  bottom: "conv5_1"
  top: "conv5_1"
}
layer {
  name: "conv5_2"
  type: "Convolution"
  bottom: "conv5_1"
  top: "conv5_2"
  convolution_param {
    num_output: 512
    pad: 1
    kernel_size: 3
  }
}
layer {
  name: "relu5_2"
  type: "ReLU"
  bottom: "conv5_2"
  top: "conv5_2"
}
layer {
  name: "conv5_3"
  type: "Convolution"
  bottom: "conv5_2"
  top: "conv5_3"
  convolution_param {
    num_output: 512
    pad: 1
    kernel_size: 3
  }
}
layer {
  name: "relu5_3"
  type: "ReLU"
  bottom: "conv5_3"
  top: "conv5_3"
}
layer {
  name: "pool5"
  type: "Pooling"
  bottom: "conv5_3"
  top: "pool5"
  pooling_param {
    pool: MAX
    kernel_size: 2
    stride: 2
  }
}
layer {
  name: "fc6-conv"
  type: "Convolution"
  bottom: "pool5"
  top: "fc6-conv"
  convolution_param {
    num_output: 4096
    kernel_size: 7
  }
}
layer {
  name: "relu6"
  type: "ReLU"
  bottom: "fc6-conv"
  top: "fc6-conv"
}
layer {
  name: "drop6"
  type: "Dropout"
  bottom: "fc6-conv"
  top: "fc6-conv"
  dropout_param {
    dropout_ratio: 0.5
  }
}
layer {
  name: "fc7-conv"
  type: "Convolution"
  bottom: "fc6-conv"
  top: "fc7-conv"
  convolution_param {
    num_output: 4096
    kernel_size: 1
  }
}
layer {
  name: "relu7"
  type: "ReLU"
  bottom: "fc7-conv"
  top: "fc7-conv"
}
layer {
  name: "drop7"
  type: "Dropout"
  bottom: "fc7-conv"
  top: "fc7-conv"
  dropout_param {
    dropout_ratio: 0.9
  }
}
layer {
  name: "fc7-conv_re"
  type: "Reshape"
  bottom: "fc7-conv"
  top: "fc7-conv_re"
  reshape_param {
    shape {
      dim: 0
      dim: 0
      dim: -1
    }
  }
}
layer {
  name: "fc7-conv_tran"
  type: "Python"
  bottom: "fc7-conv_re"
  top: "fc7-conv_tran"
  python_param {
    module: "data_preparation_sort_max_clip"
    layer: "DataTransposeSortMaxClip"
  }
}
layer {
  name: "lstm1"
  type: "LSTM"
  bottom: "fc7-conv_tran"
  bottom: "clip_markers"
  top: "lstm1"
  recurrent_param {
    num_output: 512
    weight_filler {
      type: "uniform"
      min: -0.01
      max: 0.01
    }
    bias_filler {
      type: "constant"
      value: 0
    }
  }
}
layer {
  name: "lstm1-drop"
  type: "Dropout"
  bottom: "lstm1"
  top: "lstm1-drop"
  dropout_param {
    dropout_ratio: 0.5
  }
}
layer {
  name: "fc-final"
  type: "InnerProduct"
  bottom: "lstm1-drop"
  top: "fc-final"
  param {
    lr_mult: 1
    decay_mult: 1
  }
  param {
    lr_mult: 2
    decay_mult: 0
  }
  inner_product_param {
    num_output: 10
    weight_filler {
      type: "gaussian"
      std: 0.01
    }
    bias_filler {
      type: "constant"
      value: 0
    }
    axis: 2
  }
}
layer {
  name: "loss"
  type: "SoftmaxWithLoss"
  bottom: "fc-final"
  bottom: "reshape-label"
  top: "loss"
  softmax_param {
    axis: 2
  }
}
layer {
  name: "accuracy"
  type: "Accuracy"
  bottom: "fc-final"
  bottom: "reshape-label"
  top: "accuracy"
  accuracy_param {
    axis: 2
  }
}
I1017 12:03:34.352483 26593 layer_factory.hpp:77] Creating layer data
I1017 12:03:34.352536 26593 net.cpp:84] Creating Layer data
I1017 12:03:34.352551 26593 net.cpp:380] data -> data
I1017 12:03:34.352594 26593 net.cpp:380] data -> label
I1017 12:03:34.352629 26593 image_data_layer.cpp:38] Opening file ../Data/lsun_train_list_12w.txt
I1017 12:03:35.126571 26593 image_data_layer.cpp:53] Shuffling data
I1017 12:03:35.528882 26593 image_data_layer.cpp:63] A total of 1200000 images.
I1017 12:03:35.540335 26593 image_data_layer.cpp:90] output data size: 4,3,288,288
I1017 12:03:35.556583 26593 net.cpp:122] Setting up data
I1017 12:03:35.556637 26593 net.cpp:129] Top shape: 4 3 288 288 (995328)
I1017 12:03:35.556645 26593 net.cpp:129] Top shape: 4 (4)
I1017 12:03:35.556650 26593 net.cpp:137] Memory required for data: 3981328
I1017 12:03:35.556675 26593 layer_factory.hpp:77] Creating layer label_tran
I1017 12:03:36.263324 26593 net.cpp:84] Creating Layer label_tran
I1017 12:03:36.263361 26593 net.cpp:406] label_tran <- label
I1017 12:03:36.263382 26593 net.cpp:380] label_tran -> reshape-label
I1017 12:03:36.263396 26593 net.cpp:380] label_tran -> clip_markers
I1017 12:03:36.263561 26593 net.cpp:122] Setting up label_tran
I1017 12:03:36.263581 26593 net.cpp:129] Top shape: 4 4 (16)
I1017 12:03:36.263586 26593 net.cpp:129] Top shape: 4 4 (16)
I1017 12:03:36.263590 26593 net.cpp:137] Memory required for data: 3981456
I1017 12:03:36.263595 26593 layer_factory.hpp:77] Creating layer reshape-label_label_tran_0_split
I1017 12:03:36.263617 26593 net.cpp:84] Creating Layer reshape-label_label_tran_0_split
I1017 12:03:36.263625 26593 net.cpp:406] reshape-label_label_tran_0_split <- reshape-label
I1017 12:03:36.263633 26593 net.cpp:380] reshape-label_label_tran_0_split -> reshape-label_label_tran_0_split_0
I1017 12:03:36.263640 26593 net.cpp:380] reshape-label_label_tran_0_split -> reshape-label_label_tran_0_split_1
I1017 12:03:36.263677 26593 net.cpp:122] Setting up reshape-label_label_tran_0_split
I1017 12:03:36.263685 26593 net.cpp:129] Top shape: 4 4 (16)
I1017 12:03:36.263690 26593 net.cpp:129] Top shape: 4 4 (16)
I1017 12:03:36.263695 26593 net.cpp:137] Memory required for data: 3981584
I1017 12:03:36.263700 26593 layer_factory.hpp:77] Creating layer conv1_1
I1017 12:03:36.263725 26593 net.cpp:84] Creating Layer conv1_1
I1017 12:03:36.263730 26593 net.cpp:406] conv1_1 <- data
I1017 12:03:36.263736 26593 net.cpp:380] conv1_1 -> conv1_1
I1017 12:03:36.265689 26593 net.cpp:122] Setting up conv1_1
I1017 12:03:36.265710 26593 net.cpp:129] Top shape: 4 64 288 288 (21233664)
I1017 12:03:36.265715 26593 net.cpp:137] Memory required for data: 88916240
I1017 12:03:36.265741 26593 layer_factory.hpp:77] Creating layer relu1_1
I1017 12:03:36.265753 26593 net.cpp:84] Creating Layer relu1_1
I1017 12:03:36.265758 26593 net.cpp:406] relu1_1 <- conv1_1
I1017 12:03:36.265763 26593 net.cpp:367] relu1_1 -> conv1_1 (in-place)
I1017 12:03:36.265776 26593 net.cpp:122] Setting up relu1_1
I1017 12:03:36.265782 26593 net.cpp:129] Top shape: 4 64 288 288 (21233664)
I1017 12:03:36.265786 26593 net.cpp:137] Memory required for data: 173850896
I1017 12:03:36.265791 26593 layer_factory.hpp:77] Creating layer conv1_2
I1017 12:03:36.265799 26593 net.cpp:84] Creating Layer conv1_2
I1017 12:03:36.265803 26593 net.cpp:406] conv1_2 <- conv1_1
I1017 12:03:36.265810 26593 net.cpp:380] conv1_2 -> conv1_2
I1017 12:03:36.266839 26593 net.cpp:122] Setting up conv1_2
I1017 12:03:36.266856 26593 net.cpp:129] Top shape: 4 64 288 288 (21233664)
I1017 12:03:36.266861 26593 net.cpp:137] Memory required for data: 258785552
I1017 12:03:36.266875 26593 layer_factory.hpp:77] Creating layer relu1_2
I1017 12:03:36.266885 26593 net.cpp:84] Creating Layer relu1_2
I1017 12:03:36.266890 26593 net.cpp:406] relu1_2 <- conv1_2
I1017 12:03:36.266896 26593 net.cpp:367] relu1_2 -> conv1_2 (in-place)
I1017 12:03:36.266903 26593 net.cpp:122] Setting up relu1_2
I1017 12:03:36.266908 26593 net.cpp:129] Top shape: 4 64 288 288 (21233664)
I1017 12:03:36.266912 26593 net.cpp:137] Memory required for data: 343720208
I1017 12:03:36.266916 26593 layer_factory.hpp:77] Creating layer pool1
I1017 12:03:36.266934 26593 net.cpp:84] Creating Layer pool1
I1017 12:03:36.266940 26593 net.cpp:406] pool1 <- conv1_2
I1017 12:03:36.266947 26593 net.cpp:380] pool1 -> pool1
I1017 12:03:36.266999 26593 net.cpp:122] Setting up pool1
I1017 12:03:36.267006 26593 net.cpp:129] Top shape: 4 64 144 144 (5308416)
I1017 12:03:36.267010 26593 net.cpp:137] Memory required for data: 364953872
I1017 12:03:36.267015 26593 layer_factory.hpp:77] Creating layer conv2_1
I1017 12:03:36.267025 26593 net.cpp:84] Creating Layer conv2_1
I1017 12:03:36.267030 26593 net.cpp:406] conv2_1 <- pool1
I1017 12:03:36.267036 26593 net.cpp:380] conv2_1 -> conv2_1
I1017 12:03:36.267287 26593 net.cpp:122] Setting up conv2_1
I1017 12:03:36.267298 26593 net.cpp:129] Top shape: 4 128 144 144 (10616832)
I1017 12:03:36.267302 26593 net.cpp:137] Memory required for data: 407421200
I1017 12:03:36.267313 26593 layer_factory.hpp:77] Creating layer relu2_1
I1017 12:03:36.267319 26593 net.cpp:84] Creating Layer relu2_1
I1017 12:03:36.267324 26593 net.cpp:406] relu2_1 <- conv2_1
I1017 12:03:36.267330 26593 net.cpp:367] relu2_1 -> conv2_1 (in-place)
I1017 12:03:36.267338 26593 net.cpp:122] Setting up relu2_1
I1017 12:03:36.267343 26593 net.cpp:129] Top shape: 4 128 144 144 (10616832)
I1017 12:03:36.267346 26593 net.cpp:137] Memory required for data: 449888528
I1017 12:03:36.267350 26593 layer_factory.hpp:77] Creating layer conv2_2
I1017 12:03:36.267360 26593 net.cpp:84] Creating Layer conv2_2
I1017 12:03:36.267364 26593 net.cpp:406] conv2_2 <- conv2_1
I1017 12:03:36.267370 26593 net.cpp:380] conv2_2 -> conv2_2
I1017 12:03:36.268436 26593 net.cpp:122] Setting up conv2_2
I1017 12:03:36.268453 26593 net.cpp:129] Top shape: 4 128 144 144 (10616832)
I1017 12:03:36.268458 26593 net.cpp:137] Memory required for data: 492355856
I1017 12:03:36.268465 26593 layer_factory.hpp:77] Creating layer relu2_2
I1017 12:03:36.268472 26593 net.cpp:84] Creating Layer relu2_2
I1017 12:03:36.268482 26593 net.cpp:406] relu2_2 <- conv2_2
I1017 12:03:36.268489 26593 net.cpp:367] relu2_2 -> conv2_2 (in-place)
I1017 12:03:36.268497 26593 net.cpp:122] Setting up relu2_2
I1017 12:03:36.268502 26593 net.cpp:129] Top shape: 4 128 144 144 (10616832)
I1017 12:03:36.268507 26593 net.cpp:137] Memory required for data: 534823184
I1017 12:03:36.268512 26593 layer_factory.hpp:77] Creating layer pool2
I1017 12:03:36.268519 26593 net.cpp:84] Creating Layer pool2
I1017 12:03:36.268523 26593 net.cpp:406] pool2 <- conv2_2
I1017 12:03:36.268529 26593 net.cpp:380] pool2 -> pool2
I1017 12:03:36.268564 26593 net.cpp:122] Setting up pool2
I1017 12:03:36.268571 26593 net.cpp:129] Top shape: 4 128 72 72 (2654208)
I1017 12:03:36.268575 26593 net.cpp:137] Memory required for data: 545440016
I1017 12:03:36.268579 26593 layer_factory.hpp:77] Creating layer conv3_1
I1017 12:03:36.268587 26593 net.cpp:84] Creating Layer conv3_1
I1017 12:03:36.268592 26593 net.cpp:406] conv3_1 <- pool2
I1017 12:03:36.268599 26593 net.cpp:380] conv3_1 -> conv3_1
I1017 12:03:36.270493 26593 net.cpp:122] Setting up conv3_1
I1017 12:03:36.270509 26593 net.cpp:129] Top shape: 4 256 72 72 (5308416)
I1017 12:03:36.270514 26593 net.cpp:137] Memory required for data: 566673680
I1017 12:03:36.270526 26593 layer_factory.hpp:77] Creating layer relu3_1
I1017 12:03:36.270534 26593 net.cpp:84] Creating Layer relu3_1
I1017 12:03:36.270540 26593 net.cpp:406] relu3_1 <- conv3_1
I1017 12:03:36.270546 26593 net.cpp:367] relu3_1 -> conv3_1 (in-place)
I1017 12:03:36.270555 26593 net.cpp:122] Setting up relu3_1
I1017 12:03:36.270560 26593 net.cpp:129] Top shape: 4 256 72 72 (5308416)
I1017 12:03:36.270565 26593 net.cpp:137] Memory required for data: 587907344
I1017 12:03:36.270568 26593 layer_factory.hpp:77] Creating layer conv3_2
I1017 12:03:36.270576 26593 net.cpp:84] Creating Layer conv3_2
I1017 12:03:36.270581 26593 net.cpp:406] conv3_2 <- conv3_1
I1017 12:03:36.270586 26593 net.cpp:380] conv3_2 -> conv3_2
I1017 12:03:36.272469 26593 net.cpp:122] Setting up conv3_2
I1017 12:03:36.272490 26593 net.cpp:129] Top shape: 4 256 72 72 (5308416)
I1017 12:03:36.272495 26593 net.cpp:137] Memory required for data: 609141008
I1017 12:03:36.272506 26593 layer_factory.hpp:77] Creating layer relu3_2
I1017 12:03:36.272517 26593 net.cpp:84] Creating Layer relu3_2
I1017 12:03:36.272521 26593 net.cpp:406] relu3_2 <- conv3_2
I1017 12:03:36.272528 26593 net.cpp:367] relu3_2 -> conv3_2 (in-place)
I1017 12:03:36.272536 26593 net.cpp:122] Setting up relu3_2
I1017 12:03:36.272542 26593 net.cpp:129] Top shape: 4 256 72 72 (5308416)
I1017 12:03:36.272547 26593 net.cpp:137] Memory required for data: 630374672
I1017 12:03:36.272549 26593 layer_factory.hpp:77] Creating layer conv3_3
I1017 12:03:36.272559 26593 net.cpp:84] Creating Layer conv3_3
I1017 12:03:36.272564 26593 net.cpp:406] conv3_3 <- conv3_2
I1017 12:03:36.272570 26593 net.cpp:380] conv3_3 -> conv3_3
I1017 12:03:36.274396 26593 net.cpp:122] Setting up conv3_3
I1017 12:03:36.274412 26593 net.cpp:129] Top shape: 4 256 72 72 (5308416)
I1017 12:03:36.274416 26593 net.cpp:137] Memory required for data: 651608336
I1017 12:03:36.274425 26593 layer_factory.hpp:77] Creating layer relu3_3
I1017 12:03:36.274432 26593 net.cpp:84] Creating Layer relu3_3
I1017 12:03:36.274438 26593 net.cpp:406] relu3_3 <- conv3_3
I1017 12:03:36.274446 26593 net.cpp:367] relu3_3 -> conv3_3 (in-place)
I1017 12:03:36.274452 26593 net.cpp:122] Setting up relu3_3
I1017 12:03:36.274457 26593 net.cpp:129] Top shape: 4 256 72 72 (5308416)
I1017 12:03:36.274461 26593 net.cpp:137] Memory required for data: 672842000
I1017 12:03:36.274466 26593 layer_factory.hpp:77] Creating layer pool3
I1017 12:03:36.274473 26593 net.cpp:84] Creating Layer pool3
I1017 12:03:36.274478 26593 net.cpp:406] pool3 <- conv3_3
I1017 12:03:36.274483 26593 net.cpp:380] pool3 -> pool3
I1017 12:03:36.274521 26593 net.cpp:122] Setting up pool3
I1017 12:03:36.274528 26593 net.cpp:129] Top shape: 4 256 36 36 (1327104)
I1017 12:03:36.274533 26593 net.cpp:137] Memory required for data: 678150416
I1017 12:03:36.274538 26593 layer_factory.hpp:77] Creating layer conv4_1
I1017 12:03:36.274545 26593 net.cpp:84] Creating Layer conv4_1
I1017 12:03:36.274549 26593 net.cpp:406] conv4_1 <- pool3
I1017 12:03:36.274557 26593 net.cpp:380] conv4_1 -> conv4_1
I1017 12:03:36.278414 26593 net.cpp:122] Setting up conv4_1
I1017 12:03:36.278431 26593 net.cpp:129] Top shape: 4 512 36 36 (2654208)
I1017 12:03:36.278436 26593 net.cpp:137] Memory required for data: 688767248
I1017 12:03:36.278445 26593 layer_factory.hpp:77] Creating layer relu4_1
I1017 12:03:36.278452 26593 net.cpp:84] Creating Layer relu4_1
I1017 12:03:36.278457 26593 net.cpp:406] relu4_1 <- conv4_1
I1017 12:03:36.278463 26593 net.cpp:367] relu4_1 -> conv4_1 (in-place)
I1017 12:03:36.278470 26593 net.cpp:122] Setting up relu4_1
I1017 12:03:36.278476 26593 net.cpp:129] Top shape: 4 512 36 36 (2654208)
I1017 12:03:36.278481 26593 net.cpp:137] Memory required for data: 699384080
I1017 12:03:36.278484 26593 layer_factory.hpp:77] Creating layer conv4_2
I1017 12:03:36.278493 26593 net.cpp:84] Creating Layer conv4_2
I1017 12:03:36.278497 26593 net.cpp:406] conv4_2 <- conv4_1
I1017 12:03:36.278503 26593 net.cpp:380] conv4_2 -> conv4_2
I1017 12:03:36.284236 26593 net.cpp:122] Setting up conv4_2
I1017 12:03:36.284253 26593 net.cpp:129] Top shape: 4 512 36 36 (2654208)
I1017 12:03:36.284258 26593 net.cpp:137] Memory required for data: 710000912
I1017 12:03:36.284272 26593 layer_factory.hpp:77] Creating layer relu4_2
I1017 12:03:36.284279 26593 net.cpp:84] Creating Layer relu4_2
I1017 12:03:36.284284 26593 net.cpp:406] relu4_2 <- conv4_2
I1017 12:03:36.284291 26593 net.cpp:367] relu4_2 -> conv4_2 (in-place)
I1017 12:03:36.284298 26593 net.cpp:122] Setting up relu4_2
I1017 12:03:36.284303 26593 net.cpp:129] Top shape: 4 512 36 36 (2654208)
I1017 12:03:36.284312 26593 net.cpp:137] Memory required for data: 720617744
I1017 12:03:36.284317 26593 layer_factory.hpp:77] Creating layer conv4_3
I1017 12:03:36.284327 26593 net.cpp:84] Creating Layer conv4_3
I1017 12:03:36.284332 26593 net.cpp:406] conv4_3 <- conv4_2
I1017 12:03:36.284337 26593 net.cpp:380] conv4_3 -> conv4_3
I1017 12:03:36.290071 26593 net.cpp:122] Setting up conv4_3
I1017 12:03:36.290087 26593 net.cpp:129] Top shape: 4 512 36 36 (2654208)
I1017 12:03:36.290092 26593 net.cpp:137] Memory required for data: 731234576
I1017 12:03:36.290102 26593 layer_factory.hpp:77] Creating layer relu4_3
I1017 12:03:36.290113 26593 net.cpp:84] Creating Layer relu4_3
I1017 12:03:36.290118 26593 net.cpp:406] relu4_3 <- conv4_3
I1017 12:03:36.290124 26593 net.cpp:367] relu4_3 -> conv4_3 (in-place)
I1017 12:03:36.290132 26593 net.cpp:122] Setting up relu4_3
I1017 12:03:36.290138 26593 net.cpp:129] Top shape: 4 512 36 36 (2654208)
I1017 12:03:36.290141 26593 net.cpp:137] Memory required for data: 741851408
I1017 12:03:36.290145 26593 layer_factory.hpp:77] Creating layer pool4
I1017 12:03:36.290154 26593 net.cpp:84] Creating Layer pool4
I1017 12:03:36.290158 26593 net.cpp:406] pool4 <- conv4_3
I1017 12:03:36.290164 26593 net.cpp:380] pool4 -> pool4
I1017 12:03:36.290205 26593 net.cpp:122] Setting up pool4
I1017 12:03:36.290211 26593 net.cpp:129] Top shape: 4 512 18 18 (663552)
I1017 12:03:36.290215 26593 net.cpp:137] Memory required for data: 744505616
I1017 12:03:36.290220 26593 layer_factory.hpp:77] Creating layer conv5_1
I1017 12:03:36.290226 26593 net.cpp:84] Creating Layer conv5_1
I1017 12:03:36.290231 26593 net.cpp:406] conv5_1 <- pool4
I1017 12:03:36.290240 26593 net.cpp:380] conv5_1 -> conv5_1
I1017 12:03:36.305469 26593 net.cpp:122] Setting up conv5_1
I1017 12:03:36.305498 26593 net.cpp:129] Top shape: 4 512 18 18 (663552)
I1017 12:03:36.305503 26593 net.cpp:137] Memory required for data: 747159824
I1017 12:03:36.305515 26593 layer_factory.hpp:77] Creating layer relu5_1
I1017 12:03:36.305526 26593 net.cpp:84] Creating Layer relu5_1
I1017 12:03:36.305531 26593 net.cpp:406] relu5_1 <- conv5_1
I1017 12:03:36.305582 26593 net.cpp:367] relu5_1 -> conv5_1 (in-place)
I1017 12:03:36.305696 26593 net.cpp:122] Setting up relu5_1
I1017 12:03:36.305775 26593 net.cpp:129] Top shape: 4 512 18 18 (663552)
I1017 12:03:36.305809 26593 net.cpp:137] Memory required for data: 749814032
I1017 12:03:36.305846 26593 layer_factory.hpp:77] Creating layer conv5_2
I1017 12:03:36.305994 26593 net.cpp:84] Creating Layer conv5_2
I1017 12:03:36.306026 26593 net.cpp:406] conv5_2 <- conv5_1
I1017 12:03:36.306118 26593 net.cpp:380] conv5_2 -> conv5_2
I1017 12:03:36.318688 26593 net.cpp:122] Setting up conv5_2
I1017 12:03:36.318732 26593 net.cpp:129] Top shape: 4 512 18 18 (663552)
I1017 12:03:36.318737 26593 net.cpp:137] Memory required for data: 752468240
I1017 12:03:36.318748 26593 layer_factory.hpp:77] Creating layer relu5_2
I1017 12:03:36.318763 26593 net.cpp:84] Creating Layer relu5_2
I1017 12:03:36.318769 26593 net.cpp:406] relu5_2 <- conv5_2
I1017 12:03:36.318779 26593 net.cpp:367] relu5_2 -> conv5_2 (in-place)
I1017 12:03:36.318791 26593 net.cpp:122] Setting up relu5_2
I1017 12:03:36.318797 26593 net.cpp:129] Top shape: 4 512 18 18 (663552)
I1017 12:03:36.318801 26593 net.cpp:137] Memory required for data: 755122448
I1017 12:03:36.318805 26593 layer_factory.hpp:77] Creating layer conv5_3
I1017 12:03:36.318814 26593 net.cpp:84] Creating Layer conv5_3
I1017 12:03:36.318819 26593 net.cpp:406] conv5_3 <- conv5_2
I1017 12:03:36.318826 26593 net.cpp:380] conv5_3 -> conv5_3
I1017 12:03:36.325613 26593 net.cpp:122] Setting up conv5_3
I1017 12:03:36.325650 26593 net.cpp:129] Top shape: 4 512 18 18 (663552)
I1017 12:03:36.325655 26593 net.cpp:137] Memory required for data: 757776656
I1017 12:03:36.325667 26593 layer_factory.hpp:77] Creating layer relu5_3
I1017 12:03:36.325690 26593 net.cpp:84] Creating Layer relu5_3
I1017 12:03:36.325697 26593 net.cpp:406] relu5_3 <- conv5_3
I1017 12:03:36.325709 26593 net.cpp:367] relu5_3 -> conv5_3 (in-place)
I1017 12:03:36.325721 26593 net.cpp:122] Setting up relu5_3
I1017 12:03:36.325726 26593 net.cpp:129] Top shape: 4 512 18 18 (663552)
I1017 12:03:36.325731 26593 net.cpp:137] Memory required for data: 760430864
I1017 12:03:36.325734 26593 layer_factory.hpp:77] Creating layer pool5
I1017 12:03:36.325743 26593 net.cpp:84] Creating Layer pool5
I1017 12:03:36.325747 26593 net.cpp:406] pool5 <- conv5_3
I1017 12:03:36.325753 26593 net.cpp:380] pool5 -> pool5
I1017 12:03:36.325798 26593 net.cpp:122] Setting up pool5
I1017 12:03:36.325806 26593 net.cpp:129] Top shape: 4 512 9 9 (165888)
I1017 12:03:36.325810 26593 net.cpp:137] Memory required for data: 761094416
I1017 12:03:36.325814 26593 layer_factory.hpp:77] Creating layer fc6-conv
I1017 12:03:36.325824 26593 net.cpp:84] Creating Layer fc6-conv
I1017 12:03:36.325829 26593 net.cpp:406] fc6-conv <- pool5
I1017 12:03:36.325836 26593 net.cpp:380] fc6-conv -> fc6-conv
I1017 12:03:36.621314 26593 net.cpp:122] Setting up fc6-conv
I1017 12:03:36.621361 26593 net.cpp:129] Top shape: 4 4096 3 3 (147456)
I1017 12:03:36.621366 26593 net.cpp:137] Memory required for data: 761684240
I1017 12:03:36.621379 26593 layer_factory.hpp:77] Creating layer relu6
I1017 12:03:36.621395 26593 net.cpp:84] Creating Layer relu6
I1017 12:03:36.621402 26593 net.cpp:406] relu6 <- fc6-conv
I1017 12:03:36.621412 26593 net.cpp:367] relu6 -> fc6-conv (in-place)
I1017 12:03:36.621423 26593 net.cpp:122] Setting up relu6
I1017 12:03:36.621429 26593 net.cpp:129] Top shape: 4 4096 3 3 (147456)
I1017 12:03:36.621433 26593 net.cpp:137] Memory required for data: 762274064
I1017 12:03:36.621438 26593 layer_factory.hpp:77] Creating layer drop6
I1017 12:03:36.621451 26593 net.cpp:84] Creating Layer drop6
I1017 12:03:36.621462 26593 net.cpp:406] drop6 <- fc6-conv
I1017 12:03:36.621469 26593 net.cpp:367] drop6 -> fc6-conv (in-place)
I1017 12:03:36.621500 26593 net.cpp:122] Setting up drop6
I1017 12:03:36.621506 26593 net.cpp:129] Top shape: 4 4096 3 3 (147456)
I1017 12:03:36.621510 26593 net.cpp:137] Memory required for data: 762863888
I1017 12:03:36.621515 26593 layer_factory.hpp:77] Creating layer fc7-conv
I1017 12:03:36.621526 26593 net.cpp:84] Creating Layer fc7-conv
I1017 12:03:36.621531 26593 net.cpp:406] fc7-conv <- fc6-conv
I1017 12:03:36.621536 26593 net.cpp:380] fc7-conv -> fc7-conv
I1017 12:03:36.698107 26593 net.cpp:122] Setting up fc7-conv
I1017 12:03:36.698164 26593 net.cpp:129] Top shape: 4 4096 3 3 (147456)
I1017 12:03:36.698169 26593 net.cpp:137] Memory required for data: 763453712
I1017 12:03:36.698185 26593 layer_factory.hpp:77] Creating layer relu7
I1017 12:03:36.698197 26593 net.cpp:84] Creating Layer relu7
I1017 12:03:36.698204 26593 net.cpp:406] relu7 <- fc7-conv
I1017 12:03:36.698211 26593 net.cpp:367] relu7 -> fc7-conv (in-place)
I1017 12:03:36.698236 26593 net.cpp:122] Setting up relu7
I1017 12:03:36.698242 26593 net.cpp:129] Top shape: 4 4096 3 3 (147456)
I1017 12:03:36.698246 26593 net.cpp:137] Memory required for data: 764043536
I1017 12:03:36.698251 26593 layer_factory.hpp:77] Creating layer drop7
I1017 12:03:36.698259 26593 net.cpp:84] Creating Layer drop7
I1017 12:03:36.698263 26593 net.cpp:406] drop7 <- fc7-conv
I1017 12:03:36.698271 26593 net.cpp:367] drop7 -> fc7-conv (in-place)
I1017 12:03:36.698298 26593 net.cpp:122] Setting up drop7
I1017 12:03:36.698308 26593 net.cpp:129] Top shape: 4 4096 3 3 (147456)
I1017 12:03:36.698315 26593 net.cpp:137] Memory required for data: 764633360
I1017 12:03:36.698319 26593 layer_factory.hpp:77] Creating layer fc7-conv_re
I1017 12:03:36.698334 26593 net.cpp:84] Creating Layer fc7-conv_re
I1017 12:03:36.698340 26593 net.cpp:406] fc7-conv_re <- fc7-conv
I1017 12:03:36.698346 26593 net.cpp:380] fc7-conv_re -> fc7-conv_re
I1017 12:03:36.698387 26593 net.cpp:122] Setting up fc7-conv_re
I1017 12:03:36.698396 26593 net.cpp:129] Top shape: 4 4096 9 (147456)
I1017 12:03:36.698400 26593 net.cpp:137] Memory required for data: 765223184
I1017 12:03:36.698405 26593 layer_factory.hpp:77] Creating layer fc7-conv_tran
I1017 12:03:36.698479 26593 net.cpp:84] Creating Layer fc7-conv_tran
I1017 12:03:36.698488 26593 net.cpp:406] fc7-conv_tran <- fc7-conv_re
I1017 12:03:36.698495 26593 net.cpp:380] fc7-conv_tran -> fc7-conv_tran
I1017 12:03:36.699550 26593 net.cpp:122] Setting up fc7-conv_tran
I1017 12:03:36.699566 26593 net.cpp:129] Top shape: 4 4 9 (144)
I1017 12:03:36.699570 26593 net.cpp:137] Memory required for data: 765223760
I1017 12:03:36.699575 26593 layer_factory.hpp:77] Creating layer lstm1
I1017 12:03:36.699594 26593 net.cpp:84] Creating Layer lstm1
I1017 12:03:36.699599 26593 net.cpp:406] lstm1 <- fc7-conv_tran
I1017 12:03:36.699605 26593 net.cpp:406] lstm1 <- clip_markers
I1017 12:03:36.699615 26593 net.cpp:380] lstm1 -> lstm1
I1017 12:03:36.699631 26593 recurrent_layer.cpp:20] Initializing recurrent layer: assuming input batch contains 4 timesteps of 4 independent streams.
I1017 12:03:36.700099 26593 net.cpp:51] Initializing net from parameters: 
layer {
  name: "lstm1_"
  type: "Input"
  top: "x"
  top: "cont"
  input_param {
    shape {
      dim: 4
      dim: 4
      dim: 9
    }
    shape {
      dim: 4
      dim: 4
    }
  }
}
layer {
  name: "lstm1_"
  type: "Input"
  top: "c_0"
  top: "h_0"
  input_param {
    shape {
      dim: 1
      dim: 4
      dim: 512
    }
    shape {
      dim: 1
      dim: 4
      dim: 512
    }
  }
}
layer {
  name: "lstm1_cont_slice"
  type: "Slice"
  bottom: "cont"
  top: "cont_1"
  top: "cont_2"
  top: "cont_3"
  top: "cont_4"
  slice_param {
    axis: 0
  }
}
layer {
  name: "lstm1_x_transform"
  type: "InnerProduct"
  bottom: "x"
  top: "W_xc_x"
  param {
    name: "W_xc"
  }
  param {
    name: "b_c"
  }
  propagate_down: true
  inner_product_param {
    num_output: 2048
    bias_term: true
    weight_filler {
      type: "uniform"
      min: -0.01
      max: 0.01
    }
    bias_filler {
      type: "constant"
      value: 0
    }
    axis: 2
  }
}
layer {
  name: "lstm1_W_xc_x_slice"
  type: "Slice"
  bottom: "W_xc_x"
  top: "W_xc_x_1"
  top: "W_xc_x_2"
  top: "W_xc_x_3"
  top: "W_xc_x_4"
  slice_param {
    axis: 0
  }
}
layer {
  name: "lstm1_h_conted_0"
  type: "Scale"
  bottom: "h_0"
  bottom: "cont_1"
  top: "h_conted_0"
  scale_param {
    axis: 0
  }
}
layer {
  name: "lstm1_transform_1"
  type: "InnerProduct"
  bottom: "h_conted_0"
  top: "W_hc_h_0"
  param {
    name: "W_hc"
  }
  inner_product_param {
    num_output: 2048
    bias_term: false
    weight_filler {
      type: "uniform"
      min: -0.01
      max: 0.01
    }
    axis: 2
  }
}
layer {
  name: "lstm1_gate_input_1"
  type: "Eltwise"
  bottom: "W_hc_h_0"
  bottom: "W_xc_x_1"
  top: "gate_input_1"
  eltwise_param {
    operation: SUM
  }
}
layer {
  name: "lstm1_unit_1"
  type: "LSTMUnit"
  bottom: "c_0"
  bottom: "gate_input_1"
  bottom: "cont_1"
  top: "c_1"
  top: "h_1"
}
layer {
  name: "lstm1_h_conted_1"
  type: "Scale"
  bottom: "h_1"
  bottom: "cont_2"
  top: "h_conted_1"
  scale_param {
    axis: 0
  }
}
layer {
  name: "lstm1_transform_2"
  type: "InnerProduct"
  bottom: "h_conted_1"
  top: "W_hc_h_1"
  param {
    name: "W_hc"
  }
  inner_product_param {
    num_output: 2048
    bias_term: false
    weight_filler {
      type: "uniform"
      min: -0.01
      max: 0.01
    }
    axis: 2
  }
}
layer {
  name: "lstm1_gate_input_2"
  type: "Eltwise"
  bottom: "W_hc_h_1"
  bottom: "W_xc_x_2"
  top: "gate_input_2"
  eltwise_param {
    operation: SUM
  }
}
layer {
  name: "lstm1_unit_2"
  type: "LSTMUnit"
  bottom: "c_1"
  bottom: "gate_input_2"
  bottom: "cont_2"
  top: "c_2"
  top: "h_2"
}
layer {
  name: "lstm1_h_conted_2"
  type: "Scale"
  bottom: "h_2"
  bottom: "cont_3"
  top: "h_conted_2"
  scale_param {
    axis: 0
  }
}
layer {
  name: "lstm1_transform_3"
  type: "InnerProduct"
  bottom: "h_conted_2"
  top: "W_hc_h_2"
  param {
    name: "W_hc"
  }
  inner_product_param {
    num_output: 2048
    bias_term: false
    weight_filler {
      type: "uniform"
      min: -0.01
      max: 0.01
    }
    axis: 2
  }
}
layer {
  name: "lstm1_gate_input_3"
  type: "Eltwise"
  bottom: "W_hc_h_2"
  bottom: "W_xc_x_3"
  top: "gate_input_3"
  eltwise_param {
    operation: SUM
  }
}
layer {
  name: "lstm1_unit_3"
  type: "LSTMUnit"
  bottom: "c_2"
  bottom: "gate_input_3"
  bottom: "cont_3"
  top: "c_3"
  top: "h_3"
}
layer {
  name: "lstm1_h_conted_3"
  type: "Scale"
  bottom: "h_3"
  bottom: "cont_4"
  top: "h_conted_3"
  scale_param {
    axis: 0
  }
}
layer {
  name: "lstm1_transform_4"
  type: "InnerProduct"
  bottom: "h_conted_3"
  top: "W_hc_h_3"
  param {
    name: "W_hc"
  }
  inner_product_param {
    num_output: 2048
    bias_term: false
    weight_filler {
      type: "uniform"
      min: -0.01
      max: 0.01
    }
    axis: 2
  }
}
layer {
  name: "lstm1_gate_input_4"
  type: "Eltwise"
  bottom: "W_hc_h_3"
  bottom: "W_xc_x_4"
  top: "gate_input_4"
  eltwise_param {
    operation: SUM
  }
}
layer {
  name: "lstm1_unit_4"
  type: "LSTMUnit"
  bottom: "c_3"
  bottom: "gate_input_4"
  bottom: "cont_4"
  top: "c_4"
  top: "h_4"
}
layer {
  name: "lstm1_"
  type: "Split"
  bottom: "c_4"
  top: "c_T"
}
layer {
  name: "lstm1_h_concat"
  type: "Concat"
  bottom: "h_1"
  bottom: "h_2"
  bottom: "h_3"
  bottom: "h_4"
  top: "h"
  concat_param {
    axis: 0
  }
}
layer {
  name: "h_pseudoloss"
  type: "Reduction"
  bottom: "h"
  top: "h_pseudoloss"
  loss_weight: 1
}
I1017 12:03:36.700274 26593 layer_factory.hpp:77] Creating layer lstm1_
I1017 12:03:36.700296 26593 net.cpp:84] Creating Layer lstm1_
I1017 12:03:36.700304 26593 net.cpp:380] lstm1_ -> x
I1017 12:03:36.700317 26593 net.cpp:380] lstm1_ -> cont
I1017 12:03:36.700367 26593 net.cpp:122] Setting up lstm1_
I1017 12:03:36.700376 26593 net.cpp:129] Top shape: 4 4 9 (144)
I1017 12:03:36.700382 26593 net.cpp:129] Top shape: 4 4 (16)
I1017 12:03:36.700388 26593 net.cpp:137] Memory required for data: 640
I1017 12:03:36.700393 26593 layer_factory.hpp:77] Creating layer lstm1_
I1017 12:03:36.700399 26593 net.cpp:84] Creating Layer lstm1_
I1017 12:03:36.700405 26593 net.cpp:380] lstm1_ -> c_0
I1017 12:03:36.700417 26593 net.cpp:380] lstm1_ -> h_0
I1017 12:03:36.700459 26593 net.cpp:122] Setting up lstm1_
I1017 12:03:36.700466 26593 net.cpp:129] Top shape: 1 4 512 (2048)
I1017 12:03:36.700471 26593 net.cpp:129] Top shape: 1 4 512 (2048)
I1017 12:03:36.700475 26593 net.cpp:137] Memory required for data: 17024
I1017 12:03:36.700479 26593 layer_factory.hpp:77] Creating layer lstm1_cont_slice
I1017 12:03:36.700490 26593 net.cpp:84] Creating Layer lstm1_cont_slice
I1017 12:03:36.700496 26593 net.cpp:406] lstm1_cont_slice <- cont
I1017 12:03:36.700503 26593 net.cpp:380] lstm1_cont_slice -> cont_1
I1017 12:03:36.700511 26593 net.cpp:380] lstm1_cont_slice -> cont_2
I1017 12:03:36.700520 26593 net.cpp:380] lstm1_cont_slice -> cont_3
I1017 12:03:36.700527 26593 net.cpp:380] lstm1_cont_slice -> cont_4
I1017 12:03:36.700590 26593 net.cpp:122] Setting up lstm1_cont_slice
I1017 12:03:36.700598 26593 net.cpp:129] Top shape: 1 4 (4)
I1017 12:03:36.700604 26593 net.cpp:129] Top shape: 1 4 (4)
I1017 12:03:36.700609 26593 net.cpp:129] Top shape: 1 4 (4)
I1017 12:03:36.700614 26593 net.cpp:129] Top shape: 1 4 (4)
I1017 12:03:36.700619 26593 net.cpp:137] Memory required for data: 17088
I1017 12:03:36.700623 26593 layer_factory.hpp:77] Creating layer cont_1_lstm1_cont_slice_0_split
I1017 12:03:36.700629 26593 net.cpp:84] Creating Layer cont_1_lstm1_cont_slice_0_split
I1017 12:03:36.700634 26593 net.cpp:406] cont_1_lstm1_cont_slice_0_split <- cont_1
I1017 12:03:36.700639 26593 net.cpp:380] cont_1_lstm1_cont_slice_0_split -> cont_1_lstm1_cont_slice_0_split_0
I1017 12:03:36.700650 26593 net.cpp:380] cont_1_lstm1_cont_slice_0_split -> cont_1_lstm1_cont_slice_0_split_1
I1017 12:03:36.700690 26593 net.cpp:122] Setting up cont_1_lstm1_cont_slice_0_split
I1017 12:03:36.700698 26593 net.cpp:129] Top shape: 1 4 (4)
I1017 12:03:36.700703 26593 net.cpp:129] Top shape: 1 4 (4)
I1017 12:03:36.700707 26593 net.cpp:137] Memory required for data: 17120
I1017 12:03:36.700711 26593 layer_factory.hpp:77] Creating layer cont_2_lstm1_cont_slice_1_split
I1017 12:03:36.700721 26593 net.cpp:84] Creating Layer cont_2_lstm1_cont_slice_1_split
I1017 12:03:36.700728 26593 net.cpp:406] cont_2_lstm1_cont_slice_1_split <- cont_2
I1017 12:03:36.700734 26593 net.cpp:380] cont_2_lstm1_cont_slice_1_split -> cont_2_lstm1_cont_slice_1_split_0
I1017 12:03:36.700742 26593 net.cpp:380] cont_2_lstm1_cont_slice_1_split -> cont_2_lstm1_cont_slice_1_split_1
I1017 12:03:36.700778 26593 net.cpp:122] Setting up cont_2_lstm1_cont_slice_1_split
I1017 12:03:36.700784 26593 net.cpp:129] Top shape: 1 4 (4)
I1017 12:03:36.700789 26593 net.cpp:129] Top shape: 1 4 (4)
I1017 12:03:36.700793 26593 net.cpp:137] Memory required for data: 17152
I1017 12:03:36.700798 26593 layer_factory.hpp:77] Creating layer cont_3_lstm1_cont_slice_2_split
I1017 12:03:36.700803 26593 net.cpp:84] Creating Layer cont_3_lstm1_cont_slice_2_split
I1017 12:03:36.700809 26593 net.cpp:406] cont_3_lstm1_cont_slice_2_split <- cont_3
I1017 12:03:36.700814 26593 net.cpp:380] cont_3_lstm1_cont_slice_2_split -> cont_3_lstm1_cont_slice_2_split_0
I1017 12:03:36.700819 26593 net.cpp:380] cont_3_lstm1_cont_slice_2_split -> cont_3_lstm1_cont_slice_2_split_1
I1017 12:03:36.700850 26593 net.cpp:122] Setting up cont_3_lstm1_cont_slice_2_split
I1017 12:03:36.700856 26593 net.cpp:129] Top shape: 1 4 (4)
I1017 12:03:36.700861 26593 net.cpp:129] Top shape: 1 4 (4)
I1017 12:03:36.700865 26593 net.cpp:137] Memory required for data: 17184
I1017 12:03:36.700870 26593 layer_factory.hpp:77] Creating layer cont_4_lstm1_cont_slice_3_split
I1017 12:03:36.700875 26593 net.cpp:84] Creating Layer cont_4_lstm1_cont_slice_3_split
I1017 12:03:36.700878 26593 net.cpp:406] cont_4_lstm1_cont_slice_3_split <- cont_4
I1017 12:03:36.700884 26593 net.cpp:380] cont_4_lstm1_cont_slice_3_split -> cont_4_lstm1_cont_slice_3_split_0
I1017 12:03:36.700891 26593 net.cpp:380] cont_4_lstm1_cont_slice_3_split -> cont_4_lstm1_cont_slice_3_split_1
I1017 12:03:36.700927 26593 net.cpp:122] Setting up cont_4_lstm1_cont_slice_3_split
I1017 12:03:36.700934 26593 net.cpp:129] Top shape: 1 4 (4)
I1017 12:03:36.700939 26593 net.cpp:129] Top shape: 1 4 (4)
I1017 12:03:36.700942 26593 net.cpp:137] Memory required for data: 17216
I1017 12:03:36.700947 26593 layer_factory.hpp:77] Creating layer lstm1_x_transform
I1017 12:03:36.700959 26593 net.cpp:84] Creating Layer lstm1_x_transform
I1017 12:03:36.700965 26593 net.cpp:406] lstm1_x_transform <- x
I1017 12:03:36.700974 26593 net.cpp:380] lstm1_x_transform -> W_xc_x
I1017 12:03:36.701270 26593 net.cpp:122] Setting up lstm1_x_transform
I1017 12:03:36.701282 26593 net.cpp:129] Top shape: 4 4 2048 (32768)
I1017 12:03:36.701285 26593 net.cpp:137] Memory required for data: 148288
I1017 12:03:36.701295 26593 layer_factory.hpp:77] Creating layer lstm1_W_xc_x_slice
I1017 12:03:36.701304 26593 net.cpp:84] Creating Layer lstm1_W_xc_x_slice
I1017 12:03:36.701309 26593 net.cpp:406] lstm1_W_xc_x_slice <- W_xc_x
I1017 12:03:36.701314 26593 net.cpp:380] lstm1_W_xc_x_slice -> W_xc_x_1
I1017 12:03:36.701323 26593 net.cpp:380] lstm1_W_xc_x_slice -> W_xc_x_2
I1017 12:03:36.701328 26593 net.cpp:380] lstm1_W_xc_x_slice -> W_xc_x_3
I1017 12:03:36.701334 26593 net.cpp:380] lstm1_W_xc_x_slice -> W_xc_x_4
I1017 12:03:36.701391 26593 net.cpp:122] Setting up lstm1_W_xc_x_slice
I1017 12:03:36.701398 26593 net.cpp:129] Top shape: 1 4 2048 (8192)
I1017 12:03:36.701403 26593 net.cpp:129] Top shape: 1 4 2048 (8192)
I1017 12:03:36.701408 26593 net.cpp:129] Top shape: 1 4 2048 (8192)
I1017 12:03:36.701413 26593 net.cpp:129] Top shape: 1 4 2048 (8192)
I1017 12:03:36.701416 26593 net.cpp:137] Memory required for data: 279360
I1017 12:03:36.701421 26593 layer_factory.hpp:77] Creating layer lstm1_h_conted_0
I1017 12:03:36.701431 26593 net.cpp:84] Creating Layer lstm1_h_conted_0
I1017 12:03:36.701437 26593 net.cpp:406] lstm1_h_conted_0 <- h_0
I1017 12:03:36.701443 26593 net.cpp:406] lstm1_h_conted_0 <- cont_1_lstm1_cont_slice_0_split_0
I1017 12:03:36.701452 26593 net.cpp:380] lstm1_h_conted_0 -> h_conted_0
I1017 12:03:36.701526 26593 net.cpp:122] Setting up lstm1_h_conted_0
I1017 12:03:36.701534 26593 net.cpp:129] Top shape: 1 4 512 (2048)
I1017 12:03:36.701539 26593 net.cpp:137] Memory required for data: 287552
I1017 12:03:36.701542 26593 layer_factory.hpp:77] Creating layer lstm1_transform_1
I1017 12:03:36.701551 26593 net.cpp:84] Creating Layer lstm1_transform_1
I1017 12:03:36.701557 26593 net.cpp:406] lstm1_transform_1 <- h_conted_0
I1017 12:03:36.701563 26593 net.cpp:380] lstm1_transform_1 -> W_hc_h_0
I1017 12:03:36.713317 26593 net.cpp:122] Setting up lstm1_transform_1
I1017 12:03:36.713338 26593 net.cpp:129] Top shape: 1 4 2048 (8192)
I1017 12:03:36.713342 26593 net.cpp:137] Memory required for data: 320320
I1017 12:03:36.713352 26593 layer_factory.hpp:77] Creating layer lstm1_gate_input_1
I1017 12:03:36.713364 26593 net.cpp:84] Creating Layer lstm1_gate_input_1
I1017 12:03:36.713369 26593 net.cpp:406] lstm1_gate_input_1 <- W_hc_h_0
I1017 12:03:36.713376 26593 net.cpp:406] lstm1_gate_input_1 <- W_xc_x_1
I1017 12:03:36.713380 26593 net.cpp:380] lstm1_gate_input_1 -> gate_input_1
I1017 12:03:36.713413 26593 net.cpp:122] Setting up lstm1_gate_input_1
I1017 12:03:36.713421 26593 net.cpp:129] Top shape: 1 4 2048 (8192)
I1017 12:03:36.713425 26593 net.cpp:137] Memory required for data: 353088
I1017 12:03:36.713429 26593 layer_factory.hpp:77] Creating layer lstm1_unit_1
I1017 12:03:36.713438 26593 net.cpp:84] Creating Layer lstm1_unit_1
I1017 12:03:36.713444 26593 net.cpp:406] lstm1_unit_1 <- c_0
I1017 12:03:36.713451 26593 net.cpp:406] lstm1_unit_1 <- gate_input_1
I1017 12:03:36.713456 26593 net.cpp:406] lstm1_unit_1 <- cont_1_lstm1_cont_slice_0_split_1
I1017 12:03:36.713462 26593 net.cpp:380] lstm1_unit_1 -> c_1
I1017 12:03:36.713469 26593 net.cpp:380] lstm1_unit_1 -> h_1
I1017 12:03:36.713517 26593 net.cpp:122] Setting up lstm1_unit_1
I1017 12:03:36.713526 26593 net.cpp:129] Top shape: 1 4 512 (2048)
I1017 12:03:36.713531 26593 net.cpp:129] Top shape: 1 4 512 (2048)
I1017 12:03:36.713536 26593 net.cpp:137] Memory required for data: 369472
I1017 12:03:36.713539 26593 layer_factory.hpp:77] Creating layer h_1_lstm1_unit_1_1_split
I1017 12:03:36.713544 26593 net.cpp:84] Creating Layer h_1_lstm1_unit_1_1_split
I1017 12:03:36.713548 26593 net.cpp:406] h_1_lstm1_unit_1_1_split <- h_1
I1017 12:03:36.713555 26593 net.cpp:380] h_1_lstm1_unit_1_1_split -> h_1_lstm1_unit_1_1_split_0
I1017 12:03:36.713562 26593 net.cpp:380] h_1_lstm1_unit_1_1_split -> h_1_lstm1_unit_1_1_split_1
I1017 12:03:36.713593 26593 net.cpp:122] Setting up h_1_lstm1_unit_1_1_split
I1017 12:03:36.713600 26593 net.cpp:129] Top shape: 1 4 512 (2048)
I1017 12:03:36.713605 26593 net.cpp:129] Top shape: 1 4 512 (2048)
I1017 12:03:36.713608 26593 net.cpp:137] Memory required for data: 385856
I1017 12:03:36.713613 26593 layer_factory.hpp:77] Creating layer lstm1_h_conted_1
I1017 12:03:36.713621 26593 net.cpp:84] Creating Layer lstm1_h_conted_1
I1017 12:03:36.713629 26593 net.cpp:406] lstm1_h_conted_1 <- h_1_lstm1_unit_1_1_split_0
I1017 12:03:36.713634 26593 net.cpp:406] lstm1_h_conted_1 <- cont_2_lstm1_cont_slice_1_split_0
I1017 12:03:36.713639 26593 net.cpp:380] lstm1_h_conted_1 -> h_conted_1
I1017 12:03:36.713696 26593 net.cpp:122] Setting up lstm1_h_conted_1
I1017 12:03:36.713703 26593 net.cpp:129] Top shape: 1 4 512 (2048)
I1017 12:03:36.713707 26593 net.cpp:137] Memory required for data: 394048
I1017 12:03:36.713711 26593 layer_factory.hpp:77] Creating layer lstm1_transform_2
I1017 12:03:36.713721 26593 net.cpp:84] Creating Layer lstm1_transform_2
I1017 12:03:36.713726 26593 net.cpp:406] lstm1_transform_2 <- h_conted_1
I1017 12:03:36.713732 26593 net.cpp:380] lstm1_transform_2 -> W_hc_h_1
I1017 12:03:36.725791 26593 net.cpp:122] Setting up lstm1_transform_2
I1017 12:03:36.725823 26593 net.cpp:129] Top shape: 1 4 2048 (8192)
I1017 12:03:36.725827 26593 net.cpp:137] Memory required for data: 426816
I1017 12:03:36.725836 26593 net.cpp:465] Sharing parameters 'W_hc' owned by layer 'lstm1_transform_1', param index 0
I1017 12:03:36.725843 26593 layer_factory.hpp:77] Creating layer lstm1_gate_input_2
I1017 12:03:36.725858 26593 net.cpp:84] Creating Layer lstm1_gate_input_2
I1017 12:03:36.725864 26593 net.cpp:406] lstm1_gate_input_2 <- W_hc_h_1
I1017 12:03:36.725872 26593 net.cpp:406] lstm1_gate_input_2 <- W_xc_x_2
I1017 12:03:36.725881 26593 net.cpp:380] lstm1_gate_input_2 -> gate_input_2
I1017 12:03:36.725913 26593 net.cpp:122] Setting up lstm1_gate_input_2
I1017 12:03:36.725926 26593 net.cpp:129] Top shape: 1 4 2048 (8192)
I1017 12:03:36.725930 26593 net.cpp:137] Memory required for data: 459584
I1017 12:03:36.725934 26593 layer_factory.hpp:77] Creating layer lstm1_unit_2
I1017 12:03:36.725941 26593 net.cpp:84] Creating Layer lstm1_unit_2
I1017 12:03:36.725946 26593 net.cpp:406] lstm1_unit_2 <- c_1
I1017 12:03:36.725952 26593 net.cpp:406] lstm1_unit_2 <- gate_input_2
I1017 12:03:36.725957 26593 net.cpp:406] lstm1_unit_2 <- cont_2_lstm1_cont_slice_1_split_1
I1017 12:03:36.725965 26593 net.cpp:380] lstm1_unit_2 -> c_2
I1017 12:03:36.725972 26593 net.cpp:380] lstm1_unit_2 -> h_2
I1017 12:03:36.726020 26593 net.cpp:122] Setting up lstm1_unit_2
I1017 12:03:36.726029 26593 net.cpp:129] Top shape: 1 4 512 (2048)
I1017 12:03:36.726035 26593 net.cpp:129] Top shape: 1 4 512 (2048)
I1017 12:03:36.726038 26593 net.cpp:137] Memory required for data: 475968
I1017 12:03:36.726043 26593 layer_factory.hpp:77] Creating layer h_2_lstm1_unit_2_1_split
I1017 12:03:36.726050 26593 net.cpp:84] Creating Layer h_2_lstm1_unit_2_1_split
I1017 12:03:36.726055 26593 net.cpp:406] h_2_lstm1_unit_2_1_split <- h_2
I1017 12:03:36.726064 26593 net.cpp:380] h_2_lstm1_unit_2_1_split -> h_2_lstm1_unit_2_1_split_0
I1017 12:03:36.726073 26593 net.cpp:380] h_2_lstm1_unit_2_1_split -> h_2_lstm1_unit_2_1_split_1
I1017 12:03:36.726104 26593 net.cpp:122] Setting up h_2_lstm1_unit_2_1_split
I1017 12:03:36.726114 26593 net.cpp:129] Top shape: 1 4 512 (2048)
I1017 12:03:36.726117 26593 net.cpp:129] Top shape: 1 4 512 (2048)
I1017 12:03:36.726121 26593 net.cpp:137] Memory required for data: 492352
I1017 12:03:36.726125 26593 layer_factory.hpp:77] Creating layer lstm1_h_conted_2
I1017 12:03:36.726136 26593 net.cpp:84] Creating Layer lstm1_h_conted_2
I1017 12:03:36.726140 26593 net.cpp:406] lstm1_h_conted_2 <- h_2_lstm1_unit_2_1_split_0
I1017 12:03:36.726146 26593 net.cpp:406] lstm1_h_conted_2 <- cont_3_lstm1_cont_slice_2_split_0
I1017 12:03:36.726152 26593 net.cpp:380] lstm1_h_conted_2 -> h_conted_2
I1017 12:03:36.726215 26593 net.cpp:122] Setting up lstm1_h_conted_2
I1017 12:03:36.726223 26593 net.cpp:129] Top shape: 1 4 512 (2048)
I1017 12:03:36.726227 26593 net.cpp:137] Memory required for data: 500544
I1017 12:03:36.726231 26593 layer_factory.hpp:77] Creating layer lstm1_transform_3
I1017 12:03:36.726248 26593 net.cpp:84] Creating Layer lstm1_transform_3
I1017 12:03:36.726253 26593 net.cpp:406] lstm1_transform_3 <- h_conted_2
I1017 12:03:36.726259 26593 net.cpp:380] lstm1_transform_3 -> W_hc_h_2
I1017 12:03:36.750222 26593 net.cpp:122] Setting up lstm1_transform_3
I1017 12:03:36.750604 26593 net.cpp:129] Top shape: 1 4 2048 (8192)
I1017 12:03:36.750608 26593 net.cpp:137] Memory required for data: 533312
I1017 12:03:36.750623 26593 net.cpp:465] Sharing parameters 'W_hc' owned by layer 'lstm1_transform_1', param index 0
I1017 12:03:36.750630 26593 layer_factory.hpp:77] Creating layer lstm1_gate_input_3
I1017 12:03:36.750646 26593 net.cpp:84] Creating Layer lstm1_gate_input_3
I1017 12:03:36.750655 26593 net.cpp:406] lstm1_gate_input_3 <- W_hc_h_2
I1017 12:03:36.750664 26593 net.cpp:406] lstm1_gate_input_3 <- W_xc_x_3
I1017 12:03:36.750672 26593 net.cpp:380] lstm1_gate_input_3 -> gate_input_3
I1017 12:03:36.750715 26593 net.cpp:122] Setting up lstm1_gate_input_3
I1017 12:03:36.750723 26593 net.cpp:129] Top shape: 1 4 2048 (8192)
I1017 12:03:36.750726 26593 net.cpp:137] Memory required for data: 566080
I1017 12:03:36.750731 26593 layer_factory.hpp:77] Creating layer lstm1_unit_3
I1017 12:03:36.750742 26593 net.cpp:84] Creating Layer lstm1_unit_3
I1017 12:03:36.750751 26593 net.cpp:406] lstm1_unit_3 <- c_2
I1017 12:03:36.750756 26593 net.cpp:406] lstm1_unit_3 <- gate_input_3
I1017 12:03:36.750761 26593 net.cpp:406] lstm1_unit_3 <- cont_3_lstm1_cont_slice_2_split_1
I1017 12:03:36.750767 26593 net.cpp:380] lstm1_unit_3 -> c_3
I1017 12:03:36.750775 26593 net.cpp:380] lstm1_unit_3 -> h_3
I1017 12:03:36.751407 26593 net.cpp:122] Setting up lstm1_unit_3
I1017 12:03:36.751560 26593 net.cpp:129] Top shape: 1 4 512 (2048)
I1017 12:03:36.751626 26593 net.cpp:129] Top shape: 1 4 512 (2048)
I1017 12:03:36.751678 26593 net.cpp:137] Memory required for data: 582464
I1017 12:03:36.751682 26593 layer_factory.hpp:77] Creating layer h_3_lstm1_unit_3_1_split
I1017 12:03:36.751801 26593 net.cpp:84] Creating Layer h_3_lstm1_unit_3_1_split
I1017 12:03:36.751853 26593 net.cpp:406] h_3_lstm1_unit_3_1_split <- h_3
I1017 12:03:36.752079 26593 net.cpp:380] h_3_lstm1_unit_3_1_split -> h_3_lstm1_unit_3_1_split_0
I1017 12:03:36.752332 26593 net.cpp:380] h_3_lstm1_unit_3_1_split -> h_3_lstm1_unit_3_1_split_1
I1017 12:03:36.752446 26593 net.cpp:122] Setting up h_3_lstm1_unit_3_1_split
I1017 12:03:36.752452 26593 net.cpp:129] Top shape: 1 4 512 (2048)
I1017 12:03:36.752456 26593 net.cpp:129] Top shape: 1 4 512 (2048)
I1017 12:03:36.752460 26593 net.cpp:137] Memory required for data: 598848
I1017 12:03:36.752465 26593 layer_factory.hpp:77] Creating layer lstm1_h_conted_3
I1017 12:03:36.752475 26593 net.cpp:84] Creating Layer lstm1_h_conted_3
I1017 12:03:36.752486 26593 net.cpp:406] lstm1_h_conted_3 <- h_3_lstm1_unit_3_1_split_0
I1017 12:03:36.752492 26593 net.cpp:406] lstm1_h_conted_3 <- cont_4_lstm1_cont_slice_3_split_0
I1017 12:03:36.752498 26593 net.cpp:380] lstm1_h_conted_3 -> h_conted_3
I1017 12:03:36.752570 26593 net.cpp:122] Setting up lstm1_h_conted_3
I1017 12:03:36.752578 26593 net.cpp:129] Top shape: 1 4 512 (2048)
I1017 12:03:36.752583 26593 net.cpp:137] Memory required for data: 607040
I1017 12:03:36.752586 26593 layer_factory.hpp:77] Creating layer lstm1_transform_4
I1017 12:03:36.752599 26593 net.cpp:84] Creating Layer lstm1_transform_4
I1017 12:03:36.752604 26593 net.cpp:406] lstm1_transform_4 <- h_conted_3
I1017 12:03:36.752611 26593 net.cpp:380] lstm1_transform_4 -> W_hc_h_3
I1017 12:03:36.764557 26593 net.cpp:122] Setting up lstm1_transform_4
I1017 12:03:36.764590 26593 net.cpp:129] Top shape: 1 4 2048 (8192)
I1017 12:03:36.764595 26593 net.cpp:137] Memory required for data: 639808
I1017 12:03:36.764603 26593 net.cpp:465] Sharing parameters 'W_hc' owned by layer 'lstm1_transform_1', param index 0
I1017 12:03:36.764608 26593 layer_factory.hpp:77] Creating layer lstm1_gate_input_4
I1017 12:03:36.764622 26593 net.cpp:84] Creating Layer lstm1_gate_input_4
I1017 12:03:36.764634 26593 net.cpp:406] lstm1_gate_input_4 <- W_hc_h_3
I1017 12:03:36.764642 26593 net.cpp:406] lstm1_gate_input_4 <- W_xc_x_4
I1017 12:03:36.764652 26593 net.cpp:380] lstm1_gate_input_4 -> gate_input_4
I1017 12:03:36.764684 26593 net.cpp:122] Setting up lstm1_gate_input_4
I1017 12:03:36.764690 26593 net.cpp:129] Top shape: 1 4 2048 (8192)
I1017 12:03:36.764694 26593 net.cpp:137] Memory required for data: 672576
I1017 12:03:36.764698 26593 layer_factory.hpp:77] Creating layer lstm1_unit_4
I1017 12:03:36.764706 26593 net.cpp:84] Creating Layer lstm1_unit_4
I1017 12:03:36.764710 26593 net.cpp:406] lstm1_unit_4 <- c_3
I1017 12:03:36.764716 26593 net.cpp:406] lstm1_unit_4 <- gate_input_4
I1017 12:03:36.764721 26593 net.cpp:406] lstm1_unit_4 <- cont_4_lstm1_cont_slice_3_split_1
I1017 12:03:36.764729 26593 net.cpp:380] lstm1_unit_4 -> c_4
I1017 12:03:36.764739 26593 net.cpp:380] lstm1_unit_4 -> h_4
I1017 12:03:36.764783 26593 net.cpp:122] Setting up lstm1_unit_4
I1017 12:03:36.764791 26593 net.cpp:129] Top shape: 1 4 512 (2048)
I1017 12:03:36.764796 26593 net.cpp:129] Top shape: 1 4 512 (2048)
I1017 12:03:36.764801 26593 net.cpp:137] Memory required for data: 688960
I1017 12:03:36.764804 26593 layer_factory.hpp:77] Creating layer lstm1_
I1017 12:03:36.764811 26593 net.cpp:84] Creating Layer lstm1_
I1017 12:03:36.764816 26593 net.cpp:406] lstm1_ <- c_4
I1017 12:03:36.764822 26593 net.cpp:380] lstm1_ -> c_T
I1017 12:03:36.764845 26593 net.cpp:122] Setting up lstm1_
I1017 12:03:36.764853 26593 net.cpp:129] Top shape: 1 4 512 (2048)
I1017 12:03:36.764858 26593 net.cpp:137] Memory required for data: 697152
I1017 12:03:36.764863 26593 layer_factory.hpp:77] Creating layer lstm1_h_concat
I1017 12:03:36.764878 26593 net.cpp:84] Creating Layer lstm1_h_concat
I1017 12:03:36.764883 26593 net.cpp:406] lstm1_h_concat <- h_1_lstm1_unit_1_1_split_1
I1017 12:03:36.764889 26593 net.cpp:406] lstm1_h_concat <- h_2_lstm1_unit_2_1_split_1
I1017 12:03:36.764894 26593 net.cpp:406] lstm1_h_concat <- h_3_lstm1_unit_3_1_split_1
I1017 12:03:36.764897 26593 net.cpp:406] lstm1_h_concat <- h_4
I1017 12:03:36.764904 26593 net.cpp:380] lstm1_h_concat -> h
I1017 12:03:36.764932 26593 net.cpp:122] Setting up lstm1_h_concat
I1017 12:03:36.764941 26593 net.cpp:129] Top shape: 4 4 512 (8192)
I1017 12:03:36.764945 26593 net.cpp:137] Memory required for data: 729920
I1017 12:03:36.764950 26593 layer_factory.hpp:77] Creating layer h_pseudoloss
I1017 12:03:36.764961 26593 net.cpp:84] Creating Layer h_pseudoloss
I1017 12:03:36.764966 26593 net.cpp:406] h_pseudoloss <- h
I1017 12:03:36.764971 26593 net.cpp:380] h_pseudoloss -> h_pseudoloss
I1017 12:03:36.765049 26593 net.cpp:122] Setting up h_pseudoloss
…
I1017 12:03:36.765246 26593 net.cpp:200] lstm1_ does not need backward computation.
I1017 12:03:36.765250 26593 net.cpp:242] This network produces output c_T
I1017 12:03:36.765254 26593 net.cpp:242] This network produces output h_pseudoloss
I1017 12:03:36.767881 26593 net.cpp:255] Network initialization done.
I1017 12:03:36.767987 26593 recurrent_layer.cpp:150] Adding parameter 0: W_xc
I1017 12:03:36.767994 26593 recurrent_layer.cpp:150] Adding parameter 1: b_c
I1017 12:03:36.767999 26593 recurrent_layer.cpp:150] Adding parameter 2: W_hc
I1017 12:03:36.768120 26593 net.cpp:122] Setting up lstm1
I1017 12:03:36.768132 26593 net.cpp:129] Top shape: 4 4 512 (8192)
I1017 12:03:36.768139 26593 net.cpp:137] Memory required for data: 765256528
I1017 12:03:36.768158 26593 layer_factory.hpp:77] Creating layer lstm1-drop
I1017 12:03:36.768167 26593 net.cpp:84] Creating Layer lstm1-drop
I1017 12:03:36.768172 26593 net.cpp:406] lstm1-drop <- lstm1
I1017 12:03:36.768178 26593 net.cpp:380] lstm1-drop -> lstm1-drop
I1017 12:03:36.768218 26593 net.cpp:122] Setting up lstm1-drop
I1017 12:03:36.768226 26593 net.cpp:129] Top shape: 4 4 512 (8192)
I1017 12:03:36.768230 26593 net.cpp:137] Memory required for data: 765289296
I1017 12:03:36.768234 26593 layer_factory.hpp:77] Creating layer fc-final
I1017 12:03:36.768244 26593 net.cpp:84] Creating Layer fc-final
I1017 12:03:36.768251 26593 net.cpp:406] fc-final <- lstm1-drop
I1017 12:03:36.768259 26593 net.cpp:380] fc-final -> fc-final
I1017 12:03:36.768563 26593 net.cpp:122] Setting up fc-final
I1017 12:03:36.768573 26593 net.cpp:129] Top shape: 4 4 10 (160)
I1017 12:03:36.768576 26593 net.cpp:137] Memory required for data: 765289936
I1017 12:03:36.768584 26593 layer_factory.hpp:77] Creating layer fc-final_fc-final_0_split
I1017 12:03:36.768591 26593 net.cpp:84] Creating Layer fc-final_fc-final_0_split
I1017 12:03:36.768595 26593 net.cpp:406] fc-final_fc-final_0_split <- fc-final
I1017 12:03:36.768601 26593 net.cpp:380] fc-final_fc-final_0_split -> fc-final_fc-final_0_split_0
I1017 12:03:36.768610 26593 net.cpp:380] fc-final_fc-final_0_split -> fc-final_fc-final_0_split_1
I1017 12:03:36.768649 26593 net.cpp:122] Setting up fc-final_fc-final_0_split
I1017 12:03:36.768657 26593 net.cpp:129] Top shape: 4 4 10 (160)
I1017 12:03:36.768663 26593 net.cpp:129] Top shape: 4 4 10 (160)
I1017 12:03:36.768667 26593 net.cpp:137] Memory required for data: 765291216
I1017 12:03:36.768671 26593 layer_factory.hpp:77] Creating layer loss
I1017 12:03:36.768683 26593 net.cpp:84] Creating Layer loss
I1017 12:03:36.768690 26593 net.cpp:406] loss <- fc-final_fc-final_0_split_0
I1017 12:03:36.768697 26593 net.cpp:406] loss <- reshape-label_label_tran_0_split_0
I1017 12:03:36.768702 26593 net.cpp:380] loss -> loss
…
I1017 12:03:36.770153 26593 net.cpp:294] The NetState phase (1) differed from the phase (0) specified by a rule in layer data
I1017 12:03:36.770357 26593 net.cpp:51] Initializing net from parameters: 
name: "VGG_16_layers_LSTM"
state {
  phase: TEST
  stage: "test-on-test"
}
layer {
  name: "data"
  type: "ImageData"
  top: "data"
  top: "label"
  include {
    phase: TEST
  }
  transform_param {
    mirror: false
    crop_size: 288
    mean_value: 104
    mean_value: 117
    mean_value: 123
  }
  image_data_param {
    source: "../Data/lsun_val_list.txt"
    batch_size: 100
    new_height: 320
    new_width: 320
  }
}
layer {
  name: "Silence"
  type: "Silence"
  bottom: "label"
  include {
    phase: TEST
  }
}
layer {
  name: "label_tran"
  type: "Python"
  bottom: "label"
  top: "reshape-label"
  top: "clip_markers"
  python_param {
    module: "data_preparation_sort_max_clip"
    layer: "ReshapeLabel"
  }
}
layer {
  name: "conv1_1"
  type: "Convolution"
  bottom: "data"
  top: "conv1_1"
  convolution_param {
    num_output: 64
    pad: 1
    kernel_size: 3
  }
}
layer {
  name: "relu1_1"
  type: "ReLU"
  bottom: "conv1_1"
  top: "conv1_1"
}
layer {
  name: "conv1_2"
  type: "Convolution"
  bottom: "conv1_1"
  top: "conv1_2"
  convolution_param {
    num_output: 64
    pad: 1
    kernel_size: 3
  }
}
layer {
  name: "relu1_2"
  type: "ReLU"
  bottom: "conv1_2"
  top: "conv1_2"
}
layer {
  name: "pool1"
  type: "Pooling"
  bottom: "conv1_2"
  top: "pool1"
  pooling_param {
    pool: MAX
    kernel_size: 2
    stride: 2
  }
}
layer {
  name: "conv2_1"
  type: "Convolution"
  bottom: "pool1"
  top: "conv2_1"
  convolution_param {
    num_output: 128
    pad: 1
    kernel_size: 3
  }
}
layer {
  name: "relu2_1"
  type: "ReLU"
  bottom: "conv2_1"
  top: "conv2_1"
}
layer {
  name: "conv2_2"
  type: "Convolution"
  bottom: "conv2_1"
  top: "conv2_2"
  convolution_param {
    num_output: 128
    pad: 1
    kernel_size: 3
  }
}
layer {
  name: "relu2_2"
  type: "ReLU"
  bottom: "conv2_2"
  top: "conv2_2"
}
layer {
  name: "pool2"
  type: "Pooling"
  bottom: "conv2_2"
  top: "pool2"
  pooling_param {
    pool: MAX
    kernel_size: 2
    stride: 2
  }
}
layer {
  name: "conv3_1"
  type: "Convolution"
  bottom: "pool2"
  top: "conv3_1"
  convolution_param {
    num_output: 256
    pad: 1
    kernel_size: 3
  }
}
layer {
  name: "relu3_1"
  type: "ReLU"
  bottom: "conv3_1"
  top: "conv3_1"
}
layer {
  name: "conv3_2"
  type: "Convolution"
  bottom: "conv3_1"
  top: "conv3_2"
  convolution_param {
    num_output: 256
    pad: 1
    kernel_size: 3
  }
}
layer {
  name: "relu3_2"
  type: "ReLU"
  bottom: "conv3_2"
  top: "conv3_2"
}
layer {
  name: "conv3_3"
  type: "Convolution"
  bottom: "conv3_2"
  top: "conv3_3"
  convolution_param {
    num_output: 256
    pad: 1
    kernel_size: 3
  }
}
layer {
  name: "relu3_3"
  type: "ReLU"
  bottom: "conv3_3"
  top: "conv3_3"
}
layer {
  name: "pool3"
  type: "Pooling"
  bottom: "conv3_3"
  top: "pool3"
  pooling_param {
    pool: MAX
    kernel_size: 2
    stride: 2
  }
}
layer {
  name: "conv4_1"
  type: "Convolution"
  bottom: "pool3"
  top: "conv4_1"
  convolution_param {
    num_output: 512
    pad: 1
    kernel_size: 3
  }
}
layer {
  name: "relu4_1"
  type: "ReLU"
  bottom: "conv4_1"
  top: "conv4_1"
}
layer {
  name: "conv4_2"
  type: "Convolution"
  bottom: "conv4_1"
  top: "conv4_2"
  convolution_param {
    num_output: 512
    pad: 1
    kernel_size: 3
  }
}
layer {
  name: "relu4_2"
  type: "ReLU"
  bottom: "conv4_2"
  top: "conv4_2"
}
layer {
  name: "conv4_3"
  type: "Convolution"
  bottom: "conv4_2"
  top: "conv4_3"
  convolution_param {
    num_output: 512
    pad: 1
    kernel_size: 3
  }
}
layer {
  name: "relu4_3"
  type: "ReLU"
  bottom: "conv4_3"
  top: "conv4_3"
}
layer {
  name: "pool4"
  type: "Pooling"
  bottom: "conv4_3"
  top: "pool4"
  pooling_param {
    pool: MAX
    kernel_size: 2
    stride: 2
  }
}
layer {
  name: "conv5_1"
  type: "Convolution"
  bottom: "pool4"
  top: "conv5_1"
  convolution_param {
    num_output: 512
    pad: 1
    kernel_size: 3
  }
}
layer {
  name: "relu5_1"
  type: "ReLU"
  bottom: "conv5_1"
  top: "conv5_1"
}
layer {
  name: "conv5_2"
  type: "Convolution"
  bottom: "conv5_1"
  top: "conv5_2"
  convolution_param {
    num_output: 512
    pad: 1
    kernel_size: 3
  }
}
layer {
  name: "relu5_2"
  type: "ReLU"
  bottom: "conv5_2"
  top: "conv5_2"
}
layer {
  name: "conv5_3"
  type: "Convolution"
  bottom: "conv5_2"
  top: "conv5_3"
  convolution_param {
    num_output: 512
    pad: 1
    kernel_size: 3
  }
}
layer {
  name: "relu5_3"
  type: "ReLU"
  bottom: "conv5_3"
  top: "conv5_3"
}
layer {
  name: "pool5"
  type: "Pooling"
  bottom: "conv5_3"
  top: "pool5"
  pooling_param {
    pool: MAX
    kernel_size: 2
    stride: 2
  }
}
layer {
  name: "fc6-conv"
  type: "Convolution"
  bottom: "pool5"
  top: "fc6-conv"
  convolution_param {
    num_output: 4096
    kernel_size: 7
  }
}
layer {
  name: "relu6"
  type: "ReLU"
  bottom: "fc6-conv"
  top: "fc6-conv"
}
layer {
  name: "drop6"
  type: "Dropout"
  bottom: "fc6-conv"
  top: "fc6-conv"
  dropout_param {
    dropout_ratio: 0.5
  }
}
layer {
  name: "fc7-conv"
  type: "Convolution"
  bottom: "fc6-conv"
  top: "fc7-conv"
  convolution_param {
    num_output: 4096
    kernel_size: 1
  }
}
layer {
  name: "relu7"
  type: "ReLU"
  bottom: "fc7-conv"
  top: "fc7-conv"
}
layer {
  name: "drop7"
  type: "Dropout"
  bottom: "fc7-conv"
  top: "fc7-conv"
  dropout_param {
    dropout_ratio: 0.9
  }
}
layer {
  name: "fc7-conv_re"
  type: "Reshape"
  bottom: "fc7-conv"
  top: "fc7-conv_re"
  reshape_param {
    shape {
      dim: 0
      dim: 0
      dim: -1
    }
  }
}
layer {
  name: "fc7-conv_tran"
  type: "Python"
  bottom: "fc7-conv_re"
  top: "fc7-conv_tran"
  python_param {
    module: "data_preparation_sort_max_clip"
    layer: "DataTransposeSortMaxClip"
  }
}
layer {
  name: "lstm1"
  type: "LSTM"
  bottom: "fc7-conv_tran"
  bottom: "clip_markers"
  top: "lstm1"
  recurrent_param {
    num_output: 512
    weight_filler {
      type: "uniform"
      min: -0.01
      max: 0.01
    }
    bias_filler {
      type: "constant"
      value: 0
    }
  }
}
layer {
  name: "lstm1-drop"
  type: "Dropout"
  bottom: "lstm1"
  top: "lstm1-drop"
  dropout_param {
    dropout_ratio: 0.5
  }
}
layer {
  name: "fc-final"
  type: "InnerProduct"
  bottom: "lstm1-drop"
  top: "fc-final"
  param {
    lr_mult: 1
    decay_mult: 1
  }
  param {
    lr_mult: 2
    decay_mult: 0
  }
  inner_product_param {
    num_output: 10
    weight_filler {
      type: "gaussian"
      std: 0.01
    }
    bias_filler {
      type: "constant"
      value: 0
    }
    axis: 2
  }
}
layer {
  name: "loss"
  type: "SoftmaxWithLoss"
  bottom: "fc-final"
  bottom: "reshape-label"
  top: "loss"
  softmax_param {
    axis: 2
  }
}
layer {
  name: "accuracy"
  type: "Accuracy"
  bottom: "fc-final"
  bottom: "reshape-label"
  top: "accuracy"
  accuracy_param {
    axis: 2
  }
}
I1017 12:03:36.770514 26593 layer_factory.hpp:77] Creating layer data
I1017 12:03:36.770531 26593 net.cpp:84] Creating Layer data
I1017 12:03:36.770539 26593 net.cpp:380] data -> data
I1017 12:03:36.770550 26593 net.cpp:380] data -> label
I1017 12:03:36.770561 26593 image_data_layer.cpp:38] Opening file ../Data/lsun_val_list.txt
I1017 12:03:36.771571 26593 image_data_layer.cpp:63] A total of 3000 images.
I1017 12:03:36.774015 26593 image_data_layer.cpp:90] output data size: 100,3,288,288
I1017 12:03:37.081892 26593 net.cpp:122] Setting up data
I1017 12:03:37.081950 26593 net.cpp:129] Top shape: 100 3 288 288 (24883200)
I1017 12:03:37.081964 26593 net.cpp:129] Top shape: 100 (100)
I1017 12:03:37.081970 26593 net.cpp:137] Memory required for data: 99533200
I1017 12:03:37.081984 26593 layer_factory.hpp:77] Creating layer label_data_1_split
I1017 12:03:37.082006 26593 net.cpp:84] Creating Layer label_data_1_split
I1017 12:03:37.082015 26593 net.cpp:406] label_data_1_split <- label
I1017 12:03:37.082031 26593 net.cpp:380] label_data_1_split -> label_data_1_split_0
I1017 12:03:37.082056 26593 net.cpp:380] label_data_1_split -> label_data_1_split_1
I1017 12:03:37.082325 26593 net.cpp:122] Setting up label_data_1_split
I1017 12:03:37.082376 26593 net.cpp:129] Top shape: 100 (100)
I1017 12:03:37.082387 26593 net.cpp:129] Top shape: 100 (100)
I1017 12:03:37.082396 26593 net.cpp:137] Memory required for data: 99534000
I1017 12:03:37.082408 26593 layer_factory.hpp:77] Creating layer Silence
I1017 12:03:37.082443 26593 net.cpp:84] Creating Layer Silence
I1017 12:03:37.082454 26593 net.cpp:406] Silence <- label_data_1_split_0
I1017 12:03:37.082469 26593 net.cpp:122] Setting up Silence
I1017 12:03:37.082478 26593 net.cpp:137] Memory required for data: 99534000
I1017 12:03:37.082486 26593 layer_factory.hpp:77] Creating layer label_tran
I1017 12:03:37.082573 26593 net.cpp:84] Creating Layer label_tran
I1017 12:03:37.082592 26593 net.cpp:406] label_tran <- label_data_1_split_1
I1017 12:03:37.082607 26593 net.cpp:380] label_tran -> reshape-label
I1017 12:03:37.082630 26593 net.cpp:380] label_tran -> clip_markers
I1017 12:03:37.082839 26593 net.cpp:122] Setting up label_tran
I1017 12:03:37.082864 26593 net.cpp:129] Top shape: 4 100 (400)
I1017 12:03:37.082876 26593 net.cpp:129] Top shape: 4 100 (400)
I1017 12:03:37.082886 26593 net.cpp:137] Memory required for data: 99537200
I1017 12:03:37.082895 26593 layer_factory.hpp:77] Creating layer reshape-label_label_tran_0_split
I1017 12:03:37.082912 26593 net.cpp:84] Creating Layer reshape-label_label_tran_0_split
I1017 12:03:37.082921 26593 net.cpp:406] reshape-label_label_tran_0_split <- reshape-label
I1017 12:03:37.082937 26593 net.cpp:380] reshape-label_label_tran_0_split -> reshape-label_label_tran_0_split_0
I1017 12:03:37.082954 26593 net.cpp:380] reshape-label_label_tran_0_split -> reshape-label_label_tran_0_split_1
I1017 12:03:37.083029 26593 net.cpp:122] Setting up reshape-label_label_tran_0_split
I1017 12:03:37.083043 26593 net.cpp:129] Top shape: 4 100 (400)
I1017 12:03:37.083055 26593 net.cpp:129] Top shape: 4 100 (400)
I1017 12:03:37.083065 26593 net.cpp:137] Memory required for data: 99540400
I1017 12:03:37.083076 26593 layer_factory.hpp:77] Creating layer conv1_1
I1017 12:03:37.083094 26593 net.cpp:84] Creating Layer conv1_1
I1017 12:03:37.083106 26593 net.cpp:406] conv1_1 <- data
I1017 12:03:37.083120 26593 net.cpp:380] conv1_1 -> conv1_1
I1017 12:03:37.083748 26593 net.cpp:122] Setting up conv1_1
I1017 12:03:37.083770 26593 net.cpp:129] Top shape: 100 64 288 288 (530841600)
I1017 12:03:37.083781 26593 net.cpp:137] Memory required for data: 2222906800
I1017 12:03:37.083807 26593 layer_factory.hpp:77] Creating layer relu1_1
I1017 12:03:37.083824 26593 net.cpp:84] Creating Layer relu1_1
I1017 12:03:37.083835 26593 net.cpp:406] relu1_1 <- conv1_1
I1017 12:03:37.083850 26593 net.cpp:367] relu1_1 -> conv1_1 (in-place)
I1017 12:03:37.083868 26593 net.cpp:122] Setting up relu1_1
I1017 12:03:37.083881 26593 net.cpp:129] Top shape: 100 64 288 288 (530841600)
I1017 12:03:37.083891 26593 net.cpp:137] Memory required for data: 4346273200
I1017 12:03:37.083901 26593 layer_factory.hpp:77] Creating layer conv1_2
I1017 12:03:37.083920 26593 net.cpp:84] Creating Layer conv1_2
I1017 12:03:37.083930 26593 net.cpp:406] conv1_2 <- conv1_1
I1017 12:03:37.083945 26593 net.cpp:380] conv1_2 -> conv1_2
I1017 12:03:37.084837 26593 net.cpp:122] Setting up conv1_2
I1017 12:03:37.084864 26593 net.cpp:129] Top shape: 100 64 288 288 (530841600)
I1017 12:03:37.084875 26593 net.cpp:137] Memory required for data: 6469639600
I1017 12:03:37.084898 26593 layer_factory.hpp:77] Creating layer relu1_2
I1017 12:03:37.084916 26593 net.cpp:84] Creating Layer relu1_2
I1017 12:03:37.084928 26593 net.cpp:406] relu1_2 <- conv1_2
I1017 12:03:37.084944 26593 net.cpp:367] relu1_2 -> conv1_2 (in-place)
I1017 12:03:37.084962 26593 net.cpp:122] Setting up relu1_2
I1017 12:03:37.084975 26593 net.cpp:129] Top shape: 100 64 288 288 (530841600)
I1017 12:03:37.084985 26593 net.cpp:137] Memory required for data: 8593006000
I1017 12:03:37.084996 26593 layer_factory.hpp:77] Creating layer pool1
I1017 12:03:37.085013 26593 net.cpp:84] Creating Layer pool1
I1017 12:03:37.085024 26593 net.cpp:406] pool1 <- conv1_2
I1017 12:03:37.085038 26593 net.cpp:380] pool1 -> pool1
I1017 12:03:37.085124 26593 net.cpp:122] Setting up pool1
I1017 12:03:37.085139 26593 net.cpp:129] Top shape: 100 64 144 144 (132710400)
I1017 12:03:37.085150 26593 net.cpp:137] Memory required for data: 9123847600
I1017 12:03:37.085160 26593 layer_factory.hpp:77] Creating layer conv2_1
I1017 12:03:37.085177 26593 net.cpp:84] Creating Layer conv2_1
I1017 12:03:37.085188 26593 net.cpp:406] conv2_1 <- pool1
I1017 12:03:37.085204 26593 net.cpp:380] conv2_1 -> conv2_1
I1017 12:03:37.086994 26593 net.cpp:122] Setting up conv2_1
I1017 12:03:37.087024 26593 net.cpp:129] Top shape: 100 128 144 144 (265420800)
I1017 12:03:37.087036 26593 net.cpp:137] Memory required for data: 10185530800
I1017 12:03:37.087059 26593 layer_factory.hpp:77] Creating layer relu2_1
I1017 12:03:37.087077 26593 net.cpp:84] Creating Layer relu2_1
I1017 12:03:37.087090 26593 net.cpp:406] relu2_1 <- conv2_1
I1017 12:03:37.087105 26593 net.cpp:367] relu2_1 -> conv2_1 (in-place)
I1017 12:03:37.087123 26593 net.cpp:122] Setting up relu2_1
I1017 12:03:37.087137 26593 net.cpp:129] Top shape: 100 128 144 144 (265420800)
I1017 12:03:37.087146 26593 net.cpp:137] Memory required for data: 11247214000
I1017 12:03:37.087157 26593 layer_factory.hpp:77] Creating layer conv2_2
I1017 12:03:37.087172 26593 net.cpp:84] Creating Layer conv2_2
I1017 12:03:37.087183 26593 net.cpp:406] conv2_2 <- conv2_1
I1017 12:03:37.087199 26593 net.cpp:380] conv2_2 -> conv2_2
I1017 12:03:37.096508 26593 net.cpp:122] Setting up conv2_2
I1017 12:03:37.096545 26593 net.cpp:129] Top shape: 100 128 144 144 (265420800)
I1017 12:03:37.096559 26593 net.cpp:137] Memory required for data: 12308897200
I1017 12:03:37.096580 26593 layer_factory.hpp:77] Creating layer relu2_2
I1017 12:03:37.096596 26593 net.cpp:84] Creating Layer relu2_2
I1017 12:03:37.096606 26593 net.cpp:406] relu2_2 <- conv2_2
I1017 12:03:37.096621 26593 net.cpp:367] relu2_2 -> conv2_2 (in-place)
I1017 12:03:37.096638 26593 net.cpp:122] Setting up relu2_2
I1017 12:03:37.096654 26593 net.cpp:129] Top shape: 100 128 144 144 (265420800)
I1017 12:03:37.096665 26593 net.cpp:137] Memory required for data: 13370580400
I1017 12:03:37.096674 26593 layer_factory.hpp:77] Creating layer pool2
I1017 12:03:37.096688 26593 net.cpp:84] Creating Layer pool2
I1017 12:03:37.096698 26593 net.cpp:406] pool2 <- conv2_2
I1017 12:03:37.096711 26593 net.cpp:380] pool2 -> pool2
I1017 12:03:37.096793 26593 net.cpp:122] Setting up pool2
I1017 12:03:37.096810 26593 net.cpp:129] Top shape: 100 128 72 72 (66355200)
I1017 12:03:37.096818 26593 net.cpp:137] Memory required for data: 13636001200
I1017 12:03:37.096827 26593 layer_factory.hpp:77] Creating layer conv3_1
I1017 12:03:37.096848 26593 net.cpp:84] Creating Layer conv3_1
I1017 12:03:37.096860 26593 net.cpp:406] conv3_1 <- pool2
I1017 12:03:37.096874 26593 net.cpp:380] conv3_1 -> conv3_1
I1017 12:03:37.099200 26593 net.cpp:122] Setting up conv3_1
I1017 12:03:37.099238 26593 net.cpp:129] Top shape: 100 256 72 72 (132710400)
I1017 12:03:37.099248 26593 net.cpp:137] Memory required for data: 14166842800
I1017 12:03:37.099272 26593 layer_factory.hpp:77] Creating layer relu3_1
I1017 12:03:37.099299 26593 net.cpp:84] Creating Layer relu3_1
I1017 12:03:37.099309 26593 net.cpp:406] relu3_1 <- conv3_1
I1017 12:03:37.099324 26593 net.cpp:367] relu3_1 -> conv3_1 (in-place)
I1017 12:03:37.099340 26593 net.cpp:122] Setting up relu3_1
I1017 12:03:37.099352 26593 net.cpp:129] Top shape: 100 256 72 72 (132710400)
I1017 12:03:37.099361 26593 net.cpp:137] Memory required for data: 14697684400
I1017 12:03:37.099370 26593 layer_factory.hpp:77] Creating layer conv3_2
I1017 12:03:37.099392 26593 net.cpp:84] Creating Layer conv3_2
I1017 12:03:37.099405 26593 net.cpp:406] conv3_2 <- conv3_1
I1017 12:03:37.099421 26593 net.cpp:380] conv3_2 -> conv3_2
I1017 12:03:37.102735 26593 net.cpp:122] Setting up conv3_2
I1017 12:03:37.102771 26593 net.cpp:129] Top shape: 100 256 72 72 (132710400)
I1017 12:03:37.102780 26593 net.cpp:137] Memory required for data: 15228526000
I1017 12:03:37.102797 26593 layer_factory.hpp:77] Creating layer relu3_2
I1017 12:03:37.102811 26593 net.cpp:84] Creating Layer relu3_2
I1017 12:03:37.102821 26593 net.cpp:406] relu3_2 <- conv3_2
I1017 12:03:37.102835 26593 net.cpp:367] relu3_2 -> conv3_2 (in-place)
I1017 12:03:37.102854 26593 net.cpp:122] Setting up relu3_2
I1017 12:03:37.102869 26593 net.cpp:129] Top shape: 100 256 72 72 (132710400)
I1017 12:03:37.102877 26593 net.cpp:137] Memory required for data: 15759367600
I1017 12:03:37.102886 26593 layer_factory.hpp:77] Creating layer conv3_3
I1017 12:03:37.102906 26593 net.cpp:84] Creating Layer conv3_3
I1017 12:03:37.102916 26593 net.cpp:406] conv3_3 <- conv3_2
I1017 12:03:37.102928 26593 net.cpp:380] conv3_3 -> conv3_3
I1017 12:03:37.106238 26593 net.cpp:122] Setting up conv3_3
I1017 12:03:37.106277 26593 net.cpp:129] Top shape: 100 256 72 72 (132710400)
I1017 12:03:37.106287 26593 net.cpp:137] Memory required for data: 16290209200
I1017 12:03:37.106302 26593 layer_factory.hpp:77] Creating layer relu3_3
I1017 12:03:37.106317 26593 net.cpp:84] Creating Layer relu3_3
I1017 12:03:37.106326 26593 net.cpp:406] relu3_3 <- conv3_3
I1017 12:03:37.106340 26593 net.cpp:367] relu3_3 -> conv3_3 (in-place)
I1017 12:03:37.106356 26593 net.cpp:122] Setting up relu3_3
I1017 12:03:37.106369 26593 net.cpp:129] Top shape: 100 256 72 72 (132710400)
I1017 12:03:37.106376 26593 net.cpp:137] Memory required for data: 16821050800
I1017 12:03:37.106385 26593 layer_factory.hpp:77] Creating layer pool3
I1017 12:03:37.106400 26593 net.cpp:84] Creating Layer pool3
I1017 12:03:37.106408 26593 net.cpp:406] pool3 <- conv3_3
I1017 12:03:37.106421 26593 net.cpp:380] pool3 -> pool3
I1017 12:03:37.106501 26593 net.cpp:122] Setting up pool3
I1017 12:03:37.106518 26593 net.cpp:129] Top shape: 100 256 36 36 (33177600)
I1017 12:03:37.106526 26593 net.cpp:137] Memory required for data: 16953761200
I1017 12:03:37.106535 26593 layer_factory.hpp:77] Creating layer conv4_1
I1017 12:03:37.106552 26593 net.cpp:84] Creating Layer conv4_1
I1017 12:03:37.106561 26593 net.cpp:406] conv4_1 <- pool3
I1017 12:03:37.106576 26593 net.cpp:380] conv4_1 -> conv4_1
I1017 12:03:37.110683 26593 net.cpp:122] Setting up conv4_1
I1017 12:03:37.110702 26593 net.cpp:129] Top shape: 100 512 36 36 (66355200)
I1017 12:03:37.110707 26593 net.cpp:137] Memory required for data: 17219182000
I1017 12:03:37.110715 26593 layer_factory.hpp:77] Creating layer relu4_1
I1017 12:03:37.110724 26593 net.cpp:84] Creating Layer relu4_1
I1017 12:03:37.110729 26593 net.cpp:406] relu4_1 <- conv4_1
I1017 12:03:37.110738 26593 net.cpp:367] relu4_1 -> conv4_1 (in-place)
I1017 12:03:37.110747 26593 net.cpp:122] Setting up relu4_1
I1017 12:03:37.110754 26593 net.cpp:129] Top shape: 100 512 36 36 (66355200)
I1017 12:03:37.110757 26593 net.cpp:137] Memory required for data: 17484602800
I1017 12:03:37.110762 26593 layer_factory.hpp:77] Creating layer conv4_2
I1017 12:03:37.110771 26593 net.cpp:84] Creating Layer conv4_2
I1017 12:03:37.110776 26593 net.cpp:406] conv4_2 <- conv4_1
I1017 12:03:37.110785 26593 net.cpp:380] conv4_2 -> conv4_2
I1017 12:03:37.117156 26593 net.cpp:122] Setting up conv4_2
I1017 12:03:37.117175 26593 net.cpp:129] Top shape: 100 512 36 36 (66355200)
I1017 12:03:37.117187 26593 net.cpp:137] Memory required for data: 17750023600
I1017 12:03:37.117202 26593 layer_factory.hpp:77] Creating layer relu4_2
I1017 12:03:37.117213 26593 net.cpp:84] Creating Layer relu4_2
I1017 12:03:37.117218 26593 net.cpp:406] relu4_2 <- conv4_2
I1017 12:03:37.117225 26593 net.cpp:367] relu4_2 -> conv4_2 (in-place)
I1017 12:03:37.117234 26593 net.cpp:122] Setting up relu4_2
I1017 12:03:37.117240 26593 net.cpp:129] Top shape: 100 512 36 36 (66355200)
I1017 12:03:37.117245 26593 net.cpp:137] Memory required for data: 18015444400
I1017 12:03:37.117249 26593 layer_factory.hpp:77] Creating layer conv4_3
I1017 12:03:37.117259 26593 net.cpp:84] Creating Layer conv4_3
I1017 12:03:37.117264 26593 net.cpp:406] conv4_3 <- conv4_2
I1017 12:03:37.117272 26593 net.cpp:380] conv4_3 -> conv4_3
I1017 12:03:37.138931 26593 net.cpp:122] Setting up conv4_3
I1017 12:03:37.139245 26593 net.cpp:129] Top shape: 100 512 36 36 (66355200)
I1017 12:03:37.139278 26593 net.cpp:137] Memory required for data: 18280865200
I1017 12:03:37.139322 26593 layer_factory.hpp:77] Creating layer relu4_3
I1017 12:03:37.139420 26593 net.cpp:84] Creating Layer relu4_3
I1017 12:03:37.139461 26593 net.cpp:406] relu4_3 <- conv4_3
I1017 12:03:37.139499 26593 net.cpp:367] relu4_3 -> conv4_3 (in-place)
I1017 12:03:37.139535 26593 net.cpp:122] Setting up relu4_3
I1017 12:03:37.139562 26593 net.cpp:129] Top shape: 100 512 36 36 (66355200)
I1017 12:03:37.139567 26593 net.cpp:137] Memory required for data: 18546286000
I1017 12:03:37.139571 26593 layer_factory.hpp:77] Creating layer pool4
I1017 12:03:37.139586 26593 net.cpp:84] Creating Layer pool4
I1017 12:03:37.139592 26593 net.cpp:406] pool4 <- conv4_3
I1017 12:03:37.139603 26593 net.cpp:380] pool4 -> pool4
I1017 12:03:37.139654 26593 net.cpp:122] Setting up pool4
I1017 12:03:37.139664 26593 net.cpp:129] Top shape: 100 512 18 18 (16588800)
I1017 12:03:37.139669 26593 net.cpp:137] Memory required for data: 18612641200
I1017 12:03:37.139674 26593 layer_factory.hpp:77] Creating layer conv5_1
I1017 12:03:37.139688 26593 net.cpp:84] Creating Layer conv5_1
I1017 12:03:37.139693 26593 net.cpp:406] conv5_1 <- pool4
I1017 12:03:37.139701 26593 net.cpp:380] conv5_1 -> conv5_1
I1017 12:03:37.146967 26593 net.cpp:122] Setting up conv5_1
I1017 12:03:37.147004 26593 net.cpp:129] Top shape: 100 512 18 18 (16588800)
I1017 12:03:37.147011 26593 net.cpp:137] Memory required for data: 18678996400
I1017 12:03:37.147022 26593 layer_factory.hpp:77] Creating layer relu5_1
I1017 12:03:37.147038 26593 net.cpp:84] Creating Layer relu5_1
I1017 12:03:37.147047 26593 net.cpp:406] relu5_1 <- conv5_1
I1017 12:03:37.147058 26593 net.cpp:367] relu5_1 -> conv5_1 (in-place)
I1017 12:03:37.147071 26593 net.cpp:122] Setting up relu5_1
I1017 12:03:37.147078 26593 net.cpp:129] Top shape: 100 512 18 18 (16588800)
I1017 12:03:37.147083 26593 net.cpp:137] Memory required for data: 18745351600
I1017 12:03:37.147088 26593 layer_factory.hpp:77] Creating layer conv5_2
I1017 12:03:37.147102 26593 net.cpp:84] Creating Layer conv5_2
I1017 12:03:37.147107 26593 net.cpp:406] conv5_2 <- conv5_1
I1017 12:03:37.147115 26593 net.cpp:380] conv5_2 -> conv5_2
I1017 12:03:37.154171 26593 net.cpp:122] Setting up conv5_2
I1017 12:03:37.154201 26593 net.cpp:129] Top shape: 100 512 18 18 (16588800)
I1017 12:03:37.154206 26593 net.cpp:137] Memory required for data: 18811706800
I1017 12:03:37.154218 26593 layer_factory.hpp:77] Creating layer relu5_2
I1017 12:03:37.154245 26593 net.cpp:84] Creating Layer relu5_2
I1017 12:03:37.154253 26593 net.cpp:406] relu5_2 <- conv5_2
I1017 12:03:37.154264 26593 net.cpp:367] relu5_2 -> conv5_2 (in-place)
I1017 12:03:37.154278 26593 net.cpp:122] Setting up relu5_2
I1017 12:03:37.154284 26593 net.cpp:129] Top shape: 100 512 18 18 (16588800)
I1017 12:03:37.154289 26593 net.cpp:137] Memory required for data: 18878062000
I1017 12:03:37.154294 26593 layer_factory.hpp:77] Creating layer conv5_3
I1017 12:03:37.154304 26593 net.cpp:84] Creating Layer conv5_3
I1017 12:03:37.154309 26593 net.cpp:406] conv5_3 <- conv5_2
I1017 12:03:37.154317 26593 net.cpp:380] conv5_3 -> conv5_3
I1017 12:03:37.160965 26593 net.cpp:122] Setting up conv5_3
I1017 12:03:37.160989 26593 net.cpp:129] Top shape: 100 512 18 18 (16588800)
I1017 12:03:37.160993 26593 net.cpp:137] Memory required for data: 18944417200
I1017 12:03:37.161005 26593 layer_factory.hpp:77] Creating layer relu5_3
I1017 12:03:37.161015 26593 net.cpp:84] Creating Layer relu5_3
I1017 12:03:37.161021 26593 net.cpp:406] relu5_3 <- conv5_3
I1017 12:03:37.161031 26593 net.cpp:367] relu5_3 -> conv5_3 (in-place)
I1017 12:03:37.161041 26593 net.cpp:122] Setting up relu5_3
I1017 12:03:37.161047 26593 net.cpp:129] Top shape: 100 512 18 18 (16588800)
I1017 12:03:37.161052 26593 net.cpp:137] Memory required for data: 19010772400
I1017 12:03:37.161056 26593 layer_factory.hpp:77] Creating layer pool5
I1017 12:03:37.161067 26593 net.cpp:84] Creating Layer pool5
I1017 12:03:37.161070 26593 net.cpp:406] pool5 <- conv5_3
I1017 12:03:37.161078 26593 net.cpp:380] pool5 -> pool5
I1017 12:03:37.161125 26593 net.cpp:122] Setting up pool5
I1017 12:03:37.161134 26593 net.cpp:129] Top shape: 100 512 9 9 (4147200)
I1017 12:03:37.161137 26593 net.cpp:137] Memory required for data: 19027361200
I1017 12:03:37.161145 26593 layer_factory.hpp:77] Creating layer fc6-conv
I1017 12:03:37.161156 26593 net.cpp:84] Creating Layer fc6-conv
I1017 12:03:37.161161 26593 net.cpp:406] fc6-conv <- pool5
I1017 12:03:37.161170 26593 net.cpp:380] fc6-conv -> fc6-conv
I1017 12:03:37.473489 26593 net.cpp:122] Setting up fc6-conv
I1017 12:03:37.473533 26593 net.cpp:129] Top shape: 100 4096 3 3 (3686400)
I1017 12:03:37.473539 26593 net.cpp:137] Memory required for data: 19042106800
I1017 12:03:37.473551 26593 layer_factory.hpp:77] Creating layer relu6
I1017 12:03:37.473564 26593 net.cpp:84] Creating Layer relu6
I1017 12:03:37.473572 26593 net.cpp:406] relu6 <- fc6-conv
I1017 12:03:37.473582 26593 net.cpp:367] relu6 -> fc6-conv (in-place)
I1017 12:03:37.473598 26593 net.cpp:122] Setting up relu6
I1017 12:03:37.473603 26593 net.cpp:129] Top shape: 100 4096 3 3 (3686400)
I1017 12:03:37.473608 26593 net.cpp:137] Memory required for data: 19056852400
I1017 12:03:37.473611 26593 layer_factory.hpp:77] Creating layer drop6
I1017 12:03:37.473623 26593 net.cpp:84] Creating Layer drop6
I1017 12:03:37.473628 26593 net.cpp:406] drop6 <- fc6-conv
I1017 12:03:37.473636 26593 net.cpp:367] drop6 -> fc6-conv (in-place)
I1017 12:03:37.473668 26593 net.cpp:122] Setting up drop6
I1017 12:03:37.473675 26593 net.cpp:129] Top shape: 100 4096 3 3 (3686400)
I1017 12:03:37.473680 26593 net.cpp:137] Memory required for data: 19071598000
I1017 12:03:37.473683 26593 layer_factory.hpp:77] Creating layer fc7-conv
I1017 12:03:37.473695 26593 net.cpp:84] Creating Layer fc7-conv
I1017 12:03:37.473700 26593 net.cpp:406] fc7-conv <- fc6-conv
I1017 12:03:37.473707 26593 net.cpp:380] fc7-conv -> fc7-conv
I1017 12:03:37.533807 26593 net.cpp:122] Setting up fc7-conv
I1017 12:03:37.533839 26593 net.cpp:129] Top shape: 100 4096 3 3 (3686400)
I1017 12:03:37.533844 26593 net.cpp:137] Memory required for data: 19086343600
I1017 12:03:37.533855 26593 layer_factory.hpp:77] Creating layer relu7
I1017 12:03:37.533872 26593 net.cpp:84] Creating Layer relu7
I1017 12:03:37.533879 26593 net.cpp:406] relu7 <- fc7-conv
I1017 12:03:37.533891 26593 net.cpp:367] relu7 -> fc7-conv (in-place)
I1017 12:03:37.533903 26593 net.cpp:122] Setting up relu7
I1017 12:03:37.533910 26593 net.cpp:129] Top shape: 100 4096 3 3 (3686400)
I1017 12:03:37.533913 26593 net.cpp:137] Memory required for data: 19101089200
I1017 12:03:37.533918 26593 layer_factory.hpp:77] Creating layer drop7
I1017 12:03:37.533927 26593 net.cpp:84] Creating Layer drop7
I1017 12:03:37.533931 26593 net.cpp:406] drop7 <- fc7-conv
I1017 12:03:37.533939 26593 net.cpp:367] drop7 -> fc7-conv (in-place)
I1017 12:03:37.533970 26593 net.cpp:122] Setting up drop7
I1017 12:03:37.533977 26593 net.cpp:129] Top shape: 100 4096 3 3 (3686400)
I1017 12:03:37.533982 26593 net.cpp:137] Memory required for data: 19115834800
I1017 12:03:37.533985 26593 layer_factory.hpp:77] Creating layer fc7-conv_re
I1017 12:03:37.533995 26593 net.cpp:84] Creating Layer fc7-conv_re
I1017 12:03:37.533999 26593 net.cpp:406] fc7-conv_re <- fc7-conv
I1017 12:03:37.534008 26593 net.cpp:380] fc7-conv_re -> fc7-conv_re
I1017 12:03:37.534039 26593 net.cpp:122] Setting up fc7-conv_re
I1017 12:03:37.534045 26593 net.cpp:129] Top shape: 100 4096 9 (3686400)
I1017 12:03:37.534049 26593 net.cpp:137] Memory required for data: 19130580400
I1017 12:03:37.534054 26593 layer_factory.hpp:77] Creating layer fc7-conv_tran
I1017 12:03:37.534201 26593 net.cpp:84] Creating Layer fc7-conv_tran
I1017 12:03:37.534214 26593 net.cpp:406] fc7-conv_tran <- fc7-conv_re
I1017 12:03:37.534222 26593 net.cpp:380] fc7-conv_tran -> fc7-conv_tran
I1017 12:03:37.542681 26593 net.cpp:122] Setting up fc7-conv_tran
I1017 12:03:37.542714 26593 net.cpp:129] Top shape: 4 100 9 (3600)
I1017 12:03:37.542719 26593 net.cpp:137] Memory required for data: 19130594800
I1017 12:03:37.542727 26593 layer_factory.hpp:77] Creating layer lstm1
I1017 12:03:37.542745 26593 net.cpp:84] Creating Layer lstm1
I1017 12:03:37.542752 26593 net.cpp:406] lstm1 <- fc7-conv_tran
I1017 12:03:37.542780 26593 net.cpp:406] lstm1 <- clip_markers
I1017 12:03:37.542789 26593 net.cpp:380] lstm1 -> lstm1
I1017 12:03:37.542804 26593 recurrent_layer.cpp:20] Initializing recurrent layer: assuming input batch contains 4 timesteps of 100 independent streams.
I1017 12:03:37.543141 26593 net.cpp:51] Initializing net from parameters: 
layer {
  name: "lstm1_"
  type: "Input"
  top: "x"
  top: "cont"
  input_param {
    shape {
      dim: 4
      dim: 100
      dim: 9
    }
    shape {
      dim: 4
      dim: 100
    }
  }
}
layer {
  name: "lstm1_"
  type: "Input"
  top: "c_0"
  top: "h_0"
  input_param {
    shape {
      dim: 1
      dim: 100
      dim: 512
    }
    shape {
      dim: 1
      dim: 100
      dim: 512
    }
  }
}
layer {
  name: "lstm1_cont_slice"
  type: "Slice"
  bottom: "cont"
  top: "cont_1"
  top: "cont_2"
  top: "cont_3"
  top: "cont_4"
  slice_param {
    axis: 0
  }
}
layer {
  name: "lstm1_x_transform"
  type: "InnerProduct"
  bottom: "x"
  top: "W_xc_x"
  param {
    name: "W_xc"
  }
  param {
    name: "b_c"
  }
  propagate_down: true
  inner_product_param {
    num_output: 2048
    bias_term: true
    weight_filler {
      type: "uniform"
      min: -0.01
      max: 0.01
    }
    bias_filler {
      type: "constant"
      value: 0
    }
    axis: 2
  }
}
layer {
  name: "lstm1_W_xc_x_slice"
  type: "Slice"
  bottom: "W_xc_x"
  top: "W_xc_x_1"
  top: "W_xc_x_2"
  top: "W_xc_x_3"
  top: "W_xc_x_4"
  slice_param {
    axis: 0
  }
}
layer {
  name: "lstm1_h_conted_0"
  type: "Scale"
  bottom: "h_0"
  bottom: "cont_1"
  top: "h_conted_0"
  scale_param {
    axis: 0
  }
}
layer {
  name: "lstm1_transform_1"
  type: "InnerProduct"
  bottom: "h_conted_0"
  top: "W_hc_h_0"
  param {
    name: "W_hc"
  }
  inner_product_param {
    num_output: 2048
    bias_term: false
    weight_filler {
      type: "uniform"
      min: -0.01
      max: 0.01
    }
    axis: 2
  }
}
layer {
  name: "lstm1_gate_input_1"
  type: "Eltwise"
  bottom: "W_hc_h_0"
  bottom: "W_xc_x_1"
  top: "gate_input_1"
  eltwise_param {
    operation: SUM
  }
}
layer {
  name: "lstm1_unit_1"
  type: "LSTMUnit"
  bottom: "c_0"
  bottom: "gate_input_1"
  bottom: "cont_1"
  top: "c_1"
  top: "h_1"
}
layer {
  name: "lstm1_h_conted_1"
  type: "Scale"
  bottom: "h_1"
  bottom: "cont_2"
  top: "h_conted_1"
  scale_param {
    axis: 0
  }
}
layer {
  name: "lstm1_transform_2"
  type: "InnerProduct"
  bottom: "h_conted_1"
  top: "W_hc_h_1"
  param {
    name: "W_hc"
  }
  inner_product_param {
    num_output: 2048
    bias_term: false
    weight_filler {
      type: "uniform"
      min: -0.01
      max: 0.01
    }
    axis: 2
  }
}
layer {
  name: "lstm1_gate_input_2"
  type: "Eltwise"
  bottom: "W_hc_h_1"
  bottom: "W_xc_x_2"
  top: "gate_input_2"
  eltwise_param {
    operation: SUM
  }
}
layer {
  name: "lstm1_unit_2"
  type: "LSTMUnit"
  bottom: "c_1"
  bottom: "gate_input_2"
  bottom: "cont_2"
  top: "c_2"
  top: "h_2"
}
layer {
  name: "lstm1_h_conted_2"
  type: "Scale"
  bottom: "h_2"
  bottom: "cont_3"
  top: "h_conted_2"
  scale_param {
    axis: 0
  }
}
layer {
  name: "lstm1_transform_3"
  type: "InnerProduct"
  bottom: "h_conted_2"
  top: "W_hc_h_2"
  param {
    name: "W_hc"
  }
  inner_product_param {
    num_output: 2048
    bias_term: false
    weight_filler {
      type: "uniform"
      min: -0.01
      max: 0.01
    }
    axis: 2
  }
}
layer {
  name: "lstm1_gate_input_3"
  type: "Eltwise"
  bottom: "W_hc_h_2"
  bottom: "W_xc_x_3"
  top: "gate_input_3"
  eltwise_param {
    operation: SUM
  }
}
layer {
  name: "lstm1_unit_3"
  type: "LSTMUnit"
  bottom: "c_2"
  bottom: "gate_input_3"
  bottom: "cont_3"
  top: "c_3"
  top: "h_3"
}
layer {
  name: "lstm1_h_conted_3"
  type: "Scale"
  bottom: "h_3"
  bottom: "cont_4"
  top: "h_conted_3"
  scale_param {
    axis: 0
  }
}
layer {
  name: "lstm1_transform_4"
  type: "InnerProduct"
  bottom: "h_conted_3"
  top: "W_hc_h_3"
  param {
    name: "W_hc"
  }
  inner_product_param {
    num_output: 2048
    bias_term: false
    weight_filler {
      type: "uniform"
      min: -0.01
      max: 0.01
    }
    axis: 2
  }
}
layer {
  name: "lstm1_gate_input_4"
  type: "Eltwise"
  bottom: "W_hc_h_3"
  bottom: "W_xc_x_4"
  top: "gate_input_4"
  eltwise_param {
    operation: SUM
  }
}
layer {
  name: "lstm1_unit_4"
  type: "LSTMUnit"
  bottom: "c_3"
  bottom: "gate_input_4"
  bottom: "cont_4"
  top: "c_4"
  top: "h_4"
}
layer {
  name: "lstm1_"
  type: "Split"
  bottom: "c_4"
  top: "c_T"
}
layer {
  name: "lstm1_h_concat"
  type: "Concat"
  bottom: "h_1"
  bottom: "h_2"
  bottom: "h_3"
  bottom: "h_4"
  top: "h"
  concat_param {
    axis: 0
  }
}
layer {
  name: "h_pseudoloss"
  type: "Reduction"
  bottom: "h"
  top: "h_pseudoloss"
  loss_weight: 1
}
I1017 12:03:37.543316 26593 layer_factory.hpp:77] Creating layer lstm1_
I1017 12:03:37.543330 26593 net.cpp:84] Creating Layer lstm1_
I1017 12:03:37.543335 26593 net.cpp:380] lstm1_ -> x
I1017 12:03:37.543346 26593 net.cpp:380] lstm1_ -> cont
I1017 12:03:37.543395 26593 net.cpp:122] Setting up lstm1_
I1017 12:03:37.543402 26593 net.cpp:129] Top shape: 4 100 9 (3600)
I1017 12:03:37.543408 26593 net.cpp:129] Top shape: 4 100 (400)
I1017 12:03:37.543412 26593 net.cpp:137] Memory required for data: 16000
I1017 12:03:37.543416 26593 layer_factory.hpp:77] Creating layer lstm1_
I1017 12:03:37.543423 26593 net.cpp:84] Creating Layer lstm1_
I1017 12:03:37.543428 26593 net.cpp:380] lstm1_ -> c_0
I1017 12:03:37.543437 26593 net.cpp:380] lstm1_ -> h_0
I1017 12:03:37.543483 26593 net.cpp:122] Setting up lstm1_
I1017 12:03:37.543490 26593 net.cpp:129] Top shape: 1 100 512 (51200)
I1017 12:03:37.543495 26593 net.cpp:129] Top shape: 1 100 512 (51200)
I1017 12:03:37.543498 26593 net.cpp:137] Memory required for data: 425600
I1017 12:03:37.543503 26593 layer_factory.hpp:77] Creating layer lstm1_cont_slice
I1017 12:03:37.543510 26593 net.cpp:84] Creating Layer lstm1_cont_slice
I1017 12:03:37.543515 26593 net.cpp:406] lstm1_cont_slice <- cont
I1017 12:03:37.543524 26593 net.cpp:380] lstm1_cont_slice -> cont_1
I1017 12:03:37.543530 26593 net.cpp:380] lstm1_cont_slice -> cont_2
I1017 12:03:37.543537 26593 net.cpp:380] lstm1_cont_slice -> cont_3
I1017 12:03:37.543543 26593 net.cpp:380] lstm1_cont_slice -> cont_4
I1017 12:03:37.543606 26593 net.cpp:122] Setting up lstm1_cont_slice
I1017 12:03:37.543612 26593 net.cpp:129] Top shape: 1 100 (100)
I1017 12:03:37.543617 26593 net.cpp:129] Top shape: 1 100 (100)
I1017 12:03:37.543622 26593 net.cpp:129] Top shape: 1 100 (100)
I1017 12:03:37.543627 26593 net.cpp:129] Top shape: 1 100 (100)
I1017 12:03:37.543630 26593 net.cpp:137] Memory required for data: 427200
I1017 12:03:37.543634 26593 layer_factory.hpp:77] Creating layer cont_1_lstm1_cont_slice_0_split
I1017 12:03:37.543642 26593 net.cpp:84] Creating Layer cont_1_lstm1_cont_slice_0_split
I1017 12:03:37.543647 26593 net.cpp:406] cont_1_lstm1_cont_slice_0_split <- cont_1
I1017 12:03:37.543653 26593 net.cpp:380] cont_1_lstm1_cont_slice_0_split -> cont_1_lstm1_cont_slice_0_split_0
I1017 12:03:37.543660 26593 net.cpp:380] cont_1_lstm1_cont_slice_0_split -> cont_1_lstm1_cont_slice_0_split_1
I1017 12:03:37.543694 26593 net.cpp:122] Setting up cont_1_lstm1_cont_slice_0_split
I1017 12:03:37.543701 26593 net.cpp:129] Top shape: 1 100 (100)
I1017 12:03:37.543706 26593 net.cpp:129] Top shape: 1 100 (100)
I1017 12:03:37.543709 26593 net.cpp:137] Memory required for data: 428000
I1017 12:03:37.543714 26593 layer_factory.hpp:77] Creating layer cont_2_lstm1_cont_slice_1_split
I1017 12:03:37.543721 26593 net.cpp:84] Creating Layer cont_2_lstm1_cont_slice_1_split
I1017 12:03:37.543725 26593 net.cpp:406] cont_2_lstm1_cont_slice_1_split <- cont_2
I1017 12:03:37.543731 26593 net.cpp:380] cont_2_lstm1_cont_slice_1_split -> cont_2_lstm1_cont_slice_1_split_0
I1017 12:03:37.543737 26593 net.cpp:380] cont_2_lstm1_cont_slice_1_split -> cont_2_lstm1_cont_slice_1_split_1
I1017 12:03:37.543773 26593 net.cpp:122] Setting up cont_2_lstm1_cont_slice_1_split
I1017 12:03:37.543779 26593 net.cpp:129] Top shape: 1 100 (100)
I1017 12:03:37.543783 26593 net.cpp:129] Top shape: 1 100 (100)
I1017 12:03:37.543787 26593 net.cpp:137] Memory required for data: 428800
I1017 12:03:37.543792 26593 layer_factory.hpp:77] Creating layer cont_3_lstm1_cont_slice_2_split
I1017 12:03:37.543797 26593 net.cpp:84] Creating Layer cont_3_lstm1_cont_slice_2_split
I1017 12:03:37.543800 26593 net.cpp:406] cont_3_lstm1_cont_slice_2_split <- cont_3
I1017 12:03:37.543805 26593 net.cpp:380] cont_3_lstm1_cont_slice_2_split -> cont_3_lstm1_cont_slice_2_split_0
I1017 12:03:37.543813 26593 net.cpp:380] cont_3_lstm1_cont_slice_2_split -> cont_3_lstm1_cont_slice_2_split_1
I1017 12:03:37.543843 26593 net.cpp:122] Setting up cont_3_lstm1_cont_slice_2_split
I1017 12:03:37.543849 26593 net.cpp:129] Top shape: 1 100 (100)
I1017 12:03:37.543854 26593 net.cpp:129] Top shape: 1 100 (100)
I1017 12:03:37.543859 26593 net.cpp:137] Memory required for data: 429600
I1017 12:03:37.543862 26593 layer_factory.hpp:77] Creating layer cont_4_lstm1_cont_slice_3_split
I1017 12:03:37.543869 26593 net.cpp:84] Creating Layer cont_4_lstm1_cont_slice_3_split
I1017 12:03:37.543874 26593 net.cpp:406] cont_4_lstm1_cont_slice_3_split <- cont_4
I1017 12:03:37.543879 26593 net.cpp:380] cont_4_lstm1_cont_slice_3_split -> cont_4_lstm1_cont_slice_3_split_0
I1017 12:03:37.543885 26593 net.cpp:380] cont_4_lstm1_cont_slice_3_split -> cont_4_lstm1_cont_slice_3_split_1
I1017 12:03:37.543916 26593 net.cpp:122] Setting up cont_4_lstm1_cont_slice_3_split
I1017 12:03:37.543922 26593 net.cpp:129] Top shape: 1 100 (100)
I1017 12:03:37.543927 26593 net.cpp:129] Top shape: 1 100 (100)
I1017 12:03:37.543931 26593 net.cpp:137] Memory required for data: 430400
I1017 12:03:37.543934 26593 layer_factory.hpp:77] Creating layer lstm1_x_transform
I1017 12:03:37.543941 26593 net.cpp:84] Creating Layer lstm1_x_transform
I1017 12:03:37.543946 26593 net.cpp:406] lstm1_x_transform <- x
I1017 12:03:37.543952 26593 net.cpp:380] lstm1_x_transform -> W_xc_x
I1017 12:03:37.544296 26593 net.cpp:122] Setting up lstm1_x_transform
I1017 12:03:37.544306 26593 net.cpp:129] Top shape: 4 100 2048 (819200)
I1017 12:03:37.544311 26593 net.cpp:137] Memory required for data: 3707200
I1017 12:03:37.544322 26593 layer_factory.hpp:77] Creating layer lstm1_W_xc_x_slice
I1017 12:03:37.544328 26593 net.cpp:84] Creating Layer lstm1_W_xc_x_slice
I1017 12:03:37.544332 26593 net.cpp:406] lstm1_W_xc_x_slice <- W_xc_x
I1017 12:03:37.544340 26593 net.cpp:380] lstm1_W_xc_x_slice -> W_xc_x_1
I1017 12:03:37.544348 26593 net.cpp:380] lstm1_W_xc_x_slice -> W_xc_x_2
I1017 12:03:37.544354 26593 net.cpp:380] lstm1_W_xc_x_slice -> W_xc_x_3
I1017 12:03:37.544361 26593 net.cpp:380] lstm1_W_xc_x_slice -> W_xc_x_4
I1017 12:03:37.544420 26593 net.cpp:122] Setting up lstm1_W_xc_x_slice
I1017 12:03:37.544426 26593 net.cpp:129] Top shape: 1 100 2048 (204800)
I1017 12:03:37.544431 26593 net.cpp:129] Top shape: 1 100 2048 (204800)
I1017 12:03:37.544436 26593 net.cpp:129] Top shape: 1 100 2048 (204800)
I1017 12:03:37.544440 26593 net.cpp:129] Top shape: 1 100 2048 (204800)
I1017 12:03:37.544445 26593 net.cpp:137] Memory required for data: 6984000
I1017 12:03:37.544448 26593 layer_factory.hpp:77] Creating layer lstm1_h_conted_0
I1017 12:03:37.544457 26593 net.cpp:84] Creating Layer lstm1_h_conted_0
I1017 12:03:37.544461 26593 net.cpp:406] lstm1_h_conted_0 <- h_0
I1017 12:03:37.544467 26593 net.cpp:406] lstm1_h_conted_0 <- cont_1_lstm1_cont_slice_0_split_0
I1017 12:03:37.544473 26593 net.cpp:380] lstm1_h_conted_0 -> h_conted_0
I1017 12:03:37.544548 26593 net.cpp:122] Setting up lstm1_h_conted_0
I1017 12:03:37.544555 26593 net.cpp:129] Top shape: 1 100 512 (51200)
I1017 12:03:37.544559 26593 net.cpp:137] Memory required for data: 7188800
I1017 12:03:37.544564 26593 layer_factory.hpp:77] Creating layer lstm1_transform_1
I1017 12:03:37.544569 26593 net.cpp:84] Creating Layer lstm1_transform_1
I1017 12:03:37.544574 26593 net.cpp:406] lstm1_transform_1 <- h_conted_0
I1017 12:03:37.544582 26593 net.cpp:380] lstm1_transform_1 -> W_hc_h_0
I1017 12:03:37.559005 26593 net.cpp:122] Setting up lstm1_transform_1
I1017 12:03:37.559180 26593 net.cpp:129] Top shape: 1 100 2048 (204800)
I1017 12:03:37.559204 26593 net.cpp:137] Memory required for data: 8008000
I1017 12:03:37.559274 26593 layer_factory.hpp:77] Creating layer lstm1_gate_input_1
I1017 12:03:37.559350 26593 net.cpp:84] Creating Layer lstm1_gate_input_1
I1017 12:03:37.559363 26593 net.cpp:406] lstm1_gate_input_1 <- W_hc_h_0
I1017 12:03:37.559371 26593 net.cpp:406] lstm1_gate_input_1 <- W_xc_x_1
I1017 12:03:37.559378 26593 net.cpp:380] lstm1_gate_input_1 -> gate_input_1
I1017 12:03:37.559423 26593 net.cpp:122] Setting up lstm1_gate_input_1
I1017 12:03:37.559430 26593 net.cpp:129] Top shape: 1 100 2048 (204800)
I1017 12:03:37.559433 26593 net.cpp:137] Memory required for data: 8827200
I1017 12:03:37.559438 26593 layer_factory.hpp:77] Creating layer lstm1_unit_1
I1017 12:03:37.559447 26593 net.cpp:84] Creating Layer lstm1_unit_1
I1017 12:03:37.559451 26593 net.cpp:406] lstm1_unit_1 <- c_0
I1017 12:03:37.559456 26593 net.cpp:406] lstm1_unit_1 <- gate_input_1
I1017 12:03:37.559463 26593 net.cpp:406] lstm1_unit_1 <- cont_1_lstm1_cont_slice_0_split_1
I1017 12:03:37.559468 26593 net.cpp:380] lstm1_unit_1 -> c_1
I1017 12:03:37.559474 26593 net.cpp:380] lstm1_unit_1 -> h_1
I1017 12:03:37.559526 26593 net.cpp:122] Setting up lstm1_unit_1
I1017 12:03:37.559533 26593 net.cpp:129] Top shape: 1 100 512 (51200)
I1017 12:03:37.559537 26593 net.cpp:129] Top shape: 1 100 512 (51200)
I1017 12:03:37.559541 26593 net.cpp:137] Memory required for data: 9236800
I1017 12:03:37.559545 26593 layer_factory.hpp:77] Creating layer h_1_lstm1_unit_1_1_split
I1017 12:03:37.559556 26593 net.cpp:84] Creating Layer h_1_lstm1_unit_1_1_split
I1017 12:03:37.559564 26593 net.cpp:406] h_1_lstm1_unit_1_1_split <- h_1
I1017 12:03:37.559584 26593 net.cpp:380] h_1_lstm1_unit_1_1_split -> h_1_lstm1_unit_1_1_split_0
I1017 12:03:37.559617 26593 net.cpp:380] h_1_lstm1_unit_1_1_split -> h_1_lstm1_unit_1_1_split_1
I1017 12:03:37.559782 26593 net.cpp:122] Setting up h_1_lstm1_unit_1_1_split
I1017 12:03:37.559846 26593 net.cpp:129] Top shape: 1 100 512 (51200)
I1017 12:03:37.559860 26593 net.cpp:129] Top shape: 1 100 512 (51200)
I1017 12:03:37.559870 26593 net.cpp:137] Memory required for data: 9646400
I1017 12:03:37.559875 26593 layer_factory.hpp:77] Creating layer lstm1_h_conted_1
I1017 12:03:37.559918 26593 net.cpp:84] Creating Layer lstm1_h_conted_1
I1017 12:03:37.559933 26593 net.cpp:406] lstm1_h_conted_1 <- h_1_lstm1_unit_1_1_split_0
I1017 12:03:37.559964 26593 net.cpp:406] lstm1_h_conted_1 <- cont_2_lstm1_cont_slice_1_split_0
I1017 12:03:37.559986 26593 net.cpp:380] lstm1_h_conted_1 -> h_conted_1
I1017 12:03:37.560353 26593 net.cpp:122] Setting up lstm1_h_conted_1
I1017 12:03:37.560427 26593 net.cpp:129] Top shape: 1 100 512 (51200)
I1017 12:03:37.560446 26593 net.cpp:137] Memory required for data: 9851200
I1017 12:03:37.560458 26593 layer_factory.hpp:77] Creating layer lstm1_transform_2
I1017 12:03:37.560509 26593 net.cpp:84] Creating Layer lstm1_transform_2
I1017 12:03:37.560524 26593 net.cpp:406] lstm1_transform_2 <- h_conted_1
I1017 12:03:37.560571 26593 net.cpp:380] lstm1_transform_2 -> W_hc_h_1
I1017 12:03:37.578552 26593 net.cpp:122] Setting up lstm1_transform_2
I1017 12:03:37.578582 26593 net.cpp:129] Top shape: 1 100 2048 (204800)
I1017 12:03:37.578586 26593 net.cpp:137] Memory required for data: 10670400
I1017 12:03:37.578596 26593 net.cpp:465] Sharing parameters 'W_hc' owned by layer 'lstm1_transform_1', param index 0
I1017 12:03:37.578603 26593 layer_factory.hpp:77] Creating layer lstm1_gate_input_2
I1017 12:03:37.578625 26593 net.cpp:84] Creating Layer lstm1_gate_input_2
I1017 12:03:37.578631 26593 net.cpp:406] lstm1_gate_input_2 <- W_hc_h_1
I1017 12:03:37.578640 26593 net.cpp:406] lstm1_gate_input_2 <- W_xc_x_2
I1017 12:03:37.578647 26593 net.cpp:380] lstm1_gate_input_2 -> gate_input_2
I1017 12:03:37.578701 26593 net.cpp:122] Setting up lstm1_gate_input_2
I1017 12:03:37.578709 26593 net.cpp:129] Top shape: 1 100 2048 (204800)
I1017 12:03:37.578716 26593 net.cpp:137] Memory required for data: 11489600
I1017 12:03:37.578719 26593 layer_factory.hpp:77] Creating layer lstm1_unit_2
I1017 12:03:37.578727 26593 net.cpp:84] Creating Layer lstm1_unit_2
I1017 12:03:37.578732 26593 net.cpp:406] lstm1_unit_2 <- c_1
I1017 12:03:37.578737 26593 net.cpp:406] lstm1_unit_2 <- gate_input_2
I1017 12:03:37.578742 26593 net.cpp:406] lstm1_unit_2 <- cont_2_lstm1_cont_slice_1_split_1
I1017 12:03:37.578748 26593 net.cpp:380] lstm1_unit_2 -> c_2
I1017 12:03:37.578757 26593 net.cpp:380] lstm1_unit_2 -> h_2
I1017 12:03:37.578814 26593 net.cpp:122] Setting up lstm1_unit_2
I1017 12:03:37.578821 26593 net.cpp:129] Top shape: 1 100 512 (51200)
I1017 12:03:37.578829 26593 net.cpp:129] Top shape: 1 100 512 (51200)
I1017 12:03:37.578832 26593 net.cpp:137] Memory required for data: 11899200
I1017 12:03:37.578836 26593 layer_factory.hpp:77] Creating layer h_2_lstm1_unit_2_1_split
I1017 12:03:37.578843 26593 net.cpp:84] Creating Layer h_2_lstm1_unit_2_1_split
I1017 12:03:37.578847 26593 net.cpp:406] h_2_lstm1_unit_2_1_split <- h_2
I1017 12:03:37.578853 26593 net.cpp:380] h_2_lstm1_unit_2_1_split -> h_2_lstm1_unit_2_1_split_0
I1017 12:03:37.578860 26593 net.cpp:380] h_2_lstm1_unit_2_1_split -> h_2_lstm1_unit_2_1_split_1
I1017 12:03:37.578897 26593 net.cpp:122] Setting up h_2_lstm1_unit_2_1_split
I1017 12:03:37.578903 26593 net.cpp:129] Top shape: 1 100 512 (51200)
I1017 12:03:37.578908 26593 net.cpp:129] Top shape: 1 100 512 (51200)
I1017 12:03:37.578912 26593 net.cpp:137] Memory required for data: 12308800
I1017 12:03:37.578917 26593 layer_factory.hpp:77] Creating layer lstm1_h_conted_2
I1017 12:03:37.578927 26593 net.cpp:84] Creating Layer lstm1_h_conted_2
I1017 12:03:37.578932 26593 net.cpp:406] lstm1_h_conted_2 <- h_2_lstm1_unit_2_1_split_0
I1017 12:03:37.578938 26593 net.cpp:406] lstm1_h_conted_2 <- cont_3_lstm1_cont_slice_2_split_0
I1017 12:03:37.578943 26593 net.cpp:380] lstm1_h_conted_2 -> h_conted_2
I1017 12:03:37.579018 26593 net.cpp:122] Setting up lstm1_h_conted_2
I1017 12:03:37.579032 26593 net.cpp:129] Top shape: 1 100 512 (51200)
I1017 12:03:37.579036 26593 net.cpp:137] Memory required for data: 12513600
I1017 12:03:37.579041 26593 layer_factory.hpp:77] Creating layer lstm1_transform_3
I1017 12:03:37.579052 26593 net.cpp:84] Creating Layer lstm1_transform_3
I1017 12:03:37.579056 26593 net.cpp:406] lstm1_transform_3 <- h_conted_2
I1017 12:03:37.579063 26593 net.cpp:380] lstm1_transform_3 -> W_hc_h_2
I1017 12:03:37.593333 26593 net.cpp:122] Setting up lstm1_transform_3
I1017 12:03:37.593497 26593 net.cpp:129] Top shape: 1 100 2048 (204800)
I1017 12:03:37.593518 26593 net.cpp:137] Memory required for data: 13332800
I1017 12:03:37.593590 26593 net.cpp:465] Sharing parameters 'W_hc' owned by layer 'lstm1_transform_1', param index 0
I1017 12:03:37.593621 26593 layer_factory.hpp:77] Creating layer lstm1_gate_input_3
I1017 12:03:37.593691 26593 net.cpp:84] Creating Layer lstm1_gate_input_3
I1017 12:03:37.593771 26593 net.cpp:406] lstm1_gate_input_3 <- W_hc_h_2
I1017 12:03:37.593816 26593 net.cpp:406] lstm1_gate_input_3 <- W_xc_x_3
I1017 12:03:37.593848 26593 net.cpp:380] lstm1_gate_input_3 -> gate_input_3
I1017 12:03:37.593906 26593 net.cpp:122] Setting up lstm1_gate_input_3
I1017 12:03:37.593926 26593 net.cpp:129] Top shape: 1 100 2048 (204800)
I1017 12:03:37.593933 26593 net.cpp:137] Memory required for data: 14152000
I1017 12:03:37.593940 26593 layer_factory.hpp:77] Creating layer lstm1_unit_3
I1017 12:03:37.593952 26593 net.cpp:84] Creating Layer lstm1_unit_3
I1017 12:03:37.593962 26593 net.cpp:406] lstm1_unit_3 <- c_2
I1017 12:03:37.593972 26593 net.cpp:406] lstm1_unit_3 <- gate_input_3
I1017 12:03:37.593981 26593 net.cpp:406] lstm1_unit_3 <- cont_3_lstm1_cont_slice_2_split_1
I1017 12:03:37.593993 26593 net.cpp:380] lstm1_unit_3 -> c_3
I1017 12:03:37.594053 26593 net.cpp:380] lstm1_unit_3 -> h_3
I1017 12:03:37.594415 26593 net.cpp:122] Setting up lstm1_unit_3
I1017 12:03:37.594535 26593 net.cpp:129] Top shape: 1 100 512 (51200)
I1017 12:03:37.594578 26593 net.cpp:129] Top shape: 1 100 512 (51200)
I1017 12:03:37.594615 26593 net.cpp:137] Memory required for data: 14561600
I1017 12:03:37.594638 26593 layer_factory.hpp:77] Creating layer h_3_lstm1_unit_3_1_split
I1017 12:03:37.594862 26593 net.cpp:84] Creating Layer h_3_lstm1_unit_3_1_split
I1017 12:03:37.594910 26593 net.cpp:406] h_3_lstm1_unit_3_1_split <- h_3
I1017 12:03:37.594946 26593 net.cpp:380] h_3_lstm1_unit_3_1_split -> h_3_lstm1_unit_3_1_split_0
I1017 12:03:37.594990 26593 net.cpp:380] h_3_lstm1_unit_3_1_split -> h_3_lstm1_unit_3_1_split_1
I1017 12:03:37.595309 26593 net.cpp:122] Setting up h_3_lstm1_unit_3_1_split
I1017 12:03:37.595396 26593 net.cpp:129] Top shape: 1 100 512 (51200)
I1017 12:03:37.595402 26593 net.cpp:129] Top shape: 1 100 512 (51200)
I1017 12:03:37.595405 26593 net.cpp:137] Memory required for data: 14971200
I1017 12:03:37.595410 26593 layer_factory.hpp:77] Creating layer lstm1_h_conted_3
I1017 12:03:37.595422 26593 net.cpp:84] Creating Layer lstm1_h_conted_3
I1017 12:03:37.595427 26593 net.cpp:406] lstm1_h_conted_3 <- h_3_lstm1_unit_3_1_split_0
I1017 12:03:37.595432 26593 net.cpp:406] lstm1_h_conted_3 <- cont_4_lstm1_cont_slice_3_split_0
I1017 12:03:37.595438 26593 net.cpp:380] lstm1_h_conted_3 -> h_conted_3
I1017 12:03:37.595512 26593 net.cpp:122] Setting up lstm1_h_conted_3
I1017 12:03:37.595525 26593 net.cpp:129] Top shape: 1 100 512 (51200)
I1017 12:03:37.595540 26593 net.cpp:137] Memory required for data: 15176000
I1017 12:03:37.595558 26593 layer_factory.hpp:77] Creating layer lstm1_transform_4
I1017 12:03:37.595613 26593 net.cpp:84] Creating Layer lstm1_transform_4
I1017 12:03:37.595640 26593 net.cpp:406] lstm1_transform_4 <- h_conted_3
I1017 12:03:37.595672 26593 net.cpp:380] lstm1_transform_4 -> W_hc_h_3
I1017 12:03:37.614894 26593 net.cpp:122] Setting up lstm1_transform_4
I1017 12:03:37.614922 26593 net.cpp:129] Top shape: 1 100 2048 (204800)
I1017 12:03:37.614926 26593 net.cpp:137] Memory required for data: 15995200
I1017 12:03:37.614935 26593 net.cpp:465] Sharing parameters 'W_hc' owned by layer 'lstm1_transform_1', param index 0
I1017 12:03:37.614941 26593 layer_factory.hpp:77] Creating layer lstm1_gate_input_4
I1017 12:03:37.614954 26593 net.cpp:84] Creating Layer lstm1_gate_input_4
I1017 12:03:37.614960 26593 net.cpp:406] lstm1_gate_input_4 <- W_hc_h_3
I1017 12:03:37.614969 26593 net.cpp:406] lstm1_gate_input_4 <- W_xc_x_4
I1017 12:03:37.614976 26593 net.cpp:380] lstm1_gate_input_4 -> gate_input_4
I1017 12:03:37.615017 26593 net.cpp:122] Setting up lstm1_gate_input_4
I1017 12:03:37.615025 26593 net.cpp:129] Top shape: 1 100 2048 (204800)
I1017 12:03:37.615028 26593 net.cpp:137] Memory required for data: 16814400
I1017 12:03:37.615032 26593 layer_factory.hpp:77] Creating layer lstm1_unit_4
I1017 12:03:37.615041 26593 net.cpp:84] Creating Layer lstm1_unit_4
I1017 12:03:37.615046 26593 net.cpp:406] lstm1_unit_4 <- c_3
I1017 12:03:37.615051 26593 net.cpp:406] lstm1_unit_4 <- gate_input_4
I1017 12:03:37.615056 26593 net.cpp:406] lstm1_unit_4 <- cont_4_lstm1_cont_slice_3_split_1
I1017 12:03:37.615067 26593 net.cpp:380] lstm1_unit_4 -> c_4
I1017 12:03:37.615074 26593 net.cpp:380] lstm1_unit_4 -> h_4
I1017 12:03:37.615130 26593 net.cpp:122] Setting up lstm1_unit_4
I1017 12:03:37.615137 26593 net.cpp:129] Top shape: 1 100 512 (51200)
I1017 12:03:37.615142 26593 net.cpp:129] Top shape: 1 100 512 (51200)
I1017 12:03:37.615146 26593 net.cpp:137] Memory required for data: 17224000
I1017 12:03:37.615150 26593 layer_factory.hpp:77] Creating layer lstm1_
I1017 12:03:37.615157 26593 net.cpp:84] Creating Layer lstm1_
I1017 12:03:37.615161 26593 net.cpp:406] lstm1_ <- c_4
I1017 12:03:37.615170 26593 net.cpp:380] lstm1_ -> c_T
I1017 12:03:37.615190 26593 net.cpp:122] Setting up lstm1_
I1017 12:03:37.615197 26593 net.cpp:129] Top shape: 1 100 512 (51200)
I1017 12:03:37.615201 26593 net.cpp:137] Memory required for data: 17428800
I1017 12:03:37.615206 26593 layer_factory.hpp:77] Creating layer lstm1_h_concat
I1017 12:03:37.615213 26593 net.cpp:84] Creating Layer lstm1_h_concat
I1017 12:03:37.615218 26593 net.cpp:406] lstm1_h_concat <- h_1_lstm1_unit_1_1_split_1
I1017 12:03:37.615223 26593 net.cpp:406] lstm1_h_concat <- h_2_lstm1_unit_2_1_split_1
I1017 12:03:37.615228 26593 net.cpp:406] lstm1_h_concat <- h_3_lstm1_unit_3_1_split_1
I1017 12:03:37.615232 26593 net.cpp:406] lstm1_h_concat <- h_4
I1017 12:03:37.615238 26593 net.cpp:380] lstm1_h_concat -> h
I1017 12:03:37.615263 26593 net.cpp:122] Setting up lstm1_h_concat
I1017 12:03:37.615270 26593 net.cpp:129] Top shape: 4 100 512 (204800)
I1017 12:03:37.615273 26593 net.cpp:137] Memory required for data: 18248000
I1017 12:03:37.615278 26593 layer_factory.hpp:77] Creating layer h_pseudoloss
I1017 12:03:37.615286 26593 net.cpp:84] Creating Layer h_pseudoloss
I1017 12:03:37.615290 26593 net.cpp:406] h_pseudoloss <- h
I1017 12:03:37.615298 26593 net.cpp:380] h_pseudoloss -> h_pseudoloss
I1017 12:03:37.616402 26593 net.cpp:122] Setting up h_pseudoloss
…
I1017 12:03:37.616614 26593 net.cpp:200] lstm1_ does not need backward computation.
I1017 12:03:37.616617 26593 net.cpp:242] This network produces output c_T
I1017 12:03:37.616622 26593 net.cpp:242] This network produces output h_pseudoloss
I1017 12:03:37.619272 26593 net.cpp:255] Network initialization done.
I1017 12:03:37.619365 26593 recurrent_layer.cpp:150] Adding parameter 0: W_xc
I1017 12:03:37.619374 26593 recurrent_layer.cpp:150] Adding parameter 1: b_c
I1017 12:03:37.619379 26593 recurrent_layer.cpp:150] Adding parameter 2: W_hc
I1017 12:03:37.620410 26593 net.cpp:122] Setting up lstm1
I1017 12:03:37.620438 26593 net.cpp:129] Top shape: 4 100 512 (204800)
I1017 12:03:37.620445 26593 net.cpp:137] Memory required for data: 19131414000
I1017 12:03:37.620471 26593 layer_factory.hpp:77] Creating layer lstm1-drop
I1017 12:03:37.620483 26593 net.cpp:84] Creating Layer lstm1-drop
I1017 12:03:37.620493 26593 net.cpp:406] lstm1-drop <- lstm1
I1017 12:03:37.620507 26593 net.cpp:380] lstm1-drop -> lstm1-drop
I1017 12:03:37.620573 26593 net.cpp:122] Setting up lstm1-drop
I1017 12:03:37.620586 26593 net.cpp:129] Top shape: 4 100 512 (204800)
I1017 12:03:37.620591 26593 net.cpp:137] Memory required for data: 19132233200
I1017 12:03:37.620597 26593 layer_factory.hpp:77] Creating layer fc-final
I1017 12:03:37.620612 26593 net.cpp:84] Creating Layer fc-final
I1017 12:03:37.620618 26593 net.cpp:406] fc-final <- lstm1-drop
I1017 12:03:37.620628 26593 net.cpp:380] fc-final -> fc-final
I1017 12:03:37.621050 26593 net.cpp:122] Setting up fc-final
I1017 12:03:37.621064 26593 net.cpp:129] Top shape: 4 100 10 (4000)
I1017 12:03:37.621070 26593 net.cpp:137] Memory required for data: 19132249200
I1017 12:03:37.621079 26593 layer_factory.hpp:77] Creating layer fc-final_fc-final_0_split
I1017 12:03:37.621089 26593 net.cpp:84] Creating Layer fc-final_fc-final_0_split
I1017 12:03:37.621095 26593 net.cpp:406] fc-final_fc-final_0_split <- fc-final
I1017 12:03:37.621104 26593 net.cpp:380] fc-final_fc-final_0_split -> fc-final_fc-final_0_split_0
I1017 12:03:37.621112 26593 net.cpp:380] fc-final_fc-final_0_split -> fc-final_fc-final_0_split_1
I1017 12:03:37.621158 26593 net.cpp:122] Setting up fc-final_fc-final_0_split
I1017 12:03:37.621167 26593 net.cpp:129] Top shape: 4 100 10 (4000)
I1017 12:03:37.621173 26593 net.cpp:129] Top shape: 4 100 10 (4000)
I1017 12:03:37.621179 26593 net.cpp:137] Memory required for data: 19132281200
I1017 12:03:37.621184 26593 layer_factory.hpp:77] Creating layer loss
I1017 12:03:37.621193 26593 net.cpp:84] Creating Layer loss
I1017 12:03:37.621199 26593 net.cpp:406] loss <- fc-final_fc-final_0_split_0
I1017 12:03:37.621207 26593 net.cpp:406] loss <- reshape-label_label_tran_0_split_0
I1017 12:03:37.621215 26593 net.cpp:380] loss -> loss
…
