…
I1017 12:02:01.249531 26397 net.cpp:294] The NetState phase (0) differed from the phase (1) specified by a rule in layer Silence
I1017 12:02:01.249776 26397 net.cpp:51] Initializing net from parameters: 
name: "VGG_16_layers_LSTM"
state {
  phase: TRAIN
  level: 0
  stage: ""
}
layer {
  name: "data"
  type: "ImageData"
  top: "data"
  top: "label"
  include {
    phase: TRAIN
  }
  transform_param {
    mirror: true
    crop_size: 288
    mean_value: 104
    mean_value: 117
    mean_value: 123
  }
  image_data_param {
    source: "../Data/lsun_train_list_12w.txt"
    batch_size: 4
    shuffle: true
    new_height: 320
    new_width: 320
  }
}
layer {
  name: "label_tran"
  type: "Python"
  bottom: "label"
  top: "reshape-label"
  top: "clip_markers"
  python_param {
    module: "data_preparation_sort_max_clip"
    layer: "ReshapeLabel"
  }
}
layer {
  name: "conv1_1"
  type: "Convolution"
  bottom: "data"
  top: "conv1_1"
  convolution_param {
    num_output: 64
    pad: 1
    kernel_size: 3
  }
}
layer {
  name: "relu1_1"
  type: "ReLU"
  bottom: "conv1_1"
  top: "conv1_1"
}
layer {
  name: "conv1_2"
  type: "Convolution"
  bottom: "conv1_1"
  top: "conv1_2"
  convolution_param {
    num_output: 64
    pad: 1
    kernel_size: 3
  }
}
layer {
  name: "relu1_2"
  type: "ReLU"
  bottom: "conv1_2"
  top: "conv1_2"
}
layer {
  name: "pool1"
  type: "Pooling"
  bottom: "conv1_2"
  top: "pool1"
  pooling_param {
    pool: MAX
    kernel_size: 2
    stride: 2
  }
}
layer {
  name: "conv2_1"
  type: "Convolution"
  bottom: "pool1"
  top: "conv2_1"
  convolution_param {
    num_output: 128
    pad: 1
    kernel_size: 3
  }
}
layer {
  name: "relu2_1"
  type: "ReLU"
  bottom: "conv2_1"
  top: "conv2_1"
}
layer {
  name: "conv2_2"
  type: "Convolution"
  bottom: "conv2_1"
  top: "conv2_2"
  convolution_param {
    num_output: 128
    pad: 1
    kernel_size: 3
  }
}
layer {
  name: "relu2_2"
  type: "ReLU"
  bottom: "conv2_2"
  top: "conv2_2"
}
layer {
  name: "pool2"
  type: "Pooling"
  bottom: "conv2_2"
  top: "pool2"
  pooling_param {
    pool: MAX
    kernel_size: 2
    stride: 2
  }
}
layer {
  name: "conv3_1"
  type: "Convolution"
  bottom: "pool2"
  top: "conv3_1"
  convolution_param {
    num_output: 256
    pad: 1
    kernel_size: 3
  }
}
layer {
  name: "relu3_1"
  type: "ReLU"
  bottom: "conv3_1"
  top: "conv3_1"
}
layer {
  name: "conv3_2"
  type: "Convolution"
  bottom: "conv3_1"
  top: "conv3_2"
  convolution_param {
    num_output: 256
    pad: 1
    kernel_size: 3
  }
}
layer {
  name: "relu3_2"
  type: "ReLU"
  bottom: "conv3_2"
  top: "conv3_2"
}
layer {
  name: "conv3_3"
  type: "Convolution"
  bottom: "conv3_2"
  top: "conv3_3"
  convolution_param {
    num_output: 256
    pad: 1
    kernel_size: 3
  }
}
layer {
  name: "relu3_3"
  type: "ReLU"
  bottom: "conv3_3"
  top: "conv3_3"
}
layer {
  name: "pool3"
  type: "Pooling"
  bottom: "conv3_3"
  top: "pool3"
  pooling_param {
    pool: MAX
    kernel_size: 2
    stride: 2
  }
}
layer {
  name: "conv4_1"
  type: "Convolution"
  bottom: "pool3"
  top: "conv4_1"
  convolution_param {
    num_output: 512
    pad: 1
    kernel_size: 3
  }
}
layer {
  name: "relu4_1"
  type: "ReLU"
  bottom: "conv4_1"
  top: "conv4_1"
}
layer {
  name: "conv4_2"
  type: "Convolution"
  bottom: "conv4_1"
  top: "conv4_2"
  convolution_param {
    num_output: 512
    pad: 1
    kernel_size: 3
  }
}
layer {
  name: "relu4_2"
  type: "ReLU"
  bottom: "conv4_2"
  top: "conv4_2"
}
layer {
  name: "conv4_3"
  type: "Convolution"
  bottom: "conv4_2"
  top: "conv4_3"
  convolution_param {
    num_output: 512
    pad: 1
    kernel_size: 3
  }
}
layer {
  name: "relu4_3"
  type: "ReLU"
  bottom: "conv4_3"
  top: "conv4_3"
}
layer {
  name: "pool4"
  type: "Pooling"
  bottom: "conv4_3"
  top: "pool4"
  pooling_param {
    pool: MAX
    kernel_size: 2
    stride: 2
  }
}
layer {
  name: "conv5_1"
  type: "Convolution"
  bottom: "pool4"
  top: "conv5_1"
  convolution_param {
    num_output: 512
    pad: 1
    kernel_size: 3
  }
}
layer {
  name: "relu5_1"
  type: "ReLU"
  bottom: "conv5_1"
  top: "conv5_1"
}
layer {
  name: "conv5_2"
  type: "Convolution"
  bottom: "conv5_1"
  top: "conv5_2"
  convolution_param {
    num_output: 512
    pad: 1
    kernel_size: 3
  }
}
layer {
  name: "relu5_2"
  type: "ReLU"
  bottom: "conv5_2"
  top: "conv5_2"
}
layer {
  name: "conv5_3"
  type: "Convolution"
  bottom: "conv5_2"
  top: "conv5_3"
  convolution_param {
    num_output: 512
    pad: 1
    kernel_size: 3
  }
}
layer {
  name: "relu5_3"
  type: "ReLU"
  bottom: "conv5_3"
  top: "conv5_3"
}
layer {
  name: "pool5"
  type: "Pooling"
  bottom: "conv5_3"
  top: "pool5"
  pooling_param {
    pool: MAX
    kernel_size: 2
    stride: 2
  }
}
layer {
  name: "fc6-conv"
  type: "Convolution"
  bottom: "pool5"
  top: "fc6-conv"
  convolution_param {
    num_output: 4096
    kernel_size: 7
  }
}
layer {
  name: "relu6"
  type: "ReLU"
  bottom: "fc6-conv"
  top: "fc6-conv"
}
layer {
  name: "drop6"
  type: "Dropout"
  bottom: "fc6-conv"
  top: "fc6-conv"
  dropout_param {
    dropout_ratio: 0.5
  }
}
layer {
  name: "fc7-conv"
  type: "Convolution"
  bottom: "fc6-conv"
  top: "fc7-conv"
  convolution_param {
    num_output: 4096
    kernel_size: 1
  }
}
layer {
  name: "relu7"
  type: "ReLU"
  bottom: "fc7-conv"
  top: "fc7-conv"
}
layer {
  name: "drop7"
  type: "Dropout"
  bottom: "fc7-conv"
  top: "fc7-conv"
  dropout_param {
    dropout_ratio: 0.9
  }
}
layer {
  name: "fc7-conv_re"
  type: "Reshape"
  bottom: "fc7-conv"
  top: "fc7-conv_re"
  reshape_param {
    shape {
      dim: 0
      dim: 0
      dim: -1
    }
  }
}
layer {
  name: "fc7-conv_tran"
  type: "Python"
  bottom: "fc7-conv_re"
  top: "fc7-conv_tran"
  python_param {
    module: "data_preparation_sort_max_clip"
    layer: "DataTransposeSortMaxClip"
  }
}
layer {
  name: "lstm1"
  type: "LSTM"
  bottom: "fc7-conv_tran"
  bottom: "clip_markers"
  top: "lstm1"
  recurrent_param {
    num_output: 512
    weight_filler {
      type: "uniform"
      min: -0.01
      max: 0.01
    }
    bias_filler {
      type: "constant"
      value: 0
    }
  }
}
layer {
  name: "lstm1-drop"
  type: "Dropout"
  bottom: "lstm1"
  top: "lstm1-drop"
  dropout_param {
    dropout_ratio: 0.5
  }
}
layer {
  name: "fc-final"
  type: "InnerProduct"
  bottom: "lstm1-drop"
  top: "fc-final"
  param {
    lr_mult: 1
    decay_mult: 1
  }
  param {
    lr_mult: 2
    decay_mult: 0
  }
  inner_product_param {
    num_output: 10
    weight_filler {
      type: "gaussian"
      std: 0.01
    }
    bias_filler {
      type: "constant"
      value: 0
    }
    axis: 2
  }
}
layer {
  name: "loss"
  type: "SoftmaxWithLoss"
  bottom: "fc-final"
  bottom: "reshape-label"
  top: "loss"
  softmax_param {
    axis: 2
  }
}
layer {
  name: "accuracy"
  type: "Accuracy"
  bottom: "fc-final"
  bottom: "reshape-label"
  top: "accuracy"
  accuracy_param {
    axis: 2
  }
}
I1017 12:02:01.250036 26397 layer_factory.hpp:77] Creating layer data
I1017 12:02:01.250833 26397 net.cpp:84] Creating Layer data
I1017 12:02:01.250854 26397 net.cpp:380] data -> data
I1017 12:02:01.251862 26397 net.cpp:380] data -> label
I1017 12:02:01.251947 26397 image_data_layer.cpp:38] Opening file ../Data/lsun_train_list_12w.txt
I1017 12:02:01.782702 26397 image_data_layer.cpp:53] Shuffling data
I1017 12:02:02.038318 26397 image_data_layer.cpp:63] A total of 1200000 images.
I1017 12:02:02.049016 26397 image_data_layer.cpp:90] output data size: 4,3,288,288
I1017 12:02:02.066128 26397 net.cpp:122] Setting up data
I1017 12:02:02.066176 26397 net.cpp:129] Top shape: 4 3 288 288 (995328)
I1017 12:02:02.066187 26397 net.cpp:129] Top shape: 4 (4)
I1017 12:02:02.066192 26397 net.cpp:137] Memory required for data: 3981328
I1017 12:02:02.066224 26397 layer_factory.hpp:77] Creating layer label_tran
I1017 12:02:02.786360 26397 net.cpp:84] Creating Layer label_tran
I1017 12:02:02.786402 26397 net.cpp:406] label_tran <- label
I1017 12:02:02.786428 26397 net.cpp:380] label_tran -> reshape-label
I1017 12:02:02.786444 26397 net.cpp:380] label_tran -> clip_markers
I1017 12:02:02.786990 26397 net.cpp:122] Setting up label_tran
I1017 12:02:02.787010 26397 net.cpp:129] Top shape: 4 4 (16)
I1017 12:02:02.787016 26397 net.cpp:129] Top shape: 4 4 (16)
I1017 12:02:02.787021 26397 net.cpp:137] Memory required for data: 3981456
I1017 12:02:02.787027 26397 layer_factory.hpp:77] Creating layer reshape-label_label_tran_0_split
I1017 12:02:02.787047 26397 net.cpp:84] Creating Layer reshape-label_label_tran_0_split
I1017 12:02:02.787055 26397 net.cpp:406] reshape-label_label_tran_0_split <- reshape-label
I1017 12:02:02.787062 26397 net.cpp:380] reshape-label_label_tran_0_split -> reshape-label_label_tran_0_split_0
I1017 12:02:02.787071 26397 net.cpp:380] reshape-label_label_tran_0_split -> reshape-label_label_tran_0_split_1
I1017 12:02:02.787109 26397 net.cpp:122] Setting up reshape-label_label_tran_0_split
I1017 12:02:02.787119 26397 net.cpp:129] Top shape: 4 4 (16)
I1017 12:02:02.787124 26397 net.cpp:129] Top shape: 4 4 (16)
I1017 12:02:02.787128 26397 net.cpp:137] Memory required for data: 3981584
I1017 12:02:02.787133 26397 layer_factory.hpp:77] Creating layer conv1_1
I1017 12:02:02.787150 26397 net.cpp:84] Creating Layer conv1_1
I1017 12:02:02.787158 26397 net.cpp:406] conv1_1 <- data
I1017 12:02:02.787164 26397 net.cpp:380] conv1_1 -> conv1_1
I1017 12:02:02.789252 26397 net.cpp:122] Setting up conv1_1
I1017 12:02:02.789270 26397 net.cpp:129] Top shape: 4 64 288 288 (21233664)
I1017 12:02:02.789276 26397 net.cpp:137] Memory required for data: 88916240
I1017 12:02:02.789301 26397 layer_factory.hpp:77] Creating layer relu1_1
I1017 12:02:02.789314 26397 net.cpp:84] Creating Layer relu1_1
I1017 12:02:02.789319 26397 net.cpp:406] relu1_1 <- conv1_1
I1017 12:02:02.789327 26397 net.cpp:367] relu1_1 -> conv1_1 (in-place)
I1017 12:02:02.789341 26397 net.cpp:122] Setting up relu1_1
I1017 12:02:02.789347 26397 net.cpp:129] Top shape: 4 64 288 288 (21233664)
I1017 12:02:02.789351 26397 net.cpp:137] Memory required for data: 173850896
I1017 12:02:02.789355 26397 layer_factory.hpp:77] Creating layer conv1_2
I1017 12:02:02.789364 26397 net.cpp:84] Creating Layer conv1_2
I1017 12:02:02.789383 26397 net.cpp:406] conv1_2 <- conv1_1
I1017 12:02:02.789389 26397 net.cpp:380] conv1_2 -> conv1_2
I1017 12:02:02.790319 26397 net.cpp:122] Setting up conv1_2
I1017 12:02:02.790336 26397 net.cpp:129] Top shape: 4 64 288 288 (21233664)
I1017 12:02:02.790341 26397 net.cpp:137] Memory required for data: 258785552
I1017 12:02:02.790354 26397 layer_factory.hpp:77] Creating layer relu1_2
I1017 12:02:02.790361 26397 net.cpp:84] Creating Layer relu1_2
I1017 12:02:02.790366 26397 net.cpp:406] relu1_2 <- conv1_2
I1017 12:02:02.790372 26397 net.cpp:367] relu1_2 -> conv1_2 (in-place)
I1017 12:02:02.790380 26397 net.cpp:122] Setting up relu1_2
I1017 12:02:02.790390 26397 net.cpp:129] Top shape: 4 64 288 288 (21233664)
I1017 12:02:02.790393 26397 net.cpp:137] Memory required for data: 343720208
I1017 12:02:02.790397 26397 layer_factory.hpp:77] Creating layer pool1
I1017 12:02:02.790408 26397 net.cpp:84] Creating Layer pool1
I1017 12:02:02.790413 26397 net.cpp:406] pool1 <- conv1_2
I1017 12:02:02.790418 26397 net.cpp:380] pool1 -> pool1
I1017 12:02:02.790468 26397 net.cpp:122] Setting up pool1
I1017 12:02:02.790478 26397 net.cpp:129] Top shape: 4 64 144 144 (5308416)
I1017 12:02:02.790483 26397 net.cpp:137] Memory required for data: 364953872
I1017 12:02:02.790488 26397 layer_factory.hpp:77] Creating layer conv2_1
I1017 12:02:02.790496 26397 net.cpp:84] Creating Layer conv2_1
I1017 12:02:02.790501 26397 net.cpp:406] conv2_1 <- pool1
I1017 12:02:02.790508 26397 net.cpp:380] conv2_1 -> conv2_1
I1017 12:02:02.790766 26397 net.cpp:122] Setting up conv2_1
I1017 12:02:02.790777 26397 net.cpp:129] Top shape: 4 128 144 144 (10616832)
I1017 12:02:02.790781 26397 net.cpp:137] Memory required for data: 407421200
I1017 12:02:02.790792 26397 layer_factory.hpp:77] Creating layer relu2_1
I1017 12:02:02.790802 26397 net.cpp:84] Creating Layer relu2_1
I1017 12:02:02.790807 26397 net.cpp:406] relu2_1 <- conv2_1
I1017 12:02:02.790813 26397 net.cpp:367] relu2_1 -> conv2_1 (in-place)
I1017 12:02:02.790820 26397 net.cpp:122] Setting up relu2_1
I1017 12:02:02.790827 26397 net.cpp:129] Top shape: 4 128 144 144 (10616832)
I1017 12:02:02.790830 26397 net.cpp:137] Memory required for data: 449888528
I1017 12:02:02.790834 26397 layer_factory.hpp:77] Creating layer conv2_2
I1017 12:02:02.790841 26397 net.cpp:84] Creating Layer conv2_2
I1017 12:02:02.790845 26397 net.cpp:406] conv2_2 <- conv2_1
I1017 12:02:02.790851 26397 net.cpp:380] conv2_2 -> conv2_2
I1017 12:02:02.791797 26397 net.cpp:122] Setting up conv2_2
I1017 12:02:02.791813 26397 net.cpp:129] Top shape: 4 128 144 144 (10616832)
I1017 12:02:02.791818 26397 net.cpp:137] Memory required for data: 492355856
I1017 12:02:02.791826 26397 layer_factory.hpp:77] Creating layer relu2_2
I1017 12:02:02.791833 26397 net.cpp:84] Creating Layer relu2_2
I1017 12:02:02.791838 26397 net.cpp:406] relu2_2 <- conv2_2
I1017 12:02:02.791844 26397 net.cpp:367] relu2_2 -> conv2_2 (in-place)
I1017 12:02:02.791852 26397 net.cpp:122] Setting up relu2_2
I1017 12:02:02.791862 26397 net.cpp:129] Top shape: 4 128 144 144 (10616832)
I1017 12:02:02.791865 26397 net.cpp:137] Memory required for data: 534823184
I1017 12:02:02.791869 26397 layer_factory.hpp:77] Creating layer pool2
I1017 12:02:02.791877 26397 net.cpp:84] Creating Layer pool2
I1017 12:02:02.791882 26397 net.cpp:406] pool2 <- conv2_2
I1017 12:02:02.791887 26397 net.cpp:380] pool2 -> pool2
I1017 12:02:02.791921 26397 net.cpp:122] Setting up pool2
I1017 12:02:02.791930 26397 net.cpp:129] Top shape: 4 128 72 72 (2654208)
I1017 12:02:02.791934 26397 net.cpp:137] Memory required for data: 545440016
I1017 12:02:02.791939 26397 layer_factory.hpp:77] Creating layer conv3_1
I1017 12:02:02.791946 26397 net.cpp:84] Creating Layer conv3_1
I1017 12:02:02.791952 26397 net.cpp:406] conv3_1 <- pool2
I1017 12:02:02.791960 26397 net.cpp:380] conv3_1 -> conv3_1
I1017 12:02:02.793673 26397 net.cpp:122] Setting up conv3_1
I1017 12:02:02.793689 26397 net.cpp:129] Top shape: 4 256 72 72 (5308416)
I1017 12:02:02.793694 26397 net.cpp:137] Memory required for data: 566673680
I1017 12:02:02.793705 26397 layer_factory.hpp:77] Creating layer relu3_1
I1017 12:02:02.793714 26397 net.cpp:84] Creating Layer relu3_1
I1017 12:02:02.793718 26397 net.cpp:406] relu3_1 <- conv3_1
I1017 12:02:02.793725 26397 net.cpp:367] relu3_1 -> conv3_1 (in-place)
I1017 12:02:02.793732 26397 net.cpp:122] Setting up relu3_1
I1017 12:02:02.793740 26397 net.cpp:129] Top shape: 4 256 72 72 (5308416)
I1017 12:02:02.793745 26397 net.cpp:137] Memory required for data: 587907344
I1017 12:02:02.793751 26397 layer_factory.hpp:77] Creating layer conv3_2
I1017 12:02:02.793758 26397 net.cpp:84] Creating Layer conv3_2
I1017 12:02:02.793763 26397 net.cpp:406] conv3_2 <- conv3_1
I1017 12:02:02.793768 26397 net.cpp:380] conv3_2 -> conv3_2
I1017 12:02:02.795485 26397 net.cpp:122] Setting up conv3_2
I1017 12:02:02.795501 26397 net.cpp:129] Top shape: 4 256 72 72 (5308416)
I1017 12:02:02.795506 26397 net.cpp:137] Memory required for data: 609141008
I1017 12:02:02.795513 26397 layer_factory.hpp:77] Creating layer relu3_2
I1017 12:02:02.795524 26397 net.cpp:84] Creating Layer relu3_2
I1017 12:02:02.795529 26397 net.cpp:406] relu3_2 <- conv3_2
I1017 12:02:02.795536 26397 net.cpp:367] relu3_2 -> conv3_2 (in-place)
I1017 12:02:02.795544 26397 net.cpp:122] Setting up relu3_2
I1017 12:02:02.795550 26397 net.cpp:129] Top shape: 4 256 72 72 (5308416)
I1017 12:02:02.795554 26397 net.cpp:137] Memory required for data: 630374672
I1017 12:02:02.795558 26397 layer_factory.hpp:77] Creating layer conv3_3
I1017 12:02:02.795567 26397 net.cpp:84] Creating Layer conv3_3
I1017 12:02:02.795574 26397 net.cpp:406] conv3_3 <- conv3_2
I1017 12:02:02.795580 26397 net.cpp:380] conv3_3 -> conv3_3
I1017 12:02:02.797415 26397 net.cpp:122] Setting up conv3_3
I1017 12:02:02.797432 26397 net.cpp:129] Top shape: 4 256 72 72 (5308416)
I1017 12:02:02.797436 26397 net.cpp:137] Memory required for data: 651608336
I1017 12:02:02.797444 26397 layer_factory.hpp:77] Creating layer relu3_3
I1017 12:02:02.797451 26397 net.cpp:84] Creating Layer relu3_3
I1017 12:02:02.797456 26397 net.cpp:406] relu3_3 <- conv3_3
I1017 12:02:02.797462 26397 net.cpp:367] relu3_3 -> conv3_3 (in-place)
I1017 12:02:02.797471 26397 net.cpp:122] Setting up relu3_3
I1017 12:02:02.797475 26397 net.cpp:129] Top shape: 4 256 72 72 (5308416)
I1017 12:02:02.797480 26397 net.cpp:137] Memory required for data: 672842000
I1017 12:02:02.797487 26397 layer_factory.hpp:77] Creating layer pool3
I1017 12:02:02.797493 26397 net.cpp:84] Creating Layer pool3
I1017 12:02:02.797497 26397 net.cpp:406] pool3 <- conv3_3
I1017 12:02:02.797503 26397 net.cpp:380] pool3 -> pool3
I1017 12:02:02.797538 26397 net.cpp:122] Setting up pool3
I1017 12:02:02.797547 26397 net.cpp:129] Top shape: 4 256 36 36 (1327104)
I1017 12:02:02.797551 26397 net.cpp:137] Memory required for data: 678150416
I1017 12:02:02.797555 26397 layer_factory.hpp:77] Creating layer conv4_1
I1017 12:02:02.797564 26397 net.cpp:84] Creating Layer conv4_1
I1017 12:02:02.797569 26397 net.cpp:406] conv4_1 <- pool3
I1017 12:02:02.797576 26397 net.cpp:380] conv4_1 -> conv4_1
I1017 12:02:02.801462 26397 net.cpp:122] Setting up conv4_1
I1017 12:02:02.801479 26397 net.cpp:129] Top shape: 4 512 36 36 (2654208)
I1017 12:02:02.801496 26397 net.cpp:137] Memory required for data: 688767248
I1017 12:02:02.801503 26397 layer_factory.hpp:77] Creating layer relu4_1
I1017 12:02:02.801512 26397 net.cpp:84] Creating Layer relu4_1
I1017 12:02:02.801517 26397 net.cpp:406] relu4_1 <- conv4_1
I1017 12:02:02.801523 26397 net.cpp:367] relu4_1 -> conv4_1 (in-place)
I1017 12:02:02.801530 26397 net.cpp:122] Setting up relu4_1
I1017 12:02:02.801550 26397 net.cpp:129] Top shape: 4 512 36 36 (2654208)
I1017 12:02:02.801554 26397 net.cpp:137] Memory required for data: 699384080
I1017 12:02:02.801558 26397 layer_factory.hpp:77] Creating layer conv4_2
I1017 12:02:02.801568 26397 net.cpp:84] Creating Layer conv4_2
I1017 12:02:02.801571 26397 net.cpp:406] conv4_2 <- conv4_1
I1017 12:02:02.801578 26397 net.cpp:380] conv4_2 -> conv4_2
I1017 12:02:02.807649 26397 net.cpp:122] Setting up conv4_2
I1017 12:02:02.807677 26397 net.cpp:129] Top shape: 4 512 36 36 (2654208)
I1017 12:02:02.807683 26397 net.cpp:137] Memory required for data: 710000912
I1017 12:02:02.807703 26397 layer_factory.hpp:77] Creating layer relu4_2
I1017 12:02:02.807713 26397 net.cpp:84] Creating Layer relu4_2
I1017 12:02:02.807721 26397 net.cpp:406] relu4_2 <- conv4_2
I1017 12:02:02.807729 26397 net.cpp:367] relu4_2 -> conv4_2 (in-place)
I1017 12:02:02.807737 26397 net.cpp:122] Setting up relu4_2
I1017 12:02:02.807744 26397 net.cpp:129] Top shape: 4 512 36 36 (2654208)
I1017 12:02:02.807747 26397 net.cpp:137] Memory required for data: 720617744
I1017 12:02:02.807752 26397 layer_factory.hpp:77] Creating layer conv4_3
I1017 12:02:02.807760 26397 net.cpp:84] Creating Layer conv4_3
I1017 12:02:02.807765 26397 net.cpp:406] conv4_3 <- conv4_2
I1017 12:02:02.807771 26397 net.cpp:380] conv4_3 -> conv4_3
I1017 12:02:02.813622 26397 net.cpp:122] Setting up conv4_3
I1017 12:02:02.813647 26397 net.cpp:129] Top shape: 4 512 36 36 (2654208)
I1017 12:02:02.813652 26397 net.cpp:137] Memory required for data: 731234576
I1017 12:02:02.813659 26397 layer_factory.hpp:77] Creating layer relu4_3
I1017 12:02:02.813668 26397 net.cpp:84] Creating Layer relu4_3
I1017 12:02:02.813674 26397 net.cpp:406] relu4_3 <- conv4_3
I1017 12:02:02.813681 26397 net.cpp:367] relu4_3 -> conv4_3 (in-place)
I1017 12:02:02.813691 26397 net.cpp:122] Setting up relu4_3
I1017 12:02:02.813697 26397 net.cpp:129] Top shape: 4 512 36 36 (2654208)
I1017 12:02:02.813701 26397 net.cpp:137] Memory required for data: 741851408
I1017 12:02:02.813705 26397 layer_factory.hpp:77] Creating layer pool4
I1017 12:02:02.813714 26397 net.cpp:84] Creating Layer pool4
I1017 12:02:02.813720 26397 net.cpp:406] pool4 <- conv4_3
I1017 12:02:02.813729 26397 net.cpp:380] pool4 -> pool4
I1017 12:02:02.813766 26397 net.cpp:122] Setting up pool4
I1017 12:02:02.813776 26397 net.cpp:129] Top shape: 4 512 18 18 (663552)
I1017 12:02:02.813779 26397 net.cpp:137] Memory required for data: 744505616
I1017 12:02:02.813783 26397 layer_factory.hpp:77] Creating layer conv5_1
I1017 12:02:02.813792 26397 net.cpp:84] Creating Layer conv5_1
I1017 12:02:02.813798 26397 net.cpp:406] conv5_1 <- pool4
I1017 12:02:02.813805 26397 net.cpp:380] conv5_1 -> conv5_1
I1017 12:02:02.819804 26397 net.cpp:122] Setting up conv5_1
I1017 12:02:02.819830 26397 net.cpp:129] Top shape: 4 512 18 18 (663552)
I1017 12:02:02.819835 26397 net.cpp:137] Memory required for data: 747159824
I1017 12:02:02.819849 26397 layer_factory.hpp:77] Creating layer relu5_1
I1017 12:02:02.819859 26397 net.cpp:84] Creating Layer relu5_1
I1017 12:02:02.819865 26397 net.cpp:406] relu5_1 <- conv5_1
I1017 12:02:02.819872 26397 net.cpp:367] relu5_1 -> conv5_1 (in-place)
I1017 12:02:02.819886 26397 net.cpp:122] Setting up relu5_1
I1017 12:02:02.819892 26397 net.cpp:129] Top shape: 4 512 18 18 (663552)
I1017 12:02:02.819896 26397 net.cpp:137] Memory required for data: 749814032
I1017 12:02:02.819900 26397 layer_factory.hpp:77] Creating layer conv5_2
I1017 12:02:02.819910 26397 net.cpp:84] Creating Layer conv5_2
I1017 12:02:02.819913 26397 net.cpp:406] conv5_2 <- conv5_1
I1017 12:02:02.819921 26397 net.cpp:380] conv5_2 -> conv5_2
I1017 12:02:02.825953 26397 net.cpp:122] Setting up conv5_2
I1017 12:02:02.825974 26397 net.cpp:129] Top shape: 4 512 18 18 (663552)
I1017 12:02:02.825979 26397 net.cpp:137] Memory required for data: 752468240
I1017 12:02:02.825989 26397 layer_factory.hpp:77] Creating layer relu5_2
I1017 12:02:02.826000 26397 net.cpp:84] Creating Layer relu5_2
I1017 12:02:02.826006 26397 net.cpp:406] relu5_2 <- conv5_2
I1017 12:02:02.826014 26397 net.cpp:367] relu5_2 -> conv5_2 (in-place)
I1017 12:02:02.826023 26397 net.cpp:122] Setting up relu5_2
I1017 12:02:02.826030 26397 net.cpp:129] Top shape: 4 512 18 18 (663552)
I1017 12:02:02.826033 26397 net.cpp:137] Memory required for data: 755122448
I1017 12:02:02.826037 26397 layer_factory.hpp:77] Creating layer conv5_3
I1017 12:02:02.826046 26397 net.cpp:84] Creating Layer conv5_3
I1017 12:02:02.826050 26397 net.cpp:406] conv5_3 <- conv5_2
I1017 12:02:02.826057 26397 net.cpp:380] conv5_3 -> conv5_3
I1017 12:02:02.831949 26397 net.cpp:122] Setting up conv5_3
I1017 12:02:02.831967 26397 net.cpp:129] Top shape: 4 512 18 18 (663552)
I1017 12:02:02.831972 26397 net.cpp:137] Memory required for data: 757776656
I1017 12:02:02.831982 26397 layer_factory.hpp:77] Creating layer relu5_3
I1017 12:02:02.831998 26397 net.cpp:84] Creating Layer relu5_3
I1017 12:02:02.832003 26397 net.cpp:406] relu5_3 <- conv5_3
I1017 12:02:02.832011 26397 net.cpp:367] relu5_3 -> conv5_3 (in-place)
I1017 12:02:02.832020 26397 net.cpp:122] Setting up relu5_3
I1017 12:02:02.832031 26397 net.cpp:129] Top shape: 4 512 18 18 (663552)
I1017 12:02:02.832036 26397 net.cpp:137] Memory required for data: 760430864
I1017 12:02:02.832041 26397 layer_factory.hpp:77] Creating layer pool5
I1017 12:02:02.832048 26397 net.cpp:84] Creating Layer pool5
I1017 12:02:02.832052 26397 net.cpp:406] pool5 <- conv5_3
I1017 12:02:02.832060 26397 net.cpp:380] pool5 -> pool5
I1017 12:02:02.832098 26397 net.cpp:122] Setting up pool5
I1017 12:02:02.832106 26397 net.cpp:129] Top shape: 4 512 9 9 (165888)
I1017 12:02:02.832110 26397 net.cpp:137] Memory required for data: 761094416
I1017 12:02:02.832114 26397 layer_factory.hpp:77] Creating layer fc6-conv
I1017 12:02:02.832123 26397 net.cpp:84] Creating Layer fc6-conv
I1017 12:02:02.832128 26397 net.cpp:406] fc6-conv <- pool5
I1017 12:02:02.832134 26397 net.cpp:380] fc6-conv -> fc6-conv
I1017 12:02:03.098567 26397 net.cpp:122] Setting up fc6-conv
I1017 12:02:03.098605 26397 net.cpp:129] Top shape: 4 4096 3 3 (147456)
I1017 12:02:03.098610 26397 net.cpp:137] Memory required for data: 761684240
I1017 12:02:03.098623 26397 layer_factory.hpp:77] Creating layer relu6
I1017 12:02:03.098639 26397 net.cpp:84] Creating Layer relu6
I1017 12:02:03.098644 26397 net.cpp:406] relu6 <- fc6-conv
I1017 12:02:03.098654 26397 net.cpp:367] relu6 -> fc6-conv (in-place)
I1017 12:02:03.098666 26397 net.cpp:122] Setting up relu6
I1017 12:02:03.098676 26397 net.cpp:129] Top shape: 4 4096 3 3 (147456)
I1017 12:02:03.098680 26397 net.cpp:137] Memory required for data: 762274064
I1017 12:02:03.098685 26397 layer_factory.hpp:77] Creating layer drop6
I1017 12:02:03.098701 26397 net.cpp:84] Creating Layer drop6
I1017 12:02:03.098706 26397 net.cpp:406] drop6 <- fc6-conv
I1017 12:02:03.098713 26397 net.cpp:367] drop6 -> fc6-conv (in-place)
I1017 12:02:03.098742 26397 net.cpp:122] Setting up drop6
I1017 12:02:03.098749 26397 net.cpp:129] Top shape: 4 4096 3 3 (147456)
I1017 12:02:03.098753 26397 net.cpp:137] Memory required for data: 762863888
I1017 12:02:03.098757 26397 layer_factory.hpp:77] Creating layer fc7-conv
I1017 12:02:03.098767 26397 net.cpp:84] Creating Layer fc7-conv
I1017 12:02:03.098772 26397 net.cpp:406] fc7-conv <- fc6-conv
I1017 12:02:03.098778 26397 net.cpp:380] fc7-conv -> fc7-conv
I1017 12:02:03.159629 26397 net.cpp:122] Setting up fc7-conv
I1017 12:02:03.159670 26397 net.cpp:129] Top shape: 4 4096 3 3 (147456)
I1017 12:02:03.159675 26397 net.cpp:137] Memory required for data: 763453712
I1017 12:02:03.159690 26397 layer_factory.hpp:77] Creating layer relu7
I1017 12:02:03.159704 26397 net.cpp:84] Creating Layer relu7
I1017 12:02:03.159715 26397 net.cpp:406] relu7 <- fc7-conv
I1017 12:02:03.159729 26397 net.cpp:367] relu7 -> fc7-conv (in-place)
I1017 12:02:03.159742 26397 net.cpp:122] Setting up relu7
I1017 12:02:03.159749 26397 net.cpp:129] Top shape: 4 4096 3 3 (147456)
I1017 12:02:03.159752 26397 net.cpp:137] Memory required for data: 764043536
I1017 12:02:03.159756 26397 layer_factory.hpp:77] Creating layer drop7
I1017 12:02:03.159765 26397 net.cpp:84] Creating Layer drop7
I1017 12:02:03.159770 26397 net.cpp:406] drop7 <- fc7-conv
I1017 12:02:03.159776 26397 net.cpp:367] drop7 -> fc7-conv (in-place)
I1017 12:02:03.159807 26397 net.cpp:122] Setting up drop7
I1017 12:02:03.159817 26397 net.cpp:129] Top shape: 4 4096 3 3 (147456)
I1017 12:02:03.159821 26397 net.cpp:137] Memory required for data: 764633360
I1017 12:02:03.159826 26397 layer_factory.hpp:77] Creating layer fc7-conv_re
I1017 12:02:03.159844 26397 net.cpp:84] Creating Layer fc7-conv_re
I1017 12:02:03.159849 26397 net.cpp:406] fc7-conv_re <- fc7-conv
I1017 12:02:03.159855 26397 net.cpp:380] fc7-conv_re -> fc7-conv_re
I1017 12:02:03.159934 26397 net.cpp:122] Setting up fc7-conv_re
I1017 12:02:03.159945 26397 net.cpp:129] Top shape: 4 4096 9 (147456)
I1017 12:02:03.159948 26397 net.cpp:137] Memory required for data: 765223184
I1017 12:02:03.159953 26397 layer_factory.hpp:77] Creating layer fc7-conv_tran
I1017 12:02:03.160053 26397 net.cpp:84] Creating Layer fc7-conv_tran
I1017 12:02:03.160064 26397 net.cpp:406] fc7-conv_tran <- fc7-conv_re
I1017 12:02:03.160075 26397 net.cpp:380] fc7-conv_tran -> fc7-conv_tran
I1017 12:02:03.161154 26397 net.cpp:122] Setting up fc7-conv_tran
I1017 12:02:03.161170 26397 net.cpp:129] Top shape: 4 4 9 (144)
I1017 12:02:03.161175 26397 net.cpp:137] Memory required for data: 765223760
I1017 12:02:03.161180 26397 layer_factory.hpp:77] Creating layer lstm1
I1017 12:02:03.162076 26397 net.cpp:84] Creating Layer lstm1
I1017 12:02:03.162088 26397 net.cpp:406] lstm1 <- fc7-conv_tran
I1017 12:02:03.162096 26397 net.cpp:406] lstm1 <- clip_markers
I1017 12:02:03.162106 26397 net.cpp:380] lstm1 -> lstm1
I1017 12:02:03.162467 26397 recurrent_layer.cpp:20] Initializing recurrent layer: assuming input batch contains 4 timesteps of 4 independent streams.
I1017 12:02:03.162822 26397 net.cpp:51] Initializing net from parameters: 
layer {
  name: "lstm1_"
  type: "Input"
  top: "x"
  top: "cont"
  input_param {
    shape {
      dim: 4
      dim: 4
      dim: 9
    }
    shape {
      dim: 4
      dim: 4
    }
  }
}
layer {
  name: "lstm1_"
  type: "Input"
  top: "c_0"
  top: "h_0"
  input_param {
    shape {
      dim: 1
      dim: 4
      dim: 512
    }
    shape {
      dim: 1
      dim: 4
      dim: 512
    }
  }
}
layer {
  name: "lstm1_cont_slice"
  type: "Slice"
  bottom: "cont"
  top: "cont_1"
  top: "cont_2"
  top: "cont_3"
  top: "cont_4"
  slice_param {
    axis: 0
  }
}
layer {
  name: "lstm1_x_transform"
  type: "InnerProduct"
  bottom: "x"
  top: "W_xc_x"
  param {
    name: "W_xc"
  }
  param {
    name: "b_c"
  }
  propagate_down: true
  inner_product_param {
    num_output: 2048
    bias_term: true
    weight_filler {
      type: "uniform"
      min: -0.01
      max: 0.01
    }
    bias_filler {
      type: "constant"
      value: 0
    }
    axis: 2
  }
}
layer {
  name: "lstm1_W_xc_x_slice"
  type: "Slice"
  bottom: "W_xc_x"
  top: "W_xc_x_1"
  top: "W_xc_x_2"
  top: "W_xc_x_3"
  top: "W_xc_x_4"
  slice_param {
    axis: 0
  }
}
layer {
  name: "lstm1_h_conted_0"
  type: "Scale"
  bottom: "h_0"
  bottom: "cont_1"
  top: "h_conted_0"
  scale_param {
    axis: 0
  }
}
layer {
  name: "lstm1_transform_1"
  type: "InnerProduct"
  bottom: "h_conted_0"
  top: "W_hc_h_0"
  param {
    name: "W_hc"
  }
  inner_product_param {
    num_output: 2048
    bias_term: false
    weight_filler {
      type: "uniform"
      min: -0.01
      max: 0.01
    }
    axis: 2
  }
}
layer {
  name: "lstm1_gate_input_1"
  type: "Eltwise"
  bottom: "W_hc_h_0"
  bottom: "W_xc_x_1"
  top: "gate_input_1"
  eltwise_param {
    operation: SUM
  }
}
layer {
  name: "lstm1_unit_1"
  type: "LSTMUnit"
  bottom: "c_0"
  bottom: "gate_input_1"
  bottom: "cont_1"
  top: "c_1"
  top: "h_1"
}
layer {
  name: "lstm1_h_conted_1"
  type: "Scale"
  bottom: "h_1"
  bottom: "cont_2"
  top: "h_conted_1"
  scale_param {
    axis: 0
  }
}
layer {
  name: "lstm1_transform_2"
  type: "InnerProduct"
  bottom: "h_conted_1"
  top: "W_hc_h_1"
  param {
    name: "W_hc"
  }
  inner_product_param {
    num_output: 2048
    bias_term: false
    weight_filler {
      type: "uniform"
      min: -0.01
      max: 0.01
    }
    axis: 2
  }
}
layer {
  name: "lstm1_gate_input_2"
  type: "Eltwise"
  bottom: "W_hc_h_1"
  bottom: "W_xc_x_2"
  top: "gate_input_2"
  eltwise_param {
    operation: SUM
  }
}
layer {
  name: "lstm1_unit_2"
  type: "LSTMUnit"
  bottom: "c_1"
  bottom: "gate_input_2"
  bottom: "cont_2"
  top: "c_2"
  top: "h_2"
}
layer {
  name: "lstm1_h_conted_2"
  type: "Scale"
  bottom: "h_2"
  bottom: "cont_3"
  top: "h_conted_2"
  scale_param {
    axis: 0
  }
}
layer {
  name: "lstm1_transform_3"
  type: "InnerProduct"
  bottom: "h_conted_2"
  top: "W_hc_h_2"
  param {
    name: "W_hc"
  }
  inner_product_param {
    num_output: 2048
    bias_term: false
    weight_filler {
      type: "uniform"
      min: -0.01
      max: 0.01
    }
    axis: 2
  }
}
layer {
  name: "lstm1_gate_input_3"
  type: "Eltwise"
  bottom: "W_hc_h_2"
  bottom: "W_xc_x_3"
  top: "gate_input_3"
  eltwise_param {
    operation: SUM
  }
}
layer {
  name: "lstm1_unit_3"
  type: "LSTMUnit"
  bottom: "c_2"
  bottom: "gate_input_3"
  bottom: "cont_3"
  top: "c_3"
  top: "h_3"
}
layer {
  name: "lstm1_h_conted_3"
  type: "Scale"
  bottom: "h_3"
  bottom: "cont_4"
  top: "h_conted_3"
  scale_param {
    axis: 0
  }
}
layer {
  name: "lstm1_transform_4"
  type: "InnerProduct"
  bottom: "h_conted_3"
  top: "W_hc_h_3"
  param {
    name: "W_hc"
  }
  inner_product_param {
    num_output: 2048
    bias_term: false
    weight_filler {
      type: "uniform"
      min: -0.01
      max: 0.01
    }
    axis: 2
  }
}
layer {
  name: "lstm1_gate_input_4"
  type: "Eltwise"
  bottom: "W_hc_h_3"
  bottom: "W_xc_x_4"
  top: "gate_input_4"
  eltwise_param {
    operation: SUM
  }
}
layer {
  name: "lstm1_unit_4"
  type: "LSTMUnit"
  bottom: "c_3"
  bottom: "gate_input_4"
  bottom: "cont_4"
  top: "c_4"
  top: "h_4"
}
layer {
  name: "lstm1_"
  type: "Split"
  bottom: "c_4"
  top: "c_T"
}
layer {
  name: "lstm1_h_concat"
  type: "Concat"
  bottom: "h_1"
  bottom: "h_2"
  bottom: "h_3"
  bottom: "h_4"
  top: "h"
  concat_param {
    axis: 0
  }
}
layer {
  name: "h_pseudoloss"
  type: "Reduction"
  bottom: "h"
  top: "h_pseudoloss"
  loss_weight: 1
}
I1017 12:02:03.162991 26397 layer_factory.hpp:77] Creating layer lstm1_
I1017 12:02:03.163007 26397 net.cpp:84] Creating Layer lstm1_
I1017 12:02:03.163015 26397 net.cpp:380] lstm1_ -> x
I1017 12:02:03.163028 26397 net.cpp:380] lstm1_ -> cont
I1017 12:02:03.163076 26397 net.cpp:122] Setting up lstm1_
I1017 12:02:03.163087 26397 net.cpp:129] Top shape: 4 4 9 (144)
I1017 12:02:03.163092 26397 net.cpp:129] Top shape: 4 4 (16)
I1017 12:02:03.163097 26397 net.cpp:137] Memory required for data: 640
I1017 12:02:03.163105 26397 layer_factory.hpp:77] Creating layer lstm1_
I1017 12:02:03.163111 26397 net.cpp:84] Creating Layer lstm1_
I1017 12:02:03.163116 26397 net.cpp:380] lstm1_ -> c_0
I1017 12:02:03.163125 26397 net.cpp:380] lstm1_ -> h_0
I1017 12:02:03.163173 26397 net.cpp:122] Setting up lstm1_
I1017 12:02:03.163182 26397 net.cpp:129] Top shape: 1 4 512 (2048)
I1017 12:02:03.163187 26397 net.cpp:129] Top shape: 1 4 512 (2048)
I1017 12:02:03.163193 26397 net.cpp:137] Memory required for data: 17024
I1017 12:02:03.163197 26397 layer_factory.hpp:77] Creating layer lstm1_cont_slice
I1017 12:02:03.163208 26397 net.cpp:84] Creating Layer lstm1_cont_slice
I1017 12:02:03.163213 26397 net.cpp:406] lstm1_cont_slice <- cont
I1017 12:02:03.163223 26397 net.cpp:380] lstm1_cont_slice -> cont_1
I1017 12:02:03.163233 26397 net.cpp:380] lstm1_cont_slice -> cont_2
I1017 12:02:03.163239 26397 net.cpp:380] lstm1_cont_slice -> cont_3
I1017 12:02:03.163247 26397 net.cpp:380] lstm1_cont_slice -> cont_4
I1017 12:02:03.163313 26397 net.cpp:122] Setting up lstm1_cont_slice
I1017 12:02:03.163322 26397 net.cpp:129] Top shape: 1 4 (4)
I1017 12:02:03.163327 26397 net.cpp:129] Top shape: 1 4 (4)
I1017 12:02:03.163331 26397 net.cpp:129] Top shape: 1 4 (4)
I1017 12:02:03.163339 26397 net.cpp:129] Top shape: 1 4 (4)
I1017 12:02:03.163343 26397 net.cpp:137] Memory required for data: 17088
I1017 12:02:03.163347 26397 layer_factory.hpp:77] Creating layer cont_1_lstm1_cont_slice_0_split
I1017 12:02:03.163355 26397 net.cpp:84] Creating Layer cont_1_lstm1_cont_slice_0_split
I1017 12:02:03.163362 26397 net.cpp:406] cont_1_lstm1_cont_slice_0_split <- cont_1
I1017 12:02:03.163367 26397 net.cpp:380] cont_1_lstm1_cont_slice_0_split -> cont_1_lstm1_cont_slice_0_split_0
I1017 12:02:03.163378 26397 net.cpp:380] cont_1_lstm1_cont_slice_0_split -> cont_1_lstm1_cont_slice_0_split_1
I1017 12:02:03.163413 26397 net.cpp:122] Setting up cont_1_lstm1_cont_slice_0_split
I1017 12:02:03.163420 26397 net.cpp:129] Top shape: 1 4 (4)
I1017 12:02:03.163425 26397 net.cpp:129] Top shape: 1 4 (4)
I1017 12:02:03.163429 26397 net.cpp:137] Memory required for data: 17120
I1017 12:02:03.163432 26397 layer_factory.hpp:77] Creating layer cont_2_lstm1_cont_slice_1_split
I1017 12:02:03.163440 26397 net.cpp:84] Creating Layer cont_2_lstm1_cont_slice_1_split
I1017 12:02:03.163446 26397 net.cpp:406] cont_2_lstm1_cont_slice_1_split <- cont_2
I1017 12:02:03.163452 26397 net.cpp:380] cont_2_lstm1_cont_slice_1_split -> cont_2_lstm1_cont_slice_1_split_0
I1017 12:02:03.163458 26397 net.cpp:380] cont_2_lstm1_cont_slice_1_split -> cont_2_lstm1_cont_slice_1_split_1
I1017 12:02:03.163492 26397 net.cpp:122] Setting up cont_2_lstm1_cont_slice_1_split
I1017 12:02:03.163501 26397 net.cpp:129] Top shape: 1 4 (4)
I1017 12:02:03.163506 26397 net.cpp:129] Top shape: 1 4 (4)
I1017 12:02:03.163508 26397 net.cpp:137] Memory required for data: 17152
I1017 12:02:03.163512 26397 layer_factory.hpp:77] Creating layer cont_3_lstm1_cont_slice_2_split
I1017 12:02:03.163517 26397 net.cpp:84] Creating Layer cont_3_lstm1_cont_slice_2_split
I1017 12:02:03.163522 26397 net.cpp:406] cont_3_lstm1_cont_slice_2_split <- cont_3
I1017 12:02:03.163532 26397 net.cpp:380] cont_3_lstm1_cont_slice_2_split -> cont_3_lstm1_cont_slice_2_split_0
I1017 12:02:03.163539 26397 net.cpp:380] cont_3_lstm1_cont_slice_2_split -> cont_3_lstm1_cont_slice_2_split_1
I1017 12:02:03.163569 26397 net.cpp:122] Setting up cont_3_lstm1_cont_slice_2_split
I1017 12:02:03.163578 26397 net.cpp:129] Top shape: 1 4 (4)
I1017 12:02:03.163583 26397 net.cpp:129] Top shape: 1 4 (4)
I1017 12:02:03.163585 26397 net.cpp:137] Memory required for data: 17184
I1017 12:02:03.163589 26397 layer_factory.hpp:77] Creating layer cont_4_lstm1_cont_slice_3_split
I1017 12:02:03.163596 26397 net.cpp:84] Creating Layer cont_4_lstm1_cont_slice_3_split
I1017 12:02:03.163600 26397 net.cpp:406] cont_4_lstm1_cont_slice_3_split <- cont_4
I1017 12:02:03.163606 26397 net.cpp:380] cont_4_lstm1_cont_slice_3_split -> cont_4_lstm1_cont_slice_3_split_0
I1017 12:02:03.163614 26397 net.cpp:380] cont_4_lstm1_cont_slice_3_split -> cont_4_lstm1_cont_slice_3_split_1
I1017 12:02:03.163645 26397 net.cpp:122] Setting up cont_4_lstm1_cont_slice_3_split
I1017 12:02:03.163652 26397 net.cpp:129] Top shape: 1 4 (4)
I1017 12:02:03.163657 26397 net.cpp:129] Top shape: 1 4 (4)
I1017 12:02:03.163661 26397 net.cpp:137] Memory required for data: 17216
I1017 12:02:03.163666 26397 layer_factory.hpp:77] Creating layer lstm1_x_transform
I1017 12:02:03.163676 26397 net.cpp:84] Creating Layer lstm1_x_transform
I1017 12:02:03.163682 26397 net.cpp:406] lstm1_x_transform <- x
I1017 12:02:03.163688 26397 net.cpp:380] lstm1_x_transform -> W_xc_x
I1017 12:02:03.163995 26397 net.cpp:122] Setting up lstm1_x_transform
I1017 12:02:03.164005 26397 net.cpp:129] Top shape: 4 4 2048 (32768)
I1017 12:02:03.164010 26397 net.cpp:137] Memory required for data: 148288
I1017 12:02:03.164019 26397 layer_factory.hpp:77] Creating layer lstm1_W_xc_x_slice
I1017 12:02:03.164034 26397 net.cpp:84] Creating Layer lstm1_W_xc_x_slice
I1017 12:02:03.164039 26397 net.cpp:406] lstm1_W_xc_x_slice <- W_xc_x
I1017 12:02:03.164048 26397 net.cpp:380] lstm1_W_xc_x_slice -> W_xc_x_1
I1017 12:02:03.164058 26397 net.cpp:380] lstm1_W_xc_x_slice -> W_xc_x_2
I1017 12:02:03.164065 26397 net.cpp:380] lstm1_W_xc_x_slice -> W_xc_x_3
I1017 12:02:03.164073 26397 net.cpp:380] lstm1_W_xc_x_slice -> W_xc_x_4
I1017 12:02:03.164134 26397 net.cpp:122] Setting up lstm1_W_xc_x_slice
I1017 12:02:03.164142 26397 net.cpp:129] Top shape: 1 4 2048 (8192)
I1017 12:02:03.164147 26397 net.cpp:129] Top shape: 1 4 2048 (8192)
I1017 12:02:03.164152 26397 net.cpp:129] Top shape: 1 4 2048 (8192)
I1017 12:02:03.164160 26397 net.cpp:129] Top shape: 1 4 2048 (8192)
I1017 12:02:03.164163 26397 net.cpp:137] Memory required for data: 279360
I1017 12:02:03.164168 26397 layer_factory.hpp:77] Creating layer lstm1_h_conted_0
I1017 12:02:03.164178 26397 net.cpp:84] Creating Layer lstm1_h_conted_0
I1017 12:02:03.164185 26397 net.cpp:406] lstm1_h_conted_0 <- h_0
I1017 12:02:03.164191 26397 net.cpp:406] lstm1_h_conted_0 <- cont_1_lstm1_cont_slice_0_split_0
I1017 12:02:03.164196 26397 net.cpp:380] lstm1_h_conted_0 -> h_conted_0
I1017 12:02:03.164273 26397 net.cpp:122] Setting up lstm1_h_conted_0
I1017 12:02:03.164280 26397 net.cpp:129] Top shape: 1 4 512 (2048)
I1017 12:02:03.164284 26397 net.cpp:137] Memory required for data: 287552
I1017 12:02:03.164288 26397 layer_factory.hpp:77] Creating layer lstm1_transform_1
I1017 12:02:03.164299 26397 net.cpp:84] Creating Layer lstm1_transform_1
I1017 12:02:03.164304 26397 net.cpp:406] lstm1_transform_1 <- h_conted_0
I1017 12:02:03.164310 26397 net.cpp:380] lstm1_transform_1 -> W_hc_h_0
I1017 12:02:03.176147 26397 net.cpp:122] Setting up lstm1_transform_1
I1017 12:02:03.176187 26397 net.cpp:129] Top shape: 1 4 2048 (8192)
I1017 12:02:03.176192 26397 net.cpp:137] Memory required for data: 320320
I1017 12:02:03.176208 26397 layer_factory.hpp:77] Creating layer lstm1_gate_input_1
I1017 12:02:03.176221 26397 net.cpp:84] Creating Layer lstm1_gate_input_1
I1017 12:02:03.176228 26397 net.cpp:406] lstm1_gate_input_1 <- W_hc_h_0
I1017 12:02:03.176235 26397 net.cpp:406] lstm1_gate_input_1 <- W_xc_x_1
I1017 12:02:03.176244 26397 net.cpp:380] lstm1_gate_input_1 -> gate_input_1
I1017 12:02:03.176290 26397 net.cpp:122] Setting up lstm1_gate_input_1
I1017 12:02:03.176298 26397 net.cpp:129] Top shape: 1 4 2048 (8192)
I1017 12:02:03.176303 26397 net.cpp:137] Memory required for data: 353088
I1017 12:02:03.176307 26397 layer_factory.hpp:77] Creating layer lstm1_unit_1
I1017 12:02:03.176316 26397 net.cpp:84] Creating Layer lstm1_unit_1
I1017 12:02:03.176321 26397 net.cpp:406] lstm1_unit_1 <- c_0
I1017 12:02:03.176327 26397 net.cpp:406] lstm1_unit_1 <- gate_input_1
I1017 12:02:03.176333 26397 net.cpp:406] lstm1_unit_1 <- cont_1_lstm1_cont_slice_0_split_1
I1017 12:02:03.176339 26397 net.cpp:380] lstm1_unit_1 -> c_1
I1017 12:02:03.176347 26397 net.cpp:380] lstm1_unit_1 -> h_1
I1017 12:02:03.176394 26397 net.cpp:122] Setting up lstm1_unit_1
I1017 12:02:03.176403 26397 net.cpp:129] Top shape: 1 4 512 (2048)
I1017 12:02:03.176411 26397 net.cpp:129] Top shape: 1 4 512 (2048)
I1017 12:02:03.176415 26397 net.cpp:137] Memory required for data: 369472
I1017 12:02:03.176419 26397 layer_factory.hpp:77] Creating layer h_1_lstm1_unit_1_1_split
I1017 12:02:03.176427 26397 net.cpp:84] Creating Layer h_1_lstm1_unit_1_1_split
I1017 12:02:03.176432 26397 net.cpp:406] h_1_lstm1_unit_1_1_split <- h_1
I1017 12:02:03.176439 26397 net.cpp:380] h_1_lstm1_unit_1_1_split -> h_1_lstm1_unit_1_1_split_0
I1017 12:02:03.176445 26397 net.cpp:380] h_1_lstm1_unit_1_1_split -> h_1_lstm1_unit_1_1_split_1
I1017 12:02:03.176479 26397 net.cpp:122] Setting up h_1_lstm1_unit_1_1_split
I1017 12:02:03.176487 26397 net.cpp:129] Top shape: 1 4 512 (2048)
I1017 12:02:03.176492 26397 net.cpp:129] Top shape: 1 4 512 (2048)
I1017 12:02:03.176496 26397 net.cpp:137] Memory required for data: 385856
I1017 12:02:03.176501 26397 layer_factory.hpp:77] Creating layer lstm1_h_conted_1
I1017 12:02:03.176512 26397 net.cpp:84] Creating Layer lstm1_h_conted_1
I1017 12:02:03.176517 26397 net.cpp:406] lstm1_h_conted_1 <- h_1_lstm1_unit_1_1_split_0
I1017 12:02:03.176522 26397 net.cpp:406] lstm1_h_conted_1 <- cont_2_lstm1_cont_slice_1_split_0
I1017 12:02:03.176528 26397 net.cpp:380] lstm1_h_conted_1 -> h_conted_1
I1017 12:02:03.176595 26397 net.cpp:122] Setting up lstm1_h_conted_1
I1017 12:02:03.176604 26397 net.cpp:129] Top shape: 1 4 512 (2048)
I1017 12:02:03.176609 26397 net.cpp:137] Memory required for data: 394048
I1017 12:02:03.176612 26397 layer_factory.hpp:77] Creating layer lstm1_transform_2
I1017 12:02:03.176625 26397 net.cpp:84] Creating Layer lstm1_transform_2
I1017 12:02:03.176628 26397 net.cpp:406] lstm1_transform_2 <- h_conted_1
I1017 12:02:03.176635 26397 net.cpp:380] lstm1_transform_2 -> W_hc_h_1
I1017 12:02:03.203300 26397 net.cpp:122] Setting up lstm1_transform_2
I1017 12:02:03.203336 26397 net.cpp:129] Top shape: 1 4 2048 (8192)
I1017 12:02:03.203341 26397 net.cpp:137] Memory required for data: 426816
I1017 12:02:03.203348 26397 net.cpp:465] Sharing parameters 'W_hc' owned by layer 'lstm1_transform_1', param index 0
I1017 12:02:03.203356 26397 layer_factory.hpp:77] Creating layer lstm1_gate_input_2
I1017 12:02:03.203372 26397 net.cpp:84] Creating Layer lstm1_gate_input_2
I1017 12:02:03.203378 26397 net.cpp:406] lstm1_gate_input_2 <- W_hc_h_1
I1017 12:02:03.203385 26397 net.cpp:406] lstm1_gate_input_2 <- W_xc_x_2
I1017 12:02:03.203392 26397 net.cpp:380] lstm1_gate_input_2 -> gate_input_2
I1017 12:02:03.203430 26397 net.cpp:122] Setting up lstm1_gate_input_2
I1017 12:02:03.203440 26397 net.cpp:129] Top shape: 1 4 2048 (8192)
I1017 12:02:03.203444 26397 net.cpp:137] Memory required for data: 459584
I1017 12:02:03.203449 26397 layer_factory.hpp:77] Creating layer lstm1_unit_2
I1017 12:02:03.203455 26397 net.cpp:84] Creating Layer lstm1_unit_2
I1017 12:02:03.203460 26397 net.cpp:406] lstm1_unit_2 <- c_1
I1017 12:02:03.203467 26397 net.cpp:406] lstm1_unit_2 <- gate_input_2
I1017 12:02:03.203472 26397 net.cpp:406] lstm1_unit_2 <- cont_2_lstm1_cont_slice_1_split_1
I1017 12:02:03.203478 26397 net.cpp:380] lstm1_unit_2 -> c_2
I1017 12:02:03.203485 26397 net.cpp:380] lstm1_unit_2 -> h_2
I1017 12:02:03.203536 26397 net.cpp:122] Setting up lstm1_unit_2
I1017 12:02:03.203544 26397 net.cpp:129] Top shape: 1 4 512 (2048)
I1017 12:02:03.203552 26397 net.cpp:129] Top shape: 1 4 512 (2048)
I1017 12:02:03.203558 26397 net.cpp:137] Memory required for data: 475968
I1017 12:02:03.203563 26397 layer_factory.hpp:77] Creating layer h_2_lstm1_unit_2_1_split
I1017 12:02:03.203572 26397 net.cpp:84] Creating Layer h_2_lstm1_unit_2_1_split
I1017 12:02:03.203575 26397 net.cpp:406] h_2_lstm1_unit_2_1_split <- h_2
I1017 12:02:03.203583 26397 net.cpp:380] h_2_lstm1_unit_2_1_split -> h_2_lstm1_unit_2_1_split_0
I1017 12:02:03.203589 26397 net.cpp:380] h_2_lstm1_unit_2_1_split -> h_2_lstm1_unit_2_1_split_1
I1017 12:02:03.203624 26397 net.cpp:122] Setting up h_2_lstm1_unit_2_1_split
I1017 12:02:03.203631 26397 net.cpp:129] Top shape: 1 4 512 (2048)
I1017 12:02:03.203639 26397 net.cpp:129] Top shape: 1 4 512 (2048)
I1017 12:02:03.203642 26397 net.cpp:137] Memory required for data: 492352
I1017 12:02:03.203646 26397 layer_factory.hpp:77] Creating layer lstm1_h_conted_2
I1017 12:02:03.203655 26397 net.cpp:84] Creating Layer lstm1_h_conted_2
I1017 12:02:03.203660 26397 net.cpp:406] lstm1_h_conted_2 <- h_2_lstm1_unit_2_1_split_0
I1017 12:02:03.203665 26397 net.cpp:406] lstm1_h_conted_2 <- cont_3_lstm1_cont_slice_2_split_0
I1017 12:02:03.203671 26397 net.cpp:380] lstm1_h_conted_2 -> h_conted_2
I1017 12:02:03.203737 26397 net.cpp:122] Setting up lstm1_h_conted_2
I1017 12:02:03.203747 26397 net.cpp:129] Top shape: 1 4 512 (2048)
I1017 12:02:03.203750 26397 net.cpp:137] Memory required for data: 500544
I1017 12:02:03.203754 26397 layer_factory.hpp:77] Creating layer lstm1_transform_3
I1017 12:02:03.203766 26397 net.cpp:84] Creating Layer lstm1_transform_3
I1017 12:02:03.203771 26397 net.cpp:406] lstm1_transform_3 <- h_conted_2
I1017 12:02:03.203778 26397 net.cpp:380] lstm1_transform_3 -> W_hc_h_2
I1017 12:02:03.215960 26397 net.cpp:122] Setting up lstm1_transform_3
I1017 12:02:03.215999 26397 net.cpp:129] Top shape: 1 4 2048 (8192)
I1017 12:02:03.216004 26397 net.cpp:137] Memory required for data: 533312
I1017 12:02:03.216017 26397 net.cpp:465] Sharing parameters 'W_hc' owned by layer 'lstm1_transform_1', param index 0
I1017 12:02:03.216030 26397 layer_factory.hpp:77] Creating layer lstm1_gate_input_3
I1017 12:02:03.216047 26397 net.cpp:84] Creating Layer lstm1_gate_input_3
I1017 12:02:03.216053 26397 net.cpp:406] lstm1_gate_input_3 <- W_hc_h_2
I1017 12:02:03.216061 26397 net.cpp:406] lstm1_gate_input_3 <- W_xc_x_3
I1017 12:02:03.216069 26397 net.cpp:380] lstm1_gate_input_3 -> gate_input_3
I1017 12:02:03.216694 26397 net.cpp:122] Setting up lstm1_gate_input_3
I1017 12:02:03.216928 26397 net.cpp:129] Top shape: 1 4 2048 (8192)
I1017 12:02:03.216965 26397 net.cpp:137] Memory required for data: 566080
I1017 12:02:03.217041 26397 layer_factory.hpp:77] Creating layer lstm1_unit_3
I1017 12:02:03.217180 26397 net.cpp:84] Creating Layer lstm1_unit_3
I1017 12:02:03.217223 26397 net.cpp:406] lstm1_unit_3 <- c_2
I1017 12:02:03.217334 26397 net.cpp:406] lstm1_unit_3 <- gate_input_3
I1017 12:02:03.217391 26397 net.cpp:406] lstm1_unit_3 <- cont_3_lstm1_cont_slice_2_split_1
I1017 12:02:03.217455 26397 net.cpp:380] lstm1_unit_3 -> c_3
I1017 12:02:03.217474 26397 net.cpp:380] lstm1_unit_3 -> h_3
I1017 12:02:03.217520 26397 net.cpp:122] Setting up lstm1_unit_3
I1017 12:02:03.217528 26397 net.cpp:129] Top shape: 1 4 512 (2048)
I1017 12:02:03.217535 26397 net.cpp:129] Top shape: 1 4 512 (2048)
I1017 12:02:03.217538 26397 net.cpp:137] Memory required for data: 582464
I1017 12:02:03.217542 26397 layer_factory.hpp:77] Creating layer h_3_lstm1_unit_3_1_split
I1017 12:02:03.217550 26397 net.cpp:84] Creating Layer h_3_lstm1_unit_3_1_split
I1017 12:02:03.217555 26397 net.cpp:406] h_3_lstm1_unit_3_1_split <- h_3
I1017 12:02:03.217561 26397 net.cpp:380] h_3_lstm1_unit_3_1_split -> h_3_lstm1_unit_3_1_split_0
I1017 12:02:03.217568 26397 net.cpp:380] h_3_lstm1_unit_3_1_split -> h_3_lstm1_unit_3_1_split_1
I1017 12:02:03.217602 26397 net.cpp:122] Setting up h_3_lstm1_unit_3_1_split
I1017 12:02:03.217612 26397 net.cpp:129] Top shape: 1 4 512 (2048)
I1017 12:02:03.217617 26397 net.cpp:129] Top shape: 1 4 512 (2048)
I1017 12:02:03.217620 26397 net.cpp:137] Memory required for data: 598848
I1017 12:02:03.217624 26397 layer_factory.hpp:77] Creating layer lstm1_h_conted_3
I1017 12:02:03.217635 26397 net.cpp:84] Creating Layer lstm1_h_conted_3
I1017 12:02:03.217641 26397 net.cpp:406] lstm1_h_conted_3 <- h_3_lstm1_unit_3_1_split_0
I1017 12:02:03.217648 26397 net.cpp:406] lstm1_h_conted_3 <- cont_4_lstm1_cont_slice_3_split_0
I1017 12:02:03.217653 26397 net.cpp:380] lstm1_h_conted_3 -> h_conted_3
I1017 12:02:03.218107 26397 net.cpp:122] Setting up lstm1_h_conted_3
I1017 12:02:03.218297 26397 net.cpp:129] Top shape: 1 4 512 (2048)
I1017 12:02:03.218364 26397 net.cpp:137] Memory required for data: 607040
I1017 12:02:03.218432 26397 layer_factory.hpp:77] Creating layer lstm1_transform_4
I1017 12:02:03.218611 26397 net.cpp:84] Creating Layer lstm1_transform_4
I1017 12:02:03.218690 26397 net.cpp:406] lstm1_transform_4 <- h_conted_3
I1017 12:02:03.218808 26397 net.cpp:380] lstm1_transform_4 -> W_hc_h_3
I1017 12:02:03.243939 26397 net.cpp:122] Setting up lstm1_transform_4
I1017 12:02:03.243973 26397 net.cpp:129] Top shape: 1 4 2048 (8192)
I1017 12:02:03.243978 26397 net.cpp:137] Memory required for data: 639808
I1017 12:02:03.243984 26397 net.cpp:465] Sharing parameters 'W_hc' owned by layer 'lstm1_transform_1', param index 0
I1017 12:02:03.243991 26397 layer_factory.hpp:77] Creating layer lstm1_gate_input_4
I1017 12:02:03.244007 26397 net.cpp:84] Creating Layer lstm1_gate_input_4
I1017 12:02:03.244012 26397 net.cpp:406] lstm1_gate_input_4 <- W_hc_h_3
I1017 12:02:03.244020 26397 net.cpp:406] lstm1_gate_input_4 <- W_xc_x_4
I1017 12:02:03.244038 26397 net.cpp:380] lstm1_gate_input_4 -> gate_input_4
I1017 12:02:03.244079 26397 net.cpp:122] Setting up lstm1_gate_input_4
I1017 12:02:03.244086 26397 net.cpp:129] Top shape: 1 4 2048 (8192)
I1017 12:02:03.244091 26397 net.cpp:137] Memory required for data: 672576
I1017 12:02:03.244096 26397 layer_factory.hpp:77] Creating layer lstm1_unit_4
I1017 12:02:03.244102 26397 net.cpp:84] Creating Layer lstm1_unit_4
I1017 12:02:03.244107 26397 net.cpp:406] lstm1_unit_4 <- c_3
I1017 12:02:03.244113 26397 net.cpp:406] lstm1_unit_4 <- gate_input_4
I1017 12:02:03.244118 26397 net.cpp:406] lstm1_unit_4 <- cont_4_lstm1_cont_slice_3_split_1
I1017 12:02:03.244123 26397 net.cpp:380] lstm1_unit_4 -> c_4
I1017 12:02:03.244132 26397 net.cpp:380] lstm1_unit_4 -> h_4
I1017 12:02:03.244176 26397 net.cpp:122] Setting up lstm1_unit_4
I1017 12:02:03.244184 26397 net.cpp:129] Top shape: 1 4 512 (2048)
I1017 12:02:03.244189 26397 net.cpp:129] Top shape: 1 4 512 (2048)
I1017 12:02:03.244192 26397 net.cpp:137] Memory required for data: 688960
I1017 12:02:03.244196 26397 layer_factory.hpp:77] Creating layer lstm1_
I1017 12:02:03.244204 26397 net.cpp:84] Creating Layer lstm1_
I1017 12:02:03.244207 26397 net.cpp:406] lstm1_ <- c_4
I1017 12:02:03.244215 26397 net.cpp:380] lstm1_ -> c_T
I1017 12:02:03.244235 26397 net.cpp:122] Setting up lstm1_
I1017 12:02:03.244242 26397 net.cpp:129] Top shape: 1 4 512 (2048)
I1017 12:02:03.244246 26397 net.cpp:137] Memory required for data: 697152
I1017 12:02:03.244251 26397 layer_factory.hpp:77] Creating layer lstm1_h_concat
I1017 12:02:03.244257 26397 net.cpp:84] Creating Layer lstm1_h_concat
I1017 12:02:03.244262 26397 net.cpp:406] lstm1_h_concat <- h_1_lstm1_unit_1_1_split_1
I1017 12:02:03.244268 26397 net.cpp:406] lstm1_h_concat <- h_2_lstm1_unit_2_1_split_1
I1017 12:02:03.244272 26397 net.cpp:406] lstm1_h_concat <- h_3_lstm1_unit_3_1_split_1
I1017 12:02:03.244277 26397 net.cpp:406] lstm1_h_concat <- h_4
I1017 12:02:03.244292 26397 net.cpp:380] lstm1_h_concat -> h
I1017 12:02:03.244323 26397 net.cpp:122] Setting up lstm1_h_concat
I1017 12:02:03.244328 26397 net.cpp:129] Top shape: 4 4 512 (8192)
I1017 12:02:03.244333 26397 net.cpp:137] Memory required for data: 729920
I1017 12:02:03.244336 26397 layer_factory.hpp:77] Creating layer h_pseudoloss
I1017 12:02:03.244346 26397 net.cpp:84] Creating Layer h_pseudoloss
I1017 12:02:03.244351 26397 net.cpp:406] h_pseudoloss <- h
I1017 12:02:03.244356 26397 net.cpp:380] h_pseudoloss -> h_pseudoloss
I1017 12:02:03.244436 26397 net.cpp:122] Setting up h_pseudoloss
…
I1017 12:02:03.244632 26397 net.cpp:200] lstm1_ does not need backward computation.
I1017 12:02:03.244635 26397 net.cpp:242] This network produces output c_T
I1017 12:02:03.244639 26397 net.cpp:242] This network produces output h_pseudoloss
I1017 12:02:03.247249 26397 net.cpp:255] Network initialization done.
I1017 12:02:03.247352 26397 recurrent_layer.cpp:150] Adding parameter 0: W_xc
I1017 12:02:03.247361 26397 recurrent_layer.cpp:150] Adding parameter 1: b_c
I1017 12:02:03.247366 26397 recurrent_layer.cpp:150] Adding parameter 2: W_hc
I1017 12:02:03.247483 26397 net.cpp:122] Setting up lstm1
I1017 12:02:03.247495 26397 net.cpp:129] Top shape: 4 4 512 (8192)
I1017 12:02:03.247499 26397 net.cpp:137] Memory required for data: 765256528
I1017 12:02:03.247529 26397 layer_factory.hpp:77] Creating layer lstm1-drop
I1017 12:02:03.247537 26397 net.cpp:84] Creating Layer lstm1-drop
I1017 12:02:03.247545 26397 net.cpp:406] lstm1-drop <- lstm1
I1017 12:02:03.247551 26397 net.cpp:380] lstm1-drop -> lstm1-drop
I1017 12:02:03.247591 26397 net.cpp:122] Setting up lstm1-drop
I1017 12:02:03.247603 26397 net.cpp:129] Top shape: 4 4 512 (8192)
I1017 12:02:03.247607 26397 net.cpp:137] Memory required for data: 765289296
I1017 12:02:03.247611 26397 layer_factory.hpp:77] Creating layer fc-final
I1017 12:02:03.247622 26397 net.cpp:84] Creating Layer fc-final
I1017 12:02:03.247627 26397 net.cpp:406] fc-final <- lstm1-drop
I1017 12:02:03.247633 26397 net.cpp:380] fc-final -> fc-final
I1017 12:02:03.247934 26397 net.cpp:122] Setting up fc-final
I1017 12:02:03.247946 26397 net.cpp:129] Top shape: 4 4 10 (160)
I1017 12:02:03.247949 26397 net.cpp:137] Memory required for data: 765289936
I1017 12:02:03.247957 26397 layer_factory.hpp:77] Creating layer fc-final_fc-final_0_split
I1017 12:02:03.247964 26397 net.cpp:84] Creating Layer fc-final_fc-final_0_split
I1017 12:02:03.247969 26397 net.cpp:406] fc-final_fc-final_0_split <- fc-final
I1017 12:02:03.247974 26397 net.cpp:380] fc-final_fc-final_0_split -> fc-final_fc-final_0_split_0
I1017 12:02:03.247982 26397 net.cpp:380] fc-final_fc-final_0_split -> fc-final_fc-final_0_split_1
I1017 12:02:03.248039 26397 net.cpp:122] Setting up fc-final_fc-final_0_split
I1017 12:02:03.248046 26397 net.cpp:129] Top shape: 4 4 10 (160)
I1017 12:02:03.248054 26397 net.cpp:129] Top shape: 4 4 10 (160)
I1017 12:02:03.248057 26397 net.cpp:137] Memory required for data: 765291216
I1017 12:02:03.248061 26397 layer_factory.hpp:77] Creating layer loss
I1017 12:02:03.248076 26397 net.cpp:84] Creating Layer loss
I1017 12:02:03.248081 26397 net.cpp:406] loss <- fc-final_fc-final_0_split_0
I1017 12:02:03.248090 26397 net.cpp:406] loss <- reshape-label_label_tran_0_split_0
I1017 12:02:03.248095 26397 net.cpp:380] loss -> loss
…
I1017 12:02:03.249500 26397 net.cpp:294] The NetState phase (1) differed from the phase (0) specified by a rule in layer data
I1017 12:02:03.249706 26397 net.cpp:51] Initializing net from parameters: 
name: "VGG_16_layers_LSTM"
state {
  phase: TEST
  stage: "test-on-test"
}
layer {
  name: "data"
  type: "ImageData"
  top: "data"
  top: "label"
  include {
    phase: TEST
  }
  transform_param {
    mirror: false
    crop_size: 288
    mean_value: 104
    mean_value: 117
    mean_value: 123
  }
  image_data_param {
    source: "../Data/lsun_val_list.txt"
    batch_size: 150
    new_height: 320
    new_width: 320
  }
}
layer {
  name: "Silence"
  type: "Silence"
  bottom: "label"
  include {
    phase: TEST
  }
}
layer {
  name: "label_tran"
  type: "Python"
  bottom: "label"
  top: "reshape-label"
  top: "clip_markers"
  python_param {
    module: "data_preparation_sort_max_clip"
    layer: "ReshapeLabel"
  }
}
layer {
  name: "conv1_1"
  type: "Convolution"
  bottom: "data"
  top: "conv1_1"
  convolution_param {
    num_output: 64
    pad: 1
    kernel_size: 3
  }
}
layer {
  name: "relu1_1"
  type: "ReLU"
  bottom: "conv1_1"
  top: "conv1_1"
}
layer {
  name: "conv1_2"
  type: "Convolution"
  bottom: "conv1_1"
  top: "conv1_2"
  convolution_param {
    num_output: 64
    pad: 1
    kernel_size: 3
  }
}
layer {
  name: "relu1_2"
  type: "ReLU"
  bottom: "conv1_2"
  top: "conv1_2"
}
layer {
  name: "pool1"
  type: "Pooling"
  bottom: "conv1_2"
  top: "pool1"
  pooling_param {
    pool: MAX
    kernel_size: 2
    stride: 2
  }
}
layer {
  name: "conv2_1"
  type: "Convolution"
  bottom: "pool1"
  top: "conv2_1"
  convolution_param {
    num_output: 128
    pad: 1
    kernel_size: 3
  }
}
layer {
  name: "relu2_1"
  type: "ReLU"
  bottom: "conv2_1"
  top: "conv2_1"
}
layer {
  name: "conv2_2"
  type: "Convolution"
  bottom: "conv2_1"
  top: "conv2_2"
  convolution_param {
    num_output: 128
    pad: 1
    kernel_size: 3
  }
}
layer {
  name: "relu2_2"
  type: "ReLU"
  bottom: "conv2_2"
  top: "conv2_2"
}
layer {
  name: "pool2"
  type: "Pooling"
  bottom: "conv2_2"
  top: "pool2"
  pooling_param {
    pool: MAX
    kernel_size: 2
    stride: 2
  }
}
layer {
  name: "conv3_1"
  type: "Convolution"
  bottom: "pool2"
  top: "conv3_1"
  convolution_param {
    num_output: 256
    pad: 1
    kernel_size: 3
  }
}
layer {
  name: "relu3_1"
  type: "ReLU"
  bottom: "conv3_1"
  top: "conv3_1"
}
layer {
  name: "conv3_2"
  type: "Convolution"
  bottom: "conv3_1"
  top: "conv3_2"
  convolution_param {
    num_output: 256
    pad: 1
    kernel_size: 3
  }
}
layer {
  name: "relu3_2"
  type: "ReLU"
  bottom: "conv3_2"
  top: "conv3_2"
}
layer {
  name: "conv3_3"
  type: "Convolution"
  bottom: "conv3_2"
  top: "conv3_3"
  convolution_param {
    num_output: 256
    pad: 1
    kernel_size: 3
  }
}
layer {
  name: "relu3_3"
  type: "ReLU"
  bottom: "conv3_3"
  top: "conv3_3"
}
layer {
  name: "pool3"
  type: "Pooling"
  bottom: "conv3_3"
  top: "pool3"
  pooling_param {
    pool: MAX
    kernel_size: 2
    stride: 2
  }
}
layer {
  name: "conv4_1"
  type: "Convolution"
  bottom: "pool3"
  top: "conv4_1"
  convolution_param {
    num_output: 512
    pad: 1
    kernel_size: 3
  }
}
layer {
  name: "relu4_1"
  type: "ReLU"
  bottom: "conv4_1"
  top: "conv4_1"
}
layer {
  name: "conv4_2"
  type: "Convolution"
  bottom: "conv4_1"
  top: "conv4_2"
  convolution_param {
    num_output: 512
    pad: 1
    kernel_size: 3
  }
}
layer {
  name: "relu4_2"
  type: "ReLU"
  bottom: "conv4_2"
  top: "conv4_2"
}
layer {
  name: "conv4_3"
  type: "Convolution"
  bottom: "conv4_2"
  top: "conv4_3"
  convolution_param {
    num_output: 512
    pad: 1
    kernel_size: 3
  }
}
layer {
  name: "relu4_3"
  type: "ReLU"
  bottom: "conv4_3"
  top: "conv4_3"
}
layer {
  name: "pool4"
  type: "Pooling"
  bottom: "conv4_3"
  top: "pool4"
  pooling_param {
    pool: MAX
    kernel_size: 2
    stride: 2
  }
}
layer {
  name: "conv5_1"
  type: "Convolution"
  bottom: "pool4"
  top: "conv5_1"
  convolution_param {
    num_output: 512
    pad: 1
    kernel_size: 3
  }
}
layer {
  name: "relu5_1"
  type: "ReLU"
  bottom: "conv5_1"
  top: "conv5_1"
}
layer {
  name: "conv5_2"
  type: "Convolution"
  bottom: "conv5_1"
  top: "conv5_2"
  convolution_param {
    num_output: 512
    pad: 1
    kernel_size: 3
  }
}
layer {
  name: "relu5_2"
  type: "ReLU"
  bottom: "conv5_2"
  top: "conv5_2"
}
layer {
  name: "conv5_3"
  type: "Convolution"
  bottom: "conv5_2"
  top: "conv5_3"
  convolution_param {
    num_output: 512
    pad: 1
    kernel_size: 3
  }
}
layer {
  name: "relu5_3"
  type: "ReLU"
  bottom: "conv5_3"
  top: "conv5_3"
}
layer {
  name: "pool5"
  type: "Pooling"
  bottom: "conv5_3"
  top: "pool5"
  pooling_param {
    pool: MAX
    kernel_size: 2
    stride: 2
  }
}
layer {
  name: "fc6-conv"
  type: "Convolution"
  bottom: "pool5"
  top: "fc6-conv"
  convolution_param {
    num_output: 4096
    kernel_size: 7
  }
}
layer {
  name: "relu6"
  type: "ReLU"
  bottom: "fc6-conv"
  top: "fc6-conv"
}
layer {
  name: "drop6"
  type: "Dropout"
  bottom: "fc6-conv"
  top: "fc6-conv"
  dropout_param {
    dropout_ratio: 0.5
  }
}
layer {
  name: "fc7-conv"
  type: "Convolution"
  bottom: "fc6-conv"
  top: "fc7-conv"
  convolution_param {
    num_output: 4096
    kernel_size: 1
  }
}
layer {
  name: "relu7"
  type: "ReLU"
  bottom: "fc7-conv"
  top: "fc7-conv"
}
layer {
  name: "drop7"
  type: "Dropout"
  bottom: "fc7-conv"
  top: "fc7-conv"
  dropout_param {
    dropout_ratio: 0.9
  }
}
layer {
  name: "fc7-conv_re"
  type: "Reshape"
  bottom: "fc7-conv"
  top: "fc7-conv_re"
  reshape_param {
    shape {
      dim: 0
      dim: 0
      dim: -1
    }
  }
}
layer {
  name: "fc7-conv_tran"
  type: "Python"
  bottom: "fc7-conv_re"
  top: "fc7-conv_tran"
  python_param {
    module: "data_preparation_sort_max_clip"
    layer: "DataTransposeSortMaxClip"
  }
}
layer {
  name: "lstm1"
  type: "LSTM"
  bottom: "fc7-conv_tran"
  bottom: "clip_markers"
  top: "lstm1"
  recurrent_param {
    num_output: 512
    weight_filler {
      type: "uniform"
      min: -0.01
      max: 0.01
    }
    bias_filler {
      type: "constant"
      value: 0
    }
  }
}
layer {
  name: "lstm1-drop"
  type: "Dropout"
  bottom: "lstm1"
  top: "lstm1-drop"
  dropout_param {
    dropout_ratio: 0.5
  }
}
layer {
  name: "fc-final"
  type: "InnerProduct"
  bottom: "lstm1-drop"
  top: "fc-final"
  param {
    lr_mult: 1
    decay_mult: 1
  }
  param {
    lr_mult: 2
    decay_mult: 0
  }
  inner_product_param {
    num_output: 10
    weight_filler {
      type: "gaussian"
      std: 0.01
    }
    bias_filler {
      type: "constant"
      value: 0
    }
    axis: 2
  }
}
layer {
  name: "loss"
  type: "SoftmaxWithLoss"
  bottom: "fc-final"
  bottom: "reshape-label"
  top: "loss"
  softmax_param {
    axis: 2
  }
}
layer {
  name: "accuracy"
  type: "Accuracy"
  bottom: "fc-final"
  bottom: "reshape-label"
  top: "accuracy"
  accuracy_param {
    axis: 2
  }
}
I1017 12:02:03.249868 26397 layer_factory.hpp:77] Creating layer data
I1017 12:02:03.249887 26397 net.cpp:84] Creating Layer data
I1017 12:02:03.249893 26397 net.cpp:380] data -> data
I1017 12:02:03.249903 26397 net.cpp:380] data -> label
I1017 12:02:03.249914 26397 image_data_layer.cpp:38] Opening file ../Data/lsun_val_list.txt
I1017 12:02:03.250908 26397 image_data_layer.cpp:63] A total of 3000 images.
I1017 12:02:03.252543 26397 image_data_layer.cpp:90] output data size: 150,3,288,288
I1017 12:02:03.680135 26397 net.cpp:122] Setting up data
I1017 12:02:03.680171 26397 net.cpp:129] Top shape: 150 3 288 288 (37324800)
I1017 12:02:03.680178 26397 net.cpp:129] Top shape: 150 (150)
I1017 12:02:03.680182 26397 net.cpp:137] Memory required for data: 149299800
I1017 12:02:03.680191 26397 layer_factory.hpp:77] Creating layer label_data_1_split
I1017 12:02:03.680207 26397 net.cpp:84] Creating Layer label_data_1_split
I1017 12:02:03.680212 26397 net.cpp:406] label_data_1_split <- label
I1017 12:02:03.680223 26397 net.cpp:380] label_data_1_split -> label_data_1_split_0
I1017 12:02:03.680241 26397 net.cpp:380] label_data_1_split -> label_data_1_split_1
I1017 12:02:03.680308 26397 net.cpp:122] Setting up label_data_1_split
I1017 12:02:03.680318 26397 net.cpp:129] Top shape: 150 (150)
I1017 12:02:03.680323 26397 net.cpp:129] Top shape: 150 (150)
I1017 12:02:03.680327 26397 net.cpp:137] Memory required for data: 149301000
I1017 12:02:03.680331 26397 layer_factory.hpp:77] Creating layer Silence
I1017 12:02:03.680346 26397 net.cpp:84] Creating Layer Silence
I1017 12:02:03.680352 26397 net.cpp:406] Silence <- label_data_1_split_0
I1017 12:02:03.680358 26397 net.cpp:122] Setting up Silence
I1017 12:02:03.680362 26397 net.cpp:137] Memory required for data: 149301000
I1017 12:02:03.680366 26397 layer_factory.hpp:77] Creating layer label_tran
I1017 12:02:03.680428 26397 net.cpp:84] Creating Layer label_tran
I1017 12:02:03.680438 26397 net.cpp:406] label_tran <- label_data_1_split_1
I1017 12:02:03.680446 26397 net.cpp:380] label_tran -> reshape-label
I1017 12:02:03.680455 26397 net.cpp:380] label_tran -> clip_markers
I1017 12:02:03.680861 26397 net.cpp:122] Setting up label_tran
I1017 12:02:03.680917 26397 net.cpp:129] Top shape: 4 150 (600)
I1017 12:02:03.680930 26397 net.cpp:129] Top shape: 4 150 (600)
I1017 12:02:03.680939 26397 net.cpp:137] Memory required for data: 149305800
I1017 12:02:03.680951 26397 layer_factory.hpp:77] Creating layer reshape-label_label_tran_0_split
I1017 12:02:03.680974 26397 net.cpp:84] Creating Layer reshape-label_label_tran_0_split
I1017 12:02:03.680984 26397 net.cpp:406] reshape-label_label_tran_0_split <- reshape-label
I1017 12:02:03.681004 26397 net.cpp:380] reshape-label_label_tran_0_split -> reshape-label_label_tran_0_split_0
I1017 12:02:03.681037 26397 net.cpp:380] reshape-label_label_tran_0_split -> reshape-label_label_tran_0_split_1
I1017 12:02:03.681113 26397 net.cpp:122] Setting up reshape-label_label_tran_0_split
I1017 12:02:03.681131 26397 net.cpp:129] Top shape: 4 150 (600)
I1017 12:02:03.681143 26397 net.cpp:129] Top shape: 4 150 (600)
I1017 12:02:03.681151 26397 net.cpp:137] Memory required for data: 149310600
I1017 12:02:03.681160 26397 layer_factory.hpp:77] Creating layer conv1_1
I1017 12:02:03.681181 26397 net.cpp:84] Creating Layer conv1_1
I1017 12:02:03.681193 26397 net.cpp:406] conv1_1 <- data
I1017 12:02:03.681212 26397 net.cpp:380] conv1_1 -> conv1_1
I1017 12:02:03.681859 26397 net.cpp:122] Setting up conv1_1
I1017 12:02:03.681881 26397 net.cpp:129] Top shape: 150 64 288 288 (796262400)
I1017 12:02:03.681896 26397 net.cpp:137] Memory required for data: 3334360200
I1017 12:02:03.681921 26397 layer_factory.hpp:77] Creating layer relu1_1
I1017 12:02:03.681937 26397 net.cpp:84] Creating Layer relu1_1
I1017 12:02:03.681953 26397 net.cpp:406] relu1_1 <- conv1_1
I1017 12:02:03.681969 26397 net.cpp:367] relu1_1 -> conv1_1 (in-place)
I1017 12:02:03.681985 26397 net.cpp:122] Setting up relu1_1
I1017 12:02:03.681998 26397 net.cpp:129] Top shape: 150 64 288 288 (796262400)
I1017 12:02:03.682005 26397 net.cpp:137] Memory required for data: 6519409800
I1017 12:02:03.682014 26397 layer_factory.hpp:77] Creating layer conv1_2
I1017 12:02:03.682030 26397 net.cpp:84] Creating Layer conv1_2
I1017 12:02:03.682039 26397 net.cpp:406] conv1_2 <- conv1_1
I1017 12:02:03.682052 26397 net.cpp:380] conv1_2 -> conv1_2
I1017 12:02:03.682723 26397 net.cpp:122] Setting up conv1_2
I1017 12:02:03.682742 26397 net.cpp:129] Top shape: 150 64 288 288 (796262400)
I1017 12:02:03.682757 26397 net.cpp:137] Memory required for data: 9704459400
I1017 12:02:03.682778 26397 layer_factory.hpp:77] Creating layer relu1_2
I1017 12:02:03.682801 26397 net.cpp:84] Creating Layer relu1_2
I1017 12:02:03.682811 26397 net.cpp:406] relu1_2 <- conv1_2
I1017 12:02:03.682823 26397 net.cpp:367] relu1_2 -> conv1_2 (in-place)
I1017 12:02:03.682838 26397 net.cpp:122] Setting up relu1_2
I1017 12:02:03.682849 26397 net.cpp:129] Top shape: 150 64 288 288 (796262400)
I1017 12:02:03.682857 26397 net.cpp:137] Memory required for data: 12889509000
I1017 12:02:03.682868 26397 layer_factory.hpp:77] Creating layer pool1
I1017 12:02:03.682884 26397 net.cpp:84] Creating Layer pool1
I1017 12:02:03.682900 26397 net.cpp:406] pool1 <- conv1_2
I1017 12:02:03.682919 26397 net.cpp:380] pool1 -> pool1
I1017 12:02:03.683143 26397 net.cpp:122] Setting up pool1
I1017 12:02:03.683164 26397 net.cpp:129] Top shape: 150 64 144 144 (199065600)
I1017 12:02:03.683172 26397 net.cpp:137] Memory required for data: 13685771400
I1017 12:02:03.683182 26397 layer_factory.hpp:77] Creating layer conv2_1
I1017 12:02:03.683202 26397 net.cpp:84] Creating Layer conv2_1
I1017 12:02:03.683215 26397 net.cpp:406] conv2_1 <- pool1
I1017 12:02:03.683230 26397 net.cpp:380] conv2_1 -> conv2_1
I1017 12:02:03.685533 26397 net.cpp:122] Setting up conv2_1
I1017 12:02:03.685576 26397 net.cpp:129] Top shape: 150 128 144 144 (398131200)
I1017 12:02:03.685587 26397 net.cpp:137] Memory required for data: 15278296200
I1017 12:02:03.685616 26397 layer_factory.hpp:77] Creating layer relu2_1
I1017 12:02:03.685632 26397 net.cpp:84] Creating Layer relu2_1
I1017 12:02:03.685647 26397 net.cpp:406] relu2_1 <- conv2_1
I1017 12:02:03.685662 26397 net.cpp:367] relu2_1 -> conv2_1 (in-place)
I1017 12:02:03.685678 26397 net.cpp:122] Setting up relu2_1
I1017 12:02:03.685695 26397 net.cpp:129] Top shape: 150 128 144 144 (398131200)
I1017 12:02:03.685703 26397 net.cpp:137] Memory required for data: 16870821000
I1017 12:02:03.685711 26397 layer_factory.hpp:77] Creating layer conv2_2
I1017 12:02:03.685729 26397 net.cpp:84] Creating Layer conv2_2
I1017 12:02:03.685737 26397 net.cpp:406] conv2_2 <- conv2_1
I1017 12:02:03.685750 26397 net.cpp:380] conv2_2 -> conv2_2
I1017 12:02:03.699033 26397 net.cpp:122] Setting up conv2_2
I1017 12:02:03.699071 26397 net.cpp:129] Top shape: 150 128 144 144 (398131200)
I1017 12:02:03.699081 26397 net.cpp:137] Memory required for data: 18463345800
I1017 12:02:03.699098 26397 layer_factory.hpp:77] Creating layer relu2_2
I1017 12:02:03.699115 26397 net.cpp:84] Creating Layer relu2_2
I1017 12:02:03.699124 26397 net.cpp:406] relu2_2 <- conv2_2
I1017 12:02:03.699139 26397 net.cpp:367] relu2_2 -> conv2_2 (in-place)
I1017 12:02:03.699167 26397 net.cpp:122] Setting up relu2_2
I1017 12:02:03.699180 26397 net.cpp:129] Top shape: 150 128 144 144 (398131200)
I1017 12:02:03.699189 26397 net.cpp:137] Memory required for data: 20055870600
I1017 12:02:03.699198 26397 layer_factory.hpp:77] Creating layer pool2
I1017 12:02:03.699215 26397 net.cpp:84] Creating Layer pool2
I1017 12:02:03.699225 26397 net.cpp:406] pool2 <- conv2_2
I1017 12:02:03.699239 26397 net.cpp:380] pool2 -> pool2
I1017 12:02:03.699324 26397 net.cpp:122] Setting up pool2
I1017 12:02:03.699343 26397 net.cpp:129] Top shape: 150 128 72 72 (99532800)
I1017 12:02:03.699353 26397 net.cpp:137] Memory required for data: 20454001800
I1017 12:02:03.699362 26397 layer_factory.hpp:77] Creating layer conv3_1
I1017 12:02:03.699380 26397 net.cpp:84] Creating Layer conv3_1
I1017 12:02:03.699393 26397 net.cpp:406] conv3_1 <- pool2
I1017 12:02:03.699407 26397 net.cpp:380] conv3_1 -> conv3_1
I1017 12:02:03.701663 26397 net.cpp:122] Setting up conv3_1
I1017 12:02:03.701704 26397 net.cpp:129] Top shape: 150 256 72 72 (199065600)
I1017 12:02:03.701714 26397 net.cpp:137] Memory required for data: 21250264200
I1017 12:02:03.701738 26397 layer_factory.hpp:77] Creating layer relu3_1
I1017 12:02:03.701759 26397 net.cpp:84] Creating Layer relu3_1
I1017 12:02:03.701773 26397 net.cpp:406] relu3_1 <- conv3_1
I1017 12:02:03.701788 26397 net.cpp:367] relu3_1 -> conv3_1 (in-place)
I1017 12:02:03.701805 26397 net.cpp:122] Setting up relu3_1
I1017 12:02:03.701817 26397 net.cpp:129] Top shape: 150 256 72 72 (199065600)
I1017 12:02:03.701827 26397 net.cpp:137] Memory required for data: 22046526600
I1017 12:02:03.701835 26397 layer_factory.hpp:77] Creating layer conv3_2
I1017 12:02:03.701854 26397 net.cpp:84] Creating Layer conv3_2
I1017 12:02:03.701864 26397 net.cpp:406] conv3_2 <- conv3_1
I1017 12:02:03.701879 26397 net.cpp:380] conv3_2 -> conv3_2
I1017 12:02:03.705195 26397 net.cpp:122] Setting up conv3_2
I1017 12:02:03.705232 26397 net.cpp:129] Top shape: 150 256 72 72 (199065600)
I1017 12:02:03.705248 26397 net.cpp:137] Memory required for data: 22842789000
I1017 12:02:03.705265 26397 layer_factory.hpp:77] Creating layer relu3_2
I1017 12:02:03.705279 26397 net.cpp:84] Creating Layer relu3_2
I1017 12:02:03.705291 26397 net.cpp:406] relu3_2 <- conv3_2
I1017 12:02:03.705304 26397 net.cpp:367] relu3_2 -> conv3_2 (in-place)
I1017 12:02:03.705332 26397 net.cpp:122] Setting up relu3_2
I1017 12:02:03.705344 26397 net.cpp:129] Top shape: 150 256 72 72 (199065600)
I1017 12:02:03.705353 26397 net.cpp:137] Memory required for data: 23639051400
I1017 12:02:03.705361 26397 layer_factory.hpp:77] Creating layer conv3_3
I1017 12:02:03.705377 26397 net.cpp:84] Creating Layer conv3_3
I1017 12:02:03.705386 26397 net.cpp:406] conv3_3 <- conv3_2
I1017 12:02:03.705400 26397 net.cpp:380] conv3_3 -> conv3_3
I1017 12:02:03.708992 26397 net.cpp:122] Setting up conv3_3
I1017 12:02:03.709030 26397 net.cpp:129] Top shape: 150 256 72 72 (199065600)
I1017 12:02:03.709041 26397 net.cpp:137] Memory required for data: 24435313800
I1017 12:02:03.709060 26397 layer_factory.hpp:77] Creating layer relu3_3
I1017 12:02:03.709084 26397 net.cpp:84] Creating Layer relu3_3
I1017 12:02:03.709110 26397 net.cpp:406] relu3_3 <- conv3_3
I1017 12:02:03.709136 26397 net.cpp:367] relu3_3 -> conv3_3 (in-place)
I1017 12:02:03.709163 26397 net.cpp:122] Setting up relu3_3
I1017 12:02:03.709187 26397 net.cpp:129] Top shape: 150 256 72 72 (199065600)
I1017 12:02:03.709203 26397 net.cpp:137] Memory required for data: 25231576200
I1017 12:02:03.709221 26397 layer_factory.hpp:77] Creating layer pool3
I1017 12:02:03.709247 26397 net.cpp:84] Creating Layer pool3
I1017 12:02:03.709269 26397 net.cpp:406] pool3 <- conv3_3
I1017 12:02:03.709291 26397 net.cpp:380] pool3 -> pool3
I1017 12:02:03.709411 26397 net.cpp:122] Setting up pool3
I1017 12:02:03.709435 26397 net.cpp:129] Top shape: 150 256 36 36 (49766400)
I1017 12:02:03.709450 26397 net.cpp:137] Memory required for data: 25430641800
I1017 12:02:03.709463 26397 layer_factory.hpp:77] Creating layer conv4_1
I1017 12:02:03.709488 26397 net.cpp:84] Creating Layer conv4_1
I1017 12:02:03.709502 26397 net.cpp:406] conv4_1 <- pool3
I1017 12:02:03.709525 26397 net.cpp:380] conv4_1 -> conv4_1
I1017 12:02:03.714299 26397 net.cpp:122] Setting up conv4_1
I1017 12:02:03.714320 26397 net.cpp:129] Top shape: 150 512 36 36 (99532800)
I1017 12:02:03.714325 26397 net.cpp:137] Memory required for data: 25828773000
I1017 12:02:03.714335 26397 layer_factory.hpp:77] Creating layer relu4_1
I1017 12:02:03.714346 26397 net.cpp:84] Creating Layer relu4_1
I1017 12:02:03.714354 26397 net.cpp:406] relu4_1 <- conv4_1
I1017 12:02:03.714362 26397 net.cpp:367] relu4_1 -> conv4_1 (in-place)
I1017 12:02:03.714372 26397 net.cpp:122] Setting up relu4_1
I1017 12:02:03.714378 26397 net.cpp:129] Top shape: 150 512 36 36 (99532800)
I1017 12:02:03.714409 26397 net.cpp:137] Memory required for data: 26226904200
I1017 12:02:03.714414 26397 layer_factory.hpp:77] Creating layer conv4_2
I1017 12:02:03.714424 26397 net.cpp:84] Creating Layer conv4_2
I1017 12:02:03.714429 26397 net.cpp:406] conv4_2 <- conv4_1
I1017 12:02:03.714437 26397 net.cpp:380] conv4_2 -> conv4_2
I1017 12:02:03.721302 26397 net.cpp:122] Setting up conv4_2
I1017 12:02:03.721328 26397 net.cpp:129] Top shape: 150 512 36 36 (99532800)
I1017 12:02:03.721333 26397 net.cpp:137] Memory required for data: 26625035400
I1017 12:02:03.721352 26397 layer_factory.hpp:77] Creating layer relu4_2
I1017 12:02:03.721364 26397 net.cpp:84] Creating Layer relu4_2
I1017 12:02:03.721370 26397 net.cpp:406] relu4_2 <- conv4_2
I1017 12:02:03.721379 26397 net.cpp:367] relu4_2 -> conv4_2 (in-place)
I1017 12:02:03.721390 26397 net.cpp:122] Setting up relu4_2
I1017 12:02:03.721395 26397 net.cpp:129] Top shape: 150 512 36 36 (99532800)
I1017 12:02:03.721400 26397 net.cpp:137] Memory required for data: 27023166600
I1017 12:02:03.721405 26397 layer_factory.hpp:77] Creating layer conv4_3
I1017 12:02:03.721415 26397 net.cpp:84] Creating Layer conv4_3
I1017 12:02:03.721421 26397 net.cpp:406] conv4_3 <- conv4_2
I1017 12:02:03.721428 26397 net.cpp:380] conv4_3 -> conv4_3
I1017 12:02:03.728000 26397 net.cpp:122] Setting up conv4_3
I1017 12:02:03.728021 26397 net.cpp:129] Top shape: 150 512 36 36 (99532800)
I1017 12:02:03.728040 26397 net.cpp:137] Memory required for data: 27421297800
I1017 12:02:03.728051 26397 layer_factory.hpp:77] Creating layer relu4_3
I1017 12:02:03.728060 26397 net.cpp:84] Creating Layer relu4_3
I1017 12:02:03.728066 26397 net.cpp:406] relu4_3 <- conv4_3
I1017 12:02:03.728075 26397 net.cpp:367] relu4_3 -> conv4_3 (in-place)
I1017 12:02:03.728085 26397 net.cpp:122] Setting up relu4_3
I1017 12:02:03.728091 26397 net.cpp:129] Top shape: 150 512 36 36 (99532800)
I1017 12:02:03.728096 26397 net.cpp:137] Memory required for data: 27819429000
I1017 12:02:03.728099 26397 layer_factory.hpp:77] Creating layer pool4
I1017 12:02:03.728109 26397 net.cpp:84] Creating Layer pool4
I1017 12:02:03.728114 26397 net.cpp:406] pool4 <- conv4_3
I1017 12:02:03.728122 26397 net.cpp:380] pool4 -> pool4
I1017 12:02:03.728173 26397 net.cpp:122] Setting up pool4
I1017 12:02:03.728180 26397 net.cpp:129] Top shape: 150 512 18 18 (24883200)
I1017 12:02:03.728184 26397 net.cpp:137] Memory required for data: 27918961800
I1017 12:02:03.728189 26397 layer_factory.hpp:77] Creating layer conv5_1
I1017 12:02:03.728200 26397 net.cpp:84] Creating Layer conv5_1
I1017 12:02:03.728205 26397 net.cpp:406] conv5_1 <- pool4
I1017 12:02:03.728212 26397 net.cpp:380] conv5_1 -> conv5_1
I1017 12:02:03.736330 26397 net.cpp:122] Setting up conv5_1
I1017 12:02:03.736366 26397 net.cpp:129] Top shape: 150 512 18 18 (24883200)
I1017 12:02:03.736377 26397 net.cpp:137] Memory required for data: 28018494600
I1017 12:02:03.736394 26397 layer_factory.hpp:77] Creating layer relu5_1
I1017 12:02:03.736407 26397 net.cpp:84] Creating Layer relu5_1
I1017 12:02:03.736414 26397 net.cpp:406] relu5_1 <- conv5_1
I1017 12:02:03.736424 26397 net.cpp:367] relu5_1 -> conv5_1 (in-place)
I1017 12:02:03.736435 26397 net.cpp:122] Setting up relu5_1
I1017 12:02:03.736443 26397 net.cpp:129] Top shape: 150 512 18 18 (24883200)
I1017 12:02:03.736448 26397 net.cpp:137] Memory required for data: 28118027400
I1017 12:02:03.736451 26397 layer_factory.hpp:77] Creating layer conv5_2
I1017 12:02:03.736462 26397 net.cpp:84] Creating Layer conv5_2
I1017 12:02:03.736467 26397 net.cpp:406] conv5_2 <- conv5_1
I1017 12:02:03.736476 26397 net.cpp:380] conv5_2 -> conv5_2
I1017 12:02:03.742985 26397 net.cpp:122] Setting up conv5_2
I1017 12:02:03.743005 26397 net.cpp:129] Top shape: 150 512 18 18 (24883200)
I1017 12:02:03.743011 26397 net.cpp:137] Memory required for data: 28217560200
I1017 12:02:03.743021 26397 layer_factory.hpp:77] Creating layer relu5_2
I1017 12:02:03.743039 26397 net.cpp:84] Creating Layer relu5_2
I1017 12:02:03.743046 26397 net.cpp:406] relu5_2 <- conv5_2
I1017 12:02:03.743055 26397 net.cpp:367] relu5_2 -> conv5_2 (in-place)
I1017 12:02:03.743067 26397 net.cpp:122] Setting up relu5_2
I1017 12:02:03.743072 26397 net.cpp:129] Top shape: 150 512 18 18 (24883200)
I1017 12:02:03.743077 26397 net.cpp:137] Memory required for data: 28317093000
I1017 12:02:03.743083 26397 layer_factory.hpp:77] Creating layer conv5_3
I1017 12:02:03.743093 26397 net.cpp:84] Creating Layer conv5_3
I1017 12:02:03.743098 26397 net.cpp:406] conv5_3 <- conv5_2
I1017 12:02:03.743105 26397 net.cpp:380] conv5_3 -> conv5_3
I1017 12:02:03.749756 26397 net.cpp:122] Setting up conv5_3
I1017 12:02:03.749786 26397 net.cpp:129] Top shape: 150 512 18 18 (24883200)
I1017 12:02:03.749791 26397 net.cpp:137] Memory required for data: 28416625800
I1017 12:02:03.749804 26397 layer_factory.hpp:77] Creating layer relu5_3
I1017 12:02:03.749816 26397 net.cpp:84] Creating Layer relu5_3
I1017 12:02:03.749825 26397 net.cpp:406] relu5_3 <- conv5_3
I1017 12:02:03.749835 26397 net.cpp:367] relu5_3 -> conv5_3 (in-place)
I1017 12:02:03.749846 26397 net.cpp:122] Setting up relu5_3
I1017 12:02:03.749853 26397 net.cpp:129] Top shape: 150 512 18 18 (24883200)
I1017 12:02:03.749857 26397 net.cpp:137] Memory required for data: 28516158600
I1017 12:02:03.749862 26397 layer_factory.hpp:77] Creating layer pool5
I1017 12:02:03.749872 26397 net.cpp:84] Creating Layer pool5
I1017 12:02:03.749877 26397 net.cpp:406] pool5 <- conv5_3
I1017 12:02:03.749886 26397 net.cpp:380] pool5 -> pool5
I1017 12:02:03.749933 26397 net.cpp:122] Setting up pool5
I1017 12:02:03.749940 26397 net.cpp:129] Top shape: 150 512 9 9 (6220800)
I1017 12:02:03.749945 26397 net.cpp:137] Memory required for data: 28541041800
I1017 12:02:03.749950 26397 layer_factory.hpp:77] Creating layer fc6-conv
I1017 12:02:03.749960 26397 net.cpp:84] Creating Layer fc6-conv
I1017 12:02:03.749966 26397 net.cpp:406] fc6-conv <- pool5
I1017 12:02:03.749974 26397 net.cpp:380] fc6-conv -> fc6-conv
I1017 12:02:04.139365 26397 net.cpp:122] Setting up fc6-conv
I1017 12:02:04.139411 26397 net.cpp:129] Top shape: 150 4096 3 3 (5529600)
I1017 12:02:04.139416 26397 net.cpp:137] Memory required for data: 28563160200
I1017 12:02:04.139430 26397 layer_factory.hpp:77] Creating layer relu6
I1017 12:02:04.139447 26397 net.cpp:84] Creating Layer relu6
I1017 12:02:04.139454 26397 net.cpp:406] relu6 <- fc6-conv
I1017 12:02:04.139467 26397 net.cpp:367] relu6 -> fc6-conv (in-place)
I1017 12:02:04.139482 26397 net.cpp:122] Setting up relu6
I1017 12:02:04.139488 26397 net.cpp:129] Top shape: 150 4096 3 3 (5529600)
I1017 12:02:04.139492 26397 net.cpp:137] Memory required for data: 28585278600
I1017 12:02:04.139497 26397 layer_factory.hpp:77] Creating layer drop6
I1017 12:02:04.139505 26397 net.cpp:84] Creating Layer drop6
I1017 12:02:04.139510 26397 net.cpp:406] drop6 <- fc6-conv
I1017 12:02:04.139518 26397 net.cpp:367] drop6 -> fc6-conv (in-place)
I1017 12:02:04.139549 26397 net.cpp:122] Setting up drop6
I1017 12:02:04.139557 26397 net.cpp:129] Top shape: 150 4096 3 3 (5529600)
I1017 12:02:04.139561 26397 net.cpp:137] Memory required for data: 28607397000
I1017 12:02:04.139566 26397 layer_factory.hpp:77] Creating layer fc7-conv
I1017 12:02:04.139578 26397 net.cpp:84] Creating Layer fc7-conv
I1017 12:02:04.139583 26397 net.cpp:406] fc7-conv <- fc6-conv
I1017 12:02:04.139591 26397 net.cpp:380] fc7-conv -> fc7-conv
I1017 12:02:04.188042 26397 net.cpp:122] Setting up fc7-conv
I1017 12:02:04.188088 26397 net.cpp:129] Top shape: 150 4096 3 3 (5529600)
I1017 12:02:04.188094 26397 net.cpp:137] Memory required for data: 28629515400
I1017 12:02:04.188107 26397 layer_factory.hpp:77] Creating layer relu7
I1017 12:02:04.188122 26397 net.cpp:84] Creating Layer relu7
I1017 12:02:04.188129 26397 net.cpp:406] relu7 <- fc7-conv
I1017 12:02:04.188144 26397 net.cpp:367] relu7 -> fc7-conv (in-place)
I1017 12:02:04.188158 26397 net.cpp:122] Setting up relu7
I1017 12:02:04.188165 26397 net.cpp:129] Top shape: 150 4096 3 3 (5529600)
I1017 12:02:04.188170 26397 net.cpp:137] Memory required for data: 28651633800
I1017 12:02:04.188174 26397 layer_factory.hpp:77] Creating layer drop7
I1017 12:02:04.188184 26397 net.cpp:84] Creating Layer drop7
I1017 12:02:04.188189 26397 net.cpp:406] drop7 <- fc7-conv
I1017 12:02:04.188196 26397 net.cpp:367] drop7 -> fc7-conv (in-place)
I1017 12:02:04.188233 26397 net.cpp:122] Setting up drop7
I1017 12:02:04.188241 26397 net.cpp:129] Top shape: 150 4096 3 3 (5529600)
I1017 12:02:04.188246 26397 net.cpp:137] Memory required for data: 28673752200
I1017 12:02:04.188251 26397 layer_factory.hpp:77] Creating layer fc7-conv_re
I1017 12:02:04.188261 26397 net.cpp:84] Creating Layer fc7-conv_re
I1017 12:02:04.188268 26397 net.cpp:406] fc7-conv_re <- fc7-conv
I1017 12:02:04.188275 26397 net.cpp:380] fc7-conv_re -> fc7-conv_re
I1017 12:02:04.188309 26397 net.cpp:122] Setting up fc7-conv_re
I1017 12:02:04.188318 26397 net.cpp:129] Top shape: 150 4096 9 (5529600)
I1017 12:02:04.188323 26397 net.cpp:137] Memory required for data: 28695870600
I1017 12:02:04.188328 26397 layer_factory.hpp:77] Creating layer fc7-conv_tran
I1017 12:02:04.188400 26397 net.cpp:84] Creating Layer fc7-conv_tran
I1017 12:02:04.188415 26397 net.cpp:406] fc7-conv_tran <- fc7-conv_re
I1017 12:02:04.188422 26397 net.cpp:380] fc7-conv_tran -> fc7-conv_tran
I1017 12:02:04.200346 26397 net.cpp:122] Setting up fc7-conv_tran
I1017 12:02:04.200381 26397 net.cpp:129] Top shape: 4 150 9 (5400)
I1017 12:02:04.200387 26397 net.cpp:137] Memory required for data: 28695892200
I1017 12:02:04.200392 26397 layer_factory.hpp:77] Creating layer lstm1
I1017 12:02:04.200408 26397 net.cpp:84] Creating Layer lstm1
I1017 12:02:04.200418 26397 net.cpp:406] lstm1 <- fc7-conv_tran
I1017 12:02:04.200429 26397 net.cpp:406] lstm1 <- clip_markers
I1017 12:02:04.200439 26397 net.cpp:380] lstm1 -> lstm1
I1017 12:02:04.200455 26397 recurrent_layer.cpp:20] Initializing recurrent layer: assuming input batch contains 4 timesteps of 150 independent streams.
I1017 12:02:04.200770 26397 net.cpp:51] Initializing net from parameters: 
layer {
  name: "lstm1_"
  type: "Input"
  top: "x"
  top: "cont"
  input_param {
    shape {
      dim: 4
      dim: 150
      dim: 9
    }
    shape {
      dim: 4
      dim: 150
    }
  }
}
layer {
  name: "lstm1_"
  type: "Input"
  top: "c_0"
  top: "h_0"
  input_param {
    shape {
      dim: 1
      dim: 150
      dim: 512
    }
    shape {
      dim: 1
      dim: 150
      dim: 512
    }
  }
}
layer {
  name: "lstm1_cont_slice"
  type: "Slice"
  bottom: "cont"
  top: "cont_1"
  top: "cont_2"
  top: "cont_3"
  top: "cont_4"
  slice_param {
    axis: 0
  }
}
layer {
  name: "lstm1_x_transform"
  type: "InnerProduct"
  bottom: "x"
  top: "W_xc_x"
  param {
    name: "W_xc"
  }
  param {
    name: "b_c"
  }
  propagate_down: true
  inner_product_param {
    num_output: 2048
    bias_term: true
    weight_filler {
      type: "uniform"
      min: -0.01
      max: 0.01
    }
    bias_filler {
      type: "constant"
      value: 0
    }
    axis: 2
  }
}
layer {
  name: "lstm1_W_xc_x_slice"
  type: "Slice"
  bottom: "W_xc_x"
  top: "W_xc_x_1"
  top: "W_xc_x_2"
  top: "W_xc_x_3"
  top: "W_xc_x_4"
  slice_param {
    axis: 0
  }
}
layer {
  name: "lstm1_h_conted_0"
  type: "Scale"
  bottom: "h_0"
  bottom: "cont_1"
  top: "h_conted_0"
  scale_param {
    axis: 0
  }
}
layer {
  name: "lstm1_transform_1"
  type: "InnerProduct"
  bottom: "h_conted_0"
  top: "W_hc_h_0"
  param {
    name: "W_hc"
  }
  inner_product_param {
    num_output: 2048
    bias_term: false
    weight_filler {
      type: "uniform"
      min: -0.01
      max: 0.01
    }
    axis: 2
  }
}
layer {
  name: "lstm1_gate_input_1"
  type: "Eltwise"
  bottom: "W_hc_h_0"
  bottom: "W_xc_x_1"
  top: "gate_input_1"
  eltwise_param {
    operation: SUM
  }
}
layer {
  name: "lstm1_unit_1"
  type: "LSTMUnit"
  bottom: "c_0"
  bottom: "gate_input_1"
  bottom: "cont_1"
  top: "c_1"
  top: "h_1"
}
layer {
  name: "lstm1_h_conted_1"
  type: "Scale"
  bottom: "h_1"
  bottom: "cont_2"
  top: "h_conted_1"
  scale_param {
    axis: 0
  }
}
layer {
  name: "lstm1_transform_2"
  type: "InnerProduct"
  bottom: "h_conted_1"
  top: "W_hc_h_1"
  param {
    name: "W_hc"
  }
  inner_product_param {
    num_output: 2048
    bias_term: false
    weight_filler {
      type: "uniform"
      min: -0.01
      max: 0.01
    }
    axis: 2
  }
}
layer {
  name: "lstm1_gate_input_2"
  type: "Eltwise"
  bottom: "W_hc_h_1"
  bottom: "W_xc_x_2"
  top: "gate_input_2"
  eltwise_param {
    operation: SUM
  }
}
layer {
  name: "lstm1_unit_2"
  type: "LSTMUnit"
  bottom: "c_1"
  bottom: "gate_input_2"
  bottom: "cont_2"
  top: "c_2"
  top: "h_2"
}
layer {
  name: "lstm1_h_conted_2"
  type: "Scale"
  bottom: "h_2"
  bottom: "cont_3"
  top: "h_conted_2"
  scale_param {
    axis: 0
  }
}
layer {
  name: "lstm1_transform_3"
  type: "InnerProduct"
  bottom: "h_conted_2"
  top: "W_hc_h_2"
  param {
    name: "W_hc"
  }
  inner_product_param {
    num_output: 2048
    bias_term: false
    weight_filler {
      type: "uniform"
      min: -0.01
      max: 0.01
    }
    axis: 2
  }
}
layer {
  name: "lstm1_gate_input_3"
  type: "Eltwise"
  bottom: "W_hc_h_2"
  bottom: "W_xc_x_3"
  top: "gate_input_3"
  eltwise_param {
    operation: SUM
  }
}
layer {
  name: "lstm1_unit_3"
  type: "LSTMUnit"
  bottom: "c_2"
  bottom: "gate_input_3"
  bottom: "cont_3"
  top: "c_3"
  top: "h_3"
}
layer {
  name: "lstm1_h_conted_3"
  type: "Scale"
  bottom: "h_3"
  bottom: "cont_4"
  top: "h_conted_3"
  scale_param {
    axis: 0
  }
}
layer {
  name: "lstm1_transform_4"
  type: "InnerProduct"
  bottom: "h_conted_3"
  top: "W_hc_h_3"
  param {
    name: "W_hc"
  }
  inner_product_param {
    num_output: 2048
    bias_term: false
    weight_filler {
      type: "uniform"
      min: -0.01
      max: 0.01
    }
    axis: 2
  }
}
layer {
  name: "lstm1_gate_input_4"
  type: "Eltwise"
  bottom: "W_hc_h_3"
  bottom: "W_xc_x_4"
  top: "gate_input_4"
  eltwise_param {
    operation: SUM
  }
}
layer {
  name: "lstm1_unit_4"
  type: "LSTMUnit"
  bottom: "c_3"
  bottom: "gate_input_4"
  bottom: "cont_4"
  top: "c_4"
  top: "h_4"
}
layer {
  name: "lstm1_"
  type: "Split"
  bottom: "c_4"
  top: "c_T"
}
layer {
  name: "lstm1_h_concat"
  type: "Concat"
  bottom: "h_1"
  bottom: "h_2"
  bottom: "h_3"
  bottom: "h_4"
  top: "h"
  concat_param {
    axis: 0
  }
}
layer {
  name: "h_pseudoloss"
  type: "Reduction"
  bottom: "h"
  top: "h_pseudoloss"
  loss_weight: 1
}
I1017 12:02:04.200959 26397 layer_factory.hpp:77] Creating layer lstm1_
I1017 12:02:04.200973 26397 net.cpp:84] Creating Layer lstm1_
I1017 12:02:04.200979 26397 net.cpp:380] lstm1_ -> x
I1017 12:02:04.200991 26397 net.cpp:380] lstm1_ -> cont
I1017 12:02:04.201046 26397 net.cpp:122] Setting up lstm1_
I1017 12:02:04.201056 26397 net.cpp:129] Top shape: 4 150 9 (5400)
I1017 12:02:04.201063 26397 net.cpp:129] Top shape: 4 150 (600)
I1017 12:02:04.201067 26397 net.cpp:137] Memory required for data: 24000
I1017 12:02:04.201073 26397 layer_factory.hpp:77] Creating layer lstm1_
I1017 12:02:04.201081 26397 net.cpp:84] Creating Layer lstm1_
I1017 12:02:04.201089 26397 net.cpp:380] lstm1_ -> c_0
I1017 12:02:04.201099 26397 net.cpp:380] lstm1_ -> h_0
I1017 12:02:04.201153 26397 net.cpp:122] Setting up lstm1_
I1017 12:02:04.201161 26397 net.cpp:129] Top shape: 1 150 512 (76800)
I1017 12:02:04.201166 26397 net.cpp:129] Top shape: 1 150 512 (76800)
I1017 12:02:04.201170 26397 net.cpp:137] Memory required for data: 638400
I1017 12:02:04.201175 26397 layer_factory.hpp:77] Creating layer lstm1_cont_slice
I1017 12:02:04.201185 26397 net.cpp:84] Creating Layer lstm1_cont_slice
I1017 12:02:04.201191 26397 net.cpp:406] lstm1_cont_slice <- cont
I1017 12:02:04.201200 26397 net.cpp:380] lstm1_cont_slice -> cont_1
I1017 12:02:04.201210 26397 net.cpp:380] lstm1_cont_slice -> cont_2
I1017 12:02:04.201216 26397 net.cpp:380] lstm1_cont_slice -> cont_3
I1017 12:02:04.201223 26397 net.cpp:380] lstm1_cont_slice -> cont_4
I1017 12:02:04.201292 26397 net.cpp:122] Setting up lstm1_cont_slice
I1017 12:02:04.201299 26397 net.cpp:129] Top shape: 1 150 (150)
I1017 12:02:04.201304 26397 net.cpp:129] Top shape: 1 150 (150)
I1017 12:02:04.201310 26397 net.cpp:129] Top shape: 1 150 (150)
I1017 12:02:04.201315 26397 net.cpp:129] Top shape: 1 150 (150)
I1017 12:02:04.201319 26397 net.cpp:137] Memory required for data: 640800
I1017 12:02:04.201324 26397 layer_factory.hpp:77] Creating layer cont_1_lstm1_cont_slice_0_split
I1017 12:02:04.201333 26397 net.cpp:84] Creating Layer cont_1_lstm1_cont_slice_0_split
I1017 12:02:04.201339 26397 net.cpp:406] cont_1_lstm1_cont_slice_0_split <- cont_1
I1017 12:02:04.201344 26397 net.cpp:380] cont_1_lstm1_cont_slice_0_split -> cont_1_lstm1_cont_slice_0_split_0
I1017 12:02:04.201354 26397 net.cpp:380] cont_1_lstm1_cont_slice_0_split -> cont_1_lstm1_cont_slice_0_split_1
I1017 12:02:04.201395 26397 net.cpp:122] Setting up cont_1_lstm1_cont_slice_0_split
I1017 12:02:04.201402 26397 net.cpp:129] Top shape: 1 150 (150)
I1017 12:02:04.201407 26397 net.cpp:129] Top shape: 1 150 (150)
I1017 12:02:04.201411 26397 net.cpp:137] Memory required for data: 642000
I1017 12:02:04.201416 26397 layer_factory.hpp:77] Creating layer cont_2_lstm1_cont_slice_1_split
I1017 12:02:04.201422 26397 net.cpp:84] Creating Layer cont_2_lstm1_cont_slice_1_split
I1017 12:02:04.201427 26397 net.cpp:406] cont_2_lstm1_cont_slice_1_split <- cont_2
I1017 12:02:04.201436 26397 net.cpp:380] cont_2_lstm1_cont_slice_1_split -> cont_2_lstm1_cont_slice_1_split_0
I1017 12:02:04.201443 26397 net.cpp:380] cont_2_lstm1_cont_slice_1_split -> cont_2_lstm1_cont_slice_1_split_1
I1017 12:02:04.201480 26397 net.cpp:122] Setting up cont_2_lstm1_cont_slice_1_split
I1017 12:02:04.201488 26397 net.cpp:129] Top shape: 1 150 (150)
I1017 12:02:04.201493 26397 net.cpp:129] Top shape: 1 150 (150)
I1017 12:02:04.201496 26397 net.cpp:137] Memory required for data: 643200
I1017 12:02:04.201501 26397 layer_factory.hpp:77] Creating layer cont_3_lstm1_cont_slice_2_split
I1017 12:02:04.201508 26397 net.cpp:84] Creating Layer cont_3_lstm1_cont_slice_2_split
I1017 12:02:04.201514 26397 net.cpp:406] cont_3_lstm1_cont_slice_2_split <- cont_3
I1017 12:02:04.201519 26397 net.cpp:380] cont_3_lstm1_cont_slice_2_split -> cont_3_lstm1_cont_slice_2_split_0
I1017 12:02:04.201526 26397 net.cpp:380] cont_3_lstm1_cont_slice_2_split -> cont_3_lstm1_cont_slice_2_split_1
I1017 12:02:04.201562 26397 net.cpp:122] Setting up cont_3_lstm1_cont_slice_2_split
I1017 12:02:04.201570 26397 net.cpp:129] Top shape: 1 150 (150)
I1017 12:02:04.201575 26397 net.cpp:129] Top shape: 1 150 (150)
I1017 12:02:04.201580 26397 net.cpp:137] Memory required for data: 644400
I1017 12:02:04.201583 26397 layer_factory.hpp:77] Creating layer cont_4_lstm1_cont_slice_3_split
I1017 12:02:04.201588 26397 net.cpp:84] Creating Layer cont_4_lstm1_cont_slice_3_split
I1017 12:02:04.201593 26397 net.cpp:406] cont_4_lstm1_cont_slice_3_split <- cont_4
I1017 12:02:04.201599 26397 net.cpp:380] cont_4_lstm1_cont_slice_3_split -> cont_4_lstm1_cont_slice_3_split_0
I1017 12:02:04.201606 26397 net.cpp:380] cont_4_lstm1_cont_slice_3_split -> cont_4_lstm1_cont_slice_3_split_1
I1017 12:02:04.201642 26397 net.cpp:122] Setting up cont_4_lstm1_cont_slice_3_split
I1017 12:02:04.201648 26397 net.cpp:129] Top shape: 1 150 (150)
I1017 12:02:04.201653 26397 net.cpp:129] Top shape: 1 150 (150)
I1017 12:02:04.201658 26397 net.cpp:137] Memory required for data: 645600
I1017 12:02:04.201663 26397 layer_factory.hpp:77] Creating layer lstm1_x_transform
I1017 12:02:04.201670 26397 net.cpp:84] Creating Layer lstm1_x_transform
I1017 12:02:04.201675 26397 net.cpp:406] lstm1_x_transform <- x
I1017 12:02:04.201684 26397 net.cpp:380] lstm1_x_transform -> W_xc_x
I1017 12:02:04.202028 26397 net.cpp:122] Setting up lstm1_x_transform
I1017 12:02:04.202039 26397 net.cpp:129] Top shape: 4 150 2048 (1228800)
I1017 12:02:04.202044 26397 net.cpp:137] Memory required for data: 5560800
I1017 12:02:04.202054 26397 layer_factory.hpp:77] Creating layer lstm1_W_xc_x_slice
I1017 12:02:04.202064 26397 net.cpp:84] Creating Layer lstm1_W_xc_x_slice
I1017 12:02:04.202069 26397 net.cpp:406] lstm1_W_xc_x_slice <- W_xc_x
I1017 12:02:04.202075 26397 net.cpp:380] lstm1_W_xc_x_slice -> W_xc_x_1
I1017 12:02:04.202083 26397 net.cpp:380] lstm1_W_xc_x_slice -> W_xc_x_2
I1017 12:02:04.202090 26397 net.cpp:380] lstm1_W_xc_x_slice -> W_xc_x_3
I1017 12:02:04.202098 26397 net.cpp:380] lstm1_W_xc_x_slice -> W_xc_x_4
I1017 12:02:04.202165 26397 net.cpp:122] Setting up lstm1_W_xc_x_slice
I1017 12:02:04.202172 26397 net.cpp:129] Top shape: 1 150 2048 (307200)
I1017 12:02:04.202178 26397 net.cpp:129] Top shape: 1 150 2048 (307200)
I1017 12:02:04.202183 26397 net.cpp:129] Top shape: 1 150 2048 (307200)
I1017 12:02:04.202188 26397 net.cpp:129] Top shape: 1 150 2048 (307200)
I1017 12:02:04.202193 26397 net.cpp:137] Memory required for data: 10476000
I1017 12:02:04.202198 26397 layer_factory.hpp:77] Creating layer lstm1_h_conted_0
I1017 12:02:04.202204 26397 net.cpp:84] Creating Layer lstm1_h_conted_0
I1017 12:02:04.202209 26397 net.cpp:406] lstm1_h_conted_0 <- h_0
I1017 12:02:04.202215 26397 net.cpp:406] lstm1_h_conted_0 <- cont_1_lstm1_cont_slice_0_split_0
I1017 12:02:04.202222 26397 net.cpp:380] lstm1_h_conted_0 -> h_conted_0
I1017 12:02:04.202316 26397 net.cpp:122] Setting up lstm1_h_conted_0
I1017 12:02:04.202322 26397 net.cpp:129] Top shape: 1 150 512 (76800)
I1017 12:02:04.202327 26397 net.cpp:137] Memory required for data: 10783200
I1017 12:02:04.202332 26397 layer_factory.hpp:77] Creating layer lstm1_transform_1
I1017 12:02:04.202338 26397 net.cpp:84] Creating Layer lstm1_transform_1
I1017 12:02:04.202343 26397 net.cpp:406] lstm1_transform_1 <- h_conted_0
I1017 12:02:04.202353 26397 net.cpp:380] lstm1_transform_1 -> W_hc_h_0
I1017 12:02:04.220526 26397 net.cpp:122] Setting up lstm1_transform_1
I1017 12:02:04.220556 26397 net.cpp:129] Top shape: 1 150 2048 (307200)
I1017 12:02:04.220562 26397 net.cpp:137] Memory required for data: 12012000
I1017 12:02:04.220578 26397 layer_factory.hpp:77] Creating layer lstm1_gate_input_1
I1017 12:02:04.220594 26397 net.cpp:84] Creating Layer lstm1_gate_input_1
I1017 12:02:04.220600 26397 net.cpp:406] lstm1_gate_input_1 <- W_hc_h_0
I1017 12:02:04.220607 26397 net.cpp:406] lstm1_gate_input_1 <- W_xc_x_1
I1017 12:02:04.220615 26397 net.cpp:380] lstm1_gate_input_1 -> gate_input_1
I1017 12:02:04.220659 26397 net.cpp:122] Setting up lstm1_gate_input_1
I1017 12:02:04.220669 26397 net.cpp:129] Top shape: 1 150 2048 (307200)
I1017 12:02:04.220674 26397 net.cpp:137] Memory required for data: 13240800
I1017 12:02:04.220679 26397 layer_factory.hpp:77] Creating layer lstm1_unit_1
I1017 12:02:04.220686 26397 net.cpp:84] Creating Layer lstm1_unit_1
I1017 12:02:04.220692 26397 net.cpp:406] lstm1_unit_1 <- c_0
I1017 12:02:04.220698 26397 net.cpp:406] lstm1_unit_1 <- gate_input_1
I1017 12:02:04.220705 26397 net.cpp:406] lstm1_unit_1 <- cont_1_lstm1_cont_slice_0_split_1
I1017 12:02:04.220713 26397 net.cpp:380] lstm1_unit_1 -> c_1
I1017 12:02:04.220722 26397 net.cpp:380] lstm1_unit_1 -> h_1
I1017 12:02:04.220780 26397 net.cpp:122] Setting up lstm1_unit_1
I1017 12:02:04.220789 26397 net.cpp:129] Top shape: 1 150 512 (76800)
I1017 12:02:04.220795 26397 net.cpp:129] Top shape: 1 150 512 (76800)
I1017 12:02:04.220800 26397 net.cpp:137] Memory required for data: 13855200
I1017 12:02:04.220804 26397 layer_factory.hpp:77] Creating layer h_1_lstm1_unit_1_1_split
I1017 12:02:04.220813 26397 net.cpp:84] Creating Layer h_1_lstm1_unit_1_1_split
I1017 12:02:04.220818 26397 net.cpp:406] h_1_lstm1_unit_1_1_split <- h_1
I1017 12:02:04.220824 26397 net.cpp:380] h_1_lstm1_unit_1_1_split -> h_1_lstm1_unit_1_1_split_0
I1017 12:02:04.220832 26397 net.cpp:380] h_1_lstm1_unit_1_1_split -> h_1_lstm1_unit_1_1_split_1
I1017 12:02:04.220873 26397 net.cpp:122] Setting up h_1_lstm1_unit_1_1_split
I1017 12:02:04.220882 26397 net.cpp:129] Top shape: 1 150 512 (76800)
I1017 12:02:04.220887 26397 net.cpp:129] Top shape: 1 150 512 (76800)
I1017 12:02:04.220892 26397 net.cpp:137] Memory required for data: 14469600
I1017 12:02:04.220896 26397 layer_factory.hpp:77] Creating layer lstm1_h_conted_1
I1017 12:02:04.220906 26397 net.cpp:84] Creating Layer lstm1_h_conted_1
I1017 12:02:04.220911 26397 net.cpp:406] lstm1_h_conted_1 <- h_1_lstm1_unit_1_1_split_0
I1017 12:02:04.220917 26397 net.cpp:406] lstm1_h_conted_1 <- cont_2_lstm1_cont_slice_1_split_0
I1017 12:02:04.220927 26397 net.cpp:380] lstm1_h_conted_1 -> h_conted_1
I1017 12:02:04.221019 26397 net.cpp:122] Setting up lstm1_h_conted_1
I1017 12:02:04.221029 26397 net.cpp:129] Top shape: 1 150 512 (76800)
I1017 12:02:04.221035 26397 net.cpp:137] Memory required for data: 14776800
I1017 12:02:04.221038 26397 layer_factory.hpp:77] Creating layer lstm1_transform_2
I1017 12:02:04.221048 26397 net.cpp:84] Creating Layer lstm1_transform_2
I1017 12:02:04.221055 26397 net.cpp:406] lstm1_transform_2 <- h_conted_1
I1017 12:02:04.221063 26397 net.cpp:380] lstm1_transform_2 -> W_hc_h_1
I1017 12:02:04.237076 26397 net.cpp:122] Setting up lstm1_transform_2
I1017 12:02:04.237278 26397 net.cpp:129] Top shape: 1 150 2048 (307200)
I1017 12:02:04.237315 26397 net.cpp:137] Memory required for data: 16005600
I1017 12:02:04.237360 26397 net.cpp:465] Sharing parameters 'W_hc' owned by layer 'lstm1_transform_1', param index 0
I1017 12:02:04.237382 26397 layer_factory.hpp:77] Creating layer lstm1_gate_input_2
I1017 12:02:04.237457 26397 net.cpp:84] Creating Layer lstm1_gate_input_2
I1017 12:02:04.237488 26397 net.cpp:406] lstm1_gate_input_2 <- W_hc_h_1
I1017 12:02:04.237515 26397 net.cpp:406] lstm1_gate_input_2 <- W_xc_x_2
I1017 12:02:04.237583 26397 net.cpp:380] lstm1_gate_input_2 -> gate_input_2
I1017 12:02:04.237836 26397 net.cpp:122] Setting up lstm1_gate_input_2
I1017 12:02:04.237846 26397 net.cpp:129] Top shape: 1 150 2048 (307200)
I1017 12:02:04.237851 26397 net.cpp:137] Memory required for data: 17234400
I1017 12:02:04.237856 26397 layer_factory.hpp:77] Creating layer lstm1_unit_2
I1017 12:02:04.237864 26397 net.cpp:84] Creating Layer lstm1_unit_2
I1017 12:02:04.237869 26397 net.cpp:406] lstm1_unit_2 <- c_1
I1017 12:02:04.237876 26397 net.cpp:406] lstm1_unit_2 <- gate_input_2
I1017 12:02:04.237881 26397 net.cpp:406] lstm1_unit_2 <- cont_2_lstm1_cont_slice_1_split_1
I1017 12:02:04.237888 26397 net.cpp:380] lstm1_unit_2 -> c_2
I1017 12:02:04.237900 26397 net.cpp:380] lstm1_unit_2 -> h_2
I1017 12:02:04.237962 26397 net.cpp:122] Setting up lstm1_unit_2
I1017 12:02:04.237972 26397 net.cpp:129] Top shape: 1 150 512 (76800)
I1017 12:02:04.237978 26397 net.cpp:129] Top shape: 1 150 512 (76800)
I1017 12:02:04.237982 26397 net.cpp:137] Memory required for data: 17848800
I1017 12:02:04.237987 26397 layer_factory.hpp:77] Creating layer h_2_lstm1_unit_2_1_split
I1017 12:02:04.237995 26397 net.cpp:84] Creating Layer h_2_lstm1_unit_2_1_split
I1017 12:02:04.238000 26397 net.cpp:406] h_2_lstm1_unit_2_1_split <- h_2
I1017 12:02:04.238008 26397 net.cpp:380] h_2_lstm1_unit_2_1_split -> h_2_lstm1_unit_2_1_split_0
I1017 12:02:04.238015 26397 net.cpp:380] h_2_lstm1_unit_2_1_split -> h_2_lstm1_unit_2_1_split_1
I1017 12:02:04.238056 26397 net.cpp:122] Setting up h_2_lstm1_unit_2_1_split
I1017 12:02:04.238123 26397 net.cpp:129] Top shape: 1 150 512 (76800)
I1017 12:02:04.238147 26397 net.cpp:129] Top shape: 1 150 512 (76800)
I1017 12:02:04.238160 26397 net.cpp:137] Memory required for data: 18463200
I1017 12:02:04.238178 26397 layer_factory.hpp:77] Creating layer lstm1_h_conted_2
I1017 12:02:04.238226 26397 net.cpp:84] Creating Layer lstm1_h_conted_2
I1017 12:02:04.238287 26397 net.cpp:406] lstm1_h_conted_2 <- h_2_lstm1_unit_2_1_split_0
I1017 12:02:04.238312 26397 net.cpp:406] lstm1_h_conted_2 <- cont_3_lstm1_cont_slice_2_split_0
I1017 12:02:04.238395 26397 net.cpp:380] lstm1_h_conted_2 -> h_conted_2
I1017 12:02:04.239292 26397 net.cpp:122] Setting up lstm1_h_conted_2
I1017 12:02:04.239449 26397 net.cpp:129] Top shape: 1 150 512 (76800)
I1017 12:02:04.239459 26397 net.cpp:137] Memory required for data: 18770400
I1017 12:02:04.239464 26397 layer_factory.hpp:77] Creating layer lstm1_transform_3
I1017 12:02:04.239477 26397 net.cpp:84] Creating Layer lstm1_transform_3
I1017 12:02:04.239482 26397 net.cpp:406] lstm1_transform_3 <- h_conted_2
I1017 12:02:04.239491 26397 net.cpp:380] lstm1_transform_3 -> W_hc_h_2
I1017 12:02:04.259069 26397 net.cpp:122] Setting up lstm1_transform_3
I1017 12:02:04.259104 26397 net.cpp:129] Top shape: 1 150 2048 (307200)
I1017 12:02:04.259109 26397 net.cpp:137] Memory required for data: 19999200
I1017 12:02:04.259124 26397 net.cpp:465] Sharing parameters 'W_hc' owned by layer 'lstm1_transform_1', param index 0
I1017 12:02:04.259132 26397 layer_factory.hpp:77] Creating layer lstm1_gate_input_3
I1017 12:02:04.259150 26397 net.cpp:84] Creating Layer lstm1_gate_input_3
I1017 12:02:04.259157 26397 net.cpp:406] lstm1_gate_input_3 <- W_hc_h_2
I1017 12:02:04.259167 26397 net.cpp:406] lstm1_gate_input_3 <- W_xc_x_3
I1017 12:02:04.259177 26397 net.cpp:380] lstm1_gate_input_3 -> gate_input_3
I1017 12:02:04.259224 26397 net.cpp:122] Setting up lstm1_gate_input_3
I1017 12:02:04.259232 26397 net.cpp:129] Top shape: 1 150 2048 (307200)
I1017 12:02:04.259238 26397 net.cpp:137] Memory required for data: 21228000
I1017 12:02:04.259241 26397 layer_factory.hpp:77] Creating layer lstm1_unit_3
I1017 12:02:04.259250 26397 net.cpp:84] Creating Layer lstm1_unit_3
I1017 12:02:04.259255 26397 net.cpp:406] lstm1_unit_3 <- c_2
I1017 12:02:04.259261 26397 net.cpp:406] lstm1_unit_3 <- gate_input_3
I1017 12:02:04.259268 26397 net.cpp:406] lstm1_unit_3 <- cont_3_lstm1_cont_slice_2_split_1
I1017 12:02:04.259276 26397 net.cpp:380] lstm1_unit_3 -> c_3
I1017 12:02:04.259285 26397 net.cpp:380] lstm1_unit_3 -> h_3
I1017 12:02:04.259341 26397 net.cpp:122] Setting up lstm1_unit_3
I1017 12:02:04.259348 26397 net.cpp:129] Top shape: 1 150 512 (76800)
I1017 12:02:04.259354 26397 net.cpp:129] Top shape: 1 150 512 (76800)
I1017 12:02:04.259359 26397 net.cpp:137] Memory required for data: 21842400
I1017 12:02:04.259363 26397 layer_factory.hpp:77] Creating layer h_3_lstm1_unit_3_1_split
I1017 12:02:04.259371 26397 net.cpp:84] Creating Layer h_3_lstm1_unit_3_1_split
I1017 12:02:04.259377 26397 net.cpp:406] h_3_lstm1_unit_3_1_split <- h_3
I1017 12:02:04.259382 26397 net.cpp:380] h_3_lstm1_unit_3_1_split -> h_3_lstm1_unit_3_1_split_0
I1017 12:02:04.259390 26397 net.cpp:380] h_3_lstm1_unit_3_1_split -> h_3_lstm1_unit_3_1_split_1
I1017 12:02:04.259431 26397 net.cpp:122] Setting up h_3_lstm1_unit_3_1_split
I1017 12:02:04.259441 26397 net.cpp:129] Top shape: 1 150 512 (76800)
I1017 12:02:04.259449 26397 net.cpp:129] Top shape: 1 150 512 (76800)
I1017 12:02:04.259452 26397 net.cpp:137] Memory required for data: 22456800
I1017 12:02:04.259457 26397 layer_factory.hpp:77] Creating layer lstm1_h_conted_3
I1017 12:02:04.259469 26397 net.cpp:84] Creating Layer lstm1_h_conted_3
I1017 12:02:04.259474 26397 net.cpp:406] lstm1_h_conted_3 <- h_3_lstm1_unit_3_1_split_0
I1017 12:02:04.259480 26397 net.cpp:406] lstm1_h_conted_3 <- cont_4_lstm1_cont_slice_3_split_0
I1017 12:02:04.259490 26397 net.cpp:380] lstm1_h_conted_3 -> h_conted_3
I1017 12:02:04.259577 26397 net.cpp:122] Setting up lstm1_h_conted_3
I1017 12:02:04.259588 26397 net.cpp:129] Top shape: 1 150 512 (76800)
I1017 12:02:04.259593 26397 net.cpp:137] Memory required for data: 22764000
I1017 12:02:04.259598 26397 layer_factory.hpp:77] Creating layer lstm1_transform_4
I1017 12:02:04.259608 26397 net.cpp:84] Creating Layer lstm1_transform_4
I1017 12:02:04.259613 26397 net.cpp:406] lstm1_transform_4 <- h_conted_3
I1017 12:02:04.259624 26397 net.cpp:380] lstm1_transform_4 -> W_hc_h_3
I1017 12:02:04.275104 26397 net.cpp:122] Setting up lstm1_transform_4
I1017 12:02:04.275151 26397 net.cpp:129] Top shape: 1 150 2048 (307200)
I1017 12:02:04.275162 26397 net.cpp:137] Memory required for data: 23992800
I1017 12:02:04.275176 26397 net.cpp:465] Sharing parameters 'W_hc' owned by layer 'lstm1_transform_1', param index 0
I1017 12:02:04.275187 26397 layer_factory.hpp:77] Creating layer lstm1_gate_input_4
I1017 12:02:04.275207 26397 net.cpp:84] Creating Layer lstm1_gate_input_4
I1017 12:02:04.275216 26397 net.cpp:406] lstm1_gate_input_4 <- W_hc_h_3
I1017 12:02:04.275230 26397 net.cpp:406] lstm1_gate_input_4 <- W_xc_x_4
I1017 12:02:04.275251 26397 net.cpp:380] lstm1_gate_input_4 -> gate_input_4
I1017 12:02:04.275352 26397 net.cpp:122] Setting up lstm1_gate_input_4
I1017 12:02:04.275382 26397 net.cpp:129] Top shape: 1 150 2048 (307200)
I1017 12:02:04.275444 26397 net.cpp:137] Memory required for data: 25221600
I1017 12:02:04.275487 26397 layer_factory.hpp:77] Creating layer lstm1_unit_4
I1017 12:02:04.275552 26397 net.cpp:84] Creating Layer lstm1_unit_4
I1017 12:02:04.275607 26397 net.cpp:406] lstm1_unit_4 <- c_3
I1017 12:02:04.275674 26397 net.cpp:406] lstm1_unit_4 <- gate_input_4
I1017 12:02:04.275696 26397 net.cpp:406] lstm1_unit_4 <- cont_4_lstm1_cont_slice_3_split_1
I1017 12:02:04.275710 26397 net.cpp:380] lstm1_unit_4 -> c_4
I1017 12:02:04.275729 26397 net.cpp:380] lstm1_unit_4 -> h_4
I1017 12:02:04.275876 26397 net.cpp:122] Setting up lstm1_unit_4
I1017 12:02:04.275894 26397 net.cpp:129] Top shape: 1 150 512 (76800)
I1017 12:02:04.275905 26397 net.cpp:129] Top shape: 1 150 512 (76800)
I1017 12:02:04.275916 26397 net.cpp:137] Memory required for data: 25836000
I1017 12:02:04.275924 26397 layer_factory.hpp:77] Creating layer lstm1_
I1017 12:02:04.275938 26397 net.cpp:84] Creating Layer lstm1_
I1017 12:02:04.275952 26397 net.cpp:406] lstm1_ <- c_4
I1017 12:02:04.275965 26397 net.cpp:380] lstm1_ -> c_T
I1017 12:02:04.276011 26397 net.cpp:122] Setting up lstm1_
I1017 12:02:04.276052 26397 net.cpp:129] Top shape: 1 150 512 (76800)
I1017 12:02:04.276067 26397 net.cpp:137] Memory required for data: 26143200
I1017 12:02:04.276075 26397 layer_factory.hpp:77] Creating layer lstm1_h_concat
I1017 12:02:04.276094 26397 net.cpp:84] Creating Layer lstm1_h_concat
I1017 12:02:04.276108 26397 net.cpp:406] lstm1_h_concat <- h_1_lstm1_unit_1_1_split_1
I1017 12:02:04.276119 26397 net.cpp:406] lstm1_h_concat <- h_2_lstm1_unit_2_1_split_1
I1017 12:02:04.276132 26397 net.cpp:406] lstm1_h_concat <- h_3_lstm1_unit_3_1_split_1
I1017 12:02:04.276142 26397 net.cpp:406] lstm1_h_concat <- h_4
I1017 12:02:04.276155 26397 net.cpp:380] lstm1_h_concat -> h
I1017 12:02:04.276207 26397 net.cpp:122] Setting up lstm1_h_concat
I1017 12:02:04.276224 26397 net.cpp:129] Top shape: 4 150 512 (307200)
I1017 12:02:04.276232 26397 net.cpp:137] Memory required for data: 27372000
I1017 12:02:04.276240 26397 layer_factory.hpp:77] Creating layer h_pseudoloss
I1017 12:02:04.276254 26397 net.cpp:84] Creating Layer h_pseudoloss
I1017 12:02:04.276265 26397 net.cpp:406] h_pseudoloss <- h
I1017 12:02:04.276283 26397 net.cpp:380] h_pseudoloss -> h_pseudoloss
I1017 12:02:04.277678 26397 net.cpp:122] Setting up h_pseudoloss
…
I1017 12:02:04.277897 26397 net.cpp:200] lstm1_ does not need backward computation.
I1017 12:02:04.277901 26397 net.cpp:242] This network produces output c_T
I1017 12:02:04.277906 26397 net.cpp:242] This network produces output h_pseudoloss
I1017 12:02:04.281376 26397 net.cpp:255] Network initialization done.
I1017 12:02:04.281476 26397 recurrent_layer.cpp:150] Adding parameter 0: W_xc
I1017 12:02:04.281486 26397 recurrent_layer.cpp:150] Adding parameter 1: b_c
I1017 12:02:04.281491 26397 recurrent_layer.cpp:150] Adding parameter 2: W_hc
I1017 12:02:04.282742 26397 net.cpp:122] Setting up lstm1
I1017 12:02:04.282760 26397 net.cpp:129] Top shape: 4 150 512 (307200)
I1017 12:02:04.282766 26397 net.cpp:137] Memory required for data: 28697121000
I1017 12:02:04.282785 26397 layer_factory.hpp:77] Creating layer lstm1-drop
I1017 12:02:04.282796 26397 net.cpp:84] Creating Layer lstm1-drop
I1017 12:02:04.282802 26397 net.cpp:406] lstm1-drop <- lstm1
I1017 12:02:04.282810 26397 net.cpp:380] lstm1-drop -> lstm1-drop
I1017 12:02:04.282858 26397 net.cpp:122] Setting up lstm1-drop
I1017 12:02:04.282869 26397 net.cpp:129] Top shape: 4 150 512 (307200)
I1017 12:02:04.282874 26397 net.cpp:137] Memory required for data: 28698349800
I1017 12:02:04.282878 26397 layer_factory.hpp:77] Creating layer fc-final
I1017 12:02:04.282888 26397 net.cpp:84] Creating Layer fc-final
I1017 12:02:04.282893 26397 net.cpp:406] fc-final <- lstm1-drop
I1017 12:02:04.282902 26397 net.cpp:380] fc-final -> fc-final
I1017 12:02:04.283249 26397 net.cpp:122] Setting up fc-final
I1017 12:02:04.283262 26397 net.cpp:129] Top shape: 4 150 10 (6000)
I1017 12:02:04.283267 26397 net.cpp:137] Memory required for data: 28698373800
I1017 12:02:04.283274 26397 layer_factory.hpp:77] Creating layer fc-final_fc-final_0_split
I1017 12:02:04.283282 26397 net.cpp:84] Creating Layer fc-final_fc-final_0_split
I1017 12:02:04.283287 26397 net.cpp:406] fc-final_fc-final_0_split <- fc-final
I1017 12:02:04.283293 26397 net.cpp:380] fc-final_fc-final_0_split -> fc-final_fc-final_0_split_0
I1017 12:02:04.283303 26397 net.cpp:380] fc-final_fc-final_0_split -> fc-final_fc-final_0_split_1
I1017 12:02:04.283344 26397 net.cpp:122] Setting up fc-final_fc-final_0_split
I1017 12:02:04.283350 26397 net.cpp:129] Top shape: 4 150 10 (6000)
I1017 12:02:04.283356 26397 net.cpp:129] Top shape: 4 150 10 (6000)
I1017 12:02:04.283360 26397 net.cpp:137] Memory required for data: 28698421800
I1017 12:02:04.283365 26397 layer_factory.hpp:77] Creating layer loss
I1017 12:02:04.283375 26397 net.cpp:84] Creating Layer loss
I1017 12:02:04.283380 26397 net.cpp:406] loss <- fc-final_fc-final_0_split_0
I1017 12:02:04.283385 26397 net.cpp:406] loss <- reshape-label_label_tran_0_split_0
I1017 12:02:04.283392 26397 net.cpp:380] loss -> loss
…
