…
I1017 12:04:05.128916 26687 net.cpp:294] The NetState phase (0) differed from the phase (1) specified by a rule in layer Silence
I1017 12:04:05.129146 26687 net.cpp:51] Initializing net from parameters: 
name: "VGG_16_layers_LSTM"
state {
  phase: TRAIN
  level: 0
  stage: ""
}
layer {
  name: "data"
  type: "ImageData"
  top: "data"
  top: "label"
  include {
    phase: TRAIN
  }
  transform_param {
    mirror: true
    crop_size: 288
    mean_value: 104
    mean_value: 117
    mean_value: 123
  }
  image_data_param {
    source: "../Data/lsun_train_list_12w.txt"
    batch_size: 4
    shuffle: true
    new_height: 320
    new_width: 320
  }
}
layer {
  name: "label_tran"
  type: "Python"
  bottom: "label"
  top: "reshape-label"
  top: "clip_markers"
  python_param {
    module: "data_preparation_sort_max_clip"
    layer: "ReshapeLabel"
  }
}
layer {
  name: "conv1_1"
  type: "Convolution"
  bottom: "data"
  top: "conv1_1"
  convolution_param {
    num_output: 64
    pad: 1
    kernel_size: 3
  }
}
layer {
  name: "relu1_1"
  type: "ReLU"
  bottom: "conv1_1"
  top: "conv1_1"
}
layer {
  name: "conv1_2"
  type: "Convolution"
  bottom: "conv1_1"
  top: "conv1_2"
  convolution_param {
    num_output: 64
    pad: 1
    kernel_size: 3
  }
}
layer {
  name: "relu1_2"
  type: "ReLU"
  bottom: "conv1_2"
  top: "conv1_2"
}
layer {
  name: "pool1"
  type: "Pooling"
  bottom: "conv1_2"
  top: "pool1"
  pooling_param {
    pool: MAX
    kernel_size: 2
    stride: 2
  }
}
layer {
  name: "conv2_1"
  type: "Convolution"
  bottom: "pool1"
  top: "conv2_1"
  convolution_param {
    num_output: 128
    pad: 1
    kernel_size: 3
  }
}
layer {
  name: "relu2_1"
  type: "ReLU"
  bottom: "conv2_1"
  top: "conv2_1"
}
layer {
  name: "conv2_2"
  type: "Convolution"
  bottom: "conv2_1"
  top: "conv2_2"
  convolution_param {
    num_output: 128
    pad: 1
    kernel_size: 3
  }
}
layer {
  name: "relu2_2"
  type: "ReLU"
  bottom: "conv2_2"
  top: "conv2_2"
}
layer {
  name: "pool2"
  type: "Pooling"
  bottom: "conv2_2"
  top: "pool2"
  pooling_param {
    pool: MAX
    kernel_size: 2
    stride: 2
  }
}
layer {
  name: "conv3_1"
  type: "Convolution"
  bottom: "pool2"
  top: "conv3_1"
  convolution_param {
    num_output: 256
    pad: 1
    kernel_size: 3
  }
}
layer {
  name: "relu3_1"
  type: "ReLU"
  bottom: "conv3_1"
  top: "conv3_1"
}
layer {
  name: "conv3_2"
  type: "Convolution"
  bottom: "conv3_1"
  top: "conv3_2"
  convolution_param {
    num_output: 256
    pad: 1
    kernel_size: 3
  }
}
layer {
  name: "relu3_2"
  type: "ReLU"
  bottom: "conv3_2"
  top: "conv3_2"
}
layer {
  name: "conv3_3"
  type: "Convolution"
  bottom: "conv3_2"
  top: "conv3_3"
  convolution_param {
    num_output: 256
    pad: 1
    kernel_size: 3
  }
}
layer {
  name: "relu3_3"
  type: "ReLU"
  bottom: "conv3_3"
  top: "conv3_3"
}
layer {
  name: "pool3"
  type: "Pooling"
  bottom: "conv3_3"
  top: "pool3"
  pooling_param {
    pool: MAX
    kernel_size: 2
    stride: 2
  }
}
layer {
  name: "conv4_1"
  type: "Convolution"
  bottom: "pool3"
  top: "conv4_1"
  convolution_param {
    num_output: 512
    pad: 1
    kernel_size: 3
  }
}
layer {
  name: "relu4_1"
  type: "ReLU"
  bottom: "conv4_1"
  top: "conv4_1"
}
layer {
  name: "conv4_2"
  type: "Convolution"
  bottom: "conv4_1"
  top: "conv4_2"
  convolution_param {
    num_output: 512
    pad: 1
    kernel_size: 3
  }
}
layer {
  name: "relu4_2"
  type: "ReLU"
  bottom: "conv4_2"
  top: "conv4_2"
}
layer {
  name: "conv4_3"
  type: "Convolution"
  bottom: "conv4_2"
  top: "conv4_3"
  convolution_param {
    num_output: 512
    pad: 1
    kernel_size: 3
  }
}
layer {
  name: "relu4_3"
  type: "ReLU"
  bottom: "conv4_3"
  top: "conv4_3"
}
layer {
  name: "pool4"
  type: "Pooling"
  bottom: "conv4_3"
  top: "pool4"
  pooling_param {
    pool: MAX
    kernel_size: 2
    stride: 2
  }
}
layer {
  name: "conv5_1"
  type: "Convolution"
  bottom: "pool4"
  top: "conv5_1"
  convolution_param {
    num_output: 512
    pad: 1
    kernel_size: 3
  }
}
layer {
  name: "relu5_1"
  type: "ReLU"
  bottom: "conv5_1"
  top: "conv5_1"
}
layer {
  name: "conv5_2"
  type: "Convolution"
  bottom: "conv5_1"
  top: "conv5_2"
  convolution_param {
    num_output: 512
    pad: 1
    kernel_size: 3
  }
}
layer {
  name: "relu5_2"
  type: "ReLU"
  bottom: "conv5_2"
  top: "conv5_2"
}
layer {
  name: "conv5_3"
  type: "Convolution"
  bottom: "conv5_2"
  top: "conv5_3"
  convolution_param {
    num_output: 512
    pad: 1
    kernel_size: 3
  }
}
layer {
  name: "relu5_3"
  type: "ReLU"
  bottom: "conv5_3"
  top: "conv5_3"
}
layer {
  name: "pool5"
  type: "Pooling"
  bottom: "conv5_3"
  top: "pool5"
  pooling_param {
    pool: MAX
    kernel_size: 2
    stride: 2
  }
}
layer {
  name: "fc6-conv"
  type: "Convolution"
  bottom: "pool5"
  top: "fc6-conv"
  convolution_param {
    num_output: 4096
    kernel_size: 7
  }
}
layer {
  name: "relu6"
  type: "ReLU"
  bottom: "fc6-conv"
  top: "fc6-conv"
}
layer {
  name: "drop6"
  type: "Dropout"
  bottom: "fc6-conv"
  top: "fc6-conv"
  dropout_param {
    dropout_ratio: 0.5
  }
}
layer {
  name: "fc7-conv"
  type: "Convolution"
  bottom: "fc6-conv"
  top: "fc7-conv"
  convolution_param {
    num_output: 4096
    kernel_size: 1
  }
}
layer {
  name: "relu7"
  type: "ReLU"
  bottom: "fc7-conv"
  top: "fc7-conv"
}
layer {
  name: "drop7"
  type: "Dropout"
  bottom: "fc7-conv"
  top: "fc7-conv"
  dropout_param {
    dropout_ratio: 0.9
  }
}
layer {
  name: "fc7-conv_re"
  type: "Reshape"
  bottom: "fc7-conv"
  top: "fc7-conv_re"
  reshape_param {
    shape {
      dim: 0
      dim: 0
      dim: -1
    }
  }
}
layer {
  name: "fc7-conv_tran"
  type: "Python"
  bottom: "fc7-conv_re"
  top: "fc7-conv_tran"
  python_param {
    module: "data_preparation_sort_max_clip"
    layer: "DataTransposeSortMaxClip"
  }
}
layer {
  name: "lstm1"
  type: "LSTM"
  bottom: "fc7-conv_tran"
  bottom: "clip_markers"
  top: "lstm1"
  recurrent_param {
    num_output: 512
    weight_filler {
      type: "uniform"
      min: -0.01
      max: 0.01
    }
    bias_filler {
      type: "constant"
      value: 0
    }
  }
}
layer {
  name: "lstm1-drop"
  type: "Dropout"
  bottom: "lstm1"
  top: "lstm1-drop"
  dropout_param {
    dropout_ratio: 0.5
  }
}
layer {
  name: "fc-final"
  type: "InnerProduct"
  bottom: "lstm1-drop"
  top: "fc-final"
  param {
    lr_mult: 1
    decay_mult: 1
  }
  param {
    lr_mult: 2
    decay_mult: 0
  }
  inner_product_param {
    num_output: 10
    weight_filler {
      type: "gaussian"
      std: 0.01
    }
    bias_filler {
      type: "constant"
      value: 0
    }
    axis: 2
  }
}
layer {
  name: "loss"
  type: "SoftmaxWithLoss"
  bottom: "fc-final"
  bottom: "reshape-label"
  top: "loss"
  softmax_param {
    axis: 2
  }
}
layer {
  name: "accuracy"
  type: "Accuracy"
  bottom: "fc-final"
  bottom: "reshape-label"
  top: "accuracy"
  accuracy_param {
    axis: 2
  }
}
I1017 12:04:05.129398 26687 layer_factory.hpp:77] Creating layer data
I1017 12:04:05.129451 26687 net.cpp:84] Creating Layer data
I1017 12:04:05.129468 26687 net.cpp:380] data -> data
I1017 12:04:05.129511 26687 net.cpp:380] data -> label
I1017 12:04:05.129546 26687 image_data_layer.cpp:38] Opening file ../Data/lsun_train_list_12w.txt
I1017 12:04:05.734236 26687 image_data_layer.cpp:53] Shuffling data
I1017 12:04:06.020313 26687 image_data_layer.cpp:63] A total of 1200000 images.
I1017 12:04:06.033203 26687 image_data_layer.cpp:90] output data size: 4,3,288,288
I1017 12:04:06.049541 26687 net.cpp:122] Setting up data
I1017 12:04:06.049588 26687 net.cpp:129] Top shape: 4 3 288 288 (995328)
I1017 12:04:06.049599 26687 net.cpp:129] Top shape: 4 (4)
I1017 12:04:06.049605 26687 net.cpp:137] Memory required for data: 3981328
I1017 12:04:06.049631 26687 layer_factory.hpp:77] Creating layer label_tran
I1017 12:04:06.745108 26687 net.cpp:84] Creating Layer label_tran
I1017 12:04:06.745154 26687 net.cpp:406] label_tran <- label
I1017 12:04:06.745180 26687 net.cpp:380] label_tran -> reshape-label
I1017 12:04:06.745193 26687 net.cpp:380] label_tran -> clip_markers
I1017 12:04:06.745506 26687 net.cpp:122] Setting up label_tran
I1017 12:04:06.745533 26687 net.cpp:129] Top shape: 4 4 (16)
I1017 12:04:06.745549 26687 net.cpp:129] Top shape: 4 4 (16)
I1017 12:04:06.745554 26687 net.cpp:137] Memory required for data: 3981456
I1017 12:04:06.745560 26687 layer_factory.hpp:77] Creating layer reshape-label_label_tran_0_split
I1017 12:04:06.745584 26687 net.cpp:84] Creating Layer reshape-label_label_tran_0_split
I1017 12:04:06.745590 26687 net.cpp:406] reshape-label_label_tran_0_split <- reshape-label
I1017 12:04:06.745609 26687 net.cpp:380] reshape-label_label_tran_0_split -> reshape-label_label_tran_0_split_0
I1017 12:04:06.745617 26687 net.cpp:380] reshape-label_label_tran_0_split -> reshape-label_label_tran_0_split_1
I1017 12:04:06.745656 26687 net.cpp:122] Setting up reshape-label_label_tran_0_split
I1017 12:04:06.745664 26687 net.cpp:129] Top shape: 4 4 (16)
I1017 12:04:06.745669 26687 net.cpp:129] Top shape: 4 4 (16)
I1017 12:04:06.745674 26687 net.cpp:137] Memory required for data: 3981584
I1017 12:04:06.745678 26687 layer_factory.hpp:77] Creating layer conv1_1
I1017 12:04:06.745705 26687 net.cpp:84] Creating Layer conv1_1
I1017 12:04:06.745712 26687 net.cpp:406] conv1_1 <- data
I1017 12:04:06.745719 26687 net.cpp:380] conv1_1 -> conv1_1
I1017 12:04:06.747648 26687 net.cpp:122] Setting up conv1_1
I1017 12:04:06.747663 26687 net.cpp:129] Top shape: 4 64 288 288 (21233664)
I1017 12:04:06.747679 26687 net.cpp:137] Memory required for data: 88916240
I1017 12:04:06.747705 26687 layer_factory.hpp:77] Creating layer relu1_1
I1017 12:04:06.747716 26687 net.cpp:84] Creating Layer relu1_1
I1017 12:04:06.747733 26687 net.cpp:406] relu1_1 <- conv1_1
I1017 12:04:06.747740 26687 net.cpp:367] relu1_1 -> conv1_1 (in-place)
I1017 12:04:06.747753 26687 net.cpp:122] Setting up relu1_1
I1017 12:04:06.747759 26687 net.cpp:129] Top shape: 4 64 288 288 (21233664)
I1017 12:04:06.747763 26687 net.cpp:137] Memory required for data: 173850896
I1017 12:04:06.747767 26687 layer_factory.hpp:77] Creating layer conv1_2
I1017 12:04:06.747783 26687 net.cpp:84] Creating Layer conv1_2
I1017 12:04:06.747790 26687 net.cpp:406] conv1_2 <- conv1_1
I1017 12:04:06.747797 26687 net.cpp:380] conv1_2 -> conv1_2
I1017 12:04:06.748886 26687 net.cpp:122] Setting up conv1_2
I1017 12:04:06.748903 26687 net.cpp:129] Top shape: 4 64 288 288 (21233664)
I1017 12:04:06.748919 26687 net.cpp:137] Memory required for data: 258785552
I1017 12:04:06.748936 26687 layer_factory.hpp:77] Creating layer relu1_2
I1017 12:04:06.748950 26687 net.cpp:84] Creating Layer relu1_2
I1017 12:04:06.748967 26687 net.cpp:406] relu1_2 <- conv1_2
I1017 12:04:06.748973 26687 net.cpp:367] relu1_2 -> conv1_2 (in-place)
I1017 12:04:06.748982 26687 net.cpp:122] Setting up relu1_2
I1017 12:04:06.748987 26687 net.cpp:129] Top shape: 4 64 288 288 (21233664)
I1017 12:04:06.748991 26687 net.cpp:137] Memory required for data: 343720208
I1017 12:04:06.748996 26687 layer_factory.hpp:77] Creating layer pool1
I1017 12:04:06.749011 26687 net.cpp:84] Creating Layer pool1
I1017 12:04:06.749017 26687 net.cpp:406] pool1 <- conv1_2
I1017 12:04:06.749023 26687 net.cpp:380] pool1 -> pool1
I1017 12:04:06.749074 26687 net.cpp:122] Setting up pool1
I1017 12:04:06.749084 26687 net.cpp:129] Top shape: 4 64 144 144 (5308416)
I1017 12:04:06.749090 26687 net.cpp:137] Memory required for data: 364953872
I1017 12:04:06.749095 26687 layer_factory.hpp:77] Creating layer conv2_1
I1017 12:04:06.749104 26687 net.cpp:84] Creating Layer conv2_1
I1017 12:04:06.749109 26687 net.cpp:406] conv2_1 <- pool1
I1017 12:04:06.749115 26687 net.cpp:380] conv2_1 -> conv2_1
I1017 12:04:06.749372 26687 net.cpp:122] Setting up conv2_1
I1017 12:04:06.749383 26687 net.cpp:129] Top shape: 4 128 144 144 (10616832)
I1017 12:04:06.749387 26687 net.cpp:137] Memory required for data: 407421200
I1017 12:04:06.749404 26687 layer_factory.hpp:77] Creating layer relu2_1
I1017 12:04:06.749416 26687 net.cpp:84] Creating Layer relu2_1
I1017 12:04:06.749423 26687 net.cpp:406] relu2_1 <- conv2_1
I1017 12:04:06.749428 26687 net.cpp:367] relu2_1 -> conv2_1 (in-place)
I1017 12:04:06.749438 26687 net.cpp:122] Setting up relu2_1
I1017 12:04:06.749444 26687 net.cpp:129] Top shape: 4 128 144 144 (10616832)
I1017 12:04:06.749447 26687 net.cpp:137] Memory required for data: 449888528
I1017 12:04:06.749451 26687 layer_factory.hpp:77] Creating layer conv2_2
I1017 12:04:06.749457 26687 net.cpp:84] Creating Layer conv2_2
I1017 12:04:06.749464 26687 net.cpp:406] conv2_2 <- conv2_1
I1017 12:04:06.749469 26687 net.cpp:380] conv2_2 -> conv2_2
I1017 12:04:06.750496 26687 net.cpp:122] Setting up conv2_2
I1017 12:04:06.750511 26687 net.cpp:129] Top shape: 4 128 144 144 (10616832)
I1017 12:04:06.750527 26687 net.cpp:137] Memory required for data: 492355856
I1017 12:04:06.750535 26687 layer_factory.hpp:77] Creating layer relu2_2
I1017 12:04:06.750541 26687 net.cpp:84] Creating Layer relu2_2
I1017 12:04:06.750547 26687 net.cpp:406] relu2_2 <- conv2_2
I1017 12:04:06.750556 26687 net.cpp:367] relu2_2 -> conv2_2 (in-place)
I1017 12:04:06.750576 26687 net.cpp:122] Setting up relu2_2
I1017 12:04:06.750581 26687 net.cpp:129] Top shape: 4 128 144 144 (10616832)
I1017 12:04:06.750586 26687 net.cpp:137] Memory required for data: 534823184
I1017 12:04:06.750589 26687 layer_factory.hpp:77] Creating layer pool2
I1017 12:04:06.750602 26687 net.cpp:84] Creating Layer pool2
I1017 12:04:06.750609 26687 net.cpp:406] pool2 <- conv2_2
I1017 12:04:06.750615 26687 net.cpp:380] pool2 -> pool2
I1017 12:04:06.750650 26687 net.cpp:122] Setting up pool2
I1017 12:04:06.750658 26687 net.cpp:129] Top shape: 4 128 72 72 (2654208)
I1017 12:04:06.750663 26687 net.cpp:137] Memory required for data: 545440016
I1017 12:04:06.750668 26687 layer_factory.hpp:77] Creating layer conv3_1
I1017 12:04:06.750676 26687 net.cpp:84] Creating Layer conv3_1
I1017 12:04:06.750681 26687 net.cpp:406] conv3_1 <- pool2
I1017 12:04:06.750687 26687 net.cpp:380] conv3_1 -> conv3_1
I1017 12:04:06.752576 26687 net.cpp:122] Setting up conv3_1
I1017 12:04:06.752591 26687 net.cpp:129] Top shape: 4 256 72 72 (5308416)
I1017 12:04:06.752596 26687 net.cpp:137] Memory required for data: 566673680
I1017 12:04:06.752611 26687 layer_factory.hpp:77] Creating layer relu3_1
I1017 12:04:06.752627 26687 net.cpp:84] Creating Layer relu3_1
I1017 12:04:06.752635 26687 net.cpp:406] relu3_1 <- conv3_1
I1017 12:04:06.752653 26687 net.cpp:367] relu3_1 -> conv3_1 (in-place)
I1017 12:04:06.752662 26687 net.cpp:122] Setting up relu3_1
I1017 12:04:06.752667 26687 net.cpp:129] Top shape: 4 256 72 72 (5308416)
I1017 12:04:06.752671 26687 net.cpp:137] Memory required for data: 587907344
I1017 12:04:06.752676 26687 layer_factory.hpp:77] Creating layer conv3_2
I1017 12:04:06.752683 26687 net.cpp:84] Creating Layer conv3_2
I1017 12:04:06.752687 26687 net.cpp:406] conv3_2 <- conv3_1
I1017 12:04:06.752693 26687 net.cpp:380] conv3_2 -> conv3_2
I1017 12:04:06.754506 26687 net.cpp:122] Setting up conv3_2
I1017 12:04:06.754521 26687 net.cpp:129] Top shape: 4 256 72 72 (5308416)
I1017 12:04:06.754536 26687 net.cpp:137] Memory required for data: 609141008
I1017 12:04:06.754544 26687 layer_factory.hpp:77] Creating layer relu3_2
I1017 12:04:06.754559 26687 net.cpp:84] Creating Layer relu3_2
I1017 12:04:06.754565 26687 net.cpp:406] relu3_2 <- conv3_2
I1017 12:04:06.754573 26687 net.cpp:367] relu3_2 -> conv3_2 (in-place)
I1017 12:04:06.754583 26687 net.cpp:122] Setting up relu3_2
I1017 12:04:06.754601 26687 net.cpp:129] Top shape: 4 256 72 72 (5308416)
I1017 12:04:06.754604 26687 net.cpp:137] Memory required for data: 630374672
I1017 12:04:06.754608 26687 layer_factory.hpp:77] Creating layer conv3_3
I1017 12:04:06.754614 26687 net.cpp:84] Creating Layer conv3_3
I1017 12:04:06.754619 26687 net.cpp:406] conv3_3 <- conv3_2
I1017 12:04:06.754624 26687 net.cpp:380] conv3_3 -> conv3_3
I1017 12:04:06.756395 26687 net.cpp:122] Setting up conv3_3
I1017 12:04:06.756410 26687 net.cpp:129] Top shape: 4 256 72 72 (5308416)
I1017 12:04:06.756427 26687 net.cpp:137] Memory required for data: 651608336
I1017 12:04:06.756433 26687 layer_factory.hpp:77] Creating layer relu3_3
I1017 12:04:06.756440 26687 net.cpp:84] Creating Layer relu3_3
I1017 12:04:06.756445 26687 net.cpp:406] relu3_3 <- conv3_3
I1017 12:04:06.756451 26687 net.cpp:367] relu3_3 -> conv3_3 (in-place)
I1017 12:04:06.756459 26687 net.cpp:122] Setting up relu3_3
I1017 12:04:06.756466 26687 net.cpp:129] Top shape: 4 256 72 72 (5308416)
I1017 12:04:06.756482 26687 net.cpp:137] Memory required for data: 672842000
I1017 12:04:06.756494 26687 layer_factory.hpp:77] Creating layer pool3
I1017 12:04:06.756508 26687 net.cpp:84] Creating Layer pool3
I1017 12:04:06.756513 26687 net.cpp:406] pool3 <- conv3_3
I1017 12:04:06.756520 26687 net.cpp:380] pool3 -> pool3
I1017 12:04:06.756564 26687 net.cpp:122] Setting up pool3
I1017 12:04:06.756573 26687 net.cpp:129] Top shape: 4 256 36 36 (1327104)
I1017 12:04:06.756577 26687 net.cpp:137] Memory required for data: 678150416
I1017 12:04:06.756582 26687 layer_factory.hpp:77] Creating layer conv4_1
I1017 12:04:06.756592 26687 net.cpp:84] Creating Layer conv4_1
I1017 12:04:06.756598 26687 net.cpp:406] conv4_1 <- pool3
I1017 12:04:06.756604 26687 net.cpp:380] conv4_1 -> conv4_1
I1017 12:04:06.760534 26687 net.cpp:122] Setting up conv4_1
I1017 12:04:06.760551 26687 net.cpp:129] Top shape: 4 512 36 36 (2654208)
I1017 12:04:06.760555 26687 net.cpp:137] Memory required for data: 688767248
I1017 12:04:06.760563 26687 layer_factory.hpp:77] Creating layer relu4_1
I1017 12:04:06.760572 26687 net.cpp:84] Creating Layer relu4_1
I1017 12:04:06.760577 26687 net.cpp:406] relu4_1 <- conv4_1
I1017 12:04:06.760583 26687 net.cpp:367] relu4_1 -> conv4_1 (in-place)
I1017 12:04:06.760591 26687 net.cpp:122] Setting up relu4_1
I1017 12:04:06.760601 26687 net.cpp:129] Top shape: 4 512 36 36 (2654208)
I1017 12:04:06.760606 26687 net.cpp:137] Memory required for data: 699384080
I1017 12:04:06.760609 26687 layer_factory.hpp:77] Creating layer conv4_2
I1017 12:04:06.760618 26687 net.cpp:84] Creating Layer conv4_2
I1017 12:04:06.760622 26687 net.cpp:406] conv4_2 <- conv4_1
I1017 12:04:06.760628 26687 net.cpp:380] conv4_2 -> conv4_2
I1017 12:04:06.766957 26687 net.cpp:122] Setting up conv4_2
I1017 12:04:06.767005 26687 net.cpp:129] Top shape: 4 512 36 36 (2654208)
I1017 12:04:06.767011 26687 net.cpp:137] Memory required for data: 710000912
I1017 12:04:06.767042 26687 layer_factory.hpp:77] Creating layer relu4_2
I1017 12:04:06.767065 26687 net.cpp:84] Creating Layer relu4_2
I1017 12:04:06.767073 26687 net.cpp:406] relu4_2 <- conv4_2
I1017 12:04:06.767082 26687 net.cpp:367] relu4_2 -> conv4_2 (in-place)
I1017 12:04:06.767093 26687 net.cpp:122] Setting up relu4_2
I1017 12:04:06.767099 26687 net.cpp:129] Top shape: 4 512 36 36 (2654208)
I1017 12:04:06.767103 26687 net.cpp:137] Memory required for data: 720617744
I1017 12:04:06.767107 26687 layer_factory.hpp:77] Creating layer conv4_3
I1017 12:04:06.767118 26687 net.cpp:84] Creating Layer conv4_3
I1017 12:04:06.767127 26687 net.cpp:406] conv4_3 <- conv4_2
I1017 12:04:06.767133 26687 net.cpp:380] conv4_3 -> conv4_3
I1017 12:04:06.784833 26687 net.cpp:122] Setting up conv4_3
I1017 12:04:06.785068 26687 net.cpp:129] Top shape: 4 512 36 36 (2654208)
I1017 12:04:06.785092 26687 net.cpp:137] Memory required for data: 731234576
I1017 12:04:06.785136 26687 layer_factory.hpp:77] Creating layer relu4_3
I1017 12:04:06.785192 26687 net.cpp:84] Creating Layer relu4_3
I1017 12:04:06.785214 26687 net.cpp:406] relu4_3 <- conv4_3
I1017 12:04:06.785254 26687 net.cpp:367] relu4_3 -> conv4_3 (in-place)
I1017 12:04:06.785310 26687 net.cpp:122] Setting up relu4_3
I1017 12:04:06.785331 26687 net.cpp:129] Top shape: 4 512 36 36 (2654208)
I1017 12:04:06.785342 26687 net.cpp:137] Memory required for data: 741851408
I1017 12:04:06.785349 26687 layer_factory.hpp:77] Creating layer pool4
I1017 12:04:06.785419 26687 net.cpp:84] Creating Layer pool4
I1017 12:04:06.785441 26687 net.cpp:406] pool4 <- conv4_3
I1017 12:04:06.785485 26687 net.cpp:380] pool4 -> pool4
I1017 12:04:06.785604 26687 net.cpp:122] Setting up pool4
I1017 12:04:06.785612 26687 net.cpp:129] Top shape: 4 512 18 18 (663552)
I1017 12:04:06.785616 26687 net.cpp:137] Memory required for data: 744505616
I1017 12:04:06.785621 26687 layer_factory.hpp:77] Creating layer conv5_1
I1017 12:04:06.785656 26687 net.cpp:84] Creating Layer conv5_1
I1017 12:04:06.785665 26687 net.cpp:406] conv5_1 <- pool4
I1017 12:04:06.785672 26687 net.cpp:380] conv5_1 -> conv5_1
I1017 12:04:06.796847 26687 net.cpp:122] Setting up conv5_1
I1017 12:04:06.796881 26687 net.cpp:129] Top shape: 4 512 18 18 (663552)
I1017 12:04:06.796886 26687 net.cpp:137] Memory required for data: 747159824
I1017 12:04:06.796898 26687 layer_factory.hpp:77] Creating layer relu5_1
I1017 12:04:06.796911 26687 net.cpp:84] Creating Layer relu5_1
I1017 12:04:06.796916 26687 net.cpp:406] relu5_1 <- conv5_1
I1017 12:04:06.796927 26687 net.cpp:367] relu5_1 -> conv5_1 (in-place)
I1017 12:04:06.796941 26687 net.cpp:122] Setting up relu5_1
I1017 12:04:06.796948 26687 net.cpp:129] Top shape: 4 512 18 18 (663552)
I1017 12:04:06.796952 26687 net.cpp:137] Memory required for data: 749814032
I1017 12:04:06.796957 26687 layer_factory.hpp:77] Creating layer conv5_2
I1017 12:04:06.796965 26687 net.cpp:84] Creating Layer conv5_2
I1017 12:04:06.796970 26687 net.cpp:406] conv5_2 <- conv5_1
I1017 12:04:06.796978 26687 net.cpp:380] conv5_2 -> conv5_2
I1017 12:04:06.803025 26687 net.cpp:122] Setting up conv5_2
I1017 12:04:06.803061 26687 net.cpp:129] Top shape: 4 512 18 18 (663552)
I1017 12:04:06.803066 26687 net.cpp:137] Memory required for data: 752468240
I1017 12:04:06.803073 26687 layer_factory.hpp:77] Creating layer relu5_2
I1017 12:04:06.803088 26687 net.cpp:84] Creating Layer relu5_2
I1017 12:04:06.803094 26687 net.cpp:406] relu5_2 <- conv5_2
I1017 12:04:06.803103 26687 net.cpp:367] relu5_2 -> conv5_2 (in-place)
I1017 12:04:06.803113 26687 net.cpp:122] Setting up relu5_2
I1017 12:04:06.803119 26687 net.cpp:129] Top shape: 4 512 18 18 (663552)
I1017 12:04:06.803123 26687 net.cpp:137] Memory required for data: 755122448
I1017 12:04:06.803128 26687 layer_factory.hpp:77] Creating layer conv5_3
I1017 12:04:06.803138 26687 net.cpp:84] Creating Layer conv5_3
I1017 12:04:06.803143 26687 net.cpp:406] conv5_3 <- conv5_2
I1017 12:04:06.803148 26687 net.cpp:380] conv5_3 -> conv5_3
I1017 12:04:06.808883 26687 net.cpp:122] Setting up conv5_3
I1017 12:04:06.808902 26687 net.cpp:129] Top shape: 4 512 18 18 (663552)
I1017 12:04:06.808907 26687 net.cpp:137] Memory required for data: 757776656
I1017 12:04:06.808923 26687 layer_factory.hpp:77] Creating layer relu5_3
I1017 12:04:06.808939 26687 net.cpp:84] Creating Layer relu5_3
I1017 12:04:06.808945 26687 net.cpp:406] relu5_3 <- conv5_3
I1017 12:04:06.808953 26687 net.cpp:367] relu5_3 -> conv5_3 (in-place)
I1017 12:04:06.808961 26687 net.cpp:122] Setting up relu5_3
I1017 12:04:06.808967 26687 net.cpp:129] Top shape: 4 512 18 18 (663552)
I1017 12:04:06.808971 26687 net.cpp:137] Memory required for data: 760430864
I1017 12:04:06.808975 26687 layer_factory.hpp:77] Creating layer pool5
I1017 12:04:06.808984 26687 net.cpp:84] Creating Layer pool5
I1017 12:04:06.808989 26687 net.cpp:406] pool5 <- conv5_3
I1017 12:04:06.808995 26687 net.cpp:380] pool5 -> pool5
I1017 12:04:06.809041 26687 net.cpp:122] Setting up pool5
I1017 12:04:06.809051 26687 net.cpp:129] Top shape: 4 512 9 9 (165888)
I1017 12:04:06.809054 26687 net.cpp:137] Memory required for data: 761094416
I1017 12:04:06.809058 26687 layer_factory.hpp:77] Creating layer fc6-conv
I1017 12:04:06.809073 26687 net.cpp:84] Creating Layer fc6-conv
I1017 12:04:06.809077 26687 net.cpp:406] fc6-conv <- pool5
I1017 12:04:06.809084 26687 net.cpp:380] fc6-conv -> fc6-conv
I1017 12:04:07.171602 26687 net.cpp:122] Setting up fc6-conv
I1017 12:04:07.171655 26687 net.cpp:129] Top shape: 4 4096 3 3 (147456)
I1017 12:04:07.171666 26687 net.cpp:137] Memory required for data: 761684240
I1017 12:04:07.171689 26687 layer_factory.hpp:77] Creating layer relu6
I1017 12:04:07.171711 26687 net.cpp:84] Creating Layer relu6
I1017 12:04:07.171723 26687 net.cpp:406] relu6 <- fc6-conv
I1017 12:04:07.171741 26687 net.cpp:367] relu6 -> fc6-conv (in-place)
I1017 12:04:07.171771 26687 net.cpp:122] Setting up relu6
I1017 12:04:07.171783 26687 net.cpp:129] Top shape: 4 4096 3 3 (147456)
I1017 12:04:07.171792 26687 net.cpp:137] Memory required for data: 762274064
I1017 12:04:07.171811 26687 layer_factory.hpp:77] Creating layer drop6
I1017 12:04:07.171840 26687 net.cpp:84] Creating Layer drop6
I1017 12:04:07.171854 26687 net.cpp:406] drop6 <- fc6-conv
I1017 12:04:07.171877 26687 net.cpp:367] drop6 -> fc6-conv (in-place)
I1017 12:04:07.171964 26687 net.cpp:122] Setting up drop6
I1017 12:04:07.171983 26687 net.cpp:129] Top shape: 4 4096 3 3 (147456)
I1017 12:04:07.171993 26687 net.cpp:137] Memory required for data: 762863888
I1017 12:04:07.172006 26687 layer_factory.hpp:77] Creating layer fc7-conv
I1017 12:04:07.172024 26687 net.cpp:84] Creating Layer fc7-conv
I1017 12:04:07.172055 26687 net.cpp:406] fc7-conv <- fc6-conv
I1017 12:04:07.172073 26687 net.cpp:380] fc7-conv -> fc7-conv
I1017 12:04:07.242009 26687 net.cpp:122] Setting up fc7-conv
I1017 12:04:07.242048 26687 net.cpp:129] Top shape: 4 4096 3 3 (147456)
I1017 12:04:07.242054 26687 net.cpp:137] Memory required for data: 763453712
I1017 12:04:07.242067 26687 layer_factory.hpp:77] Creating layer relu7
I1017 12:04:07.242107 26687 net.cpp:84] Creating Layer relu7
I1017 12:04:07.242116 26687 net.cpp:406] relu7 <- fc7-conv
I1017 12:04:07.242128 26687 net.cpp:367] relu7 -> fc7-conv (in-place)
I1017 12:04:07.242143 26687 net.cpp:122] Setting up relu7
I1017 12:04:07.242157 26687 net.cpp:129] Top shape: 4 4096 3 3 (147456)
I1017 12:04:07.242162 26687 net.cpp:137] Memory required for data: 764043536
I1017 12:04:07.242166 26687 layer_factory.hpp:77] Creating layer drop7
I1017 12:04:07.242180 26687 net.cpp:84] Creating Layer drop7
I1017 12:04:07.242187 26687 net.cpp:406] drop7 <- fc7-conv
I1017 12:04:07.242194 26687 net.cpp:367] drop7 -> fc7-conv (in-place)
I1017 12:04:07.242231 26687 net.cpp:122] Setting up drop7
I1017 12:04:07.242244 26687 net.cpp:129] Top shape: 4 4096 3 3 (147456)
I1017 12:04:07.242252 26687 net.cpp:137] Memory required for data: 764633360
I1017 12:04:07.242259 26687 layer_factory.hpp:77] Creating layer fc7-conv_re
I1017 12:04:07.242286 26687 net.cpp:84] Creating Layer fc7-conv_re
I1017 12:04:07.242298 26687 net.cpp:406] fc7-conv_re <- fc7-conv
I1017 12:04:07.242311 26687 net.cpp:380] fc7-conv_re -> fc7-conv_re
I1017 12:04:07.242404 26687 net.cpp:122] Setting up fc7-conv_re
I1017 12:04:07.242420 26687 net.cpp:129] Top shape: 4 4096 9 (147456)
I1017 12:04:07.242429 26687 net.cpp:137] Memory required for data: 765223184
I1017 12:04:07.242446 26687 layer_factory.hpp:77] Creating layer fc7-conv_tran
I1017 12:04:07.242557 26687 net.cpp:84] Creating Layer fc7-conv_tran
I1017 12:04:07.242571 26687 net.cpp:406] fc7-conv_tran <- fc7-conv_re
I1017 12:04:07.242588 26687 net.cpp:380] fc7-conv_tran -> fc7-conv_tran
I1017 12:04:07.243754 26687 net.cpp:122] Setting up fc7-conv_tran
I1017 12:04:07.243774 26687 net.cpp:129] Top shape: 4 4 9 (144)
I1017 12:04:07.243783 26687 net.cpp:137] Memory required for data: 765223760
I1017 12:04:07.243793 26687 layer_factory.hpp:77] Creating layer lstm1
I1017 12:04:07.243818 26687 net.cpp:84] Creating Layer lstm1
I1017 12:04:07.243831 26687 net.cpp:406] lstm1 <- fc7-conv_tran
I1017 12:04:07.243844 26687 net.cpp:406] lstm1 <- clip_markers
I1017 12:04:07.243883 26687 net.cpp:380] lstm1 -> lstm1
I1017 12:04:07.243912 26687 recurrent_layer.cpp:20] Initializing recurrent layer: assuming input batch contains 4 timesteps of 4 independent streams.
I1017 12:04:07.244451 26687 net.cpp:51] Initializing net from parameters: 
layer {
  name: "lstm1_"
  type: "Input"
  top: "x"
  top: "cont"
  input_param {
    shape {
      dim: 4
      dim: 4
      dim: 9
    }
    shape {
      dim: 4
      dim: 4
    }
  }
}
layer {
  name: "lstm1_"
  type: "Input"
  top: "c_0"
  top: "h_0"
  input_param {
    shape {
      dim: 1
      dim: 4
      dim: 512
    }
    shape {
      dim: 1
      dim: 4
      dim: 512
    }
  }
}
layer {
  name: "lstm1_cont_slice"
  type: "Slice"
  bottom: "cont"
  top: "cont_1"
  top: "cont_2"
  top: "cont_3"
  top: "cont_4"
  slice_param {
    axis: 0
  }
}
layer {
  name: "lstm1_x_transform"
  type: "InnerProduct"
  bottom: "x"
  top: "W_xc_x"
  param {
    name: "W_xc"
  }
  param {
    name: "b_c"
  }
  propagate_down: true
  inner_product_param {
    num_output: 2048
    bias_term: true
    weight_filler {
      type: "uniform"
      min: -0.01
      max: 0.01
    }
    bias_filler {
      type: "constant"
      value: 0
    }
    axis: 2
  }
}
layer {
  name: "lstm1_W_xc_x_slice"
  type: "Slice"
  bottom: "W_xc_x"
  top: "W_xc_x_1"
  top: "W_xc_x_2"
  top: "W_xc_x_3"
  top: "W_xc_x_4"
  slice_param {
    axis: 0
  }
}
layer {
  name: "lstm1_h_conted_0"
  type: "Scale"
  bottom: "h_0"
  bottom: "cont_1"
  top: "h_conted_0"
  scale_param {
    axis: 0
  }
}
layer {
  name: "lstm1_transform_1"
  type: "InnerProduct"
  bottom: "h_conted_0"
  top: "W_hc_h_0"
  param {
    name: "W_hc"
  }
  inner_product_param {
    num_output: 2048
    bias_term: false
    weight_filler {
      type: "uniform"
      min: -0.01
      max: 0.01
    }
    axis: 2
  }
}
layer {
  name: "lstm1_gate_input_1"
  type: "Eltwise"
  bottom: "W_hc_h_0"
  bottom: "W_xc_x_1"
  top: "gate_input_1"
  eltwise_param {
    operation: SUM
  }
}
layer {
  name: "lstm1_unit_1"
  type: "LSTMUnit"
  bottom: "c_0"
  bottom: "gate_input_1"
  bottom: "cont_1"
  top: "c_1"
  top: "h_1"
}
layer {
  name: "lstm1_h_conted_1"
  type: "Scale"
  bottom: "h_1"
  bottom: "cont_2"
  top: "h_conted_1"
  scale_param {
    axis: 0
  }
}
layer {
  name: "lstm1_transform_2"
  type: "InnerProduct"
  bottom: "h_conted_1"
  top: "W_hc_h_1"
  param {
    name: "W_hc"
  }
  inner_product_param {
    num_output: 2048
    bias_term: false
    weight_filler {
      type: "uniform"
      min: -0.01
      max: 0.01
    }
    axis: 2
  }
}
layer {
  name: "lstm1_gate_input_2"
  type: "Eltwise"
  bottom: "W_hc_h_1"
  bottom: "W_xc_x_2"
  top: "gate_input_2"
  eltwise_param {
    operation: SUM
  }
}
layer {
  name: "lstm1_unit_2"
  type: "LSTMUnit"
  bottom: "c_1"
  bottom: "gate_input_2"
  bottom: "cont_2"
  top: "c_2"
  top: "h_2"
}
layer {
  name: "lstm1_h_conted_2"
  type: "Scale"
  bottom: "h_2"
  bottom: "cont_3"
  top: "h_conted_2"
  scale_param {
    axis: 0
  }
}
layer {
  name: "lstm1_transform_3"
  type: "InnerProduct"
  bottom: "h_conted_2"
  top: "W_hc_h_2"
  param {
    name: "W_hc"
  }
  inner_product_param {
    num_output: 2048
    bias_term: false
    weight_filler {
      type: "uniform"
      min: -0.01
      max: 0.01
    }
    axis: 2
  }
}
layer {
  name: "lstm1_gate_input_3"
  type: "Eltwise"
  bottom: "W_hc_h_2"
  bottom: "W_xc_x_3"
  top: "gate_input_3"
  eltwise_param {
    operation: SUM
  }
}
layer {
  name: "lstm1_unit_3"
  type: "LSTMUnit"
  bottom: "c_2"
  bottom: "gate_input_3"
  bottom: "cont_3"
  top: "c_3"
  top: "h_3"
}
layer {
  name: "lstm1_h_conted_3"
  type: "Scale"
  bottom: "h_3"
  bottom: "cont_4"
  top: "h_conted_3"
  scale_param {
    axis: 0
  }
}
layer {
  name: "lstm1_transform_4"
  type: "InnerProduct"
  bottom: "h_conted_3"
  top: "W_hc_h_3"
  param {
    name: "W_hc"
  }
  inner_product_param {
    num_output: 2048
    bias_term: false
    weight_filler {
      type: "uniform"
      min: -0.01
      max: 0.01
    }
    axis: 2
  }
}
layer {
  name: "lstm1_gate_input_4"
  type: "Eltwise"
  bottom: "W_hc_h_3"
  bottom: "W_xc_x_4"
  top: "gate_input_4"
  eltwise_param {
    operation: SUM
  }
}
layer {
  name: "lstm1_unit_4"
  type: "LSTMUnit"
  bottom: "c_3"
  bottom: "gate_input_4"
  bottom: "cont_4"
  top: "c_4"
  top: "h_4"
}
layer {
  name: "lstm1_"
  type: "Split"
  bottom: "c_4"
  top: "c_T"
}
layer {
  name: "lstm1_h_concat"
  type: "Concat"
  bottom: "h_1"
  bottom: "h_2"
  bottom: "h_3"
  bottom: "h_4"
  top: "h"
  concat_param {
    axis: 0
  }
}
layer {
  name: "h_pseudoloss"
  type: "Reduction"
  bottom: "h"
  top: "h_pseudoloss"
  loss_weight: 1
}
I1017 12:04:07.244720 26687 layer_factory.hpp:77] Creating layer lstm1_
I1017 12:04:07.244755 26687 net.cpp:84] Creating Layer lstm1_
I1017 12:04:07.244771 26687 net.cpp:380] lstm1_ -> x
I1017 12:04:07.244792 26687 net.cpp:380] lstm1_ -> cont
I1017 12:04:07.244856 26687 net.cpp:122] Setting up lstm1_
I1017 12:04:07.244871 26687 net.cpp:129] Top shape: 4 4 9 (144)
I1017 12:04:07.244882 26687 net.cpp:129] Top shape: 4 4 (16)
I1017 12:04:07.244892 26687 net.cpp:137] Memory required for data: 640
I1017 12:04:07.244902 26687 layer_factory.hpp:77] Creating layer lstm1_
I1017 12:04:07.244917 26687 net.cpp:84] Creating Layer lstm1_
I1017 12:04:07.244925 26687 net.cpp:380] lstm1_ -> c_0
I1017 12:04:07.244935 26687 net.cpp:380] lstm1_ -> h_0
I1017 12:04:07.244987 26687 net.cpp:122] Setting up lstm1_
I1017 12:04:07.244997 26687 net.cpp:129] Top shape: 1 4 512 (2048)
I1017 12:04:07.245003 26687 net.cpp:129] Top shape: 1 4 512 (2048)
I1017 12:04:07.245008 26687 net.cpp:137] Memory required for data: 17024
I1017 12:04:07.245012 26687 layer_factory.hpp:77] Creating layer lstm1_cont_slice
I1017 12:04:07.245023 26687 net.cpp:84] Creating Layer lstm1_cont_slice
I1017 12:04:07.245029 26687 net.cpp:406] lstm1_cont_slice <- cont
I1017 12:04:07.245038 26687 net.cpp:380] lstm1_cont_slice -> cont_1
I1017 12:04:07.245048 26687 net.cpp:380] lstm1_cont_slice -> cont_2
I1017 12:04:07.245055 26687 net.cpp:380] lstm1_cont_slice -> cont_3
I1017 12:04:07.245062 26687 net.cpp:380] lstm1_cont_slice -> cont_4
I1017 12:04:07.245134 26687 net.cpp:122] Setting up lstm1_cont_slice
I1017 12:04:07.245148 26687 net.cpp:129] Top shape: 1 4 (4)
I1017 12:04:07.245154 26687 net.cpp:129] Top shape: 1 4 (4)
I1017 12:04:07.245159 26687 net.cpp:129] Top shape: 1 4 (4)
I1017 12:04:07.245165 26687 net.cpp:129] Top shape: 1 4 (4)
I1017 12:04:07.245169 26687 net.cpp:137] Memory required for data: 17088
I1017 12:04:07.245175 26687 layer_factory.hpp:77] Creating layer cont_1_lstm1_cont_slice_0_split
I1017 12:04:07.245182 26687 net.cpp:84] Creating Layer cont_1_lstm1_cont_slice_0_split
I1017 12:04:07.245187 26687 net.cpp:406] cont_1_lstm1_cont_slice_0_split <- cont_1
I1017 12:04:07.245195 26687 net.cpp:380] cont_1_lstm1_cont_slice_0_split -> cont_1_lstm1_cont_slice_0_split_0
I1017 12:04:07.245204 26687 net.cpp:380] cont_1_lstm1_cont_slice_0_split -> cont_1_lstm1_cont_slice_0_split_1
I1017 12:04:07.245241 26687 net.cpp:122] Setting up cont_1_lstm1_cont_slice_0_split
I1017 12:04:07.245252 26687 net.cpp:129] Top shape: 1 4 (4)
I1017 12:04:07.245259 26687 net.cpp:129] Top shape: 1 4 (4)
I1017 12:04:07.245262 26687 net.cpp:137] Memory required for data: 17120
I1017 12:04:07.245267 26687 layer_factory.hpp:77] Creating layer cont_2_lstm1_cont_slice_1_split
I1017 12:04:07.245273 26687 net.cpp:84] Creating Layer cont_2_lstm1_cont_slice_1_split
I1017 12:04:07.245278 26687 net.cpp:406] cont_2_lstm1_cont_slice_1_split <- cont_2
I1017 12:04:07.245285 26687 net.cpp:380] cont_2_lstm1_cont_slice_1_split -> cont_2_lstm1_cont_slice_1_split_0
I1017 12:04:07.245292 26687 net.cpp:380] cont_2_lstm1_cont_slice_1_split -> cont_2_lstm1_cont_slice_1_split_1
I1017 12:04:07.245329 26687 net.cpp:122] Setting up cont_2_lstm1_cont_slice_1_split
I1017 12:04:07.245337 26687 net.cpp:129] Top shape: 1 4 (4)
I1017 12:04:07.245343 26687 net.cpp:129] Top shape: 1 4 (4)
I1017 12:04:07.245347 26687 net.cpp:137] Memory required for data: 17152
I1017 12:04:07.245352 26687 layer_factory.hpp:77] Creating layer cont_3_lstm1_cont_slice_2_split
I1017 12:04:07.245357 26687 net.cpp:84] Creating Layer cont_3_lstm1_cont_slice_2_split
I1017 12:04:07.245362 26687 net.cpp:406] cont_3_lstm1_cont_slice_2_split <- cont_3
I1017 12:04:07.245370 26687 net.cpp:380] cont_3_lstm1_cont_slice_2_split -> cont_3_lstm1_cont_slice_2_split_0
I1017 12:04:07.245378 26687 net.cpp:380] cont_3_lstm1_cont_slice_2_split -> cont_3_lstm1_cont_slice_2_split_1
I1017 12:04:07.245411 26687 net.cpp:122] Setting up cont_3_lstm1_cont_slice_2_split
I1017 12:04:07.245420 26687 net.cpp:129] Top shape: 1 4 (4)
I1017 12:04:07.245425 26687 net.cpp:129] Top shape: 1 4 (4)
I1017 12:04:07.245429 26687 net.cpp:137] Memory required for data: 17184
I1017 12:04:07.245434 26687 layer_factory.hpp:77] Creating layer cont_4_lstm1_cont_slice_3_split
I1017 12:04:07.245441 26687 net.cpp:84] Creating Layer cont_4_lstm1_cont_slice_3_split
I1017 12:04:07.245446 26687 net.cpp:406] cont_4_lstm1_cont_slice_3_split <- cont_4
I1017 12:04:07.245452 26687 net.cpp:380] cont_4_lstm1_cont_slice_3_split -> cont_4_lstm1_cont_slice_3_split_0
I1017 12:04:07.245460 26687 net.cpp:380] cont_4_lstm1_cont_slice_3_split -> cont_4_lstm1_cont_slice_3_split_1
I1017 12:04:07.245494 26687 net.cpp:122] Setting up cont_4_lstm1_cont_slice_3_split
I1017 12:04:07.245502 26687 net.cpp:129] Top shape: 1 4 (4)
I1017 12:04:07.245507 26687 net.cpp:129] Top shape: 1 4 (4)
I1017 12:04:07.245512 26687 net.cpp:137] Memory required for data: 17216
I1017 12:04:07.245517 26687 layer_factory.hpp:77] Creating layer lstm1_x_transform
I1017 12:04:07.245529 26687 net.cpp:84] Creating Layer lstm1_x_transform
I1017 12:04:07.245534 26687 net.cpp:406] lstm1_x_transform <- x
I1017 12:04:07.245543 26687 net.cpp:380] lstm1_x_transform -> W_xc_x
I1017 12:04:07.245895 26687 net.cpp:122] Setting up lstm1_x_transform
I1017 12:04:07.245908 26687 net.cpp:129] Top shape: 4 4 2048 (32768)
I1017 12:04:07.245913 26687 net.cpp:137] Memory required for data: 148288
I1017 12:04:07.245923 26687 layer_factory.hpp:77] Creating layer lstm1_W_xc_x_slice
I1017 12:04:07.245934 26687 net.cpp:84] Creating Layer lstm1_W_xc_x_slice
I1017 12:04:07.245939 26687 net.cpp:406] lstm1_W_xc_x_slice <- W_xc_x
I1017 12:04:07.245946 26687 net.cpp:380] lstm1_W_xc_x_slice -> W_xc_x_1
I1017 12:04:07.245955 26687 net.cpp:380] lstm1_W_xc_x_slice -> W_xc_x_2
I1017 12:04:07.245962 26687 net.cpp:380] lstm1_W_xc_x_slice -> W_xc_x_3
I1017 12:04:07.245970 26687 net.cpp:380] lstm1_W_xc_x_slice -> W_xc_x_4
I1017 12:04:07.246034 26687 net.cpp:122] Setting up lstm1_W_xc_x_slice
I1017 12:04:07.246044 26687 net.cpp:129] Top shape: 1 4 2048 (8192)
I1017 12:04:07.246049 26687 net.cpp:129] Top shape: 1 4 2048 (8192)
I1017 12:04:07.246055 26687 net.cpp:129] Top shape: 1 4 2048 (8192)
I1017 12:04:07.246060 26687 net.cpp:129] Top shape: 1 4 2048 (8192)
I1017 12:04:07.246065 26687 net.cpp:137] Memory required for data: 279360
I1017 12:04:07.246069 26687 layer_factory.hpp:77] Creating layer lstm1_h_conted_0
I1017 12:04:07.246083 26687 net.cpp:84] Creating Layer lstm1_h_conted_0
I1017 12:04:07.246088 26687 net.cpp:406] lstm1_h_conted_0 <- h_0
I1017 12:04:07.246094 26687 net.cpp:406] lstm1_h_conted_0 <- cont_1_lstm1_cont_slice_0_split_0
I1017 12:04:07.246101 26687 net.cpp:380] lstm1_h_conted_0 -> h_conted_0
I1017 12:04:07.246184 26687 net.cpp:122] Setting up lstm1_h_conted_0
I1017 12:04:07.246194 26687 net.cpp:129] Top shape: 1 4 512 (2048)
I1017 12:04:07.246199 26687 net.cpp:137] Memory required for data: 287552
I1017 12:04:07.246203 26687 layer_factory.hpp:77] Creating layer lstm1_transform_1
I1017 12:04:07.246212 26687 net.cpp:84] Creating Layer lstm1_transform_1
I1017 12:04:07.246218 26687 net.cpp:406] lstm1_transform_1 <- h_conted_0
I1017 12:04:07.246225 26687 net.cpp:380] lstm1_transform_1 -> W_hc_h_0
I1017 12:04:07.266446 26687 net.cpp:122] Setting up lstm1_transform_1
I1017 12:04:07.266479 26687 net.cpp:129] Top shape: 1 4 2048 (8192)
I1017 12:04:07.266485 26687 net.cpp:137] Memory required for data: 320320
I1017 12:04:07.266501 26687 layer_factory.hpp:77] Creating layer lstm1_gate_input_1
I1017 12:04:07.266515 26687 net.cpp:84] Creating Layer lstm1_gate_input_1
I1017 12:04:07.266521 26687 net.cpp:406] lstm1_gate_input_1 <- W_hc_h_0
I1017 12:04:07.266528 26687 net.cpp:406] lstm1_gate_input_1 <- W_xc_x_1
I1017 12:04:07.266536 26687 net.cpp:380] lstm1_gate_input_1 -> gate_input_1
I1017 12:04:07.266587 26687 net.cpp:122] Setting up lstm1_gate_input_1
I1017 12:04:07.266597 26687 net.cpp:129] Top shape: 1 4 2048 (8192)
I1017 12:04:07.266602 26687 net.cpp:137] Memory required for data: 353088
I1017 12:04:07.266607 26687 layer_factory.hpp:77] Creating layer lstm1_unit_1
I1017 12:04:07.266616 26687 net.cpp:84] Creating Layer lstm1_unit_1
I1017 12:04:07.266623 26687 net.cpp:406] lstm1_unit_1 <- c_0
I1017 12:04:07.266628 26687 net.cpp:406] lstm1_unit_1 <- gate_input_1
I1017 12:04:07.266634 26687 net.cpp:406] lstm1_unit_1 <- cont_1_lstm1_cont_slice_0_split_1
I1017 12:04:07.266641 26687 net.cpp:380] lstm1_unit_1 -> c_1
I1017 12:04:07.266649 26687 net.cpp:380] lstm1_unit_1 -> h_1
I1017 12:04:07.266706 26687 net.cpp:122] Setting up lstm1_unit_1
I1017 12:04:07.266716 26687 net.cpp:129] Top shape: 1 4 512 (2048)
I1017 12:04:07.266721 26687 net.cpp:129] Top shape: 1 4 512 (2048)
I1017 12:04:07.266726 26687 net.cpp:137] Memory required for data: 369472
I1017 12:04:07.266731 26687 layer_factory.hpp:77] Creating layer h_1_lstm1_unit_1_1_split
I1017 12:04:07.266739 26687 net.cpp:84] Creating Layer h_1_lstm1_unit_1_1_split
I1017 12:04:07.266744 26687 net.cpp:406] h_1_lstm1_unit_1_1_split <- h_1
I1017 12:04:07.266752 26687 net.cpp:380] h_1_lstm1_unit_1_1_split -> h_1_lstm1_unit_1_1_split_0
I1017 12:04:07.266760 26687 net.cpp:380] h_1_lstm1_unit_1_1_split -> h_1_lstm1_unit_1_1_split_1
I1017 12:04:07.266798 26687 net.cpp:122] Setting up h_1_lstm1_unit_1_1_split
I1017 12:04:07.266806 26687 net.cpp:129] Top shape: 1 4 512 (2048)
I1017 12:04:07.266813 26687 net.cpp:129] Top shape: 1 4 512 (2048)
I1017 12:04:07.266816 26687 net.cpp:137] Memory required for data: 385856
I1017 12:04:07.266821 26687 layer_factory.hpp:77] Creating layer lstm1_h_conted_1
I1017 12:04:07.266832 26687 net.cpp:84] Creating Layer lstm1_h_conted_1
I1017 12:04:07.266837 26687 net.cpp:406] lstm1_h_conted_1 <- h_1_lstm1_unit_1_1_split_0
I1017 12:04:07.266844 26687 net.cpp:406] lstm1_h_conted_1 <- cont_2_lstm1_cont_slice_1_split_0
I1017 12:04:07.266850 26687 net.cpp:380] lstm1_h_conted_1 -> h_conted_1
I1017 12:04:07.266921 26687 net.cpp:122] Setting up lstm1_h_conted_1
I1017 12:04:07.266930 26687 net.cpp:129] Top shape: 1 4 512 (2048)
I1017 12:04:07.266934 26687 net.cpp:137] Memory required for data: 394048
I1017 12:04:07.266939 26687 layer_factory.hpp:77] Creating layer lstm1_transform_2
I1017 12:04:07.266952 26687 net.cpp:84] Creating Layer lstm1_transform_2
I1017 12:04:07.266957 26687 net.cpp:406] lstm1_transform_2 <- h_conted_1
I1017 12:04:07.266963 26687 net.cpp:380] lstm1_transform_2 -> W_hc_h_1
I1017 12:04:07.280345 26687 net.cpp:122] Setting up lstm1_transform_2
I1017 12:04:07.280375 26687 net.cpp:129] Top shape: 1 4 2048 (8192)
I1017 12:04:07.280381 26687 net.cpp:137] Memory required for data: 426816
I1017 12:04:07.280390 26687 net.cpp:465] Sharing parameters 'W_hc' owned by layer 'lstm1_transform_1', param index 0
I1017 12:04:07.280400 26687 layer_factory.hpp:77] Creating layer lstm1_gate_input_2
I1017 12:04:07.280417 26687 net.cpp:84] Creating Layer lstm1_gate_input_2
I1017 12:04:07.280424 26687 net.cpp:406] lstm1_gate_input_2 <- W_hc_h_1
I1017 12:04:07.280432 26687 net.cpp:406] lstm1_gate_input_2 <- W_xc_x_2
I1017 12:04:07.280442 26687 net.cpp:380] lstm1_gate_input_2 -> gate_input_2
I1017 12:04:07.280484 26687 net.cpp:122] Setting up lstm1_gate_input_2
I1017 12:04:07.280494 26687 net.cpp:129] Top shape: 1 4 2048 (8192)
I1017 12:04:07.280499 26687 net.cpp:137] Memory required for data: 459584
I1017 12:04:07.280503 26687 layer_factory.hpp:77] Creating layer lstm1_unit_2
I1017 12:04:07.280514 26687 net.cpp:84] Creating Layer lstm1_unit_2
I1017 12:04:07.280519 26687 net.cpp:406] lstm1_unit_2 <- c_1
I1017 12:04:07.280525 26687 net.cpp:406] lstm1_unit_2 <- gate_input_2
I1017 12:04:07.280531 26687 net.cpp:406] lstm1_unit_2 <- cont_2_lstm1_cont_slice_1_split_1
I1017 12:04:07.280539 26687 net.cpp:380] lstm1_unit_2 -> c_2
I1017 12:04:07.280547 26687 net.cpp:380] lstm1_unit_2 -> h_2
I1017 12:04:07.280606 26687 net.cpp:122] Setting up lstm1_unit_2
I1017 12:04:07.280614 26687 net.cpp:129] Top shape: 1 4 512 (2048)
I1017 12:04:07.280622 26687 net.cpp:129] Top shape: 1 4 512 (2048)
I1017 12:04:07.280625 26687 net.cpp:137] Memory required for data: 475968
I1017 12:04:07.280630 26687 layer_factory.hpp:77] Creating layer h_2_lstm1_unit_2_1_split
I1017 12:04:07.280637 26687 net.cpp:84] Creating Layer h_2_lstm1_unit_2_1_split
I1017 12:04:07.280642 26687 net.cpp:406] h_2_lstm1_unit_2_1_split <- h_2
I1017 12:04:07.280650 26687 net.cpp:380] h_2_lstm1_unit_2_1_split -> h_2_lstm1_unit_2_1_split_0
I1017 12:04:07.280658 26687 net.cpp:380] h_2_lstm1_unit_2_1_split -> h_2_lstm1_unit_2_1_split_1
I1017 12:04:07.280696 26687 net.cpp:122] Setting up h_2_lstm1_unit_2_1_split
I1017 12:04:07.280707 26687 net.cpp:129] Top shape: 1 4 512 (2048)
I1017 12:04:07.280714 26687 net.cpp:129] Top shape: 1 4 512 (2048)
I1017 12:04:07.280717 26687 net.cpp:137] Memory required for data: 492352
I1017 12:04:07.280722 26687 layer_factory.hpp:77] Creating layer lstm1_h_conted_2
I1017 12:04:07.280733 26687 net.cpp:84] Creating Layer lstm1_h_conted_2
I1017 12:04:07.280738 26687 net.cpp:406] lstm1_h_conted_2 <- h_2_lstm1_unit_2_1_split_0
I1017 12:04:07.280745 26687 net.cpp:406] lstm1_h_conted_2 <- cont_3_lstm1_cont_slice_2_split_0
I1017 12:04:07.280750 26687 net.cpp:380] lstm1_h_conted_2 -> h_conted_2
I1017 12:04:07.280825 26687 net.cpp:122] Setting up lstm1_h_conted_2
I1017 12:04:07.280836 26687 net.cpp:129] Top shape: 1 4 512 (2048)
I1017 12:04:07.280841 26687 net.cpp:137] Memory required for data: 500544
I1017 12:04:07.280845 26687 layer_factory.hpp:77] Creating layer lstm1_transform_3
I1017 12:04:07.280856 26687 net.cpp:84] Creating Layer lstm1_transform_3
I1017 12:04:07.280861 26687 net.cpp:406] lstm1_transform_3 <- h_conted_2
I1017 12:04:07.280874 26687 net.cpp:380] lstm1_transform_3 -> W_hc_h_2
I1017 12:04:07.299206 26687 net.cpp:122] Setting up lstm1_transform_3
I1017 12:04:07.299425 26687 net.cpp:129] Top shape: 1 4 2048 (8192)
I1017 12:04:07.299448 26687 net.cpp:137] Memory required for data: 533312
I1017 12:04:07.299510 26687 net.cpp:465] Sharing parameters 'W_hc' owned by layer 'lstm1_transform_1', param index 0
I1017 12:04:07.299535 26687 layer_factory.hpp:77] Creating layer lstm1_gate_input_3
I1017 12:04:07.299605 26687 net.cpp:84] Creating Layer lstm1_gate_input_3
I1017 12:04:07.299671 26687 net.cpp:406] lstm1_gate_input_3 <- W_hc_h_2
I1017 12:04:07.299715 26687 net.cpp:406] lstm1_gate_input_3 <- W_xc_x_3
I1017 12:04:07.299741 26687 net.cpp:380] lstm1_gate_input_3 -> gate_input_3
I1017 12:04:07.300043 26687 net.cpp:122] Setting up lstm1_gate_input_3
I1017 12:04:07.300063 26687 net.cpp:129] Top shape: 1 4 2048 (8192)
I1017 12:04:07.300067 26687 net.cpp:137] Memory required for data: 566080
I1017 12:04:07.300072 26687 layer_factory.hpp:77] Creating layer lstm1_unit_3
I1017 12:04:07.300081 26687 net.cpp:84] Creating Layer lstm1_unit_3
I1017 12:04:07.300089 26687 net.cpp:406] lstm1_unit_3 <- c_2
I1017 12:04:07.300096 26687 net.cpp:406] lstm1_unit_3 <- gate_input_3
I1017 12:04:07.300101 26687 net.cpp:406] lstm1_unit_3 <- cont_3_lstm1_cont_slice_2_split_1
I1017 12:04:07.300108 26687 net.cpp:380] lstm1_unit_3 -> c_3
I1017 12:04:07.300117 26687 net.cpp:380] lstm1_unit_3 -> h_3
I1017 12:04:07.300171 26687 net.cpp:122] Setting up lstm1_unit_3
I1017 12:04:07.300181 26687 net.cpp:129] Top shape: 1 4 512 (2048)
I1017 12:04:07.300187 26687 net.cpp:129] Top shape: 1 4 512 (2048)
I1017 12:04:07.300191 26687 net.cpp:137] Memory required for data: 582464
I1017 12:04:07.300196 26687 layer_factory.hpp:77] Creating layer h_3_lstm1_unit_3_1_split
I1017 12:04:07.300205 26687 net.cpp:84] Creating Layer h_3_lstm1_unit_3_1_split
I1017 12:04:07.300210 26687 net.cpp:406] h_3_lstm1_unit_3_1_split <- h_3
I1017 12:04:07.300217 26687 net.cpp:380] h_3_lstm1_unit_3_1_split -> h_3_lstm1_unit_3_1_split_0
I1017 12:04:07.300225 26687 net.cpp:380] h_3_lstm1_unit_3_1_split -> h_3_lstm1_unit_3_1_split_1
I1017 12:04:07.300362 26687 net.cpp:122] Setting up h_3_lstm1_unit_3_1_split
I1017 12:04:07.300426 26687 net.cpp:129] Top shape: 1 4 512 (2048)
I1017 12:04:07.300442 26687 net.cpp:129] Top shape: 1 4 512 (2048)
I1017 12:04:07.300451 26687 net.cpp:137] Memory required for data: 598848
I1017 12:04:07.300477 26687 layer_factory.hpp:77] Creating layer lstm1_h_conted_3
I1017 12:04:07.300559 26687 net.cpp:84] Creating Layer lstm1_h_conted_3
I1017 12:04:07.300595 26687 net.cpp:406] lstm1_h_conted_3 <- h_3_lstm1_unit_3_1_split_0
I1017 12:04:07.300624 26687 net.cpp:406] lstm1_h_conted_3 <- cont_4_lstm1_cont_slice_3_split_0
I1017 12:04:07.300653 26687 net.cpp:380] lstm1_h_conted_3 -> h_conted_3
I1017 12:04:07.300977 26687 net.cpp:122] Setting up lstm1_h_conted_3
I1017 12:04:07.301064 26687 net.cpp:129] Top shape: 1 4 512 (2048)
I1017 12:04:07.301080 26687 net.cpp:137] Memory required for data: 607040
I1017 12:04:07.301096 26687 layer_factory.hpp:77] Creating layer lstm1_transform_4
I1017 12:04:07.301157 26687 net.cpp:84] Creating Layer lstm1_transform_4
I1017 12:04:07.301194 26687 net.cpp:406] lstm1_transform_4 <- h_conted_3
I1017 12:04:07.301249 26687 net.cpp:380] lstm1_transform_4 -> W_hc_h_3
I1017 12:04:07.316236 26687 net.cpp:122] Setting up lstm1_transform_4
I1017 12:04:07.316277 26687 net.cpp:129] Top shape: 1 4 2048 (8192)
I1017 12:04:07.316287 26687 net.cpp:137] Memory required for data: 639808
I1017 12:04:07.316298 26687 net.cpp:465] Sharing parameters 'W_hc' owned by layer 'lstm1_transform_1', param index 0
I1017 12:04:07.316309 26687 layer_factory.hpp:77] Creating layer lstm1_gate_input_4
I1017 12:04:07.316329 26687 net.cpp:84] Creating Layer lstm1_gate_input_4
I1017 12:04:07.316367 26687 net.cpp:406] lstm1_gate_input_4 <- W_hc_h_3
I1017 12:04:07.316382 26687 net.cpp:406] lstm1_gate_input_4 <- W_xc_x_4
I1017 12:04:07.316421 26687 net.cpp:380] lstm1_gate_input_4 -> gate_input_4
I1017 12:04:07.316481 26687 net.cpp:122] Setting up lstm1_gate_input_4
I1017 12:04:07.316496 26687 net.cpp:129] Top shape: 1 4 2048 (8192)
I1017 12:04:07.316504 26687 net.cpp:137] Memory required for data: 672576
I1017 12:04:07.316512 26687 layer_factory.hpp:77] Creating layer lstm1_unit_4
I1017 12:04:07.316550 26687 net.cpp:84] Creating Layer lstm1_unit_4
I1017 12:04:07.316560 26687 net.cpp:406] lstm1_unit_4 <- c_3
I1017 12:04:07.316571 26687 net.cpp:406] lstm1_unit_4 <- gate_input_4
I1017 12:04:07.316603 26687 net.cpp:406] lstm1_unit_4 <- cont_4_lstm1_cont_slice_3_split_1
I1017 12:04:07.316617 26687 net.cpp:380] lstm1_unit_4 -> c_4
I1017 12:04:07.316633 26687 net.cpp:380] lstm1_unit_4 -> h_4
I1017 12:04:07.316706 26687 net.cpp:122] Setting up lstm1_unit_4
I1017 12:04:07.316721 26687 net.cpp:129] Top shape: 1 4 512 (2048)
I1017 12:04:07.316731 26687 net.cpp:129] Top shape: 1 4 512 (2048)
I1017 12:04:07.316761 26687 net.cpp:137] Memory required for data: 688960
I1017 12:04:07.316771 26687 layer_factory.hpp:77] Creating layer lstm1_
I1017 12:04:07.316787 26687 net.cpp:84] Creating Layer lstm1_
I1017 12:04:07.316798 26687 net.cpp:406] lstm1_ <- c_4
I1017 12:04:07.316812 26687 net.cpp:380] lstm1_ -> c_T
I1017 12:04:07.316851 26687 net.cpp:122] Setting up lstm1_
I1017 12:04:07.316865 26687 net.cpp:129] Top shape: 1 4 512 (2048)
I1017 12:04:07.316874 26687 net.cpp:137] Memory required for data: 697152
I1017 12:04:07.316901 26687 layer_factory.hpp:77] Creating layer lstm1_h_concat
I1017 12:04:07.316916 26687 net.cpp:84] Creating Layer lstm1_h_concat
I1017 12:04:07.316928 26687 net.cpp:406] lstm1_h_concat <- h_1_lstm1_unit_1_1_split_1
I1017 12:04:07.316958 26687 net.cpp:406] lstm1_h_concat <- h_2_lstm1_unit_2_1_split_1
I1017 12:04:07.316968 26687 net.cpp:406] lstm1_h_concat <- h_3_lstm1_unit_3_1_split_1
I1017 12:04:07.316978 26687 net.cpp:406] lstm1_h_concat <- h_4
I1017 12:04:07.316993 26687 net.cpp:380] lstm1_h_concat -> h
I1017 12:04:07.317044 26687 net.cpp:122] Setting up lstm1_h_concat
I1017 12:04:07.317060 26687 net.cpp:129] Top shape: 4 4 512 (8192)
I1017 12:04:07.317097 26687 net.cpp:137] Memory required for data: 729920
I1017 12:04:07.317107 26687 layer_factory.hpp:77] Creating layer h_pseudoloss
I1017 12:04:07.317124 26687 net.cpp:84] Creating Layer h_pseudoloss
I1017 12:04:07.317134 26687 net.cpp:406] h_pseudoloss <- h
I1017 12:04:07.317147 26687 net.cpp:380] h_pseudoloss -> h_pseudoloss
I1017 12:04:07.317255 26687 net.cpp:122] Setting up h_pseudoloss
…
I1017 12:04:07.317765 26687 net.cpp:200] lstm1_ does not need backward computation.
I1017 12:04:07.317773 26687 net.cpp:242] This network produces output c_T
I1017 12:04:07.317782 26687 net.cpp:242] This network produces output h_pseudoloss
I1017 12:04:07.321092 26687 net.cpp:255] Network initialization done.
I1017 12:04:07.321640 26687 recurrent_layer.cpp:150] Adding parameter 0: W_xc
I1017 12:04:07.321655 26687 recurrent_layer.cpp:150] Adding parameter 1: b_c
I1017 12:04:07.321663 26687 recurrent_layer.cpp:150] Adding parameter 2: W_hc
I1017 12:04:07.322044 26687 net.cpp:122] Setting up lstm1
I1017 12:04:07.322206 26687 net.cpp:129] Top shape: 4 4 512 (8192)
I1017 12:04:07.322228 26687 net.cpp:137] Memory required for data: 765256528
I1017 12:04:07.322340 26687 layer_factory.hpp:77] Creating layer lstm1-drop
I1017 12:04:07.322427 26687 net.cpp:84] Creating Layer lstm1-drop
I1017 12:04:07.322476 26687 net.cpp:406] lstm1-drop <- lstm1
I1017 12:04:07.322520 26687 net.cpp:380] lstm1-drop -> lstm1-drop
I1017 12:04:07.322820 26687 net.cpp:122] Setting up lstm1-drop
I1017 12:04:07.322927 26687 net.cpp:129] Top shape: 4 4 512 (8192)
I1017 12:04:07.322969 26687 net.cpp:137] Memory required for data: 765289296
I1017 12:04:07.322990 26687 layer_factory.hpp:77] Creating layer fc-final
I1017 12:04:07.323149 26687 net.cpp:84] Creating Layer fc-final
I1017 12:04:07.323159 26687 net.cpp:406] fc-final <- lstm1-drop
I1017 12:04:07.323173 26687 net.cpp:380] fc-final -> fc-final
I1017 12:04:07.323856 26687 net.cpp:122] Setting up fc-final
I1017 12:04:07.323997 26687 net.cpp:129] Top shape: 4 4 10 (160)
I1017 12:04:07.324048 26687 net.cpp:137] Memory required for data: 765289936
I1017 12:04:07.324216 26687 layer_factory.hpp:77] Creating layer fc-final_fc-final_0_split
I1017 12:04:07.324303 26687 net.cpp:84] Creating Layer fc-final_fc-final_0_split
I1017 12:04:07.324340 26687 net.cpp:406] fc-final_fc-final_0_split <- fc-final
I1017 12:04:07.324376 26687 net.cpp:380] fc-final_fc-final_0_split -> fc-final_fc-final_0_split_0
I1017 12:04:07.324419 26687 net.cpp:380] fc-final_fc-final_0_split -> fc-final_fc-final_0_split_1
I1017 12:04:07.324733 26687 net.cpp:122] Setting up fc-final_fc-final_0_split
I1017 12:04:07.324843 26687 net.cpp:129] Top shape: 4 4 10 (160)
I1017 12:04:07.324868 26687 net.cpp:129] Top shape: 4 4 10 (160)
I1017 12:04:07.324887 26687 net.cpp:137] Memory required for data: 765291216
I1017 12:04:07.324911 26687 layer_factory.hpp:77] Creating layer loss
I1017 12:04:07.324965 26687 net.cpp:84] Creating Layer loss
I1017 12:04:07.324980 26687 net.cpp:406] loss <- fc-final_fc-final_0_split_0
I1017 12:04:07.325006 26687 net.cpp:406] loss <- reshape-label_label_tran_0_split_0
I1017 12:04:07.325028 26687 net.cpp:380] loss -> loss
…
I1017 12:04:07.330166 26687 net.cpp:294] The NetState phase (1) differed from the phase (0) specified by a rule in layer data
I1017 12:04:07.330809 26687 net.cpp:51] Initializing net from parameters: 
name: "VGG_16_layers_LSTM"
state {
  phase: TEST
  stage: "test-on-test"
}
layer {
  name: "data"
  type: "ImageData"
  top: "data"
  top: "label"
  include {
    phase: TEST
  }
  transform_param {
    mirror: false
    crop_size: 288
    mean_value: 104
    mean_value: 117
    mean_value: 123
  }
  image_data_param {
    source: "../Data/lsun_val_list.txt"
    batch_size: 50
    new_height: 320
    new_width: 320
  }
}
layer {
  name: "Silence"
  type: "Silence"
  bottom: "label"
  include {
    phase: TEST
  }
}
layer {
  name: "label_tran"
  type: "Python"
  bottom: "label"
  top: "reshape-label"
  top: "clip_markers"
  python_param {
    module: "data_preparation_sort_max_clip"
    layer: "ReshapeLabel"
  }
}
layer {
  name: "conv1_1"
  type: "Convolution"
  bottom: "data"
  top: "conv1_1"
  convolution_param {
    num_output: 64
    pad: 1
    kernel_size: 3
  }
}
layer {
  name: "relu1_1"
  type: "ReLU"
  bottom: "conv1_1"
  top: "conv1_1"
}
layer {
  name: "conv1_2"
  type: "Convolution"
  bottom: "conv1_1"
  top: "conv1_2"
  convolution_param {
    num_output: 64
    pad: 1
    kernel_size: 3
  }
}
layer {
  name: "relu1_2"
  type: "ReLU"
  bottom: "conv1_2"
  top: "conv1_2"
}
layer {
  name: "pool1"
  type: "Pooling"
  bottom: "conv1_2"
  top: "pool1"
  pooling_param {
    pool: MAX
    kernel_size: 2
    stride: 2
  }
}
layer {
  name: "conv2_1"
  type: "Convolution"
  bottom: "pool1"
  top: "conv2_1"
  convolution_param {
    num_output: 128
    pad: 1
    kernel_size: 3
  }
}
layer {
  name: "relu2_1"
  type: "ReLU"
  bottom: "conv2_1"
  top: "conv2_1"
}
layer {
  name: "conv2_2"
  type: "Convolution"
  bottom: "conv2_1"
  top: "conv2_2"
  convolution_param {
    num_output: 128
    pad: 1
    kernel_size: 3
  }
}
layer {
  name: "relu2_2"
  type: "ReLU"
  bottom: "conv2_2"
  top: "conv2_2"
}
layer {
  name: "pool2"
  type: "Pooling"
  bottom: "conv2_2"
  top: "pool2"
  pooling_param {
    pool: MAX
    kernel_size: 2
    stride: 2
  }
}
layer {
  name: "conv3_1"
  type: "Convolution"
  bottom: "pool2"
  top: "conv3_1"
  convolution_param {
    num_output: 256
    pad: 1
    kernel_size: 3
  }
}
layer {
  name: "relu3_1"
  type: "ReLU"
  bottom: "conv3_1"
  top: "conv3_1"
}
layer {
  name: "conv3_2"
  type: "Convolution"
  bottom: "conv3_1"
  top: "conv3_2"
  convolution_param {
    num_output: 256
    pad: 1
    kernel_size: 3
  }
}
layer {
  name: "relu3_2"
  type: "ReLU"
  bottom: "conv3_2"
  top: "conv3_2"
}
layer {
  name: "conv3_3"
  type: "Convolution"
  bottom: "conv3_2"
  top: "conv3_3"
  convolution_param {
    num_output: 256
    pad: 1
    kernel_size: 3
  }
}
layer {
  name: "relu3_3"
  type: "ReLU"
  bottom: "conv3_3"
  top: "conv3_3"
}
layer {
  name: "pool3"
  type: "Pooling"
  bottom: "conv3_3"
  top: "pool3"
  pooling_param {
    pool: MAX
    kernel_size: 2
    stride: 2
  }
}
layer {
  name: "conv4_1"
  type: "Convolution"
  bottom: "pool3"
  top: "conv4_1"
  convolution_param {
    num_output: 512
    pad: 1
    kernel_size: 3
  }
}
layer {
  name: "relu4_1"
  type: "ReLU"
  bottom: "conv4_1"
  top: "conv4_1"
}
layer {
  name: "conv4_2"
  type: "Convolution"
  bottom: "conv4_1"
  top: "conv4_2"
  convolution_param {
    num_output: 512
    pad: 1
    kernel_size: 3
  }
}
layer {
  name: "relu4_2"
  type: "ReLU"
  bottom: "conv4_2"
  top: "conv4_2"
}
layer {
  name: "conv4_3"
  type: "Convolution"
  bottom: "conv4_2"
  top: "conv4_3"
  convolution_param {
    num_output: 512
    pad: 1
    kernel_size: 3
  }
}
layer {
  name: "relu4_3"
  type: "ReLU"
  bottom: "conv4_3"
  top: "conv4_3"
}
layer {
  name: "pool4"
  type: "Pooling"
  bottom: "conv4_3"
  top: "pool4"
  pooling_param {
    pool: MAX
    kernel_size: 2
    stride: 2
  }
}
layer {
  name: "conv5_1"
  type: "Convolution"
  bottom: "pool4"
  top: "conv5_1"
  convolution_param {
    num_output: 512
    pad: 1
    kernel_size: 3
  }
}
layer {
  name: "relu5_1"
  type: "ReLU"
  bottom: "conv5_1"
  top: "conv5_1"
}
layer {
  name: "conv5_2"
  type: "Convolution"
  bottom: "conv5_1"
  top: "conv5_2"
  convolution_param {
    num_output: 512
    pad: 1
    kernel_size: 3
  }
}
layer {
  name: "relu5_2"
  type: "ReLU"
  bottom: "conv5_2"
  top: "conv5_2"
}
layer {
  name: "conv5_3"
  type: "Convolution"
  bottom: "conv5_2"
  top: "conv5_3"
  convolution_param {
    num_output: 512
    pad: 1
    kernel_size: 3
  }
}
layer {
  name: "relu5_3"
  type: "ReLU"
  bottom: "conv5_3"
  top: "conv5_3"
}
layer {
  name: "pool5"
  type: "Pooling"
  bottom: "conv5_3"
  top: "pool5"
  pooling_param {
    pool: MAX
    kernel_size: 2
    stride: 2
  }
}
layer {
  name: "fc6-conv"
  type: "Convolution"
  bottom: "pool5"
  top: "fc6-conv"
  convolution_param {
    num_output: 4096
    kernel_size: 7
  }
}
layer {
  name: "relu6"
  type: "ReLU"
  bottom: "fc6-conv"
  top: "fc6-conv"
}
layer {
  name: "drop6"
  type: "Dropout"
  bottom: "fc6-conv"
  top: "fc6-conv"
  dropout_param {
    dropout_ratio: 0.5
  }
}
layer {
  name: "fc7-conv"
  type: "Convolution"
  bottom: "fc6-conv"
  top: "fc7-conv"
  convolution_param {
    num_output: 4096
    kernel_size: 1
  }
}
layer {
  name: "relu7"
  type: "ReLU"
  bottom: "fc7-conv"
  top: "fc7-conv"
}
layer {
  name: "drop7"
  type: "Dropout"
  bottom: "fc7-conv"
  top: "fc7-conv"
  dropout_param {
    dropout_ratio: 0.9
  }
}
layer {
  name: "fc7-conv_re"
  type: "Reshape"
  bottom: "fc7-conv"
  top: "fc7-conv_re"
  reshape_param {
    shape {
      dim: 0
      dim: 0
      dim: -1
    }
  }
}
layer {
  name: "fc7-conv_tran"
  type: "Python"
  bottom: "fc7-conv_re"
  top: "fc7-conv_tran"
  python_param {
    module: "data_preparation_sort_max_clip"
    layer: "DataTransposeSortMaxClip"
  }
}
layer {
  name: "lstm1"
  type: "LSTM"
  bottom: "fc7-conv_tran"
  bottom: "clip_markers"
  top: "lstm1"
  recurrent_param {
    num_output: 512
    weight_filler {
      type: "uniform"
      min: -0.01
      max: 0.01
    }
    bias_filler {
      type: "constant"
      value: 0
    }
  }
}
layer {
  name: "lstm1-drop"
  type: "Dropout"
  bottom: "lstm1"
  top: "lstm1-drop"
  dropout_param {
    dropout_ratio: 0.5
  }
}
layer {
  name: "fc-final"
  type: "InnerProduct"
  bottom: "lstm1-drop"
  top: "fc-final"
  param {
    lr_mult: 1
    decay_mult: 1
  }
  param {
    lr_mult: 2
    decay_mult: 0
  }
  inner_product_param {
    num_output: 10
    weight_filler {
      type: "gaussian"
      std: 0.01
    }
    bias_filler {
      type: "constant"
      value: 0
    }
    axis: 2
  }
}
layer {
  name: "loss"
  type: "SoftmaxWithLoss"
  bottom: "fc-final"
  bottom: "reshape-label"
  top: "loss"
  softmax_param {
    axis: 2
  }
}
layer {
  name: "accuracy"
  type: "Accuracy"
  bottom: "fc-final"
  bottom: "reshape-label"
  top: "accuracy"
  accuracy_param {
    axis: 2
  }
}
I1017 12:04:07.331193 26687 layer_factory.hpp:77] Creating layer data
I1017 12:04:07.331341 26687 net.cpp:84] Creating Layer data
I1017 12:04:07.331370 26687 net.cpp:380] data -> data
I1017 12:04:07.331445 26687 net.cpp:380] data -> label
I1017 12:04:07.331501 26687 image_data_layer.cpp:38] Opening file ../Data/lsun_val_list.txt
I1017 12:04:07.333283 26687 image_data_layer.cpp:63] A total of 3000 images.
I1017 12:04:07.338676 26687 image_data_layer.cpp:90] output data size: 50,3,288,288
I1017 12:04:07.521706 26687 net.cpp:122] Setting up data
I1017 12:04:07.521741 26687 net.cpp:129] Top shape: 50 3 288 288 (12441600)
I1017 12:04:07.521749 26687 net.cpp:129] Top shape: 50 (50)
I1017 12:04:07.521752 26687 net.cpp:137] Memory required for data: 49766600
I1017 12:04:07.521761 26687 layer_factory.hpp:77] Creating layer label_data_1_split
I1017 12:04:07.521780 26687 net.cpp:84] Creating Layer label_data_1_split
I1017 12:04:07.521785 26687 net.cpp:406] label_data_1_split <- label
I1017 12:04:07.521796 26687 net.cpp:380] label_data_1_split -> label_data_1_split_0
I1017 12:04:07.521811 26687 net.cpp:380] label_data_1_split -> label_data_1_split_1
I1017 12:04:07.522192 26687 net.cpp:122] Setting up label_data_1_split
I1017 12:04:07.522244 26687 net.cpp:129] Top shape: 50 (50)
I1017 12:04:07.522258 26687 net.cpp:129] Top shape: 50 (50)
I1017 12:04:07.522267 26687 net.cpp:137] Memory required for data: 49767000
I1017 12:04:07.522279 26687 layer_factory.hpp:77] Creating layer Silence
I1017 12:04:07.522310 26687 net.cpp:84] Creating Layer Silence
I1017 12:04:07.522325 26687 net.cpp:406] Silence <- label_data_1_split_0
I1017 12:04:07.522341 26687 net.cpp:122] Setting up Silence
I1017 12:04:07.522349 26687 net.cpp:137] Memory required for data: 49767000
I1017 12:04:07.522357 26687 layer_factory.hpp:77] Creating layer label_tran
I1017 12:04:07.522456 26687 net.cpp:84] Creating Layer label_tran
I1017 12:04:07.522466 26687 net.cpp:406] label_tran <- label_data_1_split_1
I1017 12:04:07.522476 26687 net.cpp:380] label_tran -> reshape-label
I1017 12:04:07.522490 26687 net.cpp:380] label_tran -> clip_markers
I1017 12:04:07.522645 26687 net.cpp:122] Setting up label_tran
I1017 12:04:07.522660 26687 net.cpp:129] Top shape: 4 50 (200)
I1017 12:04:07.522667 26687 net.cpp:129] Top shape: 4 50 (200)
I1017 12:04:07.522672 26687 net.cpp:137] Memory required for data: 49768600
I1017 12:04:07.522677 26687 layer_factory.hpp:77] Creating layer reshape-label_label_tran_0_split
I1017 12:04:07.522688 26687 net.cpp:84] Creating Layer reshape-label_label_tran_0_split
I1017 12:04:07.522694 26687 net.cpp:406] reshape-label_label_tran_0_split <- reshape-label
I1017 12:04:07.522703 26687 net.cpp:380] reshape-label_label_tran_0_split -> reshape-label_label_tran_0_split_0
I1017 12:04:07.522712 26687 net.cpp:380] reshape-label_label_tran_0_split -> reshape-label_label_tran_0_split_1
I1017 12:04:07.522753 26687 net.cpp:122] Setting up reshape-label_label_tran_0_split
I1017 12:04:07.522763 26687 net.cpp:129] Top shape: 4 50 (200)
I1017 12:04:07.522768 26687 net.cpp:129] Top shape: 4 50 (200)
I1017 12:04:07.522773 26687 net.cpp:137] Memory required for data: 49770200
I1017 12:04:07.522778 26687 layer_factory.hpp:77] Creating layer conv1_1
I1017 12:04:07.522792 26687 net.cpp:84] Creating Layer conv1_1
I1017 12:04:07.522799 26687 net.cpp:406] conv1_1 <- data
I1017 12:04:07.522807 26687 net.cpp:380] conv1_1 -> conv1_1
I1017 12:04:07.523205 26687 net.cpp:122] Setting up conv1_1
I1017 12:04:07.523217 26687 net.cpp:129] Top shape: 50 64 288 288 (265420800)
I1017 12:04:07.523222 26687 net.cpp:137] Memory required for data: 1111453400
I1017 12:04:07.523237 26687 layer_factory.hpp:77] Creating layer relu1_1
I1017 12:04:07.523247 26687 net.cpp:84] Creating Layer relu1_1
I1017 12:04:07.523252 26687 net.cpp:406] relu1_1 <- conv1_1
I1017 12:04:07.523260 26687 net.cpp:367] relu1_1 -> conv1_1 (in-place)
I1017 12:04:07.523269 26687 net.cpp:122] Setting up relu1_1
I1017 12:04:07.523275 26687 net.cpp:129] Top shape: 50 64 288 288 (265420800)
I1017 12:04:07.523280 26687 net.cpp:137] Memory required for data: 2173136600
I1017 12:04:07.523284 26687 layer_factory.hpp:77] Creating layer conv1_2
I1017 12:04:07.523295 26687 net.cpp:84] Creating Layer conv1_2
I1017 12:04:07.523299 26687 net.cpp:406] conv1_2 <- conv1_1
I1017 12:04:07.523308 26687 net.cpp:380] conv1_2 -> conv1_2
I1017 12:04:07.523732 26687 net.cpp:122] Setting up conv1_2
I1017 12:04:07.523744 26687 net.cpp:129] Top shape: 50 64 288 288 (265420800)
I1017 12:04:07.523749 26687 net.cpp:137] Memory required for data: 3234819800
I1017 12:04:07.523761 26687 layer_factory.hpp:77] Creating layer relu1_2
I1017 12:04:07.523769 26687 net.cpp:84] Creating Layer relu1_2
I1017 12:04:07.523774 26687 net.cpp:406] relu1_2 <- conv1_2
I1017 12:04:07.523782 26687 net.cpp:367] relu1_2 -> conv1_2 (in-place)
I1017 12:04:07.523790 26687 net.cpp:122] Setting up relu1_2
I1017 12:04:07.523797 26687 net.cpp:129] Top shape: 50 64 288 288 (265420800)
I1017 12:04:07.523800 26687 net.cpp:137] Memory required for data: 4296503000
I1017 12:04:07.523805 26687 layer_factory.hpp:77] Creating layer pool1
I1017 12:04:07.523816 26687 net.cpp:84] Creating Layer pool1
I1017 12:04:07.523821 26687 net.cpp:406] pool1 <- conv1_2
I1017 12:04:07.523828 26687 net.cpp:380] pool1 -> pool1
I1017 12:04:07.523874 26687 net.cpp:122] Setting up pool1
I1017 12:04:07.523885 26687 net.cpp:129] Top shape: 50 64 144 144 (66355200)
I1017 12:04:07.523888 26687 net.cpp:137] Memory required for data: 4561923800
I1017 12:04:07.523893 26687 layer_factory.hpp:77] Creating layer conv2_1
I1017 12:04:07.523905 26687 net.cpp:84] Creating Layer conv2_1
I1017 12:04:07.523910 26687 net.cpp:406] conv2_1 <- pool1
I1017 12:04:07.523919 26687 net.cpp:380] conv2_1 -> conv2_1
I1017 12:04:07.525813 26687 net.cpp:122] Setting up conv2_1
I1017 12:04:07.525856 26687 net.cpp:129] Top shape: 50 128 144 144 (132710400)
I1017 12:04:07.525866 26687 net.cpp:137] Memory required for data: 5092765400
I1017 12:04:07.525889 26687 layer_factory.hpp:77] Creating layer relu2_1
I1017 12:04:07.525905 26687 net.cpp:84] Creating Layer relu2_1
I1017 12:04:07.525923 26687 net.cpp:406] relu2_1 <- conv2_1
I1017 12:04:07.525936 26687 net.cpp:367] relu2_1 -> conv2_1 (in-place)
I1017 12:04:07.525954 26687 net.cpp:122] Setting up relu2_1
I1017 12:04:07.525965 26687 net.cpp:129] Top shape: 50 128 144 144 (132710400)
I1017 12:04:07.525974 26687 net.cpp:137] Memory required for data: 5623607000
I1017 12:04:07.525982 26687 layer_factory.hpp:77] Creating layer conv2_2
I1017 12:04:07.525998 26687 net.cpp:84] Creating Layer conv2_2
I1017 12:04:07.526007 26687 net.cpp:406] conv2_2 <- conv2_1
I1017 12:04:07.526021 26687 net.cpp:380] conv2_2 -> conv2_2
I1017 12:04:07.526716 26687 net.cpp:122] Setting up conv2_2
I1017 12:04:07.526736 26687 net.cpp:129] Top shape: 50 128 144 144 (132710400)
I1017 12:04:07.526752 26687 net.cpp:137] Memory required for data: 6154448600
I1017 12:04:07.526767 26687 layer_factory.hpp:77] Creating layer relu2_2
I1017 12:04:07.526780 26687 net.cpp:84] Creating Layer relu2_2
I1017 12:04:07.526789 26687 net.cpp:406] relu2_2 <- conv2_2
I1017 12:04:07.526803 26687 net.cpp:367] relu2_2 -> conv2_2 (in-place)
I1017 12:04:07.526820 26687 net.cpp:122] Setting up relu2_2
I1017 12:04:07.526832 26687 net.cpp:129] Top shape: 50 128 144 144 (132710400)
I1017 12:04:07.526840 26687 net.cpp:137] Memory required for data: 6685290200
I1017 12:04:07.526849 26687 layer_factory.hpp:77] Creating layer pool2
I1017 12:04:07.526865 26687 net.cpp:84] Creating Layer pool2
I1017 12:04:07.526872 26687 net.cpp:406] pool2 <- conv2_2
I1017 12:04:07.526886 26687 net.cpp:380] pool2 -> pool2
I1017 12:04:07.526968 26687 net.cpp:122] Setting up pool2
I1017 12:04:07.526984 26687 net.cpp:129] Top shape: 50 128 72 72 (33177600)
I1017 12:04:07.526993 26687 net.cpp:137] Memory required for data: 6818000600
I1017 12:04:07.527001 26687 layer_factory.hpp:77] Creating layer conv3_1
I1017 12:04:07.527019 26687 net.cpp:84] Creating Layer conv3_1
I1017 12:04:07.527030 26687 net.cpp:406] conv3_1 <- pool2
I1017 12:04:07.527045 26687 net.cpp:380] conv3_1 -> conv3_1
I1017 12:04:07.528826 26687 net.cpp:122] Setting up conv3_1
I1017 12:04:07.528844 26687 net.cpp:129] Top shape: 50 256 72 72 (66355200)
I1017 12:04:07.528851 26687 net.cpp:137] Memory required for data: 7083421400
I1017 12:04:07.528865 26687 layer_factory.hpp:77] Creating layer relu3_1
I1017 12:04:07.528877 26687 net.cpp:84] Creating Layer relu3_1
I1017 12:04:07.528882 26687 net.cpp:406] relu3_1 <- conv3_1
I1017 12:04:07.528892 26687 net.cpp:367] relu3_1 -> conv3_1 (in-place)
I1017 12:04:07.528900 26687 net.cpp:122] Setting up relu3_1
I1017 12:04:07.528906 26687 net.cpp:129] Top shape: 50 256 72 72 (66355200)
I1017 12:04:07.528911 26687 net.cpp:137] Memory required for data: 7348842200
I1017 12:04:07.528916 26687 layer_factory.hpp:77] Creating layer conv3_2
I1017 12:04:07.528926 26687 net.cpp:84] Creating Layer conv3_2
I1017 12:04:07.528931 26687 net.cpp:406] conv3_2 <- conv3_1
I1017 12:04:07.528939 26687 net.cpp:380] conv3_2 -> conv3_2
I1017 12:04:07.534554 26687 net.cpp:122] Setting up conv3_2
I1017 12:04:07.534571 26687 net.cpp:129] Top shape: 50 256 72 72 (66355200)
I1017 12:04:07.534577 26687 net.cpp:137] Memory required for data: 7614263000
I1017 12:04:07.534585 26687 layer_factory.hpp:77] Creating layer relu3_2
I1017 12:04:07.534595 26687 net.cpp:84] Creating Layer relu3_2
I1017 12:04:07.534600 26687 net.cpp:406] relu3_2 <- conv3_2
I1017 12:04:07.534610 26687 net.cpp:367] relu3_2 -> conv3_2 (in-place)
I1017 12:04:07.534618 26687 net.cpp:122] Setting up relu3_2
I1017 12:04:07.534624 26687 net.cpp:129] Top shape: 50 256 72 72 (66355200)
I1017 12:04:07.534629 26687 net.cpp:137] Memory required for data: 7879683800
I1017 12:04:07.534633 26687 layer_factory.hpp:77] Creating layer conv3_3
I1017 12:04:07.534643 26687 net.cpp:84] Creating Layer conv3_3
I1017 12:04:07.534648 26687 net.cpp:406] conv3_3 <- conv3_2
I1017 12:04:07.534657 26687 net.cpp:380] conv3_3 -> conv3_3
I1017 12:04:07.536723 26687 net.cpp:122] Setting up conv3_3
I1017 12:04:07.536742 26687 net.cpp:129] Top shape: 50 256 72 72 (66355200)
I1017 12:04:07.536756 26687 net.cpp:137] Memory required for data: 8145104600
I1017 12:04:07.536763 26687 layer_factory.hpp:77] Creating layer relu3_3
I1017 12:04:07.536772 26687 net.cpp:84] Creating Layer relu3_3
I1017 12:04:07.536778 26687 net.cpp:406] relu3_3 <- conv3_3
I1017 12:04:07.536787 26687 net.cpp:367] relu3_3 -> conv3_3 (in-place)
I1017 12:04:07.536797 26687 net.cpp:122] Setting up relu3_3
I1017 12:04:07.536803 26687 net.cpp:129] Top shape: 50 256 72 72 (66355200)
I1017 12:04:07.536808 26687 net.cpp:137] Memory required for data: 8410525400
I1017 12:04:07.536811 26687 layer_factory.hpp:77] Creating layer pool3
I1017 12:04:07.536821 26687 net.cpp:84] Creating Layer pool3
I1017 12:04:07.536825 26687 net.cpp:406] pool3 <- conv3_3
I1017 12:04:07.536834 26687 net.cpp:380] pool3 -> pool3
I1017 12:04:07.536878 26687 net.cpp:122] Setting up pool3
I1017 12:04:07.536888 26687 net.cpp:129] Top shape: 50 256 36 36 (16588800)
I1017 12:04:07.536893 26687 net.cpp:137] Memory required for data: 8476880600
I1017 12:04:07.536897 26687 layer_factory.hpp:77] Creating layer conv4_1
I1017 12:04:07.536908 26687 net.cpp:84] Creating Layer conv4_1
I1017 12:04:07.536917 26687 net.cpp:406] conv4_1 <- pool3
I1017 12:04:07.536926 26687 net.cpp:380] conv4_1 -> conv4_1
I1017 12:04:07.540429 26687 net.cpp:122] Setting up conv4_1
I1017 12:04:07.540447 26687 net.cpp:129] Top shape: 50 512 36 36 (33177600)
I1017 12:04:07.540452 26687 net.cpp:137] Memory required for data: 8609591000
I1017 12:04:07.540475 26687 layer_factory.hpp:77] Creating layer relu4_1
I1017 12:04:07.540490 26687 net.cpp:84] Creating Layer relu4_1
I1017 12:04:07.540498 26687 net.cpp:406] relu4_1 <- conv4_1
I1017 12:04:07.540509 26687 net.cpp:367] relu4_1 -> conv4_1 (in-place)
I1017 12:04:07.540522 26687 net.cpp:122] Setting up relu4_1
I1017 12:04:07.540530 26687 net.cpp:129] Top shape: 50 512 36 36 (33177600)
I1017 12:04:07.540537 26687 net.cpp:137] Memory required for data: 8742301400
I1017 12:04:07.540544 26687 layer_factory.hpp:77] Creating layer conv4_2
I1017 12:04:07.540556 26687 net.cpp:84] Creating Layer conv4_2
I1017 12:04:07.540562 26687 net.cpp:406] conv4_2 <- conv4_1
I1017 12:04:07.540575 26687 net.cpp:380] conv4_2 -> conv4_2
I1017 12:04:07.548532 26687 net.cpp:122] Setting up conv4_2
I1017 12:04:07.548557 26687 net.cpp:129] Top shape: 50 512 36 36 (33177600)
I1017 12:04:07.548564 26687 net.cpp:137] Memory required for data: 8875011800
I1017 12:04:07.548585 26687 layer_factory.hpp:77] Creating layer relu4_2
I1017 12:04:07.548599 26687 net.cpp:84] Creating Layer relu4_2
I1017 12:04:07.548606 26687 net.cpp:406] relu4_2 <- conv4_2
I1017 12:04:07.548617 26687 net.cpp:367] relu4_2 -> conv4_2 (in-place)
I1017 12:04:07.548635 26687 net.cpp:122] Setting up relu4_2
I1017 12:04:07.548643 26687 net.cpp:129] Top shape: 50 512 36 36 (33177600)
I1017 12:04:07.548650 26687 net.cpp:137] Memory required for data: 9007722200
I1017 12:04:07.548656 26687 layer_factory.hpp:77] Creating layer conv4_3
I1017 12:04:07.548668 26687 net.cpp:84] Creating Layer conv4_3
I1017 12:04:07.548677 26687 net.cpp:406] conv4_3 <- conv4_2
I1017 12:04:07.548688 26687 net.cpp:380] conv4_3 -> conv4_3
I1017 12:04:07.555776 26687 net.cpp:122] Setting up conv4_3
I1017 12:04:07.555797 26687 net.cpp:129] Top shape: 50 512 36 36 (33177600)
I1017 12:04:07.555802 26687 net.cpp:137] Memory required for data: 9140432600
I1017 12:04:07.555811 26687 layer_factory.hpp:77] Creating layer relu4_3
I1017 12:04:07.555821 26687 net.cpp:84] Creating Layer relu4_3
I1017 12:04:07.555829 26687 net.cpp:406] relu4_3 <- conv4_3
I1017 12:04:07.555837 26687 net.cpp:367] relu4_3 -> conv4_3 (in-place)
I1017 12:04:07.555847 26687 net.cpp:122] Setting up relu4_3
I1017 12:04:07.555853 26687 net.cpp:129] Top shape: 50 512 36 36 (33177600)
I1017 12:04:07.555858 26687 net.cpp:137] Memory required for data: 9273143000
I1017 12:04:07.555862 26687 layer_factory.hpp:77] Creating layer pool4
I1017 12:04:07.555872 26687 net.cpp:84] Creating Layer pool4
I1017 12:04:07.555877 26687 net.cpp:406] pool4 <- conv4_3
I1017 12:04:07.555886 26687 net.cpp:380] pool4 -> pool4
I1017 12:04:07.555934 26687 net.cpp:122] Setting up pool4
I1017 12:04:07.555943 26687 net.cpp:129] Top shape: 50 512 18 18 (8294400)
I1017 12:04:07.555946 26687 net.cpp:137] Memory required for data: 9306320600
I1017 12:04:07.555951 26687 layer_factory.hpp:77] Creating layer conv5_1
I1017 12:04:07.555963 26687 net.cpp:84] Creating Layer conv5_1
I1017 12:04:07.555968 26687 net.cpp:406] conv5_1 <- pool4
I1017 12:04:07.555976 26687 net.cpp:380] conv5_1 -> conv5_1
I1017 12:04:07.562408 26687 net.cpp:122] Setting up conv5_1
I1017 12:04:07.562428 26687 net.cpp:129] Top shape: 50 512 18 18 (8294400)
I1017 12:04:07.562434 26687 net.cpp:137] Memory required for data: 9339498200
I1017 12:04:07.562443 26687 layer_factory.hpp:77] Creating layer relu5_1
I1017 12:04:07.562453 26687 net.cpp:84] Creating Layer relu5_1
I1017 12:04:07.562459 26687 net.cpp:406] relu5_1 <- conv5_1
I1017 12:04:07.562469 26687 net.cpp:367] relu5_1 -> conv5_1 (in-place)
I1017 12:04:07.562479 26687 net.cpp:122] Setting up relu5_1
I1017 12:04:07.562484 26687 net.cpp:129] Top shape: 50 512 18 18 (8294400)
I1017 12:04:07.562489 26687 net.cpp:137] Memory required for data: 9372675800
I1017 12:04:07.562494 26687 layer_factory.hpp:77] Creating layer conv5_2
I1017 12:04:07.562505 26687 net.cpp:84] Creating Layer conv5_2
I1017 12:04:07.562510 26687 net.cpp:406] conv5_2 <- conv5_1
I1017 12:04:07.562517 26687 net.cpp:380] conv5_2 -> conv5_2
I1017 12:04:07.569141 26687 net.cpp:122] Setting up conv5_2
I1017 12:04:07.569166 26687 net.cpp:129] Top shape: 50 512 18 18 (8294400)
I1017 12:04:07.569171 26687 net.cpp:137] Memory required for data: 9405853400
I1017 12:04:07.569181 26687 layer_factory.hpp:77] Creating layer relu5_2
I1017 12:04:07.569200 26687 net.cpp:84] Creating Layer relu5_2
I1017 12:04:07.569206 26687 net.cpp:406] relu5_2 <- conv5_2
I1017 12:04:07.569217 26687 net.cpp:367] relu5_2 -> conv5_2 (in-place)
I1017 12:04:07.569231 26687 net.cpp:122] Setting up relu5_2
I1017 12:04:07.569237 26687 net.cpp:129] Top shape: 50 512 18 18 (8294400)
I1017 12:04:07.569242 26687 net.cpp:137] Memory required for data: 9439031000
I1017 12:04:07.569247 26687 layer_factory.hpp:77] Creating layer conv5_3
I1017 12:04:07.569257 26687 net.cpp:84] Creating Layer conv5_3
I1017 12:04:07.569262 26687 net.cpp:406] conv5_3 <- conv5_2
I1017 12:04:07.569270 26687 net.cpp:380] conv5_3 -> conv5_3
I1017 12:04:07.576400 26687 net.cpp:122] Setting up conv5_3
I1017 12:04:07.576421 26687 net.cpp:129] Top shape: 50 512 18 18 (8294400)
I1017 12:04:07.576427 26687 net.cpp:137] Memory required for data: 9472208600
I1017 12:04:07.576437 26687 layer_factory.hpp:77] Creating layer relu5_3
I1017 12:04:07.576447 26687 net.cpp:84] Creating Layer relu5_3
I1017 12:04:07.576453 26687 net.cpp:406] relu5_3 <- conv5_3
I1017 12:04:07.576463 26687 net.cpp:367] relu5_3 -> conv5_3 (in-place)
I1017 12:04:07.576472 26687 net.cpp:122] Setting up relu5_3
I1017 12:04:07.576478 26687 net.cpp:129] Top shape: 50 512 18 18 (8294400)
I1017 12:04:07.576483 26687 net.cpp:137] Memory required for data: 9505386200
I1017 12:04:07.576488 26687 layer_factory.hpp:77] Creating layer pool5
I1017 12:04:07.576498 26687 net.cpp:84] Creating Layer pool5
I1017 12:04:07.576503 26687 net.cpp:406] pool5 <- conv5_3
I1017 12:04:07.576512 26687 net.cpp:380] pool5 -> pool5
I1017 12:04:07.576565 26687 net.cpp:122] Setting up pool5
I1017 12:04:07.576575 26687 net.cpp:129] Top shape: 50 512 9 9 (2073600)
I1017 12:04:07.576580 26687 net.cpp:137] Memory required for data: 9513680600
I1017 12:04:07.576584 26687 layer_factory.hpp:77] Creating layer fc6-conv
I1017 12:04:07.576596 26687 net.cpp:84] Creating Layer fc6-conv
I1017 12:04:07.576601 26687 net.cpp:406] fc6-conv <- pool5
I1017 12:04:07.576609 26687 net.cpp:380] fc6-conv -> fc6-conv
I1017 12:04:07.913054 26687 net.cpp:122] Setting up fc6-conv
I1017 12:04:07.913091 26687 net.cpp:129] Top shape: 50 4096 3 3 (1843200)
I1017 12:04:07.913097 26687 net.cpp:137] Memory required for data: 9521053400
I1017 12:04:07.913110 26687 layer_factory.hpp:77] Creating layer relu6
I1017 12:04:07.913130 26687 net.cpp:84] Creating Layer relu6
I1017 12:04:07.913136 26687 net.cpp:406] relu6 <- fc6-conv
I1017 12:04:07.913151 26687 net.cpp:367] relu6 -> fc6-conv (in-place)
I1017 12:04:07.913164 26687 net.cpp:122] Setting up relu6
I1017 12:04:07.913172 26687 net.cpp:129] Top shape: 50 4096 3 3 (1843200)
I1017 12:04:07.913177 26687 net.cpp:137] Memory required for data: 9528426200
I1017 12:04:07.913180 26687 layer_factory.hpp:77] Creating layer drop6
I1017 12:04:07.913190 26687 net.cpp:84] Creating Layer drop6
I1017 12:04:07.913194 26687 net.cpp:406] drop6 <- fc6-conv
I1017 12:04:07.913202 26687 net.cpp:367] drop6 -> fc6-conv (in-place)
I1017 12:04:07.913233 26687 net.cpp:122] Setting up drop6
I1017 12:04:07.913240 26687 net.cpp:129] Top shape: 50 4096 3 3 (1843200)
I1017 12:04:07.913245 26687 net.cpp:137] Memory required for data: 9535799000
I1017 12:04:07.913249 26687 layer_factory.hpp:77] Creating layer fc7-conv
I1017 12:04:07.913264 26687 net.cpp:84] Creating Layer fc7-conv
I1017 12:04:07.913269 26687 net.cpp:406] fc7-conv <- fc6-conv
I1017 12:04:07.913275 26687 net.cpp:380] fc7-conv -> fc7-conv
I1017 12:04:07.962043 26687 net.cpp:122] Setting up fc7-conv
I1017 12:04:07.962077 26687 net.cpp:129] Top shape: 50 4096 3 3 (1843200)
I1017 12:04:07.962083 26687 net.cpp:137] Memory required for data: 9543171800
I1017 12:04:07.962096 26687 layer_factory.hpp:77] Creating layer relu7
I1017 12:04:07.962110 26687 net.cpp:84] Creating Layer relu7
I1017 12:04:07.962116 26687 net.cpp:406] relu7 <- fc7-conv
I1017 12:04:07.962129 26687 net.cpp:367] relu7 -> fc7-conv (in-place)
I1017 12:04:07.962143 26687 net.cpp:122] Setting up relu7
I1017 12:04:07.962151 26687 net.cpp:129] Top shape: 50 4096 3 3 (1843200)
I1017 12:04:07.962155 26687 net.cpp:137] Memory required for data: 9550544600
I1017 12:04:07.962159 26687 layer_factory.hpp:77] Creating layer drop7
I1017 12:04:07.962168 26687 net.cpp:84] Creating Layer drop7
I1017 12:04:07.962173 26687 net.cpp:406] drop7 <- fc7-conv
I1017 12:04:07.962179 26687 net.cpp:367] drop7 -> fc7-conv (in-place)
I1017 12:04:07.962214 26687 net.cpp:122] Setting up drop7
I1017 12:04:07.962222 26687 net.cpp:129] Top shape: 50 4096 3 3 (1843200)
I1017 12:04:07.962226 26687 net.cpp:137] Memory required for data: 9557917400
I1017 12:04:07.962234 26687 layer_factory.hpp:77] Creating layer fc7-conv_re
I1017 12:04:07.962246 26687 net.cpp:84] Creating Layer fc7-conv_re
I1017 12:04:07.962255 26687 net.cpp:406] fc7-conv_re <- fc7-conv
I1017 12:04:07.962262 26687 net.cpp:380] fc7-conv_re -> fc7-conv_re
I1017 12:04:07.962301 26687 net.cpp:122] Setting up fc7-conv_re
I1017 12:04:07.962308 26687 net.cpp:129] Top shape: 50 4096 9 (1843200)
I1017 12:04:07.962313 26687 net.cpp:137] Memory required for data: 9565290200
I1017 12:04:07.962317 26687 layer_factory.hpp:77] Creating layer fc7-conv_tran
I1017 12:04:07.962452 26687 net.cpp:84] Creating Layer fc7-conv_tran
I1017 12:04:07.962463 26687 net.cpp:406] fc7-conv_tran <- fc7-conv_re
I1017 12:04:07.962471 26687 net.cpp:380] fc7-conv_tran -> fc7-conv_tran
I1017 12:04:07.966750 26687 net.cpp:122] Setting up fc7-conv_tran
I1017 12:04:07.966769 26687 net.cpp:129] Top shape: 4 50 9 (1800)
I1017 12:04:07.966778 26687 net.cpp:137] Memory required for data: 9565297400
I1017 12:04:07.966784 26687 layer_factory.hpp:77] Creating layer lstm1
I1017 12:04:07.966794 26687 net.cpp:84] Creating Layer lstm1
I1017 12:04:07.966799 26687 net.cpp:406] lstm1 <- fc7-conv_tran
I1017 12:04:07.966807 26687 net.cpp:406] lstm1 <- clip_markers
I1017 12:04:07.966817 26687 net.cpp:380] lstm1 -> lstm1
I1017 12:04:07.966828 26687 recurrent_layer.cpp:20] Initializing recurrent layer: assuming input batch contains 4 timesteps of 50 independent streams.
I1017 12:04:07.967142 26687 net.cpp:51] Initializing net from parameters: 
layer {
  name: "lstm1_"
  type: "Input"
  top: "x"
  top: "cont"
  input_param {
    shape {
      dim: 4
      dim: 50
      dim: 9
    }
    shape {
      dim: 4
      dim: 50
    }
  }
}
layer {
  name: "lstm1_"
  type: "Input"
  top: "c_0"
  top: "h_0"
  input_param {
    shape {
      dim: 1
      dim: 50
      dim: 512
    }
    shape {
      dim: 1
      dim: 50
      dim: 512
    }
  }
}
layer {
  name: "lstm1_cont_slice"
  type: "Slice"
  bottom: "cont"
  top: "cont_1"
  top: "cont_2"
  top: "cont_3"
  top: "cont_4"
  slice_param {
    axis: 0
  }
}
layer {
  name: "lstm1_x_transform"
  type: "InnerProduct"
  bottom: "x"
  top: "W_xc_x"
  param {
    name: "W_xc"
  }
  param {
    name: "b_c"
  }
  propagate_down: true
  inner_product_param {
    num_output: 2048
    bias_term: true
    weight_filler {
      type: "uniform"
      min: -0.01
      max: 0.01
    }
    bias_filler {
      type: "constant"
      value: 0
    }
    axis: 2
  }
}
layer {
  name: "lstm1_W_xc_x_slice"
  type: "Slice"
  bottom: "W_xc_x"
  top: "W_xc_x_1"
  top: "W_xc_x_2"
  top: "W_xc_x_3"
  top: "W_xc_x_4"
  slice_param {
    axis: 0
  }
}
layer {
  name: "lstm1_h_conted_0"
  type: "Scale"
  bottom: "h_0"
  bottom: "cont_1"
  top: "h_conted_0"
  scale_param {
    axis: 0
  }
}
layer {
  name: "lstm1_transform_1"
  type: "InnerProduct"
  bottom: "h_conted_0"
  top: "W_hc_h_0"
  param {
    name: "W_hc"
  }
  inner_product_param {
    num_output: 2048
    bias_term: false
    weight_filler {
      type: "uniform"
      min: -0.01
      max: 0.01
    }
    axis: 2
  }
}
layer {
  name: "lstm1_gate_input_1"
  type: "Eltwise"
  bottom: "W_hc_h_0"
  bottom: "W_xc_x_1"
  top: "gate_input_1"
  eltwise_param {
    operation: SUM
  }
}
layer {
  name: "lstm1_unit_1"
  type: "LSTMUnit"
  bottom: "c_0"
  bottom: "gate_input_1"
  bottom: "cont_1"
  top: "c_1"
  top: "h_1"
}
layer {
  name: "lstm1_h_conted_1"
  type: "Scale"
  bottom: "h_1"
  bottom: "cont_2"
  top: "h_conted_1"
  scale_param {
    axis: 0
  }
}
layer {
  name: "lstm1_transform_2"
  type: "InnerProduct"
  bottom: "h_conted_1"
  top: "W_hc_h_1"
  param {
    name: "W_hc"
  }
  inner_product_param {
    num_output: 2048
    bias_term: false
    weight_filler {
      type: "uniform"
      min: -0.01
      max: 0.01
    }
    axis: 2
  }
}
layer {
  name: "lstm1_gate_input_2"
  type: "Eltwise"
  bottom: "W_hc_h_1"
  bottom: "W_xc_x_2"
  top: "gate_input_2"
  eltwise_param {
    operation: SUM
  }
}
layer {
  name: "lstm1_unit_2"
  type: "LSTMUnit"
  bottom: "c_1"
  bottom: "gate_input_2"
  bottom: "cont_2"
  top: "c_2"
  top: "h_2"
}
layer {
  name: "lstm1_h_conted_2"
  type: "Scale"
  bottom: "h_2"
  bottom: "cont_3"
  top: "h_conted_2"
  scale_param {
    axis: 0
  }
}
layer {
  name: "lstm1_transform_3"
  type: "InnerProduct"
  bottom: "h_conted_2"
  top: "W_hc_h_2"
  param {
    name: "W_hc"
  }
  inner_product_param {
    num_output: 2048
    bias_term: false
    weight_filler {
      type: "uniform"
      min: -0.01
      max: 0.01
    }
    axis: 2
  }
}
layer {
  name: "lstm1_gate_input_3"
  type: "Eltwise"
  bottom: "W_hc_h_2"
  bottom: "W_xc_x_3"
  top: "gate_input_3"
  eltwise_param {
    operation: SUM
  }
}
layer {
  name: "lstm1_unit_3"
  type: "LSTMUnit"
  bottom: "c_2"
  bottom: "gate_input_3"
  bottom: "cont_3"
  top: "c_3"
  top: "h_3"
}
layer {
  name: "lstm1_h_conted_3"
  type: "Scale"
  bottom: "h_3"
  bottom: "cont_4"
  top: "h_conted_3"
  scale_param {
    axis: 0
  }
}
layer {
  name: "lstm1_transform_4"
  type: "InnerProduct"
  bottom: "h_conted_3"
  top: "W_hc_h_3"
  param {
    name: "W_hc"
  }
  inner_product_param {
    num_output: 2048
    bias_term: false
    weight_filler {
      type: "uniform"
      min: -0.01
      max: 0.01
    }
    axis: 2
  }
}
layer {
  name: "lstm1_gate_input_4"
  type: "Eltwise"
  bottom: "W_hc_h_3"
  bottom: "W_xc_x_4"
  top: "gate_input_4"
  eltwise_param {
    operation: SUM
  }
}
layer {
  name: "lstm1_unit_4"
  type: "LSTMUnit"
  bottom: "c_3"
  bottom: "gate_input_4"
  bottom: "cont_4"
  top: "c_4"
  top: "h_4"
}
layer {
  name: "lstm1_"
  type: "Split"
  bottom: "c_4"
  top: "c_T"
}
layer {
  name: "lstm1_h_concat"
  type: "Concat"
  bottom: "h_1"
  bottom: "h_2"
  bottom: "h_3"
  bottom: "h_4"
  top: "h"
  concat_param {
    axis: 0
  }
}
layer {
  name: "h_pseudoloss"
  type: "Reduction"
  bottom: "h"
  top: "h_pseudoloss"
  loss_weight: 1
}
I1017 12:04:07.967331 26687 layer_factory.hpp:77] Creating layer lstm1_
I1017 12:04:07.967344 26687 net.cpp:84] Creating Layer lstm1_
I1017 12:04:07.967351 26687 net.cpp:380] lstm1_ -> x
I1017 12:04:07.967363 26687 net.cpp:380] lstm1_ -> cont
I1017 12:04:07.967416 26687 net.cpp:122] Setting up lstm1_
I1017 12:04:07.967423 26687 net.cpp:129] Top shape: 4 50 9 (1800)
I1017 12:04:07.967429 26687 net.cpp:129] Top shape: 4 50 (200)
I1017 12:04:07.967434 26687 net.cpp:137] Memory required for data: 8000
I1017 12:04:07.967439 26687 layer_factory.hpp:77] Creating layer lstm1_
I1017 12:04:07.967447 26687 net.cpp:84] Creating Layer lstm1_
I1017 12:04:07.967455 26687 net.cpp:380] lstm1_ -> c_0
I1017 12:04:07.967464 26687 net.cpp:380] lstm1_ -> h_0
I1017 12:04:07.967519 26687 net.cpp:122] Setting up lstm1_
I1017 12:04:07.967528 26687 net.cpp:129] Top shape: 1 50 512 (25600)
I1017 12:04:07.967535 26687 net.cpp:129] Top shape: 1 50 512 (25600)
I1017 12:04:07.967540 26687 net.cpp:137] Memory required for data: 212800
I1017 12:04:07.967545 26687 layer_factory.hpp:77] Creating layer lstm1_cont_slice
I1017 12:04:07.967555 26687 net.cpp:84] Creating Layer lstm1_cont_slice
I1017 12:04:07.967559 26687 net.cpp:406] lstm1_cont_slice <- cont
I1017 12:04:07.967568 26687 net.cpp:380] lstm1_cont_slice -> cont_1
I1017 12:04:07.967577 26687 net.cpp:380] lstm1_cont_slice -> cont_2
I1017 12:04:07.967586 26687 net.cpp:380] lstm1_cont_slice -> cont_3
I1017 12:04:07.967592 26687 net.cpp:380] lstm1_cont_slice -> cont_4
I1017 12:04:07.967660 26687 net.cpp:122] Setting up lstm1_cont_slice
I1017 12:04:07.967669 26687 net.cpp:129] Top shape: 1 50 (50)
I1017 12:04:07.967674 26687 net.cpp:129] Top shape: 1 50 (50)
I1017 12:04:07.967679 26687 net.cpp:129] Top shape: 1 50 (50)
I1017 12:04:07.967684 26687 net.cpp:129] Top shape: 1 50 (50)
I1017 12:04:07.967689 26687 net.cpp:137] Memory required for data: 213600
I1017 12:04:07.967692 26687 layer_factory.hpp:77] Creating layer cont_1_lstm1_cont_slice_0_split
I1017 12:04:07.967700 26687 net.cpp:84] Creating Layer cont_1_lstm1_cont_slice_0_split
I1017 12:04:07.967705 26687 net.cpp:406] cont_1_lstm1_cont_slice_0_split <- cont_1
I1017 12:04:07.967712 26687 net.cpp:380] cont_1_lstm1_cont_slice_0_split -> cont_1_lstm1_cont_slice_0_split_0
I1017 12:04:07.967720 26687 net.cpp:380] cont_1_lstm1_cont_slice_0_split -> cont_1_lstm1_cont_slice_0_split_1
I1017 12:04:07.967761 26687 net.cpp:122] Setting up cont_1_lstm1_cont_slice_0_split
I1017 12:04:07.967767 26687 net.cpp:129] Top shape: 1 50 (50)
I1017 12:04:07.967772 26687 net.cpp:129] Top shape: 1 50 (50)
I1017 12:04:07.967777 26687 net.cpp:137] Memory required for data: 214000
I1017 12:04:07.967782 26687 layer_factory.hpp:77] Creating layer cont_2_lstm1_cont_slice_1_split
I1017 12:04:07.967787 26687 net.cpp:84] Creating Layer cont_2_lstm1_cont_slice_1_split
I1017 12:04:07.967792 26687 net.cpp:406] cont_2_lstm1_cont_slice_1_split <- cont_2
I1017 12:04:07.967803 26687 net.cpp:380] cont_2_lstm1_cont_slice_1_split -> cont_2_lstm1_cont_slice_1_split_0
I1017 12:04:07.967811 26687 net.cpp:380] cont_2_lstm1_cont_slice_1_split -> cont_2_lstm1_cont_slice_1_split_1
I1017 12:04:07.967849 26687 net.cpp:122] Setting up cont_2_lstm1_cont_slice_1_split
I1017 12:04:07.967855 26687 net.cpp:129] Top shape: 1 50 (50)
I1017 12:04:07.967860 26687 net.cpp:129] Top shape: 1 50 (50)
I1017 12:04:07.967865 26687 net.cpp:137] Memory required for data: 214400
I1017 12:04:07.967869 26687 layer_factory.hpp:77] Creating layer cont_3_lstm1_cont_slice_2_split
I1017 12:04:07.967877 26687 net.cpp:84] Creating Layer cont_3_lstm1_cont_slice_2_split
I1017 12:04:07.967881 26687 net.cpp:406] cont_3_lstm1_cont_slice_2_split <- cont_3
I1017 12:04:07.967888 26687 net.cpp:380] cont_3_lstm1_cont_slice_2_split -> cont_3_lstm1_cont_slice_2_split_0
I1017 12:04:07.967895 26687 net.cpp:380] cont_3_lstm1_cont_slice_2_split -> cont_3_lstm1_cont_slice_2_split_1
I1017 12:04:07.967931 26687 net.cpp:122] Setting up cont_3_lstm1_cont_slice_2_split
I1017 12:04:07.967937 26687 net.cpp:129] Top shape: 1 50 (50)
I1017 12:04:07.967942 26687 net.cpp:129] Top shape: 1 50 (50)
I1017 12:04:07.967947 26687 net.cpp:137] Memory required for data: 214800
I1017 12:04:07.967952 26687 layer_factory.hpp:77] Creating layer cont_4_lstm1_cont_slice_3_split
I1017 12:04:07.967957 26687 net.cpp:84] Creating Layer cont_4_lstm1_cont_slice_3_split
I1017 12:04:07.967962 26687 net.cpp:406] cont_4_lstm1_cont_slice_3_split <- cont_4
I1017 12:04:07.967967 26687 net.cpp:380] cont_4_lstm1_cont_slice_3_split -> cont_4_lstm1_cont_slice_3_split_0
I1017 12:04:07.967974 26687 net.cpp:380] cont_4_lstm1_cont_slice_3_split -> cont_4_lstm1_cont_slice_3_split_1
I1017 12:04:07.968010 26687 net.cpp:122] Setting up cont_4_lstm1_cont_slice_3_split
I1017 12:04:07.968017 26687 net.cpp:129] Top shape: 1 50 (50)
I1017 12:04:07.968022 26687 net.cpp:129] Top shape: 1 50 (50)
I1017 12:04:07.968032 26687 net.cpp:137] Memory required for data: 215200
I1017 12:04:07.968037 26687 layer_factory.hpp:77] Creating layer lstm1_x_transform
I1017 12:04:07.968046 26687 net.cpp:84] Creating Layer lstm1_x_transform
I1017 12:04:07.968051 26687 net.cpp:406] lstm1_x_transform <- x
I1017 12:04:07.968060 26687 net.cpp:380] lstm1_x_transform -> W_xc_x
I1017 12:04:07.968384 26687 net.cpp:122] Setting up lstm1_x_transform
I1017 12:04:07.968394 26687 net.cpp:129] Top shape: 4 50 2048 (409600)
I1017 12:04:07.968399 26687 net.cpp:137] Memory required for data: 1853600
I1017 12:04:07.968410 26687 layer_factory.hpp:77] Creating layer lstm1_W_xc_x_slice
I1017 12:04:07.968420 26687 net.cpp:84] Creating Layer lstm1_W_xc_x_slice
I1017 12:04:07.968425 26687 net.cpp:406] lstm1_W_xc_x_slice <- W_xc_x
I1017 12:04:07.968431 26687 net.cpp:380] lstm1_W_xc_x_slice -> W_xc_x_1
I1017 12:04:07.968439 26687 net.cpp:380] lstm1_W_xc_x_slice -> W_xc_x_2
I1017 12:04:07.968446 26687 net.cpp:380] lstm1_W_xc_x_slice -> W_xc_x_3
I1017 12:04:07.968453 26687 net.cpp:380] lstm1_W_xc_x_slice -> W_xc_x_4
I1017 12:04:07.968796 26687 net.cpp:122] Setting up lstm1_W_xc_x_slice
I1017 12:04:07.968806 26687 net.cpp:129] Top shape: 1 50 2048 (102400)
I1017 12:04:07.968811 26687 net.cpp:129] Top shape: 1 50 2048 (102400)
I1017 12:04:07.968817 26687 net.cpp:129] Top shape: 1 50 2048 (102400)
I1017 12:04:07.968822 26687 net.cpp:129] Top shape: 1 50 2048 (102400)
I1017 12:04:07.968827 26687 net.cpp:137] Memory required for data: 3492000
I1017 12:04:07.968832 26687 layer_factory.hpp:77] Creating layer lstm1_h_conted_0
I1017 12:04:07.968839 26687 net.cpp:84] Creating Layer lstm1_h_conted_0
I1017 12:04:07.968844 26687 net.cpp:406] lstm1_h_conted_0 <- h_0
I1017 12:04:07.968852 26687 net.cpp:406] lstm1_h_conted_0 <- cont_1_lstm1_cont_slice_0_split_0
I1017 12:04:07.968858 26687 net.cpp:380] lstm1_h_conted_0 -> h_conted_0
I1017 12:04:07.968943 26687 net.cpp:122] Setting up lstm1_h_conted_0
I1017 12:04:07.968951 26687 net.cpp:129] Top shape: 1 50 512 (25600)
I1017 12:04:07.968956 26687 net.cpp:137] Memory required for data: 3594400
I1017 12:04:07.968961 26687 layer_factory.hpp:77] Creating layer lstm1_transform_1
I1017 12:04:07.968967 26687 net.cpp:84] Creating Layer lstm1_transform_1
I1017 12:04:07.968972 26687 net.cpp:406] lstm1_transform_1 <- h_conted_0
I1017 12:04:07.968981 26687 net.cpp:380] lstm1_transform_1 -> W_hc_h_0
I1017 12:04:07.982307 26687 net.cpp:122] Setting up lstm1_transform_1
I1017 12:04:07.982326 26687 net.cpp:129] Top shape: 1 50 2048 (102400)
I1017 12:04:07.982349 26687 net.cpp:137] Memory required for data: 4004000
I1017 12:04:07.982359 26687 layer_factory.hpp:77] Creating layer lstm1_gate_input_1
I1017 12:04:07.982372 26687 net.cpp:84] Creating Layer lstm1_gate_input_1
I1017 12:04:07.982376 26687 net.cpp:406] lstm1_gate_input_1 <- W_hc_h_0
I1017 12:04:07.982383 26687 net.cpp:406] lstm1_gate_input_1 <- W_xc_x_1
I1017 12:04:07.982390 26687 net.cpp:380] lstm1_gate_input_1 -> gate_input_1
I1017 12:04:07.982424 26687 net.cpp:122] Setting up lstm1_gate_input_1
I1017 12:04:07.982431 26687 net.cpp:129] Top shape: 1 50 2048 (102400)
I1017 12:04:07.982435 26687 net.cpp:137] Memory required for data: 4413600
I1017 12:04:07.982439 26687 layer_factory.hpp:77] Creating layer lstm1_unit_1
I1017 12:04:07.982446 26687 net.cpp:84] Creating Layer lstm1_unit_1
I1017 12:04:07.982451 26687 net.cpp:406] lstm1_unit_1 <- c_0
I1017 12:04:07.982457 26687 net.cpp:406] lstm1_unit_1 <- gate_input_1
I1017 12:04:07.982462 26687 net.cpp:406] lstm1_unit_1 <- cont_1_lstm1_cont_slice_0_split_1
I1017 12:04:07.982471 26687 net.cpp:380] lstm1_unit_1 -> c_1
I1017 12:04:07.982480 26687 net.cpp:380] lstm1_unit_1 -> h_1
I1017 12:04:07.982534 26687 net.cpp:122] Setting up lstm1_unit_1
I1017 12:04:07.982542 26687 net.cpp:129] Top shape: 1 50 512 (25600)
I1017 12:04:07.982547 26687 net.cpp:129] Top shape: 1 50 512 (25600)
I1017 12:04:07.982553 26687 net.cpp:137] Memory required for data: 4618400
I1017 12:04:07.982556 26687 layer_factory.hpp:77] Creating layer h_1_lstm1_unit_1_1_split
I1017 12:04:07.982563 26687 net.cpp:84] Creating Layer h_1_lstm1_unit_1_1_split
I1017 12:04:07.982568 26687 net.cpp:406] h_1_lstm1_unit_1_1_split <- h_1
I1017 12:04:07.982574 26687 net.cpp:380] h_1_lstm1_unit_1_1_split -> h_1_lstm1_unit_1_1_split_0
I1017 12:04:07.982583 26687 net.cpp:380] h_1_lstm1_unit_1_1_split -> h_1_lstm1_unit_1_1_split_1
I1017 12:04:07.982621 26687 net.cpp:122] Setting up h_1_lstm1_unit_1_1_split
I1017 12:04:07.982628 26687 net.cpp:129] Top shape: 1 50 512 (25600)
I1017 12:04:07.982635 26687 net.cpp:129] Top shape: 1 50 512 (25600)
I1017 12:04:07.982638 26687 net.cpp:137] Memory required for data: 4823200
I1017 12:04:07.982643 26687 layer_factory.hpp:77] Creating layer lstm1_h_conted_1
I1017 12:04:07.982650 26687 net.cpp:84] Creating Layer lstm1_h_conted_1
I1017 12:04:07.982656 26687 net.cpp:406] lstm1_h_conted_1 <- h_1_lstm1_unit_1_1_split_0
I1017 12:04:07.982661 26687 net.cpp:406] lstm1_h_conted_1 <- cont_2_lstm1_cont_slice_1_split_0
I1017 12:04:07.982669 26687 net.cpp:380] lstm1_h_conted_1 -> h_conted_1
I1017 12:04:07.982738 26687 net.cpp:122] Setting up lstm1_h_conted_1
I1017 12:04:07.982748 26687 net.cpp:129] Top shape: 1 50 512 (25600)
I1017 12:04:07.982753 26687 net.cpp:137] Memory required for data: 4925600
I1017 12:04:07.982758 26687 layer_factory.hpp:77] Creating layer lstm1_transform_2
I1017 12:04:07.982765 26687 net.cpp:84] Creating Layer lstm1_transform_2
I1017 12:04:07.982770 26687 net.cpp:406] lstm1_transform_2 <- h_conted_1
I1017 12:04:07.982780 26687 net.cpp:380] lstm1_transform_2 -> W_hc_h_1
I1017 12:04:07.995965 26687 net.cpp:122] Setting up lstm1_transform_2
I1017 12:04:07.995983 26687 net.cpp:129] Top shape: 1 50 2048 (102400)
I1017 12:04:07.995990 26687 net.cpp:137] Memory required for data: 5335200
I1017 12:04:07.995995 26687 net.cpp:465] Sharing parameters 'W_hc' owned by layer 'lstm1_transform_1', param index 0
I1017 12:04:07.996001 26687 layer_factory.hpp:77] Creating layer lstm1_gate_input_2
I1017 12:04:07.996011 26687 net.cpp:84] Creating Layer lstm1_gate_input_2
I1017 12:04:07.996017 26687 net.cpp:406] lstm1_gate_input_2 <- W_hc_h_1
I1017 12:04:07.996024 26687 net.cpp:406] lstm1_gate_input_2 <- W_xc_x_2
I1017 12:04:07.996038 26687 net.cpp:380] lstm1_gate_input_2 -> gate_input_2
I1017 12:04:07.996071 26687 net.cpp:122] Setting up lstm1_gate_input_2
I1017 12:04:07.996079 26687 net.cpp:129] Top shape: 1 50 2048 (102400)
I1017 12:04:07.996083 26687 net.cpp:137] Memory required for data: 5744800
I1017 12:04:07.996088 26687 layer_factory.hpp:77] Creating layer lstm1_unit_2
I1017 12:04:07.996096 26687 net.cpp:84] Creating Layer lstm1_unit_2
I1017 12:04:07.996101 26687 net.cpp:406] lstm1_unit_2 <- c_1
I1017 12:04:07.996107 26687 net.cpp:406] lstm1_unit_2 <- gate_input_2
I1017 12:04:07.996114 26687 net.cpp:406] lstm1_unit_2 <- cont_2_lstm1_cont_slice_1_split_1
I1017 12:04:07.996119 26687 net.cpp:380] lstm1_unit_2 -> c_2
I1017 12:04:07.996130 26687 net.cpp:380] lstm1_unit_2 -> h_2
I1017 12:04:07.996186 26687 net.cpp:122] Setting up lstm1_unit_2
I1017 12:04:07.996193 26687 net.cpp:129] Top shape: 1 50 512 (25600)
I1017 12:04:07.996199 26687 net.cpp:129] Top shape: 1 50 512 (25600)
I1017 12:04:07.996203 26687 net.cpp:137] Memory required for data: 5949600
I1017 12:04:07.996208 26687 layer_factory.hpp:77] Creating layer h_2_lstm1_unit_2_1_split
I1017 12:04:07.996214 26687 net.cpp:84] Creating Layer h_2_lstm1_unit_2_1_split
I1017 12:04:07.996219 26687 net.cpp:406] h_2_lstm1_unit_2_1_split <- h_2
I1017 12:04:07.996227 26687 net.cpp:380] h_2_lstm1_unit_2_1_split -> h_2_lstm1_unit_2_1_split_0
I1017 12:04:07.996233 26687 net.cpp:380] h_2_lstm1_unit_2_1_split -> h_2_lstm1_unit_2_1_split_1
I1017 12:04:07.996271 26687 net.cpp:122] Setting up h_2_lstm1_unit_2_1_split
I1017 12:04:07.996279 26687 net.cpp:129] Top shape: 1 50 512 (25600)
I1017 12:04:07.996284 26687 net.cpp:129] Top shape: 1 50 512 (25600)
I1017 12:04:07.996289 26687 net.cpp:137] Memory required for data: 6154400
I1017 12:04:07.996294 26687 layer_factory.hpp:77] Creating layer lstm1_h_conted_2
I1017 12:04:07.996302 26687 net.cpp:84] Creating Layer lstm1_h_conted_2
I1017 12:04:07.996307 26687 net.cpp:406] lstm1_h_conted_2 <- h_2_lstm1_unit_2_1_split_0
I1017 12:04:07.996314 26687 net.cpp:406] lstm1_h_conted_2 <- cont_3_lstm1_cont_slice_2_split_0
I1017 12:04:07.996320 26687 net.cpp:380] lstm1_h_conted_2 -> h_conted_2
I1017 12:04:07.996387 26687 net.cpp:122] Setting up lstm1_h_conted_2
I1017 12:04:07.996393 26687 net.cpp:129] Top shape: 1 50 512 (25600)
I1017 12:04:07.996397 26687 net.cpp:137] Memory required for data: 6256800
I1017 12:04:07.996402 26687 layer_factory.hpp:77] Creating layer lstm1_transform_3
I1017 12:04:07.996412 26687 net.cpp:84] Creating Layer lstm1_transform_3
I1017 12:04:07.996417 26687 net.cpp:406] lstm1_transform_3 <- h_conted_2
I1017 12:04:07.996425 26687 net.cpp:380] lstm1_transform_3 -> W_hc_h_2
I1017 12:04:08.009876 26687 net.cpp:122] Setting up lstm1_transform_3
I1017 12:04:08.009904 26687 net.cpp:129] Top shape: 1 50 2048 (102400)
I1017 12:04:08.009910 26687 net.cpp:137] Memory required for data: 6666400
I1017 12:04:08.009919 26687 net.cpp:465] Sharing parameters 'W_hc' owned by layer 'lstm1_transform_1', param index 0
I1017 12:04:08.009925 26687 layer_factory.hpp:77] Creating layer lstm1_gate_input_3
I1017 12:04:08.009937 26687 net.cpp:84] Creating Layer lstm1_gate_input_3
I1017 12:04:08.009943 26687 net.cpp:406] lstm1_gate_input_3 <- W_hc_h_2
I1017 12:04:08.009950 26687 net.cpp:406] lstm1_gate_input_3 <- W_xc_x_3
I1017 12:04:08.009958 26687 net.cpp:380] lstm1_gate_input_3 -> gate_input_3
I1017 12:04:08.009992 26687 net.cpp:122] Setting up lstm1_gate_input_3
I1017 12:04:08.009999 26687 net.cpp:129] Top shape: 1 50 2048 (102400)
I1017 12:04:08.010004 26687 net.cpp:137] Memory required for data: 7076000
I1017 12:04:08.010009 26687 layer_factory.hpp:77] Creating layer lstm1_unit_3
I1017 12:04:08.010016 26687 net.cpp:84] Creating Layer lstm1_unit_3
I1017 12:04:08.010021 26687 net.cpp:406] lstm1_unit_3 <- c_2
I1017 12:04:08.010027 26687 net.cpp:406] lstm1_unit_3 <- gate_input_3
I1017 12:04:08.010033 26687 net.cpp:406] lstm1_unit_3 <- cont_3_lstm1_cont_slice_2_split_1
I1017 12:04:08.010041 26687 net.cpp:380] lstm1_unit_3 -> c_3
I1017 12:04:08.010049 26687 net.cpp:380] lstm1_unit_3 -> h_3
I1017 12:04:08.010102 26687 net.cpp:122] Setting up lstm1_unit_3
I1017 12:04:08.010109 26687 net.cpp:129] Top shape: 1 50 512 (25600)
I1017 12:04:08.010115 26687 net.cpp:129] Top shape: 1 50 512 (25600)
I1017 12:04:08.010119 26687 net.cpp:137] Memory required for data: 7280800
I1017 12:04:08.010124 26687 layer_factory.hpp:77] Creating layer h_3_lstm1_unit_3_1_split
I1017 12:04:08.010131 26687 net.cpp:84] Creating Layer h_3_lstm1_unit_3_1_split
I1017 12:04:08.010136 26687 net.cpp:406] h_3_lstm1_unit_3_1_split <- h_3
I1017 12:04:08.010143 26687 net.cpp:380] h_3_lstm1_unit_3_1_split -> h_3_lstm1_unit_3_1_split_0
I1017 12:04:08.010150 26687 net.cpp:380] h_3_lstm1_unit_3_1_split -> h_3_lstm1_unit_3_1_split_1
I1017 12:04:08.010188 26687 net.cpp:122] Setting up h_3_lstm1_unit_3_1_split
I1017 12:04:08.010196 26687 net.cpp:129] Top shape: 1 50 512 (25600)
I1017 12:04:08.010206 26687 net.cpp:129] Top shape: 1 50 512 (25600)
I1017 12:04:08.010213 26687 net.cpp:137] Memory required for data: 7485600
I1017 12:04:08.010221 26687 layer_factory.hpp:77] Creating layer lstm1_h_conted_3
I1017 12:04:08.010233 26687 net.cpp:84] Creating Layer lstm1_h_conted_3
I1017 12:04:08.010241 26687 net.cpp:406] lstm1_h_conted_3 <- h_3_lstm1_unit_3_1_split_0
I1017 12:04:08.010247 26687 net.cpp:406] lstm1_h_conted_3 <- cont_4_lstm1_cont_slice_3_split_0
I1017 12:04:08.010257 26687 net.cpp:380] lstm1_h_conted_3 -> h_conted_3
I1017 12:04:08.010329 26687 net.cpp:122] Setting up lstm1_h_conted_3
I1017 12:04:08.010339 26687 net.cpp:129] Top shape: 1 50 512 (25600)
I1017 12:04:08.010344 26687 net.cpp:137] Memory required for data: 7588000
I1017 12:04:08.010349 26687 layer_factory.hpp:77] Creating layer lstm1_transform_4
I1017 12:04:08.010357 26687 net.cpp:84] Creating Layer lstm1_transform_4
I1017 12:04:08.010362 26687 net.cpp:406] lstm1_transform_4 <- h_conted_3
I1017 12:04:08.010371 26687 net.cpp:380] lstm1_transform_4 -> W_hc_h_3
I1017 12:04:08.023985 26687 net.cpp:122] Setting up lstm1_transform_4
I1017 12:04:08.024014 26687 net.cpp:129] Top shape: 1 50 2048 (102400)
I1017 12:04:08.024019 26687 net.cpp:137] Memory required for data: 7997600
I1017 12:04:08.024034 26687 net.cpp:465] Sharing parameters 'W_hc' owned by layer 'lstm1_transform_1', param index 0
I1017 12:04:08.024047 26687 layer_factory.hpp:77] Creating layer lstm1_gate_input_4
I1017 12:04:08.024061 26687 net.cpp:84] Creating Layer lstm1_gate_input_4
I1017 12:04:08.024067 26687 net.cpp:406] lstm1_gate_input_4 <- W_hc_h_3
I1017 12:04:08.024076 26687 net.cpp:406] lstm1_gate_input_4 <- W_xc_x_4
I1017 12:04:08.024086 26687 net.cpp:380] lstm1_gate_input_4 -> gate_input_4
I1017 12:04:08.024130 26687 net.cpp:122] Setting up lstm1_gate_input_4
I1017 12:04:08.024138 26687 net.cpp:129] Top shape: 1 50 2048 (102400)
I1017 12:04:08.024142 26687 net.cpp:137] Memory required for data: 8407200
I1017 12:04:08.024147 26687 layer_factory.hpp:77] Creating layer lstm1_unit_4
I1017 12:04:08.024155 26687 net.cpp:84] Creating Layer lstm1_unit_4
I1017 12:04:08.024160 26687 net.cpp:406] lstm1_unit_4 <- c_3
I1017 12:04:08.024166 26687 net.cpp:406] lstm1_unit_4 <- gate_input_4
I1017 12:04:08.024173 26687 net.cpp:406] lstm1_unit_4 <- cont_4_lstm1_cont_slice_3_split_1
I1017 12:04:08.024178 26687 net.cpp:380] lstm1_unit_4 -> c_4
I1017 12:04:08.024188 26687 net.cpp:380] lstm1_unit_4 -> h_4
I1017 12:04:08.024240 26687 net.cpp:122] Setting up lstm1_unit_4
I1017 12:04:08.024247 26687 net.cpp:129] Top shape: 1 50 512 (25600)
I1017 12:04:08.024253 26687 net.cpp:129] Top shape: 1 50 512 (25600)
I1017 12:04:08.024258 26687 net.cpp:137] Memory required for data: 8612000
I1017 12:04:08.024263 26687 layer_factory.hpp:77] Creating layer lstm1_
I1017 12:04:08.024271 26687 net.cpp:84] Creating Layer lstm1_
I1017 12:04:08.024278 26687 net.cpp:406] lstm1_ <- c_4
I1017 12:04:08.024286 26687 net.cpp:380] lstm1_ -> c_T
I1017 12:04:08.024344 26687 net.cpp:122] Setting up lstm1_
I1017 12:04:08.024354 26687 net.cpp:129] Top shape: 1 50 512 (25600)
I1017 12:04:08.024359 26687 net.cpp:137] Memory required for data: 8714400
I1017 12:04:08.024364 26687 layer_factory.hpp:77] Creating layer lstm1_h_concat
I1017 12:04:08.024376 26687 net.cpp:84] Creating Layer lstm1_h_concat
I1017 12:04:08.024381 26687 net.cpp:406] lstm1_h_concat <- h_1_lstm1_unit_1_1_split_1
I1017 12:04:08.024389 26687 net.cpp:406] lstm1_h_concat <- h_2_lstm1_unit_2_1_split_1
I1017 12:04:08.024394 26687 net.cpp:406] lstm1_h_concat <- h_3_lstm1_unit_3_1_split_1
I1017 12:04:08.024399 26687 net.cpp:406] lstm1_h_concat <- h_4
I1017 12:04:08.024405 26687 net.cpp:380] lstm1_h_concat -> h
I1017 12:04:08.024435 26687 net.cpp:122] Setting up lstm1_h_concat
I1017 12:04:08.024443 26687 net.cpp:129] Top shape: 4 50 512 (102400)
I1017 12:04:08.024447 26687 net.cpp:137] Memory required for data: 9124000
I1017 12:04:08.024452 26687 layer_factory.hpp:77] Creating layer h_pseudoloss
I1017 12:04:08.024461 26687 net.cpp:84] Creating Layer h_pseudoloss
I1017 12:04:08.024466 26687 net.cpp:406] h_pseudoloss <- h
I1017 12:04:08.024474 26687 net.cpp:380] h_pseudoloss -> h_pseudoloss
I1017 12:04:08.025492 26687 net.cpp:122] Setting up h_pseudoloss
…
I1017 12:04:08.025701 26687 net.cpp:200] lstm1_ does not need backward computation.
I1017 12:04:08.025707 26687 net.cpp:242] This network produces output c_T
I1017 12:04:08.025712 26687 net.cpp:242] This network produces output h_pseudoloss
I1017 12:04:08.028609 26687 net.cpp:255] Network initialization done.
I1017 12:04:08.028704 26687 recurrent_layer.cpp:150] Adding parameter 0: W_xc
I1017 12:04:08.028722 26687 recurrent_layer.cpp:150] Adding parameter 1: b_c
I1017 12:04:08.028726 26687 recurrent_layer.cpp:150] Adding parameter 2: W_hc
I1017 12:04:08.028934 26687 net.cpp:122] Setting up lstm1
I1017 12:04:08.028947 26687 net.cpp:129] Top shape: 4 50 512 (102400)
I1017 12:04:08.028952 26687 net.cpp:137] Memory required for data: 9565707000
I1017 12:04:08.028971 26687 layer_factory.hpp:77] Creating layer lstm1-drop
I1017 12:04:08.028980 26687 net.cpp:84] Creating Layer lstm1-drop
I1017 12:04:08.028987 26687 net.cpp:406] lstm1-drop <- lstm1
I1017 12:04:08.028995 26687 net.cpp:380] lstm1-drop -> lstm1-drop
I1017 12:04:08.029040 26687 net.cpp:122] Setting up lstm1-drop
I1017 12:04:08.029050 26687 net.cpp:129] Top shape: 4 50 512 (102400)
I1017 12:04:08.029055 26687 net.cpp:137] Memory required for data: 9566116600
I1017 12:04:08.029060 26687 layer_factory.hpp:77] Creating layer fc-final
I1017 12:04:08.029070 26687 net.cpp:84] Creating Layer fc-final
I1017 12:04:08.029075 26687 net.cpp:406] fc-final <- lstm1-drop
I1017 12:04:08.029083 26687 net.cpp:380] fc-final -> fc-final
I1017 12:04:08.029417 26687 net.cpp:122] Setting up fc-final
I1017 12:04:08.029428 26687 net.cpp:129] Top shape: 4 50 10 (2000)
I1017 12:04:08.029433 26687 net.cpp:137] Memory required for data: 9566124600
I1017 12:04:08.029441 26687 layer_factory.hpp:77] Creating layer fc-final_fc-final_0_split
I1017 12:04:08.029448 26687 net.cpp:84] Creating Layer fc-final_fc-final_0_split
I1017 12:04:08.029453 26687 net.cpp:406] fc-final_fc-final_0_split <- fc-final
I1017 12:04:08.029460 26687 net.cpp:380] fc-final_fc-final_0_split -> fc-final_fc-final_0_split_0
I1017 12:04:08.029469 26687 net.cpp:380] fc-final_fc-final_0_split -> fc-final_fc-final_0_split_1
I1017 12:04:08.029513 26687 net.cpp:122] Setting up fc-final_fc-final_0_split
I1017 12:04:08.029520 26687 net.cpp:129] Top shape: 4 50 10 (2000)
I1017 12:04:08.029526 26687 net.cpp:129] Top shape: 4 50 10 (2000)
I1017 12:04:08.029531 26687 net.cpp:137] Memory required for data: 9566140600
I1017 12:04:08.029536 26687 layer_factory.hpp:77] Creating layer loss
I1017 12:04:08.029543 26687 net.cpp:84] Creating Layer loss
I1017 12:04:08.029548 26687 net.cpp:406] loss <- fc-final_fc-final_0_split_0
I1017 12:04:08.029556 26687 net.cpp:406] loss <- reshape-label_label_tran_0_split_0
I1017 12:04:08.029561 26687 net.cpp:380] loss -> loss
…
