…
I1017 12:28:07.318241 27481 net.cpp:294] The NetState phase (0) differed from the phase (1) specified by a rule in layer Silence
I1017 12:28:07.318470 27481 net.cpp:51] Initializing net from parameters: 
name: "VGG_16_layers_LSTM"
state {
  phase: TRAIN
  level: 0
  stage: ""
}
layer {
  name: "data"
  type: "ImageData"
  top: "data"
  top: "label"
  include {
    phase: TRAIN
  }
  transform_param {
    mirror: true
    crop_size: 288
    mean_value: 104
    mean_value: 117
    mean_value: 123
  }
  image_data_param {
    source: "../Data/lsun_train_list_12w.txt"
    batch_size: 4
    shuffle: true
    new_height: 320
    new_width: 320
  }
}
layer {
  name: "label_tran"
  type: "Python"
  bottom: "label"
  top: "reshape-label"
  top: "clip_markers"
  python_param {
    module: "data_preparation_sort_max_clip"
    layer: "ReshapeLabel"
  }
}
layer {
  name: "conv1_1"
  type: "Convolution"
  bottom: "data"
  top: "conv1_1"
  convolution_param {
    num_output: 64
    pad: 1
    kernel_size: 3
  }
}
layer {
  name: "relu1_1"
  type: "ReLU"
  bottom: "conv1_1"
  top: "conv1_1"
}
layer {
  name: "conv1_2"
  type: "Convolution"
  bottom: "conv1_1"
  top: "conv1_2"
  convolution_param {
    num_output: 64
    pad: 1
    kernel_size: 3
  }
}
layer {
  name: "relu1_2"
  type: "ReLU"
  bottom: "conv1_2"
  top: "conv1_2"
}
layer {
  name: "pool1"
  type: "Pooling"
  bottom: "conv1_2"
  top: "pool1"
  pooling_param {
    pool: MAX
    kernel_size: 2
    stride: 2
  }
}
layer {
  name: "conv2_1"
  type: "Convolution"
  bottom: "pool1"
  top: "conv2_1"
  convolution_param {
    num_output: 128
    pad: 1
    kernel_size: 3
  }
}
layer {
  name: "relu2_1"
  type: "ReLU"
  bottom: "conv2_1"
  top: "conv2_1"
}
layer {
  name: "conv2_2"
  type: "Convolution"
  bottom: "conv2_1"
  top: "conv2_2"
  convolution_param {
    num_output: 128
    pad: 1
    kernel_size: 3
  }
}
layer {
  name: "relu2_2"
  type: "ReLU"
  bottom: "conv2_2"
  top: "conv2_2"
}
layer {
  name: "pool2"
  type: "Pooling"
  bottom: "conv2_2"
  top: "pool2"
  pooling_param {
    pool: MAX
    kernel_size: 2
    stride: 2
  }
}
layer {
  name: "conv3_1"
  type: "Convolution"
  bottom: "pool2"
  top: "conv3_1"
  convolution_param {
    num_output: 256
    pad: 1
    kernel_size: 3
  }
}
layer {
  name: "relu3_1"
  type: "ReLU"
  bottom: "conv3_1"
  top: "conv3_1"
}
layer {
  name: "conv3_2"
  type: "Convolution"
  bottom: "conv3_1"
  top: "conv3_2"
  convolution_param {
    num_output: 256
    pad: 1
    kernel_size: 3
  }
}
layer {
  name: "relu3_2"
  type: "ReLU"
  bottom: "conv3_2"
  top: "conv3_2"
}
layer {
  name: "conv3_3"
  type: "Convolution"
  bottom: "conv3_2"
  top: "conv3_3"
  convolution_param {
    num_output: 256
    pad: 1
    kernel_size: 3
  }
}
layer {
  name: "relu3_3"
  type: "ReLU"
  bottom: "conv3_3"
  top: "conv3_3"
}
layer {
  name: "pool3"
  type: "Pooling"
  bottom: "conv3_3"
  top: "pool3"
  pooling_param {
    pool: MAX
    kernel_size: 2
    stride: 2
  }
}
layer {
  name: "conv4_1"
  type: "Convolution"
  bottom: "pool3"
  top: "conv4_1"
  convolution_param {
    num_output: 512
    pad: 1
    kernel_size: 3
  }
}
layer {
  name: "relu4_1"
  type: "ReLU"
  bottom: "conv4_1"
  top: "conv4_1"
}
layer {
  name: "conv4_2"
  type: "Convolution"
  bottom: "conv4_1"
  top: "conv4_2"
  convolution_param {
    num_output: 512
    pad: 1
    kernel_size: 3
  }
}
layer {
  name: "relu4_2"
  type: "ReLU"
  bottom: "conv4_2"
  top: "conv4_2"
}
layer {
  name: "conv4_3"
  type: "Convolution"
  bottom: "conv4_2"
  top: "conv4_3"
  convolution_param {
    num_output: 512
    pad: 1
    kernel_size: 3
  }
}
layer {
  name: "relu4_3"
  type: "ReLU"
  bottom: "conv4_3"
  top: "conv4_3"
}
layer {
  name: "pool4"
  type: "Pooling"
  bottom: "conv4_3"
  top: "pool4"
  pooling_param {
    pool: MAX
    kernel_size: 2
    stride: 2
  }
}
layer {
  name: "conv5_1"
  type: "Convolution"
  bottom: "pool4"
  top: "conv5_1"
  convolution_param {
    num_output: 512
    pad: 1
    kernel_size: 3
  }
}
layer {
  name: "relu5_1"
  type: "ReLU"
  bottom: "conv5_1"
  top: "conv5_1"
}
layer {
  name: "conv5_2"
  type: "Convolution"
  bottom: "conv5_1"
  top: "conv5_2"
  convolution_param {
    num_output: 512
    pad: 1
    kernel_size: 3
  }
}
layer {
  name: "relu5_2"
  type: "ReLU"
  bottom: "conv5_2"
  top: "conv5_2"
}
layer {
  name: "conv5_3"
  type: "Convolution"
  bottom: "conv5_2"
  top: "conv5_3"
  convolution_param {
    num_output: 512
    pad: 1
    kernel_size: 3
  }
}
layer {
  name: "relu5_3"
  type: "ReLU"
  bottom: "conv5_3"
  top: "conv5_3"
}
layer {
  name: "pool5"
  type: "Pooling"
  bottom: "conv5_3"
  top: "pool5"
  pooling_param {
    pool: MAX
    kernel_size: 2
    stride: 2
  }
}
layer {
  name: "fc6-conv"
  type: "Convolution"
  bottom: "pool5"
  top: "fc6-conv"
  convolution_param {
    num_output: 4096
    kernel_size: 7
  }
}
layer {
  name: "relu6"
  type: "ReLU"
  bottom: "fc6-conv"
  top: "fc6-conv"
}
layer {
  name: "drop6"
  type: "Dropout"
  bottom: "fc6-conv"
  top: "fc6-conv"
  dropout_param {
    dropout_ratio: 0.5
  }
}
layer {
  name: "fc6-conv_re"
  type: "Reshape"
  bottom: "fc6-conv"
  top: "fc6-conv_re"
  reshape_param {
    shape {
      dim: 0
      dim: 0
      dim: -1
    }
  }
}
layer {
  name: "fc6-conv_tran"
  type: "Python"
  bottom: "fc6-conv_re"
  top: "fc6-conv_tran"
  python_param {
    module: "data_preparation_sort_max_clip"
    layer: "DataTransposeSortMaxClip"
  }
}
layer {
  name: "lstm1"
  type: "LSTM"
  bottom: "fc6-conv_tran"
  bottom: "clip_markers"
  top: "lstm1"
  recurrent_param {
    num_output: 512
    weight_filler {
      type: "uniform"
      min: -0.01
      max: 0.01
    }
    bias_filler {
      type: "constant"
      value: 0
    }
  }
}
layer {
  name: "lstm1-drop"
  type: "Dropout"
  bottom: "lstm1"
  top: "lstm1-drop"
  dropout_param {
    dropout_ratio: 0.5
  }
}
layer {
  name: "fc-final"
  type: "InnerProduct"
  bottom: "lstm1-drop"
  top: "fc-final"
  param {
    lr_mult: 1
    decay_mult: 1
  }
  param {
    lr_mult: 2
    decay_mult: 0
  }
  inner_product_param {
    num_output: 10
    weight_filler {
      type: "gaussian"
      std: 0.01
    }
    bias_filler {
      type: "constant"
      value: 0
    }
    axis: 2
  }
}
layer {
  name: "loss"
  type: "SoftmaxWithLoss"
  bottom: "fc-final"
  bottom: "reshape-label"
  top: "loss"
  softmax_param {
    axis: 2
  }
}
layer {
  name: "accuracy"
  type: "Accuracy"
  bottom: "fc-final"
  bottom: "reshape-label"
  top: "accuracy"
  accuracy_param {
    axis: 2
  }
}
I1017 12:28:07.318713 27481 layer_factory.hpp:77] Creating layer data
I1017 12:28:07.318768 27481 net.cpp:84] Creating Layer data
I1017 12:28:07.318783 27481 net.cpp:380] data -> data
I1017 12:28:07.318828 27481 net.cpp:380] data -> label
I1017 12:28:07.318864 27481 image_data_layer.cpp:38] Opening file ../Data/lsun_train_list_12w.txt
I1017 12:28:07.961791 27481 image_data_layer.cpp:53] Shuffling data
I1017 12:28:08.300021 27481 image_data_layer.cpp:63] A total of 1200000 images.
I1017 12:28:08.313604 27481 image_data_layer.cpp:90] output data size: 4,3,288,288
I1017 12:28:08.332182 27481 net.cpp:122] Setting up data
I1017 12:28:08.332250 27481 net.cpp:129] Top shape: 4 3 288 288 (995328)
I1017 12:28:08.332267 27481 net.cpp:129] Top shape: 4 (4)
I1017 12:28:08.332285 27481 net.cpp:137] Memory required for data: 3981328
I1017 12:28:08.332309 27481 layer_factory.hpp:77] Creating layer label_tran
I1017 12:28:09.025521 27481 net.cpp:84] Creating Layer label_tran
I1017 12:28:09.025562 27481 net.cpp:406] label_tran <- label
I1017 12:28:09.025594 27481 net.cpp:380] label_tran -> reshape-label
I1017 12:28:09.025674 27481 net.cpp:380] label_tran -> clip_markers
I1017 12:28:09.027074 27481 net.cpp:122] Setting up label_tran
I1017 12:28:09.027245 27481 net.cpp:129] Top shape: 4 4 (16)
I1017 12:28:09.027261 27481 net.cpp:129] Top shape: 4 4 (16)
I1017 12:28:09.027266 27481 net.cpp:137] Memory required for data: 3981456
I1017 12:28:09.027274 27481 layer_factory.hpp:77] Creating layer reshape-label_label_tran_0_split
I1017 12:28:09.027295 27481 net.cpp:84] Creating Layer reshape-label_label_tran_0_split
I1017 12:28:09.027302 27481 net.cpp:406] reshape-label_label_tran_0_split <- reshape-label
I1017 12:28:09.027309 27481 net.cpp:380] reshape-label_label_tran_0_split -> reshape-label_label_tran_0_split_0
I1017 12:28:09.027319 27481 net.cpp:380] reshape-label_label_tran_0_split -> reshape-label_label_tran_0_split_1
I1017 12:28:09.027365 27481 net.cpp:122] Setting up reshape-label_label_tran_0_split
I1017 12:28:09.027377 27481 net.cpp:129] Top shape: 4 4 (16)
I1017 12:28:09.027382 27481 net.cpp:129] Top shape: 4 4 (16)
I1017 12:28:09.027387 27481 net.cpp:137] Memory required for data: 3981584
I1017 12:28:09.027392 27481 layer_factory.hpp:77] Creating layer conv1_1
I1017 12:28:09.027416 27481 net.cpp:84] Creating Layer conv1_1
I1017 12:28:09.027428 27481 net.cpp:406] conv1_1 <- data
I1017 12:28:09.027436 27481 net.cpp:380] conv1_1 -> conv1_1
I1017 12:28:09.031937 27481 net.cpp:122] Setting up conv1_1
I1017 12:28:09.031992 27481 net.cpp:129] Top shape: 4 64 288 288 (21233664)
I1017 12:28:09.032006 27481 net.cpp:137] Memory required for data: 88916240
I1017 12:28:09.032099 27481 layer_factory.hpp:77] Creating layer relu1_1
I1017 12:28:09.032138 27481 net.cpp:84] Creating Layer relu1_1
I1017 12:28:09.032158 27481 net.cpp:406] relu1_1 <- conv1_1
I1017 12:28:09.032176 27481 net.cpp:367] relu1_1 -> conv1_1 (in-place)
I1017 12:28:09.032207 27481 net.cpp:122] Setting up relu1_1
I1017 12:28:09.032223 27481 net.cpp:129] Top shape: 4 64 288 288 (21233664)
I1017 12:28:09.032233 27481 net.cpp:137] Memory required for data: 173850896
I1017 12:28:09.032243 27481 layer_factory.hpp:77] Creating layer conv1_2
I1017 12:28:09.032261 27481 net.cpp:84] Creating Layer conv1_2
I1017 12:28:09.032271 27481 net.cpp:406] conv1_2 <- conv1_1
I1017 12:28:09.032286 27481 net.cpp:380] conv1_2 -> conv1_2
I1017 12:28:09.034152 27481 net.cpp:122] Setting up conv1_2
I1017 12:28:09.034185 27481 net.cpp:129] Top shape: 4 64 288 288 (21233664)
I1017 12:28:09.034196 27481 net.cpp:137] Memory required for data: 258785552
I1017 12:28:09.034225 27481 layer_factory.hpp:77] Creating layer relu1_2
I1017 12:28:09.034245 27481 net.cpp:84] Creating Layer relu1_2
I1017 12:28:09.034256 27481 net.cpp:406] relu1_2 <- conv1_2
I1017 12:28:09.034271 27481 net.cpp:367] relu1_2 -> conv1_2 (in-place)
I1017 12:28:09.034291 27481 net.cpp:122] Setting up relu1_2
I1017 12:28:09.034302 27481 net.cpp:129] Top shape: 4 64 288 288 (21233664)
I1017 12:28:09.034312 27481 net.cpp:137] Memory required for data: 343720208
I1017 12:28:09.034322 27481 layer_factory.hpp:77] Creating layer pool1
I1017 12:28:09.034358 27481 net.cpp:84] Creating Layer pool1
I1017 12:28:09.034380 27481 net.cpp:406] pool1 <- conv1_2
I1017 12:28:09.034396 27481 net.cpp:380] pool1 -> pool1
I1017 12:28:09.034500 27481 net.cpp:122] Setting up pool1
I1017 12:28:09.034520 27481 net.cpp:129] Top shape: 4 64 144 144 (5308416)
I1017 12:28:09.034530 27481 net.cpp:137] Memory required for data: 364953872
I1017 12:28:09.034543 27481 layer_factory.hpp:77] Creating layer conv2_1
I1017 12:28:09.034564 27481 net.cpp:84] Creating Layer conv2_1
I1017 12:28:09.034575 27481 net.cpp:406] conv2_1 <- pool1
I1017 12:28:09.034590 27481 net.cpp:380] conv2_1 -> conv2_1
I1017 12:28:09.035136 27481 net.cpp:122] Setting up conv2_1
I1017 12:28:09.035157 27481 net.cpp:129] Top shape: 4 128 144 144 (10616832)
I1017 12:28:09.035167 27481 net.cpp:137] Memory required for data: 407421200
I1017 12:28:09.035188 27481 layer_factory.hpp:77] Creating layer relu2_1
I1017 12:28:09.035205 27481 net.cpp:84] Creating Layer relu2_1
I1017 12:28:09.035215 27481 net.cpp:406] relu2_1 <- conv2_1
I1017 12:28:09.035228 27481 net.cpp:367] relu2_1 -> conv2_1 (in-place)
I1017 12:28:09.035244 27481 net.cpp:122] Setting up relu2_1
I1017 12:28:09.035256 27481 net.cpp:129] Top shape: 4 128 144 144 (10616832)
I1017 12:28:09.035265 27481 net.cpp:137] Memory required for data: 449888528
I1017 12:28:09.035274 27481 layer_factory.hpp:77] Creating layer conv2_2
I1017 12:28:09.035290 27481 net.cpp:84] Creating Layer conv2_2
I1017 12:28:09.035298 27481 net.cpp:406] conv2_2 <- conv2_1
I1017 12:28:09.035312 27481 net.cpp:380] conv2_2 -> conv2_2
I1017 12:28:09.037088 27481 net.cpp:122] Setting up conv2_2
I1017 12:28:09.037120 27481 net.cpp:129] Top shape: 4 128 144 144 (10616832)
I1017 12:28:09.037132 27481 net.cpp:137] Memory required for data: 492355856
I1017 12:28:09.037150 27481 layer_factory.hpp:77] Creating layer relu2_2
I1017 12:28:09.037166 27481 net.cpp:84] Creating Layer relu2_2
I1017 12:28:09.037178 27481 net.cpp:406] relu2_2 <- conv2_2
I1017 12:28:09.037191 27481 net.cpp:367] relu2_2 -> conv2_2 (in-place)
I1017 12:28:09.037209 27481 net.cpp:122] Setting up relu2_2
I1017 12:28:09.037221 27481 net.cpp:129] Top shape: 4 128 144 144 (10616832)
I1017 12:28:09.037230 27481 net.cpp:137] Memory required for data: 534823184
I1017 12:28:09.037240 27481 layer_factory.hpp:77] Creating layer pool2
I1017 12:28:09.037252 27481 net.cpp:84] Creating Layer pool2
I1017 12:28:09.037261 27481 net.cpp:406] pool2 <- conv2_2
I1017 12:28:09.037276 27481 net.cpp:380] pool2 -> pool2
I1017 12:28:09.037345 27481 net.cpp:122] Setting up pool2
I1017 12:28:09.037364 27481 net.cpp:129] Top shape: 4 128 72 72 (2654208)
I1017 12:28:09.037374 27481 net.cpp:137] Memory required for data: 545440016
I1017 12:28:09.037387 27481 layer_factory.hpp:77] Creating layer conv3_1
I1017 12:28:09.037406 27481 net.cpp:84] Creating Layer conv3_1
I1017 12:28:09.037416 27481 net.cpp:406] conv3_1 <- pool2
I1017 12:28:09.037432 27481 net.cpp:380] conv3_1 -> conv3_1
I1017 12:28:09.041013 27481 net.cpp:122] Setting up conv3_1
I1017 12:28:09.041054 27481 net.cpp:129] Top shape: 4 256 72 72 (5308416)
I1017 12:28:09.041067 27481 net.cpp:137] Memory required for data: 566673680
I1017 12:28:09.041095 27481 layer_factory.hpp:77] Creating layer relu3_1
I1017 12:28:09.041132 27481 net.cpp:84] Creating Layer relu3_1
I1017 12:28:09.041148 27481 net.cpp:406] relu3_1 <- conv3_1
I1017 12:28:09.041164 27481 net.cpp:367] relu3_1 -> conv3_1 (in-place)
I1017 12:28:09.041184 27481 net.cpp:122] Setting up relu3_1
I1017 12:28:09.041196 27481 net.cpp:129] Top shape: 4 256 72 72 (5308416)
I1017 12:28:09.041206 27481 net.cpp:137] Memory required for data: 587907344
I1017 12:28:09.041215 27481 layer_factory.hpp:77] Creating layer conv3_2
I1017 12:28:09.041232 27481 net.cpp:84] Creating Layer conv3_2
I1017 12:28:09.041242 27481 net.cpp:406] conv3_2 <- conv3_1
I1017 12:28:09.041256 27481 net.cpp:380] conv3_2 -> conv3_2
I1017 12:28:09.044574 27481 net.cpp:122] Setting up conv3_2
I1017 12:28:09.044605 27481 net.cpp:129] Top shape: 4 256 72 72 (5308416)
I1017 12:28:09.044617 27481 net.cpp:137] Memory required for data: 609141008
I1017 12:28:09.044634 27481 layer_factory.hpp:77] Creating layer relu3_2
I1017 12:28:09.044669 27481 net.cpp:84] Creating Layer relu3_2
I1017 12:28:09.044687 27481 net.cpp:406] relu3_2 <- conv3_2
I1017 12:28:09.044701 27481 net.cpp:367] relu3_2 -> conv3_2 (in-place)
I1017 12:28:09.044718 27481 net.cpp:122] Setting up relu3_2
I1017 12:28:09.044731 27481 net.cpp:129] Top shape: 4 256 72 72 (5308416)
I1017 12:28:09.044740 27481 net.cpp:137] Memory required for data: 630374672
I1017 12:28:09.044750 27481 layer_factory.hpp:77] Creating layer conv3_3
I1017 12:28:09.044775 27481 net.cpp:84] Creating Layer conv3_3
I1017 12:28:09.044785 27481 net.cpp:406] conv3_3 <- conv3_2
I1017 12:28:09.044801 27481 net.cpp:380] conv3_3 -> conv3_3
I1017 12:28:09.048001 27481 net.cpp:122] Setting up conv3_3
I1017 12:28:09.048043 27481 net.cpp:129] Top shape: 4 256 72 72 (5308416)
I1017 12:28:09.048056 27481 net.cpp:137] Memory required for data: 651608336
I1017 12:28:09.048074 27481 layer_factory.hpp:77] Creating layer relu3_3
I1017 12:28:09.048087 27481 net.cpp:84] Creating Layer relu3_3
I1017 12:28:09.048099 27481 net.cpp:406] relu3_3 <- conv3_3
I1017 12:28:09.048116 27481 net.cpp:367] relu3_3 -> conv3_3 (in-place)
I1017 12:28:09.048135 27481 net.cpp:122] Setting up relu3_3
I1017 12:28:09.048146 27481 net.cpp:129] Top shape: 4 256 72 72 (5308416)
I1017 12:28:09.048156 27481 net.cpp:137] Memory required for data: 672842000
I1017 12:28:09.048166 27481 layer_factory.hpp:77] Creating layer pool3
I1017 12:28:09.048178 27481 net.cpp:84] Creating Layer pool3
I1017 12:28:09.048187 27481 net.cpp:406] pool3 <- conv3_3
I1017 12:28:09.048204 27481 net.cpp:380] pool3 -> pool3
I1017 12:28:09.048281 27481 net.cpp:122] Setting up pool3
I1017 12:28:09.048300 27481 net.cpp:129] Top shape: 4 256 36 36 (1327104)
I1017 12:28:09.048308 27481 net.cpp:137] Memory required for data: 678150416
I1017 12:28:09.048317 27481 layer_factory.hpp:77] Creating layer conv4_1
I1017 12:28:09.048336 27481 net.cpp:84] Creating Layer conv4_1
I1017 12:28:09.048347 27481 net.cpp:406] conv4_1 <- pool3
I1017 12:28:09.048364 27481 net.cpp:380] conv4_1 -> conv4_1
I1017 12:28:09.053910 27481 net.cpp:122] Setting up conv4_1
I1017 12:28:09.053930 27481 net.cpp:129] Top shape: 4 512 36 36 (2654208)
I1017 12:28:09.053936 27481 net.cpp:137] Memory required for data: 688767248
I1017 12:28:09.053944 27481 layer_factory.hpp:77] Creating layer relu4_1
I1017 12:28:09.053962 27481 net.cpp:84] Creating Layer relu4_1
I1017 12:28:09.053970 27481 net.cpp:406] relu4_1 <- conv4_1
I1017 12:28:09.053980 27481 net.cpp:367] relu4_1 -> conv4_1 (in-place)
I1017 12:28:09.053990 27481 net.cpp:122] Setting up relu4_1
I1017 12:28:09.053997 27481 net.cpp:129] Top shape: 4 512 36 36 (2654208)
I1017 12:28:09.054003 27481 net.cpp:137] Memory required for data: 699384080
I1017 12:28:09.054011 27481 layer_factory.hpp:77] Creating layer conv4_2
I1017 12:28:09.054021 27481 net.cpp:84] Creating Layer conv4_2
I1017 12:28:09.054026 27481 net.cpp:406] conv4_2 <- conv4_1
I1017 12:28:09.054036 27481 net.cpp:380] conv4_2 -> conv4_2
I1017 12:28:09.070067 27481 net.cpp:122] Setting up conv4_2
I1017 12:28:09.070106 27481 net.cpp:129] Top shape: 4 512 36 36 (2654208)
I1017 12:28:09.070113 27481 net.cpp:137] Memory required for data: 710000912
I1017 12:28:09.070135 27481 layer_factory.hpp:77] Creating layer relu4_2
I1017 12:28:09.070149 27481 net.cpp:84] Creating Layer relu4_2
I1017 12:28:09.070156 27481 net.cpp:406] relu4_2 <- conv4_2
I1017 12:28:09.070168 27481 net.cpp:367] relu4_2 -> conv4_2 (in-place)
I1017 12:28:09.070180 27481 net.cpp:122] Setting up relu4_2
I1017 12:28:09.070188 27481 net.cpp:129] Top shape: 4 512 36 36 (2654208)
I1017 12:28:09.070192 27481 net.cpp:137] Memory required for data: 720617744
I1017 12:28:09.070197 27481 layer_factory.hpp:77] Creating layer conv4_3
I1017 12:28:09.070224 27481 net.cpp:84] Creating Layer conv4_3
I1017 12:28:09.070230 27481 net.cpp:406] conv4_3 <- conv4_2
I1017 12:28:09.070240 27481 net.cpp:380] conv4_3 -> conv4_3
I1017 12:28:09.082798 27481 net.cpp:122] Setting up conv4_3
I1017 12:28:09.082835 27481 net.cpp:129] Top shape: 4 512 36 36 (2654208)
I1017 12:28:09.082841 27481 net.cpp:137] Memory required for data: 731234576
I1017 12:28:09.082854 27481 layer_factory.hpp:77] Creating layer relu4_3
I1017 12:28:09.082870 27481 net.cpp:84] Creating Layer relu4_3
I1017 12:28:09.082875 27481 net.cpp:406] relu4_3 <- conv4_3
I1017 12:28:09.082888 27481 net.cpp:367] relu4_3 -> conv4_3 (in-place)
I1017 12:28:09.082901 27481 net.cpp:122] Setting up relu4_3
I1017 12:28:09.082907 27481 net.cpp:129] Top shape: 4 512 36 36 (2654208)
I1017 12:28:09.082912 27481 net.cpp:137] Memory required for data: 741851408
I1017 12:28:09.082932 27481 layer_factory.hpp:77] Creating layer pool4
I1017 12:28:09.082943 27481 net.cpp:84] Creating Layer pool4
I1017 12:28:09.082948 27481 net.cpp:406] pool4 <- conv4_3
I1017 12:28:09.082959 27481 net.cpp:380] pool4 -> pool4
I1017 12:28:09.083010 27481 net.cpp:122] Setting up pool4
I1017 12:28:09.083019 27481 net.cpp:129] Top shape: 4 512 18 18 (663552)
I1017 12:28:09.083024 27481 net.cpp:137] Memory required for data: 744505616
I1017 12:28:09.083029 27481 layer_factory.hpp:77] Creating layer conv5_1
I1017 12:28:09.083042 27481 net.cpp:84] Creating Layer conv5_1
I1017 12:28:09.083047 27481 net.cpp:406] conv5_1 <- pool4
I1017 12:28:09.083055 27481 net.cpp:380] conv5_1 -> conv5_1
I1017 12:28:09.089689 27481 net.cpp:122] Setting up conv5_1
I1017 12:28:09.089718 27481 net.cpp:129] Top shape: 4 512 18 18 (663552)
I1017 12:28:09.089725 27481 net.cpp:137] Memory required for data: 747159824
I1017 12:28:09.089735 27481 layer_factory.hpp:77] Creating layer relu5_1
I1017 12:28:09.089758 27481 net.cpp:84] Creating Layer relu5_1
I1017 12:28:09.089766 27481 net.cpp:406] relu5_1 <- conv5_1
I1017 12:28:09.089774 27481 net.cpp:367] relu5_1 -> conv5_1 (in-place)
I1017 12:28:09.089785 27481 net.cpp:122] Setting up relu5_1
I1017 12:28:09.089792 27481 net.cpp:129] Top shape: 4 512 18 18 (663552)
I1017 12:28:09.089797 27481 net.cpp:137] Memory required for data: 749814032
I1017 12:28:09.089802 27481 layer_factory.hpp:77] Creating layer conv5_2
I1017 12:28:09.089814 27481 net.cpp:84] Creating Layer conv5_2
I1017 12:28:09.089819 27481 net.cpp:406] conv5_2 <- conv5_1
I1017 12:28:09.089826 27481 net.cpp:380] conv5_2 -> conv5_2
I1017 12:28:09.098450 27481 net.cpp:122] Setting up conv5_2
I1017 12:28:09.098505 27481 net.cpp:129] Top shape: 4 512 18 18 (663552)
I1017 12:28:09.098511 27481 net.cpp:137] Memory required for data: 752468240
I1017 12:28:09.098526 27481 layer_factory.hpp:77] Creating layer relu5_2
I1017 12:28:09.098539 27481 net.cpp:84] Creating Layer relu5_2
I1017 12:28:09.098547 27481 net.cpp:406] relu5_2 <- conv5_2
I1017 12:28:09.098561 27481 net.cpp:367] relu5_2 -> conv5_2 (in-place)
I1017 12:28:09.098574 27481 net.cpp:122] Setting up relu5_2
I1017 12:28:09.098582 27481 net.cpp:129] Top shape: 4 512 18 18 (663552)
I1017 12:28:09.098587 27481 net.cpp:137] Memory required for data: 755122448
I1017 12:28:09.098598 27481 layer_factory.hpp:77] Creating layer conv5_3
I1017 12:28:09.098609 27481 net.cpp:84] Creating Layer conv5_3
I1017 12:28:09.098614 27481 net.cpp:406] conv5_3 <- conv5_2
I1017 12:28:09.098621 27481 net.cpp:380] conv5_3 -> conv5_3
I1017 12:28:09.119633 27481 net.cpp:122] Setting up conv5_3
I1017 12:28:09.119668 27481 net.cpp:129] Top shape: 4 512 18 18 (663552)
I1017 12:28:09.119674 27481 net.cpp:137] Memory required for data: 757776656
I1017 12:28:09.119688 27481 layer_factory.hpp:77] Creating layer relu5_3
I1017 12:28:09.119721 27481 net.cpp:84] Creating Layer relu5_3
I1017 12:28:09.119730 27481 net.cpp:406] relu5_3 <- conv5_3
I1017 12:28:09.119750 27481 net.cpp:367] relu5_3 -> conv5_3 (in-place)
I1017 12:28:09.119763 27481 net.cpp:122] Setting up relu5_3
I1017 12:28:09.119771 27481 net.cpp:129] Top shape: 4 512 18 18 (663552)
I1017 12:28:09.119774 27481 net.cpp:137] Memory required for data: 760430864
I1017 12:28:09.119779 27481 layer_factory.hpp:77] Creating layer pool5
I1017 12:28:09.119791 27481 net.cpp:84] Creating Layer pool5
I1017 12:28:09.119796 27481 net.cpp:406] pool5 <- conv5_3
I1017 12:28:09.119803 27481 net.cpp:380] pool5 -> pool5
I1017 12:28:09.119849 27481 net.cpp:122] Setting up pool5
I1017 12:28:09.119860 27481 net.cpp:129] Top shape: 4 512 9 9 (165888)
I1017 12:28:09.119865 27481 net.cpp:137] Memory required for data: 761094416
I1017 12:28:09.119869 27481 layer_factory.hpp:77] Creating layer fc6-conv
I1017 12:28:09.119879 27481 net.cpp:84] Creating Layer fc6-conv
I1017 12:28:09.119885 27481 net.cpp:406] fc6-conv <- pool5
I1017 12:28:09.119894 27481 net.cpp:380] fc6-conv -> fc6-conv
I1017 12:28:09.437911 27481 net.cpp:122] Setting up fc6-conv
I1017 12:28:09.437945 27481 net.cpp:129] Top shape: 4 4096 3 3 (147456)
I1017 12:28:09.437950 27481 net.cpp:137] Memory required for data: 761684240
I1017 12:28:09.437978 27481 layer_factory.hpp:77] Creating layer relu6
I1017 12:28:09.437999 27481 net.cpp:84] Creating Layer relu6
I1017 12:28:09.438006 27481 net.cpp:406] relu6 <- fc6-conv
I1017 12:28:09.438016 27481 net.cpp:367] relu6 -> fc6-conv (in-place)
I1017 12:28:09.438036 27481 net.cpp:122] Setting up relu6
I1017 12:28:09.438048 27481 net.cpp:129] Top shape: 4 4096 3 3 (147456)
I1017 12:28:09.438053 27481 net.cpp:137] Memory required for data: 762274064
I1017 12:28:09.438057 27481 layer_factory.hpp:77] Creating layer drop6
I1017 12:28:09.438072 27481 net.cpp:84] Creating Layer drop6
I1017 12:28:09.438079 27481 net.cpp:406] drop6 <- fc6-conv
I1017 12:28:09.438086 27481 net.cpp:367] drop6 -> fc6-conv (in-place)
I1017 12:28:09.438118 27481 net.cpp:122] Setting up drop6
I1017 12:28:09.438129 27481 net.cpp:129] Top shape: 4 4096 3 3 (147456)
I1017 12:28:09.438133 27481 net.cpp:137] Memory required for data: 762863888
I1017 12:28:09.438138 27481 layer_factory.hpp:77] Creating layer fc6-conv_re
I1017 12:28:09.438151 27481 net.cpp:84] Creating Layer fc6-conv_re
I1017 12:28:09.438156 27481 net.cpp:406] fc6-conv_re <- fc6-conv
I1017 12:28:09.438164 27481 net.cpp:380] fc6-conv_re -> fc6-conv_re
I1017 12:28:09.438208 27481 net.cpp:122] Setting up fc6-conv_re
I1017 12:28:09.438217 27481 net.cpp:129] Top shape: 4 4096 9 (147456)
I1017 12:28:09.438233 27481 net.cpp:137] Memory required for data: 763453712
I1017 12:28:09.438237 27481 layer_factory.hpp:77] Creating layer fc6-conv_tran
I1017 12:28:09.438321 27481 net.cpp:84] Creating Layer fc6-conv_tran
I1017 12:28:09.438333 27481 net.cpp:406] fc6-conv_tran <- fc6-conv_re
I1017 12:28:09.438343 27481 net.cpp:380] fc6-conv_tran -> fc6-conv_tran
I1017 12:28:09.439391 27481 net.cpp:122] Setting up fc6-conv_tran
I1017 12:28:09.439407 27481 net.cpp:129] Top shape: 4 4 9 (144)
I1017 12:28:09.439412 27481 net.cpp:137] Memory required for data: 763454288
I1017 12:28:09.439417 27481 layer_factory.hpp:77] Creating layer lstm1
I1017 12:28:09.439436 27481 net.cpp:84] Creating Layer lstm1
I1017 12:28:09.439441 27481 net.cpp:406] lstm1 <- fc6-conv_tran
I1017 12:28:09.439448 27481 net.cpp:406] lstm1 <- clip_markers
I1017 12:28:09.439456 27481 net.cpp:380] lstm1 -> lstm1
I1017 12:28:09.439472 27481 recurrent_layer.cpp:20] Initializing recurrent layer: assuming input batch contains 4 timesteps of 4 independent streams.
I1017 12:28:09.439848 27481 net.cpp:51] Initializing net from parameters: 
layer {
  name: "lstm1_"
  type: "Input"
  top: "x"
  top: "cont"
  input_param {
    shape {
      dim: 4
      dim: 4
      dim: 9
    }
    shape {
      dim: 4
      dim: 4
    }
  }
}
layer {
  name: "lstm1_"
  type: "Input"
  top: "c_0"
  top: "h_0"
  input_param {
    shape {
      dim: 1
      dim: 4
      dim: 512
    }
    shape {
      dim: 1
      dim: 4
      dim: 512
    }
  }
}
layer {
  name: "lstm1_cont_slice"
  type: "Slice"
  bottom: "cont"
  top: "cont_1"
  top: "cont_2"
  top: "cont_3"
  top: "cont_4"
  slice_param {
    axis: 0
  }
}
layer {
  name: "lstm1_x_transform"
  type: "InnerProduct"
  bottom: "x"
  top: "W_xc_x"
  param {
    name: "W_xc"
  }
  param {
    name: "b_c"
  }
  propagate_down: true
  inner_product_param {
    num_output: 2048
    bias_term: true
    weight_filler {
      type: "uniform"
      min: -0.01
      max: 0.01
    }
    bias_filler {
      type: "constant"
      value: 0
    }
    axis: 2
  }
}
layer {
  name: "lstm1_W_xc_x_slice"
  type: "Slice"
  bottom: "W_xc_x"
  top: "W_xc_x_1"
  top: "W_xc_x_2"
  top: "W_xc_x_3"
  top: "W_xc_x_4"
  slice_param {
    axis: 0
  }
}
layer {
  name: "lstm1_h_conted_0"
  type: "Scale"
  bottom: "h_0"
  bottom: "cont_1"
  top: "h_conted_0"
  scale_param {
    axis: 0
  }
}
layer {
  name: "lstm1_transform_1"
  type: "InnerProduct"
  bottom: "h_conted_0"
  top: "W_hc_h_0"
  param {
    name: "W_hc"
  }
  inner_product_param {
    num_output: 2048
    bias_term: false
    weight_filler {
      type: "uniform"
      min: -0.01
      max: 0.01
    }
    axis: 2
  }
}
layer {
  name: "lstm1_gate_input_1"
  type: "Eltwise"
  bottom: "W_hc_h_0"
  bottom: "W_xc_x_1"
  top: "gate_input_1"
  eltwise_param {
    operation: SUM
  }
}
layer {
  name: "lstm1_unit_1"
  type: "LSTMUnit"
  bottom: "c_0"
  bottom: "gate_input_1"
  bottom: "cont_1"
  top: "c_1"
  top: "h_1"
}
layer {
  name: "lstm1_h_conted_1"
  type: "Scale"
  bottom: "h_1"
  bottom: "cont_2"
  top: "h_conted_1"
  scale_param {
    axis: 0
  }
}
layer {
  name: "lstm1_transform_2"
  type: "InnerProduct"
  bottom: "h_conted_1"
  top: "W_hc_h_1"
  param {
    name: "W_hc"
  }
  inner_product_param {
    num_output: 2048
    bias_term: false
    weight_filler {
      type: "uniform"
      min: -0.01
      max: 0.01
    }
    axis: 2
  }
}
layer {
  name: "lstm1_gate_input_2"
  type: "Eltwise"
  bottom: "W_hc_h_1"
  bottom: "W_xc_x_2"
  top: "gate_input_2"
  eltwise_param {
    operation: SUM
  }
}
layer {
  name: "lstm1_unit_2"
  type: "LSTMUnit"
  bottom: "c_1"
  bottom: "gate_input_2"
  bottom: "cont_2"
  top: "c_2"
  top: "h_2"
}
layer {
  name: "lstm1_h_conted_2"
  type: "Scale"
  bottom: "h_2"
  bottom: "cont_3"
  top: "h_conted_2"
  scale_param {
    axis: 0
  }
}
layer {
  name: "lstm1_transform_3"
  type: "InnerProduct"
  bottom: "h_conted_2"
  top: "W_hc_h_2"
  param {
    name: "W_hc"
  }
  inner_product_param {
    num_output: 2048
    bias_term: false
    weight_filler {
      type: "uniform"
      min: -0.01
      max: 0.01
    }
    axis: 2
  }
}
layer {
  name: "lstm1_gate_input_3"
  type: "Eltwise"
  bottom: "W_hc_h_2"
  bottom: "W_xc_x_3"
  top: "gate_input_3"
  eltwise_param {
    operation: SUM
  }
}
layer {
  name: "lstm1_unit_3"
  type: "LSTMUnit"
  bottom: "c_2"
  bottom: "gate_input_3"
  bottom: "cont_3"
  top: "c_3"
  top: "h_3"
}
layer {
  name: "lstm1_h_conted_3"
  type: "Scale"
  bottom: "h_3"
  bottom: "cont_4"
  top: "h_conted_3"
  scale_param {
    axis: 0
  }
}
layer {
  name: "lstm1_transform_4"
  type: "InnerProduct"
  bottom: "h_conted_3"
  top: "W_hc_h_3"
  param {
    name: "W_hc"
  }
  inner_product_param {
    num_output: 2048
    bias_term: false
    weight_filler {
      type: "uniform"
      min: -0.01
      max: 0.01
    }
    axis: 2
  }
}
layer {
  name: "lstm1_gate_input_4"
  type: "Eltwise"
  bottom: "W_hc_h_3"
  bottom: "W_xc_x_4"
  top: "gate_input_4"
  eltwise_param {
    operation: SUM
  }
}
layer {
  name: "lstm1_unit_4"
  type: "LSTMUnit"
  bottom: "c_3"
  bottom: "gate_input_4"
  bottom: "cont_4"
  top: "c_4"
  top: "h_4"
}
layer {
  name: "lstm1_"
  type: "Split"
  bottom: "c_4"
  top: "c_T"
}
layer {
  name: "lstm1_h_concat"
  type: "Concat"
  bottom: "h_1"
  bottom: "h_2"
  bottom: "h_3"
  bottom: "h_4"
  top: "h"
  concat_param {
    axis: 0
  }
}
layer {
  name: "h_pseudoloss"
  type: "Reduction"
  bottom: "h"
  top: "h_pseudoloss"
  loss_weight: 1
}
I1017 12:28:09.440024 27481 layer_factory.hpp:77] Creating layer lstm1_
I1017 12:28:09.440049 27481 net.cpp:84] Creating Layer lstm1_
I1017 12:28:09.440057 27481 net.cpp:380] lstm1_ -> x
I1017 12:28:09.440071 27481 net.cpp:380] lstm1_ -> cont
I1017 12:28:09.440119 27481 net.cpp:122] Setting up lstm1_
I1017 12:28:09.440130 27481 net.cpp:129] Top shape: 4 4 9 (144)
I1017 12:28:09.440136 27481 net.cpp:129] Top shape: 4 4 (16)
I1017 12:28:09.440140 27481 net.cpp:137] Memory required for data: 640
I1017 12:28:09.440145 27481 layer_factory.hpp:77] Creating layer lstm1_
I1017 12:28:09.440152 27481 net.cpp:84] Creating Layer lstm1_
I1017 12:28:09.440158 27481 net.cpp:380] lstm1_ -> c_0
I1017 12:28:09.440167 27481 net.cpp:380] lstm1_ -> h_0
I1017 12:28:09.440208 27481 net.cpp:122] Setting up lstm1_
I1017 12:28:09.440219 27481 net.cpp:129] Top shape: 1 4 512 (2048)
I1017 12:28:09.440225 27481 net.cpp:129] Top shape: 1 4 512 (2048)
I1017 12:28:09.440229 27481 net.cpp:137] Memory required for data: 17024
I1017 12:28:09.440233 27481 layer_factory.hpp:77] Creating layer lstm1_cont_slice
I1017 12:28:09.440243 27481 net.cpp:84] Creating Layer lstm1_cont_slice
I1017 12:28:09.440248 27481 net.cpp:406] lstm1_cont_slice <- cont
I1017 12:28:09.440258 27481 net.cpp:380] lstm1_cont_slice -> cont_1
I1017 12:28:09.440266 27481 net.cpp:380] lstm1_cont_slice -> cont_2
I1017 12:28:09.440274 27481 net.cpp:380] lstm1_cont_slice -> cont_3
I1017 12:28:09.440280 27481 net.cpp:380] lstm1_cont_slice -> cont_4
I1017 12:28:09.440346 27481 net.cpp:122] Setting up lstm1_cont_slice
I1017 12:28:09.440356 27481 net.cpp:129] Top shape: 1 4 (4)
I1017 12:28:09.440361 27481 net.cpp:129] Top shape: 1 4 (4)
I1017 12:28:09.440366 27481 net.cpp:129] Top shape: 1 4 (4)
I1017 12:28:09.440371 27481 net.cpp:129] Top shape: 1 4 (4)
I1017 12:28:09.440376 27481 net.cpp:137] Memory required for data: 17088
I1017 12:28:09.440379 27481 layer_factory.hpp:77] Creating layer cont_1_lstm1_cont_slice_0_split
I1017 12:28:09.440388 27481 net.cpp:84] Creating Layer cont_1_lstm1_cont_slice_0_split
I1017 12:28:09.440393 27481 net.cpp:406] cont_1_lstm1_cont_slice_0_split <- cont_1
I1017 12:28:09.440402 27481 net.cpp:380] cont_1_lstm1_cont_slice_0_split -> cont_1_lstm1_cont_slice_0_split_0
I1017 12:28:09.440410 27481 net.cpp:380] cont_1_lstm1_cont_slice_0_split -> cont_1_lstm1_cont_slice_0_split_1
I1017 12:28:09.440443 27481 net.cpp:122] Setting up cont_1_lstm1_cont_slice_0_split
I1017 12:28:09.440452 27481 net.cpp:129] Top shape: 1 4 (4)
I1017 12:28:09.440459 27481 net.cpp:129] Top shape: 1 4 (4)
I1017 12:28:09.440464 27481 net.cpp:137] Memory required for data: 17120
I1017 12:28:09.440467 27481 layer_factory.hpp:77] Creating layer cont_2_lstm1_cont_slice_1_split
I1017 12:28:09.440474 27481 net.cpp:84] Creating Layer cont_2_lstm1_cont_slice_1_split
I1017 12:28:09.440479 27481 net.cpp:406] cont_2_lstm1_cont_slice_1_split <- cont_2
I1017 12:28:09.440485 27481 net.cpp:380] cont_2_lstm1_cont_slice_1_split -> cont_2_lstm1_cont_slice_1_split_0
I1017 12:28:09.440491 27481 net.cpp:380] cont_2_lstm1_cont_slice_1_split -> cont_2_lstm1_cont_slice_1_split_1
I1017 12:28:09.440526 27481 net.cpp:122] Setting up cont_2_lstm1_cont_slice_1_split
I1017 12:28:09.440533 27481 net.cpp:129] Top shape: 1 4 (4)
I1017 12:28:09.440538 27481 net.cpp:129] Top shape: 1 4 (4)
I1017 12:28:09.440542 27481 net.cpp:137] Memory required for data: 17152
I1017 12:28:09.440547 27481 layer_factory.hpp:77] Creating layer cont_3_lstm1_cont_slice_2_split
I1017 12:28:09.440552 27481 net.cpp:84] Creating Layer cont_3_lstm1_cont_slice_2_split
I1017 12:28:09.440557 27481 net.cpp:406] cont_3_lstm1_cont_slice_2_split <- cont_3
I1017 12:28:09.440564 27481 net.cpp:380] cont_3_lstm1_cont_slice_2_split -> cont_3_lstm1_cont_slice_2_split_0
I1017 12:28:09.440572 27481 net.cpp:380] cont_3_lstm1_cont_slice_2_split -> cont_3_lstm1_cont_slice_2_split_1
I1017 12:28:09.440601 27481 net.cpp:122] Setting up cont_3_lstm1_cont_slice_2_split
I1017 12:28:09.440609 27481 net.cpp:129] Top shape: 1 4 (4)
I1017 12:28:09.440615 27481 net.cpp:129] Top shape: 1 4 (4)
I1017 12:28:09.440618 27481 net.cpp:137] Memory required for data: 17184
I1017 12:28:09.440623 27481 layer_factory.hpp:77] Creating layer cont_4_lstm1_cont_slice_3_split
I1017 12:28:09.440631 27481 net.cpp:84] Creating Layer cont_4_lstm1_cont_slice_3_split
I1017 12:28:09.440635 27481 net.cpp:406] cont_4_lstm1_cont_slice_3_split <- cont_4
I1017 12:28:09.440641 27481 net.cpp:380] cont_4_lstm1_cont_slice_3_split -> cont_4_lstm1_cont_slice_3_split_0
I1017 12:28:09.440649 27481 net.cpp:380] cont_4_lstm1_cont_slice_3_split -> cont_4_lstm1_cont_slice_3_split_1
I1017 12:28:09.440678 27481 net.cpp:122] Setting up cont_4_lstm1_cont_slice_3_split
I1017 12:28:09.440686 27481 net.cpp:129] Top shape: 1 4 (4)
I1017 12:28:09.440691 27481 net.cpp:129] Top shape: 1 4 (4)
I1017 12:28:09.440696 27481 net.cpp:137] Memory required for data: 17216
I1017 12:28:09.440699 27481 layer_factory.hpp:77] Creating layer lstm1_x_transform
I1017 12:28:09.440711 27481 net.cpp:84] Creating Layer lstm1_x_transform
I1017 12:28:09.440716 27481 net.cpp:406] lstm1_x_transform <- x
I1017 12:28:09.440722 27481 net.cpp:380] lstm1_x_transform -> W_xc_x
I1017 12:28:09.441026 27481 net.cpp:122] Setting up lstm1_x_transform
I1017 12:28:09.441037 27481 net.cpp:129] Top shape: 4 4 2048 (32768)
I1017 12:28:09.441042 27481 net.cpp:137] Memory required for data: 148288
I1017 12:28:09.441052 27481 layer_factory.hpp:77] Creating layer lstm1_W_xc_x_slice
I1017 12:28:09.441061 27481 net.cpp:84] Creating Layer lstm1_W_xc_x_slice
I1017 12:28:09.441066 27481 net.cpp:406] lstm1_W_xc_x_slice <- W_xc_x
I1017 12:28:09.441074 27481 net.cpp:380] lstm1_W_xc_x_slice -> W_xc_x_1
I1017 12:28:09.441082 27481 net.cpp:380] lstm1_W_xc_x_slice -> W_xc_x_2
I1017 12:28:09.441089 27481 net.cpp:380] lstm1_W_xc_x_slice -> W_xc_x_3
I1017 12:28:09.441097 27481 net.cpp:380] lstm1_W_xc_x_slice -> W_xc_x_4
I1017 12:28:09.441153 27481 net.cpp:122] Setting up lstm1_W_xc_x_slice
I1017 12:28:09.441161 27481 net.cpp:129] Top shape: 1 4 2048 (8192)
I1017 12:28:09.441166 27481 net.cpp:129] Top shape: 1 4 2048 (8192)
I1017 12:28:09.441172 27481 net.cpp:129] Top shape: 1 4 2048 (8192)
I1017 12:28:09.441177 27481 net.cpp:129] Top shape: 1 4 2048 (8192)
I1017 12:28:09.441181 27481 net.cpp:137] Memory required for data: 279360
I1017 12:28:09.441185 27481 layer_factory.hpp:77] Creating layer lstm1_h_conted_0
I1017 12:28:09.441197 27481 net.cpp:84] Creating Layer lstm1_h_conted_0
I1017 12:28:09.441205 27481 net.cpp:406] lstm1_h_conted_0 <- h_0
I1017 12:28:09.441212 27481 net.cpp:406] lstm1_h_conted_0 <- cont_1_lstm1_cont_slice_0_split_0
I1017 12:28:09.441218 27481 net.cpp:380] lstm1_h_conted_0 -> h_conted_0
I1017 12:28:09.441292 27481 net.cpp:122] Setting up lstm1_h_conted_0
I1017 12:28:09.441300 27481 net.cpp:129] Top shape: 1 4 512 (2048)
I1017 12:28:09.441304 27481 net.cpp:137] Memory required for data: 287552
I1017 12:28:09.441309 27481 layer_factory.hpp:77] Creating layer lstm1_transform_1
I1017 12:28:09.441318 27481 net.cpp:84] Creating Layer lstm1_transform_1
I1017 12:28:09.441323 27481 net.cpp:406] lstm1_transform_1 <- h_conted_0
I1017 12:28:09.441329 27481 net.cpp:380] lstm1_transform_1 -> W_hc_h_0
I1017 12:28:09.453209 27481 net.cpp:122] Setting up lstm1_transform_1
I1017 12:28:09.453227 27481 net.cpp:129] Top shape: 1 4 2048 (8192)
I1017 12:28:09.453233 27481 net.cpp:137] Memory required for data: 320320
I1017 12:28:09.453243 27481 layer_factory.hpp:77] Creating layer lstm1_gate_input_1
I1017 12:28:09.453250 27481 net.cpp:84] Creating Layer lstm1_gate_input_1
I1017 12:28:09.453255 27481 net.cpp:406] lstm1_gate_input_1 <- W_hc_h_0
I1017 12:28:09.453261 27481 net.cpp:406] lstm1_gate_input_1 <- W_xc_x_1
I1017 12:28:09.453267 27481 net.cpp:380] lstm1_gate_input_1 -> gate_input_1
I1017 12:28:09.453305 27481 net.cpp:122] Setting up lstm1_gate_input_1
I1017 12:28:09.453313 27481 net.cpp:129] Top shape: 1 4 2048 (8192)
I1017 12:28:09.453318 27481 net.cpp:137] Memory required for data: 353088
I1017 12:28:09.453322 27481 layer_factory.hpp:77] Creating layer lstm1_unit_1
I1017 12:28:09.453331 27481 net.cpp:84] Creating Layer lstm1_unit_1
I1017 12:28:09.453336 27481 net.cpp:406] lstm1_unit_1 <- c_0
I1017 12:28:09.453342 27481 net.cpp:406] lstm1_unit_1 <- gate_input_1
I1017 12:28:09.453347 27481 net.cpp:406] lstm1_unit_1 <- cont_1_lstm1_cont_slice_0_split_1
I1017 12:28:09.453353 27481 net.cpp:380] lstm1_unit_1 -> c_1
I1017 12:28:09.453361 27481 net.cpp:380] lstm1_unit_1 -> h_1
I1017 12:28:09.453409 27481 net.cpp:122] Setting up lstm1_unit_1
I1017 12:28:09.453418 27481 net.cpp:129] Top shape: 1 4 512 (2048)
I1017 12:28:09.453423 27481 net.cpp:129] Top shape: 1 4 512 (2048)
I1017 12:28:09.453428 27481 net.cpp:137] Memory required for data: 369472
I1017 12:28:09.453433 27481 layer_factory.hpp:77] Creating layer h_1_lstm1_unit_1_1_split
I1017 12:28:09.453441 27481 net.cpp:84] Creating Layer h_1_lstm1_unit_1_1_split
I1017 12:28:09.453446 27481 net.cpp:406] h_1_lstm1_unit_1_1_split <- h_1
I1017 12:28:09.453454 27481 net.cpp:380] h_1_lstm1_unit_1_1_split -> h_1_lstm1_unit_1_1_split_0
I1017 12:28:09.453460 27481 net.cpp:380] h_1_lstm1_unit_1_1_split -> h_1_lstm1_unit_1_1_split_1
I1017 12:28:09.453492 27481 net.cpp:122] Setting up h_1_lstm1_unit_1_1_split
I1017 12:28:09.453500 27481 net.cpp:129] Top shape: 1 4 512 (2048)
I1017 12:28:09.453505 27481 net.cpp:129] Top shape: 1 4 512 (2048)
I1017 12:28:09.453510 27481 net.cpp:137] Memory required for data: 385856
I1017 12:28:09.453514 27481 layer_factory.hpp:77] Creating layer lstm1_h_conted_1
I1017 12:28:09.453522 27481 net.cpp:84] Creating Layer lstm1_h_conted_1
I1017 12:28:09.453527 27481 net.cpp:406] lstm1_h_conted_1 <- h_1_lstm1_unit_1_1_split_0
I1017 12:28:09.453533 27481 net.cpp:406] lstm1_h_conted_1 <- cont_2_lstm1_cont_slice_1_split_0
I1017 12:28:09.453539 27481 net.cpp:380] lstm1_h_conted_1 -> h_conted_1
I1017 12:28:09.453595 27481 net.cpp:122] Setting up lstm1_h_conted_1
I1017 12:28:09.453604 27481 net.cpp:129] Top shape: 1 4 512 (2048)
I1017 12:28:09.453608 27481 net.cpp:137] Memory required for data: 394048
I1017 12:28:09.453613 27481 layer_factory.hpp:77] Creating layer lstm1_transform_2
I1017 12:28:09.453621 27481 net.cpp:84] Creating Layer lstm1_transform_2
I1017 12:28:09.453626 27481 net.cpp:406] lstm1_transform_2 <- h_conted_1
I1017 12:28:09.453634 27481 net.cpp:380] lstm1_transform_2 -> W_hc_h_1
I1017 12:28:09.465360 27481 net.cpp:122] Setting up lstm1_transform_2
I1017 12:28:09.465378 27481 net.cpp:129] Top shape: 1 4 2048 (8192)
I1017 12:28:09.465382 27481 net.cpp:137] Memory required for data: 426816
I1017 12:28:09.465389 27481 net.cpp:465] Sharing parameters 'W_hc' owned by layer 'lstm1_transform_1', param index 0
I1017 12:28:09.465396 27481 layer_factory.hpp:77] Creating layer lstm1_gate_input_2
I1017 12:28:09.465406 27481 net.cpp:84] Creating Layer lstm1_gate_input_2
I1017 12:28:09.465411 27481 net.cpp:406] lstm1_gate_input_2 <- W_hc_h_1
I1017 12:28:09.465417 27481 net.cpp:406] lstm1_gate_input_2 <- W_xc_x_2
I1017 12:28:09.465425 27481 net.cpp:380] lstm1_gate_input_2 -> gate_input_2
I1017 12:28:09.465453 27481 net.cpp:122] Setting up lstm1_gate_input_2
I1017 12:28:09.465463 27481 net.cpp:129] Top shape: 1 4 2048 (8192)
I1017 12:28:09.465468 27481 net.cpp:137] Memory required for data: 459584
I1017 12:28:09.465472 27481 layer_factory.hpp:77] Creating layer lstm1_unit_2
I1017 12:28:09.465478 27481 net.cpp:84] Creating Layer lstm1_unit_2
I1017 12:28:09.465483 27481 net.cpp:406] lstm1_unit_2 <- c_1
I1017 12:28:09.465489 27481 net.cpp:406] lstm1_unit_2 <- gate_input_2
I1017 12:28:09.465494 27481 net.cpp:406] lstm1_unit_2 <- cont_2_lstm1_cont_slice_1_split_1
I1017 12:28:09.465500 27481 net.cpp:380] lstm1_unit_2 -> c_2
I1017 12:28:09.465507 27481 net.cpp:380] lstm1_unit_2 -> h_2
I1017 12:28:09.465556 27481 net.cpp:122] Setting up lstm1_unit_2
I1017 12:28:09.465566 27481 net.cpp:129] Top shape: 1 4 512 (2048)
I1017 12:28:09.465572 27481 net.cpp:129] Top shape: 1 4 512 (2048)
I1017 12:28:09.465576 27481 net.cpp:137] Memory required for data: 475968
I1017 12:28:09.465580 27481 layer_factory.hpp:77] Creating layer h_2_lstm1_unit_2_1_split
I1017 12:28:09.465586 27481 net.cpp:84] Creating Layer h_2_lstm1_unit_2_1_split
I1017 12:28:09.465591 27481 net.cpp:406] h_2_lstm1_unit_2_1_split <- h_2
I1017 12:28:09.465598 27481 net.cpp:380] h_2_lstm1_unit_2_1_split -> h_2_lstm1_unit_2_1_split_0
I1017 12:28:09.465605 27481 net.cpp:380] h_2_lstm1_unit_2_1_split -> h_2_lstm1_unit_2_1_split_1
I1017 12:28:09.465638 27481 net.cpp:122] Setting up h_2_lstm1_unit_2_1_split
I1017 12:28:09.465649 27481 net.cpp:129] Top shape: 1 4 512 (2048)
I1017 12:28:09.465656 27481 net.cpp:129] Top shape: 1 4 512 (2048)
I1017 12:28:09.465659 27481 net.cpp:137] Memory required for data: 492352
I1017 12:28:09.465663 27481 layer_factory.hpp:77] Creating layer lstm1_h_conted_2
I1017 12:28:09.465669 27481 net.cpp:84] Creating Layer lstm1_h_conted_2
I1017 12:28:09.465674 27481 net.cpp:406] lstm1_h_conted_2 <- h_2_lstm1_unit_2_1_split_0
I1017 12:28:09.465680 27481 net.cpp:406] lstm1_h_conted_2 <- cont_3_lstm1_cont_slice_2_split_0
I1017 12:28:09.465687 27481 net.cpp:380] lstm1_h_conted_2 -> h_conted_2
I1017 12:28:09.465744 27481 net.cpp:122] Setting up lstm1_h_conted_2
I1017 12:28:09.465754 27481 net.cpp:129] Top shape: 1 4 512 (2048)
I1017 12:28:09.465759 27481 net.cpp:137] Memory required for data: 500544
I1017 12:28:09.465764 27481 layer_factory.hpp:77] Creating layer lstm1_transform_3
I1017 12:28:09.465770 27481 net.cpp:84] Creating Layer lstm1_transform_3
I1017 12:28:09.465775 27481 net.cpp:406] lstm1_transform_3 <- h_conted_2
I1017 12:28:09.465781 27481 net.cpp:380] lstm1_transform_3 -> W_hc_h_2
I1017 12:28:09.477524 27481 net.cpp:122] Setting up lstm1_transform_3
I1017 12:28:09.477541 27481 net.cpp:129] Top shape: 1 4 2048 (8192)
I1017 12:28:09.477546 27481 net.cpp:137] Memory required for data: 533312
I1017 12:28:09.477555 27481 net.cpp:465] Sharing parameters 'W_hc' owned by layer 'lstm1_transform_1', param index 0
I1017 12:28:09.477560 27481 layer_factory.hpp:77] Creating layer lstm1_gate_input_3
I1017 12:28:09.477567 27481 net.cpp:84] Creating Layer lstm1_gate_input_3
I1017 12:28:09.477572 27481 net.cpp:406] lstm1_gate_input_3 <- W_hc_h_2
I1017 12:28:09.477579 27481 net.cpp:406] lstm1_gate_input_3 <- W_xc_x_3
I1017 12:28:09.477586 27481 net.cpp:380] lstm1_gate_input_3 -> gate_input_3
I1017 12:28:09.477618 27481 net.cpp:122] Setting up lstm1_gate_input_3
I1017 12:28:09.477629 27481 net.cpp:129] Top shape: 1 4 2048 (8192)
I1017 12:28:09.477633 27481 net.cpp:137] Memory required for data: 566080
I1017 12:28:09.477638 27481 layer_factory.hpp:77] Creating layer lstm1_unit_3
I1017 12:28:09.477644 27481 net.cpp:84] Creating Layer lstm1_unit_3
I1017 12:28:09.477649 27481 net.cpp:406] lstm1_unit_3 <- c_2
I1017 12:28:09.477655 27481 net.cpp:406] lstm1_unit_3 <- gate_input_3
I1017 12:28:09.477661 27481 net.cpp:406] lstm1_unit_3 <- cont_3_lstm1_cont_slice_2_split_1
I1017 12:28:09.477668 27481 net.cpp:380] lstm1_unit_3 -> c_3
I1017 12:28:09.477674 27481 net.cpp:380] lstm1_unit_3 -> h_3
I1017 12:28:09.477720 27481 net.cpp:122] Setting up lstm1_unit_3
I1017 12:28:09.477728 27481 net.cpp:129] Top shape: 1 4 512 (2048)
I1017 12:28:09.477733 27481 net.cpp:129] Top shape: 1 4 512 (2048)
I1017 12:28:09.477738 27481 net.cpp:137] Memory required for data: 582464
I1017 12:28:09.477742 27481 layer_factory.hpp:77] Creating layer h_3_lstm1_unit_3_1_split
I1017 12:28:09.477751 27481 net.cpp:84] Creating Layer h_3_lstm1_unit_3_1_split
I1017 12:28:09.477754 27481 net.cpp:406] h_3_lstm1_unit_3_1_split <- h_3
I1017 12:28:09.477761 27481 net.cpp:380] h_3_lstm1_unit_3_1_split -> h_3_lstm1_unit_3_1_split_0
I1017 12:28:09.477768 27481 net.cpp:380] h_3_lstm1_unit_3_1_split -> h_3_lstm1_unit_3_1_split_1
I1017 12:28:09.477800 27481 net.cpp:122] Setting up h_3_lstm1_unit_3_1_split
I1017 12:28:09.477811 27481 net.cpp:129] Top shape: 1 4 512 (2048)
I1017 12:28:09.477818 27481 net.cpp:129] Top shape: 1 4 512 (2048)
I1017 12:28:09.477821 27481 net.cpp:137] Memory required for data: 598848
I1017 12:28:09.477825 27481 layer_factory.hpp:77] Creating layer lstm1_h_conted_3
I1017 12:28:09.477834 27481 net.cpp:84] Creating Layer lstm1_h_conted_3
I1017 12:28:09.477839 27481 net.cpp:406] lstm1_h_conted_3 <- h_3_lstm1_unit_3_1_split_0
I1017 12:28:09.477845 27481 net.cpp:406] lstm1_h_conted_3 <- cont_4_lstm1_cont_slice_3_split_0
I1017 12:28:09.477851 27481 net.cpp:380] lstm1_h_conted_3 -> h_conted_3
I1017 12:28:09.477906 27481 net.cpp:122] Setting up lstm1_h_conted_3
I1017 12:28:09.477916 27481 net.cpp:129] Top shape: 1 4 512 (2048)
I1017 12:28:09.477919 27481 net.cpp:137] Memory required for data: 607040
I1017 12:28:09.477923 27481 layer_factory.hpp:77] Creating layer lstm1_transform_4
I1017 12:28:09.477933 27481 net.cpp:84] Creating Layer lstm1_transform_4
I1017 12:28:09.477938 27481 net.cpp:406] lstm1_transform_4 <- h_conted_3
I1017 12:28:09.477946 27481 net.cpp:380] lstm1_transform_4 -> W_hc_h_3
I1017 12:28:09.492952 27481 net.cpp:122] Setting up lstm1_transform_4
I1017 12:28:09.493005 27481 net.cpp:129] Top shape: 1 4 2048 (8192)
I1017 12:28:09.493032 27481 net.cpp:137] Memory required for data: 639808
I1017 12:28:09.493054 27481 net.cpp:465] Sharing parameters 'W_hc' owned by layer 'lstm1_transform_1', param index 0
I1017 12:28:09.493091 27481 layer_factory.hpp:77] Creating layer lstm1_gate_input_4
I1017 12:28:09.493146 27481 net.cpp:84] Creating Layer lstm1_gate_input_4
I1017 12:28:09.493160 27481 net.cpp:406] lstm1_gate_input_4 <- W_hc_h_3
I1017 12:28:09.493191 27481 net.cpp:406] lstm1_gate_input_4 <- W_xc_x_4
I1017 12:28:09.493217 27481 net.cpp:380] lstm1_gate_input_4 -> gate_input_4
I1017 12:28:09.493399 27481 net.cpp:122] Setting up lstm1_gate_input_4
I1017 12:28:09.493455 27481 net.cpp:129] Top shape: 1 4 2048 (8192)
I1017 12:28:09.493472 27481 net.cpp:137] Memory required for data: 672576
I1017 12:28:09.493486 27481 layer_factory.hpp:77] Creating layer lstm1_unit_4
I1017 12:28:09.493504 27481 net.cpp:84] Creating Layer lstm1_unit_4
I1017 12:28:09.493527 27481 net.cpp:406] lstm1_unit_4 <- c_3
I1017 12:28:09.493553 27481 net.cpp:406] lstm1_unit_4 <- gate_input_4
I1017 12:28:09.493594 27481 net.cpp:406] lstm1_unit_4 <- cont_4_lstm1_cont_slice_3_split_1
I1017 12:28:09.493618 27481 net.cpp:380] lstm1_unit_4 -> c_4
I1017 12:28:09.493638 27481 net.cpp:380] lstm1_unit_4 -> h_4
I1017 12:28:09.493861 27481 net.cpp:122] Setting up lstm1_unit_4
I1017 12:28:09.493942 27481 net.cpp:129] Top shape: 1 4 512 (2048)
I1017 12:28:09.493958 27481 net.cpp:129] Top shape: 1 4 512 (2048)
I1017 12:28:09.493968 27481 net.cpp:137] Memory required for data: 688960
I1017 12:28:09.493980 27481 layer_factory.hpp:77] Creating layer lstm1_
I1017 12:28:09.494010 27481 net.cpp:84] Creating Layer lstm1_
I1017 12:28:09.494030 27481 net.cpp:406] lstm1_ <- c_4
I1017 12:28:09.494071 27481 net.cpp:380] lstm1_ -> c_T
I1017 12:28:09.494211 27481 net.cpp:122] Setting up lstm1_
I1017 12:28:09.494264 27481 net.cpp:129] Top shape: 1 4 512 (2048)
I1017 12:28:09.494282 27481 net.cpp:137] Memory required for data: 697152
I1017 12:28:09.494297 27481 layer_factory.hpp:77] Creating layer lstm1_h_concat
I1017 12:28:09.494338 27481 net.cpp:84] Creating Layer lstm1_h_concat
I1017 12:28:09.494361 27481 net.cpp:406] lstm1_h_concat <- h_1_lstm1_unit_1_1_split_1
I1017 12:28:09.494372 27481 net.cpp:406] lstm1_h_concat <- h_2_lstm1_unit_2_1_split_1
I1017 12:28:09.494377 27481 net.cpp:406] lstm1_h_concat <- h_3_lstm1_unit_3_1_split_1
I1017 12:28:09.494382 27481 net.cpp:406] lstm1_h_concat <- h_4
I1017 12:28:09.494391 27481 net.cpp:380] lstm1_h_concat -> h
I1017 12:28:09.494423 27481 net.cpp:122] Setting up lstm1_h_concat
I1017 12:28:09.494436 27481 net.cpp:129] Top shape: 4 4 512 (8192)
I1017 12:28:09.494439 27481 net.cpp:137] Memory required for data: 729920
I1017 12:28:09.494444 27481 layer_factory.hpp:77] Creating layer h_pseudoloss
I1017 12:28:09.494453 27481 net.cpp:84] Creating Layer h_pseudoloss
I1017 12:28:09.494458 27481 net.cpp:406] h_pseudoloss <- h
I1017 12:28:09.494464 27481 net.cpp:380] h_pseudoloss -> h_pseudoloss
I1017 12:28:09.494715 27481 net.cpp:122] Setting up h_pseudoloss
…
I1017 12:28:09.495908 27481 net.cpp:200] lstm1_ does not need backward computation.
I1017 12:28:09.495913 27481 net.cpp:242] This network produces output c_T
I1017 12:28:09.495918 27481 net.cpp:242] This network produces output h_pseudoloss
I1017 12:28:09.502123 27481 net.cpp:255] Network initialization done.
I1017 12:28:09.502254 27481 recurrent_layer.cpp:150] Adding parameter 0: W_xc
I1017 12:28:09.502267 27481 recurrent_layer.cpp:150] Adding parameter 1: b_c
I1017 12:28:09.502275 27481 recurrent_layer.cpp:150] Adding parameter 2: W_hc
I1017 12:28:09.502416 27481 net.cpp:122] Setting up lstm1
I1017 12:28:09.502434 27481 net.cpp:129] Top shape: 4 4 512 (8192)
I1017 12:28:09.502441 27481 net.cpp:137] Memory required for data: 763487056
I1017 12:28:09.502461 27481 layer_factory.hpp:77] Creating layer lstm1-drop
I1017 12:28:09.502473 27481 net.cpp:84] Creating Layer lstm1-drop
I1017 12:28:09.502480 27481 net.cpp:406] lstm1-drop <- lstm1
I1017 12:28:09.502487 27481 net.cpp:380] lstm1-drop -> lstm1-drop
I1017 12:28:09.502532 27481 net.cpp:122] Setting up lstm1-drop
I1017 12:28:09.502542 27481 net.cpp:129] Top shape: 4 4 512 (8192)
I1017 12:28:09.502545 27481 net.cpp:137] Memory required for data: 763519824
I1017 12:28:09.502550 27481 layer_factory.hpp:77] Creating layer fc-final
I1017 12:28:09.502571 27481 net.cpp:84] Creating Layer fc-final
I1017 12:28:09.502578 27481 net.cpp:406] fc-final <- lstm1-drop
I1017 12:28:09.502586 27481 net.cpp:380] fc-final -> fc-final
I1017 12:28:09.502902 27481 net.cpp:122] Setting up fc-final
I1017 12:28:09.502914 27481 net.cpp:129] Top shape: 4 4 10 (160)
I1017 12:28:09.502918 27481 net.cpp:137] Memory required for data: 763520464
I1017 12:28:09.502933 27481 layer_factory.hpp:77] Creating layer fc-final_fc-final_0_split
I1017 12:28:09.502941 27481 net.cpp:84] Creating Layer fc-final_fc-final_0_split
I1017 12:28:09.502946 27481 net.cpp:406] fc-final_fc-final_0_split <- fc-final
I1017 12:28:09.502954 27481 net.cpp:380] fc-final_fc-final_0_split -> fc-final_fc-final_0_split_0
I1017 12:28:09.502961 27481 net.cpp:380] fc-final_fc-final_0_split -> fc-final_fc-final_0_split_1
I1017 12:28:09.502997 27481 net.cpp:122] Setting up fc-final_fc-final_0_split
I1017 12:28:09.503007 27481 net.cpp:129] Top shape: 4 4 10 (160)
I1017 12:28:09.503012 27481 net.cpp:129] Top shape: 4 4 10 (160)
I1017 12:28:09.503016 27481 net.cpp:137] Memory required for data: 763521744
I1017 12:28:09.503021 27481 layer_factory.hpp:77] Creating layer loss
I1017 12:28:09.503031 27481 net.cpp:84] Creating Layer loss
I1017 12:28:09.503039 27481 net.cpp:406] loss <- fc-final_fc-final_0_split_0
I1017 12:28:09.503046 27481 net.cpp:406] loss <- reshape-label_label_tran_0_split_0
I1017 12:28:09.503052 27481 net.cpp:380] loss -> loss
…
I1017 12:28:09.504418 27481 net.cpp:294] The NetState phase (1) differed from the phase (0) specified by a rule in layer data
I1017 12:28:09.504621 27481 net.cpp:51] Initializing net from parameters: 
name: "VGG_16_layers_LSTM"
state {
  phase: TEST
  stage: "test-on-test"
}
layer {
  name: "data"
  type: "ImageData"
  top: "data"
  top: "label"
  include {
    phase: TEST
  }
  transform_param {
    mirror: false
    crop_size: 288
    mean_value: 104
    mean_value: 117
    mean_value: 123
  }
  image_data_param {
    source: "../Data/lsun_val_list.txt"
    batch_size: 50
    new_height: 320
    new_width: 320
  }
}
layer {
  name: "Silence"
  type: "Silence"
  bottom: "label"
  include {
    phase: TEST
  }
}
layer {
  name: "label_tran"
  type: "Python"
  bottom: "label"
  top: "reshape-label"
  top: "clip_markers"
  python_param {
    module: "data_preparation_sort_max_clip"
    layer: "ReshapeLabel"
  }
}
layer {
  name: "conv1_1"
  type: "Convolution"
  bottom: "data"
  top: "conv1_1"
  convolution_param {
    num_output: 64
    pad: 1
    kernel_size: 3
  }
}
layer {
  name: "relu1_1"
  type: "ReLU"
  bottom: "conv1_1"
  top: "conv1_1"
}
layer {
  name: "conv1_2"
  type: "Convolution"
  bottom: "conv1_1"
  top: "conv1_2"
  convolution_param {
    num_output: 64
    pad: 1
    kernel_size: 3
  }
}
layer {
  name: "relu1_2"
  type: "ReLU"
  bottom: "conv1_2"
  top: "conv1_2"
}
layer {
  name: "pool1"
  type: "Pooling"
  bottom: "conv1_2"
  top: "pool1"
  pooling_param {
    pool: MAX
    kernel_size: 2
    stride: 2
  }
}
layer {
  name: "conv2_1"
  type: "Convolution"
  bottom: "pool1"
  top: "conv2_1"
  convolution_param {
    num_output: 128
    pad: 1
    kernel_size: 3
  }
}
layer {
  name: "relu2_1"
  type: "ReLU"
  bottom: "conv2_1"
  top: "conv2_1"
}
layer {
  name: "conv2_2"
  type: "Convolution"
  bottom: "conv2_1"
  top: "conv2_2"
  convolution_param {
    num_output: 128
    pad: 1
    kernel_size: 3
  }
}
layer {
  name: "relu2_2"
  type: "ReLU"
  bottom: "conv2_2"
  top: "conv2_2"
}
layer {
  name: "pool2"
  type: "Pooling"
  bottom: "conv2_2"
  top: "pool2"
  pooling_param {
    pool: MAX
    kernel_size: 2
    stride: 2
  }
}
layer {
  name: "conv3_1"
  type: "Convolution"
  bottom: "pool2"
  top: "conv3_1"
  convolution_param {
    num_output: 256
    pad: 1
    kernel_size: 3
  }
}
layer {
  name: "relu3_1"
  type: "ReLU"
  bottom: "conv3_1"
  top: "conv3_1"
}
layer {
  name: "conv3_2"
  type: "Convolution"
  bottom: "conv3_1"
  top: "conv3_2"
  convolution_param {
    num_output: 256
    pad: 1
    kernel_size: 3
  }
}
layer {
  name: "relu3_2"
  type: "ReLU"
  bottom: "conv3_2"
  top: "conv3_2"
}
layer {
  name: "conv3_3"
  type: "Convolution"
  bottom: "conv3_2"
  top: "conv3_3"
  convolution_param {
    num_output: 256
    pad: 1
    kernel_size: 3
  }
}
layer {
  name: "relu3_3"
  type: "ReLU"
  bottom: "conv3_3"
  top: "conv3_3"
}
layer {
  name: "pool3"
  type: "Pooling"
  bottom: "conv3_3"
  top: "pool3"
  pooling_param {
    pool: MAX
    kernel_size: 2
    stride: 2
  }
}
layer {
  name: "conv4_1"
  type: "Convolution"
  bottom: "pool3"
  top: "conv4_1"
  convolution_param {
    num_output: 512
    pad: 1
    kernel_size: 3
  }
}
layer {
  name: "relu4_1"
  type: "ReLU"
  bottom: "conv4_1"
  top: "conv4_1"
}
layer {
  name: "conv4_2"
  type: "Convolution"
  bottom: "conv4_1"
  top: "conv4_2"
  convolution_param {
    num_output: 512
    pad: 1
    kernel_size: 3
  }
}
layer {
  name: "relu4_2"
  type: "ReLU"
  bottom: "conv4_2"
  top: "conv4_2"
}
layer {
  name: "conv4_3"
  type: "Convolution"
  bottom: "conv4_2"
  top: "conv4_3"
  convolution_param {
    num_output: 512
    pad: 1
    kernel_size: 3
  }
}
layer {
  name: "relu4_3"
  type: "ReLU"
  bottom: "conv4_3"
  top: "conv4_3"
}
layer {
  name: "pool4"
  type: "Pooling"
  bottom: "conv4_3"
  top: "pool4"
  pooling_param {
    pool: MAX
    kernel_size: 2
    stride: 2
  }
}
layer {
  name: "conv5_1"
  type: "Convolution"
  bottom: "pool4"
  top: "conv5_1"
  convolution_param {
    num_output: 512
    pad: 1
    kernel_size: 3
  }
}
layer {
  name: "relu5_1"
  type: "ReLU"
  bottom: "conv5_1"
  top: "conv5_1"
}
layer {
  name: "conv5_2"
  type: "Convolution"
  bottom: "conv5_1"
  top: "conv5_2"
  convolution_param {
    num_output: 512
    pad: 1
    kernel_size: 3
  }
}
layer {
  name: "relu5_2"
  type: "ReLU"
  bottom: "conv5_2"
  top: "conv5_2"
}
layer {
  name: "conv5_3"
  type: "Convolution"
  bottom: "conv5_2"
  top: "conv5_3"
  convolution_param {
    num_output: 512
    pad: 1
    kernel_size: 3
  }
}
layer {
  name: "relu5_3"
  type: "ReLU"
  bottom: "conv5_3"
  top: "conv5_3"
}
layer {
  name: "pool5"
  type: "Pooling"
  bottom: "conv5_3"
  top: "pool5"
  pooling_param {
    pool: MAX
    kernel_size: 2
    stride: 2
  }
}
layer {
  name: "fc6-conv"
  type: "Convolution"
  bottom: "pool5"
  top: "fc6-conv"
  convolution_param {
    num_output: 4096
    kernel_size: 7
  }
}
layer {
  name: "relu6"
  type: "ReLU"
  bottom: "fc6-conv"
  top: "fc6-conv"
}
layer {
  name: "drop6"
  type: "Dropout"
  bottom: "fc6-conv"
  top: "fc6-conv"
  dropout_param {
    dropout_ratio: 0.5
  }
}
layer {
  name: "fc6-conv_re"
  type: "Reshape"
  bottom: "fc6-conv"
  top: "fc6-conv_re"
  reshape_param {
    shape {
      dim: 0
      dim: 0
      dim: -1
    }
  }
}
layer {
  name: "fc6-conv_tran"
  type: "Python"
  bottom: "fc6-conv_re"
  top: "fc6-conv_tran"
  python_param {
    module: "data_preparation_sort_max_clip"
    layer: "DataTransposeSortMaxClip"
  }
}
layer {
  name: "lstm1"
  type: "LSTM"
  bottom: "fc6-conv_tran"
  bottom: "clip_markers"
  top: "lstm1"
  recurrent_param {
    num_output: 512
    weight_filler {
      type: "uniform"
      min: -0.01
      max: 0.01
    }
    bias_filler {
      type: "constant"
      value: 0
    }
  }
}
layer {
  name: "lstm1-drop"
  type: "Dropout"
  bottom: "lstm1"
  top: "lstm1-drop"
  dropout_param {
    dropout_ratio: 0.5
  }
}
layer {
  name: "fc-final"
  type: "InnerProduct"
  bottom: "lstm1-drop"
  top: "fc-final"
  param {
    lr_mult: 1
    decay_mult: 1
  }
  param {
    lr_mult: 2
    decay_mult: 0
  }
  inner_product_param {
    num_output: 10
    weight_filler {
      type: "gaussian"
      std: 0.01
    }
    bias_filler {
      type: "constant"
      value: 0
    }
    axis: 2
  }
}
layer {
  name: "loss"
  type: "SoftmaxWithLoss"
  bottom: "fc-final"
  bottom: "reshape-label"
  top: "loss"
  softmax_param {
    axis: 2
  }
}
layer {
  name: "accuracy"
  type: "Accuracy"
  bottom: "fc-final"
  bottom: "reshape-label"
  top: "accuracy"
  accuracy_param {
    axis: 2
  }
}
I1017 12:28:09.504773 27481 layer_factory.hpp:77] Creating layer data
I1017 12:28:09.504793 27481 net.cpp:84] Creating Layer data
I1017 12:28:09.504799 27481 net.cpp:380] data -> data
I1017 12:28:09.504811 27481 net.cpp:380] data -> label
I1017 12:28:09.504822 27481 image_data_layer.cpp:38] Opening file ../Data/lsun_val_list.txt
I1017 12:28:09.505894 27481 image_data_layer.cpp:63] A total of 3000 images.
I1017 12:28:09.508285 27481 image_data_layer.cpp:90] output data size: 50,3,288,288
I1017 12:28:09.708837 27481 net.cpp:122] Setting up data
I1017 12:28:09.708874 27481 net.cpp:129] Top shape: 50 3 288 288 (12441600)
I1017 12:28:09.708885 27481 net.cpp:129] Top shape: 50 (50)
I1017 12:28:09.708891 27481 net.cpp:137] Memory required for data: 49766600
I1017 12:28:09.708902 27481 layer_factory.hpp:77] Creating layer label_data_1_split
I1017 12:28:09.708925 27481 net.cpp:84] Creating Layer label_data_1_split
I1017 12:28:09.708935 27481 net.cpp:406] label_data_1_split <- label
I1017 12:28:09.708950 27481 net.cpp:380] label_data_1_split -> label_data_1_split_0
I1017 12:28:09.708976 27481 net.cpp:380] label_data_1_split -> label_data_1_split_1
I1017 12:28:09.709062 27481 net.cpp:122] Setting up label_data_1_split
I1017 12:28:09.709072 27481 net.cpp:129] Top shape: 50 (50)
I1017 12:28:09.709079 27481 net.cpp:129] Top shape: 50 (50)
I1017 12:28:09.709082 27481 net.cpp:137] Memory required for data: 49767000
I1017 12:28:09.709086 27481 layer_factory.hpp:77] Creating layer Silence
I1017 12:28:09.709102 27481 net.cpp:84] Creating Layer Silence
I1017 12:28:09.709107 27481 net.cpp:406] Silence <- label_data_1_split_0
I1017 12:28:09.709115 27481 net.cpp:122] Setting up Silence
I1017 12:28:09.709118 27481 net.cpp:137] Memory required for data: 49767000
I1017 12:28:09.709122 27481 layer_factory.hpp:77] Creating layer label_tran
I1017 12:28:09.709192 27481 net.cpp:84] Creating Layer label_tran
I1017 12:28:09.709200 27481 net.cpp:406] label_tran <- label_data_1_split_1
I1017 12:28:09.709208 27481 net.cpp:380] label_tran -> reshape-label
I1017 12:28:09.709218 27481 net.cpp:380] label_tran -> clip_markers
I1017 12:28:09.709347 27481 net.cpp:122] Setting up label_tran
I1017 12:28:09.709358 27481 net.cpp:129] Top shape: 4 50 (200)
I1017 12:28:09.709363 27481 net.cpp:129] Top shape: 4 50 (200)
I1017 12:28:09.709367 27481 net.cpp:137] Memory required for data: 49768600
I1017 12:28:09.709372 27481 layer_factory.hpp:77] Creating layer reshape-label_label_tran_0_split
I1017 12:28:09.709380 27481 net.cpp:84] Creating Layer reshape-label_label_tran_0_split
I1017 12:28:09.709384 27481 net.cpp:406] reshape-label_label_tran_0_split <- reshape-label
I1017 12:28:09.709393 27481 net.cpp:380] reshape-label_label_tran_0_split -> reshape-label_label_tran_0_split_0
I1017 12:28:09.709400 27481 net.cpp:380] reshape-label_label_tran_0_split -> reshape-label_label_tran_0_split_1
I1017 12:28:09.709435 27481 net.cpp:122] Setting up reshape-label_label_tran_0_split
I1017 12:28:09.709441 27481 net.cpp:129] Top shape: 4 50 (200)
I1017 12:28:09.709446 27481 net.cpp:129] Top shape: 4 50 (200)
I1017 12:28:09.709450 27481 net.cpp:137] Memory required for data: 49770200
I1017 12:28:09.709455 27481 layer_factory.hpp:77] Creating layer conv1_1
I1017 12:28:09.709466 27481 net.cpp:84] Creating Layer conv1_1
I1017 12:28:09.709471 27481 net.cpp:406] conv1_1 <- data
I1017 12:28:09.709478 27481 net.cpp:380] conv1_1 -> conv1_1
I1017 12:28:09.709795 27481 net.cpp:122] Setting up conv1_1
I1017 12:28:09.709805 27481 net.cpp:129] Top shape: 50 64 288 288 (265420800)
I1017 12:28:09.709808 27481 net.cpp:137] Memory required for data: 1111453400
I1017 12:28:09.709821 27481 layer_factory.hpp:77] Creating layer relu1_1
I1017 12:28:09.709830 27481 net.cpp:84] Creating Layer relu1_1
I1017 12:28:09.709836 27481 net.cpp:406] relu1_1 <- conv1_1
I1017 12:28:09.709843 27481 net.cpp:367] relu1_1 -> conv1_1 (in-place)
I1017 12:28:09.709851 27481 net.cpp:122] Setting up relu1_1
I1017 12:28:09.709857 27481 net.cpp:129] Top shape: 50 64 288 288 (265420800)
I1017 12:28:09.709861 27481 net.cpp:137] Memory required for data: 2173136600
I1017 12:28:09.709867 27481 layer_factory.hpp:77] Creating layer conv1_2
I1017 12:28:09.709874 27481 net.cpp:84] Creating Layer conv1_2
I1017 12:28:09.709879 27481 net.cpp:406] conv1_2 <- conv1_1
I1017 12:28:09.709887 27481 net.cpp:380] conv1_2 -> conv1_2
I1017 12:28:09.710260 27481 net.cpp:122] Setting up conv1_2
I1017 12:28:09.710269 27481 net.cpp:129] Top shape: 50 64 288 288 (265420800)
I1017 12:28:09.710273 27481 net.cpp:137] Memory required for data: 3234819800
I1017 12:28:09.710283 27481 layer_factory.hpp:77] Creating layer relu1_2
I1017 12:28:09.710291 27481 net.cpp:84] Creating Layer relu1_2
I1017 12:28:09.710296 27481 net.cpp:406] relu1_2 <- conv1_2
I1017 12:28:09.710304 27481 net.cpp:367] relu1_2 -> conv1_2 (in-place)
I1017 12:28:09.710310 27481 net.cpp:122] Setting up relu1_2
I1017 12:28:09.710316 27481 net.cpp:129] Top shape: 50 64 288 288 (265420800)
I1017 12:28:09.710320 27481 net.cpp:137] Memory required for data: 4296503000
I1017 12:28:09.710325 27481 layer_factory.hpp:77] Creating layer pool1
I1017 12:28:09.710335 27481 net.cpp:84] Creating Layer pool1
I1017 12:28:09.710338 27481 net.cpp:406] pool1 <- conv1_2
I1017 12:28:09.710345 27481 net.cpp:380] pool1 -> pool1
I1017 12:28:09.710386 27481 net.cpp:122] Setting up pool1
I1017 12:28:09.710393 27481 net.cpp:129] Top shape: 50 64 144 144 (66355200)
I1017 12:28:09.710397 27481 net.cpp:137] Memory required for data: 4561923800
I1017 12:28:09.710402 27481 layer_factory.hpp:77] Creating layer conv2_1
I1017 12:28:09.710410 27481 net.cpp:84] Creating Layer conv2_1
I1017 12:28:09.710415 27481 net.cpp:406] conv2_1 <- pool1
I1017 12:28:09.710422 27481 net.cpp:380] conv2_1 -> conv2_1
I1017 12:28:09.711817 27481 net.cpp:122] Setting up conv2_1
I1017 12:28:09.711905 27481 net.cpp:129] Top shape: 50 128 144 144 (132710400)
I1017 12:28:09.711956 27481 net.cpp:137] Memory required for data: 5092765400
I1017 12:28:09.712024 27481 layer_factory.hpp:77] Creating layer relu2_1
I1017 12:28:09.712077 27481 net.cpp:84] Creating Layer relu2_1
I1017 12:28:09.712097 27481 net.cpp:406] relu2_1 <- conv2_1
I1017 12:28:09.712122 27481 net.cpp:367] relu2_1 -> conv2_1 (in-place)
I1017 12:28:09.712167 27481 net.cpp:122] Setting up relu2_1
I1017 12:28:09.712198 27481 net.cpp:129] Top shape: 50 128 144 144 (132710400)
I1017 12:28:09.712225 27481 net.cpp:137] Memory required for data: 5623607000
I1017 12:28:09.712256 27481 layer_factory.hpp:77] Creating layer conv2_2
I1017 12:28:09.712298 27481 net.cpp:84] Creating Layer conv2_2
I1017 12:28:09.712316 27481 net.cpp:406] conv2_2 <- conv2_1
I1017 12:28:09.712342 27481 net.cpp:380] conv2_2 -> conv2_2
I1017 12:28:09.713068 27481 net.cpp:122] Setting up conv2_2
I1017 12:28:09.713098 27481 net.cpp:129] Top shape: 50 128 144 144 (132710400)
I1017 12:28:09.713114 27481 net.cpp:137] Memory required for data: 6154448600
I1017 12:28:09.713143 27481 layer_factory.hpp:77] Creating layer relu2_2
I1017 12:28:09.713169 27481 net.cpp:84] Creating Layer relu2_2
I1017 12:28:09.713189 27481 net.cpp:406] relu2_2 <- conv2_2
I1017 12:28:09.713215 27481 net.cpp:367] relu2_2 -> conv2_2 (in-place)
I1017 12:28:09.713243 27481 net.cpp:122] Setting up relu2_2
I1017 12:28:09.713268 27481 net.cpp:129] Top shape: 50 128 144 144 (132710400)
I1017 12:28:09.713286 27481 net.cpp:137] Memory required for data: 6685290200
I1017 12:28:09.713301 27481 layer_factory.hpp:77] Creating layer pool2
I1017 12:28:09.713327 27481 net.cpp:84] Creating Layer pool2
I1017 12:28:09.713346 27481 net.cpp:406] pool2 <- conv2_2
I1017 12:28:09.713371 27481 net.cpp:380] pool2 -> pool2
I1017 12:28:09.713465 27481 net.cpp:122] Setting up pool2
I1017 12:28:09.713490 27481 net.cpp:129] Top shape: 50 128 72 72 (33177600)
I1017 12:28:09.713510 27481 net.cpp:137] Memory required for data: 6818000600
I1017 12:28:09.713526 27481 layer_factory.hpp:77] Creating layer conv3_1
I1017 12:28:09.713551 27481 net.cpp:84] Creating Layer conv3_1
I1017 12:28:09.713568 27481 net.cpp:406] conv3_1 <- pool2
I1017 12:28:09.713593 27481 net.cpp:380] conv3_1 -> conv3_1
I1017 12:28:09.720472 27481 net.cpp:122] Setting up conv3_1
I1017 12:28:09.720511 27481 net.cpp:129] Top shape: 50 256 72 72 (66355200)
I1017 12:28:09.720530 27481 net.cpp:137] Memory required for data: 7083421400
I1017 12:28:09.720566 27481 layer_factory.hpp:77] Creating layer relu3_1
I1017 12:28:09.720600 27481 net.cpp:84] Creating Layer relu3_1
I1017 12:28:09.720613 27481 net.cpp:406] relu3_1 <- conv3_1
I1017 12:28:09.720628 27481 net.cpp:367] relu3_1 -> conv3_1 (in-place)
I1017 12:28:09.720646 27481 net.cpp:122] Setting up relu3_1
I1017 12:28:09.720664 27481 net.cpp:129] Top shape: 50 256 72 72 (66355200)
I1017 12:28:09.720677 27481 net.cpp:137] Memory required for data: 7348842200
I1017 12:28:09.720686 27481 layer_factory.hpp:77] Creating layer conv3_2
I1017 12:28:09.720703 27481 net.cpp:84] Creating Layer conv3_2
I1017 12:28:09.720715 27481 net.cpp:406] conv3_2 <- conv3_1
I1017 12:28:09.720729 27481 net.cpp:380] conv3_2 -> conv3_2
I1017 12:28:09.724433 27481 net.cpp:122] Setting up conv3_2
I1017 12:28:09.724469 27481 net.cpp:129] Top shape: 50 256 72 72 (66355200)
I1017 12:28:09.724481 27481 net.cpp:137] Memory required for data: 7614263000
I1017 12:28:09.724498 27481 layer_factory.hpp:77] Creating layer relu3_2
I1017 12:28:09.724524 27481 net.cpp:84] Creating Layer relu3_2
I1017 12:28:09.724542 27481 net.cpp:406] relu3_2 <- conv3_2
I1017 12:28:09.724572 27481 net.cpp:367] relu3_2 -> conv3_2 (in-place)
I1017 12:28:09.724606 27481 net.cpp:122] Setting up relu3_2
I1017 12:28:09.724629 27481 net.cpp:129] Top shape: 50 256 72 72 (66355200)
I1017 12:28:09.724643 27481 net.cpp:137] Memory required for data: 7879683800
I1017 12:28:09.724655 27481 layer_factory.hpp:77] Creating layer conv3_3
I1017 12:28:09.724674 27481 net.cpp:84] Creating Layer conv3_3
I1017 12:28:09.724686 27481 net.cpp:406] conv3_3 <- conv3_2
I1017 12:28:09.724704 27481 net.cpp:380] conv3_3 -> conv3_3
I1017 12:28:09.728176 27481 net.cpp:122] Setting up conv3_3
I1017 12:28:09.728210 27481 net.cpp:129] Top shape: 50 256 72 72 (66355200)
I1017 12:28:09.728221 27481 net.cpp:137] Memory required for data: 8145104600
I1017 12:28:09.728238 27481 layer_factory.hpp:77] Creating layer relu3_3
I1017 12:28:09.728260 27481 net.cpp:84] Creating Layer relu3_3
I1017 12:28:09.728271 27481 net.cpp:406] relu3_3 <- conv3_3
I1017 12:28:09.728286 27481 net.cpp:367] relu3_3 -> conv3_3 (in-place)
I1017 12:28:09.728304 27481 net.cpp:122] Setting up relu3_3
I1017 12:28:09.728317 27481 net.cpp:129] Top shape: 50 256 72 72 (66355200)
I1017 12:28:09.728327 27481 net.cpp:137] Memory required for data: 8410525400
I1017 12:28:09.728334 27481 layer_factory.hpp:77] Creating layer pool3
I1017 12:28:09.728349 27481 net.cpp:84] Creating Layer pool3
I1017 12:28:09.728358 27481 net.cpp:406] pool3 <- conv3_3
I1017 12:28:09.728374 27481 net.cpp:380] pool3 -> pool3
I1017 12:28:09.728456 27481 net.cpp:122] Setting up pool3
I1017 12:28:09.728473 27481 net.cpp:129] Top shape: 50 256 36 36 (16588800)
I1017 12:28:09.728482 27481 net.cpp:137] Memory required for data: 8476880600
I1017 12:28:09.728492 27481 layer_factory.hpp:77] Creating layer conv4_1
I1017 12:28:09.728508 27481 net.cpp:84] Creating Layer conv4_1
I1017 12:28:09.728520 27481 net.cpp:406] conv4_1 <- pool3
I1017 12:28:09.728535 27481 net.cpp:380] conv4_1 -> conv4_1
I1017 12:28:09.734208 27481 net.cpp:122] Setting up conv4_1
I1017 12:28:09.734242 27481 net.cpp:129] Top shape: 50 512 36 36 (33177600)
I1017 12:28:09.734253 27481 net.cpp:137] Memory required for data: 8609591000
I1017 12:28:09.734273 27481 layer_factory.hpp:77] Creating layer relu4_1
I1017 12:28:09.734292 27481 net.cpp:84] Creating Layer relu4_1
I1017 12:28:09.734302 27481 net.cpp:406] relu4_1 <- conv4_1
I1017 12:28:09.734318 27481 net.cpp:367] relu4_1 -> conv4_1 (in-place)
I1017 12:28:09.734335 27481 net.cpp:122] Setting up relu4_1
I1017 12:28:09.734347 27481 net.cpp:129] Top shape: 50 512 36 36 (33177600)
I1017 12:28:09.734356 27481 net.cpp:137] Memory required for data: 8742301400
I1017 12:28:09.734365 27481 layer_factory.hpp:77] Creating layer conv4_2
I1017 12:28:09.734381 27481 net.cpp:84] Creating Layer conv4_2
I1017 12:28:09.734391 27481 net.cpp:406] conv4_2 <- conv4_1
I1017 12:28:09.734405 27481 net.cpp:380] conv4_2 -> conv4_2
I1017 12:28:09.749832 27481 net.cpp:122] Setting up conv4_2
I1017 12:28:09.750028 27481 net.cpp:129] Top shape: 50 512 36 36 (33177600)
I1017 12:28:09.750052 27481 net.cpp:137] Memory required for data: 8875011800
I1017 12:28:09.750078 27481 layer_factory.hpp:77] Creating layer relu4_2
I1017 12:28:09.750093 27481 net.cpp:84] Creating Layer relu4_2
I1017 12:28:09.750103 27481 net.cpp:406] relu4_2 <- conv4_2
I1017 12:28:09.750113 27481 net.cpp:367] relu4_2 -> conv4_2 (in-place)
I1017 12:28:09.750128 27481 net.cpp:122] Setting up relu4_2
I1017 12:28:09.750141 27481 net.cpp:129] Top shape: 50 512 36 36 (33177600)
I1017 12:28:09.750149 27481 net.cpp:137] Memory required for data: 9007722200
I1017 12:28:09.750159 27481 layer_factory.hpp:77] Creating layer conv4_3
I1017 12:28:09.750175 27481 net.cpp:84] Creating Layer conv4_3
I1017 12:28:09.750185 27481 net.cpp:406] conv4_3 <- conv4_2
I1017 12:28:09.750198 27481 net.cpp:380] conv4_3 -> conv4_3
I1017 12:28:09.764120 27481 net.cpp:122] Setting up conv4_3
I1017 12:28:09.764153 27481 net.cpp:129] Top shape: 50 512 36 36 (33177600)
I1017 12:28:09.764163 27481 net.cpp:137] Memory required for data: 9140432600
I1017 12:28:09.764179 27481 layer_factory.hpp:77] Creating layer relu4_3
I1017 12:28:09.764199 27481 net.cpp:84] Creating Layer relu4_3
I1017 12:28:09.764209 27481 net.cpp:406] relu4_3 <- conv4_3
I1017 12:28:09.764225 27481 net.cpp:367] relu4_3 -> conv4_3 (in-place)
I1017 12:28:09.764245 27481 net.cpp:122] Setting up relu4_3
I1017 12:28:09.764256 27481 net.cpp:129] Top shape: 50 512 36 36 (33177600)
I1017 12:28:09.764266 27481 net.cpp:137] Memory required for data: 9273143000
I1017 12:28:09.764273 27481 layer_factory.hpp:77] Creating layer pool4
I1017 12:28:09.764287 27481 net.cpp:84] Creating Layer pool4
I1017 12:28:09.764297 27481 net.cpp:406] pool4 <- conv4_3
I1017 12:28:09.764309 27481 net.cpp:380] pool4 -> pool4
I1017 12:28:09.764379 27481 net.cpp:122] Setting up pool4
I1017 12:28:09.764394 27481 net.cpp:129] Top shape: 50 512 18 18 (8294400)
I1017 12:28:09.764401 27481 net.cpp:137] Memory required for data: 9306320600
I1017 12:28:09.764410 27481 layer_factory.hpp:77] Creating layer conv5_1
I1017 12:28:09.764427 27481 net.cpp:84] Creating Layer conv5_1
I1017 12:28:09.764436 27481 net.cpp:406] conv5_1 <- pool4
I1017 12:28:09.764451 27481 net.cpp:380] conv5_1 -> conv5_1
I1017 12:28:09.772240 27481 net.cpp:122] Setting up conv5_1
I1017 12:28:09.772276 27481 net.cpp:129] Top shape: 50 512 18 18 (8294400)
I1017 12:28:09.772285 27481 net.cpp:137] Memory required for data: 9339498200
I1017 12:28:09.772303 27481 layer_factory.hpp:77] Creating layer relu5_1
I1017 12:28:09.772322 27481 net.cpp:84] Creating Layer relu5_1
I1017 12:28:09.772334 27481 net.cpp:406] relu5_1 <- conv5_1
I1017 12:28:09.772351 27481 net.cpp:367] relu5_1 -> conv5_1 (in-place)
I1017 12:28:09.772370 27481 net.cpp:122] Setting up relu5_1
I1017 12:28:09.772400 27481 net.cpp:129] Top shape: 50 512 18 18 (8294400)
I1017 12:28:09.772410 27481 net.cpp:137] Memory required for data: 9372675800
I1017 12:28:09.772419 27481 layer_factory.hpp:77] Creating layer conv5_2
I1017 12:28:09.772438 27481 net.cpp:84] Creating Layer conv5_2
I1017 12:28:09.772447 27481 net.cpp:406] conv5_2 <- conv5_1
I1017 12:28:09.772461 27481 net.cpp:380] conv5_2 -> conv5_2
I1017 12:28:09.779896 27481 net.cpp:122] Setting up conv5_2
I1017 12:28:09.779928 27481 net.cpp:129] Top shape: 50 512 18 18 (8294400)
I1017 12:28:09.779938 27481 net.cpp:137] Memory required for data: 9405853400
I1017 12:28:09.779956 27481 layer_factory.hpp:77] Creating layer relu5_2
I1017 12:28:09.779984 27481 net.cpp:84] Creating Layer relu5_2
I1017 12:28:09.780009 27481 net.cpp:406] relu5_2 <- conv5_2
I1017 12:28:09.780035 27481 net.cpp:367] relu5_2 -> conv5_2 (in-place)
I1017 12:28:09.780056 27481 net.cpp:122] Setting up relu5_2
I1017 12:28:09.780069 27481 net.cpp:129] Top shape: 50 512 18 18 (8294400)
I1017 12:28:09.780077 27481 net.cpp:137] Memory required for data: 9439031000
I1017 12:28:09.780086 27481 layer_factory.hpp:77] Creating layer conv5_3
I1017 12:28:09.780103 27481 net.cpp:84] Creating Layer conv5_3
I1017 12:28:09.780113 27481 net.cpp:406] conv5_3 <- conv5_2
I1017 12:28:09.780127 27481 net.cpp:380] conv5_3 -> conv5_3
I1017 12:28:09.801668 27481 net.cpp:122] Setting up conv5_3
I1017 12:28:09.801759 27481 net.cpp:129] Top shape: 50 512 18 18 (8294400)
I1017 12:28:09.801774 27481 net.cpp:137] Memory required for data: 9472208600
I1017 12:28:09.801790 27481 layer_factory.hpp:77] Creating layer relu5_3
I1017 12:28:09.801805 27481 net.cpp:84] Creating Layer relu5_3
I1017 12:28:09.801812 27481 net.cpp:406] relu5_3 <- conv5_3
I1017 12:28:09.801822 27481 net.cpp:367] relu5_3 -> conv5_3 (in-place)
I1017 12:28:09.801836 27481 net.cpp:122] Setting up relu5_3
I1017 12:28:09.801843 27481 net.cpp:129] Top shape: 50 512 18 18 (8294400)
I1017 12:28:09.801847 27481 net.cpp:137] Memory required for data: 9505386200
I1017 12:28:09.801852 27481 layer_factory.hpp:77] Creating layer pool5
I1017 12:28:09.801862 27481 net.cpp:84] Creating Layer pool5
I1017 12:28:09.801867 27481 net.cpp:406] pool5 <- conv5_3
I1017 12:28:09.801875 27481 net.cpp:380] pool5 -> pool5
I1017 12:28:09.801929 27481 net.cpp:122] Setting up pool5
I1017 12:28:09.801940 27481 net.cpp:129] Top shape: 50 512 9 9 (2073600)
I1017 12:28:09.801944 27481 net.cpp:137] Memory required for data: 9513680600
I1017 12:28:09.801949 27481 layer_factory.hpp:77] Creating layer fc6-conv
I1017 12:28:09.801960 27481 net.cpp:84] Creating Layer fc6-conv
I1017 12:28:09.801966 27481 net.cpp:406] fc6-conv <- pool5
I1017 12:28:09.801975 27481 net.cpp:380] fc6-conv -> fc6-conv
I1017 12:28:10.096410 27481 net.cpp:122] Setting up fc6-conv
I1017 12:28:10.096441 27481 net.cpp:129] Top shape: 50 4096 3 3 (1843200)
I1017 12:28:10.096448 27481 net.cpp:137] Memory required for data: 9521053400
I1017 12:28:10.096463 27481 layer_factory.hpp:77] Creating layer relu6
I1017 12:28:10.096478 27481 net.cpp:84] Creating Layer relu6
I1017 12:28:10.096493 27481 net.cpp:406] relu6 <- fc6-conv
I1017 12:28:10.096503 27481 net.cpp:367] relu6 -> fc6-conv (in-place)
I1017 12:28:10.096518 27481 net.cpp:122] Setting up relu6
I1017 12:28:10.096524 27481 net.cpp:129] Top shape: 50 4096 3 3 (1843200)
I1017 12:28:10.096529 27481 net.cpp:137] Memory required for data: 9528426200
I1017 12:28:10.096534 27481 layer_factory.hpp:77] Creating layer drop6
I1017 12:28:10.096544 27481 net.cpp:84] Creating Layer drop6
I1017 12:28:10.096549 27481 net.cpp:406] drop6 <- fc6-conv
I1017 12:28:10.096559 27481 net.cpp:367] drop6 -> fc6-conv (in-place)
I1017 12:28:10.096590 27481 net.cpp:122] Setting up drop6
I1017 12:28:10.096597 27481 net.cpp:129] Top shape: 50 4096 3 3 (1843200)
I1017 12:28:10.096602 27481 net.cpp:137] Memory required for data: 9535799000
I1017 12:28:10.096607 27481 layer_factory.hpp:77] Creating layer fc6-conv_re
I1017 12:28:10.096619 27481 net.cpp:84] Creating Layer fc6-conv_re
I1017 12:28:10.096624 27481 net.cpp:406] fc6-conv_re <- fc6-conv
I1017 12:28:10.096632 27481 net.cpp:380] fc6-conv_re -> fc6-conv_re
I1017 12:28:10.096666 27481 net.cpp:122] Setting up fc6-conv_re
I1017 12:28:10.096674 27481 net.cpp:129] Top shape: 50 4096 9 (1843200)
I1017 12:28:10.096679 27481 net.cpp:137] Memory required for data: 9543171800
I1017 12:28:10.096684 27481 layer_factory.hpp:77] Creating layer fc6-conv_tran
I1017 12:28:10.096879 27481 net.cpp:84] Creating Layer fc6-conv_tran
I1017 12:28:10.096891 27481 net.cpp:406] fc6-conv_tran <- fc6-conv_re
I1017 12:28:10.096900 27481 net.cpp:380] fc6-conv_tran -> fc6-conv_tran
I1017 12:28:10.106022 27481 net.cpp:122] Setting up fc6-conv_tran
I1017 12:28:10.106045 27481 net.cpp:129] Top shape: 4 50 9 (1800)
I1017 12:28:10.106051 27481 net.cpp:137] Memory required for data: 9543179000
I1017 12:28:10.106057 27481 layer_factory.hpp:77] Creating layer lstm1
I1017 12:28:10.106073 27481 net.cpp:84] Creating Layer lstm1
I1017 12:28:10.106081 27481 net.cpp:406] lstm1 <- fc6-conv_tran
I1017 12:28:10.106088 27481 net.cpp:406] lstm1 <- clip_markers
I1017 12:28:10.106099 27481 net.cpp:380] lstm1 -> lstm1
I1017 12:28:10.106112 27481 recurrent_layer.cpp:20] Initializing recurrent layer: assuming input batch contains 4 timesteps of 50 independent streams.
I1017 12:28:10.106421 27481 net.cpp:51] Initializing net from parameters: 
layer {
  name: "lstm1_"
  type: "Input"
  top: "x"
  top: "cont"
  input_param {
    shape {
      dim: 4
      dim: 50
      dim: 9
    }
    shape {
      dim: 4
      dim: 50
    }
  }
}
layer {
  name: "lstm1_"
  type: "Input"
  top: "c_0"
  top: "h_0"
  input_param {
    shape {
      dim: 1
      dim: 50
      dim: 512
    }
    shape {
      dim: 1
      dim: 50
      dim: 512
    }
  }
}
layer {
  name: "lstm1_cont_slice"
  type: "Slice"
  bottom: "cont"
  top: "cont_1"
  top: "cont_2"
  top: "cont_3"
  top: "cont_4"
  slice_param {
    axis: 0
  }
}
layer {
  name: "lstm1_x_transform"
  type: "InnerProduct"
  bottom: "x"
  top: "W_xc_x"
  param {
    name: "W_xc"
  }
  param {
    name: "b_c"
  }
  propagate_down: true
  inner_product_param {
    num_output: 2048
    bias_term: true
    weight_filler {
      type: "uniform"
      min: -0.01
      max: 0.01
    }
    bias_filler {
      type: "constant"
      value: 0
    }
    axis: 2
  }
}
layer {
  name: "lstm1_W_xc_x_slice"
  type: "Slice"
  bottom: "W_xc_x"
  top: "W_xc_x_1"
  top: "W_xc_x_2"
  top: "W_xc_x_3"
  top: "W_xc_x_4"
  slice_param {
    axis: 0
  }
}
layer {
  name: "lstm1_h_conted_0"
  type: "Scale"
  bottom: "h_0"
  bottom: "cont_1"
  top: "h_conted_0"
  scale_param {
    axis: 0
  }
}
layer {
  name: "lstm1_transform_1"
  type: "InnerProduct"
  bottom: "h_conted_0"
  top: "W_hc_h_0"
  param {
    name: "W_hc"
  }
  inner_product_param {
    num_output: 2048
    bias_term: false
    weight_filler {
      type: "uniform"
      min: -0.01
      max: 0.01
    }
    axis: 2
  }
}
layer {
  name: "lstm1_gate_input_1"
  type: "Eltwise"
  bottom: "W_hc_h_0"
  bottom: "W_xc_x_1"
  top: "gate_input_1"
  eltwise_param {
    operation: SUM
  }
}
layer {
  name: "lstm1_unit_1"
  type: "LSTMUnit"
  bottom: "c_0"
  bottom: "gate_input_1"
  bottom: "cont_1"
  top: "c_1"
  top: "h_1"
}
layer {
  name: "lstm1_h_conted_1"
  type: "Scale"
  bottom: "h_1"
  bottom: "cont_2"
  top: "h_conted_1"
  scale_param {
    axis: 0
  }
}
layer {
  name: "lstm1_transform_2"
  type: "InnerProduct"
  bottom: "h_conted_1"
  top: "W_hc_h_1"
  param {
    name: "W_hc"
  }
  inner_product_param {
    num_output: 2048
    bias_term: false
    weight_filler {
      type: "uniform"
      min: -0.01
      max: 0.01
    }
    axis: 2
  }
}
layer {
  name: "lstm1_gate_input_2"
  type: "Eltwise"
  bottom: "W_hc_h_1"
  bottom: "W_xc_x_2"
  top: "gate_input_2"
  eltwise_param {
    operation: SUM
  }
}
layer {
  name: "lstm1_unit_2"
  type: "LSTMUnit"
  bottom: "c_1"
  bottom: "gate_input_2"
  bottom: "cont_2"
  top: "c_2"
  top: "h_2"
}
layer {
  name: "lstm1_h_conted_2"
  type: "Scale"
  bottom: "h_2"
  bottom: "cont_3"
  top: "h_conted_2"
  scale_param {
    axis: 0
  }
}
layer {
  name: "lstm1_transform_3"
  type: "InnerProduct"
  bottom: "h_conted_2"
  top: "W_hc_h_2"
  param {
    name: "W_hc"
  }
  inner_product_param {
    num_output: 2048
    bias_term: false
    weight_filler {
      type: "uniform"
      min: -0.01
      max: 0.01
    }
    axis: 2
  }
}
layer {
  name: "lstm1_gate_input_3"
  type: "Eltwise"
  bottom: "W_hc_h_2"
  bottom: "W_xc_x_3"
  top: "gate_input_3"
  eltwise_param {
    operation: SUM
  }
}
layer {
  name: "lstm1_unit_3"
  type: "LSTMUnit"
  bottom: "c_2"
  bottom: "gate_input_3"
  bottom: "cont_3"
  top: "c_3"
  top: "h_3"
}
layer {
  name: "lstm1_h_conted_3"
  type: "Scale"
  bottom: "h_3"
  bottom: "cont_4"
  top: "h_conted_3"
  scale_param {
    axis: 0
  }
}
layer {
  name: "lstm1_transform_4"
  type: "InnerProduct"
  bottom: "h_conted_3"
  top: "W_hc_h_3"
  param {
    name: "W_hc"
  }
  inner_product_param {
    num_output: 2048
    bias_term: false
    weight_filler {
      type: "uniform"
      min: -0.01
      max: 0.01
    }
    axis: 2
  }
}
layer {
  name: "lstm1_gate_input_4"
  type: "Eltwise"
  bottom: "W_hc_h_3"
  bottom: "W_xc_x_4"
  top: "gate_input_4"
  eltwise_param {
    operation: SUM
  }
}
layer {
  name: "lstm1_unit_4"
  type: "LSTMUnit"
  bottom: "c_3"
  bottom: "gate_input_4"
  bottom: "cont_4"
  top: "c_4"
  top: "h_4"
}
layer {
  name: "lstm1_"
  type: "Split"
  bottom: "c_4"
  top: "c_T"
}
layer {
  name: "lstm1_h_concat"
  type: "Concat"
  bottom: "h_1"
  bottom: "h_2"
  bottom: "h_3"
  bottom: "h_4"
  top: "h"
  concat_param {
    axis: 0
  }
}
layer {
  name: "h_pseudoloss"
  type: "Reduction"
  bottom: "h"
  top: "h_pseudoloss"
  loss_weight: 1
}
I1017 12:28:10.106616 27481 layer_factory.hpp:77] Creating layer lstm1_
I1017 12:28:10.106631 27481 net.cpp:84] Creating Layer lstm1_
I1017 12:28:10.106637 27481 net.cpp:380] lstm1_ -> x
I1017 12:28:10.106648 27481 net.cpp:380] lstm1_ -> cont
I1017 12:28:10.106704 27481 net.cpp:122] Setting up lstm1_
I1017 12:28:10.106714 27481 net.cpp:129] Top shape: 4 50 9 (1800)
I1017 12:28:10.106720 27481 net.cpp:129] Top shape: 4 50 (200)
I1017 12:28:10.106725 27481 net.cpp:137] Memory required for data: 8000
I1017 12:28:10.106730 27481 layer_factory.hpp:77] Creating layer lstm1_
I1017 12:28:10.106739 27481 net.cpp:84] Creating Layer lstm1_
I1017 12:28:10.106745 27481 net.cpp:380] lstm1_ -> c_0
I1017 12:28:10.106755 27481 net.cpp:380] lstm1_ -> h_0
I1017 12:28:10.106801 27481 net.cpp:122] Setting up lstm1_
I1017 12:28:10.106808 27481 net.cpp:129] Top shape: 1 50 512 (25600)
I1017 12:28:10.106814 27481 net.cpp:129] Top shape: 1 50 512 (25600)
I1017 12:28:10.106818 27481 net.cpp:137] Memory required for data: 212800
I1017 12:28:10.106823 27481 layer_factory.hpp:77] Creating layer lstm1_cont_slice
I1017 12:28:10.106835 27481 net.cpp:84] Creating Layer lstm1_cont_slice
I1017 12:28:10.106842 27481 net.cpp:406] lstm1_cont_slice <- cont
I1017 12:28:10.106848 27481 net.cpp:380] lstm1_cont_slice -> cont_1
I1017 12:28:10.106858 27481 net.cpp:380] lstm1_cont_slice -> cont_2
I1017 12:28:10.106866 27481 net.cpp:380] lstm1_cont_slice -> cont_3
I1017 12:28:10.106873 27481 net.cpp:380] lstm1_cont_slice -> cont_4
I1017 12:28:10.106943 27481 net.cpp:122] Setting up lstm1_cont_slice
I1017 12:28:10.106952 27481 net.cpp:129] Top shape: 1 50 (50)
I1017 12:28:10.106957 27481 net.cpp:129] Top shape: 1 50 (50)
I1017 12:28:10.106963 27481 net.cpp:129] Top shape: 1 50 (50)
I1017 12:28:10.106968 27481 net.cpp:129] Top shape: 1 50 (50)
I1017 12:28:10.106973 27481 net.cpp:137] Memory required for data: 213600
I1017 12:28:10.106977 27481 layer_factory.hpp:77] Creating layer cont_1_lstm1_cont_slice_0_split
I1017 12:28:10.106984 27481 net.cpp:84] Creating Layer cont_1_lstm1_cont_slice_0_split
I1017 12:28:10.106989 27481 net.cpp:406] cont_1_lstm1_cont_slice_0_split <- cont_1
I1017 12:28:10.106998 27481 net.cpp:380] cont_1_lstm1_cont_slice_0_split -> cont_1_lstm1_cont_slice_0_split_0
I1017 12:28:10.107007 27481 net.cpp:380] cont_1_lstm1_cont_slice_0_split -> cont_1_lstm1_cont_slice_0_split_1
I1017 12:28:10.107056 27481 net.cpp:122] Setting up cont_1_lstm1_cont_slice_0_split
I1017 12:28:10.107064 27481 net.cpp:129] Top shape: 1 50 (50)
I1017 12:28:10.107069 27481 net.cpp:129] Top shape: 1 50 (50)
I1017 12:28:10.107072 27481 net.cpp:137] Memory required for data: 214000
I1017 12:28:10.107076 27481 layer_factory.hpp:77] Creating layer cont_2_lstm1_cont_slice_1_split
I1017 12:28:10.107084 27481 net.cpp:84] Creating Layer cont_2_lstm1_cont_slice_1_split
I1017 12:28:10.107089 27481 net.cpp:406] cont_2_lstm1_cont_slice_1_split <- cont_2
I1017 12:28:10.107095 27481 net.cpp:380] cont_2_lstm1_cont_slice_1_split -> cont_2_lstm1_cont_slice_1_split_0
I1017 12:28:10.107105 27481 net.cpp:380] cont_2_lstm1_cont_slice_1_split -> cont_2_lstm1_cont_slice_1_split_1
I1017 12:28:10.107137 27481 net.cpp:122] Setting up cont_2_lstm1_cont_slice_1_split
I1017 12:28:10.107143 27481 net.cpp:129] Top shape: 1 50 (50)
I1017 12:28:10.107148 27481 net.cpp:129] Top shape: 1 50 (50)
I1017 12:28:10.107152 27481 net.cpp:137] Memory required for data: 214400
I1017 12:28:10.107156 27481 layer_factory.hpp:77] Creating layer cont_3_lstm1_cont_slice_2_split
I1017 12:28:10.107163 27481 net.cpp:84] Creating Layer cont_3_lstm1_cont_slice_2_split
I1017 12:28:10.107168 27481 net.cpp:406] cont_3_lstm1_cont_slice_2_split <- cont_3
I1017 12:28:10.107174 27481 net.cpp:380] cont_3_lstm1_cont_slice_2_split -> cont_3_lstm1_cont_slice_2_split_0
I1017 12:28:10.107180 27481 net.cpp:380] cont_3_lstm1_cont_slice_2_split -> cont_3_lstm1_cont_slice_2_split_1
I1017 12:28:10.107215 27481 net.cpp:122] Setting up cont_3_lstm1_cont_slice_2_split
I1017 12:28:10.107221 27481 net.cpp:129] Top shape: 1 50 (50)
I1017 12:28:10.107226 27481 net.cpp:129] Top shape: 1 50 (50)
I1017 12:28:10.107231 27481 net.cpp:137] Memory required for data: 214800
I1017 12:28:10.107235 27481 layer_factory.hpp:77] Creating layer cont_4_lstm1_cont_slice_3_split
I1017 12:28:10.107240 27481 net.cpp:84] Creating Layer cont_4_lstm1_cont_slice_3_split
I1017 12:28:10.107244 27481 net.cpp:406] cont_4_lstm1_cont_slice_3_split <- cont_4
I1017 12:28:10.107250 27481 net.cpp:380] cont_4_lstm1_cont_slice_3_split -> cont_4_lstm1_cont_slice_3_split_0
I1017 12:28:10.107259 27481 net.cpp:380] cont_4_lstm1_cont_slice_3_split -> cont_4_lstm1_cont_slice_3_split_1
I1017 12:28:10.107290 27481 net.cpp:122] Setting up cont_4_lstm1_cont_slice_3_split
I1017 12:28:10.107296 27481 net.cpp:129] Top shape: 1 50 (50)
I1017 12:28:10.107301 27481 net.cpp:129] Top shape: 1 50 (50)
I1017 12:28:10.107306 27481 net.cpp:137] Memory required for data: 215200
I1017 12:28:10.107309 27481 layer_factory.hpp:77] Creating layer lstm1_x_transform
I1017 12:28:10.107318 27481 net.cpp:84] Creating Layer lstm1_x_transform
I1017 12:28:10.107323 27481 net.cpp:406] lstm1_x_transform <- x
I1017 12:28:10.107332 27481 net.cpp:380] lstm1_x_transform -> W_xc_x
I1017 12:28:10.107632 27481 net.cpp:122] Setting up lstm1_x_transform
I1017 12:28:10.107641 27481 net.cpp:129] Top shape: 4 50 2048 (409600)
I1017 12:28:10.107646 27481 net.cpp:137] Memory required for data: 1853600
I1017 12:28:10.107656 27481 layer_factory.hpp:77] Creating layer lstm1_W_xc_x_slice
I1017 12:28:10.107664 27481 net.cpp:84] Creating Layer lstm1_W_xc_x_slice
I1017 12:28:10.107668 27481 net.cpp:406] lstm1_W_xc_x_slice <- W_xc_x
I1017 12:28:10.107674 27481 net.cpp:380] lstm1_W_xc_x_slice -> W_xc_x_1
I1017 12:28:10.107682 27481 net.cpp:380] lstm1_W_xc_x_slice -> W_xc_x_2
I1017 12:28:10.107689 27481 net.cpp:380] lstm1_W_xc_x_slice -> W_xc_x_3
I1017 12:28:10.107697 27481 net.cpp:380] lstm1_W_xc_x_slice -> W_xc_x_4
I1017 12:28:10.107797 27481 net.cpp:122] Setting up lstm1_W_xc_x_slice
I1017 12:28:10.107805 27481 net.cpp:129] Top shape: 1 50 2048 (102400)
I1017 12:28:10.107810 27481 net.cpp:129] Top shape: 1 50 2048 (102400)
I1017 12:28:10.107815 27481 net.cpp:129] Top shape: 1 50 2048 (102400)
I1017 12:28:10.107820 27481 net.cpp:129] Top shape: 1 50 2048 (102400)
I1017 12:28:10.107823 27481 net.cpp:137] Memory required for data: 3492000
I1017 12:28:10.107827 27481 layer_factory.hpp:77] Creating layer lstm1_h_conted_0
I1017 12:28:10.107836 27481 net.cpp:84] Creating Layer lstm1_h_conted_0
I1017 12:28:10.107839 27481 net.cpp:406] lstm1_h_conted_0 <- h_0
I1017 12:28:10.107847 27481 net.cpp:406] lstm1_h_conted_0 <- cont_1_lstm1_cont_slice_0_split_0
I1017 12:28:10.107854 27481 net.cpp:380] lstm1_h_conted_0 -> h_conted_0
I1017 12:28:10.107926 27481 net.cpp:122] Setting up lstm1_h_conted_0
I1017 12:28:10.107934 27481 net.cpp:129] Top shape: 1 50 512 (25600)
I1017 12:28:10.107939 27481 net.cpp:137] Memory required for data: 3594400
I1017 12:28:10.107942 27481 layer_factory.hpp:77] Creating layer lstm1_transform_1
I1017 12:28:10.107950 27481 net.cpp:84] Creating Layer lstm1_transform_1
I1017 12:28:10.107955 27481 net.cpp:406] lstm1_transform_1 <- h_conted_0
I1017 12:28:10.107962 27481 net.cpp:380] lstm1_transform_1 -> W_hc_h_0
I1017 12:28:10.124610 27481 net.cpp:122] Setting up lstm1_transform_1
I1017 12:28:10.124627 27481 net.cpp:129] Top shape: 1 50 2048 (102400)
I1017 12:28:10.124634 27481 net.cpp:137] Memory required for data: 4004000
I1017 12:28:10.124644 27481 layer_factory.hpp:77] Creating layer lstm1_gate_input_1
I1017 12:28:10.124652 27481 net.cpp:84] Creating Layer lstm1_gate_input_1
I1017 12:28:10.124657 27481 net.cpp:406] lstm1_gate_input_1 <- W_hc_h_0
I1017 12:28:10.124663 27481 net.cpp:406] lstm1_gate_input_1 <- W_xc_x_1
I1017 12:28:10.124670 27481 net.cpp:380] lstm1_gate_input_1 -> gate_input_1
I1017 12:28:10.124701 27481 net.cpp:122] Setting up lstm1_gate_input_1
I1017 12:28:10.124707 27481 net.cpp:129] Top shape: 1 50 2048 (102400)
I1017 12:28:10.124711 27481 net.cpp:137] Memory required for data: 4413600
I1017 12:28:10.124716 27481 layer_factory.hpp:77] Creating layer lstm1_unit_1
I1017 12:28:10.124724 27481 net.cpp:84] Creating Layer lstm1_unit_1
I1017 12:28:10.124729 27481 net.cpp:406] lstm1_unit_1 <- c_0
I1017 12:28:10.124735 27481 net.cpp:406] lstm1_unit_1 <- gate_input_1
I1017 12:28:10.124740 27481 net.cpp:406] lstm1_unit_1 <- cont_1_lstm1_cont_slice_0_split_1
I1017 12:28:10.124747 27481 net.cpp:380] lstm1_unit_1 -> c_1
I1017 12:28:10.124753 27481 net.cpp:380] lstm1_unit_1 -> h_1
I1017 12:28:10.124799 27481 net.cpp:122] Setting up lstm1_unit_1
I1017 12:28:10.124806 27481 net.cpp:129] Top shape: 1 50 512 (25600)
I1017 12:28:10.124811 27481 net.cpp:129] Top shape: 1 50 512 (25600)
I1017 12:28:10.124815 27481 net.cpp:137] Memory required for data: 4618400
I1017 12:28:10.124819 27481 layer_factory.hpp:77] Creating layer h_1_lstm1_unit_1_1_split
I1017 12:28:10.124825 27481 net.cpp:84] Creating Layer h_1_lstm1_unit_1_1_split
I1017 12:28:10.124830 27481 net.cpp:406] h_1_lstm1_unit_1_1_split <- h_1
I1017 12:28:10.124840 27481 net.cpp:380] h_1_lstm1_unit_1_1_split -> h_1_lstm1_unit_1_1_split_0
I1017 12:28:10.124847 27481 net.cpp:380] h_1_lstm1_unit_1_1_split -> h_1_lstm1_unit_1_1_split_1
I1017 12:28:10.124878 27481 net.cpp:122] Setting up h_1_lstm1_unit_1_1_split
I1017 12:28:10.124886 27481 net.cpp:129] Top shape: 1 50 512 (25600)
I1017 12:28:10.124891 27481 net.cpp:129] Top shape: 1 50 512 (25600)
I1017 12:28:10.124894 27481 net.cpp:137] Memory required for data: 4823200
I1017 12:28:10.124898 27481 layer_factory.hpp:77] Creating layer lstm1_h_conted_1
I1017 12:28:10.124907 27481 net.cpp:84] Creating Layer lstm1_h_conted_1
I1017 12:28:10.124913 27481 net.cpp:406] lstm1_h_conted_1 <- h_1_lstm1_unit_1_1_split_0
I1017 12:28:10.124922 27481 net.cpp:406] lstm1_h_conted_1 <- cont_2_lstm1_cont_slice_1_split_0
I1017 12:28:10.124933 27481 net.cpp:380] lstm1_h_conted_1 -> h_conted_1
I1017 12:28:10.125026 27481 net.cpp:122] Setting up lstm1_h_conted_1
I1017 12:28:10.125046 27481 net.cpp:129] Top shape: 1 50 512 (25600)
I1017 12:28:10.125053 27481 net.cpp:137] Memory required for data: 4925600
I1017 12:28:10.125061 27481 layer_factory.hpp:77] Creating layer lstm1_transform_2
I1017 12:28:10.125072 27481 net.cpp:84] Creating Layer lstm1_transform_2
I1017 12:28:10.125077 27481 net.cpp:406] lstm1_transform_2 <- h_conted_1
I1017 12:28:10.125084 27481 net.cpp:380] lstm1_transform_2 -> W_hc_h_1
I1017 12:28:10.136973 27481 net.cpp:122] Setting up lstm1_transform_2
I1017 12:28:10.136994 27481 net.cpp:129] Top shape: 1 50 2048 (102400)
I1017 12:28:10.137002 27481 net.cpp:137] Memory required for data: 5335200
I1017 12:28:10.137012 27481 net.cpp:465] Sharing parameters 'W_hc' owned by layer 'lstm1_transform_1', param index 0
I1017 12:28:10.137022 27481 layer_factory.hpp:77] Creating layer lstm1_gate_input_2
I1017 12:28:10.137040 27481 net.cpp:84] Creating Layer lstm1_gate_input_2
I1017 12:28:10.137051 27481 net.cpp:406] lstm1_gate_input_2 <- W_hc_h_1
I1017 12:28:10.137063 27481 net.cpp:406] lstm1_gate_input_2 <- W_xc_x_2
I1017 12:28:10.137070 27481 net.cpp:380] lstm1_gate_input_2 -> gate_input_2
I1017 12:28:10.137104 27481 net.cpp:122] Setting up lstm1_gate_input_2
I1017 12:28:10.137114 27481 net.cpp:129] Top shape: 1 50 2048 (102400)
I1017 12:28:10.137118 27481 net.cpp:137] Memory required for data: 5744800
I1017 12:28:10.137122 27481 layer_factory.hpp:77] Creating layer lstm1_unit_2
I1017 12:28:10.137132 27481 net.cpp:84] Creating Layer lstm1_unit_2
I1017 12:28:10.137137 27481 net.cpp:406] lstm1_unit_2 <- c_1
I1017 12:28:10.137143 27481 net.cpp:406] lstm1_unit_2 <- gate_input_2
I1017 12:28:10.137148 27481 net.cpp:406] lstm1_unit_2 <- cont_2_lstm1_cont_slice_1_split_1
I1017 12:28:10.137154 27481 net.cpp:380] lstm1_unit_2 -> c_2
I1017 12:28:10.137162 27481 net.cpp:380] lstm1_unit_2 -> h_2
I1017 12:28:10.137213 27481 net.cpp:122] Setting up lstm1_unit_2
I1017 12:28:10.137223 27481 net.cpp:129] Top shape: 1 50 512 (25600)
I1017 12:28:10.137228 27481 net.cpp:129] Top shape: 1 50 512 (25600)
I1017 12:28:10.137233 27481 net.cpp:137] Memory required for data: 5949600
I1017 12:28:10.137238 27481 layer_factory.hpp:77] Creating layer h_2_lstm1_unit_2_1_split
I1017 12:28:10.137243 27481 net.cpp:84] Creating Layer h_2_lstm1_unit_2_1_split
I1017 12:28:10.137248 27481 net.cpp:406] h_2_lstm1_unit_2_1_split <- h_2
I1017 12:28:10.137256 27481 net.cpp:380] h_2_lstm1_unit_2_1_split -> h_2_lstm1_unit_2_1_split_0
I1017 12:28:10.137264 27481 net.cpp:380] h_2_lstm1_unit_2_1_split -> h_2_lstm1_unit_2_1_split_1
I1017 12:28:10.137298 27481 net.cpp:122] Setting up h_2_lstm1_unit_2_1_split
I1017 12:28:10.137306 27481 net.cpp:129] Top shape: 1 50 512 (25600)
I1017 12:28:10.137312 27481 net.cpp:129] Top shape: 1 50 512 (25600)
I1017 12:28:10.137316 27481 net.cpp:137] Memory required for data: 6154400
I1017 12:28:10.137320 27481 layer_factory.hpp:77] Creating layer lstm1_h_conted_2
I1017 12:28:10.137327 27481 net.cpp:84] Creating Layer lstm1_h_conted_2
I1017 12:28:10.137332 27481 net.cpp:406] lstm1_h_conted_2 <- h_2_lstm1_unit_2_1_split_0
I1017 12:28:10.137338 27481 net.cpp:406] lstm1_h_conted_2 <- cont_3_lstm1_cont_slice_2_split_0
I1017 12:28:10.137346 27481 net.cpp:380] lstm1_h_conted_2 -> h_conted_2
I1017 12:28:10.137408 27481 net.cpp:122] Setting up lstm1_h_conted_2
I1017 12:28:10.137415 27481 net.cpp:129] Top shape: 1 50 512 (25600)
I1017 12:28:10.137420 27481 net.cpp:137] Memory required for data: 6256800
I1017 12:28:10.137425 27481 layer_factory.hpp:77] Creating layer lstm1_transform_3
I1017 12:28:10.137434 27481 net.cpp:84] Creating Layer lstm1_transform_3
I1017 12:28:10.137437 27481 net.cpp:406] lstm1_transform_3 <- h_conted_2
I1017 12:28:10.137444 27481 net.cpp:380] lstm1_transform_3 -> W_hc_h_2
I1017 12:28:10.149763 27481 net.cpp:122] Setting up lstm1_transform_3
I1017 12:28:10.149782 27481 net.cpp:129] Top shape: 1 50 2048 (102400)
I1017 12:28:10.149787 27481 net.cpp:137] Memory required for data: 6666400
I1017 12:28:10.149796 27481 net.cpp:465] Sharing parameters 'W_hc' owned by layer 'lstm1_transform_1', param index 0
I1017 12:28:10.149802 27481 layer_factory.hpp:77] Creating layer lstm1_gate_input_3
I1017 12:28:10.149811 27481 net.cpp:84] Creating Layer lstm1_gate_input_3
I1017 12:28:10.149817 27481 net.cpp:406] lstm1_gate_input_3 <- W_hc_h_2
I1017 12:28:10.149824 27481 net.cpp:406] lstm1_gate_input_3 <- W_xc_x_3
I1017 12:28:10.149832 27481 net.cpp:380] lstm1_gate_input_3 -> gate_input_3
I1017 12:28:10.149864 27481 net.cpp:122] Setting up lstm1_gate_input_3
I1017 12:28:10.149874 27481 net.cpp:129] Top shape: 1 50 2048 (102400)
I1017 12:28:10.149878 27481 net.cpp:137] Memory required for data: 7076000
I1017 12:28:10.149883 27481 layer_factory.hpp:77] Creating layer lstm1_unit_3
I1017 12:28:10.149893 27481 net.cpp:84] Creating Layer lstm1_unit_3
I1017 12:28:10.149897 27481 net.cpp:406] lstm1_unit_3 <- c_2
I1017 12:28:10.149904 27481 net.cpp:406] lstm1_unit_3 <- gate_input_3
I1017 12:28:10.149909 27481 net.cpp:406] lstm1_unit_3 <- cont_3_lstm1_cont_slice_2_split_1
I1017 12:28:10.149914 27481 net.cpp:380] lstm1_unit_3 -> c_3
I1017 12:28:10.149922 27481 net.cpp:380] lstm1_unit_3 -> h_3
I1017 12:28:10.149971 27481 net.cpp:122] Setting up lstm1_unit_3
I1017 12:28:10.149979 27481 net.cpp:129] Top shape: 1 50 512 (25600)
I1017 12:28:10.149986 27481 net.cpp:129] Top shape: 1 50 512 (25600)
I1017 12:28:10.149989 27481 net.cpp:137] Memory required for data: 7280800
I1017 12:28:10.149993 27481 layer_factory.hpp:77] Creating layer h_3_lstm1_unit_3_1_split
I1017 12:28:10.149999 27481 net.cpp:84] Creating Layer h_3_lstm1_unit_3_1_split
I1017 12:28:10.150004 27481 net.cpp:406] h_3_lstm1_unit_3_1_split <- h_3
I1017 12:28:10.150012 27481 net.cpp:380] h_3_lstm1_unit_3_1_split -> h_3_lstm1_unit_3_1_split_0
I1017 12:28:10.150020 27481 net.cpp:380] h_3_lstm1_unit_3_1_split -> h_3_lstm1_unit_3_1_split_1
I1017 12:28:10.150053 27481 net.cpp:122] Setting up h_3_lstm1_unit_3_1_split
I1017 12:28:10.150061 27481 net.cpp:129] Top shape: 1 50 512 (25600)
I1017 12:28:10.150066 27481 net.cpp:129] Top shape: 1 50 512 (25600)
I1017 12:28:10.150070 27481 net.cpp:137] Memory required for data: 7485600
I1017 12:28:10.150074 27481 layer_factory.hpp:77] Creating layer lstm1_h_conted_3
I1017 12:28:10.150084 27481 net.cpp:84] Creating Layer lstm1_h_conted_3
I1017 12:28:10.150089 27481 net.cpp:406] lstm1_h_conted_3 <- h_3_lstm1_unit_3_1_split_0
I1017 12:28:10.150095 27481 net.cpp:406] lstm1_h_conted_3 <- cont_4_lstm1_cont_slice_3_split_0
I1017 12:28:10.150101 27481 net.cpp:380] lstm1_h_conted_3 -> h_conted_3
I1017 12:28:10.150168 27481 net.cpp:122] Setting up lstm1_h_conted_3
I1017 12:28:10.150178 27481 net.cpp:129] Top shape: 1 50 512 (25600)
I1017 12:28:10.150183 27481 net.cpp:137] Memory required for data: 7588000
I1017 12:28:10.150187 27481 layer_factory.hpp:77] Creating layer lstm1_transform_4
I1017 12:28:10.150197 27481 net.cpp:84] Creating Layer lstm1_transform_4
I1017 12:28:10.150205 27481 net.cpp:406] lstm1_transform_4 <- h_conted_3
I1017 12:28:10.150213 27481 net.cpp:380] lstm1_transform_4 -> W_hc_h_3
I1017 12:28:10.169323 27481 net.cpp:122] Setting up lstm1_transform_4
I1017 12:28:10.169344 27481 net.cpp:129] Top shape: 1 50 2048 (102400)
I1017 12:28:10.169349 27481 net.cpp:137] Memory required for data: 7997600
I1017 12:28:10.169356 27481 net.cpp:465] Sharing parameters 'W_hc' owned by layer 'lstm1_transform_1', param index 0
I1017 12:28:10.169363 27481 layer_factory.hpp:77] Creating layer lstm1_gate_input_4
I1017 12:28:10.169374 27481 net.cpp:84] Creating Layer lstm1_gate_input_4
I1017 12:28:10.169379 27481 net.cpp:406] lstm1_gate_input_4 <- W_hc_h_3
I1017 12:28:10.169386 27481 net.cpp:406] lstm1_gate_input_4 <- W_xc_x_4
I1017 12:28:10.169394 27481 net.cpp:380] lstm1_gate_input_4 -> gate_input_4
I1017 12:28:10.169426 27481 net.cpp:122] Setting up lstm1_gate_input_4
I1017 12:28:10.169435 27481 net.cpp:129] Top shape: 1 50 2048 (102400)
I1017 12:28:10.169438 27481 net.cpp:137] Memory required for data: 8407200
I1017 12:28:10.169442 27481 layer_factory.hpp:77] Creating layer lstm1_unit_4
I1017 12:28:10.169450 27481 net.cpp:84] Creating Layer lstm1_unit_4
I1017 12:28:10.169454 27481 net.cpp:406] lstm1_unit_4 <- c_3
I1017 12:28:10.169463 27481 net.cpp:406] lstm1_unit_4 <- gate_input_4
I1017 12:28:10.169468 27481 net.cpp:406] lstm1_unit_4 <- cont_4_lstm1_cont_slice_3_split_1
I1017 12:28:10.169474 27481 net.cpp:380] lstm1_unit_4 -> c_4
I1017 12:28:10.169483 27481 net.cpp:380] lstm1_unit_4 -> h_4
I1017 12:28:10.169531 27481 net.cpp:122] Setting up lstm1_unit_4
I1017 12:28:10.169538 27481 net.cpp:129] Top shape: 1 50 512 (25600)
I1017 12:28:10.169544 27481 net.cpp:129] Top shape: 1 50 512 (25600)
I1017 12:28:10.169548 27481 net.cpp:137] Memory required for data: 8612000
I1017 12:28:10.169553 27481 layer_factory.hpp:77] Creating layer lstm1_
I1017 12:28:10.169559 27481 net.cpp:84] Creating Layer lstm1_
I1017 12:28:10.169564 27481 net.cpp:406] lstm1_ <- c_4
I1017 12:28:10.169569 27481 net.cpp:380] lstm1_ -> c_T
I1017 12:28:10.169595 27481 net.cpp:122] Setting up lstm1_
I1017 12:28:10.169600 27481 net.cpp:129] Top shape: 1 50 512 (25600)
I1017 12:28:10.169605 27481 net.cpp:137] Memory required for data: 8714400
I1017 12:28:10.169611 27481 layer_factory.hpp:77] Creating layer lstm1_h_concat
I1017 12:28:10.169620 27481 net.cpp:84] Creating Layer lstm1_h_concat
I1017 12:28:10.169625 27481 net.cpp:406] lstm1_h_concat <- h_1_lstm1_unit_1_1_split_1
I1017 12:28:10.169631 27481 net.cpp:406] lstm1_h_concat <- h_2_lstm1_unit_2_1_split_1
I1017 12:28:10.169636 27481 net.cpp:406] lstm1_h_concat <- h_3_lstm1_unit_3_1_split_1
I1017 12:28:10.169641 27481 net.cpp:406] lstm1_h_concat <- h_4
I1017 12:28:10.169646 27481 net.cpp:380] lstm1_h_concat -> h
I1017 12:28:10.169672 27481 net.cpp:122] Setting up lstm1_h_concat
I1017 12:28:10.169678 27481 net.cpp:129] Top shape: 4 50 512 (102400)
I1017 12:28:10.169682 27481 net.cpp:137] Memory required for data: 9124000
I1017 12:28:10.169687 27481 layer_factory.hpp:77] Creating layer h_pseudoloss
I1017 12:28:10.169697 27481 net.cpp:84] Creating Layer h_pseudoloss
I1017 12:28:10.169703 27481 net.cpp:406] h_pseudoloss <- h
I1017 12:28:10.169708 27481 net.cpp:380] h_pseudoloss -> h_pseudoloss
I1017 12:28:10.170663 27481 net.cpp:122] Setting up h_pseudoloss
…
I1017 12:28:10.171015 27481 net.cpp:200] lstm1_ does not need backward computation.
I1017 12:28:10.171020 27481 net.cpp:242] This network produces output c_T
I1017 12:28:10.171025 27481 net.cpp:242] This network produces output h_pseudoloss
I1017 12:28:10.173779 27481 net.cpp:255] Network initialization done.
I1017 12:28:10.173885 27481 recurrent_layer.cpp:150] Adding parameter 0: W_xc
I1017 12:28:10.173898 27481 recurrent_layer.cpp:150] Adding parameter 1: b_c
I1017 12:28:10.173907 27481 recurrent_layer.cpp:150] Adding parameter 2: W_hc
I1017 12:28:10.174119 27481 net.cpp:122] Setting up lstm1
I1017 12:28:10.174136 27481 net.cpp:129] Top shape: 4 50 512 (102400)
I1017 12:28:10.174144 27481 net.cpp:137] Memory required for data: 9543588600
I1017 12:28:10.174161 27481 layer_factory.hpp:77] Creating layer lstm1-drop
I1017 12:28:10.174187 27481 net.cpp:84] Creating Layer lstm1-drop
I1017 12:28:10.174203 27481 net.cpp:406] lstm1-drop <- lstm1
I1017 12:28:10.174216 27481 net.cpp:380] lstm1-drop -> lstm1-drop
I1017 12:28:10.174270 27481 net.cpp:122] Setting up lstm1-drop
I1017 12:28:10.174283 27481 net.cpp:129] Top shape: 4 50 512 (102400)
I1017 12:28:10.174290 27481 net.cpp:137] Memory required for data: 9543998200
I1017 12:28:10.174299 27481 layer_factory.hpp:77] Creating layer fc-final
I1017 12:28:10.174312 27481 net.cpp:84] Creating Layer fc-final
I1017 12:28:10.174320 27481 net.cpp:406] fc-final <- lstm1-drop
I1017 12:28:10.174334 27481 net.cpp:380] fc-final -> fc-final
I1017 12:28:10.174648 27481 net.cpp:122] Setting up fc-final
I1017 12:28:10.174664 27481 net.cpp:129] Top shape: 4 50 10 (2000)
I1017 12:28:10.174670 27481 net.cpp:137] Memory required for data: 9544006200
I1017 12:28:10.174695 27481 layer_factory.hpp:77] Creating layer fc-final_fc-final_0_split
I1017 12:28:10.174706 27481 net.cpp:84] Creating Layer fc-final_fc-final_0_split
I1017 12:28:10.174715 27481 net.cpp:406] fc-final_fc-final_0_split <- fc-final
I1017 12:28:10.174726 27481 net.cpp:380] fc-final_fc-final_0_split -> fc-final_fc-final_0_split_0
I1017 12:28:10.174746 27481 net.cpp:380] fc-final_fc-final_0_split -> fc-final_fc-final_0_split_1
I1017 12:28:10.174799 27481 net.cpp:122] Setting up fc-final_fc-final_0_split
I1017 12:28:10.174813 27481 net.cpp:129] Top shape: 4 50 10 (2000)
I1017 12:28:10.174823 27481 net.cpp:129] Top shape: 4 50 10 (2000)
I1017 12:28:10.174830 27481 net.cpp:137] Memory required for data: 9544022200
I1017 12:28:10.174837 27481 layer_factory.hpp:77] Creating layer loss
I1017 12:28:10.174851 27481 net.cpp:84] Creating Layer loss
I1017 12:28:10.174860 27481 net.cpp:406] loss <- fc-final_fc-final_0_split_0
I1017 12:28:10.174870 27481 net.cpp:406] loss <- reshape-label_label_tran_0_split_0
I1017 12:28:10.174881 27481 net.cpp:380] loss -> loss
…
