…
I1017 12:06:13.397759 26788 net.cpp:294] The NetState phase (0) differed from the phase (1) specified by a rule in layer Silence
I1017 12:06:13.397995 26788 net.cpp:51] Initializing net from parameters: 
name: "VGG_16_layers_LSTM"
state {
  phase: TRAIN
  level: 0
  stage: ""
}
layer {
  name: "data"
  type: "ImageData"
  top: "data"
  top: "label"
  include {
    phase: TRAIN
  }
  transform_param {
    mirror: true
    crop_size: 288
    mean_value: 104
    mean_value: 117
    mean_value: 123
  }
  image_data_param {
    source: "../Data/lsun_train_list_12w.txt"
    batch_size: 4
    shuffle: true
    new_height: 320
    new_width: 320
  }
}
layer {
  name: "label_tran"
  type: "Python"
  bottom: "label"
  top: "reshape-label"
  top: "clip_markers"
  python_param {
    module: "data_preparation_sort_max_clip"
    layer: "ReshapeLabel"
  }
}
layer {
  name: "conv1_1"
  type: "Convolution"
  bottom: "data"
  top: "conv1_1"
  convolution_param {
    num_output: 64
    pad: 1
    kernel_size: 3
  }
}
layer {
  name: "relu1_1"
  type: "ReLU"
  bottom: "conv1_1"
  top: "conv1_1"
}
layer {
  name: "conv1_2"
  type: "Convolution"
  bottom: "conv1_1"
  top: "conv1_2"
  convolution_param {
    num_output: 64
    pad: 1
    kernel_size: 3
  }
}
layer {
  name: "relu1_2"
  type: "ReLU"
  bottom: "conv1_2"
  top: "conv1_2"
}
layer {
  name: "pool1"
  type: "Pooling"
  bottom: "conv1_2"
  top: "pool1"
  pooling_param {
    pool: MAX
    kernel_size: 2
    stride: 2
  }
}
layer {
  name: "conv2_1"
  type: "Convolution"
  bottom: "pool1"
  top: "conv2_1"
  convolution_param {
    num_output: 128
    pad: 1
    kernel_size: 3
  }
}
layer {
  name: "relu2_1"
  type: "ReLU"
  bottom: "conv2_1"
  top: "conv2_1"
}
layer {
  name: "conv2_2"
  type: "Convolution"
  bottom: "conv2_1"
  top: "conv2_2"
  convolution_param {
    num_output: 128
    pad: 1
    kernel_size: 3
  }
}
layer {
  name: "relu2_2"
  type: "ReLU"
  bottom: "conv2_2"
  top: "conv2_2"
}
layer {
  name: "pool2"
  type: "Pooling"
  bottom: "conv2_2"
  top: "pool2"
  pooling_param {
    pool: MAX
    kernel_size: 2
    stride: 2
  }
}
layer {
  name: "conv3_1"
  type: "Convolution"
  bottom: "pool2"
  top: "conv3_1"
  convolution_param {
    num_output: 256
    pad: 1
    kernel_size: 3
  }
}
layer {
  name: "relu3_1"
  type: "ReLU"
  bottom: "conv3_1"
  top: "conv3_1"
}
layer {
  name: "conv3_2"
  type: "Convolution"
  bottom: "conv3_1"
  top: "conv3_2"
  convolution_param {
    num_output: 256
    pad: 1
    kernel_size: 3
  }
}
layer {
  name: "relu3_2"
  type: "ReLU"
  bottom: "conv3_2"
  top: "conv3_2"
}
layer {
  name: "conv3_3"
  type: "Convolution"
  bottom: "conv3_2"
  top: "conv3_3"
  convolution_param {
    num_output: 256
    pad: 1
    kernel_size: 3
  }
}
layer {
  name: "relu3_3"
  type: "ReLU"
  bottom: "conv3_3"
  top: "conv3_3"
}
layer {
  name: "pool3"
  type: "Pooling"
  bottom: "conv3_3"
  top: "pool3"
  pooling_param {
    pool: MAX
    kernel_size: 2
    stride: 2
  }
}
layer {
  name: "conv4_1"
  type: "Convolution"
  bottom: "pool3"
  top: "conv4_1"
  convolution_param {
    num_output: 512
    pad: 1
    kernel_size: 3
  }
}
layer {
  name: "relu4_1"
  type: "ReLU"
  bottom: "conv4_1"
  top: "conv4_1"
}
layer {
  name: "conv4_2"
  type: "Convolution"
  bottom: "conv4_1"
  top: "conv4_2"
  convolution_param {
    num_output: 512
    pad: 1
    kernel_size: 3
  }
}
layer {
  name: "relu4_2"
  type: "ReLU"
  bottom: "conv4_2"
  top: "conv4_2"
}
layer {
  name: "conv4_3"
  type: "Convolution"
  bottom: "conv4_2"
  top: "conv4_3"
  convolution_param {
    num_output: 512
    pad: 1
    kernel_size: 3
  }
}
layer {
  name: "relu4_3"
  type: "ReLU"
  bottom: "conv4_3"
  top: "conv4_3"
}
layer {
  name: "pool4"
  type: "Pooling"
  bottom: "conv4_3"
  top: "pool4"
  pooling_param {
    pool: MAX
    kernel_size: 2
    stride: 2
  }
}
layer {
  name: "conv5_1"
  type: "Convolution"
  bottom: "pool4"
  top: "conv5_1"
  convolution_param {
    num_output: 512
    pad: 1
    kernel_size: 3
  }
}
layer {
  name: "relu5_1"
  type: "ReLU"
  bottom: "conv5_1"
  top: "conv5_1"
}
layer {
  name: "conv5_2"
  type: "Convolution"
  bottom: "conv5_1"
  top: "conv5_2"
  convolution_param {
    num_output: 512
    pad: 1
    kernel_size: 3
  }
}
layer {
  name: "relu5_2"
  type: "ReLU"
  bottom: "conv5_2"
  top: "conv5_2"
}
layer {
  name: "conv5_3"
  type: "Convolution"
  bottom: "conv5_2"
  top: "conv5_3"
  convolution_param {
    num_output: 512
    pad: 1
    kernel_size: 3
  }
}
layer {
  name: "relu5_3"
  type: "ReLU"
  bottom: "conv5_3"
  top: "conv5_3"
}
layer {
  name: "pool5"
  type: "Pooling"
  bottom: "conv5_3"
  top: "pool5"
  pooling_param {
    pool: MAX
    kernel_size: 2
    stride: 2
  }
}
layer {
  name: "fc6-conv"
  type: "Convolution"
  bottom: "pool5"
  top: "fc6-conv"
  convolution_param {
    num_output: 4096
    kernel_size: 7
  }
}
layer {
  name: "relu6"
  type: "ReLU"
  bottom: "fc6-conv"
  top: "fc6-conv"
}
layer {
  name: "drop6"
  type: "Dropout"
  bottom: "fc6-conv"
  top: "fc6-conv"
  dropout_param {
    dropout_ratio: 0.5
  }
}
layer {
  name: "fc7-conv"
  type: "Convolution"
  bottom: "fc6-conv"
  top: "fc7-conv"
  convolution_param {
    num_output: 4096
    kernel_size: 1
  }
}
layer {
  name: "relu7"
  type: "ReLU"
  bottom: "fc7-conv"
  top: "fc7-conv"
}
layer {
  name: "drop7"
  type: "Dropout"
  bottom: "fc7-conv"
  top: "fc7-conv"
  dropout_param {
    dropout_ratio: 0.9
  }
}
layer {
  name: "fc7-conv_re"
  type: "Reshape"
  bottom: "fc7-conv"
  top: "fc7-conv_re"
  reshape_param {
    shape {
      dim: 0
      dim: 0
      dim: -1
    }
  }
}
layer {
  name: "fc7-conv_tran"
  type: "Python"
  bottom: "fc7-conv_re"
  top: "fc7-conv_tran"
  python_param {
    module: "data_preparation_sort_max_clip"
    layer: "DataTransposeSortMaxClip"
  }
}
layer {
  name: "lstm1"
  type: "LSTM"
  bottom: "fc7-conv_tran"
  bottom: "clip_markers"
  top: "lstm1"
  recurrent_param {
    num_output: 512
    weight_filler {
      type: "uniform"
      min: -0.01
      max: 0.01
    }
    bias_filler {
      type: "constant"
      value: 0
    }
  }
}
layer {
  name: "lstm1-drop"
  type: "Dropout"
  bottom: "lstm1"
  top: "lstm1-drop"
  dropout_param {
    dropout_ratio: 0.5
  }
}
layer {
  name: "fc-final"
  type: "InnerProduct"
  bottom: "lstm1-drop"
  top: "fc-final"
  param {
    lr_mult: 1
    decay_mult: 1
  }
  param {
    lr_mult: 2
    decay_mult: 0
  }
  inner_product_param {
    num_output: 10
    weight_filler {
      type: "gaussian"
      std: 0.01
    }
    bias_filler {
      type: "constant"
      value: 0
    }
    axis: 2
  }
}
layer {
  name: "loss"
  type: "SoftmaxWithLoss"
  bottom: "fc-final"
  bottom: "reshape-label"
  top: "loss"
  softmax_param {
    axis: 2
  }
}
layer {
  name: "accuracy"
  type: "Accuracy"
  bottom: "fc-final"
  bottom: "reshape-label"
  top: "accuracy"
  accuracy_param {
    axis: 2
  }
}
I1017 12:06:13.398247 26788 layer_factory.hpp:77] Creating layer data
I1017 12:06:13.398300 26788 net.cpp:84] Creating Layer data
I1017 12:06:13.398315 26788 net.cpp:380] data -> data
I1017 12:06:13.398360 26788 net.cpp:380] data -> label
I1017 12:06:13.398394 26788 image_data_layer.cpp:38] Opening file ../Data/lsun_train_list_12w.txt
I1017 12:06:14.162678 26788 image_data_layer.cpp:53] Shuffling data
I1017 12:06:14.537075 26788 image_data_layer.cpp:63] A total of 1200000 images.
I1017 12:06:14.551949 26788 image_data_layer.cpp:90] output data size: 4,3,288,288
I1017 12:06:14.567785 26788 net.cpp:122] Setting up data
I1017 12:06:14.567847 26788 net.cpp:129] Top shape: 4 3 288 288 (995328)
I1017 12:06:14.567859 26788 net.cpp:129] Top shape: 4 (4)
I1017 12:06:14.567868 26788 net.cpp:137] Memory required for data: 3981328
I1017 12:06:14.567903 26788 layer_factory.hpp:77] Creating layer label_tran
I1017 12:06:15.392005 26788 net.cpp:84] Creating Layer label_tran
I1017 12:06:15.392048 26788 net.cpp:406] label_tran <- label
I1017 12:06:15.392088 26788 net.cpp:380] label_tran -> reshape-label
I1017 12:06:15.392115 26788 net.cpp:380] label_tran -> clip_markers
I1017 12:06:15.392525 26788 net.cpp:122] Setting up label_tran
I1017 12:06:15.392550 26788 net.cpp:129] Top shape: 8 4 (32)
I1017 12:06:15.392562 26788 net.cpp:129] Top shape: 8 4 (32)
I1017 12:06:15.392570 26788 net.cpp:137] Memory required for data: 3981584
I1017 12:06:15.392580 26788 layer_factory.hpp:77] Creating layer reshape-label_label_tran_0_split
I1017 12:06:15.392606 26788 net.cpp:84] Creating Layer reshape-label_label_tran_0_split
I1017 12:06:15.392618 26788 net.cpp:406] reshape-label_label_tran_0_split <- reshape-label
I1017 12:06:15.392642 26788 net.cpp:380] reshape-label_label_tran_0_split -> reshape-label_label_tran_0_split_0
I1017 12:06:15.392662 26788 net.cpp:380] reshape-label_label_tran_0_split -> reshape-label_label_tran_0_split_1
I1017 12:06:15.392724 26788 net.cpp:122] Setting up reshape-label_label_tran_0_split
I1017 12:06:15.392740 26788 net.cpp:129] Top shape: 8 4 (32)
I1017 12:06:15.392752 26788 net.cpp:129] Top shape: 8 4 (32)
I1017 12:06:15.392760 26788 net.cpp:137] Memory required for data: 3981840
I1017 12:06:15.392768 26788 layer_factory.hpp:77] Creating layer conv1_1
I1017 12:06:15.392797 26788 net.cpp:84] Creating Layer conv1_1
I1017 12:06:15.392809 26788 net.cpp:406] conv1_1 <- data
I1017 12:06:15.392822 26788 net.cpp:380] conv1_1 -> conv1_1
I1017 12:06:15.395344 26788 net.cpp:122] Setting up conv1_1
I1017 12:06:15.395367 26788 net.cpp:129] Top shape: 4 64 288 288 (21233664)
I1017 12:06:15.395376 26788 net.cpp:137] Memory required for data: 88916496
I1017 12:06:15.395422 26788 layer_factory.hpp:77] Creating layer relu1_1
I1017 12:06:15.395445 26788 net.cpp:84] Creating Layer relu1_1
I1017 12:06:15.395457 26788 net.cpp:406] relu1_1 <- conv1_1
I1017 12:06:15.395472 26788 net.cpp:367] relu1_1 -> conv1_1 (in-place)
I1017 12:06:15.395493 26788 net.cpp:122] Setting up relu1_1
I1017 12:06:15.395505 26788 net.cpp:129] Top shape: 4 64 288 288 (21233664)
I1017 12:06:15.395514 26788 net.cpp:137] Memory required for data: 173851152
I1017 12:06:15.395521 26788 layer_factory.hpp:77] Creating layer conv1_2
I1017 12:06:15.395534 26788 net.cpp:84] Creating Layer conv1_2
I1017 12:06:15.395543 26788 net.cpp:406] conv1_2 <- conv1_1
I1017 12:06:15.395555 26788 net.cpp:380] conv1_2 -> conv1_2
I1017 12:06:15.396957 26788 net.cpp:122] Setting up conv1_2
I1017 12:06:15.396982 26788 net.cpp:129] Top shape: 4 64 288 288 (21233664)
I1017 12:06:15.396991 26788 net.cpp:137] Memory required for data: 258785808
I1017 12:06:15.397025 26788 layer_factory.hpp:77] Creating layer relu1_2
I1017 12:06:15.397047 26788 net.cpp:84] Creating Layer relu1_2
I1017 12:06:15.397058 26788 net.cpp:406] relu1_2 <- conv1_2
I1017 12:06:15.397073 26788 net.cpp:367] relu1_2 -> conv1_2 (in-place)
I1017 12:06:15.397089 26788 net.cpp:122] Setting up relu1_2
I1017 12:06:15.397101 26788 net.cpp:129] Top shape: 4 64 288 288 (21233664)
I1017 12:06:15.397111 26788 net.cpp:137] Memory required for data: 343720464
I1017 12:06:15.397121 26788 layer_factory.hpp:77] Creating layer pool1
I1017 12:06:15.397145 26788 net.cpp:84] Creating Layer pool1
I1017 12:06:15.397155 26788 net.cpp:406] pool1 <- conv1_2
I1017 12:06:15.397166 26788 net.cpp:380] pool1 -> pool1
I1017 12:06:15.397250 26788 net.cpp:122] Setting up pool1
I1017 12:06:15.397267 26788 net.cpp:129] Top shape: 4 64 144 144 (5308416)
I1017 12:06:15.397276 26788 net.cpp:137] Memory required for data: 364954128
I1017 12:06:15.397284 26788 layer_factory.hpp:77] Creating layer conv2_1
I1017 12:06:15.397301 26788 net.cpp:84] Creating Layer conv2_1
I1017 12:06:15.397310 26788 net.cpp:406] conv2_1 <- pool1
I1017 12:06:15.397323 26788 net.cpp:380] conv2_1 -> conv2_1
I1017 12:06:15.397711 26788 net.cpp:122] Setting up conv2_1
I1017 12:06:15.397729 26788 net.cpp:129] Top shape: 4 128 144 144 (10616832)
I1017 12:06:15.397739 26788 net.cpp:137] Memory required for data: 407421456
I1017 12:06:15.397758 26788 layer_factory.hpp:77] Creating layer relu2_1
I1017 12:06:15.397770 26788 net.cpp:84] Creating Layer relu2_1
I1017 12:06:15.397781 26788 net.cpp:406] relu2_1 <- conv2_1
I1017 12:06:15.397792 26788 net.cpp:367] relu2_1 -> conv2_1 (in-place)
I1017 12:06:15.397806 26788 net.cpp:122] Setting up relu2_1
I1017 12:06:15.397816 26788 net.cpp:129] Top shape: 4 128 144 144 (10616832)
I1017 12:06:15.397825 26788 net.cpp:137] Memory required for data: 449888784
I1017 12:06:15.397832 26788 layer_factory.hpp:77] Creating layer conv2_2
I1017 12:06:15.397845 26788 net.cpp:84] Creating Layer conv2_2
I1017 12:06:15.397856 26788 net.cpp:406] conv2_2 <- conv2_1
I1017 12:06:15.397868 26788 net.cpp:380] conv2_2 -> conv2_2
I1017 12:06:15.399241 26788 net.cpp:122] Setting up conv2_2
I1017 12:06:15.399263 26788 net.cpp:129] Top shape: 4 128 144 144 (10616832)
I1017 12:06:15.399271 26788 net.cpp:137] Memory required for data: 492356112
I1017 12:06:15.399286 26788 layer_factory.hpp:77] Creating layer relu2_2
I1017 12:06:15.399308 26788 net.cpp:84] Creating Layer relu2_2
I1017 12:06:15.399320 26788 net.cpp:406] relu2_2 <- conv2_2
I1017 12:06:15.399334 26788 net.cpp:367] relu2_2 -> conv2_2 (in-place)
I1017 12:06:15.399350 26788 net.cpp:122] Setting up relu2_2
I1017 12:06:15.399363 26788 net.cpp:129] Top shape: 4 128 144 144 (10616832)
I1017 12:06:15.399371 26788 net.cpp:137] Memory required for data: 534823440
I1017 12:06:15.399381 26788 layer_factory.hpp:77] Creating layer pool2
I1017 12:06:15.399394 26788 net.cpp:84] Creating Layer pool2
I1017 12:06:15.399404 26788 net.cpp:406] pool2 <- conv2_2
I1017 12:06:15.399417 26788 net.cpp:380] pool2 -> pool2
I1017 12:06:15.399478 26788 net.cpp:122] Setting up pool2
I1017 12:06:15.399498 26788 net.cpp:129] Top shape: 4 128 72 72 (2654208)
I1017 12:06:15.399510 26788 net.cpp:137] Memory required for data: 545440272
I1017 12:06:15.399530 26788 layer_factory.hpp:77] Creating layer conv3_1
I1017 12:06:15.399549 26788 net.cpp:84] Creating Layer conv3_1
I1017 12:06:15.399560 26788 net.cpp:406] conv3_1 <- pool2
I1017 12:06:15.399579 26788 net.cpp:380] conv3_1 -> conv3_1
I1017 12:06:15.402099 26788 net.cpp:122] Setting up conv3_1
I1017 12:06:15.402123 26788 net.cpp:129] Top shape: 4 256 72 72 (5308416)
I1017 12:06:15.402134 26788 net.cpp:137] Memory required for data: 566673936
I1017 12:06:15.402155 26788 layer_factory.hpp:77] Creating layer relu3_1
I1017 12:06:15.402179 26788 net.cpp:84] Creating Layer relu3_1
I1017 12:06:15.402192 26788 net.cpp:406] relu3_1 <- conv3_1
I1017 12:06:15.402206 26788 net.cpp:367] relu3_1 -> conv3_1 (in-place)
I1017 12:06:15.402222 26788 net.cpp:122] Setting up relu3_1
I1017 12:06:15.402235 26788 net.cpp:129] Top shape: 4 256 72 72 (5308416)
I1017 12:06:15.402243 26788 net.cpp:137] Memory required for data: 587907600
I1017 12:06:15.402254 26788 layer_factory.hpp:77] Creating layer conv3_2
I1017 12:06:15.402267 26788 net.cpp:84] Creating Layer conv3_2
I1017 12:06:15.402276 26788 net.cpp:406] conv3_2 <- conv3_1
I1017 12:06:15.402287 26788 net.cpp:380] conv3_2 -> conv3_2
I1017 12:06:15.404762 26788 net.cpp:122] Setting up conv3_2
I1017 12:06:15.404784 26788 net.cpp:129] Top shape: 4 256 72 72 (5308416)
I1017 12:06:15.404793 26788 net.cpp:137] Memory required for data: 609141264
I1017 12:06:15.404808 26788 layer_factory.hpp:77] Creating layer relu3_2
I1017 12:06:15.404824 26788 net.cpp:84] Creating Layer relu3_2
I1017 12:06:15.404834 26788 net.cpp:406] relu3_2 <- conv3_2
I1017 12:06:15.404844 26788 net.cpp:367] relu3_2 -> conv3_2 (in-place)
I1017 12:06:15.404860 26788 net.cpp:122] Setting up relu3_2
I1017 12:06:15.404870 26788 net.cpp:129] Top shape: 4 256 72 72 (5308416)
I1017 12:06:15.404878 26788 net.cpp:137] Memory required for data: 630374928
I1017 12:06:15.404896 26788 layer_factory.hpp:77] Creating layer conv3_3
I1017 12:06:15.404916 26788 net.cpp:84] Creating Layer conv3_3
I1017 12:06:15.404927 26788 net.cpp:406] conv3_3 <- conv3_2
I1017 12:06:15.404942 26788 net.cpp:380] conv3_3 -> conv3_3
I1017 12:06:15.407431 26788 net.cpp:122] Setting up conv3_3
I1017 12:06:15.407454 26788 net.cpp:129] Top shape: 4 256 72 72 (5308416)
I1017 12:06:15.407465 26788 net.cpp:137] Memory required for data: 651608592
I1017 12:06:15.407480 26788 layer_factory.hpp:77] Creating layer relu3_3
I1017 12:06:15.407505 26788 net.cpp:84] Creating Layer relu3_3
I1017 12:06:15.407515 26788 net.cpp:406] relu3_3 <- conv3_3
I1017 12:06:15.407526 26788 net.cpp:367] relu3_3 -> conv3_3 (in-place)
I1017 12:06:15.407539 26788 net.cpp:122] Setting up relu3_3
I1017 12:06:15.407557 26788 net.cpp:129] Top shape: 4 256 72 72 (5308416)
I1017 12:06:15.407568 26788 net.cpp:137] Memory required for data: 672842256
I1017 12:06:15.407577 26788 layer_factory.hpp:77] Creating layer pool3
I1017 12:06:15.407589 26788 net.cpp:84] Creating Layer pool3
I1017 12:06:15.407598 26788 net.cpp:406] pool3 <- conv3_3
I1017 12:06:15.407609 26788 net.cpp:380] pool3 -> pool3
I1017 12:06:15.407670 26788 net.cpp:122] Setting up pool3
I1017 12:06:15.407685 26788 net.cpp:129] Top shape: 4 256 36 36 (1327104)
I1017 12:06:15.407699 26788 net.cpp:137] Memory required for data: 678150672
I1017 12:06:15.407707 26788 layer_factory.hpp:77] Creating layer conv4_1
I1017 12:06:15.407722 26788 net.cpp:84] Creating Layer conv4_1
I1017 12:06:15.407737 26788 net.cpp:406] conv4_1 <- pool3
I1017 12:06:15.407748 26788 net.cpp:380] conv4_1 -> conv4_1
I1017 12:06:15.413352 26788 net.cpp:122] Setting up conv4_1
I1017 12:06:15.413384 26788 net.cpp:129] Top shape: 4 512 36 36 (2654208)
I1017 12:06:15.413393 26788 net.cpp:137] Memory required for data: 688767504
I1017 12:06:15.413419 26788 layer_factory.hpp:77] Creating layer relu4_1
I1017 12:06:15.413447 26788 net.cpp:84] Creating Layer relu4_1
I1017 12:06:15.413460 26788 net.cpp:406] relu4_1 <- conv4_1
I1017 12:06:15.413472 26788 net.cpp:367] relu4_1 -> conv4_1 (in-place)
I1017 12:06:15.413489 26788 net.cpp:122] Setting up relu4_1
I1017 12:06:15.413502 26788 net.cpp:129] Top shape: 4 512 36 36 (2654208)
I1017 12:06:15.413512 26788 net.cpp:137] Memory required for data: 699384336
I1017 12:06:15.413520 26788 layer_factory.hpp:77] Creating layer conv4_2
I1017 12:06:15.413537 26788 net.cpp:84] Creating Layer conv4_2
I1017 12:06:15.413547 26788 net.cpp:406] conv4_2 <- conv4_1
I1017 12:06:15.413559 26788 net.cpp:380] conv4_2 -> conv4_2
I1017 12:06:15.421313 26788 net.cpp:122] Setting up conv4_2
I1017 12:06:15.421344 26788 net.cpp:129] Top shape: 4 512 36 36 (2654208)
I1017 12:06:15.421352 26788 net.cpp:137] Memory required for data: 710001168
I1017 12:06:15.421377 26788 layer_factory.hpp:77] Creating layer relu4_2
I1017 12:06:15.421396 26788 net.cpp:84] Creating Layer relu4_2
I1017 12:06:15.421407 26788 net.cpp:406] relu4_2 <- conv4_2
I1017 12:06:15.421419 26788 net.cpp:367] relu4_2 -> conv4_2 (in-place)
I1017 12:06:15.421438 26788 net.cpp:122] Setting up relu4_2
I1017 12:06:15.421450 26788 net.cpp:129] Top shape: 4 512 36 36 (2654208)
I1017 12:06:15.421458 26788 net.cpp:137] Memory required for data: 720618000
I1017 12:06:15.421466 26788 layer_factory.hpp:77] Creating layer conv4_3
I1017 12:06:15.421483 26788 net.cpp:84] Creating Layer conv4_3
I1017 12:06:15.421494 26788 net.cpp:406] conv4_3 <- conv4_2
I1017 12:06:15.421505 26788 net.cpp:380] conv4_3 -> conv4_3
I1017 12:06:15.429321 26788 net.cpp:122] Setting up conv4_3
I1017 12:06:15.429354 26788 net.cpp:129] Top shape: 4 512 36 36 (2654208)
I1017 12:06:15.429364 26788 net.cpp:137] Memory required for data: 731234832
I1017 12:06:15.429380 26788 layer_factory.hpp:77] Creating layer relu4_3
I1017 12:06:15.429420 26788 net.cpp:84] Creating Layer relu4_3
I1017 12:06:15.429436 26788 net.cpp:406] relu4_3 <- conv4_3
I1017 12:06:15.429450 26788 net.cpp:367] relu4_3 -> conv4_3 (in-place)
I1017 12:06:15.429466 26788 net.cpp:122] Setting up relu4_3
I1017 12:06:15.429481 26788 net.cpp:129] Top shape: 4 512 36 36 (2654208)
I1017 12:06:15.429496 26788 net.cpp:137] Memory required for data: 741851664
I1017 12:06:15.429514 26788 layer_factory.hpp:77] Creating layer pool4
I1017 12:06:15.429539 26788 net.cpp:84] Creating Layer pool4
I1017 12:06:15.429551 26788 net.cpp:406] pool4 <- conv4_3
I1017 12:06:15.429563 26788 net.cpp:380] pool4 -> pool4
I1017 12:06:15.429633 26788 net.cpp:122] Setting up pool4
I1017 12:06:15.429651 26788 net.cpp:129] Top shape: 4 512 18 18 (663552)
I1017 12:06:15.429661 26788 net.cpp:137] Memory required for data: 744505872
I1017 12:06:15.429668 26788 layer_factory.hpp:77] Creating layer conv5_1
I1017 12:06:15.429684 26788 net.cpp:84] Creating Layer conv5_1
I1017 12:06:15.429695 26788 net.cpp:406] conv5_1 <- pool4
I1017 12:06:15.429708 26788 net.cpp:380] conv5_1 -> conv5_1
I1017 12:06:15.437655 26788 net.cpp:122] Setting up conv5_1
I1017 12:06:15.437685 26788 net.cpp:129] Top shape: 4 512 18 18 (663552)
I1017 12:06:15.437693 26788 net.cpp:137] Memory required for data: 747160080
I1017 12:06:15.437719 26788 layer_factory.hpp:77] Creating layer relu5_1
I1017 12:06:15.437744 26788 net.cpp:84] Creating Layer relu5_1
I1017 12:06:15.437755 26788 net.cpp:406] relu5_1 <- conv5_1
I1017 12:06:15.437767 26788 net.cpp:367] relu5_1 -> conv5_1 (in-place)
I1017 12:06:15.437788 26788 net.cpp:122] Setting up relu5_1
I1017 12:06:15.437803 26788 net.cpp:129] Top shape: 4 512 18 18 (663552)
I1017 12:06:15.437816 26788 net.cpp:137] Memory required for data: 749814288
I1017 12:06:15.437825 26788 layer_factory.hpp:77] Creating layer conv5_2
I1017 12:06:15.437851 26788 net.cpp:84] Creating Layer conv5_2
I1017 12:06:15.437866 26788 net.cpp:406] conv5_2 <- conv5_1
I1017 12:06:15.437885 26788 net.cpp:380] conv5_2 -> conv5_2
I1017 12:06:15.446473 26788 net.cpp:122] Setting up conv5_2
I1017 12:06:15.446523 26788 net.cpp:129] Top shape: 4 512 18 18 (663552)
I1017 12:06:15.446558 26788 net.cpp:137] Memory required for data: 752468496
I1017 12:06:15.446594 26788 layer_factory.hpp:77] Creating layer relu5_2
I1017 12:06:15.446622 26788 net.cpp:84] Creating Layer relu5_2
I1017 12:06:15.446640 26788 net.cpp:406] relu5_2 <- conv5_2
I1017 12:06:15.446661 26788 net.cpp:367] relu5_2 -> conv5_2 (in-place)
I1017 12:06:15.446688 26788 net.cpp:122] Setting up relu5_2
I1017 12:06:15.446707 26788 net.cpp:129] Top shape: 4 512 18 18 (663552)
I1017 12:06:15.446722 26788 net.cpp:137] Memory required for data: 755122704
I1017 12:06:15.446736 26788 layer_factory.hpp:77] Creating layer conv5_3
I1017 12:06:15.446764 26788 net.cpp:84] Creating Layer conv5_3
I1017 12:06:15.446781 26788 net.cpp:406] conv5_3 <- conv5_2
I1017 12:06:15.446799 26788 net.cpp:380] conv5_3 -> conv5_3
I1017 12:06:15.454879 26788 net.cpp:122] Setting up conv5_3
I1017 12:06:15.454915 26788 net.cpp:129] Top shape: 4 512 18 18 (663552)
I1017 12:06:15.454926 26788 net.cpp:137] Memory required for data: 757776912
I1017 12:06:15.454943 26788 layer_factory.hpp:77] Creating layer relu5_3
I1017 12:06:15.454983 26788 net.cpp:84] Creating Layer relu5_3
I1017 12:06:15.455000 26788 net.cpp:406] relu5_3 <- conv5_3
I1017 12:06:15.455018 26788 net.cpp:367] relu5_3 -> conv5_3 (in-place)
I1017 12:06:15.455037 26788 net.cpp:122] Setting up relu5_3
I1017 12:06:15.455054 26788 net.cpp:129] Top shape: 4 512 18 18 (663552)
I1017 12:06:15.455065 26788 net.cpp:137] Memory required for data: 760431120
I1017 12:06:15.455073 26788 layer_factory.hpp:77] Creating layer pool5
I1017 12:06:15.455087 26788 net.cpp:84] Creating Layer pool5
I1017 12:06:15.455096 26788 net.cpp:406] pool5 <- conv5_3
I1017 12:06:15.455109 26788 net.cpp:380] pool5 -> pool5
I1017 12:06:15.455189 26788 net.cpp:122] Setting up pool5
I1017 12:06:15.455209 26788 net.cpp:129] Top shape: 4 512 9 9 (165888)
I1017 12:06:15.455219 26788 net.cpp:137] Memory required for data: 761094672
I1017 12:06:15.455235 26788 layer_factory.hpp:77] Creating layer fc6-conv
I1017 12:06:15.455255 26788 net.cpp:84] Creating Layer fc6-conv
I1017 12:06:15.455266 26788 net.cpp:406] fc6-conv <- pool5
I1017 12:06:15.455279 26788 net.cpp:380] fc6-conv -> fc6-conv
I1017 12:06:15.847306 26788 net.cpp:122] Setting up fc6-conv
I1017 12:06:15.847347 26788 net.cpp:129] Top shape: 4 4096 3 3 (147456)
I1017 12:06:15.847352 26788 net.cpp:137] Memory required for data: 761684496
I1017 12:06:15.847364 26788 layer_factory.hpp:77] Creating layer relu6
I1017 12:06:15.847378 26788 net.cpp:84] Creating Layer relu6
I1017 12:06:15.847384 26788 net.cpp:406] relu6 <- fc6-conv
I1017 12:06:15.847396 26788 net.cpp:367] relu6 -> fc6-conv (in-place)
I1017 12:06:15.847409 26788 net.cpp:122] Setting up relu6
I1017 12:06:15.847415 26788 net.cpp:129] Top shape: 4 4096 3 3 (147456)
I1017 12:06:15.847419 26788 net.cpp:137] Memory required for data: 762274320
I1017 12:06:15.847424 26788 layer_factory.hpp:77] Creating layer drop6
I1017 12:06:15.847440 26788 net.cpp:84] Creating Layer drop6
I1017 12:06:15.847445 26788 net.cpp:406] drop6 <- fc6-conv
I1017 12:06:15.847450 26788 net.cpp:367] drop6 -> fc6-conv (in-place)
I1017 12:06:15.847482 26788 net.cpp:122] Setting up drop6
I1017 12:06:15.847491 26788 net.cpp:129] Top shape: 4 4096 3 3 (147456)
I1017 12:06:15.847494 26788 net.cpp:137] Memory required for data: 762864144
I1017 12:06:15.847498 26788 layer_factory.hpp:77] Creating layer fc7-conv
I1017 12:06:15.847510 26788 net.cpp:84] Creating Layer fc7-conv
I1017 12:06:15.847514 26788 net.cpp:406] fc7-conv <- fc6-conv
I1017 12:06:15.847520 26788 net.cpp:380] fc7-conv -> fc7-conv
I1017 12:06:15.891765 26788 net.cpp:122] Setting up fc7-conv
I1017 12:06:15.891825 26788 net.cpp:129] Top shape: 4 4096 3 3 (147456)
I1017 12:06:15.891830 26788 net.cpp:137] Memory required for data: 763453968
I1017 12:06:15.891844 26788 layer_factory.hpp:77] Creating layer relu7
I1017 12:06:15.891858 26788 net.cpp:84] Creating Layer relu7
I1017 12:06:15.891866 26788 net.cpp:406] relu7 <- fc7-conv
I1017 12:06:15.891875 26788 net.cpp:367] relu7 -> fc7-conv (in-place)
I1017 12:06:15.891888 26788 net.cpp:122] Setting up relu7
I1017 12:06:15.891894 26788 net.cpp:129] Top shape: 4 4096 3 3 (147456)
I1017 12:06:15.891899 26788 net.cpp:137] Memory required for data: 764043792
I1017 12:06:15.891906 26788 layer_factory.hpp:77] Creating layer drop7
I1017 12:06:15.891918 26788 net.cpp:84] Creating Layer drop7
I1017 12:06:15.891922 26788 net.cpp:406] drop7 <- fc7-conv
I1017 12:06:15.891928 26788 net.cpp:367] drop7 -> fc7-conv (in-place)
I1017 12:06:15.891959 26788 net.cpp:122] Setting up drop7
I1017 12:06:15.891966 26788 net.cpp:129] Top shape: 4 4096 3 3 (147456)
I1017 12:06:15.891970 26788 net.cpp:137] Memory required for data: 764633616
I1017 12:06:15.891974 26788 layer_factory.hpp:77] Creating layer fc7-conv_re
I1017 12:06:15.891993 26788 net.cpp:84] Creating Layer fc7-conv_re
I1017 12:06:15.891999 26788 net.cpp:406] fc7-conv_re <- fc7-conv
I1017 12:06:15.892006 26788 net.cpp:380] fc7-conv_re -> fc7-conv_re
I1017 12:06:15.892061 26788 net.cpp:122] Setting up fc7-conv_re
I1017 12:06:15.892071 26788 net.cpp:129] Top shape: 4 4096 9 (147456)
I1017 12:06:15.892076 26788 net.cpp:137] Memory required for data: 765223440
I1017 12:06:15.892079 26788 layer_factory.hpp:77] Creating layer fc7-conv_tran
I1017 12:06:15.892174 26788 net.cpp:84] Creating Layer fc7-conv_tran
I1017 12:06:15.892184 26788 net.cpp:406] fc7-conv_tran <- fc7-conv_re
I1017 12:06:15.892192 26788 net.cpp:380] fc7-conv_tran -> fc7-conv_tran
I1017 12:06:15.893402 26788 net.cpp:122] Setting up fc7-conv_tran
I1017 12:06:15.893424 26788 net.cpp:129] Top shape: 8 4 9 (288)
I1017 12:06:15.893429 26788 net.cpp:137] Memory required for data: 765224592
I1017 12:06:15.893434 26788 layer_factory.hpp:77] Creating layer lstm1
I1017 12:06:15.893447 26788 net.cpp:84] Creating Layer lstm1
I1017 12:06:15.893453 26788 net.cpp:406] lstm1 <- fc7-conv_tran
I1017 12:06:15.893460 26788 net.cpp:406] lstm1 <- clip_markers
I1017 12:06:15.893470 26788 net.cpp:380] lstm1 -> lstm1
I1017 12:06:15.893486 26788 recurrent_layer.cpp:20] Initializing recurrent layer: assuming input batch contains 8 timesteps of 4 independent streams.
I1017 12:06:15.894068 26788 net.cpp:51] Initializing net from parameters: 
layer {
  name: "lstm1_"
  type: "Input"
  top: "x"
  top: "cont"
  input_param {
    shape {
      dim: 8
      dim: 4
      dim: 9
    }
    shape {
      dim: 8
      dim: 4
    }
  }
}
layer {
  name: "lstm1_"
  type: "Input"
  top: "c_0"
  top: "h_0"
  input_param {
    shape {
      dim: 1
      dim: 4
      dim: 512
    }
    shape {
      dim: 1
      dim: 4
      dim: 512
    }
  }
}
layer {
  name: "lstm1_cont_slice"
  type: "Slice"
  bottom: "cont"
  top: "cont_1"
  top: "cont_2"
  top: "cont_3"
  top: "cont_4"
  top: "cont_5"
  top: "cont_6"
  top: "cont_7"
  top: "cont_8"
  slice_param {
    axis: 0
  }
}
layer {
  name: "lstm1_x_transform"
  type: "InnerProduct"
  bottom: "x"
  top: "W_xc_x"
  param {
    name: "W_xc"
  }
  param {
    name: "b_c"
  }
  propagate_down: true
  inner_product_param {
    num_output: 2048
    bias_term: true
    weight_filler {
      type: "uniform"
      min: -0.01
      max: 0.01
    }
    bias_filler {
      type: "constant"
      value: 0
    }
    axis: 2
  }
}
layer {
  name: "lstm1_W_xc_x_slice"
  type: "Slice"
  bottom: "W_xc_x"
  top: "W_xc_x_1"
  top: "W_xc_x_2"
  top: "W_xc_x_3"
  top: "W_xc_x_4"
  top: "W_xc_x_5"
  top: "W_xc_x_6"
  top: "W_xc_x_7"
  top: "W_xc_x_8"
  slice_param {
    axis: 0
  }
}
layer {
  name: "lstm1_h_conted_0"
  type: "Scale"
  bottom: "h_0"
  bottom: "cont_1"
  top: "h_conted_0"
  scale_param {
    axis: 0
  }
}
layer {
  name: "lstm1_transform_1"
  type: "InnerProduct"
  bottom: "h_conted_0"
  top: "W_hc_h_0"
  param {
    name: "W_hc"
  }
  inner_product_param {
    num_output: 2048
    bias_term: false
    weight_filler {
      type: "uniform"
      min: -0.01
      max: 0.01
    }
    axis: 2
  }
}
layer {
  name: "lstm1_gate_input_1"
  type: "Eltwise"
  bottom: "W_hc_h_0"
  bottom: "W_xc_x_1"
  top: "gate_input_1"
  eltwise_param {
    operation: SUM
  }
}
layer {
  name: "lstm1_unit_1"
  type: "LSTMUnit"
  bottom: "c_0"
  bottom: "gate_input_1"
  bottom: "cont_1"
  top: "c_1"
  top: "h_1"
}
layer {
  name: "lstm1_h_conted_1"
  type: "Scale"
  bottom: "h_1"
  bottom: "cont_2"
  top: "h_conted_1"
  scale_param {
    axis: 0
  }
}
layer {
  name: "lstm1_transform_2"
  type: "InnerProduct"
  bottom: "h_conted_1"
  top: "W_hc_h_1"
  param {
    name: "W_hc"
  }
  inner_product_param {
    num_output: 2048
    bias_term: false
    weight_filler {
      type: "uniform"
      min: -0.01
      max: 0.01
    }
    axis: 2
  }
}
layer {
  name: "lstm1_gate_input_2"
  type: "Eltwise"
  bottom: "W_hc_h_1"
  bottom: "W_xc_x_2"
  top: "gate_input_2"
  eltwise_param {
    operation: SUM
  }
}
layer {
  name: "lstm1_unit_2"
  type: "LSTMUnit"
  bottom: "c_1"
  bottom: "gate_input_2"
  bottom: "cont_2"
  top: "c_2"
  top: "h_2"
}
layer {
  name: "lstm1_h_conted_2"
  type: "Scale"
  bottom: "h_2"
  bottom: "cont_3"
  top: "h_conted_2"
  scale_param {
    axis: 0
  }
}
layer {
  name: "lstm1_transform_3"
  type: "InnerProduct"
  bottom: "h_conted_2"
  top: "W_hc_h_2"
  param {
    name: "W_hc"
  }
  inner_product_param {
    num_output: 2048
    bias_term: false
    weight_filler {
      type: "uniform"
      min: -0.01
      max: 0.01
    }
    axis: 2
  }
}
layer {
  name: "lstm1_gate_input_3"
  type: "Eltwise"
  bottom: "W_hc_h_2"
  bottom: "W_xc_x_3"
  top: "gate_input_3"
  eltwise_param {
    operation: SUM
  }
}
layer {
  name: "lstm1_unit_3"
  type: "LSTMUnit"
  bottom: "c_2"
  bottom: "gate_input_3"
  bottom: "cont_3"
  top: "c_3"
  top: "h_3"
}
layer {
  name: "lstm1_h_conted_3"
  type: "Scale"
  bottom: "h_3"
  bottom: "cont_4"
  top: "h_conted_3"
  scale_param {
    axis: 0
  }
}
layer {
  name: "lstm1_transform_4"
  type: "InnerProduct"
  bottom: "h_conted_3"
  top: "W_hc_h_3"
  param {
    name: "W_hc"
  }
  inner_product_param {
    num_output: 2048
    bias_term: false
    weight_filler {
      type: "uniform"
      min: -0.01
      max: 0.01
    }
    axis: 2
  }
}
layer {
  name: "lstm1_gate_input_4"
  type: "Eltwise"
  bottom: "W_hc_h_3"
  bottom: "W_xc_x_4"
  top: "gate_input_4"
  eltwise_param {
    operation: SUM
  }
}
layer {
  name: "lstm1_unit_4"
  type: "LSTMUnit"
  bottom: "c_3"
  bottom: "gate_input_4"
  bottom: "cont_4"
  top: "c_4"
  top: "h_4"
}
layer {
  name: "lstm1_h_conted_4"
  type: "Scale"
  bottom: "h_4"
  bottom: "cont_5"
  top: "h_conted_4"
  scale_param {
    axis: 0
  }
}
layer {
  name: "lstm1_transform_5"
  type: "InnerProduct"
  bottom: "h_conted_4"
  top: "W_hc_h_4"
  param {
    name: "W_hc"
  }
  inner_product_param {
    num_output: 2048
    bias_term: false
    weight_filler {
      type: "uniform"
      min: -0.01
      max: 0.01
    }
    axis: 2
  }
}
layer {
  name: "lstm1_gate_input_5"
  type: "Eltwise"
  bottom: "W_hc_h_4"
  bottom: "W_xc_x_5"
  top: "gate_input_5"
  eltwise_param {
    operation: SUM
  }
}
layer {
  name: "lstm1_unit_5"
  type: "LSTMUnit"
  bottom: "c_4"
  bottom: "gate_input_5"
  bottom: "cont_5"
  top: "c_5"
  top: "h_5"
}
layer {
  name: "lstm1_h_conted_5"
  type: "Scale"
  bottom: "h_5"
  bottom: "cont_6"
  top: "h_conted_5"
  scale_param {
    axis: 0
  }
}
layer {
  name: "lstm1_transform_6"
  type: "InnerProduct"
  bottom: "h_conted_5"
  top: "W_hc_h_5"
  param {
    name: "W_hc"
  }
  inner_product_param {
    num_output: 2048
    bias_term: false
    weight_filler {
      type: "uniform"
      min: -0.01
      max: 0.01
    }
    axis: 2
  }
}
layer {
  name: "lstm1_gate_input_6"
  type: "Eltwise"
  bottom: "W_hc_h_5"
  bottom: "W_xc_x_6"
  top: "gate_input_6"
  eltwise_param {
    operation: SUM
  }
}
layer {
  name: "lstm1_unit_6"
  type: "LSTMUnit"
  bottom: "c_5"
  bottom: "gate_input_6"
  bottom: "cont_6"
  top: "c_6"
  top: "h_6"
}
layer {
  name: "lstm1_h_conted_6"
  type: "Scale"
  bottom: "h_6"
  bottom: "cont_7"
  top: "h_conted_6"
  scale_param {
    axis: 0
  }
}
layer {
  name: "lstm1_transform_7"
  type: "InnerProduct"
  bottom: "h_conted_6"
  top: "W_hc_h_6"
  param {
    name: "W_hc"
  }
  inner_product_param {
    num_output: 2048
    bias_term: false
    weight_filler {
      type: "uniform"
      min: -0.01
      max: 0.01
    }
    axis: 2
  }
}
layer {
  name: "lstm1_gate_input_7"
  type: "Eltwise"
  bottom: "W_hc_h_6"
  bottom: "W_xc_x_7"
  top: "gate_input_7"
  eltwise_param {
    operation: SUM
  }
}
layer {
  name: "lstm1_unit_7"
  type: "LSTMUnit"
  bottom: "c_6"
  bottom: "gate_input_7"
  bottom: "cont_7"
  top: "c_7"
  top: "h_7"
}
layer {
  name: "lstm1_h_conted_7"
  type: "Scale"
  bottom: "h_7"
  bottom: "cont_8"
  top: "h_conted_7"
  scale_param {
    axis: 0
  }
}
layer {
  name: "lstm1_transform_8"
  type: "InnerProduct"
  bottom: "h_conted_7"
  top: "W_hc_h_7"
  param {
    name: "W_hc"
  }
  inner_product_param {
    num_output: 2048
    bias_term: false
    weight_filler {
      type: "uniform"
      min: -0.01
      max: 0.01
    }
    axis: 2
  }
}
layer {
  name: "lstm1_gate_input_8"
  type: "Eltwise"
  bottom: "W_hc_h_7"
  bottom: "W_xc_x_8"
  top: "gate_input_8"
  eltwise_param {
    operation: SUM
  }
}
layer {
  name: "lstm1_unit_8"
  type: "LSTMUnit"
  bottom: "c_7"
  bottom: "gate_input_8"
  bottom: "cont_8"
  top: "c_8"
  top: "h_8"
}
layer {
  name: "lstm1_"
  type: "Split"
  bottom: "c_8"
  top: "c_T"
}
layer {
  name: "lstm1_h_concat"
  type: "Concat"
  bottom: "h_1"
  bottom: "h_2"
  bottom: "h_3"
  bottom: "h_4"
  bottom: "h_5"
  bottom: "h_6"
  bottom: "h_7"
  bottom: "h_8"
  top: "h"
  concat_param {
    axis: 0
  }
}
layer {
  name: "h_pseudoloss"
  type: "Reduction"
  bottom: "h"
  top: "h_pseudoloss"
  loss_weight: 1
}
I1017 12:06:15.894361 26788 layer_factory.hpp:77] Creating layer lstm1_
I1017 12:06:15.894383 26788 net.cpp:84] Creating Layer lstm1_
I1017 12:06:15.894390 26788 net.cpp:380] lstm1_ -> x
I1017 12:06:15.894403 26788 net.cpp:380] lstm1_ -> cont
I1017 12:06:15.894455 26788 net.cpp:122] Setting up lstm1_
I1017 12:06:15.894464 26788 net.cpp:129] Top shape: 8 4 9 (288)
I1017 12:06:15.894470 26788 net.cpp:129] Top shape: 8 4 (32)
I1017 12:06:15.894474 26788 net.cpp:137] Memory required for data: 1280
I1017 12:06:15.894479 26788 layer_factory.hpp:77] Creating layer lstm1_
I1017 12:06:15.894487 26788 net.cpp:84] Creating Layer lstm1_
I1017 12:06:15.894496 26788 net.cpp:380] lstm1_ -> c_0
I1017 12:06:15.894505 26788 net.cpp:380] lstm1_ -> h_0
I1017 12:06:15.894553 26788 net.cpp:122] Setting up lstm1_
I1017 12:06:15.894562 26788 net.cpp:129] Top shape: 1 4 512 (2048)
I1017 12:06:15.894567 26788 net.cpp:129] Top shape: 1 4 512 (2048)
I1017 12:06:15.894570 26788 net.cpp:137] Memory required for data: 17664
I1017 12:06:15.894574 26788 layer_factory.hpp:77] Creating layer lstm1_cont_slice
I1017 12:06:15.894585 26788 net.cpp:84] Creating Layer lstm1_cont_slice
I1017 12:06:15.894590 26788 net.cpp:406] lstm1_cont_slice <- cont
I1017 12:06:15.894598 26788 net.cpp:380] lstm1_cont_slice -> cont_1
I1017 12:06:15.894609 26788 net.cpp:380] lstm1_cont_slice -> cont_2
I1017 12:06:15.894616 26788 net.cpp:380] lstm1_cont_slice -> cont_3
I1017 12:06:15.894623 26788 net.cpp:380] lstm1_cont_slice -> cont_4
I1017 12:06:15.894629 26788 net.cpp:380] lstm1_cont_slice -> cont_5
I1017 12:06:15.894636 26788 net.cpp:380] lstm1_cont_slice -> cont_6
I1017 12:06:15.894642 26788 net.cpp:380] lstm1_cont_slice -> cont_7
I1017 12:06:15.894649 26788 net.cpp:380] lstm1_cont_slice -> cont_8
I1017 12:06:15.894753 26788 net.cpp:122] Setting up lstm1_cont_slice
I1017 12:06:15.894760 26788 net.cpp:129] Top shape: 1 4 (4)
I1017 12:06:15.894765 26788 net.cpp:129] Top shape: 1 4 (4)
I1017 12:06:15.894770 26788 net.cpp:129] Top shape: 1 4 (4)
I1017 12:06:15.894775 26788 net.cpp:129] Top shape: 1 4 (4)
I1017 12:06:15.894779 26788 net.cpp:129] Top shape: 1 4 (4)
I1017 12:06:15.894784 26788 net.cpp:129] Top shape: 1 4 (4)
I1017 12:06:15.894788 26788 net.cpp:129] Top shape: 1 4 (4)
I1017 12:06:15.894793 26788 net.cpp:129] Top shape: 1 4 (4)
I1017 12:06:15.894798 26788 net.cpp:137] Memory required for data: 17792
I1017 12:06:15.894801 26788 layer_factory.hpp:77] Creating layer cont_1_lstm1_cont_slice_0_split
I1017 12:06:15.894809 26788 net.cpp:84] Creating Layer cont_1_lstm1_cont_slice_0_split
I1017 12:06:15.894814 26788 net.cpp:406] cont_1_lstm1_cont_slice_0_split <- cont_1
I1017 12:06:15.894819 26788 net.cpp:380] cont_1_lstm1_cont_slice_0_split -> cont_1_lstm1_cont_slice_0_split_0
I1017 12:06:15.894826 26788 net.cpp:380] cont_1_lstm1_cont_slice_0_split -> cont_1_lstm1_cont_slice_0_split_1
I1017 12:06:15.894862 26788 net.cpp:122] Setting up cont_1_lstm1_cont_slice_0_split
I1017 12:06:15.894870 26788 net.cpp:129] Top shape: 1 4 (4)
I1017 12:06:15.894875 26788 net.cpp:129] Top shape: 1 4 (4)
I1017 12:06:15.894878 26788 net.cpp:137] Memory required for data: 17824
I1017 12:06:15.894881 26788 layer_factory.hpp:77] Creating layer cont_2_lstm1_cont_slice_1_split
I1017 12:06:15.894887 26788 net.cpp:84] Creating Layer cont_2_lstm1_cont_slice_1_split
I1017 12:06:15.894892 26788 net.cpp:406] cont_2_lstm1_cont_slice_1_split <- cont_2
I1017 12:06:15.894898 26788 net.cpp:380] cont_2_lstm1_cont_slice_1_split -> cont_2_lstm1_cont_slice_1_split_0
I1017 12:06:15.894904 26788 net.cpp:380] cont_2_lstm1_cont_slice_1_split -> cont_2_lstm1_cont_slice_1_split_1
I1017 12:06:15.894935 26788 net.cpp:122] Setting up cont_2_lstm1_cont_slice_1_split
I1017 12:06:15.894942 26788 net.cpp:129] Top shape: 1 4 (4)
I1017 12:06:15.894946 26788 net.cpp:129] Top shape: 1 4 (4)
I1017 12:06:15.894950 26788 net.cpp:137] Memory required for data: 17856
I1017 12:06:15.894954 26788 layer_factory.hpp:77] Creating layer cont_3_lstm1_cont_slice_2_split
I1017 12:06:15.894959 26788 net.cpp:84] Creating Layer cont_3_lstm1_cont_slice_2_split
I1017 12:06:15.894964 26788 net.cpp:406] cont_3_lstm1_cont_slice_2_split <- cont_3
I1017 12:06:15.894969 26788 net.cpp:380] cont_3_lstm1_cont_slice_2_split -> cont_3_lstm1_cont_slice_2_split_0
I1017 12:06:15.894982 26788 net.cpp:380] cont_3_lstm1_cont_slice_2_split -> cont_3_lstm1_cont_slice_2_split_1
I1017 12:06:15.895012 26788 net.cpp:122] Setting up cont_3_lstm1_cont_slice_2_split
I1017 12:06:15.895020 26788 net.cpp:129] Top shape: 1 4 (4)
I1017 12:06:15.895025 26788 net.cpp:129] Top shape: 1 4 (4)
I1017 12:06:15.895028 26788 net.cpp:137] Memory required for data: 17888
I1017 12:06:15.895032 26788 layer_factory.hpp:77] Creating layer cont_4_lstm1_cont_slice_3_split
I1017 12:06:15.895040 26788 net.cpp:84] Creating Layer cont_4_lstm1_cont_slice_3_split
I1017 12:06:15.895045 26788 net.cpp:406] cont_4_lstm1_cont_slice_3_split <- cont_4
I1017 12:06:15.895050 26788 net.cpp:380] cont_4_lstm1_cont_slice_3_split -> cont_4_lstm1_cont_slice_3_split_0
I1017 12:06:15.895056 26788 net.cpp:380] cont_4_lstm1_cont_slice_3_split -> cont_4_lstm1_cont_slice_3_split_1
I1017 12:06:15.895088 26788 net.cpp:122] Setting up cont_4_lstm1_cont_slice_3_split
I1017 12:06:15.895094 26788 net.cpp:129] Top shape: 1 4 (4)
I1017 12:06:15.895099 26788 net.cpp:129] Top shape: 1 4 (4)
I1017 12:06:15.895103 26788 net.cpp:137] Memory required for data: 17920
I1017 12:06:15.895107 26788 layer_factory.hpp:77] Creating layer cont_5_lstm1_cont_slice_4_split
I1017 12:06:15.895112 26788 net.cpp:84] Creating Layer cont_5_lstm1_cont_slice_4_split
I1017 12:06:15.895117 26788 net.cpp:406] cont_5_lstm1_cont_slice_4_split <- cont_5
I1017 12:06:15.895124 26788 net.cpp:380] cont_5_lstm1_cont_slice_4_split -> cont_5_lstm1_cont_slice_4_split_0
I1017 12:06:15.895130 26788 net.cpp:380] cont_5_lstm1_cont_slice_4_split -> cont_5_lstm1_cont_slice_4_split_1
I1017 12:06:15.895160 26788 net.cpp:122] Setting up cont_5_lstm1_cont_slice_4_split
I1017 12:06:15.895166 26788 net.cpp:129] Top shape: 1 4 (4)
I1017 12:06:15.895171 26788 net.cpp:129] Top shape: 1 4 (4)
I1017 12:06:15.895175 26788 net.cpp:137] Memory required for data: 17952
I1017 12:06:15.895179 26788 layer_factory.hpp:77] Creating layer cont_6_lstm1_cont_slice_5_split
I1017 12:06:15.895185 26788 net.cpp:84] Creating Layer cont_6_lstm1_cont_slice_5_split
I1017 12:06:15.895190 26788 net.cpp:406] cont_6_lstm1_cont_slice_5_split <- cont_6
I1017 12:06:15.895195 26788 net.cpp:380] cont_6_lstm1_cont_slice_5_split -> cont_6_lstm1_cont_slice_5_split_0
I1017 12:06:15.895201 26788 net.cpp:380] cont_6_lstm1_cont_slice_5_split -> cont_6_lstm1_cont_slice_5_split_1
I1017 12:06:15.895231 26788 net.cpp:122] Setting up cont_6_lstm1_cont_slice_5_split
I1017 12:06:15.895237 26788 net.cpp:129] Top shape: 1 4 (4)
I1017 12:06:15.895241 26788 net.cpp:129] Top shape: 1 4 (4)
I1017 12:06:15.895246 26788 net.cpp:137] Memory required for data: 17984
I1017 12:06:15.895249 26788 layer_factory.hpp:77] Creating layer cont_7_lstm1_cont_slice_6_split
I1017 12:06:15.895254 26788 net.cpp:84] Creating Layer cont_7_lstm1_cont_slice_6_split
I1017 12:06:15.895258 26788 net.cpp:406] cont_7_lstm1_cont_slice_6_split <- cont_7
I1017 12:06:15.895267 26788 net.cpp:380] cont_7_lstm1_cont_slice_6_split -> cont_7_lstm1_cont_slice_6_split_0
I1017 12:06:15.895272 26788 net.cpp:380] cont_7_lstm1_cont_slice_6_split -> cont_7_lstm1_cont_slice_6_split_1
I1017 12:06:15.895300 26788 net.cpp:122] Setting up cont_7_lstm1_cont_slice_6_split
I1017 12:06:15.895306 26788 net.cpp:129] Top shape: 1 4 (4)
I1017 12:06:15.895311 26788 net.cpp:129] Top shape: 1 4 (4)
I1017 12:06:15.895314 26788 net.cpp:137] Memory required for data: 18016
I1017 12:06:15.895318 26788 layer_factory.hpp:77] Creating layer cont_8_lstm1_cont_slice_7_split
I1017 12:06:15.895325 26788 net.cpp:84] Creating Layer cont_8_lstm1_cont_slice_7_split
I1017 12:06:15.895330 26788 net.cpp:406] cont_8_lstm1_cont_slice_7_split <- cont_8
I1017 12:06:15.895335 26788 net.cpp:380] cont_8_lstm1_cont_slice_7_split -> cont_8_lstm1_cont_slice_7_split_0
I1017 12:06:15.895344 26788 net.cpp:380] cont_8_lstm1_cont_slice_7_split -> cont_8_lstm1_cont_slice_7_split_1
I1017 12:06:15.895372 26788 net.cpp:122] Setting up cont_8_lstm1_cont_slice_7_split
I1017 12:06:15.895378 26788 net.cpp:129] Top shape: 1 4 (4)
I1017 12:06:15.895383 26788 net.cpp:129] Top shape: 1 4 (4)
I1017 12:06:15.895387 26788 net.cpp:137] Memory required for data: 18048
I1017 12:06:15.895391 26788 layer_factory.hpp:77] Creating layer lstm1_x_transform
I1017 12:06:15.895402 26788 net.cpp:84] Creating Layer lstm1_x_transform
I1017 12:06:15.895407 26788 net.cpp:406] lstm1_x_transform <- x
I1017 12:06:15.895413 26788 net.cpp:380] lstm1_x_transform -> W_xc_x
I1017 12:06:15.895728 26788 net.cpp:122] Setting up lstm1_x_transform
I1017 12:06:15.895737 26788 net.cpp:129] Top shape: 8 4 2048 (65536)
I1017 12:06:15.895741 26788 net.cpp:137] Memory required for data: 280192
I1017 12:06:15.895751 26788 layer_factory.hpp:77] Creating layer lstm1_W_xc_x_slice
I1017 12:06:15.895757 26788 net.cpp:84] Creating Layer lstm1_W_xc_x_slice
I1017 12:06:15.895762 26788 net.cpp:406] lstm1_W_xc_x_slice <- W_xc_x
I1017 12:06:15.895771 26788 net.cpp:380] lstm1_W_xc_x_slice -> W_xc_x_1
I1017 12:06:15.895779 26788 net.cpp:380] lstm1_W_xc_x_slice -> W_xc_x_2
I1017 12:06:15.895787 26788 net.cpp:380] lstm1_W_xc_x_slice -> W_xc_x_3
I1017 12:06:15.895793 26788 net.cpp:380] lstm1_W_xc_x_slice -> W_xc_x_4
I1017 12:06:15.895802 26788 net.cpp:380] lstm1_W_xc_x_slice -> W_xc_x_5
I1017 12:06:15.895809 26788 net.cpp:380] lstm1_W_xc_x_slice -> W_xc_x_6
I1017 12:06:15.895815 26788 net.cpp:380] lstm1_W_xc_x_slice -> W_xc_x_7
I1017 12:06:15.895822 26788 net.cpp:380] lstm1_W_xc_x_slice -> W_xc_x_8
I1017 12:06:15.895918 26788 net.cpp:122] Setting up lstm1_W_xc_x_slice
I1017 12:06:15.895926 26788 net.cpp:129] Top shape: 1 4 2048 (8192)
I1017 12:06:15.895931 26788 net.cpp:129] Top shape: 1 4 2048 (8192)
I1017 12:06:15.895936 26788 net.cpp:129] Top shape: 1 4 2048 (8192)
I1017 12:06:15.895941 26788 net.cpp:129] Top shape: 1 4 2048 (8192)
I1017 12:06:15.895946 26788 net.cpp:129] Top shape: 1 4 2048 (8192)
I1017 12:06:15.895951 26788 net.cpp:129] Top shape: 1 4 2048 (8192)
I1017 12:06:15.895956 26788 net.cpp:129] Top shape: 1 4 2048 (8192)
I1017 12:06:15.895961 26788 net.cpp:129] Top shape: 1 4 2048 (8192)
I1017 12:06:15.895963 26788 net.cpp:137] Memory required for data: 542336
I1017 12:06:15.895967 26788 layer_factory.hpp:77] Creating layer lstm1_h_conted_0
I1017 12:06:15.895982 26788 net.cpp:84] Creating Layer lstm1_h_conted_0
I1017 12:06:15.895987 26788 net.cpp:406] lstm1_h_conted_0 <- h_0
I1017 12:06:15.895992 26788 net.cpp:406] lstm1_h_conted_0 <- cont_1_lstm1_cont_slice_0_split_0
I1017 12:06:15.895998 26788 net.cpp:380] lstm1_h_conted_0 -> h_conted_0
I1017 12:06:15.896088 26788 net.cpp:122] Setting up lstm1_h_conted_0
I1017 12:06:15.896096 26788 net.cpp:129] Top shape: 1 4 512 (2048)
I1017 12:06:15.896100 26788 net.cpp:137] Memory required for data: 550528
I1017 12:06:15.896104 26788 layer_factory.hpp:77] Creating layer lstm1_transform_1
I1017 12:06:15.896111 26788 net.cpp:84] Creating Layer lstm1_transform_1
I1017 12:06:15.896116 26788 net.cpp:406] lstm1_transform_1 <- h_conted_0
I1017 12:06:15.896124 26788 net.cpp:380] lstm1_transform_1 -> W_hc_h_0
I1017 12:06:15.907819 26788 net.cpp:122] Setting up lstm1_transform_1
I1017 12:06:15.907848 26788 net.cpp:129] Top shape: 1 4 2048 (8192)
I1017 12:06:15.907853 26788 net.cpp:137] Memory required for data: 583296
I1017 12:06:15.907862 26788 layer_factory.hpp:77] Creating layer lstm1_gate_input_1
I1017 12:06:15.907871 26788 net.cpp:84] Creating Layer lstm1_gate_input_1
I1017 12:06:15.907876 26788 net.cpp:406] lstm1_gate_input_1 <- W_hc_h_0
I1017 12:06:15.907881 26788 net.cpp:406] lstm1_gate_input_1 <- W_xc_x_1
I1017 12:06:15.907891 26788 net.cpp:380] lstm1_gate_input_1 -> gate_input_1
I1017 12:06:15.907922 26788 net.cpp:122] Setting up lstm1_gate_input_1
I1017 12:06:15.907934 26788 net.cpp:129] Top shape: 1 4 2048 (8192)
I1017 12:06:15.907938 26788 net.cpp:137] Memory required for data: 616064
I1017 12:06:15.907943 26788 layer_factory.hpp:77] Creating layer lstm1_unit_1
I1017 12:06:15.907953 26788 net.cpp:84] Creating Layer lstm1_unit_1
I1017 12:06:15.907958 26788 net.cpp:406] lstm1_unit_1 <- c_0
I1017 12:06:15.907963 26788 net.cpp:406] lstm1_unit_1 <- gate_input_1
I1017 12:06:15.907968 26788 net.cpp:406] lstm1_unit_1 <- cont_1_lstm1_cont_slice_0_split_1
I1017 12:06:15.907974 26788 net.cpp:380] lstm1_unit_1 -> c_1
I1017 12:06:15.907984 26788 net.cpp:380] lstm1_unit_1 -> h_1
I1017 12:06:15.908038 26788 net.cpp:122] Setting up lstm1_unit_1
I1017 12:06:15.908046 26788 net.cpp:129] Top shape: 1 4 512 (2048)
I1017 12:06:15.908052 26788 net.cpp:129] Top shape: 1 4 512 (2048)
I1017 12:06:15.908056 26788 net.cpp:137] Memory required for data: 632448
I1017 12:06:15.908061 26788 layer_factory.hpp:77] Creating layer h_1_lstm1_unit_1_1_split
I1017 12:06:15.908066 26788 net.cpp:84] Creating Layer h_1_lstm1_unit_1_1_split
I1017 12:06:15.908069 26788 net.cpp:406] h_1_lstm1_unit_1_1_split <- h_1
I1017 12:06:15.908077 26788 net.cpp:380] h_1_lstm1_unit_1_1_split -> h_1_lstm1_unit_1_1_split_0
I1017 12:06:15.908083 26788 net.cpp:380] h_1_lstm1_unit_1_1_split -> h_1_lstm1_unit_1_1_split_1
I1017 12:06:15.908116 26788 net.cpp:122] Setting up h_1_lstm1_unit_1_1_split
I1017 12:06:15.908123 26788 net.cpp:129] Top shape: 1 4 512 (2048)
I1017 12:06:15.908128 26788 net.cpp:129] Top shape: 1 4 512 (2048)
I1017 12:06:15.908133 26788 net.cpp:137] Memory required for data: 648832
I1017 12:06:15.908136 26788 layer_factory.hpp:77] Creating layer lstm1_h_conted_1
I1017 12:06:15.908143 26788 net.cpp:84] Creating Layer lstm1_h_conted_1
I1017 12:06:15.908146 26788 net.cpp:406] lstm1_h_conted_1 <- h_1_lstm1_unit_1_1_split_0
I1017 12:06:15.908152 26788 net.cpp:406] lstm1_h_conted_1 <- cont_2_lstm1_cont_slice_1_split_0
I1017 12:06:15.908160 26788 net.cpp:380] lstm1_h_conted_1 -> h_conted_1
I1017 12:06:15.908215 26788 net.cpp:122] Setting up lstm1_h_conted_1
I1017 12:06:15.908222 26788 net.cpp:129] Top shape: 1 4 512 (2048)
I1017 12:06:15.908226 26788 net.cpp:137] Memory required for data: 657024
I1017 12:06:15.908231 26788 layer_factory.hpp:77] Creating layer lstm1_transform_2
I1017 12:06:15.908237 26788 net.cpp:84] Creating Layer lstm1_transform_2
I1017 12:06:15.908241 26788 net.cpp:406] lstm1_transform_2 <- h_conted_1
I1017 12:06:15.908249 26788 net.cpp:380] lstm1_transform_2 -> W_hc_h_1
I1017 12:06:15.919960 26788 net.cpp:122] Setting up lstm1_transform_2
I1017 12:06:15.919977 26788 net.cpp:129] Top shape: 1 4 2048 (8192)
I1017 12:06:15.919982 26788 net.cpp:137] Memory required for data: 689792
I1017 12:06:15.919987 26788 net.cpp:465] Sharing parameters 'W_hc' owned by layer 'lstm1_transform_1', param index 0
I1017 12:06:15.919993 26788 layer_factory.hpp:77] Creating layer lstm1_gate_input_2
I1017 12:06:15.920001 26788 net.cpp:84] Creating Layer lstm1_gate_input_2
I1017 12:06:15.920007 26788 net.cpp:406] lstm1_gate_input_2 <- W_hc_h_1
I1017 12:06:15.920013 26788 net.cpp:406] lstm1_gate_input_2 <- W_xc_x_2
I1017 12:06:15.920019 26788 net.cpp:380] lstm1_gate_input_2 -> gate_input_2
I1017 12:06:15.920054 26788 net.cpp:122] Setting up lstm1_gate_input_2
I1017 12:06:15.920063 26788 net.cpp:129] Top shape: 1 4 2048 (8192)
I1017 12:06:15.920066 26788 net.cpp:137] Memory required for data: 722560
I1017 12:06:15.920070 26788 layer_factory.hpp:77] Creating layer lstm1_unit_2
I1017 12:06:15.920076 26788 net.cpp:84] Creating Layer lstm1_unit_2
I1017 12:06:15.920080 26788 net.cpp:406] lstm1_unit_2 <- c_1
I1017 12:06:15.920086 26788 net.cpp:406] lstm1_unit_2 <- gate_input_2
I1017 12:06:15.920091 26788 net.cpp:406] lstm1_unit_2 <- cont_2_lstm1_cont_slice_1_split_1
I1017 12:06:15.920097 26788 net.cpp:380] lstm1_unit_2 -> c_2
I1017 12:06:15.920104 26788 net.cpp:380] lstm1_unit_2 -> h_2
I1017 12:06:15.920150 26788 net.cpp:122] Setting up lstm1_unit_2
I1017 12:06:15.920156 26788 net.cpp:129] Top shape: 1 4 512 (2048)
I1017 12:06:15.920161 26788 net.cpp:129] Top shape: 1 4 512 (2048)
I1017 12:06:15.920164 26788 net.cpp:137] Memory required for data: 738944
I1017 12:06:15.920168 26788 layer_factory.hpp:77] Creating layer h_2_lstm1_unit_2_1_split
I1017 12:06:15.920174 26788 net.cpp:84] Creating Layer h_2_lstm1_unit_2_1_split
I1017 12:06:15.920178 26788 net.cpp:406] h_2_lstm1_unit_2_1_split <- h_2
I1017 12:06:15.920184 26788 net.cpp:380] h_2_lstm1_unit_2_1_split -> h_2_lstm1_unit_2_1_split_0
I1017 12:06:15.920192 26788 net.cpp:380] h_2_lstm1_unit_2_1_split -> h_2_lstm1_unit_2_1_split_1
I1017 12:06:15.920222 26788 net.cpp:122] Setting up h_2_lstm1_unit_2_1_split
I1017 12:06:15.920228 26788 net.cpp:129] Top shape: 1 4 512 (2048)
I1017 12:06:15.920233 26788 net.cpp:129] Top shape: 1 4 512 (2048)
I1017 12:06:15.920238 26788 net.cpp:137] Memory required for data: 755328
I1017 12:06:15.920241 26788 layer_factory.hpp:77] Creating layer lstm1_h_conted_2
I1017 12:06:15.920248 26788 net.cpp:84] Creating Layer lstm1_h_conted_2
I1017 12:06:15.920253 26788 net.cpp:406] lstm1_h_conted_2 <- h_2_lstm1_unit_2_1_split_0
I1017 12:06:15.920258 26788 net.cpp:406] lstm1_h_conted_2 <- cont_3_lstm1_cont_slice_2_split_0
I1017 12:06:15.920264 26788 net.cpp:380] lstm1_h_conted_2 -> h_conted_2
I1017 12:06:15.920322 26788 net.cpp:122] Setting up lstm1_h_conted_2
I1017 12:06:15.920330 26788 net.cpp:129] Top shape: 1 4 512 (2048)
I1017 12:06:15.920333 26788 net.cpp:137] Memory required for data: 763520
I1017 12:06:15.920338 26788 layer_factory.hpp:77] Creating layer lstm1_transform_3
I1017 12:06:15.920344 26788 net.cpp:84] Creating Layer lstm1_transform_3
I1017 12:06:15.920349 26788 net.cpp:406] lstm1_transform_3 <- h_conted_2
I1017 12:06:15.920356 26788 net.cpp:380] lstm1_transform_3 -> W_hc_h_2
I1017 12:06:15.932180 26788 net.cpp:122] Setting up lstm1_transform_3
I1017 12:06:15.932205 26788 net.cpp:129] Top shape: 1 4 2048 (8192)
I1017 12:06:15.932209 26788 net.cpp:137] Memory required for data: 796288
I1017 12:06:15.932219 26788 net.cpp:465] Sharing parameters 'W_hc' owned by layer 'lstm1_transform_1', param index 0
I1017 12:06:15.932224 26788 layer_factory.hpp:77] Creating layer lstm1_gate_input_3
I1017 12:06:15.932234 26788 net.cpp:84] Creating Layer lstm1_gate_input_3
I1017 12:06:15.932238 26788 net.cpp:406] lstm1_gate_input_3 <- W_hc_h_2
I1017 12:06:15.932245 26788 net.cpp:406] lstm1_gate_input_3 <- W_xc_x_3
I1017 12:06:15.932252 26788 net.cpp:380] lstm1_gate_input_3 -> gate_input_3
I1017 12:06:15.932286 26788 net.cpp:122] Setting up lstm1_gate_input_3
I1017 12:06:15.932293 26788 net.cpp:129] Top shape: 1 4 2048 (8192)
I1017 12:06:15.932297 26788 net.cpp:137] Memory required for data: 829056
I1017 12:06:15.932301 26788 layer_factory.hpp:77] Creating layer lstm1_unit_3
I1017 12:06:15.932307 26788 net.cpp:84] Creating Layer lstm1_unit_3
I1017 12:06:15.932312 26788 net.cpp:406] lstm1_unit_3 <- c_2
I1017 12:06:15.932318 26788 net.cpp:406] lstm1_unit_3 <- gate_input_3
I1017 12:06:15.932323 26788 net.cpp:406] lstm1_unit_3 <- cont_3_lstm1_cont_slice_2_split_1
I1017 12:06:15.932329 26788 net.cpp:380] lstm1_unit_3 -> c_3
I1017 12:06:15.932337 26788 net.cpp:380] lstm1_unit_3 -> h_3
I1017 12:06:15.932380 26788 net.cpp:122] Setting up lstm1_unit_3
I1017 12:06:15.932387 26788 net.cpp:129] Top shape: 1 4 512 (2048)
I1017 12:06:15.932392 26788 net.cpp:129] Top shape: 1 4 512 (2048)
I1017 12:06:15.932396 26788 net.cpp:137] Memory required for data: 845440
I1017 12:06:15.932400 26788 layer_factory.hpp:77] Creating layer h_3_lstm1_unit_3_1_split
I1017 12:06:15.932407 26788 net.cpp:84] Creating Layer h_3_lstm1_unit_3_1_split
I1017 12:06:15.932412 26788 net.cpp:406] h_3_lstm1_unit_3_1_split <- h_3
I1017 12:06:15.932418 26788 net.cpp:380] h_3_lstm1_unit_3_1_split -> h_3_lstm1_unit_3_1_split_0
I1017 12:06:15.932425 26788 net.cpp:380] h_3_lstm1_unit_3_1_split -> h_3_lstm1_unit_3_1_split_1
I1017 12:06:15.932457 26788 net.cpp:122] Setting up h_3_lstm1_unit_3_1_split
I1017 12:06:15.932464 26788 net.cpp:129] Top shape: 1 4 512 (2048)
I1017 12:06:15.932469 26788 net.cpp:129] Top shape: 1 4 512 (2048)
I1017 12:06:15.932473 26788 net.cpp:137] Memory required for data: 861824
I1017 12:06:15.932477 26788 layer_factory.hpp:77] Creating layer lstm1_h_conted_3
I1017 12:06:15.932485 26788 net.cpp:84] Creating Layer lstm1_h_conted_3
I1017 12:06:15.932490 26788 net.cpp:406] lstm1_h_conted_3 <- h_3_lstm1_unit_3_1_split_0
I1017 12:06:15.932497 26788 net.cpp:406] lstm1_h_conted_3 <- cont_4_lstm1_cont_slice_3_split_0
I1017 12:06:15.932502 26788 net.cpp:380] lstm1_h_conted_3 -> h_conted_3
I1017 12:06:15.932560 26788 net.cpp:122] Setting up lstm1_h_conted_3
I1017 12:06:15.932569 26788 net.cpp:129] Top shape: 1 4 512 (2048)
I1017 12:06:15.932572 26788 net.cpp:137] Memory required for data: 870016
I1017 12:06:15.932576 26788 layer_factory.hpp:77] Creating layer lstm1_transform_4
I1017 12:06:15.932585 26788 net.cpp:84] Creating Layer lstm1_transform_4
I1017 12:06:15.932590 26788 net.cpp:406] lstm1_transform_4 <- h_conted_3
I1017 12:06:15.932596 26788 net.cpp:380] lstm1_transform_4 -> W_hc_h_3
I1017 12:06:15.944388 26788 net.cpp:122] Setting up lstm1_transform_4
I1017 12:06:15.944406 26788 net.cpp:129] Top shape: 1 4 2048 (8192)
I1017 12:06:15.944411 26788 net.cpp:137] Memory required for data: 902784
I1017 12:06:15.944416 26788 net.cpp:465] Sharing parameters 'W_hc' owned by layer 'lstm1_transform_1', param index 0
I1017 12:06:15.944420 26788 layer_factory.hpp:77] Creating layer lstm1_gate_input_4
I1017 12:06:15.944428 26788 net.cpp:84] Creating Layer lstm1_gate_input_4
I1017 12:06:15.944433 26788 net.cpp:406] lstm1_gate_input_4 <- W_hc_h_3
I1017 12:06:15.944440 26788 net.cpp:406] lstm1_gate_input_4 <- W_xc_x_4
I1017 12:06:15.944447 26788 net.cpp:380] lstm1_gate_input_4 -> gate_input_4
I1017 12:06:15.944478 26788 net.cpp:122] Setting up lstm1_gate_input_4
I1017 12:06:15.944485 26788 net.cpp:129] Top shape: 1 4 2048 (8192)
I1017 12:06:15.944489 26788 net.cpp:137] Memory required for data: 935552
I1017 12:06:15.944494 26788 layer_factory.hpp:77] Creating layer lstm1_unit_4
I1017 12:06:15.944500 26788 net.cpp:84] Creating Layer lstm1_unit_4
I1017 12:06:15.944504 26788 net.cpp:406] lstm1_unit_4 <- c_3
I1017 12:06:15.944510 26788 net.cpp:406] lstm1_unit_4 <- gate_input_4
I1017 12:06:15.944515 26788 net.cpp:406] lstm1_unit_4 <- cont_4_lstm1_cont_slice_3_split_1
I1017 12:06:15.944522 26788 net.cpp:380] lstm1_unit_4 -> c_4
I1017 12:06:15.944530 26788 net.cpp:380] lstm1_unit_4 -> h_4
I1017 12:06:15.944572 26788 net.cpp:122] Setting up lstm1_unit_4
I1017 12:06:15.944579 26788 net.cpp:129] Top shape: 1 4 512 (2048)
I1017 12:06:15.944584 26788 net.cpp:129] Top shape: 1 4 512 (2048)
I1017 12:06:15.944588 26788 net.cpp:137] Memory required for data: 951936
I1017 12:06:15.944592 26788 layer_factory.hpp:77] Creating layer h_4_lstm1_unit_4_1_split
I1017 12:06:15.944607 26788 net.cpp:84] Creating Layer h_4_lstm1_unit_4_1_split
I1017 12:06:15.944612 26788 net.cpp:406] h_4_lstm1_unit_4_1_split <- h_4
I1017 12:06:15.944617 26788 net.cpp:380] h_4_lstm1_unit_4_1_split -> h_4_lstm1_unit_4_1_split_0
I1017 12:06:15.944624 26788 net.cpp:380] h_4_lstm1_unit_4_1_split -> h_4_lstm1_unit_4_1_split_1
I1017 12:06:15.944669 26788 net.cpp:122] Setting up h_4_lstm1_unit_4_1_split
I1017 12:06:15.944674 26788 net.cpp:129] Top shape: 1 4 512 (2048)
I1017 12:06:15.944680 26788 net.cpp:129] Top shape: 1 4 512 (2048)
I1017 12:06:15.944684 26788 net.cpp:137] Memory required for data: 968320
I1017 12:06:15.944689 26788 layer_factory.hpp:77] Creating layer lstm1_h_conted_4
I1017 12:06:15.944697 26788 net.cpp:84] Creating Layer lstm1_h_conted_4
I1017 12:06:15.944702 26788 net.cpp:406] lstm1_h_conted_4 <- h_4_lstm1_unit_4_1_split_0
I1017 12:06:15.944708 26788 net.cpp:406] lstm1_h_conted_4 <- cont_5_lstm1_cont_slice_4_split_0
I1017 12:06:15.944715 26788 net.cpp:380] lstm1_h_conted_4 -> h_conted_4
I1017 12:06:15.944773 26788 net.cpp:122] Setting up lstm1_h_conted_4
I1017 12:06:15.944780 26788 net.cpp:129] Top shape: 1 4 512 (2048)
I1017 12:06:15.944784 26788 net.cpp:137] Memory required for data: 976512
I1017 12:06:15.944788 26788 layer_factory.hpp:77] Creating layer lstm1_transform_5
I1017 12:06:15.944798 26788 net.cpp:84] Creating Layer lstm1_transform_5
I1017 12:06:15.944803 26788 net.cpp:406] lstm1_transform_5 <- h_conted_4
I1017 12:06:15.944810 26788 net.cpp:380] lstm1_transform_5 -> W_hc_h_4
I1017 12:06:15.956550 26788 net.cpp:122] Setting up lstm1_transform_5
I1017 12:06:15.956567 26788 net.cpp:129] Top shape: 1 4 2048 (8192)
I1017 12:06:15.956571 26788 net.cpp:137] Memory required for data: 1009280
I1017 12:06:15.956576 26788 net.cpp:465] Sharing parameters 'W_hc' owned by layer 'lstm1_transform_1', param index 0
I1017 12:06:15.956581 26788 layer_factory.hpp:77] Creating layer lstm1_gate_input_5
I1017 12:06:15.956588 26788 net.cpp:84] Creating Layer lstm1_gate_input_5
I1017 12:06:15.956594 26788 net.cpp:406] lstm1_gate_input_5 <- W_hc_h_4
I1017 12:06:15.956600 26788 net.cpp:406] lstm1_gate_input_5 <- W_xc_x_5
I1017 12:06:15.956609 26788 net.cpp:380] lstm1_gate_input_5 -> gate_input_5
I1017 12:06:15.956636 26788 net.cpp:122] Setting up lstm1_gate_input_5
I1017 12:06:15.956643 26788 net.cpp:129] Top shape: 1 4 2048 (8192)
I1017 12:06:15.956647 26788 net.cpp:137] Memory required for data: 1042048
I1017 12:06:15.956651 26788 layer_factory.hpp:77] Creating layer lstm1_unit_5
I1017 12:06:15.956658 26788 net.cpp:84] Creating Layer lstm1_unit_5
I1017 12:06:15.956662 26788 net.cpp:406] lstm1_unit_5 <- c_4
I1017 12:06:15.956668 26788 net.cpp:406] lstm1_unit_5 <- gate_input_5
I1017 12:06:15.956673 26788 net.cpp:406] lstm1_unit_5 <- cont_5_lstm1_cont_slice_4_split_1
I1017 12:06:15.956679 26788 net.cpp:380] lstm1_unit_5 -> c_5
I1017 12:06:15.956688 26788 net.cpp:380] lstm1_unit_5 -> h_5
I1017 12:06:15.956732 26788 net.cpp:122] Setting up lstm1_unit_5
I1017 12:06:15.956738 26788 net.cpp:129] Top shape: 1 4 512 (2048)
I1017 12:06:15.956743 26788 net.cpp:129] Top shape: 1 4 512 (2048)
I1017 12:06:15.956748 26788 net.cpp:137] Memory required for data: 1058432
I1017 12:06:15.956751 26788 layer_factory.hpp:77] Creating layer h_5_lstm1_unit_5_1_split
I1017 12:06:15.956756 26788 net.cpp:84] Creating Layer h_5_lstm1_unit_5_1_split
I1017 12:06:15.956761 26788 net.cpp:406] h_5_lstm1_unit_5_1_split <- h_5
I1017 12:06:15.956768 26788 net.cpp:380] h_5_lstm1_unit_5_1_split -> h_5_lstm1_unit_5_1_split_0
I1017 12:06:15.956774 26788 net.cpp:380] h_5_lstm1_unit_5_1_split -> h_5_lstm1_unit_5_1_split_1
I1017 12:06:15.956805 26788 net.cpp:122] Setting up h_5_lstm1_unit_5_1_split
I1017 12:06:15.956812 26788 net.cpp:129] Top shape: 1 4 512 (2048)
I1017 12:06:15.956817 26788 net.cpp:129] Top shape: 1 4 512 (2048)
I1017 12:06:15.956821 26788 net.cpp:137] Memory required for data: 1074816
I1017 12:06:15.956825 26788 layer_factory.hpp:77] Creating layer lstm1_h_conted_5
I1017 12:06:15.956831 26788 net.cpp:84] Creating Layer lstm1_h_conted_5
I1017 12:06:15.956836 26788 net.cpp:406] lstm1_h_conted_5 <- h_5_lstm1_unit_5_1_split_0
I1017 12:06:15.956842 26788 net.cpp:406] lstm1_h_conted_5 <- cont_6_lstm1_cont_slice_5_split_0
I1017 12:06:15.956849 26788 net.cpp:380] lstm1_h_conted_5 -> h_conted_5
I1017 12:06:15.956904 26788 net.cpp:122] Setting up lstm1_h_conted_5
I1017 12:06:15.956912 26788 net.cpp:129] Top shape: 1 4 512 (2048)
I1017 12:06:15.956915 26788 net.cpp:137] Memory required for data: 1083008
I1017 12:06:15.956919 26788 layer_factory.hpp:77] Creating layer lstm1_transform_6
I1017 12:06:15.956926 26788 net.cpp:84] Creating Layer lstm1_transform_6
I1017 12:06:15.956931 26788 net.cpp:406] lstm1_transform_6 <- h_conted_5
I1017 12:06:15.956939 26788 net.cpp:380] lstm1_transform_6 -> W_hc_h_5
I1017 12:06:15.968686 26788 net.cpp:122] Setting up lstm1_transform_6
I1017 12:06:15.968703 26788 net.cpp:129] Top shape: 1 4 2048 (8192)
I1017 12:06:15.968708 26788 net.cpp:137] Memory required for data: 1115776
I1017 12:06:15.968713 26788 net.cpp:465] Sharing parameters 'W_hc' owned by layer 'lstm1_transform_1', param index 0
I1017 12:06:15.968719 26788 layer_factory.hpp:77] Creating layer lstm1_gate_input_6
I1017 12:06:15.968725 26788 net.cpp:84] Creating Layer lstm1_gate_input_6
I1017 12:06:15.968730 26788 net.cpp:406] lstm1_gate_input_6 <- W_hc_h_5
I1017 12:06:15.968736 26788 net.cpp:406] lstm1_gate_input_6 <- W_xc_x_6
I1017 12:06:15.968745 26788 net.cpp:380] lstm1_gate_input_6 -> gate_input_6
I1017 12:06:15.968772 26788 net.cpp:122] Setting up lstm1_gate_input_6
I1017 12:06:15.968780 26788 net.cpp:129] Top shape: 1 4 2048 (8192)
I1017 12:06:15.968783 26788 net.cpp:137] Memory required for data: 1148544
I1017 12:06:15.968787 26788 layer_factory.hpp:77] Creating layer lstm1_unit_6
I1017 12:06:15.968794 26788 net.cpp:84] Creating Layer lstm1_unit_6
I1017 12:06:15.968798 26788 net.cpp:406] lstm1_unit_6 <- c_5
I1017 12:06:15.968804 26788 net.cpp:406] lstm1_unit_6 <- gate_input_6
I1017 12:06:15.968809 26788 net.cpp:406] lstm1_unit_6 <- cont_6_lstm1_cont_slice_5_split_1
I1017 12:06:15.968816 26788 net.cpp:380] lstm1_unit_6 -> c_6
I1017 12:06:15.968822 26788 net.cpp:380] lstm1_unit_6 -> h_6
I1017 12:06:15.968868 26788 net.cpp:122] Setting up lstm1_unit_6
I1017 12:06:15.968874 26788 net.cpp:129] Top shape: 1 4 512 (2048)
I1017 12:06:15.968879 26788 net.cpp:129] Top shape: 1 4 512 (2048)
I1017 12:06:15.968883 26788 net.cpp:137] Memory required for data: 1164928
I1017 12:06:15.968888 26788 layer_factory.hpp:77] Creating layer h_6_lstm1_unit_6_1_split
I1017 12:06:15.968892 26788 net.cpp:84] Creating Layer h_6_lstm1_unit_6_1_split
I1017 12:06:15.968896 26788 net.cpp:406] h_6_lstm1_unit_6_1_split <- h_6
I1017 12:06:15.968902 26788 net.cpp:380] h_6_lstm1_unit_6_1_split -> h_6_lstm1_unit_6_1_split_0
I1017 12:06:15.968909 26788 net.cpp:380] h_6_lstm1_unit_6_1_split -> h_6_lstm1_unit_6_1_split_1
I1017 12:06:15.968940 26788 net.cpp:122] Setting up h_6_lstm1_unit_6_1_split
I1017 12:06:15.968947 26788 net.cpp:129] Top shape: 1 4 512 (2048)
I1017 12:06:15.968952 26788 net.cpp:129] Top shape: 1 4 512 (2048)
I1017 12:06:15.968956 26788 net.cpp:137] Memory required for data: 1181312
I1017 12:06:15.968961 26788 layer_factory.hpp:77] Creating layer lstm1_h_conted_6
I1017 12:06:15.968966 26788 net.cpp:84] Creating Layer lstm1_h_conted_6
I1017 12:06:15.968971 26788 net.cpp:406] lstm1_h_conted_6 <- h_6_lstm1_unit_6_1_split_0
I1017 12:06:15.968976 26788 net.cpp:406] lstm1_h_conted_6 <- cont_7_lstm1_cont_slice_6_split_0
I1017 12:06:15.968982 26788 net.cpp:380] lstm1_h_conted_6 -> h_conted_6
I1017 12:06:15.969038 26788 net.cpp:122] Setting up lstm1_h_conted_6
I1017 12:06:15.969044 26788 net.cpp:129] Top shape: 1 4 512 (2048)
I1017 12:06:15.969048 26788 net.cpp:137] Memory required for data: 1189504
I1017 12:06:15.969053 26788 layer_factory.hpp:77] Creating layer lstm1_transform_7
I1017 12:06:15.969059 26788 net.cpp:84] Creating Layer lstm1_transform_7
I1017 12:06:15.969063 26788 net.cpp:406] lstm1_transform_7 <- h_conted_6
I1017 12:06:15.969070 26788 net.cpp:380] lstm1_transform_7 -> W_hc_h_6
I1017 12:06:15.980788 26788 net.cpp:122] Setting up lstm1_transform_7
I1017 12:06:15.980803 26788 net.cpp:129] Top shape: 1 4 2048 (8192)
I1017 12:06:15.980808 26788 net.cpp:137] Memory required for data: 1222272
I1017 12:06:15.980816 26788 net.cpp:465] Sharing parameters 'W_hc' owned by layer 'lstm1_transform_1', param index 0
I1017 12:06:15.980821 26788 layer_factory.hpp:77] Creating layer lstm1_gate_input_7
I1017 12:06:15.980829 26788 net.cpp:84] Creating Layer lstm1_gate_input_7
I1017 12:06:15.980834 26788 net.cpp:406] lstm1_gate_input_7 <- W_hc_h_6
I1017 12:06:15.980840 26788 net.cpp:406] lstm1_gate_input_7 <- W_xc_x_7
I1017 12:06:15.980846 26788 net.cpp:380] lstm1_gate_input_7 -> gate_input_7
I1017 12:06:15.980876 26788 net.cpp:122] Setting up lstm1_gate_input_7
I1017 12:06:15.980883 26788 net.cpp:129] Top shape: 1 4 2048 (8192)
I1017 12:06:15.980887 26788 net.cpp:137] Memory required for data: 1255040
I1017 12:06:15.980891 26788 layer_factory.hpp:77] Creating layer lstm1_unit_7
I1017 12:06:15.980898 26788 net.cpp:84] Creating Layer lstm1_unit_7
I1017 12:06:15.980902 26788 net.cpp:406] lstm1_unit_7 <- c_6
I1017 12:06:15.980908 26788 net.cpp:406] lstm1_unit_7 <- gate_input_7
I1017 12:06:15.980913 26788 net.cpp:406] lstm1_unit_7 <- cont_7_lstm1_cont_slice_6_split_1
I1017 12:06:15.980918 26788 net.cpp:380] lstm1_unit_7 -> c_7
I1017 12:06:15.980926 26788 net.cpp:380] lstm1_unit_7 -> h_7
I1017 12:06:15.980969 26788 net.cpp:122] Setting up lstm1_unit_7
I1017 12:06:15.980976 26788 net.cpp:129] Top shape: 1 4 512 (2048)
I1017 12:06:15.980981 26788 net.cpp:129] Top shape: 1 4 512 (2048)
I1017 12:06:15.980985 26788 net.cpp:137] Memory required for data: 1271424
I1017 12:06:15.980989 26788 layer_factory.hpp:77] Creating layer h_7_lstm1_unit_7_1_split
I1017 12:06:15.980996 26788 net.cpp:84] Creating Layer h_7_lstm1_unit_7_1_split
I1017 12:06:15.981001 26788 net.cpp:406] h_7_lstm1_unit_7_1_split <- h_7
I1017 12:06:15.981007 26788 net.cpp:380] h_7_lstm1_unit_7_1_split -> h_7_lstm1_unit_7_1_split_0
I1017 12:06:15.981014 26788 net.cpp:380] h_7_lstm1_unit_7_1_split -> h_7_lstm1_unit_7_1_split_1
I1017 12:06:15.981045 26788 net.cpp:122] Setting up h_7_lstm1_unit_7_1_split
I1017 12:06:15.981052 26788 net.cpp:129] Top shape: 1 4 512 (2048)
I1017 12:06:15.981057 26788 net.cpp:129] Top shape: 1 4 512 (2048)
I1017 12:06:15.981060 26788 net.cpp:137] Memory required for data: 1287808
I1017 12:06:15.981065 26788 layer_factory.hpp:77] Creating layer lstm1_h_conted_7
I1017 12:06:15.981073 26788 net.cpp:84] Creating Layer lstm1_h_conted_7
I1017 12:06:15.981078 26788 net.cpp:406] lstm1_h_conted_7 <- h_7_lstm1_unit_7_1_split_0
I1017 12:06:15.981083 26788 net.cpp:406] lstm1_h_conted_7 <- cont_8_lstm1_cont_slice_7_split_0
I1017 12:06:15.981089 26788 net.cpp:380] lstm1_h_conted_7 -> h_conted_7
I1017 12:06:15.981145 26788 net.cpp:122] Setting up lstm1_h_conted_7
I1017 12:06:15.981153 26788 net.cpp:129] Top shape: 1 4 512 (2048)
I1017 12:06:15.981156 26788 net.cpp:137] Memory required for data: 1296000
I1017 12:06:15.981160 26788 layer_factory.hpp:77] Creating layer lstm1_transform_8
I1017 12:06:15.981169 26788 net.cpp:84] Creating Layer lstm1_transform_8
I1017 12:06:15.981174 26788 net.cpp:406] lstm1_transform_8 <- h_conted_7
I1017 12:06:15.981180 26788 net.cpp:380] lstm1_transform_8 -> W_hc_h_7
I1017 12:06:15.992913 26788 net.cpp:122] Setting up lstm1_transform_8
I1017 12:06:15.992930 26788 net.cpp:129] Top shape: 1 4 2048 (8192)
I1017 12:06:15.992934 26788 net.cpp:137] Memory required for data: 1328768
I1017 12:06:15.992940 26788 net.cpp:465] Sharing parameters 'W_hc' owned by layer 'lstm1_transform_1', param index 0
I1017 12:06:15.992945 26788 layer_factory.hpp:77] Creating layer lstm1_gate_input_8
I1017 12:06:15.992952 26788 net.cpp:84] Creating Layer lstm1_gate_input_8
I1017 12:06:15.992957 26788 net.cpp:406] lstm1_gate_input_8 <- W_hc_h_7
I1017 12:06:15.992964 26788 net.cpp:406] lstm1_gate_input_8 <- W_xc_x_8
I1017 12:06:15.992970 26788 net.cpp:380] lstm1_gate_input_8 -> gate_input_8
I1017 12:06:15.993005 26788 net.cpp:122] Setting up lstm1_gate_input_8
I1017 12:06:15.993013 26788 net.cpp:129] Top shape: 1 4 2048 (8192)
I1017 12:06:15.993017 26788 net.cpp:137] Memory required for data: 1361536
I1017 12:06:15.993021 26788 layer_factory.hpp:77] Creating layer lstm1_unit_8
I1017 12:06:15.993028 26788 net.cpp:84] Creating Layer lstm1_unit_8
I1017 12:06:15.993032 26788 net.cpp:406] lstm1_unit_8 <- c_7
I1017 12:06:15.993038 26788 net.cpp:406] lstm1_unit_8 <- gate_input_8
I1017 12:06:15.993043 26788 net.cpp:406] lstm1_unit_8 <- cont_8_lstm1_cont_slice_7_split_1
I1017 12:06:15.993049 26788 net.cpp:380] lstm1_unit_8 -> c_8
I1017 12:06:15.993057 26788 net.cpp:380] lstm1_unit_8 -> h_8
I1017 12:06:15.993099 26788 net.cpp:122] Setting up lstm1_unit_8
I1017 12:06:15.993106 26788 net.cpp:129] Top shape: 1 4 512 (2048)
I1017 12:06:15.993111 26788 net.cpp:129] Top shape: 1 4 512 (2048)
I1017 12:06:15.993115 26788 net.cpp:137] Memory required for data: 1377920
I1017 12:06:15.993119 26788 layer_factory.hpp:77] Creating layer lstm1_
I1017 12:06:15.993126 26788 net.cpp:84] Creating Layer lstm1_
I1017 12:06:15.993131 26788 net.cpp:406] lstm1_ <- c_8
I1017 12:06:15.993137 26788 net.cpp:380] lstm1_ -> c_T
I1017 12:06:15.993157 26788 net.cpp:122] Setting up lstm1_
I1017 12:06:15.993165 26788 net.cpp:129] Top shape: 1 4 512 (2048)
I1017 12:06:15.993168 26788 net.cpp:137] Memory required for data: 1386112
I1017 12:06:15.993172 26788 layer_factory.hpp:77] Creating layer lstm1_h_concat
I1017 12:06:15.993180 26788 net.cpp:84] Creating Layer lstm1_h_concat
I1017 12:06:15.993185 26788 net.cpp:406] lstm1_h_concat <- h_1_lstm1_unit_1_1_split_1
I1017 12:06:15.993191 26788 net.cpp:406] lstm1_h_concat <- h_2_lstm1_unit_2_1_split_1
I1017 12:06:15.993196 26788 net.cpp:406] lstm1_h_concat <- h_3_lstm1_unit_3_1_split_1
I1017 12:06:15.993201 26788 net.cpp:406] lstm1_h_concat <- h_4_lstm1_unit_4_1_split_1
I1017 12:06:15.993204 26788 net.cpp:406] lstm1_h_concat <- h_5_lstm1_unit_5_1_split_1
I1017 12:06:15.993209 26788 net.cpp:406] lstm1_h_concat <- h_6_lstm1_unit_6_1_split_1
I1017 12:06:15.993213 26788 net.cpp:406] lstm1_h_concat <- h_7_lstm1_unit_7_1_split_1
I1017 12:06:15.993218 26788 net.cpp:406] lstm1_h_concat <- h_8
I1017 12:06:15.993227 26788 net.cpp:380] lstm1_h_concat -> h
I1017 12:06:15.993259 26788 net.cpp:122] Setting up lstm1_h_concat
I1017 12:06:15.993266 26788 net.cpp:129] Top shape: 8 4 512 (16384)
I1017 12:06:15.993270 26788 net.cpp:137] Memory required for data: 1451648
I1017 12:06:15.993274 26788 layer_factory.hpp:77] Creating layer h_pseudoloss
I1017 12:06:15.993283 26788 net.cpp:84] Creating Layer h_pseudoloss
I1017 12:06:15.993288 26788 net.cpp:406] h_pseudoloss <- h
I1017 12:06:15.993294 26788 net.cpp:380] h_pseudoloss -> h_pseudoloss
I1017 12:06:15.993388 26788 net.cpp:122] Setting up h_pseudoloss
…
I1017 12:06:15.993702 26788 net.cpp:200] lstm1_ does not need backward computation.
I1017 12:06:15.993706 26788 net.cpp:242] This network produces output c_T
I1017 12:06:15.993711 26788 net.cpp:242] This network produces output h_pseudoloss
I1017 12:06:15.999651 26788 net.cpp:255] Network initialization done.
I1017 12:06:15.999799 26788 recurrent_layer.cpp:150] Adding parameter 0: W_xc
I1017 12:06:15.999807 26788 recurrent_layer.cpp:150] Adding parameter 1: b_c
I1017 12:06:15.999812 26788 recurrent_layer.cpp:150] Adding parameter 2: W_hc
I1017 12:06:15.999954 26788 net.cpp:122] Setting up lstm1
I1017 12:06:15.999967 26788 net.cpp:129] Top shape: 8 4 512 (16384)
I1017 12:06:15.999972 26788 net.cpp:137] Memory required for data: 765290128
I1017 12:06:15.999992 26788 layer_factory.hpp:77] Creating layer lstm1-drop
I1017 12:06:16.000003 26788 net.cpp:84] Creating Layer lstm1-drop
I1017 12:06:16.000010 26788 net.cpp:406] lstm1-drop <- lstm1
I1017 12:06:16.000017 26788 net.cpp:380] lstm1-drop -> lstm1-drop
I1017 12:06:16.000072 26788 net.cpp:122] Setting up lstm1-drop
I1017 12:06:16.000084 26788 net.cpp:129] Top shape: 8 4 512 (16384)
I1017 12:06:16.000089 26788 net.cpp:137] Memory required for data: 765355664
I1017 12:06:16.000093 26788 layer_factory.hpp:77] Creating layer fc-final
I1017 12:06:16.000102 26788 net.cpp:84] Creating Layer fc-final
I1017 12:06:16.000108 26788 net.cpp:406] fc-final <- lstm1-drop
I1017 12:06:16.000115 26788 net.cpp:380] fc-final -> fc-final
I1017 12:06:16.000437 26788 net.cpp:122] Setting up fc-final
I1017 12:06:16.000448 26788 net.cpp:129] Top shape: 8 4 10 (320)
I1017 12:06:16.000452 26788 net.cpp:137] Memory required for data: 765356944
I1017 12:06:16.000460 26788 layer_factory.hpp:77] Creating layer fc-final_fc-final_0_split
I1017 12:06:16.000468 26788 net.cpp:84] Creating Layer fc-final_fc-final_0_split
I1017 12:06:16.000473 26788 net.cpp:406] fc-final_fc-final_0_split <- fc-final
I1017 12:06:16.000480 26788 net.cpp:380] fc-final_fc-final_0_split -> fc-final_fc-final_0_split_0
I1017 12:06:16.000488 26788 net.cpp:380] fc-final_fc-final_0_split -> fc-final_fc-final_0_split_1
I1017 12:06:16.000529 26788 net.cpp:122] Setting up fc-final_fc-final_0_split
I1017 12:06:16.000535 26788 net.cpp:129] Top shape: 8 4 10 (320)
I1017 12:06:16.000541 26788 net.cpp:129] Top shape: 8 4 10 (320)
I1017 12:06:16.000545 26788 net.cpp:137] Memory required for data: 765359504
I1017 12:06:16.000550 26788 layer_factory.hpp:77] Creating layer loss
I1017 12:06:16.000560 26788 net.cpp:84] Creating Layer loss
I1017 12:06:16.000564 26788 net.cpp:406] loss <- fc-final_fc-final_0_split_0
I1017 12:06:16.000571 26788 net.cpp:406] loss <- reshape-label_label_tran_0_split_0
I1017 12:06:16.000576 26788 net.cpp:380] loss -> loss
…
I1017 12:06:16.002034 26788 net.cpp:294] The NetState phase (1) differed from the phase (0) specified by a rule in layer data
I1017 12:06:16.002245 26788 net.cpp:51] Initializing net from parameters: 
name: "VGG_16_layers_LSTM"
state {
  phase: TEST
  stage: "test-on-test"
}
layer {
  name: "data"
  type: "ImageData"
  top: "data"
  top: "label"
  include {
    phase: TEST
  }
  transform_param {
    mirror: false
    crop_size: 288
    mean_value: 104
    mean_value: 117
    mean_value: 123
  }
  image_data_param {
    source: "../Data/lsun_val_list.txt"
    batch_size: 50
    new_height: 320
    new_width: 320
  }
}
layer {
  name: "Silence"
  type: "Silence"
  bottom: "label"
  include {
    phase: TEST
  }
}
layer {
  name: "label_tran"
  type: "Python"
  bottom: "label"
  top: "reshape-label"
  top: "clip_markers"
  python_param {
    module: "data_preparation_sort_max_clip"
    layer: "ReshapeLabel"
  }
}
layer {
  name: "conv1_1"
  type: "Convolution"
  bottom: "data"
  top: "conv1_1"
  convolution_param {
    num_output: 64
    pad: 1
    kernel_size: 3
  }
}
layer {
  name: "relu1_1"
  type: "ReLU"
  bottom: "conv1_1"
  top: "conv1_1"
}
layer {
  name: "conv1_2"
  type: "Convolution"
  bottom: "conv1_1"
  top: "conv1_2"
  convolution_param {
    num_output: 64
    pad: 1
    kernel_size: 3
  }
}
layer {
  name: "relu1_2"
  type: "ReLU"
  bottom: "conv1_2"
  top: "conv1_2"
}
layer {
  name: "pool1"
  type: "Pooling"
  bottom: "conv1_2"
  top: "pool1"
  pooling_param {
    pool: MAX
    kernel_size: 2
    stride: 2
  }
}
layer {
  name: "conv2_1"
  type: "Convolution"
  bottom: "pool1"
  top: "conv2_1"
  convolution_param {
    num_output: 128
    pad: 1
    kernel_size: 3
  }
}
layer {
  name: "relu2_1"
  type: "ReLU"
  bottom: "conv2_1"
  top: "conv2_1"
}
layer {
  name: "conv2_2"
  type: "Convolution"
  bottom: "conv2_1"
  top: "conv2_2"
  convolution_param {
    num_output: 128
    pad: 1
    kernel_size: 3
  }
}
layer {
  name: "relu2_2"
  type: "ReLU"
  bottom: "conv2_2"
  top: "conv2_2"
}
layer {
  name: "pool2"
  type: "Pooling"
  bottom: "conv2_2"
  top: "pool2"
  pooling_param {
    pool: MAX
    kernel_size: 2
    stride: 2
  }
}
layer {
  name: "conv3_1"
  type: "Convolution"
  bottom: "pool2"
  top: "conv3_1"
  convolution_param {
    num_output: 256
    pad: 1
    kernel_size: 3
  }
}
layer {
  name: "relu3_1"
  type: "ReLU"
  bottom: "conv3_1"
  top: "conv3_1"
}
layer {
  name: "conv3_2"
  type: "Convolution"
  bottom: "conv3_1"
  top: "conv3_2"
  convolution_param {
    num_output: 256
    pad: 1
    kernel_size: 3
  }
}
layer {
  name: "relu3_2"
  type: "ReLU"
  bottom: "conv3_2"
  top: "conv3_2"
}
layer {
  name: "conv3_3"
  type: "Convolution"
  bottom: "conv3_2"
  top: "conv3_3"
  convolution_param {
    num_output: 256
    pad: 1
    kernel_size: 3
  }
}
layer {
  name: "relu3_3"
  type: "ReLU"
  bottom: "conv3_3"
  top: "conv3_3"
}
layer {
  name: "pool3"
  type: "Pooling"
  bottom: "conv3_3"
  top: "pool3"
  pooling_param {
    pool: MAX
    kernel_size: 2
    stride: 2
  }
}
layer {
  name: "conv4_1"
  type: "Convolution"
  bottom: "pool3"
  top: "conv4_1"
  convolution_param {
    num_output: 512
    pad: 1
    kernel_size: 3
  }
}
layer {
  name: "relu4_1"
  type: "ReLU"
  bottom: "conv4_1"
  top: "conv4_1"
}
layer {
  name: "conv4_2"
  type: "Convolution"
  bottom: "conv4_1"
  top: "conv4_2"
  convolution_param {
    num_output: 512
    pad: 1
    kernel_size: 3
  }
}
layer {
  name: "relu4_2"
  type: "ReLU"
  bottom: "conv4_2"
  top: "conv4_2"
}
layer {
  name: "conv4_3"
  type: "Convolution"
  bottom: "conv4_2"
  top: "conv4_3"
  convolution_param {
    num_output: 512
    pad: 1
    kernel_size: 3
  }
}
layer {
  name: "relu4_3"
  type: "ReLU"
  bottom: "conv4_3"
  top: "conv4_3"
}
layer {
  name: "pool4"
  type: "Pooling"
  bottom: "conv4_3"
  top: "pool4"
  pooling_param {
    pool: MAX
    kernel_size: 2
    stride: 2
  }
}
layer {
  name: "conv5_1"
  type: "Convolution"
  bottom: "pool4"
  top: "conv5_1"
  convolution_param {
    num_output: 512
    pad: 1
    kernel_size: 3
  }
}
layer {
  name: "relu5_1"
  type: "ReLU"
  bottom: "conv5_1"
  top: "conv5_1"
}
layer {
  name: "conv5_2"
  type: "Convolution"
  bottom: "conv5_1"
  top: "conv5_2"
  convolution_param {
    num_output: 512
    pad: 1
    kernel_size: 3
  }
}
layer {
  name: "relu5_2"
  type: "ReLU"
  bottom: "conv5_2"
  top: "conv5_2"
}
layer {
  name: "conv5_3"
  type: "Convolution"
  bottom: "conv5_2"
  top: "conv5_3"
  convolution_param {
    num_output: 512
    pad: 1
    kernel_size: 3
  }
}
layer {
  name: "relu5_3"
  type: "ReLU"
  bottom: "conv5_3"
  top: "conv5_3"
}
layer {
  name: "pool5"
  type: "Pooling"
  bottom: "conv5_3"
  top: "pool5"
  pooling_param {
    pool: MAX
    kernel_size: 2
    stride: 2
  }
}
layer {
  name: "fc6-conv"
  type: "Convolution"
  bottom: "pool5"
  top: "fc6-conv"
  convolution_param {
    num_output: 4096
    kernel_size: 7
  }
}
layer {
  name: "relu6"
  type: "ReLU"
  bottom: "fc6-conv"
  top: "fc6-conv"
}
layer {
  name: "drop6"
  type: "Dropout"
  bottom: "fc6-conv"
  top: "fc6-conv"
  dropout_param {
    dropout_ratio: 0.5
  }
}
layer {
  name: "fc7-conv"
  type: "Convolution"
  bottom: "fc6-conv"
  top: "fc7-conv"
  convolution_param {
    num_output: 4096
    kernel_size: 1
  }
}
layer {
  name: "relu7"
  type: "ReLU"
  bottom: "fc7-conv"
  top: "fc7-conv"
}
layer {
  name: "drop7"
  type: "Dropout"
  bottom: "fc7-conv"
  top: "fc7-conv"
  dropout_param {
    dropout_ratio: 0.9
  }
}
layer {
  name: "fc7-conv_re"
  type: "Reshape"
  bottom: "fc7-conv"
  top: "fc7-conv_re"
  reshape_param {
    shape {
      dim: 0
      dim: 0
      dim: -1
    }
  }
}
layer {
  name: "fc7-conv_tran"
  type: "Python"
  bottom: "fc7-conv_re"
  top: "fc7-conv_tran"
  python_param {
    module: "data_preparation_sort_max_clip"
    layer: "DataTransposeSortMaxClip"
  }
}
layer {
  name: "lstm1"
  type: "LSTM"
  bottom: "fc7-conv_tran"
  bottom: "clip_markers"
  top: "lstm1"
  recurrent_param {
    num_output: 512
    weight_filler {
      type: "uniform"
      min: -0.01
      max: 0.01
    }
    bias_filler {
      type: "constant"
      value: 0
    }
  }
}
layer {
  name: "lstm1-drop"
  type: "Dropout"
  bottom: "lstm1"
  top: "lstm1-drop"
  dropout_param {
    dropout_ratio: 0.5
  }
}
layer {
  name: "fc-final"
  type: "InnerProduct"
  bottom: "lstm1-drop"
  top: "fc-final"
  param {
    lr_mult: 1
    decay_mult: 1
  }
  param {
    lr_mult: 2
    decay_mult: 0
  }
  inner_product_param {
    num_output: 10
    weight_filler {
      type: "gaussian"
      std: 0.01
    }
    bias_filler {
      type: "constant"
      value: 0
    }
    axis: 2
  }
}
layer {
  name: "loss"
  type: "SoftmaxWithLoss"
  bottom: "fc-final"
  bottom: "reshape-label"
  top: "loss"
  softmax_param {
    axis: 2
  }
}
layer {
  name: "accuracy"
  type: "Accuracy"
  bottom: "fc-final"
  bottom: "reshape-label"
  top: "accuracy"
  accuracy_param {
    axis: 2
  }
}
I1017 12:06:16.002406 26788 layer_factory.hpp:77] Creating layer data
I1017 12:06:16.002425 26788 net.cpp:84] Creating Layer data
I1017 12:06:16.002431 26788 net.cpp:380] data -> data
I1017 12:06:16.002441 26788 net.cpp:380] data -> label
I1017 12:06:16.002451 26788 image_data_layer.cpp:38] Opening file ../Data/lsun_val_list.txt
I1017 12:06:16.003437 26788 image_data_layer.cpp:63] A total of 3000 images.
I1017 12:06:16.005204 26788 image_data_layer.cpp:90] output data size: 50,3,288,288
I1017 12:06:16.133726 26788 net.cpp:122] Setting up data
I1017 12:06:16.133771 26788 net.cpp:129] Top shape: 50 3 288 288 (12441600)
I1017 12:06:16.133779 26788 net.cpp:129] Top shape: 50 (50)
I1017 12:06:16.133782 26788 net.cpp:137] Memory required for data: 49766600
I1017 12:06:16.133792 26788 layer_factory.hpp:77] Creating layer label_data_1_split
I1017 12:06:16.133815 26788 net.cpp:84] Creating Layer label_data_1_split
I1017 12:06:16.133821 26788 net.cpp:406] label_data_1_split <- label
I1017 12:06:16.133837 26788 net.cpp:380] label_data_1_split -> label_data_1_split_0
I1017 12:06:16.133854 26788 net.cpp:380] label_data_1_split -> label_data_1_split_1
I1017 12:06:16.134205 26788 net.cpp:122] Setting up label_data_1_split
I1017 12:06:16.134250 26788 net.cpp:129] Top shape: 50 (50)
I1017 12:06:16.134263 26788 net.cpp:129] Top shape: 50 (50)
I1017 12:06:16.134272 26788 net.cpp:137] Memory required for data: 49767000
I1017 12:06:16.134284 26788 layer_factory.hpp:77] Creating layer Silence
I1017 12:06:16.134315 26788 net.cpp:84] Creating Layer Silence
I1017 12:06:16.134330 26788 net.cpp:406] Silence <- label_data_1_split_0
I1017 12:06:16.134346 26788 net.cpp:122] Setting up Silence
I1017 12:06:16.134353 26788 net.cpp:137] Memory required for data: 49767000
I1017 12:06:16.134361 26788 layer_factory.hpp:77] Creating layer label_tran
I1017 12:06:16.134526 26788 net.cpp:84] Creating Layer label_tran
I1017 12:06:16.134542 26788 net.cpp:406] label_tran <- label_data_1_split_1
I1017 12:06:16.134562 26788 net.cpp:380] label_tran -> reshape-label
I1017 12:06:16.134582 26788 net.cpp:380] label_tran -> clip_markers
I1017 12:06:16.134840 26788 net.cpp:122] Setting up label_tran
I1017 12:06:16.134865 26788 net.cpp:129] Top shape: 8 50 (400)
I1017 12:06:16.134879 26788 net.cpp:129] Top shape: 8 50 (400)
I1017 12:06:16.134887 26788 net.cpp:137] Memory required for data: 49770200
I1017 12:06:16.134896 26788 layer_factory.hpp:77] Creating layer reshape-label_label_tran_0_split
I1017 12:06:16.134912 26788 net.cpp:84] Creating Layer reshape-label_label_tran_0_split
I1017 12:06:16.134922 26788 net.cpp:406] reshape-label_label_tran_0_split <- reshape-label
I1017 12:06:16.134937 26788 net.cpp:380] reshape-label_label_tran_0_split -> reshape-label_label_tran_0_split_0
I1017 12:06:16.134953 26788 net.cpp:380] reshape-label_label_tran_0_split -> reshape-label_label_tran_0_split_1
I1017 12:06:16.135030 26788 net.cpp:122] Setting up reshape-label_label_tran_0_split
I1017 12:06:16.135046 26788 net.cpp:129] Top shape: 8 50 (400)
I1017 12:06:16.135056 26788 net.cpp:129] Top shape: 8 50 (400)
I1017 12:06:16.135063 26788 net.cpp:137] Memory required for data: 49773400
I1017 12:06:16.135072 26788 layer_factory.hpp:77] Creating layer conv1_1
I1017 12:06:16.135093 26788 net.cpp:84] Creating Layer conv1_1
I1017 12:06:16.135105 26788 net.cpp:406] conv1_1 <- data
I1017 12:06:16.135118 26788 net.cpp:380] conv1_1 -> conv1_1
I1017 12:06:16.135768 26788 net.cpp:122] Setting up conv1_1
I1017 12:06:16.135789 26788 net.cpp:129] Top shape: 50 64 288 288 (265420800)
I1017 12:06:16.135802 26788 net.cpp:137] Memory required for data: 1111456600
I1017 12:06:16.135826 26788 layer_factory.hpp:77] Creating layer relu1_1
I1017 12:06:16.135843 26788 net.cpp:84] Creating Layer relu1_1
I1017 12:06:16.135852 26788 net.cpp:406] relu1_1 <- conv1_1
I1017 12:06:16.135874 26788 net.cpp:367] relu1_1 -> conv1_1 (in-place)
I1017 12:06:16.135892 26788 net.cpp:122] Setting up relu1_1
I1017 12:06:16.135905 26788 net.cpp:129] Top shape: 50 64 288 288 (265420800)
I1017 12:06:16.135912 26788 net.cpp:137] Memory required for data: 2173139800
I1017 12:06:16.135921 26788 layer_factory.hpp:77] Creating layer conv1_2
I1017 12:06:16.135937 26788 net.cpp:84] Creating Layer conv1_2
I1017 12:06:16.135948 26788 net.cpp:406] conv1_2 <- conv1_1
I1017 12:06:16.135962 26788 net.cpp:380] conv1_2 -> conv1_2
I1017 12:06:16.136945 26788 net.cpp:122] Setting up conv1_2
I1017 12:06:16.136973 26788 net.cpp:129] Top shape: 50 64 288 288 (265420800)
I1017 12:06:16.136982 26788 net.cpp:137] Memory required for data: 3234823000
I1017 12:06:16.137008 26788 layer_factory.hpp:77] Creating layer relu1_2
I1017 12:06:16.137025 26788 net.cpp:84] Creating Layer relu1_2
I1017 12:06:16.137035 26788 net.cpp:406] relu1_2 <- conv1_2
I1017 12:06:16.137050 26788 net.cpp:367] relu1_2 -> conv1_2 (in-place)
I1017 12:06:16.137070 26788 net.cpp:122] Setting up relu1_2
I1017 12:06:16.137082 26788 net.cpp:129] Top shape: 50 64 288 288 (265420800)
I1017 12:06:16.137090 26788 net.cpp:137] Memory required for data: 4296506200
I1017 12:06:16.137099 26788 layer_factory.hpp:77] Creating layer pool1
I1017 12:06:16.137115 26788 net.cpp:84] Creating Layer pool1
I1017 12:06:16.137126 26788 net.cpp:406] pool1 <- conv1_2
I1017 12:06:16.137140 26788 net.cpp:380] pool1 -> pool1
I1017 12:06:16.137220 26788 net.cpp:122] Setting up pool1
I1017 12:06:16.137238 26788 net.cpp:129] Top shape: 50 64 144 144 (66355200)
I1017 12:06:16.137245 26788 net.cpp:137] Memory required for data: 4561927000
I1017 12:06:16.137254 26788 layer_factory.hpp:77] Creating layer conv2_1
I1017 12:06:16.137277 26788 net.cpp:84] Creating Layer conv2_1
I1017 12:06:16.137290 26788 net.cpp:406] conv2_1 <- pool1
I1017 12:06:16.137305 26788 net.cpp:380] conv2_1 -> conv2_1
I1017 12:06:16.139165 26788 net.cpp:122] Setting up conv2_1
I1017 12:06:16.139196 26788 net.cpp:129] Top shape: 50 128 144 144 (132710400)
I1017 12:06:16.139206 26788 net.cpp:137] Memory required for data: 5092768600
I1017 12:06:16.139228 26788 layer_factory.hpp:77] Creating layer relu2_1
I1017 12:06:16.139246 26788 net.cpp:84] Creating Layer relu2_1
I1017 12:06:16.139263 26788 net.cpp:406] relu2_1 <- conv2_1
I1017 12:06:16.139277 26788 net.cpp:367] relu2_1 -> conv2_1 (in-place)
I1017 12:06:16.139294 26788 net.cpp:122] Setting up relu2_1
I1017 12:06:16.139313 26788 net.cpp:129] Top shape: 50 128 144 144 (132710400)
I1017 12:06:16.139322 26788 net.cpp:137] Memory required for data: 5623610200
I1017 12:06:16.139329 26788 layer_factory.hpp:77] Creating layer conv2_2
I1017 12:06:16.139346 26788 net.cpp:84] Creating Layer conv2_2
I1017 12:06:16.139358 26788 net.cpp:406] conv2_2 <- conv2_1
I1017 12:06:16.139372 26788 net.cpp:380] conv2_2 -> conv2_2
I1017 12:06:16.144476 26788 net.cpp:122] Setting up conv2_2
I1017 12:06:16.144521 26788 net.cpp:129] Top shape: 50 128 144 144 (132710400)
I1017 12:06:16.144536 26788 net.cpp:137] Memory required for data: 6154451800
I1017 12:06:16.144552 26788 layer_factory.hpp:77] Creating layer relu2_2
I1017 12:06:16.144568 26788 net.cpp:84] Creating Layer relu2_2
I1017 12:06:16.144582 26788 net.cpp:406] relu2_2 <- conv2_2
I1017 12:06:16.144598 26788 net.cpp:367] relu2_2 -> conv2_2 (in-place)
I1017 12:06:16.144619 26788 net.cpp:122] Setting up relu2_2
I1017 12:06:16.144634 26788 net.cpp:129] Top shape: 50 128 144 144 (132710400)
I1017 12:06:16.144644 26788 net.cpp:137] Memory required for data: 6685293400
I1017 12:06:16.144652 26788 layer_factory.hpp:77] Creating layer pool2
I1017 12:06:16.144666 26788 net.cpp:84] Creating Layer pool2
I1017 12:06:16.144678 26788 net.cpp:406] pool2 <- conv2_2
I1017 12:06:16.144692 26788 net.cpp:380] pool2 -> pool2
I1017 12:06:16.144775 26788 net.cpp:122] Setting up pool2
I1017 12:06:16.144793 26788 net.cpp:129] Top shape: 50 128 72 72 (33177600)
I1017 12:06:16.144803 26788 net.cpp:137] Memory required for data: 6818003800
I1017 12:06:16.144810 26788 layer_factory.hpp:77] Creating layer conv3_1
I1017 12:06:16.144829 26788 net.cpp:84] Creating Layer conv3_1
I1017 12:06:16.144839 26788 net.cpp:406] conv3_1 <- pool2
I1017 12:06:16.144853 26788 net.cpp:380] conv3_1 -> conv3_1
I1017 12:06:16.147004 26788 net.cpp:122] Setting up conv3_1
I1017 12:06:16.147042 26788 net.cpp:129] Top shape: 50 256 72 72 (66355200)
I1017 12:06:16.147053 26788 net.cpp:137] Memory required for data: 7083424600
I1017 12:06:16.147076 26788 layer_factory.hpp:77] Creating layer relu3_1
I1017 12:06:16.147096 26788 net.cpp:84] Creating Layer relu3_1
I1017 12:06:16.147116 26788 net.cpp:406] relu3_1 <- conv3_1
I1017 12:06:16.147131 26788 net.cpp:367] relu3_1 -> conv3_1 (in-place)
I1017 12:06:16.147147 26788 net.cpp:122] Setting up relu3_1
I1017 12:06:16.147159 26788 net.cpp:129] Top shape: 50 256 72 72 (66355200)
I1017 12:06:16.147167 26788 net.cpp:137] Memory required for data: 7348845400
I1017 12:06:16.147176 26788 layer_factory.hpp:77] Creating layer conv3_2
I1017 12:06:16.147193 26788 net.cpp:84] Creating Layer conv3_2
I1017 12:06:16.147205 26788 net.cpp:406] conv3_2 <- conv3_1
I1017 12:06:16.147219 26788 net.cpp:380] conv3_2 -> conv3_2
I1017 12:06:16.150221 26788 net.cpp:122] Setting up conv3_2
I1017 12:06:16.150246 26788 net.cpp:129] Top shape: 50 256 72 72 (66355200)
I1017 12:06:16.150259 26788 net.cpp:137] Memory required for data: 7614266200
I1017 12:06:16.150271 26788 layer_factory.hpp:77] Creating layer relu3_2
I1017 12:06:16.150283 26788 net.cpp:84] Creating Layer relu3_2
I1017 12:06:16.150291 26788 net.cpp:406] relu3_2 <- conv3_2
I1017 12:06:16.150303 26788 net.cpp:367] relu3_2 -> conv3_2 (in-place)
I1017 12:06:16.150317 26788 net.cpp:122] Setting up relu3_2
I1017 12:06:16.150331 26788 net.cpp:129] Top shape: 50 256 72 72 (66355200)
I1017 12:06:16.150337 26788 net.cpp:137] Memory required for data: 7879687000
I1017 12:06:16.150348 26788 layer_factory.hpp:77] Creating layer conv3_3
I1017 12:06:16.150362 26788 net.cpp:84] Creating Layer conv3_3
I1017 12:06:16.150368 26788 net.cpp:406] conv3_3 <- conv3_2
I1017 12:06:16.150380 26788 net.cpp:380] conv3_3 -> conv3_3
I1017 12:06:16.153128 26788 net.cpp:122] Setting up conv3_3
I1017 12:06:16.153161 26788 net.cpp:129] Top shape: 50 256 72 72 (66355200)
I1017 12:06:16.153168 26788 net.cpp:137] Memory required for data: 8145107800
I1017 12:06:16.153182 26788 layer_factory.hpp:77] Creating layer relu3_3
I1017 12:06:16.153193 26788 net.cpp:84] Creating Layer relu3_3
I1017 12:06:16.153201 26788 net.cpp:406] relu3_3 <- conv3_3
I1017 12:06:16.153213 26788 net.cpp:367] relu3_3 -> conv3_3 (in-place)
I1017 12:06:16.153242 26788 net.cpp:122] Setting up relu3_3
I1017 12:06:16.153251 26788 net.cpp:129] Top shape: 50 256 72 72 (66355200)
I1017 12:06:16.153259 26788 net.cpp:137] Memory required for data: 8410528600
I1017 12:06:16.153267 26788 layer_factory.hpp:77] Creating layer pool3
I1017 12:06:16.153278 26788 net.cpp:84] Creating Layer pool3
I1017 12:06:16.153285 26788 net.cpp:406] pool3 <- conv3_3
I1017 12:06:16.153296 26788 net.cpp:380] pool3 -> pool3
I1017 12:06:16.153362 26788 net.cpp:122] Setting up pool3
I1017 12:06:16.153393 26788 net.cpp:129] Top shape: 50 256 36 36 (16588800)
I1017 12:06:16.153400 26788 net.cpp:137] Memory required for data: 8476883800
I1017 12:06:16.153409 26788 layer_factory.hpp:77] Creating layer conv4_1
I1017 12:06:16.153422 26788 net.cpp:84] Creating Layer conv4_1
I1017 12:06:16.153430 26788 net.cpp:406] conv4_1 <- pool3
I1017 12:06:16.153442 26788 net.cpp:380] conv4_1 -> conv4_1
I1017 12:06:16.157647 26788 net.cpp:122] Setting up conv4_1
I1017 12:06:16.157666 26788 net.cpp:129] Top shape: 50 512 36 36 (33177600)
I1017 12:06:16.157671 26788 net.cpp:137] Memory required for data: 8609594200
I1017 12:06:16.157680 26788 layer_factory.hpp:77] Creating layer relu4_1
I1017 12:06:16.157690 26788 net.cpp:84] Creating Layer relu4_1
I1017 12:06:16.157696 26788 net.cpp:406] relu4_1 <- conv4_1
I1017 12:06:16.157703 26788 net.cpp:367] relu4_1 -> conv4_1 (in-place)
I1017 12:06:16.157712 26788 net.cpp:122] Setting up relu4_1
I1017 12:06:16.157719 26788 net.cpp:129] Top shape: 50 512 36 36 (33177600)
I1017 12:06:16.157723 26788 net.cpp:137] Memory required for data: 8742304600
I1017 12:06:16.157728 26788 layer_factory.hpp:77] Creating layer conv4_2
I1017 12:06:16.157738 26788 net.cpp:84] Creating Layer conv4_2
I1017 12:06:16.157743 26788 net.cpp:406] conv4_2 <- conv4_1
I1017 12:06:16.157752 26788 net.cpp:380] conv4_2 -> conv4_2
I1017 12:06:16.164279 26788 net.cpp:122] Setting up conv4_2
I1017 12:06:16.164300 26788 net.cpp:129] Top shape: 50 512 36 36 (33177600)
I1017 12:06:16.164311 26788 net.cpp:137] Memory required for data: 8875015000
I1017 12:06:16.164328 26788 layer_factory.hpp:77] Creating layer relu4_2
I1017 12:06:16.164338 26788 net.cpp:84] Creating Layer relu4_2
I1017 12:06:16.164350 26788 net.cpp:406] relu4_2 <- conv4_2
I1017 12:06:16.164358 26788 net.cpp:367] relu4_2 -> conv4_2 (in-place)
I1017 12:06:16.164374 26788 net.cpp:122] Setting up relu4_2
I1017 12:06:16.164381 26788 net.cpp:129] Top shape: 50 512 36 36 (33177600)
I1017 12:06:16.164386 26788 net.cpp:137] Memory required for data: 9007725400
I1017 12:06:16.164389 26788 layer_factory.hpp:77] Creating layer conv4_3
I1017 12:06:16.164399 26788 net.cpp:84] Creating Layer conv4_3
I1017 12:06:16.164404 26788 net.cpp:406] conv4_3 <- conv4_2
I1017 12:06:16.164412 26788 net.cpp:380] conv4_3 -> conv4_3
I1017 12:06:16.170727 26788 net.cpp:122] Setting up conv4_3
I1017 12:06:16.170747 26788 net.cpp:129] Top shape: 50 512 36 36 (33177600)
I1017 12:06:16.170752 26788 net.cpp:137] Memory required for data: 9140435800
I1017 12:06:16.170760 26788 layer_factory.hpp:77] Creating layer relu4_3
I1017 12:06:16.170769 26788 net.cpp:84] Creating Layer relu4_3
I1017 12:06:16.170776 26788 net.cpp:406] relu4_3 <- conv4_3
I1017 12:06:16.170785 26788 net.cpp:367] relu4_3 -> conv4_3 (in-place)
I1017 12:06:16.170794 26788 net.cpp:122] Setting up relu4_3
I1017 12:06:16.170801 26788 net.cpp:129] Top shape: 50 512 36 36 (33177600)
I1017 12:06:16.170811 26788 net.cpp:137] Memory required for data: 9273146200
I1017 12:06:16.170815 26788 layer_factory.hpp:77] Creating layer pool4
I1017 12:06:16.170825 26788 net.cpp:84] Creating Layer pool4
I1017 12:06:16.170830 26788 net.cpp:406] pool4 <- conv4_3
I1017 12:06:16.170838 26788 net.cpp:380] pool4 -> pool4
I1017 12:06:16.170886 26788 net.cpp:122] Setting up pool4
I1017 12:06:16.170895 26788 net.cpp:129] Top shape: 50 512 18 18 (8294400)
I1017 12:06:16.170899 26788 net.cpp:137] Memory required for data: 9306323800
I1017 12:06:16.170904 26788 layer_factory.hpp:77] Creating layer conv5_1
I1017 12:06:16.170915 26788 net.cpp:84] Creating Layer conv5_1
I1017 12:06:16.170920 26788 net.cpp:406] conv5_1 <- pool4
I1017 12:06:16.170928 26788 net.cpp:380] conv5_1 -> conv5_1
I1017 12:06:16.177613 26788 net.cpp:122] Setting up conv5_1
I1017 12:06:16.177633 26788 net.cpp:129] Top shape: 50 512 18 18 (8294400)
I1017 12:06:16.177637 26788 net.cpp:137] Memory required for data: 9339501400
I1017 12:06:16.177645 26788 layer_factory.hpp:77] Creating layer relu5_1
I1017 12:06:16.177655 26788 net.cpp:84] Creating Layer relu5_1
I1017 12:06:16.177661 26788 net.cpp:406] relu5_1 <- conv5_1
I1017 12:06:16.177670 26788 net.cpp:367] relu5_1 -> conv5_1 (in-place)
I1017 12:06:16.177680 26788 net.cpp:122] Setting up relu5_1
I1017 12:06:16.177685 26788 net.cpp:129] Top shape: 50 512 18 18 (8294400)
I1017 12:06:16.177690 26788 net.cpp:137] Memory required for data: 9372679000
I1017 12:06:16.177697 26788 layer_factory.hpp:77] Creating layer conv5_2
I1017 12:06:16.177707 26788 net.cpp:84] Creating Layer conv5_2
I1017 12:06:16.177712 26788 net.cpp:406] conv5_2 <- conv5_1
I1017 12:06:16.177721 26788 net.cpp:380] conv5_2 -> conv5_2
I1017 12:06:16.184165 26788 net.cpp:122] Setting up conv5_2
I1017 12:06:16.184190 26788 net.cpp:129] Top shape: 50 512 18 18 (8294400)
I1017 12:06:16.184195 26788 net.cpp:137] Memory required for data: 9405856600
I1017 12:06:16.184204 26788 layer_factory.hpp:77] Creating layer relu5_2
I1017 12:06:16.184224 26788 net.cpp:84] Creating Layer relu5_2
I1017 12:06:16.184237 26788 net.cpp:406] relu5_2 <- conv5_2
I1017 12:06:16.184247 26788 net.cpp:367] relu5_2 -> conv5_2 (in-place)
I1017 12:06:16.184257 26788 net.cpp:122] Setting up relu5_2
I1017 12:06:16.184263 26788 net.cpp:129] Top shape: 50 512 18 18 (8294400)
I1017 12:06:16.184269 26788 net.cpp:137] Memory required for data: 9439034200
I1017 12:06:16.184274 26788 layer_factory.hpp:77] Creating layer conv5_3
I1017 12:06:16.184283 26788 net.cpp:84] Creating Layer conv5_3
I1017 12:06:16.184288 26788 net.cpp:406] conv5_3 <- conv5_2
I1017 12:06:16.184296 26788 net.cpp:380] conv5_3 -> conv5_3
I1017 12:06:16.190696 26788 net.cpp:122] Setting up conv5_3
I1017 12:06:16.190719 26788 net.cpp:129] Top shape: 50 512 18 18 (8294400)
I1017 12:06:16.190724 26788 net.cpp:137] Memory required for data: 9472211800
I1017 12:06:16.190733 26788 layer_factory.hpp:77] Creating layer relu5_3
I1017 12:06:16.190743 26788 net.cpp:84] Creating Layer relu5_3
I1017 12:06:16.190749 26788 net.cpp:406] relu5_3 <- conv5_3
I1017 12:06:16.190758 26788 net.cpp:367] relu5_3 -> conv5_3 (in-place)
I1017 12:06:16.190769 26788 net.cpp:122] Setting up relu5_3
I1017 12:06:16.190775 26788 net.cpp:129] Top shape: 50 512 18 18 (8294400)
I1017 12:06:16.190781 26788 net.cpp:137] Memory required for data: 9505389400
I1017 12:06:16.190786 26788 layer_factory.hpp:77] Creating layer pool5
I1017 12:06:16.190795 26788 net.cpp:84] Creating Layer pool5
I1017 12:06:16.190800 26788 net.cpp:406] pool5 <- conv5_3
I1017 12:06:16.190809 26788 net.cpp:380] pool5 -> pool5
I1017 12:06:16.190857 26788 net.cpp:122] Setting up pool5
I1017 12:06:16.190867 26788 net.cpp:129] Top shape: 50 512 9 9 (2073600)
I1017 12:06:16.190872 26788 net.cpp:137] Memory required for data: 9513683800
I1017 12:06:16.190877 26788 layer_factory.hpp:77] Creating layer fc6-conv
I1017 12:06:16.190887 26788 net.cpp:84] Creating Layer fc6-conv
I1017 12:06:16.190892 26788 net.cpp:406] fc6-conv <- pool5
I1017 12:06:16.190901 26788 net.cpp:380] fc6-conv -> fc6-conv
I1017 12:06:16.483561 26788 net.cpp:122] Setting up fc6-conv
I1017 12:06:16.483598 26788 net.cpp:129] Top shape: 50 4096 3 3 (1843200)
I1017 12:06:16.483605 26788 net.cpp:137] Memory required for data: 9521056600
I1017 12:06:16.483623 26788 layer_factory.hpp:77] Creating layer relu6
I1017 12:06:16.483639 26788 net.cpp:84] Creating Layer relu6
I1017 12:06:16.483649 26788 net.cpp:406] relu6 <- fc6-conv
I1017 12:06:16.483662 26788 net.cpp:367] relu6 -> fc6-conv (in-place)
I1017 12:06:16.483681 26788 net.cpp:122] Setting up relu6
I1017 12:06:16.483691 26788 net.cpp:129] Top shape: 50 4096 3 3 (1843200)
I1017 12:06:16.483698 26788 net.cpp:137] Memory required for data: 9528429400
I1017 12:06:16.483705 26788 layer_factory.hpp:77] Creating layer drop6
I1017 12:06:16.483718 26788 net.cpp:84] Creating Layer drop6
I1017 12:06:16.483726 26788 net.cpp:406] drop6 <- fc6-conv
I1017 12:06:16.483736 26788 net.cpp:367] drop6 -> fc6-conv (in-place)
I1017 12:06:16.483783 26788 net.cpp:122] Setting up drop6
I1017 12:06:16.483798 26788 net.cpp:129] Top shape: 50 4096 3 3 (1843200)
I1017 12:06:16.483805 26788 net.cpp:137] Memory required for data: 9535802200
I1017 12:06:16.483813 26788 layer_factory.hpp:77] Creating layer fc7-conv
I1017 12:06:16.483827 26788 net.cpp:84] Creating Layer fc7-conv
I1017 12:06:16.483834 26788 net.cpp:406] fc7-conv <- fc6-conv
I1017 12:06:16.483846 26788 net.cpp:380] fc7-conv -> fc7-conv
I1017 12:06:16.541085 26788 net.cpp:122] Setting up fc7-conv
I1017 12:06:16.541129 26788 net.cpp:129] Top shape: 50 4096 3 3 (1843200)
I1017 12:06:16.541134 26788 net.cpp:137] Memory required for data: 9543175000
I1017 12:06:16.541147 26788 layer_factory.hpp:77] Creating layer relu7
I1017 12:06:16.541160 26788 net.cpp:84] Creating Layer relu7
I1017 12:06:16.541167 26788 net.cpp:406] relu7 <- fc7-conv
I1017 12:06:16.541177 26788 net.cpp:367] relu7 -> fc7-conv (in-place)
I1017 12:06:16.541189 26788 net.cpp:122] Setting up relu7
I1017 12:06:16.541195 26788 net.cpp:129] Top shape: 50 4096 3 3 (1843200)
I1017 12:06:16.541200 26788 net.cpp:137] Memory required for data: 9550547800
I1017 12:06:16.541204 26788 layer_factory.hpp:77] Creating layer drop7
I1017 12:06:16.541213 26788 net.cpp:84] Creating Layer drop7
I1017 12:06:16.541216 26788 net.cpp:406] drop7 <- fc7-conv
I1017 12:06:16.541225 26788 net.cpp:367] drop7 -> fc7-conv (in-place)
I1017 12:06:16.541260 26788 net.cpp:122] Setting up drop7
I1017 12:06:16.541270 26788 net.cpp:129] Top shape: 50 4096 3 3 (1843200)
I1017 12:06:16.541275 26788 net.cpp:137] Memory required for data: 9557920600
I1017 12:06:16.541278 26788 layer_factory.hpp:77] Creating layer fc7-conv_re
I1017 12:06:16.541288 26788 net.cpp:84] Creating Layer fc7-conv_re
I1017 12:06:16.541293 26788 net.cpp:406] fc7-conv_re <- fc7-conv
I1017 12:06:16.541299 26788 net.cpp:380] fc7-conv_re -> fc7-conv_re
I1017 12:06:16.541332 26788 net.cpp:122] Setting up fc7-conv_re
I1017 12:06:16.541342 26788 net.cpp:129] Top shape: 50 4096 9 (1843200)
I1017 12:06:16.541345 26788 net.cpp:137] Memory required for data: 9565293400
I1017 12:06:16.541350 26788 layer_factory.hpp:77] Creating layer fc7-conv_tran
I1017 12:06:16.541434 26788 net.cpp:84] Creating Layer fc7-conv_tran
I1017 12:06:16.541441 26788 net.cpp:406] fc7-conv_tran <- fc7-conv_re
I1017 12:06:16.541448 26788 net.cpp:380] fc7-conv_tran -> fc7-conv_tran
I1017 12:06:16.545353 26788 net.cpp:122] Setting up fc7-conv_tran
I1017 12:06:16.545382 26788 net.cpp:129] Top shape: 8 50 9 (3600)
I1017 12:06:16.545385 26788 net.cpp:137] Memory required for data: 9565307800
I1017 12:06:16.545392 26788 layer_factory.hpp:77] Creating layer lstm1
I1017 12:06:16.545408 26788 net.cpp:84] Creating Layer lstm1
I1017 12:06:16.545415 26788 net.cpp:406] lstm1 <- fc7-conv_tran
I1017 12:06:16.545425 26788 net.cpp:406] lstm1 <- clip_markers
I1017 12:06:16.545434 26788 net.cpp:380] lstm1 -> lstm1
I1017 12:06:16.545450 26788 recurrent_layer.cpp:20] Initializing recurrent layer: assuming input batch contains 8 timesteps of 50 independent streams.
I1017 12:06:16.545873 26788 net.cpp:51] Initializing net from parameters: 
layer {
  name: "lstm1_"
  type: "Input"
  top: "x"
  top: "cont"
  input_param {
    shape {
      dim: 8
      dim: 50
      dim: 9
    }
    shape {
      dim: 8
      dim: 50
    }
  }
}
layer {
  name: "lstm1_"
  type: "Input"
  top: "c_0"
  top: "h_0"
  input_param {
    shape {
      dim: 1
      dim: 50
      dim: 512
    }
    shape {
      dim: 1
      dim: 50
      dim: 512
    }
  }
}
layer {
  name: "lstm1_cont_slice"
  type: "Slice"
  bottom: "cont"
  top: "cont_1"
  top: "cont_2"
  top: "cont_3"
  top: "cont_4"
  top: "cont_5"
  top: "cont_6"
  top: "cont_7"
  top: "cont_8"
  slice_param {
    axis: 0
  }
}
layer {
  name: "lstm1_x_transform"
  type: "InnerProduct"
  bottom: "x"
  top: "W_xc_x"
  param {
    name: "W_xc"
  }
  param {
    name: "b_c"
  }
  propagate_down: true
  inner_product_param {
    num_output: 2048
    bias_term: true
    weight_filler {
      type: "uniform"
      min: -0.01
      max: 0.01
    }
    bias_filler {
      type: "constant"
      value: 0
    }
    axis: 2
  }
}
layer {
  name: "lstm1_W_xc_x_slice"
  type: "Slice"
  bottom: "W_xc_x"
  top: "W_xc_x_1"
  top: "W_xc_x_2"
  top: "W_xc_x_3"
  top: "W_xc_x_4"
  top: "W_xc_x_5"
  top: "W_xc_x_6"
  top: "W_xc_x_7"
  top: "W_xc_x_8"
  slice_param {
    axis: 0
  }
}
layer {
  name: "lstm1_h_conted_0"
  type: "Scale"
  bottom: "h_0"
  bottom: "cont_1"
  top: "h_conted_0"
  scale_param {
    axis: 0
  }
}
layer {
  name: "lstm1_transform_1"
  type: "InnerProduct"
  bottom: "h_conted_0"
  top: "W_hc_h_0"
  param {
    name: "W_hc"
  }
  inner_product_param {
    num_output: 2048
    bias_term: false
    weight_filler {
      type: "uniform"
      min: -0.01
      max: 0.01
    }
    axis: 2
  }
}
layer {
  name: "lstm1_gate_input_1"
  type: "Eltwise"
  bottom: "W_hc_h_0"
  bottom: "W_xc_x_1"
  top: "gate_input_1"
  eltwise_param {
    operation: SUM
  }
}
layer {
  name: "lstm1_unit_1"
  type: "LSTMUnit"
  bottom: "c_0"
  bottom: "gate_input_1"
  bottom: "cont_1"
  top: "c_1"
  top: "h_1"
}
layer {
  name: "lstm1_h_conted_1"
  type: "Scale"
  bottom: "h_1"
  bottom: "cont_2"
  top: "h_conted_1"
  scale_param {
    axis: 0
  }
}
layer {
  name: "lstm1_transform_2"
  type: "InnerProduct"
  bottom: "h_conted_1"
  top: "W_hc_h_1"
  param {
    name: "W_hc"
  }
  inner_product_param {
    num_output: 2048
    bias_term: false
    weight_filler {
      type: "uniform"
      min: -0.01
      max: 0.01
    }
    axis: 2
  }
}
layer {
  name: "lstm1_gate_input_2"
  type: "Eltwise"
  bottom: "W_hc_h_1"
  bottom: "W_xc_x_2"
  top: "gate_input_2"
  eltwise_param {
    operation: SUM
  }
}
layer {
  name: "lstm1_unit_2"
  type: "LSTMUnit"
  bottom: "c_1"
  bottom: "gate_input_2"
  bottom: "cont_2"
  top: "c_2"
  top: "h_2"
}
layer {
  name: "lstm1_h_conted_2"
  type: "Scale"
  bottom: "h_2"
  bottom: "cont_3"
  top: "h_conted_2"
  scale_param {
    axis: 0
  }
}
layer {
  name: "lstm1_transform_3"
  type: "InnerProduct"
  bottom: "h_conted_2"
  top: "W_hc_h_2"
  param {
    name: "W_hc"
  }
  inner_product_param {
    num_output: 2048
    bias_term: false
    weight_filler {
      type: "uniform"
      min: -0.01
      max: 0.01
    }
    axis: 2
  }
}
layer {
  name: "lstm1_gate_input_3"
  type: "Eltwise"
  bottom: "W_hc_h_2"
  bottom: "W_xc_x_3"
  top: "gate_input_3"
  eltwise_param {
    operation: SUM
  }
}
layer {
  name: "lstm1_unit_3"
  type: "LSTMUnit"
  bottom: "c_2"
  bottom: "gate_input_3"
  bottom: "cont_3"
  top: "c_3"
  top: "h_3"
}
layer {
  name: "lstm1_h_conted_3"
  type: "Scale"
  bottom: "h_3"
  bottom: "cont_4"
  top: "h_conted_3"
  scale_param {
    axis: 0
  }
}
layer {
  name: "lstm1_transform_4"
  type: "InnerProduct"
  bottom: "h_conted_3"
  top: "W_hc_h_3"
  param {
    name: "W_hc"
  }
  inner_product_param {
    num_output: 2048
    bias_term: false
    weight_filler {
      type: "uniform"
      min: -0.01
      max: 0.01
    }
    axis: 2
  }
}
layer {
  name: "lstm1_gate_input_4"
  type: "Eltwise"
  bottom: "W_hc_h_3"
  bottom: "W_xc_x_4"
  top: "gate_input_4"
  eltwise_param {
    operation: SUM
  }
}
layer {
  name: "lstm1_unit_4"
  type: "LSTMUnit"
  bottom: "c_3"
  bottom: "gate_input_4"
  bottom: "cont_4"
  top: "c_4"
  top: "h_4"
}
layer {
  name: "lstm1_h_conted_4"
  type: "Scale"
  bottom: "h_4"
  bottom: "cont_5"
  top: "h_conted_4"
  scale_param {
    axis: 0
  }
}
layer {
  name: "lstm1_transform_5"
  type: "InnerProduct"
  bottom: "h_conted_4"
  top: "W_hc_h_4"
  param {
    name: "W_hc"
  }
  inner_product_param {
    num_output: 2048
    bias_term: false
    weight_filler {
      type: "uniform"
      min: -0.01
      max: 0.01
    }
    axis: 2
  }
}
layer {
  name: "lstm1_gate_input_5"
  type: "Eltwise"
  bottom: "W_hc_h_4"
  bottom: "W_xc_x_5"
  top: "gate_input_5"
  eltwise_param {
    operation: SUM
  }
}
layer {
  name: "lstm1_unit_5"
  type: "LSTMUnit"
  bottom: "c_4"
  bottom: "gate_input_5"
  bottom: "cont_5"
  top: "c_5"
  top: "h_5"
}
layer {
  name: "lstm1_h_conted_5"
  type: "Scale"
  bottom: "h_5"
  bottom: "cont_6"
  top: "h_conted_5"
  scale_param {
    axis: 0
  }
}
layer {
  name: "lstm1_transform_6"
  type: "InnerProduct"
  bottom: "h_conted_5"
  top: "W_hc_h_5"
  param {
    name: "W_hc"
  }
  inner_product_param {
    num_output: 2048
    bias_term: false
    weight_filler {
      type: "uniform"
      min: -0.01
      max: 0.01
    }
    axis: 2
  }
}
layer {
  name: "lstm1_gate_input_6"
  type: "Eltwise"
  bottom: "W_hc_h_5"
  bottom: "W_xc_x_6"
  top: "gate_input_6"
  eltwise_param {
    operation: SUM
  }
}
layer {
  name: "lstm1_unit_6"
  type: "LSTMUnit"
  bottom: "c_5"
  bottom: "gate_input_6"
  bottom: "cont_6"
  top: "c_6"
  top: "h_6"
}
layer {
  name: "lstm1_h_conted_6"
  type: "Scale"
  bottom: "h_6"
  bottom: "cont_7"
  top: "h_conted_6"
  scale_param {
    axis: 0
  }
}
layer {
  name: "lstm1_transform_7"
  type: "InnerProduct"
  bottom: "h_conted_6"
  top: "W_hc_h_6"
  param {
    name: "W_hc"
  }
  inner_product_param {
    num_output: 2048
    bias_term: false
    weight_filler {
      type: "uniform"
      min: -0.01
      max: 0.01
    }
    axis: 2
  }
}
layer {
  name: "lstm1_gate_input_7"
  type: "Eltwise"
  bottom: "W_hc_h_6"
  bottom: "W_xc_x_7"
  top: "gate_input_7"
  eltwise_param {
    operation: SUM
  }
}
layer {
  name: "lstm1_unit_7"
  type: "LSTMUnit"
  bottom: "c_6"
  bottom: "gate_input_7"
  bottom: "cont_7"
  top: "c_7"
  top: "h_7"
}
layer {
  name: "lstm1_h_conted_7"
  type: "Scale"
  bottom: "h_7"
  bottom: "cont_8"
  top: "h_conted_7"
  scale_param {
    axis: 0
  }
}
layer {
  name: "lstm1_transform_8"
  type: "InnerProduct"
  bottom: "h_conted_7"
  top: "W_hc_h_7"
  param {
    name: "W_hc"
  }
  inner_product_param {
    num_output: 2048
    bias_term: false
    weight_filler {
      type: "uniform"
      min: -0.01
      max: 0.01
    }
    axis: 2
  }
}
layer {
  name: "lstm1_gate_input_8"
  type: "Eltwise"
  bottom: "W_hc_h_7"
  bottom: "W_xc_x_8"
  top: "gate_input_8"
  eltwise_param {
    operation: SUM
  }
}
layer {
  name: "lstm1_unit_8"
  type: "LSTMUnit"
  bottom: "c_7"
  bottom: "gate_input_8"
  bottom: "cont_8"
  top: "c_8"
  top: "h_8"
}
layer {
  name: "lstm1_"
  type: "Split"
  bottom: "c_8"
  top: "c_T"
}
layer {
  name: "lstm1_h_concat"
  type: "Concat"
  bottom: "h_1"
  bottom: "h_2"
  bottom: "h_3"
  bottom: "h_4"
  bottom: "h_5"
  bottom: "h_6"
  bottom: "h_7"
  bottom: "h_8"
  top: "h"
  concat_param {
    axis: 0
  }
}
layer {
  name: "h_pseudoloss"
  type: "Reduction"
  bottom: "h"
  top: "h_pseudoloss"
  loss_weight: 1
}
I1017 12:06:16.546161 26788 layer_factory.hpp:77] Creating layer lstm1_
I1017 12:06:16.546175 26788 net.cpp:84] Creating Layer lstm1_
I1017 12:06:16.546180 26788 net.cpp:380] lstm1_ -> x
I1017 12:06:16.546191 26788 net.cpp:380] lstm1_ -> cont
I1017 12:06:16.546250 26788 net.cpp:122] Setting up lstm1_
I1017 12:06:16.546259 26788 net.cpp:129] Top shape: 8 50 9 (3600)
I1017 12:06:16.546264 26788 net.cpp:129] Top shape: 8 50 (400)
I1017 12:06:16.546268 26788 net.cpp:137] Memory required for data: 16000
I1017 12:06:16.546273 26788 layer_factory.hpp:77] Creating layer lstm1_
I1017 12:06:16.546280 26788 net.cpp:84] Creating Layer lstm1_
I1017 12:06:16.546285 26788 net.cpp:380] lstm1_ -> c_0
I1017 12:06:16.546294 26788 net.cpp:380] lstm1_ -> h_0
I1017 12:06:16.546339 26788 net.cpp:122] Setting up lstm1_
I1017 12:06:16.546347 26788 net.cpp:129] Top shape: 1 50 512 (25600)
I1017 12:06:16.546352 26788 net.cpp:129] Top shape: 1 50 512 (25600)
I1017 12:06:16.546356 26788 net.cpp:137] Memory required for data: 220800
I1017 12:06:16.546360 26788 layer_factory.hpp:77] Creating layer lstm1_cont_slice
I1017 12:06:16.546367 26788 net.cpp:84] Creating Layer lstm1_cont_slice
I1017 12:06:16.546372 26788 net.cpp:406] lstm1_cont_slice <- cont
I1017 12:06:16.546380 26788 net.cpp:380] lstm1_cont_slice -> cont_1
I1017 12:06:16.546388 26788 net.cpp:380] lstm1_cont_slice -> cont_2
I1017 12:06:16.546398 26788 net.cpp:380] lstm1_cont_slice -> cont_3
I1017 12:06:16.546406 26788 net.cpp:380] lstm1_cont_slice -> cont_4
I1017 12:06:16.546412 26788 net.cpp:380] lstm1_cont_slice -> cont_5
I1017 12:06:16.546419 26788 net.cpp:380] lstm1_cont_slice -> cont_6
I1017 12:06:16.546425 26788 net.cpp:380] lstm1_cont_slice -> cont_7
I1017 12:06:16.546430 26788 net.cpp:380] lstm1_cont_slice -> cont_8
I1017 12:06:16.546546 26788 net.cpp:122] Setting up lstm1_cont_slice
I1017 12:06:16.546555 26788 net.cpp:129] Top shape: 1 50 (50)
I1017 12:06:16.546560 26788 net.cpp:129] Top shape: 1 50 (50)
I1017 12:06:16.546564 26788 net.cpp:129] Top shape: 1 50 (50)
I1017 12:06:16.546568 26788 net.cpp:129] Top shape: 1 50 (50)
I1017 12:06:16.546573 26788 net.cpp:129] Top shape: 1 50 (50)
I1017 12:06:16.546577 26788 net.cpp:129] Top shape: 1 50 (50)
I1017 12:06:16.546582 26788 net.cpp:129] Top shape: 1 50 (50)
I1017 12:06:16.546586 26788 net.cpp:129] Top shape: 1 50 (50)
I1017 12:06:16.546591 26788 net.cpp:137] Memory required for data: 222400
I1017 12:06:16.546594 26788 layer_factory.hpp:77] Creating layer cont_1_lstm1_cont_slice_0_split
I1017 12:06:16.546602 26788 net.cpp:84] Creating Layer cont_1_lstm1_cont_slice_0_split
I1017 12:06:16.546607 26788 net.cpp:406] cont_1_lstm1_cont_slice_0_split <- cont_1
I1017 12:06:16.546613 26788 net.cpp:380] cont_1_lstm1_cont_slice_0_split -> cont_1_lstm1_cont_slice_0_split_0
I1017 12:06:16.546620 26788 net.cpp:380] cont_1_lstm1_cont_slice_0_split -> cont_1_lstm1_cont_slice_0_split_1
I1017 12:06:16.546658 26788 net.cpp:122] Setting up cont_1_lstm1_cont_slice_0_split
I1017 12:06:16.546665 26788 net.cpp:129] Top shape: 1 50 (50)
I1017 12:06:16.546670 26788 net.cpp:129] Top shape: 1 50 (50)
I1017 12:06:16.546674 26788 net.cpp:137] Memory required for data: 222800
I1017 12:06:16.546679 26788 layer_factory.hpp:77] Creating layer cont_2_lstm1_cont_slice_1_split
I1017 12:06:16.546684 26788 net.cpp:84] Creating Layer cont_2_lstm1_cont_slice_1_split
I1017 12:06:16.546689 26788 net.cpp:406] cont_2_lstm1_cont_slice_1_split <- cont_2
I1017 12:06:16.546694 26788 net.cpp:380] cont_2_lstm1_cont_slice_1_split -> cont_2_lstm1_cont_slice_1_split_0
I1017 12:06:16.546702 26788 net.cpp:380] cont_2_lstm1_cont_slice_1_split -> cont_2_lstm1_cont_slice_1_split_1
I1017 12:06:16.546736 26788 net.cpp:122] Setting up cont_2_lstm1_cont_slice_1_split
I1017 12:06:16.546743 26788 net.cpp:129] Top shape: 1 50 (50)
I1017 12:06:16.546748 26788 net.cpp:129] Top shape: 1 50 (50)
I1017 12:06:16.546751 26788 net.cpp:137] Memory required for data: 223200
I1017 12:06:16.546756 26788 layer_factory.hpp:77] Creating layer cont_3_lstm1_cont_slice_2_split
I1017 12:06:16.546762 26788 net.cpp:84] Creating Layer cont_3_lstm1_cont_slice_2_split
I1017 12:06:16.546767 26788 net.cpp:406] cont_3_lstm1_cont_slice_2_split <- cont_3
I1017 12:06:16.546773 26788 net.cpp:380] cont_3_lstm1_cont_slice_2_split -> cont_3_lstm1_cont_slice_2_split_0
I1017 12:06:16.546782 26788 net.cpp:380] cont_3_lstm1_cont_slice_2_split -> cont_3_lstm1_cont_slice_2_split_1
I1017 12:06:16.546814 26788 net.cpp:122] Setting up cont_3_lstm1_cont_slice_2_split
I1017 12:06:16.546821 26788 net.cpp:129] Top shape: 1 50 (50)
I1017 12:06:16.546826 26788 net.cpp:129] Top shape: 1 50 (50)
I1017 12:06:16.546830 26788 net.cpp:137] Memory required for data: 223600
I1017 12:06:16.546834 26788 layer_factory.hpp:77] Creating layer cont_4_lstm1_cont_slice_3_split
I1017 12:06:16.546839 26788 net.cpp:84] Creating Layer cont_4_lstm1_cont_slice_3_split
I1017 12:06:16.546844 26788 net.cpp:406] cont_4_lstm1_cont_slice_3_split <- cont_4
I1017 12:06:16.546851 26788 net.cpp:380] cont_4_lstm1_cont_slice_3_split -> cont_4_lstm1_cont_slice_3_split_0
I1017 12:06:16.546857 26788 net.cpp:380] cont_4_lstm1_cont_slice_3_split -> cont_4_lstm1_cont_slice_3_split_1
I1017 12:06:16.546891 26788 net.cpp:122] Setting up cont_4_lstm1_cont_slice_3_split
I1017 12:06:16.546898 26788 net.cpp:129] Top shape: 1 50 (50)
I1017 12:06:16.546903 26788 net.cpp:129] Top shape: 1 50 (50)
I1017 12:06:16.546907 26788 net.cpp:137] Memory required for data: 224000
I1017 12:06:16.546911 26788 layer_factory.hpp:77] Creating layer cont_5_lstm1_cont_slice_4_split
I1017 12:06:16.546916 26788 net.cpp:84] Creating Layer cont_5_lstm1_cont_slice_4_split
I1017 12:06:16.546921 26788 net.cpp:406] cont_5_lstm1_cont_slice_4_split <- cont_5
I1017 12:06:16.546926 26788 net.cpp:380] cont_5_lstm1_cont_slice_4_split -> cont_5_lstm1_cont_slice_4_split_0
I1017 12:06:16.546932 26788 net.cpp:380] cont_5_lstm1_cont_slice_4_split -> cont_5_lstm1_cont_slice_4_split_1
I1017 12:06:16.546967 26788 net.cpp:122] Setting up cont_5_lstm1_cont_slice_4_split
I1017 12:06:16.546974 26788 net.cpp:129] Top shape: 1 50 (50)
I1017 12:06:16.546979 26788 net.cpp:129] Top shape: 1 50 (50)
I1017 12:06:16.546983 26788 net.cpp:137] Memory required for data: 224400
I1017 12:06:16.546986 26788 layer_factory.hpp:77] Creating layer cont_6_lstm1_cont_slice_5_split
I1017 12:06:16.546994 26788 net.cpp:84] Creating Layer cont_6_lstm1_cont_slice_5_split
I1017 12:06:16.546999 26788 net.cpp:406] cont_6_lstm1_cont_slice_5_split <- cont_6
I1017 12:06:16.547005 26788 net.cpp:380] cont_6_lstm1_cont_slice_5_split -> cont_6_lstm1_cont_slice_5_split_0
I1017 12:06:16.547011 26788 net.cpp:380] cont_6_lstm1_cont_slice_5_split -> cont_6_lstm1_cont_slice_5_split_1
I1017 12:06:16.547044 26788 net.cpp:122] Setting up cont_6_lstm1_cont_slice_5_split
I1017 12:06:16.547050 26788 net.cpp:129] Top shape: 1 50 (50)
I1017 12:06:16.547055 26788 net.cpp:129] Top shape: 1 50 (50)
I1017 12:06:16.547060 26788 net.cpp:137] Memory required for data: 224800
I1017 12:06:16.547062 26788 layer_factory.hpp:77] Creating layer cont_7_lstm1_cont_slice_6_split
I1017 12:06:16.547067 26788 net.cpp:84] Creating Layer cont_7_lstm1_cont_slice_6_split
I1017 12:06:16.547071 26788 net.cpp:406] cont_7_lstm1_cont_slice_6_split <- cont_7
I1017 12:06:16.547077 26788 net.cpp:380] cont_7_lstm1_cont_slice_6_split -> cont_7_lstm1_cont_slice_6_split_0
I1017 12:06:16.547085 26788 net.cpp:380] cont_7_lstm1_cont_slice_6_split -> cont_7_lstm1_cont_slice_6_split_1
I1017 12:06:16.547116 26788 net.cpp:122] Setting up cont_7_lstm1_cont_slice_6_split
I1017 12:06:16.547122 26788 net.cpp:129] Top shape: 1 50 (50)
I1017 12:06:16.547127 26788 net.cpp:129] Top shape: 1 50 (50)
I1017 12:06:16.547132 26788 net.cpp:137] Memory required for data: 225200
I1017 12:06:16.547135 26788 layer_factory.hpp:77] Creating layer cont_8_lstm1_cont_slice_7_split
I1017 12:06:16.547140 26788 net.cpp:84] Creating Layer cont_8_lstm1_cont_slice_7_split
I1017 12:06:16.547144 26788 net.cpp:406] cont_8_lstm1_cont_slice_7_split <- cont_8
I1017 12:06:16.547149 26788 net.cpp:380] cont_8_lstm1_cont_slice_7_split -> cont_8_lstm1_cont_slice_7_split_0
I1017 12:06:16.547158 26788 net.cpp:380] cont_8_lstm1_cont_slice_7_split -> cont_8_lstm1_cont_slice_7_split_1
I1017 12:06:16.547189 26788 net.cpp:122] Setting up cont_8_lstm1_cont_slice_7_split
I1017 12:06:16.547195 26788 net.cpp:129] Top shape: 1 50 (50)
I1017 12:06:16.547200 26788 net.cpp:129] Top shape: 1 50 (50)
I1017 12:06:16.547204 26788 net.cpp:137] Memory required for data: 225600
I1017 12:06:16.547209 26788 layer_factory.hpp:77] Creating layer lstm1_x_transform
I1017 12:06:16.547215 26788 net.cpp:84] Creating Layer lstm1_x_transform
I1017 12:06:16.547220 26788 net.cpp:406] lstm1_x_transform <- x
I1017 12:06:16.547228 26788 net.cpp:380] lstm1_x_transform -> W_xc_x
I1017 12:06:16.547554 26788 net.cpp:122] Setting up lstm1_x_transform
I1017 12:06:16.547562 26788 net.cpp:129] Top shape: 8 50 2048 (819200)
I1017 12:06:16.547566 26788 net.cpp:137] Memory required for data: 3502400
I1017 12:06:16.547576 26788 layer_factory.hpp:77] Creating layer lstm1_W_xc_x_slice
I1017 12:06:16.547585 26788 net.cpp:84] Creating Layer lstm1_W_xc_x_slice
I1017 12:06:16.547590 26788 net.cpp:406] lstm1_W_xc_x_slice <- W_xc_x
I1017 12:06:16.547596 26788 net.cpp:380] lstm1_W_xc_x_slice -> W_xc_x_1
I1017 12:06:16.547605 26788 net.cpp:380] lstm1_W_xc_x_slice -> W_xc_x_2
I1017 12:06:16.547611 26788 net.cpp:380] lstm1_W_xc_x_slice -> W_xc_x_3
I1017 12:06:16.547618 26788 net.cpp:380] lstm1_W_xc_x_slice -> W_xc_x_4
I1017 12:06:16.547628 26788 net.cpp:380] lstm1_W_xc_x_slice -> W_xc_x_5
I1017 12:06:16.547636 26788 net.cpp:380] lstm1_W_xc_x_slice -> W_xc_x_6
I1017 12:06:16.547642 26788 net.cpp:380] lstm1_W_xc_x_slice -> W_xc_x_7
I1017 12:06:16.547649 26788 net.cpp:380] lstm1_W_xc_x_slice -> W_xc_x_8
I1017 12:06:16.547752 26788 net.cpp:122] Setting up lstm1_W_xc_x_slice
I1017 12:06:16.547760 26788 net.cpp:129] Top shape: 1 50 2048 (102400)
I1017 12:06:16.547765 26788 net.cpp:129] Top shape: 1 50 2048 (102400)
I1017 12:06:16.547770 26788 net.cpp:129] Top shape: 1 50 2048 (102400)
I1017 12:06:16.547775 26788 net.cpp:129] Top shape: 1 50 2048 (102400)
I1017 12:06:16.547780 26788 net.cpp:129] Top shape: 1 50 2048 (102400)
I1017 12:06:16.547785 26788 net.cpp:129] Top shape: 1 50 2048 (102400)
I1017 12:06:16.547790 26788 net.cpp:129] Top shape: 1 50 2048 (102400)
I1017 12:06:16.547793 26788 net.cpp:129] Top shape: 1 50 2048 (102400)
I1017 12:06:16.547797 26788 net.cpp:137] Memory required for data: 6779200
I1017 12:06:16.547801 26788 layer_factory.hpp:77] Creating layer lstm1_h_conted_0
I1017 12:06:16.547808 26788 net.cpp:84] Creating Layer lstm1_h_conted_0
I1017 12:06:16.547813 26788 net.cpp:406] lstm1_h_conted_0 <- h_0
I1017 12:06:16.547819 26788 net.cpp:406] lstm1_h_conted_0 <- cont_1_lstm1_cont_slice_0_split_0
I1017 12:06:16.547827 26788 net.cpp:380] lstm1_h_conted_0 -> h_conted_0
I1017 12:06:16.547899 26788 net.cpp:122] Setting up lstm1_h_conted_0
I1017 12:06:16.547907 26788 net.cpp:129] Top shape: 1 50 512 (25600)
I1017 12:06:16.547911 26788 net.cpp:137] Memory required for data: 6881600
I1017 12:06:16.547915 26788 layer_factory.hpp:77] Creating layer lstm1_transform_1
I1017 12:06:16.547924 26788 net.cpp:84] Creating Layer lstm1_transform_1
I1017 12:06:16.547929 26788 net.cpp:406] lstm1_transform_1 <- h_conted_0
I1017 12:06:16.547935 26788 net.cpp:380] lstm1_transform_1 -> W_hc_h_0
I1017 12:06:16.559643 26788 net.cpp:122] Setting up lstm1_transform_1
I1017 12:06:16.559679 26788 net.cpp:129] Top shape: 1 50 2048 (102400)
I1017 12:06:16.559684 26788 net.cpp:137] Memory required for data: 7291200
I1017 12:06:16.559697 26788 layer_factory.hpp:77] Creating layer lstm1_gate_input_1
I1017 12:06:16.559715 26788 net.cpp:84] Creating Layer lstm1_gate_input_1
I1017 12:06:16.559720 26788 net.cpp:406] lstm1_gate_input_1 <- W_hc_h_0
I1017 12:06:16.559726 26788 net.cpp:406] lstm1_gate_input_1 <- W_xc_x_1
I1017 12:06:16.559736 26788 net.cpp:380] lstm1_gate_input_1 -> gate_input_1
I1017 12:06:16.559772 26788 net.cpp:122] Setting up lstm1_gate_input_1
I1017 12:06:16.559780 26788 net.cpp:129] Top shape: 1 50 2048 (102400)
I1017 12:06:16.559785 26788 net.cpp:137] Memory required for data: 7700800
I1017 12:06:16.559789 26788 layer_factory.hpp:77] Creating layer lstm1_unit_1
I1017 12:06:16.559803 26788 net.cpp:84] Creating Layer lstm1_unit_1
I1017 12:06:16.559808 26788 net.cpp:406] lstm1_unit_1 <- c_0
I1017 12:06:16.559813 26788 net.cpp:406] lstm1_unit_1 <- gate_input_1
I1017 12:06:16.559819 26788 net.cpp:406] lstm1_unit_1 <- cont_1_lstm1_cont_slice_0_split_1
I1017 12:06:16.559825 26788 net.cpp:380] lstm1_unit_1 -> c_1
I1017 12:06:16.559834 26788 net.cpp:380] lstm1_unit_1 -> h_1
I1017 12:06:16.559885 26788 net.cpp:122] Setting up lstm1_unit_1
I1017 12:06:16.559893 26788 net.cpp:129] Top shape: 1 50 512 (25600)
I1017 12:06:16.559898 26788 net.cpp:129] Top shape: 1 50 512 (25600)
I1017 12:06:16.559902 26788 net.cpp:137] Memory required for data: 7905600
I1017 12:06:16.559907 26788 layer_factory.hpp:77] Creating layer h_1_lstm1_unit_1_1_split
I1017 12:06:16.559913 26788 net.cpp:84] Creating Layer h_1_lstm1_unit_1_1_split
I1017 12:06:16.559918 26788 net.cpp:406] h_1_lstm1_unit_1_1_split <- h_1
I1017 12:06:16.559926 26788 net.cpp:380] h_1_lstm1_unit_1_1_split -> h_1_lstm1_unit_1_1_split_0
I1017 12:06:16.559933 26788 net.cpp:380] h_1_lstm1_unit_1_1_split -> h_1_lstm1_unit_1_1_split_1
I1017 12:06:16.559968 26788 net.cpp:122] Setting up h_1_lstm1_unit_1_1_split
I1017 12:06:16.559978 26788 net.cpp:129] Top shape: 1 50 512 (25600)
I1017 12:06:16.559983 26788 net.cpp:129] Top shape: 1 50 512 (25600)
I1017 12:06:16.559986 26788 net.cpp:137] Memory required for data: 8110400
I1017 12:06:16.559990 26788 layer_factory.hpp:77] Creating layer lstm1_h_conted_1
I1017 12:06:16.560001 26788 net.cpp:84] Creating Layer lstm1_h_conted_1
I1017 12:06:16.560005 26788 net.cpp:406] lstm1_h_conted_1 <- h_1_lstm1_unit_1_1_split_0
I1017 12:06:16.560011 26788 net.cpp:406] lstm1_h_conted_1 <- cont_2_lstm1_cont_slice_1_split_0
I1017 12:06:16.560019 26788 net.cpp:380] lstm1_h_conted_1 -> h_conted_1
I1017 12:06:16.560096 26788 net.cpp:122] Setting up lstm1_h_conted_1
I1017 12:06:16.560106 26788 net.cpp:129] Top shape: 1 50 512 (25600)
I1017 12:06:16.560111 26788 net.cpp:137] Memory required for data: 8212800
I1017 12:06:16.560114 26788 layer_factory.hpp:77] Creating layer lstm1_transform_2
I1017 12:06:16.560125 26788 net.cpp:84] Creating Layer lstm1_transform_2
I1017 12:06:16.560130 26788 net.cpp:406] lstm1_transform_2 <- h_conted_1
I1017 12:06:16.560137 26788 net.cpp:380] lstm1_transform_2 -> W_hc_h_1
I1017 12:06:16.572010 26788 net.cpp:122] Setting up lstm1_transform_2
I1017 12:06:16.572052 26788 net.cpp:129] Top shape: 1 50 2048 (102400)
I1017 12:06:16.572058 26788 net.cpp:137] Memory required for data: 8622400
I1017 12:06:16.572064 26788 net.cpp:465] Sharing parameters 'W_hc' owned by layer 'lstm1_transform_1', param index 0
I1017 12:06:16.572070 26788 layer_factory.hpp:77] Creating layer lstm1_gate_input_2
I1017 12:06:16.572080 26788 net.cpp:84] Creating Layer lstm1_gate_input_2
I1017 12:06:16.572087 26788 net.cpp:406] lstm1_gate_input_2 <- W_hc_h_1
I1017 12:06:16.572093 26788 net.cpp:406] lstm1_gate_input_2 <- W_xc_x_2
I1017 12:06:16.572098 26788 net.cpp:380] lstm1_gate_input_2 -> gate_input_2
I1017 12:06:16.572130 26788 net.cpp:122] Setting up lstm1_gate_input_2
I1017 12:06:16.572139 26788 net.cpp:129] Top shape: 1 50 2048 (102400)
I1017 12:06:16.572142 26788 net.cpp:137] Memory required for data: 9032000
I1017 12:06:16.572146 26788 layer_factory.hpp:77] Creating layer lstm1_unit_2
I1017 12:06:16.572154 26788 net.cpp:84] Creating Layer lstm1_unit_2
I1017 12:06:16.572158 26788 net.cpp:406] lstm1_unit_2 <- c_1
I1017 12:06:16.572165 26788 net.cpp:406] lstm1_unit_2 <- gate_input_2
I1017 12:06:16.572171 26788 net.cpp:406] lstm1_unit_2 <- cont_2_lstm1_cont_slice_1_split_1
I1017 12:06:16.572177 26788 net.cpp:380] lstm1_unit_2 -> c_2
I1017 12:06:16.572185 26788 net.cpp:380] lstm1_unit_2 -> h_2
I1017 12:06:16.572237 26788 net.cpp:122] Setting up lstm1_unit_2
I1017 12:06:16.572245 26788 net.cpp:129] Top shape: 1 50 512 (25600)
I1017 12:06:16.572250 26788 net.cpp:129] Top shape: 1 50 512 (25600)
I1017 12:06:16.572254 26788 net.cpp:137] Memory required for data: 9236800
I1017 12:06:16.572258 26788 layer_factory.hpp:77] Creating layer h_2_lstm1_unit_2_1_split
I1017 12:06:16.572264 26788 net.cpp:84] Creating Layer h_2_lstm1_unit_2_1_split
I1017 12:06:16.572268 26788 net.cpp:406] h_2_lstm1_unit_2_1_split <- h_2
I1017 12:06:16.572274 26788 net.cpp:380] h_2_lstm1_unit_2_1_split -> h_2_lstm1_unit_2_1_split_0
I1017 12:06:16.572283 26788 net.cpp:380] h_2_lstm1_unit_2_1_split -> h_2_lstm1_unit_2_1_split_1
I1017 12:06:16.572317 26788 net.cpp:122] Setting up h_2_lstm1_unit_2_1_split
I1017 12:06:16.572324 26788 net.cpp:129] Top shape: 1 50 512 (25600)
I1017 12:06:16.572329 26788 net.cpp:129] Top shape: 1 50 512 (25600)
I1017 12:06:16.572333 26788 net.cpp:137] Memory required for data: 9441600
I1017 12:06:16.572337 26788 layer_factory.hpp:77] Creating layer lstm1_h_conted_2
I1017 12:06:16.572347 26788 net.cpp:84] Creating Layer lstm1_h_conted_2
I1017 12:06:16.572352 26788 net.cpp:406] lstm1_h_conted_2 <- h_2_lstm1_unit_2_1_split_0
I1017 12:06:16.572358 26788 net.cpp:406] lstm1_h_conted_2 <- cont_3_lstm1_cont_slice_2_split_0
I1017 12:06:16.572363 26788 net.cpp:380] lstm1_h_conted_2 -> h_conted_2
I1017 12:06:16.572427 26788 net.cpp:122] Setting up lstm1_h_conted_2
I1017 12:06:16.572433 26788 net.cpp:129] Top shape: 1 50 512 (25600)
I1017 12:06:16.572438 26788 net.cpp:137] Memory required for data: 9544000
I1017 12:06:16.572441 26788 layer_factory.hpp:77] Creating layer lstm1_transform_3
I1017 12:06:16.572451 26788 net.cpp:84] Creating Layer lstm1_transform_3
I1017 12:06:16.572456 26788 net.cpp:406] lstm1_transform_3 <- h_conted_2
I1017 12:06:16.572463 26788 net.cpp:380] lstm1_transform_3 -> W_hc_h_2
I1017 12:06:16.584091 26788 net.cpp:122] Setting up lstm1_transform_3
I1017 12:06:16.584116 26788 net.cpp:129] Top shape: 1 50 2048 (102400)
I1017 12:06:16.584121 26788 net.cpp:137] Memory required for data: 9953600
I1017 12:06:16.584130 26788 net.cpp:465] Sharing parameters 'W_hc' owned by layer 'lstm1_transform_1', param index 0
I1017 12:06:16.584134 26788 layer_factory.hpp:77] Creating layer lstm1_gate_input_3
I1017 12:06:16.584144 26788 net.cpp:84] Creating Layer lstm1_gate_input_3
I1017 12:06:16.584149 26788 net.cpp:406] lstm1_gate_input_3 <- W_hc_h_2
I1017 12:06:16.584156 26788 net.cpp:406] lstm1_gate_input_3 <- W_xc_x_3
I1017 12:06:16.584162 26788 net.cpp:380] lstm1_gate_input_3 -> gate_input_3
I1017 12:06:16.584192 26788 net.cpp:122] Setting up lstm1_gate_input_3
I1017 12:06:16.584199 26788 net.cpp:129] Top shape: 1 50 2048 (102400)
I1017 12:06:16.584203 26788 net.cpp:137] Memory required for data: 10363200
I1017 12:06:16.584208 26788 layer_factory.hpp:77] Creating layer lstm1_unit_3
I1017 12:06:16.584213 26788 net.cpp:84] Creating Layer lstm1_unit_3
I1017 12:06:16.584218 26788 net.cpp:406] lstm1_unit_3 <- c_2
I1017 12:06:16.584223 26788 net.cpp:406] lstm1_unit_3 <- gate_input_3
I1017 12:06:16.584229 26788 net.cpp:406] lstm1_unit_3 <- cont_3_lstm1_cont_slice_2_split_1
I1017 12:06:16.584237 26788 net.cpp:380] lstm1_unit_3 -> c_3
I1017 12:06:16.584244 26788 net.cpp:380] lstm1_unit_3 -> h_3
I1017 12:06:16.584291 26788 net.cpp:122] Setting up lstm1_unit_3
I1017 12:06:16.584298 26788 net.cpp:129] Top shape: 1 50 512 (25600)
I1017 12:06:16.584303 26788 net.cpp:129] Top shape: 1 50 512 (25600)
I1017 12:06:16.584307 26788 net.cpp:137] Memory required for data: 10568000
I1017 12:06:16.584311 26788 layer_factory.hpp:77] Creating layer h_3_lstm1_unit_3_1_split
I1017 12:06:16.584317 26788 net.cpp:84] Creating Layer h_3_lstm1_unit_3_1_split
I1017 12:06:16.584321 26788 net.cpp:406] h_3_lstm1_unit_3_1_split <- h_3
I1017 12:06:16.584327 26788 net.cpp:380] h_3_lstm1_unit_3_1_split -> h_3_lstm1_unit_3_1_split_0
I1017 12:06:16.584334 26788 net.cpp:380] h_3_lstm1_unit_3_1_split -> h_3_lstm1_unit_3_1_split_1
I1017 12:06:16.584368 26788 net.cpp:122] Setting up h_3_lstm1_unit_3_1_split
I1017 12:06:16.584375 26788 net.cpp:129] Top shape: 1 50 512 (25600)
I1017 12:06:16.584380 26788 net.cpp:129] Top shape: 1 50 512 (25600)
I1017 12:06:16.584384 26788 net.cpp:137] Memory required for data: 10772800
I1017 12:06:16.584388 26788 layer_factory.hpp:77] Creating layer lstm1_h_conted_3
I1017 12:06:16.584395 26788 net.cpp:84] Creating Layer lstm1_h_conted_3
I1017 12:06:16.584400 26788 net.cpp:406] lstm1_h_conted_3 <- h_3_lstm1_unit_3_1_split_0
I1017 12:06:16.584405 26788 net.cpp:406] lstm1_h_conted_3 <- cont_4_lstm1_cont_slice_3_split_0
I1017 12:06:16.584415 26788 net.cpp:380] lstm1_h_conted_3 -> h_conted_3
I1017 12:06:16.584476 26788 net.cpp:122] Setting up lstm1_h_conted_3
I1017 12:06:16.584483 26788 net.cpp:129] Top shape: 1 50 512 (25600)
I1017 12:06:16.584487 26788 net.cpp:137] Memory required for data: 10875200
I1017 12:06:16.584491 26788 layer_factory.hpp:77] Creating layer lstm1_transform_4
I1017 12:06:16.584498 26788 net.cpp:84] Creating Layer lstm1_transform_4
I1017 12:06:16.584503 26788 net.cpp:406] lstm1_transform_4 <- h_conted_3
I1017 12:06:16.584512 26788 net.cpp:380] lstm1_transform_4 -> W_hc_h_3
I1017 12:06:16.596134 26788 net.cpp:122] Setting up lstm1_transform_4
I1017 12:06:16.596150 26788 net.cpp:129] Top shape: 1 50 2048 (102400)
I1017 12:06:16.596166 26788 net.cpp:137] Memory required for data: 11284800
I1017 12:06:16.596171 26788 net.cpp:465] Sharing parameters 'W_hc' owned by layer 'lstm1_transform_1', param index 0
I1017 12:06:16.596176 26788 layer_factory.hpp:77] Creating layer lstm1_gate_input_4
I1017 12:06:16.596184 26788 net.cpp:84] Creating Layer lstm1_gate_input_4
I1017 12:06:16.596189 26788 net.cpp:406] lstm1_gate_input_4 <- W_hc_h_3
I1017 12:06:16.596195 26788 net.cpp:406] lstm1_gate_input_4 <- W_xc_x_4
I1017 12:06:16.596204 26788 net.cpp:380] lstm1_gate_input_4 -> gate_input_4
I1017 12:06:16.596232 26788 net.cpp:122] Setting up lstm1_gate_input_4
I1017 12:06:16.596240 26788 net.cpp:129] Top shape: 1 50 2048 (102400)
I1017 12:06:16.596243 26788 net.cpp:137] Memory required for data: 11694400
I1017 12:06:16.596247 26788 layer_factory.hpp:77] Creating layer lstm1_unit_4
I1017 12:06:16.596254 26788 net.cpp:84] Creating Layer lstm1_unit_4
I1017 12:06:16.596258 26788 net.cpp:406] lstm1_unit_4 <- c_3
I1017 12:06:16.596264 26788 net.cpp:406] lstm1_unit_4 <- gate_input_4
I1017 12:06:16.596269 26788 net.cpp:406] lstm1_unit_4 <- cont_4_lstm1_cont_slice_3_split_1
I1017 12:06:16.596276 26788 net.cpp:380] lstm1_unit_4 -> c_4
I1017 12:06:16.596284 26788 net.cpp:380] lstm1_unit_4 -> h_4
I1017 12:06:16.596333 26788 net.cpp:122] Setting up lstm1_unit_4
I1017 12:06:16.596339 26788 net.cpp:129] Top shape: 1 50 512 (25600)
I1017 12:06:16.596344 26788 net.cpp:129] Top shape: 1 50 512 (25600)
I1017 12:06:16.596349 26788 net.cpp:137] Memory required for data: 11899200
I1017 12:06:16.596352 26788 layer_factory.hpp:77] Creating layer h_4_lstm1_unit_4_1_split
I1017 12:06:16.596362 26788 net.cpp:84] Creating Layer h_4_lstm1_unit_4_1_split
I1017 12:06:16.596367 26788 net.cpp:406] h_4_lstm1_unit_4_1_split <- h_4
I1017 12:06:16.596374 26788 net.cpp:380] h_4_lstm1_unit_4_1_split -> h_4_lstm1_unit_4_1_split_0
I1017 12:06:16.596380 26788 net.cpp:380] h_4_lstm1_unit_4_1_split -> h_4_lstm1_unit_4_1_split_1
I1017 12:06:16.596423 26788 net.cpp:122] Setting up h_4_lstm1_unit_4_1_split
I1017 12:06:16.596431 26788 net.cpp:129] Top shape: 1 50 512 (25600)
I1017 12:06:16.596436 26788 net.cpp:129] Top shape: 1 50 512 (25600)
I1017 12:06:16.596441 26788 net.cpp:137] Memory required for data: 12104000
I1017 12:06:16.596444 26788 layer_factory.hpp:77] Creating layer lstm1_h_conted_4
I1017 12:06:16.596451 26788 net.cpp:84] Creating Layer lstm1_h_conted_4
I1017 12:06:16.596456 26788 net.cpp:406] lstm1_h_conted_4 <- h_4_lstm1_unit_4_1_split_0
I1017 12:06:16.596462 26788 net.cpp:406] lstm1_h_conted_4 <- cont_5_lstm1_cont_slice_4_split_0
I1017 12:06:16.596467 26788 net.cpp:380] lstm1_h_conted_4 -> h_conted_4
I1017 12:06:16.596529 26788 net.cpp:122] Setting up lstm1_h_conted_4
I1017 12:06:16.596535 26788 net.cpp:129] Top shape: 1 50 512 (25600)
I1017 12:06:16.596539 26788 net.cpp:137] Memory required for data: 12206400
I1017 12:06:16.596544 26788 layer_factory.hpp:77] Creating layer lstm1_transform_5
I1017 12:06:16.596551 26788 net.cpp:84] Creating Layer lstm1_transform_5
I1017 12:06:16.596555 26788 net.cpp:406] lstm1_transform_5 <- h_conted_4
I1017 12:06:16.596562 26788 net.cpp:380] lstm1_transform_5 -> W_hc_h_4
I1017 12:06:16.608243 26788 net.cpp:122] Setting up lstm1_transform_5
I1017 12:06:16.608260 26788 net.cpp:129] Top shape: 1 50 2048 (102400)
I1017 12:06:16.608278 26788 net.cpp:137] Memory required for data: 12616000
I1017 12:06:16.608283 26788 net.cpp:465] Sharing parameters 'W_hc' owned by layer 'lstm1_transform_1', param index 0
I1017 12:06:16.608288 26788 layer_factory.hpp:77] Creating layer lstm1_gate_input_5
I1017 12:06:16.608295 26788 net.cpp:84] Creating Layer lstm1_gate_input_5
I1017 12:06:16.608300 26788 net.cpp:406] lstm1_gate_input_5 <- W_hc_h_4
I1017 12:06:16.608306 26788 net.cpp:406] lstm1_gate_input_5 <- W_xc_x_5
I1017 12:06:16.608312 26788 net.cpp:380] lstm1_gate_input_5 -> gate_input_5
I1017 12:06:16.608342 26788 net.cpp:122] Setting up lstm1_gate_input_5
I1017 12:06:16.608350 26788 net.cpp:129] Top shape: 1 50 2048 (102400)
I1017 12:06:16.608353 26788 net.cpp:137] Memory required for data: 13025600
I1017 12:06:16.608357 26788 layer_factory.hpp:77] Creating layer lstm1_unit_5
I1017 12:06:16.608366 26788 net.cpp:84] Creating Layer lstm1_unit_5
I1017 12:06:16.608371 26788 net.cpp:406] lstm1_unit_5 <- c_4
I1017 12:06:16.608377 26788 net.cpp:406] lstm1_unit_5 <- gate_input_5
I1017 12:06:16.608382 26788 net.cpp:406] lstm1_unit_5 <- cont_5_lstm1_cont_slice_4_split_1
I1017 12:06:16.608388 26788 net.cpp:380] lstm1_unit_5 -> c_5
I1017 12:06:16.608395 26788 net.cpp:380] lstm1_unit_5 -> h_5
I1017 12:06:16.608444 26788 net.cpp:122] Setting up lstm1_unit_5
I1017 12:06:16.608453 26788 net.cpp:129] Top shape: 1 50 512 (25600)
I1017 12:06:16.608458 26788 net.cpp:129] Top shape: 1 50 512 (25600)
I1017 12:06:16.608461 26788 net.cpp:137] Memory required for data: 13230400
I1017 12:06:16.608465 26788 layer_factory.hpp:77] Creating layer h_5_lstm1_unit_5_1_split
I1017 12:06:16.608471 26788 net.cpp:84] Creating Layer h_5_lstm1_unit_5_1_split
I1017 12:06:16.608475 26788 net.cpp:406] h_5_lstm1_unit_5_1_split <- h_5
I1017 12:06:16.608484 26788 net.cpp:380] h_5_lstm1_unit_5_1_split -> h_5_lstm1_unit_5_1_split_0
I1017 12:06:16.608490 26788 net.cpp:380] h_5_lstm1_unit_5_1_split -> h_5_lstm1_unit_5_1_split_1
I1017 12:06:16.608525 26788 net.cpp:122] Setting up h_5_lstm1_unit_5_1_split
I1017 12:06:16.608530 26788 net.cpp:129] Top shape: 1 50 512 (25600)
I1017 12:06:16.608536 26788 net.cpp:129] Top shape: 1 50 512 (25600)
I1017 12:06:16.608539 26788 net.cpp:137] Memory required for data: 13435200
I1017 12:06:16.608543 26788 layer_factory.hpp:77] Creating layer lstm1_h_conted_5
I1017 12:06:16.608552 26788 net.cpp:84] Creating Layer lstm1_h_conted_5
I1017 12:06:16.608557 26788 net.cpp:406] lstm1_h_conted_5 <- h_5_lstm1_unit_5_1_split_0
I1017 12:06:16.608563 26788 net.cpp:406] lstm1_h_conted_5 <- cont_6_lstm1_cont_slice_5_split_0
I1017 12:06:16.608572 26788 net.cpp:380] lstm1_h_conted_5 -> h_conted_5
I1017 12:06:16.608631 26788 net.cpp:122] Setting up lstm1_h_conted_5
I1017 12:06:16.608639 26788 net.cpp:129] Top shape: 1 50 512 (25600)
I1017 12:06:16.608642 26788 net.cpp:137] Memory required for data: 13537600
I1017 12:06:16.608647 26788 layer_factory.hpp:77] Creating layer lstm1_transform_6
I1017 12:06:16.608656 26788 net.cpp:84] Creating Layer lstm1_transform_6
I1017 12:06:16.608661 26788 net.cpp:406] lstm1_transform_6 <- h_conted_5
I1017 12:06:16.608669 26788 net.cpp:380] lstm1_transform_6 -> W_hc_h_5
I1017 12:06:16.620368 26788 net.cpp:122] Setting up lstm1_transform_6
I1017 12:06:16.620398 26788 net.cpp:129] Top shape: 1 50 2048 (102400)
I1017 12:06:16.620402 26788 net.cpp:137] Memory required for data: 13947200
I1017 12:06:16.620414 26788 net.cpp:465] Sharing parameters 'W_hc' owned by layer 'lstm1_transform_1', param index 0
I1017 12:06:16.620419 26788 layer_factory.hpp:77] Creating layer lstm1_gate_input_6
I1017 12:06:16.620429 26788 net.cpp:84] Creating Layer lstm1_gate_input_6
I1017 12:06:16.620434 26788 net.cpp:406] lstm1_gate_input_6 <- W_hc_h_5
I1017 12:06:16.620440 26788 net.cpp:406] lstm1_gate_input_6 <- W_xc_x_6
I1017 12:06:16.620446 26788 net.cpp:380] lstm1_gate_input_6 -> gate_input_6
I1017 12:06:16.620476 26788 net.cpp:122] Setting up lstm1_gate_input_6
I1017 12:06:16.620483 26788 net.cpp:129] Top shape: 1 50 2048 (102400)
I1017 12:06:16.620487 26788 net.cpp:137] Memory required for data: 14356800
I1017 12:06:16.620491 26788 layer_factory.hpp:77] Creating layer lstm1_unit_6
I1017 12:06:16.620501 26788 net.cpp:84] Creating Layer lstm1_unit_6
I1017 12:06:16.620506 26788 net.cpp:406] lstm1_unit_6 <- c_5
I1017 12:06:16.620512 26788 net.cpp:406] lstm1_unit_6 <- gate_input_6
I1017 12:06:16.620517 26788 net.cpp:406] lstm1_unit_6 <- cont_6_lstm1_cont_slice_5_split_1
I1017 12:06:16.620522 26788 net.cpp:380] lstm1_unit_6 -> c_6
I1017 12:06:16.620529 26788 net.cpp:380] lstm1_unit_6 -> h_6
I1017 12:06:16.620579 26788 net.cpp:122] Setting up lstm1_unit_6
I1017 12:06:16.620585 26788 net.cpp:129] Top shape: 1 50 512 (25600)
I1017 12:06:16.620590 26788 net.cpp:129] Top shape: 1 50 512 (25600)
I1017 12:06:16.620594 26788 net.cpp:137] Memory required for data: 14561600
I1017 12:06:16.620599 26788 layer_factory.hpp:77] Creating layer h_6_lstm1_unit_6_1_split
I1017 12:06:16.620604 26788 net.cpp:84] Creating Layer h_6_lstm1_unit_6_1_split
I1017 12:06:16.620609 26788 net.cpp:406] h_6_lstm1_unit_6_1_split <- h_6
I1017 12:06:16.620615 26788 net.cpp:380] h_6_lstm1_unit_6_1_split -> h_6_lstm1_unit_6_1_split_0
I1017 12:06:16.620627 26788 net.cpp:380] h_6_lstm1_unit_6_1_split -> h_6_lstm1_unit_6_1_split_1
I1017 12:06:16.620662 26788 net.cpp:122] Setting up h_6_lstm1_unit_6_1_split
I1017 12:06:16.620669 26788 net.cpp:129] Top shape: 1 50 512 (25600)
I1017 12:06:16.620674 26788 net.cpp:129] Top shape: 1 50 512 (25600)
I1017 12:06:16.620678 26788 net.cpp:137] Memory required for data: 14766400
I1017 12:06:16.620682 26788 layer_factory.hpp:77] Creating layer lstm1_h_conted_6
I1017 12:06:16.620690 26788 net.cpp:84] Creating Layer lstm1_h_conted_6
I1017 12:06:16.620695 26788 net.cpp:406] lstm1_h_conted_6 <- h_6_lstm1_unit_6_1_split_0
I1017 12:06:16.620702 26788 net.cpp:406] lstm1_h_conted_6 <- cont_7_lstm1_cont_slice_6_split_0
I1017 12:06:16.620707 26788 net.cpp:380] lstm1_h_conted_6 -> h_conted_6
I1017 12:06:16.620766 26788 net.cpp:122] Setting up lstm1_h_conted_6
I1017 12:06:16.620774 26788 net.cpp:129] Top shape: 1 50 512 (25600)
I1017 12:06:16.620779 26788 net.cpp:137] Memory required for data: 14868800
I1017 12:06:16.620782 26788 layer_factory.hpp:77] Creating layer lstm1_transform_7
I1017 12:06:16.620792 26788 net.cpp:84] Creating Layer lstm1_transform_7
I1017 12:06:16.620797 26788 net.cpp:406] lstm1_transform_7 <- h_conted_6
I1017 12:06:16.620803 26788 net.cpp:380] lstm1_transform_7 -> W_hc_h_6
I1017 12:06:16.632544 26788 net.cpp:122] Setting up lstm1_transform_7
I1017 12:06:16.632572 26788 net.cpp:129] Top shape: 1 50 2048 (102400)
I1017 12:06:16.632577 26788 net.cpp:137] Memory required for data: 15278400
I1017 12:06:16.632586 26788 net.cpp:465] Sharing parameters 'W_hc' owned by layer 'lstm1_transform_1', param index 0
I1017 12:06:16.632591 26788 layer_factory.hpp:77] Creating layer lstm1_gate_input_7
I1017 12:06:16.632601 26788 net.cpp:84] Creating Layer lstm1_gate_input_7
I1017 12:06:16.632606 26788 net.cpp:406] lstm1_gate_input_7 <- W_hc_h_6
I1017 12:06:16.632612 26788 net.cpp:406] lstm1_gate_input_7 <- W_xc_x_7
I1017 12:06:16.632619 26788 net.cpp:380] lstm1_gate_input_7 -> gate_input_7
I1017 12:06:16.632650 26788 net.cpp:122] Setting up lstm1_gate_input_7
I1017 12:06:16.632658 26788 net.cpp:129] Top shape: 1 50 2048 (102400)
I1017 12:06:16.632661 26788 net.cpp:137] Memory required for data: 15688000
I1017 12:06:16.632666 26788 layer_factory.hpp:77] Creating layer lstm1_unit_7
I1017 12:06:16.632673 26788 net.cpp:84] Creating Layer lstm1_unit_7
I1017 12:06:16.632678 26788 net.cpp:406] lstm1_unit_7 <- c_6
I1017 12:06:16.632683 26788 net.cpp:406] lstm1_unit_7 <- gate_input_7
I1017 12:06:16.632688 26788 net.cpp:406] lstm1_unit_7 <- cont_7_lstm1_cont_slice_6_split_1
I1017 12:06:16.632696 26788 net.cpp:380] lstm1_unit_7 -> c_7
I1017 12:06:16.632704 26788 net.cpp:380] lstm1_unit_7 -> h_7
I1017 12:06:16.632752 26788 net.cpp:122] Setting up lstm1_unit_7
I1017 12:06:16.632760 26788 net.cpp:129] Top shape: 1 50 512 (25600)
I1017 12:06:16.632766 26788 net.cpp:129] Top shape: 1 50 512 (25600)
I1017 12:06:16.632769 26788 net.cpp:137] Memory required for data: 15892800
I1017 12:06:16.632773 26788 layer_factory.hpp:77] Creating layer h_7_lstm1_unit_7_1_split
I1017 12:06:16.632779 26788 net.cpp:84] Creating Layer h_7_lstm1_unit_7_1_split
I1017 12:06:16.632783 26788 net.cpp:406] h_7_lstm1_unit_7_1_split <- h_7
I1017 12:06:16.632791 26788 net.cpp:380] h_7_lstm1_unit_7_1_split -> h_7_lstm1_unit_7_1_split_0
I1017 12:06:16.632797 26788 net.cpp:380] h_7_lstm1_unit_7_1_split -> h_7_lstm1_unit_7_1_split_1
I1017 12:06:16.632833 26788 net.cpp:122] Setting up h_7_lstm1_unit_7_1_split
I1017 12:06:16.632839 26788 net.cpp:129] Top shape: 1 50 512 (25600)
I1017 12:06:16.632844 26788 net.cpp:129] Top shape: 1 50 512 (25600)
I1017 12:06:16.632848 26788 net.cpp:137] Memory required for data: 16097600
I1017 12:06:16.632853 26788 layer_factory.hpp:77] Creating layer lstm1_h_conted_7
I1017 12:06:16.632860 26788 net.cpp:84] Creating Layer lstm1_h_conted_7
I1017 12:06:16.632865 26788 net.cpp:406] lstm1_h_conted_7 <- h_7_lstm1_unit_7_1_split_0
I1017 12:06:16.632871 26788 net.cpp:406] lstm1_h_conted_7 <- cont_8_lstm1_cont_slice_7_split_0
I1017 12:06:16.632877 26788 net.cpp:380] lstm1_h_conted_7 -> h_conted_7
I1017 12:06:16.632939 26788 net.cpp:122] Setting up lstm1_h_conted_7
I1017 12:06:16.632946 26788 net.cpp:129] Top shape: 1 50 512 (25600)
I1017 12:06:16.632951 26788 net.cpp:137] Memory required for data: 16200000
I1017 12:06:16.632954 26788 layer_factory.hpp:77] Creating layer lstm1_transform_8
I1017 12:06:16.632964 26788 net.cpp:84] Creating Layer lstm1_transform_8
I1017 12:06:16.632968 26788 net.cpp:406] lstm1_transform_8 <- h_conted_7
I1017 12:06:16.632975 26788 net.cpp:380] lstm1_transform_8 -> W_hc_h_7
I1017 12:06:16.644767 26788 net.cpp:122] Setting up lstm1_transform_8
I1017 12:06:16.644786 26788 net.cpp:129] Top shape: 1 50 2048 (102400)
I1017 12:06:16.644791 26788 net.cpp:137] Memory required for data: 16609600
I1017 12:06:16.644798 26788 net.cpp:465] Sharing parameters 'W_hc' owned by layer 'lstm1_transform_1', param index 0
I1017 12:06:16.644804 26788 layer_factory.hpp:77] Creating layer lstm1_gate_input_8
I1017 12:06:16.644812 26788 net.cpp:84] Creating Layer lstm1_gate_input_8
I1017 12:06:16.644817 26788 net.cpp:406] lstm1_gate_input_8 <- W_hc_h_7
I1017 12:06:16.644826 26788 net.cpp:406] lstm1_gate_input_8 <- W_xc_x_8
I1017 12:06:16.644834 26788 net.cpp:380] lstm1_gate_input_8 -> gate_input_8
I1017 12:06:16.644865 26788 net.cpp:122] Setting up lstm1_gate_input_8
I1017 12:06:16.644872 26788 net.cpp:129] Top shape: 1 50 2048 (102400)
I1017 12:06:16.644876 26788 net.cpp:137] Memory required for data: 17019200
I1017 12:06:16.644881 26788 layer_factory.hpp:77] Creating layer lstm1_unit_8
I1017 12:06:16.644887 26788 net.cpp:84] Creating Layer lstm1_unit_8
I1017 12:06:16.644892 26788 net.cpp:406] lstm1_unit_8 <- c_7
I1017 12:06:16.644898 26788 net.cpp:406] lstm1_unit_8 <- gate_input_8
I1017 12:06:16.644902 26788 net.cpp:406] lstm1_unit_8 <- cont_8_lstm1_cont_slice_7_split_1
I1017 12:06:16.644912 26788 net.cpp:380] lstm1_unit_8 -> c_8
I1017 12:06:16.644919 26788 net.cpp:380] lstm1_unit_8 -> h_8
I1017 12:06:16.644968 26788 net.cpp:122] Setting up lstm1_unit_8
I1017 12:06:16.644974 26788 net.cpp:129] Top shape: 1 50 512 (25600)
I1017 12:06:16.644979 26788 net.cpp:129] Top shape: 1 50 512 (25600)
I1017 12:06:16.644984 26788 net.cpp:137] Memory required for data: 17224000
I1017 12:06:16.644987 26788 layer_factory.hpp:77] Creating layer lstm1_
I1017 12:06:16.644994 26788 net.cpp:84] Creating Layer lstm1_
I1017 12:06:16.644999 26788 net.cpp:406] lstm1_ <- c_8
I1017 12:06:16.645004 26788 net.cpp:380] lstm1_ -> c_T
I1017 12:06:16.645030 26788 net.cpp:122] Setting up lstm1_
I1017 12:06:16.645036 26788 net.cpp:129] Top shape: 1 50 512 (25600)
I1017 12:06:16.645040 26788 net.cpp:137] Memory required for data: 17326400
I1017 12:06:16.645045 26788 layer_factory.hpp:77] Creating layer lstm1_h_concat
I1017 12:06:16.645052 26788 net.cpp:84] Creating Layer lstm1_h_concat
I1017 12:06:16.645057 26788 net.cpp:406] lstm1_h_concat <- h_1_lstm1_unit_1_1_split_1
I1017 12:06:16.645063 26788 net.cpp:406] lstm1_h_concat <- h_2_lstm1_unit_2_1_split_1
I1017 12:06:16.645068 26788 net.cpp:406] lstm1_h_concat <- h_3_lstm1_unit_3_1_split_1
I1017 12:06:16.645073 26788 net.cpp:406] lstm1_h_concat <- h_4_lstm1_unit_4_1_split_1
I1017 12:06:16.645077 26788 net.cpp:406] lstm1_h_concat <- h_5_lstm1_unit_5_1_split_1
I1017 12:06:16.645082 26788 net.cpp:406] lstm1_h_concat <- h_6_lstm1_unit_6_1_split_1
I1017 12:06:16.645087 26788 net.cpp:406] lstm1_h_concat <- h_7_lstm1_unit_7_1_split_1
I1017 12:06:16.645092 26788 net.cpp:406] lstm1_h_concat <- h_8
I1017 12:06:16.645097 26788 net.cpp:380] lstm1_h_concat -> h
I1017 12:06:16.645123 26788 net.cpp:122] Setting up lstm1_h_concat
I1017 12:06:16.645129 26788 net.cpp:129] Top shape: 8 50 512 (204800)
I1017 12:06:16.645133 26788 net.cpp:137] Memory required for data: 18145600
I1017 12:06:16.645138 26788 layer_factory.hpp:77] Creating layer h_pseudoloss
I1017 12:06:16.645146 26788 net.cpp:84] Creating Layer h_pseudoloss
I1017 12:06:16.645151 26788 net.cpp:406] h_pseudoloss <- h
I1017 12:06:16.645157 26788 net.cpp:380] h_pseudoloss -> h_pseudoloss
I1017 12:06:16.646180 26788 net.cpp:122] Setting up h_pseudoloss
…
I1017 12:06:16.646528 26788 net.cpp:200] lstm1_ does not need backward computation.
I1017 12:06:16.646531 26788 net.cpp:242] This network produces output c_T
I1017 12:06:16.646536 26788 net.cpp:242] This network produces output h_pseudoloss
I1017 12:06:16.652535 26788 net.cpp:255] Network initialization done.
I1017 12:06:16.652671 26788 recurrent_layer.cpp:150] Adding parameter 0: W_xc
I1017 12:06:16.652683 26788 recurrent_layer.cpp:150] Adding parameter 1: b_c
I1017 12:06:16.652690 26788 recurrent_layer.cpp:150] Adding parameter 2: W_hc
I1017 12:06:16.653026 26788 net.cpp:122] Setting up lstm1
I1017 12:06:16.653048 26788 net.cpp:129] Top shape: 8 50 512 (204800)
I1017 12:06:16.653055 26788 net.cpp:137] Memory required for data: 9566127000
I1017 12:06:16.653081 26788 layer_factory.hpp:77] Creating layer lstm1-drop
I1017 12:06:16.653095 26788 net.cpp:84] Creating Layer lstm1-drop
I1017 12:06:16.653103 26788 net.cpp:406] lstm1-drop <- lstm1
I1017 12:06:16.653113 26788 net.cpp:380] lstm1-drop -> lstm1-drop
I1017 12:06:16.653175 26788 net.cpp:122] Setting up lstm1-drop
I1017 12:06:16.653190 26788 net.cpp:129] Top shape: 8 50 512 (204800)
I1017 12:06:16.653198 26788 net.cpp:137] Memory required for data: 9566946200
I1017 12:06:16.653203 26788 layer_factory.hpp:77] Creating layer fc-final
I1017 12:06:16.653216 26788 net.cpp:84] Creating Layer fc-final
I1017 12:06:16.653223 26788 net.cpp:406] fc-final <- lstm1-drop
I1017 12:06:16.653231 26788 net.cpp:380] fc-final -> fc-final
I1017 12:06:16.653542 26788 net.cpp:122] Setting up fc-final
I1017 12:06:16.653551 26788 net.cpp:129] Top shape: 8 50 10 (4000)
I1017 12:06:16.653556 26788 net.cpp:137] Memory required for data: 9566962200
I1017 12:06:16.653563 26788 layer_factory.hpp:77] Creating layer fc-final_fc-final_0_split
I1017 12:06:16.653570 26788 net.cpp:84] Creating Layer fc-final_fc-final_0_split
I1017 12:06:16.653575 26788 net.cpp:406] fc-final_fc-final_0_split <- fc-final
I1017 12:06:16.653581 26788 net.cpp:380] fc-final_fc-final_0_split -> fc-final_fc-final_0_split_0
I1017 12:06:16.653589 26788 net.cpp:380] fc-final_fc-final_0_split -> fc-final_fc-final_0_split_1
I1017 12:06:16.653623 26788 net.cpp:122] Setting up fc-final_fc-final_0_split
I1017 12:06:16.653631 26788 net.cpp:129] Top shape: 8 50 10 (4000)
I1017 12:06:16.653636 26788 net.cpp:129] Top shape: 8 50 10 (4000)
I1017 12:06:16.653640 26788 net.cpp:137] Memory required for data: 9566994200
I1017 12:06:16.653645 26788 layer_factory.hpp:77] Creating layer loss
I1017 12:06:16.653652 26788 net.cpp:84] Creating Layer loss
I1017 12:06:16.653656 26788 net.cpp:406] loss <- fc-final_fc-final_0_split_0
I1017 12:06:16.653663 26788 net.cpp:406] loss <- reshape-label_label_tran_0_split_0
I1017 12:06:16.653669 26788 net.cpp:380] loss -> loss
…
