…
I1018 00:13:10.620368 30241 net.cpp:294] The NetState phase (0) differed from the phase (1) specified by a rule in layer Silence
I1018 00:13:10.620595 30241 net.cpp:51] Initializing net from parameters: 
name: "VGG_16_layers_LSTM"
state {
  phase: TRAIN
  level: 0
  stage: ""
}
layer {
  name: "data"
  type: "ImageData"
  top: "data"
  top: "label"
  include {
    phase: TRAIN
  }
  transform_param {
    mirror: true
    crop_size: 288
    mean_value: 104
    mean_value: 117
    mean_value: 123
  }
  image_data_param {
    source: "../Data/lsun_train_list_12w.txt"
    batch_size: 4
    shuffle: true
    new_height: 320
    new_width: 320
  }
}
layer {
  name: "label_tran"
  type: "Python"
  bottom: "label"
  top: "reshape-label"
  top: "clip_markers"
  python_param {
    module: "data_preparation_sort_max_clip"
    layer: "ReshapeLabel"
  }
}
layer {
  name: "conv1_1"
  type: "Convolution"
  bottom: "data"
  top: "conv1_1"
  convolution_param {
    num_output: 64
    pad: 1
    kernel_size: 3
  }
}
layer {
  name: "relu1_1"
  type: "ReLU"
  bottom: "conv1_1"
  top: "conv1_1"
}
layer {
  name: "conv1_2"
  type: "Convolution"
  bottom: "conv1_1"
  top: "conv1_2"
  convolution_param {
    num_output: 64
    pad: 1
    kernel_size: 3
  }
}
layer {
  name: "relu1_2"
  type: "ReLU"
  bottom: "conv1_2"
  top: "conv1_2"
}
layer {
  name: "pool1"
  type: "Pooling"
  bottom: "conv1_2"
  top: "pool1"
  pooling_param {
    pool: MAX
    kernel_size: 2
    stride: 2
  }
}
layer {
  name: "conv2_1"
  type: "Convolution"
  bottom: "pool1"
  top: "conv2_1"
  convolution_param {
    num_output: 128
    pad: 1
    kernel_size: 3
  }
}
layer {
  name: "relu2_1"
  type: "ReLU"
  bottom: "conv2_1"
  top: "conv2_1"
}
layer {
  name: "conv2_2"
  type: "Convolution"
  bottom: "conv2_1"
  top: "conv2_2"
  convolution_param {
    num_output: 128
    pad: 1
    kernel_size: 3
  }
}
layer {
  name: "relu2_2"
  type: "ReLU"
  bottom: "conv2_2"
  top: "conv2_2"
}
layer {
  name: "pool2"
  type: "Pooling"
  bottom: "conv2_2"
  top: "pool2"
  pooling_param {
    pool: MAX
    kernel_size: 2
    stride: 2
  }
}
layer {
  name: "conv3_1"
  type: "Convolution"
  bottom: "pool2"
  top: "conv3_1"
  convolution_param {
    num_output: 256
    pad: 1
    kernel_size: 3
  }
}
layer {
  name: "relu3_1"
  type: "ReLU"
  bottom: "conv3_1"
  top: "conv3_1"
}
layer {
  name: "conv3_2"
  type: "Convolution"
  bottom: "conv3_1"
  top: "conv3_2"
  convolution_param {
    num_output: 256
    pad: 1
    kernel_size: 3
  }
}
layer {
  name: "relu3_2"
  type: "ReLU"
  bottom: "conv3_2"
  top: "conv3_2"
}
layer {
  name: "conv3_3"
  type: "Convolution"
  bottom: "conv3_2"
  top: "conv3_3"
  convolution_param {
    num_output: 256
    pad: 1
    kernel_size: 3
  }
}
layer {
  name: "relu3_3"
  type: "ReLU"
  bottom: "conv3_3"
  top: "conv3_3"
}
layer {
  name: "pool3"
  type: "Pooling"
  bottom: "conv3_3"
  top: "pool3"
  pooling_param {
    pool: MAX
    kernel_size: 2
    stride: 2
  }
}
layer {
  name: "conv4_1"
  type: "Convolution"
  bottom: "pool3"
  top: "conv4_1"
  convolution_param {
    num_output: 512
    pad: 1
    kernel_size: 3
  }
}
layer {
  name: "relu4_1"
  type: "ReLU"
  bottom: "conv4_1"
  top: "conv4_1"
}
layer {
  name: "conv4_2"
  type: "Convolution"
  bottom: "conv4_1"
  top: "conv4_2"
  convolution_param {
    num_output: 512
    pad: 1
    kernel_size: 3
  }
}
layer {
  name: "relu4_2"
  type: "ReLU"
  bottom: "conv4_2"
  top: "conv4_2"
}
layer {
  name: "conv4_3"
  type: "Convolution"
  bottom: "conv4_2"
  top: "conv4_3"
  convolution_param {
    num_output: 512
    pad: 1
    kernel_size: 3
  }
}
layer {
  name: "relu4_3"
  type: "ReLU"
  bottom: "conv4_3"
  top: "conv4_3"
}
layer {
  name: "pool4"
  type: "Pooling"
  bottom: "conv4_3"
  top: "pool4"
  pooling_param {
    pool: MAX
    kernel_size: 2
    stride: 2
  }
}
layer {
  name: "conv5_1"
  type: "Convolution"
  bottom: "pool4"
  top: "conv5_1"
  convolution_param {
    num_output: 512
    pad: 1
    kernel_size: 3
  }
}
layer {
  name: "relu5_1"
  type: "ReLU"
  bottom: "conv5_1"
  top: "conv5_1"
}
layer {
  name: "conv5_2"
  type: "Convolution"
  bottom: "conv5_1"
  top: "conv5_2"
  convolution_param {
    num_output: 512
    pad: 1
    kernel_size: 3
  }
}
layer {
  name: "relu5_2"
  type: "ReLU"
  bottom: "conv5_2"
  top: "conv5_2"
}
layer {
  name: "conv5_3"
  type: "Convolution"
  bottom: "conv5_2"
  top: "conv5_3"
  convolution_param {
    num_output: 512
    pad: 1
    kernel_size: 3
  }
}
layer {
  name: "relu5_3"
  type: "ReLU"
  bottom: "conv5_3"
  top: "conv5_3"
}
layer {
  name: "pool5"
  type: "Pooling"
  bottom: "conv5_3"
  top: "pool5"
  pooling_param {
    pool: MAX
    kernel_size: 2
    stride: 2
  }
}
layer {
  name: "fc6-conv"
  type: "Convolution"
  bottom: "pool5"
  top: "fc6-conv"
  convolution_param {
    num_output: 4096
    kernel_size: 7
  }
}
layer {
  name: "relu6"
  type: "ReLU"
  bottom: "fc6-conv"
  top: "fc6-conv"
}
layer {
  name: "drop6"
  type: "Dropout"
  bottom: "fc6-conv"
  top: "fc6-conv"
  dropout_param {
    dropout_ratio: 0.5
  }
}
layer {
  name: "fc6-conv_re"
  type: "Reshape"
  bottom: "fc6-conv"
  top: "fc6-conv_re"
  reshape_param {
    shape {
      dim: 0
      dim: 0
      dim: -1
    }
  }
}
layer {
  name: "fc6-conv_tran"
  type: "Python"
  bottom: "fc6-conv_re"
  top: "fc6-conv_tran"
  python_param {
    module: "data_preparation_sort_max_clip"
    layer: "DataTransposeSortMaxClip"
  }
}
layer {
  name: "lstm1"
  type: "LSTM"
  bottom: "fc6-conv_tran"
  bottom: "clip_markers"
  top: "lstm1"
  recurrent_param {
    num_output: 512
    weight_filler {
      type: "uniform"
      min: -0.01
      max: 0.01
    }
    bias_filler {
      type: "constant"
      value: 0
    }
  }
}
layer {
  name: "lstm1-drop"
  type: "Dropout"
  bottom: "lstm1"
  top: "lstm1-drop"
  dropout_param {
    dropout_ratio: 0.5
  }
}
layer {
  name: "fc-final"
  type: "InnerProduct"
  bottom: "lstm1-drop"
  top: "fc-final"
  param {
    lr_mult: 1
    decay_mult: 1
  }
  param {
    lr_mult: 2
    decay_mult: 0
  }
  inner_product_param {
    num_output: 10
    weight_filler {
      type: "gaussian"
      std: 0.01
    }
    bias_filler {
      type: "constant"
      value: 0
    }
    axis: 2
  }
}
layer {
  name: "loss"
  type: "SoftmaxWithLoss"
  bottom: "fc-final"
  bottom: "reshape-label"
  top: "loss"
  softmax_param {
    axis: 2
  }
}
layer {
  name: "accuracy"
  type: "Accuracy"
  bottom: "fc-final"
  bottom: "reshape-label"
  top: "accuracy"
  accuracy_param {
    axis: 2
  }
}
I1018 00:13:10.620826 30241 layer_factory.hpp:77] Creating layer data
I1018 00:13:10.620878 30241 net.cpp:84] Creating Layer data
I1018 00:13:10.620892 30241 net.cpp:380] data -> data
I1018 00:13:10.620937 30241 net.cpp:380] data -> label
I1018 00:13:10.620971 30241 image_data_layer.cpp:38] Opening file ../Data/lsun_train_list_12w.txt
I1018 00:13:11.194852 30241 image_data_layer.cpp:53] Shuffling data
I1018 00:13:11.524814 30241 image_data_layer.cpp:63] A total of 1200000 images.
I1018 00:13:11.536885 30241 image_data_layer.cpp:90] output data size: 4,3,288,288
I1018 00:13:11.554507 30241 net.cpp:122] Setting up data
I1018 00:13:11.554576 30241 net.cpp:129] Top shape: 4 3 288 288 (995328)
I1018 00:13:11.554586 30241 net.cpp:129] Top shape: 4 (4)
I1018 00:13:11.554592 30241 net.cpp:137] Memory required for data: 3981328
I1018 00:13:11.554605 30241 layer_factory.hpp:77] Creating layer label_tran
I1018 00:13:12.202128 30241 net.cpp:84] Creating Layer label_tran
I1018 00:13:12.202172 30241 net.cpp:406] label_tran <- label
I1018 00:13:12.202199 30241 net.cpp:380] label_tran -> reshape-label
I1018 00:13:12.202214 30241 net.cpp:380] label_tran -> clip_markers
I1018 00:13:12.202584 30241 net.cpp:122] Setting up label_tran
I1018 00:13:12.202603 30241 net.cpp:129] Top shape: 4 4 (16)
I1018 00:13:12.202610 30241 net.cpp:129] Top shape: 4 4 (16)
I1018 00:13:12.202615 30241 net.cpp:137] Memory required for data: 3981456
I1018 00:13:12.202620 30241 layer_factory.hpp:77] Creating layer reshape-label_label_tran_0_split
I1018 00:13:12.202646 30241 net.cpp:84] Creating Layer reshape-label_label_tran_0_split
I1018 00:13:12.202651 30241 net.cpp:406] reshape-label_label_tran_0_split <- reshape-label
I1018 00:13:12.202658 30241 net.cpp:380] reshape-label_label_tran_0_split -> reshape-label_label_tran_0_split_0
I1018 00:13:12.202667 30241 net.cpp:380] reshape-label_label_tran_0_split -> reshape-label_label_tran_0_split_1
I1018 00:13:12.202708 30241 net.cpp:122] Setting up reshape-label_label_tran_0_split
I1018 00:13:12.202714 30241 net.cpp:129] Top shape: 4 4 (16)
I1018 00:13:12.202719 30241 net.cpp:129] Top shape: 4 4 (16)
I1018 00:13:12.202723 30241 net.cpp:137] Memory required for data: 3981584
I1018 00:13:12.202729 30241 layer_factory.hpp:77] Creating layer conv1_1
I1018 00:13:12.202750 30241 net.cpp:84] Creating Layer conv1_1
I1018 00:13:12.202755 30241 net.cpp:406] conv1_1 <- data
I1018 00:13:12.202761 30241 net.cpp:380] conv1_1 -> conv1_1
I1018 00:13:12.204803 30241 net.cpp:122] Setting up conv1_1
I1018 00:13:12.204823 30241 net.cpp:129] Top shape: 4 64 288 288 (21233664)
I1018 00:13:12.204828 30241 net.cpp:137] Memory required for data: 88916240
I1018 00:13:12.204854 30241 layer_factory.hpp:77] Creating layer relu1_1
I1018 00:13:12.204867 30241 net.cpp:84] Creating Layer relu1_1
I1018 00:13:12.204872 30241 net.cpp:406] relu1_1 <- conv1_1
I1018 00:13:12.204879 30241 net.cpp:367] relu1_1 -> conv1_1 (in-place)
I1018 00:13:12.204893 30241 net.cpp:122] Setting up relu1_1
I1018 00:13:12.204900 30241 net.cpp:129] Top shape: 4 64 288 288 (21233664)
I1018 00:13:12.204903 30241 net.cpp:137] Memory required for data: 173850896
I1018 00:13:12.204907 30241 layer_factory.hpp:77] Creating layer conv1_2
I1018 00:13:12.204916 30241 net.cpp:84] Creating Layer conv1_2
I1018 00:13:12.204921 30241 net.cpp:406] conv1_2 <- conv1_1
I1018 00:13:12.204926 30241 net.cpp:380] conv1_2 -> conv1_2
I1018 00:13:12.205971 30241 net.cpp:122] Setting up conv1_2
I1018 00:13:12.205986 30241 net.cpp:129] Top shape: 4 64 288 288 (21233664)
I1018 00:13:12.205991 30241 net.cpp:137] Memory required for data: 258785552
I1018 00:13:12.206006 30241 layer_factory.hpp:77] Creating layer relu1_2
I1018 00:13:12.206014 30241 net.cpp:84] Creating Layer relu1_2
I1018 00:13:12.206018 30241 net.cpp:406] relu1_2 <- conv1_2
I1018 00:13:12.206025 30241 net.cpp:367] relu1_2 -> conv1_2 (in-place)
I1018 00:13:12.206034 30241 net.cpp:122] Setting up relu1_2
I1018 00:13:12.206039 30241 net.cpp:129] Top shape: 4 64 288 288 (21233664)
I1018 00:13:12.206043 30241 net.cpp:137] Memory required for data: 343720208
I1018 00:13:12.206048 30241 layer_factory.hpp:77] Creating layer pool1
I1018 00:13:12.206058 30241 net.cpp:84] Creating Layer pool1
I1018 00:13:12.206063 30241 net.cpp:406] pool1 <- conv1_2
I1018 00:13:12.206068 30241 net.cpp:380] pool1 -> pool1
I1018 00:13:12.206121 30241 net.cpp:122] Setting up pool1
I1018 00:13:12.206130 30241 net.cpp:129] Top shape: 4 64 144 144 (5308416)
I1018 00:13:12.206133 30241 net.cpp:137] Memory required for data: 364953872
I1018 00:13:12.206138 30241 layer_factory.hpp:77] Creating layer conv2_1
I1018 00:13:12.206148 30241 net.cpp:84] Creating Layer conv2_1
I1018 00:13:12.206153 30241 net.cpp:406] conv2_1 <- pool1
I1018 00:13:12.206161 30241 net.cpp:380] conv2_1 -> conv2_1
I1018 00:13:12.206413 30241 net.cpp:122] Setting up conv2_1
I1018 00:13:12.206424 30241 net.cpp:129] Top shape: 4 128 144 144 (10616832)
I1018 00:13:12.206429 30241 net.cpp:137] Memory required for data: 407421200
I1018 00:13:12.206439 30241 layer_factory.hpp:77] Creating layer relu2_1
I1018 00:13:12.206447 30241 net.cpp:84] Creating Layer relu2_1
I1018 00:13:12.206452 30241 net.cpp:406] relu2_1 <- conv2_1
I1018 00:13:12.206459 30241 net.cpp:367] relu2_1 -> conv2_1 (in-place)
I1018 00:13:12.206466 30241 net.cpp:122] Setting up relu2_1
I1018 00:13:12.206471 30241 net.cpp:129] Top shape: 4 128 144 144 (10616832)
I1018 00:13:12.206475 30241 net.cpp:137] Memory required for data: 449888528
I1018 00:13:12.206480 30241 layer_factory.hpp:77] Creating layer conv2_2
I1018 00:13:12.206487 30241 net.cpp:84] Creating Layer conv2_2
I1018 00:13:12.206491 30241 net.cpp:406] conv2_2 <- conv2_1
I1018 00:13:12.206497 30241 net.cpp:380] conv2_2 -> conv2_2
I1018 00:13:12.207545 30241 net.cpp:122] Setting up conv2_2
I1018 00:13:12.207561 30241 net.cpp:129] Top shape: 4 128 144 144 (10616832)
I1018 00:13:12.207566 30241 net.cpp:137] Memory required for data: 492355856
I1018 00:13:12.207573 30241 layer_factory.hpp:77] Creating layer relu2_2
I1018 00:13:12.207583 30241 net.cpp:84] Creating Layer relu2_2
I1018 00:13:12.207588 30241 net.cpp:406] relu2_2 <- conv2_2
I1018 00:13:12.207595 30241 net.cpp:367] relu2_2 -> conv2_2 (in-place)
I1018 00:13:12.207603 30241 net.cpp:122] Setting up relu2_2
I1018 00:13:12.207608 30241 net.cpp:129] Top shape: 4 128 144 144 (10616832)
I1018 00:13:12.207612 30241 net.cpp:137] Memory required for data: 534823184
I1018 00:13:12.207617 30241 layer_factory.hpp:77] Creating layer pool2
I1018 00:13:12.207624 30241 net.cpp:84] Creating Layer pool2
I1018 00:13:12.207628 30241 net.cpp:406] pool2 <- conv2_2
I1018 00:13:12.207634 30241 net.cpp:380] pool2 -> pool2
I1018 00:13:12.207669 30241 net.cpp:122] Setting up pool2
I1018 00:13:12.207677 30241 net.cpp:129] Top shape: 4 128 72 72 (2654208)
I1018 00:13:12.207681 30241 net.cpp:137] Memory required for data: 545440016
I1018 00:13:12.207685 30241 layer_factory.hpp:77] Creating layer conv3_1
I1018 00:13:12.207693 30241 net.cpp:84] Creating Layer conv3_1
I1018 00:13:12.207698 30241 net.cpp:406] conv3_1 <- pool2
I1018 00:13:12.207705 30241 net.cpp:380] conv3_1 -> conv3_1
I1018 00:13:12.209652 30241 net.cpp:122] Setting up conv3_1
I1018 00:13:12.209671 30241 net.cpp:129] Top shape: 4 256 72 72 (5308416)
I1018 00:13:12.209676 30241 net.cpp:137] Memory required for data: 566673680
I1018 00:13:12.209688 30241 layer_factory.hpp:77] Creating layer relu3_1
I1018 00:13:12.209697 30241 net.cpp:84] Creating Layer relu3_1
I1018 00:13:12.209702 30241 net.cpp:406] relu3_1 <- conv3_1
I1018 00:13:12.209708 30241 net.cpp:367] relu3_1 -> conv3_1 (in-place)
I1018 00:13:12.209717 30241 net.cpp:122] Setting up relu3_1
I1018 00:13:12.209722 30241 net.cpp:129] Top shape: 4 256 72 72 (5308416)
I1018 00:13:12.209725 30241 net.cpp:137] Memory required for data: 587907344
I1018 00:13:12.209729 30241 layer_factory.hpp:77] Creating layer conv3_2
I1018 00:13:12.209739 30241 net.cpp:84] Creating Layer conv3_2
I1018 00:13:12.209743 30241 net.cpp:406] conv3_2 <- conv3_1
I1018 00:13:12.209749 30241 net.cpp:380] conv3_2 -> conv3_2
I1018 00:13:12.211643 30241 net.cpp:122] Setting up conv3_2
I1018 00:13:12.211663 30241 net.cpp:129] Top shape: 4 256 72 72 (5308416)
I1018 00:13:12.211668 30241 net.cpp:137] Memory required for data: 609141008
I1018 00:13:12.211676 30241 layer_factory.hpp:77] Creating layer relu3_2
I1018 00:13:12.211686 30241 net.cpp:84] Creating Layer relu3_2
I1018 00:13:12.211690 30241 net.cpp:406] relu3_2 <- conv3_2
I1018 00:13:12.211697 30241 net.cpp:367] relu3_2 -> conv3_2 (in-place)
I1018 00:13:12.211705 30241 net.cpp:122] Setting up relu3_2
I1018 00:13:12.211711 30241 net.cpp:129] Top shape: 4 256 72 72 (5308416)
I1018 00:13:12.211715 30241 net.cpp:137] Memory required for data: 630374672
I1018 00:13:12.211719 30241 layer_factory.hpp:77] Creating layer conv3_3
I1018 00:13:12.211729 30241 net.cpp:84] Creating Layer conv3_3
I1018 00:13:12.211732 30241 net.cpp:406] conv3_3 <- conv3_2
I1018 00:13:12.211740 30241 net.cpp:380] conv3_3 -> conv3_3
I1018 00:13:12.213624 30241 net.cpp:122] Setting up conv3_3
I1018 00:13:12.213641 30241 net.cpp:129] Top shape: 4 256 72 72 (5308416)
I1018 00:13:12.213646 30241 net.cpp:137] Memory required for data: 651608336
I1018 00:13:12.213654 30241 layer_factory.hpp:77] Creating layer relu3_3
I1018 00:13:12.213660 30241 net.cpp:84] Creating Layer relu3_3
I1018 00:13:12.213665 30241 net.cpp:406] relu3_3 <- conv3_3
I1018 00:13:12.213675 30241 net.cpp:367] relu3_3 -> conv3_3 (in-place)
I1018 00:13:12.213682 30241 net.cpp:122] Setting up relu3_3
I1018 00:13:12.213687 30241 net.cpp:129] Top shape: 4 256 72 72 (5308416)
I1018 00:13:12.213691 30241 net.cpp:137] Memory required for data: 672842000
I1018 00:13:12.213696 30241 layer_factory.hpp:77] Creating layer pool3
I1018 00:13:12.213703 30241 net.cpp:84] Creating Layer pool3
I1018 00:13:12.213708 30241 net.cpp:406] pool3 <- conv3_3
I1018 00:13:12.213713 30241 net.cpp:380] pool3 -> pool3
I1018 00:13:12.213753 30241 net.cpp:122] Setting up pool3
I1018 00:13:12.213760 30241 net.cpp:129] Top shape: 4 256 36 36 (1327104)
I1018 00:13:12.213764 30241 net.cpp:137] Memory required for data: 678150416
I1018 00:13:12.213769 30241 layer_factory.hpp:77] Creating layer conv4_1
I1018 00:13:12.213779 30241 net.cpp:84] Creating Layer conv4_1
I1018 00:13:12.213783 30241 net.cpp:406] conv4_1 <- pool3
I1018 00:13:12.213789 30241 net.cpp:380] conv4_1 -> conv4_1
I1018 00:13:12.217988 30241 net.cpp:122] Setting up conv4_1
I1018 00:13:12.218013 30241 net.cpp:129] Top shape: 4 512 36 36 (2654208)
I1018 00:13:12.218017 30241 net.cpp:137] Memory required for data: 688767248
I1018 00:13:12.218025 30241 layer_factory.hpp:77] Creating layer relu4_1
I1018 00:13:12.218034 30241 net.cpp:84] Creating Layer relu4_1
I1018 00:13:12.218039 30241 net.cpp:406] relu4_1 <- conv4_1
I1018 00:13:12.218046 30241 net.cpp:367] relu4_1 -> conv4_1 (in-place)
I1018 00:13:12.218055 30241 net.cpp:122] Setting up relu4_1
I1018 00:13:12.218060 30241 net.cpp:129] Top shape: 4 512 36 36 (2654208)
I1018 00:13:12.218065 30241 net.cpp:137] Memory required for data: 699384080
I1018 00:13:12.218068 30241 layer_factory.hpp:77] Creating layer conv4_2
I1018 00:13:12.218080 30241 net.cpp:84] Creating Layer conv4_2
I1018 00:13:12.218085 30241 net.cpp:406] conv4_2 <- conv4_1
I1018 00:13:12.218091 30241 net.cpp:380] conv4_2 -> conv4_2
I1018 00:13:12.224627 30241 net.cpp:122] Setting up conv4_2
I1018 00:13:12.224658 30241 net.cpp:129] Top shape: 4 512 36 36 (2654208)
I1018 00:13:12.224663 30241 net.cpp:137] Memory required for data: 710000912
I1018 00:13:12.224680 30241 layer_factory.hpp:77] Creating layer relu4_2
I1018 00:13:12.224691 30241 net.cpp:84] Creating Layer relu4_2
I1018 00:13:12.224697 30241 net.cpp:406] relu4_2 <- conv4_2
I1018 00:13:12.224705 30241 net.cpp:367] relu4_2 -> conv4_2 (in-place)
I1018 00:13:12.224715 30241 net.cpp:122] Setting up relu4_2
I1018 00:13:12.224721 30241 net.cpp:129] Top shape: 4 512 36 36 (2654208)
I1018 00:13:12.224725 30241 net.cpp:137] Memory required for data: 720617744
I1018 00:13:12.224730 30241 layer_factory.hpp:77] Creating layer conv4_3
I1018 00:13:12.224740 30241 net.cpp:84] Creating Layer conv4_3
I1018 00:13:12.224745 30241 net.cpp:406] conv4_3 <- conv4_2
I1018 00:13:12.224750 30241 net.cpp:380] conv4_3 -> conv4_3
I1018 00:13:12.230984 30241 net.cpp:122] Setting up conv4_3
I1018 00:13:12.231009 30241 net.cpp:129] Top shape: 4 512 36 36 (2654208)
I1018 00:13:12.231014 30241 net.cpp:137] Memory required for data: 731234576
I1018 00:13:12.231025 30241 layer_factory.hpp:77] Creating layer relu4_3
I1018 00:13:12.231039 30241 net.cpp:84] Creating Layer relu4_3
I1018 00:13:12.231045 30241 net.cpp:406] relu4_3 <- conv4_3
I1018 00:13:12.231051 30241 net.cpp:367] relu4_3 -> conv4_3 (in-place)
I1018 00:13:12.231061 30241 net.cpp:122] Setting up relu4_3
I1018 00:13:12.231067 30241 net.cpp:129] Top shape: 4 512 36 36 (2654208)
I1018 00:13:12.231071 30241 net.cpp:137] Memory required for data: 741851408
I1018 00:13:12.231076 30241 layer_factory.hpp:77] Creating layer pool4
I1018 00:13:12.231089 30241 net.cpp:84] Creating Layer pool4
I1018 00:13:12.231094 30241 net.cpp:406] pool4 <- conv4_3
I1018 00:13:12.231101 30241 net.cpp:380] pool4 -> pool4
I1018 00:13:12.231143 30241 net.cpp:122] Setting up pool4
I1018 00:13:12.231151 30241 net.cpp:129] Top shape: 4 512 18 18 (663552)
I1018 00:13:12.231155 30241 net.cpp:137] Memory required for data: 744505616
I1018 00:13:12.231159 30241 layer_factory.hpp:77] Creating layer conv5_1
I1018 00:13:12.231168 30241 net.cpp:84] Creating Layer conv5_1
I1018 00:13:12.231171 30241 net.cpp:406] conv5_1 <- pool4
I1018 00:13:12.231179 30241 net.cpp:380] conv5_1 -> conv5_1
I1018 00:13:12.239466 30241 net.cpp:122] Setting up conv5_1
I1018 00:13:12.239691 30241 net.cpp:129] Top shape: 4 512 18 18 (663552)
I1018 00:13:12.239697 30241 net.cpp:137] Memory required for data: 747159824
I1018 00:13:12.239708 30241 layer_factory.hpp:77] Creating layer relu5_1
I1018 00:13:12.239719 30241 net.cpp:84] Creating Layer relu5_1
I1018 00:13:12.239724 30241 net.cpp:406] relu5_1 <- conv5_1
I1018 00:13:12.239735 30241 net.cpp:367] relu5_1 -> conv5_1 (in-place)
I1018 00:13:12.239748 30241 net.cpp:122] Setting up relu5_1
I1018 00:13:12.239753 30241 net.cpp:129] Top shape: 4 512 18 18 (663552)
I1018 00:13:12.239756 30241 net.cpp:137] Memory required for data: 749814032
I1018 00:13:12.239763 30241 layer_factory.hpp:77] Creating layer conv5_2
I1018 00:13:12.239774 30241 net.cpp:84] Creating Layer conv5_2
I1018 00:13:12.239778 30241 net.cpp:406] conv5_2 <- conv5_1
I1018 00:13:12.239784 30241 net.cpp:380] conv5_2 -> conv5_2
I1018 00:13:12.259235 30241 net.cpp:122] Setting up conv5_2
I1018 00:13:12.259274 30241 net.cpp:129] Top shape: 4 512 18 18 (663552)
I1018 00:13:12.259279 30241 net.cpp:137] Memory required for data: 752468240
I1018 00:13:12.259289 30241 layer_factory.hpp:77] Creating layer relu5_2
I1018 00:13:12.259305 30241 net.cpp:84] Creating Layer relu5_2
I1018 00:13:12.259310 30241 net.cpp:406] relu5_2 <- conv5_2
I1018 00:13:12.259320 30241 net.cpp:367] relu5_2 -> conv5_2 (in-place)
I1018 00:13:12.259332 30241 net.cpp:122] Setting up relu5_2
I1018 00:13:12.259338 30241 net.cpp:129] Top shape: 4 512 18 18 (663552)
I1018 00:13:12.259342 30241 net.cpp:137] Memory required for data: 755122448
I1018 00:13:12.259346 30241 layer_factory.hpp:77] Creating layer conv5_3
I1018 00:13:12.259357 30241 net.cpp:84] Creating Layer conv5_3
I1018 00:13:12.259362 30241 net.cpp:406] conv5_3 <- conv5_2
I1018 00:13:12.259368 30241 net.cpp:380] conv5_3 -> conv5_3
I1018 00:13:12.265614 30241 net.cpp:122] Setting up conv5_3
I1018 00:13:12.265640 30241 net.cpp:129] Top shape: 4 512 18 18 (663552)
I1018 00:13:12.265645 30241 net.cpp:137] Memory required for data: 757776656
I1018 00:13:12.265653 30241 layer_factory.hpp:77] Creating layer relu5_3
I1018 00:13:12.265672 30241 net.cpp:84] Creating Layer relu5_3
I1018 00:13:12.265678 30241 net.cpp:406] relu5_3 <- conv5_3
I1018 00:13:12.265687 30241 net.cpp:367] relu5_3 -> conv5_3 (in-place)
I1018 00:13:12.265697 30241 net.cpp:122] Setting up relu5_3
I1018 00:13:12.265702 30241 net.cpp:129] Top shape: 4 512 18 18 (663552)
I1018 00:13:12.265707 30241 net.cpp:137] Memory required for data: 760430864
I1018 00:13:12.265710 30241 layer_factory.hpp:77] Creating layer pool5
I1018 00:13:12.265722 30241 net.cpp:84] Creating Layer pool5
I1018 00:13:12.265725 30241 net.cpp:406] pool5 <- conv5_3
I1018 00:13:12.265732 30241 net.cpp:380] pool5 -> pool5
I1018 00:13:12.265775 30241 net.cpp:122] Setting up pool5
I1018 00:13:12.265784 30241 net.cpp:129] Top shape: 4 512 9 9 (165888)
I1018 00:13:12.265787 30241 net.cpp:137] Memory required for data: 761094416
I1018 00:13:12.265791 30241 layer_factory.hpp:77] Creating layer fc6-conv
I1018 00:13:12.265801 30241 net.cpp:84] Creating Layer fc6-conv
I1018 00:13:12.265805 30241 net.cpp:406] fc6-conv <- pool5
I1018 00:13:12.265811 30241 net.cpp:380] fc6-conv -> fc6-conv
I1018 00:13:12.597360 30241 net.cpp:122] Setting up fc6-conv
I1018 00:13:12.597416 30241 net.cpp:129] Top shape: 4 4096 3 3 (147456)
I1018 00:13:12.597421 30241 net.cpp:137] Memory required for data: 761684240
I1018 00:13:12.597440 30241 layer_factory.hpp:77] Creating layer relu6
I1018 00:13:12.597453 30241 net.cpp:84] Creating Layer relu6
I1018 00:13:12.597470 30241 net.cpp:406] relu6 <- fc6-conv
I1018 00:13:12.597481 30241 net.cpp:367] relu6 -> fc6-conv (in-place)
I1018 00:13:12.597497 30241 net.cpp:122] Setting up relu6
I1018 00:13:12.597506 30241 net.cpp:129] Top shape: 4 4096 3 3 (147456)
I1018 00:13:12.597510 30241 net.cpp:137] Memory required for data: 762274064
I1018 00:13:12.597515 30241 layer_factory.hpp:77] Creating layer drop6
I1018 00:13:12.597533 30241 net.cpp:84] Creating Layer drop6
I1018 00:13:12.597540 30241 net.cpp:406] drop6 <- fc6-conv
I1018 00:13:12.597546 30241 net.cpp:367] drop6 -> fc6-conv (in-place)
I1018 00:13:12.597578 30241 net.cpp:122] Setting up drop6
I1018 00:13:12.597586 30241 net.cpp:129] Top shape: 4 4096 3 3 (147456)
I1018 00:13:12.597590 30241 net.cpp:137] Memory required for data: 762863888
I1018 00:13:12.597594 30241 layer_factory.hpp:77] Creating layer fc6-conv_re
I1018 00:13:12.597605 30241 net.cpp:84] Creating Layer fc6-conv_re
I1018 00:13:12.597611 30241 net.cpp:406] fc6-conv_re <- fc6-conv
I1018 00:13:12.597620 30241 net.cpp:380] fc6-conv_re -> fc6-conv_re
I1018 00:13:12.597661 30241 net.cpp:122] Setting up fc6-conv_re
I1018 00:13:12.597668 30241 net.cpp:129] Top shape: 4 4096 9 (147456)
I1018 00:13:12.597672 30241 net.cpp:137] Memory required for data: 763453712
I1018 00:13:12.597677 30241 layer_factory.hpp:77] Creating layer fc6-conv_tran
I1018 00:13:12.597815 30241 net.cpp:84] Creating Layer fc6-conv_tran
I1018 00:13:12.597826 30241 net.cpp:406] fc6-conv_tran <- fc6-conv_re
I1018 00:13:12.597833 30241 net.cpp:380] fc6-conv_tran -> fc6-conv_tran
I1018 00:13:12.598923 30241 net.cpp:122] Setting up fc6-conv_tran
I1018 00:13:12.598939 30241 net.cpp:129] Top shape: 4 4 4096 (65536)
I1018 00:13:12.598956 30241 net.cpp:137] Memory required for data: 763715856
I1018 00:13:12.598960 30241 layer_factory.hpp:77] Creating layer lstm1
I1018 00:13:12.598979 30241 net.cpp:84] Creating Layer lstm1
I1018 00:13:12.598986 30241 net.cpp:406] lstm1 <- fc6-conv_tran
I1018 00:13:12.599001 30241 net.cpp:406] lstm1 <- clip_markers
I1018 00:13:12.599028 30241 net.cpp:380] lstm1 -> lstm1
I1018 00:13:12.599047 30241 recurrent_layer.cpp:20] Initializing recurrent layer: assuming input batch contains 4 timesteps of 4 independent streams.
I1018 00:13:12.599509 30241 net.cpp:51] Initializing net from parameters: 
layer {
  name: "lstm1_"
  type: "Input"
  top: "x"
  top: "cont"
  input_param {
    shape {
      dim: 4
      dim: 4
      dim: 4096
    }
    shape {
      dim: 4
      dim: 4
    }
  }
}
layer {
  name: "lstm1_"
  type: "Input"
  top: "c_0"
  top: "h_0"
  input_param {
    shape {
      dim: 1
      dim: 4
      dim: 512
    }
    shape {
      dim: 1
      dim: 4
      dim: 512
    }
  }
}
layer {
  name: "lstm1_cont_slice"
  type: "Slice"
  bottom: "cont"
  top: "cont_1"
  top: "cont_2"
  top: "cont_3"
  top: "cont_4"
  slice_param {
    axis: 0
  }
}
layer {
  name: "lstm1_x_transform"
  type: "InnerProduct"
  bottom: "x"
  top: "W_xc_x"
  param {
    name: "W_xc"
  }
  param {
    name: "b_c"
  }
  propagate_down: true
  inner_product_param {
    num_output: 2048
    bias_term: true
    weight_filler {
      type: "uniform"
      min: -0.01
      max: 0.01
    }
    bias_filler {
      type: "constant"
      value: 0
    }
    axis: 2
  }
}
layer {
  name: "lstm1_W_xc_x_slice"
  type: "Slice"
  bottom: "W_xc_x"
  top: "W_xc_x_1"
  top: "W_xc_x_2"
  top: "W_xc_x_3"
  top: "W_xc_x_4"
  slice_param {
    axis: 0
  }
}
layer {
  name: "lstm1_h_conted_0"
  type: "Scale"
  bottom: "h_0"
  bottom: "cont_1"
  top: "h_conted_0"
  scale_param {
    axis: 0
  }
}
layer {
  name: "lstm1_transform_1"
  type: "InnerProduct"
  bottom: "h_conted_0"
  top: "W_hc_h_0"
  param {
    name: "W_hc"
  }
  inner_product_param {
    num_output: 2048
    bias_term: false
    weight_filler {
      type: "uniform"
      min: -0.01
      max: 0.01
    }
    axis: 2
  }
}
layer {
  name: "lstm1_gate_input_1"
  type: "Eltwise"
  bottom: "W_hc_h_0"
  bottom: "W_xc_x_1"
  top: "gate_input_1"
  eltwise_param {
    operation: SUM
  }
}
layer {
  name: "lstm1_unit_1"
  type: "LSTMUnit"
  bottom: "c_0"
  bottom: "gate_input_1"
  bottom: "cont_1"
  top: "c_1"
  top: "h_1"
}
layer {
  name: "lstm1_h_conted_1"
  type: "Scale"
  bottom: "h_1"
  bottom: "cont_2"
  top: "h_conted_1"
  scale_param {
    axis: 0
  }
}
layer {
  name: "lstm1_transform_2"
  type: "InnerProduct"
  bottom: "h_conted_1"
  top: "W_hc_h_1"
  param {
    name: "W_hc"
  }
  inner_product_param {
    num_output: 2048
    bias_term: false
    weight_filler {
      type: "uniform"
      min: -0.01
      max: 0.01
    }
    axis: 2
  }
}
layer {
  name: "lstm1_gate_input_2"
  type: "Eltwise"
  bottom: "W_hc_h_1"
  bottom: "W_xc_x_2"
  top: "gate_input_2"
  eltwise_param {
    operation: SUM
  }
}
layer {
  name: "lstm1_unit_2"
  type: "LSTMUnit"
  bottom: "c_1"
  bottom: "gate_input_2"
  bottom: "cont_2"
  top: "c_2"
  top: "h_2"
}
layer {
  name: "lstm1_h_conted_2"
  type: "Scale"
  bottom: "h_2"
  bottom: "cont_3"
  top: "h_conted_2"
  scale_param {
    axis: 0
  }
}
layer {
  name: "lstm1_transform_3"
  type: "InnerProduct"
  bottom: "h_conted_2"
  top: "W_hc_h_2"
  param {
    name: "W_hc"
  }
  inner_product_param {
    num_output: 2048
    bias_term: false
    weight_filler {
      type: "uniform"
      min: -0.01
      max: 0.01
    }
    axis: 2
  }
}
layer {
  name: "lstm1_gate_input_3"
  type: "Eltwise"
  bottom: "W_hc_h_2"
  bottom: "W_xc_x_3"
  top: "gate_input_3"
  eltwise_param {
    operation: SUM
  }
}
layer {
  name: "lstm1_unit_3"
  type: "LSTMUnit"
  bottom: "c_2"
  bottom: "gate_input_3"
  bottom: "cont_3"
  top: "c_3"
  top: "h_3"
}
layer {
  name: "lstm1_h_conted_3"
  type: "Scale"
  bottom: "h_3"
  bottom: "cont_4"
  top: "h_conted_3"
  scale_param {
    axis: 0
  }
}
layer {
  name: "lstm1_transform_4"
  type: "InnerProduct"
  bottom: "h_conted_3"
  top: "W_hc_h_3"
  param {
    name: "W_hc"
  }
  inner_product_param {
    num_output: 2048
    bias_term: false
    weight_filler {
      type: "uniform"
      min: -0.01
      max: 0.01
    }
    axis: 2
  }
}
layer {
  name: "lstm1_gate_input_4"
  type: "Eltwise"
  bottom: "W_hc_h_3"
  bottom: "W_xc_x_4"
  top: "gate_input_4"
  eltwise_param {
    operation: SUM
  }
}
layer {
  name: "lstm1_unit_4"
  type: "LSTMUnit"
  bottom: "c_3"
  bottom: "gate_input_4"
  bottom: "cont_4"
  top: "c_4"
  top: "h_4"
}
layer {
  name: "lstm1_"
  type: "Split"
  bottom: "c_4"
  top: "c_T"
}
layer {
  name: "lstm1_h_concat"
  type: "Concat"
  bottom: "h_1"
  bottom: "h_2"
  bottom: "h_3"
  bottom: "h_4"
  top: "h"
  concat_param {
    axis: 0
  }
}
layer {
  name: "h_pseudoloss"
  type: "Reduction"
  bottom: "h"
  top: "h_pseudoloss"
  loss_weight: 1
}
I1018 00:13:12.599690 30241 layer_factory.hpp:77] Creating layer lstm1_
I1018 00:13:12.599705 30241 net.cpp:84] Creating Layer lstm1_
I1018 00:13:12.599714 30241 net.cpp:380] lstm1_ -> x
I1018 00:13:12.599726 30241 net.cpp:380] lstm1_ -> cont
I1018 00:13:12.599774 30241 net.cpp:122] Setting up lstm1_
I1018 00:13:12.599784 30241 net.cpp:129] Top shape: 4 4 4096 (65536)
I1018 00:13:12.599789 30241 net.cpp:129] Top shape: 4 4 (16)
I1018 00:13:12.599797 30241 net.cpp:137] Memory required for data: 262208
I1018 00:13:12.599802 30241 layer_factory.hpp:77] Creating layer lstm1_
I1018 00:13:12.599807 30241 net.cpp:84] Creating Layer lstm1_
I1018 00:13:12.599812 30241 net.cpp:380] lstm1_ -> c_0
I1018 00:13:12.599822 30241 net.cpp:380] lstm1_ -> h_0
I1018 00:13:12.599877 30241 net.cpp:122] Setting up lstm1_
I1018 00:13:12.599887 30241 net.cpp:129] Top shape: 1 4 512 (2048)
I1018 00:13:12.599892 30241 net.cpp:129] Top shape: 1 4 512 (2048)
I1018 00:13:12.599900 30241 net.cpp:137] Memory required for data: 278592
I1018 00:13:12.599903 30241 layer_factory.hpp:77] Creating layer lstm1_cont_slice
I1018 00:13:12.599915 30241 net.cpp:84] Creating Layer lstm1_cont_slice
I1018 00:13:12.599920 30241 net.cpp:406] lstm1_cont_slice <- cont
I1018 00:13:12.599930 30241 net.cpp:380] lstm1_cont_slice -> cont_1
I1018 00:13:12.599938 30241 net.cpp:380] lstm1_cont_slice -> cont_2
I1018 00:13:12.599946 30241 net.cpp:380] lstm1_cont_slice -> cont_3
I1018 00:13:12.599952 30241 net.cpp:380] lstm1_cont_slice -> cont_4
I1018 00:13:12.600023 30241 net.cpp:122] Setting up lstm1_cont_slice
I1018 00:13:12.600039 30241 net.cpp:129] Top shape: 1 4 (4)
I1018 00:13:12.600044 30241 net.cpp:129] Top shape: 1 4 (4)
I1018 00:13:12.600049 30241 net.cpp:129] Top shape: 1 4 (4)
I1018 00:13:12.600054 30241 net.cpp:129] Top shape: 1 4 (4)
I1018 00:13:12.600057 30241 net.cpp:137] Memory required for data: 278656
I1018 00:13:12.600061 30241 layer_factory.hpp:77] Creating layer cont_1_lstm1_cont_slice_0_split
I1018 00:13:12.600069 30241 net.cpp:84] Creating Layer cont_1_lstm1_cont_slice_0_split
I1018 00:13:12.600077 30241 net.cpp:406] cont_1_lstm1_cont_slice_0_split <- cont_1
I1018 00:13:12.600083 30241 net.cpp:380] cont_1_lstm1_cont_slice_0_split -> cont_1_lstm1_cont_slice_0_split_0
I1018 00:13:12.600091 30241 net.cpp:380] cont_1_lstm1_cont_slice_0_split -> cont_1_lstm1_cont_slice_0_split_1
I1018 00:13:12.600127 30241 net.cpp:122] Setting up cont_1_lstm1_cont_slice_0_split
I1018 00:13:12.600136 30241 net.cpp:129] Top shape: 1 4 (4)
I1018 00:13:12.600142 30241 net.cpp:129] Top shape: 1 4 (4)
I1018 00:13:12.600144 30241 net.cpp:137] Memory required for data: 278688
I1018 00:13:12.600148 30241 layer_factory.hpp:77] Creating layer cont_2_lstm1_cont_slice_1_split
I1018 00:13:12.600154 30241 net.cpp:84] Creating Layer cont_2_lstm1_cont_slice_1_split
I1018 00:13:12.600158 30241 net.cpp:406] cont_2_lstm1_cont_slice_1_split <- cont_2
I1018 00:13:12.600167 30241 net.cpp:380] cont_2_lstm1_cont_slice_1_split -> cont_2_lstm1_cont_slice_1_split_0
I1018 00:13:12.600173 30241 net.cpp:380] cont_2_lstm1_cont_slice_1_split -> cont_2_lstm1_cont_slice_1_split_1
I1018 00:13:12.600204 30241 net.cpp:122] Setting up cont_2_lstm1_cont_slice_1_split
I1018 00:13:12.600213 30241 net.cpp:129] Top shape: 1 4 (4)
I1018 00:13:12.600217 30241 net.cpp:129] Top shape: 1 4 (4)
I1018 00:13:12.600221 30241 net.cpp:137] Memory required for data: 278720
I1018 00:13:12.600225 30241 layer_factory.hpp:77] Creating layer cont_3_lstm1_cont_slice_2_split
I1018 00:13:12.600231 30241 net.cpp:84] Creating Layer cont_3_lstm1_cont_slice_2_split
I1018 00:13:12.600236 30241 net.cpp:406] cont_3_lstm1_cont_slice_2_split <- cont_3
I1018 00:13:12.600241 30241 net.cpp:380] cont_3_lstm1_cont_slice_2_split -> cont_3_lstm1_cont_slice_2_split_0
I1018 00:13:12.600250 30241 net.cpp:380] cont_3_lstm1_cont_slice_2_split -> cont_3_lstm1_cont_slice_2_split_1
I1018 00:13:12.600281 30241 net.cpp:122] Setting up cont_3_lstm1_cont_slice_2_split
I1018 00:13:12.600288 30241 net.cpp:129] Top shape: 1 4 (4)
I1018 00:13:12.600293 30241 net.cpp:129] Top shape: 1 4 (4)
I1018 00:13:12.600297 30241 net.cpp:137] Memory required for data: 278752
I1018 00:13:12.600301 30241 layer_factory.hpp:77] Creating layer cont_4_lstm1_cont_slice_3_split
I1018 00:13:12.600306 30241 net.cpp:84] Creating Layer cont_4_lstm1_cont_slice_3_split
I1018 00:13:12.600309 30241 net.cpp:406] cont_4_lstm1_cont_slice_3_split <- cont_4
I1018 00:13:12.600316 30241 net.cpp:380] cont_4_lstm1_cont_slice_3_split -> cont_4_lstm1_cont_slice_3_split_0
I1018 00:13:12.600322 30241 net.cpp:380] cont_4_lstm1_cont_slice_3_split -> cont_4_lstm1_cont_slice_3_split_1
I1018 00:13:12.600353 30241 net.cpp:122] Setting up cont_4_lstm1_cont_slice_3_split
I1018 00:13:12.600359 30241 net.cpp:129] Top shape: 1 4 (4)
I1018 00:13:12.600364 30241 net.cpp:129] Top shape: 1 4 (4)
I1018 00:13:12.600368 30241 net.cpp:137] Memory required for data: 278784
I1018 00:13:12.600371 30241 layer_factory.hpp:77] Creating layer lstm1_x_transform
I1018 00:13:12.600383 30241 net.cpp:84] Creating Layer lstm1_x_transform
I1018 00:13:12.600388 30241 net.cpp:406] lstm1_x_transform <- x
I1018 00:13:12.600395 30241 net.cpp:380] lstm1_x_transform -> W_xc_x
I1018 00:13:12.693806 30241 net.cpp:122] Setting up lstm1_x_transform
I1018 00:13:12.693853 30241 net.cpp:129] Top shape: 4 4 2048 (32768)
I1018 00:13:12.693859 30241 net.cpp:137] Memory required for data: 409856
I1018 00:13:12.693877 30241 layer_factory.hpp:77] Creating layer lstm1_W_xc_x_slice
I1018 00:13:12.693893 30241 net.cpp:84] Creating Layer lstm1_W_xc_x_slice
I1018 00:13:12.693899 30241 net.cpp:406] lstm1_W_xc_x_slice <- W_xc_x
I1018 00:13:12.693910 30241 net.cpp:380] lstm1_W_xc_x_slice -> W_xc_x_1
I1018 00:13:12.693927 30241 net.cpp:380] lstm1_W_xc_x_slice -> W_xc_x_2
I1018 00:13:12.693934 30241 net.cpp:380] lstm1_W_xc_x_slice -> W_xc_x_3
I1018 00:13:12.693940 30241 net.cpp:380] lstm1_W_xc_x_slice -> W_xc_x_4
I1018 00:13:12.694005 30241 net.cpp:122] Setting up lstm1_W_xc_x_slice
I1018 00:13:12.694015 30241 net.cpp:129] Top shape: 1 4 2048 (8192)
I1018 00:13:12.694020 30241 net.cpp:129] Top shape: 1 4 2048 (8192)
I1018 00:13:12.694025 30241 net.cpp:129] Top shape: 1 4 2048 (8192)
I1018 00:13:12.694030 30241 net.cpp:129] Top shape: 1 4 2048 (8192)
I1018 00:13:12.694033 30241 net.cpp:137] Memory required for data: 540928
I1018 00:13:12.694037 30241 layer_factory.hpp:77] Creating layer lstm1_h_conted_0
I1018 00:13:12.694057 30241 net.cpp:84] Creating Layer lstm1_h_conted_0
I1018 00:13:12.694064 30241 net.cpp:406] lstm1_h_conted_0 <- h_0
I1018 00:13:12.694070 30241 net.cpp:406] lstm1_h_conted_0 <- cont_1_lstm1_cont_slice_0_split_0
I1018 00:13:12.694077 30241 net.cpp:380] lstm1_h_conted_0 -> h_conted_0
I1018 00:13:12.694180 30241 net.cpp:122] Setting up lstm1_h_conted_0
I1018 00:13:12.694191 30241 net.cpp:129] Top shape: 1 4 512 (2048)
I1018 00:13:12.694195 30241 net.cpp:137] Memory required for data: 549120
I1018 00:13:12.694200 30241 layer_factory.hpp:77] Creating layer lstm1_transform_1
I1018 00:13:12.694216 30241 net.cpp:84] Creating Layer lstm1_transform_1
I1018 00:13:12.694219 30241 net.cpp:406] lstm1_transform_1 <- h_conted_0
I1018 00:13:12.694229 30241 net.cpp:380] lstm1_transform_1 -> W_hc_h_0
I1018 00:13:12.705940 30241 net.cpp:122] Setting up lstm1_transform_1
I1018 00:13:12.705957 30241 net.cpp:129] Top shape: 1 4 2048 (8192)
I1018 00:13:12.705962 30241 net.cpp:137] Memory required for data: 581888
I1018 00:13:12.705971 30241 layer_factory.hpp:77] Creating layer lstm1_gate_input_1
I1018 00:13:12.705981 30241 net.cpp:84] Creating Layer lstm1_gate_input_1
I1018 00:13:12.705986 30241 net.cpp:406] lstm1_gate_input_1 <- W_hc_h_0
I1018 00:13:12.705991 30241 net.cpp:406] lstm1_gate_input_1 <- W_xc_x_1
I1018 00:13:12.705997 30241 net.cpp:380] lstm1_gate_input_1 -> gate_input_1
I1018 00:13:12.706030 30241 net.cpp:122] Setting up lstm1_gate_input_1
I1018 00:13:12.706039 30241 net.cpp:129] Top shape: 1 4 2048 (8192)
I1018 00:13:12.706043 30241 net.cpp:137] Memory required for data: 614656
I1018 00:13:12.706048 30241 layer_factory.hpp:77] Creating layer lstm1_unit_1
I1018 00:13:12.706058 30241 net.cpp:84] Creating Layer lstm1_unit_1
I1018 00:13:12.706064 30241 net.cpp:406] lstm1_unit_1 <- c_0
I1018 00:13:12.706070 30241 net.cpp:406] lstm1_unit_1 <- gate_input_1
I1018 00:13:12.706075 30241 net.cpp:406] lstm1_unit_1 <- cont_1_lstm1_cont_slice_0_split_1
I1018 00:13:12.706081 30241 net.cpp:380] lstm1_unit_1 -> c_1
I1018 00:13:12.706089 30241 net.cpp:380] lstm1_unit_1 -> h_1
I1018 00:13:12.706136 30241 net.cpp:122] Setting up lstm1_unit_1
I1018 00:13:12.706146 30241 net.cpp:129] Top shape: 1 4 512 (2048)
I1018 00:13:12.706149 30241 net.cpp:129] Top shape: 1 4 512 (2048)
I1018 00:13:12.706153 30241 net.cpp:137] Memory required for data: 631040
I1018 00:13:12.706158 30241 layer_factory.hpp:77] Creating layer h_1_lstm1_unit_1_1_split
I1018 00:13:12.706164 30241 net.cpp:84] Creating Layer h_1_lstm1_unit_1_1_split
I1018 00:13:12.706169 30241 net.cpp:406] h_1_lstm1_unit_1_1_split <- h_1
I1018 00:13:12.706177 30241 net.cpp:380] h_1_lstm1_unit_1_1_split -> h_1_lstm1_unit_1_1_split_0
I1018 00:13:12.706187 30241 net.cpp:380] h_1_lstm1_unit_1_1_split -> h_1_lstm1_unit_1_1_split_1
I1018 00:13:12.706218 30241 net.cpp:122] Setting up h_1_lstm1_unit_1_1_split
I1018 00:13:12.706225 30241 net.cpp:129] Top shape: 1 4 512 (2048)
I1018 00:13:12.706229 30241 net.cpp:129] Top shape: 1 4 512 (2048)
I1018 00:13:12.706233 30241 net.cpp:137] Memory required for data: 647424
I1018 00:13:12.706238 30241 layer_factory.hpp:77] Creating layer lstm1_h_conted_1
I1018 00:13:12.706246 30241 net.cpp:84] Creating Layer lstm1_h_conted_1
I1018 00:13:12.706254 30241 net.cpp:406] lstm1_h_conted_1 <- h_1_lstm1_unit_1_1_split_0
I1018 00:13:12.706259 30241 net.cpp:406] lstm1_h_conted_1 <- cont_2_lstm1_cont_slice_1_split_0
I1018 00:13:12.706264 30241 net.cpp:380] lstm1_h_conted_1 -> h_conted_1
I1018 00:13:12.706320 30241 net.cpp:122] Setting up lstm1_h_conted_1
I1018 00:13:12.706328 30241 net.cpp:129] Top shape: 1 4 512 (2048)
I1018 00:13:12.706332 30241 net.cpp:137] Memory required for data: 655616
I1018 00:13:12.706336 30241 layer_factory.hpp:77] Creating layer lstm1_transform_2
I1018 00:13:12.706346 30241 net.cpp:84] Creating Layer lstm1_transform_2
I1018 00:13:12.706352 30241 net.cpp:406] lstm1_transform_2 <- h_conted_1
I1018 00:13:12.706359 30241 net.cpp:380] lstm1_transform_2 -> W_hc_h_1
I1018 00:13:12.718190 30241 net.cpp:122] Setting up lstm1_transform_2
I1018 00:13:12.718207 30241 net.cpp:129] Top shape: 1 4 2048 (8192)
I1018 00:13:12.718224 30241 net.cpp:137] Memory required for data: 688384
I1018 00:13:12.718230 30241 net.cpp:465] Sharing parameters 'W_hc' owned by layer 'lstm1_transform_1', param index 0
I1018 00:13:12.718235 30241 layer_factory.hpp:77] Creating layer lstm1_gate_input_2
I1018 00:13:12.718248 30241 net.cpp:84] Creating Layer lstm1_gate_input_2
I1018 00:13:12.718252 30241 net.cpp:406] lstm1_gate_input_2 <- W_hc_h_1
I1018 00:13:12.718260 30241 net.cpp:406] lstm1_gate_input_2 <- W_xc_x_2
I1018 00:13:12.718268 30241 net.cpp:380] lstm1_gate_input_2 -> gate_input_2
I1018 00:13:12.718302 30241 net.cpp:122] Setting up lstm1_gate_input_2
I1018 00:13:12.718309 30241 net.cpp:129] Top shape: 1 4 2048 (8192)
I1018 00:13:12.718313 30241 net.cpp:137] Memory required for data: 721152
I1018 00:13:12.718317 30241 layer_factory.hpp:77] Creating layer lstm1_unit_2
I1018 00:13:12.718327 30241 net.cpp:84] Creating Layer lstm1_unit_2
I1018 00:13:12.718330 30241 net.cpp:406] lstm1_unit_2 <- c_1
I1018 00:13:12.718336 30241 net.cpp:406] lstm1_unit_2 <- gate_input_2
I1018 00:13:12.718341 30241 net.cpp:406] lstm1_unit_2 <- cont_2_lstm1_cont_slice_1_split_1
I1018 00:13:12.718351 30241 net.cpp:380] lstm1_unit_2 -> c_2
I1018 00:13:12.718359 30241 net.cpp:380] lstm1_unit_2 -> h_2
I1018 00:13:12.718406 30241 net.cpp:122] Setting up lstm1_unit_2
I1018 00:13:12.718415 30241 net.cpp:129] Top shape: 1 4 512 (2048)
I1018 00:13:12.718420 30241 net.cpp:129] Top shape: 1 4 512 (2048)
I1018 00:13:12.718425 30241 net.cpp:137] Memory required for data: 737536
I1018 00:13:12.718428 30241 layer_factory.hpp:77] Creating layer h_2_lstm1_unit_2_1_split
I1018 00:13:12.718435 30241 net.cpp:84] Creating Layer h_2_lstm1_unit_2_1_split
I1018 00:13:12.718438 30241 net.cpp:406] h_2_lstm1_unit_2_1_split <- h_2
I1018 00:13:12.718446 30241 net.cpp:380] h_2_lstm1_unit_2_1_split -> h_2_lstm1_unit_2_1_split_0
I1018 00:13:12.718454 30241 net.cpp:380] h_2_lstm1_unit_2_1_split -> h_2_lstm1_unit_2_1_split_1
I1018 00:13:12.718487 30241 net.cpp:122] Setting up h_2_lstm1_unit_2_1_split
I1018 00:13:12.718495 30241 net.cpp:129] Top shape: 1 4 512 (2048)
I1018 00:13:12.718500 30241 net.cpp:129] Top shape: 1 4 512 (2048)
I1018 00:13:12.718504 30241 net.cpp:137] Memory required for data: 753920
I1018 00:13:12.718508 30241 layer_factory.hpp:77] Creating layer lstm1_h_conted_2
I1018 00:13:12.718515 30241 net.cpp:84] Creating Layer lstm1_h_conted_2
I1018 00:13:12.718519 30241 net.cpp:406] lstm1_h_conted_2 <- h_2_lstm1_unit_2_1_split_0
I1018 00:13:12.718525 30241 net.cpp:406] lstm1_h_conted_2 <- cont_3_lstm1_cont_slice_2_split_0
I1018 00:13:12.718531 30241 net.cpp:380] lstm1_h_conted_2 -> h_conted_2
I1018 00:13:12.718590 30241 net.cpp:122] Setting up lstm1_h_conted_2
I1018 00:13:12.718597 30241 net.cpp:129] Top shape: 1 4 512 (2048)
I1018 00:13:12.718601 30241 net.cpp:137] Memory required for data: 762112
I1018 00:13:12.718605 30241 layer_factory.hpp:77] Creating layer lstm1_transform_3
I1018 00:13:12.718613 30241 net.cpp:84] Creating Layer lstm1_transform_3
I1018 00:13:12.718617 30241 net.cpp:406] lstm1_transform_3 <- h_conted_2
I1018 00:13:12.718624 30241 net.cpp:380] lstm1_transform_3 -> W_hc_h_2
I1018 00:13:12.732744 30241 net.cpp:122] Setting up lstm1_transform_3
I1018 00:13:12.732789 30241 net.cpp:129] Top shape: 1 4 2048 (8192)
I1018 00:13:12.732792 30241 net.cpp:137] Memory required for data: 794880
I1018 00:13:12.732806 30241 net.cpp:465] Sharing parameters 'W_hc' owned by layer 'lstm1_transform_1', param index 0
I1018 00:13:12.732813 30241 layer_factory.hpp:77] Creating layer lstm1_gate_input_3
I1018 00:13:12.732825 30241 net.cpp:84] Creating Layer lstm1_gate_input_3
I1018 00:13:12.732834 30241 net.cpp:406] lstm1_gate_input_3 <- W_hc_h_2
I1018 00:13:12.732843 30241 net.cpp:406] lstm1_gate_input_3 <- W_xc_x_3
I1018 00:13:12.732851 30241 net.cpp:380] lstm1_gate_input_3 -> gate_input_3
I1018 00:13:12.732892 30241 net.cpp:122] Setting up lstm1_gate_input_3
I1018 00:13:12.732900 30241 net.cpp:129] Top shape: 1 4 2048 (8192)
I1018 00:13:12.732904 30241 net.cpp:137] Memory required for data: 827648
I1018 00:13:12.732908 30241 layer_factory.hpp:77] Creating layer lstm1_unit_3
I1018 00:13:12.732925 30241 net.cpp:84] Creating Layer lstm1_unit_3
I1018 00:13:12.732933 30241 net.cpp:406] lstm1_unit_3 <- c_2
I1018 00:13:12.732939 30241 net.cpp:406] lstm1_unit_3 <- gate_input_3
I1018 00:13:12.732944 30241 net.cpp:406] lstm1_unit_3 <- cont_3_lstm1_cont_slice_2_split_1
I1018 00:13:12.732950 30241 net.cpp:380] lstm1_unit_3 -> c_3
I1018 00:13:12.732959 30241 net.cpp:380] lstm1_unit_3 -> h_3
I1018 00:13:12.733070 30241 net.cpp:122] Setting up lstm1_unit_3
I1018 00:13:12.733170 30241 net.cpp:129] Top shape: 1 4 512 (2048)
I1018 00:13:12.733230 30241 net.cpp:129] Top shape: 1 4 512 (2048)
I1018 00:13:12.733258 30241 net.cpp:137] Memory required for data: 844032
I1018 00:13:12.733328 30241 layer_factory.hpp:77] Creating layer h_3_lstm1_unit_3_1_split
I1018 00:13:12.733448 30241 net.cpp:84] Creating Layer h_3_lstm1_unit_3_1_split
I1018 00:13:12.733592 30241 net.cpp:406] h_3_lstm1_unit_3_1_split <- h_3
I1018 00:13:12.733748 30241 net.cpp:380] h_3_lstm1_unit_3_1_split -> h_3_lstm1_unit_3_1_split_0
I1018 00:13:12.733827 30241 net.cpp:380] h_3_lstm1_unit_3_1_split -> h_3_lstm1_unit_3_1_split_1
I1018 00:13:12.734187 30241 net.cpp:122] Setting up h_3_lstm1_unit_3_1_split
I1018 00:13:12.734342 30241 net.cpp:129] Top shape: 1 4 512 (2048)
I1018 00:13:12.734370 30241 net.cpp:129] Top shape: 1 4 512 (2048)
I1018 00:13:12.734380 30241 net.cpp:137] Memory required for data: 860416
I1018 00:13:12.734385 30241 layer_factory.hpp:77] Creating layer lstm1_h_conted_3
I1018 00:13:12.734395 30241 net.cpp:84] Creating Layer lstm1_h_conted_3
I1018 00:13:12.734400 30241 net.cpp:406] lstm1_h_conted_3 <- h_3_lstm1_unit_3_1_split_0
I1018 00:13:12.734405 30241 net.cpp:406] lstm1_h_conted_3 <- cont_4_lstm1_cont_slice_3_split_0
I1018 00:13:12.734411 30241 net.cpp:380] lstm1_h_conted_3 -> h_conted_3
I1018 00:13:12.734478 30241 net.cpp:122] Setting up lstm1_h_conted_3
I1018 00:13:12.734488 30241 net.cpp:129] Top shape: 1 4 512 (2048)
I1018 00:13:12.734491 30241 net.cpp:137] Memory required for data: 868608
I1018 00:13:12.734496 30241 layer_factory.hpp:77] Creating layer lstm1_transform_4
I1018 00:13:12.734508 30241 net.cpp:84] Creating Layer lstm1_transform_4
I1018 00:13:12.734513 30241 net.cpp:406] lstm1_transform_4 <- h_conted_3
I1018 00:13:12.734520 30241 net.cpp:380] lstm1_transform_4 -> W_hc_h_3
I1018 00:13:12.758100 30241 net.cpp:122] Setting up lstm1_transform_4
I1018 00:13:12.758137 30241 net.cpp:129] Top shape: 1 4 2048 (8192)
I1018 00:13:12.758142 30241 net.cpp:137] Memory required for data: 901376
I1018 00:13:12.758152 30241 net.cpp:465] Sharing parameters 'W_hc' owned by layer 'lstm1_transform_1', param index 0
I1018 00:13:12.758157 30241 layer_factory.hpp:77] Creating layer lstm1_gate_input_4
I1018 00:13:12.758170 30241 net.cpp:84] Creating Layer lstm1_gate_input_4
I1018 00:13:12.758177 30241 net.cpp:406] lstm1_gate_input_4 <- W_hc_h_3
I1018 00:13:12.758186 30241 net.cpp:406] lstm1_gate_input_4 <- W_xc_x_4
I1018 00:13:12.758194 30241 net.cpp:380] lstm1_gate_input_4 -> gate_input_4
I1018 00:13:12.758231 30241 net.cpp:122] Setting up lstm1_gate_input_4
I1018 00:13:12.758240 30241 net.cpp:129] Top shape: 1 4 2048 (8192)
I1018 00:13:12.758244 30241 net.cpp:137] Memory required for data: 934144
I1018 00:13:12.758249 30241 layer_factory.hpp:77] Creating layer lstm1_unit_4
I1018 00:13:12.758256 30241 net.cpp:84] Creating Layer lstm1_unit_4
I1018 00:13:12.758260 30241 net.cpp:406] lstm1_unit_4 <- c_3
I1018 00:13:12.758266 30241 net.cpp:406] lstm1_unit_4 <- gate_input_4
I1018 00:13:12.758271 30241 net.cpp:406] lstm1_unit_4 <- cont_4_lstm1_cont_slice_3_split_1
I1018 00:13:12.758280 30241 net.cpp:380] lstm1_unit_4 -> c_4
I1018 00:13:12.758287 30241 net.cpp:380] lstm1_unit_4 -> h_4
I1018 00:13:12.758333 30241 net.cpp:122] Setting up lstm1_unit_4
I1018 00:13:12.758342 30241 net.cpp:129] Top shape: 1 4 512 (2048)
I1018 00:13:12.758347 30241 net.cpp:129] Top shape: 1 4 512 (2048)
I1018 00:13:12.758352 30241 net.cpp:137] Memory required for data: 950528
I1018 00:13:12.758355 30241 layer_factory.hpp:77] Creating layer lstm1_
I1018 00:13:12.758361 30241 net.cpp:84] Creating Layer lstm1_
I1018 00:13:12.758366 30241 net.cpp:406] lstm1_ <- c_4
I1018 00:13:12.758373 30241 net.cpp:380] lstm1_ -> c_T
I1018 00:13:12.758396 30241 net.cpp:122] Setting up lstm1_
I1018 00:13:12.758405 30241 net.cpp:129] Top shape: 1 4 512 (2048)
I1018 00:13:12.758409 30241 net.cpp:137] Memory required for data: 958720
I1018 00:13:12.758414 30241 layer_factory.hpp:77] Creating layer lstm1_h_concat
I1018 00:13:12.758421 30241 net.cpp:84] Creating Layer lstm1_h_concat
I1018 00:13:12.758425 30241 net.cpp:406] lstm1_h_concat <- h_1_lstm1_unit_1_1_split_1
I1018 00:13:12.758431 30241 net.cpp:406] lstm1_h_concat <- h_2_lstm1_unit_2_1_split_1
I1018 00:13:12.758436 30241 net.cpp:406] lstm1_h_concat <- h_3_lstm1_unit_3_1_split_1
I1018 00:13:12.758447 30241 net.cpp:406] lstm1_h_concat <- h_4
I1018 00:13:12.758452 30241 net.cpp:380] lstm1_h_concat -> h
I1018 00:13:12.758484 30241 net.cpp:122] Setting up lstm1_h_concat
I1018 00:13:12.758492 30241 net.cpp:129] Top shape: 4 4 512 (8192)
I1018 00:13:12.758496 30241 net.cpp:137] Memory required for data: 991488
I1018 00:13:12.758500 30241 layer_factory.hpp:77] Creating layer h_pseudoloss
I1018 00:13:12.758510 30241 net.cpp:84] Creating Layer h_pseudoloss
I1018 00:13:12.758515 30241 net.cpp:406] h_pseudoloss <- h
I1018 00:13:12.758522 30241 net.cpp:380] h_pseudoloss -> h_pseudoloss
I1018 00:13:12.758623 30241 net.cpp:122] Setting up h_pseudoloss
…
I1018 00:13:12.760052 30241 net.cpp:200] lstm1_ does not need backward computation.
I1018 00:13:12.760057 30241 net.cpp:242] This network produces output c_T
I1018 00:13:12.760129 30241 net.cpp:242] This network produces output h_pseudoloss
I1018 00:13:12.767191 30241 net.cpp:255] Network initialization done.
I1018 00:13:12.769011 30241 recurrent_layer.cpp:150] Adding parameter 0: W_xc
I1018 00:13:12.769021 30241 recurrent_layer.cpp:150] Adding parameter 1: b_c
I1018 00:13:12.769026 30241 recurrent_layer.cpp:150] Adding parameter 2: W_hc
I1018 00:13:12.770128 30241 net.cpp:122] Setting up lstm1
I1018 00:13:12.770495 30241 net.cpp:129] Top shape: 4 4 512 (8192)
I1018 00:13:12.770500 30241 net.cpp:137] Memory required for data: 763748624
I1018 00:13:12.770514 30241 layer_factory.hpp:77] Creating layer lstm1-drop
I1018 00:13:12.770529 30241 net.cpp:84] Creating Layer lstm1-drop
I1018 00:13:12.770537 30241 net.cpp:406] lstm1-drop <- lstm1
I1018 00:13:12.770550 30241 net.cpp:380] lstm1-drop -> lstm1-drop
I1018 00:13:12.770607 30241 net.cpp:122] Setting up lstm1-drop
I1018 00:13:12.770619 30241 net.cpp:129] Top shape: 4 4 512 (8192)
I1018 00:13:12.770623 30241 net.cpp:137] Memory required for data: 763781392
I1018 00:13:12.770627 30241 layer_factory.hpp:77] Creating layer fc-final
I1018 00:13:12.770678 30241 net.cpp:84] Creating Layer fc-final
I1018 00:13:12.770826 30241 net.cpp:406] fc-final <- lstm1-drop
I1018 00:13:12.770939 30241 net.cpp:380] fc-final -> fc-final
I1018 00:13:12.773532 30241 net.cpp:122] Setting up fc-final
I1018 00:13:12.773545 30241 net.cpp:129] Top shape: 4 4 10 (160)
I1018 00:13:12.773550 30241 net.cpp:137] Memory required for data: 763782032
I1018 00:13:12.773622 30241 layer_factory.hpp:77] Creating layer fc-final_fc-final_0_split
I1018 00:13:12.773633 30241 net.cpp:84] Creating Layer fc-final_fc-final_0_split
I1018 00:13:12.773638 30241 net.cpp:406] fc-final_fc-final_0_split <- fc-final
I1018 00:13:12.773643 30241 net.cpp:380] fc-final_fc-final_0_split -> fc-final_fc-final_0_split_0
I1018 00:13:12.773654 30241 net.cpp:380] fc-final_fc-final_0_split -> fc-final_fc-final_0_split_1
I1018 00:13:12.773694 30241 net.cpp:122] Setting up fc-final_fc-final_0_split
I1018 00:13:12.773703 30241 net.cpp:129] Top shape: 4 4 10 (160)
I1018 00:13:12.773708 30241 net.cpp:129] Top shape: 4 4 10 (160)
I1018 00:13:12.773712 30241 net.cpp:137] Memory required for data: 763783312
I1018 00:13:12.773716 30241 layer_factory.hpp:77] Creating layer loss
I1018 00:13:12.773727 30241 net.cpp:84] Creating Layer loss
I1018 00:13:12.773732 30241 net.cpp:406] loss <- fc-final_fc-final_0_split_0
I1018 00:13:12.773748 30241 net.cpp:406] loss <- reshape-label_label_tran_0_split_0
I1018 00:13:12.773757 30241 net.cpp:380] loss -> loss
…
I1018 00:13:12.779539 30241 net.cpp:294] The NetState phase (1) differed from the phase (0) specified by a rule in layer data
I1018 00:13:12.779736 30241 net.cpp:51] Initializing net from parameters: 
name: "VGG_16_layers_LSTM"
state {
  phase: TEST
  stage: "test-on-test"
}
layer {
  name: "data"
  type: "ImageData"
  top: "data"
  top: "label"
  include {
    phase: TEST
  }
  transform_param {
    mirror: false
    crop_size: 288
    mean_value: 104
    mean_value: 117
    mean_value: 123
  }
  image_data_param {
    source: "../Data/lsun_val_list.txt"
    batch_size: 50
    new_height: 320
    new_width: 320
  }
}
layer {
  name: "Silence"
  type: "Silence"
  bottom: "label"
  include {
    phase: TEST
  }
}
layer {
  name: "label_tran"
  type: "Python"
  bottom: "label"
  top: "reshape-label"
  top: "clip_markers"
  python_param {
    module: "data_preparation_sort_max_clip"
    layer: "ReshapeLabel"
  }
}
layer {
  name: "conv1_1"
  type: "Convolution"
  bottom: "data"
  top: "conv1_1"
  convolution_param {
    num_output: 64
    pad: 1
    kernel_size: 3
  }
}
layer {
  name: "relu1_1"
  type: "ReLU"
  bottom: "conv1_1"
  top: "conv1_1"
}
layer {
  name: "conv1_2"
  type: "Convolution"
  bottom: "conv1_1"
  top: "conv1_2"
  convolution_param {
    num_output: 64
    pad: 1
    kernel_size: 3
  }
}
layer {
  name: "relu1_2"
  type: "ReLU"
  bottom: "conv1_2"
  top: "conv1_2"
}
layer {
  name: "pool1"
  type: "Pooling"
  bottom: "conv1_2"
  top: "pool1"
  pooling_param {
    pool: MAX
    kernel_size: 2
    stride: 2
  }
}
layer {
  name: "conv2_1"
  type: "Convolution"
  bottom: "pool1"
  top: "conv2_1"
  convolution_param {
    num_output: 128
    pad: 1
    kernel_size: 3
  }
}
layer {
  name: "relu2_1"
  type: "ReLU"
  bottom: "conv2_1"
  top: "conv2_1"
}
layer {
  name: "conv2_2"
  type: "Convolution"
  bottom: "conv2_1"
  top: "conv2_2"
  convolution_param {
    num_output: 128
    pad: 1
    kernel_size: 3
  }
}
layer {
  name: "relu2_2"
  type: "ReLU"
  bottom: "conv2_2"
  top: "conv2_2"
}
layer {
  name: "pool2"
  type: "Pooling"
  bottom: "conv2_2"
  top: "pool2"
  pooling_param {
    pool: MAX
    kernel_size: 2
    stride: 2
  }
}
layer {
  name: "conv3_1"
  type: "Convolution"
  bottom: "pool2"
  top: "conv3_1"
  convolution_param {
    num_output: 256
    pad: 1
    kernel_size: 3
  }
}
layer {
  name: "relu3_1"
  type: "ReLU"
  bottom: "conv3_1"
  top: "conv3_1"
}
layer {
  name: "conv3_2"
  type: "Convolution"
  bottom: "conv3_1"
  top: "conv3_2"
  convolution_param {
    num_output: 256
    pad: 1
    kernel_size: 3
  }
}
layer {
  name: "relu3_2"
  type: "ReLU"
  bottom: "conv3_2"
  top: "conv3_2"
}
layer {
  name: "conv3_3"
  type: "Convolution"
  bottom: "conv3_2"
  top: "conv3_3"
  convolution_param {
    num_output: 256
    pad: 1
    kernel_size: 3
  }
}
layer {
  name: "relu3_3"
  type: "ReLU"
  bottom: "conv3_3"
  top: "conv3_3"
}
layer {
  name: "pool3"
  type: "Pooling"
  bottom: "conv3_3"
  top: "pool3"
  pooling_param {
    pool: MAX
    kernel_size: 2
    stride: 2
  }
}
layer {
  name: "conv4_1"
  type: "Convolution"
  bottom: "pool3"
  top: "conv4_1"
  convolution_param {
    num_output: 512
    pad: 1
    kernel_size: 3
  }
}
layer {
  name: "relu4_1"
  type: "ReLU"
  bottom: "conv4_1"
  top: "conv4_1"
}
layer {
  name: "conv4_2"
  type: "Convolution"
  bottom: "conv4_1"
  top: "conv4_2"
  convolution_param {
    num_output: 512
    pad: 1
    kernel_size: 3
  }
}
layer {
  name: "relu4_2"
  type: "ReLU"
  bottom: "conv4_2"
  top: "conv4_2"
}
layer {
  name: "conv4_3"
  type: "Convolution"
  bottom: "conv4_2"
  top: "conv4_3"
  convolution_param {
    num_output: 512
    pad: 1
    kernel_size: 3
  }
}
layer {
  name: "relu4_3"
  type: "ReLU"
  bottom: "conv4_3"
  top: "conv4_3"
}
layer {
  name: "pool4"
  type: "Pooling"
  bottom: "conv4_3"
  top: "pool4"
  pooling_param {
    pool: MAX
    kernel_size: 2
    stride: 2
  }
}
layer {
  name: "conv5_1"
  type: "Convolution"
  bottom: "pool4"
  top: "conv5_1"
  convolution_param {
    num_output: 512
    pad: 1
    kernel_size: 3
  }
}
layer {
  name: "relu5_1"
  type: "ReLU"
  bottom: "conv5_1"
  top: "conv5_1"
}
layer {
  name: "conv5_2"
  type: "Convolution"
  bottom: "conv5_1"
  top: "conv5_2"
  convolution_param {
    num_output: 512
    pad: 1
    kernel_size: 3
  }
}
layer {
  name: "relu5_2"
  type: "ReLU"
  bottom: "conv5_2"
  top: "conv5_2"
}
layer {
  name: "conv5_3"
  type: "Convolution"
  bottom: "conv5_2"
  top: "conv5_3"
  convolution_param {
    num_output: 512
    pad: 1
    kernel_size: 3
  }
}
layer {
  name: "relu5_3"
  type: "ReLU"
  bottom: "conv5_3"
  top: "conv5_3"
}
layer {
  name: "pool5"
  type: "Pooling"
  bottom: "conv5_3"
  top: "pool5"
  pooling_param {
    pool: MAX
    kernel_size: 2
    stride: 2
  }
}
layer {
  name: "fc6-conv"
  type: "Convolution"
  bottom: "pool5"
  top: "fc6-conv"
  convolution_param {
    num_output: 4096
    kernel_size: 7
  }
}
layer {
  name: "relu6"
  type: "ReLU"
  bottom: "fc6-conv"
  top: "fc6-conv"
}
layer {
  name: "drop6"
  type: "Dropout"
  bottom: "fc6-conv"
  top: "fc6-conv"
  dropout_param {
    dropout_ratio: 0.5
  }
}
layer {
  name: "fc6-conv_re"
  type: "Reshape"
  bottom: "fc6-conv"
  top: "fc6-conv_re"
  reshape_param {
    shape {
      dim: 0
      dim: 0
      dim: -1
    }
  }
}
layer {
  name: "fc6-conv_tran"
  type: "Python"
  bottom: "fc6-conv_re"
  top: "fc6-conv_tran"
  python_param {
    module: "data_preparation_sort_max_clip"
    layer: "DataTransposeSortMaxClip"
  }
}
layer {
  name: "lstm1"
  type: "LSTM"
  bottom: "fc6-conv_tran"
  bottom: "clip_markers"
  top: "lstm1"
  recurrent_param {
    num_output: 512
    weight_filler {
      type: "uniform"
      min: -0.01
      max: 0.01
    }
    bias_filler {
      type: "constant"
      value: 0
    }
  }
}
layer {
  name: "lstm1-drop"
  type: "Dropout"
  bottom: "lstm1"
  top: "lstm1-drop"
  dropout_param {
    dropout_ratio: 0.5
  }
}
layer {
  name: "fc-final"
  type: "InnerProduct"
  bottom: "lstm1-drop"
  top: "fc-final"
  param {
    lr_mult: 1
    decay_mult: 1
  }
  param {
    lr_mult: 2
    decay_mult: 0
  }
  inner_product_param {
    num_output: 10
    weight_filler {
      type: "gaussian"
      std: 0.01
    }
    bias_filler {
      type: "constant"
      value: 0
    }
    axis: 2
  }
}
layer {
  name: "loss"
  type: "SoftmaxWithLoss"
  bottom: "fc-final"
  bottom: "reshape-label"
  top: "loss"
  softmax_param {
    axis: 2
  }
}
layer {
  name: "accuracy"
  type: "Accuracy"
  bottom: "fc-final"
  bottom: "reshape-label"
  top: "accuracy"
  accuracy_param {
    axis: 2
  }
}
I1018 00:13:12.779891 30241 layer_factory.hpp:77] Creating layer data
I1018 00:13:12.779908 30241 net.cpp:84] Creating Layer data
I1018 00:13:12.779913 30241 net.cpp:380] data -> data
I1018 00:13:12.779924 30241 net.cpp:380] data -> label
I1018 00:13:12.779934 30241 image_data_layer.cpp:38] Opening file ../Data/lsun_val_list.txt
I1018 00:13:12.781042 30241 image_data_layer.cpp:63] A total of 3000 images.
I1018 00:13:12.782979 30241 image_data_layer.cpp:90] output data size: 50,3,288,288
I1018 00:13:12.910040 30241 net.cpp:122] Setting up data
I1018 00:13:12.910078 30241 net.cpp:129] Top shape: 50 3 288 288 (12441600)
I1018 00:13:12.910085 30241 net.cpp:129] Top shape: 50 (50)
I1018 00:13:12.910089 30241 net.cpp:137] Memory required for data: 49766600
I1018 00:13:12.910097 30241 layer_factory.hpp:77] Creating layer label_data_1_split
I1018 00:13:12.910115 30241 net.cpp:84] Creating Layer label_data_1_split
I1018 00:13:12.910120 30241 net.cpp:406] label_data_1_split <- label
I1018 00:13:12.910130 30241 net.cpp:380] label_data_1_split -> label_data_1_split_0
I1018 00:13:12.910145 30241 net.cpp:380] label_data_1_split -> label_data_1_split_1
I1018 00:13:12.910445 30241 net.cpp:122] Setting up label_data_1_split
I1018 00:13:12.910483 30241 net.cpp:129] Top shape: 50 (50)
I1018 00:13:12.910493 30241 net.cpp:129] Top shape: 50 (50)
I1018 00:13:12.910500 30241 net.cpp:137] Memory required for data: 49767000
I1018 00:13:12.910508 30241 layer_factory.hpp:77] Creating layer Silence
I1018 00:13:12.910537 30241 net.cpp:84] Creating Layer Silence
I1018 00:13:12.910545 30241 net.cpp:406] Silence <- label_data_1_split_0
I1018 00:13:12.910562 30241 net.cpp:122] Setting up Silence
I1018 00:13:12.910573 30241 net.cpp:137] Memory required for data: 49767000
I1018 00:13:12.910579 30241 layer_factory.hpp:77] Creating layer label_tran
I1018 00:13:12.910667 30241 net.cpp:84] Creating Layer label_tran
I1018 00:13:12.910681 30241 net.cpp:406] label_tran <- label_data_1_split_1
I1018 00:13:12.910693 30241 net.cpp:380] label_tran -> reshape-label
I1018 00:13:12.910711 30241 net.cpp:380] label_tran -> clip_markers
I1018 00:13:12.910902 30241 net.cpp:122] Setting up label_tran
I1018 00:13:12.910922 30241 net.cpp:129] Top shape: 4 50 (200)
I1018 00:13:12.910929 30241 net.cpp:129] Top shape: 4 50 (200)
I1018 00:13:12.910936 30241 net.cpp:137] Memory required for data: 49768600
I1018 00:13:12.910943 30241 layer_factory.hpp:77] Creating layer reshape-label_label_tran_0_split
I1018 00:13:12.910956 30241 net.cpp:84] Creating Layer reshape-label_label_tran_0_split
I1018 00:13:12.910964 30241 net.cpp:406] reshape-label_label_tran_0_split <- reshape-label
I1018 00:13:12.910975 30241 net.cpp:380] reshape-label_label_tran_0_split -> reshape-label_label_tran_0_split_0
I1018 00:13:12.910991 30241 net.cpp:380] reshape-label_label_tran_0_split -> reshape-label_label_tran_0_split_1
I1018 00:13:12.911047 30241 net.cpp:122] Setting up reshape-label_label_tran_0_split
I1018 00:13:12.911059 30241 net.cpp:129] Top shape: 4 50 (200)
I1018 00:13:12.911067 30241 net.cpp:129] Top shape: 4 50 (200)
I1018 00:13:12.911073 30241 net.cpp:137] Memory required for data: 49770200
I1018 00:13:12.911080 30241 layer_factory.hpp:77] Creating layer conv1_1
I1018 00:13:12.911098 30241 net.cpp:84] Creating Layer conv1_1
I1018 00:13:12.911105 30241 net.cpp:406] conv1_1 <- data
I1018 00:13:12.911118 30241 net.cpp:380] conv1_1 -> conv1_1
I1018 00:13:12.911631 30241 net.cpp:122] Setting up conv1_1
I1018 00:13:12.911648 30241 net.cpp:129] Top shape: 50 64 288 288 (265420800)
I1018 00:13:12.911655 30241 net.cpp:137] Memory required for data: 1111453400
I1018 00:13:12.911675 30241 layer_factory.hpp:77] Creating layer relu1_1
I1018 00:13:12.911689 30241 net.cpp:84] Creating Layer relu1_1
I1018 00:13:12.911695 30241 net.cpp:406] relu1_1 <- conv1_1
I1018 00:13:12.911705 30241 net.cpp:367] relu1_1 -> conv1_1 (in-place)
I1018 00:13:12.911720 30241 net.cpp:122] Setting up relu1_1
I1018 00:13:12.911731 30241 net.cpp:129] Top shape: 50 64 288 288 (265420800)
I1018 00:13:12.911736 30241 net.cpp:137] Memory required for data: 2173136600
I1018 00:13:12.911742 30241 layer_factory.hpp:77] Creating layer conv1_2
I1018 00:13:12.911756 30241 net.cpp:84] Creating Layer conv1_2
I1018 00:13:12.911762 30241 net.cpp:406] conv1_2 <- conv1_1
I1018 00:13:12.911773 30241 net.cpp:380] conv1_2 -> conv1_2
I1018 00:13:12.912314 30241 net.cpp:122] Setting up conv1_2
I1018 00:13:12.912334 30241 net.cpp:129] Top shape: 50 64 288 288 (265420800)
I1018 00:13:12.912341 30241 net.cpp:137] Memory required for data: 3234819800
I1018 00:13:12.912369 30241 layer_factory.hpp:77] Creating layer relu1_2
I1018 00:13:12.912395 30241 net.cpp:84] Creating Layer relu1_2
I1018 00:13:12.912405 30241 net.cpp:406] relu1_2 <- conv1_2
I1018 00:13:12.912420 30241 net.cpp:367] relu1_2 -> conv1_2 (in-place)
I1018 00:13:12.912436 30241 net.cpp:122] Setting up relu1_2
I1018 00:13:12.912447 30241 net.cpp:129] Top shape: 50 64 288 288 (265420800)
I1018 00:13:12.912456 30241 net.cpp:137] Memory required for data: 4296503000
I1018 00:13:12.912463 30241 layer_factory.hpp:77] Creating layer pool1
I1018 00:13:12.912477 30241 net.cpp:84] Creating Layer pool1
I1018 00:13:12.912489 30241 net.cpp:406] pool1 <- conv1_2
I1018 00:13:12.912503 30241 net.cpp:380] pool1 -> pool1
I1018 00:13:12.912582 30241 net.cpp:122] Setting up pool1
I1018 00:13:12.912600 30241 net.cpp:129] Top shape: 50 64 144 144 (66355200)
I1018 00:13:12.912607 30241 net.cpp:137] Memory required for data: 4561923800
I1018 00:13:12.912624 30241 layer_factory.hpp:77] Creating layer conv2_1
I1018 00:13:12.912642 30241 net.cpp:84] Creating Layer conv2_1
I1018 00:13:12.912654 30241 net.cpp:406] conv2_1 <- pool1
I1018 00:13:12.912669 30241 net.cpp:380] conv2_1 -> conv2_1
I1018 00:13:12.914690 30241 net.cpp:122] Setting up conv2_1
I1018 00:13:12.914721 30241 net.cpp:129] Top shape: 50 128 144 144 (132710400)
I1018 00:13:12.914731 30241 net.cpp:137] Memory required for data: 5092765400
I1018 00:13:12.914752 30241 layer_factory.hpp:77] Creating layer relu2_1
I1018 00:13:12.914775 30241 net.cpp:84] Creating Layer relu2_1
I1018 00:13:12.914785 30241 net.cpp:406] relu2_1 <- conv2_1
I1018 00:13:12.914799 30241 net.cpp:367] relu2_1 -> conv2_1 (in-place)
I1018 00:13:12.914819 30241 net.cpp:122] Setting up relu2_1
I1018 00:13:12.914834 30241 net.cpp:129] Top shape: 50 128 144 144 (132710400)
I1018 00:13:12.914841 30241 net.cpp:137] Memory required for data: 5623607000
I1018 00:13:12.914849 30241 layer_factory.hpp:77] Creating layer conv2_2
I1018 00:13:12.914865 30241 net.cpp:84] Creating Layer conv2_2
I1018 00:13:12.914876 30241 net.cpp:406] conv2_2 <- conv2_1
I1018 00:13:12.914891 30241 net.cpp:380] conv2_2 -> conv2_2
I1018 00:13:12.915575 30241 net.cpp:122] Setting up conv2_2
I1018 00:13:12.915596 30241 net.cpp:129] Top shape: 50 128 144 144 (132710400)
I1018 00:13:12.915603 30241 net.cpp:137] Memory required for data: 6154448600
I1018 00:13:12.915618 30241 layer_factory.hpp:77] Creating layer relu2_2
I1018 00:13:12.915632 30241 net.cpp:84] Creating Layer relu2_2
I1018 00:13:12.915640 30241 net.cpp:406] relu2_2 <- conv2_2
I1018 00:13:12.915657 30241 net.cpp:367] relu2_2 -> conv2_2 (in-place)
I1018 00:13:12.915673 30241 net.cpp:122] Setting up relu2_2
I1018 00:13:12.915684 30241 net.cpp:129] Top shape: 50 128 144 144 (132710400)
I1018 00:13:12.915693 30241 net.cpp:137] Memory required for data: 6685290200
I1018 00:13:12.915701 30241 layer_factory.hpp:77] Creating layer pool2
I1018 00:13:12.915716 30241 net.cpp:84] Creating Layer pool2
I1018 00:13:12.915727 30241 net.cpp:406] pool2 <- conv2_2
I1018 00:13:12.915741 30241 net.cpp:380] pool2 -> pool2
I1018 00:13:12.915817 30241 net.cpp:122] Setting up pool2
I1018 00:13:12.915833 30241 net.cpp:129] Top shape: 50 128 72 72 (33177600)
I1018 00:13:12.915841 30241 net.cpp:137] Memory required for data: 6818000600
I1018 00:13:12.915849 30241 layer_factory.hpp:77] Creating layer conv3_1
I1018 00:13:12.915866 30241 net.cpp:84] Creating Layer conv3_1
I1018 00:13:12.915875 30241 net.cpp:406] conv3_1 <- pool2
I1018 00:13:12.915890 30241 net.cpp:380] conv3_1 -> conv3_1
I1018 00:13:12.922297 30241 net.cpp:122] Setting up conv3_1
I1018 00:13:12.922323 30241 net.cpp:129] Top shape: 50 256 72 72 (66355200)
I1018 00:13:12.922329 30241 net.cpp:137] Memory required for data: 7083421400
I1018 00:13:12.922346 30241 layer_factory.hpp:77] Creating layer relu3_1
I1018 00:13:12.922364 30241 net.cpp:84] Creating Layer relu3_1
I1018 00:13:12.922370 30241 net.cpp:406] relu3_1 <- conv3_1
I1018 00:13:12.922380 30241 net.cpp:367] relu3_1 -> conv3_1 (in-place)
I1018 00:13:12.922394 30241 net.cpp:122] Setting up relu3_1
I1018 00:13:12.922399 30241 net.cpp:129] Top shape: 50 256 72 72 (66355200)
I1018 00:13:12.922405 30241 net.cpp:137] Memory required for data: 7348842200
I1018 00:13:12.922410 30241 layer_factory.hpp:77] Creating layer conv3_2
I1018 00:13:12.922421 30241 net.cpp:84] Creating Layer conv3_2
I1018 00:13:12.922426 30241 net.cpp:406] conv3_2 <- conv3_1
I1018 00:13:12.922435 30241 net.cpp:380] conv3_2 -> conv3_2
I1018 00:13:12.924649 30241 net.cpp:122] Setting up conv3_2
I1018 00:13:12.924669 30241 net.cpp:129] Top shape: 50 256 72 72 (66355200)
I1018 00:13:12.924674 30241 net.cpp:137] Memory required for data: 7614263000
I1018 00:13:12.924682 30241 layer_factory.hpp:77] Creating layer relu3_2
I1018 00:13:12.924692 30241 net.cpp:84] Creating Layer relu3_2
I1018 00:13:12.924698 30241 net.cpp:406] relu3_2 <- conv3_2
I1018 00:13:12.924707 30241 net.cpp:367] relu3_2 -> conv3_2 (in-place)
I1018 00:13:12.924716 30241 net.cpp:122] Setting up relu3_2
I1018 00:13:12.924722 30241 net.cpp:129] Top shape: 50 256 72 72 (66355200)
I1018 00:13:12.924727 30241 net.cpp:137] Memory required for data: 7879683800
I1018 00:13:12.924732 30241 layer_factory.hpp:77] Creating layer conv3_3
I1018 00:13:12.924743 30241 net.cpp:84] Creating Layer conv3_3
I1018 00:13:12.924747 30241 net.cpp:406] conv3_3 <- conv3_2
I1018 00:13:12.924756 30241 net.cpp:380] conv3_3 -> conv3_3
I1018 00:13:12.926803 30241 net.cpp:122] Setting up conv3_3
I1018 00:13:12.926821 30241 net.cpp:129] Top shape: 50 256 72 72 (66355200)
I1018 00:13:12.926831 30241 net.cpp:137] Memory required for data: 8145104600
I1018 00:13:12.926839 30241 layer_factory.hpp:77] Creating layer relu3_3
I1018 00:13:12.926848 30241 net.cpp:84] Creating Layer relu3_3
I1018 00:13:12.926854 30241 net.cpp:406] relu3_3 <- conv3_3
I1018 00:13:12.926862 30241 net.cpp:367] relu3_3 -> conv3_3 (in-place)
I1018 00:13:12.926872 30241 net.cpp:122] Setting up relu3_3
I1018 00:13:12.926877 30241 net.cpp:129] Top shape: 50 256 72 72 (66355200)
I1018 00:13:12.926882 30241 net.cpp:137] Memory required for data: 8410525400
I1018 00:13:12.926887 30241 layer_factory.hpp:77] Creating layer pool3
I1018 00:13:12.926897 30241 net.cpp:84] Creating Layer pool3
I1018 00:13:12.926900 30241 net.cpp:406] pool3 <- conv3_3
I1018 00:13:12.926908 30241 net.cpp:380] pool3 -> pool3
I1018 00:13:12.926954 30241 net.cpp:122] Setting up pool3
I1018 00:13:12.926961 30241 net.cpp:129] Top shape: 50 256 36 36 (16588800)
I1018 00:13:12.926965 30241 net.cpp:137] Memory required for data: 8476880600
I1018 00:13:12.926970 30241 layer_factory.hpp:77] Creating layer conv4_1
I1018 00:13:12.926980 30241 net.cpp:84] Creating Layer conv4_1
I1018 00:13:12.926985 30241 net.cpp:406] conv4_1 <- pool3
I1018 00:13:12.926992 30241 net.cpp:380] conv4_1 -> conv4_1
I1018 00:13:12.931650 30241 net.cpp:122] Setting up conv4_1
I1018 00:13:12.931684 30241 net.cpp:129] Top shape: 50 512 36 36 (33177600)
I1018 00:13:12.931692 30241 net.cpp:137] Memory required for data: 8609591000
I1018 00:13:12.931706 30241 layer_factory.hpp:77] Creating layer relu4_1
I1018 00:13:12.931720 30241 net.cpp:84] Creating Layer relu4_1
I1018 00:13:12.931728 30241 net.cpp:406] relu4_1 <- conv4_1
I1018 00:13:12.931741 30241 net.cpp:367] relu4_1 -> conv4_1 (in-place)
I1018 00:13:12.931756 30241 net.cpp:122] Setting up relu4_1
I1018 00:13:12.931766 30241 net.cpp:129] Top shape: 50 512 36 36 (33177600)
I1018 00:13:12.931773 30241 net.cpp:137] Memory required for data: 8742301400
I1018 00:13:12.931780 30241 layer_factory.hpp:77] Creating layer conv4_2
I1018 00:13:12.931794 30241 net.cpp:84] Creating Layer conv4_2
I1018 00:13:12.931802 30241 net.cpp:406] conv4_2 <- conv4_1
I1018 00:13:12.931814 30241 net.cpp:380] conv4_2 -> conv4_2
I1018 00:13:12.942739 30241 net.cpp:122] Setting up conv4_2
I1018 00:13:12.942790 30241 net.cpp:129] Top shape: 50 512 36 36 (33177600)
I1018 00:13:12.942800 30241 net.cpp:137] Memory required for data: 8875011800
I1018 00:13:12.942829 30241 layer_factory.hpp:77] Creating layer relu4_2
I1018 00:13:12.942848 30241 net.cpp:84] Creating Layer relu4_2
I1018 00:13:12.942867 30241 net.cpp:406] relu4_2 <- conv4_2
I1018 00:13:12.942889 30241 net.cpp:367] relu4_2 -> conv4_2 (in-place)
I1018 00:13:12.942914 30241 net.cpp:122] Setting up relu4_2
I1018 00:13:12.942929 30241 net.cpp:129] Top shape: 50 512 36 36 (33177600)
I1018 00:13:12.942941 30241 net.cpp:137] Memory required for data: 9007722200
I1018 00:13:12.942950 30241 layer_factory.hpp:77] Creating layer conv4_3
I1018 00:13:12.942967 30241 net.cpp:84] Creating Layer conv4_3
I1018 00:13:12.942978 30241 net.cpp:406] conv4_3 <- conv4_2
I1018 00:13:12.942992 30241 net.cpp:380] conv4_3 -> conv4_3
I1018 00:13:12.952913 30241 net.cpp:122] Setting up conv4_3
I1018 00:13:12.952950 30241 net.cpp:129] Top shape: 50 512 36 36 (33177600)
I1018 00:13:12.952955 30241 net.cpp:137] Memory required for data: 9140432600
I1018 00:13:12.952968 30241 layer_factory.hpp:77] Creating layer relu4_3
I1018 00:13:12.952980 30241 net.cpp:84] Creating Layer relu4_3
I1018 00:13:12.952986 30241 net.cpp:406] relu4_3 <- conv4_3
I1018 00:13:12.952996 30241 net.cpp:367] relu4_3 -> conv4_3 (in-place)
I1018 00:13:12.953007 30241 net.cpp:122] Setting up relu4_3
I1018 00:13:12.953013 30241 net.cpp:129] Top shape: 50 512 36 36 (33177600)
I1018 00:13:12.953018 30241 net.cpp:137] Memory required for data: 9273143000
I1018 00:13:12.953022 30241 layer_factory.hpp:77] Creating layer pool4
I1018 00:13:12.953032 30241 net.cpp:84] Creating Layer pool4
I1018 00:13:12.953037 30241 net.cpp:406] pool4 <- conv4_3
I1018 00:13:12.953043 30241 net.cpp:380] pool4 -> pool4
I1018 00:13:12.953091 30241 net.cpp:122] Setting up pool4
I1018 00:13:12.953101 30241 net.cpp:129] Top shape: 50 512 18 18 (8294400)
I1018 00:13:12.953106 30241 net.cpp:137] Memory required for data: 9306320600
I1018 00:13:12.953111 30241 layer_factory.hpp:77] Creating layer conv5_1
I1018 00:13:12.953122 30241 net.cpp:84] Creating Layer conv5_1
I1018 00:13:12.953127 30241 net.cpp:406] conv5_1 <- pool4
I1018 00:13:12.953136 30241 net.cpp:380] conv5_1 -> conv5_1
I1018 00:13:12.973122 30241 net.cpp:122] Setting up conv5_1
I1018 00:13:12.973160 30241 net.cpp:129] Top shape: 50 512 18 18 (8294400)
I1018 00:13:12.973165 30241 net.cpp:137] Memory required for data: 9339498200
I1018 00:13:12.973178 30241 layer_factory.hpp:77] Creating layer relu5_1
I1018 00:13:12.973191 30241 net.cpp:84] Creating Layer relu5_1
I1018 00:13:12.973198 30241 net.cpp:406] relu5_1 <- conv5_1
I1018 00:13:12.973209 30241 net.cpp:367] relu5_1 -> conv5_1 (in-place)
I1018 00:13:12.973222 30241 net.cpp:122] Setting up relu5_1
I1018 00:13:12.973229 30241 net.cpp:129] Top shape: 50 512 18 18 (8294400)
I1018 00:13:12.973233 30241 net.cpp:137] Memory required for data: 9372675800
I1018 00:13:12.973237 30241 layer_factory.hpp:77] Creating layer conv5_2
I1018 00:13:12.973249 30241 net.cpp:84] Creating Layer conv5_2
I1018 00:13:12.973254 30241 net.cpp:406] conv5_2 <- conv5_1
I1018 00:13:12.973263 30241 net.cpp:380] conv5_2 -> conv5_2
I1018 00:13:12.982942 30241 net.cpp:122] Setting up conv5_2
I1018 00:13:12.982986 30241 net.cpp:129] Top shape: 50 512 18 18 (8294400)
I1018 00:13:12.982992 30241 net.cpp:137] Memory required for data: 9405853400
I1018 00:13:12.983006 30241 layer_factory.hpp:77] Creating layer relu5_2
I1018 00:13:12.983024 30241 net.cpp:84] Creating Layer relu5_2
I1018 00:13:12.983031 30241 net.cpp:406] relu5_2 <- conv5_2
I1018 00:13:12.983042 30241 net.cpp:367] relu5_2 -> conv5_2 (in-place)
I1018 00:13:12.983055 30241 net.cpp:122] Setting up relu5_2
I1018 00:13:12.983062 30241 net.cpp:129] Top shape: 50 512 18 18 (8294400)
I1018 00:13:12.983067 30241 net.cpp:137] Memory required for data: 9439031000
I1018 00:13:12.983072 30241 layer_factory.hpp:77] Creating layer conv5_3
I1018 00:13:12.983083 30241 net.cpp:84] Creating Layer conv5_3
I1018 00:13:12.983088 30241 net.cpp:406] conv5_3 <- conv5_2
I1018 00:13:12.983096 30241 net.cpp:380] conv5_3 -> conv5_3
I1018 00:13:12.990128 30241 net.cpp:122] Setting up conv5_3
I1018 00:13:12.990176 30241 net.cpp:129] Top shape: 50 512 18 18 (8294400)
I1018 00:13:12.990181 30241 net.cpp:137] Memory required for data: 9472208600
I1018 00:13:12.990193 30241 layer_factory.hpp:77] Creating layer relu5_3
I1018 00:13:12.990206 30241 net.cpp:84] Creating Layer relu5_3
I1018 00:13:12.990212 30241 net.cpp:406] relu5_3 <- conv5_3
I1018 00:13:12.990222 30241 net.cpp:367] relu5_3 -> conv5_3 (in-place)
I1018 00:13:12.990234 30241 net.cpp:122] Setting up relu5_3
I1018 00:13:12.990242 30241 net.cpp:129] Top shape: 50 512 18 18 (8294400)
I1018 00:13:12.990245 30241 net.cpp:137] Memory required for data: 9505386200
I1018 00:13:12.990250 30241 layer_factory.hpp:77] Creating layer pool5
I1018 00:13:12.990267 30241 net.cpp:84] Creating Layer pool5
I1018 00:13:12.990270 30241 net.cpp:406] pool5 <- conv5_3
I1018 00:13:12.990278 30241 net.cpp:380] pool5 -> pool5
I1018 00:13:12.990329 30241 net.cpp:122] Setting up pool5
I1018 00:13:12.990339 30241 net.cpp:129] Top shape: 50 512 9 9 (2073600)
I1018 00:13:12.990342 30241 net.cpp:137] Memory required for data: 9513680600
I1018 00:13:12.990347 30241 layer_factory.hpp:77] Creating layer fc6-conv
I1018 00:13:12.990360 30241 net.cpp:84] Creating Layer fc6-conv
I1018 00:13:12.990363 30241 net.cpp:406] fc6-conv <- pool5
I1018 00:13:12.990371 30241 net.cpp:380] fc6-conv -> fc6-conv
I1018 00:13:13.280480 30241 net.cpp:122] Setting up fc6-conv
I1018 00:13:13.280519 30241 net.cpp:129] Top shape: 50 4096 3 3 (1843200)
I1018 00:13:13.280525 30241 net.cpp:137] Memory required for data: 9521053400
I1018 00:13:13.280537 30241 layer_factory.hpp:77] Creating layer relu6
I1018 00:13:13.280550 30241 net.cpp:84] Creating Layer relu6
I1018 00:13:13.280555 30241 net.cpp:406] relu6 <- fc6-conv
I1018 00:13:13.280566 30241 net.cpp:367] relu6 -> fc6-conv (in-place)
I1018 00:13:13.280580 30241 net.cpp:122] Setting up relu6
I1018 00:13:13.280587 30241 net.cpp:129] Top shape: 50 4096 3 3 (1843200)
I1018 00:13:13.280591 30241 net.cpp:137] Memory required for data: 9528426200
I1018 00:13:13.280596 30241 layer_factory.hpp:77] Creating layer drop6
I1018 00:13:13.280604 30241 net.cpp:84] Creating Layer drop6
I1018 00:13:13.280609 30241 net.cpp:406] drop6 <- fc6-conv
I1018 00:13:13.280616 30241 net.cpp:367] drop6 -> fc6-conv (in-place)
I1018 00:13:13.280650 30241 net.cpp:122] Setting up drop6
I1018 00:13:13.280658 30241 net.cpp:129] Top shape: 50 4096 3 3 (1843200)
I1018 00:13:13.280663 30241 net.cpp:137] Memory required for data: 9535799000
I1018 00:13:13.280666 30241 layer_factory.hpp:77] Creating layer fc6-conv_re
I1018 00:13:13.280676 30241 net.cpp:84] Creating Layer fc6-conv_re
I1018 00:13:13.280681 30241 net.cpp:406] fc6-conv_re <- fc6-conv
I1018 00:13:13.280689 30241 net.cpp:380] fc6-conv_re -> fc6-conv_re
I1018 00:13:13.280725 30241 net.cpp:122] Setting up fc6-conv_re
I1018 00:13:13.280732 30241 net.cpp:129] Top shape: 50 4096 9 (1843200)
I1018 00:13:13.280736 30241 net.cpp:137] Memory required for data: 9543171800
I1018 00:13:13.280740 30241 layer_factory.hpp:77] Creating layer fc6-conv_tran
I1018 00:13:13.280823 30241 net.cpp:84] Creating Layer fc6-conv_tran
I1018 00:13:13.280833 30241 net.cpp:406] fc6-conv_tran <- fc6-conv_re
I1018 00:13:13.280839 30241 net.cpp:380] fc6-conv_tran -> fc6-conv_tran
I1018 00:13:13.284782 30241 net.cpp:122] Setting up fc6-conv_tran
I1018 00:13:13.284799 30241 net.cpp:129] Top shape: 4 50 4096 (819200)
I1018 00:13:13.284816 30241 net.cpp:137] Memory required for data: 9546448600
I1018 00:13:13.284821 30241 layer_factory.hpp:77] Creating layer lstm1
I1018 00:13:13.284832 30241 net.cpp:84] Creating Layer lstm1
I1018 00:13:13.284837 30241 net.cpp:406] lstm1 <- fc6-conv_tran
I1018 00:13:13.284843 30241 net.cpp:406] lstm1 <- clip_markers
I1018 00:13:13.284853 30241 net.cpp:380] lstm1 -> lstm1
I1018 00:13:13.284867 30241 recurrent_layer.cpp:20] Initializing recurrent layer: assuming input batch contains 4 timesteps of 50 independent streams.
I1018 00:13:13.285140 30241 net.cpp:51] Initializing net from parameters: 
layer {
  name: "lstm1_"
  type: "Input"
  top: "x"
  top: "cont"
  input_param {
    shape {
      dim: 4
      dim: 50
      dim: 4096
    }
    shape {
      dim: 4
      dim: 50
    }
  }
}
layer {
  name: "lstm1_"
  type: "Input"
  top: "c_0"
  top: "h_0"
  input_param {
    shape {
      dim: 1
      dim: 50
      dim: 512
    }
    shape {
      dim: 1
      dim: 50
      dim: 512
    }
  }
}
layer {
  name: "lstm1_cont_slice"
  type: "Slice"
  bottom: "cont"
  top: "cont_1"
  top: "cont_2"
  top: "cont_3"
  top: "cont_4"
  slice_param {
    axis: 0
  }
}
layer {
  name: "lstm1_x_transform"
  type: "InnerProduct"
  bottom: "x"
  top: "W_xc_x"
  param {
    name: "W_xc"
  }
  param {
    name: "b_c"
  }
  propagate_down: true
  inner_product_param {
    num_output: 2048
    bias_term: true
    weight_filler {
      type: "uniform"
      min: -0.01
      max: 0.01
    }
    bias_filler {
      type: "constant"
      value: 0
    }
    axis: 2
  }
}
layer {
  name: "lstm1_W_xc_x_slice"
  type: "Slice"
  bottom: "W_xc_x"
  top: "W_xc_x_1"
  top: "W_xc_x_2"
  top: "W_xc_x_3"
  top: "W_xc_x_4"
  slice_param {
    axis: 0
  }
}
layer {
  name: "lstm1_h_conted_0"
  type: "Scale"
  bottom: "h_0"
  bottom: "cont_1"
  top: "h_conted_0"
  scale_param {
    axis: 0
  }
}
layer {
  name: "lstm1_transform_1"
  type: "InnerProduct"
  bottom: "h_conted_0"
  top: "W_hc_h_0"
  param {
    name: "W_hc"
  }
  inner_product_param {
    num_output: 2048
    bias_term: false
    weight_filler {
      type: "uniform"
      min: -0.01
      max: 0.01
    }
    axis: 2
  }
}
layer {
  name: "lstm1_gate_input_1"
  type: "Eltwise"
  bottom: "W_hc_h_0"
  bottom: "W_xc_x_1"
  top: "gate_input_1"
  eltwise_param {
    operation: SUM
  }
}
layer {
  name: "lstm1_unit_1"
  type: "LSTMUnit"
  bottom: "c_0"
  bottom: "gate_input_1"
  bottom: "cont_1"
  top: "c_1"
  top: "h_1"
}
layer {
  name: "lstm1_h_conted_1"
  type: "Scale"
  bottom: "h_1"
  bottom: "cont_2"
  top: "h_conted_1"
  scale_param {
    axis: 0
  }
}
layer {
  name: "lstm1_transform_2"
  type: "InnerProduct"
  bottom: "h_conted_1"
  top: "W_hc_h_1"
  param {
    name: "W_hc"
  }
  inner_product_param {
    num_output: 2048
    bias_term: false
    weight_filler {
      type: "uniform"
      min: -0.01
      max: 0.01
    }
    axis: 2
  }
}
layer {
  name: "lstm1_gate_input_2"
  type: "Eltwise"
  bottom: "W_hc_h_1"
  bottom: "W_xc_x_2"
  top: "gate_input_2"
  eltwise_param {
    operation: SUM
  }
}
layer {
  name: "lstm1_unit_2"
  type: "LSTMUnit"
  bottom: "c_1"
  bottom: "gate_input_2"
  bottom: "cont_2"
  top: "c_2"
  top: "h_2"
}
layer {
  name: "lstm1_h_conted_2"
  type: "Scale"
  bottom: "h_2"
  bottom: "cont_3"
  top: "h_conted_2"
  scale_param {
    axis: 0
  }
}
layer {
  name: "lstm1_transform_3"
  type: "InnerProduct"
  bottom: "h_conted_2"
  top: "W_hc_h_2"
  param {
    name: "W_hc"
  }
  inner_product_param {
    num_output: 2048
    bias_term: false
    weight_filler {
      type: "uniform"
      min: -0.01
      max: 0.01
    }
    axis: 2
  }
}
layer {
  name: "lstm1_gate_input_3"
  type: "Eltwise"
  bottom: "W_hc_h_2"
  bottom: "W_xc_x_3"
  top: "gate_input_3"
  eltwise_param {
    operation: SUM
  }
}
layer {
  name: "lstm1_unit_3"
  type: "LSTMUnit"
  bottom: "c_2"
  bottom: "gate_input_3"
  bottom: "cont_3"
  top: "c_3"
  top: "h_3"
}
layer {
  name: "lstm1_h_conted_3"
  type: "Scale"
  bottom: "h_3"
  bottom: "cont_4"
  top: "h_conted_3"
  scale_param {
    axis: 0
  }
}
layer {
  name: "lstm1_transform_4"
  type: "InnerProduct"
  bottom: "h_conted_3"
  top: "W_hc_h_3"
  param {
    name: "W_hc"
  }
  inner_product_param {
    num_output: 2048
    bias_term: false
    weight_filler {
      type: "uniform"
      min: -0.01
      max: 0.01
    }
    axis: 2
  }
}
layer {
  name: "lstm1_gate_input_4"
  type: "Eltwise"
  bottom: "W_hc_h_3"
  bottom: "W_xc_x_4"
  top: "gate_input_4"
  eltwise_param {
    operation: SUM
  }
}
layer {
  name: "lstm1_unit_4"
  type: "LSTMUnit"
  bottom: "c_3"
  bottom: "gate_input_4"
  bottom: "cont_4"
  top: "c_4"
  top: "h_4"
}
layer {
  name: "lstm1_"
  type: "Split"
  bottom: "c_4"
  top: "c_T"
}
layer {
  name: "lstm1_h_concat"
  type: "Concat"
  bottom: "h_1"
  bottom: "h_2"
  bottom: "h_3"
  bottom: "h_4"
  top: "h"
  concat_param {
    axis: 0
  }
}
layer {
  name: "h_pseudoloss"
  type: "Reduction"
  bottom: "h"
  top: "h_pseudoloss"
  loss_weight: 1
}
I1018 00:13:13.285411 30241 layer_factory.hpp:77] Creating layer lstm1_
I1018 00:13:13.285429 30241 net.cpp:84] Creating Layer lstm1_
I1018 00:13:13.285439 30241 net.cpp:380] lstm1_ -> x
I1018 00:13:13.285455 30241 net.cpp:380] lstm1_ -> cont
I1018 00:13:13.285524 30241 net.cpp:122] Setting up lstm1_
I1018 00:13:13.285537 30241 net.cpp:129] Top shape: 4 50 4096 (819200)
I1018 00:13:13.285547 30241 net.cpp:129] Top shape: 4 50 (200)
I1018 00:13:13.285553 30241 net.cpp:137] Memory required for data: 3277600
I1018 00:13:13.285560 30241 layer_factory.hpp:77] Creating layer lstm1_
I1018 00:13:13.285571 30241 net.cpp:84] Creating Layer lstm1_
I1018 00:13:13.285580 30241 net.cpp:380] lstm1_ -> c_0
I1018 00:13:13.285594 30241 net.cpp:380] lstm1_ -> h_0
I1018 00:13:13.285656 30241 net.cpp:122] Setting up lstm1_
I1018 00:13:13.285668 30241 net.cpp:129] Top shape: 1 50 512 (25600)
I1018 00:13:13.285677 30241 net.cpp:129] Top shape: 1 50 512 (25600)
I1018 00:13:13.285683 30241 net.cpp:137] Memory required for data: 3482400
I1018 00:13:13.285691 30241 layer_factory.hpp:77] Creating layer lstm1_cont_slice
I1018 00:13:13.285706 30241 net.cpp:84] Creating Layer lstm1_cont_slice
I1018 00:13:13.285712 30241 net.cpp:406] lstm1_cont_slice <- cont
I1018 00:13:13.285725 30241 net.cpp:380] lstm1_cont_slice -> cont_1
I1018 00:13:13.285739 30241 net.cpp:380] lstm1_cont_slice -> cont_2
I1018 00:13:13.285750 30241 net.cpp:380] lstm1_cont_slice -> cont_3
I1018 00:13:13.285761 30241 net.cpp:380] lstm1_cont_slice -> cont_4
I1018 00:13:13.285854 30241 net.cpp:122] Setting up lstm1_cont_slice
I1018 00:13:13.285866 30241 net.cpp:129] Top shape: 1 50 (50)
I1018 00:13:13.285874 30241 net.cpp:129] Top shape: 1 50 (50)
I1018 00:13:13.285882 30241 net.cpp:129] Top shape: 1 50 (50)
I1018 00:13:13.285890 30241 net.cpp:129] Top shape: 1 50 (50)
I1018 00:13:13.285897 30241 net.cpp:137] Memory required for data: 3483200
I1018 00:13:13.285904 30241 layer_factory.hpp:77] Creating layer cont_1_lstm1_cont_slice_0_split
I1018 00:13:13.285918 30241 net.cpp:84] Creating Layer cont_1_lstm1_cont_slice_0_split
I1018 00:13:13.285925 30241 net.cpp:406] cont_1_lstm1_cont_slice_0_split <- cont_1
I1018 00:13:13.285935 30241 net.cpp:380] cont_1_lstm1_cont_slice_0_split -> cont_1_lstm1_cont_slice_0_split_0
I1018 00:13:13.285948 30241 net.cpp:380] cont_1_lstm1_cont_slice_0_split -> cont_1_lstm1_cont_slice_0_split_1
I1018 00:13:13.286006 30241 net.cpp:122] Setting up cont_1_lstm1_cont_slice_0_split
I1018 00:13:13.286017 30241 net.cpp:129] Top shape: 1 50 (50)
I1018 00:13:13.286026 30241 net.cpp:129] Top shape: 1 50 (50)
I1018 00:13:13.286032 30241 net.cpp:137] Memory required for data: 3483600
I1018 00:13:13.286039 30241 layer_factory.hpp:77] Creating layer cont_2_lstm1_cont_slice_1_split
I1018 00:13:13.286048 30241 net.cpp:84] Creating Layer cont_2_lstm1_cont_slice_1_split
I1018 00:13:13.286056 30241 net.cpp:406] cont_2_lstm1_cont_slice_1_split <- cont_2
I1018 00:13:13.286067 30241 net.cpp:380] cont_2_lstm1_cont_slice_1_split -> cont_2_lstm1_cont_slice_1_split_0
I1018 00:13:13.286078 30241 net.cpp:380] cont_2_lstm1_cont_slice_1_split -> cont_2_lstm1_cont_slice_1_split_1
I1018 00:13:13.286130 30241 net.cpp:122] Setting up cont_2_lstm1_cont_slice_1_split
I1018 00:13:13.286141 30241 net.cpp:129] Top shape: 1 50 (50)
I1018 00:13:13.286149 30241 net.cpp:129] Top shape: 1 50 (50)
I1018 00:13:13.286156 30241 net.cpp:137] Memory required for data: 3484000
I1018 00:13:13.286162 30241 layer_factory.hpp:77] Creating layer cont_3_lstm1_cont_slice_2_split
I1018 00:13:13.286173 30241 net.cpp:84] Creating Layer cont_3_lstm1_cont_slice_2_split
I1018 00:13:13.286180 30241 net.cpp:406] cont_3_lstm1_cont_slice_2_split <- cont_3
I1018 00:13:13.286190 30241 net.cpp:380] cont_3_lstm1_cont_slice_2_split -> cont_3_lstm1_cont_slice_2_split_0
I1018 00:13:13.286203 30241 net.cpp:380] cont_3_lstm1_cont_slice_2_split -> cont_3_lstm1_cont_slice_2_split_1
I1018 00:13:13.286254 30241 net.cpp:122] Setting up cont_3_lstm1_cont_slice_2_split
I1018 00:13:13.286264 30241 net.cpp:129] Top shape: 1 50 (50)
I1018 00:13:13.286273 30241 net.cpp:129] Top shape: 1 50 (50)
I1018 00:13:13.286280 30241 net.cpp:137] Memory required for data: 3484400
I1018 00:13:13.286286 30241 layer_factory.hpp:77] Creating layer cont_4_lstm1_cont_slice_3_split
I1018 00:13:13.286303 30241 net.cpp:84] Creating Layer cont_4_lstm1_cont_slice_3_split
I1018 00:13:13.286309 30241 net.cpp:406] cont_4_lstm1_cont_slice_3_split <- cont_4
I1018 00:13:13.286319 30241 net.cpp:380] cont_4_lstm1_cont_slice_3_split -> cont_4_lstm1_cont_slice_3_split_0
I1018 00:13:13.286329 30241 net.cpp:380] cont_4_lstm1_cont_slice_3_split -> cont_4_lstm1_cont_slice_3_split_1
I1018 00:13:13.286381 30241 net.cpp:122] Setting up cont_4_lstm1_cont_slice_3_split
I1018 00:13:13.286391 30241 net.cpp:129] Top shape: 1 50 (50)
I1018 00:13:13.286399 30241 net.cpp:129] Top shape: 1 50 (50)
I1018 00:13:13.286406 30241 net.cpp:137] Memory required for data: 3484800
I1018 00:13:13.286412 30241 layer_factory.hpp:77] Creating layer lstm1_x_transform
I1018 00:13:13.286423 30241 net.cpp:84] Creating Layer lstm1_x_transform
I1018 00:13:13.286430 30241 net.cpp:406] lstm1_x_transform <- x
I1018 00:13:13.286443 30241 net.cpp:380] lstm1_x_transform -> W_xc_x
I1018 00:13:13.381660 30241 net.cpp:122] Setting up lstm1_x_transform
I1018 00:13:13.381696 30241 net.cpp:129] Top shape: 4 50 2048 (409600)
I1018 00:13:13.381705 30241 net.cpp:137] Memory required for data: 5123200
I1018 00:13:13.381728 30241 layer_factory.hpp:77] Creating layer lstm1_W_xc_x_slice
I1018 00:13:13.381750 30241 net.cpp:84] Creating Layer lstm1_W_xc_x_slice
I1018 00:13:13.381760 30241 net.cpp:406] lstm1_W_xc_x_slice <- W_xc_x
I1018 00:13:13.381781 30241 net.cpp:380] lstm1_W_xc_x_slice -> W_xc_x_1
I1018 00:13:13.381811 30241 net.cpp:380] lstm1_W_xc_x_slice -> W_xc_x_2
I1018 00:13:13.381829 30241 net.cpp:380] lstm1_W_xc_x_slice -> W_xc_x_3
I1018 00:13:13.381841 30241 net.cpp:380] lstm1_W_xc_x_slice -> W_xc_x_4
I1018 00:13:13.381937 30241 net.cpp:122] Setting up lstm1_W_xc_x_slice
I1018 00:13:13.381949 30241 net.cpp:129] Top shape: 1 50 2048 (102400)
I1018 00:13:13.381958 30241 net.cpp:129] Top shape: 1 50 2048 (102400)
I1018 00:13:13.381966 30241 net.cpp:129] Top shape: 1 50 2048 (102400)
I1018 00:13:13.381975 30241 net.cpp:129] Top shape: 1 50 2048 (102400)
I1018 00:13:13.381981 30241 net.cpp:137] Memory required for data: 6761600
I1018 00:13:13.381989 30241 layer_factory.hpp:77] Creating layer lstm1_h_conted_0
I1018 00:13:13.382004 30241 net.cpp:84] Creating Layer lstm1_h_conted_0
I1018 00:13:13.382014 30241 net.cpp:406] lstm1_h_conted_0 <- h_0
I1018 00:13:13.382025 30241 net.cpp:406] lstm1_h_conted_0 <- cont_1_lstm1_cont_slice_0_split_0
I1018 00:13:13.382035 30241 net.cpp:380] lstm1_h_conted_0 -> h_conted_0
I1018 00:13:13.382134 30241 net.cpp:122] Setting up lstm1_h_conted_0
I1018 00:13:13.382148 30241 net.cpp:129] Top shape: 1 50 512 (25600)
I1018 00:13:13.382154 30241 net.cpp:137] Memory required for data: 6864000
I1018 00:13:13.382161 30241 layer_factory.hpp:77] Creating layer lstm1_transform_1
I1018 00:13:13.382175 30241 net.cpp:84] Creating Layer lstm1_transform_1
I1018 00:13:13.382184 30241 net.cpp:406] lstm1_transform_1 <- h_conted_0
I1018 00:13:13.382199 30241 net.cpp:380] lstm1_transform_1 -> W_hc_h_0
I1018 00:13:13.394016 30241 net.cpp:122] Setting up lstm1_transform_1
I1018 00:13:13.394033 30241 net.cpp:129] Top shape: 1 50 2048 (102400)
I1018 00:13:13.394040 30241 net.cpp:137] Memory required for data: 7273600
I1018 00:13:13.394065 30241 layer_factory.hpp:77] Creating layer lstm1_gate_input_1
I1018 00:13:13.394080 30241 net.cpp:84] Creating Layer lstm1_gate_input_1
I1018 00:13:13.394088 30241 net.cpp:406] lstm1_gate_input_1 <- W_hc_h_0
I1018 00:13:13.394098 30241 net.cpp:406] lstm1_gate_input_1 <- W_xc_x_1
I1018 00:13:13.394109 30241 net.cpp:380] lstm1_gate_input_1 -> gate_input_1
I1018 00:13:13.394150 30241 net.cpp:122] Setting up lstm1_gate_input_1
I1018 00:13:13.394163 30241 net.cpp:129] Top shape: 1 50 2048 (102400)
I1018 00:13:13.394170 30241 net.cpp:137] Memory required for data: 7683200
I1018 00:13:13.394176 30241 layer_factory.hpp:77] Creating layer lstm1_unit_1
I1018 00:13:13.394192 30241 net.cpp:84] Creating Layer lstm1_unit_1
I1018 00:13:13.394201 30241 net.cpp:406] lstm1_unit_1 <- c_0
I1018 00:13:13.394209 30241 net.cpp:406] lstm1_unit_1 <- gate_input_1
I1018 00:13:13.394218 30241 net.cpp:406] lstm1_unit_1 <- cont_1_lstm1_cont_slice_0_split_1
I1018 00:13:13.394228 30241 net.cpp:380] lstm1_unit_1 -> c_1
I1018 00:13:13.394240 30241 net.cpp:380] lstm1_unit_1 -> h_1
I1018 00:13:13.394309 30241 net.cpp:122] Setting up lstm1_unit_1
I1018 00:13:13.394322 30241 net.cpp:129] Top shape: 1 50 512 (25600)
I1018 00:13:13.394331 30241 net.cpp:129] Top shape: 1 50 512 (25600)
I1018 00:13:13.394336 30241 net.cpp:137] Memory required for data: 7888000
I1018 00:13:13.394345 30241 layer_factory.hpp:77] Creating layer h_1_lstm1_unit_1_1_split
I1018 00:13:13.394356 30241 net.cpp:84] Creating Layer h_1_lstm1_unit_1_1_split
I1018 00:13:13.394362 30241 net.cpp:406] h_1_lstm1_unit_1_1_split <- h_1
I1018 00:13:13.394376 30241 net.cpp:380] h_1_lstm1_unit_1_1_split -> h_1_lstm1_unit_1_1_split_0
I1018 00:13:13.394389 30241 net.cpp:380] h_1_lstm1_unit_1_1_split -> h_1_lstm1_unit_1_1_split_1
I1018 00:13:13.394439 30241 net.cpp:122] Setting up h_1_lstm1_unit_1_1_split
I1018 00:13:13.394451 30241 net.cpp:129] Top shape: 1 50 512 (25600)
I1018 00:13:13.394460 30241 net.cpp:129] Top shape: 1 50 512 (25600)
I1018 00:13:13.394466 30241 net.cpp:137] Memory required for data: 8092800
I1018 00:13:13.394474 30241 layer_factory.hpp:77] Creating layer lstm1_h_conted_1
I1018 00:13:13.394489 30241 net.cpp:84] Creating Layer lstm1_h_conted_1
I1018 00:13:13.394496 30241 net.cpp:406] lstm1_h_conted_1 <- h_1_lstm1_unit_1_1_split_0
I1018 00:13:13.394506 30241 net.cpp:406] lstm1_h_conted_1 <- cont_2_lstm1_cont_slice_1_split_0
I1018 00:13:13.394516 30241 net.cpp:380] lstm1_h_conted_1 -> h_conted_1
I1018 00:13:13.394598 30241 net.cpp:122] Setting up lstm1_h_conted_1
I1018 00:13:13.394611 30241 net.cpp:129] Top shape: 1 50 512 (25600)
I1018 00:13:13.394618 30241 net.cpp:137] Memory required for data: 8195200
I1018 00:13:13.394625 30241 layer_factory.hpp:77] Creating layer lstm1_transform_2
I1018 00:13:13.394640 30241 net.cpp:84] Creating Layer lstm1_transform_2
I1018 00:13:13.394649 30241 net.cpp:406] lstm1_transform_2 <- h_conted_1
I1018 00:13:13.394660 30241 net.cpp:380] lstm1_transform_2 -> W_hc_h_1
I1018 00:13:13.406689 30241 net.cpp:122] Setting up lstm1_transform_2
I1018 00:13:13.406715 30241 net.cpp:129] Top shape: 1 50 2048 (102400)
I1018 00:13:13.406723 30241 net.cpp:137] Memory required for data: 8604800
I1018 00:13:13.406731 30241 net.cpp:465] Sharing parameters 'W_hc' owned by layer 'lstm1_transform_1', param index 0
I1018 00:13:13.406739 30241 layer_factory.hpp:77] Creating layer lstm1_gate_input_2
I1018 00:13:13.406759 30241 net.cpp:84] Creating Layer lstm1_gate_input_2
I1018 00:13:13.406769 30241 net.cpp:406] lstm1_gate_input_2 <- W_hc_h_1
I1018 00:13:13.406780 30241 net.cpp:406] lstm1_gate_input_2 <- W_xc_x_2
I1018 00:13:13.406790 30241 net.cpp:380] lstm1_gate_input_2 -> gate_input_2
I1018 00:13:13.406836 30241 net.cpp:122] Setting up lstm1_gate_input_2
I1018 00:13:13.406849 30241 net.cpp:129] Top shape: 1 50 2048 (102400)
I1018 00:13:13.406857 30241 net.cpp:137] Memory required for data: 9014400
I1018 00:13:13.406862 30241 layer_factory.hpp:77] Creating layer lstm1_unit_2
I1018 00:13:13.406898 30241 net.cpp:84] Creating Layer lstm1_unit_2
I1018 00:13:13.406908 30241 net.cpp:406] lstm1_unit_2 <- c_1
I1018 00:13:13.406919 30241 net.cpp:406] lstm1_unit_2 <- gate_input_2
I1018 00:13:13.406929 30241 net.cpp:406] lstm1_unit_2 <- cont_2_lstm1_cont_slice_1_split_1
I1018 00:13:13.406939 30241 net.cpp:380] lstm1_unit_2 -> c_2
I1018 00:13:13.406952 30241 net.cpp:380] lstm1_unit_2 -> h_2
I1018 00:13:13.407035 30241 net.cpp:122] Setting up lstm1_unit_2
I1018 00:13:13.407048 30241 net.cpp:129] Top shape: 1 50 512 (25600)
I1018 00:13:13.407068 30241 net.cpp:129] Top shape: 1 50 512 (25600)
I1018 00:13:13.407075 30241 net.cpp:137] Memory required for data: 9219200
I1018 00:13:13.407083 30241 layer_factory.hpp:77] Creating layer h_2_lstm1_unit_2_1_split
I1018 00:13:13.407095 30241 net.cpp:84] Creating Layer h_2_lstm1_unit_2_1_split
I1018 00:13:13.407104 30241 net.cpp:406] h_2_lstm1_unit_2_1_split <- h_2
I1018 00:13:13.407114 30241 net.cpp:380] h_2_lstm1_unit_2_1_split -> h_2_lstm1_unit_2_1_split_0
I1018 00:13:13.407126 30241 net.cpp:380] h_2_lstm1_unit_2_1_split -> h_2_lstm1_unit_2_1_split_1
I1018 00:13:13.407186 30241 net.cpp:122] Setting up h_2_lstm1_unit_2_1_split
I1018 00:13:13.407198 30241 net.cpp:129] Top shape: 1 50 512 (25600)
I1018 00:13:13.407207 30241 net.cpp:129] Top shape: 1 50 512 (25600)
I1018 00:13:13.407214 30241 net.cpp:137] Memory required for data: 9424000
I1018 00:13:13.407222 30241 layer_factory.hpp:77] Creating layer lstm1_h_conted_2
I1018 00:13:13.407232 30241 net.cpp:84] Creating Layer lstm1_h_conted_2
I1018 00:13:13.407240 30241 net.cpp:406] lstm1_h_conted_2 <- h_2_lstm1_unit_2_1_split_0
I1018 00:13:13.407250 30241 net.cpp:406] lstm1_h_conted_2 <- cont_3_lstm1_cont_slice_2_split_0
I1018 00:13:13.407259 30241 net.cpp:380] lstm1_h_conted_2 -> h_conted_2
I1018 00:13:13.407351 30241 net.cpp:122] Setting up lstm1_h_conted_2
I1018 00:13:13.407364 30241 net.cpp:129] Top shape: 1 50 512 (25600)
I1018 00:13:13.407371 30241 net.cpp:137] Memory required for data: 9526400
I1018 00:13:13.407378 30241 layer_factory.hpp:77] Creating layer lstm1_transform_3
I1018 00:13:13.407392 30241 net.cpp:84] Creating Layer lstm1_transform_3
I1018 00:13:13.407398 30241 net.cpp:406] lstm1_transform_3 <- h_conted_2
I1018 00:13:13.407409 30241 net.cpp:380] lstm1_transform_3 -> W_hc_h_2
I1018 00:13:13.419220 30241 net.cpp:122] Setting up lstm1_transform_3
I1018 00:13:13.419248 30241 net.cpp:129] Top shape: 1 50 2048 (102400)
I1018 00:13:13.419255 30241 net.cpp:137] Memory required for data: 9936000
I1018 00:13:13.419266 30241 net.cpp:465] Sharing parameters 'W_hc' owned by layer 'lstm1_transform_1', param index 0
I1018 00:13:13.419275 30241 layer_factory.hpp:77] Creating layer lstm1_gate_input_3
I1018 00:13:13.419286 30241 net.cpp:84] Creating Layer lstm1_gate_input_3
I1018 00:13:13.419294 30241 net.cpp:406] lstm1_gate_input_3 <- W_hc_h_2
I1018 00:13:13.419304 30241 net.cpp:406] lstm1_gate_input_3 <- W_xc_x_3
I1018 00:13:13.419315 30241 net.cpp:380] lstm1_gate_input_3 -> gate_input_3
I1018 00:13:13.419371 30241 net.cpp:122] Setting up lstm1_gate_input_3
I1018 00:13:13.419384 30241 net.cpp:129] Top shape: 1 50 2048 (102400)
I1018 00:13:13.419391 30241 net.cpp:137] Memory required for data: 10345600
I1018 00:13:13.419399 30241 layer_factory.hpp:77] Creating layer lstm1_unit_3
I1018 00:13:13.419414 30241 net.cpp:84] Creating Layer lstm1_unit_3
I1018 00:13:13.419422 30241 net.cpp:406] lstm1_unit_3 <- c_2
I1018 00:13:13.419432 30241 net.cpp:406] lstm1_unit_3 <- gate_input_3
I1018 00:13:13.419440 30241 net.cpp:406] lstm1_unit_3 <- cont_3_lstm1_cont_slice_2_split_1
I1018 00:13:13.419450 30241 net.cpp:380] lstm1_unit_3 -> c_3
I1018 00:13:13.419462 30241 net.cpp:380] lstm1_unit_3 -> h_3
I1018 00:13:13.419528 30241 net.cpp:122] Setting up lstm1_unit_3
I1018 00:13:13.419540 30241 net.cpp:129] Top shape: 1 50 512 (25600)
I1018 00:13:13.419548 30241 net.cpp:129] Top shape: 1 50 512 (25600)
I1018 00:13:13.419555 30241 net.cpp:137] Memory required for data: 10550400
I1018 00:13:13.419562 30241 layer_factory.hpp:77] Creating layer h_3_lstm1_unit_3_1_split
I1018 00:13:13.419574 30241 net.cpp:84] Creating Layer h_3_lstm1_unit_3_1_split
I1018 00:13:13.419580 30241 net.cpp:406] h_3_lstm1_unit_3_1_split <- h_3
I1018 00:13:13.419594 30241 net.cpp:380] h_3_lstm1_unit_3_1_split -> h_3_lstm1_unit_3_1_split_0
I1018 00:13:13.419606 30241 net.cpp:380] h_3_lstm1_unit_3_1_split -> h_3_lstm1_unit_3_1_split_1
I1018 00:13:13.419658 30241 net.cpp:122] Setting up h_3_lstm1_unit_3_1_split
I1018 00:13:13.419670 30241 net.cpp:129] Top shape: 1 50 512 (25600)
I1018 00:13:13.419689 30241 net.cpp:129] Top shape: 1 50 512 (25600)
I1018 00:13:13.419697 30241 net.cpp:137] Memory required for data: 10755200
I1018 00:13:13.419703 30241 layer_factory.hpp:77] Creating layer lstm1_h_conted_3
I1018 00:13:13.419718 30241 net.cpp:84] Creating Layer lstm1_h_conted_3
I1018 00:13:13.419725 30241 net.cpp:406] lstm1_h_conted_3 <- h_3_lstm1_unit_3_1_split_0
I1018 00:13:13.419734 30241 net.cpp:406] lstm1_h_conted_3 <- cont_4_lstm1_cont_slice_3_split_0
I1018 00:13:13.419747 30241 net.cpp:380] lstm1_h_conted_3 -> h_conted_3
I1018 00:13:13.419832 30241 net.cpp:122] Setting up lstm1_h_conted_3
I1018 00:13:13.419847 30241 net.cpp:129] Top shape: 1 50 512 (25600)
I1018 00:13:13.419854 30241 net.cpp:137] Memory required for data: 10857600
I1018 00:13:13.419862 30241 layer_factory.hpp:77] Creating layer lstm1_transform_4
I1018 00:13:13.419903 30241 net.cpp:84] Creating Layer lstm1_transform_4
I1018 00:13:13.419915 30241 net.cpp:406] lstm1_transform_4 <- h_conted_3
I1018 00:13:13.419930 30241 net.cpp:380] lstm1_transform_4 -> W_hc_h_3
I1018 00:13:13.431720 30241 net.cpp:122] Setting up lstm1_transform_4
I1018 00:13:13.431740 30241 net.cpp:129] Top shape: 1 50 2048 (102400)
I1018 00:13:13.431747 30241 net.cpp:137] Memory required for data: 11267200
I1018 00:13:13.431756 30241 net.cpp:465] Sharing parameters 'W_hc' owned by layer 'lstm1_transform_1', param index 0
I1018 00:13:13.431764 30241 layer_factory.hpp:77] Creating layer lstm1_gate_input_4
I1018 00:13:13.431779 30241 net.cpp:84] Creating Layer lstm1_gate_input_4
I1018 00:13:13.431787 30241 net.cpp:406] lstm1_gate_input_4 <- W_hc_h_3
I1018 00:13:13.431797 30241 net.cpp:406] lstm1_gate_input_4 <- W_xc_x_4
I1018 00:13:13.431808 30241 net.cpp:380] lstm1_gate_input_4 -> gate_input_4
I1018 00:13:13.431850 30241 net.cpp:122] Setting up lstm1_gate_input_4
I1018 00:13:13.431864 30241 net.cpp:129] Top shape: 1 50 2048 (102400)
I1018 00:13:13.431870 30241 net.cpp:137] Memory required for data: 11676800
I1018 00:13:13.431876 30241 layer_factory.hpp:77] Creating layer lstm1_unit_4
I1018 00:13:13.431892 30241 net.cpp:84] Creating Layer lstm1_unit_4
I1018 00:13:13.431900 30241 net.cpp:406] lstm1_unit_4 <- c_3
I1018 00:13:13.431921 30241 net.cpp:406] lstm1_unit_4 <- gate_input_4
I1018 00:13:13.431931 30241 net.cpp:406] lstm1_unit_4 <- cont_4_lstm1_cont_slice_3_split_1
I1018 00:13:13.431939 30241 net.cpp:380] lstm1_unit_4 -> c_4
I1018 00:13:13.431952 30241 net.cpp:380] lstm1_unit_4 -> h_4
I1018 00:13:13.432015 30241 net.cpp:122] Setting up lstm1_unit_4
I1018 00:13:13.432052 30241 net.cpp:129] Top shape: 1 50 512 (25600)
I1018 00:13:13.432065 30241 net.cpp:129] Top shape: 1 50 512 (25600)
I1018 00:13:13.432071 30241 net.cpp:137] Memory required for data: 11881600
I1018 00:13:13.432078 30241 layer_factory.hpp:77] Creating layer lstm1_
I1018 00:13:13.432088 30241 net.cpp:84] Creating Layer lstm1_
I1018 00:13:13.432096 30241 net.cpp:406] lstm1_ <- c_4
I1018 00:13:13.432106 30241 net.cpp:380] lstm1_ -> c_T
I1018 00:13:13.432148 30241 net.cpp:122] Setting up lstm1_
I1018 00:13:13.432162 30241 net.cpp:129] Top shape: 1 50 512 (25600)
I1018 00:13:13.432168 30241 net.cpp:137] Memory required for data: 11984000
I1018 00:13:13.432175 30241 layer_factory.hpp:77] Creating layer lstm1_h_concat
I1018 00:13:13.432188 30241 net.cpp:84] Creating Layer lstm1_h_concat
I1018 00:13:13.432195 30241 net.cpp:406] lstm1_h_concat <- h_1_lstm1_unit_1_1_split_1
I1018 00:13:13.432205 30241 net.cpp:406] lstm1_h_concat <- h_2_lstm1_unit_2_1_split_1
I1018 00:13:13.432214 30241 net.cpp:406] lstm1_h_concat <- h_3_lstm1_unit_3_1_split_1
I1018 00:13:13.432222 30241 net.cpp:406] lstm1_h_concat <- h_4
I1018 00:13:13.432232 30241 net.cpp:380] lstm1_h_concat -> h
I1018 00:13:13.432274 30241 net.cpp:122] Setting up lstm1_h_concat
I1018 00:13:13.432286 30241 net.cpp:129] Top shape: 4 50 512 (102400)
I1018 00:13:13.432293 30241 net.cpp:137] Memory required for data: 12393600
I1018 00:13:13.432325 30241 layer_factory.hpp:77] Creating layer h_pseudoloss
I1018 00:13:13.432337 30241 net.cpp:84] Creating Layer h_pseudoloss
I1018 00:13:13.432344 30241 net.cpp:406] h_pseudoloss <- h
I1018 00:13:13.432355 30241 net.cpp:380] h_pseudoloss -> h_pseudoloss
I1018 00:13:13.433257 30241 net.cpp:122] Setting up h_pseudoloss
…
I1018 00:13:13.433545 30241 net.cpp:200] lstm1_ does not need backward computation.
I1018 00:13:13.433552 30241 net.cpp:242] This network produces output c_T
I1018 00:13:13.433558 30241 net.cpp:242] This network produces output h_pseudoloss
I1018 00:13:13.436210 30241 net.cpp:255] Network initialization done.
I1018 00:13:13.436311 30241 recurrent_layer.cpp:150] Adding parameter 0: W_xc
I1018 00:13:13.436323 30241 recurrent_layer.cpp:150] Adding parameter 1: b_c
I1018 00:13:13.436331 30241 recurrent_layer.cpp:150] Adding parameter 2: W_hc
I1018 00:13:13.436547 30241 net.cpp:122] Setting up lstm1
I1018 00:13:13.436564 30241 net.cpp:129] Top shape: 4 50 512 (102400)
I1018 00:13:13.436571 30241 net.cpp:137] Memory required for data: 9546858200
I1018 00:13:13.436588 30241 layer_factory.hpp:77] Creating layer lstm1-drop
I1018 00:13:13.436599 30241 net.cpp:84] Creating Layer lstm1-drop
I1018 00:13:13.436609 30241 net.cpp:406] lstm1-drop <- lstm1
I1018 00:13:13.436620 30241 net.cpp:380] lstm1-drop -> lstm1-drop
I1018 00:13:13.436674 30241 net.cpp:122] Setting up lstm1-drop
I1018 00:13:13.436687 30241 net.cpp:129] Top shape: 4 50 512 (102400)
I1018 00:13:13.436694 30241 net.cpp:137] Memory required for data: 9547267800
I1018 00:13:13.436700 30241 layer_factory.hpp:77] Creating layer fc-final
I1018 00:13:13.436712 30241 net.cpp:84] Creating Layer fc-final
I1018 00:13:13.436720 30241 net.cpp:406] fc-final <- lstm1-drop
I1018 00:13:13.436731 30241 net.cpp:380] fc-final -> fc-final
I1018 00:13:13.437072 30241 net.cpp:122] Setting up fc-final
I1018 00:13:13.437088 30241 net.cpp:129] Top shape: 4 50 10 (2000)
I1018 00:13:13.437095 30241 net.cpp:137] Memory required for data: 9547275800
I1018 00:13:13.437117 30241 layer_factory.hpp:77] Creating layer fc-final_fc-final_0_split
I1018 00:13:13.437134 30241 net.cpp:84] Creating Layer fc-final_fc-final_0_split
I1018 00:13:13.437141 30241 net.cpp:406] fc-final_fc-final_0_split <- fc-final
I1018 00:13:13.437152 30241 net.cpp:380] fc-final_fc-final_0_split -> fc-final_fc-final_0_split_0
I1018 00:13:13.437171 30241 net.cpp:380] fc-final_fc-final_0_split -> fc-final_fc-final_0_split_1
I1018 00:13:13.437227 30241 net.cpp:122] Setting up fc-final_fc-final_0_split
I1018 00:13:13.437240 30241 net.cpp:129] Top shape: 4 50 10 (2000)
I1018 00:13:13.437250 30241 net.cpp:129] Top shape: 4 50 10 (2000)
I1018 00:13:13.437258 30241 net.cpp:137] Memory required for data: 9547291800
I1018 00:13:13.437264 30241 layer_factory.hpp:77] Creating layer loss
I1018 00:13:13.437276 30241 net.cpp:84] Creating Layer loss
I1018 00:13:13.437284 30241 net.cpp:406] loss <- fc-final_fc-final_0_split_0
I1018 00:13:13.437295 30241 net.cpp:406] loss <- reshape-label_label_tran_0_split_0
I1018 00:13:13.437305 30241 net.cpp:380] loss -> loss
…
