…
I1017 11:46:29.762045 26184 net.cpp:294] The NetState phase (0) differed from the phase (1) specified by a rule in layer Silence
I1017 11:46:29.762264 26184 net.cpp:51] Initializing net from parameters: 
name: "VGG-Places365"
state {
  phase: TRAIN
  level: 0
  stage: ""
}
layer {
  name: "data"
  type: "ImageData"
  top: "data"
  top: "label"
  include {
    phase: TRAIN
  }
  transform_param {
    mirror: true
    crop_size: 224
    mean_value: 104
    mean_value: 117
    mean_value: 123
  }
  image_data_param {
    source: "../Data/lsun_train_list_12w.txt"
    batch_size: 4
    shuffle: true
    new_height: 256
    new_width: 256
  }
}
layer {
  name: "label_tran"
  type: "Python"
  bottom: "label"
  top: "reshape-label"
  top: "clip_markers"
  python_param {
    module: "data_preparation_sort_max_clip"
    layer: "ReshapeLabel"
  }
}
layer {
  name: "conv1_1"
  type: "Convolution"
  bottom: "data"
  top: "conv1_1"
  convolution_param {
    num_output: 64
    pad: 1
    kernel_size: 3
  }
}
layer {
  name: "relu1_1"
  type: "ReLU"
  bottom: "conv1_1"
  top: "conv1_1"
}
layer {
  name: "conv1_2"
  type: "Convolution"
  bottom: "conv1_1"
  top: "conv1_2"
  convolution_param {
    num_output: 64
    pad: 1
    kernel_size: 3
  }
}
layer {
  name: "relu1_2"
  type: "ReLU"
  bottom: "conv1_2"
  top: "conv1_2"
}
layer {
  name: "pool1"
  type: "Pooling"
  bottom: "conv1_2"
  top: "pool1"
  pooling_param {
    pool: MAX
    kernel_size: 2
    stride: 2
  }
}
layer {
  name: "conv2_1"
  type: "Convolution"
  bottom: "pool1"
  top: "conv2_1"
  convolution_param {
    num_output: 128
    pad: 1
    kernel_size: 3
  }
}
layer {
  name: "relu2_1"
  type: "ReLU"
  bottom: "conv2_1"
  top: "conv2_1"
}
layer {
  name: "conv2_2"
  type: "Convolution"
  bottom: "conv2_1"
  top: "conv2_2"
  convolution_param {
    num_output: 128
    pad: 1
    kernel_size: 3
  }
}
layer {
  name: "relu2_2"
  type: "ReLU"
  bottom: "conv2_2"
  top: "conv2_2"
}
layer {
  name: "pool2"
  type: "Pooling"
  bottom: "conv2_2"
  top: "pool2"
  pooling_param {
    pool: MAX
    kernel_size: 2
    stride: 2
  }
}
layer {
  name: "conv3_1"
  type: "Convolution"
  bottom: "pool2"
  top: "conv3_1"
  convolution_param {
    num_output: 256
    pad: 1
    kernel_size: 3
  }
}
layer {
  name: "relu3_1"
  type: "ReLU"
  bottom: "conv3_1"
  top: "conv3_1"
}
layer {
  name: "conv3_2"
  type: "Convolution"
  bottom: "conv3_1"
  top: "conv3_2"
  convolution_param {
    num_output: 256
    pad: 1
    kernel_size: 3
  }
}
layer {
  name: "relu3_2"
  type: "ReLU"
  bottom: "conv3_2"
  top: "conv3_2"
}
layer {
  name: "conv3_3"
  type: "Convolution"
  bottom: "conv3_2"
  top: "conv3_3"
  convolution_param {
    num_output: 256
    pad: 1
    kernel_size: 3
  }
}
layer {
  name: "relu3_3"
  type: "ReLU"
  bottom: "conv3_3"
  top: "conv3_3"
}
layer {
  name: "pool3"
  type: "Pooling"
  bottom: "conv3_3"
  top: "pool3"
  pooling_param {
    pool: MAX
    kernel_size: 2
    stride: 2
  }
}
layer {
  name: "conv4_1"
  type: "Convolution"
  bottom: "pool3"
  top: "conv4_1"
  convolution_param {
    num_output: 512
    pad: 1
    kernel_size: 3
  }
}
layer {
  name: "relu4_1"
  type: "ReLU"
  bottom: "conv4_1"
  top: "conv4_1"
}
layer {
  name: "conv4_2"
  type: "Convolution"
  bottom: "conv4_1"
  top: "conv4_2"
  convolution_param {
    num_output: 512
    pad: 1
    kernel_size: 3
  }
}
layer {
  name: "relu4_2"
  type: "ReLU"
  bottom: "conv4_2"
  top: "conv4_2"
}
layer {
  name: "conv4_3"
  type: "Convolution"
  bottom: "conv4_2"
  top: "conv4_3"
  convolution_param {
    num_output: 512
    pad: 1
    kernel_size: 3
  }
}
layer {
  name: "relu4_3"
  type: "ReLU"
  bottom: "conv4_3"
  top: "conv4_3"
}
layer {
  name: "pool4"
  type: "Pooling"
  bottom: "conv4_3"
  top: "pool4"
  pooling_param {
    pool: MAX
    kernel_size: 2
    stride: 2
  }
}
layer {
  name: "conv5_1"
  type: "Convolution"
  bottom: "pool4"
  top: "conv5_1"
  convolution_param {
    num_output: 512
    pad: 1
    kernel_size: 3
  }
}
layer {
  name: "relu5_1"
  type: "ReLU"
  bottom: "conv5_1"
  top: "conv5_1"
}
layer {
  name: "conv5_2"
  type: "Convolution"
  bottom: "conv5_1"
  top: "conv5_2"
  convolution_param {
    num_output: 512
    pad: 1
    kernel_size: 3
  }
}
layer {
  name: "relu5_2"
  type: "ReLU"
  bottom: "conv5_2"
  top: "conv5_2"
}
layer {
  name: "conv5_3"
  type: "Convolution"
  bottom: "conv5_2"
  top: "conv5_3"
  convolution_param {
    num_output: 512
    pad: 1
    kernel_size: 3
  }
}
layer {
  name: "relu5_3"
  type: "ReLU"
  bottom: "conv5_3"
  top: "conv5_3"
}
layer {
  name: "conv5_3_re"
  type: "Reshape"
  bottom: "conv5_3"
  top: "conv5_3_re"
  reshape_param {
    shape {
      dim: 0
      dim: 0
      dim: -1
    }
  }
}
layer {
  name: "conv5_3_tran"
  type: "Python"
  bottom: "conv5_3_re"
  top: "conv5_3_tran"
  python_param {
    module: "data_preparation_sort_max_clip"
    layer: "DataTransposeSortMaxClip"
  }
}
layer {
  name: "lstm1"
  type: "LSTM"
  bottom: "conv5_3_tran"
  bottom: "clip_markers"
  top: "lstm1"
  recurrent_param {
    num_output: 512
    weight_filler {
      type: "uniform"
      min: -0.01
      max: 0.01
    }
    bias_filler {
      type: "constant"
      value: 0
    }
  }
}
layer {
  name: "lstm1-drop"
  type: "Dropout"
  bottom: "lstm1"
  top: "lstm1-drop"
  dropout_param {
    dropout_ratio: 0.5
  }
}
layer {
  name: "fc-final"
  type: "InnerProduct"
  bottom: "lstm1-drop"
  top: "fc-final"
  param {
    lr_mult: 1
    decay_mult: 1
  }
  param {
    lr_mult: 2
    decay_mult: 0
  }
  inner_product_param {
    num_output: 10
    weight_filler {
      type: "gaussian"
      std: 0.01
    }
    bias_filler {
      type: "constant"
      value: 0
    }
    axis: 2
  }
}
layer {
  name: "loss"
  type: "SoftmaxWithLoss"
  bottom: "fc-final"
  bottom: "reshape-label"
  top: "loss"
  softmax_param {
    axis: 2
  }
}
layer {
  name: "accuracy"
  type: "Accuracy"
  bottom: "fc-final"
  bottom: "reshape-label"
  top: "accuracy"
  accuracy_param {
    axis: 2
  }
}
I1017 11:46:29.762497 26184 layer_factory.hpp:77] Creating layer data
I1017 11:46:29.762565 26184 net.cpp:84] Creating Layer data
I1017 11:46:29.762580 26184 net.cpp:380] data -> data
I1017 11:46:29.762629 26184 net.cpp:380] data -> label
I1017 11:46:29.762665 26184 image_data_layer.cpp:38] Opening file ../Data/lsun_train_list_12w.txt
I1017 11:46:30.338109 26184 image_data_layer.cpp:53] Shuffling data
I1017 11:46:30.632794 26184 image_data_layer.cpp:63] A total of 1200000 images.
I1017 11:46:30.637455 26184 image_data_layer.cpp:90] output data size: 4,3,224,224
I1017 11:46:30.647066 26184 net.cpp:122] Setting up data
I1017 11:46:30.647146 26184 net.cpp:129] Top shape: 4 3 224 224 (602112)
I1017 11:46:30.647156 26184 net.cpp:129] Top shape: 4 (4)
I1017 11:46:30.647161 26184 net.cpp:137] Memory required for data: 2408464
I1017 11:46:30.647173 26184 layer_factory.hpp:77] Creating layer label_tran
I1017 11:46:31.260378 26184 net.cpp:84] Creating Layer label_tran
I1017 11:46:31.260421 26184 net.cpp:406] label_tran <- label
I1017 11:46:31.260452 26184 net.cpp:380] label_tran -> reshape-label
I1017 11:46:31.260475 26184 net.cpp:380] label_tran -> clip_markers
I1017 11:46:31.260778 26184 net.cpp:122] Setting up label_tran
I1017 11:46:31.260799 26184 net.cpp:129] Top shape: 128 4 (512)
I1017 11:46:31.260810 26184 net.cpp:129] Top shape: 128 4 (512)
I1017 11:46:31.260818 26184 net.cpp:137] Memory required for data: 2412560
I1017 11:46:31.260828 26184 layer_factory.hpp:77] Creating layer reshape-label_label_tran_0_split
I1017 11:46:31.260854 26184 net.cpp:84] Creating Layer reshape-label_label_tran_0_split
I1017 11:46:31.260864 26184 net.cpp:406] reshape-label_label_tran_0_split <- reshape-label
I1017 11:46:31.260875 26184 net.cpp:380] reshape-label_label_tran_0_split -> reshape-label_label_tran_0_split_0
I1017 11:46:31.260890 26184 net.cpp:380] reshape-label_label_tran_0_split -> reshape-label_label_tran_0_split_1
I1017 11:46:31.260941 26184 net.cpp:122] Setting up reshape-label_label_tran_0_split
I1017 11:46:31.260957 26184 net.cpp:129] Top shape: 128 4 (512)
I1017 11:46:31.260965 26184 net.cpp:129] Top shape: 128 4 (512)
I1017 11:46:31.260973 26184 net.cpp:137] Memory required for data: 2416656
I1017 11:46:31.260980 26184 layer_factory.hpp:77] Creating layer conv1_1
I1017 11:46:31.261009 26184 net.cpp:84] Creating Layer conv1_1
I1017 11:46:31.261019 26184 net.cpp:406] conv1_1 <- data
I1017 11:46:31.261032 26184 net.cpp:380] conv1_1 -> conv1_1
I1017 11:46:31.262979 26184 net.cpp:122] Setting up conv1_1
I1017 11:46:31.263001 26184 net.cpp:129] Top shape: 4 64 224 224 (12845056)
I1017 11:46:31.263011 26184 net.cpp:137] Memory required for data: 53796880
I1017 11:46:31.263049 26184 layer_factory.hpp:77] Creating layer relu1_1
I1017 11:46:31.263070 26184 net.cpp:84] Creating Layer relu1_1
I1017 11:46:31.263080 26184 net.cpp:406] relu1_1 <- conv1_1
I1017 11:46:31.263092 26184 net.cpp:367] relu1_1 -> conv1_1 (in-place)
I1017 11:46:31.263113 26184 net.cpp:122] Setting up relu1_1
I1017 11:46:31.263129 26184 net.cpp:129] Top shape: 4 64 224 224 (12845056)
I1017 11:46:31.263137 26184 net.cpp:137] Memory required for data: 105177104
I1017 11:46:31.263147 26184 layer_factory.hpp:77] Creating layer conv1_2
I1017 11:46:31.263164 26184 net.cpp:84] Creating Layer conv1_2
I1017 11:46:31.263172 26184 net.cpp:406] conv1_2 <- conv1_1
I1017 11:46:31.263183 26184 net.cpp:380] conv1_2 -> conv1_2
I1017 11:46:31.263466 26184 net.cpp:122] Setting up conv1_2
I1017 11:46:31.263481 26184 net.cpp:129] Top shape: 4 64 224 224 (12845056)
I1017 11:46:31.263489 26184 net.cpp:137] Memory required for data: 156557328
I1017 11:46:31.263505 26184 layer_factory.hpp:77] Creating layer relu1_2
I1017 11:46:31.263520 26184 net.cpp:84] Creating Layer relu1_2
I1017 11:46:31.263528 26184 net.cpp:406] relu1_2 <- conv1_2
I1017 11:46:31.263540 26184 net.cpp:367] relu1_2 -> conv1_2 (in-place)
I1017 11:46:31.263552 26184 net.cpp:122] Setting up relu1_2
I1017 11:46:31.263563 26184 net.cpp:129] Top shape: 4 64 224 224 (12845056)
I1017 11:46:31.263571 26184 net.cpp:137] Memory required for data: 207937552
I1017 11:46:31.263578 26184 layer_factory.hpp:77] Creating layer pool1
I1017 11:46:31.263593 26184 net.cpp:84] Creating Layer pool1
I1017 11:46:31.263602 26184 net.cpp:406] pool1 <- conv1_2
I1017 11:46:31.263612 26184 net.cpp:380] pool1 -> pool1
I1017 11:46:31.263679 26184 net.cpp:122] Setting up pool1
I1017 11:46:31.263692 26184 net.cpp:129] Top shape: 4 64 112 112 (3211264)
I1017 11:46:31.263700 26184 net.cpp:137] Memory required for data: 220782608
I1017 11:46:31.263708 26184 layer_factory.hpp:77] Creating layer conv2_1
I1017 11:46:31.263723 26184 net.cpp:84] Creating Layer conv2_1
I1017 11:46:31.263732 26184 net.cpp:406] conv2_1 <- pool1
I1017 11:46:31.263743 26184 net.cpp:380] conv2_1 -> conv2_1
I1017 11:46:31.265522 26184 net.cpp:122] Setting up conv2_1
I1017 11:46:31.265542 26184 net.cpp:129] Top shape: 4 128 112 112 (6422528)
I1017 11:46:31.265550 26184 net.cpp:137] Memory required for data: 246472720
I1017 11:46:31.265571 26184 layer_factory.hpp:77] Creating layer relu2_1
I1017 11:46:31.265586 26184 net.cpp:84] Creating Layer relu2_1
I1017 11:46:31.265595 26184 net.cpp:406] relu2_1 <- conv2_1
I1017 11:46:31.265607 26184 net.cpp:367] relu2_1 -> conv2_1 (in-place)
I1017 11:46:31.265621 26184 net.cpp:122] Setting up relu2_1
I1017 11:46:31.265631 26184 net.cpp:129] Top shape: 4 128 112 112 (6422528)
I1017 11:46:31.265640 26184 net.cpp:137] Memory required for data: 272162832
I1017 11:46:31.265646 26184 layer_factory.hpp:77] Creating layer conv2_2
I1017 11:46:31.265660 26184 net.cpp:84] Creating Layer conv2_2
I1017 11:46:31.265667 26184 net.cpp:406] conv2_2 <- conv2_1
I1017 11:46:31.265679 26184 net.cpp:380] conv2_2 -> conv2_2
I1017 11:46:31.265998 26184 net.cpp:122] Setting up conv2_2
I1017 11:46:31.266014 26184 net.cpp:129] Top shape: 4 128 112 112 (6422528)
I1017 11:46:31.266022 26184 net.cpp:137] Memory required for data: 297852944
I1017 11:46:31.266036 26184 layer_factory.hpp:77] Creating layer relu2_2
I1017 11:46:31.266047 26184 net.cpp:84] Creating Layer relu2_2
I1017 11:46:31.266055 26184 net.cpp:406] relu2_2 <- conv2_2
I1017 11:46:31.266067 26184 net.cpp:367] relu2_2 -> conv2_2 (in-place)
I1017 11:46:31.266079 26184 net.cpp:122] Setting up relu2_2
I1017 11:46:31.266090 26184 net.cpp:129] Top shape: 4 128 112 112 (6422528)
I1017 11:46:31.266098 26184 net.cpp:137] Memory required for data: 323543056
I1017 11:46:31.266104 26184 layer_factory.hpp:77] Creating layer pool2
I1017 11:46:31.266115 26184 net.cpp:84] Creating Layer pool2
I1017 11:46:31.266124 26184 net.cpp:406] pool2 <- conv2_2
I1017 11:46:31.266134 26184 net.cpp:380] pool2 -> pool2
I1017 11:46:31.266185 26184 net.cpp:122] Setting up pool2
I1017 11:46:31.266197 26184 net.cpp:129] Top shape: 4 128 56 56 (1605632)
I1017 11:46:31.266204 26184 net.cpp:137] Memory required for data: 329965584
I1017 11:46:31.266212 26184 layer_factory.hpp:77] Creating layer conv3_1
I1017 11:46:31.266227 26184 net.cpp:84] Creating Layer conv3_1
I1017 11:46:31.266234 26184 net.cpp:406] conv3_1 <- pool2
I1017 11:46:31.266247 26184 net.cpp:380] conv3_1 -> conv3_1
I1017 11:46:31.267454 26184 net.cpp:122] Setting up conv3_1
I1017 11:46:31.267473 26184 net.cpp:129] Top shape: 4 256 56 56 (3211264)
I1017 11:46:31.267482 26184 net.cpp:137] Memory required for data: 342810640
I1017 11:46:31.267501 26184 layer_factory.hpp:77] Creating layer relu3_1
I1017 11:46:31.267515 26184 net.cpp:84] Creating Layer relu3_1
I1017 11:46:31.267532 26184 net.cpp:406] relu3_1 <- conv3_1
I1017 11:46:31.267544 26184 net.cpp:367] relu3_1 -> conv3_1 (in-place)
I1017 11:46:31.267558 26184 net.cpp:122] Setting up relu3_1
I1017 11:46:31.267568 26184 net.cpp:129] Top shape: 4 256 56 56 (3211264)
I1017 11:46:31.267576 26184 net.cpp:137] Memory required for data: 355655696
I1017 11:46:31.267585 26184 layer_factory.hpp:77] Creating layer conv3_2
I1017 11:46:31.267597 26184 net.cpp:84] Creating Layer conv3_2
I1017 11:46:31.267606 26184 net.cpp:406] conv3_2 <- conv3_1
I1017 11:46:31.267616 26184 net.cpp:380] conv3_2 -> conv3_2
I1017 11:46:31.269479 26184 net.cpp:122] Setting up conv3_2
I1017 11:46:31.269497 26184 net.cpp:129] Top shape: 4 256 56 56 (3211264)
I1017 11:46:31.269505 26184 net.cpp:137] Memory required for data: 368500752
I1017 11:46:31.269518 26184 layer_factory.hpp:77] Creating layer relu3_2
I1017 11:46:31.269536 26184 net.cpp:84] Creating Layer relu3_2
I1017 11:46:31.269546 26184 net.cpp:406] relu3_2 <- conv3_2
I1017 11:46:31.269557 26184 net.cpp:367] relu3_2 -> conv3_2 (in-place)
I1017 11:46:31.269570 26184 net.cpp:122] Setting up relu3_2
I1017 11:46:31.269582 26184 net.cpp:129] Top shape: 4 256 56 56 (3211264)
I1017 11:46:31.269588 26184 net.cpp:137] Memory required for data: 381345808
I1017 11:46:31.269596 26184 layer_factory.hpp:77] Creating layer conv3_3
I1017 11:46:31.269614 26184 net.cpp:84] Creating Layer conv3_3
I1017 11:46:31.269630 26184 net.cpp:406] conv3_3 <- conv3_2
I1017 11:46:31.269644 26184 net.cpp:380] conv3_3 -> conv3_3
I1017 11:46:31.271502 26184 net.cpp:122] Setting up conv3_3
I1017 11:46:31.271519 26184 net.cpp:129] Top shape: 4 256 56 56 (3211264)
I1017 11:46:31.271528 26184 net.cpp:137] Memory required for data: 394190864
I1017 11:46:31.271543 26184 layer_factory.hpp:77] Creating layer relu3_3
I1017 11:46:31.271558 26184 net.cpp:84] Creating Layer relu3_3
I1017 11:46:31.271566 26184 net.cpp:406] relu3_3 <- conv3_3
I1017 11:46:31.271577 26184 net.cpp:367] relu3_3 -> conv3_3 (in-place)
I1017 11:46:31.271590 26184 net.cpp:122] Setting up relu3_3
I1017 11:46:31.271601 26184 net.cpp:129] Top shape: 4 256 56 56 (3211264)
I1017 11:46:31.271610 26184 net.cpp:137] Memory required for data: 407035920
I1017 11:46:31.271616 26184 layer_factory.hpp:77] Creating layer pool3
I1017 11:46:31.271631 26184 net.cpp:84] Creating Layer pool3
I1017 11:46:31.271639 26184 net.cpp:406] pool3 <- conv3_3
I1017 11:46:31.271651 26184 net.cpp:380] pool3 -> pool3
I1017 11:46:31.271705 26184 net.cpp:122] Setting up pool3
I1017 11:46:31.271718 26184 net.cpp:129] Top shape: 4 256 28 28 (802816)
I1017 11:46:31.271725 26184 net.cpp:137] Memory required for data: 410247184
I1017 11:46:31.271733 26184 layer_factory.hpp:77] Creating layer conv4_1
I1017 11:46:31.271746 26184 net.cpp:84] Creating Layer conv4_1
I1017 11:46:31.271754 26184 net.cpp:406] conv4_1 <- pool3
I1017 11:46:31.271769 26184 net.cpp:380] conv4_1 -> conv4_1
I1017 11:46:31.275650 26184 net.cpp:122] Setting up conv4_1
I1017 11:46:31.275668 26184 net.cpp:129] Top shape: 4 512 28 28 (1605632)
I1017 11:46:31.275676 26184 net.cpp:137] Memory required for data: 416669712
I1017 11:46:31.275689 26184 layer_factory.hpp:77] Creating layer relu4_1
I1017 11:46:31.275702 26184 net.cpp:84] Creating Layer relu4_1
I1017 11:46:31.275710 26184 net.cpp:406] relu4_1 <- conv4_1
I1017 11:46:31.275724 26184 net.cpp:367] relu4_1 -> conv4_1 (in-place)
I1017 11:46:31.275738 26184 net.cpp:122] Setting up relu4_1
I1017 11:46:31.275748 26184 net.cpp:129] Top shape: 4 512 28 28 (1605632)
I1017 11:46:31.275756 26184 net.cpp:137] Memory required for data: 423092240
I1017 11:46:31.275765 26184 layer_factory.hpp:77] Creating layer conv4_2
I1017 11:46:31.275777 26184 net.cpp:84] Creating Layer conv4_2
I1017 11:46:31.275785 26184 net.cpp:406] conv4_2 <- conv4_1
I1017 11:46:31.275799 26184 net.cpp:380] conv4_2 -> conv4_2
I1017 11:46:31.281787 26184 net.cpp:122] Setting up conv4_2
I1017 11:46:31.281817 26184 net.cpp:129] Top shape: 4 512 28 28 (1605632)
I1017 11:46:31.281826 26184 net.cpp:137] Memory required for data: 429514768
I1017 11:46:31.281852 26184 layer_factory.hpp:77] Creating layer relu4_2
I1017 11:46:31.281867 26184 net.cpp:84] Creating Layer relu4_2
I1017 11:46:31.281875 26184 net.cpp:406] relu4_2 <- conv4_2
I1017 11:46:31.281890 26184 net.cpp:367] relu4_2 -> conv4_2 (in-place)
I1017 11:46:31.281905 26184 net.cpp:122] Setting up relu4_2
I1017 11:46:31.281924 26184 net.cpp:129] Top shape: 4 512 28 28 (1605632)
I1017 11:46:31.281932 26184 net.cpp:137] Memory required for data: 435937296
I1017 11:46:31.281941 26184 layer_factory.hpp:77] Creating layer conv4_3
I1017 11:46:31.281956 26184 net.cpp:84] Creating Layer conv4_3
I1017 11:46:31.281965 26184 net.cpp:406] conv4_3 <- conv4_2
I1017 11:46:31.281978 26184 net.cpp:380] conv4_3 -> conv4_3
I1017 11:46:31.287744 26184 net.cpp:122] Setting up conv4_3
I1017 11:46:31.287766 26184 net.cpp:129] Top shape: 4 512 28 28 (1605632)
I1017 11:46:31.287773 26184 net.cpp:137] Memory required for data: 442359824
I1017 11:46:31.287786 26184 layer_factory.hpp:77] Creating layer relu4_3
I1017 11:46:31.287798 26184 net.cpp:84] Creating Layer relu4_3
I1017 11:46:31.287807 26184 net.cpp:406] relu4_3 <- conv4_3
I1017 11:46:31.287824 26184 net.cpp:367] relu4_3 -> conv4_3 (in-place)
I1017 11:46:31.287838 26184 net.cpp:122] Setting up relu4_3
I1017 11:46:31.287849 26184 net.cpp:129] Top shape: 4 512 28 28 (1605632)
I1017 11:46:31.287856 26184 net.cpp:137] Memory required for data: 448782352
I1017 11:46:31.287864 26184 layer_factory.hpp:77] Creating layer pool4
I1017 11:46:31.287876 26184 net.cpp:84] Creating Layer pool4
I1017 11:46:31.287884 26184 net.cpp:406] pool4 <- conv4_3
I1017 11:46:31.287899 26184 net.cpp:380] pool4 -> pool4
I1017 11:46:31.287952 26184 net.cpp:122] Setting up pool4
I1017 11:46:31.287966 26184 net.cpp:129] Top shape: 4 512 14 14 (401408)
I1017 11:46:31.287973 26184 net.cpp:137] Memory required for data: 450387984
I1017 11:46:31.287982 26184 layer_factory.hpp:77] Creating layer conv5_1
I1017 11:46:31.287998 26184 net.cpp:84] Creating Layer conv5_1
I1017 11:46:31.288007 26184 net.cpp:406] conv5_1 <- pool4
I1017 11:46:31.288017 26184 net.cpp:380] conv5_1 -> conv5_1
I1017 11:46:31.294042 26184 net.cpp:122] Setting up conv5_1
I1017 11:46:31.294068 26184 net.cpp:129] Top shape: 4 512 14 14 (401408)
I1017 11:46:31.294076 26184 net.cpp:137] Memory required for data: 451993616
I1017 11:46:31.294090 26184 layer_factory.hpp:77] Creating layer relu5_1
I1017 11:46:31.294104 26184 net.cpp:84] Creating Layer relu5_1
I1017 11:46:31.294113 26184 net.cpp:406] relu5_1 <- conv5_1
I1017 11:46:31.294128 26184 net.cpp:367] relu5_1 -> conv5_1 (in-place)
I1017 11:46:31.294143 26184 net.cpp:122] Setting up relu5_1
I1017 11:46:31.294154 26184 net.cpp:129] Top shape: 4 512 14 14 (401408)
I1017 11:46:31.294162 26184 net.cpp:137] Memory required for data: 453599248
I1017 11:46:31.294169 26184 layer_factory.hpp:77] Creating layer conv5_2
I1017 11:46:31.294184 26184 net.cpp:84] Creating Layer conv5_2
I1017 11:46:31.294193 26184 net.cpp:406] conv5_2 <- conv5_1
I1017 11:46:31.294204 26184 net.cpp:380] conv5_2 -> conv5_2
I1017 11:46:31.312757 26184 net.cpp:122] Setting up conv5_2
I1017 11:46:31.313661 26184 net.cpp:129] Top shape: 4 512 14 14 (401408)
I1017 11:46:31.313732 26184 net.cpp:137] Memory required for data: 455204880
I1017 11:46:31.313750 26184 layer_factory.hpp:77] Creating layer relu5_2
I1017 11:46:31.313766 26184 net.cpp:84] Creating Layer relu5_2
I1017 11:46:31.313776 26184 net.cpp:406] relu5_2 <- conv5_2
I1017 11:46:31.313792 26184 net.cpp:367] relu5_2 -> conv5_2 (in-place)
I1017 11:46:31.313810 26184 net.cpp:122] Setting up relu5_2
I1017 11:46:31.313830 26184 net.cpp:129] Top shape: 4 512 14 14 (401408)
I1017 11:46:31.313838 26184 net.cpp:137] Memory required for data: 456810512
I1017 11:46:31.313849 26184 layer_factory.hpp:77] Creating layer conv5_3
I1017 11:46:31.313992 26184 net.cpp:84] Creating Layer conv5_3
I1017 11:46:31.314270 26184 net.cpp:406] conv5_3 <- conv5_2
I1017 11:46:31.314545 26184 net.cpp:380] conv5_3 -> conv5_3
I1017 11:46:31.322780 26184 net.cpp:122] Setting up conv5_3
I1017 11:46:31.322810 26184 net.cpp:129] Top shape: 4 512 14 14 (401408)
I1017 11:46:31.322818 26184 net.cpp:137] Memory required for data: 458416144
I1017 11:46:31.322832 26184 layer_factory.hpp:77] Creating layer relu5_3
I1017 11:46:31.322860 26184 net.cpp:84] Creating Layer relu5_3
I1017 11:46:31.322870 26184 net.cpp:406] relu5_3 <- conv5_3
I1017 11:46:31.322886 26184 net.cpp:367] relu5_3 -> conv5_3 (in-place)
I1017 11:46:31.322912 26184 net.cpp:122] Setting up relu5_3
I1017 11:46:31.322928 26184 net.cpp:129] Top shape: 4 512 14 14 (401408)
I1017 11:46:31.322937 26184 net.cpp:137] Memory required for data: 460021776
I1017 11:46:31.322944 26184 layer_factory.hpp:77] Creating layer conv5_3_re
I1017 11:46:31.322965 26184 net.cpp:84] Creating Layer conv5_3_re
I1017 11:46:31.322976 26184 net.cpp:406] conv5_3_re <- conv5_3
I1017 11:46:31.322988 26184 net.cpp:380] conv5_3_re -> conv5_3_re
I1017 11:46:31.323053 26184 net.cpp:122] Setting up conv5_3_re
I1017 11:46:31.323066 26184 net.cpp:129] Top shape: 4 512 196 (401408)
I1017 11:46:31.323073 26184 net.cpp:137] Memory required for data: 461627408
I1017 11:46:31.323081 26184 layer_factory.hpp:77] Creating layer conv5_3_tran
I1017 11:46:31.323158 26184 net.cpp:84] Creating Layer conv5_3_tran
I1017 11:46:31.323170 26184 net.cpp:406] conv5_3_tran <- conv5_3_re
I1017 11:46:31.323182 26184 net.cpp:380] conv5_3_tran -> conv5_3_tran
I1017 11:46:31.324396 26184 net.cpp:122] Setting up conv5_3_tran
I1017 11:46:31.324415 26184 net.cpp:129] Top shape: 128 4 196 (100352)
I1017 11:46:31.324424 26184 net.cpp:137] Memory required for data: 462028816
I1017 11:46:31.324434 26184 layer_factory.hpp:77] Creating layer lstm1
I1017 11:46:31.324456 26184 net.cpp:84] Creating Layer lstm1
I1017 11:46:31.324466 26184 net.cpp:406] lstm1 <- conv5_3_tran
I1017 11:46:31.324477 26184 net.cpp:406] lstm1 <- clip_markers
I1017 11:46:31.324489 26184 net.cpp:380] lstm1 -> lstm1
I1017 11:46:31.324527 26184 recurrent_layer.cpp:20] Initializing recurrent layer: assuming input batch contains 128 timesteps of 4 independent streams.
I1017 11:46:31.328779 26184 net.cpp:51] Initializing net from parameters: 
layer {
  name: "lstm1_"
  type: "Input"
  top: "x"
  top: "cont"
  input_param {
    shape {
      dim: 128
      dim: 4
      dim: 196
    }
    shape {
      dim: 128
      dim: 4
    }
  }
}
layer {
  name: "lstm1_"
  type: "Input"
  top: "c_0"
  top: "h_0"
  input_param {
    shape {
      dim: 1
      dim: 4
      dim: 512
    }
    shape {
      dim: 1
      dim: 4
      dim: 512
    }
  }
}
layer {
  name: "lstm1_cont_slice"
  type: "Slice"
  bottom: "cont"
  top: "cont_1"
  top: "cont_2"
  top: "cont_3"
  top: "cont_4"
  top: "cont_5"
  top: "cont_6"
  top: "cont_7"
  top: "cont_8"
  top: "cont_9"
  top: "cont_10"
  top: "cont_11"
  top: "cont_12"
  top: "cont_13"
  top: "cont_14"
  top: "cont_15"
  top: "cont_16"
  top: "cont_17"
  top: "cont_18"
  top: "cont_19"
  top: "cont_20"
  top: "cont_21"
  top: "cont_22"
  top: "cont_23"
  top: "cont_24"
…
  top: "W_xc_x_103"
  top: "W_xc_x_104"
  top: "W_xc_x_105"
  top: "W_xc_x_106"
  top: "W_xc_x_107"
  top: "W_xc_x_108"
  top: "W_xc_x_109"
  top: "W_xc_x_110"
  top: "W_xc_x_111"
  top: "W_xc_x_112"
  top: "W_xc_x_113"
  top: "W_xc_x_114"
  top: "W_xc_x_115"
  top: "W_xc_x_116"
  top: "W_xc_x_117"
  top: "W_xc_x_118"
  top: "W_xc_x_119"
  top: "W_xc_x_120"
  top: "W_xc_x_121"
  top: "W_xc_x_122"
  top: "W_xc_x_123"
  top: "W_xc_x_124"
  top: "W_xc_x_125"
  top: "W_xc_x_126"
  top: "W_xc_x_127"
  top: "W_xc_x_128"
  slice_param {
    axis: 0
  }
}
layer {
  name: "lstm1_h_conted_0"
  type: "Scale"
  bottom: "h_0"
  bottom: "cont_1"
  top: "h_conted_0"
  scale_param {
    axis: 0
  }
}
layer {
  name: "lstm1_transform_1"
  type: "InnerProduct"
  bottom: "h_conted_0"
  top: "W_hc_h_0"
  param {
    name: "W_hc"
  }
  inner_product_param {
    num_output: 2048
    bias_term: false
    weight_filler {
      type: "uniform"
      min: -0.01
      max: 0.01
    }
    axis: 2
  }
}
layer {
  name: "lstm1_gate_input_1"
  type: "Eltwise"
  bottom: "W_hc_h_0"
  bottom: "W_xc_x_1"
  top: "gate_input_1"
  eltwise_param {
    operation: SUM
  }
}
layer {
  name: "lstm1_unit_1"
  type: "LSTMUnit"
  bottom: "c_0"
  bottom: "gate_input_1"
  bottom: "cont_1"
  top: "c_1"
  top: "h_1"
}
layer {
  name: "lstm1_h_conted_1"
  type: "Scale"
  bottom: "h_1"
  bottom: "cont_2"
  top: "h_conted_1"
  scale_param {
    axis: 0
  }
}
layer {
  name: "lstm1_transform_2"
  type: "InnerProduct"
  bottom: "h_conted_1"
  top: "W_hc_h_1"
  param {
    name: "W_hc"
  }
  inner_product_param {
    num_output: 2048
    bias_term: false
    weight_filler {
      type: "uniform"
      min: -0.01
      max: 0.01
    }
    axis: 2
  }
}
layer {
  name: "lstm1_gate_input_2"
  type: "Eltwise"
  bottom: "W_hc_h_1"
  bottom: "W_xc_x_2"
  top: "gate_input_2"
  eltwise_param {
    operation: SUM
  }
}
layer {
  name: "lstm1_unit_2"
  type: "LSTMUnit"
  bottom: "c_1"
  bottom: "gate_input_2"
  bottom: "cont_2"
  top: "c_2"
  top: "h_2"
}
layer {
  name: "lstm1_h_conted_2"
  type: "Scale"
  bottom: "h_2"
  bottom: "cont_3"
  top: "h_conted_2"
  scale_param {
    axis: 0
  }
}
layer {
  name: "lstm1_transform_3"
  type: "InnerProduct"
  bottom: "h_conted_2"
  top: "W_hc_h_2"
  param {
    name: "W_hc"
  }
  inner_product_param {
    num_output: 2048
    bias_term: false
    weight_filler {
      type: "uniform"
      min: -0.01
      max: 0.01
    }
    axis: 2
  }
}
layer {
  name: "lstm1_gate_input_3"
  type: "Eltwise"
  bottom: "W_hc_h_2"
  bottom: "W_xc_x_3"
  top: "gate_input_3"
  eltwise_param {
    operation: SUM
  }
}
layer {
  name: "lstm1_unit_3"
  type: "LSTMUnit"
  bottom: "c_2"
  bottom: "gate_input_3"
  bottom: "cont_3"
  top: "c_3"
  top: "h_3"
}
layer {
  name: "lstm1_h_conted_3"
  type: "Scale"
  bottom: "h_3"
  bottom: "cont_4"
  top: "h_conted_3"
  scale_param {
    axis: 0
  }
}
layer {
  name: "lstm1_transform_4"
  type: "InnerProduct"
  bottom: "h_conted_3"
  top: "W_hc_h_3"
  param {
    name: "W_hc"
  }
  inner_product_param {
    num_output: 2048
    bias_term: false
    weight_filler {
      type: "uniform"
      min: -0.01
      max: 0.01
    }
    axis: 2
  }
}
layer {
  name: "lstm1_gate_input_4"
  type: "Eltwise"
  bottom: "W_hc_h_3"
  bottom: "W_xc_x_4"
  top: "gate_input_4"
  eltwise_param {
    operation: SUM
  }
}
layer {
  name: "lstm1_unit_4"
  type: "LSTMUnit"
  bottom: "c_3"
  bottom: "gate_input_4"
  bottom: "cont_4"
  top: "c_4"
  top: "h_4"
}
layer {
  name: "lstm1_h_conted_4"
  type: "Scale"
  bottom: "h_4"
  bottom: "cont_5"
  top: "h_conted_4"
  scale_param {
    axis: 0
  }
}
layer {
  name: "lstm1_transform_5"
  type: "InnerProduct"
  bottom: "h_conted_4"
  top: "W_hc_h_4"
  param {
    name: "W_hc"
  }
  inner_product_param {
    num_output: 2048
    bias_term: false
    weight_filler {
      type: "uniform"
      min: -0.01
      max: 0.01
    }
    axis: 2
  }
}
layer {
  name: "lstm1_gate_input_5"
  type: "Eltwise"
  bottom: "W_hc_h_4"
  bottom: "W_xc_x_5"
  top: "gate_input_5"
  eltwise_param {
    operation: SUM
  }
}
layer {
  name: "lstm1_unit_5"
  type: "LSTMUnit"
  bottom: "c_4"
  bottom: "gate_input_5"
  bottom: "cont_5"
  top: "c_5"
  top: "h_5"
}
layer {
  name: "lstm1_h_conted_5"
  type: "Scale"
  bottom: "h_5"
  bottom: "cont_6"
  top: "h_conted_5"
  scale_param {
    axis: 0
  }
}
layer {
  name: "lstm1_transform_6"
  type: "InnerProduct"
  bottom: "h_conted_5"
  top: "W_hc_h_5"
  param {
    name: "W_hc"
  }
  inner_product_param {
    num_output: 2048
    bias_term: false
    weight_filler {
      type: "uniform"
      min: -0.01
      max: 0.01
    }
    axis: 2
  }
}
layer {
  name: "lstm1_gate_input_6"
  type: "Eltwise"
  bottom: "W_hc_h_5"
  bottom: "W_xc_x_6"
  top: "gate_input_6"
  eltwise_param {
    operation: SUM
  }
}
layer {
  name: "lstm1_unit_6"
  type: "LSTMUnit"
  bottom: "c_5"
  bottom: "gate_input_6"
  bottom: "cont_6"
  top: "c_6"
  top: "h_6"
}
layer {
  name: "lstm1_h_conted_6"
  type: "Scale"
  bottom: "h_6"
  bottom: "cont_7"
  top: "h_conted_6"
  scale_param {
    axis: 0
  }
}
layer {
  name: "lstm1_transform_7"
  type: "InnerProduct"
  bottom: "h_conted_6"
  top: "W_hc_h_6"
  param {
    name: "W_hc"
  }
  inner_product_param {
    num_output: 2048
    bias_term: false
    weight_filler {
      type: "uniform"
      min: -0.01
      max: 0.01
    }
    axis: 2
  }
}
layer {
  name: "lstm1_gate_input_7"
  type: "Eltwise"
  bottom: "W_hc_h_6"
  bottom: "W_xc_x_7"
  top: "gate_input_7"
  eltwise_param {
    operation: SUM
  }
}
layer {
  name: "lstm1_unit_7"
  type: "LSTMUnit"
  bottom: "c_6"
  bottom: "gate_input_7"
  bottom: "cont_7"
  top: "c_7"
  top: "h_7"
}
layer {
  name: "lstm1_h_conted_7"
  type: "Scale"
  bottom: "h_7"
  bottom: "cont_8"
  top: "h_conted_7"
  scale_param {
    axis: 0
  }
}
layer {
  name: "lstm1_transform_8"
  type: "InnerProduct"
  bottom: "h_conted_7"
  top: "W_hc_h_7"
  param {
    name: "W_hc"
  }
  inner_product_param {
    num_output: 2048
    bias_term: false
    weight_filler {
      type: "uniform"
      min: -0.01
      max: 0.01
    }
    axis: 2
  }
}
layer {
  name: "lstm1_gate_input_8"
  type: "Eltwise"
  bottom: "W_hc_h_7"
  bottom: "W_xc_x_8"
  top: "gate_input_8"
  eltwise_param {
    operation: SUM
  }
}
layer {
  name: "lstm1_unit_8"
  type: "LSTMUnit"
  bottom: "c_7"
  bottom: "gate_input_8"
  bottom: "cont_8"
  top: "c_8"
  top: "h_8"
}
layer {
  name: "lstm1_h_conted_8"
  type: "Scale"
  bottom: "h_8"
  bottom: "cont_9"
  top: "h_conted_8"
  scale_param {
    axis: 0
  }
}
layer {
  name: "lstm1_transform_9"
  type: "InnerProduct"
  bottom: "h_conted_8"
  top: "W_hc_h_8"
  param {
    name: "W_hc"
  }
  inner_product_param {
    num_output: 2048
    bias_term: false
    weight_filler {
      type: "uniform"
      min: -0.01
      max: 0.01
    }
    axis: 2
  }
}
layer {
  name: "lstm1_gate_input_9"
  type: "Eltwise"
  bottom: "W_hc_h_8"
  bottom: "W_xc_x_9"
  top: "gate_input_9"
  eltwise_param {
    operation: SUM
  }
}
layer {
  name: "lstm1_unit_9"
  type: "LSTMUnit"
  bottom: "c_8"
  bottom: "gate_input_9"
  bottom: "cont_9"
  top: "c_9"
  top: "h_9"
}
layer {
  name: "lstm1_h_conted_9"
  type: "Scale"
  bottom: "h_9"
  bottom: "cont_10"
  top: "h_conted_9"
  scale_param {
    axis: 0
  }
}
layer {
  name: "lstm1_transform_10"
  type: "InnerProduct"
  bottom: "h_conted_9"
  top: "W_hc_h_9"
  param {
    name: "W_hc"
  }
  inner_product_param {
    num_output: 2048
    bias_term: false
    weight_filler {
      type: "uniform"
      min: -0.01
      max: 0.01
    }
    axis: 2
  }
}
layer {
  name: "lstm1_gate_input_10"
  type: "Eltwise"
  bottom: "W_hc_h_9"
  bottom: "W_xc_x_10"
  top: "gate_input_10"
  eltwise_param {
    operation: SUM
  }
}
layer {
  name: "lstm1_unit_10"
  type: "LSTMUnit"
  bottom: "c_9"
  bottom: "gate_input_10"
  bottom: "cont_10"
  top: "c_10"
  top: "h_10"
}
layer {
  name: "lstm1_h_conted_10"
  type: "Scale"
  bottom: "h_10"
  bottom: "cont_11"
  top: "h_conted_10"
  scale_param {
    axis: 0
  }
}
layer {
  name: "lstm1_transform_11"
  type: "InnerProduct"
  bottom: "h_conted_10"
  top: "W_hc_h_10"
  param {
    name: "W_hc"
  }
  inner_product_param {
    num_output: 2048
    bias_term: false
    weight_filler {
      type: "uniform"
      min: -0.01
      max: 0.01
    }
    axis: 2
  }
}
layer {
  name: "lstm1_gate_input_11"
  type: "Eltwise"
  bottom: "W_hc_h_10"
  bottom: "W_xc_x_11"
  top: "gate_input_11"
  eltwise_param {
    operation: SUM
  }
}
layer {
  name: "lstm1_unit_11"
  type: "LSTMUnit"
  bottom: "c_10"
  bottom: "gate_input_11"
  bottom: "cont_11"
  top: "c_11"
  top: "h_11"
}
layer {
  name: "lstm1_h_conted_11"
  type: "Scale"
  bottom: "h_11"
  bottom: "cont_12"
  top: "h_conted_11"
  scale_param {
    axis: 0
  }
}
layer {
  name: "lstm1_transform_12"
  type: "InnerProduct"
  bottom: "h_conted_11"
  top: "W_hc_h_11"
  param {
    name: "W_hc"
  }
  inner_product_param {
    num_output: 2048
    bias_term: false
    weight_filler {
      type: "uniform"
      min: -0.01
      max: 0.01
    }
    axis: 2
  }
}
layer {
  name: "lstm1_gate_input_12"
  type: "Eltwise"
  bottom: "W_hc_h_11"
  bottom: "W_xc_x_12"
  top: "gate_input_12"
  eltwise_param {
    operation: SUM
  }
}
layer {
  name: "lstm1_unit_12"
  type: "LSTMUnit"
  bottom: "c_11"
  bottom: "gate_input_12"
  bottom: "cont_12"
  top: "c_12"
  top: "h_12"
}
layer {
  name: "lstm1_h_conted_12"
  type: "Scale"
  bottom: "h_12"
  bottom: "cont_13"
  top: "h_conted_12"
  scale_param {
    axis: 0
  }
}
layer {
  name: "lstm1_transform_13"
  type: "InnerProduct"
  bottom: "h_conted_12"
  top: "W_hc_h_12"
  param {
    name: "W_hc"
  }
  inner_product_param {
    num_output: 2048
    bias_term: false
    weight_filler {
      type: "uniform"
      min: -0.01
      max: 0.01
    }
    axis: 2
  }
}
layer {
  name: "lstm1_gate_input_13"
  type: "Eltwise"
  bottom: "W_hc_h_12"
  bottom: "W_xc_x_13"
  top: "gate_input_13"
  eltwise_param {
    operation: SUM
  }
}
layer {
  name: "lstm1_unit_13"
  type: "LSTMUnit"
  bottom: "c_12"
  bottom: "gate_input_13"
  bottom: "cont_13"
  top: "c_13"
  top: "h_13"
}
layer {
  name: "lstm1_h_conted_13"
  type: "Scale"
  bottom: "h_13"
  bottom: "cont_14"
  top: "h_conted_13"
  scale_param {
    axis: 0
  }
}
layer {
  name: "lstm1_transform_14"
  type: "InnerProduct"
  bottom: "h_conted_13"
  top: "W_hc_h_13"
  param {
    name: "W_hc"
  }
  inner_product_param {
    num_output: 2048
    bias_term: false
    weight_filler {
      type: "uniform"
      min: -0.01
      max: 0.01
    }
    axis: 2
  }
}
layer {
  name: "lstm1_gate_input_14"
  type: "Eltwise"
  bottom: "W_hc_h_13"
  bottom: "W_xc_x_14"
  top: "gate_input_14"
  eltwise_param {
    operation: SUM
  }
}
layer {
  name: "lstm1_unit_14"
  type: "LSTMUnit"
  bottom: "c_13"
  bottom: "gate_input_14"
  bottom: "cont_14"
  top: "c_14"
  top: "h_14"
}
layer {
  name: "lstm1_h_conted_14"
  type: "Scale"
  bottom: "h_14"
  bottom: "cont_15"
  top: "h_conted_14"
  scale_param {
    axis: 0
  }
}
layer {
  name: "lstm1_transform_15"
  type: "InnerProduct"
  bottom: "h_conted_14"
  top: "W_hc_h_14"
  param {
    name: "W_hc"
  }
  inner_product_param {
    num_output: 2048
    bias_term: false
    weight_filler {
      type: "uniform"
      min: -0.01
      max: 0.01
    }
    axis: 2
  }
}
layer {
  name: "lstm1_gate_input_15"
  type: "Eltwise"
  bottom: "W_hc_h_14"
  bottom: "W_xc_x_15"
  top: "gate_input_15"
  eltwise_param {
    operation: SUM
  }
}
layer {
  name: "lstm1_unit_15"
  type: "LSTMUnit"
  bottom: "c_14"
  bottom: "gate_input_15"
  bottom: "cont_15"
  top: "c_15"
  top: "h_15"
}
layer {
  name: "lstm1_h_conted_15"
  type: "Scale"
  bottom: "h_15"
  bottom: "cont_16"
  top: "h_conted_15"
  scale_param {
    axis: 0
  }
}
layer {
  name: "lstm1_transform_16"
  type: "InnerProduct"
  bottom: "h_conted_15"
  top: "W_hc_h_15"
  param {
    name: "W_hc"
  }
  inner_product_param {
    num_output: 2048
    bias_term: false
    weight_filler {
      type: "uniform"
      min: -0.01
      max: 0.01
    }
    axis: 2
  }
}
layer {
  name: "lstm1_gate_input_16"
  type: "Eltwise"
  bottom: "W_hc_h_15"
  bottom: "W_xc_x_16"
  top: "gate_input_16"
  eltwise_param {
    operation: SUM
  }
}
layer {
  name: "lstm1_unit_16"
  type: "LSTMUnit"
  bottom: "c_15"
  bottom: "gate_input_16"
  bottom: "cont_16"
  top: "c_16"
  top: "h_16"
}
layer {
  name: "lstm1_h_conted_16"
  type: "Scale"
  bottom: "h_16"
  bottom: "cont_17"
  top: "h_conted_16"
  scale_param {
    axis: 0
  }
}
layer {
  name: "lstm1_transform_17"
  type: "InnerProduct"
  bottom: "h_conted_16"
  top: "W_hc_h_16"
  param {
    name: "W_hc"
  }
  inner_product_param {
    num_output: 2048
    bias_term: false
    weight_filler {
      type: "uniform"
      min: -0.01
      max: 0.01
    }
    axis: 2
  }
}
layer {
  name: "lstm1_gate_input_17"
  type: "Eltwise"
  bottom: "W_hc_h_16"
  bottom: "W_xc_x_17"
  top: "gate_input_17"
  eltwise_param {
    operation: SUM
  }
}
layer {
  name: "lstm1_unit_17"
  type: "LSTMUnit"
  bottom: "c_16"
  bottom: "gate_input_17"
  bottom: "cont_17"
  top: "c_17"
  top: "h_17"
}
layer {
  name: "lstm1_h_conted_17"
  type: "Scale"
  bottom: "h_17"
  bottom: "cont_18"
  top: "h_conted_17"
  scale_param {
    axis: 0
  }
}
layer {
  name: "lstm1_transform_18"
  type: "InnerProduct"
  bottom: "h_conted_17"
  top: "W_hc_h_17"
  param {
    name: "W_hc"
  }
  inner_product_param {
    num_output: 2048
    bias_term: false
    weight_filler {
      type: "uniform"
      min: -0.01
      max: 0.01
    }
    axis: 2
  }
}
layer {
  name: "lstm1_gate_input_18"
  type: "Eltwise"
  bottom: "W_hc_h_17"
  bottom: "W_xc_x_18"
  top: "gate_input_18"
  eltwise_param {
    operation: SUM
  }
}
layer {
  name: "lstm1_unit_18"
  type: "LSTMUnit"
  bottom: "c_17"
  bottom: "gate_input_18"
  bottom: "cont_18"
  top: "c_18"
  top: "h_18"
}
layer {
  name: "lstm1_h_conted_18"
  type: "Scale"
  bottom: "h_18"
  bottom: "cont_19"
  top: "h_conted_18"
  scale_param {
    axis: 0
  }
}
layer {
  name: "lstm1_transform_19"
  type: "InnerProduct"
  bottom: "h_conted_18"
  top: "W_hc_h_18"
  param {
    name: "W_hc"
  }
  inner_product_param {
    num_output: 2048
    bias_term: false
    weight_filler {
      type: "uniform"
      min: -0.01
      max: 0.01
    }
    axis: 2
  }
}
layer {
  name: "lstm1_gate_input_19"
  type: "Eltwise"
  bottom: "W_hc_h_18"
  bottom: "W_xc_x_19"
  top: "gate_input_19"
  eltwise_param {
    operation: SUM
  }
}
layer {
  name: "lstm1_unit_19"
  type: "LSTMUnit"
  bottom: "c_18"
  bottom: "gate_input_19"
  bottom: "cont_19"
  top: "c_19"
  top: "h_19"
}
layer {
  name: "lstm1_h_conted_19"
  type: "Scale"
  bottom: "h_19"
  bottom: "cont_20"
  top: "h_conted_19"
  scale_param {
    axis: 0
  }
}
layer {
  name: "lstm1_transform_20"
  type: "InnerProduct"
  bottom: "h_conted_19"
  top: "W_hc_h_19"
  param {
    name: "W_hc"
  }
  inner_product_param {
    num_output: 2048
    bias_term: false
    weight_filler {
      type: "uniform"
      min: -0.01
      max: 0.01
    }
    axis: 2
  }
}
layer {
  name: "lstm1_gate_input_20"
  type: "Eltwise"
  bottom: "W_hc_h_19"
  bottom: "W_xc_x_20"
  top: "gate_input_20"
  eltwise_param {
    operation: SUM
  }
}
layer {
  name: "lstm1_unit_20"
  type: "LSTMUnit"
  bottom: "c_19"
  bottom: "gate_input_20"
  bottom: "cont_20"
  top: "c_20"
  top: "h_20"
}
layer {
  name: "lstm1_h_conted_20"
  type: "Scale"
  bottom: "h_20"
  bottom: "cont_21"
  top: "h_conted_20"
  scale_param {
    axis: 0
  }
}
layer {
  name: "lstm1_transform_21"
  type: "InnerProduct"
  bottom: "h_conted_20"
  top: "W_hc_h_20"
  param {
    name: "W_hc"
  }
  inner_product_param {
    num_output: 2048
    bias_term: false
    weight_filler {
      type: "uniform"
      min: -0.01
      max: 0.01
    }
    axis: 2
  }
}
layer {
  name: "lstm1_gate_input_21"
  type: "Eltwise"
  bottom: "W_hc_h_20"
  bottom: "W_xc_x_21"
  top: "gate_input_21"
  eltwise_param {
    operation: SUM
  }
}
layer {
  name: "lstm1_unit_21"
  type: "LSTMUnit"
  bottom: "c_20"
  bottom: "gate_input_21"
  bottom: "cont_21"
  top: "c_21"
  top: "h_21"
}
layer {
  name: "lstm1_h_conted_21"
  type: "Scale"
  bottom: "h_21"
  bottom: "cont_22"
  top: "h_conted_21"
  scale_param {
    axis: 0
  }
}
layer {
  name: "lstm1_transform_22"
  type: "InnerProduct"
  bottom: "h_conted_21"
  top: "W_hc_h_21"
  param {
    name: "W_hc"
  }
  inner_product_param {
    num_output: 2048
    bias_term: false
    weight_filler {
      type: "uniform"
      min: -0.01
      max: 0.01
    }
    axis: 2
  }
}
layer {
  name: "lstm1_gate_input_22"
  type: "Eltwise"
  bottom: "W_hc_h_21"
  bottom: "W_xc_x_22"
  top: "gate_input_22"
  eltwise_param {
    operation: SUM
  }
}
layer {
  name: "lstm1_unit_22"
  type: "LSTMUnit"
  bottom: "c_21"
  bottom: "gate_input_22"
  bottom: "cont_22"
  top: "c_22"
  top: "h_22"
}
layer {
  name: "lstm1_h_conted_22"
  type: "Scale"
  bottom: "h_22"
  bottom: "cont_23"
  top: "h_conted_22"
  scale_param {
    axis: 0
  }
}
layer {
  name: "lstm1_transform_23"
  type: "InnerProduct"
  bottom: "h_conted_22"
  top: "W_hc_h_22"
  param {
    name: "W_hc"
  }
  inner_product_param {
    num_output: 2048
    bias_term: false
    weight_filler {
      type: "uniform"
      min: -0.01
      max: 0.01
    }
    axis: 2
  }
}
layer {
  name: "lstm1_gate_input_23"
  type: "Eltwise"
  bottom: "W_hc_h_22"
  bottom: "W_xc_x_23"
  top: "gate_input_23"
  eltwise_param {
    operation: SUM
  }
}
layer {
  name: "lstm1_unit_23"
  type: "LSTMUnit"
  bottom: "c_22"
  bottom: "gate_input_23"
  bottom: "cont_23"
  top: "c_23"
  top: "h_23"
}
layer {
  name: "lstm1_h_conted_23"
  type: "Scale"
  bottom: "h_23"
  bottom: "cont_24"
  top: "h_conted_23"
  scale_param {
    axis: 0
  }
}
layer {
  name: "lstm1_transform_24"
  type: "InnerProduct"
  bottom: "h_conted_23"
  top: "W_hc_h_23"
  param {
    name: "W_hc"
  }
  inner_product_param {
    num_output: 2048
    bias_term: false
    weight_filler {
      type: "uniform"
      min: -0.01
      max: 0.01
    }
    axis: 2
  }
}
layer {
  name: "lstm1_gate_input_24"
  type: "Eltwise"
  bottom: "W_hc_h_23"
  bottom: "W_xc_x_24"
  top: "gate_input_24"
  eltwise_param {
    operation: SUM
  }
}
layer {
  name: "lstm1_unit_24"
  type: "LSTMUnit"
  bottom: "c_23"
  bottom: "gate_input_24"
  bottom: "cont_24"
  top: "c_24"
  top: "h_24"
}
layer {
  name: "lstm1_h_conted_24"
  type: "Scale"
  bottom: "h_24"
  bottom: "cont_25"
  top: "h_conted_24"
  scale_param {
    axis: 0
  }
}
layer {
  name: "lstm1_transform_25"
  type: "InnerProduct"
  bottom: "h_conted_24"
  top: "W_hc_h_24"
  param {
    name: "W_hc"
  }
  inner_product_param {
    num_output: 2048
    bias_term: false
    weight_filler {
      type: "uniform"
      min: -0.01
      max: 0.01
    }
    axis: 2
  }
}
layer {
  name: "lstm1_gate_input_25"
  type: "Eltwise"
  bottom: "W_hc_h_24"
  bottom: "W_xc_x_25"
  top: "gate_input_25"
  eltwise_param {
    operation: SUM
  }
}
layer {
  name: "lstm1_unit_25"
  type: "LSTMUnit"
  bottom: "c_24"
  bottom: "gate_input_25"
  bottom: "cont_25"
  top: "c_25"
  top: "h_25"
}
layer {
  name: "lstm1_h_conted_25"
  type: "Scale"
  bottom: "h_25"
  bottom: "cont_26"
  top: "h_conted_25"
  scale_param {
    axis: 0
  }
}
layer {
  name: "lstm1_transform_26"
  type: "InnerProduct"
  bottom: "h_conted_25"
  top: "W_hc_h_25"
  param {
    name: "W_hc"
  }
  inner_product_param {
    num_output: 2048
    bias_term: false
    weight_filler {
      type: "uniform"
      min: -0.01
      max: 0.01
    }
    axis: 2
  }
}
layer {
  name: "lstm1_gate_input_26"
  type: "Eltwise"
  bottom: "W_hc_h_25"
  bottom: "W_xc_x_26"
  top: "gate_input_26"
  eltwise_param {
    operation: SUM
  }
}
layer {
  name: "lstm1_unit_26"
  type: "LSTMUnit"
  bottom: "c_25"
  bottom: "gate_input_26"
  bottom: "cont_26"
  top: "c_26"
  top: "h_26"
}
layer {
  name: "lstm1_h_conted_26"
  type: "Scale"
  bottom: "h_26"
  bottom: "cont_27"
  top: "h_conted_26"
  scale_param {
    axis: 0
  }
}
layer {
  name: "lstm1_transform_27"
  type: "InnerProduct"
  bottom: "h_conted_26"
  top: "W_hc_h_26"
  param {
    name: "W_hc"
  }
  inner_product_param {
    num_output: 2048
    bias_term: false
    weight_filler {
      type: "uniform"
      min: -0.01
      max: 0.01
    }
    axis: 2
  }
}
layer {
  name: "lstm1_gate_input_27"
  type: "Eltwise"
  bottom: "W_hc_h_26"
  bottom: "W_xc_x_27"
  top: "gate_input_27"
  eltwise_param {
    operation: SUM
  }
}
layer {
  name: "lstm1_unit_27"
  type: "LSTMUnit"
  bottom: "c_26"
  bottom: "gate_input_27"
  bottom: "cont_27"
  top: "c_27"
  top: "h_27"
}
layer {
  name: "lstm1_h_conted_27"
  type: "Scale"
  bottom: "h_27"
  bottom: "cont_28"
  top: "h_conted_27"
  scale_param {
    axis: 0
  }
}
layer {
  name: "lstm1_transform_28"
  type: "InnerProduct"
  bottom: "h_conted_27"
  top: "W_hc_h_27"
  param {
    name: "W_hc"
  }
  inner_product_param {
    num_output: 2048
    bias_term: false
    weight_filler {
      type: "uniform"
      min: -0.01
      max: 0.01
    }
    axis: 2
  }
}
layer {
  name: "lstm1_gate_input_28"
  type: "Eltwise"
  bottom: "W_hc_h_27"
  bottom: "W_xc_x_28"
  top: "gate_input_28"
  eltwise_param {
    operation: SUM
  }
}
layer {
  name: "lstm1_unit_28"
  type: "LSTMUnit"
  bottom: "c_27"
  bottom: "gate_input_28"
  bottom: "cont_28"
  top: "c_28"
  top: "h_28"
}
layer {
  name: "lstm1_h_conted_28"
  type: "Scale"
  bottom: "h_28"
  bottom: "cont_29"
  top: "h_conted_28"
  scale_param {
    axis: 0
  }
}
layer {
  name: "lstm1_transform_29"
  type: "InnerProduct"
  bottom: "h_conted_28"
  top: "W_hc_h_28"
  param {
    name: "W_hc"
  }
  inner_product_param {
    num_output: 2048
    bias_term: false
    weight_filler {
      type: "uniform"
      min: -0.01
      max: 0.01
    }
    axis: 2
  }
}
layer {
  name: "lstm1_gate_input_29"
  type: "Eltwise"
  bottom: "W_hc_h_28"
  bottom: "W_xc_x_29"
  top: "gate_input_29"
  eltwise_param {
    operation: SUM
  }
}
layer {
  name: "lstm1_unit_29"
  type: "LSTMUnit"
  bottom: "c_28"
  bottom: "gate_input_29"
  bottom: "cont_29"
  top: "c_29"
  top: "h_29"
}
layer {
  name: "lstm1_h_conted_29"
  type: "Scale"
  bottom: "h_29"
  bottom: "cont_30"
  top: "h_conted_29"
  scale_param {
    axis: 0
  }
}
layer {
  name: "lstm1_transform_30"
  type: "InnerProduct"
  bottom: "h_conted_29"
  top: "W_hc_h_29"
  param {
    name: "W_hc"
  }
  inner_product_param {
    num_output: 2048
    bias_term: false
    weight_filler {
      type: "uniform"
      min: -0.01
      max: 0.01
    }
    axis: 2
  }
}
layer {
  name: "lstm1_gate_input_30"
  type: "Eltwise"
  bottom: "W_hc_h_29"
  bottom: "W_xc_x_30"
  top: "gate_input_30"
  eltwise_param {
    operation: SUM
  }
}
layer {
  name: "lstm1_unit_30"
  type: "LSTMUnit"
  bottom: "c_29"
  bottom: "gate_input_30"
  bottom: "cont_30"
  top: "c_30"
  top: "h_30"
}
layer {
  name: "lstm1_h_conted_30"
  type: "Scale"
  bottom: "h_30"
  bottom: "cont_31"
  top: "h_conted_30"
  scale_param {
    axis: 0
  }
}
layer {
  name: "lstm1_transform_31"
  type: "InnerProduct"
  bottom: "h_conted_30"
  top: "W_hc_h_30"
  param {
    name: "W_hc"
  }
  inner_product_param {
    num_output: 2048
    bias_term: false
    weight_filler {
      type: "uniform"
      min: -0.01
      max: 0.01
    }
    axis: 2
  }
}
layer {
  name: "lstm1_gate_input_31"
  type: "Eltwise"
  bottom: "W_hc_h_30"
  bottom: "W_xc_x_31"
  top: "gate_input_31"
  eltwise_param {
    operation: SUM
  }
}
layer {
  name: "lstm1_unit_31"
  type: "LSTMUnit"
  bottom: "c_30"
  bottom: "gate_input_31"
  bottom: "cont_31"
  top: "c_31"
  top: "h_31"
}
layer {
  name: "lstm1_h_conted_31"
  type: "Scale"
  bottom: "h_31"
  bottom: "cont_32"
  top: "h_conted_31"
  scale_param {
    axis: 0
  }
}
layer {
  name: "lstm1_transform_32"
  type: "InnerProduct"
  bottom: "h_conted_31"
  top: "W_hc_h_31"
  param {
    name: "W_hc"
  }
  inner_product_param {
    num_output: 2048
    bias_term: false
    weight_filler {
      type: "uniform"
      min: -0.01
      max: 0.01
    }
    axis: 2
  }
}
layer {
  name: "lstm1_gate_input_32"
  type: "Eltwise"
  bottom: "W_hc_h_31"
  bottom: "W_xc_x_32"
  top: "gate_input_32"
  eltwise_param {
    operation: SUM
  }
}
layer {
  name: "lstm1_unit_32"
  type: "LSTMUnit"
  bottom: "c_31"
  bottom: "gate_input_32"
  bottom: "cont_32"
  top: "c_32"
  top: "h_32"
}
layer {
  name: "lstm1_h_conted_32"
  type: "Scale"
  bottom: "h_32"
  bottom: "cont_33"
  top: "h_conted_32"
  scale_param {
    axis: 0
  }
}
layer {
  name: "lstm1_transform_33"
  type: "InnerProduct"
  bottom: "h_conted_32"
  top: "W_hc_h_32"
  param {
    name: "W_hc"
  }
  inner_product_param {
    num_output: 2048
    bia
I1017 11:46:31.335530 26184 layer_factory.hpp:77] Creating layer lstm1_
I1017 11:46:31.335556 26184 net.cpp:84] Creating Layer lstm1_
I1017 11:46:31.335566 26184 net.cpp:380] lstm1_ -> x
I1017 11:46:31.335588 26184 net.cpp:380] lstm1_ -> cont
I1017 11:46:31.335659 26184 net.cpp:122] Setting up lstm1_
I1017 11:46:31.335671 26184 net.cpp:129] Top shape: 128 4 196 (100352)
I1017 11:46:31.335681 26184 net.cpp:129] Top shape: 128 4 (512)
I1017 11:46:31.335688 26184 net.cpp:137] Memory required for data: 403456
I1017 11:46:31.335696 26184 layer_factory.hpp:77] Creating layer lstm1_
I1017 11:46:31.335707 26184 net.cpp:84] Creating Layer lstm1_
I1017 11:46:31.335717 26184 net.cpp:380] lstm1_ -> c_0
I1017 11:46:31.335731 26184 net.cpp:380] lstm1_ -> h_0
I1017 11:46:31.335789 26184 net.cpp:122] Setting up lstm1_
I1017 11:46:31.335801 26184 net.cpp:129] Top shape: 1 4 512 (2048)
I1017 11:46:31.335810 26184 net.cpp:129] Top shape: 1 4 512 (2048)
I1017 11:46:31.335816 26184 net.cpp:137] Memory required for data: 419840
I1017 11:46:31.335824 26184 layer_factory.hpp:77] Creating layer lstm1_cont_slice
I1017 11:46:31.335853 26184 net.cpp:84] Creating Layer lstm1_cont_slice
I1017 11:46:31.335861 26184 net.cpp:406] lstm1_cont_slice <- cont
I1017 11:46:31.335885 26184 net.cpp:380] lstm1_cont_slice -> cont_1
I1017 11:46:31.335917 26184 net.cpp:380] lstm1_cont_slice -> cont_2
…
I1017 11:46:31.339540 26184 net.cpp:380] lstm1_cont_slice -> cont_122
I1017 11:46:31.339570 26184 net.cpp:380] lstm1_cont_slice -> cont_123
I1017 11:46:31.339598 26184 net.cpp:380] lstm1_cont_slice -> cont_124
I1017 11:46:31.339627 26184 net.cpp:380] lstm1_cont_slice -> cont_125
I1017 11:46:31.339660 26184 net.cpp:380] lstm1_cont_slice -> cont_126
I1017 11:46:31.339690 26184 net.cpp:380] lstm1_cont_slice -> cont_127
I1017 11:46:31.339720 26184 net.cpp:380] lstm1_cont_slice -> cont_128
I1017 11:46:31.341059 26184 net.cpp:122] Setting up lstm1_cont_slice
I1017 11:46:31.341075 26184 net.cpp:129] Top shape: 1 4 (4)
I1017 11:46:31.341084 26184 net.cpp:129] Top shape: 1 4 (4)
I1017 11:46:31.341094 26184 net.cpp:129] Top shape: 1 4 (4)
I1017 11:46:31.341102 26184 net.cpp:129] Top shape: 1 4 (4)
I1017 11:46:31.341112 26184 net.cpp:129] Top shape: 1 4 (4)
I1017 11:46:31.341120 26184 net.cpp:129] Top shape: 1 4 (4)
I1017 11:46:31.341130 26184 net.cpp:129] Top shape: 1 4 (4)
I1017 11:46:31.341138 26184 net.cpp:129] Top shape: 1 4 (4)
I1017 11:46:31.341147 26184 net.cpp:129] Top shape: 1 4 (4)
I1017 11:46:31.341156 26184 net.cpp:129] Top shape: 1 4 (4)
I1017 11:46:31.341164 26184 net.cpp:129] Top shape: 1 4 (4)
I1017 11:46:31.341173 26184 net.cpp:129] Top shape: 1 4 (4)
I1017 11:46:31.341182 26184 net.cpp:129] Top shape: 1 4 (4)
I1017 11:46:31.341190 26184 net.cpp:129] Top shape: 1 4 (4)
I1017 11:46:31.341199 26184 net.cpp:129] Top shape: 1 4 (4)
I1017 11:46:31.341207 26184 net.cpp:129] Top shape: 1 4 (4)
I1017 11:46:31.341217 26184 net.cpp:129] Top shape: 1 4 (4)
I1017 11:46:31.341224 26184 net.cpp:129] Top shape: 1 4 (4)
I1017 11:46:31.341233 26184 net.cpp:129] Top shape: 1 4 (4)
I1017 11:46:31.341241 26184 net.cpp:129] Top shape: 1 4 (4)
I1017 11:46:31.341250 26184 net.cpp:129] Top shape: 1 4 (4)
I1017 11:46:31.341259 26184 net.cpp:129] Top shape: 1 4 (4)
I1017 11:46:31.341267 26184 net.cpp:129] Top shape: 1 4 (4)
I1017 11:46:31.341276 26184 net.cpp:129] Top shape: 1 4 (4)
I1017 11:46:31.341285 26184 net.cpp:129] Top shape: 1 4 (4)
I1017 11:46:31.341294 26184 net.cpp:129] Top shape: 1 4 (4)
I1017 11:46:31.341302 26184 net.cpp:129] Top shape: 1 4 (4)
I1017 11:46:31.341310 26184 net.cpp:129] Top shape: 1 4 (4)
I1017 11:46:31.341320 26184 net.cpp:129] Top shape: 1 4 (4)
I1017 11:46:31.341328 26184 net.cpp:129] Top shape: 1 4 (4)
I1017 11:46:31.341336 26184 net.cpp:129] Top shape: 1 4 (4)
I1017 11:46:31.341346 26184 net.cpp:129] Top shape: 1 4 (4)
I1017 11:46:31.341354 26184 net.cpp:129] Top shape: 1 4 (4)
I1017 11:46:31.341363 26184 net.cpp:129] Top shape: 1 4 (4)
I1017 11:46:31.341372 26184 net.cpp:129] Top shape: 1 4 (4)
I1017 11:46:31.341380 26184 net.cpp:129] Top shape: 1 4 (4)
I1017 11:46:31.341389 26184 net.cpp:129] Top shape: 1 4 (4)
I1017 11:46:31.341398 26184 net.cpp:129] Top shape: 1 4 (4)
I1017 11:46:31.341406 26184 net.cpp:129] Top shape: 1 4 (4)
I1017 11:46:31.341415 26184 net.cpp:129] Top shape: 1 4 (4)
I1017 11:46:31.341423 26184 net.cpp:129] Top shape: 1 4 (4)
I1017 11:46:31.341433 26184 net.cpp:129] Top shape: 1 4 (4)
I1017 11:46:31.341441 26184 net.cpp:129] Top shape: 1 4 (4)
I1017 11:46:31.341449 26184 net.cpp:129] Top shape: 1 4 (4)
I1017 11:46:31.341459 26184 net.cpp:129] Top shape: 1 4 (4)
I1017 11:46:31.341467 26184 net.cpp:129] Top shape: 1 4 (4)
I1017 11:46:31.341475 26184 net.cpp:129] Top shape: 1 4 (4)
I1017 11:46:31.341485 26184 net.cpp:129] Top shape: 1 4 (4)
I1017 11:46:31.341493 26184 net.cpp:129] Top shape: 1 4 (4)
I1017 11:46:31.341501 26184 net.cpp:129] Top shape: 1 4 (4)
I1017 11:46:31.341511 26184 net.cpp:129] Top shape: 1 4 (4)
I1017 11:46:31.341519 26184 net.cpp:129] Top shape: 1 4 (4)
I1017 11:46:31.341528 26184 net.cpp:129] Top shape: 1 4 (4)
I1017 11:46:31.341536 26184 net.cpp:129] Top shape: 1 4 (4)
I1017 11:46:31.341545 26184 net.cpp:129] Top shape: 1 4 (4)
I1017 11:46:31.341554 26184 net.cpp:129] Top shape: 1 4 (4)
I1017 11:46:31.341563 26184 net.cpp:129] Top shape: 1 4 (4)
I1017 11:46:31.341572 26184 net.cpp:129] Top shape: 1 4 (4)
I1017 11:46:31.341580 26184 net.cpp:129] Top shape: 1 4 (4)
I1017 11:46:31.341589 26184 net.cpp:129] Top shape: 1 4 (4)
I1017 11:46:31.341598 26184 net.cpp:129] Top shape: 1 4 (4)
I1017 11:46:31.341608 26184 net.cpp:129] Top shape: 1 4 (4)
I1017 11:46:31.341616 26184 net.cpp:129] Top shape: 1 4 (4)
I1017 11:46:31.341624 26184 net.cpp:129] Top shape: 1 4 (4)
I1017 11:46:31.341634 26184 net.cpp:129] Top shape: 1 4 (4)
I1017 11:46:31.341642 26184 net.cpp:129] Top shape: 1 4 (4)
I1017 11:46:31.341650 26184 net.cpp:129] Top shape: 1 4 (4)
I1017 11:46:31.341660 26184 net.cpp:129] Top shape: 1 4 (4)
I1017 11:46:31.341667 26184 net.cpp:129] Top shape: 1 4 (4)
I1017 11:46:31.341676 26184 net.cpp:129] Top shape: 1 4 (4)
I1017 11:46:31.341686 26184 net.cpp:129] Top shape: 1 4 (4)
I1017 11:46:31.341694 26184 net.cpp:129] Top shape: 1 4 (4)
I1017 11:46:31.341702 26184 net.cpp:129] Top shape: 1 4 (4)
I1017 11:46:31.341711 26184 net.cpp:129] Top shape: 1 4 (4)
I1017 11:46:31.341720 26184 net.cpp:129] Top shape: 1 4 (4)
I1017 11:46:31.341728 26184 net.cpp:129] Top shape: 1 4 (4)
I1017 11:46:31.341737 26184 net.cpp:129] Top shape: 1 4 (4)
I1017 11:46:31.341745 26184 net.cpp:129] Top shape: 1 4 (4)
I1017 11:46:31.341754 26184 net.cpp:129] Top shape: 1 4 (4)
I1017 11:46:31.341763 26184 net.cpp:129] Top shape: 1 4 (4)
I1017 11:46:31.341771 26184 net.cpp:129] Top shape: 1 4 (4)
I1017 11:46:31.341780 26184 net.cpp:129] Top shape: 1 4 (4)
I1017 11:46:31.341789 26184 net.cpp:129] Top shape: 1 4 (4)
I1017 11:46:31.341799 26184 net.cpp:129] Top shape: 1 4 (4)
I1017 11:46:31.341806 26184 net.cpp:129] Top shape: 1 4 (4)
I1017 11:46:31.341815 26184 net.cpp:129] Top shape: 1 4 (4)
I1017 11:46:31.341825 26184 net.cpp:129] Top shape: 1 4 (4)
I1017 11:46:31.341832 26184 net.cpp:129] Top shape: 1 4 (4)
I1017 11:46:31.341841 26184 net.cpp:129] Top shape: 1 4 (4)
I1017 11:46:31.341850 26184 net.cpp:129] Top shape: 1 4 (4)
I1017 11:46:31.341858 26184 net.cpp:129] Top shape: 1 4 (4)
I1017 11:46:31.341867 26184 net.cpp:129] Top shape: 1 4 (4)
I1017 11:46:31.341876 26184 net.cpp:129] Top shape: 1 4 (4)
I1017 11:46:31.341884 26184 net.cpp:129] Top shape: 1 4 (4)
I1017 11:46:31.341892 26184 net.cpp:129] Top shape: 1 4 (4)
I1017 11:46:31.341902 26184 net.cpp:129] Top shape: 1 4 (4)
I1017 11:46:31.341910 26184 net.cpp:129] Top shape: 1 4 (4)
I1017 11:46:31.341918 26184 net.cpp:129] Top shape: 1 4 (4)
I1017 11:46:31.341928 26184 net.cpp:129] Top shape: 1 4 (4)
I1017 11:46:31.341936 26184 net.cpp:129] Top shape: 1 4 (4)
I1017 11:46:31.341944 26184 net.cpp:129] Top shape: 1 4 (4)
I1017 11:46:31.341953 26184 net.cpp:129] Top shape: 1 4 (4)
I1017 11:46:31.341962 26184 net.cpp:129] Top shape: 1 4 (4)
I1017 11:46:31.341970 26184 net.cpp:129] Top shape: 1 4 (4)
I1017 11:46:31.341979 26184 net.cpp:129] Top shape: 1 4 (4)
I1017 11:46:31.341989 26184 net.cpp:129] Top shape: 1 4 (4)
I1017 11:46:31.341996 26184 net.cpp:129] Top shape: 1 4 (4)
I1017 11:46:31.342005 26184 net.cpp:129] Top shape: 1 4 (4)
I1017 11:46:31.342015 26184 net.cpp:129] Top shape: 1 4 (4)
I1017 11:46:31.342023 26184 net.cpp:129] Top shape: 1 4 (4)
I1017 11:46:31.342031 26184 net.cpp:129] Top shape: 1 4 (4)
I1017 11:46:31.342041 26184 net.cpp:129] Top shape: 1 4 (4)
I1017 11:46:31.342049 26184 net.cpp:129] Top shape: 1 4 (4)
I1017 11:46:31.342057 26184 net.cpp:129] Top shape: 1 4 (4)
I1017 11:46:31.342067 26184 net.cpp:129] Top shape: 1 4 (4)
I1017 11:46:31.342075 26184 net.cpp:129] Top shape: 1 4 (4)
I1017 11:46:31.342084 26184 net.cpp:129] Top shape: 1 4 (4)
I1017 11:46:31.342093 26184 net.cpp:129] Top shape: 1 4 (4)
I1017 11:46:31.342102 26184 net.cpp:129] Top shape: 1 4 (4)
I1017 11:46:31.342110 26184 net.cpp:129] Top shape: 1 4 (4)
I1017 11:46:31.342119 26184 net.cpp:129] Top shape: 1 4 (4)
I1017 11:46:31.342128 26184 net.cpp:129] Top shape: 1 4 (4)
I1017 11:46:31.342136 26184 net.cpp:129] Top shape: 1 4 (4)
I1017 11:46:31.342145 26184 net.cpp:129] Top shape: 1 4 (4)
I1017 11:46:31.342154 26184 net.cpp:129] Top shape: 1 4 (4)
I1017 11:46:31.342164 26184 net.cpp:129] Top shape: 1 4 (4)
I1017 11:46:31.342172 26184 net.cpp:129] Top shape: 1 4 (4)
I1017 11:46:31.342181 26184 net.cpp:129] Top shape: 1 4 (4)
I1017 11:46:31.342188 26184 net.cpp:137] Memory required for data: 421888
I1017 11:46:31.342196 26184 layer_factory.hpp:77] Creating layer cont_1_lstm1_cont_slice_0_split
I1017 11:46:31.342212 26184 net.cpp:84] Creating Layer cont_1_lstm1_cont_slice_0_split
I1017 11:46:31.342221 26184 net.cpp:406] cont_1_lstm1_cont_slice_0_split <- cont_1
I1017 11:46:31.342233 26184 net.cpp:380] cont_1_lstm1_cont_slice_0_split -> cont_1_lstm1_cont_slice_0_split_0
I1017 11:46:31.342248 26184 net.cpp:380] cont_1_lstm1_cont_slice_0_split -> cont_1_lstm1_cont_slice_0_split_1
I1017 11:46:31.342300 26184 net.cpp:122] Setting up cont_1_lstm1_cont_slice_0_split
I1017 11:46:31.342312 26184 net.cpp:129] Top shape: 1 4 (4)
I1017 11:46:31.342321 26184 net.cpp:129] Top shape: 1 4 (4)
I1017 11:46:31.342329 26184 net.cpp:137] Memory required for data: 421920
I1017 11:46:31.342336 26184 layer_factory.hpp:77] Creating layer cont_2_lstm1_cont_slice_1_split
I1017 11:46:31.342348 26184 net.cpp:84] Creating Layer cont_2_lstm1_cont_slice_1_split
I1017 11:46:31.342356 26184 net.cpp:406] cont_2_lstm1_cont_slice_1_split <- cont_2
I1017 11:46:31.342371 26184 net.cpp:380] cont_2_lstm1_cont_slice_1_split -> cont_2_lstm1_cont_slice_1_split_0
I1017 11:46:31.342384 26184 net.cpp:380] cont_2_lstm1_cont_slice_1_split -> cont_2_lstm1_cont_slice_1_split_1
I1017 11:46:31.342432 26184 net.cpp:122] Setting up cont_2_lstm1_cont_slice_1_split
I1017 11:46:31.342447 26184 net.cpp:129] Top shape: 1 4 (4)
I1017 11:46:31.342455 26184 net.cpp:129] Top shape: 1 4 (4)
I1017 11:46:31.342463 26184 net.cpp:137] Memory required for data: 421952
I1017 11:46:31.342470 26184 layer_factory.hpp:77] Creating layer cont_3_lstm1_cont_slice_2_split
I1017 11:46:31.342480 26184 net.cpp:84] Creating Layer cont_3_lstm1_cont_slice_2_split
I1017 11:46:31.342489 26184 net.cpp:406] cont_3_lstm1_cont_slice_2_split <- cont_3
I1017 11:46:31.342499 26184 net.cpp:380] cont_3_lstm1_cont_slice_2_split -> cont_3_lstm1_cont_slice_2_split_0
I1017 11:46:31.342511 26184 net.cpp:380] cont_3_lstm1_cont_slice_2_split -> cont_3_lstm1_cont_slice_2_split_1
I1017 11:46:31.342561 26184 net.cpp:122] Setting up cont_3_lstm1_cont_slice_2_split
I1017 11:46:31.342571 26184 net.cpp:129] Top shape: 1 4 (4)
I1017 11:46:31.342581 26184 net.cpp:129] Top shape: 1 4 (4)
I1017 11:46:31.342586 26184 net.cpp:137] Memory required for data: 421984
I1017 11:46:31.342594 26184 layer_factory.hpp:77] Creating layer cont_4_lstm1_cont_slice_3_split
I1017 11:46:31.342603 26184 net.cpp:84] Creating Layer cont_4_lstm1_cont_slice_3_split
I1017 11:46:31.342612 26184 net.cpp:406] cont_4_lstm1_cont_slice_3_split <- cont_4
I1017 11:46:31.342624 26184 net.cpp:380] cont_4_lstm1_cont_slice_3_split -> cont_4_lstm1_cont_slice_3_split_0
I1017 11:46:31.342638 26184 net.cpp:380] cont_4_lstm1_cont_slice_3_split -> cont_4_lstm1_cont_slice_3_split_1
I1017 11:46:31.342684 26184 net.cpp:122] Setting up cont_4_lstm1_cont_slice_3_split
I1017 11:46:31.342695 26184 net.cpp:129] Top shape: 1 4 (4)
I1017 11:46:31.342705 26184 net.cpp:129] Top shape: 1 4 (4)
I1017 11:46:31.342711 26184 net.cpp:137] Memory required for data: 422016
I1017 11:46:31.342718 26184 layer_factory.hpp:77] Creating layer cont_5_lstm1_cont_slice_4_split
I1017 11:46:31.342730 26184 net.cpp:84] Creating Layer cont_5_lstm1_cont_slice_4_split
I1017 11:46:31.342738 26184 net.cpp:406] cont_5_lstm1_cont_slice_4_split <- cont_5
I1017 11:46:31.342749 26184 net.cpp:380] cont_5_lstm1_cont_slice_4_split -> cont_5_lstm1_cont_slice_4_split_0
I1017 11:46:31.342764 26184 net.cpp:380] cont_5_lstm1_cont_slice_4_split -> cont_5_lstm1_cont_slice_4_split_1
I1017 11:46:31.342809 26184 net.cpp:122] Setting up cont_5_lstm1_cont_slice_4_split
I1017 11:46:31.342820 26184 net.cpp:129] Top shape: 1 4 (4)
I1017 11:46:31.342829 26184 net.cpp:129] Top shape: 1 4 (4)
I1017 11:46:31.342836 26184 net.cpp:137] Memory required for data: 422048
I1017 11:46:31.342844 26184 layer_factory.hpp:77] Creating layer cont_6_lstm1_cont_slice_5_split
I1017 11:46:31.342855 26184 net.cpp:84] Creating Layer cont_6_lstm1_cont_slice_5_split
I1017 11:46:31.342864 26184 net.cpp:406] cont_6_lstm1_cont_slice_5_split <- cont_6
I1017 11:46:31.342875 26184 net.cpp:380] cont_6_lstm1_cont_slice_5_split -> cont_6_lstm1_cont_slice_5_split_0
I1017 11:46:31.342886 26184 net.cpp:380] cont_6_lstm1_cont_slice_5_split -> cont_6_lstm1_cont_slice_5_split_1
I1017 11:46:31.342932 26184 net.cpp:122] Setting up cont_6_lstm1_cont_slice_5_split
I1017 11:46:31.342943 26184 net.cpp:129] Top shape: 1 4 (4)
I1017 11:46:31.342952 26184 net.cpp:129] Top shape: 1 4 (4)
I1017 11:46:31.342959 26184 net.cpp:137] Memory required for data: 422080
I1017 11:46:31.342967 26184 layer_factory.hpp:77] Creating layer cont_7_lstm1_cont_slice_6_split
I1017 11:46:31.342977 26184 net.cpp:84] Creating Layer cont_7_lstm1_cont_slice_6_split
I1017 11:46:31.342984 26184 net.cpp:406] cont_7_lstm1_cont_slice_6_split <- cont_7
I1017 11:46:31.342999 26184 net.cpp:380] cont_7_lstm1_cont_slice_6_split -> cont_7_lstm1_cont_slice_6_split_0
I1017 11:46:31.343011 26184 net.cpp:380] cont_7_lstm1_cont_slice_6_split -> cont_7_lstm1_cont_slice_6_split_1
I1017 11:46:31.343055 26184 net.cpp:122] Setting up cont_7_lstm1_cont_slice_6_split
I1017 11:46:31.343066 26184 net.cpp:129] Top shape: 1 4 (4)
I1017 11:46:31.343075 26184 net.cpp:129] Top shape: 1 4 (4)
I1017 11:46:31.343082 26184 net.cpp:137] Memory required for data: 422112
I1017 11:46:31.343089 26184 layer_factory.hpp:77] Creating layer cont_8_lstm1_cont_slice_7_split
I1017 11:46:31.343102 26184 net.cpp:84] Creating Layer cont_8_lstm1_cont_slice_7_split
I1017 11:46:31.343111 26184 net.cpp:406] cont_8_lstm1_cont_slice_7_split <- cont_8
I1017 11:46:31.343122 26184 net.cpp:380] cont_8_lstm1_cont_slice_7_split -> cont_8_lstm1_cont_slice_7_split_0
I1017 11:46:31.343133 26184 net.cpp:380] cont_8_lstm1_cont_slice_7_split -> cont_8_lstm1_cont_slice_7_split_1
I1017 11:46:31.343179 26184 net.cpp:122] Setting up cont_8_lstm1_cont_slice_7_split
I1017 11:46:31.343190 26184 net.cpp:129] Top shape: 1 4 (4)
I1017 11:46:31.343199 26184 net.cpp:129] Top shape: 1 4 (4)
I1017 11:46:31.343206 26184 net.cpp:137] Memory required for data: 422144
I1017 11:46:31.343214 26184 layer_factory.hpp:77] Creating layer cont_9_lstm1_cont_slice_8_split
I1017 11:46:31.343224 26184 net.cpp:84] Creating Layer cont_9_lstm1_cont_slice_8_split
I1017 11:46:31.343231 26184 net.cpp:406] cont_9_lstm1_cont_slice_8_split <- cont_9
I1017 11:46:31.343241 26184 net.cpp:380] cont_9_lstm1_cont_slice_8_split -> cont_9_lstm1_cont_slice_8_split_0
I1017 11:46:31.343255 26184 net.cpp:380] cont_9_lstm1_cont_slice_8_split -> cont_9_lstm1_cont_slice_8_split_1
I1017 11:46:31.343299 26184 net.cpp:122] Setting up cont_9_lstm1_cont_slice_8_split
I1017 11:46:31.343310 26184 net.cpp:129] Top shape: 1 4 (4)
I1017 11:46:31.343319 26184 net.cpp:129] Top shape: 1 4 (4)
I1017 11:46:31.343325 26184 net.cpp:137] Memory required for data: 422176
I1017 11:46:31.343333 26184 layer_factory.hpp:77] Creating layer cont_10_lstm1_cont_slice_9_split
I1017 11:46:31.343343 26184 net.cpp:84] Creating Layer cont_10_lstm1_cont_slice_9_split
I1017 11:46:31.343350 26184 net.cpp:406] cont_10_lstm1_cont_slice_9_split <- cont_10
I1017 11:46:31.343361 26184 net.cpp:380] cont_10_lstm1_cont_slice_9_split -> cont_10_lstm1_cont_slice_9_split_0
I1017 11:46:31.343374 26184 net.cpp:380] cont_10_lstm1_cont_slice_9_split -> cont_10_lstm1_cont_slice_9_split_1
I1017 11:46:31.343418 26184 net.cpp:122] Setting up cont_10_lstm1_cont_slice_9_split
I1017 11:46:31.343430 26184 net.cpp:129] Top shape: 1 4 (4)
I1017 11:46:31.343438 26184 net.cpp:129] Top shape: 1 4 (4)
I1017 11:46:31.343446 26184 net.cpp:137] Memory required for data: 422208
I1017 11:46:31.343452 26184 layer_factory.hpp:77] Creating layer cont_11_lstm1_cont_slice_10_split
I1017 11:46:31.343461 26184 net.cpp:84] Creating Layer cont_11_lstm1_cont_slice_10_split
I1017 11:46:31.343469 26184 net.cpp:406] cont_11_lstm1_cont_slice_10_split <- cont_11
I1017 11:46:31.343483 26184 net.cpp:380] cont_11_lstm1_cont_slice_10_split -> cont_11_lstm1_cont_slice_10_split_0
I1017 11:46:31.343497 26184 net.cpp:380] cont_11_lstm1_cont_slice_10_split -> cont_11_lstm1_cont_slice_10_split_1
I1017 11:46:31.343539 26184 net.cpp:122] Setting up cont_11_lstm1_cont_slice_10_split
I1017 11:46:31.343550 26184 net.cpp:129] Top shape: 1 4 (4)
I1017 11:46:31.343559 26184 net.cpp:129] Top shape: 1 4 (4)
I1017 11:46:31.343566 26184 net.cpp:137] Memory required for data: 422240
I1017 11:46:31.343574 26184 layer_factory.hpp:77] Creating layer cont_12_lstm1_cont_slice_11_split
I1017 11:46:31.343590 26184 net.cpp:84] Creating Layer cont_12_lstm1_cont_slice_11_split
I1017 11:46:31.343597 26184 net.cpp:406] cont_12_lstm1_cont_slice_11_split <- cont_12
I1017 11:46:31.343608 26184 net.cpp:380] cont_12_lstm1_cont_slice_11_split -> cont_12_lstm1_cont_slice_11_split_0
I1017 11:46:31.343621 26184 net.cpp:380] cont_12_lstm1_cont_slice_11_split -> cont_12_lstm1_cont_slice_11_split_1
I1017 11:46:31.343667 26184 net.cpp:122] Setting up cont_12_lstm1_cont_slice_11_split
I1017 11:46:31.343679 26184 net.cpp:129] Top shape: 1 4 (4)
I1017 11:46:31.343688 26184 net.cpp:129] Top shape: 1 4 (4)
I1017 11:46:31.343695 26184 net.cpp:137] Memory required for data: 422272
I1017 11:46:31.343703 26184 layer_factory.hpp:77] Creating layer cont_13_lstm1_cont_slice_12_split
I1017 11:46:31.343713 26184 net.cpp:84] Creating Layer cont_13_lstm1_cont_slice_12_split
I1017 11:46:31.343720 26184 net.cpp:406] cont_13_lstm1_cont_slice_12_split <- cont_13
I1017 11:46:31.343731 26184 net.cpp:380] cont_13_lstm1_cont_slice_12_split -> cont_13_lstm1_cont_slice_12_split_0
I1017 11:46:31.343744 26184 net.cpp:380] cont_13_lstm1_cont_slice_12_split -> cont_13_lstm1_cont_slice_12_split_1
I1017 11:46:31.343792 26184 net.cpp:122] Setting up cont_13_lstm1_cont_slice_12_split
I1017 11:46:31.343803 26184 net.cpp:129] Top shape: 1 4 (4)
I1017 11:46:31.343812 26184 net.cpp:129] Top shape: 1 4 (4)
I1017 11:46:31.343821 26184 net.cpp:137] Memory required for data: 422304
I1017 11:46:31.343827 26184 layer_factory.hpp:77] Creating layer cont_14_lstm1_cont_slice_13_split
I1017 11:46:31.343838 26184 net.cpp:84] Creating Layer cont_14_lstm1_cont_slice_13_split
I1017 11:46:31.343847 26184 net.cpp:406] cont_14_lstm1_cont_slice_13_split <- cont_14
I1017 11:46:31.343861 26184 net.cpp:380] cont_14_lstm1_cont_slice_13_split -> cont_14_lstm1_cont_slice_13_split_0
I1017 11:46:31.343873 26184 net.cpp:380] cont_14_lstm1_cont_slice_13_split -> cont_14_lstm1_cont_slice_13_split_1
I1017 11:46:31.343916 26184 net.cpp:122] Setting up cont_14_lstm1_cont_slice_13_split
I1017 11:46:31.343927 26184 net.cpp:129] Top shape: 1 4 (4)
I1017 11:46:31.343936 26184 net.cpp:129] Top shape: 1 4 (4)
I1017 11:46:31.343943 26184 net.cpp:137] Memory required for data: 422336
I1017 11:46:31.343950 26184 layer_factory.hpp:77] Creating layer cont_15_lstm1_cont_slice_14_split
I1017 11:46:31.343963 26184 net.cpp:84] Creating Layer cont_15_lstm1_cont_slice_14_split
I1017 11:46:31.343971 26184 net.cpp:406] cont_15_lstm1_cont_slice_14_split <- cont_15
I1017 11:46:31.343982 26184 net.cpp:380] cont_15_lstm1_cont_slice_14_split -> cont_15_lstm1_cont_slice_14_split_0
I1017 11:46:31.343994 26184 net.cpp:380] cont_15_lstm1_cont_slice_14_split -> cont_15_lstm1_cont_slice_14_split_1
I1017 11:46:31.344044 26184 net.cpp:122] Setting up cont_15_lstm1_cont_slice_14_split
I1017 11:46:31.344058 26184 net.cpp:129] Top shape: 1 4 (4)
I1017 11:46:31.344068 26184 net.cpp:129] Top shape: 1 4 (4)
I1017 11:46:31.344074 26184 net.cpp:137] Memory required for data: 422368
I1017 11:46:31.344081 26184 layer_factory.hpp:77] Creating layer cont_16_lstm1_cont_slice_15_split
I1017 11:46:31.344090 26184 net.cpp:84] Creating Layer cont_16_lstm1_cont_slice_15_split
I1017 11:46:31.344099 26184 net.cpp:406] cont_16_lstm1_cont_slice_15_split <- cont_16
I1017 11:46:31.344110 26184 net.cpp:380] cont_16_lstm1_cont_slice_15_split -> cont_16_lstm1_cont_slice_15_split_0
I1017 11:46:31.344122 26184 net.cpp:380] cont_16_lstm1_cont_slice_15_split -> cont_16_lstm1_cont_slice_15_split_1
I1017 11:46:31.344169 26184 net.cpp:122] Setting up cont_16_lstm1_cont_slice_15_split
I1017 11:46:31.344182 26184 net.cpp:129] Top shape: 1 4 (4)
I1017 11:46:31.344190 26184 net.cpp:129] Top shape: 1 4 (4)
I1017 11:46:31.344197 26184 net.cpp:137] Memory required for data: 422400
I1017 11:46:31.344205 26184 layer_factory.hpp:77] Creating layer cont_17_lstm1_cont_slice_16_split
I1017 11:46:31.344214 26184 net.cpp:84] Creating Layer cont_17_lstm1_cont_slice_16_split
I1017 11:46:31.344223 26184 net.cpp:406] cont_17_lstm1_cont_slice_16_split <- cont_17
I1017 11:46:31.344233 26184 net.cpp:380] cont_17_lstm1_cont_slice_16_split -> cont_17_lstm1_cont_slice_16_split_0
I1017 11:46:31.344246 26184 net.cpp:380] cont_17_lstm1_cont_slice_16_split -> cont_17_lstm1_cont_slice_16_split_1
I1017 11:46:31.344290 26184 net.cpp:122] Setting up cont_17_lstm1_cont_slice_16_split
I1017 11:46:31.344301 26184 net.cpp:129] Top shape: 1 4 (4)
I1017 11:46:31.344310 26184 net.cpp:129] Top shape: 1 4 (4)
I1017 11:46:31.344317 26184 net.cpp:137] Memory required for data: 422432
I1017 11:46:31.344324 26184 layer_factory.hpp:77] Creating layer cont_18_lstm1_cont_slice_17_split
I1017 11:46:31.344333 26184 net.cpp:84] Creating Layer cont_18_lstm1_cont_slice_17_split
I1017 11:46:31.344341 26184 net.cpp:406] cont_18_lstm1_cont_slice_17_split <- cont_18
I1017 11:46:31.344357 26184 net.cpp:380] cont_18_lstm1_cont_slice_17_split -> cont_18_lstm1_cont_slice_17_split_0
I1017 11:46:31.344369 26184 net.cpp:380] cont_18_lstm1_cont_slice_17_split -> cont_18_lstm1_cont_slice_17_split_1
I1017 11:46:31.344415 26184 net.cpp:122] Setting up cont_18_lstm1_cont_slice_17_split
I1017 11:46:31.344426 26184 net.cpp:129] Top shape: 1 4 (4)
I1017 11:46:31.344435 26184 net.cpp:129] Top shape: 1 4 (4)
I1017 11:46:31.344442 26184 net.cpp:137] Memory required for data: 422464
I1017 11:46:31.344449 26184 layer_factory.hpp:77] Creating layer cont_19_lstm1_cont_slice_18_split
I1017 11:46:31.344460 26184 net.cpp:84] Creating Layer cont_19_lstm1_cont_slice_18_split
I1017 11:46:31.344467 26184 net.cpp:406] cont_19_lstm1_cont_slice_18_split <- cont_19
I1017 11:46:31.344477 26184 net.cpp:380] cont_19_lstm1_cont_slice_18_split -> cont_19_lstm1_cont_slice_18_split_0
I1017 11:46:31.344491 26184 net.cpp:380] cont_19_lstm1_cont_slice_18_split -> cont_19_lstm1_cont_slice_18_split_1
I1017 11:46:31.344534 26184 net.cpp:122] Setting up cont_19_lstm1_cont_slice_18_split
I1017 11:46:31.344545 26184 net.cpp:129] Top shape: 1 4 (4)
I1017 11:46:31.344554 26184 net.cpp:129] Top shape: 1 4 (4)
I1017 11:46:31.344561 26184 net.cpp:137] Memory required for data: 422496
I1017 11:46:31.344568 26184 layer_factory.hpp:77] Creating layer cont_20_lstm1_cont_slice_19_split
I1017 11:46:31.344578 26184 net.cpp:84] Creating Layer cont_20_lstm1_cont_slice_19_split
I1017 11:46:31.344585 26184 net.cpp:406] cont_20_lstm1_cont_slice_19_split <- cont_20
I1017 11:46:31.344596 26184 net.cpp:380] cont_20_lstm1_cont_slice_19_split -> cont_20_lstm1_cont_slice_19_split_0
I1017 11:46:31.344609 26184 net.cpp:380] cont_20_lstm1_cont_slice_19_split -> cont_20_lstm1_cont_slice_19_split_1
I1017 11:46:31.344653 26184 net.cpp:122] Setting up cont_20_lstm1_cont_slice_19_split
I1017 11:46:31.344665 26184 net.cpp:129] Top shape: 1 4 (4)
I1017 11:46:31.344673 26184 net.cpp:129] Top shape: 1 4 (4)
I1017 11:46:31.344681 26184 net.cpp:137] Memory required for data: 422528
I1017 11:46:31.344688 26184 layer_factory.hpp:77] Creating layer cont_21_lstm1_cont_slice_20_split
I1017 11:46:31.344697 26184 net.cpp:84] Creating Layer cont_21_lstm1_cont_slice_20_split
I1017 11:46:31.344705 26184 net.cpp:406] cont_21_lstm1_cont_slice_20_split <- cont_21
I1017 11:46:31.344718 26184 net.cpp:380] cont_21_lstm1_cont_slice_20_split -> cont_21_lstm1_cont_slice_20_split_0
I1017 11:46:31.344732 26184 net.cpp:380] cont_21_lstm1_cont_slice_20_split -> cont_21_lstm1_cont_slice_20_split_1
I1017 11:46:31.344774 26184 net.cpp:122] Setting up cont_21_lstm1_cont_slice_20_split
I1017 11:46:31.344784 26184 net.cpp:129] Top shape: 1 4 (4)
I1017 11:46:31.344794 26184 net.cpp:129] Top shape: 1 4 (4)
I1017 11:46:31.344800 26184 net.cpp:137] Memory required for data: 422560
I1017 11:46:31.344807 26184 layer_factory.hpp:77] Creating layer cont_22_lstm1_cont_slice_21_split
I1017 11:46:31.344820 26184 net.cpp:84] Creating Layer cont_22_lstm1_cont_slice_21_split
I1017 11:46:31.344827 26184 net.cpp:406] cont_22_lstm1_cont_slice_21_split <- cont_22
I1017 11:46:31.344838 26184 net.cpp:380] cont_22_lstm1_cont_slice_21_split -> cont_22_lstm1_cont_slice_21_split_0
I1017 11:46:31.344851 26184 net.cpp:380] cont_22_lstm1_cont_slice_21_split -> cont_22_lstm1_cont_slice_21_split_1
I1017 11:46:31.344894 26184 net.cpp:122] Setting up cont_22_lstm1_cont_slice_21_split
I1017 11:46:31.344905 26184 net.cpp:129] Top shape: 1 4 (4)
I1017 11:46:31.344914 26184 net.cpp:129] Top shape: 1 4 (4)
I1017 11:46:31.344921 26184 net.cpp:137] Memory required for data: 422592
I1017 11:46:31.344928 26184 layer_factory.hpp:77] Creating layer cont_23_lstm1_cont_slice_22_split
I1017 11:46:31.344938 26184 net.cpp:84] Creating Layer cont_23_lstm1_cont_slice_22_split
I1017 11:46:31.344945 26184 net.cpp:406] cont_23_lstm1_cont_slice_22_split <- cont_23
I1017 11:46:31.344955 26184 net.cpp:380] cont_23_lstm1_cont_slice_22_split -> cont_23_lstm1_cont_slice_22_split_0
I1017 11:46:31.344969 26184 net.cpp:380] cont_23_lstm1_cont_slice_22_split -> cont_23_lstm1_cont_slice_22_split_1
I1017 11:46:31.345015 26184 net.cpp:122] Setting up cont_23_lstm1_cont_slice_22_split
I1017 11:46:31.345026 26184 net.cpp:129] Top shape: 1 4 (4)
I1017 11:46:31.345036 26184 net.cpp:129] Top shape: 1 4 (4)
I1017 11:46:31.345042 26184 net.cpp:137] Memory required for data: 422624
I1017 11:46:31.345049 26184 layer_factory.hpp:77] Creating layer cont_24_lstm1_cont_slice_23_split
I1017 11:46:31.345059 26184 net.cpp:84] Creating Layer cont_24_lstm1_cont_slice_23_split
I1017 11:46:31.345067 26184 net.cpp:406] cont_24_lstm1_cont_slice_23_split <- cont_24
I1017 11:46:31.345077 26184 net.cpp:380] cont_24_lstm1_cont_slice_23_split -> cont_24_lstm1_cont_slice_23_split_0
I1017 11:46:31.345090 26184 net.cpp:380] cont_24_lstm1_cont_slice_23_split -> cont_24_lstm1_cont_slice_23_split_1
I1017 11:46:31.345134 26184 net.cpp:122] Setting up cont_24_lstm1_cont_slice_23_split
I1017 11:46:31.345145 26184 net.cpp:129] Top shape: 1 4 (4)
I1017 11:46:31.345155 26184 net.cpp:129] Top shape: 1 4 (4)
I1017 11:46:31.345161 26184 net.cpp:137] Memory required for data: 422656
I1017 11:46:31.345168 26184 layer_factory.hpp:77] Creating layer cont_25_lstm1_cont_slice_24_split
I1017 11:46:31.345177 26184 net.cpp:84] Creating Layer cont_25_lstm1_cont_slice_24_split
I1017 11:46:31.345185 26184 net.cpp:406] cont_25_lstm1_cont_slice_24_split <- cont_25
I1017 11:46:31.345193 26184 net.cpp:380] cont_25_lstm1_cont_slice_24_split -> cont_25_lstm1_cont_slice_24_split_0
I1017 11:46:31.345201 26184 net.cpp:380] cont_25_lstm1_cont_slice_24_split -> cont_25_lstm1_cont_slice_24_split_1
I1017 11:46:31.345232 26184 net.cpp:122] Setting up cont_25_lstm1_cont_slice_24_split
I1017 11:46:31.345238 26184 net.cpp:129] Top shape: 1 4 (4)
I1017 11:46:31.345243 26184 net.cpp:129] Top shape: 1 4 (4)
I1017 11:46:31.345247 26184 net.cpp:137] Memory required for data: 422688
I1017 11:46:31.345252 26184 layer_factory.hpp:77] Creating layer cont_26_lstm1_cont_slice_25_split
I1017 11:46:31.345258 26184 net.cpp:84] Creating Layer cont_26_lstm1_cont_slice_25_split
I1017 11:46:31.345263 26184 net.cpp:406] cont_26_lstm1_cont_slice_25_split <- cont_26
I1017 11:46:31.345268 26184 net.cpp:380] cont_26_lstm1_cont_slice_25_split -> cont_26_lstm1_cont_slice_25_split_0
I1017 11:46:31.345275 26184 net.cpp:380] cont_26_lstm1_cont_slice_25_split -> cont_26_lstm1_cont_slice_25_split_1
I1017 11:46:31.345304 26184 net.cpp:122] Setting up cont_26_lstm1_cont_slice_25_split
I1017 11:46:31.345311 26184 net.cpp:129] Top shape: 1 4 (4)
I1017 11:46:31.345315 26184 net.cpp:129] Top shape: 1 4 (4)
I1017 11:46:31.345319 26184 net.cpp:137] Memory required for data: 422720
I1017 11:46:31.345324 26184 layer_factory.hpp:77] Creating layer cont_27_lstm1_cont_slice_26_split
I1017 11:46:31.345329 26184 net.cpp:84] Creating Layer cont_27_lstm1_cont_slice_26_split
I1017 11:46:31.345332 26184 net.cpp:406] cont_27_lstm1_cont_slice_26_split <- cont_27
I1017 11:46:31.345338 26184 net.cpp:380] cont_27_lstm1_cont_slice_26_split -> cont_27_lstm1_cont_slice_26_split_0
I1017 11:46:31.345345 26184 net.cpp:380] cont_27_lstm1_cont_slice_26_split -> cont_27_lstm1_cont_slice_26_split_1
I1017 11:46:31.345374 26184 net.cpp:122] Setting up cont_27_lstm1_cont_slice_26_split
I1017 11:46:31.345381 26184 net.cpp:129] Top shape: 1 4 (4)
I1017 11:46:31.345384 26184 net.cpp:129] Top shape: 1 4 (4)
I1017 11:46:31.345388 26184 net.cpp:137] Memory required for data: 422752
I1017 11:46:31.345392 26184 layer_factory.hpp:77] Creating layer cont_28_lstm1_cont_slice_27_split
I1017 11:46:31.345396 26184 net.cpp:84] Creating Layer cont_28_lstm1_cont_slice_27_split
I1017 11:46:31.345402 26184 net.cpp:406] cont_28_lstm1_cont_slice_27_split <- cont_28
I1017 11:46:31.345408 26184 net.cpp:380] cont_28_lstm1_cont_slice_27_split -> cont_28_lstm1_cont_slice_27_split_0
I1017 11:46:31.345414 26184 net.cpp:380] cont_28_lstm1_cont_slice_27_split -> cont_28_lstm1_cont_slice_27_split_1
I1017 11:46:31.345443 26184 net.cpp:122] Setting up cont_28_lstm1_cont_slice_27_split
I1017 11:46:31.345448 26184 net.cpp:129] Top shape: 1 4 (4)
I1017 11:46:31.345453 26184 net.cpp:129] Top shape: 1 4 (4)
I1017 11:46:31.345456 26184 net.cpp:137] Memory required for data: 422784
I1017 11:46:31.345460 26184 layer_factory.hpp:77] Creating layer cont_29_lstm1_cont_slice_28_split
I1017 11:46:31.345468 26184 net.cpp:84] Creating Layer cont_29_lstm1_cont_slice_28_split
I1017 11:46:31.345472 26184 net.cpp:406] cont_29_lstm1_cont_slice_28_split <- cont_29
I1017 11:46:31.345477 26184 net.cpp:380] cont_29_lstm1_cont_slice_28_split -> cont_29_lstm1_cont_slice_28_split_0
I1017 11:46:31.345484 26184 net.cpp:380] cont_29_lstm1_cont_slice_28_split -> cont_29_lstm1_cont_slice_28_split_1
I1017 11:46:31.345513 26184 net.cpp:122] Setting up cont_29_lstm1_cont_slice_28_split
I1017 11:46:31.345520 26184 net.cpp:129] Top shape: 1 4 (4)
I1017 11:46:31.345525 26184 net.cpp:129] Top shape: 1 4 (4)
I1017 11:46:31.345528 26184 net.cpp:137] Memory required for data: 422816
I1017 11:46:31.345532 26184 layer_factory.hpp:77] Creating layer cont_30_lstm1_cont_slice_29_split
I1017 11:46:31.345540 26184 net.cpp:84] Creating Layer cont_30_lstm1_cont_slice_29_split
I1017 11:46:31.345544 26184 net.cpp:406] cont_30_lstm1_cont_slice_29_split <- cont_30
I1017 11:46:31.345551 26184 net.cpp:380] cont_30_lstm1_cont_slice_29_split -> cont_30_lstm1_cont_slice_29_split_0
I1017 11:46:31.345557 26184 net.cpp:380] cont_30_lstm1_cont_slice_29_split -> cont_30_lstm1_cont_slice_29_split_1
I1017 11:46:31.345587 26184 net.cpp:122] Setting up cont_30_lstm1_cont_slice_29_split
I1017 11:46:31.345593 26184 net.cpp:129] Top shape: 1 4 (4)
I1017 11:46:31.345597 26184 net.cpp:129] Top shape: 1 4 (4)
I1017 11:46:31.345602 26184 net.cpp:137] Memory required for data: 422848
I1017 11:46:31.345605 26184 layer_factory.hpp:77] Creating layer cont_31_lstm1_cont_slice_30_split
I1017 11:46:31.345610 26184 net.cpp:84] Creating Layer cont_31_lstm1_cont_slice_30_split
I1017 11:46:31.345614 26184 net.cpp:406] cont_31_lstm1_cont_slice_30_split <- cont_31
I1017 11:46:31.345623 26184 net.cpp:380] cont_31_lstm1_cont_slice_30_split -> cont_31_lstm1_cont_slice_30_split_0
I1017 11:46:31.345628 26184 net.cpp:380] cont_31_lstm1_cont_slice_30_split -> cont_31_lstm1_cont_slice_30_split_1
I1017 11:46:31.345655 26184 net.cpp:122] Setting up cont_31_lstm1_cont_slice_30_split
I1017 11:46:31.345661 26184 net.cpp:129] Top shape: 1 4 (4)
I1017 11:46:31.345666 26184 net.cpp:129] Top shape: 1 4 (4)
I1017 11:46:31.345670 26184 net.cpp:137] Memory required for data: 422880
I1017 11:46:31.345674 26184 layer_factory.hpp:77] Creating layer cont_32_lstm1_cont_slice_31_split
I1017 11:46:31.345681 26184 net.cpp:84] Creating Layer cont_32_lstm1_cont_slice_31_split
I1017 11:46:31.345685 26184 net.cpp:406] cont_32_lstm1_cont_slice_31_split <- cont_32
I1017 11:46:31.345690 26184 net.cpp:380] cont_32_lstm1_cont_slice_31_split -> cont_32_lstm1_cont_slice_31_split_0
I1017 11:46:31.345697 26184 net.cpp:380] cont_32_lstm1_cont_slice_31_split -> cont_32_lstm1_cont_slice_31_split_1
I1017 11:46:31.345726 26184 net.cpp:122] Setting up cont_32_lstm1_cont_slice_31_split
I1017 11:46:31.345732 26184 net.cpp:129] Top shape: 1 4 (4)
I1017 11:46:31.345736 26184 net.cpp:129] Top shape: 1 4 (4)
I1017 11:46:31.345741 26184 net.cpp:137] Memory required for data: 422912
I1017 11:46:31.345744 26184 layer_factory.hpp:77] Creating layer cont_33_lstm1_cont_slice_32_split
I1017 11:46:31.345749 26184 net.cpp:84] Creating Layer cont_33_lstm1_cont_slice_32_split
I1017 11:46:31.345753 26184 net.cpp:406] cont_33_lstm1_cont_slice_32_split <- cont_33
I1017 11:46:31.345759 26184 net.cpp:380] cont_33_lstm1_cont_slice_32_split -> cont_33_lstm1_cont_slice_32_split_0
I1017 11:46:31.345765 26184 net.cpp:380] cont_33_lstm1_cont_slice_32_split -> cont_33_lstm1_cont_slice_32_split_1
I1017 11:46:31.345795 26184 net.cpp:122] Setting up cont_33_lstm1_cont_slice_32_split
I1017 11:46:31.345801 26184 net.cpp:129] Top shape: 1 4 (4)
I1017 11:46:31.345805 26184 net.cpp:129] Top shape: 1 4 (4)
I1017 11:46:31.345809 26184 net.cpp:137] Memory required for data: 422944
I1017 11:46:31.345813 26184 layer_factory.hpp:77] Creating layer cont_34_lstm1_cont_slice_33_split
I1017 11:46:31.345818 26184 net.cpp:84] Creating Layer cont_34_lstm1_cont_slice_33_split
I1017 11:46:31.345823 26184 net.cpp:406] cont_34_lstm1_cont_slice_33_split <- cont_34
I1017 11:46:31.345827 26184 net.cpp:380] cont_34_lstm1_cont_slice_33_split -> cont_34_lstm1_cont_slice_33_split_0
I1017 11:46:31.345834 26184 net.cpp:380] cont_34_lstm1_cont_slice_33_split -> cont_34_lstm1_cont_slice_33_split_1
I1017 11:46:31.345865 26184 net.cpp:122] Setting up cont_34_lstm1_cont_slice_33_split
I1017 11:46:31.345870 26184 net.cpp:129] Top shape: 1 4 (4)
I1017 11:46:31.345875 26184 net.cpp:129] Top shape: 1 4 (4)
I1017 11:46:31.345880 26184 net.cpp:137] Memory required for data: 422976
I1017 11:46:31.345882 26184 layer_factory.hpp:77] Creating layer cont_35_lstm1_cont_slice_34_split
I1017 11:46:31.345887 26184 net.cpp:84] Creating Layer cont_35_lstm1_cont_slice_34_split
I1017 11:46:31.345891 26184 net.cpp:406] cont_35_lstm1_cont_slice_34_split <- cont_35
I1017 11:46:31.345899 26184 net.cpp:380] cont_35_lstm1_cont_slice_34_split -> cont_35_lstm1_cont_slice_34_split_0
I1017 11:46:31.345906 26184 net.cpp:380] cont_35_lstm1_cont_slice_34_split -> cont_35_lstm1_cont_slice_34_split_1
I1017 11:46:31.345934 26184 net.cpp:122] Setting up cont_35_lstm1_cont_slice_34_split
I1017 11:46:31.345940 26184 net.cpp:129] Top shape: 1 4 (4)
I1017 11:46:31.345945 26184 net.cpp:129] Top shape: 1 4 (4)
I1017 11:46:31.345948 26184 net.cpp:137] Memory required for data: 423008
I1017 11:46:31.345952 26184 layer_factory.hpp:77] Creating layer cont_36_lstm1_cont_slice_35_split
I1017 11:46:31.345962 26184 net.cpp:84] Creating Layer cont_36_lstm1_cont_slice_35_split
I1017 11:46:31.345966 26184 net.cpp:406] cont_36_lstm1_cont_slice_35_split <- cont_36
I1017 11:46:31.345971 26184 net.cpp:380] cont_36_lstm1_cont_slice_35_split -> cont_36_lstm1_cont_slice_35_split_0
I1017 11:46:31.345978 26184 net.cpp:380] cont_36_lstm1_cont_slice_35_split -> cont_36_lstm1_cont_slice_35_split_1
I1017 11:46:31.346007 26184 net.cpp:122] Setting up cont_36_lstm1_cont_slice_35_split
I1017 11:46:31.346014 26184 net.cpp:129] Top shape: 1 4 (4)
I1017 11:46:31.346019 26184 net.cpp:129] Top shape: 1 4 (4)
I1017 11:46:31.346022 26184 net.cpp:137] Memory required for data: 423040
I1017 11:46:31.346025 26184 layer_factory.hpp:77] Creating layer cont_37_lstm1_cont_slice_36_split
I1017 11:46:31.346030 26184 net.cpp:84] Creating Layer cont_37_lstm1_cont_slice_36_split
I1017 11:46:31.346035 26184 net.cpp:406] cont_37_lstm1_cont_slice_36_split <- cont_37
I1017 11:46:31.346040 26184 net.cpp:380] cont_37_lstm1_cont_slice_36_split -> cont_37_lstm1_cont_slice_36_split_0
I1017 11:46:31.346047 26184 net.cpp:380] cont_37_lstm1_cont_slice_36_split -> cont_37_lstm1_cont_slice_36_split_1
I1017 11:46:31.346076 26184 net.cpp:122] Setting up cont_37_lstm1_cont_slice_36_split
I1017 11:46:31.346082 26184 net.cpp:129] Top shape: 1 4 (4)
I1017 11:46:31.346087 26184 net.cpp:129] Top shape: 1 4 (4)
I1017 11:46:31.346091 26184 net.cpp:137] Memory required for data: 423072
I1017 11:46:31.346096 26184 layer_factory.hpp:77] Creating layer cont_38_lstm1_cont_slice_37_split
I1017 11:46:31.346101 26184 net.cpp:84] Creating Layer cont_38_lstm1_cont_slice_37_split
I1017 11:46:31.346104 26184 net.cpp:406] cont_38_lstm1_cont_slice_37_split <- cont_38
I1017 11:46:31.346114 26184 net.cpp:380] cont_38_lstm1_cont_slice_37_split -> cont_38_lstm1_cont_slice_37_split_0
I1017 11:46:31.346122 26184 net.cpp:380] cont_38_lstm1_cont_slice_37_split -> cont_38_lstm1_cont_slice_37_split_1
I1017 11:46:31.346150 26184 net.cpp:122] Setting up cont_38_lstm1_cont_slice_37_split
I1017 11:46:31.346156 26184 net.cpp:129] Top shape: 1 4 (4)
I1017 11:46:31.346161 26184 net.cpp:129] Top shape: 1 4 (4)
I1017 11:46:31.346165 26184 net.cpp:137] Memory required for data: 423104
I1017 11:46:31.346169 26184 layer_factory.hpp:77] Creating layer cont_39_lstm1_cont_slice_38_split
I1017 11:46:31.346176 26184 net.cpp:84] Creating Layer cont_39_lstm1_cont_slice_38_split
I1017 11:46:31.346180 26184 net.cpp:406] cont_39_lstm1_cont_slice_38_split <- cont_39
I1017 11:46:31.346185 26184 net.cpp:380] cont_39_lstm1_cont_slice_38_split -> cont_39_lstm1_cont_slice_38_split_0
I1017 11:46:31.346192 26184 net.cpp:380] cont_39_lstm1_cont_slice_38_split -> cont_39_lstm1_cont_slice_38_split_1
I1017 11:46:31.346222 26184 net.cpp:122] Setting up cont_39_lstm1_cont_slice_38_split
I1017 11:46:31.346228 26184 net.cpp:129] Top shape: 1 4 (4)
I1017 11:46:31.346233 26184 net.cpp:129] Top shape: 1 4 (4)
I1017 11:46:31.346237 26184 net.cpp:137] Memory required for data: 423136
I1017 11:46:31.346241 26184 layer_factory.hpp:77] Creating layer cont_40_lstm1_cont_slice_39_split
I1017 11:46:31.346246 26184 net.cpp:84] Creating Layer cont_40_lstm1_cont_slice_39_split
I1017 11:46:31.346251 26184 net.cpp:406] cont_40_lstm1_cont_slice_39_split <- cont_40
I1017 11:46:31.346256 26184 net.cpp:380] cont_40_lstm1_cont_slice_39_split -> cont_40_lstm1_cont_slice_39_split_0
I1017 11:46:31.346263 26184 net.cpp:380] cont_40_lstm1_cont_slice_39_split -> cont_40_lstm1_cont_slice_39_split_1
I1017 11:46:31.346293 26184 net.cpp:122] Setting up cont_40_lstm1_cont_slice_39_split
I1017 11:46:31.346299 26184 net.cpp:129] Top shape: 1 4 (4)
I1017 11:46:31.346304 26184 net.cpp:129] Top shape: 1 4 (4)
I1017 11:46:31.346308 26184 net.cpp:137] Memory required for data: 423168
I1017 11:46:31.346312 26184 layer_factory.hpp:77] Creating layer cont_41_lstm1_cont_slice_40_split
I1017 11:46:31.346318 26184 net.cpp:84] Creating Layer cont_41_lstm1_cont_slice_40_split
I1017 11:46:31.346321 26184 net.cpp:406] cont_41_lstm1_cont_slice_40_split <- cont_41
I1017 11:46:31.346326 26184 net.cpp:380] cont_41_lstm1_cont_slice_40_split -> cont_41_lstm1_cont_slice_40_split_0
I1017 11:46:31.346333 26184 net.cpp:380] cont_41_lstm1_cont_slice_40_split -> cont_41_lstm1_cont_slice_40_split_1
I1017 11:46:31.346364 26184 net.cpp:122] Setting up cont_41_lstm1_cont_slice_40_split
I1017 11:46:31.346369 26184 net.cpp:129] Top shape: 1 4 (4)
I1017 11:46:31.346374 26184 net.cpp:129] Top shape: 1 4 (4)
I1017 11:46:31.346379 26184 net.cpp:137] Memory required for data: 423200
I1017 11:46:31.346382 26184 layer_factory.hpp:77] Creating layer cont_42_lstm1_cont_slice_41_split
I1017 11:46:31.346386 26184 net.cpp:84] Creating Layer cont_42_lstm1_cont_slice_41_split
I1017 11:46:31.346390 26184 net.cpp:406] cont_42_lstm1_cont_slice_41_split <- cont_42
I1017 11:46:31.346398 26184 net.cpp:380] cont_42_lstm1_cont_slice_41_split -> cont_42_lstm1_cont_slice_41_split_0
I1017 11:46:31.346405 26184 net.cpp:380] cont_42_lstm1_cont_slice_41_split -> cont_42_lstm1_cont_slice_41_split_1
I1017 11:46:31.346432 26184 net.cpp:122] Setting up cont_42_lstm1_cont_slice_41_split
I1017 11:46:31.346438 26184 net.cpp:129] Top shape: 1 4 (4)
I1017 11:46:31.346442 26184 net.cpp:129] Top shape: 1 4 (4)
I1017 11:46:31.346446 26184 net.cpp:137] Memory required for data: 423232
I1017 11:46:31.346451 26184 layer_factory.hpp:77] Creating layer cont_43_lstm1_cont_slice_42_split
I1017 11:46:31.346457 26184 net.cpp:84] Creating Layer cont_43_lstm1_cont_slice_42_split
I1017 11:46:31.346462 26184 net.cpp:406] cont_43_lstm1_cont_slice_42_split <- cont_43
I1017 11:46:31.346467 26184 net.cpp:380] cont_43_lstm1_cont_slice_42_split -> cont_43_lstm1_cont_slice_42_split_0
I1017 11:46:31.346474 26184 net.cpp:380] cont_43_lstm1_cont_slice_42_split -> cont_43_lstm1_cont_slice_42_split_1
I1017 11:46:31.346503 26184 net.cpp:122] Setting up cont_43_lstm1_cont_slice_42_split
I1017 11:46:31.346509 26184 net.cpp:129] Top shape: 1 4 (4)
I1017 11:46:31.346514 26184 net.cpp:129] Top shape: 1 4 (4)
I1017 11:46:31.346518 26184 net.cpp:137] Memory required for data: 423264
I1017 11:46:31.346521 26184 layer_factory.hpp:77] Creating layer cont_44_lstm1_cont_slice_43_split
I1017 11:46:31.346526 26184 net.cpp:84] Creating Layer cont_44_lstm1_cont_slice_43_split
I1017 11:46:31.346531 26184 net.cpp:406] cont_44_lstm1_cont_slice_43_split <- cont_44
I1017 11:46:31.346536 26184 net.cpp:380] cont_44_lstm1_cont_slice_43_split -> cont_44_lstm1_cont_slice_43_split_0
I1017 11:46:31.346544 26184 net.cpp:380] cont_44_lstm1_cont_slice_43_split -> cont_44_lstm1_cont_slice_43_split_1
I1017 11:46:31.346572 26184 net.cpp:122] Setting up cont_44_lstm1_cont_slice_43_split
I1017 11:46:31.346578 26184 net.cpp:129] Top shape: 1 4 (4)
I1017 11:46:31.346582 26184 net.cpp:129] Top shape: 1 4 (4)
I1017 11:46:31.346586 26184 net.cpp:137] Memory required for data: 423296
I1017 11:46:31.346590 26184 layer_factory.hpp:77] Creating layer cont_45_lstm1_cont_slice_44_split
I1017 11:46:31.346596 26184 net.cpp:84] Creating Layer cont_45_lstm1_cont_slice_44_split
I1017 11:46:31.346599 26184 net.cpp:406] cont_45_lstm1_cont_slice_44_split <- cont_45
I1017 11:46:31.346604 26184 net.cpp:380] cont_45_lstm1_cont_slice_44_split -> cont_45_lstm1_cont_slice_44_split_0
I1017 11:46:31.346613 26184 net.cpp:380] cont_45_lstm1_cont_slice_44_split -> cont_45_lstm1_cont_slice_44_split_1
I1017 11:46:31.346640 26184 net.cpp:122] Setting up cont_45_lstm1_cont_slice_44_split
I1017 11:46:31.346647 26184 net.cpp:129] Top shape: 1 4 (4)
I1017 11:46:31.346652 26184 net.cpp:129] Top shape: 1 4 (4)
I1017 11:46:31.346655 26184 net.cpp:137] Memory required for data: 423328
I1017 11:46:31.346659 26184 layer_factory.hpp:77] Creating layer cont_46_lstm1_cont_slice_45_split
I1017 11:46:31.346666 26184 net.cpp:84] Creating Layer cont_46_lstm1_cont_slice_45_split
I1017 11:46:31.346670 26184 net.cpp:406] cont_46_lstm1_cont_slice_45_split <- cont_46
I1017 11:46:31.346676 26184 net.cpp:380] cont_46_lstm1_cont_slice_45_split -> cont_46_lstm1_cont_slice_45_split_0
I1017 11:46:31.346683 26184 net.cpp:380] cont_46_lstm1_cont_slice_45_split -> cont_46_lstm1_cont_slice_45_split_1
I1017 11:46:31.346714 26184 net.cpp:122] Setting up cont_46_lstm1_cont_slice_45_split
I1017 11:46:31.346719 26184 net.cpp:129] Top shape: 1 4 (4)
I1017 11:46:31.346724 26184 net.cpp:129] Top shape: 1 4 (4)
I1017 11:46:31.346727 26184 net.cpp:137] Memory required for data: 423360
I1017 11:46:31.346731 26184 layer_factory.hpp:77] Creating layer cont_47_lstm1_cont_slice_46_split
I1017 11:46:31.346736 26184 net.cpp:84] Creating Layer cont_47_lstm1_cont_slice_46_split
I1017 11:46:31.346740 26184 net.cpp:406] cont_47_lstm1_cont_slice_46_split <- cont_47
I1017 11:46:31.346745 26184 net.cpp:380] cont_47_lstm1_cont_slice_46_split -> cont_47_lstm1_cont_slice_46_split_0
I1017 11:46:31.346752 26184 net.cpp:380] cont_47_lstm1_cont_slice_46_split -> cont_47_lstm1_cont_slice_46_split_1
I1017 11:46:31.346782 26184 net.cpp:122] Setting up cont_47_lstm1_cont_slice_46_split
I1017 11:46:31.346788 26184 net.cpp:129] Top shape: 1 4 (4)
I1017 11:46:31.346792 26184 net.cpp:129] Top shape: 1 4 (4)
I1017 11:46:31.346796 26184 net.cpp:137] Memory required for data: 423392
I1017 11:46:31.346801 26184 layer_factory.hpp:77] Creating layer cont_48_lstm1_cont_slice_47_split
I1017 11:46:31.346806 26184 net.cpp:84] Creating Layer cont_48_lstm1_cont_slice_47_split
I1017 11:46:31.346809 26184 net.cpp:406] cont_48_lstm1_cont_slice_47_split <- cont_48
I1017 11:46:31.346815 26184 net.cpp:380] cont_48_lstm1_cont_slice_47_split -> cont_48_lstm1_cont_slice_47_split_0
I1017 11:46:31.346822 26184 net.cpp:380] cont_48_lstm1_cont_slice_47_split -> cont_48_lstm1_cont_slice_47_split_1
I1017 11:46:31.346851 26184 net.cpp:122] Setting up cont_48_lstm1_cont_slice_47_split
I1017 11:46:31.346856 26184 net.cpp:129] Top shape: 1 4 (4)
I1017 11:46:31.346861 26184 net.cpp:129] Top shape: 1 4 (4)
I1017 11:46:31.346865 26184 net.cpp:137] Memory required for data: 423424
I1017 11:46:31.346869 26184 layer_factory.hpp:77] Creating layer cont_49_lstm1_cont_slice_48_split
I1017 11:46:31.346874 26184 net.cpp:84] Creating Layer cont_49_lstm1_cont_slice_48_split
I1017 11:46:31.346879 26184 net.cpp:406] cont_49_lstm1_cont_slice_48_split <- cont_49
I1017 11:46:31.346885 26184 net.cpp:380] cont_49_lstm1_cont_slice_48_split -> cont_49_lstm1_cont_slice_48_split_0
I1017 11:46:31.346892 26184 net.cpp:380] cont_49_lstm1_cont_slice_48_split -> cont_49_lstm1_cont_slice_48_split_1
I1017 11:46:31.346920 26184 net.cpp:122] Setting up cont_49_lstm1_cont_slice_48_split
I1017 11:46:31.346925 26184 net.cpp:129] Top shape: 1 4 (4)
I1017 11:46:31.346930 26184 net.cpp:129] Top shape: 1 4 (4)
I1017 11:46:31.346935 26184 net.cpp:137] Memory required for data: 423456
I1017 11:46:31.346937 26184 layer_factory.hpp:77] Creating layer cont_50_lstm1_cont_slice_49_split
I1017 11:46:31.346945 26184 net.cpp:84] Creating Layer cont_50_lstm1_cont_slice_49_split
I1017 11:46:31.346949 26184 net.cpp:406] cont_50_lstm1_cont_slice_49_split <- cont_50
I1017 11:46:31.346954 26184 net.cpp:380] cont_50_lstm1_cont_slice_49_split -> cont_50_lstm1_cont_slice_49_split_0
I1017 11:46:31.346961 26184 net.cpp:380] cont_50_lstm1_cont_slice_49_split -> cont_50_lstm1_cont_slice_49_split_1
I1017 11:46:31.346992 26184 net.cpp:122] Setting up cont_50_lstm1_cont_slice_49_split
I1017 11:46:31.346997 26184 net.cpp:129] Top shape: 1 4 (4)
I1017 11:46:31.347002 26184 net.cpp:129] Top shape: 1 4 (4)
I1017 11:46:31.347007 26184 net.cpp:137] Memory required for data: 423488
I1017 11:46:31.347010 26184 layer_factory.hpp:77] Creating layer cont_51_lstm1_cont_slice_50_split
I1017 11:46:31.347015 26184 net.cpp:84] Creating Layer cont_51_lstm1_cont_slice_50_split
I1017 11:46:31.347020 26184 net.cpp:406] cont_51_lstm1_cont_slice_50_split <- cont_51
I1017 11:46:31.347025 26184 net.cpp:380] cont_51_lstm1_cont_slice_50_split -> cont_51_lstm1_cont_slice_50_split_0
I1017 11:46:31.347033 26184 net.cpp:380] cont_51_lstm1_cont_slice_50_split -> cont_51_lstm1_cont_slice_50_split_1
I1017 11:46:31.347062 26184 net.cpp:122] Setting up cont_51_lstm1_cont_slice_50_split
I1017 11:46:31.347069 26184 net.cpp:129] Top shape: 1 4 (4)
I1017 11:46:31.347074 26184 net.cpp:129] Top shape: 1 4 (4)
I1017 11:46:31.347076 26184 net.cpp:137] Memory required for data: 423520
I1017 11:46:31.347080 26184 layer_factory.hpp:77] Creating layer cont_52_lstm1_cont_slice_51_split
I1017 11:46:31.347085 26184 net.cpp:84] Creating Layer cont_52_lstm1_cont_slice_51_split
I1017 11:46:31.347090 26184 net.cpp:406] cont_52_lstm1_cont_slice_51_split <- cont_52
I1017 11:46:31.347095 26184 net.cpp:380] cont_52_lstm1_cont_slice_51_split -> cont_52_lstm1_cont_slice_51_split_0
I1017 11:46:31.347103 26184 net.cpp:380] cont_52_lstm1_cont_slice_51_split -> cont_52_lstm1_cont_slice_51_split_1
I1017 11:46:31.347131 26184 net.cpp:122] Setting up cont_52_lstm1_cont_slice_51_split
I1017 11:46:31.347136 26184 net.cpp:129] Top shape: 1 4 (4)
I1017 11:46:31.347141 26184 net.cpp:129] Top shape: 1 4 (4)
I1017 11:46:31.347146 26184 net.cpp:137] Memory required for data: 423552
I1017 11:46:31.347148 26184 layer_factory.hpp:77] Creating layer cont_53_lstm1_cont_slice_52_split
I1017 11:46:31.347156 26184 net.cpp:84] Creating Layer cont_53_lstm1_cont_slice_52_split
I1017 11:46:31.347159 26184 net.cpp:406] cont_53_lstm1_cont_slice_52_split <- cont_53
I1017 11:46:31.347165 26184 net.cpp:380] cont_53_lstm1_cont_slice_52_split -> cont_53_lstm1_cont_slice_52_split_0
I1017 11:46:31.347172 26184 net.cpp:380] cont_53_lstm1_cont_slice_52_split -> cont_53_lstm1_cont_slice_52_split_1
I1017 11:46:31.347201 26184 net.cpp:122] Setting up cont_53_lstm1_cont_slice_52_split
I1017 11:46:31.347208 26184 net.cpp:129] Top shape: 1 4 (4)
I1017 11:46:31.347213 26184 net.cpp:129] Top shape: 1 4 (4)
I1017 11:46:31.347215 26184 net.cpp:137] Memory required for data: 423584
I1017 11:46:31.347219 26184 layer_factory.hpp:77] Creating layer cont_54_lstm1_cont_slice_53_split
I1017 11:46:31.347224 26184 net.cpp:84] Creating Layer cont_54_lstm1_cont_slice_53_split
I1017 11:46:31.347229 26184 net.cpp:406] cont_54_lstm1_cont_slice_53_split <- cont_54
I1017 11:46:31.347234 26184 net.cpp:380] cont_54_lstm1_cont_slice_53_split -> cont_54_lstm1_cont_slice_53_split_0
I1017 11:46:31.347240 26184 net.cpp:380] cont_54_lstm1_cont_slice_53_split -> cont_54_lstm1_cont_slice_53_split_1
I1017 11:46:31.347270 26184 net.cpp:122] Setting up cont_54_lstm1_cont_slice_53_split
I1017 11:46:31.347276 26184 net.cpp:129] Top shape: 1 4 (4)
I1017 11:46:31.347280 26184 net.cpp:129] Top shape: 1 4 (4)
I1017 11:46:31.347285 26184 net.cpp:137] Memory required for data: 423616
I1017 11:46:31.347288 26184 layer_factory.hpp:77] Creating layer cont_55_lstm1_cont_slice_54_split
I1017 11:46:31.347293 26184 net.cpp:84] Creating Layer cont_55_lstm1_cont_slice_54_split
I1017 11:46:31.347297 26184 net.cpp:406] cont_55_lstm1_cont_slice_54_split <- cont_55
I1017 11:46:31.347302 26184 net.cpp:380] cont_55_lstm1_cont_slice_54_split -> cont_55_lstm1_cont_slice_54_split_0
I1017 11:46:31.347309 26184 net.cpp:380] cont_55_lstm1_cont_slice_54_split -> cont_55_lstm1_cont_slice_54_split_1
I1017 11:46:31.347339 26184 net.cpp:122] Setting up cont_55_lstm1_cont_slice_54_split
I1017 11:46:31.347345 26184 net.cpp:129] Top shape: 1 4 (4)
I1017 11:46:31.347349 26184 net.cpp:129] Top shape: 1 4 (4)
I1017 11:46:31.347353 26184 net.cpp:137] Memory required for data: 423648
I1017 11:46:31.347357 26184 layer_factory.hpp:77] Creating layer cont_56_lstm1_cont_slice_55_split
I1017 11:46:31.347362 26184 net.cpp:84] Creating Layer cont_56_lstm1_cont_slice_55_split
I1017 11:46:31.347367 26184 net.cpp:406] cont_56_lstm1_cont_slice_55_split <- cont_56
I1017 11:46:31.347374 26184 net.cpp:380] cont_56_lstm1_cont_slice_55_split -> cont_56_lstm1_cont_slice_55_split_0
I1017 11:46:31.347380 26184 net.cpp:380] cont_56_lstm1_cont_slice_55_split -> cont_56_lstm1_cont_slice_55_split_1
I1017 11:46:31.347407 26184 net.cpp:122] Setting up cont_56_lstm1_cont_slice_55_split
I1017 11:46:31.347414 26184 net.cpp:129] Top shape: 1 4 (4)
I1017 11:46:31.347419 26184 net.cpp:129] Top shape: 1 4 (4)
I1017 11:46:31.347422 26184 net.cpp:137] Memory required for data: 423680
I1017 11:46:31.347426 26184 layer_factory.hpp:77] Creating layer cont_57_lstm1_cont_slice_56_split
I1017 11:46:31.347434 26184 net.cpp:84] Creating Layer cont_57_lstm1_cont_slice_56_split
I1017 11:46:31.347437 26184 net.cpp:406] cont_57_lstm1_cont_slice_56_split <- cont_57
I1017 11:46:31.347443 26184 net.cpp:380] cont_57_lstm1_cont_slice_56_split -> cont_57_lstm1_cont_slice_56_split_0
I1017 11:46:31.347450 26184 net.cpp:380] cont_57_lstm1_cont_slice_56_split -> cont_57_lstm1_cont_slice_56_split_1
I1017 11:46:31.347479 26184 net.cpp:122] Setting up cont_57_lstm1_cont_slice_56_split
I1017 11:46:31.347486 26184 net.cpp:129] Top shape: 1 4 (4)
I1017 11:46:31.347491 26184 net.cpp:129] Top shape: 1 4 (4)
I1017 11:46:31.347494 26184 net.cpp:137] Memory required for data: 423712
I1017 11:46:31.347498 26184 layer_factory.hpp:77] Creating layer cont_58_lstm1_cont_slice_57_split
I1017 11:46:31.347502 26184 net.cpp:84] Creating Layer cont_58_lstm1_cont_slice_57_split
I1017 11:46:31.347507 26184 net.cpp:406] cont_58_lstm1_cont_slice_57_split <- cont_58
I1017 11:46:31.347512 26184 net.cpp:380] cont_58_lstm1_cont_slice_57_split -> cont_58_lstm1_cont_slice_57_split_0
I1017 11:46:31.347519 26184 net.cpp:380] cont_58_lstm1_cont_slice_57_split -> cont_58_lstm1_cont_slice_57_split_1
I1017 11:46:31.347549 26184 net.cpp:122] Setting up cont_58_lstm1_cont_slice_57_split
I1017 11:46:31.347555 26184 net.cpp:129] Top shape: 1 4 (4)
I1017 11:46:31.347559 26184 net.cpp:129] Top shape: 1 4 (4)
I1017 11:46:31.347563 26184 net.cpp:137] Memory required for data: 423744
I1017 11:46:31.347568 26184 layer_factory.hpp:77] Creating layer cont_59_lstm1_cont_slice_58_split
I1017 11:46:31.347573 26184 net.cpp:84] Creating Layer cont_59_lstm1_cont_slice_58_split
I1017 11:46:31.347576 26184 net.cpp:406] cont_59_lstm1_cont_slice_58_split <- cont_59
I1017 11:46:31.347582 26184 net.cpp:380] cont_59_lstm1_cont_slice_58_split -> cont_59_lstm1_cont_slice_58_split_0
I1017 11:46:31.347589 26184 net.cpp:380] cont_59_lstm1_cont_slice_58_split -> cont_59_lstm1_cont_slice_58_split_1
I1017 11:46:31.347618 26184 net.cpp:122] Setting up cont_59_lstm1_cont_slice_58_split
I1017 11:46:31.347623 26184 net.cpp:129] Top shape: 1 4 (4)
I1017 11:46:31.347628 26184 net.cpp:129] Top shape: 1 4 (4)
I1017 11:46:31.347632 26184 net.cpp:137] Memory required for data: 423776
I1017 11:46:31.347636 26184 layer_factory.hpp:77] Creating layer cont_60_lstm1_cont_slice_59_split
I1017 11:46:31.347641 26184 net.cpp:84] Creating Layer cont_60_lstm1_cont_slice_59_split
I1017 11:46:31.347645 26184 net.cpp:406] cont_60_lstm1_cont_slice_59_split <- cont_60
I1017 11:46:31.347654 26184 net.cpp:380] cont_60_lstm1_cont_slice_59_split -> cont_60_lstm1_cont_slice_59_split_0
I1017 11:46:31.347661 26184 net.cpp:380] cont_60_lstm1_cont_slice_59_split -> cont_60_lstm1_cont_slice_59_split_1
I1017 11:46:31.347690 26184 net.cpp:122] Setting up cont_60_lstm1_cont_slice_59_split
I1017 11:46:31.347697 26184 net.cpp:129] Top shape: 1 4 (4)
I1017 11:46:31.347702 26184 net.cpp:129] Top shape: 1 4 (4)
I1017 11:46:31.347705 26184 net.cpp:137] Memory required for data: 423808
I1017 11:46:31.347709 26184 layer_factory.hpp:77] Creating layer cont_61_lstm1_cont_slice_60_split
I1017 11:46:31.347714 26184 net.cpp:84] Creating Layer cont_61_lstm1_cont_slice_60_split
I1017 11:46:31.347718 26184 net.cpp:406] cont_61_lstm1_cont_slice_60_split <- cont_61
I1017 11:46:31.347724 26184 net.cpp:380] cont_61_lstm1_cont_slice_60_split -> cont_61_lstm1_cont_slice_60_split_0
I1017 11:46:31.347730 26184 net.cpp:380] cont_61_lstm1_cont_slice_60_split -> cont_61_lstm1_cont_slice_60_split_1
I1017 11:46:31.347761 26184 net.cpp:122] Setting up cont_61_lstm1_cont_slice_60_split
I1017 11:46:31.347767 26184 net.cpp:129] Top shape: 1 4 (4)
I1017 11:46:31.347772 26184 net.cpp:129] Top shape: 1 4 (4)
I1017 11:46:31.347776 26184 net.cpp:137] Memory required for data: 423840
I1017 11:46:31.347780 26184 layer_factory.hpp:77] Creating layer cont_62_lstm1_cont_slice_61_split
I1017 11:46:31.347789 26184 net.cpp:84] Creating Layer cont_62_lstm1_cont_slice_61_split
I1017 11:46:31.347793 26184 net.cpp:406] cont_62_lstm1_cont_slice_61_split <- cont_62
I1017 11:46:31.347801 26184 net.cpp:380] cont_62_lstm1_cont_slice_61_split -> cont_62_lstm1_cont_slice_61_split_0
I1017 11:46:31.347808 26184 net.cpp:380] cont_62_lstm1_cont_slice_61_split -> cont_62_lstm1_cont_slice_61_split_1
I1017 11:46:31.347836 26184 net.cpp:122] Setting up cont_62_lstm1_cont_slice_61_split
I1017 11:46:31.347842 26184 net.cpp:129] Top shape: 1 4 (4)
I1017 11:46:31.347846 26184 net.cpp:129] Top shape: 1 4 (4)
I1017 11:46:31.347851 26184 net.cpp:137] Memory required for data: 423872
I1017 11:46:31.347856 26184 layer_factory.hpp:77] Creating layer cont_63_lstm1_cont_slice_62_split
I1017 11:46:31.347862 26184 net.cpp:84] Creating Layer cont_63_lstm1_cont_slice_62_split
I1017 11:46:31.347867 26184 net.cpp:406] cont_63_lstm1_cont_slice_62_split <- cont_63
I1017 11:46:31.347872 26184 net.cpp:380] cont_63_lstm1_cont_slice_62_split -> cont_63_lstm1_cont_slice_62_split_0
I1017 11:46:31.347896 26184 net.cpp:380] cont_63_lstm1_cont_slice_62_split -> cont_63_lstm1_cont_slice_62_split_1
I1017 11:46:31.347929 26184 net.cpp:122] Setting up cont_63_lstm1_cont_slice_62_split
I1017 11:46:31.347939 26184 net.cpp:129] Top shape: 1 4 (4)
I1017 11:46:31.347944 26184 net.cpp:129] Top shape: 1 4 (4)
I1017 11:46:31.347947 26184 net.cpp:137] Memory required for data: 423904
I1017 11:46:31.347951 26184 layer_factory.hpp:77] Creating layer cont_64_lstm1_cont_slice_63_split
I1017 11:46:31.347956 26184 net.cpp:84] Creating Layer cont_64_lstm1_cont_slice_63_split
I1017 11:46:31.347961 26184 net.cpp:406] cont_64_lstm1_cont_slice_63_split <- cont_64
I1017 11:46:31.347966 26184 net.cpp:380] cont_64_lstm1_cont_slice_63_split -> cont_64_lstm1_cont_slice_63_split_0
I1017 11:46:31.347973 26184 net.cpp:380] cont_64_lstm1_cont_slice_63_split -> cont_64_lstm1_cont_slice_63_split_1
I1017 11:46:31.348003 26184 net.cpp:122] Setting up cont_64_lstm1_cont_slice_63_split
I1017 11:46:31.348009 26184 net.cpp:129] Top shape: 1 4 (4)
I1017 11:46:31.348014 26184 net.cpp:129] Top shape: 1 4 (4)
I1017 11:46:31.348018 26184 net.cpp:137] Memory required for data: 423936
I1017 11:46:31.348021 26184 layer_factory.hpp:77] Creating layer cont_65_lstm1_cont_slice_64_split
I1017 11:46:31.348038 26184 net.cpp:84] Creating Layer cont_65_lstm1_cont_slice_64_split
I1017 11:46:31.348044 26184 net.cpp:406] cont_65_lstm1_cont_slice_64_split <- cont_65
I1017 11:46:31.348050 26184 net.cpp:380] cont_65_lstm1_cont_slice_64_split -> cont_65_lstm1_cont_slice_64_split_0
I1017 11:46:31.348058 26184 net.cpp:380] cont_65_lstm1_cont_slice_64_split -> cont_65_lstm1_cont_slice_64_split_1
I1017 11:46:31.348091 26184 net.cpp:122] Setting up cont_65_lstm1_cont_slice_64_split
I1017 11:46:31.348098 26184 net.cpp:129] Top shape: 1 4 (4)
I1017 11:46:31.348104 26184 net.cpp:129] Top shape: 1 4 (4)
I1017 11:46:31.348107 26184 net.cpp:137] Memory required for data: 423968
I1017 11:46:31.348111 26184 layer_factory.hpp:77] Creating layer cont_66_lstm1_cont_slice_65_split
I1017 11:46:31.348116 26184 net.cpp:84] Creating Layer cont_66_lstm1_cont_slice_65_split
I1017 11:46:31.348120 26184 net.cpp:406] cont_66_lstm1_cont_slice_65_split <- cont_66
I1017 11:46:31.348127 26184 net.cpp:380] cont_66_lstm1_cont_slice_65_split -> cont_66_lstm1_cont_slice_65_split_0
I1017 11:46:31.348135 26184 net.cpp:380] cont_66_lstm1_cont_slice_65_split -> cont_66_lstm1_cont_slice_65_split_1
I1017 11:46:31.348163 26184 net.cpp:122] Setting up cont_66_lstm1_cont_slice_65_split
I1017 11:46:31.348170 26184 net.cpp:129] Top shape: 1 4 (4)
I1017 11:46:31.348173 26184 net.cpp:129] Top shape: 1 4 (4)
I1017 11:46:31.348177 26184 net.cpp:137] Memory required for data: 424000
I1017 11:46:31.348181 26184 layer_factory.hpp:77] Creating layer cont_67_lstm1_cont_slice_66_split
I1017 11:46:31.348188 26184 net.cpp:84] Creating Layer cont_67_lstm1_cont_slice_66_split
I1017 11:46:31.348192 26184 net.cpp:406] cont_67_lstm1_cont_slice_66_split <- cont_67
I1017 11:46:31.348198 26184 net.cpp:380] cont_67_lstm1_cont_slice_66_split -> cont_67_lstm1_cont_slice_66_split_0
I1017 11:46:31.348204 26184 net.cpp:380] cont_67_lstm1_cont_slice_66_split -> cont_67_lstm1_cont_slice_66_split_1
I1017 11:46:31.348242 26184 net.cpp:122] Setting up cont_67_lstm1_cont_slice_66_split
I1017 11:46:31.348248 26184 net.cpp:129] Top shape: 1 4 (4)
I1017 11:46:31.348253 26184 net.cpp:129] Top shape: 1 4 (4)
I1017 11:46:31.348258 26184 net.cpp:137] Memory required for data: 424032
I1017 11:46:31.348263 26184 layer_factory.hpp:77] Creating layer cont_68_lstm1_cont_slice_67_split
I1017 11:46:31.348268 26184 net.cpp:84] Creating Layer cont_68_lstm1_cont_slice_67_split
I1017 11:46:31.348273 26184 net.cpp:406] cont_68_lstm1_cont_slice_67_split <- cont_68
I1017 11:46:31.348280 26184 net.cpp:380] cont_68_lstm1_cont_slice_67_split -> cont_68_lstm1_cont_slice_67_split_0
I1017 11:46:31.348289 26184 net.cpp:380] cont_68_lstm1_cont_slice_67_split -> cont_68_lstm1_cont_slice_67_split_1
I1017 11:46:31.348321 26184 net.cpp:122] Setting up cont_68_lstm1_cont_slice_67_split
I1017 11:46:31.348328 26184 net.cpp:129] Top shape: 1 4 (4)
I1017 11:46:31.348333 26184 net.cpp:129] Top shape: 1 4 (4)
I1017 11:46:31.348338 26184 net.cpp:137] Memory required for data: 424064
I1017 11:46:31.348342 26184 layer_factory.hpp:77] Creating layer cont_69_lstm1_cont_slice_68_split
I1017 11:46:31.348347 26184 net.cpp:84] Creating Layer cont_69_lstm1_cont_slice_68_split
I1017 11:46:31.348352 26184 net.cpp:406] cont_69_lstm1_cont_slice_68_split <- cont_69
I1017 11:46:31.348358 26184 net.cpp:380] cont_69_lstm1_cont_slice_68_split -> cont_69_lstm1_cont_slice_68_split_0
I1017 11:46:31.348366 26184 net.cpp:380] cont_69_lstm1_cont_slice_68_split -> cont_69_lstm1_cont_slice_68_split_1
I1017 11:46:31.348398 26184 net.cpp:122] Setting up cont_69_lstm1_cont_slice_68_split
I1017 11:46:31.348407 26184 net.cpp:129] Top shape: 1 4 (4)
I1017 11:46:31.348410 26184 net.cpp:129] Top shape: 1 4 (4)
I1017 11:46:31.348414 26184 net.cpp:137] Memory required for data: 424096
I1017 11:46:31.348419 26184 layer_factory.hpp:77] Creating layer cont_70_lstm1_cont_slice_69_split
I1017 11:46:31.348425 26184 net.cpp:84] Creating Layer cont_70_lstm1_cont_slice_69_split
I1017 11:46:31.348429 26184 net.cpp:406] cont_70_lstm1_cont_slice_69_split <- cont_70
I1017 11:46:31.348438 26184 net.cpp:380] cont_70_lstm1_cont_slice_69_split -> cont_70_lstm1_cont_slice_69_split_0
I1017 11:46:31.348444 26184 net.cpp:380] cont_70_lstm1_cont_slice_69_split -> cont_70_lstm1_cont_slice_69_split_1
I1017 11:46:31.348474 26184 net.cpp:122] Setting up cont_70_lstm1_cont_slice_69_split
I1017 11:46:31.348479 26184 net.cpp:129] Top shape: 1 4 (4)
I1017 11:46:31.348484 26184 net.cpp:129] Top shape: 1 4 (4)
I1017 11:46:31.348489 26184 net.cpp:137] Memory required for data: 424128
I1017 11:46:31.348492 26184 layer_factory.hpp:77] Creating layer cont_71_lstm1_cont_slice_70_split
I1017 11:46:31.348500 26184 net.cpp:84] Creating Layer cont_71_lstm1_cont_slice_70_split
I1017 11:46:31.348505 26184 net.cpp:406] cont_71_lstm1_cont_slice_70_split <- cont_71
I1017 11:46:31.348510 26184 net.cpp:380] cont_71_lstm1_cont_slice_70_split -> cont_71_lstm1_cont_slice_70_split_0
I1017 11:46:31.348517 26184 net.cpp:380] cont_71_lstm1_cont_slice_70_split -> cont_71_lstm1_cont_slice_70_split_1
I1017 11:46:31.348547 26184 net.cpp:122] Setting up cont_71_lstm1_cont_slice_70_split
I1017 11:46:31.348553 26184 net.cpp:129] Top shape: 1 4 (4)
I1017 11:46:31.348558 26184 net.cpp:129] Top shape: 1 4 (4)
I1017 11:46:31.348562 26184 net.cpp:137] Memory required for data: 424160
I1017 11:46:31.348565 26184 layer_factory.hpp:77] Creating layer cont_72_lstm1_cont_slice_71_split
I1017 11:46:31.348570 26184 net.cpp:84] Creating Layer cont_72_lstm1_cont_slice_71_split
I1017 11:46:31.348575 26184 net.cpp:406] cont_72_lstm1_cont_slice_71_split <- cont_72
I1017 11:46:31.348580 26184 net.cpp:380] cont_72_lstm1_cont_slice_71_split -> cont_72_lstm1_cont_slice_71_split_0
I1017 11:46:31.348587 26184 net.cpp:380] cont_72_lstm1_cont_slice_71_split -> cont_72_lstm1_cont_slice_71_split_1
I1017 11:46:31.348616 26184 net.cpp:122] Setting up cont_72_lstm1_cont_slice_71_split
I1017 11:46:31.348623 26184 net.cpp:129] Top shape: 1 4 (4)
I1017 11:46:31.348628 26184 net.cpp:129] Top shape: 1 4 (4)
I1017 11:46:31.348631 26184 net.cpp:137] Memory required for data: 424192
I1017 11:46:31.348635 26184 layer_factory.hpp:77] Creating layer cont_73_lstm1_cont_slice_72_split
I1017 11:46:31.348639 26184 net.cpp:84] Creating Layer cont_73_lstm1_cont_slice_72_split
I1017 11:46:31.348644 26184 net.cpp:406] cont_73_lstm1_cont_slice_72_split <- cont_73
I1017 11:46:31.348649 26184 net.cpp:380] cont_73_lstm1_cont_slice_72_split -> cont_73_lstm1_cont_slice_72_split_0
I1017 11:46:31.348659 26184 net.cpp:380] cont_73_lstm1_cont_slice_72_split -> cont_73_lstm1_cont_slice_72_split_1
I1017 11:46:31.348686 26184 net.cpp:122] Setting up cont_73_lstm1_cont_slice_72_split
I1017 11:46:31.348692 26184 net.cpp:129] Top shape: 1 4 (4)
I1017 11:46:31.348696 26184 net.cpp:129] Top shape: 1 4 (4)
I1017 11:46:31.348701 26184 net.cpp:137] Memory required for data: 424224
I1017 11:46:31.348704 26184 layer_factory.hpp:77] Creating layer cont_74_lstm1_cont_slice_73_split
I1017 11:46:31.348711 26184 net.cpp:84] Creating Layer cont_74_lstm1_cont_slice_73_split
I1017 11:46:31.348716 26184 net.cpp:406] cont_74_lstm1_cont_slice_73_split <- cont_74
I1017 11:46:31.348721 26184 net.cpp:380] cont_74_lstm1_cont_slice_73_split -> cont_74_lstm1_cont_slice_73_split_0
I1017 11:46:31.348728 26184 net.cpp:380] cont_74_lstm1_cont_slice_73_split -> cont_74_lstm1_cont_slice_73_split_1
I1017 11:46:31.348757 26184 net.cpp:122] Setting up cont_74_lstm1_cont_slice_73_split
I1017 11:46:31.348763 26184 net.cpp:129] Top shape: 1 4 (4)
I1017 11:46:31.348768 26184 net.cpp:129] Top shape: 1 4 (4)
I1017 11:46:31.348773 26184 net.cpp:137] Memory required for data: 424256
I1017 11:46:31.348776 26184 layer_factory.hpp:77] Creating layer cont_75_lstm1_cont_slice_74_split
I1017 11:46:31.348781 26184 net.cpp:84] Creating Layer cont_75_lstm1_cont_slice_74_split
I1017 11:46:31.348785 26184 net.cpp:406] cont_75_lstm1_cont_slice_74_split <- cont_75
I1017 11:46:31.348791 26184 net.cpp:380] cont_75_lstm1_cont_slice_74_split -> cont_75_lstm1_cont_slice_74_split_0
I1017 11:46:31.348798 26184 net.cpp:380] cont_75_lstm1_cont_slice_74_split -> cont_75_lstm1_cont_slice_74_split_1
I1017 11:46:31.348827 26184 net.cpp:122] Setting up cont_75_lstm1_cont_slice_74_split
I1017 11:46:31.348834 26184 net.cpp:129] Top shape: 1 4 (4)
I1017 11:46:31.348839 26184 net.cpp:129] Top shape: 1 4 (4)
I1017 11:46:31.348842 26184 net.cpp:137] Memory required for data: 424288
I1017 11:46:31.348845 26184 layer_factory.hpp:77] Creating layer cont_76_lstm1_cont_slice_75_split
I1017 11:46:31.348850 26184 net.cpp:84] Creating Layer cont_76_lstm1_cont_slice_75_split
I1017 11:46:31.348855 26184 net.cpp:406] cont_76_lstm1_cont_slice_75_split <- cont_76
I1017 11:46:31.348860 26184 net.cpp:380] cont_76_lstm1_cont_slice_75_split -> cont_76_lstm1_cont_slice_75_split_0
I1017 11:46:31.348866 26184 net.cpp:380] cont_76_lstm1_cont_slice_75_split -> cont_76_lstm1_cont_slice_75_split_1
I1017 11:46:31.348896 26184 net.cpp:122] Setting up cont_76_lstm1_cont_slice_75_split
I1017 11:46:31.348902 26184 net.cpp:129] Top shape: 1 4 (4)
I1017 11:46:31.348907 26184 net.cpp:129] Top shape: 1 4 (4)
I1017 11:46:31.348912 26184 net.cpp:137] Memory required for data: 424320
I1017 11:46:31.348915 26184 layer_factory.hpp:77] Creating layer cont_77_lstm1_cont_slice_76_split
I1017 11:46:31.348920 26184 net.cpp:84] Creating Layer cont_77_lstm1_cont_slice_76_split
I1017 11:46:31.348924 26184 net.cpp:406] cont_77_lstm1_cont_slice_76_split <- cont_77
I1017 11:46:31.348932 26184 net.cpp:380] cont_77_lstm1_cont_slice_76_split -> cont_77_lstm1_cont_slice_76_split_0
I1017 11:46:31.348939 26184 net.cpp:380] cont_77_lstm1_cont_slice_76_split -> cont_77_lstm1_cont_slice_76_split_1
I1017 11:46:31.348968 26184 net.cpp:122] Setting up cont_77_lstm1_cont_slice_76_split
I1017 11:46:31.348973 26184 net.cpp:129] Top shape: 1 4 (4)
I1017 11:46:31.348978 26184 net.cpp:129] Top shape: 1 4 (4)
I1017 11:46:31.348981 26184 net.cpp:137] Memory required for data: 424352
I1017 11:46:31.348985 26184 layer_factory.hpp:77] Creating layer cont_78_lstm1_cont_slice_77_split
I1017 11:46:31.348992 26184 net.cpp:84] Creating Layer cont_78_lstm1_cont_slice_77_split
I1017 11:46:31.348996 26184 net.cpp:406] cont_78_lstm1_cont_slice_77_split <- cont_78
I1017 11:46:31.349002 26184 net.cpp:380] cont_78_lstm1_cont_slice_77_split -> cont_78_lstm1_cont_slice_77_split_0
I1017 11:46:31.349009 26184 net.cpp:380] cont_78_lstm1_cont_slice_77_split -> cont_78_lstm1_cont_slice_77_split_1
I1017 11:46:31.349040 26184 net.cpp:122] Setting up cont_78_lstm1_cont_slice_77_split
I1017 11:46:31.349045 26184 net.cpp:129] Top shape: 1 4 (4)
I1017 11:46:31.349050 26184 net.cpp:129] Top shape: 1 4 (4)
I1017 11:46:31.349053 26184 net.cpp:137] Memory required for data: 424384
I1017 11:46:31.349058 26184 layer_factory.hpp:77] Creating layer cont_79_lstm1_cont_slice_78_split
I1017 11:46:31.349063 26184 net.cpp:84] Creating Layer cont_79_lstm1_cont_slice_78_split
I1017 11:46:31.349067 26184 net.cpp:406] cont_79_lstm1_cont_slice_78_split <- cont_79
I1017 11:46:31.349072 26184 net.cpp:380] cont_79_lstm1_cont_slice_78_split -> cont_79_lstm1_cont_slice_78_split_0
I1017 11:46:31.349079 26184 net.cpp:380] cont_79_lstm1_cont_slice_78_split -> cont_79_lstm1_cont_slice_78_split_1
I1017 11:46:31.349109 26184 net.cpp:122] Setting up cont_79_lstm1_cont_slice_78_split
I1017 11:46:31.349115 26184 net.cpp:129] Top shape: 1 4 (4)
I1017 11:46:31.349120 26184 net.cpp:129] Top shape: 1 4 (4)
I1017 11:46:31.349124 26184 net.cpp:137] Memory required for data: 424416
I1017 11:46:31.349128 26184 layer_factory.hpp:77] Creating layer cont_80_lstm1_cont_slice_79_split
I1017 11:46:31.349133 26184 net.cpp:84] Creating Layer cont_80_lstm1_cont_slice_79_split
I1017 11:46:31.349138 26184 net.cpp:406] cont_80_lstm1_cont_slice_79_split <- cont_80
I1017 11:46:31.349143 26184 net.cpp:380] cont_80_lstm1_cont_slice_79_split -> cont_80_lstm1_cont_slice_79_split_0
I1017 11:46:31.349151 26184 net.cpp:380] cont_80_lstm1_cont_slice_79_split -> cont_80_lstm1_cont_slice_79_split_1
I1017 11:46:31.349179 26184 net.cpp:122] Setting up cont_80_lstm1_cont_slice_79_split
I1017 11:46:31.349185 26184 net.cpp:129] Top shape: 1 4 (4)
I1017 11:46:31.349189 26184 net.cpp:129] Top shape: 1 4 (4)
I1017 11:46:31.349194 26184 net.cpp:137] Memory required for data: 424448
I1017 11:46:31.349197 26184 layer_factory.hpp:77] Creating layer cont_81_lstm1_cont_slice_80_split
I1017 11:46:31.349205 26184 net.cpp:84] Creating Layer cont_81_lstm1_cont_slice_80_split
I1017 11:46:31.349208 26184 net.cpp:406] cont_81_lstm1_cont_slice_80_split <- cont_81
I1017 11:46:31.349215 26184 net.cpp:380] cont_81_lstm1_cont_slice_80_split -> cont_81_lstm1_cont_slice_80_split_0
I1017 11:46:31.349220 26184 net.cpp:380] cont_81_lstm1_cont_slice_80_split -> cont_81_lstm1_cont_slice_80_split_1
I1017 11:46:31.349251 26184 net.cpp:122] Setting up cont_81_lstm1_cont_slice_80_split
I1017 11:46:31.349257 26184 net.cpp:129] Top shape: 1 4 (4)
I1017 11:46:31.349262 26184 net.cpp:129] Top shape: 1 4 (4)
I1017 11:46:31.349267 26184 net.cpp:137] Memory required for data: 424480
I1017 11:46:31.349270 26184 layer_factory.hpp:77] Creating layer cont_82_lstm1_cont_slice_81_split
I1017 11:46:31.349275 26184 net.cpp:84] Creating Layer cont_82_lstm1_cont_slice_81_split
I1017 11:46:31.349279 26184 net.cpp:406] cont_82_lstm1_cont_slice_81_split <- cont_82
I1017 11:46:31.349285 26184 net.cpp:380] cont_82_lstm1_cont_slice_81_split -> cont_82_lstm1_cont_slice_81_split_0
I1017 11:46:31.349292 26184 net.cpp:380] cont_82_lstm1_cont_slice_81_split -> cont_82_lstm1_cont_slice_81_split_1
I1017 11:46:31.349324 26184 net.cpp:122] Setting up cont_82_lstm1_cont_slice_81_split
I1017 11:46:31.349330 26184 net.cpp:129] Top shape: 1 4 (4)
I1017 11:46:31.349335 26184 net.cpp:129] Top shape: 1 4 (4)
I1017 11:46:31.349339 26184 net.cpp:137] Memory required for data: 424512
I1017 11:46:31.349342 26184 layer_factory.hpp:77] Creating layer cont_83_lstm1_cont_slice_82_split
I1017 11:46:31.349347 26184 net.cpp:84] Creating Layer cont_83_lstm1_cont_slice_82_split
I1017 11:46:31.349352 26184 net.cpp:406] cont_83_lstm1_cont_slice_82_split <- cont_83
I1017 11:46:31.349357 26184 net.cpp:380] cont_83_lstm1_cont_slice_82_split -> cont_83_lstm1_cont_slice_82_split_0
I1017 11:46:31.349364 26184 net.cpp:380] cont_83_lstm1_cont_slice_82_split -> cont_83_lstm1_cont_slice_82_split_1
I1017 11:46:31.349395 26184 net.cpp:122] Setting up cont_83_lstm1_cont_slice_82_split
I1017 11:46:31.349400 26184 net.cpp:129] Top shape: 1 4 (4)
I1017 11:46:31.349406 26184 net.cpp:129] Top shape: 1 4 (4)
I1017 11:46:31.349409 26184 net.cpp:137] Memory required for data: 424544
I1017 11:46:31.349413 26184 layer_factory.hpp:77] Creating layer cont_84_lstm1_cont_slice_83_split
I1017 11:46:31.349418 26184 net.cpp:84] Creating Layer cont_84_lstm1_cont_slice_83_split
I1017 11:46:31.349422 26184 net.cpp:406] cont_84_lstm1_cont_slice_83_split <- cont_84
I1017 11:46:31.349429 26184 net.cpp:380] cont_84_lstm1_cont_slice_83_split -> cont_84_lstm1_cont_slice_83_split_0
I1017 11:46:31.349437 26184 net.cpp:380] cont_84_lstm1_cont_slice_83_split -> cont_84_lstm1_cont_slice_83_split_1
I1017 11:46:31.349464 26184 net.cpp:122] Setting up cont_84_lstm1_cont_slice_83_split
I1017 11:46:31.349470 26184 net.cpp:129] Top shape: 1 4 (4)
I1017 11:46:31.349475 26184 net.cpp:129] Top shape: 1 4 (4)
I1017 11:46:31.349479 26184 net.cpp:137] Memory required for data: 424576
I1017 11:46:31.349483 26184 layer_factory.hpp:77] Creating layer cont_85_lstm1_cont_slice_84_split
I1017 11:46:31.349490 26184 net.cpp:84] Creating Layer cont_85_lstm1_cont_slice_84_split
I1017 11:46:31.349494 26184 net.cpp:406] cont_85_lstm1_cont_slice_84_split <- cont_85
I1017 11:46:31.349500 26184 net.cpp:380] cont_85_lstm1_cont_slice_84_split -> cont_85_lstm1_cont_slice_84_split_0
I1017 11:46:31.349506 26184 net.cpp:380] cont_85_lstm1_cont_slice_84_split -> cont_85_lstm1_cont_slice_84_split_1
I1017 11:46:31.349536 26184 net.cpp:122] Setting up cont_85_lstm1_cont_slice_84_split
I1017 11:46:31.349542 26184 net.cpp:129] Top shape: 1 4 (4)
I1017 11:46:31.349547 26184 net.cpp:129] Top shape: 1 4 (4)
I1017 11:46:31.349551 26184 net.cpp:137] Memory required for data: 424608
I1017 11:46:31.349555 26184 layer_factory.hpp:77] Creating layer cont_86_lstm1_cont_slice_85_split
I1017 11:46:31.349560 26184 net.cpp:84] Creating Layer cont_86_lstm1_cont_slice_85_split
I1017 11:46:31.349565 26184 net.cpp:406] cont_86_lstm1_cont_slice_85_split <- cont_86
I1017 11:46:31.349570 26184 net.cpp:380] cont_86_lstm1_cont_slice_85_split -> cont_86_lstm1_cont_slice_85_split_0
I1017 11:46:31.349576 26184 net.cpp:380] cont_86_lstm1_cont_slice_85_split -> cont_86_lstm1_cont_slice_85_split_1
I1017 11:46:31.349606 26184 net.cpp:122] Setting up cont_86_lstm1_cont_slice_85_split
I1017 11:46:31.349611 26184 net.cpp:129] Top shape: 1 4 (4)
I1017 11:46:31.349617 26184 net.cpp:129] Top shape: 1 4 (4)
I1017 11:46:31.349620 26184 net.cpp:137] Memory required for data: 424640
I1017 11:46:31.349624 26184 layer_factory.hpp:77] Creating layer cont_87_lstm1_cont_slice_86_split
I1017 11:46:31.349629 26184 net.cpp:84] Creating Layer cont_87_lstm1_cont_slice_86_split
I1017 11:46:31.349634 26184 net.cpp:406] cont_87_lstm1_cont_slice_86_split <- cont_87
I1017 11:46:31.349639 26184 net.cpp:380] cont_87_lstm1_cont_slice_86_split -> cont_87_lstm1_cont_slice_86_split_0
I1017 11:46:31.349648 26184 net.cpp:380] cont_87_lstm1_cont_slice_86_split -> cont_87_lstm1_cont_slice_86_split_1
I1017 11:46:31.349676 26184 net.cpp:122] Setting up cont_87_lstm1_cont_slice_86_split
I1017 11:46:31.349683 26184 net.cpp:129] Top shape: 1 4 (4)
I1017 11:46:31.349686 26184 net.cpp:129] Top shape: 1 4 (4)
I1017 11:46:31.349690 26184 net.cpp:137] Memory required for data: 424672
I1017 11:46:31.349694 26184 layer_factory.hpp:77] Creating layer cont_88_lstm1_cont_slice_87_split
I1017 11:46:31.349699 26184 net.cpp:84] Creating Layer cont_88_lstm1_cont_slice_87_split
I1017 11:46:31.349704 26184 net.cpp:406] cont_88_lstm1_cont_slice_87_split <- cont_88
I1017 11:46:31.349711 26184 net.cpp:380] cont_88_lstm1_cont_slice_87_split -> cont_88_lstm1_cont_slice_87_split_0
I1017 11:46:31.349717 26184 net.cpp:380] cont_88_lstm1_cont_slice_87_split -> cont_88_lstm1_cont_slice_87_split_1
I1017 11:46:31.349751 26184 net.cpp:122] Setting up cont_88_lstm1_cont_slice_87_split
I1017 11:46:31.349757 26184 net.cpp:129] Top shape: 1 4 (4)
I1017 11:46:31.349762 26184 net.cpp:129] Top shape: 1 4 (4)
I1017 11:46:31.349766 26184 net.cpp:137] Memory required for data: 424704
I1017 11:46:31.349771 26184 layer_factory.hpp:77] Creating layer cont_89_lstm1_cont_slice_88_split
I1017 11:46:31.349776 26184 net.cpp:84] Creating Layer cont_89_lstm1_cont_slice_88_split
I1017 11:46:31.349779 26184 net.cpp:406] cont_89_lstm1_cont_slice_88_split <- cont_89
I1017 11:46:31.349784 26184 net.cpp:380] cont_89_lstm1_cont_slice_88_split -> cont_89_lstm1_cont_slice_88_split_0
I1017 11:46:31.349792 26184 net.cpp:380] cont_89_lstm1_cont_slice_88_split -> cont_89_lstm1_cont_slice_88_split_1
I1017 11:46:31.349823 26184 net.cpp:122] Setting up cont_89_lstm1_cont_slice_88_split
I1017 11:46:31.349829 26184 net.cpp:129] Top shape: 1 4 (4)
I1017 11:46:31.349834 26184 net.cpp:129] Top shape: 1 4 (4)
I1017 11:46:31.349838 26184 net.cpp:137] Memory required for data: 424736
I1017 11:46:31.349841 26184 layer_factory.hpp:77] Creating layer cont_90_lstm1_cont_slice_89_split
I1017 11:46:31.349846 26184 net.cpp:84] Creating Layer cont_90_lstm1_cont_slice_89_split
I1017 11:46:31.349850 26184 net.cpp:406] cont_90_lstm1_cont_slice_89_split <- cont_90
I1017 11:46:31.349856 26184 net.cpp:380] cont_90_lstm1_cont_slice_89_split -> cont_90_lstm1_cont_slice_89_split_0
I1017 11:46:31.349864 26184 net.cpp:380] cont_90_lstm1_cont_slice_89_split -> cont_90_lstm1_cont_slice_89_split_1
I1017 11:46:31.349894 26184 net.cpp:122] Setting up cont_90_lstm1_cont_slice_89_split
I1017 11:46:31.349900 26184 net.cpp:129] Top shape: 1 4 (4)
I1017 11:46:31.349905 26184 net.cpp:129] Top shape: 1 4 (4)
I1017 11:46:31.349908 26184 net.cpp:137] Memory required for data: 424768
I1017 11:46:31.349911 26184 layer_factory.hpp:77] Creating layer cont_91_lstm1_cont_slice_90_split
I1017 11:46:31.349916 26184 net.cpp:84] Creating Layer cont_91_lstm1_cont_slice_90_split
I1017 11:46:31.349921 26184 net.cpp:406] cont_91_lstm1_cont_slice_90_split <- cont_91
I1017 11:46:31.349928 26184 net.cpp:380] cont_91_lstm1_cont_slice_90_split -> cont_91_lstm1_cont_slice_90_split_0
I1017 11:46:31.349934 26184 net.cpp:380] cont_91_lstm1_cont_slice_90_split -> cont_91_lstm1_cont_slice_90_split_1
I1017 11:46:31.349962 26184 net.cpp:122] Setting up cont_91_lstm1_cont_slice_90_split
I1017 11:46:31.349968 26184 net.cpp:129] Top shape: 1 4 (4)
I1017 11:46:31.349973 26184 net.cpp:129] Top shape: 1 4 (4)
I1017 11:46:31.349977 26184 net.cpp:137] Memory required for data: 424800
I1017 11:46:31.349980 26184 layer_factory.hpp:77] Creating layer cont_92_lstm1_cont_slice_91_split
I1017 11:46:31.349987 26184 net.cpp:84] Creating Layer cont_92_lstm1_cont_slice_91_split
I1017 11:46:31.349995 26184 net.cpp:406] cont_92_lstm1_cont_slice_91_split <- cont_92
I1017 11:46:31.350000 26184 net.cpp:380] cont_92_lstm1_cont_slice_91_split -> cont_92_lstm1_cont_slice_91_split_0
I1017 11:46:31.350008 26184 net.cpp:380] cont_92_lstm1_cont_slice_91_split -> cont_92_lstm1_cont_slice_91_split_1
I1017 11:46:31.350039 26184 net.cpp:122] Setting up cont_92_lstm1_cont_slice_91_split
I1017 11:46:31.350045 26184 net.cpp:129] Top shape: 1 4 (4)
I1017 11:46:31.350050 26184 net.cpp:129] Top shape: 1 4 (4)
I1017 11:46:31.350054 26184 net.cpp:137] Memory required for data: 424832
I1017 11:46:31.350057 26184 layer_factory.hpp:77] Creating layer cont_93_lstm1_cont_slice_92_split
I1017 11:46:31.350062 26184 net.cpp:84] Creating Layer cont_93_lstm1_cont_slice_92_split
I1017 11:46:31.350066 26184 net.cpp:406] cont_93_lstm1_cont_slice_92_split <- cont_93
I1017 11:46:31.350072 26184 net.cpp:380] cont_93_lstm1_cont_slice_92_split -> cont_93_lstm1_cont_slice_92_split_0
I1017 11:46:31.350080 26184 net.cpp:380] cont_93_lstm1_cont_slice_92_split -> cont_93_lstm1_cont_slice_92_split_1
I1017 11:46:31.350109 26184 net.cpp:122] Setting up cont_93_lstm1_cont_slice_92_split
I1017 11:46:31.350116 26184 net.cpp:129] Top shape: 1 4 (4)
I1017 11:46:31.350119 26184 net.cpp:129] Top shape: 1 4 (4)
I1017 11:46:31.350127 26184 net.cpp:137] Memory required for data: 424864
I1017 11:46:31.350131 26184 layer_factory.hpp:77] Creating layer cont_94_lstm1_cont_slice_93_split
I1017 11:46:31.350136 26184 net.cpp:84] Creating Layer cont_94_lstm1_cont_slice_93_split
I1017 11:46:31.350141 26184 net.cpp:406] cont_94_lstm1_cont_slice_93_split <- cont_94
I1017 11:46:31.350145 26184 net.cpp:380] cont_94_lstm1_cont_slice_93_split -> cont_94_lstm1_cont_slice_93_split_0
I1017 11:46:31.350152 26184 net.cpp:380] cont_94_lstm1_cont_slice_93_split -> cont_94_lstm1_cont_slice_93_split_1
I1017 11:46:31.350181 26184 net.cpp:122] Setting up cont_94_lstm1_cont_slice_93_split
I1017 11:46:31.350188 26184 net.cpp:129] Top shape: 1 4 (4)
I1017 11:46:31.350193 26184 net.cpp:129] Top shape: 1 4 (4)
I1017 11:46:31.350196 26184 net.cpp:137] Memory required for data: 424896
I1017 11:46:31.350200 26184 layer_factory.hpp:77] Creating layer cont_95_lstm1_cont_slice_94_split
I1017 11:46:31.350205 26184 net.cpp:84] Creating Layer cont_95_lstm1_cont_slice_94_split
I1017 11:46:31.350209 26184 net.cpp:406] cont_95_lstm1_cont_slice_94_split <- cont_95
I1017 11:46:31.350216 26184 net.cpp:380] cont_95_lstm1_cont_slice_94_split -> cont_95_lstm1_cont_slice_94_split_0
I1017 11:46:31.350224 26184 net.cpp:380] cont_95_lstm1_cont_slice_94_split -> cont_95_lstm1_cont_slice_94_split_1
I1017 11:46:31.350251 26184 net.cpp:122] Setting up cont_95_lstm1_cont_slice_94_split
I1017 11:46:31.350260 26184 net.cpp:129] Top shape: 1 4 (4)
I1017 11:46:31.350263 26184 net.cpp:129] Top shape: 1 4 (4)
I1017 11:46:31.350267 26184 net.cpp:137] Memory required for data: 424928
I1017 11:46:31.350271 26184 layer_factory.hpp:77] Creating layer cont_96_lstm1_cont_slice_95_split
I1017 11:46:31.350276 26184 net.cpp:84] Creating Layer cont_96_lstm1_cont_slice_95_split
I1017 11:46:31.350281 26184 net.cpp:406] cont_96_lstm1_cont_slice_95_split <- cont_96
I1017 11:46:31.350286 26184 net.cpp:380] cont_96_lstm1_cont_slice_95_split -> cont_96_lstm1_cont_slice_95_split_0
I1017 11:46:31.350292 26184 net.cpp:380] cont_96_lstm1_cont_slice_95_split -> cont_96_lstm1_cont_slice_95_split_1
I1017 11:46:31.350322 26184 net.cpp:122] Setting up cont_96_lstm1_cont_slice_95_split
I1017 11:46:31.350327 26184 net.cpp:129] Top shape: 1 4 (4)
I1017 11:46:31.350332 26184 net.cpp:129] Top shape: 1 4 (4)
I1017 11:46:31.350337 26184 net.cpp:137] Memory required for data: 424960
I1017 11:46:31.350340 26184 layer_factory.hpp:77] Creating layer cont_97_lstm1_cont_slice_96_split
I1017 11:46:31.350345 26184 net.cpp:84] Creating Layer cont_97_lstm1_cont_slice_96_split
I1017 11:46:31.350349 26184 net.cpp:406] cont_97_lstm1_cont_slice_96_split <- cont_97
I1017 11:46:31.350355 26184 net.cpp:380] cont_97_lstm1_cont_slice_96_split -> cont_97_lstm1_cont_slice_96_split_0
I1017 11:46:31.350363 26184 net.cpp:380] cont_97_lstm1_cont_slice_96_split -> cont_97_lstm1_cont_slice_96_split_1
I1017 11:46:31.350392 26184 net.cpp:122] Setting up cont_97_lstm1_cont_slice_96_split
I1017 11:46:31.350399 26184 net.cpp:129] Top shape: 1 4 (4)
I1017 11:46:31.350402 26184 net.cpp:129] Top shape: 1 4 (4)
I1017 11:46:31.350406 26184 net.cpp:137] Memory required for data: 424992
I1017 11:46:31.350410 26184 layer_factory.hpp:77] Creating layer cont_98_lstm1_cont_slice_97_split
I1017 11:46:31.350415 26184 net.cpp:84] Creating Layer cont_98_lstm1_cont_slice_97_split
I1017 11:46:31.350419 26184 net.cpp:406] cont_98_lstm1_cont_slice_97_split <- cont_98
I1017 11:46:31.350427 26184 net.cpp:380] cont_98_lstm1_cont_slice_97_split -> cont_98_lstm1_cont_slice_97_split_0
I1017 11:46:31.350435 26184 net.cpp:380] cont_98_lstm1_cont_slice_97_split -> cont_98_lstm1_cont_slice_97_split_1
I1017 11:46:31.350462 26184 net.cpp:122] Setting up cont_98_lstm1_cont_slice_97_split
I1017 11:46:31.350468 26184 net.cpp:129] Top shape: 1 4 (4)
I1017 11:46:31.350472 26184 net.cpp:129] Top shape: 1 4 (4)
I1017 11:46:31.350476 26184 net.cpp:137] Memory required for data: 425024
I1017 11:46:31.350481 26184 layer_factory.hpp:77] Creating layer cont_99_lstm1_cont_slice_98_split
I1017 11:46:31.350486 26184 net.cpp:84] Creating Layer cont_99_lstm1_cont_slice_98_split
I1017 11:46:31.350492 26184 net.cpp:406] cont_99_lstm1_cont_slice_98_split <- cont_99
I1017 11:46:31.350497 26184 net.cpp:380] cont_99_lstm1_cont_slice_98_split -> cont_99_lstm1_cont_slice_98_split_0
I1017 11:46:31.350503 26184 net.cpp:380] cont_99_lstm1_cont_slice_98_split -> cont_99_lstm1_cont_slice_98_split_1
I1017 11:46:31.350533 26184 net.cpp:122] Setting up cont_99_lstm1_cont_slice_98_split
I1017 11:46:31.350540 26184 net.cpp:129] Top shape: 1 4 (4)
I1017 11:46:31.350544 26184 net.cpp:129] Top shape: 1 4 (4)
I1017 11:46:31.350548 26184 net.cpp:137] Memory required for data: 425056
I1017 11:46:31.350553 26184 layer_factory.hpp:77] Creating layer cont_100_lstm1_cont_slice_99_split
I1017 11:46:31.350558 26184 net.cpp:84] Creating Layer cont_100_lstm1_cont_slice_99_split
I1017 11:46:31.350563 26184 net.cpp:406] cont_100_lstm1_cont_slice_99_split <- cont_100
I1017 11:46:31.350567 26184 net.cpp:380] cont_100_lstm1_cont_slice_99_split -> cont_100_lstm1_cont_slice_99_split_0
I1017 11:46:31.350574 26184 net.cpp:380] cont_100_lstm1_cont_slice_99_split -> cont_100_lstm1_cont_slice_99_split_1
I1017 11:46:31.350605 26184 net.cpp:122] Setting up cont_100_lstm1_cont_slice_99_split
I1017 11:46:31.350610 26184 net.cpp:129] Top shape: 1 4 (4)
I1017 11:46:31.350615 26184 net.cpp:129] Top shape: 1 4 (4)
I1017 11:46:31.350620 26184 net.cpp:137] Memory required for data: 425088
I1017 11:46:31.350623 26184 layer_factory.hpp:77] Creating layer cont_101_lstm1_cont_slice_100_split
I1017 11:46:31.350627 26184 net.cpp:84] Creating Layer cont_101_lstm1_cont_slice_100_split
I1017 11:46:31.350632 26184 net.cpp:406] cont_101_lstm1_cont_slice_100_split <- cont_101
I1017 11:46:31.350637 26184 net.cpp:380] cont_101_lstm1_cont_slice_100_split -> cont_101_lstm1_cont_slice_100_split_0
I1017 11:46:31.350644 26184 net.cpp:380] cont_101_lstm1_cont_slice_100_split -> cont_101_lstm1_cont_slice_100_split_1
I1017 11:46:31.350674 26184 net.cpp:122] Setting up cont_101_lstm1_cont_slice_100_split
I1017 11:46:31.350680 26184 net.cpp:129] Top shape: 1 4 (4)
I1017 11:46:31.350685 26184 net.cpp:129] Top shape: 1 4 (4)
I1017 11:46:31.350689 26184 net.cpp:137] Memory required for data: 425120
I1017 11:46:31.350692 26184 layer_factory.hpp:77] Creating layer cont_102_lstm1_cont_slice_101_split
I1017 11:46:31.350697 26184 net.cpp:84] Creating Layer cont_102_lstm1_cont_slice_101_split
I1017 11:46:31.350703 26184 net.cpp:406] cont_102_lstm1_cont_slice_101_split <- cont_102
I1017 11:46:31.350709 26184 net.cpp:380] cont_102_lstm1_cont_slice_101_split -> cont_102_lstm1_cont_slice_101_split_0
I1017 11:46:31.350716 26184 net.cpp:380] cont_102_lstm1_cont_slice_101_split -> cont_102_lstm1_cont_slice_101_split_1
I1017 11:46:31.350745 26184 net.cpp:122] Setting up cont_102_lstm1_cont_slice_101_split
I1017 11:46:31.350751 26184 net.cpp:129] Top shape: 1 4 (4)
I1017 11:46:31.350756 26184 net.cpp:129] Top shape: 1 4 (4)
I1017 11:46:31.350759 26184 net.cpp:137] Memory required for data: 425152
I1017 11:46:31.350764 26184 layer_factory.hpp:77] Creating layer cont_103_lstm1_cont_slice_102_split
I1017 11:46:31.350770 26184 net.cpp:84] Creating Layer cont_103_lstm1_cont_slice_102_split
I1017 11:46:31.350775 26184 net.cpp:406] cont_103_lstm1_cont_slice_102_split <- cont_103
I1017 11:46:31.350780 26184 net.cpp:380] cont_103_lstm1_cont_slice_102_split -> cont_103_lstm1_cont_slice_102_split_0
I1017 11:46:31.350786 26184 net.cpp:380] cont_103_lstm1_cont_slice_102_split -> cont_103_lstm1_cont_slice_102_split_1
I1017 11:46:31.350817 26184 net.cpp:122] Setting up cont_103_lstm1_cont_slice_102_split
I1017 11:46:31.350823 26184 net.cpp:129] Top shape: 1 4 (4)
I1017 11:46:31.350828 26184 net.cpp:129] Top shape: 1 4 (4)
I1017 11:46:31.350832 26184 net.cpp:137] Memory required for data: 425184
I1017 11:46:31.350836 26184 layer_factory.hpp:77] Creating layer cont_104_lstm1_cont_slice_103_split
I1017 11:46:31.350841 26184 net.cpp:84] Creating Layer cont_104_lstm1_cont_slice_103_split
I1017 11:46:31.350845 26184 net.cpp:406] cont_104_lstm1_cont_slice_103_split <- cont_104
I1017 11:46:31.350850 26184 net.cpp:380] cont_104_lstm1_cont_slice_103_split -> cont_104_lstm1_cont_slice_103_split_0
I1017 11:46:31.350857 26184 net.cpp:380] cont_104_lstm1_cont_slice_103_split -> cont_104_lstm1_cont_slice_103_split_1
I1017 11:46:31.350888 26184 net.cpp:122] Setting up cont_104_lstm1_cont_slice_103_split
I1017 11:46:31.350893 26184 net.cpp:129] Top shape: 1 4 (4)
I1017 11:46:31.350898 26184 net.cpp:129] Top shape: 1 4 (4)
I1017 11:46:31.350903 26184 net.cpp:137] Memory required for data: 425216
I1017 11:46:31.350906 26184 layer_factory.hpp:77] Creating layer cont_105_lstm1_cont_slice_104_split
I1017 11:46:31.350910 26184 net.cpp:84] Creating Layer cont_105_lstm1_cont_slice_104_split
I1017 11:46:31.350915 26184 net.cpp:406] cont_105_lstm1_cont_slice_104_split <- cont_105
I1017 11:46:31.350920 26184 net.cpp:380] cont_105_lstm1_cont_slice_104_split -> cont_105_lstm1_cont_slice_104_split_0
I1017 11:46:31.350929 26184 net.cpp:380] cont_105_lstm1_cont_slice_104_split -> cont_105_lstm1_cont_slice_104_split_1
I1017 11:46:31.350957 26184 net.cpp:122] Setting up cont_105_lstm1_cont_slice_104_split
I1017 11:46:31.350963 26184 net.cpp:129] Top shape: 1 4 (4)
I1017 11:46:31.350968 26184 net.cpp:129] Top shape: 1 4 (4)
I1017 11:46:31.350972 26184 net.cpp:137] Memory required for data: 425248
I1017 11:46:31.350976 26184 layer_factory.hpp:77] Creating layer cont_106_lstm1_cont_slice_105_split
I1017 11:46:31.350982 26184 net.cpp:84] Creating Layer cont_106_lstm1_cont_slice_105_split
I1017 11:46:31.350986 26184 net.cpp:406] cont_106_lstm1_cont_slice_105_split <- cont_106
I1017 11:46:31.350992 26184 net.cpp:380] cont_106_lstm1_cont_slice_105_split -> cont_106_lstm1_cont_slice_105_split_0
I1017 11:46:31.350999 26184 net.cpp:380] cont_106_lstm1_cont_slice_105_split -> cont_106_lstm1_cont_slice_105_split_1
I1017 11:46:31.351030 26184 net.cpp:122] Setting up cont_106_lstm1_cont_slice_105_split
I1017 11:46:31.351037 26184 net.cpp:129] Top shape: 1 4 (4)
I1017 11:46:31.351042 26184 net.cpp:129] Top shape: 1 4 (4)
I1017 11:46:31.351044 26184 net.cpp:137] Memory required for data: 425280
I1017 11:46:31.351048 26184 layer_factory.hpp:77] Creating layer cont_107_lstm1_cont_slice_106_split
I1017 11:46:31.351053 26184 net.cpp:84] Creating Layer cont_107_lstm1_cont_slice_106_split
I1017 11:46:31.351058 26184 net.cpp:406] cont_107_lstm1_cont_slice_106_split <- cont_107
I1017 11:46:31.351063 26184 net.cpp:380] cont_107_lstm1_cont_slice_106_split -> cont_107_lstm1_cont_slice_106_split_0
I1017 11:46:31.351070 26184 net.cpp:380] cont_107_lstm1_cont_slice_106_split -> cont_107_lstm1_cont_slice_106_split_1
I1017 11:46:31.358172 26184 net.cpp:122] Setting up cont_107_lstm1_cont_slice_106_split
I1017 11:46:31.358196 26184 net.cpp:129] Top shape: 1 4 (4)
I1017 11:46:31.358202 26184 net.cpp:129] Top shape: 1 4 (4)
I1017 11:46:31.358207 26184 net.cpp:137] Memory required for data: 425312
I1017 11:46:31.358213 26184 layer_factory.hpp:77] Creating layer cont_108_lstm1_cont_slice_107_split
I1017 11:46:31.358224 26184 net.cpp:84] Creating Layer cont_108_lstm1_cont_slice_107_split
I1017 11:46:31.358230 26184 net.cpp:406] cont_108_lstm1_cont_slice_107_split <- cont_108
I1017 11:46:31.358242 26184 net.cpp:380] cont_108_lstm1_cont_slice_107_split -> cont_108_lstm1_cont_slice_107_split_0
I1017 11:46:31.358258 26184 net.cpp:380] cont_108_lstm1_cont_slice_107_split -> cont_108_lstm1_cont_slice_107_split_1
I1017 11:46:31.358300 26184 net.cpp:122] Setting up cont_108_lstm1_cont_slice_107_split
I1017 11:46:31.358309 26184 net.cpp:129] Top shape: 1 4 (4)
I1017 11:46:31.358314 26184 net.cpp:129] Top shape: 1 4 (4)
I1017 11:46:31.358317 26184 net.cpp:137] Memory required for data: 425344
I1017 11:46:31.358322 26184 layer_factory.hpp:77] Creating layer cont_109_lstm1_cont_slice_108_split
I1017 11:46:31.358330 26184 net.cpp:84] Creating Layer cont_109_lstm1_cont_slice_108_split
I1017 11:46:31.358335 26184 net.cpp:406] cont_109_lstm1_cont_slice_108_split <- cont_109
I1017 11:46:31.358345 26184 net.cpp:380] cont_109_lstm1_cont_slice_108_split -> cont_109_lstm1_cont_slice_108_split_0
I1017 11:46:31.358352 26184 net.cpp:380] cont_109_lstm1_cont_slice_108_split -> cont_109_lstm1_cont_slice_108_split_1
I1017 11:46:31.358387 26184 net.cpp:122] Setting up cont_109_lstm1_cont_slice_108_split
I1017 11:46:31.358394 26184 net.cpp:129] Top shape: 1 4 (4)
I1017 11:46:31.358399 26184 net.cpp:129] Top shape: 1 4 (4)
I1017 11:46:31.358403 26184 net.cpp:137] Memory required for data: 425376
I1017 11:46:31.358408 26184 layer_factory.hpp:77] Creating layer cont_110_lstm1_cont_slice_109_split
I1017 11:46:31.358417 26184 net.cpp:84] Creating Layer cont_110_lstm1_cont_slice_109_split
I1017 11:46:31.358422 26184 net.cpp:406] cont_110_lstm1_cont_slice_109_split <- cont_110
I1017 11:46:31.358430 26184 net.cpp:380] cont_110_lstm1_cont_slice_109_split -> cont_110_lstm1_cont_slice_109_split_0
I1017 11:46:31.358438 26184 net.cpp:380] cont_110_lstm1_cont_slice_109_split -> cont_110_lstm1_cont_slice_109_split_1
I1017 11:46:31.358475 26184 net.cpp:122] Setting up cont_110_lstm1_cont_slice_109_split
I1017 11:46:31.358482 26184 net.cpp:129] Top shape: 1 4 (4)
I1017 11:46:31.358487 26184 net.cpp:129] Top shape: 1 4 (4)
I1017 11:46:31.358492 26184 net.cpp:137] Memory required for data: 425408
I1017 11:46:31.358496 26184 layer_factory.hpp:77] Creating layer cont_111_lstm1_cont_slice_110_split
I1017 11:46:31.358502 26184 net.cpp:84] Creating Layer cont_111_lstm1_cont_slice_110_split
I1017 11:46:31.358507 26184 net.cpp:406] cont_111_lstm1_cont_slice_110_split <- cont_111
I1017 11:46:31.358515 26184 net.cpp:380] cont_111_lstm1_cont_slice_110_split -> cont_111_lstm1_cont_slice_110_split_0
I1017 11:46:31.358522 26184 net.cpp:380] cont_111_lstm1_cont_slice_110_split -> cont_111_lstm1_cont_slice_110_split_1
I1017 11:46:31.358558 26184 net.cpp:122] Setting up cont_111_lstm1_cont_slice_110_split
I1017 11:46:31.358566 26184 net.cpp:129] Top shape: 1 4 (4)
I1017 11:46:31.358570 26184 net.cpp:129] Top shape: 1 4 (4)
I1017 11:46:31.358574 26184 net.cpp:137] Memory required for data: 425440
I1017 11:46:31.358579 26184 layer_factory.hpp:77] Creating layer cont_112_lstm1_cont_slice_111_split
I1017 11:46:31.358585 26184 net.cpp:84] Creating Layer cont_112_lstm1_cont_slice_111_split
I1017 11:46:31.358590 26184 net.cpp:406] cont_112_lstm1_cont_slice_111_split <- cont_112
I1017 11:46:31.358597 26184 net.cpp:380] cont_112_lstm1_cont_slice_111_split -> cont_112_lstm1_cont_slice_111_split_0
I1017 11:46:31.358606 26184 net.cpp:380] cont_112_lstm1_cont_slice_111_split -> cont_112_lstm1_cont_slice_111_split_1
I1017 11:46:31.358641 26184 net.cpp:122] Setting up cont_112_lstm1_cont_slice_111_split
I1017 11:46:31.358647 26184 net.cpp:129] Top shape: 1 4 (4)
I1017 11:46:31.358654 26184 net.cpp:129] Top shape: 1 4 (4)
I1017 11:46:31.358657 26184 net.cpp:137] Memory required for data: 425472
I1017 11:46:31.358662 26184 layer_factory.hpp:77] Creating layer cont_113_lstm1_cont_slice_112_split
I1017 11:46:31.358670 26184 net.cpp:84] Creating Layer cont_113_lstm1_cont_slice_112_split
I1017 11:46:31.358675 26184 net.cpp:406] cont_113_lstm1_cont_slice_112_split <- cont_113
I1017 11:46:31.358682 26184 net.cpp:380] cont_113_lstm1_cont_slice_112_split -> cont_113_lstm1_cont_slice_112_split_0
I1017 11:46:31.358690 26184 net.cpp:380] cont_113_lstm1_cont_slice_112_split -> cont_113_lstm1_cont_slice_112_split_1
I1017 11:46:31.358724 26184 net.cpp:122] Setting up cont_113_lstm1_cont_slice_112_split
I1017 11:46:31.358731 26184 net.cpp:129] Top shape: 1 4 (4)
I1017 11:46:31.358737 26184 net.cpp:129] Top shape: 1 4 (4)
I1017 11:46:31.358741 26184 net.cpp:137] Memory required for data: 425504
I1017 11:46:31.358747 26184 layer_factory.hpp:77] Creating layer cont_114_lstm1_cont_slice_113_split
I1017 11:46:31.358752 26184 net.cpp:84] Creating Layer cont_114_lstm1_cont_slice_113_split
I1017 11:46:31.358757 26184 net.cpp:406] cont_114_lstm1_cont_slice_113_split <- cont_114
I1017 11:46:31.358764 26184 net.cpp:380] cont_114_lstm1_cont_slice_113_split -> cont_114_lstm1_cont_slice_113_split_0
I1017 11:46:31.358772 26184 net.cpp:380] cont_114_lstm1_cont_slice_113_split -> cont_114_lstm1_cont_slice_113_split_1
I1017 11:46:31.358813 26184 net.cpp:122] Setting up cont_114_lstm1_cont_slice_113_split
I1017 11:46:31.358819 26184 net.cpp:129] Top shape: 1 4 (4)
I1017 11:46:31.358825 26184 net.cpp:129] Top shape: 1 4 (4)
I1017 11:46:31.358829 26184 net.cpp:137] Memory required for data: 425536
I1017 11:46:31.358834 26184 layer_factory.hpp:77] Creating layer cont_115_lstm1_cont_slice_114_split
I1017 11:46:31.358840 26184 net.cpp:84] Creating Layer cont_115_lstm1_cont_slice_114_split
I1017 11:46:31.358845 26184 net.cpp:406] cont_115_lstm1_cont_slice_114_split <- cont_115
I1017 11:46:31.358851 26184 net.cpp:380] cont_115_lstm1_cont_slice_114_split -> cont_115_lstm1_cont_slice_114_split_0
I1017 11:46:31.358860 26184 net.cpp:380] cont_115_lstm1_cont_slice_114_split -> cont_115_lstm1_cont_slice_114_split_1
I1017 11:46:31.358894 26184 net.cpp:122] Setting up cont_115_lstm1_cont_slice_114_split
I1017 11:46:31.358901 26184 net.cpp:129] Top shape: 1 4 (4)
I1017 11:46:31.358906 26184 net.cpp:129] Top shape: 1 4 (4)
I1017 11:46:31.358911 26184 net.cpp:137] Memory required for data: 425568
I1017 11:46:31.358916 26184 layer_factory.hpp:77] Creating layer cont_116_lstm1_cont_slice_115_split
I1017 11:46:31.358922 26184 net.cpp:84] Creating Layer cont_116_lstm1_cont_slice_115_split
I1017 11:46:31.358927 26184 net.cpp:406] cont_116_lstm1_cont_slice_115_split <- cont_116
I1017 11:46:31.358937 26184 net.cpp:380] cont_116_lstm1_cont_slice_115_split -> cont_116_lstm1_cont_slice_115_split_0
I1017 11:46:31.358943 26184 net.cpp:380] cont_116_lstm1_cont_slice_115_split -> cont_116_lstm1_cont_slice_115_split_1
I1017 11:46:31.358975 26184 net.cpp:122] Setting up cont_116_lstm1_cont_slice_115_split
I1017 11:46:31.358981 26184 net.cpp:129] Top shape: 1 4 (4)
…
I1017 11:46:35.055325 26184 net.cpp:406] lstm1_gate_input_115 <- W_hc_h_114
I1017 11:46:35.055332 26184 net.cpp:406] lstm1_gate_input_115 <- W_xc_x_115
I1017 11:46:35.055339 26184 net.cpp:380] lstm1_gate_input_115 -> gate_input_115
I1017 11:46:35.055372 26184 net.cpp:122] Setting up lstm1_gate_input_115
I1017 11:46:35.055379 26184 net.cpp:129] Top shape: 1 150 2048 (307200)
I1017 11:46:35.055383 26184 net.cpp:137] Memory required for data: 788582400
I1017 11:46:35.055387 26184 layer_factory.hpp:77] Creating layer lstm1_unit_115
I1017 11:46:35.055394 26184 net.cpp:84] Creating Layer lstm1_unit_115
I1017 11:46:35.055399 26184 net.cpp:406] lstm1_unit_115 <- c_114
I1017 11:46:35.055405 26184 net.cpp:406] lstm1_unit_115 <- gate_input_115
I1017 11:46:35.055411 26184 net.cpp:406] lstm1_unit_115 <- cont_115_lstm1_cont_slice_114_split_1
I1017 11:46:35.055418 26184 net.cpp:380] lstm1_unit_115 -> c_115
I1017 11:46:35.055425 26184 net.cpp:380] lstm1_unit_115 -> h_115
I1017 11:46:35.055475 26184 net.cpp:122] Setting up lstm1_unit_115
I1017 11:46:35.055481 26184 net.cpp:129] Top shape: 1 150 512 (76800)
I1017 11:46:35.055486 26184 net.cpp:129] Top shape: 1 150 512 (76800)
I1017 11:46:35.055490 26184 net.cpp:137] Memory required for data: 789196800
I1017 11:46:35.055496 26184 layer_factory.hpp:77] Creating layer h_115_lstm1_unit_115_1_split
I1017 11:46:35.055502 26184 net.cpp:84] Creating Layer h_115_lstm1_unit_115_1_split
I1017 11:46:35.055506 26184 net.cpp:406] h_115_lstm1_unit_115_1_split <- h_115
I1017 11:46:35.055513 26184 net.cpp:380] h_115_lstm1_unit_115_1_split -> h_115_lstm1_unit_115_1_split_0
I1017 11:46:35.055521 26184 net.cpp:380] h_115_lstm1_unit_115_1_split -> h_115_lstm1_unit_115_1_split_1
I1017 11:46:35.055555 26184 net.cpp:122] Setting up h_115_lstm1_unit_115_1_split
I1017 11:46:35.055562 26184 net.cpp:129] Top shape: 1 150 512 (76800)
I1017 11:46:35.055567 26184 net.cpp:129] Top shape: 1 150 512 (76800)
I1017 11:46:35.055570 26184 net.cpp:137] Memory required for data: 789811200
I1017 11:46:35.055574 26184 layer_factory.hpp:77] Creating layer lstm1_h_conted_115
I1017 11:46:35.055582 26184 net.cpp:84] Creating Layer lstm1_h_conted_115
I1017 11:46:35.055585 26184 net.cpp:406] lstm1_h_conted_115 <- h_115_lstm1_unit_115_1_split_0
I1017 11:46:35.055593 26184 net.cpp:406] lstm1_h_conted_115 <- cont_116_lstm1_cont_slice_115_split_0
I1017 11:46:35.055599 26184 net.cpp:380] lstm1_h_conted_115 -> h_conted_115
I1017 11:46:35.055676 26184 net.cpp:122] Setting up lstm1_h_conted_115
I1017 11:46:35.055699 26184 net.cpp:129] Top shape: 1 150 512 (76800)
I1017 11:46:35.055703 26184 net.cpp:137] Memory required for data: 790118400
I1017 11:46:35.055707 26184 layer_factory.hpp:77] Creating layer lstm1_transform_116
I1017 11:46:35.055716 26184 net.cpp:84] Creating Layer lstm1_transform_116
I1017 11:46:35.055722 26184 net.cpp:406] lstm1_transform_116 <- h_conted_115
I1017 11:46:35.055729 26184 net.cpp:380] lstm1_transform_116 -> W_hc_h_115
I1017 11:46:35.067230 26184 net.cpp:122] Setting up lstm1_transform_116
I1017 11:46:35.067245 26184 net.cpp:129] Top shape: 1 150 2048 (307200)
I1017 11:46:35.067261 26184 net.cpp:137] Memory required for data: 791347200
I1017 11:46:35.067266 26184 net.cpp:465] Sharing parameters 'W_hc' owned by layer 'lstm1_transform_1', param index 0
I1017 11:46:35.067271 26184 layer_factory.hpp:77] Creating layer lstm1_gate_input_116
I1017 11:46:35.067281 26184 net.cpp:84] Creating Layer lstm1_gate_input_116
I1017 11:46:35.067286 26184 net.cpp:406] lstm1_gate_input_116 <- W_hc_h_115
I1017 11:46:35.067292 26184 net.cpp:406] lstm1_gate_input_116 <- W_xc_x_116
I1017 11:46:35.067299 26184 net.cpp:380] lstm1_gate_input_116 -> gate_input_116
I1017 11:46:35.067332 26184 net.cpp:122] Setting up lstm1_gate_input_116
I1017 11:46:35.067340 26184 net.cpp:129] Top shape: 1 150 2048 (307200)
I1017 11:46:35.067343 26184 net.cpp:137] Memory required for data: 792576000
I1017 11:46:35.067348 26184 layer_factory.hpp:77] Creating layer lstm1_unit_116
I1017 11:46:35.067355 26184 net.cpp:84] Creating Layer lstm1_unit_116
I1017 11:46:35.067361 26184 net.cpp:406] lstm1_unit_116 <- c_115
I1017 11:46:35.067368 26184 net.cpp:406] lstm1_unit_116 <- gate_input_116
I1017 11:46:35.067373 26184 net.cpp:406] lstm1_unit_116 <- cont_116_lstm1_cont_slice_115_split_1
I1017 11:46:35.067380 26184 net.cpp:380] lstm1_unit_116 -> c_116
I1017 11:46:35.067389 26184 net.cpp:380] lstm1_unit_116 -> h_116
I1017 11:46:35.067440 26184 net.cpp:122] Setting up lstm1_unit_116
I1017 11:46:35.067446 26184 net.cpp:129] Top shape: 1 150 512 (76800)
I1017 11:46:35.067451 26184 net.cpp:129] Top shape: 1 150 512 (76800)
I1017 11:46:35.067454 26184 net.cpp:137] Memory required for data: 793190400
I1017 11:46:35.067458 26184 layer_factory.hpp:77] Creating layer h_116_lstm1_unit_116_1_split
I1017 11:46:35.067466 26184 net.cpp:84] Creating Layer h_116_lstm1_unit_116_1_split
I1017 11:46:35.067471 26184 net.cpp:406] h_116_lstm1_unit_116_1_split <- h_116
I1017 11:46:35.067477 26184 net.cpp:380] h_116_lstm1_unit_116_1_split -> h_116_lstm1_unit_116_1_split_0
I1017 11:46:35.067486 26184 net.cpp:380] h_116_lstm1_unit_116_1_split -> h_116_lstm1_unit_116_1_split_1
I1017 11:46:35.067519 26184 net.cpp:122] Setting up h_116_lstm1_unit_116_1_split
I1017 11:46:35.067525 26184 net.cpp:129] Top shape: 1 150 512 (76800)
I1017 11:46:35.067530 26184 net.cpp:129] Top shape: 1 150 512 (76800)
I1017 11:46:35.067534 26184 net.cpp:137] Memory required for data: 793804800
I1017 11:46:35.067538 26184 layer_factory.hpp:77] Creating layer lstm1_h_conted_116
I1017 11:46:35.067549 26184 net.cpp:84] Creating Layer lstm1_h_conted_116
I1017 11:46:35.067554 26184 net.cpp:406] lstm1_h_conted_116 <- h_116_lstm1_unit_116_1_split_0
I1017 11:46:35.067561 26184 net.cpp:406] lstm1_h_conted_116 <- cont_117_lstm1_cont_slice_116_split_0
I1017 11:46:35.067569 26184 net.cpp:380] lstm1_h_conted_116 -> h_conted_116
I1017 11:46:35.067637 26184 net.cpp:122] Setting up lstm1_h_conted_116
I1017 11:46:35.067646 26184 net.cpp:129] Top shape: 1 150 512 (76800)
I1017 11:46:35.067649 26184 net.cpp:137] Memory required for data: 794112000
I1017 11:46:35.067654 26184 layer_factory.hpp:77] Creating layer lstm1_transform_117
I1017 11:46:35.067667 26184 net.cpp:84] Creating Layer lstm1_transform_117
I1017 11:46:35.067672 26184 net.cpp:406] lstm1_transform_117 <- h_conted_116
I1017 11:46:35.067678 26184 net.cpp:380] lstm1_transform_117 -> W_hc_h_116
I1017 11:46:35.079196 26184 net.cpp:122] Setting up lstm1_transform_117
I1017 11:46:35.079212 26184 net.cpp:129] Top shape: 1 150 2048 (307200)
I1017 11:46:35.079227 26184 net.cpp:137] Memory required for data: 795340800
I1017 11:46:35.079233 26184 net.cpp:465] Sharing parameters 'W_hc' owned by layer 'lstm1_transform_1', param index 0
I1017 11:46:35.079237 26184 layer_factory.hpp:77] Creating layer lstm1_gate_input_117
I1017 11:46:35.079246 26184 net.cpp:84] Creating Layer lstm1_gate_input_117
I1017 11:46:35.079251 26184 net.cpp:406] lstm1_gate_input_117 <- W_hc_h_116
I1017 11:46:35.079257 26184 net.cpp:406] lstm1_gate_input_117 <- W_xc_x_117
I1017 11:46:35.079267 26184 net.cpp:380] lstm1_gate_input_117 -> gate_input_117
I1017 11:46:35.079294 26184 net.cpp:122] Setting up lstm1_gate_input_117
I1017 11:46:35.079301 26184 net.cpp:129] Top shape: 1 150 2048 (307200)
I1017 11:46:35.079305 26184 net.cpp:137] Memory required for data: 796569600
I1017 11:46:35.079309 26184 layer_factory.hpp:77] Creating layer lstm1_unit_117
I1017 11:46:35.079319 26184 net.cpp:84] Creating Layer lstm1_unit_117
I1017 11:46:35.079324 26184 net.cpp:406] lstm1_unit_117 <- c_116
I1017 11:46:35.079330 26184 net.cpp:406] lstm1_unit_117 <- gate_input_117
I1017 11:46:35.079336 26184 net.cpp:406] lstm1_unit_117 <- cont_117_lstm1_cont_slice_116_split_1
I1017 11:46:35.079344 26184 net.cpp:380] lstm1_unit_117 -> c_117
I1017 11:46:35.079351 26184 net.cpp:380] lstm1_unit_117 -> h_117
I1017 11:46:35.079399 26184 net.cpp:122] Setting up lstm1_unit_117
I1017 11:46:35.079406 26184 net.cpp:129] Top shape: 1 150 512 (76800)
I1017 11:46:35.079411 26184 net.cpp:129] Top shape: 1 150 512 (76800)
I1017 11:46:35.079414 26184 net.cpp:137] Memory required for data: 797184000
I1017 11:46:35.079419 26184 layer_factory.hpp:77] Creating layer h_117_lstm1_unit_117_1_split
I1017 11:46:35.079426 26184 net.cpp:84] Creating Layer h_117_lstm1_unit_117_1_split
I1017 11:46:35.079429 26184 net.cpp:406] h_117_lstm1_unit_117_1_split <- h_117
I1017 11:46:35.079438 26184 net.cpp:380] h_117_lstm1_unit_117_1_split -> h_117_lstm1_unit_117_1_split_0
I1017 11:46:35.079445 26184 net.cpp:380] h_117_lstm1_unit_117_1_split -> h_117_lstm1_unit_117_1_split_1
I1017 11:46:35.079478 26184 net.cpp:122] Setting up h_117_lstm1_unit_117_1_split
I1017 11:46:35.079484 26184 net.cpp:129] Top shape: 1 150 512 (76800)
I1017 11:46:35.079489 26184 net.cpp:129] Top shape: 1 150 512 (76800)
I1017 11:46:35.079493 26184 net.cpp:137] Memory required for data: 797798400
I1017 11:46:35.079497 26184 layer_factory.hpp:77] Creating layer lstm1_h_conted_117
I1017 11:46:35.079509 26184 net.cpp:84] Creating Layer lstm1_h_conted_117
I1017 11:46:35.079514 26184 net.cpp:406] lstm1_h_conted_117 <- h_117_lstm1_unit_117_1_split_0
I1017 11:46:35.079521 26184 net.cpp:406] lstm1_h_conted_117 <- cont_118_lstm1_cont_slice_117_split_0
I1017 11:46:35.079530 26184 net.cpp:380] lstm1_h_conted_117 -> h_conted_117
I1017 11:46:35.079602 26184 net.cpp:122] Setting up lstm1_h_conted_117
I1017 11:46:35.079608 26184 net.cpp:129] Top shape: 1 150 512 (76800)
I1017 11:46:35.079612 26184 net.cpp:137] Memory required for data: 798105600
I1017 11:46:35.079617 26184 layer_factory.hpp:77] Creating layer lstm1_transform_118
I1017 11:46:35.079627 26184 net.cpp:84] Creating Layer lstm1_transform_118
I1017 11:46:35.079632 26184 net.cpp:406] lstm1_transform_118 <- h_conted_117
I1017 11:46:35.079641 26184 net.cpp:380] lstm1_transform_118 -> W_hc_h_117
I1017 11:46:35.091179 26184 net.cpp:122] Setting up lstm1_transform_118
I1017 11:46:35.091197 26184 net.cpp:129] Top shape: 1 150 2048 (307200)
I1017 11:46:35.091212 26184 net.cpp:137] Memory required for data: 799334400
I1017 11:46:35.091217 26184 net.cpp:465] Sharing parameters 'W_hc' owned by layer 'lstm1_transform_1', param index 0
I1017 11:46:35.091223 26184 layer_factory.hpp:77] Creating layer lstm1_gate_input_118
I1017 11:46:35.091233 26184 net.cpp:84] Creating Layer lstm1_gate_input_118
I1017 11:46:35.091239 26184 net.cpp:406] lstm1_gate_input_118 <- W_hc_h_117
I1017 11:46:35.091249 26184 net.cpp:406] lstm1_gate_input_118 <- W_xc_x_118
I1017 11:46:35.091256 26184 net.cpp:380] lstm1_gate_input_118 -> gate_input_118
I1017 11:46:35.091287 26184 net.cpp:122] Setting up lstm1_gate_input_118
I1017 11:46:35.091295 26184 net.cpp:129] Top shape: 1 150 2048 (307200)
I1017 11:46:35.091298 26184 net.cpp:137] Memory required for data: 800563200
I1017 11:46:35.091302 26184 layer_factory.hpp:77] Creating layer lstm1_unit_118
I1017 11:46:35.091310 26184 net.cpp:84] Creating Layer lstm1_unit_118
I1017 11:46:35.091316 26184 net.cpp:406] lstm1_unit_118 <- c_117
I1017 11:46:35.091322 26184 net.cpp:406] lstm1_unit_118 <- gate_input_118
I1017 11:46:35.091329 26184 net.cpp:406] lstm1_unit_118 <- cont_118_lstm1_cont_slice_117_split_1
I1017 11:46:35.091336 26184 net.cpp:380] lstm1_unit_118 -> c_118
I1017 11:46:35.091344 26184 net.cpp:380] lstm1_unit_118 -> h_118
I1017 11:46:35.091392 26184 net.cpp:122] Setting up lstm1_unit_118
I1017 11:46:35.091399 26184 net.cpp:129] Top shape: 1 150 512 (76800)
I1017 11:46:35.091404 26184 net.cpp:129] Top shape: 1 150 512 (76800)
I1017 11:46:35.091408 26184 net.cpp:137] Memory required for data: 801177600
I1017 11:46:35.091413 26184 layer_factory.hpp:77] Creating layer h_118_lstm1_unit_118_1_split
I1017 11:46:35.091418 26184 net.cpp:84] Creating Layer h_118_lstm1_unit_118_1_split
I1017 11:46:35.091423 26184 net.cpp:406] h_118_lstm1_unit_118_1_split <- h_118
I1017 11:46:35.091429 26184 net.cpp:380] h_118_lstm1_unit_118_1_split -> h_118_lstm1_unit_118_1_split_0
I1017 11:46:35.091439 26184 net.cpp:380] h_118_lstm1_unit_118_1_split -> h_118_lstm1_unit_118_1_split_1
I1017 11:46:35.091471 26184 net.cpp:122] Setting up h_118_lstm1_unit_118_1_split
I1017 11:46:35.091477 26184 net.cpp:129] Top shape: 1 150 512 (76800)
I1017 11:46:35.091482 26184 net.cpp:129] Top shape: 1 150 512 (76800)
I1017 11:46:35.091486 26184 net.cpp:137] Memory required for data: 801792000
I1017 11:46:35.091490 26184 layer_factory.hpp:77] Creating layer lstm1_h_conted_118
I1017 11:46:35.091500 26184 net.cpp:84] Creating Layer lstm1_h_conted_118
I1017 11:46:35.091506 26184 net.cpp:406] lstm1_h_conted_118 <- h_118_lstm1_unit_118_1_split_0
I1017 11:46:35.091513 26184 net.cpp:406] lstm1_h_conted_118 <- cont_119_lstm1_cont_slice_118_split_0
I1017 11:46:35.091521 26184 net.cpp:380] lstm1_h_conted_118 -> h_conted_118
I1017 11:46:35.091590 26184 net.cpp:122] Setting up lstm1_h_conted_118
I1017 11:46:35.091598 26184 net.cpp:129] Top shape: 1 150 512 (76800)
I1017 11:46:35.091601 26184 net.cpp:137] Memory required for data: 802099200
I1017 11:46:35.091605 26184 layer_factory.hpp:77] Creating layer lstm1_transform_119
I1017 11:46:35.091616 26184 net.cpp:84] Creating Layer lstm1_transform_119
I1017 11:46:35.091621 26184 net.cpp:406] lstm1_transform_119 <- h_conted_118
I1017 11:46:35.091629 26184 net.cpp:380] lstm1_transform_119 -> W_hc_h_118
I1017 11:46:35.103233 26184 net.cpp:122] Setting up lstm1_transform_119
I1017 11:46:35.103248 26184 net.cpp:129] Top shape: 1 150 2048 (307200)
I1017 11:46:35.103265 26184 net.cpp:137] Memory required for data: 803328000
I1017 11:46:35.103271 26184 net.cpp:465] Sharing parameters 'W_hc' owned by layer 'lstm1_transform_1', param index 0
I1017 11:46:35.103276 26184 layer_factory.hpp:77] Creating layer lstm1_gate_input_119
I1017 11:46:35.103286 26184 net.cpp:84] Creating Layer lstm1_gate_input_119
I1017 11:46:35.103291 26184 net.cpp:406] lstm1_gate_input_119 <- W_hc_h_118
I1017 11:46:35.103298 26184 net.cpp:406] lstm1_gate_input_119 <- W_xc_x_119
I1017 11:46:35.103305 26184 net.cpp:380] lstm1_gate_input_119 -> gate_input_119
I1017 11:46:35.103335 26184 net.cpp:122] Setting up lstm1_gate_input_119
I1017 11:46:35.103343 26184 net.cpp:129] Top shape: 1 150 2048 (307200)
I1017 11:46:35.103346 26184 net.cpp:137] Memory required for data: 804556800
I1017 11:46:35.103351 26184 layer_factory.hpp:77] Creating layer lstm1_unit_119
I1017 11:46:35.103359 26184 net.cpp:84] Creating Layer lstm1_unit_119
I1017 11:46:35.103364 26184 net.cpp:406] lstm1_unit_119 <- c_118
I1017 11:46:35.103371 26184 net.cpp:406] lstm1_unit_119 <- gate_input_119
I1017 11:46:35.103377 26184 net.cpp:406] lstm1_unit_119 <- cont_119_lstm1_cont_slice_118_split_1
I1017 11:46:35.103385 26184 net.cpp:380] lstm1_unit_119 -> c_119
I1017 11:46:35.103395 26184 net.cpp:380] lstm1_unit_119 -> h_119
I1017 11:46:35.103442 26184 net.cpp:122] Setting up lstm1_unit_119
I1017 11:46:35.103449 26184 net.cpp:129] Top shape: 1 150 512 (76800)
I1017 11:46:35.103454 26184 net.cpp:129] Top shape: 1 150 512 (76800)
I1017 11:46:35.103458 26184 net.cpp:137] Memory required for data: 805171200
I1017 11:46:35.103462 26184 layer_factory.hpp:77] Creating layer h_119_lstm1_unit_119_1_split
I1017 11:46:35.103468 26184 net.cpp:84] Creating Layer h_119_lstm1_unit_119_1_split
I1017 11:46:35.103472 26184 net.cpp:406] h_119_lstm1_unit_119_1_split <- h_119
I1017 11:46:35.103478 26184 net.cpp:380] h_119_lstm1_unit_119_1_split -> h_119_lstm1_unit_119_1_split_0
I1017 11:46:35.103487 26184 net.cpp:380] h_119_lstm1_unit_119_1_split -> h_119_lstm1_unit_119_1_split_1
I1017 11:46:35.103523 26184 net.cpp:122] Setting up h_119_lstm1_unit_119_1_split
I1017 11:46:35.103528 26184 net.cpp:129] Top shape: 1 150 512 (76800)
I1017 11:46:35.103533 26184 net.cpp:129] Top shape: 1 150 512 (76800)
I1017 11:46:35.103538 26184 net.cpp:137] Memory required for data: 805785600
I1017 11:46:35.103541 26184 layer_factory.hpp:77] Creating layer lstm1_h_conted_119
I1017 11:46:35.103548 26184 net.cpp:84] Creating Layer lstm1_h_conted_119
I1017 11:46:35.103552 26184 net.cpp:406] lstm1_h_conted_119 <- h_119_lstm1_unit_119_1_split_0
I1017 11:46:35.103561 26184 net.cpp:406] lstm1_h_conted_119 <- cont_120_lstm1_cont_slice_119_split_0
I1017 11:46:35.103571 26184 net.cpp:380] lstm1_h_conted_119 -> h_conted_119
I1017 11:46:35.103652 26184 net.cpp:122] Setting up lstm1_h_conted_119
I1017 11:46:35.103659 26184 net.cpp:129] Top shape: 1 150 512 (76800)
I1017 11:46:35.103663 26184 net.cpp:137] Memory required for data: 806092800
I1017 11:46:35.103668 26184 layer_factory.hpp:77] Creating layer lstm1_transform_120
I1017 11:46:35.103677 26184 net.cpp:84] Creating Layer lstm1_transform_120
I1017 11:46:35.103682 26184 net.cpp:406] lstm1_transform_120 <- h_conted_119
I1017 11:46:35.103691 26184 net.cpp:380] lstm1_transform_120 -> W_hc_h_119
I1017 11:46:35.115411 26184 net.cpp:122] Setting up lstm1_transform_120
I1017 11:46:35.115427 26184 net.cpp:129] Top shape: 1 150 2048 (307200)
I1017 11:46:35.115432 26184 net.cpp:137] Memory required for data: 807321600
I1017 11:46:35.115437 26184 net.cpp:465] Sharing parameters 'W_hc' owned by layer 'lstm1_transform_1', param index 0
I1017 11:46:35.115442 26184 layer_factory.hpp:77] Creating layer lstm1_gate_input_120
I1017 11:46:35.115449 26184 net.cpp:84] Creating Layer lstm1_gate_input_120
I1017 11:46:35.115456 26184 net.cpp:406] lstm1_gate_input_120 <- W_hc_h_119
I1017 11:46:35.115464 26184 net.cpp:406] lstm1_gate_input_120 <- W_xc_x_120
I1017 11:46:35.115476 26184 net.cpp:380] lstm1_gate_input_120 -> gate_input_120
I1017 11:46:35.115509 26184 net.cpp:122] Setting up lstm1_gate_input_120
I1017 11:46:35.115515 26184 net.cpp:129] Top shape: 1 150 2048 (307200)
I1017 11:46:35.115520 26184 net.cpp:137] Memory required for data: 808550400
I1017 11:46:35.115523 26184 layer_factory.hpp:77] Creating layer lstm1_unit_120
I1017 11:46:35.115530 26184 net.cpp:84] Creating Layer lstm1_unit_120
I1017 11:46:35.115536 26184 net.cpp:406] lstm1_unit_120 <- c_119
I1017 11:46:35.115542 26184 net.cpp:406] lstm1_unit_120 <- gate_input_120
I1017 11:46:35.115548 26184 net.cpp:406] lstm1_unit_120 <- cont_120_lstm1_cont_slice_119_split_1
I1017 11:46:35.115556 26184 net.cpp:380] lstm1_unit_120 -> c_120
I1017 11:46:35.115566 26184 net.cpp:380] lstm1_unit_120 -> h_120
I1017 11:46:35.115614 26184 net.cpp:122] Setting up lstm1_unit_120
I1017 11:46:35.115622 26184 net.cpp:129] Top shape: 1 150 512 (76800)
I1017 11:46:35.115627 26184 net.cpp:129] Top shape: 1 150 512 (76800)
I1017 11:46:35.115630 26184 net.cpp:137] Memory required for data: 809164800
I1017 11:46:35.115634 26184 layer_factory.hpp:77] Creating layer h_120_lstm1_unit_120_1_split
I1017 11:46:35.115640 26184 net.cpp:84] Creating Layer h_120_lstm1_unit_120_1_split
I1017 11:46:35.115644 26184 net.cpp:406] h_120_lstm1_unit_120_1_split <- h_120
I1017 11:46:35.115653 26184 net.cpp:380] h_120_lstm1_unit_120_1_split -> h_120_lstm1_unit_120_1_split_0
I1017 11:46:35.115660 26184 net.cpp:380] h_120_lstm1_unit_120_1_split -> h_120_lstm1_unit_120_1_split_1
I1017 11:46:35.115695 26184 net.cpp:122] Setting up h_120_lstm1_unit_120_1_split
I1017 11:46:35.115702 26184 net.cpp:129] Top shape: 1 150 512 (76800)
I1017 11:46:35.115706 26184 net.cpp:129] Top shape: 1 150 512 (76800)
I1017 11:46:35.115710 26184 net.cpp:137] Memory required for data: 809779200
I1017 11:46:35.115715 26184 layer_factory.hpp:77] Creating layer lstm1_h_conted_120
I1017 11:46:35.115723 26184 net.cpp:84] Creating Layer lstm1_h_conted_120
I1017 11:46:35.115730 26184 net.cpp:406] lstm1_h_conted_120 <- h_120_lstm1_unit_120_1_split_0
I1017 11:46:35.115736 26184 net.cpp:406] lstm1_h_conted_120 <- cont_121_lstm1_cont_slice_120_split_0
I1017 11:46:35.115749 26184 net.cpp:380] lstm1_h_conted_120 -> h_conted_120
I1017 11:46:35.115829 26184 net.cpp:122] Setting up lstm1_h_conted_120
I1017 11:46:35.115847 26184 net.cpp:129] Top shape: 1 150 512 (76800)
I1017 11:46:35.115851 26184 net.cpp:137] Memory required for data: 810086400
I1017 11:46:35.115855 26184 layer_factory.hpp:77] Creating layer lstm1_transform_121
I1017 11:46:35.115864 26184 net.cpp:84] Creating Layer lstm1_transform_121
I1017 11:46:35.115869 26184 net.cpp:406] lstm1_transform_121 <- h_conted_120
I1017 11:46:35.115878 26184 net.cpp:380] lstm1_transform_121 -> W_hc_h_120
I1017 11:46:35.127562 26184 net.cpp:122] Setting up lstm1_transform_121
I1017 11:46:35.127588 26184 net.cpp:129] Top shape: 1 150 2048 (307200)
I1017 11:46:35.127593 26184 net.cpp:137] Memory required for data: 811315200
I1017 11:46:35.127599 26184 net.cpp:465] Sharing parameters 'W_hc' owned by layer 'lstm1_transform_1', param index 0
I1017 11:46:35.127604 26184 layer_factory.hpp:77] Creating layer lstm1_gate_input_121
I1017 11:46:35.127612 26184 net.cpp:84] Creating Layer lstm1_gate_input_121
I1017 11:46:35.127617 26184 net.cpp:406] lstm1_gate_input_121 <- W_hc_h_120
I1017 11:46:35.127624 26184 net.cpp:406] lstm1_gate_input_121 <- W_xc_x_121
I1017 11:46:35.127631 26184 net.cpp:380] lstm1_gate_input_121 -> gate_input_121
I1017 11:46:35.127662 26184 net.cpp:122] Setting up lstm1_gate_input_121
I1017 11:46:35.127671 26184 net.cpp:129] Top shape: 1 150 2048 (307200)
I1017 11:46:35.127673 26184 net.cpp:137] Memory required for data: 812544000
I1017 11:46:35.127677 26184 layer_factory.hpp:77] Creating layer lstm1_unit_121
I1017 11:46:35.127686 26184 net.cpp:84] Creating Layer lstm1_unit_121
I1017 11:46:35.127692 26184 net.cpp:406] lstm1_unit_121 <- c_120
I1017 11:46:35.127698 26184 net.cpp:406] lstm1_unit_121 <- gate_input_121
I1017 11:46:35.127704 26184 net.cpp:406] lstm1_unit_121 <- cont_121_lstm1_cont_slice_120_split_1
I1017 11:46:35.127710 26184 net.cpp:380] lstm1_unit_121 -> c_121
I1017 11:46:35.127718 26184 net.cpp:380] lstm1_unit_121 -> h_121
I1017 11:46:35.127768 26184 net.cpp:122] Setting up lstm1_unit_121
I1017 11:46:35.127775 26184 net.cpp:129] Top shape: 1 150 512 (76800)
I1017 11:46:35.127780 26184 net.cpp:129] Top shape: 1 150 512 (76800)
I1017 11:46:35.127784 26184 net.cpp:137] Memory required for data: 813158400
I1017 11:46:35.127789 26184 layer_factory.hpp:77] Creating layer h_121_lstm1_unit_121_1_split
I1017 11:46:35.127794 26184 net.cpp:84] Creating Layer h_121_lstm1_unit_121_1_split
I1017 11:46:35.127799 26184 net.cpp:406] h_121_lstm1_unit_121_1_split <- h_121
I1017 11:46:35.127805 26184 net.cpp:380] h_121_lstm1_unit_121_1_split -> h_121_lstm1_unit_121_1_split_0
I1017 11:46:35.127812 26184 net.cpp:380] h_121_lstm1_unit_121_1_split -> h_121_lstm1_unit_121_1_split_1
I1017 11:46:35.127847 26184 net.cpp:122] Setting up h_121_lstm1_unit_121_1_split
I1017 11:46:35.127854 26184 net.cpp:129] Top shape: 1 150 512 (76800)
I1017 11:46:35.127858 26184 net.cpp:129] Top shape: 1 150 512 (76800)
I1017 11:46:35.127862 26184 net.cpp:137] Memory required for data: 813772800
I1017 11:46:35.127866 26184 layer_factory.hpp:77] Creating layer lstm1_h_conted_121
I1017 11:46:35.127873 26184 net.cpp:84] Creating Layer lstm1_h_conted_121
I1017 11:46:35.127878 26184 net.cpp:406] lstm1_h_conted_121 <- h_121_lstm1_unit_121_1_split_0
I1017 11:46:35.127885 26184 net.cpp:406] lstm1_h_conted_121 <- cont_122_lstm1_cont_slice_121_split_0
I1017 11:46:35.127892 26184 net.cpp:380] lstm1_h_conted_121 -> h_conted_121
I1017 11:46:35.127964 26184 net.cpp:122] Setting up lstm1_h_conted_121
I1017 11:46:35.127972 26184 net.cpp:129] Top shape: 1 150 512 (76800)
I1017 11:46:35.127975 26184 net.cpp:137] Memory required for data: 814080000
I1017 11:46:35.127979 26184 layer_factory.hpp:77] Creating layer lstm1_transform_122
I1017 11:46:35.127988 26184 net.cpp:84] Creating Layer lstm1_transform_122
I1017 11:46:35.127995 26184 net.cpp:406] lstm1_transform_122 <- h_conted_121
I1017 11:46:35.128001 26184 net.cpp:380] lstm1_transform_122 -> W_hc_h_121
I1017 11:46:35.141170 26184 net.cpp:122] Setting up lstm1_transform_122
I1017 11:46:35.141185 26184 net.cpp:129] Top shape: 1 150 2048 (307200)
I1017 11:46:35.141201 26184 net.cpp:137] Memory required for data: 815308800
I1017 11:46:35.141206 26184 net.cpp:465] Sharing parameters 'W_hc' owned by layer 'lstm1_transform_1', param index 0
I1017 11:46:35.141211 26184 layer_factory.hpp:77] Creating layer lstm1_gate_input_122
I1017 11:46:35.141222 26184 net.cpp:84] Creating Layer lstm1_gate_input_122
I1017 11:46:35.141227 26184 net.cpp:406] lstm1_gate_input_122 <- W_hc_h_121
I1017 11:46:35.141233 26184 net.cpp:406] lstm1_gate_input_122 <- W_xc_x_122
I1017 11:46:35.141240 26184 net.cpp:380] lstm1_gate_input_122 -> gate_input_122
I1017 11:46:35.141273 26184 net.cpp:122] Setting up lstm1_gate_input_122
I1017 11:46:35.141280 26184 net.cpp:129] Top shape: 1 150 2048 (307200)
I1017 11:46:35.141284 26184 net.cpp:137] Memory required for data: 816537600
I1017 11:46:35.141289 26184 layer_factory.hpp:77] Creating layer lstm1_unit_122
I1017 11:46:35.141296 26184 net.cpp:84] Creating Layer lstm1_unit_122
I1017 11:46:35.141301 26184 net.cpp:406] lstm1_unit_122 <- c_121
I1017 11:46:35.141309 26184 net.cpp:406] lstm1_unit_122 <- gate_input_122
I1017 11:46:35.141315 26184 net.cpp:406] lstm1_unit_122 <- cont_122_lstm1_cont_slice_121_split_1
I1017 11:46:35.141321 26184 net.cpp:380] lstm1_unit_122 -> c_122
I1017 11:46:35.141330 26184 net.cpp:380] lstm1_unit_122 -> h_122
I1017 11:46:35.141377 26184 net.cpp:122] Setting up lstm1_unit_122
I1017 11:46:35.141384 26184 net.cpp:129] Top shape: 1 150 512 (76800)
I1017 11:46:35.141389 26184 net.cpp:129] Top shape: 1 150 512 (76800)
I1017 11:46:35.141393 26184 net.cpp:137] Memory required for data: 817152000
I1017 11:46:35.141397 26184 layer_factory.hpp:77] Creating layer h_122_lstm1_unit_122_1_split
I1017 11:46:35.141404 26184 net.cpp:84] Creating Layer h_122_lstm1_unit_122_1_split
I1017 11:46:35.141409 26184 net.cpp:406] h_122_lstm1_unit_122_1_split <- h_122
I1017 11:46:35.141417 26184 net.cpp:380] h_122_lstm1_unit_122_1_split -> h_122_lstm1_unit_122_1_split_0
I1017 11:46:35.141423 26184 net.cpp:380] h_122_lstm1_unit_122_1_split -> h_122_lstm1_unit_122_1_split_1
I1017 11:46:35.141458 26184 net.cpp:122] Setting up h_122_lstm1_unit_122_1_split
I1017 11:46:35.141465 26184 net.cpp:129] Top shape: 1 150 512 (76800)
I1017 11:46:35.141469 26184 net.cpp:129] Top shape: 1 150 512 (76800)
I1017 11:46:35.141474 26184 net.cpp:137] Memory required for data: 817766400
I1017 11:46:35.141477 26184 layer_factory.hpp:77] Creating layer lstm1_h_conted_122
I1017 11:46:35.141486 26184 net.cpp:84] Creating Layer lstm1_h_conted_122
I1017 11:46:35.141491 26184 net.cpp:406] lstm1_h_conted_122 <- h_122_lstm1_unit_122_1_split_0
I1017 11:46:35.141499 26184 net.cpp:406] lstm1_h_conted_122 <- cont_123_lstm1_cont_slice_122_split_0
I1017 11:46:35.141506 26184 net.cpp:380] lstm1_h_conted_122 -> h_conted_122
I1017 11:46:35.141577 26184 net.cpp:122] Setting up lstm1_h_conted_122
I1017 11:46:35.141584 26184 net.cpp:129] Top shape: 1 150 512 (76800)
I1017 11:46:35.141588 26184 net.cpp:137] Memory required for data: 818073600
I1017 11:46:35.141593 26184 layer_factory.hpp:77] Creating layer lstm1_transform_123
I1017 11:46:35.141603 26184 net.cpp:84] Creating Layer lstm1_transform_123
I1017 11:46:35.141609 26184 net.cpp:406] lstm1_transform_123 <- h_conted_122
I1017 11:46:35.141618 26184 net.cpp:380] lstm1_transform_123 -> W_hc_h_122
I1017 11:46:35.153193 26184 net.cpp:122] Setting up lstm1_transform_123
I1017 11:46:35.153208 26184 net.cpp:129] Top shape: 1 150 2048 (307200)
I1017 11:46:35.153213 26184 net.cpp:137] Memory required for data: 819302400
I1017 11:46:35.153218 26184 net.cpp:465] Sharing parameters 'W_hc' owned by layer 'lstm1_transform_1', param index 0
I1017 11:46:35.153223 26184 layer_factory.hpp:77] Creating layer lstm1_gate_input_123
I1017 11:46:35.153232 26184 net.cpp:84] Creating Layer lstm1_gate_input_123
I1017 11:46:35.153239 26184 net.cpp:406] lstm1_gate_input_123 <- W_hc_h_122
I1017 11:46:35.153245 26184 net.cpp:406] lstm1_gate_input_123 <- W_xc_x_123
I1017 11:46:35.153252 26184 net.cpp:380] lstm1_gate_input_123 -> gate_input_123
I1017 11:46:35.153281 26184 net.cpp:122] Setting up lstm1_gate_input_123
I1017 11:46:35.153288 26184 net.cpp:129] Top shape: 1 150 2048 (307200)
I1017 11:46:35.153291 26184 net.cpp:137] Memory required for data: 820531200
I1017 11:46:35.153295 26184 layer_factory.hpp:77] Creating layer lstm1_unit_123
I1017 11:46:35.153304 26184 net.cpp:84] Creating Layer lstm1_unit_123
I1017 11:46:35.153309 26184 net.cpp:406] lstm1_unit_123 <- c_122
I1017 11:46:35.153316 26184 net.cpp:406] lstm1_unit_123 <- gate_input_123
I1017 11:46:35.153322 26184 net.cpp:406] lstm1_unit_123 <- cont_123_lstm1_cont_slice_122_split_1
I1017 11:46:35.153328 26184 net.cpp:380] lstm1_unit_123 -> c_123
I1017 11:46:35.153337 26184 net.cpp:380] lstm1_unit_123 -> h_123
I1017 11:46:35.153384 26184 net.cpp:122] Setting up lstm1_unit_123
I1017 11:46:35.153390 26184 net.cpp:129] Top shape: 1 150 512 (76800)
I1017 11:46:35.153395 26184 net.cpp:129] Top shape: 1 150 512 (76800)
I1017 11:46:35.153399 26184 net.cpp:137] Memory required for data: 821145600
I1017 11:46:35.153403 26184 layer_factory.hpp:77] Creating layer h_123_lstm1_unit_123_1_split
I1017 11:46:35.153409 26184 net.cpp:84] Creating Layer h_123_lstm1_unit_123_1_split
I1017 11:46:35.153414 26184 net.cpp:406] h_123_lstm1_unit_123_1_split <- h_123
I1017 11:46:35.153421 26184 net.cpp:380] h_123_lstm1_unit_123_1_split -> h_123_lstm1_unit_123_1_split_0
I1017 11:46:35.153430 26184 net.cpp:380] h_123_lstm1_unit_123_1_split -> h_123_lstm1_unit_123_1_split_1
I1017 11:46:35.153465 26184 net.cpp:122] Setting up h_123_lstm1_unit_123_1_split
I1017 11:46:35.153470 26184 net.cpp:129] Top shape: 1 150 512 (76800)
I1017 11:46:35.153475 26184 net.cpp:129] Top shape: 1 150 512 (76800)
I1017 11:46:35.153478 26184 net.cpp:137] Memory required for data: 821760000
I1017 11:46:35.153482 26184 layer_factory.hpp:77] Creating layer lstm1_h_conted_123
I1017 11:46:35.153492 26184 net.cpp:84] Creating Layer lstm1_h_conted_123
I1017 11:46:35.153497 26184 net.cpp:406] lstm1_h_conted_123 <- h_123_lstm1_unit_123_1_split_0
I1017 11:46:35.153506 26184 net.cpp:406] lstm1_h_conted_123 <- cont_124_lstm1_cont_slice_123_split_0
I1017 11:46:35.153514 26184 net.cpp:380] lstm1_h_conted_123 -> h_conted_123
I1017 11:46:35.153591 26184 net.cpp:122] Setting up lstm1_h_conted_123
I1017 11:46:35.153599 26184 net.cpp:129] Top shape: 1 150 512 (76800)
I1017 11:46:35.153602 26184 net.cpp:137] Memory required for data: 822067200
I1017 11:46:35.153606 26184 layer_factory.hpp:77] Creating layer lstm1_transform_124
I1017 11:46:35.153615 26184 net.cpp:84] Creating Layer lstm1_transform_124
I1017 11:46:35.153620 26184 net.cpp:406] lstm1_transform_124 <- h_conted_123
I1017 11:46:35.153630 26184 net.cpp:380] lstm1_transform_124 -> W_hc_h_123
I1017 11:46:35.165176 26184 net.cpp:122] Setting up lstm1_transform_124
I1017 11:46:35.165191 26184 net.cpp:129] Top shape: 1 150 2048 (307200)
I1017 11:46:35.165207 26184 net.cpp:137] Memory required for data: 823296000
I1017 11:46:35.165212 26184 net.cpp:465] Sharing parameters 'W_hc' owned by layer 'lstm1_transform_1', param index 0
I1017 11:46:35.165217 26184 layer_factory.hpp:77] Creating layer lstm1_gate_input_124
I1017 11:46:35.165226 26184 net.cpp:84] Creating Layer lstm1_gate_input_124
I1017 11:46:35.165232 26184 net.cpp:406] lstm1_gate_input_124 <- W_hc_h_123
I1017 11:46:35.165238 26184 net.cpp:406] lstm1_gate_input_124 <- W_xc_x_124
I1017 11:46:35.165246 26184 net.cpp:380] lstm1_gate_input_124 -> gate_input_124
I1017 11:46:35.165278 26184 net.cpp:122] Setting up lstm1_gate_input_124
I1017 11:46:35.165285 26184 net.cpp:129] Top shape: 1 150 2048 (307200)
I1017 11:46:35.165289 26184 net.cpp:137] Memory required for data: 824524800
I1017 11:46:35.165293 26184 layer_factory.hpp:77] Creating layer lstm1_unit_124
I1017 11:46:35.165308 26184 net.cpp:84] Creating Layer lstm1_unit_124
I1017 11:46:35.165314 26184 net.cpp:406] lstm1_unit_124 <- c_123
I1017 11:46:35.165320 26184 net.cpp:406] lstm1_unit_124 <- gate_input_124
I1017 11:46:35.165326 26184 net.cpp:406] lstm1_unit_124 <- cont_124_lstm1_cont_slice_123_split_1
I1017 11:46:35.165333 26184 net.cpp:380] lstm1_unit_124 -> c_124
I1017 11:46:35.165343 26184 net.cpp:380] lstm1_unit_124 -> h_124
I1017 11:46:35.165393 26184 net.cpp:122] Setting up lstm1_unit_124
I1017 11:46:35.165400 26184 net.cpp:129] Top shape: 1 150 512 (76800)
I1017 11:46:35.165405 26184 net.cpp:129] Top shape: 1 150 512 (76800)
I1017 11:46:35.165410 26184 net.cpp:137] Memory required for data: 825139200
I1017 11:46:35.165413 26184 layer_factory.hpp:77] Creating layer h_124_lstm1_unit_124_1_split
I1017 11:46:35.165419 26184 net.cpp:84] Creating Layer h_124_lstm1_unit_124_1_split
I1017 11:46:35.165424 26184 net.cpp:406] h_124_lstm1_unit_124_1_split <- h_124
I1017 11:46:35.165432 26184 net.cpp:380] h_124_lstm1_unit_124_1_split -> h_124_lstm1_unit_124_1_split_0
I1017 11:46:35.165441 26184 net.cpp:380] h_124_lstm1_unit_124_1_split -> h_124_lstm1_unit_124_1_split_1
I1017 11:46:35.165474 26184 net.cpp:122] Setting up h_124_lstm1_unit_124_1_split
I1017 11:46:35.165482 26184 net.cpp:129] Top shape: 1 150 512 (76800)
I1017 11:46:35.165486 26184 net.cpp:129] Top shape: 1 150 512 (76800)
I1017 11:46:35.165489 26184 net.cpp:137] Memory required for data: 825753600
I1017 11:46:35.165493 26184 layer_factory.hpp:77] Creating layer lstm1_h_conted_124
I1017 11:46:35.165503 26184 net.cpp:84] Creating Layer lstm1_h_conted_124
I1017 11:46:35.165508 26184 net.cpp:406] lstm1_h_conted_124 <- h_124_lstm1_unit_124_1_split_0
I1017 11:46:35.165514 26184 net.cpp:406] lstm1_h_conted_124 <- cont_125_lstm1_cont_slice_124_split_0
I1017 11:46:35.165521 26184 net.cpp:380] lstm1_h_conted_124 -> h_conted_124
I1017 11:46:35.165596 26184 net.cpp:122] Setting up lstm1_h_conted_124
I1017 11:46:35.165604 26184 net.cpp:129] Top shape: 1 150 512 (76800)
I1017 11:46:35.165608 26184 net.cpp:137] Memory required for data: 826060800
I1017 11:46:35.165612 26184 layer_factory.hpp:77] Creating layer lstm1_transform_125
I1017 11:46:35.165622 26184 net.cpp:84] Creating Layer lstm1_transform_125
I1017 11:46:35.165628 26184 net.cpp:406] lstm1_transform_125 <- h_conted_124
I1017 11:46:35.165635 26184 net.cpp:380] lstm1_transform_125 -> W_hc_h_124
I1017 11:46:35.177292 26184 net.cpp:122] Setting up lstm1_transform_125
I1017 11:46:35.177312 26184 net.cpp:129] Top shape: 1 150 2048 (307200)
I1017 11:46:35.177317 26184 net.cpp:137] Memory required for data: 827289600
I1017 11:46:35.177325 26184 net.cpp:465] Sharing parameters 'W_hc' owned by layer 'lstm1_transform_1', param index 0
I1017 11:46:35.177330 26184 layer_factory.hpp:77] Creating layer lstm1_gate_input_125
I1017 11:46:35.177340 26184 net.cpp:84] Creating Layer lstm1_gate_input_125
I1017 11:46:35.177345 26184 net.cpp:406] lstm1_gate_input_125 <- W_hc_h_124
I1017 11:46:35.177356 26184 net.cpp:406] lstm1_gate_input_125 <- W_xc_x_125
I1017 11:46:35.177363 26184 net.cpp:380] lstm1_gate_input_125 -> gate_input_125
I1017 11:46:35.177397 26184 net.cpp:122] Setting up lstm1_gate_input_125
I1017 11:46:35.177403 26184 net.cpp:129] Top shape: 1 150 2048 (307200)
I1017 11:46:35.177407 26184 net.cpp:137] Memory required for data: 828518400
I1017 11:46:35.177413 26184 layer_factory.hpp:77] Creating layer lstm1_unit_125
I1017 11:46:35.177420 26184 net.cpp:84] Creating Layer lstm1_unit_125
I1017 11:46:35.177425 26184 net.cpp:406] lstm1_unit_125 <- c_124
I1017 11:46:35.177433 26184 net.cpp:406] lstm1_unit_125 <- gate_input_125
I1017 11:46:35.177438 26184 net.cpp:406] lstm1_unit_125 <- cont_125_lstm1_cont_slice_124_split_1
I1017 11:46:35.177448 26184 net.cpp:380] lstm1_unit_125 -> c_125
I1017 11:46:35.177456 26184 net.cpp:380] lstm1_unit_125 -> h_125
I1017 11:46:35.177505 26184 net.cpp:122] Setting up lstm1_unit_125
I1017 11:46:35.177512 26184 net.cpp:129] Top shape: 1 150 512 (76800)
I1017 11:46:35.177517 26184 net.cpp:129] Top shape: 1 150 512 (76800)
I1017 11:46:35.177522 26184 net.cpp:137] Memory required for data: 829132800
I1017 11:46:35.177526 26184 layer_factory.hpp:77] Creating layer h_125_lstm1_unit_125_1_split
I1017 11:46:35.177532 26184 net.cpp:84] Creating Layer h_125_lstm1_unit_125_1_split
I1017 11:46:35.177536 26184 net.cpp:406] h_125_lstm1_unit_125_1_split <- h_125
I1017 11:46:35.177543 26184 net.cpp:380] h_125_lstm1_unit_125_1_split -> h_125_lstm1_unit_125_1_split_0
I1017 11:46:35.177551 26184 net.cpp:380] h_125_lstm1_unit_125_1_split -> h_125_lstm1_unit_125_1_split_1
I1017 11:46:35.177588 26184 net.cpp:122] Setting up h_125_lstm1_unit_125_1_split
I1017 11:46:35.177594 26184 net.cpp:129] Top shape: 1 150 512 (76800)
I1017 11:46:35.177599 26184 net.cpp:129] Top shape: 1 150 512 (76800)
I1017 11:46:35.177603 26184 net.cpp:137] Memory required for data: 829747200
I1017 11:46:35.177608 26184 layer_factory.hpp:77] Creating layer lstm1_h_conted_125
I1017 11:46:35.177614 26184 net.cpp:84] Creating Layer lstm1_h_conted_125
I1017 11:46:35.177619 26184 net.cpp:406] lstm1_h_conted_125 <- h_125_lstm1_unit_125_1_split_0
I1017 11:46:35.177628 26184 net.cpp:406] lstm1_h_conted_125 <- cont_126_lstm1_cont_slice_125_split_0
I1017 11:46:35.177635 26184 net.cpp:380] lstm1_h_conted_125 -> h_conted_125
I1017 11:46:35.177714 26184 net.cpp:122] Setting up lstm1_h_conted_125
I1017 11:46:35.177724 26184 net.cpp:129] Top shape: 1 150 512 (76800)
I1017 11:46:35.177729 26184 net.cpp:137] Memory required for data: 830054400
I1017 11:46:35.177734 26184 layer_factory.hpp:77] Creating layer lstm1_transform_126
I1017 11:46:35.177744 26184 net.cpp:84] Creating Layer lstm1_transform_126
I1017 11:46:35.177750 26184 net.cpp:406] lstm1_transform_126 <- h_conted_125
I1017 11:46:35.177757 26184 net.cpp:380] lstm1_transform_126 -> W_hc_h_125
I1017 11:46:35.189438 26184 net.cpp:122] Setting up lstm1_transform_126
I1017 11:46:35.189455 26184 net.cpp:129] Top shape: 1 150 2048 (307200)
I1017 11:46:35.189460 26184 net.cpp:137] Memory required for data: 831283200
I1017 11:46:35.189465 26184 net.cpp:465] Sharing parameters 'W_hc' owned by layer 'lstm1_transform_1', param index 0
I1017 11:46:35.189469 26184 layer_factory.hpp:77] Creating layer lstm1_gate_input_126
I1017 11:46:35.189476 26184 net.cpp:84] Creating Layer lstm1_gate_input_126
I1017 11:46:35.189482 26184 net.cpp:406] lstm1_gate_input_126 <- W_hc_h_125
I1017 11:46:35.189491 26184 net.cpp:406] lstm1_gate_input_126 <- W_xc_x_126
I1017 11:46:35.189499 26184 net.cpp:380] lstm1_gate_input_126 -> gate_input_126
I1017 11:46:35.189529 26184 net.cpp:122] Setting up lstm1_gate_input_126
I1017 11:46:35.189537 26184 net.cpp:129] Top shape: 1 150 2048 (307200)
I1017 11:46:35.189540 26184 net.cpp:137] Memory required for data: 832512000
I1017 11:46:35.189544 26184 layer_factory.hpp:77] Creating layer lstm1_unit_126
I1017 11:46:35.189551 26184 net.cpp:84] Creating Layer lstm1_unit_126
I1017 11:46:35.189556 26184 net.cpp:406] lstm1_unit_126 <- c_125
I1017 11:46:35.189564 26184 net.cpp:406] lstm1_unit_126 <- gate_input_126
I1017 11:46:35.189570 26184 net.cpp:406] lstm1_unit_126 <- cont_126_lstm1_cont_slice_125_split_1
I1017 11:46:35.189577 26184 net.cpp:380] lstm1_unit_126 -> c_126
I1017 11:46:35.189587 26184 net.cpp:380] lstm1_unit_126 -> h_126
I1017 11:46:35.189637 26184 net.cpp:122] Setting up lstm1_unit_126
I1017 11:46:35.189644 26184 net.cpp:129] Top shape: 1 150 512 (76800)
I1017 11:46:35.189649 26184 net.cpp:129] Top shape: 1 150 512 (76800)
I1017 11:46:35.189653 26184 net.cpp:137] Memory required for data: 833126400
I1017 11:46:35.189657 26184 layer_factory.hpp:77] Creating layer h_126_lstm1_unit_126_1_split
I1017 11:46:35.189663 26184 net.cpp:84] Creating Layer h_126_lstm1_unit_126_1_split
I1017 11:46:35.189667 26184 net.cpp:406] h_126_lstm1_unit_126_1_split <- h_126
I1017 11:46:35.189674 26184 net.cpp:380] h_126_lstm1_unit_126_1_split -> h_126_lstm1_unit_126_1_split_0
I1017 11:46:35.189682 26184 net.cpp:380] h_126_lstm1_unit_126_1_split -> h_126_lstm1_unit_126_1_split_1
I1017 11:46:35.189716 26184 net.cpp:122] Setting up h_126_lstm1_unit_126_1_split
I1017 11:46:35.189723 26184 net.cpp:129] Top shape: 1 150 512 (76800)
I1017 11:46:35.189728 26184 net.cpp:129] Top shape: 1 150 512 (76800)
I1017 11:46:35.189731 26184 net.cpp:137] Memory required for data: 833740800
I1017 11:46:35.189735 26184 layer_factory.hpp:77] Creating layer lstm1_h_conted_126
I1017 11:46:35.189744 26184 net.cpp:84] Creating Layer lstm1_h_conted_126
I1017 11:46:35.189749 26184 net.cpp:406] lstm1_h_conted_126 <- h_126_lstm1_unit_126_1_split_0
I1017 11:46:35.189760 26184 net.cpp:406] lstm1_h_conted_126 <- cont_127_lstm1_cont_slice_126_split_0
I1017 11:46:35.189769 26184 net.cpp:380] lstm1_h_conted_126 -> h_conted_126
I1017 11:46:35.189842 26184 net.cpp:122] Setting up lstm1_h_conted_126
I1017 11:46:35.189851 26184 net.cpp:129] Top shape: 1 150 512 (76800)
I1017 11:46:35.189854 26184 net.cpp:137] Memory required for data: 834048000
I1017 11:46:35.189858 26184 layer_factory.hpp:77] Creating layer lstm1_transform_127
I1017 11:46:35.189867 26184 net.cpp:84] Creating Layer lstm1_transform_127
I1017 11:46:35.189872 26184 net.cpp:406] lstm1_transform_127 <- h_conted_126
I1017 11:46:35.189882 26184 net.cpp:380] lstm1_transform_127 -> W_hc_h_126
I1017 11:46:35.201598 26184 net.cpp:122] Setting up lstm1_transform_127
I1017 11:46:35.201614 26184 net.cpp:129] Top shape: 1 150 2048 (307200)
I1017 11:46:35.201618 26184 net.cpp:137] Memory required for data: 835276800
I1017 11:46:35.201700 26184 net.cpp:465] Sharing parameters 'W_hc' owned by layer 'lstm1_transform_1', param index 0
I1017 11:46:35.201719 26184 layer_factory.hpp:77] Creating layer lstm1_gate_input_127
I1017 11:46:35.201730 26184 net.cpp:84] Creating Layer lstm1_gate_input_127
I1017 11:46:35.201736 26184 net.cpp:406] lstm1_gate_input_127 <- W_hc_h_126
I1017 11:46:35.201743 26184 net.cpp:406] lstm1_gate_input_127 <- W_xc_x_127
I1017 11:46:35.201750 26184 net.cpp:380] lstm1_gate_input_127 -> gate_input_127
I1017 11:46:35.201784 26184 net.cpp:122] Setting up lstm1_gate_input_127
I1017 11:46:35.201792 26184 net.cpp:129] Top shape: 1 150 2048 (307200)
I1017 11:46:35.201797 26184 net.cpp:137] Memory required for data: 836505600
I1017 11:46:35.201800 26184 layer_factory.hpp:77] Creating layer lstm1_unit_127
I1017 11:46:35.201809 26184 net.cpp:84] Creating Layer lstm1_unit_127
I1017 11:46:35.201814 26184 net.cpp:406] lstm1_unit_127 <- c_126
I1017 11:46:35.201820 26184 net.cpp:406] lstm1_unit_127 <- gate_input_127
I1017 11:46:35.201828 26184 net.cpp:406] lstm1_unit_127 <- cont_127_lstm1_cont_slice_126_split_1
I1017 11:46:35.201835 26184 net.cpp:380] lstm1_unit_127 -> c_127
I1017 11:46:35.201844 26184 net.cpp:380] lstm1_unit_127 -> h_127
I1017 11:46:35.201894 26184 net.cpp:122] Setting up lstm1_unit_127
I1017 11:46:35.201900 26184 net.cpp:129] Top shape: 1 150 512 (76800)
I1017 11:46:35.201905 26184 net.cpp:129] Top shape: 1 150 512 (76800)
I1017 11:46:35.201908 26184 net.cpp:137] Memory required for data: 837120000
I1017 11:46:35.201912 26184 layer_factory.hpp:77] Creating layer h_127_lstm1_unit_127_1_split
I1017 11:46:35.201918 26184 net.cpp:84] Creating Layer h_127_lstm1_unit_127_1_split
I1017 11:46:35.201923 26184 net.cpp:406] h_127_lstm1_unit_127_1_split <- h_127
I1017 11:46:35.201930 26184 net.cpp:380] h_127_lstm1_unit_127_1_split -> h_127_lstm1_unit_127_1_split_0
I1017 11:46:35.201937 26184 net.cpp:380] h_127_lstm1_unit_127_1_split -> h_127_lstm1_unit_127_1_split_1
I1017 11:46:35.201973 26184 net.cpp:122] Setting up h_127_lstm1_unit_127_1_split
I1017 11:46:35.201979 26184 net.cpp:129] Top shape: 1 150 512 (76800)
I1017 11:46:35.201984 26184 net.cpp:129] Top shape: 1 150 512 (76800)
I1017 11:46:35.201988 26184 net.cpp:137] Memory required for data: 837734400
I1017 11:46:35.201992 26184 layer_factory.hpp:77] Creating layer lstm1_h_conted_127
I1017 11:46:35.201999 26184 net.cpp:84] Creating Layer lstm1_h_conted_127
I1017 11:46:35.202005 26184 net.cpp:406] lstm1_h_conted_127 <- h_127_lstm1_unit_127_1_split_0
I1017 11:46:35.202013 26184 net.cpp:406] lstm1_h_conted_127 <- cont_128_lstm1_cont_slice_127_split_0
I1017 11:46:35.202021 26184 net.cpp:380] lstm1_h_conted_127 -> h_conted_127
I1017 11:46:35.202095 26184 net.cpp:122] Setting up lstm1_h_conted_127
I1017 11:46:35.202102 26184 net.cpp:129] Top shape: 1 150 512 (76800)
I1017 11:46:35.202106 26184 net.cpp:137] Memory required for data: 838041600
I1017 11:46:35.202111 26184 layer_factory.hpp:77] Creating layer lstm1_transform_128
I1017 11:46:35.202117 26184 net.cpp:84] Creating Layer lstm1_transform_128
I1017 11:46:35.202123 26184 net.cpp:406] lstm1_transform_128 <- h_conted_127
I1017 11:46:35.202132 26184 net.cpp:380] lstm1_transform_128 -> W_hc_h_127
I1017 11:46:35.213778 26184 net.cpp:122] Setting up lstm1_transform_128
I1017 11:46:35.213794 26184 net.cpp:129] Top shape: 1 150 2048 (307200)
I1017 11:46:35.213810 26184 net.cpp:137] Memory required for data: 839270400
I1017 11:46:35.213815 26184 net.cpp:465] Sharing parameters 'W_hc' owned by layer 'lstm1_transform_1', param index 0
I1017 11:46:35.213820 26184 layer_factory.hpp:77] Creating layer lstm1_gate_input_128
I1017 11:46:35.213830 26184 net.cpp:84] Creating Layer lstm1_gate_input_128
I1017 11:46:35.213835 26184 net.cpp:406] lstm1_gate_input_128 <- W_hc_h_127
I1017 11:46:35.213842 26184 net.cpp:406] lstm1_gate_input_128 <- W_xc_x_128
I1017 11:46:35.213852 26184 net.cpp:380] lstm1_gate_input_128 -> gate_input_128
I1017 11:46:35.213881 26184 net.cpp:122] Setting up lstm1_gate_input_128
I1017 11:46:35.213889 26184 net.cpp:129] Top shape: 1 150 2048 (307200)
I1017 11:46:35.213893 26184 net.cpp:137] Memory required for data: 840499200
I1017 11:46:35.213898 26184 layer_factory.hpp:77] Creating layer lstm1_unit_128
I1017 11:46:35.213904 26184 net.cpp:84] Creating Layer lstm1_unit_128
I1017 11:46:35.213910 26184 net.cpp:406] lstm1_unit_128 <- c_127
I1017 11:46:35.213917 26184 net.cpp:406] lstm1_unit_128 <- gate_input_128
I1017 11:46:35.213922 26184 net.cpp:406] lstm1_unit_128 <- cont_128_lstm1_cont_slice_127_split_1
I1017 11:46:35.213928 26184 net.cpp:380] lstm1_unit_128 -> c_128
I1017 11:46:35.213937 26184 net.cpp:380] lstm1_unit_128 -> h_128
I1017 11:46:35.213992 26184 net.cpp:122] Setting up lstm1_unit_128
I1017 11:46:35.213999 26184 net.cpp:129] Top shape: 1 150 512 (76800)
I1017 11:46:35.214004 26184 net.cpp:129] Top shape: 1 150 512 (76800)
I1017 11:46:35.214009 26184 net.cpp:137] Memory required for data: 841113600
I1017 11:46:35.214013 26184 layer_factory.hpp:77] Creating layer lstm1_
I1017 11:46:35.214021 26184 net.cpp:84] Creating Layer lstm1_
I1017 11:46:35.214026 26184 net.cpp:406] lstm1_ <- c_128
I1017 11:46:35.214035 26184 net.cpp:380] lstm1_ -> c_T
I1017 11:46:35.214058 26184 net.cpp:122] Setting up lstm1_
I1017 11:46:35.214064 26184 net.cpp:129] Top shape: 1 150 512 (76800)
I1017 11:46:35.214068 26184 net.cpp:137] Memory required for data: 841420800
I1017 11:46:35.214072 26184 layer_factory.hpp:77] Creating layer lstm1_h_concat
I1017 11:46:35.214094 26184 net.cpp:84] Creating Layer lstm1_h_concat
I1017 11:46:35.214102 26184 net.cpp:406] lstm1_h_concat <- h_1_lstm1_unit_1_1_split_1
I1017 11:46:35.214119 26184 net.cpp:406] lstm1_h_concat <- h_2_lstm1_unit_2_1_split_1
…
I1017 11:46:35.245502 26184 net.cpp:200] lstm1_ does not need backward computation.
I1017 11:46:35.245507 26184 net.cpp:242] This network produces output c_T
I1017 11:46:35.245514 26184 net.cpp:242] This network produces output h_pseudoloss
I1017 11:46:35.349860 26184 net.cpp:255] Network initialization done.
I1017 11:46:35.352073 26184 recurrent_layer.cpp:150] Adding parameter 0: W_xc
I1017 11:46:35.352085 26184 recurrent_layer.cpp:150] Adding parameter 1: b_c
I1017 11:46:35.352090 26184 recurrent_layer.cpp:150] Adding parameter 2: W_hc
I1017 11:46:35.360218 26184 net.cpp:122] Setting up lstm1
I1017 11:46:35.360261 26184 net.cpp:129] Top shape: 128 150 512 (9830400)
I1017 11:46:35.360266 26184 net.cpp:137] Memory required for data: 17365403400
I1017 11:46:35.360282 26184 layer_factory.hpp:77] Creating layer lstm1-drop
I1017 11:46:35.360297 26184 net.cpp:84] Creating Layer lstm1-drop
I1017 11:46:35.360308 26184 net.cpp:406] lstm1-drop <- lstm1
I1017 11:46:35.360321 26184 net.cpp:380] lstm1-drop -> lstm1-drop
I1017 11:46:35.360383 26184 net.cpp:122] Setting up lstm1-drop
I1017 11:46:35.360390 26184 net.cpp:129] Top shape: 128 150 512 (9830400)
I1017 11:46:35.360394 26184 net.cpp:137] Memory required for data: 17404725000
I1017 11:46:35.360399 26184 layer_factory.hpp:77] Creating layer fc-final
I1017 11:46:35.360414 26184 net.cpp:84] Creating Layer fc-final
I1017 11:46:35.360419 26184 net.cpp:406] fc-final <- lstm1-drop
I1017 11:46:35.360430 26184 net.cpp:380] fc-final -> fc-final
I1017 11:46:35.360841 26184 net.cpp:122] Setting up fc-final
I1017 11:46:35.360852 26184 net.cpp:129] Top shape: 128 150 10 (192000)
I1017 11:46:35.360868 26184 net.cpp:137] Memory required for data: 17405493000
I1017 11:46:35.360875 26184 layer_factory.hpp:77] Creating layer fc-final_fc-final_0_split
I1017 11:46:35.360887 26184 net.cpp:84] Creating Layer fc-final_fc-final_0_split
I1017 11:46:35.360891 26184 net.cpp:406] fc-final_fc-final_0_split <- fc-final
I1017 11:46:35.360898 26184 net.cpp:380] fc-final_fc-final_0_split -> fc-final_fc-final_0_split_0
I1017 11:46:35.360906 26184 net.cpp:380] fc-final_fc-final_0_split -> fc-final_fc-final_0_split_1
I1017 11:46:35.360952 26184 net.cpp:122] Setting up fc-final_fc-final_0_split
I1017 11:46:35.360960 26184 net.cpp:129] Top shape: 128 150 10 (192000)
I1017 11:46:35.360965 26184 net.cpp:129] Top shape: 128 150 10 (192000)
I1017 11:46:35.360968 26184 net.cpp:137] Memory required for data: 17407029000
I1017 11:46:35.360972 26184 layer_factory.hpp:77] Creating layer loss
I1017 11:46:35.360980 26184 net.cpp:84] Creating Layer loss
I1017 11:46:35.360985 26184 net.cpp:406] loss <- fc-final_fc-final_0_split_0
I1017 11:46:35.360994 26184 net.cpp:406] loss <- reshape-label_label_tran_0_split_0
I1017 11:46:35.361001 26184 net.cpp:380] loss -> loss
…
