…
I1017 11:44:03.695253 26047 net.cpp:294] The NetState phase (0) differed from the phase (1) specified by a rule in layer Silence
I1017 11:44:03.695461 26047 net.cpp:51] Initializing net from parameters: 
name: "VGG-Places365"
state {
  phase: TRAIN
  level: 0
  stage: ""
}
layer {
  name: "data"
  type: "ImageData"
  top: "data"
  top: "label"
  include {
    phase: TRAIN
  }
  transform_param {
    mirror: true
    crop_size: 224
    mean_value: 104
    mean_value: 117
    mean_value: 123
  }
  image_data_param {
    source: "../Data/lsun_train_list_12w.txt"
    batch_size: 5
    shuffle: true
    new_height: 256
    new_width: 256
  }
}
layer {
  name: "label_tran"
  type: "Python"
  bottom: "label"
  top: "reshape-label"
  top: "clip_markers"
  python_param {
    module: "data_preparation_sort_max_clip"
    layer: "ReshapeLabel"
  }
}
layer {
  name: "conv1_1"
  type: "Convolution"
  bottom: "data"
  top: "conv1_1"
  convolution_param {
    num_output: 64
    pad: 1
    kernel_size: 3
  }
}
layer {
  name: "relu1_1"
  type: "ReLU"
  bottom: "conv1_1"
  top: "conv1_1"
}
layer {
  name: "conv1_2"
  type: "Convolution"
  bottom: "conv1_1"
  top: "conv1_2"
  convolution_param {
    num_output: 64
    pad: 1
    kernel_size: 3
  }
}
layer {
  name: "relu1_2"
  type: "ReLU"
  bottom: "conv1_2"
  top: "conv1_2"
}
layer {
  name: "pool1"
  type: "Pooling"
  bottom: "conv1_2"
  top: "pool1"
  pooling_param {
    pool: MAX
    kernel_size: 2
    stride: 2
  }
}
layer {
  name: "conv2_1"
  type: "Convolution"
  bottom: "pool1"
  top: "conv2_1"
  convolution_param {
    num_output: 128
    pad: 1
    kernel_size: 3
  }
}
layer {
  name: "relu2_1"
  type: "ReLU"
  bottom: "conv2_1"
  top: "conv2_1"
}
layer {
  name: "conv2_2"
  type: "Convolution"
  bottom: "conv2_1"
  top: "conv2_2"
  convolution_param {
    num_output: 128
    pad: 1
    kernel_size: 3
  }
}
layer {
  name: "relu2_2"
  type: "ReLU"
  bottom: "conv2_2"
  top: "conv2_2"
}
layer {
  name: "pool2"
  type: "Pooling"
  bottom: "conv2_2"
  top: "pool2"
  pooling_param {
    pool: MAX
    kernel_size: 2
    stride: 2
  }
}
layer {
  name: "conv3_1"
  type: "Convolution"
  bottom: "pool2"
  top: "conv3_1"
  convolution_param {
    num_output: 256
    pad: 1
    kernel_size: 3
  }
}
layer {
  name: "relu3_1"
  type: "ReLU"
  bottom: "conv3_1"
  top: "conv3_1"
}
layer {
  name: "conv3_2"
  type: "Convolution"
  bottom: "conv3_1"
  top: "conv3_2"
  convolution_param {
    num_output: 256
    pad: 1
    kernel_size: 3
  }
}
layer {
  name: "relu3_2"
  type: "ReLU"
  bottom: "conv3_2"
  top: "conv3_2"
}
layer {
  name: "conv3_3"
  type: "Convolution"
  bottom: "conv3_2"
  top: "conv3_3"
  convolution_param {
    num_output: 256
    pad: 1
    kernel_size: 3
  }
}
layer {
  name: "relu3_3"
  type: "ReLU"
  bottom: "conv3_3"
  top: "conv3_3"
}
layer {
  name: "pool3"
  type: "Pooling"
  bottom: "conv3_3"
  top: "pool3"
  pooling_param {
    pool: MAX
    kernel_size: 2
    stride: 2
  }
}
layer {
  name: "conv4_1"
  type: "Convolution"
  bottom: "pool3"
  top: "conv4_1"
  convolution_param {
    num_output: 512
    pad: 1
    kernel_size: 3
  }
}
layer {
  name: "relu4_1"
  type: "ReLU"
  bottom: "conv4_1"
  top: "conv4_1"
}
layer {
  name: "conv4_2"
  type: "Convolution"
  bottom: "conv4_1"
  top: "conv4_2"
  convolution_param {
    num_output: 512
    pad: 1
    kernel_size: 3
  }
}
layer {
  name: "relu4_2"
  type: "ReLU"
  bottom: "conv4_2"
  top: "conv4_2"
}
layer {
  name: "conv4_3"
  type: "Convolution"
  bottom: "conv4_2"
  top: "conv4_3"
  convolution_param {
    num_output: 512
    pad: 1
    kernel_size: 3
  }
}
layer {
  name: "relu4_3"
  type: "ReLU"
  bottom: "conv4_3"
  top: "conv4_3"
}
layer {
  name: "pool4"
  type: "Pooling"
  bottom: "conv4_3"
  top: "pool4"
  pooling_param {
    pool: MAX
    kernel_size: 2
    stride: 2
  }
}
layer {
  name: "conv5_1"
  type: "Convolution"
  bottom: "pool4"
  top: "conv5_1"
  convolution_param {
    num_output: 512
    pad: 1
    kernel_size: 3
  }
}
layer {
  name: "relu5_1"
  type: "ReLU"
  bottom: "conv5_1"
  top: "conv5_1"
}
layer {
  name: "conv5_2"
  type: "Convolution"
  bottom: "conv5_1"
  top: "conv5_2"
  convolution_param {
    num_output: 512
    pad: 1
    kernel_size: 3
  }
}
layer {
  name: "relu5_2"
  type: "ReLU"
  bottom: "conv5_2"
  top: "conv5_2"
}
layer {
  name: "conv5_3"
  type: "Convolution"
  bottom: "conv5_2"
  top: "conv5_3"
  convolution_param {
    num_output: 512
    pad: 1
    kernel_size: 3
  }
}
layer {
  name: "relu5_3"
  type: "ReLU"
  bottom: "conv5_3"
  top: "conv5_3"
}
layer {
  name: "conv5_3_re"
  type: "Reshape"
  bottom: "conv5_3"
  top: "conv5_3_re"
  reshape_param {
    shape {
      dim: 0
      dim: 0
      dim: -1
    }
  }
}
layer {
  name: "conv5_3_tran"
  type: "Python"
  bottom: "conv5_3_re"
  top: "conv5_3_tran"
  python_param {
    module: "data_preparation_sort_max_clip"
    layer: "DataTransposeSortMaxClip"
  }
}
layer {
  name: "lstm1"
  type: "LSTM"
  bottom: "conv5_3_tran"
  bottom: "clip_markers"
  top: "lstm1"
  recurrent_param {
    num_output: 512
    weight_filler {
      type: "uniform"
      min: -0.01
      max: 0.01
    }
    bias_filler {
      type: "constant"
      value: 0
    }
  }
}
layer {
  name: "lstm1-drop"
  type: "Dropout"
  bottom: "lstm1"
  top: "lstm1-drop"
  dropout_param {
    dropout_ratio: 0.5
  }
}
layer {
  name: "fc-final"
  type: "InnerProduct"
  bottom: "lstm1-drop"
  top: "fc-final"
  param {
    lr_mult: 1
    decay_mult: 1
  }
  param {
    lr_mult: 2
    decay_mult: 0
  }
  inner_product_param {
    num_output: 10
    weight_filler {
      type: "gaussian"
      std: 0.01
    }
    bias_filler {
      type: "constant"
      value: 0
    }
    axis: 2
  }
}
layer {
  name: "loss"
  type: "SoftmaxWithLoss"
  bottom: "fc-final"
  bottom: "reshape-label"
  top: "loss"
  softmax_param {
    axis: 2
  }
}
layer {
  name: "accuracy"
  type: "Accuracy"
  bottom: "fc-final"
  bottom: "reshape-label"
  top: "accuracy"
  accuracy_param {
    axis: 2
  }
}
I1017 11:44:03.695691 26047 layer_factory.hpp:77] Creating layer data
I1017 11:44:03.695744 26047 net.cpp:84] Creating Layer data
I1017 11:44:03.695757 26047 net.cpp:380] data -> data
I1017 11:44:03.695801 26047 net.cpp:380] data -> label
I1017 11:44:03.695837 26047 image_data_layer.cpp:38] Opening file ../Data/lsun_train_list_12w.txt
I1017 11:44:04.267122 26047 image_data_layer.cpp:53] Shuffling data
I1017 11:44:04.522552 26047 image_data_layer.cpp:63] A total of 1200000 images.
I1017 11:44:04.527652 26047 image_data_layer.cpp:90] output data size: 5,3,224,224
I1017 11:44:04.540242 26047 net.cpp:122] Setting up data
I1017 11:44:04.540380 26047 net.cpp:129] Top shape: 5 3 224 224 (752640)
I1017 11:44:04.540424 26047 net.cpp:129] Top shape: 5 (5)
I1017 11:44:04.540436 26047 net.cpp:137] Memory required for data: 3010580
I1017 11:44:04.540463 26047 layer_factory.hpp:77] Creating layer label_tran
I1017 11:44:05.216047 26047 net.cpp:84] Creating Layer label_tran
I1017 11:44:05.216101 26047 net.cpp:406] label_tran <- label
I1017 11:44:05.216132 26047 net.cpp:380] label_tran -> reshape-label
I1017 11:44:05.216148 26047 net.cpp:380] label_tran -> clip_markers
I1017 11:44:05.216467 26047 net.cpp:122] Setting up label_tran
I1017 11:44:05.216487 26047 net.cpp:129] Top shape: 128 5 (640)
I1017 11:44:05.216493 26047 net.cpp:129] Top shape: 128 5 (640)
I1017 11:44:05.216498 26047 net.cpp:137] Memory required for data: 3015700
I1017 11:44:05.216505 26047 layer_factory.hpp:77] Creating layer reshape-label_label_tran_0_split
I1017 11:44:05.216529 26047 net.cpp:84] Creating Layer reshape-label_label_tran_0_split
I1017 11:44:05.216536 26047 net.cpp:406] reshape-label_label_tran_0_split <- reshape-label
I1017 11:44:05.216543 26047 net.cpp:380] reshape-label_label_tran_0_split -> reshape-label_label_tran_0_split_0
I1017 11:44:05.216552 26047 net.cpp:380] reshape-label_label_tran_0_split -> reshape-label_label_tran_0_split_1
I1017 11:44:05.216591 26047 net.cpp:122] Setting up reshape-label_label_tran_0_split
I1017 11:44:05.216603 26047 net.cpp:129] Top shape: 128 5 (640)
I1017 11:44:05.216608 26047 net.cpp:129] Top shape: 128 5 (640)
I1017 11:44:05.216612 26047 net.cpp:137] Memory required for data: 3020820
I1017 11:44:05.216616 26047 layer_factory.hpp:77] Creating layer conv1_1
I1017 11:44:05.216639 26047 net.cpp:84] Creating Layer conv1_1
I1017 11:44:05.216644 26047 net.cpp:406] conv1_1 <- data
I1017 11:44:05.216653 26047 net.cpp:380] conv1_1 -> conv1_1
I1017 11:44:05.218641 26047 net.cpp:122] Setting up conv1_1
I1017 11:44:05.218659 26047 net.cpp:129] Top shape: 5 64 224 224 (16056320)
I1017 11:44:05.218665 26047 net.cpp:137] Memory required for data: 67246100
I1017 11:44:05.218693 26047 layer_factory.hpp:77] Creating layer relu1_1
I1017 11:44:05.218706 26047 net.cpp:84] Creating Layer relu1_1
I1017 11:44:05.218713 26047 net.cpp:406] relu1_1 <- conv1_1
I1017 11:44:05.218719 26047 net.cpp:367] relu1_1 -> conv1_1 (in-place)
I1017 11:44:05.218734 26047 net.cpp:122] Setting up relu1_1
I1017 11:44:05.218740 26047 net.cpp:129] Top shape: 5 64 224 224 (16056320)
I1017 11:44:05.218745 26047 net.cpp:137] Memory required for data: 131471380
I1017 11:44:05.218755 26047 layer_factory.hpp:77] Creating layer conv1_2
I1017 11:44:05.218765 26047 net.cpp:84] Creating Layer conv1_2
I1017 11:44:05.218771 26047 net.cpp:406] conv1_2 <- conv1_1
I1017 11:44:05.218778 26047 net.cpp:380] conv1_2 -> conv1_2
I1017 11:44:05.219048 26047 net.cpp:122] Setting up conv1_2
I1017 11:44:05.219060 26047 net.cpp:129] Top shape: 5 64 224 224 (16056320)
I1017 11:44:05.219065 26047 net.cpp:137] Memory required for data: 195696660
I1017 11:44:05.219075 26047 layer_factory.hpp:77] Creating layer relu1_2
I1017 11:44:05.219084 26047 net.cpp:84] Creating Layer relu1_2
I1017 11:44:05.219089 26047 net.cpp:406] relu1_2 <- conv1_2
I1017 11:44:05.219095 26047 net.cpp:367] relu1_2 -> conv1_2 (in-place)
I1017 11:44:05.219105 26047 net.cpp:122] Setting up relu1_2
I1017 11:44:05.219111 26047 net.cpp:129] Top shape: 5 64 224 224 (16056320)
I1017 11:44:05.219115 26047 net.cpp:137] Memory required for data: 259921940
I1017 11:44:05.219120 26047 layer_factory.hpp:77] Creating layer pool1
I1017 11:44:05.219131 26047 net.cpp:84] Creating Layer pool1
I1017 11:44:05.219136 26047 net.cpp:406] pool1 <- conv1_2
I1017 11:44:05.219141 26047 net.cpp:380] pool1 -> pool1
I1017 11:44:05.219192 26047 net.cpp:122] Setting up pool1
I1017 11:44:05.219203 26047 net.cpp:129] Top shape: 5 64 112 112 (4014080)
I1017 11:44:05.219208 26047 net.cpp:137] Memory required for data: 275978260
I1017 11:44:05.219213 26047 layer_factory.hpp:77] Creating layer conv2_1
I1017 11:44:05.219223 26047 net.cpp:84] Creating Layer conv2_1
I1017 11:44:05.219229 26047 net.cpp:406] conv2_1 <- pool1
I1017 11:44:05.219238 26047 net.cpp:380] conv2_1 -> conv2_1
I1017 11:44:05.220962 26047 net.cpp:122] Setting up conv2_1
I1017 11:44:05.220978 26047 net.cpp:129] Top shape: 5 128 112 112 (8028160)
I1017 11:44:05.220983 26047 net.cpp:137] Memory required for data: 308090900
I1017 11:44:05.220996 26047 layer_factory.hpp:77] Creating layer relu2_1
I1017 11:44:05.221006 26047 net.cpp:84] Creating Layer relu2_1
I1017 11:44:05.221011 26047 net.cpp:406] relu2_1 <- conv2_1
I1017 11:44:05.221019 26047 net.cpp:367] relu2_1 -> conv2_1 (in-place)
I1017 11:44:05.221029 26047 net.cpp:122] Setting up relu2_1
I1017 11:44:05.221035 26047 net.cpp:129] Top shape: 5 128 112 112 (8028160)
I1017 11:44:05.221040 26047 net.cpp:137] Memory required for data: 340203540
I1017 11:44:05.221045 26047 layer_factory.hpp:77] Creating layer conv2_2
I1017 11:44:05.221052 26047 net.cpp:84] Creating Layer conv2_2
I1017 11:44:05.221057 26047 net.cpp:406] conv2_2 <- conv2_1
I1017 11:44:05.221063 26047 net.cpp:380] conv2_2 -> conv2_2
I1017 11:44:05.221367 26047 net.cpp:122] Setting up conv2_2
I1017 11:44:05.221379 26047 net.cpp:129] Top shape: 5 128 112 112 (8028160)
I1017 11:44:05.221385 26047 net.cpp:137] Memory required for data: 372316180
I1017 11:44:05.221391 26047 layer_factory.hpp:77] Creating layer relu2_2
I1017 11:44:05.221400 26047 net.cpp:84] Creating Layer relu2_2
I1017 11:44:05.221405 26047 net.cpp:406] relu2_2 <- conv2_2
I1017 11:44:05.221411 26047 net.cpp:367] relu2_2 -> conv2_2 (in-place)
I1017 11:44:05.221418 26047 net.cpp:122] Setting up relu2_2
I1017 11:44:05.221424 26047 net.cpp:129] Top shape: 5 128 112 112 (8028160)
I1017 11:44:05.221428 26047 net.cpp:137] Memory required for data: 404428820
I1017 11:44:05.221433 26047 layer_factory.hpp:77] Creating layer pool2
I1017 11:44:05.221441 26047 net.cpp:84] Creating Layer pool2
I1017 11:44:05.221446 26047 net.cpp:406] pool2 <- conv2_2
I1017 11:44:05.221451 26047 net.cpp:380] pool2 -> pool2
I1017 11:44:05.221487 26047 net.cpp:122] Setting up pool2
I1017 11:44:05.221496 26047 net.cpp:129] Top shape: 5 128 56 56 (2007040)
I1017 11:44:05.221501 26047 net.cpp:137] Memory required for data: 412456980
I1017 11:44:05.221508 26047 layer_factory.hpp:77] Creating layer conv3_1
I1017 11:44:05.221516 26047 net.cpp:84] Creating Layer conv3_1
I1017 11:44:05.221521 26047 net.cpp:406] conv3_1 <- pool2
I1017 11:44:05.221529 26047 net.cpp:380] conv3_1 -> conv3_1
I1017 11:44:05.222715 26047 net.cpp:122] Setting up conv3_1
I1017 11:44:05.222731 26047 net.cpp:129] Top shape: 5 256 56 56 (4014080)
I1017 11:44:05.222736 26047 net.cpp:137] Memory required for data: 428513300
I1017 11:44:05.222748 26047 layer_factory.hpp:77] Creating layer relu3_1
I1017 11:44:05.222757 26047 net.cpp:84] Creating Layer relu3_1
I1017 11:44:05.222762 26047 net.cpp:406] relu3_1 <- conv3_1
I1017 11:44:05.222769 26047 net.cpp:367] relu3_1 -> conv3_1 (in-place)
I1017 11:44:05.222780 26047 net.cpp:122] Setting up relu3_1
I1017 11:44:05.222786 26047 net.cpp:129] Top shape: 5 256 56 56 (4014080)
I1017 11:44:05.222790 26047 net.cpp:137] Memory required for data: 444569620
I1017 11:44:05.222795 26047 layer_factory.hpp:77] Creating layer conv3_2
I1017 11:44:05.222805 26047 net.cpp:84] Creating Layer conv3_2
I1017 11:44:05.222810 26047 net.cpp:406] conv3_2 <- conv3_1
I1017 11:44:05.222817 26047 net.cpp:380] conv3_2 -> conv3_2
I1017 11:44:05.224686 26047 net.cpp:122] Setting up conv3_2
I1017 11:44:05.224704 26047 net.cpp:129] Top shape: 5 256 56 56 (4014080)
I1017 11:44:05.224709 26047 net.cpp:137] Memory required for data: 460625940
I1017 11:44:05.224716 26047 layer_factory.hpp:77] Creating layer relu3_2
I1017 11:44:05.224737 26047 net.cpp:84] Creating Layer relu3_2
I1017 11:44:05.224746 26047 net.cpp:406] relu3_2 <- conv3_2
I1017 11:44:05.224753 26047 net.cpp:367] relu3_2 -> conv3_2 (in-place)
I1017 11:44:05.224762 26047 net.cpp:122] Setting up relu3_2
I1017 11:44:05.224768 26047 net.cpp:129] Top shape: 5 256 56 56 (4014080)
I1017 11:44:05.224773 26047 net.cpp:137] Memory required for data: 476682260
I1017 11:44:05.224777 26047 layer_factory.hpp:77] Creating layer conv3_3
I1017 11:44:05.224789 26047 net.cpp:84] Creating Layer conv3_3
I1017 11:44:05.224797 26047 net.cpp:406] conv3_3 <- conv3_2
I1017 11:44:05.224803 26047 net.cpp:380] conv3_3 -> conv3_3
I1017 11:44:05.226627 26047 net.cpp:122] Setting up conv3_3
I1017 11:44:05.226642 26047 net.cpp:129] Top shape: 5 256 56 56 (4014080)
I1017 11:44:05.226647 26047 net.cpp:137] Memory required for data: 492738580
I1017 11:44:05.226661 26047 layer_factory.hpp:77] Creating layer relu3_3
I1017 11:44:05.226670 26047 net.cpp:84] Creating Layer relu3_3
I1017 11:44:05.226675 26047 net.cpp:406] relu3_3 <- conv3_3
I1017 11:44:05.226683 26047 net.cpp:367] relu3_3 -> conv3_3 (in-place)
I1017 11:44:05.226692 26047 net.cpp:122] Setting up relu3_3
I1017 11:44:05.226698 26047 net.cpp:129] Top shape: 5 256 56 56 (4014080)
I1017 11:44:05.226706 26047 net.cpp:137] Memory required for data: 508794900
I1017 11:44:05.226711 26047 layer_factory.hpp:77] Creating layer pool3
I1017 11:44:05.226716 26047 net.cpp:84] Creating Layer pool3
I1017 11:44:05.226722 26047 net.cpp:406] pool3 <- conv3_3
I1017 11:44:05.226735 26047 net.cpp:380] pool3 -> pool3
I1017 11:44:05.226775 26047 net.cpp:122] Setting up pool3
I1017 11:44:05.226784 26047 net.cpp:129] Top shape: 5 256 28 28 (1003520)
I1017 11:44:05.226789 26047 net.cpp:137] Memory required for data: 512808980
I1017 11:44:05.226794 26047 layer_factory.hpp:77] Creating layer conv4_1
I1017 11:44:05.226802 26047 net.cpp:84] Creating Layer conv4_1
I1017 11:44:05.226809 26047 net.cpp:406] conv4_1 <- pool3
I1017 11:44:05.226815 26047 net.cpp:380] conv4_1 -> conv4_1
I1017 11:44:05.230659 26047 net.cpp:122] Setting up conv4_1
I1017 11:44:05.230676 26047 net.cpp:129] Top shape: 5 512 28 28 (2007040)
I1017 11:44:05.230681 26047 net.cpp:137] Memory required for data: 520837140
I1017 11:44:05.230690 26047 layer_factory.hpp:77] Creating layer relu4_1
I1017 11:44:05.230705 26047 net.cpp:84] Creating Layer relu4_1
I1017 11:44:05.230711 26047 net.cpp:406] relu4_1 <- conv4_1
I1017 11:44:05.230718 26047 net.cpp:367] relu4_1 -> conv4_1 (in-place)
I1017 11:44:05.230726 26047 net.cpp:122] Setting up relu4_1
I1017 11:44:05.230732 26047 net.cpp:129] Top shape: 5 512 28 28 (2007040)
I1017 11:44:05.230737 26047 net.cpp:137] Memory required for data: 528865300
I1017 11:44:05.230746 26047 layer_factory.hpp:77] Creating layer conv4_2
I1017 11:44:05.230756 26047 net.cpp:84] Creating Layer conv4_2
I1017 11:44:05.230762 26047 net.cpp:406] conv4_2 <- conv4_1
I1017 11:44:05.230767 26047 net.cpp:380] conv4_2 -> conv4_2
I1017 11:44:05.236573 26047 net.cpp:122] Setting up conv4_2
I1017 11:44:05.236591 26047 net.cpp:129] Top shape: 5 512 28 28 (2007040)
I1017 11:44:05.236596 26047 net.cpp:137] Memory required for data: 536893460
I1017 11:44:05.236611 26047 layer_factory.hpp:77] Creating layer relu4_2
I1017 11:44:05.236631 26047 net.cpp:84] Creating Layer relu4_2
I1017 11:44:05.236639 26047 net.cpp:406] relu4_2 <- conv4_2
I1017 11:44:05.236646 26047 net.cpp:367] relu4_2 -> conv4_2 (in-place)
I1017 11:44:05.236655 26047 net.cpp:122] Setting up relu4_2
I1017 11:44:05.236661 26047 net.cpp:129] Top shape: 5 512 28 28 (2007040)
I1017 11:44:05.236666 26047 net.cpp:137] Memory required for data: 544921620
I1017 11:44:05.236670 26047 layer_factory.hpp:77] Creating layer conv4_3
I1017 11:44:05.236678 26047 net.cpp:84] Creating Layer conv4_3
I1017 11:44:05.236682 26047 net.cpp:406] conv4_3 <- conv4_2
I1017 11:44:05.236691 26047 net.cpp:380] conv4_3 -> conv4_3
I1017 11:44:05.242419 26047 net.cpp:122] Setting up conv4_3
I1017 11:44:05.242436 26047 net.cpp:129] Top shape: 5 512 28 28 (2007040)
I1017 11:44:05.242441 26047 net.cpp:137] Memory required for data: 552949780
I1017 11:44:05.242449 26047 layer_factory.hpp:77] Creating layer relu4_3
I1017 11:44:05.242458 26047 net.cpp:84] Creating Layer relu4_3
I1017 11:44:05.242463 26047 net.cpp:406] relu4_3 <- conv4_3
I1017 11:44:05.242470 26047 net.cpp:367] relu4_3 -> conv4_3 (in-place)
I1017 11:44:05.242480 26047 net.cpp:122] Setting up relu4_3
I1017 11:44:05.242491 26047 net.cpp:129] Top shape: 5 512 28 28 (2007040)
I1017 11:44:05.242494 26047 net.cpp:137] Memory required for data: 560977940
I1017 11:44:05.242498 26047 layer_factory.hpp:77] Creating layer pool4
I1017 11:44:05.242517 26047 net.cpp:84] Creating Layer pool4
I1017 11:44:05.242523 26047 net.cpp:406] pool4 <- conv4_3
I1017 11:44:05.242529 26047 net.cpp:380] pool4 -> pool4
I1017 11:44:05.242579 26047 net.cpp:122] Setting up pool4
I1017 11:44:05.242590 26047 net.cpp:129] Top shape: 5 512 14 14 (501760)
I1017 11:44:05.242597 26047 net.cpp:137] Memory required for data: 562984980
I1017 11:44:05.242601 26047 layer_factory.hpp:77] Creating layer conv5_1
I1017 11:44:05.242609 26047 net.cpp:84] Creating Layer conv5_1
I1017 11:44:05.242614 26047 net.cpp:406] conv5_1 <- pool4
I1017 11:44:05.242622 26047 net.cpp:380] conv5_1 -> conv5_1
I1017 11:44:05.248355 26047 net.cpp:122] Setting up conv5_1
I1017 11:44:05.248374 26047 net.cpp:129] Top shape: 5 512 14 14 (501760)
I1017 11:44:05.248379 26047 net.cpp:137] Memory required for data: 564992020
I1017 11:44:05.248387 26047 layer_factory.hpp:77] Creating layer relu5_1
I1017 11:44:05.248405 26047 net.cpp:84] Creating Layer relu5_1
I1017 11:44:05.248412 26047 net.cpp:406] relu5_1 <- conv5_1
I1017 11:44:05.248420 26047 net.cpp:367] relu5_1 -> conv5_1 (in-place)
I1017 11:44:05.248428 26047 net.cpp:122] Setting up relu5_1
I1017 11:44:05.248435 26047 net.cpp:129] Top shape: 5 512 14 14 (501760)
I1017 11:44:05.248440 26047 net.cpp:137] Memory required for data: 566999060
I1017 11:44:05.248443 26047 layer_factory.hpp:77] Creating layer conv5_2
I1017 11:44:05.248452 26047 net.cpp:84] Creating Layer conv5_2
I1017 11:44:05.248457 26047 net.cpp:406] conv5_2 <- conv5_1
I1017 11:44:05.248463 26047 net.cpp:380] conv5_2 -> conv5_2
I1017 11:44:05.254415 26047 net.cpp:122] Setting up conv5_2
I1017 11:44:05.254436 26047 net.cpp:129] Top shape: 5 512 14 14 (501760)
I1017 11:44:05.254441 26047 net.cpp:137] Memory required for data: 569006100
I1017 11:44:05.254451 26047 layer_factory.hpp:77] Creating layer relu5_2
I1017 11:44:05.254457 26047 net.cpp:84] Creating Layer relu5_2
I1017 11:44:05.254462 26047 net.cpp:406] relu5_2 <- conv5_2
I1017 11:44:05.254469 26047 net.cpp:367] relu5_2 -> conv5_2 (in-place)
I1017 11:44:05.254485 26047 net.cpp:122] Setting up relu5_2
I1017 11:44:05.254492 26047 net.cpp:129] Top shape: 5 512 14 14 (501760)
I1017 11:44:05.254495 26047 net.cpp:137] Memory required for data: 571013140
I1017 11:44:05.254508 26047 layer_factory.hpp:77] Creating layer conv5_3
I1017 11:44:05.254526 26047 net.cpp:84] Creating Layer conv5_3
I1017 11:44:05.254535 26047 net.cpp:406] conv5_3 <- conv5_2
I1017 11:44:05.254542 26047 net.cpp:380] conv5_3 -> conv5_3
I1017 11:44:05.260386 26047 net.cpp:122] Setting up conv5_3
I1017 11:44:05.260404 26047 net.cpp:129] Top shape: 5 512 14 14 (501760)
I1017 11:44:05.260409 26047 net.cpp:137] Memory required for data: 573020180
I1017 11:44:05.260416 26047 layer_factory.hpp:77] Creating layer relu5_3
I1017 11:44:05.260432 26047 net.cpp:84] Creating Layer relu5_3
I1017 11:44:05.260440 26047 net.cpp:406] relu5_3 <- conv5_3
I1017 11:44:05.260447 26047 net.cpp:367] relu5_3 -> conv5_3 (in-place)
I1017 11:44:05.260459 26047 net.cpp:122] Setting up relu5_3
I1017 11:44:05.260465 26047 net.cpp:129] Top shape: 5 512 14 14 (501760)
I1017 11:44:05.260469 26047 net.cpp:137] Memory required for data: 575027220
I1017 11:44:05.260474 26047 layer_factory.hpp:77] Creating layer conv5_3_re
I1017 11:44:05.260489 26047 net.cpp:84] Creating Layer conv5_3_re
I1017 11:44:05.260493 26047 net.cpp:406] conv5_3_re <- conv5_3
I1017 11:44:05.260500 26047 net.cpp:380] conv5_3_re -> conv5_3_re
I1017 11:44:05.260552 26047 net.cpp:122] Setting up conv5_3_re
I1017 11:44:05.260561 26047 net.cpp:129] Top shape: 5 512 196 (501760)
I1017 11:44:05.260566 26047 net.cpp:137] Memory required for data: 577034260
I1017 11:44:05.260571 26047 layer_factory.hpp:77] Creating layer conv5_3_tran
I1017 11:44:05.260653 26047 net.cpp:84] Creating Layer conv5_3_tran
I1017 11:44:05.260664 26047 net.cpp:406] conv5_3_tran <- conv5_3_re
I1017 11:44:05.260673 26047 net.cpp:380] conv5_3_tran -> conv5_3_tran
I1017 11:44:05.262089 26047 net.cpp:122] Setting up conv5_3_tran
I1017 11:44:05.262105 26047 net.cpp:129] Top shape: 128 5 196 (125440)
I1017 11:44:05.262110 26047 net.cpp:137] Memory required for data: 577536020
I1017 11:44:05.262116 26047 layer_factory.hpp:77] Creating layer lstm1
I1017 11:44:05.262133 26047 net.cpp:84] Creating Layer lstm1
I1017 11:44:05.262140 26047 net.cpp:406] lstm1 <- conv5_3_tran
I1017 11:44:05.262146 26047 net.cpp:406] lstm1 <- clip_markers
I1017 11:44:05.262156 26047 net.cpp:380] lstm1 -> lstm1
I1017 11:44:05.262172 26047 recurrent_layer.cpp:20] Initializing recurrent layer: assuming input batch contains 128 timesteps of 5 independent streams.
I1017 11:44:05.266446 26047 net.cpp:51] Initializing net from parameters: 
layer {
  name: "lstm1_"
  type: "Input"
  top: "x"
  top: "cont"
  input_param {
    shape {
      dim: 128
      dim: 5
      dim: 196
    }
    shape {
      dim: 128
      dim: 5
    }
  }
}
layer {
  name: "lstm1_"
  type: "Input"
  top: "c_0"
  top: "h_0"
  input_param {
    shape {
      dim: 1
      dim: 5
      dim: 512
    }
    shape {
      dim: 1
      dim: 5
      dim: 512
    }
  }
}
layer {
  name: "lstm1_cont_slice"
  type: "Slice"
  bottom: "cont"
  top: "cont_1"
  top: "cont_2"
  top: "cont_3"
  top: "cont_4"
  top: "cont_5"
  top: "cont_6"
  top: "cont_7"
  top: "cont_8"
  top: "cont_9"
  top: "cont_10"
  top: "cont_11"
  top: "cont_12"
  top: "cont_13"
  top: "cont_14"
  top: "cont_15"
  top: "cont_16"
  top: "cont_17"
  top: "cont_18"
  top: "cont_19"
  top: "cont_20"
  top: "cont_21"
  top: "cont_22"
  top: "cont_23"
  top: "cont_24"
…
  top: "W_xc_x_103"
  top: "W_xc_x_104"
  top: "W_xc_x_105"
  top: "W_xc_x_106"
  top: "W_xc_x_107"
  top: "W_xc_x_108"
  top: "W_xc_x_109"
  top: "W_xc_x_110"
  top: "W_xc_x_111"
  top: "W_xc_x_112"
  top: "W_xc_x_113"
  top: "W_xc_x_114"
  top: "W_xc_x_115"
  top: "W_xc_x_116"
  top: "W_xc_x_117"
  top: "W_xc_x_118"
  top: "W_xc_x_119"
  top: "W_xc_x_120"
  top: "W_xc_x_121"
  top: "W_xc_x_122"
  top: "W_xc_x_123"
  top: "W_xc_x_124"
  top: "W_xc_x_125"
  top: "W_xc_x_126"
  top: "W_xc_x_127"
  top: "W_xc_x_128"
  slice_param {
    axis: 0
  }
}
layer {
  name: "lstm1_h_conted_0"
  type: "Scale"
  bottom: "h_0"
  bottom: "cont_1"
  top: "h_conted_0"
  scale_param {
    axis: 0
  }
}
layer {
  name: "lstm1_transform_1"
  type: "InnerProduct"
  bottom: "h_conted_0"
  top: "W_hc_h_0"
  param {
    name: "W_hc"
  }
  inner_product_param {
    num_output: 2048
    bias_term: false
    weight_filler {
      type: "uniform"
      min: -0.01
      max: 0.01
    }
    axis: 2
  }
}
layer {
  name: "lstm1_gate_input_1"
  type: "Eltwise"
  bottom: "W_hc_h_0"
  bottom: "W_xc_x_1"
  top: "gate_input_1"
  eltwise_param {
    operation: SUM
  }
}
layer {
  name: "lstm1_unit_1"
  type: "LSTMUnit"
  bottom: "c_0"
  bottom: "gate_input_1"
  bottom: "cont_1"
  top: "c_1"
  top: "h_1"
}
layer {
  name: "lstm1_h_conted_1"
  type: "Scale"
  bottom: "h_1"
  bottom: "cont_2"
  top: "h_conted_1"
  scale_param {
    axis: 0
  }
}
layer {
  name: "lstm1_transform_2"
  type: "InnerProduct"
  bottom: "h_conted_1"
  top: "W_hc_h_1"
  param {
    name: "W_hc"
  }
  inner_product_param {
    num_output: 2048
    bias_term: false
    weight_filler {
      type: "uniform"
      min: -0.01
      max: 0.01
    }
    axis: 2
  }
}
layer {
  name: "lstm1_gate_input_2"
  type: "Eltwise"
  bottom: "W_hc_h_1"
  bottom: "W_xc_x_2"
  top: "gate_input_2"
  eltwise_param {
    operation: SUM
  }
}
layer {
  name: "lstm1_unit_2"
  type: "LSTMUnit"
  bottom: "c_1"
  bottom: "gate_input_2"
  bottom: "cont_2"
  top: "c_2"
  top: "h_2"
}
layer {
  name: "lstm1_h_conted_2"
  type: "Scale"
  bottom: "h_2"
  bottom: "cont_3"
  top: "h_conted_2"
  scale_param {
    axis: 0
  }
}
layer {
  name: "lstm1_transform_3"
  type: "InnerProduct"
  bottom: "h_conted_2"
  top: "W_hc_h_2"
  param {
    name: "W_hc"
  }
  inner_product_param {
    num_output: 2048
    bias_term: false
    weight_filler {
      type: "uniform"
      min: -0.01
      max: 0.01
    }
    axis: 2
  }
}
layer {
  name: "lstm1_gate_input_3"
  type: "Eltwise"
  bottom: "W_hc_h_2"
  bottom: "W_xc_x_3"
  top: "gate_input_3"
  eltwise_param {
    operation: SUM
  }
}
layer {
  name: "lstm1_unit_3"
  type: "LSTMUnit"
  bottom: "c_2"
  bottom: "gate_input_3"
  bottom: "cont_3"
  top: "c_3"
  top: "h_3"
}
layer {
  name: "lstm1_h_conted_3"
  type: "Scale"
  bottom: "h_3"
  bottom: "cont_4"
  top: "h_conted_3"
  scale_param {
    axis: 0
  }
}
layer {
  name: "lstm1_transform_4"
  type: "InnerProduct"
  bottom: "h_conted_3"
  top: "W_hc_h_3"
  param {
    name: "W_hc"
  }
  inner_product_param {
    num_output: 2048
    bias_term: false
    weight_filler {
      type: "uniform"
      min: -0.01
      max: 0.01
    }
    axis: 2
  }
}
layer {
  name: "lstm1_gate_input_4"
  type: "Eltwise"
  bottom: "W_hc_h_3"
  bottom: "W_xc_x_4"
  top: "gate_input_4"
  eltwise_param {
    operation: SUM
  }
}
layer {
  name: "lstm1_unit_4"
  type: "LSTMUnit"
  bottom: "c_3"
  bottom: "gate_input_4"
  bottom: "cont_4"
  top: "c_4"
  top: "h_4"
}
layer {
  name: "lstm1_h_conted_4"
  type: "Scale"
  bottom: "h_4"
  bottom: "cont_5"
  top: "h_conted_4"
  scale_param {
    axis: 0
  }
}
layer {
  name: "lstm1_transform_5"
  type: "InnerProduct"
  bottom: "h_conted_4"
  top: "W_hc_h_4"
  param {
    name: "W_hc"
  }
  inner_product_param {
    num_output: 2048
    bias_term: false
    weight_filler {
      type: "uniform"
      min: -0.01
      max: 0.01
    }
    axis: 2
  }
}
layer {
  name: "lstm1_gate_input_5"
  type: "Eltwise"
  bottom: "W_hc_h_4"
  bottom: "W_xc_x_5"
  top: "gate_input_5"
  eltwise_param {
    operation: SUM
  }
}
layer {
  name: "lstm1_unit_5"
  type: "LSTMUnit"
  bottom: "c_4"
  bottom: "gate_input_5"
  bottom: "cont_5"
  top: "c_5"
  top: "h_5"
}
layer {
  name: "lstm1_h_conted_5"
  type: "Scale"
  bottom: "h_5"
  bottom: "cont_6"
  top: "h_conted_5"
  scale_param {
    axis: 0
  }
}
layer {
  name: "lstm1_transform_6"
  type: "InnerProduct"
  bottom: "h_conted_5"
  top: "W_hc_h_5"
  param {
    name: "W_hc"
  }
  inner_product_param {
    num_output: 2048
    bias_term: false
    weight_filler {
      type: "uniform"
      min: -0.01
      max: 0.01
    }
    axis: 2
  }
}
layer {
  name: "lstm1_gate_input_6"
  type: "Eltwise"
  bottom: "W_hc_h_5"
  bottom: "W_xc_x_6"
  top: "gate_input_6"
  eltwise_param {
    operation: SUM
  }
}
layer {
  name: "lstm1_unit_6"
  type: "LSTMUnit"
  bottom: "c_5"
  bottom: "gate_input_6"
  bottom: "cont_6"
  top: "c_6"
  top: "h_6"
}
layer {
  name: "lstm1_h_conted_6"
  type: "Scale"
  bottom: "h_6"
  bottom: "cont_7"
  top: "h_conted_6"
  scale_param {
    axis: 0
  }
}
layer {
  name: "lstm1_transform_7"
  type: "InnerProduct"
  bottom: "h_conted_6"
  top: "W_hc_h_6"
  param {
    name: "W_hc"
  }
  inner_product_param {
    num_output: 2048
    bias_term: false
    weight_filler {
      type: "uniform"
      min: -0.01
      max: 0.01
    }
    axis: 2
  }
}
layer {
  name: "lstm1_gate_input_7"
  type: "Eltwise"
  bottom: "W_hc_h_6"
  bottom: "W_xc_x_7"
  top: "gate_input_7"
  eltwise_param {
    operation: SUM
  }
}
layer {
  name: "lstm1_unit_7"
  type: "LSTMUnit"
  bottom: "c_6"
  bottom: "gate_input_7"
  bottom: "cont_7"
  top: "c_7"
  top: "h_7"
}
layer {
  name: "lstm1_h_conted_7"
  type: "Scale"
  bottom: "h_7"
  bottom: "cont_8"
  top: "h_conted_7"
  scale_param {
    axis: 0
  }
}
layer {
  name: "lstm1_transform_8"
  type: "InnerProduct"
  bottom: "h_conted_7"
  top: "W_hc_h_7"
  param {
    name: "W_hc"
  }
  inner_product_param {
    num_output: 2048
    bias_term: false
    weight_filler {
      type: "uniform"
      min: -0.01
      max: 0.01
    }
    axis: 2
  }
}
layer {
  name: "lstm1_gate_input_8"
  type: "Eltwise"
  bottom: "W_hc_h_7"
  bottom: "W_xc_x_8"
  top: "gate_input_8"
  eltwise_param {
    operation: SUM
  }
}
layer {
  name: "lstm1_unit_8"
  type: "LSTMUnit"
  bottom: "c_7"
  bottom: "gate_input_8"
  bottom: "cont_8"
  top: "c_8"
  top: "h_8"
}
layer {
  name: "lstm1_h_conted_8"
  type: "Scale"
  bottom: "h_8"
  bottom: "cont_9"
  top: "h_conted_8"
  scale_param {
    axis: 0
  }
}
layer {
  name: "lstm1_transform_9"
  type: "InnerProduct"
  bottom: "h_conted_8"
  top: "W_hc_h_8"
  param {
    name: "W_hc"
  }
  inner_product_param {
    num_output: 2048
    bias_term: false
    weight_filler {
      type: "uniform"
      min: -0.01
      max: 0.01
    }
    axis: 2
  }
}
layer {
  name: "lstm1_gate_input_9"
  type: "Eltwise"
  bottom: "W_hc_h_8"
  bottom: "W_xc_x_9"
  top: "gate_input_9"
  eltwise_param {
    operation: SUM
  }
}
layer {
  name: "lstm1_unit_9"
  type: "LSTMUnit"
  bottom: "c_8"
  bottom: "gate_input_9"
  bottom: "cont_9"
  top: "c_9"
  top: "h_9"
}
layer {
  name: "lstm1_h_conted_9"
  type: "Scale"
  bottom: "h_9"
  bottom: "cont_10"
  top: "h_conted_9"
  scale_param {
    axis: 0
  }
}
layer {
  name: "lstm1_transform_10"
  type: "InnerProduct"
  bottom: "h_conted_9"
  top: "W_hc_h_9"
  param {
    name: "W_hc"
  }
  inner_product_param {
    num_output: 2048
    bias_term: false
    weight_filler {
      type: "uniform"
      min: -0.01
      max: 0.01
    }
    axis: 2
  }
}
layer {
  name: "lstm1_gate_input_10"
  type: "Eltwise"
  bottom: "W_hc_h_9"
  bottom: "W_xc_x_10"
  top: "gate_input_10"
  eltwise_param {
    operation: SUM
  }
}
layer {
  name: "lstm1_unit_10"
  type: "LSTMUnit"
  bottom: "c_9"
  bottom: "gate_input_10"
  bottom: "cont_10"
  top: "c_10"
  top: "h_10"
}
layer {
  name: "lstm1_h_conted_10"
  type: "Scale"
  bottom: "h_10"
  bottom: "cont_11"
  top: "h_conted_10"
  scale_param {
    axis: 0
  }
}
layer {
  name: "lstm1_transform_11"
  type: "InnerProduct"
  bottom: "h_conted_10"
  top: "W_hc_h_10"
  param {
    name: "W_hc"
  }
  inner_product_param {
    num_output: 2048
    bias_term: false
    weight_filler {
      type: "uniform"
      min: -0.01
      max: 0.01
    }
    axis: 2
  }
}
layer {
  name: "lstm1_gate_input_11"
  type: "Eltwise"
  bottom: "W_hc_h_10"
  bottom: "W_xc_x_11"
  top: "gate_input_11"
  eltwise_param {
    operation: SUM
  }
}
layer {
  name: "lstm1_unit_11"
  type: "LSTMUnit"
  bottom: "c_10"
  bottom: "gate_input_11"
  bottom: "cont_11"
  top: "c_11"
  top: "h_11"
}
layer {
  name: "lstm1_h_conted_11"
  type: "Scale"
  bottom: "h_11"
  bottom: "cont_12"
  top: "h_conted_11"
  scale_param {
    axis: 0
  }
}
layer {
  name: "lstm1_transform_12"
  type: "InnerProduct"
  bottom: "h_conted_11"
  top: "W_hc_h_11"
  param {
    name: "W_hc"
  }
  inner_product_param {
    num_output: 2048
    bias_term: false
    weight_filler {
      type: "uniform"
      min: -0.01
      max: 0.01
    }
    axis: 2
  }
}
layer {
  name: "lstm1_gate_input_12"
  type: "Eltwise"
  bottom: "W_hc_h_11"
  bottom: "W_xc_x_12"
  top: "gate_input_12"
  eltwise_param {
    operation: SUM
  }
}
layer {
  name: "lstm1_unit_12"
  type: "LSTMUnit"
  bottom: "c_11"
  bottom: "gate_input_12"
  bottom: "cont_12"
  top: "c_12"
  top: "h_12"
}
layer {
  name: "lstm1_h_conted_12"
  type: "Scale"
  bottom: "h_12"
  bottom: "cont_13"
  top: "h_conted_12"
  scale_param {
    axis: 0
  }
}
layer {
  name: "lstm1_transform_13"
  type: "InnerProduct"
  bottom: "h_conted_12"
  top: "W_hc_h_12"
  param {
    name: "W_hc"
  }
  inner_product_param {
    num_output: 2048
    bias_term: false
    weight_filler {
      type: "uniform"
      min: -0.01
      max: 0.01
    }
    axis: 2
  }
}
layer {
  name: "lstm1_gate_input_13"
  type: "Eltwise"
  bottom: "W_hc_h_12"
  bottom: "W_xc_x_13"
  top: "gate_input_13"
  eltwise_param {
    operation: SUM
  }
}
layer {
  name: "lstm1_unit_13"
  type: "LSTMUnit"
  bottom: "c_12"
  bottom: "gate_input_13"
  bottom: "cont_13"
  top: "c_13"
  top: "h_13"
}
layer {
  name: "lstm1_h_conted_13"
  type: "Scale"
  bottom: "h_13"
  bottom: "cont_14"
  top: "h_conted_13"
  scale_param {
    axis: 0
  }
}
layer {
  name: "lstm1_transform_14"
  type: "InnerProduct"
  bottom: "h_conted_13"
  top: "W_hc_h_13"
  param {
    name: "W_hc"
  }
  inner_product_param {
    num_output: 2048
    bias_term: false
    weight_filler {
      type: "uniform"
      min: -0.01
      max: 0.01
    }
    axis: 2
  }
}
layer {
  name: "lstm1_gate_input_14"
  type: "Eltwise"
  bottom: "W_hc_h_13"
  bottom: "W_xc_x_14"
  top: "gate_input_14"
  eltwise_param {
    operation: SUM
  }
}
layer {
  name: "lstm1_unit_14"
  type: "LSTMUnit"
  bottom: "c_13"
  bottom: "gate_input_14"
  bottom: "cont_14"
  top: "c_14"
  top: "h_14"
}
layer {
  name: "lstm1_h_conted_14"
  type: "Scale"
  bottom: "h_14"
  bottom: "cont_15"
  top: "h_conted_14"
  scale_param {
    axis: 0
  }
}
layer {
  name: "lstm1_transform_15"
  type: "InnerProduct"
  bottom: "h_conted_14"
  top: "W_hc_h_14"
  param {
    name: "W_hc"
  }
  inner_product_param {
    num_output: 2048
    bias_term: false
    weight_filler {
      type: "uniform"
      min: -0.01
      max: 0.01
    }
    axis: 2
  }
}
layer {
  name: "lstm1_gate_input_15"
  type: "Eltwise"
  bottom: "W_hc_h_14"
  bottom: "W_xc_x_15"
  top: "gate_input_15"
  eltwise_param {
    operation: SUM
  }
}
layer {
  name: "lstm1_unit_15"
  type: "LSTMUnit"
  bottom: "c_14"
  bottom: "gate_input_15"
  bottom: "cont_15"
  top: "c_15"
  top: "h_15"
}
layer {
  name: "lstm1_h_conted_15"
  type: "Scale"
  bottom: "h_15"
  bottom: "cont_16"
  top: "h_conted_15"
  scale_param {
    axis: 0
  }
}
layer {
  name: "lstm1_transform_16"
  type: "InnerProduct"
  bottom: "h_conted_15"
  top: "W_hc_h_15"
  param {
    name: "W_hc"
  }
  inner_product_param {
    num_output: 2048
    bias_term: false
    weight_filler {
      type: "uniform"
      min: -0.01
      max: 0.01
    }
    axis: 2
  }
}
layer {
  name: "lstm1_gate_input_16"
  type: "Eltwise"
  bottom: "W_hc_h_15"
  bottom: "W_xc_x_16"
  top: "gate_input_16"
  eltwise_param {
    operation: SUM
  }
}
layer {
  name: "lstm1_unit_16"
  type: "LSTMUnit"
  bottom: "c_15"
  bottom: "gate_input_16"
  bottom: "cont_16"
  top: "c_16"
  top: "h_16"
}
layer {
  name: "lstm1_h_conted_16"
  type: "Scale"
  bottom: "h_16"
  bottom: "cont_17"
  top: "h_conted_16"
  scale_param {
    axis: 0
  }
}
layer {
  name: "lstm1_transform_17"
  type: "InnerProduct"
  bottom: "h_conted_16"
  top: "W_hc_h_16"
  param {
    name: "W_hc"
  }
  inner_product_param {
    num_output: 2048
    bias_term: false
    weight_filler {
      type: "uniform"
      min: -0.01
      max: 0.01
    }
    axis: 2
  }
}
layer {
  name: "lstm1_gate_input_17"
  type: "Eltwise"
  bottom: "W_hc_h_16"
  bottom: "W_xc_x_17"
  top: "gate_input_17"
  eltwise_param {
    operation: SUM
  }
}
layer {
  name: "lstm1_unit_17"
  type: "LSTMUnit"
  bottom: "c_16"
  bottom: "gate_input_17"
  bottom: "cont_17"
  top: "c_17"
  top: "h_17"
}
layer {
  name: "lstm1_h_conted_17"
  type: "Scale"
  bottom: "h_17"
  bottom: "cont_18"
  top: "h_conted_17"
  scale_param {
    axis: 0
  }
}
layer {
  name: "lstm1_transform_18"
  type: "InnerProduct"
  bottom: "h_conted_17"
  top: "W_hc_h_17"
  param {
    name: "W_hc"
  }
  inner_product_param {
    num_output: 2048
    bias_term: false
    weight_filler {
      type: "uniform"
      min: -0.01
      max: 0.01
    }
    axis: 2
  }
}
layer {
  name: "lstm1_gate_input_18"
  type: "Eltwise"
  bottom: "W_hc_h_17"
  bottom: "W_xc_x_18"
  top: "gate_input_18"
  eltwise_param {
    operation: SUM
  }
}
layer {
  name: "lstm1_unit_18"
  type: "LSTMUnit"
  bottom: "c_17"
  bottom: "gate_input_18"
  bottom: "cont_18"
  top: "c_18"
  top: "h_18"
}
layer {
  name: "lstm1_h_conted_18"
  type: "Scale"
  bottom: "h_18"
  bottom: "cont_19"
  top: "h_conted_18"
  scale_param {
    axis: 0
  }
}
layer {
  name: "lstm1_transform_19"
  type: "InnerProduct"
  bottom: "h_conted_18"
  top: "W_hc_h_18"
  param {
    name: "W_hc"
  }
  inner_product_param {
    num_output: 2048
    bias_term: false
    weight_filler {
      type: "uniform"
      min: -0.01
      max: 0.01
    }
    axis: 2
  }
}
layer {
  name: "lstm1_gate_input_19"
  type: "Eltwise"
  bottom: "W_hc_h_18"
  bottom: "W_xc_x_19"
  top: "gate_input_19"
  eltwise_param {
    operation: SUM
  }
}
layer {
  name: "lstm1_unit_19"
  type: "LSTMUnit"
  bottom: "c_18"
  bottom: "gate_input_19"
  bottom: "cont_19"
  top: "c_19"
  top: "h_19"
}
layer {
  name: "lstm1_h_conted_19"
  type: "Scale"
  bottom: "h_19"
  bottom: "cont_20"
  top: "h_conted_19"
  scale_param {
    axis: 0
  }
}
layer {
  name: "lstm1_transform_20"
  type: "InnerProduct"
  bottom: "h_conted_19"
  top: "W_hc_h_19"
  param {
    name: "W_hc"
  }
  inner_product_param {
    num_output: 2048
    bias_term: false
    weight_filler {
      type: "uniform"
      min: -0.01
      max: 0.01
    }
    axis: 2
  }
}
layer {
  name: "lstm1_gate_input_20"
  type: "Eltwise"
  bottom: "W_hc_h_19"
  bottom: "W_xc_x_20"
  top: "gate_input_20"
  eltwise_param {
    operation: SUM
  }
}
layer {
  name: "lstm1_unit_20"
  type: "LSTMUnit"
  bottom: "c_19"
  bottom: "gate_input_20"
  bottom: "cont_20"
  top: "c_20"
  top: "h_20"
}
layer {
  name: "lstm1_h_conted_20"
  type: "Scale"
  bottom: "h_20"
  bottom: "cont_21"
  top: "h_conted_20"
  scale_param {
    axis: 0
  }
}
layer {
  name: "lstm1_transform_21"
  type: "InnerProduct"
  bottom: "h_conted_20"
  top: "W_hc_h_20"
  param {
    name: "W_hc"
  }
  inner_product_param {
    num_output: 2048
    bias_term: false
    weight_filler {
      type: "uniform"
      min: -0.01
      max: 0.01
    }
    axis: 2
  }
}
layer {
  name: "lstm1_gate_input_21"
  type: "Eltwise"
  bottom: "W_hc_h_20"
  bottom: "W_xc_x_21"
  top: "gate_input_21"
  eltwise_param {
    operation: SUM
  }
}
layer {
  name: "lstm1_unit_21"
  type: "LSTMUnit"
  bottom: "c_20"
  bottom: "gate_input_21"
  bottom: "cont_21"
  top: "c_21"
  top: "h_21"
}
layer {
  name: "lstm1_h_conted_21"
  type: "Scale"
  bottom: "h_21"
  bottom: "cont_22"
  top: "h_conted_21"
  scale_param {
    axis: 0
  }
}
layer {
  name: "lstm1_transform_22"
  type: "InnerProduct"
  bottom: "h_conted_21"
  top: "W_hc_h_21"
  param {
    name: "W_hc"
  }
  inner_product_param {
    num_output: 2048
    bias_term: false
    weight_filler {
      type: "uniform"
      min: -0.01
      max: 0.01
    }
    axis: 2
  }
}
layer {
  name: "lstm1_gate_input_22"
  type: "Eltwise"
  bottom: "W_hc_h_21"
  bottom: "W_xc_x_22"
  top: "gate_input_22"
  eltwise_param {
    operation: SUM
  }
}
layer {
  name: "lstm1_unit_22"
  type: "LSTMUnit"
  bottom: "c_21"
  bottom: "gate_input_22"
  bottom: "cont_22"
  top: "c_22"
  top: "h_22"
}
layer {
  name: "lstm1_h_conted_22"
  type: "Scale"
  bottom: "h_22"
  bottom: "cont_23"
  top: "h_conted_22"
  scale_param {
    axis: 0
  }
}
layer {
  name: "lstm1_transform_23"
  type: "InnerProduct"
  bottom: "h_conted_22"
  top: "W_hc_h_22"
  param {
    name: "W_hc"
  }
  inner_product_param {
    num_output: 2048
    bias_term: false
    weight_filler {
      type: "uniform"
      min: -0.01
      max: 0.01
    }
    axis: 2
  }
}
layer {
  name: "lstm1_gate_input_23"
  type: "Eltwise"
  bottom: "W_hc_h_22"
  bottom: "W_xc_x_23"
  top: "gate_input_23"
  eltwise_param {
    operation: SUM
  }
}
layer {
  name: "lstm1_unit_23"
  type: "LSTMUnit"
  bottom: "c_22"
  bottom: "gate_input_23"
  bottom: "cont_23"
  top: "c_23"
  top: "h_23"
}
layer {
  name: "lstm1_h_conted_23"
  type: "Scale"
  bottom: "h_23"
  bottom: "cont_24"
  top: "h_conted_23"
  scale_param {
    axis: 0
  }
}
layer {
  name: "lstm1_transform_24"
  type: "InnerProduct"
  bottom: "h_conted_23"
  top: "W_hc_h_23"
  param {
    name: "W_hc"
  }
  inner_product_param {
    num_output: 2048
    bias_term: false
    weight_filler {
      type: "uniform"
      min: -0.01
      max: 0.01
    }
    axis: 2
  }
}
layer {
  name: "lstm1_gate_input_24"
  type: "Eltwise"
  bottom: "W_hc_h_23"
  bottom: "W_xc_x_24"
  top: "gate_input_24"
  eltwise_param {
    operation: SUM
  }
}
layer {
  name: "lstm1_unit_24"
  type: "LSTMUnit"
  bottom: "c_23"
  bottom: "gate_input_24"
  bottom: "cont_24"
  top: "c_24"
  top: "h_24"
}
layer {
  name: "lstm1_h_conted_24"
  type: "Scale"
  bottom: "h_24"
  bottom: "cont_25"
  top: "h_conted_24"
  scale_param {
    axis: 0
  }
}
layer {
  name: "lstm1_transform_25"
  type: "InnerProduct"
  bottom: "h_conted_24"
  top: "W_hc_h_24"
  param {
    name: "W_hc"
  }
  inner_product_param {
    num_output: 2048
    bias_term: false
    weight_filler {
      type: "uniform"
      min: -0.01
      max: 0.01
    }
    axis: 2
  }
}
layer {
  name: "lstm1_gate_input_25"
  type: "Eltwise"
  bottom: "W_hc_h_24"
  bottom: "W_xc_x_25"
  top: "gate_input_25"
  eltwise_param {
    operation: SUM
  }
}
layer {
  name: "lstm1_unit_25"
  type: "LSTMUnit"
  bottom: "c_24"
  bottom: "gate_input_25"
  bottom: "cont_25"
  top: "c_25"
  top: "h_25"
}
layer {
  name: "lstm1_h_conted_25"
  type: "Scale"
  bottom: "h_25"
  bottom: "cont_26"
  top: "h_conted_25"
  scale_param {
    axis: 0
  }
}
layer {
  name: "lstm1_transform_26"
  type: "InnerProduct"
  bottom: "h_conted_25"
  top: "W_hc_h_25"
  param {
    name: "W_hc"
  }
  inner_product_param {
    num_output: 2048
    bias_term: false
    weight_filler {
      type: "uniform"
      min: -0.01
      max: 0.01
    }
    axis: 2
  }
}
layer {
  name: "lstm1_gate_input_26"
  type: "Eltwise"
  bottom: "W_hc_h_25"
  bottom: "W_xc_x_26"
  top: "gate_input_26"
  eltwise_param {
    operation: SUM
  }
}
layer {
  name: "lstm1_unit_26"
  type: "LSTMUnit"
  bottom: "c_25"
  bottom: "gate_input_26"
  bottom: "cont_26"
  top: "c_26"
  top: "h_26"
}
layer {
  name: "lstm1_h_conted_26"
  type: "Scale"
  bottom: "h_26"
  bottom: "cont_27"
  top: "h_conted_26"
  scale_param {
    axis: 0
  }
}
layer {
  name: "lstm1_transform_27"
  type: "InnerProduct"
  bottom: "h_conted_26"
  top: "W_hc_h_26"
  param {
    name: "W_hc"
  }
  inner_product_param {
    num_output: 2048
    bias_term: false
    weight_filler {
      type: "uniform"
      min: -0.01
      max: 0.01
    }
    axis: 2
  }
}
layer {
  name: "lstm1_gate_input_27"
  type: "Eltwise"
  bottom: "W_hc_h_26"
  bottom: "W_xc_x_27"
  top: "gate_input_27"
  eltwise_param {
    operation: SUM
  }
}
layer {
  name: "lstm1_unit_27"
  type: "LSTMUnit"
  bottom: "c_26"
  bottom: "gate_input_27"
  bottom: "cont_27"
  top: "c_27"
  top: "h_27"
}
layer {
  name: "lstm1_h_conted_27"
  type: "Scale"
  bottom: "h_27"
  bottom: "cont_28"
  top: "h_conted_27"
  scale_param {
    axis: 0
  }
}
layer {
  name: "lstm1_transform_28"
  type: "InnerProduct"
  bottom: "h_conted_27"
  top: "W_hc_h_27"
  param {
    name: "W_hc"
  }
  inner_product_param {
    num_output: 2048
    bias_term: false
    weight_filler {
      type: "uniform"
      min: -0.01
      max: 0.01
    }
    axis: 2
  }
}
layer {
  name: "lstm1_gate_input_28"
  type: "Eltwise"
  bottom: "W_hc_h_27"
  bottom: "W_xc_x_28"
  top: "gate_input_28"
  eltwise_param {
    operation: SUM
  }
}
layer {
  name: "lstm1_unit_28"
  type: "LSTMUnit"
  bottom: "c_27"
  bottom: "gate_input_28"
  bottom: "cont_28"
  top: "c_28"
  top: "h_28"
}
layer {
  name: "lstm1_h_conted_28"
  type: "Scale"
  bottom: "h_28"
  bottom: "cont_29"
  top: "h_conted_28"
  scale_param {
    axis: 0
  }
}
layer {
  name: "lstm1_transform_29"
  type: "InnerProduct"
  bottom: "h_conted_28"
  top: "W_hc_h_28"
  param {
    name: "W_hc"
  }
  inner_product_param {
    num_output: 2048
    bias_term: false
    weight_filler {
      type: "uniform"
      min: -0.01
      max: 0.01
    }
    axis: 2
  }
}
layer {
  name: "lstm1_gate_input_29"
  type: "Eltwise"
  bottom: "W_hc_h_28"
  bottom: "W_xc_x_29"
  top: "gate_input_29"
  eltwise_param {
    operation: SUM
  }
}
layer {
  name: "lstm1_unit_29"
  type: "LSTMUnit"
  bottom: "c_28"
  bottom: "gate_input_29"
  bottom: "cont_29"
  top: "c_29"
  top: "h_29"
}
layer {
  name: "lstm1_h_conted_29"
  type: "Scale"
  bottom: "h_29"
  bottom: "cont_30"
  top: "h_conted_29"
  scale_param {
    axis: 0
  }
}
layer {
  name: "lstm1_transform_30"
  type: "InnerProduct"
  bottom: "h_conted_29"
  top: "W_hc_h_29"
  param {
    name: "W_hc"
  }
  inner_product_param {
    num_output: 2048
    bias_term: false
    weight_filler {
      type: "uniform"
      min: -0.01
      max: 0.01
    }
    axis: 2
  }
}
layer {
  name: "lstm1_gate_input_30"
  type: "Eltwise"
  bottom: "W_hc_h_29"
  bottom: "W_xc_x_30"
  top: "gate_input_30"
  eltwise_param {
    operation: SUM
  }
}
layer {
  name: "lstm1_unit_30"
  type: "LSTMUnit"
  bottom: "c_29"
  bottom: "gate_input_30"
  bottom: "cont_30"
  top: "c_30"
  top: "h_30"
}
layer {
  name: "lstm1_h_conted_30"
  type: "Scale"
  bottom: "h_30"
  bottom: "cont_31"
  top: "h_conted_30"
  scale_param {
    axis: 0
  }
}
layer {
  name: "lstm1_transform_31"
  type: "InnerProduct"
  bottom: "h_conted_30"
  top: "W_hc_h_30"
  param {
    name: "W_hc"
  }
  inner_product_param {
    num_output: 2048
    bias_term: false
    weight_filler {
      type: "uniform"
      min: -0.01
      max: 0.01
    }
    axis: 2
  }
}
layer {
  name: "lstm1_gate_input_31"
  type: "Eltwise"
  bottom: "W_hc_h_30"
  bottom: "W_xc_x_31"
  top: "gate_input_31"
  eltwise_param {
    operation: SUM
  }
}
layer {
  name: "lstm1_unit_31"
  type: "LSTMUnit"
  bottom: "c_30"
  bottom: "gate_input_31"
  bottom: "cont_31"
  top: "c_31"
  top: "h_31"
}
layer {
  name: "lstm1_h_conted_31"
  type: "Scale"
  bottom: "h_31"
  bottom: "cont_32"
  top: "h_conted_31"
  scale_param {
    axis: 0
  }
}
layer {
  name: "lstm1_transform_32"
  type: "InnerProduct"
  bottom: "h_conted_31"
  top: "W_hc_h_31"
  param {
    name: "W_hc"
  }
  inner_product_param {
    num_output: 2048
    bias_term: false
    weight_filler {
      type: "uniform"
      min: -0.01
      max: 0.01
    }
    axis: 2
  }
}
layer {
  name: "lstm1_gate_input_32"
  type: "Eltwise"
  bottom: "W_hc_h_31"
  bottom: "W_xc_x_32"
  top: "gate_input_32"
  eltwise_param {
    operation: SUM
  }
}
layer {
  name: "lstm1_unit_32"
  type: "LSTMUnit"
  bottom: "c_31"
  bottom: "gate_input_32"
  bottom: "cont_32"
  top: "c_32"
  top: "h_32"
}
layer {
  name: "lstm1_h_conted_32"
  type: "Scale"
  bottom: "h_32"
  bottom: "cont_33"
  top: "h_conted_32"
  scale_param {
    axis: 0
  }
}
layer {
  name: "lstm1_transform_33"
  type: "InnerProduct"
  bottom: "h_conted_32"
  top: "W_hc_h_32"
  param {
    name: "W_hc"
  }
  inner_product_param {
    num_output: 2048
    bia
I1017 11:44:05.270545 26047 layer_factory.hpp:77] Creating layer lstm1_
I1017 11:44:05.270572 26047 net.cpp:84] Creating Layer lstm1_
I1017 11:44:05.270581 26047 net.cpp:380] lstm1_ -> x
I1017 11:44:05.270596 26047 net.cpp:380] lstm1_ -> cont
I1017 11:44:05.270648 26047 net.cpp:122] Setting up lstm1_
I1017 11:44:05.270658 26047 net.cpp:129] Top shape: 128 5 196 (125440)
I1017 11:44:05.270663 26047 net.cpp:129] Top shape: 128 5 (640)
I1017 11:44:05.270668 26047 net.cpp:137] Memory required for data: 504320
I1017 11:44:05.270673 26047 layer_factory.hpp:77] Creating layer lstm1_
I1017 11:44:05.270680 26047 net.cpp:84] Creating Layer lstm1_
I1017 11:44:05.270686 26047 net.cpp:380] lstm1_ -> c_0
I1017 11:44:05.270695 26047 net.cpp:380] lstm1_ -> h_0
I1017 11:44:05.270732 26047 net.cpp:122] Setting up lstm1_
I1017 11:44:05.270742 26047 net.cpp:129] Top shape: 1 5 512 (2560)
I1017 11:44:05.270747 26047 net.cpp:129] Top shape: 1 5 512 (2560)
I1017 11:44:05.270752 26047 net.cpp:137] Memory required for data: 524800
I1017 11:44:05.270756 26047 layer_factory.hpp:77] Creating layer lstm1_cont_slice
I1017 11:44:05.270776 26047 net.cpp:84] Creating Layer lstm1_cont_slice
I1017 11:44:05.270783 26047 net.cpp:406] lstm1_cont_slice <- cont
I1017 11:44:05.270797 26047 net.cpp:380] lstm1_cont_slice -> cont_1
I1017 11:44:05.270820 26047 net.cpp:380] lstm1_cont_slice -> cont_2
…
I1017 11:44:05.273200 26047 net.cpp:380] lstm1_cont_slice -> cont_122
I1017 11:44:05.273219 26047 net.cpp:380] lstm1_cont_slice -> cont_123
I1017 11:44:05.273238 26047 net.cpp:380] lstm1_cont_slice -> cont_124
I1017 11:44:05.273258 26047 net.cpp:380] lstm1_cont_slice -> cont_125
I1017 11:44:05.273284 26047 net.cpp:380] lstm1_cont_slice -> cont_126
I1017 11:44:05.273304 26047 net.cpp:380] lstm1_cont_slice -> cont_127
I1017 11:44:05.273324 26047 net.cpp:380] lstm1_cont_slice -> cont_128
I1017 11:44:05.274639 26047 net.cpp:122] Setting up lstm1_cont_slice
I1017 11:44:05.274651 26047 net.cpp:129] Top shape: 1 5 (5)
I1017 11:44:05.274657 26047 net.cpp:129] Top shape: 1 5 (5)
I1017 11:44:05.274662 26047 net.cpp:129] Top shape: 1 5 (5)
I1017 11:44:05.274667 26047 net.cpp:129] Top shape: 1 5 (5)
I1017 11:44:05.274672 26047 net.cpp:129] Top shape: 1 5 (5)
I1017 11:44:05.274677 26047 net.cpp:129] Top shape: 1 5 (5)
I1017 11:44:05.274682 26047 net.cpp:129] Top shape: 1 5 (5)
I1017 11:44:05.274688 26047 net.cpp:129] Top shape: 1 5 (5)
I1017 11:44:05.274693 26047 net.cpp:129] Top shape: 1 5 (5)
I1017 11:44:05.274698 26047 net.cpp:129] Top shape: 1 5 (5)
I1017 11:44:05.274703 26047 net.cpp:129] Top shape: 1 5 (5)
I1017 11:44:05.274708 26047 net.cpp:129] Top shape: 1 5 (5)
I1017 11:44:05.274713 26047 net.cpp:129] Top shape: 1 5 (5)
I1017 11:44:05.274718 26047 net.cpp:129] Top shape: 1 5 (5)
I1017 11:44:05.274724 26047 net.cpp:129] Top shape: 1 5 (5)
I1017 11:44:05.274729 26047 net.cpp:129] Top shape: 1 5 (5)
I1017 11:44:05.274734 26047 net.cpp:129] Top shape: 1 5 (5)
I1017 11:44:05.274739 26047 net.cpp:129] Top shape: 1 5 (5)
I1017 11:44:05.274744 26047 net.cpp:129] Top shape: 1 5 (5)
I1017 11:44:05.274749 26047 net.cpp:129] Top shape: 1 5 (5)
I1017 11:44:05.274754 26047 net.cpp:129] Top shape: 1 5 (5)
I1017 11:44:05.274758 26047 net.cpp:129] Top shape: 1 5 (5)
I1017 11:44:05.274763 26047 net.cpp:129] Top shape: 1 5 (5)
I1017 11:44:05.274768 26047 net.cpp:129] Top shape: 1 5 (5)
I1017 11:44:05.274773 26047 net.cpp:129] Top shape: 1 5 (5)
I1017 11:44:05.274778 26047 net.cpp:129] Top shape: 1 5 (5)
I1017 11:44:05.274783 26047 net.cpp:129] Top shape: 1 5 (5)
I1017 11:44:05.274788 26047 net.cpp:129] Top shape: 1 5 (5)
I1017 11:44:05.274793 26047 net.cpp:129] Top shape: 1 5 (5)
I1017 11:44:05.274798 26047 net.cpp:129] Top shape: 1 5 (5)
I1017 11:44:05.274804 26047 net.cpp:129] Top shape: 1 5 (5)
I1017 11:44:05.274808 26047 net.cpp:129] Top shape: 1 5 (5)
I1017 11:44:05.274813 26047 net.cpp:129] Top shape: 1 5 (5)
I1017 11:44:05.274818 26047 net.cpp:129] Top shape: 1 5 (5)
I1017 11:44:05.274823 26047 net.cpp:129] Top shape: 1 5 (5)
I1017 11:44:05.274828 26047 net.cpp:129] Top shape: 1 5 (5)
I1017 11:44:05.274833 26047 net.cpp:129] Top shape: 1 5 (5)
I1017 11:44:05.274838 26047 net.cpp:129] Top shape: 1 5 (5)
I1017 11:44:05.274843 26047 net.cpp:129] Top shape: 1 5 (5)
I1017 11:44:05.274848 26047 net.cpp:129] Top shape: 1 5 (5)
I1017 11:44:05.274853 26047 net.cpp:129] Top shape: 1 5 (5)
I1017 11:44:05.274858 26047 net.cpp:129] Top shape: 1 5 (5)
I1017 11:44:05.274863 26047 net.cpp:129] Top shape: 1 5 (5)
I1017 11:44:05.274868 26047 net.cpp:129] Top shape: 1 5 (5)
I1017 11:44:05.274873 26047 net.cpp:129] Top shape: 1 5 (5)
I1017 11:44:05.274878 26047 net.cpp:129] Top shape: 1 5 (5)
I1017 11:44:05.274883 26047 net.cpp:129] Top shape: 1 5 (5)
I1017 11:44:05.274888 26047 net.cpp:129] Top shape: 1 5 (5)
I1017 11:44:05.274893 26047 net.cpp:129] Top shape: 1 5 (5)
I1017 11:44:05.274899 26047 net.cpp:129] Top shape: 1 5 (5)
I1017 11:44:05.274904 26047 net.cpp:129] Top shape: 1 5 (5)
I1017 11:44:05.274909 26047 net.cpp:129] Top shape: 1 5 (5)
I1017 11:44:05.274914 26047 net.cpp:129] Top shape: 1 5 (5)
I1017 11:44:05.274919 26047 net.cpp:129] Top shape: 1 5 (5)
I1017 11:44:05.274922 26047 net.cpp:129] Top shape: 1 5 (5)
I1017 11:44:05.274927 26047 net.cpp:129] Top shape: 1 5 (5)
I1017 11:44:05.274932 26047 net.cpp:129] Top shape: 1 5 (5)
I1017 11:44:05.274937 26047 net.cpp:129] Top shape: 1 5 (5)
I1017 11:44:05.274942 26047 net.cpp:129] Top shape: 1 5 (5)
I1017 11:44:05.274947 26047 net.cpp:129] Top shape: 1 5 (5)
I1017 11:44:05.274953 26047 net.cpp:129] Top shape: 1 5 (5)
I1017 11:44:05.274958 26047 net.cpp:129] Top shape: 1 5 (5)
I1017 11:44:05.274967 26047 net.cpp:129] Top shape: 1 5 (5)
I1017 11:44:05.274972 26047 net.cpp:129] Top shape: 1 5 (5)
I1017 11:44:05.274977 26047 net.cpp:129] Top shape: 1 5 (5)
I1017 11:44:05.274982 26047 net.cpp:129] Top shape: 1 5 (5)
I1017 11:44:05.274987 26047 net.cpp:129] Top shape: 1 5 (5)
I1017 11:44:05.274992 26047 net.cpp:129] Top shape: 1 5 (5)
I1017 11:44:05.274997 26047 net.cpp:129] Top shape: 1 5 (5)
I1017 11:44:05.275002 26047 net.cpp:129] Top shape: 1 5 (5)
I1017 11:44:05.275007 26047 net.cpp:129] Top shape: 1 5 (5)
I1017 11:44:05.275012 26047 net.cpp:129] Top shape: 1 5 (5)
I1017 11:44:05.275017 26047 net.cpp:129] Top shape: 1 5 (5)
I1017 11:44:05.275022 26047 net.cpp:129] Top shape: 1 5 (5)
I1017 11:44:05.275027 26047 net.cpp:129] Top shape: 1 5 (5)
I1017 11:44:05.275032 26047 net.cpp:129] Top shape: 1 5 (5)
I1017 11:44:05.275037 26047 net.cpp:129] Top shape: 1 5 (5)
I1017 11:44:05.275041 26047 net.cpp:129] Top shape: 1 5 (5)
I1017 11:44:05.275046 26047 net.cpp:129] Top shape: 1 5 (5)
I1017 11:44:05.275051 26047 net.cpp:129] Top shape: 1 5 (5)
I1017 11:44:05.275058 26047 net.cpp:129] Top shape: 1 5 (5)
I1017 11:44:05.275063 26047 net.cpp:129] Top shape: 1 5 (5)
I1017 11:44:05.275068 26047 net.cpp:129] Top shape: 1 5 (5)
I1017 11:44:05.275072 26047 net.cpp:129] Top shape: 1 5 (5)
I1017 11:44:05.275077 26047 net.cpp:129] Top shape: 1 5 (5)
I1017 11:44:05.275082 26047 net.cpp:129] Top shape: 1 5 (5)
I1017 11:44:05.275087 26047 net.cpp:129] Top shape: 1 5 (5)
I1017 11:44:05.275092 26047 net.cpp:129] Top shape: 1 5 (5)
I1017 11:44:05.275097 26047 net.cpp:129] Top shape: 1 5 (5)
I1017 11:44:05.275102 26047 net.cpp:129] Top shape: 1 5 (5)
I1017 11:44:05.275107 26047 net.cpp:129] Top shape: 1 5 (5)
I1017 11:44:05.275112 26047 net.cpp:129] Top shape: 1 5 (5)
I1017 11:44:05.275117 26047 net.cpp:129] Top shape: 1 5 (5)
I1017 11:44:05.275122 26047 net.cpp:129] Top shape: 1 5 (5)
I1017 11:44:05.275127 26047 net.cpp:129] Top shape: 1 5 (5)
I1017 11:44:05.275132 26047 net.cpp:129] Top shape: 1 5 (5)
I1017 11:44:05.275137 26047 net.cpp:129] Top shape: 1 5 (5)
I1017 11:44:05.275142 26047 net.cpp:129] Top shape: 1 5 (5)
I1017 11:44:05.275147 26047 net.cpp:129] Top shape: 1 5 (5)
I1017 11:44:05.275152 26047 net.cpp:129] Top shape: 1 5 (5)
I1017 11:44:05.275157 26047 net.cpp:129] Top shape: 1 5 (5)
I1017 11:44:05.275162 26047 net.cpp:129] Top shape: 1 5 (5)
I1017 11:44:05.275167 26047 net.cpp:129] Top shape: 1 5 (5)
I1017 11:44:05.275172 26047 net.cpp:129] Top shape: 1 5 (5)
I1017 11:44:05.275177 26047 net.cpp:129] Top shape: 1 5 (5)
I1017 11:44:05.275182 26047 net.cpp:129] Top shape: 1 5 (5)
I1017 11:44:05.275187 26047 net.cpp:129] Top shape: 1 5 (5)
I1017 11:44:05.275192 26047 net.cpp:129] Top shape: 1 5 (5)
I1017 11:44:05.275197 26047 net.cpp:129] Top shape: 1 5 (5)
I1017 11:44:05.275202 26047 net.cpp:129] Top shape: 1 5 (5)
I1017 11:44:05.275207 26047 net.cpp:129] Top shape: 1 5 (5)
I1017 11:44:05.275213 26047 net.cpp:129] Top shape: 1 5 (5)
I1017 11:44:05.275218 26047 net.cpp:129] Top shape: 1 5 (5)
I1017 11:44:05.275223 26047 net.cpp:129] Top shape: 1 5 (5)
I1017 11:44:05.275228 26047 net.cpp:129] Top shape: 1 5 (5)
I1017 11:44:05.275233 26047 net.cpp:129] Top shape: 1 5 (5)
I1017 11:44:05.275238 26047 net.cpp:129] Top shape: 1 5 (5)
I1017 11:44:05.275243 26047 net.cpp:129] Top shape: 1 5 (5)
I1017 11:44:05.275248 26047 net.cpp:129] Top shape: 1 5 (5)
I1017 11:44:05.275252 26047 net.cpp:129] Top shape: 1 5 (5)
I1017 11:44:05.275257 26047 net.cpp:129] Top shape: 1 5 (5)
I1017 11:44:05.275262 26047 net.cpp:129] Top shape: 1 5 (5)
I1017 11:44:05.275267 26047 net.cpp:129] Top shape: 1 5 (5)
I1017 11:44:05.275272 26047 net.cpp:129] Top shape: 1 5 (5)
I1017 11:44:05.275279 26047 net.cpp:129] Top shape: 1 5 (5)
I1017 11:44:05.275283 26047 net.cpp:129] Top shape: 1 5 (5)
I1017 11:44:05.275288 26047 net.cpp:129] Top shape: 1 5 (5)
I1017 11:44:05.275293 26047 net.cpp:129] Top shape: 1 5 (5)
I1017 11:44:05.275297 26047 net.cpp:137] Memory required for data: 527360
I1017 11:44:05.275302 26047 layer_factory.hpp:77] Creating layer cont_1_lstm1_cont_slice_0_split
I1017 11:44:05.275312 26047 net.cpp:84] Creating Layer cont_1_lstm1_cont_slice_0_split
I1017 11:44:05.275317 26047 net.cpp:406] cont_1_lstm1_cont_slice_0_split <- cont_1
I1017 11:44:05.275324 26047 net.cpp:380] cont_1_lstm1_cont_slice_0_split -> cont_1_lstm1_cont_slice_0_split_0
I1017 11:44:05.275333 26047 net.cpp:380] cont_1_lstm1_cont_slice_0_split -> cont_1_lstm1_cont_slice_0_split_1
I1017 11:44:05.275372 26047 net.cpp:122] Setting up cont_1_lstm1_cont_slice_0_split
I1017 11:44:05.275379 26047 net.cpp:129] Top shape: 1 5 (5)
I1017 11:44:05.275385 26047 net.cpp:129] Top shape: 1 5 (5)
I1017 11:44:05.275389 26047 net.cpp:137] Memory required for data: 527400
I1017 11:44:05.275393 26047 layer_factory.hpp:77] Creating layer cont_2_lstm1_cont_slice_1_split
I1017 11:44:05.275400 26047 net.cpp:84] Creating Layer cont_2_lstm1_cont_slice_1_split
I1017 11:44:05.275408 26047 net.cpp:406] cont_2_lstm1_cont_slice_1_split <- cont_2
I1017 11:44:05.275413 26047 net.cpp:380] cont_2_lstm1_cont_slice_1_split -> cont_2_lstm1_cont_slice_1_split_0
I1017 11:44:05.275421 26047 net.cpp:380] cont_2_lstm1_cont_slice_1_split -> cont_2_lstm1_cont_slice_1_split_1
I1017 11:44:05.275454 26047 net.cpp:122] Setting up cont_2_lstm1_cont_slice_1_split
I1017 11:44:05.275462 26047 net.cpp:129] Top shape: 1 5 (5)
I1017 11:44:05.275467 26047 net.cpp:129] Top shape: 1 5 (5)
I1017 11:44:05.275472 26047 net.cpp:137] Memory required for data: 527440
I1017 11:44:05.275476 26047 layer_factory.hpp:77] Creating layer cont_3_lstm1_cont_slice_2_split
I1017 11:44:05.275482 26047 net.cpp:84] Creating Layer cont_3_lstm1_cont_slice_2_split
I1017 11:44:05.275486 26047 net.cpp:406] cont_3_lstm1_cont_slice_2_split <- cont_3
I1017 11:44:05.275493 26047 net.cpp:380] cont_3_lstm1_cont_slice_2_split -> cont_3_lstm1_cont_slice_2_split_0
I1017 11:44:05.275501 26047 net.cpp:380] cont_3_lstm1_cont_slice_2_split -> cont_3_lstm1_cont_slice_2_split_1
I1017 11:44:05.275533 26047 net.cpp:122] Setting up cont_3_lstm1_cont_slice_2_split
I1017 11:44:05.275542 26047 net.cpp:129] Top shape: 1 5 (5)
I1017 11:44:05.275547 26047 net.cpp:129] Top shape: 1 5 (5)
I1017 11:44:05.275550 26047 net.cpp:137] Memory required for data: 527480
I1017 11:44:05.275555 26047 layer_factory.hpp:77] Creating layer cont_4_lstm1_cont_slice_3_split
I1017 11:44:05.275560 26047 net.cpp:84] Creating Layer cont_4_lstm1_cont_slice_3_split
I1017 11:44:05.275565 26047 net.cpp:406] cont_4_lstm1_cont_slice_3_split <- cont_4
I1017 11:44:05.275573 26047 net.cpp:380] cont_4_lstm1_cont_slice_3_split -> cont_4_lstm1_cont_slice_3_split_0
I1017 11:44:05.275580 26047 net.cpp:380] cont_4_lstm1_cont_slice_3_split -> cont_4_lstm1_cont_slice_3_split_1
I1017 11:44:05.275611 26047 net.cpp:122] Setting up cont_4_lstm1_cont_slice_3_split
I1017 11:44:05.275621 26047 net.cpp:129] Top shape: 1 5 (5)
I1017 11:44:05.275626 26047 net.cpp:129] Top shape: 1 5 (5)
I1017 11:44:05.275631 26047 net.cpp:137] Memory required for data: 527520
I1017 11:44:05.275635 26047 layer_factory.hpp:77] Creating layer cont_5_lstm1_cont_slice_4_split
I1017 11:44:05.275640 26047 net.cpp:84] Creating Layer cont_5_lstm1_cont_slice_4_split
I1017 11:44:05.275645 26047 net.cpp:406] cont_5_lstm1_cont_slice_4_split <- cont_5
I1017 11:44:05.275653 26047 net.cpp:380] cont_5_lstm1_cont_slice_4_split -> cont_5_lstm1_cont_slice_4_split_0
I1017 11:44:05.275661 26047 net.cpp:380] cont_5_lstm1_cont_slice_4_split -> cont_5_lstm1_cont_slice_4_split_1
I1017 11:44:05.275691 26047 net.cpp:122] Setting up cont_5_lstm1_cont_slice_4_split
I1017 11:44:05.275699 26047 net.cpp:129] Top shape: 1 5 (5)
I1017 11:44:05.275704 26047 net.cpp:129] Top shape: 1 5 (5)
I1017 11:44:05.275708 26047 net.cpp:137] Memory required for data: 527560
I1017 11:44:05.275713 26047 layer_factory.hpp:77] Creating layer cont_6_lstm1_cont_slice_5_split
I1017 11:44:05.275719 26047 net.cpp:84] Creating Layer cont_6_lstm1_cont_slice_5_split
I1017 11:44:05.275724 26047 net.cpp:406] cont_6_lstm1_cont_slice_5_split <- cont_6
I1017 11:44:05.275730 26047 net.cpp:380] cont_6_lstm1_cont_slice_5_split -> cont_6_lstm1_cont_slice_5_split_0
I1017 11:44:05.275738 26047 net.cpp:380] cont_6_lstm1_cont_slice_5_split -> cont_6_lstm1_cont_slice_5_split_1
I1017 11:44:05.275768 26047 net.cpp:122] Setting up cont_6_lstm1_cont_slice_5_split
I1017 11:44:05.275775 26047 net.cpp:129] Top shape: 1 5 (5)
I1017 11:44:05.275781 26047 net.cpp:129] Top shape: 1 5 (5)
I1017 11:44:05.275785 26047 net.cpp:137] Memory required for data: 527600
I1017 11:44:05.275789 26047 layer_factory.hpp:77] Creating layer cont_7_lstm1_cont_slice_6_split
I1017 11:44:05.275794 26047 net.cpp:84] Creating Layer cont_7_lstm1_cont_slice_6_split
I1017 11:44:05.275799 26047 net.cpp:406] cont_7_lstm1_cont_slice_6_split <- cont_7
I1017 11:44:05.275807 26047 net.cpp:380] cont_7_lstm1_cont_slice_6_split -> cont_7_lstm1_cont_slice_6_split_0
I1017 11:44:05.275815 26047 net.cpp:380] cont_7_lstm1_cont_slice_6_split -> cont_7_lstm1_cont_slice_6_split_1
I1017 11:44:05.275843 26047 net.cpp:122] Setting up cont_7_lstm1_cont_slice_6_split
I1017 11:44:05.275851 26047 net.cpp:129] Top shape: 1 5 (5)
I1017 11:44:05.275856 26047 net.cpp:129] Top shape: 1 5 (5)
I1017 11:44:05.275861 26047 net.cpp:137] Memory required for data: 527640
I1017 11:44:05.275864 26047 layer_factory.hpp:77] Creating layer cont_8_lstm1_cont_slice_7_split
I1017 11:44:05.275871 26047 net.cpp:84] Creating Layer cont_8_lstm1_cont_slice_7_split
I1017 11:44:05.275876 26047 net.cpp:406] cont_8_lstm1_cont_slice_7_split <- cont_8
I1017 11:44:05.275882 26047 net.cpp:380] cont_8_lstm1_cont_slice_7_split -> cont_8_lstm1_cont_slice_7_split_0
I1017 11:44:05.275889 26047 net.cpp:380] cont_8_lstm1_cont_slice_7_split -> cont_8_lstm1_cont_slice_7_split_1
I1017 11:44:05.275920 26047 net.cpp:122] Setting up cont_8_lstm1_cont_slice_7_split
I1017 11:44:05.275928 26047 net.cpp:129] Top shape: 1 5 (5)
I1017 11:44:05.275933 26047 net.cpp:129] Top shape: 1 5 (5)
I1017 11:44:05.275938 26047 net.cpp:137] Memory required for data: 527680
I1017 11:44:05.275943 26047 layer_factory.hpp:77] Creating layer cont_9_lstm1_cont_slice_8_split
I1017 11:44:05.275948 26047 net.cpp:84] Creating Layer cont_9_lstm1_cont_slice_8_split
I1017 11:44:05.275952 26047 net.cpp:406] cont_9_lstm1_cont_slice_8_split <- cont_9
I1017 11:44:05.275959 26047 net.cpp:380] cont_9_lstm1_cont_slice_8_split -> cont_9_lstm1_cont_slice_8_split_0
I1017 11:44:05.275965 26047 net.cpp:380] cont_9_lstm1_cont_slice_8_split -> cont_9_lstm1_cont_slice_8_split_1
I1017 11:44:05.275996 26047 net.cpp:122] Setting up cont_9_lstm1_cont_slice_8_split
I1017 11:44:05.276005 26047 net.cpp:129] Top shape: 1 5 (5)
I1017 11:44:05.276010 26047 net.cpp:129] Top shape: 1 5 (5)
I1017 11:44:05.276013 26047 net.cpp:137] Memory required for data: 527720
I1017 11:44:05.276017 26047 layer_factory.hpp:77] Creating layer cont_10_lstm1_cont_slice_9_split
I1017 11:44:05.276023 26047 net.cpp:84] Creating Layer cont_10_lstm1_cont_slice_9_split
I1017 11:44:05.276033 26047 net.cpp:406] cont_10_lstm1_cont_slice_9_split <- cont_10
I1017 11:44:05.276041 26047 net.cpp:380] cont_10_lstm1_cont_slice_9_split -> cont_10_lstm1_cont_slice_9_split_0
I1017 11:44:05.276047 26047 net.cpp:380] cont_10_lstm1_cont_slice_9_split -> cont_10_lstm1_cont_slice_9_split_1
I1017 11:44:05.276079 26047 net.cpp:122] Setting up cont_10_lstm1_cont_slice_9_split
I1017 11:44:05.276087 26047 net.cpp:129] Top shape: 1 5 (5)
I1017 11:44:05.276093 26047 net.cpp:129] Top shape: 1 5 (5)
I1017 11:44:05.276098 26047 net.cpp:137] Memory required for data: 527760
I1017 11:44:05.276101 26047 layer_factory.hpp:77] Creating layer cont_11_lstm1_cont_slice_10_split
I1017 11:44:05.276114 26047 net.cpp:84] Creating Layer cont_11_lstm1_cont_slice_10_split
I1017 11:44:05.276119 26047 net.cpp:406] cont_11_lstm1_cont_slice_10_split <- cont_11
I1017 11:44:05.276127 26047 net.cpp:380] cont_11_lstm1_cont_slice_10_split -> cont_11_lstm1_cont_slice_10_split_0
I1017 11:44:05.276134 26047 net.cpp:380] cont_11_lstm1_cont_slice_10_split -> cont_11_lstm1_cont_slice_10_split_1
I1017 11:44:05.276165 26047 net.cpp:122] Setting up cont_11_lstm1_cont_slice_10_split
I1017 11:44:05.276172 26047 net.cpp:129] Top shape: 1 5 (5)
I1017 11:44:05.276177 26047 net.cpp:129] Top shape: 1 5 (5)
I1017 11:44:05.276181 26047 net.cpp:137] Memory required for data: 527800
I1017 11:44:05.276186 26047 layer_factory.hpp:77] Creating layer cont_12_lstm1_cont_slice_11_split
I1017 11:44:05.276191 26047 net.cpp:84] Creating Layer cont_12_lstm1_cont_slice_11_split
I1017 11:44:05.276196 26047 net.cpp:406] cont_12_lstm1_cont_slice_11_split <- cont_12
I1017 11:44:05.276202 26047 net.cpp:380] cont_12_lstm1_cont_slice_11_split -> cont_12_lstm1_cont_slice_11_split_0
I1017 11:44:05.276209 26047 net.cpp:380] cont_12_lstm1_cont_slice_11_split -> cont_12_lstm1_cont_slice_11_split_1
I1017 11:44:05.276242 26047 net.cpp:122] Setting up cont_12_lstm1_cont_slice_11_split
I1017 11:44:05.276248 26047 net.cpp:129] Top shape: 1 5 (5)
I1017 11:44:05.276253 26047 net.cpp:129] Top shape: 1 5 (5)
I1017 11:44:05.276257 26047 net.cpp:137] Memory required for data: 527840
I1017 11:44:05.276262 26047 layer_factory.hpp:77] Creating layer cont_13_lstm1_cont_slice_12_split
I1017 11:44:05.276268 26047 net.cpp:84] Creating Layer cont_13_lstm1_cont_slice_12_split
I1017 11:44:05.276273 26047 net.cpp:406] cont_13_lstm1_cont_slice_12_split <- cont_13
I1017 11:44:05.276278 26047 net.cpp:380] cont_13_lstm1_cont_slice_12_split -> cont_13_lstm1_cont_slice_12_split_0
I1017 11:44:05.276285 26047 net.cpp:380] cont_13_lstm1_cont_slice_12_split -> cont_13_lstm1_cont_slice_12_split_1
I1017 11:44:05.276316 26047 net.cpp:122] Setting up cont_13_lstm1_cont_slice_12_split
I1017 11:44:05.276322 26047 net.cpp:129] Top shape: 1 5 (5)
I1017 11:44:05.276327 26047 net.cpp:129] Top shape: 1 5 (5)
I1017 11:44:05.276332 26047 net.cpp:137] Memory required for data: 527880
I1017 11:44:05.276336 26047 layer_factory.hpp:77] Creating layer cont_14_lstm1_cont_slice_13_split
I1017 11:44:05.276342 26047 net.cpp:84] Creating Layer cont_14_lstm1_cont_slice_13_split
I1017 11:44:05.276347 26047 net.cpp:406] cont_14_lstm1_cont_slice_13_split <- cont_14
I1017 11:44:05.276355 26047 net.cpp:380] cont_14_lstm1_cont_slice_13_split -> cont_14_lstm1_cont_slice_13_split_0
I1017 11:44:05.276362 26047 net.cpp:380] cont_14_lstm1_cont_slice_13_split -> cont_14_lstm1_cont_slice_13_split_1
I1017 11:44:05.276391 26047 net.cpp:122] Setting up cont_14_lstm1_cont_slice_13_split
I1017 11:44:05.276397 26047 net.cpp:129] Top shape: 1 5 (5)
I1017 11:44:05.276402 26047 net.cpp:129] Top shape: 1 5 (5)
I1017 11:44:05.276407 26047 net.cpp:137] Memory required for data: 527920
I1017 11:44:05.276410 26047 layer_factory.hpp:77] Creating layer cont_15_lstm1_cont_slice_14_split
I1017 11:44:05.276417 26047 net.cpp:84] Creating Layer cont_15_lstm1_cont_slice_14_split
I1017 11:44:05.276422 26047 net.cpp:406] cont_15_lstm1_cont_slice_14_split <- cont_15
I1017 11:44:05.276428 26047 net.cpp:380] cont_15_lstm1_cont_slice_14_split -> cont_15_lstm1_cont_slice_14_split_0
I1017 11:44:05.276437 26047 net.cpp:380] cont_15_lstm1_cont_slice_14_split -> cont_15_lstm1_cont_slice_14_split_1
I1017 11:44:05.276465 26047 net.cpp:122] Setting up cont_15_lstm1_cont_slice_14_split
I1017 11:44:05.276471 26047 net.cpp:129] Top shape: 1 5 (5)
I1017 11:44:05.276477 26047 net.cpp:129] Top shape: 1 5 (5)
I1017 11:44:05.276481 26047 net.cpp:137] Memory required for data: 527960
I1017 11:44:05.276485 26047 layer_factory.hpp:77] Creating layer cont_16_lstm1_cont_slice_15_split
I1017 11:44:05.276490 26047 net.cpp:84] Creating Layer cont_16_lstm1_cont_slice_15_split
I1017 11:44:05.276494 26047 net.cpp:406] cont_16_lstm1_cont_slice_15_split <- cont_16
I1017 11:44:05.276500 26047 net.cpp:380] cont_16_lstm1_cont_slice_15_split -> cont_16_lstm1_cont_slice_15_split_0
I1017 11:44:05.276507 26047 net.cpp:380] cont_16_lstm1_cont_slice_15_split -> cont_16_lstm1_cont_slice_15_split_1
I1017 11:44:05.276538 26047 net.cpp:122] Setting up cont_16_lstm1_cont_slice_15_split
I1017 11:44:05.276545 26047 net.cpp:129] Top shape: 1 5 (5)
I1017 11:44:05.276549 26047 net.cpp:129] Top shape: 1 5 (5)
I1017 11:44:05.276553 26047 net.cpp:137] Memory required for data: 528000
I1017 11:44:05.276557 26047 layer_factory.hpp:77] Creating layer cont_17_lstm1_cont_slice_16_split
I1017 11:44:05.276562 26047 net.cpp:84] Creating Layer cont_17_lstm1_cont_slice_16_split
I1017 11:44:05.276567 26047 net.cpp:406] cont_17_lstm1_cont_slice_16_split <- cont_17
I1017 11:44:05.276573 26047 net.cpp:380] cont_17_lstm1_cont_slice_16_split -> cont_17_lstm1_cont_slice_16_split_0
I1017 11:44:05.276582 26047 net.cpp:380] cont_17_lstm1_cont_slice_16_split -> cont_17_lstm1_cont_slice_16_split_1
I1017 11:44:05.276610 26047 net.cpp:122] Setting up cont_17_lstm1_cont_slice_16_split
I1017 11:44:05.276617 26047 net.cpp:129] Top shape: 1 5 (5)
I1017 11:44:05.276623 26047 net.cpp:129] Top shape: 1 5 (5)
I1017 11:44:05.276626 26047 net.cpp:137] Memory required for data: 528040
I1017 11:44:05.276630 26047 layer_factory.hpp:77] Creating layer cont_18_lstm1_cont_slice_17_split
I1017 11:44:05.276638 26047 net.cpp:84] Creating Layer cont_18_lstm1_cont_slice_17_split
I1017 11:44:05.276641 26047 net.cpp:406] cont_18_lstm1_cont_slice_17_split <- cont_18
I1017 11:44:05.276648 26047 net.cpp:380] cont_18_lstm1_cont_slice_17_split -> cont_18_lstm1_cont_slice_17_split_0
I1017 11:44:05.276654 26047 net.cpp:380] cont_18_lstm1_cont_slice_17_split -> cont_18_lstm1_cont_slice_17_split_1
I1017 11:44:05.276684 26047 net.cpp:122] Setting up cont_18_lstm1_cont_slice_17_split
I1017 11:44:05.276690 26047 net.cpp:129] Top shape: 1 5 (5)
I1017 11:44:05.276695 26047 net.cpp:129] Top shape: 1 5 (5)
I1017 11:44:05.276700 26047 net.cpp:137] Memory required for data: 528080
I1017 11:44:05.276703 26047 layer_factory.hpp:77] Creating layer cont_19_lstm1_cont_slice_18_split
I1017 11:44:05.276708 26047 net.cpp:84] Creating Layer cont_19_lstm1_cont_slice_18_split
I1017 11:44:05.276713 26047 net.cpp:406] cont_19_lstm1_cont_slice_18_split <- cont_19
I1017 11:44:05.276720 26047 net.cpp:380] cont_19_lstm1_cont_slice_18_split -> cont_19_lstm1_cont_slice_18_split_0
I1017 11:44:05.276726 26047 net.cpp:380] cont_19_lstm1_cont_slice_18_split -> cont_19_lstm1_cont_slice_18_split_1
I1017 11:44:05.276757 26047 net.cpp:122] Setting up cont_19_lstm1_cont_slice_18_split
I1017 11:44:05.276762 26047 net.cpp:129] Top shape: 1 5 (5)
I1017 11:44:05.276768 26047 net.cpp:129] Top shape: 1 5 (5)
I1017 11:44:05.276772 26047 net.cpp:137] Memory required for data: 528120
I1017 11:44:05.276777 26047 layer_factory.hpp:77] Creating layer cont_20_lstm1_cont_slice_19_split
I1017 11:44:05.276782 26047 net.cpp:84] Creating Layer cont_20_lstm1_cont_slice_19_split
I1017 11:44:05.276785 26047 net.cpp:406] cont_20_lstm1_cont_slice_19_split <- cont_20
I1017 11:44:05.276792 26047 net.cpp:380] cont_20_lstm1_cont_slice_19_split -> cont_20_lstm1_cont_slice_19_split_0
I1017 11:44:05.276799 26047 net.cpp:380] cont_20_lstm1_cont_slice_19_split -> cont_20_lstm1_cont_slice_19_split_1
I1017 11:44:05.276829 26047 net.cpp:122] Setting up cont_20_lstm1_cont_slice_19_split
I1017 11:44:05.276835 26047 net.cpp:129] Top shape: 1 5 (5)
I1017 11:44:05.276840 26047 net.cpp:129] Top shape: 1 5 (5)
I1017 11:44:05.276844 26047 net.cpp:137] Memory required for data: 528160
I1017 11:44:05.276849 26047 layer_factory.hpp:77] Creating layer cont_21_lstm1_cont_slice_20_split
I1017 11:44:05.276854 26047 net.cpp:84] Creating Layer cont_21_lstm1_cont_slice_20_split
I1017 11:44:05.276859 26047 net.cpp:406] cont_21_lstm1_cont_slice_20_split <- cont_21
I1017 11:44:05.276866 26047 net.cpp:380] cont_21_lstm1_cont_slice_20_split -> cont_21_lstm1_cont_slice_20_split_0
I1017 11:44:05.276873 26047 net.cpp:380] cont_21_lstm1_cont_slice_20_split -> cont_21_lstm1_cont_slice_20_split_1
I1017 11:44:05.276901 26047 net.cpp:122] Setting up cont_21_lstm1_cont_slice_20_split
I1017 11:44:05.276907 26047 net.cpp:129] Top shape: 1 5 (5)
I1017 11:44:05.276912 26047 net.cpp:129] Top shape: 1 5 (5)
I1017 11:44:05.276916 26047 net.cpp:137] Memory required for data: 528200
I1017 11:44:05.276921 26047 layer_factory.hpp:77] Creating layer cont_22_lstm1_cont_slice_21_split
I1017 11:44:05.276927 26047 net.cpp:84] Creating Layer cont_22_lstm1_cont_slice_21_split
I1017 11:44:05.276932 26047 net.cpp:406] cont_22_lstm1_cont_slice_21_split <- cont_22
I1017 11:44:05.276938 26047 net.cpp:380] cont_22_lstm1_cont_slice_21_split -> cont_22_lstm1_cont_slice_21_split_0
I1017 11:44:05.276945 26047 net.cpp:380] cont_22_lstm1_cont_slice_21_split -> cont_22_lstm1_cont_slice_21_split_1
I1017 11:44:05.276975 26047 net.cpp:122] Setting up cont_22_lstm1_cont_slice_21_split
I1017 11:44:05.276981 26047 net.cpp:129] Top shape: 1 5 (5)
I1017 11:44:05.276986 26047 net.cpp:129] Top shape: 1 5 (5)
I1017 11:44:05.276991 26047 net.cpp:137] Memory required for data: 528240
I1017 11:44:05.276995 26047 layer_factory.hpp:77] Creating layer cont_23_lstm1_cont_slice_22_split
I1017 11:44:05.277000 26047 net.cpp:84] Creating Layer cont_23_lstm1_cont_slice_22_split
I1017 11:44:05.277004 26047 net.cpp:406] cont_23_lstm1_cont_slice_22_split <- cont_23
I1017 11:44:05.277010 26047 net.cpp:380] cont_23_lstm1_cont_slice_22_split -> cont_23_lstm1_cont_slice_22_split_0
I1017 11:44:05.277017 26047 net.cpp:380] cont_23_lstm1_cont_slice_22_split -> cont_23_lstm1_cont_slice_22_split_1
I1017 11:44:05.277047 26047 net.cpp:122] Setting up cont_23_lstm1_cont_slice_22_split
I1017 11:44:05.277053 26047 net.cpp:129] Top shape: 1 5 (5)
I1017 11:44:05.277058 26047 net.cpp:129] Top shape: 1 5 (5)
I1017 11:44:05.277062 26047 net.cpp:137] Memory required for data: 528280
I1017 11:44:05.277066 26047 layer_factory.hpp:77] Creating layer cont_24_lstm1_cont_slice_23_split
I1017 11:44:05.277072 26047 net.cpp:84] Creating Layer cont_24_lstm1_cont_slice_23_split
I1017 11:44:05.277076 26047 net.cpp:406] cont_24_lstm1_cont_slice_23_split <- cont_24
I1017 11:44:05.277082 26047 net.cpp:380] cont_24_lstm1_cont_slice_23_split -> cont_24_lstm1_cont_slice_23_split_0
I1017 11:44:05.277091 26047 net.cpp:380] cont_24_lstm1_cont_slice_23_split -> cont_24_lstm1_cont_slice_23_split_1
I1017 11:44:05.277119 26047 net.cpp:122] Setting up cont_24_lstm1_cont_slice_23_split
I1017 11:44:05.277127 26047 net.cpp:129] Top shape: 1 5 (5)
I1017 11:44:05.277132 26047 net.cpp:129] Top shape: 1 5 (5)
I1017 11:44:05.277135 26047 net.cpp:137] Memory required for data: 528320
I1017 11:44:05.277139 26047 layer_factory.hpp:77] Creating layer cont_25_lstm1_cont_slice_24_split
I1017 11:44:05.277146 26047 net.cpp:84] Creating Layer cont_25_lstm1_cont_slice_24_split
I1017 11:44:05.277151 26047 net.cpp:406] cont_25_lstm1_cont_slice_24_split <- cont_25
I1017 11:44:05.277156 26047 net.cpp:380] cont_25_lstm1_cont_slice_24_split -> cont_25_lstm1_cont_slice_24_split_0
I1017 11:44:05.277163 26047 net.cpp:380] cont_25_lstm1_cont_slice_24_split -> cont_25_lstm1_cont_slice_24_split_1
I1017 11:44:05.277192 26047 net.cpp:122] Setting up cont_25_lstm1_cont_slice_24_split
I1017 11:44:05.277199 26047 net.cpp:129] Top shape: 1 5 (5)
I1017 11:44:05.277204 26047 net.cpp:129] Top shape: 1 5 (5)
I1017 11:44:05.277209 26047 net.cpp:137] Memory required for data: 528360
I1017 11:44:05.277212 26047 layer_factory.hpp:77] Creating layer cont_26_lstm1_cont_slice_25_split
I1017 11:44:05.277217 26047 net.cpp:84] Creating Layer cont_26_lstm1_cont_slice_25_split
I1017 11:44:05.277222 26047 net.cpp:406] cont_26_lstm1_cont_slice_25_split <- cont_26
I1017 11:44:05.277228 26047 net.cpp:380] cont_26_lstm1_cont_slice_25_split -> cont_26_lstm1_cont_slice_25_split_0
I1017 11:44:05.277241 26047 net.cpp:380] cont_26_lstm1_cont_slice_25_split -> cont_26_lstm1_cont_slice_25_split_1
I1017 11:44:05.277271 26047 net.cpp:122] Setting up cont_26_lstm1_cont_slice_25_split
I1017 11:44:05.277277 26047 net.cpp:129] Top shape: 1 5 (5)
I1017 11:44:05.277282 26047 net.cpp:129] Top shape: 1 5 (5)
I1017 11:44:05.277287 26047 net.cpp:137] Memory required for data: 528400
I1017 11:44:05.277292 26047 layer_factory.hpp:77] Creating layer cont_27_lstm1_cont_slice_26_split
I1017 11:44:05.277297 26047 net.cpp:84] Creating Layer cont_27_lstm1_cont_slice_26_split
I1017 11:44:05.277302 26047 net.cpp:406] cont_27_lstm1_cont_slice_26_split <- cont_27
I1017 11:44:05.277307 26047 net.cpp:380] cont_27_lstm1_cont_slice_26_split -> cont_27_lstm1_cont_slice_26_split_0
I1017 11:44:05.277314 26047 net.cpp:380] cont_27_lstm1_cont_slice_26_split -> cont_27_lstm1_cont_slice_26_split_1
I1017 11:44:05.277343 26047 net.cpp:122] Setting up cont_27_lstm1_cont_slice_26_split
I1017 11:44:05.277350 26047 net.cpp:129] Top shape: 1 5 (5)
I1017 11:44:05.277355 26047 net.cpp:129] Top shape: 1 5 (5)
I1017 11:44:05.277359 26047 net.cpp:137] Memory required for data: 528440
I1017 11:44:05.277364 26047 layer_factory.hpp:77] Creating layer cont_28_lstm1_cont_slice_27_split
I1017 11:44:05.277369 26047 net.cpp:84] Creating Layer cont_28_lstm1_cont_slice_27_split
I1017 11:44:05.277374 26047 net.cpp:406] cont_28_lstm1_cont_slice_27_split <- cont_28
I1017 11:44:05.277380 26047 net.cpp:380] cont_28_lstm1_cont_slice_27_split -> cont_28_lstm1_cont_slice_27_split_0
I1017 11:44:05.277387 26047 net.cpp:380] cont_28_lstm1_cont_slice_27_split -> cont_28_lstm1_cont_slice_27_split_1
I1017 11:44:05.277415 26047 net.cpp:122] Setting up cont_28_lstm1_cont_slice_27_split
I1017 11:44:05.277421 26047 net.cpp:129] Top shape: 1 5 (5)
I1017 11:44:05.277426 26047 net.cpp:129] Top shape: 1 5 (5)
I1017 11:44:05.277431 26047 net.cpp:137] Memory required for data: 528480
I1017 11:44:05.277434 26047 layer_factory.hpp:77] Creating layer cont_29_lstm1_cont_slice_28_split
I1017 11:44:05.277441 26047 net.cpp:84] Creating Layer cont_29_lstm1_cont_slice_28_split
I1017 11:44:05.277446 26047 net.cpp:406] cont_29_lstm1_cont_slice_28_split <- cont_29
I1017 11:44:05.277451 26047 net.cpp:380] cont_29_lstm1_cont_slice_28_split -> cont_29_lstm1_cont_slice_28_split_0
I1017 11:44:05.277458 26047 net.cpp:380] cont_29_lstm1_cont_slice_28_split -> cont_29_lstm1_cont_slice_28_split_1
I1017 11:44:05.277488 26047 net.cpp:122] Setting up cont_29_lstm1_cont_slice_28_split
I1017 11:44:05.277494 26047 net.cpp:129] Top shape: 1 5 (5)
I1017 11:44:05.277500 26047 net.cpp:129] Top shape: 1 5 (5)
I1017 11:44:05.277504 26047 net.cpp:137] Memory required for data: 528520
I1017 11:44:05.277508 26047 layer_factory.hpp:77] Creating layer cont_30_lstm1_cont_slice_29_split
I1017 11:44:05.277515 26047 net.cpp:84] Creating Layer cont_30_lstm1_cont_slice_29_split
I1017 11:44:05.277520 26047 net.cpp:406] cont_30_lstm1_cont_slice_29_split <- cont_30
I1017 11:44:05.277526 26047 net.cpp:380] cont_30_lstm1_cont_slice_29_split -> cont_30_lstm1_cont_slice_29_split_0
I1017 11:44:05.277534 26047 net.cpp:380] cont_30_lstm1_cont_slice_29_split -> cont_30_lstm1_cont_slice_29_split_1
I1017 11:44:05.277565 26047 net.cpp:122] Setting up cont_30_lstm1_cont_slice_29_split
I1017 11:44:05.277570 26047 net.cpp:129] Top shape: 1 5 (5)
I1017 11:44:05.277575 26047 net.cpp:129] Top shape: 1 5 (5)
I1017 11:44:05.277580 26047 net.cpp:137] Memory required for data: 528560
I1017 11:44:05.277585 26047 layer_factory.hpp:77] Creating layer cont_31_lstm1_cont_slice_30_split
I1017 11:44:05.277590 26047 net.cpp:84] Creating Layer cont_31_lstm1_cont_slice_30_split
I1017 11:44:05.277593 26047 net.cpp:406] cont_31_lstm1_cont_slice_30_split <- cont_31
I1017 11:44:05.277601 26047 net.cpp:380] cont_31_lstm1_cont_slice_30_split -> cont_31_lstm1_cont_slice_30_split_0
I1017 11:44:05.277608 26047 net.cpp:380] cont_31_lstm1_cont_slice_30_split -> cont_31_lstm1_cont_slice_30_split_1
I1017 11:44:05.277637 26047 net.cpp:122] Setting up cont_31_lstm1_cont_slice_30_split
I1017 11:44:05.277642 26047 net.cpp:129] Top shape: 1 5 (5)
I1017 11:44:05.277648 26047 net.cpp:129] Top shape: 1 5 (5)
I1017 11:44:05.277652 26047 net.cpp:137] Memory required for data: 528600
I1017 11:44:05.277657 26047 layer_factory.hpp:77] Creating layer cont_32_lstm1_cont_slice_31_split
I1017 11:44:05.277663 26047 net.cpp:84] Creating Layer cont_32_lstm1_cont_slice_31_split
I1017 11:44:05.277667 26047 net.cpp:406] cont_32_lstm1_cont_slice_31_split <- cont_32
I1017 11:44:05.277673 26047 net.cpp:380] cont_32_lstm1_cont_slice_31_split -> cont_32_lstm1_cont_slice_31_split_0
I1017 11:44:05.277680 26047 net.cpp:380] cont_32_lstm1_cont_slice_31_split -> cont_32_lstm1_cont_slice_31_split_1
I1017 11:44:05.277709 26047 net.cpp:122] Setting up cont_32_lstm1_cont_slice_31_split
I1017 11:44:05.277715 26047 net.cpp:129] Top shape: 1 5 (5)
I1017 11:44:05.277720 26047 net.cpp:129] Top shape: 1 5 (5)
I1017 11:44:05.277724 26047 net.cpp:137] Memory required for data: 528640
I1017 11:44:05.277729 26047 layer_factory.hpp:77] Creating layer cont_33_lstm1_cont_slice_32_split
I1017 11:44:05.277734 26047 net.cpp:84] Creating Layer cont_33_lstm1_cont_slice_32_split
I1017 11:44:05.277739 26047 net.cpp:406] cont_33_lstm1_cont_slice_32_split <- cont_33
I1017 11:44:05.277745 26047 net.cpp:380] cont_33_lstm1_cont_slice_32_split -> cont_33_lstm1_cont_slice_32_split_0
I1017 11:44:05.277750 26047 net.cpp:380] cont_33_lstm1_cont_slice_32_split -> cont_33_lstm1_cont_slice_32_split_1
I1017 11:44:05.277781 26047 net.cpp:122] Setting up cont_33_lstm1_cont_slice_32_split
I1017 11:44:05.277786 26047 net.cpp:129] Top shape: 1 5 (5)
I1017 11:44:05.277791 26047 net.cpp:129] Top shape: 1 5 (5)
I1017 11:44:05.277796 26047 net.cpp:137] Memory required for data: 528680
I1017 11:44:05.277799 26047 layer_factory.hpp:77] Creating layer cont_34_lstm1_cont_slice_33_split
I1017 11:44:05.277804 26047 net.cpp:84] Creating Layer cont_34_lstm1_cont_slice_33_split
I1017 11:44:05.277809 26047 net.cpp:406] cont_34_lstm1_cont_slice_33_split <- cont_34
I1017 11:44:05.277815 26047 net.cpp:380] cont_34_lstm1_cont_slice_33_split -> cont_34_lstm1_cont_slice_33_split_0
I1017 11:44:05.277823 26047 net.cpp:380] cont_34_lstm1_cont_slice_33_split -> cont_34_lstm1_cont_slice_33_split_1
I1017 11:44:05.277851 26047 net.cpp:122] Setting up cont_34_lstm1_cont_slice_33_split
I1017 11:44:05.277858 26047 net.cpp:129] Top shape: 1 5 (5)
I1017 11:44:05.277863 26047 net.cpp:129] Top shape: 1 5 (5)
I1017 11:44:05.277868 26047 net.cpp:137] Memory required for data: 528720
I1017 11:44:05.277871 26047 layer_factory.hpp:77] Creating layer cont_35_lstm1_cont_slice_34_split
I1017 11:44:05.277878 26047 net.cpp:84] Creating Layer cont_35_lstm1_cont_slice_34_split
I1017 11:44:05.277882 26047 net.cpp:406] cont_35_lstm1_cont_slice_34_split <- cont_35
I1017 11:44:05.277889 26047 net.cpp:380] cont_35_lstm1_cont_slice_34_split -> cont_35_lstm1_cont_slice_34_split_0
I1017 11:44:05.277895 26047 net.cpp:380] cont_35_lstm1_cont_slice_34_split -> cont_35_lstm1_cont_slice_34_split_1
I1017 11:44:05.277925 26047 net.cpp:122] Setting up cont_35_lstm1_cont_slice_34_split
I1017 11:44:05.277931 26047 net.cpp:129] Top shape: 1 5 (5)
I1017 11:44:05.277936 26047 net.cpp:129] Top shape: 1 5 (5)
I1017 11:44:05.277940 26047 net.cpp:137] Memory required for data: 528760
I1017 11:44:05.277945 26047 layer_factory.hpp:77] Creating layer cont_36_lstm1_cont_slice_35_split
I1017 11:44:05.277951 26047 net.cpp:84] Creating Layer cont_36_lstm1_cont_slice_35_split
I1017 11:44:05.277954 26047 net.cpp:406] cont_36_lstm1_cont_slice_35_split <- cont_36
I1017 11:44:05.277961 26047 net.cpp:380] cont_36_lstm1_cont_slice_35_split -> cont_36_lstm1_cont_slice_35_split_0
I1017 11:44:05.277966 26047 net.cpp:380] cont_36_lstm1_cont_slice_35_split -> cont_36_lstm1_cont_slice_35_split_1
I1017 11:44:05.277997 26047 net.cpp:122] Setting up cont_36_lstm1_cont_slice_35_split
I1017 11:44:05.278003 26047 net.cpp:129] Top shape: 1 5 (5)
I1017 11:44:05.278008 26047 net.cpp:129] Top shape: 1 5 (5)
I1017 11:44:05.278012 26047 net.cpp:137] Memory required for data: 528800
I1017 11:44:05.278017 26047 layer_factory.hpp:77] Creating layer cont_37_lstm1_cont_slice_36_split
I1017 11:44:05.278022 26047 net.cpp:84] Creating Layer cont_37_lstm1_cont_slice_36_split
I1017 11:44:05.278025 26047 net.cpp:406] cont_37_lstm1_cont_slice_36_split <- cont_37
I1017 11:44:05.278031 26047 net.cpp:380] cont_37_lstm1_cont_slice_36_split -> cont_37_lstm1_cont_slice_36_split_0
I1017 11:44:05.278038 26047 net.cpp:380] cont_37_lstm1_cont_slice_36_split -> cont_37_lstm1_cont_slice_36_split_1
I1017 11:44:05.278069 26047 net.cpp:122] Setting up cont_37_lstm1_cont_slice_36_split
I1017 11:44:05.278074 26047 net.cpp:129] Top shape: 1 5 (5)
I1017 11:44:05.278079 26047 net.cpp:129] Top shape: 1 5 (5)
I1017 11:44:05.278084 26047 net.cpp:137] Memory required for data: 528840
I1017 11:44:05.278089 26047 layer_factory.hpp:77] Creating layer cont_38_lstm1_cont_slice_37_split
I1017 11:44:05.278092 26047 net.cpp:84] Creating Layer cont_38_lstm1_cont_slice_37_split
I1017 11:44:05.278097 26047 net.cpp:406] cont_38_lstm1_cont_slice_37_split <- cont_38
I1017 11:44:05.278106 26047 net.cpp:380] cont_38_lstm1_cont_slice_37_split -> cont_38_lstm1_cont_slice_37_split_0
I1017 11:44:05.278115 26047 net.cpp:380] cont_38_lstm1_cont_slice_37_split -> cont_38_lstm1_cont_slice_37_split_1
I1017 11:44:05.278142 26047 net.cpp:122] Setting up cont_38_lstm1_cont_slice_37_split
I1017 11:44:05.278148 26047 net.cpp:129] Top shape: 1 5 (5)
I1017 11:44:05.278153 26047 net.cpp:129] Top shape: 1 5 (5)
I1017 11:44:05.278158 26047 net.cpp:137] Memory required for data: 528880
I1017 11:44:05.278162 26047 layer_factory.hpp:77] Creating layer cont_39_lstm1_cont_slice_38_split
I1017 11:44:05.278169 26047 net.cpp:84] Creating Layer cont_39_lstm1_cont_slice_38_split
I1017 11:44:05.278174 26047 net.cpp:406] cont_39_lstm1_cont_slice_38_split <- cont_39
I1017 11:44:05.278179 26047 net.cpp:380] cont_39_lstm1_cont_slice_38_split -> cont_39_lstm1_cont_slice_38_split_0
I1017 11:44:05.278187 26047 net.cpp:380] cont_39_lstm1_cont_slice_38_split -> cont_39_lstm1_cont_slice_38_split_1
I1017 11:44:05.278216 26047 net.cpp:122] Setting up cont_39_lstm1_cont_slice_38_split
I1017 11:44:05.278223 26047 net.cpp:129] Top shape: 1 5 (5)
I1017 11:44:05.278228 26047 net.cpp:129] Top shape: 1 5 (5)
I1017 11:44:05.278232 26047 net.cpp:137] Memory required for data: 528920
I1017 11:44:05.278236 26047 layer_factory.hpp:77] Creating layer cont_40_lstm1_cont_slice_39_split
I1017 11:44:05.278241 26047 net.cpp:84] Creating Layer cont_40_lstm1_cont_slice_39_split
I1017 11:44:05.278246 26047 net.cpp:406] cont_40_lstm1_cont_slice_39_split <- cont_40
I1017 11:44:05.278252 26047 net.cpp:380] cont_40_lstm1_cont_slice_39_split -> cont_40_lstm1_cont_slice_39_split_0
I1017 11:44:05.278259 26047 net.cpp:380] cont_40_lstm1_cont_slice_39_split -> cont_40_lstm1_cont_slice_39_split_1
I1017 11:44:05.278290 26047 net.cpp:122] Setting up cont_40_lstm1_cont_slice_39_split
I1017 11:44:05.278297 26047 net.cpp:129] Top shape: 1 5 (5)
I1017 11:44:05.278302 26047 net.cpp:129] Top shape: 1 5 (5)
I1017 11:44:05.278306 26047 net.cpp:137] Memory required for data: 528960
I1017 11:44:05.278311 26047 layer_factory.hpp:77] Creating layer cont_41_lstm1_cont_slice_40_split
I1017 11:44:05.278316 26047 net.cpp:84] Creating Layer cont_41_lstm1_cont_slice_40_split
I1017 11:44:05.278321 26047 net.cpp:406] cont_41_lstm1_cont_slice_40_split <- cont_41
I1017 11:44:05.278326 26047 net.cpp:380] cont_41_lstm1_cont_slice_40_split -> cont_41_lstm1_cont_slice_40_split_0
I1017 11:44:05.278333 26047 net.cpp:380] cont_41_lstm1_cont_slice_40_split -> cont_41_lstm1_cont_slice_40_split_1
I1017 11:44:05.278364 26047 net.cpp:122] Setting up cont_41_lstm1_cont_slice_40_split
I1017 11:44:05.278372 26047 net.cpp:129] Top shape: 1 5 (5)
I1017 11:44:05.278376 26047 net.cpp:129] Top shape: 1 5 (5)
I1017 11:44:05.278380 26047 net.cpp:137] Memory required for data: 529000
I1017 11:44:05.278384 26047 layer_factory.hpp:77] Creating layer cont_42_lstm1_cont_slice_41_split
I1017 11:44:05.278389 26047 net.cpp:84] Creating Layer cont_42_lstm1_cont_slice_41_split
I1017 11:44:05.278400 26047 net.cpp:406] cont_42_lstm1_cont_slice_41_split <- cont_42
I1017 11:44:05.278409 26047 net.cpp:380] cont_42_lstm1_cont_slice_41_split -> cont_42_lstm1_cont_slice_41_split_0
I1017 11:44:05.278415 26047 net.cpp:380] cont_42_lstm1_cont_slice_41_split -> cont_42_lstm1_cont_slice_41_split_1
I1017 11:44:05.278445 26047 net.cpp:122] Setting up cont_42_lstm1_cont_slice_41_split
I1017 11:44:05.278452 26047 net.cpp:129] Top shape: 1 5 (5)
I1017 11:44:05.278457 26047 net.cpp:129] Top shape: 1 5 (5)
I1017 11:44:05.278461 26047 net.cpp:137] Memory required for data: 529040
I1017 11:44:05.278465 26047 layer_factory.hpp:77] Creating layer cont_43_lstm1_cont_slice_42_split
I1017 11:44:05.278470 26047 net.cpp:84] Creating Layer cont_43_lstm1_cont_slice_42_split
I1017 11:44:05.278475 26047 net.cpp:406] cont_43_lstm1_cont_slice_42_split <- cont_43
I1017 11:44:05.278481 26047 net.cpp:380] cont_43_lstm1_cont_slice_42_split -> cont_43_lstm1_cont_slice_42_split_0
I1017 11:44:05.278487 26047 net.cpp:380] cont_43_lstm1_cont_slice_42_split -> cont_43_lstm1_cont_slice_42_split_1
I1017 11:44:05.278517 26047 net.cpp:122] Setting up cont_43_lstm1_cont_slice_42_split
I1017 11:44:05.278524 26047 net.cpp:129] Top shape: 1 5 (5)
I1017 11:44:05.278529 26047 net.cpp:129] Top shape: 1 5 (5)
I1017 11:44:05.278533 26047 net.cpp:137] Memory required for data: 529080
I1017 11:44:05.278537 26047 layer_factory.hpp:77] Creating layer cont_44_lstm1_cont_slice_43_split
I1017 11:44:05.278542 26047 net.cpp:84] Creating Layer cont_44_lstm1_cont_slice_43_split
I1017 11:44:05.278548 26047 net.cpp:406] cont_44_lstm1_cont_slice_43_split <- cont_44
I1017 11:44:05.278553 26047 net.cpp:380] cont_44_lstm1_cont_slice_43_split -> cont_44_lstm1_cont_slice_43_split_0
I1017 11:44:05.278559 26047 net.cpp:380] cont_44_lstm1_cont_slice_43_split -> cont_44_lstm1_cont_slice_43_split_1
I1017 11:44:05.278589 26047 net.cpp:122] Setting up cont_44_lstm1_cont_slice_43_split
I1017 11:44:05.278596 26047 net.cpp:129] Top shape: 1 5 (5)
I1017 11:44:05.278601 26047 net.cpp:129] Top shape: 1 5 (5)
I1017 11:44:05.278605 26047 net.cpp:137] Memory required for data: 529120
I1017 11:44:05.278610 26047 layer_factory.hpp:77] Creating layer cont_45_lstm1_cont_slice_44_split
I1017 11:44:05.278615 26047 net.cpp:84] Creating Layer cont_45_lstm1_cont_slice_44_split
I1017 11:44:05.278620 26047 net.cpp:406] cont_45_lstm1_cont_slice_44_split <- cont_45
I1017 11:44:05.278627 26047 net.cpp:380] cont_45_lstm1_cont_slice_44_split -> cont_45_lstm1_cont_slice_44_split_0
I1017 11:44:05.278635 26047 net.cpp:380] cont_45_lstm1_cont_slice_44_split -> cont_45_lstm1_cont_slice_44_split_1
I1017 11:44:05.278662 26047 net.cpp:122] Setting up cont_45_lstm1_cont_slice_44_split
I1017 11:44:05.278668 26047 net.cpp:129] Top shape: 1 5 (5)
I1017 11:44:05.278673 26047 net.cpp:129] Top shape: 1 5 (5)
I1017 11:44:05.278677 26047 net.cpp:137] Memory required for data: 529160
I1017 11:44:05.278682 26047 layer_factory.hpp:77] Creating layer cont_46_lstm1_cont_slice_45_split
I1017 11:44:05.278688 26047 net.cpp:84] Creating Layer cont_46_lstm1_cont_slice_45_split
I1017 11:44:05.278693 26047 net.cpp:406] cont_46_lstm1_cont_slice_45_split <- cont_46
I1017 11:44:05.278699 26047 net.cpp:380] cont_46_lstm1_cont_slice_45_split -> cont_46_lstm1_cont_slice_45_split_0
I1017 11:44:05.278707 26047 net.cpp:380] cont_46_lstm1_cont_slice_45_split -> cont_46_lstm1_cont_slice_45_split_1
I1017 11:44:05.278738 26047 net.cpp:122] Setting up cont_46_lstm1_cont_slice_45_split
I1017 11:44:05.278743 26047 net.cpp:129] Top shape: 1 5 (5)
I1017 11:44:05.278748 26047 net.cpp:129] Top shape: 1 5 (5)
I1017 11:44:05.278753 26047 net.cpp:137] Memory required for data: 529200
I1017 11:44:05.278758 26047 layer_factory.hpp:77] Creating layer cont_47_lstm1_cont_slice_46_split
I1017 11:44:05.278762 26047 net.cpp:84] Creating Layer cont_47_lstm1_cont_slice_46_split
I1017 11:44:05.278767 26047 net.cpp:406] cont_47_lstm1_cont_slice_46_split <- cont_47
I1017 11:44:05.278772 26047 net.cpp:380] cont_47_lstm1_cont_slice_46_split -> cont_47_lstm1_cont_slice_46_split_0
I1017 11:44:05.278779 26047 net.cpp:380] cont_47_lstm1_cont_slice_46_split -> cont_47_lstm1_cont_slice_46_split_1
I1017 11:44:05.278810 26047 net.cpp:122] Setting up cont_47_lstm1_cont_slice_46_split
I1017 11:44:05.278816 26047 net.cpp:129] Top shape: 1 5 (5)
I1017 11:44:05.278821 26047 net.cpp:129] Top shape: 1 5 (5)
I1017 11:44:05.278826 26047 net.cpp:137] Memory required for data: 529240
I1017 11:44:05.278831 26047 layer_factory.hpp:77] Creating layer cont_48_lstm1_cont_slice_47_split
I1017 11:44:05.278836 26047 net.cpp:84] Creating Layer cont_48_lstm1_cont_slice_47_split
I1017 11:44:05.278839 26047 net.cpp:406] cont_48_lstm1_cont_slice_47_split <- cont_48
I1017 11:44:05.278846 26047 net.cpp:380] cont_48_lstm1_cont_slice_47_split -> cont_48_lstm1_cont_slice_47_split_0
I1017 11:44:05.278852 26047 net.cpp:380] cont_48_lstm1_cont_slice_47_split -> cont_48_lstm1_cont_slice_47_split_1
I1017 11:44:05.278882 26047 net.cpp:122] Setting up cont_48_lstm1_cont_slice_47_split
I1017 11:44:05.278889 26047 net.cpp:129] Top shape: 1 5 (5)
I1017 11:44:05.278894 26047 net.cpp:129] Top shape: 1 5 (5)
I1017 11:44:05.278898 26047 net.cpp:137] Memory required for data: 529280
I1017 11:44:05.278903 26047 layer_factory.hpp:77] Creating layer cont_49_lstm1_cont_slice_48_split
I1017 11:44:05.278908 26047 net.cpp:84] Creating Layer cont_49_lstm1_cont_slice_48_split
I1017 11:44:05.278913 26047 net.cpp:406] cont_49_lstm1_cont_slice_48_split <- cont_49
I1017 11:44:05.278919 26047 net.cpp:380] cont_49_lstm1_cont_slice_48_split -> cont_49_lstm1_cont_slice_48_split_0
I1017 11:44:05.278926 26047 net.cpp:380] cont_49_lstm1_cont_slice_48_split -> cont_49_lstm1_cont_slice_48_split_1
I1017 11:44:05.278955 26047 net.cpp:122] Setting up cont_49_lstm1_cont_slice_48_split
I1017 11:44:05.278961 26047 net.cpp:129] Top shape: 1 5 (5)
I1017 11:44:05.278966 26047 net.cpp:129] Top shape: 1 5 (5)
I1017 11:44:05.278970 26047 net.cpp:137] Memory required for data: 529320
I1017 11:44:05.278975 26047 layer_factory.hpp:77] Creating layer cont_50_lstm1_cont_slice_49_split
I1017 11:44:05.278981 26047 net.cpp:84] Creating Layer cont_50_lstm1_cont_slice_49_split
I1017 11:44:05.278986 26047 net.cpp:406] cont_50_lstm1_cont_slice_49_split <- cont_50
I1017 11:44:05.278992 26047 net.cpp:380] cont_50_lstm1_cont_slice_49_split -> cont_50_lstm1_cont_slice_49_split_0
I1017 11:44:05.279000 26047 net.cpp:380] cont_50_lstm1_cont_slice_49_split -> cont_50_lstm1_cont_slice_49_split_1
I1017 11:44:05.279029 26047 net.cpp:122] Setting up cont_50_lstm1_cont_slice_49_split
I1017 11:44:05.279036 26047 net.cpp:129] Top shape: 1 5 (5)
I1017 11:44:05.279040 26047 net.cpp:129] Top shape: 1 5 (5)
I1017 11:44:05.279044 26047 net.cpp:137] Memory required for data: 529360
I1017 11:44:05.279048 26047 layer_factory.hpp:77] Creating layer cont_51_lstm1_cont_slice_50_split
I1017 11:44:05.279054 26047 net.cpp:84] Creating Layer cont_51_lstm1_cont_slice_50_split
I1017 11:44:05.279058 26047 net.cpp:406] cont_51_lstm1_cont_slice_50_split <- cont_51
I1017 11:44:05.279064 26047 net.cpp:380] cont_51_lstm1_cont_slice_50_split -> cont_51_lstm1_cont_slice_50_split_0
I1017 11:44:05.279072 26047 net.cpp:380] cont_51_lstm1_cont_slice_50_split -> cont_51_lstm1_cont_slice_50_split_1
I1017 11:44:05.279100 26047 net.cpp:122] Setting up cont_51_lstm1_cont_slice_50_split
I1017 11:44:05.279108 26047 net.cpp:129] Top shape: 1 5 (5)
I1017 11:44:05.279112 26047 net.cpp:129] Top shape: 1 5 (5)
I1017 11:44:05.279116 26047 net.cpp:137] Memory required for data: 529400
I1017 11:44:05.279120 26047 layer_factory.hpp:77] Creating layer cont_52_lstm1_cont_slice_51_split
I1017 11:44:05.279126 26047 net.cpp:84] Creating Layer cont_52_lstm1_cont_slice_51_split
I1017 11:44:05.279131 26047 net.cpp:406] cont_52_lstm1_cont_slice_51_split <- cont_52
I1017 11:44:05.279139 26047 net.cpp:380] cont_52_lstm1_cont_slice_51_split -> cont_52_lstm1_cont_slice_51_split_0
I1017 11:44:05.279146 26047 net.cpp:380] cont_52_lstm1_cont_slice_51_split -> cont_52_lstm1_cont_slice_51_split_1
I1017 11:44:05.279173 26047 net.cpp:122] Setting up cont_52_lstm1_cont_slice_51_split
I1017 11:44:05.279180 26047 net.cpp:129] Top shape: 1 5 (5)
I1017 11:44:05.279186 26047 net.cpp:129] Top shape: 1 5 (5)
I1017 11:44:05.279189 26047 net.cpp:137] Memory required for data: 529440
I1017 11:44:05.279193 26047 layer_factory.hpp:77] Creating layer cont_53_lstm1_cont_slice_52_split
I1017 11:44:05.279201 26047 net.cpp:84] Creating Layer cont_53_lstm1_cont_slice_52_split
I1017 11:44:05.279204 26047 net.cpp:406] cont_53_lstm1_cont_slice_52_split <- cont_53
I1017 11:44:05.279211 26047 net.cpp:380] cont_53_lstm1_cont_slice_52_split -> cont_53_lstm1_cont_slice_52_split_0
I1017 11:44:05.279217 26047 net.cpp:380] cont_53_lstm1_cont_slice_52_split -> cont_53_lstm1_cont_slice_52_split_1
I1017 11:44:05.279247 26047 net.cpp:122] Setting up cont_53_lstm1_cont_slice_52_split
I1017 11:44:05.279253 26047 net.cpp:129] Top shape: 1 5 (5)
I1017 11:44:05.279258 26047 net.cpp:129] Top shape: 1 5 (5)
I1017 11:44:05.279263 26047 net.cpp:137] Memory required for data: 529480
I1017 11:44:05.279266 26047 layer_factory.hpp:77] Creating layer cont_54_lstm1_cont_slice_53_split
I1017 11:44:05.279271 26047 net.cpp:84] Creating Layer cont_54_lstm1_cont_slice_53_split
I1017 11:44:05.279275 26047 net.cpp:406] cont_54_lstm1_cont_slice_53_split <- cont_54
I1017 11:44:05.279281 26047 net.cpp:380] cont_54_lstm1_cont_slice_53_split -> cont_54_lstm1_cont_slice_53_split_0
I1017 11:44:05.279289 26047 net.cpp:380] cont_54_lstm1_cont_slice_53_split -> cont_54_lstm1_cont_slice_53_split_1
I1017 11:44:05.279317 26047 net.cpp:122] Setting up cont_54_lstm1_cont_slice_53_split
I1017 11:44:05.279325 26047 net.cpp:129] Top shape: 1 5 (5)
I1017 11:44:05.279330 26047 net.cpp:129] Top shape: 1 5 (5)
I1017 11:44:05.279333 26047 net.cpp:137] Memory required for data: 529520
I1017 11:44:05.279337 26047 layer_factory.hpp:77] Creating layer cont_55_lstm1_cont_slice_54_split
I1017 11:44:05.279342 26047 net.cpp:84] Creating Layer cont_55_lstm1_cont_slice_54_split
I1017 11:44:05.279347 26047 net.cpp:406] cont_55_lstm1_cont_slice_54_split <- cont_55
I1017 11:44:05.279353 26047 net.cpp:380] cont_55_lstm1_cont_slice_54_split -> cont_55_lstm1_cont_slice_54_split_0
I1017 11:44:05.279361 26047 net.cpp:380] cont_55_lstm1_cont_slice_54_split -> cont_55_lstm1_cont_slice_54_split_1
I1017 11:44:05.279391 26047 net.cpp:122] Setting up cont_55_lstm1_cont_slice_54_split
I1017 11:44:05.279397 26047 net.cpp:129] Top shape: 1 5 (5)
I1017 11:44:05.279402 26047 net.cpp:129] Top shape: 1 5 (5)
I1017 11:44:05.279405 26047 net.cpp:137] Memory required for data: 529560
I1017 11:44:05.279409 26047 layer_factory.hpp:77] Creating layer cont_56_lstm1_cont_slice_55_split
I1017 11:44:05.279414 26047 net.cpp:84] Creating Layer cont_56_lstm1_cont_slice_55_split
I1017 11:44:05.279419 26047 net.cpp:406] cont_56_lstm1_cont_slice_55_split <- cont_56
I1017 11:44:05.279426 26047 net.cpp:380] cont_56_lstm1_cont_slice_55_split -> cont_56_lstm1_cont_slice_55_split_0
I1017 11:44:05.279433 26047 net.cpp:380] cont_56_lstm1_cont_slice_55_split -> cont_56_lstm1_cont_slice_55_split_1
I1017 11:44:05.279461 26047 net.cpp:122] Setting up cont_56_lstm1_cont_slice_55_split
I1017 11:44:05.279469 26047 net.cpp:129] Top shape: 1 5 (5)
I1017 11:44:05.279474 26047 net.cpp:129] Top shape: 1 5 (5)
I1017 11:44:05.279477 26047 net.cpp:137] Memory required for data: 529600
I1017 11:44:05.279481 26047 layer_factory.hpp:77] Creating layer cont_57_lstm1_cont_slice_56_split
I1017 11:44:05.279489 26047 net.cpp:84] Creating Layer cont_57_lstm1_cont_slice_56_split
I1017 11:44:05.279494 26047 net.cpp:406] cont_57_lstm1_cont_slice_56_split <- cont_57
I1017 11:44:05.279500 26047 net.cpp:380] cont_57_lstm1_cont_slice_56_split -> cont_57_lstm1_cont_slice_56_split_0
I1017 11:44:05.279506 26047 net.cpp:380] cont_57_lstm1_cont_slice_56_split -> cont_57_lstm1_cont_slice_56_split_1
I1017 11:44:05.279537 26047 net.cpp:122] Setting up cont_57_lstm1_cont_slice_56_split
I1017 11:44:05.279543 26047 net.cpp:129] Top shape: 1 5 (5)
I1017 11:44:05.279548 26047 net.cpp:129] Top shape: 1 5 (5)
I1017 11:44:05.279552 26047 net.cpp:137] Memory required for data: 529640
I1017 11:44:05.279557 26047 layer_factory.hpp:77] Creating layer cont_58_lstm1_cont_slice_57_split
I1017 11:44:05.279562 26047 net.cpp:84] Creating Layer cont_58_lstm1_cont_slice_57_split
I1017 11:44:05.279567 26047 net.cpp:406] cont_58_lstm1_cont_slice_57_split <- cont_58
I1017 11:44:05.279572 26047 net.cpp:380] cont_58_lstm1_cont_slice_57_split -> cont_58_lstm1_cont_slice_57_split_0
I1017 11:44:05.279579 26047 net.cpp:380] cont_58_lstm1_cont_slice_57_split -> cont_58_lstm1_cont_slice_57_split_1
I1017 11:44:05.279611 26047 net.cpp:122] Setting up cont_58_lstm1_cont_slice_57_split
I1017 11:44:05.279618 26047 net.cpp:129] Top shape: 1 5 (5)
I1017 11:44:05.279623 26047 net.cpp:129] Top shape: 1 5 (5)
I1017 11:44:05.279628 26047 net.cpp:137] Memory required for data: 529680
I1017 11:44:05.279631 26047 layer_factory.hpp:77] Creating layer cont_59_lstm1_cont_slice_58_split
I1017 11:44:05.279636 26047 net.cpp:84] Creating Layer cont_59_lstm1_cont_slice_58_split
I1017 11:44:05.279641 26047 net.cpp:406] cont_59_lstm1_cont_slice_58_split <- cont_59
I1017 11:44:05.279646 26047 net.cpp:380] cont_59_lstm1_cont_slice_58_split -> cont_59_lstm1_cont_slice_58_split_0
I1017 11:44:05.279655 26047 net.cpp:380] cont_59_lstm1_cont_slice_58_split -> cont_59_lstm1_cont_slice_58_split_1
I1017 11:44:05.279685 26047 net.cpp:122] Setting up cont_59_lstm1_cont_slice_58_split
I1017 11:44:05.279690 26047 net.cpp:129] Top shape: 1 5 (5)
I1017 11:44:05.279695 26047 net.cpp:129] Top shape: 1 5 (5)
I1017 11:44:05.279700 26047 net.cpp:137] Memory required for data: 529720
I1017 11:44:05.279703 26047 layer_factory.hpp:77] Creating layer cont_60_lstm1_cont_slice_59_split
I1017 11:44:05.279711 26047 net.cpp:84] Creating Layer cont_60_lstm1_cont_slice_59_split
I1017 11:44:05.279716 26047 net.cpp:406] cont_60_lstm1_cont_slice_59_split <- cont_60
I1017 11:44:05.279721 26047 net.cpp:380] cont_60_lstm1_cont_slice_59_split -> cont_60_lstm1_cont_slice_59_split_0
I1017 11:44:05.279728 26047 net.cpp:380] cont_60_lstm1_cont_slice_59_split -> cont_60_lstm1_cont_slice_59_split_1
I1017 11:44:05.279758 26047 net.cpp:122] Setting up cont_60_lstm1_cont_slice_59_split
I1017 11:44:05.279764 26047 net.cpp:129] Top shape: 1 5 (5)
I1017 11:44:05.279769 26047 net.cpp:129] Top shape: 1 5 (5)
I1017 11:44:05.279773 26047 net.cpp:137] Memory required for data: 529760
I1017 11:44:05.279778 26047 layer_factory.hpp:77] Creating layer cont_61_lstm1_cont_slice_60_split
I1017 11:44:05.279783 26047 net.cpp:84] Creating Layer cont_61_lstm1_cont_slice_60_split
I1017 11:44:05.279788 26047 net.cpp:406] cont_61_lstm1_cont_slice_60_split <- cont_61
I1017 11:44:05.279793 26047 net.cpp:380] cont_61_lstm1_cont_slice_60_split -> cont_61_lstm1_cont_slice_60_split_0
I1017 11:44:05.279799 26047 net.cpp:380] cont_61_lstm1_cont_slice_60_split -> cont_61_lstm1_cont_slice_60_split_1
I1017 11:44:05.279829 26047 net.cpp:122] Setting up cont_61_lstm1_cont_slice_60_split
I1017 11:44:05.279835 26047 net.cpp:129] Top shape: 1 5 (5)
I1017 11:44:05.279841 26047 net.cpp:129] Top shape: 1 5 (5)
I1017 11:44:05.279845 26047 net.cpp:137] Memory required for data: 529800
I1017 11:44:05.279850 26047 layer_factory.hpp:77] Creating layer cont_62_lstm1_cont_slice_61_split
I1017 11:44:05.279860 26047 net.cpp:84] Creating Layer cont_62_lstm1_cont_slice_61_split
I1017 11:44:05.279865 26047 net.cpp:406] cont_62_lstm1_cont_slice_61_split <- cont_62
I1017 11:44:05.279871 26047 net.cpp:380] cont_62_lstm1_cont_slice_61_split -> cont_62_lstm1_cont_slice_61_split_0
I1017 11:44:05.279878 26047 net.cpp:380] cont_62_lstm1_cont_slice_61_split -> cont_62_lstm1_cont_slice_61_split_1
I1017 11:44:05.279911 26047 net.cpp:122] Setting up cont_62_lstm1_cont_slice_61_split
I1017 11:44:05.279917 26047 net.cpp:129] Top shape: 1 5 (5)
I1017 11:44:05.279922 26047 net.cpp:129] Top shape: 1 5 (5)
I1017 11:44:05.279927 26047 net.cpp:137] Memory required for data: 529840
I1017 11:44:05.279930 26047 layer_factory.hpp:77] Creating layer cont_63_lstm1_cont_slice_62_split
I1017 11:44:05.279935 26047 net.cpp:84] Creating Layer cont_63_lstm1_cont_slice_62_split
I1017 11:44:05.279940 26047 net.cpp:406] cont_63_lstm1_cont_slice_62_split <- cont_63
I1017 11:44:05.279947 26047 net.cpp:380] cont_63_lstm1_cont_slice_62_split -> cont_63_lstm1_cont_slice_62_split_0
I1017 11:44:05.279970 26047 net.cpp:380] cont_63_lstm1_cont_slice_62_split -> cont_63_lstm1_cont_slice_62_split_1
I1017 11:44:05.280004 26047 net.cpp:122] Setting up cont_63_lstm1_cont_slice_62_split
I1017 11:44:05.280014 26047 net.cpp:129] Top shape: 1 5 (5)
I1017 11:44:05.280019 26047 net.cpp:129] Top shape: 1 5 (5)
I1017 11:44:05.280023 26047 net.cpp:137] Memory required for data: 529880
I1017 11:44:05.280035 26047 layer_factory.hpp:77] Creating layer cont_64_lstm1_cont_slice_63_split
I1017 11:44:05.280040 26047 net.cpp:84] Creating Layer cont_64_lstm1_cont_slice_63_split
I1017 11:44:05.280045 26047 net.cpp:406] cont_64_lstm1_cont_slice_63_split <- cont_64
I1017 11:44:05.280050 26047 net.cpp:380] cont_64_lstm1_cont_slice_63_split -> cont_64_lstm1_cont_slice_63_split_0
I1017 11:44:05.280066 26047 net.cpp:380] cont_64_lstm1_cont_slice_63_split -> cont_64_lstm1_cont_slice_63_split_1
I1017 11:44:05.280097 26047 net.cpp:122] Setting up cont_64_lstm1_cont_slice_63_split
I1017 11:44:05.280104 26047 net.cpp:129] Top shape: 1 5 (5)
I1017 11:44:05.280109 26047 net.cpp:129] Top shape: 1 5 (5)
I1017 11:44:05.280113 26047 net.cpp:137] Memory required for data: 529920
I1017 11:44:05.280117 26047 layer_factory.hpp:77] Creating layer cont_65_lstm1_cont_slice_64_split
I1017 11:44:05.280122 26047 net.cpp:84] Creating Layer cont_65_lstm1_cont_slice_64_split
I1017 11:44:05.280128 26047 net.cpp:406] cont_65_lstm1_cont_slice_64_split <- cont_65
I1017 11:44:05.280133 26047 net.cpp:380] cont_65_lstm1_cont_slice_64_split -> cont_65_lstm1_cont_slice_64_split_0
I1017 11:44:05.280139 26047 net.cpp:380] cont_65_lstm1_cont_slice_64_split -> cont_65_lstm1_cont_slice_64_split_1
I1017 11:44:05.280170 26047 net.cpp:122] Setting up cont_65_lstm1_cont_slice_64_split
I1017 11:44:05.280176 26047 net.cpp:129] Top shape: 1 5 (5)
I1017 11:44:05.280181 26047 net.cpp:129] Top shape: 1 5 (5)
I1017 11:44:05.280186 26047 net.cpp:137] Memory required for data: 529960
I1017 11:44:05.280190 26047 layer_factory.hpp:77] Creating layer cont_66_lstm1_cont_slice_65_split
I1017 11:44:05.280195 26047 net.cpp:84] Creating Layer cont_66_lstm1_cont_slice_65_split
I1017 11:44:05.280200 26047 net.cpp:406] cont_66_lstm1_cont_slice_65_split <- cont_66
I1017 11:44:05.280207 26047 net.cpp:380] cont_66_lstm1_cont_slice_65_split -> cont_66_lstm1_cont_slice_65_split_0
I1017 11:44:05.280215 26047 net.cpp:380] cont_66_lstm1_cont_slice_65_split -> cont_66_lstm1_cont_slice_65_split_1
I1017 11:44:05.280242 26047 net.cpp:122] Setting up cont_66_lstm1_cont_slice_65_split
I1017 11:44:05.280249 26047 net.cpp:129] Top shape: 1 5 (5)
I1017 11:44:05.280254 26047 net.cpp:129] Top shape: 1 5 (5)
I1017 11:44:05.280258 26047 net.cpp:137] Memory required for data: 530000
I1017 11:44:05.280263 26047 layer_factory.hpp:77] Creating layer cont_67_lstm1_cont_slice_66_split
I1017 11:44:05.280270 26047 net.cpp:84] Creating Layer cont_67_lstm1_cont_slice_66_split
I1017 11:44:05.280274 26047 net.cpp:406] cont_67_lstm1_cont_slice_66_split <- cont_67
I1017 11:44:05.280280 26047 net.cpp:380] cont_67_lstm1_cont_slice_66_split -> cont_67_lstm1_cont_slice_66_split_0
I1017 11:44:05.280287 26047 net.cpp:380] cont_67_lstm1_cont_slice_66_split -> cont_67_lstm1_cont_slice_66_split_1
I1017 11:44:05.280318 26047 net.cpp:122] Setting up cont_67_lstm1_cont_slice_66_split
I1017 11:44:05.280324 26047 net.cpp:129] Top shape: 1 5 (5)
I1017 11:44:05.280329 26047 net.cpp:129] Top shape: 1 5 (5)
I1017 11:44:05.280333 26047 net.cpp:137] Memory required for data: 530040
I1017 11:44:05.280338 26047 layer_factory.hpp:77] Creating layer cont_68_lstm1_cont_slice_67_split
I1017 11:44:05.280344 26047 net.cpp:84] Creating Layer cont_68_lstm1_cont_slice_67_split
I1017 11:44:05.280349 26047 net.cpp:406] cont_68_lstm1_cont_slice_67_split <- cont_68
I1017 11:44:05.280355 26047 net.cpp:380] cont_68_lstm1_cont_slice_67_split -> cont_68_lstm1_cont_slice_67_split_0
I1017 11:44:05.280362 26047 net.cpp:380] cont_68_lstm1_cont_slice_67_split -> cont_68_lstm1_cont_slice_67_split_1
I1017 11:44:05.280392 26047 net.cpp:122] Setting up cont_68_lstm1_cont_slice_67_split
I1017 11:44:05.280398 26047 net.cpp:129] Top shape: 1 5 (5)
I1017 11:44:05.280403 26047 net.cpp:129] Top shape: 1 5 (5)
I1017 11:44:05.280408 26047 net.cpp:137] Memory required for data: 530080
I1017 11:44:05.280412 26047 layer_factory.hpp:77] Creating layer cont_69_lstm1_cont_slice_68_split
I1017 11:44:05.280417 26047 net.cpp:84] Creating Layer cont_69_lstm1_cont_slice_68_split
I1017 11:44:05.280421 26047 net.cpp:406] cont_69_lstm1_cont_slice_68_split <- cont_69
I1017 11:44:05.280427 26047 net.cpp:380] cont_69_lstm1_cont_slice_68_split -> cont_69_lstm1_cont_slice_68_split_0
I1017 11:44:05.280434 26047 net.cpp:380] cont_69_lstm1_cont_slice_68_split -> cont_69_lstm1_cont_slice_68_split_1
I1017 11:44:05.280464 26047 net.cpp:122] Setting up cont_69_lstm1_cont_slice_68_split
I1017 11:44:05.280470 26047 net.cpp:129] Top shape: 1 5 (5)
I1017 11:44:05.280477 26047 net.cpp:129] Top shape: 1 5 (5)
I1017 11:44:05.280480 26047 net.cpp:137] Memory required for data: 530120
I1017 11:44:05.280484 26047 layer_factory.hpp:77] Creating layer cont_70_lstm1_cont_slice_69_split
I1017 11:44:05.280489 26047 net.cpp:84] Creating Layer cont_70_lstm1_cont_slice_69_split
I1017 11:44:05.280494 26047 net.cpp:406] cont_70_lstm1_cont_slice_69_split <- cont_70
I1017 11:44:05.280503 26047 net.cpp:380] cont_70_lstm1_cont_slice_69_split -> cont_70_lstm1_cont_slice_69_split_0
I1017 11:44:05.280509 26047 net.cpp:380] cont_70_lstm1_cont_slice_69_split -> cont_70_lstm1_cont_slice_69_split_1
I1017 11:44:05.280540 26047 net.cpp:122] Setting up cont_70_lstm1_cont_slice_69_split
I1017 11:44:05.280547 26047 net.cpp:129] Top shape: 1 5 (5)
I1017 11:44:05.280552 26047 net.cpp:129] Top shape: 1 5 (5)
I1017 11:44:05.280556 26047 net.cpp:137] Memory required for data: 530160
I1017 11:44:05.280560 26047 layer_factory.hpp:77] Creating layer cont_71_lstm1_cont_slice_70_split
I1017 11:44:05.280565 26047 net.cpp:84] Creating Layer cont_71_lstm1_cont_slice_70_split
I1017 11:44:05.280570 26047 net.cpp:406] cont_71_lstm1_cont_slice_70_split <- cont_71
I1017 11:44:05.280576 26047 net.cpp:380] cont_71_lstm1_cont_slice_70_split -> cont_71_lstm1_cont_slice_70_split_0
I1017 11:44:05.280582 26047 net.cpp:380] cont_71_lstm1_cont_slice_70_split -> cont_71_lstm1_cont_slice_70_split_1
I1017 11:44:05.280613 26047 net.cpp:122] Setting up cont_71_lstm1_cont_slice_70_split
I1017 11:44:05.280619 26047 net.cpp:129] Top shape: 1 5 (5)
I1017 11:44:05.280624 26047 net.cpp:129] Top shape: 1 5 (5)
I1017 11:44:05.280628 26047 net.cpp:137] Memory required for data: 530200
I1017 11:44:05.280633 26047 layer_factory.hpp:77] Creating layer cont_72_lstm1_cont_slice_71_split
I1017 11:44:05.280638 26047 net.cpp:84] Creating Layer cont_72_lstm1_cont_slice_71_split
I1017 11:44:05.280642 26047 net.cpp:406] cont_72_lstm1_cont_slice_71_split <- cont_72
I1017 11:44:05.280648 26047 net.cpp:380] cont_72_lstm1_cont_slice_71_split -> cont_72_lstm1_cont_slice_71_split_0
I1017 11:44:05.280655 26047 net.cpp:380] cont_72_lstm1_cont_slice_71_split -> cont_72_lstm1_cont_slice_71_split_1
I1017 11:44:05.280685 26047 net.cpp:122] Setting up cont_72_lstm1_cont_slice_71_split
I1017 11:44:05.280692 26047 net.cpp:129] Top shape: 1 5 (5)
I1017 11:44:05.280697 26047 net.cpp:129] Top shape: 1 5 (5)
I1017 11:44:05.280701 26047 net.cpp:137] Memory required for data: 530240
I1017 11:44:05.280705 26047 layer_factory.hpp:77] Creating layer cont_73_lstm1_cont_slice_72_split
I1017 11:44:05.280710 26047 net.cpp:84] Creating Layer cont_73_lstm1_cont_slice_72_split
I1017 11:44:05.280715 26047 net.cpp:406] cont_73_lstm1_cont_slice_72_split <- cont_73
I1017 11:44:05.280722 26047 net.cpp:380] cont_73_lstm1_cont_slice_72_split -> cont_73_lstm1_cont_slice_72_split_0
I1017 11:44:05.280730 26047 net.cpp:380] cont_73_lstm1_cont_slice_72_split -> cont_73_lstm1_cont_slice_72_split_1
I1017 11:44:05.280758 26047 net.cpp:122] Setting up cont_73_lstm1_cont_slice_72_split
I1017 11:44:05.280764 26047 net.cpp:129] Top shape: 1 5 (5)
I1017 11:44:05.280769 26047 net.cpp:129] Top shape: 1 5 (5)
I1017 11:44:05.280773 26047 net.cpp:137] Memory required for data: 530280
I1017 11:44:05.280777 26047 layer_factory.hpp:77] Creating layer cont_74_lstm1_cont_slice_73_split
I1017 11:44:05.280784 26047 net.cpp:84] Creating Layer cont_74_lstm1_cont_slice_73_split
I1017 11:44:05.280789 26047 net.cpp:406] cont_74_lstm1_cont_slice_73_split <- cont_74
I1017 11:44:05.280795 26047 net.cpp:380] cont_74_lstm1_cont_slice_73_split -> cont_74_lstm1_cont_slice_73_split_0
I1017 11:44:05.280802 26047 net.cpp:380] cont_74_lstm1_cont_slice_73_split -> cont_74_lstm1_cont_slice_73_split_1
I1017 11:44:05.280831 26047 net.cpp:122] Setting up cont_74_lstm1_cont_slice_73_split
I1017 11:44:05.280838 26047 net.cpp:129] Top shape: 1 5 (5)
I1017 11:44:05.280843 26047 net.cpp:129] Top shape: 1 5 (5)
I1017 11:44:05.280848 26047 net.cpp:137] Memory required for data: 530320
I1017 11:44:05.280851 26047 layer_factory.hpp:77] Creating layer cont_75_lstm1_cont_slice_74_split
I1017 11:44:05.280856 26047 net.cpp:84] Creating Layer cont_75_lstm1_cont_slice_74_split
I1017 11:44:05.280861 26047 net.cpp:406] cont_75_lstm1_cont_slice_74_split <- cont_75
I1017 11:44:05.280866 26047 net.cpp:380] cont_75_lstm1_cont_slice_74_split -> cont_75_lstm1_cont_slice_74_split_0
I1017 11:44:05.280874 26047 net.cpp:380] cont_75_lstm1_cont_slice_74_split -> cont_75_lstm1_cont_slice_74_split_1
I1017 11:44:05.280903 26047 net.cpp:122] Setting up cont_75_lstm1_cont_slice_74_split
I1017 11:44:05.280910 26047 net.cpp:129] Top shape: 1 5 (5)
I1017 11:44:05.280915 26047 net.cpp:129] Top shape: 1 5 (5)
I1017 11:44:05.280920 26047 net.cpp:137] Memory required for data: 530360
I1017 11:44:05.280923 26047 layer_factory.hpp:77] Creating layer cont_76_lstm1_cont_slice_75_split
I1017 11:44:05.280928 26047 net.cpp:84] Creating Layer cont_76_lstm1_cont_slice_75_split
I1017 11:44:05.280932 26047 net.cpp:406] cont_76_lstm1_cont_slice_75_split <- cont_76
I1017 11:44:05.280939 26047 net.cpp:380] cont_76_lstm1_cont_slice_75_split -> cont_76_lstm1_cont_slice_75_split_0
I1017 11:44:05.280946 26047 net.cpp:380] cont_76_lstm1_cont_slice_75_split -> cont_76_lstm1_cont_slice_75_split_1
I1017 11:44:05.280975 26047 net.cpp:122] Setting up cont_76_lstm1_cont_slice_75_split
I1017 11:44:05.280982 26047 net.cpp:129] Top shape: 1 5 (5)
I1017 11:44:05.280987 26047 net.cpp:129] Top shape: 1 5 (5)
I1017 11:44:05.280992 26047 net.cpp:137] Memory required for data: 530400
I1017 11:44:05.280995 26047 layer_factory.hpp:77] Creating layer cont_77_lstm1_cont_slice_76_split
I1017 11:44:05.281000 26047 net.cpp:84] Creating Layer cont_77_lstm1_cont_slice_76_split
I1017 11:44:05.281004 26047 net.cpp:406] cont_77_lstm1_cont_slice_76_split <- cont_77
I1017 11:44:05.281013 26047 net.cpp:380] cont_77_lstm1_cont_slice_76_split -> cont_77_lstm1_cont_slice_76_split_0
I1017 11:44:05.281019 26047 net.cpp:380] cont_77_lstm1_cont_slice_76_split -> cont_77_lstm1_cont_slice_76_split_1
I1017 11:44:05.281047 26047 net.cpp:122] Setting up cont_77_lstm1_cont_slice_76_split
I1017 11:44:05.281054 26047 net.cpp:129] Top shape: 1 5 (5)
I1017 11:44:05.281059 26047 net.cpp:129] Top shape: 1 5 (5)
I1017 11:44:05.281064 26047 net.cpp:137] Memory required for data: 530440
I1017 11:44:05.281067 26047 layer_factory.hpp:77] Creating layer cont_78_lstm1_cont_slice_77_split
I1017 11:44:05.281075 26047 net.cpp:84] Creating Layer cont_78_lstm1_cont_slice_77_split
I1017 11:44:05.281078 26047 net.cpp:406] cont_78_lstm1_cont_slice_77_split <- cont_78
I1017 11:44:05.281085 26047 net.cpp:380] cont_78_lstm1_cont_slice_77_split -> cont_78_lstm1_cont_slice_77_split_0
I1017 11:44:05.281091 26047 net.cpp:380] cont_78_lstm1_cont_slice_77_split -> cont_78_lstm1_cont_slice_77_split_1
I1017 11:44:05.281121 26047 net.cpp:122] Setting up cont_78_lstm1_cont_slice_77_split
I1017 11:44:05.281128 26047 net.cpp:129] Top shape: 1 5 (5)
I1017 11:44:05.281133 26047 net.cpp:129] Top shape: 1 5 (5)
I1017 11:44:05.281137 26047 net.cpp:137] Memory required for data: 530480
I1017 11:44:05.281141 26047 layer_factory.hpp:77] Creating layer cont_79_lstm1_cont_slice_78_split
I1017 11:44:05.281147 26047 net.cpp:84] Creating Layer cont_79_lstm1_cont_slice_78_split
I1017 11:44:05.281152 26047 net.cpp:406] cont_79_lstm1_cont_slice_78_split <- cont_79
I1017 11:44:05.281157 26047 net.cpp:380] cont_79_lstm1_cont_slice_78_split -> cont_79_lstm1_cont_slice_78_split_0
I1017 11:44:05.281164 26047 net.cpp:380] cont_79_lstm1_cont_slice_78_split -> cont_79_lstm1_cont_slice_78_split_1
I1017 11:44:05.281194 26047 net.cpp:122] Setting up cont_79_lstm1_cont_slice_78_split
I1017 11:44:05.281200 26047 net.cpp:129] Top shape: 1 5 (5)
I1017 11:44:05.281205 26047 net.cpp:129] Top shape: 1 5 (5)
I1017 11:44:05.281210 26047 net.cpp:137] Memory required for data: 530520
I1017 11:44:05.281214 26047 layer_factory.hpp:77] Creating layer cont_80_lstm1_cont_slice_79_split
I1017 11:44:05.281219 26047 net.cpp:84] Creating Layer cont_80_lstm1_cont_slice_79_split
I1017 11:44:05.281224 26047 net.cpp:406] cont_80_lstm1_cont_slice_79_split <- cont_80
I1017 11:44:05.281231 26047 net.cpp:380] cont_80_lstm1_cont_slice_79_split -> cont_80_lstm1_cont_slice_79_split_0
I1017 11:44:05.281239 26047 net.cpp:380] cont_80_lstm1_cont_slice_79_split -> cont_80_lstm1_cont_slice_79_split_1
I1017 11:44:05.281266 26047 net.cpp:122] Setting up cont_80_lstm1_cont_slice_79_split
I1017 11:44:05.281273 26047 net.cpp:129] Top shape: 1 5 (5)
I1017 11:44:05.281278 26047 net.cpp:129] Top shape: 1 5 (5)
I1017 11:44:05.281282 26047 net.cpp:137] Memory required for data: 530560
I1017 11:44:05.281286 26047 layer_factory.hpp:77] Creating layer cont_81_lstm1_cont_slice_80_split
I1017 11:44:05.281293 26047 net.cpp:84] Creating Layer cont_81_lstm1_cont_slice_80_split
I1017 11:44:05.281298 26047 net.cpp:406] cont_81_lstm1_cont_slice_80_split <- cont_81
I1017 11:44:05.281303 26047 net.cpp:380] cont_81_lstm1_cont_slice_80_split -> cont_81_lstm1_cont_slice_80_split_0
I1017 11:44:05.281311 26047 net.cpp:380] cont_81_lstm1_cont_slice_80_split -> cont_81_lstm1_cont_slice_80_split_1
I1017 11:44:05.281340 26047 net.cpp:122] Setting up cont_81_lstm1_cont_slice_80_split
I1017 11:44:05.281347 26047 net.cpp:129] Top shape: 1 5 (5)
I1017 11:44:05.281352 26047 net.cpp:129] Top shape: 1 5 (5)
I1017 11:44:05.281357 26047 net.cpp:137] Memory required for data: 530600
I1017 11:44:05.281360 26047 layer_factory.hpp:77] Creating layer cont_82_lstm1_cont_slice_81_split
I1017 11:44:05.281365 26047 net.cpp:84] Creating Layer cont_82_lstm1_cont_slice_81_split
I1017 11:44:05.281370 26047 net.cpp:406] cont_82_lstm1_cont_slice_81_split <- cont_82
I1017 11:44:05.281375 26047 net.cpp:380] cont_82_lstm1_cont_slice_81_split -> cont_82_lstm1_cont_slice_81_split_0
I1017 11:44:05.281383 26047 net.cpp:380] cont_82_lstm1_cont_slice_81_split -> cont_82_lstm1_cont_slice_81_split_1
I1017 11:44:05.281412 26047 net.cpp:122] Setting up cont_82_lstm1_cont_slice_81_split
I1017 11:44:05.281419 26047 net.cpp:129] Top shape: 1 5 (5)
I1017 11:44:05.281424 26047 net.cpp:129] Top shape: 1 5 (5)
I1017 11:44:05.281428 26047 net.cpp:137] Memory required for data: 530640
I1017 11:44:05.281432 26047 layer_factory.hpp:77] Creating layer cont_83_lstm1_cont_slice_82_split
I1017 11:44:05.281437 26047 net.cpp:84] Creating Layer cont_83_lstm1_cont_slice_82_split
I1017 11:44:05.281442 26047 net.cpp:406] cont_83_lstm1_cont_slice_82_split <- cont_83
I1017 11:44:05.281448 26047 net.cpp:380] cont_83_lstm1_cont_slice_82_split -> cont_83_lstm1_cont_slice_82_split_0
I1017 11:44:05.281455 26047 net.cpp:380] cont_83_lstm1_cont_slice_82_split -> cont_83_lstm1_cont_slice_82_split_1
I1017 11:44:05.281486 26047 net.cpp:122] Setting up cont_83_lstm1_cont_slice_82_split
I1017 11:44:05.281492 26047 net.cpp:129] Top shape: 1 5 (5)
I1017 11:44:05.281497 26047 net.cpp:129] Top shape: 1 5 (5)
I1017 11:44:05.281502 26047 net.cpp:137] Memory required for data: 530680
I1017 11:44:05.281507 26047 layer_factory.hpp:77] Creating layer cont_84_lstm1_cont_slice_83_split
I1017 11:44:05.281512 26047 net.cpp:84] Creating Layer cont_84_lstm1_cont_slice_83_split
I1017 11:44:05.281515 26047 net.cpp:406] cont_84_lstm1_cont_slice_83_split <- cont_84
I1017 11:44:05.281523 26047 net.cpp:380] cont_84_lstm1_cont_slice_83_split -> cont_84_lstm1_cont_slice_83_split_0
I1017 11:44:05.281530 26047 net.cpp:380] cont_84_lstm1_cont_slice_83_split -> cont_84_lstm1_cont_slice_83_split_1
I1017 11:44:05.281558 26047 net.cpp:122] Setting up cont_84_lstm1_cont_slice_83_split
I1017 11:44:05.281564 26047 net.cpp:129] Top shape: 1 5 (5)
I1017 11:44:05.281569 26047 net.cpp:129] Top shape: 1 5 (5)
I1017 11:44:05.281574 26047 net.cpp:137] Memory required for data: 530720
I1017 11:44:05.281577 26047 layer_factory.hpp:77] Creating layer cont_85_lstm1_cont_slice_84_split
I1017 11:44:05.281584 26047 net.cpp:84] Creating Layer cont_85_lstm1_cont_slice_84_split
I1017 11:44:05.281589 26047 net.cpp:406] cont_85_lstm1_cont_slice_84_split <- cont_85
I1017 11:44:05.281595 26047 net.cpp:380] cont_85_lstm1_cont_slice_84_split -> cont_85_lstm1_cont_slice_84_split_0
I1017 11:44:05.281602 26047 net.cpp:380] cont_85_lstm1_cont_slice_84_split -> cont_85_lstm1_cont_slice_84_split_1
I1017 11:44:05.281632 26047 net.cpp:122] Setting up cont_85_lstm1_cont_slice_84_split
I1017 11:44:05.281638 26047 net.cpp:129] Top shape: 1 5 (5)
I1017 11:44:05.281643 26047 net.cpp:129] Top shape: 1 5 (5)
I1017 11:44:05.281648 26047 net.cpp:137] Memory required for data: 530760
I1017 11:44:05.281652 26047 layer_factory.hpp:77] Creating layer cont_86_lstm1_cont_slice_85_split
I1017 11:44:05.281657 26047 net.cpp:84] Creating Layer cont_86_lstm1_cont_slice_85_split
I1017 11:44:05.281661 26047 net.cpp:406] cont_86_lstm1_cont_slice_85_split <- cont_86
I1017 11:44:05.281667 26047 net.cpp:380] cont_86_lstm1_cont_slice_85_split -> cont_86_lstm1_cont_slice_85_split_0
I1017 11:44:05.281674 26047 net.cpp:380] cont_86_lstm1_cont_slice_85_split -> cont_86_lstm1_cont_slice_85_split_1
I1017 11:44:05.281704 26047 net.cpp:122] Setting up cont_86_lstm1_cont_slice_85_split
I1017 11:44:05.281711 26047 net.cpp:129] Top shape: 1 5 (5)
I1017 11:44:05.281716 26047 net.cpp:129] Top shape: 1 5 (5)
I1017 11:44:05.281720 26047 net.cpp:137] Memory required for data: 530800
I1017 11:44:05.281724 26047 layer_factory.hpp:77] Creating layer cont_87_lstm1_cont_slice_86_split
I1017 11:44:05.281729 26047 net.cpp:84] Creating Layer cont_87_lstm1_cont_slice_86_split
I1017 11:44:05.281734 26047 net.cpp:406] cont_87_lstm1_cont_slice_86_split <- cont_87
I1017 11:44:05.281740 26047 net.cpp:380] cont_87_lstm1_cont_slice_86_split -> cont_87_lstm1_cont_slice_86_split_0
I1017 11:44:05.281750 26047 net.cpp:380] cont_87_lstm1_cont_slice_86_split -> cont_87_lstm1_cont_slice_86_split_1
I1017 11:44:05.281779 26047 net.cpp:122] Setting up cont_87_lstm1_cont_slice_86_split
I1017 11:44:05.281785 26047 net.cpp:129] Top shape: 1 5 (5)
I1017 11:44:05.281790 26047 net.cpp:129] Top shape: 1 5 (5)
I1017 11:44:05.281795 26047 net.cpp:137] Memory required for data: 530840
I1017 11:44:05.281798 26047 layer_factory.hpp:77] Creating layer cont_88_lstm1_cont_slice_87_split
I1017 11:44:05.281805 26047 net.cpp:84] Creating Layer cont_88_lstm1_cont_slice_87_split
I1017 11:44:05.281810 26047 net.cpp:406] cont_88_lstm1_cont_slice_87_split <- cont_88
I1017 11:44:05.281816 26047 net.cpp:380] cont_88_lstm1_cont_slice_87_split -> cont_88_lstm1_cont_slice_87_split_0
I1017 11:44:05.281823 26047 net.cpp:380] cont_88_lstm1_cont_slice_87_split -> cont_88_lstm1_cont_slice_87_split_1
I1017 11:44:05.281855 26047 net.cpp:122] Setting up cont_88_lstm1_cont_slice_87_split
I1017 11:44:05.281863 26047 net.cpp:129] Top shape: 1 5 (5)
I1017 11:44:05.281868 26047 net.cpp:129] Top shape: 1 5 (5)
I1017 11:44:05.281872 26047 net.cpp:137] Memory required for data: 530880
I1017 11:44:05.281877 26047 layer_factory.hpp:77] Creating layer cont_89_lstm1_cont_slice_88_split
I1017 11:44:05.281882 26047 net.cpp:84] Creating Layer cont_89_lstm1_cont_slice_88_split
I1017 11:44:05.281886 26047 net.cpp:406] cont_89_lstm1_cont_slice_88_split <- cont_89
I1017 11:44:05.281893 26047 net.cpp:380] cont_89_lstm1_cont_slice_88_split -> cont_89_lstm1_cont_slice_88_split_0
I1017 11:44:05.281899 26047 net.cpp:380] cont_89_lstm1_cont_slice_88_split -> cont_89_lstm1_cont_slice_88_split_1
I1017 11:44:05.281930 26047 net.cpp:122] Setting up cont_89_lstm1_cont_slice_88_split
I1017 11:44:05.281937 26047 net.cpp:129] Top shape: 1 5 (5)
I1017 11:44:05.281942 26047 net.cpp:129] Top shape: 1 5 (5)
I1017 11:44:05.281946 26047 net.cpp:137] Memory required for data: 530920
I1017 11:44:05.281950 26047 layer_factory.hpp:77] Creating layer cont_90_lstm1_cont_slice_89_split
I1017 11:44:05.281955 26047 net.cpp:84] Creating Layer cont_90_lstm1_cont_slice_89_split
I1017 11:44:05.281960 26047 net.cpp:406] cont_90_lstm1_cont_slice_89_split <- cont_90
I1017 11:44:05.281966 26047 net.cpp:380] cont_90_lstm1_cont_slice_89_split -> cont_90_lstm1_cont_slice_89_split_0
I1017 11:44:05.281972 26047 net.cpp:380] cont_90_lstm1_cont_slice_89_split -> cont_90_lstm1_cont_slice_89_split_1
I1017 11:44:05.282003 26047 net.cpp:122] Setting up cont_90_lstm1_cont_slice_89_split
I1017 11:44:05.282009 26047 net.cpp:129] Top shape: 1 5 (5)
I1017 11:44:05.282014 26047 net.cpp:129] Top shape: 1 5 (5)
I1017 11:44:05.282018 26047 net.cpp:137] Memory required for data: 530960
I1017 11:44:05.282022 26047 layer_factory.hpp:77] Creating layer cont_91_lstm1_cont_slice_90_split
I1017 11:44:05.282027 26047 net.cpp:84] Creating Layer cont_91_lstm1_cont_slice_90_split
I1017 11:44:05.282032 26047 net.cpp:406] cont_91_lstm1_cont_slice_90_split <- cont_91
I1017 11:44:05.282039 26047 net.cpp:380] cont_91_lstm1_cont_slice_90_split -> cont_91_lstm1_cont_slice_90_split_0
I1017 11:44:05.282047 26047 net.cpp:380] cont_91_lstm1_cont_slice_90_split -> cont_91_lstm1_cont_slice_90_split_1
I1017 11:44:05.282074 26047 net.cpp:122] Setting up cont_91_lstm1_cont_slice_90_split
I1017 11:44:05.282081 26047 net.cpp:129] Top shape: 1 5 (5)
I1017 11:44:05.282086 26047 net.cpp:129] Top shape: 1 5 (5)
I1017 11:44:05.282090 26047 net.cpp:137] Memory required for data: 531000
I1017 11:44:05.282094 26047 layer_factory.hpp:77] Creating layer cont_92_lstm1_cont_slice_91_split
I1017 11:44:05.282101 26047 net.cpp:84] Creating Layer cont_92_lstm1_cont_slice_91_split
I1017 11:44:05.282106 26047 net.cpp:406] cont_92_lstm1_cont_slice_91_split <- cont_92
I1017 11:44:05.282112 26047 net.cpp:380] cont_92_lstm1_cont_slice_91_split -> cont_92_lstm1_cont_slice_91_split_0
I1017 11:44:05.282119 26047 net.cpp:380] cont_92_lstm1_cont_slice_91_split -> cont_92_lstm1_cont_slice_91_split_1
I1017 11:44:05.282148 26047 net.cpp:122] Setting up cont_92_lstm1_cont_slice_91_split
I1017 11:44:05.282155 26047 net.cpp:129] Top shape: 1 5 (5)
I1017 11:44:05.282160 26047 net.cpp:129] Top shape: 1 5 (5)
I1017 11:44:05.282165 26047 net.cpp:137] Memory required for data: 531040
I1017 11:44:05.282168 26047 layer_factory.hpp:77] Creating layer cont_93_lstm1_cont_slice_92_split
I1017 11:44:05.282173 26047 net.cpp:84] Creating Layer cont_93_lstm1_cont_slice_92_split
I1017 11:44:05.282178 26047 net.cpp:406] cont_93_lstm1_cont_slice_92_split <- cont_93
I1017 11:44:05.282183 26047 net.cpp:380] cont_93_lstm1_cont_slice_92_split -> cont_93_lstm1_cont_slice_92_split_0
I1017 11:44:05.282191 26047 net.cpp:380] cont_93_lstm1_cont_slice_92_split -> cont_93_lstm1_cont_slice_92_split_1
I1017 11:44:05.282220 26047 net.cpp:122] Setting up cont_93_lstm1_cont_slice_92_split
I1017 11:44:05.282227 26047 net.cpp:129] Top shape: 1 5 (5)
I1017 11:44:05.282232 26047 net.cpp:129] Top shape: 1 5 (5)
I1017 11:44:05.282236 26047 net.cpp:137] Memory required for data: 531080
I1017 11:44:05.282240 26047 layer_factory.hpp:77] Creating layer cont_94_lstm1_cont_slice_93_split
I1017 11:44:05.282245 26047 net.cpp:84] Creating Layer cont_94_lstm1_cont_slice_93_split
I1017 11:44:05.282250 26047 net.cpp:406] cont_94_lstm1_cont_slice_93_split <- cont_94
I1017 11:44:05.282255 26047 net.cpp:380] cont_94_lstm1_cont_slice_93_split -> cont_94_lstm1_cont_slice_93_split_0
I1017 11:44:05.282265 26047 net.cpp:380] cont_94_lstm1_cont_slice_93_split -> cont_94_lstm1_cont_slice_93_split_1
I1017 11:44:05.282294 26047 net.cpp:122] Setting up cont_94_lstm1_cont_slice_93_split
I1017 11:44:05.282299 26047 net.cpp:129] Top shape: 1 5 (5)
I1017 11:44:05.282305 26047 net.cpp:129] Top shape: 1 5 (5)
I1017 11:44:05.282310 26047 net.cpp:137] Memory required for data: 531120
I1017 11:44:05.282313 26047 layer_factory.hpp:77] Creating layer cont_95_lstm1_cont_slice_94_split
I1017 11:44:05.282320 26047 net.cpp:84] Creating Layer cont_95_lstm1_cont_slice_94_split
I1017 11:44:05.282325 26047 net.cpp:406] cont_95_lstm1_cont_slice_94_split <- cont_95
I1017 11:44:05.282330 26047 net.cpp:380] cont_95_lstm1_cont_slice_94_split -> cont_95_lstm1_cont_slice_94_split_0
I1017 11:44:05.282337 26047 net.cpp:380] cont_95_lstm1_cont_slice_94_split -> cont_95_lstm1_cont_slice_94_split_1
I1017 11:44:05.282367 26047 net.cpp:122] Setting up cont_95_lstm1_cont_slice_94_split
I1017 11:44:05.282373 26047 net.cpp:129] Top shape: 1 5 (5)
I1017 11:44:05.282378 26047 net.cpp:129] Top shape: 1 5 (5)
I1017 11:44:05.282382 26047 net.cpp:137] Memory required for data: 531160
I1017 11:44:05.282387 26047 layer_factory.hpp:77] Creating layer cont_96_lstm1_cont_slice_95_split
I1017 11:44:05.282392 26047 net.cpp:84] Creating Layer cont_96_lstm1_cont_slice_95_split
I1017 11:44:05.282397 26047 net.cpp:406] cont_96_lstm1_cont_slice_95_split <- cont_96
I1017 11:44:05.282402 26047 net.cpp:380] cont_96_lstm1_cont_slice_95_split -> cont_96_lstm1_cont_slice_95_split_0
I1017 11:44:05.282409 26047 net.cpp:380] cont_96_lstm1_cont_slice_95_split -> cont_96_lstm1_cont_slice_95_split_1
I1017 11:44:05.282439 26047 net.cpp:122] Setting up cont_96_lstm1_cont_slice_95_split
I1017 11:44:05.282445 26047 net.cpp:129] Top shape: 1 5 (5)
I1017 11:44:05.282450 26047 net.cpp:129] Top shape: 1 5 (5)
I1017 11:44:05.282455 26047 net.cpp:137] Memory required for data: 531200
I1017 11:44:05.282459 26047 layer_factory.hpp:77] Creating layer cont_97_lstm1_cont_slice_96_split
I1017 11:44:05.282464 26047 net.cpp:84] Creating Layer cont_97_lstm1_cont_slice_96_split
I1017 11:44:05.282469 26047 net.cpp:406] cont_97_lstm1_cont_slice_96_split <- cont_97
I1017 11:44:05.282474 26047 net.cpp:380] cont_97_lstm1_cont_slice_96_split -> cont_97_lstm1_cont_slice_96_split_0
I1017 11:44:05.282481 26047 net.cpp:380] cont_97_lstm1_cont_slice_96_split -> cont_97_lstm1_cont_slice_96_split_1
I1017 11:44:05.282511 26047 net.cpp:122] Setting up cont_97_lstm1_cont_slice_96_split
I1017 11:44:05.282517 26047 net.cpp:129] Top shape: 1 5 (5)
I1017 11:44:05.282522 26047 net.cpp:129] Top shape: 1 5 (5)
I1017 11:44:05.282526 26047 net.cpp:137] Memory required for data: 531240
I1017 11:44:05.282531 26047 layer_factory.hpp:77] Creating layer cont_98_lstm1_cont_slice_97_split
I1017 11:44:05.282536 26047 net.cpp:84] Creating Layer cont_98_lstm1_cont_slice_97_split
I1017 11:44:05.282541 26047 net.cpp:406] cont_98_lstm1_cont_slice_97_split <- cont_98
I1017 11:44:05.282548 26047 net.cpp:380] cont_98_lstm1_cont_slice_97_split -> cont_98_lstm1_cont_slice_97_split_0
I1017 11:44:05.282555 26047 net.cpp:380] cont_98_lstm1_cont_slice_97_split -> cont_98_lstm1_cont_slice_97_split_1
I1017 11:44:05.282585 26047 net.cpp:122] Setting up cont_98_lstm1_cont_slice_97_split
I1017 11:44:05.282591 26047 net.cpp:129] Top shape: 1 5 (5)
I1017 11:44:05.282596 26047 net.cpp:129] Top shape: 1 5 (5)
I1017 11:44:05.282600 26047 net.cpp:137] Memory required for data: 531280
I1017 11:44:05.282604 26047 layer_factory.hpp:77] Creating layer cont_99_lstm1_cont_slice_98_split
I1017 11:44:05.282611 26047 net.cpp:84] Creating Layer cont_99_lstm1_cont_slice_98_split
I1017 11:44:05.282616 26047 net.cpp:406] cont_99_lstm1_cont_slice_98_split <- cont_99
I1017 11:44:05.282622 26047 net.cpp:380] cont_99_lstm1_cont_slice_98_split -> cont_99_lstm1_cont_slice_98_split_0
I1017 11:44:05.282629 26047 net.cpp:380] cont_99_lstm1_cont_slice_98_split -> cont_99_lstm1_cont_slice_98_split_1
I1017 11:44:05.282660 26047 net.cpp:122] Setting up cont_99_lstm1_cont_slice_98_split
I1017 11:44:05.282666 26047 net.cpp:129] Top shape: 1 5 (5)
I1017 11:44:05.282671 26047 net.cpp:129] Top shape: 1 5 (5)
I1017 11:44:05.282675 26047 net.cpp:137] Memory required for data: 531320
I1017 11:44:05.282680 26047 layer_factory.hpp:77] Creating layer cont_100_lstm1_cont_slice_99_split
I1017 11:44:05.282685 26047 net.cpp:84] Creating Layer cont_100_lstm1_cont_slice_99_split
I1017 11:44:05.282690 26047 net.cpp:406] cont_100_lstm1_cont_slice_99_split <- cont_100
I1017 11:44:05.282696 26047 net.cpp:380] cont_100_lstm1_cont_slice_99_split -> cont_100_lstm1_cont_slice_99_split_0
I1017 11:44:05.282702 26047 net.cpp:380] cont_100_lstm1_cont_slice_99_split -> cont_100_lstm1_cont_slice_99_split_1
I1017 11:44:05.282733 26047 net.cpp:122] Setting up cont_100_lstm1_cont_slice_99_split
I1017 11:44:05.282739 26047 net.cpp:129] Top shape: 1 5 (5)
I1017 11:44:05.282744 26047 net.cpp:129] Top shape: 1 5 (5)
I1017 11:44:05.282748 26047 net.cpp:137] Memory required for data: 531360
I1017 11:44:05.282753 26047 layer_factory.hpp:77] Creating layer cont_101_lstm1_cont_slice_100_split
I1017 11:44:05.282758 26047 net.cpp:84] Creating Layer cont_101_lstm1_cont_slice_100_split
I1017 11:44:05.282763 26047 net.cpp:406] cont_101_lstm1_cont_slice_100_split <- cont_101
I1017 11:44:05.282768 26047 net.cpp:380] cont_101_lstm1_cont_slice_100_split -> cont_101_lstm1_cont_slice_100_split_0
I1017 11:44:05.282775 26047 net.cpp:380] cont_101_lstm1_cont_slice_100_split -> cont_101_lstm1_cont_slice_100_split_1
I1017 11:44:05.282806 26047 net.cpp:122] Setting up cont_101_lstm1_cont_slice_100_split
I1017 11:44:05.282814 26047 net.cpp:129] Top shape: 1 5 (5)
I1017 11:44:05.282819 26047 net.cpp:129] Top shape: 1 5 (5)
I1017 11:44:05.282822 26047 net.cpp:137] Memory required for data: 531400
I1017 11:44:05.282826 26047 layer_factory.hpp:77] Creating layer cont_102_lstm1_cont_slice_101_split
I1017 11:44:05.282831 26047 net.cpp:84] Creating Layer cont_102_lstm1_cont_slice_101_split
I1017 11:44:05.282841 26047 net.cpp:406] cont_102_lstm1_cont_slice_101_split <- cont_102
I1017 11:44:05.282850 26047 net.cpp:380] cont_102_lstm1_cont_slice_101_split -> cont_102_lstm1_cont_slice_101_split_0
I1017 11:44:05.282856 26047 net.cpp:380] cont_102_lstm1_cont_slice_101_split -> cont_102_lstm1_cont_slice_101_split_1
I1017 11:44:05.282887 26047 net.cpp:122] Setting up cont_102_lstm1_cont_slice_101_split
I1017 11:44:05.282894 26047 net.cpp:129] Top shape: 1 5 (5)
I1017 11:44:05.282899 26047 net.cpp:129] Top shape: 1 5 (5)
I1017 11:44:05.282903 26047 net.cpp:137] Memory required for data: 531440
I1017 11:44:05.282907 26047 layer_factory.hpp:77] Creating layer cont_103_lstm1_cont_slice_102_split
I1017 11:44:05.282912 26047 net.cpp:84] Creating Layer cont_103_lstm1_cont_slice_102_split
I1017 11:44:05.282917 26047 net.cpp:406] cont_103_lstm1_cont_slice_102_split <- cont_103
I1017 11:44:05.282923 26047 net.cpp:380] cont_103_lstm1_cont_slice_102_split -> cont_103_lstm1_cont_slice_102_split_0
I1017 11:44:05.282929 26047 net.cpp:380] cont_103_lstm1_cont_slice_102_split -> cont_103_lstm1_cont_slice_102_split_1
I1017 11:44:05.282960 26047 net.cpp:122] Setting up cont_103_lstm1_cont_slice_102_split
I1017 11:44:05.282968 26047 net.cpp:129] Top shape: 1 5 (5)
I1017 11:44:05.282972 26047 net.cpp:129] Top shape: 1 5 (5)
I1017 11:44:05.282976 26047 net.cpp:137] Memory required for data: 531480
I1017 11:44:05.282980 26047 layer_factory.hpp:77] Creating layer cont_104_lstm1_cont_slice_103_split
I1017 11:44:05.282986 26047 net.cpp:84] Creating Layer cont_104_lstm1_cont_slice_103_split
I1017 11:44:05.282990 26047 net.cpp:406] cont_104_lstm1_cont_slice_103_split <- cont_104
I1017 11:44:05.282996 26047 net.cpp:380] cont_104_lstm1_cont_slice_103_split -> cont_104_lstm1_cont_slice_103_split_0
I1017 11:44:05.283004 26047 net.cpp:380] cont_104_lstm1_cont_slice_103_split -> cont_104_lstm1_cont_slice_103_split_1
I1017 11:44:05.283035 26047 net.cpp:122] Setting up cont_104_lstm1_cont_slice_103_split
I1017 11:44:05.283041 26047 net.cpp:129] Top shape: 1 5 (5)
I1017 11:44:05.283046 26047 net.cpp:129] Top shape: 1 5 (5)
I1017 11:44:05.283049 26047 net.cpp:137] Memory required for data: 531520
I1017 11:44:05.283053 26047 layer_factory.hpp:77] Creating layer cont_105_lstm1_cont_slice_104_split
I1017 11:44:05.283059 26047 net.cpp:84] Creating Layer cont_105_lstm1_cont_slice_104_split
I1017 11:44:05.283063 26047 net.cpp:406] cont_105_lstm1_cont_slice_104_split <- cont_105
I1017 11:44:05.283071 26047 net.cpp:380] cont_105_lstm1_cont_slice_104_split -> cont_105_lstm1_cont_slice_104_split_0
I1017 11:44:05.283079 26047 net.cpp:380] cont_105_lstm1_cont_slice_104_split -> cont_105_lstm1_cont_slice_104_split_1
I1017 11:44:05.283107 26047 net.cpp:122] Setting up cont_105_lstm1_cont_slice_104_split
I1017 11:44:05.283114 26047 net.cpp:129] Top shape: 1 5 (5)
I1017 11:44:05.283119 26047 net.cpp:129] Top shape: 1 5 (5)
I1017 11:44:05.283123 26047 net.cpp:137] Memory required for data: 531560
I1017 11:44:05.283128 26047 layer_factory.hpp:77] Creating layer cont_106_lstm1_cont_slice_105_split
I1017 11:44:05.283134 26047 net.cpp:84] Creating Layer cont_106_lstm1_cont_slice_105_split
I1017 11:44:05.283139 26047 net.cpp:406] cont_106_lstm1_cont_slice_105_split <- cont_106
I1017 11:44:05.283144 26047 net.cpp:380] cont_106_lstm1_cont_slice_105_split -> cont_106_lstm1_cont_slice_105_split_0
I1017 11:44:05.283151 26047 net.cpp:380] cont_106_lstm1_cont_slice_105_split -> cont_106_lstm1_cont_slice_105_split_1
I1017 11:44:05.283182 26047 net.cpp:122] Setting up cont_106_lstm1_cont_slice_105_split
I1017 11:44:05.283188 26047 net.cpp:129] Top shape: 1 5 (5)
I1017 11:44:05.283193 26047 net.cpp:129] Top shape: 1 5 (5)
I1017 11:44:05.283197 26047 net.cpp:137] Memory required for data: 531600
I1017 11:44:05.283201 26047 layer_factory.hpp:77] Creating layer cont_107_lstm1_cont_slice_106_split
I1017 11:44:05.283207 26047 net.cpp:84] Creating Layer cont_107_lstm1_cont_slice_106_split
I1017 11:44:05.283211 26047 net.cpp:406] cont_107_lstm1_cont_slice_106_split <- cont_107
I1017 11:44:05.283217 26047 net.cpp:380] cont_107_lstm1_cont_slice_106_split -> cont_107_lstm1_cont_slice_106_split_0
I1017 11:44:05.283224 26047 net.cpp:380] cont_107_lstm1_cont_slice_106_split -> cont_107_lstm1_cont_slice_106_split_1
I1017 11:44:05.283254 26047 net.cpp:122] Setting up cont_107_lstm1_cont_slice_106_split
I1017 11:44:05.283262 26047 net.cpp:129] Top shape: 1 5 (5)
I1017 11:44:05.283267 26047 net.cpp:129] Top shape: 1 5 (5)
I1017 11:44:05.283270 26047 net.cpp:137] Memory required for data: 531640
I1017 11:44:05.283274 26047 layer_factory.hpp:77] Creating layer cont_108_lstm1_cont_slice_107_split
I1017 11:44:05.283279 26047 net.cpp:84] Creating Layer cont_108_lstm1_cont_slice_107_split
I1017 11:44:05.283284 26047 net.cpp:406] cont_108_lstm1_cont_slice_107_split <- cont_108
I1017 11:44:05.283289 26047 net.cpp:380] cont_108_lstm1_cont_slice_107_split -> cont_108_lstm1_cont_slice_107_split_0
I1017 11:44:05.283296 26047 net.cpp:380] cont_108_lstm1_cont_slice_107_split -> cont_108_lstm1_cont_slice_107_split_1
I1017 11:44:05.283326 26047 net.cpp:122] Setting up cont_108_lstm1_cont_slice_107_split
I1017 11:44:05.283332 26047 net.cpp:129] Top shape: 1 5 (5)
I1017 11:44:05.285673 26047 net.cpp:129] Top shape: 1 5 (5)
I1017 11:44:05.285684 26047 net.cpp:137] Memory required for data: 531680
I1017 11:44:05.285689 26047 layer_factory.hpp:77] Creating layer cont_109_lstm1_cont_slice_108_split
I1017 11:44:05.285696 26047 net.cpp:84] Creating Layer cont_109_lstm1_cont_slice_108_split
I1017 11:44:05.285702 26047 net.cpp:406] cont_109_lstm1_cont_slice_108_split <- cont_109
I1017 11:44:05.285717 26047 net.cpp:380] cont_109_lstm1_cont_slice_108_split -> cont_109_lstm1_cont_slice_108_split_0
I1017 11:44:05.285727 26047 net.cpp:380] cont_109_lstm1_cont_slice_108_split -> cont_109_lstm1_cont_slice_108_split_1
I1017 11:44:05.285773 26047 net.cpp:122] Setting up cont_109_lstm1_cont_slice_108_split
I1017 11:44:05.285781 26047 net.cpp:129] Top shape: 1 5 (5)
I1017 11:44:05.285786 26047 net.cpp:129] Top shape: 1 5 (5)
I1017 11:44:05.285790 26047 net.cpp:137] Memory required for data: 531720
I1017 11:44:05.285794 26047 layer_factory.hpp:77] Creating layer cont_110_lstm1_cont_slice_109_split
I1017 11:44:05.285802 26047 net.cpp:84] Creating Layer cont_110_lstm1_cont_slice_109_split
I1017 11:44:05.285807 26047 net.cpp:406] cont_110_lstm1_cont_slice_109_split <- cont_110
I1017 11:44:05.285815 26047 net.cpp:380] cont_110_lstm1_cont_slice_109_split -> cont_110_lstm1_cont_slice_109_split_0
I1017 11:44:05.285821 26047 net.cpp:380] cont_110_lstm1_cont_slice_109_split -> cont_110_lstm1_cont_slice_109_split_1
I1017 11:44:05.285859 26047 net.cpp:122] Setting up cont_110_lstm1_cont_slice_109_split
I1017 11:44:05.285866 26047 net.cpp:129] Top shape: 1 5 (5)
I1017 11:44:05.285871 26047 net.cpp:129] Top shape: 1 5 (5)
I1017 11:44:05.285876 26047 net.cpp:137] Memory required for data: 531760
I1017 11:44:05.285879 26047 layer_factory.hpp:77] Creating layer cont_111_lstm1_cont_slice_110_split
I1017 11:44:05.285886 26047 net.cpp:84] Creating Layer cont_111_lstm1_cont_slice_110_split
I1017 11:44:05.285890 26047 net.cpp:406] cont_111_lstm1_cont_slice_110_split <- cont_111
I1017 11:44:05.285897 26047 net.cpp:380] cont_111_lstm1_cont_slice_110_split -> cont_111_lstm1_cont_slice_110_split_0
I1017 11:44:05.285903 26047 net.cpp:380] cont_111_lstm1_cont_slice_110_split -> cont_111_lstm1_cont_slice_110_split_1
I1017 11:44:05.285938 26047 net.cpp:122] Setting up cont_111_lstm1_cont_slice_110_split
I1017 11:44:05.285943 26047 net.cpp:129] Top shape: 1 5 (5)
I1017 11:44:05.285948 26047 net.cpp:129] Top shape: 1 5 (5)
I1017 11:44:05.285953 26047 net.cpp:137] Memory required for data: 531800
I1017 11:44:05.285957 26047 layer_factory.hpp:77] Creating layer cont_112_lstm1_cont_slice_111_split
I1017 11:44:05.285962 26047 net.cpp:84] Creating Layer cont_112_lstm1_cont_slice_111_split
I1017 11:44:05.285967 26047 net.cpp:406] cont_112_lstm1_cont_slice_111_split <- cont_112
I1017 11:44:05.285975 26047 net.cpp:380] cont_112_lstm1_cont_slice_111_split -> cont_112_lstm1_cont_slice_111_split_0
I1017 11:44:05.285982 26047 net.cpp:380] cont_112_lstm1_cont_slice_111_split -> cont_112_lstm1_cont_slice_111_split_1
I1017 11:44:05.286011 26047 net.cpp:122] Setting up cont_112_lstm1_cont_slice_111_split
I1017 11:44:05.286017 26047 net.cpp:129] Top shape: 1 5 (5)
I1017 11:44:05.286022 26047 net.cpp:129] Top shape: 1 5 (5)
I1017 11:44:05.286026 26047 net.cpp:137] Memory required for data: 531840
I1017 11:44:05.286031 26047 layer_factory.hpp:77] Creating layer cont_113_lstm1_cont_slice_112_split
I1017 11:44:05.286038 26047 net.cpp:84] Creating Layer cont_113_lstm1_cont_slice_112_split
I1017 11:44:05.286042 26047 net.cpp:406] cont_113_lstm1_cont_slice_112_split <- cont_113
I1017 11:44:05.286049 26047 net.cpp:380] cont_113_lstm1_cont_slice_112_split -> cont_113_lstm1_cont_slice_112_split_0
I1017 11:44:05.286056 26047 net.cpp:380] cont_113_lstm1_cont_slice_112_split -> cont_113_lstm1_cont_slice_112_split_1
I1017 11:44:05.286087 26047 net.cpp:122] Setting up cont_113_lstm1_cont_slice_112_split
I1017 11:44:05.286093 26047 net.cpp:129] Top shape: 1 5 (5)
I1017 11:44:05.286098 26047 net.cpp:129] Top shape: 1 5 (5)
I1017 11:44:05.286103 26047 net.cpp:137] Memory required for data: 531880
I1017 11:44:05.286108 26047 layer_factory.hpp:77] Creating layer cont_114_lstm1_cont_slice_113_split
I1017 11:44:05.286113 26047 net.cpp:84] Creating Layer cont_114_lstm1_cont_slice_113_split
I1017 11:44:05.286118 26047 net.cpp:406] cont_114_lstm1_cont_slice_113_split <- cont_114
I1017 11:44:05.286123 26047 net.cpp:380] cont_114_lstm1_cont_slice_113_split -> cont_114_lstm1_cont_slice_113_split_0
I1017 11:44:05.286130 26047 net.cpp:380] cont_114_lstm1_cont_slice_113_split -> cont_114_lstm1_cont_slice_113_split_1
I1017 11:44:05.286164 26047 net.cpp:122] Setting up cont_114_lstm1_cont_slice_113_split
I1017 11:44:05.286171 26047 net.cpp:129] Top shape: 1 5 (5)
I1017 11:44:05.286176 26047 net.cpp:129] Top shape: 1 5 (5)
I1017 11:44:05.286180 26047 net.cpp:137] Memory required for data: 531920
I1017 11:44:05.286185 26047 layer_factory.hpp:77] Creating layer cont_115_lstm1_cont_slice_114_split
I1017 11:44:05.286190 26047 net.cpp:84] Creating Layer cont_115_lstm1_cont_slice_114_split
I1017 11:44:05.286195 26047 net.cpp:406] cont_115_lstm1_cont_slice_114_split <- cont_115
I1017 11:44:05.286201 26047 net.cpp:380] cont_115_lstm1_cont_slice_114_split -> cont_115_lstm1_cont_slice_114_split_0
I1017 11:44:05.286208 26047 net.cpp:380] cont_115_lstm1_cont_slice_114_split -> cont_115_lstm1_cont_slice_114_split_1
I1017 11:44:05.286240 26047 net.cpp:122] Setting up cont_115_lstm1_cont_slice_114_split
I1017 11:44:05.286247 26047 net.cpp:129] Top shape: 1 5 (5)
I1017 11:44:05.286252 26047 net.cpp:129] Top shape: 1 5 (5)
I1017 11:44:05.286257 26047 net.cpp:137] Memory required for data: 531960
I1017 11:44:05.286260 26047 layer_factory.hpp:77] Creating layer cont_116_lstm1_cont_slice_115_split
I1017 11:44:05.286265 26047 net.cpp:84] Creating Layer cont_116_lstm1_cont_slice_115_split
I1017 11:44:05.286270 26047 net.cpp:406] cont_116_lstm1_cont_slice_115_split <- cont_116
I1017 11:44:05.286279 26047 net.cpp:380] cont_116_lstm1_cont_slice_115_split -> cont_116_lstm1_cont_slice_115_split_0
I1017 11:44:05.286286 26047 net.cpp:380] cont_116_lstm1_cont_slice_115_split -> cont_116_lstm1_cont_slice_115_split_1
I1017 11:44:05.286314 26047 net.cpp:122] Setting up cont_116_lstm1_cont_slice_115_split
I1017 11:44:05.286321 26047 net.cpp:129] Top shape: 1 5 (5)
…
I1017 11:44:09.158828 26047 net.cpp:406] lstm1_gate_input_115 <- W_hc_h_114
I1017 11:44:09.158834 26047 net.cpp:406] lstm1_gate_input_115 <- W_xc_x_115
I1017 11:44:09.158843 26047 net.cpp:380] lstm1_gate_input_115 -> gate_input_115
I1017 11:44:09.158875 26047 net.cpp:122] Setting up lstm1_gate_input_115
I1017 11:44:09.158885 26047 net.cpp:129] Top shape: 1 150 2048 (307200)
I1017 11:44:09.158890 26047 net.cpp:137] Memory required for data: 788582400
I1017 11:44:09.158893 26047 layer_factory.hpp:77] Creating layer lstm1_unit_115
I1017 11:44:09.158902 26047 net.cpp:84] Creating Layer lstm1_unit_115
I1017 11:44:09.158910 26047 net.cpp:406] lstm1_unit_115 <- c_114
I1017 11:44:09.158916 26047 net.cpp:406] lstm1_unit_115 <- gate_input_115
I1017 11:44:09.158922 26047 net.cpp:406] lstm1_unit_115 <- cont_115_lstm1_cont_slice_114_split_1
I1017 11:44:09.158929 26047 net.cpp:380] lstm1_unit_115 -> c_115
I1017 11:44:09.158938 26047 net.cpp:380] lstm1_unit_115 -> h_115
I1017 11:44:09.158988 26047 net.cpp:122] Setting up lstm1_unit_115
I1017 11:44:09.158998 26047 net.cpp:129] Top shape: 1 150 512 (76800)
I1017 11:44:09.159004 26047 net.cpp:129] Top shape: 1 150 512 (76800)
I1017 11:44:09.159008 26047 net.cpp:137] Memory required for data: 789196800
I1017 11:44:09.159014 26047 layer_factory.hpp:77] Creating layer h_115_lstm1_unit_115_1_split
I1017 11:44:09.159023 26047 net.cpp:84] Creating Layer h_115_lstm1_unit_115_1_split
I1017 11:44:09.159029 26047 net.cpp:406] h_115_lstm1_unit_115_1_split <- h_115
I1017 11:44:09.159035 26047 net.cpp:380] h_115_lstm1_unit_115_1_split -> h_115_lstm1_unit_115_1_split_0
I1017 11:44:09.159044 26047 net.cpp:380] h_115_lstm1_unit_115_1_split -> h_115_lstm1_unit_115_1_split_1
I1017 11:44:09.159080 26047 net.cpp:122] Setting up h_115_lstm1_unit_115_1_split
I1017 11:44:09.159088 26047 net.cpp:129] Top shape: 1 150 512 (76800)
I1017 11:44:09.159093 26047 net.cpp:129] Top shape: 1 150 512 (76800)
I1017 11:44:09.159097 26047 net.cpp:137] Memory required for data: 789811200
I1017 11:44:09.159102 26047 layer_factory.hpp:77] Creating layer lstm1_h_conted_115
I1017 11:44:09.159111 26047 net.cpp:84] Creating Layer lstm1_h_conted_115
I1017 11:44:09.159117 26047 net.cpp:406] lstm1_h_conted_115 <- h_115_lstm1_unit_115_1_split_0
I1017 11:44:09.159124 26047 net.cpp:406] lstm1_h_conted_115 <- cont_116_lstm1_cont_slice_115_split_0
I1017 11:44:09.159132 26047 net.cpp:380] lstm1_h_conted_115 -> h_conted_115
I1017 11:44:09.159210 26047 net.cpp:122] Setting up lstm1_h_conted_115
I1017 11:44:09.159220 26047 net.cpp:129] Top shape: 1 150 512 (76800)
I1017 11:44:09.159225 26047 net.cpp:137] Memory required for data: 790118400
I1017 11:44:09.159230 26047 layer_factory.hpp:77] Creating layer lstm1_transform_116
I1017 11:44:09.159240 26047 net.cpp:84] Creating Layer lstm1_transform_116
I1017 11:44:09.159245 26047 net.cpp:406] lstm1_transform_116 <- h_conted_115
I1017 11:44:09.159253 26047 net.cpp:380] lstm1_transform_116 -> W_hc_h_115
I1017 11:44:09.171161 26047 net.cpp:122] Setting up lstm1_transform_116
I1017 11:44:09.171178 26047 net.cpp:129] Top shape: 1 150 2048 (307200)
I1017 11:44:09.171183 26047 net.cpp:137] Memory required for data: 791347200
I1017 11:44:09.171188 26047 net.cpp:465] Sharing parameters 'W_hc' owned by layer 'lstm1_transform_1', param index 0
I1017 11:44:09.171195 26047 layer_factory.hpp:77] Creating layer lstm1_gate_input_116
I1017 11:44:09.171203 26047 net.cpp:84] Creating Layer lstm1_gate_input_116
I1017 11:44:09.171210 26047 net.cpp:406] lstm1_gate_input_116 <- W_hc_h_115
I1017 11:44:09.171216 26047 net.cpp:406] lstm1_gate_input_116 <- W_xc_x_116
I1017 11:44:09.171223 26047 net.cpp:380] lstm1_gate_input_116 -> gate_input_116
I1017 11:44:09.171253 26047 net.cpp:122] Setting up lstm1_gate_input_116
I1017 11:44:09.171263 26047 net.cpp:129] Top shape: 1 150 2048 (307200)
I1017 11:44:09.171267 26047 net.cpp:137] Memory required for data: 792576000
I1017 11:44:09.171272 26047 layer_factory.hpp:77] Creating layer lstm1_unit_116
I1017 11:44:09.171283 26047 net.cpp:84] Creating Layer lstm1_unit_116
I1017 11:44:09.171288 26047 net.cpp:406] lstm1_unit_116 <- c_115
I1017 11:44:09.171294 26047 net.cpp:406] lstm1_unit_116 <- gate_input_116
I1017 11:44:09.171300 26047 net.cpp:406] lstm1_unit_116 <- cont_116_lstm1_cont_slice_115_split_1
I1017 11:44:09.171308 26047 net.cpp:380] lstm1_unit_116 -> c_116
I1017 11:44:09.171316 26047 net.cpp:380] lstm1_unit_116 -> h_116
I1017 11:44:09.171366 26047 net.cpp:122] Setting up lstm1_unit_116
I1017 11:44:09.171375 26047 net.cpp:129] Top shape: 1 150 512 (76800)
I1017 11:44:09.171381 26047 net.cpp:129] Top shape: 1 150 512 (76800)
I1017 11:44:09.171386 26047 net.cpp:137] Memory required for data: 793190400
I1017 11:44:09.171389 26047 layer_factory.hpp:77] Creating layer h_116_lstm1_unit_116_1_split
I1017 11:44:09.171396 26047 net.cpp:84] Creating Layer h_116_lstm1_unit_116_1_split
I1017 11:44:09.171401 26047 net.cpp:406] h_116_lstm1_unit_116_1_split <- h_116
I1017 11:44:09.171409 26047 net.cpp:380] h_116_lstm1_unit_116_1_split -> h_116_lstm1_unit_116_1_split_0
I1017 11:44:09.171417 26047 net.cpp:380] h_116_lstm1_unit_116_1_split -> h_116_lstm1_unit_116_1_split_1
I1017 11:44:09.171452 26047 net.cpp:122] Setting up h_116_lstm1_unit_116_1_split
I1017 11:44:09.171459 26047 net.cpp:129] Top shape: 1 150 512 (76800)
I1017 11:44:09.171465 26047 net.cpp:129] Top shape: 1 150 512 (76800)
I1017 11:44:09.171469 26047 net.cpp:137] Memory required for data: 793804800
I1017 11:44:09.171473 26047 layer_factory.hpp:77] Creating layer lstm1_h_conted_116
I1017 11:44:09.171483 26047 net.cpp:84] Creating Layer lstm1_h_conted_116
I1017 11:44:09.171489 26047 net.cpp:406] lstm1_h_conted_116 <- h_116_lstm1_unit_116_1_split_0
I1017 11:44:09.171510 26047 net.cpp:406] lstm1_h_conted_116 <- cont_117_lstm1_cont_slice_116_split_0
I1017 11:44:09.171520 26047 net.cpp:380] lstm1_h_conted_116 -> h_conted_116
I1017 11:44:09.171603 26047 net.cpp:122] Setting up lstm1_h_conted_116
I1017 11:44:09.171619 26047 net.cpp:129] Top shape: 1 150 512 (76800)
I1017 11:44:09.171627 26047 net.cpp:137] Memory required for data: 794112000
I1017 11:44:09.171631 26047 layer_factory.hpp:77] Creating layer lstm1_transform_117
I1017 11:44:09.171640 26047 net.cpp:84] Creating Layer lstm1_transform_117
I1017 11:44:09.171646 26047 net.cpp:406] lstm1_transform_117 <- h_conted_116
I1017 11:44:09.171656 26047 net.cpp:380] lstm1_transform_117 -> W_hc_h_116
I1017 11:44:09.183490 26047 net.cpp:122] Setting up lstm1_transform_117
I1017 11:44:09.183507 26047 net.cpp:129] Top shape: 1 150 2048 (307200)
I1017 11:44:09.183512 26047 net.cpp:137] Memory required for data: 795340800
I1017 11:44:09.183518 26047 net.cpp:465] Sharing parameters 'W_hc' owned by layer 'lstm1_transform_1', param index 0
I1017 11:44:09.183523 26047 layer_factory.hpp:77] Creating layer lstm1_gate_input_117
I1017 11:44:09.183533 26047 net.cpp:84] Creating Layer lstm1_gate_input_117
I1017 11:44:09.183539 26047 net.cpp:406] lstm1_gate_input_117 <- W_hc_h_116
I1017 11:44:09.183547 26047 net.cpp:406] lstm1_gate_input_117 <- W_xc_x_117
I1017 11:44:09.183554 26047 net.cpp:380] lstm1_gate_input_117 -> gate_input_117
I1017 11:44:09.183584 26047 net.cpp:122] Setting up lstm1_gate_input_117
I1017 11:44:09.183593 26047 net.cpp:129] Top shape: 1 150 2048 (307200)
I1017 11:44:09.183598 26047 net.cpp:137] Memory required for data: 796569600
I1017 11:44:09.183603 26047 layer_factory.hpp:77] Creating layer lstm1_unit_117
I1017 11:44:09.183612 26047 net.cpp:84] Creating Layer lstm1_unit_117
I1017 11:44:09.183619 26047 net.cpp:406] lstm1_unit_117 <- c_116
I1017 11:44:09.183625 26047 net.cpp:406] lstm1_unit_117 <- gate_input_117
I1017 11:44:09.183631 26047 net.cpp:406] lstm1_unit_117 <- cont_117_lstm1_cont_slice_116_split_1
I1017 11:44:09.183639 26047 net.cpp:380] lstm1_unit_117 -> c_117
I1017 11:44:09.183647 26047 net.cpp:380] lstm1_unit_117 -> h_117
I1017 11:44:09.183697 26047 net.cpp:122] Setting up lstm1_unit_117
I1017 11:44:09.183706 26047 net.cpp:129] Top shape: 1 150 512 (76800)
I1017 11:44:09.183712 26047 net.cpp:129] Top shape: 1 150 512 (76800)
I1017 11:44:09.183717 26047 net.cpp:137] Memory required for data: 797184000
I1017 11:44:09.183720 26047 layer_factory.hpp:77] Creating layer h_117_lstm1_unit_117_1_split
I1017 11:44:09.183727 26047 net.cpp:84] Creating Layer h_117_lstm1_unit_117_1_split
I1017 11:44:09.183732 26047 net.cpp:406] h_117_lstm1_unit_117_1_split <- h_117
I1017 11:44:09.183740 26047 net.cpp:380] h_117_lstm1_unit_117_1_split -> h_117_lstm1_unit_117_1_split_0
I1017 11:44:09.183749 26047 net.cpp:380] h_117_lstm1_unit_117_1_split -> h_117_lstm1_unit_117_1_split_1
I1017 11:44:09.183782 26047 net.cpp:122] Setting up h_117_lstm1_unit_117_1_split
I1017 11:44:09.183791 26047 net.cpp:129] Top shape: 1 150 512 (76800)
I1017 11:44:09.183796 26047 net.cpp:129] Top shape: 1 150 512 (76800)
I1017 11:44:09.183800 26047 net.cpp:137] Memory required for data: 797798400
I1017 11:44:09.183805 26047 layer_factory.hpp:77] Creating layer lstm1_h_conted_117
I1017 11:44:09.183815 26047 net.cpp:84] Creating Layer lstm1_h_conted_117
I1017 11:44:09.183820 26047 net.cpp:406] lstm1_h_conted_117 <- h_117_lstm1_unit_117_1_split_0
I1017 11:44:09.183827 26047 net.cpp:406] lstm1_h_conted_117 <- cont_118_lstm1_cont_slice_117_split_0
I1017 11:44:09.183835 26047 net.cpp:380] lstm1_h_conted_117 -> h_conted_117
I1017 11:44:09.183908 26047 net.cpp:122] Setting up lstm1_h_conted_117
I1017 11:44:09.183918 26047 net.cpp:129] Top shape: 1 150 512 (76800)
I1017 11:44:09.183923 26047 net.cpp:137] Memory required for data: 798105600
I1017 11:44:09.183928 26047 layer_factory.hpp:77] Creating layer lstm1_transform_118
I1017 11:44:09.183938 26047 net.cpp:84] Creating Layer lstm1_transform_118
I1017 11:44:09.183943 26047 net.cpp:406] lstm1_transform_118 <- h_conted_117
I1017 11:44:09.183951 26047 net.cpp:380] lstm1_transform_118 -> W_hc_h_117
I1017 11:44:09.195675 26047 net.cpp:122] Setting up lstm1_transform_118
I1017 11:44:09.195693 26047 net.cpp:129] Top shape: 1 150 2048 (307200)
I1017 11:44:09.195696 26047 net.cpp:137] Memory required for data: 799334400
I1017 11:44:09.195703 26047 net.cpp:465] Sharing parameters 'W_hc' owned by layer 'lstm1_transform_1', param index 0
I1017 11:44:09.195708 26047 layer_factory.hpp:77] Creating layer lstm1_gate_input_118
I1017 11:44:09.195719 26047 net.cpp:84] Creating Layer lstm1_gate_input_118
I1017 11:44:09.195725 26047 net.cpp:406] lstm1_gate_input_118 <- W_hc_h_117
I1017 11:44:09.195732 26047 net.cpp:406] lstm1_gate_input_118 <- W_xc_x_118
I1017 11:44:09.195740 26047 net.cpp:380] lstm1_gate_input_118 -> gate_input_118
I1017 11:44:09.195770 26047 net.cpp:122] Setting up lstm1_gate_input_118
I1017 11:44:09.195780 26047 net.cpp:129] Top shape: 1 150 2048 (307200)
I1017 11:44:09.195785 26047 net.cpp:137] Memory required for data: 800563200
I1017 11:44:09.195789 26047 layer_factory.hpp:77] Creating layer lstm1_unit_118
I1017 11:44:09.195796 26047 net.cpp:84] Creating Layer lstm1_unit_118
I1017 11:44:09.195801 26047 net.cpp:406] lstm1_unit_118 <- c_117
I1017 11:44:09.195808 26047 net.cpp:406] lstm1_unit_118 <- gate_input_118
I1017 11:44:09.195814 26047 net.cpp:406] lstm1_unit_118 <- cont_118_lstm1_cont_slice_117_split_1
I1017 11:44:09.195823 26047 net.cpp:380] lstm1_unit_118 -> c_118
I1017 11:44:09.195832 26047 net.cpp:380] lstm1_unit_118 -> h_118
I1017 11:44:09.195881 26047 net.cpp:122] Setting up lstm1_unit_118
I1017 11:44:09.195890 26047 net.cpp:129] Top shape: 1 150 512 (76800)
I1017 11:44:09.195895 26047 net.cpp:129] Top shape: 1 150 512 (76800)
I1017 11:44:09.195900 26047 net.cpp:137] Memory required for data: 801177600
I1017 11:44:09.195905 26047 layer_factory.hpp:77] Creating layer h_118_lstm1_unit_118_1_split
I1017 11:44:09.195912 26047 net.cpp:84] Creating Layer h_118_lstm1_unit_118_1_split
I1017 11:44:09.195917 26047 net.cpp:406] h_118_lstm1_unit_118_1_split <- h_118
I1017 11:44:09.195924 26047 net.cpp:380] h_118_lstm1_unit_118_1_split -> h_118_lstm1_unit_118_1_split_0
I1017 11:44:09.195932 26047 net.cpp:380] h_118_lstm1_unit_118_1_split -> h_118_lstm1_unit_118_1_split_1
I1017 11:44:09.195968 26047 net.cpp:122] Setting up h_118_lstm1_unit_118_1_split
I1017 11:44:09.195976 26047 net.cpp:129] Top shape: 1 150 512 (76800)
I1017 11:44:09.195982 26047 net.cpp:129] Top shape: 1 150 512 (76800)
I1017 11:44:09.195986 26047 net.cpp:137] Memory required for data: 801792000
I1017 11:44:09.195991 26047 layer_factory.hpp:77] Creating layer lstm1_h_conted_118
I1017 11:44:09.195999 26047 net.cpp:84] Creating Layer lstm1_h_conted_118
I1017 11:44:09.196005 26047 net.cpp:406] lstm1_h_conted_118 <- h_118_lstm1_unit_118_1_split_0
I1017 11:44:09.196014 26047 net.cpp:406] lstm1_h_conted_118 <- cont_119_lstm1_cont_slice_118_split_0
I1017 11:44:09.196022 26047 net.cpp:380] lstm1_h_conted_118 -> h_conted_118
I1017 11:44:09.196108 26047 net.cpp:122] Setting up lstm1_h_conted_118
I1017 11:44:09.196120 26047 net.cpp:129] Top shape: 1 150 512 (76800)
I1017 11:44:09.196125 26047 net.cpp:137] Memory required for data: 802099200
I1017 11:44:09.196130 26047 layer_factory.hpp:77] Creating layer lstm1_transform_119
I1017 11:44:09.196138 26047 net.cpp:84] Creating Layer lstm1_transform_119
I1017 11:44:09.196144 26047 net.cpp:406] lstm1_transform_119 <- h_conted_118
I1017 11:44:09.196154 26047 net.cpp:380] lstm1_transform_119 -> W_hc_h_118
I1017 11:44:09.207710 26047 net.cpp:122] Setting up lstm1_transform_119
I1017 11:44:09.207726 26047 net.cpp:129] Top shape: 1 150 2048 (307200)
I1017 11:44:09.207742 26047 net.cpp:137] Memory required for data: 803328000
I1017 11:44:09.207748 26047 net.cpp:465] Sharing parameters 'W_hc' owned by layer 'lstm1_transform_1', param index 0
I1017 11:44:09.207753 26047 layer_factory.hpp:77] Creating layer lstm1_gate_input_119
I1017 11:44:09.207762 26047 net.cpp:84] Creating Layer lstm1_gate_input_119
I1017 11:44:09.207767 26047 net.cpp:406] lstm1_gate_input_119 <- W_hc_h_118
I1017 11:44:09.207773 26047 net.cpp:406] lstm1_gate_input_119 <- W_xc_x_119
I1017 11:44:09.207782 26047 net.cpp:380] lstm1_gate_input_119 -> gate_input_119
I1017 11:44:09.207809 26047 net.cpp:122] Setting up lstm1_gate_input_119
I1017 11:44:09.207819 26047 net.cpp:129] Top shape: 1 150 2048 (307200)
I1017 11:44:09.207835 26047 net.cpp:137] Memory required for data: 804556800
I1017 11:44:09.207840 26047 layer_factory.hpp:77] Creating layer lstm1_unit_119
I1017 11:44:09.207847 26047 net.cpp:84] Creating Layer lstm1_unit_119
I1017 11:44:09.207852 26047 net.cpp:406] lstm1_unit_119 <- c_118
I1017 11:44:09.207859 26047 net.cpp:406] lstm1_unit_119 <- gate_input_119
I1017 11:44:09.207865 26047 net.cpp:406] lstm1_unit_119 <- cont_119_lstm1_cont_slice_118_split_1
I1017 11:44:09.207872 26047 net.cpp:380] lstm1_unit_119 -> c_119
I1017 11:44:09.207885 26047 net.cpp:380] lstm1_unit_119 -> h_119
I1017 11:44:09.207934 26047 net.cpp:122] Setting up lstm1_unit_119
I1017 11:44:09.207943 26047 net.cpp:129] Top shape: 1 150 512 (76800)
I1017 11:44:09.207948 26047 net.cpp:129] Top shape: 1 150 512 (76800)
I1017 11:44:09.207952 26047 net.cpp:137] Memory required for data: 805171200
I1017 11:44:09.207957 26047 layer_factory.hpp:77] Creating layer h_119_lstm1_unit_119_1_split
I1017 11:44:09.207963 26047 net.cpp:84] Creating Layer h_119_lstm1_unit_119_1_split
I1017 11:44:09.207968 26047 net.cpp:406] h_119_lstm1_unit_119_1_split <- h_119
I1017 11:44:09.207975 26047 net.cpp:380] h_119_lstm1_unit_119_1_split -> h_119_lstm1_unit_119_1_split_0
I1017 11:44:09.207984 26047 net.cpp:380] h_119_lstm1_unit_119_1_split -> h_119_lstm1_unit_119_1_split_1
I1017 11:44:09.208020 26047 net.cpp:122] Setting up h_119_lstm1_unit_119_1_split
I1017 11:44:09.208040 26047 net.cpp:129] Top shape: 1 150 512 (76800)
I1017 11:44:09.208050 26047 net.cpp:129] Top shape: 1 150 512 (76800)
I1017 11:44:09.208055 26047 net.cpp:137] Memory required for data: 805785600
I1017 11:44:09.208060 26047 layer_factory.hpp:77] Creating layer lstm1_h_conted_119
I1017 11:44:09.208068 26047 net.cpp:84] Creating Layer lstm1_h_conted_119
I1017 11:44:09.208075 26047 net.cpp:406] lstm1_h_conted_119 <- h_119_lstm1_unit_119_1_split_0
I1017 11:44:09.208081 26047 net.cpp:406] lstm1_h_conted_119 <- cont_120_lstm1_cont_slice_119_split_0
I1017 11:44:09.208092 26047 net.cpp:380] lstm1_h_conted_119 -> h_conted_119
I1017 11:44:09.208168 26047 net.cpp:122] Setting up lstm1_h_conted_119
I1017 11:44:09.208178 26047 net.cpp:129] Top shape: 1 150 512 (76800)
I1017 11:44:09.208181 26047 net.cpp:137] Memory required for data: 806092800
I1017 11:44:09.208186 26047 layer_factory.hpp:77] Creating layer lstm1_transform_120
I1017 11:44:09.208195 26047 net.cpp:84] Creating Layer lstm1_transform_120
I1017 11:44:09.208200 26047 net.cpp:406] lstm1_transform_120 <- h_conted_119
I1017 11:44:09.208209 26047 net.cpp:380] lstm1_transform_120 -> W_hc_h_119
I1017 11:44:09.219856 26047 net.cpp:122] Setting up lstm1_transform_120
I1017 11:44:09.219876 26047 net.cpp:129] Top shape: 1 150 2048 (307200)
I1017 11:44:09.219882 26047 net.cpp:137] Memory required for data: 807321600
I1017 11:44:09.219892 26047 net.cpp:465] Sharing parameters 'W_hc' owned by layer 'lstm1_transform_1', param index 0
I1017 11:44:09.219900 26047 layer_factory.hpp:77] Creating layer lstm1_gate_input_120
I1017 11:44:09.219911 26047 net.cpp:84] Creating Layer lstm1_gate_input_120
I1017 11:44:09.219923 26047 net.cpp:406] lstm1_gate_input_120 <- W_hc_h_119
I1017 11:44:09.219933 26047 net.cpp:406] lstm1_gate_input_120 <- W_xc_x_120
I1017 11:44:09.219949 26047 net.cpp:380] lstm1_gate_input_120 -> gate_input_120
I1017 11:44:09.219996 26047 net.cpp:122] Setting up lstm1_gate_input_120
I1017 11:44:09.220010 26047 net.cpp:129] Top shape: 1 150 2048 (307200)
I1017 11:44:09.220016 26047 net.cpp:137] Memory required for data: 808550400
I1017 11:44:09.220024 26047 layer_factory.hpp:77] Creating layer lstm1_unit_120
I1017 11:44:09.220058 26047 net.cpp:84] Creating Layer lstm1_unit_120
I1017 11:44:09.220068 26047 net.cpp:406] lstm1_unit_120 <- c_119
I1017 11:44:09.220082 26047 net.cpp:406] lstm1_unit_120 <- gate_input_120
I1017 11:44:09.220093 26047 net.cpp:406] lstm1_unit_120 <- cont_120_lstm1_cont_slice_119_split_1
I1017 11:44:09.220106 26047 net.cpp:380] lstm1_unit_120 -> c_120
I1017 11:44:09.220124 26047 net.cpp:380] lstm1_unit_120 -> h_120
I1017 11:44:09.220190 26047 net.cpp:122] Setting up lstm1_unit_120
I1017 11:44:09.220202 26047 net.cpp:129] Top shape: 1 150 512 (76800)
I1017 11:44:09.220212 26047 net.cpp:129] Top shape: 1 150 512 (76800)
I1017 11:44:09.220222 26047 net.cpp:137] Memory required for data: 809164800
I1017 11:44:09.220232 26047 layer_factory.hpp:77] Creating layer h_120_lstm1_unit_120_1_split
I1017 11:44:09.220245 26047 net.cpp:84] Creating Layer h_120_lstm1_unit_120_1_split
I1017 11:44:09.220255 26047 net.cpp:406] h_120_lstm1_unit_120_1_split <- h_120
I1017 11:44:09.220268 26047 net.cpp:380] h_120_lstm1_unit_120_1_split -> h_120_lstm1_unit_120_1_split_0
I1017 11:44:09.220283 26047 net.cpp:380] h_120_lstm1_unit_120_1_split -> h_120_lstm1_unit_120_1_split_1
I1017 11:44:09.220333 26047 net.cpp:122] Setting up h_120_lstm1_unit_120_1_split
I1017 11:44:09.220345 26047 net.cpp:129] Top shape: 1 150 512 (76800)
I1017 11:44:09.220355 26047 net.cpp:129] Top shape: 1 150 512 (76800)
I1017 11:44:09.220363 26047 net.cpp:137] Memory required for data: 809779200
I1017 11:44:09.220372 26047 layer_factory.hpp:77] Creating layer lstm1_h_conted_120
I1017 11:44:09.220386 26047 net.cpp:84] Creating Layer lstm1_h_conted_120
I1017 11:44:09.220397 26047 net.cpp:406] lstm1_h_conted_120 <- h_120_lstm1_unit_120_1_split_0
I1017 11:44:09.220408 26047 net.cpp:406] lstm1_h_conted_120 <- cont_121_lstm1_cont_slice_120_split_0
I1017 11:44:09.220423 26047 net.cpp:380] lstm1_h_conted_120 -> h_conted_120
I1017 11:44:09.220517 26047 net.cpp:122] Setting up lstm1_h_conted_120
I1017 11:44:09.220530 26047 net.cpp:129] Top shape: 1 150 512 (76800)
I1017 11:44:09.220537 26047 net.cpp:137] Memory required for data: 810086400
I1017 11:44:09.220546 26047 layer_factory.hpp:77] Creating layer lstm1_transform_121
I1017 11:44:09.220559 26047 net.cpp:84] Creating Layer lstm1_transform_121
I1017 11:44:09.220566 26047 net.cpp:406] lstm1_transform_121 <- h_conted_120
I1017 11:44:09.220574 26047 net.cpp:380] lstm1_transform_121 -> W_hc_h_120
I1017 11:44:09.232429 26047 net.cpp:122] Setting up lstm1_transform_121
I1017 11:44:09.232445 26047 net.cpp:129] Top shape: 1 150 2048 (307200)
I1017 11:44:09.232450 26047 net.cpp:137] Memory required for data: 811315200
I1017 11:44:09.232455 26047 net.cpp:465] Sharing parameters 'W_hc' owned by layer 'lstm1_transform_1', param index 0
I1017 11:44:09.232460 26047 layer_factory.hpp:77] Creating layer lstm1_gate_input_121
I1017 11:44:09.232468 26047 net.cpp:84] Creating Layer lstm1_gate_input_121
I1017 11:44:09.232475 26047 net.cpp:406] lstm1_gate_input_121 <- W_hc_h_120
I1017 11:44:09.232481 26047 net.cpp:406] lstm1_gate_input_121 <- W_xc_x_121
I1017 11:44:09.232488 26047 net.cpp:380] lstm1_gate_input_121 -> gate_input_121
I1017 11:44:09.232520 26047 net.cpp:122] Setting up lstm1_gate_input_121
I1017 11:44:09.232529 26047 net.cpp:129] Top shape: 1 150 2048 (307200)
I1017 11:44:09.232534 26047 net.cpp:137] Memory required for data: 812544000
I1017 11:44:09.232538 26047 layer_factory.hpp:77] Creating layer lstm1_unit_121
I1017 11:44:09.232545 26047 net.cpp:84] Creating Layer lstm1_unit_121
I1017 11:44:09.232551 26047 net.cpp:406] lstm1_unit_121 <- c_120
I1017 11:44:09.232558 26047 net.cpp:406] lstm1_unit_121 <- gate_input_121
I1017 11:44:09.232564 26047 net.cpp:406] lstm1_unit_121 <- cont_121_lstm1_cont_slice_120_split_1
I1017 11:44:09.232571 26047 net.cpp:380] lstm1_unit_121 -> c_121
I1017 11:44:09.232580 26047 net.cpp:380] lstm1_unit_121 -> h_121
I1017 11:44:09.232630 26047 net.cpp:122] Setting up lstm1_unit_121
I1017 11:44:09.232638 26047 net.cpp:129] Top shape: 1 150 512 (76800)
I1017 11:44:09.232643 26047 net.cpp:129] Top shape: 1 150 512 (76800)
I1017 11:44:09.232648 26047 net.cpp:137] Memory required for data: 813158400
I1017 11:44:09.232653 26047 layer_factory.hpp:77] Creating layer h_121_lstm1_unit_121_1_split
I1017 11:44:09.232661 26047 net.cpp:84] Creating Layer h_121_lstm1_unit_121_1_split
I1017 11:44:09.232666 26047 net.cpp:406] h_121_lstm1_unit_121_1_split <- h_121
I1017 11:44:09.232673 26047 net.cpp:380] h_121_lstm1_unit_121_1_split -> h_121_lstm1_unit_121_1_split_0
I1017 11:44:09.232681 26047 net.cpp:380] h_121_lstm1_unit_121_1_split -> h_121_lstm1_unit_121_1_split_1
I1017 11:44:09.232718 26047 net.cpp:122] Setting up h_121_lstm1_unit_121_1_split
I1017 11:44:09.232728 26047 net.cpp:129] Top shape: 1 150 512 (76800)
I1017 11:44:09.232733 26047 net.cpp:129] Top shape: 1 150 512 (76800)
I1017 11:44:09.232736 26047 net.cpp:137] Memory required for data: 813772800
I1017 11:44:09.232741 26047 layer_factory.hpp:77] Creating layer lstm1_h_conted_121
I1017 11:44:09.232753 26047 net.cpp:84] Creating Layer lstm1_h_conted_121
I1017 11:44:09.232758 26047 net.cpp:406] lstm1_h_conted_121 <- h_121_lstm1_unit_121_1_split_0
I1017 11:44:09.232765 26047 net.cpp:406] lstm1_h_conted_121 <- cont_122_lstm1_cont_slice_121_split_0
I1017 11:44:09.232772 26047 net.cpp:380] lstm1_h_conted_121 -> h_conted_121
I1017 11:44:09.232844 26047 net.cpp:122] Setting up lstm1_h_conted_121
I1017 11:44:09.232854 26047 net.cpp:129] Top shape: 1 150 512 (76800)
I1017 11:44:09.232858 26047 net.cpp:137] Memory required for data: 814080000
I1017 11:44:09.232863 26047 layer_factory.hpp:77] Creating layer lstm1_transform_122
I1017 11:44:09.232873 26047 net.cpp:84] Creating Layer lstm1_transform_122
I1017 11:44:09.232879 26047 net.cpp:406] lstm1_transform_122 <- h_conted_121
I1017 11:44:09.232887 26047 net.cpp:380] lstm1_transform_122 -> W_hc_h_121
I1017 11:44:09.244621 26047 net.cpp:122] Setting up lstm1_transform_122
I1017 11:44:09.244637 26047 net.cpp:129] Top shape: 1 150 2048 (307200)
I1017 11:44:09.244642 26047 net.cpp:137] Memory required for data: 815308800
I1017 11:44:09.244647 26047 net.cpp:465] Sharing parameters 'W_hc' owned by layer 'lstm1_transform_1', param index 0
I1017 11:44:09.244653 26047 layer_factory.hpp:77] Creating layer lstm1_gate_input_122
I1017 11:44:09.244660 26047 net.cpp:84] Creating Layer lstm1_gate_input_122
I1017 11:44:09.244666 26047 net.cpp:406] lstm1_gate_input_122 <- W_hc_h_121
I1017 11:44:09.244673 26047 net.cpp:406] lstm1_gate_input_122 <- W_xc_x_122
I1017 11:44:09.244680 26047 net.cpp:380] lstm1_gate_input_122 -> gate_input_122
I1017 11:44:09.244709 26047 net.cpp:122] Setting up lstm1_gate_input_122
I1017 11:44:09.244719 26047 net.cpp:129] Top shape: 1 150 2048 (307200)
I1017 11:44:09.244724 26047 net.cpp:137] Memory required for data: 816537600
I1017 11:44:09.244729 26047 layer_factory.hpp:77] Creating layer lstm1_unit_122
I1017 11:44:09.244737 26047 net.cpp:84] Creating Layer lstm1_unit_122
I1017 11:44:09.244743 26047 net.cpp:406] lstm1_unit_122 <- c_121
I1017 11:44:09.244750 26047 net.cpp:406] lstm1_unit_122 <- gate_input_122
I1017 11:44:09.244756 26047 net.cpp:406] lstm1_unit_122 <- cont_122_lstm1_cont_slice_121_split_1
I1017 11:44:09.244765 26047 net.cpp:380] lstm1_unit_122 -> c_122
I1017 11:44:09.244772 26047 net.cpp:380] lstm1_unit_122 -> h_122
I1017 11:44:09.244820 26047 net.cpp:122] Setting up lstm1_unit_122
I1017 11:44:09.244829 26047 net.cpp:129] Top shape: 1 150 512 (76800)
I1017 11:44:09.244835 26047 net.cpp:129] Top shape: 1 150 512 (76800)
I1017 11:44:09.244839 26047 net.cpp:137] Memory required for data: 817152000
I1017 11:44:09.244844 26047 layer_factory.hpp:77] Creating layer h_122_lstm1_unit_122_1_split
I1017 11:44:09.244850 26047 net.cpp:84] Creating Layer h_122_lstm1_unit_122_1_split
I1017 11:44:09.244855 26047 net.cpp:406] h_122_lstm1_unit_122_1_split <- h_122
I1017 11:44:09.244863 26047 net.cpp:380] h_122_lstm1_unit_122_1_split -> h_122_lstm1_unit_122_1_split_0
I1017 11:44:09.244873 26047 net.cpp:380] h_122_lstm1_unit_122_1_split -> h_122_lstm1_unit_122_1_split_1
I1017 11:44:09.244905 26047 net.cpp:122] Setting up h_122_lstm1_unit_122_1_split
I1017 11:44:09.244916 26047 net.cpp:129] Top shape: 1 150 512 (76800)
I1017 11:44:09.244921 26047 net.cpp:129] Top shape: 1 150 512 (76800)
I1017 11:44:09.244925 26047 net.cpp:137] Memory required for data: 817766400
I1017 11:44:09.244930 26047 layer_factory.hpp:77] Creating layer lstm1_h_conted_122
I1017 11:44:09.244938 26047 net.cpp:84] Creating Layer lstm1_h_conted_122
I1017 11:44:09.244945 26047 net.cpp:406] lstm1_h_conted_122 <- h_122_lstm1_unit_122_1_split_0
I1017 11:44:09.244951 26047 net.cpp:406] lstm1_h_conted_122 <- cont_123_lstm1_cont_slice_122_split_0
I1017 11:44:09.244961 26047 net.cpp:380] lstm1_h_conted_122 -> h_conted_122
I1017 11:44:09.245035 26047 net.cpp:122] Setting up lstm1_h_conted_122
I1017 11:44:09.245045 26047 net.cpp:129] Top shape: 1 150 512 (76800)
I1017 11:44:09.245049 26047 net.cpp:137] Memory required for data: 818073600
I1017 11:44:09.245054 26047 layer_factory.hpp:77] Creating layer lstm1_transform_123
I1017 11:44:09.245062 26047 net.cpp:84] Creating Layer lstm1_transform_123
I1017 11:44:09.245069 26047 net.cpp:406] lstm1_transform_123 <- h_conted_122
I1017 11:44:09.245080 26047 net.cpp:380] lstm1_transform_123 -> W_hc_h_122
I1017 11:44:09.256788 26047 net.cpp:122] Setting up lstm1_transform_123
I1017 11:44:09.256805 26047 net.cpp:129] Top shape: 1 150 2048 (307200)
I1017 11:44:09.256809 26047 net.cpp:137] Memory required for data: 819302400
I1017 11:44:09.256815 26047 net.cpp:465] Sharing parameters 'W_hc' owned by layer 'lstm1_transform_1', param index 0
I1017 11:44:09.256821 26047 layer_factory.hpp:77] Creating layer lstm1_gate_input_123
I1017 11:44:09.256829 26047 net.cpp:84] Creating Layer lstm1_gate_input_123
I1017 11:44:09.256835 26047 net.cpp:406] lstm1_gate_input_123 <- W_hc_h_122
I1017 11:44:09.256842 26047 net.cpp:406] lstm1_gate_input_123 <- W_xc_x_123
I1017 11:44:09.256850 26047 net.cpp:380] lstm1_gate_input_123 -> gate_input_123
I1017 11:44:09.256880 26047 net.cpp:122] Setting up lstm1_gate_input_123
I1017 11:44:09.256891 26047 net.cpp:129] Top shape: 1 150 2048 (307200)
I1017 11:44:09.256894 26047 net.cpp:137] Memory required for data: 820531200
I1017 11:44:09.256899 26047 layer_factory.hpp:77] Creating layer lstm1_unit_123
I1017 11:44:09.256909 26047 net.cpp:84] Creating Layer lstm1_unit_123
I1017 11:44:09.256916 26047 net.cpp:406] lstm1_unit_123 <- c_122
I1017 11:44:09.256922 26047 net.cpp:406] lstm1_unit_123 <- gate_input_123
I1017 11:44:09.256928 26047 net.cpp:406] lstm1_unit_123 <- cont_123_lstm1_cont_slice_122_split_1
I1017 11:44:09.256935 26047 net.cpp:380] lstm1_unit_123 -> c_123
I1017 11:44:09.256943 26047 net.cpp:380] lstm1_unit_123 -> h_123
I1017 11:44:09.256994 26047 net.cpp:122] Setting up lstm1_unit_123
I1017 11:44:09.257004 26047 net.cpp:129] Top shape: 1 150 512 (76800)
I1017 11:44:09.257009 26047 net.cpp:129] Top shape: 1 150 512 (76800)
I1017 11:44:09.257014 26047 net.cpp:137] Memory required for data: 821145600
I1017 11:44:09.257017 26047 layer_factory.hpp:77] Creating layer h_123_lstm1_unit_123_1_split
I1017 11:44:09.257025 26047 net.cpp:84] Creating Layer h_123_lstm1_unit_123_1_split
I1017 11:44:09.257030 26047 net.cpp:406] h_123_lstm1_unit_123_1_split <- h_123
I1017 11:44:09.257038 26047 net.cpp:380] h_123_lstm1_unit_123_1_split -> h_123_lstm1_unit_123_1_split_0
I1017 11:44:09.257046 26047 net.cpp:380] h_123_lstm1_unit_123_1_split -> h_123_lstm1_unit_123_1_split_1
I1017 11:44:09.257081 26047 net.cpp:122] Setting up h_123_lstm1_unit_123_1_split
I1017 11:44:09.257088 26047 net.cpp:129] Top shape: 1 150 512 (76800)
I1017 11:44:09.257094 26047 net.cpp:129] Top shape: 1 150 512 (76800)
I1017 11:44:09.257098 26047 net.cpp:137] Memory required for data: 821760000
I1017 11:44:09.257102 26047 layer_factory.hpp:77] Creating layer lstm1_h_conted_123
I1017 11:44:09.257112 26047 net.cpp:84] Creating Layer lstm1_h_conted_123
I1017 11:44:09.257117 26047 net.cpp:406] lstm1_h_conted_123 <- h_123_lstm1_unit_123_1_split_0
I1017 11:44:09.257124 26047 net.cpp:406] lstm1_h_conted_123 <- cont_124_lstm1_cont_slice_123_split_0
I1017 11:44:09.257133 26047 net.cpp:380] lstm1_h_conted_123 -> h_conted_123
I1017 11:44:09.257206 26047 net.cpp:122] Setting up lstm1_h_conted_123
I1017 11:44:09.257216 26047 net.cpp:129] Top shape: 1 150 512 (76800)
I1017 11:44:09.257221 26047 net.cpp:137] Memory required for data: 822067200
I1017 11:44:09.257225 26047 layer_factory.hpp:77] Creating layer lstm1_transform_124
I1017 11:44:09.257235 26047 net.cpp:84] Creating Layer lstm1_transform_124
I1017 11:44:09.257241 26047 net.cpp:406] lstm1_transform_124 <- h_conted_123
I1017 11:44:09.257248 26047 net.cpp:380] lstm1_transform_124 -> W_hc_h_123
I1017 11:44:09.268967 26047 net.cpp:122] Setting up lstm1_transform_124
I1017 11:44:09.268982 26047 net.cpp:129] Top shape: 1 150 2048 (307200)
I1017 11:44:09.268987 26047 net.cpp:137] Memory required for data: 823296000
I1017 11:44:09.268993 26047 net.cpp:465] Sharing parameters 'W_hc' owned by layer 'lstm1_transform_1', param index 0
I1017 11:44:09.268998 26047 layer_factory.hpp:77] Creating layer lstm1_gate_input_124
I1017 11:44:09.269007 26047 net.cpp:84] Creating Layer lstm1_gate_input_124
I1017 11:44:09.269014 26047 net.cpp:406] lstm1_gate_input_124 <- W_hc_h_123
I1017 11:44:09.269021 26047 net.cpp:406] lstm1_gate_input_124 <- W_xc_x_124
I1017 11:44:09.269027 26047 net.cpp:380] lstm1_gate_input_124 -> gate_input_124
I1017 11:44:09.269058 26047 net.cpp:122] Setting up lstm1_gate_input_124
I1017 11:44:09.269065 26047 net.cpp:129] Top shape: 1 150 2048 (307200)
I1017 11:44:09.269070 26047 net.cpp:137] Memory required for data: 824524800
I1017 11:44:09.269075 26047 layer_factory.hpp:77] Creating layer lstm1_unit_124
I1017 11:44:09.269083 26047 net.cpp:84] Creating Layer lstm1_unit_124
I1017 11:44:09.269089 26047 net.cpp:406] lstm1_unit_124 <- c_123
I1017 11:44:09.269095 26047 net.cpp:406] lstm1_unit_124 <- gate_input_124
I1017 11:44:09.269101 26047 net.cpp:406] lstm1_unit_124 <- cont_124_lstm1_cont_slice_123_split_1
I1017 11:44:09.269114 26047 net.cpp:380] lstm1_unit_124 -> c_124
I1017 11:44:09.269130 26047 net.cpp:380] lstm1_unit_124 -> h_124
I1017 11:44:09.269181 26047 net.cpp:122] Setting up lstm1_unit_124
I1017 11:44:09.269191 26047 net.cpp:129] Top shape: 1 150 512 (76800)
I1017 11:44:09.269196 26047 net.cpp:129] Top shape: 1 150 512 (76800)
I1017 11:44:09.269201 26047 net.cpp:137] Memory required for data: 825139200
I1017 11:44:09.269207 26047 layer_factory.hpp:77] Creating layer h_124_lstm1_unit_124_1_split
I1017 11:44:09.269212 26047 net.cpp:84] Creating Layer h_124_lstm1_unit_124_1_split
I1017 11:44:09.269218 26047 net.cpp:406] h_124_lstm1_unit_124_1_split <- h_124
I1017 11:44:09.269225 26047 net.cpp:380] h_124_lstm1_unit_124_1_split -> h_124_lstm1_unit_124_1_split_0
I1017 11:44:09.269233 26047 net.cpp:380] h_124_lstm1_unit_124_1_split -> h_124_lstm1_unit_124_1_split_1
I1017 11:44:09.269269 26047 net.cpp:122] Setting up h_124_lstm1_unit_124_1_split
I1017 11:44:09.269279 26047 net.cpp:129] Top shape: 1 150 512 (76800)
I1017 11:44:09.269284 26047 net.cpp:129] Top shape: 1 150 512 (76800)
I1017 11:44:09.269287 26047 net.cpp:137] Memory required for data: 825753600
I1017 11:44:09.269292 26047 layer_factory.hpp:77] Creating layer lstm1_h_conted_124
I1017 11:44:09.269301 26047 net.cpp:84] Creating Layer lstm1_h_conted_124
I1017 11:44:09.269306 26047 net.cpp:406] lstm1_h_conted_124 <- h_124_lstm1_unit_124_1_split_0
I1017 11:44:09.269314 26047 net.cpp:406] lstm1_h_conted_124 <- cont_125_lstm1_cont_slice_124_split_0
I1017 11:44:09.269321 26047 net.cpp:380] lstm1_h_conted_124 -> h_conted_124
I1017 11:44:09.269394 26047 net.cpp:122] Setting up lstm1_h_conted_124
I1017 11:44:09.269404 26047 net.cpp:129] Top shape: 1 150 512 (76800)
I1017 11:44:09.269409 26047 net.cpp:137] Memory required for data: 826060800
I1017 11:44:09.269414 26047 layer_factory.hpp:77] Creating layer lstm1_transform_125
I1017 11:44:09.269424 26047 net.cpp:84] Creating Layer lstm1_transform_125
I1017 11:44:09.269430 26047 net.cpp:406] lstm1_transform_125 <- h_conted_124
I1017 11:44:09.269438 26047 net.cpp:380] lstm1_transform_125 -> W_hc_h_124
I1017 11:44:09.281215 26047 net.cpp:122] Setting up lstm1_transform_125
I1017 11:44:09.281231 26047 net.cpp:129] Top shape: 1 150 2048 (307200)
I1017 11:44:09.281235 26047 net.cpp:137] Memory required for data: 827289600
I1017 11:44:09.281241 26047 net.cpp:465] Sharing parameters 'W_hc' owned by layer 'lstm1_transform_1', param index 0
I1017 11:44:09.281246 26047 layer_factory.hpp:77] Creating layer lstm1_gate_input_125
I1017 11:44:09.281255 26047 net.cpp:84] Creating Layer lstm1_gate_input_125
I1017 11:44:09.281261 26047 net.cpp:406] lstm1_gate_input_125 <- W_hc_h_124
I1017 11:44:09.281270 26047 net.cpp:406] lstm1_gate_input_125 <- W_xc_x_125
I1017 11:44:09.281280 26047 net.cpp:380] lstm1_gate_input_125 -> gate_input_125
I1017 11:44:09.281309 26047 net.cpp:122] Setting up lstm1_gate_input_125
I1017 11:44:09.281319 26047 net.cpp:129] Top shape: 1 150 2048 (307200)
I1017 11:44:09.281324 26047 net.cpp:137] Memory required for data: 828518400
I1017 11:44:09.281328 26047 layer_factory.hpp:77] Creating layer lstm1_unit_125
I1017 11:44:09.281335 26047 net.cpp:84] Creating Layer lstm1_unit_125
I1017 11:44:09.281340 26047 net.cpp:406] lstm1_unit_125 <- c_124
I1017 11:44:09.281347 26047 net.cpp:406] lstm1_unit_125 <- gate_input_125
I1017 11:44:09.281353 26047 net.cpp:406] lstm1_unit_125 <- cont_125_lstm1_cont_slice_124_split_1
I1017 11:44:09.281359 26047 net.cpp:380] lstm1_unit_125 -> c_125
I1017 11:44:09.281370 26047 net.cpp:380] lstm1_unit_125 -> h_125
I1017 11:44:09.281419 26047 net.cpp:122] Setting up lstm1_unit_125
I1017 11:44:09.281430 26047 net.cpp:129] Top shape: 1 150 512 (76800)
I1017 11:44:09.281435 26047 net.cpp:129] Top shape: 1 150 512 (76800)
I1017 11:44:09.281440 26047 net.cpp:137] Memory required for data: 829132800
I1017 11:44:09.281443 26047 layer_factory.hpp:77] Creating layer h_125_lstm1_unit_125_1_split
I1017 11:44:09.281450 26047 net.cpp:84] Creating Layer h_125_lstm1_unit_125_1_split
I1017 11:44:09.281455 26047 net.cpp:406] h_125_lstm1_unit_125_1_split <- h_125
I1017 11:44:09.281462 26047 net.cpp:380] h_125_lstm1_unit_125_1_split -> h_125_lstm1_unit_125_1_split_0
I1017 11:44:09.281469 26047 net.cpp:380] h_125_lstm1_unit_125_1_split -> h_125_lstm1_unit_125_1_split_1
I1017 11:44:09.281507 26047 net.cpp:122] Setting up h_125_lstm1_unit_125_1_split
I1017 11:44:09.281515 26047 net.cpp:129] Top shape: 1 150 512 (76800)
I1017 11:44:09.281522 26047 net.cpp:129] Top shape: 1 150 512 (76800)
I1017 11:44:09.281525 26047 net.cpp:137] Memory required for data: 829747200
I1017 11:44:09.281529 26047 layer_factory.hpp:77] Creating layer lstm1_h_conted_125
I1017 11:44:09.281538 26047 net.cpp:84] Creating Layer lstm1_h_conted_125
I1017 11:44:09.281543 26047 net.cpp:406] lstm1_h_conted_125 <- h_125_lstm1_unit_125_1_split_0
I1017 11:44:09.281550 26047 net.cpp:406] lstm1_h_conted_125 <- cont_126_lstm1_cont_slice_125_split_0
I1017 11:44:09.281560 26047 net.cpp:380] lstm1_h_conted_125 -> h_conted_125
I1017 11:44:09.281635 26047 net.cpp:122] Setting up lstm1_h_conted_125
I1017 11:44:09.281646 26047 net.cpp:129] Top shape: 1 150 512 (76800)
I1017 11:44:09.281649 26047 net.cpp:137] Memory required for data: 830054400
I1017 11:44:09.281654 26047 layer_factory.hpp:77] Creating layer lstm1_transform_126
I1017 11:44:09.281662 26047 net.cpp:84] Creating Layer lstm1_transform_126
I1017 11:44:09.281668 26047 net.cpp:406] lstm1_transform_126 <- h_conted_125
I1017 11:44:09.281677 26047 net.cpp:380] lstm1_transform_126 -> W_hc_h_125
I1017 11:44:09.293469 26047 net.cpp:122] Setting up lstm1_transform_126
I1017 11:44:09.293488 26047 net.cpp:129] Top shape: 1 150 2048 (307200)
I1017 11:44:09.293493 26047 net.cpp:137] Memory required for data: 831283200
I1017 11:44:09.293498 26047 net.cpp:465] Sharing parameters 'W_hc' owned by layer 'lstm1_transform_1', param index 0
I1017 11:44:09.293505 26047 layer_factory.hpp:77] Creating layer lstm1_gate_input_126
I1017 11:44:09.293514 26047 net.cpp:84] Creating Layer lstm1_gate_input_126
I1017 11:44:09.293520 26047 net.cpp:406] lstm1_gate_input_126 <- W_hc_h_125
I1017 11:44:09.293529 26047 net.cpp:406] lstm1_gate_input_126 <- W_xc_x_126
I1017 11:44:09.293537 26047 net.cpp:380] lstm1_gate_input_126 -> gate_input_126
I1017 11:44:09.293570 26047 net.cpp:122] Setting up lstm1_gate_input_126
I1017 11:44:09.293579 26047 net.cpp:129] Top shape: 1 150 2048 (307200)
I1017 11:44:09.293583 26047 net.cpp:137] Memory required for data: 832512000
I1017 11:44:09.293587 26047 layer_factory.hpp:77] Creating layer lstm1_unit_126
I1017 11:44:09.293594 26047 net.cpp:84] Creating Layer lstm1_unit_126
I1017 11:44:09.293601 26047 net.cpp:406] lstm1_unit_126 <- c_125
I1017 11:44:09.293607 26047 net.cpp:406] lstm1_unit_126 <- gate_input_126
I1017 11:44:09.293613 26047 net.cpp:406] lstm1_unit_126 <- cont_126_lstm1_cont_slice_125_split_1
I1017 11:44:09.293620 26047 net.cpp:380] lstm1_unit_126 -> c_126
I1017 11:44:09.293629 26047 net.cpp:380] lstm1_unit_126 -> h_126
I1017 11:44:09.293684 26047 net.cpp:122] Setting up lstm1_unit_126
I1017 11:44:09.293692 26047 net.cpp:129] Top shape: 1 150 512 (76800)
I1017 11:44:09.293699 26047 net.cpp:129] Top shape: 1 150 512 (76800)
I1017 11:44:09.293702 26047 net.cpp:137] Memory required for data: 833126400
I1017 11:44:09.293707 26047 layer_factory.hpp:77] Creating layer h_126_lstm1_unit_126_1_split
I1017 11:44:09.293714 26047 net.cpp:84] Creating Layer h_126_lstm1_unit_126_1_split
I1017 11:44:09.293718 26047 net.cpp:406] h_126_lstm1_unit_126_1_split <- h_126
I1017 11:44:09.293725 26047 net.cpp:380] h_126_lstm1_unit_126_1_split -> h_126_lstm1_unit_126_1_split_0
I1017 11:44:09.293733 26047 net.cpp:380] h_126_lstm1_unit_126_1_split -> h_126_lstm1_unit_126_1_split_1
I1017 11:44:09.293769 26047 net.cpp:122] Setting up h_126_lstm1_unit_126_1_split
I1017 11:44:09.293778 26047 net.cpp:129] Top shape: 1 150 512 (76800)
I1017 11:44:09.293783 26047 net.cpp:129] Top shape: 1 150 512 (76800)
I1017 11:44:09.293788 26047 net.cpp:137] Memory required for data: 833740800
I1017 11:44:09.293792 26047 layer_factory.hpp:77] Creating layer lstm1_h_conted_126
I1017 11:44:09.293800 26047 net.cpp:84] Creating Layer lstm1_h_conted_126
I1017 11:44:09.293805 26047 net.cpp:406] lstm1_h_conted_126 <- h_126_lstm1_unit_126_1_split_0
I1017 11:44:09.293812 26047 net.cpp:406] lstm1_h_conted_126 <- cont_127_lstm1_cont_slice_126_split_0
I1017 11:44:09.293820 26047 net.cpp:380] lstm1_h_conted_126 -> h_conted_126
I1017 11:44:09.293898 26047 net.cpp:122] Setting up lstm1_h_conted_126
I1017 11:44:09.293908 26047 net.cpp:129] Top shape: 1 150 512 (76800)
I1017 11:44:09.293912 26047 net.cpp:137] Memory required for data: 834048000
I1017 11:44:09.293917 26047 layer_factory.hpp:77] Creating layer lstm1_transform_127
I1017 11:44:09.293926 26047 net.cpp:84] Creating Layer lstm1_transform_127
I1017 11:44:09.293932 26047 net.cpp:406] lstm1_transform_127 <- h_conted_126
I1017 11:44:09.293941 26047 net.cpp:380] lstm1_transform_127 -> W_hc_h_126
I1017 11:44:09.305670 26047 net.cpp:122] Setting up lstm1_transform_127
I1017 11:44:09.305687 26047 net.cpp:129] Top shape: 1 150 2048 (307200)
I1017 11:44:09.305691 26047 net.cpp:137] Memory required for data: 835276800
I1017 11:44:09.305732 26047 net.cpp:465] Sharing parameters 'W_hc' owned by layer 'lstm1_transform_1', param index 0
I1017 11:44:09.305742 26047 layer_factory.hpp:77] Creating layer lstm1_gate_input_127
I1017 11:44:09.305750 26047 net.cpp:84] Creating Layer lstm1_gate_input_127
I1017 11:44:09.305757 26047 net.cpp:406] lstm1_gate_input_127 <- W_hc_h_126
I1017 11:44:09.305764 26047 net.cpp:406] lstm1_gate_input_127 <- W_xc_x_127
I1017 11:44:09.305773 26047 net.cpp:380] lstm1_gate_input_127 -> gate_input_127
I1017 11:44:09.305807 26047 net.cpp:122] Setting up lstm1_gate_input_127
I1017 11:44:09.305817 26047 net.cpp:129] Top shape: 1 150 2048 (307200)
I1017 11:44:09.305822 26047 net.cpp:137] Memory required for data: 836505600
I1017 11:44:09.305826 26047 layer_factory.hpp:77] Creating layer lstm1_unit_127
I1017 11:44:09.305833 26047 net.cpp:84] Creating Layer lstm1_unit_127
I1017 11:44:09.305840 26047 net.cpp:406] lstm1_unit_127 <- c_126
I1017 11:44:09.305846 26047 net.cpp:406] lstm1_unit_127 <- gate_input_127
I1017 11:44:09.305852 26047 net.cpp:406] lstm1_unit_127 <- cont_127_lstm1_cont_slice_126_split_1
I1017 11:44:09.305858 26047 net.cpp:380] lstm1_unit_127 -> c_127
I1017 11:44:09.305871 26047 net.cpp:380] lstm1_unit_127 -> h_127
I1017 11:44:09.305920 26047 net.cpp:122] Setting up lstm1_unit_127
I1017 11:44:09.305929 26047 net.cpp:129] Top shape: 1 150 512 (76800)
I1017 11:44:09.305935 26047 net.cpp:129] Top shape: 1 150 512 (76800)
I1017 11:44:09.305939 26047 net.cpp:137] Memory required for data: 837120000
I1017 11:44:09.305944 26047 layer_factory.hpp:77] Creating layer h_127_lstm1_unit_127_1_split
I1017 11:44:09.305953 26047 net.cpp:84] Creating Layer h_127_lstm1_unit_127_1_split
I1017 11:44:09.305958 26047 net.cpp:406] h_127_lstm1_unit_127_1_split <- h_127
I1017 11:44:09.305965 26047 net.cpp:380] h_127_lstm1_unit_127_1_split -> h_127_lstm1_unit_127_1_split_0
I1017 11:44:09.305974 26047 net.cpp:380] h_127_lstm1_unit_127_1_split -> h_127_lstm1_unit_127_1_split_1
I1017 11:44:09.306010 26047 net.cpp:122] Setting up h_127_lstm1_unit_127_1_split
I1017 11:44:09.306018 26047 net.cpp:129] Top shape: 1 150 512 (76800)
I1017 11:44:09.306023 26047 net.cpp:129] Top shape: 1 150 512 (76800)
I1017 11:44:09.306027 26047 net.cpp:137] Memory required for data: 837734400
I1017 11:44:09.306032 26047 layer_factory.hpp:77] Creating layer lstm1_h_conted_127
I1017 11:44:09.306040 26047 net.cpp:84] Creating Layer lstm1_h_conted_127
I1017 11:44:09.306044 26047 net.cpp:406] lstm1_h_conted_127 <- h_127_lstm1_unit_127_1_split_0
I1017 11:44:09.306051 26047 net.cpp:406] lstm1_h_conted_127 <- cont_128_lstm1_cont_slice_127_split_0
I1017 11:44:09.306061 26047 net.cpp:380] lstm1_h_conted_127 -> h_conted_127
I1017 11:44:09.306140 26047 net.cpp:122] Setting up lstm1_h_conted_127
I1017 11:44:09.306150 26047 net.cpp:129] Top shape: 1 150 512 (76800)
I1017 11:44:09.306155 26047 net.cpp:137] Memory required for data: 838041600
I1017 11:44:09.306159 26047 layer_factory.hpp:77] Creating layer lstm1_transform_128
I1017 11:44:09.306167 26047 net.cpp:84] Creating Layer lstm1_transform_128
I1017 11:44:09.306174 26047 net.cpp:406] lstm1_transform_128 <- h_conted_127
I1017 11:44:09.306182 26047 net.cpp:380] lstm1_transform_128 -> W_hc_h_127
I1017 11:44:09.317970 26047 net.cpp:122] Setting up lstm1_transform_128
I1017 11:44:09.317986 26047 net.cpp:129] Top shape: 1 150 2048 (307200)
I1017 11:44:09.317991 26047 net.cpp:137] Memory required for data: 839270400
I1017 11:44:09.317996 26047 net.cpp:465] Sharing parameters 'W_hc' owned by layer 'lstm1_transform_1', param index 0
I1017 11:44:09.318001 26047 layer_factory.hpp:77] Creating layer lstm1_gate_input_128
I1017 11:44:09.318011 26047 net.cpp:84] Creating Layer lstm1_gate_input_128
I1017 11:44:09.318017 26047 net.cpp:406] lstm1_gate_input_128 <- W_hc_h_127
I1017 11:44:09.318024 26047 net.cpp:406] lstm1_gate_input_128 <- W_xc_x_128
I1017 11:44:09.318032 26047 net.cpp:380] lstm1_gate_input_128 -> gate_input_128
I1017 11:44:09.318063 26047 net.cpp:122] Setting up lstm1_gate_input_128
I1017 11:44:09.318073 26047 net.cpp:129] Top shape: 1 150 2048 (307200)
I1017 11:44:09.318078 26047 net.cpp:137] Memory required for data: 840499200
I1017 11:44:09.318083 26047 layer_factory.hpp:77] Creating layer lstm1_unit_128
I1017 11:44:09.318090 26047 net.cpp:84] Creating Layer lstm1_unit_128
I1017 11:44:09.318095 26047 net.cpp:406] lstm1_unit_128 <- c_127
I1017 11:44:09.318102 26047 net.cpp:406] lstm1_unit_128 <- gate_input_128
I1017 11:44:09.318109 26047 net.cpp:406] lstm1_unit_128 <- cont_128_lstm1_cont_slice_127_split_1
I1017 11:44:09.318115 26047 net.cpp:380] lstm1_unit_128 -> c_128
I1017 11:44:09.318123 26047 net.cpp:380] lstm1_unit_128 -> h_128
I1017 11:44:09.318181 26047 net.cpp:122] Setting up lstm1_unit_128
I1017 11:44:09.318190 26047 net.cpp:129] Top shape: 1 150 512 (76800)
I1017 11:44:09.318197 26047 net.cpp:129] Top shape: 1 150 512 (76800)
I1017 11:44:09.318200 26047 net.cpp:137] Memory required for data: 841113600
I1017 11:44:09.318204 26047 layer_factory.hpp:77] Creating layer lstm1_
I1017 11:44:09.318214 26047 net.cpp:84] Creating Layer lstm1_
I1017 11:44:09.318219 26047 net.cpp:406] lstm1_ <- c_128
I1017 11:44:09.318228 26047 net.cpp:380] lstm1_ -> c_T
I1017 11:44:09.318253 26047 net.cpp:122] Setting up lstm1_
I1017 11:44:09.318262 26047 net.cpp:129] Top shape: 1 150 512 (76800)
I1017 11:44:09.318266 26047 net.cpp:137] Memory required for data: 841420800
I1017 11:44:09.318270 26047 layer_factory.hpp:77] Creating layer lstm1_h_concat
I1017 11:44:09.318292 26047 net.cpp:84] Creating Layer lstm1_h_concat
I1017 11:44:09.318302 26047 net.cpp:406] lstm1_h_concat <- h_1_lstm1_unit_1_1_split_1
I1017 11:44:09.318312 26047 net.cpp:406] lstm1_h_concat <- h_2_lstm1_unit_2_1_split_1
…
I1017 11:44:09.349964 26047 net.cpp:200] lstm1_ does not need backward computation.
I1017 11:44:09.349967 26047 net.cpp:242] This network produces output c_T
I1017 11:44:09.349977 26047 net.cpp:242] This network produces output h_pseudoloss
I1017 11:44:09.464807 26047 net.cpp:255] Network initialization done.
I1017 11:44:09.466836 26047 recurrent_layer.cpp:150] Adding parameter 0: W_xc
I1017 11:44:09.466848 26047 recurrent_layer.cpp:150] Adding parameter 1: b_c
I1017 11:44:09.466866 26047 recurrent_layer.cpp:150] Adding parameter 2: W_hc
I1017 11:44:09.475028 26047 net.cpp:122] Setting up lstm1
I1017 11:44:09.475086 26047 net.cpp:129] Top shape: 128 150 512 (9830400)
I1017 11:44:09.475092 26047 net.cpp:137] Memory required for data: 17365403400
I1017 11:44:09.475112 26047 layer_factory.hpp:77] Creating layer lstm1-drop
I1017 11:44:09.475129 26047 net.cpp:84] Creating Layer lstm1-drop
I1017 11:44:09.475142 26047 net.cpp:406] lstm1-drop <- lstm1
I1017 11:44:09.475154 26047 net.cpp:380] lstm1-drop -> lstm1-drop
I1017 11:44:09.475224 26047 net.cpp:122] Setting up lstm1-drop
I1017 11:44:09.475234 26047 net.cpp:129] Top shape: 128 150 512 (9830400)
I1017 11:44:09.475237 26047 net.cpp:137] Memory required for data: 17404725000
I1017 11:44:09.475242 26047 layer_factory.hpp:77] Creating layer fc-final
I1017 11:44:09.475257 26047 net.cpp:84] Creating Layer fc-final
I1017 11:44:09.475262 26047 net.cpp:406] fc-final <- lstm1-drop
I1017 11:44:09.475275 26047 net.cpp:380] fc-final -> fc-final
I1017 11:44:09.475747 26047 net.cpp:122] Setting up fc-final
I1017 11:44:09.475760 26047 net.cpp:129] Top shape: 128 150 10 (192000)
I1017 11:44:09.475777 26047 net.cpp:137] Memory required for data: 17405493000
I1017 11:44:09.475785 26047 layer_factory.hpp:77] Creating layer fc-final_fc-final_0_split
I1017 11:44:09.475798 26047 net.cpp:84] Creating Layer fc-final_fc-final_0_split
I1017 11:44:09.475805 26047 net.cpp:406] fc-final_fc-final_0_split <- fc-final
I1017 11:44:09.475811 26047 net.cpp:380] fc-final_fc-final_0_split -> fc-final_fc-final_0_split_0
I1017 11:44:09.475821 26047 net.cpp:380] fc-final_fc-final_0_split -> fc-final_fc-final_0_split_1
I1017 11:44:09.475863 26047 net.cpp:122] Setting up fc-final_fc-final_0_split
I1017 11:44:09.475872 26047 net.cpp:129] Top shape: 128 150 10 (192000)
I1017 11:44:09.475878 26047 net.cpp:129] Top shape: 128 150 10 (192000)
I1017 11:44:09.475883 26047 net.cpp:137] Memory required for data: 17407029000
I1017 11:44:09.475888 26047 layer_factory.hpp:77] Creating layer loss
I1017 11:44:09.475898 26047 net.cpp:84] Creating Layer loss
I1017 11:44:09.475903 26047 net.cpp:406] loss <- fc-final_fc-final_0_split_0
I1017 11:44:09.475910 26047 net.cpp:406] loss <- reshape-label_label_tran_0_split_0
I1017 11:44:09.475919 26047 net.cpp:380] loss -> loss
…
