…
I1017 12:11:31.684204 27058 net.cpp:294] The NetState phase (0) differed from the phase (1) specified by a rule in layer Silence
I1017 12:11:31.684406 27058 net.cpp:51] Initializing net from parameters: 
name: "VGG-Places365"
state {
  phase: TRAIN
  level: 0
  stage: ""
}
layer {
  name: "data"
  type: "ImageData"
  top: "data"
  top: "label"
  include {
    phase: TRAIN
  }
  transform_param {
    mirror: true
    crop_size: 224
    mean_value: 104
    mean_value: 117
    mean_value: 123
  }
  image_data_param {
    source: "../Data/lsun_train_list_12w.txt"
    batch_size: 1
    shuffle: true
    new_height: 256
    new_width: 256
  }
}
layer {
  name: "label_tran"
  type: "Python"
  bottom: "label"
  top: "reshape-label"
  top: "clip_markers"
  python_param {
    module: "data_preparation_sort_max_clip"
    layer: "ReshapeLabel"
  }
}
layer {
  name: "conv1_1"
  type: "Convolution"
  bottom: "data"
  top: "conv1_1"
  convolution_param {
    num_output: 64
    pad: 1
    kernel_size: 3
  }
}
layer {
  name: "relu1_1"
  type: "ReLU"
  bottom: "conv1_1"
  top: "conv1_1"
}
layer {
  name: "conv1_2"
  type: "Convolution"
  bottom: "conv1_1"
  top: "conv1_2"
  convolution_param {
    num_output: 64
    pad: 1
    kernel_size: 3
  }
}
layer {
  name: "relu1_2"
  type: "ReLU"
  bottom: "conv1_2"
  top: "conv1_2"
}
layer {
  name: "pool1"
  type: "Pooling"
  bottom: "conv1_2"
  top: "pool1"
  pooling_param {
    pool: MAX
    kernel_size: 2
    stride: 2
  }
}
layer {
  name: "conv2_1"
  type: "Convolution"
  bottom: "pool1"
  top: "conv2_1"
  convolution_param {
    num_output: 128
    pad: 1
    kernel_size: 3
  }
}
layer {
  name: "relu2_1"
  type: "ReLU"
  bottom: "conv2_1"
  top: "conv2_1"
}
layer {
  name: "conv2_2"
  type: "Convolution"
  bottom: "conv2_1"
  top: "conv2_2"
  convolution_param {
    num_output: 128
    pad: 1
    kernel_size: 3
  }
}
layer {
  name: "relu2_2"
  type: "ReLU"
  bottom: "conv2_2"
  top: "conv2_2"
}
layer {
  name: "pool2"
  type: "Pooling"
  bottom: "conv2_2"
  top: "pool2"
  pooling_param {
    pool: MAX
    kernel_size: 2
    stride: 2
  }
}
layer {
  name: "conv3_1"
  type: "Convolution"
  bottom: "pool2"
  top: "conv3_1"
  convolution_param {
    num_output: 256
    pad: 1
    kernel_size: 3
  }
}
layer {
  name: "relu3_1"
  type: "ReLU"
  bottom: "conv3_1"
  top: "conv3_1"
}
layer {
  name: "conv3_2"
  type: "Convolution"
  bottom: "conv3_1"
  top: "conv3_2"
  convolution_param {
    num_output: 256
    pad: 1
    kernel_size: 3
  }
}
layer {
  name: "relu3_2"
  type: "ReLU"
  bottom: "conv3_2"
  top: "conv3_2"
}
layer {
  name: "conv3_3"
  type: "Convolution"
  bottom: "conv3_2"
  top: "conv3_3"
  convolution_param {
    num_output: 256
    pad: 1
    kernel_size: 3
  }
}
layer {
  name: "relu3_3"
  type: "ReLU"
  bottom: "conv3_3"
  top: "conv3_3"
}
layer {
  name: "pool3"
  type: "Pooling"
  bottom: "conv3_3"
  top: "pool3"
  pooling_param {
    pool: MAX
    kernel_size: 2
    stride: 2
  }
}
layer {
  name: "conv4_1"
  type: "Convolution"
  bottom: "pool3"
  top: "conv4_1"
  convolution_param {
    num_output: 512
    pad: 1
    kernel_size: 3
  }
}
layer {
  name: "relu4_1"
  type: "ReLU"
  bottom: "conv4_1"
  top: "conv4_1"
}
layer {
  name: "conv4_2"
  type: "Convolution"
  bottom: "conv4_1"
  top: "conv4_2"
  convolution_param {
    num_output: 512
    pad: 1
    kernel_size: 3
  }
}
layer {
  name: "relu4_2"
  type: "ReLU"
  bottom: "conv4_2"
  top: "conv4_2"
}
layer {
  name: "conv4_3"
  type: "Convolution"
  bottom: "conv4_2"
  top: "conv4_3"
  convolution_param {
    num_output: 512
    pad: 1
    kernel_size: 3
  }
}
layer {
  name: "relu4_3"
  type: "ReLU"
  bottom: "conv4_3"
  top: "conv4_3"
}
layer {
  name: "pool4"
  type: "Pooling"
  bottom: "conv4_3"
  top: "pool4"
  pooling_param {
    pool: MAX
    kernel_size: 2
    stride: 2
  }
}
layer {
  name: "conv5_1"
  type: "Convolution"
  bottom: "pool4"
  top: "conv5_1"
  convolution_param {
    num_output: 512
    pad: 1
    kernel_size: 3
  }
}
layer {
  name: "relu5_1"
  type: "ReLU"
  bottom: "conv5_1"
  top: "conv5_1"
}
layer {
  name: "conv5_2"
  type: "Convolution"
  bottom: "conv5_1"
  top: "conv5_2"
  convolution_param {
    num_output: 512
    pad: 1
    kernel_size: 3
  }
}
layer {
  name: "relu5_2"
  type: "ReLU"
  bottom: "conv5_2"
  top: "conv5_2"
}
layer {
  name: "conv5_3"
  type: "Convolution"
  bottom: "conv5_2"
  top: "conv5_3"
  convolution_param {
    num_output: 512
    pad: 1
    kernel_size: 3
  }
}
layer {
  name: "relu5_3"
  type: "ReLU"
  bottom: "conv5_3"
  top: "conv5_3"
}
layer {
  name: "conv5_3_re"
  type: "Reshape"
  bottom: "conv5_3"
  top: "conv5_3_re"
  reshape_param {
    shape {
      dim: 0
      dim: 0
      dim: -1
    }
  }
}
layer {
  name: "conv5_3_tran"
  type: "Python"
  bottom: "conv5_3_re"
  top: "conv5_3_tran"
  python_param {
    module: "data_preparation_sort_max_clip"
    layer: "DataTransposeSortMaxClip"
  }
}
layer {
  name: "lstm1"
  type: "LSTM"
  bottom: "conv5_3_tran"
  bottom: "clip_markers"
  top: "lstm1"
  recurrent_param {
    num_output: 512
    weight_filler {
      type: "uniform"
      min: -0.01
      max: 0.01
    }
    bias_filler {
      type: "constant"
      value: 0
    }
  }
}
layer {
  name: "lstm1-drop"
  type: "Dropout"
  bottom: "lstm1"
  top: "lstm1-drop"
  dropout_param {
    dropout_ratio: 0.5
  }
}
layer {
  name: "fc-final"
  type: "InnerProduct"
  bottom: "lstm1-drop"
  top: "fc-final"
  param {
    lr_mult: 1
    decay_mult: 1
  }
  param {
    lr_mult: 2
    decay_mult: 0
  }
  inner_product_param {
    num_output: 10
    weight_filler {
      type: "gaussian"
      std: 0.01
    }
    bias_filler {
      type: "constant"
      value: 0
    }
    axis: 2
  }
}
layer {
  name: "loss"
  type: "SoftmaxWithLoss"
  bottom: "fc-final"
  bottom: "reshape-label"
  top: "loss"
  softmax_param {
    axis: 2
  }
}
layer {
  name: "accuracy"
  type: "Accuracy"
  bottom: "fc-final"
  bottom: "reshape-label"
  top: "accuracy"
  accuracy_param {
    axis: 2
  }
}
I1017 12:11:31.684623 27058 layer_factory.hpp:77] Creating layer data
I1017 12:11:31.684682 27058 net.cpp:84] Creating Layer data
I1017 12:11:31.684695 27058 net.cpp:380] data -> data
I1017 12:11:31.684746 27058 net.cpp:380] data -> label
I1017 12:11:31.684783 27058 image_data_layer.cpp:38] Opening file ../Data/lsun_train_list_12w.txt
I1017 12:11:32.230533 27058 image_data_layer.cpp:53] Shuffling data
I1017 12:11:32.491886 27058 image_data_layer.cpp:63] A total of 1200000 images.
I1017 12:11:32.496800 27058 image_data_layer.cpp:90] output data size: 1,3,224,224
I1017 12:11:32.503444 27058 net.cpp:122] Setting up data
I1017 12:11:32.503486 27058 net.cpp:129] Top shape: 1 3 224 224 (150528)
I1017 12:11:32.503495 27058 net.cpp:129] Top shape: 1 (1)
I1017 12:11:32.503500 27058 net.cpp:137] Memory required for data: 602116
I1017 12:11:32.503522 27058 layer_factory.hpp:77] Creating layer label_tran
I1017 12:11:33.171315 27058 net.cpp:84] Creating Layer label_tran
I1017 12:11:33.171378 27058 net.cpp:406] label_tran <- label
I1017 12:11:33.171403 27058 net.cpp:380] label_tran -> reshape-label
I1017 12:11:33.171418 27058 net.cpp:380] label_tran -> clip_markers
I1017 12:11:33.171795 27058 net.cpp:122] Setting up label_tran
I1017 12:11:33.171814 27058 net.cpp:129] Top shape: 196 1 (196)
I1017 12:11:33.171821 27058 net.cpp:129] Top shape: 196 1 (196)
I1017 12:11:33.171828 27058 net.cpp:137] Memory required for data: 603684
I1017 12:11:33.171834 27058 layer_factory.hpp:77] Creating layer reshape-label_label_tran_0_split
I1017 12:11:33.171862 27058 net.cpp:84] Creating Layer reshape-label_label_tran_0_split
I1017 12:11:33.171869 27058 net.cpp:406] reshape-label_label_tran_0_split <- reshape-label
I1017 12:11:33.171875 27058 net.cpp:380] reshape-label_label_tran_0_split -> reshape-label_label_tran_0_split_0
I1017 12:11:33.171885 27058 net.cpp:380] reshape-label_label_tran_0_split -> reshape-label_label_tran_0_split_1
I1017 12:11:33.171926 27058 net.cpp:122] Setting up reshape-label_label_tran_0_split
I1017 12:11:33.171934 27058 net.cpp:129] Top shape: 196 1 (196)
I1017 12:11:33.171941 27058 net.cpp:129] Top shape: 196 1 (196)
I1017 12:11:33.171944 27058 net.cpp:137] Memory required for data: 605252
I1017 12:11:33.171949 27058 layer_factory.hpp:77] Creating layer conv1_1
I1017 12:11:33.171969 27058 net.cpp:84] Creating Layer conv1_1
I1017 12:11:33.171978 27058 net.cpp:406] conv1_1 <- data
I1017 12:11:33.171984 27058 net.cpp:380] conv1_1 -> conv1_1
I1017 12:11:33.173943 27058 net.cpp:122] Setting up conv1_1
I1017 12:11:33.173961 27058 net.cpp:129] Top shape: 1 64 224 224 (3211264)
I1017 12:11:33.173966 27058 net.cpp:137] Memory required for data: 13450308
I1017 12:11:33.173993 27058 layer_factory.hpp:77] Creating layer relu1_1
I1017 12:11:33.174005 27058 net.cpp:84] Creating Layer relu1_1
I1017 12:11:33.174012 27058 net.cpp:406] relu1_1 <- conv1_1
I1017 12:11:33.174018 27058 net.cpp:367] relu1_1 -> conv1_1 (in-place)
I1017 12:11:33.174031 27058 net.cpp:122] Setting up relu1_1
I1017 12:11:33.174037 27058 net.cpp:129] Top shape: 1 64 224 224 (3211264)
I1017 12:11:33.174043 27058 net.cpp:137] Memory required for data: 26295364
I1017 12:11:33.174049 27058 layer_factory.hpp:77] Creating layer conv1_2
I1017 12:11:33.174059 27058 net.cpp:84] Creating Layer conv1_2
I1017 12:11:33.174063 27058 net.cpp:406] conv1_2 <- conv1_1
I1017 12:11:33.174070 27058 net.cpp:380] conv1_2 -> conv1_2
I1017 12:11:33.174338 27058 net.cpp:122] Setting up conv1_2
I1017 12:11:33.174350 27058 net.cpp:129] Top shape: 1 64 224 224 (3211264)
I1017 12:11:33.174355 27058 net.cpp:137] Memory required for data: 39140420
I1017 12:11:33.174365 27058 layer_factory.hpp:77] Creating layer relu1_2
I1017 12:11:33.174371 27058 net.cpp:84] Creating Layer relu1_2
I1017 12:11:33.174376 27058 net.cpp:406] relu1_2 <- conv1_2
I1017 12:11:33.174382 27058 net.cpp:367] relu1_2 -> conv1_2 (in-place)
I1017 12:11:33.174391 27058 net.cpp:122] Setting up relu1_2
I1017 12:11:33.174396 27058 net.cpp:129] Top shape: 1 64 224 224 (3211264)
I1017 12:11:33.174399 27058 net.cpp:137] Memory required for data: 51985476
I1017 12:11:33.174404 27058 layer_factory.hpp:77] Creating layer pool1
I1017 12:11:33.174414 27058 net.cpp:84] Creating Layer pool1
I1017 12:11:33.174419 27058 net.cpp:406] pool1 <- conv1_2
I1017 12:11:33.174425 27058 net.cpp:380] pool1 -> pool1
I1017 12:11:33.174475 27058 net.cpp:122] Setting up pool1
I1017 12:11:33.174485 27058 net.cpp:129] Top shape: 1 64 112 112 (802816)
I1017 12:11:33.174489 27058 net.cpp:137] Memory required for data: 55196740
I1017 12:11:33.174494 27058 layer_factory.hpp:77] Creating layer conv2_1
I1017 12:11:33.174504 27058 net.cpp:84] Creating Layer conv2_1
I1017 12:11:33.174509 27058 net.cpp:406] conv2_1 <- pool1
I1017 12:11:33.174515 27058 net.cpp:380] conv2_1 -> conv2_1
I1017 12:11:33.175518 27058 net.cpp:122] Setting up conv2_1
I1017 12:11:33.175532 27058 net.cpp:129] Top shape: 1 128 112 112 (1605632)
I1017 12:11:33.175536 27058 net.cpp:137] Memory required for data: 61619268
I1017 12:11:33.175547 27058 layer_factory.hpp:77] Creating layer relu2_1
I1017 12:11:33.175557 27058 net.cpp:84] Creating Layer relu2_1
I1017 12:11:33.175562 27058 net.cpp:406] relu2_1 <- conv2_1
I1017 12:11:33.175570 27058 net.cpp:367] relu2_1 -> conv2_1 (in-place)
I1017 12:11:33.175578 27058 net.cpp:122] Setting up relu2_1
I1017 12:11:33.175585 27058 net.cpp:129] Top shape: 1 128 112 112 (1605632)
I1017 12:11:33.175588 27058 net.cpp:137] Memory required for data: 68041796
I1017 12:11:33.175592 27058 layer_factory.hpp:77] Creating layer conv2_2
I1017 12:11:33.175601 27058 net.cpp:84] Creating Layer conv2_2
I1017 12:11:33.175604 27058 net.cpp:406] conv2_2 <- conv2_1
I1017 12:11:33.175611 27058 net.cpp:380] conv2_2 -> conv2_2
I1017 12:11:33.176811 27058 net.cpp:122] Setting up conv2_2
I1017 12:11:33.176827 27058 net.cpp:129] Top shape: 1 128 112 112 (1605632)
I1017 12:11:33.176832 27058 net.cpp:137] Memory required for data: 74464324
I1017 12:11:33.176839 27058 layer_factory.hpp:77] Creating layer relu2_2
I1017 12:11:33.176847 27058 net.cpp:84] Creating Layer relu2_2
I1017 12:11:33.176852 27058 net.cpp:406] relu2_2 <- conv2_2
I1017 12:11:33.176859 27058 net.cpp:367] relu2_2 -> conv2_2 (in-place)
I1017 12:11:33.176867 27058 net.cpp:122] Setting up relu2_2
I1017 12:11:33.176872 27058 net.cpp:129] Top shape: 1 128 112 112 (1605632)
I1017 12:11:33.176877 27058 net.cpp:137] Memory required for data: 80886852
I1017 12:11:33.176883 27058 layer_factory.hpp:77] Creating layer pool2
I1017 12:11:33.176890 27058 net.cpp:84] Creating Layer pool2
I1017 12:11:33.176894 27058 net.cpp:406] pool2 <- conv2_2
I1017 12:11:33.176901 27058 net.cpp:380] pool2 -> pool2
I1017 12:11:33.176937 27058 net.cpp:122] Setting up pool2
I1017 12:11:33.176946 27058 net.cpp:129] Top shape: 1 128 56 56 (401408)
I1017 12:11:33.176951 27058 net.cpp:137] Memory required for data: 82492484
I1017 12:11:33.176955 27058 layer_factory.hpp:77] Creating layer conv3_1
I1017 12:11:33.176965 27058 net.cpp:84] Creating Layer conv3_1
I1017 12:11:33.176970 27058 net.cpp:406] conv3_1 <- pool2
I1017 12:11:33.176976 27058 net.cpp:380] conv3_1 -> conv3_1
I1017 12:11:33.178174 27058 net.cpp:122] Setting up conv3_1
I1017 12:11:33.178187 27058 net.cpp:129] Top shape: 1 256 56 56 (802816)
I1017 12:11:33.178205 27058 net.cpp:137] Memory required for data: 85703748
I1017 12:11:33.178215 27058 layer_factory.hpp:77] Creating layer relu3_1
I1017 12:11:33.178221 27058 net.cpp:84] Creating Layer relu3_1
I1017 12:11:33.178226 27058 net.cpp:406] relu3_1 <- conv3_1
I1017 12:11:33.178233 27058 net.cpp:367] relu3_1 -> conv3_1 (in-place)
I1017 12:11:33.178241 27058 net.cpp:122] Setting up relu3_1
I1017 12:11:33.178246 27058 net.cpp:129] Top shape: 1 256 56 56 (802816)
I1017 12:11:33.178251 27058 net.cpp:137] Memory required for data: 88915012
I1017 12:11:33.178254 27058 layer_factory.hpp:77] Creating layer conv3_2
I1017 12:11:33.178262 27058 net.cpp:84] Creating Layer conv3_2
I1017 12:11:33.178267 27058 net.cpp:406] conv3_2 <- conv3_1
I1017 12:11:33.178272 27058 net.cpp:380] conv3_2 -> conv3_2
I1017 12:11:33.180075 27058 net.cpp:122] Setting up conv3_2
I1017 12:11:33.180091 27058 net.cpp:129] Top shape: 1 256 56 56 (802816)
I1017 12:11:33.180096 27058 net.cpp:137] Memory required for data: 92126276
I1017 12:11:33.180105 27058 layer_factory.hpp:77] Creating layer relu3_2
I1017 12:11:33.180115 27058 net.cpp:84] Creating Layer relu3_2
I1017 12:11:33.180120 27058 net.cpp:406] relu3_2 <- conv3_2
I1017 12:11:33.180126 27058 net.cpp:367] relu3_2 -> conv3_2 (in-place)
I1017 12:11:33.180135 27058 net.cpp:122] Setting up relu3_2
I1017 12:11:33.180140 27058 net.cpp:129] Top shape: 1 256 56 56 (802816)
I1017 12:11:33.180143 27058 net.cpp:137] Memory required for data: 95337540
I1017 12:11:33.180148 27058 layer_factory.hpp:77] Creating layer conv3_3
I1017 12:11:33.180158 27058 net.cpp:84] Creating Layer conv3_3
I1017 12:11:33.180162 27058 net.cpp:406] conv3_3 <- conv3_2
I1017 12:11:33.180171 27058 net.cpp:380] conv3_3 -> conv3_3
I1017 12:11:33.182051 27058 net.cpp:122] Setting up conv3_3
I1017 12:11:33.182068 27058 net.cpp:129] Top shape: 1 256 56 56 (802816)
I1017 12:11:33.182085 27058 net.cpp:137] Memory required for data: 98548804
I1017 12:11:33.182091 27058 layer_factory.hpp:77] Creating layer relu3_3
I1017 12:11:33.182099 27058 net.cpp:84] Creating Layer relu3_3
I1017 12:11:33.182103 27058 net.cpp:406] relu3_3 <- conv3_3
I1017 12:11:33.182112 27058 net.cpp:367] relu3_3 -> conv3_3 (in-place)
I1017 12:11:33.182121 27058 net.cpp:122] Setting up relu3_3
I1017 12:11:33.182126 27058 net.cpp:129] Top shape: 1 256 56 56 (802816)
I1017 12:11:33.182130 27058 net.cpp:137] Memory required for data: 101760068
I1017 12:11:33.182134 27058 layer_factory.hpp:77] Creating layer pool3
I1017 12:11:33.182140 27058 net.cpp:84] Creating Layer pool3
I1017 12:11:33.182144 27058 net.cpp:406] pool3 <- conv3_3
I1017 12:11:33.182150 27058 net.cpp:380] pool3 -> pool3
I1017 12:11:33.182188 27058 net.cpp:122] Setting up pool3
I1017 12:11:33.182199 27058 net.cpp:129] Top shape: 1 256 28 28 (200704)
I1017 12:11:33.182202 27058 net.cpp:137] Memory required for data: 102562884
I1017 12:11:33.182207 27058 layer_factory.hpp:77] Creating layer conv4_1
I1017 12:11:33.182217 27058 net.cpp:84] Creating Layer conv4_1
I1017 12:11:33.182222 27058 net.cpp:406] conv4_1 <- pool3
I1017 12:11:33.182229 27058 net.cpp:380] conv4_1 -> conv4_1
I1017 12:11:33.186065 27058 net.cpp:122] Setting up conv4_1
I1017 12:11:33.186084 27058 net.cpp:129] Top shape: 1 512 28 28 (401408)
I1017 12:11:33.186089 27058 net.cpp:137] Memory required for data: 104168516
I1017 12:11:33.186097 27058 layer_factory.hpp:77] Creating layer relu4_1
I1017 12:11:33.186105 27058 net.cpp:84] Creating Layer relu4_1
I1017 12:11:33.186110 27058 net.cpp:406] relu4_1 <- conv4_1
I1017 12:11:33.186117 27058 net.cpp:367] relu4_1 -> conv4_1 (in-place)
I1017 12:11:33.186125 27058 net.cpp:122] Setting up relu4_1
I1017 12:11:33.186131 27058 net.cpp:129] Top shape: 1 512 28 28 (401408)
I1017 12:11:33.186136 27058 net.cpp:137] Memory required for data: 105774148
I1017 12:11:33.186139 27058 layer_factory.hpp:77] Creating layer conv4_2
I1017 12:11:33.186148 27058 net.cpp:84] Creating Layer conv4_2
I1017 12:11:33.186153 27058 net.cpp:406] conv4_2 <- conv4_1
I1017 12:11:33.186159 27058 net.cpp:380] conv4_2 -> conv4_2
I1017 12:11:33.192279 27058 net.cpp:122] Setting up conv4_2
I1017 12:11:33.192307 27058 net.cpp:129] Top shape: 1 512 28 28 (401408)
I1017 12:11:33.192312 27058 net.cpp:137] Memory required for data: 107379780
I1017 12:11:33.192332 27058 layer_factory.hpp:77] Creating layer relu4_2
I1017 12:11:33.192345 27058 net.cpp:84] Creating Layer relu4_2
I1017 12:11:33.192351 27058 net.cpp:406] relu4_2 <- conv4_2
I1017 12:11:33.192358 27058 net.cpp:367] relu4_2 -> conv4_2 (in-place)
I1017 12:11:33.192368 27058 net.cpp:122] Setting up relu4_2
I1017 12:11:33.192374 27058 net.cpp:129] Top shape: 1 512 28 28 (401408)
I1017 12:11:33.192378 27058 net.cpp:137] Memory required for data: 108985412
I1017 12:11:33.192383 27058 layer_factory.hpp:77] Creating layer conv4_3
I1017 12:11:33.192394 27058 net.cpp:84] Creating Layer conv4_3
I1017 12:11:33.192399 27058 net.cpp:406] conv4_3 <- conv4_2
I1017 12:11:33.192405 27058 net.cpp:380] conv4_3 -> conv4_3
I1017 12:11:33.198159 27058 net.cpp:122] Setting up conv4_3
I1017 12:11:33.198179 27058 net.cpp:129] Top shape: 1 512 28 28 (401408)
I1017 12:11:33.198184 27058 net.cpp:137] Memory required for data: 110591044
I1017 12:11:33.198194 27058 layer_factory.hpp:77] Creating layer relu4_3
I1017 12:11:33.198206 27058 net.cpp:84] Creating Layer relu4_3
I1017 12:11:33.198212 27058 net.cpp:406] relu4_3 <- conv4_3
I1017 12:11:33.198220 27058 net.cpp:367] relu4_3 -> conv4_3 (in-place)
I1017 12:11:33.198230 27058 net.cpp:122] Setting up relu4_3
I1017 12:11:33.198235 27058 net.cpp:129] Top shape: 1 512 28 28 (401408)
I1017 12:11:33.198238 27058 net.cpp:137] Memory required for data: 112196676
I1017 12:11:33.198243 27058 layer_factory.hpp:77] Creating layer pool4
I1017 12:11:33.198253 27058 net.cpp:84] Creating Layer pool4
I1017 12:11:33.198257 27058 net.cpp:406] pool4 <- conv4_3
I1017 12:11:33.198264 27058 net.cpp:380] pool4 -> pool4
I1017 12:11:33.198307 27058 net.cpp:122] Setting up pool4
I1017 12:11:33.198315 27058 net.cpp:129] Top shape: 1 512 14 14 (100352)
I1017 12:11:33.198319 27058 net.cpp:137] Memory required for data: 112598084
I1017 12:11:33.198323 27058 layer_factory.hpp:77] Creating layer conv5_1
I1017 12:11:33.198333 27058 net.cpp:84] Creating Layer conv5_1
I1017 12:11:33.198338 27058 net.cpp:406] conv5_1 <- pool4
I1017 12:11:33.198346 27058 net.cpp:380] conv5_1 -> conv5_1
I1017 12:11:33.204377 27058 net.cpp:122] Setting up conv5_1
I1017 12:11:33.204401 27058 net.cpp:129] Top shape: 1 512 14 14 (100352)
I1017 12:11:33.204406 27058 net.cpp:137] Memory required for data: 112999492
I1017 12:11:33.204416 27058 layer_factory.hpp:77] Creating layer relu5_1
I1017 12:11:33.204427 27058 net.cpp:84] Creating Layer relu5_1
I1017 12:11:33.204432 27058 net.cpp:406] relu5_1 <- conv5_1
I1017 12:11:33.204439 27058 net.cpp:367] relu5_1 -> conv5_1 (in-place)
I1017 12:11:33.204448 27058 net.cpp:122] Setting up relu5_1
I1017 12:11:33.204453 27058 net.cpp:129] Top shape: 1 512 14 14 (100352)
I1017 12:11:33.204457 27058 net.cpp:137] Memory required for data: 113400900
I1017 12:11:33.204463 27058 layer_factory.hpp:77] Creating layer conv5_2
I1017 12:11:33.204474 27058 net.cpp:84] Creating Layer conv5_2
I1017 12:11:33.204478 27058 net.cpp:406] conv5_2 <- conv5_1
I1017 12:11:33.204484 27058 net.cpp:380] conv5_2 -> conv5_2
I1017 12:11:33.210337 27058 net.cpp:122] Setting up conv5_2
I1017 12:11:33.210355 27058 net.cpp:129] Top shape: 1 512 14 14 (100352)
I1017 12:11:33.210361 27058 net.cpp:137] Memory required for data: 113802308
I1017 12:11:33.210368 27058 layer_factory.hpp:77] Creating layer relu5_2
I1017 12:11:33.210376 27058 net.cpp:84] Creating Layer relu5_2
I1017 12:11:33.210381 27058 net.cpp:406] relu5_2 <- conv5_2
I1017 12:11:33.210387 27058 net.cpp:367] relu5_2 -> conv5_2 (in-place)
I1017 12:11:33.210395 27058 net.cpp:122] Setting up relu5_2
I1017 12:11:33.210402 27058 net.cpp:129] Top shape: 1 512 14 14 (100352)
I1017 12:11:33.210405 27058 net.cpp:137] Memory required for data: 114203716
I1017 12:11:33.210409 27058 layer_factory.hpp:77] Creating layer conv5_3
I1017 12:11:33.210422 27058 net.cpp:84] Creating Layer conv5_3
I1017 12:11:33.210427 27058 net.cpp:406] conv5_3 <- conv5_2
I1017 12:11:33.210434 27058 net.cpp:380] conv5_3 -> conv5_3
I1017 12:11:33.216131 27058 net.cpp:122] Setting up conv5_3
I1017 12:11:33.216147 27058 net.cpp:129] Top shape: 1 512 14 14 (100352)
I1017 12:11:33.216152 27058 net.cpp:137] Memory required for data: 114605124
I1017 12:11:33.216161 27058 layer_factory.hpp:77] Creating layer relu5_3
I1017 12:11:33.216176 27058 net.cpp:84] Creating Layer relu5_3
I1017 12:11:33.216181 27058 net.cpp:406] relu5_3 <- conv5_3
I1017 12:11:33.216188 27058 net.cpp:367] relu5_3 -> conv5_3 (in-place)
I1017 12:11:33.216197 27058 net.cpp:122] Setting up relu5_3
I1017 12:11:33.216202 27058 net.cpp:129] Top shape: 1 512 14 14 (100352)
I1017 12:11:33.216207 27058 net.cpp:137] Memory required for data: 115006532
I1017 12:11:33.216210 27058 layer_factory.hpp:77] Creating layer conv5_3_re
I1017 12:11:33.216226 27058 net.cpp:84] Creating Layer conv5_3_re
I1017 12:11:33.216234 27058 net.cpp:406] conv5_3_re <- conv5_3
I1017 12:11:33.216243 27058 net.cpp:380] conv5_3_re -> conv5_3_re
I1017 12:11:33.216289 27058 net.cpp:122] Setting up conv5_3_re
I1017 12:11:33.216300 27058 net.cpp:129] Top shape: 1 512 196 (100352)
I1017 12:11:33.216306 27058 net.cpp:137] Memory required for data: 115407940
I1017 12:11:33.216310 27058 layer_factory.hpp:77] Creating layer conv5_3_tran
I1017 12:11:33.216382 27058 net.cpp:84] Creating Layer conv5_3_tran
I1017 12:11:33.216392 27058 net.cpp:406] conv5_3_tran <- conv5_3_re
I1017 12:11:33.216399 27058 net.cpp:380] conv5_3_tran -> conv5_3_tran
I1017 12:11:33.216591 27058 net.cpp:122] Setting up conv5_3_tran
I1017 12:11:33.216605 27058 net.cpp:129] Top shape: 196 1 196 (38416)
I1017 12:11:33.216609 27058 net.cpp:137] Memory required for data: 115561604
I1017 12:11:33.216614 27058 layer_factory.hpp:77] Creating layer lstm1
I1017 12:11:33.216629 27058 net.cpp:84] Creating Layer lstm1
I1017 12:11:33.216634 27058 net.cpp:406] lstm1 <- conv5_3_tran
I1017 12:11:33.216640 27058 net.cpp:406] lstm1 <- clip_markers
I1017 12:11:33.216650 27058 net.cpp:380] lstm1 -> lstm1
I1017 12:11:33.216666 27058 recurrent_layer.cpp:20] Initializing recurrent layer: assuming input batch contains 196 timesteps of 1 independent streams.
I1017 12:11:33.223482 27058 net.cpp:51] Initializing net from parameters: 
layer {
  name: "lstm1_"
  type: "Input"
  top: "x"
  top: "cont"
  input_param {
    shape {
      dim: 196
      dim: 1
      dim: 196
    }
    shape {
      dim: 196
      dim: 1
    }
  }
}
layer {
  name: "lstm1_"
  type: "Input"
  top: "c_0"
  top: "h_0"
  input_param {
    shape {
      dim: 1
      dim: 1
      dim: 512
    }
    shape {
      dim: 1
      dim: 1
      dim: 512
    }
  }
}
layer {
  name: "lstm1_cont_slice"
  type: "Slice"
  bottom: "cont"
  top: "cont_1"
  top: "cont_2"
  top: "cont_3"
  top: "cont_4"
  top: "cont_5"
  top: "cont_6"
  top: "cont_7"
  top: "cont_8"
  top: "cont_9"
  top: "cont_10"
  top: "cont_11"
  top: "cont_12"
  top: "cont_13"
  top: "cont_14"
  top: "cont_15"
  top: "cont_16"
  top: "cont_17"
  top: "cont_18"
  top: "cont_19"
  top: "cont_20"
  top: "cont_21"
  top: "cont_22"
  top: "cont_23"
  top: "cont_24"
…
  top: "W_xc_x_171"
  top: "W_xc_x_172"
  top: "W_xc_x_173"
  top: "W_xc_x_174"
  top: "W_xc_x_175"
  top: "W_xc_x_176"
  top: "W_xc_x_177"
  top: "W_xc_x_178"
  top: "W_xc_x_179"
  top: "W_xc_x_180"
  top: "W_xc_x_181"
  top: "W_xc_x_182"
  top: "W_xc_x_183"
  top: "W_xc_x_184"
  top: "W_xc_x_185"
  top: "W_xc_x_186"
  top: "W_xc_x_187"
  top: "W_xc_x_188"
  top: "W_xc_x_189"
  top: "W_xc_x_190"
  top: "W_xc_x_191"
  top: "W_xc_x_192"
  top: "W_xc_x_193"
  top: "W_xc_x_194"
  top: "W_xc_x_195"
  top: "W_xc_x_196"
  slice_param {
    axis: 0
  }
}
layer {
  name: "lstm1_h_conted_0"
  type: "Scale"
  bottom: "h_0"
  bottom: "cont_1"
  top: "h_conted_0"
  scale_param {
    axis: 0
  }
}
layer {
  name: "lstm1_transform_1"
  type: "InnerProduct"
  bottom: "h_conted_0"
  top: "W_hc_h_0"
  param {
    name: "W_hc"
  }
  inner_product_param {
    num_output: 2048
    bias_term: false
    weight_filler {
      type: "uniform"
      min: -0.01
      max: 0.01
    }
    axis: 2
  }
}
layer {
  name: "lstm1_gate_input_1"
  type: "Eltwise"
  bottom: "W_hc_h_0"
  bottom: "W_xc_x_1"
  top: "gate_input_1"
  eltwise_param {
    operation: SUM
  }
}
layer {
  name: "lstm1_unit_1"
  type: "LSTMUnit"
  bottom: "c_0"
  bottom: "gate_input_1"
  bottom: "cont_1"
  top: "c_1"
  top: "h_1"
}
layer {
  name: "lstm1_h_conted_1"
  type: "Scale"
  bottom: "h_1"
  bottom: "cont_2"
  top: "h_conted_1"
  scale_param {
    axis: 0
  }
}
layer {
  name: "lstm1_transform_2"
  type: "InnerProduct"
  bottom: "h_conted_1"
  top: "W_hc_h_1"
  param {
    name: "W_hc"
  }
  inner_product_param {
    num_output: 2048
    bias_term: false
    weight_filler {
      type: "uniform"
      min: -0.01
      max: 0.01
    }
    axis: 2
  }
}
layer {
  name: "lstm1_gate_input_2"
  type: "Eltwise"
  bottom: "W_hc_h_1"
  bottom: "W_xc_x_2"
  top: "gate_input_2"
  eltwise_param {
    operation: SUM
  }
}
layer {
  name: "lstm1_unit_2"
  type: "LSTMUnit"
  bottom: "c_1"
  bottom: "gate_input_2"
  bottom: "cont_2"
  top: "c_2"
  top: "h_2"
}
layer {
  name: "lstm1_h_conted_2"
  type: "Scale"
  bottom: "h_2"
  bottom: "cont_3"
  top: "h_conted_2"
  scale_param {
    axis: 0
  }
}
layer {
  name: "lstm1_transform_3"
  type: "InnerProduct"
  bottom: "h_conted_2"
  top: "W_hc_h_2"
  param {
    name: "W_hc"
  }
  inner_product_param {
    num_output: 2048
    bias_term: false
    weight_filler {
      type: "uniform"
      min: -0.01
      max: 0.01
    }
    axis: 2
  }
}
layer {
  name: "lstm1_gate_input_3"
  type: "Eltwise"
  bottom: "W_hc_h_2"
  bottom: "W_xc_x_3"
  top: "gate_input_3"
  eltwise_param {
    operation: SUM
  }
}
layer {
  name: "lstm1_unit_3"
  type: "LSTMUnit"
  bottom: "c_2"
  bottom: "gate_input_3"
  bottom: "cont_3"
  top: "c_3"
  top: "h_3"
}
layer {
  name: "lstm1_h_conted_3"
  type: "Scale"
  bottom: "h_3"
  bottom: "cont_4"
  top: "h_conted_3"
  scale_param {
    axis: 0
  }
}
layer {
  name: "lstm1_transform_4"
  type: "InnerProduct"
  bottom: "h_conted_3"
  top: "W_hc_h_3"
  param {
    name: "W_hc"
  }
  inner_product_param {
    num_output: 2048
    bias_term: false
    weight_filler {
      type: "uniform"
      min: -0.01
      max: 0.01
    }
    axis: 2
  }
}
layer {
  name: "lstm1_gate_input_4"
  type: "Eltwise"
  bottom: "W_hc_h_3"
  bottom: "W_xc_x_4"
  top: "gate_input_4"
  eltwise_param {
    operation: SUM
  }
}
layer {
  name: "lstm1_unit_4"
  type: "LSTMUnit"
  bottom: "c_3"
  bottom: "gate_input_4"
  bottom: "cont_4"
  top: "c_4"
  top: "h_4"
}
layer {
  name: "lstm1_h_conted_4"
  type: "Scale"
  bottom: "h_4"
  bottom: "cont_5"
  top: "h_conted_4"
  scale_param {
    axis: 0
  }
}
layer {
  name: "lstm1_transform_5"
  type: "InnerProduct"
  bottom: "h_conted_4"
  top: "W_hc_h_4"
  param {
    name: "W_hc"
  }
  inner_product_param {
    num_output: 2048
    bias_term: false
    weight_filler {
      type: "uniform"
      min: -0.01
      max: 0.01
    }
    axis: 2
  }
}
layer {
  name: "lstm1_gate_input_5"
  type: "Eltwise"
  bottom: "W_hc_h_4"
  bottom: "W_xc_x_5"
  top: "gate_input_5"
  eltwise_param {
    operation: SUM
  }
}
layer {
  name: "lstm1_unit_5"
  type: "LSTMUnit"
  bottom: "c_4"
  bottom: "gate_input_5"
  bottom: "cont_5"
  top: "c_5"
  top: "h_5"
}
layer {
  name: "lstm1_h_conted_5"
  type: "Scale"
  bottom: "h_5"
  bottom: "cont_6"
  top: "h_conted_5"
  scale_param {
    axis: 0
  }
}
layer {
  name: "lstm1_transform_6"
  type: "InnerProduct"
  bottom: "h_conted_5"
  top: "W_hc_h_5"
  param {
    name: "W_hc"
  }
  inner_product_param {
    num_output: 2048
    bias_term: false
    weight_filler {
      type: "uniform"
      min: -0.01
      max: 0.01
    }
    axis: 2
  }
}
layer {
  name: "lstm1_gate_input_6"
  type: "Eltwise"
  bottom: "W_hc_h_5"
  bottom: "W_xc_x_6"
  top: "gate_input_6"
  eltwise_param {
    operation: SUM
  }
}
layer {
  name: "lstm1_unit_6"
  type: "LSTMUnit"
  bottom: "c_5"
  bottom: "gate_input_6"
  bottom: "cont_6"
  top: "c_6"
  top: "h_6"
}
layer {
  name: "lstm1_h_conted_6"
  type: "Scale"
  bottom: "h_6"
  bottom: "cont_7"
  top: "h_conted_6"
  scale_param {
    axis: 0
  }
}
layer {
  name: "lstm1_transform_7"
  type: "InnerProduct"
  bottom: "h_conted_6"
  top: "W_hc_h_6"
  param {
    name: "W_hc"
  }
  inner_product_param {
    num_output: 2048
    bias_term: false
    weight_filler {
      type: "uniform"
      min: -0.01
      max: 0.01
    }
    axis: 2
  }
}
layer {
  name: "lstm1_gate_input_7"
  type: "Eltwise"
  bottom: "W_hc_h_6"
  bottom: "W_xc_x_7"
  top: "gate_input_7"
  eltwise_param {
    operation: SUM
  }
}
layer {
  name: "lstm1_unit_7"
  type: "LSTMUnit"
  bottom: "c_6"
  bottom: "gate_input_7"
  bottom: "cont_7"
  top: "c_7"
  top: "h_7"
}
layer {
  name: "lstm1_h_conted_7"
  type: "Scale"
  bottom: "h_7"
  bottom: "cont_8"
  top: "h_conted_7"
  scale_param {
    axis: 0
  }
}
layer {
  name: "lstm1_transform_8"
  type: "InnerProduct"
  bottom: "h_conted_7"
  top: "W_hc_h_7"
  param {
    name: "W_hc"
  }
  inner_product_param {
    num_output: 2048
    bias_term: false
    weight_filler {
      type: "uniform"
      min: -0.01
      max: 0.01
    }
    axis: 2
  }
}
layer {
  name: "lstm1_gate_input_8"
  type: "Eltwise"
  bottom: "W_hc_h_7"
  bottom: "W_xc_x_8"
  top: "gate_input_8"
  eltwise_param {
    operation: SUM
  }
}
layer {
  name: "lstm1_unit_8"
  type: "LSTMUnit"
  bottom: "c_7"
  bottom: "gate_input_8"
  bottom: "cont_8"
  top: "c_8"
  top: "h_8"
}
layer {
  name: "lstm1_h_conted_8"
  type: "Scale"
  bottom: "h_8"
  bottom: "cont_9"
  top: "h_conted_8"
  scale_param {
    axis: 0
  }
}
layer {
  name: "lstm1_transform_9"
  type: "InnerProduct"
  bottom: "h_conted_8"
  top: "W_hc_h_8"
  param {
    name: "W_hc"
  }
  inner_product_param {
    num_output: 2048
    bias_term: false
    weight_filler {
      type: "uniform"
      min: -0.01
      max: 0.01
    }
    axis: 2
  }
}
layer {
  name: "lstm1_gate_input_9"
  type: "Eltwise"
  bottom: "W_hc_h_8"
  bottom: "W_xc_x_9"
  top: "gate_input_9"
  eltwise_param {
    operation: SUM
  }
}
layer {
  name: "lstm1_unit_9"
  type: "LSTMUnit"
  bottom: "c_8"
  bottom: "gate_input_9"
  bottom: "cont_9"
  top: "c_9"
  top: "h_9"
}
layer {
  name: "lstm1_h_conted_9"
  type: "Scale"
  bottom: "h_9"
  bottom: "cont_10"
  top: "h_conted_9"
  scale_param {
    axis: 0
  }
}
layer {
  name: "lstm1_transform_10"
  type: "InnerProduct"
  bottom: "h_conted_9"
  top: "W_hc_h_9"
  param {
    name: "W_hc"
  }
  inner_product_param {
    num_output: 2048
    bias_term: false
    weight_filler {
      type: "uniform"
      min: -0.01
      max: 0.01
    }
    axis: 2
  }
}
layer {
  name: "lstm1_gate_input_10"
  type: "Eltwise"
  bottom: "W_hc_h_9"
  bottom: "W_xc_x_10"
  top: "gate_input_10"
  eltwise_param {
    operation: SUM
  }
}
layer {
  name: "lstm1_unit_10"
  type: "LSTMUnit"
  bottom: "c_9"
  bottom: "gate_input_10"
  bottom: "cont_10"
  top: "c_10"
  top: "h_10"
}
layer {
  name: "lstm1_h_conted_10"
  type: "Scale"
  bottom: "h_10"
  bottom: "cont_11"
  top: "h_conted_10"
  scale_param {
    axis: 0
  }
}
layer {
  name: "lstm1_transform_11"
  type: "InnerProduct"
  bottom: "h_conted_10"
  top: "W_hc_h_10"
  param {
    name: "W_hc"
  }
  inner_product_param {
    num_output: 2048
    bias_term: false
    weight_filler {
      type: "uniform"
      min: -0.01
      max: 0.01
    }
    axis: 2
  }
}
layer {
  name: "lstm1_gate_input_11"
  type: "Eltwise"
  bottom: "W_hc_h_10"
  bottom: "W_xc_x_11"
  top: "gate_input_11"
  eltwise_param {
    operation: SUM
  }
}
layer {
  name: "lstm1_unit_11"
  type: "LSTMUnit"
  bottom: "c_10"
  bottom: "gate_input_11"
  bottom: "cont_11"
  top: "c_11"
  top: "h_11"
}
layer {
  name: "lstm1_h_conted_11"
  type: "Scale"
  bottom: "h_11"
  bottom: "cont_12"
  top: "h_conted_11"
  scale_param {
    axis: 0
  }
}
layer {
  name: "lstm1_transform_12"
  type: "InnerProduct"
  bottom: "h_conted_11"
  top: "W_hc_h_11"
  param {
    name: "W_hc"
  }
  inner_product_param {
    num_output: 2048
    bias_term: false
    weight_filler {
      type: "uniform"
      min: -0.01
      max: 0.01
    }
    axis: 2
  }
}
layer {
  name: "lstm1_gate_input_12"
  type: "Eltwise"
  bottom: "W_hc_h_11"
  bottom: "W_xc_x_12"
  top: "gate_input_12"
  eltwise_param {
    operation: SUM
  }
}
layer {
  name: "lstm1_unit_12"
  type: "LSTMUnit"
  bottom: "c_11"
  bottom: "gate_input_12"
  bottom: "cont_12"
  top: "c_12"
  top: "h_12"
}
layer {
  name: "lstm1_h_conted_12"
  type: "Scale"
  bottom: "h_12"
  bottom: "cont_13"
  top: "h_conted_12"
  scale_param {
    axis: 0
  }
}
layer {
  name: "lstm1_transform_13"
  type: "InnerProduct"
  bottom: "h_conted_12"
  top: "W_hc_h_12"
  param {
    name: "W_hc"
  }
  inner_product_param {
    num_output: 2048
    bias_term: false
    weight_filler {
      type: "uniform"
      min: -0.01
      max: 0.01
    }
    axis: 2
  }
}
layer {
  name: "lstm1_gate_input_13"
  type: "Eltwise"
  bottom: "W_hc_h_12"
  bottom: "W_xc_x_13"
  top: "gate_input_13"
  eltwise_param {
    operation: SUM
  }
}
layer {
  name: "lstm1_unit_13"
  type: "LSTMUnit"
  bottom: "c_12"
  bottom: "gate_input_13"
  bottom: "cont_13"
  top: "c_13"
  top: "h_13"
}
layer {
  name: "lstm1_h_conted_13"
  type: "Scale"
  bottom: "h_13"
  bottom: "cont_14"
  top: "h_conted_13"
  scale_param {
    axis: 0
  }
}
layer {
  name: "lstm1_transform_14"
  type: "InnerProduct"
  bottom: "h_conted_13"
  top: "W_hc_h_13"
  param {
    name: "W_hc"
  }
  inner_product_param {
    num_output: 2048
    bias_term: false
    weight_filler {
      type: "uniform"
      min: -0.01
      max: 0.01
    }
    axis: 2
  }
}
layer {
  name: "lstm1_gate_input_14"
  type: "Eltwise"
  bottom: "W_hc_h_13"
  bottom: "W_xc_x_14"
  top: "gate_input_14"
  eltwise_param {
    operation: SUM
  }
}
layer {
  name: "lstm1_unit_14"
  type: "LSTMUnit"
  bottom: "c_13"
  bottom: "gate_input_14"
  bottom: "cont_14"
  top: "c_14"
  top: "h_14"
}
layer {
  name: "lstm1_h_conted_14"
  type: "Scale"
  bottom: "h_14"
  bottom: "cont_15"
  top: "h_conted_14"
  scale_param {
    axis: 0
  }
}
layer {
  name: "lstm1_transform_15"
  type: "InnerProduct"
  bottom: "h_conted_14"
  top: "W_hc_h_14"
  param {
    name: "W_hc"
  }
  inner_product_param {
    num_output: 2048
    bias_term: false
    weight_filler {
      type: "uniform"
      min: -0.01
      max: 0.01
    }
    axis: 2
  }
}
layer {
  name: "lstm1_gate_input_15"
  type: "Eltwise"
  bottom: "W_hc_h_14"
  bottom: "W_xc_x_15"
  top: "gate_input_15"
  eltwise_param {
    operation: SUM
  }
}
layer {
  name: "lstm1_unit_15"
  type: "LSTMUnit"
  bottom: "c_14"
  bottom: "gate_input_15"
  bottom: "cont_15"
  top: "c_15"
  top: "h_15"
}
layer {
  name: "lstm1_h_conted_15"
  type: "Scale"
  bottom: "h_15"
  bottom: "cont_16"
  top: "h_conted_15"
  scale_param {
    axis: 0
  }
}
layer {
  name: "lstm1_transform_16"
  type: "InnerProduct"
  bottom: "h_conted_15"
  top: "W_hc_h_15"
  param {
    name: "W_hc"
  }
  inner_product_param {
    num_output: 2048
    bias_term: false
    weight_filler {
      type: "uniform"
      min: -0.01
      max: 0.01
    }
    axis: 2
  }
}
layer {
  name: "lstm1_gate_input_16"
  type: "Eltwise"
  bottom: "W_hc_h_15"
  bottom: "W_xc_x_16"
  top: "gate_input_16"
  eltwise_param {
    operation: SUM
  }
}
layer {
  name: "lstm1_unit_16"
  type: "LSTMUnit"
  bottom: "c_15"
  bottom: "gate_input_16"
  bottom: "cont_16"
  top: "c_16"
  top: "h_16"
}
layer {
  name: "lstm1_h_conted_16"
  type: "Scale"
  bottom: "h_16"
  bottom: "cont_17"
  top: "h_conted_16"
  scale_param {
    axis: 0
  }
}
layer {
  name: "lstm1_transform_17"
  type: "InnerProduct"
  bottom: "h_conted_16"
  top: "W_hc_h_16"
  param {
    name: "W_hc"
  }
  inner_product_param {
    num_output: 2048
    bias_term: false
    weight_filler {
      type: "uniform"
      min: -0.01
      max: 0.01
    }
    axis: 2
  }
}
layer {
  name: "lstm1_gate_input_17"
  type: "Eltwise"
  bottom: "W_hc_h_16"
  bottom: "W_xc_x_17"
  top: "gate_input_17"
  eltwise_param {
    operation: SUM
  }
}
layer {
  name: "lstm1_unit_17"
  type: "LSTMUnit"
  bottom: "c_16"
  bottom: "gate_input_17"
  bottom: "cont_17"
  top: "c_17"
  top: "h_17"
}
layer {
  name: "lstm1_h_conted_17"
  type: "Scale"
  bottom: "h_17"
  bottom: "cont_18"
  top: "h_conted_17"
  scale_param {
    axis: 0
  }
}
layer {
  name: "lstm1_transform_18"
  type: "InnerProduct"
  bottom: "h_conted_17"
  top: "W_hc_h_17"
  param {
    name: "W_hc"
  }
  inner_product_param {
    num_output: 2048
    bias_term: false
    weight_filler {
      type: "uniform"
      min: -0.01
      max: 0.01
    }
    axis: 2
  }
}
layer {
  name: "lstm1_gate_input_18"
  type: "Eltwise"
  bottom: "W_hc_h_17"
  bottom: "W_xc_x_18"
  top: "gate_input_18"
  eltwise_param {
    operation: SUM
  }
}
layer {
  name: "lstm1_unit_18"
  type: "LSTMUnit"
  bottom: "c_17"
  bottom: "gate_input_18"
  bottom: "cont_18"
  top: "c_18"
  top: "h_18"
}
layer {
  name: "lstm1_h_conted_18"
  type: "Scale"
  bottom: "h_18"
  bottom: "cont_19"
  top: "h_conted_18"
  scale_param {
    axis: 0
  }
}
layer {
  name: "lstm1_transform_19"
  type: "InnerProduct"
  bottom: "h_conted_18"
  top: "W_hc_h_18"
  param {
    name: "W_hc"
  }
  inner_product_param {
    num_output: 2048
    bias_term: false
    weight_filler {
      type: "uniform"
      min: -0.01
      max: 0.01
    }
    axis: 2
  }
}
layer {
  name: "lstm1_gate_input_19"
  type: "Eltwise"
  bottom: "W_hc_h_18"
  bottom: "W_xc_x_19"
  top: "gate_input_19"
  eltwise_param {
    operation: SUM
  }
}
layer {
  name: "lstm1_unit_19"
  type: "LSTMUnit"
  bottom: "c_18"
  bottom: "gate_input_19"
  bottom: "cont_19"
  top: "c_19"
  top: "h_19"
}
layer {
  name: "lstm1_h_conted_19"
  type: "Scale"
  bottom: "h_19"
  bottom: "cont_20"
  top: "h_conted_19"
  scale_param {
    axis: 0
  }
}
layer {
  name: "lstm1_transform_20"
  type: "InnerProduct"
  bottom: "h_conted_19"
  top: "W_hc_h_19"
  param {
    name: "W_hc"
  }
  inner_product_param {
    num_output: 2048
    bias_term: false
    weight_filler {
      type: "uniform"
      min: -0.01
      max: 0.01
    }
    axis: 2
  }
}
layer {
  name: "lstm1_gate_input_20"
  type: "Eltwise"
  bottom: "W_hc_h_19"
  bottom: "W_xc_x_20"
  top: "gate_input_20"
  eltwise_param {
    operation: SUM
  }
}
layer {
  name: "lstm1_unit_20"
  type: "LSTMUnit"
  bottom: "c_19"
  bottom: "gate_input_20"
  bottom: "cont_20"
  top: "c_20"
  top: "h_20"
}
layer {
  name: "lstm1_h_conted_20"
  type: "Scale"
  bottom: "h_20"
  bottom: "cont_21"
  top: "h_conted_20"
  scale_param {
    axis: 0
  }
}
layer {
  name: "lstm1_transform_21"
  type: "InnerProduct"
  bottom: "h_conted_20"
  top: "W_hc_h_20"
  param {
    name: "W_hc"
  }
  inner_product_param {
    num_output: 2048
    bias_term: false
    weight_filler {
      type: "uniform"
      min: -0.01
      max: 0.01
    }
    axis: 2
  }
}
layer {
  name: "lstm1_gate_input_21"
  type: "Eltwise"
  bottom: "W_hc_h_20"
  bottom: "W_xc_x_21"
  top: "gate_input_21"
  eltwise_param {
    operation: SUM
  }
}
layer {
  name: "lstm1_unit_21"
  type: "LSTMUnit"
  bottom: "c_20"
  bottom: "gate_input_21"
  bottom: "cont_21"
  top: "c_21"
  top: "h_21"
}
layer {
  name: "lstm1_h_conted_21"
  type: "Scale"
  bottom: "h_21"
  bottom: "cont_22"
  top: "h_conted_21"
  scale_param {
    axis: 0
  }
}
layer {
  name: "lstm1_transform_22"
  type: "InnerProduct"
  bottom: "h_conted_21"
  top: "W_hc_h_21"
  param {
    name: "W_hc"
  }
  inner_product_param {
    num_output: 2048
    bias_term: false
    weight_filler {
      type: "uniform"
      min: -0.01
      max: 0.01
    }
    axis: 2
  }
}
layer {
  name: "lstm1_gate_input_22"
  type: "Eltwise"
  bottom: "W_hc_h_21"
  bottom: "W_xc_x_22"
  top: "gate_input_22"
  eltwise_param {
    operation: SUM
  }
}
layer {
  name: "lstm1_unit_22"
  type: "LSTMUnit"
  bottom: "c_21"
  bottom: "gate_input_22"
  bottom: "cont_22"
  top: "c_22"
  top: "h_22"
}
layer {
  name: "lstm1_h_conted_22"
  type: "Scale"
  bottom: "h_22"
  bottom: "cont_23"
  top: "h_conted_22"
  scale_param {
    axis: 0
  }
}
layer {
  name: "lstm1_transform_23"
  type: "InnerProduct"
  bottom: "h_conted_22"
  top: "W_hc_h_22"
  param {
    name: "W_hc"
  }
  inner_product_param {
    num_output: 2048
    bias_term: false
    weight_filler {
      type: "uniform"
      min: -0.01
      max: 0.01
    }
    axis: 2
  }
}
layer {
  name: "lstm1_gate_input_23"
  type: "Eltwise"
  bottom: "W_hc_h_22"
  bottom: "W_xc_x_23"
  top: "gate_input_23"
  eltwise_param {
    operation: SUM
  }
}
layer {
  name: "lstm1_unit_23"
  type: "LSTMUnit"
  bottom: "c_22"
  bottom: "gate_input_23"
  bottom: "cont_23"
  top: "c_23"
  top: "h_23"
}
layer {
  name: "lstm1_h_conted_23"
  type: "Scale"
  bottom: "h_23"
  bottom: "cont_24"
  top: "h_conted_23"
  scale_param {
    axis: 0
  }
}
layer {
  name: "lstm1_transform_24"
  type: "InnerProduct"
  bottom: "h_conted_23"
  top: "W_hc_h_23"
  param {
    name: "W_hc"
  }
  inner_product_param {
    num_output: 2048
    bias_term: false
    weight_filler {
      type: "uniform"
      min: -0.01
      max: 0.01
    }
    axis: 2
  }
}
layer {
  name: "lstm1_gate_input_24"
  type: "Eltwise"
  bottom: "W_hc_h_23"
  bottom: "W_xc_x_24"
  top: "gate_input_24"
  eltwise_param {
    operation: SUM
  }
}
layer {
  name: "lstm1_unit_24"
  type: "LSTMUnit"
  bottom: "c_23"
  bottom: "gate_input_24"
  bottom: "cont_24"
  top: "c_24"
  top: "h_24"
}
layer {
  name: "lstm1_h_conted_24"
  type: "Scale"
  bottom: "h_24"
  bottom: "cont_25"
  top: "h_conted_24"
  scale_param {
    axis: 0
  }
}
layer {
  name: "lstm1_transform_25"
  type: "InnerProduct"
  bottom: "h_conted_24"
  top: "W_hc_h_24"
  param {
    name: "W_hc"
  }
  inner_product_param {
    num_output: 2048
    bias_term: false
    weight_filler {
      type: "uniform"
      min: -0.01
      max: 0.01
    }
    axis: 2
  }
}
layer {
  name: "lstm1_gate_input_25"
  type: "Eltwise"
  bottom: "W_hc_h_24"
  bottom: "W_xc_x_25"
  top: "gate_input_25"
  eltwise_param {
    operation: SUM
  }
}
layer {
  name: "lstm1_unit_25"
  type: "LSTMUnit"
  bottom: "c_24"
  bottom: "gate_input_25"
  bottom: "cont_25"
  top: "c_25"
  top: "h_25"
}
layer {
  name: "lstm1_h_conted_25"
  type: "Scale"
  bottom: "h_25"
  bottom: "cont_26"
  top: "h_conted_25"
  scale_param {
    axis: 0
  }
}
layer {
  name: "lstm1_transform_26"
  type: "InnerProduct"
  bottom: "h_conted_25"
  top: "W_hc_h_25"
  param {
    name: "W_hc"
  }
  inner_product_param {
    num_output: 2048
    bias_term: false
    weight_filler {
      type: "uniform"
      min: -0.01
      max: 0.01
    }
    axis: 2
  }
}
layer {
  name: "lstm1_gate_input_26"
  type: "Eltwise"
  bottom: "W_hc_h_25"
  bottom: "W_xc_x_26"
  top: "gate_input_26"
  eltwise_param {
    operation: SUM
  }
}
layer {
  name: "lstm1_unit_26"
  type: "LSTMUnit"
  bottom: "c_25"
  bottom: "gate_input_26"
  bottom: "cont_26"
  top: "c_26"
  top: "h_26"
}
layer {
  name: "lstm1_h_conted_26"
  type: "Scale"
  bottom: "h_26"
  bottom: "cont_27"
  top: "h_conted_26"
  scale_param {
    axis: 0
  }
}
layer {
  name: "lstm1_transform_27"
  type: "InnerProduct"
  bottom: "h_conted_26"
  top: "W_hc_h_26"
  param {
    name: "W_hc"
  }
  inner_product_param {
    num_output: 2048
    bias_term: false
    weight_filler {
      type: "uniform"
      min: -0.01
      max: 0.01
    }
    axis: 2
  }
}
layer {
  name: "lstm1_gate_input_27"
  type: "Eltwise"
  bottom: "W_hc_h_26"
  bottom: "W_xc_x_27"
  top: "gate_input_27"
  eltwise_param {
    operation: SUM
  }
}
layer {
  name: "lstm1_unit_27"
  type: "LSTMUnit"
  bottom: "c_26"
  bottom: "gate_input_27"
  bottom: "cont_27"
  top: "c_27"
  top: "h_27"
}
layer {
  name: "lstm1_h_conted_27"
  type: "Scale"
  bottom: "h_27"
  bottom: "cont_28"
  top: "h_conted_27"
  scale_param {
    axis: 0
  }
}
layer {
  name: "lstm1_transform_28"
  type: "InnerProduct"
  bottom: "h_conted_27"
  top: "W_hc_h_27"
  param {
    name: "W_hc"
  }
  inner_product_param {
    num_output: 2048
    bias_term: false
    weight_filler {
      type: "uniform"
      min: -0.01
      max: 0.01
    }
    axis: 2
  }
}
layer {
  name: "lstm1_gate_input_28"
  type: "Eltwise"
  bottom: "W_hc_h_27"
  bottom: "W_xc_x_28"
  top: "gate_input_28"
  eltwise_param {
    operation: SUM
  }
}
layer {
  name: "lstm1_unit_28"
  type: "LSTMUnit"
  bottom: "c_27"
  bottom: "gate_input_28"
  bottom: "cont_28"
  top: "c_28"
  top: "h_28"
}
layer {
  name: "lstm1_h_conted_28"
  type: "Scale"
  bottom: "h_28"
  bottom: "cont_29"
  top: "h_conted_28"
  scale_param {
    axis: 0
  }
}
layer {
  name: "lstm1_transform_29"
  type: "InnerProduct"
  bottom: "h_conted_28"
  top: "W_hc_h_28"
  param {
    name: "W_hc"
  }
  inner_product_param {
    num_output: 2048
    bias_term: false
    weight_filler {
      type: "uniform"
      min: -0.01
      max: 0.01
    }
    axis: 2
  }
}
layer {
  name: "lstm1_gate_input_29"
  type: "Eltwise"
  bottom: "W_hc_h_28"
  bottom: "W_xc_x_29"
  top: "gate_input_29"
  eltwise_param {
    operation: SUM
  }
}
layer {
  name: "lstm1_unit_29"
  type: "LSTMUnit"
  bottom: "c_28"
  bottom: "gate_input_29"
  bottom: "cont_29"
  top: "c_29"
  top: "h_29"
}
layer
I1017 12:11:33.230073 27058 layer_factory.hpp:77] Creating layer lstm1_
I1017 12:11:33.230115 27058 net.cpp:84] Creating Layer lstm1_
I1017 12:11:33.230123 27058 net.cpp:380] lstm1_ -> x
I1017 12:11:33.230139 27058 net.cpp:380] lstm1_ -> cont
I1017 12:11:33.230190 27058 net.cpp:122] Setting up lstm1_
I1017 12:11:33.230202 27058 net.cpp:129] Top shape: 196 1 196 (38416)
I1017 12:11:33.230207 27058 net.cpp:129] Top shape: 196 1 (196)
I1017 12:11:33.230212 27058 net.cpp:137] Memory required for data: 154448
I1017 12:11:33.230216 27058 layer_factory.hpp:77] Creating layer lstm1_
I1017 12:11:33.230223 27058 net.cpp:84] Creating Layer lstm1_
I1017 12:11:33.230229 27058 net.cpp:380] lstm1_ -> c_0
I1017 12:11:33.230237 27058 net.cpp:380] lstm1_ -> h_0
I1017 12:11:33.230289 27058 net.cpp:122] Setting up lstm1_
I1017 12:11:33.230301 27058 net.cpp:129] Top shape: 1 1 512 (512)
I1017 12:11:33.230309 27058 net.cpp:129] Top shape: 1 1 512 (512)
I1017 12:11:33.230315 27058 net.cpp:137] Memory required for data: 158544
I1017 12:11:33.230322 27058 layer_factory.hpp:77] Creating layer lstm1_cont_slice
I1017 12:11:33.230357 27058 net.cpp:84] Creating Layer lstm1_cont_slice
I1017 12:11:33.230365 27058 net.cpp:406] lstm1_cont_slice <- cont
I1017 12:11:33.230393 27058 net.cpp:380] lstm1_cont_slice -> cont_1
I1017 12:11:33.230437 27058 net.cpp:380] lstm1_cont_slice -> cont_2
…
I1017 12:11:33.235501 27058 net.cpp:380] lstm1_cont_slice -> cont_190
I1017 12:11:33.235527 27058 net.cpp:380] lstm1_cont_slice -> cont_191
I1017 12:11:33.235553 27058 net.cpp:380] lstm1_cont_slice -> cont_192
I1017 12:11:33.235579 27058 net.cpp:380] lstm1_cont_slice -> cont_193
I1017 12:11:33.235605 27058 net.cpp:380] lstm1_cont_slice -> cont_194
I1017 12:11:33.235631 27058 net.cpp:380] lstm1_cont_slice -> cont_195
I1017 12:11:33.235656 27058 net.cpp:380] lstm1_cont_slice -> cont_196
I1017 12:11:33.237675 27058 net.cpp:122] Setting up lstm1_cont_slice
I1017 12:11:33.237691 27058 net.cpp:129] Top shape: 1 1 (1)
I1017 12:11:33.237701 27058 net.cpp:129] Top shape: 1 1 (1)
I1017 12:11:33.237709 27058 net.cpp:129] Top shape: 1 1 (1)
I1017 12:11:33.237717 27058 net.cpp:129] Top shape: 1 1 (1)
I1017 12:11:33.237727 27058 net.cpp:129] Top shape: 1 1 (1)
I1017 12:11:33.237735 27058 net.cpp:129] Top shape: 1 1 (1)
I1017 12:11:33.237743 27058 net.cpp:129] Top shape: 1 1 (1)
I1017 12:11:33.237751 27058 net.cpp:129] Top shape: 1 1 (1)
I1017 12:11:33.237758 27058 net.cpp:129] Top shape: 1 1 (1)
I1017 12:11:33.237766 27058 net.cpp:129] Top shape: 1 1 (1)
I1017 12:11:33.237774 27058 net.cpp:129] Top shape: 1 1 (1)
I1017 12:11:33.237783 27058 net.cpp:129] Top shape: 1 1 (1)
I1017 12:11:33.237792 27058 net.cpp:129] Top shape: 1 1 (1)
I1017 12:11:33.237800 27058 net.cpp:129] Top shape: 1 1 (1)
I1017 12:11:33.237808 27058 net.cpp:129] Top shape: 1 1 (1)
I1017 12:11:33.237817 27058 net.cpp:129] Top shape: 1 1 (1)
I1017 12:11:33.237824 27058 net.cpp:129] Top shape: 1 1 (1)
I1017 12:11:33.237833 27058 net.cpp:129] Top shape: 1 1 (1)
I1017 12:11:33.237841 27058 net.cpp:129] Top shape: 1 1 (1)
I1017 12:11:33.237849 27058 net.cpp:129] Top shape: 1 1 (1)
I1017 12:11:33.237859 27058 net.cpp:129] Top shape: 1 1 (1)
I1017 12:11:33.237866 27058 net.cpp:129] Top shape: 1 1 (1)
I1017 12:11:33.237874 27058 net.cpp:129] Top shape: 1 1 (1)
I1017 12:11:33.237882 27058 net.cpp:129] Top shape: 1 1 (1)
I1017 12:11:33.237890 27058 net.cpp:129] Top shape: 1 1 (1)
I1017 12:11:33.237898 27058 net.cpp:129] Top shape: 1 1 (1)
I1017 12:11:33.237906 27058 net.cpp:129] Top shape: 1 1 (1)
I1017 12:11:33.237915 27058 net.cpp:129] Top shape: 1 1 (1)
I1017 12:11:33.237923 27058 net.cpp:129] Top shape: 1 1 (1)
I1017 12:11:33.237932 27058 net.cpp:129] Top shape: 1 1 (1)
I1017 12:11:33.237941 27058 net.cpp:129] Top shape: 1 1 (1)
I1017 12:11:33.237948 27058 net.cpp:129] Top shape: 1 1 (1)
I1017 12:11:33.237957 27058 net.cpp:129] Top shape: 1 1 (1)
I1017 12:11:33.237965 27058 net.cpp:129] Top shape: 1 1 (1)
I1017 12:11:33.237973 27058 net.cpp:129] Top shape: 1 1 (1)
I1017 12:11:33.237982 27058 net.cpp:129] Top shape: 1 1 (1)
I1017 12:11:33.237990 27058 net.cpp:129] Top shape: 1 1 (1)
I1017 12:11:33.237998 27058 net.cpp:129] Top shape: 1 1 (1)
I1017 12:11:33.238006 27058 net.cpp:129] Top shape: 1 1 (1)
I1017 12:11:33.238015 27058 net.cpp:129] Top shape: 1 1 (1)
I1017 12:11:33.238023 27058 net.cpp:129] Top shape: 1 1 (1)
I1017 12:11:33.238031 27058 net.cpp:129] Top shape: 1 1 (1)
I1017 12:11:33.238039 27058 net.cpp:129] Top shape: 1 1 (1)
I1017 12:11:33.238049 27058 net.cpp:129] Top shape: 1 1 (1)
I1017 12:11:33.238056 27058 net.cpp:129] Top shape: 1 1 (1)
I1017 12:11:33.238065 27058 net.cpp:129] Top shape: 1 1 (1)
I1017 12:11:33.238073 27058 net.cpp:129] Top shape: 1 1 (1)
I1017 12:11:33.238081 27058 net.cpp:129] Top shape: 1 1 (1)
I1017 12:11:33.238090 27058 net.cpp:129] Top shape: 1 1 (1)
I1017 12:11:33.238097 27058 net.cpp:129] Top shape: 1 1 (1)
I1017 12:11:33.238106 27058 net.cpp:129] Top shape: 1 1 (1)
I1017 12:11:33.238114 27058 net.cpp:129] Top shape: 1 1 (1)
I1017 12:11:33.238122 27058 net.cpp:129] Top shape: 1 1 (1)
I1017 12:11:33.238131 27058 net.cpp:129] Top shape: 1 1 (1)
I1017 12:11:33.238139 27058 net.cpp:129] Top shape: 1 1 (1)
I1017 12:11:33.238147 27058 net.cpp:129] Top shape: 1 1 (1)
I1017 12:11:33.238155 27058 net.cpp:129] Top shape: 1 1 (1)
I1017 12:11:33.238164 27058 net.cpp:129] Top shape: 1 1 (1)
I1017 12:11:33.238173 27058 net.cpp:129] Top shape: 1 1 (1)
I1017 12:11:33.238180 27058 net.cpp:129] Top shape: 1 1 (1)
I1017 12:11:33.238193 27058 net.cpp:129] Top shape: 1 1 (1)
I1017 12:11:33.238201 27058 net.cpp:129] Top shape: 1 1 (1)
I1017 12:11:33.238209 27058 net.cpp:129] Top shape: 1 1 (1)
I1017 12:11:33.238217 27058 net.cpp:129] Top shape: 1 1 (1)
I1017 12:11:33.238226 27058 net.cpp:129] Top shape: 1 1 (1)
I1017 12:11:33.238234 27058 net.cpp:129] Top shape: 1 1 (1)
I1017 12:11:33.238242 27058 net.cpp:129] Top shape: 1 1 (1)
I1017 12:11:33.238250 27058 net.cpp:129] Top shape: 1 1 (1)
I1017 12:11:33.238260 27058 net.cpp:129] Top shape: 1 1 (1)
I1017 12:11:33.238267 27058 net.cpp:129] Top shape: 1 1 (1)
I1017 12:11:33.238276 27058 net.cpp:129] Top shape: 1 1 (1)
I1017 12:11:33.238284 27058 net.cpp:129] Top shape: 1 1 (1)
I1017 12:11:33.238292 27058 net.cpp:129] Top shape: 1 1 (1)
I1017 12:11:33.238301 27058 net.cpp:129] Top shape: 1 1 (1)
I1017 12:11:33.238309 27058 net.cpp:129] Top shape: 1 1 (1)
I1017 12:11:33.238317 27058 net.cpp:129] Top shape: 1 1 (1)
I1017 12:11:33.238327 27058 net.cpp:129] Top shape: 1 1 (1)
I1017 12:11:33.238334 27058 net.cpp:129] Top shape: 1 1 (1)
I1017 12:11:33.238343 27058 net.cpp:129] Top shape: 1 1 (1)
I1017 12:11:33.238350 27058 net.cpp:129] Top shape: 1 1 (1)
I1017 12:11:33.238358 27058 net.cpp:129] Top shape: 1 1 (1)
I1017 12:11:33.238366 27058 net.cpp:129] Top shape: 1 1 (1)
I1017 12:11:33.238374 27058 net.cpp:129] Top shape: 1 1 (1)
I1017 12:11:33.238382 27058 net.cpp:129] Top shape: 1 1 (1)
I1017 12:11:33.238391 27058 net.cpp:129] Top shape: 1 1 (1)
I1017 12:11:33.238399 27058 net.cpp:129] Top shape: 1 1 (1)
I1017 12:11:33.238407 27058 net.cpp:129] Top shape: 1 1 (1)
I1017 12:11:33.238415 27058 net.cpp:129] Top shape: 1 1 (1)
I1017 12:11:33.238425 27058 net.cpp:129] Top shape: 1 1 (1)
I1017 12:11:33.238432 27058 net.cpp:129] Top shape: 1 1 (1)
I1017 12:11:33.238440 27058 net.cpp:129] Top shape: 1 1 (1)
I1017 12:11:33.238450 27058 net.cpp:129] Top shape: 1 1 (1)
I1017 12:11:33.238457 27058 net.cpp:129] Top shape: 1 1 (1)
I1017 12:11:33.238466 27058 net.cpp:129] Top shape: 1 1 (1)
I1017 12:11:33.238473 27058 net.cpp:129] Top shape: 1 1 (1)
I1017 12:11:33.238482 27058 net.cpp:129] Top shape: 1 1 (1)
I1017 12:11:33.238490 27058 net.cpp:129] Top shape: 1 1 (1)
I1017 12:11:33.238498 27058 net.cpp:129] Top shape: 1 1 (1)
I1017 12:11:33.238507 27058 net.cpp:129] Top shape: 1 1 (1)
I1017 12:11:33.238515 27058 net.cpp:129] Top shape: 1 1 (1)
I1017 12:11:33.238523 27058 net.cpp:129] Top shape: 1 1 (1)
I1017 12:11:33.238531 27058 net.cpp:129] Top shape: 1 1 (1)
I1017 12:11:33.238539 27058 net.cpp:129] Top shape: 1 1 (1)
I1017 12:11:33.238548 27058 net.cpp:129] Top shape: 1 1 (1)
I1017 12:11:33.238556 27058 net.cpp:129] Top shape: 1 1 (1)
I1017 12:11:33.238564 27058 net.cpp:129] Top shape: 1 1 (1)
I1017 12:11:33.238572 27058 net.cpp:129] Top shape: 1 1 (1)
I1017 12:11:33.238581 27058 net.cpp:129] Top shape: 1 1 (1)
I1017 12:11:33.238590 27058 net.cpp:129] Top shape: 1 1 (1)
I1017 12:11:33.238597 27058 net.cpp:129] Top shape: 1 1 (1)
I1017 12:11:33.238606 27058 net.cpp:129] Top shape: 1 1 (1)
I1017 12:11:33.238615 27058 net.cpp:129] Top shape: 1 1 (1)
I1017 12:11:33.238622 27058 net.cpp:129] Top shape: 1 1 (1)
I1017 12:11:33.238631 27058 net.cpp:129] Top shape: 1 1 (1)
I1017 12:11:33.238639 27058 net.cpp:129] Top shape: 1 1 (1)
I1017 12:11:33.238647 27058 net.cpp:129] Top shape: 1 1 (1)
I1017 12:11:33.238656 27058 net.cpp:129] Top shape: 1 1 (1)
I1017 12:11:33.238664 27058 net.cpp:129] Top shape: 1 1 (1)
I1017 12:11:33.238672 27058 net.cpp:129] Top shape: 1 1 (1)
I1017 12:11:33.238680 27058 net.cpp:129] Top shape: 1 1 (1)
I1017 12:11:33.238689 27058 net.cpp:129] Top shape: 1 1 (1)
I1017 12:11:33.238698 27058 net.cpp:129] Top shape: 1 1 (1)
I1017 12:11:33.238705 27058 net.cpp:129] Top shape: 1 1 (1)
I1017 12:11:33.238714 27058 net.cpp:129] Top shape: 1 1 (1)
I1017 12:11:33.238723 27058 net.cpp:129] Top shape: 1 1 (1)
I1017 12:11:33.238731 27058 net.cpp:129] Top shape: 1 1 (1)
I1017 12:11:33.238740 27058 net.cpp:129] Top shape: 1 1 (1)
I1017 12:11:33.238749 27058 net.cpp:129] Top shape: 1 1 (1)
I1017 12:11:33.238756 27058 net.cpp:129] Top shape: 1 1 (1)
I1017 12:11:33.238765 27058 net.cpp:129] Top shape: 1 1 (1)
I1017 12:11:33.238773 27058 net.cpp:129] Top shape: 1 1 (1)
I1017 12:11:33.238781 27058 net.cpp:129] Top shape: 1 1 (1)
I1017 12:11:33.238790 27058 net.cpp:129] Top shape: 1 1 (1)
I1017 12:11:33.238798 27058 net.cpp:129] Top shape: 1 1 (1)
I1017 12:11:33.238807 27058 net.cpp:129] Top shape: 1 1 (1)
I1017 12:11:33.238816 27058 net.cpp:129] Top shape: 1 1 (1)
I1017 12:11:33.238823 27058 net.cpp:129] Top shape: 1 1 (1)
I1017 12:11:33.238832 27058 net.cpp:129] Top shape: 1 1 (1)
I1017 12:11:33.238840 27058 net.cpp:129] Top shape: 1 1 (1)
I1017 12:11:33.238848 27058 net.cpp:129] Top shape: 1 1 (1)
I1017 12:11:33.238857 27058 net.cpp:129] Top shape: 1 1 (1)
I1017 12:11:33.238865 27058 net.cpp:129] Top shape: 1 1 (1)
I1017 12:11:33.238874 27058 net.cpp:129] Top shape: 1 1 (1)
I1017 12:11:33.238883 27058 net.cpp:129] Top shape: 1 1 (1)
I1017 12:11:33.238891 27058 net.cpp:129] Top shape: 1 1 (1)
I1017 12:11:33.238899 27058 net.cpp:129] Top shape: 1 1 (1)
I1017 12:11:33.238907 27058 net.cpp:129] Top shape: 1 1 (1)
I1017 12:11:33.238916 27058 net.cpp:129] Top shape: 1 1 (1)
I1017 12:11:33.238924 27058 net.cpp:129] Top shape: 1 1 (1)
I1017 12:11:33.238932 27058 net.cpp:129] Top shape: 1 1 (1)
I1017 12:11:33.238941 27058 net.cpp:129] Top shape: 1 1 (1)
I1017 12:11:33.238950 27058 net.cpp:129] Top shape: 1 1 (1)
I1017 12:11:33.238957 27058 net.cpp:129] Top shape: 1 1 (1)
I1017 12:11:33.238966 27058 net.cpp:129] Top shape: 1 1 (1)
I1017 12:11:33.238975 27058 net.cpp:129] Top shape: 1 1 (1)
I1017 12:11:33.238982 27058 net.cpp:129] Top shape: 1 1 (1)
I1017 12:11:33.238991 27058 net.cpp:129] Top shape: 1 1 (1)
I1017 12:11:33.238999 27058 net.cpp:129] Top shape: 1 1 (1)
I1017 12:11:33.239007 27058 net.cpp:129] Top shape: 1 1 (1)
I1017 12:11:33.239015 27058 net.cpp:129] Top shape: 1 1 (1)
I1017 12:11:33.239023 27058 net.cpp:129] Top shape: 1 1 (1)
I1017 12:11:33.239032 27058 net.cpp:129] Top shape: 1 1 (1)
I1017 12:11:33.239040 27058 net.cpp:129] Top shape: 1 1 (1)
I1017 12:11:33.239048 27058 net.cpp:129] Top shape: 1 1 (1)
I1017 12:11:33.239058 27058 net.cpp:129] Top shape: 1 1 (1)
I1017 12:11:33.239065 27058 net.cpp:129] Top shape: 1 1 (1)
I1017 12:11:33.239073 27058 net.cpp:129] Top shape: 1 1 (1)
I1017 12:11:33.239081 27058 net.cpp:129] Top shape: 1 1 (1)
I1017 12:11:33.239090 27058 net.cpp:129] Top shape: 1 1 (1)
I1017 12:11:33.239099 27058 net.cpp:129] Top shape: 1 1 (1)
I1017 12:11:33.239106 27058 net.cpp:129] Top shape: 1 1 (1)
I1017 12:11:33.239115 27058 net.cpp:129] Top shape: 1 1 (1)
I1017 12:11:33.239123 27058 net.cpp:129] Top shape: 1 1 (1)
I1017 12:11:33.239131 27058 net.cpp:129] Top shape: 1 1 (1)
I1017 12:11:33.239140 27058 net.cpp:129] Top shape: 1 1 (1)
I1017 12:11:33.239147 27058 net.cpp:129] Top shape: 1 1 (1)
I1017 12:11:33.239156 27058 net.cpp:129] Top shape: 1 1 (1)
I1017 12:11:33.239164 27058 net.cpp:129] Top shape: 1 1 (1)
I1017 12:11:33.239172 27058 net.cpp:129] Top shape: 1 1 (1)
I1017 12:11:33.239181 27058 net.cpp:129] Top shape: 1 1 (1)
I1017 12:11:33.239188 27058 net.cpp:129] Top shape: 1 1 (1)
I1017 12:11:33.239197 27058 net.cpp:129] Top shape: 1 1 (1)
I1017 12:11:33.239205 27058 net.cpp:129] Top shape: 1 1 (1)
I1017 12:11:33.239213 27058 net.cpp:129] Top shape: 1 1 (1)
I1017 12:11:33.239222 27058 net.cpp:129] Top shape: 1 1 (1)
I1017 12:11:33.239229 27058 net.cpp:129] Top shape: 1 1 (1)
I1017 12:11:33.239238 27058 net.cpp:129] Top shape: 1 1 (1)
I1017 12:11:33.239246 27058 net.cpp:129] Top shape: 1 1 (1)
I1017 12:11:33.239254 27058 net.cpp:129] Top shape: 1 1 (1)
I1017 12:11:33.239262 27058 net.cpp:129] Top shape: 1 1 (1)
I1017 12:11:33.239270 27058 net.cpp:129] Top shape: 1 1 (1)
I1017 12:11:33.239279 27058 net.cpp:129] Top shape: 1 1 (1)
I1017 12:11:33.239285 27058 net.cpp:129] Top shape: 1 1 (1)
I1017 12:11:33.239292 27058 net.cpp:129] Top shape: 1 1 (1)
I1017 12:11:33.239300 27058 net.cpp:129] Top shape: 1 1 (1)
I1017 12:11:33.239307 27058 net.cpp:129] Top shape: 1 1 (1)
I1017 12:11:33.239313 27058 net.cpp:137] Memory required for data: 159328
I1017 12:11:33.239320 27058 layer_factory.hpp:77] Creating layer cont_1_lstm1_cont_slice_0_split
I1017 12:11:33.239333 27058 net.cpp:84] Creating Layer cont_1_lstm1_cont_slice_0_split
I1017 12:11:33.239342 27058 net.cpp:406] cont_1_lstm1_cont_slice_0_split <- cont_1
I1017 12:11:33.239356 27058 net.cpp:380] cont_1_lstm1_cont_slice_0_split -> cont_1_lstm1_cont_slice_0_split_0
I1017 12:11:33.239369 27058 net.cpp:380] cont_1_lstm1_cont_slice_0_split -> cont_1_lstm1_cont_slice_0_split_1
I1017 12:11:33.239428 27058 net.cpp:122] Setting up cont_1_lstm1_cont_slice_0_split
I1017 12:11:33.239477 27058 net.cpp:129] Top shape: 1 1 (1)
I1017 12:11:33.239506 27058 net.cpp:129] Top shape: 1 1 (1)
I1017 12:11:33.239531 27058 net.cpp:137] Memory required for data: 159336
I1017 12:11:33.239554 27058 layer_factory.hpp:77] Creating layer cont_2_lstm1_cont_slice_1_split
I1017 12:11:33.239583 27058 net.cpp:84] Creating Layer cont_2_lstm1_cont_slice_1_split
I1017 12:11:33.239611 27058 net.cpp:406] cont_2_lstm1_cont_slice_1_split <- cont_2
I1017 12:11:33.239646 27058 net.cpp:380] cont_2_lstm1_cont_slice_1_split -> cont_2_lstm1_cont_slice_1_split_0
I1017 12:11:33.239658 27058 net.cpp:380] cont_2_lstm1_cont_slice_1_split -> cont_2_lstm1_cont_slice_1_split_1
I1017 12:11:33.239701 27058 net.cpp:122] Setting up cont_2_lstm1_cont_slice_1_split
I1017 12:11:33.239709 27058 net.cpp:129] Top shape: 1 1 (1)
I1017 12:11:33.239714 27058 net.cpp:129] Top shape: 1 1 (1)
I1017 12:11:33.239718 27058 net.cpp:137] Memory required for data: 159344
I1017 12:11:33.239722 27058 layer_factory.hpp:77] Creating layer cont_3_lstm1_cont_slice_2_split
I1017 12:11:33.239733 27058 net.cpp:84] Creating Layer cont_3_lstm1_cont_slice_2_split
I1017 12:11:33.239738 27058 net.cpp:406] cont_3_lstm1_cont_slice_2_split <- cont_3
I1017 12:11:33.239745 27058 net.cpp:380] cont_3_lstm1_cont_slice_2_split -> cont_3_lstm1_cont_slice_2_split_0
I1017 12:11:33.239758 27058 net.cpp:380] cont_3_lstm1_cont_slice_2_split -> cont_3_lstm1_cont_slice_2_split_1
I1017 12:11:33.239789 27058 net.cpp:122] Setting up cont_3_lstm1_cont_slice_2_split
I1017 12:11:33.239801 27058 net.cpp:129] Top shape: 1 1 (1)
I1017 12:11:33.239805 27058 net.cpp:129] Top shape: 1 1 (1)
I1017 12:11:33.239809 27058 net.cpp:137] Memory required for data: 159352
I1017 12:11:33.239814 27058 layer_factory.hpp:77] Creating layer cont_4_lstm1_cont_slice_3_split
I1017 12:11:33.239822 27058 net.cpp:84] Creating Layer cont_4_lstm1_cont_slice_3_split
I1017 12:11:33.239830 27058 net.cpp:406] cont_4_lstm1_cont_slice_3_split <- cont_4
I1017 12:11:33.239838 27058 net.cpp:380] cont_4_lstm1_cont_slice_3_split -> cont_4_lstm1_cont_slice_3_split_0
I1017 12:11:33.239845 27058 net.cpp:380] cont_4_lstm1_cont_slice_3_split -> cont_4_lstm1_cont_slice_3_split_1
I1017 12:11:33.239878 27058 net.cpp:122] Setting up cont_4_lstm1_cont_slice_3_split
I1017 12:11:33.239886 27058 net.cpp:129] Top shape: 1 1 (1)
I1017 12:11:33.239892 27058 net.cpp:129] Top shape: 1 1 (1)
I1017 12:11:33.239895 27058 net.cpp:137] Memory required for data: 159360
I1017 12:11:33.239900 27058 layer_factory.hpp:77] Creating layer cont_5_lstm1_cont_slice_4_split
I1017 12:11:33.239905 27058 net.cpp:84] Creating Layer cont_5_lstm1_cont_slice_4_split
I1017 12:11:33.239909 27058 net.cpp:406] cont_5_lstm1_cont_slice_4_split <- cont_5
I1017 12:11:33.239915 27058 net.cpp:380] cont_5_lstm1_cont_slice_4_split -> cont_5_lstm1_cont_slice_4_split_0
I1017 12:11:33.239924 27058 net.cpp:380] cont_5_lstm1_cont_slice_4_split -> cont_5_lstm1_cont_slice_4_split_1
I1017 12:11:33.239956 27058 net.cpp:122] Setting up cont_5_lstm1_cont_slice_4_split
I1017 12:11:33.239964 27058 net.cpp:129] Top shape: 1 1 (1)
I1017 12:11:33.239969 27058 net.cpp:129] Top shape: 1 1 (1)
I1017 12:11:33.239974 27058 net.cpp:137] Memory required for data: 159368
I1017 12:11:33.239977 27058 layer_factory.hpp:77] Creating layer cont_6_lstm1_cont_slice_5_split
I1017 12:11:33.239985 27058 net.cpp:84] Creating Layer cont_6_lstm1_cont_slice_5_split
I1017 12:11:33.239990 27058 net.cpp:406] cont_6_lstm1_cont_slice_5_split <- cont_6
I1017 12:11:33.239996 27058 net.cpp:380] cont_6_lstm1_cont_slice_5_split -> cont_6_lstm1_cont_slice_5_split_0
I1017 12:11:33.240003 27058 net.cpp:380] cont_6_lstm1_cont_slice_5_split -> cont_6_lstm1_cont_slice_5_split_1
I1017 12:11:33.240041 27058 net.cpp:122] Setting up cont_6_lstm1_cont_slice_5_split
I1017 12:11:33.240048 27058 net.cpp:129] Top shape: 1 1 (1)
I1017 12:11:33.240052 27058 net.cpp:129] Top shape: 1 1 (1)
I1017 12:11:33.240056 27058 net.cpp:137] Memory required for data: 159376
I1017 12:11:33.240061 27058 layer_factory.hpp:77] Creating layer cont_7_lstm1_cont_slice_6_split
I1017 12:11:33.240067 27058 net.cpp:84] Creating Layer cont_7_lstm1_cont_slice_6_split
I1017 12:11:33.240072 27058 net.cpp:406] cont_7_lstm1_cont_slice_6_split <- cont_7
I1017 12:11:33.240078 27058 net.cpp:380] cont_7_lstm1_cont_slice_6_split -> cont_7_lstm1_cont_slice_6_split_0
I1017 12:11:33.240085 27058 net.cpp:380] cont_7_lstm1_cont_slice_6_split -> cont_7_lstm1_cont_slice_6_split_1
I1017 12:11:33.240116 27058 net.cpp:122] Setting up cont_7_lstm1_cont_slice_6_split
I1017 12:11:33.240126 27058 net.cpp:129] Top shape: 1 1 (1)
I1017 12:11:33.240134 27058 net.cpp:129] Top shape: 1 1 (1)
I1017 12:11:33.240140 27058 net.cpp:137] Memory required for data: 159384
I1017 12:11:33.240147 27058 layer_factory.hpp:77] Creating layer cont_8_lstm1_cont_slice_7_split
I1017 12:11:33.240157 27058 net.cpp:84] Creating Layer cont_8_lstm1_cont_slice_7_split
I1017 12:11:33.240164 27058 net.cpp:406] cont_8_lstm1_cont_slice_7_split <- cont_8
I1017 12:11:33.240175 27058 net.cpp:380] cont_8_lstm1_cont_slice_7_split -> cont_8_lstm1_cont_slice_7_split_0
I1017 12:11:33.240187 27058 net.cpp:380] cont_8_lstm1_cont_slice_7_split -> cont_8_lstm1_cont_slice_7_split_1
I1017 12:11:33.240234 27058 net.cpp:122] Setting up cont_8_lstm1_cont_slice_7_split
I1017 12:11:33.240247 27058 net.cpp:129] Top shape: 1 1 (1)
I1017 12:11:33.240255 27058 net.cpp:129] Top shape: 1 1 (1)
I1017 12:11:33.240262 27058 net.cpp:137] Memory required for data: 159392
I1017 12:11:33.240269 27058 layer_factory.hpp:77] Creating layer cont_9_lstm1_cont_slice_8_split
I1017 12:11:33.240278 27058 net.cpp:84] Creating Layer cont_9_lstm1_cont_slice_8_split
I1017 12:11:33.240286 27058 net.cpp:406] cont_9_lstm1_cont_slice_8_split <- cont_9
I1017 12:11:33.240299 27058 net.cpp:380] cont_9_lstm1_cont_slice_8_split -> cont_9_lstm1_cont_slice_8_split_0
I1017 12:11:33.240312 27058 net.cpp:380] cont_9_lstm1_cont_slice_8_split -> cont_9_lstm1_cont_slice_8_split_1
I1017 12:11:33.240357 27058 net.cpp:122] Setting up cont_9_lstm1_cont_slice_8_split
I1017 12:11:33.240365 27058 net.cpp:129] Top shape: 1 1 (1)
I1017 12:11:33.240370 27058 net.cpp:129] Top shape: 1 1 (1)
I1017 12:11:33.240375 27058 net.cpp:137] Memory required for data: 159400
I1017 12:11:33.240378 27058 layer_factory.hpp:77] Creating layer cont_10_lstm1_cont_slice_9_split
I1017 12:11:33.240386 27058 net.cpp:84] Creating Layer cont_10_lstm1_cont_slice_9_split
I1017 12:11:33.240391 27058 net.cpp:406] cont_10_lstm1_cont_slice_9_split <- cont_10
I1017 12:11:33.240397 27058 net.cpp:380] cont_10_lstm1_cont_slice_9_split -> cont_10_lstm1_cont_slice_9_split_0
I1017 12:11:33.240404 27058 net.cpp:380] cont_10_lstm1_cont_slice_9_split -> cont_10_lstm1_cont_slice_9_split_1
I1017 12:11:33.240435 27058 net.cpp:122] Setting up cont_10_lstm1_cont_slice_9_split
I1017 12:11:33.240442 27058 net.cpp:129] Top shape: 1 1 (1)
I1017 12:11:33.240445 27058 net.cpp:129] Top shape: 1 1 (1)
I1017 12:11:33.240449 27058 net.cpp:137] Memory required for data: 159408
I1017 12:11:33.240453 27058 layer_factory.hpp:77] Creating layer cont_11_lstm1_cont_slice_10_split
I1017 12:11:33.240458 27058 net.cpp:84] Creating Layer cont_11_lstm1_cont_slice_10_split
I1017 12:11:33.240463 27058 net.cpp:406] cont_11_lstm1_cont_slice_10_split <- cont_11
I1017 12:11:33.240469 27058 net.cpp:380] cont_11_lstm1_cont_slice_10_split -> cont_11_lstm1_cont_slice_10_split_0
I1017 12:11:33.240476 27058 net.cpp:380] cont_11_lstm1_cont_slice_10_split -> cont_11_lstm1_cont_slice_10_split_1
I1017 12:11:33.240506 27058 net.cpp:122] Setting up cont_11_lstm1_cont_slice_10_split
I1017 12:11:33.240514 27058 net.cpp:129] Top shape: 1 1 (1)
I1017 12:11:33.240517 27058 net.cpp:129] Top shape: 1 1 (1)
I1017 12:11:33.240521 27058 net.cpp:137] Memory required for data: 159416
I1017 12:11:33.240525 27058 layer_factory.hpp:77] Creating layer cont_12_lstm1_cont_slice_11_split
I1017 12:11:33.240530 27058 net.cpp:84] Creating Layer cont_12_lstm1_cont_slice_11_split
I1017 12:11:33.240535 27058 net.cpp:406] cont_12_lstm1_cont_slice_11_split <- cont_12
I1017 12:11:33.240541 27058 net.cpp:380] cont_12_lstm1_cont_slice_11_split -> cont_12_lstm1_cont_slice_11_split_0
I1017 12:11:33.240550 27058 net.cpp:380] cont_12_lstm1_cont_slice_11_split -> cont_12_lstm1_cont_slice_11_split_1
I1017 12:11:33.240578 27058 net.cpp:122] Setting up cont_12_lstm1_cont_slice_11_split
I1017 12:11:33.240584 27058 net.cpp:129] Top shape: 1 1 (1)
I1017 12:11:33.240589 27058 net.cpp:129] Top shape: 1 1 (1)
I1017 12:11:33.240592 27058 net.cpp:137] Memory required for data: 159424
I1017 12:11:33.240597 27058 layer_factory.hpp:77] Creating layer cont_13_lstm1_cont_slice_12_split
I1017 12:11:33.240604 27058 net.cpp:84] Creating Layer cont_13_lstm1_cont_slice_12_split
I1017 12:11:33.240609 27058 net.cpp:406] cont_13_lstm1_cont_slice_12_split <- cont_13
I1017 12:11:33.240615 27058 net.cpp:380] cont_13_lstm1_cont_slice_12_split -> cont_13_lstm1_cont_slice_12_split_0
I1017 12:11:33.240622 27058 net.cpp:380] cont_13_lstm1_cont_slice_12_split -> cont_13_lstm1_cont_slice_12_split_1
I1017 12:11:33.240653 27058 net.cpp:122] Setting up cont_13_lstm1_cont_slice_12_split
I1017 12:11:33.240659 27058 net.cpp:129] Top shape: 1 1 (1)
I1017 12:11:33.240664 27058 net.cpp:129] Top shape: 1 1 (1)
I1017 12:11:33.240667 27058 net.cpp:137] Memory required for data: 159432
I1017 12:11:33.240671 27058 layer_factory.hpp:77] Creating layer cont_14_lstm1_cont_slice_13_split
I1017 12:11:33.240677 27058 net.cpp:84] Creating Layer cont_14_lstm1_cont_slice_13_split
I1017 12:11:33.240682 27058 net.cpp:406] cont_14_lstm1_cont_slice_13_split <- cont_14
I1017 12:11:33.240689 27058 net.cpp:380] cont_14_lstm1_cont_slice_13_split -> cont_14_lstm1_cont_slice_13_split_0
I1017 12:11:33.240695 27058 net.cpp:380] cont_14_lstm1_cont_slice_13_split -> cont_14_lstm1_cont_slice_13_split_1
I1017 12:11:33.240725 27058 net.cpp:122] Setting up cont_14_lstm1_cont_slice_13_split
I1017 12:11:33.240731 27058 net.cpp:129] Top shape: 1 1 (1)
I1017 12:11:33.240737 27058 net.cpp:129] Top shape: 1 1 (1)
I1017 12:11:33.240741 27058 net.cpp:137] Memory required for data: 159440
I1017 12:11:33.240746 27058 layer_factory.hpp:77] Creating layer cont_15_lstm1_cont_slice_14_split
I1017 12:11:33.240751 27058 net.cpp:84] Creating Layer cont_15_lstm1_cont_slice_14_split
I1017 12:11:33.240754 27058 net.cpp:406] cont_15_lstm1_cont_slice_14_split <- cont_15
I1017 12:11:33.240761 27058 net.cpp:380] cont_15_lstm1_cont_slice_14_split -> cont_15_lstm1_cont_slice_14_split_0
I1017 12:11:33.240769 27058 net.cpp:380] cont_15_lstm1_cont_slice_14_split -> cont_15_lstm1_cont_slice_14_split_1
I1017 12:11:33.240797 27058 net.cpp:122] Setting up cont_15_lstm1_cont_slice_14_split
I1017 12:11:33.240803 27058 net.cpp:129] Top shape: 1 1 (1)
I1017 12:11:33.240808 27058 net.cpp:129] Top shape: 1 1 (1)
I1017 12:11:33.240811 27058 net.cpp:137] Memory required for data: 159448
I1017 12:11:33.240815 27058 layer_factory.hpp:77] Creating layer cont_16_lstm1_cont_slice_15_split
I1017 12:11:33.240821 27058 net.cpp:84] Creating Layer cont_16_lstm1_cont_slice_15_split
I1017 12:11:33.240825 27058 net.cpp:406] cont_16_lstm1_cont_slice_15_split <- cont_16
I1017 12:11:33.240836 27058 net.cpp:380] cont_16_lstm1_cont_slice_15_split -> cont_16_lstm1_cont_slice_15_split_0
I1017 12:11:33.240844 27058 net.cpp:380] cont_16_lstm1_cont_slice_15_split -> cont_16_lstm1_cont_slice_15_split_1
I1017 12:11:33.240875 27058 net.cpp:122] Setting up cont_16_lstm1_cont_slice_15_split
I1017 12:11:33.240880 27058 net.cpp:129] Top shape: 1 1 (1)
I1017 12:11:33.240890 27058 net.cpp:129] Top shape: 1 1 (1)
I1017 12:11:33.240893 27058 net.cpp:137] Memory required for data: 159456
I1017 12:11:33.240897 27058 layer_factory.hpp:77] Creating layer cont_17_lstm1_cont_slice_16_split
I1017 12:11:33.240903 27058 net.cpp:84] Creating Layer cont_17_lstm1_cont_slice_16_split
I1017 12:11:33.240907 27058 net.cpp:406] cont_17_lstm1_cont_slice_16_split <- cont_17
I1017 12:11:33.240913 27058 net.cpp:380] cont_17_lstm1_cont_slice_16_split -> cont_17_lstm1_cont_slice_16_split_0
I1017 12:11:33.240921 27058 net.cpp:380] cont_17_lstm1_cont_slice_16_split -> cont_17_lstm1_cont_slice_16_split_1
I1017 12:11:33.240950 27058 net.cpp:122] Setting up cont_17_lstm1_cont_slice_16_split
I1017 12:11:33.240957 27058 net.cpp:129] Top shape: 1 1 (1)
I1017 12:11:33.240962 27058 net.cpp:129] Top shape: 1 1 (1)
I1017 12:11:33.240965 27058 net.cpp:137] Memory required for data: 159464
I1017 12:11:33.240969 27058 layer_factory.hpp:77] Creating layer cont_18_lstm1_cont_slice_17_split
I1017 12:11:33.240974 27058 net.cpp:84] Creating Layer cont_18_lstm1_cont_slice_17_split
I1017 12:11:33.240979 27058 net.cpp:406] cont_18_lstm1_cont_slice_17_split <- cont_18
I1017 12:11:33.240984 27058 net.cpp:380] cont_18_lstm1_cont_slice_17_split -> cont_18_lstm1_cont_slice_17_split_0
I1017 12:11:33.240991 27058 net.cpp:380] cont_18_lstm1_cont_slice_17_split -> cont_18_lstm1_cont_slice_17_split_1
I1017 12:11:33.241022 27058 net.cpp:122] Setting up cont_18_lstm1_cont_slice_17_split
I1017 12:11:33.241029 27058 net.cpp:129] Top shape: 1 1 (1)
I1017 12:11:33.241034 27058 net.cpp:129] Top shape: 1 1 (1)
I1017 12:11:33.241036 27058 net.cpp:137] Memory required for data: 159472
I1017 12:11:33.241040 27058 layer_factory.hpp:77] Creating layer cont_19_lstm1_cont_slice_18_split
I1017 12:11:33.241046 27058 net.cpp:84] Creating Layer cont_19_lstm1_cont_slice_18_split
I1017 12:11:33.241050 27058 net.cpp:406] cont_19_lstm1_cont_slice_18_split <- cont_19
I1017 12:11:33.241058 27058 net.cpp:380] cont_19_lstm1_cont_slice_18_split -> cont_19_lstm1_cont_slice_18_split_0
I1017 12:11:33.241065 27058 net.cpp:380] cont_19_lstm1_cont_slice_18_split -> cont_19_lstm1_cont_slice_18_split_1
I1017 12:11:33.241093 27058 net.cpp:122] Setting up cont_19_lstm1_cont_slice_18_split
I1017 12:11:33.241099 27058 net.cpp:129] Top shape: 1 1 (1)
I1017 12:11:33.241104 27058 net.cpp:129] Top shape: 1 1 (1)
I1017 12:11:33.241107 27058 net.cpp:137] Memory required for data: 159480
I1017 12:11:33.241112 27058 layer_factory.hpp:77] Creating layer cont_20_lstm1_cont_slice_19_split
I1017 12:11:33.241119 27058 net.cpp:84] Creating Layer cont_20_lstm1_cont_slice_19_split
I1017 12:11:33.241123 27058 net.cpp:406] cont_20_lstm1_cont_slice_19_split <- cont_20
I1017 12:11:33.241129 27058 net.cpp:380] cont_20_lstm1_cont_slice_19_split -> cont_20_lstm1_cont_slice_19_split_0
I1017 12:11:33.241137 27058 net.cpp:380] cont_20_lstm1_cont_slice_19_split -> cont_20_lstm1_cont_slice_19_split_1
I1017 12:11:33.241168 27058 net.cpp:122] Setting up cont_20_lstm1_cont_slice_19_split
I1017 12:11:33.241173 27058 net.cpp:129] Top shape: 1 1 (1)
I1017 12:11:33.241178 27058 net.cpp:129] Top shape: 1 1 (1)
I1017 12:11:33.241183 27058 net.cpp:137] Memory required for data: 159488
I1017 12:11:33.241186 27058 layer_factory.hpp:77] Creating layer cont_21_lstm1_cont_slice_20_split
I1017 12:11:33.241191 27058 net.cpp:84] Creating Layer cont_21_lstm1_cont_slice_20_split
I1017 12:11:33.241195 27058 net.cpp:406] cont_21_lstm1_cont_slice_20_split <- cont_21
I1017 12:11:33.241201 27058 net.cpp:380] cont_21_lstm1_cont_slice_20_split -> cont_21_lstm1_cont_slice_20_split_0
I1017 12:11:33.241209 27058 net.cpp:380] cont_21_lstm1_cont_slice_20_split -> cont_21_lstm1_cont_slice_20_split_1
I1017 12:11:33.241238 27058 net.cpp:122] Setting up cont_21_lstm1_cont_slice_20_split
I1017 12:11:33.241245 27058 net.cpp:129] Top shape: 1 1 (1)
I1017 12:11:33.241250 27058 net.cpp:129] Top shape: 1 1 (1)
I1017 12:11:33.241253 27058 net.cpp:137] Memory required for data: 159496
I1017 12:11:33.241257 27058 layer_factory.hpp:77] Creating layer cont_22_lstm1_cont_slice_21_split
I1017 12:11:33.241262 27058 net.cpp:84] Creating Layer cont_22_lstm1_cont_slice_21_split
I1017 12:11:33.241267 27058 net.cpp:406] cont_22_lstm1_cont_slice_21_split <- cont_22
I1017 12:11:33.241273 27058 net.cpp:380] cont_22_lstm1_cont_slice_21_split -> cont_22_lstm1_cont_slice_21_split_0
I1017 12:11:33.241279 27058 net.cpp:380] cont_22_lstm1_cont_slice_21_split -> cont_22_lstm1_cont_slice_21_split_1
I1017 12:11:33.241309 27058 net.cpp:122] Setting up cont_22_lstm1_cont_slice_21_split
I1017 12:11:33.241315 27058 net.cpp:129] Top shape: 1 1 (1)
I1017 12:11:33.241320 27058 net.cpp:129] Top shape: 1 1 (1)
I1017 12:11:33.241324 27058 net.cpp:137] Memory required for data: 159504
I1017 12:11:33.241328 27058 layer_factory.hpp:77] Creating layer cont_23_lstm1_cont_slice_22_split
I1017 12:11:33.241333 27058 net.cpp:84] Creating Layer cont_23_lstm1_cont_slice_22_split
I1017 12:11:33.241338 27058 net.cpp:406] cont_23_lstm1_cont_slice_22_split <- cont_23
I1017 12:11:33.241345 27058 net.cpp:380] cont_23_lstm1_cont_slice_22_split -> cont_23_lstm1_cont_slice_22_split_0
I1017 12:11:33.241353 27058 net.cpp:380] cont_23_lstm1_cont_slice_22_split -> cont_23_lstm1_cont_slice_22_split_1
I1017 12:11:33.241380 27058 net.cpp:122] Setting up cont_23_lstm1_cont_slice_22_split
I1017 12:11:33.241390 27058 net.cpp:129] Top shape: 1 1 (1)
I1017 12:11:33.241395 27058 net.cpp:129] Top shape: 1 1 (1)
I1017 12:11:33.241400 27058 net.cpp:137] Memory required for data: 159512
I1017 12:11:33.241403 27058 layer_factory.hpp:77] Creating layer cont_24_lstm1_cont_slice_23_split
I1017 12:11:33.241410 27058 net.cpp:84] Creating Layer cont_24_lstm1_cont_slice_23_split
I1017 12:11:33.241413 27058 net.cpp:406] cont_24_lstm1_cont_slice_23_split <- cont_24
I1017 12:11:33.241420 27058 net.cpp:380] cont_24_lstm1_cont_slice_23_split -> cont_24_lstm1_cont_slice_23_split_0
I1017 12:11:33.241426 27058 net.cpp:380] cont_24_lstm1_cont_slice_23_split -> cont_24_lstm1_cont_slice_23_split_1
I1017 12:11:33.241456 27058 net.cpp:122] Setting up cont_24_lstm1_cont_slice_23_split
I1017 12:11:33.241462 27058 net.cpp:129] Top shape: 1 1 (1)
I1017 12:11:33.241467 27058 net.cpp:129] Top shape: 1 1 (1)
I1017 12:11:33.241470 27058 net.cpp:137] Memory required for data: 159520
I1017 12:11:33.241475 27058 layer_factory.hpp:77] Creating layer cont_25_lstm1_cont_slice_24_split
I1017 12:11:33.241480 27058 net.cpp:84] Creating Layer cont_25_lstm1_cont_slice_24_split
I1017 12:11:33.241484 27058 net.cpp:406] cont_25_lstm1_cont_slice_24_split <- cont_25
I1017 12:11:33.241490 27058 net.cpp:380] cont_25_lstm1_cont_slice_24_split -> cont_25_lstm1_cont_slice_24_split_0
I1017 12:11:33.241497 27058 net.cpp:380] cont_25_lstm1_cont_slice_24_split -> cont_25_lstm1_cont_slice_24_split_1
I1017 12:11:33.241526 27058 net.cpp:122] Setting up cont_25_lstm1_cont_slice_24_split
I1017 12:11:33.241533 27058 net.cpp:129] Top shape: 1 1 (1)
I1017 12:11:33.241538 27058 net.cpp:129] Top shape: 1 1 (1)
I1017 12:11:33.241540 27058 net.cpp:137] Memory required for data: 159528
I1017 12:11:33.241544 27058 layer_factory.hpp:77] Creating layer cont_26_lstm1_cont_slice_25_split
I1017 12:11:33.241550 27058 net.cpp:84] Creating Layer cont_26_lstm1_cont_slice_25_split
I1017 12:11:33.241554 27058 net.cpp:406] cont_26_lstm1_cont_slice_25_split <- cont_26
I1017 12:11:33.241561 27058 net.cpp:380] cont_26_lstm1_cont_slice_25_split -> cont_26_lstm1_cont_slice_25_split_0
I1017 12:11:33.241569 27058 net.cpp:380] cont_26_lstm1_cont_slice_25_split -> cont_26_lstm1_cont_slice_25_split_1
I1017 12:11:33.241605 27058 net.cpp:122] Setting up cont_26_lstm1_cont_slice_25_split
I1017 12:11:33.241616 27058 net.cpp:129] Top shape: 1 1 (1)
I1017 12:11:33.241626 27058 net.cpp:129] Top shape: 1 1 (1)
I1017 12:11:33.241632 27058 net.cpp:137] Memory required for data: 159536
I1017 12:11:33.241639 27058 layer_factory.hpp:77] Creating layer cont_27_lstm1_cont_slice_26_split
I1017 12:11:33.241650 27058 net.cpp:84] Creating Layer cont_27_lstm1_cont_slice_26_split
I1017 12:11:33.241658 27058 net.cpp:406] cont_27_lstm1_cont_slice_26_split <- cont_27
I1017 12:11:33.241668 27058 net.cpp:380] cont_27_lstm1_cont_slice_26_split -> cont_27_lstm1_cont_slice_26_split_0
I1017 12:11:33.241679 27058 net.cpp:380] cont_27_lstm1_cont_slice_26_split -> cont_27_lstm1_cont_slice_26_split_1
I1017 12:11:33.241727 27058 net.cpp:122] Setting up cont_27_lstm1_cont_slice_26_split
I1017 12:11:33.241737 27058 net.cpp:129] Top shape: 1 1 (1)
I1017 12:11:33.241745 27058 net.cpp:129] Top shape: 1 1 (1)
I1017 12:11:33.241752 27058 net.cpp:137] Memory required for data: 159544
I1017 12:11:33.241760 27058 layer_factory.hpp:77] Creating layer cont_28_lstm1_cont_slice_27_split
I1017 12:11:33.241767 27058 net.cpp:84] Creating Layer cont_28_lstm1_cont_slice_27_split
I1017 12:11:33.241775 27058 net.cpp:406] cont_28_lstm1_cont_slice_27_split <- cont_28
I1017 12:11:33.241783 27058 net.cpp:380] cont_28_lstm1_cont_slice_27_split -> cont_28_lstm1_cont_slice_27_split_0
I1017 12:11:33.241794 27058 net.cpp:380] cont_28_lstm1_cont_slice_27_split -> cont_28_lstm1_cont_slice_27_split_1
I1017 12:11:33.241840 27058 net.cpp:122] Setting up cont_28_lstm1_cont_slice_27_split
I1017 12:11:33.241850 27058 net.cpp:129] Top shape: 1 1 (1)
I1017 12:11:33.241858 27058 net.cpp:129] Top shape: 1 1 (1)
I1017 12:11:33.241865 27058 net.cpp:137] Memory required for data: 159552
I1017 12:11:33.241871 27058 layer_factory.hpp:77] Creating layer cont_29_lstm1_cont_slice_28_split
I1017 12:11:33.241880 27058 net.cpp:84] Creating Layer cont_29_lstm1_cont_slice_28_split
I1017 12:11:33.241888 27058 net.cpp:406] cont_29_lstm1_cont_slice_28_split <- cont_29
I1017 12:11:33.241896 27058 net.cpp:380] cont_29_lstm1_cont_slice_28_split -> cont_29_lstm1_cont_slice_28_split_0
I1017 12:11:33.241931 27058 net.cpp:380] cont_29_lstm1_cont_slice_28_split -> cont_29_lstm1_cont_slice_28_split_1
I1017 12:11:33.241982 27058 net.cpp:122] Setting up cont_29_lstm1_cont_slice_28_split
I1017 12:11:33.241993 27058 net.cpp:129] Top shape: 1 1 (1)
I1017 12:11:33.242002 27058 net.cpp:129] Top shape: 1 1 (1)
I1017 12:11:33.242008 27058 net.cpp:137] Memory required for data: 159560
I1017 12:11:33.242015 27058 layer_factory.hpp:77] Creating layer cont_30_lstm1_cont_slice_29_split
I1017 12:11:33.242025 27058 net.cpp:84] Creating Layer cont_30_lstm1_cont_slice_29_split
I1017 12:11:33.242030 27058 net.cpp:406] cont_30_lstm1_cont_slice_29_split <- cont_30
I1017 12:11:33.242039 27058 net.cpp:380] cont_30_lstm1_cont_slice_29_split -> cont_30_lstm1_cont_slice_29_split_0
I1017 12:11:33.242046 27058 net.cpp:380] cont_30_lstm1_cont_slice_29_split -> cont_30_lstm1_cont_slice_29_split_1
I1017 12:11:33.242079 27058 net.cpp:122] Setting up cont_30_lstm1_cont_slice_29_split
I1017 12:11:33.242084 27058 net.cpp:129] Top shape: 1 1 (1)
I1017 12:11:33.242089 27058 net.cpp:129] Top shape: 1 1 (1)
I1017 12:11:33.242094 27058 net.cpp:137] Memory required for data: 159568
I1017 12:11:33.242097 27058 layer_factory.hpp:77] Creating layer cont_31_lstm1_cont_slice_30_split
I1017 12:11:33.242103 27058 net.cpp:84] Creating Layer cont_31_lstm1_cont_slice_30_split
I1017 12:11:33.242108 27058 net.cpp:406] cont_31_lstm1_cont_slice_30_split <- cont_31
I1017 12:11:33.242115 27058 net.cpp:380] cont_31_lstm1_cont_slice_30_split -> cont_31_lstm1_cont_slice_30_split_0
I1017 12:11:33.242120 27058 net.cpp:380] cont_31_lstm1_cont_slice_30_split -> cont_31_lstm1_cont_slice_30_split_1
I1017 12:11:33.242151 27058 net.cpp:122] Setting up cont_31_lstm1_cont_slice_30_split
I1017 12:11:33.242156 27058 net.cpp:129] Top shape: 1 1 (1)
I1017 12:11:33.242161 27058 net.cpp:129] Top shape: 1 1 (1)
I1017 12:11:33.242166 27058 net.cpp:137] Memory required for data: 159576
I1017 12:11:33.242169 27058 layer_factory.hpp:77] Creating layer cont_32_lstm1_cont_slice_31_split
I1017 12:11:33.242174 27058 net.cpp:84] Creating Layer cont_32_lstm1_cont_slice_31_split
I1017 12:11:33.242178 27058 net.cpp:406] cont_32_lstm1_cont_slice_31_split <- cont_32
I1017 12:11:33.242183 27058 net.cpp:380] cont_32_lstm1_cont_slice_31_split -> cont_32_lstm1_cont_slice_31_split_0
I1017 12:11:33.242190 27058 net.cpp:380] cont_32_lstm1_cont_slice_31_split -> cont_32_lstm1_cont_slice_31_split_1
I1017 12:11:33.242219 27058 net.cpp:122] Setting up cont_32_lstm1_cont_slice_31_split
I1017 12:11:33.242225 27058 net.cpp:129] Top shape: 1 1 (1)
I1017 12:11:33.242230 27058 net.cpp:129] Top shape: 1 1 (1)
I1017 12:11:33.242234 27058 net.cpp:137] Memory required for data: 159584
I1017 12:11:33.242238 27058 layer_factory.hpp:77] Creating layer cont_33_lstm1_cont_slice_32_split
I1017 12:11:33.242242 27058 net.cpp:84] Creating Layer cont_33_lstm1_cont_slice_32_split
I1017 12:11:33.242246 27058 net.cpp:406] cont_33_lstm1_cont_slice_32_split <- cont_33
I1017 12:11:33.242252 27058 net.cpp:380] cont_33_lstm1_cont_slice_32_split -> cont_33_lstm1_cont_slice_32_split_0
I1017 12:11:33.242260 27058 net.cpp:380] cont_33_lstm1_cont_slice_32_split -> cont_33_lstm1_cont_slice_32_split_1
I1017 12:11:33.242292 27058 net.cpp:122] Setting up cont_33_lstm1_cont_slice_32_split
I1017 12:11:33.242298 27058 net.cpp:129] Top shape: 1 1 (1)
I1017 12:11:33.242302 27058 net.cpp:129] Top shape: 1 1 (1)
I1017 12:11:33.242306 27058 net.cpp:137] Memory required for data: 159592
I1017 12:11:33.242311 27058 layer_factory.hpp:77] Creating layer cont_34_lstm1_cont_slice_33_split
I1017 12:11:33.242317 27058 net.cpp:84] Creating Layer cont_34_lstm1_cont_slice_33_split
I1017 12:11:33.242321 27058 net.cpp:406] cont_34_lstm1_cont_slice_33_split <- cont_34
I1017 12:11:33.242327 27058 net.cpp:380] cont_34_lstm1_cont_slice_33_split -> cont_34_lstm1_cont_slice_33_split_0
I1017 12:11:33.242333 27058 net.cpp:380] cont_34_lstm1_cont_slice_33_split -> cont_34_lstm1_cont_slice_33_split_1
I1017 12:11:33.242363 27058 net.cpp:122] Setting up cont_34_lstm1_cont_slice_33_split
I1017 12:11:33.242369 27058 net.cpp:129] Top shape: 1 1 (1)
I1017 12:11:33.242373 27058 net.cpp:129] Top shape: 1 1 (1)
I1017 12:11:33.242377 27058 net.cpp:137] Memory required for data: 159600
I1017 12:11:33.242384 27058 layer_factory.hpp:77] Creating layer cont_35_lstm1_cont_slice_34_split
I1017 12:11:33.242388 27058 net.cpp:84] Creating Layer cont_35_lstm1_cont_slice_34_split
I1017 12:11:33.242393 27058 net.cpp:406] cont_35_lstm1_cont_slice_34_split <- cont_35
I1017 12:11:33.242398 27058 net.cpp:380] cont_35_lstm1_cont_slice_34_split -> cont_35_lstm1_cont_slice_34_split_0
I1017 12:11:33.242405 27058 net.cpp:380] cont_35_lstm1_cont_slice_34_split -> cont_35_lstm1_cont_slice_34_split_1
I1017 12:11:33.242439 27058 net.cpp:122] Setting up cont_35_lstm1_cont_slice_34_split
I1017 12:11:33.242444 27058 net.cpp:129] Top shape: 1 1 (1)
I1017 12:11:33.242449 27058 net.cpp:129] Top shape: 1 1 (1)
I1017 12:11:33.242453 27058 net.cpp:137] Memory required for data: 159608
I1017 12:11:33.242457 27058 layer_factory.hpp:77] Creating layer cont_36_lstm1_cont_slice_35_split
I1017 12:11:33.242462 27058 net.cpp:84] Creating Layer cont_36_lstm1_cont_slice_35_split
I1017 12:11:33.242466 27058 net.cpp:406] cont_36_lstm1_cont_slice_35_split <- cont_36
I1017 12:11:33.242471 27058 net.cpp:380] cont_36_lstm1_cont_slice_35_split -> cont_36_lstm1_cont_slice_35_split_0
I1017 12:11:33.242478 27058 net.cpp:380] cont_36_lstm1_cont_slice_35_split -> cont_36_lstm1_cont_slice_35_split_1
I1017 12:11:33.242513 27058 net.cpp:122] Setting up cont_36_lstm1_cont_slice_35_split
I1017 12:11:33.242519 27058 net.cpp:129] Top shape: 1 1 (1)
I1017 12:11:33.242524 27058 net.cpp:129] Top shape: 1 1 (1)
I1017 12:11:33.242527 27058 net.cpp:137] Memory required for data: 159616
I1017 12:11:33.242532 27058 layer_factory.hpp:77] Creating layer cont_37_lstm1_cont_slice_36_split
I1017 12:11:33.242537 27058 net.cpp:84] Creating Layer cont_37_lstm1_cont_slice_36_split
I1017 12:11:33.242542 27058 net.cpp:406] cont_37_lstm1_cont_slice_36_split <- cont_37
I1017 12:11:33.242548 27058 net.cpp:380] cont_37_lstm1_cont_slice_36_split -> cont_37_lstm1_cont_slice_36_split_0
I1017 12:11:33.242555 27058 net.cpp:380] cont_37_lstm1_cont_slice_36_split -> cont_37_lstm1_cont_slice_36_split_1
I1017 12:11:33.242583 27058 net.cpp:122] Setting up cont_37_lstm1_cont_slice_36_split
I1017 12:11:33.242589 27058 net.cpp:129] Top shape: 1 1 (1)
I1017 12:11:33.242594 27058 net.cpp:129] Top shape: 1 1 (1)
I1017 12:11:33.242597 27058 net.cpp:137] Memory required for data: 159624
I1017 12:11:33.242601 27058 layer_factory.hpp:77] Creating layer cont_38_lstm1_cont_slice_37_split
I1017 12:11:33.242609 27058 net.cpp:84] Creating Layer cont_38_lstm1_cont_slice_37_split
I1017 12:11:33.242614 27058 net.cpp:406] cont_38_lstm1_cont_slice_37_split <- cont_38
I1017 12:11:33.242619 27058 net.cpp:380] cont_38_lstm1_cont_slice_37_split -> cont_38_lstm1_cont_slice_37_split_0
I1017 12:11:33.242625 27058 net.cpp:380] cont_38_lstm1_cont_slice_37_split -> cont_38_lstm1_cont_slice_37_split_1
I1017 12:11:33.242655 27058 net.cpp:122] Setting up cont_38_lstm1_cont_slice_37_split
I1017 12:11:33.242661 27058 net.cpp:129] Top shape: 1 1 (1)
I1017 12:11:33.242666 27058 net.cpp:129] Top shape: 1 1 (1)
I1017 12:11:33.242669 27058 net.cpp:137] Memory required for data: 159632
I1017 12:11:33.242673 27058 layer_factory.hpp:77] Creating layer cont_39_lstm1_cont_slice_38_split
I1017 12:11:33.242678 27058 net.cpp:84] Creating Layer cont_39_lstm1_cont_slice_38_split
I1017 12:11:33.242682 27058 net.cpp:406] cont_39_lstm1_cont_slice_38_split <- cont_39
I1017 12:11:33.242688 27058 net.cpp:380] cont_39_lstm1_cont_slice_38_split -> cont_39_lstm1_cont_slice_38_split_0
I1017 12:11:33.242696 27058 net.cpp:380] cont_39_lstm1_cont_slice_38_split -> cont_39_lstm1_cont_slice_38_split_1
I1017 12:11:33.242725 27058 net.cpp:122] Setting up cont_39_lstm1_cont_slice_38_split
I1017 12:11:33.242732 27058 net.cpp:129] Top shape: 1 1 (1)
I1017 12:11:33.242736 27058 net.cpp:129] Top shape: 1 1 (1)
I1017 12:11:33.242739 27058 net.cpp:137] Memory required for data: 159640
I1017 12:11:33.242743 27058 layer_factory.hpp:77] Creating layer cont_40_lstm1_cont_slice_39_split
I1017 12:11:33.242749 27058 net.cpp:84] Creating Layer cont_40_lstm1_cont_slice_39_split
I1017 12:11:33.242753 27058 net.cpp:406] cont_40_lstm1_cont_slice_39_split <- cont_40
I1017 12:11:33.242759 27058 net.cpp:380] cont_40_lstm1_cont_slice_39_split -> cont_40_lstm1_cont_slice_39_split_0
I1017 12:11:33.242766 27058 net.cpp:380] cont_40_lstm1_cont_slice_39_split -> cont_40_lstm1_cont_slice_39_split_1
I1017 12:11:33.242799 27058 net.cpp:122] Setting up cont_40_lstm1_cont_slice_39_split
I1017 12:11:33.242805 27058 net.cpp:129] Top shape: 1 1 (1)
I1017 12:11:33.242810 27058 net.cpp:129] Top shape: 1 1 (1)
I1017 12:11:33.242815 27058 net.cpp:137] Memory required for data: 159648
I1017 12:11:33.242818 27058 layer_factory.hpp:77] Creating layer cont_41_lstm1_cont_slice_40_split
I1017 12:11:33.242823 27058 net.cpp:84] Creating Layer cont_41_lstm1_cont_slice_40_split
I1017 12:11:33.242828 27058 net.cpp:406] cont_41_lstm1_cont_slice_40_split <- cont_41
I1017 12:11:33.242835 27058 net.cpp:380] cont_41_lstm1_cont_slice_40_split -> cont_41_lstm1_cont_slice_40_split_0
I1017 12:11:33.242842 27058 net.cpp:380] cont_41_lstm1_cont_slice_40_split -> cont_41_lstm1_cont_slice_40_split_1
I1017 12:11:33.242872 27058 net.cpp:122] Setting up cont_41_lstm1_cont_slice_40_split
I1017 12:11:33.242879 27058 net.cpp:129] Top shape: 1 1 (1)
I1017 12:11:33.242883 27058 net.cpp:129] Top shape: 1 1 (1)
I1017 12:11:33.242887 27058 net.cpp:137] Memory required for data: 159656
I1017 12:11:33.242892 27058 layer_factory.hpp:77] Creating layer cont_42_lstm1_cont_slice_41_split
I1017 12:11:33.242897 27058 net.cpp:84] Creating Layer cont_42_lstm1_cont_slice_41_split
I1017 12:11:33.242900 27058 net.cpp:406] cont_42_lstm1_cont_slice_41_split <- cont_42
I1017 12:11:33.242907 27058 net.cpp:380] cont_42_lstm1_cont_slice_41_split -> cont_42_lstm1_cont_slice_41_split_0
I1017 12:11:33.242913 27058 net.cpp:380] cont_42_lstm1_cont_slice_41_split -> cont_42_lstm1_cont_slice_41_split_1
I1017 12:11:33.242943 27058 net.cpp:122] Setting up cont_42_lstm1_cont_slice_41_split
I1017 12:11:33.242949 27058 net.cpp:129] Top shape: 1 1 (1)
I1017 12:11:33.242954 27058 net.cpp:129] Top shape: 1 1 (1)
I1017 12:11:33.242957 27058 net.cpp:137] Memory required for data: 159664
I1017 12:11:33.242961 27058 layer_factory.hpp:77] Creating layer cont_43_lstm1_cont_slice_42_split
I1017 12:11:33.242966 27058 net.cpp:84] Creating Layer cont_43_lstm1_cont_slice_42_split
I1017 12:11:33.242970 27058 net.cpp:406] cont_43_lstm1_cont_slice_42_split <- cont_43
I1017 12:11:33.242976 27058 net.cpp:380] cont_43_lstm1_cont_slice_42_split -> cont_43_lstm1_cont_slice_42_split_0
I1017 12:11:33.242983 27058 net.cpp:380] cont_43_lstm1_cont_slice_42_split -> cont_43_lstm1_cont_slice_42_split_1
I1017 12:11:33.243013 27058 net.cpp:122] Setting up cont_43_lstm1_cont_slice_42_split
I1017 12:11:33.243019 27058 net.cpp:129] Top shape: 1 1 (1)
I1017 12:11:33.243024 27058 net.cpp:129] Top shape: 1 1 (1)
I1017 12:11:33.243027 27058 net.cpp:137] Memory required for data: 159672
I1017 12:11:33.243031 27058 layer_factory.hpp:77] Creating layer cont_44_lstm1_cont_slice_43_split
I1017 12:11:33.243037 27058 net.cpp:84] Creating Layer cont_44_lstm1_cont_slice_43_split
I1017 12:11:33.243041 27058 net.cpp:406] cont_44_lstm1_cont_slice_43_split <- cont_44
I1017 12:11:33.243049 27058 net.cpp:380] cont_44_lstm1_cont_slice_43_split -> cont_44_lstm1_cont_slice_43_split_0
I1017 12:11:33.243057 27058 net.cpp:380] cont_44_lstm1_cont_slice_43_split -> cont_44_lstm1_cont_slice_43_split_1
I1017 12:11:33.243084 27058 net.cpp:122] Setting up cont_44_lstm1_cont_slice_43_split
I1017 12:11:33.243090 27058 net.cpp:129] Top shape: 1 1 (1)
I1017 12:11:33.243096 27058 net.cpp:129] Top shape: 1 1 (1)
I1017 12:11:33.243099 27058 net.cpp:137] Memory required for data: 159680
I1017 12:11:33.243103 27058 layer_factory.hpp:77] Creating layer cont_45_lstm1_cont_slice_44_split
I1017 12:11:33.243111 27058 net.cpp:84] Creating Layer cont_45_lstm1_cont_slice_44_split
I1017 12:11:33.243115 27058 net.cpp:406] cont_45_lstm1_cont_slice_44_split <- cont_45
I1017 12:11:33.243121 27058 net.cpp:380] cont_45_lstm1_cont_slice_44_split -> cont_45_lstm1_cont_slice_44_split_0
I1017 12:11:33.243127 27058 net.cpp:380] cont_45_lstm1_cont_slice_44_split -> cont_45_lstm1_cont_slice_44_split_1
I1017 12:11:33.243157 27058 net.cpp:122] Setting up cont_45_lstm1_cont_slice_44_split
I1017 12:11:33.243163 27058 net.cpp:129] Top shape: 1 1 (1)
I1017 12:11:33.243168 27058 net.cpp:129] Top shape: 1 1 (1)
I1017 12:11:33.243172 27058 net.cpp:137] Memory required for data: 159688
I1017 12:11:33.243176 27058 layer_factory.hpp:77] Creating layer cont_46_lstm1_cont_slice_45_split
I1017 12:11:33.243182 27058 net.cpp:84] Creating Layer cont_46_lstm1_cont_slice_45_split
I1017 12:11:33.243186 27058 net.cpp:406] cont_46_lstm1_cont_slice_45_split <- cont_46
I1017 12:11:33.243191 27058 net.cpp:380] cont_46_lstm1_cont_slice_45_split -> cont_46_lstm1_cont_slice_45_split_0
I1017 12:11:33.243198 27058 net.cpp:380] cont_46_lstm1_cont_slice_45_split -> cont_46_lstm1_cont_slice_45_split_1
I1017 12:11:33.243229 27058 net.cpp:122] Setting up cont_46_lstm1_cont_slice_45_split
I1017 12:11:33.243237 27058 net.cpp:129] Top shape: 1 1 (1)
I1017 12:11:33.243240 27058 net.cpp:129] Top shape: 1 1 (1)
I1017 12:11:33.243244 27058 net.cpp:137] Memory required for data: 159696
I1017 12:11:33.243248 27058 layer_factory.hpp:77] Creating layer cont_47_lstm1_cont_slice_46_split
I1017 12:11:33.243253 27058 net.cpp:84] Creating Layer cont_47_lstm1_cont_slice_46_split
I1017 12:11:33.243257 27058 net.cpp:406] cont_47_lstm1_cont_slice_46_split <- cont_47
I1017 12:11:33.243263 27058 net.cpp:380] cont_47_lstm1_cont_slice_46_split -> cont_47_lstm1_cont_slice_46_split_0
I1017 12:11:33.243270 27058 net.cpp:380] cont_47_lstm1_cont_slice_46_split -> cont_47_lstm1_cont_slice_46_split_1
I1017 12:11:33.243299 27058 net.cpp:122] Setting up cont_47_lstm1_cont_slice_46_split
I1017 12:11:33.243306 27058 net.cpp:129] Top shape: 1 1 (1)
I1017 12:11:33.243310 27058 net.cpp:129] Top shape: 1 1 (1)
I1017 12:11:33.243314 27058 net.cpp:137] Memory required for data: 159704
I1017 12:11:33.243319 27058 layer_factory.hpp:77] Creating layer cont_48_lstm1_cont_slice_47_split
I1017 12:11:33.243324 27058 net.cpp:84] Creating Layer cont_48_lstm1_cont_slice_47_split
I1017 12:11:33.243329 27058 net.cpp:406] cont_48_lstm1_cont_slice_47_split <- cont_48
I1017 12:11:33.243335 27058 net.cpp:380] cont_48_lstm1_cont_slice_47_split -> cont_48_lstm1_cont_slice_47_split_0
I1017 12:11:33.243342 27058 net.cpp:380] cont_48_lstm1_cont_slice_47_split -> cont_48_lstm1_cont_slice_47_split_1
I1017 12:11:33.243371 27058 net.cpp:122] Setting up cont_48_lstm1_cont_slice_47_split
I1017 12:11:33.243376 27058 net.cpp:129] Top shape: 1 1 (1)
I1017 12:11:33.243381 27058 net.cpp:129] Top shape: 1 1 (1)
I1017 12:11:33.243386 27058 net.cpp:137] Memory required for data: 159712
I1017 12:11:33.243389 27058 layer_factory.hpp:77] Creating layer cont_49_lstm1_cont_slice_48_split
I1017 12:11:33.243396 27058 net.cpp:84] Creating Layer cont_49_lstm1_cont_slice_48_split
I1017 12:11:33.243401 27058 net.cpp:406] cont_49_lstm1_cont_slice_48_split <- cont_49
I1017 12:11:33.243407 27058 net.cpp:380] cont_49_lstm1_cont_slice_48_split -> cont_49_lstm1_cont_slice_48_split_0
I1017 12:11:33.243413 27058 net.cpp:380] cont_49_lstm1_cont_slice_48_split -> cont_49_lstm1_cont_slice_48_split_1
I1017 12:11:33.243443 27058 net.cpp:122] Setting up cont_49_lstm1_cont_slice_48_split
I1017 12:11:33.243448 27058 net.cpp:129] Top shape: 1 1 (1)
I1017 12:11:33.243453 27058 net.cpp:129] Top shape: 1 1 (1)
I1017 12:11:33.243458 27058 net.cpp:137] Memory required for data: 159720
I1017 12:11:33.243461 27058 layer_factory.hpp:77] Creating layer cont_50_lstm1_cont_slice_49_split
I1017 12:11:33.243466 27058 net.cpp:84] Creating Layer cont_50_lstm1_cont_slice_49_split
I1017 12:11:33.243470 27058 net.cpp:406] cont_50_lstm1_cont_slice_49_split <- cont_50
I1017 12:11:33.243476 27058 net.cpp:380] cont_50_lstm1_cont_slice_49_split -> cont_50_lstm1_cont_slice_49_split_0
I1017 12:11:33.243484 27058 net.cpp:380] cont_50_lstm1_cont_slice_49_split -> cont_50_lstm1_cont_slice_49_split_1
I1017 12:11:33.243512 27058 net.cpp:122] Setting up cont_50_lstm1_cont_slice_49_split
I1017 12:11:33.243518 27058 net.cpp:129] Top shape: 1 1 (1)
I1017 12:11:33.243523 27058 net.cpp:129] Top shape: 1 1 (1)
I1017 12:11:33.243527 27058 net.cpp:137] Memory required for data: 159728
I1017 12:11:33.243531 27058 layer_factory.hpp:77] Creating layer cont_51_lstm1_cont_slice_50_split
I1017 12:11:33.243540 27058 net.cpp:84] Creating Layer cont_51_lstm1_cont_slice_50_split
I1017 12:11:33.243543 27058 net.cpp:406] cont_51_lstm1_cont_slice_50_split <- cont_51
I1017 12:11:33.243551 27058 net.cpp:380] cont_51_lstm1_cont_slice_50_split -> cont_51_lstm1_cont_slice_50_split_0
I1017 12:11:33.243557 27058 net.cpp:380] cont_51_lstm1_cont_slice_50_split -> cont_51_lstm1_cont_slice_50_split_1
I1017 12:11:33.243585 27058 net.cpp:122] Setting up cont_51_lstm1_cont_slice_50_split
I1017 12:11:33.243592 27058 net.cpp:129] Top shape: 1 1 (1)
I1017 12:11:33.243595 27058 net.cpp:129] Top shape: 1 1 (1)
I1017 12:11:33.243599 27058 net.cpp:137] Memory required for data: 159736
I1017 12:11:33.243603 27058 layer_factory.hpp:77] Creating layer cont_52_lstm1_cont_slice_51_split
I1017 12:11:33.243610 27058 net.cpp:84] Creating Layer cont_52_lstm1_cont_slice_51_split
I1017 12:11:33.243614 27058 net.cpp:406] cont_52_lstm1_cont_slice_51_split <- cont_52
I1017 12:11:33.243619 27058 net.cpp:380] cont_52_lstm1_cont_slice_51_split -> cont_52_lstm1_cont_slice_51_split_0
I1017 12:11:33.243626 27058 net.cpp:380] cont_52_lstm1_cont_slice_51_split -> cont_52_lstm1_cont_slice_51_split_1
I1017 12:11:33.243655 27058 net.cpp:122] Setting up cont_52_lstm1_cont_slice_51_split
I1017 12:11:33.243662 27058 net.cpp:129] Top shape: 1 1 (1)
I1017 12:11:33.243666 27058 net.cpp:129] Top shape: 1 1 (1)
I1017 12:11:33.243670 27058 net.cpp:137] Memory required for data: 159744
I1017 12:11:33.243674 27058 layer_factory.hpp:77] Creating layer cont_53_lstm1_cont_slice_52_split
I1017 12:11:33.243680 27058 net.cpp:84] Creating Layer cont_53_lstm1_cont_slice_52_split
I1017 12:11:33.243683 27058 net.cpp:406] cont_53_lstm1_cont_slice_52_split <- cont_53
I1017 12:11:33.243690 27058 net.cpp:380] cont_53_lstm1_cont_slice_52_split -> cont_53_lstm1_cont_slice_52_split_0
I1017 12:11:33.243696 27058 net.cpp:380] cont_53_lstm1_cont_slice_52_split -> cont_53_lstm1_cont_slice_52_split_1
I1017 12:11:33.243726 27058 net.cpp:122] Setting up cont_53_lstm1_cont_slice_52_split
I1017 12:11:33.243731 27058 net.cpp:129] Top shape: 1 1 (1)
I1017 12:11:33.243736 27058 net.cpp:129] Top shape: 1 1 (1)
I1017 12:11:33.243741 27058 net.cpp:137] Memory required for data: 159752
I1017 12:11:33.243744 27058 layer_factory.hpp:77] Creating layer cont_54_lstm1_cont_slice_53_split
I1017 12:11:33.243749 27058 net.cpp:84] Creating Layer cont_54_lstm1_cont_slice_53_split
I1017 12:11:33.243753 27058 net.cpp:406] cont_54_lstm1_cont_slice_53_split <- cont_54
I1017 12:11:33.243759 27058 net.cpp:380] cont_54_lstm1_cont_slice_53_split -> cont_54_lstm1_cont_slice_53_split_0
I1017 12:11:33.243765 27058 net.cpp:380] cont_54_lstm1_cont_slice_53_split -> cont_54_lstm1_cont_slice_53_split_1
I1017 12:11:33.243794 27058 net.cpp:122] Setting up cont_54_lstm1_cont_slice_53_split
I1017 12:11:33.243800 27058 net.cpp:129] Top shape: 1 1 (1)
I1017 12:11:33.243805 27058 net.cpp:129] Top shape: 1 1 (1)
I1017 12:11:33.243809 27058 net.cpp:137] Memory required for data: 159760
I1017 12:11:33.243813 27058 layer_factory.hpp:77] Creating layer cont_55_lstm1_cont_slice_54_split
I1017 12:11:33.243818 27058 net.cpp:84] Creating Layer cont_55_lstm1_cont_slice_54_split
I1017 12:11:33.243822 27058 net.cpp:406] cont_55_lstm1_cont_slice_54_split <- cont_55
I1017 12:11:33.243830 27058 net.cpp:380] cont_55_lstm1_cont_slice_54_split -> cont_55_lstm1_cont_slice_54_split_0
I1017 12:11:33.243836 27058 net.cpp:380] cont_55_lstm1_cont_slice_54_split -> cont_55_lstm1_cont_slice_54_split_1
I1017 12:11:33.243865 27058 net.cpp:122] Setting up cont_55_lstm1_cont_slice_54_split
I1017 12:11:33.243870 27058 net.cpp:129] Top shape: 1 1 (1)
I1017 12:11:33.243875 27058 net.cpp:129] Top shape: 1 1 (1)
I1017 12:11:33.243880 27058 net.cpp:137] Memory required for data: 159768
I1017 12:11:33.243883 27058 layer_factory.hpp:77] Creating layer cont_56_lstm1_cont_slice_55_split
I1017 12:11:33.243891 27058 net.cpp:84] Creating Layer cont_56_lstm1_cont_slice_55_split
I1017 12:11:33.243894 27058 net.cpp:406] cont_56_lstm1_cont_slice_55_split <- cont_56
I1017 12:11:33.243901 27058 net.cpp:380] cont_56_lstm1_cont_slice_55_split -> cont_56_lstm1_cont_slice_55_split_0
I1017 12:11:33.243906 27058 net.cpp:380] cont_56_lstm1_cont_slice_55_split -> cont_56_lstm1_cont_slice_55_split_1
I1017 12:11:33.243937 27058 net.cpp:122] Setting up cont_56_lstm1_cont_slice_55_split
I1017 12:11:33.243942 27058 net.cpp:129] Top shape: 1 1 (1)
I1017 12:11:33.243947 27058 net.cpp:129] Top shape: 1 1 (1)
I1017 12:11:33.243952 27058 net.cpp:137] Memory required for data: 159776
I1017 12:11:33.243955 27058 layer_factory.hpp:77] Creating layer cont_57_lstm1_cont_slice_56_split
I1017 12:11:33.243960 27058 net.cpp:84] Creating Layer cont_57_lstm1_cont_slice_56_split
I1017 12:11:33.243964 27058 net.cpp:406] cont_57_lstm1_cont_slice_56_split <- cont_57
I1017 12:11:33.243969 27058 net.cpp:380] cont_57_lstm1_cont_slice_56_split -> cont_57_lstm1_cont_slice_56_split_0
I1017 12:11:33.243976 27058 net.cpp:380] cont_57_lstm1_cont_slice_56_split -> cont_57_lstm1_cont_slice_56_split_1
I1017 12:11:33.244006 27058 net.cpp:122] Setting up cont_57_lstm1_cont_slice_56_split
I1017 12:11:33.244012 27058 net.cpp:129] Top shape: 1 1 (1)
I1017 12:11:33.244016 27058 net.cpp:129] Top shape: 1 1 (1)
I1017 12:11:33.244020 27058 net.cpp:137] Memory required for data: 159784
I1017 12:11:33.244024 27058 layer_factory.hpp:77] Creating layer cont_58_lstm1_cont_slice_57_split
I1017 12:11:33.244035 27058 net.cpp:84] Creating Layer cont_58_lstm1_cont_slice_57_split
I1017 12:11:33.244040 27058 net.cpp:406] cont_58_lstm1_cont_slice_57_split <- cont_58
I1017 12:11:33.244045 27058 net.cpp:380] cont_58_lstm1_cont_slice_57_split -> cont_58_lstm1_cont_slice_57_split_0
I1017 12:11:33.244055 27058 net.cpp:380] cont_58_lstm1_cont_slice_57_split -> cont_58_lstm1_cont_slice_57_split_1
I1017 12:11:33.244083 27058 net.cpp:122] Setting up cont_58_lstm1_cont_slice_57_split
I1017 12:11:33.244089 27058 net.cpp:129] Top shape: 1 1 (1)
I1017 12:11:33.244094 27058 net.cpp:129] Top shape: 1 1 (1)
I1017 12:11:33.244098 27058 net.cpp:137] Memory required for data: 159792
I1017 12:11:33.244102 27058 layer_factory.hpp:77] Creating layer cont_59_lstm1_cont_slice_58_split
I1017 12:11:33.244109 27058 net.cpp:84] Creating Layer cont_59_lstm1_cont_slice_58_split
I1017 12:11:33.244113 27058 net.cpp:406] cont_59_lstm1_cont_slice_58_split <- cont_59
I1017 12:11:33.244119 27058 net.cpp:380] cont_59_lstm1_cont_slice_58_split -> cont_59_lstm1_cont_slice_58_split_0
I1017 12:11:33.244127 27058 net.cpp:380] cont_59_lstm1_cont_slice_58_split -> cont_59_lstm1_cont_slice_58_split_1
I1017 12:11:33.244156 27058 net.cpp:122] Setting up cont_59_lstm1_cont_slice_58_split
I1017 12:11:33.244163 27058 net.cpp:129] Top shape: 1 1 (1)
I1017 12:11:33.244168 27058 net.cpp:129] Top shape: 1 1 (1)
I1017 12:11:33.244171 27058 net.cpp:137] Memory required for data: 159800
I1017 12:11:33.244175 27058 layer_factory.hpp:77] Creating layer cont_60_lstm1_cont_slice_59_split
I1017 12:11:33.244180 27058 net.cpp:84] Creating Layer cont_60_lstm1_cont_slice_59_split
I1017 12:11:33.244184 27058 net.cpp:406] cont_60_lstm1_cont_slice_59_split <- cont_60
I1017 12:11:33.244190 27058 net.cpp:380] cont_60_lstm1_cont_slice_59_split -> cont_60_lstm1_cont_slice_59_split_0
I1017 12:11:33.244197 27058 net.cpp:380] cont_60_lstm1_cont_slice_59_split -> cont_60_lstm1_cont_slice_59_split_1
I1017 12:11:33.244227 27058 net.cpp:122] Setting up cont_60_lstm1_cont_slice_59_split
I1017 12:11:33.244233 27058 net.cpp:129] Top shape: 1 1 (1)
I1017 12:11:33.244238 27058 net.cpp:129] Top shape: 1 1 (1)
I1017 12:11:33.244242 27058 net.cpp:137] Memory required for data: 159808
I1017 12:11:33.244246 27058 layer_factory.hpp:77] Creating layer cont_61_lstm1_cont_slice_60_split
I1017 12:11:33.244251 27058 net.cpp:84] Creating Layer cont_61_lstm1_cont_slice_60_split
I1017 12:11:33.244256 27058 net.cpp:406] cont_61_lstm1_cont_slice_60_split <- cont_61
I1017 12:11:33.244261 27058 net.cpp:380] cont_61_lstm1_cont_slice_60_split -> cont_61_lstm1_cont_slice_60_split_0
I1017 12:11:33.244268 27058 net.cpp:380] cont_61_lstm1_cont_slice_60_split -> cont_61_lstm1_cont_slice_60_split_1
I1017 12:11:33.244299 27058 net.cpp:122] Setting up cont_61_lstm1_cont_slice_60_split
I1017 12:11:33.244305 27058 net.cpp:129] Top shape: 1 1 (1)
I1017 12:11:33.244309 27058 net.cpp:129] Top shape: 1 1 (1)
I1017 12:11:33.244313 27058 net.cpp:137] Memory required for data: 159816
I1017 12:11:33.244318 27058 layer_factory.hpp:77] Creating layer cont_62_lstm1_cont_slice_61_split
I1017 12:11:33.244329 27058 net.cpp:84] Creating Layer cont_62_lstm1_cont_slice_61_split
I1017 12:11:33.244334 27058 net.cpp:406] cont_62_lstm1_cont_slice_61_split <- cont_62
I1017 12:11:33.244340 27058 net.cpp:380] cont_62_lstm1_cont_slice_61_split -> cont_62_lstm1_cont_slice_61_split_0
I1017 12:11:33.244346 27058 net.cpp:380] cont_62_lstm1_cont_slice_61_split -> cont_62_lstm1_cont_slice_61_split_1
I1017 12:11:33.244377 27058 net.cpp:122] Setting up cont_62_lstm1_cont_slice_61_split
I1017 12:11:33.244384 27058 net.cpp:129] Top shape: 1 1 (1)
I1017 12:11:33.244388 27058 net.cpp:129] Top shape: 1 1 (1)
I1017 12:11:33.244391 27058 net.cpp:137] Memory required for data: 159824
I1017 12:11:33.244396 27058 layer_factory.hpp:77] Creating layer cont_63_lstm1_cont_slice_62_split
I1017 12:11:33.244401 27058 net.cpp:84] Creating Layer cont_63_lstm1_cont_slice_62_split
I1017 12:11:33.244405 27058 net.cpp:406] cont_63_lstm1_cont_slice_62_split <- cont_63
I1017 12:11:33.244411 27058 net.cpp:380] cont_63_lstm1_cont_slice_62_split -> cont_63_lstm1_cont_slice_62_split_0
I1017 12:11:33.244417 27058 net.cpp:380] cont_63_lstm1_cont_slice_62_split -> cont_63_lstm1_cont_slice_62_split_1
I1017 12:11:33.244446 27058 net.cpp:122] Setting up cont_63_lstm1_cont_slice_62_split
I1017 12:11:33.244452 27058 net.cpp:129] Top shape: 1 1 (1)
I1017 12:11:33.244457 27058 net.cpp:129] Top shape: 1 1 (1)
I1017 12:11:33.244462 27058 net.cpp:137] Memory required for data: 159832
I1017 12:11:33.244465 27058 layer_factory.hpp:77] Creating layer cont_64_lstm1_cont_slice_63_split
I1017 12:11:33.244470 27058 net.cpp:84] Creating Layer cont_64_lstm1_cont_slice_63_split
I1017 12:11:33.244475 27058 net.cpp:406] cont_64_lstm1_cont_slice_63_split <- cont_64
I1017 12:11:33.244482 27058 net.cpp:380] cont_64_lstm1_cont_slice_63_split -> cont_64_lstm1_cont_slice_63_split_0
I1017 12:11:33.244489 27058 net.cpp:380] cont_64_lstm1_cont_slice_63_split -> cont_64_lstm1_cont_slice_63_split_1
I1017 12:11:33.244516 27058 net.cpp:122] Setting up cont_64_lstm1_cont_slice_63_split
I1017 12:11:33.244523 27058 net.cpp:129] Top shape: 1 1 (1)
I1017 12:11:33.244527 27058 net.cpp:129] Top shape: 1 1 (1)
I1017 12:11:33.244531 27058 net.cpp:137] Memory required for data: 159840
I1017 12:11:33.244535 27058 layer_factory.hpp:77] Creating layer cont_65_lstm1_cont_slice_64_split
I1017 12:11:33.244542 27058 net.cpp:84] Creating Layer cont_65_lstm1_cont_slice_64_split
I1017 12:11:33.244546 27058 net.cpp:406] cont_65_lstm1_cont_slice_64_split <- cont_65
I1017 12:11:33.244552 27058 net.cpp:380] cont_65_lstm1_cont_slice_64_split -> cont_65_lstm1_cont_slice_64_split_0
I1017 12:11:33.244559 27058 net.cpp:380] cont_65_lstm1_cont_slice_64_split -> cont_65_lstm1_cont_slice_64_split_1
I1017 12:11:33.244591 27058 net.cpp:122] Setting up cont_65_lstm1_cont_slice_64_split
I1017 12:11:33.244597 27058 net.cpp:129] Top shape: 1 1 (1)
I1017 12:11:33.244602 27058 net.cpp:129] Top shape: 1 1 (1)
I1017 12:11:33.244606 27058 net.cpp:137] Memory required for data: 159848
I1017 12:11:33.244611 27058 layer_factory.hpp:77] Creating layer cont_66_lstm1_cont_slice_65_split
I1017 12:11:33.244616 27058 net.cpp:84] Creating Layer cont_66_lstm1_cont_slice_65_split
I1017 12:11:33.244621 27058 net.cpp:406] cont_66_lstm1_cont_slice_65_split <- cont_66
I1017 12:11:33.244626 27058 net.cpp:380] cont_66_lstm1_cont_slice_65_split -> cont_66_lstm1_cont_slice_65_split_0
I1017 12:11:33.244632 27058 net.cpp:380] cont_66_lstm1_cont_slice_65_split -> cont_66_lstm1_cont_slice_65_split_1
I1017 12:11:33.244663 27058 net.cpp:122] Setting up cont_66_lstm1_cont_slice_65_split
I1017 12:11:33.244669 27058 net.cpp:129] Top shape: 1 1 (1)
I1017 12:11:33.244673 27058 net.cpp:129] Top shape: 1 1 (1)
I1017 12:11:33.244678 27058 net.cpp:137] Memory required for data: 159856
I1017 12:11:33.244681 27058 layer_factory.hpp:77] Creating layer cont_67_lstm1_cont_slice_66_split
I1017 12:11:33.244686 27058 net.cpp:84] Creating Layer cont_67_lstm1_cont_slice_66_split
I1017 12:11:33.244690 27058 net.cpp:406] cont_67_lstm1_cont_slice_66_split <- cont_67
I1017 12:11:33.244696 27058 net.cpp:380] cont_67_lstm1_cont_slice_66_split -> cont_67_lstm1_cont_slice_66_split_0
I1017 12:11:33.244704 27058 net.cpp:380] cont_67_lstm1_cont_slice_66_split -> cont_67_lstm1_cont_slice_66_split_1
I1017 12:11:33.244732 27058 net.cpp:122] Setting up cont_67_lstm1_cont_slice_66_split
I1017 12:11:33.244738 27058 net.cpp:129] Top shape: 1 1 (1)
I1017 12:11:33.244743 27058 net.cpp:129] Top shape: 1 1 (1)
I1017 12:11:33.244747 27058 net.cpp:137] Memory required for data: 159864
I1017 12:11:33.244751 27058 layer_factory.hpp:77] Creating layer cont_68_lstm1_cont_slice_67_split
I1017 12:11:33.244756 27058 net.cpp:84] Creating Layer cont_68_lstm1_cont_slice_67_split
I1017 12:11:33.244760 27058 net.cpp:406] cont_68_lstm1_cont_slice_67_split <- cont_68
I1017 12:11:33.244767 27058 net.cpp:380] cont_68_lstm1_cont_slice_67_split -> cont_68_lstm1_cont_slice_67_split_0
I1017 12:11:33.244774 27058 net.cpp:380] cont_68_lstm1_cont_slice_67_split -> cont_68_lstm1_cont_slice_67_split_1
I1017 12:11:33.244802 27058 net.cpp:122] Setting up cont_68_lstm1_cont_slice_67_split
I1017 12:11:33.244808 27058 net.cpp:129] Top shape: 1 1 (1)
I1017 12:11:33.244813 27058 net.cpp:129] Top shape: 1 1 (1)
I1017 12:11:33.244817 27058 net.cpp:137] Memory required for data: 159872
I1017 12:11:33.244822 27058 layer_factory.hpp:77] Creating layer cont_69_lstm1_cont_slice_68_split
I1017 12:11:33.244828 27058 net.cpp:84] Creating Layer cont_69_lstm1_cont_slice_68_split
I1017 12:11:33.244832 27058 net.cpp:406] cont_69_lstm1_cont_slice_68_split <- cont_69
I1017 12:11:33.244838 27058 net.cpp:380] cont_69_lstm1_cont_slice_68_split -> cont_69_lstm1_cont_slice_68_split_0
I1017 12:11:33.244844 27058 net.cpp:380] cont_69_lstm1_cont_slice_68_split -> cont_69_lstm1_cont_slice_68_split_1
I1017 12:11:33.244874 27058 net.cpp:122] Setting up cont_69_lstm1_cont_slice_68_split
I1017 12:11:33.244880 27058 net.cpp:129] Top shape: 1 1 (1)
I1017 12:11:33.244884 27058 net.cpp:129] Top shape: 1 1 (1)
I1017 12:11:33.244889 27058 net.cpp:137] Memory required for data: 159880
I1017 12:11:33.244892 27058 layer_factory.hpp:77] Creating layer cont_70_lstm1_cont_slice_69_split
I1017 12:11:33.244897 27058 net.cpp:84] Creating Layer cont_70_lstm1_cont_slice_69_split
I1017 12:11:33.244902 27058 net.cpp:406] cont_70_lstm1_cont_slice_69_split <- cont_70
I1017 12:11:33.244907 27058 net.cpp:380] cont_70_lstm1_cont_slice_69_split -> cont_70_lstm1_cont_slice_69_split_0
I1017 12:11:33.244915 27058 net.cpp:380] cont_70_lstm1_cont_slice_69_split -> cont_70_lstm1_cont_slice_69_split_1
I1017 12:11:33.244946 27058 net.cpp:122] Setting up cont_70_lstm1_cont_slice_69_split
I1017 12:11:33.244951 27058 net.cpp:129] Top shape: 1 1 (1)
I1017 12:11:33.244956 27058 net.cpp:129] Top shape: 1 1 (1)
I1017 12:11:33.244961 27058 net.cpp:137] Memory required for data: 159888
I1017 12:11:33.244964 27058 layer_factory.hpp:77] Creating layer cont_71_lstm1_cont_slice_70_split
I1017 12:11:33.244969 27058 net.cpp:84] Creating Layer cont_71_lstm1_cont_slice_70_split
I1017 12:11:33.244973 27058 net.cpp:406] cont_71_lstm1_cont_slice_70_split <- cont_71
I1017 12:11:33.244982 27058 net.cpp:380] cont_71_lstm1_cont_slice_70_split -> cont_71_lstm1_cont_slice_70_split_0
I1017 12:11:33.244987 27058 net.cpp:380] cont_71_lstm1_cont_slice_70_split -> cont_71_lstm1_cont_slice_70_split_1
I1017 12:11:33.245015 27058 net.cpp:122] Setting up cont_71_lstm1_cont_slice_70_split
I1017 12:11:33.245021 27058 net.cpp:129] Top shape: 1 1 (1)
I1017 12:11:33.245026 27058 net.cpp:129] Top shape: 1 1 (1)
I1017 12:11:33.245030 27058 net.cpp:137] Memory required for data: 159896
I1017 12:11:33.245034 27058 layer_factory.hpp:77] Creating layer cont_72_lstm1_cont_slice_71_split
I1017 12:11:33.245041 27058 net.cpp:84] Creating Layer cont_72_lstm1_cont_slice_71_split
I1017 12:11:33.245045 27058 net.cpp:406] cont_72_lstm1_cont_slice_71_split <- cont_72
I1017 12:11:33.245051 27058 net.cpp:380] cont_72_lstm1_cont_slice_71_split -> cont_72_lstm1_cont_slice_71_split_0
I1017 12:11:33.245057 27058 net.cpp:380] cont_72_lstm1_cont_slice_71_split -> cont_72_lstm1_cont_slice_71_split_1
I1017 12:11:33.245086 27058 net.cpp:122] Setting up cont_72_lstm1_cont_slice_71_split
I1017 12:11:33.245092 27058 net.cpp:129] Top shape: 1 1 (1)
I1017 12:11:33.245097 27058 net.cpp:129] Top shape: 1 1 (1)
I1017 12:11:33.245101 27058 net.cpp:137] Memory required for data: 159904
I1017 12:11:33.245105 27058 layer_factory.hpp:77] Creating layer cont_73_lstm1_cont_slice_72_split
I1017 12:11:33.245110 27058 net.cpp:84] Creating Layer cont_73_lstm1_cont_slice_72_split
I1017 12:11:33.245115 27058 net.cpp:406] cont_73_lstm1_cont_slice_72_split <- cont_73
I1017 12:11:33.245121 27058 net.cpp:380] cont_73_lstm1_cont_slice_72_split -> cont_73_lstm1_cont_slice_72_split_0
I1017 12:11:33.245127 27058 net.cpp:380] cont_73_lstm1_cont_slice_72_split -> cont_73_lstm1_cont_slice_72_split_1
I1017 12:11:33.245157 27058 net.cpp:122] Setting up cont_73_lstm1_cont_slice_72_split
I1017 12:11:33.245163 27058 net.cpp:129] Top shape: 1 1 (1)
I1017 12:11:33.245167 27058 net.cpp:129] Top shape: 1 1 (1)
I1017 12:11:33.245172 27058 net.cpp:137] Memory required for data: 159912
I1017 12:11:33.245175 27058 layer_factory.hpp:77] Creating layer cont_74_lstm1_cont_slice_73_split
I1017 12:11:33.245180 27058 net.cpp:84] Creating Layer cont_74_lstm1_cont_slice_73_split
I1017 12:11:33.245184 27058 net.cpp:406] cont_74_lstm1_cont_slice_73_split <- cont_74
I1017 12:11:33.245190 27058 net.cpp:380] cont_74_lstm1_cont_slice_73_split -> cont_74_lstm1_cont_slice_73_split_0
I1017 12:11:33.245196 27058 net.cpp:380] cont_74_lstm1_cont_slice_73_split -> cont_74_lstm1_cont_slice_73_split_1
I1017 12:11:33.245225 27058 net.cpp:122] Setting up cont_74_lstm1_cont_slice_73_split
I1017 12:11:33.245231 27058 net.cpp:129] Top shape: 1 1 (1)
I1017 12:11:33.245236 27058 net.cpp:129] Top shape: 1 1 (1)
I1017 12:11:33.245240 27058 net.cpp:137] Memory required for data: 159920
I1017 12:11:33.245244 27058 layer_factory.hpp:77] Creating layer cont_75_lstm1_cont_slice_74_split
I1017 12:11:33.245249 27058 net.cpp:84] Creating Layer cont_75_lstm1_cont_slice_74_split
I1017 12:11:33.245254 27058 net.cpp:406] cont_75_lstm1_cont_slice_74_split <- cont_75
I1017 12:11:33.245260 27058 net.cpp:380] cont_75_lstm1_cont_slice_74_split -> cont_75_lstm1_cont_slice_74_split_0
I1017 12:11:33.245267 27058 net.cpp:380] cont_75_lstm1_cont_slice_74_split -> cont_75_lstm1_cont_slice_74_split_1
I1017 12:11:33.245295 27058 net.cpp:122] Setting up cont_75_lstm1_cont_slice_74_split
I1017 12:11:33.245301 27058 net.cpp:129] Top shape: 1 1 (1)
I1017 12:11:33.245306 27058 net.cpp:129] Top shape: 1 1 (1)
I1017 12:11:33.245309 27058 net.cpp:137] Memory required for data: 159928
I1017 12:11:33.245313 27058 layer_factory.hpp:77] Creating layer cont_76_lstm1_cont_slice_75_split
I1017 12:11:33.245321 27058 net.cpp:84] Creating Layer cont_76_lstm1_cont_slice_75_split
I1017 12:11:33.245324 27058 net.cpp:406] cont_76_lstm1_cont_slice_75_split <- cont_76
I1017 12:11:33.245331 27058 net.cpp:380] cont_76_lstm1_cont_slice_75_split -> cont_76_lstm1_cont_slice_75_split_0
I1017 12:11:33.245337 27058 net.cpp:380] cont_76_lstm1_cont_slice_75_split -> cont_76_lstm1_cont_slice_75_split_1
I1017 12:11:33.245368 27058 net.cpp:122] Setting up cont_76_lstm1_cont_slice_75_split
I1017 12:11:33.245373 27058 net.cpp:129] Top shape: 1 1 (1)
I1017 12:11:33.245378 27058 net.cpp:129] Top shape: 1 1 (1)
I1017 12:11:33.245383 27058 net.cpp:137] Memory required for data: 159936
I1017 12:11:33.245386 27058 layer_factory.hpp:77] Creating layer cont_77_lstm1_cont_slice_76_split
I1017 12:11:33.245391 27058 net.cpp:84] Creating Layer cont_77_lstm1_cont_slice_76_split
I1017 12:11:33.245395 27058 net.cpp:406] cont_77_lstm1_cont_slice_76_split <- cont_77
I1017 12:11:33.245401 27058 net.cpp:380] cont_77_lstm1_cont_slice_76_split -> cont_77_lstm1_cont_slice_76_split_0
I1017 12:11:33.245409 27058 net.cpp:380] cont_77_lstm1_cont_slice_76_split -> cont_77_lstm1_cont_slice_76_split_1
I1017 12:11:33.245437 27058 net.cpp:122] Setting up cont_77_lstm1_cont_slice_76_split
I1017 12:11:33.245443 27058 net.cpp:129] Top shape: 1 1 (1)
I1017 12:11:33.245448 27058 net.cpp:129] Top shape: 1 1 (1)
I1017 12:11:33.245452 27058 net.cpp:137] Memory required for data: 159944
I1017 12:11:33.245456 27058 layer_factory.hpp:77] Creating layer cont_78_lstm1_cont_slice_77_split
I1017 12:11:33.245461 27058 net.cpp:84] Creating Layer cont_78_lstm1_cont_slice_77_split
I1017 12:11:33.245465 27058 net.cpp:406] cont_78_lstm1_cont_slice_77_split <- cont_78
I1017 12:11:33.245471 27058 net.cpp:380] cont_78_lstm1_cont_slice_77_split -> cont_78_lstm1_cont_slice_77_split_0
I1017 12:11:33.245479 27058 net.cpp:380] cont_78_lstm1_cont_slice_77_split -> cont_78_lstm1_cont_slice_77_split_1
I1017 12:11:33.245507 27058 net.cpp:122] Setting up cont_78_lstm1_cont_slice_77_split
I1017 12:11:33.245513 27058 net.cpp:129] Top shape: 1 1 (1)
I1017 12:11:33.245517 27058 net.cpp:129] Top shape: 1 1 (1)
I1017 12:11:33.245522 27058 net.cpp:137] Memory required for data: 159952
I1017 12:11:33.245525 27058 layer_factory.hpp:77] Creating layer cont_79_lstm1_cont_slice_78_split
I1017 12:11:33.245532 27058 net.cpp:84] Creating Layer cont_79_lstm1_cont_slice_78_split
I1017 12:11:33.245537 27058 net.cpp:406] cont_79_lstm1_cont_slice_78_split <- cont_79
I1017 12:11:33.245543 27058 net.cpp:380] cont_79_lstm1_cont_slice_78_split -> cont_79_lstm1_cont_slice_78_split_0
I1017 12:11:33.245549 27058 net.cpp:380] cont_79_lstm1_cont_slice_78_split -> cont_79_lstm1_cont_slice_78_split_1
I1017 12:11:33.245579 27058 net.cpp:122] Setting up cont_79_lstm1_cont_slice_78_split
I1017 12:11:33.245585 27058 net.cpp:129] Top shape: 1 1 (1)
I1017 12:11:33.245589 27058 net.cpp:129] Top shape: 1 1 (1)
I1017 12:11:33.245594 27058 net.cpp:137] Memory required for data: 159960
I1017 12:11:33.245597 27058 layer_factory.hpp:77] Creating layer cont_80_lstm1_cont_slice_79_split
I1017 12:11:33.245602 27058 net.cpp:84] Creating Layer cont_80_lstm1_cont_slice_79_split
I1017 12:11:33.245607 27058 net.cpp:406] cont_80_lstm1_cont_slice_79_split <- cont_80
I1017 12:11:33.245612 27058 net.cpp:380] cont_80_lstm1_cont_slice_79_split -> cont_80_lstm1_cont_slice_79_split_0
I1017 12:11:33.245620 27058 net.cpp:380] cont_80_lstm1_cont_slice_79_split -> cont_80_lstm1_cont_slice_79_split_1
I1017 12:11:33.245648 27058 net.cpp:122] Setting up cont_80_lstm1_cont_slice_79_split
I1017 12:11:33.245654 27058 net.cpp:129] Top shape: 1 1 (1)
I1017 12:11:33.245659 27058 net.cpp:129] Top shape: 1 1 (1)
I1017 12:11:33.245663 27058 net.cpp:137] Memory required for data: 159968
I1017 12:11:33.245667 27058 layer_factory.hpp:77] Creating layer cont_81_lstm1_cont_slice_80_split
I1017 12:11:33.245672 27058 net.cpp:84] Creating Layer cont_81_lstm1_cont_slice_80_split
I1017 12:11:33.245676 27058 net.cpp:406] cont_81_lstm1_cont_slice_80_split <- cont_81
I1017 12:11:33.245682 27058 net.cpp:380] cont_81_lstm1_cont_slice_80_split -> cont_81_lstm1_cont_slice_80_split_0
I1017 12:11:33.245688 27058 net.cpp:380] cont_81_lstm1_cont_slice_80_split -> cont_81_lstm1_cont_slice_80_split_1
I1017 12:11:33.245718 27058 net.cpp:122] Setting up cont_81_lstm1_cont_slice_80_split
I1017 12:11:33.245723 27058 net.cpp:129] Top shape: 1 1 (1)
I1017 12:11:33.245728 27058 net.cpp:129] Top shape: 1 1 (1)
I1017 12:11:33.245733 27058 net.cpp:137] Memory required for data: 159976
I1017 12:11:33.245735 27058 layer_factory.hpp:77] Creating layer cont_82_lstm1_cont_slice_81_split
I1017 12:11:33.245741 27058 net.cpp:84] Creating Layer cont_82_lstm1_cont_slice_81_split
I1017 12:11:33.245745 27058 net.cpp:406] cont_82_lstm1_cont_slice_81_split <- cont_82
I1017 12:11:33.245753 27058 net.cpp:380] cont_82_lstm1_cont_slice_81_split -> cont_82_lstm1_cont_slice_81_split_0
I1017 12:11:33.245759 27058 net.cpp:380] cont_82_lstm1_cont_slice_81_split -> cont_82_lstm1_cont_slice_81_split_1
I1017 12:11:33.245786 27058 net.cpp:122] Setting up cont_82_lstm1_cont_slice_81_split
I1017 12:11:33.245792 27058 net.cpp:129] Top shape: 1 1 (1)
I1017 12:11:33.245797 27058 net.cpp:129] Top shape: 1 1 (1)
I1017 12:11:33.245801 27058 net.cpp:137] Memory required for data: 159984
I1017 12:11:33.245805 27058 layer_factory.hpp:77] Creating layer cont_83_lstm1_cont_slice_82_split
I1017 12:11:33.245812 27058 net.cpp:84] Creating Layer cont_83_lstm1_cont_slice_82_split
I1017 12:11:33.245817 27058 net.cpp:406] cont_83_lstm1_cont_slice_82_split <- cont_83
I1017 12:11:33.245822 27058 net.cpp:380] cont_83_lstm1_cont_slice_82_split -> cont_83_lstm1_cont_slice_82_split_0
I1017 12:11:33.245829 27058 net.cpp:380] cont_83_lstm1_cont_slice_82_split -> cont_83_lstm1_cont_slice_82_split_1
I1017 12:11:33.245858 27058 net.cpp:122] Setting up cont_83_lstm1_cont_slice_82_split
I1017 12:11:33.245864 27058 net.cpp:129] Top shape: 1 1 (1)
I1017 12:11:33.245869 27058 net.cpp:129] Top shape: 1 1 (1)
I1017 12:11:33.245873 27058 net.cpp:137] Memory required for data: 159992
I1017 12:11:33.245877 27058 layer_factory.hpp:77] Creating layer cont_84_lstm1_cont_slice_83_split
I1017 12:11:33.245882 27058 net.cpp:84] Creating Layer cont_84_lstm1_cont_slice_83_split
I1017 12:11:33.245887 27058 net.cpp:406] cont_84_lstm1_cont_slice_83_split <- cont_84
I1017 12:11:33.245893 27058 net.cpp:380] cont_84_lstm1_cont_slice_83_split -> cont_84_lstm1_cont_slice_83_split_0
I1017 12:11:33.245898 27058 net.cpp:380] cont_84_lstm1_cont_slice_83_split -> cont_84_lstm1_cont_slice_83_split_1
I1017 12:11:33.245928 27058 net.cpp:122] Setting up cont_84_lstm1_cont_slice_83_split
I1017 12:11:33.245934 27058 net.cpp:129] Top shape: 1 1 (1)
I1017 12:11:33.245939 27058 net.cpp:129] Top shape: 1 1 (1)
I1017 12:11:33.245942 27058 net.cpp:137] Memory required for data: 160000
I1017 12:11:33.245946 27058 layer_factory.hpp:77] Creating layer cont_85_lstm1_cont_slice_84_split
I1017 12:11:33.245951 27058 net.cpp:84] Creating Layer cont_85_lstm1_cont_slice_84_split
I1017 12:11:33.245955 27058 net.cpp:406] cont_85_lstm1_cont_slice_84_split <- cont_85
I1017 12:11:33.245961 27058 net.cpp:380] cont_85_lstm1_cont_slice_84_split -> cont_85_lstm1_cont_slice_84_split_0
I1017 12:11:33.245970 27058 net.cpp:380] cont_85_lstm1_cont_slice_84_split -> cont_85_lstm1_cont_slice_84_split_1
I1017 12:11:33.245997 27058 net.cpp:122] Setting up cont_85_lstm1_cont_slice_84_split
I1017 12:11:33.246003 27058 net.cpp:129] Top shape: 1 1 (1)
I1017 12:11:33.246007 27058 net.cpp:129] Top shape: 1 1 (1)
I1017 12:11:33.246011 27058 net.cpp:137] Memory required for data: 160008
I1017 12:11:33.246016 27058 layer_factory.hpp:77] Creating layer cont_86_lstm1_cont_slice_85_split
I1017 12:11:33.246022 27058 net.cpp:84] Creating Layer cont_86_lstm1_cont_slice_85_split
I1017 12:11:33.246027 27058 net.cpp:406] cont_86_lstm1_cont_slice_85_split <- cont_86
I1017 12:11:33.246032 27058 net.cpp:380] cont_86_lstm1_cont_slice_85_split -> cont_86_lstm1_cont_slice_85_split_0
I1017 12:11:33.246039 27058 net.cpp:380] cont_86_lstm1_cont_slice_85_split -> cont_86_lstm1_cont_slice_85_split_1
I1017 12:11:33.246068 27058 net.cpp:122] Setting up cont_86_lstm1_cont_slice_85_split
I1017 12:11:33.246074 27058 net.cpp:129] Top shape: 1 1 (1)
I1017 12:11:33.246078 27058 net.cpp:129] Top shape: 1 1 (1)
I1017 12:11:33.246083 27058 net.cpp:137] Memory required for data: 160016
I1017 12:11:33.246086 27058 layer_factory.hpp:77] Creating layer cont_87_lstm1_cont_slice_86_split
I1017 12:11:33.246091 27058 net.cpp:84] Creating Layer cont_87_lstm1_cont_slice_86_split
I1017 12:11:33.246096 27058 net.cpp:406] cont_87_lstm1_cont_slice_86_split <- cont_87
I1017 12:11:33.246103 27058 net.cpp:380] cont_87_lstm1_cont_slice_86_split -> cont_87_lstm1_cont_slice_86_split_0
I1017 12:11:33.246109 27058 net.cpp:380] cont_87_lstm1_cont_slice_86_split -> cont_87_lstm1_cont_slice_86_split_1
I1017 12:11:33.246139 27058 net.cpp:122] Setting up cont_87_lstm1_cont_slice_86_split
I1017 12:11:33.246145 27058 net.cpp:129] Top shape: 1 1 (1)
I1017 12:11:33.246148 27058 net.cpp:129] Top shape: 1 1 (1)
I1017 12:11:33.246152 27058 net.cpp:137] Memory required for data: 160024
I1017 12:11:33.246156 27058 layer_factory.hpp:77] Creating layer cont_88_lstm1_cont_slice_87_split
I1017 12:11:33.246161 27058 net.cpp:84] Creating Layer cont_88_lstm1_cont_slice_87_split
I1017 12:11:33.246166 27058 net.cpp:406] cont_88_lstm1_cont_slice_87_split <- cont_88
I1017 12:11:33.246171 27058 net.cpp:380] cont_88_lstm1_cont_slice_87_split -> cont_88_lstm1_cont_slice_87_split_0
I1017 12:11:33.246177 27058 net.cpp:380] cont_88_lstm1_cont_slice_87_split -> cont_88_lstm1_cont_slice_87_split_1
I1017 12:11:33.246207 27058 net.cpp:122] Setting up cont_88_lstm1_cont_slice_87_split
I1017 12:11:33.246213 27058 net.cpp:129] Top shape: 1 1 (1)
I1017 12:11:33.246217 27058 net.cpp:129] Top shape: 1 1 (1)
I1017 12:11:33.246222 27058 net.cpp:137] Memory required for data: 160032
I1017 12:11:33.246225 27058 layer_factory.hpp:77] Creating layer cont_89_lstm1_cont_slice_88_split
I1017 12:11:33.246230 27058 net.cpp:84] Creating Layer cont_89_lstm1_cont_slice_88_split
I1017 12:11:33.246234 27058 net.cpp:406] cont_89_lstm1_cont_slice_88_split <- cont_89
I1017 12:11:33.246242 27058 net.cpp:380] cont_89_lstm1_cont_slice_88_split -> cont_89_lstm1_cont_slice_88_split_0
I1017 12:11:33.246248 27058 net.cpp:380] cont_89_lstm1_cont_slice_88_split -> cont_89_lstm1_cont_slice_88_split_1
I1017 12:11:33.246275 27058 net.cpp:122] Setting up cont_89_lstm1_cont_slice_88_split
I1017 12:11:33.246281 27058 net.cpp:129] Top shape: 1 1 (1)
I1017 12:11:33.246286 27058 net.cpp:129] Top shape: 1 1 (1)
I1017 12:11:33.246290 27058 net.cpp:137] Memory required for data: 160040
I1017 12:11:33.246294 27058 layer_factory.hpp:77] Creating layer cont_90_lstm1_cont_slice_89_split
I1017 12:11:33.246301 27058 net.cpp:84] Creating Layer cont_90_lstm1_cont_slice_89_split
I1017 12:11:33.246305 27058 net.cpp:406] cont_90_lstm1_cont_slice_89_split <- cont_90
I1017 12:11:33.246310 27058 net.cpp:380] cont_90_lstm1_cont_slice_89_split -> cont_90_lstm1_cont_slice_89_split_0
I1017 12:11:33.246317 27058 net.cpp:380] cont_90_lstm1_cont_slice_89_split -> cont_90_lstm1_cont_slice_89_split_1
I1017 12:11:33.246346 27058 net.cpp:122] Setting up cont_90_lstm1_cont_slice_89_split
I1017 12:11:33.246352 27058 net.cpp:129] Top shape: 1 1 (1)
I1017 12:11:33.246357 27058 net.cpp:129] Top shape: 1 1 (1)
I1017 12:11:33.246361 27058 net.cpp:137] Memory required for data: 160048
I1017 12:11:33.246366 27058 layer_factory.hpp:77] Creating layer cont_91_lstm1_cont_slice_90_split
I1017 12:11:33.246371 27058 net.cpp:84] Creating Layer cont_91_lstm1_cont_slice_90_split
I1017 12:11:33.246374 27058 net.cpp:406] cont_91_lstm1_cont_slice_90_split <- cont_91
I1017 12:11:33.246381 27058 net.cpp:380] cont_91_lstm1_cont_slice_90_split -> cont_91_lstm1_cont_slice_90_split_0
I1017 12:11:33.246387 27058 net.cpp:380] cont_91_lstm1_cont_slice_90_split -> cont_91_lstm1_cont_slice_90_split_1
I1017 12:11:33.246418 27058 net.cpp:122] Setting up cont_91_lstm1_cont_slice_90_split
I1017 12:11:33.246424 27058 net.cpp:129] Top shape: 1 1 (1)
I1017 12:11:33.246429 27058 net.cpp:129] Top shape: 1 1 (1)
I1017 12:11:33.246433 27058 net.cpp:137] Memory required for data: 160056
I1017 12:11:33.246436 27058 layer_factory.hpp:77] Creating layer cont_92_lstm1_cont_slice_91_split
I1017 12:11:33.246441 27058 net.cpp:84] Creating Layer cont_92_lstm1_cont_slice_91_split
I1017 12:11:33.246446 27058 net.cpp:406] cont_92_lstm1_cont_slice_91_split <- cont_92
I1017 12:11:33.246451 27058 net.cpp:380] cont_92_lstm1_cont_slice_91_split -> cont_92_lstm1_cont_slice_91_split_0
I1017 12:11:33.246459 27058 net.cpp:380] cont_92_lstm1_cont_slice_91_split -> cont_92_lstm1_cont_slice_91_split_1
I1017 12:11:33.246490 27058 net.cpp:122] Setting up cont_92_lstm1_cont_slice_91_split
I1017 12:11:33.246495 27058 net.cpp:129] Top shape: 1 1 (1)
I1017 12:11:33.246500 27058 net.cpp:129] Top shape: 1 1 (1)
I1017 12:11:33.246503 27058 net.cpp:137] Memory required for data: 160064
I1017 12:11:33.246507 27058 layer_factory.hpp:77] Creating layer cont_93_lstm1_cont_slice_92_split
I1017 12:11:33.246512 27058 net.cpp:84] Creating Layer cont_93_lstm1_cont_slice_92_split
I1017 12:11:33.246517 27058 net.cpp:406] cont_93_lstm1_cont_slice_92_split <- cont_93
I1017 12:11:33.246525 27058 net.cpp:380] cont_93_lstm1_cont_slice_92_split -> cont_93_lstm1_cont_slice_92_split_0
I1017 12:11:33.246531 27058 net.cpp:380] cont_93_lstm1_cont_slice_92_split -> cont_93_lstm1_cont_slice_92_split_1
I1017 12:11:33.246562 27058 net.cpp:122] Setting up cont_93_lstm1_cont_slice_92_split
I1017 12:11:33.246567 27058 net.cpp:129] Top shape: 1 1 (1)
I1017 12:11:33.246572 27058 net.cpp:129] Top shape: 1 1 (1)
I1017 12:11:33.246575 27058 net.cpp:137] Memory required for data: 160072
I1017 12:11:33.246579 27058 layer_factory.hpp:77] Creating layer cont_94_lstm1_cont_slice_93_split
I1017 12:11:33.246585 27058 net.cpp:84] Creating Layer cont_94_lstm1_cont_slice_93_split
I1017 12:11:33.246589 27058 net.cpp:406] cont_94_lstm1_cont_slice_93_split <- cont_94
I1017 12:11:33.246594 27058 net.cpp:380] cont_94_lstm1_cont_slice_93_split -> cont_94_lstm1_cont_slice_93_split_0
I1017 12:11:33.246601 27058 net.cpp:380] cont_94_lstm1_cont_slice_93_split -> cont_94_lstm1_cont_slice_93_split_1
I1017 12:11:33.246634 27058 net.cpp:122] Setting up cont_94_lstm1_cont_slice_93_split
I1017 12:11:33.246640 27058 net.cpp:129] Top shape: 1 1 (1)
I1017 12:11:33.246645 27058 net.cpp:129] Top shape: 1 1 (1)
I1017 12:11:33.246649 27058 net.cpp:137] Memory required for data: 160080
I1017 12:11:33.246652 27058 layer_factory.hpp:77] Creating layer cont_95_lstm1_cont_slice_94_split
I1017 12:11:33.246659 27058 net.cpp:84] Creating Layer cont_95_lstm1_cont_slice_94_split
I1017 12:11:33.246662 27058 net.cpp:406] cont_95_lstm1_cont_slice_94_split <- cont_95
I1017 12:11:33.246667 27058 net.cpp:380] cont_95_lstm1_cont_slice_94_split -> cont_95_lstm1_cont_slice_94_split_0
I1017 12:11:33.246675 27058 net.cpp:380] cont_95_lstm1_cont_slice_94_split -> cont_95_lstm1_cont_slice_94_split_1
I1017 12:11:33.246703 27058 net.cpp:122] Setting up cont_95_lstm1_cont_slice_94_split
I1017 12:11:33.246709 27058 net.cpp:129] Top shape: 1 1 (1)
I1017 12:11:33.246714 27058 net.cpp:129] Top shape: 1 1 (1)
I1017 12:11:33.246718 27058 net.cpp:137] Memory required for data: 160088
I1017 12:11:33.246722 27058 layer_factory.hpp:77] Creating layer cont_96_lstm1_cont_slice_95_split
I1017 12:11:33.246727 27058 net.cpp:84] Creating Layer cont_96_lstm1_cont_slice_95_split
I1017 12:11:33.246731 27058 net.cpp:406] cont_96_lstm1_cont_slice_95_split <- cont_96
I1017 12:11:33.246739 27058 net.cpp:380] cont_96_lstm1_cont_slice_95_split -> cont_96_lstm1_cont_slice_95_split_0
I1017 12:11:33.246747 27058 net.cpp:380] cont_96_lstm1_cont_slice_95_split -> cont_96_lstm1_cont_slice_95_split_1
I1017 12:11:33.246774 27058 net.cpp:122] Setting up cont_96_lstm1_cont_slice_95_split
I1017 12:11:33.246780 27058 net.cpp:129] Top shape: 1 1 (1)
I1017 12:11:33.246785 27058 net.cpp:129] Top shape: 1 1 (1)
I1017 12:11:33.246789 27058 net.cpp:137] Memory required for data: 160096
I1017 12:11:33.246793 27058 layer_factory.hpp:77] Creating layer cont_97_lstm1_cont_slice_96_split
I1017 12:11:33.246800 27058 net.cpp:84] Creating Layer cont_97_lstm1_cont_slice_96_split
I1017 12:11:33.246804 27058 net.cpp:406] cont_97_lstm1_cont_slice_96_split <- cont_97
I1017 12:11:33.246810 27058 net.cpp:380] cont_97_lstm1_cont_slice_96_split -> cont_97_lstm1_cont_slice_96_split_0
I1017 12:11:33.246816 27058 net.cpp:380] cont_97_lstm1_cont_slice_96_split -> cont_97_lstm1_cont_slice_96_split_1
I1017 12:11:33.246847 27058 net.cpp:122] Setting up cont_97_lstm1_cont_slice_96_split
I1017 12:11:33.246853 27058 net.cpp:129] Top shape: 1 1 (1)
I1017 12:11:33.246857 27058 net.cpp:129] Top shape: 1 1 (1)
I1017 12:11:33.246861 27058 net.cpp:137] Memory required for data: 160104
I1017 12:11:33.246865 27058 layer_factory.hpp:77] Creating layer cont_98_lstm1_cont_slice_97_split
I1017 12:11:33.246870 27058 net.cpp:84] Creating Layer cont_98_lstm1_cont_slice_97_split
I1017 12:11:33.246875 27058 net.cpp:406] cont_98_lstm1_cont_slice_97_split <- cont_98
I1017 12:11:33.246881 27058 net.cpp:380] cont_98_lstm1_cont_slice_97_split -> cont_98_lstm1_cont_slice_97_split_0
I1017 12:11:33.246886 27058 net.cpp:380] cont_98_lstm1_cont_slice_97_split -> cont_98_lstm1_cont_slice_97_split_1
I1017 12:11:33.246917 27058 net.cpp:122] Setting up cont_98_lstm1_cont_slice_97_split
I1017 12:11:33.246923 27058 net.cpp:129] Top shape: 1 1 (1)
I1017 12:11:33.246928 27058 net.cpp:129] Top shape: 1 1 (1)
I1017 12:11:33.246932 27058 net.cpp:137] Memory required for data: 160112
I1017 12:11:33.246935 27058 layer_factory.hpp:77] Creating layer cont_99_lstm1_cont_slice_98_split
I1017 12:11:33.246940 27058 net.cpp:84] Creating Layer cont_99_lstm1_cont_slice_98_split
I1017 12:11:33.246945 27058 net.cpp:406] cont_99_lstm1_cont_slice_98_split <- cont_99
I1017 12:11:33.246950 27058 net.cpp:380] cont_99_lstm1_cont_slice_98_split -> cont_99_lstm1_cont_slice_98_split_0
I1017 12:11:33.246958 27058 net.cpp:380] cont_99_lstm1_cont_slice_98_split -> cont_99_lstm1_cont_slice_98_split_1
I1017 12:11:33.246987 27058 net.cpp:122] Setting up cont_99_lstm1_cont_slice_98_split
I1017 12:11:33.246992 27058 net.cpp:129] Top shape: 1 1 (1)
I1017 12:11:33.246997 27058 net.cpp:129] Top shape: 1 1 (1)
I1017 12:11:33.247001 27058 net.cpp:137] Memory required for data: 160120
I1017 12:11:33.247005 27058 layer_factory.hpp:77] Creating layer cont_100_lstm1_cont_slice_99_split
I1017 12:11:33.247010 27058 net.cpp:84] Creating Layer cont_100_lstm1_cont_slice_99_split
I1017 12:11:33.247015 27058 net.cpp:406] cont_100_lstm1_cont_slice_99_split <- cont_100
I1017 12:11:33.247023 27058 net.cpp:380] cont_100_lstm1_cont_slice_99_split -> cont_100_lstm1_cont_slice_99_split_0
I1017 12:11:33.247030 27058 net.cpp:380] cont_100_lstm1_cont_slice_99_split -> cont_100_lstm1_cont_slice_99_split_1
I1017 12:11:33.247058 27058 net.cpp:122] Setting up cont_100_lstm1_cont_slice_99_split
I1017 12:11:33.247064 27058 net.cpp:129] Top shape: 1 1 (1)
I1017 12:11:33.247068 27058 net.cpp:129] Top shape: 1 1 (1)
I1017 12:11:33.247072 27058 net.cpp:137] Memory required for data: 160128
I1017 12:11:33.247076 27058 layer_factory.hpp:77] Creating layer cont_101_lstm1_cont_slice_100_split
I1017 12:11:33.247083 27058 net.cpp:84] Creating Layer cont_101_lstm1_cont_slice_100_split
I1017 12:11:33.247088 27058 net.cpp:406] cont_101_lstm1_cont_slice_100_split <- cont_101
I1017 12:11:33.247093 27058 net.cpp:380] cont_101_lstm1_cont_slice_100_split -> cont_101_lstm1_cont_slice_100_split_0
I1017 12:11:33.247100 27058 net.cpp:380] cont_101_lstm1_cont_slice_100_split -> cont_101_lstm1_cont_slice_100_split_1
I1017 12:11:33.247130 27058 net.cpp:122] Setting up cont_101_lstm1_cont_slice_100_split
I1017 12:11:33.247136 27058 net.cpp:129] Top shape: 1 1 (1)
I1017 12:11:33.247141 27058 net.cpp:129] Top shape: 1 1 (1)
I1017 12:11:33.247145 27058 net.cpp:137] Memory required for data: 160136
I1017 12:11:33.247149 27058 layer_factory.hpp:77] Creating layer cont_102_lstm1_cont_slice_101_split
I1017 12:11:33.247155 27058 net.cpp:84] Creating Layer cont_102_lstm1_cont_slice_101_split
I1017 12:11:33.247159 27058 net.cpp:406] cont_102_lstm1_cont_slice_101_split <- cont_102
I1017 12:11:33.247164 27058 net.cpp:380] cont_102_lstm1_cont_slice_101_split -> cont_102_lstm1_cont_slice_101_split_0
I1017 12:11:33.247171 27058 net.cpp:380] cont_102_lstm1_cont_slice_101_split -> cont_102_lstm1_cont_slice_101_split_1
I1017 12:11:33.247201 27058 net.cpp:122] Setting up cont_102_lstm1_cont_slice_101_split
I1017 12:11:33.265440 27058 net.cpp:129] Top shape: 1 1 (1)
I1017 12:11:33.265456 27058 net.cpp:129] Top shape: 1 1 (1)
I1017 12:11:33.265463 27058 net.cpp:137] Memory required for data: 160144
I1017 12:11:33.265471 27058 layer_factory.hpp:77] Creating layer cont_103_lstm1_cont_slice_102_split
I1017 12:11:33.265482 27058 net.cpp:84] Creating Layer cont_103_lstm1_cont_slice_102_split
I1017 12:11:33.265491 27058 net.cpp:406] cont_103_lstm1_cont_slice_102_split <- cont_103
I1017 12:11:33.265506 27058 net.cpp:380] cont_103_lstm1_cont_slice_102_split -> cont_103_lstm1_cont_slice_102_split_0
I1017 12:11:33.265522 27058 net.cpp:380] cont_103_lstm1_cont_slice_102_split -> cont_103_lstm1_cont_slice_102_split_1
I1017 12:11:33.265569 27058 net.cpp:122] Setting up cont_103_lstm1_cont_slice_102_split
I1017 12:11:33.265578 27058 net.cpp:129] Top shape: 1 1 (1)
I1017 12:11:33.265583 27058 net.cpp:129] Top shape: 1 1 (1)
I1017 12:11:33.265586 27058 net.cpp:137] Memory required for data: 160152
I1017 12:11:33.265590 27058 layer_factory.hpp:77] Creating layer cont_104_lstm1_cont_slice_103_split
I1017 12:11:33.265599 27058 net.cpp:84] Creating Layer cont_104_lstm1_cont_slice_103_split
I1017 12:11:33.265604 27058 net.cpp:406] cont_104_lstm1_cont_slice_103_split <- cont_104
I1017 12:11:33.265609 27058 net.cpp:380] cont_104_lstm1_cont_slice_103_split -> cont_104_lstm1_cont_slice_103_split_0
I1017 12:11:33.265616 27058 net.cpp:380] cont_104_lstm1_cont_slice_103_split -> cont_104_lstm1_cont_slice_103_split_1
I1017 12:11:33.265650 27058 net.cpp:122] Setting up cont_104_lstm1_cont_slice_103_split
I1017 12:11:33.265656 27058 net.cpp:129] Top shape: 1 1 (1)
I1017 12:11:33.265661 27058 net.cpp:129] Top shape: 1 1 (1)
I1017 12:11:33.265666 27058 net.cpp:137] Memory required for data: 160160
I1017 12:11:33.265669 27058 layer_factory.hpp:77] Creating layer cont_105_lstm1_cont_slice_104_split
I1017 12:11:33.265674 27058 net.cpp:84] Creating Layer cont_105_lstm1_cont_slice_104_split
I1017 12:11:33.265679 27058 net.cpp:406] cont_105_lstm1_cont_slice_104_split <- cont_105
I1017 12:11:33.265686 27058 net.cpp:380] cont_105_lstm1_cont_slice_104_split -> cont_105_lstm1_cont_slice_104_split_0
I1017 12:11:33.265691 27058 net.cpp:380] cont_105_lstm1_cont_slice_104_split -> cont_105_lstm1_cont_slice_104_split_1
I1017 12:11:33.265723 27058 net.cpp:122] Setting up cont_105_lstm1_cont_slice_104_split
I1017 12:11:33.265729 27058 net.cpp:129] Top shape: 1 1 (1)
I1017 12:11:33.265734 27058 net.cpp:129] Top shape: 1 1 (1)
I1017 12:11:33.265738 27058 net.cpp:137] Memory required for data: 160168
I1017 12:11:33.265743 27058 layer_factory.hpp:77] Creating layer cont_106_lstm1_cont_slice_105_split
I1017 12:11:33.265748 27058 net.cpp:84] Creating Layer cont_106_lstm1_cont_slice_105_split
I1017 12:11:33.265751 27058 net.cpp:406] cont_106_lstm1_cont_slice_105_split <- cont_106
I1017 12:11:33.265758 27058 net.cpp:380] cont_106_lstm1_cont_slice_105_split -> cont_106_lstm1_cont_slice_105_split_0
I1017 12:11:33.265763 27058 net.cpp:380] cont_106_lstm1_cont_slice_105_split -> cont_106_lstm1_cont_slice_105_split_1
I1017 12:11:33.265794 27058 net.cpp:122] Setting up cont_106_lstm1_cont_slice_105_split
I1017 12:11:33.265800 27058 net.cpp:129] Top shape: 1 1 (1)
I1017 12:11:33.265805 27058 net.cpp:129] Top shape: 1 1 (1)
I1017 12:11:33.265808 27058 net.cpp:137] Memory required for data: 160176
I1017 12:11:33.265812 27058 layer_factory.hpp:77] Creating layer cont_107_lstm1_cont_slice_106_split
I1017 12:11:33.265817 27058 net.cpp:84] Creating Layer cont_107_lstm1_cont_slice_106_split
I1017 12:11:33.265822 27058 net.cpp:406] cont_107_lstm1_cont_slice_106_split <- cont_107
I1017 12:11:33.265830 27058 net.cpp:380] cont_107_lstm1_cont_slice_106_split -> cont_107_lstm1_cont_slice_106_split_0
I1017 12:11:33.265836 27058 net.cpp:380] cont_107_lstm1_cont_slice_106_split -> cont_107_lstm1_cont_slice_106_split_1
I1017 12:11:33.265864 27058 net.cpp:122] Setting up cont_107_lstm1_cont_slice_106_split
I1017 12:11:33.265871 27058 net.cpp:129] Top shape: 1 1 (1)
I1017 12:11:33.265875 27058 net.cpp:129] Top shape: 1 1 (1)
I1017 12:11:33.265879 27058 net.cpp:137] Memory required for data: 160184
I1017 12:11:33.265883 27058 layer_factory.hpp:77] Creating layer cont_108_lstm1_cont_slice_107_split
I1017 12:11:33.265892 27058 net.cpp:84] Creating Layer cont_108_lstm1_cont_slice_107_split
I1017 12:11:33.265895 27058 net.cpp:406] cont_108_lstm1_cont_slice_107_split <- cont_108
I1017 12:11:33.265902 27058 net.cpp:380] cont_108_lstm1_cont_slice_107_split -> cont_108_lstm1_cont_slice_107_split_0
I1017 12:11:33.265908 27058 net.cpp:380] cont_108_lstm1_cont_slice_107_split -> cont_108_lstm1_cont_slice_107_split_1
I1017 12:11:33.265939 27058 net.cpp:122] Setting up cont_108_lstm1_cont_slice_107_split
I1017 12:11:33.265945 27058 net.cpp:129] Top shape: 1 1 (1)
I1017 12:11:33.265950 27058 net.cpp:129] Top shape: 1 1 (1)
I1017 12:11:33.265954 27058 net.cpp:137] Memory required for data: 160192
I1017 12:11:33.265959 27058 layer_factory.hpp:77] Creating layer cont_109_lstm1_cont_slice_108_split
I1017 12:11:33.265964 27058 net.cpp:84] Creating Layer cont_109_lstm1_cont_slice_108_split
I1017 12:11:33.265969 27058 net.cpp:406] cont_109_lstm1_cont_slice_108_split <- cont_109
I1017 12:11:33.265974 27058 net.cpp:380] cont_109_lstm1_cont_slice_108_split -> cont_109_lstm1_cont_slice_108_split_0
I1017 12:11:33.265980 27058 net.cpp:380] cont_109_lstm1_cont_slice_108_split -> cont_109_lstm1_cont_slice_108_split_1
I1017 12:11:33.266012 27058 net.cpp:122] Setting up cont_109_lstm1_cont_slice_108_split
I1017 12:11:33.266018 27058 net.cpp:129] Top shape: 1 1 (1)
I1017 12:11:33.266023 27058 net.cpp:129] Top shape: 1 1 (1)
I1017 12:11:33.266027 27058 net.cpp:137] Memory required for data: 160200
I1017 12:11:33.266031 27058 layer_factory.hpp:77] Creating layer cont_110_lstm1_cont_slice_109_split
I1017 12:11:33.266037 27058 net.cpp:84] Creating Layer cont_110_lstm1_cont_slice_109_split
I1017 12:11:33.266041 27058 net.cpp:406] cont_110_lstm1_cont_slice_109_split <- cont_110
I1017 12:11:33.266047 27058 net.cpp:380] cont_110_lstm1_cont_slice_109_split -> cont_110_lstm1_cont_slice_109_split_0
I1017 12:11:33.266057 27058 net.cpp:380] cont_110_lstm1_cont_slice_109_split -> cont_110_lstm1_cont_slice_109_split_1
I1017 12:11:33.266085 27058 net.cpp:122] Setting up cont_110_lstm1_cont_slice_109_split
I1017 12:11:33.266091 27058 net.cpp:129] Top shape: 1 1 (1)
I1017 12:11:33.266096 27058 net.cpp:129] Top shape: 1 1 (1)
I1017 12:11:33.266100 27058 net.cpp:137] Memory required for data: 160208
I1017 12:11:33.266104 27058 layer_factory.hpp:77] Creating layer cont_111_lstm1_cont_slice_110_split
I1017 12:11:33.266111 27058 net.cpp:84] Creating Layer cont_111_lstm1_cont_slice_110_split
I1017 12:11:33.266116 27058 net.cpp:406] cont_111_lstm1_cont_slice_110_split <- cont_111
I1017 12:11:33.266122 27058 net.cpp:380] cont_111_lstm1_cont_slice_110_split -> cont_111_lstm1_cont_slice_110_split_0
I1017 12:11:33.266129 27058 net.cpp:380] cont_111_lstm1_cont_slice_110_split -> cont_111_lstm1_cont_slice_110_split_1
I1017 12:11:33.266160 27058 net.cpp:122] Setting up cont_111_lstm1_cont_slice_110_split
I1017 12:11:33.266165 27058 net.cpp:129] Top shape: 1 1 (1)
I1017 12:11:33.266170 27058 net.cpp:129] Top shape: 1 1 (1)
I1017 12:11:33.266173 27058 net.cpp:137] Memory required for data: 160216
I1017 12:11:33.266177 27058 layer_factory.hpp:77] Creating layer cont_112_lstm1_cont_slice_111_split
I1017 12:11:33.266183 27058 net.cpp:84] Creating Layer cont_112_lstm1_cont_slice_111_split
I1017 12:11:33.266187 27058 net.cpp:406] cont_112_lstm1_cont_slice_111_split <- cont_112
I1017 12:11:33.266193 27058 net.cpp:380] cont_112_lstm1_cont_slice_111_split -> cont_112_lstm1_cont_slice_111_split_0
I1017 12:11:33.266201 27058 net.cpp:380] cont_112_lstm1_cont_slice_111_split -> cont_112_lstm1_cont_slice_111_split_1
I1017 12:11:33.266230 27058 net.cpp:122] Setting up cont_112_lstm1_cont_slice_111_split
I1017 12:11:33.266237 27058 net.cpp:129] Top shape: 1 1 (1)
I1017 12:11:33.266242 27058 net.cpp:129] Top shape: 1 1 (1)
I1017 12:11:33.306607 27058 net.cpp:137] Memory required for data: 160224
I1017 12:11:33.306638 27058 layer_factory.hpp:77] Creating layer cont_113_lstm1_cont_slice_112_split
I1017 12:11:33.306660 27058 net.cpp:84] Creating Layer cont_113_lstm1_cont_slice_112_split
I1017 12:11:33.306679 27058 net.cpp:406] cont_113_lstm1_cont_slice_112_split <- cont_113
I1017 12:11:33.306704 27058 net.cpp:380] cont_113_lstm1_cont_slice_112_split -> cont_113_lstm1_cont_slice_112_split_0
I1017 12:11:33.306735 27058 net.cpp:380] cont_113_lstm1_cont_slice_112_split -> cont_113_lstm1_cont_slice_112_split_1
I1017 12:11:33.306851 27058 net.cpp:122] Setting up cont_113_lstm1_cont_slice_112_split
I1017 12:11:33.306864 27058 net.cpp:129] Top shape: 1 1 (1)
I1017 12:11:33.306874 27058 net.cpp:129] Top shape: 1 1 (1)
I1017 12:11:33.306880 27058 net.cpp:137] Memory required for data: 160232
I1017 12:11:33.306886 27058 layer_factory.hpp:77] Creating layer cont_114_lstm1_cont_slice_113_split
I1017 12:11:33.306896 27058 net.cpp:84] Creating Layer cont_114_lstm1_cont_slice_113_split
I1017 12:11:33.306905 27058 net.cpp:406] cont_114_lstm1_cont_slice_113_split <- cont_114
I1017 12:11:33.306916 27058 net.cpp:380] cont_114_lstm1_cont_slice_113_split -> cont_114_lstm1_cont_slice_113_split_0
I1017 12:11:33.306929 27058 net.cpp:380] cont_114_lstm1_cont_slice_113_split -> cont_114_lstm1_cont_slice_113_split_1
I1017 12:11:33.306978 27058 net.cpp:122] Setting up cont_114_lstm1_cont_slice_113_split
I1017 12:11:33.306988 27058 net.cpp:129] Top shape: 1 1 (1)
I1017 12:11:33.306996 27058 net.cpp:129] Top shape: 1 1 (1)
I1017 12:11:33.307003 27058 net.cpp:137] Memory required for data: 160240
…
I1017 12:11:39.382427 27058 net.cpp:406] lstm1_gate_input_183 <- W_xc_x_183
I1017 12:11:39.382434 27058 net.cpp:380] lstm1_gate_input_183 -> gate_input_183
I1017 12:11:39.382467 27058 net.cpp:122] Setting up lstm1_gate_input_183
I1017 12:11:39.382474 27058 net.cpp:129] Top shape: 1 150 2048 (307200)
I1017 12:11:39.382477 27058 net.cpp:137] Memory required for data: 1235424000
I1017 12:11:39.382483 27058 layer_factory.hpp:77] Creating layer lstm1_unit_183
I1017 12:11:39.382490 27058 net.cpp:84] Creating Layer lstm1_unit_183
I1017 12:11:39.382495 27058 net.cpp:406] lstm1_unit_183 <- c_182
I1017 12:11:39.382504 27058 net.cpp:406] lstm1_unit_183 <- gate_input_183
I1017 12:11:39.382510 27058 net.cpp:406] lstm1_unit_183 <- cont_183_lstm1_cont_slice_182_split_1
I1017 12:11:39.382516 27058 net.cpp:380] lstm1_unit_183 -> c_183
I1017 12:11:39.382525 27058 net.cpp:380] lstm1_unit_183 -> h_183
I1017 12:11:39.382575 27058 net.cpp:122] Setting up lstm1_unit_183
I1017 12:11:39.382582 27058 net.cpp:129] Top shape: 1 150 512 (76800)
I1017 12:11:39.382587 27058 net.cpp:129] Top shape: 1 150 512 (76800)
I1017 12:11:39.382591 27058 net.cpp:137] Memory required for data: 1236038400
I1017 12:11:39.382596 27058 layer_factory.hpp:77] Creating layer h_183_lstm1_unit_183_1_split
I1017 12:11:39.382601 27058 net.cpp:84] Creating Layer h_183_lstm1_unit_183_1_split
I1017 12:11:39.382606 27058 net.cpp:406] h_183_lstm1_unit_183_1_split <- h_183
I1017 12:11:39.382612 27058 net.cpp:380] h_183_lstm1_unit_183_1_split -> h_183_lstm1_unit_183_1_split_0
I1017 12:11:39.382622 27058 net.cpp:380] h_183_lstm1_unit_183_1_split -> h_183_lstm1_unit_183_1_split_1
I1017 12:11:39.382656 27058 net.cpp:122] Setting up h_183_lstm1_unit_183_1_split
I1017 12:11:39.382663 27058 net.cpp:129] Top shape: 1 150 512 (76800)
I1017 12:11:39.382668 27058 net.cpp:129] Top shape: 1 150 512 (76800)
I1017 12:11:39.382671 27058 net.cpp:137] Memory required for data: 1236652800
I1017 12:11:39.382675 27058 layer_factory.hpp:77] Creating layer lstm1_h_conted_183
I1017 12:11:39.382684 27058 net.cpp:84] Creating Layer lstm1_h_conted_183
I1017 12:11:39.382689 27058 net.cpp:406] lstm1_h_conted_183 <- h_183_lstm1_unit_183_1_split_0
I1017 12:11:39.382696 27058 net.cpp:406] lstm1_h_conted_183 <- cont_184_lstm1_cont_slice_183_split_0
I1017 12:11:39.382704 27058 net.cpp:380] lstm1_h_conted_183 -> h_conted_183
I1017 12:11:39.382782 27058 net.cpp:122] Setting up lstm1_h_conted_183
I1017 12:11:39.382799 27058 net.cpp:129] Top shape: 1 150 512 (76800)
I1017 12:11:39.382803 27058 net.cpp:137] Memory required for data: 1236960000
I1017 12:11:39.382809 27058 layer_factory.hpp:77] Creating layer lstm1_transform_184
I1017 12:11:39.382819 27058 net.cpp:84] Creating Layer lstm1_transform_184
I1017 12:11:39.382825 27058 net.cpp:406] lstm1_transform_184 <- h_conted_183
I1017 12:11:39.382833 27058 net.cpp:380] lstm1_transform_184 -> W_hc_h_183
I1017 12:11:39.394639 27058 net.cpp:122] Setting up lstm1_transform_184
I1017 12:11:39.394656 27058 net.cpp:129] Top shape: 1 150 2048 (307200)
I1017 12:11:39.394661 27058 net.cpp:137] Memory required for data: 1238188800
I1017 12:11:39.394666 27058 net.cpp:465] Sharing parameters 'W_hc' owned by layer 'lstm1_transform_1', param index 0
I1017 12:11:39.394672 27058 layer_factory.hpp:77] Creating layer lstm1_gate_input_184
I1017 12:11:39.394681 27058 net.cpp:84] Creating Layer lstm1_gate_input_184
I1017 12:11:39.394688 27058 net.cpp:406] lstm1_gate_input_184 <- W_hc_h_183
I1017 12:11:39.394695 27058 net.cpp:406] lstm1_gate_input_184 <- W_xc_x_184
I1017 12:11:39.394703 27058 net.cpp:380] lstm1_gate_input_184 -> gate_input_184
I1017 12:11:39.394734 27058 net.cpp:122] Setting up lstm1_gate_input_184
I1017 12:11:39.394742 27058 net.cpp:129] Top shape: 1 150 2048 (307200)
I1017 12:11:39.394745 27058 net.cpp:137] Memory required for data: 1239417600
I1017 12:11:39.394749 27058 layer_factory.hpp:77] Creating layer lstm1_unit_184
I1017 12:11:39.394755 27058 net.cpp:84] Creating Layer lstm1_unit_184
I1017 12:11:39.394762 27058 net.cpp:406] lstm1_unit_184 <- c_183
I1017 12:11:39.394767 27058 net.cpp:406] lstm1_unit_184 <- gate_input_184
I1017 12:11:39.394773 27058 net.cpp:406] lstm1_unit_184 <- cont_184_lstm1_cont_slice_183_split_1
I1017 12:11:39.394783 27058 net.cpp:380] lstm1_unit_184 -> c_184
I1017 12:11:39.394791 27058 net.cpp:380] lstm1_unit_184 -> h_184
I1017 12:11:39.394840 27058 net.cpp:122] Setting up lstm1_unit_184
I1017 12:11:39.394847 27058 net.cpp:129] Top shape: 1 150 512 (76800)
I1017 12:11:39.394852 27058 net.cpp:129] Top shape: 1 150 512 (76800)
I1017 12:11:39.394856 27058 net.cpp:137] Memory required for data: 1240032000
I1017 12:11:39.394860 27058 layer_factory.hpp:77] Creating layer h_184_lstm1_unit_184_1_split
I1017 12:11:39.394866 27058 net.cpp:84] Creating Layer h_184_lstm1_unit_184_1_split
I1017 12:11:39.394871 27058 net.cpp:406] h_184_lstm1_unit_184_1_split <- h_184
I1017 12:11:39.394877 27058 net.cpp:380] h_184_lstm1_unit_184_1_split -> h_184_lstm1_unit_184_1_split_0
I1017 12:11:39.394886 27058 net.cpp:380] h_184_lstm1_unit_184_1_split -> h_184_lstm1_unit_184_1_split_1
I1017 12:11:39.394924 27058 net.cpp:122] Setting up h_184_lstm1_unit_184_1_split
I1017 12:11:39.394930 27058 net.cpp:129] Top shape: 1 150 512 (76800)
I1017 12:11:39.394935 27058 net.cpp:129] Top shape: 1 150 512 (76800)
I1017 12:11:39.394939 27058 net.cpp:137] Memory required for data: 1240646400
I1017 12:11:39.394943 27058 layer_factory.hpp:77] Creating layer lstm1_h_conted_184
I1017 12:11:39.394953 27058 net.cpp:84] Creating Layer lstm1_h_conted_184
I1017 12:11:39.394958 27058 net.cpp:406] lstm1_h_conted_184 <- h_184_lstm1_unit_184_1_split_0
I1017 12:11:39.394965 27058 net.cpp:406] lstm1_h_conted_184 <- cont_185_lstm1_cont_slice_184_split_0
I1017 12:11:39.394974 27058 net.cpp:380] lstm1_h_conted_184 -> h_conted_184
I1017 12:11:39.395057 27058 net.cpp:122] Setting up lstm1_h_conted_184
I1017 12:11:39.395067 27058 net.cpp:129] Top shape: 1 150 512 (76800)
I1017 12:11:39.395071 27058 net.cpp:137] Memory required for data: 1240953600
I1017 12:11:39.395076 27058 layer_factory.hpp:77] Creating layer lstm1_transform_185
I1017 12:11:39.395083 27058 net.cpp:84] Creating Layer lstm1_transform_185
I1017 12:11:39.395089 27058 net.cpp:406] lstm1_transform_185 <- h_conted_184
I1017 12:11:39.395099 27058 net.cpp:380] lstm1_transform_185 -> W_hc_h_184
I1017 12:11:39.406826 27058 net.cpp:122] Setting up lstm1_transform_185
I1017 12:11:39.406970 27058 net.cpp:129] Top shape: 1 150 2048 (307200)
I1017 12:11:39.406978 27058 net.cpp:137] Memory required for data: 1242182400
I1017 12:11:39.406985 27058 net.cpp:465] Sharing parameters 'W_hc' owned by layer 'lstm1_transform_1', param index 0
I1017 12:11:39.406991 27058 layer_factory.hpp:77] Creating layer lstm1_gate_input_185
I1017 12:11:39.406998 27058 net.cpp:84] Creating Layer lstm1_gate_input_185
I1017 12:11:39.407004 27058 net.cpp:406] lstm1_gate_input_185 <- W_hc_h_184
I1017 12:11:39.407011 27058 net.cpp:406] lstm1_gate_input_185 <- W_xc_x_185
I1017 12:11:39.407021 27058 net.cpp:380] lstm1_gate_input_185 -> gate_input_185
I1017 12:11:39.407058 27058 net.cpp:122] Setting up lstm1_gate_input_185
I1017 12:11:39.407066 27058 net.cpp:129] Top shape: 1 150 2048 (307200)
I1017 12:11:39.407070 27058 net.cpp:137] Memory required for data: 1243411200
I1017 12:11:39.407074 27058 layer_factory.hpp:77] Creating layer lstm1_unit_185
I1017 12:11:39.407083 27058 net.cpp:84] Creating Layer lstm1_unit_185
I1017 12:11:39.407088 27058 net.cpp:406] lstm1_unit_185 <- c_184
I1017 12:11:39.407095 27058 net.cpp:406] lstm1_unit_185 <- gate_input_185
I1017 12:11:39.407101 27058 net.cpp:406] lstm1_unit_185 <- cont_185_lstm1_cont_slice_184_split_1
I1017 12:11:39.407107 27058 net.cpp:380] lstm1_unit_185 -> c_185
I1017 12:11:39.407116 27058 net.cpp:380] lstm1_unit_185 -> h_185
I1017 12:11:39.407166 27058 net.cpp:122] Setting up lstm1_unit_185
I1017 12:11:39.407173 27058 net.cpp:129] Top shape: 1 150 512 (76800)
I1017 12:11:39.407178 27058 net.cpp:129] Top shape: 1 150 512 (76800)
I1017 12:11:39.407182 27058 net.cpp:137] Memory required for data: 1244025600
I1017 12:11:39.407186 27058 layer_factory.hpp:77] Creating layer h_185_lstm1_unit_185_1_split
I1017 12:11:39.407192 27058 net.cpp:84] Creating Layer h_185_lstm1_unit_185_1_split
I1017 12:11:39.407197 27058 net.cpp:406] h_185_lstm1_unit_185_1_split <- h_185
I1017 12:11:39.407203 27058 net.cpp:380] h_185_lstm1_unit_185_1_split -> h_185_lstm1_unit_185_1_split_0
I1017 12:11:39.407212 27058 net.cpp:380] h_185_lstm1_unit_185_1_split -> h_185_lstm1_unit_185_1_split_1
I1017 12:11:39.407248 27058 net.cpp:122] Setting up h_185_lstm1_unit_185_1_split
I1017 12:11:39.407255 27058 net.cpp:129] Top shape: 1 150 512 (76800)
I1017 12:11:39.407260 27058 net.cpp:129] Top shape: 1 150 512 (76800)
I1017 12:11:39.407264 27058 net.cpp:137] Memory required for data: 1244640000
I1017 12:11:39.407269 27058 layer_factory.hpp:77] Creating layer lstm1_h_conted_185
I1017 12:11:39.407276 27058 net.cpp:84] Creating Layer lstm1_h_conted_185
I1017 12:11:39.407282 27058 net.cpp:406] lstm1_h_conted_185 <- h_185_lstm1_unit_185_1_split_0
I1017 12:11:39.407289 27058 net.cpp:406] lstm1_h_conted_185 <- cont_186_lstm1_cont_slice_185_split_0
I1017 12:11:39.407296 27058 net.cpp:380] lstm1_h_conted_185 -> h_conted_185
I1017 12:11:39.407379 27058 net.cpp:122] Setting up lstm1_h_conted_185
I1017 12:11:39.407390 27058 net.cpp:129] Top shape: 1 150 512 (76800)
I1017 12:11:39.407394 27058 net.cpp:137] Memory required for data: 1244947200
I1017 12:11:39.407398 27058 layer_factory.hpp:77] Creating layer lstm1_transform_186
I1017 12:11:39.407407 27058 net.cpp:84] Creating Layer lstm1_transform_186
I1017 12:11:39.407413 27058 net.cpp:406] lstm1_transform_186 <- h_conted_185
I1017 12:11:39.407423 27058 net.cpp:380] lstm1_transform_186 -> W_hc_h_185
I1017 12:11:39.419721 27058 net.cpp:122] Setting up lstm1_transform_186
I1017 12:11:39.419739 27058 net.cpp:129] Top shape: 1 150 2048 (307200)
I1017 12:11:39.419744 27058 net.cpp:137] Memory required for data: 1246176000
I1017 12:11:39.419750 27058 net.cpp:465] Sharing parameters 'W_hc' owned by layer 'lstm1_transform_1', param index 0
I1017 12:11:39.419755 27058 layer_factory.hpp:77] Creating layer lstm1_gate_input_186
I1017 12:11:39.419767 27058 net.cpp:84] Creating Layer lstm1_gate_input_186
I1017 12:11:39.419775 27058 net.cpp:406] lstm1_gate_input_186 <- W_hc_h_185
I1017 12:11:39.419781 27058 net.cpp:406] lstm1_gate_input_186 <- W_xc_x_186
I1017 12:11:39.419790 27058 net.cpp:380] lstm1_gate_input_186 -> gate_input_186
I1017 12:11:39.419824 27058 net.cpp:122] Setting up lstm1_gate_input_186
I1017 12:11:39.419831 27058 net.cpp:129] Top shape: 1 150 2048 (307200)
I1017 12:11:39.419836 27058 net.cpp:137] Memory required for data: 1247404800
I1017 12:11:39.419840 27058 layer_factory.hpp:77] Creating layer lstm1_unit_186
I1017 12:11:39.419853 27058 net.cpp:84] Creating Layer lstm1_unit_186
I1017 12:11:39.419859 27058 net.cpp:406] lstm1_unit_186 <- c_185
I1017 12:11:39.419867 27058 net.cpp:406] lstm1_unit_186 <- gate_input_186
I1017 12:11:39.419872 27058 net.cpp:406] lstm1_unit_186 <- cont_186_lstm1_cont_slice_185_split_1
I1017 12:11:39.419878 27058 net.cpp:380] lstm1_unit_186 -> c_186
I1017 12:11:39.419886 27058 net.cpp:380] lstm1_unit_186 -> h_186
I1017 12:11:39.419937 27058 net.cpp:122] Setting up lstm1_unit_186
I1017 12:11:39.419945 27058 net.cpp:129] Top shape: 1 150 512 (76800)
I1017 12:11:39.419950 27058 net.cpp:129] Top shape: 1 150 512 (76800)
I1017 12:11:39.419953 27058 net.cpp:137] Memory required for data: 1248019200
I1017 12:11:39.419957 27058 layer_factory.hpp:77] Creating layer h_186_lstm1_unit_186_1_split
I1017 12:11:39.419966 27058 net.cpp:84] Creating Layer h_186_lstm1_unit_186_1_split
I1017 12:11:39.419971 27058 net.cpp:406] h_186_lstm1_unit_186_1_split <- h_186
I1017 12:11:39.419977 27058 net.cpp:380] h_186_lstm1_unit_186_1_split -> h_186_lstm1_unit_186_1_split_0
I1017 12:11:39.419986 27058 net.cpp:380] h_186_lstm1_unit_186_1_split -> h_186_lstm1_unit_186_1_split_1
I1017 12:11:39.420022 27058 net.cpp:122] Setting up h_186_lstm1_unit_186_1_split
I1017 12:11:39.420033 27058 net.cpp:129] Top shape: 1 150 512 (76800)
I1017 12:11:39.420039 27058 net.cpp:129] Top shape: 1 150 512 (76800)
I1017 12:11:39.420043 27058 net.cpp:137] Memory required for data: 1248633600
I1017 12:11:39.420047 27058 layer_factory.hpp:77] Creating layer lstm1_h_conted_186
I1017 12:11:39.420056 27058 net.cpp:84] Creating Layer lstm1_h_conted_186
I1017 12:11:39.420061 27058 net.cpp:406] lstm1_h_conted_186 <- h_186_lstm1_unit_186_1_split_0
I1017 12:11:39.420069 27058 net.cpp:406] lstm1_h_conted_186 <- cont_187_lstm1_cont_slice_186_split_0
I1017 12:11:39.420078 27058 net.cpp:380] lstm1_h_conted_186 -> h_conted_186
I1017 12:11:39.420177 27058 net.cpp:122] Setting up lstm1_h_conted_186
I1017 12:11:39.420188 27058 net.cpp:129] Top shape: 1 150 512 (76800)
I1017 12:11:39.420192 27058 net.cpp:137] Memory required for data: 1248940800
I1017 12:11:39.420197 27058 layer_factory.hpp:77] Creating layer lstm1_transform_187
I1017 12:11:39.420205 27058 net.cpp:84] Creating Layer lstm1_transform_187
I1017 12:11:39.420212 27058 net.cpp:406] lstm1_transform_187 <- h_conted_186
I1017 12:11:39.420218 27058 net.cpp:380] lstm1_transform_187 -> W_hc_h_186
I1017 12:11:39.431988 27058 net.cpp:122] Setting up lstm1_transform_187
I1017 12:11:39.432003 27058 net.cpp:129] Top shape: 1 150 2048 (307200)
I1017 12:11:39.432008 27058 net.cpp:137] Memory required for data: 1250169600
I1017 12:11:39.432013 27058 net.cpp:465] Sharing parameters 'W_hc' owned by layer 'lstm1_transform_1', param index 0
I1017 12:11:39.432019 27058 layer_factory.hpp:77] Creating layer lstm1_gate_input_187
I1017 12:11:39.432030 27058 net.cpp:84] Creating Layer lstm1_gate_input_187
I1017 12:11:39.432037 27058 net.cpp:406] lstm1_gate_input_187 <- W_hc_h_186
I1017 12:11:39.432044 27058 net.cpp:406] lstm1_gate_input_187 <- W_xc_x_187
I1017 12:11:39.432052 27058 net.cpp:380] lstm1_gate_input_187 -> gate_input_187
I1017 12:11:39.432090 27058 net.cpp:122] Setting up lstm1_gate_input_187
I1017 12:11:39.432096 27058 net.cpp:129] Top shape: 1 150 2048 (307200)
I1017 12:11:39.432101 27058 net.cpp:137] Memory required for data: 1251398400
I1017 12:11:39.432106 27058 layer_factory.hpp:77] Creating layer lstm1_unit_187
I1017 12:11:39.432112 27058 net.cpp:84] Creating Layer lstm1_unit_187
I1017 12:11:39.432118 27058 net.cpp:406] lstm1_unit_187 <- c_186
I1017 12:11:39.432124 27058 net.cpp:406] lstm1_unit_187 <- gate_input_187
I1017 12:11:39.432130 27058 net.cpp:406] lstm1_unit_187 <- cont_187_lstm1_cont_slice_186_split_1
I1017 12:11:39.432138 27058 net.cpp:380] lstm1_unit_187 -> c_187
I1017 12:11:39.432147 27058 net.cpp:380] lstm1_unit_187 -> h_187
I1017 12:11:39.432199 27058 net.cpp:122] Setting up lstm1_unit_187
I1017 12:11:39.432205 27058 net.cpp:129] Top shape: 1 150 512 (76800)
I1017 12:11:39.432210 27058 net.cpp:129] Top shape: 1 150 512 (76800)
I1017 12:11:39.432214 27058 net.cpp:137] Memory required for data: 1252012800
I1017 12:11:39.432219 27058 layer_factory.hpp:77] Creating layer h_187_lstm1_unit_187_1_split
I1017 12:11:39.432225 27058 net.cpp:84] Creating Layer h_187_lstm1_unit_187_1_split
I1017 12:11:39.432230 27058 net.cpp:406] h_187_lstm1_unit_187_1_split <- h_187
I1017 12:11:39.432237 27058 net.cpp:380] h_187_lstm1_unit_187_1_split -> h_187_lstm1_unit_187_1_split_0
I1017 12:11:39.432245 27058 net.cpp:380] h_187_lstm1_unit_187_1_split -> h_187_lstm1_unit_187_1_split_1
I1017 12:11:39.432282 27058 net.cpp:122] Setting up h_187_lstm1_unit_187_1_split
I1017 12:11:39.432288 27058 net.cpp:129] Top shape: 1 150 512 (76800)
I1017 12:11:39.432293 27058 net.cpp:129] Top shape: 1 150 512 (76800)
I1017 12:11:39.432297 27058 net.cpp:137] Memory required for data: 1252627200
I1017 12:11:39.432301 27058 layer_factory.hpp:77] Creating layer lstm1_h_conted_187
I1017 12:11:39.432312 27058 net.cpp:84] Creating Layer lstm1_h_conted_187
I1017 12:11:39.432317 27058 net.cpp:406] lstm1_h_conted_187 <- h_187_lstm1_unit_187_1_split_0
I1017 12:11:39.432324 27058 net.cpp:406] lstm1_h_conted_187 <- cont_188_lstm1_cont_slice_187_split_0
I1017 12:11:39.432332 27058 net.cpp:380] lstm1_h_conted_187 -> h_conted_187
I1017 12:11:39.432413 27058 net.cpp:122] Setting up lstm1_h_conted_187
I1017 12:11:39.432423 27058 net.cpp:129] Top shape: 1 150 512 (76800)
I1017 12:11:39.432427 27058 net.cpp:137] Memory required for data: 1252934400
I1017 12:11:39.432432 27058 layer_factory.hpp:77] Creating layer lstm1_transform_188
I1017 12:11:39.432442 27058 net.cpp:84] Creating Layer lstm1_transform_188
I1017 12:11:39.432447 27058 net.cpp:406] lstm1_transform_188 <- h_conted_187
I1017 12:11:39.432456 27058 net.cpp:380] lstm1_transform_188 -> W_hc_h_187
I1017 12:11:39.444303 27058 net.cpp:122] Setting up lstm1_transform_188
I1017 12:11:39.444319 27058 net.cpp:129] Top shape: 1 150 2048 (307200)
I1017 12:11:39.444324 27058 net.cpp:137] Memory required for data: 1254163200
I1017 12:11:39.444329 27058 net.cpp:465] Sharing parameters 'W_hc' owned by layer 'lstm1_transform_1', param index 0
I1017 12:11:39.444334 27058 layer_factory.hpp:77] Creating layer lstm1_gate_input_188
I1017 12:11:39.444344 27058 net.cpp:84] Creating Layer lstm1_gate_input_188
I1017 12:11:39.444350 27058 net.cpp:406] lstm1_gate_input_188 <- W_hc_h_187
I1017 12:11:39.444356 27058 net.cpp:406] lstm1_gate_input_188 <- W_xc_x_188
I1017 12:11:39.444363 27058 net.cpp:380] lstm1_gate_input_188 -> gate_input_188
I1017 12:11:39.444396 27058 net.cpp:122] Setting up lstm1_gate_input_188
I1017 12:11:39.444402 27058 net.cpp:129] Top shape: 1 150 2048 (307200)
I1017 12:11:39.444406 27058 net.cpp:137] Memory required for data: 1255392000
I1017 12:11:39.444411 27058 layer_factory.hpp:77] Creating layer lstm1_unit_188
I1017 12:11:39.444422 27058 net.cpp:84] Creating Layer lstm1_unit_188
I1017 12:11:39.444427 27058 net.cpp:406] lstm1_unit_188 <- c_187
I1017 12:11:39.444433 27058 net.cpp:406] lstm1_unit_188 <- gate_input_188
I1017 12:11:39.444439 27058 net.cpp:406] lstm1_unit_188 <- cont_188_lstm1_cont_slice_187_split_1
I1017 12:11:39.444447 27058 net.cpp:380] lstm1_unit_188 -> c_188
I1017 12:11:39.444455 27058 net.cpp:380] lstm1_unit_188 -> h_188
I1017 12:11:39.444506 27058 net.cpp:122] Setting up lstm1_unit_188
I1017 12:11:39.444514 27058 net.cpp:129] Top shape: 1 150 512 (76800)
I1017 12:11:39.444519 27058 net.cpp:129] Top shape: 1 150 512 (76800)
I1017 12:11:39.444522 27058 net.cpp:137] Memory required for data: 1256006400
I1017 12:11:39.444526 27058 layer_factory.hpp:77] Creating layer h_188_lstm1_unit_188_1_split
I1017 12:11:39.444532 27058 net.cpp:84] Creating Layer h_188_lstm1_unit_188_1_split
I1017 12:11:39.444537 27058 net.cpp:406] h_188_lstm1_unit_188_1_split <- h_188
I1017 12:11:39.444545 27058 net.cpp:380] h_188_lstm1_unit_188_1_split -> h_188_lstm1_unit_188_1_split_0
I1017 12:11:39.444553 27058 net.cpp:380] h_188_lstm1_unit_188_1_split -> h_188_lstm1_unit_188_1_split_1
I1017 12:11:39.444587 27058 net.cpp:122] Setting up h_188_lstm1_unit_188_1_split
I1017 12:11:39.444594 27058 net.cpp:129] Top shape: 1 150 512 (76800)
I1017 12:11:39.444599 27058 net.cpp:129] Top shape: 1 150 512 (76800)
I1017 12:11:39.444603 27058 net.cpp:137] Memory required for data: 1256620800
I1017 12:11:39.444607 27058 layer_factory.hpp:77] Creating layer lstm1_h_conted_188
I1017 12:11:39.444617 27058 net.cpp:84] Creating Layer lstm1_h_conted_188
I1017 12:11:39.444622 27058 net.cpp:406] lstm1_h_conted_188 <- h_188_lstm1_unit_188_1_split_0
I1017 12:11:39.444628 27058 net.cpp:406] lstm1_h_conted_188 <- cont_189_lstm1_cont_slice_188_split_0
I1017 12:11:39.444638 27058 net.cpp:380] lstm1_h_conted_188 -> h_conted_188
I1017 12:11:39.444720 27058 net.cpp:122] Setting up lstm1_h_conted_188
I1017 12:11:39.444730 27058 net.cpp:129] Top shape: 1 150 512 (76800)
I1017 12:11:39.444735 27058 net.cpp:137] Memory required for data: 1256928000
I1017 12:11:39.444738 27058 layer_factory.hpp:77] Creating layer lstm1_transform_189
I1017 12:11:39.444748 27058 net.cpp:84] Creating Layer lstm1_transform_189
I1017 12:11:39.444754 27058 net.cpp:406] lstm1_transform_189 <- h_conted_188
I1017 12:11:39.444763 27058 net.cpp:380] lstm1_transform_189 -> W_hc_h_188
I1017 12:11:39.456593 27058 net.cpp:122] Setting up lstm1_transform_189
I1017 12:11:39.456609 27058 net.cpp:129] Top shape: 1 150 2048 (307200)
I1017 12:11:39.456612 27058 net.cpp:137] Memory required for data: 1258156800
I1017 12:11:39.456619 27058 net.cpp:465] Sharing parameters 'W_hc' owned by layer 'lstm1_transform_1', param index 0
I1017 12:11:39.456624 27058 layer_factory.hpp:77] Creating layer lstm1_gate_input_189
I1017 12:11:39.456634 27058 net.cpp:84] Creating Layer lstm1_gate_input_189
I1017 12:11:39.456640 27058 net.cpp:406] lstm1_gate_input_189 <- W_hc_h_188
I1017 12:11:39.456647 27058 net.cpp:406] lstm1_gate_input_189 <- W_xc_x_189
I1017 12:11:39.456655 27058 net.cpp:380] lstm1_gate_input_189 -> gate_input_189
I1017 12:11:39.456687 27058 net.cpp:122] Setting up lstm1_gate_input_189
I1017 12:11:39.456696 27058 net.cpp:129] Top shape: 1 150 2048 (307200)
I1017 12:11:39.456699 27058 net.cpp:137] Memory required for data: 1259385600
I1017 12:11:39.456704 27058 layer_factory.hpp:77] Creating layer lstm1_unit_189
I1017 12:11:39.456713 27058 net.cpp:84] Creating Layer lstm1_unit_189
I1017 12:11:39.456718 27058 net.cpp:406] lstm1_unit_189 <- c_188
I1017 12:11:39.456725 27058 net.cpp:406] lstm1_unit_189 <- gate_input_189
I1017 12:11:39.456732 27058 net.cpp:406] lstm1_unit_189 <- cont_189_lstm1_cont_slice_188_split_1
I1017 12:11:39.456738 27058 net.cpp:380] lstm1_unit_189 -> c_189
I1017 12:11:39.456746 27058 net.cpp:380] lstm1_unit_189 -> h_189
I1017 12:11:39.456796 27058 net.cpp:122] Setting up lstm1_unit_189
I1017 12:11:39.456804 27058 net.cpp:129] Top shape: 1 150 512 (76800)
I1017 12:11:39.456809 27058 net.cpp:129] Top shape: 1 150 512 (76800)
I1017 12:11:39.456814 27058 net.cpp:137] Memory required for data: 1260000000
I1017 12:11:39.456817 27058 layer_factory.hpp:77] Creating layer h_189_lstm1_unit_189_1_split
I1017 12:11:39.456823 27058 net.cpp:84] Creating Layer h_189_lstm1_unit_189_1_split
I1017 12:11:39.456828 27058 net.cpp:406] h_189_lstm1_unit_189_1_split <- h_189
I1017 12:11:39.456835 27058 net.cpp:380] h_189_lstm1_unit_189_1_split -> h_189_lstm1_unit_189_1_split_0
I1017 12:11:39.456845 27058 net.cpp:380] h_189_lstm1_unit_189_1_split -> h_189_lstm1_unit_189_1_split_1
I1017 12:11:39.456879 27058 net.cpp:122] Setting up h_189_lstm1_unit_189_1_split
I1017 12:11:39.456887 27058 net.cpp:129] Top shape: 1 150 512 (76800)
I1017 12:11:39.456892 27058 net.cpp:129] Top shape: 1 150 512 (76800)
I1017 12:11:39.456895 27058 net.cpp:137] Memory required for data: 1260614400
I1017 12:11:39.456899 27058 layer_factory.hpp:77] Creating layer lstm1_h_conted_189
I1017 12:11:39.456907 27058 net.cpp:84] Creating Layer lstm1_h_conted_189
I1017 12:11:39.456912 27058 net.cpp:406] lstm1_h_conted_189 <- h_189_lstm1_unit_189_1_split_0
I1017 12:11:39.456919 27058 net.cpp:406] lstm1_h_conted_189 <- cont_190_lstm1_cont_slice_189_split_0
I1017 12:11:39.456928 27058 net.cpp:380] lstm1_h_conted_189 -> h_conted_189
I1017 12:11:39.457010 27058 net.cpp:122] Setting up lstm1_h_conted_189
I1017 12:11:39.457031 27058 net.cpp:129] Top shape: 1 150 512 (76800)
I1017 12:11:39.457036 27058 net.cpp:137] Memory required for data: 1260921600
I1017 12:11:39.457041 27058 layer_factory.hpp:77] Creating layer lstm1_transform_190
I1017 12:11:39.457052 27058 net.cpp:84] Creating Layer lstm1_transform_190
I1017 12:11:39.457058 27058 net.cpp:406] lstm1_transform_190 <- h_conted_189
I1017 12:11:39.457067 27058 net.cpp:380] lstm1_transform_190 -> W_hc_h_189
I1017 12:11:39.468848 27058 net.cpp:122] Setting up lstm1_transform_190
I1017 12:11:39.468873 27058 net.cpp:129] Top shape: 1 150 2048 (307200)
I1017 12:11:39.468878 27058 net.cpp:137] Memory required for data: 1262150400
I1017 12:11:39.468883 27058 net.cpp:465] Sharing parameters 'W_hc' owned by layer 'lstm1_transform_1', param index 0
I1017 12:11:39.468889 27058 layer_factory.hpp:77] Creating layer lstm1_gate_input_190
I1017 12:11:39.468902 27058 net.cpp:84] Creating Layer lstm1_gate_input_190
I1017 12:11:39.468909 27058 net.cpp:406] lstm1_gate_input_190 <- W_hc_h_189
I1017 12:11:39.468917 27058 net.cpp:406] lstm1_gate_input_190 <- W_xc_x_190
I1017 12:11:39.468927 27058 net.cpp:380] lstm1_gate_input_190 -> gate_input_190
I1017 12:11:39.468964 27058 net.cpp:122] Setting up lstm1_gate_input_190
I1017 12:11:39.468972 27058 net.cpp:129] Top shape: 1 150 2048 (307200)
I1017 12:11:39.468976 27058 net.cpp:137] Memory required for data: 1263379200
I1017 12:11:39.468981 27058 layer_factory.hpp:77] Creating layer lstm1_unit_190
I1017 12:11:39.468987 27058 net.cpp:84] Creating Layer lstm1_unit_190
I1017 12:11:39.468993 27058 net.cpp:406] lstm1_unit_190 <- c_189
I1017 12:11:39.469000 27058 net.cpp:406] lstm1_unit_190 <- gate_input_190
I1017 12:11:39.469007 27058 net.cpp:406] lstm1_unit_190 <- cont_190_lstm1_cont_slice_189_split_1
I1017 12:11:39.469017 27058 net.cpp:380] lstm1_unit_190 -> c_190
I1017 12:11:39.469025 27058 net.cpp:380] lstm1_unit_190 -> h_190
I1017 12:11:39.469084 27058 net.cpp:122] Setting up lstm1_unit_190
I1017 12:11:39.469092 27058 net.cpp:129] Top shape: 1 150 512 (76800)
I1017 12:11:39.469097 27058 net.cpp:129] Top shape: 1 150 512 (76800)
I1017 12:11:39.469101 27058 net.cpp:137] Memory required for data: 1263993600
I1017 12:11:39.469105 27058 layer_factory.hpp:77] Creating layer h_190_lstm1_unit_190_1_split
I1017 12:11:39.469111 27058 net.cpp:84] Creating Layer h_190_lstm1_unit_190_1_split
I1017 12:11:39.469117 27058 net.cpp:406] h_190_lstm1_unit_190_1_split <- h_190
I1017 12:11:39.469125 27058 net.cpp:380] h_190_lstm1_unit_190_1_split -> h_190_lstm1_unit_190_1_split_0
I1017 12:11:39.469132 27058 net.cpp:380] h_190_lstm1_unit_190_1_split -> h_190_lstm1_unit_190_1_split_1
I1017 12:11:39.469171 27058 net.cpp:122] Setting up h_190_lstm1_unit_190_1_split
I1017 12:11:39.469178 27058 net.cpp:129] Top shape: 1 150 512 (76800)
I1017 12:11:39.469183 27058 net.cpp:129] Top shape: 1 150 512 (76800)
I1017 12:11:39.469187 27058 net.cpp:137] Memory required for data: 1264608000
I1017 12:11:39.469192 27058 layer_factory.hpp:77] Creating layer lstm1_h_conted_190
I1017 12:11:39.469199 27058 net.cpp:84] Creating Layer lstm1_h_conted_190
I1017 12:11:39.469205 27058 net.cpp:406] lstm1_h_conted_190 <- h_190_lstm1_unit_190_1_split_0
I1017 12:11:39.469211 27058 net.cpp:406] lstm1_h_conted_190 <- cont_191_lstm1_cont_slice_190_split_0
I1017 12:11:39.469221 27058 net.cpp:380] lstm1_h_conted_190 -> h_conted_190
I1017 12:11:39.469324 27058 net.cpp:122] Setting up lstm1_h_conted_190
I1017 12:11:39.469337 27058 net.cpp:129] Top shape: 1 150 512 (76800)
I1017 12:11:39.469341 27058 net.cpp:137] Memory required for data: 1264915200
I1017 12:11:39.469346 27058 layer_factory.hpp:77] Creating layer lstm1_transform_191
I1017 12:11:39.469357 27058 net.cpp:84] Creating Layer lstm1_transform_191
I1017 12:11:39.469362 27058 net.cpp:406] lstm1_transform_191 <- h_conted_190
I1017 12:11:39.469372 27058 net.cpp:380] lstm1_transform_191 -> W_hc_h_190
I1017 12:11:39.481344 27058 net.cpp:122] Setting up lstm1_transform_191
I1017 12:11:39.481364 27058 net.cpp:129] Top shape: 1 150 2048 (307200)
I1017 12:11:39.481369 27058 net.cpp:137] Memory required for data: 1266144000
I1017 12:11:39.481374 27058 net.cpp:465] Sharing parameters 'W_hc' owned by layer 'lstm1_transform_1', param index 0
I1017 12:11:39.481379 27058 layer_factory.hpp:77] Creating layer lstm1_gate_input_191
I1017 12:11:39.481387 27058 net.cpp:84] Creating Layer lstm1_gate_input_191
I1017 12:11:39.481393 27058 net.cpp:406] lstm1_gate_input_191 <- W_hc_h_190
I1017 12:11:39.481401 27058 net.cpp:406] lstm1_gate_input_191 <- W_xc_x_191
I1017 12:11:39.481411 27058 net.cpp:380] lstm1_gate_input_191 -> gate_input_191
I1017 12:11:39.481448 27058 net.cpp:122] Setting up lstm1_gate_input_191
I1017 12:11:39.481456 27058 net.cpp:129] Top shape: 1 150 2048 (307200)
I1017 12:11:39.481459 27058 net.cpp:137] Memory required for data: 1267372800
I1017 12:11:39.481463 27058 layer_factory.hpp:77] Creating layer lstm1_unit_191
I1017 12:11:39.481472 27058 net.cpp:84] Creating Layer lstm1_unit_191
I1017 12:11:39.481477 27058 net.cpp:406] lstm1_unit_191 <- c_190
I1017 12:11:39.481484 27058 net.cpp:406] lstm1_unit_191 <- gate_input_191
I1017 12:11:39.481490 27058 net.cpp:406] lstm1_unit_191 <- cont_191_lstm1_cont_slice_190_split_1
I1017 12:11:39.481498 27058 net.cpp:380] lstm1_unit_191 -> c_191
I1017 12:11:39.481508 27058 net.cpp:380] lstm1_unit_191 -> h_191
I1017 12:11:39.481564 27058 net.cpp:122] Setting up lstm1_unit_191
I1017 12:11:39.481571 27058 net.cpp:129] Top shape: 1 150 512 (76800)
I1017 12:11:39.481576 27058 net.cpp:129] Top shape: 1 150 512 (76800)
I1017 12:11:39.481580 27058 net.cpp:137] Memory required for data: 1267987200
I1017 12:11:39.481585 27058 layer_factory.hpp:77] Creating layer h_191_lstm1_unit_191_1_split
I1017 12:11:39.481590 27058 net.cpp:84] Creating Layer h_191_lstm1_unit_191_1_split
I1017 12:11:39.481595 27058 net.cpp:406] h_191_lstm1_unit_191_1_split <- h_191
I1017 12:11:39.481602 27058 net.cpp:380] h_191_lstm1_unit_191_1_split -> h_191_lstm1_unit_191_1_split_0
I1017 12:11:39.481611 27058 net.cpp:380] h_191_lstm1_unit_191_1_split -> h_191_lstm1_unit_191_1_split_1
I1017 12:11:39.481648 27058 net.cpp:122] Setting up h_191_lstm1_unit_191_1_split
I1017 12:11:39.481655 27058 net.cpp:129] Top shape: 1 150 512 (76800)
I1017 12:11:39.481660 27058 net.cpp:129] Top shape: 1 150 512 (76800)
I1017 12:11:39.481663 27058 net.cpp:137] Memory required for data: 1268601600
I1017 12:11:39.481667 27058 layer_factory.hpp:77] Creating layer lstm1_h_conted_191
I1017 12:11:39.481674 27058 net.cpp:84] Creating Layer lstm1_h_conted_191
I1017 12:11:39.481679 27058 net.cpp:406] lstm1_h_conted_191 <- h_191_lstm1_unit_191_1_split_0
I1017 12:11:39.481688 27058 net.cpp:406] lstm1_h_conted_191 <- cont_192_lstm1_cont_slice_191_split_0
I1017 12:11:39.481696 27058 net.cpp:380] lstm1_h_conted_191 -> h_conted_191
I1017 12:11:39.481782 27058 net.cpp:122] Setting up lstm1_h_conted_191
I1017 12:11:39.481793 27058 net.cpp:129] Top shape: 1 150 512 (76800)
I1017 12:11:39.481797 27058 net.cpp:137] Memory required for data: 1268908800
I1017 12:11:39.481801 27058 layer_factory.hpp:77] Creating layer lstm1_transform_192
I1017 12:11:39.481811 27058 net.cpp:84] Creating Layer lstm1_transform_192
I1017 12:11:39.481817 27058 net.cpp:406] lstm1_transform_192 <- h_conted_191
I1017 12:11:39.481825 27058 net.cpp:380] lstm1_transform_192 -> W_hc_h_191
I1017 12:11:39.493847 27058 net.cpp:122] Setting up lstm1_transform_192
I1017 12:11:39.493870 27058 net.cpp:129] Top shape: 1 150 2048 (307200)
I1017 12:11:39.493875 27058 net.cpp:137] Memory required for data: 1270137600
I1017 12:11:39.493880 27058 net.cpp:465] Sharing parameters 'W_hc' owned by layer 'lstm1_transform_1', param index 0
I1017 12:11:39.493886 27058 layer_factory.hpp:77] Creating layer lstm1_gate_input_192
I1017 12:11:39.493896 27058 net.cpp:84] Creating Layer lstm1_gate_input_192
I1017 12:11:39.493903 27058 net.cpp:406] lstm1_gate_input_192 <- W_hc_h_191
I1017 12:11:39.493911 27058 net.cpp:406] lstm1_gate_input_192 <- W_xc_x_192
I1017 12:11:39.493919 27058 net.cpp:380] lstm1_gate_input_192 -> gate_input_192
I1017 12:11:39.493958 27058 net.cpp:122] Setting up lstm1_gate_input_192
I1017 12:11:39.493965 27058 net.cpp:129] Top shape: 1 150 2048 (307200)
I1017 12:11:39.493969 27058 net.cpp:137] Memory required for data: 1271366400
I1017 12:11:39.493975 27058 layer_factory.hpp:77] Creating layer lstm1_unit_192
I1017 12:11:39.493983 27058 net.cpp:84] Creating Layer lstm1_unit_192
I1017 12:11:39.493988 27058 net.cpp:406] lstm1_unit_192 <- c_191
I1017 12:11:39.493994 27058 net.cpp:406] lstm1_unit_192 <- gate_input_192
I1017 12:11:39.494001 27058 net.cpp:406] lstm1_unit_192 <- cont_192_lstm1_cont_slice_191_split_1
I1017 12:11:39.494009 27058 net.cpp:380] lstm1_unit_192 -> c_192
I1017 12:11:39.494016 27058 net.cpp:380] lstm1_unit_192 -> h_192
I1017 12:11:39.494072 27058 net.cpp:122] Setting up lstm1_unit_192
I1017 12:11:39.494079 27058 net.cpp:129] Top shape: 1 150 512 (76800)
I1017 12:11:39.494084 27058 net.cpp:129] Top shape: 1 150 512 (76800)
I1017 12:11:39.494088 27058 net.cpp:137] Memory required for data: 1271980800
I1017 12:11:39.494092 27058 layer_factory.hpp:77] Creating layer h_192_lstm1_unit_192_1_split
I1017 12:11:39.494098 27058 net.cpp:84] Creating Layer h_192_lstm1_unit_192_1_split
I1017 12:11:39.494103 27058 net.cpp:406] h_192_lstm1_unit_192_1_split <- h_192
I1017 12:11:39.494110 27058 net.cpp:380] h_192_lstm1_unit_192_1_split -> h_192_lstm1_unit_192_1_split_0
I1017 12:11:39.494118 27058 net.cpp:380] h_192_lstm1_unit_192_1_split -> h_192_lstm1_unit_192_1_split_1
I1017 12:11:39.494156 27058 net.cpp:122] Setting up h_192_lstm1_unit_192_1_split
I1017 12:11:39.494163 27058 net.cpp:129] Top shape: 1 150 512 (76800)
I1017 12:11:39.494168 27058 net.cpp:129] Top shape: 1 150 512 (76800)
I1017 12:11:39.494173 27058 net.cpp:137] Memory required for data: 1272595200
I1017 12:11:39.494176 27058 layer_factory.hpp:77] Creating layer lstm1_h_conted_192
I1017 12:11:39.494185 27058 net.cpp:84] Creating Layer lstm1_h_conted_192
I1017 12:11:39.494190 27058 net.cpp:406] lstm1_h_conted_192 <- h_192_lstm1_unit_192_1_split_0
I1017 12:11:39.494197 27058 net.cpp:406] lstm1_h_conted_192 <- cont_193_lstm1_cont_slice_192_split_0
I1017 12:11:39.494205 27058 net.cpp:380] lstm1_h_conted_192 -> h_conted_192
I1017 12:11:39.494299 27058 net.cpp:122] Setting up lstm1_h_conted_192
I1017 12:11:39.494310 27058 net.cpp:129] Top shape: 1 150 512 (76800)
I1017 12:11:39.494314 27058 net.cpp:137] Memory required for data: 1272902400
I1017 12:11:39.494319 27058 layer_factory.hpp:77] Creating layer lstm1_transform_193
I1017 12:11:39.494328 27058 net.cpp:84] Creating Layer lstm1_transform_193
I1017 12:11:39.494334 27058 net.cpp:406] lstm1_transform_193 <- h_conted_192
I1017 12:11:39.494341 27058 net.cpp:380] lstm1_transform_193 -> W_hc_h_192
I1017 12:11:39.506129 27058 net.cpp:122] Setting up lstm1_transform_193
I1017 12:11:39.506146 27058 net.cpp:129] Top shape: 1 150 2048 (307200)
I1017 12:11:39.506150 27058 net.cpp:137] Memory required for data: 1274131200
I1017 12:11:39.506156 27058 net.cpp:465] Sharing parameters 'W_hc' owned by layer 'lstm1_transform_1', param index 0
I1017 12:11:39.506161 27058 layer_factory.hpp:77] Creating layer lstm1_gate_input_193
I1017 12:11:39.506170 27058 net.cpp:84] Creating Layer lstm1_gate_input_193
I1017 12:11:39.506175 27058 net.cpp:406] lstm1_gate_input_193 <- W_hc_h_192
I1017 12:11:39.506183 27058 net.cpp:406] lstm1_gate_input_193 <- W_xc_x_193
I1017 12:11:39.506191 27058 net.cpp:380] lstm1_gate_input_193 -> gate_input_193
I1017 12:11:39.506224 27058 net.cpp:122] Setting up lstm1_gate_input_193
I1017 12:11:39.506232 27058 net.cpp:129] Top shape: 1 150 2048 (307200)
I1017 12:11:39.506235 27058 net.cpp:137] Memory required for data: 1275360000
I1017 12:11:39.506239 27058 layer_factory.hpp:77] Creating layer lstm1_unit_193
I1017 12:11:39.506247 27058 net.cpp:84] Creating Layer lstm1_unit_193
I1017 12:11:39.506252 27058 net.cpp:406] lstm1_unit_193 <- c_192
I1017 12:11:39.506258 27058 net.cpp:406] lstm1_unit_193 <- gate_input_193
I1017 12:11:39.506265 27058 net.cpp:406] lstm1_unit_193 <- cont_193_lstm1_cont_slice_192_split_1
I1017 12:11:39.506271 27058 net.cpp:380] lstm1_unit_193 -> c_193
I1017 12:11:39.506280 27058 net.cpp:380] lstm1_unit_193 -> h_193
I1017 12:11:39.506333 27058 net.cpp:122] Setting up lstm1_unit_193
I1017 12:11:39.506340 27058 net.cpp:129] Top shape: 1 150 512 (76800)
I1017 12:11:39.506346 27058 net.cpp:129] Top shape: 1 150 512 (76800)
I1017 12:11:39.506350 27058 net.cpp:137] Memory required for data: 1275974400
I1017 12:11:39.506355 27058 layer_factory.hpp:77] Creating layer h_193_lstm1_unit_193_1_split
I1017 12:11:39.506361 27058 net.cpp:84] Creating Layer h_193_lstm1_unit_193_1_split
I1017 12:11:39.506366 27058 net.cpp:406] h_193_lstm1_unit_193_1_split <- h_193
I1017 12:11:39.506373 27058 net.cpp:380] h_193_lstm1_unit_193_1_split -> h_193_lstm1_unit_193_1_split_0
I1017 12:11:39.506381 27058 net.cpp:380] h_193_lstm1_unit_193_1_split -> h_193_lstm1_unit_193_1_split_1
I1017 12:11:39.506419 27058 net.cpp:122] Setting up h_193_lstm1_unit_193_1_split
I1017 12:11:39.506425 27058 net.cpp:129] Top shape: 1 150 512 (76800)
I1017 12:11:39.506430 27058 net.cpp:129] Top shape: 1 150 512 (76800)
I1017 12:11:39.506434 27058 net.cpp:137] Memory required for data: 1276588800
I1017 12:11:39.506440 27058 layer_factory.hpp:77] Creating layer lstm1_h_conted_193
I1017 12:11:39.506449 27058 net.cpp:84] Creating Layer lstm1_h_conted_193
I1017 12:11:39.506455 27058 net.cpp:406] lstm1_h_conted_193 <- h_193_lstm1_unit_193_1_split_0
I1017 12:11:39.506463 27058 net.cpp:406] lstm1_h_conted_193 <- cont_194_lstm1_cont_slice_193_split_0
I1017 12:11:39.506469 27058 net.cpp:380] lstm1_h_conted_193 -> h_conted_193
I1017 12:11:39.506553 27058 net.cpp:122] Setting up lstm1_h_conted_193
I1017 12:11:39.506582 27058 net.cpp:129] Top shape: 1 150 512 (76800)
I1017 12:11:39.506587 27058 net.cpp:137] Memory required for data: 1276896000
I1017 12:11:39.506590 27058 layer_factory.hpp:77] Creating layer lstm1_transform_194
I1017 12:11:39.506602 27058 net.cpp:84] Creating Layer lstm1_transform_194
I1017 12:11:39.506608 27058 net.cpp:406] lstm1_transform_194 <- h_conted_193
I1017 12:11:39.506614 27058 net.cpp:380] lstm1_transform_194 -> W_hc_h_193
I1017 12:11:39.518349 27058 net.cpp:122] Setting up lstm1_transform_194
I1017 12:11:39.518366 27058 net.cpp:129] Top shape: 1 150 2048 (307200)
I1017 12:11:39.518370 27058 net.cpp:137] Memory required for data: 1278124800
I1017 12:11:39.518376 27058 net.cpp:465] Sharing parameters 'W_hc' owned by layer 'lstm1_transform_1', param index 0
I1017 12:11:39.518381 27058 layer_factory.hpp:77] Creating layer lstm1_gate_input_194
I1017 12:11:39.518390 27058 net.cpp:84] Creating Layer lstm1_gate_input_194
I1017 12:11:39.518396 27058 net.cpp:406] lstm1_gate_input_194 <- W_hc_h_193
I1017 12:11:39.518404 27058 net.cpp:406] lstm1_gate_input_194 <- W_xc_x_194
I1017 12:11:39.518411 27058 net.cpp:380] lstm1_gate_input_194 -> gate_input_194
I1017 12:11:39.518442 27058 net.cpp:122] Setting up lstm1_gate_input_194
I1017 12:11:39.518450 27058 net.cpp:129] Top shape: 1 150 2048 (307200)
I1017 12:11:39.518453 27058 net.cpp:137] Memory required for data: 1279353600
I1017 12:11:39.518457 27058 layer_factory.hpp:77] Creating layer lstm1_unit_194
I1017 12:11:39.518468 27058 net.cpp:84] Creating Layer lstm1_unit_194
I1017 12:11:39.518474 27058 net.cpp:406] lstm1_unit_194 <- c_193
I1017 12:11:39.518481 27058 net.cpp:406] lstm1_unit_194 <- gate_input_194
I1017 12:11:39.518486 27058 net.cpp:406] lstm1_unit_194 <- cont_194_lstm1_cont_slice_193_split_1
I1017 12:11:39.518493 27058 net.cpp:380] lstm1_unit_194 -> c_194
I1017 12:11:39.518501 27058 net.cpp:380] lstm1_unit_194 -> h_194
I1017 12:11:39.518553 27058 net.cpp:122] Setting up lstm1_unit_194
I1017 12:11:39.518559 27058 net.cpp:129] Top shape: 1 150 512 (76800)
I1017 12:11:39.518564 27058 net.cpp:129] Top shape: 1 150 512 (76800)
I1017 12:11:39.518568 27058 net.cpp:137] Memory required for data: 1279968000
I1017 12:11:39.518573 27058 layer_factory.hpp:77] Creating layer h_194_lstm1_unit_194_1_split
I1017 12:11:39.518579 27058 net.cpp:84] Creating Layer h_194_lstm1_unit_194_1_split
I1017 12:11:39.518584 27058 net.cpp:406] h_194_lstm1_unit_194_1_split <- h_194
I1017 12:11:39.518591 27058 net.cpp:380] h_194_lstm1_unit_194_1_split -> h_194_lstm1_unit_194_1_split_0
I1017 12:11:39.518600 27058 net.cpp:380] h_194_lstm1_unit_194_1_split -> h_194_lstm1_unit_194_1_split_1
I1017 12:11:39.518635 27058 net.cpp:122] Setting up h_194_lstm1_unit_194_1_split
I1017 12:11:39.518641 27058 net.cpp:129] Top shape: 1 150 512 (76800)
I1017 12:11:39.518646 27058 net.cpp:129] Top shape: 1 150 512 (76800)
I1017 12:11:39.518651 27058 net.cpp:137] Memory required for data: 1280582400
I1017 12:11:39.518654 27058 layer_factory.hpp:77] Creating layer lstm1_h_conted_194
I1017 12:11:39.518662 27058 net.cpp:84] Creating Layer lstm1_h_conted_194
I1017 12:11:39.518668 27058 net.cpp:406] lstm1_h_conted_194 <- h_194_lstm1_unit_194_1_split_0
I1017 12:11:39.518676 27058 net.cpp:406] lstm1_h_conted_194 <- cont_195_lstm1_cont_slice_194_split_0
I1017 12:11:39.518684 27058 net.cpp:380] lstm1_h_conted_194 -> h_conted_194
I1017 12:11:39.518767 27058 net.cpp:122] Setting up lstm1_h_conted_194
I1017 12:11:39.518775 27058 net.cpp:129] Top shape: 1 150 512 (76800)
I1017 12:11:39.518779 27058 net.cpp:137] Memory required for data: 1280889600
I1017 12:11:39.518784 27058 layer_factory.hpp:77] Creating layer lstm1_transform_195
I1017 12:11:39.518791 27058 net.cpp:84] Creating Layer lstm1_transform_195
I1017 12:11:39.518796 27058 net.cpp:406] lstm1_transform_195 <- h_conted_194
I1017 12:11:39.518805 27058 net.cpp:380] lstm1_transform_195 -> W_hc_h_194
I1017 12:11:39.530534 27058 net.cpp:122] Setting up lstm1_transform_195
I1017 12:11:39.530555 27058 net.cpp:129] Top shape: 1 150 2048 (307200)
I1017 12:11:39.530558 27058 net.cpp:137] Memory required for data: 1282118400
I1017 12:11:39.530565 27058 net.cpp:465] Sharing parameters 'W_hc' owned by layer 'lstm1_transform_1', param index 0
I1017 12:11:39.530570 27058 layer_factory.hpp:77] Creating layer lstm1_gate_input_195
I1017 12:11:39.530580 27058 net.cpp:84] Creating Layer lstm1_gate_input_195
I1017 12:11:39.530586 27058 net.cpp:406] lstm1_gate_input_195 <- W_hc_h_194
I1017 12:11:39.530593 27058 net.cpp:406] lstm1_gate_input_195 <- W_xc_x_195
I1017 12:11:39.530601 27058 net.cpp:380] lstm1_gate_input_195 -> gate_input_195
I1017 12:11:39.530634 27058 net.cpp:122] Setting up lstm1_gate_input_195
I1017 12:11:39.530642 27058 net.cpp:129] Top shape: 1 150 2048 (307200)
I1017 12:11:39.530645 27058 net.cpp:137] Memory required for data: 1283347200
I1017 12:11:39.530649 27058 layer_factory.hpp:77] Creating layer lstm1_unit_195
I1017 12:11:39.530664 27058 net.cpp:84] Creating Layer lstm1_unit_195
I1017 12:11:39.530671 27058 net.cpp:406] lstm1_unit_195 <- c_194
I1017 12:11:39.530678 27058 net.cpp:406] lstm1_unit_195 <- gate_input_195
I1017 12:11:39.530684 27058 net.cpp:406] lstm1_unit_195 <- cont_195_lstm1_cont_slice_194_split_1
I1017 12:11:39.530690 27058 net.cpp:380] lstm1_unit_195 -> c_195
I1017 12:11:39.530699 27058 net.cpp:380] lstm1_unit_195 -> h_195
I1017 12:11:39.530753 27058 net.cpp:122] Setting up lstm1_unit_195
I1017 12:11:39.530761 27058 net.cpp:129] Top shape: 1 150 512 (76800)
I1017 12:11:39.530766 27058 net.cpp:129] Top shape: 1 150 512 (76800)
I1017 12:11:39.530769 27058 net.cpp:137] Memory required for data: 1283961600
I1017 12:11:39.530773 27058 layer_factory.hpp:77] Creating layer h_195_lstm1_unit_195_1_split
I1017 12:11:39.530779 27058 net.cpp:84] Creating Layer h_195_lstm1_unit_195_1_split
I1017 12:11:39.530784 27058 net.cpp:406] h_195_lstm1_unit_195_1_split <- h_195
I1017 12:11:39.530792 27058 net.cpp:380] h_195_lstm1_unit_195_1_split -> h_195_lstm1_unit_195_1_split_0
I1017 12:11:39.530800 27058 net.cpp:380] h_195_lstm1_unit_195_1_split -> h_195_lstm1_unit_195_1_split_1
I1017 12:11:39.530838 27058 net.cpp:122] Setting up h_195_lstm1_unit_195_1_split
I1017 12:11:39.530843 27058 net.cpp:129] Top shape: 1 150 512 (76800)
I1017 12:11:39.530848 27058 net.cpp:129] Top shape: 1 150 512 (76800)
I1017 12:11:39.530853 27058 net.cpp:137] Memory required for data: 1284576000
I1017 12:11:39.530856 27058 layer_factory.hpp:77] Creating layer lstm1_h_conted_195
I1017 12:11:39.530865 27058 net.cpp:84] Creating Layer lstm1_h_conted_195
I1017 12:11:39.530871 27058 net.cpp:406] lstm1_h_conted_195 <- h_195_lstm1_unit_195_1_split_0
I1017 12:11:39.530879 27058 net.cpp:406] lstm1_h_conted_195 <- cont_196_lstm1_cont_slice_195_split_0
I1017 12:11:39.530887 27058 net.cpp:380] lstm1_h_conted_195 -> h_conted_195
I1017 12:11:39.530977 27058 net.cpp:122] Setting up lstm1_h_conted_195
I1017 12:11:39.530985 27058 net.cpp:129] Top shape: 1 150 512 (76800)
I1017 12:11:39.530989 27058 net.cpp:137] Memory required for data: 1284883200
I1017 12:11:39.530995 27058 layer_factory.hpp:77] Creating layer lstm1_transform_196
I1017 12:11:39.531005 27058 net.cpp:84] Creating Layer lstm1_transform_196
I1017 12:11:39.531011 27058 net.cpp:406] lstm1_transform_196 <- h_conted_195
I1017 12:11:39.531019 27058 net.cpp:380] lstm1_transform_196 -> W_hc_h_195
I1017 12:11:39.542804 27058 net.cpp:122] Setting up lstm1_transform_196
I1017 12:11:39.542821 27058 net.cpp:129] Top shape: 1 150 2048 (307200)
I1017 12:11:39.542826 27058 net.cpp:137] Memory required for data: 1286112000
I1017 12:11:39.542831 27058 net.cpp:465] Sharing parameters 'W_hc' owned by layer 'lstm1_transform_1', param index 0
I1017 12:11:39.542836 27058 layer_factory.hpp:77] Creating layer lstm1_gate_input_196
I1017 12:11:39.542846 27058 net.cpp:84] Creating Layer lstm1_gate_input_196
I1017 12:11:39.542852 27058 net.cpp:406] lstm1_gate_input_196 <- W_hc_h_195
I1017 12:11:39.542860 27058 net.cpp:406] lstm1_gate_input_196 <- W_xc_x_196
I1017 12:11:39.542867 27058 net.cpp:380] lstm1_gate_input_196 -> gate_input_196
I1017 12:11:39.542901 27058 net.cpp:122] Setting up lstm1_gate_input_196
I1017 12:11:39.542908 27058 net.cpp:129] Top shape: 1 150 2048 (307200)
I1017 12:11:39.542912 27058 net.cpp:137] Memory required for data: 1287340800
I1017 12:11:39.542917 27058 layer_factory.hpp:77] Creating layer lstm1_unit_196
I1017 12:11:39.542924 27058 net.cpp:84] Creating Layer lstm1_unit_196
I1017 12:11:39.542930 27058 net.cpp:406] lstm1_unit_196 <- c_195
I1017 12:11:39.542937 27058 net.cpp:406] lstm1_unit_196 <- gate_input_196
I1017 12:11:39.542943 27058 net.cpp:406] lstm1_unit_196 <- cont_196_lstm1_cont_slice_195_split_1
I1017 12:11:39.542951 27058 net.cpp:380] lstm1_unit_196 -> c_196
I1017 12:11:39.542960 27058 net.cpp:380] lstm1_unit_196 -> h_196
I1017 12:11:39.543014 27058 net.cpp:122] Setting up lstm1_unit_196
I1017 12:11:39.543020 27058 net.cpp:129] Top shape: 1 150 512 (76800)
I1017 12:11:39.543025 27058 net.cpp:129] Top shape: 1 150 512 (76800)
I1017 12:11:39.543030 27058 net.cpp:137] Memory required for data: 1287955200
I1017 12:11:39.543033 27058 layer_factory.hpp:77] Creating layer lstm1_
I1017 12:11:39.543041 27058 net.cpp:84] Creating Layer lstm1_
I1017 12:11:39.543046 27058 net.cpp:406] lstm1_ <- c_196
I1017 12:11:39.543056 27058 net.cpp:380] lstm1_ -> c_T
I1017 12:11:39.543081 27058 net.cpp:122] Setting up lstm1_
I1017 12:11:39.543088 27058 net.cpp:129] Top shape: 1 150 512 (76800)
I1017 12:11:39.543092 27058 net.cpp:137] Memory required for data: 1288262400
I1017 12:11:39.543097 27058 layer_factory.hpp:77] Creating layer lstm1_h_concat
I1017 12:11:39.543125 27058 net.cpp:84] Creating Layer lstm1_h_concat
I1017 12:11:39.543131 27058 net.cpp:406] lstm1_h_concat <- h_1_lstm1_unit_1_1_split_1
I1017 12:11:39.543141 27058 net.cpp:406] lstm1_h_concat <- h_2_lstm1_unit_2_1_split_1
…
I1017 12:11:39.591212 27058 net.cpp:200] lstm1_ does not need backward computation.
I1017 12:11:39.591217 27058 net.cpp:242] This network produces output c_T
I1017 12:11:39.591225 27058 net.cpp:242] This network produces output h_pseudoloss
I1017 12:11:39.762769 27058 net.cpp:255] Network initialization done.
I1017 12:11:39.767357 27058 recurrent_layer.cpp:150] Adding parameter 0: W_xc
I1017 12:11:39.767385 27058 recurrent_layer.cpp:150] Adding parameter 1: b_c
I1017 12:11:39.767397 27058 recurrent_layer.cpp:150] Adding parameter 2: W_hc
I1017 12:11:39.785408 27058 net.cpp:122] Setting up lstm1
I1017 12:11:39.785468 27058 net.cpp:129] Top shape: 196 150 512 (15052800)
I1017 12:11:39.785475 27058 net.cpp:137] Memory required for data: 17394453000
I1017 12:11:39.785492 27058 layer_factory.hpp:77] Creating layer lstm1-drop
I1017 12:11:39.785508 27058 net.cpp:84] Creating Layer lstm1-drop
I1017 12:11:39.785519 27058 net.cpp:406] lstm1-drop <- lstm1
I1017 12:11:39.785533 27058 net.cpp:380] lstm1-drop -> lstm1-drop
I1017 12:11:39.785605 27058 net.cpp:122] Setting up lstm1-drop
I1017 12:11:39.785616 27058 net.cpp:129] Top shape: 196 150 512 (15052800)
I1017 12:11:39.785620 27058 net.cpp:137] Memory required for data: 17454664200
I1017 12:11:39.785626 27058 layer_factory.hpp:77] Creating layer fc-final
I1017 12:11:39.785640 27058 net.cpp:84] Creating Layer fc-final
I1017 12:11:39.785645 27058 net.cpp:406] fc-final <- lstm1-drop
I1017 12:11:39.785656 27058 net.cpp:380] fc-final -> fc-final
I1017 12:11:39.786206 27058 net.cpp:122] Setting up fc-final
I1017 12:11:39.786221 27058 net.cpp:129] Top shape: 196 150 10 (294000)
I1017 12:11:39.786226 27058 net.cpp:137] Memory required for data: 17455840200
I1017 12:11:39.786240 27058 layer_factory.hpp:77] Creating layer fc-final_fc-final_0_split
I1017 12:11:39.786249 27058 net.cpp:84] Creating Layer fc-final_fc-final_0_split
I1017 12:11:39.786255 27058 net.cpp:406] fc-final_fc-final_0_split <- fc-final
I1017 12:11:39.786263 27058 net.cpp:380] fc-final_fc-final_0_split -> fc-final_fc-final_0_split_0
I1017 12:11:39.786273 27058 net.cpp:380] fc-final_fc-final_0_split -> fc-final_fc-final_0_split_1
I1017 12:11:39.786322 27058 net.cpp:122] Setting up fc-final_fc-final_0_split
I1017 12:11:39.786332 27058 net.cpp:129] Top shape: 196 150 10 (294000)
I1017 12:11:39.786339 27058 net.cpp:129] Top shape: 196 150 10 (294000)
I1017 12:11:39.786343 27058 net.cpp:137] Memory required for data: 17458192200
I1017 12:11:39.786348 27058 layer_factory.hpp:77] Creating layer loss
I1017 12:11:39.786357 27058 net.cpp:84] Creating Layer loss
I1017 12:11:39.786363 27058 net.cpp:406] loss <- fc-final_fc-final_0_split_0
I1017 12:11:39.786371 27058 net.cpp:406] loss <- reshape-label_label_tran_0_split_0
I1017 12:11:39.786379 27058 net.cpp:380] loss -> loss
…
