…
I1017 12:09:26.399401 26962 net.cpp:294] The NetState phase (0) differed from the phase (1) specified by a rule in layer Silence
I1017 12:09:26.399595 26962 net.cpp:51] Initializing net from parameters: 
name: "VGG-Places365"
state {
  phase: TRAIN
  level: 0
  stage: ""
}
layer {
  name: "data"
  type: "ImageData"
  top: "data"
  top: "label"
  include {
    phase: TRAIN
  }
  transform_param {
    mirror: true
    crop_size: 224
    mean_value: 104
    mean_value: 117
    mean_value: 123
  }
  image_data_param {
    source: "../Data/lsun_train_list_12w.txt"
    batch_size: 2
    shuffle: true
    new_height: 256
    new_width: 256
  }
}
layer {
  name: "label_tran"
  type: "Python"
  bottom: "label"
  top: "reshape-label"
  top: "clip_markers"
  python_param {
    module: "data_preparation_sort_max_clip"
    layer: "ReshapeLabel"
  }
}
layer {
  name: "conv1_1"
  type: "Convolution"
  bottom: "data"
  top: "conv1_1"
  convolution_param {
    num_output: 64
    pad: 1
    kernel_size: 3
  }
}
layer {
  name: "relu1_1"
  type: "ReLU"
  bottom: "conv1_1"
  top: "conv1_1"
}
layer {
  name: "conv1_2"
  type: "Convolution"
  bottom: "conv1_1"
  top: "conv1_2"
  convolution_param {
    num_output: 64
    pad: 1
    kernel_size: 3
  }
}
layer {
  name: "relu1_2"
  type: "ReLU"
  bottom: "conv1_2"
  top: "conv1_2"
}
layer {
  name: "pool1"
  type: "Pooling"
  bottom: "conv1_2"
  top: "pool1"
  pooling_param {
    pool: MAX
    kernel_size: 2
    stride: 2
  }
}
layer {
  name: "conv2_1"
  type: "Convolution"
  bottom: "pool1"
  top: "conv2_1"
  convolution_param {
    num_output: 128
    pad: 1
    kernel_size: 3
  }
}
layer {
  name: "relu2_1"
  type: "ReLU"
  bottom: "conv2_1"
  top: "conv2_1"
}
layer {
  name: "conv2_2"
  type: "Convolution"
  bottom: "conv2_1"
  top: "conv2_2"
  convolution_param {
    num_output: 128
    pad: 1
    kernel_size: 3
  }
}
layer {
  name: "relu2_2"
  type: "ReLU"
  bottom: "conv2_2"
  top: "conv2_2"
}
layer {
  name: "pool2"
  type: "Pooling"
  bottom: "conv2_2"
  top: "pool2"
  pooling_param {
    pool: MAX
    kernel_size: 2
    stride: 2
  }
}
layer {
  name: "conv3_1"
  type: "Convolution"
  bottom: "pool2"
  top: "conv3_1"
  convolution_param {
    num_output: 256
    pad: 1
    kernel_size: 3
  }
}
layer {
  name: "relu3_1"
  type: "ReLU"
  bottom: "conv3_1"
  top: "conv3_1"
}
layer {
  name: "conv3_2"
  type: "Convolution"
  bottom: "conv3_1"
  top: "conv3_2"
  convolution_param {
    num_output: 256
    pad: 1
    kernel_size: 3
  }
}
layer {
  name: "relu3_2"
  type: "ReLU"
  bottom: "conv3_2"
  top: "conv3_2"
}
layer {
  name: "conv3_3"
  type: "Convolution"
  bottom: "conv3_2"
  top: "conv3_3"
  convolution_param {
    num_output: 256
    pad: 1
    kernel_size: 3
  }
}
layer {
  name: "relu3_3"
  type: "ReLU"
  bottom: "conv3_3"
  top: "conv3_3"
}
layer {
  name: "pool3"
  type: "Pooling"
  bottom: "conv3_3"
  top: "pool3"
  pooling_param {
    pool: MAX
    kernel_size: 2
    stride: 2
  }
}
layer {
  name: "conv4_1"
  type: "Convolution"
  bottom: "pool3"
  top: "conv4_1"
  convolution_param {
    num_output: 512
    pad: 1
    kernel_size: 3
  }
}
layer {
  name: "relu4_1"
  type: "ReLU"
  bottom: "conv4_1"
  top: "conv4_1"
}
layer {
  name: "conv4_2"
  type: "Convolution"
  bottom: "conv4_1"
  top: "conv4_2"
  convolution_param {
    num_output: 512
    pad: 1
    kernel_size: 3
  }
}
layer {
  name: "relu4_2"
  type: "ReLU"
  bottom: "conv4_2"
  top: "conv4_2"
}
layer {
  name: "conv4_3"
  type: "Convolution"
  bottom: "conv4_2"
  top: "conv4_3"
  convolution_param {
    num_output: 512
    pad: 1
    kernel_size: 3
  }
}
layer {
  name: "relu4_3"
  type: "ReLU"
  bottom: "conv4_3"
  top: "conv4_3"
}
layer {
  name: "pool4"
  type: "Pooling"
  bottom: "conv4_3"
  top: "pool4"
  pooling_param {
    pool: MAX
    kernel_size: 2
    stride: 2
  }
}
layer {
  name: "conv5_1"
  type: "Convolution"
  bottom: "pool4"
  top: "conv5_1"
  convolution_param {
    num_output: 512
    pad: 1
    kernel_size: 3
  }
}
layer {
  name: "relu5_1"
  type: "ReLU"
  bottom: "conv5_1"
  top: "conv5_1"
}
layer {
  name: "conv5_2"
  type: "Convolution"
  bottom: "conv5_1"
  top: "conv5_2"
  convolution_param {
    num_output: 512
    pad: 1
    kernel_size: 3
  }
}
layer {
  name: "relu5_2"
  type: "ReLU"
  bottom: "conv5_2"
  top: "conv5_2"
}
layer {
  name: "conv5_3"
  type: "Convolution"
  bottom: "conv5_2"
  top: "conv5_3"
  convolution_param {
    num_output: 512
    pad: 1
    kernel_size: 3
  }
}
layer {
  name: "relu5_3"
  type: "ReLU"
  bottom: "conv5_3"
  top: "conv5_3"
}
layer {
  name: "conv5_3_re"
  type: "Reshape"
  bottom: "conv5_3"
  top: "conv5_3_re"
  reshape_param {
    shape {
      dim: 0
      dim: 0
      dim: -1
    }
  }
}
layer {
  name: "conv5_3_tran"
  type: "Python"
  bottom: "conv5_3_re"
  top: "conv5_3_tran"
  python_param {
    module: "data_preparation_sort_max_clip"
    layer: "DataTransposeSortMaxClip"
  }
}
layer {
  name: "lstm1"
  type: "LSTM"
  bottom: "conv5_3_tran"
  bottom: "clip_markers"
  top: "lstm1"
  recurrent_param {
    num_output: 512
    weight_filler {
      type: "uniform"
      min: -0.01
      max: 0.01
    }
    bias_filler {
      type: "constant"
      value: 0
    }
  }
}
layer {
  name: "lstm1-drop"
  type: "Dropout"
  bottom: "lstm1"
  top: "lstm1-drop"
  dropout_param {
    dropout_ratio: 0.5
  }
}
layer {
  name: "fc-final"
  type: "InnerProduct"
  bottom: "lstm1-drop"
  top: "fc-final"
  param {
    lr_mult: 1
    decay_mult: 1
  }
  param {
    lr_mult: 2
    decay_mult: 0
  }
  inner_product_param {
    num_output: 10
    weight_filler {
      type: "gaussian"
      std: 0.01
    }
    bias_filler {
      type: "constant"
      value: 0
    }
    axis: 2
  }
}
layer {
  name: "loss"
  type: "SoftmaxWithLoss"
  bottom: "fc-final"
  bottom: "reshape-label"
  top: "loss"
  softmax_param {
    axis: 2
  }
}
layer {
  name: "accuracy"
  type: "Accuracy"
  bottom: "fc-final"
  bottom: "reshape-label"
  top: "accuracy"
  accuracy_param {
    axis: 2
  }
}
I1017 12:09:26.399803 26962 layer_factory.hpp:77] Creating layer data
I1017 12:09:26.399852 26962 net.cpp:84] Creating Layer data
I1017 12:09:26.399863 26962 net.cpp:380] data -> data
I1017 12:09:26.399901 26962 net.cpp:380] data -> label
I1017 12:09:26.399946 26962 image_data_layer.cpp:38] Opening file ../Data/lsun_train_list_12w.txt
I1017 12:09:26.920989 26962 image_data_layer.cpp:53] Shuffling data
I1017 12:09:27.276515 26962 image_data_layer.cpp:63] A total of 1200000 images.
I1017 12:09:27.282064 26962 image_data_layer.cpp:90] output data size: 2,3,224,224
I1017 12:09:27.289544 26962 net.cpp:122] Setting up data
I1017 12:09:27.289649 26962 net.cpp:129] Top shape: 2 3 224 224 (301056)
I1017 12:09:27.289690 26962 net.cpp:129] Top shape: 2 (2)
I1017 12:09:27.289700 26962 net.cpp:137] Memory required for data: 1204232
I1017 12:09:27.289721 26962 layer_factory.hpp:77] Creating layer label_tran
I1017 12:09:27.870738 26962 net.cpp:84] Creating Layer label_tran
I1017 12:09:27.870790 26962 net.cpp:406] label_tran <- label
I1017 12:09:27.870815 26962 net.cpp:380] label_tran -> reshape-label
I1017 12:09:27.870831 26962 net.cpp:380] label_tran -> clip_markers
I1017 12:09:27.871142 26962 net.cpp:122] Setting up label_tran
I1017 12:09:27.871163 26962 net.cpp:129] Top shape: 196 2 (392)
I1017 12:09:27.871171 26962 net.cpp:129] Top shape: 196 2 (392)
I1017 12:09:27.871176 26962 net.cpp:137] Memory required for data: 1207368
I1017 12:09:27.871191 26962 layer_factory.hpp:77] Creating layer reshape-label_label_tran_0_split
I1017 12:09:27.871212 26962 net.cpp:84] Creating Layer reshape-label_label_tran_0_split
I1017 12:09:27.871217 26962 net.cpp:406] reshape-label_label_tran_0_split <- reshape-label
I1017 12:09:27.871225 26962 net.cpp:380] reshape-label_label_tran_0_split -> reshape-label_label_tran_0_split_0
I1017 12:09:27.871235 26962 net.cpp:380] reshape-label_label_tran_0_split -> reshape-label_label_tran_0_split_1
I1017 12:09:27.871276 26962 net.cpp:122] Setting up reshape-label_label_tran_0_split
I1017 12:09:27.871285 26962 net.cpp:129] Top shape: 196 2 (392)
I1017 12:09:27.871290 26962 net.cpp:129] Top shape: 196 2 (392)
I1017 12:09:27.871294 26962 net.cpp:137] Memory required for data: 1210504
I1017 12:09:27.871299 26962 layer_factory.hpp:77] Creating layer conv1_1
I1017 12:09:27.871321 26962 net.cpp:84] Creating Layer conv1_1
I1017 12:09:27.871328 26962 net.cpp:406] conv1_1 <- data
I1017 12:09:27.871335 26962 net.cpp:380] conv1_1 -> conv1_1
I1017 12:09:27.873287 26962 net.cpp:122] Setting up conv1_1
I1017 12:09:27.873306 26962 net.cpp:129] Top shape: 2 64 224 224 (6422528)
I1017 12:09:27.873311 26962 net.cpp:137] Memory required for data: 26900616
I1017 12:09:27.873337 26962 layer_factory.hpp:77] Creating layer relu1_1
I1017 12:09:27.873352 26962 net.cpp:84] Creating Layer relu1_1
I1017 12:09:27.873356 26962 net.cpp:406] relu1_1 <- conv1_1
I1017 12:09:27.873363 26962 net.cpp:367] relu1_1 -> conv1_1 (in-place)
I1017 12:09:27.873378 26962 net.cpp:122] Setting up relu1_1
I1017 12:09:27.873383 26962 net.cpp:129] Top shape: 2 64 224 224 (6422528)
I1017 12:09:27.873387 26962 net.cpp:137] Memory required for data: 52590728
I1017 12:09:27.873394 26962 layer_factory.hpp:77] Creating layer conv1_2
I1017 12:09:27.873404 26962 net.cpp:84] Creating Layer conv1_2
I1017 12:09:27.873409 26962 net.cpp:406] conv1_2 <- conv1_1
I1017 12:09:27.873414 26962 net.cpp:380] conv1_2 -> conv1_2
I1017 12:09:27.873689 26962 net.cpp:122] Setting up conv1_2
I1017 12:09:27.873699 26962 net.cpp:129] Top shape: 2 64 224 224 (6422528)
I1017 12:09:27.873704 26962 net.cpp:137] Memory required for data: 78280840
I1017 12:09:27.873713 26962 layer_factory.hpp:77] Creating layer relu1_2
I1017 12:09:27.873721 26962 net.cpp:84] Creating Layer relu1_2
I1017 12:09:27.873726 26962 net.cpp:406] relu1_2 <- conv1_2
I1017 12:09:27.873733 26962 net.cpp:367] relu1_2 -> conv1_2 (in-place)
I1017 12:09:27.873739 26962 net.cpp:122] Setting up relu1_2
I1017 12:09:27.873744 26962 net.cpp:129] Top shape: 2 64 224 224 (6422528)
I1017 12:09:27.873749 26962 net.cpp:137] Memory required for data: 103970952
I1017 12:09:27.873754 26962 layer_factory.hpp:77] Creating layer pool1
I1017 12:09:27.873765 26962 net.cpp:84] Creating Layer pool1
I1017 12:09:27.873770 26962 net.cpp:406] pool1 <- conv1_2
I1017 12:09:27.873776 26962 net.cpp:380] pool1 -> pool1
I1017 12:09:27.873828 26962 net.cpp:122] Setting up pool1
I1017 12:09:27.873838 26962 net.cpp:129] Top shape: 2 64 112 112 (1605632)
I1017 12:09:27.873843 26962 net.cpp:137] Memory required for data: 110393480
I1017 12:09:27.873847 26962 layer_factory.hpp:77] Creating layer conv2_1
I1017 12:09:27.873857 26962 net.cpp:84] Creating Layer conv2_1
I1017 12:09:27.873862 26962 net.cpp:406] conv2_1 <- pool1
I1017 12:09:27.873868 26962 net.cpp:380] conv2_1 -> conv2_1
I1017 12:09:27.875557 26962 net.cpp:122] Setting up conv2_1
I1017 12:09:27.875572 26962 net.cpp:129] Top shape: 2 128 112 112 (3211264)
I1017 12:09:27.875578 26962 net.cpp:137] Memory required for data: 123238536
I1017 12:09:27.875589 26962 layer_factory.hpp:77] Creating layer relu2_1
I1017 12:09:27.875597 26962 net.cpp:84] Creating Layer relu2_1
I1017 12:09:27.875602 26962 net.cpp:406] relu2_1 <- conv2_1
I1017 12:09:27.875608 26962 net.cpp:367] relu2_1 -> conv2_1 (in-place)
I1017 12:09:27.875617 26962 net.cpp:122] Setting up relu2_1
I1017 12:09:27.875622 26962 net.cpp:129] Top shape: 2 128 112 112 (3211264)
I1017 12:09:27.875627 26962 net.cpp:137] Memory required for data: 136083592
I1017 12:09:27.875632 26962 layer_factory.hpp:77] Creating layer conv2_2
I1017 12:09:27.875640 26962 net.cpp:84] Creating Layer conv2_2
I1017 12:09:27.875644 26962 net.cpp:406] conv2_2 <- conv2_1
I1017 12:09:27.875651 26962 net.cpp:380] conv2_2 -> conv2_2
I1017 12:09:27.875944 26962 net.cpp:122] Setting up conv2_2
I1017 12:09:27.875955 26962 net.cpp:129] Top shape: 2 128 112 112 (3211264)
I1017 12:09:27.875959 26962 net.cpp:137] Memory required for data: 148928648
I1017 12:09:27.875969 26962 layer_factory.hpp:77] Creating layer relu2_2
I1017 12:09:27.875977 26962 net.cpp:84] Creating Layer relu2_2
I1017 12:09:27.875982 26962 net.cpp:406] relu2_2 <- conv2_2
I1017 12:09:27.875988 26962 net.cpp:367] relu2_2 -> conv2_2 (in-place)
I1017 12:09:27.875995 26962 net.cpp:122] Setting up relu2_2
I1017 12:09:27.876001 26962 net.cpp:129] Top shape: 2 128 112 112 (3211264)
I1017 12:09:27.876005 26962 net.cpp:137] Memory required for data: 161773704
I1017 12:09:27.876009 26962 layer_factory.hpp:77] Creating layer pool2
I1017 12:09:27.876016 26962 net.cpp:84] Creating Layer pool2
I1017 12:09:27.876021 26962 net.cpp:406] pool2 <- conv2_2
I1017 12:09:27.876034 26962 net.cpp:380] pool2 -> pool2
I1017 12:09:27.876070 26962 net.cpp:122] Setting up pool2
I1017 12:09:27.876080 26962 net.cpp:129] Top shape: 2 128 56 56 (802816)
I1017 12:09:27.876085 26962 net.cpp:137] Memory required for data: 164984968
I1017 12:09:27.876088 26962 layer_factory.hpp:77] Creating layer conv3_1
I1017 12:09:27.876097 26962 net.cpp:84] Creating Layer conv3_1
I1017 12:09:27.876102 26962 net.cpp:406] conv3_1 <- pool2
I1017 12:09:27.876109 26962 net.cpp:380] conv3_1 -> conv3_1
I1017 12:09:27.877279 26962 net.cpp:122] Setting up conv3_1
I1017 12:09:27.877292 26962 net.cpp:129] Top shape: 2 256 56 56 (1605632)
I1017 12:09:27.877297 26962 net.cpp:137] Memory required for data: 171407496
I1017 12:09:27.877308 26962 layer_factory.hpp:77] Creating layer relu3_1
I1017 12:09:27.877318 26962 net.cpp:84] Creating Layer relu3_1
I1017 12:09:27.877323 26962 net.cpp:406] relu3_1 <- conv3_1
I1017 12:09:27.877331 26962 net.cpp:367] relu3_1 -> conv3_1 (in-place)
I1017 12:09:27.877337 26962 net.cpp:122] Setting up relu3_1
I1017 12:09:27.877343 26962 net.cpp:129] Top shape: 2 256 56 56 (1605632)
I1017 12:09:27.877347 26962 net.cpp:137] Memory required for data: 177830024
I1017 12:09:27.877353 26962 layer_factory.hpp:77] Creating layer conv3_2
I1017 12:09:27.877362 26962 net.cpp:84] Creating Layer conv3_2
I1017 12:09:27.877365 26962 net.cpp:406] conv3_2 <- conv3_1
I1017 12:09:27.877372 26962 net.cpp:380] conv3_2 -> conv3_2
I1017 12:09:27.879396 26962 net.cpp:122] Setting up conv3_2
I1017 12:09:27.879411 26962 net.cpp:129] Top shape: 2 256 56 56 (1605632)
I1017 12:09:27.879416 26962 net.cpp:137] Memory required for data: 184252552
I1017 12:09:27.879425 26962 layer_factory.hpp:77] Creating layer relu3_2
I1017 12:09:27.879436 26962 net.cpp:84] Creating Layer relu3_2
I1017 12:09:27.879441 26962 net.cpp:406] relu3_2 <- conv3_2
I1017 12:09:27.879447 26962 net.cpp:367] relu3_2 -> conv3_2 (in-place)
I1017 12:09:27.879456 26962 net.cpp:122] Setting up relu3_2
I1017 12:09:27.879462 26962 net.cpp:129] Top shape: 2 256 56 56 (1605632)
I1017 12:09:27.879465 26962 net.cpp:137] Memory required for data: 190675080
I1017 12:09:27.879469 26962 layer_factory.hpp:77] Creating layer conv3_3
I1017 12:09:27.879482 26962 net.cpp:84] Creating Layer conv3_3
I1017 12:09:27.879487 26962 net.cpp:406] conv3_3 <- conv3_2
I1017 12:09:27.879492 26962 net.cpp:380] conv3_3 -> conv3_3
I1017 12:09:27.881317 26962 net.cpp:122] Setting up conv3_3
I1017 12:09:27.881333 26962 net.cpp:129] Top shape: 2 256 56 56 (1605632)
I1017 12:09:27.881338 26962 net.cpp:137] Memory required for data: 197097608
I1017 12:09:27.881345 26962 layer_factory.hpp:77] Creating layer relu3_3
I1017 12:09:27.881355 26962 net.cpp:84] Creating Layer relu3_3
I1017 12:09:27.881359 26962 net.cpp:406] relu3_3 <- conv3_3
I1017 12:09:27.881369 26962 net.cpp:367] relu3_3 -> conv3_3 (in-place)
I1017 12:09:27.881377 26962 net.cpp:122] Setting up relu3_3
I1017 12:09:27.881383 26962 net.cpp:129] Top shape: 2 256 56 56 (1605632)
I1017 12:09:27.881387 26962 net.cpp:137] Memory required for data: 203520136
I1017 12:09:27.881392 26962 layer_factory.hpp:77] Creating layer pool3
I1017 12:09:27.881399 26962 net.cpp:84] Creating Layer pool3
I1017 12:09:27.881403 26962 net.cpp:406] pool3 <- conv3_3
I1017 12:09:27.881412 26962 net.cpp:380] pool3 -> pool3
I1017 12:09:27.881448 26962 net.cpp:122] Setting up pool3
I1017 12:09:27.881455 26962 net.cpp:129] Top shape: 2 256 28 28 (401408)
I1017 12:09:27.881459 26962 net.cpp:137] Memory required for data: 205125768
I1017 12:09:27.881465 26962 layer_factory.hpp:77] Creating layer conv4_1
I1017 12:09:27.881475 26962 net.cpp:84] Creating Layer conv4_1
I1017 12:09:27.881480 26962 net.cpp:406] conv4_1 <- pool3
I1017 12:09:27.881486 26962 net.cpp:380] conv4_1 -> conv4_1
I1017 12:09:27.885442 26962 net.cpp:122] Setting up conv4_1
I1017 12:09:27.885457 26962 net.cpp:129] Top shape: 2 512 28 28 (802816)
I1017 12:09:27.885462 26962 net.cpp:137] Memory required for data: 208337032
I1017 12:09:27.885470 26962 layer_factory.hpp:77] Creating layer relu4_1
I1017 12:09:27.885479 26962 net.cpp:84] Creating Layer relu4_1
I1017 12:09:27.885484 26962 net.cpp:406] relu4_1 <- conv4_1
I1017 12:09:27.885491 26962 net.cpp:367] relu4_1 -> conv4_1 (in-place)
I1017 12:09:27.885499 26962 net.cpp:122] Setting up relu4_1
I1017 12:09:27.885504 26962 net.cpp:129] Top shape: 2 512 28 28 (802816)
I1017 12:09:27.885509 26962 net.cpp:137] Memory required for data: 211548296
I1017 12:09:27.885514 26962 layer_factory.hpp:77] Creating layer conv4_2
I1017 12:09:27.885529 26962 net.cpp:84] Creating Layer conv4_2
I1017 12:09:27.885532 26962 net.cpp:406] conv4_2 <- conv4_1
I1017 12:09:27.885540 26962 net.cpp:380] conv4_2 -> conv4_2
I1017 12:09:27.892860 26962 net.cpp:122] Setting up conv4_2
I1017 12:09:27.892912 26962 net.cpp:129] Top shape: 2 512 28 28 (802816)
I1017 12:09:27.892922 26962 net.cpp:137] Memory required for data: 214759560
I1017 12:09:27.892956 26962 layer_factory.hpp:77] Creating layer relu4_2
I1017 12:09:27.892987 26962 net.cpp:84] Creating Layer relu4_2
I1017 12:09:27.892999 26962 net.cpp:406] relu4_2 <- conv4_2
I1017 12:09:27.893014 26962 net.cpp:367] relu4_2 -> conv4_2 (in-place)
I1017 12:09:27.893035 26962 net.cpp:122] Setting up relu4_2
I1017 12:09:27.893048 26962 net.cpp:129] Top shape: 2 512 28 28 (802816)
I1017 12:09:27.893056 26962 net.cpp:137] Memory required for data: 217970824
I1017 12:09:27.893069 26962 layer_factory.hpp:77] Creating layer conv4_3
I1017 12:09:27.893088 26962 net.cpp:84] Creating Layer conv4_3
I1017 12:09:27.893098 26962 net.cpp:406] conv4_3 <- conv4_2
I1017 12:09:27.893111 26962 net.cpp:380] conv4_3 -> conv4_3
I1017 12:09:27.903661 26962 net.cpp:122] Setting up conv4_3
I1017 12:09:27.903712 26962 net.cpp:129] Top shape: 2 512 28 28 (802816)
I1017 12:09:27.903723 26962 net.cpp:137] Memory required for data: 221182088
I1017 12:09:27.903741 26962 layer_factory.hpp:77] Creating layer relu4_3
I1017 12:09:27.903764 26962 net.cpp:84] Creating Layer relu4_3
I1017 12:09:27.903775 26962 net.cpp:406] relu4_3 <- conv4_3
I1017 12:09:27.903790 26962 net.cpp:367] relu4_3 -> conv4_3 (in-place)
I1017 12:09:27.903810 26962 net.cpp:122] Setting up relu4_3
I1017 12:09:27.903822 26962 net.cpp:129] Top shape: 2 512 28 28 (802816)
I1017 12:09:27.903831 26962 net.cpp:137] Memory required for data: 224393352
I1017 12:09:27.903839 26962 layer_factory.hpp:77] Creating layer pool4
I1017 12:09:27.903856 26962 net.cpp:84] Creating Layer pool4
I1017 12:09:27.903864 26962 net.cpp:406] pool4 <- conv4_3
I1017 12:09:27.903877 26962 net.cpp:380] pool4 -> pool4
I1017 12:09:27.903956 26962 net.cpp:122] Setting up pool4
I1017 12:09:27.903975 26962 net.cpp:129] Top shape: 2 512 14 14 (200704)
I1017 12:09:27.903982 26962 net.cpp:137] Memory required for data: 225196168
I1017 12:09:27.903992 26962 layer_factory.hpp:77] Creating layer conv5_1
I1017 12:09:27.904014 26962 net.cpp:84] Creating Layer conv5_1
I1017 12:09:27.904024 26962 net.cpp:406] conv5_1 <- pool4
I1017 12:09:27.904078 26962 net.cpp:380] conv5_1 -> conv5_1
I1017 12:09:27.922929 26962 net.cpp:122] Setting up conv5_1
I1017 12:09:27.923151 26962 net.cpp:129] Top shape: 2 512 14 14 (200704)
I1017 12:09:27.923183 26962 net.cpp:137] Memory required for data: 225998984
I1017 12:09:27.923244 26962 layer_factory.hpp:77] Creating layer relu5_1
I1017 12:09:27.923326 26962 net.cpp:84] Creating Layer relu5_1
I1017 12:09:27.923354 26962 net.cpp:406] relu5_1 <- conv5_1
I1017 12:09:27.923388 26962 net.cpp:367] relu5_1 -> conv5_1 (in-place)
I1017 12:09:27.923444 26962 net.cpp:122] Setting up relu5_1
I1017 12:09:27.923480 26962 net.cpp:129] Top shape: 2 512 14 14 (200704)
I1017 12:09:27.923499 26962 net.cpp:137] Memory required for data: 226801800
I1017 12:09:27.923517 26962 layer_factory.hpp:77] Creating layer conv5_2
I1017 12:09:27.923575 26962 net.cpp:84] Creating Layer conv5_2
I1017 12:09:27.923600 26962 net.cpp:406] conv5_2 <- conv5_1
I1017 12:09:27.923645 26962 net.cpp:380] conv5_2 -> conv5_2
I1017 12:09:27.931777 26962 net.cpp:122] Setting up conv5_2
I1017 12:09:27.931812 26962 net.cpp:129] Top shape: 2 512 14 14 (200704)
I1017 12:09:27.931818 26962 net.cpp:137] Memory required for data: 227604616
I1017 12:09:27.931828 26962 layer_factory.hpp:77] Creating layer relu5_2
I1017 12:09:27.931840 26962 net.cpp:84] Creating Layer relu5_2
I1017 12:09:27.931846 26962 net.cpp:406] relu5_2 <- conv5_2
I1017 12:09:27.931857 26962 net.cpp:367] relu5_2 -> conv5_2 (in-place)
I1017 12:09:27.931869 26962 net.cpp:122] Setting up relu5_2
I1017 12:09:27.931875 26962 net.cpp:129] Top shape: 2 512 14 14 (200704)
I1017 12:09:27.931879 26962 net.cpp:137] Memory required for data: 228407432
I1017 12:09:27.931885 26962 layer_factory.hpp:77] Creating layer conv5_3
I1017 12:09:27.931895 26962 net.cpp:84] Creating Layer conv5_3
I1017 12:09:27.931900 26962 net.cpp:406] conv5_3 <- conv5_2
I1017 12:09:27.931907 26962 net.cpp:380] conv5_3 -> conv5_3
I1017 12:09:27.938421 26962 net.cpp:122] Setting up conv5_3
I1017 12:09:27.938453 26962 net.cpp:129] Top shape: 2 512 14 14 (200704)
I1017 12:09:27.938462 26962 net.cpp:137] Memory required for data: 229210248
I1017 12:09:27.938475 26962 layer_factory.hpp:77] Creating layer relu5_3
I1017 12:09:27.938505 26962 net.cpp:84] Creating Layer relu5_3
I1017 12:09:27.938519 26962 net.cpp:406] relu5_3 <- conv5_3
I1017 12:09:27.938562 26962 net.cpp:367] relu5_3 -> conv5_3 (in-place)
I1017 12:09:27.938581 26962 net.cpp:122] Setting up relu5_3
I1017 12:09:27.938614 26962 net.cpp:129] Top shape: 2 512 14 14 (200704)
I1017 12:09:27.938623 26962 net.cpp:137] Memory required for data: 230013064
I1017 12:09:27.938633 26962 layer_factory.hpp:77] Creating layer conv5_3_re
I1017 12:09:27.938658 26962 net.cpp:84] Creating Layer conv5_3_re
I1017 12:09:27.938669 26962 net.cpp:406] conv5_3_re <- conv5_3
I1017 12:09:27.938683 26962 net.cpp:380] conv5_3_re -> conv5_3_re
I1017 12:09:27.938751 26962 net.cpp:122] Setting up conv5_3_re
I1017 12:09:27.938766 26962 net.cpp:129] Top shape: 2 512 196 (200704)
I1017 12:09:27.938774 26962 net.cpp:137] Memory required for data: 230815880
I1017 12:09:27.938782 26962 layer_factory.hpp:77] Creating layer conv5_3_tran
I1017 12:09:27.938874 26962 net.cpp:84] Creating Layer conv5_3_tran
I1017 12:09:27.938887 26962 net.cpp:406] conv5_3_tran <- conv5_3_re
I1017 12:09:27.938901 26962 net.cpp:380] conv5_3_tran -> conv5_3_tran
I1017 12:09:27.939932 26962 net.cpp:122] Setting up conv5_3_tran
I1017 12:09:27.939952 26962 net.cpp:129] Top shape: 196 2 196 (76832)
I1017 12:09:27.939961 26962 net.cpp:137] Memory required for data: 231123208
I1017 12:09:27.939970 26962 layer_factory.hpp:77] Creating layer lstm1
I1017 12:09:27.939995 26962 net.cpp:84] Creating Layer lstm1
I1017 12:09:27.940004 26962 net.cpp:406] lstm1 <- conv5_3_tran
I1017 12:09:27.940016 26962 net.cpp:406] lstm1 <- clip_markers
I1017 12:09:27.940053 26962 net.cpp:380] lstm1 -> lstm1
I1017 12:09:27.940083 26962 recurrent_layer.cpp:20] Initializing recurrent layer: assuming input batch contains 196 timesteps of 2 independent streams.
I1017 12:09:27.948441 26962 net.cpp:51] Initializing net from parameters: 
layer {
  name: "lstm1_"
  type: "Input"
  top: "x"
  top: "cont"
  input_param {
    shape {
      dim: 196
      dim: 2
      dim: 196
    }
    shape {
      dim: 196
      dim: 2
    }
  }
}
layer {
  name: "lstm1_"
  type: "Input"
  top: "c_0"
  top: "h_0"
  input_param {
    shape {
      dim: 1
      dim: 2
      dim: 512
    }
    shape {
      dim: 1
      dim: 2
      dim: 512
    }
  }
}
layer {
  name: "lstm1_cont_slice"
  type: "Slice"
  bottom: "cont"
  top: "cont_1"
  top: "cont_2"
  top: "cont_3"
  top: "cont_4"
  top: "cont_5"
  top: "cont_6"
  top: "cont_7"
  top: "cont_8"
  top: "cont_9"
  top: "cont_10"
  top: "cont_11"
  top: "cont_12"
  top: "cont_13"
  top: "cont_14"
  top: "cont_15"
  top: "cont_16"
  top: "cont_17"
  top: "cont_18"
  top: "cont_19"
  top: "cont_20"
  top: "cont_21"
  top: "cont_22"
  top: "cont_23"
  top: "cont_24"
…
  top: "W_xc_x_171"
  top: "W_xc_x_172"
  top: "W_xc_x_173"
  top: "W_xc_x_174"
  top: "W_xc_x_175"
  top: "W_xc_x_176"
  top: "W_xc_x_177"
  top: "W_xc_x_178"
  top: "W_xc_x_179"
  top: "W_xc_x_180"
  top: "W_xc_x_181"
  top: "W_xc_x_182"
  top: "W_xc_x_183"
  top: "W_xc_x_184"
  top: "W_xc_x_185"
  top: "W_xc_x_186"
  top: "W_xc_x_187"
  top: "W_xc_x_188"
  top: "W_xc_x_189"
  top: "W_xc_x_190"
  top: "W_xc_x_191"
  top: "W_xc_x_192"
  top: "W_xc_x_193"
  top: "W_xc_x_194"
  top: "W_xc_x_195"
  top: "W_xc_x_196"
  slice_param {
    axis: 0
  }
}
layer {
  name: "lstm1_h_conted_0"
  type: "Scale"
  bottom: "h_0"
  bottom: "cont_1"
  top: "h_conted_0"
  scale_param {
    axis: 0
  }
}
layer {
  name: "lstm1_transform_1"
  type: "InnerProduct"
  bottom: "h_conted_0"
  top: "W_hc_h_0"
  param {
    name: "W_hc"
  }
  inner_product_param {
    num_output: 2048
    bias_term: false
    weight_filler {
      type: "uniform"
      min: -0.01
      max: 0.01
    }
    axis: 2
  }
}
layer {
  name: "lstm1_gate_input_1"
  type: "Eltwise"
  bottom: "W_hc_h_0"
  bottom: "W_xc_x_1"
  top: "gate_input_1"
  eltwise_param {
    operation: SUM
  }
}
layer {
  name: "lstm1_unit_1"
  type: "LSTMUnit"
  bottom: "c_0"
  bottom: "gate_input_1"
  bottom: "cont_1"
  top: "c_1"
  top: "h_1"
}
layer {
  name: "lstm1_h_conted_1"
  type: "Scale"
  bottom: "h_1"
  bottom: "cont_2"
  top: "h_conted_1"
  scale_param {
    axis: 0
  }
}
layer {
  name: "lstm1_transform_2"
  type: "InnerProduct"
  bottom: "h_conted_1"
  top: "W_hc_h_1"
  param {
    name: "W_hc"
  }
  inner_product_param {
    num_output: 2048
    bias_term: false
    weight_filler {
      type: "uniform"
      min: -0.01
      max: 0.01
    }
    axis: 2
  }
}
layer {
  name: "lstm1_gate_input_2"
  type: "Eltwise"
  bottom: "W_hc_h_1"
  bottom: "W_xc_x_2"
  top: "gate_input_2"
  eltwise_param {
    operation: SUM
  }
}
layer {
  name: "lstm1_unit_2"
  type: "LSTMUnit"
  bottom: "c_1"
  bottom: "gate_input_2"
  bottom: "cont_2"
  top: "c_2"
  top: "h_2"
}
layer {
  name: "lstm1_h_conted_2"
  type: "Scale"
  bottom: "h_2"
  bottom: "cont_3"
  top: "h_conted_2"
  scale_param {
    axis: 0
  }
}
layer {
  name: "lstm1_transform_3"
  type: "InnerProduct"
  bottom: "h_conted_2"
  top: "W_hc_h_2"
  param {
    name: "W_hc"
  }
  inner_product_param {
    num_output: 2048
    bias_term: false
    weight_filler {
      type: "uniform"
      min: -0.01
      max: 0.01
    }
    axis: 2
  }
}
layer {
  name: "lstm1_gate_input_3"
  type: "Eltwise"
  bottom: "W_hc_h_2"
  bottom: "W_xc_x_3"
  top: "gate_input_3"
  eltwise_param {
    operation: SUM
  }
}
layer {
  name: "lstm1_unit_3"
  type: "LSTMUnit"
  bottom: "c_2"
  bottom: "gate_input_3"
  bottom: "cont_3"
  top: "c_3"
  top: "h_3"
}
layer {
  name: "lstm1_h_conted_3"
  type: "Scale"
  bottom: "h_3"
  bottom: "cont_4"
  top: "h_conted_3"
  scale_param {
    axis: 0
  }
}
layer {
  name: "lstm1_transform_4"
  type: "InnerProduct"
  bottom: "h_conted_3"
  top: "W_hc_h_3"
  param {
    name: "W_hc"
  }
  inner_product_param {
    num_output: 2048
    bias_term: false
    weight_filler {
      type: "uniform"
      min: -0.01
      max: 0.01
    }
    axis: 2
  }
}
layer {
  name: "lstm1_gate_input_4"
  type: "Eltwise"
  bottom: "W_hc_h_3"
  bottom: "W_xc_x_4"
  top: "gate_input_4"
  eltwise_param {
    operation: SUM
  }
}
layer {
  name: "lstm1_unit_4"
  type: "LSTMUnit"
  bottom: "c_3"
  bottom: "gate_input_4"
  bottom: "cont_4"
  top: "c_4"
  top: "h_4"
}
layer {
  name: "lstm1_h_conted_4"
  type: "Scale"
  bottom: "h_4"
  bottom: "cont_5"
  top: "h_conted_4"
  scale_param {
    axis: 0
  }
}
layer {
  name: "lstm1_transform_5"
  type: "InnerProduct"
  bottom: "h_conted_4"
  top: "W_hc_h_4"
  param {
    name: "W_hc"
  }
  inner_product_param {
    num_output: 2048
    bias_term: false
    weight_filler {
      type: "uniform"
      min: -0.01
      max: 0.01
    }
    axis: 2
  }
}
layer {
  name: "lstm1_gate_input_5"
  type: "Eltwise"
  bottom: "W_hc_h_4"
  bottom: "W_xc_x_5"
  top: "gate_input_5"
  eltwise_param {
    operation: SUM
  }
}
layer {
  name: "lstm1_unit_5"
  type: "LSTMUnit"
  bottom: "c_4"
  bottom: "gate_input_5"
  bottom: "cont_5"
  top: "c_5"
  top: "h_5"
}
layer {
  name: "lstm1_h_conted_5"
  type: "Scale"
  bottom: "h_5"
  bottom: "cont_6"
  top: "h_conted_5"
  scale_param {
    axis: 0
  }
}
layer {
  name: "lstm1_transform_6"
  type: "InnerProduct"
  bottom: "h_conted_5"
  top: "W_hc_h_5"
  param {
    name: "W_hc"
  }
  inner_product_param {
    num_output: 2048
    bias_term: false
    weight_filler {
      type: "uniform"
      min: -0.01
      max: 0.01
    }
    axis: 2
  }
}
layer {
  name: "lstm1_gate_input_6"
  type: "Eltwise"
  bottom: "W_hc_h_5"
  bottom: "W_xc_x_6"
  top: "gate_input_6"
  eltwise_param {
    operation: SUM
  }
}
layer {
  name: "lstm1_unit_6"
  type: "LSTMUnit"
  bottom: "c_5"
  bottom: "gate_input_6"
  bottom: "cont_6"
  top: "c_6"
  top: "h_6"
}
layer {
  name: "lstm1_h_conted_6"
  type: "Scale"
  bottom: "h_6"
  bottom: "cont_7"
  top: "h_conted_6"
  scale_param {
    axis: 0
  }
}
layer {
  name: "lstm1_transform_7"
  type: "InnerProduct"
  bottom: "h_conted_6"
  top: "W_hc_h_6"
  param {
    name: "W_hc"
  }
  inner_product_param {
    num_output: 2048
    bias_term: false
    weight_filler {
      type: "uniform"
      min: -0.01
      max: 0.01
    }
    axis: 2
  }
}
layer {
  name: "lstm1_gate_input_7"
  type: "Eltwise"
  bottom: "W_hc_h_6"
  bottom: "W_xc_x_7"
  top: "gate_input_7"
  eltwise_param {
    operation: SUM
  }
}
layer {
  name: "lstm1_unit_7"
  type: "LSTMUnit"
  bottom: "c_6"
  bottom: "gate_input_7"
  bottom: "cont_7"
  top: "c_7"
  top: "h_7"
}
layer {
  name: "lstm1_h_conted_7"
  type: "Scale"
  bottom: "h_7"
  bottom: "cont_8"
  top: "h_conted_7"
  scale_param {
    axis: 0
  }
}
layer {
  name: "lstm1_transform_8"
  type: "InnerProduct"
  bottom: "h_conted_7"
  top: "W_hc_h_7"
  param {
    name: "W_hc"
  }
  inner_product_param {
    num_output: 2048
    bias_term: false
    weight_filler {
      type: "uniform"
      min: -0.01
      max: 0.01
    }
    axis: 2
  }
}
layer {
  name: "lstm1_gate_input_8"
  type: "Eltwise"
  bottom: "W_hc_h_7"
  bottom: "W_xc_x_8"
  top: "gate_input_8"
  eltwise_param {
    operation: SUM
  }
}
layer {
  name: "lstm1_unit_8"
  type: "LSTMUnit"
  bottom: "c_7"
  bottom: "gate_input_8"
  bottom: "cont_8"
  top: "c_8"
  top: "h_8"
}
layer {
  name: "lstm1_h_conted_8"
  type: "Scale"
  bottom: "h_8"
  bottom: "cont_9"
  top: "h_conted_8"
  scale_param {
    axis: 0
  }
}
layer {
  name: "lstm1_transform_9"
  type: "InnerProduct"
  bottom: "h_conted_8"
  top: "W_hc_h_8"
  param {
    name: "W_hc"
  }
  inner_product_param {
    num_output: 2048
    bias_term: false
    weight_filler {
      type: "uniform"
      min: -0.01
      max: 0.01
    }
    axis: 2
  }
}
layer {
  name: "lstm1_gate_input_9"
  type: "Eltwise"
  bottom: "W_hc_h_8"
  bottom: "W_xc_x_9"
  top: "gate_input_9"
  eltwise_param {
    operation: SUM
  }
}
layer {
  name: "lstm1_unit_9"
  type: "LSTMUnit"
  bottom: "c_8"
  bottom: "gate_input_9"
  bottom: "cont_9"
  top: "c_9"
  top: "h_9"
}
layer {
  name: "lstm1_h_conted_9"
  type: "Scale"
  bottom: "h_9"
  bottom: "cont_10"
  top: "h_conted_9"
  scale_param {
    axis: 0
  }
}
layer {
  name: "lstm1_transform_10"
  type: "InnerProduct"
  bottom: "h_conted_9"
  top: "W_hc_h_9"
  param {
    name: "W_hc"
  }
  inner_product_param {
    num_output: 2048
    bias_term: false
    weight_filler {
      type: "uniform"
      min: -0.01
      max: 0.01
    }
    axis: 2
  }
}
layer {
  name: "lstm1_gate_input_10"
  type: "Eltwise"
  bottom: "W_hc_h_9"
  bottom: "W_xc_x_10"
  top: "gate_input_10"
  eltwise_param {
    operation: SUM
  }
}
layer {
  name: "lstm1_unit_10"
  type: "LSTMUnit"
  bottom: "c_9"
  bottom: "gate_input_10"
  bottom: "cont_10"
  top: "c_10"
  top: "h_10"
}
layer {
  name: "lstm1_h_conted_10"
  type: "Scale"
  bottom: "h_10"
  bottom: "cont_11"
  top: "h_conted_10"
  scale_param {
    axis: 0
  }
}
layer {
  name: "lstm1_transform_11"
  type: "InnerProduct"
  bottom: "h_conted_10"
  top: "W_hc_h_10"
  param {
    name: "W_hc"
  }
  inner_product_param {
    num_output: 2048
    bias_term: false
    weight_filler {
      type: "uniform"
      min: -0.01
      max: 0.01
    }
    axis: 2
  }
}
layer {
  name: "lstm1_gate_input_11"
  type: "Eltwise"
  bottom: "W_hc_h_10"
  bottom: "W_xc_x_11"
  top: "gate_input_11"
  eltwise_param {
    operation: SUM
  }
}
layer {
  name: "lstm1_unit_11"
  type: "LSTMUnit"
  bottom: "c_10"
  bottom: "gate_input_11"
  bottom: "cont_11"
  top: "c_11"
  top: "h_11"
}
layer {
  name: "lstm1_h_conted_11"
  type: "Scale"
  bottom: "h_11"
  bottom: "cont_12"
  top: "h_conted_11"
  scale_param {
    axis: 0
  }
}
layer {
  name: "lstm1_transform_12"
  type: "InnerProduct"
  bottom: "h_conted_11"
  top: "W_hc_h_11"
  param {
    name: "W_hc"
  }
  inner_product_param {
    num_output: 2048
    bias_term: false
    weight_filler {
      type: "uniform"
      min: -0.01
      max: 0.01
    }
    axis: 2
  }
}
layer {
  name: "lstm1_gate_input_12"
  type: "Eltwise"
  bottom: "W_hc_h_11"
  bottom: "W_xc_x_12"
  top: "gate_input_12"
  eltwise_param {
    operation: SUM
  }
}
layer {
  name: "lstm1_unit_12"
  type: "LSTMUnit"
  bottom: "c_11"
  bottom: "gate_input_12"
  bottom: "cont_12"
  top: "c_12"
  top: "h_12"
}
layer {
  name: "lstm1_h_conted_12"
  type: "Scale"
  bottom: "h_12"
  bottom: "cont_13"
  top: "h_conted_12"
  scale_param {
    axis: 0
  }
}
layer {
  name: "lstm1_transform_13"
  type: "InnerProduct"
  bottom: "h_conted_12"
  top: "W_hc_h_12"
  param {
    name: "W_hc"
  }
  inner_product_param {
    num_output: 2048
    bias_term: false
    weight_filler {
      type: "uniform"
      min: -0.01
      max: 0.01
    }
    axis: 2
  }
}
layer {
  name: "lstm1_gate_input_13"
  type: "Eltwise"
  bottom: "W_hc_h_12"
  bottom: "W_xc_x_13"
  top: "gate_input_13"
  eltwise_param {
    operation: SUM
  }
}
layer {
  name: "lstm1_unit_13"
  type: "LSTMUnit"
  bottom: "c_12"
  bottom: "gate_input_13"
  bottom: "cont_13"
  top: "c_13"
  top: "h_13"
}
layer {
  name: "lstm1_h_conted_13"
  type: "Scale"
  bottom: "h_13"
  bottom: "cont_14"
  top: "h_conted_13"
  scale_param {
    axis: 0
  }
}
layer {
  name: "lstm1_transform_14"
  type: "InnerProduct"
  bottom: "h_conted_13"
  top: "W_hc_h_13"
  param {
    name: "W_hc"
  }
  inner_product_param {
    num_output: 2048
    bias_term: false
    weight_filler {
      type: "uniform"
      min: -0.01
      max: 0.01
    }
    axis: 2
  }
}
layer {
  name: "lstm1_gate_input_14"
  type: "Eltwise"
  bottom: "W_hc_h_13"
  bottom: "W_xc_x_14"
  top: "gate_input_14"
  eltwise_param {
    operation: SUM
  }
}
layer {
  name: "lstm1_unit_14"
  type: "LSTMUnit"
  bottom: "c_13"
  bottom: "gate_input_14"
  bottom: "cont_14"
  top: "c_14"
  top: "h_14"
}
layer {
  name: "lstm1_h_conted_14"
  type: "Scale"
  bottom: "h_14"
  bottom: "cont_15"
  top: "h_conted_14"
  scale_param {
    axis: 0
  }
}
layer {
  name: "lstm1_transform_15"
  type: "InnerProduct"
  bottom: "h_conted_14"
  top: "W_hc_h_14"
  param {
    name: "W_hc"
  }
  inner_product_param {
    num_output: 2048
    bias_term: false
    weight_filler {
      type: "uniform"
      min: -0.01
      max: 0.01
    }
    axis: 2
  }
}
layer {
  name: "lstm1_gate_input_15"
  type: "Eltwise"
  bottom: "W_hc_h_14"
  bottom: "W_xc_x_15"
  top: "gate_input_15"
  eltwise_param {
    operation: SUM
  }
}
layer {
  name: "lstm1_unit_15"
  type: "LSTMUnit"
  bottom: "c_14"
  bottom: "gate_input_15"
  bottom: "cont_15"
  top: "c_15"
  top: "h_15"
}
layer {
  name: "lstm1_h_conted_15"
  type: "Scale"
  bottom: "h_15"
  bottom: "cont_16"
  top: "h_conted_15"
  scale_param {
    axis: 0
  }
}
layer {
  name: "lstm1_transform_16"
  type: "InnerProduct"
  bottom: "h_conted_15"
  top: "W_hc_h_15"
  param {
    name: "W_hc"
  }
  inner_product_param {
    num_output: 2048
    bias_term: false
    weight_filler {
      type: "uniform"
      min: -0.01
      max: 0.01
    }
    axis: 2
  }
}
layer {
  name: "lstm1_gate_input_16"
  type: "Eltwise"
  bottom: "W_hc_h_15"
  bottom: "W_xc_x_16"
  top: "gate_input_16"
  eltwise_param {
    operation: SUM
  }
}
layer {
  name: "lstm1_unit_16"
  type: "LSTMUnit"
  bottom: "c_15"
  bottom: "gate_input_16"
  bottom: "cont_16"
  top: "c_16"
  top: "h_16"
}
layer {
  name: "lstm1_h_conted_16"
  type: "Scale"
  bottom: "h_16"
  bottom: "cont_17"
  top: "h_conted_16"
  scale_param {
    axis: 0
  }
}
layer {
  name: "lstm1_transform_17"
  type: "InnerProduct"
  bottom: "h_conted_16"
  top: "W_hc_h_16"
  param {
    name: "W_hc"
  }
  inner_product_param {
    num_output: 2048
    bias_term: false
    weight_filler {
      type: "uniform"
      min: -0.01
      max: 0.01
    }
    axis: 2
  }
}
layer {
  name: "lstm1_gate_input_17"
  type: "Eltwise"
  bottom: "W_hc_h_16"
  bottom: "W_xc_x_17"
  top: "gate_input_17"
  eltwise_param {
    operation: SUM
  }
}
layer {
  name: "lstm1_unit_17"
  type: "LSTMUnit"
  bottom: "c_16"
  bottom: "gate_input_17"
  bottom: "cont_17"
  top: "c_17"
  top: "h_17"
}
layer {
  name: "lstm1_h_conted_17"
  type: "Scale"
  bottom: "h_17"
  bottom: "cont_18"
  top: "h_conted_17"
  scale_param {
    axis: 0
  }
}
layer {
  name: "lstm1_transform_18"
  type: "InnerProduct"
  bottom: "h_conted_17"
  top: "W_hc_h_17"
  param {
    name: "W_hc"
  }
  inner_product_param {
    num_output: 2048
    bias_term: false
    weight_filler {
      type: "uniform"
      min: -0.01
      max: 0.01
    }
    axis: 2
  }
}
layer {
  name: "lstm1_gate_input_18"
  type: "Eltwise"
  bottom: "W_hc_h_17"
  bottom: "W_xc_x_18"
  top: "gate_input_18"
  eltwise_param {
    operation: SUM
  }
}
layer {
  name: "lstm1_unit_18"
  type: "LSTMUnit"
  bottom: "c_17"
  bottom: "gate_input_18"
  bottom: "cont_18"
  top: "c_18"
  top: "h_18"
}
layer {
  name: "lstm1_h_conted_18"
  type: "Scale"
  bottom: "h_18"
  bottom: "cont_19"
  top: "h_conted_18"
  scale_param {
    axis: 0
  }
}
layer {
  name: "lstm1_transform_19"
  type: "InnerProduct"
  bottom: "h_conted_18"
  top: "W_hc_h_18"
  param {
    name: "W_hc"
  }
  inner_product_param {
    num_output: 2048
    bias_term: false
    weight_filler {
      type: "uniform"
      min: -0.01
      max: 0.01
    }
    axis: 2
  }
}
layer {
  name: "lstm1_gate_input_19"
  type: "Eltwise"
  bottom: "W_hc_h_18"
  bottom: "W_xc_x_19"
  top: "gate_input_19"
  eltwise_param {
    operation: SUM
  }
}
layer {
  name: "lstm1_unit_19"
  type: "LSTMUnit"
  bottom: "c_18"
  bottom: "gate_input_19"
  bottom: "cont_19"
  top: "c_19"
  top: "h_19"
}
layer {
  name: "lstm1_h_conted_19"
  type: "Scale"
  bottom: "h_19"
  bottom: "cont_20"
  top: "h_conted_19"
  scale_param {
    axis: 0
  }
}
layer {
  name: "lstm1_transform_20"
  type: "InnerProduct"
  bottom: "h_conted_19"
  top: "W_hc_h_19"
  param {
    name: "W_hc"
  }
  inner_product_param {
    num_output: 2048
    bias_term: false
    weight_filler {
      type: "uniform"
      min: -0.01
      max: 0.01
    }
    axis: 2
  }
}
layer {
  name: "lstm1_gate_input_20"
  type: "Eltwise"
  bottom: "W_hc_h_19"
  bottom: "W_xc_x_20"
  top: "gate_input_20"
  eltwise_param {
    operation: SUM
  }
}
layer {
  name: "lstm1_unit_20"
  type: "LSTMUnit"
  bottom: "c_19"
  bottom: "gate_input_20"
  bottom: "cont_20"
  top: "c_20"
  top: "h_20"
}
layer {
  name: "lstm1_h_conted_20"
  type: "Scale"
  bottom: "h_20"
  bottom: "cont_21"
  top: "h_conted_20"
  scale_param {
    axis: 0
  }
}
layer {
  name: "lstm1_transform_21"
  type: "InnerProduct"
  bottom: "h_conted_20"
  top: "W_hc_h_20"
  param {
    name: "W_hc"
  }
  inner_product_param {
    num_output: 2048
    bias_term: false
    weight_filler {
      type: "uniform"
      min: -0.01
      max: 0.01
    }
    axis: 2
  }
}
layer {
  name: "lstm1_gate_input_21"
  type: "Eltwise"
  bottom: "W_hc_h_20"
  bottom: "W_xc_x_21"
  top: "gate_input_21"
  eltwise_param {
    operation: SUM
  }
}
layer {
  name: "lstm1_unit_21"
  type: "LSTMUnit"
  bottom: "c_20"
  bottom: "gate_input_21"
  bottom: "cont_21"
  top: "c_21"
  top: "h_21"
}
layer {
  name: "lstm1_h_conted_21"
  type: "Scale"
  bottom: "h_21"
  bottom: "cont_22"
  top: "h_conted_21"
  scale_param {
    axis: 0
  }
}
layer {
  name: "lstm1_transform_22"
  type: "InnerProduct"
  bottom: "h_conted_21"
  top: "W_hc_h_21"
  param {
    name: "W_hc"
  }
  inner_product_param {
    num_output: 2048
    bias_term: false
    weight_filler {
      type: "uniform"
      min: -0.01
      max: 0.01
    }
    axis: 2
  }
}
layer {
  name: "lstm1_gate_input_22"
  type: "Eltwise"
  bottom: "W_hc_h_21"
  bottom: "W_xc_x_22"
  top: "gate_input_22"
  eltwise_param {
    operation: SUM
  }
}
layer {
  name: "lstm1_unit_22"
  type: "LSTMUnit"
  bottom: "c_21"
  bottom: "gate_input_22"
  bottom: "cont_22"
  top: "c_22"
  top: "h_22"
}
layer {
  name: "lstm1_h_conted_22"
  type: "Scale"
  bottom: "h_22"
  bottom: "cont_23"
  top: "h_conted_22"
  scale_param {
    axis: 0
  }
}
layer {
  name: "lstm1_transform_23"
  type: "InnerProduct"
  bottom: "h_conted_22"
  top: "W_hc_h_22"
  param {
    name: "W_hc"
  }
  inner_product_param {
    num_output: 2048
    bias_term: false
    weight_filler {
      type: "uniform"
      min: -0.01
      max: 0.01
    }
    axis: 2
  }
}
layer {
  name: "lstm1_gate_input_23"
  type: "Eltwise"
  bottom: "W_hc_h_22"
  bottom: "W_xc_x_23"
  top: "gate_input_23"
  eltwise_param {
    operation: SUM
  }
}
layer {
  name: "lstm1_unit_23"
  type: "LSTMUnit"
  bottom: "c_22"
  bottom: "gate_input_23"
  bottom: "cont_23"
  top: "c_23"
  top: "h_23"
}
layer {
  name: "lstm1_h_conted_23"
  type: "Scale"
  bottom: "h_23"
  bottom: "cont_24"
  top: "h_conted_23"
  scale_param {
    axis: 0
  }
}
layer {
  name: "lstm1_transform_24"
  type: "InnerProduct"
  bottom: "h_conted_23"
  top: "W_hc_h_23"
  param {
    name: "W_hc"
  }
  inner_product_param {
    num_output: 2048
    bias_term: false
    weight_filler {
      type: "uniform"
      min: -0.01
      max: 0.01
    }
    axis: 2
  }
}
layer {
  name: "lstm1_gate_input_24"
  type: "Eltwise"
  bottom: "W_hc_h_23"
  bottom: "W_xc_x_24"
  top: "gate_input_24"
  eltwise_param {
    operation: SUM
  }
}
layer {
  name: "lstm1_unit_24"
  type: "LSTMUnit"
  bottom: "c_23"
  bottom: "gate_input_24"
  bottom: "cont_24"
  top: "c_24"
  top: "h_24"
}
layer {
  name: "lstm1_h_conted_24"
  type: "Scale"
  bottom: "h_24"
  bottom: "cont_25"
  top: "h_conted_24"
  scale_param {
    axis: 0
  }
}
layer {
  name: "lstm1_transform_25"
  type: "InnerProduct"
  bottom: "h_conted_24"
  top: "W_hc_h_24"
  param {
    name: "W_hc"
  }
  inner_product_param {
    num_output: 2048
    bias_term: false
    weight_filler {
      type: "uniform"
      min: -0.01
      max: 0.01
    }
    axis: 2
  }
}
layer {
  name: "lstm1_gate_input_25"
  type: "Eltwise"
  bottom: "W_hc_h_24"
  bottom: "W_xc_x_25"
  top: "gate_input_25"
  eltwise_param {
    operation: SUM
  }
}
layer {
  name: "lstm1_unit_25"
  type: "LSTMUnit"
  bottom: "c_24"
  bottom: "gate_input_25"
  bottom: "cont_25"
  top: "c_25"
  top: "h_25"
}
layer {
  name: "lstm1_h_conted_25"
  type: "Scale"
  bottom: "h_25"
  bottom: "cont_26"
  top: "h_conted_25"
  scale_param {
    axis: 0
  }
}
layer {
  name: "lstm1_transform_26"
  type: "InnerProduct"
  bottom: "h_conted_25"
  top: "W_hc_h_25"
  param {
    name: "W_hc"
  }
  inner_product_param {
    num_output: 2048
    bias_term: false
    weight_filler {
      type: "uniform"
      min: -0.01
      max: 0.01
    }
    axis: 2
  }
}
layer {
  name: "lstm1_gate_input_26"
  type: "Eltwise"
  bottom: "W_hc_h_25"
  bottom: "W_xc_x_26"
  top: "gate_input_26"
  eltwise_param {
    operation: SUM
  }
}
layer {
  name: "lstm1_unit_26"
  type: "LSTMUnit"
  bottom: "c_25"
  bottom: "gate_input_26"
  bottom: "cont_26"
  top: "c_26"
  top: "h_26"
}
layer {
  name: "lstm1_h_conted_26"
  type: "Scale"
  bottom: "h_26"
  bottom: "cont_27"
  top: "h_conted_26"
  scale_param {
    axis: 0
  }
}
layer {
  name: "lstm1_transform_27"
  type: "InnerProduct"
  bottom: "h_conted_26"
  top: "W_hc_h_26"
  param {
    name: "W_hc"
  }
  inner_product_param {
    num_output: 2048
    bias_term: false
    weight_filler {
      type: "uniform"
      min: -0.01
      max: 0.01
    }
    axis: 2
  }
}
layer {
  name: "lstm1_gate_input_27"
  type: "Eltwise"
  bottom: "W_hc_h_26"
  bottom: "W_xc_x_27"
  top: "gate_input_27"
  eltwise_param {
    operation: SUM
  }
}
layer {
  name: "lstm1_unit_27"
  type: "LSTMUnit"
  bottom: "c_26"
  bottom: "gate_input_27"
  bottom: "cont_27"
  top: "c_27"
  top: "h_27"
}
layer {
  name: "lstm1_h_conted_27"
  type: "Scale"
  bottom: "h_27"
  bottom: "cont_28"
  top: "h_conted_27"
  scale_param {
    axis: 0
  }
}
layer {
  name: "lstm1_transform_28"
  type: "InnerProduct"
  bottom: "h_conted_27"
  top: "W_hc_h_27"
  param {
    name: "W_hc"
  }
  inner_product_param {
    num_output: 2048
    bias_term: false
    weight_filler {
      type: "uniform"
      min: -0.01
      max: 0.01
    }
    axis: 2
  }
}
layer {
  name: "lstm1_gate_input_28"
  type: "Eltwise"
  bottom: "W_hc_h_27"
  bottom: "W_xc_x_28"
  top: "gate_input_28"
  eltwise_param {
    operation: SUM
  }
}
layer {
  name: "lstm1_unit_28"
  type: "LSTMUnit"
  bottom: "c_27"
  bottom: "gate_input_28"
  bottom: "cont_28"
  top: "c_28"
  top: "h_28"
}
layer {
  name: "lstm1_h_conted_28"
  type: "Scale"
  bottom: "h_28"
  bottom: "cont_29"
  top: "h_conted_28"
  scale_param {
    axis: 0
  }
}
layer {
  name: "lstm1_transform_29"
  type: "InnerProduct"
  bottom: "h_conted_28"
  top: "W_hc_h_28"
  param {
    name: "W_hc"
  }
  inner_product_param {
    num_output: 2048
    bias_term: false
    weight_filler {
      type: "uniform"
      min: -0.01
      max: 0.01
    }
    axis: 2
  }
}
layer {
  name: "lstm1_gate_input_29"
  type: "Eltwise"
  bottom: "W_hc_h_28"
  bottom: "W_xc_x_29"
  top: "gate_input_29"
  eltwise_param {
    operation: SUM
  }
}
layer {
  name: "lstm1_unit_29"
  type: "LSTMUnit"
  bottom: "c_28"
  bottom: "gate_input_29"
  bottom: "cont_29"
  top: "c_29"
  top: "h_29"
}
layer
I1017 12:09:27.966230 26962 layer_factory.hpp:77] Creating layer lstm1_
I1017 12:09:27.966552 26962 net.cpp:84] Creating Layer lstm1_
I1017 12:09:27.966629 26962 net.cpp:380] lstm1_ -> x
I1017 12:09:27.966804 26962 net.cpp:380] lstm1_ -> cont
I1017 12:09:27.967335 26962 net.cpp:122] Setting up lstm1_
I1017 12:09:27.967428 26962 net.cpp:129] Top shape: 196 2 196 (76832)
I1017 12:09:27.967483 26962 net.cpp:129] Top shape: 196 2 (392)
I1017 12:09:27.967510 26962 net.cpp:137] Memory required for data: 308896
I1017 12:09:27.967525 26962 layer_factory.hpp:77] Creating layer lstm1_
I1017 12:09:27.967563 26962 net.cpp:84] Creating Layer lstm1_
I1017 12:09:27.967588 26962 net.cpp:380] lstm1_ -> c_0
I1017 12:09:27.967638 26962 net.cpp:380] lstm1_ -> h_0
I1017 12:09:27.967700 26962 net.cpp:122] Setting up lstm1_
I1017 12:09:27.967712 26962 net.cpp:129] Top shape: 1 2 512 (1024)
I1017 12:09:27.967718 26962 net.cpp:129] Top shape: 1 2 512 (1024)
I1017 12:09:27.967722 26962 net.cpp:137] Memory required for data: 317088
I1017 12:09:27.967728 26962 layer_factory.hpp:77] Creating layer lstm1_cont_slice
I1017 12:09:27.967754 26962 net.cpp:84] Creating Layer lstm1_cont_slice
I1017 12:09:27.967761 26962 net.cpp:406] lstm1_cont_slice <- cont
I1017 12:09:27.967780 26962 net.cpp:380] lstm1_cont_slice -> cont_1
I1017 12:09:27.967810 26962 net.cpp:380] lstm1_cont_slice -> cont_2
…
I1017 12:09:27.973600 26962 net.cpp:380] lstm1_cont_slice -> cont_190
I1017 12:09:27.973630 26962 net.cpp:380] lstm1_cont_slice -> cont_191
I1017 12:09:27.973659 26962 net.cpp:380] lstm1_cont_slice -> cont_192
I1017 12:09:27.973690 26962 net.cpp:380] lstm1_cont_slice -> cont_193
I1017 12:09:27.973718 26962 net.cpp:380] lstm1_cont_slice -> cont_194
I1017 12:09:27.973748 26962 net.cpp:380] lstm1_cont_slice -> cont_195
I1017 12:09:27.973778 26962 net.cpp:380] lstm1_cont_slice -> cont_196
I1017 12:09:27.976104 26962 net.cpp:122] Setting up lstm1_cont_slice
I1017 12:09:27.976120 26962 net.cpp:129] Top shape: 1 2 (2)
I1017 12:09:27.976126 26962 net.cpp:129] Top shape: 1 2 (2)
I1017 12:09:27.976132 26962 net.cpp:129] Top shape: 1 2 (2)
I1017 12:09:27.976137 26962 net.cpp:129] Top shape: 1 2 (2)
I1017 12:09:27.976143 26962 net.cpp:129] Top shape: 1 2 (2)
I1017 12:09:27.976148 26962 net.cpp:129] Top shape: 1 2 (2)
I1017 12:09:27.976153 26962 net.cpp:129] Top shape: 1 2 (2)
I1017 12:09:27.976160 26962 net.cpp:129] Top shape: 1 2 (2)
I1017 12:09:27.976164 26962 net.cpp:129] Top shape: 1 2 (2)
I1017 12:09:27.976169 26962 net.cpp:129] Top shape: 1 2 (2)
I1017 12:09:27.976174 26962 net.cpp:129] Top shape: 1 2 (2)
I1017 12:09:27.976179 26962 net.cpp:129] Top shape: 1 2 (2)
I1017 12:09:27.976186 26962 net.cpp:129] Top shape: 1 2 (2)
I1017 12:09:27.976191 26962 net.cpp:129] Top shape: 1 2 (2)
I1017 12:09:27.976196 26962 net.cpp:129] Top shape: 1 2 (2)
I1017 12:09:27.976200 26962 net.cpp:129] Top shape: 1 2 (2)
I1017 12:09:27.976205 26962 net.cpp:129] Top shape: 1 2 (2)
I1017 12:09:27.976210 26962 net.cpp:129] Top shape: 1 2 (2)
I1017 12:09:27.976215 26962 net.cpp:129] Top shape: 1 2 (2)
I1017 12:09:27.976220 26962 net.cpp:129] Top shape: 1 2 (2)
I1017 12:09:27.976227 26962 net.cpp:129] Top shape: 1 2 (2)
I1017 12:09:27.976231 26962 net.cpp:129] Top shape: 1 2 (2)
I1017 12:09:27.976236 26962 net.cpp:129] Top shape: 1 2 (2)
I1017 12:09:27.976241 26962 net.cpp:129] Top shape: 1 2 (2)
I1017 12:09:27.976246 26962 net.cpp:129] Top shape: 1 2 (2)
I1017 12:09:27.976251 26962 net.cpp:129] Top shape: 1 2 (2)
I1017 12:09:27.976256 26962 net.cpp:129] Top shape: 1 2 (2)
I1017 12:09:27.976261 26962 net.cpp:129] Top shape: 1 2 (2)
I1017 12:09:27.976267 26962 net.cpp:129] Top shape: 1 2 (2)
I1017 12:09:27.976272 26962 net.cpp:129] Top shape: 1 2 (2)
I1017 12:09:27.976277 26962 net.cpp:129] Top shape: 1 2 (2)
I1017 12:09:27.976282 26962 net.cpp:129] Top shape: 1 2 (2)
I1017 12:09:27.976289 26962 net.cpp:129] Top shape: 1 2 (2)
I1017 12:09:27.976294 26962 net.cpp:129] Top shape: 1 2 (2)
I1017 12:09:27.976299 26962 net.cpp:129] Top shape: 1 2 (2)
I1017 12:09:27.976303 26962 net.cpp:129] Top shape: 1 2 (2)
I1017 12:09:27.976308 26962 net.cpp:129] Top shape: 1 2 (2)
I1017 12:09:27.976313 26962 net.cpp:129] Top shape: 1 2 (2)
I1017 12:09:27.976320 26962 net.cpp:129] Top shape: 1 2 (2)
I1017 12:09:27.976325 26962 net.cpp:129] Top shape: 1 2 (2)
I1017 12:09:27.976330 26962 net.cpp:129] Top shape: 1 2 (2)
I1017 12:09:27.976336 26962 net.cpp:129] Top shape: 1 2 (2)
I1017 12:09:27.976341 26962 net.cpp:129] Top shape: 1 2 (2)
I1017 12:09:27.976346 26962 net.cpp:129] Top shape: 1 2 (2)
I1017 12:09:27.976351 26962 net.cpp:129] Top shape: 1 2 (2)
I1017 12:09:27.976356 26962 net.cpp:129] Top shape: 1 2 (2)
I1017 12:09:27.976361 26962 net.cpp:129] Top shape: 1 2 (2)
I1017 12:09:27.976366 26962 net.cpp:129] Top shape: 1 2 (2)
I1017 12:09:27.976371 26962 net.cpp:129] Top shape: 1 2 (2)
I1017 12:09:27.976377 26962 net.cpp:129] Top shape: 1 2 (2)
I1017 12:09:27.976382 26962 net.cpp:129] Top shape: 1 2 (2)
I1017 12:09:27.976387 26962 net.cpp:129] Top shape: 1 2 (2)
I1017 12:09:27.976392 26962 net.cpp:129] Top shape: 1 2 (2)
I1017 12:09:27.976397 26962 net.cpp:129] Top shape: 1 2 (2)
I1017 12:09:27.976402 26962 net.cpp:129] Top shape: 1 2 (2)
I1017 12:09:27.976406 26962 net.cpp:129] Top shape: 1 2 (2)
I1017 12:09:27.976413 26962 net.cpp:129] Top shape: 1 2 (2)
I1017 12:09:27.976418 26962 net.cpp:129] Top shape: 1 2 (2)
I1017 12:09:27.976423 26962 net.cpp:129] Top shape: 1 2 (2)
I1017 12:09:27.976428 26962 net.cpp:129] Top shape: 1 2 (2)
I1017 12:09:27.976435 26962 net.cpp:129] Top shape: 1 2 (2)
I1017 12:09:27.976440 26962 net.cpp:129] Top shape: 1 2 (2)
I1017 12:09:27.976445 26962 net.cpp:129] Top shape: 1 2 (2)
I1017 12:09:27.976450 26962 net.cpp:129] Top shape: 1 2 (2)
I1017 12:09:27.976456 26962 net.cpp:129] Top shape: 1 2 (2)
I1017 12:09:27.976461 26962 net.cpp:129] Top shape: 1 2 (2)
I1017 12:09:27.976466 26962 net.cpp:129] Top shape: 1 2 (2)
I1017 12:09:27.976471 26962 net.cpp:129] Top shape: 1 2 (2)
I1017 12:09:27.976477 26962 net.cpp:129] Top shape: 1 2 (2)
I1017 12:09:27.976482 26962 net.cpp:129] Top shape: 1 2 (2)
I1017 12:09:27.976487 26962 net.cpp:129] Top shape: 1 2 (2)
I1017 12:09:27.976492 26962 net.cpp:129] Top shape: 1 2 (2)
I1017 12:09:27.976497 26962 net.cpp:129] Top shape: 1 2 (2)
I1017 12:09:27.976502 26962 net.cpp:129] Top shape: 1 2 (2)
I1017 12:09:27.976508 26962 net.cpp:129] Top shape: 1 2 (2)
I1017 12:09:27.976513 26962 net.cpp:129] Top shape: 1 2 (2)
I1017 12:09:27.976518 26962 net.cpp:129] Top shape: 1 2 (2)
I1017 12:09:27.976523 26962 net.cpp:129] Top shape: 1 2 (2)
I1017 12:09:27.976528 26962 net.cpp:129] Top shape: 1 2 (2)
I1017 12:09:27.976533 26962 net.cpp:129] Top shape: 1 2 (2)
I1017 12:09:27.976539 26962 net.cpp:129] Top shape: 1 2 (2)
I1017 12:09:27.976544 26962 net.cpp:129] Top shape: 1 2 (2)
I1017 12:09:27.976549 26962 net.cpp:129] Top shape: 1 2 (2)
I1017 12:09:27.976554 26962 net.cpp:129] Top shape: 1 2 (2)
I1017 12:09:27.976559 26962 net.cpp:129] Top shape: 1 2 (2)
I1017 12:09:27.976564 26962 net.cpp:129] Top shape: 1 2 (2)
I1017 12:09:27.976570 26962 net.cpp:129] Top shape: 1 2 (2)
I1017 12:09:27.976575 26962 net.cpp:129] Top shape: 1 2 (2)
I1017 12:09:27.976580 26962 net.cpp:129] Top shape: 1 2 (2)
I1017 12:09:27.976585 26962 net.cpp:129] Top shape: 1 2 (2)
I1017 12:09:27.976590 26962 net.cpp:129] Top shape: 1 2 (2)
I1017 12:09:27.976595 26962 net.cpp:129] Top shape: 1 2 (2)
I1017 12:09:27.976601 26962 net.cpp:129] Top shape: 1 2 (2)
I1017 12:09:27.976606 26962 net.cpp:129] Top shape: 1 2 (2)
I1017 12:09:27.976611 26962 net.cpp:129] Top shape: 1 2 (2)
I1017 12:09:27.976616 26962 net.cpp:129] Top shape: 1 2 (2)
I1017 12:09:27.976621 26962 net.cpp:129] Top shape: 1 2 (2)
I1017 12:09:27.976626 26962 net.cpp:129] Top shape: 1 2 (2)
I1017 12:09:27.976632 26962 net.cpp:129] Top shape: 1 2 (2)
I1017 12:09:27.976637 26962 net.cpp:129] Top shape: 1 2 (2)
I1017 12:09:27.976642 26962 net.cpp:129] Top shape: 1 2 (2)
I1017 12:09:27.976647 26962 net.cpp:129] Top shape: 1 2 (2)
I1017 12:09:27.976652 26962 net.cpp:129] Top shape: 1 2 (2)
I1017 12:09:27.976658 26962 net.cpp:129] Top shape: 1 2 (2)
I1017 12:09:27.976663 26962 net.cpp:129] Top shape: 1 2 (2)
I1017 12:09:27.976668 26962 net.cpp:129] Top shape: 1 2 (2)
I1017 12:09:27.976673 26962 net.cpp:129] Top shape: 1 2 (2)
I1017 12:09:27.976678 26962 net.cpp:129] Top shape: 1 2 (2)
I1017 12:09:27.976683 26962 net.cpp:129] Top shape: 1 2 (2)
I1017 12:09:27.976689 26962 net.cpp:129] Top shape: 1 2 (2)
I1017 12:09:27.976694 26962 net.cpp:129] Top shape: 1 2 (2)
I1017 12:09:27.976699 26962 net.cpp:129] Top shape: 1 2 (2)
I1017 12:09:27.976704 26962 net.cpp:129] Top shape: 1 2 (2)
I1017 12:09:27.976709 26962 net.cpp:129] Top shape: 1 2 (2)
I1017 12:09:27.976714 26962 net.cpp:129] Top shape: 1 2 (2)
I1017 12:09:27.976719 26962 net.cpp:129] Top shape: 1 2 (2)
I1017 12:09:27.976725 26962 net.cpp:129] Top shape: 1 2 (2)
I1017 12:09:27.976730 26962 net.cpp:129] Top shape: 1 2 (2)
I1017 12:09:27.976735 26962 net.cpp:129] Top shape: 1 2 (2)
I1017 12:09:27.976740 26962 net.cpp:129] Top shape: 1 2 (2)
I1017 12:09:27.976745 26962 net.cpp:129] Top shape: 1 2 (2)
I1017 12:09:27.976750 26962 net.cpp:129] Top shape: 1 2 (2)
I1017 12:09:27.976755 26962 net.cpp:129] Top shape: 1 2 (2)
I1017 12:09:27.976761 26962 net.cpp:129] Top shape: 1 2 (2)
I1017 12:09:27.976768 26962 net.cpp:129] Top shape: 1 2 (2)
I1017 12:09:27.976773 26962 net.cpp:129] Top shape: 1 2 (2)
I1017 12:09:27.976778 26962 net.cpp:129] Top shape: 1 2 (2)
I1017 12:09:27.976783 26962 net.cpp:129] Top shape: 1 2 (2)
I1017 12:09:27.976788 26962 net.cpp:129] Top shape: 1 2 (2)
I1017 12:09:27.976794 26962 net.cpp:129] Top shape: 1 2 (2)
I1017 12:09:27.976799 26962 net.cpp:129] Top shape: 1 2 (2)
I1017 12:09:27.976804 26962 net.cpp:129] Top shape: 1 2 (2)
I1017 12:09:27.976809 26962 net.cpp:129] Top shape: 1 2 (2)
I1017 12:09:27.976814 26962 net.cpp:129] Top shape: 1 2 (2)
I1017 12:09:27.976819 26962 net.cpp:129] Top shape: 1 2 (2)
I1017 12:09:27.976824 26962 net.cpp:129] Top shape: 1 2 (2)
I1017 12:09:27.976830 26962 net.cpp:129] Top shape: 1 2 (2)
I1017 12:09:27.976835 26962 net.cpp:129] Top shape: 1 2 (2)
I1017 12:09:27.976840 26962 net.cpp:129] Top shape: 1 2 (2)
I1017 12:09:27.976845 26962 net.cpp:129] Top shape: 1 2 (2)
I1017 12:09:27.976850 26962 net.cpp:129] Top shape: 1 2 (2)
I1017 12:09:27.976855 26962 net.cpp:129] Top shape: 1 2 (2)
I1017 12:09:27.976861 26962 net.cpp:129] Top shape: 1 2 (2)
I1017 12:09:27.976866 26962 net.cpp:129] Top shape: 1 2 (2)
I1017 12:09:27.976871 26962 net.cpp:129] Top shape: 1 2 (2)
I1017 12:09:27.976876 26962 net.cpp:129] Top shape: 1 2 (2)
I1017 12:09:27.976881 26962 net.cpp:129] Top shape: 1 2 (2)
I1017 12:09:27.976886 26962 net.cpp:129] Top shape: 1 2 (2)
I1017 12:09:27.976891 26962 net.cpp:129] Top shape: 1 2 (2)
I1017 12:09:27.976897 26962 net.cpp:129] Top shape: 1 2 (2)
I1017 12:09:27.976902 26962 net.cpp:129] Top shape: 1 2 (2)
I1017 12:09:27.976907 26962 net.cpp:129] Top shape: 1 2 (2)
I1017 12:09:27.976912 26962 net.cpp:129] Top shape: 1 2 (2)
I1017 12:09:27.976917 26962 net.cpp:129] Top shape: 1 2 (2)
I1017 12:09:27.976922 26962 net.cpp:129] Top shape: 1 2 (2)
I1017 12:09:27.976927 26962 net.cpp:129] Top shape: 1 2 (2)
I1017 12:09:27.976933 26962 net.cpp:129] Top shape: 1 2 (2)
I1017 12:09:27.976938 26962 net.cpp:129] Top shape: 1 2 (2)
I1017 12:09:27.976943 26962 net.cpp:129] Top shape: 1 2 (2)
I1017 12:09:27.976948 26962 net.cpp:129] Top shape: 1 2 (2)
I1017 12:09:27.976953 26962 net.cpp:129] Top shape: 1 2 (2)
I1017 12:09:27.976958 26962 net.cpp:129] Top shape: 1 2 (2)
I1017 12:09:27.976963 26962 net.cpp:129] Top shape: 1 2 (2)
I1017 12:09:27.976969 26962 net.cpp:129] Top shape: 1 2 (2)
I1017 12:09:27.976974 26962 net.cpp:129] Top shape: 1 2 (2)
I1017 12:09:27.976979 26962 net.cpp:129] Top shape: 1 2 (2)
I1017 12:09:27.976984 26962 net.cpp:129] Top shape: 1 2 (2)
I1017 12:09:27.976989 26962 net.cpp:129] Top shape: 1 2 (2)
I1017 12:09:27.976994 26962 net.cpp:129] Top shape: 1 2 (2)
I1017 12:09:27.976999 26962 net.cpp:129] Top shape: 1 2 (2)
I1017 12:09:27.977005 26962 net.cpp:129] Top shape: 1 2 (2)
I1017 12:09:27.977010 26962 net.cpp:129] Top shape: 1 2 (2)
I1017 12:09:27.977015 26962 net.cpp:129] Top shape: 1 2 (2)
I1017 12:09:27.977020 26962 net.cpp:129] Top shape: 1 2 (2)
I1017 12:09:27.977025 26962 net.cpp:129] Top shape: 1 2 (2)
I1017 12:09:27.977030 26962 net.cpp:129] Top shape: 1 2 (2)
I1017 12:09:27.977035 26962 net.cpp:129] Top shape: 1 2 (2)
I1017 12:09:27.977041 26962 net.cpp:129] Top shape: 1 2 (2)
I1017 12:09:27.977046 26962 net.cpp:129] Top shape: 1 2 (2)
I1017 12:09:27.977051 26962 net.cpp:129] Top shape: 1 2 (2)
I1017 12:09:27.977056 26962 net.cpp:129] Top shape: 1 2 (2)
I1017 12:09:27.977061 26962 net.cpp:129] Top shape: 1 2 (2)
I1017 12:09:27.977066 26962 net.cpp:129] Top shape: 1 2 (2)
I1017 12:09:27.977072 26962 net.cpp:129] Top shape: 1 2 (2)
I1017 12:09:27.977077 26962 net.cpp:129] Top shape: 1 2 (2)
I1017 12:09:27.977082 26962 net.cpp:129] Top shape: 1 2 (2)
I1017 12:09:27.977087 26962 net.cpp:129] Top shape: 1 2 (2)
I1017 12:09:27.977092 26962 net.cpp:129] Top shape: 1 2 (2)
I1017 12:09:27.977097 26962 net.cpp:129] Top shape: 1 2 (2)
I1017 12:09:27.977102 26962 net.cpp:129] Top shape: 1 2 (2)
I1017 12:09:27.977108 26962 net.cpp:129] Top shape: 1 2 (2)
I1017 12:09:27.977113 26962 net.cpp:129] Top shape: 1 2 (2)
I1017 12:09:27.977118 26962 net.cpp:129] Top shape: 1 2 (2)
I1017 12:09:27.977123 26962 net.cpp:129] Top shape: 1 2 (2)
I1017 12:09:27.977128 26962 net.cpp:129] Top shape: 1 2 (2)
I1017 12:09:27.977133 26962 net.cpp:129] Top shape: 1 2 (2)
I1017 12:09:27.977138 26962 net.cpp:137] Memory required for data: 318656
I1017 12:09:27.977144 26962 layer_factory.hpp:77] Creating layer cont_1_lstm1_cont_slice_0_split
I1017 12:09:27.977152 26962 net.cpp:84] Creating Layer cont_1_lstm1_cont_slice_0_split
I1017 12:09:27.977159 26962 net.cpp:406] cont_1_lstm1_cont_slice_0_split <- cont_1
I1017 12:09:27.977167 26962 net.cpp:380] cont_1_lstm1_cont_slice_0_split -> cont_1_lstm1_cont_slice_0_split_0
I1017 12:09:27.977177 26962 net.cpp:380] cont_1_lstm1_cont_slice_0_split -> cont_1_lstm1_cont_slice_0_split_1
I1017 12:09:27.977218 26962 net.cpp:122] Setting up cont_1_lstm1_cont_slice_0_split
I1017 12:09:27.977226 26962 net.cpp:129] Top shape: 1 2 (2)
I1017 12:09:27.977231 26962 net.cpp:129] Top shape: 1 2 (2)
I1017 12:09:27.977236 26962 net.cpp:137] Memory required for data: 318672
I1017 12:09:27.977241 26962 layer_factory.hpp:77] Creating layer cont_2_lstm1_cont_slice_1_split
I1017 12:09:27.977248 26962 net.cpp:84] Creating Layer cont_2_lstm1_cont_slice_1_split
I1017 12:09:27.977253 26962 net.cpp:406] cont_2_lstm1_cont_slice_1_split <- cont_2
I1017 12:09:27.977262 26962 net.cpp:380] cont_2_lstm1_cont_slice_1_split -> cont_2_lstm1_cont_slice_1_split_0
I1017 12:09:27.977270 26962 net.cpp:380] cont_2_lstm1_cont_slice_1_split -> cont_2_lstm1_cont_slice_1_split_1
I1017 12:09:27.977304 26962 net.cpp:122] Setting up cont_2_lstm1_cont_slice_1_split
I1017 12:09:27.977310 26962 net.cpp:129] Top shape: 1 2 (2)
I1017 12:09:27.977316 26962 net.cpp:129] Top shape: 1 2 (2)
I1017 12:09:27.977320 26962 net.cpp:137] Memory required for data: 318688
I1017 12:09:27.977324 26962 layer_factory.hpp:77] Creating layer cont_3_lstm1_cont_slice_2_split
I1017 12:09:27.977332 26962 net.cpp:84] Creating Layer cont_3_lstm1_cont_slice_2_split
I1017 12:09:27.977337 26962 net.cpp:406] cont_3_lstm1_cont_slice_2_split <- cont_3
I1017 12:09:27.977344 26962 net.cpp:380] cont_3_lstm1_cont_slice_2_split -> cont_3_lstm1_cont_slice_2_split_0
I1017 12:09:27.977354 26962 net.cpp:380] cont_3_lstm1_cont_slice_2_split -> cont_3_lstm1_cont_slice_2_split_1
I1017 12:09:27.977386 26962 net.cpp:122] Setting up cont_3_lstm1_cont_slice_2_split
I1017 12:09:27.977393 26962 net.cpp:129] Top shape: 1 2 (2)
I1017 12:09:27.977398 26962 net.cpp:129] Top shape: 1 2 (2)
I1017 12:09:27.977402 26962 net.cpp:137] Memory required for data: 318704
I1017 12:09:27.977407 26962 layer_factory.hpp:77] Creating layer cont_4_lstm1_cont_slice_3_split
I1017 12:09:27.977416 26962 net.cpp:84] Creating Layer cont_4_lstm1_cont_slice_3_split
I1017 12:09:27.977421 26962 net.cpp:406] cont_4_lstm1_cont_slice_3_split <- cont_4
I1017 12:09:27.977427 26962 net.cpp:380] cont_4_lstm1_cont_slice_3_split -> cont_4_lstm1_cont_slice_3_split_0
I1017 12:09:27.977433 26962 net.cpp:380] cont_4_lstm1_cont_slice_3_split -> cont_4_lstm1_cont_slice_3_split_1
I1017 12:09:27.977468 26962 net.cpp:122] Setting up cont_4_lstm1_cont_slice_3_split
I1017 12:09:27.977474 26962 net.cpp:129] Top shape: 1 2 (2)
I1017 12:09:27.977479 26962 net.cpp:129] Top shape: 1 2 (2)
I1017 12:09:27.977483 26962 net.cpp:137] Memory required for data: 318720
I1017 12:09:27.977488 26962 layer_factory.hpp:77] Creating layer cont_5_lstm1_cont_slice_4_split
I1017 12:09:27.977494 26962 net.cpp:84] Creating Layer cont_5_lstm1_cont_slice_4_split
I1017 12:09:27.977499 26962 net.cpp:406] cont_5_lstm1_cont_slice_4_split <- cont_5
I1017 12:09:27.977505 26962 net.cpp:380] cont_5_lstm1_cont_slice_4_split -> cont_5_lstm1_cont_slice_4_split_0
I1017 12:09:27.977515 26962 net.cpp:380] cont_5_lstm1_cont_slice_4_split -> cont_5_lstm1_cont_slice_4_split_1
I1017 12:09:27.977546 26962 net.cpp:122] Setting up cont_5_lstm1_cont_slice_4_split
I1017 12:09:27.977552 26962 net.cpp:129] Top shape: 1 2 (2)
I1017 12:09:27.977557 26962 net.cpp:129] Top shape: 1 2 (2)
I1017 12:09:27.977562 26962 net.cpp:137] Memory required for data: 318736
I1017 12:09:27.977566 26962 layer_factory.hpp:77] Creating layer cont_6_lstm1_cont_slice_5_split
I1017 12:09:27.977576 26962 net.cpp:84] Creating Layer cont_6_lstm1_cont_slice_5_split
I1017 12:09:27.977581 26962 net.cpp:406] cont_6_lstm1_cont_slice_5_split <- cont_6
I1017 12:09:27.977586 26962 net.cpp:380] cont_6_lstm1_cont_slice_5_split -> cont_6_lstm1_cont_slice_5_split_0
I1017 12:09:27.977593 26962 net.cpp:380] cont_6_lstm1_cont_slice_5_split -> cont_6_lstm1_cont_slice_5_split_1
I1017 12:09:27.977627 26962 net.cpp:122] Setting up cont_6_lstm1_cont_slice_5_split
I1017 12:09:27.977633 26962 net.cpp:129] Top shape: 1 2 (2)
I1017 12:09:27.977638 26962 net.cpp:129] Top shape: 1 2 (2)
I1017 12:09:27.977643 26962 net.cpp:137] Memory required for data: 318752
I1017 12:09:27.977648 26962 layer_factory.hpp:77] Creating layer cont_7_lstm1_cont_slice_6_split
I1017 12:09:27.977653 26962 net.cpp:84] Creating Layer cont_7_lstm1_cont_slice_6_split
I1017 12:09:27.977658 26962 net.cpp:406] cont_7_lstm1_cont_slice_6_split <- cont_7
I1017 12:09:27.977664 26962 net.cpp:380] cont_7_lstm1_cont_slice_6_split -> cont_7_lstm1_cont_slice_6_split_0
I1017 12:09:27.977671 26962 net.cpp:380] cont_7_lstm1_cont_slice_6_split -> cont_7_lstm1_cont_slice_6_split_1
I1017 12:09:27.977705 26962 net.cpp:122] Setting up cont_7_lstm1_cont_slice_6_split
I1017 12:09:27.977710 26962 net.cpp:129] Top shape: 1 2 (2)
I1017 12:09:27.977716 26962 net.cpp:129] Top shape: 1 2 (2)
I1017 12:09:27.977720 26962 net.cpp:137] Memory required for data: 318768
I1017 12:09:27.977725 26962 layer_factory.hpp:77] Creating layer cont_8_lstm1_cont_slice_7_split
I1017 12:09:27.977730 26962 net.cpp:84] Creating Layer cont_8_lstm1_cont_slice_7_split
I1017 12:09:27.977735 26962 net.cpp:406] cont_8_lstm1_cont_slice_7_split <- cont_8
I1017 12:09:27.977741 26962 net.cpp:380] cont_8_lstm1_cont_slice_7_split -> cont_8_lstm1_cont_slice_7_split_0
I1017 12:09:27.977747 26962 net.cpp:380] cont_8_lstm1_cont_slice_7_split -> cont_8_lstm1_cont_slice_7_split_1
I1017 12:09:27.977779 26962 net.cpp:122] Setting up cont_8_lstm1_cont_slice_7_split
I1017 12:09:27.977785 26962 net.cpp:129] Top shape: 1 2 (2)
I1017 12:09:27.977792 26962 net.cpp:129] Top shape: 1 2 (2)
I1017 12:09:27.977795 26962 net.cpp:137] Memory required for data: 318784
I1017 12:09:27.977799 26962 layer_factory.hpp:77] Creating layer cont_9_lstm1_cont_slice_8_split
I1017 12:09:27.977805 26962 net.cpp:84] Creating Layer cont_9_lstm1_cont_slice_8_split
I1017 12:09:27.977810 26962 net.cpp:406] cont_9_lstm1_cont_slice_8_split <- cont_9
I1017 12:09:27.977818 26962 net.cpp:380] cont_9_lstm1_cont_slice_8_split -> cont_9_lstm1_cont_slice_8_split_0
I1017 12:09:27.977825 26962 net.cpp:380] cont_9_lstm1_cont_slice_8_split -> cont_9_lstm1_cont_slice_8_split_1
I1017 12:09:27.977855 26962 net.cpp:122] Setting up cont_9_lstm1_cont_slice_8_split
I1017 12:09:27.977862 26962 net.cpp:129] Top shape: 1 2 (2)
I1017 12:09:27.977867 26962 net.cpp:129] Top shape: 1 2 (2)
I1017 12:09:27.977871 26962 net.cpp:137] Memory required for data: 318800
I1017 12:09:27.977876 26962 layer_factory.hpp:77] Creating layer cont_10_lstm1_cont_slice_9_split
I1017 12:09:27.977883 26962 net.cpp:84] Creating Layer cont_10_lstm1_cont_slice_9_split
I1017 12:09:27.977890 26962 net.cpp:406] cont_10_lstm1_cont_slice_9_split <- cont_10
I1017 12:09:27.977895 26962 net.cpp:380] cont_10_lstm1_cont_slice_9_split -> cont_10_lstm1_cont_slice_9_split_0
I1017 12:09:27.977902 26962 net.cpp:380] cont_10_lstm1_cont_slice_9_split -> cont_10_lstm1_cont_slice_9_split_1
I1017 12:09:27.977934 26962 net.cpp:122] Setting up cont_10_lstm1_cont_slice_9_split
I1017 12:09:27.977941 26962 net.cpp:129] Top shape: 1 2 (2)
I1017 12:09:27.977946 26962 net.cpp:129] Top shape: 1 2 (2)
I1017 12:09:27.977951 26962 net.cpp:137] Memory required for data: 318816
I1017 12:09:27.977954 26962 layer_factory.hpp:77] Creating layer cont_11_lstm1_cont_slice_10_split
I1017 12:09:27.977960 26962 net.cpp:84] Creating Layer cont_11_lstm1_cont_slice_10_split
I1017 12:09:27.977965 26962 net.cpp:406] cont_11_lstm1_cont_slice_10_split <- cont_11
I1017 12:09:27.977972 26962 net.cpp:380] cont_11_lstm1_cont_slice_10_split -> cont_11_lstm1_cont_slice_10_split_0
I1017 12:09:27.977979 26962 net.cpp:380] cont_11_lstm1_cont_slice_10_split -> cont_11_lstm1_cont_slice_10_split_1
I1017 12:09:27.978013 26962 net.cpp:122] Setting up cont_11_lstm1_cont_slice_10_split
I1017 12:09:27.978019 26962 net.cpp:129] Top shape: 1 2 (2)
I1017 12:09:27.978025 26962 net.cpp:129] Top shape: 1 2 (2)
I1017 12:09:27.978029 26962 net.cpp:137] Memory required for data: 318832
I1017 12:09:27.978034 26962 layer_factory.hpp:77] Creating layer cont_12_lstm1_cont_slice_11_split
I1017 12:09:27.978039 26962 net.cpp:84] Creating Layer cont_12_lstm1_cont_slice_11_split
I1017 12:09:27.978044 26962 net.cpp:406] cont_12_lstm1_cont_slice_11_split <- cont_12
I1017 12:09:27.978051 26962 net.cpp:380] cont_12_lstm1_cont_slice_11_split -> cont_12_lstm1_cont_slice_11_split_0
I1017 12:09:27.978060 26962 net.cpp:380] cont_12_lstm1_cont_slice_11_split -> cont_12_lstm1_cont_slice_11_split_1
I1017 12:09:27.978091 26962 net.cpp:122] Setting up cont_12_lstm1_cont_slice_11_split
I1017 12:09:27.978098 26962 net.cpp:129] Top shape: 1 2 (2)
I1017 12:09:27.978103 26962 net.cpp:129] Top shape: 1 2 (2)
I1017 12:09:27.978107 26962 net.cpp:137] Memory required for data: 318848
I1017 12:09:27.978111 26962 layer_factory.hpp:77] Creating layer cont_13_lstm1_cont_slice_12_split
I1017 12:09:27.978119 26962 net.cpp:84] Creating Layer cont_13_lstm1_cont_slice_12_split
I1017 12:09:27.978124 26962 net.cpp:406] cont_13_lstm1_cont_slice_12_split <- cont_13
I1017 12:09:27.978132 26962 net.cpp:380] cont_13_lstm1_cont_slice_12_split -> cont_13_lstm1_cont_slice_12_split_0
I1017 12:09:27.978138 26962 net.cpp:380] cont_13_lstm1_cont_slice_12_split -> cont_13_lstm1_cont_slice_12_split_1
I1017 12:09:27.978171 26962 net.cpp:122] Setting up cont_13_lstm1_cont_slice_12_split
I1017 12:09:27.978178 26962 net.cpp:129] Top shape: 1 2 (2)
I1017 12:09:27.978183 26962 net.cpp:129] Top shape: 1 2 (2)
I1017 12:09:27.978188 26962 net.cpp:137] Memory required for data: 318864
I1017 12:09:27.978191 26962 layer_factory.hpp:77] Creating layer cont_14_lstm1_cont_slice_13_split
I1017 12:09:27.978199 26962 net.cpp:84] Creating Layer cont_14_lstm1_cont_slice_13_split
I1017 12:09:27.978204 26962 net.cpp:406] cont_14_lstm1_cont_slice_13_split <- cont_14
I1017 12:09:27.978210 26962 net.cpp:380] cont_14_lstm1_cont_slice_13_split -> cont_14_lstm1_cont_slice_13_split_0
I1017 12:09:27.978217 26962 net.cpp:380] cont_14_lstm1_cont_slice_13_split -> cont_14_lstm1_cont_slice_13_split_1
I1017 12:09:27.978250 26962 net.cpp:122] Setting up cont_14_lstm1_cont_slice_13_split
I1017 12:09:27.978256 26962 net.cpp:129] Top shape: 1 2 (2)
I1017 12:09:27.978261 26962 net.cpp:129] Top shape: 1 2 (2)
I1017 12:09:27.978266 26962 net.cpp:137] Memory required for data: 318880
I1017 12:09:27.978271 26962 layer_factory.hpp:77] Creating layer cont_15_lstm1_cont_slice_14_split
I1017 12:09:27.978276 26962 net.cpp:84] Creating Layer cont_15_lstm1_cont_slice_14_split
I1017 12:09:27.978281 26962 net.cpp:406] cont_15_lstm1_cont_slice_14_split <- cont_15
I1017 12:09:27.978287 26962 net.cpp:380] cont_15_lstm1_cont_slice_14_split -> cont_15_lstm1_cont_slice_14_split_0
I1017 12:09:27.978294 26962 net.cpp:380] cont_15_lstm1_cont_slice_14_split -> cont_15_lstm1_cont_slice_14_split_1
I1017 12:09:27.978327 26962 net.cpp:122] Setting up cont_15_lstm1_cont_slice_14_split
I1017 12:09:27.978332 26962 net.cpp:129] Top shape: 1 2 (2)
I1017 12:09:27.978338 26962 net.cpp:129] Top shape: 1 2 (2)
I1017 12:09:27.978343 26962 net.cpp:137] Memory required for data: 318896
I1017 12:09:27.978346 26962 layer_factory.hpp:77] Creating layer cont_16_lstm1_cont_slice_15_split
I1017 12:09:27.978353 26962 net.cpp:84] Creating Layer cont_16_lstm1_cont_slice_15_split
I1017 12:09:27.978358 26962 net.cpp:406] cont_16_lstm1_cont_slice_15_split <- cont_16
I1017 12:09:27.978368 26962 net.cpp:380] cont_16_lstm1_cont_slice_15_split -> cont_16_lstm1_cont_slice_15_split_0
I1017 12:09:27.978375 26962 net.cpp:380] cont_16_lstm1_cont_slice_15_split -> cont_16_lstm1_cont_slice_15_split_1
I1017 12:09:27.978407 26962 net.cpp:122] Setting up cont_16_lstm1_cont_slice_15_split
I1017 12:09:27.978415 26962 net.cpp:129] Top shape: 1 2 (2)
I1017 12:09:27.978420 26962 net.cpp:129] Top shape: 1 2 (2)
I1017 12:09:27.978425 26962 net.cpp:137] Memory required for data: 318912
I1017 12:09:27.978430 26962 layer_factory.hpp:77] Creating layer cont_17_lstm1_cont_slice_16_split
I1017 12:09:27.978435 26962 net.cpp:84] Creating Layer cont_17_lstm1_cont_slice_16_split
I1017 12:09:27.978440 26962 net.cpp:406] cont_17_lstm1_cont_slice_16_split <- cont_17
I1017 12:09:27.978446 26962 net.cpp:380] cont_17_lstm1_cont_slice_16_split -> cont_17_lstm1_cont_slice_16_split_0
I1017 12:09:27.978453 26962 net.cpp:380] cont_17_lstm1_cont_slice_16_split -> cont_17_lstm1_cont_slice_16_split_1
I1017 12:09:27.978487 26962 net.cpp:122] Setting up cont_17_lstm1_cont_slice_16_split
I1017 12:09:27.978493 26962 net.cpp:129] Top shape: 1 2 (2)
I1017 12:09:27.978498 26962 net.cpp:129] Top shape: 1 2 (2)
I1017 12:09:27.978503 26962 net.cpp:137] Memory required for data: 318928
I1017 12:09:27.978507 26962 layer_factory.hpp:77] Creating layer cont_18_lstm1_cont_slice_17_split
I1017 12:09:27.978513 26962 net.cpp:84] Creating Layer cont_18_lstm1_cont_slice_17_split
I1017 12:09:27.978518 26962 net.cpp:406] cont_18_lstm1_cont_slice_17_split <- cont_18
I1017 12:09:27.978524 26962 net.cpp:380] cont_18_lstm1_cont_slice_17_split -> cont_18_lstm1_cont_slice_17_split_0
I1017 12:09:27.978531 26962 net.cpp:380] cont_18_lstm1_cont_slice_17_split -> cont_18_lstm1_cont_slice_17_split_1
I1017 12:09:27.978564 26962 net.cpp:122] Setting up cont_18_lstm1_cont_slice_17_split
I1017 12:09:27.978570 26962 net.cpp:129] Top shape: 1 2 (2)
I1017 12:09:27.978575 26962 net.cpp:129] Top shape: 1 2 (2)
I1017 12:09:27.978580 26962 net.cpp:137] Memory required for data: 318944
I1017 12:09:27.978585 26962 layer_factory.hpp:77] Creating layer cont_19_lstm1_cont_slice_18_split
I1017 12:09:27.978590 26962 net.cpp:84] Creating Layer cont_19_lstm1_cont_slice_18_split
I1017 12:09:27.978595 26962 net.cpp:406] cont_19_lstm1_cont_slice_18_split <- cont_19
I1017 12:09:27.978603 26962 net.cpp:380] cont_19_lstm1_cont_slice_18_split -> cont_19_lstm1_cont_slice_18_split_0
I1017 12:09:27.978611 26962 net.cpp:380] cont_19_lstm1_cont_slice_18_split -> cont_19_lstm1_cont_slice_18_split_1
I1017 12:09:27.978641 26962 net.cpp:122] Setting up cont_19_lstm1_cont_slice_18_split
I1017 12:09:27.978647 26962 net.cpp:129] Top shape: 1 2 (2)
I1017 12:09:27.978652 26962 net.cpp:129] Top shape: 1 2 (2)
I1017 12:09:27.978657 26962 net.cpp:137] Memory required for data: 318960
I1017 12:09:27.978662 26962 layer_factory.hpp:77] Creating layer cont_20_lstm1_cont_slice_19_split
I1017 12:09:27.978669 26962 net.cpp:84] Creating Layer cont_20_lstm1_cont_slice_19_split
I1017 12:09:27.978674 26962 net.cpp:406] cont_20_lstm1_cont_slice_19_split <- cont_20
I1017 12:09:27.978682 26962 net.cpp:380] cont_20_lstm1_cont_slice_19_split -> cont_20_lstm1_cont_slice_19_split_0
I1017 12:09:27.978688 26962 net.cpp:380] cont_20_lstm1_cont_slice_19_split -> cont_20_lstm1_cont_slice_19_split_1
I1017 12:09:27.978721 26962 net.cpp:122] Setting up cont_20_lstm1_cont_slice_19_split
I1017 12:09:27.978727 26962 net.cpp:129] Top shape: 1 2 (2)
I1017 12:09:27.978734 26962 net.cpp:129] Top shape: 1 2 (2)
I1017 12:09:27.978737 26962 net.cpp:137] Memory required for data: 318976
I1017 12:09:27.978741 26962 layer_factory.hpp:77] Creating layer cont_21_lstm1_cont_slice_20_split
I1017 12:09:27.978747 26962 net.cpp:84] Creating Layer cont_21_lstm1_cont_slice_20_split
I1017 12:09:27.978752 26962 net.cpp:406] cont_21_lstm1_cont_slice_20_split <- cont_21
I1017 12:09:27.978759 26962 net.cpp:380] cont_21_lstm1_cont_slice_20_split -> cont_21_lstm1_cont_slice_20_split_0
I1017 12:09:27.978765 26962 net.cpp:380] cont_21_lstm1_cont_slice_20_split -> cont_21_lstm1_cont_slice_20_split_1
I1017 12:09:27.978797 26962 net.cpp:122] Setting up cont_21_lstm1_cont_slice_20_split
I1017 12:09:27.978803 26962 net.cpp:129] Top shape: 1 2 (2)
I1017 12:09:27.978809 26962 net.cpp:129] Top shape: 1 2 (2)
I1017 12:09:27.978813 26962 net.cpp:137] Memory required for data: 318992
I1017 12:09:27.978817 26962 layer_factory.hpp:77] Creating layer cont_22_lstm1_cont_slice_21_split
I1017 12:09:27.978823 26962 net.cpp:84] Creating Layer cont_22_lstm1_cont_slice_21_split
I1017 12:09:27.978828 26962 net.cpp:406] cont_22_lstm1_cont_slice_21_split <- cont_22
I1017 12:09:27.978834 26962 net.cpp:380] cont_22_lstm1_cont_slice_21_split -> cont_22_lstm1_cont_slice_21_split_0
I1017 12:09:27.978842 26962 net.cpp:380] cont_22_lstm1_cont_slice_21_split -> cont_22_lstm1_cont_slice_21_split_1
I1017 12:09:27.978873 26962 net.cpp:122] Setting up cont_22_lstm1_cont_slice_21_split
I1017 12:09:27.978880 26962 net.cpp:129] Top shape: 1 2 (2)
I1017 12:09:27.978885 26962 net.cpp:129] Top shape: 1 2 (2)
I1017 12:09:27.978889 26962 net.cpp:137] Memory required for data: 319008
I1017 12:09:27.978894 26962 layer_factory.hpp:77] Creating layer cont_23_lstm1_cont_slice_22_split
I1017 12:09:27.978899 26962 net.cpp:84] Creating Layer cont_23_lstm1_cont_slice_22_split
I1017 12:09:27.978904 26962 net.cpp:406] cont_23_lstm1_cont_slice_22_split <- cont_23
I1017 12:09:27.978912 26962 net.cpp:380] cont_23_lstm1_cont_slice_22_split -> cont_23_lstm1_cont_slice_22_split_0
I1017 12:09:27.978919 26962 net.cpp:380] cont_23_lstm1_cont_slice_22_split -> cont_23_lstm1_cont_slice_22_split_1
I1017 12:09:27.978950 26962 net.cpp:122] Setting up cont_23_lstm1_cont_slice_22_split
I1017 12:09:27.978955 26962 net.cpp:129] Top shape: 1 2 (2)
I1017 12:09:27.978961 26962 net.cpp:129] Top shape: 1 2 (2)
I1017 12:09:27.978965 26962 net.cpp:137] Memory required for data: 319024
I1017 12:09:27.978970 26962 layer_factory.hpp:77] Creating layer cont_24_lstm1_cont_slice_23_split
I1017 12:09:27.978977 26962 net.cpp:84] Creating Layer cont_24_lstm1_cont_slice_23_split
I1017 12:09:27.978982 26962 net.cpp:406] cont_24_lstm1_cont_slice_23_split <- cont_24
I1017 12:09:27.978988 26962 net.cpp:380] cont_24_lstm1_cont_slice_23_split -> cont_24_lstm1_cont_slice_23_split_0
I1017 12:09:27.978996 26962 net.cpp:380] cont_24_lstm1_cont_slice_23_split -> cont_24_lstm1_cont_slice_23_split_1
I1017 12:09:27.979027 26962 net.cpp:122] Setting up cont_24_lstm1_cont_slice_23_split
I1017 12:09:27.979033 26962 net.cpp:129] Top shape: 1 2 (2)
I1017 12:09:27.979038 26962 net.cpp:129] Top shape: 1 2 (2)
I1017 12:09:27.979043 26962 net.cpp:137] Memory required for data: 319040
I1017 12:09:27.979048 26962 layer_factory.hpp:77] Creating layer cont_25_lstm1_cont_slice_24_split
I1017 12:09:27.979053 26962 net.cpp:84] Creating Layer cont_25_lstm1_cont_slice_24_split
I1017 12:09:27.979058 26962 net.cpp:406] cont_25_lstm1_cont_slice_24_split <- cont_25
I1017 12:09:27.979064 26962 net.cpp:380] cont_25_lstm1_cont_slice_24_split -> cont_25_lstm1_cont_slice_24_split_0
I1017 12:09:27.979071 26962 net.cpp:380] cont_25_lstm1_cont_slice_24_split -> cont_25_lstm1_cont_slice_24_split_1
I1017 12:09:27.979104 26962 net.cpp:122] Setting up cont_25_lstm1_cont_slice_24_split
I1017 12:09:27.979110 26962 net.cpp:129] Top shape: 1 2 (2)
I1017 12:09:27.979115 26962 net.cpp:129] Top shape: 1 2 (2)
I1017 12:09:27.979118 26962 net.cpp:137] Memory required for data: 319056
I1017 12:09:27.979123 26962 layer_factory.hpp:77] Creating layer cont_26_lstm1_cont_slice_25_split
I1017 12:09:27.979128 26962 net.cpp:84] Creating Layer cont_26_lstm1_cont_slice_25_split
I1017 12:09:27.979133 26962 net.cpp:406] cont_26_lstm1_cont_slice_25_split <- cont_26
I1017 12:09:27.979140 26962 net.cpp:380] cont_26_lstm1_cont_slice_25_split -> cont_26_lstm1_cont_slice_25_split_0
I1017 12:09:27.979148 26962 net.cpp:380] cont_26_lstm1_cont_slice_25_split -> cont_26_lstm1_cont_slice_25_split_1
I1017 12:09:27.979178 26962 net.cpp:122] Setting up cont_26_lstm1_cont_slice_25_split
I1017 12:09:27.979184 26962 net.cpp:129] Top shape: 1 2 (2)
I1017 12:09:27.979190 26962 net.cpp:129] Top shape: 1 2 (2)
I1017 12:09:27.979194 26962 net.cpp:137] Memory required for data: 319072
I1017 12:09:27.979198 26962 layer_factory.hpp:77] Creating layer cont_27_lstm1_cont_slice_26_split
I1017 12:09:27.979207 26962 net.cpp:84] Creating Layer cont_27_lstm1_cont_slice_26_split
I1017 12:09:27.979212 26962 net.cpp:406] cont_27_lstm1_cont_slice_26_split <- cont_27
I1017 12:09:27.979218 26962 net.cpp:380] cont_27_lstm1_cont_slice_26_split -> cont_27_lstm1_cont_slice_26_split_0
I1017 12:09:27.979224 26962 net.cpp:380] cont_27_lstm1_cont_slice_26_split -> cont_27_lstm1_cont_slice_26_split_1
I1017 12:09:27.979255 26962 net.cpp:122] Setting up cont_27_lstm1_cont_slice_26_split
I1017 12:09:27.979262 26962 net.cpp:129] Top shape: 1 2 (2)
I1017 12:09:27.979267 26962 net.cpp:129] Top shape: 1 2 (2)
I1017 12:09:27.979271 26962 net.cpp:137] Memory required for data: 319088
I1017 12:09:27.979276 26962 layer_factory.hpp:77] Creating layer cont_28_lstm1_cont_slice_27_split
I1017 12:09:27.979281 26962 net.cpp:84] Creating Layer cont_28_lstm1_cont_slice_27_split
I1017 12:09:27.979286 26962 net.cpp:406] cont_28_lstm1_cont_slice_27_split <- cont_28
I1017 12:09:27.979292 26962 net.cpp:380] cont_28_lstm1_cont_slice_27_split -> cont_28_lstm1_cont_slice_27_split_0
I1017 12:09:27.979300 26962 net.cpp:380] cont_28_lstm1_cont_slice_27_split -> cont_28_lstm1_cont_slice_27_split_1
I1017 12:09:27.979331 26962 net.cpp:122] Setting up cont_28_lstm1_cont_slice_27_split
I1017 12:09:27.979338 26962 net.cpp:129] Top shape: 1 2 (2)
I1017 12:09:27.979343 26962 net.cpp:129] Top shape: 1 2 (2)
I1017 12:09:27.979347 26962 net.cpp:137] Memory required for data: 319104
I1017 12:09:27.979352 26962 layer_factory.hpp:77] Creating layer cont_29_lstm1_cont_slice_28_split
I1017 12:09:27.979357 26962 net.cpp:84] Creating Layer cont_29_lstm1_cont_slice_28_split
I1017 12:09:27.979362 26962 net.cpp:406] cont_29_lstm1_cont_slice_28_split <- cont_29
I1017 12:09:27.979368 26962 net.cpp:380] cont_29_lstm1_cont_slice_28_split -> cont_29_lstm1_cont_slice_28_split_0
I1017 12:09:27.979393 26962 net.cpp:380] cont_29_lstm1_cont_slice_28_split -> cont_29_lstm1_cont_slice_28_split_1
I1017 12:09:27.979429 26962 net.cpp:122] Setting up cont_29_lstm1_cont_slice_28_split
I1017 12:09:27.979435 26962 net.cpp:129] Top shape: 1 2 (2)
I1017 12:09:27.979441 26962 net.cpp:129] Top shape: 1 2 (2)
I1017 12:09:27.979445 26962 net.cpp:137] Memory required for data: 319120
I1017 12:09:27.979450 26962 layer_factory.hpp:77] Creating layer cont_30_lstm1_cont_slice_29_split
I1017 12:09:27.979459 26962 net.cpp:84] Creating Layer cont_30_lstm1_cont_slice_29_split
I1017 12:09:27.979463 26962 net.cpp:406] cont_30_lstm1_cont_slice_29_split <- cont_30
I1017 12:09:27.979472 26962 net.cpp:380] cont_30_lstm1_cont_slice_29_split -> cont_30_lstm1_cont_slice_29_split_0
I1017 12:09:27.979480 26962 net.cpp:380] cont_30_lstm1_cont_slice_29_split -> cont_30_lstm1_cont_slice_29_split_1
I1017 12:09:27.979511 26962 net.cpp:122] Setting up cont_30_lstm1_cont_slice_29_split
I1017 12:09:27.979517 26962 net.cpp:129] Top shape: 1 2 (2)
I1017 12:09:27.979522 26962 net.cpp:129] Top shape: 1 2 (2)
I1017 12:09:27.979527 26962 net.cpp:137] Memory required for data: 319136
I1017 12:09:27.979532 26962 layer_factory.hpp:77] Creating layer cont_31_lstm1_cont_slice_30_split
I1017 12:09:27.979539 26962 net.cpp:84] Creating Layer cont_31_lstm1_cont_slice_30_split
I1017 12:09:27.979544 26962 net.cpp:406] cont_31_lstm1_cont_slice_30_split <- cont_31
I1017 12:09:27.979550 26962 net.cpp:380] cont_31_lstm1_cont_slice_30_split -> cont_31_lstm1_cont_slice_30_split_0
I1017 12:09:27.979557 26962 net.cpp:380] cont_31_lstm1_cont_slice_30_split -> cont_31_lstm1_cont_slice_30_split_1
I1017 12:09:27.979590 26962 net.cpp:122] Setting up cont_31_lstm1_cont_slice_30_split
I1017 12:09:27.979596 26962 net.cpp:129] Top shape: 1 2 (2)
I1017 12:09:27.979601 26962 net.cpp:129] Top shape: 1 2 (2)
I1017 12:09:27.979606 26962 net.cpp:137] Memory required for data: 319152
I1017 12:09:27.979610 26962 layer_factory.hpp:77] Creating layer cont_32_lstm1_cont_slice_31_split
I1017 12:09:27.979616 26962 net.cpp:84] Creating Layer cont_32_lstm1_cont_slice_31_split
I1017 12:09:27.979620 26962 net.cpp:406] cont_32_lstm1_cont_slice_31_split <- cont_32
I1017 12:09:27.979627 26962 net.cpp:380] cont_32_lstm1_cont_slice_31_split -> cont_32_lstm1_cont_slice_31_split_0
I1017 12:09:27.979635 26962 net.cpp:380] cont_32_lstm1_cont_slice_31_split -> cont_32_lstm1_cont_slice_31_split_1
I1017 12:09:27.979666 26962 net.cpp:122] Setting up cont_32_lstm1_cont_slice_31_split
I1017 12:09:27.979673 26962 net.cpp:129] Top shape: 1 2 (2)
I1017 12:09:27.979678 26962 net.cpp:129] Top shape: 1 2 (2)
I1017 12:09:27.979682 26962 net.cpp:137] Memory required for data: 319168
I1017 12:09:27.979687 26962 layer_factory.hpp:77] Creating layer cont_33_lstm1_cont_slice_32_split
I1017 12:09:27.979693 26962 net.cpp:84] Creating Layer cont_33_lstm1_cont_slice_32_split
I1017 12:09:27.979698 26962 net.cpp:406] cont_33_lstm1_cont_slice_32_split <- cont_33
I1017 12:09:27.979704 26962 net.cpp:380] cont_33_lstm1_cont_slice_32_split -> cont_33_lstm1_cont_slice_32_split_0
I1017 12:09:27.979712 26962 net.cpp:380] cont_33_lstm1_cont_slice_32_split -> cont_33_lstm1_cont_slice_32_split_1
I1017 12:09:27.979746 26962 net.cpp:122] Setting up cont_33_lstm1_cont_slice_32_split
I1017 12:09:27.979753 26962 net.cpp:129] Top shape: 1 2 (2)
I1017 12:09:27.979758 26962 net.cpp:129] Top shape: 1 2 (2)
I1017 12:09:27.979763 26962 net.cpp:137] Memory required for data: 319184
I1017 12:09:27.979766 26962 layer_factory.hpp:77] Creating layer cont_34_lstm1_cont_slice_33_split
I1017 12:09:27.979773 26962 net.cpp:84] Creating Layer cont_34_lstm1_cont_slice_33_split
I1017 12:09:27.979777 26962 net.cpp:406] cont_34_lstm1_cont_slice_33_split <- cont_34
I1017 12:09:27.979787 26962 net.cpp:380] cont_34_lstm1_cont_slice_33_split -> cont_34_lstm1_cont_slice_33_split_0
I1017 12:09:27.979794 26962 net.cpp:380] cont_34_lstm1_cont_slice_33_split -> cont_34_lstm1_cont_slice_33_split_1
I1017 12:09:27.979826 26962 net.cpp:122] Setting up cont_34_lstm1_cont_slice_33_split
I1017 12:09:27.979832 26962 net.cpp:129] Top shape: 1 2 (2)
I1017 12:09:27.979838 26962 net.cpp:129] Top shape: 1 2 (2)
I1017 12:09:27.979842 26962 net.cpp:137] Memory required for data: 319200
I1017 12:09:27.979847 26962 layer_factory.hpp:77] Creating layer cont_35_lstm1_cont_slice_34_split
I1017 12:09:27.979853 26962 net.cpp:84] Creating Layer cont_35_lstm1_cont_slice_34_split
I1017 12:09:27.979858 26962 net.cpp:406] cont_35_lstm1_cont_slice_34_split <- cont_35
I1017 12:09:27.979864 26962 net.cpp:380] cont_35_lstm1_cont_slice_34_split -> cont_35_lstm1_cont_slice_34_split_0
I1017 12:09:27.979871 26962 net.cpp:380] cont_35_lstm1_cont_slice_34_split -> cont_35_lstm1_cont_slice_34_split_1
I1017 12:09:27.979903 26962 net.cpp:122] Setting up cont_35_lstm1_cont_slice_34_split
I1017 12:09:27.979909 26962 net.cpp:129] Top shape: 1 2 (2)
I1017 12:09:27.979914 26962 net.cpp:129] Top shape: 1 2 (2)
I1017 12:09:27.979921 26962 net.cpp:137] Memory required for data: 319216
I1017 12:09:27.979926 26962 layer_factory.hpp:77] Creating layer cont_36_lstm1_cont_slice_35_split
I1017 12:09:27.979931 26962 net.cpp:84] Creating Layer cont_36_lstm1_cont_slice_35_split
I1017 12:09:27.979936 26962 net.cpp:406] cont_36_lstm1_cont_slice_35_split <- cont_36
I1017 12:09:27.979943 26962 net.cpp:380] cont_36_lstm1_cont_slice_35_split -> cont_36_lstm1_cont_slice_35_split_0
I1017 12:09:27.979949 26962 net.cpp:380] cont_36_lstm1_cont_slice_35_split -> cont_36_lstm1_cont_slice_35_split_1
I1017 12:09:27.979981 26962 net.cpp:122] Setting up cont_36_lstm1_cont_slice_35_split
I1017 12:09:27.979987 26962 net.cpp:129] Top shape: 1 2 (2)
I1017 12:09:27.979992 26962 net.cpp:129] Top shape: 1 2 (2)
I1017 12:09:27.979997 26962 net.cpp:137] Memory required for data: 319232
I1017 12:09:27.980001 26962 layer_factory.hpp:77] Creating layer cont_37_lstm1_cont_slice_36_split
I1017 12:09:27.980007 26962 net.cpp:84] Creating Layer cont_37_lstm1_cont_slice_36_split
I1017 12:09:27.980011 26962 net.cpp:406] cont_37_lstm1_cont_slice_36_split <- cont_37
I1017 12:09:27.980020 26962 net.cpp:380] cont_37_lstm1_cont_slice_36_split -> cont_37_lstm1_cont_slice_36_split_0
I1017 12:09:27.980032 26962 net.cpp:380] cont_37_lstm1_cont_slice_36_split -> cont_37_lstm1_cont_slice_36_split_1
I1017 12:09:27.980064 26962 net.cpp:122] Setting up cont_37_lstm1_cont_slice_36_split
I1017 12:09:27.980072 26962 net.cpp:129] Top shape: 1 2 (2)
I1017 12:09:27.980077 26962 net.cpp:129] Top shape: 1 2 (2)
I1017 12:09:27.980080 26962 net.cpp:137] Memory required for data: 319248
I1017 12:09:27.980085 26962 layer_factory.hpp:77] Creating layer cont_38_lstm1_cont_slice_37_split
I1017 12:09:27.980094 26962 net.cpp:84] Creating Layer cont_38_lstm1_cont_slice_37_split
I1017 12:09:27.980099 26962 net.cpp:406] cont_38_lstm1_cont_slice_37_split <- cont_38
I1017 12:09:27.980105 26962 net.cpp:380] cont_38_lstm1_cont_slice_37_split -> cont_38_lstm1_cont_slice_37_split_0
I1017 12:09:27.980113 26962 net.cpp:380] cont_38_lstm1_cont_slice_37_split -> cont_38_lstm1_cont_slice_37_split_1
I1017 12:09:27.980144 26962 net.cpp:122] Setting up cont_38_lstm1_cont_slice_37_split
I1017 12:09:27.980150 26962 net.cpp:129] Top shape: 1 2 (2)
I1017 12:09:27.980155 26962 net.cpp:129] Top shape: 1 2 (2)
I1017 12:09:27.980159 26962 net.cpp:137] Memory required for data: 319264
I1017 12:09:27.980165 26962 layer_factory.hpp:77] Creating layer cont_39_lstm1_cont_slice_38_split
I1017 12:09:27.980170 26962 net.cpp:84] Creating Layer cont_39_lstm1_cont_slice_38_split
I1017 12:09:27.980175 26962 net.cpp:406] cont_39_lstm1_cont_slice_38_split <- cont_39
I1017 12:09:27.980180 26962 net.cpp:380] cont_39_lstm1_cont_slice_38_split -> cont_39_lstm1_cont_slice_38_split_0
I1017 12:09:27.980187 26962 net.cpp:380] cont_39_lstm1_cont_slice_38_split -> cont_39_lstm1_cont_slice_38_split_1
I1017 12:09:27.980221 26962 net.cpp:122] Setting up cont_39_lstm1_cont_slice_38_split
I1017 12:09:27.980227 26962 net.cpp:129] Top shape: 1 2 (2)
I1017 12:09:27.980232 26962 net.cpp:129] Top shape: 1 2 (2)
I1017 12:09:27.980237 26962 net.cpp:137] Memory required for data: 319280
I1017 12:09:27.980242 26962 layer_factory.hpp:77] Creating layer cont_40_lstm1_cont_slice_39_split
I1017 12:09:27.980247 26962 net.cpp:84] Creating Layer cont_40_lstm1_cont_slice_39_split
I1017 12:09:27.980252 26962 net.cpp:406] cont_40_lstm1_cont_slice_39_split <- cont_40
I1017 12:09:27.980258 26962 net.cpp:380] cont_40_lstm1_cont_slice_39_split -> cont_40_lstm1_cont_slice_39_split_0
I1017 12:09:27.980265 26962 net.cpp:380] cont_40_lstm1_cont_slice_39_split -> cont_40_lstm1_cont_slice_39_split_1
I1017 12:09:27.980300 26962 net.cpp:122] Setting up cont_40_lstm1_cont_slice_39_split
I1017 12:09:27.980307 26962 net.cpp:129] Top shape: 1 2 (2)
I1017 12:09:27.980312 26962 net.cpp:129] Top shape: 1 2 (2)
I1017 12:09:27.980317 26962 net.cpp:137] Memory required for data: 319296
I1017 12:09:27.980321 26962 layer_factory.hpp:77] Creating layer cont_41_lstm1_cont_slice_40_split
I1017 12:09:27.980327 26962 net.cpp:84] Creating Layer cont_41_lstm1_cont_slice_40_split
I1017 12:09:27.980332 26962 net.cpp:406] cont_41_lstm1_cont_slice_40_split <- cont_41
I1017 12:09:27.980340 26962 net.cpp:380] cont_41_lstm1_cont_slice_40_split -> cont_41_lstm1_cont_slice_40_split_0
I1017 12:09:27.980348 26962 net.cpp:380] cont_41_lstm1_cont_slice_40_split -> cont_41_lstm1_cont_slice_40_split_1
I1017 12:09:27.980379 26962 net.cpp:122] Setting up cont_41_lstm1_cont_slice_40_split
I1017 12:09:27.980386 26962 net.cpp:129] Top shape: 1 2 (2)
I1017 12:09:27.980391 26962 net.cpp:129] Top shape: 1 2 (2)
I1017 12:09:27.980394 26962 net.cpp:137] Memory required for data: 319312
I1017 12:09:27.980399 26962 layer_factory.hpp:77] Creating layer cont_42_lstm1_cont_slice_41_split
I1017 12:09:27.980406 26962 net.cpp:84] Creating Layer cont_42_lstm1_cont_slice_41_split
I1017 12:09:27.980412 26962 net.cpp:406] cont_42_lstm1_cont_slice_41_split <- cont_42
I1017 12:09:27.980417 26962 net.cpp:380] cont_42_lstm1_cont_slice_41_split -> cont_42_lstm1_cont_slice_41_split_0
I1017 12:09:27.980424 26962 net.cpp:380] cont_42_lstm1_cont_slice_41_split -> cont_42_lstm1_cont_slice_41_split_1
I1017 12:09:27.980456 26962 net.cpp:122] Setting up cont_42_lstm1_cont_slice_41_split
I1017 12:09:27.980463 26962 net.cpp:129] Top shape: 1 2 (2)
I1017 12:09:27.980468 26962 net.cpp:129] Top shape: 1 2 (2)
I1017 12:09:27.980473 26962 net.cpp:137] Memory required for data: 319328
I1017 12:09:27.980478 26962 layer_factory.hpp:77] Creating layer cont_43_lstm1_cont_slice_42_split
I1017 12:09:27.980482 26962 net.cpp:84] Creating Layer cont_43_lstm1_cont_slice_42_split
I1017 12:09:27.980487 26962 net.cpp:406] cont_43_lstm1_cont_slice_42_split <- cont_43
I1017 12:09:27.980494 26962 net.cpp:380] cont_43_lstm1_cont_slice_42_split -> cont_43_lstm1_cont_slice_42_split_0
I1017 12:09:27.980501 26962 net.cpp:380] cont_43_lstm1_cont_slice_42_split -> cont_43_lstm1_cont_slice_42_split_1
I1017 12:09:27.980533 26962 net.cpp:122] Setting up cont_43_lstm1_cont_slice_42_split
I1017 12:09:27.980540 26962 net.cpp:129] Top shape: 1 2 (2)
I1017 12:09:27.980545 26962 net.cpp:129] Top shape: 1 2 (2)
I1017 12:09:27.980548 26962 net.cpp:137] Memory required for data: 319344
I1017 12:09:27.980553 26962 layer_factory.hpp:77] Creating layer cont_44_lstm1_cont_slice_43_split
I1017 12:09:27.980559 26962 net.cpp:84] Creating Layer cont_44_lstm1_cont_slice_43_split
I1017 12:09:27.980564 26962 net.cpp:406] cont_44_lstm1_cont_slice_43_split <- cont_44
I1017 12:09:27.980572 26962 net.cpp:380] cont_44_lstm1_cont_slice_43_split -> cont_44_lstm1_cont_slice_43_split_0
I1017 12:09:27.980579 26962 net.cpp:380] cont_44_lstm1_cont_slice_43_split -> cont_44_lstm1_cont_slice_43_split_1
I1017 12:09:27.980609 26962 net.cpp:122] Setting up cont_44_lstm1_cont_slice_43_split
I1017 12:09:27.980615 26962 net.cpp:129] Top shape: 1 2 (2)
I1017 12:09:27.980621 26962 net.cpp:129] Top shape: 1 2 (2)
I1017 12:09:27.980625 26962 net.cpp:137] Memory required for data: 319360
I1017 12:09:27.980629 26962 layer_factory.hpp:77] Creating layer cont_45_lstm1_cont_slice_44_split
I1017 12:09:27.980638 26962 net.cpp:84] Creating Layer cont_45_lstm1_cont_slice_44_split
I1017 12:09:27.980643 26962 net.cpp:406] cont_45_lstm1_cont_slice_44_split <- cont_45
I1017 12:09:27.980648 26962 net.cpp:380] cont_45_lstm1_cont_slice_44_split -> cont_45_lstm1_cont_slice_44_split_0
I1017 12:09:27.980655 26962 net.cpp:380] cont_45_lstm1_cont_slice_44_split -> cont_45_lstm1_cont_slice_44_split_1
I1017 12:09:27.980687 26962 net.cpp:122] Setting up cont_45_lstm1_cont_slice_44_split
I1017 12:09:27.980693 26962 net.cpp:129] Top shape: 1 2 (2)
I1017 12:09:27.980698 26962 net.cpp:129] Top shape: 1 2 (2)
I1017 12:09:27.980702 26962 net.cpp:137] Memory required for data: 319376
I1017 12:09:27.980707 26962 layer_factory.hpp:77] Creating layer cont_46_lstm1_cont_slice_45_split
I1017 12:09:27.980713 26962 net.cpp:84] Creating Layer cont_46_lstm1_cont_slice_45_split
I1017 12:09:27.980718 26962 net.cpp:406] cont_46_lstm1_cont_slice_45_split <- cont_46
I1017 12:09:27.980725 26962 net.cpp:380] cont_46_lstm1_cont_slice_45_split -> cont_46_lstm1_cont_slice_45_split_0
I1017 12:09:27.980731 26962 net.cpp:380] cont_46_lstm1_cont_slice_45_split -> cont_46_lstm1_cont_slice_45_split_1
I1017 12:09:27.980762 26962 net.cpp:122] Setting up cont_46_lstm1_cont_slice_45_split
I1017 12:09:27.980768 26962 net.cpp:129] Top shape: 1 2 (2)
I1017 12:09:27.980774 26962 net.cpp:129] Top shape: 1 2 (2)
I1017 12:09:27.980778 26962 net.cpp:137] Memory required for data: 319392
I1017 12:09:27.980782 26962 layer_factory.hpp:77] Creating layer cont_47_lstm1_cont_slice_46_split
I1017 12:09:27.980788 26962 net.cpp:84] Creating Layer cont_47_lstm1_cont_slice_46_split
I1017 12:09:27.980793 26962 net.cpp:406] cont_47_lstm1_cont_slice_46_split <- cont_47
I1017 12:09:27.980799 26962 net.cpp:380] cont_47_lstm1_cont_slice_46_split -> cont_47_lstm1_cont_slice_46_split_0
I1017 12:09:27.980806 26962 net.cpp:380] cont_47_lstm1_cont_slice_46_split -> cont_47_lstm1_cont_slice_46_split_1
I1017 12:09:27.980837 26962 net.cpp:122] Setting up cont_47_lstm1_cont_slice_46_split
I1017 12:09:27.980844 26962 net.cpp:129] Top shape: 1 2 (2)
I1017 12:09:27.980849 26962 net.cpp:129] Top shape: 1 2 (2)
I1017 12:09:27.980854 26962 net.cpp:137] Memory required for data: 319408
I1017 12:09:27.980857 26962 layer_factory.hpp:77] Creating layer cont_48_lstm1_cont_slice_47_split
I1017 12:09:27.980864 26962 net.cpp:84] Creating Layer cont_48_lstm1_cont_slice_47_split
I1017 12:09:27.980868 26962 net.cpp:406] cont_48_lstm1_cont_slice_47_split <- cont_48
I1017 12:09:27.980876 26962 net.cpp:380] cont_48_lstm1_cont_slice_47_split -> cont_48_lstm1_cont_slice_47_split_0
I1017 12:09:27.980883 26962 net.cpp:380] cont_48_lstm1_cont_slice_47_split -> cont_48_lstm1_cont_slice_47_split_1
I1017 12:09:27.980913 26962 net.cpp:122] Setting up cont_48_lstm1_cont_slice_47_split
I1017 12:09:27.980919 26962 net.cpp:129] Top shape: 1 2 (2)
I1017 12:09:27.980924 26962 net.cpp:129] Top shape: 1 2 (2)
I1017 12:09:27.980929 26962 net.cpp:137] Memory required for data: 319424
I1017 12:09:27.980933 26962 layer_factory.hpp:77] Creating layer cont_49_lstm1_cont_slice_48_split
I1017 12:09:27.980942 26962 net.cpp:84] Creating Layer cont_49_lstm1_cont_slice_48_split
I1017 12:09:27.980947 26962 net.cpp:406] cont_49_lstm1_cont_slice_48_split <- cont_49
I1017 12:09:27.980953 26962 net.cpp:380] cont_49_lstm1_cont_slice_48_split -> cont_49_lstm1_cont_slice_48_split_0
I1017 12:09:27.980960 26962 net.cpp:380] cont_49_lstm1_cont_slice_48_split -> cont_49_lstm1_cont_slice_48_split_1
I1017 12:09:27.980993 26962 net.cpp:122] Setting up cont_49_lstm1_cont_slice_48_split
I1017 12:09:27.980998 26962 net.cpp:129] Top shape: 1 2 (2)
I1017 12:09:27.981003 26962 net.cpp:129] Top shape: 1 2 (2)
I1017 12:09:27.981009 26962 net.cpp:137] Memory required for data: 319440
I1017 12:09:27.981012 26962 layer_factory.hpp:77] Creating layer cont_50_lstm1_cont_slice_49_split
I1017 12:09:27.981019 26962 net.cpp:84] Creating Layer cont_50_lstm1_cont_slice_49_split
I1017 12:09:27.981024 26962 net.cpp:406] cont_50_lstm1_cont_slice_49_split <- cont_50
I1017 12:09:27.981029 26962 net.cpp:380] cont_50_lstm1_cont_slice_49_split -> cont_50_lstm1_cont_slice_49_split_0
I1017 12:09:27.981036 26962 net.cpp:380] cont_50_lstm1_cont_slice_49_split -> cont_50_lstm1_cont_slice_49_split_1
I1017 12:09:27.981068 26962 net.cpp:122] Setting up cont_50_lstm1_cont_slice_49_split
I1017 12:09:27.981076 26962 net.cpp:129] Top shape: 1 2 (2)
I1017 12:09:27.981081 26962 net.cpp:129] Top shape: 1 2 (2)
I1017 12:09:27.981084 26962 net.cpp:137] Memory required for data: 319456
I1017 12:09:27.981088 26962 layer_factory.hpp:77] Creating layer cont_51_lstm1_cont_slice_50_split
I1017 12:09:27.981094 26962 net.cpp:84] Creating Layer cont_51_lstm1_cont_slice_50_split
I1017 12:09:27.981099 26962 net.cpp:406] cont_51_lstm1_cont_slice_50_split <- cont_51
I1017 12:09:27.981106 26962 net.cpp:380] cont_51_lstm1_cont_slice_50_split -> cont_51_lstm1_cont_slice_50_split_0
I1017 12:09:27.981115 26962 net.cpp:380] cont_51_lstm1_cont_slice_50_split -> cont_51_lstm1_cont_slice_50_split_1
I1017 12:09:27.981145 26962 net.cpp:122] Setting up cont_51_lstm1_cont_slice_50_split
I1017 12:09:27.981153 26962 net.cpp:129] Top shape: 1 2 (2)
I1017 12:09:27.981158 26962 net.cpp:129] Top shape: 1 2 (2)
I1017 12:09:27.981161 26962 net.cpp:137] Memory required for data: 319472
I1017 12:09:27.981166 26962 layer_factory.hpp:77] Creating layer cont_52_lstm1_cont_slice_51_split
I1017 12:09:27.981174 26962 net.cpp:84] Creating Layer cont_52_lstm1_cont_slice_51_split
I1017 12:09:27.981179 26962 net.cpp:406] cont_52_lstm1_cont_slice_51_split <- cont_52
I1017 12:09:27.981185 26962 net.cpp:380] cont_52_lstm1_cont_slice_51_split -> cont_52_lstm1_cont_slice_51_split_0
I1017 12:09:27.981191 26962 net.cpp:380] cont_52_lstm1_cont_slice_51_split -> cont_52_lstm1_cont_slice_51_split_1
I1017 12:09:27.981225 26962 net.cpp:122] Setting up cont_52_lstm1_cont_slice_51_split
I1017 12:09:27.981230 26962 net.cpp:129] Top shape: 1 2 (2)
I1017 12:09:27.981235 26962 net.cpp:129] Top shape: 1 2 (2)
I1017 12:09:27.981240 26962 net.cpp:137] Memory required for data: 319488
I1017 12:09:27.981245 26962 layer_factory.hpp:77] Creating layer cont_53_lstm1_cont_slice_52_split
I1017 12:09:27.981251 26962 net.cpp:84] Creating Layer cont_53_lstm1_cont_slice_52_split
I1017 12:09:27.981254 26962 net.cpp:406] cont_53_lstm1_cont_slice_52_split <- cont_53
I1017 12:09:27.981261 26962 net.cpp:380] cont_53_lstm1_cont_slice_52_split -> cont_53_lstm1_cont_slice_52_split_0
I1017 12:09:27.981267 26962 net.cpp:380] cont_53_lstm1_cont_slice_52_split -> cont_53_lstm1_cont_slice_52_split_1
I1017 12:09:27.981299 26962 net.cpp:122] Setting up cont_53_lstm1_cont_slice_52_split
I1017 12:09:27.981307 26962 net.cpp:129] Top shape: 1 2 (2)
I1017 12:09:27.981312 26962 net.cpp:129] Top shape: 1 2 (2)
I1017 12:09:27.981317 26962 net.cpp:137] Memory required for data: 319504
I1017 12:09:27.981320 26962 layer_factory.hpp:77] Creating layer cont_54_lstm1_cont_slice_53_split
I1017 12:09:27.981326 26962 net.cpp:84] Creating Layer cont_54_lstm1_cont_slice_53_split
I1017 12:09:27.981330 26962 net.cpp:406] cont_54_lstm1_cont_slice_53_split <- cont_54
I1017 12:09:27.981336 26962 net.cpp:380] cont_54_lstm1_cont_slice_53_split -> cont_54_lstm1_cont_slice_53_split_0
I1017 12:09:27.981343 26962 net.cpp:380] cont_54_lstm1_cont_slice_53_split -> cont_54_lstm1_cont_slice_53_split_1
I1017 12:09:27.981384 26962 net.cpp:122] Setting up cont_54_lstm1_cont_slice_53_split
I1017 12:09:27.981390 26962 net.cpp:129] Top shape: 1 2 (2)
I1017 12:09:27.981395 26962 net.cpp:129] Top shape: 1 2 (2)
I1017 12:09:27.981400 26962 net.cpp:137] Memory required for data: 319520
I1017 12:09:27.981405 26962 layer_factory.hpp:77] Creating layer cont_55_lstm1_cont_slice_54_split
I1017 12:09:27.981410 26962 net.cpp:84] Creating Layer cont_55_lstm1_cont_slice_54_split
I1017 12:09:27.981415 26962 net.cpp:406] cont_55_lstm1_cont_slice_54_split <- cont_55
I1017 12:09:27.981423 26962 net.cpp:380] cont_55_lstm1_cont_slice_54_split -> cont_55_lstm1_cont_slice_54_split_0
I1017 12:09:27.981431 26962 net.cpp:380] cont_55_lstm1_cont_slice_54_split -> cont_55_lstm1_cont_slice_54_split_1
I1017 12:09:27.981462 26962 net.cpp:122] Setting up cont_55_lstm1_cont_slice_54_split
I1017 12:09:27.981467 26962 net.cpp:129] Top shape: 1 2 (2)
I1017 12:09:27.981472 26962 net.cpp:129] Top shape: 1 2 (2)
I1017 12:09:27.981477 26962 net.cpp:137] Memory required for data: 319536
I1017 12:09:27.981482 26962 layer_factory.hpp:77] Creating layer cont_56_lstm1_cont_slice_55_split
I1017 12:09:27.981489 26962 net.cpp:84] Creating Layer cont_56_lstm1_cont_slice_55_split
I1017 12:09:27.981494 26962 net.cpp:406] cont_56_lstm1_cont_slice_55_split <- cont_56
I1017 12:09:27.981500 26962 net.cpp:380] cont_56_lstm1_cont_slice_55_split -> cont_56_lstm1_cont_slice_55_split_0
I1017 12:09:27.981506 26962 net.cpp:380] cont_56_lstm1_cont_slice_55_split -> cont_56_lstm1_cont_slice_55_split_1
I1017 12:09:27.981539 26962 net.cpp:122] Setting up cont_56_lstm1_cont_slice_55_split
I1017 12:09:27.981545 26962 net.cpp:129] Top shape: 1 2 (2)
I1017 12:09:27.981550 26962 net.cpp:129] Top shape: 1 2 (2)
I1017 12:09:27.981555 26962 net.cpp:137] Memory required for data: 319552
I1017 12:09:27.981559 26962 layer_factory.hpp:77] Creating layer cont_57_lstm1_cont_slice_56_split
I1017 12:09:27.981565 26962 net.cpp:84] Creating Layer cont_57_lstm1_cont_slice_56_split
I1017 12:09:27.981570 26962 net.cpp:406] cont_57_lstm1_cont_slice_56_split <- cont_57
I1017 12:09:27.981576 26962 net.cpp:380] cont_57_lstm1_cont_slice_56_split -> cont_57_lstm1_cont_slice_56_split_0
I1017 12:09:27.981583 26962 net.cpp:380] cont_57_lstm1_cont_slice_56_split -> cont_57_lstm1_cont_slice_56_split_1
I1017 12:09:27.981616 26962 net.cpp:122] Setting up cont_57_lstm1_cont_slice_56_split
I1017 12:09:27.981621 26962 net.cpp:129] Top shape: 1 2 (2)
I1017 12:09:27.981627 26962 net.cpp:129] Top shape: 1 2 (2)
I1017 12:09:27.981631 26962 net.cpp:137] Memory required for data: 319568
I1017 12:09:27.981636 26962 layer_factory.hpp:77] Creating layer cont_58_lstm1_cont_slice_57_split
I1017 12:09:27.981642 26962 net.cpp:84] Creating Layer cont_58_lstm1_cont_slice_57_split
I1017 12:09:27.981647 26962 net.cpp:406] cont_58_lstm1_cont_slice_57_split <- cont_58
I1017 12:09:27.981652 26962 net.cpp:380] cont_58_lstm1_cont_slice_57_split -> cont_58_lstm1_cont_slice_57_split_0
I1017 12:09:27.981663 26962 net.cpp:380] cont_58_lstm1_cont_slice_57_split -> cont_58_lstm1_cont_slice_57_split_1
I1017 12:09:27.981693 26962 net.cpp:122] Setting up cont_58_lstm1_cont_slice_57_split
I1017 12:09:27.981699 26962 net.cpp:129] Top shape: 1 2 (2)
I1017 12:09:27.981705 26962 net.cpp:129] Top shape: 1 2 (2)
I1017 12:09:27.981709 26962 net.cpp:137] Memory required for data: 319584
I1017 12:09:27.981714 26962 layer_factory.hpp:77] Creating layer cont_59_lstm1_cont_slice_58_split
I1017 12:09:27.981719 26962 net.cpp:84] Creating Layer cont_59_lstm1_cont_slice_58_split
I1017 12:09:27.981724 26962 net.cpp:406] cont_59_lstm1_cont_slice_58_split <- cont_59
I1017 12:09:27.981732 26962 net.cpp:380] cont_59_lstm1_cont_slice_58_split -> cont_59_lstm1_cont_slice_58_split_0
I1017 12:09:27.981739 26962 net.cpp:380] cont_59_lstm1_cont_slice_58_split -> cont_59_lstm1_cont_slice_58_split_1
I1017 12:09:27.981772 26962 net.cpp:122] Setting up cont_59_lstm1_cont_slice_58_split
I1017 12:09:27.981778 26962 net.cpp:129] Top shape: 1 2 (2)
I1017 12:09:27.981784 26962 net.cpp:129] Top shape: 1 2 (2)
I1017 12:09:27.981788 26962 net.cpp:137] Memory required for data: 319600
I1017 12:09:27.981792 26962 layer_factory.hpp:77] Creating layer cont_60_lstm1_cont_slice_59_split
I1017 12:09:27.981798 26962 net.cpp:84] Creating Layer cont_60_lstm1_cont_slice_59_split
I1017 12:09:27.981803 26962 net.cpp:406] cont_60_lstm1_cont_slice_59_split <- cont_60
I1017 12:09:27.981809 26962 net.cpp:380] cont_60_lstm1_cont_slice_59_split -> cont_60_lstm1_cont_slice_59_split_0
I1017 12:09:27.981817 26962 net.cpp:380] cont_60_lstm1_cont_slice_59_split -> cont_60_lstm1_cont_slice_59_split_1
I1017 12:09:27.981848 26962 net.cpp:122] Setting up cont_60_lstm1_cont_slice_59_split
I1017 12:09:27.981854 26962 net.cpp:129] Top shape: 1 2 (2)
I1017 12:09:27.981860 26962 net.cpp:129] Top shape: 1 2 (2)
I1017 12:09:27.981864 26962 net.cpp:137] Memory required for data: 319616
I1017 12:09:27.981868 26962 layer_factory.hpp:77] Creating layer cont_61_lstm1_cont_slice_60_split
I1017 12:09:27.981874 26962 net.cpp:84] Creating Layer cont_61_lstm1_cont_slice_60_split
I1017 12:09:27.981879 26962 net.cpp:406] cont_61_lstm1_cont_slice_60_split <- cont_61
I1017 12:09:27.981885 26962 net.cpp:380] cont_61_lstm1_cont_slice_60_split -> cont_61_lstm1_cont_slice_60_split_0
I1017 12:09:27.981891 26962 net.cpp:380] cont_61_lstm1_cont_slice_60_split -> cont_61_lstm1_cont_slice_60_split_1
I1017 12:09:27.981925 26962 net.cpp:122] Setting up cont_61_lstm1_cont_slice_60_split
I1017 12:09:27.981931 26962 net.cpp:129] Top shape: 1 2 (2)
I1017 12:09:27.981936 26962 net.cpp:129] Top shape: 1 2 (2)
I1017 12:09:27.981940 26962 net.cpp:137] Memory required for data: 319632
I1017 12:09:27.981945 26962 layer_factory.hpp:77] Creating layer cont_62_lstm1_cont_slice_61_split
I1017 12:09:27.981957 26962 net.cpp:84] Creating Layer cont_62_lstm1_cont_slice_61_split
I1017 12:09:27.981962 26962 net.cpp:406] cont_62_lstm1_cont_slice_61_split <- cont_62
I1017 12:09:27.981969 26962 net.cpp:380] cont_62_lstm1_cont_slice_61_split -> cont_62_lstm1_cont_slice_61_split_0
I1017 12:09:27.981976 26962 net.cpp:380] cont_62_lstm1_cont_slice_61_split -> cont_62_lstm1_cont_slice_61_split_1
I1017 12:09:27.982009 26962 net.cpp:122] Setting up cont_62_lstm1_cont_slice_61_split
I1017 12:09:27.982015 26962 net.cpp:129] Top shape: 1 2 (2)
I1017 12:09:27.982020 26962 net.cpp:129] Top shape: 1 2 (2)
I1017 12:09:27.982024 26962 net.cpp:137] Memory required for data: 319648
I1017 12:09:27.982029 26962 layer_factory.hpp:77] Creating layer cont_63_lstm1_cont_slice_62_split
I1017 12:09:27.982035 26962 net.cpp:84] Creating Layer cont_63_lstm1_cont_slice_62_split
I1017 12:09:27.982040 26962 net.cpp:406] cont_63_lstm1_cont_slice_62_split <- cont_63
I1017 12:09:27.982046 26962 net.cpp:380] cont_63_lstm1_cont_slice_62_split -> cont_63_lstm1_cont_slice_62_split_0
I1017 12:09:27.982053 26962 net.cpp:380] cont_63_lstm1_cont_slice_62_split -> cont_63_lstm1_cont_slice_62_split_1
I1017 12:09:27.982085 26962 net.cpp:122] Setting up cont_63_lstm1_cont_slice_62_split
I1017 12:09:27.982091 26962 net.cpp:129] Top shape: 1 2 (2)
I1017 12:09:27.982096 26962 net.cpp:129] Top shape: 1 2 (2)
I1017 12:09:27.982100 26962 net.cpp:137] Memory required for data: 319664
I1017 12:09:27.982105 26962 layer_factory.hpp:77] Creating layer cont_64_lstm1_cont_slice_63_split
I1017 12:09:27.982111 26962 net.cpp:84] Creating Layer cont_64_lstm1_cont_slice_63_split
I1017 12:09:27.982115 26962 net.cpp:406] cont_64_lstm1_cont_slice_63_split <- cont_64
I1017 12:09:27.982125 26962 net.cpp:380] cont_64_lstm1_cont_slice_63_split -> cont_64_lstm1_cont_slice_63_split_0
I1017 12:09:27.982131 26962 net.cpp:380] cont_64_lstm1_cont_slice_63_split -> cont_64_lstm1_cont_slice_63_split_1
I1017 12:09:27.982161 26962 net.cpp:122] Setting up cont_64_lstm1_cont_slice_63_split
I1017 12:09:27.982167 26962 net.cpp:129] Top shape: 1 2 (2)
I1017 12:09:27.982173 26962 net.cpp:129] Top shape: 1 2 (2)
I1017 12:09:27.982177 26962 net.cpp:137] Memory required for data: 319680
I1017 12:09:27.982182 26962 layer_factory.hpp:77] Creating layer cont_65_lstm1_cont_slice_64_split
I1017 12:09:27.982189 26962 net.cpp:84] Creating Layer cont_65_lstm1_cont_slice_64_split
I1017 12:09:27.982194 26962 net.cpp:406] cont_65_lstm1_cont_slice_64_split <- cont_65
I1017 12:09:27.982200 26962 net.cpp:380] cont_65_lstm1_cont_slice_64_split -> cont_65_lstm1_cont_slice_64_split_0
I1017 12:09:27.982208 26962 net.cpp:380] cont_65_lstm1_cont_slice_64_split -> cont_65_lstm1_cont_slice_64_split_1
I1017 12:09:27.982242 26962 net.cpp:122] Setting up cont_65_lstm1_cont_slice_64_split
I1017 12:09:27.982249 26962 net.cpp:129] Top shape: 1 2 (2)
I1017 12:09:27.982254 26962 net.cpp:129] Top shape: 1 2 (2)
I1017 12:09:27.982259 26962 net.cpp:137] Memory required for data: 319696
I1017 12:09:27.982264 26962 layer_factory.hpp:77] Creating layer cont_66_lstm1_cont_slice_65_split
I1017 12:09:27.982270 26962 net.cpp:84] Creating Layer cont_66_lstm1_cont_slice_65_split
I1017 12:09:27.982275 26962 net.cpp:406] cont_66_lstm1_cont_slice_65_split <- cont_66
I1017 12:09:27.982280 26962 net.cpp:380] cont_66_lstm1_cont_slice_65_split -> cont_66_lstm1_cont_slice_65_split_0
I1017 12:09:27.982287 26962 net.cpp:380] cont_66_lstm1_cont_slice_65_split -> cont_66_lstm1_cont_slice_65_split_1
I1017 12:09:27.982321 26962 net.cpp:122] Setting up cont_66_lstm1_cont_slice_65_split
I1017 12:09:27.982328 26962 net.cpp:129] Top shape: 1 2 (2)
I1017 12:09:27.982333 26962 net.cpp:129] Top shape: 1 2 (2)
I1017 12:09:27.982337 26962 net.cpp:137] Memory required for data: 319712
I1017 12:09:27.982342 26962 layer_factory.hpp:77] Creating layer cont_67_lstm1_cont_slice_66_split
I1017 12:09:27.982348 26962 net.cpp:84] Creating Layer cont_67_lstm1_cont_slice_66_split
I1017 12:09:27.982353 26962 net.cpp:406] cont_67_lstm1_cont_slice_66_split <- cont_67
I1017 12:09:27.982359 26962 net.cpp:380] cont_67_lstm1_cont_slice_66_split -> cont_67_lstm1_cont_slice_66_split_0
I1017 12:09:27.982367 26962 net.cpp:380] cont_67_lstm1_cont_slice_66_split -> cont_67_lstm1_cont_slice_66_split_1
I1017 12:09:27.982399 26962 net.cpp:122] Setting up cont_67_lstm1_cont_slice_66_split
I1017 12:09:27.982405 26962 net.cpp:129] Top shape: 1 2 (2)
I1017 12:09:27.982410 26962 net.cpp:129] Top shape: 1 2 (2)
I1017 12:09:27.982415 26962 net.cpp:137] Memory required for data: 319728
I1017 12:09:27.982419 26962 layer_factory.hpp:77] Creating layer cont_68_lstm1_cont_slice_67_split
I1017 12:09:27.982425 26962 net.cpp:84] Creating Layer cont_68_lstm1_cont_slice_67_split
I1017 12:09:27.982430 26962 net.cpp:406] cont_68_lstm1_cont_slice_67_split <- cont_68
I1017 12:09:27.982439 26962 net.cpp:380] cont_68_lstm1_cont_slice_67_split -> cont_68_lstm1_cont_slice_67_split_0
I1017 12:09:27.982445 26962 net.cpp:380] cont_68_lstm1_cont_slice_67_split -> cont_68_lstm1_cont_slice_67_split_1
I1017 12:09:27.982476 26962 net.cpp:122] Setting up cont_68_lstm1_cont_slice_67_split
I1017 12:09:27.982482 26962 net.cpp:129] Top shape: 1 2 (2)
I1017 12:09:27.982488 26962 net.cpp:129] Top shape: 1 2 (2)
I1017 12:09:27.982492 26962 net.cpp:137] Memory required for data: 319744
I1017 12:09:27.982497 26962 layer_factory.hpp:77] Creating layer cont_69_lstm1_cont_slice_68_split
I1017 12:09:27.982506 26962 net.cpp:84] Creating Layer cont_69_lstm1_cont_slice_68_split
I1017 12:09:27.982511 26962 net.cpp:406] cont_69_lstm1_cont_slice_68_split <- cont_69
I1017 12:09:27.982517 26962 net.cpp:380] cont_69_lstm1_cont_slice_68_split -> cont_69_lstm1_cont_slice_68_split_0
I1017 12:09:27.982523 26962 net.cpp:380] cont_69_lstm1_cont_slice_68_split -> cont_69_lstm1_cont_slice_68_split_1
I1017 12:09:27.982555 26962 net.cpp:122] Setting up cont_69_lstm1_cont_slice_68_split
I1017 12:09:27.982561 26962 net.cpp:129] Top shape: 1 2 (2)
I1017 12:09:27.982566 26962 net.cpp:129] Top shape: 1 2 (2)
I1017 12:09:27.982571 26962 net.cpp:137] Memory required for data: 319760
I1017 12:09:27.982575 26962 layer_factory.hpp:77] Creating layer cont_70_lstm1_cont_slice_69_split
I1017 12:09:27.982581 26962 net.cpp:84] Creating Layer cont_70_lstm1_cont_slice_69_split
I1017 12:09:27.982586 26962 net.cpp:406] cont_70_lstm1_cont_slice_69_split <- cont_70
I1017 12:09:27.982592 26962 net.cpp:380] cont_70_lstm1_cont_slice_69_split -> cont_70_lstm1_cont_slice_69_split_0
I1017 12:09:27.982599 26962 net.cpp:380] cont_70_lstm1_cont_slice_69_split -> cont_70_lstm1_cont_slice_69_split_1
I1017 12:09:27.982632 26962 net.cpp:122] Setting up cont_70_lstm1_cont_slice_69_split
I1017 12:09:27.982640 26962 net.cpp:129] Top shape: 1 2 (2)
I1017 12:09:27.982645 26962 net.cpp:129] Top shape: 1 2 (2)
I1017 12:09:27.982648 26962 net.cpp:137] Memory required for data: 319776
I1017 12:09:27.982652 26962 layer_factory.hpp:77] Creating layer cont_71_lstm1_cont_slice_70_split
I1017 12:09:27.982658 26962 net.cpp:84] Creating Layer cont_71_lstm1_cont_slice_70_split
I1017 12:09:27.982663 26962 net.cpp:406] cont_71_lstm1_cont_slice_70_split <- cont_71
I1017 12:09:27.982669 26962 net.cpp:380] cont_71_lstm1_cont_slice_70_split -> cont_71_lstm1_cont_slice_70_split_0
I1017 12:09:27.982678 26962 net.cpp:380] cont_71_lstm1_cont_slice_70_split -> cont_71_lstm1_cont_slice_70_split_1
I1017 12:09:27.982708 26962 net.cpp:122] Setting up cont_71_lstm1_cont_slice_70_split
I1017 12:09:27.982715 26962 net.cpp:129] Top shape: 1 2 (2)
I1017 12:09:27.982720 26962 net.cpp:129] Top shape: 1 2 (2)
I1017 12:09:27.982724 26962 net.cpp:137] Memory required for data: 319792
I1017 12:09:27.982729 26962 layer_factory.hpp:77] Creating layer cont_72_lstm1_cont_slice_71_split
I1017 12:09:27.982736 26962 net.cpp:84] Creating Layer cont_72_lstm1_cont_slice_71_split
I1017 12:09:27.982741 26962 net.cpp:406] cont_72_lstm1_cont_slice_71_split <- cont_72
I1017 12:09:27.982748 26962 net.cpp:380] cont_72_lstm1_cont_slice_71_split -> cont_72_lstm1_cont_slice_71_split_0
I1017 12:09:27.982755 26962 net.cpp:380] cont_72_lstm1_cont_slice_71_split -> cont_72_lstm1_cont_slice_71_split_1
I1017 12:09:27.982787 26962 net.cpp:122] Setting up cont_72_lstm1_cont_slice_71_split
I1017 12:09:27.982794 26962 net.cpp:129] Top shape: 1 2 (2)
I1017 12:09:27.982798 26962 net.cpp:129] Top shape: 1 2 (2)
I1017 12:09:27.982803 26962 net.cpp:137] Memory required for data: 319808
I1017 12:09:27.982807 26962 layer_factory.hpp:77] Creating layer cont_73_lstm1_cont_slice_72_split
I1017 12:09:27.982813 26962 net.cpp:84] Creating Layer cont_73_lstm1_cont_slice_72_split
I1017 12:09:27.982818 26962 net.cpp:406] cont_73_lstm1_cont_slice_72_split <- cont_73
I1017 12:09:27.982825 26962 net.cpp:380] cont_73_lstm1_cont_slice_72_split -> cont_73_lstm1_cont_slice_72_split_0
I1017 12:09:27.982831 26962 net.cpp:380] cont_73_lstm1_cont_slice_72_split -> cont_73_lstm1_cont_slice_72_split_1
I1017 12:09:27.982863 26962 net.cpp:122] Setting up cont_73_lstm1_cont_slice_72_split
I1017 12:09:27.982870 26962 net.cpp:129] Top shape: 1 2 (2)
I1017 12:09:27.982875 26962 net.cpp:129] Top shape: 1 2 (2)
I1017 12:09:27.982879 26962 net.cpp:137] Memory required for data: 319824
I1017 12:09:27.982884 26962 layer_factory.hpp:77] Creating layer cont_74_lstm1_cont_slice_73_split
I1017 12:09:27.982889 26962 net.cpp:84] Creating Layer cont_74_lstm1_cont_slice_73_split
I1017 12:09:27.982894 26962 net.cpp:406] cont_74_lstm1_cont_slice_73_split <- cont_74
I1017 12:09:27.982902 26962 net.cpp:380] cont_74_lstm1_cont_slice_73_split -> cont_74_lstm1_cont_slice_73_split_0
I1017 12:09:27.982908 26962 net.cpp:380] cont_74_lstm1_cont_slice_73_split -> cont_74_lstm1_cont_slice_73_split_1
I1017 12:09:27.982939 26962 net.cpp:122] Setting up cont_74_lstm1_cont_slice_73_split
I1017 12:09:27.982945 26962 net.cpp:129] Top shape: 1 2 (2)
I1017 12:09:27.982951 26962 net.cpp:129] Top shape: 1 2 (2)
I1017 12:09:27.982955 26962 net.cpp:137] Memory required for data: 319840
I1017 12:09:27.982959 26962 layer_factory.hpp:77] Creating layer cont_75_lstm1_cont_slice_74_split
I1017 12:09:27.982965 26962 net.cpp:84] Creating Layer cont_75_lstm1_cont_slice_74_split
I1017 12:09:27.982970 26962 net.cpp:406] cont_75_lstm1_cont_slice_74_split <- cont_75
I1017 12:09:27.982978 26962 net.cpp:380] cont_75_lstm1_cont_slice_74_split -> cont_75_lstm1_cont_slice_74_split_0
I1017 12:09:27.982985 26962 net.cpp:380] cont_75_lstm1_cont_slice_74_split -> cont_75_lstm1_cont_slice_74_split_1
I1017 12:09:27.983016 26962 net.cpp:122] Setting up cont_75_lstm1_cont_slice_74_split
I1017 12:09:27.983022 26962 net.cpp:129] Top shape: 1 2 (2)
I1017 12:09:27.983027 26962 net.cpp:129] Top shape: 1 2 (2)
I1017 12:09:27.983031 26962 net.cpp:137] Memory required for data: 319856
I1017 12:09:27.983036 26962 layer_factory.hpp:77] Creating layer cont_76_lstm1_cont_slice_75_split
I1017 12:09:27.983043 26962 net.cpp:84] Creating Layer cont_76_lstm1_cont_slice_75_split
I1017 12:09:27.983048 26962 net.cpp:406] cont_76_lstm1_cont_slice_75_split <- cont_76
I1017 12:09:27.983054 26962 net.cpp:380] cont_76_lstm1_cont_slice_75_split -> cont_76_lstm1_cont_slice_75_split_0
I1017 12:09:27.983062 26962 net.cpp:380] cont_76_lstm1_cont_slice_75_split -> cont_76_lstm1_cont_slice_75_split_1
I1017 12:09:27.983094 26962 net.cpp:122] Setting up cont_76_lstm1_cont_slice_75_split
I1017 12:09:27.983100 26962 net.cpp:129] Top shape: 1 2 (2)
I1017 12:09:27.983105 26962 net.cpp:129] Top shape: 1 2 (2)
I1017 12:09:27.983110 26962 net.cpp:137] Memory required for data: 319872
I1017 12:09:27.983114 26962 layer_factory.hpp:77] Creating layer cont_77_lstm1_cont_slice_76_split
I1017 12:09:27.983120 26962 net.cpp:84] Creating Layer cont_77_lstm1_cont_slice_76_split
I1017 12:09:27.983125 26962 net.cpp:406] cont_77_lstm1_cont_slice_76_split <- cont_77
I1017 12:09:27.983131 26962 net.cpp:380] cont_77_lstm1_cont_slice_76_split -> cont_77_lstm1_cont_slice_76_split_0
I1017 12:09:27.983139 26962 net.cpp:380] cont_77_lstm1_cont_slice_76_split -> cont_77_lstm1_cont_slice_76_split_1
I1017 12:09:27.983171 26962 net.cpp:122] Setting up cont_77_lstm1_cont_slice_76_split
I1017 12:09:27.983177 26962 net.cpp:129] Top shape: 1 2 (2)
I1017 12:09:27.983182 26962 net.cpp:129] Top shape: 1 2 (2)
I1017 12:09:27.983186 26962 net.cpp:137] Memory required for data: 319888
I1017 12:09:27.983191 26962 layer_factory.hpp:77] Creating layer cont_78_lstm1_cont_slice_77_split
I1017 12:09:27.983197 26962 net.cpp:84] Creating Layer cont_78_lstm1_cont_slice_77_split
I1017 12:09:27.983202 26962 net.cpp:406] cont_78_lstm1_cont_slice_77_split <- cont_78
I1017 12:09:27.983208 26962 net.cpp:380] cont_78_lstm1_cont_slice_77_split -> cont_78_lstm1_cont_slice_77_split_0
I1017 12:09:27.983217 26962 net.cpp:380] cont_78_lstm1_cont_slice_77_split -> cont_78_lstm1_cont_slice_77_split_1
I1017 12:09:27.983248 26962 net.cpp:122] Setting up cont_78_lstm1_cont_slice_77_split
I1017 12:09:27.983254 26962 net.cpp:129] Top shape: 1 2 (2)
I1017 12:09:27.983259 26962 net.cpp:129] Top shape: 1 2 (2)
I1017 12:09:27.983264 26962 net.cpp:137] Memory required for data: 319904
I1017 12:09:27.983268 26962 layer_factory.hpp:77] Creating layer cont_79_lstm1_cont_slice_78_split
I1017 12:09:27.983274 26962 net.cpp:84] Creating Layer cont_79_lstm1_cont_slice_78_split
I1017 12:09:27.983279 26962 net.cpp:406] cont_79_lstm1_cont_slice_78_split <- cont_79
I1017 12:09:27.983288 26962 net.cpp:380] cont_79_lstm1_cont_slice_78_split -> cont_79_lstm1_cont_slice_78_split_0
I1017 12:09:27.983294 26962 net.cpp:380] cont_79_lstm1_cont_slice_78_split -> cont_79_lstm1_cont_slice_78_split_1
I1017 12:09:27.983326 26962 net.cpp:122] Setting up cont_79_lstm1_cont_slice_78_split
I1017 12:09:27.983332 26962 net.cpp:129] Top shape: 1 2 (2)
I1017 12:09:27.983337 26962 net.cpp:129] Top shape: 1 2 (2)
I1017 12:09:27.983342 26962 net.cpp:137] Memory required for data: 319920
I1017 12:09:27.983346 26962 layer_factory.hpp:77] Creating layer cont_80_lstm1_cont_slice_79_split
I1017 12:09:27.983352 26962 net.cpp:84] Creating Layer cont_80_lstm1_cont_slice_79_split
I1017 12:09:27.983357 26962 net.cpp:406] cont_80_lstm1_cont_slice_79_split <- cont_80
I1017 12:09:27.983363 26962 net.cpp:380] cont_80_lstm1_cont_slice_79_split -> cont_80_lstm1_cont_slice_79_split_0
I1017 12:09:27.983371 26962 net.cpp:380] cont_80_lstm1_cont_slice_79_split -> cont_80_lstm1_cont_slice_79_split_1
I1017 12:09:27.983402 26962 net.cpp:122] Setting up cont_80_lstm1_cont_slice_79_split
I1017 12:09:27.983408 26962 net.cpp:129] Top shape: 1 2 (2)
I1017 12:09:27.983414 26962 net.cpp:129] Top shape: 1 2 (2)
I1017 12:09:27.983418 26962 net.cpp:137] Memory required for data: 319936
I1017 12:09:27.983422 26962 layer_factory.hpp:77] Creating layer cont_81_lstm1_cont_slice_80_split
I1017 12:09:27.983428 26962 net.cpp:84] Creating Layer cont_81_lstm1_cont_slice_80_split
I1017 12:09:27.983433 26962 net.cpp:406] cont_81_lstm1_cont_slice_80_split <- cont_81
I1017 12:09:27.983439 26962 net.cpp:380] cont_81_lstm1_cont_slice_80_split -> cont_81_lstm1_cont_slice_80_split_0
I1017 12:09:27.983446 26962 net.cpp:380] cont_81_lstm1_cont_slice_80_split -> cont_81_lstm1_cont_slice_80_split_1
I1017 12:09:27.983479 26962 net.cpp:122] Setting up cont_81_lstm1_cont_slice_80_split
I1017 12:09:27.983486 26962 net.cpp:129] Top shape: 1 2 (2)
I1017 12:09:27.983491 26962 net.cpp:129] Top shape: 1 2 (2)
I1017 12:09:27.983495 26962 net.cpp:137] Memory required for data: 319952
I1017 12:09:27.983500 26962 layer_factory.hpp:77] Creating layer cont_82_lstm1_cont_slice_81_split
I1017 12:09:27.983506 26962 net.cpp:84] Creating Layer cont_82_lstm1_cont_slice_81_split
I1017 12:09:27.983510 26962 net.cpp:406] cont_82_lstm1_cont_slice_81_split <- cont_82
I1017 12:09:27.983521 26962 net.cpp:380] cont_82_lstm1_cont_slice_81_split -> cont_82_lstm1_cont_slice_81_split_0
I1017 12:09:27.983528 26962 net.cpp:380] cont_82_lstm1_cont_slice_81_split -> cont_82_lstm1_cont_slice_81_split_1
I1017 12:09:27.983558 26962 net.cpp:122] Setting up cont_82_lstm1_cont_slice_81_split
I1017 12:09:27.983566 26962 net.cpp:129] Top shape: 1 2 (2)
I1017 12:09:27.983570 26962 net.cpp:129] Top shape: 1 2 (2)
I1017 12:09:27.983574 26962 net.cpp:137] Memory required for data: 319968
I1017 12:09:27.983579 26962 layer_factory.hpp:77] Creating layer cont_83_lstm1_cont_slice_82_split
I1017 12:09:27.983587 26962 net.cpp:84] Creating Layer cont_83_lstm1_cont_slice_82_split
I1017 12:09:27.983592 26962 net.cpp:406] cont_83_lstm1_cont_slice_82_split <- cont_83
I1017 12:09:27.983598 26962 net.cpp:380] cont_83_lstm1_cont_slice_82_split -> cont_83_lstm1_cont_slice_82_split_0
I1017 12:09:27.983605 26962 net.cpp:380] cont_83_lstm1_cont_slice_82_split -> cont_83_lstm1_cont_slice_82_split_1
I1017 12:09:27.983638 26962 net.cpp:122] Setting up cont_83_lstm1_cont_slice_82_split
I1017 12:09:27.983644 26962 net.cpp:129] Top shape: 1 2 (2)
I1017 12:09:27.983649 26962 net.cpp:129] Top shape: 1 2 (2)
I1017 12:09:27.983654 26962 net.cpp:137] Memory required for data: 319984
I1017 12:09:27.983659 26962 layer_factory.hpp:77] Creating layer cont_84_lstm1_cont_slice_83_split
I1017 12:09:27.983664 26962 net.cpp:84] Creating Layer cont_84_lstm1_cont_slice_83_split
I1017 12:09:27.983669 26962 net.cpp:406] cont_84_lstm1_cont_slice_83_split <- cont_84
I1017 12:09:27.983675 26962 net.cpp:380] cont_84_lstm1_cont_slice_83_split -> cont_84_lstm1_cont_slice_83_split_0
I1017 12:09:27.983682 26962 net.cpp:380] cont_84_lstm1_cont_slice_83_split -> cont_84_lstm1_cont_slice_83_split_1
I1017 12:09:27.983714 26962 net.cpp:122] Setting up cont_84_lstm1_cont_slice_83_split
I1017 12:09:27.983721 26962 net.cpp:129] Top shape: 1 2 (2)
I1017 12:09:27.983726 26962 net.cpp:129] Top shape: 1 2 (2)
I1017 12:09:27.983731 26962 net.cpp:137] Memory required for data: 320000
I1017 12:09:27.983734 26962 layer_factory.hpp:77] Creating layer cont_85_lstm1_cont_slice_84_split
I1017 12:09:27.983741 26962 net.cpp:84] Creating Layer cont_85_lstm1_cont_slice_84_split
I1017 12:09:27.983745 26962 net.cpp:406] cont_85_lstm1_cont_slice_84_split <- cont_85
I1017 12:09:27.983752 26962 net.cpp:380] cont_85_lstm1_cont_slice_84_split -> cont_85_lstm1_cont_slice_84_split_0
I1017 12:09:27.983758 26962 net.cpp:380] cont_85_lstm1_cont_slice_84_split -> cont_85_lstm1_cont_slice_84_split_1
I1017 12:09:27.983790 26962 net.cpp:122] Setting up cont_85_lstm1_cont_slice_84_split
I1017 12:09:27.983796 26962 net.cpp:129] Top shape: 1 2 (2)
I1017 12:09:27.983801 26962 net.cpp:129] Top shape: 1 2 (2)
I1017 12:09:27.983806 26962 net.cpp:137] Memory required for data: 320016
I1017 12:09:27.983810 26962 layer_factory.hpp:77] Creating layer cont_86_lstm1_cont_slice_85_split
I1017 12:09:27.983816 26962 net.cpp:84] Creating Layer cont_86_lstm1_cont_slice_85_split
I1017 12:09:27.983821 26962 net.cpp:406] cont_86_lstm1_cont_slice_85_split <- cont_86
I1017 12:09:27.983829 26962 net.cpp:380] cont_86_lstm1_cont_slice_85_split -> cont_86_lstm1_cont_slice_85_split_0
I1017 12:09:27.983836 26962 net.cpp:380] cont_86_lstm1_cont_slice_85_split -> cont_86_lstm1_cont_slice_85_split_1
I1017 12:09:27.983866 26962 net.cpp:122] Setting up cont_86_lstm1_cont_slice_85_split
I1017 12:09:27.983875 26962 net.cpp:129] Top shape: 1 2 (2)
I1017 12:09:27.983880 26962 net.cpp:129] Top shape: 1 2 (2)
I1017 12:09:27.983885 26962 net.cpp:137] Memory required for data: 320032
I1017 12:09:27.983889 26962 layer_factory.hpp:77] Creating layer cont_87_lstm1_cont_slice_86_split
I1017 12:09:27.983894 26962 net.cpp:84] Creating Layer cont_87_lstm1_cont_slice_86_split
I1017 12:09:27.983899 26962 net.cpp:406] cont_87_lstm1_cont_slice_86_split <- cont_87
I1017 12:09:27.983906 26962 net.cpp:380] cont_87_lstm1_cont_slice_86_split -> cont_87_lstm1_cont_slice_86_split_0
I1017 12:09:27.983912 26962 net.cpp:380] cont_87_lstm1_cont_slice_86_split -> cont_87_lstm1_cont_slice_86_split_1
I1017 12:09:27.983945 26962 net.cpp:122] Setting up cont_87_lstm1_cont_slice_86_split
I1017 12:09:27.983952 26962 net.cpp:129] Top shape: 1 2 (2)
I1017 12:09:27.983958 26962 net.cpp:129] Top shape: 1 2 (2)
I1017 12:09:27.983961 26962 net.cpp:137] Memory required for data: 320048
I1017 12:09:27.983966 26962 layer_factory.hpp:77] Creating layer cont_88_lstm1_cont_slice_87_split
I1017 12:09:27.983971 26962 net.cpp:84] Creating Layer cont_88_lstm1_cont_slice_87_split
I1017 12:09:27.983976 26962 net.cpp:406] cont_88_lstm1_cont_slice_87_split <- cont_88
I1017 12:09:27.983983 26962 net.cpp:380] cont_88_lstm1_cont_slice_87_split -> cont_88_lstm1_cont_slice_87_split_0
I1017 12:09:27.983989 26962 net.cpp:380] cont_88_lstm1_cont_slice_87_split -> cont_88_lstm1_cont_slice_87_split_1
I1017 12:09:27.984022 26962 net.cpp:122] Setting up cont_88_lstm1_cont_slice_87_split
I1017 12:09:27.984035 26962 net.cpp:129] Top shape: 1 2 (2)
I1017 12:09:27.984040 26962 net.cpp:129] Top shape: 1 2 (2)
I1017 12:09:27.984045 26962 net.cpp:137] Memory required for data: 320064
I1017 12:09:27.984048 26962 layer_factory.hpp:77] Creating layer cont_89_lstm1_cont_slice_88_split
I1017 12:09:27.984055 26962 net.cpp:84] Creating Layer cont_89_lstm1_cont_slice_88_split
I1017 12:09:27.984060 26962 net.cpp:406] cont_89_lstm1_cont_slice_88_split <- cont_89
I1017 12:09:27.984068 26962 net.cpp:380] cont_89_lstm1_cont_slice_88_split -> cont_89_lstm1_cont_slice_88_split_0
I1017 12:09:27.984076 26962 net.cpp:380] cont_89_lstm1_cont_slice_88_split -> cont_89_lstm1_cont_slice_88_split_1
I1017 12:09:27.984107 26962 net.cpp:122] Setting up cont_89_lstm1_cont_slice_88_split
I1017 12:09:27.984113 26962 net.cpp:129] Top shape: 1 2 (2)
I1017 12:09:27.984118 26962 net.cpp:129] Top shape: 1 2 (2)
I1017 12:09:27.984122 26962 net.cpp:137] Memory required for data: 320080
I1017 12:09:27.984127 26962 layer_factory.hpp:77] Creating layer cont_90_lstm1_cont_slice_89_split
I1017 12:09:27.984134 26962 net.cpp:84] Creating Layer cont_90_lstm1_cont_slice_89_split
I1017 12:09:27.984139 26962 net.cpp:406] cont_90_lstm1_cont_slice_89_split <- cont_90
I1017 12:09:27.984146 26962 net.cpp:380] cont_90_lstm1_cont_slice_89_split -> cont_90_lstm1_cont_slice_89_split_0
I1017 12:09:27.984153 26962 net.cpp:380] cont_90_lstm1_cont_slice_89_split -> cont_90_lstm1_cont_slice_89_split_1
I1017 12:09:27.984185 26962 net.cpp:122] Setting up cont_90_lstm1_cont_slice_89_split
I1017 12:09:27.984192 26962 net.cpp:129] Top shape: 1 2 (2)
I1017 12:09:27.984197 26962 net.cpp:129] Top shape: 1 2 (2)
I1017 12:09:27.984201 26962 net.cpp:137] Memory required for data: 320096
I1017 12:09:27.984205 26962 layer_factory.hpp:77] Creating layer cont_91_lstm1_cont_slice_90_split
I1017 12:09:27.984211 26962 net.cpp:84] Creating Layer cont_91_lstm1_cont_slice_90_split
I1017 12:09:27.984216 26962 net.cpp:406] cont_91_lstm1_cont_slice_90_split <- cont_91
I1017 12:09:27.984222 26962 net.cpp:380] cont_91_lstm1_cont_slice_90_split -> cont_91_lstm1_cont_slice_90_split_0
I1017 12:09:27.984230 26962 net.cpp:380] cont_91_lstm1_cont_slice_90_split -> cont_91_lstm1_cont_slice_90_split_1
I1017 12:09:27.984263 26962 net.cpp:122] Setting up cont_91_lstm1_cont_slice_90_split
I1017 12:09:27.984271 26962 net.cpp:129] Top shape: 1 2 (2)
I1017 12:09:27.984275 26962 net.cpp:129] Top shape: 1 2 (2)
I1017 12:09:27.984279 26962 net.cpp:137] Memory required for data: 320112
I1017 12:09:27.984284 26962 layer_factory.hpp:77] Creating layer cont_92_lstm1_cont_slice_91_split
I1017 12:09:27.984290 26962 net.cpp:84] Creating Layer cont_92_lstm1_cont_slice_91_split
I1017 12:09:27.984295 26962 net.cpp:406] cont_92_lstm1_cont_slice_91_split <- cont_92
I1017 12:09:27.984302 26962 net.cpp:380] cont_92_lstm1_cont_slice_91_split -> cont_92_lstm1_cont_slice_91_split_0
I1017 12:09:27.984308 26962 net.cpp:380] cont_92_lstm1_cont_slice_91_split -> cont_92_lstm1_cont_slice_91_split_1
I1017 12:09:27.984342 26962 net.cpp:122] Setting up cont_92_lstm1_cont_slice_91_split
I1017 12:09:27.984349 26962 net.cpp:129] Top shape: 1 2 (2)
I1017 12:09:27.984354 26962 net.cpp:129] Top shape: 1 2 (2)
I1017 12:09:27.984359 26962 net.cpp:137] Memory required for data: 320128
I1017 12:09:27.984364 26962 layer_factory.hpp:77] Creating layer cont_93_lstm1_cont_slice_92_split
I1017 12:09:27.984369 26962 net.cpp:84] Creating Layer cont_93_lstm1_cont_slice_92_split
I1017 12:09:27.984374 26962 net.cpp:406] cont_93_lstm1_cont_slice_92_split <- cont_93
I1017 12:09:27.984381 26962 net.cpp:380] cont_93_lstm1_cont_slice_92_split -> cont_93_lstm1_cont_slice_92_split_0
I1017 12:09:27.984388 26962 net.cpp:380] cont_93_lstm1_cont_slice_92_split -> cont_93_lstm1_cont_slice_92_split_1
I1017 12:09:27.984419 26962 net.cpp:122] Setting up cont_93_lstm1_cont_slice_92_split
I1017 12:09:27.984426 26962 net.cpp:129] Top shape: 1 2 (2)
I1017 12:09:27.984431 26962 net.cpp:129] Top shape: 1 2 (2)
I1017 12:09:27.984436 26962 net.cpp:137] Memory required for data: 320144
I1017 12:09:27.984439 26962 layer_factory.hpp:77] Creating layer cont_94_lstm1_cont_slice_93_split
I1017 12:09:27.984447 26962 net.cpp:84] Creating Layer cont_94_lstm1_cont_slice_93_split
I1017 12:09:27.984452 26962 net.cpp:406] cont_94_lstm1_cont_slice_93_split <- cont_94
I1017 12:09:27.984467 26962 net.cpp:380] cont_94_lstm1_cont_slice_93_split -> cont_94_lstm1_cont_slice_93_split_0
I1017 12:09:27.984473 26962 net.cpp:380] cont_94_lstm1_cont_slice_93_split -> cont_94_lstm1_cont_slice_93_split_1
I1017 12:09:27.984506 26962 net.cpp:122] Setting up cont_94_lstm1_cont_slice_93_split
I1017 12:09:27.984513 26962 net.cpp:129] Top shape: 1 2 (2)
I1017 12:09:27.984519 26962 net.cpp:129] Top shape: 1 2 (2)
I1017 12:09:27.984522 26962 net.cpp:137] Memory required for data: 320160
I1017 12:09:27.984526 26962 layer_factory.hpp:77] Creating layer cont_95_lstm1_cont_slice_94_split
I1017 12:09:27.984532 26962 net.cpp:84] Creating Layer cont_95_lstm1_cont_slice_94_split
I1017 12:09:27.984537 26962 net.cpp:406] cont_95_lstm1_cont_slice_94_split <- cont_95
I1017 12:09:27.984544 26962 net.cpp:380] cont_95_lstm1_cont_slice_94_split -> cont_95_lstm1_cont_slice_94_split_0
I1017 12:09:27.984550 26962 net.cpp:380] cont_95_lstm1_cont_slice_94_split -> cont_95_lstm1_cont_slice_94_split_1
I1017 12:09:27.984583 26962 net.cpp:122] Setting up cont_95_lstm1_cont_slice_94_split
I1017 12:09:27.984589 26962 net.cpp:129] Top shape: 1 2 (2)
I1017 12:09:27.984594 26962 net.cpp:129] Top shape: 1 2 (2)
I1017 12:09:27.984598 26962 net.cpp:137] Memory required for data: 320176
I1017 12:09:27.984603 26962 layer_factory.hpp:77] Creating layer cont_96_lstm1_cont_slice_95_split
I1017 12:09:27.984608 26962 net.cpp:84] Creating Layer cont_96_lstm1_cont_slice_95_split
I1017 12:09:27.984613 26962 net.cpp:406] cont_96_lstm1_cont_slice_95_split <- cont_96
I1017 12:09:27.984619 26962 net.cpp:380] cont_96_lstm1_cont_slice_95_split -> cont_96_lstm1_cont_slice_95_split_0
I1017 12:09:27.984629 26962 net.cpp:380] cont_96_lstm1_cont_slice_95_split -> cont_96_lstm1_cont_slice_95_split_1
I1017 12:09:27.984660 26962 net.cpp:122] Setting up cont_96_lstm1_cont_slice_95_split
I1017 12:09:27.984666 26962 net.cpp:129] Top shape: 1 2 (2)
I1017 12:09:27.984673 26962 net.cpp:129] Top shape: 1 2 (2)
I1017 12:09:27.984676 26962 net.cpp:137] Memory required for data: 320192
I1017 12:09:27.984681 26962 layer_factory.hpp:77] Creating layer cont_97_lstm1_cont_slice_96_split
I1017 12:09:27.984689 26962 net.cpp:84] Creating Layer cont_97_lstm1_cont_slice_96_split
I1017 12:09:27.984694 26962 net.cpp:406] cont_97_lstm1_cont_slice_96_split <- cont_97
I1017 12:09:27.984700 26962 net.cpp:380] cont_97_lstm1_cont_slice_96_split -> cont_97_lstm1_cont_slice_96_split_0
I1017 12:09:27.984707 26962 net.cpp:380] cont_97_lstm1_cont_slice_96_split -> cont_97_lstm1_cont_slice_96_split_1
I1017 12:09:27.984740 26962 net.cpp:122] Setting up cont_97_lstm1_cont_slice_96_split
I1017 12:09:27.984746 26962 net.cpp:129] Top shape: 1 2 (2)
I1017 12:09:27.984751 26962 net.cpp:129] Top shape: 1 2 (2)
I1017 12:09:27.984756 26962 net.cpp:137] Memory required for data: 320208
I1017 12:09:27.984761 26962 layer_factory.hpp:77] Creating layer cont_98_lstm1_cont_slice_97_split
I1017 12:09:27.984766 26962 net.cpp:84] Creating Layer cont_98_lstm1_cont_slice_97_split
I1017 12:09:27.984771 26962 net.cpp:406] cont_98_lstm1_cont_slice_97_split <- cont_98
I1017 12:09:27.984778 26962 net.cpp:380] cont_98_lstm1_cont_slice_97_split -> cont_98_lstm1_cont_slice_97_split_0
I1017 12:09:27.984786 26962 net.cpp:380] cont_98_lstm1_cont_slice_97_split -> cont_98_lstm1_cont_slice_97_split_1
I1017 12:09:27.984817 26962 net.cpp:122] Setting up cont_98_lstm1_cont_slice_97_split
I1017 12:09:27.984824 26962 net.cpp:129] Top shape: 1 2 (2)
I1017 12:09:27.984829 26962 net.cpp:129] Top shape: 1 2 (2)
I1017 12:09:27.984833 26962 net.cpp:137] Memory required for data: 320224
I1017 12:09:27.984838 26962 layer_factory.hpp:77] Creating layer cont_99_lstm1_cont_slice_98_split
I1017 12:09:27.984844 26962 net.cpp:84] Creating Layer cont_99_lstm1_cont_slice_98_split
I1017 12:09:27.984849 26962 net.cpp:406] cont_99_lstm1_cont_slice_98_split <- cont_99
I1017 12:09:27.984855 26962 net.cpp:380] cont_99_lstm1_cont_slice_98_split -> cont_99_lstm1_cont_slice_98_split_0
I1017 12:09:27.984863 26962 net.cpp:380] cont_99_lstm1_cont_slice_98_split -> cont_99_lstm1_cont_slice_98_split_1
I1017 12:09:27.984895 26962 net.cpp:122] Setting up cont_99_lstm1_cont_slice_98_split
I1017 12:09:27.984901 26962 net.cpp:129] Top shape: 1 2 (2)
I1017 12:09:27.984906 26962 net.cpp:129] Top shape: 1 2 (2)
I1017 12:09:27.984911 26962 net.cpp:137] Memory required for data: 320240
I1017 12:09:27.984915 26962 layer_factory.hpp:77] Creating layer cont_100_lstm1_cont_slice_99_split
I1017 12:09:27.984921 26962 net.cpp:84] Creating Layer cont_100_lstm1_cont_slice_99_split
I1017 12:09:27.984927 26962 net.cpp:406] cont_100_lstm1_cont_slice_99_split <- cont_100
I1017 12:09:27.984935 26962 net.cpp:380] cont_100_lstm1_cont_slice_99_split -> cont_100_lstm1_cont_slice_99_split_0
I1017 12:09:27.984943 26962 net.cpp:380] cont_100_lstm1_cont_slice_99_split -> cont_100_lstm1_cont_slice_99_split_1
I1017 12:09:27.984975 26962 net.cpp:122] Setting up cont_100_lstm1_cont_slice_99_split
I1017 12:09:27.984982 26962 net.cpp:129] Top shape: 1 2 (2)
I1017 12:09:27.984987 26962 net.cpp:129] Top shape: 1 2 (2)
I1017 12:09:27.984992 26962 net.cpp:137] Memory required for data: 320256
I1017 12:09:27.984997 26962 layer_factory.hpp:77] Creating layer cont_101_lstm1_cont_slice_100_split
I1017 12:09:27.985004 26962 net.cpp:84] Creating Layer cont_101_lstm1_cont_slice_100_split
I1017 12:09:27.985009 26962 net.cpp:406] cont_101_lstm1_cont_slice_100_split <- cont_101
I1017 12:09:27.985015 26962 net.cpp:380] cont_101_lstm1_cont_slice_100_split -> cont_101_lstm1_cont_slice_100_split_0
I1017 12:09:27.985023 26962 net.cpp:380] cont_101_lstm1_cont_slice_100_split -> cont_101_lstm1_cont_slice_100_split_1
I1017 12:09:27.985055 26962 net.cpp:122] Setting up cont_101_lstm1_cont_slice_100_split
I1017 12:09:27.985062 26962 net.cpp:129] Top shape: 1 2 (2)
I1017 12:09:27.985067 26962 net.cpp:129] Top shape: 1 2 (2)
I1017 12:09:27.985071 26962 net.cpp:137] Memory required for data: 320272
I1017 12:09:27.985075 26962 layer_factory.hpp:77] Creating layer cont_102_lstm1_cont_slice_101_split
I1017 12:09:27.985081 26962 net.cpp:84] Creating Layer cont_102_lstm1_cont_slice_101_split
I1017 12:09:27.985086 26962 net.cpp:406] cont_102_lstm1_cont_slice_101_split <- cont_102
I1017 12:09:27.985092 26962 net.cpp:380] cont_102_lstm1_cont_slice_101_split -> cont_102_lstm1_cont_slice_101_split_0
I1017 12:09:27.985100 26962 net.cpp:380] cont_102_lstm1_cont_slice_101_split -> cont_102_lstm1_cont_slice_101_split_1
I1017 12:09:27.985133 26962 net.cpp:122] Setting up cont_102_lstm1_cont_slice_101_split
I1017 12:09:27.985139 26962 net.cpp:129] Top shape: 1 2 (2)
I1017 12:09:27.985144 26962 net.cpp:129] Top shape: 1 2 (2)
I1017 12:09:27.985149 26962 net.cpp:137] Memory required for data: 320288
I1017 12:09:27.985153 26962 layer_factory.hpp:77] Creating layer cont_103_lstm1_cont_slice_102_split
I1017 12:09:27.985160 26962 net.cpp:84] Creating Layer cont_103_lstm1_cont_slice_102_split
I1017 12:09:27.985165 26962 net.cpp:406] cont_103_lstm1_cont_slice_102_split <- cont_103
I1017 12:09:27.985172 26962 net.cpp:380] cont_103_lstm1_cont_slice_102_split -> cont_103_lstm1_cont_slice_102_split_0
I1017 12:09:27.985182 26962 net.cpp:380] cont_103_lstm1_cont_slice_102_split -> cont_103_lstm1_cont_slice_102_split_1
I1017 12:09:27.985213 26962 net.cpp:122] Setting up cont_103_lstm1_cont_slice_102_split
I1017 12:09:27.985219 26962 net.cpp:129] Top shape: 1 2 (2)
I1017 12:09:27.985224 26962 net.cpp:129] Top shape: 1 2 (2)
I1017 12:09:27.985229 26962 net.cpp:137] Memory required for data: 320304
I1017 12:09:27.985234 26962 layer_factory.hpp:77] Creating layer cont_104_lstm1_cont_slice_103_split
I1017 12:09:27.985241 26962 net.cpp:84] Creating Layer cont_104_lstm1_cont_slice_103_split
I1017 12:09:27.985246 26962 net.cpp:406] cont_104_lstm1_cont_slice_103_split <- cont_104
I1017 12:09:27.985254 26962 net.cpp:380] cont_104_lstm1_cont_slice_103_split -> cont_104_lstm1_cont_slice_103_split_0
I1017 12:09:27.985260 26962 net.cpp:380] cont_104_lstm1_cont_slice_103_split -> cont_104_lstm1_cont_slice_103_split_1
I1017 12:09:27.985293 26962 net.cpp:122] Setting up cont_104_lstm1_cont_slice_103_split
I1017 12:09:27.985301 26962 net.cpp:129] Top shape: 1 2 (2)
I1017 12:09:27.985306 26962 net.cpp:129] Top shape: 1 2 (2)
I1017 12:09:27.985311 26962 net.cpp:137] Memory required for data: 320320
I1017 12:09:27.985314 26962 layer_factory.hpp:77] Creating layer cont_105_lstm1_cont_slice_104_split
I1017 12:09:27.985321 26962 net.cpp:84] Creating Layer cont_105_lstm1_cont_slice_104_split
I1017 12:09:27.985325 26962 net.cpp:406] cont_105_lstm1_cont_slice_104_split <- cont_105
I1017 12:09:27.985332 26962 net.cpp:380] cont_105_lstm1_cont_slice_104_split -> cont_105_lstm1_cont_slice_104_split_0
I1017 12:09:27.985338 26962 net.cpp:380] cont_105_lstm1_cont_slice_104_split -> cont_105_lstm1_cont_slice_104_split_1
I1017 12:09:27.985371 26962 net.cpp:122] Setting up cont_105_lstm1_cont_slice_104_split
I1017 12:09:27.985378 26962 net.cpp:129] Top shape: 1 2 (2)
I1017 12:09:27.985383 26962 net.cpp:129] Top shape: 1 2 (2)
I1017 12:09:27.985388 26962 net.cpp:137] Memory required for data: 320336
I1017 12:09:27.985391 26962 layer_factory.hpp:77] Creating layer cont_106_lstm1_cont_slice_105_split
I1017 12:09:27.985397 26962 net.cpp:84] Creating Layer cont_106_lstm1_cont_slice_105_split
I1017 12:09:27.985402 26962 net.cpp:406] cont_106_lstm1_cont_slice_105_split <- cont_106
I1017 12:09:27.985409 26962 net.cpp:380] cont_106_lstm1_cont_slice_105_split -> cont_106_lstm1_cont_slice_105_split_0
I1017 12:09:27.985415 26962 net.cpp:380] cont_106_lstm1_cont_slice_105_split -> cont_106_lstm1_cont_slice_105_split_1
I1017 12:09:27.985450 26962 net.cpp:122] Setting up cont_106_lstm1_cont_slice_105_split
I1017 12:09:27.985456 26962 net.cpp:129] Top shape: 1 2 (2)
I1017 12:09:27.985461 26962 net.cpp:129] Top shape: 1 2 (2)
I1017 12:09:27.985466 26962 net.cpp:137] Memory required for data: 320352
I1017 12:09:27.985471 26962 layer_factory.hpp:77] Creating layer cont_107_lstm1_cont_slice_106_split
I1017 12:09:27.985476 26962 net.cpp:84] Creating Layer cont_107_lstm1_cont_slice_106_split
I1017 12:09:27.985481 26962 net.cpp:406] cont_107_lstm1_cont_slice_106_split <- cont_107
I1017 12:09:27.985489 26962 net.cpp:380] cont_107_lstm1_cont_slice_106_split -> cont_107_lstm1_cont_slice_106_split_0
I1017 12:09:27.985496 26962 net.cpp:380] cont_107_lstm1_cont_slice_106_split -> cont_107_lstm1_cont_slice_106_split_1
I1017 12:09:27.985527 26962 net.cpp:122] Setting up cont_107_lstm1_cont_slice_106_split
I1017 12:09:27.985533 26962 net.cpp:129] Top shape: 1 2 (2)
I1017 12:09:27.985538 26962 net.cpp:129] Top shape: 1 2 (2)
I1017 12:09:27.985543 26962 net.cpp:137] Memory required for data: 320368
I1017 12:09:27.985548 26962 layer_factory.hpp:77] Creating layer cont_108_lstm1_cont_slice_107_split
I1017 12:09:27.985555 26962 net.cpp:84] Creating Layer cont_108_lstm1_cont_slice_107_split
I1017 12:09:28.010493 26962 net.cpp:406] cont_108_lstm1_cont_slice_107_split <- cont_108
I1017 12:09:28.010540 26962 net.cpp:380] cont_108_lstm1_cont_slice_107_split -> cont_108_lstm1_cont_slice_107_split_0
I1017 12:09:28.010574 26962 net.cpp:380] cont_108_lstm1_cont_slice_107_split -> cont_108_lstm1_cont_slice_107_split_1
I1017 12:09:28.010687 26962 net.cpp:122] Setting up cont_108_lstm1_cont_slice_107_split
I1017 12:09:28.010699 26962 net.cpp:129] Top shape: 1 2 (2)
I1017 12:09:28.010704 26962 net.cpp:129] Top shape: 1 2 (2)
I1017 12:09:28.010710 26962 net.cpp:137] Memory required for data: 320384
I1017 12:09:28.010715 26962 layer_factory.hpp:77] Creating layer cont_109_lstm1_cont_slice_108_split
I1017 12:09:28.010723 26962 net.cpp:84] Creating Layer cont_109_lstm1_cont_slice_108_split
I1017 12:09:28.010728 26962 net.cpp:406] cont_109_lstm1_cont_slice_108_split <- cont_109
I1017 12:09:28.010736 26962 net.cpp:380] cont_109_lstm1_cont_slice_108_split -> cont_109_lstm1_cont_slice_108_split_0
I1017 12:09:28.010745 26962 net.cpp:380] cont_109_lstm1_cont_slice_108_split -> cont_109_lstm1_cont_slice_108_split_1
I1017 12:09:28.010783 26962 net.cpp:122] Setting up cont_109_lstm1_cont_slice_108_split
I1017 12:09:28.010790 26962 net.cpp:129] Top shape: 1 2 (2)
I1017 12:09:28.010795 26962 net.cpp:129] Top shape: 1 2 (2)
I1017 12:09:28.010800 26962 net.cpp:137] Memory required for data: 320400
I1017 12:09:28.010804 26962 layer_factory.hpp:77] Creating layer cont_110_lstm1_cont_slice_109_split
I1017 12:09:28.010812 26962 net.cpp:84] Creating Layer cont_110_lstm1_cont_slice_109_split
I1017 12:09:28.010817 26962 net.cpp:406] cont_110_lstm1_cont_slice_109_split <- cont_110
I1017 12:09:28.010823 26962 net.cpp:380] cont_110_lstm1_cont_slice_109_split -> cont_110_lstm1_cont_slice_109_split_0
I1017 12:09:28.010833 26962 net.cpp:380] cont_110_lstm1_cont_slice_109_split -> cont_110_lstm1_cont_slice_109_split_1
I1017 12:09:28.010867 26962 net.cpp:122] Setting up cont_110_lstm1_cont_slice_109_split
I1017 12:09:28.010874 26962 net.cpp:129] Top shape: 1 2 (2)
I1017 12:09:28.010879 26962 net.cpp:129] Top shape: 1 2 (2)
I1017 12:09:28.010884 26962 net.cpp:137] Memory required for data: 320416
I1017 12:09:28.010887 26962 layer_factory.hpp:77] Creating layer cont_111_lstm1_cont_slice_110_split
I1017 12:09:28.010895 26962 net.cpp:84] Creating Layer cont_111_lstm1_cont_slice_110_split
I1017 12:09:28.010900 26962 net.cpp:406] cont_111_lstm1_cont_slice_110_split <- cont_111
I1017 12:09:28.010908 26962 net.cpp:380] cont_111_lstm1_cont_slice_110_split -> cont_111_lstm1_cont_slice_110_split_0
I1017 12:09:28.010915 26962 net.cpp:380] cont_111_lstm1_cont_slice_110_split -> cont_111_lstm1_cont_slice_110_split_1
I1017 12:09:28.010954 26962 net.cpp:122] Setting up cont_111_lstm1_cont_slice_110_split
I1017 12:09:28.010960 26962 net.cpp:129] Top shape: 1 2 (2)
I1017 12:09:28.010967 26962 net.cpp:129] Top shape: 1 2 (2)
I1017 12:09:28.010970 26962 net.cpp:137] Memory required for data: 320432
I1017 12:09:28.010974 26962 layer_factory.hpp:77] Creating layer cont_112_lstm1_cont_slice_111_split
I1017 12:09:28.010980 26962 net.cpp:84] Creating Layer cont_112_lstm1_cont_slice_111_split
I1017 12:09:28.010985 26962 net.cpp:406] cont_112_lstm1_cont_slice_111_split <- cont_112
I1017 12:09:28.010993 26962 net.cpp:380] cont_112_lstm1_cont_slice_111_split -> cont_112_lstm1_cont_slice_111_split_0
I1017 12:09:28.010999 26962 net.cpp:380] cont_112_lstm1_cont_slice_111_split -> cont_112_lstm1_cont_slice_111_split_1
I1017 12:09:28.011035 26962 net.cpp:122] Setting up cont_112_lstm1_cont_slice_111_split
I1017 12:09:28.011042 26962 net.cpp:129] Top shape: 1 2 (2)
I1017 12:09:28.011049 26962 net.cpp:129] Top shape: 1 2 (2)
I1017 12:09:28.011052 26962 net.cpp:137] Memory required for data: 320448
I1017 12:09:28.011056 26962 layer_factory.hpp:77] Creating layer cont_113_lstm1_cont_slice_112_split
I1017 12:09:28.011063 26962 net.cpp:84] Creating Layer cont_113_lstm1_cont_slice_112_split
I1017 12:09:28.011068 26962 net.cpp:406] cont_113_lstm1_cont_slice_112_split <- cont_113
I1017 12:09:28.011076 26962 net.cpp:380] cont_113_lstm1_cont_slice_112_split -> cont_113_lstm1_cont_slice_112_split_0
I1017 12:09:28.011083 26962 net.cpp:380] cont_113_lstm1_cont_slice_112_split -> cont_113_lstm1_cont_slice_112_split_1
I1017 12:09:28.011118 26962 net.cpp:122] Setting up cont_113_lstm1_cont_slice_112_split
I1017 12:09:28.011126 26962 net.cpp:129] Top shape: 1 2 (2)
I1017 12:09:28.011131 26962 net.cpp:129] Top shape: 1 2 (2)
I1017 12:09:28.011134 26962 net.cpp:137] Memory required for data: 320464
I1017 12:09:28.011139 26962 layer_factory.hpp:77] Creating layer cont_114_lstm1_cont_slice_113_split
I1017 12:09:28.011145 26962 net.cpp:84] Creating Layer cont_114_lstm1_cont_slice_113_split
I1017 12:09:28.011150 26962 net.cpp:406] cont_114_lstm1_cont_slice_113_split <- cont_114
I1017 12:09:28.011160 26962 net.cpp:380] cont_114_lstm1_cont_slice_113_split -> cont_114_lstm1_cont_slice_113_split_0
I1017 12:09:28.011168 26962 net.cpp:380] cont_114_lstm1_cont_slice_113_split -> cont_114_lstm1_cont_slice_113_split_1
I1017 12:09:28.011200 26962 net.cpp:122] Setting up cont_114_lstm1_cont_slice_113_split
I1017 12:09:28.011206 26962 net.cpp:129] Top shape: 1 2 (2)
I1017 12:09:28.011211 26962 net.cpp:129] Top shape: 1 2 (2)
I1017 12:09:28.011216 26962 net.cpp:137] Memory required for data: 320480
…
I1017 12:09:34.249522 26962 net.cpp:406] lstm1_gate_input_183 <- W_xc_x_183
I1017 12:09:34.249531 26962 net.cpp:380] lstm1_gate_input_183 -> gate_input_183
I1017 12:09:34.249562 26962 net.cpp:122] Setting up lstm1_gate_input_183
I1017 12:09:34.249568 26962 net.cpp:129] Top shape: 1 150 2048 (307200)
I1017 12:09:34.249572 26962 net.cpp:137] Memory required for data: 1235424000
I1017 12:09:34.249577 26962 layer_factory.hpp:77] Creating layer lstm1_unit_183
I1017 12:09:34.249583 26962 net.cpp:84] Creating Layer lstm1_unit_183
I1017 12:09:34.249588 26962 net.cpp:406] lstm1_unit_183 <- c_182
I1017 12:09:34.249594 26962 net.cpp:406] lstm1_unit_183 <- gate_input_183
I1017 12:09:34.249600 26962 net.cpp:406] lstm1_unit_183 <- cont_183_lstm1_cont_slice_182_split_1
I1017 12:09:34.249608 26962 net.cpp:380] lstm1_unit_183 -> c_183
I1017 12:09:34.249615 26962 net.cpp:380] lstm1_unit_183 -> h_183
I1017 12:09:34.249662 26962 net.cpp:122] Setting up lstm1_unit_183
I1017 12:09:34.249668 26962 net.cpp:129] Top shape: 1 150 512 (76800)
I1017 12:09:34.249673 26962 net.cpp:129] Top shape: 1 150 512 (76800)
I1017 12:09:34.249678 26962 net.cpp:137] Memory required for data: 1236038400
I1017 12:09:34.249682 26962 layer_factory.hpp:77] Creating layer h_183_lstm1_unit_183_1_split
I1017 12:09:34.249688 26962 net.cpp:84] Creating Layer h_183_lstm1_unit_183_1_split
I1017 12:09:34.249692 26962 net.cpp:406] h_183_lstm1_unit_183_1_split <- h_183
I1017 12:09:34.249699 26962 net.cpp:380] h_183_lstm1_unit_183_1_split -> h_183_lstm1_unit_183_1_split_0
I1017 12:09:34.249706 26962 net.cpp:380] h_183_lstm1_unit_183_1_split -> h_183_lstm1_unit_183_1_split_1
I1017 12:09:34.249742 26962 net.cpp:122] Setting up h_183_lstm1_unit_183_1_split
I1017 12:09:34.249747 26962 net.cpp:129] Top shape: 1 150 512 (76800)
I1017 12:09:34.249752 26962 net.cpp:129] Top shape: 1 150 512 (76800)
I1017 12:09:34.249756 26962 net.cpp:137] Memory required for data: 1236652800
I1017 12:09:34.249760 26962 layer_factory.hpp:77] Creating layer lstm1_h_conted_183
I1017 12:09:34.249768 26962 net.cpp:84] Creating Layer lstm1_h_conted_183
I1017 12:09:34.249773 26962 net.cpp:406] lstm1_h_conted_183 <- h_183_lstm1_unit_183_1_split_0
I1017 12:09:34.249779 26962 net.cpp:406] lstm1_h_conted_183 <- cont_184_lstm1_cont_slice_183_split_0
I1017 12:09:34.249786 26962 net.cpp:380] lstm1_h_conted_183 -> h_conted_183
I1017 12:09:34.249864 26962 net.cpp:122] Setting up lstm1_h_conted_183
I1017 12:09:34.249889 26962 net.cpp:129] Top shape: 1 150 512 (76800)
I1017 12:09:34.249893 26962 net.cpp:137] Memory required for data: 1236960000
I1017 12:09:34.249898 26962 layer_factory.hpp:77] Creating layer lstm1_transform_184
I1017 12:09:34.249907 26962 net.cpp:84] Creating Layer lstm1_transform_184
I1017 12:09:34.249912 26962 net.cpp:406] lstm1_transform_184 <- h_conted_183
I1017 12:09:34.249920 26962 net.cpp:380] lstm1_transform_184 -> W_hc_h_183
I1017 12:09:34.261672 26962 net.cpp:122] Setting up lstm1_transform_184
I1017 12:09:34.261694 26962 net.cpp:129] Top shape: 1 150 2048 (307200)
I1017 12:09:34.261699 26962 net.cpp:137] Memory required for data: 1238188800
I1017 12:09:34.261705 26962 net.cpp:465] Sharing parameters 'W_hc' owned by layer 'lstm1_transform_1', param index 0
I1017 12:09:34.261713 26962 layer_factory.hpp:77] Creating layer lstm1_gate_input_184
I1017 12:09:34.261723 26962 net.cpp:84] Creating Layer lstm1_gate_input_184
I1017 12:09:34.261730 26962 net.cpp:406] lstm1_gate_input_184 <- W_hc_h_183
I1017 12:09:34.261739 26962 net.cpp:406] lstm1_gate_input_184 <- W_xc_x_184
I1017 12:09:34.261749 26962 net.cpp:380] lstm1_gate_input_184 -> gate_input_184
I1017 12:09:34.261786 26962 net.cpp:122] Setting up lstm1_gate_input_184
I1017 12:09:34.261792 26962 net.cpp:129] Top shape: 1 150 2048 (307200)
I1017 12:09:34.261796 26962 net.cpp:137] Memory required for data: 1239417600
I1017 12:09:34.261801 26962 layer_factory.hpp:77] Creating layer lstm1_unit_184
I1017 12:09:34.261811 26962 net.cpp:84] Creating Layer lstm1_unit_184
I1017 12:09:34.261816 26962 net.cpp:406] lstm1_unit_184 <- c_183
I1017 12:09:34.261822 26962 net.cpp:406] lstm1_unit_184 <- gate_input_184
I1017 12:09:34.261828 26962 net.cpp:406] lstm1_unit_184 <- cont_184_lstm1_cont_slice_183_split_1
I1017 12:09:34.261835 26962 net.cpp:380] lstm1_unit_184 -> c_184
I1017 12:09:34.261844 26962 net.cpp:380] lstm1_unit_184 -> h_184
I1017 12:09:34.261893 26962 net.cpp:122] Setting up lstm1_unit_184
I1017 12:09:34.261900 26962 net.cpp:129] Top shape: 1 150 512 (76800)
I1017 12:09:34.261905 26962 net.cpp:129] Top shape: 1 150 512 (76800)
I1017 12:09:34.261909 26962 net.cpp:137] Memory required for data: 1240032000
I1017 12:09:34.261914 26962 layer_factory.hpp:77] Creating layer h_184_lstm1_unit_184_1_split
I1017 12:09:34.261921 26962 net.cpp:84] Creating Layer h_184_lstm1_unit_184_1_split
I1017 12:09:34.261926 26962 net.cpp:406] h_184_lstm1_unit_184_1_split <- h_184
I1017 12:09:34.261932 26962 net.cpp:380] h_184_lstm1_unit_184_1_split -> h_184_lstm1_unit_184_1_split_0
I1017 12:09:34.261940 26962 net.cpp:380] h_184_lstm1_unit_184_1_split -> h_184_lstm1_unit_184_1_split_1
I1017 12:09:34.261976 26962 net.cpp:122] Setting up h_184_lstm1_unit_184_1_split
I1017 12:09:34.261982 26962 net.cpp:129] Top shape: 1 150 512 (76800)
I1017 12:09:34.261987 26962 net.cpp:129] Top shape: 1 150 512 (76800)
I1017 12:09:34.261991 26962 net.cpp:137] Memory required for data: 1240646400
I1017 12:09:34.261996 26962 layer_factory.hpp:77] Creating layer lstm1_h_conted_184
I1017 12:09:34.262004 26962 net.cpp:84] Creating Layer lstm1_h_conted_184
I1017 12:09:34.262010 26962 net.cpp:406] lstm1_h_conted_184 <- h_184_lstm1_unit_184_1_split_0
I1017 12:09:34.262017 26962 net.cpp:406] lstm1_h_conted_184 <- cont_185_lstm1_cont_slice_184_split_0
I1017 12:09:34.262025 26962 net.cpp:380] lstm1_h_conted_184 -> h_conted_184
I1017 12:09:34.262130 26962 net.cpp:122] Setting up lstm1_h_conted_184
I1017 12:09:34.262140 26962 net.cpp:129] Top shape: 1 150 512 (76800)
I1017 12:09:34.262143 26962 net.cpp:137] Memory required for data: 1240953600
I1017 12:09:34.262147 26962 layer_factory.hpp:77] Creating layer lstm1_transform_185
I1017 12:09:34.262156 26962 net.cpp:84] Creating Layer lstm1_transform_185
I1017 12:09:34.262161 26962 net.cpp:406] lstm1_transform_185 <- h_conted_184
I1017 12:09:34.262168 26962 net.cpp:380] lstm1_transform_185 -> W_hc_h_184
I1017 12:09:34.274020 26962 net.cpp:122] Setting up lstm1_transform_185
I1017 12:09:34.274039 26962 net.cpp:129] Top shape: 1 150 2048 (307200)
I1017 12:09:34.274042 26962 net.cpp:137] Memory required for data: 1242182400
I1017 12:09:34.274049 26962 net.cpp:465] Sharing parameters 'W_hc' owned by layer 'lstm1_transform_1', param index 0
I1017 12:09:34.274054 26962 layer_factory.hpp:77] Creating layer lstm1_gate_input_185
I1017 12:09:34.274062 26962 net.cpp:84] Creating Layer lstm1_gate_input_185
I1017 12:09:34.274068 26962 net.cpp:406] lstm1_gate_input_185 <- W_hc_h_184
I1017 12:09:34.274077 26962 net.cpp:406] lstm1_gate_input_185 <- W_xc_x_185
I1017 12:09:34.274085 26962 net.cpp:380] lstm1_gate_input_185 -> gate_input_185
I1017 12:09:34.274121 26962 net.cpp:122] Setting up lstm1_gate_input_185
I1017 12:09:34.274128 26962 net.cpp:129] Top shape: 1 150 2048 (307200)
I1017 12:09:34.274132 26962 net.cpp:137] Memory required for data: 1243411200
I1017 12:09:34.274137 26962 layer_factory.hpp:77] Creating layer lstm1_unit_185
I1017 12:09:34.274144 26962 net.cpp:84] Creating Layer lstm1_unit_185
I1017 12:09:34.274150 26962 net.cpp:406] lstm1_unit_185 <- c_184
I1017 12:09:34.274158 26962 net.cpp:406] lstm1_unit_185 <- gate_input_185
I1017 12:09:34.274163 26962 net.cpp:406] lstm1_unit_185 <- cont_185_lstm1_cont_slice_184_split_1
I1017 12:09:34.274169 26962 net.cpp:380] lstm1_unit_185 -> c_185
I1017 12:09:34.274178 26962 net.cpp:380] lstm1_unit_185 -> h_185
I1017 12:09:34.274229 26962 net.cpp:122] Setting up lstm1_unit_185
I1017 12:09:34.274235 26962 net.cpp:129] Top shape: 1 150 512 (76800)
I1017 12:09:34.274240 26962 net.cpp:129] Top shape: 1 150 512 (76800)
I1017 12:09:34.274245 26962 net.cpp:137] Memory required for data: 1244025600
I1017 12:09:34.274248 26962 layer_factory.hpp:77] Creating layer h_185_lstm1_unit_185_1_split
I1017 12:09:34.274255 26962 net.cpp:84] Creating Layer h_185_lstm1_unit_185_1_split
I1017 12:09:34.274260 26962 net.cpp:406] h_185_lstm1_unit_185_1_split <- h_185
I1017 12:09:34.274267 26962 net.cpp:380] h_185_lstm1_unit_185_1_split -> h_185_lstm1_unit_185_1_split_0
I1017 12:09:34.274276 26962 net.cpp:380] h_185_lstm1_unit_185_1_split -> h_185_lstm1_unit_185_1_split_1
I1017 12:09:34.274310 26962 net.cpp:122] Setting up h_185_lstm1_unit_185_1_split
I1017 12:09:34.274317 26962 net.cpp:129] Top shape: 1 150 512 (76800)
I1017 12:09:34.274322 26962 net.cpp:129] Top shape: 1 150 512 (76800)
I1017 12:09:34.274325 26962 net.cpp:137] Memory required for data: 1244640000
I1017 12:09:34.274329 26962 layer_factory.hpp:77] Creating layer lstm1_h_conted_185
I1017 12:09:34.274338 26962 net.cpp:84] Creating Layer lstm1_h_conted_185
I1017 12:09:34.274344 26962 net.cpp:406] lstm1_h_conted_185 <- h_185_lstm1_unit_185_1_split_0
I1017 12:09:34.274351 26962 net.cpp:406] lstm1_h_conted_185 <- cont_186_lstm1_cont_slice_185_split_0
I1017 12:09:34.274358 26962 net.cpp:380] lstm1_h_conted_185 -> h_conted_185
I1017 12:09:34.274442 26962 net.cpp:122] Setting up lstm1_h_conted_185
I1017 12:09:34.274456 26962 net.cpp:129] Top shape: 1 150 512 (76800)
I1017 12:09:34.274461 26962 net.cpp:137] Memory required for data: 1244947200
I1017 12:09:34.274466 26962 layer_factory.hpp:77] Creating layer lstm1_transform_186
I1017 12:09:34.274473 26962 net.cpp:84] Creating Layer lstm1_transform_186
I1017 12:09:34.274482 26962 net.cpp:406] lstm1_transform_186 <- h_conted_185
I1017 12:09:34.274488 26962 net.cpp:380] lstm1_transform_186 -> W_hc_h_185
I1017 12:09:34.286211 26962 net.cpp:122] Setting up lstm1_transform_186
I1017 12:09:34.286226 26962 net.cpp:129] Top shape: 1 150 2048 (307200)
I1017 12:09:34.286231 26962 net.cpp:137] Memory required for data: 1246176000
I1017 12:09:34.286237 26962 net.cpp:465] Sharing parameters 'W_hc' owned by layer 'lstm1_transform_1', param index 0
I1017 12:09:34.286242 26962 layer_factory.hpp:77] Creating layer lstm1_gate_input_186
I1017 12:09:34.286249 26962 net.cpp:84] Creating Layer lstm1_gate_input_186
I1017 12:09:34.286255 26962 net.cpp:406] lstm1_gate_input_186 <- W_hc_h_185
I1017 12:09:34.286262 26962 net.cpp:406] lstm1_gate_input_186 <- W_xc_x_186
I1017 12:09:34.286269 26962 net.cpp:380] lstm1_gate_input_186 -> gate_input_186
I1017 12:09:34.286298 26962 net.cpp:122] Setting up lstm1_gate_input_186
I1017 12:09:34.286305 26962 net.cpp:129] Top shape: 1 150 2048 (307200)
I1017 12:09:34.286309 26962 net.cpp:137] Memory required for data: 1247404800
I1017 12:09:34.286314 26962 layer_factory.hpp:77] Creating layer lstm1_unit_186
I1017 12:09:34.286326 26962 net.cpp:84] Creating Layer lstm1_unit_186
I1017 12:09:34.286332 26962 net.cpp:406] lstm1_unit_186 <- c_185
I1017 12:09:34.286339 26962 net.cpp:406] lstm1_unit_186 <- gate_input_186
I1017 12:09:34.286345 26962 net.cpp:406] lstm1_unit_186 <- cont_186_lstm1_cont_slice_185_split_1
I1017 12:09:34.286351 26962 net.cpp:380] lstm1_unit_186 -> c_186
I1017 12:09:34.286360 26962 net.cpp:380] lstm1_unit_186 -> h_186
I1017 12:09:34.286409 26962 net.cpp:122] Setting up lstm1_unit_186
I1017 12:09:34.286417 26962 net.cpp:129] Top shape: 1 150 512 (76800)
I1017 12:09:34.286420 26962 net.cpp:129] Top shape: 1 150 512 (76800)
I1017 12:09:34.286424 26962 net.cpp:137] Memory required for data: 1248019200
I1017 12:09:34.286429 26962 layer_factory.hpp:77] Creating layer h_186_lstm1_unit_186_1_split
I1017 12:09:34.286435 26962 net.cpp:84] Creating Layer h_186_lstm1_unit_186_1_split
I1017 12:09:34.286439 26962 net.cpp:406] h_186_lstm1_unit_186_1_split <- h_186
I1017 12:09:34.286448 26962 net.cpp:380] h_186_lstm1_unit_186_1_split -> h_186_lstm1_unit_186_1_split_0
I1017 12:09:34.286456 26962 net.cpp:380] h_186_lstm1_unit_186_1_split -> h_186_lstm1_unit_186_1_split_1
I1017 12:09:34.286489 26962 net.cpp:122] Setting up h_186_lstm1_unit_186_1_split
I1017 12:09:34.286495 26962 net.cpp:129] Top shape: 1 150 512 (76800)
I1017 12:09:34.286499 26962 net.cpp:129] Top shape: 1 150 512 (76800)
I1017 12:09:34.286504 26962 net.cpp:137] Memory required for data: 1248633600
I1017 12:09:34.286507 26962 layer_factory.hpp:77] Creating layer lstm1_h_conted_186
I1017 12:09:34.286516 26962 net.cpp:84] Creating Layer lstm1_h_conted_186
I1017 12:09:34.286522 26962 net.cpp:406] lstm1_h_conted_186 <- h_186_lstm1_unit_186_1_split_0
I1017 12:09:34.286530 26962 net.cpp:406] lstm1_h_conted_186 <- cont_187_lstm1_cont_slice_186_split_0
I1017 12:09:34.286540 26962 net.cpp:380] lstm1_h_conted_186 -> h_conted_186
I1017 12:09:34.286619 26962 net.cpp:122] Setting up lstm1_h_conted_186
I1017 12:09:34.286626 26962 net.cpp:129] Top shape: 1 150 512 (76800)
I1017 12:09:34.286630 26962 net.cpp:137] Memory required for data: 1248940800
I1017 12:09:34.286635 26962 layer_factory.hpp:77] Creating layer lstm1_transform_187
I1017 12:09:34.286644 26962 net.cpp:84] Creating Layer lstm1_transform_187
I1017 12:09:34.286650 26962 net.cpp:406] lstm1_transform_187 <- h_conted_186
I1017 12:09:34.286659 26962 net.cpp:380] lstm1_transform_187 -> W_hc_h_186
I1017 12:09:34.305763 26962 net.cpp:122] Setting up lstm1_transform_187
I1017 12:09:34.305794 26962 net.cpp:129] Top shape: 1 150 2048 (307200)
I1017 12:09:34.305800 26962 net.cpp:137] Memory required for data: 1250169600
I1017 12:09:34.305809 26962 net.cpp:465] Sharing parameters 'W_hc' owned by layer 'lstm1_transform_1', param index 0
I1017 12:09:34.305815 26962 layer_factory.hpp:77] Creating layer lstm1_gate_input_187
I1017 12:09:34.305830 26962 net.cpp:84] Creating Layer lstm1_gate_input_187
I1017 12:09:34.305850 26962 net.cpp:406] lstm1_gate_input_187 <- W_hc_h_186
I1017 12:09:34.305860 26962 net.cpp:406] lstm1_gate_input_187 <- W_xc_x_187
I1017 12:09:34.305871 26962 net.cpp:380] lstm1_gate_input_187 -> gate_input_187
I1017 12:09:34.305917 26962 net.cpp:122] Setting up lstm1_gate_input_187
I1017 12:09:34.305928 26962 net.cpp:129] Top shape: 1 150 2048 (307200)
I1017 12:09:34.305933 26962 net.cpp:137] Memory required for data: 1251398400
I1017 12:09:34.305938 26962 layer_factory.hpp:77] Creating layer lstm1_unit_187
I1017 12:09:34.305946 26962 net.cpp:84] Creating Layer lstm1_unit_187
I1017 12:09:34.305954 26962 net.cpp:406] lstm1_unit_187 <- c_186
I1017 12:09:34.305966 26962 net.cpp:406] lstm1_unit_187 <- gate_input_187
I1017 12:09:34.305974 26962 net.cpp:406] lstm1_unit_187 <- cont_187_lstm1_cont_slice_186_split_1
I1017 12:09:34.305984 26962 net.cpp:380] lstm1_unit_187 -> c_187
I1017 12:09:34.305994 26962 net.cpp:380] lstm1_unit_187 -> h_187
I1017 12:09:34.306053 26962 net.cpp:122] Setting up lstm1_unit_187
I1017 12:09:34.306063 26962 net.cpp:129] Top shape: 1 150 512 (76800)
I1017 12:09:34.306069 26962 net.cpp:129] Top shape: 1 150 512 (76800)
I1017 12:09:34.306073 26962 net.cpp:137] Memory required for data: 1252012800
I1017 12:09:34.306078 26962 layer_factory.hpp:77] Creating layer h_187_lstm1_unit_187_1_split
I1017 12:09:34.306087 26962 net.cpp:84] Creating Layer h_187_lstm1_unit_187_1_split
I1017 12:09:34.306092 26962 net.cpp:406] h_187_lstm1_unit_187_1_split <- h_187
I1017 12:09:34.306099 26962 net.cpp:380] h_187_lstm1_unit_187_1_split -> h_187_lstm1_unit_187_1_split_0
I1017 12:09:34.306111 26962 net.cpp:380] h_187_lstm1_unit_187_1_split -> h_187_lstm1_unit_187_1_split_1
I1017 12:09:34.306152 26962 net.cpp:122] Setting up h_187_lstm1_unit_187_1_split
I1017 12:09:34.306160 26962 net.cpp:129] Top shape: 1 150 512 (76800)
I1017 12:09:34.306166 26962 net.cpp:129] Top shape: 1 150 512 (76800)
I1017 12:09:34.306170 26962 net.cpp:137] Memory required for data: 1252627200
I1017 12:09:34.306175 26962 layer_factory.hpp:77] Creating layer lstm1_h_conted_187
I1017 12:09:34.306187 26962 net.cpp:84] Creating Layer lstm1_h_conted_187
I1017 12:09:34.306195 26962 net.cpp:406] lstm1_h_conted_187 <- h_187_lstm1_unit_187_1_split_0
I1017 12:09:34.306203 26962 net.cpp:406] lstm1_h_conted_187 <- cont_188_lstm1_cont_slice_187_split_0
I1017 12:09:34.306213 26962 net.cpp:380] lstm1_h_conted_187 -> h_conted_187
I1017 12:09:34.306346 26962 net.cpp:122] Setting up lstm1_h_conted_187
I1017 12:09:34.306357 26962 net.cpp:129] Top shape: 1 150 512 (76800)
I1017 12:09:34.306361 26962 net.cpp:137] Memory required for data: 1252934400
I1017 12:09:34.306366 26962 layer_factory.hpp:77] Creating layer lstm1_transform_188
I1017 12:09:34.306380 26962 net.cpp:84] Creating Layer lstm1_transform_188
I1017 12:09:34.306387 26962 net.cpp:406] lstm1_transform_188 <- h_conted_187
I1017 12:09:34.306396 26962 net.cpp:380] lstm1_transform_188 -> W_hc_h_187
I1017 12:09:34.319748 26962 net.cpp:122] Setting up lstm1_transform_188
I1017 12:09:34.319772 26962 net.cpp:129] Top shape: 1 150 2048 (307200)
I1017 12:09:34.319777 26962 net.cpp:137] Memory required for data: 1254163200
I1017 12:09:34.319784 26962 net.cpp:465] Sharing parameters 'W_hc' owned by layer 'lstm1_transform_1', param index 0
I1017 12:09:34.319792 26962 layer_factory.hpp:77] Creating layer lstm1_gate_input_188
I1017 12:09:34.319804 26962 net.cpp:84] Creating Layer lstm1_gate_input_188
I1017 12:09:34.319813 26962 net.cpp:406] lstm1_gate_input_188 <- W_hc_h_187
I1017 12:09:34.319823 26962 net.cpp:406] lstm1_gate_input_188 <- W_xc_x_188
I1017 12:09:34.319833 26962 net.cpp:380] lstm1_gate_input_188 -> gate_input_188
I1017 12:09:34.319877 26962 net.cpp:122] Setting up lstm1_gate_input_188
I1017 12:09:34.319887 26962 net.cpp:129] Top shape: 1 150 2048 (307200)
I1017 12:09:34.319892 26962 net.cpp:137] Memory required for data: 1255392000
I1017 12:09:34.319896 26962 layer_factory.hpp:77] Creating layer lstm1_unit_188
I1017 12:09:34.319905 26962 net.cpp:84] Creating Layer lstm1_unit_188
I1017 12:09:34.319914 26962 net.cpp:406] lstm1_unit_188 <- c_187
I1017 12:09:34.319923 26962 net.cpp:406] lstm1_unit_188 <- gate_input_188
I1017 12:09:34.319931 26962 net.cpp:406] lstm1_unit_188 <- cont_188_lstm1_cont_slice_187_split_1
I1017 12:09:34.319943 26962 net.cpp:380] lstm1_unit_188 -> c_188
I1017 12:09:34.319957 26962 net.cpp:380] lstm1_unit_188 -> h_188
I1017 12:09:34.320016 26962 net.cpp:122] Setting up lstm1_unit_188
I1017 12:09:34.320031 26962 net.cpp:129] Top shape: 1 150 512 (76800)
I1017 12:09:34.320037 26962 net.cpp:129] Top shape: 1 150 512 (76800)
I1017 12:09:34.320042 26962 net.cpp:137] Memory required for data: 1256006400
I1017 12:09:34.320047 26962 layer_factory.hpp:77] Creating layer h_188_lstm1_unit_188_1_split
I1017 12:09:34.320055 26962 net.cpp:84] Creating Layer h_188_lstm1_unit_188_1_split
I1017 12:09:34.320062 26962 net.cpp:406] h_188_lstm1_unit_188_1_split <- h_188
I1017 12:09:34.320070 26962 net.cpp:380] h_188_lstm1_unit_188_1_split -> h_188_lstm1_unit_188_1_split_0
I1017 12:09:34.320080 26962 net.cpp:380] h_188_lstm1_unit_188_1_split -> h_188_lstm1_unit_188_1_split_1
I1017 12:09:34.320125 26962 net.cpp:122] Setting up h_188_lstm1_unit_188_1_split
I1017 12:09:34.320135 26962 net.cpp:129] Top shape: 1 150 512 (76800)
I1017 12:09:34.320140 26962 net.cpp:129] Top shape: 1 150 512 (76800)
I1017 12:09:34.320145 26962 net.cpp:137] Memory required for data: 1256620800
I1017 12:09:34.320149 26962 layer_factory.hpp:77] Creating layer lstm1_h_conted_188
I1017 12:09:34.320159 26962 net.cpp:84] Creating Layer lstm1_h_conted_188
I1017 12:09:34.320168 26962 net.cpp:406] lstm1_h_conted_188 <- h_188_lstm1_unit_188_1_split_0
I1017 12:09:34.320175 26962 net.cpp:406] lstm1_h_conted_188 <- cont_189_lstm1_cont_slice_188_split_0
I1017 12:09:34.320188 26962 net.cpp:380] lstm1_h_conted_188 -> h_conted_188
I1017 12:09:34.320312 26962 net.cpp:122] Setting up lstm1_h_conted_188
I1017 12:09:34.320322 26962 net.cpp:129] Top shape: 1 150 512 (76800)
I1017 12:09:34.320325 26962 net.cpp:137] Memory required for data: 1256928000
I1017 12:09:34.320330 26962 layer_factory.hpp:77] Creating layer lstm1_transform_189
I1017 12:09:34.320339 26962 net.cpp:84] Creating Layer lstm1_transform_189
I1017 12:09:34.320348 26962 net.cpp:406] lstm1_transform_189 <- h_conted_188
I1017 12:09:34.320358 26962 net.cpp:380] lstm1_transform_189 -> W_hc_h_188
I1017 12:09:34.333524 26962 net.cpp:122] Setting up lstm1_transform_189
I1017 12:09:34.333546 26962 net.cpp:129] Top shape: 1 150 2048 (307200)
I1017 12:09:34.333551 26962 net.cpp:137] Memory required for data: 1258156800
I1017 12:09:34.333559 26962 net.cpp:465] Sharing parameters 'W_hc' owned by layer 'lstm1_transform_1', param index 0
I1017 12:09:34.333565 26962 layer_factory.hpp:77] Creating layer lstm1_gate_input_189
I1017 12:09:34.333575 26962 net.cpp:84] Creating Layer lstm1_gate_input_189
I1017 12:09:34.333582 26962 net.cpp:406] lstm1_gate_input_189 <- W_hc_h_188
I1017 12:09:34.333590 26962 net.cpp:406] lstm1_gate_input_189 <- W_xc_x_189
I1017 12:09:34.333602 26962 net.cpp:380] lstm1_gate_input_189 -> gate_input_189
I1017 12:09:34.333638 26962 net.cpp:122] Setting up lstm1_gate_input_189
I1017 12:09:34.333648 26962 net.cpp:129] Top shape: 1 150 2048 (307200)
I1017 12:09:34.333652 26962 net.cpp:137] Memory required for data: 1259385600
I1017 12:09:34.333657 26962 layer_factory.hpp:77] Creating layer lstm1_unit_189
I1017 12:09:34.333665 26962 net.cpp:84] Creating Layer lstm1_unit_189
I1017 12:09:34.333673 26962 net.cpp:406] lstm1_unit_189 <- c_188
I1017 12:09:34.333679 26962 net.cpp:406] lstm1_unit_189 <- gate_input_189
I1017 12:09:34.333686 26962 net.cpp:406] lstm1_unit_189 <- cont_189_lstm1_cont_slice_188_split_1
I1017 12:09:34.333693 26962 net.cpp:380] lstm1_unit_189 -> c_189
I1017 12:09:34.333703 26962 net.cpp:380] lstm1_unit_189 -> h_189
I1017 12:09:34.333760 26962 net.cpp:122] Setting up lstm1_unit_189
I1017 12:09:34.333771 26962 net.cpp:129] Top shape: 1 150 512 (76800)
I1017 12:09:34.333777 26962 net.cpp:129] Top shape: 1 150 512 (76800)
I1017 12:09:34.333781 26962 net.cpp:137] Memory required for data: 1260000000
I1017 12:09:34.333786 26962 layer_factory.hpp:77] Creating layer h_189_lstm1_unit_189_1_split
I1017 12:09:34.333793 26962 net.cpp:84] Creating Layer h_189_lstm1_unit_189_1_split
I1017 12:09:34.333798 26962 net.cpp:406] h_189_lstm1_unit_189_1_split <- h_189
I1017 12:09:34.333806 26962 net.cpp:380] h_189_lstm1_unit_189_1_split -> h_189_lstm1_unit_189_1_split_0
I1017 12:09:34.333814 26962 net.cpp:380] h_189_lstm1_unit_189_1_split -> h_189_lstm1_unit_189_1_split_1
I1017 12:09:34.333855 26962 net.cpp:122] Setting up h_189_lstm1_unit_189_1_split
I1017 12:09:34.333864 26962 net.cpp:129] Top shape: 1 150 512 (76800)
I1017 12:09:34.333869 26962 net.cpp:129] Top shape: 1 150 512 (76800)
I1017 12:09:34.333873 26962 net.cpp:137] Memory required for data: 1260614400
I1017 12:09:34.333878 26962 layer_factory.hpp:77] Creating layer lstm1_h_conted_189
I1017 12:09:34.333887 26962 net.cpp:84] Creating Layer lstm1_h_conted_189
I1017 12:09:34.333892 26962 net.cpp:406] lstm1_h_conted_189 <- h_189_lstm1_unit_189_1_split_0
I1017 12:09:34.333900 26962 net.cpp:406] lstm1_h_conted_189 <- cont_190_lstm1_cont_slice_189_split_0
I1017 12:09:34.333909 26962 net.cpp:380] lstm1_h_conted_189 -> h_conted_189
I1017 12:09:34.334008 26962 net.cpp:122] Setting up lstm1_h_conted_189
I1017 12:09:34.334018 26962 net.cpp:129] Top shape: 1 150 512 (76800)
I1017 12:09:34.334023 26962 net.cpp:137] Memory required for data: 1260921600
I1017 12:09:34.334028 26962 layer_factory.hpp:77] Creating layer lstm1_transform_190
I1017 12:09:34.334036 26962 net.cpp:84] Creating Layer lstm1_transform_190
I1017 12:09:34.334043 26962 net.cpp:406] lstm1_transform_190 <- h_conted_189
I1017 12:09:34.334054 26962 net.cpp:380] lstm1_transform_190 -> W_hc_h_189
I1017 12:09:34.347231 26962 net.cpp:122] Setting up lstm1_transform_190
I1017 12:09:34.347250 26962 net.cpp:129] Top shape: 1 150 2048 (307200)
I1017 12:09:34.347255 26962 net.cpp:137] Memory required for data: 1262150400
I1017 12:09:34.347262 26962 net.cpp:465] Sharing parameters 'W_hc' owned by layer 'lstm1_transform_1', param index 0
I1017 12:09:34.347267 26962 layer_factory.hpp:77] Creating layer lstm1_gate_input_190
I1017 12:09:34.347276 26962 net.cpp:84] Creating Layer lstm1_gate_input_190
I1017 12:09:34.347283 26962 net.cpp:406] lstm1_gate_input_190 <- W_hc_h_189
I1017 12:09:34.347291 26962 net.cpp:406] lstm1_gate_input_190 <- W_xc_x_190
I1017 12:09:34.347299 26962 net.cpp:380] lstm1_gate_input_190 -> gate_input_190
I1017 12:09:34.347337 26962 net.cpp:122] Setting up lstm1_gate_input_190
I1017 12:09:34.347347 26962 net.cpp:129] Top shape: 1 150 2048 (307200)
I1017 12:09:34.347352 26962 net.cpp:137] Memory required for data: 1263379200
I1017 12:09:34.347355 26962 layer_factory.hpp:77] Creating layer lstm1_unit_190
I1017 12:09:34.347365 26962 net.cpp:84] Creating Layer lstm1_unit_190
I1017 12:09:34.347371 26962 net.cpp:406] lstm1_unit_190 <- c_189
I1017 12:09:34.347379 26962 net.cpp:406] lstm1_unit_190 <- gate_input_190
I1017 12:09:34.347385 26962 net.cpp:406] lstm1_unit_190 <- cont_190_lstm1_cont_slice_189_split_1
I1017 12:09:34.347393 26962 net.cpp:380] lstm1_unit_190 -> c_190
I1017 12:09:34.347403 26962 net.cpp:380] lstm1_unit_190 -> h_190
I1017 12:09:34.347460 26962 net.cpp:122] Setting up lstm1_unit_190
I1017 12:09:34.347474 26962 net.cpp:129] Top shape: 1 150 512 (76800)
I1017 12:09:34.347481 26962 net.cpp:129] Top shape: 1 150 512 (76800)
I1017 12:09:34.347484 26962 net.cpp:137] Memory required for data: 1263993600
I1017 12:09:34.347489 26962 layer_factory.hpp:77] Creating layer h_190_lstm1_unit_190_1_split
I1017 12:09:34.347503 26962 net.cpp:84] Creating Layer h_190_lstm1_unit_190_1_split
I1017 12:09:34.347512 26962 net.cpp:406] h_190_lstm1_unit_190_1_split <- h_190
I1017 12:09:34.347520 26962 net.cpp:380] h_190_lstm1_unit_190_1_split -> h_190_lstm1_unit_190_1_split_0
I1017 12:09:34.347529 26962 net.cpp:380] h_190_lstm1_unit_190_1_split -> h_190_lstm1_unit_190_1_split_1
I1017 12:09:34.347570 26962 net.cpp:122] Setting up h_190_lstm1_unit_190_1_split
I1017 12:09:34.347579 26962 net.cpp:129] Top shape: 1 150 512 (76800)
I1017 12:09:34.347585 26962 net.cpp:129] Top shape: 1 150 512 (76800)
I1017 12:09:34.347589 26962 net.cpp:137] Memory required for data: 1264608000
I1017 12:09:34.347594 26962 layer_factory.hpp:77] Creating layer lstm1_h_conted_190
I1017 12:09:34.347604 26962 net.cpp:84] Creating Layer lstm1_h_conted_190
I1017 12:09:34.347610 26962 net.cpp:406] lstm1_h_conted_190 <- h_190_lstm1_unit_190_1_split_0
I1017 12:09:34.347618 26962 net.cpp:406] lstm1_h_conted_190 <- cont_191_lstm1_cont_slice_190_split_0
I1017 12:09:34.347626 26962 net.cpp:380] lstm1_h_conted_190 -> h_conted_190
I1017 12:09:34.347719 26962 net.cpp:122] Setting up lstm1_h_conted_190
I1017 12:09:34.347730 26962 net.cpp:129] Top shape: 1 150 512 (76800)
I1017 12:09:34.347734 26962 net.cpp:137] Memory required for data: 1264915200
I1017 12:09:34.347739 26962 layer_factory.hpp:77] Creating layer lstm1_transform_191
I1017 12:09:34.347748 26962 net.cpp:84] Creating Layer lstm1_transform_191
I1017 12:09:34.347754 26962 net.cpp:406] lstm1_transform_191 <- h_conted_190
I1017 12:09:34.347762 26962 net.cpp:380] lstm1_transform_191 -> W_hc_h_190
I1017 12:09:34.360869 26962 net.cpp:122] Setting up lstm1_transform_191
I1017 12:09:34.360887 26962 net.cpp:129] Top shape: 1 150 2048 (307200)
I1017 12:09:34.360893 26962 net.cpp:137] Memory required for data: 1266144000
I1017 12:09:34.360898 26962 net.cpp:465] Sharing parameters 'W_hc' owned by layer 'lstm1_transform_1', param index 0
I1017 12:09:34.360903 26962 layer_factory.hpp:77] Creating layer lstm1_gate_input_191
I1017 12:09:34.360911 26962 net.cpp:84] Creating Layer lstm1_gate_input_191
I1017 12:09:34.360918 26962 net.cpp:406] lstm1_gate_input_191 <- W_hc_h_190
I1017 12:09:34.360926 26962 net.cpp:406] lstm1_gate_input_191 <- W_xc_x_191
I1017 12:09:34.360934 26962 net.cpp:380] lstm1_gate_input_191 -> gate_input_191
I1017 12:09:34.360970 26962 net.cpp:122] Setting up lstm1_gate_input_191
I1017 12:09:34.360980 26962 net.cpp:129] Top shape: 1 150 2048 (307200)
I1017 12:09:34.360985 26962 net.cpp:137] Memory required for data: 1267372800
I1017 12:09:34.360988 26962 layer_factory.hpp:77] Creating layer lstm1_unit_191
I1017 12:09:34.360996 26962 net.cpp:84] Creating Layer lstm1_unit_191
I1017 12:09:34.361003 26962 net.cpp:406] lstm1_unit_191 <- c_190
I1017 12:09:34.361011 26962 net.cpp:406] lstm1_unit_191 <- gate_input_191
I1017 12:09:34.361016 26962 net.cpp:406] lstm1_unit_191 <- cont_191_lstm1_cont_slice_190_split_1
I1017 12:09:34.361023 26962 net.cpp:380] lstm1_unit_191 -> c_191
I1017 12:09:34.361033 26962 net.cpp:380] lstm1_unit_191 -> h_191
I1017 12:09:34.361090 26962 net.cpp:122] Setting up lstm1_unit_191
I1017 12:09:34.361099 26962 net.cpp:129] Top shape: 1 150 512 (76800)
I1017 12:09:34.361104 26962 net.cpp:129] Top shape: 1 150 512 (76800)
I1017 12:09:34.361109 26962 net.cpp:137] Memory required for data: 1267987200
I1017 12:09:34.361114 26962 layer_factory.hpp:77] Creating layer h_191_lstm1_unit_191_1_split
I1017 12:09:34.361122 26962 net.cpp:84] Creating Layer h_191_lstm1_unit_191_1_split
I1017 12:09:34.361127 26962 net.cpp:406] h_191_lstm1_unit_191_1_split <- h_191
I1017 12:09:34.361135 26962 net.cpp:380] h_191_lstm1_unit_191_1_split -> h_191_lstm1_unit_191_1_split_0
I1017 12:09:34.361145 26962 net.cpp:380] h_191_lstm1_unit_191_1_split -> h_191_lstm1_unit_191_1_split_1
I1017 12:09:34.361186 26962 net.cpp:122] Setting up h_191_lstm1_unit_191_1_split
I1017 12:09:34.361196 26962 net.cpp:129] Top shape: 1 150 512 (76800)
I1017 12:09:34.361202 26962 net.cpp:129] Top shape: 1 150 512 (76800)
I1017 12:09:34.361205 26962 net.cpp:137] Memory required for data: 1268601600
I1017 12:09:34.361210 26962 layer_factory.hpp:77] Creating layer lstm1_h_conted_191
I1017 12:09:34.361220 26962 net.cpp:84] Creating Layer lstm1_h_conted_191
I1017 12:09:34.361227 26962 net.cpp:406] lstm1_h_conted_191 <- h_191_lstm1_unit_191_1_split_0
I1017 12:09:34.361234 26962 net.cpp:406] lstm1_h_conted_191 <- cont_192_lstm1_cont_slice_191_split_0
I1017 12:09:34.361243 26962 net.cpp:380] lstm1_h_conted_191 -> h_conted_191
I1017 12:09:34.361330 26962 net.cpp:122] Setting up lstm1_h_conted_191
I1017 12:09:34.361340 26962 net.cpp:129] Top shape: 1 150 512 (76800)
I1017 12:09:34.361343 26962 net.cpp:137] Memory required for data: 1268908800
I1017 12:09:34.361348 26962 layer_factory.hpp:77] Creating layer lstm1_transform_192
I1017 12:09:34.361358 26962 net.cpp:84] Creating Layer lstm1_transform_192
I1017 12:09:34.361366 26962 net.cpp:406] lstm1_transform_192 <- h_conted_191
I1017 12:09:34.361373 26962 net.cpp:380] lstm1_transform_192 -> W_hc_h_191
I1017 12:09:34.374536 26962 net.cpp:122] Setting up lstm1_transform_192
I1017 12:09:34.374564 26962 net.cpp:129] Top shape: 1 150 2048 (307200)
I1017 12:09:34.374569 26962 net.cpp:137] Memory required for data: 1270137600
I1017 12:09:34.374578 26962 net.cpp:465] Sharing parameters 'W_hc' owned by layer 'lstm1_transform_1', param index 0
I1017 12:09:34.374585 26962 layer_factory.hpp:77] Creating layer lstm1_gate_input_192
I1017 12:09:34.374598 26962 net.cpp:84] Creating Layer lstm1_gate_input_192
I1017 12:09:34.374608 26962 net.cpp:406] lstm1_gate_input_192 <- W_hc_h_191
I1017 12:09:34.374616 26962 net.cpp:406] lstm1_gate_input_192 <- W_xc_x_192
I1017 12:09:34.374626 26962 net.cpp:380] lstm1_gate_input_192 -> gate_input_192
I1017 12:09:34.374670 26962 net.cpp:122] Setting up lstm1_gate_input_192
I1017 12:09:34.374680 26962 net.cpp:129] Top shape: 1 150 2048 (307200)
I1017 12:09:34.374686 26962 net.cpp:137] Memory required for data: 1271366400
I1017 12:09:34.374689 26962 layer_factory.hpp:77] Creating layer lstm1_unit_192
I1017 12:09:34.374701 26962 net.cpp:84] Creating Layer lstm1_unit_192
I1017 12:09:34.374709 26962 net.cpp:406] lstm1_unit_192 <- c_191
I1017 12:09:34.374716 26962 net.cpp:406] lstm1_unit_192 <- gate_input_192
I1017 12:09:34.374723 26962 net.cpp:406] lstm1_unit_192 <- cont_192_lstm1_cont_slice_191_split_1
I1017 12:09:34.374732 26962 net.cpp:380] lstm1_unit_192 -> c_192
I1017 12:09:34.374742 26962 net.cpp:380] lstm1_unit_192 -> h_192
I1017 12:09:34.374802 26962 net.cpp:122] Setting up lstm1_unit_192
I1017 12:09:34.374811 26962 net.cpp:129] Top shape: 1 150 512 (76800)
I1017 12:09:34.374817 26962 net.cpp:129] Top shape: 1 150 512 (76800)
I1017 12:09:34.374821 26962 net.cpp:137] Memory required for data: 1271980800
I1017 12:09:34.374826 26962 layer_factory.hpp:77] Creating layer h_192_lstm1_unit_192_1_split
I1017 12:09:34.374833 26962 net.cpp:84] Creating Layer h_192_lstm1_unit_192_1_split
I1017 12:09:34.374840 26962 net.cpp:406] h_192_lstm1_unit_192_1_split <- h_192
I1017 12:09:34.374848 26962 net.cpp:380] h_192_lstm1_unit_192_1_split -> h_192_lstm1_unit_192_1_split_0
I1017 12:09:34.374857 26962 net.cpp:380] h_192_lstm1_unit_192_1_split -> h_192_lstm1_unit_192_1_split_1
I1017 12:09:34.374897 26962 net.cpp:122] Setting up h_192_lstm1_unit_192_1_split
I1017 12:09:34.374905 26962 net.cpp:129] Top shape: 1 150 512 (76800)
I1017 12:09:34.374912 26962 net.cpp:129] Top shape: 1 150 512 (76800)
I1017 12:09:34.374915 26962 net.cpp:137] Memory required for data: 1272595200
I1017 12:09:34.374920 26962 layer_factory.hpp:77] Creating layer lstm1_h_conted_192
I1017 12:09:34.374930 26962 net.cpp:84] Creating Layer lstm1_h_conted_192
I1017 12:09:34.374936 26962 net.cpp:406] lstm1_h_conted_192 <- h_192_lstm1_unit_192_1_split_0
I1017 12:09:34.374944 26962 net.cpp:406] lstm1_h_conted_192 <- cont_193_lstm1_cont_slice_192_split_0
I1017 12:09:34.374956 26962 net.cpp:380] lstm1_h_conted_192 -> h_conted_192
I1017 12:09:34.375098 26962 net.cpp:122] Setting up lstm1_h_conted_192
I1017 12:09:34.375109 26962 net.cpp:129] Top shape: 1 150 512 (76800)
I1017 12:09:34.375113 26962 net.cpp:137] Memory required for data: 1272902400
I1017 12:09:34.375118 26962 layer_factory.hpp:77] Creating layer lstm1_transform_193
I1017 12:09:34.375130 26962 net.cpp:84] Creating Layer lstm1_transform_193
I1017 12:09:34.375136 26962 net.cpp:406] lstm1_transform_193 <- h_conted_192
I1017 12:09:34.375147 26962 net.cpp:380] lstm1_transform_193 -> W_hc_h_192
I1017 12:09:34.390053 26962 net.cpp:122] Setting up lstm1_transform_193
I1017 12:09:34.390213 26962 net.cpp:129] Top shape: 1 150 2048 (307200)
I1017 12:09:34.390239 26962 net.cpp:137] Memory required for data: 1274131200
I1017 12:09:34.390280 26962 net.cpp:465] Sharing parameters 'W_hc' owned by layer 'lstm1_transform_1', param index 0
I1017 12:09:34.390301 26962 layer_factory.hpp:77] Creating layer lstm1_gate_input_193
I1017 12:09:34.390394 26962 net.cpp:84] Creating Layer lstm1_gate_input_193
I1017 12:09:34.390435 26962 net.cpp:406] lstm1_gate_input_193 <- W_hc_h_192
I1017 12:09:34.390482 26962 net.cpp:406] lstm1_gate_input_193 <- W_xc_x_193
I1017 12:09:34.390530 26962 net.cpp:380] lstm1_gate_input_193 -> gate_input_193
I1017 12:09:34.390764 26962 net.cpp:122] Setting up lstm1_gate_input_193
I1017 12:09:34.390851 26962 net.cpp:129] Top shape: 1 150 2048 (307200)
I1017 12:09:34.390898 26962 net.cpp:137] Memory required for data: 1275360000
I1017 12:09:34.390903 26962 layer_factory.hpp:77] Creating layer lstm1_unit_193
I1017 12:09:34.390914 26962 net.cpp:84] Creating Layer lstm1_unit_193
I1017 12:09:34.390923 26962 net.cpp:406] lstm1_unit_193 <- c_192
I1017 12:09:34.390929 26962 net.cpp:406] lstm1_unit_193 <- gate_input_193
I1017 12:09:34.390938 26962 net.cpp:406] lstm1_unit_193 <- cont_193_lstm1_cont_slice_192_split_1
I1017 12:09:34.390944 26962 net.cpp:380] lstm1_unit_193 -> c_193
I1017 12:09:34.390955 26962 net.cpp:380] lstm1_unit_193 -> h_193
I1017 12:09:34.391016 26962 net.cpp:122] Setting up lstm1_unit_193
I1017 12:09:34.391026 26962 net.cpp:129] Top shape: 1 150 512 (76800)
I1017 12:09:34.391031 26962 net.cpp:129] Top shape: 1 150 512 (76800)
I1017 12:09:34.391036 26962 net.cpp:137] Memory required for data: 1275974400
I1017 12:09:34.391041 26962 layer_factory.hpp:77] Creating layer h_193_lstm1_unit_193_1_split
I1017 12:09:34.391047 26962 net.cpp:84] Creating Layer h_193_lstm1_unit_193_1_split
I1017 12:09:34.391053 26962 net.cpp:406] h_193_lstm1_unit_193_1_split <- h_193
I1017 12:09:34.391062 26962 net.cpp:380] h_193_lstm1_unit_193_1_split -> h_193_lstm1_unit_193_1_split_0
I1017 12:09:34.391072 26962 net.cpp:380] h_193_lstm1_unit_193_1_split -> h_193_lstm1_unit_193_1_split_1
I1017 12:09:34.391113 26962 net.cpp:122] Setting up h_193_lstm1_unit_193_1_split
I1017 12:09:34.391121 26962 net.cpp:129] Top shape: 1 150 512 (76800)
I1017 12:09:34.391139 26962 net.cpp:129] Top shape: 1 150 512 (76800)
I1017 12:09:34.391149 26962 net.cpp:137] Memory required for data: 1276588800
I1017 12:09:34.391162 26962 layer_factory.hpp:77] Creating layer lstm1_h_conted_193
I1017 12:09:34.391222 26962 net.cpp:84] Creating Layer lstm1_h_conted_193
I1017 12:09:34.391260 26962 net.cpp:406] lstm1_h_conted_193 <- h_193_lstm1_unit_193_1_split_0
I1017 12:09:34.391295 26962 net.cpp:406] lstm1_h_conted_193 <- cont_194_lstm1_cont_slice_193_split_0
I1017 12:09:34.391351 26962 net.cpp:380] lstm1_h_conted_193 -> h_conted_193
I1017 12:09:34.391983 26962 net.cpp:122] Setting up lstm1_h_conted_193
I1017 12:09:34.392040 26962 net.cpp:129] Top shape: 1 150 512 (76800)
I1017 12:09:34.392050 26962 net.cpp:137] Memory required for data: 1276896000
I1017 12:09:34.392071 26962 layer_factory.hpp:77] Creating layer lstm1_transform_194
I1017 12:09:34.392114 26962 net.cpp:84] Creating Layer lstm1_transform_194
I1017 12:09:34.392158 26962 net.cpp:406] lstm1_transform_194 <- h_conted_193
I1017 12:09:34.392189 26962 net.cpp:380] lstm1_transform_194 -> W_hc_h_193
I1017 12:09:34.411548 26962 net.cpp:122] Setting up lstm1_transform_194
I1017 12:09:34.411566 26962 net.cpp:129] Top shape: 1 150 2048 (307200)
I1017 12:09:34.411571 26962 net.cpp:137] Memory required for data: 1278124800
I1017 12:09:34.411577 26962 net.cpp:465] Sharing parameters 'W_hc' owned by layer 'lstm1_transform_1', param index 0
I1017 12:09:34.411583 26962 layer_factory.hpp:77] Creating layer lstm1_gate_input_194
I1017 12:09:34.411594 26962 net.cpp:84] Creating Layer lstm1_gate_input_194
I1017 12:09:34.411602 26962 net.cpp:406] lstm1_gate_input_194 <- W_hc_h_193
I1017 12:09:34.411609 26962 net.cpp:406] lstm1_gate_input_194 <- W_xc_x_194
I1017 12:09:34.411617 26962 net.cpp:380] lstm1_gate_input_194 -> gate_input_194
I1017 12:09:34.411651 26962 net.cpp:122] Setting up lstm1_gate_input_194
I1017 12:09:34.411662 26962 net.cpp:129] Top shape: 1 150 2048 (307200)
I1017 12:09:34.411667 26962 net.cpp:137] Memory required for data: 1279353600
I1017 12:09:34.411671 26962 layer_factory.hpp:77] Creating layer lstm1_unit_194
I1017 12:09:34.411682 26962 net.cpp:84] Creating Layer lstm1_unit_194
I1017 12:09:34.411689 26962 net.cpp:406] lstm1_unit_194 <- c_193
I1017 12:09:34.411696 26962 net.cpp:406] lstm1_unit_194 <- gate_input_194
I1017 12:09:34.411702 26962 net.cpp:406] lstm1_unit_194 <- cont_194_lstm1_cont_slice_193_split_1
I1017 12:09:34.411712 26962 net.cpp:380] lstm1_unit_194 -> c_194
I1017 12:09:34.411721 26962 net.cpp:380] lstm1_unit_194 -> h_194
I1017 12:09:34.411783 26962 net.cpp:122] Setting up lstm1_unit_194
I1017 12:09:34.411800 26962 net.cpp:129] Top shape: 1 150 512 (76800)
I1017 12:09:34.411806 26962 net.cpp:129] Top shape: 1 150 512 (76800)
I1017 12:09:34.411810 26962 net.cpp:137] Memory required for data: 1279968000
I1017 12:09:34.411815 26962 layer_factory.hpp:77] Creating layer h_194_lstm1_unit_194_1_split
I1017 12:09:34.411823 26962 net.cpp:84] Creating Layer h_194_lstm1_unit_194_1_split
I1017 12:09:34.411828 26962 net.cpp:406] h_194_lstm1_unit_194_1_split <- h_194
I1017 12:09:34.411836 26962 net.cpp:380] h_194_lstm1_unit_194_1_split -> h_194_lstm1_unit_194_1_split_0
I1017 12:09:34.411844 26962 net.cpp:380] h_194_lstm1_unit_194_1_split -> h_194_lstm1_unit_194_1_split_1
I1017 12:09:34.411885 26962 net.cpp:122] Setting up h_194_lstm1_unit_194_1_split
I1017 12:09:34.411895 26962 net.cpp:129] Top shape: 1 150 512 (76800)
I1017 12:09:34.411900 26962 net.cpp:129] Top shape: 1 150 512 (76800)
I1017 12:09:34.411905 26962 net.cpp:137] Memory required for data: 1280582400
I1017 12:09:34.411909 26962 layer_factory.hpp:77] Creating layer lstm1_h_conted_194
I1017 12:09:34.411916 26962 net.cpp:84] Creating Layer lstm1_h_conted_194
I1017 12:09:34.411922 26962 net.cpp:406] lstm1_h_conted_194 <- h_194_lstm1_unit_194_1_split_0
I1017 12:09:34.411931 26962 net.cpp:406] lstm1_h_conted_194 <- cont_195_lstm1_cont_slice_194_split_0
I1017 12:09:34.411945 26962 net.cpp:380] lstm1_h_conted_194 -> h_conted_194
I1017 12:09:34.412050 26962 net.cpp:122] Setting up lstm1_h_conted_194
I1017 12:09:34.412062 26962 net.cpp:129] Top shape: 1 150 512 (76800)
I1017 12:09:34.412066 26962 net.cpp:137] Memory required for data: 1280889600
I1017 12:09:34.412071 26962 layer_factory.hpp:77] Creating layer lstm1_transform_195
I1017 12:09:34.412081 26962 net.cpp:84] Creating Layer lstm1_transform_195
I1017 12:09:34.412087 26962 net.cpp:406] lstm1_transform_195 <- h_conted_194
I1017 12:09:34.412097 26962 net.cpp:380] lstm1_transform_195 -> W_hc_h_194
I1017 12:09:34.425317 26962 net.cpp:122] Setting up lstm1_transform_195
I1017 12:09:34.425345 26962 net.cpp:129] Top shape: 1 150 2048 (307200)
I1017 12:09:34.425350 26962 net.cpp:137] Memory required for data: 1282118400
I1017 12:09:34.425359 26962 net.cpp:465] Sharing parameters 'W_hc' owned by layer 'lstm1_transform_1', param index 0
I1017 12:09:34.425365 26962 layer_factory.hpp:77] Creating layer lstm1_gate_input_195
I1017 12:09:34.425376 26962 net.cpp:84] Creating Layer lstm1_gate_input_195
I1017 12:09:34.425385 26962 net.cpp:406] lstm1_gate_input_195 <- W_hc_h_194
I1017 12:09:34.425395 26962 net.cpp:406] lstm1_gate_input_195 <- W_xc_x_195
I1017 12:09:34.425407 26962 net.cpp:380] lstm1_gate_input_195 -> gate_input_195
I1017 12:09:34.425451 26962 net.cpp:122] Setting up lstm1_gate_input_195
I1017 12:09:34.425462 26962 net.cpp:129] Top shape: 1 150 2048 (307200)
I1017 12:09:34.425465 26962 net.cpp:137] Memory required for data: 1283347200
I1017 12:09:34.425470 26962 layer_factory.hpp:77] Creating layer lstm1_unit_195
I1017 12:09:34.425478 26962 net.cpp:84] Creating Layer lstm1_unit_195
I1017 12:09:34.425485 26962 net.cpp:406] lstm1_unit_195 <- c_194
I1017 12:09:34.425493 26962 net.cpp:406] lstm1_unit_195 <- gate_input_195
I1017 12:09:34.425499 26962 net.cpp:406] lstm1_unit_195 <- cont_195_lstm1_cont_slice_194_split_1
I1017 12:09:34.425506 26962 net.cpp:380] lstm1_unit_195 -> c_195
I1017 12:09:34.425519 26962 net.cpp:380] lstm1_unit_195 -> h_195
I1017 12:09:34.425583 26962 net.cpp:122] Setting up lstm1_unit_195
I1017 12:09:34.425593 26962 net.cpp:129] Top shape: 1 150 512 (76800)
I1017 12:09:34.425598 26962 net.cpp:129] Top shape: 1 150 512 (76800)
I1017 12:09:34.425603 26962 net.cpp:137] Memory required for data: 1283961600
I1017 12:09:34.425607 26962 layer_factory.hpp:77] Creating layer h_195_lstm1_unit_195_1_split
I1017 12:09:34.425616 26962 net.cpp:84] Creating Layer h_195_lstm1_unit_195_1_split
I1017 12:09:34.425621 26962 net.cpp:406] h_195_lstm1_unit_195_1_split <- h_195
I1017 12:09:34.425628 26962 net.cpp:380] h_195_lstm1_unit_195_1_split -> h_195_lstm1_unit_195_1_split_0
I1017 12:09:34.425637 26962 net.cpp:380] h_195_lstm1_unit_195_1_split -> h_195_lstm1_unit_195_1_split_1
I1017 12:09:34.425680 26962 net.cpp:122] Setting up h_195_lstm1_unit_195_1_split
I1017 12:09:34.425689 26962 net.cpp:129] Top shape: 1 150 512 (76800)
I1017 12:09:34.425694 26962 net.cpp:129] Top shape: 1 150 512 (76800)
I1017 12:09:34.425699 26962 net.cpp:137] Memory required for data: 1284576000
I1017 12:09:34.425704 26962 layer_factory.hpp:77] Creating layer lstm1_h_conted_195
I1017 12:09:34.425712 26962 net.cpp:84] Creating Layer lstm1_h_conted_195
I1017 12:09:34.425719 26962 net.cpp:406] lstm1_h_conted_195 <- h_195_lstm1_unit_195_1_split_0
I1017 12:09:34.425727 26962 net.cpp:406] lstm1_h_conted_195 <- cont_196_lstm1_cont_slice_195_split_0
I1017 12:09:34.425739 26962 net.cpp:380] lstm1_h_conted_195 -> h_conted_195
I1017 12:09:34.425861 26962 net.cpp:122] Setting up lstm1_h_conted_195
I1017 12:09:34.425873 26962 net.cpp:129] Top shape: 1 150 512 (76800)
I1017 12:09:34.425876 26962 net.cpp:137] Memory required for data: 1284883200
I1017 12:09:34.425881 26962 layer_factory.hpp:77] Creating layer lstm1_transform_196
I1017 12:09:34.425891 26962 net.cpp:84] Creating Layer lstm1_transform_196
I1017 12:09:34.425897 26962 net.cpp:406] lstm1_transform_196 <- h_conted_195
I1017 12:09:34.425909 26962 net.cpp:380] lstm1_transform_196 -> W_hc_h_195
I1017 12:09:34.439035 26962 net.cpp:122] Setting up lstm1_transform_196
I1017 12:09:34.439052 26962 net.cpp:129] Top shape: 1 150 2048 (307200)
I1017 12:09:34.439059 26962 net.cpp:137] Memory required for data: 1286112000
I1017 12:09:34.439064 26962 net.cpp:465] Sharing parameters 'W_hc' owned by layer 'lstm1_transform_1', param index 0
I1017 12:09:34.439069 26962 layer_factory.hpp:77] Creating layer lstm1_gate_input_196
I1017 12:09:34.439079 26962 net.cpp:84] Creating Layer lstm1_gate_input_196
I1017 12:09:34.439085 26962 net.cpp:406] lstm1_gate_input_196 <- W_hc_h_195
I1017 12:09:34.439092 26962 net.cpp:406] lstm1_gate_input_196 <- W_xc_x_196
I1017 12:09:34.439101 26962 net.cpp:380] lstm1_gate_input_196 -> gate_input_196
I1017 12:09:34.439137 26962 net.cpp:122] Setting up lstm1_gate_input_196
I1017 12:09:34.439147 26962 net.cpp:129] Top shape: 1 150 2048 (307200)
I1017 12:09:34.439152 26962 net.cpp:137] Memory required for data: 1287340800
I1017 12:09:34.439157 26962 layer_factory.hpp:77] Creating layer lstm1_unit_196
I1017 12:09:34.439164 26962 net.cpp:84] Creating Layer lstm1_unit_196
I1017 12:09:34.439170 26962 net.cpp:406] lstm1_unit_196 <- c_195
I1017 12:09:34.439177 26962 net.cpp:406] lstm1_unit_196 <- gate_input_196
I1017 12:09:34.439183 26962 net.cpp:406] lstm1_unit_196 <- cont_196_lstm1_cont_slice_195_split_1
I1017 12:09:34.439191 26962 net.cpp:380] lstm1_unit_196 -> c_196
I1017 12:09:34.439200 26962 net.cpp:380] lstm1_unit_196 -> h_196
I1017 12:09:34.439260 26962 net.cpp:122] Setting up lstm1_unit_196
I1017 12:09:34.439270 26962 net.cpp:129] Top shape: 1 150 512 (76800)
I1017 12:09:34.439275 26962 net.cpp:129] Top shape: 1 150 512 (76800)
I1017 12:09:34.439280 26962 net.cpp:137] Memory required for data: 1287955200
I1017 12:09:34.439285 26962 layer_factory.hpp:77] Creating layer lstm1_
I1017 12:09:34.439291 26962 net.cpp:84] Creating Layer lstm1_
I1017 12:09:34.439297 26962 net.cpp:406] lstm1_ <- c_196
I1017 12:09:34.439307 26962 net.cpp:380] lstm1_ -> c_T
I1017 12:09:34.439332 26962 net.cpp:122] Setting up lstm1_
I1017 12:09:34.439342 26962 net.cpp:129] Top shape: 1 150 512 (76800)
I1017 12:09:34.439347 26962 net.cpp:137] Memory required for data: 1288262400
I1017 12:09:34.439350 26962 layer_factory.hpp:77] Creating layer lstm1_h_concat
I1017 12:09:34.439375 26962 net.cpp:84] Creating Layer lstm1_h_concat
I1017 12:09:34.439384 26962 net.cpp:406] lstm1_h_concat <- h_1_lstm1_unit_1_1_split_1
I1017 12:09:34.439395 26962 net.cpp:406] lstm1_h_concat <- h_2_lstm1_unit_2_1_split_1
…
I1017 12:09:34.491266 26962 net.cpp:200] lstm1_ does not need backward computation.
I1017 12:09:34.491271 26962 net.cpp:242] This network produces output c_T
I1017 12:09:34.491279 26962 net.cpp:242] This network produces output h_pseudoloss
I1017 12:09:34.675936 26962 net.cpp:255] Network initialization done.
I1017 12:09:34.679718 26962 recurrent_layer.cpp:150] Adding parameter 0: W_xc
I1017 12:09:34.679731 26962 recurrent_layer.cpp:150] Adding parameter 1: b_c
I1017 12:09:34.679736 26962 recurrent_layer.cpp:150] Adding parameter 2: W_hc
I1017 12:09:34.695713 26962 net.cpp:122] Setting up lstm1
I1017 12:09:34.695761 26962 net.cpp:129] Top shape: 196 150 512 (15052800)
I1017 12:09:34.695767 26962 net.cpp:137] Memory required for data: 17394453000
I1017 12:09:34.695785 26962 layer_factory.hpp:77] Creating layer lstm1-drop
I1017 12:09:34.695803 26962 net.cpp:84] Creating Layer lstm1-drop
I1017 12:09:34.695812 26962 net.cpp:406] lstm1-drop <- lstm1
I1017 12:09:34.695827 26962 net.cpp:380] lstm1-drop -> lstm1-drop
I1017 12:09:34.695899 26962 net.cpp:122] Setting up lstm1-drop
I1017 12:09:34.695910 26962 net.cpp:129] Top shape: 196 150 512 (15052800)
I1017 12:09:34.695914 26962 net.cpp:137] Memory required for data: 17454664200
I1017 12:09:34.695920 26962 layer_factory.hpp:77] Creating layer fc-final
I1017 12:09:34.695935 26962 net.cpp:84] Creating Layer fc-final
I1017 12:09:34.695940 26962 net.cpp:406] fc-final <- lstm1-drop
I1017 12:09:34.695948 26962 net.cpp:380] fc-final -> fc-final
I1017 12:09:34.696512 26962 net.cpp:122] Setting up fc-final
I1017 12:09:34.696527 26962 net.cpp:129] Top shape: 196 150 10 (294000)
I1017 12:09:34.696532 26962 net.cpp:137] Memory required for data: 17455840200
I1017 12:09:34.696540 26962 layer_factory.hpp:77] Creating layer fc-final_fc-final_0_split
I1017 12:09:34.696550 26962 net.cpp:84] Creating Layer fc-final_fc-final_0_split
I1017 12:09:34.696555 26962 net.cpp:406] fc-final_fc-final_0_split <- fc-final
I1017 12:09:34.696563 26962 net.cpp:380] fc-final_fc-final_0_split -> fc-final_fc-final_0_split_0
I1017 12:09:34.696573 26962 net.cpp:380] fc-final_fc-final_0_split -> fc-final_fc-final_0_split_1
I1017 12:09:34.696622 26962 net.cpp:122] Setting up fc-final_fc-final_0_split
I1017 12:09:34.696631 26962 net.cpp:129] Top shape: 196 150 10 (294000)
I1017 12:09:34.696636 26962 net.cpp:129] Top shape: 196 150 10 (294000)
I1017 12:09:34.696641 26962 net.cpp:137] Memory required for data: 17458192200
I1017 12:09:34.696646 26962 layer_factory.hpp:77] Creating layer loss
I1017 12:09:34.696656 26962 net.cpp:84] Creating Layer loss
I1017 12:09:34.696661 26962 net.cpp:406] loss <- fc-final_fc-final_0_split_0
I1017 12:09:34.696668 26962 net.cpp:406] loss <- reshape-label_label_tran_0_split_0
I1017 12:09:34.696676 26962 net.cpp:380] loss -> loss
…
