…
I1018 00:05:38.436331 29957 net.cpp:294] The NetState phase (0) differed from the phase (1) specified by a rule in layer Silence
I1018 00:05:38.436535 29957 net.cpp:51] Initializing net from parameters: 
name: "VGG-Places365"
state {
  phase: TRAIN
  level: 0
  stage: ""
}
layer {
  name: "data"
  type: "ImageData"
  top: "data"
  top: "label"
  include {
    phase: TRAIN
  }
  transform_param {
    mirror: true
    crop_size: 224
    mean_value: 104
    mean_value: 117
    mean_value: 123
  }
  image_data_param {
    source: "../Data/lsun_train_list_12w.txt"
    batch_size: 1
    shuffle: true
    new_height: 256
    new_width: 256
  }
}
layer {
  name: "label_tran"
  type: "Python"
  bottom: "label"
  top: "reshape-label"
  top: "clip_markers"
  python_param {
    module: "data_preparation_sort_max_clip"
    layer: "ReshapeLabel"
  }
}
layer {
  name: "conv1_1"
  type: "Convolution"
  bottom: "data"
  top: "conv1_1"
  convolution_param {
    num_output: 64
    pad: 1
    kernel_size: 3
  }
}
layer {
  name: "relu1_1"
  type: "ReLU"
  bottom: "conv1_1"
  top: "conv1_1"
}
layer {
  name: "conv1_2"
  type: "Convolution"
  bottom: "conv1_1"
  top: "conv1_2"
  convolution_param {
    num_output: 64
    pad: 1
    kernel_size: 3
  }
}
layer {
  name: "relu1_2"
  type: "ReLU"
  bottom: "conv1_2"
  top: "conv1_2"
}
layer {
  name: "pool1"
  type: "Pooling"
  bottom: "conv1_2"
  top: "pool1"
  pooling_param {
    pool: MAX
    kernel_size: 2
    stride: 2
  }
}
layer {
  name: "conv2_1"
  type: "Convolution"
  bottom: "pool1"
  top: "conv2_1"
  convolution_param {
    num_output: 128
    pad: 1
    kernel_size: 3
  }
}
layer {
  name: "relu2_1"
  type: "ReLU"
  bottom: "conv2_1"
  top: "conv2_1"
}
layer {
  name: "conv2_2"
  type: "Convolution"
  bottom: "conv2_1"
  top: "conv2_2"
  convolution_param {
    num_output: 128
    pad: 1
    kernel_size: 3
  }
}
layer {
  name: "relu2_2"
  type: "ReLU"
  bottom: "conv2_2"
  top: "conv2_2"
}
layer {
  name: "pool2"
  type: "Pooling"
  bottom: "conv2_2"
  top: "pool2"
  pooling_param {
    pool: MAX
    kernel_size: 2
    stride: 2
  }
}
layer {
  name: "conv3_1"
  type: "Convolution"
  bottom: "pool2"
  top: "conv3_1"
  convolution_param {
    num_output: 256
    pad: 1
    kernel_size: 3
  }
}
layer {
  name: "relu3_1"
  type: "ReLU"
  bottom: "conv3_1"
  top: "conv3_1"
}
layer {
  name: "conv3_2"
  type: "Convolution"
  bottom: "conv3_1"
  top: "conv3_2"
  convolution_param {
    num_output: 256
    pad: 1
    kernel_size: 3
  }
}
layer {
  name: "relu3_2"
  type: "ReLU"
  bottom: "conv3_2"
  top: "conv3_2"
}
layer {
  name: "conv3_3"
  type: "Convolution"
  bottom: "conv3_2"
  top: "conv3_3"
  convolution_param {
    num_output: 256
    pad: 1
    kernel_size: 3
  }
}
layer {
  name: "relu3_3"
  type: "ReLU"
  bottom: "conv3_3"
  top: "conv3_3"
}
layer {
  name: "pool3"
  type: "Pooling"
  bottom: "conv3_3"
  top: "pool3"
  pooling_param {
    pool: MAX
    kernel_size: 2
    stride: 2
  }
}
layer {
  name: "conv4_1"
  type: "Convolution"
  bottom: "pool3"
  top: "conv4_1"
  convolution_param {
    num_output: 512
    pad: 1
    kernel_size: 3
  }
}
layer {
  name: "relu4_1"
  type: "ReLU"
  bottom: "conv4_1"
  top: "conv4_1"
}
layer {
  name: "conv4_2"
  type: "Convolution"
  bottom: "conv4_1"
  top: "conv4_2"
  convolution_param {
    num_output: 512
    pad: 1
    kernel_size: 3
  }
}
layer {
  name: "relu4_2"
  type: "ReLU"
  bottom: "conv4_2"
  top: "conv4_2"
}
layer {
  name: "conv4_3"
  type: "Convolution"
  bottom: "conv4_2"
  top: "conv4_3"
  convolution_param {
    num_output: 512
    pad: 1
    kernel_size: 3
  }
}
layer {
  name: "relu4_3"
  type: "ReLU"
  bottom: "conv4_3"
  top: "conv4_3"
}
layer {
  name: "pool4"
  type: "Pooling"
  bottom: "conv4_3"
  top: "pool4"
  pooling_param {
    pool: MAX
    kernel_size: 2
    stride: 2
  }
}
layer {
  name: "conv5_1"
  type: "Convolution"
  bottom: "pool4"
  top: "conv5_1"
  convolution_param {
    num_output: 512
    pad: 1
    kernel_size: 3
  }
}
layer {
  name: "relu5_1"
  type: "ReLU"
  bottom: "conv5_1"
  top: "conv5_1"
}
layer {
  name: "conv5_2"
  type: "Convolution"
  bottom: "conv5_1"
  top: "conv5_2"
  convolution_param {
    num_output: 512
    pad: 1
    kernel_size: 3
  }
}
layer {
  name: "relu5_2"
  type: "ReLU"
  bottom: "conv5_2"
  top: "conv5_2"
}
layer {
  name: "conv5_3"
  type: "Convolution"
  bottom: "conv5_2"
  top: "conv5_3"
  convolution_param {
    num_output: 512
    pad: 1
    kernel_size: 3
  }
}
layer {
  name: "relu5_3"
  type: "ReLU"
  bottom: "conv5_3"
  top: "conv5_3"
}
layer {
  name: "conv5_3_re"
  type: "Reshape"
  bottom: "conv5_3"
  top: "conv5_3_re"
  reshape_param {
    shape {
      dim: 0
      dim: 0
      dim: -1
    }
  }
}
layer {
  name: "conv5_3_tran"
  type: "Python"
  bottom: "conv5_3_re"
  top: "conv5_3_tran"
  python_param {
    module: "data_preparation_sort_max_clip"
    layer: "DataTransposeSortMaxClip"
  }
}
layer {
  name: "lstm1"
  type: "LSTM"
  bottom: "conv5_3_tran"
  bottom: "clip_markers"
  top: "lstm1"
  recurrent_param {
    num_output: 512
    weight_filler {
      type: "uniform"
      min: -0.01
      max: 0.01
    }
    bias_filler {
      type: "constant"
      value: 0
    }
  }
}
layer {
  name: "lstm1-drop"
  type: "Dropout"
  bottom: "lstm1"
  top: "lstm1-drop"
  dropout_param {
    dropout_ratio: 0.5
  }
}
layer {
  name: "fc-final"
  type: "InnerProduct"
  bottom: "lstm1-drop"
  top: "fc-final"
  param {
    lr_mult: 1
    decay_mult: 1
  }
  param {
    lr_mult: 2
    decay_mult: 0
  }
  inner_product_param {
    num_output: 10
    weight_filler {
      type: "gaussian"
      std: 0.01
    }
    bias_filler {
      type: "constant"
      value: 0
    }
    axis: 2
  }
}
layer {
  name: "loss"
  type: "SoftmaxWithLoss"
  bottom: "fc-final"
  bottom: "reshape-label"
  top: "loss"
  softmax_param {
    axis: 2
  }
}
layer {
  name: "accuracy"
  type: "Accuracy"
  bottom: "fc-final"
  bottom: "reshape-label"
  top: "accuracy"
  accuracy_param {
    axis: 2
  }
}
I1018 00:05:38.436772 29957 layer_factory.hpp:77] Creating layer data
I1018 00:05:38.436831 29957 net.cpp:84] Creating Layer data
I1018 00:05:38.436846 29957 net.cpp:380] data -> data
I1018 00:05:38.436897 29957 net.cpp:380] data -> label
I1018 00:05:38.436931 29957 image_data_layer.cpp:38] Opening file ../Data/lsun_train_list_12w.txt
I1018 00:05:38.957518 29957 image_data_layer.cpp:53] Shuffling data
I1018 00:05:39.223261 29957 image_data_layer.cpp:63] A total of 1200000 images.
I1018 00:05:39.229198 29957 image_data_layer.cpp:90] output data size: 1,3,224,224
I1018 00:05:39.236228 29957 net.cpp:122] Setting up data
I1018 00:05:39.236263 29957 net.cpp:129] Top shape: 1 3 224 224 (150528)
I1018 00:05:39.236271 29957 net.cpp:129] Top shape: 1 (1)
I1018 00:05:39.236279 29957 net.cpp:137] Memory required for data: 602116
I1018 00:05:39.236300 29957 layer_factory.hpp:77] Creating layer label_tran
I1018 00:05:39.859277 29957 net.cpp:84] Creating Layer label_tran
I1018 00:05:39.859328 29957 net.cpp:406] label_tran <- label
I1018 00:05:39.859349 29957 net.cpp:380] label_tran -> reshape-label
I1018 00:05:39.859362 29957 net.cpp:380] label_tran -> clip_markers
I1018 00:05:39.859690 29957 net.cpp:122] Setting up label_tran
I1018 00:05:39.859712 29957 net.cpp:129] Top shape: 196 1 (196)
I1018 00:05:39.859719 29957 net.cpp:129] Top shape: 196 1 (196)
I1018 00:05:39.859724 29957 net.cpp:137] Memory required for data: 603684
I1018 00:05:39.859730 29957 layer_factory.hpp:77] Creating layer reshape-label_label_tran_0_split
I1018 00:05:39.859750 29957 net.cpp:84] Creating Layer reshape-label_label_tran_0_split
I1018 00:05:39.859755 29957 net.cpp:406] reshape-label_label_tran_0_split <- reshape-label
I1018 00:05:39.859762 29957 net.cpp:380] reshape-label_label_tran_0_split -> reshape-label_label_tran_0_split_0
I1018 00:05:39.859773 29957 net.cpp:380] reshape-label_label_tran_0_split -> reshape-label_label_tran_0_split_1
I1018 00:05:39.859812 29957 net.cpp:122] Setting up reshape-label_label_tran_0_split
I1018 00:05:39.859819 29957 net.cpp:129] Top shape: 196 1 (196)
I1018 00:05:39.859824 29957 net.cpp:129] Top shape: 196 1 (196)
I1018 00:05:39.859828 29957 net.cpp:137] Memory required for data: 605252
I1018 00:05:39.859833 29957 layer_factory.hpp:77] Creating layer conv1_1
I1018 00:05:39.859853 29957 net.cpp:84] Creating Layer conv1_1
I1018 00:05:39.859858 29957 net.cpp:406] conv1_1 <- data
I1018 00:05:39.859864 29957 net.cpp:380] conv1_1 -> conv1_1
I1018 00:05:39.861841 29957 net.cpp:122] Setting up conv1_1
I1018 00:05:39.861860 29957 net.cpp:129] Top shape: 1 64 224 224 (3211264)
I1018 00:05:39.861865 29957 net.cpp:137] Memory required for data: 13450308
I1018 00:05:39.861888 29957 layer_factory.hpp:77] Creating layer relu1_1
I1018 00:05:39.861898 29957 net.cpp:84] Creating Layer relu1_1
I1018 00:05:39.861903 29957 net.cpp:406] relu1_1 <- conv1_1
I1018 00:05:39.861917 29957 net.cpp:367] relu1_1 -> conv1_1 (in-place)
I1018 00:05:39.861930 29957 net.cpp:122] Setting up relu1_1
I1018 00:05:39.861937 29957 net.cpp:129] Top shape: 1 64 224 224 (3211264)
I1018 00:05:39.861940 29957 net.cpp:137] Memory required for data: 26295364
I1018 00:05:39.861946 29957 layer_factory.hpp:77] Creating layer conv1_2
I1018 00:05:39.861956 29957 net.cpp:84] Creating Layer conv1_2
I1018 00:05:39.861960 29957 net.cpp:406] conv1_2 <- conv1_1
I1018 00:05:39.861966 29957 net.cpp:380] conv1_2 -> conv1_2
I1018 00:05:39.862231 29957 net.cpp:122] Setting up conv1_2
I1018 00:05:39.862242 29957 net.cpp:129] Top shape: 1 64 224 224 (3211264)
I1018 00:05:39.862247 29957 net.cpp:137] Memory required for data: 39140420
I1018 00:05:39.862257 29957 layer_factory.hpp:77] Creating layer relu1_2
I1018 00:05:39.862265 29957 net.cpp:84] Creating Layer relu1_2
I1018 00:05:39.862269 29957 net.cpp:406] relu1_2 <- conv1_2
I1018 00:05:39.862277 29957 net.cpp:367] relu1_2 -> conv1_2 (in-place)
I1018 00:05:39.862283 29957 net.cpp:122] Setting up relu1_2
I1018 00:05:39.862288 29957 net.cpp:129] Top shape: 1 64 224 224 (3211264)
I1018 00:05:39.862293 29957 net.cpp:137] Memory required for data: 51985476
I1018 00:05:39.862296 29957 layer_factory.hpp:77] Creating layer pool1
I1018 00:05:39.862308 29957 net.cpp:84] Creating Layer pool1
I1018 00:05:39.862313 29957 net.cpp:406] pool1 <- conv1_2
I1018 00:05:39.862318 29957 net.cpp:380] pool1 -> pool1
I1018 00:05:39.862363 29957 net.cpp:122] Setting up pool1
I1018 00:05:39.862373 29957 net.cpp:129] Top shape: 1 64 112 112 (802816)
I1018 00:05:39.862377 29957 net.cpp:137] Memory required for data: 55196740
I1018 00:05:39.862382 29957 layer_factory.hpp:77] Creating layer conv2_1
I1018 00:05:39.862392 29957 net.cpp:84] Creating Layer conv2_1
I1018 00:05:39.862397 29957 net.cpp:406] conv2_1 <- pool1
I1018 00:05:39.862403 29957 net.cpp:380] conv2_1 -> conv2_1
I1018 00:05:39.863930 29957 net.cpp:122] Setting up conv2_1
I1018 00:05:39.863992 29957 net.cpp:129] Top shape: 1 128 112 112 (1605632)
I1018 00:05:39.864009 29957 net.cpp:137] Memory required for data: 61619268
I1018 00:05:39.864082 29957 layer_factory.hpp:77] Creating layer relu2_1
I1018 00:05:39.864109 29957 net.cpp:84] Creating Layer relu2_1
I1018 00:05:39.864121 29957 net.cpp:406] relu2_1 <- conv2_1
I1018 00:05:39.864138 29957 net.cpp:367] relu2_1 -> conv2_1 (in-place)
I1018 00:05:39.864161 29957 net.cpp:122] Setting up relu2_1
I1018 00:05:39.864172 29957 net.cpp:129] Top shape: 1 128 112 112 (1605632)
I1018 00:05:39.864181 29957 net.cpp:137] Memory required for data: 68041796
I1018 00:05:39.864189 29957 layer_factory.hpp:77] Creating layer conv2_2
I1018 00:05:39.864210 29957 net.cpp:84] Creating Layer conv2_2
I1018 00:05:39.864219 29957 net.cpp:406] conv2_2 <- conv2_1
I1018 00:05:39.864233 29957 net.cpp:380] conv2_2 -> conv2_2
I1018 00:05:39.866091 29957 net.cpp:122] Setting up conv2_2
I1018 00:05:39.866129 29957 net.cpp:129] Top shape: 1 128 112 112 (1605632)
I1018 00:05:39.866142 29957 net.cpp:137] Memory required for data: 74464324
I1018 00:05:39.866158 29957 layer_factory.hpp:77] Creating layer relu2_2
I1018 00:05:39.866171 29957 net.cpp:84] Creating Layer relu2_2
I1018 00:05:39.866183 29957 net.cpp:406] relu2_2 <- conv2_2
I1018 00:05:39.866196 29957 net.cpp:367] relu2_2 -> conv2_2 (in-place)
I1018 00:05:39.866220 29957 net.cpp:122] Setting up relu2_2
I1018 00:05:39.866235 29957 net.cpp:129] Top shape: 1 128 112 112 (1605632)
I1018 00:05:39.866242 29957 net.cpp:137] Memory required for data: 80886852
I1018 00:05:39.866251 29957 layer_factory.hpp:77] Creating layer pool2
I1018 00:05:39.866268 29957 net.cpp:84] Creating Layer pool2
I1018 00:05:39.866278 29957 net.cpp:406] pool2 <- conv2_2
I1018 00:05:39.866292 29957 net.cpp:380] pool2 -> pool2
I1018 00:05:39.866365 29957 net.cpp:122] Setting up pool2
I1018 00:05:39.866381 29957 net.cpp:129] Top shape: 1 128 56 56 (401408)
I1018 00:05:39.866390 29957 net.cpp:137] Memory required for data: 82492484
I1018 00:05:39.866400 29957 layer_factory.hpp:77] Creating layer conv3_1
I1018 00:05:39.866416 29957 net.cpp:84] Creating Layer conv3_1
I1018 00:05:39.866426 29957 net.cpp:406] conv3_1 <- pool2
I1018 00:05:39.866441 29957 net.cpp:380] conv3_1 -> conv3_1
I1018 00:05:39.868517 29957 net.cpp:122] Setting up conv3_1
I1018 00:05:39.868535 29957 net.cpp:129] Top shape: 1 256 56 56 (802816)
I1018 00:05:39.868541 29957 net.cpp:137] Memory required for data: 85703748
I1018 00:05:39.868553 29957 layer_factory.hpp:77] Creating layer relu3_1
I1018 00:05:39.868561 29957 net.cpp:84] Creating Layer relu3_1
I1018 00:05:39.868567 29957 net.cpp:406] relu3_1 <- conv3_1
I1018 00:05:39.868574 29957 net.cpp:367] relu3_1 -> conv3_1 (in-place)
I1018 00:05:39.868583 29957 net.cpp:122] Setting up relu3_1
I1018 00:05:39.868589 29957 net.cpp:129] Top shape: 1 256 56 56 (802816)
I1018 00:05:39.868594 29957 net.cpp:137] Memory required for data: 88915012
I1018 00:05:39.868600 29957 layer_factory.hpp:77] Creating layer conv3_2
I1018 00:05:39.868610 29957 net.cpp:84] Creating Layer conv3_2
I1018 00:05:39.868615 29957 net.cpp:406] conv3_2 <- conv3_1
I1018 00:05:39.868623 29957 net.cpp:380] conv3_2 -> conv3_2
I1018 00:05:39.870647 29957 net.cpp:122] Setting up conv3_2
I1018 00:05:39.870664 29957 net.cpp:129] Top shape: 1 256 56 56 (802816)
I1018 00:05:39.870676 29957 net.cpp:137] Memory required for data: 92126276
I1018 00:05:39.870683 29957 layer_factory.hpp:77] Creating layer relu3_2
I1018 00:05:39.870697 29957 net.cpp:84] Creating Layer relu3_2
I1018 00:05:39.870702 29957 net.cpp:406] relu3_2 <- conv3_2
I1018 00:05:39.870709 29957 net.cpp:367] relu3_2 -> conv3_2 (in-place)
I1018 00:05:39.870718 29957 net.cpp:122] Setting up relu3_2
I1018 00:05:39.870724 29957 net.cpp:129] Top shape: 1 256 56 56 (802816)
I1018 00:05:39.870728 29957 net.cpp:137] Memory required for data: 95337540
I1018 00:05:39.870733 29957 layer_factory.hpp:77] Creating layer conv3_3
I1018 00:05:39.870743 29957 net.cpp:84] Creating Layer conv3_3
I1018 00:05:39.870749 29957 net.cpp:406] conv3_3 <- conv3_2
I1018 00:05:39.870756 29957 net.cpp:380] conv3_3 -> conv3_3
I1018 00:05:39.872786 29957 net.cpp:122] Setting up conv3_3
I1018 00:05:39.872804 29957 net.cpp:129] Top shape: 1 256 56 56 (802816)
I1018 00:05:39.872809 29957 net.cpp:137] Memory required for data: 98548804
I1018 00:05:39.872820 29957 layer_factory.hpp:77] Creating layer relu3_3
I1018 00:05:39.872828 29957 net.cpp:84] Creating Layer relu3_3
I1018 00:05:39.872834 29957 net.cpp:406] relu3_3 <- conv3_3
I1018 00:05:39.872841 29957 net.cpp:367] relu3_3 -> conv3_3 (in-place)
I1018 00:05:39.872849 29957 net.cpp:122] Setting up relu3_3
I1018 00:05:39.872856 29957 net.cpp:129] Top shape: 1 256 56 56 (802816)
I1018 00:05:39.872860 29957 net.cpp:137] Memory required for data: 101760068
I1018 00:05:39.872865 29957 layer_factory.hpp:77] Creating layer pool3
I1018 00:05:39.872875 29957 net.cpp:84] Creating Layer pool3
I1018 00:05:39.872881 29957 net.cpp:406] pool3 <- conv3_3
I1018 00:05:39.872887 29957 net.cpp:380] pool3 -> pool3
I1018 00:05:39.872937 29957 net.cpp:122] Setting up pool3
I1018 00:05:39.872946 29957 net.cpp:129] Top shape: 1 256 28 28 (200704)
I1018 00:05:39.872951 29957 net.cpp:137] Memory required for data: 102562884
I1018 00:05:39.872956 29957 layer_factory.hpp:77] Creating layer conv4_1
I1018 00:05:39.872967 29957 net.cpp:84] Creating Layer conv4_1
I1018 00:05:39.872977 29957 net.cpp:406] conv4_1 <- pool3
I1018 00:05:39.872983 29957 net.cpp:380] conv4_1 -> conv4_1
I1018 00:05:39.877271 29957 net.cpp:122] Setting up conv4_1
I1018 00:05:39.877292 29957 net.cpp:129] Top shape: 1 512 28 28 (401408)
I1018 00:05:39.877297 29957 net.cpp:137] Memory required for data: 104168516
I1018 00:05:39.877305 29957 layer_factory.hpp:77] Creating layer relu4_1
I1018 00:05:39.877313 29957 net.cpp:84] Creating Layer relu4_1
I1018 00:05:39.877319 29957 net.cpp:406] relu4_1 <- conv4_1
I1018 00:05:39.877329 29957 net.cpp:367] relu4_1 -> conv4_1 (in-place)
I1018 00:05:39.877338 29957 net.cpp:122] Setting up relu4_1
I1018 00:05:39.877346 29957 net.cpp:129] Top shape: 1 512 28 28 (401408)
I1018 00:05:39.877349 29957 net.cpp:137] Memory required for data: 105774148
I1018 00:05:39.877353 29957 layer_factory.hpp:77] Creating layer conv4_2
I1018 00:05:39.877364 29957 net.cpp:84] Creating Layer conv4_2
I1018 00:05:39.877369 29957 net.cpp:406] conv4_2 <- conv4_1
I1018 00:05:39.877377 29957 net.cpp:380] conv4_2 -> conv4_2
I1018 00:05:39.883939 29957 net.cpp:122] Setting up conv4_2
I1018 00:05:39.883965 29957 net.cpp:129] Top shape: 1 512 28 28 (401408)
I1018 00:05:39.883973 29957 net.cpp:137] Memory required for data: 107379780
I1018 00:05:39.883991 29957 layer_factory.hpp:77] Creating layer relu4_2
I1018 00:05:39.884001 29957 net.cpp:84] Creating Layer relu4_2
I1018 00:05:39.884007 29957 net.cpp:406] relu4_2 <- conv4_2
I1018 00:05:39.884016 29957 net.cpp:367] relu4_2 -> conv4_2 (in-place)
I1018 00:05:39.884033 29957 net.cpp:122] Setting up relu4_2
I1018 00:05:39.884040 29957 net.cpp:129] Top shape: 1 512 28 28 (401408)
I1018 00:05:39.884045 29957 net.cpp:137] Memory required for data: 108985412
I1018 00:05:39.884052 29957 layer_factory.hpp:77] Creating layer conv4_3
I1018 00:05:39.884063 29957 net.cpp:84] Creating Layer conv4_3
I1018 00:05:39.884068 29957 net.cpp:406] conv4_3 <- conv4_2
I1018 00:05:39.884074 29957 net.cpp:380] conv4_3 -> conv4_3
I1018 00:05:39.890482 29957 net.cpp:122] Setting up conv4_3
I1018 00:05:39.890508 29957 net.cpp:129] Top shape: 1 512 28 28 (401408)
I1018 00:05:39.890513 29957 net.cpp:137] Memory required for data: 110591044
I1018 00:05:39.890525 29957 layer_factory.hpp:77] Creating layer relu4_3
I1018 00:05:39.890535 29957 net.cpp:84] Creating Layer relu4_3
I1018 00:05:39.890542 29957 net.cpp:406] relu4_3 <- conv4_3
I1018 00:05:39.890549 29957 net.cpp:367] relu4_3 -> conv4_3 (in-place)
I1018 00:05:39.890558 29957 net.cpp:122] Setting up relu4_3
I1018 00:05:39.890565 29957 net.cpp:129] Top shape: 1 512 28 28 (401408)
I1018 00:05:39.890569 29957 net.cpp:137] Memory required for data: 112196676
I1018 00:05:39.890574 29957 layer_factory.hpp:77] Creating layer pool4
I1018 00:05:39.890584 29957 net.cpp:84] Creating Layer pool4
I1018 00:05:39.890589 29957 net.cpp:406] pool4 <- conv4_3
I1018 00:05:39.890599 29957 net.cpp:380] pool4 -> pool4
I1018 00:05:39.890643 29957 net.cpp:122] Setting up pool4
I1018 00:05:39.890653 29957 net.cpp:129] Top shape: 1 512 14 14 (100352)
I1018 00:05:39.890657 29957 net.cpp:137] Memory required for data: 112598084
I1018 00:05:39.890662 29957 layer_factory.hpp:77] Creating layer conv5_1
I1018 00:05:39.890673 29957 net.cpp:84] Creating Layer conv5_1
I1018 00:05:39.890679 29957 net.cpp:406] conv5_1 <- pool4
I1018 00:05:39.890689 29957 net.cpp:380] conv5_1 -> conv5_1
I1018 00:05:39.901839 29957 net.cpp:122] Setting up conv5_1
I1018 00:05:39.902323 29957 net.cpp:129] Top shape: 1 512 14 14 (100352)
I1018 00:05:39.902328 29957 net.cpp:137] Memory required for data: 112999492
I1018 00:05:39.902338 29957 layer_factory.hpp:77] Creating layer relu5_1
I1018 00:05:39.902353 29957 net.cpp:84] Creating Layer relu5_1
I1018 00:05:39.902359 29957 net.cpp:406] relu5_1 <- conv5_1
I1018 00:05:39.902367 29957 net.cpp:367] relu5_1 -> conv5_1 (in-place)
I1018 00:05:39.902379 29957 net.cpp:122] Setting up relu5_1
I1018 00:05:39.902384 29957 net.cpp:129] Top shape: 1 512 14 14 (100352)
I1018 00:05:39.902390 29957 net.cpp:137] Memory required for data: 113400900
I1018 00:05:39.902393 29957 layer_factory.hpp:77] Creating layer conv5_2
I1018 00:05:39.902405 29957 net.cpp:84] Creating Layer conv5_2
I1018 00:05:39.902410 29957 net.cpp:406] conv5_2 <- conv5_1
I1018 00:05:39.902417 29957 net.cpp:380] conv5_2 -> conv5_2
I1018 00:05:39.919734 29957 net.cpp:122] Setting up conv5_2
I1018 00:05:39.919775 29957 net.cpp:129] Top shape: 1 512 14 14 (100352)
I1018 00:05:39.919780 29957 net.cpp:137] Memory required for data: 113802308
I1018 00:05:39.919793 29957 layer_factory.hpp:77] Creating layer relu5_2
I1018 00:05:39.919813 29957 net.cpp:84] Creating Layer relu5_2
I1018 00:05:39.919821 29957 net.cpp:406] relu5_2 <- conv5_2
I1018 00:05:39.919831 29957 net.cpp:367] relu5_2 -> conv5_2 (in-place)
I1018 00:05:39.919843 29957 net.cpp:122] Setting up relu5_2
I1018 00:05:39.919850 29957 net.cpp:129] Top shape: 1 512 14 14 (100352)
I1018 00:05:39.919854 29957 net.cpp:137] Memory required for data: 114203716
I1018 00:05:39.919859 29957 layer_factory.hpp:77] Creating layer conv5_3
I1018 00:05:39.919872 29957 net.cpp:84] Creating Layer conv5_3
I1018 00:05:39.919876 29957 net.cpp:406] conv5_3 <- conv5_2
I1018 00:05:39.919883 29957 net.cpp:380] conv5_3 -> conv5_3
I1018 00:05:39.926261 29957 net.cpp:122] Setting up conv5_3
I1018 00:05:39.926285 29957 net.cpp:129] Top shape: 1 512 14 14 (100352)
I1018 00:05:39.926295 29957 net.cpp:137] Memory required for data: 114605124
I1018 00:05:39.926302 29957 layer_factory.hpp:77] Creating layer relu5_3
I1018 00:05:39.926318 29957 net.cpp:84] Creating Layer relu5_3
I1018 00:05:39.926324 29957 net.cpp:406] relu5_3 <- conv5_3
I1018 00:05:39.926334 29957 net.cpp:367] relu5_3 -> conv5_3 (in-place)
I1018 00:05:39.926344 29957 net.cpp:122] Setting up relu5_3
I1018 00:05:39.926350 29957 net.cpp:129] Top shape: 1 512 14 14 (100352)
I1018 00:05:39.926354 29957 net.cpp:137] Memory required for data: 115006532
I1018 00:05:39.926360 29957 layer_factory.hpp:77] Creating layer conv5_3_re
I1018 00:05:39.926378 29957 net.cpp:84] Creating Layer conv5_3_re
I1018 00:05:39.926384 29957 net.cpp:406] conv5_3_re <- conv5_3
I1018 00:05:39.926393 29957 net.cpp:380] conv5_3_re -> conv5_3_re
I1018 00:05:39.926440 29957 net.cpp:122] Setting up conv5_3_re
I1018 00:05:39.926450 29957 net.cpp:129] Top shape: 1 512 196 (100352)
I1018 00:05:39.926455 29957 net.cpp:137] Memory required for data: 115407940
I1018 00:05:39.926460 29957 layer_factory.hpp:77] Creating layer conv5_3_tran
I1018 00:05:39.926532 29957 net.cpp:84] Creating Layer conv5_3_tran
I1018 00:05:39.926543 29957 net.cpp:406] conv5_3_tran <- conv5_3_re
I1018 00:05:39.926551 29957 net.cpp:380] conv5_3_tran -> conv5_3_tran
I1018 00:05:39.926748 29957 net.cpp:122] Setting up conv5_3_tran
I1018 00:05:39.926765 29957 net.cpp:129] Top shape: 196 1 512 (100352)
I1018 00:05:39.926776 29957 net.cpp:137] Memory required for data: 115809348
I1018 00:05:39.926781 29957 layer_factory.hpp:77] Creating layer lstm1
I1018 00:05:39.926796 29957 net.cpp:84] Creating Layer lstm1
I1018 00:05:39.926803 29957 net.cpp:406] lstm1 <- conv5_3_tran
I1018 00:05:39.926810 29957 net.cpp:406] lstm1 <- clip_markers
I1018 00:05:39.926820 29957 net.cpp:380] lstm1 -> lstm1
I1018 00:05:39.926837 29957 recurrent_layer.cpp:20] Initializing recurrent layer: assuming input batch contains 196 timesteps of 1 independent streams.
I1018 00:05:39.937438 29957 net.cpp:51] Initializing net from parameters: 
layer {
  name: "lstm1_"
  type: "Input"
  top: "x"
  top: "cont"
  input_param {
    shape {
      dim: 196
      dim: 1
      dim: 512
    }
    shape {
      dim: 196
      dim: 1
    }
  }
}
layer {
  name: "lstm1_"
  type: "Input"
  top: "c_0"
  top: "h_0"
  input_param {
    shape {
      dim: 1
      dim: 1
      dim: 512
    }
    shape {
      dim: 1
      dim: 1
      dim: 512
    }
  }
}
layer {
  name: "lstm1_cont_slice"
  type: "Slice"
  bottom: "cont"
  top: "cont_1"
  top: "cont_2"
  top: "cont_3"
  top: "cont_4"
  top: "cont_5"
  top: "cont_6"
  top: "cont_7"
  top: "cont_8"
  top: "cont_9"
  top: "cont_10"
  top: "cont_11"
  top: "cont_12"
  top: "cont_13"
  top: "cont_14"
  top: "cont_15"
  top: "cont_16"
  top: "cont_17"
  top: "cont_18"
  top: "cont_19"
  top: "cont_20"
  top: "cont_21"
  top: "cont_22"
  top: "cont_23"
  top: "cont_24"
…
  top: "W_xc_x_171"
  top: "W_xc_x_172"
  top: "W_xc_x_173"
  top: "W_xc_x_174"
  top: "W_xc_x_175"
  top: "W_xc_x_176"
  top: "W_xc_x_177"
  top: "W_xc_x_178"
  top: "W_xc_x_179"
  top: "W_xc_x_180"
  top: "W_xc_x_181"
  top: "W_xc_x_182"
  top: "W_xc_x_183"
  top: "W_xc_x_184"
  top: "W_xc_x_185"
  top: "W_xc_x_186"
  top: "W_xc_x_187"
  top: "W_xc_x_188"
  top: "W_xc_x_189"
  top: "W_xc_x_190"
  top: "W_xc_x_191"
  top: "W_xc_x_192"
  top: "W_xc_x_193"
  top: "W_xc_x_194"
  top: "W_xc_x_195"
  top: "W_xc_x_196"
  slice_param {
    axis: 0
  }
}
layer {
  name: "lstm1_h_conted_0"
  type: "Scale"
  bottom: "h_0"
  bottom: "cont_1"
  top: "h_conted_0"
  scale_param {
    axis: 0
  }
}
layer {
  name: "lstm1_transform_1"
  type: "InnerProduct"
  bottom: "h_conted_0"
  top: "W_hc_h_0"
  param {
    name: "W_hc"
  }
  inner_product_param {
    num_output: 2048
    bias_term: false
    weight_filler {
      type: "uniform"
      min: -0.01
      max: 0.01
    }
    axis: 2
  }
}
layer {
  name: "lstm1_gate_input_1"
  type: "Eltwise"
  bottom: "W_hc_h_0"
  bottom: "W_xc_x_1"
  top: "gate_input_1"
  eltwise_param {
    operation: SUM
  }
}
layer {
  name: "lstm1_unit_1"
  type: "LSTMUnit"
  bottom: "c_0"
  bottom: "gate_input_1"
  bottom: "cont_1"
  top: "c_1"
  top: "h_1"
}
layer {
  name: "lstm1_h_conted_1"
  type: "Scale"
  bottom: "h_1"
  bottom: "cont_2"
  top: "h_conted_1"
  scale_param {
    axis: 0
  }
}
layer {
  name: "lstm1_transform_2"
  type: "InnerProduct"
  bottom: "h_conted_1"
  top: "W_hc_h_1"
  param {
    name: "W_hc"
  }
  inner_product_param {
    num_output: 2048
    bias_term: false
    weight_filler {
      type: "uniform"
      min: -0.01
      max: 0.01
    }
    axis: 2
  }
}
layer {
  name: "lstm1_gate_input_2"
  type: "Eltwise"
  bottom: "W_hc_h_1"
  bottom: "W_xc_x_2"
  top: "gate_input_2"
  eltwise_param {
    operation: SUM
  }
}
layer {
  name: "lstm1_unit_2"
  type: "LSTMUnit"
  bottom: "c_1"
  bottom: "gate_input_2"
  bottom: "cont_2"
  top: "c_2"
  top: "h_2"
}
layer {
  name: "lstm1_h_conted_2"
  type: "Scale"
  bottom: "h_2"
  bottom: "cont_3"
  top: "h_conted_2"
  scale_param {
    axis: 0
  }
}
layer {
  name: "lstm1_transform_3"
  type: "InnerProduct"
  bottom: "h_conted_2"
  top: "W_hc_h_2"
  param {
    name: "W_hc"
  }
  inner_product_param {
    num_output: 2048
    bias_term: false
    weight_filler {
      type: "uniform"
      min: -0.01
      max: 0.01
    }
    axis: 2
  }
}
layer {
  name: "lstm1_gate_input_3"
  type: "Eltwise"
  bottom: "W_hc_h_2"
  bottom: "W_xc_x_3"
  top: "gate_input_3"
  eltwise_param {
    operation: SUM
  }
}
layer {
  name: "lstm1_unit_3"
  type: "LSTMUnit"
  bottom: "c_2"
  bottom: "gate_input_3"
  bottom: "cont_3"
  top: "c_3"
  top: "h_3"
}
layer {
  name: "lstm1_h_conted_3"
  type: "Scale"
  bottom: "h_3"
  bottom: "cont_4"
  top: "h_conted_3"
  scale_param {
    axis: 0
  }
}
layer {
  name: "lstm1_transform_4"
  type: "InnerProduct"
  bottom: "h_conted_3"
  top: "W_hc_h_3"
  param {
    name: "W_hc"
  }
  inner_product_param {
    num_output: 2048
    bias_term: false
    weight_filler {
      type: "uniform"
      min: -0.01
      max: 0.01
    }
    axis: 2
  }
}
layer {
  name: "lstm1_gate_input_4"
  type: "Eltwise"
  bottom: "W_hc_h_3"
  bottom: "W_xc_x_4"
  top: "gate_input_4"
  eltwise_param {
    operation: SUM
  }
}
layer {
  name: "lstm1_unit_4"
  type: "LSTMUnit"
  bottom: "c_3"
  bottom: "gate_input_4"
  bottom: "cont_4"
  top: "c_4"
  top: "h_4"
}
layer {
  name: "lstm1_h_conted_4"
  type: "Scale"
  bottom: "h_4"
  bottom: "cont_5"
  top: "h_conted_4"
  scale_param {
    axis: 0
  }
}
layer {
  name: "lstm1_transform_5"
  type: "InnerProduct"
  bottom: "h_conted_4"
  top: "W_hc_h_4"
  param {
    name: "W_hc"
  }
  inner_product_param {
    num_output: 2048
    bias_term: false
    weight_filler {
      type: "uniform"
      min: -0.01
      max: 0.01
    }
    axis: 2
  }
}
layer {
  name: "lstm1_gate_input_5"
  type: "Eltwise"
  bottom: "W_hc_h_4"
  bottom: "W_xc_x_5"
  top: "gate_input_5"
  eltwise_param {
    operation: SUM
  }
}
layer {
  name: "lstm1_unit_5"
  type: "LSTMUnit"
  bottom: "c_4"
  bottom: "gate_input_5"
  bottom: "cont_5"
  top: "c_5"
  top: "h_5"
}
layer {
  name: "lstm1_h_conted_5"
  type: "Scale"
  bottom: "h_5"
  bottom: "cont_6"
  top: "h_conted_5"
  scale_param {
    axis: 0
  }
}
layer {
  name: "lstm1_transform_6"
  type: "InnerProduct"
  bottom: "h_conted_5"
  top: "W_hc_h_5"
  param {
    name: "W_hc"
  }
  inner_product_param {
    num_output: 2048
    bias_term: false
    weight_filler {
      type: "uniform"
      min: -0.01
      max: 0.01
    }
    axis: 2
  }
}
layer {
  name: "lstm1_gate_input_6"
  type: "Eltwise"
  bottom: "W_hc_h_5"
  bottom: "W_xc_x_6"
  top: "gate_input_6"
  eltwise_param {
    operation: SUM
  }
}
layer {
  name: "lstm1_unit_6"
  type: "LSTMUnit"
  bottom: "c_5"
  bottom: "gate_input_6"
  bottom: "cont_6"
  top: "c_6"
  top: "h_6"
}
layer {
  name: "lstm1_h_conted_6"
  type: "Scale"
  bottom: "h_6"
  bottom: "cont_7"
  top: "h_conted_6"
  scale_param {
    axis: 0
  }
}
layer {
  name: "lstm1_transform_7"
  type: "InnerProduct"
  bottom: "h_conted_6"
  top: "W_hc_h_6"
  param {
    name: "W_hc"
  }
  inner_product_param {
    num_output: 2048
    bias_term: false
    weight_filler {
      type: "uniform"
      min: -0.01
      max: 0.01
    }
    axis: 2
  }
}
layer {
  name: "lstm1_gate_input_7"
  type: "Eltwise"
  bottom: "W_hc_h_6"
  bottom: "W_xc_x_7"
  top: "gate_input_7"
  eltwise_param {
    operation: SUM
  }
}
layer {
  name: "lstm1_unit_7"
  type: "LSTMUnit"
  bottom: "c_6"
  bottom: "gate_input_7"
  bottom: "cont_7"
  top: "c_7"
  top: "h_7"
}
layer {
  name: "lstm1_h_conted_7"
  type: "Scale"
  bottom: "h_7"
  bottom: "cont_8"
  top: "h_conted_7"
  scale_param {
    axis: 0
  }
}
layer {
  name: "lstm1_transform_8"
  type: "InnerProduct"
  bottom: "h_conted_7"
  top: "W_hc_h_7"
  param {
    name: "W_hc"
  }
  inner_product_param {
    num_output: 2048
    bias_term: false
    weight_filler {
      type: "uniform"
      min: -0.01
      max: 0.01
    }
    axis: 2
  }
}
layer {
  name: "lstm1_gate_input_8"
  type: "Eltwise"
  bottom: "W_hc_h_7"
  bottom: "W_xc_x_8"
  top: "gate_input_8"
  eltwise_param {
    operation: SUM
  }
}
layer {
  name: "lstm1_unit_8"
  type: "LSTMUnit"
  bottom: "c_7"
  bottom: "gate_input_8"
  bottom: "cont_8"
  top: "c_8"
  top: "h_8"
}
layer {
  name: "lstm1_h_conted_8"
  type: "Scale"
  bottom: "h_8"
  bottom: "cont_9"
  top: "h_conted_8"
  scale_param {
    axis: 0
  }
}
layer {
  name: "lstm1_transform_9"
  type: "InnerProduct"
  bottom: "h_conted_8"
  top: "W_hc_h_8"
  param {
    name: "W_hc"
  }
  inner_product_param {
    num_output: 2048
    bias_term: false
    weight_filler {
      type: "uniform"
      min: -0.01
      max: 0.01
    }
    axis: 2
  }
}
layer {
  name: "lstm1_gate_input_9"
  type: "Eltwise"
  bottom: "W_hc_h_8"
  bottom: "W_xc_x_9"
  top: "gate_input_9"
  eltwise_param {
    operation: SUM
  }
}
layer {
  name: "lstm1_unit_9"
  type: "LSTMUnit"
  bottom: "c_8"
  bottom: "gate_input_9"
  bottom: "cont_9"
  top: "c_9"
  top: "h_9"
}
layer {
  name: "lstm1_h_conted_9"
  type: "Scale"
  bottom: "h_9"
  bottom: "cont_10"
  top: "h_conted_9"
  scale_param {
    axis: 0
  }
}
layer {
  name: "lstm1_transform_10"
  type: "InnerProduct"
  bottom: "h_conted_9"
  top: "W_hc_h_9"
  param {
    name: "W_hc"
  }
  inner_product_param {
    num_output: 2048
    bias_term: false
    weight_filler {
      type: "uniform"
      min: -0.01
      max: 0.01
    }
    axis: 2
  }
}
layer {
  name: "lstm1_gate_input_10"
  type: "Eltwise"
  bottom: "W_hc_h_9"
  bottom: "W_xc_x_10"
  top: "gate_input_10"
  eltwise_param {
    operation: SUM
  }
}
layer {
  name: "lstm1_unit_10"
  type: "LSTMUnit"
  bottom: "c_9"
  bottom: "gate_input_10"
  bottom: "cont_10"
  top: "c_10"
  top: "h_10"
}
layer {
  name: "lstm1_h_conted_10"
  type: "Scale"
  bottom: "h_10"
  bottom: "cont_11"
  top: "h_conted_10"
  scale_param {
    axis: 0
  }
}
layer {
  name: "lstm1_transform_11"
  type: "InnerProduct"
  bottom: "h_conted_10"
  top: "W_hc_h_10"
  param {
    name: "W_hc"
  }
  inner_product_param {
    num_output: 2048
    bias_term: false
    weight_filler {
      type: "uniform"
      min: -0.01
      max: 0.01
    }
    axis: 2
  }
}
layer {
  name: "lstm1_gate_input_11"
  type: "Eltwise"
  bottom: "W_hc_h_10"
  bottom: "W_xc_x_11"
  top: "gate_input_11"
  eltwise_param {
    operation: SUM
  }
}
layer {
  name: "lstm1_unit_11"
  type: "LSTMUnit"
  bottom: "c_10"
  bottom: "gate_input_11"
  bottom: "cont_11"
  top: "c_11"
  top: "h_11"
}
layer {
  name: "lstm1_h_conted_11"
  type: "Scale"
  bottom: "h_11"
  bottom: "cont_12"
  top: "h_conted_11"
  scale_param {
    axis: 0
  }
}
layer {
  name: "lstm1_transform_12"
  type: "InnerProduct"
  bottom: "h_conted_11"
  top: "W_hc_h_11"
  param {
    name: "W_hc"
  }
  inner_product_param {
    num_output: 2048
    bias_term: false
    weight_filler {
      type: "uniform"
      min: -0.01
      max: 0.01
    }
    axis: 2
  }
}
layer {
  name: "lstm1_gate_input_12"
  type: "Eltwise"
  bottom: "W_hc_h_11"
  bottom: "W_xc_x_12"
  top: "gate_input_12"
  eltwise_param {
    operation: SUM
  }
}
layer {
  name: "lstm1_unit_12"
  type: "LSTMUnit"
  bottom: "c_11"
  bottom: "gate_input_12"
  bottom: "cont_12"
  top: "c_12"
  top: "h_12"
}
layer {
  name: "lstm1_h_conted_12"
  type: "Scale"
  bottom: "h_12"
  bottom: "cont_13"
  top: "h_conted_12"
  scale_param {
    axis: 0
  }
}
layer {
  name: "lstm1_transform_13"
  type: "InnerProduct"
  bottom: "h_conted_12"
  top: "W_hc_h_12"
  param {
    name: "W_hc"
  }
  inner_product_param {
    num_output: 2048
    bias_term: false
    weight_filler {
      type: "uniform"
      min: -0.01
      max: 0.01
    }
    axis: 2
  }
}
layer {
  name: "lstm1_gate_input_13"
  type: "Eltwise"
  bottom: "W_hc_h_12"
  bottom: "W_xc_x_13"
  top: "gate_input_13"
  eltwise_param {
    operation: SUM
  }
}
layer {
  name: "lstm1_unit_13"
  type: "LSTMUnit"
  bottom: "c_12"
  bottom: "gate_input_13"
  bottom: "cont_13"
  top: "c_13"
  top: "h_13"
}
layer {
  name: "lstm1_h_conted_13"
  type: "Scale"
  bottom: "h_13"
  bottom: "cont_14"
  top: "h_conted_13"
  scale_param {
    axis: 0
  }
}
layer {
  name: "lstm1_transform_14"
  type: "InnerProduct"
  bottom: "h_conted_13"
  top: "W_hc_h_13"
  param {
    name: "W_hc"
  }
  inner_product_param {
    num_output: 2048
    bias_term: false
    weight_filler {
      type: "uniform"
      min: -0.01
      max: 0.01
    }
    axis: 2
  }
}
layer {
  name: "lstm1_gate_input_14"
  type: "Eltwise"
  bottom: "W_hc_h_13"
  bottom: "W_xc_x_14"
  top: "gate_input_14"
  eltwise_param {
    operation: SUM
  }
}
layer {
  name: "lstm1_unit_14"
  type: "LSTMUnit"
  bottom: "c_13"
  bottom: "gate_input_14"
  bottom: "cont_14"
  top: "c_14"
  top: "h_14"
}
layer {
  name: "lstm1_h_conted_14"
  type: "Scale"
  bottom: "h_14"
  bottom: "cont_15"
  top: "h_conted_14"
  scale_param {
    axis: 0
  }
}
layer {
  name: "lstm1_transform_15"
  type: "InnerProduct"
  bottom: "h_conted_14"
  top: "W_hc_h_14"
  param {
    name: "W_hc"
  }
  inner_product_param {
    num_output: 2048
    bias_term: false
    weight_filler {
      type: "uniform"
      min: -0.01
      max: 0.01
    }
    axis: 2
  }
}
layer {
  name: "lstm1_gate_input_15"
  type: "Eltwise"
  bottom: "W_hc_h_14"
  bottom: "W_xc_x_15"
  top: "gate_input_15"
  eltwise_param {
    operation: SUM
  }
}
layer {
  name: "lstm1_unit_15"
  type: "LSTMUnit"
  bottom: "c_14"
  bottom: "gate_input_15"
  bottom: "cont_15"
  top: "c_15"
  top: "h_15"
}
layer {
  name: "lstm1_h_conted_15"
  type: "Scale"
  bottom: "h_15"
  bottom: "cont_16"
  top: "h_conted_15"
  scale_param {
    axis: 0
  }
}
layer {
  name: "lstm1_transform_16"
  type: "InnerProduct"
  bottom: "h_conted_15"
  top: "W_hc_h_15"
  param {
    name: "W_hc"
  }
  inner_product_param {
    num_output: 2048
    bias_term: false
    weight_filler {
      type: "uniform"
      min: -0.01
      max: 0.01
    }
    axis: 2
  }
}
layer {
  name: "lstm1_gate_input_16"
  type: "Eltwise"
  bottom: "W_hc_h_15"
  bottom: "W_xc_x_16"
  top: "gate_input_16"
  eltwise_param {
    operation: SUM
  }
}
layer {
  name: "lstm1_unit_16"
  type: "LSTMUnit"
  bottom: "c_15"
  bottom: "gate_input_16"
  bottom: "cont_16"
  top: "c_16"
  top: "h_16"
}
layer {
  name: "lstm1_h_conted_16"
  type: "Scale"
  bottom: "h_16"
  bottom: "cont_17"
  top: "h_conted_16"
  scale_param {
    axis: 0
  }
}
layer {
  name: "lstm1_transform_17"
  type: "InnerProduct"
  bottom: "h_conted_16"
  top: "W_hc_h_16"
  param {
    name: "W_hc"
  }
  inner_product_param {
    num_output: 2048
    bias_term: false
    weight_filler {
      type: "uniform"
      min: -0.01
      max: 0.01
    }
    axis: 2
  }
}
layer {
  name: "lstm1_gate_input_17"
  type: "Eltwise"
  bottom: "W_hc_h_16"
  bottom: "W_xc_x_17"
  top: "gate_input_17"
  eltwise_param {
    operation: SUM
  }
}
layer {
  name: "lstm1_unit_17"
  type: "LSTMUnit"
  bottom: "c_16"
  bottom: "gate_input_17"
  bottom: "cont_17"
  top: "c_17"
  top: "h_17"
}
layer {
  name: "lstm1_h_conted_17"
  type: "Scale"
  bottom: "h_17"
  bottom: "cont_18"
  top: "h_conted_17"
  scale_param {
    axis: 0
  }
}
layer {
  name: "lstm1_transform_18"
  type: "InnerProduct"
  bottom: "h_conted_17"
  top: "W_hc_h_17"
  param {
    name: "W_hc"
  }
  inner_product_param {
    num_output: 2048
    bias_term: false
    weight_filler {
      type: "uniform"
      min: -0.01
      max: 0.01
    }
    axis: 2
  }
}
layer {
  name: "lstm1_gate_input_18"
  type: "Eltwise"
  bottom: "W_hc_h_17"
  bottom: "W_xc_x_18"
  top: "gate_input_18"
  eltwise_param {
    operation: SUM
  }
}
layer {
  name: "lstm1_unit_18"
  type: "LSTMUnit"
  bottom: "c_17"
  bottom: "gate_input_18"
  bottom: "cont_18"
  top: "c_18"
  top: "h_18"
}
layer {
  name: "lstm1_h_conted_18"
  type: "Scale"
  bottom: "h_18"
  bottom: "cont_19"
  top: "h_conted_18"
  scale_param {
    axis: 0
  }
}
layer {
  name: "lstm1_transform_19"
  type: "InnerProduct"
  bottom: "h_conted_18"
  top: "W_hc_h_18"
  param {
    name: "W_hc"
  }
  inner_product_param {
    num_output: 2048
    bias_term: false
    weight_filler {
      type: "uniform"
      min: -0.01
      max: 0.01
    }
    axis: 2
  }
}
layer {
  name: "lstm1_gate_input_19"
  type: "Eltwise"
  bottom: "W_hc_h_18"
  bottom: "W_xc_x_19"
  top: "gate_input_19"
  eltwise_param {
    operation: SUM
  }
}
layer {
  name: "lstm1_unit_19"
  type: "LSTMUnit"
  bottom: "c_18"
  bottom: "gate_input_19"
  bottom: "cont_19"
  top: "c_19"
  top: "h_19"
}
layer {
  name: "lstm1_h_conted_19"
  type: "Scale"
  bottom: "h_19"
  bottom: "cont_20"
  top: "h_conted_19"
  scale_param {
    axis: 0
  }
}
layer {
  name: "lstm1_transform_20"
  type: "InnerProduct"
  bottom: "h_conted_19"
  top: "W_hc_h_19"
  param {
    name: "W_hc"
  }
  inner_product_param {
    num_output: 2048
    bias_term: false
    weight_filler {
      type: "uniform"
      min: -0.01
      max: 0.01
    }
    axis: 2
  }
}
layer {
  name: "lstm1_gate_input_20"
  type: "Eltwise"
  bottom: "W_hc_h_19"
  bottom: "W_xc_x_20"
  top: "gate_input_20"
  eltwise_param {
    operation: SUM
  }
}
layer {
  name: "lstm1_unit_20"
  type: "LSTMUnit"
  bottom: "c_19"
  bottom: "gate_input_20"
  bottom: "cont_20"
  top: "c_20"
  top: "h_20"
}
layer {
  name: "lstm1_h_conted_20"
  type: "Scale"
  bottom: "h_20"
  bottom: "cont_21"
  top: "h_conted_20"
  scale_param {
    axis: 0
  }
}
layer {
  name: "lstm1_transform_21"
  type: "InnerProduct"
  bottom: "h_conted_20"
  top: "W_hc_h_20"
  param {
    name: "W_hc"
  }
  inner_product_param {
    num_output: 2048
    bias_term: false
    weight_filler {
      type: "uniform"
      min: -0.01
      max: 0.01
    }
    axis: 2
  }
}
layer {
  name: "lstm1_gate_input_21"
  type: "Eltwise"
  bottom: "W_hc_h_20"
  bottom: "W_xc_x_21"
  top: "gate_input_21"
  eltwise_param {
    operation: SUM
  }
}
layer {
  name: "lstm1_unit_21"
  type: "LSTMUnit"
  bottom: "c_20"
  bottom: "gate_input_21"
  bottom: "cont_21"
  top: "c_21"
  top: "h_21"
}
layer {
  name: "lstm1_h_conted_21"
  type: "Scale"
  bottom: "h_21"
  bottom: "cont_22"
  top: "h_conted_21"
  scale_param {
    axis: 0
  }
}
layer {
  name: "lstm1_transform_22"
  type: "InnerProduct"
  bottom: "h_conted_21"
  top: "W_hc_h_21"
  param {
    name: "W_hc"
  }
  inner_product_param {
    num_output: 2048
    bias_term: false
    weight_filler {
      type: "uniform"
      min: -0.01
      max: 0.01
    }
    axis: 2
  }
}
layer {
  name: "lstm1_gate_input_22"
  type: "Eltwise"
  bottom: "W_hc_h_21"
  bottom: "W_xc_x_22"
  top: "gate_input_22"
  eltwise_param {
    operation: SUM
  }
}
layer {
  name: "lstm1_unit_22"
  type: "LSTMUnit"
  bottom: "c_21"
  bottom: "gate_input_22"
  bottom: "cont_22"
  top: "c_22"
  top: "h_22"
}
layer {
  name: "lstm1_h_conted_22"
  type: "Scale"
  bottom: "h_22"
  bottom: "cont_23"
  top: "h_conted_22"
  scale_param {
    axis: 0
  }
}
layer {
  name: "lstm1_transform_23"
  type: "InnerProduct"
  bottom: "h_conted_22"
  top: "W_hc_h_22"
  param {
    name: "W_hc"
  }
  inner_product_param {
    num_output: 2048
    bias_term: false
    weight_filler {
      type: "uniform"
      min: -0.01
      max: 0.01
    }
    axis: 2
  }
}
layer {
  name: "lstm1_gate_input_23"
  type: "Eltwise"
  bottom: "W_hc_h_22"
  bottom: "W_xc_x_23"
  top: "gate_input_23"
  eltwise_param {
    operation: SUM
  }
}
layer {
  name: "lstm1_unit_23"
  type: "LSTMUnit"
  bottom: "c_22"
  bottom: "gate_input_23"
  bottom: "cont_23"
  top: "c_23"
  top: "h_23"
}
layer {
  name: "lstm1_h_conted_23"
  type: "Scale"
  bottom: "h_23"
  bottom: "cont_24"
  top: "h_conted_23"
  scale_param {
    axis: 0
  }
}
layer {
  name: "lstm1_transform_24"
  type: "InnerProduct"
  bottom: "h_conted_23"
  top: "W_hc_h_23"
  param {
    name: "W_hc"
  }
  inner_product_param {
    num_output: 2048
    bias_term: false
    weight_filler {
      type: "uniform"
      min: -0.01
      max: 0.01
    }
    axis: 2
  }
}
layer {
  name: "lstm1_gate_input_24"
  type: "Eltwise"
  bottom: "W_hc_h_23"
  bottom: "W_xc_x_24"
  top: "gate_input_24"
  eltwise_param {
    operation: SUM
  }
}
layer {
  name: "lstm1_unit_24"
  type: "LSTMUnit"
  bottom: "c_23"
  bottom: "gate_input_24"
  bottom: "cont_24"
  top: "c_24"
  top: "h_24"
}
layer {
  name: "lstm1_h_conted_24"
  type: "Scale"
  bottom: "h_24"
  bottom: "cont_25"
  top: "h_conted_24"
  scale_param {
    axis: 0
  }
}
layer {
  name: "lstm1_transform_25"
  type: "InnerProduct"
  bottom: "h_conted_24"
  top: "W_hc_h_24"
  param {
    name: "W_hc"
  }
  inner_product_param {
    num_output: 2048
    bias_term: false
    weight_filler {
      type: "uniform"
      min: -0.01
      max: 0.01
    }
    axis: 2
  }
}
layer {
  name: "lstm1_gate_input_25"
  type: "Eltwise"
  bottom: "W_hc_h_24"
  bottom: "W_xc_x_25"
  top: "gate_input_25"
  eltwise_param {
    operation: SUM
  }
}
layer {
  name: "lstm1_unit_25"
  type: "LSTMUnit"
  bottom: "c_24"
  bottom: "gate_input_25"
  bottom: "cont_25"
  top: "c_25"
  top: "h_25"
}
layer {
  name: "lstm1_h_conted_25"
  type: "Scale"
  bottom: "h_25"
  bottom: "cont_26"
  top: "h_conted_25"
  scale_param {
    axis: 0
  }
}
layer {
  name: "lstm1_transform_26"
  type: "InnerProduct"
  bottom: "h_conted_25"
  top: "W_hc_h_25"
  param {
    name: "W_hc"
  }
  inner_product_param {
    num_output: 2048
    bias_term: false
    weight_filler {
      type: "uniform"
      min: -0.01
      max: 0.01
    }
    axis: 2
  }
}
layer {
  name: "lstm1_gate_input_26"
  type: "Eltwise"
  bottom: "W_hc_h_25"
  bottom: "W_xc_x_26"
  top: "gate_input_26"
  eltwise_param {
    operation: SUM
  }
}
layer {
  name: "lstm1_unit_26"
  type: "LSTMUnit"
  bottom: "c_25"
  bottom: "gate_input_26"
  bottom: "cont_26"
  top: "c_26"
  top: "h_26"
}
layer {
  name: "lstm1_h_conted_26"
  type: "Scale"
  bottom: "h_26"
  bottom: "cont_27"
  top: "h_conted_26"
  scale_param {
    axis: 0
  }
}
layer {
  name: "lstm1_transform_27"
  type: "InnerProduct"
  bottom: "h_conted_26"
  top: "W_hc_h_26"
  param {
    name: "W_hc"
  }
  inner_product_param {
    num_output: 2048
    bias_term: false
    weight_filler {
      type: "uniform"
      min: -0.01
      max: 0.01
    }
    axis: 2
  }
}
layer {
  name: "lstm1_gate_input_27"
  type: "Eltwise"
  bottom: "W_hc_h_26"
  bottom: "W_xc_x_27"
  top: "gate_input_27"
  eltwise_param {
    operation: SUM
  }
}
layer {
  name: "lstm1_unit_27"
  type: "LSTMUnit"
  bottom: "c_26"
  bottom: "gate_input_27"
  bottom: "cont_27"
  top: "c_27"
  top: "h_27"
}
layer {
  name: "lstm1_h_conted_27"
  type: "Scale"
  bottom: "h_27"
  bottom: "cont_28"
  top: "h_conted_27"
  scale_param {
    axis: 0
  }
}
layer {
  name: "lstm1_transform_28"
  type: "InnerProduct"
  bottom: "h_conted_27"
  top: "W_hc_h_27"
  param {
    name: "W_hc"
  }
  inner_product_param {
    num_output: 2048
    bias_term: false
    weight_filler {
      type: "uniform"
      min: -0.01
      max: 0.01
    }
    axis: 2
  }
}
layer {
  name: "lstm1_gate_input_28"
  type: "Eltwise"
  bottom: "W_hc_h_27"
  bottom: "W_xc_x_28"
  top: "gate_input_28"
  eltwise_param {
    operation: SUM
  }
}
layer {
  name: "lstm1_unit_28"
  type: "LSTMUnit"
  bottom: "c_27"
  bottom: "gate_input_28"
  bottom: "cont_28"
  top: "c_28"
  top: "h_28"
}
layer {
  name: "lstm1_h_conted_28"
  type: "Scale"
  bottom: "h_28"
  bottom: "cont_29"
  top: "h_conted_28"
  scale_param {
    axis: 0
  }
}
layer {
  name: "lstm1_transform_29"
  type: "InnerProduct"
  bottom: "h_conted_28"
  top: "W_hc_h_28"
  param {
    name: "W_hc"
  }
  inner_product_param {
    num_output: 2048
    bias_term: false
    weight_filler {
      type: "uniform"
      min: -0.01
      max: 0.01
    }
    axis: 2
  }
}
layer {
  name: "lstm1_gate_input_29"
  type: "Eltwise"
  bottom: "W_hc_h_28"
  bottom: "W_xc_x_29"
  top: "gate_input_29"
  eltwise_param {
    operation: SUM
  }
}
layer {
  name: "lstm1_unit_29"
  type: "LSTMUnit"
  bottom: "c_28"
  bottom: "gate_input_29"
  bottom: "cont_29"
  top: "c_29"
  top: "h_29"
}
layer
I1018 00:05:39.956809 29957 layer_factory.hpp:77] Creating layer lstm1_
I1018 00:05:39.956845 29957 net.cpp:84] Creating Layer lstm1_
I1018 00:05:39.956857 29957 net.cpp:380] lstm1_ -> x
I1018 00:05:39.956879 29957 net.cpp:380] lstm1_ -> cont
I1018 00:05:39.956972 29957 net.cpp:122] Setting up lstm1_
I1018 00:05:39.956984 29957 net.cpp:129] Top shape: 196 1 512 (100352)
I1018 00:05:39.956990 29957 net.cpp:129] Top shape: 196 1 (196)
I1018 00:05:39.956995 29957 net.cpp:137] Memory required for data: 402192
I1018 00:05:39.957000 29957 layer_factory.hpp:77] Creating layer lstm1_
I1018 00:05:39.957008 29957 net.cpp:84] Creating Layer lstm1_
I1018 00:05:39.957015 29957 net.cpp:380] lstm1_ -> c_0
I1018 00:05:39.957024 29957 net.cpp:380] lstm1_ -> h_0
I1018 00:05:39.957069 29957 net.cpp:122] Setting up lstm1_
I1018 00:05:39.957078 29957 net.cpp:129] Top shape: 1 1 512 (512)
I1018 00:05:39.957084 29957 net.cpp:129] Top shape: 1 1 512 (512)
I1018 00:05:39.957089 29957 net.cpp:137] Memory required for data: 406288
I1018 00:05:39.957093 29957 layer_factory.hpp:77] Creating layer lstm1_cont_slice
I1018 00:05:39.957123 29957 net.cpp:84] Creating Layer lstm1_cont_slice
I1018 00:05:39.957130 29957 net.cpp:406] lstm1_cont_slice <- cont
I1018 00:05:39.957151 29957 net.cpp:380] lstm1_cont_slice -> cont_1
I1018 00:05:39.957183 29957 net.cpp:380] lstm1_cont_slice -> cont_2
…
I1018 00:05:39.963475 29957 net.cpp:380] lstm1_cont_slice -> cont_190
I1018 00:05:39.963515 29957 net.cpp:380] lstm1_cont_slice -> cont_191
I1018 00:05:39.963555 29957 net.cpp:380] lstm1_cont_slice -> cont_192
I1018 00:05:39.963594 29957 net.cpp:380] lstm1_cont_slice -> cont_193
I1018 00:05:39.963634 29957 net.cpp:380] lstm1_cont_slice -> cont_194
I1018 00:05:39.963673 29957 net.cpp:380] lstm1_cont_slice -> cont_195
I1018 00:05:39.963713 29957 net.cpp:380] lstm1_cont_slice -> cont_196
I1018 00:05:39.965968 29957 net.cpp:122] Setting up lstm1_cont_slice
I1018 00:05:39.965991 29957 net.cpp:129] Top shape: 1 1 (1)
I1018 00:05:39.966001 29957 net.cpp:129] Top shape: 1 1 (1)
I1018 00:05:39.966011 29957 net.cpp:129] Top shape: 1 1 (1)
I1018 00:05:39.966020 29957 net.cpp:129] Top shape: 1 1 (1)
I1018 00:05:39.966030 29957 net.cpp:129] Top shape: 1 1 (1)
I1018 00:05:39.966040 29957 net.cpp:129] Top shape: 1 1 (1)
I1018 00:05:39.966050 29957 net.cpp:129] Top shape: 1 1 (1)
I1018 00:05:39.966059 29957 net.cpp:129] Top shape: 1 1 (1)
I1018 00:05:39.966068 29957 net.cpp:129] Top shape: 1 1 (1)
I1018 00:05:39.966078 29957 net.cpp:129] Top shape: 1 1 (1)
I1018 00:05:39.966087 29957 net.cpp:129] Top shape: 1 1 (1)
I1018 00:05:39.966095 29957 net.cpp:129] Top shape: 1 1 (1)
I1018 00:05:39.966105 29957 net.cpp:129] Top shape: 1 1 (1)
I1018 00:05:39.966114 29957 net.cpp:129] Top shape: 1 1 (1)
I1018 00:05:39.966123 29957 net.cpp:129] Top shape: 1 1 (1)
I1018 00:05:39.966133 29957 net.cpp:129] Top shape: 1 1 (1)
I1018 00:05:39.966142 29957 net.cpp:129] Top shape: 1 1 (1)
I1018 00:05:39.966151 29957 net.cpp:129] Top shape: 1 1 (1)
I1018 00:05:39.966161 29957 net.cpp:129] Top shape: 1 1 (1)
I1018 00:05:39.966171 29957 net.cpp:129] Top shape: 1 1 (1)
I1018 00:05:39.966179 29957 net.cpp:129] Top shape: 1 1 (1)
I1018 00:05:39.966188 29957 net.cpp:129] Top shape: 1 1 (1)
I1018 00:05:39.966197 29957 net.cpp:129] Top shape: 1 1 (1)
I1018 00:05:39.966207 29957 net.cpp:129] Top shape: 1 1 (1)
I1018 00:05:39.966217 29957 net.cpp:129] Top shape: 1 1 (1)
I1018 00:05:39.966225 29957 net.cpp:129] Top shape: 1 1 (1)
I1018 00:05:39.966234 29957 net.cpp:129] Top shape: 1 1 (1)
I1018 00:05:39.966243 29957 net.cpp:129] Top shape: 1 1 (1)
I1018 00:05:39.966253 29957 net.cpp:129] Top shape: 1 1 (1)
I1018 00:05:39.966264 29957 net.cpp:129] Top shape: 1 1 (1)
I1018 00:05:39.966272 29957 net.cpp:129] Top shape: 1 1 (1)
I1018 00:05:39.966282 29957 net.cpp:129] Top shape: 1 1 (1)
I1018 00:05:39.966291 29957 net.cpp:129] Top shape: 1 1 (1)
I1018 00:05:39.966300 29957 net.cpp:129] Top shape: 1 1 (1)
I1018 00:05:39.966310 29957 net.cpp:129] Top shape: 1 1 (1)
I1018 00:05:39.966320 29957 net.cpp:129] Top shape: 1 1 (1)
I1018 00:05:39.966328 29957 net.cpp:129] Top shape: 1 1 (1)
I1018 00:05:39.966338 29957 net.cpp:129] Top shape: 1 1 (1)
I1018 00:05:39.966347 29957 net.cpp:129] Top shape: 1 1 (1)
I1018 00:05:39.966357 29957 net.cpp:129] Top shape: 1 1 (1)
I1018 00:05:39.966367 29957 net.cpp:129] Top shape: 1 1 (1)
I1018 00:05:39.966375 29957 net.cpp:129] Top shape: 1 1 (1)
I1018 00:05:39.966384 29957 net.cpp:129] Top shape: 1 1 (1)
I1018 00:05:39.966394 29957 net.cpp:129] Top shape: 1 1 (1)
I1018 00:05:39.966403 29957 net.cpp:129] Top shape: 1 1 (1)
I1018 00:05:39.966413 29957 net.cpp:129] Top shape: 1 1 (1)
I1018 00:05:39.966421 29957 net.cpp:129] Top shape: 1 1 (1)
I1018 00:05:39.966431 29957 net.cpp:129] Top shape: 1 1 (1)
I1018 00:05:39.966440 29957 net.cpp:129] Top shape: 1 1 (1)
I1018 00:05:39.966449 29957 net.cpp:129] Top shape: 1 1 (1)
I1018 00:05:39.966459 29957 net.cpp:129] Top shape: 1 1 (1)
I1018 00:05:39.966469 29957 net.cpp:129] Top shape: 1 1 (1)
I1018 00:05:39.966477 29957 net.cpp:129] Top shape: 1 1 (1)
I1018 00:05:39.966486 29957 net.cpp:129] Top shape: 1 1 (1)
I1018 00:05:39.966495 29957 net.cpp:129] Top shape: 1 1 (1)
I1018 00:05:39.966506 29957 net.cpp:129] Top shape: 1 1 (1)
I1018 00:05:39.966514 29957 net.cpp:129] Top shape: 1 1 (1)
I1018 00:05:39.966524 29957 net.cpp:129] Top shape: 1 1 (1)
I1018 00:05:39.966533 29957 net.cpp:129] Top shape: 1 1 (1)
I1018 00:05:39.966542 29957 net.cpp:129] Top shape: 1 1 (1)
I1018 00:05:39.966552 29957 net.cpp:129] Top shape: 1 1 (1)
I1018 00:05:39.966562 29957 net.cpp:129] Top shape: 1 1 (1)
I1018 00:05:39.966572 29957 net.cpp:129] Top shape: 1 1 (1)
I1018 00:05:39.966581 29957 net.cpp:129] Top shape: 1 1 (1)
I1018 00:05:39.966590 29957 net.cpp:129] Top shape: 1 1 (1)
I1018 00:05:39.966599 29957 net.cpp:129] Top shape: 1 1 (1)
I1018 00:05:39.966609 29957 net.cpp:129] Top shape: 1 1 (1)
I1018 00:05:39.966619 29957 net.cpp:129] Top shape: 1 1 (1)
I1018 00:05:39.966627 29957 net.cpp:129] Top shape: 1 1 (1)
I1018 00:05:39.966637 29957 net.cpp:129] Top shape: 1 1 (1)
I1018 00:05:39.966646 29957 net.cpp:129] Top shape: 1 1 (1)
I1018 00:05:39.966655 29957 net.cpp:129] Top shape: 1 1 (1)
I1018 00:05:39.966665 29957 net.cpp:129] Top shape: 1 1 (1)
I1018 00:05:39.966675 29957 net.cpp:129] Top shape: 1 1 (1)
I1018 00:05:39.966684 29957 net.cpp:129] Top shape: 1 1 (1)
I1018 00:05:39.966693 29957 net.cpp:129] Top shape: 1 1 (1)
I1018 00:05:39.966702 29957 net.cpp:129] Top shape: 1 1 (1)
I1018 00:05:39.966711 29957 net.cpp:129] Top shape: 1 1 (1)
I1018 00:05:39.966722 29957 net.cpp:129] Top shape: 1 1 (1)
I1018 00:05:39.966730 29957 net.cpp:129] Top shape: 1 1 (1)
I1018 00:05:39.966740 29957 net.cpp:129] Top shape: 1 1 (1)
I1018 00:05:39.966749 29957 net.cpp:129] Top shape: 1 1 (1)
I1018 00:05:39.966758 29957 net.cpp:129] Top shape: 1 1 (1)
I1018 00:05:39.966768 29957 net.cpp:129] Top shape: 1 1 (1)
I1018 00:05:39.966778 29957 net.cpp:129] Top shape: 1 1 (1)
I1018 00:05:39.966786 29957 net.cpp:129] Top shape: 1 1 (1)
I1018 00:05:39.966796 29957 net.cpp:129] Top shape: 1 1 (1)
I1018 00:05:39.966805 29957 net.cpp:129] Top shape: 1 1 (1)
I1018 00:05:39.966814 29957 net.cpp:129] Top shape: 1 1 (1)
I1018 00:05:39.966823 29957 net.cpp:129] Top shape: 1 1 (1)
I1018 00:05:39.966833 29957 net.cpp:129] Top shape: 1 1 (1)
I1018 00:05:39.966842 29957 net.cpp:129] Top shape: 1 1 (1)
I1018 00:05:39.966851 29957 net.cpp:129] Top shape: 1 1 (1)
I1018 00:05:39.966861 29957 net.cpp:129] Top shape: 1 1 (1)
I1018 00:05:39.966871 29957 net.cpp:129] Top shape: 1 1 (1)
I1018 00:05:39.966879 29957 net.cpp:129] Top shape: 1 1 (1)
I1018 00:05:39.966889 29957 net.cpp:129] Top shape: 1 1 (1)
I1018 00:05:39.966898 29957 net.cpp:129] Top shape: 1 1 (1)
I1018 00:05:39.966907 29957 net.cpp:129] Top shape: 1 1 (1)
I1018 00:05:39.966917 29957 net.cpp:129] Top shape: 1 1 (1)
I1018 00:05:39.966926 29957 net.cpp:129] Top shape: 1 1 (1)
I1018 00:05:39.966935 29957 net.cpp:129] Top shape: 1 1 (1)
I1018 00:05:39.966944 29957 net.cpp:129] Top shape: 1 1 (1)
I1018 00:05:39.966954 29957 net.cpp:129] Top shape: 1 1 (1)
I1018 00:05:39.966964 29957 net.cpp:129] Top shape: 1 1 (1)
I1018 00:05:39.966972 29957 net.cpp:129] Top shape: 1 1 (1)
I1018 00:05:39.966982 29957 net.cpp:129] Top shape: 1 1 (1)
I1018 00:05:39.966991 29957 net.cpp:129] Top shape: 1 1 (1)
I1018 00:05:39.967000 29957 net.cpp:129] Top shape: 1 1 (1)
I1018 00:05:39.967010 29957 net.cpp:129] Top shape: 1 1 (1)
I1018 00:05:39.967020 29957 net.cpp:129] Top shape: 1 1 (1)
I1018 00:05:39.967028 29957 net.cpp:129] Top shape: 1 1 (1)
I1018 00:05:39.967037 29957 net.cpp:129] Top shape: 1 1 (1)
I1018 00:05:39.967047 29957 net.cpp:129] Top shape: 1 1 (1)
I1018 00:05:39.967056 29957 net.cpp:129] Top shape: 1 1 (1)
I1018 00:05:39.967066 29957 net.cpp:129] Top shape: 1 1 (1)
I1018 00:05:39.967075 29957 net.cpp:129] Top shape: 1 1 (1)
I1018 00:05:39.967084 29957 net.cpp:129] Top shape: 1 1 (1)
I1018 00:05:39.967093 29957 net.cpp:129] Top shape: 1 1 (1)
I1018 00:05:39.967103 29957 net.cpp:129] Top shape: 1 1 (1)
I1018 00:05:39.967113 29957 net.cpp:129] Top shape: 1 1 (1)
I1018 00:05:39.967121 29957 net.cpp:129] Top shape: 1 1 (1)
I1018 00:05:39.967131 29957 net.cpp:129] Top shape: 1 1 (1)
I1018 00:05:39.967140 29957 net.cpp:129] Top shape: 1 1 (1)
I1018 00:05:39.967150 29957 net.cpp:129] Top shape: 1 1 (1)
I1018 00:05:39.967160 29957 net.cpp:129] Top shape: 1 1 (1)
I1018 00:05:39.967170 29957 net.cpp:129] Top shape: 1 1 (1)
I1018 00:05:39.967180 29957 net.cpp:129] Top shape: 1 1 (1)
I1018 00:05:39.967188 29957 net.cpp:129] Top shape: 1 1 (1)
I1018 00:05:39.967198 29957 net.cpp:129] Top shape: 1 1 (1)
I1018 00:05:39.967207 29957 net.cpp:129] Top shape: 1 1 (1)
I1018 00:05:39.967216 29957 net.cpp:129] Top shape: 1 1 (1)
I1018 00:05:39.967226 29957 net.cpp:129] Top shape: 1 1 (1)
I1018 00:05:39.967236 29957 net.cpp:129] Top shape: 1 1 (1)
I1018 00:05:39.967244 29957 net.cpp:129] Top shape: 1 1 (1)
I1018 00:05:39.967253 29957 net.cpp:129] Top shape: 1 1 (1)
I1018 00:05:39.967263 29957 net.cpp:129] Top shape: 1 1 (1)
I1018 00:05:39.967272 29957 net.cpp:129] Top shape: 1 1 (1)
I1018 00:05:39.967283 29957 net.cpp:129] Top shape: 1 1 (1)
I1018 00:05:39.967291 29957 net.cpp:129] Top shape: 1 1 (1)
I1018 00:05:39.967300 29957 net.cpp:129] Top shape: 1 1 (1)
I1018 00:05:39.967309 29957 net.cpp:129] Top shape: 1 1 (1)
I1018 00:05:39.967319 29957 net.cpp:129] Top shape: 1 1 (1)
I1018 00:05:39.967329 29957 net.cpp:129] Top shape: 1 1 (1)
I1018 00:05:39.967339 29957 net.cpp:129] Top shape: 1 1 (1)
I1018 00:05:39.967347 29957 net.cpp:129] Top shape: 1 1 (1)
I1018 00:05:39.967363 29957 net.cpp:129] Top shape: 1 1 (1)
I1018 00:05:39.967372 29957 net.cpp:129] Top shape: 1 1 (1)
I1018 00:05:39.967381 29957 net.cpp:129] Top shape: 1 1 (1)
I1018 00:05:39.967391 29957 net.cpp:129] Top shape: 1 1 (1)
I1018 00:05:39.967401 29957 net.cpp:129] Top shape: 1 1 (1)
I1018 00:05:39.967411 29957 net.cpp:129] Top shape: 1 1 (1)
I1018 00:05:39.967419 29957 net.cpp:129] Top shape: 1 1 (1)
I1018 00:05:39.967428 29957 net.cpp:129] Top shape: 1 1 (1)
I1018 00:05:39.967437 29957 net.cpp:129] Top shape: 1 1 (1)
I1018 00:05:39.967447 29957 net.cpp:129] Top shape: 1 1 (1)
I1018 00:05:39.967456 29957 net.cpp:129] Top shape: 1 1 (1)
I1018 00:05:39.967465 29957 net.cpp:129] Top shape: 1 1 (1)
I1018 00:05:39.967475 29957 net.cpp:129] Top shape: 1 1 (1)
I1018 00:05:39.967484 29957 net.cpp:129] Top shape: 1 1 (1)
I1018 00:05:39.967494 29957 net.cpp:129] Top shape: 1 1 (1)
I1018 00:05:39.967502 29957 net.cpp:129] Top shape: 1 1 (1)
I1018 00:05:39.967511 29957 net.cpp:129] Top shape: 1 1 (1)
I1018 00:05:39.967521 29957 net.cpp:129] Top shape: 1 1 (1)
I1018 00:05:39.967530 29957 net.cpp:129] Top shape: 1 1 (1)
I1018 00:05:39.967540 29957 net.cpp:129] Top shape: 1 1 (1)
I1018 00:05:39.967548 29957 net.cpp:129] Top shape: 1 1 (1)
I1018 00:05:39.967558 29957 net.cpp:129] Top shape: 1 1 (1)
I1018 00:05:39.967567 29957 net.cpp:129] Top shape: 1 1 (1)
I1018 00:05:39.967576 29957 net.cpp:129] Top shape: 1 1 (1)
I1018 00:05:39.967586 29957 net.cpp:129] Top shape: 1 1 (1)
I1018 00:05:39.967595 29957 net.cpp:129] Top shape: 1 1 (1)
I1018 00:05:39.967604 29957 net.cpp:129] Top shape: 1 1 (1)
I1018 00:05:39.967613 29957 net.cpp:129] Top shape: 1 1 (1)
I1018 00:05:39.967622 29957 net.cpp:129] Top shape: 1 1 (1)
I1018 00:05:39.967633 29957 net.cpp:129] Top shape: 1 1 (1)
I1018 00:05:39.967641 29957 net.cpp:129] Top shape: 1 1 (1)
I1018 00:05:39.967651 29957 net.cpp:129] Top shape: 1 1 (1)
I1018 00:05:39.967660 29957 net.cpp:129] Top shape: 1 1 (1)
I1018 00:05:39.967669 29957 net.cpp:129] Top shape: 1 1 (1)
I1018 00:05:39.967679 29957 net.cpp:129] Top shape: 1 1 (1)
I1018 00:05:39.967689 29957 net.cpp:129] Top shape: 1 1 (1)
I1018 00:05:39.967697 29957 net.cpp:129] Top shape: 1 1 (1)
I1018 00:05:39.967707 29957 net.cpp:129] Top shape: 1 1 (1)
I1018 00:05:39.967716 29957 net.cpp:129] Top shape: 1 1 (1)
I1018 00:05:39.967725 29957 net.cpp:129] Top shape: 1 1 (1)
I1018 00:05:39.967736 29957 net.cpp:129] Top shape: 1 1 (1)
I1018 00:05:39.967744 29957 net.cpp:129] Top shape: 1 1 (1)
I1018 00:05:39.967753 29957 net.cpp:129] Top shape: 1 1 (1)
I1018 00:05:39.967763 29957 net.cpp:129] Top shape: 1 1 (1)
I1018 00:05:39.967772 29957 net.cpp:129] Top shape: 1 1 (1)
I1018 00:05:39.967782 29957 net.cpp:129] Top shape: 1 1 (1)
I1018 00:05:39.967792 29957 net.cpp:129] Top shape: 1 1 (1)
I1018 00:05:39.967800 29957 net.cpp:129] Top shape: 1 1 (1)
I1018 00:05:39.967809 29957 net.cpp:129] Top shape: 1 1 (1)
I1018 00:05:39.967818 29957 net.cpp:129] Top shape: 1 1 (1)
I1018 00:05:39.967826 29957 net.cpp:137] Memory required for data: 407072
I1018 00:05:39.967835 29957 layer_factory.hpp:77] Creating layer cont_1_lstm1_cont_slice_0_split
I1018 00:05:39.967849 29957 net.cpp:84] Creating Layer cont_1_lstm1_cont_slice_0_split
I1018 00:05:39.967859 29957 net.cpp:406] cont_1_lstm1_cont_slice_0_split <- cont_1
I1018 00:05:39.967875 29957 net.cpp:380] cont_1_lstm1_cont_slice_0_split -> cont_1_lstm1_cont_slice_0_split_0
I1018 00:05:39.967892 29957 net.cpp:380] cont_1_lstm1_cont_slice_0_split -> cont_1_lstm1_cont_slice_0_split_1
I1018 00:05:39.967947 29957 net.cpp:122] Setting up cont_1_lstm1_cont_slice_0_split
I1018 00:05:39.967959 29957 net.cpp:129] Top shape: 1 1 (1)
I1018 00:05:39.967969 29957 net.cpp:129] Top shape: 1 1 (1)
I1018 00:05:39.967978 29957 net.cpp:137] Memory required for data: 407080
I1018 00:05:39.967985 29957 layer_factory.hpp:77] Creating layer cont_2_lstm1_cont_slice_1_split
I1018 00:05:39.968001 29957 net.cpp:84] Creating Layer cont_2_lstm1_cont_slice_1_split
I1018 00:05:39.968011 29957 net.cpp:406] cont_2_lstm1_cont_slice_1_split <- cont_2
I1018 00:05:39.968024 29957 net.cpp:380] cont_2_lstm1_cont_slice_1_split -> cont_2_lstm1_cont_slice_1_split_0
I1018 00:05:39.968060 29957 net.cpp:380] cont_2_lstm1_cont_slice_1_split -> cont_2_lstm1_cont_slice_1_split_1
I1018 00:05:39.968116 29957 net.cpp:122] Setting up cont_2_lstm1_cont_slice_1_split
I1018 00:05:39.968130 29957 net.cpp:129] Top shape: 1 1 (1)
I1018 00:05:39.968140 29957 net.cpp:129] Top shape: 1 1 (1)
I1018 00:05:39.968148 29957 net.cpp:137] Memory required for data: 407088
I1018 00:05:39.968156 29957 layer_factory.hpp:77] Creating layer cont_3_lstm1_cont_slice_2_split
I1018 00:05:39.968170 29957 net.cpp:84] Creating Layer cont_3_lstm1_cont_slice_2_split
I1018 00:05:39.968179 29957 net.cpp:406] cont_3_lstm1_cont_slice_2_split <- cont_3
I1018 00:05:39.968191 29957 net.cpp:380] cont_3_lstm1_cont_slice_2_split -> cont_3_lstm1_cont_slice_2_split_0
I1018 00:05:39.968205 29957 net.cpp:380] cont_3_lstm1_cont_slice_2_split -> cont_3_lstm1_cont_slice_2_split_1
I1018 00:05:39.968257 29957 net.cpp:122] Setting up cont_3_lstm1_cont_slice_2_split
I1018 00:05:39.968271 29957 net.cpp:129] Top shape: 1 1 (1)
I1018 00:05:39.968279 29957 net.cpp:129] Top shape: 1 1 (1)
I1018 00:05:39.968287 29957 net.cpp:137] Memory required for data: 407096
I1018 00:05:39.968295 29957 layer_factory.hpp:77] Creating layer cont_4_lstm1_cont_slice_3_split
I1018 00:05:39.968305 29957 net.cpp:84] Creating Layer cont_4_lstm1_cont_slice_3_split
I1018 00:05:39.968314 29957 net.cpp:406] cont_4_lstm1_cont_slice_3_split <- cont_4
I1018 00:05:39.968327 29957 net.cpp:380] cont_4_lstm1_cont_slice_3_split -> cont_4_lstm1_cont_slice_3_split_0
I1018 00:05:39.968345 29957 net.cpp:380] cont_4_lstm1_cont_slice_3_split -> cont_4_lstm1_cont_slice_3_split_1
I1018 00:05:39.968394 29957 net.cpp:122] Setting up cont_4_lstm1_cont_slice_3_split
I1018 00:05:39.968406 29957 net.cpp:129] Top shape: 1 1 (1)
I1018 00:05:39.968415 29957 net.cpp:129] Top shape: 1 1 (1)
I1018 00:05:39.968423 29957 net.cpp:137] Memory required for data: 407104
I1018 00:05:39.968432 29957 layer_factory.hpp:77] Creating layer cont_5_lstm1_cont_slice_4_split
I1018 00:05:39.968446 29957 net.cpp:84] Creating Layer cont_5_lstm1_cont_slice_4_split
I1018 00:05:39.968454 29957 net.cpp:406] cont_5_lstm1_cont_slice_4_split <- cont_5
I1018 00:05:39.968466 29957 net.cpp:380] cont_5_lstm1_cont_slice_4_split -> cont_5_lstm1_cont_slice_4_split_0
I1018 00:05:39.968480 29957 net.cpp:380] cont_5_lstm1_cont_slice_4_split -> cont_5_lstm1_cont_slice_4_split_1
I1018 00:05:39.968533 29957 net.cpp:122] Setting up cont_5_lstm1_cont_slice_4_split
I1018 00:05:39.968545 29957 net.cpp:129] Top shape: 1 1 (1)
I1018 00:05:39.968555 29957 net.cpp:129] Top shape: 1 1 (1)
I1018 00:05:39.968562 29957 net.cpp:137] Memory required for data: 407112
I1018 00:05:39.968570 29957 layer_factory.hpp:77] Creating layer cont_6_lstm1_cont_slice_5_split
I1018 00:05:39.968583 29957 net.cpp:84] Creating Layer cont_6_lstm1_cont_slice_5_split
I1018 00:05:39.968591 29957 net.cpp:406] cont_6_lstm1_cont_slice_5_split <- cont_6
I1018 00:05:39.968603 29957 net.cpp:380] cont_6_lstm1_cont_slice_5_split -> cont_6_lstm1_cont_slice_5_split_0
I1018 00:05:39.968617 29957 net.cpp:380] cont_6_lstm1_cont_slice_5_split -> cont_6_lstm1_cont_slice_5_split_1
I1018 00:05:39.968665 29957 net.cpp:122] Setting up cont_6_lstm1_cont_slice_5_split
I1018 00:05:39.968677 29957 net.cpp:129] Top shape: 1 1 (1)
I1018 00:05:39.968688 29957 net.cpp:129] Top shape: 1 1 (1)
I1018 00:05:39.968695 29957 net.cpp:137] Memory required for data: 407120
I1018 00:05:39.968703 29957 layer_factory.hpp:77] Creating layer cont_7_lstm1_cont_slice_6_split
I1018 00:05:39.968713 29957 net.cpp:84] Creating Layer cont_7_lstm1_cont_slice_6_split
I1018 00:05:39.968722 29957 net.cpp:406] cont_7_lstm1_cont_slice_6_split <- cont_7
I1018 00:05:39.968734 29957 net.cpp:380] cont_7_lstm1_cont_slice_6_split -> cont_7_lstm1_cont_slice_6_split_0
I1018 00:05:39.968747 29957 net.cpp:380] cont_7_lstm1_cont_slice_6_split -> cont_7_lstm1_cont_slice_6_split_1
I1018 00:05:39.968801 29957 net.cpp:122] Setting up cont_7_lstm1_cont_slice_6_split
I1018 00:05:39.968812 29957 net.cpp:129] Top shape: 1 1 (1)
I1018 00:05:39.968822 29957 net.cpp:129] Top shape: 1 1 (1)
I1018 00:05:39.968829 29957 net.cpp:137] Memory required for data: 407128
I1018 00:05:39.968838 29957 layer_factory.hpp:77] Creating layer cont_8_lstm1_cont_slice_7_split
I1018 00:05:39.968848 29957 net.cpp:84] Creating Layer cont_8_lstm1_cont_slice_7_split
I1018 00:05:39.968857 29957 net.cpp:406] cont_8_lstm1_cont_slice_7_split <- cont_8
I1018 00:05:39.968873 29957 net.cpp:380] cont_8_lstm1_cont_slice_7_split -> cont_8_lstm1_cont_slice_7_split_0
I1018 00:05:39.968886 29957 net.cpp:380] cont_8_lstm1_cont_slice_7_split -> cont_8_lstm1_cont_slice_7_split_1
I1018 00:05:39.968933 29957 net.cpp:122] Setting up cont_8_lstm1_cont_slice_7_split
I1018 00:05:39.968945 29957 net.cpp:129] Top shape: 1 1 (1)
I1018 00:05:39.968955 29957 net.cpp:129] Top shape: 1 1 (1)
I1018 00:05:39.968962 29957 net.cpp:137] Memory required for data: 407136
I1018 00:05:39.968971 29957 layer_factory.hpp:77] Creating layer cont_9_lstm1_cont_slice_8_split
I1018 00:05:39.968983 29957 net.cpp:84] Creating Layer cont_9_lstm1_cont_slice_8_split
I1018 00:05:39.968992 29957 net.cpp:406] cont_9_lstm1_cont_slice_8_split <- cont_9
I1018 00:05:39.969004 29957 net.cpp:380] cont_9_lstm1_cont_slice_8_split -> cont_9_lstm1_cont_slice_8_split_0
I1018 00:05:39.969017 29957 net.cpp:380] cont_9_lstm1_cont_slice_8_split -> cont_9_lstm1_cont_slice_8_split_1
I1018 00:05:39.969068 29957 net.cpp:122] Setting up cont_9_lstm1_cont_slice_8_split
I1018 00:05:39.969079 29957 net.cpp:129] Top shape: 1 1 (1)
I1018 00:05:39.969089 29957 net.cpp:129] Top shape: 1 1 (1)
I1018 00:05:39.969096 29957 net.cpp:137] Memory required for data: 407144
I1018 00:05:39.969105 29957 layer_factory.hpp:77] Creating layer cont_10_lstm1_cont_slice_9_split
I1018 00:05:39.969115 29957 net.cpp:84] Creating Layer cont_10_lstm1_cont_slice_9_split
I1018 00:05:39.969125 29957 net.cpp:406] cont_10_lstm1_cont_slice_9_split <- cont_10
I1018 00:05:39.969136 29957 net.cpp:380] cont_10_lstm1_cont_slice_9_split -> cont_10_lstm1_cont_slice_9_split_0
I1018 00:05:39.969149 29957 net.cpp:380] cont_10_lstm1_cont_slice_9_split -> cont_10_lstm1_cont_slice_9_split_1
I1018 00:05:39.969198 29957 net.cpp:122] Setting up cont_10_lstm1_cont_slice_9_split
I1018 00:05:39.969210 29957 net.cpp:129] Top shape: 1 1 (1)
I1018 00:05:39.969220 29957 net.cpp:129] Top shape: 1 1 (1)
I1018 00:05:39.969228 29957 net.cpp:137] Memory required for data: 407152
I1018 00:05:39.969236 29957 layer_factory.hpp:77] Creating layer cont_11_lstm1_cont_slice_10_split
I1018 00:05:39.969246 29957 net.cpp:84] Creating Layer cont_11_lstm1_cont_slice_10_split
I1018 00:05:39.969255 29957 net.cpp:406] cont_11_lstm1_cont_slice_10_split <- cont_11
I1018 00:05:39.969267 29957 net.cpp:380] cont_11_lstm1_cont_slice_10_split -> cont_11_lstm1_cont_slice_10_split_0
I1018 00:05:39.969285 29957 net.cpp:380] cont_11_lstm1_cont_slice_10_split -> cont_11_lstm1_cont_slice_10_split_1
I1018 00:05:39.969329 29957 net.cpp:122] Setting up cont_11_lstm1_cont_slice_10_split
I1018 00:05:39.969341 29957 net.cpp:129] Top shape: 1 1 (1)
I1018 00:05:39.969350 29957 net.cpp:129] Top shape: 1 1 (1)
I1018 00:05:39.969358 29957 net.cpp:137] Memory required for data: 407160
I1018 00:05:39.969367 29957 layer_factory.hpp:77] Creating layer cont_12_lstm1_cont_slice_11_split
I1018 00:05:39.969380 29957 net.cpp:84] Creating Layer cont_12_lstm1_cont_slice_11_split
I1018 00:05:39.969389 29957 net.cpp:406] cont_12_lstm1_cont_slice_11_split <- cont_12
I1018 00:05:39.969401 29957 net.cpp:380] cont_12_lstm1_cont_slice_11_split -> cont_12_lstm1_cont_slice_11_split_0
I1018 00:05:39.969414 29957 net.cpp:380] cont_12_lstm1_cont_slice_11_split -> cont_12_lstm1_cont_slice_11_split_1
I1018 00:05:39.969465 29957 net.cpp:122] Setting up cont_12_lstm1_cont_slice_11_split
I1018 00:05:39.969478 29957 net.cpp:129] Top shape: 1 1 (1)
I1018 00:05:39.969488 29957 net.cpp:129] Top shape: 1 1 (1)
I1018 00:05:39.969496 29957 net.cpp:137] Memory required for data: 407168
I1018 00:05:39.969504 29957 layer_factory.hpp:77] Creating layer cont_13_lstm1_cont_slice_12_split
I1018 00:05:39.969514 29957 net.cpp:84] Creating Layer cont_13_lstm1_cont_slice_12_split
I1018 00:05:39.969523 29957 net.cpp:406] cont_13_lstm1_cont_slice_12_split <- cont_13
I1018 00:05:39.969535 29957 net.cpp:380] cont_13_lstm1_cont_slice_12_split -> cont_13_lstm1_cont_slice_12_split_0
I1018 00:05:39.969549 29957 net.cpp:380] cont_13_lstm1_cont_slice_12_split -> cont_13_lstm1_cont_slice_12_split_1
I1018 00:05:39.969597 29957 net.cpp:122] Setting up cont_13_lstm1_cont_slice_12_split
I1018 00:05:39.969610 29957 net.cpp:129] Top shape: 1 1 (1)
I1018 00:05:39.969619 29957 net.cpp:129] Top shape: 1 1 (1)
I1018 00:05:39.969627 29957 net.cpp:137] Memory required for data: 407176
I1018 00:05:39.969635 29957 layer_factory.hpp:77] Creating layer cont_14_lstm1_cont_slice_13_split
I1018 00:05:39.969647 29957 net.cpp:84] Creating Layer cont_14_lstm1_cont_slice_13_split
I1018 00:05:39.969656 29957 net.cpp:406] cont_14_lstm1_cont_slice_13_split <- cont_14
I1018 00:05:39.969668 29957 net.cpp:380] cont_14_lstm1_cont_slice_13_split -> cont_14_lstm1_cont_slice_13_split_0
I1018 00:05:39.969682 29957 net.cpp:380] cont_14_lstm1_cont_slice_13_split -> cont_14_lstm1_cont_slice_13_split_1
I1018 00:05:39.969732 29957 net.cpp:122] Setting up cont_14_lstm1_cont_slice_13_split
I1018 00:05:39.969745 29957 net.cpp:129] Top shape: 1 1 (1)
I1018 00:05:39.969754 29957 net.cpp:129] Top shape: 1 1 (1)
I1018 00:05:39.969763 29957 net.cpp:137] Memory required for data: 407184
I1018 00:05:39.969770 29957 layer_factory.hpp:77] Creating layer cont_15_lstm1_cont_slice_14_split
I1018 00:05:39.969780 29957 net.cpp:84] Creating Layer cont_15_lstm1_cont_slice_14_split
I1018 00:05:39.969789 29957 net.cpp:406] cont_15_lstm1_cont_slice_14_split <- cont_15
I1018 00:05:39.969805 29957 net.cpp:380] cont_15_lstm1_cont_slice_14_split -> cont_15_lstm1_cont_slice_14_split_0
I1018 00:05:39.969818 29957 net.cpp:380] cont_15_lstm1_cont_slice_14_split -> cont_15_lstm1_cont_slice_14_split_1
I1018 00:05:39.969876 29957 net.cpp:122] Setting up cont_15_lstm1_cont_slice_14_split
I1018 00:05:39.969888 29957 net.cpp:129] Top shape: 1 1 (1)
I1018 00:05:39.969897 29957 net.cpp:129] Top shape: 1 1 (1)
I1018 00:05:39.969905 29957 net.cpp:137] Memory required for data: 407192
I1018 00:05:39.969914 29957 layer_factory.hpp:77] Creating layer cont_16_lstm1_cont_slice_15_split
I1018 00:05:39.969924 29957 net.cpp:84] Creating Layer cont_16_lstm1_cont_slice_15_split
I1018 00:05:39.969933 29957 net.cpp:406] cont_16_lstm1_cont_slice_15_split <- cont_16
I1018 00:05:39.969944 29957 net.cpp:380] cont_16_lstm1_cont_slice_15_split -> cont_16_lstm1_cont_slice_15_split_0
I1018 00:05:39.969959 29957 net.cpp:380] cont_16_lstm1_cont_slice_15_split -> cont_16_lstm1_cont_slice_15_split_1
I1018 00:05:39.970008 29957 net.cpp:122] Setting up cont_16_lstm1_cont_slice_15_split
I1018 00:05:39.970021 29957 net.cpp:129] Top shape: 1 1 (1)
I1018 00:05:39.970031 29957 net.cpp:129] Top shape: 1 1 (1)
I1018 00:05:39.970037 29957 net.cpp:137] Memory required for data: 407200
I1018 00:05:39.970046 29957 layer_factory.hpp:77] Creating layer cont_17_lstm1_cont_slice_16_split
I1018 00:05:39.970057 29957 net.cpp:84] Creating Layer cont_17_lstm1_cont_slice_16_split
I1018 00:05:39.970065 29957 net.cpp:406] cont_17_lstm1_cont_slice_16_split <- cont_17
I1018 00:05:39.970077 29957 net.cpp:380] cont_17_lstm1_cont_slice_16_split -> cont_17_lstm1_cont_slice_16_split_0
I1018 00:05:39.970090 29957 net.cpp:380] cont_17_lstm1_cont_slice_16_split -> cont_17_lstm1_cont_slice_16_split_1
I1018 00:05:39.970134 29957 net.cpp:122] Setting up cont_17_lstm1_cont_slice_16_split
I1018 00:05:39.970141 29957 net.cpp:129] Top shape: 1 1 (1)
I1018 00:05:39.970146 29957 net.cpp:129] Top shape: 1 1 (1)
I1018 00:05:39.970150 29957 net.cpp:137] Memory required for data: 407208
I1018 00:05:39.970155 29957 layer_factory.hpp:77] Creating layer cont_18_lstm1_cont_slice_17_split
I1018 00:05:39.970160 29957 net.cpp:84] Creating Layer cont_18_lstm1_cont_slice_17_split
I1018 00:05:39.970165 29957 net.cpp:406] cont_18_lstm1_cont_slice_17_split <- cont_18
I1018 00:05:39.970175 29957 net.cpp:380] cont_18_lstm1_cont_slice_17_split -> cont_18_lstm1_cont_slice_17_split_0
I1018 00:05:39.970182 29957 net.cpp:380] cont_18_lstm1_cont_slice_17_split -> cont_18_lstm1_cont_slice_17_split_1
I1018 00:05:39.970214 29957 net.cpp:122] Setting up cont_18_lstm1_cont_slice_17_split
I1018 00:05:39.970221 29957 net.cpp:129] Top shape: 1 1 (1)
I1018 00:05:39.970226 29957 net.cpp:129] Top shape: 1 1 (1)
I1018 00:05:39.970230 29957 net.cpp:137] Memory required for data: 407216
I1018 00:05:39.970234 29957 layer_factory.hpp:77] Creating layer cont_19_lstm1_cont_slice_18_split
I1018 00:05:39.970243 29957 net.cpp:84] Creating Layer cont_19_lstm1_cont_slice_18_split
I1018 00:05:39.970248 29957 net.cpp:406] cont_19_lstm1_cont_slice_18_split <- cont_19
I1018 00:05:39.970255 29957 net.cpp:380] cont_19_lstm1_cont_slice_18_split -> cont_19_lstm1_cont_slice_18_split_0
I1018 00:05:39.970263 29957 net.cpp:380] cont_19_lstm1_cont_slice_18_split -> cont_19_lstm1_cont_slice_18_split_1
I1018 00:05:39.970300 29957 net.cpp:122] Setting up cont_19_lstm1_cont_slice_18_split
I1018 00:05:39.970307 29957 net.cpp:129] Top shape: 1 1 (1)
I1018 00:05:39.970312 29957 net.cpp:129] Top shape: 1 1 (1)
I1018 00:05:39.970321 29957 net.cpp:137] Memory required for data: 407224
I1018 00:05:39.970329 29957 layer_factory.hpp:77] Creating layer cont_20_lstm1_cont_slice_19_split
I1018 00:05:39.970335 29957 net.cpp:84] Creating Layer cont_20_lstm1_cont_slice_19_split
I1018 00:05:39.970340 29957 net.cpp:406] cont_20_lstm1_cont_slice_19_split <- cont_20
I1018 00:05:39.970350 29957 net.cpp:380] cont_20_lstm1_cont_slice_19_split -> cont_20_lstm1_cont_slice_19_split_0
I1018 00:05:39.970356 29957 net.cpp:380] cont_20_lstm1_cont_slice_19_split -> cont_20_lstm1_cont_slice_19_split_1
I1018 00:05:39.970391 29957 net.cpp:122] Setting up cont_20_lstm1_cont_slice_19_split
I1018 00:05:39.970396 29957 net.cpp:129] Top shape: 1 1 (1)
I1018 00:05:39.970402 29957 net.cpp:129] Top shape: 1 1 (1)
I1018 00:05:39.970407 29957 net.cpp:137] Memory required for data: 407232
I1018 00:05:39.970410 29957 layer_factory.hpp:77] Creating layer cont_21_lstm1_cont_slice_20_split
I1018 00:05:39.970417 29957 net.cpp:84] Creating Layer cont_21_lstm1_cont_slice_20_split
I1018 00:05:39.970422 29957 net.cpp:406] cont_21_lstm1_cont_slice_20_split <- cont_21
I1018 00:05:39.970427 29957 net.cpp:380] cont_21_lstm1_cont_slice_20_split -> cont_21_lstm1_cont_slice_20_split_0
I1018 00:05:39.970434 29957 net.cpp:380] cont_21_lstm1_cont_slice_20_split -> cont_21_lstm1_cont_slice_20_split_1
I1018 00:05:39.970468 29957 net.cpp:122] Setting up cont_21_lstm1_cont_slice_20_split
I1018 00:05:39.970474 29957 net.cpp:129] Top shape: 1 1 (1)
I1018 00:05:39.970479 29957 net.cpp:129] Top shape: 1 1 (1)
I1018 00:05:39.970484 29957 net.cpp:137] Memory required for data: 407240
I1018 00:05:39.970487 29957 layer_factory.hpp:77] Creating layer cont_22_lstm1_cont_slice_21_split
I1018 00:05:39.970494 29957 net.cpp:84] Creating Layer cont_22_lstm1_cont_slice_21_split
I1018 00:05:39.970499 29957 net.cpp:406] cont_22_lstm1_cont_slice_21_split <- cont_22
I1018 00:05:39.970506 29957 net.cpp:380] cont_22_lstm1_cont_slice_21_split -> cont_22_lstm1_cont_slice_21_split_0
I1018 00:05:39.970515 29957 net.cpp:380] cont_22_lstm1_cont_slice_21_split -> cont_22_lstm1_cont_slice_21_split_1
I1018 00:05:39.970544 29957 net.cpp:122] Setting up cont_22_lstm1_cont_slice_21_split
I1018 00:05:39.970551 29957 net.cpp:129] Top shape: 1 1 (1)
I1018 00:05:39.970556 29957 net.cpp:129] Top shape: 1 1 (1)
I1018 00:05:39.970561 29957 net.cpp:137] Memory required for data: 407248
I1018 00:05:39.970566 29957 layer_factory.hpp:77] Creating layer cont_23_lstm1_cont_slice_22_split
I1018 00:05:39.970578 29957 net.cpp:84] Creating Layer cont_23_lstm1_cont_slice_22_split
I1018 00:05:39.970583 29957 net.cpp:406] cont_23_lstm1_cont_slice_22_split <- cont_23
I1018 00:05:39.970590 29957 net.cpp:380] cont_23_lstm1_cont_slice_22_split -> cont_23_lstm1_cont_slice_22_split_0
I1018 00:05:39.970597 29957 net.cpp:380] cont_23_lstm1_cont_slice_22_split -> cont_23_lstm1_cont_slice_22_split_1
I1018 00:05:39.970630 29957 net.cpp:122] Setting up cont_23_lstm1_cont_slice_22_split
I1018 00:05:39.970636 29957 net.cpp:129] Top shape: 1 1 (1)
I1018 00:05:39.970641 29957 net.cpp:129] Top shape: 1 1 (1)
I1018 00:05:39.970645 29957 net.cpp:137] Memory required for data: 407256
I1018 00:05:39.970651 29957 layer_factory.hpp:77] Creating layer cont_24_lstm1_cont_slice_23_split
I1018 00:05:39.970657 29957 net.cpp:84] Creating Layer cont_24_lstm1_cont_slice_23_split
I1018 00:05:39.970662 29957 net.cpp:406] cont_24_lstm1_cont_slice_23_split <- cont_24
I1018 00:05:39.970669 29957 net.cpp:380] cont_24_lstm1_cont_slice_23_split -> cont_24_lstm1_cont_slice_23_split_0
I1018 00:05:39.970676 29957 net.cpp:380] cont_24_lstm1_cont_slice_23_split -> cont_24_lstm1_cont_slice_23_split_1
I1018 00:05:39.970708 29957 net.cpp:122] Setting up cont_24_lstm1_cont_slice_23_split
I1018 00:05:39.970715 29957 net.cpp:129] Top shape: 1 1 (1)
I1018 00:05:39.970721 29957 net.cpp:129] Top shape: 1 1 (1)
I1018 00:05:39.970726 29957 net.cpp:137] Memory required for data: 407264
I1018 00:05:39.970729 29957 layer_factory.hpp:77] Creating layer cont_25_lstm1_cont_slice_24_split
I1018 00:05:39.970736 29957 net.cpp:84] Creating Layer cont_25_lstm1_cont_slice_24_split
I1018 00:05:39.970739 29957 net.cpp:406] cont_25_lstm1_cont_slice_24_split <- cont_25
I1018 00:05:39.970748 29957 net.cpp:380] cont_25_lstm1_cont_slice_24_split -> cont_25_lstm1_cont_slice_24_split_0
I1018 00:05:39.970755 29957 net.cpp:380] cont_25_lstm1_cont_slice_24_split -> cont_25_lstm1_cont_slice_24_split_1
I1018 00:05:39.970785 29957 net.cpp:122] Setting up cont_25_lstm1_cont_slice_24_split
I1018 00:05:39.970791 29957 net.cpp:129] Top shape: 1 1 (1)
I1018 00:05:39.970796 29957 net.cpp:129] Top shape: 1 1 (1)
I1018 00:05:39.970801 29957 net.cpp:137] Memory required for data: 407272
I1018 00:05:39.970805 29957 layer_factory.hpp:77] Creating layer cont_26_lstm1_cont_slice_25_split
I1018 00:05:39.970813 29957 net.cpp:84] Creating Layer cont_26_lstm1_cont_slice_25_split
I1018 00:05:39.970818 29957 net.cpp:406] cont_26_lstm1_cont_slice_25_split <- cont_26
I1018 00:05:39.970825 29957 net.cpp:380] cont_26_lstm1_cont_slice_25_split -> cont_26_lstm1_cont_slice_25_split_0
I1018 00:05:39.970832 29957 net.cpp:380] cont_26_lstm1_cont_slice_25_split -> cont_26_lstm1_cont_slice_25_split_1
I1018 00:05:39.970865 29957 net.cpp:122] Setting up cont_26_lstm1_cont_slice_25_split
I1018 00:05:39.970872 29957 net.cpp:129] Top shape: 1 1 (1)
I1018 00:05:39.970877 29957 net.cpp:129] Top shape: 1 1 (1)
I1018 00:05:39.970881 29957 net.cpp:137] Memory required for data: 407280
I1018 00:05:39.970886 29957 layer_factory.hpp:77] Creating layer cont_27_lstm1_cont_slice_26_split
I1018 00:05:39.970891 29957 net.cpp:84] Creating Layer cont_27_lstm1_cont_slice_26_split
I1018 00:05:39.970896 29957 net.cpp:406] cont_27_lstm1_cont_slice_26_split <- cont_27
I1018 00:05:39.970903 29957 net.cpp:380] cont_27_lstm1_cont_slice_26_split -> cont_27_lstm1_cont_slice_26_split_0
I1018 00:05:39.970911 29957 net.cpp:380] cont_27_lstm1_cont_slice_26_split -> cont_27_lstm1_cont_slice_26_split_1
I1018 00:05:39.970942 29957 net.cpp:122] Setting up cont_27_lstm1_cont_slice_26_split
I1018 00:05:39.970948 29957 net.cpp:129] Top shape: 1 1 (1)
I1018 00:05:39.970953 29957 net.cpp:129] Top shape: 1 1 (1)
I1018 00:05:39.970958 29957 net.cpp:137] Memory required for data: 407288
I1018 00:05:39.970963 29957 layer_factory.hpp:77] Creating layer cont_28_lstm1_cont_slice_27_split
I1018 00:05:39.970968 29957 net.cpp:84] Creating Layer cont_28_lstm1_cont_slice_27_split
I1018 00:05:39.970973 29957 net.cpp:406] cont_28_lstm1_cont_slice_27_split <- cont_28
I1018 00:05:39.970979 29957 net.cpp:380] cont_28_lstm1_cont_slice_27_split -> cont_28_lstm1_cont_slice_27_split_0
I1018 00:05:39.970988 29957 net.cpp:380] cont_28_lstm1_cont_slice_27_split -> cont_28_lstm1_cont_slice_27_split_1
I1018 00:05:39.971019 29957 net.cpp:122] Setting up cont_28_lstm1_cont_slice_27_split
I1018 00:05:39.971025 29957 net.cpp:129] Top shape: 1 1 (1)
I1018 00:05:39.971030 29957 net.cpp:129] Top shape: 1 1 (1)
I1018 00:05:39.971035 29957 net.cpp:137] Memory required for data: 407296
I1018 00:05:39.971040 29957 layer_factory.hpp:77] Creating layer cont_29_lstm1_cont_slice_28_split
I1018 00:05:39.971045 29957 net.cpp:84] Creating Layer cont_29_lstm1_cont_slice_28_split
I1018 00:05:39.971050 29957 net.cpp:406] cont_29_lstm1_cont_slice_28_split <- cont_29
I1018 00:05:39.971058 29957 net.cpp:380] cont_29_lstm1_cont_slice_28_split -> cont_29_lstm1_cont_slice_28_split_0
I1018 00:05:39.971083 29957 net.cpp:380] cont_29_lstm1_cont_slice_28_split -> cont_29_lstm1_cont_slice_28_split_1
I1018 00:05:39.971117 29957 net.cpp:122] Setting up cont_29_lstm1_cont_slice_28_split
I1018 00:05:39.971125 29957 net.cpp:129] Top shape: 1 1 (1)
I1018 00:05:39.971130 29957 net.cpp:129] Top shape: 1 1 (1)
I1018 00:05:39.971139 29957 net.cpp:137] Memory required for data: 407304
I1018 00:05:39.971144 29957 layer_factory.hpp:77] Creating layer cont_30_lstm1_cont_slice_29_split
I1018 00:05:39.971155 29957 net.cpp:84] Creating Layer cont_30_lstm1_cont_slice_29_split
I1018 00:05:39.971160 29957 net.cpp:406] cont_30_lstm1_cont_slice_29_split <- cont_30
I1018 00:05:39.971168 29957 net.cpp:380] cont_30_lstm1_cont_slice_29_split -> cont_30_lstm1_cont_slice_29_split_0
I1018 00:05:39.971175 29957 net.cpp:380] cont_30_lstm1_cont_slice_29_split -> cont_30_lstm1_cont_slice_29_split_1
I1018 00:05:39.971215 29957 net.cpp:122] Setting up cont_30_lstm1_cont_slice_29_split
I1018 00:05:39.971222 29957 net.cpp:129] Top shape: 1 1 (1)
I1018 00:05:39.971227 29957 net.cpp:129] Top shape: 1 1 (1)
I1018 00:05:39.971231 29957 net.cpp:137] Memory required for data: 407312
I1018 00:05:39.971236 29957 layer_factory.hpp:77] Creating layer cont_31_lstm1_cont_slice_30_split
I1018 00:05:39.971242 29957 net.cpp:84] Creating Layer cont_31_lstm1_cont_slice_30_split
I1018 00:05:39.971246 29957 net.cpp:406] cont_31_lstm1_cont_slice_30_split <- cont_31
I1018 00:05:39.971253 29957 net.cpp:380] cont_31_lstm1_cont_slice_30_split -> cont_31_lstm1_cont_slice_30_split_0
I1018 00:05:39.971261 29957 net.cpp:380] cont_31_lstm1_cont_slice_30_split -> cont_31_lstm1_cont_slice_30_split_1
I1018 00:05:39.971293 29957 net.cpp:122] Setting up cont_31_lstm1_cont_slice_30_split
I1018 00:05:39.971299 29957 net.cpp:129] Top shape: 1 1 (1)
I1018 00:05:39.971305 29957 net.cpp:129] Top shape: 1 1 (1)
I1018 00:05:39.971309 29957 net.cpp:137] Memory required for data: 407320
I1018 00:05:39.971314 29957 layer_factory.hpp:77] Creating layer cont_32_lstm1_cont_slice_31_split
I1018 00:05:39.971319 29957 net.cpp:84] Creating Layer cont_32_lstm1_cont_slice_31_split
I1018 00:05:39.971324 29957 net.cpp:406] cont_32_lstm1_cont_slice_31_split <- cont_32
I1018 00:05:39.971330 29957 net.cpp:380] cont_32_lstm1_cont_slice_31_split -> cont_32_lstm1_cont_slice_31_split_0
I1018 00:05:39.971338 29957 net.cpp:380] cont_32_lstm1_cont_slice_31_split -> cont_32_lstm1_cont_slice_31_split_1
I1018 00:05:39.971370 29957 net.cpp:122] Setting up cont_32_lstm1_cont_slice_31_split
I1018 00:05:39.971376 29957 net.cpp:129] Top shape: 1 1 (1)
I1018 00:05:39.971381 29957 net.cpp:129] Top shape: 1 1 (1)
I1018 00:05:39.971386 29957 net.cpp:137] Memory required for data: 407328
I1018 00:05:39.971390 29957 layer_factory.hpp:77] Creating layer cont_33_lstm1_cont_slice_32_split
I1018 00:05:39.971396 29957 net.cpp:84] Creating Layer cont_33_lstm1_cont_slice_32_split
I1018 00:05:39.971401 29957 net.cpp:406] cont_33_lstm1_cont_slice_32_split <- cont_33
I1018 00:05:39.971410 29957 net.cpp:380] cont_33_lstm1_cont_slice_32_split -> cont_33_lstm1_cont_slice_32_split_0
I1018 00:05:39.971417 29957 net.cpp:380] cont_33_lstm1_cont_slice_32_split -> cont_33_lstm1_cont_slice_32_split_1
I1018 00:05:39.971449 29957 net.cpp:122] Setting up cont_33_lstm1_cont_slice_32_split
I1018 00:05:39.971456 29957 net.cpp:129] Top shape: 1 1 (1)
I1018 00:05:39.971460 29957 net.cpp:129] Top shape: 1 1 (1)
I1018 00:05:39.971465 29957 net.cpp:137] Memory required for data: 407336
I1018 00:05:39.971469 29957 layer_factory.hpp:77] Creating layer cont_34_lstm1_cont_slice_33_split
I1018 00:05:39.971475 29957 net.cpp:84] Creating Layer cont_34_lstm1_cont_slice_33_split
I1018 00:05:39.971480 29957 net.cpp:406] cont_34_lstm1_cont_slice_33_split <- cont_34
I1018 00:05:39.971488 29957 net.cpp:380] cont_34_lstm1_cont_slice_33_split -> cont_34_lstm1_cont_slice_33_split_0
I1018 00:05:39.971496 29957 net.cpp:380] cont_34_lstm1_cont_slice_33_split -> cont_34_lstm1_cont_slice_33_split_1
I1018 00:05:39.971529 29957 net.cpp:122] Setting up cont_34_lstm1_cont_slice_33_split
I1018 00:05:39.971534 29957 net.cpp:129] Top shape: 1 1 (1)
I1018 00:05:39.971540 29957 net.cpp:129] Top shape: 1 1 (1)
I1018 00:05:39.971544 29957 net.cpp:137] Memory required for data: 407344
I1018 00:05:39.971549 29957 layer_factory.hpp:77] Creating layer cont_35_lstm1_cont_slice_34_split
I1018 00:05:39.971554 29957 net.cpp:84] Creating Layer cont_35_lstm1_cont_slice_34_split
I1018 00:05:39.971560 29957 net.cpp:406] cont_35_lstm1_cont_slice_34_split <- cont_35
I1018 00:05:39.971565 29957 net.cpp:380] cont_35_lstm1_cont_slice_34_split -> cont_35_lstm1_cont_slice_34_split_0
I1018 00:05:39.971572 29957 net.cpp:380] cont_35_lstm1_cont_slice_34_split -> cont_35_lstm1_cont_slice_34_split_1
I1018 00:05:39.971606 29957 net.cpp:122] Setting up cont_35_lstm1_cont_slice_34_split
I1018 00:05:39.971612 29957 net.cpp:129] Top shape: 1 1 (1)
I1018 00:05:39.971618 29957 net.cpp:129] Top shape: 1 1 (1)
I1018 00:05:39.971622 29957 net.cpp:137] Memory required for data: 407352
I1018 00:05:39.971626 29957 layer_factory.hpp:77] Creating layer cont_36_lstm1_cont_slice_35_split
I1018 00:05:39.971632 29957 net.cpp:84] Creating Layer cont_36_lstm1_cont_slice_35_split
I1018 00:05:39.971637 29957 net.cpp:406] cont_36_lstm1_cont_slice_35_split <- cont_36
I1018 00:05:39.971645 29957 net.cpp:380] cont_36_lstm1_cont_slice_35_split -> cont_36_lstm1_cont_slice_35_split_0
I1018 00:05:39.971652 29957 net.cpp:380] cont_36_lstm1_cont_slice_35_split -> cont_36_lstm1_cont_slice_35_split_1
I1018 00:05:39.971683 29957 net.cpp:122] Setting up cont_36_lstm1_cont_slice_35_split
I1018 00:05:39.971689 29957 net.cpp:129] Top shape: 1 1 (1)
I1018 00:05:39.971694 29957 net.cpp:129] Top shape: 1 1 (1)
I1018 00:05:39.971699 29957 net.cpp:137] Memory required for data: 407360
I1018 00:05:39.971704 29957 layer_factory.hpp:77] Creating layer cont_37_lstm1_cont_slice_36_split
I1018 00:05:39.971711 29957 net.cpp:84] Creating Layer cont_37_lstm1_cont_slice_36_split
I1018 00:05:39.971716 29957 net.cpp:406] cont_37_lstm1_cont_slice_36_split <- cont_37
I1018 00:05:39.971722 29957 net.cpp:380] cont_37_lstm1_cont_slice_36_split -> cont_37_lstm1_cont_slice_36_split_0
I1018 00:05:39.971729 29957 net.cpp:380] cont_37_lstm1_cont_slice_36_split -> cont_37_lstm1_cont_slice_36_split_1
I1018 00:05:39.971762 29957 net.cpp:122] Setting up cont_37_lstm1_cont_slice_36_split
I1018 00:05:39.971768 29957 net.cpp:129] Top shape: 1 1 (1)
I1018 00:05:39.971773 29957 net.cpp:129] Top shape: 1 1 (1)
I1018 00:05:39.971777 29957 net.cpp:137] Memory required for data: 407368
I1018 00:05:39.971782 29957 layer_factory.hpp:77] Creating layer cont_38_lstm1_cont_slice_37_split
I1018 00:05:39.971787 29957 net.cpp:84] Creating Layer cont_38_lstm1_cont_slice_37_split
I1018 00:05:39.971793 29957 net.cpp:406] cont_38_lstm1_cont_slice_37_split <- cont_38
I1018 00:05:39.971799 29957 net.cpp:380] cont_38_lstm1_cont_slice_37_split -> cont_38_lstm1_cont_slice_37_split_0
I1018 00:05:39.971807 29957 net.cpp:380] cont_38_lstm1_cont_slice_37_split -> cont_38_lstm1_cont_slice_37_split_1
I1018 00:05:39.971838 29957 net.cpp:122] Setting up cont_38_lstm1_cont_slice_37_split
I1018 00:05:39.971845 29957 net.cpp:129] Top shape: 1 1 (1)
I1018 00:05:39.971850 29957 net.cpp:129] Top shape: 1 1 (1)
I1018 00:05:39.971854 29957 net.cpp:137] Memory required for data: 407376
I1018 00:05:39.971858 29957 layer_factory.hpp:77] Creating layer cont_39_lstm1_cont_slice_38_split
I1018 00:05:39.971864 29957 net.cpp:84] Creating Layer cont_39_lstm1_cont_slice_38_split
I1018 00:05:39.971869 29957 net.cpp:406] cont_39_lstm1_cont_slice_38_split <- cont_39
I1018 00:05:39.971875 29957 net.cpp:380] cont_39_lstm1_cont_slice_38_split -> cont_39_lstm1_cont_slice_38_split_0
I1018 00:05:39.971884 29957 net.cpp:380] cont_39_lstm1_cont_slice_38_split -> cont_39_lstm1_cont_slice_38_split_1
I1018 00:05:39.971916 29957 net.cpp:122] Setting up cont_39_lstm1_cont_slice_38_split
I1018 00:05:39.971922 29957 net.cpp:129] Top shape: 1 1 (1)
I1018 00:05:39.971927 29957 net.cpp:129] Top shape: 1 1 (1)
I1018 00:05:39.971932 29957 net.cpp:137] Memory required for data: 407384
I1018 00:05:39.971936 29957 layer_factory.hpp:77] Creating layer cont_40_lstm1_cont_slice_39_split
I1018 00:05:39.971942 29957 net.cpp:84] Creating Layer cont_40_lstm1_cont_slice_39_split
I1018 00:05:39.971947 29957 net.cpp:406] cont_40_lstm1_cont_slice_39_split <- cont_40
I1018 00:05:39.971958 29957 net.cpp:380] cont_40_lstm1_cont_slice_39_split -> cont_40_lstm1_cont_slice_39_split_0
I1018 00:05:39.971966 29957 net.cpp:380] cont_40_lstm1_cont_slice_39_split -> cont_40_lstm1_cont_slice_39_split_1
I1018 00:05:39.971999 29957 net.cpp:122] Setting up cont_40_lstm1_cont_slice_39_split
I1018 00:05:39.972005 29957 net.cpp:129] Top shape: 1 1 (1)
I1018 00:05:39.972010 29957 net.cpp:129] Top shape: 1 1 (1)
I1018 00:05:39.972015 29957 net.cpp:137] Memory required for data: 407392
I1018 00:05:39.972019 29957 layer_factory.hpp:77] Creating layer cont_41_lstm1_cont_slice_40_split
I1018 00:05:39.972034 29957 net.cpp:84] Creating Layer cont_41_lstm1_cont_slice_40_split
I1018 00:05:39.972041 29957 net.cpp:406] cont_41_lstm1_cont_slice_40_split <- cont_41
I1018 00:05:39.972048 29957 net.cpp:380] cont_41_lstm1_cont_slice_40_split -> cont_41_lstm1_cont_slice_40_split_0
I1018 00:05:39.972056 29957 net.cpp:380] cont_41_lstm1_cont_slice_40_split -> cont_41_lstm1_cont_slice_40_split_1
I1018 00:05:39.972093 29957 net.cpp:122] Setting up cont_41_lstm1_cont_slice_40_split
I1018 00:05:39.972100 29957 net.cpp:129] Top shape: 1 1 (1)
I1018 00:05:39.972105 29957 net.cpp:129] Top shape: 1 1 (1)
I1018 00:05:39.972110 29957 net.cpp:137] Memory required for data: 407400
I1018 00:05:39.972115 29957 layer_factory.hpp:77] Creating layer cont_42_lstm1_cont_slice_41_split
I1018 00:05:39.972121 29957 net.cpp:84] Creating Layer cont_42_lstm1_cont_slice_41_split
I1018 00:05:39.972126 29957 net.cpp:406] cont_42_lstm1_cont_slice_41_split <- cont_42
I1018 00:05:39.972132 29957 net.cpp:380] cont_42_lstm1_cont_slice_41_split -> cont_42_lstm1_cont_slice_41_split_0
I1018 00:05:39.972139 29957 net.cpp:380] cont_42_lstm1_cont_slice_41_split -> cont_42_lstm1_cont_slice_41_split_1
I1018 00:05:39.972172 29957 net.cpp:122] Setting up cont_42_lstm1_cont_slice_41_split
I1018 00:05:39.972179 29957 net.cpp:129] Top shape: 1 1 (1)
I1018 00:05:39.972184 29957 net.cpp:129] Top shape: 1 1 (1)
I1018 00:05:39.972188 29957 net.cpp:137] Memory required for data: 407408
I1018 00:05:39.972193 29957 layer_factory.hpp:77] Creating layer cont_43_lstm1_cont_slice_42_split
I1018 00:05:39.972198 29957 net.cpp:84] Creating Layer cont_43_lstm1_cont_slice_42_split
I1018 00:05:39.972203 29957 net.cpp:406] cont_43_lstm1_cont_slice_42_split <- cont_43
I1018 00:05:39.972211 29957 net.cpp:380] cont_43_lstm1_cont_slice_42_split -> cont_43_lstm1_cont_slice_42_split_0
I1018 00:05:39.972219 29957 net.cpp:380] cont_43_lstm1_cont_slice_42_split -> cont_43_lstm1_cont_slice_42_split_1
I1018 00:05:39.972250 29957 net.cpp:122] Setting up cont_43_lstm1_cont_slice_42_split
I1018 00:05:39.972259 29957 net.cpp:129] Top shape: 1 1 (1)
I1018 00:05:39.972265 29957 net.cpp:129] Top shape: 1 1 (1)
I1018 00:05:39.972270 29957 net.cpp:137] Memory required for data: 407416
I1018 00:05:39.972273 29957 layer_factory.hpp:77] Creating layer cont_44_lstm1_cont_slice_43_split
I1018 00:05:39.972281 29957 net.cpp:84] Creating Layer cont_44_lstm1_cont_slice_43_split
I1018 00:05:39.972286 29957 net.cpp:406] cont_44_lstm1_cont_slice_43_split <- cont_44
I1018 00:05:39.972292 29957 net.cpp:380] cont_44_lstm1_cont_slice_43_split -> cont_44_lstm1_cont_slice_43_split_0
I1018 00:05:39.972299 29957 net.cpp:380] cont_44_lstm1_cont_slice_43_split -> cont_44_lstm1_cont_slice_43_split_1
I1018 00:05:39.972333 29957 net.cpp:122] Setting up cont_44_lstm1_cont_slice_43_split
I1018 00:05:39.972339 29957 net.cpp:129] Top shape: 1 1 (1)
I1018 00:05:39.972344 29957 net.cpp:129] Top shape: 1 1 (1)
I1018 00:05:39.972348 29957 net.cpp:137] Memory required for data: 407424
I1018 00:05:39.972353 29957 layer_factory.hpp:77] Creating layer cont_45_lstm1_cont_slice_44_split
I1018 00:05:39.972358 29957 net.cpp:84] Creating Layer cont_45_lstm1_cont_slice_44_split
I1018 00:05:39.972363 29957 net.cpp:406] cont_45_lstm1_cont_slice_44_split <- cont_45
I1018 00:05:39.972369 29957 net.cpp:380] cont_45_lstm1_cont_slice_44_split -> cont_45_lstm1_cont_slice_44_split_0
I1018 00:05:39.972376 29957 net.cpp:380] cont_45_lstm1_cont_slice_44_split -> cont_45_lstm1_cont_slice_44_split_1
I1018 00:05:39.972409 29957 net.cpp:122] Setting up cont_45_lstm1_cont_slice_44_split
I1018 00:05:39.972415 29957 net.cpp:129] Top shape: 1 1 (1)
I1018 00:05:39.972420 29957 net.cpp:129] Top shape: 1 1 (1)
I1018 00:05:39.972425 29957 net.cpp:137] Memory required for data: 407432
I1018 00:05:39.972429 29957 layer_factory.hpp:77] Creating layer cont_46_lstm1_cont_slice_45_split
I1018 00:05:39.972435 29957 net.cpp:84] Creating Layer cont_46_lstm1_cont_slice_45_split
I1018 00:05:39.972440 29957 net.cpp:406] cont_46_lstm1_cont_slice_45_split <- cont_46
I1018 00:05:39.972446 29957 net.cpp:380] cont_46_lstm1_cont_slice_45_split -> cont_46_lstm1_cont_slice_45_split_0
I1018 00:05:39.972453 29957 net.cpp:380] cont_46_lstm1_cont_slice_45_split -> cont_46_lstm1_cont_slice_45_split_1
I1018 00:05:39.972486 29957 net.cpp:122] Setting up cont_46_lstm1_cont_slice_45_split
I1018 00:05:39.972492 29957 net.cpp:129] Top shape: 1 1 (1)
I1018 00:05:39.972497 29957 net.cpp:129] Top shape: 1 1 (1)
I1018 00:05:39.972501 29957 net.cpp:137] Memory required for data: 407440
I1018 00:05:39.972506 29957 layer_factory.hpp:77] Creating layer cont_47_lstm1_cont_slice_46_split
I1018 00:05:39.972512 29957 net.cpp:84] Creating Layer cont_47_lstm1_cont_slice_46_split
I1018 00:05:39.972517 29957 net.cpp:406] cont_47_lstm1_cont_slice_46_split <- cont_47
I1018 00:05:39.972524 29957 net.cpp:380] cont_47_lstm1_cont_slice_46_split -> cont_47_lstm1_cont_slice_46_split_0
I1018 00:05:39.972532 29957 net.cpp:380] cont_47_lstm1_cont_slice_46_split -> cont_47_lstm1_cont_slice_46_split_1
I1018 00:05:39.972563 29957 net.cpp:122] Setting up cont_47_lstm1_cont_slice_46_split
I1018 00:05:39.972568 29957 net.cpp:129] Top shape: 1 1 (1)
I1018 00:05:39.972573 29957 net.cpp:129] Top shape: 1 1 (1)
I1018 00:05:39.972578 29957 net.cpp:137] Memory required for data: 407448
I1018 00:05:39.972582 29957 layer_factory.hpp:77] Creating layer cont_48_lstm1_cont_slice_47_split
I1018 00:05:39.972589 29957 net.cpp:84] Creating Layer cont_48_lstm1_cont_slice_47_split
I1018 00:05:39.972594 29957 net.cpp:406] cont_48_lstm1_cont_slice_47_split <- cont_48
I1018 00:05:39.972601 29957 net.cpp:380] cont_48_lstm1_cont_slice_47_split -> cont_48_lstm1_cont_slice_47_split_0
I1018 00:05:39.972607 29957 net.cpp:380] cont_48_lstm1_cont_slice_47_split -> cont_48_lstm1_cont_slice_47_split_1
I1018 00:05:39.972641 29957 net.cpp:122] Setting up cont_48_lstm1_cont_slice_47_split
I1018 00:05:39.972647 29957 net.cpp:129] Top shape: 1 1 (1)
I1018 00:05:39.972652 29957 net.cpp:129] Top shape: 1 1 (1)
I1018 00:05:39.972656 29957 net.cpp:137] Memory required for data: 407456
I1018 00:05:39.972661 29957 layer_factory.hpp:77] Creating layer cont_49_lstm1_cont_slice_48_split
I1018 00:05:39.972666 29957 net.cpp:84] Creating Layer cont_49_lstm1_cont_slice_48_split
I1018 00:05:39.972671 29957 net.cpp:406] cont_49_lstm1_cont_slice_48_split <- cont_49
I1018 00:05:39.972677 29957 net.cpp:380] cont_49_lstm1_cont_slice_48_split -> cont_49_lstm1_cont_slice_48_split_0
I1018 00:05:39.972684 29957 net.cpp:380] cont_49_lstm1_cont_slice_48_split -> cont_49_lstm1_cont_slice_48_split_1
I1018 00:05:39.972720 29957 net.cpp:122] Setting up cont_49_lstm1_cont_slice_48_split
I1018 00:05:39.972728 29957 net.cpp:129] Top shape: 1 1 (1)
I1018 00:05:39.972733 29957 net.cpp:129] Top shape: 1 1 (1)
I1018 00:05:39.972736 29957 net.cpp:137] Memory required for data: 407464
I1018 00:05:39.972741 29957 layer_factory.hpp:77] Creating layer cont_50_lstm1_cont_slice_49_split
I1018 00:05:39.972746 29957 net.cpp:84] Creating Layer cont_50_lstm1_cont_slice_49_split
I1018 00:05:39.972751 29957 net.cpp:406] cont_50_lstm1_cont_slice_49_split <- cont_50
I1018 00:05:39.972757 29957 net.cpp:380] cont_50_lstm1_cont_slice_49_split -> cont_50_lstm1_cont_slice_49_split_0
I1018 00:05:39.972767 29957 net.cpp:380] cont_50_lstm1_cont_slice_49_split -> cont_50_lstm1_cont_slice_49_split_1
I1018 00:05:39.972798 29957 net.cpp:122] Setting up cont_50_lstm1_cont_slice_49_split
I1018 00:05:39.972805 29957 net.cpp:129] Top shape: 1 1 (1)
I1018 00:05:39.972810 29957 net.cpp:129] Top shape: 1 1 (1)
I1018 00:05:39.972815 29957 net.cpp:137] Memory required for data: 407472
I1018 00:05:39.972820 29957 layer_factory.hpp:77] Creating layer cont_51_lstm1_cont_slice_50_split
I1018 00:05:39.972826 29957 net.cpp:84] Creating Layer cont_51_lstm1_cont_slice_50_split
I1018 00:05:39.972831 29957 net.cpp:406] cont_51_lstm1_cont_slice_50_split <- cont_51
I1018 00:05:39.972838 29957 net.cpp:380] cont_51_lstm1_cont_slice_50_split -> cont_51_lstm1_cont_slice_50_split_0
I1018 00:05:39.972846 29957 net.cpp:380] cont_51_lstm1_cont_slice_50_split -> cont_51_lstm1_cont_slice_50_split_1
I1018 00:05:39.972877 29957 net.cpp:122] Setting up cont_51_lstm1_cont_slice_50_split
I1018 00:05:39.972883 29957 net.cpp:129] Top shape: 1 1 (1)
I1018 00:05:39.972889 29957 net.cpp:129] Top shape: 1 1 (1)
I1018 00:05:39.972893 29957 net.cpp:137] Memory required for data: 407480
I1018 00:05:39.972898 29957 layer_factory.hpp:77] Creating layer cont_52_lstm1_cont_slice_51_split
I1018 00:05:39.972903 29957 net.cpp:84] Creating Layer cont_52_lstm1_cont_slice_51_split
I1018 00:05:39.972908 29957 net.cpp:406] cont_52_lstm1_cont_slice_51_split <- cont_52
I1018 00:05:39.972914 29957 net.cpp:380] cont_52_lstm1_cont_slice_51_split -> cont_52_lstm1_cont_slice_51_split_0
I1018 00:05:39.972921 29957 net.cpp:380] cont_52_lstm1_cont_slice_51_split -> cont_52_lstm1_cont_slice_51_split_1
I1018 00:05:39.972954 29957 net.cpp:122] Setting up cont_52_lstm1_cont_slice_51_split
I1018 00:05:39.972960 29957 net.cpp:129] Top shape: 1 1 (1)
I1018 00:05:39.972965 29957 net.cpp:129] Top shape: 1 1 (1)
I1018 00:05:39.972970 29957 net.cpp:137] Memory required for data: 407488
I1018 00:05:39.972973 29957 layer_factory.hpp:77] Creating layer cont_53_lstm1_cont_slice_52_split
I1018 00:05:39.972980 29957 net.cpp:84] Creating Layer cont_53_lstm1_cont_slice_52_split
I1018 00:05:39.972985 29957 net.cpp:406] cont_53_lstm1_cont_slice_52_split <- cont_53
I1018 00:05:39.972991 29957 net.cpp:380] cont_53_lstm1_cont_slice_52_split -> cont_53_lstm1_cont_slice_52_split_0
I1018 00:05:39.972998 29957 net.cpp:380] cont_53_lstm1_cont_slice_52_split -> cont_53_lstm1_cont_slice_52_split_1
I1018 00:05:39.973031 29957 net.cpp:122] Setting up cont_53_lstm1_cont_slice_52_split
I1018 00:05:39.973037 29957 net.cpp:129] Top shape: 1 1 (1)
I1018 00:05:39.973043 29957 net.cpp:129] Top shape: 1 1 (1)
I1018 00:05:39.973047 29957 net.cpp:137] Memory required for data: 407496
I1018 00:05:39.973052 29957 layer_factory.hpp:77] Creating layer cont_54_lstm1_cont_slice_53_split
I1018 00:05:39.973058 29957 net.cpp:84] Creating Layer cont_54_lstm1_cont_slice_53_split
I1018 00:05:39.973062 29957 net.cpp:406] cont_54_lstm1_cont_slice_53_split <- cont_54
I1018 00:05:39.973071 29957 net.cpp:380] cont_54_lstm1_cont_slice_53_split -> cont_54_lstm1_cont_slice_53_split_0
I1018 00:05:39.973078 29957 net.cpp:380] cont_54_lstm1_cont_slice_53_split -> cont_54_lstm1_cont_slice_53_split_1
I1018 00:05:39.973109 29957 net.cpp:122] Setting up cont_54_lstm1_cont_slice_53_split
I1018 00:05:39.973115 29957 net.cpp:129] Top shape: 1 1 (1)
I1018 00:05:39.973120 29957 net.cpp:129] Top shape: 1 1 (1)
I1018 00:05:39.973124 29957 net.cpp:137] Memory required for data: 407504
I1018 00:05:39.973129 29957 layer_factory.hpp:77] Creating layer cont_55_lstm1_cont_slice_54_split
I1018 00:05:39.973137 29957 net.cpp:84] Creating Layer cont_55_lstm1_cont_slice_54_split
I1018 00:05:39.973142 29957 net.cpp:406] cont_55_lstm1_cont_slice_54_split <- cont_55
I1018 00:05:39.973148 29957 net.cpp:380] cont_55_lstm1_cont_slice_54_split -> cont_55_lstm1_cont_slice_54_split_0
I1018 00:05:39.973155 29957 net.cpp:380] cont_55_lstm1_cont_slice_54_split -> cont_55_lstm1_cont_slice_54_split_1
I1018 00:05:39.973188 29957 net.cpp:122] Setting up cont_55_lstm1_cont_slice_54_split
I1018 00:05:39.973194 29957 net.cpp:129] Top shape: 1 1 (1)
I1018 00:05:39.973199 29957 net.cpp:129] Top shape: 1 1 (1)
I1018 00:05:39.973203 29957 net.cpp:137] Memory required for data: 407512
I1018 00:05:39.973208 29957 layer_factory.hpp:77] Creating layer cont_56_lstm1_cont_slice_55_split
I1018 00:05:39.973214 29957 net.cpp:84] Creating Layer cont_56_lstm1_cont_slice_55_split
I1018 00:05:39.973218 29957 net.cpp:406] cont_56_lstm1_cont_slice_55_split <- cont_56
I1018 00:05:39.973225 29957 net.cpp:380] cont_56_lstm1_cont_slice_55_split -> cont_56_lstm1_cont_slice_55_split_0
I1018 00:05:39.973232 29957 net.cpp:380] cont_56_lstm1_cont_slice_55_split -> cont_56_lstm1_cont_slice_55_split_1
I1018 00:05:39.973264 29957 net.cpp:122] Setting up cont_56_lstm1_cont_slice_55_split
I1018 00:05:39.973270 29957 net.cpp:129] Top shape: 1 1 (1)
I1018 00:05:39.973276 29957 net.cpp:129] Top shape: 1 1 (1)
I1018 00:05:39.973280 29957 net.cpp:137] Memory required for data: 407520
I1018 00:05:39.973284 29957 layer_factory.hpp:77] Creating layer cont_57_lstm1_cont_slice_56_split
I1018 00:05:39.973295 29957 net.cpp:84] Creating Layer cont_57_lstm1_cont_slice_56_split
I1018 00:05:39.973300 29957 net.cpp:406] cont_57_lstm1_cont_slice_56_split <- cont_57
I1018 00:05:39.973306 29957 net.cpp:380] cont_57_lstm1_cont_slice_56_split -> cont_57_lstm1_cont_slice_56_split_0
I1018 00:05:39.973315 29957 net.cpp:380] cont_57_lstm1_cont_slice_56_split -> cont_57_lstm1_cont_slice_56_split_1
I1018 00:05:39.973346 29957 net.cpp:122] Setting up cont_57_lstm1_cont_slice_56_split
I1018 00:05:39.973352 29957 net.cpp:129] Top shape: 1 1 (1)
I1018 00:05:39.973357 29957 net.cpp:129] Top shape: 1 1 (1)
I1018 00:05:39.973363 29957 net.cpp:137] Memory required for data: 407528
I1018 00:05:39.973368 29957 layer_factory.hpp:77] Creating layer cont_58_lstm1_cont_slice_57_split
I1018 00:05:39.973376 29957 net.cpp:84] Creating Layer cont_58_lstm1_cont_slice_57_split
I1018 00:05:39.973381 29957 net.cpp:406] cont_58_lstm1_cont_slice_57_split <- cont_58
I1018 00:05:39.973387 29957 net.cpp:380] cont_58_lstm1_cont_slice_57_split -> cont_58_lstm1_cont_slice_57_split_0
I1018 00:05:39.973394 29957 net.cpp:380] cont_58_lstm1_cont_slice_57_split -> cont_58_lstm1_cont_slice_57_split_1
I1018 00:05:39.973428 29957 net.cpp:122] Setting up cont_58_lstm1_cont_slice_57_split
I1018 00:05:39.973433 29957 net.cpp:129] Top shape: 1 1 (1)
I1018 00:05:39.973438 29957 net.cpp:129] Top shape: 1 1 (1)
I1018 00:05:39.973443 29957 net.cpp:137] Memory required for data: 407536
I1018 00:05:39.973448 29957 layer_factory.hpp:77] Creating layer cont_59_lstm1_cont_slice_58_split
I1018 00:05:39.973453 29957 net.cpp:84] Creating Layer cont_59_lstm1_cont_slice_58_split
I1018 00:05:39.973457 29957 net.cpp:406] cont_59_lstm1_cont_slice_58_split <- cont_59
I1018 00:05:39.973464 29957 net.cpp:380] cont_59_lstm1_cont_slice_58_split -> cont_59_lstm1_cont_slice_58_split_0
I1018 00:05:39.973471 29957 net.cpp:380] cont_59_lstm1_cont_slice_58_split -> cont_59_lstm1_cont_slice_58_split_1
I1018 00:05:39.973503 29957 net.cpp:122] Setting up cont_59_lstm1_cont_slice_58_split
I1018 00:05:39.973510 29957 net.cpp:129] Top shape: 1 1 (1)
I1018 00:05:39.973515 29957 net.cpp:129] Top shape: 1 1 (1)
I1018 00:05:39.973520 29957 net.cpp:137] Memory required for data: 407544
I1018 00:05:39.973523 29957 layer_factory.hpp:77] Creating layer cont_60_lstm1_cont_slice_59_split
I1018 00:05:39.973529 29957 net.cpp:84] Creating Layer cont_60_lstm1_cont_slice_59_split
I1018 00:05:39.973534 29957 net.cpp:406] cont_60_lstm1_cont_slice_59_split <- cont_60
I1018 00:05:39.973541 29957 net.cpp:380] cont_60_lstm1_cont_slice_59_split -> cont_60_lstm1_cont_slice_59_split_0
I1018 00:05:39.973547 29957 net.cpp:380] cont_60_lstm1_cont_slice_59_split -> cont_60_lstm1_cont_slice_59_split_1
I1018 00:05:39.973580 29957 net.cpp:122] Setting up cont_60_lstm1_cont_slice_59_split
I1018 00:05:39.973587 29957 net.cpp:129] Top shape: 1 1 (1)
I1018 00:05:39.973592 29957 net.cpp:129] Top shape: 1 1 (1)
I1018 00:05:39.973597 29957 net.cpp:137] Memory required for data: 407552
I1018 00:05:39.973600 29957 layer_factory.hpp:77] Creating layer cont_61_lstm1_cont_slice_60_split
I1018 00:05:39.973606 29957 net.cpp:84] Creating Layer cont_61_lstm1_cont_slice_60_split
I1018 00:05:39.973611 29957 net.cpp:406] cont_61_lstm1_cont_slice_60_split <- cont_61
I1018 00:05:39.973620 29957 net.cpp:380] cont_61_lstm1_cont_slice_60_split -> cont_61_lstm1_cont_slice_60_split_0
I1018 00:05:39.973628 29957 net.cpp:380] cont_61_lstm1_cont_slice_60_split -> cont_61_lstm1_cont_slice_60_split_1
I1018 00:05:39.973659 29957 net.cpp:122] Setting up cont_61_lstm1_cont_slice_60_split
I1018 00:05:39.973664 29957 net.cpp:129] Top shape: 1 1 (1)
I1018 00:05:39.973670 29957 net.cpp:129] Top shape: 1 1 (1)
I1018 00:05:39.973675 29957 net.cpp:137] Memory required for data: 407560
I1018 00:05:39.973678 29957 layer_factory.hpp:77] Creating layer cont_62_lstm1_cont_slice_61_split
I1018 00:05:39.973691 29957 net.cpp:84] Creating Layer cont_62_lstm1_cont_slice_61_split
I1018 00:05:39.973696 29957 net.cpp:406] cont_62_lstm1_cont_slice_61_split <- cont_62
I1018 00:05:39.973703 29957 net.cpp:380] cont_62_lstm1_cont_slice_61_split -> cont_62_lstm1_cont_slice_61_split_0
I1018 00:05:39.973711 29957 net.cpp:380] cont_62_lstm1_cont_slice_61_split -> cont_62_lstm1_cont_slice_61_split_1
I1018 00:05:39.973744 29957 net.cpp:122] Setting up cont_62_lstm1_cont_slice_61_split
I1018 00:05:39.973750 29957 net.cpp:129] Top shape: 1 1 (1)
I1018 00:05:39.973757 29957 net.cpp:129] Top shape: 1 1 (1)
I1018 00:05:39.973760 29957 net.cpp:137] Memory required for data: 407568
I1018 00:05:39.973765 29957 layer_factory.hpp:77] Creating layer cont_63_lstm1_cont_slice_62_split
I1018 00:05:39.973770 29957 net.cpp:84] Creating Layer cont_63_lstm1_cont_slice_62_split
I1018 00:05:39.973775 29957 net.cpp:406] cont_63_lstm1_cont_slice_62_split <- cont_63
I1018 00:05:39.973784 29957 net.cpp:380] cont_63_lstm1_cont_slice_62_split -> cont_63_lstm1_cont_slice_62_split_0
I1018 00:05:39.973791 29957 net.cpp:380] cont_63_lstm1_cont_slice_62_split -> cont_63_lstm1_cont_slice_62_split_1
I1018 00:05:39.973821 29957 net.cpp:122] Setting up cont_63_lstm1_cont_slice_62_split
I1018 00:05:39.973827 29957 net.cpp:129] Top shape: 1 1 (1)
I1018 00:05:39.973832 29957 net.cpp:129] Top shape: 1 1 (1)
I1018 00:05:39.973836 29957 net.cpp:137] Memory required for data: 407576
I1018 00:05:39.973841 29957 layer_factory.hpp:77] Creating layer cont_64_lstm1_cont_slice_63_split
I1018 00:05:39.973850 29957 net.cpp:84] Creating Layer cont_64_lstm1_cont_slice_63_split
I1018 00:05:39.973855 29957 net.cpp:406] cont_64_lstm1_cont_slice_63_split <- cont_64
I1018 00:05:39.973860 29957 net.cpp:380] cont_64_lstm1_cont_slice_63_split -> cont_64_lstm1_cont_slice_63_split_0
I1018 00:05:39.973867 29957 net.cpp:380] cont_64_lstm1_cont_slice_63_split -> cont_64_lstm1_cont_slice_63_split_1
I1018 00:05:39.973901 29957 net.cpp:122] Setting up cont_64_lstm1_cont_slice_63_split
I1018 00:05:39.973906 29957 net.cpp:129] Top shape: 1 1 (1)
I1018 00:05:39.973912 29957 net.cpp:129] Top shape: 1 1 (1)
I1018 00:05:39.973917 29957 net.cpp:137] Memory required for data: 407584
I1018 00:05:39.973920 29957 layer_factory.hpp:77] Creating layer cont_65_lstm1_cont_slice_64_split
I1018 00:05:39.973925 29957 net.cpp:84] Creating Layer cont_65_lstm1_cont_slice_64_split
I1018 00:05:39.973930 29957 net.cpp:406] cont_65_lstm1_cont_slice_64_split <- cont_65
I1018 00:05:39.973937 29957 net.cpp:380] cont_65_lstm1_cont_slice_64_split -> cont_65_lstm1_cont_slice_64_split_0
I1018 00:05:39.973943 29957 net.cpp:380] cont_65_lstm1_cont_slice_64_split -> cont_65_lstm1_cont_slice_64_split_1
I1018 00:05:39.973979 29957 net.cpp:122] Setting up cont_65_lstm1_cont_slice_64_split
I1018 00:05:39.973985 29957 net.cpp:129] Top shape: 1 1 (1)
I1018 00:05:39.973990 29957 net.cpp:129] Top shape: 1 1 (1)
I1018 00:05:39.973995 29957 net.cpp:137] Memory required for data: 407592
I1018 00:05:39.973999 29957 layer_factory.hpp:77] Creating layer cont_66_lstm1_cont_slice_65_split
I1018 00:05:39.974005 29957 net.cpp:84] Creating Layer cont_66_lstm1_cont_slice_65_split
I1018 00:05:39.974010 29957 net.cpp:406] cont_66_lstm1_cont_slice_65_split <- cont_66
I1018 00:05:39.974016 29957 net.cpp:380] cont_66_lstm1_cont_slice_65_split -> cont_66_lstm1_cont_slice_65_split_0
I1018 00:05:39.974023 29957 net.cpp:380] cont_66_lstm1_cont_slice_65_split -> cont_66_lstm1_cont_slice_65_split_1
I1018 00:05:39.974246 29957 net.cpp:122] Setting up cont_66_lstm1_cont_slice_65_split
I1018 00:05:39.974401 29957 net.cpp:129] Top shape: 1 1 (1)
I1018 00:05:39.974460 29957 net.cpp:129] Top shape: 1 1 (1)
I1018 00:05:39.974474 29957 net.cpp:137] Memory required for data: 407600
I1018 00:05:39.974512 29957 layer_factory.hpp:77] Creating layer cont_67_lstm1_cont_slice_66_split
I1018 00:05:39.974601 29957 net.cpp:84] Creating Layer cont_67_lstm1_cont_slice_66_split
I1018 00:05:39.974650 29957 net.cpp:406] cont_67_lstm1_cont_slice_66_split <- cont_67
I1018 00:05:39.974808 29957 net.cpp:380] cont_67_lstm1_cont_slice_66_split -> cont_67_lstm1_cont_slice_66_split_0
I1018 00:05:39.974903 29957 net.cpp:380] cont_67_lstm1_cont_slice_66_split -> cont_67_lstm1_cont_slice_66_split_1
I1018 00:05:39.975318 29957 net.cpp:122] Setting up cont_67_lstm1_cont_slice_66_split
I1018 00:05:39.975425 29957 net.cpp:129] Top shape: 1 1 (1)
I1018 00:05:39.975430 29957 net.cpp:129] Top shape: 1 1 (1)
I1018 00:05:39.975433 29957 net.cpp:137] Memory required for data: 407608
I1018 00:05:39.975437 29957 layer_factory.hpp:77] Creating layer cont_68_lstm1_cont_slice_67_split
I1018 00:05:39.975451 29957 net.cpp:84] Creating Layer cont_68_lstm1_cont_slice_67_split
I1018 00:05:39.975456 29957 net.cpp:406] cont_68_lstm1_cont_slice_67_split <- cont_68
I1018 00:05:39.975462 29957 net.cpp:380] cont_68_lstm1_cont_slice_67_split -> cont_68_lstm1_cont_slice_67_split_0
I1018 00:05:39.975469 29957 net.cpp:380] cont_68_lstm1_cont_slice_67_split -> cont_68_lstm1_cont_slice_67_split_1
I1018 00:05:39.975502 29957 net.cpp:122] Setting up cont_68_lstm1_cont_slice_67_split
I1018 00:05:39.975509 29957 net.cpp:129] Top shape: 1 1 (1)
I1018 00:05:39.975514 29957 net.cpp:129] Top shape: 1 1 (1)
I1018 00:05:39.975518 29957 net.cpp:137] Memory required for data: 407616
I1018 00:05:39.975522 29957 layer_factory.hpp:77] Creating layer cont_69_lstm1_cont_slice_68_split
I1018 00:05:39.975528 29957 net.cpp:84] Creating Layer cont_69_lstm1_cont_slice_68_split
I1018 00:05:39.975533 29957 net.cpp:406] cont_69_lstm1_cont_slice_68_split <- cont_69
I1018 00:05:39.975539 29957 net.cpp:380] cont_69_lstm1_cont_slice_68_split -> cont_69_lstm1_cont_slice_68_split_0
I1018 00:05:39.975548 29957 net.cpp:380] cont_69_lstm1_cont_slice_68_split -> cont_69_lstm1_cont_slice_68_split_1
I1018 00:05:39.975750 29957 net.cpp:122] Setting up cont_69_lstm1_cont_slice_68_split
I1018 00:05:39.975895 29957 net.cpp:129] Top shape: 1 1 (1)
I1018 00:05:39.975946 29957 net.cpp:129] Top shape: 1 1 (1)
I1018 00:05:39.975971 29957 net.cpp:137] Memory required for data: 407624
I1018 00:05:39.976014 29957 layer_factory.hpp:77] Creating layer cont_70_lstm1_cont_slice_69_split
I1018 00:05:39.976063 29957 net.cpp:84] Creating Layer cont_70_lstm1_cont_slice_69_split
I1018 00:05:39.976068 29957 net.cpp:406] cont_70_lstm1_cont_slice_69_split <- cont_70
I1018 00:05:39.976107 29957 net.cpp:380] cont_70_lstm1_cont_slice_69_split -> cont_70_lstm1_cont_slice_69_split_0
I1018 00:05:39.976125 29957 net.cpp:380] cont_70_lstm1_cont_slice_69_split -> cont_70_lstm1_cont_slice_69_split_1
I1018 00:05:39.976611 29957 net.cpp:122] Setting up cont_70_lstm1_cont_slice_69_split
I1018 00:05:39.976755 29957 net.cpp:129] Top shape: 1 1 (1)
I1018 00:05:39.976799 29957 net.cpp:129] Top shape: 1 1 (1)
I1018 00:05:39.976848 29957 net.cpp:137] Memory required for data: 407632
I1018 00:05:39.976879 29957 layer_factory.hpp:77] Creating layer cont_71_lstm1_cont_slice_70_split
I1018 00:05:39.976955 29957 net.cpp:84] Creating Layer cont_71_lstm1_cont_slice_70_split
I1018 00:05:39.976960 29957 net.cpp:406] cont_71_lstm1_cont_slice_70_split <- cont_71
I1018 00:05:39.976966 29957 net.cpp:380] cont_71_lstm1_cont_slice_70_split -> cont_71_lstm1_cont_slice_70_split_0
I1018 00:05:39.976974 29957 net.cpp:380] cont_71_lstm1_cont_slice_70_split -> cont_71_lstm1_cont_slice_70_split_1
I1018 00:05:39.977007 29957 net.cpp:122] Setting up cont_71_lstm1_cont_slice_70_split
I1018 00:05:39.977015 29957 net.cpp:129] Top shape: 1 1 (1)
I1018 00:05:39.977020 29957 net.cpp:129] Top shape: 1 1 (1)
I1018 00:05:39.977025 29957 net.cpp:137] Memory required for data: 407640
I1018 00:05:39.977028 29957 layer_factory.hpp:77] Creating layer cont_72_lstm1_cont_slice_71_split
I1018 00:05:39.977033 29957 net.cpp:84] Creating Layer cont_72_lstm1_cont_slice_71_split
I1018 00:05:39.977038 29957 net.cpp:406] cont_72_lstm1_cont_slice_71_split <- cont_72
I1018 00:05:39.977046 29957 net.cpp:380] cont_72_lstm1_cont_slice_71_split -> cont_72_lstm1_cont_slice_71_split_0
I1018 00:05:39.977052 29957 net.cpp:380] cont_72_lstm1_cont_slice_71_split -> cont_72_lstm1_cont_slice_71_split_1
I1018 00:05:39.977085 29957 net.cpp:122] Setting up cont_72_lstm1_cont_slice_71_split
I1018 00:05:39.977092 29957 net.cpp:129] Top shape: 1 1 (1)
I1018 00:05:39.977097 29957 net.cpp:129] Top shape: 1 1 (1)
I1018 00:05:39.977102 29957 net.cpp:137] Memory required for data: 407648
I1018 00:05:39.977105 29957 layer_factory.hpp:77] Creating layer cont_73_lstm1_cont_slice_72_split
I1018 00:05:39.977111 29957 net.cpp:84] Creating Layer cont_73_lstm1_cont_slice_72_split
I1018 00:05:39.977116 29957 net.cpp:406] cont_73_lstm1_cont_slice_72_split <- cont_73
I1018 00:05:39.977123 29957 net.cpp:380] cont_73_lstm1_cont_slice_72_split -> cont_73_lstm1_cont_slice_72_split_0
I1018 00:05:39.977129 29957 net.cpp:380] cont_73_lstm1_cont_slice_72_split -> cont_73_lstm1_cont_slice_72_split_1
I1018 00:05:39.977165 29957 net.cpp:122] Setting up cont_73_lstm1_cont_slice_72_split
I1018 00:05:39.977171 29957 net.cpp:129] Top shape: 1 1 (1)
I1018 00:05:39.977177 29957 net.cpp:129] Top shape: 1 1 (1)
I1018 00:05:39.977181 29957 net.cpp:137] Memory required for data: 407656
I1018 00:05:39.977185 29957 layer_factory.hpp:77] Creating layer cont_74_lstm1_cont_slice_73_split
I1018 00:05:39.977191 29957 net.cpp:84] Creating Layer cont_74_lstm1_cont_slice_73_split
I1018 00:05:39.977210 29957 net.cpp:406] cont_74_lstm1_cont_slice_73_split <- cont_74
I1018 00:05:39.977311 29957 net.cpp:380] cont_74_lstm1_cont_slice_73_split -> cont_74_lstm1_cont_slice_73_split_0
I1018 00:05:39.977422 29957 net.cpp:380] cont_74_lstm1_cont_slice_73_split -> cont_74_lstm1_cont_slice_73_split_1
I1018 00:05:39.977862 29957 net.cpp:122] Setting up cont_74_lstm1_cont_slice_73_split
I1018 00:05:39.978019 29957 net.cpp:129] Top shape: 1 1 (1)
I1018 00:05:39.978067 29957 net.cpp:129] Top shape: 1 1 (1)
I1018 00:05:39.978106 29957 net.cpp:137] Memory required for data: 407664
I1018 00:05:39.978153 29957 layer_factory.hpp:77] Creating layer cont_75_lstm1_cont_slice_74_split
I1018 00:05:39.978255 29957 net.cpp:84] Creating Layer cont_75_lstm1_cont_slice_74_split
I1018 00:05:39.978320 29957 net.cpp:406] cont_75_lstm1_cont_slice_74_split <- cont_75
I1018 00:05:39.978384 29957 net.cpp:380] cont_75_lstm1_cont_slice_74_split -> cont_75_lstm1_cont_slice_74_split_0
I1018 00:05:39.978444 29957 net.cpp:380] cont_75_lstm1_cont_slice_74_split -> cont_75_lstm1_cont_slice_74_split_1
I1018 00:05:39.978581 29957 net.cpp:122] Setting up cont_75_lstm1_cont_slice_74_split
I1018 00:05:39.978588 29957 net.cpp:129] Top shape: 1 1 (1)
I1018 00:05:39.978596 29957 net.cpp:129] Top shape: 1 1 (1)
I1018 00:05:39.978603 29957 net.cpp:137] Memory required for data: 407672
I1018 00:05:39.978610 29957 layer_factory.hpp:77] Creating layer cont_76_lstm1_cont_slice_75_split
I1018 00:05:39.978616 29957 net.cpp:84] Creating Layer cont_76_lstm1_cont_slice_75_split
I1018 00:05:39.978621 29957 net.cpp:406] cont_76_lstm1_cont_slice_75_split <- cont_76
I1018 00:05:39.978628 29957 net.cpp:380] cont_76_lstm1_cont_slice_75_split -> cont_76_lstm1_cont_slice_75_split_0
I1018 00:05:39.978636 29957 net.cpp:380] cont_76_lstm1_cont_slice_75_split -> cont_76_lstm1_cont_slice_75_split_1
I1018 00:05:39.978672 29957 net.cpp:122] Setting up cont_76_lstm1_cont_slice_75_split
I1018 00:05:39.978678 29957 net.cpp:129] Top shape: 1 1 (1)
I1018 00:05:39.978683 29957 net.cpp:129] Top shape: 1 1 (1)
I1018 00:05:39.978688 29957 net.cpp:137] Memory required for data: 407680
I1018 00:05:39.978693 29957 layer_factory.hpp:77] Creating layer cont_77_lstm1_cont_slice_76_split
I1018 00:05:39.978698 29957 net.cpp:84] Creating Layer cont_77_lstm1_cont_slice_76_split
I1018 00:05:39.978751 29957 net.cpp:406] cont_77_lstm1_cont_slice_76_split <- cont_77
I1018 00:05:39.978830 29957 net.cpp:380] cont_77_lstm1_cont_slice_76_split -> cont_77_lstm1_cont_slice_76_split_0
I1018 00:05:39.978961 29957 net.cpp:380] cont_77_lstm1_cont_slice_76_split -> cont_77_lstm1_cont_slice_76_split_1
I1018 00:05:39.979463 29957 net.cpp:122] Setting up cont_77_lstm1_cont_slice_76_split
I1018 00:05:39.979583 29957 net.cpp:129] Top shape: 1 1 (1)
I1018 00:05:39.979658 29957 net.cpp:129] Top shape: 1 1 (1)
I1018 00:05:39.979698 29957 net.cpp:137] Memory required for data: 407688
I1018 00:05:39.979753 29957 layer_factory.hpp:77] Creating layer cont_78_lstm1_cont_slice_77_split
I1018 00:05:39.979907 29957 net.cpp:84] Creating Layer cont_78_lstm1_cont_slice_77_split
I1018 00:05:39.979971 29957 net.cpp:406] cont_78_lstm1_cont_slice_77_split <- cont_78
I1018 00:05:39.980054 29957 net.cpp:380] cont_78_lstm1_cont_slice_77_split -> cont_78_lstm1_cont_slice_77_split_0
I1018 00:05:39.980062 29957 net.cpp:380] cont_78_lstm1_cont_slice_77_split -> cont_78_lstm1_cont_slice_77_split_1
I1018 00:05:39.980104 29957 net.cpp:122] Setting up cont_78_lstm1_cont_slice_77_split
I1018 00:05:39.980111 29957 net.cpp:129] Top shape: 1 1 (1)
I1018 00:05:39.980116 29957 net.cpp:129] Top shape: 1 1 (1)
I1018 00:05:39.980120 29957 net.cpp:137] Memory required for data: 407696
I1018 00:05:39.980125 29957 layer_factory.hpp:77] Creating layer cont_79_lstm1_cont_slice_78_split
I1018 00:05:39.980130 29957 net.cpp:84] Creating Layer cont_79_lstm1_cont_slice_78_split
I1018 00:05:39.980135 29957 net.cpp:406] cont_79_lstm1_cont_slice_78_split <- cont_79
I1018 00:05:39.980141 29957 net.cpp:380] cont_79_lstm1_cont_slice_78_split -> cont_79_lstm1_cont_slice_78_split_0
I1018 00:05:39.980149 29957 net.cpp:380] cont_79_lstm1_cont_slice_78_split -> cont_79_lstm1_cont_slice_78_split_1
I1018 00:05:39.980183 29957 net.cpp:122] Setting up cont_79_lstm1_cont_slice_78_split
I1018 00:05:39.980190 29957 net.cpp:129] Top shape: 1 1 (1)
I1018 00:05:39.980195 29957 net.cpp:129] Top shape: 1 1 (1)
I1018 00:05:39.980198 29957 net.cpp:137] Memory required for data: 407704
I1018 00:05:39.980203 29957 layer_factory.hpp:77] Creating layer cont_80_lstm1_cont_slice_79_split
I1018 00:05:39.980208 29957 net.cpp:84] Creating Layer cont_80_lstm1_cont_slice_79_split
I1018 00:05:39.980213 29957 net.cpp:406] cont_80_lstm1_cont_slice_79_split <- cont_80
I1018 00:05:39.980219 29957 net.cpp:380] cont_80_lstm1_cont_slice_79_split -> cont_80_lstm1_cont_slice_79_split_0
I1018 00:05:39.980285 29957 net.cpp:380] cont_80_lstm1_cont_slice_79_split -> cont_80_lstm1_cont_slice_79_split_1
I1018 00:05:39.980742 29957 net.cpp:122] Setting up cont_80_lstm1_cont_slice_79_split
I1018 00:05:39.980868 29957 net.cpp:129] Top shape: 1 1 (1)
I1018 00:05:39.980923 29957 net.cpp:129] Top shape: 1 1 (1)
I1018 00:05:39.980954 29957 net.cpp:137] Memory required for data: 407712
I1018 00:05:39.980975 29957 layer_factory.hpp:77] Creating layer cont_81_lstm1_cont_slice_80_split
I1018 00:05:39.981089 29957 net.cpp:84] Creating Layer cont_81_lstm1_cont_slice_80_split
I1018 00:05:39.981143 29957 net.cpp:406] cont_81_lstm1_cont_slice_80_split <- cont_81
I1018 00:05:39.981256 29957 net.cpp:380] cont_81_lstm1_cont_slice_80_split -> cont_81_lstm1_cont_slice_80_split_0
I1018 00:05:39.981335 29957 net.cpp:380] cont_81_lstm1_cont_slice_80_split -> cont_81_lstm1_cont_slice_80_split_1
I1018 00:05:39.981614 29957 net.cpp:122] Setting up cont_81_lstm1_cont_slice_80_split
I1018 00:05:39.981621 29957 net.cpp:129] Top shape: 1 1 (1)
I1018 00:05:39.981626 29957 net.cpp:129] Top shape: 1 1 (1)
I1018 00:05:39.981631 29957 net.cpp:137] Memory required for data: 407720
I1018 00:05:39.981634 29957 layer_factory.hpp:77] Creating layer cont_82_lstm1_cont_slice_81_split
I1018 00:05:39.981642 29957 net.cpp:84] Creating Layer cont_82_lstm1_cont_slice_81_split
I1018 00:05:39.981647 29957 net.cpp:406] cont_82_lstm1_cont_slice_81_split <- cont_82
I1018 00:05:39.981653 29957 net.cpp:380] cont_82_lstm1_cont_slice_81_split -> cont_82_lstm1_cont_slice_81_split_0
I1018 00:05:39.981660 29957 net.cpp:380] cont_82_lstm1_cont_slice_81_split -> cont_82_lstm1_cont_slice_81_split_1
I1018 00:05:39.981694 29957 net.cpp:122] Setting up cont_82_lstm1_cont_slice_81_split
I1018 00:05:39.981701 29957 net.cpp:129] Top shape: 1 1 (1)
I1018 00:05:39.981706 29957 net.cpp:129] Top shape: 1 1 (1)
I1018 00:05:39.981710 29957 net.cpp:137] Memory required for data: 407728
I1018 00:05:39.981715 29957 layer_factory.hpp:77] Creating layer cont_83_lstm1_cont_slice_82_split
I1018 00:05:39.981720 29957 net.cpp:84] Creating Layer cont_83_lstm1_cont_slice_82_split
I1018 00:05:39.981747 29957 net.cpp:406] cont_83_lstm1_cont_slice_82_split <- cont_83
I1018 00:05:39.981838 29957 net.cpp:380] cont_83_lstm1_cont_slice_82_split -> cont_83_lstm1_cont_slice_82_split_0
I1018 00:05:39.981917 29957 net.cpp:380] cont_83_lstm1_cont_slice_82_split -> cont_83_lstm1_cont_slice_82_split_1
I1018 00:05:39.982249 29957 net.cpp:122] Setting up cont_83_lstm1_cont_slice_82_split
I1018 00:05:39.982333 29957 net.cpp:129] Top shape: 1 1 (1)
I1018 00:05:39.982373 29957 net.cpp:129] Top shape: 1 1 (1)
I1018 00:05:39.982400 29957 net.cpp:137] Memory required for data: 407736
I1018 00:05:39.982440 29957 layer_factory.hpp:77] Creating layer cont_84_lstm1_cont_slice_83_split
I1018 00:05:39.982533 29957 net.cpp:84] Creating Layer cont_84_lstm1_cont_slice_83_split
I1018 00:05:39.982575 29957 net.cpp:406] cont_84_lstm1_cont_slice_83_split <- cont_84
I1018 00:05:39.982677 29957 net.cpp:380] cont_84_lstm1_cont_slice_83_split -> cont_84_lstm1_cont_slice_83_split_0
I1018 00:05:39.982736 29957 net.cpp:380] cont_84_lstm1_cont_slice_83_split -> cont_84_lstm1_cont_slice_83_split_1
I1018 00:05:39.983042 29957 net.cpp:122] Setting up cont_84_lstm1_cont_slice_83_split
I1018 00:05:39.983106 29957 net.cpp:129] Top shape: 1 1 (1)
I1018 00:05:39.983111 29957 net.cpp:129] Top shape: 1 1 (1)
I1018 00:05:39.983115 29957 net.cpp:137] Memory required for data: 407744
I1018 00:05:39.983120 29957 layer_factory.hpp:77] Creating layer cont_85_lstm1_cont_slice_84_split
I1018 00:05:39.983126 29957 net.cpp:84] Creating Layer cont_85_lstm1_cont_slice_84_split
I1018 00:05:39.983131 29957 net.cpp:406] cont_85_lstm1_cont_slice_84_split <- cont_85
I1018 00:05:39.983139 29957 net.cpp:380] cont_85_lstm1_cont_slice_84_split -> cont_85_lstm1_cont_slice_84_split_0
I1018 00:05:39.983146 29957 net.cpp:380] cont_85_lstm1_cont_slice_84_split -> cont_85_lstm1_cont_slice_84_split_1
I1018 00:05:39.983180 29957 net.cpp:122] Setting up cont_85_lstm1_cont_slice_84_split
I1018 00:05:39.983186 29957 net.cpp:129] Top shape: 1 1 (1)
I1018 00:05:39.983191 29957 net.cpp:129] Top shape: 1 1 (1)
I1018 00:05:39.983196 29957 net.cpp:137] Memory required for data: 407752
I1018 00:05:39.983199 29957 layer_factory.hpp:77] Creating layer cont_86_lstm1_cont_slice_85_split
I1018 00:05:39.983206 29957 net.cpp:84] Creating Layer cont_86_lstm1_cont_slice_85_split
I1018 00:05:39.983211 29957 net.cpp:406] cont_86_lstm1_cont_slice_85_split <- cont_86
I1018 00:05:39.983217 29957 net.cpp:380] cont_86_lstm1_cont_slice_85_split -> cont_86_lstm1_cont_slice_85_split_0
I1018 00:05:39.983223 29957 net.cpp:380] cont_86_lstm1_cont_slice_85_split -> cont_86_lstm1_cont_slice_85_split_1
I1018 00:05:39.983256 29957 net.cpp:122] Setting up cont_86_lstm1_cont_slice_85_split
I1018 00:05:39.983263 29957 net.cpp:129] Top shape: 1 1 (1)
I1018 00:05:39.983273 29957 net.cpp:129] Top shape: 1 1 (1)
I1018 00:05:39.983297 29957 net.cpp:137] Memory required for data: 407760
I1018 00:05:39.983335 29957 layer_factory.hpp:77] Creating layer cont_87_lstm1_cont_slice_86_split
I1018 00:05:39.983378 29957 net.cpp:84] Creating Layer cont_87_lstm1_cont_slice_86_split
I1018 00:05:39.983422 29957 net.cpp:406] cont_87_lstm1_cont_slice_86_split <- cont_87
I1018 00:05:39.983526 29957 net.cpp:380] cont_87_lstm1_cont_slice_86_split -> cont_87_lstm1_cont_slice_86_split_0
I1018 00:05:39.983619 29957 net.cpp:380] cont_87_lstm1_cont_slice_86_split -> cont_87_lstm1_cont_slice_86_split_1
I1018 00:05:39.983961 29957 net.cpp:122] Setting up cont_87_lstm1_cont_slice_86_split
I1018 00:05:39.984025 29957 net.cpp:129] Top shape: 1 1 (1)
I1018 00:05:39.984055 29957 net.cpp:129] Top shape: 1 1 (1)
I1018 00:05:39.984081 29957 net.cpp:137] Memory required for data: 407768
I1018 00:05:39.984113 29957 layer_factory.hpp:77] Creating layer cont_88_lstm1_cont_slice_87_split
I1018 00:05:39.984189 29957 net.cpp:84] Creating Layer cont_88_lstm1_cont_slice_87_split
I1018 00:05:39.984236 29957 net.cpp:406] cont_88_lstm1_cont_slice_87_split <- cont_88
I1018 00:05:39.984377 29957 net.cpp:380] cont_88_lstm1_cont_slice_87_split -> cont_88_lstm1_cont_slice_87_split_0
I1018 00:05:39.984491 29957 net.cpp:380] cont_88_lstm1_cont_slice_87_split -> cont_88_lstm1_cont_slice_87_split_1
I1018 00:05:39.984673 29957 net.cpp:122] Setting up cont_88_lstm1_cont_slice_87_split
I1018 00:05:39.984679 29957 net.cpp:129] Top shape: 1 1 (1)
I1018 00:05:39.984684 29957 net.cpp:129] Top shape: 1 1 (1)
I1018 00:05:39.984689 29957 net.cpp:137] Memory required for data: 407776
I1018 00:05:39.984694 29957 layer_factory.hpp:77] Creating layer cont_89_lstm1_cont_slice_88_split
I1018 00:05:39.984701 29957 net.cpp:84] Creating Layer cont_89_lstm1_cont_slice_88_split
I1018 00:05:39.984706 29957 net.cpp:406] cont_89_lstm1_cont_slice_88_split <- cont_89
I1018 00:05:39.984712 29957 net.cpp:380] cont_89_lstm1_cont_slice_88_split -> cont_89_lstm1_cont_slice_88_split_0
I1018 00:05:39.984719 29957 net.cpp:380] cont_89_lstm1_cont_slice_88_split -> cont_89_lstm1_cont_slice_88_split_1
I1018 00:05:39.984753 29957 net.cpp:122] Setting up cont_89_lstm1_cont_slice_88_split
I1018 00:05:39.984760 29957 net.cpp:129] Top shape: 1 1 (1)
I1018 00:05:39.984764 29957 net.cpp:129] Top shape: 1 1 (1)
I1018 00:05:39.984769 29957 net.cpp:137] Memory required for data: 407784
I1018 00:05:39.984774 29957 layer_factory.hpp:77] Creating layer cont_90_lstm1_cont_slice_89_split
I1018 00:05:39.984779 29957 net.cpp:84] Creating Layer cont_90_lstm1_cont_slice_89_split
I1018 00:05:39.984784 29957 net.cpp:406] cont_90_lstm1_cont_slice_89_split <- cont_90
I1018 00:05:39.984791 29957 net.cpp:380] cont_90_lstm1_cont_slice_89_split -> cont_90_lstm1_cont_slice_89_split_0
I1018 00:05:39.984863 29957 net.cpp:380] cont_90_lstm1_cont_slice_89_split -> cont_90_lstm1_cont_slice_89_split_1
I1018 00:05:39.985131 29957 net.cpp:122] Setting up cont_90_lstm1_cont_slice_89_split
I1018 00:05:39.985219 29957 net.cpp:129] Top shape: 1 1 (1)
I1018 00:05:39.985255 29957 net.cpp:129] Top shape: 1 1 (1)
I1018 00:05:39.985278 29957 net.cpp:137] Memory required for data: 407792
I1018 00:05:39.985306 29957 layer_factory.hpp:77] Creating layer cont_91_lstm1_cont_slice_90_split
I1018 00:05:39.985369 29957 net.cpp:84] Creating Layer cont_91_lstm1_cont_slice_90_split
I1018 00:05:39.985409 29957 net.cpp:406] cont_91_lstm1_cont_slice_90_split <- cont_91
I1018 00:05:39.985481 29957 net.cpp:380] cont_91_lstm1_cont_slice_90_split -> cont_91_lstm1_cont_slice_90_split_0
I1018 00:05:39.985601 29957 net.cpp:380] cont_91_lstm1_cont_slice_90_split -> cont_91_lstm1_cont_slice_90_split_1
I1018 00:05:39.986088 29957 net.cpp:122] Setting up cont_91_lstm1_cont_slice_90_split
I1018 00:05:39.986186 29957 net.cpp:129] Top shape: 1 1 (1)
I1018 00:05:39.986192 29957 net.cpp:129] Top shape: 1 1 (1)
I1018 00:05:39.986196 29957 net.cpp:137] Memory required for data: 407800
I1018 00:05:39.986201 29957 layer_factory.hpp:77] Creating layer cont_92_lstm1_cont_slice_91_split
I1018 00:05:39.986207 29957 net.cpp:84] Creating Layer cont_92_lstm1_cont_slice_91_split
I1018 00:05:39.986212 29957 net.cpp:406] cont_92_lstm1_cont_slice_91_split <- cont_92
I1018 00:05:39.986219 29957 net.cpp:380] cont_92_lstm1_cont_slice_91_split -> cont_92_lstm1_cont_slice_91_split_0
I1018 00:05:39.986227 29957 net.cpp:380] cont_92_lstm1_cont_slice_91_split -> cont_92_lstm1_cont_slice_91_split_1
I1018 00:05:39.986259 29957 net.cpp:122] Setting up cont_92_lstm1_cont_slice_91_split
I1018 00:05:39.986265 29957 net.cpp:129] Top shape: 1 1 (1)
I1018 00:05:39.986270 29957 net.cpp:129] Top shape: 1 1 (1)
I1018 00:05:39.986275 29957 net.cpp:137] Memory required for data: 407808
I1018 00:05:39.986279 29957 layer_factory.hpp:77] Creating layer cont_93_lstm1_cont_slice_92_split
I1018 00:05:39.986287 29957 net.cpp:84] Creating Layer cont_93_lstm1_cont_slice_92_split
I1018 00:05:39.986292 29957 net.cpp:406] cont_93_lstm1_cont_slice_92_split <- cont_93
I1018 00:05:39.986299 29957 net.cpp:380] cont_93_lstm1_cont_slice_92_split -> cont_93_lstm1_cont_slice_92_split_0
I1018 00:05:39.986305 29957 net.cpp:380] cont_93_lstm1_cont_slice_92_split -> cont_93_lstm1_cont_slice_92_split_1
I1018 00:05:39.986340 29957 net.cpp:122] Setting up cont_93_lstm1_cont_slice_92_split
I1018 00:05:39.986346 29957 net.cpp:129] Top shape: 1 1 (1)
I1018 00:05:39.986351 29957 net.cpp:129] Top shape: 1 1 (1)
I1018 00:05:39.986356 29957 net.cpp:137] Memory required for data: 407816
I1018 00:05:39.986361 29957 layer_factory.hpp:77] Creating layer cont_94_lstm1_cont_slice_93_split
I1018 00:05:39.986366 29957 net.cpp:84] Creating Layer cont_94_lstm1_cont_slice_93_split
I1018 00:05:39.986371 29957 net.cpp:406] cont_94_lstm1_cont_slice_93_split <- cont_94
I1018 00:05:39.986377 29957 net.cpp:380] cont_94_lstm1_cont_slice_93_split -> cont_94_lstm1_cont_slice_93_split_0
I1018 00:05:39.986383 29957 net.cpp:380] cont_94_lstm1_cont_slice_93_split -> cont_94_lstm1_cont_slice_93_split_1
I1018 00:05:39.986418 29957 net.cpp:122] Setting up cont_94_lstm1_cont_slice_93_split
I1018 00:05:39.986423 29957 net.cpp:129] Top shape: 1 1 (1)
I1018 00:05:39.986428 29957 net.cpp:129] Top shape: 1 1 (1)
I1018 00:05:39.986433 29957 net.cpp:137] Memory required for data: 407824
I1018 00:05:39.986438 29957 layer_factory.hpp:77] Creating layer cont_95_lstm1_cont_slice_94_split
I1018 00:05:39.986443 29957 net.cpp:84] Creating Layer cont_95_lstm1_cont_slice_94_split
I1018 00:05:39.986448 29957 net.cpp:406] cont_95_lstm1_cont_slice_94_split <- cont_95
I1018 00:05:39.986456 29957 net.cpp:380] cont_95_lstm1_cont_slice_94_split -> cont_95_lstm1_cont_slice_94_split_0
I1018 00:05:39.986464 29957 net.cpp:380] cont_95_lstm1_cont_slice_94_split -> cont_95_lstm1_cont_slice_94_split_1
I1018 00:05:39.986495 29957 net.cpp:122] Setting up cont_95_lstm1_cont_slice_94_split
I1018 00:05:39.986500 29957 net.cpp:129] Top shape: 1 1 (1)
I1018 00:05:39.986505 29957 net.cpp:129] Top shape: 1 1 (1)
I1018 00:05:39.986510 29957 net.cpp:137] Memory required for data: 407832
I1018 00:05:39.986515 29957 layer_factory.hpp:77] Creating layer cont_96_lstm1_cont_slice_95_split
I1018 00:05:39.986522 29957 net.cpp:84] Creating Layer cont_96_lstm1_cont_slice_95_split
I1018 00:05:39.986527 29957 net.cpp:406] cont_96_lstm1_cont_slice_95_split <- cont_96
I1018 00:05:39.986533 29957 net.cpp:380] cont_96_lstm1_cont_slice_95_split -> cont_96_lstm1_cont_slice_95_split_0
I1018 00:05:39.986541 29957 net.cpp:380] cont_96_lstm1_cont_slice_95_split -> cont_96_lstm1_cont_slice_95_split_1
I1018 00:05:39.986573 29957 net.cpp:122] Setting up cont_96_lstm1_cont_slice_95_split
I1018 00:05:39.986580 29957 net.cpp:129] Top shape: 1 1 (1)
I1018 00:05:39.986585 29957 net.cpp:129] Top shape: 1 1 (1)
I1018 00:05:39.986589 29957 net.cpp:137] Memory required for data: 407840
I1018 00:05:39.986593 29957 layer_factory.hpp:77] Creating layer cont_97_lstm1_cont_slice_96_split
I1018 00:05:39.986599 29957 net.cpp:84] Creating Layer cont_97_lstm1_cont_slice_96_split
I1018 00:05:39.986604 29957 net.cpp:406] cont_97_lstm1_cont_slice_96_split <- cont_97
I1018 00:05:39.986610 29957 net.cpp:380] cont_97_lstm1_cont_slice_96_split -> cont_97_lstm1_cont_slice_96_split_0
I1018 00:05:39.986618 29957 net.cpp:380] cont_97_lstm1_cont_slice_96_split -> cont_97_lstm1_cont_slice_96_split_1
I1018 00:05:39.986654 29957 net.cpp:122] Setting up cont_97_lstm1_cont_slice_96_split
I1018 00:05:39.986660 29957 net.cpp:129] Top shape: 1 1 (1)
I1018 00:05:39.986666 29957 net.cpp:129] Top shape: 1 1 (1)
I1018 00:05:39.986670 29957 net.cpp:137] Memory required for data: 407848
I1018 00:05:39.986675 29957 layer_factory.hpp:77] Creating layer cont_98_lstm1_cont_slice_97_split
I1018 00:05:39.986680 29957 net.cpp:84] Creating Layer cont_98_lstm1_cont_slice_97_split
I1018 00:05:39.986685 29957 net.cpp:406] cont_98_lstm1_cont_slice_97_split <- cont_98
I1018 00:05:39.986690 29957 net.cpp:380] cont_98_lstm1_cont_slice_97_split -> cont_98_lstm1_cont_slice_97_split_0
I1018 00:05:39.986698 29957 net.cpp:380] cont_98_lstm1_cont_slice_97_split -> cont_98_lstm1_cont_slice_97_split_1
I1018 00:05:39.986732 29957 net.cpp:122] Setting up cont_98_lstm1_cont_slice_97_split
I1018 00:05:39.986738 29957 net.cpp:129] Top shape: 1 1 (1)
I1018 00:05:39.986743 29957 net.cpp:129] Top shape: 1 1 (1)
I1018 00:05:39.986748 29957 net.cpp:137] Memory required for data: 407856
I1018 00:05:39.986752 29957 layer_factory.hpp:77] Creating layer cont_99_lstm1_cont_slice_98_split
I1018 00:05:39.986758 29957 net.cpp:84] Creating Layer cont_99_lstm1_cont_slice_98_split
I1018 00:05:39.986763 29957 net.cpp:406] cont_99_lstm1_cont_slice_98_split <- cont_99
I1018 00:05:39.986770 29957 net.cpp:380] cont_99_lstm1_cont_slice_98_split -> cont_99_lstm1_cont_slice_98_split_0
I1018 00:05:39.986778 29957 net.cpp:380] cont_99_lstm1_cont_slice_98_split -> cont_99_lstm1_cont_slice_98_split_1
I1018 00:05:39.986809 29957 net.cpp:122] Setting up cont_99_lstm1_cont_slice_98_split
I1018 00:05:39.986815 29957 net.cpp:129] Top shape: 1 1 (1)
I1018 00:05:39.986820 29957 net.cpp:129] Top shape: 1 1 (1)
I1018 00:05:39.986824 29957 net.cpp:137] Memory required for data: 407864
I1018 00:05:39.986829 29957 layer_factory.hpp:77] Creating layer cont_100_lstm1_cont_slice_99_split
I1018 00:05:39.986836 29957 net.cpp:84] Creating Layer cont_100_lstm1_cont_slice_99_split
I1018 00:05:39.999982 29957 net.cpp:406] cont_100_lstm1_cont_slice_99_split <- cont_100
I1018 00:05:40.000046 29957 net.cpp:380] cont_100_lstm1_cont_slice_99_split -> cont_100_lstm1_cont_slice_99_split_0
I1018 00:05:40.000074 29957 net.cpp:380] cont_100_lstm1_cont_slice_99_split -> cont_100_lstm1_cont_slice_99_split_1
I1018 00:05:40.000221 29957 net.cpp:122] Setting up cont_100_lstm1_cont_slice_99_split
I1018 00:05:40.000241 29957 net.cpp:129] Top shape: 1 1 (1)
I1018 00:05:40.000252 29957 net.cpp:129] Top shape: 1 1 (1)
I1018 00:05:40.000267 29957 net.cpp:137] Memory required for data: 407872
I1018 00:05:40.000282 29957 layer_factory.hpp:77] Creating layer cont_101_lstm1_cont_slice_100_split
I1018 00:05:40.000303 29957 net.cpp:84] Creating Layer cont_101_lstm1_cont_slice_100_split
I1018 00:05:40.000319 29957 net.cpp:406] cont_101_lstm1_cont_slice_100_split <- cont_101
I1018 00:05:40.000340 29957 net.cpp:380] cont_101_lstm1_cont_slice_100_split -> cont_101_lstm1_cont_slice_100_split_0
I1018 00:05:40.000367 29957 net.cpp:380] cont_101_lstm1_cont_slice_100_split -> cont_101_lstm1_cont_slice_100_split_1
I1018 00:05:40.000463 29957 net.cpp:122] Setting up cont_101_lstm1_cont_slice_100_split
I1018 00:05:40.000470 29957 net.cpp:129] Top shape: 1 1 (1)
I1018 00:05:40.000476 29957 net.cpp:129] Top shape: 1 1 (1)
I1018 00:05:40.000480 29957 net.cpp:137] Memory required for data: 407880
I1018 00:05:40.000485 29957 layer_factory.hpp:77] Creating layer cont_102_lstm1_cont_slice_101_split
I1018 00:05:40.000493 29957 net.cpp:84] Creating Layer cont_102_lstm1_cont_slice_101_split
I1018 00:05:40.000497 29957 net.cpp:406] cont_102_lstm1_cont_slice_101_split <- cont_102
I1018 00:05:40.000504 29957 net.cpp:380] cont_102_lstm1_cont_slice_101_split -> cont_102_lstm1_cont_slice_101_split_0
I1018 00:05:40.000514 29957 net.cpp:380] cont_102_lstm1_cont_slice_101_split -> cont_102_lstm1_cont_slice_101_split_1
I1018 00:05:40.000550 29957 net.cpp:122] Setting up cont_102_lstm1_cont_slice_101_split
I1018 00:05:40.000556 29957 net.cpp:129] Top shape: 1 1 (1)
I1018 00:05:40.000561 29957 net.cpp:129] Top shape: 1 1 (1)
I1018 00:05:40.000566 29957 net.cpp:137] Memory required for data: 407888
I1018 00:05:40.000571 29957 layer_factory.hpp:77] Creating layer cont_103_lstm1_cont_slice_102_split
I1018 00:05:40.000578 29957 net.cpp:84] Creating Layer cont_103_lstm1_cont_slice_102_split
I1018 00:05:40.000583 29957 net.cpp:406] cont_103_lstm1_cont_slice_102_split <- cont_103
I1018 00:05:40.000591 29957 net.cpp:380] cont_103_lstm1_cont_slice_102_split -> cont_103_lstm1_cont_slice_102_split_0
I1018 00:05:40.000598 29957 net.cpp:380] cont_103_lstm1_cont_slice_102_split -> cont_103_lstm1_cont_slice_102_split_1
I1018 00:05:40.000634 29957 net.cpp:122] Setting up cont_103_lstm1_cont_slice_102_split
I1018 00:05:40.000640 29957 net.cpp:129] Top shape: 1 1 (1)
I1018 00:05:40.000646 29957 net.cpp:129] Top shape: 1 1 (1)
I1018 00:05:40.000650 29957 net.cpp:137] Memory required for data: 407896
I1018 00:05:40.000654 29957 layer_factory.hpp:77] Creating layer cont_104_lstm1_cont_slice_103_split
I1018 00:05:40.000661 29957 net.cpp:84] Creating Layer cont_104_lstm1_cont_slice_103_split
I1018 00:05:40.000666 29957 net.cpp:406] cont_104_lstm1_cont_slice_103_split <- cont_104
I1018 00:05:40.000674 29957 net.cpp:380] cont_104_lstm1_cont_slice_103_split -> cont_104_lstm1_cont_slice_103_split_0
I1018 00:05:40.000681 29957 net.cpp:380] cont_104_lstm1_cont_slice_103_split -> cont_104_lstm1_cont_slice_103_split_1
I1018 00:05:40.000715 29957 net.cpp:122] Setting up cont_104_lstm1_cont_slice_103_split
I1018 00:05:40.000722 29957 net.cpp:129] Top shape: 1 1 (1)
I1018 00:05:40.000727 29957 net.cpp:129] Top shape: 1 1 (1)
I1018 00:05:40.000731 29957 net.cpp:137] Memory required for data: 407904
I1018 00:05:40.000735 29957 layer_factory.hpp:77] Creating layer cont_105_lstm1_cont_slice_104_split
I1018 00:05:40.000742 29957 net.cpp:84] Creating Layer cont_105_lstm1_cont_slice_104_split
I1018 00:05:40.000747 29957 net.cpp:406] cont_105_lstm1_cont_slice_104_split <- cont_105
I1018 00:05:40.000753 29957 net.cpp:380] cont_105_lstm1_cont_slice_104_split -> cont_105_lstm1_cont_slice_104_split_0
I1018 00:05:40.000761 29957 net.cpp:380] cont_105_lstm1_cont_slice_104_split -> cont_105_lstm1_cont_slice_104_split_1
I1018 00:05:40.000797 29957 net.cpp:122] Setting up cont_105_lstm1_cont_slice_104_split
I1018 00:05:40.000804 29957 net.cpp:129] Top shape: 1 1 (1)
I1018 00:05:40.000809 29957 net.cpp:129] Top shape: 1 1 (1)
I1018 00:05:40.000813 29957 net.cpp:137] Memory required for data: 407912
I1018 00:05:40.000818 29957 layer_factory.hpp:77] Creating layer cont_106_lstm1_cont_slice_105_split
I1018 00:05:40.000824 29957 net.cpp:84] Creating Layer cont_106_lstm1_cont_slice_105_split
I1018 00:05:40.000828 29957 net.cpp:406] cont_106_lstm1_cont_slice_105_split <- cont_106
I1018 00:05:40.000838 29957 net.cpp:380] cont_106_lstm1_cont_slice_105_split -> cont_106_lstm1_cont_slice_105_split_0
I1018 00:05:40.000845 29957 net.cpp:380] cont_106_lstm1_cont_slice_105_split -> cont_106_lstm1_cont_slice_105_split_1
I1018 00:05:40.000879 29957 net.cpp:122] Setting up cont_106_lstm1_cont_slice_105_split
I1018 00:05:40.000885 29957 net.cpp:129] Top shape: 1 1 (1)
I1018 00:05:40.000890 29957 net.cpp:129] Top shape: 1 1 (1)
I1018 00:05:40.000895 29957 net.cpp:137] Memory required for data: 407920
I1018 00:05:40.000898 29957 layer_factory.hpp:77] Creating layer cont_107_lstm1_cont_slice_106_split
I1018 00:05:40.000906 29957 net.cpp:84] Creating Layer cont_107_lstm1_cont_slice_106_split
I1018 00:05:40.000911 29957 net.cpp:406] cont_107_lstm1_cont_slice_106_split <- cont_107
I1018 00:05:40.000917 29957 net.cpp:380] cont_107_lstm1_cont_slice_106_split -> cont_107_lstm1_cont_slice_106_split_0
I1018 00:05:40.000924 29957 net.cpp:380] cont_107_lstm1_cont_slice_106_split -> cont_107_lstm1_cont_slice_106_split_1
I1018 00:05:40.000957 29957 net.cpp:122] Setting up cont_107_lstm1_cont_slice_106_split
I1018 00:05:40.000964 29957 net.cpp:129] Top shape: 1 1 (1)
I1018 00:05:40.000969 29957 net.cpp:129] Top shape: 1 1 (1)
I1018 00:05:40.000973 29957 net.cpp:137] Memory required for data: 407928
I1018 00:05:40.000978 29957 layer_factory.hpp:77] Creating layer cont_108_lstm1_cont_slice_107_split
I1018 00:05:40.000984 29957 net.cpp:84] Creating Layer cont_108_lstm1_cont_slice_107_split
I1018 00:05:40.000989 29957 net.cpp:406] cont_108_lstm1_cont_slice_107_split <- cont_108
I1018 00:05:40.000995 29957 net.cpp:380] cont_108_lstm1_cont_slice_107_split -> cont_108_lstm1_cont_slice_107_split_0
I1018 00:05:40.001003 29957 net.cpp:380] cont_108_lstm1_cont_slice_107_split -> cont_108_lstm1_cont_slice_107_split_1
I1018 00:05:40.001036 29957 net.cpp:122] Setting up cont_108_lstm1_cont_slice_107_split
I1018 00:05:40.001044 29957 net.cpp:129] Top shape: 1 1 (1)
I1018 00:05:40.001049 29957 net.cpp:129] Top shape: 1 1 (1)
I1018 00:05:40.001052 29957 net.cpp:137] Memory required for data: 407936
I1018 00:05:40.001056 29957 layer_factory.hpp:77] Creating layer cont_109_lstm1_cont_slice_108_split
I1018 00:05:40.001063 29957 net.cpp:84] Creating Layer cont_109_lstm1_cont_slice_108_split
I1018 00:05:40.001067 29957 net.cpp:406] cont_109_lstm1_cont_slice_108_split <- cont_109
I1018 00:05:40.001075 29957 net.cpp:380] cont_109_lstm1_cont_slice_108_split -> cont_109_lstm1_cont_slice_108_split_0
I1018 00:05:40.001085 29957 net.cpp:380] cont_109_lstm1_cont_slice_108_split -> cont_109_lstm1_cont_slice_108_split_1
I1018 00:05:40.001116 29957 net.cpp:122] Setting up cont_109_lstm1_cont_slice_108_split
I1018 00:05:40.001122 29957 net.cpp:129] Top shape: 1 1 (1)
I1018 00:05:40.001127 29957 net.cpp:129] Top shape: 1 1 (1)
I1018 00:05:40.001132 29957 net.cpp:137] Memory required for data: 407944
I1018 00:05:40.001137 29957 layer_factory.hpp:77] Creating layer cont_110_lstm1_cont_slice_109_split
I1018 00:05:40.001144 29957 net.cpp:84] Creating Layer cont_110_lstm1_cont_slice_109_split
I1018 00:05:40.001149 29957 net.cpp:406] cont_110_lstm1_cont_slice_109_split <- cont_110
I1018 00:05:40.001157 29957 net.cpp:380] cont_110_lstm1_cont_slice_109_split -> cont_110_lstm1_cont_slice_109_split_0
I1018 00:05:40.001164 29957 net.cpp:380] cont_110_lstm1_cont_slice_109_split -> cont_110_lstm1_cont_slice_109_split_1
I1018 00:05:40.001197 29957 net.cpp:122] Setting up cont_110_lstm1_cont_slice_109_split
I1018 00:05:40.001204 29957 net.cpp:129] Top shape: 1 1 (1)
I1018 00:05:40.001209 29957 net.cpp:129] Top shape: 1 1 (1)
I1018 00:05:40.001214 29957 net.cpp:137] Memory required for data: 407952
I1018 00:05:40.001219 29957 layer_factory.hpp:77] Creating layer cont_111_lstm1_cont_slice_110_split
I1018 00:05:40.001224 29957 net.cpp:84] Creating Layer cont_111_lstm1_cont_slice_110_split
I1018 00:05:40.001230 29957 net.cpp:406] cont_111_lstm1_cont_slice_110_split <- cont_111
I1018 00:05:40.001236 29957 net.cpp:380] cont_111_lstm1_cont_slice_110_split -> cont_111_lstm1_cont_slice_110_split_0
I1018 00:05:40.001243 29957 net.cpp:380] cont_111_lstm1_cont_slice_110_split -> cont_111_lstm1_cont_slice_110_split_1
I1018 00:05:40.001277 29957 net.cpp:122] Setting up cont_111_lstm1_cont_slice_110_split
I1018 00:05:40.001283 29957 net.cpp:129] Top shape: 1 1 (1)
I1018 00:05:40.001289 29957 net.cpp:129] Top shape: 1 1 (1)
I1018 00:05:40.001293 29957 net.cpp:137] Memory required for data: 407960
I1018 00:05:40.001297 29957 layer_factory.hpp:77] Creating layer cont_112_lstm1_cont_slice_111_split
I1018 00:05:40.001303 29957 net.cpp:84] Creating Layer cont_112_lstm1_cont_slice_111_split
I1018 00:05:40.001308 29957 net.cpp:406] cont_112_lstm1_cont_slice_111_split <- cont_112
I1018 00:05:40.001314 29957 net.cpp:380] cont_112_lstm1_cont_slice_111_split -> cont_112_lstm1_cont_slice_111_split_0
I1018 00:05:40.001322 29957 net.cpp:380] cont_112_lstm1_cont_slice_111_split -> cont_112_lstm1_cont_slice_111_split_1
I1018 00:05:40.001355 29957 net.cpp:122] Setting up cont_112_lstm1_cont_slice_111_split
I1018 00:05:40.001361 29957 net.cpp:129] Top shape: 1 1 (1)
I1018 00:05:40.001368 29957 net.cpp:129] Top shape: 1 1 (1)
I1018 00:05:40.001371 29957 net.cpp:137] Memory required for data: 407968
I1018 00:05:40.001375 29957 layer_factory.hpp:77] Creating layer cont_113_lstm1_cont_slice_112_split
I1018 00:05:40.001381 29957 net.cpp:84] Creating Layer cont_113_lstm1_cont_slice_112_split
I1018 00:05:40.001386 29957 net.cpp:406] cont_113_lstm1_cont_slice_112_split <- cont_113
I1018 00:05:40.001395 29957 net.cpp:380] cont_113_lstm1_cont_slice_112_split -> cont_113_lstm1_cont_slice_112_split_0
I1018 00:05:40.001402 29957 net.cpp:380] cont_113_lstm1_cont_slice_112_split -> cont_113_lstm1_cont_slice_112_split_1
I1018 00:05:40.001433 29957 net.cpp:122] Setting up cont_113_lstm1_cont_slice_112_split
I1018 00:05:40.001440 29957 net.cpp:129] Top shape: 1 1 (1)
I1018 00:05:40.001444 29957 net.cpp:129] Top shape: 1 1 (1)
I1018 00:05:40.001449 29957 net.cpp:137] Memory required for data: 407976
I1018 00:05:40.001453 29957 layer_factory.hpp:77] Creating layer cont_114_lstm1_cont_slice_113_split
I1018 00:05:40.001461 29957 net.cpp:84] Creating Layer cont_114_lstm1_cont_slice_113_split
I1018 00:05:40.001467 29957 net.cpp:406] cont_114_lstm1_cont_slice_113_split <- cont_114
I1018 00:05:40.001473 29957 net.cpp:380] cont_114_lstm1_cont_slice_113_split -> cont_114_lstm1_cont_slice_113_split_0
I1018 00:05:40.001480 29957 net.cpp:380] cont_114_lstm1_cont_slice_113_split -> cont_114_lstm1_cont_slice_113_split_1
I1018 00:05:40.001513 29957 net.cpp:122] Setting up cont_114_lstm1_cont_slice_113_split
I1018 00:05:40.001520 29957 net.cpp:129] Top shape: 1 1 (1)
I1018 00:05:40.001525 29957 net.cpp:129] Top shape: 1 1 (1)
I1018 00:05:40.001529 29957 net.cpp:137] Memory required for data: 407984
…
I1018 00:05:45.951642 29957 net.cpp:406] lstm1_gate_input_183 <- W_xc_x_183
I1018 00:05:45.951649 29957 net.cpp:380] lstm1_gate_input_183 -> gate_input_183
I1018 00:05:45.951683 29957 net.cpp:122] Setting up lstm1_gate_input_183
I1018 00:05:45.951690 29957 net.cpp:129] Top shape: 1 150 2048 (307200)
I1018 00:05:45.951694 29957 net.cpp:137] Memory required for data: 1272585600
I1018 00:05:45.951699 29957 layer_factory.hpp:77] Creating layer lstm1_unit_183
I1018 00:05:45.951705 29957 net.cpp:84] Creating Layer lstm1_unit_183
I1018 00:05:45.951711 29957 net.cpp:406] lstm1_unit_183 <- c_182
I1018 00:05:45.951717 29957 net.cpp:406] lstm1_unit_183 <- gate_input_183
I1018 00:05:45.951723 29957 net.cpp:406] lstm1_unit_183 <- cont_183_lstm1_cont_slice_182_split_1
I1018 00:05:45.951730 29957 net.cpp:380] lstm1_unit_183 -> c_183
I1018 00:05:45.951737 29957 net.cpp:380] lstm1_unit_183 -> h_183
I1018 00:05:45.951786 29957 net.cpp:122] Setting up lstm1_unit_183
I1018 00:05:45.951792 29957 net.cpp:129] Top shape: 1 150 512 (76800)
I1018 00:05:45.951797 29957 net.cpp:129] Top shape: 1 150 512 (76800)
I1018 00:05:45.951800 29957 net.cpp:137] Memory required for data: 1273200000
I1018 00:05:45.951804 29957 layer_factory.hpp:77] Creating layer h_183_lstm1_unit_183_1_split
I1018 00:05:45.951813 29957 net.cpp:84] Creating Layer h_183_lstm1_unit_183_1_split
I1018 00:05:45.951818 29957 net.cpp:406] h_183_lstm1_unit_183_1_split <- h_183
I1018 00:05:45.951824 29957 net.cpp:380] h_183_lstm1_unit_183_1_split -> h_183_lstm1_unit_183_1_split_0
I1018 00:05:45.951831 29957 net.cpp:380] h_183_lstm1_unit_183_1_split -> h_183_lstm1_unit_183_1_split_1
I1018 00:05:45.951865 29957 net.cpp:122] Setting up h_183_lstm1_unit_183_1_split
I1018 00:05:45.951871 29957 net.cpp:129] Top shape: 1 150 512 (76800)
I1018 00:05:45.951875 29957 net.cpp:129] Top shape: 1 150 512 (76800)
I1018 00:05:45.951879 29957 net.cpp:137] Memory required for data: 1273814400
I1018 00:05:45.951884 29957 layer_factory.hpp:77] Creating layer lstm1_h_conted_183
I1018 00:05:45.951905 29957 net.cpp:84] Creating Layer lstm1_h_conted_183
I1018 00:05:45.951912 29957 net.cpp:406] lstm1_h_conted_183 <- h_183_lstm1_unit_183_1_split_0
I1018 00:05:45.951920 29957 net.cpp:406] lstm1_h_conted_183 <- cont_184_lstm1_cont_slice_183_split_0
I1018 00:05:45.951927 29957 net.cpp:380] lstm1_h_conted_183 -> h_conted_183
I1018 00:05:45.952010 29957 net.cpp:122] Setting up lstm1_h_conted_183
I1018 00:05:45.952021 29957 net.cpp:129] Top shape: 1 150 512 (76800)
I1018 00:05:45.952025 29957 net.cpp:137] Memory required for data: 1274121600
I1018 00:05:45.952034 29957 layer_factory.hpp:77] Creating layer lstm1_transform_184
I1018 00:05:45.952044 29957 net.cpp:84] Creating Layer lstm1_transform_184
I1018 00:05:45.952050 29957 net.cpp:406] lstm1_transform_184 <- h_conted_183
I1018 00:05:45.952059 29957 net.cpp:380] lstm1_transform_184 -> W_hc_h_183
I1018 00:05:45.963812 29957 net.cpp:122] Setting up lstm1_transform_184
I1018 00:05:45.963829 29957 net.cpp:129] Top shape: 1 150 2048 (307200)
I1018 00:05:45.963832 29957 net.cpp:137] Memory required for data: 1275350400
I1018 00:05:45.963838 29957 net.cpp:465] Sharing parameters 'W_hc' owned by layer 'lstm1_transform_1', param index 0
I1018 00:05:45.963845 29957 layer_factory.hpp:77] Creating layer lstm1_gate_input_184
I1018 00:05:45.963852 29957 net.cpp:84] Creating Layer lstm1_gate_input_184
I1018 00:05:45.963858 29957 net.cpp:406] lstm1_gate_input_184 <- W_hc_h_183
I1018 00:05:45.963866 29957 net.cpp:406] lstm1_gate_input_184 <- W_xc_x_184
I1018 00:05:45.963874 29957 net.cpp:380] lstm1_gate_input_184 -> gate_input_184
I1018 00:05:45.963907 29957 net.cpp:122] Setting up lstm1_gate_input_184
I1018 00:05:45.963913 29957 net.cpp:129] Top shape: 1 150 2048 (307200)
I1018 00:05:45.963917 29957 net.cpp:137] Memory required for data: 1276579200
I1018 00:05:45.963922 29957 layer_factory.hpp:77] Creating layer lstm1_unit_184
I1018 00:05:45.963927 29957 net.cpp:84] Creating Layer lstm1_unit_184
I1018 00:05:45.963932 29957 net.cpp:406] lstm1_unit_184 <- c_183
I1018 00:05:45.963938 29957 net.cpp:406] lstm1_unit_184 <- gate_input_184
I1018 00:05:45.963946 29957 net.cpp:406] lstm1_unit_184 <- cont_184_lstm1_cont_slice_183_split_1
I1018 00:05:45.963956 29957 net.cpp:380] lstm1_unit_184 -> c_184
I1018 00:05:45.963969 29957 net.cpp:380] lstm1_unit_184 -> h_184
I1018 00:05:45.964046 29957 net.cpp:122] Setting up lstm1_unit_184
I1018 00:05:45.964056 29957 net.cpp:129] Top shape: 1 150 512 (76800)
I1018 00:05:45.964061 29957 net.cpp:129] Top shape: 1 150 512 (76800)
I1018 00:05:45.964066 29957 net.cpp:137] Memory required for data: 1277193600
I1018 00:05:45.964069 29957 layer_factory.hpp:77] Creating layer h_184_lstm1_unit_184_1_split
I1018 00:05:45.964076 29957 net.cpp:84] Creating Layer h_184_lstm1_unit_184_1_split
I1018 00:05:45.964082 29957 net.cpp:406] h_184_lstm1_unit_184_1_split <- h_184
I1018 00:05:45.964090 29957 net.cpp:380] h_184_lstm1_unit_184_1_split -> h_184_lstm1_unit_184_1_split_0
I1018 00:05:45.964099 29957 net.cpp:380] h_184_lstm1_unit_184_1_split -> h_184_lstm1_unit_184_1_split_1
I1018 00:05:45.964138 29957 net.cpp:122] Setting up h_184_lstm1_unit_184_1_split
I1018 00:05:45.964152 29957 net.cpp:129] Top shape: 1 150 512 (76800)
I1018 00:05:45.964157 29957 net.cpp:129] Top shape: 1 150 512 (76800)
I1018 00:05:45.964161 29957 net.cpp:137] Memory required for data: 1277808000
I1018 00:05:45.964165 29957 layer_factory.hpp:77] Creating layer lstm1_h_conted_184
I1018 00:05:45.964187 29957 net.cpp:84] Creating Layer lstm1_h_conted_184
I1018 00:05:45.964195 29957 net.cpp:406] lstm1_h_conted_184 <- h_184_lstm1_unit_184_1_split_0
I1018 00:05:45.964203 29957 net.cpp:406] lstm1_h_conted_184 <- cont_185_lstm1_cont_slice_184_split_0
I1018 00:05:45.964212 29957 net.cpp:380] lstm1_h_conted_184 -> h_conted_184
I1018 00:05:45.964300 29957 net.cpp:122] Setting up lstm1_h_conted_184
I1018 00:05:45.964311 29957 net.cpp:129] Top shape: 1 150 512 (76800)
I1018 00:05:45.964315 29957 net.cpp:137] Memory required for data: 1278115200
I1018 00:05:45.964319 29957 layer_factory.hpp:77] Creating layer lstm1_transform_185
I1018 00:05:45.964334 29957 net.cpp:84] Creating Layer lstm1_transform_185
I1018 00:05:45.964341 29957 net.cpp:406] lstm1_transform_185 <- h_conted_184
I1018 00:05:45.964350 29957 net.cpp:380] lstm1_transform_185 -> W_hc_h_184
I1018 00:05:45.976140 29957 net.cpp:122] Setting up lstm1_transform_185
I1018 00:05:45.976156 29957 net.cpp:129] Top shape: 1 150 2048 (307200)
I1018 00:05:45.976161 29957 net.cpp:137] Memory required for data: 1279344000
I1018 00:05:45.976166 29957 net.cpp:465] Sharing parameters 'W_hc' owned by layer 'lstm1_transform_1', param index 0
I1018 00:05:45.976171 29957 layer_factory.hpp:77] Creating layer lstm1_gate_input_185
I1018 00:05:45.976179 29957 net.cpp:84] Creating Layer lstm1_gate_input_185
I1018 00:05:45.976186 29957 net.cpp:406] lstm1_gate_input_185 <- W_hc_h_184
I1018 00:05:45.976194 29957 net.cpp:406] lstm1_gate_input_185 <- W_xc_x_185
I1018 00:05:45.976202 29957 net.cpp:380] lstm1_gate_input_185 -> gate_input_185
I1018 00:05:45.976230 29957 net.cpp:122] Setting up lstm1_gate_input_185
I1018 00:05:45.976236 29957 net.cpp:129] Top shape: 1 150 2048 (307200)
I1018 00:05:45.976240 29957 net.cpp:137] Memory required for data: 1280572800
I1018 00:05:45.976244 29957 layer_factory.hpp:77] Creating layer lstm1_unit_185
I1018 00:05:45.976261 29957 net.cpp:84] Creating Layer lstm1_unit_185
I1018 00:05:45.976269 29957 net.cpp:406] lstm1_unit_185 <- c_184
I1018 00:05:45.976276 29957 net.cpp:406] lstm1_unit_185 <- gate_input_185
I1018 00:05:45.976282 29957 net.cpp:406] lstm1_unit_185 <- cont_185_lstm1_cont_slice_184_split_1
I1018 00:05:45.976289 29957 net.cpp:380] lstm1_unit_185 -> c_185
I1018 00:05:45.976296 29957 net.cpp:380] lstm1_unit_185 -> h_185
I1018 00:05:45.976351 29957 net.cpp:122] Setting up lstm1_unit_185
I1018 00:05:45.976356 29957 net.cpp:129] Top shape: 1 150 512 (76800)
I1018 00:05:45.976361 29957 net.cpp:129] Top shape: 1 150 512 (76800)
I1018 00:05:45.976366 29957 net.cpp:137] Memory required for data: 1281187200
I1018 00:05:45.976369 29957 layer_factory.hpp:77] Creating layer h_185_lstm1_unit_185_1_split
I1018 00:05:45.976377 29957 net.cpp:84] Creating Layer h_185_lstm1_unit_185_1_split
I1018 00:05:45.976382 29957 net.cpp:406] h_185_lstm1_unit_185_1_split <- h_185
I1018 00:05:45.976389 29957 net.cpp:380] h_185_lstm1_unit_185_1_split -> h_185_lstm1_unit_185_1_split_0
I1018 00:05:45.976397 29957 net.cpp:380] h_185_lstm1_unit_185_1_split -> h_185_lstm1_unit_185_1_split_1
I1018 00:05:45.976430 29957 net.cpp:122] Setting up h_185_lstm1_unit_185_1_split
I1018 00:05:45.976436 29957 net.cpp:129] Top shape: 1 150 512 (76800)
I1018 00:05:45.976440 29957 net.cpp:129] Top shape: 1 150 512 (76800)
I1018 00:05:45.976444 29957 net.cpp:137] Memory required for data: 1281801600
I1018 00:05:45.976450 29957 layer_factory.hpp:77] Creating layer lstm1_h_conted_185
I1018 00:05:45.976460 29957 net.cpp:84] Creating Layer lstm1_h_conted_185
I1018 00:05:45.976466 29957 net.cpp:406] lstm1_h_conted_185 <- h_185_lstm1_unit_185_1_split_0
I1018 00:05:45.976474 29957 net.cpp:406] lstm1_h_conted_185 <- cont_186_lstm1_cont_slice_185_split_0
I1018 00:05:45.976480 29957 net.cpp:380] lstm1_h_conted_185 -> h_conted_185
I1018 00:05:45.976558 29957 net.cpp:122] Setting up lstm1_h_conted_185
I1018 00:05:45.976568 29957 net.cpp:129] Top shape: 1 150 512 (76800)
I1018 00:05:45.976573 29957 net.cpp:137] Memory required for data: 1282108800
I1018 00:05:45.976577 29957 layer_factory.hpp:77] Creating layer lstm1_transform_186
I1018 00:05:45.976586 29957 net.cpp:84] Creating Layer lstm1_transform_186
I1018 00:05:45.976593 29957 net.cpp:406] lstm1_transform_186 <- h_conted_185
I1018 00:05:45.976600 29957 net.cpp:380] lstm1_transform_186 -> W_hc_h_185
I1018 00:05:45.988448 29957 net.cpp:122] Setting up lstm1_transform_186
I1018 00:05:45.988481 29957 net.cpp:129] Top shape: 1 150 2048 (307200)
I1018 00:05:45.988485 29957 net.cpp:137] Memory required for data: 1283337600
I1018 00:05:45.988492 29957 net.cpp:465] Sharing parameters 'W_hc' owned by layer 'lstm1_transform_1', param index 0
I1018 00:05:45.988497 29957 layer_factory.hpp:77] Creating layer lstm1_gate_input_186
I1018 00:05:45.988508 29957 net.cpp:84] Creating Layer lstm1_gate_input_186
I1018 00:05:45.988515 29957 net.cpp:406] lstm1_gate_input_186 <- W_hc_h_185
I1018 00:05:45.988523 29957 net.cpp:406] lstm1_gate_input_186 <- W_xc_x_186
I1018 00:05:45.988530 29957 net.cpp:380] lstm1_gate_input_186 -> gate_input_186
I1018 00:05:45.988569 29957 net.cpp:122] Setting up lstm1_gate_input_186
I1018 00:05:45.988576 29957 net.cpp:129] Top shape: 1 150 2048 (307200)
I1018 00:05:45.988579 29957 net.cpp:137] Memory required for data: 1284566400
I1018 00:05:45.988584 29957 layer_factory.hpp:77] Creating layer lstm1_unit_186
I1018 00:05:45.988605 29957 net.cpp:84] Creating Layer lstm1_unit_186
I1018 00:05:45.988613 29957 net.cpp:406] lstm1_unit_186 <- c_185
I1018 00:05:45.988620 29957 net.cpp:406] lstm1_unit_186 <- gate_input_186
I1018 00:05:45.988626 29957 net.cpp:406] lstm1_unit_186 <- cont_186_lstm1_cont_slice_185_split_1
I1018 00:05:45.988641 29957 net.cpp:380] lstm1_unit_186 -> c_186
I1018 00:05:45.988651 29957 net.cpp:380] lstm1_unit_186 -> h_186
I1018 00:05:45.988709 29957 net.cpp:122] Setting up lstm1_unit_186
I1018 00:05:45.988716 29957 net.cpp:129] Top shape: 1 150 512 (76800)
I1018 00:05:45.988721 29957 net.cpp:129] Top shape: 1 150 512 (76800)
I1018 00:05:45.988725 29957 net.cpp:137] Memory required for data: 1285180800
I1018 00:05:45.988729 29957 layer_factory.hpp:77] Creating layer h_186_lstm1_unit_186_1_split
I1018 00:05:45.988736 29957 net.cpp:84] Creating Layer h_186_lstm1_unit_186_1_split
I1018 00:05:45.988741 29957 net.cpp:406] h_186_lstm1_unit_186_1_split <- h_186
I1018 00:05:45.988749 29957 net.cpp:380] h_186_lstm1_unit_186_1_split -> h_186_lstm1_unit_186_1_split_0
I1018 00:05:45.988756 29957 net.cpp:380] h_186_lstm1_unit_186_1_split -> h_186_lstm1_unit_186_1_split_1
I1018 00:05:45.988791 29957 net.cpp:122] Setting up h_186_lstm1_unit_186_1_split
I1018 00:05:45.988797 29957 net.cpp:129] Top shape: 1 150 512 (76800)
I1018 00:05:45.988802 29957 net.cpp:129] Top shape: 1 150 512 (76800)
I1018 00:05:45.988806 29957 net.cpp:137] Memory required for data: 1285795200
I1018 00:05:45.988811 29957 layer_factory.hpp:77] Creating layer lstm1_h_conted_186
I1018 00:05:45.988821 29957 net.cpp:84] Creating Layer lstm1_h_conted_186
I1018 00:05:45.988826 29957 net.cpp:406] lstm1_h_conted_186 <- h_186_lstm1_unit_186_1_split_0
I1018 00:05:45.988833 29957 net.cpp:406] lstm1_h_conted_186 <- cont_187_lstm1_cont_slice_186_split_0
I1018 00:05:45.988842 29957 net.cpp:380] lstm1_h_conted_186 -> h_conted_186
I1018 00:05:45.988951 29957 net.cpp:122] Setting up lstm1_h_conted_186
I1018 00:05:45.988962 29957 net.cpp:129] Top shape: 1 150 512 (76800)
I1018 00:05:45.988966 29957 net.cpp:137] Memory required for data: 1286102400
I1018 00:05:45.988970 29957 layer_factory.hpp:77] Creating layer lstm1_transform_187
I1018 00:05:45.988983 29957 net.cpp:84] Creating Layer lstm1_transform_187
I1018 00:05:45.988991 29957 net.cpp:406] lstm1_transform_187 <- h_conted_186
I1018 00:05:45.988998 29957 net.cpp:380] lstm1_transform_187 -> W_hc_h_186
I1018 00:05:46.000826 29957 net.cpp:122] Setting up lstm1_transform_187
I1018 00:05:46.000843 29957 net.cpp:129] Top shape: 1 150 2048 (307200)
I1018 00:05:46.000847 29957 net.cpp:137] Memory required for data: 1287331200
I1018 00:05:46.000852 29957 net.cpp:465] Sharing parameters 'W_hc' owned by layer 'lstm1_transform_1', param index 0
I1018 00:05:46.000859 29957 layer_factory.hpp:77] Creating layer lstm1_gate_input_187
I1018 00:05:46.000867 29957 net.cpp:84] Creating Layer lstm1_gate_input_187
I1018 00:05:46.000874 29957 net.cpp:406] lstm1_gate_input_187 <- W_hc_h_186
I1018 00:05:46.000883 29957 net.cpp:406] lstm1_gate_input_187 <- W_xc_x_187
I1018 00:05:46.000891 29957 net.cpp:380] lstm1_gate_input_187 -> gate_input_187
I1018 00:05:46.000921 29957 net.cpp:122] Setting up lstm1_gate_input_187
I1018 00:05:46.000927 29957 net.cpp:129] Top shape: 1 150 2048 (307200)
I1018 00:05:46.000931 29957 net.cpp:137] Memory required for data: 1288560000
I1018 00:05:46.000936 29957 layer_factory.hpp:77] Creating layer lstm1_unit_187
I1018 00:05:46.000952 29957 net.cpp:84] Creating Layer lstm1_unit_187
I1018 00:05:46.000960 29957 net.cpp:406] lstm1_unit_187 <- c_186
I1018 00:05:46.000968 29957 net.cpp:406] lstm1_unit_187 <- gate_input_187
I1018 00:05:46.000974 29957 net.cpp:406] lstm1_unit_187 <- cont_187_lstm1_cont_slice_186_split_1
I1018 00:05:46.000982 29957 net.cpp:380] lstm1_unit_187 -> c_187
I1018 00:05:46.000991 29957 net.cpp:380] lstm1_unit_187 -> h_187
I1018 00:05:46.001045 29957 net.cpp:122] Setting up lstm1_unit_187
I1018 00:05:46.001052 29957 net.cpp:129] Top shape: 1 150 512 (76800)
I1018 00:05:46.001057 29957 net.cpp:129] Top shape: 1 150 512 (76800)
I1018 00:05:46.001061 29957 net.cpp:137] Memory required for data: 1289174400
I1018 00:05:46.001065 29957 layer_factory.hpp:77] Creating layer h_187_lstm1_unit_187_1_split
I1018 00:05:46.001071 29957 net.cpp:84] Creating Layer h_187_lstm1_unit_187_1_split
I1018 00:05:46.001076 29957 net.cpp:406] h_187_lstm1_unit_187_1_split <- h_187
I1018 00:05:46.001083 29957 net.cpp:380] h_187_lstm1_unit_187_1_split -> h_187_lstm1_unit_187_1_split_0
I1018 00:05:46.001091 29957 net.cpp:380] h_187_lstm1_unit_187_1_split -> h_187_lstm1_unit_187_1_split_1
I1018 00:05:46.001126 29957 net.cpp:122] Setting up h_187_lstm1_unit_187_1_split
I1018 00:05:46.001132 29957 net.cpp:129] Top shape: 1 150 512 (76800)
I1018 00:05:46.001137 29957 net.cpp:129] Top shape: 1 150 512 (76800)
I1018 00:05:46.001140 29957 net.cpp:137] Memory required for data: 1289788800
I1018 00:05:46.001144 29957 layer_factory.hpp:77] Creating layer lstm1_h_conted_187
I1018 00:05:46.001153 29957 net.cpp:84] Creating Layer lstm1_h_conted_187
I1018 00:05:46.001158 29957 net.cpp:406] lstm1_h_conted_187 <- h_187_lstm1_unit_187_1_split_0
I1018 00:05:46.001166 29957 net.cpp:406] lstm1_h_conted_187 <- cont_188_lstm1_cont_slice_187_split_0
I1018 00:05:46.001175 29957 net.cpp:380] lstm1_h_conted_187 -> h_conted_187
I1018 00:05:46.001258 29957 net.cpp:122] Setting up lstm1_h_conted_187
I1018 00:05:46.001269 29957 net.cpp:129] Top shape: 1 150 512 (76800)
I1018 00:05:46.001273 29957 net.cpp:137] Memory required for data: 1290096000
I1018 00:05:46.001278 29957 layer_factory.hpp:77] Creating layer lstm1_transform_188
I1018 00:05:46.001286 29957 net.cpp:84] Creating Layer lstm1_transform_188
I1018 00:05:46.001292 29957 net.cpp:406] lstm1_transform_188 <- h_conted_187
I1018 00:05:46.001302 29957 net.cpp:380] lstm1_transform_188 -> W_hc_h_187
I1018 00:05:46.013147 29957 net.cpp:122] Setting up lstm1_transform_188
I1018 00:05:46.013172 29957 net.cpp:129] Top shape: 1 150 2048 (307200)
I1018 00:05:46.013176 29957 net.cpp:137] Memory required for data: 1291324800
I1018 00:05:46.013183 29957 net.cpp:465] Sharing parameters 'W_hc' owned by layer 'lstm1_transform_1', param index 0
I1018 00:05:46.013190 29957 layer_factory.hpp:77] Creating layer lstm1_gate_input_188
I1018 00:05:46.013216 29957 net.cpp:84] Creating Layer lstm1_gate_input_188
I1018 00:05:46.013231 29957 net.cpp:406] lstm1_gate_input_188 <- W_hc_h_187
I1018 00:05:46.013239 29957 net.cpp:406] lstm1_gate_input_188 <- W_xc_x_188
I1018 00:05:46.013249 29957 net.cpp:380] lstm1_gate_input_188 -> gate_input_188
I1018 00:05:46.013291 29957 net.cpp:122] Setting up lstm1_gate_input_188
I1018 00:05:46.013299 29957 net.cpp:129] Top shape: 1 150 2048 (307200)
I1018 00:05:46.013303 29957 net.cpp:137] Memory required for data: 1292553600
I1018 00:05:46.013308 29957 layer_factory.hpp:77] Creating layer lstm1_unit_188
I1018 00:05:46.013314 29957 net.cpp:84] Creating Layer lstm1_unit_188
I1018 00:05:46.013320 29957 net.cpp:406] lstm1_unit_188 <- c_187
I1018 00:05:46.013327 29957 net.cpp:406] lstm1_unit_188 <- gate_input_188
I1018 00:05:46.013334 29957 net.cpp:406] lstm1_unit_188 <- cont_188_lstm1_cont_slice_187_split_1
I1018 00:05:46.013340 29957 net.cpp:380] lstm1_unit_188 -> c_188
I1018 00:05:46.013350 29957 net.cpp:380] lstm1_unit_188 -> h_188
I1018 00:05:46.013399 29957 net.cpp:122] Setting up lstm1_unit_188
I1018 00:05:46.013406 29957 net.cpp:129] Top shape: 1 150 512 (76800)
I1018 00:05:46.013411 29957 net.cpp:129] Top shape: 1 150 512 (76800)
I1018 00:05:46.013415 29957 net.cpp:137] Memory required for data: 1293168000
I1018 00:05:46.013419 29957 layer_factory.hpp:77] Creating layer h_188_lstm1_unit_188_1_split
I1018 00:05:46.013425 29957 net.cpp:84] Creating Layer h_188_lstm1_unit_188_1_split
I1018 00:05:46.013430 29957 net.cpp:406] h_188_lstm1_unit_188_1_split <- h_188
I1018 00:05:46.013437 29957 net.cpp:380] h_188_lstm1_unit_188_1_split -> h_188_lstm1_unit_188_1_split_0
I1018 00:05:46.013445 29957 net.cpp:380] h_188_lstm1_unit_188_1_split -> h_188_lstm1_unit_188_1_split_1
I1018 00:05:46.013480 29957 net.cpp:122] Setting up h_188_lstm1_unit_188_1_split
I1018 00:05:46.013486 29957 net.cpp:129] Top shape: 1 150 512 (76800)
I1018 00:05:46.013491 29957 net.cpp:129] Top shape: 1 150 512 (76800)
I1018 00:05:46.013495 29957 net.cpp:137] Memory required for data: 1293782400
I1018 00:05:46.013500 29957 layer_factory.hpp:77] Creating layer lstm1_h_conted_188
I1018 00:05:46.013507 29957 net.cpp:84] Creating Layer lstm1_h_conted_188
I1018 00:05:46.013514 29957 net.cpp:406] lstm1_h_conted_188 <- h_188_lstm1_unit_188_1_split_0
I1018 00:05:46.013520 29957 net.cpp:406] lstm1_h_conted_188 <- cont_189_lstm1_cont_slice_188_split_0
I1018 00:05:46.013528 29957 net.cpp:380] lstm1_h_conted_188 -> h_conted_188
I1018 00:05:46.013633 29957 net.cpp:122] Setting up lstm1_h_conted_188
I1018 00:05:46.013643 29957 net.cpp:129] Top shape: 1 150 512 (76800)
I1018 00:05:46.013648 29957 net.cpp:137] Memory required for data: 1294089600
I1018 00:05:46.013651 29957 layer_factory.hpp:77] Creating layer lstm1_transform_189
I1018 00:05:46.013659 29957 net.cpp:84] Creating Layer lstm1_transform_189
I1018 00:05:46.013665 29957 net.cpp:406] lstm1_transform_189 <- h_conted_188
I1018 00:05:46.013675 29957 net.cpp:380] lstm1_transform_189 -> W_hc_h_188
I1018 00:05:46.025555 29957 net.cpp:122] Setting up lstm1_transform_189
I1018 00:05:46.025573 29957 net.cpp:129] Top shape: 1 150 2048 (307200)
I1018 00:05:46.025578 29957 net.cpp:137] Memory required for data: 1295318400
I1018 00:05:46.025583 29957 net.cpp:465] Sharing parameters 'W_hc' owned by layer 'lstm1_transform_1', param index 0
I1018 00:05:46.025588 29957 layer_factory.hpp:77] Creating layer lstm1_gate_input_189
I1018 00:05:46.025606 29957 net.cpp:84] Creating Layer lstm1_gate_input_189
I1018 00:05:46.025614 29957 net.cpp:406] lstm1_gate_input_189 <- W_hc_h_188
I1018 00:05:46.025621 29957 net.cpp:406] lstm1_gate_input_189 <- W_xc_x_189
I1018 00:05:46.025629 29957 net.cpp:380] lstm1_gate_input_189 -> gate_input_189
I1018 00:05:46.025666 29957 net.cpp:122] Setting up lstm1_gate_input_189
I1018 00:05:46.025673 29957 net.cpp:129] Top shape: 1 150 2048 (307200)
I1018 00:05:46.025677 29957 net.cpp:137] Memory required for data: 1296547200
I1018 00:05:46.025681 29957 layer_factory.hpp:77] Creating layer lstm1_unit_189
I1018 00:05:46.025691 29957 net.cpp:84] Creating Layer lstm1_unit_189
I1018 00:05:46.025696 29957 net.cpp:406] lstm1_unit_189 <- c_188
I1018 00:05:46.025703 29957 net.cpp:406] lstm1_unit_189 <- gate_input_189
I1018 00:05:46.025709 29957 net.cpp:406] lstm1_unit_189 <- cont_189_lstm1_cont_slice_188_split_1
I1018 00:05:46.025717 29957 net.cpp:380] lstm1_unit_189 -> c_189
I1018 00:05:46.025725 29957 net.cpp:380] lstm1_unit_189 -> h_189
I1018 00:05:46.025774 29957 net.cpp:122] Setting up lstm1_unit_189
I1018 00:05:46.025781 29957 net.cpp:129] Top shape: 1 150 512 (76800)
I1018 00:05:46.025786 29957 net.cpp:129] Top shape: 1 150 512 (76800)
I1018 00:05:46.025790 29957 net.cpp:137] Memory required for data: 1297161600
I1018 00:05:46.025794 29957 layer_factory.hpp:77] Creating layer h_189_lstm1_unit_189_1_split
I1018 00:05:46.025802 29957 net.cpp:84] Creating Layer h_189_lstm1_unit_189_1_split
I1018 00:05:46.025807 29957 net.cpp:406] h_189_lstm1_unit_189_1_split <- h_189
I1018 00:05:46.025815 29957 net.cpp:380] h_189_lstm1_unit_189_1_split -> h_189_lstm1_unit_189_1_split_0
I1018 00:05:46.025821 29957 net.cpp:380] h_189_lstm1_unit_189_1_split -> h_189_lstm1_unit_189_1_split_1
I1018 00:05:46.025856 29957 net.cpp:122] Setting up h_189_lstm1_unit_189_1_split
I1018 00:05:46.025863 29957 net.cpp:129] Top shape: 1 150 512 (76800)
I1018 00:05:46.025867 29957 net.cpp:129] Top shape: 1 150 512 (76800)
I1018 00:05:46.025871 29957 net.cpp:137] Memory required for data: 1297776000
I1018 00:05:46.025876 29957 layer_factory.hpp:77] Creating layer lstm1_h_conted_189
I1018 00:05:46.025884 29957 net.cpp:84] Creating Layer lstm1_h_conted_189
I1018 00:05:46.025890 29957 net.cpp:406] lstm1_h_conted_189 <- h_189_lstm1_unit_189_1_split_0
I1018 00:05:46.025897 29957 net.cpp:406] lstm1_h_conted_189 <- cont_190_lstm1_cont_slice_189_split_0
I1018 00:05:46.025905 29957 net.cpp:380] lstm1_h_conted_189 -> h_conted_189
I1018 00:05:46.025990 29957 net.cpp:122] Setting up lstm1_h_conted_189
I1018 00:05:46.026002 29957 net.cpp:129] Top shape: 1 150 512 (76800)
I1018 00:05:46.026006 29957 net.cpp:137] Memory required for data: 1298083200
I1018 00:05:46.026010 29957 layer_factory.hpp:77] Creating layer lstm1_transform_190
I1018 00:05:46.026024 29957 net.cpp:84] Creating Layer lstm1_transform_190
I1018 00:05:46.026031 29957 net.cpp:406] lstm1_transform_190 <- h_conted_189
I1018 00:05:46.026037 29957 net.cpp:380] lstm1_transform_190 -> W_hc_h_189
I1018 00:05:46.037822 29957 net.cpp:122] Setting up lstm1_transform_190
I1018 00:05:46.037838 29957 net.cpp:129] Top shape: 1 150 2048 (307200)
I1018 00:05:46.037843 29957 net.cpp:137] Memory required for data: 1299312000
I1018 00:05:46.037848 29957 net.cpp:465] Sharing parameters 'W_hc' owned by layer 'lstm1_transform_1', param index 0
I1018 00:05:46.037855 29957 layer_factory.hpp:77] Creating layer lstm1_gate_input_190
I1018 00:05:46.037863 29957 net.cpp:84] Creating Layer lstm1_gate_input_190
I1018 00:05:46.037868 29957 net.cpp:406] lstm1_gate_input_190 <- W_hc_h_189
I1018 00:05:46.037876 29957 net.cpp:406] lstm1_gate_input_190 <- W_xc_x_190
I1018 00:05:46.037883 29957 net.cpp:380] lstm1_gate_input_190 -> gate_input_190
I1018 00:05:46.037917 29957 net.cpp:122] Setting up lstm1_gate_input_190
I1018 00:05:46.037927 29957 net.cpp:129] Top shape: 1 150 2048 (307200)
I1018 00:05:46.037932 29957 net.cpp:137] Memory required for data: 1300540800
I1018 00:05:46.037940 29957 layer_factory.hpp:77] Creating layer lstm1_unit_190
I1018 00:05:46.037946 29957 net.cpp:84] Creating Layer lstm1_unit_190
I1018 00:05:46.037951 29957 net.cpp:406] lstm1_unit_190 <- c_189
I1018 00:05:46.037958 29957 net.cpp:406] lstm1_unit_190 <- gate_input_190
I1018 00:05:46.037964 29957 net.cpp:406] lstm1_unit_190 <- cont_190_lstm1_cont_slice_189_split_1
I1018 00:05:46.037971 29957 net.cpp:380] lstm1_unit_190 -> c_190
I1018 00:05:46.037979 29957 net.cpp:380] lstm1_unit_190 -> h_190
I1018 00:05:46.038030 29957 net.cpp:122] Setting up lstm1_unit_190
I1018 00:05:46.038039 29957 net.cpp:129] Top shape: 1 150 512 (76800)
I1018 00:05:46.038044 29957 net.cpp:129] Top shape: 1 150 512 (76800)
I1018 00:05:46.038048 29957 net.cpp:137] Memory required for data: 1301155200
I1018 00:05:46.038053 29957 layer_factory.hpp:77] Creating layer h_190_lstm1_unit_190_1_split
I1018 00:05:46.038065 29957 net.cpp:84] Creating Layer h_190_lstm1_unit_190_1_split
I1018 00:05:46.038071 29957 net.cpp:406] h_190_lstm1_unit_190_1_split <- h_190
I1018 00:05:46.038079 29957 net.cpp:380] h_190_lstm1_unit_190_1_split -> h_190_lstm1_unit_190_1_split_0
I1018 00:05:46.038085 29957 net.cpp:380] h_190_lstm1_unit_190_1_split -> h_190_lstm1_unit_190_1_split_1
I1018 00:05:46.038122 29957 net.cpp:122] Setting up h_190_lstm1_unit_190_1_split
I1018 00:05:46.038130 29957 net.cpp:129] Top shape: 1 150 512 (76800)
I1018 00:05:46.038136 29957 net.cpp:129] Top shape: 1 150 512 (76800)
I1018 00:05:46.038139 29957 net.cpp:137] Memory required for data: 1301769600
I1018 00:05:46.038143 29957 layer_factory.hpp:77] Creating layer lstm1_h_conted_190
I1018 00:05:46.038152 29957 net.cpp:84] Creating Layer lstm1_h_conted_190
I1018 00:05:46.038159 29957 net.cpp:406] lstm1_h_conted_190 <- h_190_lstm1_unit_190_1_split_0
I1018 00:05:46.038167 29957 net.cpp:406] lstm1_h_conted_190 <- cont_191_lstm1_cont_slice_190_split_0
I1018 00:05:46.038174 29957 net.cpp:380] lstm1_h_conted_190 -> h_conted_190
I1018 00:05:46.038257 29957 net.cpp:122] Setting up lstm1_h_conted_190
I1018 00:05:46.038266 29957 net.cpp:129] Top shape: 1 150 512 (76800)
I1018 00:05:46.038270 29957 net.cpp:137] Memory required for data: 1302076800
I1018 00:05:46.038275 29957 layer_factory.hpp:77] Creating layer lstm1_transform_191
I1018 00:05:46.038290 29957 net.cpp:84] Creating Layer lstm1_transform_191
I1018 00:05:46.038303 29957 net.cpp:406] lstm1_transform_191 <- h_conted_190
I1018 00:05:46.038312 29957 net.cpp:380] lstm1_transform_191 -> W_hc_h_190
I1018 00:05:46.050101 29957 net.cpp:122] Setting up lstm1_transform_191
I1018 00:05:46.050117 29957 net.cpp:129] Top shape: 1 150 2048 (307200)
I1018 00:05:46.050122 29957 net.cpp:137] Memory required for data: 1303305600
I1018 00:05:46.050127 29957 net.cpp:465] Sharing parameters 'W_hc' owned by layer 'lstm1_transform_1', param index 0
I1018 00:05:46.050132 29957 layer_factory.hpp:77] Creating layer lstm1_gate_input_191
I1018 00:05:46.050140 29957 net.cpp:84] Creating Layer lstm1_gate_input_191
I1018 00:05:46.050146 29957 net.cpp:406] lstm1_gate_input_191 <- W_hc_h_190
I1018 00:05:46.050153 29957 net.cpp:406] lstm1_gate_input_191 <- W_xc_x_191
I1018 00:05:46.050160 29957 net.cpp:380] lstm1_gate_input_191 -> gate_input_191
I1018 00:05:46.050190 29957 net.cpp:122] Setting up lstm1_gate_input_191
I1018 00:05:46.050199 29957 net.cpp:129] Top shape: 1 150 2048 (307200)
I1018 00:05:46.050204 29957 net.cpp:137] Memory required for data: 1304534400
I1018 00:05:46.050207 29957 layer_factory.hpp:77] Creating layer lstm1_unit_191
I1018 00:05:46.050216 29957 net.cpp:84] Creating Layer lstm1_unit_191
I1018 00:05:46.050223 29957 net.cpp:406] lstm1_unit_191 <- c_190
I1018 00:05:46.050230 29957 net.cpp:406] lstm1_unit_191 <- gate_input_191
I1018 00:05:46.050235 29957 net.cpp:406] lstm1_unit_191 <- cont_191_lstm1_cont_slice_190_split_1
I1018 00:05:46.050242 29957 net.cpp:380] lstm1_unit_191 -> c_191
I1018 00:05:46.050251 29957 net.cpp:380] lstm1_unit_191 -> h_191
I1018 00:05:46.050300 29957 net.cpp:122] Setting up lstm1_unit_191
I1018 00:05:46.050308 29957 net.cpp:129] Top shape: 1 150 512 (76800)
I1018 00:05:46.050314 29957 net.cpp:129] Top shape: 1 150 512 (76800)
I1018 00:05:46.050318 29957 net.cpp:137] Memory required for data: 1305148800
I1018 00:05:46.050323 29957 layer_factory.hpp:77] Creating layer h_191_lstm1_unit_191_1_split
I1018 00:05:46.050328 29957 net.cpp:84] Creating Layer h_191_lstm1_unit_191_1_split
I1018 00:05:46.050333 29957 net.cpp:406] h_191_lstm1_unit_191_1_split <- h_191
I1018 00:05:46.050341 29957 net.cpp:380] h_191_lstm1_unit_191_1_split -> h_191_lstm1_unit_191_1_split_0
I1018 00:05:46.050349 29957 net.cpp:380] h_191_lstm1_unit_191_1_split -> h_191_lstm1_unit_191_1_split_1
I1018 00:05:46.050384 29957 net.cpp:122] Setting up h_191_lstm1_unit_191_1_split
I1018 00:05:46.050392 29957 net.cpp:129] Top shape: 1 150 512 (76800)
I1018 00:05:46.050397 29957 net.cpp:129] Top shape: 1 150 512 (76800)
I1018 00:05:46.050401 29957 net.cpp:137] Memory required for data: 1305763200
I1018 00:05:46.050406 29957 layer_factory.hpp:77] Creating layer lstm1_h_conted_191
I1018 00:05:46.050423 29957 net.cpp:84] Creating Layer lstm1_h_conted_191
I1018 00:05:46.050433 29957 net.cpp:406] lstm1_h_conted_191 <- h_191_lstm1_unit_191_1_split_0
I1018 00:05:46.050441 29957 net.cpp:406] lstm1_h_conted_191 <- cont_192_lstm1_cont_slice_191_split_0
I1018 00:05:46.050448 29957 net.cpp:380] lstm1_h_conted_191 -> h_conted_191
I1018 00:05:46.050534 29957 net.cpp:122] Setting up lstm1_h_conted_191
I1018 00:05:46.050544 29957 net.cpp:129] Top shape: 1 150 512 (76800)
I1018 00:05:46.050549 29957 net.cpp:137] Memory required for data: 1306070400
I1018 00:05:46.050552 29957 layer_factory.hpp:77] Creating layer lstm1_transform_192
I1018 00:05:46.050561 29957 net.cpp:84] Creating Layer lstm1_transform_192
I1018 00:05:46.050567 29957 net.cpp:406] lstm1_transform_192 <- h_conted_191
I1018 00:05:46.050576 29957 net.cpp:380] lstm1_transform_192 -> W_hc_h_191
I1018 00:05:46.062319 29957 net.cpp:122] Setting up lstm1_transform_192
I1018 00:05:46.062336 29957 net.cpp:129] Top shape: 1 150 2048 (307200)
I1018 00:05:46.062340 29957 net.cpp:137] Memory required for data: 1307299200
I1018 00:05:46.062346 29957 net.cpp:465] Sharing parameters 'W_hc' owned by layer 'lstm1_transform_1', param index 0
I1018 00:05:46.062351 29957 layer_factory.hpp:77] Creating layer lstm1_gate_input_192
I1018 00:05:46.062361 29957 net.cpp:84] Creating Layer lstm1_gate_input_192
I1018 00:05:46.062367 29957 net.cpp:406] lstm1_gate_input_192 <- W_hc_h_191
I1018 00:05:46.062374 29957 net.cpp:406] lstm1_gate_input_192 <- W_xc_x_192
I1018 00:05:46.062381 29957 net.cpp:380] lstm1_gate_input_192 -> gate_input_192
I1018 00:05:46.062413 29957 net.cpp:122] Setting up lstm1_gate_input_192
I1018 00:05:46.062422 29957 net.cpp:129] Top shape: 1 150 2048 (307200)
I1018 00:05:46.062427 29957 net.cpp:137] Memory required for data: 1308528000
I1018 00:05:46.062430 29957 layer_factory.hpp:77] Creating layer lstm1_unit_192
I1018 00:05:46.062438 29957 net.cpp:84] Creating Layer lstm1_unit_192
I1018 00:05:46.062443 29957 net.cpp:406] lstm1_unit_192 <- c_191
I1018 00:05:46.062453 29957 net.cpp:406] lstm1_unit_192 <- gate_input_192
I1018 00:05:46.062459 29957 net.cpp:406] lstm1_unit_192 <- cont_192_lstm1_cont_slice_191_split_1
I1018 00:05:46.062465 29957 net.cpp:380] lstm1_unit_192 -> c_192
I1018 00:05:46.062474 29957 net.cpp:380] lstm1_unit_192 -> h_192
I1018 00:05:46.062522 29957 net.cpp:122] Setting up lstm1_unit_192
I1018 00:05:46.062531 29957 net.cpp:129] Top shape: 1 150 512 (76800)
I1018 00:05:46.062536 29957 net.cpp:129] Top shape: 1 150 512 (76800)
I1018 00:05:46.062541 29957 net.cpp:137] Memory required for data: 1309142400
I1018 00:05:46.062544 29957 layer_factory.hpp:77] Creating layer h_192_lstm1_unit_192_1_split
I1018 00:05:46.062551 29957 net.cpp:84] Creating Layer h_192_lstm1_unit_192_1_split
I1018 00:05:46.062556 29957 net.cpp:406] h_192_lstm1_unit_192_1_split <- h_192
I1018 00:05:46.062562 29957 net.cpp:380] h_192_lstm1_unit_192_1_split -> h_192_lstm1_unit_192_1_split_0
I1018 00:05:46.062572 29957 net.cpp:380] h_192_lstm1_unit_192_1_split -> h_192_lstm1_unit_192_1_split_1
I1018 00:05:46.062607 29957 net.cpp:122] Setting up h_192_lstm1_unit_192_1_split
I1018 00:05:46.062614 29957 net.cpp:129] Top shape: 1 150 512 (76800)
I1018 00:05:46.062619 29957 net.cpp:129] Top shape: 1 150 512 (76800)
I1018 00:05:46.062623 29957 net.cpp:137] Memory required for data: 1309756800
I1018 00:05:46.062628 29957 layer_factory.hpp:77] Creating layer lstm1_h_conted_192
I1018 00:05:46.062645 29957 net.cpp:84] Creating Layer lstm1_h_conted_192
I1018 00:05:46.062657 29957 net.cpp:406] lstm1_h_conted_192 <- h_192_lstm1_unit_192_1_split_0
I1018 00:05:46.062669 29957 net.cpp:406] lstm1_h_conted_192 <- cont_193_lstm1_cont_slice_192_split_0
I1018 00:05:46.062677 29957 net.cpp:380] lstm1_h_conted_192 -> h_conted_192
I1018 00:05:46.062763 29957 net.cpp:122] Setting up lstm1_h_conted_192
I1018 00:05:46.062773 29957 net.cpp:129] Top shape: 1 150 512 (76800)
I1018 00:05:46.062777 29957 net.cpp:137] Memory required for data: 1310064000
I1018 00:05:46.062782 29957 layer_factory.hpp:77] Creating layer lstm1_transform_193
I1018 00:05:46.062791 29957 net.cpp:84] Creating Layer lstm1_transform_193
I1018 00:05:46.062798 29957 net.cpp:406] lstm1_transform_193 <- h_conted_192
I1018 00:05:46.062804 29957 net.cpp:380] lstm1_transform_193 -> W_hc_h_192
I1018 00:05:46.074589 29957 net.cpp:122] Setting up lstm1_transform_193
I1018 00:05:46.074606 29957 net.cpp:129] Top shape: 1 150 2048 (307200)
I1018 00:05:46.074610 29957 net.cpp:137] Memory required for data: 1311292800
I1018 00:05:46.074615 29957 net.cpp:465] Sharing parameters 'W_hc' owned by layer 'lstm1_transform_1', param index 0
I1018 00:05:46.074622 29957 layer_factory.hpp:77] Creating layer lstm1_gate_input_193
I1018 00:05:46.074648 29957 net.cpp:84] Creating Layer lstm1_gate_input_193
I1018 00:05:46.074656 29957 net.cpp:406] lstm1_gate_input_193 <- W_hc_h_192
I1018 00:05:46.074662 29957 net.cpp:406] lstm1_gate_input_193 <- W_xc_x_193
I1018 00:05:46.074669 29957 net.cpp:380] lstm1_gate_input_193 -> gate_input_193
I1018 00:05:46.074703 29957 net.cpp:122] Setting up lstm1_gate_input_193
I1018 00:05:46.074710 29957 net.cpp:129] Top shape: 1 150 2048 (307200)
I1018 00:05:46.074714 29957 net.cpp:137] Memory required for data: 1312521600
I1018 00:05:46.074718 29957 layer_factory.hpp:77] Creating layer lstm1_unit_193
I1018 00:05:46.074730 29957 net.cpp:84] Creating Layer lstm1_unit_193
I1018 00:05:46.074743 29957 net.cpp:406] lstm1_unit_193 <- c_192
I1018 00:05:46.074749 29957 net.cpp:406] lstm1_unit_193 <- gate_input_193
I1018 00:05:46.074755 29957 net.cpp:406] lstm1_unit_193 <- cont_193_lstm1_cont_slice_192_split_1
I1018 00:05:46.074764 29957 net.cpp:380] lstm1_unit_193 -> c_193
I1018 00:05:46.074772 29957 net.cpp:380] lstm1_unit_193 -> h_193
I1018 00:05:46.074822 29957 net.cpp:122] Setting up lstm1_unit_193
I1018 00:05:46.074831 29957 net.cpp:129] Top shape: 1 150 512 (76800)
I1018 00:05:46.074836 29957 net.cpp:129] Top shape: 1 150 512 (76800)
I1018 00:05:46.074841 29957 net.cpp:137] Memory required for data: 1313136000
I1018 00:05:46.074844 29957 layer_factory.hpp:77] Creating layer h_193_lstm1_unit_193_1_split
I1018 00:05:46.074851 29957 net.cpp:84] Creating Layer h_193_lstm1_unit_193_1_split
I1018 00:05:46.074856 29957 net.cpp:406] h_193_lstm1_unit_193_1_split <- h_193
I1018 00:05:46.074862 29957 net.cpp:380] h_193_lstm1_unit_193_1_split -> h_193_lstm1_unit_193_1_split_0
I1018 00:05:46.074870 29957 net.cpp:380] h_193_lstm1_unit_193_1_split -> h_193_lstm1_unit_193_1_split_1
I1018 00:05:46.074906 29957 net.cpp:122] Setting up h_193_lstm1_unit_193_1_split
I1018 00:05:46.074914 29957 net.cpp:129] Top shape: 1 150 512 (76800)
I1018 00:05:46.074919 29957 net.cpp:129] Top shape: 1 150 512 (76800)
I1018 00:05:46.074923 29957 net.cpp:137] Memory required for data: 1313750400
I1018 00:05:46.074928 29957 layer_factory.hpp:77] Creating layer lstm1_h_conted_193
I1018 00:05:46.074935 29957 net.cpp:84] Creating Layer lstm1_h_conted_193
I1018 00:05:46.074941 29957 net.cpp:406] lstm1_h_conted_193 <- h_193_lstm1_unit_193_1_split_0
I1018 00:05:46.074949 29957 net.cpp:406] lstm1_h_conted_193 <- cont_194_lstm1_cont_slice_193_split_0
I1018 00:05:46.074957 29957 net.cpp:380] lstm1_h_conted_193 -> h_conted_193
I1018 00:05:46.075037 29957 net.cpp:122] Setting up lstm1_h_conted_193
I1018 00:05:46.075047 29957 net.cpp:129] Top shape: 1 150 512 (76800)
I1018 00:05:46.075052 29957 net.cpp:137] Memory required for data: 1314057600
I1018 00:05:46.075055 29957 layer_factory.hpp:77] Creating layer lstm1_transform_194
I1018 00:05:46.075063 29957 net.cpp:84] Creating Layer lstm1_transform_194
I1018 00:05:46.075069 29957 net.cpp:406] lstm1_transform_194 <- h_conted_193
I1018 00:05:46.075078 29957 net.cpp:380] lstm1_transform_194 -> W_hc_h_193
I1018 00:05:46.086824 29957 net.cpp:122] Setting up lstm1_transform_194
I1018 00:05:46.086841 29957 net.cpp:129] Top shape: 1 150 2048 (307200)
I1018 00:05:46.086845 29957 net.cpp:137] Memory required for data: 1315286400
I1018 00:05:46.086851 29957 net.cpp:465] Sharing parameters 'W_hc' owned by layer 'lstm1_transform_1', param index 0
I1018 00:05:46.086856 29957 layer_factory.hpp:77] Creating layer lstm1_gate_input_194
I1018 00:05:46.086864 29957 net.cpp:84] Creating Layer lstm1_gate_input_194
I1018 00:05:46.086869 29957 net.cpp:406] lstm1_gate_input_194 <- W_hc_h_193
I1018 00:05:46.086876 29957 net.cpp:406] lstm1_gate_input_194 <- W_xc_x_194
I1018 00:05:46.086886 29957 net.cpp:380] lstm1_gate_input_194 -> gate_input_194
I1018 00:05:46.086916 29957 net.cpp:122] Setting up lstm1_gate_input_194
I1018 00:05:46.086925 29957 net.cpp:129] Top shape: 1 150 2048 (307200)
I1018 00:05:46.086930 29957 net.cpp:137] Memory required for data: 1316515200
I1018 00:05:46.086933 29957 layer_factory.hpp:77] Creating layer lstm1_unit_194
I1018 00:05:46.086951 29957 net.cpp:84] Creating Layer lstm1_unit_194
I1018 00:05:46.086962 29957 net.cpp:406] lstm1_unit_194 <- c_193
I1018 00:05:46.086971 29957 net.cpp:406] lstm1_unit_194 <- gate_input_194
I1018 00:05:46.086977 29957 net.cpp:406] lstm1_unit_194 <- cont_194_lstm1_cont_slice_193_split_1
I1018 00:05:46.086982 29957 net.cpp:380] lstm1_unit_194 -> c_194
I1018 00:05:46.086992 29957 net.cpp:380] lstm1_unit_194 -> h_194
I1018 00:05:46.087046 29957 net.cpp:122] Setting up lstm1_unit_194
I1018 00:05:46.087055 29957 net.cpp:129] Top shape: 1 150 512 (76800)
I1018 00:05:46.087061 29957 net.cpp:129] Top shape: 1 150 512 (76800)
I1018 00:05:46.087064 29957 net.cpp:137] Memory required for data: 1317129600
I1018 00:05:46.087069 29957 layer_factory.hpp:77] Creating layer h_194_lstm1_unit_194_1_split
I1018 00:05:46.087075 29957 net.cpp:84] Creating Layer h_194_lstm1_unit_194_1_split
I1018 00:05:46.087080 29957 net.cpp:406] h_194_lstm1_unit_194_1_split <- h_194
I1018 00:05:46.087087 29957 net.cpp:380] h_194_lstm1_unit_194_1_split -> h_194_lstm1_unit_194_1_split_0
I1018 00:05:46.087095 29957 net.cpp:380] h_194_lstm1_unit_194_1_split -> h_194_lstm1_unit_194_1_split_1
I1018 00:05:46.087131 29957 net.cpp:122] Setting up h_194_lstm1_unit_194_1_split
I1018 00:05:46.087141 29957 net.cpp:129] Top shape: 1 150 512 (76800)
I1018 00:05:46.087144 29957 net.cpp:129] Top shape: 1 150 512 (76800)
I1018 00:05:46.087148 29957 net.cpp:137] Memory required for data: 1317744000
I1018 00:05:46.087154 29957 layer_factory.hpp:77] Creating layer lstm1_h_conted_194
I1018 00:05:46.087160 29957 net.cpp:84] Creating Layer lstm1_h_conted_194
I1018 00:05:46.087167 29957 net.cpp:406] lstm1_h_conted_194 <- h_194_lstm1_unit_194_1_split_0
I1018 00:05:46.087173 29957 net.cpp:406] lstm1_h_conted_194 <- cont_195_lstm1_cont_slice_194_split_0
I1018 00:05:46.087180 29957 net.cpp:380] lstm1_h_conted_194 -> h_conted_194
I1018 00:05:46.087265 29957 net.cpp:122] Setting up lstm1_h_conted_194
I1018 00:05:46.087275 29957 net.cpp:129] Top shape: 1 150 512 (76800)
I1018 00:05:46.087280 29957 net.cpp:137] Memory required for data: 1318051200
I1018 00:05:46.087283 29957 layer_factory.hpp:77] Creating layer lstm1_transform_195
I1018 00:05:46.087292 29957 net.cpp:84] Creating Layer lstm1_transform_195
I1018 00:05:46.087298 29957 net.cpp:406] lstm1_transform_195 <- h_conted_194
I1018 00:05:46.087308 29957 net.cpp:380] lstm1_transform_195 -> W_hc_h_194
I1018 00:05:46.099058 29957 net.cpp:122] Setting up lstm1_transform_195
I1018 00:05:46.099074 29957 net.cpp:129] Top shape: 1 150 2048 (307200)
I1018 00:05:46.099078 29957 net.cpp:137] Memory required for data: 1319280000
I1018 00:05:46.099084 29957 net.cpp:465] Sharing parameters 'W_hc' owned by layer 'lstm1_transform_1', param index 0
I1018 00:05:46.099089 29957 layer_factory.hpp:77] Creating layer lstm1_gate_input_195
I1018 00:05:46.099097 29957 net.cpp:84] Creating Layer lstm1_gate_input_195
I1018 00:05:46.099102 29957 net.cpp:406] lstm1_gate_input_195 <- W_hc_h_194
I1018 00:05:46.099109 29957 net.cpp:406] lstm1_gate_input_195 <- W_xc_x_195
I1018 00:05:46.099117 29957 net.cpp:380] lstm1_gate_input_195 -> gate_input_195
I1018 00:05:46.099151 29957 net.cpp:122] Setting up lstm1_gate_input_195
I1018 00:05:46.099161 29957 net.cpp:129] Top shape: 1 150 2048 (307200)
I1018 00:05:46.099165 29957 net.cpp:137] Memory required for data: 1320508800
I1018 00:05:46.099169 29957 layer_factory.hpp:77] Creating layer lstm1_unit_195
I1018 00:05:46.099187 29957 net.cpp:84] Creating Layer lstm1_unit_195
I1018 00:05:46.099197 29957 net.cpp:406] lstm1_unit_195 <- c_194
I1018 00:05:46.099205 29957 net.cpp:406] lstm1_unit_195 <- gate_input_195
I1018 00:05:46.099210 29957 net.cpp:406] lstm1_unit_195 <- cont_195_lstm1_cont_slice_194_split_1
I1018 00:05:46.099216 29957 net.cpp:380] lstm1_unit_195 -> c_195
I1018 00:05:46.099225 29957 net.cpp:380] lstm1_unit_195 -> h_195
I1018 00:05:46.099279 29957 net.cpp:122] Setting up lstm1_unit_195
I1018 00:05:46.099288 29957 net.cpp:129] Top shape: 1 150 512 (76800)
I1018 00:05:46.099293 29957 net.cpp:129] Top shape: 1 150 512 (76800)
I1018 00:05:46.099298 29957 net.cpp:137] Memory required for data: 1321123200
I1018 00:05:46.099301 29957 layer_factory.hpp:77] Creating layer h_195_lstm1_unit_195_1_split
I1018 00:05:46.099309 29957 net.cpp:84] Creating Layer h_195_lstm1_unit_195_1_split
I1018 00:05:46.099314 29957 net.cpp:406] h_195_lstm1_unit_195_1_split <- h_195
I1018 00:05:46.099321 29957 net.cpp:380] h_195_lstm1_unit_195_1_split -> h_195_lstm1_unit_195_1_split_0
I1018 00:05:46.099329 29957 net.cpp:380] h_195_lstm1_unit_195_1_split -> h_195_lstm1_unit_195_1_split_1
I1018 00:05:46.099365 29957 net.cpp:122] Setting up h_195_lstm1_unit_195_1_split
I1018 00:05:46.099373 29957 net.cpp:129] Top shape: 1 150 512 (76800)
I1018 00:05:46.099378 29957 net.cpp:129] Top shape: 1 150 512 (76800)
I1018 00:05:46.099382 29957 net.cpp:137] Memory required for data: 1321737600
I1018 00:05:46.099386 29957 layer_factory.hpp:77] Creating layer lstm1_h_conted_195
I1018 00:05:46.099395 29957 net.cpp:84] Creating Layer lstm1_h_conted_195
I1018 00:05:46.099401 29957 net.cpp:406] lstm1_h_conted_195 <- h_195_lstm1_unit_195_1_split_0
I1018 00:05:46.099411 29957 net.cpp:406] lstm1_h_conted_195 <- cont_196_lstm1_cont_slice_195_split_0
I1018 00:05:46.099417 29957 net.cpp:380] lstm1_h_conted_195 -> h_conted_195
I1018 00:05:46.099498 29957 net.cpp:122] Setting up lstm1_h_conted_195
I1018 00:05:46.099508 29957 net.cpp:129] Top shape: 1 150 512 (76800)
I1018 00:05:46.099511 29957 net.cpp:137] Memory required for data: 1322044800
I1018 00:05:46.099515 29957 layer_factory.hpp:77] Creating layer lstm1_transform_196
I1018 00:05:46.099524 29957 net.cpp:84] Creating Layer lstm1_transform_196
I1018 00:05:46.099529 29957 net.cpp:406] lstm1_transform_196 <- h_conted_195
I1018 00:05:46.099536 29957 net.cpp:380] lstm1_transform_196 -> W_hc_h_195
I1018 00:05:46.111270 29957 net.cpp:122] Setting up lstm1_transform_196
I1018 00:05:46.111287 29957 net.cpp:129] Top shape: 1 150 2048 (307200)
I1018 00:05:46.111291 29957 net.cpp:137] Memory required for data: 1323273600
I1018 00:05:46.111297 29957 net.cpp:465] Sharing parameters 'W_hc' owned by layer 'lstm1_transform_1', param index 0
I1018 00:05:46.111304 29957 layer_factory.hpp:77] Creating layer lstm1_gate_input_196
I1018 00:05:46.111323 29957 net.cpp:84] Creating Layer lstm1_gate_input_196
I1018 00:05:46.111333 29957 net.cpp:406] lstm1_gate_input_196 <- W_hc_h_195
I1018 00:05:46.111341 29957 net.cpp:406] lstm1_gate_input_196 <- W_xc_x_196
I1018 00:05:46.111348 29957 net.cpp:380] lstm1_gate_input_196 -> gate_input_196
I1018 00:05:46.111385 29957 net.cpp:122] Setting up lstm1_gate_input_196
I1018 00:05:46.111395 29957 net.cpp:129] Top shape: 1 150 2048 (307200)
I1018 00:05:46.111399 29957 net.cpp:137] Memory required for data: 1324502400
I1018 00:05:46.111403 29957 layer_factory.hpp:77] Creating layer lstm1_unit_196
I1018 00:05:46.111409 29957 net.cpp:84] Creating Layer lstm1_unit_196
I1018 00:05:46.111415 29957 net.cpp:406] lstm1_unit_196 <- c_195
I1018 00:05:46.111421 29957 net.cpp:406] lstm1_unit_196 <- gate_input_196
I1018 00:05:46.111428 29957 net.cpp:406] lstm1_unit_196 <- cont_196_lstm1_cont_slice_195_split_1
I1018 00:05:46.111433 29957 net.cpp:380] lstm1_unit_196 -> c_196
I1018 00:05:46.111441 29957 net.cpp:380] lstm1_unit_196 -> h_196
I1018 00:05:46.111490 29957 net.cpp:122] Setting up lstm1_unit_196
I1018 00:05:46.111500 29957 net.cpp:129] Top shape: 1 150 512 (76800)
I1018 00:05:46.111505 29957 net.cpp:129] Top shape: 1 150 512 (76800)
I1018 00:05:46.111508 29957 net.cpp:137] Memory required for data: 1325116800
I1018 00:05:46.111513 29957 layer_factory.hpp:77] Creating layer lstm1_
I1018 00:05:46.111526 29957 net.cpp:84] Creating Layer lstm1_
I1018 00:05:46.111534 29957 net.cpp:406] lstm1_ <- c_196
I1018 00:05:46.111543 29957 net.cpp:380] lstm1_ -> c_T
I1018 00:05:46.111568 29957 net.cpp:122] Setting up lstm1_
I1018 00:05:46.111577 29957 net.cpp:129] Top shape: 1 150 512 (76800)
I1018 00:05:46.111580 29957 net.cpp:137] Memory required for data: 1325424000
I1018 00:05:46.111584 29957 layer_factory.hpp:77] Creating layer lstm1_h_concat
I1018 00:05:46.111614 29957 net.cpp:84] Creating Layer lstm1_h_concat
I1018 00:05:46.111623 29957 net.cpp:406] lstm1_h_concat <- h_1_lstm1_unit_1_1_split_1
I1018 00:05:46.111634 29957 net.cpp:406] lstm1_h_concat <- h_2_lstm1_unit_2_1_split_1
…
I1018 00:05:46.159584 29957 net.cpp:200] lstm1_ does not need backward computation.
I1018 00:05:46.159587 29957 net.cpp:242] This network produces output c_T
I1018 00:05:46.159596 29957 net.cpp:242] This network produces output h_pseudoloss
I1018 00:05:46.340039 29957 net.cpp:255] Network initialization done.
I1018 00:05:46.344766 29957 recurrent_layer.cpp:150] Adding parameter 0: W_xc
I1018 00:05:46.344787 29957 recurrent_layer.cpp:150] Adding parameter 1: b_c
I1018 00:05:46.344794 29957 recurrent_layer.cpp:150] Adding parameter 2: W_hc
I1018 00:05:46.361342 29957 net.cpp:122] Setting up lstm1
I1018 00:05:46.361404 29957 net.cpp:129] Top shape: 196 150 512 (15052800)
I1018 00:05:46.361413 29957 net.cpp:137] Memory required for data: 17431614600
I1018 00:05:46.361436 29957 layer_factory.hpp:77] Creating layer lstm1-drop
I1018 00:05:46.361459 29957 net.cpp:84] Creating Layer lstm1-drop
I1018 00:05:46.361476 29957 net.cpp:406] lstm1-drop <- lstm1
I1018 00:05:46.361490 29957 net.cpp:380] lstm1-drop -> lstm1-drop
I1018 00:05:46.361572 29957 net.cpp:122] Setting up lstm1-drop
I1018 00:05:46.361582 29957 net.cpp:129] Top shape: 196 150 512 (15052800)
I1018 00:05:46.361588 29957 net.cpp:137] Memory required for data: 17491825800
I1018 00:05:46.361593 29957 layer_factory.hpp:77] Creating layer fc-final
I1018 00:05:46.361613 29957 net.cpp:84] Creating Layer fc-final
I1018 00:05:46.361624 29957 net.cpp:406] fc-final <- lstm1-drop
I1018 00:05:46.361634 29957 net.cpp:380] fc-final -> fc-final
I1018 00:05:46.362215 29957 net.cpp:122] Setting up fc-final
I1018 00:05:46.362229 29957 net.cpp:129] Top shape: 196 150 10 (294000)
I1018 00:05:46.362234 29957 net.cpp:137] Memory required for data: 17493001800
I1018 00:05:46.362243 29957 layer_factory.hpp:77] Creating layer fc-final_fc-final_0_split
I1018 00:05:46.362257 29957 net.cpp:84] Creating Layer fc-final_fc-final_0_split
I1018 00:05:46.362262 29957 net.cpp:406] fc-final_fc-final_0_split <- fc-final
I1018 00:05:46.362270 29957 net.cpp:380] fc-final_fc-final_0_split -> fc-final_fc-final_0_split_0
I1018 00:05:46.362280 29957 net.cpp:380] fc-final_fc-final_0_split -> fc-final_fc-final_0_split_1
I1018 00:05:46.362331 29957 net.cpp:122] Setting up fc-final_fc-final_0_split
I1018 00:05:46.362339 29957 net.cpp:129] Top shape: 196 150 10 (294000)
I1018 00:05:46.362345 29957 net.cpp:129] Top shape: 196 150 10 (294000)
I1018 00:05:46.362350 29957 net.cpp:137] Memory required for data: 17495353800
I1018 00:05:46.362355 29957 layer_factory.hpp:77] Creating layer loss
I1018 00:05:46.362367 29957 net.cpp:84] Creating Layer loss
I1018 00:05:46.362372 29957 net.cpp:406] loss <- fc-final_fc-final_0_split_0
I1018 00:05:46.362380 29957 net.cpp:406] loss <- reshape-label_label_tran_0_split_0
I1018 00:05:46.362388 29957 net.cpp:380] loss -> loss
…
