…
I1018 00:02:56.162323 29782 net.cpp:294] The NetState phase (0) differed from the phase (1) specified by a rule in layer Silence
I1018 00:02:56.162528 29782 net.cpp:51] Initializing net from parameters: 
name: "VGG-Places365"
state {
  phase: TRAIN
  level: 0
  stage: ""
}
layer {
  name: "data"
  type: "ImageData"
  top: "data"
  top: "label"
  include {
    phase: TRAIN
  }
  transform_param {
    mirror: true
    crop_size: 224
    mean_value: 104
    mean_value: 117
    mean_value: 123
  }
  image_data_param {
    source: "../Data/lsun_train_list_12w.txt"
    batch_size: 5
    shuffle: true
    new_height: 256
    new_width: 256
  }
}
layer {
  name: "label_tran"
  type: "Python"
  bottom: "label"
  top: "reshape-label"
  top: "clip_markers"
  python_param {
    module: "data_preparation_sort_max_clip"
    layer: "ReshapeLabel"
  }
}
layer {
  name: "conv1_1"
  type: "Convolution"
  bottom: "data"
  top: "conv1_1"
  convolution_param {
    num_output: 64
    pad: 1
    kernel_size: 3
  }
}
layer {
  name: "relu1_1"
  type: "ReLU"
  bottom: "conv1_1"
  top: "conv1_1"
}
layer {
  name: "conv1_2"
  type: "Convolution"
  bottom: "conv1_1"
  top: "conv1_2"
  convolution_param {
    num_output: 64
    pad: 1
    kernel_size: 3
  }
}
layer {
  name: "relu1_2"
  type: "ReLU"
  bottom: "conv1_2"
  top: "conv1_2"
}
layer {
  name: "pool1"
  type: "Pooling"
  bottom: "conv1_2"
  top: "pool1"
  pooling_param {
    pool: MAX
    kernel_size: 2
    stride: 2
  }
}
layer {
  name: "conv2_1"
  type: "Convolution"
  bottom: "pool1"
  top: "conv2_1"
  convolution_param {
    num_output: 128
    pad: 1
    kernel_size: 3
  }
}
layer {
  name: "relu2_1"
  type: "ReLU"
  bottom: "conv2_1"
  top: "conv2_1"
}
layer {
  name: "conv2_2"
  type: "Convolution"
  bottom: "conv2_1"
  top: "conv2_2"
  convolution_param {
    num_output: 128
    pad: 1
    kernel_size: 3
  }
}
layer {
  name: "relu2_2"
  type: "ReLU"
  bottom: "conv2_2"
  top: "conv2_2"
}
layer {
  name: "pool2"
  type: "Pooling"
  bottom: "conv2_2"
  top: "pool2"
  pooling_param {
    pool: MAX
    kernel_size: 2
    stride: 2
  }
}
layer {
  name: "conv3_1"
  type: "Convolution"
  bottom: "pool2"
  top: "conv3_1"
  convolution_param {
    num_output: 256
    pad: 1
    kernel_size: 3
  }
}
layer {
  name: "relu3_1"
  type: "ReLU"
  bottom: "conv3_1"
  top: "conv3_1"
}
layer {
  name: "conv3_2"
  type: "Convolution"
  bottom: "conv3_1"
  top: "conv3_2"
  convolution_param {
    num_output: 256
    pad: 1
    kernel_size: 3
  }
}
layer {
  name: "relu3_2"
  type: "ReLU"
  bottom: "conv3_2"
  top: "conv3_2"
}
layer {
  name: "conv3_3"
  type: "Convolution"
  bottom: "conv3_2"
  top: "conv3_3"
  convolution_param {
    num_output: 256
    pad: 1
    kernel_size: 3
  }
}
layer {
  name: "relu3_3"
  type: "ReLU"
  bottom: "conv3_3"
  top: "conv3_3"
}
layer {
  name: "pool3"
  type: "Pooling"
  bottom: "conv3_3"
  top: "pool3"
  pooling_param {
    pool: MAX
    kernel_size: 2
    stride: 2
  }
}
layer {
  name: "conv4_1"
  type: "Convolution"
  bottom: "pool3"
  top: "conv4_1"
  convolution_param {
    num_output: 512
    pad: 1
    kernel_size: 3
  }
}
layer {
  name: "relu4_1"
  type: "ReLU"
  bottom: "conv4_1"
  top: "conv4_1"
}
layer {
  name: "conv4_2"
  type: "Convolution"
  bottom: "conv4_1"
  top: "conv4_2"
  convolution_param {
    num_output: 512
    pad: 1
    kernel_size: 3
  }
}
layer {
  name: "relu4_2"
  type: "ReLU"
  bottom: "conv4_2"
  top: "conv4_2"
}
layer {
  name: "conv4_3"
  type: "Convolution"
  bottom: "conv4_2"
  top: "conv4_3"
  convolution_param {
    num_output: 512
    pad: 1
    kernel_size: 3
  }
}
layer {
  name: "relu4_3"
  type: "ReLU"
  bottom: "conv4_3"
  top: "conv4_3"
}
layer {
  name: "pool4"
  type: "Pooling"
  bottom: "conv4_3"
  top: "pool4"
  pooling_param {
    pool: MAX
    kernel_size: 2
    stride: 2
  }
}
layer {
  name: "conv5_1"
  type: "Convolution"
  bottom: "pool4"
  top: "conv5_1"
  convolution_param {
    num_output: 512
    pad: 1
    kernel_size: 3
  }
}
layer {
  name: "relu5_1"
  type: "ReLU"
  bottom: "conv5_1"
  top: "conv5_1"
}
layer {
  name: "conv5_2"
  type: "Convolution"
  bottom: "conv5_1"
  top: "conv5_2"
  convolution_param {
    num_output: 512
    pad: 1
    kernel_size: 3
  }
}
layer {
  name: "relu5_2"
  type: "ReLU"
  bottom: "conv5_2"
  top: "conv5_2"
}
layer {
  name: "conv5_3"
  type: "Convolution"
  bottom: "conv5_2"
  top: "conv5_3"
  convolution_param {
    num_output: 512
    pad: 1
    kernel_size: 3
  }
}
layer {
  name: "relu5_3"
  type: "ReLU"
  bottom: "conv5_3"
  top: "conv5_3"
}
layer {
  name: "conv5_3_re"
  type: "Reshape"
  bottom: "conv5_3"
  top: "conv5_3_re"
  reshape_param {
    shape {
      dim: 0
      dim: 0
      dim: -1
    }
  }
}
layer {
  name: "conv5_3_tran"
  type: "Python"
  bottom: "conv5_3_re"
  top: "conv5_3_tran"
  python_param {
    module: "data_preparation_sort_max_clip"
    layer: "DataTransposeSortMaxClip"
  }
}
layer {
  name: "lstm1"
  type: "LSTM"
  bottom: "conv5_3_tran"
  bottom: "clip_markers"
  top: "lstm1"
  recurrent_param {
    num_output: 512
    weight_filler {
      type: "uniform"
      min: -0.01
      max: 0.01
    }
    bias_filler {
      type: "constant"
      value: 0
    }
  }
}
layer {
  name: "lstm1-drop"
  type: "Dropout"
  bottom: "lstm1"
  top: "lstm1-drop"
  dropout_param {
    dropout_ratio: 0.5
  }
}
layer {
  name: "fc-final"
  type: "InnerProduct"
  bottom: "lstm1-drop"
  top: "fc-final"
  param {
    lr_mult: 1
    decay_mult: 1
  }
  param {
    lr_mult: 2
    decay_mult: 0
  }
  inner_product_param {
    num_output: 10
    weight_filler {
      type: "gaussian"
      std: 0.01
    }
    bias_filler {
      type: "constant"
      value: 0
    }
    axis: 2
  }
}
layer {
  name: "loss"
  type: "SoftmaxWithLoss"
  bottom: "fc-final"
  bottom: "reshape-label"
  top: "loss"
  softmax_param {
    axis: 2
  }
}
layer {
  name: "accuracy"
  type: "Accuracy"
  bottom: "fc-final"
  bottom: "reshape-label"
  top: "accuracy"
  accuracy_param {
    axis: 2
  }
}
I1018 00:02:56.162765 29782 layer_factory.hpp:77] Creating layer data
I1018 00:02:56.162818 29782 net.cpp:84] Creating Layer data
I1018 00:02:56.162833 29782 net.cpp:380] data -> data
I1018 00:02:56.162881 29782 net.cpp:380] data -> label
I1018 00:02:56.162917 29782 image_data_layer.cpp:38] Opening file ../Data/lsun_train_list_12w.txt
I1018 00:02:56.748582 29782 image_data_layer.cpp:53] Shuffling data
I1018 00:02:57.082026 29782 image_data_layer.cpp:63] A total of 1200000 images.
I1018 00:02:57.087182 29782 image_data_layer.cpp:90] output data size: 5,3,224,224
I1018 00:02:57.098100 29782 net.cpp:122] Setting up data
I1018 00:02:57.098135 29782 net.cpp:129] Top shape: 5 3 224 224 (752640)
I1018 00:02:57.098142 29782 net.cpp:129] Top shape: 5 (5)
I1018 00:02:57.098147 29782 net.cpp:137] Memory required for data: 3010580
I1018 00:02:57.098214 29782 layer_factory.hpp:77] Creating layer label_tran
I1018 00:02:57.739161 29782 net.cpp:84] Creating Layer label_tran
I1018 00:02:57.739207 29782 net.cpp:406] label_tran <- label
I1018 00:02:57.739231 29782 net.cpp:380] label_tran -> reshape-label
I1018 00:02:57.739244 29782 net.cpp:380] label_tran -> clip_markers
I1018 00:02:57.739528 29782 net.cpp:122] Setting up label_tran
I1018 00:02:57.739567 29782 net.cpp:129] Top shape: 64 5 (320)
I1018 00:02:57.739573 29782 net.cpp:129] Top shape: 64 5 (320)
I1018 00:02:57.739578 29782 net.cpp:137] Memory required for data: 3013140
I1018 00:02:57.739583 29782 layer_factory.hpp:77] Creating layer reshape-label_label_tran_0_split
I1018 00:02:57.739600 29782 net.cpp:84] Creating Layer reshape-label_label_tran_0_split
I1018 00:02:57.739605 29782 net.cpp:406] reshape-label_label_tran_0_split <- reshape-label
I1018 00:02:57.739612 29782 net.cpp:380] reshape-label_label_tran_0_split -> reshape-label_label_tran_0_split_0
I1018 00:02:57.739622 29782 net.cpp:380] reshape-label_label_tran_0_split -> reshape-label_label_tran_0_split_1
I1018 00:02:57.739672 29782 net.cpp:122] Setting up reshape-label_label_tran_0_split
I1018 00:02:57.739681 29782 net.cpp:129] Top shape: 64 5 (320)
I1018 00:02:57.739686 29782 net.cpp:129] Top shape: 64 5 (320)
I1018 00:02:57.739689 29782 net.cpp:137] Memory required for data: 3015700
I1018 00:02:57.739694 29782 layer_factory.hpp:77] Creating layer conv1_1
I1018 00:02:57.739714 29782 net.cpp:84] Creating Layer conv1_1
I1018 00:02:57.739720 29782 net.cpp:406] conv1_1 <- data
I1018 00:02:57.739727 29782 net.cpp:380] conv1_1 -> conv1_1
I1018 00:02:57.741664 29782 net.cpp:122] Setting up conv1_1
I1018 00:02:57.741681 29782 net.cpp:129] Top shape: 5 64 224 224 (16056320)
I1018 00:02:57.741698 29782 net.cpp:137] Memory required for data: 67240980
I1018 00:02:57.741722 29782 layer_factory.hpp:77] Creating layer relu1_1
I1018 00:02:57.741745 29782 net.cpp:84] Creating Layer relu1_1
I1018 00:02:57.741750 29782 net.cpp:406] relu1_1 <- conv1_1
I1018 00:02:57.741765 29782 net.cpp:367] relu1_1 -> conv1_1 (in-place)
I1018 00:02:57.741778 29782 net.cpp:122] Setting up relu1_1
I1018 00:02:57.741785 29782 net.cpp:129] Top shape: 5 64 224 224 (16056320)
I1018 00:02:57.741788 29782 net.cpp:137] Memory required for data: 131466260
I1018 00:02:57.741794 29782 layer_factory.hpp:77] Creating layer conv1_2
I1018 00:02:57.741806 29782 net.cpp:84] Creating Layer conv1_2
I1018 00:02:57.741811 29782 net.cpp:406] conv1_2 <- conv1_1
I1018 00:02:57.741817 29782 net.cpp:380] conv1_2 -> conv1_2
I1018 00:02:57.742091 29782 net.cpp:122] Setting up conv1_2
I1018 00:02:57.742102 29782 net.cpp:129] Top shape: 5 64 224 224 (16056320)
I1018 00:02:57.742106 29782 net.cpp:137] Memory required for data: 195691540
I1018 00:02:57.742115 29782 layer_factory.hpp:77] Creating layer relu1_2
I1018 00:02:57.742123 29782 net.cpp:84] Creating Layer relu1_2
I1018 00:02:57.742127 29782 net.cpp:406] relu1_2 <- conv1_2
I1018 00:02:57.742133 29782 net.cpp:367] relu1_2 -> conv1_2 (in-place)
I1018 00:02:57.742141 29782 net.cpp:122] Setting up relu1_2
I1018 00:02:57.742146 29782 net.cpp:129] Top shape: 5 64 224 224 (16056320)
I1018 00:02:57.742149 29782 net.cpp:137] Memory required for data: 259916820
I1018 00:02:57.742153 29782 layer_factory.hpp:77] Creating layer pool1
I1018 00:02:57.742163 29782 net.cpp:84] Creating Layer pool1
I1018 00:02:57.742167 29782 net.cpp:406] pool1 <- conv1_2
I1018 00:02:57.742172 29782 net.cpp:380] pool1 -> pool1
I1018 00:02:57.742220 29782 net.cpp:122] Setting up pool1
I1018 00:02:57.742230 29782 net.cpp:129] Top shape: 5 64 112 112 (4014080)
I1018 00:02:57.742234 29782 net.cpp:137] Memory required for data: 275973140
I1018 00:02:57.742238 29782 layer_factory.hpp:77] Creating layer conv2_1
I1018 00:02:57.742247 29782 net.cpp:84] Creating Layer conv2_1
I1018 00:02:57.742252 29782 net.cpp:406] conv2_1 <- pool1
I1018 00:02:57.742259 29782 net.cpp:380] conv2_1 -> conv2_1
I1018 00:02:57.743917 29782 net.cpp:122] Setting up conv2_1
I1018 00:02:57.743932 29782 net.cpp:129] Top shape: 5 128 112 112 (8028160)
I1018 00:02:57.743947 29782 net.cpp:137] Memory required for data: 308085780
I1018 00:02:57.743958 29782 layer_factory.hpp:77] Creating layer relu2_1
I1018 00:02:57.743965 29782 net.cpp:84] Creating Layer relu2_1
I1018 00:02:57.743970 29782 net.cpp:406] relu2_1 <- conv2_1
I1018 00:02:57.743976 29782 net.cpp:367] relu2_1 -> conv2_1 (in-place)
I1018 00:02:57.743986 29782 net.cpp:122] Setting up relu2_1
I1018 00:02:57.744004 29782 net.cpp:129] Top shape: 5 128 112 112 (8028160)
I1018 00:02:57.744007 29782 net.cpp:137] Memory required for data: 340198420
I1018 00:02:57.744017 29782 layer_factory.hpp:77] Creating layer conv2_2
I1018 00:02:57.744032 29782 net.cpp:84] Creating Layer conv2_2
I1018 00:02:57.744037 29782 net.cpp:406] conv2_2 <- conv2_1
I1018 00:02:57.744045 29782 net.cpp:380] conv2_2 -> conv2_2
I1018 00:02:57.744352 29782 net.cpp:122] Setting up conv2_2
I1018 00:02:57.744362 29782 net.cpp:129] Top shape: 5 128 112 112 (8028160)
I1018 00:02:57.744379 29782 net.cpp:137] Memory required for data: 372311060
I1018 00:02:57.744386 29782 layer_factory.hpp:77] Creating layer relu2_2
I1018 00:02:57.744392 29782 net.cpp:84] Creating Layer relu2_2
I1018 00:02:57.744407 29782 net.cpp:406] relu2_2 <- conv2_2
I1018 00:02:57.744413 29782 net.cpp:367] relu2_2 -> conv2_2 (in-place)
I1018 00:02:57.744423 29782 net.cpp:122] Setting up relu2_2
I1018 00:02:57.744439 29782 net.cpp:129] Top shape: 5 128 112 112 (8028160)
I1018 00:02:57.744443 29782 net.cpp:137] Memory required for data: 404423700
I1018 00:02:57.744447 29782 layer_factory.hpp:77] Creating layer pool2
I1018 00:02:57.744453 29782 net.cpp:84] Creating Layer pool2
I1018 00:02:57.744457 29782 net.cpp:406] pool2 <- conv2_2
I1018 00:02:57.744463 29782 net.cpp:380] pool2 -> pool2
I1018 00:02:57.744498 29782 net.cpp:122] Setting up pool2
I1018 00:02:57.744505 29782 net.cpp:129] Top shape: 5 128 56 56 (2007040)
I1018 00:02:57.744510 29782 net.cpp:137] Memory required for data: 412451860
I1018 00:02:57.744514 29782 layer_factory.hpp:77] Creating layer conv3_1
I1018 00:02:57.744523 29782 net.cpp:84] Creating Layer conv3_1
I1018 00:02:57.744526 29782 net.cpp:406] conv3_1 <- pool2
I1018 00:02:57.744534 29782 net.cpp:380] conv3_1 -> conv3_1
I1018 00:02:57.745718 29782 net.cpp:122] Setting up conv3_1
I1018 00:02:57.745733 29782 net.cpp:129] Top shape: 5 256 56 56 (4014080)
I1018 00:02:57.745748 29782 net.cpp:137] Memory required for data: 428508180
I1018 00:02:57.745760 29782 layer_factory.hpp:77] Creating layer relu3_1
I1018 00:02:57.745769 29782 net.cpp:84] Creating Layer relu3_1
I1018 00:02:57.745774 29782 net.cpp:406] relu3_1 <- conv3_1
I1018 00:02:57.745779 29782 net.cpp:367] relu3_1 -> conv3_1 (in-place)
I1018 00:02:57.745790 29782 net.cpp:122] Setting up relu3_1
I1018 00:02:57.745795 29782 net.cpp:129] Top shape: 5 256 56 56 (4014080)
I1018 00:02:57.745800 29782 net.cpp:137] Memory required for data: 444564500
I1018 00:02:57.745803 29782 layer_factory.hpp:77] Creating layer conv3_2
I1018 00:02:57.745810 29782 net.cpp:84] Creating Layer conv3_2
I1018 00:02:57.745815 29782 net.cpp:406] conv3_2 <- conv3_1
I1018 00:02:57.745820 29782 net.cpp:380] conv3_2 -> conv3_2
I1018 00:02:57.747730 29782 net.cpp:122] Setting up conv3_2
I1018 00:02:57.747746 29782 net.cpp:129] Top shape: 5 256 56 56 (4014080)
I1018 00:02:57.747750 29782 net.cpp:137] Memory required for data: 460620820
I1018 00:02:57.747758 29782 layer_factory.hpp:77] Creating layer relu3_2
I1018 00:02:57.747777 29782 net.cpp:84] Creating Layer relu3_2
I1018 00:02:57.747782 29782 net.cpp:406] relu3_2 <- conv3_2
I1018 00:02:57.747788 29782 net.cpp:367] relu3_2 -> conv3_2 (in-place)
I1018 00:02:57.747795 29782 net.cpp:122] Setting up relu3_2
I1018 00:02:57.747804 29782 net.cpp:129] Top shape: 5 256 56 56 (4014080)
I1018 00:02:57.747818 29782 net.cpp:137] Memory required for data: 476677140
I1018 00:02:57.747822 29782 layer_factory.hpp:77] Creating layer conv3_3
I1018 00:02:57.747833 29782 net.cpp:84] Creating Layer conv3_3
I1018 00:02:57.747838 29782 net.cpp:406] conv3_3 <- conv3_2
I1018 00:02:57.747845 29782 net.cpp:380] conv3_3 -> conv3_3
I1018 00:02:57.749706 29782 net.cpp:122] Setting up conv3_3
I1018 00:02:57.749719 29782 net.cpp:129] Top shape: 5 256 56 56 (4014080)
I1018 00:02:57.749737 29782 net.cpp:137] Memory required for data: 492733460
I1018 00:02:57.749743 29782 layer_factory.hpp:77] Creating layer relu3_3
I1018 00:02:57.749752 29782 net.cpp:84] Creating Layer relu3_3
I1018 00:02:57.749756 29782 net.cpp:406] relu3_3 <- conv3_3
I1018 00:02:57.749764 29782 net.cpp:367] relu3_3 -> conv3_3 (in-place)
I1018 00:02:57.749773 29782 net.cpp:122] Setting up relu3_3
I1018 00:02:57.749778 29782 net.cpp:129] Top shape: 5 256 56 56 (4014080)
I1018 00:02:57.749784 29782 net.cpp:137] Memory required for data: 508789780
I1018 00:02:57.749788 29782 layer_factory.hpp:77] Creating layer pool3
I1018 00:02:57.749806 29782 net.cpp:84] Creating Layer pool3
I1018 00:02:57.749810 29782 net.cpp:406] pool3 <- conv3_3
I1018 00:02:57.749816 29782 net.cpp:380] pool3 -> pool3
I1018 00:02:57.749855 29782 net.cpp:122] Setting up pool3
I1018 00:02:57.749868 29782 net.cpp:129] Top shape: 5 256 28 28 (1003520)
I1018 00:02:57.749872 29782 net.cpp:137] Memory required for data: 512803860
I1018 00:02:57.749876 29782 layer_factory.hpp:77] Creating layer conv4_1
I1018 00:02:57.749886 29782 net.cpp:84] Creating Layer conv4_1
I1018 00:02:57.749889 29782 net.cpp:406] conv4_1 <- pool3
I1018 00:02:57.749897 29782 net.cpp:380] conv4_1 -> conv4_1
I1018 00:02:57.753638 29782 net.cpp:122] Setting up conv4_1
I1018 00:02:57.753664 29782 net.cpp:129] Top shape: 5 512 28 28 (2007040)
I1018 00:02:57.753669 29782 net.cpp:137] Memory required for data: 520832020
I1018 00:02:57.753676 29782 layer_factory.hpp:77] Creating layer relu4_1
I1018 00:02:57.753686 29782 net.cpp:84] Creating Layer relu4_1
I1018 00:02:57.753691 29782 net.cpp:406] relu4_1 <- conv4_1
I1018 00:02:57.753697 29782 net.cpp:367] relu4_1 -> conv4_1 (in-place)
I1018 00:02:57.753705 29782 net.cpp:122] Setting up relu4_1
I1018 00:02:57.753713 29782 net.cpp:129] Top shape: 5 512 28 28 (2007040)
I1018 00:02:57.753717 29782 net.cpp:137] Memory required for data: 528860180
I1018 00:02:57.753721 29782 layer_factory.hpp:77] Creating layer conv4_2
I1018 00:02:57.753731 29782 net.cpp:84] Creating Layer conv4_2
I1018 00:02:57.753736 29782 net.cpp:406] conv4_2 <- conv4_1
I1018 00:02:57.753741 29782 net.cpp:380] conv4_2 -> conv4_2
I1018 00:02:57.759640 29782 net.cpp:122] Setting up conv4_2
I1018 00:02:57.759682 29782 net.cpp:129] Top shape: 5 512 28 28 (2007040)
I1018 00:02:57.759686 29782 net.cpp:137] Memory required for data: 536888340
I1018 00:02:57.759706 29782 layer_factory.hpp:77] Creating layer relu4_2
I1018 00:02:57.759716 29782 net.cpp:84] Creating Layer relu4_2
I1018 00:02:57.759722 29782 net.cpp:406] relu4_2 <- conv4_2
I1018 00:02:57.759729 29782 net.cpp:367] relu4_2 -> conv4_2 (in-place)
I1018 00:02:57.759739 29782 net.cpp:122] Setting up relu4_2
I1018 00:02:57.759744 29782 net.cpp:129] Top shape: 5 512 28 28 (2007040)
I1018 00:02:57.759748 29782 net.cpp:137] Memory required for data: 544916500
I1018 00:02:57.759752 29782 layer_factory.hpp:77] Creating layer conv4_3
I1018 00:02:57.759762 29782 net.cpp:84] Creating Layer conv4_3
I1018 00:02:57.759765 29782 net.cpp:406] conv4_3 <- conv4_2
I1018 00:02:57.759773 29782 net.cpp:380] conv4_3 -> conv4_3
I1018 00:02:57.765986 29782 net.cpp:122] Setting up conv4_3
I1018 00:02:57.766036 29782 net.cpp:129] Top shape: 5 512 28 28 (2007040)
I1018 00:02:57.766041 29782 net.cpp:137] Memory required for data: 552944660
I1018 00:02:57.766052 29782 layer_factory.hpp:77] Creating layer relu4_3
I1018 00:02:57.766067 29782 net.cpp:84] Creating Layer relu4_3
I1018 00:02:57.766072 29782 net.cpp:406] relu4_3 <- conv4_3
I1018 00:02:57.766083 29782 net.cpp:367] relu4_3 -> conv4_3 (in-place)
I1018 00:02:57.766095 29782 net.cpp:122] Setting up relu4_3
I1018 00:02:57.766100 29782 net.cpp:129] Top shape: 5 512 28 28 (2007040)
I1018 00:02:57.766104 29782 net.cpp:137] Memory required for data: 560972820
I1018 00:02:57.766109 29782 layer_factory.hpp:77] Creating layer pool4
I1018 00:02:57.766119 29782 net.cpp:84] Creating Layer pool4
I1018 00:02:57.766122 29782 net.cpp:406] pool4 <- conv4_3
I1018 00:02:57.766130 29782 net.cpp:380] pool4 -> pool4
I1018 00:02:57.766170 29782 net.cpp:122] Setting up pool4
I1018 00:02:57.766178 29782 net.cpp:129] Top shape: 5 512 14 14 (501760)
I1018 00:02:57.766182 29782 net.cpp:137] Memory required for data: 562979860
I1018 00:02:57.766189 29782 layer_factory.hpp:77] Creating layer conv5_1
I1018 00:02:57.766197 29782 net.cpp:84] Creating Layer conv5_1
I1018 00:02:57.766202 29782 net.cpp:406] conv5_1 <- pool4
I1018 00:02:57.766211 29782 net.cpp:380] conv5_1 -> conv5_1
I1018 00:02:57.772373 29782 net.cpp:122] Setting up conv5_1
I1018 00:02:57.772406 29782 net.cpp:129] Top shape: 5 512 14 14 (501760)
I1018 00:02:57.772411 29782 net.cpp:137] Memory required for data: 564986900
I1018 00:02:57.772423 29782 layer_factory.hpp:77] Creating layer relu5_1
I1018 00:02:57.772439 29782 net.cpp:84] Creating Layer relu5_1
I1018 00:02:57.772445 29782 net.cpp:406] relu5_1 <- conv5_1
I1018 00:02:57.772454 29782 net.cpp:367] relu5_1 -> conv5_1 (in-place)
I1018 00:02:57.772465 29782 net.cpp:122] Setting up relu5_1
I1018 00:02:57.772470 29782 net.cpp:129] Top shape: 5 512 14 14 (501760)
I1018 00:02:57.772475 29782 net.cpp:137] Memory required for data: 566993940
I1018 00:02:57.772480 29782 layer_factory.hpp:77] Creating layer conv5_2
I1018 00:02:57.772490 29782 net.cpp:84] Creating Layer conv5_2
I1018 00:02:57.772495 29782 net.cpp:406] conv5_2 <- conv5_1
I1018 00:02:57.772500 29782 net.cpp:380] conv5_2 -> conv5_2
I1018 00:02:57.779181 29782 net.cpp:122] Setting up conv5_2
I1018 00:02:57.779217 29782 net.cpp:129] Top shape: 5 512 14 14 (501760)
I1018 00:02:57.779222 29782 net.cpp:137] Memory required for data: 569000980
I1018 00:02:57.779232 29782 layer_factory.hpp:77] Creating layer relu5_2
I1018 00:02:57.779243 29782 net.cpp:84] Creating Layer relu5_2
I1018 00:02:57.779249 29782 net.cpp:406] relu5_2 <- conv5_2
I1018 00:02:57.779258 29782 net.cpp:367] relu5_2 -> conv5_2 (in-place)
I1018 00:02:57.779269 29782 net.cpp:122] Setting up relu5_2
I1018 00:02:57.779275 29782 net.cpp:129] Top shape: 5 512 14 14 (501760)
I1018 00:02:57.779279 29782 net.cpp:137] Memory required for data: 571008020
I1018 00:02:57.779284 29782 layer_factory.hpp:77] Creating layer conv5_3
I1018 00:02:57.779296 29782 net.cpp:84] Creating Layer conv5_3
I1018 00:02:57.779301 29782 net.cpp:406] conv5_3 <- conv5_2
I1018 00:02:57.779309 29782 net.cpp:380] conv5_3 -> conv5_3
I1018 00:02:57.785552 29782 net.cpp:122] Setting up conv5_3
I1018 00:02:57.785598 29782 net.cpp:129] Top shape: 5 512 14 14 (501760)
I1018 00:02:57.785604 29782 net.cpp:137] Memory required for data: 573015060
I1018 00:02:57.785614 29782 layer_factory.hpp:77] Creating layer relu5_3
I1018 00:02:57.785636 29782 net.cpp:84] Creating Layer relu5_3
I1018 00:02:57.785643 29782 net.cpp:406] relu5_3 <- conv5_3
I1018 00:02:57.785652 29782 net.cpp:367] relu5_3 -> conv5_3 (in-place)
I1018 00:02:57.785665 29782 net.cpp:122] Setting up relu5_3
I1018 00:02:57.785671 29782 net.cpp:129] Top shape: 5 512 14 14 (501760)
I1018 00:02:57.785676 29782 net.cpp:137] Memory required for data: 575022100
I1018 00:02:57.785679 29782 layer_factory.hpp:77] Creating layer conv5_3_re
I1018 00:02:57.785692 29782 net.cpp:84] Creating Layer conv5_3_re
I1018 00:02:57.785697 29782 net.cpp:406] conv5_3_re <- conv5_3
I1018 00:02:57.785703 29782 net.cpp:380] conv5_3_re -> conv5_3_re
I1018 00:02:57.785755 29782 net.cpp:122] Setting up conv5_3_re
I1018 00:02:57.785763 29782 net.cpp:129] Top shape: 5 512 196 (501760)
I1018 00:02:57.785766 29782 net.cpp:137] Memory required for data: 577029140
I1018 00:02:57.785770 29782 layer_factory.hpp:77] Creating layer conv5_3_tran
I1018 00:02:57.785840 29782 net.cpp:84] Creating Layer conv5_3_tran
I1018 00:02:57.785853 29782 net.cpp:406] conv5_3_tran <- conv5_3_re
I1018 00:02:57.785861 29782 net.cpp:380] conv5_3_tran -> conv5_3_tran
I1018 00:02:57.787477 29782 net.cpp:122] Setting up conv5_3_tran
I1018 00:02:57.787492 29782 net.cpp:129] Top shape: 64 5 512 (163840)
I1018 00:02:57.787497 29782 net.cpp:137] Memory required for data: 577684500
I1018 00:02:57.787502 29782 layer_factory.hpp:77] Creating layer lstm1
I1018 00:02:57.787519 29782 net.cpp:84] Creating Layer lstm1
I1018 00:02:57.787524 29782 net.cpp:406] lstm1 <- conv5_3_tran
I1018 00:02:57.787531 29782 net.cpp:406] lstm1 <- clip_markers
I1018 00:02:57.787540 29782 net.cpp:380] lstm1 -> lstm1
I1018 00:02:57.787556 29782 recurrent_layer.cpp:20] Initializing recurrent layer: assuming input batch contains 64 timesteps of 5 independent streams.
I1018 00:02:57.789775 29782 net.cpp:51] Initializing net from parameters: 
layer {
  name: "lstm1_"
  type: "Input"
  top: "x"
  top: "cont"
  input_param {
    shape {
      dim: 64
      dim: 5
      dim: 512
    }
    shape {
      dim: 64
      dim: 5
    }
  }
}
layer {
  name: "lstm1_"
  type: "Input"
  top: "c_0"
  top: "h_0"
  input_param {
    shape {
      dim: 1
      dim: 5
      dim: 512
    }
    shape {
      dim: 1
      dim: 5
      dim: 512
    }
  }
}
layer {
  name: "lstm1_cont_slice"
  type: "Slice"
  bottom: "cont"
  top: "cont_1"
  top: "cont_2"
  top: "cont_3"
  top: "cont_4"
  top: "cont_5"
  top: "cont_6"
  top: "cont_7"
  top: "cont_8"
  top: "cont_9"
  top: "cont_10"
  top: "cont_11"
  top: "cont_12"
  top: "cont_13"
  top: "cont_14"
  top: "cont_15"
  top: "cont_16"
  top: "cont_17"
  top: "cont_18"
  top: "cont_19"
  top: "cont_20"
  top: "cont_21"
  top: "cont_22"
  top: "cont_23"
  top: "cont_24"
  top: "cont_25"
  top: "cont_26"
  top: "cont_27"
  top: "cont_28"
  top: "cont_29"
  top: "cont_30"
  top: "cont_31"
  top: "cont_32"
  top: "cont_33"
  top: "cont_34"
  top: "cont_35"
  top: "cont_36"
  top: "cont_37"
  top: "cont_38"
  top: "cont_39"
  top: "cont_40"
  top: "cont_41"
  top: "cont_42"
  top: "cont_43"
  top: "cont_44"
  top: "cont_45"
  top: "cont_46"
  top: "cont_47"
  top: "cont_48"
  top: "cont_49"
  top: "cont_50"
  top: "cont_51"
  top: "cont_52"
  top: "cont_53"
  top: "cont_54"
  top: "cont_55"
  top: "cont_56"
  top: "cont_57"
  top: "cont_58"
  top: "cont_59"
  top: "cont_60"
  top: "cont_61"
  top: "cont_62"
  top: "cont_63"
  top: "cont_64"
  slice_param {
    axis: 0
  }
}
layer {
  name: "lstm1_x_transform"
  type: "InnerProduct"
  bottom: "x"
  top: "W_xc_x"
  param {
    name: "W_xc"
  }
  param {
    name: "b_c"
  }
  propagate_down: true
  inner_product_param {
    num_output: 2048
    bias_term: true
    weight_filler {
      type: "uniform"
      min: -0.01
      max: 0.01
    }
    bias_filler {
      type: "constant"
      value: 0
    }
    axis: 2
  }
}
layer {
  name: "lstm1_W_xc_x_slice"
  type: "Slice"
  bottom: "W_xc_x"
  top: "W_xc_x_1"
  top: "W_xc_x_2"
  top: "W_xc_x_3"
  top: "W_xc_x_4"
  top: "W_xc_x_5"
  top: "W_xc_x_6"
  top: "W_xc_x_7"
  top: "W_xc_x_8"
  top: "W_xc_x_9"
  top: "W_xc_x_10"
  top: "W_xc_x_11"
  top: "W_xc_x_12"
  top: "W_xc_x_13"
  top: "W_xc_x_14"
  top: "W_xc_x_15"
  top: "W_xc_x_16"
  top: "W_xc_x_17"
  top: "W_xc_x_18"
  top: "W_xc_x_19"
  top: "W_xc_x_20"
  top: "W_xc_x_21"
  top: "W_xc_x_22"
  top: "W_xc_x_23"
  top: "W_xc_x_24"
  top: "W_xc_x_25"
  top: "W_xc_x_26"
  top: "W_xc_x_27"
  top: "W_xc_x_28"
  top: "W_xc_x_29"
  top: "W_xc_x_30"
  top: "W_xc_x_31"
  top: "W_xc_x_32"
  top: "W_xc_x_33"
  top: "W_xc_x_34"
  top: "W_xc_x_35"
  top: "W_xc_x_36"
  top: "W_xc_x_37"
  top: "W_xc_x_38"
  top: "W_xc_x_39"
  top: "W_xc_x_40"
  top: "W_xc_x_41"
  top: "W_xc_x_42"
  top: "W_xc_x_43"
  top: "W_xc_x_44"
  top: "W_xc_x_45"
  top: "W_xc_x_46"
  top: "W_xc_x_47"
  top: "W_xc_x_48"
  top: "W_xc_x_49"
  top: "W_xc_x_50"
  top: "W_xc_x_51"
  top: "W_xc_x_52"
  top: "W_xc_x_53"
  top: "W_xc_x_54"
  top: "W_xc_x_55"
  top: "W_xc_x_56"
  top: "W_xc_x_57"
  top: "W_xc_x_58"
  top: "W_xc_x_59"
  top: "W_xc_x_60"
  top: "W_xc_x_61"
  top: "W_xc_x_62"
  top: "W_xc_x_63"
  top: "W_xc_x_64"
  slice_param {
    axis: 0
  }
}
layer {
  name: "lstm1_h_conted_0"
  type: "Scale"
  bottom: "h_0"
  bottom: "cont_1"
  top: "h_conted_0"
  scale_param {
    axis: 0
  }
}
layer {
  name: "lstm1_transform_1"
  type: "InnerProduct"
  bottom: "h_conted_0"
  top: "W_hc_h_0"
  param {
    name: "W_hc"
  }
  inner_product_param {
    num_output: 2048
    bias_term: false
    weight_filler {
      type: "uniform"
      min: -0.01
      max: 0.01
    }
    axis: 2
  }
}
layer {
  name: "lstm1_gate_input_1"
  type: "Eltwise"
  bottom: "W_hc_h_0"
  bottom: "W_xc_x_1"
  top: "gate_input_1"
  eltwise_param {
    operation: SUM
  }
}
layer {
  name: "lstm1_unit_1"
  type: "LSTMUnit"
  bottom: "c_0"
  bottom: "gate_input_1"
  bottom: "cont_1"
  top: "c_1"
  top: "h_1"
}
layer {
  name: "lstm1_h_conted_1"
  type: "Scale"
  bottom: "h_1"
  bottom: "cont_2"
  top: "h_conted_1"
  scale_param {
    axis: 0
  }
}
layer {
  name: "lstm1_transform_2"
  type: "InnerProduct"
  bottom: "h_conted_1"
  top: "W_hc_h_1"
  param {
    name: "W_hc"
  }
  inner_product_param {
    num_output: 2048
    bias_term: false
    weight_filler {
      type: "uniform"
      min: -0.01
      max: 0.01
    }
    axis: 2
  }
}
layer {
  name: "lstm1_gate_input_2"
  type: "Eltwise"
  bottom: "W_hc_h_1"
  bottom: "W_xc_x_2"
  top: "gate_input_2"
  eltwise_param {
    operation: SUM
  }
}
layer {
  name: "lstm1_unit_2"
  type: "LSTMUnit"
  bottom: "c_1"
  bottom: "gate_input_2"
  bottom: "cont_2"
  top: "c_2"
  top: "h_2"
}
layer {
  name: "lstm1_h_conted_2"
  type: "Scale"
  bottom: "h_2"
  bottom: "cont_3"
  top: "h_conted_2"
  scale_param {
    axis: 0
  }
}
layer {
  name: "lstm1_transform_3"
  type: "InnerProduct"
  bottom: "h_conted_2"
  top: "W_hc_h_2"
  param {
    name: "W_hc"
  }
  inner_product_param {
    num_output: 2048
    bias_term: false
    weight_filler {
      type: "uniform"
      min: -0.01
      max: 0.01
    }
    axis: 2
  }
}
layer {
  name: "lstm1_gate_input_3"
  type: "Eltwise"
  bottom: "W_hc_h_2"
  bottom: "W_xc_x_3"
  top: "gate_input_3"
  eltwise_param {
    operation: SUM
  }
}
layer {
  name: "lstm1_unit_3"
  type: "LSTMUnit"
  bottom: "c_2"
  bottom: "gate_input_3"
  bottom: "cont_3"
  top: "c_3"
  top: "h_3"
}
layer {
  name: "lstm1_h_conted_3"
  type: "Scale"
  bottom: "h_3"
  bottom: "cont_4"
  top: "h_conted_3"
  scale_param {
    axis: 0
  }
}
layer {
  name: "lstm1_transform_4"
  type: "InnerProduct"
  bottom: "h_conted_3"
  top: "W_hc_h_3"
  param {
    name: "W_hc"
  }
  inner_product_param {
    num_output: 2048
    bias_term: false
    weight_filler {
      type: "uniform"
      min: -0.01
      max: 0.01
    }
    axis: 2
  }
}
layer {
  name: "lstm1_gate_input_4"
  type: "Eltwise"
  bottom: "W_hc_h_3"
  bottom: "W_xc_x_4"
  top: "gate_input_4"
  eltwise_param {
    operation: SUM
  }
}
layer {
  name: "lstm1_unit_4"
  type: "LSTMUnit"
  bottom: "c_3"
  bottom: "gate_input_4"
  bottom: "cont_4"
  top: "c_4"
  top: "h_4"
}
layer {
  name: "lstm1_h_conted_4"
  type: "Scale"
  bottom: "h_4"
  bottom: "cont_5"
  top: "h_conted_4"
  scale_param {
    axis: 0
  }
}
layer {
  name: "lstm1_transform_5"
  type: "InnerProduct"
  bottom: "h_conted_4"
  top: "W_hc_h_4"
  param {
    name: "W_hc"
  }
  inner_product_param {
    num_output: 2048
    bias_term: false
    weight_filler {
      type: "uniform"
      min: -0.01
      max: 0.01
    }
    axis: 2
  }
}
layer {
  name: "lstm1_gate_input_5"
  type: "Eltwise"
  bottom: "W_hc_h_4"
  bottom: "W_xc_x_5"
  top: "gate_input_5"
  eltwise_param {
    operation: SUM
  }
}
layer {
  name: "lstm1_unit_5"
  type: "LSTMUnit"
  bottom: "c_4"
  bottom: "gate_input_5"
  bottom: "cont_5"
  top: "c_5"
  top: "h_5"
}
layer {
  name: "lstm1_h_conted_5"
  type: "Scale"
  bottom: "h_5"
  bottom: "cont_6"
  top: "h_conted_5"
  scale_param {
    axis: 0
  }
}
layer {
  name: "lstm1_transform_6"
  type: "InnerProduct"
  bottom: "h_conted_5"
  top: "W_hc_h_5"
  param {
    name: "W_hc"
  }
  inner_product_param {
    num_output: 2048
    bias_term: false
    weight_filler {
      type: "uniform"
      min: -0.01
      max: 0.01
    }
    axis: 2
  }
}
layer {
  name: "lstm1_gate_input_6"
  type: "Eltwise"
  bottom: "W_hc_h_5"
  bottom: "W_xc_x_6"
  top: "gate_input_6"
  eltwise_param {
    operation: SUM
  }
}
layer {
  name: "lstm1_unit_6"
  type: "LSTMUnit"
  bottom: "c_5"
  bottom: "gate_input_6"
  bottom: "cont_6"
  top: "c_6"
  top: "h_6"
}
layer {
  name: "lstm1_h_conted_6"
  type: "Scale"
  bottom: "h_6"
  bottom: "cont_7"
  top: "h_conted_6"
  scale_param {
    axis: 0
  }
}
layer {
  name: "lstm1_transform_7"
  type: "InnerProduct"
  bottom: "h_conted_6"
  top: "W_hc_h_6"
  param {
    name: "W_hc"
  }
  inner_product_param {
    num_output: 2048
    bias_term: false
    weight_filler {
      type: "uniform"
      min: -0.01
      max: 0.01
    }
    axis: 2
  }
}
layer {
  name: "lstm1_gate_input_7"
  type: "Eltwise"
  bottom: "W_hc_h_6"
  bottom: "W_xc_x_7"
  top: "gate_input_7"
  eltwise_param {
    operation: SUM
  }
}
layer {
  name: "lstm1_unit_7"
  type: "LSTMUnit"
  bottom: "c_6"
  bottom: "gate_input_7"
  bottom: "cont_7"
  top: "c_7"
  top: "h_7"
}
layer {
  name: "lstm1_h_conted_7"
  type: "Scale"
  bottom: "h_7"
  bottom: "cont_8"
  top: "h_conted_7"
  scale_param {
    axis: 0
  }
}
layer {
  name: "lstm1_transform_8"
  type: "InnerProduct"
  bottom: "h_conted_7"
  top: "W_hc_h_7"
  param {
    name: "W_hc"
  }
  inner_product_param {
    num_output: 2048
    bias_term: false
    weight_filler {
      type: "uniform"
      min: -0.01
      max: 0.01
    }
    axis: 2
  }
}
layer {
  name: "lstm1_gate_input_8"
  type: "Eltwise"
  bottom: "W_hc_h_7"
  bottom: "W_xc_x_8"
  top: "gate_input_8"
  eltwise_param {
    operation: SUM
  }
}
layer {
  name: "lstm1_unit_8"
  type: "LSTMUnit"
  bottom: "c_7"
  bottom: "gate_input_8"
  bottom: "cont_8"
  top: "c_8"
  top: "h_8"
}
layer {
  name: "lstm1_h_conted_8"
  type: "Scale"
  bottom: "h_8"
  bottom: "cont_9"
  top: "h_conted_8"
  scale_param {
    axis: 0
  }
}
layer {
  name: "lstm1_transform_9"
  type: "InnerProduct"
  bottom: "h_conted_8"
  top: "W_hc_h_8"
  param {
    name: "W_hc"
  }
  inner_product_param {
    num_output: 2048
    bias_term: false
    weight_filler {
      type: "uniform"
      min: -0.01
      max: 0.01
    }
    axis: 2
  }
}
layer {
  name: "lstm1_gate_input_9"
  type: "Eltwise"
  bottom: "W_hc_h_8"
  bottom: "W_xc_x_9"
  top: "gate_input_9"
  eltwise_param {
    operation: SUM
  }
}
layer {
  name: "lstm1_unit_9"
  type: "LSTMUnit"
  bottom: "c_8"
  bottom: "gate_input_9"
  bottom: "cont_9"
  top: "c_9"
  top: "h_9"
}
layer {
  name: "lstm1_h_conted_9"
  type: "Scale"
  bottom: "h_9"
  bottom: "cont_10"
  top: "h_conted_9"
  scale_param {
    axis: 0
  }
}
layer {
  name: "lstm1_transform_10"
  type: "InnerProduct"
  bottom: "h_conted_9"
  top: "W_hc_h_9"
  param {
    name: "W_hc"
  }
  inner_product_param {
    num_output: 2048
    bias_term: false
    weight_filler {
      type: "uniform"
      min: -0.01
      max: 0.01
    }
    axis: 2
  }
}
layer {
  name: "lstm1_gate_input_10"
  type: "Eltwise"
  bottom: "W_hc_h_9"
  bottom: "W_xc_x_10"
  top: "gate_input_10"
  eltwise_param {
    operation: SUM
  }
}
layer {
  name: "lstm1_unit_10"
  type: "LSTMUnit"
  bottom: "c_9"
  bottom: "gate_input_10"
  bottom: "cont_10"
  top: "c_10"
  top: "h_10"
}
layer {
  name: "lstm1_h_conted_10"
  type: "Scale"
  bottom: "h_10"
  bottom: "cont_11"
  top: "h_conted_10"
  scale_param {
    axis: 0
  }
}
layer {
  name: "lstm1_transform_11"
  type: "InnerProduct"
  bottom: "h_conted_10"
  top: "W_hc_h_10"
  param {
    name: "W_hc"
  }
  inner_product_param {
    num_output: 2048
    bias_term: false
    weight_filler {
      type: "uniform"
      min: -0.01
      max: 0.01
    }
    axis: 2
  }
}
layer {
  name: "lstm1_gate_input_11"
  type: "Eltwise"
  bottom: "W_hc_h_10"
  bottom: "W_xc_x_11"
  top: "gate_input_11"
  eltwise_param {
    operation: SUM
  }
}
layer {
  name: "lstm1_unit_11"
  type: "LSTMUnit"
  bottom: "c_10"
  bottom: "gate_input_11"
  bottom: "cont_11"
  top: "c_11"
  top: "h_11"
}
layer {
  name: "lstm1_h_conted_11"
  type: "Scale"
  bottom: "h_11"
  bottom: "cont_12"
  top: "h_conted_11"
  scale_param {
    axis: 0
  }
}
layer {
  name: "lstm1_transform_12"
  type: "InnerProduct"
  bottom: "h_conted_11"
  top: "W_hc_h_11"
  param {
    name: "W_hc"
  }
  inner_product_param {
    num_output: 2048
    bias_term: false
    weight_filler {
      type: "uniform"
      min: -0.01
      max: 0.01
    }
    axis: 2
  }
}
layer {
  name: "lstm1_gate_input_12"
  type: "Eltwise"
  bottom: "W_hc_h_11"
  bottom: "W_xc_x_12"
  top: "gate_input_12"
  eltwise_param {
    operation: SUM
  }
}
layer {
  name: "lstm1_unit_12"
  type: "LSTMUnit"
  bottom: "c_11"
  bottom: "gate_input_12"
  bottom: "cont_12"
  top: "c_12"
  top: "h_12"
}
layer {
  name: "lstm1_h_conted_12"
  type: "Scale"
  bottom: "h_12"
  bottom: "cont_13"
  top: "h_conted_12"
  scale_param {
    axis: 0
  }
}
layer {
  name: "lstm1_transform_13"
  type: "InnerProduct"
  bottom: "h_conted_12"
  top: "W_hc_h_12"
  param {
    name: "W_hc"
  }
  inner_product_param {
    num_output: 2048
    bias_term: false
    weight_filler {
      type: "uniform"
      min: -0.01
      max: 0.01
    }
    axis: 2
  }
}
layer {
  name: "lstm1_gate_input_13"
  type: "Eltwise"
  bottom: "W_hc_h_12"
  bottom: "W_xc_x_13"
  top: "gate_input_13"
  eltwise_param {
    operation: SUM
  }
}
layer {
  name: "lstm1_unit_13"
  type: "LSTMUnit"
  bottom: "c_12"
  bottom: "gate_input_13"
  bottom: "cont_13"
  top: "c_13"
  top: "h_13"
}
layer {
  name: "lstm1_h_conted_13"
  type: "Scale"
  bottom: "h_13"
  bottom: "cont_14"
  top: "h_conted_13"
  scale_param {
    axis: 0
  }
}
layer {
  name: "lstm1_transform_14"
  type: "InnerProduct"
  bottom: "h_conted_13"
  top: "W_hc_h_13"
  param {
    name: "W_hc"
  }
  inner_product_param {
    num_output: 2048
    bias_term: false
    weight_filler {
      type: "uniform"
      min: -0.01
      max: 0.01
    }
    axis: 2
  }
}
layer {
  name: "lstm1_gate_input_14"
  type: "Eltwise"
  bottom: "W_hc_h_13"
  bottom: "W_xc_x_14"
  top: "gate_input_14"
  eltwise_param {
    operation: SUM
  }
}
layer {
  name: "lstm1_unit_14"
  type: "LSTMUnit"
  bottom: "c_13"
  bottom: "gate_input_14"
  bottom: "cont_14"
  top: "c_14"
  top: "h_14"
}
layer {
  name: "lstm1_h_conted_14"
  type: "Scale"
  bottom: "h_14"
  bottom: "cont_15"
  top: "h_conted_14"
  scale_param {
    axis: 0
  }
}
layer {
  name: "lstm1_transform_15"
  type: "InnerProduct"
  bottom: "h_conted_14"
  top: "W_hc_h_14"
  param {
    name: "W_hc"
  }
  inner_product_param {
    num_output: 2048
    bias_term: false
    weight_filler {
      type: "uniform"
      min: -0.01
      max: 0.01
    }
    axis: 2
  }
}
layer {
  name: "lstm1_gate_input_15"
  type: "Eltwise"
  bottom: "W_hc_h_14"
  bottom: "W_xc_x_15"
  top: "gate_input_15"
  eltwise_param {
    operation: SUM
  }
}
layer {
  name: "lstm1_unit_15"
  type: "LSTMUnit"
  bottom: "c_14"
  bottom: "gate_input_15"
  bottom: "cont_15"
  top: "c_15"
  top: "h_15"
}
layer {
  name: "lstm1_h_conted_15"
  type: "Scale"
  bottom: "h_15"
  bottom: "cont_16"
  top: "h_conted_15"
  scale_param {
    axis: 0
  }
}
layer {
  name: "lstm1_transform_16"
  type: "InnerProduct"
  bottom: "h_conted_15"
  top: "W_hc_h_15"
  param {
    name: "W_hc"
  }
  inner_product_param {
    num_output: 2048
    bias_term: false
    weight_filler {
      type: "uniform"
      min: -0.01
      max: 0.01
    }
    axis: 2
  }
}
layer {
  name: "lstm1_gate_input_16"
  type: "Eltwise"
  bottom: "W_hc_h_15"
  bottom: "W_xc_x_16"
  top: "gate_input_16"
  eltwise_param {
    operation: SUM
  }
}
layer {
  name: "lstm1_unit_16"
  type: "LSTMUnit"
  bottom: "c_15"
  bottom: "gate_input_16"
  bottom: "cont_16"
  top: "c_16"
  top: "h_16"
}
layer {
  name: "lstm1_h_conted_16"
  type: "Scale"
  bottom: "h_16"
  bottom: "cont_17"
  top: "h_conted_16"
  scale_param {
    axis: 0
  }
}
layer {
  name: "lstm1_transform_17"
  type: "InnerProduct"
  bottom: "h_conted_16"
  top: "W_hc_h_16"
  param {
    name: "W_hc"
  }
  inner_product_param {
    num_output: 2048
    bias_term: false
    weight_filler {
      type: "uniform"
      min: -0.01
      max: 0.01
    }
    axis: 2
  }
}
layer {
  name: "lstm1_gate_input_17"
  type: "Eltwise"
  bottom: "W_hc_h_16"
  bottom: "W_xc_x_17"
  top: "gate_input_17"
  eltwise_param {
    operation: SUM
  }
}
layer {
  name: "lstm1_unit_17"
  type: "LSTMUnit"
  bottom: "c_16"
  bottom: "gate_input_17"
  bottom: "cont_17"
  top: "c_17"
  top: "h_17"
}
layer {
  name: "lstm1_h_conted_17"
  type: "Scale"
  bottom: "h_17"
  bottom: "cont_18"
  top: "h_conted_17"
  scale_param {
    axis: 0
  }
}
layer {
  name: "lstm1_transform_18"
  type: "InnerProduct"
  bottom: "h_conted_17"
  top: "W_hc_h_17"
  param {
    name: "W_hc"
  }
  inner_product_param {
    num_output: 2048
    bias_term: false
    weight_filler {
      type: "uniform"
      min: -0.01
      max: 0.01
    }
    axis: 2
  }
}
layer {
  name: "lstm1_gate_input_18"
  type: "Eltwise"
  bottom: "W_hc_h_17"
  bottom: "W_xc_x_18"
  top: "gate_input_18"
  eltwise_param {
    operation: SUM
  }
}
layer {
  name: "lstm1_unit_18"
  type: "LSTMUnit"
  bottom: "c_17"
  bottom: "gate_input_18"
  bottom: "cont_18"
  top: "c_18"
  top: "h_18"
}
layer {
  name: "lstm1_h_conted_18"
  type: "Scale"
  bottom: "h_18"
  bottom: "cont_19"
  top: "h_conted_18"
  scale_param {
    axis: 0
  }
}
layer {
  name: "lstm1_transform_19"
  type: "InnerProduct"
  bottom: "h_conted_18"
  top: "W_hc_h_18"
  param {
    name: "W_hc"
  }
  inner_product_param {
    num_output: 2048
    bias_term: false
    weight_filler {
      type: "uniform"
      min: -0.01
      max: 0.01
    }
    axis: 2
  }
}
layer {
  name: "lstm1_gate_input_19"
  type: "Eltwise"
  bottom: "W_hc_h_18"
  bottom: "W_xc_x_19"
  top: "gate_input_19"
  eltwise_param {
    operation: SUM
  }
}
layer {
  name: "lstm1_unit_19"
  type: "LSTMUnit"
  bottom: "c_18"
  bottom: "gate_input_19"
  bottom: "cont_19"
  top: "c_19"
  top: "h_19"
}
layer {
  name: "lstm1_h_conted_19"
  type: "Scale"
  bottom: "h_19"
  bottom: "cont_20"
  top: "h_conted_19"
  scale_param {
    axis: 0
  }
}
layer {
  name: "lstm1_transform_20"
  type: "InnerProduct"
  bottom: "h_conted_19"
  top: "W_hc_h_19"
  param {
    name: "W_hc"
  }
  inner_product_param {
    num_output: 2048
    bias_term: false
    weight_filler {
      type: "uniform"
      min: -0.01
      max: 0.01
    }
    axis: 2
  }
}
layer {
  name: "lstm1_gate_input_20"
  type: "Eltwise"
  bottom: "W_hc_h_19"
  bottom: "W_xc_x_20"
  top: "gate_input_20"
  eltwise_param {
    operation: SUM
  }
}
layer {
  name: "lstm1_unit_20"
  type: "LSTMUnit"
  bottom: "c_19"
  bottom: "gate_input_20"
  bottom: "cont_20"
  top: "c_20"
  top: "h_20"
}
layer {
  name: "lstm1_h_conted_20"
  type: "Scale"
  bottom: "h_20"
  bottom: "cont_21"
  top: "h_conted_20"
  scale_param {
    axis: 0
  }
}
layer {
  name: "lstm1_transform_21"
  type: "InnerProduct"
  bottom: "h_conted_20"
  top: "W_hc_h_20"
  param {
    name: "W_hc"
  }
  inner_product_param {
    num_output: 2048
    bias_term: false
    weight_filler {
      type: "uniform"
      min: -0.01
      max: 0.01
    }
    axis: 2
  }
}
layer {
  name: "lstm1_gate_input_21"
  type: "Eltwise"
  bottom: "W_hc_h_20"
  bottom: "W_xc_x_21"
  top: "gate_input_21"
  eltwise_param {
    operation: SUM
  }
}
layer {
  name: "lstm1_unit_21"
  type: "LSTMUnit"
  bottom: "c_20"
  bottom: "gate_input_21"
  bottom: "cont_21"
  top: "c_21"
  top: "h_21"
}
layer {
  name: "lstm1_h_conted_21"
  type: "Scale"
  bottom: "h_21"
  bottom: "cont_22"
  top: "h_conted_21"
  scale_param {
    axis: 0
  }
}
layer {
  name: "lstm1_transform_22"
  type: "InnerProduct"
  bottom: "h_conted_21"
  top: "W_hc_h_21"
  param {
    name: "W_hc"
  }
  inner_product_param {
    num_output: 2048
    bias_term: false
    weight_filler {
      type: "uniform"
      min: -0.01
      max: 0.01
    }
    axis: 2
  }
}
layer {
  name: "lstm1_gate_input_22"
  type: "Eltwise"
  bottom: "W_hc_h_21"
  bottom: "W_xc_x_22"
  top: "gate_input_22"
  eltwise_param {
    operation: SUM
  }
}
layer {
  name: "lstm1_unit_22"
  type: "LSTMUnit"
  bottom: "c_21"
  bottom: "gate_input_22"
  bottom: "cont_22"
  top: "c_22"
  top: "h_22"
}
layer {
  name: "lstm1_h_conted_22"
  type: "Scale"
  bottom: "h_22"
  bottom: "cont_23"
  top: "h_conted_22"
  scale_param {
    axis: 0
  }
}
layer {
  name: "lstm1_transform_23"
  type: "InnerProduct"
  bottom: "h_conted_22"
  top: "W_hc_h_22"
  param {
    name: "W_hc"
  }
  inner_product_param {
    num_output: 2048
    bias_term: false
    weight_filler {
      type: "uniform"
      min: -0.01
      max: 0.01
    }
    axis: 2
  }
}
layer {
  name: "lstm1_gate_input_23"
  type: "Eltwise"
  bottom: "W_hc_h_22"
  bottom: "W_xc_x_23"
  top: "gate_input_23"
  eltwise_param {
    operation: SUM
  }
}
layer {
  name: "lstm1_unit_23"
  type: "LSTMUnit"
  bottom: "c_22"
  bottom: "gate_input_23"
  bottom: "cont_23"
  top: "c_23"
  top: "h_23"
}
layer {
  name: "lstm1_h_conted_23"
  type: "Scale"
  bottom: "h_23"
  bottom: "cont_24"
  top: "h_conted_23"
  scale_param {
    axis: 0
  }
}
layer {
  name: "lstm1_transform_24"
  type: "InnerProduct"
  bottom: "h_conted_23"
  top: "W_hc_h_23"
  param {
    name: "W_hc"
  }
  inner_product_param {
    num_output: 2048
    bias_term: false
    weight_filler {
      type: "uniform"
      min: -0.01
      max: 0.01
    }
    axis: 2
  }
}
layer {
  name: "lstm1_gate_input_24"
  type: "Eltwise"
  bottom: "W_hc_h_23"
  bottom: "W_xc_x_24"
  top: "gate_input_24"
  eltwise_param {
    operation: SUM
  }
}
layer {
  name: "lstm1_unit_24"
  type: "LSTMUnit"
  bottom: "c_23"
  bottom: "gate_input_24"
  bottom: "cont_24"
  top: "c_24"
  top: "h_24"
}
layer {
  name: "lstm1_h_conted_24"
  type: "Scale"
  bottom: "h_24"
  bottom: "cont_25"
  top: "h_conted_24"
  scale_param {
    axis: 0
  }
}
layer {
  name: "lstm1_transform_25"
  type: "InnerProduct"
  bottom: "h_conted_24"
  top: "W_hc_h_24"
  param {
    name: "W_hc"
  }
  inner_product_param {
    num_output: 2048
    bias_term: false
    weight_filler {
      type: "uniform"
      min: -0.01
      max: 0.01
    }
    axis: 2
  }
}
layer {
  name: "lstm1_gate_input_25"
  type: "Eltwise"
  bottom: "W_hc_h_24"
  bottom: "W_xc_x_25"
  top: "gate_input_25"
  eltwise_param {
    operation: SUM
  }
}
layer {
  name: "lstm1_unit_25"
  type: "LSTMUnit"
  bottom: "c_24"
  bottom: "gate_input_25"
  bottom: "cont_25"
  top: "c_25"
  top: "h_25"
}
layer {
  name: "lstm1_h_conted_25"
  type: "Scale"
  bottom: "h_25"
  bottom: "cont_26"
  top: "h_conted_25"
  scale_param {
    axis: 0
  }
}
layer {
  name: "lstm1_transform_26"
  type: "InnerProduct"
  bottom: "h_conted_25"
  top: "W_hc_h_25"
  param {
    name: "W_hc"
  }
  inner_product_param {
    num_output: 2048
    bias_term: false
    weight_filler {
      type: "uniform"
      min: -0.01
      max: 0.01
    }
    axis: 2
  }
}
layer {
  name: "lstm1_gate_input_26"
  type: "Eltwise"
  bottom: "W_hc_h_25"
  bottom: "W_xc_x_26"
  top: "gate_input_26"
  eltwise_param {
    operation: SUM
  }
}
layer {
  name: "lstm1_unit_26"
  type: "LSTMUnit"
  bottom: "c_25"
  bottom: "gate_input_26"
  bottom: "cont_26"
  top: "c_26"
  top: "h_26"
}
layer {
  name: "lstm1_h_conted_26"
  type: "Scale"
  bottom: "h_26"
  bottom: "cont_27"
  top: "h_conted_26"
  scale_param {
    axis: 0
  }
}
layer {
  name: "lstm1_transform_27"
  type: "InnerProduct"
  bottom: "h_conted_26"
  top: "W_hc_h_26"
  param {
    name: "W_hc"
  }
  inner_product_param {
    num_output: 2048
    bias_term: false
    weight_filler {
      type: "uniform"
      min: -0.01
      max: 0.01
    }
    axis: 2
  }
}
layer {
  name: "lstm1_gate_input_27"
  type: "Eltwise"
  bottom: "W_hc_h_26"
  bottom: "W_xc_x_27"
  top: "gate_input_27"
  eltwise_param {
    operation: SUM
  }
}
layer {
  name: "lstm1_unit_27"
  type: "LSTMUnit"
  bottom: "c_26"
  bottom: "gate_input_27"
  bottom: "cont_27"
  top: "c_27"
  top: "h_27"
}
layer {
  name: "lstm1_h_conted_27"
  type: "Scale"
  bottom: "h_27"
  bottom: "cont_28"
  top: "h_conted_27"
  scale_param {
    axis: 0
  }
}
layer {
  name: "lstm1_transform_28"
  type: "InnerProduct"
  bottom: "h_conted_27"
  top: "W_hc_h_27"
  param {
    name: "W_hc"
  }
  inner_product_param {
    num_output: 2048
    bias_term: false
    weight_filler {
      type: "uniform"
      min: -0.01
      max: 0.01
    }
    axis: 2
  }
}
layer {
  name: "lstm1_gate_input_28"
  type: "Eltwise"
  bottom: "W_hc_h_27"
  bottom: "W_xc_x_28"
  top: "gate_input_28"
  eltwise_param {
    operation: SUM
  }
}
layer {
  name: "lstm1_unit_28"
  type: "LSTMUnit"
  bottom: "c_27"
  bottom: "gate_input_28"
  bottom: "cont_28"
  top: "c_28"
  top: "h_28"
}
layer {
  name: "lstm1_h_conted_28"
  type: "Scale"
  bottom: "h_28"
  bottom: "cont_29"
  top: "h_conted_28"
  scale_param {
    axis: 0
  }
}
layer {
  name: "lstm1_transform_29"
  type: "InnerProduct"
  bottom: "h_conted_28"
  top: "W_hc_h_28"
  param {
    name: "W_hc"
  }
  inner_product_param {
    num_output: 2048
    bias_term: false
    weight_filler {
      type: "uniform"
      min: -0.01
      max: 0.01
    }
    axis: 2
  }
}
layer {
  name: "lstm1_gate_input_29"
  type: "Eltwise"
  bottom: "W_hc_h_28"
  bottom: "W_xc_x_29"
  top: "gate_input_29"
  eltwise_param {
    operation: SUM
  }
}
layer {
  name: "lstm1_unit_29"
  type: "LSTMUnit"
  bottom: "c_28"
  bottom: "gate_input_29"
  bottom: "cont_29"
  top: "c_29"
  top: "h_29"
}
layer {
  name: "lstm1_h_conted_29"
  type: "Scale"
  bottom: "h_29"
  bottom: "cont_30"
  top: "h_conted_29"
  scale_param {
    axis: 0
  }
}
layer {
  name: "lstm1_transform_30"
  type: "InnerProduct"
  bottom: "h_conted_29"
  top: "W_hc_h_29"
  param {
    name: "W_hc"
  }
  inner_product_param {
    num_output: 2048
    bias_term: false
    weight_filler {
      type: "uniform"
      min: -0.01
      max: 0.01
    }
    axis: 2
  }
}
layer {
  name: "lstm1_gate_input_30"
  type: "Eltwise"
  bottom: "W_hc_h_29"
  bottom: "W_xc_x_30"
  top: "gate_input_30"
  eltwise_param {
    operation: SUM
  }
}
layer {
  name: "lstm1_unit_30"
  type: "LSTMUnit"
  bottom: "c_29"
  bottom: "gate_input_30"
  bottom: "cont_30"
  top: "c_30"
  top: "h_30"
}
layer {
  name: "lstm1_h_conted_30"
  type: "Scale"
  bottom: "h_30"
  bottom: "cont_31"
  top: "h_conted_30"
  scale_param {
    axis: 0
  }
}
layer {
  name: "lstm1_transform_31"
  type: "InnerProduct"
  bottom: "h_conted_30"
  top: "W_hc_h_30"
  param {
    name: "W_hc"
  }
  inner_product_param {
    num_output: 2048
    bias_term: false
    weight_filler {
      type: "uniform"
      min: -0.01
      max: 0.01
    }
    axis: 2
  }
}
layer {
  name: "lstm1_gate_input_31"
  type: "Eltwise"
  bottom: "W_hc_h_30"
  bottom: "W_xc_x_31"
  top: "gate_input_31"
  eltwise_param {
    operation: SUM
  }
}
layer {
  name: "lstm1_unit_31"
  type: "LSTMUnit"
  bottom: "c_30"
  bottom: "gate_input_31"
  bottom: "cont_31"
  top: "c_31"
  top: "h_31"
}
layer {
  name: "lstm1_h_conted_31"
  type: "Scale"
  bottom: "h_31"
  bottom: "cont_32"
  top: "h_conted_31"
  scale_param {
    axis: 0
  }
}
layer {
  name: "lstm1_transform_32"
  type: "InnerProduct"
  bottom: "h_conted_31"
  top: "W_hc_h_31"
  param {
    name: "W_hc"
  }
  inner_product_param {
    num_output: 2048
    bias_term: false
    weight_filler {
      type: "uniform"
      min: -0.01
      max: 0.01
    }
    axis: 2
  }
}
layer {
  name: "lstm1_gate_input_32"
  type: "Eltwise"
  bottom: "W_hc_h_31"
  bottom: "W_xc_x_32"
  top: "gate_input_32"
  eltwise_param {
    operation: SUM
  }
}
layer {
  name: "lstm1_unit_32"
  type: "LSTMUnit"
  bottom: "c_31"
  bottom: "gate_input_32"
  bottom: "cont_32"
  top: "c_32"
  top: "h_32"
}
layer {
  name: "lstm1_h_conted_32"
  type: "Scale"
  bottom: "h_32"
  bottom: "cont_33"
  top: "h_conted_32"
  scale_param {
    axis: 0
  }
}
layer {
  name: "lstm1_transform_33"
  type: "InnerProduct"
  bottom: "h_conted_32"
  top: "W_hc_h_32"
  param {
    name: "W_hc"
  }
  inner_product_param {
    num_output: 2048
    bias_term: false
    weight_filler {
      type: "uniform"
      min: -0.01
      max: 0.01
    }
    axis: 2
  }
}
layer {
  name: "lstm1_gate_input_33"
  type: "Eltwise"
  bottom: "W_hc_h_32"
  bottom: "W_xc_x_33"
  top: "gate_input_33"
  eltwise_param {
    operation: SUM
  }
}
layer {
  name: "lstm1_unit_33"
  type: "LSTMUnit"
  bottom: "c_32"
  bottom: "gate_input_33"
  bottom: "cont_33"
  top: "c_33"
  top: "h_33"
}
layer {
  name: "lstm1_h_conted_33"
  type: "Scale"
  bottom: "h_33"
  bottom: "cont_34"
  top: "h_conted_33"
  scale_param {
    axis: 0
  }
}
layer {
  name: "lstm1_transform_34"
  type: "InnerProduct"
  bottom: "h_conted_33"
  top: "W_hc_h_33"
  param {
    name: "W_hc"
  }
  inner_product_param {
    num_output: 2048
    bias_term: false
    weight_filler {
      type: "uniform"
      min: -0.01
      max: 0.01
    }
    axis: 2
  }
}
layer {
  name: "lstm1_gate_input_34"
  type: "Eltwise"
  bottom: "W_hc_h_33"
  bottom: "W_xc_x_34"
  top: "gate_input_34"
  eltwise_param {
    operation: SUM
  }
}
layer {
  name: "lstm1_unit_34"
  type: "LSTMUnit"
  bottom: "c_33"
  bottom: "gate_input_34"
  bottom: "cont_34"
  top: "c_34"
  top: "h_34"
}
layer {
  name: "lstm1_h_conted_34"
  type: "Scale"
  bottom: "h_34"
  bottom: "cont_35"
  top: "h_conted_34"
  scale_param {
    axis: 0
  }
}
layer {
  name: "lstm1_transform_35"
  type: "InnerProduct"
  bottom: "h_conted_34"
  top: "W_hc_h_34"
  param {
    name: "W_hc"
  }
  inner_product_param {
    num_output: 2048
    bias_term: false
    weight_filler {
      type: "uniform"
      min: -0.01
      max: 0.01
    }
    axis: 2
  }
}
layer {
  name: "lstm1_gate_input_35"
  type: "Eltwise"
  bottom: "W_hc_h_34"
  bottom: "W_xc_x_35"
  top: "gate_input_35"
  eltwise_param {
    operation: SUM
  }
}
layer {
  name: "lstm1_unit_35"
  type: "LSTMUnit"
  bottom: "c_34"
  bottom: "gate_input_35"
  bottom: "cont_35"
  top: "c_35"
  top: "h_35"
}
layer {
  name: "lstm1_h_conted_35"
  type: "Scale"
  bottom: "h_35"
  bottom: "cont_36"
  top: "h_conted_35"
  scale_param {
    axis: 0
  }
}
layer {
  name: "lstm1_transform_36"
  type: "InnerProduct"
  bottom: "h_conted_35"
  top: "W_hc_h_35"
  param {
    name: "W_hc"
  }
  inner_product_param {
    num_output: 2048
    bias_term: false
    weight_filler {
      type: "uniform"
      min: -0.01
      max: 0.01
    }
    axis: 
I1018 00:02:57.791797 29782 layer_factory.hpp:77] Creating layer lstm1_
I1018 00:02:57.791816 29782 net.cpp:84] Creating Layer lstm1_
I1018 00:02:57.791822 29782 net.cpp:380] lstm1_ -> x
I1018 00:02:57.791838 29782 net.cpp:380] lstm1_ -> cont
I1018 00:02:57.791891 29782 net.cpp:122] Setting up lstm1_
I1018 00:02:57.791899 29782 net.cpp:129] Top shape: 64 5 512 (163840)
I1018 00:02:57.791904 29782 net.cpp:129] Top shape: 64 5 (320)
I1018 00:02:57.791909 29782 net.cpp:137] Memory required for data: 656640
I1018 00:02:57.791913 29782 layer_factory.hpp:77] Creating layer lstm1_
I1018 00:02:57.791920 29782 net.cpp:84] Creating Layer lstm1_
I1018 00:02:57.791925 29782 net.cpp:380] lstm1_ -> c_0
I1018 00:02:57.791934 29782 net.cpp:380] lstm1_ -> h_0
I1018 00:02:57.791973 29782 net.cpp:122] Setting up lstm1_
I1018 00:02:57.791980 29782 net.cpp:129] Top shape: 1 5 512 (2560)
I1018 00:02:57.791986 29782 net.cpp:129] Top shape: 1 5 512 (2560)
I1018 00:02:57.791990 29782 net.cpp:137] Memory required for data: 677120
I1018 00:02:57.791995 29782 layer_factory.hpp:77] Creating layer lstm1_cont_slice
I1018 00:02:57.792007 29782 net.cpp:84] Creating Layer lstm1_cont_slice
I1018 00:02:57.792012 29782 net.cpp:406] lstm1_cont_slice <- cont
I1018 00:02:57.792022 29782 net.cpp:380] lstm1_cont_slice -> cont_1
I1018 00:02:57.792050 29782 net.cpp:380] lstm1_cont_slice -> cont_2
…
I1018 00:02:57.792670 29782 net.cpp:380] lstm1_cont_slice -> cont_57
I1018 00:02:57.792681 29782 net.cpp:380] lstm1_cont_slice -> cont_58
I1018 00:02:57.792692 29782 net.cpp:380] lstm1_cont_slice -> cont_59
I1018 00:02:57.792703 29782 net.cpp:380] lstm1_cont_slice -> cont_60
I1018 00:02:57.792714 29782 net.cpp:380] lstm1_cont_slice -> cont_61
I1018 00:02:57.792729 29782 net.cpp:380] lstm1_cont_slice -> cont_62
I1018 00:02:57.792740 29782 net.cpp:380] lstm1_cont_slice -> cont_63
I1018 00:02:57.792752 29782 net.cpp:380] lstm1_cont_slice -> cont_64
I1018 00:02:57.793432 29782 net.cpp:122] Setting up lstm1_cont_slice
I1018 00:02:57.793440 29782 net.cpp:129] Top shape: 1 5 (5)
I1018 00:02:57.793447 29782 net.cpp:129] Top shape: 1 5 (5)
I1018 00:02:57.793450 29782 net.cpp:129] Top shape: 1 5 (5)
I1018 00:02:57.793455 29782 net.cpp:129] Top shape: 1 5 (5)
I1018 00:02:57.793460 29782 net.cpp:129] Top shape: 1 5 (5)
I1018 00:02:57.793464 29782 net.cpp:129] Top shape: 1 5 (5)
I1018 00:02:57.793469 29782 net.cpp:129] Top shape: 1 5 (5)
I1018 00:02:57.793473 29782 net.cpp:129] Top shape: 1 5 (5)
I1018 00:02:57.793478 29782 net.cpp:129] Top shape: 1 5 (5)
I1018 00:02:57.793483 29782 net.cpp:129] Top shape: 1 5 (5)
I1018 00:02:57.793488 29782 net.cpp:129] Top shape: 1 5 (5)
I1018 00:02:57.793491 29782 net.cpp:129] Top shape: 1 5 (5)
I1018 00:02:57.793496 29782 net.cpp:129] Top shape: 1 5 (5)
I1018 00:02:57.793501 29782 net.cpp:129] Top shape: 1 5 (5)
I1018 00:02:57.793505 29782 net.cpp:129] Top shape: 1 5 (5)
I1018 00:02:57.793509 29782 net.cpp:129] Top shape: 1 5 (5)
I1018 00:02:57.793514 29782 net.cpp:129] Top shape: 1 5 (5)
I1018 00:02:57.793519 29782 net.cpp:129] Top shape: 1 5 (5)
I1018 00:02:57.793524 29782 net.cpp:129] Top shape: 1 5 (5)
I1018 00:02:57.793529 29782 net.cpp:129] Top shape: 1 5 (5)
I1018 00:02:57.793534 29782 net.cpp:129] Top shape: 1 5 (5)
I1018 00:02:57.793539 29782 net.cpp:129] Top shape: 1 5 (5)
I1018 00:02:57.793543 29782 net.cpp:129] Top shape: 1 5 (5)
I1018 00:02:57.793547 29782 net.cpp:129] Top shape: 1 5 (5)
I1018 00:02:57.793552 29782 net.cpp:129] Top shape: 1 5 (5)
I1018 00:02:57.793556 29782 net.cpp:129] Top shape: 1 5 (5)
I1018 00:02:57.793561 29782 net.cpp:129] Top shape: 1 5 (5)
I1018 00:02:57.793565 29782 net.cpp:129] Top shape: 1 5 (5)
I1018 00:02:57.793570 29782 net.cpp:129] Top shape: 1 5 (5)
I1018 00:02:57.793575 29782 net.cpp:129] Top shape: 1 5 (5)
I1018 00:02:57.793579 29782 net.cpp:129] Top shape: 1 5 (5)
I1018 00:02:57.793583 29782 net.cpp:129] Top shape: 1 5 (5)
I1018 00:02:57.793588 29782 net.cpp:129] Top shape: 1 5 (5)
I1018 00:02:57.793592 29782 net.cpp:129] Top shape: 1 5 (5)
I1018 00:02:57.793597 29782 net.cpp:129] Top shape: 1 5 (5)
I1018 00:02:57.793601 29782 net.cpp:129] Top shape: 1 5 (5)
I1018 00:02:57.793606 29782 net.cpp:129] Top shape: 1 5 (5)
I1018 00:02:57.793611 29782 net.cpp:129] Top shape: 1 5 (5)
I1018 00:02:57.793615 29782 net.cpp:129] Top shape: 1 5 (5)
I1018 00:02:57.793619 29782 net.cpp:129] Top shape: 1 5 (5)
I1018 00:02:57.793624 29782 net.cpp:129] Top shape: 1 5 (5)
I1018 00:02:57.793628 29782 net.cpp:129] Top shape: 1 5 (5)
I1018 00:02:57.793633 29782 net.cpp:129] Top shape: 1 5 (5)
I1018 00:02:57.793637 29782 net.cpp:129] Top shape: 1 5 (5)
I1018 00:02:57.793642 29782 net.cpp:129] Top shape: 1 5 (5)
I1018 00:02:57.793647 29782 net.cpp:129] Top shape: 1 5 (5)
I1018 00:02:57.793651 29782 net.cpp:129] Top shape: 1 5 (5)
I1018 00:02:57.793655 29782 net.cpp:129] Top shape: 1 5 (5)
I1018 00:02:57.793660 29782 net.cpp:129] Top shape: 1 5 (5)
I1018 00:02:57.793664 29782 net.cpp:129] Top shape: 1 5 (5)
I1018 00:02:57.793668 29782 net.cpp:129] Top shape: 1 5 (5)
I1018 00:02:57.793673 29782 net.cpp:129] Top shape: 1 5 (5)
I1018 00:02:57.793678 29782 net.cpp:129] Top shape: 1 5 (5)
I1018 00:02:57.793682 29782 net.cpp:129] Top shape: 1 5 (5)
I1018 00:02:57.793686 29782 net.cpp:129] Top shape: 1 5 (5)
I1018 00:02:57.793691 29782 net.cpp:129] Top shape: 1 5 (5)
I1018 00:02:57.793695 29782 net.cpp:129] Top shape: 1 5 (5)
I1018 00:02:57.793700 29782 net.cpp:129] Top shape: 1 5 (5)
I1018 00:02:57.793704 29782 net.cpp:129] Top shape: 1 5 (5)
I1018 00:02:57.793709 29782 net.cpp:129] Top shape: 1 5 (5)
I1018 00:02:57.793714 29782 net.cpp:129] Top shape: 1 5 (5)
I1018 00:02:57.793718 29782 net.cpp:129] Top shape: 1 5 (5)
I1018 00:02:57.793722 29782 net.cpp:129] Top shape: 1 5 (5)
I1018 00:02:57.793727 29782 net.cpp:129] Top shape: 1 5 (5)
I1018 00:02:57.793731 29782 net.cpp:137] Memory required for data: 678400
I1018 00:02:57.793735 29782 layer_factory.hpp:77] Creating layer cont_1_lstm1_cont_slice_0_split
I1018 00:02:57.793745 29782 net.cpp:84] Creating Layer cont_1_lstm1_cont_slice_0_split
I1018 00:02:57.793748 29782 net.cpp:406] cont_1_lstm1_cont_slice_0_split <- cont_1
I1018 00:02:57.793756 29782 net.cpp:380] cont_1_lstm1_cont_slice_0_split -> cont_1_lstm1_cont_slice_0_split_0
I1018 00:02:57.793763 29782 net.cpp:380] cont_1_lstm1_cont_slice_0_split -> cont_1_lstm1_cont_slice_0_split_1
I1018 00:02:57.793798 29782 net.cpp:122] Setting up cont_1_lstm1_cont_slice_0_split
I1018 00:02:57.793804 29782 net.cpp:129] Top shape: 1 5 (5)
I1018 00:02:57.793809 29782 net.cpp:129] Top shape: 1 5 (5)
I1018 00:02:57.793813 29782 net.cpp:137] Memory required for data: 678440
I1018 00:02:57.793817 29782 layer_factory.hpp:77] Creating layer cont_2_lstm1_cont_slice_1_split
I1018 00:02:57.793823 29782 net.cpp:84] Creating Layer cont_2_lstm1_cont_slice_1_split
I1018 00:02:57.793828 29782 net.cpp:406] cont_2_lstm1_cont_slice_1_split <- cont_2
I1018 00:02:57.793834 29782 net.cpp:380] cont_2_lstm1_cont_slice_1_split -> cont_2_lstm1_cont_slice_1_split_0
I1018 00:02:57.793843 29782 net.cpp:380] cont_2_lstm1_cont_slice_1_split -> cont_2_lstm1_cont_slice_1_split_1
I1018 00:02:57.793872 29782 net.cpp:122] Setting up cont_2_lstm1_cont_slice_1_split
I1018 00:02:57.793879 29782 net.cpp:129] Top shape: 1 5 (5)
I1018 00:02:57.793884 29782 net.cpp:129] Top shape: 1 5 (5)
I1018 00:02:57.793887 29782 net.cpp:137] Memory required for data: 678480
I1018 00:02:57.793891 29782 layer_factory.hpp:77] Creating layer cont_3_lstm1_cont_slice_2_split
I1018 00:02:57.793896 29782 net.cpp:84] Creating Layer cont_3_lstm1_cont_slice_2_split
I1018 00:02:57.793901 29782 net.cpp:406] cont_3_lstm1_cont_slice_2_split <- cont_3
I1018 00:02:57.793908 29782 net.cpp:380] cont_3_lstm1_cont_slice_2_split -> cont_3_lstm1_cont_slice_2_split_0
I1018 00:02:57.793915 29782 net.cpp:380] cont_3_lstm1_cont_slice_2_split -> cont_3_lstm1_cont_slice_2_split_1
I1018 00:02:57.793946 29782 net.cpp:122] Setting up cont_3_lstm1_cont_slice_2_split
I1018 00:02:57.793952 29782 net.cpp:129] Top shape: 1 5 (5)
I1018 00:02:57.793957 29782 net.cpp:129] Top shape: 1 5 (5)
I1018 00:02:57.793962 29782 net.cpp:137] Memory required for data: 678520
I1018 00:02:57.793964 29782 layer_factory.hpp:77] Creating layer cont_4_lstm1_cont_slice_3_split
I1018 00:02:57.793969 29782 net.cpp:84] Creating Layer cont_4_lstm1_cont_slice_3_split
I1018 00:02:57.793974 29782 net.cpp:406] cont_4_lstm1_cont_slice_3_split <- cont_4
I1018 00:02:57.793982 29782 net.cpp:380] cont_4_lstm1_cont_slice_3_split -> cont_4_lstm1_cont_slice_3_split_0
I1018 00:02:57.793988 29782 net.cpp:380] cont_4_lstm1_cont_slice_3_split -> cont_4_lstm1_cont_slice_3_split_1
I1018 00:02:57.794018 29782 net.cpp:122] Setting up cont_4_lstm1_cont_slice_3_split
I1018 00:02:57.794023 29782 net.cpp:129] Top shape: 1 5 (5)
I1018 00:02:57.794033 29782 net.cpp:129] Top shape: 1 5 (5)
I1018 00:02:57.794036 29782 net.cpp:137] Memory required for data: 678560
I1018 00:02:57.794040 29782 layer_factory.hpp:77] Creating layer cont_5_lstm1_cont_slice_4_split
I1018 00:02:57.794045 29782 net.cpp:84] Creating Layer cont_5_lstm1_cont_slice_4_split
I1018 00:02:57.794049 29782 net.cpp:406] cont_5_lstm1_cont_slice_4_split <- cont_5
I1018 00:02:57.794055 29782 net.cpp:380] cont_5_lstm1_cont_slice_4_split -> cont_5_lstm1_cont_slice_4_split_0
I1018 00:02:57.794061 29782 net.cpp:380] cont_5_lstm1_cont_slice_4_split -> cont_5_lstm1_cont_slice_4_split_1
I1018 00:02:57.794090 29782 net.cpp:122] Setting up cont_5_lstm1_cont_slice_4_split
I1018 00:02:57.794096 29782 net.cpp:129] Top shape: 1 5 (5)
I1018 00:02:57.794101 29782 net.cpp:129] Top shape: 1 5 (5)
I1018 00:02:57.794104 29782 net.cpp:137] Memory required for data: 678600
I1018 00:02:57.794108 29782 layer_factory.hpp:77] Creating layer cont_6_lstm1_cont_slice_5_split
I1018 00:02:57.794114 29782 net.cpp:84] Creating Layer cont_6_lstm1_cont_slice_5_split
I1018 00:02:57.794119 29782 net.cpp:406] cont_6_lstm1_cont_slice_5_split <- cont_6
I1018 00:02:57.794126 29782 net.cpp:380] cont_6_lstm1_cont_slice_5_split -> cont_6_lstm1_cont_slice_5_split_0
I1018 00:02:57.794139 29782 net.cpp:380] cont_6_lstm1_cont_slice_5_split -> cont_6_lstm1_cont_slice_5_split_1
I1018 00:02:57.794167 29782 net.cpp:122] Setting up cont_6_lstm1_cont_slice_5_split
I1018 00:02:57.794173 29782 net.cpp:129] Top shape: 1 5 (5)
I1018 00:02:57.794178 29782 net.cpp:129] Top shape: 1 5 (5)
I1018 00:02:57.794180 29782 net.cpp:137] Memory required for data: 678640
I1018 00:02:57.794184 29782 layer_factory.hpp:77] Creating layer cont_7_lstm1_cont_slice_6_split
I1018 00:02:57.794191 29782 net.cpp:84] Creating Layer cont_7_lstm1_cont_slice_6_split
I1018 00:02:57.794196 29782 net.cpp:406] cont_7_lstm1_cont_slice_6_split <- cont_7
I1018 00:02:57.794201 29782 net.cpp:380] cont_7_lstm1_cont_slice_6_split -> cont_7_lstm1_cont_slice_6_split_0
I1018 00:02:57.794209 29782 net.cpp:380] cont_7_lstm1_cont_slice_6_split -> cont_7_lstm1_cont_slice_6_split_1
I1018 00:02:57.794237 29782 net.cpp:122] Setting up cont_7_lstm1_cont_slice_6_split
I1018 00:02:57.794243 29782 net.cpp:129] Top shape: 1 5 (5)
I1018 00:02:57.794248 29782 net.cpp:129] Top shape: 1 5 (5)
I1018 00:02:57.794251 29782 net.cpp:137] Memory required for data: 678680
I1018 00:02:57.794256 29782 layer_factory.hpp:77] Creating layer cont_8_lstm1_cont_slice_7_split
I1018 00:02:57.794261 29782 net.cpp:84] Creating Layer cont_8_lstm1_cont_slice_7_split
I1018 00:02:57.794265 29782 net.cpp:406] cont_8_lstm1_cont_slice_7_split <- cont_8
I1018 00:02:57.794271 29782 net.cpp:380] cont_8_lstm1_cont_slice_7_split -> cont_8_lstm1_cont_slice_7_split_0
I1018 00:02:57.794277 29782 net.cpp:380] cont_8_lstm1_cont_slice_7_split -> cont_8_lstm1_cont_slice_7_split_1
I1018 00:02:57.794306 29782 net.cpp:122] Setting up cont_8_lstm1_cont_slice_7_split
I1018 00:02:57.794312 29782 net.cpp:129] Top shape: 1 5 (5)
I1018 00:02:57.794317 29782 net.cpp:129] Top shape: 1 5 (5)
I1018 00:02:57.794320 29782 net.cpp:137] Memory required for data: 678720
I1018 00:02:57.794324 29782 layer_factory.hpp:77] Creating layer cont_9_lstm1_cont_slice_8_split
I1018 00:02:57.794329 29782 net.cpp:84] Creating Layer cont_9_lstm1_cont_slice_8_split
I1018 00:02:57.794333 29782 net.cpp:406] cont_9_lstm1_cont_slice_8_split <- cont_9
I1018 00:02:57.794339 29782 net.cpp:380] cont_9_lstm1_cont_slice_8_split -> cont_9_lstm1_cont_slice_8_split_0
I1018 00:02:57.794348 29782 net.cpp:380] cont_9_lstm1_cont_slice_8_split -> cont_9_lstm1_cont_slice_8_split_1
I1018 00:02:57.794378 29782 net.cpp:122] Setting up cont_9_lstm1_cont_slice_8_split
I1018 00:02:57.794384 29782 net.cpp:129] Top shape: 1 5 (5)
I1018 00:02:57.794389 29782 net.cpp:129] Top shape: 1 5 (5)
I1018 00:02:57.794394 29782 net.cpp:137] Memory required for data: 678760
I1018 00:02:57.794397 29782 layer_factory.hpp:77] Creating layer cont_10_lstm1_cont_slice_9_split
I1018 00:02:57.794402 29782 net.cpp:84] Creating Layer cont_10_lstm1_cont_slice_9_split
I1018 00:02:57.794406 29782 net.cpp:406] cont_10_lstm1_cont_slice_9_split <- cont_10
I1018 00:02:57.794414 29782 net.cpp:380] cont_10_lstm1_cont_slice_9_split -> cont_10_lstm1_cont_slice_9_split_0
I1018 00:02:57.794420 29782 net.cpp:380] cont_10_lstm1_cont_slice_9_split -> cont_10_lstm1_cont_slice_9_split_1
I1018 00:02:57.794450 29782 net.cpp:122] Setting up cont_10_lstm1_cont_slice_9_split
I1018 00:02:57.794456 29782 net.cpp:129] Top shape: 1 5 (5)
I1018 00:02:57.794461 29782 net.cpp:129] Top shape: 1 5 (5)
I1018 00:02:57.794463 29782 net.cpp:137] Memory required for data: 678800
I1018 00:02:57.794467 29782 layer_factory.hpp:77] Creating layer cont_11_lstm1_cont_slice_10_split
I1018 00:02:57.794473 29782 net.cpp:84] Creating Layer cont_11_lstm1_cont_slice_10_split
I1018 00:02:57.794477 29782 net.cpp:406] cont_11_lstm1_cont_slice_10_split <- cont_11
I1018 00:02:57.794483 29782 net.cpp:380] cont_11_lstm1_cont_slice_10_split -> cont_11_lstm1_cont_slice_10_split_0
I1018 00:02:57.794489 29782 net.cpp:380] cont_11_lstm1_cont_slice_10_split -> cont_11_lstm1_cont_slice_10_split_1
I1018 00:02:57.794518 29782 net.cpp:122] Setting up cont_11_lstm1_cont_slice_10_split
I1018 00:02:57.794524 29782 net.cpp:129] Top shape: 1 5 (5)
I1018 00:02:57.794529 29782 net.cpp:129] Top shape: 1 5 (5)
I1018 00:02:57.794533 29782 net.cpp:137] Memory required for data: 678840
I1018 00:02:57.794538 29782 layer_factory.hpp:77] Creating layer cont_12_lstm1_cont_slice_11_split
I1018 00:02:57.794543 29782 net.cpp:84] Creating Layer cont_12_lstm1_cont_slice_11_split
I1018 00:02:57.794546 29782 net.cpp:406] cont_12_lstm1_cont_slice_11_split <- cont_12
I1018 00:02:57.794553 29782 net.cpp:380] cont_12_lstm1_cont_slice_11_split -> cont_12_lstm1_cont_slice_11_split_0
I1018 00:02:57.794559 29782 net.cpp:380] cont_12_lstm1_cont_slice_11_split -> cont_12_lstm1_cont_slice_11_split_1
I1018 00:02:57.794589 29782 net.cpp:122] Setting up cont_12_lstm1_cont_slice_11_split
I1018 00:02:57.794594 29782 net.cpp:129] Top shape: 1 5 (5)
I1018 00:02:57.794598 29782 net.cpp:129] Top shape: 1 5 (5)
I1018 00:02:57.794602 29782 net.cpp:137] Memory required for data: 678880
I1018 00:02:57.794606 29782 layer_factory.hpp:77] Creating layer cont_13_lstm1_cont_slice_12_split
I1018 00:02:57.794611 29782 net.cpp:84] Creating Layer cont_13_lstm1_cont_slice_12_split
I1018 00:02:57.794616 29782 net.cpp:406] cont_13_lstm1_cont_slice_12_split <- cont_13
I1018 00:02:57.794623 29782 net.cpp:380] cont_13_lstm1_cont_slice_12_split -> cont_13_lstm1_cont_slice_12_split_0
I1018 00:02:57.794630 29782 net.cpp:380] cont_13_lstm1_cont_slice_12_split -> cont_13_lstm1_cont_slice_12_split_1
I1018 00:02:57.794657 29782 net.cpp:122] Setting up cont_13_lstm1_cont_slice_12_split
I1018 00:02:57.794662 29782 net.cpp:129] Top shape: 1 5 (5)
I1018 00:02:57.794667 29782 net.cpp:129] Top shape: 1 5 (5)
I1018 00:02:57.794672 29782 net.cpp:137] Memory required for data: 678920
I1018 00:02:57.794675 29782 layer_factory.hpp:77] Creating layer cont_14_lstm1_cont_slice_13_split
I1018 00:02:57.794687 29782 net.cpp:84] Creating Layer cont_14_lstm1_cont_slice_13_split
I1018 00:02:57.794690 29782 net.cpp:406] cont_14_lstm1_cont_slice_13_split <- cont_14
I1018 00:02:57.794697 29782 net.cpp:380] cont_14_lstm1_cont_slice_13_split -> cont_14_lstm1_cont_slice_13_split_0
I1018 00:02:57.794703 29782 net.cpp:380] cont_14_lstm1_cont_slice_13_split -> cont_14_lstm1_cont_slice_13_split_1
I1018 00:02:57.794734 29782 net.cpp:122] Setting up cont_14_lstm1_cont_slice_13_split
I1018 00:02:57.794739 29782 net.cpp:129] Top shape: 1 5 (5)
I1018 00:02:57.794744 29782 net.cpp:129] Top shape: 1 5 (5)
I1018 00:02:57.794749 29782 net.cpp:137] Memory required for data: 678960
I1018 00:02:57.794752 29782 layer_factory.hpp:77] Creating layer cont_15_lstm1_cont_slice_14_split
I1018 00:02:57.794757 29782 net.cpp:84] Creating Layer cont_15_lstm1_cont_slice_14_split
I1018 00:02:57.794761 29782 net.cpp:406] cont_15_lstm1_cont_slice_14_split <- cont_15
I1018 00:02:57.794767 29782 net.cpp:380] cont_15_lstm1_cont_slice_14_split -> cont_15_lstm1_cont_slice_14_split_0
I1018 00:02:57.794773 29782 net.cpp:380] cont_15_lstm1_cont_slice_14_split -> cont_15_lstm1_cont_slice_14_split_1
I1018 00:02:57.794802 29782 net.cpp:122] Setting up cont_15_lstm1_cont_slice_14_split
I1018 00:02:57.794807 29782 net.cpp:129] Top shape: 1 5 (5)
I1018 00:02:57.794812 29782 net.cpp:129] Top shape: 1 5 (5)
I1018 00:02:57.794816 29782 net.cpp:137] Memory required for data: 679000
I1018 00:02:57.794821 29782 layer_factory.hpp:77] Creating layer cont_16_lstm1_cont_slice_15_split
I1018 00:02:57.794826 29782 net.cpp:84] Creating Layer cont_16_lstm1_cont_slice_15_split
I1018 00:02:57.794829 29782 net.cpp:406] cont_16_lstm1_cont_slice_15_split <- cont_16
I1018 00:02:57.794836 29782 net.cpp:380] cont_16_lstm1_cont_slice_15_split -> cont_16_lstm1_cont_slice_15_split_0
I1018 00:02:57.794843 29782 net.cpp:380] cont_16_lstm1_cont_slice_15_split -> cont_16_lstm1_cont_slice_15_split_1
I1018 00:02:57.794870 29782 net.cpp:122] Setting up cont_16_lstm1_cont_slice_15_split
I1018 00:02:57.794875 29782 net.cpp:129] Top shape: 1 5 (5)
I1018 00:02:57.794880 29782 net.cpp:129] Top shape: 1 5 (5)
I1018 00:02:57.794884 29782 net.cpp:137] Memory required for data: 679040
I1018 00:02:57.794888 29782 layer_factory.hpp:77] Creating layer cont_17_lstm1_cont_slice_16_split
I1018 00:02:57.794895 29782 net.cpp:84] Creating Layer cont_17_lstm1_cont_slice_16_split
I1018 00:02:57.794900 29782 net.cpp:406] cont_17_lstm1_cont_slice_16_split <- cont_17
I1018 00:02:57.794906 29782 net.cpp:380] cont_17_lstm1_cont_slice_16_split -> cont_17_lstm1_cont_slice_16_split_0
I1018 00:02:57.794912 29782 net.cpp:380] cont_17_lstm1_cont_slice_16_split -> cont_17_lstm1_cont_slice_16_split_1
I1018 00:02:57.794944 29782 net.cpp:122] Setting up cont_17_lstm1_cont_slice_16_split
I1018 00:02:57.794948 29782 net.cpp:129] Top shape: 1 5 (5)
I1018 00:02:57.794953 29782 net.cpp:129] Top shape: 1 5 (5)
I1018 00:02:57.794957 29782 net.cpp:137] Memory required for data: 679080
I1018 00:02:57.794961 29782 layer_factory.hpp:77] Creating layer cont_18_lstm1_cont_slice_17_split
I1018 00:02:57.794966 29782 net.cpp:84] Creating Layer cont_18_lstm1_cont_slice_17_split
I1018 00:02:57.794970 29782 net.cpp:406] cont_18_lstm1_cont_slice_17_split <- cont_18
I1018 00:02:57.794975 29782 net.cpp:380] cont_18_lstm1_cont_slice_17_split -> cont_18_lstm1_cont_slice_17_split_0
I1018 00:02:57.794983 29782 net.cpp:380] cont_18_lstm1_cont_slice_17_split -> cont_18_lstm1_cont_slice_17_split_1
I1018 00:02:57.795012 29782 net.cpp:122] Setting up cont_18_lstm1_cont_slice_17_split
I1018 00:02:57.795017 29782 net.cpp:129] Top shape: 1 5 (5)
I1018 00:02:57.795022 29782 net.cpp:129] Top shape: 1 5 (5)
I1018 00:02:57.795027 29782 net.cpp:137] Memory required for data: 679120
I1018 00:02:57.795030 29782 layer_factory.hpp:77] Creating layer cont_19_lstm1_cont_slice_18_split
I1018 00:02:57.795035 29782 net.cpp:84] Creating Layer cont_19_lstm1_cont_slice_18_split
I1018 00:02:57.795039 29782 net.cpp:406] cont_19_lstm1_cont_slice_18_split <- cont_19
I1018 00:02:57.795045 29782 net.cpp:380] cont_19_lstm1_cont_slice_18_split -> cont_19_lstm1_cont_slice_18_split_0
I1018 00:02:57.795051 29782 net.cpp:380] cont_19_lstm1_cont_slice_18_split -> cont_19_lstm1_cont_slice_18_split_1
I1018 00:02:57.795080 29782 net.cpp:122] Setting up cont_19_lstm1_cont_slice_18_split
I1018 00:02:57.795086 29782 net.cpp:129] Top shape: 1 5 (5)
I1018 00:02:57.795090 29782 net.cpp:129] Top shape: 1 5 (5)
I1018 00:02:57.795094 29782 net.cpp:137] Memory required for data: 679160
I1018 00:02:57.795099 29782 layer_factory.hpp:77] Creating layer cont_20_lstm1_cont_slice_19_split
I1018 00:02:57.795104 29782 net.cpp:84] Creating Layer cont_20_lstm1_cont_slice_19_split
I1018 00:02:57.795109 29782 net.cpp:406] cont_20_lstm1_cont_slice_19_split <- cont_20
I1018 00:02:57.795115 29782 net.cpp:380] cont_20_lstm1_cont_slice_19_split -> cont_20_lstm1_cont_slice_19_split_0
I1018 00:02:57.795122 29782 net.cpp:380] cont_20_lstm1_cont_slice_19_split -> cont_20_lstm1_cont_slice_19_split_1
I1018 00:02:57.795150 29782 net.cpp:122] Setting up cont_20_lstm1_cont_slice_19_split
I1018 00:02:57.795156 29782 net.cpp:129] Top shape: 1 5 (5)
I1018 00:02:57.795159 29782 net.cpp:129] Top shape: 1 5 (5)
I1018 00:02:57.795163 29782 net.cpp:137] Memory required for data: 679200
I1018 00:02:57.795167 29782 layer_factory.hpp:77] Creating layer cont_21_lstm1_cont_slice_20_split
I1018 00:02:57.795174 29782 net.cpp:84] Creating Layer cont_21_lstm1_cont_slice_20_split
I1018 00:02:57.795178 29782 net.cpp:406] cont_21_lstm1_cont_slice_20_split <- cont_21
I1018 00:02:57.795189 29782 net.cpp:380] cont_21_lstm1_cont_slice_20_split -> cont_21_lstm1_cont_slice_20_split_0
I1018 00:02:57.795197 29782 net.cpp:380] cont_21_lstm1_cont_slice_20_split -> cont_21_lstm1_cont_slice_20_split_1
I1018 00:02:57.795224 29782 net.cpp:122] Setting up cont_21_lstm1_cont_slice_20_split
I1018 00:02:57.795230 29782 net.cpp:129] Top shape: 1 5 (5)
I1018 00:02:57.795235 29782 net.cpp:129] Top shape: 1 5 (5)
I1018 00:02:57.795239 29782 net.cpp:137] Memory required for data: 679240
I1018 00:02:57.795243 29782 layer_factory.hpp:77] Creating layer cont_22_lstm1_cont_slice_21_split
I1018 00:02:57.795248 29782 net.cpp:84] Creating Layer cont_22_lstm1_cont_slice_21_split
I1018 00:02:57.795253 29782 net.cpp:406] cont_22_lstm1_cont_slice_21_split <- cont_22
I1018 00:02:57.795258 29782 net.cpp:380] cont_22_lstm1_cont_slice_21_split -> cont_22_lstm1_cont_slice_21_split_0
I1018 00:02:57.795264 29782 net.cpp:380] cont_22_lstm1_cont_slice_21_split -> cont_22_lstm1_cont_slice_21_split_1
I1018 00:02:57.795294 29782 net.cpp:122] Setting up cont_22_lstm1_cont_slice_21_split
I1018 00:02:57.795300 29782 net.cpp:129] Top shape: 1 5 (5)
I1018 00:02:57.795305 29782 net.cpp:129] Top shape: 1 5 (5)
I1018 00:02:57.795308 29782 net.cpp:137] Memory required for data: 679280
I1018 00:02:57.795311 29782 layer_factory.hpp:77] Creating layer cont_23_lstm1_cont_slice_22_split
I1018 00:02:57.795317 29782 net.cpp:84] Creating Layer cont_23_lstm1_cont_slice_22_split
I1018 00:02:57.795321 29782 net.cpp:406] cont_23_lstm1_cont_slice_22_split <- cont_23
I1018 00:02:57.795327 29782 net.cpp:380] cont_23_lstm1_cont_slice_22_split -> cont_23_lstm1_cont_slice_22_split_0
I1018 00:02:57.795336 29782 net.cpp:380] cont_23_lstm1_cont_slice_22_split -> cont_23_lstm1_cont_slice_22_split_1
I1018 00:02:57.795362 29782 net.cpp:122] Setting up cont_23_lstm1_cont_slice_22_split
I1018 00:02:57.795368 29782 net.cpp:129] Top shape: 1 5 (5)
I1018 00:02:57.795373 29782 net.cpp:129] Top shape: 1 5 (5)
I1018 00:02:57.795377 29782 net.cpp:137] Memory required for data: 679320
I1018 00:02:57.795380 29782 layer_factory.hpp:77] Creating layer cont_24_lstm1_cont_slice_23_split
I1018 00:02:57.795387 29782 net.cpp:84] Creating Layer cont_24_lstm1_cont_slice_23_split
I1018 00:02:57.795392 29782 net.cpp:406] cont_24_lstm1_cont_slice_23_split <- cont_24
I1018 00:02:57.795397 29782 net.cpp:380] cont_24_lstm1_cont_slice_23_split -> cont_24_lstm1_cont_slice_23_split_0
I1018 00:02:57.795403 29782 net.cpp:380] cont_24_lstm1_cont_slice_23_split -> cont_24_lstm1_cont_slice_23_split_1
I1018 00:02:57.795433 29782 net.cpp:122] Setting up cont_24_lstm1_cont_slice_23_split
I1018 00:02:57.795439 29782 net.cpp:129] Top shape: 1 5 (5)
I1018 00:02:57.795444 29782 net.cpp:129] Top shape: 1 5 (5)
I1018 00:02:57.795446 29782 net.cpp:137] Memory required for data: 679360
I1018 00:02:57.795450 29782 layer_factory.hpp:77] Creating layer cont_25_lstm1_cont_slice_24_split
I1018 00:02:57.795455 29782 net.cpp:84] Creating Layer cont_25_lstm1_cont_slice_24_split
I1018 00:02:57.795459 29782 net.cpp:406] cont_25_lstm1_cont_slice_24_split <- cont_25
I1018 00:02:57.795465 29782 net.cpp:380] cont_25_lstm1_cont_slice_24_split -> cont_25_lstm1_cont_slice_24_split_0
I1018 00:02:57.795471 29782 net.cpp:380] cont_25_lstm1_cont_slice_24_split -> cont_25_lstm1_cont_slice_24_split_1
I1018 00:02:57.795502 29782 net.cpp:122] Setting up cont_25_lstm1_cont_slice_24_split
I1018 00:02:57.795508 29782 net.cpp:129] Top shape: 1 5 (5)
I1018 00:02:57.795512 29782 net.cpp:129] Top shape: 1 5 (5)
I1018 00:02:57.795516 29782 net.cpp:137] Memory required for data: 679400
I1018 00:02:57.795521 29782 layer_factory.hpp:77] Creating layer cont_26_lstm1_cont_slice_25_split
I1018 00:02:57.795526 29782 net.cpp:84] Creating Layer cont_26_lstm1_cont_slice_25_split
I1018 00:02:57.795529 29782 net.cpp:406] cont_26_lstm1_cont_slice_25_split <- cont_26
I1018 00:02:57.795536 29782 net.cpp:380] cont_26_lstm1_cont_slice_25_split -> cont_26_lstm1_cont_slice_25_split_0
I1018 00:02:57.795542 29782 net.cpp:380] cont_26_lstm1_cont_slice_25_split -> cont_26_lstm1_cont_slice_25_split_1
I1018 00:02:57.795572 29782 net.cpp:122] Setting up cont_26_lstm1_cont_slice_25_split
I1018 00:02:57.795578 29782 net.cpp:129] Top shape: 1 5 (5)
I1018 00:02:57.795581 29782 net.cpp:129] Top shape: 1 5 (5)
I1018 00:02:57.795585 29782 net.cpp:137] Memory required for data: 679440
I1018 00:02:57.795589 29782 layer_factory.hpp:77] Creating layer cont_27_lstm1_cont_slice_26_split
I1018 00:02:57.795595 29782 net.cpp:84] Creating Layer cont_27_lstm1_cont_slice_26_split
I1018 00:02:57.795599 29782 net.cpp:406] cont_27_lstm1_cont_slice_26_split <- cont_27
I1018 00:02:57.795606 29782 net.cpp:380] cont_27_lstm1_cont_slice_26_split -> cont_27_lstm1_cont_slice_26_split_0
I1018 00:02:57.795614 29782 net.cpp:380] cont_27_lstm1_cont_slice_26_split -> cont_27_lstm1_cont_slice_26_split_1
I1018 00:02:57.795640 29782 net.cpp:122] Setting up cont_27_lstm1_cont_slice_26_split
I1018 00:02:57.795645 29782 net.cpp:129] Top shape: 1 5 (5)
I1018 00:02:57.795650 29782 net.cpp:129] Top shape: 1 5 (5)
I1018 00:02:57.795655 29782 net.cpp:137] Memory required for data: 679480
I1018 00:02:57.795658 29782 layer_factory.hpp:77] Creating layer cont_28_lstm1_cont_slice_27_split
I1018 00:02:57.795665 29782 net.cpp:84] Creating Layer cont_28_lstm1_cont_slice_27_split
I1018 00:02:57.795670 29782 net.cpp:406] cont_28_lstm1_cont_slice_27_split <- cont_28
I1018 00:02:57.795675 29782 net.cpp:380] cont_28_lstm1_cont_slice_27_split -> cont_28_lstm1_cont_slice_27_split_0
I1018 00:02:57.795681 29782 net.cpp:380] cont_28_lstm1_cont_slice_27_split -> cont_28_lstm1_cont_slice_27_split_1
I1018 00:02:57.795712 29782 net.cpp:122] Setting up cont_28_lstm1_cont_slice_27_split
I1018 00:02:57.795718 29782 net.cpp:129] Top shape: 1 5 (5)
I1018 00:02:57.795723 29782 net.cpp:129] Top shape: 1 5 (5)
I1018 00:02:57.795727 29782 net.cpp:137] Memory required for data: 679520
I1018 00:02:57.795732 29782 layer_factory.hpp:77] Creating layer cont_29_lstm1_cont_slice_28_split
I1018 00:02:57.795737 29782 net.cpp:84] Creating Layer cont_29_lstm1_cont_slice_28_split
I1018 00:02:57.795740 29782 net.cpp:406] cont_29_lstm1_cont_slice_28_split <- cont_29
I1018 00:02:57.795745 29782 net.cpp:380] cont_29_lstm1_cont_slice_28_split -> cont_29_lstm1_cont_slice_28_split_0
I1018 00:02:57.795753 29782 net.cpp:380] cont_29_lstm1_cont_slice_28_split -> cont_29_lstm1_cont_slice_28_split_1
I1018 00:02:57.795781 29782 net.cpp:122] Setting up cont_29_lstm1_cont_slice_28_split
I1018 00:02:57.795788 29782 net.cpp:129] Top shape: 1 5 (5)
I1018 00:02:57.795791 29782 net.cpp:129] Top shape: 1 5 (5)
I1018 00:02:57.795795 29782 net.cpp:137] Memory required for data: 679560
I1018 00:02:57.795799 29782 layer_factory.hpp:77] Creating layer cont_30_lstm1_cont_slice_29_split
I1018 00:02:57.795806 29782 net.cpp:84] Creating Layer cont_30_lstm1_cont_slice_29_split
I1018 00:02:57.795811 29782 net.cpp:406] cont_30_lstm1_cont_slice_29_split <- cont_30
I1018 00:02:57.795819 29782 net.cpp:380] cont_30_lstm1_cont_slice_29_split -> cont_30_lstm1_cont_slice_29_split_0
I1018 00:02:57.795825 29782 net.cpp:380] cont_30_lstm1_cont_slice_29_split -> cont_30_lstm1_cont_slice_29_split_1
I1018 00:02:57.795852 29782 net.cpp:122] Setting up cont_30_lstm1_cont_slice_29_split
I1018 00:02:57.795858 29782 net.cpp:129] Top shape: 1 5 (5)
I1018 00:02:57.795862 29782 net.cpp:129] Top shape: 1 5 (5)
I1018 00:02:57.795866 29782 net.cpp:137] Memory required for data: 679600
I1018 00:02:57.795871 29782 layer_factory.hpp:77] Creating layer cont_31_lstm1_cont_slice_30_split
I1018 00:02:57.795877 29782 net.cpp:84] Creating Layer cont_31_lstm1_cont_slice_30_split
I1018 00:02:57.795882 29782 net.cpp:406] cont_31_lstm1_cont_slice_30_split <- cont_31
I1018 00:02:57.795887 29782 net.cpp:380] cont_31_lstm1_cont_slice_30_split -> cont_31_lstm1_cont_slice_30_split_0
I1018 00:02:57.795902 29782 net.cpp:380] cont_31_lstm1_cont_slice_30_split -> cont_31_lstm1_cont_slice_30_split_1
I1018 00:02:57.795931 29782 net.cpp:122] Setting up cont_31_lstm1_cont_slice_30_split
I1018 00:02:57.795940 29782 net.cpp:129] Top shape: 1 5 (5)
I1018 00:02:57.795945 29782 net.cpp:129] Top shape: 1 5 (5)
I1018 00:02:57.795949 29782 net.cpp:137] Memory required for data: 679640
I1018 00:02:57.795953 29782 layer_factory.hpp:77] Creating layer cont_32_lstm1_cont_slice_31_split
I1018 00:02:57.795958 29782 net.cpp:84] Creating Layer cont_32_lstm1_cont_slice_31_split
I1018 00:02:57.795969 29782 net.cpp:406] cont_32_lstm1_cont_slice_31_split <- cont_32
I1018 00:02:57.795974 29782 net.cpp:380] cont_32_lstm1_cont_slice_31_split -> cont_32_lstm1_cont_slice_31_split_0
I1018 00:02:57.795980 29782 net.cpp:380] cont_32_lstm1_cont_slice_31_split -> cont_32_lstm1_cont_slice_31_split_1
I1018 00:02:57.796010 29782 net.cpp:122] Setting up cont_32_lstm1_cont_slice_31_split
I1018 00:02:57.796015 29782 net.cpp:129] Top shape: 1 5 (5)
I1018 00:02:57.796020 29782 net.cpp:129] Top shape: 1 5 (5)
I1018 00:02:57.796025 29782 net.cpp:137] Memory required for data: 679680
I1018 00:02:57.796043 29782 layer_factory.hpp:77] Creating layer cont_33_lstm1_cont_slice_32_split
I1018 00:02:57.796049 29782 net.cpp:84] Creating Layer cont_33_lstm1_cont_slice_32_split
I1018 00:02:57.796054 29782 net.cpp:406] cont_33_lstm1_cont_slice_32_split <- cont_33
I1018 00:02:57.796061 29782 net.cpp:380] cont_33_lstm1_cont_slice_32_split -> cont_33_lstm1_cont_slice_32_split_0
I1018 00:02:57.796067 29782 net.cpp:380] cont_33_lstm1_cont_slice_32_split -> cont_33_lstm1_cont_slice_32_split_1
I1018 00:02:57.796099 29782 net.cpp:122] Setting up cont_33_lstm1_cont_slice_32_split
I1018 00:02:57.796106 29782 net.cpp:129] Top shape: 1 5 (5)
I1018 00:02:57.796111 29782 net.cpp:129] Top shape: 1 5 (5)
I1018 00:02:57.796115 29782 net.cpp:137] Memory required for data: 679720
I1018 00:02:57.796119 29782 layer_factory.hpp:77] Creating layer cont_34_lstm1_cont_slice_33_split
I1018 00:02:57.796125 29782 net.cpp:84] Creating Layer cont_34_lstm1_cont_slice_33_split
I1018 00:02:57.796129 29782 net.cpp:406] cont_34_lstm1_cont_slice_33_split <- cont_34
I1018 00:02:57.796136 29782 net.cpp:380] cont_34_lstm1_cont_slice_33_split -> cont_34_lstm1_cont_slice_33_split_0
I1018 00:02:57.796144 29782 net.cpp:380] cont_34_lstm1_cont_slice_33_split -> cont_34_lstm1_cont_slice_33_split_1
I1018 00:02:57.796170 29782 net.cpp:122] Setting up cont_34_lstm1_cont_slice_33_split
I1018 00:02:57.796176 29782 net.cpp:129] Top shape: 1 5 (5)
I1018 00:02:57.796181 29782 net.cpp:129] Top shape: 1 5 (5)
I1018 00:02:57.796185 29782 net.cpp:137] Memory required for data: 679760
I1018 00:02:57.796190 29782 layer_factory.hpp:77] Creating layer cont_35_lstm1_cont_slice_34_split
I1018 00:02:57.796196 29782 net.cpp:84] Creating Layer cont_35_lstm1_cont_slice_34_split
I1018 00:02:57.796200 29782 net.cpp:406] cont_35_lstm1_cont_slice_34_split <- cont_35
I1018 00:02:57.796206 29782 net.cpp:380] cont_35_lstm1_cont_slice_34_split -> cont_35_lstm1_cont_slice_34_split_0
I1018 00:02:57.796212 29782 net.cpp:380] cont_35_lstm1_cont_slice_34_split -> cont_35_lstm1_cont_slice_34_split_1
I1018 00:02:57.796242 29782 net.cpp:122] Setting up cont_35_lstm1_cont_slice_34_split
I1018 00:02:57.796248 29782 net.cpp:129] Top shape: 1 5 (5)
I1018 00:02:57.796253 29782 net.cpp:129] Top shape: 1 5 (5)
I1018 00:02:57.796257 29782 net.cpp:137] Memory required for data: 679800
I1018 00:02:57.796262 29782 layer_factory.hpp:77] Creating layer cont_36_lstm1_cont_slice_35_split
I1018 00:02:57.796267 29782 net.cpp:84] Creating Layer cont_36_lstm1_cont_slice_35_split
I1018 00:02:57.796272 29782 net.cpp:406] cont_36_lstm1_cont_slice_35_split <- cont_36
I1018 00:02:57.796277 29782 net.cpp:380] cont_36_lstm1_cont_slice_35_split -> cont_36_lstm1_cont_slice_35_split_0
I1018 00:02:57.796283 29782 net.cpp:380] cont_36_lstm1_cont_slice_35_split -> cont_36_lstm1_cont_slice_35_split_1
I1018 00:02:57.796311 29782 net.cpp:122] Setting up cont_36_lstm1_cont_slice_35_split
I1018 00:02:57.796317 29782 net.cpp:129] Top shape: 1 5 (5)
I1018 00:02:57.796322 29782 net.cpp:129] Top shape: 1 5 (5)
I1018 00:02:57.796326 29782 net.cpp:137] Memory required for data: 679840
I1018 00:02:57.796330 29782 layer_factory.hpp:77] Creating layer cont_37_lstm1_cont_slice_36_split
I1018 00:02:57.796335 29782 net.cpp:84] Creating Layer cont_37_lstm1_cont_slice_36_split
I1018 00:02:57.796340 29782 net.cpp:406] cont_37_lstm1_cont_slice_36_split <- cont_37
I1018 00:02:57.796345 29782 net.cpp:380] cont_37_lstm1_cont_slice_36_split -> cont_37_lstm1_cont_slice_36_split_0
I1018 00:02:57.796353 29782 net.cpp:380] cont_37_lstm1_cont_slice_36_split -> cont_37_lstm1_cont_slice_36_split_1
I1018 00:02:57.796381 29782 net.cpp:122] Setting up cont_37_lstm1_cont_slice_36_split
I1018 00:02:57.796387 29782 net.cpp:129] Top shape: 1 5 (5)
I1018 00:02:57.796397 29782 net.cpp:129] Top shape: 1 5 (5)
I1018 00:02:57.796401 29782 net.cpp:137] Memory required for data: 679880
I1018 00:02:57.796406 29782 layer_factory.hpp:77] Creating layer cont_38_lstm1_cont_slice_37_split
I1018 00:02:57.796412 29782 net.cpp:84] Creating Layer cont_38_lstm1_cont_slice_37_split
I1018 00:02:57.796416 29782 net.cpp:406] cont_38_lstm1_cont_slice_37_split <- cont_38
I1018 00:02:57.796422 29782 net.cpp:380] cont_38_lstm1_cont_slice_37_split -> cont_38_lstm1_cont_slice_37_split_0
I1018 00:02:57.796429 29782 net.cpp:380] cont_38_lstm1_cont_slice_37_split -> cont_38_lstm1_cont_slice_37_split_1
I1018 00:02:57.796460 29782 net.cpp:122] Setting up cont_38_lstm1_cont_slice_37_split
I1018 00:02:57.796466 29782 net.cpp:129] Top shape: 1 5 (5)
I1018 00:02:57.796471 29782 net.cpp:129] Top shape: 1 5 (5)
I1018 00:02:57.796475 29782 net.cpp:137] Memory required for data: 679920
I1018 00:02:57.796479 29782 layer_factory.hpp:77] Creating layer cont_39_lstm1_cont_slice_38_split
I1018 00:02:57.796485 29782 net.cpp:84] Creating Layer cont_39_lstm1_cont_slice_38_split
I1018 00:02:57.796489 29782 net.cpp:406] cont_39_lstm1_cont_slice_38_split <- cont_39
I1018 00:02:57.796495 29782 net.cpp:380] cont_39_lstm1_cont_slice_38_split -> cont_39_lstm1_cont_slice_38_split_0
I1018 00:02:57.796501 29782 net.cpp:380] cont_39_lstm1_cont_slice_38_split -> cont_39_lstm1_cont_slice_38_split_1
I1018 00:02:57.796531 29782 net.cpp:122] Setting up cont_39_lstm1_cont_slice_38_split
I1018 00:02:57.796537 29782 net.cpp:129] Top shape: 1 5 (5)
I1018 00:02:57.796541 29782 net.cpp:129] Top shape: 1 5 (5)
I1018 00:02:57.796545 29782 net.cpp:137] Memory required for data: 679960
I1018 00:02:57.796550 29782 layer_factory.hpp:77] Creating layer cont_40_lstm1_cont_slice_39_split
I1018 00:02:57.796555 29782 net.cpp:84] Creating Layer cont_40_lstm1_cont_slice_39_split
I1018 00:02:57.796560 29782 net.cpp:406] cont_40_lstm1_cont_slice_39_split <- cont_40
I1018 00:02:57.796566 29782 net.cpp:380] cont_40_lstm1_cont_slice_39_split -> cont_40_lstm1_cont_slice_39_split_0
I1018 00:02:57.796572 29782 net.cpp:380] cont_40_lstm1_cont_slice_39_split -> cont_40_lstm1_cont_slice_39_split_1
I1018 00:02:57.796602 29782 net.cpp:122] Setting up cont_40_lstm1_cont_slice_39_split
I1018 00:02:57.796608 29782 net.cpp:129] Top shape: 1 5 (5)
I1018 00:02:57.796612 29782 net.cpp:129] Top shape: 1 5 (5)
I1018 00:02:57.796617 29782 net.cpp:137] Memory required for data: 680000
I1018 00:02:57.796620 29782 layer_factory.hpp:77] Creating layer cont_41_lstm1_cont_slice_40_split
I1018 00:02:57.796625 29782 net.cpp:84] Creating Layer cont_41_lstm1_cont_slice_40_split
I1018 00:02:57.796630 29782 net.cpp:406] cont_41_lstm1_cont_slice_40_split <- cont_41
I1018 00:02:57.796638 29782 net.cpp:380] cont_41_lstm1_cont_slice_40_split -> cont_41_lstm1_cont_slice_40_split_0
I1018 00:02:57.796644 29782 net.cpp:380] cont_41_lstm1_cont_slice_40_split -> cont_41_lstm1_cont_slice_40_split_1
I1018 00:02:57.796672 29782 net.cpp:122] Setting up cont_41_lstm1_cont_slice_40_split
I1018 00:02:57.796679 29782 net.cpp:129] Top shape: 1 5 (5)
I1018 00:02:57.796682 29782 net.cpp:129] Top shape: 1 5 (5)
I1018 00:02:57.796686 29782 net.cpp:137] Memory required for data: 680040
I1018 00:02:57.796690 29782 layer_factory.hpp:77] Creating layer cont_42_lstm1_cont_slice_41_split
I1018 00:02:57.796697 29782 net.cpp:84] Creating Layer cont_42_lstm1_cont_slice_41_split
I1018 00:02:57.796702 29782 net.cpp:406] cont_42_lstm1_cont_slice_41_split <- cont_42
I1018 00:02:57.796707 29782 net.cpp:380] cont_42_lstm1_cont_slice_41_split -> cont_42_lstm1_cont_slice_41_split_0
I1018 00:02:57.796715 29782 net.cpp:380] cont_42_lstm1_cont_slice_41_split -> cont_42_lstm1_cont_slice_41_split_1
I1018 00:02:57.796743 29782 net.cpp:122] Setting up cont_42_lstm1_cont_slice_41_split
I1018 00:02:57.796749 29782 net.cpp:129] Top shape: 1 5 (5)
I1018 00:02:57.796754 29782 net.cpp:129] Top shape: 1 5 (5)
I1018 00:02:57.796758 29782 net.cpp:137] Memory required for data: 680080
I1018 00:02:57.796762 29782 layer_factory.hpp:77] Creating layer cont_43_lstm1_cont_slice_42_split
I1018 00:02:57.796767 29782 net.cpp:84] Creating Layer cont_43_lstm1_cont_slice_42_split
I1018 00:02:57.796772 29782 net.cpp:406] cont_43_lstm1_cont_slice_42_split <- cont_43
I1018 00:02:57.796778 29782 net.cpp:380] cont_43_lstm1_cont_slice_42_split -> cont_43_lstm1_cont_slice_42_split_0
I1018 00:02:57.796784 29782 net.cpp:380] cont_43_lstm1_cont_slice_42_split -> cont_43_lstm1_cont_slice_42_split_1
I1018 00:02:57.796813 29782 net.cpp:122] Setting up cont_43_lstm1_cont_slice_42_split
I1018 00:02:57.796819 29782 net.cpp:129] Top shape: 1 5 (5)
I1018 00:02:57.796824 29782 net.cpp:129] Top shape: 1 5 (5)
I1018 00:02:57.796828 29782 net.cpp:137] Memory required for data: 680120
I1018 00:02:57.796833 29782 layer_factory.hpp:77] Creating layer cont_44_lstm1_cont_slice_43_split
I1018 00:02:57.796838 29782 net.cpp:84] Creating Layer cont_44_lstm1_cont_slice_43_split
I1018 00:02:57.796841 29782 net.cpp:406] cont_44_lstm1_cont_slice_43_split <- cont_44
I1018 00:02:57.796847 29782 net.cpp:380] cont_44_lstm1_cont_slice_43_split -> cont_44_lstm1_cont_slice_43_split_0
I1018 00:02:57.796855 29782 net.cpp:380] cont_44_lstm1_cont_slice_43_split -> cont_44_lstm1_cont_slice_43_split_1
I1018 00:02:57.796882 29782 net.cpp:122] Setting up cont_44_lstm1_cont_slice_43_split
I1018 00:02:57.796887 29782 net.cpp:129] Top shape: 1 5 (5)
I1018 00:02:57.796892 29782 net.cpp:129] Top shape: 1 5 (5)
I1018 00:02:57.796896 29782 net.cpp:137] Memory required for data: 680160
I1018 00:02:57.796900 29782 layer_factory.hpp:77] Creating layer cont_45_lstm1_cont_slice_44_split
I1018 00:02:57.796907 29782 net.cpp:84] Creating Layer cont_45_lstm1_cont_slice_44_split
I1018 00:02:57.796911 29782 net.cpp:406] cont_45_lstm1_cont_slice_44_split <- cont_45
I1018 00:02:57.796917 29782 net.cpp:380] cont_45_lstm1_cont_slice_44_split -> cont_45_lstm1_cont_slice_44_split_0
I1018 00:02:57.796923 29782 net.cpp:380] cont_45_lstm1_cont_slice_44_split -> cont_45_lstm1_cont_slice_44_split_1
I1018 00:02:57.796952 29782 net.cpp:122] Setting up cont_45_lstm1_cont_slice_44_split
I1018 00:02:57.796958 29782 net.cpp:129] Top shape: 1 5 (5)
I1018 00:02:57.796962 29782 net.cpp:129] Top shape: 1 5 (5)
I1018 00:02:57.796967 29782 net.cpp:137] Memory required for data: 680200
I1018 00:02:57.796970 29782 layer_factory.hpp:77] Creating layer cont_46_lstm1_cont_slice_45_split
I1018 00:02:57.796975 29782 net.cpp:84] Creating Layer cont_46_lstm1_cont_slice_45_split
I1018 00:02:57.796979 29782 net.cpp:406] cont_46_lstm1_cont_slice_45_split <- cont_46
I1018 00:02:57.796985 29782 net.cpp:380] cont_46_lstm1_cont_slice_45_split -> cont_46_lstm1_cont_slice_45_split_0
I1018 00:02:57.796991 29782 net.cpp:380] cont_46_lstm1_cont_slice_45_split -> cont_46_lstm1_cont_slice_45_split_1
I1018 00:02:57.797021 29782 net.cpp:122] Setting up cont_46_lstm1_cont_slice_45_split
I1018 00:02:57.797027 29782 net.cpp:129] Top shape: 1 5 (5)
I1018 00:02:57.797031 29782 net.cpp:129] Top shape: 1 5 (5)
I1018 00:02:57.797035 29782 net.cpp:137] Memory required for data: 680240
I1018 00:02:57.797039 29782 layer_factory.hpp:77] Creating layer cont_47_lstm1_cont_slice_46_split
I1018 00:02:57.797044 29782 net.cpp:84] Creating Layer cont_47_lstm1_cont_slice_46_split
I1018 00:02:57.797049 29782 net.cpp:406] cont_47_lstm1_cont_slice_46_split <- cont_47
I1018 00:02:57.797055 29782 net.cpp:380] cont_47_lstm1_cont_slice_46_split -> cont_47_lstm1_cont_slice_46_split_0
I1018 00:02:57.797060 29782 net.cpp:380] cont_47_lstm1_cont_slice_46_split -> cont_47_lstm1_cont_slice_46_split_1
I1018 00:02:57.797089 29782 net.cpp:122] Setting up cont_47_lstm1_cont_slice_46_split
I1018 00:02:57.797096 29782 net.cpp:129] Top shape: 1 5 (5)
I1018 00:02:57.797099 29782 net.cpp:129] Top shape: 1 5 (5)
I1018 00:02:57.797103 29782 net.cpp:137] Memory required for data: 680280
I1018 00:02:57.797107 29782 layer_factory.hpp:77] Creating layer cont_48_lstm1_cont_slice_47_split
I1018 00:02:57.797112 29782 net.cpp:84] Creating Layer cont_48_lstm1_cont_slice_47_split
I1018 00:02:57.797116 29782 net.cpp:406] cont_48_lstm1_cont_slice_47_split <- cont_48
I1018 00:02:57.797124 29782 net.cpp:380] cont_48_lstm1_cont_slice_47_split -> cont_48_lstm1_cont_slice_47_split_0
I1018 00:02:57.797130 29782 net.cpp:380] cont_48_lstm1_cont_slice_47_split -> cont_48_lstm1_cont_slice_47_split_1
I1018 00:02:57.797158 29782 net.cpp:122] Setting up cont_48_lstm1_cont_slice_47_split
I1018 00:02:57.797163 29782 net.cpp:129] Top shape: 1 5 (5)
I1018 00:02:57.797168 29782 net.cpp:129] Top shape: 1 5 (5)
I1018 00:02:57.797171 29782 net.cpp:137] Memory required for data: 680320
I1018 00:02:57.797175 29782 layer_factory.hpp:77] Creating layer cont_49_lstm1_cont_slice_48_split
I1018 00:02:57.797183 29782 net.cpp:84] Creating Layer cont_49_lstm1_cont_slice_48_split
I1018 00:02:57.797186 29782 net.cpp:406] cont_49_lstm1_cont_slice_48_split <- cont_49
I1018 00:02:57.797193 29782 net.cpp:380] cont_49_lstm1_cont_slice_48_split -> cont_49_lstm1_cont_slice_48_split_0
I1018 00:02:57.797199 29782 net.cpp:380] cont_49_lstm1_cont_slice_48_split -> cont_49_lstm1_cont_slice_48_split_1
I1018 00:02:57.797228 29782 net.cpp:122] Setting up cont_49_lstm1_cont_slice_48_split
I1018 00:02:57.797235 29782 net.cpp:129] Top shape: 1 5 (5)
I1018 00:02:57.797238 29782 net.cpp:129] Top shape: 1 5 (5)
I1018 00:02:57.797242 29782 net.cpp:137] Memory required for data: 680360
I1018 00:02:57.797246 29782 layer_factory.hpp:77] Creating layer cont_50_lstm1_cont_slice_49_split
I1018 00:02:57.797252 29782 net.cpp:84] Creating Layer cont_50_lstm1_cont_slice_49_split
I1018 00:02:57.797256 29782 net.cpp:406] cont_50_lstm1_cont_slice_49_split <- cont_50
I1018 00:02:57.797262 29782 net.cpp:380] cont_50_lstm1_cont_slice_49_split -> cont_50_lstm1_cont_slice_49_split_0
I1018 00:02:57.797269 29782 net.cpp:380] cont_50_lstm1_cont_slice_49_split -> cont_50_lstm1_cont_slice_49_split_1
I1018 00:02:57.797297 29782 net.cpp:122] Setting up cont_50_lstm1_cont_slice_49_split
I1018 00:02:57.797303 29782 net.cpp:129] Top shape: 1 5 (5)
I1018 00:02:57.797308 29782 net.cpp:129] Top shape: 1 5 (5)
I1018 00:02:57.797312 29782 net.cpp:137] Memory required for data: 680400
I1018 00:02:57.797317 29782 layer_factory.hpp:77] Creating layer cont_51_lstm1_cont_slice_50_split
I1018 00:02:57.797322 29782 net.cpp:84] Creating Layer cont_51_lstm1_cont_slice_50_split
I1018 00:02:57.797325 29782 net.cpp:406] cont_51_lstm1_cont_slice_50_split <- cont_51
I1018 00:02:57.797332 29782 net.cpp:380] cont_51_lstm1_cont_slice_50_split -> cont_51_lstm1_cont_slice_50_split_0
I1018 00:02:57.797338 29782 net.cpp:380] cont_51_lstm1_cont_slice_50_split -> cont_51_lstm1_cont_slice_50_split_1
I1018 00:02:57.797366 29782 net.cpp:122] Setting up cont_51_lstm1_cont_slice_50_split
I1018 00:02:57.797372 29782 net.cpp:129] Top shape: 1 5 (5)
I1018 00:02:57.797377 29782 net.cpp:129] Top shape: 1 5 (5)
I1018 00:02:57.797381 29782 net.cpp:137] Memory required for data: 680440
I1018 00:02:57.797385 29782 layer_factory.hpp:77] Creating layer cont_52_lstm1_cont_slice_51_split
I1018 00:02:57.797390 29782 net.cpp:84] Creating Layer cont_52_lstm1_cont_slice_51_split
I1018 00:02:57.797394 29782 net.cpp:406] cont_52_lstm1_cont_slice_51_split <- cont_52
I1018 00:02:57.797404 29782 net.cpp:380] cont_52_lstm1_cont_slice_51_split -> cont_52_lstm1_cont_slice_51_split_0
I1018 00:02:57.797410 29782 net.cpp:380] cont_52_lstm1_cont_slice_51_split -> cont_52_lstm1_cont_slice_51_split_1
I1018 00:02:57.797442 29782 net.cpp:122] Setting up cont_52_lstm1_cont_slice_51_split
I1018 00:02:57.797448 29782 net.cpp:129] Top shape: 1 5 (5)
I1018 00:02:57.797453 29782 net.cpp:129] Top shape: 1 5 (5)
I1018 00:02:57.797456 29782 net.cpp:137] Memory required for data: 680480
I1018 00:02:57.797461 29782 layer_factory.hpp:77] Creating layer cont_53_lstm1_cont_slice_52_split
I1018 00:02:57.797466 29782 net.cpp:84] Creating Layer cont_53_lstm1_cont_slice_52_split
I1018 00:02:57.797471 29782 net.cpp:406] cont_53_lstm1_cont_slice_52_split <- cont_53
I1018 00:02:57.797477 29782 net.cpp:380] cont_53_lstm1_cont_slice_52_split -> cont_53_lstm1_cont_slice_52_split_0
I1018 00:02:57.797487 29782 net.cpp:380] cont_53_lstm1_cont_slice_52_split -> cont_53_lstm1_cont_slice_52_split_1
I1018 00:02:57.797516 29782 net.cpp:122] Setting up cont_53_lstm1_cont_slice_52_split
I1018 00:02:57.797523 29782 net.cpp:129] Top shape: 1 5 (5)
I1018 00:02:57.797528 29782 net.cpp:129] Top shape: 1 5 (5)
I1018 00:02:57.797531 29782 net.cpp:137] Memory required for data: 680520
I1018 00:02:57.797535 29782 layer_factory.hpp:77] Creating layer cont_54_lstm1_cont_slice_53_split
I1018 00:02:57.797540 29782 net.cpp:84] Creating Layer cont_54_lstm1_cont_slice_53_split
I1018 00:02:57.797544 29782 net.cpp:406] cont_54_lstm1_cont_slice_53_split <- cont_54
I1018 00:02:57.797550 29782 net.cpp:380] cont_54_lstm1_cont_slice_53_split -> cont_54_lstm1_cont_slice_53_split_0
I1018 00:02:57.797556 29782 net.cpp:380] cont_54_lstm1_cont_slice_53_split -> cont_54_lstm1_cont_slice_53_split_1
I1018 00:02:57.797585 29782 net.cpp:122] Setting up cont_54_lstm1_cont_slice_53_split
I1018 00:02:57.797591 29782 net.cpp:129] Top shape: 1 5 (5)
I1018 00:02:57.797596 29782 net.cpp:129] Top shape: 1 5 (5)
I1018 00:02:57.797600 29782 net.cpp:137] Memory required for data: 680560
I1018 00:02:57.797605 29782 layer_factory.hpp:77] Creating layer cont_55_lstm1_cont_slice_54_split
I1018 00:02:57.797610 29782 net.cpp:84] Creating Layer cont_55_lstm1_cont_slice_54_split
I1018 00:02:57.797613 29782 net.cpp:406] cont_55_lstm1_cont_slice_54_split <- cont_55
I1018 00:02:57.797621 29782 net.cpp:380] cont_55_lstm1_cont_slice_54_split -> cont_55_lstm1_cont_slice_54_split_0
I1018 00:02:57.797627 29782 net.cpp:380] cont_55_lstm1_cont_slice_54_split -> cont_55_lstm1_cont_slice_54_split_1
I1018 00:02:57.797654 29782 net.cpp:122] Setting up cont_55_lstm1_cont_slice_54_split
I1018 00:02:57.797660 29782 net.cpp:129] Top shape: 1 5 (5)
I1018 00:02:57.797665 29782 net.cpp:129] Top shape: 1 5 (5)
I1018 00:02:57.797668 29782 net.cpp:137] Memory required for data: 680600
I1018 00:02:57.797672 29782 layer_factory.hpp:77] Creating layer cont_56_lstm1_cont_slice_55_split
I1018 00:02:57.797679 29782 net.cpp:84] Creating Layer cont_56_lstm1_cont_slice_55_split
I1018 00:02:57.797684 29782 net.cpp:406] cont_56_lstm1_cont_slice_55_split <- cont_56
I1018 00:02:57.797689 29782 net.cpp:380] cont_56_lstm1_cont_slice_55_split -> cont_56_lstm1_cont_slice_55_split_0
I1018 00:02:57.797695 29782 net.cpp:380] cont_56_lstm1_cont_slice_55_split -> cont_56_lstm1_cont_slice_55_split_1
I1018 00:02:57.797724 29782 net.cpp:122] Setting up cont_56_lstm1_cont_slice_55_split
I1018 00:02:57.797730 29782 net.cpp:129] Top shape: 1 5 (5)
I1018 00:02:57.797734 29782 net.cpp:129] Top shape: 1 5 (5)
I1018 00:02:57.797739 29782 net.cpp:137] Memory required for data: 680640
I1018 00:02:57.797744 29782 layer_factory.hpp:77] Creating layer cont_57_lstm1_cont_slice_56_split
I1018 00:02:57.797749 29782 net.cpp:84] Creating Layer cont_57_lstm1_cont_slice_56_split
I1018 00:02:57.797752 29782 net.cpp:406] cont_57_lstm1_cont_slice_56_split <- cont_57
I1018 00:02:57.797758 29782 net.cpp:380] cont_57_lstm1_cont_slice_56_split -> cont_57_lstm1_cont_slice_56_split_0
I1018 00:02:57.797765 29782 net.cpp:380] cont_57_lstm1_cont_slice_56_split -> cont_57_lstm1_cont_slice_56_split_1
I1018 00:02:57.797794 29782 net.cpp:122] Setting up cont_57_lstm1_cont_slice_56_split
I1018 00:02:57.797801 29782 net.cpp:129] Top shape: 1 5 (5)
I1018 00:02:57.797806 29782 net.cpp:129] Top shape: 1 5 (5)
I1018 00:02:57.797809 29782 net.cpp:137] Memory required for data: 680680
I1018 00:02:57.797813 29782 layer_factory.hpp:77] Creating layer cont_58_lstm1_cont_slice_57_split
I1018 00:02:57.797821 29782 net.cpp:84] Creating Layer cont_58_lstm1_cont_slice_57_split
I1018 00:02:57.797824 29782 net.cpp:406] cont_58_lstm1_cont_slice_57_split <- cont_58
I1018 00:02:57.797829 29782 net.cpp:380] cont_58_lstm1_cont_slice_57_split -> cont_58_lstm1_cont_slice_57_split_0
I1018 00:02:57.797837 29782 net.cpp:380] cont_58_lstm1_cont_slice_57_split -> cont_58_lstm1_cont_slice_57_split_1
I1018 00:02:57.797864 29782 net.cpp:122] Setting up cont_58_lstm1_cont_slice_57_split
I1018 00:02:57.797870 29782 net.cpp:129] Top shape: 1 5 (5)
I1018 00:02:57.797875 29782 net.cpp:129] Top shape: 1 5 (5)
I1018 00:02:57.797879 29782 net.cpp:137] Memory required for data: 680720
I1018 00:02:57.797883 29782 layer_factory.hpp:77] Creating layer cont_59_lstm1_cont_slice_58_split
I1018 00:02:57.797888 29782 net.cpp:84] Creating Layer cont_59_lstm1_cont_slice_58_split
I1018 00:02:57.797894 29782 net.cpp:406] cont_59_lstm1_cont_slice_58_split <- cont_59
I1018 00:02:57.797900 29782 net.cpp:380] cont_59_lstm1_cont_slice_58_split -> cont_59_lstm1_cont_slice_58_split_0
I1018 00:02:57.797907 29782 net.cpp:380] cont_59_lstm1_cont_slice_58_split -> cont_59_lstm1_cont_slice_58_split_1
I1018 00:02:57.797935 29782 net.cpp:122] Setting up cont_59_lstm1_cont_slice_58_split
I1018 00:02:57.797940 29782 net.cpp:129] Top shape: 1 5 (5)
I1018 00:02:57.797945 29782 net.cpp:129] Top shape: 1 5 (5)
I1018 00:02:57.797948 29782 net.cpp:137] Memory required for data: 680760
I1018 00:02:57.797952 29782 layer_factory.hpp:77] Creating layer cont_60_lstm1_cont_slice_59_split
I1018 00:02:57.797960 29782 net.cpp:84] Creating Layer cont_60_lstm1_cont_slice_59_split
I1018 00:02:57.797965 29782 net.cpp:406] cont_60_lstm1_cont_slice_59_split <- cont_60
I1018 00:02:57.797971 29782 net.cpp:380] cont_60_lstm1_cont_slice_59_split -> cont_60_lstm1_cont_slice_59_split_0
I1018 00:02:57.797977 29782 net.cpp:380] cont_60_lstm1_cont_slice_59_split -> cont_60_lstm1_cont_slice_59_split_1
I1018 00:02:57.798007 29782 net.cpp:122] Setting up cont_60_lstm1_cont_slice_59_split
I1018 00:02:57.798012 29782 net.cpp:129] Top shape: 1 5 (5)
I1018 00:02:57.798017 29782 net.cpp:129] Top shape: 1 5 (5)
I1018 00:02:57.798020 29782 net.cpp:137] Memory required for data: 680800
I1018 00:02:57.798024 29782 layer_factory.hpp:77] Creating layer cont_61_lstm1_cont_slice_60_split
I1018 00:02:57.798029 29782 net.cpp:84] Creating Layer cont_61_lstm1_cont_slice_60_split
I1018 00:02:57.798034 29782 net.cpp:406] cont_61_lstm1_cont_slice_60_split <- cont_61
I1018 00:02:57.798039 29782 net.cpp:380] cont_61_lstm1_cont_slice_60_split -> cont_61_lstm1_cont_slice_60_split_0
I1018 00:02:57.798046 29782 net.cpp:380] cont_61_lstm1_cont_slice_60_split -> cont_61_lstm1_cont_slice_60_split_1
I1018 00:02:57.798075 29782 net.cpp:122] Setting up cont_61_lstm1_cont_slice_60_split
I1018 00:02:57.798080 29782 net.cpp:129] Top shape: 1 5 (5)
I1018 00:02:57.798085 29782 net.cpp:129] Top shape: 1 5 (5)
I1018 00:02:57.798089 29782 net.cpp:137] Memory required for data: 680840
I1018 00:02:57.798094 29782 layer_factory.hpp:77] Creating layer cont_62_lstm1_cont_slice_61_split
I1018 00:02:57.798105 29782 net.cpp:84] Creating Layer cont_62_lstm1_cont_slice_61_split
I1018 00:02:57.798108 29782 net.cpp:406] cont_62_lstm1_cont_slice_61_split <- cont_62
I1018 00:02:57.798115 29782 net.cpp:380] cont_62_lstm1_cont_slice_61_split -> cont_62_lstm1_cont_slice_61_split_0
I1018 00:02:57.798122 29782 net.cpp:380] cont_62_lstm1_cont_slice_61_split -> cont_62_lstm1_cont_slice_61_split_1
I1018 00:02:57.798151 29782 net.cpp:122] Setting up cont_62_lstm1_cont_slice_61_split
I1018 00:02:57.798157 29782 net.cpp:129] Top shape: 1 5 (5)
I1018 00:02:57.798162 29782 net.cpp:129] Top shape: 1 5 (5)
I1018 00:02:57.798166 29782 net.cpp:137] Memory required for data: 680880
I1018 00:02:57.798171 29782 layer_factory.hpp:77] Creating layer cont_63_lstm1_cont_slice_62_split
I1018 00:02:57.798177 29782 net.cpp:84] Creating Layer cont_63_lstm1_cont_slice_62_split
I1018 00:02:57.798180 29782 net.cpp:406] cont_63_lstm1_cont_slice_62_split <- cont_63
I1018 00:02:57.798187 29782 net.cpp:380] cont_63_lstm1_cont_slice_62_split -> cont_63_lstm1_cont_slice_62_split_0
I1018 00:02:57.798192 29782 net.cpp:380] cont_63_lstm1_cont_slice_62_split -> cont_63_lstm1_cont_slice_62_split_1
I1018 00:02:57.798220 29782 net.cpp:122] Setting up cont_63_lstm1_cont_slice_62_split
I1018 00:02:57.798226 29782 net.cpp:129] Top shape: 1 5 (5)
I1018 00:02:57.798231 29782 net.cpp:129] Top shape: 1 5 (5)
I1018 00:02:57.798235 29782 net.cpp:137] Memory required for data: 680920
I1018 00:02:57.798239 29782 layer_factory.hpp:77] Creating layer cont_64_lstm1_cont_slice_63_split
I1018 00:02:57.798244 29782 net.cpp:84] Creating Layer cont_64_lstm1_cont_slice_63_split
I1018 00:02:57.798249 29782 net.cpp:406] cont_64_lstm1_cont_slice_63_split <- cont_64
I1018 00:02:57.798254 29782 net.cpp:380] cont_64_lstm1_cont_slice_63_split -> cont_64_lstm1_cont_slice_63_split_0
I1018 00:02:57.798264 29782 net.cpp:380] cont_64_lstm1_cont_slice_63_split -> cont_64_lstm1_cont_slice_63_split_1
I1018 00:02:57.798297 29782 net.cpp:122] Setting up cont_64_lstm1_cont_slice_63_split
I1018 00:02:57.798303 29782 net.cpp:129] Top shape: 1 5 (5)
I1018 00:02:57.798308 29782 net.cpp:129] Top shape: 1 5 (5)
I1018 00:02:57.798563 29782 net.cpp:137] Memory required for data: 680960
I1018 00:02:57.798568 29782 layer_factory.hpp:77] Creating layer lstm1_x_transform
I1018 00:02:57.798586 29782 net.cpp:84] Creating Layer lstm1_x_transform
I1018 00:02:57.798591 29782 net.cpp:406] lstm1_x_transform <- x
I1018 00:02:57.798604 29782 net.cpp:380] lstm1_x_transform -> W_xc_x
I1018 00:02:57.810585 29782 net.cpp:122] Setting up lstm1_x_transform
I1018 00:02:57.810603 29782 net.cpp:129] Top shape: 64 5 2048 (655360)
I1018 00:02:57.810607 29782 net.cpp:137] Memory required for data: 3302400
I1018 00:02:57.810619 29782 layer_factory.hpp:77] Creating layer lstm1_W_xc_x_slice
I1018 00:02:57.810639 29782 net.cpp:84] Creating Layer lstm1_W_xc_x_slice
I1018 00:02:57.810645 29782 net.cpp:406] lstm1_W_xc_x_slice <- W_xc_x
I1018 00:02:57.810657 29782 net.cpp:380] lstm1_W_xc_x_slice -> W_xc_x_1
I1018 00:02:57.810672 29782 net.cpp:380] lstm1_W_xc_x_slice -> W_xc_x_2
…
I1018 00:02:57.811307 29782 net.cpp:380] lstm1_W_xc_x_slice -> W_xc_x_58
I1018 00:02:57.811318 29782 net.cpp:380] lstm1_W_xc_x_slice -> W_xc_x_59
I1018 00:02:57.811331 29782 net.cpp:380] lstm1_W_xc_x_slice -> W_xc_x_60
I1018 00:02:57.811359 29782 net.cpp:380] lstm1_W_xc_x_slice -> W_xc_x_61
I1018 00:02:57.811372 29782 net.cpp:380] lstm1_W_xc_x_slice -> W_xc_x_62
I1018 00:02:57.811381 29782 net.cpp:380] lstm1_W_xc_x_slice -> W_xc_x_63
I1018 00:02:57.811393 29782 net.cpp:380] lstm1_W_xc_x_slice -> W_xc_x_64
I1018 00:02:57.812083 29782 net.cpp:122] Setting up lstm1_W_xc_x_slice
I1018 00:02:57.812093 29782 net.cpp:129] Top shape: 1 5 2048 (10240)
I1018 00:02:57.812098 29782 net.cpp:129] Top shape: 1 5 2048 (10240)
I1018 00:02:57.812103 29782 net.cpp:129] Top shape: 1 5 2048 (10240)
I1018 00:02:57.812106 29782 net.cpp:129] Top shape: 1 5 2048 (10240)
I1018 00:02:57.812111 29782 net.cpp:129] Top shape: 1 5 2048 (10240)
I1018 00:02:57.812116 29782 net.cpp:129] Top shape: 1 5 2048 (10240)
I1018 00:02:57.812120 29782 net.cpp:129] Top shape: 1 5 2048 (10240)
I1018 00:02:57.812130 29782 net.cpp:129] Top shape: 1 5 2048 (10240)
I1018 00:02:57.812134 29782 net.cpp:129] Top shape: 1 5 2048 (10240)
I1018 00:02:57.812139 29782 net.cpp:129] Top shape: 1 5 2048 (10240)
I1018 00:02:57.812144 29782 net.cpp:129] Top shape: 1 5 2048 (10240)
I1018 00:02:57.812149 29782 net.cpp:129] Top shape: 1 5 2048 (10240)
I1018 00:02:57.812152 29782 net.cpp:129] Top shape: 1 5 2048 (10240)
I1018 00:02:57.812157 29782 net.cpp:129] Top shape: 1 5 2048 (10240)
I1018 00:02:57.812162 29782 net.cpp:129] Top shape: 1 5 2048 (10240)
I1018 00:02:57.812166 29782 net.cpp:129] Top shape: 1 5 2048 (10240)
I1018 00:02:57.812171 29782 net.cpp:129] Top shape: 1 5 2048 (10240)
I1018 00:02:57.812175 29782 net.cpp:129] Top shape: 1 5 2048 (10240)
I1018 00:02:57.812180 29782 net.cpp:129] Top shape: 1 5 2048 (10240)
I1018 00:02:57.812185 29782 net.cpp:129] Top shape: 1 5 2048 (10240)
I1018 00:02:57.812189 29782 net.cpp:129] Top shape: 1 5 2048 (10240)
I1018 00:02:57.812193 29782 net.cpp:129] Top shape: 1 5 2048 (10240)
I1018 00:02:57.812198 29782 net.cpp:129] Top shape: 1 5 2048 (10240)
I1018 00:02:57.812202 29782 net.cpp:129] Top shape: 1 5 2048 (10240)
I1018 00:02:57.812207 29782 net.cpp:129] Top shape: 1 5 2048 (10240)
I1018 00:02:57.812211 29782 net.cpp:129] Top shape: 1 5 2048 (10240)
I1018 00:02:57.812216 29782 net.cpp:129] Top shape: 1 5 2048 (10240)
I1018 00:02:57.812221 29782 net.cpp:129] Top shape: 1 5 2048 (10240)
I1018 00:02:57.812225 29782 net.cpp:129] Top shape: 1 5 2048 (10240)
I1018 00:02:57.812229 29782 net.cpp:129] Top shape: 1 5 2048 (10240)
I1018 00:02:57.812234 29782 net.cpp:129] Top shape: 1 5 2048 (10240)
I1018 00:02:57.812239 29782 net.cpp:129] Top shape: 1 5 2048 (10240)
I1018 00:02:57.812243 29782 net.cpp:129] Top shape: 1 5 2048 (10240)
I1018 00:02:57.812248 29782 net.cpp:129] Top shape: 1 5 2048 (10240)
I1018 00:02:57.812252 29782 net.cpp:129] Top shape: 1 5 2048 (10240)
I1018 00:02:57.812258 29782 net.cpp:129] Top shape: 1 5 2048 (10240)
I1018 00:02:57.812261 29782 net.cpp:129] Top shape: 1 5 2048 (10240)
I1018 00:02:57.812266 29782 net.cpp:129] Top shape: 1 5 2048 (10240)
I1018 00:02:57.812271 29782 net.cpp:129] Top shape: 1 5 2048 (10240)
I1018 00:02:57.812275 29782 net.cpp:129] Top shape: 1 5 2048 (10240)
I1018 00:02:57.812280 29782 net.cpp:129] Top shape: 1 5 2048 (10240)
I1018 00:02:57.812285 29782 net.cpp:129] Top shape: 1 5 2048 (10240)
I1018 00:02:57.812289 29782 net.cpp:129] Top shape: 1 5 2048 (10240)
I1018 00:02:57.812294 29782 net.cpp:129] Top shape: 1 5 2048 (10240)
I1018 00:02:57.812299 29782 net.cpp:129] Top shape: 1 5 2048 (10240)
I1018 00:02:57.812304 29782 net.cpp:129] Top shape: 1 5 2048 (10240)
I1018 00:02:57.812307 29782 net.cpp:129] Top shape: 1 5 2048 (10240)
I1018 00:02:57.812312 29782 net.cpp:129] Top shape: 1 5 2048 (10240)
I1018 00:02:57.812316 29782 net.cpp:129] Top shape: 1 5 2048 (10240)
I1018 00:02:57.812321 29782 net.cpp:129] Top shape: 1 5 2048 (10240)
I1018 00:02:57.812325 29782 net.cpp:129] Top shape: 1 5 2048 (10240)
I1018 00:02:57.812330 29782 net.cpp:129] Top shape: 1 5 2048 (10240)
I1018 00:02:57.812335 29782 net.cpp:129] Top shape: 1 5 2048 (10240)
I1018 00:02:57.812340 29782 net.cpp:129] Top shape: 1 5 2048 (10240)
I1018 00:02:57.812345 29782 net.cpp:129] Top shape: 1 5 2048 (10240)
I1018 00:02:57.812348 29782 net.cpp:129] Top shape: 1 5 2048 (10240)
I1018 00:02:57.812353 29782 net.cpp:129] Top shape: 1 5 2048 (10240)
I1018 00:02:57.812357 29782 net.cpp:129] Top shape: 1 5 2048 (10240)
I1018 00:02:57.812362 29782 net.cpp:129] Top shape: 1 5 2048 (10240)
I1018 00:02:57.812369 29782 net.cpp:129] Top shape: 1 5 2048 (10240)
I1018 00:02:57.812374 29782 net.cpp:129] Top shape: 1 5 2048 (10240)
I1018 00:02:57.812379 29782 net.cpp:129] Top shape: 1 5 2048 (10240)
I1018 00:02:57.812383 29782 net.cpp:129] Top shape: 1 5 2048 (10240)
I1018 00:02:57.812388 29782 net.cpp:129] Top shape: 1 5 2048 (10240)
I1018 00:02:57.812392 29782 net.cpp:137] Memory required for data: 5923840
I1018 00:02:57.812397 29782 layer_factory.hpp:77] Creating layer lstm1_h_conted_0
I1018 00:02:57.812412 29782 net.cpp:84] Creating Layer lstm1_h_conted_0
I1018 00:02:57.812418 29782 net.cpp:406] lstm1_h_conted_0 <- h_0
I1018 00:02:57.812425 29782 net.cpp:406] lstm1_h_conted_0 <- cont_1_lstm1_cont_slice_0_split_0
I1018 00:02:57.812433 29782 net.cpp:380] lstm1_h_conted_0 -> h_conted_0
I1018 00:02:57.812505 29782 net.cpp:122] Setting up lstm1_h_conted_0
I1018 00:02:57.812511 29782 net.cpp:129] Top shape: 1 5 512 (2560)
I1018 00:02:57.812515 29782 net.cpp:137] Memory required for data: 5934080
I1018 00:02:57.812520 29782 layer_factory.hpp:77] Creating layer lstm1_transform_1
I1018 00:02:57.812528 29782 net.cpp:84] Creating Layer lstm1_transform_1
I1018 00:02:57.812533 29782 net.cpp:406] lstm1_transform_1 <- h_conted_0
I1018 00:02:57.812539 29782 net.cpp:380] lstm1_transform_1 -> W_hc_h_0
I1018 00:02:57.824077 29782 net.cpp:122] Setting up lstm1_transform_1
I1018 00:02:57.824091 29782 net.cpp:129] Top shape: 1 5 2048 (10240)
I1018 00:02:57.824095 29782 net.cpp:137] Memory required for data: 5975040
I1018 00:02:57.824105 29782 layer_factory.hpp:77] Creating layer lstm1_gate_input_1
I1018 00:02:57.824115 29782 net.cpp:84] Creating Layer lstm1_gate_input_1
I1018 00:02:57.824120 29782 net.cpp:406] lstm1_gate_input_1 <- W_hc_h_0
I1018 00:02:57.824126 29782 net.cpp:406] lstm1_gate_input_1 <- W_xc_x_1
I1018 00:02:57.824133 29782 net.cpp:380] lstm1_gate_input_1 -> gate_input_1
I1018 00:02:57.824168 29782 net.cpp:122] Setting up lstm1_gate_input_1
I1018 00:02:57.824174 29782 net.cpp:129] Top shape: 1 5 2048 (10240)
I1018 00:02:57.824178 29782 net.cpp:137] Memory required for data: 6016000
I1018 00:02:57.824182 29782 layer_factory.hpp:77] Creating layer lstm1_unit_1
I1018 00:02:57.824192 29782 net.cpp:84] Creating Layer lstm1_unit_1
I1018 00:02:57.824196 29782 net.cpp:406] lstm1_unit_1 <- c_0
I1018 00:02:57.824203 29782 net.cpp:406] lstm1_unit_1 <- gate_input_1
I1018 00:02:57.824208 29782 net.cpp:406] lstm1_unit_1 <- cont_1_lstm1_cont_slice_0_split_1
I1018 00:02:57.824216 29782 net.cpp:380] lstm1_unit_1 -> c_1
I1018 00:02:57.824224 29782 net.cpp:380] lstm1_unit_1 -> h_1
I1018 00:02:57.824271 29782 net.cpp:122] Setting up lstm1_unit_1
I1018 00:02:57.824278 29782 net.cpp:129] Top shape: 1 5 512 (2560)
I1018 00:02:57.824283 29782 net.cpp:129] Top shape: 1 5 512 (2560)
I1018 00:02:57.824287 29782 net.cpp:137] Memory required for data: 6036480
I1018 00:02:57.824291 29782 layer_factory.hpp:77] Creating layer h_1_lstm1_unit_1_1_split
I1018 00:02:57.824297 29782 net.cpp:84] Creating Layer h_1_lstm1_unit_1_1_split
I1018 00:02:57.824301 29782 net.cpp:406] h_1_lstm1_unit_1_1_split <- h_1
I1018 00:02:57.824309 29782 net.cpp:380] h_1_lstm1_unit_1_1_split -> h_1_lstm1_unit_1_1_split_0
I1018 00:02:57.824316 29782 net.cpp:380] h_1_lstm1_unit_1_1_split -> h_1_lstm1_unit_1_1_split_1
I1018 00:02:57.824348 29782 net.cpp:122] Setting up h_1_lstm1_unit_1_1_split
I1018 00:02:57.824354 29782 net.cpp:129] Top shape: 1 5 512 (2560)
I1018 00:02:57.824359 29782 net.cpp:129] Top shape: 1 5 512 (2560)
I1018 00:02:57.824362 29782 net.cpp:137] Memory required for data: 6056960
I1018 00:02:57.824367 29782 layer_factory.hpp:77] Creating layer lstm1_h_conted_1
I1018 00:02:57.824373 29782 net.cpp:84] Creating Layer lstm1_h_conted_1
I1018 00:02:57.824378 29782 net.cpp:406] lstm1_h_conted_1 <- h_1_lstm1_unit_1_1_split_0
I1018 00:02:57.824384 29782 net.cpp:406] lstm1_h_conted_1 <- cont_2_lstm1_cont_slice_1_split_0
I1018 00:02:57.824393 29782 net.cpp:380] lstm1_h_conted_1 -> h_conted_1
I1018 00:02:57.824448 29782 net.cpp:122] Setting up lstm1_h_conted_1
I1018 00:02:57.824455 29782 net.cpp:129] Top shape: 1 5 512 (2560)
I1018 00:02:57.824458 29782 net.cpp:137] Memory required for data: 6067200
I1018 00:02:57.824462 29782 layer_factory.hpp:77] Creating layer lstm1_transform_2
I1018 00:02:57.824470 29782 net.cpp:84] Creating Layer lstm1_transform_2
I1018 00:02:57.824475 29782 net.cpp:406] lstm1_transform_2 <- h_conted_1
I1018 00:02:57.824482 29782 net.cpp:380] lstm1_transform_2 -> W_hc_h_1
I1018 00:02:57.836313 29782 net.cpp:122] Setting up lstm1_transform_2
I1018 00:02:57.836326 29782 net.cpp:129] Top shape: 1 5 2048 (10240)
I1018 00:02:57.836331 29782 net.cpp:137] Memory required for data: 6108160
I1018 00:02:57.836336 29782 net.cpp:465] Sharing parameters 'W_hc' owned by layer 'lstm1_transform_1', param index 0
I1018 00:02:57.836344 29782 layer_factory.hpp:77] Creating layer lstm1_gate_input_2
I1018 00:02:57.836351 29782 net.cpp:84] Creating Layer lstm1_gate_input_2
I1018 00:02:57.836356 29782 net.cpp:406] lstm1_gate_input_2 <- W_hc_h_1
I1018 00:02:57.836364 29782 net.cpp:406] lstm1_gate_input_2 <- W_xc_x_2
I1018 00:02:57.836370 29782 net.cpp:380] lstm1_gate_input_2 -> gate_input_2
I1018 00:02:57.836396 29782 net.cpp:122] Setting up lstm1_gate_input_2
I1018 00:02:57.836402 29782 net.cpp:129] Top shape: 1 5 2048 (10240)
I1018 00:02:57.836406 29782 net.cpp:137] Memory required for data: 6149120
I1018 00:02:57.836410 29782 layer_factory.hpp:77] Creating layer lstm1_unit_2
I1018 00:02:57.836419 29782 net.cpp:84] Creating Layer lstm1_unit_2
I1018 00:02:57.836424 29782 net.cpp:406] lstm1_unit_2 <- c_1
I1018 00:02:57.836431 29782 net.cpp:406] lstm1_unit_2 <- gate_input_2
I1018 00:02:57.836436 29782 net.cpp:406] lstm1_unit_2 <- cont_2_lstm1_cont_slice_1_split_1
I1018 00:02:57.836441 29782 net.cpp:380] lstm1_unit_2 -> c_2
I1018 00:02:57.836448 29782 net.cpp:380] lstm1_unit_2 -> h_2
I1018 00:02:57.836501 29782 net.cpp:122] Setting up lstm1_unit_2
I1018 00:02:57.836508 29782 net.cpp:129] Top shape: 1 5 512 (2560)
I1018 00:02:57.836513 29782 net.cpp:129] Top shape: 1 5 512 (2560)
I1018 00:02:57.836516 29782 net.cpp:137] Memory required for data: 6169600
I1018 00:02:57.836520 29782 layer_factory.hpp:77] Creating layer h_2_lstm1_unit_2_1_split
I1018 00:02:57.836525 29782 net.cpp:84] Creating Layer h_2_lstm1_unit_2_1_split
I1018 00:02:57.836529 29782 net.cpp:406] h_2_lstm1_unit_2_1_split <- h_2
I1018 00:02:57.836537 29782 net.cpp:380] h_2_lstm1_unit_2_1_split -> h_2_lstm1_unit_2_1_split_0
I1018 00:02:57.836544 29782 net.cpp:380] h_2_lstm1_unit_2_1_split -> h_2_lstm1_unit_2_1_split_1
I1018 00:02:57.836573 29782 net.cpp:122] Setting up h_2_lstm1_unit_2_1_split
I1018 00:02:57.836580 29782 net.cpp:129] Top shape: 1 5 512 (2560)
I1018 00:02:57.836583 29782 net.cpp:129] Top shape: 1 5 512 (2560)
I1018 00:02:57.836587 29782 net.cpp:137] Memory required for data: 6190080
I1018 00:02:57.836591 29782 layer_factory.hpp:77] Creating layer lstm1_h_conted_2
I1018 00:02:57.836599 29782 net.cpp:84] Creating Layer lstm1_h_conted_2
I1018 00:02:57.836604 29782 net.cpp:406] lstm1_h_conted_2 <- h_2_lstm1_unit_2_1_split_0
I1018 00:02:57.836611 29782 net.cpp:406] lstm1_h_conted_2 <- cont_3_lstm1_cont_slice_2_split_0
I1018 00:02:57.836616 29782 net.cpp:380] lstm1_h_conted_2 -> h_conted_2
I1018 00:02:57.836668 29782 net.cpp:122] Setting up lstm1_h_conted_2
I1018 00:02:57.836674 29782 net.cpp:129] Top shape: 1 5 512 (2560)
I1018 00:02:57.836678 29782 net.cpp:137] Memory required for data: 6200320
I1018 00:02:57.836681 29782 layer_factory.hpp:77] Creating layer lstm1_transform_3
I1018 00:02:57.836690 29782 net.cpp:84] Creating Layer lstm1_transform_3
I1018 00:02:57.836695 29782 net.cpp:406] lstm1_transform_3 <- h_conted_2
I1018 00:02:57.836701 29782 net.cpp:380] lstm1_transform_3 -> W_hc_h_2
I1018 00:02:57.848412 29782 net.cpp:122] Setting up lstm1_transform_3
I1018 00:02:57.848429 29782 net.cpp:129] Top shape: 1 5 2048 (10240)
I1018 00:02:57.848433 29782 net.cpp:137] Memory required for data: 6241280
I1018 00:02:57.848441 29782 net.cpp:465] Sharing parameters 'W_hc' owned by layer 'lstm1_transform_1', param index 0
I1018 00:02:57.848448 29782 layer_factory.hpp:77] Creating layer lstm1_gate_input_3
I1018 00:02:57.848457 29782 net.cpp:84] Creating Layer lstm1_gate_input_3
I1018 00:02:57.848464 29782 net.cpp:406] lstm1_gate_input_3 <- W_hc_h_2
I1018 00:02:57.848471 29782 net.cpp:406] lstm1_gate_input_3 <- W_xc_x_3
I1018 00:02:57.848479 29782 net.cpp:380] lstm1_gate_input_3 -> gate_input_3
I1018 00:02:57.848510 29782 net.cpp:122] Setting up lstm1_gate_input_3
I1018 00:02:57.848516 29782 net.cpp:129] Top shape: 1 5 2048 (10240)
I1018 00:02:57.848521 29782 net.cpp:137] Memory required for data: 6282240
I1018 00:02:57.848526 29782 layer_factory.hpp:77] Creating layer lstm1_unit_3
I1018 00:02:57.848534 29782 net.cpp:84] Creating Layer lstm1_unit_3
I1018 00:02:57.848539 29782 net.cpp:406] lstm1_unit_3 <- c_2
I1018 00:02:57.848546 29782 net.cpp:406] lstm1_unit_3 <- gate_input_3
I1018 00:02:57.848551 29782 net.cpp:406] lstm1_unit_3 <- cont_3_lstm1_cont_slice_2_split_1
I1018 00:02:57.848558 29782 net.cpp:380] lstm1_unit_3 -> c_3
I1018 00:02:57.848565 29782 net.cpp:380] lstm1_unit_3 -> h_3
I1018 00:02:57.848609 29782 net.cpp:122] Setting up lstm1_unit_3
I1018 00:02:57.848615 29782 net.cpp:129] Top shape: 1 5 512 (2560)
I1018 00:02:57.848620 29782 net.cpp:129] Top shape: 1 5 512 (2560)
I1018 00:02:57.848624 29782 net.cpp:137] Memory required for data: 6302720
I1018 00:02:57.848629 29782 layer_factory.hpp:77] Creating layer h_3_lstm1_unit_3_1_split
I1018 00:02:57.848635 29782 net.cpp:84] Creating Layer h_3_lstm1_unit_3_1_split
I1018 00:02:57.848640 29782 net.cpp:406] h_3_lstm1_unit_3_1_split <- h_3
I1018 00:02:57.848646 29782 net.cpp:380] h_3_lstm1_unit_3_1_split -> h_3_lstm1_unit_3_1_split_0
I1018 00:02:57.848655 29782 net.cpp:380] h_3_lstm1_unit_3_1_split -> h_3_lstm1_unit_3_1_split_1
I1018 00:02:57.848686 29782 net.cpp:122] Setting up h_3_lstm1_unit_3_1_split
I1018 00:02:57.848692 29782 net.cpp:129] Top shape: 1 5 512 (2560)
I1018 00:02:57.848697 29782 net.cpp:129] Top shape: 1 5 512 (2560)
I1018 00:02:57.848701 29782 net.cpp:137] Memory required for data: 6323200
I1018 00:02:57.848706 29782 layer_factory.hpp:77] Creating layer lstm1_h_conted_3
I1018 00:02:57.848716 29782 net.cpp:84] Creating Layer lstm1_h_conted_3
I1018 00:02:57.848721 29782 net.cpp:406] lstm1_h_conted_3 <- h_3_lstm1_unit_3_1_split_0
I1018 00:02:57.848726 29782 net.cpp:406] lstm1_h_conted_3 <- cont_4_lstm1_cont_slice_3_split_0
I1018 00:02:57.848733 29782 net.cpp:380] lstm1_h_conted_3 -> h_conted_3
I1018 00:02:57.848794 29782 net.cpp:122] Setting up lstm1_h_conted_3
I1018 00:02:57.848801 29782 net.cpp:129] Top shape: 1 5 512 (2560)
I1018 00:02:57.848805 29782 net.cpp:137] Memory required for data: 6333440
I1018 00:02:57.848809 29782 layer_factory.hpp:77] Creating layer lstm1_transform_4
I1018 00:02:57.848819 29782 net.cpp:84] Creating Layer lstm1_transform_4
I1018 00:02:57.848824 29782 net.cpp:406] lstm1_transform_4 <- h_conted_3
I1018 00:02:57.848830 29782 net.cpp:380] lstm1_transform_4 -> W_hc_h_3
I1018 00:02:57.860956 29782 net.cpp:122] Setting up lstm1_transform_4
I1018 00:02:57.860971 29782 net.cpp:129] Top shape: 1 5 2048 (10240)
I1018 00:02:57.860975 29782 net.cpp:137] Memory required for data: 6374400
I1018 00:02:57.860981 29782 net.cpp:465] Sharing parameters 'W_hc' owned by layer 'lstm1_transform_1', param index 0
I1018 00:02:57.860986 29782 layer_factory.hpp:77] Creating layer lstm1_gate_input_4
I1018 00:02:57.860996 29782 net.cpp:84] Creating Layer lstm1_gate_input_4
I1018 00:02:57.861001 29782 net.cpp:406] lstm1_gate_input_4 <- W_hc_h_3
I1018 00:02:57.861008 29782 net.cpp:406] lstm1_gate_input_4 <- W_xc_x_4
I1018 00:02:57.861016 29782 net.cpp:380] lstm1_gate_input_4 -> gate_input_4
I1018 00:02:57.861042 29782 net.cpp:122] Setting up lstm1_gate_input_4
I1018 00:02:57.861049 29782 net.cpp:129] Top shape: 1 5 2048 (10240)
I1018 00:02:57.861053 29782 net.cpp:137] Memory required for data: 6415360
I1018 00:02:57.861057 29782 layer_factory.hpp:77] Creating layer lstm1_unit_4
I1018 00:02:57.861064 29782 net.cpp:84] Creating Layer lstm1_unit_4
I1018 00:02:57.861069 29782 net.cpp:406] lstm1_unit_4 <- c_3
I1018 00:02:57.861075 29782 net.cpp:406] lstm1_unit_4 <- gate_input_4
I1018 00:02:57.861080 29782 net.cpp:406] lstm1_unit_4 <- cont_4_lstm1_cont_slice_3_split_1
I1018 00:02:57.861089 29782 net.cpp:380] lstm1_unit_4 -> c_4
I1018 00:02:57.861096 29782 net.cpp:380] lstm1_unit_4 -> h_4
I1018 00:02:57.861140 29782 net.cpp:122] Setting up lstm1_unit_4
I1018 00:02:57.861145 29782 net.cpp:129] Top shape: 1 5 512 (2560)
I1018 00:02:57.861150 29782 net.cpp:129] Top shape: 1 5 512 (2560)
I1018 00:02:57.861155 29782 net.cpp:137] Memory required for data: 6435840
I1018 00:02:57.861158 29782 layer_factory.hpp:77] Creating layer h_4_lstm1_unit_4_1_split
I1018 00:02:57.861165 29782 net.cpp:84] Creating Layer h_4_lstm1_unit_4_1_split
I1018 00:02:57.861168 29782 net.cpp:406] h_4_lstm1_unit_4_1_split <- h_4
I1018 00:02:57.861176 29782 net.cpp:380] h_4_lstm1_unit_4_1_split -> h_4_lstm1_unit_4_1_split_0
I1018 00:02:57.861181 29782 net.cpp:380] h_4_lstm1_unit_4_1_split -> h_4_lstm1_unit_4_1_split_1
I1018 00:02:57.861214 29782 net.cpp:122] Setting up h_4_lstm1_unit_4_1_split
I1018 00:02:57.861220 29782 net.cpp:129] Top shape: 1 5 512 (2560)
I1018 00:02:57.861225 29782 net.cpp:129] Top shape: 1 5 512 (2560)
I1018 00:02:57.861229 29782 net.cpp:137] Memory required for data: 6456320
I1018 00:02:57.861233 29782 layer_factory.hpp:77] Creating layer lstm1_h_conted_4
I1018 00:02:57.861240 29782 net.cpp:84] Creating Layer lstm1_h_conted_4
I1018 00:02:57.861244 29782 net.cpp:406] lstm1_h_conted_4 <- h_4_lstm1_unit_4_1_split_0
I1018 00:02:57.861251 29782 net.cpp:406] lstm1_h_conted_4 <- cont_5_lstm1_cont_slice_4_split_0
I1018 00:02:57.861265 29782 net.cpp:380] lstm1_h_conted_4 -> h_conted_4
I1018 00:02:57.861322 29782 net.cpp:122] Setting up lstm1_h_conted_4
I1018 00:02:57.861330 29782 net.cpp:129] Top shape: 1 5 512 (2560)
I1018 00:02:57.861333 29782 net.cpp:137] Memory required for data: 6466560
I1018 00:02:57.861337 29782 layer_factory.hpp:77] Creating layer lstm1_transform_5
I1018 00:02:57.861346 29782 net.cpp:84] Creating Layer lstm1_transform_5
I1018 00:02:57.861349 29782 net.cpp:406] lstm1_transform_5 <- h_conted_4
I1018 00:02:57.861358 29782 net.cpp:380] lstm1_transform_5 -> W_hc_h_4
I1018 00:02:57.873081 29782 net.cpp:122] Setting up lstm1_transform_5
I1018 00:02:57.873098 29782 net.cpp:129] Top shape: 1 5 2048 (10240)
I1018 00:02:57.873102 29782 net.cpp:137] Memory required for data: 6507520
I1018 00:02:57.873108 29782 net.cpp:465] Sharing parameters 'W_hc' owned by layer 'lstm1_transform_1', param index 0
I1018 00:02:57.873113 29782 layer_factory.hpp:77] Creating layer lstm1_gate_input_5
I1018 00:02:57.873122 29782 net.cpp:84] Creating Layer lstm1_gate_input_5
I1018 00:02:57.873128 29782 net.cpp:406] lstm1_gate_input_5 <- W_hc_h_4
I1018 00:02:57.873136 29782 net.cpp:406] lstm1_gate_input_5 <- W_xc_x_5
I1018 00:02:57.873150 29782 net.cpp:380] lstm1_gate_input_5 -> gate_input_5
I1018 00:02:57.873178 29782 net.cpp:122] Setting up lstm1_gate_input_5
I1018 00:02:57.873185 29782 net.cpp:129] Top shape: 1 5 2048 (10240)
I1018 00:02:57.873189 29782 net.cpp:137] Memory required for data: 6548480
I1018 00:02:57.873193 29782 layer_factory.hpp:77] Creating layer lstm1_unit_5
I1018 00:02:57.873200 29782 net.cpp:84] Creating Layer lstm1_unit_5
I1018 00:02:57.873205 29782 net.cpp:406] lstm1_unit_5 <- c_4
I1018 00:02:57.873211 29782 net.cpp:406] lstm1_unit_5 <- gate_input_5
I1018 00:02:57.873217 29782 net.cpp:406] lstm1_unit_5 <- cont_5_lstm1_cont_slice_4_split_1
I1018 00:02:57.873224 29782 net.cpp:380] lstm1_unit_5 -> c_5
I1018 00:02:57.873231 29782 net.cpp:380] lstm1_unit_5 -> h_5
I1018 00:02:57.873275 29782 net.cpp:122] Setting up lstm1_unit_5
I1018 00:02:57.873281 29782 net.cpp:129] Top shape: 1 5 512 (2560)
I1018 00:02:57.873286 29782 net.cpp:129] Top shape: 1 5 512 (2560)
I1018 00:02:57.873291 29782 net.cpp:137] Memory required for data: 6568960
I1018 00:02:57.873294 29782 layer_factory.hpp:77] Creating layer h_5_lstm1_unit_5_1_split
I1018 00:02:57.873301 29782 net.cpp:84] Creating Layer h_5_lstm1_unit_5_1_split
I1018 00:02:57.873306 29782 net.cpp:406] h_5_lstm1_unit_5_1_split <- h_5
I1018 00:02:57.873311 29782 net.cpp:380] h_5_lstm1_unit_5_1_split -> h_5_lstm1_unit_5_1_split_0
I1018 00:02:57.873318 29782 net.cpp:380] h_5_lstm1_unit_5_1_split -> h_5_lstm1_unit_5_1_split_1
I1018 00:02:57.873350 29782 net.cpp:122] Setting up h_5_lstm1_unit_5_1_split
I1018 00:02:57.873356 29782 net.cpp:129] Top shape: 1 5 512 (2560)
I1018 00:02:57.873361 29782 net.cpp:129] Top shape: 1 5 512 (2560)
I1018 00:02:57.873365 29782 net.cpp:137] Memory required for data: 6589440
I1018 00:02:57.873370 29782 layer_factory.hpp:77] Creating layer lstm1_h_conted_5
I1018 00:02:57.873378 29782 net.cpp:84] Creating Layer lstm1_h_conted_5
I1018 00:02:57.873381 29782 net.cpp:406] lstm1_h_conted_5 <- h_5_lstm1_unit_5_1_split_0
I1018 00:02:57.873389 29782 net.cpp:406] lstm1_h_conted_5 <- cont_6_lstm1_cont_slice_5_split_0
I1018 00:02:57.873397 29782 net.cpp:380] lstm1_h_conted_5 -> h_conted_5
I1018 00:02:57.873455 29782 net.cpp:122] Setting up lstm1_h_conted_5
I1018 00:02:57.873461 29782 net.cpp:129] Top shape: 1 5 512 (2560)
I1018 00:02:57.873466 29782 net.cpp:137] Memory required for data: 6599680
I1018 00:02:57.873469 29782 layer_factory.hpp:77] Creating layer lstm1_transform_6
I1018 00:02:57.873477 29782 net.cpp:84] Creating Layer lstm1_transform_6
I1018 00:02:57.873482 29782 net.cpp:406] lstm1_transform_6 <- h_conted_5
I1018 00:02:57.873492 29782 net.cpp:380] lstm1_transform_6 -> W_hc_h_5
I1018 00:02:57.885241 29782 net.cpp:122] Setting up lstm1_transform_6
I1018 00:02:57.885258 29782 net.cpp:129] Top shape: 1 5 2048 (10240)
I1018 00:02:57.885263 29782 net.cpp:137] Memory required for data: 6640640
I1018 00:02:57.885269 29782 net.cpp:465] Sharing parameters 'W_hc' owned by layer 'lstm1_transform_1', param index 0
I1018 00:02:57.885274 29782 layer_factory.hpp:77] Creating layer lstm1_gate_input_6
I1018 00:02:57.885284 29782 net.cpp:84] Creating Layer lstm1_gate_input_6
I1018 00:02:57.885290 29782 net.cpp:406] lstm1_gate_input_6 <- W_hc_h_5
I1018 00:02:57.885298 29782 net.cpp:406] lstm1_gate_input_6 <- W_xc_x_6
I1018 00:02:57.885308 29782 net.cpp:380] lstm1_gate_input_6 -> gate_input_6
I1018 00:02:57.885341 29782 net.cpp:122] Setting up lstm1_gate_input_6
I1018 00:02:57.885349 29782 net.cpp:129] Top shape: 1 5 2048 (10240)
I1018 00:02:57.885352 29782 net.cpp:137] Memory required for data: 6681600
I1018 00:02:57.885356 29782 layer_factory.hpp:77] Creating layer lstm1_unit_6
I1018 00:02:57.885365 29782 net.cpp:84] Creating Layer lstm1_unit_6
I1018 00:02:57.885371 29782 net.cpp:406] lstm1_unit_6 <- c_5
I1018 00:02:57.885376 29782 net.cpp:406] lstm1_unit_6 <- gate_input_6
I1018 00:02:57.885383 29782 net.cpp:406] lstm1_unit_6 <- cont_6_lstm1_cont_slice_5_split_1
I1018 00:02:57.885390 29782 net.cpp:380] lstm1_unit_6 -> c_6
I1018 00:02:57.885396 29782 net.cpp:380] lstm1_unit_6 -> h_6
I1018 00:02:57.885442 29782 net.cpp:122] Setting up lstm1_unit_6
I1018 00:02:57.885449 29782 net.cpp:129] Top shape: 1 5 512 (2560)
I1018 00:02:57.885454 29782 net.cpp:129] Top shape: 1 5 512 (2560)
I1018 00:02:57.885458 29782 net.cpp:137] Memory required for data: 6702080
I1018 00:02:57.885462 29782 layer_factory.hpp:77] Creating layer h_6_lstm1_unit_6_1_split
I1018 00:02:57.885468 29782 net.cpp:84] Creating Layer h_6_lstm1_unit_6_1_split
I1018 00:02:57.885473 29782 net.cpp:406] h_6_lstm1_unit_6_1_split <- h_6
I1018 00:02:57.885479 29782 net.cpp:380] h_6_lstm1_unit_6_1_split -> h_6_lstm1_unit_6_1_split_0
I1018 00:02:57.885486 29782 net.cpp:380] h_6_lstm1_unit_6_1_split -> h_6_lstm1_unit_6_1_split_1
I1018 00:02:57.885519 29782 net.cpp:122] Setting up h_6_lstm1_unit_6_1_split
I1018 00:02:57.885525 29782 net.cpp:129] Top shape: 1 5 512 (2560)
I1018 00:02:57.885530 29782 net.cpp:129] Top shape: 1 5 512 (2560)
I1018 00:02:57.885535 29782 net.cpp:137] Memory required for data: 6722560
I1018 00:02:57.885538 29782 layer_factory.hpp:77] Creating layer lstm1_h_conted_6
I1018 00:02:57.885546 29782 net.cpp:84] Creating Layer lstm1_h_conted_6
I1018 00:02:57.885551 29782 net.cpp:406] lstm1_h_conted_6 <- h_6_lstm1_unit_6_1_split_0
I1018 00:02:57.885556 29782 net.cpp:406] lstm1_h_conted_6 <- cont_7_lstm1_cont_slice_6_split_0
I1018 00:02:57.885563 29782 net.cpp:380] lstm1_h_conted_6 -> h_conted_6
I1018 00:02:57.885624 29782 net.cpp:122] Setting up lstm1_h_conted_6
I1018 00:02:57.885632 29782 net.cpp:129] Top shape: 1 5 512 (2560)
I1018 00:02:57.885635 29782 net.cpp:137] Memory required for data: 6732800
I1018 00:02:57.885639 29782 layer_factory.hpp:77] Creating layer lstm1_transform_7
I1018 00:02:57.885648 29782 net.cpp:84] Creating Layer lstm1_transform_7
I1018 00:02:57.885653 29782 net.cpp:406] lstm1_transform_7 <- h_conted_6
I1018 00:02:57.885659 29782 net.cpp:380] lstm1_transform_7 -> W_hc_h_6
I1018 00:02:57.897498 29782 net.cpp:122] Setting up lstm1_transform_7
I1018 00:02:57.897514 29782 net.cpp:129] Top shape: 1 5 2048 (10240)
I1018 00:02:57.897519 29782 net.cpp:137] Memory required for data: 6773760
I1018 00:02:57.897528 29782 net.cpp:465] Sharing parameters 'W_hc' owned by layer 'lstm1_transform_1', param index 0
I1018 00:02:57.897534 29782 layer_factory.hpp:77] Creating layer lstm1_gate_input_7
I1018 00:02:57.897543 29782 net.cpp:84] Creating Layer lstm1_gate_input_7
I1018 00:02:57.897548 29782 net.cpp:406] lstm1_gate_input_7 <- W_hc_h_6
I1018 00:02:57.897555 29782 net.cpp:406] lstm1_gate_input_7 <- W_xc_x_7
I1018 00:02:57.897562 29782 net.cpp:380] lstm1_gate_input_7 -> gate_input_7
I1018 00:02:57.897593 29782 net.cpp:122] Setting up lstm1_gate_input_7
I1018 00:02:57.897599 29782 net.cpp:129] Top shape: 1 5 2048 (10240)
I1018 00:02:57.897603 29782 net.cpp:137] Memory required for data: 6814720
I1018 00:02:57.897608 29782 layer_factory.hpp:77] Creating layer lstm1_unit_7
I1018 00:02:57.897614 29782 net.cpp:84] Creating Layer lstm1_unit_7
I1018 00:02:57.897620 29782 net.cpp:406] lstm1_unit_7 <- c_6
I1018 00:02:57.897626 29782 net.cpp:406] lstm1_unit_7 <- gate_input_7
I1018 00:02:57.897632 29782 net.cpp:406] lstm1_unit_7 <- cont_7_lstm1_cont_slice_6_split_1
I1018 00:02:57.897639 29782 net.cpp:380] lstm1_unit_7 -> c_7
I1018 00:02:57.897646 29782 net.cpp:380] lstm1_unit_7 -> h_7
I1018 00:02:57.897689 29782 net.cpp:122] Setting up lstm1_unit_7
I1018 00:02:57.897696 29782 net.cpp:129] Top shape: 1 5 512 (2560)
I1018 00:02:57.897701 29782 net.cpp:129] Top shape: 1 5 512 (2560)
I1018 00:02:57.897706 29782 net.cpp:137] Memory required for data: 6835200
I1018 00:02:57.897709 29782 layer_factory.hpp:77] Creating layer h_7_lstm1_unit_7_1_split
I1018 00:02:57.897717 29782 net.cpp:84] Creating Layer h_7_lstm1_unit_7_1_split
I1018 00:02:57.897722 29782 net.cpp:406] h_7_lstm1_unit_7_1_split <- h_7
I1018 00:02:57.897727 29782 net.cpp:380] h_7_lstm1_unit_7_1_split -> h_7_lstm1_unit_7_1_split_0
I1018 00:02:57.897734 29782 net.cpp:380] h_7_lstm1_unit_7_1_split -> h_7_lstm1_unit_7_1_split_1
I1018 00:02:57.897766 29782 net.cpp:122] Setting up h_7_lstm1_unit_7_1_split
I1018 00:02:57.897773 29782 net.cpp:129] Top shape: 1 5 512 (2560)
I1018 00:02:57.897778 29782 net.cpp:129] Top shape: 1 5 512 (2560)
I1018 00:02:57.897781 29782 net.cpp:137] Memory required for data: 6855680
I1018 00:02:57.897785 29782 layer_factory.hpp:77] Creating layer lstm1_h_conted_7
I1018 00:02:57.897795 29782 net.cpp:84] Creating Layer lstm1_h_conted_7
I1018 00:02:57.897799 29782 net.cpp:406] lstm1_h_conted_7 <- h_7_lstm1_unit_7_1_split_0
I1018 00:02:57.897805 29782 net.cpp:406] lstm1_h_conted_7 <- cont_8_lstm1_cont_slice_7_split_0
I1018 00:02:57.897811 29782 net.cpp:380] lstm1_h_conted_7 -> h_conted_7
I1018 00:02:57.897868 29782 net.cpp:122] Setting up lstm1_h_conted_7
I1018 00:02:57.897876 29782 net.cpp:129] Top shape: 1 5 512 (2560)
I1018 00:02:57.897879 29782 net.cpp:137] Memory required for data: 6865920
I1018 00:02:57.897883 29782 layer_factory.hpp:77] Creating layer lstm1_transform_8
I1018 00:02:57.897892 29782 net.cpp:84] Creating Layer lstm1_transform_8
I1018 00:02:57.897897 29782 net.cpp:406] lstm1_transform_8 <- h_conted_7
I1018 00:02:57.897904 29782 net.cpp:380] lstm1_transform_8 -> W_hc_h_7
I1018 00:02:57.909729 29782 net.cpp:122] Setting up lstm1_transform_8
I1018 00:02:57.909744 29782 net.cpp:129] Top shape: 1 5 2048 (10240)
I1018 00:02:57.909747 29782 net.cpp:137] Memory required for data: 6906880
I1018 00:02:57.909752 29782 net.cpp:465] Sharing parameters 'W_hc' owned by layer 'lstm1_transform_1', param index 0
I1018 00:02:57.909757 29782 layer_factory.hpp:77] Creating layer lstm1_gate_input_8
I1018 00:02:57.909766 29782 net.cpp:84] Creating Layer lstm1_gate_input_8
I1018 00:02:57.909773 29782 net.cpp:406] lstm1_gate_input_8 <- W_hc_h_7
I1018 00:02:57.909780 29782 net.cpp:406] lstm1_gate_input_8 <- W_xc_x_8
I1018 00:02:57.909787 29782 net.cpp:380] lstm1_gate_input_8 -> gate_input_8
I1018 00:02:57.909816 29782 net.cpp:122] Setting up lstm1_gate_input_8
I1018 00:02:57.909823 29782 net.cpp:129] Top shape: 1 5 2048 (10240)
I1018 00:02:57.909827 29782 net.cpp:137] Memory required for data: 6947840
I1018 00:02:57.909832 29782 layer_factory.hpp:77] Creating layer lstm1_unit_8
I1018 00:02:57.909837 29782 net.cpp:84] Creating Layer lstm1_unit_8
I1018 00:02:57.909842 29782 net.cpp:406] lstm1_unit_8 <- c_7
I1018 00:02:57.909849 29782 net.cpp:406] lstm1_unit_8 <- gate_input_8
I1018 00:02:57.909854 29782 net.cpp:406] lstm1_unit_8 <- cont_8_lstm1_cont_slice_7_split_1
I1018 00:02:57.909862 29782 net.cpp:380] lstm1_unit_8 -> c_8
I1018 00:02:57.909868 29782 net.cpp:380] lstm1_unit_8 -> h_8
I1018 00:02:57.909914 29782 net.cpp:122] Setting up lstm1_unit_8
I1018 00:02:57.909920 29782 net.cpp:129] Top shape: 1 5 512 (2560)
I1018 00:02:57.909925 29782 net.cpp:129] Top shape: 1 5 512 (2560)
I1018 00:02:57.909929 29782 net.cpp:137] Memory required for data: 6968320
I1018 00:02:57.909934 29782 layer_factory.hpp:77] Creating layer h_8_lstm1_unit_8_1_split
I1018 00:02:57.909940 29782 net.cpp:84] Creating Layer h_8_lstm1_unit_8_1_split
I1018 00:02:57.909943 29782 net.cpp:406] h_8_lstm1_unit_8_1_split <- h_8
I1018 00:02:57.909951 29782 net.cpp:380] h_8_lstm1_unit_8_1_split -> h_8_lstm1_unit_8_1_split_0
I1018 00:02:57.909960 29782 net.cpp:380] h_8_lstm1_unit_8_1_split -> h_8_lstm1_unit_8_1_split_1
I1018 00:02:57.909991 29782 net.cpp:122] Setting up h_8_lstm1_unit_8_1_split
I1018 00:02:57.909997 29782 net.cpp:129] Top shape: 1 5 512 (2560)
I1018 00:02:57.910002 29782 net.cpp:129] Top shape: 1 5 512 (2560)
I1018 00:02:57.910006 29782 net.cpp:137] Memory required for data: 6988800
I1018 00:02:57.910010 29782 layer_factory.hpp:77] Creating layer lstm1_h_conted_8
I1018 00:02:57.910017 29782 net.cpp:84] Creating Layer lstm1_h_conted_8
I1018 00:02:57.910022 29782 net.cpp:406] lstm1_h_conted_8 <- h_8_lstm1_unit_8_1_split_0
I1018 00:02:57.910028 29782 net.cpp:406] lstm1_h_conted_8 <- cont_9_lstm1_cont_slice_8_split_0
I1018 00:02:57.910035 29782 net.cpp:380] lstm1_h_conted_8 -> h_conted_8
I1018 00:02:57.910104 29782 net.cpp:122] Setting up lstm1_h_conted_8
I1018 00:02:57.910110 29782 net.cpp:129] Top shape: 1 5 512 (2560)
I1018 00:02:57.910115 29782 net.cpp:137] Memory required for data: 6999040
I1018 00:02:57.910118 29782 layer_factory.hpp:77] Creating layer lstm1_transform_9
I1018 00:02:57.910125 29782 net.cpp:84] Creating Layer lstm1_transform_9
I1018 00:02:57.910130 29782 net.cpp:406] lstm1_transform_9 <- h_conted_8
I1018 00:02:57.910138 29782 net.cpp:380] lstm1_transform_9 -> W_hc_h_8
I1018 00:02:57.921931 29782 net.cpp:122] Setting up lstm1_transform_9
I1018 00:02:57.921949 29782 net.cpp:129] Top shape: 1 5 2048 (10240)
I1018 00:02:57.921954 29782 net.cpp:137] Memory required for data: 7040000
I1018 00:02:57.921960 29782 net.cpp:465] Sharing parameters 'W_hc' owned by layer 'lstm1_transform_1', param index 0
I1018 00:02:57.921967 29782 layer_factory.hpp:77] Creating layer lstm1_gate_input_9
I1018 00:02:57.921977 29782 net.cpp:84] Creating Layer lstm1_gate_input_9
I1018 00:02:57.921983 29782 net.cpp:406] lstm1_gate_input_9 <- W_hc_h_8
I1018 00:02:57.921993 29782 net.cpp:406] lstm1_gate_input_9 <- W_xc_x_9
I1018 00:02:57.922000 29782 net.cpp:380] lstm1_gate_input_9 -> gate_input_9
I1018 00:02:57.922034 29782 net.cpp:122] Setting up lstm1_gate_input_9
I1018 00:02:57.922039 29782 net.cpp:129] Top shape: 1 5 2048 (10240)
I1018 00:02:57.922044 29782 net.cpp:137] Memory required for data: 7080960
I1018 00:02:57.922047 29782 layer_factory.hpp:77] Creating layer lstm1_unit_9
I1018 00:02:57.922057 29782 net.cpp:84] Creating Layer lstm1_unit_9
I1018 00:02:57.922062 29782 net.cpp:406] lstm1_unit_9 <- c_8
I1018 00:02:57.922068 29782 net.cpp:406] lstm1_unit_9 <- gate_input_9
I1018 00:02:57.922075 29782 net.cpp:406] lstm1_unit_9 <- cont_9_lstm1_cont_slice_8_split_1
I1018 00:02:57.922080 29782 net.cpp:380] lstm1_unit_9 -> c_9
I1018 00:02:57.922088 29782 net.cpp:380] lstm1_unit_9 -> h_9
I1018 00:02:57.922134 29782 net.cpp:122] Setting up lstm1_unit_9
I1018 00:02:57.922142 29782 net.cpp:129] Top shape: 1 5 512 (2560)
I1018 00:02:57.922147 29782 net.cpp:129] Top shape: 1 5 512 (2560)
I1018 00:02:57.922150 29782 net.cpp:137] Memory required for data: 7101440
I1018 00:02:57.922154 29782 layer_factory.hpp:77] Creating layer h_9_lstm1_unit_9_1_split
I1018 00:02:57.922160 29782 net.cpp:84] Creating Layer h_9_lstm1_unit_9_1_split
I1018 00:02:57.922165 29782 net.cpp:406] h_9_lstm1_unit_9_1_split <- h_9
I1018 00:02:57.922173 29782 net.cpp:380] h_9_lstm1_unit_9_1_split -> h_9_lstm1_unit_9_1_split_0
I1018 00:02:57.922180 29782 net.cpp:380] h_9_lstm1_unit_9_1_split -> h_9_lstm1_unit_9_1_split_1
I1018 00:02:57.922212 29782 net.cpp:122] Setting up h_9_lstm1_unit_9_1_split
I1018 00:02:57.922219 29782 net.cpp:129] Top shape: 1 5 512 (2560)
I1018 00:02:57.922224 29782 net.cpp:129] Top shape: 1 5 512 (2560)
I1018 00:02:57.922227 29782 net.cpp:137] Memory required for data: 7121920
I1018 00:02:57.922231 29782 layer_factory.hpp:77] Creating layer lstm1_h_conted_9
I1018 00:02:57.922241 29782 net.cpp:84] Creating Layer lstm1_h_conted_9
I1018 00:02:57.922245 29782 net.cpp:406] lstm1_h_conted_9 <- h_9_lstm1_unit_9_1_split_0
I1018 00:02:57.922252 29782 net.cpp:406] lstm1_h_conted_9 <- cont_10_lstm1_cont_slice_9_split_0
I1018 00:02:57.922260 29782 net.cpp:380] lstm1_h_conted_9 -> h_conted_9
I1018 00:02:57.922320 29782 net.cpp:122] Setting up lstm1_h_conted_9
I1018 00:02:57.922327 29782 net.cpp:129] Top shape: 1 5 512 (2560)
I1018 00:02:57.922332 29782 net.cpp:137] Memory required for data: 7132160
I1018 00:02:57.922335 29782 layer_factory.hpp:77] Creating layer lstm1_transform_10
I1018 00:02:57.922345 29782 net.cpp:84] Creating Layer lstm1_transform_10
I1018 00:02:57.922350 29782 net.cpp:406] lstm1_transform_10 <- h_conted_9
I1018 00:02:57.922358 29782 net.cpp:380] lstm1_transform_10 -> W_hc_h_9
I1018 00:02:57.934281 29782 net.cpp:122] Setting up lstm1_transform_10
I1018 00:02:57.934301 29782 net.cpp:129] Top shape: 1 5 2048 (10240)
I1018 00:02:57.934305 29782 net.cpp:137] Memory required for data: 7173120
I1018 00:02:57.934311 29782 net.cpp:465] Sharing parameters 'W_hc' owned by layer 'lstm1_transform_1', param index 0
I1018 00:02:57.934317 29782 layer_factory.hpp:77] Creating layer lstm1_gate_input_10
I1018 00:02:57.934329 29782 net.cpp:84] Creating Layer lstm1_gate_input_10
I1018 00:02:57.934335 29782 net.cpp:406] lstm1_gate_input_10 <- W_hc_h_9
I1018 00:02:57.934342 29782 net.cpp:406] lstm1_gate_input_10 <- W_xc_x_10
I1018 00:02:57.934350 29782 net.cpp:380] lstm1_gate_input_10 -> gate_input_10
I1018 00:02:57.934382 29782 net.cpp:122] Setting up lstm1_gate_input_10
I1018 00:02:57.934388 29782 net.cpp:129] Top shape: 1 5 2048 (10240)
I1018 00:02:57.934392 29782 net.cpp:137] Memory required for data: 7214080
I1018 00:02:57.934396 29782 layer_factory.hpp:77] Creating layer lstm1_unit_10
I1018 00:02:57.934404 29782 net.cpp:84] Creating Layer lstm1_unit_10
I1018 00:02:57.934409 29782 net.cpp:406] lstm1_unit_10 <- c_9
I1018 00:02:57.934415 29782 net.cpp:406] lstm1_unit_10 <- gate_input_10
I1018 00:02:57.934422 29782 net.cpp:406] lstm1_unit_10 <- cont_10_lstm1_cont_slice_9_split_1
I1018 00:02:57.934430 29782 net.cpp:380] lstm1_unit_10 -> c_10
I1018 00:02:57.934438 29782 net.cpp:380] lstm1_unit_10 -> h_10
I1018 00:02:57.934482 29782 net.cpp:122] Setting up lstm1_unit_10
I1018 00:02:57.934489 29782 net.cpp:129] Top shape: 1 5 512 (2560)
I1018 00:02:57.934494 29782 net.cpp:129] Top shape: 1 5 512 (2560)
I1018 00:02:57.934499 29782 net.cpp:137] Memory required for data: 7234560
I1018 00:02:57.934502 29782 layer_factory.hpp:77] Creating layer h_10_lstm1_unit_10_1_split
I1018 00:02:57.934509 29782 net.cpp:84] Creating Layer h_10_lstm1_unit_10_1_split
I1018 00:02:57.934514 29782 net.cpp:406] h_10_lstm1_unit_10_1_split <- h_10
I1018 00:02:57.934520 29782 net.cpp:380] h_10_lstm1_unit_10_1_split -> h_10_lstm1_unit_10_1_split_0
I1018 00:02:57.934527 29782 net.cpp:380] h_10_lstm1_unit_10_1_split -> h_10_lstm1_unit_10_1_split_1
I1018 00:02:57.934566 29782 net.cpp:122] Setting up h_10_lstm1_unit_10_1_split
I1018 00:02:57.934571 29782 net.cpp:129] Top shape: 1 5 512 (2560)
I1018 00:02:57.934576 29782 net.cpp:129] Top shape: 1 5 512 (2560)
I1018 00:02:57.934581 29782 net.cpp:137] Memory required for data: 7255040
I1018 00:02:57.934584 29782 layer_factory.hpp:77] Creating layer lstm1_h_conted_10
I1018 00:02:57.934593 29782 net.cpp:84] Creating Layer lstm1_h_conted_10
I1018 00:02:57.934598 29782 net.cpp:406] lstm1_h_conted_10 <- h_10_lstm1_unit_10_1_split_0
I1018 00:02:57.934604 29782 net.cpp:406] lstm1_h_conted_10 <- cont_11_lstm1_cont_slice_10_split_0
I1018 00:02:57.934612 29782 net.cpp:380] lstm1_h_conted_10 -> h_conted_10
I1018 00:02:57.934674 29782 net.cpp:122] Setting up lstm1_h_conted_10
I1018 00:02:57.934681 29782 net.cpp:129] Top shape: 1 5 512 (2560)
I1018 00:02:57.934685 29782 net.cpp:137] Memory required for data: 7265280
I1018 00:02:57.934689 29782 layer_factory.hpp:77] Creating layer lstm1_transform_11
I1018 00:02:57.934700 29782 net.cpp:84] Creating Layer lstm1_transform_11
I1018 00:02:57.934705 29782 net.cpp:406] lstm1_transform_11 <- h_conted_10
I1018 00:02:57.934712 29782 net.cpp:380] lstm1_transform_11 -> W_hc_h_10
I1018 00:02:57.946645 29782 net.cpp:122] Setting up lstm1_transform_11
I1018 00:02:57.946661 29782 net.cpp:129] Top shape: 1 5 2048 (10240)
I1018 00:02:57.946666 29782 net.cpp:137] Memory required for data: 7306240
…
I1018 00:02:59.983144 29782 layer_factory.hpp:77] Creating layer lstm1_transform_51
I1018 00:02:59.983152 29782 net.cpp:84] Creating Layer lstm1_transform_51
I1018 00:02:59.983157 29782 net.cpp:406] lstm1_transform_51 <- h_conted_50
I1018 00:02:59.983168 29782 net.cpp:380] lstm1_transform_51 -> W_hc_h_50
I1018 00:02:59.996472 29782 net.cpp:122] Setting up lstm1_transform_51
I1018 00:02:59.996490 29782 net.cpp:129] Top shape: 1 150 2048 (307200)
I1018 00:02:59.996495 29782 net.cpp:137] Memory required for data: 378931200
I1018 00:02:59.996502 29782 net.cpp:465] Sharing parameters 'W_hc' owned by layer 'lstm1_transform_1', param index 0
I1018 00:02:59.996508 29782 layer_factory.hpp:77] Creating layer lstm1_gate_input_51
I1018 00:02:59.996534 29782 net.cpp:84] Creating Layer lstm1_gate_input_51
I1018 00:02:59.996544 29782 net.cpp:406] lstm1_gate_input_51 <- W_hc_h_50
I1018 00:02:59.996552 29782 net.cpp:406] lstm1_gate_input_51 <- W_xc_x_51
I1018 00:02:59.996561 29782 net.cpp:380] lstm1_gate_input_51 -> gate_input_51
I1018 00:02:59.996605 29782 net.cpp:122] Setting up lstm1_gate_input_51
I1018 00:02:59.996618 29782 net.cpp:129] Top shape: 1 150 2048 (307200)
I1018 00:02:59.996621 29782 net.cpp:137] Memory required for data: 380160000
I1018 00:02:59.996626 29782 layer_factory.hpp:77] Creating layer lstm1_unit_51
I1018 00:02:59.996636 29782 net.cpp:84] Creating Layer lstm1_unit_51
I1018 00:02:59.996641 29782 net.cpp:406] lstm1_unit_51 <- c_50
I1018 00:02:59.996649 29782 net.cpp:406] lstm1_unit_51 <- gate_input_51
I1018 00:02:59.996655 29782 net.cpp:406] lstm1_unit_51 <- cont_51_lstm1_cont_slice_50_split_1
I1018 00:02:59.996662 29782 net.cpp:380] lstm1_unit_51 -> c_51
I1018 00:02:59.996672 29782 net.cpp:380] lstm1_unit_51 -> h_51
I1018 00:02:59.996726 29782 net.cpp:122] Setting up lstm1_unit_51
I1018 00:02:59.996736 29782 net.cpp:129] Top shape: 1 150 512 (76800)
I1018 00:02:59.996742 29782 net.cpp:129] Top shape: 1 150 512 (76800)
I1018 00:02:59.996745 29782 net.cpp:137] Memory required for data: 380774400
I1018 00:02:59.996750 29782 layer_factory.hpp:77] Creating layer h_51_lstm1_unit_51_1_split
I1018 00:02:59.996757 29782 net.cpp:84] Creating Layer h_51_lstm1_unit_51_1_split
I1018 00:02:59.996762 29782 net.cpp:406] h_51_lstm1_unit_51_1_split <- h_51
I1018 00:02:59.996772 29782 net.cpp:380] h_51_lstm1_unit_51_1_split -> h_51_lstm1_unit_51_1_split_0
I1018 00:02:59.996779 29782 net.cpp:380] h_51_lstm1_unit_51_1_split -> h_51_lstm1_unit_51_1_split_1
I1018 00:02:59.996816 29782 net.cpp:122] Setting up h_51_lstm1_unit_51_1_split
I1018 00:02:59.996825 29782 net.cpp:129] Top shape: 1 150 512 (76800)
I1018 00:02:59.996831 29782 net.cpp:129] Top shape: 1 150 512 (76800)
I1018 00:02:59.996835 29782 net.cpp:137] Memory required for data: 381388800
I1018 00:02:59.996840 29782 layer_factory.hpp:77] Creating layer lstm1_h_conted_51
I1018 00:02:59.996850 29782 net.cpp:84] Creating Layer lstm1_h_conted_51
I1018 00:02:59.996855 29782 net.cpp:406] lstm1_h_conted_51 <- h_51_lstm1_unit_51_1_split_0
I1018 00:02:59.996861 29782 net.cpp:406] lstm1_h_conted_51 <- cont_52_lstm1_cont_slice_51_split_0
I1018 00:02:59.996870 29782 net.cpp:380] lstm1_h_conted_51 -> h_conted_51
I1018 00:02:59.996940 29782 net.cpp:122] Setting up lstm1_h_conted_51
I1018 00:02:59.996953 29782 net.cpp:129] Top shape: 1 150 512 (76800)
I1018 00:02:59.996960 29782 net.cpp:137] Memory required for data: 381696000
I1018 00:02:59.996976 29782 layer_factory.hpp:77] Creating layer lstm1_transform_52
I1018 00:02:59.996990 29782 net.cpp:84] Creating Layer lstm1_transform_52
I1018 00:02:59.996996 29782 net.cpp:406] lstm1_transform_52 <- h_conted_51
I1018 00:02:59.997005 29782 net.cpp:380] lstm1_transform_52 -> W_hc_h_51
I1018 00:03:00.010368 29782 net.cpp:122] Setting up lstm1_transform_52
I1018 00:03:00.010387 29782 net.cpp:129] Top shape: 1 150 2048 (307200)
I1018 00:03:00.010399 29782 net.cpp:137] Memory required for data: 382924800
I1018 00:03:00.010406 29782 net.cpp:465] Sharing parameters 'W_hc' owned by layer 'lstm1_transform_1', param index 0
I1018 00:03:00.010411 29782 layer_factory.hpp:77] Creating layer lstm1_gate_input_52
I1018 00:03:00.010421 29782 net.cpp:84] Creating Layer lstm1_gate_input_52
I1018 00:03:00.010428 29782 net.cpp:406] lstm1_gate_input_52 <- W_hc_h_51
I1018 00:03:00.010437 29782 net.cpp:406] lstm1_gate_input_52 <- W_xc_x_52
I1018 00:03:00.010448 29782 net.cpp:380] lstm1_gate_input_52 -> gate_input_52
I1018 00:03:00.010481 29782 net.cpp:122] Setting up lstm1_gate_input_52
I1018 00:03:00.010489 29782 net.cpp:129] Top shape: 1 150 2048 (307200)
I1018 00:03:00.010494 29782 net.cpp:137] Memory required for data: 384153600
I1018 00:03:00.010499 29782 layer_factory.hpp:77] Creating layer lstm1_unit_52
I1018 00:03:00.010505 29782 net.cpp:84] Creating Layer lstm1_unit_52
I1018 00:03:00.010511 29782 net.cpp:406] lstm1_unit_52 <- c_51
I1018 00:03:00.010517 29782 net.cpp:406] lstm1_unit_52 <- gate_input_52
I1018 00:03:00.010524 29782 net.cpp:406] lstm1_unit_52 <- cont_52_lstm1_cont_slice_51_split_1
I1018 00:03:00.010534 29782 net.cpp:380] lstm1_unit_52 -> c_52
I1018 00:03:00.010566 29782 net.cpp:380] lstm1_unit_52 -> h_52
I1018 00:03:00.010624 29782 net.cpp:122] Setting up lstm1_unit_52
I1018 00:03:00.010632 29782 net.cpp:129] Top shape: 1 150 512 (76800)
I1018 00:03:00.010637 29782 net.cpp:129] Top shape: 1 150 512 (76800)
I1018 00:03:00.010643 29782 net.cpp:137] Memory required for data: 384768000
I1018 00:03:00.010646 29782 layer_factory.hpp:77] Creating layer h_52_lstm1_unit_52_1_split
I1018 00:03:00.010653 29782 net.cpp:84] Creating Layer h_52_lstm1_unit_52_1_split
I1018 00:03:00.010658 29782 net.cpp:406] h_52_lstm1_unit_52_1_split <- h_52
I1018 00:03:00.010666 29782 net.cpp:380] h_52_lstm1_unit_52_1_split -> h_52_lstm1_unit_52_1_split_0
I1018 00:03:00.010674 29782 net.cpp:380] h_52_lstm1_unit_52_1_split -> h_52_lstm1_unit_52_1_split_1
I1018 00:03:00.010713 29782 net.cpp:122] Setting up h_52_lstm1_unit_52_1_split
I1018 00:03:00.010720 29782 net.cpp:129] Top shape: 1 150 512 (76800)
I1018 00:03:00.010725 29782 net.cpp:129] Top shape: 1 150 512 (76800)
I1018 00:03:00.010730 29782 net.cpp:137] Memory required for data: 385382400
I1018 00:03:00.010748 29782 layer_factory.hpp:77] Creating layer lstm1_h_conted_52
I1018 00:03:00.010758 29782 net.cpp:84] Creating Layer lstm1_h_conted_52
I1018 00:03:00.010764 29782 net.cpp:406] lstm1_h_conted_52 <- h_52_lstm1_unit_52_1_split_0
I1018 00:03:00.010771 29782 net.cpp:406] lstm1_h_conted_52 <- cont_53_lstm1_cont_slice_52_split_0
I1018 00:03:00.010804 29782 net.cpp:380] lstm1_h_conted_52 -> h_conted_52
I1018 00:03:00.010880 29782 net.cpp:122] Setting up lstm1_h_conted_52
I1018 00:03:00.010888 29782 net.cpp:129] Top shape: 1 150 512 (76800)
I1018 00:03:00.010893 29782 net.cpp:137] Memory required for data: 385689600
I1018 00:03:00.010897 29782 layer_factory.hpp:77] Creating layer lstm1_transform_53
I1018 00:03:00.010907 29782 net.cpp:84] Creating Layer lstm1_transform_53
I1018 00:03:00.010913 29782 net.cpp:406] lstm1_transform_53 <- h_conted_52
I1018 00:03:00.010922 29782 net.cpp:380] lstm1_transform_53 -> W_hc_h_52
I1018 00:03:00.024338 29782 net.cpp:122] Setting up lstm1_transform_53
I1018 00:03:00.024361 29782 net.cpp:129] Top shape: 1 150 2048 (307200)
I1018 00:03:00.024366 29782 net.cpp:137] Memory required for data: 386918400
I1018 00:03:00.024372 29782 net.cpp:465] Sharing parameters 'W_hc' owned by layer 'lstm1_transform_1', param index 0
I1018 00:03:00.024377 29782 layer_factory.hpp:77] Creating layer lstm1_gate_input_53
I1018 00:03:00.024386 29782 net.cpp:84] Creating Layer lstm1_gate_input_53
I1018 00:03:00.024395 29782 net.cpp:406] lstm1_gate_input_53 <- W_hc_h_52
I1018 00:03:00.024402 29782 net.cpp:406] lstm1_gate_input_53 <- W_xc_x_53
I1018 00:03:00.024415 29782 net.cpp:380] lstm1_gate_input_53 -> gate_input_53
I1018 00:03:00.024467 29782 net.cpp:122] Setting up lstm1_gate_input_53
I1018 00:03:00.024478 29782 net.cpp:129] Top shape: 1 150 2048 (307200)
I1018 00:03:00.024483 29782 net.cpp:137] Memory required for data: 388147200
I1018 00:03:00.024488 29782 layer_factory.hpp:77] Creating layer lstm1_unit_53
I1018 00:03:00.024511 29782 net.cpp:84] Creating Layer lstm1_unit_53
I1018 00:03:00.024520 29782 net.cpp:406] lstm1_unit_53 <- c_52
I1018 00:03:00.024528 29782 net.cpp:406] lstm1_unit_53 <- gate_input_53
I1018 00:03:00.024534 29782 net.cpp:406] lstm1_unit_53 <- cont_53_lstm1_cont_slice_52_split_1
I1018 00:03:00.024541 29782 net.cpp:380] lstm1_unit_53 -> c_53
I1018 00:03:00.024564 29782 net.cpp:380] lstm1_unit_53 -> h_53
I1018 00:03:00.024624 29782 net.cpp:122] Setting up lstm1_unit_53
I1018 00:03:00.024638 29782 net.cpp:129] Top shape: 1 150 512 (76800)
I1018 00:03:00.024644 29782 net.cpp:129] Top shape: 1 150 512 (76800)
I1018 00:03:00.024688 29782 net.cpp:137] Memory required for data: 388761600
I1018 00:03:00.024693 29782 layer_factory.hpp:77] Creating layer h_53_lstm1_unit_53_1_split
I1018 00:03:00.024699 29782 net.cpp:84] Creating Layer h_53_lstm1_unit_53_1_split
I1018 00:03:00.024706 29782 net.cpp:406] h_53_lstm1_unit_53_1_split <- h_53
I1018 00:03:00.024714 29782 net.cpp:380] h_53_lstm1_unit_53_1_split -> h_53_lstm1_unit_53_1_split_0
I1018 00:03:00.024725 29782 net.cpp:380] h_53_lstm1_unit_53_1_split -> h_53_lstm1_unit_53_1_split_1
I1018 00:03:00.024775 29782 net.cpp:122] Setting up h_53_lstm1_unit_53_1_split
I1018 00:03:00.024786 29782 net.cpp:129] Top shape: 1 150 512 (76800)
I1018 00:03:00.024792 29782 net.cpp:129] Top shape: 1 150 512 (76800)
I1018 00:03:00.024798 29782 net.cpp:137] Memory required for data: 389376000
I1018 00:03:00.024802 29782 layer_factory.hpp:77] Creating layer lstm1_h_conted_53
I1018 00:03:00.024837 29782 net.cpp:84] Creating Layer lstm1_h_conted_53
I1018 00:03:00.024847 29782 net.cpp:406] lstm1_h_conted_53 <- h_53_lstm1_unit_53_1_split_0
I1018 00:03:00.024873 29782 net.cpp:406] lstm1_h_conted_53 <- cont_54_lstm1_cont_slice_53_split_0
I1018 00:03:00.024888 29782 net.cpp:380] lstm1_h_conted_53 -> h_conted_53
I1018 00:03:00.024971 29782 net.cpp:122] Setting up lstm1_h_conted_53
I1018 00:03:00.024981 29782 net.cpp:129] Top shape: 1 150 512 (76800)
I1018 00:03:00.024986 29782 net.cpp:137] Memory required for data: 389683200
I1018 00:03:00.024989 29782 layer_factory.hpp:77] Creating layer lstm1_transform_54
I1018 00:03:00.024998 29782 net.cpp:84] Creating Layer lstm1_transform_54
I1018 00:03:00.025005 29782 net.cpp:406] lstm1_transform_54 <- h_conted_53
I1018 00:03:00.025017 29782 net.cpp:380] lstm1_transform_54 -> W_hc_h_53
I1018 00:03:00.038245 29782 net.cpp:122] Setting up lstm1_transform_54
I1018 00:03:00.038264 29782 net.cpp:129] Top shape: 1 150 2048 (307200)
I1018 00:03:00.038269 29782 net.cpp:137] Memory required for data: 390912000
I1018 00:03:00.038275 29782 net.cpp:465] Sharing parameters 'W_hc' owned by layer 'lstm1_transform_1', param index 0
I1018 00:03:00.038280 29782 layer_factory.hpp:77] Creating layer lstm1_gate_input_54
I1018 00:03:00.038311 29782 net.cpp:84] Creating Layer lstm1_gate_input_54
I1018 00:03:00.038319 29782 net.cpp:406] lstm1_gate_input_54 <- W_hc_h_53
I1018 00:03:00.038329 29782 net.cpp:406] lstm1_gate_input_54 <- W_xc_x_54
I1018 00:03:00.038339 29782 net.cpp:380] lstm1_gate_input_54 -> gate_input_54
I1018 00:03:00.038388 29782 net.cpp:122] Setting up lstm1_gate_input_54
I1018 00:03:00.038399 29782 net.cpp:129] Top shape: 1 150 2048 (307200)
I1018 00:03:00.038404 29782 net.cpp:137] Memory required for data: 392140800
I1018 00:03:00.038409 29782 layer_factory.hpp:77] Creating layer lstm1_unit_54
I1018 00:03:00.038416 29782 net.cpp:84] Creating Layer lstm1_unit_54
I1018 00:03:00.038424 29782 net.cpp:406] lstm1_unit_54 <- c_53
I1018 00:03:00.038431 29782 net.cpp:406] lstm1_unit_54 <- gate_input_54
I1018 00:03:00.038437 29782 net.cpp:406] lstm1_unit_54 <- cont_54_lstm1_cont_slice_53_split_1
I1018 00:03:00.038445 29782 net.cpp:380] lstm1_unit_54 -> c_54
I1018 00:03:00.038453 29782 net.cpp:380] lstm1_unit_54 -> h_54
I1018 00:03:00.038511 29782 net.cpp:122] Setting up lstm1_unit_54
I1018 00:03:00.038522 29782 net.cpp:129] Top shape: 1 150 512 (76800)
I1018 00:03:00.038527 29782 net.cpp:129] Top shape: 1 150 512 (76800)
I1018 00:03:00.038532 29782 net.cpp:137] Memory required for data: 392755200
I1018 00:03:00.038537 29782 layer_factory.hpp:77] Creating layer h_54_lstm1_unit_54_1_split
I1018 00:03:00.038543 29782 net.cpp:84] Creating Layer h_54_lstm1_unit_54_1_split
I1018 00:03:00.038550 29782 net.cpp:406] h_54_lstm1_unit_54_1_split <- h_54
I1018 00:03:00.038558 29782 net.cpp:380] h_54_lstm1_unit_54_1_split -> h_54_lstm1_unit_54_1_split_0
I1018 00:03:00.038566 29782 net.cpp:380] h_54_lstm1_unit_54_1_split -> h_54_lstm1_unit_54_1_split_1
I1018 00:03:00.038611 29782 net.cpp:122] Setting up h_54_lstm1_unit_54_1_split
I1018 00:03:00.038621 29782 net.cpp:129] Top shape: 1 150 512 (76800)
I1018 00:03:00.038626 29782 net.cpp:129] Top shape: 1 150 512 (76800)
I1018 00:03:00.038631 29782 net.cpp:137] Memory required for data: 393369600
I1018 00:03:00.038635 29782 layer_factory.hpp:77] Creating layer lstm1_h_conted_54
I1018 00:03:00.038643 29782 net.cpp:84] Creating Layer lstm1_h_conted_54
I1018 00:03:00.038648 29782 net.cpp:406] lstm1_h_conted_54 <- h_54_lstm1_unit_54_1_split_0
I1018 00:03:00.038656 29782 net.cpp:406] lstm1_h_conted_54 <- cont_55_lstm1_cont_slice_54_split_0
I1018 00:03:00.038702 29782 net.cpp:380] lstm1_h_conted_54 -> h_conted_54
I1018 00:03:00.038785 29782 net.cpp:122] Setting up lstm1_h_conted_54
I1018 00:03:00.038795 29782 net.cpp:129] Top shape: 1 150 512 (76800)
I1018 00:03:00.038800 29782 net.cpp:137] Memory required for data: 393676800
I1018 00:03:00.038818 29782 layer_factory.hpp:77] Creating layer lstm1_transform_55
I1018 00:03:00.038830 29782 net.cpp:84] Creating Layer lstm1_transform_55
I1018 00:03:00.038836 29782 net.cpp:406] lstm1_transform_55 <- h_conted_54
I1018 00:03:00.038843 29782 net.cpp:380] lstm1_transform_55 -> W_hc_h_54
I1018 00:03:00.052181 29782 net.cpp:122] Setting up lstm1_transform_55
I1018 00:03:00.052206 29782 net.cpp:129] Top shape: 1 150 2048 (307200)
I1018 00:03:00.052211 29782 net.cpp:137] Memory required for data: 394905600
I1018 00:03:00.052217 29782 net.cpp:465] Sharing parameters 'W_hc' owned by layer 'lstm1_transform_1', param index 0
I1018 00:03:00.052222 29782 layer_factory.hpp:77] Creating layer lstm1_gate_input_55
I1018 00:03:00.052230 29782 net.cpp:84] Creating Layer lstm1_gate_input_55
I1018 00:03:00.052237 29782 net.cpp:406] lstm1_gate_input_55 <- W_hc_h_54
I1018 00:03:00.052243 29782 net.cpp:406] lstm1_gate_input_55 <- W_xc_x_55
I1018 00:03:00.052251 29782 net.cpp:380] lstm1_gate_input_55 -> gate_input_55
I1018 00:03:00.052286 29782 net.cpp:122] Setting up lstm1_gate_input_55
I1018 00:03:00.052296 29782 net.cpp:129] Top shape: 1 150 2048 (307200)
I1018 00:03:00.052301 29782 net.cpp:137] Memory required for data: 396134400
I1018 00:03:00.052305 29782 layer_factory.hpp:77] Creating layer lstm1_unit_55
I1018 00:03:00.052312 29782 net.cpp:84] Creating Layer lstm1_unit_55
I1018 00:03:00.052320 29782 net.cpp:406] lstm1_unit_55 <- c_54
I1018 00:03:00.052352 29782 net.cpp:406] lstm1_unit_55 <- gate_input_55
I1018 00:03:00.052361 29782 net.cpp:406] lstm1_unit_55 <- cont_55_lstm1_cont_slice_54_split_1
I1018 00:03:00.052368 29782 net.cpp:380] lstm1_unit_55 -> c_55
I1018 00:03:00.052381 29782 net.cpp:380] lstm1_unit_55 -> h_55
I1018 00:03:00.052436 29782 net.cpp:122] Setting up lstm1_unit_55
I1018 00:03:00.052445 29782 net.cpp:129] Top shape: 1 150 512 (76800)
I1018 00:03:00.052451 29782 net.cpp:129] Top shape: 1 150 512 (76800)
I1018 00:03:00.052455 29782 net.cpp:137] Memory required for data: 396748800
I1018 00:03:00.052460 29782 layer_factory.hpp:77] Creating layer h_55_lstm1_unit_55_1_split
I1018 00:03:00.052469 29782 net.cpp:84] Creating Layer h_55_lstm1_unit_55_1_split
I1018 00:03:00.052474 29782 net.cpp:406] h_55_lstm1_unit_55_1_split <- h_55
I1018 00:03:00.052481 29782 net.cpp:380] h_55_lstm1_unit_55_1_split -> h_55_lstm1_unit_55_1_split_0
I1018 00:03:00.052492 29782 net.cpp:380] h_55_lstm1_unit_55_1_split -> h_55_lstm1_unit_55_1_split_1
I1018 00:03:00.052531 29782 net.cpp:122] Setting up h_55_lstm1_unit_55_1_split
I1018 00:03:00.052539 29782 net.cpp:129] Top shape: 1 150 512 (76800)
I1018 00:03:00.052546 29782 net.cpp:129] Top shape: 1 150 512 (76800)
I1018 00:03:00.052549 29782 net.cpp:137] Memory required for data: 397363200
I1018 00:03:00.052572 29782 layer_factory.hpp:77] Creating layer lstm1_h_conted_55
I1018 00:03:00.052584 29782 net.cpp:84] Creating Layer lstm1_h_conted_55
I1018 00:03:00.052592 29782 net.cpp:406] lstm1_h_conted_55 <- h_55_lstm1_unit_55_1_split_0
I1018 00:03:00.052600 29782 net.cpp:406] lstm1_h_conted_55 <- cont_56_lstm1_cont_slice_55_split_0
I1018 00:03:00.052608 29782 net.cpp:380] lstm1_h_conted_55 -> h_conted_55
I1018 00:03:00.052685 29782 net.cpp:122] Setting up lstm1_h_conted_55
I1018 00:03:00.052695 29782 net.cpp:129] Top shape: 1 150 512 (76800)
I1018 00:03:00.052698 29782 net.cpp:137] Memory required for data: 397670400
I1018 00:03:00.052703 29782 layer_factory.hpp:77] Creating layer lstm1_transform_56
I1018 00:03:00.052713 29782 net.cpp:84] Creating Layer lstm1_transform_56
I1018 00:03:00.052721 29782 net.cpp:406] lstm1_transform_56 <- h_conted_55
I1018 00:03:00.052729 29782 net.cpp:380] lstm1_transform_56 -> W_hc_h_55
I1018 00:03:00.066193 29782 net.cpp:122] Setting up lstm1_transform_56
I1018 00:03:00.066212 29782 net.cpp:129] Top shape: 1 150 2048 (307200)
I1018 00:03:00.066218 29782 net.cpp:137] Memory required for data: 398899200
I1018 00:03:00.066226 29782 net.cpp:465] Sharing parameters 'W_hc' owned by layer 'lstm1_transform_1', param index 0
I1018 00:03:00.066232 29782 layer_factory.hpp:77] Creating layer lstm1_gate_input_56
I1018 00:03:00.066241 29782 net.cpp:84] Creating Layer lstm1_gate_input_56
I1018 00:03:00.066247 29782 net.cpp:406] lstm1_gate_input_56 <- W_hc_h_55
I1018 00:03:00.066254 29782 net.cpp:406] lstm1_gate_input_56 <- W_xc_x_56
I1018 00:03:00.066268 29782 net.cpp:380] lstm1_gate_input_56 -> gate_input_56
I1018 00:03:00.066318 29782 net.cpp:122] Setting up lstm1_gate_input_56
I1018 00:03:00.066329 29782 net.cpp:129] Top shape: 1 150 2048 (307200)
I1018 00:03:00.066334 29782 net.cpp:137] Memory required for data: 400128000
I1018 00:03:00.066339 29782 layer_factory.hpp:77] Creating layer lstm1_unit_56
I1018 00:03:00.066352 29782 net.cpp:84] Creating Layer lstm1_unit_56
I1018 00:03:00.066359 29782 net.cpp:406] lstm1_unit_56 <- c_55
I1018 00:03:00.066366 29782 net.cpp:406] lstm1_unit_56 <- gate_input_56
I1018 00:03:00.066372 29782 net.cpp:406] lstm1_unit_56 <- cont_56_lstm1_cont_slice_55_split_1
I1018 00:03:00.066380 29782 net.cpp:380] lstm1_unit_56 -> c_56
I1018 00:03:00.066390 29782 net.cpp:380] lstm1_unit_56 -> h_56
I1018 00:03:00.066445 29782 net.cpp:122] Setting up lstm1_unit_56
I1018 00:03:00.066455 29782 net.cpp:129] Top shape: 1 150 512 (76800)
I1018 00:03:00.066460 29782 net.cpp:129] Top shape: 1 150 512 (76800)
I1018 00:03:00.066465 29782 net.cpp:137] Memory required for data: 400742400
I1018 00:03:00.066470 29782 layer_factory.hpp:77] Creating layer h_56_lstm1_unit_56_1_split
I1018 00:03:00.066476 29782 net.cpp:84] Creating Layer h_56_lstm1_unit_56_1_split
I1018 00:03:00.066481 29782 net.cpp:406] h_56_lstm1_unit_56_1_split <- h_56
I1018 00:03:00.066499 29782 net.cpp:380] h_56_lstm1_unit_56_1_split -> h_56_lstm1_unit_56_1_split_0
I1018 00:03:00.066511 29782 net.cpp:380] h_56_lstm1_unit_56_1_split -> h_56_lstm1_unit_56_1_split_1
I1018 00:03:00.066552 29782 net.cpp:122] Setting up h_56_lstm1_unit_56_1_split
I1018 00:03:00.066560 29782 net.cpp:129] Top shape: 1 150 512 (76800)
I1018 00:03:00.066565 29782 net.cpp:129] Top shape: 1 150 512 (76800)
I1018 00:03:00.066570 29782 net.cpp:137] Memory required for data: 401356800
I1018 00:03:00.066575 29782 layer_factory.hpp:77] Creating layer lstm1_h_conted_56
I1018 00:03:00.066581 29782 net.cpp:84] Creating Layer lstm1_h_conted_56
I1018 00:03:00.066587 29782 net.cpp:406] lstm1_h_conted_56 <- h_56_lstm1_unit_56_1_split_0
I1018 00:03:00.066593 29782 net.cpp:406] lstm1_h_conted_56 <- cont_57_lstm1_cont_slice_56_split_0
I1018 00:03:00.066603 29782 net.cpp:380] lstm1_h_conted_56 -> h_conted_56
I1018 00:03:00.066685 29782 net.cpp:122] Setting up lstm1_h_conted_56
I1018 00:03:00.066695 29782 net.cpp:129] Top shape: 1 150 512 (76800)
I1018 00:03:00.066700 29782 net.cpp:137] Memory required for data: 401664000
I1018 00:03:00.066704 29782 layer_factory.hpp:77] Creating layer lstm1_transform_57
I1018 00:03:00.066714 29782 net.cpp:84] Creating Layer lstm1_transform_57
I1018 00:03:00.066720 29782 net.cpp:406] lstm1_transform_57 <- h_conted_56
I1018 00:03:00.066737 29782 net.cpp:380] lstm1_transform_57 -> W_hc_h_56
I1018 00:03:00.080061 29782 net.cpp:122] Setting up lstm1_transform_57
I1018 00:03:00.080080 29782 net.cpp:129] Top shape: 1 150 2048 (307200)
I1018 00:03:00.080085 29782 net.cpp:137] Memory required for data: 402892800
I1018 00:03:00.080091 29782 net.cpp:465] Sharing parameters 'W_hc' owned by layer 'lstm1_transform_1', param index 0
I1018 00:03:00.080096 29782 layer_factory.hpp:77] Creating layer lstm1_gate_input_57
I1018 00:03:00.080106 29782 net.cpp:84] Creating Layer lstm1_gate_input_57
I1018 00:03:00.080111 29782 net.cpp:406] lstm1_gate_input_57 <- W_hc_h_56
I1018 00:03:00.080119 29782 net.cpp:406] lstm1_gate_input_57 <- W_xc_x_57
I1018 00:03:00.080127 29782 net.cpp:380] lstm1_gate_input_57 -> gate_input_57
I1018 00:03:00.080160 29782 net.cpp:122] Setting up lstm1_gate_input_57
I1018 00:03:00.080168 29782 net.cpp:129] Top shape: 1 150 2048 (307200)
I1018 00:03:00.080173 29782 net.cpp:137] Memory required for data: 404121600
I1018 00:03:00.080178 29782 layer_factory.hpp:77] Creating layer lstm1_unit_57
I1018 00:03:00.080188 29782 net.cpp:84] Creating Layer lstm1_unit_57
I1018 00:03:00.080193 29782 net.cpp:406] lstm1_unit_57 <- c_56
I1018 00:03:00.080200 29782 net.cpp:406] lstm1_unit_57 <- gate_input_57
I1018 00:03:00.080206 29782 net.cpp:406] lstm1_unit_57 <- cont_57_lstm1_cont_slice_56_split_1
I1018 00:03:00.080214 29782 net.cpp:380] lstm1_unit_57 -> c_57
I1018 00:03:00.080246 29782 net.cpp:380] lstm1_unit_57 -> h_57
I1018 00:03:00.080307 29782 net.cpp:122] Setting up lstm1_unit_57
I1018 00:03:00.080317 29782 net.cpp:129] Top shape: 1 150 512 (76800)
I1018 00:03:00.080323 29782 net.cpp:129] Top shape: 1 150 512 (76800)
I1018 00:03:00.080327 29782 net.cpp:137] Memory required for data: 404736000
I1018 00:03:00.080332 29782 layer_factory.hpp:77] Creating layer h_57_lstm1_unit_57_1_split
I1018 00:03:00.080339 29782 net.cpp:84] Creating Layer h_57_lstm1_unit_57_1_split
I1018 00:03:00.080344 29782 net.cpp:406] h_57_lstm1_unit_57_1_split <- h_57
I1018 00:03:00.080354 29782 net.cpp:380] h_57_lstm1_unit_57_1_split -> h_57_lstm1_unit_57_1_split_0
I1018 00:03:00.080363 29782 net.cpp:380] h_57_lstm1_unit_57_1_split -> h_57_lstm1_unit_57_1_split_1
I1018 00:03:00.080400 29782 net.cpp:122] Setting up h_57_lstm1_unit_57_1_split
I1018 00:03:00.080410 29782 net.cpp:129] Top shape: 1 150 512 (76800)
I1018 00:03:00.080415 29782 net.cpp:129] Top shape: 1 150 512 (76800)
I1018 00:03:00.080420 29782 net.cpp:137] Memory required for data: 405350400
I1018 00:03:00.080425 29782 layer_factory.hpp:77] Creating layer lstm1_h_conted_57
I1018 00:03:00.080436 29782 net.cpp:84] Creating Layer lstm1_h_conted_57
I1018 00:03:00.080446 29782 net.cpp:406] lstm1_h_conted_57 <- h_57_lstm1_unit_57_1_split_0
I1018 00:03:00.080472 29782 net.cpp:406] lstm1_h_conted_57 <- cont_58_lstm1_cont_slice_57_split_0
I1018 00:03:00.080482 29782 net.cpp:380] lstm1_h_conted_57 -> h_conted_57
I1018 00:03:00.080559 29782 net.cpp:122] Setting up lstm1_h_conted_57
I1018 00:03:00.080569 29782 net.cpp:129] Top shape: 1 150 512 (76800)
I1018 00:03:00.080574 29782 net.cpp:137] Memory required for data: 405657600
I1018 00:03:00.080597 29782 layer_factory.hpp:77] Creating layer lstm1_transform_58
I1018 00:03:00.080611 29782 net.cpp:84] Creating Layer lstm1_transform_58
I1018 00:03:00.080617 29782 net.cpp:406] lstm1_transform_58 <- h_conted_57
I1018 00:03:00.080626 29782 net.cpp:380] lstm1_transform_58 -> W_hc_h_57
I1018 00:03:00.092857 29782 net.cpp:122] Setting up lstm1_transform_58
I1018 00:03:00.092876 29782 net.cpp:129] Top shape: 1 150 2048 (307200)
I1018 00:03:00.092881 29782 net.cpp:137] Memory required for data: 406886400
I1018 00:03:00.092887 29782 net.cpp:465] Sharing parameters 'W_hc' owned by layer 'lstm1_transform_1', param index 0
I1018 00:03:00.092892 29782 layer_factory.hpp:77] Creating layer lstm1_gate_input_58
I1018 00:03:00.092905 29782 net.cpp:84] Creating Layer lstm1_gate_input_58
I1018 00:03:00.092911 29782 net.cpp:406] lstm1_gate_input_58 <- W_hc_h_57
I1018 00:03:00.092921 29782 net.cpp:406] lstm1_gate_input_58 <- W_xc_x_58
I1018 00:03:00.092927 29782 net.cpp:380] lstm1_gate_input_58 -> gate_input_58
I1018 00:03:00.092972 29782 net.cpp:122] Setting up lstm1_gate_input_58
I1018 00:03:00.092983 29782 net.cpp:129] Top shape: 1 150 2048 (307200)
I1018 00:03:00.092986 29782 net.cpp:137] Memory required for data: 408115200
I1018 00:03:00.092990 29782 layer_factory.hpp:77] Creating layer lstm1_unit_58
I1018 00:03:00.092998 29782 net.cpp:84] Creating Layer lstm1_unit_58
I1018 00:03:00.093003 29782 net.cpp:406] lstm1_unit_58 <- c_57
I1018 00:03:00.093010 29782 net.cpp:406] lstm1_unit_58 <- gate_input_58
I1018 00:03:00.093016 29782 net.cpp:406] lstm1_unit_58 <- cont_58_lstm1_cont_slice_57_split_1
I1018 00:03:00.093025 29782 net.cpp:380] lstm1_unit_58 -> c_58
I1018 00:03:00.093034 29782 net.cpp:380] lstm1_unit_58 -> h_58
I1018 00:03:00.093085 29782 net.cpp:122] Setting up lstm1_unit_58
I1018 00:03:00.093093 29782 net.cpp:129] Top shape: 1 150 512 (76800)
I1018 00:03:00.093098 29782 net.cpp:129] Top shape: 1 150 512 (76800)
I1018 00:03:00.093102 29782 net.cpp:137] Memory required for data: 408729600
I1018 00:03:00.093107 29782 layer_factory.hpp:77] Creating layer h_58_lstm1_unit_58_1_split
I1018 00:03:00.093113 29782 net.cpp:84] Creating Layer h_58_lstm1_unit_58_1_split
I1018 00:03:00.093118 29782 net.cpp:406] h_58_lstm1_unit_58_1_split <- h_58
I1018 00:03:00.093124 29782 net.cpp:380] h_58_lstm1_unit_58_1_split -> h_58_lstm1_unit_58_1_split_0
I1018 00:03:00.093132 29782 net.cpp:380] h_58_lstm1_unit_58_1_split -> h_58_lstm1_unit_58_1_split_1
I1018 00:03:00.093169 29782 net.cpp:122] Setting up h_58_lstm1_unit_58_1_split
I1018 00:03:00.093178 29782 net.cpp:129] Top shape: 1 150 512 (76800)
I1018 00:03:00.093183 29782 net.cpp:129] Top shape: 1 150 512 (76800)
I1018 00:03:00.093186 29782 net.cpp:137] Memory required for data: 409344000
I1018 00:03:00.093199 29782 layer_factory.hpp:77] Creating layer lstm1_h_conted_58
I1018 00:03:00.093209 29782 net.cpp:84] Creating Layer lstm1_h_conted_58
I1018 00:03:00.093214 29782 net.cpp:406] lstm1_h_conted_58 <- h_58_lstm1_unit_58_1_split_0
I1018 00:03:00.093220 29782 net.cpp:406] lstm1_h_conted_58 <- cont_59_lstm1_cont_slice_58_split_0
I1018 00:03:00.093228 29782 net.cpp:380] lstm1_h_conted_58 -> h_conted_58
I1018 00:03:00.093308 29782 net.cpp:122] Setting up lstm1_h_conted_58
I1018 00:03:00.093318 29782 net.cpp:129] Top shape: 1 150 512 (76800)
I1018 00:03:00.093322 29782 net.cpp:137] Memory required for data: 409651200
I1018 00:03:00.093327 29782 layer_factory.hpp:77] Creating layer lstm1_transform_59
I1018 00:03:00.093338 29782 net.cpp:84] Creating Layer lstm1_transform_59
I1018 00:03:00.093343 29782 net.cpp:406] lstm1_transform_59 <- h_conted_58
I1018 00:03:00.093351 29782 net.cpp:380] lstm1_transform_59 -> W_hc_h_58
I1018 00:03:00.119442 29782 net.cpp:122] Setting up lstm1_transform_59
I1018 00:03:00.119467 29782 net.cpp:129] Top shape: 1 150 2048 (307200)
I1018 00:03:00.119472 29782 net.cpp:137] Memory required for data: 410880000
I1018 00:03:00.119480 29782 net.cpp:465] Sharing parameters 'W_hc' owned by layer 'lstm1_transform_1', param index 0
I1018 00:03:00.119487 29782 layer_factory.hpp:77] Creating layer lstm1_gate_input_59
I1018 00:03:00.119498 29782 net.cpp:84] Creating Layer lstm1_gate_input_59
I1018 00:03:00.119508 29782 net.cpp:406] lstm1_gate_input_59 <- W_hc_h_58
I1018 00:03:00.119518 29782 net.cpp:406] lstm1_gate_input_59 <- W_xc_x_59
I1018 00:03:00.119526 29782 net.cpp:380] lstm1_gate_input_59 -> gate_input_59
I1018 00:03:00.119565 29782 net.cpp:122] Setting up lstm1_gate_input_59
I1018 00:03:00.119575 29782 net.cpp:129] Top shape: 1 150 2048 (307200)
I1018 00:03:00.119578 29782 net.cpp:137] Memory required for data: 412108800
I1018 00:03:00.119582 29782 layer_factory.hpp:77] Creating layer lstm1_unit_59
I1018 00:03:00.119603 29782 net.cpp:84] Creating Layer lstm1_unit_59
I1018 00:03:00.119612 29782 net.cpp:406] lstm1_unit_59 <- c_58
I1018 00:03:00.119619 29782 net.cpp:406] lstm1_unit_59 <- gate_input_59
I1018 00:03:00.119626 29782 net.cpp:406] lstm1_unit_59 <- cont_59_lstm1_cont_slice_58_split_1
I1018 00:03:00.119634 29782 net.cpp:380] lstm1_unit_59 -> c_59
I1018 00:03:00.119643 29782 net.cpp:380] lstm1_unit_59 -> h_59
I1018 00:03:00.119698 29782 net.cpp:122] Setting up lstm1_unit_59
I1018 00:03:00.119706 29782 net.cpp:129] Top shape: 1 150 512 (76800)
I1018 00:03:00.119711 29782 net.cpp:129] Top shape: 1 150 512 (76800)
I1018 00:03:00.119719 29782 net.cpp:137] Memory required for data: 412723200
I1018 00:03:00.119724 29782 layer_factory.hpp:77] Creating layer h_59_lstm1_unit_59_1_split
I1018 00:03:00.119730 29782 net.cpp:84] Creating Layer h_59_lstm1_unit_59_1_split
I1018 00:03:00.119735 29782 net.cpp:406] h_59_lstm1_unit_59_1_split <- h_59
I1018 00:03:00.119742 29782 net.cpp:380] h_59_lstm1_unit_59_1_split -> h_59_lstm1_unit_59_1_split_0
I1018 00:03:00.119751 29782 net.cpp:380] h_59_lstm1_unit_59_1_split -> h_59_lstm1_unit_59_1_split_1
I1018 00:03:00.119791 29782 net.cpp:122] Setting up h_59_lstm1_unit_59_1_split
I1018 00:03:00.119799 29782 net.cpp:129] Top shape: 1 150 512 (76800)
I1018 00:03:00.119804 29782 net.cpp:129] Top shape: 1 150 512 (76800)
I1018 00:03:00.119808 29782 net.cpp:137] Memory required for data: 413337600
I1018 00:03:00.119812 29782 layer_factory.hpp:77] Creating layer lstm1_h_conted_59
I1018 00:03:00.119820 29782 net.cpp:84] Creating Layer lstm1_h_conted_59
I1018 00:03:00.119825 29782 net.cpp:406] lstm1_h_conted_59 <- h_59_lstm1_unit_59_1_split_0
I1018 00:03:00.119849 29782 net.cpp:406] lstm1_h_conted_59 <- cont_60_lstm1_cont_slice_59_split_0
I1018 00:03:00.119861 29782 net.cpp:380] lstm1_h_conted_59 -> h_conted_59
I1018 00:03:00.119947 29782 net.cpp:122] Setting up lstm1_h_conted_59
I1018 00:03:00.119956 29782 net.cpp:129] Top shape: 1 150 512 (76800)
I1018 00:03:00.119961 29782 net.cpp:137] Memory required for data: 413644800
I1018 00:03:00.119966 29782 layer_factory.hpp:77] Creating layer lstm1_transform_60
I1018 00:03:00.119974 29782 net.cpp:84] Creating Layer lstm1_transform_60
I1018 00:03:00.119979 29782 net.cpp:406] lstm1_transform_60 <- h_conted_59
I1018 00:03:00.119989 29782 net.cpp:380] lstm1_transform_60 -> W_hc_h_59
I1018 00:03:00.133035 29782 net.cpp:122] Setting up lstm1_transform_60
I1018 00:03:00.133057 29782 net.cpp:129] Top shape: 1 150 2048 (307200)
I1018 00:03:00.133062 29782 net.cpp:137] Memory required for data: 414873600
I1018 00:03:00.133069 29782 net.cpp:465] Sharing parameters 'W_hc' owned by layer 'lstm1_transform_1', param index 0
I1018 00:03:00.133074 29782 layer_factory.hpp:77] Creating layer lstm1_gate_input_60
I1018 00:03:00.133095 29782 net.cpp:84] Creating Layer lstm1_gate_input_60
I1018 00:03:00.133102 29782 net.cpp:406] lstm1_gate_input_60 <- W_hc_h_59
I1018 00:03:00.133111 29782 net.cpp:406] lstm1_gate_input_60 <- W_xc_x_60
I1018 00:03:00.133121 29782 net.cpp:380] lstm1_gate_input_60 -> gate_input_60
I1018 00:03:00.133155 29782 net.cpp:122] Setting up lstm1_gate_input_60
I1018 00:03:00.133165 29782 net.cpp:129] Top shape: 1 150 2048 (307200)
I1018 00:03:00.133229 29782 net.cpp:137] Memory required for data: 416102400
I1018 00:03:00.133253 29782 layer_factory.hpp:77] Creating layer lstm1_unit_60
I1018 00:03:00.133380 29782 net.cpp:84] Creating Layer lstm1_unit_60
I1018 00:03:00.133433 29782 net.cpp:406] lstm1_unit_60 <- c_59
I1018 00:03:00.133533 29782 net.cpp:406] lstm1_unit_60 <- gate_input_60
I1018 00:03:00.133617 29782 net.cpp:406] lstm1_unit_60 <- cont_60_lstm1_cont_slice_59_split_1
I1018 00:03:00.134117 29782 net.cpp:380] lstm1_unit_60 -> c_60
I1018 00:03:00.134439 29782 net.cpp:380] lstm1_unit_60 -> h_60
I1018 00:03:00.134598 29782 net.cpp:122] Setting up lstm1_unit_60
I1018 00:03:00.134608 29782 net.cpp:129] Top shape: 1 150 512 (76800)
I1018 00:03:00.134614 29782 net.cpp:129] Top shape: 1 150 512 (76800)
I1018 00:03:00.134618 29782 net.cpp:137] Memory required for data: 416716800
I1018 00:03:00.134623 29782 layer_factory.hpp:77] Creating layer h_60_lstm1_unit_60_1_split
I1018 00:03:00.134629 29782 net.cpp:84] Creating Layer h_60_lstm1_unit_60_1_split
I1018 00:03:00.134634 29782 net.cpp:406] h_60_lstm1_unit_60_1_split <- h_60
I1018 00:03:00.134640 29782 net.cpp:380] h_60_lstm1_unit_60_1_split -> h_60_lstm1_unit_60_1_split_0
I1018 00:03:00.134649 29782 net.cpp:380] h_60_lstm1_unit_60_1_split -> h_60_lstm1_unit_60_1_split_1
I1018 00:03:00.134685 29782 net.cpp:122] Setting up h_60_lstm1_unit_60_1_split
I1018 00:03:00.134692 29782 net.cpp:129] Top shape: 1 150 512 (76800)
I1018 00:03:00.134697 29782 net.cpp:129] Top shape: 1 150 512 (76800)
I1018 00:03:00.134701 29782 net.cpp:137] Memory required for data: 417331200
I1018 00:03:00.134706 29782 layer_factory.hpp:77] Creating layer lstm1_h_conted_60
I1018 00:03:00.134713 29782 net.cpp:84] Creating Layer lstm1_h_conted_60
I1018 00:03:00.134718 29782 net.cpp:406] lstm1_h_conted_60 <- h_60_lstm1_unit_60_1_split_0
I1018 00:03:00.134726 29782 net.cpp:406] lstm1_h_conted_60 <- cont_61_lstm1_cont_slice_60_split_0
I1018 00:03:00.134742 29782 net.cpp:380] lstm1_h_conted_60 -> h_conted_60
I1018 00:03:00.134858 29782 net.cpp:122] Setting up lstm1_h_conted_60
I1018 00:03:00.134867 29782 net.cpp:129] Top shape: 1 150 512 (76800)
I1018 00:03:00.134871 29782 net.cpp:137] Memory required for data: 417638400
I1018 00:03:00.135159 29782 layer_factory.hpp:77] Creating layer lstm1_transform_61
I1018 00:03:00.135478 29782 net.cpp:84] Creating Layer lstm1_transform_61
I1018 00:03:00.135541 29782 net.cpp:406] lstm1_transform_61 <- h_conted_60
I1018 00:03:00.135774 29782 net.cpp:380] lstm1_transform_61 -> W_hc_h_60
I1018 00:03:00.159997 29782 net.cpp:122] Setting up lstm1_transform_61
I1018 00:03:00.160051 29782 net.cpp:129] Top shape: 1 150 2048 (307200)
I1018 00:03:00.160058 29782 net.cpp:137] Memory required for data: 418867200
I1018 00:03:00.160066 29782 net.cpp:465] Sharing parameters 'W_hc' owned by layer 'lstm1_transform_1', param index 0
I1018 00:03:00.160074 29782 layer_factory.hpp:77] Creating layer lstm1_gate_input_61
I1018 00:03:00.160089 29782 net.cpp:84] Creating Layer lstm1_gate_input_61
I1018 00:03:00.160104 29782 net.cpp:406] lstm1_gate_input_61 <- W_hc_h_60
I1018 00:03:00.160114 29782 net.cpp:406] lstm1_gate_input_61 <- W_xc_x_61
I1018 00:03:00.160125 29782 net.cpp:380] lstm1_gate_input_61 -> gate_input_61
I1018 00:03:00.160177 29782 net.cpp:122] Setting up lstm1_gate_input_61
I1018 00:03:00.160188 29782 net.cpp:129] Top shape: 1 150 2048 (307200)
I1018 00:03:00.160193 29782 net.cpp:137] Memory required for data: 420096000
I1018 00:03:00.160197 29782 layer_factory.hpp:77] Creating layer lstm1_unit_61
I1018 00:03:00.160212 29782 net.cpp:84] Creating Layer lstm1_unit_61
I1018 00:03:00.160218 29782 net.cpp:406] lstm1_unit_61 <- c_60
I1018 00:03:00.160225 29782 net.cpp:406] lstm1_unit_61 <- gate_input_61
I1018 00:03:00.160231 29782 net.cpp:406] lstm1_unit_61 <- cont_61_lstm1_cont_slice_60_split_1
I1018 00:03:00.160238 29782 net.cpp:380] lstm1_unit_61 -> c_61
I1018 00:03:00.160248 29782 net.cpp:380] lstm1_unit_61 -> h_61
I1018 00:03:00.160306 29782 net.cpp:122] Setting up lstm1_unit_61
I1018 00:03:00.160315 29782 net.cpp:129] Top shape: 1 150 512 (76800)
I1018 00:03:00.160320 29782 net.cpp:129] Top shape: 1 150 512 (76800)
I1018 00:03:00.160325 29782 net.cpp:137] Memory required for data: 420710400
I1018 00:03:00.160328 29782 layer_factory.hpp:77] Creating layer h_61_lstm1_unit_61_1_split
I1018 00:03:00.160337 29782 net.cpp:84] Creating Layer h_61_lstm1_unit_61_1_split
I1018 00:03:00.160342 29782 net.cpp:406] h_61_lstm1_unit_61_1_split <- h_61
I1018 00:03:00.160349 29782 net.cpp:380] h_61_lstm1_unit_61_1_split -> h_61_lstm1_unit_61_1_split_0
I1018 00:03:00.160357 29782 net.cpp:380] h_61_lstm1_unit_61_1_split -> h_61_lstm1_unit_61_1_split_1
I1018 00:03:00.160395 29782 net.cpp:122] Setting up h_61_lstm1_unit_61_1_split
I1018 00:03:00.160403 29782 net.cpp:129] Top shape: 1 150 512 (76800)
I1018 00:03:00.160408 29782 net.cpp:129] Top shape: 1 150 512 (76800)
I1018 00:03:00.160413 29782 net.cpp:137] Memory required for data: 421324800
I1018 00:03:00.160418 29782 layer_factory.hpp:77] Creating layer lstm1_h_conted_61
I1018 00:03:00.160430 29782 net.cpp:84] Creating Layer lstm1_h_conted_61
I1018 00:03:00.160435 29782 net.cpp:406] lstm1_h_conted_61 <- h_61_lstm1_unit_61_1_split_0
I1018 00:03:00.160456 29782 net.cpp:406] lstm1_h_conted_61 <- cont_62_lstm1_cont_slice_61_split_0
I1018 00:03:00.160471 29782 net.cpp:380] lstm1_h_conted_61 -> h_conted_61
I1018 00:03:00.160588 29782 net.cpp:122] Setting up lstm1_h_conted_61
I1018 00:03:00.160601 29782 net.cpp:129] Top shape: 1 150 512 (76800)
I1018 00:03:00.160609 29782 net.cpp:137] Memory required for data: 421632000
I1018 00:03:00.160615 29782 layer_factory.hpp:77] Creating layer lstm1_transform_62
I1018 00:03:00.160631 29782 net.cpp:84] Creating Layer lstm1_transform_62
I1018 00:03:00.160642 29782 net.cpp:406] lstm1_transform_62 <- h_conted_61
I1018 00:03:00.160660 29782 net.cpp:380] lstm1_transform_62 -> W_hc_h_61
I1018 00:03:00.186151 29782 net.cpp:122] Setting up lstm1_transform_62
I1018 00:03:00.186180 29782 net.cpp:129] Top shape: 1 150 2048 (307200)
I1018 00:03:00.186185 29782 net.cpp:137] Memory required for data: 422860800
I1018 00:03:00.186195 29782 net.cpp:465] Sharing parameters 'W_hc' owned by layer 'lstm1_transform_1', param index 0
I1018 00:03:00.186203 29782 layer_factory.hpp:77] Creating layer lstm1_gate_input_62
I1018 00:03:00.186215 29782 net.cpp:84] Creating Layer lstm1_gate_input_62
I1018 00:03:00.186224 29782 net.cpp:406] lstm1_gate_input_62 <- W_hc_h_61
I1018 00:03:00.186235 29782 net.cpp:406] lstm1_gate_input_62 <- W_xc_x_62
I1018 00:03:00.186245 29782 net.cpp:380] lstm1_gate_input_62 -> gate_input_62
I1018 00:03:00.186306 29782 net.cpp:122] Setting up lstm1_gate_input_62
I1018 00:03:00.186317 29782 net.cpp:129] Top shape: 1 150 2048 (307200)
I1018 00:03:00.186321 29782 net.cpp:137] Memory required for data: 424089600
I1018 00:03:00.186326 29782 layer_factory.hpp:77] Creating layer lstm1_unit_62
I1018 00:03:00.186341 29782 net.cpp:84] Creating Layer lstm1_unit_62
I1018 00:03:00.186347 29782 net.cpp:406] lstm1_unit_62 <- c_61
I1018 00:03:00.186355 29782 net.cpp:406] lstm1_unit_62 <- gate_input_62
I1018 00:03:00.186362 29782 net.cpp:406] lstm1_unit_62 <- cont_62_lstm1_cont_slice_61_split_1
I1018 00:03:00.186368 29782 net.cpp:380] lstm1_unit_62 -> c_62
I1018 00:03:00.186385 29782 net.cpp:380] lstm1_unit_62 -> h_62
I1018 00:03:00.186445 29782 net.cpp:122] Setting up lstm1_unit_62
I1018 00:03:00.186453 29782 net.cpp:129] Top shape: 1 150 512 (76800)
I1018 00:03:00.186458 29782 net.cpp:129] Top shape: 1 150 512 (76800)
I1018 00:03:00.186463 29782 net.cpp:137] Memory required for data: 424704000
I1018 00:03:00.186467 29782 layer_factory.hpp:77] Creating layer h_62_lstm1_unit_62_1_split
I1018 00:03:00.186475 29782 net.cpp:84] Creating Layer h_62_lstm1_unit_62_1_split
I1018 00:03:00.186480 29782 net.cpp:406] h_62_lstm1_unit_62_1_split <- h_62
I1018 00:03:00.186487 29782 net.cpp:380] h_62_lstm1_unit_62_1_split -> h_62_lstm1_unit_62_1_split_0
I1018 00:03:00.186496 29782 net.cpp:380] h_62_lstm1_unit_62_1_split -> h_62_lstm1_unit_62_1_split_1
I1018 00:03:00.186542 29782 net.cpp:122] Setting up h_62_lstm1_unit_62_1_split
I1018 00:03:00.186552 29782 net.cpp:129] Top shape: 1 150 512 (76800)
I1018 00:03:00.186556 29782 net.cpp:129] Top shape: 1 150 512 (76800)
I1018 00:03:00.186560 29782 net.cpp:137] Memory required for data: 425318400
I1018 00:03:00.186564 29782 layer_factory.hpp:77] Creating layer lstm1_h_conted_62
I1018 00:03:00.186573 29782 net.cpp:84] Creating Layer lstm1_h_conted_62
I1018 00:03:00.186580 29782 net.cpp:406] lstm1_h_conted_62 <- h_62_lstm1_unit_62_1_split_0
I1018 00:03:00.186599 29782 net.cpp:406] lstm1_h_conted_62 <- cont_63_lstm1_cont_slice_62_split_0
I1018 00:03:00.186609 29782 net.cpp:380] lstm1_h_conted_62 -> h_conted_62
I1018 00:03:00.186707 29782 net.cpp:122] Setting up lstm1_h_conted_62
I1018 00:03:00.186714 29782 net.cpp:129] Top shape: 1 150 512 (76800)
I1018 00:03:00.186719 29782 net.cpp:137] Memory required for data: 425625600
I1018 00:03:00.186723 29782 layer_factory.hpp:77] Creating layer lstm1_transform_63
I1018 00:03:00.186733 29782 net.cpp:84] Creating Layer lstm1_transform_63
I1018 00:03:00.186740 29782 net.cpp:406] lstm1_transform_63 <- h_conted_62
I1018 00:03:00.186748 29782 net.cpp:380] lstm1_transform_63 -> W_hc_h_62
I1018 00:03:00.198684 29782 net.cpp:122] Setting up lstm1_transform_63
I1018 00:03:00.198714 29782 net.cpp:129] Top shape: 1 150 2048 (307200)
I1018 00:03:00.198721 29782 net.cpp:137] Memory required for data: 426854400
I1018 00:03:00.198828 29782 net.cpp:465] Sharing parameters 'W_hc' owned by layer 'lstm1_transform_1', param index 0
I1018 00:03:00.198843 29782 layer_factory.hpp:77] Creating layer lstm1_gate_input_63
I1018 00:03:00.198863 29782 net.cpp:84] Creating Layer lstm1_gate_input_63
I1018 00:03:00.198878 29782 net.cpp:406] lstm1_gate_input_63 <- W_hc_h_62
I1018 00:03:00.198894 29782 net.cpp:406] lstm1_gate_input_63 <- W_xc_x_63
I1018 00:03:00.198925 29782 net.cpp:380] lstm1_gate_input_63 -> gate_input_63
I1018 00:03:00.198979 29782 net.cpp:122] Setting up lstm1_gate_input_63
I1018 00:03:00.198992 29782 net.cpp:129] Top shape: 1 150 2048 (307200)
I1018 00:03:00.198999 29782 net.cpp:137] Memory required for data: 428083200
I1018 00:03:00.199007 29782 layer_factory.hpp:77] Creating layer lstm1_unit_63
I1018 00:03:00.199040 29782 net.cpp:84] Creating Layer lstm1_unit_63
I1018 00:03:00.199051 29782 net.cpp:406] lstm1_unit_63 <- c_62
I1018 00:03:00.199074 29782 net.cpp:406] lstm1_unit_63 <- gate_input_63
I1018 00:03:00.199086 29782 net.cpp:406] lstm1_unit_63 <- cont_63_lstm1_cont_slice_62_split_1
I1018 00:03:00.199100 29782 net.cpp:380] lstm1_unit_63 -> c_63
I1018 00:03:00.199120 29782 net.cpp:380] lstm1_unit_63 -> h_63
I1018 00:03:00.199196 29782 net.cpp:122] Setting up lstm1_unit_63
I1018 00:03:00.199209 29782 net.cpp:129] Top shape: 1 150 512 (76800)
I1018 00:03:00.199218 29782 net.cpp:129] Top shape: 1 150 512 (76800)
I1018 00:03:00.199245 29782 net.cpp:137] Memory required for data: 428697600
I1018 00:03:00.199254 29782 layer_factory.hpp:77] Creating layer h_63_lstm1_unit_63_1_split
I1018 00:03:00.199265 29782 net.cpp:84] Creating Layer h_63_lstm1_unit_63_1_split
I1018 00:03:00.199291 29782 net.cpp:406] h_63_lstm1_unit_63_1_split <- h_63
I1018 00:03:00.199304 29782 net.cpp:380] h_63_lstm1_unit_63_1_split -> h_63_lstm1_unit_63_1_split_0
I1018 00:03:00.199335 29782 net.cpp:380] h_63_lstm1_unit_63_1_split -> h_63_lstm1_unit_63_1_split_1
I1018 00:03:00.199400 29782 net.cpp:122] Setting up h_63_lstm1_unit_63_1_split
I1018 00:03:00.199415 29782 net.cpp:129] Top shape: 1 150 512 (76800)
I1018 00:03:00.199424 29782 net.cpp:129] Top shape: 1 150 512 (76800)
I1018 00:03:00.199429 29782 net.cpp:137] Memory required for data: 429312000
I1018 00:03:00.199435 29782 layer_factory.hpp:77] Creating layer lstm1_h_conted_63
I1018 00:03:00.199447 29782 net.cpp:84] Creating Layer lstm1_h_conted_63
I1018 00:03:00.199455 29782 net.cpp:406] lstm1_h_conted_63 <- h_63_lstm1_unit_63_1_split_0
I1018 00:03:00.199465 29782 net.cpp:406] lstm1_h_conted_63 <- cont_64_lstm1_cont_slice_63_split_0
I1018 00:03:00.199479 29782 net.cpp:380] lstm1_h_conted_63 -> h_conted_63
I1018 00:03:00.199604 29782 net.cpp:122] Setting up lstm1_h_conted_63
I1018 00:03:00.199616 29782 net.cpp:129] Top shape: 1 150 512 (76800)
I1018 00:03:00.199622 29782 net.cpp:137] Memory required for data: 429619200
I1018 00:03:00.199640 29782 layer_factory.hpp:77] Creating layer lstm1_transform_64
I1018 00:03:00.199656 29782 net.cpp:84] Creating Layer lstm1_transform_64
I1018 00:03:00.199684 29782 net.cpp:406] lstm1_transform_64 <- h_conted_63
I1018 00:03:00.199715 29782 net.cpp:380] lstm1_transform_64 -> W_hc_h_63
I1018 00:03:00.226254 29782 net.cpp:122] Setting up lstm1_transform_64
I1018 00:03:00.226286 29782 net.cpp:129] Top shape: 1 150 2048 (307200)
I1018 00:03:00.226291 29782 net.cpp:137] Memory required for data: 430848000
I1018 00:03:00.226300 29782 net.cpp:465] Sharing parameters 'W_hc' owned by layer 'lstm1_transform_1', param index 0
I1018 00:03:00.226306 29782 layer_factory.hpp:77] Creating layer lstm1_gate_input_64
I1018 00:03:00.226320 29782 net.cpp:84] Creating Layer lstm1_gate_input_64
I1018 00:03:00.226328 29782 net.cpp:406] lstm1_gate_input_64 <- W_hc_h_63
I1018 00:03:00.226352 29782 net.cpp:406] lstm1_gate_input_64 <- W_xc_x_64
I1018 00:03:00.226392 29782 net.cpp:380] lstm1_gate_input_64 -> gate_input_64
I1018 00:03:00.226440 29782 net.cpp:122] Setting up lstm1_gate_input_64
I1018 00:03:00.226449 29782 net.cpp:129] Top shape: 1 150 2048 (307200)
I1018 00:03:00.226454 29782 net.cpp:137] Memory required for data: 432076800
I1018 00:03:00.226457 29782 layer_factory.hpp:77] Creating layer lstm1_unit_64
I1018 00:03:00.226467 29782 net.cpp:84] Creating Layer lstm1_unit_64
I1018 00:03:00.226475 29782 net.cpp:406] lstm1_unit_64 <- c_63
I1018 00:03:00.226480 29782 net.cpp:406] lstm1_unit_64 <- gate_input_64
I1018 00:03:00.226486 29782 net.cpp:406] lstm1_unit_64 <- cont_64_lstm1_cont_slice_63_split_1
I1018 00:03:00.226495 29782 net.cpp:380] lstm1_unit_64 -> c_64
I1018 00:03:00.226505 29782 net.cpp:380] lstm1_unit_64 -> h_64
I1018 00:03:00.226572 29782 net.cpp:122] Setting up lstm1_unit_64
I1018 00:03:00.226580 29782 net.cpp:129] Top shape: 1 150 512 (76800)
I1018 00:03:00.226585 29782 net.cpp:129] Top shape: 1 150 512 (76800)
I1018 00:03:00.226589 29782 net.cpp:137] Memory required for data: 432691200
I1018 00:03:00.226594 29782 layer_factory.hpp:77] Creating layer lstm1_
I1018 00:03:00.226601 29782 net.cpp:84] Creating Layer lstm1_
I1018 00:03:00.226606 29782 net.cpp:406] lstm1_ <- c_64
I1018 00:03:00.226620 29782 net.cpp:380] lstm1_ -> c_T
I1018 00:03:00.226650 29782 net.cpp:122] Setting up lstm1_
I1018 00:03:00.226660 29782 net.cpp:129] Top shape: 1 150 512 (76800)
I1018 00:03:00.226663 29782 net.cpp:137] Memory required for data: 432998400
I1018 00:03:00.226675 29782 layer_factory.hpp:77] Creating layer lstm1_h_concat
I1018 00:03:00.226696 29782 net.cpp:84] Creating Layer lstm1_h_concat
I1018 00:03:00.226737 29782 net.cpp:406] lstm1_h_concat <- h_1_lstm1_unit_1_1_split_1
I1018 00:03:00.226768 29782 net.cpp:406] lstm1_h_concat <- h_2_lstm1_unit_2_1_split_1
…
I1018 00:03:00.263773 29782 net.cpp:200] lstm1_ does not need backward computation.
I1018 00:03:00.263777 29782 net.cpp:242] This network produces output c_T
I1018 00:03:00.263854 29782 net.cpp:242] This network produces output h_pseudoloss
I1018 00:03:00.386201 29782 net.cpp:255] Network initialization done.
I1018 00:03:00.387976 29782 recurrent_layer.cpp:150] Adding parameter 0: W_xc
I1018 00:03:00.387992 29782 recurrent_layer.cpp:150] Adding parameter 1: b_c
I1018 00:03:00.387997 29782 recurrent_layer.cpp:150] Adding parameter 2: W_hc
I1018 00:03:00.397861 29782 net.cpp:122] Setting up lstm1
I1018 00:03:00.397899 29782 net.cpp:129] Top shape: 64 150 512 (4915200)
I1018 00:03:00.397907 29782 net.cpp:137] Memory required for data: 17350197000
I1018 00:03:00.397927 29782 layer_factory.hpp:77] Creating layer lstm1-drop
I1018 00:03:00.397945 29782 net.cpp:84] Creating Layer lstm1-drop
I1018 00:03:00.397964 29782 net.cpp:406] lstm1-drop <- lstm1
I1018 00:03:00.397989 29782 net.cpp:380] lstm1-drop -> lstm1-drop
I1018 00:03:00.398059 29782 net.cpp:122] Setting up lstm1-drop
I1018 00:03:00.398071 29782 net.cpp:129] Top shape: 64 150 512 (4915200)
I1018 00:03:00.398075 29782 net.cpp:137] Memory required for data: 17369857800
I1018 00:03:00.398080 29782 layer_factory.hpp:77] Creating layer fc-final
I1018 00:03:00.398098 29782 net.cpp:84] Creating Layer fc-final
I1018 00:03:00.398108 29782 net.cpp:406] fc-final <- lstm1-drop
I1018 00:03:00.398123 29782 net.cpp:380] fc-final -> fc-final
I1018 00:03:00.398558 29782 net.cpp:122] Setting up fc-final
I1018 00:03:00.398571 29782 net.cpp:129] Top shape: 64 150 10 (96000)
I1018 00:03:00.398577 29782 net.cpp:137] Memory required for data: 17370241800
I1018 00:03:00.398587 29782 layer_factory.hpp:77] Creating layer fc-final_fc-final_0_split
I1018 00:03:00.398600 29782 net.cpp:84] Creating Layer fc-final_fc-final_0_split
I1018 00:03:00.398607 29782 net.cpp:406] fc-final_fc-final_0_split <- fc-final
I1018 00:03:00.398615 29782 net.cpp:380] fc-final_fc-final_0_split -> fc-final_fc-final_0_split_0
I1018 00:03:00.398625 29782 net.cpp:380] fc-final_fc-final_0_split -> fc-final_fc-final_0_split_1
I1018 00:03:00.398684 29782 net.cpp:122] Setting up fc-final_fc-final_0_split
I1018 00:03:00.398694 29782 net.cpp:129] Top shape: 64 150 10 (96000)
I1018 00:03:00.398701 29782 net.cpp:129] Top shape: 64 150 10 (96000)
I1018 00:03:00.398706 29782 net.cpp:137] Memory required for data: 17371009800
I1018 00:03:00.398711 29782 layer_factory.hpp:77] Creating layer loss
I1018 00:03:00.398725 29782 net.cpp:84] Creating Layer loss
I1018 00:03:00.398733 29782 net.cpp:406] loss <- fc-final_fc-final_0_split_0
I1018 00:03:00.398746 29782 net.cpp:406] loss <- reshape-label_label_tran_0_split_0
I1018 00:03:00.398754 29782 net.cpp:380] loss -> loss
…
