…
I1018 00:00:53.611644 29625 net.cpp:294] The NetState phase (0) differed from the phase (1) specified by a rule in layer Silence
I1018 00:00:53.611855 29625 net.cpp:51] Initializing net from parameters: 
name: "VGG-Places365"
state {
  phase: TRAIN
  level: 0
  stage: ""
}
layer {
  name: "data"
  type: "ImageData"
  top: "data"
  top: "label"
  include {
    phase: TRAIN
  }
  transform_param {
    mirror: true
    crop_size: 224
    mean_value: 104
    mean_value: 117
    mean_value: 123
  }
  image_data_param {
    source: "../Data/lsun_train_list_12w.txt"
    batch_size: 5
    shuffle: true
    new_height: 256
    new_width: 256
  }
}
layer {
  name: "label_tran"
  type: "Python"
  bottom: "label"
  top: "reshape-label"
  top: "clip_markers"
  python_param {
    module: "data_preparation_sort_max_clip"
    layer: "ReshapeLabel"
  }
}
layer {
  name: "conv1_1"
  type: "Convolution"
  bottom: "data"
  top: "conv1_1"
  convolution_param {
    num_output: 64
    pad: 1
    kernel_size: 3
  }
}
layer {
  name: "relu1_1"
  type: "ReLU"
  bottom: "conv1_1"
  top: "conv1_1"
}
layer {
  name: "conv1_2"
  type: "Convolution"
  bottom: "conv1_1"
  top: "conv1_2"
  convolution_param {
    num_output: 64
    pad: 1
    kernel_size: 3
  }
}
layer {
  name: "relu1_2"
  type: "ReLU"
  bottom: "conv1_2"
  top: "conv1_2"
}
layer {
  name: "pool1"
  type: "Pooling"
  bottom: "conv1_2"
  top: "pool1"
  pooling_param {
    pool: MAX
    kernel_size: 2
    stride: 2
  }
}
layer {
  name: "conv2_1"
  type: "Convolution"
  bottom: "pool1"
  top: "conv2_1"
  convolution_param {
    num_output: 128
    pad: 1
    kernel_size: 3
  }
}
layer {
  name: "relu2_1"
  type: "ReLU"
  bottom: "conv2_1"
  top: "conv2_1"
}
layer {
  name: "conv2_2"
  type: "Convolution"
  bottom: "conv2_1"
  top: "conv2_2"
  convolution_param {
    num_output: 128
    pad: 1
    kernel_size: 3
  }
}
layer {
  name: "relu2_2"
  type: "ReLU"
  bottom: "conv2_2"
  top: "conv2_2"
}
layer {
  name: "pool2"
  type: "Pooling"
  bottom: "conv2_2"
  top: "pool2"
  pooling_param {
    pool: MAX
    kernel_size: 2
    stride: 2
  }
}
layer {
  name: "conv3_1"
  type: "Convolution"
  bottom: "pool2"
  top: "conv3_1"
  convolution_param {
    num_output: 256
    pad: 1
    kernel_size: 3
  }
}
layer {
  name: "relu3_1"
  type: "ReLU"
  bottom: "conv3_1"
  top: "conv3_1"
}
layer {
  name: "conv3_2"
  type: "Convolution"
  bottom: "conv3_1"
  top: "conv3_2"
  convolution_param {
    num_output: 256
    pad: 1
    kernel_size: 3
  }
}
layer {
  name: "relu3_2"
  type: "ReLU"
  bottom: "conv3_2"
  top: "conv3_2"
}
layer {
  name: "conv3_3"
  type: "Convolution"
  bottom: "conv3_2"
  top: "conv3_3"
  convolution_param {
    num_output: 256
    pad: 1
    kernel_size: 3
  }
}
layer {
  name: "relu3_3"
  type: "ReLU"
  bottom: "conv3_3"
  top: "conv3_3"
}
layer {
  name: "pool3"
  type: "Pooling"
  bottom: "conv3_3"
  top: "pool3"
  pooling_param {
    pool: MAX
    kernel_size: 2
    stride: 2
  }
}
layer {
  name: "conv4_1"
  type: "Convolution"
  bottom: "pool3"
  top: "conv4_1"
  convolution_param {
    num_output: 512
    pad: 1
    kernel_size: 3
  }
}
layer {
  name: "relu4_1"
  type: "ReLU"
  bottom: "conv4_1"
  top: "conv4_1"
}
layer {
  name: "conv4_2"
  type: "Convolution"
  bottom: "conv4_1"
  top: "conv4_2"
  convolution_param {
    num_output: 512
    pad: 1
    kernel_size: 3
  }
}
layer {
  name: "relu4_2"
  type: "ReLU"
  bottom: "conv4_2"
  top: "conv4_2"
}
layer {
  name: "conv4_3"
  type: "Convolution"
  bottom: "conv4_2"
  top: "conv4_3"
  convolution_param {
    num_output: 512
    pad: 1
    kernel_size: 3
  }
}
layer {
  name: "relu4_3"
  type: "ReLU"
  bottom: "conv4_3"
  top: "conv4_3"
}
layer {
  name: "pool4"
  type: "Pooling"
  bottom: "conv4_3"
  top: "pool4"
  pooling_param {
    pool: MAX
    kernel_size: 2
    stride: 2
  }
}
layer {
  name: "conv5_1"
  type: "Convolution"
  bottom: "pool4"
  top: "conv5_1"
  convolution_param {
    num_output: 512
    pad: 1
    kernel_size: 3
  }
}
layer {
  name: "relu5_1"
  type: "ReLU"
  bottom: "conv5_1"
  top: "conv5_1"
}
layer {
  name: "conv5_2"
  type: "Convolution"
  bottom: "conv5_1"
  top: "conv5_2"
  convolution_param {
    num_output: 512
    pad: 1
    kernel_size: 3
  }
}
layer {
  name: "relu5_2"
  type: "ReLU"
  bottom: "conv5_2"
  top: "conv5_2"
}
layer {
  name: "conv5_3"
  type: "Convolution"
  bottom: "conv5_2"
  top: "conv5_3"
  convolution_param {
    num_output: 512
    pad: 1
    kernel_size: 3
  }
}
layer {
  name: "relu5_3"
  type: "ReLU"
  bottom: "conv5_3"
  top: "conv5_3"
}
layer {
  name: "conv5_3_re"
  type: "Reshape"
  bottom: "conv5_3"
  top: "conv5_3_re"
  reshape_param {
    shape {
      dim: 0
      dim: 0
      dim: -1
    }
  }
}
layer {
  name: "conv5_3_tran"
  type: "Python"
  bottom: "conv5_3_re"
  top: "conv5_3_tran"
  python_param {
    module: "data_preparation_sort_max_clip"
    layer: "DataTransposeSortMaxClip"
  }
}
layer {
  name: "lstm1"
  type: "LSTM"
  bottom: "conv5_3_tran"
  bottom: "clip_markers"
  top: "lstm1"
  recurrent_param {
    num_output: 512
    weight_filler {
      type: "uniform"
      min: -0.01
      max: 0.01
    }
    bias_filler {
      type: "constant"
      value: 0
    }
  }
}
layer {
  name: "lstm1-drop"
  type: "Dropout"
  bottom: "lstm1"
  top: "lstm1-drop"
  dropout_param {
    dropout_ratio: 0.5
  }
}
layer {
  name: "fc-final"
  type: "InnerProduct"
  bottom: "lstm1-drop"
  top: "fc-final"
  param {
    lr_mult: 1
    decay_mult: 1
  }
  param {
    lr_mult: 2
    decay_mult: 0
  }
  inner_product_param {
    num_output: 10
    weight_filler {
      type: "gaussian"
      std: 0.01
    }
    bias_filler {
      type: "constant"
      value: 0
    }
    axis: 2
  }
}
layer {
  name: "loss"
  type: "SoftmaxWithLoss"
  bottom: "fc-final"
  bottom: "reshape-label"
  top: "loss"
  softmax_param {
    axis: 2
  }
}
layer {
  name: "accuracy"
  type: "Accuracy"
  bottom: "fc-final"
  bottom: "reshape-label"
  top: "accuracy"
  accuracy_param {
    axis: 2
  }
}
I1018 00:00:53.612104 29625 layer_factory.hpp:77] Creating layer data
I1018 00:00:53.612161 29625 net.cpp:84] Creating Layer data
I1018 00:00:53.612177 29625 net.cpp:380] data -> data
I1018 00:00:53.612223 29625 net.cpp:380] data -> label
I1018 00:00:53.612262 29625 image_data_layer.cpp:38] Opening file ../Data/lsun_train_list_12w.txt
I1018 00:00:54.161422 29625 image_data_layer.cpp:53] Shuffling data
I1018 00:00:54.438465 29625 image_data_layer.cpp:63] A total of 1200000 images.
I1018 00:00:54.443632 29625 image_data_layer.cpp:90] output data size: 5,3,224,224
I1018 00:00:54.454500 29625 net.cpp:122] Setting up data
I1018 00:00:54.454531 29625 net.cpp:129] Top shape: 5 3 224 224 (752640)
I1018 00:00:54.454540 29625 net.cpp:129] Top shape: 5 (5)
I1018 00:00:54.454545 29625 net.cpp:137] Memory required for data: 3010580
I1018 00:00:54.454596 29625 layer_factory.hpp:77] Creating layer label_tran
I1018 00:00:55.073138 29625 net.cpp:84] Creating Layer label_tran
I1018 00:00:55.073174 29625 net.cpp:406] label_tran <- label
I1018 00:00:55.073192 29625 net.cpp:380] label_tran -> reshape-label
I1018 00:00:55.073205 29625 net.cpp:380] label_tran -> clip_markers
I1018 00:00:55.073359 29625 net.cpp:122] Setting up label_tran
I1018 00:00:55.073375 29625 net.cpp:129] Top shape: 8 5 (40)
I1018 00:00:55.073381 29625 net.cpp:129] Top shape: 8 5 (40)
I1018 00:00:55.073385 29625 net.cpp:137] Memory required for data: 3010900
I1018 00:00:55.073391 29625 layer_factory.hpp:77] Creating layer reshape-label_label_tran_0_split
I1018 00:00:55.073405 29625 net.cpp:84] Creating Layer reshape-label_label_tran_0_split
I1018 00:00:55.073410 29625 net.cpp:406] reshape-label_label_tran_0_split <- reshape-label
I1018 00:00:55.073417 29625 net.cpp:380] reshape-label_label_tran_0_split -> reshape-label_label_tran_0_split_0
I1018 00:00:55.073426 29625 net.cpp:380] reshape-label_label_tran_0_split -> reshape-label_label_tran_0_split_1
I1018 00:00:55.073464 29625 net.cpp:122] Setting up reshape-label_label_tran_0_split
I1018 00:00:55.073472 29625 net.cpp:129] Top shape: 8 5 (40)
I1018 00:00:55.073477 29625 net.cpp:129] Top shape: 8 5 (40)
I1018 00:00:55.073482 29625 net.cpp:137] Memory required for data: 3011220
I1018 00:00:55.073485 29625 layer_factory.hpp:77] Creating layer conv1_1
I1018 00:00:55.073503 29625 net.cpp:84] Creating Layer conv1_1
I1018 00:00:55.073508 29625 net.cpp:406] conv1_1 <- data
I1018 00:00:55.073515 29625 net.cpp:380] conv1_1 -> conv1_1
I1018 00:00:55.075430 29625 net.cpp:122] Setting up conv1_1
I1018 00:00:55.075448 29625 net.cpp:129] Top shape: 5 64 224 224 (16056320)
I1018 00:00:55.075453 29625 net.cpp:137] Memory required for data: 67236500
I1018 00:00:55.075479 29625 layer_factory.hpp:77] Creating layer relu1_1
I1018 00:00:55.075489 29625 net.cpp:84] Creating Layer relu1_1
I1018 00:00:55.075495 29625 net.cpp:406] relu1_1 <- conv1_1
I1018 00:00:55.075501 29625 net.cpp:367] relu1_1 -> conv1_1 (in-place)
I1018 00:00:55.075513 29625 net.cpp:122] Setting up relu1_1
I1018 00:00:55.075520 29625 net.cpp:129] Top shape: 5 64 224 224 (16056320)
I1018 00:00:55.075523 29625 net.cpp:137] Memory required for data: 131461780
I1018 00:00:55.075529 29625 layer_factory.hpp:77] Creating layer conv1_2
I1018 00:00:55.075539 29625 net.cpp:84] Creating Layer conv1_2
I1018 00:00:55.075543 29625 net.cpp:406] conv1_2 <- conv1_1
I1018 00:00:55.075551 29625 net.cpp:380] conv1_2 -> conv1_2
I1018 00:00:55.075809 29625 net.cpp:122] Setting up conv1_2
I1018 00:00:55.075820 29625 net.cpp:129] Top shape: 5 64 224 224 (16056320)
I1018 00:00:55.075825 29625 net.cpp:137] Memory required for data: 195687060
I1018 00:00:55.075834 29625 layer_factory.hpp:77] Creating layer relu1_2
I1018 00:00:55.075844 29625 net.cpp:84] Creating Layer relu1_2
I1018 00:00:55.075848 29625 net.cpp:406] relu1_2 <- conv1_2
I1018 00:00:55.075855 29625 net.cpp:367] relu1_2 -> conv1_2 (in-place)
I1018 00:00:55.075861 29625 net.cpp:122] Setting up relu1_2
I1018 00:00:55.075866 29625 net.cpp:129] Top shape: 5 64 224 224 (16056320)
I1018 00:00:55.075870 29625 net.cpp:137] Memory required for data: 259912340
I1018 00:00:55.075875 29625 layer_factory.hpp:77] Creating layer pool1
I1018 00:00:55.075886 29625 net.cpp:84] Creating Layer pool1
I1018 00:00:55.075889 29625 net.cpp:406] pool1 <- conv1_2
I1018 00:00:55.075896 29625 net.cpp:380] pool1 -> pool1
I1018 00:00:55.075942 29625 net.cpp:122] Setting up pool1
I1018 00:00:55.075949 29625 net.cpp:129] Top shape: 5 64 112 112 (4014080)
I1018 00:00:55.075954 29625 net.cpp:137] Memory required for data: 275968660
I1018 00:00:55.075958 29625 layer_factory.hpp:77] Creating layer conv2_1
I1018 00:00:55.075968 29625 net.cpp:84] Creating Layer conv2_1
I1018 00:00:55.075973 29625 net.cpp:406] conv2_1 <- pool1
I1018 00:00:55.075978 29625 net.cpp:380] conv2_1 -> conv2_1
I1018 00:00:55.077745 29625 net.cpp:122] Setting up conv2_1
I1018 00:00:55.077762 29625 net.cpp:129] Top shape: 5 128 112 112 (8028160)
I1018 00:00:55.077767 29625 net.cpp:137] Memory required for data: 308081300
I1018 00:00:55.077781 29625 layer_factory.hpp:77] Creating layer relu2_1
I1018 00:00:55.077791 29625 net.cpp:84] Creating Layer relu2_1
I1018 00:00:55.077796 29625 net.cpp:406] relu2_1 <- conv2_1
I1018 00:00:55.077803 29625 net.cpp:367] relu2_1 -> conv2_1 (in-place)
I1018 00:00:55.077812 29625 net.cpp:122] Setting up relu2_1
I1018 00:00:55.077817 29625 net.cpp:129] Top shape: 5 128 112 112 (8028160)
I1018 00:00:55.077821 29625 net.cpp:137] Memory required for data: 340193940
I1018 00:00:55.077826 29625 layer_factory.hpp:77] Creating layer conv2_2
I1018 00:00:55.077834 29625 net.cpp:84] Creating Layer conv2_2
I1018 00:00:55.077838 29625 net.cpp:406] conv2_2 <- conv2_1
I1018 00:00:55.077846 29625 net.cpp:380] conv2_2 -> conv2_2
I1018 00:00:55.078145 29625 net.cpp:122] Setting up conv2_2
I1018 00:00:55.078156 29625 net.cpp:129] Top shape: 5 128 112 112 (8028160)
I1018 00:00:55.078161 29625 net.cpp:137] Memory required for data: 372306580
I1018 00:00:55.078168 29625 layer_factory.hpp:77] Creating layer relu2_2
I1018 00:00:55.078176 29625 net.cpp:84] Creating Layer relu2_2
I1018 00:00:55.078181 29625 net.cpp:406] relu2_2 <- conv2_2
I1018 00:00:55.078186 29625 net.cpp:367] relu2_2 -> conv2_2 (in-place)
I1018 00:00:55.078193 29625 net.cpp:122] Setting up relu2_2
I1018 00:00:55.078198 29625 net.cpp:129] Top shape: 5 128 112 112 (8028160)
I1018 00:00:55.078202 29625 net.cpp:137] Memory required for data: 404419220
I1018 00:00:55.078207 29625 layer_factory.hpp:77] Creating layer pool2
I1018 00:00:55.078213 29625 net.cpp:84] Creating Layer pool2
I1018 00:00:55.078217 29625 net.cpp:406] pool2 <- conv2_2
I1018 00:00:55.078223 29625 net.cpp:380] pool2 -> pool2
I1018 00:00:55.078256 29625 net.cpp:122] Setting up pool2
I1018 00:00:55.078263 29625 net.cpp:129] Top shape: 5 128 56 56 (2007040)
I1018 00:00:55.078267 29625 net.cpp:137] Memory required for data: 412447380
I1018 00:00:55.078272 29625 layer_factory.hpp:77] Creating layer conv3_1
I1018 00:00:55.078280 29625 net.cpp:84] Creating Layer conv3_1
I1018 00:00:55.078285 29625 net.cpp:406] conv3_1 <- pool2
I1018 00:00:55.078291 29625 net.cpp:380] conv3_1 -> conv3_1
I1018 00:00:55.079493 29625 net.cpp:122] Setting up conv3_1
I1018 00:00:55.079507 29625 net.cpp:129] Top shape: 5 256 56 56 (4014080)
I1018 00:00:55.079512 29625 net.cpp:137] Memory required for data: 428503700
I1018 00:00:55.079524 29625 layer_factory.hpp:77] Creating layer relu3_1
I1018 00:00:55.079532 29625 net.cpp:84] Creating Layer relu3_1
I1018 00:00:55.079538 29625 net.cpp:406] relu3_1 <- conv3_1
I1018 00:00:55.079545 29625 net.cpp:367] relu3_1 -> conv3_1 (in-place)
I1018 00:00:55.079552 29625 net.cpp:122] Setting up relu3_1
I1018 00:00:55.079558 29625 net.cpp:129] Top shape: 5 256 56 56 (4014080)
I1018 00:00:55.079562 29625 net.cpp:137] Memory required for data: 444560020
I1018 00:00:55.079566 29625 layer_factory.hpp:77] Creating layer conv3_2
I1018 00:00:55.079573 29625 net.cpp:84] Creating Layer conv3_2
I1018 00:00:55.079578 29625 net.cpp:406] conv3_2 <- conv3_1
I1018 00:00:55.079584 29625 net.cpp:380] conv3_2 -> conv3_2
I1018 00:00:55.081455 29625 net.cpp:122] Setting up conv3_2
I1018 00:00:55.081473 29625 net.cpp:129] Top shape: 5 256 56 56 (4014080)
I1018 00:00:55.081478 29625 net.cpp:137] Memory required for data: 460616340
I1018 00:00:55.081485 29625 layer_factory.hpp:77] Creating layer relu3_2
I1018 00:00:55.081496 29625 net.cpp:84] Creating Layer relu3_2
I1018 00:00:55.081501 29625 net.cpp:406] relu3_2 <- conv3_2
I1018 00:00:55.081508 29625 net.cpp:367] relu3_2 -> conv3_2 (in-place)
I1018 00:00:55.081516 29625 net.cpp:122] Setting up relu3_2
I1018 00:00:55.081521 29625 net.cpp:129] Top shape: 5 256 56 56 (4014080)
I1018 00:00:55.081526 29625 net.cpp:137] Memory required for data: 476672660
I1018 00:00:55.081531 29625 layer_factory.hpp:77] Creating layer conv3_3
I1018 00:00:55.081539 29625 net.cpp:84] Creating Layer conv3_3
I1018 00:00:55.081544 29625 net.cpp:406] conv3_3 <- conv3_2
I1018 00:00:55.081552 29625 net.cpp:380] conv3_3 -> conv3_3
I1018 00:00:55.083401 29625 net.cpp:122] Setting up conv3_3
I1018 00:00:55.083417 29625 net.cpp:129] Top shape: 5 256 56 56 (4014080)
I1018 00:00:55.083422 29625 net.cpp:137] Memory required for data: 492728980
I1018 00:00:55.083431 29625 layer_factory.hpp:77] Creating layer relu3_3
I1018 00:00:55.083438 29625 net.cpp:84] Creating Layer relu3_3
I1018 00:00:55.083443 29625 net.cpp:406] relu3_3 <- conv3_3
I1018 00:00:55.083451 29625 net.cpp:367] relu3_3 -> conv3_3 (in-place)
I1018 00:00:55.083461 29625 net.cpp:122] Setting up relu3_3
I1018 00:00:55.083465 29625 net.cpp:129] Top shape: 5 256 56 56 (4014080)
I1018 00:00:55.083469 29625 net.cpp:137] Memory required for data: 508785300
I1018 00:00:55.083474 29625 layer_factory.hpp:77] Creating layer pool3
I1018 00:00:55.083480 29625 net.cpp:84] Creating Layer pool3
I1018 00:00:55.083484 29625 net.cpp:406] pool3 <- conv3_3
I1018 00:00:55.083490 29625 net.cpp:380] pool3 -> pool3
I1018 00:00:55.083529 29625 net.cpp:122] Setting up pool3
I1018 00:00:55.083537 29625 net.cpp:129] Top shape: 5 256 28 28 (1003520)
I1018 00:00:55.083541 29625 net.cpp:137] Memory required for data: 512799380
I1018 00:00:55.083545 29625 layer_factory.hpp:77] Creating layer conv4_1
I1018 00:00:55.083554 29625 net.cpp:84] Creating Layer conv4_1
I1018 00:00:55.083559 29625 net.cpp:406] conv4_1 <- pool3
I1018 00:00:55.083565 29625 net.cpp:380] conv4_1 -> conv4_1
I1018 00:00:55.087555 29625 net.cpp:122] Setting up conv4_1
I1018 00:00:55.087575 29625 net.cpp:129] Top shape: 5 512 28 28 (2007040)
I1018 00:00:55.087579 29625 net.cpp:137] Memory required for data: 520827540
I1018 00:00:55.087587 29625 layer_factory.hpp:77] Creating layer relu4_1
I1018 00:00:55.087599 29625 net.cpp:84] Creating Layer relu4_1
I1018 00:00:55.087604 29625 net.cpp:406] relu4_1 <- conv4_1
I1018 00:00:55.087611 29625 net.cpp:367] relu4_1 -> conv4_1 (in-place)
I1018 00:00:55.087620 29625 net.cpp:122] Setting up relu4_1
I1018 00:00:55.087626 29625 net.cpp:129] Top shape: 5 512 28 28 (2007040)
I1018 00:00:55.087630 29625 net.cpp:137] Memory required for data: 528855700
I1018 00:00:55.087635 29625 layer_factory.hpp:77] Creating layer conv4_2
I1018 00:00:55.087646 29625 net.cpp:84] Creating Layer conv4_2
I1018 00:00:55.087651 29625 net.cpp:406] conv4_2 <- conv4_1
I1018 00:00:55.087656 29625 net.cpp:380] conv4_2 -> conv4_2
I1018 00:00:55.094310 29625 net.cpp:122] Setting up conv4_2
I1018 00:00:55.094336 29625 net.cpp:129] Top shape: 5 512 28 28 (2007040)
I1018 00:00:55.094341 29625 net.cpp:137] Memory required for data: 536883860
I1018 00:00:55.094357 29625 layer_factory.hpp:77] Creating layer relu4_2
I1018 00:00:55.094370 29625 net.cpp:84] Creating Layer relu4_2
I1018 00:00:55.094375 29625 net.cpp:406] relu4_2 <- conv4_2
I1018 00:00:55.094383 29625 net.cpp:367] relu4_2 -> conv4_2 (in-place)
I1018 00:00:55.094393 29625 net.cpp:122] Setting up relu4_2
I1018 00:00:55.094398 29625 net.cpp:129] Top shape: 5 512 28 28 (2007040)
I1018 00:00:55.094403 29625 net.cpp:137] Memory required for data: 544912020
I1018 00:00:55.094406 29625 layer_factory.hpp:77] Creating layer conv4_3
I1018 00:00:55.094415 29625 net.cpp:84] Creating Layer conv4_3
I1018 00:00:55.094419 29625 net.cpp:406] conv4_3 <- conv4_2
I1018 00:00:55.094429 29625 net.cpp:380] conv4_3 -> conv4_3
I1018 00:00:55.100862 29625 net.cpp:122] Setting up conv4_3
I1018 00:00:55.100886 29625 net.cpp:129] Top shape: 5 512 28 28 (2007040)
I1018 00:00:55.100891 29625 net.cpp:137] Memory required for data: 552940180
I1018 00:00:55.100900 29625 layer_factory.hpp:77] Creating layer relu4_3
I1018 00:00:55.100914 29625 net.cpp:84] Creating Layer relu4_3
I1018 00:00:55.100919 29625 net.cpp:406] relu4_3 <- conv4_3
I1018 00:00:55.100927 29625 net.cpp:367] relu4_3 -> conv4_3 (in-place)
I1018 00:00:55.100937 29625 net.cpp:122] Setting up relu4_3
I1018 00:00:55.100944 29625 net.cpp:129] Top shape: 5 512 28 28 (2007040)
I1018 00:00:55.100947 29625 net.cpp:137] Memory required for data: 560968340
I1018 00:00:55.100951 29625 layer_factory.hpp:77] Creating layer pool4
I1018 00:00:55.100963 29625 net.cpp:84] Creating Layer pool4
I1018 00:00:55.100967 29625 net.cpp:406] pool4 <- conv4_3
I1018 00:00:55.100975 29625 net.cpp:380] pool4 -> pool4
I1018 00:00:55.101013 29625 net.cpp:122] Setting up pool4
I1018 00:00:55.101023 29625 net.cpp:129] Top shape: 5 512 14 14 (501760)
I1018 00:00:55.101027 29625 net.cpp:137] Memory required for data: 562975380
I1018 00:00:55.101032 29625 layer_factory.hpp:77] Creating layer conv5_1
I1018 00:00:55.101040 29625 net.cpp:84] Creating Layer conv5_1
I1018 00:00:55.101044 29625 net.cpp:406] conv5_1 <- pool4
I1018 00:00:55.101053 29625 net.cpp:380] conv5_1 -> conv5_1
I1018 00:00:55.118914 29625 net.cpp:122] Setting up conv5_1
I1018 00:00:55.118960 29625 net.cpp:129] Top shape: 5 512 14 14 (501760)
I1018 00:00:55.118979 29625 net.cpp:137] Memory required for data: 564982420
I1018 00:00:55.119024 29625 layer_factory.hpp:77] Creating layer relu5_1
I1018 00:00:55.119091 29625 net.cpp:84] Creating Layer relu5_1
I1018 00:00:55.119113 29625 net.cpp:406] relu5_1 <- conv5_1
I1018 00:00:55.119148 29625 net.cpp:367] relu5_1 -> conv5_1 (in-place)
I1018 00:00:55.119190 29625 net.cpp:122] Setting up relu5_1
I1018 00:00:55.119208 29625 net.cpp:129] Top shape: 5 512 14 14 (501760)
I1018 00:00:55.119215 29625 net.cpp:137] Memory required for data: 566989460
I1018 00:00:55.119225 29625 layer_factory.hpp:77] Creating layer conv5_2
I1018 00:00:55.119263 29625 net.cpp:84] Creating Layer conv5_2
I1018 00:00:55.119276 29625 net.cpp:406] conv5_2 <- conv5_1
I1018 00:00:55.119289 29625 net.cpp:380] conv5_2 -> conv5_2
I1018 00:00:55.129052 29625 net.cpp:122] Setting up conv5_2
I1018 00:00:55.129086 29625 net.cpp:129] Top shape: 5 512 14 14 (501760)
I1018 00:00:55.129091 29625 net.cpp:137] Memory required for data: 568996500
I1018 00:00:55.129101 29625 layer_factory.hpp:77] Creating layer relu5_2
I1018 00:00:55.129112 29625 net.cpp:84] Creating Layer relu5_2
I1018 00:00:55.129117 29625 net.cpp:406] relu5_2 <- conv5_2
I1018 00:00:55.129128 29625 net.cpp:367] relu5_2 -> conv5_2 (in-place)
I1018 00:00:55.129140 29625 net.cpp:122] Setting up relu5_2
I1018 00:00:55.129145 29625 net.cpp:129] Top shape: 5 512 14 14 (501760)
I1018 00:00:55.129149 29625 net.cpp:137] Memory required for data: 571003540
I1018 00:00:55.129154 29625 layer_factory.hpp:77] Creating layer conv5_3
I1018 00:00:55.129168 29625 net.cpp:84] Creating Layer conv5_3
I1018 00:00:55.129173 29625 net.cpp:406] conv5_3 <- conv5_2
I1018 00:00:55.129180 29625 net.cpp:380] conv5_3 -> conv5_3
I1018 00:00:55.135121 29625 net.cpp:122] Setting up conv5_3
I1018 00:00:55.135145 29625 net.cpp:129] Top shape: 5 512 14 14 (501760)
I1018 00:00:55.135149 29625 net.cpp:137] Memory required for data: 573010580
I1018 00:00:55.135159 29625 layer_factory.hpp:77] Creating layer relu5_3
I1018 00:00:55.135180 29625 net.cpp:84] Creating Layer relu5_3
I1018 00:00:55.135186 29625 net.cpp:406] relu5_3 <- conv5_3
I1018 00:00:55.135193 29625 net.cpp:367] relu5_3 -> conv5_3 (in-place)
I1018 00:00:55.135203 29625 net.cpp:122] Setting up relu5_3
I1018 00:00:55.135208 29625 net.cpp:129] Top shape: 5 512 14 14 (501760)
I1018 00:00:55.135212 29625 net.cpp:137] Memory required for data: 575017620
I1018 00:00:55.135217 29625 layer_factory.hpp:77] Creating layer conv5_3_re
I1018 00:00:55.135231 29625 net.cpp:84] Creating Layer conv5_3_re
I1018 00:00:55.135236 29625 net.cpp:406] conv5_3_re <- conv5_3
I1018 00:00:55.135246 29625 net.cpp:380] conv5_3_re -> conv5_3_re
I1018 00:00:55.135295 29625 net.cpp:122] Setting up conv5_3_re
I1018 00:00:55.135303 29625 net.cpp:129] Top shape: 5 512 196 (501760)
I1018 00:00:55.135308 29625 net.cpp:137] Memory required for data: 577024660
I1018 00:00:55.135311 29625 layer_factory.hpp:77] Creating layer conv5_3_tran
I1018 00:00:55.135390 29625 net.cpp:84] Creating Layer conv5_3_tran
I1018 00:00:55.135399 29625 net.cpp:406] conv5_3_tran <- conv5_3_re
I1018 00:00:55.135406 29625 net.cpp:380] conv5_3_tran -> conv5_3_tran
I1018 00:00:55.137166 29625 net.cpp:122] Setting up conv5_3_tran
I1018 00:00:55.137234 29625 net.cpp:129] Top shape: 8 5 512 (20480)
I1018 00:00:55.137262 29625 net.cpp:137] Memory required for data: 577106580
I1018 00:00:55.137289 29625 layer_factory.hpp:77] Creating layer lstm1
I1018 00:00:55.137334 29625 net.cpp:84] Creating Layer lstm1
I1018 00:00:55.137363 29625 net.cpp:406] lstm1 <- conv5_3_tran
I1018 00:00:55.137393 29625 net.cpp:406] lstm1 <- clip_markers
I1018 00:00:55.137428 29625 net.cpp:380] lstm1 -> lstm1
I1018 00:00:55.137470 29625 recurrent_layer.cpp:20] Initializing recurrent layer: assuming input batch contains 8 timesteps of 5 independent streams.
I1018 00:00:55.138249 29625 net.cpp:51] Initializing net from parameters: 
layer {
  name: "lstm1_"
  type: "Input"
  top: "x"
  top: "cont"
  input_param {
    shape {
      dim: 8
      dim: 5
      dim: 512
    }
    shape {
      dim: 8
      dim: 5
    }
  }
}
layer {
  name: "lstm1_"
  type: "Input"
  top: "c_0"
  top: "h_0"
  input_param {
    shape {
      dim: 1
      dim: 5
      dim: 512
    }
    shape {
      dim: 1
      dim: 5
      dim: 512
    }
  }
}
layer {
  name: "lstm1_cont_slice"
  type: "Slice"
  bottom: "cont"
  top: "cont_1"
  top: "cont_2"
  top: "cont_3"
  top: "cont_4"
  top: "cont_5"
  top: "cont_6"
  top: "cont_7"
  top: "cont_8"
  slice_param {
    axis: 0
  }
}
layer {
  name: "lstm1_x_transform"
  type: "InnerProduct"
  bottom: "x"
  top: "W_xc_x"
  param {
    name: "W_xc"
  }
  param {
    name: "b_c"
  }
  propagate_down: true
  inner_product_param {
    num_output: 2048
    bias_term: true
    weight_filler {
      type: "uniform"
      min: -0.01
      max: 0.01
    }
    bias_filler {
      type: "constant"
      value: 0
    }
    axis: 2
  }
}
layer {
  name: "lstm1_W_xc_x_slice"
  type: "Slice"
  bottom: "W_xc_x"
  top: "W_xc_x_1"
  top: "W_xc_x_2"
  top: "W_xc_x_3"
  top: "W_xc_x_4"
  top: "W_xc_x_5"
  top: "W_xc_x_6"
  top: "W_xc_x_7"
  top: "W_xc_x_8"
  slice_param {
    axis: 0
  }
}
layer {
  name: "lstm1_h_conted_0"
  type: "Scale"
  bottom: "h_0"
  bottom: "cont_1"
  top: "h_conted_0"
  scale_param {
    axis: 0
  }
}
layer {
  name: "lstm1_transform_1"
  type: "InnerProduct"
  bottom: "h_conted_0"
  top: "W_hc_h_0"
  param {
    name: "W_hc"
  }
  inner_product_param {
    num_output: 2048
    bias_term: false
    weight_filler {
      type: "uniform"
      min: -0.01
      max: 0.01
    }
    axis: 2
  }
}
layer {
  name: "lstm1_gate_input_1"
  type: "Eltwise"
  bottom: "W_hc_h_0"
  bottom: "W_xc_x_1"
  top: "gate_input_1"
  eltwise_param {
    operation: SUM
  }
}
layer {
  name: "lstm1_unit_1"
  type: "LSTMUnit"
  bottom: "c_0"
  bottom: "gate_input_1"
  bottom: "cont_1"
  top: "c_1"
  top: "h_1"
}
layer {
  name: "lstm1_h_conted_1"
  type: "Scale"
  bottom: "h_1"
  bottom: "cont_2"
  top: "h_conted_1"
  scale_param {
    axis: 0
  }
}
layer {
  name: "lstm1_transform_2"
  type: "InnerProduct"
  bottom: "h_conted_1"
  top: "W_hc_h_1"
  param {
    name: "W_hc"
  }
  inner_product_param {
    num_output: 2048
    bias_term: false
    weight_filler {
      type: "uniform"
      min: -0.01
      max: 0.01
    }
    axis: 2
  }
}
layer {
  name: "lstm1_gate_input_2"
  type: "Eltwise"
  bottom: "W_hc_h_1"
  bottom: "W_xc_x_2"
  top: "gate_input_2"
  eltwise_param {
    operation: SUM
  }
}
layer {
  name: "lstm1_unit_2"
  type: "LSTMUnit"
  bottom: "c_1"
  bottom: "gate_input_2"
  bottom: "cont_2"
  top: "c_2"
  top: "h_2"
}
layer {
  name: "lstm1_h_conted_2"
  type: "Scale"
  bottom: "h_2"
  bottom: "cont_3"
  top: "h_conted_2"
  scale_param {
    axis: 0
  }
}
layer {
  name: "lstm1_transform_3"
  type: "InnerProduct"
  bottom: "h_conted_2"
  top: "W_hc_h_2"
  param {
    name: "W_hc"
  }
  inner_product_param {
    num_output: 2048
    bias_term: false
    weight_filler {
      type: "uniform"
      min: -0.01
      max: 0.01
    }
    axis: 2
  }
}
layer {
  name: "lstm1_gate_input_3"
  type: "Eltwise"
  bottom: "W_hc_h_2"
  bottom: "W_xc_x_3"
  top: "gate_input_3"
  eltwise_param {
    operation: SUM
  }
}
layer {
  name: "lstm1_unit_3"
  type: "LSTMUnit"
  bottom: "c_2"
  bottom: "gate_input_3"
  bottom: "cont_3"
  top: "c_3"
  top: "h_3"
}
layer {
  name: "lstm1_h_conted_3"
  type: "Scale"
  bottom: "h_3"
  bottom: "cont_4"
  top: "h_conted_3"
  scale_param {
    axis: 0
  }
}
layer {
  name: "lstm1_transform_4"
  type: "InnerProduct"
  bottom: "h_conted_3"
  top: "W_hc_h_3"
  param {
    name: "W_hc"
  }
  inner_product_param {
    num_output: 2048
    bias_term: false
    weight_filler {
      type: "uniform"
      min: -0.01
      max: 0.01
    }
    axis: 2
  }
}
layer {
  name: "lstm1_gate_input_4"
  type: "Eltwise"
  bottom: "W_hc_h_3"
  bottom: "W_xc_x_4"
  top: "gate_input_4"
  eltwise_param {
    operation: SUM
  }
}
layer {
  name: "lstm1_unit_4"
  type: "LSTMUnit"
  bottom: "c_3"
  bottom: "gate_input_4"
  bottom: "cont_4"
  top: "c_4"
  top: "h_4"
}
layer {
  name: "lstm1_h_conted_4"
  type: "Scale"
  bottom: "h_4"
  bottom: "cont_5"
  top: "h_conted_4"
  scale_param {
    axis: 0
  }
}
layer {
  name: "lstm1_transform_5"
  type: "InnerProduct"
  bottom: "h_conted_4"
  top: "W_hc_h_4"
  param {
    name: "W_hc"
  }
  inner_product_param {
    num_output: 2048
    bias_term: false
    weight_filler {
      type: "uniform"
      min: -0.01
      max: 0.01
    }
    axis: 2
  }
}
layer {
  name: "lstm1_gate_input_5"
  type: "Eltwise"
  bottom: "W_hc_h_4"
  bottom: "W_xc_x_5"
  top: "gate_input_5"
  eltwise_param {
    operation: SUM
  }
}
layer {
  name: "lstm1_unit_5"
  type: "LSTMUnit"
  bottom: "c_4"
  bottom: "gate_input_5"
  bottom: "cont_5"
  top: "c_5"
  top: "h_5"
}
layer {
  name: "lstm1_h_conted_5"
  type: "Scale"
  bottom: "h_5"
  bottom: "cont_6"
  top: "h_conted_5"
  scale_param {
    axis: 0
  }
}
layer {
  name: "lstm1_transform_6"
  type: "InnerProduct"
  bottom: "h_conted_5"
  top: "W_hc_h_5"
  param {
    name: "W_hc"
  }
  inner_product_param {
    num_output: 2048
    bias_term: false
    weight_filler {
      type: "uniform"
      min: -0.01
      max: 0.01
    }
    axis: 2
  }
}
layer {
  name: "lstm1_gate_input_6"
  type: "Eltwise"
  bottom: "W_hc_h_5"
  bottom: "W_xc_x_6"
  top: "gate_input_6"
  eltwise_param {
    operation: SUM
  }
}
layer {
  name: "lstm1_unit_6"
  type: "LSTMUnit"
  bottom: "c_5"
  bottom: "gate_input_6"
  bottom: "cont_6"
  top: "c_6"
  top: "h_6"
}
layer {
  name: "lstm1_h_conted_6"
  type: "Scale"
  bottom: "h_6"
  bottom: "cont_7"
  top: "h_conted_6"
  scale_param {
    axis: 0
  }
}
layer {
  name: "lstm1_transform_7"
  type: "InnerProduct"
  bottom: "h_conted_6"
  top: "W_hc_h_6"
  param {
    name: "W_hc"
  }
  inner_product_param {
    num_output: 2048
    bias_term: false
    weight_filler {
      type: "uniform"
      min: -0.01
      max: 0.01
    }
    axis: 2
  }
}
layer {
  name: "lstm1_gate_input_7"
  type: "Eltwise"
  bottom: "W_hc_h_6"
  bottom: "W_xc_x_7"
  top: "gate_input_7"
  eltwise_param {
    operation: SUM
  }
}
layer {
  name: "lstm1_unit_7"
  type: "LSTMUnit"
  bottom: "c_6"
  bottom: "gate_input_7"
  bottom: "cont_7"
  top: "c_7"
  top: "h_7"
}
layer {
  name: "lstm1_h_conted_7"
  type: "Scale"
  bottom: "h_7"
  bottom: "cont_8"
  top: "h_conted_7"
  scale_param {
    axis: 0
  }
}
layer {
  name: "lstm1_transform_8"
  type: "InnerProduct"
  bottom: "h_conted_7"
  top: "W_hc_h_7"
  param {
    name: "W_hc"
  }
  inner_product_param {
    num_output: 2048
    bias_term: false
    weight_filler {
      type: "uniform"
      min: -0.01
      max: 0.01
    }
    axis: 2
  }
}
layer {
  name: "lstm1_gate_input_8"
  type: "Eltwise"
  bottom: "W_hc_h_7"
  bottom: "W_xc_x_8"
  top: "gate_input_8"
  eltwise_param {
    operation: SUM
  }
}
layer {
  name: "lstm1_unit_8"
  type: "LSTMUnit"
  bottom: "c_7"
  bottom: "gate_input_8"
  bottom: "cont_8"
  top: "c_8"
  top: "h_8"
}
layer {
  name: "lstm1_"
  type: "Split"
  bottom: "c_8"
  top: "c_T"
}
layer {
  name: "lstm1_h_concat"
  type: "Concat"
  bottom: "h_1"
  bottom: "h_2"
  bottom: "h_3"
  bottom: "h_4"
  bottom: "h_5"
  bottom: "h_6"
  bottom: "h_7"
  bottom: "h_8"
  top: "h"
  concat_param {
    axis: 0
  }
}
layer {
  name: "h_pseudoloss"
  type: "Reduction"
  bottom: "h"
  top: "h_pseudoloss"
  loss_weight: 1
}
I1018 00:00:55.140368 29625 layer_factory.hpp:77] Creating layer lstm1_
I1018 00:00:55.140409 29625 net.cpp:84] Creating Layer lstm1_
I1018 00:00:55.140420 29625 net.cpp:380] lstm1_ -> x
I1018 00:00:55.140441 29625 net.cpp:380] lstm1_ -> cont
I1018 00:00:55.140522 29625 net.cpp:122] Setting up lstm1_
I1018 00:00:55.140534 29625 net.cpp:129] Top shape: 8 5 512 (20480)
I1018 00:00:55.140543 29625 net.cpp:129] Top shape: 8 5 (40)
I1018 00:00:55.140550 29625 net.cpp:137] Memory required for data: 82080
I1018 00:00:55.140558 29625 layer_factory.hpp:77] Creating layer lstm1_
I1018 00:00:55.140569 29625 net.cpp:84] Creating Layer lstm1_
I1018 00:00:55.140579 29625 net.cpp:380] lstm1_ -> c_0
I1018 00:00:55.140604 29625 net.cpp:380] lstm1_ -> h_0
I1018 00:00:55.140666 29625 net.cpp:122] Setting up lstm1_
I1018 00:00:55.140678 29625 net.cpp:129] Top shape: 1 5 512 (2560)
I1018 00:00:55.140688 29625 net.cpp:129] Top shape: 1 5 512 (2560)
I1018 00:00:55.140696 29625 net.cpp:137] Memory required for data: 102560
I1018 00:00:55.140702 29625 layer_factory.hpp:77] Creating layer lstm1_cont_slice
I1018 00:00:55.140719 29625 net.cpp:84] Creating Layer lstm1_cont_slice
I1018 00:00:55.140728 29625 net.cpp:406] lstm1_cont_slice <- cont
I1018 00:00:55.140739 29625 net.cpp:380] lstm1_cont_slice -> cont_1
I1018 00:00:55.140756 29625 net.cpp:380] lstm1_cont_slice -> cont_2
I1018 00:00:55.140770 29625 net.cpp:380] lstm1_cont_slice -> cont_3
I1018 00:00:55.140799 29625 net.cpp:380] lstm1_cont_slice -> cont_4
I1018 00:00:55.140826 29625 net.cpp:380] lstm1_cont_slice -> cont_5
I1018 00:00:55.140928 29625 net.cpp:380] lstm1_cont_slice -> cont_6
I1018 00:00:55.140964 29625 net.cpp:380] lstm1_cont_slice -> cont_7
I1018 00:00:55.140983 29625 net.cpp:380] lstm1_cont_slice -> cont_8
I1018 00:00:55.141398 29625 net.cpp:122] Setting up lstm1_cont_slice
I1018 00:00:55.141477 29625 net.cpp:129] Top shape: 1 5 (5)
I1018 00:00:55.141523 29625 net.cpp:129] Top shape: 1 5 (5)
I1018 00:00:55.141551 29625 net.cpp:129] Top shape: 1 5 (5)
I1018 00:00:55.141580 29625 net.cpp:129] Top shape: 1 5 (5)
I1018 00:00:55.141610 29625 net.cpp:129] Top shape: 1 5 (5)
I1018 00:00:55.141629 29625 net.cpp:129] Top shape: 1 5 (5)
I1018 00:00:55.141650 29625 net.cpp:129] Top shape: 1 5 (5)
I1018 00:00:55.141667 29625 net.cpp:129] Top shape: 1 5 (5)
I1018 00:00:55.141682 29625 net.cpp:137] Memory required for data: 102720
I1018 00:00:55.141706 29625 layer_factory.hpp:77] Creating layer cont_1_lstm1_cont_slice_0_split
I1018 00:00:55.141786 29625 net.cpp:84] Creating Layer cont_1_lstm1_cont_slice_0_split
I1018 00:00:55.141852 29625 net.cpp:406] cont_1_lstm1_cont_slice_0_split <- cont_1
I1018 00:00:55.141908 29625 net.cpp:380] cont_1_lstm1_cont_slice_0_split -> cont_1_lstm1_cont_slice_0_split_0
I1018 00:00:55.141981 29625 net.cpp:380] cont_1_lstm1_cont_slice_0_split -> cont_1_lstm1_cont_slice_0_split_1
I1018 00:00:55.142217 29625 net.cpp:122] Setting up cont_1_lstm1_cont_slice_0_split
I1018 00:00:55.142228 29625 net.cpp:129] Top shape: 1 5 (5)
I1018 00:00:55.142236 29625 net.cpp:129] Top shape: 1 5 (5)
I1018 00:00:55.142242 29625 net.cpp:137] Memory required for data: 102760
I1018 00:00:55.142249 29625 layer_factory.hpp:77] Creating layer cont_2_lstm1_cont_slice_1_split
I1018 00:00:55.142258 29625 net.cpp:84] Creating Layer cont_2_lstm1_cont_slice_1_split
I1018 00:00:55.142266 29625 net.cpp:406] cont_2_lstm1_cont_slice_1_split <- cont_2
I1018 00:00:55.142277 29625 net.cpp:380] cont_2_lstm1_cont_slice_1_split -> cont_2_lstm1_cont_slice_1_split_0
I1018 00:00:55.142288 29625 net.cpp:380] cont_2_lstm1_cont_slice_1_split -> cont_2_lstm1_cont_slice_1_split_1
I1018 00:00:55.142326 29625 net.cpp:122] Setting up cont_2_lstm1_cont_slice_1_split
I1018 00:00:55.142347 29625 net.cpp:129] Top shape: 1 5 (5)
I1018 00:00:55.142356 29625 net.cpp:129] Top shape: 1 5 (5)
I1018 00:00:55.142362 29625 net.cpp:137] Memory required for data: 102800
I1018 00:00:55.142369 29625 layer_factory.hpp:77] Creating layer cont_3_lstm1_cont_slice_2_split
I1018 00:00:55.142381 29625 net.cpp:84] Creating Layer cont_3_lstm1_cont_slice_2_split
I1018 00:00:55.142390 29625 net.cpp:406] cont_3_lstm1_cont_slice_2_split <- cont_3
I1018 00:00:55.142398 29625 net.cpp:380] cont_3_lstm1_cont_slice_2_split -> cont_3_lstm1_cont_slice_2_split_0
I1018 00:00:55.142428 29625 net.cpp:380] cont_3_lstm1_cont_slice_2_split -> cont_3_lstm1_cont_slice_2_split_1
I1018 00:00:55.142640 29625 net.cpp:122] Setting up cont_3_lstm1_cont_slice_2_split
I1018 00:00:55.142745 29625 net.cpp:129] Top shape: 1 5 (5)
I1018 00:00:55.142776 29625 net.cpp:129] Top shape: 1 5 (5)
I1018 00:00:55.142791 29625 net.cpp:137] Memory required for data: 102840
I1018 00:00:55.142817 29625 layer_factory.hpp:77] Creating layer cont_4_lstm1_cont_slice_3_split
I1018 00:00:55.142899 29625 net.cpp:84] Creating Layer cont_4_lstm1_cont_slice_3_split
I1018 00:00:55.142927 29625 net.cpp:406] cont_4_lstm1_cont_slice_3_split <- cont_4
I1018 00:00:55.142968 29625 net.cpp:380] cont_4_lstm1_cont_slice_3_split -> cont_4_lstm1_cont_slice_3_split_0
I1018 00:00:55.143008 29625 net.cpp:380] cont_4_lstm1_cont_slice_3_split -> cont_4_lstm1_cont_slice_3_split_1
I1018 00:00:55.143306 29625 net.cpp:122] Setting up cont_4_lstm1_cont_slice_3_split
I1018 00:00:55.143411 29625 net.cpp:129] Top shape: 1 5 (5)
I1018 00:00:55.143429 29625 net.cpp:129] Top shape: 1 5 (5)
I1018 00:00:55.143441 29625 net.cpp:137] Memory required for data: 102880
I1018 00:00:55.143468 29625 layer_factory.hpp:77] Creating layer cont_5_lstm1_cont_slice_4_split
I1018 00:00:55.143532 29625 net.cpp:84] Creating Layer cont_5_lstm1_cont_slice_4_split
I1018 00:00:55.143582 29625 net.cpp:406] cont_5_lstm1_cont_slice_4_split <- cont_5
I1018 00:00:55.143630 29625 net.cpp:380] cont_5_lstm1_cont_slice_4_split -> cont_5_lstm1_cont_slice_4_split_0
I1018 00:00:55.143728 29625 net.cpp:380] cont_5_lstm1_cont_slice_4_split -> cont_5_lstm1_cont_slice_4_split_1
I1018 00:00:55.143842 29625 net.cpp:122] Setting up cont_5_lstm1_cont_slice_4_split
I1018 00:00:55.143851 29625 net.cpp:129] Top shape: 1 5 (5)
I1018 00:00:55.143859 29625 net.cpp:129] Top shape: 1 5 (5)
I1018 00:00:55.143865 29625 net.cpp:137] Memory required for data: 102920
I1018 00:00:55.143872 29625 layer_factory.hpp:77] Creating layer cont_6_lstm1_cont_slice_5_split
I1018 00:00:55.143883 29625 net.cpp:84] Creating Layer cont_6_lstm1_cont_slice_5_split
I1018 00:00:55.143892 29625 net.cpp:406] cont_6_lstm1_cont_slice_5_split <- cont_6
I1018 00:00:55.143900 29625 net.cpp:380] cont_6_lstm1_cont_slice_5_split -> cont_6_lstm1_cont_slice_5_split_0
I1018 00:00:55.143911 29625 net.cpp:380] cont_6_lstm1_cont_slice_5_split -> cont_6_lstm1_cont_slice_5_split_1
I1018 00:00:55.143949 29625 net.cpp:122] Setting up cont_6_lstm1_cont_slice_5_split
I1018 00:00:55.143959 29625 net.cpp:129] Top shape: 1 5 (5)
I1018 00:00:55.143966 29625 net.cpp:129] Top shape: 1 5 (5)
I1018 00:00:55.143972 29625 net.cpp:137] Memory required for data: 102960
I1018 00:00:55.143980 29625 layer_factory.hpp:77] Creating layer cont_7_lstm1_cont_slice_6_split
I1018 00:00:55.143987 29625 net.cpp:84] Creating Layer cont_7_lstm1_cont_slice_6_split
I1018 00:00:55.143995 29625 net.cpp:406] cont_7_lstm1_cont_slice_6_split <- cont_7
I1018 00:00:55.144003 29625 net.cpp:380] cont_7_lstm1_cont_slice_6_split -> cont_7_lstm1_cont_slice_6_split_0
I1018 00:00:55.144014 29625 net.cpp:380] cont_7_lstm1_cont_slice_6_split -> cont_7_lstm1_cont_slice_6_split_1
I1018 00:00:55.144071 29625 net.cpp:122] Setting up cont_7_lstm1_cont_slice_6_split
I1018 00:00:55.144083 29625 net.cpp:129] Top shape: 1 5 (5)
I1018 00:00:55.144091 29625 net.cpp:129] Top shape: 1 5 (5)
I1018 00:00:55.144098 29625 net.cpp:137] Memory required for data: 103000
I1018 00:00:55.144104 29625 layer_factory.hpp:77] Creating layer cont_8_lstm1_cont_slice_7_split
I1018 00:00:55.144111 29625 net.cpp:84] Creating Layer cont_8_lstm1_cont_slice_7_split
I1018 00:00:55.144119 29625 net.cpp:406] cont_8_lstm1_cont_slice_7_split <- cont_8
I1018 00:00:55.144127 29625 net.cpp:380] cont_8_lstm1_cont_slice_7_split -> cont_8_lstm1_cont_slice_7_split_0
I1018 00:00:55.144138 29625 net.cpp:380] cont_8_lstm1_cont_slice_7_split -> cont_8_lstm1_cont_slice_7_split_1
I1018 00:00:55.144179 29625 net.cpp:122] Setting up cont_8_lstm1_cont_slice_7_split
I1018 00:00:55.144191 29625 net.cpp:129] Top shape: 1 5 (5)
I1018 00:00:55.144197 29625 net.cpp:129] Top shape: 1 5 (5)
I1018 00:00:55.144203 29625 net.cpp:137] Memory required for data: 103040
I1018 00:00:55.144210 29625 layer_factory.hpp:77] Creating layer lstm1_x_transform
I1018 00:00:55.144229 29625 net.cpp:84] Creating Layer lstm1_x_transform
I1018 00:00:55.144238 29625 net.cpp:406] lstm1_x_transform <- x
I1018 00:00:55.144249 29625 net.cpp:380] lstm1_x_transform -> W_xc_x
I1018 00:00:55.164397 29625 net.cpp:122] Setting up lstm1_x_transform
I1018 00:00:55.164438 29625 net.cpp:129] Top shape: 8 5 2048 (81920)
I1018 00:00:55.164445 29625 net.cpp:137] Memory required for data: 430720
I1018 00:00:55.164470 29625 layer_factory.hpp:77] Creating layer lstm1_W_xc_x_slice
I1018 00:00:55.164494 29625 net.cpp:84] Creating Layer lstm1_W_xc_x_slice
I1018 00:00:55.164505 29625 net.cpp:406] lstm1_W_xc_x_slice <- W_xc_x
I1018 00:00:55.164518 29625 net.cpp:380] lstm1_W_xc_x_slice -> W_xc_x_1
I1018 00:00:55.164538 29625 net.cpp:380] lstm1_W_xc_x_slice -> W_xc_x_2
I1018 00:00:55.164559 29625 net.cpp:380] lstm1_W_xc_x_slice -> W_xc_x_3
I1018 00:00:55.164573 29625 net.cpp:380] lstm1_W_xc_x_slice -> W_xc_x_4
I1018 00:00:55.164600 29625 net.cpp:380] lstm1_W_xc_x_slice -> W_xc_x_5
I1018 00:00:55.164618 29625 net.cpp:380] lstm1_W_xc_x_slice -> W_xc_x_6
I1018 00:00:55.164638 29625 net.cpp:380] lstm1_W_xc_x_slice -> W_xc_x_7
I1018 00:00:55.164650 29625 net.cpp:380] lstm1_W_xc_x_slice -> W_xc_x_8
I1018 00:00:55.164777 29625 net.cpp:122] Setting up lstm1_W_xc_x_slice
I1018 00:00:55.164793 29625 net.cpp:129] Top shape: 1 5 2048 (10240)
I1018 00:00:55.164803 29625 net.cpp:129] Top shape: 1 5 2048 (10240)
I1018 00:00:55.164811 29625 net.cpp:129] Top shape: 1 5 2048 (10240)
I1018 00:00:55.164821 29625 net.cpp:129] Top shape: 1 5 2048 (10240)
I1018 00:00:55.164830 29625 net.cpp:129] Top shape: 1 5 2048 (10240)
I1018 00:00:55.164839 29625 net.cpp:129] Top shape: 1 5 2048 (10240)
I1018 00:00:55.164849 29625 net.cpp:129] Top shape: 1 5 2048 (10240)
I1018 00:00:55.164856 29625 net.cpp:129] Top shape: 1 5 2048 (10240)
I1018 00:00:55.164863 29625 net.cpp:137] Memory required for data: 758400
I1018 00:00:55.164871 29625 layer_factory.hpp:77] Creating layer lstm1_h_conted_0
I1018 00:00:55.164894 29625 net.cpp:84] Creating Layer lstm1_h_conted_0
I1018 00:00:55.164904 29625 net.cpp:406] lstm1_h_conted_0 <- h_0
I1018 00:00:55.164916 29625 net.cpp:406] lstm1_h_conted_0 <- cont_1_lstm1_cont_slice_0_split_0
I1018 00:00:55.164927 29625 net.cpp:380] lstm1_h_conted_0 -> h_conted_0
I1018 00:00:55.165007 29625 net.cpp:122] Setting up lstm1_h_conted_0
I1018 00:00:55.165020 29625 net.cpp:129] Top shape: 1 5 512 (2560)
I1018 00:00:55.165027 29625 net.cpp:137] Memory required for data: 768640
I1018 00:00:55.165035 29625 layer_factory.hpp:77] Creating layer lstm1_transform_1
I1018 00:00:55.165048 29625 net.cpp:84] Creating Layer lstm1_transform_1
I1018 00:00:55.165057 29625 net.cpp:406] lstm1_transform_1 <- h_conted_0
I1018 00:00:55.165077 29625 net.cpp:380] lstm1_transform_1 -> W_hc_h_0
I1018 00:00:55.176980 29625 net.cpp:122] Setting up lstm1_transform_1
I1018 00:00:55.177014 29625 net.cpp:129] Top shape: 1 5 2048 (10240)
I1018 00:00:55.177021 29625 net.cpp:137] Memory required for data: 809600
I1018 00:00:55.177039 29625 layer_factory.hpp:77] Creating layer lstm1_gate_input_1
I1018 00:00:55.177055 29625 net.cpp:84] Creating Layer lstm1_gate_input_1
I1018 00:00:55.177065 29625 net.cpp:406] lstm1_gate_input_1 <- W_hc_h_0
I1018 00:00:55.177076 29625 net.cpp:406] lstm1_gate_input_1 <- W_xc_x_1
I1018 00:00:55.177088 29625 net.cpp:380] lstm1_gate_input_1 -> gate_input_1
I1018 00:00:55.177139 29625 net.cpp:122] Setting up lstm1_gate_input_1
I1018 00:00:55.177152 29625 net.cpp:129] Top shape: 1 5 2048 (10240)
I1018 00:00:55.177160 29625 net.cpp:137] Memory required for data: 850560
I1018 00:00:55.177166 29625 layer_factory.hpp:77] Creating layer lstm1_unit_1
I1018 00:00:55.177188 29625 net.cpp:84] Creating Layer lstm1_unit_1
I1018 00:00:55.177197 29625 net.cpp:406] lstm1_unit_1 <- c_0
I1018 00:00:55.177208 29625 net.cpp:406] lstm1_unit_1 <- gate_input_1
I1018 00:00:55.177217 29625 net.cpp:406] lstm1_unit_1 <- cont_1_lstm1_cont_slice_0_split_1
I1018 00:00:55.177228 29625 net.cpp:380] lstm1_unit_1 -> c_1
I1018 00:00:55.177242 29625 net.cpp:380] lstm1_unit_1 -> h_1
I1018 00:00:55.177306 29625 net.cpp:122] Setting up lstm1_unit_1
I1018 00:00:55.177319 29625 net.cpp:129] Top shape: 1 5 512 (2560)
I1018 00:00:55.177328 29625 net.cpp:129] Top shape: 1 5 512 (2560)
I1018 00:00:55.177335 29625 net.cpp:137] Memory required for data: 871040
I1018 00:00:55.177341 29625 layer_factory.hpp:77] Creating layer h_1_lstm1_unit_1_1_split
I1018 00:00:55.177352 29625 net.cpp:84] Creating Layer h_1_lstm1_unit_1_1_split
I1018 00:00:55.177361 29625 net.cpp:406] h_1_lstm1_unit_1_1_split <- h_1
I1018 00:00:55.177372 29625 net.cpp:380] h_1_lstm1_unit_1_1_split -> h_1_lstm1_unit_1_1_split_0
I1018 00:00:55.177386 29625 net.cpp:380] h_1_lstm1_unit_1_1_split -> h_1_lstm1_unit_1_1_split_1
I1018 00:00:55.177435 29625 net.cpp:122] Setting up h_1_lstm1_unit_1_1_split
I1018 00:00:55.177449 29625 net.cpp:129] Top shape: 1 5 512 (2560)
I1018 00:00:55.177459 29625 net.cpp:129] Top shape: 1 5 512 (2560)
I1018 00:00:55.177466 29625 net.cpp:137] Memory required for data: 891520
I1018 00:00:55.177474 29625 layer_factory.hpp:77] Creating layer lstm1_h_conted_1
I1018 00:00:55.177487 29625 net.cpp:84] Creating Layer lstm1_h_conted_1
I1018 00:00:55.177496 29625 net.cpp:406] lstm1_h_conted_1 <- h_1_lstm1_unit_1_1_split_0
I1018 00:00:55.177507 29625 net.cpp:406] lstm1_h_conted_1 <- cont_2_lstm1_cont_slice_1_split_0
I1018 00:00:55.177518 29625 net.cpp:380] lstm1_h_conted_1 -> h_conted_1
I1018 00:00:55.177600 29625 net.cpp:122] Setting up lstm1_h_conted_1
I1018 00:00:55.177613 29625 net.cpp:129] Top shape: 1 5 512 (2560)
I1018 00:00:55.177619 29625 net.cpp:137] Memory required for data: 901760
I1018 00:00:55.177626 29625 layer_factory.hpp:77] Creating layer lstm1_transform_2
I1018 00:00:55.177641 29625 net.cpp:84] Creating Layer lstm1_transform_2
I1018 00:00:55.177650 29625 net.cpp:406] lstm1_transform_2 <- h_conted_1
I1018 00:00:55.177662 29625 net.cpp:380] lstm1_transform_2 -> W_hc_h_1
I1018 00:00:55.192088 29625 net.cpp:122] Setting up lstm1_transform_2
I1018 00:00:55.192245 29625 net.cpp:129] Top shape: 1 5 2048 (10240)
I1018 00:00:55.192251 29625 net.cpp:137] Memory required for data: 942720
I1018 00:00:55.192261 29625 net.cpp:465] Sharing parameters 'W_hc' owned by layer 'lstm1_transform_1', param index 0
I1018 00:00:55.192272 29625 layer_factory.hpp:77] Creating layer lstm1_gate_input_2
I1018 00:00:55.192289 29625 net.cpp:84] Creating Layer lstm1_gate_input_2
I1018 00:00:55.192298 29625 net.cpp:406] lstm1_gate_input_2 <- W_hc_h_1
I1018 00:00:55.192311 29625 net.cpp:406] lstm1_gate_input_2 <- W_xc_x_2
I1018 00:00:55.192322 29625 net.cpp:380] lstm1_gate_input_2 -> gate_input_2
I1018 00:00:55.192456 29625 net.cpp:122] Setting up lstm1_gate_input_2
I1018 00:00:55.192543 29625 net.cpp:129] Top shape: 1 5 2048 (10240)
I1018 00:00:55.192579 29625 net.cpp:137] Memory required for data: 983680
I1018 00:00:55.192601 29625 layer_factory.hpp:77] Creating layer lstm1_unit_2
I1018 00:00:55.192667 29625 net.cpp:84] Creating Layer lstm1_unit_2
I1018 00:00:55.192697 29625 net.cpp:406] lstm1_unit_2 <- c_1
I1018 00:00:55.192741 29625 net.cpp:406] lstm1_unit_2 <- gate_input_2
I1018 00:00:55.192790 29625 net.cpp:406] lstm1_unit_2 <- cont_2_lstm1_cont_slice_1_split_1
I1018 00:00:55.192839 29625 net.cpp:380] lstm1_unit_2 -> c_2
I1018 00:00:55.192944 29625 net.cpp:380] lstm1_unit_2 -> h_2
I1018 00:00:55.193303 29625 net.cpp:122] Setting up lstm1_unit_2
I1018 00:00:55.193392 29625 net.cpp:129] Top shape: 1 5 512 (2560)
I1018 00:00:55.193420 29625 net.cpp:129] Top shape: 1 5 512 (2560)
I1018 00:00:55.193439 29625 net.cpp:137] Memory required for data: 1004160
I1018 00:00:55.193472 29625 layer_factory.hpp:77] Creating layer h_2_lstm1_unit_2_1_split
I1018 00:00:55.193544 29625 net.cpp:84] Creating Layer h_2_lstm1_unit_2_1_split
I1018 00:00:55.193578 29625 net.cpp:406] h_2_lstm1_unit_2_1_split <- h_2
I1018 00:00:55.193627 29625 net.cpp:380] h_2_lstm1_unit_2_1_split -> h_2_lstm1_unit_2_1_split_0
I1018 00:00:55.193696 29625 net.cpp:380] h_2_lstm1_unit_2_1_split -> h_2_lstm1_unit_2_1_split_1
I1018 00:00:55.193804 29625 net.cpp:122] Setting up h_2_lstm1_unit_2_1_split
I1018 00:00:55.193816 29625 net.cpp:129] Top shape: 1 5 512 (2560)
I1018 00:00:55.193825 29625 net.cpp:129] Top shape: 1 5 512 (2560)
I1018 00:00:55.193830 29625 net.cpp:137] Memory required for data: 1024640
I1018 00:00:55.193836 29625 layer_factory.hpp:77] Creating layer lstm1_h_conted_2
I1018 00:00:55.193850 29625 net.cpp:84] Creating Layer lstm1_h_conted_2
I1018 00:00:55.193858 29625 net.cpp:406] lstm1_h_conted_2 <- h_2_lstm1_unit_2_1_split_0
I1018 00:00:55.193868 29625 net.cpp:406] lstm1_h_conted_2 <- cont_3_lstm1_cont_slice_2_split_0
I1018 00:00:55.193878 29625 net.cpp:380] lstm1_h_conted_2 -> h_conted_2
I1018 00:00:55.194193 29625 net.cpp:122] Setting up lstm1_h_conted_2
I1018 00:00:55.194269 29625 net.cpp:129] Top shape: 1 5 512 (2560)
I1018 00:00:55.194295 29625 net.cpp:137] Memory required for data: 1034880
I1018 00:00:55.194326 29625 layer_factory.hpp:77] Creating layer lstm1_transform_3
I1018 00:00:55.194422 29625 net.cpp:84] Creating Layer lstm1_transform_3
I1018 00:00:55.194483 29625 net.cpp:406] lstm1_transform_3 <- h_conted_2
I1018 00:00:55.194550 29625 net.cpp:380] lstm1_transform_3 -> W_hc_h_2
I1018 00:00:55.210536 29625 net.cpp:122] Setting up lstm1_transform_3
I1018 00:00:55.210577 29625 net.cpp:129] Top shape: 1 5 2048 (10240)
I1018 00:00:55.210583 29625 net.cpp:137] Memory required for data: 1075840
I1018 00:00:55.210611 29625 net.cpp:465] Sharing parameters 'W_hc' owned by layer 'lstm1_transform_1', param index 0
I1018 00:00:55.210620 29625 layer_factory.hpp:77] Creating layer lstm1_gate_input_3
I1018 00:00:55.210638 29625 net.cpp:84] Creating Layer lstm1_gate_input_3
I1018 00:00:55.210649 29625 net.cpp:406] lstm1_gate_input_3 <- W_hc_h_2
I1018 00:00:55.210660 29625 net.cpp:406] lstm1_gate_input_3 <- W_xc_x_3
I1018 00:00:55.210674 29625 net.cpp:380] lstm1_gate_input_3 -> gate_input_3
I1018 00:00:55.210727 29625 net.cpp:122] Setting up lstm1_gate_input_3
I1018 00:00:55.210739 29625 net.cpp:129] Top shape: 1 5 2048 (10240)
I1018 00:00:55.210747 29625 net.cpp:137] Memory required for data: 1116800
I1018 00:00:55.210764 29625 layer_factory.hpp:77] Creating layer lstm1_unit_3
I1018 00:00:55.210786 29625 net.cpp:84] Creating Layer lstm1_unit_3
I1018 00:00:55.210795 29625 net.cpp:406] lstm1_unit_3 <- c_2
I1018 00:00:55.210804 29625 net.cpp:406] lstm1_unit_3 <- gate_input_3
I1018 00:00:55.210814 29625 net.cpp:406] lstm1_unit_3 <- cont_3_lstm1_cont_slice_2_split_1
I1018 00:00:55.210824 29625 net.cpp:380] lstm1_unit_3 -> c_3
I1018 00:00:55.210837 29625 net.cpp:380] lstm1_unit_3 -> h_3
I1018 00:00:55.210896 29625 net.cpp:122] Setting up lstm1_unit_3
I1018 00:00:55.210907 29625 net.cpp:129] Top shape: 1 5 512 (2560)
I1018 00:00:55.210916 29625 net.cpp:129] Top shape: 1 5 512 (2560)
I1018 00:00:55.210922 29625 net.cpp:137] Memory required for data: 1137280
I1018 00:00:55.210929 29625 layer_factory.hpp:77] Creating layer h_3_lstm1_unit_3_1_split
I1018 00:00:55.210943 29625 net.cpp:84] Creating Layer h_3_lstm1_unit_3_1_split
I1018 00:00:55.210952 29625 net.cpp:406] h_3_lstm1_unit_3_1_split <- h_3
I1018 00:00:55.210963 29625 net.cpp:380] h_3_lstm1_unit_3_1_split -> h_3_lstm1_unit_3_1_split_0
I1018 00:00:55.210974 29625 net.cpp:380] h_3_lstm1_unit_3_1_split -> h_3_lstm1_unit_3_1_split_1
I1018 00:00:55.211031 29625 net.cpp:122] Setting up h_3_lstm1_unit_3_1_split
I1018 00:00:55.211041 29625 net.cpp:129] Top shape: 1 5 512 (2560)
I1018 00:00:55.211050 29625 net.cpp:129] Top shape: 1 5 512 (2560)
I1018 00:00:55.211055 29625 net.cpp:137] Memory required for data: 1157760
I1018 00:00:55.211062 29625 layer_factory.hpp:77] Creating layer lstm1_h_conted_3
I1018 00:00:55.211078 29625 net.cpp:84] Creating Layer lstm1_h_conted_3
I1018 00:00:55.211086 29625 net.cpp:406] lstm1_h_conted_3 <- h_3_lstm1_unit_3_1_split_0
I1018 00:00:55.211096 29625 net.cpp:406] lstm1_h_conted_3 <- cont_4_lstm1_cont_slice_3_split_0
I1018 00:00:55.211105 29625 net.cpp:380] lstm1_h_conted_3 -> h_conted_3
I1018 00:00:55.211180 29625 net.cpp:122] Setting up lstm1_h_conted_3
I1018 00:00:55.211191 29625 net.cpp:129] Top shape: 1 5 512 (2560)
I1018 00:00:55.211197 29625 net.cpp:137] Memory required for data: 1168000
I1018 00:00:55.211205 29625 layer_factory.hpp:77] Creating layer lstm1_transform_4
I1018 00:00:55.211220 29625 net.cpp:84] Creating Layer lstm1_transform_4
I1018 00:00:55.211227 29625 net.cpp:406] lstm1_transform_4 <- h_conted_3
I1018 00:00:55.211236 29625 net.cpp:380] lstm1_transform_4 -> W_hc_h_3
I1018 00:00:55.223148 29625 net.cpp:122] Setting up lstm1_transform_4
I1018 00:00:55.223173 29625 net.cpp:129] Top shape: 1 5 2048 (10240)
I1018 00:00:55.223179 29625 net.cpp:137] Memory required for data: 1208960
I1018 00:00:55.223189 29625 net.cpp:465] Sharing parameters 'W_hc' owned by layer 'lstm1_transform_1', param index 0
I1018 00:00:55.223197 29625 layer_factory.hpp:77] Creating layer lstm1_gate_input_4
I1018 00:00:55.223209 29625 net.cpp:84] Creating Layer lstm1_gate_input_4
I1018 00:00:55.223217 29625 net.cpp:406] lstm1_gate_input_4 <- W_hc_h_3
I1018 00:00:55.223227 29625 net.cpp:406] lstm1_gate_input_4 <- W_xc_x_4
I1018 00:00:55.223238 29625 net.cpp:380] lstm1_gate_input_4 -> gate_input_4
I1018 00:00:55.223278 29625 net.cpp:122] Setting up lstm1_gate_input_4
I1018 00:00:55.223290 29625 net.cpp:129] Top shape: 1 5 2048 (10240)
I1018 00:00:55.223297 29625 net.cpp:137] Memory required for data: 1249920
I1018 00:00:55.223304 29625 layer_factory.hpp:77] Creating layer lstm1_unit_4
I1018 00:00:55.223318 29625 net.cpp:84] Creating Layer lstm1_unit_4
I1018 00:00:55.223327 29625 net.cpp:406] lstm1_unit_4 <- c_3
I1018 00:00:55.223336 29625 net.cpp:406] lstm1_unit_4 <- gate_input_4
I1018 00:00:55.223345 29625 net.cpp:406] lstm1_unit_4 <- cont_4_lstm1_cont_slice_3_split_1
I1018 00:00:55.223356 29625 net.cpp:380] lstm1_unit_4 -> c_4
I1018 00:00:55.223367 29625 net.cpp:380] lstm1_unit_4 -> h_4
I1018 00:00:55.223424 29625 net.cpp:122] Setting up lstm1_unit_4
I1018 00:00:55.223435 29625 net.cpp:129] Top shape: 1 5 512 (2560)
I1018 00:00:55.223444 29625 net.cpp:129] Top shape: 1 5 512 (2560)
I1018 00:00:55.223451 29625 net.cpp:137] Memory required for data: 1270400
I1018 00:00:55.223459 29625 layer_factory.hpp:77] Creating layer h_4_lstm1_unit_4_1_split
I1018 00:00:55.223477 29625 net.cpp:84] Creating Layer h_4_lstm1_unit_4_1_split
I1018 00:00:55.223485 29625 net.cpp:406] h_4_lstm1_unit_4_1_split <- h_4
I1018 00:00:55.223496 29625 net.cpp:380] h_4_lstm1_unit_4_1_split -> h_4_lstm1_unit_4_1_split_0
I1018 00:00:55.223510 29625 net.cpp:380] h_4_lstm1_unit_4_1_split -> h_4_lstm1_unit_4_1_split_1
I1018 00:00:55.223562 29625 net.cpp:122] Setting up h_4_lstm1_unit_4_1_split
I1018 00:00:55.223574 29625 net.cpp:129] Top shape: 1 5 512 (2560)
I1018 00:00:55.223583 29625 net.cpp:129] Top shape: 1 5 512 (2560)
I1018 00:00:55.223590 29625 net.cpp:137] Memory required for data: 1290880
I1018 00:00:55.223598 29625 layer_factory.hpp:77] Creating layer lstm1_h_conted_4
I1018 00:00:55.223609 29625 net.cpp:84] Creating Layer lstm1_h_conted_4
I1018 00:00:55.223618 29625 net.cpp:406] lstm1_h_conted_4 <- h_4_lstm1_unit_4_1_split_0
I1018 00:00:55.223628 29625 net.cpp:406] lstm1_h_conted_4 <- cont_5_lstm1_cont_slice_4_split_0
I1018 00:00:55.223649 29625 net.cpp:380] lstm1_h_conted_4 -> h_conted_4
I1018 00:00:55.223726 29625 net.cpp:122] Setting up lstm1_h_conted_4
I1018 00:00:55.223737 29625 net.cpp:129] Top shape: 1 5 512 (2560)
I1018 00:00:55.223743 29625 net.cpp:137] Memory required for data: 1301120
I1018 00:00:55.223750 29625 layer_factory.hpp:77] Creating layer lstm1_transform_5
I1018 00:00:55.223763 29625 net.cpp:84] Creating Layer lstm1_transform_5
I1018 00:00:55.223772 29625 net.cpp:406] lstm1_transform_5 <- h_conted_4
I1018 00:00:55.223786 29625 net.cpp:380] lstm1_transform_5 -> W_hc_h_4
I1018 00:00:55.242388 29625 net.cpp:122] Setting up lstm1_transform_5
I1018 00:00:55.242419 29625 net.cpp:129] Top shape: 1 5 2048 (10240)
I1018 00:00:55.242425 29625 net.cpp:137] Memory required for data: 1342080
I1018 00:00:55.242435 29625 net.cpp:465] Sharing parameters 'W_hc' owned by layer 'lstm1_transform_1', param index 0
I1018 00:00:55.242444 29625 layer_factory.hpp:77] Creating layer lstm1_gate_input_5
I1018 00:00:55.242460 29625 net.cpp:84] Creating Layer lstm1_gate_input_5
I1018 00:00:55.242468 29625 net.cpp:406] lstm1_gate_input_5 <- W_hc_h_4
I1018 00:00:55.242481 29625 net.cpp:406] lstm1_gate_input_5 <- W_xc_x_5
I1018 00:00:55.242496 29625 net.cpp:380] lstm1_gate_input_5 -> gate_input_5
I1018 00:00:55.242545 29625 net.cpp:122] Setting up lstm1_gate_input_5
I1018 00:00:55.242558 29625 net.cpp:129] Top shape: 1 5 2048 (10240)
I1018 00:00:55.242565 29625 net.cpp:137] Memory required for data: 1383040
I1018 00:00:55.242573 29625 layer_factory.hpp:77] Creating layer lstm1_unit_5
I1018 00:00:55.242585 29625 net.cpp:84] Creating Layer lstm1_unit_5
I1018 00:00:55.242594 29625 net.cpp:406] lstm1_unit_5 <- c_4
I1018 00:00:55.242604 29625 net.cpp:406] lstm1_unit_5 <- gate_input_5
I1018 00:00:55.242614 29625 net.cpp:406] lstm1_unit_5 <- cont_5_lstm1_cont_slice_4_split_1
I1018 00:00:55.242625 29625 net.cpp:380] lstm1_unit_5 -> c_5
I1018 00:00:55.242638 29625 net.cpp:380] lstm1_unit_5 -> h_5
I1018 00:00:55.242702 29625 net.cpp:122] Setting up lstm1_unit_5
I1018 00:00:55.242713 29625 net.cpp:129] Top shape: 1 5 512 (2560)
I1018 00:00:55.242722 29625 net.cpp:129] Top shape: 1 5 512 (2560)
I1018 00:00:55.242729 29625 net.cpp:137] Memory required for data: 1403520
I1018 00:00:55.242738 29625 layer_factory.hpp:77] Creating layer h_5_lstm1_unit_5_1_split
I1018 00:00:55.242748 29625 net.cpp:84] Creating Layer h_5_lstm1_unit_5_1_split
I1018 00:00:55.242756 29625 net.cpp:406] h_5_lstm1_unit_5_1_split <- h_5
I1018 00:00:55.242768 29625 net.cpp:380] h_5_lstm1_unit_5_1_split -> h_5_lstm1_unit_5_1_split_0
I1018 00:00:55.242780 29625 net.cpp:380] h_5_lstm1_unit_5_1_split -> h_5_lstm1_unit_5_1_split_1
I1018 00:00:55.242832 29625 net.cpp:122] Setting up h_5_lstm1_unit_5_1_split
I1018 00:00:55.242843 29625 net.cpp:129] Top shape: 1 5 512 (2560)
I1018 00:00:55.242853 29625 net.cpp:129] Top shape: 1 5 512 (2560)
I1018 00:00:55.242861 29625 net.cpp:137] Memory required for data: 1424000
I1018 00:00:55.242867 29625 layer_factory.hpp:77] Creating layer lstm1_h_conted_5
I1018 00:00:55.242882 29625 net.cpp:84] Creating Layer lstm1_h_conted_5
I1018 00:00:55.242890 29625 net.cpp:406] lstm1_h_conted_5 <- h_5_lstm1_unit_5_1_split_0
I1018 00:00:55.242900 29625 net.cpp:406] lstm1_h_conted_5 <- cont_6_lstm1_cont_slice_5_split_0
I1018 00:00:55.242913 29625 net.cpp:380] lstm1_h_conted_5 -> h_conted_5
I1018 00:00:55.242995 29625 net.cpp:122] Setting up lstm1_h_conted_5
I1018 00:00:55.243007 29625 net.cpp:129] Top shape: 1 5 512 (2560)
I1018 00:00:55.243015 29625 net.cpp:137] Memory required for data: 1434240
I1018 00:00:55.243021 29625 layer_factory.hpp:77] Creating layer lstm1_transform_6
I1018 00:00:55.243036 29625 net.cpp:84] Creating Layer lstm1_transform_6
I1018 00:00:55.243044 29625 net.cpp:406] lstm1_transform_6 <- h_conted_5
I1018 00:00:55.243060 29625 net.cpp:380] lstm1_transform_6 -> W_hc_h_5
I1018 00:00:55.255084 29625 net.cpp:122] Setting up lstm1_transform_6
I1018 00:00:55.255120 29625 net.cpp:129] Top shape: 1 5 2048 (10240)
I1018 00:00:55.255126 29625 net.cpp:137] Memory required for data: 1475200
I1018 00:00:55.255138 29625 net.cpp:465] Sharing parameters 'W_hc' owned by layer 'lstm1_transform_1', param index 0
I1018 00:00:55.255146 29625 layer_factory.hpp:77] Creating layer lstm1_gate_input_6
I1018 00:00:55.255162 29625 net.cpp:84] Creating Layer lstm1_gate_input_6
I1018 00:00:55.255170 29625 net.cpp:406] lstm1_gate_input_6 <- W_hc_h_5
I1018 00:00:55.255183 29625 net.cpp:406] lstm1_gate_input_6 <- W_xc_x_6
I1018 00:00:55.255195 29625 net.cpp:380] lstm1_gate_input_6 -> gate_input_6
I1018 00:00:55.255245 29625 net.cpp:122] Setting up lstm1_gate_input_6
I1018 00:00:55.255257 29625 net.cpp:129] Top shape: 1 5 2048 (10240)
I1018 00:00:55.255264 29625 net.cpp:137] Memory required for data: 1516160
I1018 00:00:55.255271 29625 layer_factory.hpp:77] Creating layer lstm1_unit_6
I1018 00:00:55.255286 29625 net.cpp:84] Creating Layer lstm1_unit_6
I1018 00:00:55.255295 29625 net.cpp:406] lstm1_unit_6 <- c_5
I1018 00:00:55.255306 29625 net.cpp:406] lstm1_unit_6 <- gate_input_6
I1018 00:00:55.255314 29625 net.cpp:406] lstm1_unit_6 <- cont_6_lstm1_cont_slice_5_split_1
I1018 00:00:55.255326 29625 net.cpp:380] lstm1_unit_6 -> c_6
I1018 00:00:55.255337 29625 net.cpp:380] lstm1_unit_6 -> h_6
I1018 00:00:55.255400 29625 net.cpp:122] Setting up lstm1_unit_6
I1018 00:00:55.255411 29625 net.cpp:129] Top shape: 1 5 512 (2560)
I1018 00:00:55.255420 29625 net.cpp:129] Top shape: 1 5 512 (2560)
I1018 00:00:55.255429 29625 net.cpp:137] Memory required for data: 1536640
I1018 00:00:55.255435 29625 layer_factory.hpp:77] Creating layer h_6_lstm1_unit_6_1_split
I1018 00:00:55.255450 29625 net.cpp:84] Creating Layer h_6_lstm1_unit_6_1_split
I1018 00:00:55.255457 29625 net.cpp:406] h_6_lstm1_unit_6_1_split <- h_6
I1018 00:00:55.255468 29625 net.cpp:380] h_6_lstm1_unit_6_1_split -> h_6_lstm1_unit_6_1_split_0
I1018 00:00:55.255481 29625 net.cpp:380] h_6_lstm1_unit_6_1_split -> h_6_lstm1_unit_6_1_split_1
I1018 00:00:55.255532 29625 net.cpp:122] Setting up h_6_lstm1_unit_6_1_split
I1018 00:00:55.255543 29625 net.cpp:129] Top shape: 1 5 512 (2560)
I1018 00:00:55.255551 29625 net.cpp:129] Top shape: 1 5 512 (2560)
I1018 00:00:55.255558 29625 net.cpp:137] Memory required for data: 1557120
I1018 00:00:55.255566 29625 layer_factory.hpp:77] Creating layer lstm1_h_conted_6
I1018 00:00:55.255583 29625 net.cpp:84] Creating Layer lstm1_h_conted_6
I1018 00:00:55.255591 29625 net.cpp:406] lstm1_h_conted_6 <- h_6_lstm1_unit_6_1_split_0
I1018 00:00:55.255601 29625 net.cpp:406] lstm1_h_conted_6 <- cont_7_lstm1_cont_slice_6_split_0
I1018 00:00:55.255612 29625 net.cpp:380] lstm1_h_conted_6 -> h_conted_6
I1018 00:00:55.255692 29625 net.cpp:122] Setting up lstm1_h_conted_6
I1018 00:00:55.255703 29625 net.cpp:129] Top shape: 1 5 512 (2560)
I1018 00:00:55.255712 29625 net.cpp:137] Memory required for data: 1567360
I1018 00:00:55.255717 29625 layer_factory.hpp:77] Creating layer lstm1_transform_7
I1018 00:00:55.255733 29625 net.cpp:84] Creating Layer lstm1_transform_7
I1018 00:00:55.255741 29625 net.cpp:406] lstm1_transform_7 <- h_conted_6
I1018 00:00:55.255754 29625 net.cpp:380] lstm1_transform_7 -> W_hc_h_6
I1018 00:00:55.269711 29625 net.cpp:122] Setting up lstm1_transform_7
I1018 00:00:55.269750 29625 net.cpp:129] Top shape: 1 5 2048 (10240)
I1018 00:00:55.269773 29625 net.cpp:137] Memory required for data: 1608320
I1018 00:00:55.269841 29625 net.cpp:465] Sharing parameters 'W_hc' owned by layer 'lstm1_transform_1', param index 0
I1018 00:00:55.269879 29625 layer_factory.hpp:77] Creating layer lstm1_gate_input_7
I1018 00:00:55.269948 29625 net.cpp:84] Creating Layer lstm1_gate_input_7
I1018 00:00:55.269994 29625 net.cpp:406] lstm1_gate_input_7 <- W_hc_h_6
I1018 00:00:55.270058 29625 net.cpp:406] lstm1_gate_input_7 <- W_xc_x_7
I1018 00:00:55.270107 29625 net.cpp:380] lstm1_gate_input_7 -> gate_input_7
I1018 00:00:55.270462 29625 net.cpp:122] Setting up lstm1_gate_input_7
I1018 00:00:55.270552 29625 net.cpp:129] Top shape: 1 5 2048 (10240)
I1018 00:00:55.270584 29625 net.cpp:137] Memory required for data: 1649280
I1018 00:00:55.270604 29625 layer_factory.hpp:77] Creating layer lstm1_unit_7
I1018 00:00:55.270658 29625 net.cpp:84] Creating Layer lstm1_unit_7
I1018 00:00:55.270691 29625 net.cpp:406] lstm1_unit_7 <- c_6
I1018 00:00:55.270731 29625 net.cpp:406] lstm1_unit_7 <- gate_input_7
I1018 00:00:55.270813 29625 net.cpp:406] lstm1_unit_7 <- cont_7_lstm1_cont_slice_6_split_1
I1018 00:00:55.270875 29625 net.cpp:380] lstm1_unit_7 -> c_7
I1018 00:00:55.271016 29625 net.cpp:380] lstm1_unit_7 -> h_7
I1018 00:00:55.271216 29625 net.cpp:122] Setting up lstm1_unit_7
I1018 00:00:55.271229 29625 net.cpp:129] Top shape: 1 5 512 (2560)
I1018 00:00:55.271237 29625 net.cpp:129] Top shape: 1 5 512 (2560)
I1018 00:00:55.271245 29625 net.cpp:137] Memory required for data: 1669760
I1018 00:00:55.271252 29625 layer_factory.hpp:77] Creating layer h_7_lstm1_unit_7_1_split
I1018 00:00:55.271267 29625 net.cpp:84] Creating Layer h_7_lstm1_unit_7_1_split
I1018 00:00:55.271275 29625 net.cpp:406] h_7_lstm1_unit_7_1_split <- h_7
I1018 00:00:55.271287 29625 net.cpp:380] h_7_lstm1_unit_7_1_split -> h_7_lstm1_unit_7_1_split_0
I1018 00:00:55.271301 29625 net.cpp:380] h_7_lstm1_unit_7_1_split -> h_7_lstm1_unit_7_1_split_1
I1018 00:00:55.271359 29625 net.cpp:122] Setting up h_7_lstm1_unit_7_1_split
I1018 00:00:55.271378 29625 net.cpp:129] Top shape: 1 5 512 (2560)
I1018 00:00:55.271387 29625 net.cpp:129] Top shape: 1 5 512 (2560)
I1018 00:00:55.271394 29625 net.cpp:137] Memory required for data: 1690240
I1018 00:00:55.271401 29625 layer_factory.hpp:77] Creating layer lstm1_h_conted_7
I1018 00:00:55.271419 29625 net.cpp:84] Creating Layer lstm1_h_conted_7
I1018 00:00:55.271440 29625 net.cpp:406] lstm1_h_conted_7 <- h_7_lstm1_unit_7_1_split_0
I1018 00:00:55.271495 29625 net.cpp:406] lstm1_h_conted_7 <- cont_8_lstm1_cont_slice_7_split_0
I1018 00:00:55.271545 29625 net.cpp:380] lstm1_h_conted_7 -> h_conted_7
I1018 00:00:55.272017 29625 net.cpp:122] Setting up lstm1_h_conted_7
I1018 00:00:55.272172 29625 net.cpp:129] Top shape: 1 5 512 (2560)
I1018 00:00:55.272192 29625 net.cpp:137] Memory required for data: 1700480
I1018 00:00:55.272215 29625 layer_factory.hpp:77] Creating layer lstm1_transform_8
I1018 00:00:55.272284 29625 net.cpp:84] Creating Layer lstm1_transform_8
I1018 00:00:55.272334 29625 net.cpp:406] lstm1_transform_8 <- h_conted_7
I1018 00:00:55.272399 29625 net.cpp:380] lstm1_transform_8 -> W_hc_h_7
I1018 00:00:55.290390 29625 net.cpp:122] Setting up lstm1_transform_8
I1018 00:00:55.290429 29625 net.cpp:129] Top shape: 1 5 2048 (10240)
I1018 00:00:55.290437 29625 net.cpp:137] Memory required for data: 1741440
I1018 00:00:55.290449 29625 net.cpp:465] Sharing parameters 'W_hc' owned by layer 'lstm1_transform_1', param index 0
I1018 00:00:55.290459 29625 layer_factory.hpp:77] Creating layer lstm1_gate_input_8
I1018 00:00:55.290484 29625 net.cpp:84] Creating Layer lstm1_gate_input_8
I1018 00:00:55.290494 29625 net.cpp:406] lstm1_gate_input_8 <- W_hc_h_7
I1018 00:00:55.290508 29625 net.cpp:406] lstm1_gate_input_8 <- W_xc_x_8
I1018 00:00:55.290521 29625 net.cpp:380] lstm1_gate_input_8 -> gate_input_8
I1018 00:00:55.290568 29625 net.cpp:122] Setting up lstm1_gate_input_8
I1018 00:00:55.290581 29625 net.cpp:129] Top shape: 1 5 2048 (10240)
I1018 00:00:55.290588 29625 net.cpp:137] Memory required for data: 1782400
I1018 00:00:55.290596 29625 layer_factory.hpp:77] Creating layer lstm1_unit_8
I1018 00:00:55.290612 29625 net.cpp:84] Creating Layer lstm1_unit_8
I1018 00:00:55.290621 29625 net.cpp:406] lstm1_unit_8 <- c_7
I1018 00:00:55.290632 29625 net.cpp:406] lstm1_unit_8 <- gate_input_8
I1018 00:00:55.290642 29625 net.cpp:406] lstm1_unit_8 <- cont_8_lstm1_cont_slice_7_split_1
I1018 00:00:55.290652 29625 net.cpp:380] lstm1_unit_8 -> c_8
I1018 00:00:55.290668 29625 net.cpp:380] lstm1_unit_8 -> h_8
I1018 00:00:55.290730 29625 net.cpp:122] Setting up lstm1_unit_8
I1018 00:00:55.290742 29625 net.cpp:129] Top shape: 1 5 512 (2560)
I1018 00:00:55.290751 29625 net.cpp:129] Top shape: 1 5 512 (2560)
I1018 00:00:55.290760 29625 net.cpp:137] Memory required for data: 1802880
I1018 00:00:55.290766 29625 layer_factory.hpp:77] Creating layer lstm1_
I1018 00:00:55.290778 29625 net.cpp:84] Creating Layer lstm1_
I1018 00:00:55.290786 29625 net.cpp:406] lstm1_ <- c_8
I1018 00:00:55.290801 29625 net.cpp:380] lstm1_ -> c_T
I1018 00:00:55.290838 29625 net.cpp:122] Setting up lstm1_
I1018 00:00:55.290848 29625 net.cpp:129] Top shape: 1 5 512 (2560)
I1018 00:00:55.290856 29625 net.cpp:137] Memory required for data: 1813120
I1018 00:00:55.290863 29625 layer_factory.hpp:77] Creating layer lstm1_h_concat
I1018 00:00:55.290877 29625 net.cpp:84] Creating Layer lstm1_h_concat
I1018 00:00:55.290885 29625 net.cpp:406] lstm1_h_concat <- h_1_lstm1_unit_1_1_split_1
I1018 00:00:55.290895 29625 net.cpp:406] lstm1_h_concat <- h_2_lstm1_unit_2_1_split_1
I1018 00:00:55.290904 29625 net.cpp:406] lstm1_h_concat <- h_3_lstm1_unit_3_1_split_1
I1018 00:00:55.290913 29625 net.cpp:406] lstm1_h_concat <- h_4_lstm1_unit_4_1_split_1
I1018 00:00:55.290922 29625 net.cpp:406] lstm1_h_concat <- h_5_lstm1_unit_5_1_split_1
I1018 00:00:55.290931 29625 net.cpp:406] lstm1_h_concat <- h_6_lstm1_unit_6_1_split_1
I1018 00:00:55.290940 29625 net.cpp:406] lstm1_h_concat <- h_7_lstm1_unit_7_1_split_1
I1018 00:00:55.290946 29625 net.cpp:406] lstm1_h_concat <- h_8
I1018 00:00:55.290961 29625 net.cpp:380] lstm1_h_concat -> h
I1018 00:00:55.291007 29625 net.cpp:122] Setting up lstm1_h_concat
I1018 00:00:55.291023 29625 net.cpp:129] Top shape: 8 5 512 (20480)
I1018 00:00:55.291030 29625 net.cpp:137] Memory required for data: 1895040
I1018 00:00:55.291038 29625 layer_factory.hpp:77] Creating layer h_pseudoloss
I1018 00:00:55.291051 29625 net.cpp:84] Creating Layer h_pseudoloss
I1018 00:00:55.291059 29625 net.cpp:406] h_pseudoloss <- h
I1018 00:00:55.291071 29625 net.cpp:380] h_pseudoloss -> h_pseudoloss
I1018 00:00:55.291167 29625 net.cpp:122] Setting up h_pseudoloss
…
I1018 00:00:55.291713 29625 net.cpp:200] lstm1_ does not need backward computation.
I1018 00:00:55.291720 29625 net.cpp:242] This network produces output c_T
I1018 00:00:55.291728 29625 net.cpp:242] This network produces output h_pseudoloss
I1018 00:00:55.298020 29625 net.cpp:255] Network initialization done.
I1018 00:00:55.298178 29625 recurrent_layer.cpp:150] Adding parameter 0: W_xc
I1018 00:00:55.298192 29625 recurrent_layer.cpp:150] Adding parameter 1: b_c
I1018 00:00:55.298198 29625 recurrent_layer.cpp:150] Adding parameter 2: W_hc
I1018 00:00:55.298347 29625 net.cpp:122] Setting up lstm1
I1018 00:00:55.298363 29625 net.cpp:129] Top shape: 8 5 512 (20480)
I1018 00:00:55.298372 29625 net.cpp:137] Memory required for data: 577188500
I1018 00:00:55.298388 29625 layer_factory.hpp:77] Creating layer lstm1-drop
I1018 00:00:55.298413 29625 net.cpp:84] Creating Layer lstm1-drop
I1018 00:00:55.298427 29625 net.cpp:406] lstm1-drop <- lstm1
I1018 00:00:55.298440 29625 net.cpp:380] lstm1-drop -> lstm1-drop
I1018 00:00:55.298493 29625 net.cpp:122] Setting up lstm1-drop
I1018 00:00:55.298506 29625 net.cpp:129] Top shape: 8 5 512 (20480)
I1018 00:00:55.298513 29625 net.cpp:137] Memory required for data: 577270420
I1018 00:00:55.298521 29625 layer_factory.hpp:77] Creating layer fc-final
I1018 00:00:55.298539 29625 net.cpp:84] Creating Layer fc-final
I1018 00:00:55.298548 29625 net.cpp:406] fc-final <- lstm1-drop
I1018 00:00:55.298560 29625 net.cpp:380] fc-final -> fc-final
I1018 00:00:55.298897 29625 net.cpp:122] Setting up fc-final
I1018 00:00:55.298913 29625 net.cpp:129] Top shape: 8 5 10 (400)
I1018 00:00:55.298921 29625 net.cpp:137] Memory required for data: 577272020
I1018 00:00:55.298934 29625 layer_factory.hpp:77] Creating layer fc-final_fc-final_0_split
I1018 00:00:55.298945 29625 net.cpp:84] Creating Layer fc-final_fc-final_0_split
I1018 00:00:55.298954 29625 net.cpp:406] fc-final_fc-final_0_split <- fc-final
I1018 00:00:55.298965 29625 net.cpp:380] fc-final_fc-final_0_split -> fc-final_fc-final_0_split_0
I1018 00:00:55.298979 29625 net.cpp:380] fc-final_fc-final_0_split -> fc-final_fc-final_0_split_1
I1018 00:00:55.299028 29625 net.cpp:122] Setting up fc-final_fc-final_0_split
I1018 00:00:55.299041 29625 net.cpp:129] Top shape: 8 5 10 (400)
I1018 00:00:55.299051 29625 net.cpp:129] Top shape: 8 5 10 (400)
I1018 00:00:55.299057 29625 net.cpp:137] Memory required for data: 577275220
I1018 00:00:55.299065 29625 layer_factory.hpp:77] Creating layer loss
I1018 00:00:55.299082 29625 net.cpp:84] Creating Layer loss
I1018 00:00:55.299090 29625 net.cpp:406] loss <- fc-final_fc-final_0_split_0
I1018 00:00:55.299100 29625 net.cpp:406] loss <- reshape-label_label_tran_0_split_0
I1018 00:00:55.299111 29625 net.cpp:380] loss -> loss
…
I1018 00:00:55.300631 29625 net.cpp:294] The NetState phase (1) differed from the phase (0) specified by a rule in layer data
I1018 00:00:55.300842 29625 net.cpp:51] Initializing net from parameters: 
name: "VGG-Places365"
state {
  phase: TEST
  stage: "test-on-test"
}
layer {
  name: "data"
  type: "ImageData"
  top: "data"
  top: "label"
  include {
    phase: TEST
  }
  transform_param {
    mirror: false
    crop_size: 224
    mean_value: 104
    mean_value: 117
    mean_value: 123
  }
  image_data_param {
    source: "../Data/lsun_val_list.txt"
    batch_size: 150
    new_height: 256
    new_width: 256
  }
}
layer {
  name: "Silence"
  type: "Silence"
  bottom: "label"
  include {
    phase: TEST
  }
}
layer {
  name: "label_tran"
  type: "Python"
  bottom: "label"
  top: "reshape-label"
  top: "clip_markers"
  python_param {
    module: "data_preparation_sort_max_clip"
    layer: "ReshapeLabel"
  }
}
layer {
  name: "conv1_1"
  type: "Convolution"
  bottom: "data"
  top: "conv1_1"
  convolution_param {
    num_output: 64
    pad: 1
    kernel_size: 3
  }
}
layer {
  name: "relu1_1"
  type: "ReLU"
  bottom: "conv1_1"
  top: "conv1_1"
}
layer {
  name: "conv1_2"
  type: "Convolution"
  bottom: "conv1_1"
  top: "conv1_2"
  convolution_param {
    num_output: 64
    pad: 1
    kernel_size: 3
  }
}
layer {
  name: "relu1_2"
  type: "ReLU"
  bottom: "conv1_2"
  top: "conv1_2"
}
layer {
  name: "pool1"
  type: "Pooling"
  bottom: "conv1_2"
  top: "pool1"
  pooling_param {
    pool: MAX
    kernel_size: 2
    stride: 2
  }
}
layer {
  name: "conv2_1"
  type: "Convolution"
  bottom: "pool1"
  top: "conv2_1"
  convolution_param {
    num_output: 128
    pad: 1
    kernel_size: 3
  }
}
layer {
  name: "relu2_1"
  type: "ReLU"
  bottom: "conv2_1"
  top: "conv2_1"
}
layer {
  name: "conv2_2"
  type: "Convolution"
  bottom: "conv2_1"
  top: "conv2_2"
  convolution_param {
    num_output: 128
    pad: 1
    kernel_size: 3
  }
}
layer {
  name: "relu2_2"
  type: "ReLU"
  bottom: "conv2_2"
  top: "conv2_2"
}
layer {
  name: "pool2"
  type: "Pooling"
  bottom: "conv2_2"
  top: "pool2"
  pooling_param {
    pool: MAX
    kernel_size: 2
    stride: 2
  }
}
layer {
  name: "conv3_1"
  type: "Convolution"
  bottom: "pool2"
  top: "conv3_1"
  convolution_param {
    num_output: 256
    pad: 1
    kernel_size: 3
  }
}
layer {
  name: "relu3_1"
  type: "ReLU"
  bottom: "conv3_1"
  top: "conv3_1"
}
layer {
  name: "conv3_2"
  type: "Convolution"
  bottom: "conv3_1"
  top: "conv3_2"
  convolution_param {
    num_output: 256
    pad: 1
    kernel_size: 3
  }
}
layer {
  name: "relu3_2"
  type: "ReLU"
  bottom: "conv3_2"
  top: "conv3_2"
}
layer {
  name: "conv3_3"
  type: "Convolution"
  bottom: "conv3_2"
  top: "conv3_3"
  convolution_param {
    num_output: 256
    pad: 1
    kernel_size: 3
  }
}
layer {
  name: "relu3_3"
  type: "ReLU"
  bottom: "conv3_3"
  top: "conv3_3"
}
layer {
  name: "pool3"
  type: "Pooling"
  bottom: "conv3_3"
  top: "pool3"
  pooling_param {
    pool: MAX
    kernel_size: 2
    stride: 2
  }
}
layer {
  name: "conv4_1"
  type: "Convolution"
  bottom: "pool3"
  top: "conv4_1"
  convolution_param {
    num_output: 512
    pad: 1
    kernel_size: 3
  }
}
layer {
  name: "relu4_1"
  type: "ReLU"
  bottom: "conv4_1"
  top: "conv4_1"
}
layer {
  name: "conv4_2"
  type: "Convolution"
  bottom: "conv4_1"
  top: "conv4_2"
  convolution_param {
    num_output: 512
    pad: 1
    kernel_size: 3
  }
}
layer {
  name: "relu4_2"
  type: "ReLU"
  bottom: "conv4_2"
  top: "conv4_2"
}
layer {
  name: "conv4_3"
  type: "Convolution"
  bottom: "conv4_2"
  top: "conv4_3"
  convolution_param {
    num_output: 512
    pad: 1
    kernel_size: 3
  }
}
layer {
  name: "relu4_3"
  type: "ReLU"
  bottom: "conv4_3"
  top: "conv4_3"
}
layer {
  name: "pool4"
  type: "Pooling"
  bottom: "conv4_3"
  top: "pool4"
  pooling_param {
    pool: MAX
    kernel_size: 2
    stride: 2
  }
}
layer {
  name: "conv5_1"
  type: "Convolution"
  bottom: "pool4"
  top: "conv5_1"
  convolution_param {
    num_output: 512
    pad: 1
    kernel_size: 3
  }
}
layer {
  name: "relu5_1"
  type: "ReLU"
  bottom: "conv5_1"
  top: "conv5_1"
}
layer {
  name: "conv5_2"
  type: "Convolution"
  bottom: "conv5_1"
  top: "conv5_2"
  convolution_param {
    num_output: 512
    pad: 1
    kernel_size: 3
  }
}
layer {
  name: "relu5_2"
  type: "ReLU"
  bottom: "conv5_2"
  top: "conv5_2"
}
layer {
  name: "conv5_3"
  type: "Convolution"
  bottom: "conv5_2"
  top: "conv5_3"
  convolution_param {
    num_output: 512
    pad: 1
    kernel_size: 3
  }
}
layer {
  name: "relu5_3"
  type: "ReLU"
  bottom: "conv5_3"
  top: "conv5_3"
}
layer {
  name: "conv5_3_re"
  type: "Reshape"
  bottom: "conv5_3"
  top: "conv5_3_re"
  reshape_param {
    shape {
      dim: 0
      dim: 0
      dim: -1
    }
  }
}
layer {
  name: "conv5_3_tran"
  type: "Python"
  bottom: "conv5_3_re"
  top: "conv5_3_tran"
  python_param {
    module: "data_preparation_sort_max_clip"
    layer: "DataTransposeSortMaxClip"
  }
}
layer {
  name: "lstm1"
  type: "LSTM"
  bottom: "conv5_3_tran"
  bottom: "clip_markers"
  top: "lstm1"
  recurrent_param {
    num_output: 512
    weight_filler {
      type: "uniform"
      min: -0.01
      max: 0.01
    }
    bias_filler {
      type: "constant"
      value: 0
    }
  }
}
layer {
  name: "lstm1-drop"
  type: "Dropout"
  bottom: "lstm1"
  top: "lstm1-drop"
  dropout_param {
    dropout_ratio: 0.5
  }
}
layer {
  name: "fc-final"
  type: "InnerProduct"
  bottom: "lstm1-drop"
  top: "fc-final"
  param {
    lr_mult: 1
    decay_mult: 1
  }
  param {
    lr_mult: 2
    decay_mult: 0
  }
  inner_product_param {
    num_output: 10
    weight_filler {
      type: "gaussian"
      std: 0.01
    }
    bias_filler {
      type: "constant"
      value: 0
    }
    axis: 2
  }
}
layer {
  name: "loss"
  type: "SoftmaxWithLoss"
  bottom: "fc-final"
  bottom: "reshape-label"
  top: "loss"
  softmax_param {
    axis: 2
  }
}
layer {
  name: "accuracy"
  type: "Accuracy"
  bottom: "fc-final"
  bottom: "reshape-label"
  top: "accuracy"
  accuracy_param {
    axis: 2
  }
}
I1018 00:00:55.301067 29625 layer_factory.hpp:77] Creating layer data
I1018 00:00:55.301095 29625 net.cpp:84] Creating Layer data
I1018 00:00:55.301105 29625 net.cpp:380] data -> data
I1018 00:00:55.301122 29625 net.cpp:380] data -> label
I1018 00:00:55.301137 29625 image_data_layer.cpp:38] Opening file ../Data/lsun_val_list.txt
I1018 00:00:55.302866 29625 image_data_layer.cpp:63] A total of 3000 images.
I1018 00:00:55.305268 29625 image_data_layer.cpp:90] output data size: 150,3,224,224
I1018 00:00:55.573524 29625 net.cpp:122] Setting up data
I1018 00:00:55.573567 29625 net.cpp:129] Top shape: 150 3 224 224 (22579200)
I1018 00:00:55.573577 29625 net.cpp:129] Top shape: 150 (150)
I1018 00:00:55.573583 29625 net.cpp:137] Memory required for data: 90317400
I1018 00:00:55.573606 29625 layer_factory.hpp:77] Creating layer label_data_1_split
I1018 00:00:55.573628 29625 net.cpp:84] Creating Layer label_data_1_split
I1018 00:00:55.573638 29625 net.cpp:406] label_data_1_split <- label
I1018 00:00:55.573653 29625 net.cpp:380] label_data_1_split -> label_data_1_split_0
I1018 00:00:55.573674 29625 net.cpp:380] label_data_1_split -> label_data_1_split_1
I1018 00:00:55.573863 29625 net.cpp:122] Setting up label_data_1_split
I1018 00:00:55.573911 29625 net.cpp:129] Top shape: 150 (150)
I1018 00:00:55.573925 29625 net.cpp:129] Top shape: 150 (150)
I1018 00:00:55.573935 29625 net.cpp:137] Memory required for data: 90318600
I1018 00:00:55.573945 29625 layer_factory.hpp:77] Creating layer Silence
I1018 00:00:55.573977 29625 net.cpp:84] Creating Layer Silence
I1018 00:00:55.573990 29625 net.cpp:406] Silence <- label_data_1_split_0
I1018 00:00:55.574015 29625 net.cpp:122] Setting up Silence
I1018 00:00:55.574023 29625 net.cpp:137] Memory required for data: 90318600
I1018 00:00:55.574033 29625 layer_factory.hpp:77] Creating layer label_tran
I1018 00:00:55.574115 29625 net.cpp:84] Creating Layer label_tran
I1018 00:00:55.574134 29625 net.cpp:406] label_tran <- label_data_1_split_1
I1018 00:00:55.574151 29625 net.cpp:380] label_tran -> reshape-label
I1018 00:00:55.574177 29625 net.cpp:380] label_tran -> clip_markers
I1018 00:00:55.574375 29625 net.cpp:122] Setting up label_tran
I1018 00:00:55.574399 29625 net.cpp:129] Top shape: 8 150 (1200)
I1018 00:00:55.574414 29625 net.cpp:129] Top shape: 8 150 (1200)
I1018 00:00:55.574424 29625 net.cpp:137] Memory required for data: 90328200
I1018 00:00:55.574434 29625 layer_factory.hpp:77] Creating layer reshape-label_label_tran_0_split
I1018 00:00:55.574456 29625 net.cpp:84] Creating Layer reshape-label_label_tran_0_split
I1018 00:00:55.574468 29625 net.cpp:406] reshape-label_label_tran_0_split <- reshape-label
I1018 00:00:55.574482 29625 net.cpp:380] reshape-label_label_tran_0_split -> reshape-label_label_tran_0_split_0
I1018 00:00:55.574501 29625 net.cpp:380] reshape-label_label_tran_0_split -> reshape-label_label_tran_0_split_1
I1018 00:00:55.574573 29625 net.cpp:122] Setting up reshape-label_label_tran_0_split
I1018 00:00:55.574589 29625 net.cpp:129] Top shape: 8 150 (1200)
I1018 00:00:55.574599 29625 net.cpp:129] Top shape: 8 150 (1200)
I1018 00:00:55.574607 29625 net.cpp:137] Memory required for data: 90337800
I1018 00:00:55.574616 29625 layer_factory.hpp:77] Creating layer conv1_1
I1018 00:00:55.574636 29625 net.cpp:84] Creating Layer conv1_1
I1018 00:00:55.574648 29625 net.cpp:406] conv1_1 <- data
I1018 00:00:55.574663 29625 net.cpp:380] conv1_1 -> conv1_1
I1018 00:00:55.575227 29625 net.cpp:122] Setting up conv1_1
I1018 00:00:55.575248 29625 net.cpp:129] Top shape: 150 64 224 224 (481689600)
I1018 00:00:55.575258 29625 net.cpp:137] Memory required for data: 2017096200
I1018 00:00:55.575283 29625 layer_factory.hpp:77] Creating layer relu1_1
I1018 00:00:55.575300 29625 net.cpp:84] Creating Layer relu1_1
I1018 00:00:55.575312 29625 net.cpp:406] relu1_1 <- conv1_1
I1018 00:00:55.575326 29625 net.cpp:367] relu1_1 -> conv1_1 (in-place)
I1018 00:00:55.575345 29625 net.cpp:122] Setting up relu1_1
I1018 00:00:55.575358 29625 net.cpp:129] Top shape: 150 64 224 224 (481689600)
I1018 00:00:55.575367 29625 net.cpp:137] Memory required for data: 3943854600
I1018 00:00:55.575376 29625 layer_factory.hpp:77] Creating layer conv1_2
I1018 00:00:55.575392 29625 net.cpp:84] Creating Layer conv1_2
I1018 00:00:55.575403 29625 net.cpp:406] conv1_2 <- conv1_1
I1018 00:00:55.575417 29625 net.cpp:380] conv1_2 -> conv1_2
I1018 00:00:55.577271 29625 net.cpp:122] Setting up conv1_2
I1018 00:00:55.577306 29625 net.cpp:129] Top shape: 150 64 224 224 (481689600)
I1018 00:00:55.577316 29625 net.cpp:137] Memory required for data: 5870613000
I1018 00:00:55.577338 29625 layer_factory.hpp:77] Creating layer relu1_2
I1018 00:00:55.577358 29625 net.cpp:84] Creating Layer relu1_2
I1018 00:00:55.577371 29625 net.cpp:406] relu1_2 <- conv1_2
I1018 00:00:55.577386 29625 net.cpp:367] relu1_2 -> conv1_2 (in-place)
I1018 00:00:55.577437 29625 net.cpp:122] Setting up relu1_2
I1018 00:00:55.577451 29625 net.cpp:129] Top shape: 150 64 224 224 (481689600)
I1018 00:00:55.577462 29625 net.cpp:137] Memory required for data: 7797371400
I1018 00:00:55.577471 29625 layer_factory.hpp:77] Creating layer pool1
I1018 00:00:55.577491 29625 net.cpp:84] Creating Layer pool1
I1018 00:00:55.577502 29625 net.cpp:406] pool1 <- conv1_2
I1018 00:00:55.577517 29625 net.cpp:380] pool1 -> pool1
I1018 00:00:55.577610 29625 net.cpp:122] Setting up pool1
I1018 00:00:55.577625 29625 net.cpp:129] Top shape: 150 64 112 112 (120422400)
I1018 00:00:55.577636 29625 net.cpp:137] Memory required for data: 8279061000
I1018 00:00:55.577644 29625 layer_factory.hpp:77] Creating layer conv2_1
I1018 00:00:55.577662 29625 net.cpp:84] Creating Layer conv2_1
I1018 00:00:55.577673 29625 net.cpp:406] conv2_1 <- pool1
I1018 00:00:55.577689 29625 net.cpp:380] conv2_1 -> conv2_1
I1018 00:00:55.579457 29625 net.cpp:122] Setting up conv2_1
I1018 00:00:55.579486 29625 net.cpp:129] Top shape: 150 128 112 112 (240844800)
I1018 00:00:55.579495 29625 net.cpp:137] Memory required for data: 9242440200
I1018 00:00:55.579517 29625 layer_factory.hpp:77] Creating layer relu2_1
I1018 00:00:55.579535 29625 net.cpp:84] Creating Layer relu2_1
I1018 00:00:55.579545 29625 net.cpp:406] relu2_1 <- conv2_1
I1018 00:00:55.579562 29625 net.cpp:367] relu2_1 -> conv2_1 (in-place)
I1018 00:00:55.579581 29625 net.cpp:122] Setting up relu2_1
I1018 00:00:55.579596 29625 net.cpp:129] Top shape: 150 128 112 112 (240844800)
I1018 00:00:55.579607 29625 net.cpp:137] Memory required for data: 10205819400
I1018 00:00:55.579617 29625 layer_factory.hpp:77] Creating layer conv2_2
I1018 00:00:55.579632 29625 net.cpp:84] Creating Layer conv2_2
I1018 00:00:55.579643 29625 net.cpp:406] conv2_2 <- conv2_1
I1018 00:00:55.579658 29625 net.cpp:380] conv2_2 -> conv2_2
I1018 00:00:55.580375 29625 net.cpp:122] Setting up conv2_2
I1018 00:00:55.580395 29625 net.cpp:129] Top shape: 150 128 112 112 (240844800)
I1018 00:00:55.580406 29625 net.cpp:137] Memory required for data: 11169198600
I1018 00:00:55.580421 29625 layer_factory.hpp:77] Creating layer relu2_2
I1018 00:00:55.580436 29625 net.cpp:84] Creating Layer relu2_2
I1018 00:00:55.580448 29625 net.cpp:406] relu2_2 <- conv2_2
I1018 00:00:55.580462 29625 net.cpp:367] relu2_2 -> conv2_2 (in-place)
I1018 00:00:55.580478 29625 net.cpp:122] Setting up relu2_2
I1018 00:00:55.580492 29625 net.cpp:129] Top shape: 150 128 112 112 (240844800)
I1018 00:00:55.580503 29625 net.cpp:137] Memory required for data: 12132577800
I1018 00:00:55.580513 29625 layer_factory.hpp:77] Creating layer pool2
I1018 00:00:55.580528 29625 net.cpp:84] Creating Layer pool2
I1018 00:00:55.580539 29625 net.cpp:406] pool2 <- conv2_2
I1018 00:00:55.580554 29625 net.cpp:380] pool2 -> pool2
I1018 00:00:55.588218 29625 net.cpp:122] Setting up pool2
I1018 00:00:55.588255 29625 net.cpp:129] Top shape: 150 128 56 56 (60211200)
I1018 00:00:55.588266 29625 net.cpp:137] Memory required for data: 12373422600
I1018 00:00:55.588276 29625 layer_factory.hpp:77] Creating layer conv3_1
I1018 00:00:55.588297 29625 net.cpp:84] Creating Layer conv3_1
I1018 00:00:55.588309 29625 net.cpp:406] conv3_1 <- pool2
I1018 00:00:55.588327 29625 net.cpp:380] conv3_1 -> conv3_1
I1018 00:00:55.590553 29625 net.cpp:122] Setting up conv3_1
I1018 00:00:55.590584 29625 net.cpp:129] Top shape: 150 256 56 56 (120422400)
I1018 00:00:55.590593 29625 net.cpp:137] Memory required for data: 12855112200
I1018 00:00:55.590618 29625 layer_factory.hpp:77] Creating layer relu3_1
I1018 00:00:55.590639 29625 net.cpp:84] Creating Layer relu3_1
I1018 00:00:55.590658 29625 net.cpp:406] relu3_1 <- conv3_1
I1018 00:00:55.590673 29625 net.cpp:367] relu3_1 -> conv3_1 (in-place)
I1018 00:00:55.590694 29625 net.cpp:122] Setting up relu3_1
I1018 00:00:55.590708 29625 net.cpp:129] Top shape: 150 256 56 56 (120422400)
I1018 00:00:55.590718 29625 net.cpp:137] Memory required for data: 13336801800
I1018 00:00:55.590726 29625 layer_factory.hpp:77] Creating layer conv3_2
I1018 00:00:55.590744 29625 net.cpp:84] Creating Layer conv3_2
I1018 00:00:55.590767 29625 net.cpp:406] conv3_2 <- conv3_1
I1018 00:00:55.590785 29625 net.cpp:380] conv3_2 -> conv3_2
I1018 00:00:55.594017 29625 net.cpp:122] Setting up conv3_2
I1018 00:00:55.594046 29625 net.cpp:129] Top shape: 150 256 56 56 (120422400)
I1018 00:00:55.594055 29625 net.cpp:137] Memory required for data: 13818491400
I1018 00:00:55.594070 29625 layer_factory.hpp:77] Creating layer relu3_2
I1018 00:00:55.594084 29625 net.cpp:84] Creating Layer relu3_2
I1018 00:00:55.594095 29625 net.cpp:406] relu3_2 <- conv3_2
I1018 00:00:55.594110 29625 net.cpp:367] relu3_2 -> conv3_2 (in-place)
I1018 00:00:55.594125 29625 net.cpp:122] Setting up relu3_2
I1018 00:00:55.594136 29625 net.cpp:129] Top shape: 150 256 56 56 (120422400)
I1018 00:00:55.594144 29625 net.cpp:137] Memory required for data: 14300181000
I1018 00:00:55.594152 29625 layer_factory.hpp:77] Creating layer conv3_3
I1018 00:00:55.594167 29625 net.cpp:84] Creating Layer conv3_3
I1018 00:00:55.594178 29625 net.cpp:406] conv3_3 <- conv3_2
I1018 00:00:55.594193 29625 net.cpp:380] conv3_3 -> conv3_3
I1018 00:00:55.597359 29625 net.cpp:122] Setting up conv3_3
I1018 00:00:55.597389 29625 net.cpp:129] Top shape: 150 256 56 56 (120422400)
I1018 00:00:55.597399 29625 net.cpp:137] Memory required for data: 14781870600
I1018 00:00:55.597414 29625 layer_factory.hpp:77] Creating layer relu3_3
I1018 00:00:55.597429 29625 net.cpp:84] Creating Layer relu3_3
I1018 00:00:55.597440 29625 net.cpp:406] relu3_3 <- conv3_3
I1018 00:00:55.597455 29625 net.cpp:367] relu3_3 -> conv3_3 (in-place)
I1018 00:00:55.597470 29625 net.cpp:122] Setting up relu3_3
I1018 00:00:55.597488 29625 net.cpp:129] Top shape: 150 256 56 56 (120422400)
I1018 00:00:55.597496 29625 net.cpp:137] Memory required for data: 15263560200
I1018 00:00:55.597506 29625 layer_factory.hpp:77] Creating layer pool3
I1018 00:00:55.597519 29625 net.cpp:84] Creating Layer pool3
I1018 00:00:55.597529 29625 net.cpp:406] pool3 <- conv3_3
I1018 00:00:55.597543 29625 net.cpp:380] pool3 -> pool3
I1018 00:00:55.597631 29625 net.cpp:122] Setting up pool3
I1018 00:00:55.597647 29625 net.cpp:129] Top shape: 150 256 28 28 (30105600)
I1018 00:00:55.597656 29625 net.cpp:137] Memory required for data: 15383982600
I1018 00:00:55.597664 29625 layer_factory.hpp:77] Creating layer conv4_1
I1018 00:00:55.597681 29625 net.cpp:84] Creating Layer conv4_1
I1018 00:00:55.597692 29625 net.cpp:406] conv4_1 <- pool3
I1018 00:00:55.597707 29625 net.cpp:380] conv4_1 -> conv4_1
I1018 00:00:55.602118 29625 net.cpp:122] Setting up conv4_1
I1018 00:00:55.602138 29625 net.cpp:129] Top shape: 150 512 28 28 (60211200)
I1018 00:00:55.602143 29625 net.cpp:137] Memory required for data: 15624827400
I1018 00:00:55.602151 29625 layer_factory.hpp:77] Creating layer relu4_1
I1018 00:00:55.602160 29625 net.cpp:84] Creating Layer relu4_1
I1018 00:00:55.602166 29625 net.cpp:406] relu4_1 <- conv4_1
I1018 00:00:55.602175 29625 net.cpp:367] relu4_1 -> conv4_1 (in-place)
I1018 00:00:55.602185 29625 net.cpp:122] Setting up relu4_1
I1018 00:00:55.602190 29625 net.cpp:129] Top shape: 150 512 28 28 (60211200)
I1018 00:00:55.602195 29625 net.cpp:137] Memory required for data: 15865672200
I1018 00:00:55.602200 29625 layer_factory.hpp:77] Creating layer conv4_2
I1018 00:00:55.602210 29625 net.cpp:84] Creating Layer conv4_2
I1018 00:00:55.602216 29625 net.cpp:406] conv4_2 <- conv4_1
I1018 00:00:55.602223 29625 net.cpp:380] conv4_2 -> conv4_2
I1018 00:00:55.608912 29625 net.cpp:122] Setting up conv4_2
I1018 00:00:55.608933 29625 net.cpp:129] Top shape: 150 512 28 28 (60211200)
I1018 00:00:55.608938 29625 net.cpp:137] Memory required for data: 16106517000
I1018 00:00:55.608955 29625 layer_factory.hpp:77] Creating layer relu4_2
I1018 00:00:55.608966 29625 net.cpp:84] Creating Layer relu4_2
I1018 00:00:55.608973 29625 net.cpp:406] relu4_2 <- conv4_2
I1018 00:00:55.608981 29625 net.cpp:367] relu4_2 -> conv4_2 (in-place)
I1018 00:00:55.608991 29625 net.cpp:122] Setting up relu4_2
I1018 00:00:55.608999 29625 net.cpp:129] Top shape: 150 512 28 28 (60211200)
I1018 00:00:55.609002 29625 net.cpp:137] Memory required for data: 16347361800
I1018 00:00:55.609007 29625 layer_factory.hpp:77] Creating layer conv4_3
I1018 00:00:55.609019 29625 net.cpp:84] Creating Layer conv4_3
I1018 00:00:55.609024 29625 net.cpp:406] conv4_3 <- conv4_2
I1018 00:00:55.609030 29625 net.cpp:380] conv4_3 -> conv4_3
I1018 00:00:55.615646 29625 net.cpp:122] Setting up conv4_3
I1018 00:00:55.615665 29625 net.cpp:129] Top shape: 150 512 28 28 (60211200)
I1018 00:00:55.615670 29625 net.cpp:137] Memory required for data: 16588206600
I1018 00:00:55.615679 29625 layer_factory.hpp:77] Creating layer relu4_3
I1018 00:00:55.615689 29625 net.cpp:84] Creating Layer relu4_3
I1018 00:00:55.615695 29625 net.cpp:406] relu4_3 <- conv4_3
I1018 00:00:55.615705 29625 net.cpp:367] relu4_3 -> conv4_3 (in-place)
I1018 00:00:55.615715 29625 net.cpp:122] Setting up relu4_3
I1018 00:00:55.615721 29625 net.cpp:129] Top shape: 150 512 28 28 (60211200)
I1018 00:00:55.615726 29625 net.cpp:137] Memory required for data: 16829051400
I1018 00:00:55.615731 29625 layer_factory.hpp:77] Creating layer pool4
I1018 00:00:55.615741 29625 net.cpp:84] Creating Layer pool4
I1018 00:00:55.615746 29625 net.cpp:406] pool4 <- conv4_3
I1018 00:00:55.615756 29625 net.cpp:380] pool4 -> pool4
I1018 00:00:55.615804 29625 net.cpp:122] Setting up pool4
I1018 00:00:55.615814 29625 net.cpp:129] Top shape: 150 512 14 14 (15052800)
I1018 00:00:55.615819 29625 net.cpp:137] Memory required for data: 16889262600
I1018 00:00:55.615823 29625 layer_factory.hpp:77] Creating layer conv5_1
I1018 00:00:55.615834 29625 net.cpp:84] Creating Layer conv5_1
I1018 00:00:55.615840 29625 net.cpp:406] conv5_1 <- pool4
I1018 00:00:55.615849 29625 net.cpp:380] conv5_1 -> conv5_1
I1018 00:00:55.622508 29625 net.cpp:122] Setting up conv5_1
I1018 00:00:55.622526 29625 net.cpp:129] Top shape: 150 512 14 14 (15052800)
I1018 00:00:55.622531 29625 net.cpp:137] Memory required for data: 16949473800
I1018 00:00:55.622540 29625 layer_factory.hpp:77] Creating layer relu5_1
I1018 00:00:55.622551 29625 net.cpp:84] Creating Layer relu5_1
I1018 00:00:55.622557 29625 net.cpp:406] relu5_1 <- conv5_1
I1018 00:00:55.622566 29625 net.cpp:367] relu5_1 -> conv5_1 (in-place)
I1018 00:00:55.622575 29625 net.cpp:122] Setting up relu5_1
I1018 00:00:55.622581 29625 net.cpp:129] Top shape: 150 512 14 14 (15052800)
I1018 00:00:55.622586 29625 net.cpp:137] Memory required for data: 17009685000
I1018 00:00:55.622591 29625 layer_factory.hpp:77] Creating layer conv5_2
I1018 00:00:55.622601 29625 net.cpp:84] Creating Layer conv5_2
I1018 00:00:55.622606 29625 net.cpp:406] conv5_2 <- conv5_1
I1018 00:00:55.622613 29625 net.cpp:380] conv5_2 -> conv5_2
I1018 00:00:55.629387 29625 net.cpp:122] Setting up conv5_2
I1018 00:00:55.629405 29625 net.cpp:129] Top shape: 150 512 14 14 (15052800)
I1018 00:00:55.629411 29625 net.cpp:137] Memory required for data: 17069896200
I1018 00:00:55.629420 29625 layer_factory.hpp:77] Creating layer relu5_2
I1018 00:00:55.629436 29625 net.cpp:84] Creating Layer relu5_2
I1018 00:00:55.629442 29625 net.cpp:406] relu5_2 <- conv5_2
I1018 00:00:55.629453 29625 net.cpp:367] relu5_2 -> conv5_2 (in-place)
I1018 00:00:55.629463 29625 net.cpp:122] Setting up relu5_2
I1018 00:00:55.629470 29625 net.cpp:129] Top shape: 150 512 14 14 (15052800)
I1018 00:00:55.629475 29625 net.cpp:137] Memory required for data: 17130107400
I1018 00:00:55.629479 29625 layer_factory.hpp:77] Creating layer conv5_3
I1018 00:00:55.629488 29625 net.cpp:84] Creating Layer conv5_3
I1018 00:00:55.629493 29625 net.cpp:406] conv5_3 <- conv5_2
I1018 00:00:55.629503 29625 net.cpp:380] conv5_3 -> conv5_3
I1018 00:00:55.636183 29625 net.cpp:122] Setting up conv5_3
I1018 00:00:55.636204 29625 net.cpp:129] Top shape: 150 512 14 14 (15052800)
I1018 00:00:55.636209 29625 net.cpp:137] Memory required for data: 17190318600
I1018 00:00:55.636217 29625 layer_factory.hpp:77] Creating layer relu5_3
I1018 00:00:55.636229 29625 net.cpp:84] Creating Layer relu5_3
I1018 00:00:55.636234 29625 net.cpp:406] relu5_3 <- conv5_3
I1018 00:00:55.636242 29625 net.cpp:367] relu5_3 -> conv5_3 (in-place)
I1018 00:00:55.636252 29625 net.cpp:122] Setting up relu5_3
I1018 00:00:55.636260 29625 net.cpp:129] Top shape: 150 512 14 14 (15052800)
I1018 00:00:55.636263 29625 net.cpp:137] Memory required for data: 17250529800
I1018 00:00:55.636268 29625 layer_factory.hpp:77] Creating layer conv5_3_re
I1018 00:00:55.636281 29625 net.cpp:84] Creating Layer conv5_3_re
I1018 00:00:55.636286 29625 net.cpp:406] conv5_3_re <- conv5_3
I1018 00:00:55.636292 29625 net.cpp:380] conv5_3_re -> conv5_3_re
I1018 00:00:55.636332 29625 net.cpp:122] Setting up conv5_3_re
I1018 00:00:55.636343 29625 net.cpp:129] Top shape: 150 512 196 (15052800)
I1018 00:00:55.636346 29625 net.cpp:137] Memory required for data: 17310741000
I1018 00:00:55.636353 29625 layer_factory.hpp:77] Creating layer conv5_3_tran
I1018 00:00:55.636435 29625 net.cpp:84] Creating Layer conv5_3_tran
I1018 00:00:55.636446 29625 net.cpp:406] conv5_3_tran <- conv5_3_re
I1018 00:00:55.636456 29625 net.cpp:380] conv5_3_tran -> conv5_3_tran
I1018 00:00:55.672328 29625 net.cpp:122] Setting up conv5_3_tran
I1018 00:00:55.672369 29625 net.cpp:129] Top shape: 8 150 512 (614400)
I1018 00:00:55.672374 29625 net.cpp:137] Memory required for data: 17313198600
I1018 00:00:55.672386 29625 layer_factory.hpp:77] Creating layer lstm1
I1018 00:00:55.672407 29625 net.cpp:84] Creating Layer lstm1
I1018 00:00:55.672416 29625 net.cpp:406] lstm1 <- conv5_3_tran
I1018 00:00:55.672430 29625 net.cpp:406] lstm1 <- clip_markers
I1018 00:00:55.672441 29625 net.cpp:380] lstm1 -> lstm1
I1018 00:00:55.672461 29625 recurrent_layer.cpp:20] Initializing recurrent layer: assuming input batch contains 8 timesteps of 150 independent streams.
I1018 00:00:55.672966 29625 net.cpp:51] Initializing net from parameters: 
layer {
  name: "lstm1_"
  type: "Input"
  top: "x"
  top: "cont"
  input_param {
    shape {
      dim: 8
      dim: 150
      dim: 512
    }
    shape {
      dim: 8
      dim: 150
    }
  }
}
layer {
  name: "lstm1_"
  type: "Input"
  top: "c_0"
  top: "h_0"
  input_param {
    shape {
      dim: 1
      dim: 150
      dim: 512
    }
    shape {
      dim: 1
      dim: 150
      dim: 512
    }
  }
}
layer {
  name: "lstm1_cont_slice"
  type: "Slice"
  bottom: "cont"
  top: "cont_1"
  top: "cont_2"
  top: "cont_3"
  top: "cont_4"
  top: "cont_5"
  top: "cont_6"
  top: "cont_7"
  top: "cont_8"
  slice_param {
    axis: 0
  }
}
layer {
  name: "lstm1_x_transform"
  type: "InnerProduct"
  bottom: "x"
  top: "W_xc_x"
  param {
    name: "W_xc"
  }
  param {
    name: "b_c"
  }
  propagate_down: true
  inner_product_param {
    num_output: 2048
    bias_term: true
    weight_filler {
      type: "uniform"
      min: -0.01
      max: 0.01
    }
    bias_filler {
      type: "constant"
      value: 0
    }
    axis: 2
  }
}
layer {
  name: "lstm1_W_xc_x_slice"
  type: "Slice"
  bottom: "W_xc_x"
  top: "W_xc_x_1"
  top: "W_xc_x_2"
  top: "W_xc_x_3"
  top: "W_xc_x_4"
  top: "W_xc_x_5"
  top: "W_xc_x_6"
  top: "W_xc_x_7"
  top: "W_xc_x_8"
  slice_param {
    axis: 0
  }
}
layer {
  name: "lstm1_h_conted_0"
  type: "Scale"
  bottom: "h_0"
  bottom: "cont_1"
  top: "h_conted_0"
  scale_param {
    axis: 0
  }
}
layer {
  name: "lstm1_transform_1"
  type: "InnerProduct"
  bottom: "h_conted_0"
  top: "W_hc_h_0"
  param {
    name: "W_hc"
  }
  inner_product_param {
    num_output: 2048
    bias_term: false
    weight_filler {
      type: "uniform"
      min: -0.01
      max: 0.01
    }
    axis: 2
  }
}
layer {
  name: "lstm1_gate_input_1"
  type: "Eltwise"
  bottom: "W_hc_h_0"
  bottom: "W_xc_x_1"
  top: "gate_input_1"
  eltwise_param {
    operation: SUM
  }
}
layer {
  name: "lstm1_unit_1"
  type: "LSTMUnit"
  bottom: "c_0"
  bottom: "gate_input_1"
  bottom: "cont_1"
  top: "c_1"
  top: "h_1"
}
layer {
  name: "lstm1_h_conted_1"
  type: "Scale"
  bottom: "h_1"
  bottom: "cont_2"
  top: "h_conted_1"
  scale_param {
    axis: 0
  }
}
layer {
  name: "lstm1_transform_2"
  type: "InnerProduct"
  bottom: "h_conted_1"
  top: "W_hc_h_1"
  param {
    name: "W_hc"
  }
  inner_product_param {
    num_output: 2048
    bias_term: false
    weight_filler {
      type: "uniform"
      min: -0.01
      max: 0.01
    }
    axis: 2
  }
}
layer {
  name: "lstm1_gate_input_2"
  type: "Eltwise"
  bottom: "W_hc_h_1"
  bottom: "W_xc_x_2"
  top: "gate_input_2"
  eltwise_param {
    operation: SUM
  }
}
layer {
  name: "lstm1_unit_2"
  type: "LSTMUnit"
  bottom: "c_1"
  bottom: "gate_input_2"
  bottom: "cont_2"
  top: "c_2"
  top: "h_2"
}
layer {
  name: "lstm1_h_conted_2"
  type: "Scale"
  bottom: "h_2"
  bottom: "cont_3"
  top: "h_conted_2"
  scale_param {
    axis: 0
  }
}
layer {
  name: "lstm1_transform_3"
  type: "InnerProduct"
  bottom: "h_conted_2"
  top: "W_hc_h_2"
  param {
    name: "W_hc"
  }
  inner_product_param {
    num_output: 2048
    bias_term: false
    weight_filler {
      type: "uniform"
      min: -0.01
      max: 0.01
    }
    axis: 2
  }
}
layer {
  name: "lstm1_gate_input_3"
  type: "Eltwise"
  bottom: "W_hc_h_2"
  bottom: "W_xc_x_3"
  top: "gate_input_3"
  eltwise_param {
    operation: SUM
  }
}
layer {
  name: "lstm1_unit_3"
  type: "LSTMUnit"
  bottom: "c_2"
  bottom: "gate_input_3"
  bottom: "cont_3"
  top: "c_3"
  top: "h_3"
}
layer {
  name: "lstm1_h_conted_3"
  type: "Scale"
  bottom: "h_3"
  bottom: "cont_4"
  top: "h_conted_3"
  scale_param {
    axis: 0
  }
}
layer {
  name: "lstm1_transform_4"
  type: "InnerProduct"
  bottom: "h_conted_3"
  top: "W_hc_h_3"
  param {
    name: "W_hc"
  }
  inner_product_param {
    num_output: 2048
    bias_term: false
    weight_filler {
      type: "uniform"
      min: -0.01
      max: 0.01
    }
    axis: 2
  }
}
layer {
  name: "lstm1_gate_input_4"
  type: "Eltwise"
  bottom: "W_hc_h_3"
  bottom: "W_xc_x_4"
  top: "gate_input_4"
  eltwise_param {
    operation: SUM
  }
}
layer {
  name: "lstm1_unit_4"
  type: "LSTMUnit"
  bottom: "c_3"
  bottom: "gate_input_4"
  bottom: "cont_4"
  top: "c_4"
  top: "h_4"
}
layer {
  name: "lstm1_h_conted_4"
  type: "Scale"
  bottom: "h_4"
  bottom: "cont_5"
  top: "h_conted_4"
  scale_param {
    axis: 0
  }
}
layer {
  name: "lstm1_transform_5"
  type: "InnerProduct"
  bottom: "h_conted_4"
  top: "W_hc_h_4"
  param {
    name: "W_hc"
  }
  inner_product_param {
    num_output: 2048
    bias_term: false
    weight_filler {
      type: "uniform"
      min: -0.01
      max: 0.01
    }
    axis: 2
  }
}
layer {
  name: "lstm1_gate_input_5"
  type: "Eltwise"
  bottom: "W_hc_h_4"
  bottom: "W_xc_x_5"
  top: "gate_input_5"
  eltwise_param {
    operation: SUM
  }
}
layer {
  name: "lstm1_unit_5"
  type: "LSTMUnit"
  bottom: "c_4"
  bottom: "gate_input_5"
  bottom: "cont_5"
  top: "c_5"
  top: "h_5"
}
layer {
  name: "lstm1_h_conted_5"
  type: "Scale"
  bottom: "h_5"
  bottom: "cont_6"
  top: "h_conted_5"
  scale_param {
    axis: 0
  }
}
layer {
  name: "lstm1_transform_6"
  type: "InnerProduct"
  bottom: "h_conted_5"
  top: "W_hc_h_5"
  param {
    name: "W_hc"
  }
  inner_product_param {
    num_output: 2048
    bias_term: false
    weight_filler {
      type: "uniform"
      min: -0.01
      max: 0.01
    }
    axis: 2
  }
}
layer {
  name: "lstm1_gate_input_6"
  type: "Eltwise"
  bottom: "W_hc_h_5"
  bottom: "W_xc_x_6"
  top: "gate_input_6"
  eltwise_param {
    operation: SUM
  }
}
layer {
  name: "lstm1_unit_6"
  type: "LSTMUnit"
  bottom: "c_5"
  bottom: "gate_input_6"
  bottom: "cont_6"
  top: "c_6"
  top: "h_6"
}
layer {
  name: "lstm1_h_conted_6"
  type: "Scale"
  bottom: "h_6"
  bottom: "cont_7"
  top: "h_conted_6"
  scale_param {
    axis: 0
  }
}
layer {
  name: "lstm1_transform_7"
  type: "InnerProduct"
  bottom: "h_conted_6"
  top: "W_hc_h_6"
  param {
    name: "W_hc"
  }
  inner_product_param {
    num_output: 2048
    bias_term: false
    weight_filler {
      type: "uniform"
      min: -0.01
      max: 0.01
    }
    axis: 2
  }
}
layer {
  name: "lstm1_gate_input_7"
  type: "Eltwise"
  bottom: "W_hc_h_6"
  bottom: "W_xc_x_7"
  top: "gate_input_7"
  eltwise_param {
    operation: SUM
  }
}
layer {
  name: "lstm1_unit_7"
  type: "LSTMUnit"
  bottom: "c_6"
  bottom: "gate_input_7"
  bottom: "cont_7"
  top: "c_7"
  top: "h_7"
}
layer {
  name: "lstm1_h_conted_7"
  type: "Scale"
  bottom: "h_7"
  bottom: "cont_8"
  top: "h_conted_7"
  scale_param {
    axis: 0
  }
}
layer {
  name: "lstm1_transform_8"
  type: "InnerProduct"
  bottom: "h_conted_7"
  top: "W_hc_h_7"
  param {
    name: "W_hc"
  }
  inner_product_param {
    num_output: 2048
    bias_term: false
    weight_filler {
      type: "uniform"
      min: -0.01
      max: 0.01
    }
    axis: 2
  }
}
layer {
  name: "lstm1_gate_input_8"
  type: "Eltwise"
  bottom: "W_hc_h_7"
  bottom: "W_xc_x_8"
  top: "gate_input_8"
  eltwise_param {
    operation: SUM
  }
}
layer {
  name: "lstm1_unit_8"
  type: "LSTMUnit"
  bottom: "c_7"
  bottom: "gate_input_8"
  bottom: "cont_8"
  top: "c_8"
  top: "h_8"
}
layer {
  name: "lstm1_"
  type: "Split"
  bottom: "c_8"
  top: "c_T"
}
layer {
  name: "lstm1_h_concat"
  type: "Concat"
  bottom: "h_1"
  bottom: "h_2"
  bottom: "h_3"
  bottom: "h_4"
  bottom: "h_5"
  bottom: "h_6"
  bottom: "h_7"
  bottom: "h_8"
  top: "h"
  concat_param {
    axis: 0
  }
}
layer {
  name: "h_pseudoloss"
  type: "Reduction"
  bottom: "h"
  top: "h_pseudoloss"
  loss_weight: 1
}
I1018 00:00:55.673295 29625 layer_factory.hpp:77] Creating layer lstm1_
I1018 00:00:55.673310 29625 net.cpp:84] Creating Layer lstm1_
I1018 00:00:55.673318 29625 net.cpp:380] lstm1_ -> x
I1018 00:00:55.673331 29625 net.cpp:380] lstm1_ -> cont
I1018 00:00:55.673390 29625 net.cpp:122] Setting up lstm1_
I1018 00:00:55.673400 29625 net.cpp:129] Top shape: 8 150 512 (614400)
I1018 00:00:55.673406 29625 net.cpp:129] Top shape: 8 150 (1200)
I1018 00:00:55.673411 29625 net.cpp:137] Memory required for data: 2462400
I1018 00:00:55.673416 29625 layer_factory.hpp:77] Creating layer lstm1_
I1018 00:00:55.673424 29625 net.cpp:84] Creating Layer lstm1_
I1018 00:00:55.673430 29625 net.cpp:380] lstm1_ -> c_0
I1018 00:00:55.673440 29625 net.cpp:380] lstm1_ -> h_0
I1018 00:00:55.673492 29625 net.cpp:122] Setting up lstm1_
I1018 00:00:55.673501 29625 net.cpp:129] Top shape: 1 150 512 (76800)
I1018 00:00:55.673506 29625 net.cpp:129] Top shape: 1 150 512 (76800)
I1018 00:00:55.673511 29625 net.cpp:137] Memory required for data: 3076800
I1018 00:00:55.673516 29625 layer_factory.hpp:77] Creating layer lstm1_cont_slice
I1018 00:00:55.673523 29625 net.cpp:84] Creating Layer lstm1_cont_slice
I1018 00:00:55.673529 29625 net.cpp:406] lstm1_cont_slice <- cont
I1018 00:00:55.673537 29625 net.cpp:380] lstm1_cont_slice -> cont_1
I1018 00:00:55.673553 29625 net.cpp:380] lstm1_cont_slice -> cont_2
I1018 00:00:55.673563 29625 net.cpp:380] lstm1_cont_slice -> cont_3
I1018 00:00:55.673570 29625 net.cpp:380] lstm1_cont_slice -> cont_4
I1018 00:00:55.673578 29625 net.cpp:380] lstm1_cont_slice -> cont_5
I1018 00:00:55.673586 29625 net.cpp:380] lstm1_cont_slice -> cont_6
I1018 00:00:55.673593 29625 net.cpp:380] lstm1_cont_slice -> cont_7
I1018 00:00:55.673600 29625 net.cpp:380] lstm1_cont_slice -> cont_8
I1018 00:00:55.673725 29625 net.cpp:122] Setting up lstm1_cont_slice
I1018 00:00:55.673734 29625 net.cpp:129] Top shape: 1 150 (150)
I1018 00:00:55.673739 29625 net.cpp:129] Top shape: 1 150 (150)
I1018 00:00:55.673744 29625 net.cpp:129] Top shape: 1 150 (150)
I1018 00:00:55.673749 29625 net.cpp:129] Top shape: 1 150 (150)
I1018 00:00:55.673755 29625 net.cpp:129] Top shape: 1 150 (150)
I1018 00:00:55.673760 29625 net.cpp:129] Top shape: 1 150 (150)
I1018 00:00:55.673765 29625 net.cpp:129] Top shape: 1 150 (150)
I1018 00:00:55.673770 29625 net.cpp:129] Top shape: 1 150 (150)
I1018 00:00:55.673774 29625 net.cpp:137] Memory required for data: 3081600
I1018 00:00:55.673779 29625 layer_factory.hpp:77] Creating layer cont_1_lstm1_cont_slice_0_split
I1018 00:00:55.673789 29625 net.cpp:84] Creating Layer cont_1_lstm1_cont_slice_0_split
I1018 00:00:55.673794 29625 net.cpp:406] cont_1_lstm1_cont_slice_0_split <- cont_1
I1018 00:00:55.673801 29625 net.cpp:380] cont_1_lstm1_cont_slice_0_split -> cont_1_lstm1_cont_slice_0_split_0
I1018 00:00:55.673808 29625 net.cpp:380] cont_1_lstm1_cont_slice_0_split -> cont_1_lstm1_cont_slice_0_split_1
I1018 00:00:55.673851 29625 net.cpp:122] Setting up cont_1_lstm1_cont_slice_0_split
I1018 00:00:55.673857 29625 net.cpp:129] Top shape: 1 150 (150)
I1018 00:00:55.673863 29625 net.cpp:129] Top shape: 1 150 (150)
I1018 00:00:55.673867 29625 net.cpp:137] Memory required for data: 3082800
I1018 00:00:55.673872 29625 layer_factory.hpp:77] Creating layer cont_2_lstm1_cont_slice_1_split
I1018 00:00:55.673878 29625 net.cpp:84] Creating Layer cont_2_lstm1_cont_slice_1_split
I1018 00:00:55.673883 29625 net.cpp:406] cont_2_lstm1_cont_slice_1_split <- cont_2
I1018 00:00:55.673892 29625 net.cpp:380] cont_2_lstm1_cont_slice_1_split -> cont_2_lstm1_cont_slice_1_split_0
I1018 00:00:55.673900 29625 net.cpp:380] cont_2_lstm1_cont_slice_1_split -> cont_2_lstm1_cont_slice_1_split_1
I1018 00:00:55.673938 29625 net.cpp:122] Setting up cont_2_lstm1_cont_slice_1_split
I1018 00:00:55.673944 29625 net.cpp:129] Top shape: 1 150 (150)
I1018 00:00:55.673950 29625 net.cpp:129] Top shape: 1 150 (150)
I1018 00:00:55.673954 29625 net.cpp:137] Memory required for data: 3084000
I1018 00:00:55.673959 29625 layer_factory.hpp:77] Creating layer cont_3_lstm1_cont_slice_2_split
I1018 00:00:55.673967 29625 net.cpp:84] Creating Layer cont_3_lstm1_cont_slice_2_split
I1018 00:00:55.673972 29625 net.cpp:406] cont_3_lstm1_cont_slice_2_split <- cont_3
I1018 00:00:55.673979 29625 net.cpp:380] cont_3_lstm1_cont_slice_2_split -> cont_3_lstm1_cont_slice_2_split_0
I1018 00:00:55.673990 29625 net.cpp:380] cont_3_lstm1_cont_slice_2_split -> cont_3_lstm1_cont_slice_2_split_1
I1018 00:00:55.674027 29625 net.cpp:122] Setting up cont_3_lstm1_cont_slice_2_split
I1018 00:00:55.674036 29625 net.cpp:129] Top shape: 1 150 (150)
I1018 00:00:55.674041 29625 net.cpp:129] Top shape: 1 150 (150)
I1018 00:00:55.674044 29625 net.cpp:137] Memory required for data: 3085200
I1018 00:00:55.674049 29625 layer_factory.hpp:77] Creating layer cont_4_lstm1_cont_slice_3_split
I1018 00:00:55.674057 29625 net.cpp:84] Creating Layer cont_4_lstm1_cont_slice_3_split
I1018 00:00:55.674062 29625 net.cpp:406] cont_4_lstm1_cont_slice_3_split <- cont_4
I1018 00:00:55.674068 29625 net.cpp:380] cont_4_lstm1_cont_slice_3_split -> cont_4_lstm1_cont_slice_3_split_0
I1018 00:00:55.674075 29625 net.cpp:380] cont_4_lstm1_cont_slice_3_split -> cont_4_lstm1_cont_slice_3_split_1
I1018 00:00:55.674118 29625 net.cpp:122] Setting up cont_4_lstm1_cont_slice_3_split
I1018 00:00:55.674125 29625 net.cpp:129] Top shape: 1 150 (150)
I1018 00:00:55.674131 29625 net.cpp:129] Top shape: 1 150 (150)
I1018 00:00:55.674135 29625 net.cpp:137] Memory required for data: 3086400
I1018 00:00:55.674140 29625 layer_factory.hpp:77] Creating layer cont_5_lstm1_cont_slice_4_split
I1018 00:00:55.674146 29625 net.cpp:84] Creating Layer cont_5_lstm1_cont_slice_4_split
I1018 00:00:55.674151 29625 net.cpp:406] cont_5_lstm1_cont_slice_4_split <- cont_5
I1018 00:00:55.674159 29625 net.cpp:380] cont_5_lstm1_cont_slice_4_split -> cont_5_lstm1_cont_slice_4_split_0
I1018 00:00:55.674168 29625 net.cpp:380] cont_5_lstm1_cont_slice_4_split -> cont_5_lstm1_cont_slice_4_split_1
I1018 00:00:55.674211 29625 net.cpp:122] Setting up cont_5_lstm1_cont_slice_4_split
I1018 00:00:55.674217 29625 net.cpp:129] Top shape: 1 150 (150)
I1018 00:00:55.674223 29625 net.cpp:129] Top shape: 1 150 (150)
I1018 00:00:55.674227 29625 net.cpp:137] Memory required for data: 3087600
I1018 00:00:55.674232 29625 layer_factory.hpp:77] Creating layer cont_6_lstm1_cont_slice_5_split
I1018 00:00:55.674242 29625 net.cpp:84] Creating Layer cont_6_lstm1_cont_slice_5_split
I1018 00:00:55.674247 29625 net.cpp:406] cont_6_lstm1_cont_slice_5_split <- cont_6
I1018 00:00:55.674252 29625 net.cpp:380] cont_6_lstm1_cont_slice_5_split -> cont_6_lstm1_cont_slice_5_split_0
I1018 00:00:55.674260 29625 net.cpp:380] cont_6_lstm1_cont_slice_5_split -> cont_6_lstm1_cont_slice_5_split_1
I1018 00:00:55.674296 29625 net.cpp:122] Setting up cont_6_lstm1_cont_slice_5_split
I1018 00:00:55.674304 29625 net.cpp:129] Top shape: 1 150 (150)
I1018 00:00:55.674309 29625 net.cpp:129] Top shape: 1 150 (150)
I1018 00:00:55.674314 29625 net.cpp:137] Memory required for data: 3088800
I1018 00:00:55.674319 29625 layer_factory.hpp:77] Creating layer cont_7_lstm1_cont_slice_6_split
I1018 00:00:55.674324 29625 net.cpp:84] Creating Layer cont_7_lstm1_cont_slice_6_split
I1018 00:00:55.674329 29625 net.cpp:406] cont_7_lstm1_cont_slice_6_split <- cont_7
I1018 00:00:55.674335 29625 net.cpp:380] cont_7_lstm1_cont_slice_6_split -> cont_7_lstm1_cont_slice_6_split_0
I1018 00:00:55.674342 29625 net.cpp:380] cont_7_lstm1_cont_slice_6_split -> cont_7_lstm1_cont_slice_6_split_1
I1018 00:00:55.674378 29625 net.cpp:122] Setting up cont_7_lstm1_cont_slice_6_split
I1018 00:00:55.674386 29625 net.cpp:129] Top shape: 1 150 (150)
I1018 00:00:55.674391 29625 net.cpp:129] Top shape: 1 150 (150)
I1018 00:00:55.674396 29625 net.cpp:137] Memory required for data: 3090000
I1018 00:00:55.674399 29625 layer_factory.hpp:77] Creating layer cont_8_lstm1_cont_slice_7_split
I1018 00:00:55.674405 29625 net.cpp:84] Creating Layer cont_8_lstm1_cont_slice_7_split
I1018 00:00:55.674410 29625 net.cpp:406] cont_8_lstm1_cont_slice_7_split <- cont_8
I1018 00:00:55.674417 29625 net.cpp:380] cont_8_lstm1_cont_slice_7_split -> cont_8_lstm1_cont_slice_7_split_0
I1018 00:00:55.674424 29625 net.cpp:380] cont_8_lstm1_cont_slice_7_split -> cont_8_lstm1_cont_slice_7_split_1
I1018 00:00:55.674461 29625 net.cpp:122] Setting up cont_8_lstm1_cont_slice_7_split
I1018 00:00:55.674468 29625 net.cpp:129] Top shape: 1 150 (150)
I1018 00:00:55.674474 29625 net.cpp:129] Top shape: 1 150 (150)
I1018 00:00:55.674477 29625 net.cpp:137] Memory required for data: 3091200
I1018 00:00:55.674482 29625 layer_factory.hpp:77] Creating layer lstm1_x_transform
I1018 00:00:55.674494 29625 net.cpp:84] Creating Layer lstm1_x_transform
I1018 00:00:55.674499 29625 net.cpp:406] lstm1_x_transform <- x
I1018 00:00:55.674506 29625 net.cpp:380] lstm1_x_transform -> W_xc_x
I1018 00:00:55.688112 29625 net.cpp:122] Setting up lstm1_x_transform
I1018 00:00:55.688133 29625 net.cpp:129] Top shape: 8 150 2048 (2457600)
I1018 00:00:55.688139 29625 net.cpp:137] Memory required for data: 12921600
I1018 00:00:55.688154 29625 layer_factory.hpp:77] Creating layer lstm1_W_xc_x_slice
I1018 00:00:55.688164 29625 net.cpp:84] Creating Layer lstm1_W_xc_x_slice
I1018 00:00:55.688170 29625 net.cpp:406] lstm1_W_xc_x_slice <- W_xc_x
I1018 00:00:55.688181 29625 net.cpp:380] lstm1_W_xc_x_slice -> W_xc_x_1
I1018 00:00:55.688192 29625 net.cpp:380] lstm1_W_xc_x_slice -> W_xc_x_2
I1018 00:00:55.688201 29625 net.cpp:380] lstm1_W_xc_x_slice -> W_xc_x_3
I1018 00:00:55.688210 29625 net.cpp:380] lstm1_W_xc_x_slice -> W_xc_x_4
I1018 00:00:55.688220 29625 net.cpp:380] lstm1_W_xc_x_slice -> W_xc_x_5
I1018 00:00:55.688230 29625 net.cpp:380] lstm1_W_xc_x_slice -> W_xc_x_6
I1018 00:00:55.688236 29625 net.cpp:380] lstm1_W_xc_x_slice -> W_xc_x_7
I1018 00:00:55.688244 29625 net.cpp:380] lstm1_W_xc_x_slice -> W_xc_x_8
I1018 00:00:55.688366 29625 net.cpp:122] Setting up lstm1_W_xc_x_slice
I1018 00:00:55.688376 29625 net.cpp:129] Top shape: 1 150 2048 (307200)
I1018 00:00:55.688382 29625 net.cpp:129] Top shape: 1 150 2048 (307200)
I1018 00:00:55.688388 29625 net.cpp:129] Top shape: 1 150 2048 (307200)
I1018 00:00:55.688396 29625 net.cpp:129] Top shape: 1 150 2048 (307200)
I1018 00:00:55.688401 29625 net.cpp:129] Top shape: 1 150 2048 (307200)
I1018 00:00:55.688406 29625 net.cpp:129] Top shape: 1 150 2048 (307200)
I1018 00:00:55.688412 29625 net.cpp:129] Top shape: 1 150 2048 (307200)
I1018 00:00:55.688417 29625 net.cpp:129] Top shape: 1 150 2048 (307200)
I1018 00:00:55.688421 29625 net.cpp:137] Memory required for data: 22752000
I1018 00:00:55.688426 29625 layer_factory.hpp:77] Creating layer lstm1_h_conted_0
I1018 00:00:55.688436 29625 net.cpp:84] Creating Layer lstm1_h_conted_0
I1018 00:00:55.688441 29625 net.cpp:406] lstm1_h_conted_0 <- h_0
I1018 00:00:55.688448 29625 net.cpp:406] lstm1_h_conted_0 <- cont_1_lstm1_cont_slice_0_split_0
I1018 00:00:55.688455 29625 net.cpp:380] lstm1_h_conted_0 -> h_conted_0
I1018 00:00:55.688534 29625 net.cpp:122] Setting up lstm1_h_conted_0
I1018 00:00:55.688546 29625 net.cpp:129] Top shape: 1 150 512 (76800)
I1018 00:00:55.688551 29625 net.cpp:137] Memory required for data: 23059200
I1018 00:00:55.688556 29625 layer_factory.hpp:77] Creating layer lstm1_transform_1
I1018 00:00:55.688565 29625 net.cpp:84] Creating Layer lstm1_transform_1
I1018 00:00:55.688570 29625 net.cpp:406] lstm1_transform_1 <- h_conted_0
I1018 00:00:55.688578 29625 net.cpp:380] lstm1_transform_1 -> W_hc_h_0
I1018 00:00:55.702137 29625 net.cpp:122] Setting up lstm1_transform_1
I1018 00:00:55.702157 29625 net.cpp:129] Top shape: 1 150 2048 (307200)
I1018 00:00:55.702162 29625 net.cpp:137] Memory required for data: 24288000
I1018 00:00:55.702172 29625 layer_factory.hpp:77] Creating layer lstm1_gate_input_1
I1018 00:00:55.702189 29625 net.cpp:84] Creating Layer lstm1_gate_input_1
I1018 00:00:55.702194 29625 net.cpp:406] lstm1_gate_input_1 <- W_hc_h_0
I1018 00:00:55.702201 29625 net.cpp:406] lstm1_gate_input_1 <- W_xc_x_1
I1018 00:00:55.702208 29625 net.cpp:380] lstm1_gate_input_1 -> gate_input_1
I1018 00:00:55.702246 29625 net.cpp:122] Setting up lstm1_gate_input_1
I1018 00:00:55.702256 29625 net.cpp:129] Top shape: 1 150 2048 (307200)
I1018 00:00:55.702260 29625 net.cpp:137] Memory required for data: 25516800
I1018 00:00:55.702265 29625 layer_factory.hpp:77] Creating layer lstm1_unit_1
I1018 00:00:55.702280 29625 net.cpp:84] Creating Layer lstm1_unit_1
I1018 00:00:55.702286 29625 net.cpp:406] lstm1_unit_1 <- c_0
I1018 00:00:55.702292 29625 net.cpp:406] lstm1_unit_1 <- gate_input_1
I1018 00:00:55.702298 29625 net.cpp:406] lstm1_unit_1 <- cont_1_lstm1_cont_slice_0_split_1
I1018 00:00:55.702306 29625 net.cpp:380] lstm1_unit_1 -> c_1
I1018 00:00:55.702313 29625 net.cpp:380] lstm1_unit_1 -> h_1
I1018 00:00:55.702371 29625 net.cpp:122] Setting up lstm1_unit_1
I1018 00:00:55.702381 29625 net.cpp:129] Top shape: 1 150 512 (76800)
I1018 00:00:55.702386 29625 net.cpp:129] Top shape: 1 150 512 (76800)
I1018 00:00:55.702391 29625 net.cpp:137] Memory required for data: 26131200
I1018 00:00:55.702396 29625 layer_factory.hpp:77] Creating layer h_1_lstm1_unit_1_1_split
I1018 00:00:55.702405 29625 net.cpp:84] Creating Layer h_1_lstm1_unit_1_1_split
I1018 00:00:55.702410 29625 net.cpp:406] h_1_lstm1_unit_1_1_split <- h_1
I1018 00:00:55.702417 29625 net.cpp:380] h_1_lstm1_unit_1_1_split -> h_1_lstm1_unit_1_1_split_0
I1018 00:00:55.702425 29625 net.cpp:380] h_1_lstm1_unit_1_1_split -> h_1_lstm1_unit_1_1_split_1
I1018 00:00:55.702466 29625 net.cpp:122] Setting up h_1_lstm1_unit_1_1_split
I1018 00:00:55.702476 29625 net.cpp:129] Top shape: 1 150 512 (76800)
I1018 00:00:55.702481 29625 net.cpp:129] Top shape: 1 150 512 (76800)
I1018 00:00:55.702486 29625 net.cpp:137] Memory required for data: 26745600
I1018 00:00:55.702489 29625 layer_factory.hpp:77] Creating layer lstm1_h_conted_1
I1018 00:00:55.702500 29625 net.cpp:84] Creating Layer lstm1_h_conted_1
I1018 00:00:55.702507 29625 net.cpp:406] lstm1_h_conted_1 <- h_1_lstm1_unit_1_1_split_0
I1018 00:00:55.702518 29625 net.cpp:406] lstm1_h_conted_1 <- cont_2_lstm1_cont_slice_1_split_0
I1018 00:00:55.702525 29625 net.cpp:380] lstm1_h_conted_1 -> h_conted_1
I1018 00:00:55.702599 29625 net.cpp:122] Setting up lstm1_h_conted_1
I1018 00:00:55.702608 29625 net.cpp:129] Top shape: 1 150 512 (76800)
I1018 00:00:55.702612 29625 net.cpp:137] Memory required for data: 27052800
I1018 00:00:55.702617 29625 layer_factory.hpp:77] Creating layer lstm1_transform_2
I1018 00:00:55.702628 29625 net.cpp:84] Creating Layer lstm1_transform_2
I1018 00:00:55.702635 29625 net.cpp:406] lstm1_transform_2 <- h_conted_1
I1018 00:00:55.702642 29625 net.cpp:380] lstm1_transform_2 -> W_hc_h_1
I1018 00:00:55.716182 29625 net.cpp:122] Setting up lstm1_transform_2
I1018 00:00:55.716200 29625 net.cpp:129] Top shape: 1 150 2048 (307200)
I1018 00:00:55.716205 29625 net.cpp:137] Memory required for data: 28281600
I1018 00:00:55.716212 29625 net.cpp:465] Sharing parameters 'W_hc' owned by layer 'lstm1_transform_1', param index 0
I1018 00:00:55.716217 29625 layer_factory.hpp:77] Creating layer lstm1_gate_input_2
I1018 00:00:55.716228 29625 net.cpp:84] Creating Layer lstm1_gate_input_2
I1018 00:00:55.716233 29625 net.cpp:406] lstm1_gate_input_2 <- W_hc_h_1
I1018 00:00:55.716239 29625 net.cpp:406] lstm1_gate_input_2 <- W_xc_x_2
I1018 00:00:55.716246 29625 net.cpp:380] lstm1_gate_input_2 -> gate_input_2
I1018 00:00:55.716284 29625 net.cpp:122] Setting up lstm1_gate_input_2
I1018 00:00:55.716291 29625 net.cpp:129] Top shape: 1 150 2048 (307200)
I1018 00:00:55.716296 29625 net.cpp:137] Memory required for data: 29510400
I1018 00:00:55.716300 29625 layer_factory.hpp:77] Creating layer lstm1_unit_2
I1018 00:00:55.716308 29625 net.cpp:84] Creating Layer lstm1_unit_2
I1018 00:00:55.716313 29625 net.cpp:406] lstm1_unit_2 <- c_1
I1018 00:00:55.716320 29625 net.cpp:406] lstm1_unit_2 <- gate_input_2
I1018 00:00:55.716325 29625 net.cpp:406] lstm1_unit_2 <- cont_2_lstm1_cont_slice_1_split_1
I1018 00:00:55.716332 29625 net.cpp:380] lstm1_unit_2 -> c_2
I1018 00:00:55.716341 29625 net.cpp:380] lstm1_unit_2 -> h_2
I1018 00:00:55.716394 29625 net.cpp:122] Setting up lstm1_unit_2
I1018 00:00:55.716404 29625 net.cpp:129] Top shape: 1 150 512 (76800)
I1018 00:00:55.716410 29625 net.cpp:129] Top shape: 1 150 512 (76800)
I1018 00:00:55.716415 29625 net.cpp:137] Memory required for data: 30124800
I1018 00:00:55.716419 29625 layer_factory.hpp:77] Creating layer h_2_lstm1_unit_2_1_split
I1018 00:00:55.716428 29625 net.cpp:84] Creating Layer h_2_lstm1_unit_2_1_split
I1018 00:00:55.716434 29625 net.cpp:406] h_2_lstm1_unit_2_1_split <- h_2
I1018 00:00:55.716441 29625 net.cpp:380] h_2_lstm1_unit_2_1_split -> h_2_lstm1_unit_2_1_split_0
I1018 00:00:55.716449 29625 net.cpp:380] h_2_lstm1_unit_2_1_split -> h_2_lstm1_unit_2_1_split_1
I1018 00:00:55.716490 29625 net.cpp:122] Setting up h_2_lstm1_unit_2_1_split
I1018 00:00:55.716500 29625 net.cpp:129] Top shape: 1 150 512 (76800)
I1018 00:00:55.716506 29625 net.cpp:129] Top shape: 1 150 512 (76800)
I1018 00:00:55.716511 29625 net.cpp:137] Memory required for data: 30739200
I1018 00:00:55.716514 29625 layer_factory.hpp:77] Creating layer lstm1_h_conted_2
I1018 00:00:55.716523 29625 net.cpp:84] Creating Layer lstm1_h_conted_2
I1018 00:00:55.716531 29625 net.cpp:406] lstm1_h_conted_2 <- h_2_lstm1_unit_2_1_split_0
I1018 00:00:55.716537 29625 net.cpp:406] lstm1_h_conted_2 <- cont_3_lstm1_cont_slice_2_split_0
I1018 00:00:55.716544 29625 net.cpp:380] lstm1_h_conted_2 -> h_conted_2
I1018 00:00:55.716621 29625 net.cpp:122] Setting up lstm1_h_conted_2
I1018 00:00:55.716631 29625 net.cpp:129] Top shape: 1 150 512 (76800)
I1018 00:00:55.716636 29625 net.cpp:137] Memory required for data: 31046400
I1018 00:00:55.716641 29625 layer_factory.hpp:77] Creating layer lstm1_transform_3
I1018 00:00:55.716652 29625 net.cpp:84] Creating Layer lstm1_transform_3
I1018 00:00:55.716658 29625 net.cpp:406] lstm1_transform_3 <- h_conted_2
I1018 00:00:55.716666 29625 net.cpp:380] lstm1_transform_3 -> W_hc_h_2
I1018 00:00:55.730077 29625 net.cpp:122] Setting up lstm1_transform_3
I1018 00:00:55.730096 29625 net.cpp:129] Top shape: 1 150 2048 (307200)
I1018 00:00:55.730101 29625 net.cpp:137] Memory required for data: 32275200
I1018 00:00:55.730111 29625 net.cpp:465] Sharing parameters 'W_hc' owned by layer 'lstm1_transform_1', param index 0
I1018 00:00:55.730118 29625 layer_factory.hpp:77] Creating layer lstm1_gate_input_3
I1018 00:00:55.730128 29625 net.cpp:84] Creating Layer lstm1_gate_input_3
I1018 00:00:55.730134 29625 net.cpp:406] lstm1_gate_input_3 <- W_hc_h_2
I1018 00:00:55.730147 29625 net.cpp:406] lstm1_gate_input_3 <- W_xc_x_3
I1018 00:00:55.730155 29625 net.cpp:380] lstm1_gate_input_3 -> gate_input_3
I1018 00:00:55.730190 29625 net.cpp:122] Setting up lstm1_gate_input_3
I1018 00:00:55.730197 29625 net.cpp:129] Top shape: 1 150 2048 (307200)
I1018 00:00:55.730201 29625 net.cpp:137] Memory required for data: 33504000
I1018 00:00:55.730206 29625 layer_factory.hpp:77] Creating layer lstm1_unit_3
I1018 00:00:55.730217 29625 net.cpp:84] Creating Layer lstm1_unit_3
I1018 00:00:55.730222 29625 net.cpp:406] lstm1_unit_3 <- c_2
I1018 00:00:55.730229 29625 net.cpp:406] lstm1_unit_3 <- gate_input_3
I1018 00:00:55.730235 29625 net.cpp:406] lstm1_unit_3 <- cont_3_lstm1_cont_slice_2_split_1
I1018 00:00:55.730242 29625 net.cpp:380] lstm1_unit_3 -> c_3
I1018 00:00:55.730252 29625 net.cpp:380] lstm1_unit_3 -> h_3
I1018 00:00:55.730306 29625 net.cpp:122] Setting up lstm1_unit_3
I1018 00:00:55.730314 29625 net.cpp:129] Top shape: 1 150 512 (76800)
I1018 00:00:55.730319 29625 net.cpp:129] Top shape: 1 150 512 (76800)
I1018 00:00:55.730324 29625 net.cpp:137] Memory required for data: 34118400
I1018 00:00:55.730329 29625 layer_factory.hpp:77] Creating layer h_3_lstm1_unit_3_1_split
I1018 00:00:55.730335 29625 net.cpp:84] Creating Layer h_3_lstm1_unit_3_1_split
I1018 00:00:55.730341 29625 net.cpp:406] h_3_lstm1_unit_3_1_split <- h_3
I1018 00:00:55.730350 29625 net.cpp:380] h_3_lstm1_unit_3_1_split -> h_3_lstm1_unit_3_1_split_0
I1018 00:00:55.730358 29625 net.cpp:380] h_3_lstm1_unit_3_1_split -> h_3_lstm1_unit_3_1_split_1
I1018 00:00:55.730396 29625 net.cpp:122] Setting up h_3_lstm1_unit_3_1_split
I1018 00:00:55.730406 29625 net.cpp:129] Top shape: 1 150 512 (76800)
I1018 00:00:55.730412 29625 net.cpp:129] Top shape: 1 150 512 (76800)
I1018 00:00:55.730417 29625 net.cpp:137] Memory required for data: 34732800
I1018 00:00:55.730422 29625 layer_factory.hpp:77] Creating layer lstm1_h_conted_3
I1018 00:00:55.730433 29625 net.cpp:84] Creating Layer lstm1_h_conted_3
I1018 00:00:55.730439 29625 net.cpp:406] lstm1_h_conted_3 <- h_3_lstm1_unit_3_1_split_0
I1018 00:00:55.730446 29625 net.cpp:406] lstm1_h_conted_3 <- cont_4_lstm1_cont_slice_3_split_0
I1018 00:00:55.730455 29625 net.cpp:380] lstm1_h_conted_3 -> h_conted_3
I1018 00:00:55.730533 29625 net.cpp:122] Setting up lstm1_h_conted_3
I1018 00:00:55.730545 29625 net.cpp:129] Top shape: 1 150 512 (76800)
I1018 00:00:55.730550 29625 net.cpp:137] Memory required for data: 35040000
I1018 00:00:55.730554 29625 layer_factory.hpp:77] Creating layer lstm1_transform_4
I1018 00:00:55.730566 29625 net.cpp:84] Creating Layer lstm1_transform_4
I1018 00:00:55.730571 29625 net.cpp:406] lstm1_transform_4 <- h_conted_3
I1018 00:00:55.730581 29625 net.cpp:380] lstm1_transform_4 -> W_hc_h_3
I1018 00:00:55.744156 29625 net.cpp:122] Setting up lstm1_transform_4
I1018 00:00:55.744174 29625 net.cpp:129] Top shape: 1 150 2048 (307200)
I1018 00:00:55.744179 29625 net.cpp:137] Memory required for data: 36268800
I1018 00:00:55.744185 29625 net.cpp:465] Sharing parameters 'W_hc' owned by layer 'lstm1_transform_1', param index 0
I1018 00:00:55.744191 29625 layer_factory.hpp:77] Creating layer lstm1_gate_input_4
I1018 00:00:55.744205 29625 net.cpp:84] Creating Layer lstm1_gate_input_4
I1018 00:00:55.744211 29625 net.cpp:406] lstm1_gate_input_4 <- W_hc_h_3
I1018 00:00:55.744220 29625 net.cpp:406] lstm1_gate_input_4 <- W_xc_x_4
I1018 00:00:55.744226 29625 net.cpp:380] lstm1_gate_input_4 -> gate_input_4
I1018 00:00:55.744259 29625 net.cpp:122] Setting up lstm1_gate_input_4
I1018 00:00:55.744267 29625 net.cpp:129] Top shape: 1 150 2048 (307200)
I1018 00:00:55.744272 29625 net.cpp:137] Memory required for data: 37497600
I1018 00:00:55.744277 29625 layer_factory.hpp:77] Creating layer lstm1_unit_4
I1018 00:00:55.744287 29625 net.cpp:84] Creating Layer lstm1_unit_4
I1018 00:00:55.744292 29625 net.cpp:406] lstm1_unit_4 <- c_3
I1018 00:00:55.744298 29625 net.cpp:406] lstm1_unit_4 <- gate_input_4
I1018 00:00:55.744307 29625 net.cpp:406] lstm1_unit_4 <- cont_4_lstm1_cont_slice_3_split_1
I1018 00:00:55.744316 29625 net.cpp:380] lstm1_unit_4 -> c_4
I1018 00:00:55.744326 29625 net.cpp:380] lstm1_unit_4 -> h_4
I1018 00:00:55.744385 29625 net.cpp:122] Setting up lstm1_unit_4
I1018 00:00:55.744393 29625 net.cpp:129] Top shape: 1 150 512 (76800)
I1018 00:00:55.744398 29625 net.cpp:129] Top shape: 1 150 512 (76800)
I1018 00:00:55.744403 29625 net.cpp:137] Memory required for data: 38112000
I1018 00:00:55.744408 29625 layer_factory.hpp:77] Creating layer h_4_lstm1_unit_4_1_split
I1018 00:00:55.744421 29625 net.cpp:84] Creating Layer h_4_lstm1_unit_4_1_split
I1018 00:00:55.744426 29625 net.cpp:406] h_4_lstm1_unit_4_1_split <- h_4
I1018 00:00:55.744436 29625 net.cpp:380] h_4_lstm1_unit_4_1_split -> h_4_lstm1_unit_4_1_split_0
I1018 00:00:55.744443 29625 net.cpp:380] h_4_lstm1_unit_4_1_split -> h_4_lstm1_unit_4_1_split_1
I1018 00:00:55.744493 29625 net.cpp:122] Setting up h_4_lstm1_unit_4_1_split
I1018 00:00:55.744514 29625 net.cpp:129] Top shape: 1 150 512 (76800)
I1018 00:00:55.744520 29625 net.cpp:129] Top shape: 1 150 512 (76800)
I1018 00:00:55.744524 29625 net.cpp:137] Memory required for data: 38726400
I1018 00:00:55.744529 29625 layer_factory.hpp:77] Creating layer lstm1_h_conted_4
I1018 00:00:55.744539 29625 net.cpp:84] Creating Layer lstm1_h_conted_4
I1018 00:00:55.744544 29625 net.cpp:406] lstm1_h_conted_4 <- h_4_lstm1_unit_4_1_split_0
I1018 00:00:55.744550 29625 net.cpp:406] lstm1_h_conted_4 <- cont_5_lstm1_cont_slice_4_split_0
I1018 00:00:55.744560 29625 net.cpp:380] lstm1_h_conted_4 -> h_conted_4
I1018 00:00:55.744629 29625 net.cpp:122] Setting up lstm1_h_conted_4
I1018 00:00:55.744640 29625 net.cpp:129] Top shape: 1 150 512 (76800)
I1018 00:00:55.744644 29625 net.cpp:137] Memory required for data: 39033600
I1018 00:00:55.744649 29625 layer_factory.hpp:77] Creating layer lstm1_transform_5
I1018 00:00:55.744658 29625 net.cpp:84] Creating Layer lstm1_transform_5
I1018 00:00:55.744663 29625 net.cpp:406] lstm1_transform_5 <- h_conted_4
I1018 00:00:55.744673 29625 net.cpp:380] lstm1_transform_5 -> W_hc_h_4
I1018 00:00:55.758080 29625 net.cpp:122] Setting up lstm1_transform_5
I1018 00:00:55.758100 29625 net.cpp:129] Top shape: 1 150 2048 (307200)
I1018 00:00:55.758105 29625 net.cpp:137] Memory required for data: 40262400
I1018 00:00:55.758111 29625 net.cpp:465] Sharing parameters 'W_hc' owned by layer 'lstm1_transform_1', param index 0
I1018 00:00:55.758116 29625 layer_factory.hpp:77] Creating layer lstm1_gate_input_5
I1018 00:00:55.758124 29625 net.cpp:84] Creating Layer lstm1_gate_input_5
I1018 00:00:55.758129 29625 net.cpp:406] lstm1_gate_input_5 <- W_hc_h_4
I1018 00:00:55.758136 29625 net.cpp:406] lstm1_gate_input_5 <- W_xc_x_5
I1018 00:00:55.758144 29625 net.cpp:380] lstm1_gate_input_5 -> gate_input_5
I1018 00:00:55.758182 29625 net.cpp:122] Setting up lstm1_gate_input_5
I1018 00:00:55.758194 29625 net.cpp:129] Top shape: 1 150 2048 (307200)
I1018 00:00:55.758199 29625 net.cpp:137] Memory required for data: 41491200
I1018 00:00:55.758203 29625 layer_factory.hpp:77] Creating layer lstm1_unit_5
I1018 00:00:55.758211 29625 net.cpp:84] Creating Layer lstm1_unit_5
I1018 00:00:55.758216 29625 net.cpp:406] lstm1_unit_5 <- c_4
I1018 00:00:55.758224 29625 net.cpp:406] lstm1_unit_5 <- gate_input_5
I1018 00:00:55.758229 29625 net.cpp:406] lstm1_unit_5 <- cont_5_lstm1_cont_slice_4_split_1
I1018 00:00:55.758236 29625 net.cpp:380] lstm1_unit_5 -> c_5
I1018 00:00:55.758245 29625 net.cpp:380] lstm1_unit_5 -> h_5
I1018 00:00:55.758301 29625 net.cpp:122] Setting up lstm1_unit_5
I1018 00:00:55.758312 29625 net.cpp:129] Top shape: 1 150 512 (76800)
I1018 00:00:55.758318 29625 net.cpp:129] Top shape: 1 150 512 (76800)
I1018 00:00:55.758323 29625 net.cpp:137] Memory required for data: 42105600
I1018 00:00:55.758328 29625 layer_factory.hpp:77] Creating layer h_5_lstm1_unit_5_1_split
I1018 00:00:55.758334 29625 net.cpp:84] Creating Layer h_5_lstm1_unit_5_1_split
I1018 00:00:55.758339 29625 net.cpp:406] h_5_lstm1_unit_5_1_split <- h_5
I1018 00:00:55.758347 29625 net.cpp:380] h_5_lstm1_unit_5_1_split -> h_5_lstm1_unit_5_1_split_0
I1018 00:00:55.758355 29625 net.cpp:380] h_5_lstm1_unit_5_1_split -> h_5_lstm1_unit_5_1_split_1
I1018 00:00:55.758396 29625 net.cpp:122] Setting up h_5_lstm1_unit_5_1_split
I1018 00:00:55.758405 29625 net.cpp:129] Top shape: 1 150 512 (76800)
I1018 00:00:55.758410 29625 net.cpp:129] Top shape: 1 150 512 (76800)
I1018 00:00:55.758415 29625 net.cpp:137] Memory required for data: 42720000
I1018 00:00:55.758420 29625 layer_factory.hpp:77] Creating layer lstm1_h_conted_5
I1018 00:00:55.758429 29625 net.cpp:84] Creating Layer lstm1_h_conted_5
I1018 00:00:55.758435 29625 net.cpp:406] lstm1_h_conted_5 <- h_5_lstm1_unit_5_1_split_0
I1018 00:00:55.758441 29625 net.cpp:406] lstm1_h_conted_5 <- cont_6_lstm1_cont_slice_5_split_0
I1018 00:00:55.758448 29625 net.cpp:380] lstm1_h_conted_5 -> h_conted_5
I1018 00:00:55.758519 29625 net.cpp:122] Setting up lstm1_h_conted_5
I1018 00:00:55.758529 29625 net.cpp:129] Top shape: 1 150 512 (76800)
I1018 00:00:55.758534 29625 net.cpp:137] Memory required for data: 43027200
I1018 00:00:55.758539 29625 layer_factory.hpp:77] Creating layer lstm1_transform_6
I1018 00:00:55.758548 29625 net.cpp:84] Creating Layer lstm1_transform_6
I1018 00:00:55.758553 29625 net.cpp:406] lstm1_transform_6 <- h_conted_5
I1018 00:00:55.758561 29625 net.cpp:380] lstm1_transform_6 -> W_hc_h_5
I1018 00:00:55.772011 29625 net.cpp:122] Setting up lstm1_transform_6
I1018 00:00:55.772033 29625 net.cpp:129] Top shape: 1 150 2048 (307200)
I1018 00:00:55.772038 29625 net.cpp:137] Memory required for data: 44256000
I1018 00:00:55.772045 29625 net.cpp:465] Sharing parameters 'W_hc' owned by layer 'lstm1_transform_1', param index 0
I1018 00:00:55.772050 29625 layer_factory.hpp:77] Creating layer lstm1_gate_input_6
I1018 00:00:55.772059 29625 net.cpp:84] Creating Layer lstm1_gate_input_6
I1018 00:00:55.772065 29625 net.cpp:406] lstm1_gate_input_6 <- W_hc_h_5
I1018 00:00:55.772073 29625 net.cpp:406] lstm1_gate_input_6 <- W_xc_x_6
I1018 00:00:55.772081 29625 net.cpp:380] lstm1_gate_input_6 -> gate_input_6
I1018 00:00:55.772119 29625 net.cpp:122] Setting up lstm1_gate_input_6
I1018 00:00:55.772127 29625 net.cpp:129] Top shape: 1 150 2048 (307200)
I1018 00:00:55.772131 29625 net.cpp:137] Memory required for data: 45484800
I1018 00:00:55.772136 29625 layer_factory.hpp:77] Creating layer lstm1_unit_6
I1018 00:00:55.772145 29625 net.cpp:84] Creating Layer lstm1_unit_6
I1018 00:00:55.772150 29625 net.cpp:406] lstm1_unit_6 <- c_5
I1018 00:00:55.772156 29625 net.cpp:406] lstm1_unit_6 <- gate_input_6
I1018 00:00:55.772162 29625 net.cpp:406] lstm1_unit_6 <- cont_6_lstm1_cont_slice_5_split_1
I1018 00:00:55.772171 29625 net.cpp:380] lstm1_unit_6 -> c_6
I1018 00:00:55.772178 29625 net.cpp:380] lstm1_unit_6 -> h_6
I1018 00:00:55.772233 29625 net.cpp:122] Setting up lstm1_unit_6
I1018 00:00:55.772241 29625 net.cpp:129] Top shape: 1 150 512 (76800)
I1018 00:00:55.772248 29625 net.cpp:129] Top shape: 1 150 512 (76800)
I1018 00:00:55.772251 29625 net.cpp:137] Memory required for data: 46099200
I1018 00:00:55.772258 29625 layer_factory.hpp:77] Creating layer h_6_lstm1_unit_6_1_split
I1018 00:00:55.772266 29625 net.cpp:84] Creating Layer h_6_lstm1_unit_6_1_split
I1018 00:00:55.772271 29625 net.cpp:406] h_6_lstm1_unit_6_1_split <- h_6
I1018 00:00:55.772279 29625 net.cpp:380] h_6_lstm1_unit_6_1_split -> h_6_lstm1_unit_6_1_split_0
I1018 00:00:55.772286 29625 net.cpp:380] h_6_lstm1_unit_6_1_split -> h_6_lstm1_unit_6_1_split_1
I1018 00:00:55.772327 29625 net.cpp:122] Setting up h_6_lstm1_unit_6_1_split
I1018 00:00:55.772334 29625 net.cpp:129] Top shape: 1 150 512 (76800)
I1018 00:00:55.772341 29625 net.cpp:129] Top shape: 1 150 512 (76800)
I1018 00:00:55.772344 29625 net.cpp:137] Memory required for data: 46713600
I1018 00:00:55.772349 29625 layer_factory.hpp:77] Creating layer lstm1_h_conted_6
I1018 00:00:55.772359 29625 net.cpp:84] Creating Layer lstm1_h_conted_6
I1018 00:00:55.772364 29625 net.cpp:406] lstm1_h_conted_6 <- h_6_lstm1_unit_6_1_split_0
I1018 00:00:55.772372 29625 net.cpp:406] lstm1_h_conted_6 <- cont_7_lstm1_cont_slice_6_split_0
I1018 00:00:55.772378 29625 net.cpp:380] lstm1_h_conted_6 -> h_conted_6
I1018 00:00:55.772447 29625 net.cpp:122] Setting up lstm1_h_conted_6
I1018 00:00:55.772459 29625 net.cpp:129] Top shape: 1 150 512 (76800)
I1018 00:00:55.772462 29625 net.cpp:137] Memory required for data: 47020800
I1018 00:00:55.772467 29625 layer_factory.hpp:77] Creating layer lstm1_transform_7
I1018 00:00:55.772478 29625 net.cpp:84] Creating Layer lstm1_transform_7
I1018 00:00:55.772485 29625 net.cpp:406] lstm1_transform_7 <- h_conted_6
I1018 00:00:55.772492 29625 net.cpp:380] lstm1_transform_7 -> W_hc_h_6
I1018 00:00:55.786036 29625 net.cpp:122] Setting up lstm1_transform_7
I1018 00:00:55.786053 29625 net.cpp:129] Top shape: 1 150 2048 (307200)
I1018 00:00:55.786058 29625 net.cpp:137] Memory required for data: 48249600
I1018 00:00:55.786067 29625 net.cpp:465] Sharing parameters 'W_hc' owned by layer 'lstm1_transform_1', param index 0
I1018 00:00:55.786073 29625 layer_factory.hpp:77] Creating layer lstm1_gate_input_7
I1018 00:00:55.786082 29625 net.cpp:84] Creating Layer lstm1_gate_input_7
I1018 00:00:55.786088 29625 net.cpp:406] lstm1_gate_input_7 <- W_hc_h_6
I1018 00:00:55.786095 29625 net.cpp:406] lstm1_gate_input_7 <- W_xc_x_7
I1018 00:00:55.786103 29625 net.cpp:380] lstm1_gate_input_7 -> gate_input_7
I1018 00:00:55.786137 29625 net.cpp:122] Setting up lstm1_gate_input_7
I1018 00:00:55.786156 29625 net.cpp:129] Top shape: 1 150 2048 (307200)
I1018 00:00:55.786161 29625 net.cpp:137] Memory required for data: 49478400
I1018 00:00:55.786165 29625 layer_factory.hpp:77] Creating layer lstm1_unit_7
I1018 00:00:55.786173 29625 net.cpp:84] Creating Layer lstm1_unit_7
I1018 00:00:55.786178 29625 net.cpp:406] lstm1_unit_7 <- c_6
I1018 00:00:55.786185 29625 net.cpp:406] lstm1_unit_7 <- gate_input_7
I1018 00:00:55.786191 29625 net.cpp:406] lstm1_unit_7 <- cont_7_lstm1_cont_slice_6_split_1
I1018 00:00:55.786198 29625 net.cpp:380] lstm1_unit_7 -> c_7
I1018 00:00:55.786206 29625 net.cpp:380] lstm1_unit_7 -> h_7
I1018 00:00:55.786268 29625 net.cpp:122] Setting up lstm1_unit_7
I1018 00:00:55.786278 29625 net.cpp:129] Top shape: 1 150 512 (76800)
I1018 00:00:55.786284 29625 net.cpp:129] Top shape: 1 150 512 (76800)
I1018 00:00:55.786288 29625 net.cpp:137] Memory required for data: 50092800
I1018 00:00:55.786293 29625 layer_factory.hpp:77] Creating layer h_7_lstm1_unit_7_1_split
I1018 00:00:55.786301 29625 net.cpp:84] Creating Layer h_7_lstm1_unit_7_1_split
I1018 00:00:55.786306 29625 net.cpp:406] h_7_lstm1_unit_7_1_split <- h_7
I1018 00:00:55.786315 29625 net.cpp:380] h_7_lstm1_unit_7_1_split -> h_7_lstm1_unit_7_1_split_0
I1018 00:00:55.786324 29625 net.cpp:380] h_7_lstm1_unit_7_1_split -> h_7_lstm1_unit_7_1_split_1
I1018 00:00:55.786365 29625 net.cpp:122] Setting up h_7_lstm1_unit_7_1_split
I1018 00:00:55.786371 29625 net.cpp:129] Top shape: 1 150 512 (76800)
I1018 00:00:55.786377 29625 net.cpp:129] Top shape: 1 150 512 (76800)
I1018 00:00:55.786381 29625 net.cpp:137] Memory required for data: 50707200
I1018 00:00:55.786386 29625 layer_factory.hpp:77] Creating layer lstm1_h_conted_7
I1018 00:00:55.786394 29625 net.cpp:84] Creating Layer lstm1_h_conted_7
I1018 00:00:55.786401 29625 net.cpp:406] lstm1_h_conted_7 <- h_7_lstm1_unit_7_1_split_0
I1018 00:00:55.786407 29625 net.cpp:406] lstm1_h_conted_7 <- cont_8_lstm1_cont_slice_7_split_0
I1018 00:00:55.786417 29625 net.cpp:380] lstm1_h_conted_7 -> h_conted_7
I1018 00:00:55.786491 29625 net.cpp:122] Setting up lstm1_h_conted_7
I1018 00:00:55.786501 29625 net.cpp:129] Top shape: 1 150 512 (76800)
I1018 00:00:55.786506 29625 net.cpp:137] Memory required for data: 51014400
I1018 00:00:55.786511 29625 layer_factory.hpp:77] Creating layer lstm1_transform_8
I1018 00:00:55.786520 29625 net.cpp:84] Creating Layer lstm1_transform_8
I1018 00:00:55.786525 29625 net.cpp:406] lstm1_transform_8 <- h_conted_7
I1018 00:00:55.786535 29625 net.cpp:380] lstm1_transform_8 -> W_hc_h_7
I1018 00:00:55.798825 29625 net.cpp:122] Setting up lstm1_transform_8
I1018 00:00:55.798852 29625 net.cpp:129] Top shape: 1 150 2048 (307200)
I1018 00:00:55.798857 29625 net.cpp:137] Memory required for data: 52243200
I1018 00:00:55.798863 29625 net.cpp:465] Sharing parameters 'W_hc' owned by layer 'lstm1_transform_1', param index 0
I1018 00:00:55.798867 29625 layer_factory.hpp:77] Creating layer lstm1_gate_input_8
I1018 00:00:55.798876 29625 net.cpp:84] Creating Layer lstm1_gate_input_8
I1018 00:00:55.798882 29625 net.cpp:406] lstm1_gate_input_8 <- W_hc_h_7
I1018 00:00:55.798887 29625 net.cpp:406] lstm1_gate_input_8 <- W_xc_x_8
I1018 00:00:55.798893 29625 net.cpp:380] lstm1_gate_input_8 -> gate_input_8
I1018 00:00:55.798923 29625 net.cpp:122] Setting up lstm1_gate_input_8
I1018 00:00:55.798930 29625 net.cpp:129] Top shape: 1 150 2048 (307200)
I1018 00:00:55.798934 29625 net.cpp:137] Memory required for data: 53472000
I1018 00:00:55.798938 29625 layer_factory.hpp:77] Creating layer lstm1_unit_8
I1018 00:00:55.798949 29625 net.cpp:84] Creating Layer lstm1_unit_8
I1018 00:00:55.798952 29625 net.cpp:406] lstm1_unit_8 <- c_7
I1018 00:00:55.798959 29625 net.cpp:406] lstm1_unit_8 <- gate_input_8
I1018 00:00:55.798964 29625 net.cpp:406] lstm1_unit_8 <- cont_8_lstm1_cont_slice_7_split_1
I1018 00:00:55.798969 29625 net.cpp:380] lstm1_unit_8 -> c_8
I1018 00:00:55.798977 29625 net.cpp:380] lstm1_unit_8 -> h_8
I1018 00:00:55.799026 29625 net.cpp:122] Setting up lstm1_unit_8
I1018 00:00:55.799036 29625 net.cpp:129] Top shape: 1 150 512 (76800)
I1018 00:00:55.799041 29625 net.cpp:129] Top shape: 1 150 512 (76800)
I1018 00:00:55.799044 29625 net.cpp:137] Memory required for data: 54086400
I1018 00:00:55.799048 29625 layer_factory.hpp:77] Creating layer lstm1_
I1018 00:00:55.799054 29625 net.cpp:84] Creating Layer lstm1_
I1018 00:00:55.799059 29625 net.cpp:406] lstm1_ <- c_8
I1018 00:00:55.799067 29625 net.cpp:380] lstm1_ -> c_T
I1018 00:00:55.799091 29625 net.cpp:122] Setting up lstm1_
I1018 00:00:55.799100 29625 net.cpp:129] Top shape: 1 150 512 (76800)
I1018 00:00:55.799105 29625 net.cpp:137] Memory required for data: 54393600
I1018 00:00:55.799109 29625 layer_factory.hpp:77] Creating layer lstm1_h_concat
I1018 00:00:55.799118 29625 net.cpp:84] Creating Layer lstm1_h_concat
I1018 00:00:55.799123 29625 net.cpp:406] lstm1_h_concat <- h_1_lstm1_unit_1_1_split_1
I1018 00:00:55.799129 29625 net.cpp:406] lstm1_h_concat <- h_2_lstm1_unit_2_1_split_1
I1018 00:00:55.799134 29625 net.cpp:406] lstm1_h_concat <- h_3_lstm1_unit_3_1_split_1
I1018 00:00:55.799139 29625 net.cpp:406] lstm1_h_concat <- h_4_lstm1_unit_4_1_split_1
I1018 00:00:55.799144 29625 net.cpp:406] lstm1_h_concat <- h_5_lstm1_unit_5_1_split_1
I1018 00:00:55.799149 29625 net.cpp:406] lstm1_h_concat <- h_6_lstm1_unit_6_1_split_1
I1018 00:00:55.799154 29625 net.cpp:406] lstm1_h_concat <- h_7_lstm1_unit_7_1_split_1
I1018 00:00:55.799157 29625 net.cpp:406] lstm1_h_concat <- h_8
I1018 00:00:55.799163 29625 net.cpp:380] lstm1_h_concat -> h
I1018 00:00:55.799191 29625 net.cpp:122] Setting up lstm1_h_concat
I1018 00:00:55.799197 29625 net.cpp:129] Top shape: 8 150 512 (614400)
I1018 00:00:55.799201 29625 net.cpp:137] Memory required for data: 56851200
I1018 00:00:55.799206 29625 layer_factory.hpp:77] Creating layer h_pseudoloss
I1018 00:00:55.799213 29625 net.cpp:84] Creating Layer h_pseudoloss
I1018 00:00:55.799217 29625 net.cpp:406] h_pseudoloss <- h
I1018 00:00:55.799224 29625 net.cpp:380] h_pseudoloss -> h_pseudoloss
I1018 00:00:55.801079 29625 net.cpp:122] Setting up h_pseudoloss
…
I1018 00:00:55.801393 29625 net.cpp:200] lstm1_ does not need backward computation.
I1018 00:00:55.801395 29625 net.cpp:242] This network produces output c_T
I1018 00:00:55.801400 29625 net.cpp:242] This network produces output h_pseudoloss
I1018 00:00:55.807996 29625 net.cpp:255] Network initialization done.
I1018 00:00:55.808161 29625 recurrent_layer.cpp:150] Adding parameter 0: W_xc
I1018 00:00:55.808171 29625 recurrent_layer.cpp:150] Adding parameter 1: b_c
I1018 00:00:55.808176 29625 recurrent_layer.cpp:150] Adding parameter 2: W_hc
I1018 00:00:55.809419 29625 net.cpp:122] Setting up lstm1
I1018 00:00:55.809434 29625 net.cpp:129] Top shape: 8 150 512 (614400)
I1018 00:00:55.809439 29625 net.cpp:137] Memory required for data: 17315656200
I1018 00:00:55.809449 29625 layer_factory.hpp:77] Creating layer lstm1-drop
I1018 00:00:55.809458 29625 net.cpp:84] Creating Layer lstm1-drop
I1018 00:00:55.809465 29625 net.cpp:406] lstm1-drop <- lstm1
I1018 00:00:55.809473 29625 net.cpp:380] lstm1-drop -> lstm1-drop
I1018 00:00:55.809514 29625 net.cpp:122] Setting up lstm1-drop
I1018 00:00:55.809521 29625 net.cpp:129] Top shape: 8 150 512 (614400)
I1018 00:00:55.809525 29625 net.cpp:137] Memory required for data: 17318113800
I1018 00:00:55.809530 29625 layer_factory.hpp:77] Creating layer fc-final
I1018 00:00:55.809540 29625 net.cpp:84] Creating Layer fc-final
I1018 00:00:55.809543 29625 net.cpp:406] fc-final <- lstm1-drop
I1018 00:00:55.809551 29625 net.cpp:380] fc-final -> fc-final
I1018 00:00:55.809846 29625 net.cpp:122] Setting up fc-final
I1018 00:00:55.809855 29625 net.cpp:129] Top shape: 8 150 10 (12000)
I1018 00:00:55.809859 29625 net.cpp:137] Memory required for data: 17318161800
I1018 00:00:55.809866 29625 layer_factory.hpp:77] Creating layer fc-final_fc-final_0_split
I1018 00:00:55.809873 29625 net.cpp:84] Creating Layer fc-final_fc-final_0_split
I1018 00:00:55.809878 29625 net.cpp:406] fc-final_fc-final_0_split <- fc-final
I1018 00:00:55.809885 29625 net.cpp:380] fc-final_fc-final_0_split -> fc-final_fc-final_0_split_0
I1018 00:00:55.809891 29625 net.cpp:380] fc-final_fc-final_0_split -> fc-final_fc-final_0_split_1
I1018 00:00:55.809926 29625 net.cpp:122] Setting up fc-final_fc-final_0_split
I1018 00:00:55.809932 29625 net.cpp:129] Top shape: 8 150 10 (12000)
I1018 00:00:55.809937 29625 net.cpp:129] Top shape: 8 150 10 (12000)
I1018 00:00:55.809942 29625 net.cpp:137] Memory required for data: 17318257800
I1018 00:00:55.809945 29625 layer_factory.hpp:77] Creating layer loss
I1018 00:00:55.809952 29625 net.cpp:84] Creating Layer loss
I1018 00:00:55.809957 29625 net.cpp:406] loss <- fc-final_fc-final_0_split_0
I1018 00:00:55.809963 29625 net.cpp:406] loss <- reshape-label_label_tran_0_split_0
I1018 00:00:55.809969 29625 net.cpp:380] loss -> loss
…
