…
I1017 23:52:41.150420 29448 net.cpp:294] The NetState phase (0) differed from the phase (1) specified by a rule in layer Silence
I1017 23:52:41.150645 29448 net.cpp:51] Initializing net from parameters: 
name: "VGG-Places365"
state {
  phase: TRAIN
  level: 0
  stage: ""
}
layer {
  name: "data"
  type: "ImageData"
  top: "data"
  top: "label"
  include {
    phase: TRAIN
  }
  transform_param {
    mirror: true
    crop_size: 224
    mean_value: 104
    mean_value: 117
    mean_value: 123
  }
  image_data_param {
    source: "../Data/lsun_train_list_12w.txt"
    batch_size: 5
    shuffle: true
    new_height: 256
    new_width: 256
  }
}
layer {
  name: "label_tran"
  type: "Python"
  bottom: "label"
  top: "reshape-label"
  top: "clip_markers"
  python_param {
    module: "data_preparation_sort_max_clip"
    layer: "ReshapeLabel"
  }
}
layer {
  name: "conv1_1"
  type: "Convolution"
  bottom: "data"
  top: "conv1_1"
  convolution_param {
    num_output: 64
    pad: 1
    kernel_size: 3
  }
}
layer {
  name: "relu1_1"
  type: "ReLU"
  bottom: "conv1_1"
  top: "conv1_1"
}
layer {
  name: "conv1_2"
  type: "Convolution"
  bottom: "conv1_1"
  top: "conv1_2"
  convolution_param {
    num_output: 64
    pad: 1
    kernel_size: 3
  }
}
layer {
  name: "relu1_2"
  type: "ReLU"
  bottom: "conv1_2"
  top: "conv1_2"
}
layer {
  name: "pool1"
  type: "Pooling"
  bottom: "conv1_2"
  top: "pool1"
  pooling_param {
    pool: MAX
    kernel_size: 2
    stride: 2
  }
}
layer {
  name: "conv2_1"
  type: "Convolution"
  bottom: "pool1"
  top: "conv2_1"
  convolution_param {
    num_output: 128
    pad: 1
    kernel_size: 3
  }
}
layer {
  name: "relu2_1"
  type: "ReLU"
  bottom: "conv2_1"
  top: "conv2_1"
}
layer {
  name: "conv2_2"
  type: "Convolution"
  bottom: "conv2_1"
  top: "conv2_2"
  convolution_param {
    num_output: 128
    pad: 1
    kernel_size: 3
  }
}
layer {
  name: "relu2_2"
  type: "ReLU"
  bottom: "conv2_2"
  top: "conv2_2"
}
layer {
  name: "pool2"
  type: "Pooling"
  bottom: "conv2_2"
  top: "pool2"
  pooling_param {
    pool: MAX
    kernel_size: 2
    stride: 2
  }
}
layer {
  name: "conv3_1"
  type: "Convolution"
  bottom: "pool2"
  top: "conv3_1"
  convolution_param {
    num_output: 256
    pad: 1
    kernel_size: 3
  }
}
layer {
  name: "relu3_1"
  type: "ReLU"
  bottom: "conv3_1"
  top: "conv3_1"
}
layer {
  name: "conv3_2"
  type: "Convolution"
  bottom: "conv3_1"
  top: "conv3_2"
  convolution_param {
    num_output: 256
    pad: 1
    kernel_size: 3
  }
}
layer {
  name: "relu3_2"
  type: "ReLU"
  bottom: "conv3_2"
  top: "conv3_2"
}
layer {
  name: "conv3_3"
  type: "Convolution"
  bottom: "conv3_2"
  top: "conv3_3"
  convolution_param {
    num_output: 256
    pad: 1
    kernel_size: 3
  }
}
layer {
  name: "relu3_3"
  type: "ReLU"
  bottom: "conv3_3"
  top: "conv3_3"
}
layer {
  name: "pool3"
  type: "Pooling"
  bottom: "conv3_3"
  top: "pool3"
  pooling_param {
    pool: MAX
    kernel_size: 2
    stride: 2
  }
}
layer {
  name: "conv4_1"
  type: "Convolution"
  bottom: "pool3"
  top: "conv4_1"
  convolution_param {
    num_output: 512
    pad: 1
    kernel_size: 3
  }
}
layer {
  name: "relu4_1"
  type: "ReLU"
  bottom: "conv4_1"
  top: "conv4_1"
}
layer {
  name: "conv4_2"
  type: "Convolution"
  bottom: "conv4_1"
  top: "conv4_2"
  convolution_param {
    num_output: 512
    pad: 1
    kernel_size: 3
  }
}
layer {
  name: "relu4_2"
  type: "ReLU"
  bottom: "conv4_2"
  top: "conv4_2"
}
layer {
  name: "conv4_3"
  type: "Convolution"
  bottom: "conv4_2"
  top: "conv4_3"
  convolution_param {
    num_output: 512
    pad: 1
    kernel_size: 3
  }
}
layer {
  name: "relu4_3"
  type: "ReLU"
  bottom: "conv4_3"
  top: "conv4_3"
}
layer {
  name: "pool4"
  type: "Pooling"
  bottom: "conv4_3"
  top: "pool4"
  pooling_param {
    pool: MAX
    kernel_size: 2
    stride: 2
  }
}
layer {
  name: "conv5_1"
  type: "Convolution"
  bottom: "pool4"
  top: "conv5_1"
  convolution_param {
    num_output: 512
    pad: 1
    kernel_size: 3
  }
}
layer {
  name: "relu5_1"
  type: "ReLU"
  bottom: "conv5_1"
  top: "conv5_1"
}
layer {
  name: "conv5_2"
  type: "Convolution"
  bottom: "conv5_1"
  top: "conv5_2"
  convolution_param {
    num_output: 512
    pad: 1
    kernel_size: 3
  }
}
layer {
  name: "relu5_2"
  type: "ReLU"
  bottom: "conv5_2"
  top: "conv5_2"
}
layer {
  name: "conv5_3"
  type: "Convolution"
  bottom: "conv5_2"
  top: "conv5_3"
  convolution_param {
    num_output: 512
    pad: 1
    kernel_size: 3
  }
}
layer {
  name: "relu5_3"
  type: "ReLU"
  bottom: "conv5_3"
  top: "conv5_3"
}
layer {
  name: "conv5_3_re"
  type: "Reshape"
  bottom: "conv5_3"
  top: "conv5_3_re"
  reshape_param {
    shape {
      dim: 0
      dim: 0
      dim: -1
    }
  }
}
layer {
  name: "conv5_3_tran"
  type: "Python"
  bottom: "conv5_3_re"
  top: "conv5_3_tran"
  python_param {
    module: "data_preparation_sort_max_clip"
    layer: "DataTransposeSortMaxClip"
  }
}
layer {
  name: "lstm1"
  type: "LSTM"
  bottom: "conv5_3_tran"
  bottom: "clip_markers"
  top: "lstm1"
  recurrent_param {
    num_output: 512
    weight_filler {
      type: "uniform"
      min: -0.01
      max: 0.01
    }
    bias_filler {
      type: "constant"
      value: 0
    }
  }
}
layer {
  name: "lstm1-drop"
  type: "Dropout"
  bottom: "lstm1"
  top: "lstm1-drop"
  dropout_param {
    dropout_ratio: 0.5
  }
}
layer {
  name: "fc-final"
  type: "InnerProduct"
  bottom: "lstm1-drop"
  top: "fc-final"
  param {
    lr_mult: 1
    decay_mult: 1
  }
  param {
    lr_mult: 2
    decay_mult: 0
  }
  inner_product_param {
    num_output: 10
    weight_filler {
      type: "gaussian"
      std: 0.01
    }
    bias_filler {
      type: "constant"
      value: 0
    }
    axis: 2
  }
}
layer {
  name: "loss"
  type: "SoftmaxWithLoss"
  bottom: "fc-final"
  bottom: "reshape-label"
  top: "loss"
  softmax_param {
    axis: 2
  }
}
layer {
  name: "accuracy"
  type: "Accuracy"
  bottom: "fc-final"
  bottom: "reshape-label"
  top: "accuracy"
  accuracy_param {
    axis: 2
  }
}
I1017 23:52:41.150885 29448 layer_factory.hpp:77] Creating layer data
I1017 23:52:41.150955 29448 net.cpp:84] Creating Layer data
I1017 23:52:41.150970 29448 net.cpp:380] data -> data
I1017 23:52:41.151026 29448 net.cpp:380] data -> label
I1017 23:52:41.151064 29448 image_data_layer.cpp:38] Opening file ../Data/lsun_train_list_12w.txt
I1017 23:52:41.717491 29448 image_data_layer.cpp:53] Shuffling data
I1017 23:52:42.011201 29448 image_data_layer.cpp:63] A total of 1200000 images.
I1017 23:52:42.017179 29448 image_data_layer.cpp:90] output data size: 5,3,224,224
I1017 23:52:42.030597 29448 net.cpp:122] Setting up data
I1017 23:52:42.030668 29448 net.cpp:129] Top shape: 5 3 224 224 (752640)
I1017 23:52:42.030689 29448 net.cpp:129] Top shape: 5 (5)
I1017 23:52:42.030699 29448 net.cpp:137] Memory required for data: 3010580
I1017 23:52:42.030720 29448 layer_factory.hpp:77] Creating layer label_tran
I1017 23:52:42.680824 29448 net.cpp:84] Creating Layer label_tran
I1017 23:52:42.680860 29448 net.cpp:406] label_tran <- label
I1017 23:52:42.680881 29448 net.cpp:380] label_tran -> reshape-label
I1017 23:52:42.680902 29448 net.cpp:380] label_tran -> clip_markers
I1017 23:52:42.681208 29448 net.cpp:122] Setting up label_tran
I1017 23:52:42.681226 29448 net.cpp:129] Top shape: 196 5 (980)
I1017 23:52:42.681232 29448 net.cpp:129] Top shape: 196 5 (980)
I1017 23:52:42.681236 29448 net.cpp:137] Memory required for data: 3018420
I1017 23:52:42.681242 29448 layer_factory.hpp:77] Creating layer reshape-label_label_tran_0_split
I1017 23:52:42.681267 29448 net.cpp:84] Creating Layer reshape-label_label_tran_0_split
I1017 23:52:42.681272 29448 net.cpp:406] reshape-label_label_tran_0_split <- reshape-label
I1017 23:52:42.681279 29448 net.cpp:380] reshape-label_label_tran_0_split -> reshape-label_label_tran_0_split_0
I1017 23:52:42.681288 29448 net.cpp:380] reshape-label_label_tran_0_split -> reshape-label_label_tran_0_split_1
I1017 23:52:42.681326 29448 net.cpp:122] Setting up reshape-label_label_tran_0_split
I1017 23:52:42.681336 29448 net.cpp:129] Top shape: 196 5 (980)
I1017 23:52:42.681342 29448 net.cpp:129] Top shape: 196 5 (980)
I1017 23:52:42.681346 29448 net.cpp:137] Memory required for data: 3026260
I1017 23:52:42.681352 29448 layer_factory.hpp:77] Creating layer conv1_1
I1017 23:52:42.681370 29448 net.cpp:84] Creating Layer conv1_1
I1017 23:52:42.681375 29448 net.cpp:406] conv1_1 <- data
I1017 23:52:42.681382 29448 net.cpp:380] conv1_1 -> conv1_1
I1017 23:52:42.683360 29448 net.cpp:122] Setting up conv1_1
I1017 23:52:42.683378 29448 net.cpp:129] Top shape: 5 64 224 224 (16056320)
I1017 23:52:42.683383 29448 net.cpp:137] Memory required for data: 67251540
I1017 23:52:42.683406 29448 layer_factory.hpp:77] Creating layer relu1_1
I1017 23:52:42.683421 29448 net.cpp:84] Creating Layer relu1_1
I1017 23:52:42.683432 29448 net.cpp:406] relu1_1 <- conv1_1
I1017 23:52:42.683439 29448 net.cpp:367] relu1_1 -> conv1_1 (in-place)
I1017 23:52:42.683452 29448 net.cpp:122] Setting up relu1_1
I1017 23:52:42.683459 29448 net.cpp:129] Top shape: 5 64 224 224 (16056320)
I1017 23:52:42.683462 29448 net.cpp:137] Memory required for data: 131476820
I1017 23:52:42.683467 29448 layer_factory.hpp:77] Creating layer conv1_2
I1017 23:52:42.683476 29448 net.cpp:84] Creating Layer conv1_2
I1017 23:52:42.683481 29448 net.cpp:406] conv1_2 <- conv1_1
I1017 23:52:42.683487 29448 net.cpp:380] conv1_2 -> conv1_2
I1017 23:52:42.683754 29448 net.cpp:122] Setting up conv1_2
I1017 23:52:42.683765 29448 net.cpp:129] Top shape: 5 64 224 224 (16056320)
I1017 23:52:42.683769 29448 net.cpp:137] Memory required for data: 195702100
I1017 23:52:42.683779 29448 layer_factory.hpp:77] Creating layer relu1_2
I1017 23:52:42.683786 29448 net.cpp:84] Creating Layer relu1_2
I1017 23:52:42.683791 29448 net.cpp:406] relu1_2 <- conv1_2
I1017 23:52:42.683797 29448 net.cpp:367] relu1_2 -> conv1_2 (in-place)
I1017 23:52:42.683807 29448 net.cpp:122] Setting up relu1_2
I1017 23:52:42.683812 29448 net.cpp:129] Top shape: 5 64 224 224 (16056320)
I1017 23:52:42.683816 29448 net.cpp:137] Memory required for data: 259927380
I1017 23:52:42.683822 29448 layer_factory.hpp:77] Creating layer pool1
I1017 23:52:42.683833 29448 net.cpp:84] Creating Layer pool1
I1017 23:52:42.683837 29448 net.cpp:406] pool1 <- conv1_2
I1017 23:52:42.683843 29448 net.cpp:380] pool1 -> pool1
I1017 23:52:42.683889 29448 net.cpp:122] Setting up pool1
I1017 23:52:42.683897 29448 net.cpp:129] Top shape: 5 64 112 112 (4014080)
I1017 23:52:42.683902 29448 net.cpp:137] Memory required for data: 275983700
I1017 23:52:42.683905 29448 layer_factory.hpp:77] Creating layer conv2_1
I1017 23:52:42.683914 29448 net.cpp:84] Creating Layer conv2_1
I1017 23:52:42.683919 29448 net.cpp:406] conv2_1 <- pool1
I1017 23:52:42.683925 29448 net.cpp:380] conv2_1 -> conv2_1
I1017 23:52:42.685708 29448 net.cpp:122] Setting up conv2_1
I1017 23:52:42.685725 29448 net.cpp:129] Top shape: 5 128 112 112 (8028160)
I1017 23:52:42.685730 29448 net.cpp:137] Memory required for data: 308096340
I1017 23:52:42.685741 29448 layer_factory.hpp:77] Creating layer relu2_1
I1017 23:52:42.685752 29448 net.cpp:84] Creating Layer relu2_1
I1017 23:52:42.685757 29448 net.cpp:406] relu2_1 <- conv2_1
I1017 23:52:42.685765 29448 net.cpp:367] relu2_1 -> conv2_1 (in-place)
I1017 23:52:42.685772 29448 net.cpp:122] Setting up relu2_1
I1017 23:52:42.685778 29448 net.cpp:129] Top shape: 5 128 112 112 (8028160)
I1017 23:52:42.685782 29448 net.cpp:137] Memory required for data: 340208980
I1017 23:52:42.685786 29448 layer_factory.hpp:77] Creating layer conv2_2
I1017 23:52:42.685794 29448 net.cpp:84] Creating Layer conv2_2
I1017 23:52:42.685799 29448 net.cpp:406] conv2_2 <- conv2_1
I1017 23:52:42.685806 29448 net.cpp:380] conv2_2 -> conv2_2
I1017 23:52:42.686111 29448 net.cpp:122] Setting up conv2_2
I1017 23:52:42.686123 29448 net.cpp:129] Top shape: 5 128 112 112 (8028160)
I1017 23:52:42.686127 29448 net.cpp:137] Memory required for data: 372321620
I1017 23:52:42.686136 29448 layer_factory.hpp:77] Creating layer relu2_2
I1017 23:52:42.686143 29448 net.cpp:84] Creating Layer relu2_2
I1017 23:52:42.686147 29448 net.cpp:406] relu2_2 <- conv2_2
I1017 23:52:42.686153 29448 net.cpp:367] relu2_2 -> conv2_2 (in-place)
I1017 23:52:42.686162 29448 net.cpp:122] Setting up relu2_2
I1017 23:52:42.686168 29448 net.cpp:129] Top shape: 5 128 112 112 (8028160)
I1017 23:52:42.686172 29448 net.cpp:137] Memory required for data: 404434260
I1017 23:52:42.686177 29448 layer_factory.hpp:77] Creating layer pool2
I1017 23:52:42.686185 29448 net.cpp:84] Creating Layer pool2
I1017 23:52:42.686189 29448 net.cpp:406] pool2 <- conv2_2
I1017 23:52:42.686195 29448 net.cpp:380] pool2 -> pool2
I1017 23:52:42.686229 29448 net.cpp:122] Setting up pool2
I1017 23:52:42.686236 29448 net.cpp:129] Top shape: 5 128 56 56 (2007040)
I1017 23:52:42.686240 29448 net.cpp:137] Memory required for data: 412462420
I1017 23:52:42.686244 29448 layer_factory.hpp:77] Creating layer conv3_1
I1017 23:52:42.686254 29448 net.cpp:84] Creating Layer conv3_1
I1017 23:52:42.686257 29448 net.cpp:406] conv3_1 <- pool2
I1017 23:52:42.686264 29448 net.cpp:380] conv3_1 -> conv3_1
I1017 23:52:42.687467 29448 net.cpp:122] Setting up conv3_1
I1017 23:52:42.687484 29448 net.cpp:129] Top shape: 5 256 56 56 (4014080)
I1017 23:52:42.687487 29448 net.cpp:137] Memory required for data: 428518740
I1017 23:52:42.687499 29448 layer_factory.hpp:77] Creating layer relu3_1
I1017 23:52:42.687506 29448 net.cpp:84] Creating Layer relu3_1
I1017 23:52:42.687512 29448 net.cpp:406] relu3_1 <- conv3_1
I1017 23:52:42.687518 29448 net.cpp:367] relu3_1 -> conv3_1 (in-place)
I1017 23:52:42.687526 29448 net.cpp:122] Setting up relu3_1
I1017 23:52:42.687532 29448 net.cpp:129] Top shape: 5 256 56 56 (4014080)
I1017 23:52:42.687536 29448 net.cpp:137] Memory required for data: 444575060
I1017 23:52:42.687541 29448 layer_factory.hpp:77] Creating layer conv3_2
I1017 23:52:42.687551 29448 net.cpp:84] Creating Layer conv3_2
I1017 23:52:42.687556 29448 net.cpp:406] conv3_2 <- conv3_1
I1017 23:52:42.687562 29448 net.cpp:380] conv3_2 -> conv3_2
I1017 23:52:42.689496 29448 net.cpp:122] Setting up conv3_2
I1017 23:52:42.689512 29448 net.cpp:129] Top shape: 5 256 56 56 (4014080)
I1017 23:52:42.689517 29448 net.cpp:137] Memory required for data: 460631380
I1017 23:52:42.689524 29448 layer_factory.hpp:77] Creating layer relu3_2
I1017 23:52:42.689535 29448 net.cpp:84] Creating Layer relu3_2
I1017 23:52:42.689540 29448 net.cpp:406] relu3_2 <- conv3_2
I1017 23:52:42.689549 29448 net.cpp:367] relu3_2 -> conv3_2 (in-place)
I1017 23:52:42.689558 29448 net.cpp:122] Setting up relu3_2
I1017 23:52:42.689563 29448 net.cpp:129] Top shape: 5 256 56 56 (4014080)
I1017 23:52:42.689568 29448 net.cpp:137] Memory required for data: 476687700
I1017 23:52:42.689571 29448 layer_factory.hpp:77] Creating layer conv3_3
I1017 23:52:42.689579 29448 net.cpp:84] Creating Layer conv3_3
I1017 23:52:42.689584 29448 net.cpp:406] conv3_3 <- conv3_2
I1017 23:52:42.689589 29448 net.cpp:380] conv3_3 -> conv3_3
I1017 23:52:42.691444 29448 net.cpp:122] Setting up conv3_3
I1017 23:52:42.691462 29448 net.cpp:129] Top shape: 5 256 56 56 (4014080)
I1017 23:52:42.691467 29448 net.cpp:137] Memory required for data: 492744020
I1017 23:52:42.691474 29448 layer_factory.hpp:77] Creating layer relu3_3
I1017 23:52:42.691483 29448 net.cpp:84] Creating Layer relu3_3
I1017 23:52:42.691486 29448 net.cpp:406] relu3_3 <- conv3_3
I1017 23:52:42.691493 29448 net.cpp:367] relu3_3 -> conv3_3 (in-place)
I1017 23:52:42.691501 29448 net.cpp:122] Setting up relu3_3
I1017 23:52:42.691506 29448 net.cpp:129] Top shape: 5 256 56 56 (4014080)
I1017 23:52:42.691510 29448 net.cpp:137] Memory required for data: 508800340
I1017 23:52:42.691515 29448 layer_factory.hpp:77] Creating layer pool3
I1017 23:52:42.691525 29448 net.cpp:84] Creating Layer pool3
I1017 23:52:42.691530 29448 net.cpp:406] pool3 <- conv3_3
I1017 23:52:42.691535 29448 net.cpp:380] pool3 -> pool3
I1017 23:52:42.691573 29448 net.cpp:122] Setting up pool3
I1017 23:52:42.691582 29448 net.cpp:129] Top shape: 5 256 28 28 (1003520)
I1017 23:52:42.691586 29448 net.cpp:137] Memory required for data: 512814420
I1017 23:52:42.691591 29448 layer_factory.hpp:77] Creating layer conv4_1
I1017 23:52:42.691601 29448 net.cpp:84] Creating Layer conv4_1
I1017 23:52:42.691607 29448 net.cpp:406] conv4_1 <- pool3
I1017 23:52:42.691613 29448 net.cpp:380] conv4_1 -> conv4_1
I1017 23:52:42.695580 29448 net.cpp:122] Setting up conv4_1
I1017 23:52:42.695598 29448 net.cpp:129] Top shape: 5 512 28 28 (2007040)
I1017 23:52:42.695603 29448 net.cpp:137] Memory required for data: 520842580
I1017 23:52:42.695612 29448 layer_factory.hpp:77] Creating layer relu4_1
I1017 23:52:42.695621 29448 net.cpp:84] Creating Layer relu4_1
I1017 23:52:42.695626 29448 net.cpp:406] relu4_1 <- conv4_1
I1017 23:52:42.695634 29448 net.cpp:367] relu4_1 -> conv4_1 (in-place)
I1017 23:52:42.695642 29448 net.cpp:122] Setting up relu4_1
I1017 23:52:42.695648 29448 net.cpp:129] Top shape: 5 512 28 28 (2007040)
I1017 23:52:42.695652 29448 net.cpp:137] Memory required for data: 528870740
I1017 23:52:42.695657 29448 layer_factory.hpp:77] Creating layer conv4_2
I1017 23:52:42.695664 29448 net.cpp:84] Creating Layer conv4_2
I1017 23:52:42.695668 29448 net.cpp:406] conv4_2 <- conv4_1
I1017 23:52:42.695677 29448 net.cpp:380] conv4_2 -> conv4_2
I1017 23:52:42.701366 29448 net.cpp:122] Setting up conv4_2
I1017 23:52:42.701395 29448 net.cpp:129] Top shape: 5 512 28 28 (2007040)
I1017 23:52:42.701400 29448 net.cpp:137] Memory required for data: 536898900
I1017 23:52:42.701412 29448 layer_factory.hpp:77] Creating layer relu4_2
I1017 23:52:42.701437 29448 net.cpp:84] Creating Layer relu4_2
I1017 23:52:42.701443 29448 net.cpp:406] relu4_2 <- conv4_2
I1017 23:52:42.701452 29448 net.cpp:367] relu4_2 -> conv4_2 (in-place)
I1017 23:52:42.701467 29448 net.cpp:122] Setting up relu4_2
I1017 23:52:42.701473 29448 net.cpp:129] Top shape: 5 512 28 28 (2007040)
I1017 23:52:42.701478 29448 net.cpp:137] Memory required for data: 544927060
I1017 23:52:42.701481 29448 layer_factory.hpp:77] Creating layer conv4_3
I1017 23:52:42.701488 29448 net.cpp:84] Creating Layer conv4_3
I1017 23:52:42.701493 29448 net.cpp:406] conv4_3 <- conv4_2
I1017 23:52:42.701501 29448 net.cpp:380] conv4_3 -> conv4_3
I1017 23:52:42.706849 29448 net.cpp:122] Setting up conv4_3
I1017 23:52:42.706877 29448 net.cpp:129] Top shape: 5 512 28 28 (2007040)
I1017 23:52:42.706881 29448 net.cpp:137] Memory required for data: 552955220
I1017 23:52:42.706899 29448 layer_factory.hpp:77] Creating layer relu4_3
I1017 23:52:42.706917 29448 net.cpp:84] Creating Layer relu4_3
I1017 23:52:42.706923 29448 net.cpp:406] relu4_3 <- conv4_3
I1017 23:52:42.706930 29448 net.cpp:367] relu4_3 -> conv4_3 (in-place)
I1017 23:52:42.706938 29448 net.cpp:122] Setting up relu4_3
I1017 23:52:42.706944 29448 net.cpp:129] Top shape: 5 512 28 28 (2007040)
I1017 23:52:42.706948 29448 net.cpp:137] Memory required for data: 560983380
I1017 23:52:42.706953 29448 layer_factory.hpp:77] Creating layer pool4
I1017 23:52:42.706964 29448 net.cpp:84] Creating Layer pool4
I1017 23:52:42.706969 29448 net.cpp:406] pool4 <- conv4_3
I1017 23:52:42.706977 29448 net.cpp:380] pool4 -> pool4
I1017 23:52:42.707015 29448 net.cpp:122] Setting up pool4
I1017 23:52:42.707023 29448 net.cpp:129] Top shape: 5 512 14 14 (501760)
I1017 23:52:42.707027 29448 net.cpp:137] Memory required for data: 562990420
I1017 23:52:42.707031 29448 layer_factory.hpp:77] Creating layer conv5_1
I1017 23:52:42.707047 29448 net.cpp:84] Creating Layer conv5_1
I1017 23:52:42.707052 29448 net.cpp:406] conv5_1 <- pool4
I1017 23:52:42.707060 29448 net.cpp:380] conv5_1 -> conv5_1
I1017 23:52:42.712746 29448 net.cpp:122] Setting up conv5_1
I1017 23:52:42.712762 29448 net.cpp:129] Top shape: 5 512 14 14 (501760)
I1017 23:52:42.712766 29448 net.cpp:137] Memory required for data: 564997460
I1017 23:52:42.712774 29448 layer_factory.hpp:77] Creating layer relu5_1
I1017 23:52:42.712781 29448 net.cpp:84] Creating Layer relu5_1
I1017 23:52:42.712785 29448 net.cpp:406] relu5_1 <- conv5_1
I1017 23:52:42.712791 29448 net.cpp:367] relu5_1 -> conv5_1 (in-place)
I1017 23:52:42.712798 29448 net.cpp:122] Setting up relu5_1
I1017 23:52:42.712803 29448 net.cpp:129] Top shape: 5 512 14 14 (501760)
I1017 23:52:42.712807 29448 net.cpp:137] Memory required for data: 567004500
I1017 23:52:42.712810 29448 layer_factory.hpp:77] Creating layer conv5_2
I1017 23:52:42.712833 29448 net.cpp:84] Creating Layer conv5_2
I1017 23:52:42.712837 29448 net.cpp:406] conv5_2 <- conv5_1
I1017 23:52:42.712846 29448 net.cpp:380] conv5_2 -> conv5_2
I1017 23:52:42.718278 29448 net.cpp:122] Setting up conv5_2
I1017 23:52:42.718294 29448 net.cpp:129] Top shape: 5 512 14 14 (501760)
I1017 23:52:42.718298 29448 net.cpp:137] Memory required for data: 569011540
I1017 23:52:42.718305 29448 layer_factory.hpp:77] Creating layer relu5_2
I1017 23:52:42.718322 29448 net.cpp:84] Creating Layer relu5_2
I1017 23:52:42.718328 29448 net.cpp:406] relu5_2 <- conv5_2
I1017 23:52:42.718335 29448 net.cpp:367] relu5_2 -> conv5_2 (in-place)
I1017 23:52:42.718343 29448 net.cpp:122] Setting up relu5_2
I1017 23:52:42.718348 29448 net.cpp:129] Top shape: 5 512 14 14 (501760)
I1017 23:52:42.718351 29448 net.cpp:137] Memory required for data: 571018580
I1017 23:52:42.718360 29448 layer_factory.hpp:77] Creating layer conv5_3
I1017 23:52:42.718370 29448 net.cpp:84] Creating Layer conv5_3
I1017 23:52:42.718374 29448 net.cpp:406] conv5_3 <- conv5_2
I1017 23:52:42.718379 29448 net.cpp:380] conv5_3 -> conv5_3
I1017 23:52:42.723949 29448 net.cpp:122] Setting up conv5_3
I1017 23:52:42.723968 29448 net.cpp:129] Top shape: 5 512 14 14 (501760)
I1017 23:52:42.723973 29448 net.cpp:137] Memory required for data: 573025620
I1017 23:52:42.723979 29448 layer_factory.hpp:77] Creating layer relu5_3
I1017 23:52:42.723992 29448 net.cpp:84] Creating Layer relu5_3
I1017 23:52:42.723997 29448 net.cpp:406] relu5_3 <- conv5_3
I1017 23:52:42.724004 29448 net.cpp:367] relu5_3 -> conv5_3 (in-place)
I1017 23:52:42.724012 29448 net.cpp:122] Setting up relu5_3
I1017 23:52:42.724017 29448 net.cpp:129] Top shape: 5 512 14 14 (501760)
I1017 23:52:42.724021 29448 net.cpp:137] Memory required for data: 575032660
I1017 23:52:42.724025 29448 layer_factory.hpp:77] Creating layer conv5_3_re
I1017 23:52:42.724074 29448 net.cpp:84] Creating Layer conv5_3_re
I1017 23:52:42.724081 29448 net.cpp:406] conv5_3_re <- conv5_3
I1017 23:52:42.724087 29448 net.cpp:380] conv5_3_re -> conv5_3_re
I1017 23:52:42.724140 29448 net.cpp:122] Setting up conv5_3_re
I1017 23:52:42.724159 29448 net.cpp:129] Top shape: 5 512 196 (501760)
I1017 23:52:42.724161 29448 net.cpp:137] Memory required for data: 577039700
I1017 23:52:42.724170 29448 layer_factory.hpp:77] Creating layer conv5_3_tran
I1017 23:52:42.724243 29448 net.cpp:84] Creating Layer conv5_3_tran
I1017 23:52:42.724253 29448 net.cpp:406] conv5_3_tran <- conv5_3_re
I1017 23:52:42.724259 29448 net.cpp:380] conv5_3_tran -> conv5_3_tran
I1017 23:52:42.725962 29448 net.cpp:122] Setting up conv5_3_tran
I1017 23:52:42.725976 29448 net.cpp:129] Top shape: 196 5 512 (501760)
I1017 23:52:42.725980 29448 net.cpp:137] Memory required for data: 579046740
I1017 23:52:42.725985 29448 layer_factory.hpp:77] Creating layer lstm1
I1017 23:52:42.725997 29448 net.cpp:84] Creating Layer lstm1
I1017 23:52:42.726002 29448 net.cpp:406] lstm1 <- conv5_3_tran
I1017 23:52:42.726008 29448 net.cpp:406] lstm1 <- clip_markers
I1017 23:52:42.726014 29448 net.cpp:380] lstm1 -> lstm1
I1017 23:52:42.726027 29448 recurrent_layer.cpp:20] Initializing recurrent layer: assuming input batch contains 196 timesteps of 5 independent streams.
I1017 23:52:42.731696 29448 net.cpp:51] Initializing net from parameters: 
layer {
  name: "lstm1_"
  type: "Input"
  top: "x"
  top: "cont"
  input_param {
    shape {
      dim: 196
      dim: 5
      dim: 512
    }
    shape {
      dim: 196
      dim: 5
    }
  }
}
layer {
  name: "lstm1_"
  type: "Input"
  top: "c_0"
  top: "h_0"
  input_param {
    shape {
      dim: 1
      dim: 5
      dim: 512
    }
    shape {
      dim: 1
      dim: 5
      dim: 512
    }
  }
}
layer {
  name: "lstm1_cont_slice"
  type: "Slice"
  bottom: "cont"
  top: "cont_1"
  top: "cont_2"
  top: "cont_3"
  top: "cont_4"
  top: "cont_5"
  top: "cont_6"
  top: "cont_7"
  top: "cont_8"
  top: "cont_9"
  top: "cont_10"
  top: "cont_11"
  top: "cont_12"
  top: "cont_13"
  top: "cont_14"
  top: "cont_15"
  top: "cont_16"
  top: "cont_17"
  top: "cont_18"
  top: "cont_19"
  top: "cont_20"
  top: "cont_21"
  top: "cont_22"
  top: "cont_23"
  top: "cont_24"
…
  top: "W_xc_x_171"
  top: "W_xc_x_172"
  top: "W_xc_x_173"
  top: "W_xc_x_174"
  top: "W_xc_x_175"
  top: "W_xc_x_176"
  top: "W_xc_x_177"
  top: "W_xc_x_178"
  top: "W_xc_x_179"
  top: "W_xc_x_180"
  top: "W_xc_x_181"
  top: "W_xc_x_182"
  top: "W_xc_x_183"
  top: "W_xc_x_184"
  top: "W_xc_x_185"
  top: "W_xc_x_186"
  top: "W_xc_x_187"
  top: "W_xc_x_188"
  top: "W_xc_x_189"
  top: "W_xc_x_190"
  top: "W_xc_x_191"
  top: "W_xc_x_192"
  top: "W_xc_x_193"
  top: "W_xc_x_194"
  top: "W_xc_x_195"
  top: "W_xc_x_196"
  slice_param {
    axis: 0
  }
}
layer {
  name: "lstm1_h_conted_0"
  type: "Scale"
  bottom: "h_0"
  bottom: "cont_1"
  top: "h_conted_0"
  scale_param {
    axis: 0
  }
}
layer {
  name: "lstm1_transform_1"
  type: "InnerProduct"
  bottom: "h_conted_0"
  top: "W_hc_h_0"
  param {
    name: "W_hc"
  }
  inner_product_param {
    num_output: 2048
    bias_term: false
    weight_filler {
      type: "uniform"
      min: -0.01
      max: 0.01
    }
    axis: 2
  }
}
layer {
  name: "lstm1_gate_input_1"
  type: "Eltwise"
  bottom: "W_hc_h_0"
  bottom: "W_xc_x_1"
  top: "gate_input_1"
  eltwise_param {
    operation: SUM
  }
}
layer {
  name: "lstm1_unit_1"
  type: "LSTMUnit"
  bottom: "c_0"
  bottom: "gate_input_1"
  bottom: "cont_1"
  top: "c_1"
  top: "h_1"
}
layer {
  name: "lstm1_h_conted_1"
  type: "Scale"
  bottom: "h_1"
  bottom: "cont_2"
  top: "h_conted_1"
  scale_param {
    axis: 0
  }
}
layer {
  name: "lstm1_transform_2"
  type: "InnerProduct"
  bottom: "h_conted_1"
  top: "W_hc_h_1"
  param {
    name: "W_hc"
  }
  inner_product_param {
    num_output: 2048
    bias_term: false
    weight_filler {
      type: "uniform"
      min: -0.01
      max: 0.01
    }
    axis: 2
  }
}
layer {
  name: "lstm1_gate_input_2"
  type: "Eltwise"
  bottom: "W_hc_h_1"
  bottom: "W_xc_x_2"
  top: "gate_input_2"
  eltwise_param {
    operation: SUM
  }
}
layer {
  name: "lstm1_unit_2"
  type: "LSTMUnit"
  bottom: "c_1"
  bottom: "gate_input_2"
  bottom: "cont_2"
  top: "c_2"
  top: "h_2"
}
layer {
  name: "lstm1_h_conted_2"
  type: "Scale"
  bottom: "h_2"
  bottom: "cont_3"
  top: "h_conted_2"
  scale_param {
    axis: 0
  }
}
layer {
  name: "lstm1_transform_3"
  type: "InnerProduct"
  bottom: "h_conted_2"
  top: "W_hc_h_2"
  param {
    name: "W_hc"
  }
  inner_product_param {
    num_output: 2048
    bias_term: false
    weight_filler {
      type: "uniform"
      min: -0.01
      max: 0.01
    }
    axis: 2
  }
}
layer {
  name: "lstm1_gate_input_3"
  type: "Eltwise"
  bottom: "W_hc_h_2"
  bottom: "W_xc_x_3"
  top: "gate_input_3"
  eltwise_param {
    operation: SUM
  }
}
layer {
  name: "lstm1_unit_3"
  type: "LSTMUnit"
  bottom: "c_2"
  bottom: "gate_input_3"
  bottom: "cont_3"
  top: "c_3"
  top: "h_3"
}
layer {
  name: "lstm1_h_conted_3"
  type: "Scale"
  bottom: "h_3"
  bottom: "cont_4"
  top: "h_conted_3"
  scale_param {
    axis: 0
  }
}
layer {
  name: "lstm1_transform_4"
  type: "InnerProduct"
  bottom: "h_conted_3"
  top: "W_hc_h_3"
  param {
    name: "W_hc"
  }
  inner_product_param {
    num_output: 2048
    bias_term: false
    weight_filler {
      type: "uniform"
      min: -0.01
      max: 0.01
    }
    axis: 2
  }
}
layer {
  name: "lstm1_gate_input_4"
  type: "Eltwise"
  bottom: "W_hc_h_3"
  bottom: "W_xc_x_4"
  top: "gate_input_4"
  eltwise_param {
    operation: SUM
  }
}
layer {
  name: "lstm1_unit_4"
  type: "LSTMUnit"
  bottom: "c_3"
  bottom: "gate_input_4"
  bottom: "cont_4"
  top: "c_4"
  top: "h_4"
}
layer {
  name: "lstm1_h_conted_4"
  type: "Scale"
  bottom: "h_4"
  bottom: "cont_5"
  top: "h_conted_4"
  scale_param {
    axis: 0
  }
}
layer {
  name: "lstm1_transform_5"
  type: "InnerProduct"
  bottom: "h_conted_4"
  top: "W_hc_h_4"
  param {
    name: "W_hc"
  }
  inner_product_param {
    num_output: 2048
    bias_term: false
    weight_filler {
      type: "uniform"
      min: -0.01
      max: 0.01
    }
    axis: 2
  }
}
layer {
  name: "lstm1_gate_input_5"
  type: "Eltwise"
  bottom: "W_hc_h_4"
  bottom: "W_xc_x_5"
  top: "gate_input_5"
  eltwise_param {
    operation: SUM
  }
}
layer {
  name: "lstm1_unit_5"
  type: "LSTMUnit"
  bottom: "c_4"
  bottom: "gate_input_5"
  bottom: "cont_5"
  top: "c_5"
  top: "h_5"
}
layer {
  name: "lstm1_h_conted_5"
  type: "Scale"
  bottom: "h_5"
  bottom: "cont_6"
  top: "h_conted_5"
  scale_param {
    axis: 0
  }
}
layer {
  name: "lstm1_transform_6"
  type: "InnerProduct"
  bottom: "h_conted_5"
  top: "W_hc_h_5"
  param {
    name: "W_hc"
  }
  inner_product_param {
    num_output: 2048
    bias_term: false
    weight_filler {
      type: "uniform"
      min: -0.01
      max: 0.01
    }
    axis: 2
  }
}
layer {
  name: "lstm1_gate_input_6"
  type: "Eltwise"
  bottom: "W_hc_h_5"
  bottom: "W_xc_x_6"
  top: "gate_input_6"
  eltwise_param {
    operation: SUM
  }
}
layer {
  name: "lstm1_unit_6"
  type: "LSTMUnit"
  bottom: "c_5"
  bottom: "gate_input_6"
  bottom: "cont_6"
  top: "c_6"
  top: "h_6"
}
layer {
  name: "lstm1_h_conted_6"
  type: "Scale"
  bottom: "h_6"
  bottom: "cont_7"
  top: "h_conted_6"
  scale_param {
    axis: 0
  }
}
layer {
  name: "lstm1_transform_7"
  type: "InnerProduct"
  bottom: "h_conted_6"
  top: "W_hc_h_6"
  param {
    name: "W_hc"
  }
  inner_product_param {
    num_output: 2048
    bias_term: false
    weight_filler {
      type: "uniform"
      min: -0.01
      max: 0.01
    }
    axis: 2
  }
}
layer {
  name: "lstm1_gate_input_7"
  type: "Eltwise"
  bottom: "W_hc_h_6"
  bottom: "W_xc_x_7"
  top: "gate_input_7"
  eltwise_param {
    operation: SUM
  }
}
layer {
  name: "lstm1_unit_7"
  type: "LSTMUnit"
  bottom: "c_6"
  bottom: "gate_input_7"
  bottom: "cont_7"
  top: "c_7"
  top: "h_7"
}
layer {
  name: "lstm1_h_conted_7"
  type: "Scale"
  bottom: "h_7"
  bottom: "cont_8"
  top: "h_conted_7"
  scale_param {
    axis: 0
  }
}
layer {
  name: "lstm1_transform_8"
  type: "InnerProduct"
  bottom: "h_conted_7"
  top: "W_hc_h_7"
  param {
    name: "W_hc"
  }
  inner_product_param {
    num_output: 2048
    bias_term: false
    weight_filler {
      type: "uniform"
      min: -0.01
      max: 0.01
    }
    axis: 2
  }
}
layer {
  name: "lstm1_gate_input_8"
  type: "Eltwise"
  bottom: "W_hc_h_7"
  bottom: "W_xc_x_8"
  top: "gate_input_8"
  eltwise_param {
    operation: SUM
  }
}
layer {
  name: "lstm1_unit_8"
  type: "LSTMUnit"
  bottom: "c_7"
  bottom: "gate_input_8"
  bottom: "cont_8"
  top: "c_8"
  top: "h_8"
}
layer {
  name: "lstm1_h_conted_8"
  type: "Scale"
  bottom: "h_8"
  bottom: "cont_9"
  top: "h_conted_8"
  scale_param {
    axis: 0
  }
}
layer {
  name: "lstm1_transform_9"
  type: "InnerProduct"
  bottom: "h_conted_8"
  top: "W_hc_h_8"
  param {
    name: "W_hc"
  }
  inner_product_param {
    num_output: 2048
    bias_term: false
    weight_filler {
      type: "uniform"
      min: -0.01
      max: 0.01
    }
    axis: 2
  }
}
layer {
  name: "lstm1_gate_input_9"
  type: "Eltwise"
  bottom: "W_hc_h_8"
  bottom: "W_xc_x_9"
  top: "gate_input_9"
  eltwise_param {
    operation: SUM
  }
}
layer {
  name: "lstm1_unit_9"
  type: "LSTMUnit"
  bottom: "c_8"
  bottom: "gate_input_9"
  bottom: "cont_9"
  top: "c_9"
  top: "h_9"
}
layer {
  name: "lstm1_h_conted_9"
  type: "Scale"
  bottom: "h_9"
  bottom: "cont_10"
  top: "h_conted_9"
  scale_param {
    axis: 0
  }
}
layer {
  name: "lstm1_transform_10"
  type: "InnerProduct"
  bottom: "h_conted_9"
  top: "W_hc_h_9"
  param {
    name: "W_hc"
  }
  inner_product_param {
    num_output: 2048
    bias_term: false
    weight_filler {
      type: "uniform"
      min: -0.01
      max: 0.01
    }
    axis: 2
  }
}
layer {
  name: "lstm1_gate_input_10"
  type: "Eltwise"
  bottom: "W_hc_h_9"
  bottom: "W_xc_x_10"
  top: "gate_input_10"
  eltwise_param {
    operation: SUM
  }
}
layer {
  name: "lstm1_unit_10"
  type: "LSTMUnit"
  bottom: "c_9"
  bottom: "gate_input_10"
  bottom: "cont_10"
  top: "c_10"
  top: "h_10"
}
layer {
  name: "lstm1_h_conted_10"
  type: "Scale"
  bottom: "h_10"
  bottom: "cont_11"
  top: "h_conted_10"
  scale_param {
    axis: 0
  }
}
layer {
  name: "lstm1_transform_11"
  type: "InnerProduct"
  bottom: "h_conted_10"
  top: "W_hc_h_10"
  param {
    name: "W_hc"
  }
  inner_product_param {
    num_output: 2048
    bias_term: false
    weight_filler {
      type: "uniform"
      min: -0.01
      max: 0.01
    }
    axis: 2
  }
}
layer {
  name: "lstm1_gate_input_11"
  type: "Eltwise"
  bottom: "W_hc_h_10"
  bottom: "W_xc_x_11"
  top: "gate_input_11"
  eltwise_param {
    operation: SUM
  }
}
layer {
  name: "lstm1_unit_11"
  type: "LSTMUnit"
  bottom: "c_10"
  bottom: "gate_input_11"
  bottom: "cont_11"
  top: "c_11"
  top: "h_11"
}
layer {
  name: "lstm1_h_conted_11"
  type: "Scale"
  bottom: "h_11"
  bottom: "cont_12"
  top: "h_conted_11"
  scale_param {
    axis: 0
  }
}
layer {
  name: "lstm1_transform_12"
  type: "InnerProduct"
  bottom: "h_conted_11"
  top: "W_hc_h_11"
  param {
    name: "W_hc"
  }
  inner_product_param {
    num_output: 2048
    bias_term: false
    weight_filler {
      type: "uniform"
      min: -0.01
      max: 0.01
    }
    axis: 2
  }
}
layer {
  name: "lstm1_gate_input_12"
  type: "Eltwise"
  bottom: "W_hc_h_11"
  bottom: "W_xc_x_12"
  top: "gate_input_12"
  eltwise_param {
    operation: SUM
  }
}
layer {
  name: "lstm1_unit_12"
  type: "LSTMUnit"
  bottom: "c_11"
  bottom: "gate_input_12"
  bottom: "cont_12"
  top: "c_12"
  top: "h_12"
}
layer {
  name: "lstm1_h_conted_12"
  type: "Scale"
  bottom: "h_12"
  bottom: "cont_13"
  top: "h_conted_12"
  scale_param {
    axis: 0
  }
}
layer {
  name: "lstm1_transform_13"
  type: "InnerProduct"
  bottom: "h_conted_12"
  top: "W_hc_h_12"
  param {
    name: "W_hc"
  }
  inner_product_param {
    num_output: 2048
    bias_term: false
    weight_filler {
      type: "uniform"
      min: -0.01
      max: 0.01
    }
    axis: 2
  }
}
layer {
  name: "lstm1_gate_input_13"
  type: "Eltwise"
  bottom: "W_hc_h_12"
  bottom: "W_xc_x_13"
  top: "gate_input_13"
  eltwise_param {
    operation: SUM
  }
}
layer {
  name: "lstm1_unit_13"
  type: "LSTMUnit"
  bottom: "c_12"
  bottom: "gate_input_13"
  bottom: "cont_13"
  top: "c_13"
  top: "h_13"
}
layer {
  name: "lstm1_h_conted_13"
  type: "Scale"
  bottom: "h_13"
  bottom: "cont_14"
  top: "h_conted_13"
  scale_param {
    axis: 0
  }
}
layer {
  name: "lstm1_transform_14"
  type: "InnerProduct"
  bottom: "h_conted_13"
  top: "W_hc_h_13"
  param {
    name: "W_hc"
  }
  inner_product_param {
    num_output: 2048
    bias_term: false
    weight_filler {
      type: "uniform"
      min: -0.01
      max: 0.01
    }
    axis: 2
  }
}
layer {
  name: "lstm1_gate_input_14"
  type: "Eltwise"
  bottom: "W_hc_h_13"
  bottom: "W_xc_x_14"
  top: "gate_input_14"
  eltwise_param {
    operation: SUM
  }
}
layer {
  name: "lstm1_unit_14"
  type: "LSTMUnit"
  bottom: "c_13"
  bottom: "gate_input_14"
  bottom: "cont_14"
  top: "c_14"
  top: "h_14"
}
layer {
  name: "lstm1_h_conted_14"
  type: "Scale"
  bottom: "h_14"
  bottom: "cont_15"
  top: "h_conted_14"
  scale_param {
    axis: 0
  }
}
layer {
  name: "lstm1_transform_15"
  type: "InnerProduct"
  bottom: "h_conted_14"
  top: "W_hc_h_14"
  param {
    name: "W_hc"
  }
  inner_product_param {
    num_output: 2048
    bias_term: false
    weight_filler {
      type: "uniform"
      min: -0.01
      max: 0.01
    }
    axis: 2
  }
}
layer {
  name: "lstm1_gate_input_15"
  type: "Eltwise"
  bottom: "W_hc_h_14"
  bottom: "W_xc_x_15"
  top: "gate_input_15"
  eltwise_param {
    operation: SUM
  }
}
layer {
  name: "lstm1_unit_15"
  type: "LSTMUnit"
  bottom: "c_14"
  bottom: "gate_input_15"
  bottom: "cont_15"
  top: "c_15"
  top: "h_15"
}
layer {
  name: "lstm1_h_conted_15"
  type: "Scale"
  bottom: "h_15"
  bottom: "cont_16"
  top: "h_conted_15"
  scale_param {
    axis: 0
  }
}
layer {
  name: "lstm1_transform_16"
  type: "InnerProduct"
  bottom: "h_conted_15"
  top: "W_hc_h_15"
  param {
    name: "W_hc"
  }
  inner_product_param {
    num_output: 2048
    bias_term: false
    weight_filler {
      type: "uniform"
      min: -0.01
      max: 0.01
    }
    axis: 2
  }
}
layer {
  name: "lstm1_gate_input_16"
  type: "Eltwise"
  bottom: "W_hc_h_15"
  bottom: "W_xc_x_16"
  top: "gate_input_16"
  eltwise_param {
    operation: SUM
  }
}
layer {
  name: "lstm1_unit_16"
  type: "LSTMUnit"
  bottom: "c_15"
  bottom: "gate_input_16"
  bottom: "cont_16"
  top: "c_16"
  top: "h_16"
}
layer {
  name: "lstm1_h_conted_16"
  type: "Scale"
  bottom: "h_16"
  bottom: "cont_17"
  top: "h_conted_16"
  scale_param {
    axis: 0
  }
}
layer {
  name: "lstm1_transform_17"
  type: "InnerProduct"
  bottom: "h_conted_16"
  top: "W_hc_h_16"
  param {
    name: "W_hc"
  }
  inner_product_param {
    num_output: 2048
    bias_term: false
    weight_filler {
      type: "uniform"
      min: -0.01
      max: 0.01
    }
    axis: 2
  }
}
layer {
  name: "lstm1_gate_input_17"
  type: "Eltwise"
  bottom: "W_hc_h_16"
  bottom: "W_xc_x_17"
  top: "gate_input_17"
  eltwise_param {
    operation: SUM
  }
}
layer {
  name: "lstm1_unit_17"
  type: "LSTMUnit"
  bottom: "c_16"
  bottom: "gate_input_17"
  bottom: "cont_17"
  top: "c_17"
  top: "h_17"
}
layer {
  name: "lstm1_h_conted_17"
  type: "Scale"
  bottom: "h_17"
  bottom: "cont_18"
  top: "h_conted_17"
  scale_param {
    axis: 0
  }
}
layer {
  name: "lstm1_transform_18"
  type: "InnerProduct"
  bottom: "h_conted_17"
  top: "W_hc_h_17"
  param {
    name: "W_hc"
  }
  inner_product_param {
    num_output: 2048
    bias_term: false
    weight_filler {
      type: "uniform"
      min: -0.01
      max: 0.01
    }
    axis: 2
  }
}
layer {
  name: "lstm1_gate_input_18"
  type: "Eltwise"
  bottom: "W_hc_h_17"
  bottom: "W_xc_x_18"
  top: "gate_input_18"
  eltwise_param {
    operation: SUM
  }
}
layer {
  name: "lstm1_unit_18"
  type: "LSTMUnit"
  bottom: "c_17"
  bottom: "gate_input_18"
  bottom: "cont_18"
  top: "c_18"
  top: "h_18"
}
layer {
  name: "lstm1_h_conted_18"
  type: "Scale"
  bottom: "h_18"
  bottom: "cont_19"
  top: "h_conted_18"
  scale_param {
    axis: 0
  }
}
layer {
  name: "lstm1_transform_19"
  type: "InnerProduct"
  bottom: "h_conted_18"
  top: "W_hc_h_18"
  param {
    name: "W_hc"
  }
  inner_product_param {
    num_output: 2048
    bias_term: false
    weight_filler {
      type: "uniform"
      min: -0.01
      max: 0.01
    }
    axis: 2
  }
}
layer {
  name: "lstm1_gate_input_19"
  type: "Eltwise"
  bottom: "W_hc_h_18"
  bottom: "W_xc_x_19"
  top: "gate_input_19"
  eltwise_param {
    operation: SUM
  }
}
layer {
  name: "lstm1_unit_19"
  type: "LSTMUnit"
  bottom: "c_18"
  bottom: "gate_input_19"
  bottom: "cont_19"
  top: "c_19"
  top: "h_19"
}
layer {
  name: "lstm1_h_conted_19"
  type: "Scale"
  bottom: "h_19"
  bottom: "cont_20"
  top: "h_conted_19"
  scale_param {
    axis: 0
  }
}
layer {
  name: "lstm1_transform_20"
  type: "InnerProduct"
  bottom: "h_conted_19"
  top: "W_hc_h_19"
  param {
    name: "W_hc"
  }
  inner_product_param {
    num_output: 2048
    bias_term: false
    weight_filler {
      type: "uniform"
      min: -0.01
      max: 0.01
    }
    axis: 2
  }
}
layer {
  name: "lstm1_gate_input_20"
  type: "Eltwise"
  bottom: "W_hc_h_19"
  bottom: "W_xc_x_20"
  top: "gate_input_20"
  eltwise_param {
    operation: SUM
  }
}
layer {
  name: "lstm1_unit_20"
  type: "LSTMUnit"
  bottom: "c_19"
  bottom: "gate_input_20"
  bottom: "cont_20"
  top: "c_20"
  top: "h_20"
}
layer {
  name: "lstm1_h_conted_20"
  type: "Scale"
  bottom: "h_20"
  bottom: "cont_21"
  top: "h_conted_20"
  scale_param {
    axis: 0
  }
}
layer {
  name: "lstm1_transform_21"
  type: "InnerProduct"
  bottom: "h_conted_20"
  top: "W_hc_h_20"
  param {
    name: "W_hc"
  }
  inner_product_param {
    num_output: 2048
    bias_term: false
    weight_filler {
      type: "uniform"
      min: -0.01
      max: 0.01
    }
    axis: 2
  }
}
layer {
  name: "lstm1_gate_input_21"
  type: "Eltwise"
  bottom: "W_hc_h_20"
  bottom: "W_xc_x_21"
  top: "gate_input_21"
  eltwise_param {
    operation: SUM
  }
}
layer {
  name: "lstm1_unit_21"
  type: "LSTMUnit"
  bottom: "c_20"
  bottom: "gate_input_21"
  bottom: "cont_21"
  top: "c_21"
  top: "h_21"
}
layer {
  name: "lstm1_h_conted_21"
  type: "Scale"
  bottom: "h_21"
  bottom: "cont_22"
  top: "h_conted_21"
  scale_param {
    axis: 0
  }
}
layer {
  name: "lstm1_transform_22"
  type: "InnerProduct"
  bottom: "h_conted_21"
  top: "W_hc_h_21"
  param {
    name: "W_hc"
  }
  inner_product_param {
    num_output: 2048
    bias_term: false
    weight_filler {
      type: "uniform"
      min: -0.01
      max: 0.01
    }
    axis: 2
  }
}
layer {
  name: "lstm1_gate_input_22"
  type: "Eltwise"
  bottom: "W_hc_h_21"
  bottom: "W_xc_x_22"
  top: "gate_input_22"
  eltwise_param {
    operation: SUM
  }
}
layer {
  name: "lstm1_unit_22"
  type: "LSTMUnit"
  bottom: "c_21"
  bottom: "gate_input_22"
  bottom: "cont_22"
  top: "c_22"
  top: "h_22"
}
layer {
  name: "lstm1_h_conted_22"
  type: "Scale"
  bottom: "h_22"
  bottom: "cont_23"
  top: "h_conted_22"
  scale_param {
    axis: 0
  }
}
layer {
  name: "lstm1_transform_23"
  type: "InnerProduct"
  bottom: "h_conted_22"
  top: "W_hc_h_22"
  param {
    name: "W_hc"
  }
  inner_product_param {
    num_output: 2048
    bias_term: false
    weight_filler {
      type: "uniform"
      min: -0.01
      max: 0.01
    }
    axis: 2
  }
}
layer {
  name: "lstm1_gate_input_23"
  type: "Eltwise"
  bottom: "W_hc_h_22"
  bottom: "W_xc_x_23"
  top: "gate_input_23"
  eltwise_param {
    operation: SUM
  }
}
layer {
  name: "lstm1_unit_23"
  type: "LSTMUnit"
  bottom: "c_22"
  bottom: "gate_input_23"
  bottom: "cont_23"
  top: "c_23"
  top: "h_23"
}
layer {
  name: "lstm1_h_conted_23"
  type: "Scale"
  bottom: "h_23"
  bottom: "cont_24"
  top: "h_conted_23"
  scale_param {
    axis: 0
  }
}
layer {
  name: "lstm1_transform_24"
  type: "InnerProduct"
  bottom: "h_conted_23"
  top: "W_hc_h_23"
  param {
    name: "W_hc"
  }
  inner_product_param {
    num_output: 2048
    bias_term: false
    weight_filler {
      type: "uniform"
      min: -0.01
      max: 0.01
    }
    axis: 2
  }
}
layer {
  name: "lstm1_gate_input_24"
  type: "Eltwise"
  bottom: "W_hc_h_23"
  bottom: "W_xc_x_24"
  top: "gate_input_24"
  eltwise_param {
    operation: SUM
  }
}
layer {
  name: "lstm1_unit_24"
  type: "LSTMUnit"
  bottom: "c_23"
  bottom: "gate_input_24"
  bottom: "cont_24"
  top: "c_24"
  top: "h_24"
}
layer {
  name: "lstm1_h_conted_24"
  type: "Scale"
  bottom: "h_24"
  bottom: "cont_25"
  top: "h_conted_24"
  scale_param {
    axis: 0
  }
}
layer {
  name: "lstm1_transform_25"
  type: "InnerProduct"
  bottom: "h_conted_24"
  top: "W_hc_h_24"
  param {
    name: "W_hc"
  }
  inner_product_param {
    num_output: 2048
    bias_term: false
    weight_filler {
      type: "uniform"
      min: -0.01
      max: 0.01
    }
    axis: 2
  }
}
layer {
  name: "lstm1_gate_input_25"
  type: "Eltwise"
  bottom: "W_hc_h_24"
  bottom: "W_xc_x_25"
  top: "gate_input_25"
  eltwise_param {
    operation: SUM
  }
}
layer {
  name: "lstm1_unit_25"
  type: "LSTMUnit"
  bottom: "c_24"
  bottom: "gate_input_25"
  bottom: "cont_25"
  top: "c_25"
  top: "h_25"
}
layer {
  name: "lstm1_h_conted_25"
  type: "Scale"
  bottom: "h_25"
  bottom: "cont_26"
  top: "h_conted_25"
  scale_param {
    axis: 0
  }
}
layer {
  name: "lstm1_transform_26"
  type: "InnerProduct"
  bottom: "h_conted_25"
  top: "W_hc_h_25"
  param {
    name: "W_hc"
  }
  inner_product_param {
    num_output: 2048
    bias_term: false
    weight_filler {
      type: "uniform"
      min: -0.01
      max: 0.01
    }
    axis: 2
  }
}
layer {
  name: "lstm1_gate_input_26"
  type: "Eltwise"
  bottom: "W_hc_h_25"
  bottom: "W_xc_x_26"
  top: "gate_input_26"
  eltwise_param {
    operation: SUM
  }
}
layer {
  name: "lstm1_unit_26"
  type: "LSTMUnit"
  bottom: "c_25"
  bottom: "gate_input_26"
  bottom: "cont_26"
  top: "c_26"
  top: "h_26"
}
layer {
  name: "lstm1_h_conted_26"
  type: "Scale"
  bottom: "h_26"
  bottom: "cont_27"
  top: "h_conted_26"
  scale_param {
    axis: 0
  }
}
layer {
  name: "lstm1_transform_27"
  type: "InnerProduct"
  bottom: "h_conted_26"
  top: "W_hc_h_26"
  param {
    name: "W_hc"
  }
  inner_product_param {
    num_output: 2048
    bias_term: false
    weight_filler {
      type: "uniform"
      min: -0.01
      max: 0.01
    }
    axis: 2
  }
}
layer {
  name: "lstm1_gate_input_27"
  type: "Eltwise"
  bottom: "W_hc_h_26"
  bottom: "W_xc_x_27"
  top: "gate_input_27"
  eltwise_param {
    operation: SUM
  }
}
layer {
  name: "lstm1_unit_27"
  type: "LSTMUnit"
  bottom: "c_26"
  bottom: "gate_input_27"
  bottom: "cont_27"
  top: "c_27"
  top: "h_27"
}
layer {
  name: "lstm1_h_conted_27"
  type: "Scale"
  bottom: "h_27"
  bottom: "cont_28"
  top: "h_conted_27"
  scale_param {
    axis: 0
  }
}
layer {
  name: "lstm1_transform_28"
  type: "InnerProduct"
  bottom: "h_conted_27"
  top: "W_hc_h_27"
  param {
    name: "W_hc"
  }
  inner_product_param {
    num_output: 2048
    bias_term: false
    weight_filler {
      type: "uniform"
      min: -0.01
      max: 0.01
    }
    axis: 2
  }
}
layer {
  name: "lstm1_gate_input_28"
  type: "Eltwise"
  bottom: "W_hc_h_27"
  bottom: "W_xc_x_28"
  top: "gate_input_28"
  eltwise_param {
    operation: SUM
  }
}
layer {
  name: "lstm1_unit_28"
  type: "LSTMUnit"
  bottom: "c_27"
  bottom: "gate_input_28"
  bottom: "cont_28"
  top: "c_28"
  top: "h_28"
}
layer {
  name: "lstm1_h_conted_28"
  type: "Scale"
  bottom: "h_28"
  bottom: "cont_29"
  top: "h_conted_28"
  scale_param {
    axis: 0
  }
}
layer {
  name: "lstm1_transform_29"
  type: "InnerProduct"
  bottom: "h_conted_28"
  top: "W_hc_h_28"
  param {
    name: "W_hc"
  }
  inner_product_param {
    num_output: 2048
    bias_term: false
    weight_filler {
      type: "uniform"
      min: -0.01
      max: 0.01
    }
    axis: 2
  }
}
layer {
  name: "lstm1_gate_input_29"
  type: "Eltwise"
  bottom: "W_hc_h_28"
  bottom: "W_xc_x_29"
  top: "gate_input_29"
  eltwise_param {
    operation: SUM
  }
}
layer {
  name: "lstm1_unit_29"
  type: "LSTMUnit"
  bottom: "c_28"
  bottom: "gate_input_29"
  bottom: "cont_29"
  top: "c_29"
  top: "h_29"
}
layer
I1017 23:52:42.737304 29448 layer_factory.hpp:77] Creating layer lstm1_
I1017 23:52:42.737323 29448 net.cpp:84] Creating Layer lstm1_
I1017 23:52:42.737329 29448 net.cpp:380] lstm1_ -> x
I1017 23:52:42.737340 29448 net.cpp:380] lstm1_ -> cont
I1017 23:52:42.737383 29448 net.cpp:122] Setting up lstm1_
I1017 23:52:42.737390 29448 net.cpp:129] Top shape: 196 5 512 (501760)
I1017 23:52:42.737396 29448 net.cpp:129] Top shape: 196 5 (980)
I1017 23:52:42.737399 29448 net.cpp:137] Memory required for data: 2010960
I1017 23:52:42.737403 29448 layer_factory.hpp:77] Creating layer lstm1_
I1017 23:52:42.737409 29448 net.cpp:84] Creating Layer lstm1_
I1017 23:52:42.737413 29448 net.cpp:380] lstm1_ -> c_0
I1017 23:52:42.737421 29448 net.cpp:380] lstm1_ -> h_0
I1017 23:52:42.737452 29448 net.cpp:122] Setting up lstm1_
I1017 23:52:42.737459 29448 net.cpp:129] Top shape: 1 5 512 (2560)
I1017 23:52:42.737463 29448 net.cpp:129] Top shape: 1 5 512 (2560)
I1017 23:52:42.737468 29448 net.cpp:137] Memory required for data: 2031440
I1017 23:52:42.737470 29448 layer_factory.hpp:77] Creating layer lstm1_cont_slice
I1017 23:52:42.737491 29448 net.cpp:84] Creating Layer lstm1_cont_slice
I1017 23:52:42.737495 29448 net.cpp:406] lstm1_cont_slice <- cont
I1017 23:52:42.737511 29448 net.cpp:380] lstm1_cont_slice -> cont_1
I1017 23:52:42.737535 29448 net.cpp:380] lstm1_cont_slice -> cont_2
…
I1017 23:52:42.742547 29448 net.cpp:380] lstm1_cont_slice -> cont_190
I1017 23:52:42.742571 29448 net.cpp:380] lstm1_cont_slice -> cont_191
I1017 23:52:42.742595 29448 net.cpp:380] lstm1_cont_slice -> cont_192
I1017 23:52:42.742620 29448 net.cpp:380] lstm1_cont_slice -> cont_193
I1017 23:52:42.742645 29448 net.cpp:380] lstm1_cont_slice -> cont_194
I1017 23:52:42.742669 29448 net.cpp:380] lstm1_cont_slice -> cont_195
I1017 23:52:42.742693 29448 net.cpp:380] lstm1_cont_slice -> cont_196
I1017 23:52:42.744726 29448 net.cpp:122] Setting up lstm1_cont_slice
I1017 23:52:42.744738 29448 net.cpp:129] Top shape: 1 5 (5)
I1017 23:52:42.744745 29448 net.cpp:129] Top shape: 1 5 (5)
I1017 23:52:42.744750 29448 net.cpp:129] Top shape: 1 5 (5)
I1017 23:52:42.744753 29448 net.cpp:129] Top shape: 1 5 (5)
I1017 23:52:42.744758 29448 net.cpp:129] Top shape: 1 5 (5)
I1017 23:52:42.744763 29448 net.cpp:129] Top shape: 1 5 (5)
I1017 23:52:42.744768 29448 net.cpp:129] Top shape: 1 5 (5)
I1017 23:52:42.744772 29448 net.cpp:129] Top shape: 1 5 (5)
I1017 23:52:42.744777 29448 net.cpp:129] Top shape: 1 5 (5)
I1017 23:52:42.744781 29448 net.cpp:129] Top shape: 1 5 (5)
I1017 23:52:42.744786 29448 net.cpp:129] Top shape: 1 5 (5)
I1017 23:52:42.744791 29448 net.cpp:129] Top shape: 1 5 (5)
I1017 23:52:42.744796 29448 net.cpp:129] Top shape: 1 5 (5)
I1017 23:52:42.744799 29448 net.cpp:129] Top shape: 1 5 (5)
I1017 23:52:42.744804 29448 net.cpp:129] Top shape: 1 5 (5)
I1017 23:52:42.744808 29448 net.cpp:129] Top shape: 1 5 (5)
I1017 23:52:42.744813 29448 net.cpp:129] Top shape: 1 5 (5)
I1017 23:52:42.744817 29448 net.cpp:129] Top shape: 1 5 (5)
I1017 23:52:42.744822 29448 net.cpp:129] Top shape: 1 5 (5)
I1017 23:52:42.744827 29448 net.cpp:129] Top shape: 1 5 (5)
I1017 23:52:42.744832 29448 net.cpp:129] Top shape: 1 5 (5)
I1017 23:52:42.744835 29448 net.cpp:129] Top shape: 1 5 (5)
I1017 23:52:42.744840 29448 net.cpp:129] Top shape: 1 5 (5)
I1017 23:52:42.744844 29448 net.cpp:129] Top shape: 1 5 (5)
I1017 23:52:42.744849 29448 net.cpp:129] Top shape: 1 5 (5)
I1017 23:52:42.744853 29448 net.cpp:129] Top shape: 1 5 (5)
I1017 23:52:42.744858 29448 net.cpp:129] Top shape: 1 5 (5)
I1017 23:52:42.744863 29448 net.cpp:129] Top shape: 1 5 (5)
I1017 23:52:42.744868 29448 net.cpp:129] Top shape: 1 5 (5)
I1017 23:52:42.744873 29448 net.cpp:129] Top shape: 1 5 (5)
I1017 23:52:42.744876 29448 net.cpp:129] Top shape: 1 5 (5)
I1017 23:52:42.744881 29448 net.cpp:129] Top shape: 1 5 (5)
I1017 23:52:42.744885 29448 net.cpp:129] Top shape: 1 5 (5)
I1017 23:52:42.744890 29448 net.cpp:129] Top shape: 1 5 (5)
I1017 23:52:42.744894 29448 net.cpp:129] Top shape: 1 5 (5)
I1017 23:52:42.744899 29448 net.cpp:129] Top shape: 1 5 (5)
I1017 23:52:42.744904 29448 net.cpp:129] Top shape: 1 5 (5)
I1017 23:52:42.744909 29448 net.cpp:129] Top shape: 1 5 (5)
I1017 23:52:42.744912 29448 net.cpp:129] Top shape: 1 5 (5)
I1017 23:52:42.744917 29448 net.cpp:129] Top shape: 1 5 (5)
I1017 23:52:42.744921 29448 net.cpp:129] Top shape: 1 5 (5)
I1017 23:52:42.744926 29448 net.cpp:129] Top shape: 1 5 (5)
I1017 23:52:42.744930 29448 net.cpp:129] Top shape: 1 5 (5)
I1017 23:52:42.744935 29448 net.cpp:129] Top shape: 1 5 (5)
I1017 23:52:42.744940 29448 net.cpp:129] Top shape: 1 5 (5)
I1017 23:52:42.744945 29448 net.cpp:129] Top shape: 1 5 (5)
I1017 23:52:42.744949 29448 net.cpp:129] Top shape: 1 5 (5)
I1017 23:52:42.744953 29448 net.cpp:129] Top shape: 1 5 (5)
I1017 23:52:42.744958 29448 net.cpp:129] Top shape: 1 5 (5)
I1017 23:52:42.744962 29448 net.cpp:129] Top shape: 1 5 (5)
I1017 23:52:42.744967 29448 net.cpp:129] Top shape: 1 5 (5)
I1017 23:52:42.744972 29448 net.cpp:129] Top shape: 1 5 (5)
I1017 23:52:42.744976 29448 net.cpp:129] Top shape: 1 5 (5)
I1017 23:52:42.744982 29448 net.cpp:129] Top shape: 1 5 (5)
I1017 23:52:42.744985 29448 net.cpp:129] Top shape: 1 5 (5)
I1017 23:52:42.744990 29448 net.cpp:129] Top shape: 1 5 (5)
I1017 23:52:42.744994 29448 net.cpp:129] Top shape: 1 5 (5)
I1017 23:52:42.744999 29448 net.cpp:129] Top shape: 1 5 (5)
I1017 23:52:42.745003 29448 net.cpp:129] Top shape: 1 5 (5)
I1017 23:52:42.745007 29448 net.cpp:129] Top shape: 1 5 (5)
I1017 23:52:42.745012 29448 net.cpp:129] Top shape: 1 5 (5)
I1017 23:52:42.745018 29448 net.cpp:129] Top shape: 1 5 (5)
I1017 23:52:42.745023 29448 net.cpp:129] Top shape: 1 5 (5)
I1017 23:52:42.745026 29448 net.cpp:129] Top shape: 1 5 (5)
I1017 23:52:42.745031 29448 net.cpp:129] Top shape: 1 5 (5)
I1017 23:52:42.745035 29448 net.cpp:129] Top shape: 1 5 (5)
I1017 23:52:42.745040 29448 net.cpp:129] Top shape: 1 5 (5)
I1017 23:52:42.745044 29448 net.cpp:129] Top shape: 1 5 (5)
I1017 23:52:42.745049 29448 net.cpp:129] Top shape: 1 5 (5)
I1017 23:52:42.745054 29448 net.cpp:129] Top shape: 1 5 (5)
I1017 23:52:42.745059 29448 net.cpp:129] Top shape: 1 5 (5)
I1017 23:52:42.745062 29448 net.cpp:129] Top shape: 1 5 (5)
I1017 23:52:42.745067 29448 net.cpp:129] Top shape: 1 5 (5)
I1017 23:52:42.745071 29448 net.cpp:129] Top shape: 1 5 (5)
I1017 23:52:42.745076 29448 net.cpp:129] Top shape: 1 5 (5)
I1017 23:52:42.745080 29448 net.cpp:129] Top shape: 1 5 (5)
I1017 23:52:42.745085 29448 net.cpp:129] Top shape: 1 5 (5)
I1017 23:52:42.745090 29448 net.cpp:129] Top shape: 1 5 (5)
I1017 23:52:42.745095 29448 net.cpp:129] Top shape: 1 5 (5)
I1017 23:52:42.745098 29448 net.cpp:129] Top shape: 1 5 (5)
I1017 23:52:42.745103 29448 net.cpp:129] Top shape: 1 5 (5)
I1017 23:52:42.745107 29448 net.cpp:129] Top shape: 1 5 (5)
I1017 23:52:42.745112 29448 net.cpp:129] Top shape: 1 5 (5)
I1017 23:52:42.745117 29448 net.cpp:129] Top shape: 1 5 (5)
I1017 23:52:42.745121 29448 net.cpp:129] Top shape: 1 5 (5)
I1017 23:52:42.745126 29448 net.cpp:129] Top shape: 1 5 (5)
I1017 23:52:42.745131 29448 net.cpp:129] Top shape: 1 5 (5)
I1017 23:52:42.745136 29448 net.cpp:129] Top shape: 1 5 (5)
I1017 23:52:42.745139 29448 net.cpp:129] Top shape: 1 5 (5)
I1017 23:52:42.745144 29448 net.cpp:129] Top shape: 1 5 (5)
I1017 23:52:42.745148 29448 net.cpp:129] Top shape: 1 5 (5)
I1017 23:52:42.745153 29448 net.cpp:129] Top shape: 1 5 (5)
I1017 23:52:42.745158 29448 net.cpp:129] Top shape: 1 5 (5)
I1017 23:52:42.745162 29448 net.cpp:129] Top shape: 1 5 (5)
I1017 23:52:42.745167 29448 net.cpp:129] Top shape: 1 5 (5)
I1017 23:52:42.745172 29448 net.cpp:129] Top shape: 1 5 (5)
I1017 23:52:42.745177 29448 net.cpp:129] Top shape: 1 5 (5)
I1017 23:52:42.745180 29448 net.cpp:129] Top shape: 1 5 (5)
I1017 23:52:42.745185 29448 net.cpp:129] Top shape: 1 5 (5)
I1017 23:52:42.745189 29448 net.cpp:129] Top shape: 1 5 (5)
I1017 23:52:42.745194 29448 net.cpp:129] Top shape: 1 5 (5)
I1017 23:52:42.745198 29448 net.cpp:129] Top shape: 1 5 (5)
I1017 23:52:42.745203 29448 net.cpp:129] Top shape: 1 5 (5)
I1017 23:52:42.745208 29448 net.cpp:129] Top shape: 1 5 (5)
I1017 23:52:42.745213 29448 net.cpp:129] Top shape: 1 5 (5)
I1017 23:52:42.745216 29448 net.cpp:129] Top shape: 1 5 (5)
I1017 23:52:42.745221 29448 net.cpp:129] Top shape: 1 5 (5)
I1017 23:52:42.745225 29448 net.cpp:129] Top shape: 1 5 (5)
I1017 23:52:42.745230 29448 net.cpp:129] Top shape: 1 5 (5)
I1017 23:52:42.745234 29448 net.cpp:129] Top shape: 1 5 (5)
I1017 23:52:42.745239 29448 net.cpp:129] Top shape: 1 5 (5)
I1017 23:52:42.745244 29448 net.cpp:129] Top shape: 1 5 (5)
I1017 23:52:42.745249 29448 net.cpp:129] Top shape: 1 5 (5)
I1017 23:52:42.745252 29448 net.cpp:129] Top shape: 1 5 (5)
I1017 23:52:42.745257 29448 net.cpp:129] Top shape: 1 5 (5)
I1017 23:52:42.745261 29448 net.cpp:129] Top shape: 1 5 (5)
I1017 23:52:42.745266 29448 net.cpp:129] Top shape: 1 5 (5)
I1017 23:52:42.745270 29448 net.cpp:129] Top shape: 1 5 (5)
I1017 23:52:42.745275 29448 net.cpp:129] Top shape: 1 5 (5)
I1017 23:52:42.745280 29448 net.cpp:129] Top shape: 1 5 (5)
I1017 23:52:42.745285 29448 net.cpp:129] Top shape: 1 5 (5)
I1017 23:52:42.745288 29448 net.cpp:129] Top shape: 1 5 (5)
I1017 23:52:42.745293 29448 net.cpp:129] Top shape: 1 5 (5)
I1017 23:52:42.745297 29448 net.cpp:129] Top shape: 1 5 (5)
I1017 23:52:42.745304 29448 net.cpp:129] Top shape: 1 5 (5)
I1017 23:52:42.745309 29448 net.cpp:129] Top shape: 1 5 (5)
I1017 23:52:42.745314 29448 net.cpp:129] Top shape: 1 5 (5)
I1017 23:52:42.745318 29448 net.cpp:129] Top shape: 1 5 (5)
I1017 23:52:42.745323 29448 net.cpp:129] Top shape: 1 5 (5)
I1017 23:52:42.745327 29448 net.cpp:129] Top shape: 1 5 (5)
I1017 23:52:42.745332 29448 net.cpp:129] Top shape: 1 5 (5)
I1017 23:52:42.745337 29448 net.cpp:129] Top shape: 1 5 (5)
I1017 23:52:42.745342 29448 net.cpp:129] Top shape: 1 5 (5)
I1017 23:52:42.745345 29448 net.cpp:129] Top shape: 1 5 (5)
I1017 23:52:42.745350 29448 net.cpp:129] Top shape: 1 5 (5)
I1017 23:52:42.745354 29448 net.cpp:129] Top shape: 1 5 (5)
I1017 23:52:42.745359 29448 net.cpp:129] Top shape: 1 5 (5)
I1017 23:52:42.745364 29448 net.cpp:129] Top shape: 1 5 (5)
I1017 23:52:42.745368 29448 net.cpp:129] Top shape: 1 5 (5)
I1017 23:52:42.745373 29448 net.cpp:129] Top shape: 1 5 (5)
I1017 23:52:42.745378 29448 net.cpp:129] Top shape: 1 5 (5)
I1017 23:52:42.745383 29448 net.cpp:129] Top shape: 1 5 (5)
I1017 23:52:42.745386 29448 net.cpp:129] Top shape: 1 5 (5)
I1017 23:52:42.745391 29448 net.cpp:129] Top shape: 1 5 (5)
I1017 23:52:42.745395 29448 net.cpp:129] Top shape: 1 5 (5)
I1017 23:52:42.745400 29448 net.cpp:129] Top shape: 1 5 (5)
I1017 23:52:42.745404 29448 net.cpp:129] Top shape: 1 5 (5)
I1017 23:52:42.745409 29448 net.cpp:129] Top shape: 1 5 (5)
I1017 23:52:42.745414 29448 net.cpp:129] Top shape: 1 5 (5)
I1017 23:52:42.745419 29448 net.cpp:129] Top shape: 1 5 (5)
I1017 23:52:42.745422 29448 net.cpp:129] Top shape: 1 5 (5)
I1017 23:52:42.745427 29448 net.cpp:129] Top shape: 1 5 (5)
I1017 23:52:42.745431 29448 net.cpp:129] Top shape: 1 5 (5)
I1017 23:52:42.745435 29448 net.cpp:129] Top shape: 1 5 (5)
I1017 23:52:42.745440 29448 net.cpp:129] Top shape: 1 5 (5)
I1017 23:52:42.745445 29448 net.cpp:129] Top shape: 1 5 (5)
I1017 23:52:42.745450 29448 net.cpp:129] Top shape: 1 5 (5)
I1017 23:52:42.745453 29448 net.cpp:129] Top shape: 1 5 (5)
I1017 23:52:42.745458 29448 net.cpp:129] Top shape: 1 5 (5)
I1017 23:52:42.745462 29448 net.cpp:129] Top shape: 1 5 (5)
I1017 23:52:42.745467 29448 net.cpp:129] Top shape: 1 5 (5)
I1017 23:52:42.745471 29448 net.cpp:129] Top shape: 1 5 (5)
I1017 23:52:42.745476 29448 net.cpp:129] Top shape: 1 5 (5)
I1017 23:52:42.745481 29448 net.cpp:129] Top shape: 1 5 (5)
I1017 23:52:42.745484 29448 net.cpp:129] Top shape: 1 5 (5)
I1017 23:52:42.745489 29448 net.cpp:129] Top shape: 1 5 (5)
I1017 23:52:42.745493 29448 net.cpp:129] Top shape: 1 5 (5)
I1017 23:52:42.745498 29448 net.cpp:129] Top shape: 1 5 (5)
I1017 23:52:42.745502 29448 net.cpp:129] Top shape: 1 5 (5)
I1017 23:52:42.745507 29448 net.cpp:129] Top shape: 1 5 (5)
I1017 23:52:42.745512 29448 net.cpp:129] Top shape: 1 5 (5)
I1017 23:52:42.745515 29448 net.cpp:129] Top shape: 1 5 (5)
I1017 23:52:42.745520 29448 net.cpp:129] Top shape: 1 5 (5)
I1017 23:52:42.745524 29448 net.cpp:129] Top shape: 1 5 (5)
I1017 23:52:42.745529 29448 net.cpp:129] Top shape: 1 5 (5)
I1017 23:52:42.745533 29448 net.cpp:129] Top shape: 1 5 (5)
I1017 23:52:42.745538 29448 net.cpp:129] Top shape: 1 5 (5)
I1017 23:52:42.745543 29448 net.cpp:129] Top shape: 1 5 (5)
I1017 23:52:42.745548 29448 net.cpp:129] Top shape: 1 5 (5)
I1017 23:52:42.745551 29448 net.cpp:129] Top shape: 1 5 (5)
I1017 23:52:42.745555 29448 net.cpp:129] Top shape: 1 5 (5)
I1017 23:52:42.745560 29448 net.cpp:129] Top shape: 1 5 (5)
I1017 23:52:42.745564 29448 net.cpp:129] Top shape: 1 5 (5)
I1017 23:52:42.745569 29448 net.cpp:129] Top shape: 1 5 (5)
I1017 23:52:42.745573 29448 net.cpp:129] Top shape: 1 5 (5)
I1017 23:52:42.745579 29448 net.cpp:129] Top shape: 1 5 (5)
I1017 23:52:42.745582 29448 net.cpp:129] Top shape: 1 5 (5)
I1017 23:52:42.745587 29448 net.cpp:129] Top shape: 1 5 (5)
I1017 23:52:42.745591 29448 net.cpp:129] Top shape: 1 5 (5)
I1017 23:52:42.745595 29448 net.cpp:129] Top shape: 1 5 (5)
I1017 23:52:42.745600 29448 net.cpp:129] Top shape: 1 5 (5)
I1017 23:52:42.745604 29448 net.cpp:129] Top shape: 1 5 (5)
I1017 23:52:42.745609 29448 net.cpp:129] Top shape: 1 5 (5)
I1017 23:52:42.745613 29448 net.cpp:129] Top shape: 1 5 (5)
I1017 23:52:42.745618 29448 net.cpp:129] Top shape: 1 5 (5)
I1017 23:52:42.745622 29448 net.cpp:129] Top shape: 1 5 (5)
I1017 23:52:42.745626 29448 net.cpp:137] Memory required for data: 2035360
I1017 23:52:42.745631 29448 layer_factory.hpp:77] Creating layer cont_1_lstm1_cont_slice_0_split
I1017 23:52:42.745638 29448 net.cpp:84] Creating Layer cont_1_lstm1_cont_slice_0_split
I1017 23:52:42.745643 29448 net.cpp:406] cont_1_lstm1_cont_slice_0_split <- cont_1
I1017 23:52:42.745652 29448 net.cpp:380] cont_1_lstm1_cont_slice_0_split -> cont_1_lstm1_cont_slice_0_split_0
I1017 23:52:42.745661 29448 net.cpp:380] cont_1_lstm1_cont_slice_0_split -> cont_1_lstm1_cont_slice_0_split_1
I1017 23:52:42.745699 29448 net.cpp:122] Setting up cont_1_lstm1_cont_slice_0_split
I1017 23:52:42.745707 29448 net.cpp:129] Top shape: 1 5 (5)
I1017 23:52:42.745712 29448 net.cpp:129] Top shape: 1 5 (5)
I1017 23:52:42.745715 29448 net.cpp:137] Memory required for data: 2035400
I1017 23:52:42.745719 29448 layer_factory.hpp:77] Creating layer cont_2_lstm1_cont_slice_1_split
I1017 23:52:42.745728 29448 net.cpp:84] Creating Layer cont_2_lstm1_cont_slice_1_split
I1017 23:52:42.745733 29448 net.cpp:406] cont_2_lstm1_cont_slice_1_split <- cont_2
I1017 23:52:42.745738 29448 net.cpp:380] cont_2_lstm1_cont_slice_1_split -> cont_2_lstm1_cont_slice_1_split_0
I1017 23:52:42.745745 29448 net.cpp:380] cont_2_lstm1_cont_slice_1_split -> cont_2_lstm1_cont_slice_1_split_1
I1017 23:52:42.745779 29448 net.cpp:122] Setting up cont_2_lstm1_cont_slice_1_split
I1017 23:52:42.745785 29448 net.cpp:129] Top shape: 1 5 (5)
I1017 23:52:42.745790 29448 net.cpp:129] Top shape: 1 5 (5)
I1017 23:52:42.745795 29448 net.cpp:137] Memory required for data: 2035440
I1017 23:52:42.745798 29448 layer_factory.hpp:77] Creating layer cont_3_lstm1_cont_slice_2_split
I1017 23:52:42.745803 29448 net.cpp:84] Creating Layer cont_3_lstm1_cont_slice_2_split
I1017 23:52:42.745808 29448 net.cpp:406] cont_3_lstm1_cont_slice_2_split <- cont_3
I1017 23:52:42.745816 29448 net.cpp:380] cont_3_lstm1_cont_slice_2_split -> cont_3_lstm1_cont_slice_2_split_0
I1017 23:52:42.745823 29448 net.cpp:380] cont_3_lstm1_cont_slice_2_split -> cont_3_lstm1_cont_slice_2_split_1
I1017 23:52:42.745853 29448 net.cpp:122] Setting up cont_3_lstm1_cont_slice_2_split
I1017 23:52:42.745859 29448 net.cpp:129] Top shape: 1 5 (5)
I1017 23:52:42.745864 29448 net.cpp:129] Top shape: 1 5 (5)
I1017 23:52:42.745868 29448 net.cpp:137] Memory required for data: 2035480
I1017 23:52:42.745872 29448 layer_factory.hpp:77] Creating layer cont_4_lstm1_cont_slice_3_split
I1017 23:52:42.745879 29448 net.cpp:84] Creating Layer cont_4_lstm1_cont_slice_3_split
I1017 23:52:42.745883 29448 net.cpp:406] cont_4_lstm1_cont_slice_3_split <- cont_4
I1017 23:52:42.745889 29448 net.cpp:380] cont_4_lstm1_cont_slice_3_split -> cont_4_lstm1_cont_slice_3_split_0
I1017 23:52:42.745895 29448 net.cpp:380] cont_4_lstm1_cont_slice_3_split -> cont_4_lstm1_cont_slice_3_split_1
I1017 23:52:42.745928 29448 net.cpp:122] Setting up cont_4_lstm1_cont_slice_3_split
I1017 23:52:42.745932 29448 net.cpp:129] Top shape: 1 5 (5)
I1017 23:52:42.745937 29448 net.cpp:129] Top shape: 1 5 (5)
I1017 23:52:42.745941 29448 net.cpp:137] Memory required for data: 2035520
I1017 23:52:42.745945 29448 layer_factory.hpp:77] Creating layer cont_5_lstm1_cont_slice_4_split
I1017 23:52:42.745950 29448 net.cpp:84] Creating Layer cont_5_lstm1_cont_slice_4_split
I1017 23:52:42.745954 29448 net.cpp:406] cont_5_lstm1_cont_slice_4_split <- cont_5
I1017 23:52:42.745962 29448 net.cpp:380] cont_5_lstm1_cont_slice_4_split -> cont_5_lstm1_cont_slice_4_split_0
I1017 23:52:42.745968 29448 net.cpp:380] cont_5_lstm1_cont_slice_4_split -> cont_5_lstm1_cont_slice_4_split_1
I1017 23:52:42.745998 29448 net.cpp:122] Setting up cont_5_lstm1_cont_slice_4_split
I1017 23:52:42.746004 29448 net.cpp:129] Top shape: 1 5 (5)
I1017 23:52:42.746008 29448 net.cpp:129] Top shape: 1 5 (5)
I1017 23:52:42.746012 29448 net.cpp:137] Memory required for data: 2035560
I1017 23:52:42.746016 29448 layer_factory.hpp:77] Creating layer cont_6_lstm1_cont_slice_5_split
I1017 23:52:42.746022 29448 net.cpp:84] Creating Layer cont_6_lstm1_cont_slice_5_split
I1017 23:52:42.746026 29448 net.cpp:406] cont_6_lstm1_cont_slice_5_split <- cont_6
I1017 23:52:42.746032 29448 net.cpp:380] cont_6_lstm1_cont_slice_5_split -> cont_6_lstm1_cont_slice_5_split_0
I1017 23:52:42.746040 29448 net.cpp:380] cont_6_lstm1_cont_slice_5_split -> cont_6_lstm1_cont_slice_5_split_1
I1017 23:52:42.746068 29448 net.cpp:122] Setting up cont_6_lstm1_cont_slice_5_split
I1017 23:52:42.746074 29448 net.cpp:129] Top shape: 1 5 (5)
I1017 23:52:42.746079 29448 net.cpp:129] Top shape: 1 5 (5)
I1017 23:52:42.746083 29448 net.cpp:137] Memory required for data: 2035600
I1017 23:52:42.746086 29448 layer_factory.hpp:77] Creating layer cont_7_lstm1_cont_slice_6_split
I1017 23:52:42.746091 29448 net.cpp:84] Creating Layer cont_7_lstm1_cont_slice_6_split
I1017 23:52:42.746095 29448 net.cpp:406] cont_7_lstm1_cont_slice_6_split <- cont_7
I1017 23:52:42.746104 29448 net.cpp:380] cont_7_lstm1_cont_slice_6_split -> cont_7_lstm1_cont_slice_6_split_0
I1017 23:52:42.746109 29448 net.cpp:380] cont_7_lstm1_cont_slice_6_split -> cont_7_lstm1_cont_slice_6_split_1
I1017 23:52:42.746140 29448 net.cpp:122] Setting up cont_7_lstm1_cont_slice_6_split
I1017 23:52:42.746145 29448 net.cpp:129] Top shape: 1 5 (5)
I1017 23:52:42.746150 29448 net.cpp:129] Top shape: 1 5 (5)
I1017 23:52:42.746153 29448 net.cpp:137] Memory required for data: 2035640
I1017 23:52:42.746157 29448 layer_factory.hpp:77] Creating layer cont_8_lstm1_cont_slice_7_split
I1017 23:52:42.746162 29448 net.cpp:84] Creating Layer cont_8_lstm1_cont_slice_7_split
I1017 23:52:42.746166 29448 net.cpp:406] cont_8_lstm1_cont_slice_7_split <- cont_8
I1017 23:52:42.746171 29448 net.cpp:380] cont_8_lstm1_cont_slice_7_split -> cont_8_lstm1_cont_slice_7_split_0
I1017 23:52:42.746178 29448 net.cpp:380] cont_8_lstm1_cont_slice_7_split -> cont_8_lstm1_cont_slice_7_split_1
I1017 23:52:42.746207 29448 net.cpp:122] Setting up cont_8_lstm1_cont_slice_7_split
I1017 23:52:42.746213 29448 net.cpp:129] Top shape: 1 5 (5)
I1017 23:52:42.746218 29448 net.cpp:129] Top shape: 1 5 (5)
I1017 23:52:42.746222 29448 net.cpp:137] Memory required for data: 2035680
I1017 23:52:42.746225 29448 layer_factory.hpp:77] Creating layer cont_9_lstm1_cont_slice_8_split
I1017 23:52:42.746230 29448 net.cpp:84] Creating Layer cont_9_lstm1_cont_slice_8_split
I1017 23:52:42.746234 29448 net.cpp:406] cont_9_lstm1_cont_slice_8_split <- cont_9
I1017 23:52:42.746239 29448 net.cpp:380] cont_9_lstm1_cont_slice_8_split -> cont_9_lstm1_cont_slice_8_split_0
I1017 23:52:42.746246 29448 net.cpp:380] cont_9_lstm1_cont_slice_8_split -> cont_9_lstm1_cont_slice_8_split_1
I1017 23:52:42.746275 29448 net.cpp:122] Setting up cont_9_lstm1_cont_slice_8_split
I1017 23:52:42.746281 29448 net.cpp:129] Top shape: 1 5 (5)
I1017 23:52:42.746286 29448 net.cpp:129] Top shape: 1 5 (5)
I1017 23:52:42.746290 29448 net.cpp:137] Memory required for data: 2035720
I1017 23:52:42.746294 29448 layer_factory.hpp:77] Creating layer cont_10_lstm1_cont_slice_9_split
I1017 23:52:42.746299 29448 net.cpp:84] Creating Layer cont_10_lstm1_cont_slice_9_split
I1017 23:52:42.746304 29448 net.cpp:406] cont_10_lstm1_cont_slice_9_split <- cont_10
I1017 23:52:42.746312 29448 net.cpp:380] cont_10_lstm1_cont_slice_9_split -> cont_10_lstm1_cont_slice_9_split_0
I1017 23:52:42.746320 29448 net.cpp:380] cont_10_lstm1_cont_slice_9_split -> cont_10_lstm1_cont_slice_9_split_1
I1017 23:52:42.746347 29448 net.cpp:122] Setting up cont_10_lstm1_cont_slice_9_split
I1017 23:52:42.746352 29448 net.cpp:129] Top shape: 1 5 (5)
I1017 23:52:42.746357 29448 net.cpp:129] Top shape: 1 5 (5)
I1017 23:52:42.746361 29448 net.cpp:137] Memory required for data: 2035760
I1017 23:52:42.746366 29448 layer_factory.hpp:77] Creating layer cont_11_lstm1_cont_slice_10_split
I1017 23:52:42.746371 29448 net.cpp:84] Creating Layer cont_11_lstm1_cont_slice_10_split
I1017 23:52:42.746376 29448 net.cpp:406] cont_11_lstm1_cont_slice_10_split <- cont_11
I1017 23:52:42.746382 29448 net.cpp:380] cont_11_lstm1_cont_slice_10_split -> cont_11_lstm1_cont_slice_10_split_0
I1017 23:52:42.746389 29448 net.cpp:380] cont_11_lstm1_cont_slice_10_split -> cont_11_lstm1_cont_slice_10_split_1
I1017 23:52:42.746418 29448 net.cpp:122] Setting up cont_11_lstm1_cont_slice_10_split
I1017 23:52:42.746424 29448 net.cpp:129] Top shape: 1 5 (5)
I1017 23:52:42.746428 29448 net.cpp:129] Top shape: 1 5 (5)
I1017 23:52:42.746433 29448 net.cpp:137] Memory required for data: 2035800
I1017 23:52:42.746436 29448 layer_factory.hpp:77] Creating layer cont_12_lstm1_cont_slice_11_split
I1017 23:52:42.746441 29448 net.cpp:84] Creating Layer cont_12_lstm1_cont_slice_11_split
I1017 23:52:42.746446 29448 net.cpp:406] cont_12_lstm1_cont_slice_11_split <- cont_12
I1017 23:52:42.746453 29448 net.cpp:380] cont_12_lstm1_cont_slice_11_split -> cont_12_lstm1_cont_slice_11_split_0
I1017 23:52:42.746459 29448 net.cpp:380] cont_12_lstm1_cont_slice_11_split -> cont_12_lstm1_cont_slice_11_split_1
I1017 23:52:42.746492 29448 net.cpp:122] Setting up cont_12_lstm1_cont_slice_11_split
I1017 23:52:42.746498 29448 net.cpp:129] Top shape: 1 5 (5)
I1017 23:52:42.746502 29448 net.cpp:129] Top shape: 1 5 (5)
I1017 23:52:42.746506 29448 net.cpp:137] Memory required for data: 2035840
I1017 23:52:42.746510 29448 layer_factory.hpp:77] Creating layer cont_13_lstm1_cont_slice_12_split
I1017 23:52:42.746515 29448 net.cpp:84] Creating Layer cont_13_lstm1_cont_slice_12_split
I1017 23:52:42.746520 29448 net.cpp:406] cont_13_lstm1_cont_slice_12_split <- cont_13
I1017 23:52:42.746526 29448 net.cpp:380] cont_13_lstm1_cont_slice_12_split -> cont_13_lstm1_cont_slice_12_split_0
I1017 23:52:42.746532 29448 net.cpp:380] cont_13_lstm1_cont_slice_12_split -> cont_13_lstm1_cont_slice_12_split_1
I1017 23:52:42.746562 29448 net.cpp:122] Setting up cont_13_lstm1_cont_slice_12_split
I1017 23:52:42.746568 29448 net.cpp:129] Top shape: 1 5 (5)
I1017 23:52:42.746572 29448 net.cpp:129] Top shape: 1 5 (5)
I1017 23:52:42.746577 29448 net.cpp:137] Memory required for data: 2035880
I1017 23:52:42.746580 29448 layer_factory.hpp:77] Creating layer cont_14_lstm1_cont_slice_13_split
I1017 23:52:42.746588 29448 net.cpp:84] Creating Layer cont_14_lstm1_cont_slice_13_split
I1017 23:52:42.746593 29448 net.cpp:406] cont_14_lstm1_cont_slice_13_split <- cont_14
I1017 23:52:42.746599 29448 net.cpp:380] cont_14_lstm1_cont_slice_13_split -> cont_14_lstm1_cont_slice_13_split_0
I1017 23:52:42.746605 29448 net.cpp:380] cont_14_lstm1_cont_slice_13_split -> cont_14_lstm1_cont_slice_13_split_1
I1017 23:52:42.746635 29448 net.cpp:122] Setting up cont_14_lstm1_cont_slice_13_split
I1017 23:52:42.746641 29448 net.cpp:129] Top shape: 1 5 (5)
I1017 23:52:42.746646 29448 net.cpp:129] Top shape: 1 5 (5)
I1017 23:52:42.746649 29448 net.cpp:137] Memory required for data: 2035920
I1017 23:52:42.746654 29448 layer_factory.hpp:77] Creating layer cont_15_lstm1_cont_slice_14_split
I1017 23:52:42.746659 29448 net.cpp:84] Creating Layer cont_15_lstm1_cont_slice_14_split
I1017 23:52:42.746662 29448 net.cpp:406] cont_15_lstm1_cont_slice_14_split <- cont_15
I1017 23:52:42.746668 29448 net.cpp:380] cont_15_lstm1_cont_slice_14_split -> cont_15_lstm1_cont_slice_14_split_0
I1017 23:52:42.746675 29448 net.cpp:380] cont_15_lstm1_cont_slice_14_split -> cont_15_lstm1_cont_slice_14_split_1
I1017 23:52:42.746704 29448 net.cpp:122] Setting up cont_15_lstm1_cont_slice_14_split
I1017 23:52:42.746711 29448 net.cpp:129] Top shape: 1 5 (5)
I1017 23:52:42.746714 29448 net.cpp:129] Top shape: 1 5 (5)
I1017 23:52:42.746718 29448 net.cpp:137] Memory required for data: 2035960
I1017 23:52:42.746722 29448 layer_factory.hpp:77] Creating layer cont_16_lstm1_cont_slice_15_split
I1017 23:52:42.746727 29448 net.cpp:84] Creating Layer cont_16_lstm1_cont_slice_15_split
I1017 23:52:42.746731 29448 net.cpp:406] cont_16_lstm1_cont_slice_15_split <- cont_16
I1017 23:52:42.746737 29448 net.cpp:380] cont_16_lstm1_cont_slice_15_split -> cont_16_lstm1_cont_slice_15_split_0
I1017 23:52:42.746744 29448 net.cpp:380] cont_16_lstm1_cont_slice_15_split -> cont_16_lstm1_cont_slice_15_split_1
I1017 23:52:42.746775 29448 net.cpp:122] Setting up cont_16_lstm1_cont_slice_15_split
I1017 23:52:42.746788 29448 net.cpp:129] Top shape: 1 5 (5)
I1017 23:52:42.746793 29448 net.cpp:129] Top shape: 1 5 (5)
I1017 23:52:42.746796 29448 net.cpp:137] Memory required for data: 2036000
I1017 23:52:42.746800 29448 layer_factory.hpp:77] Creating layer cont_17_lstm1_cont_slice_16_split
I1017 23:52:42.746805 29448 net.cpp:84] Creating Layer cont_17_lstm1_cont_slice_16_split
I1017 23:52:42.746809 29448 net.cpp:406] cont_17_lstm1_cont_slice_16_split <- cont_17
I1017 23:52:42.746817 29448 net.cpp:380] cont_17_lstm1_cont_slice_16_split -> cont_17_lstm1_cont_slice_16_split_0
I1017 23:52:42.746824 29448 net.cpp:380] cont_17_lstm1_cont_slice_16_split -> cont_17_lstm1_cont_slice_16_split_1
I1017 23:52:42.746851 29448 net.cpp:122] Setting up cont_17_lstm1_cont_slice_16_split
I1017 23:52:42.746857 29448 net.cpp:129] Top shape: 1 5 (5)
I1017 23:52:42.746862 29448 net.cpp:129] Top shape: 1 5 (5)
I1017 23:52:42.746865 29448 net.cpp:137] Memory required for data: 2036040
I1017 23:52:42.746870 29448 layer_factory.hpp:77] Creating layer cont_18_lstm1_cont_slice_17_split
I1017 23:52:42.746876 29448 net.cpp:84] Creating Layer cont_18_lstm1_cont_slice_17_split
I1017 23:52:42.746881 29448 net.cpp:406] cont_18_lstm1_cont_slice_17_split <- cont_18
I1017 23:52:42.746886 29448 net.cpp:380] cont_18_lstm1_cont_slice_17_split -> cont_18_lstm1_cont_slice_17_split_0
I1017 23:52:42.746893 29448 net.cpp:380] cont_18_lstm1_cont_slice_17_split -> cont_18_lstm1_cont_slice_17_split_1
I1017 23:52:42.746922 29448 net.cpp:122] Setting up cont_18_lstm1_cont_slice_17_split
I1017 23:52:42.746928 29448 net.cpp:129] Top shape: 1 5 (5)
I1017 23:52:42.746932 29448 net.cpp:129] Top shape: 1 5 (5)
I1017 23:52:42.746937 29448 net.cpp:137] Memory required for data: 2036080
I1017 23:52:42.746940 29448 layer_factory.hpp:77] Creating layer cont_19_lstm1_cont_slice_18_split
I1017 23:52:42.746945 29448 net.cpp:84] Creating Layer cont_19_lstm1_cont_slice_18_split
I1017 23:52:42.746949 29448 net.cpp:406] cont_19_lstm1_cont_slice_18_split <- cont_19
I1017 23:52:42.746955 29448 net.cpp:380] cont_19_lstm1_cont_slice_18_split -> cont_19_lstm1_cont_slice_18_split_0
I1017 23:52:42.746961 29448 net.cpp:380] cont_19_lstm1_cont_slice_18_split -> cont_19_lstm1_cont_slice_18_split_1
I1017 23:52:42.746990 29448 net.cpp:122] Setting up cont_19_lstm1_cont_slice_18_split
I1017 23:52:42.746996 29448 net.cpp:129] Top shape: 1 5 (5)
I1017 23:52:42.747001 29448 net.cpp:129] Top shape: 1 5 (5)
I1017 23:52:42.747005 29448 net.cpp:137] Memory required for data: 2036120
I1017 23:52:42.747009 29448 layer_factory.hpp:77] Creating layer cont_20_lstm1_cont_slice_19_split
I1017 23:52:42.747014 29448 net.cpp:84] Creating Layer cont_20_lstm1_cont_slice_19_split
I1017 23:52:42.747017 29448 net.cpp:406] cont_20_lstm1_cont_slice_19_split <- cont_20
I1017 23:52:42.747023 29448 net.cpp:380] cont_20_lstm1_cont_slice_19_split -> cont_20_lstm1_cont_slice_19_split_0
I1017 23:52:42.747032 29448 net.cpp:380] cont_20_lstm1_cont_slice_19_split -> cont_20_lstm1_cont_slice_19_split_1
I1017 23:52:42.747061 29448 net.cpp:122] Setting up cont_20_lstm1_cont_slice_19_split
I1017 23:52:42.747066 29448 net.cpp:129] Top shape: 1 5 (5)
I1017 23:52:42.747071 29448 net.cpp:129] Top shape: 1 5 (5)
I1017 23:52:42.747074 29448 net.cpp:137] Memory required for data: 2036160
I1017 23:52:42.747078 29448 layer_factory.hpp:77] Creating layer cont_21_lstm1_cont_slice_20_split
I1017 23:52:42.747086 29448 net.cpp:84] Creating Layer cont_21_lstm1_cont_slice_20_split
I1017 23:52:42.747090 29448 net.cpp:406] cont_21_lstm1_cont_slice_20_split <- cont_21
I1017 23:52:42.747097 29448 net.cpp:380] cont_21_lstm1_cont_slice_20_split -> cont_21_lstm1_cont_slice_20_split_0
I1017 23:52:42.747102 29448 net.cpp:380] cont_21_lstm1_cont_slice_20_split -> cont_21_lstm1_cont_slice_20_split_1
I1017 23:52:42.747131 29448 net.cpp:122] Setting up cont_21_lstm1_cont_slice_20_split
I1017 23:52:42.747138 29448 net.cpp:129] Top shape: 1 5 (5)
I1017 23:52:42.747143 29448 net.cpp:129] Top shape: 1 5 (5)
I1017 23:52:42.747146 29448 net.cpp:137] Memory required for data: 2036200
I1017 23:52:42.747149 29448 layer_factory.hpp:77] Creating layer cont_22_lstm1_cont_slice_21_split
I1017 23:52:42.747154 29448 net.cpp:84] Creating Layer cont_22_lstm1_cont_slice_21_split
I1017 23:52:42.747159 29448 net.cpp:406] cont_22_lstm1_cont_slice_21_split <- cont_22
I1017 23:52:42.747164 29448 net.cpp:380] cont_22_lstm1_cont_slice_21_split -> cont_22_lstm1_cont_slice_21_split_0
I1017 23:52:42.747171 29448 net.cpp:380] cont_22_lstm1_cont_slice_21_split -> cont_22_lstm1_cont_slice_21_split_1
I1017 23:52:42.747201 29448 net.cpp:122] Setting up cont_22_lstm1_cont_slice_21_split
I1017 23:52:42.747207 29448 net.cpp:129] Top shape: 1 5 (5)
I1017 23:52:42.747211 29448 net.cpp:129] Top shape: 1 5 (5)
I1017 23:52:42.747215 29448 net.cpp:137] Memory required for data: 2036240
I1017 23:52:42.747220 29448 layer_factory.hpp:77] Creating layer cont_23_lstm1_cont_slice_22_split
I1017 23:52:42.747225 29448 net.cpp:84] Creating Layer cont_23_lstm1_cont_slice_22_split
I1017 23:52:42.747228 29448 net.cpp:406] cont_23_lstm1_cont_slice_22_split <- cont_23
I1017 23:52:42.747233 29448 net.cpp:380] cont_23_lstm1_cont_slice_22_split -> cont_23_lstm1_cont_slice_22_split_0
I1017 23:52:42.747241 29448 net.cpp:380] cont_23_lstm1_cont_slice_22_split -> cont_23_lstm1_cont_slice_22_split_1
I1017 23:52:42.747270 29448 net.cpp:122] Setting up cont_23_lstm1_cont_slice_22_split
I1017 23:52:42.747277 29448 net.cpp:129] Top shape: 1 5 (5)
I1017 23:52:42.747282 29448 net.cpp:129] Top shape: 1 5 (5)
I1017 23:52:42.747285 29448 net.cpp:137] Memory required for data: 2036280
I1017 23:52:42.747289 29448 layer_factory.hpp:77] Creating layer cont_24_lstm1_cont_slice_23_split
I1017 23:52:42.747293 29448 net.cpp:84] Creating Layer cont_24_lstm1_cont_slice_23_split
I1017 23:52:42.747298 29448 net.cpp:406] cont_24_lstm1_cont_slice_23_split <- cont_24
I1017 23:52:42.747305 29448 net.cpp:380] cont_24_lstm1_cont_slice_23_split -> cont_24_lstm1_cont_slice_23_split_0
I1017 23:52:42.747313 29448 net.cpp:380] cont_24_lstm1_cont_slice_23_split -> cont_24_lstm1_cont_slice_23_split_1
I1017 23:52:42.747340 29448 net.cpp:122] Setting up cont_24_lstm1_cont_slice_23_split
I1017 23:52:42.747346 29448 net.cpp:129] Top shape: 1 5 (5)
I1017 23:52:42.747350 29448 net.cpp:129] Top shape: 1 5 (5)
I1017 23:52:42.747354 29448 net.cpp:137] Memory required for data: 2036320
I1017 23:52:42.747359 29448 layer_factory.hpp:77] Creating layer cont_25_lstm1_cont_slice_24_split
I1017 23:52:42.747365 29448 net.cpp:84] Creating Layer cont_25_lstm1_cont_slice_24_split
I1017 23:52:42.747370 29448 net.cpp:406] cont_25_lstm1_cont_slice_24_split <- cont_25
I1017 23:52:42.747375 29448 net.cpp:380] cont_25_lstm1_cont_slice_24_split -> cont_25_lstm1_cont_slice_24_split_0
I1017 23:52:42.747381 29448 net.cpp:380] cont_25_lstm1_cont_slice_24_split -> cont_25_lstm1_cont_slice_24_split_1
I1017 23:52:42.747411 29448 net.cpp:122] Setting up cont_25_lstm1_cont_slice_24_split
I1017 23:52:42.747416 29448 net.cpp:129] Top shape: 1 5 (5)
I1017 23:52:42.747421 29448 net.cpp:129] Top shape: 1 5 (5)
I1017 23:52:42.747426 29448 net.cpp:137] Memory required for data: 2036360
I1017 23:52:42.747428 29448 layer_factory.hpp:77] Creating layer cont_26_lstm1_cont_slice_25_split
I1017 23:52:42.747433 29448 net.cpp:84] Creating Layer cont_26_lstm1_cont_slice_25_split
I1017 23:52:42.747437 29448 net.cpp:406] cont_26_lstm1_cont_slice_25_split <- cont_26
I1017 23:52:42.747443 29448 net.cpp:380] cont_26_lstm1_cont_slice_25_split -> cont_26_lstm1_cont_slice_25_split_0
I1017 23:52:42.747450 29448 net.cpp:380] cont_26_lstm1_cont_slice_25_split -> cont_26_lstm1_cont_slice_25_split_1
I1017 23:52:42.747479 29448 net.cpp:122] Setting up cont_26_lstm1_cont_slice_25_split
I1017 23:52:42.747485 29448 net.cpp:129] Top shape: 1 5 (5)
I1017 23:52:42.747489 29448 net.cpp:129] Top shape: 1 5 (5)
I1017 23:52:42.747493 29448 net.cpp:137] Memory required for data: 2036400
I1017 23:52:42.747498 29448 layer_factory.hpp:77] Creating layer cont_27_lstm1_cont_slice_26_split
I1017 23:52:42.747503 29448 net.cpp:84] Creating Layer cont_27_lstm1_cont_slice_26_split
I1017 23:52:42.747506 29448 net.cpp:406] cont_27_lstm1_cont_slice_26_split <- cont_27
I1017 23:52:42.747511 29448 net.cpp:380] cont_27_lstm1_cont_slice_26_split -> cont_27_lstm1_cont_slice_26_split_0
I1017 23:52:42.747520 29448 net.cpp:380] cont_27_lstm1_cont_slice_26_split -> cont_27_lstm1_cont_slice_26_split_1
I1017 23:52:42.747547 29448 net.cpp:122] Setting up cont_27_lstm1_cont_slice_26_split
I1017 23:52:42.747553 29448 net.cpp:129] Top shape: 1 5 (5)
I1017 23:52:42.747558 29448 net.cpp:129] Top shape: 1 5 (5)
I1017 23:52:42.747562 29448 net.cpp:137] Memory required for data: 2036440
I1017 23:52:42.747566 29448 layer_factory.hpp:77] Creating layer cont_28_lstm1_cont_slice_27_split
I1017 23:52:42.747570 29448 net.cpp:84] Creating Layer cont_28_lstm1_cont_slice_27_split
I1017 23:52:42.747575 29448 net.cpp:406] cont_28_lstm1_cont_slice_27_split <- cont_28
I1017 23:52:42.747582 29448 net.cpp:380] cont_28_lstm1_cont_slice_27_split -> cont_28_lstm1_cont_slice_27_split_0
I1017 23:52:42.747588 29448 net.cpp:380] cont_28_lstm1_cont_slice_27_split -> cont_28_lstm1_cont_slice_27_split_1
I1017 23:52:42.747618 29448 net.cpp:122] Setting up cont_28_lstm1_cont_slice_27_split
I1017 23:52:42.747624 29448 net.cpp:129] Top shape: 1 5 (5)
I1017 23:52:42.747628 29448 net.cpp:129] Top shape: 1 5 (5)
I1017 23:52:42.747632 29448 net.cpp:137] Memory required for data: 2036480
I1017 23:52:42.747637 29448 layer_factory.hpp:77] Creating layer cont_29_lstm1_cont_slice_28_split
I1017 23:52:42.747642 29448 net.cpp:84] Creating Layer cont_29_lstm1_cont_slice_28_split
I1017 23:52:42.747645 29448 net.cpp:406] cont_29_lstm1_cont_slice_28_split <- cont_29
I1017 23:52:42.747651 29448 net.cpp:380] cont_29_lstm1_cont_slice_28_split -> cont_29_lstm1_cont_slice_28_split_0
I1017 23:52:42.747673 29448 net.cpp:380] cont_29_lstm1_cont_slice_28_split -> cont_29_lstm1_cont_slice_28_split_1
I1017 23:52:42.747704 29448 net.cpp:122] Setting up cont_29_lstm1_cont_slice_28_split
I1017 23:52:42.747714 29448 net.cpp:129] Top shape: 1 5 (5)
I1017 23:52:42.747719 29448 net.cpp:129] Top shape: 1 5 (5)
I1017 23:52:42.747722 29448 net.cpp:137] Memory required for data: 2036520
I1017 23:52:42.747726 29448 layer_factory.hpp:77] Creating layer cont_30_lstm1_cont_slice_29_split
I1017 23:52:42.747733 29448 net.cpp:84] Creating Layer cont_30_lstm1_cont_slice_29_split
I1017 23:52:42.747738 29448 net.cpp:406] cont_30_lstm1_cont_slice_29_split <- cont_30
I1017 23:52:42.747745 29448 net.cpp:380] cont_30_lstm1_cont_slice_29_split -> cont_30_lstm1_cont_slice_29_split_0
I1017 23:52:42.747751 29448 net.cpp:380] cont_30_lstm1_cont_slice_29_split -> cont_30_lstm1_cont_slice_29_split_1
I1017 23:52:42.747781 29448 net.cpp:122] Setting up cont_30_lstm1_cont_slice_29_split
I1017 23:52:42.747787 29448 net.cpp:129] Top shape: 1 5 (5)
I1017 23:52:42.747792 29448 net.cpp:129] Top shape: 1 5 (5)
I1017 23:52:42.747797 29448 net.cpp:137] Memory required for data: 2036560
I1017 23:52:42.747800 29448 layer_factory.hpp:77] Creating layer cont_31_lstm1_cont_slice_30_split
I1017 23:52:42.747805 29448 net.cpp:84] Creating Layer cont_31_lstm1_cont_slice_30_split
I1017 23:52:42.747809 29448 net.cpp:406] cont_31_lstm1_cont_slice_30_split <- cont_31
I1017 23:52:42.747817 29448 net.cpp:380] cont_31_lstm1_cont_slice_30_split -> cont_31_lstm1_cont_slice_30_split_0
I1017 23:52:42.747824 29448 net.cpp:380] cont_31_lstm1_cont_slice_30_split -> cont_31_lstm1_cont_slice_30_split_1
I1017 23:52:42.747853 29448 net.cpp:122] Setting up cont_31_lstm1_cont_slice_30_split
I1017 23:52:42.747859 29448 net.cpp:129] Top shape: 1 5 (5)
I1017 23:52:42.747862 29448 net.cpp:129] Top shape: 1 5 (5)
I1017 23:52:42.747866 29448 net.cpp:137] Memory required for data: 2036600
I1017 23:52:42.747870 29448 layer_factory.hpp:77] Creating layer cont_32_lstm1_cont_slice_31_split
I1017 23:52:42.747877 29448 net.cpp:84] Creating Layer cont_32_lstm1_cont_slice_31_split
I1017 23:52:42.747881 29448 net.cpp:406] cont_32_lstm1_cont_slice_31_split <- cont_32
I1017 23:52:42.747887 29448 net.cpp:380] cont_32_lstm1_cont_slice_31_split -> cont_32_lstm1_cont_slice_31_split_0
I1017 23:52:42.747894 29448 net.cpp:380] cont_32_lstm1_cont_slice_31_split -> cont_32_lstm1_cont_slice_31_split_1
I1017 23:52:42.747923 29448 net.cpp:122] Setting up cont_32_lstm1_cont_slice_31_split
I1017 23:52:42.747930 29448 net.cpp:129] Top shape: 1 5 (5)
I1017 23:52:42.747933 29448 net.cpp:129] Top shape: 1 5 (5)
I1017 23:52:42.747937 29448 net.cpp:137] Memory required for data: 2036640
I1017 23:52:42.747941 29448 layer_factory.hpp:77] Creating layer cont_33_lstm1_cont_slice_32_split
I1017 23:52:42.747946 29448 net.cpp:84] Creating Layer cont_33_lstm1_cont_slice_32_split
I1017 23:52:42.747951 29448 net.cpp:406] cont_33_lstm1_cont_slice_32_split <- cont_33
I1017 23:52:42.747956 29448 net.cpp:380] cont_33_lstm1_cont_slice_32_split -> cont_33_lstm1_cont_slice_32_split_0
I1017 23:52:42.747961 29448 net.cpp:380] cont_33_lstm1_cont_slice_32_split -> cont_33_lstm1_cont_slice_32_split_1
I1017 23:52:42.747992 29448 net.cpp:122] Setting up cont_33_lstm1_cont_slice_32_split
I1017 23:52:42.747998 29448 net.cpp:129] Top shape: 1 5 (5)
I1017 23:52:42.748003 29448 net.cpp:129] Top shape: 1 5 (5)
I1017 23:52:42.748008 29448 net.cpp:137] Memory required for data: 2036680
I1017 23:52:42.748011 29448 layer_factory.hpp:77] Creating layer cont_34_lstm1_cont_slice_33_split
I1017 23:52:42.748015 29448 net.cpp:84] Creating Layer cont_34_lstm1_cont_slice_33_split
I1017 23:52:42.748020 29448 net.cpp:406] cont_34_lstm1_cont_slice_33_split <- cont_34
I1017 23:52:42.748049 29448 net.cpp:380] cont_34_lstm1_cont_slice_33_split -> cont_34_lstm1_cont_slice_33_split_0
I1017 23:52:42.748059 29448 net.cpp:380] cont_34_lstm1_cont_slice_33_split -> cont_34_lstm1_cont_slice_33_split_1
I1017 23:52:42.748096 29448 net.cpp:122] Setting up cont_34_lstm1_cont_slice_33_split
I1017 23:52:42.748102 29448 net.cpp:129] Top shape: 1 5 (5)
I1017 23:52:42.748107 29448 net.cpp:129] Top shape: 1 5 (5)
I1017 23:52:42.748111 29448 net.cpp:137] Memory required for data: 2036720
I1017 23:52:42.748116 29448 layer_factory.hpp:77] Creating layer cont_35_lstm1_cont_slice_34_split
I1017 23:52:42.748121 29448 net.cpp:84] Creating Layer cont_35_lstm1_cont_slice_34_split
I1017 23:52:42.748126 29448 net.cpp:406] cont_35_lstm1_cont_slice_34_split <- cont_35
I1017 23:52:42.748136 29448 net.cpp:380] cont_35_lstm1_cont_slice_34_split -> cont_35_lstm1_cont_slice_34_split_0
I1017 23:52:42.748142 29448 net.cpp:380] cont_35_lstm1_cont_slice_34_split -> cont_35_lstm1_cont_slice_34_split_1
I1017 23:52:42.748170 29448 net.cpp:122] Setting up cont_35_lstm1_cont_slice_34_split
I1017 23:52:42.748176 29448 net.cpp:129] Top shape: 1 5 (5)
I1017 23:52:42.748181 29448 net.cpp:129] Top shape: 1 5 (5)
I1017 23:52:42.748185 29448 net.cpp:137] Memory required for data: 2036760
I1017 23:52:42.748188 29448 layer_factory.hpp:77] Creating layer cont_36_lstm1_cont_slice_35_split
I1017 23:52:42.748195 29448 net.cpp:84] Creating Layer cont_36_lstm1_cont_slice_35_split
I1017 23:52:42.748199 29448 net.cpp:406] cont_36_lstm1_cont_slice_35_split <- cont_36
I1017 23:52:42.748205 29448 net.cpp:380] cont_36_lstm1_cont_slice_35_split -> cont_36_lstm1_cont_slice_35_split_0
I1017 23:52:42.748211 29448 net.cpp:380] cont_36_lstm1_cont_slice_35_split -> cont_36_lstm1_cont_slice_35_split_1
I1017 23:52:42.748242 29448 net.cpp:122] Setting up cont_36_lstm1_cont_slice_35_split
I1017 23:52:42.748247 29448 net.cpp:129] Top shape: 1 5 (5)
I1017 23:52:42.748252 29448 net.cpp:129] Top shape: 1 5 (5)
I1017 23:52:42.748256 29448 net.cpp:137] Memory required for data: 2036800
I1017 23:52:42.748260 29448 layer_factory.hpp:77] Creating layer cont_37_lstm1_cont_slice_36_split
I1017 23:52:42.748265 29448 net.cpp:84] Creating Layer cont_37_lstm1_cont_slice_36_split
I1017 23:52:42.748268 29448 net.cpp:406] cont_37_lstm1_cont_slice_36_split <- cont_37
I1017 23:52:42.748275 29448 net.cpp:380] cont_37_lstm1_cont_slice_36_split -> cont_37_lstm1_cont_slice_36_split_0
I1017 23:52:42.748281 29448 net.cpp:380] cont_37_lstm1_cont_slice_36_split -> cont_37_lstm1_cont_slice_36_split_1
I1017 23:52:42.748311 29448 net.cpp:122] Setting up cont_37_lstm1_cont_slice_36_split
I1017 23:52:42.748317 29448 net.cpp:129] Top shape: 1 5 (5)
I1017 23:52:42.748322 29448 net.cpp:129] Top shape: 1 5 (5)
I1017 23:52:42.748325 29448 net.cpp:137] Memory required for data: 2036840
I1017 23:52:42.748329 29448 layer_factory.hpp:77] Creating layer cont_38_lstm1_cont_slice_37_split
I1017 23:52:42.748334 29448 net.cpp:84] Creating Layer cont_38_lstm1_cont_slice_37_split
I1017 23:52:42.748338 29448 net.cpp:406] cont_38_lstm1_cont_slice_37_split <- cont_38
I1017 23:52:42.748344 29448 net.cpp:380] cont_38_lstm1_cont_slice_37_split -> cont_38_lstm1_cont_slice_37_split_0
I1017 23:52:42.748358 29448 net.cpp:380] cont_38_lstm1_cont_slice_37_split -> cont_38_lstm1_cont_slice_37_split_1
I1017 23:52:42.748385 29448 net.cpp:122] Setting up cont_38_lstm1_cont_slice_37_split
I1017 23:52:42.748391 29448 net.cpp:129] Top shape: 1 5 (5)
I1017 23:52:42.748395 29448 net.cpp:129] Top shape: 1 5 (5)
I1017 23:52:42.748399 29448 net.cpp:137] Memory required for data: 2036880
I1017 23:52:42.748404 29448 layer_factory.hpp:77] Creating layer cont_39_lstm1_cont_slice_38_split
I1017 23:52:42.748409 29448 net.cpp:84] Creating Layer cont_39_lstm1_cont_slice_38_split
I1017 23:52:42.748414 29448 net.cpp:406] cont_39_lstm1_cont_slice_38_split <- cont_39
I1017 23:52:42.748420 29448 net.cpp:380] cont_39_lstm1_cont_slice_38_split -> cont_39_lstm1_cont_slice_38_split_0
I1017 23:52:42.748426 29448 net.cpp:380] cont_39_lstm1_cont_slice_38_split -> cont_39_lstm1_cont_slice_38_split_1
I1017 23:52:42.748456 29448 net.cpp:122] Setting up cont_39_lstm1_cont_slice_38_split
I1017 23:52:42.748461 29448 net.cpp:129] Top shape: 1 5 (5)
I1017 23:52:42.748466 29448 net.cpp:129] Top shape: 1 5 (5)
I1017 23:52:42.748471 29448 net.cpp:137] Memory required for data: 2036920
I1017 23:52:42.748474 29448 layer_factory.hpp:77] Creating layer cont_40_lstm1_cont_slice_39_split
I1017 23:52:42.748478 29448 net.cpp:84] Creating Layer cont_40_lstm1_cont_slice_39_split
I1017 23:52:42.748483 29448 net.cpp:406] cont_40_lstm1_cont_slice_39_split <- cont_40
I1017 23:52:42.748489 29448 net.cpp:380] cont_40_lstm1_cont_slice_39_split -> cont_40_lstm1_cont_slice_39_split_0
I1017 23:52:42.748495 29448 net.cpp:380] cont_40_lstm1_cont_slice_39_split -> cont_40_lstm1_cont_slice_39_split_1
I1017 23:52:42.748528 29448 net.cpp:122] Setting up cont_40_lstm1_cont_slice_39_split
I1017 23:52:42.748534 29448 net.cpp:129] Top shape: 1 5 (5)
I1017 23:52:42.748539 29448 net.cpp:129] Top shape: 1 5 (5)
I1017 23:52:42.748543 29448 net.cpp:137] Memory required for data: 2036960
I1017 23:52:42.748548 29448 layer_factory.hpp:77] Creating layer cont_41_lstm1_cont_slice_40_split
I1017 23:52:42.748553 29448 net.cpp:84] Creating Layer cont_41_lstm1_cont_slice_40_split
I1017 23:52:42.748556 29448 net.cpp:406] cont_41_lstm1_cont_slice_40_split <- cont_41
I1017 23:52:42.748562 29448 net.cpp:380] cont_41_lstm1_cont_slice_40_split -> cont_41_lstm1_cont_slice_40_split_0
I1017 23:52:42.748569 29448 net.cpp:380] cont_41_lstm1_cont_slice_40_split -> cont_41_lstm1_cont_slice_40_split_1
I1017 23:52:42.748600 29448 net.cpp:122] Setting up cont_41_lstm1_cont_slice_40_split
I1017 23:52:42.748606 29448 net.cpp:129] Top shape: 1 5 (5)
I1017 23:52:42.748611 29448 net.cpp:129] Top shape: 1 5 (5)
I1017 23:52:42.748615 29448 net.cpp:137] Memory required for data: 2037000
I1017 23:52:42.748618 29448 layer_factory.hpp:77] Creating layer cont_42_lstm1_cont_slice_41_split
I1017 23:52:42.748623 29448 net.cpp:84] Creating Layer cont_42_lstm1_cont_slice_41_split
I1017 23:52:42.748627 29448 net.cpp:406] cont_42_lstm1_cont_slice_41_split <- cont_42
I1017 23:52:42.748636 29448 net.cpp:380] cont_42_lstm1_cont_slice_41_split -> cont_42_lstm1_cont_slice_41_split_0
I1017 23:52:42.748641 29448 net.cpp:380] cont_42_lstm1_cont_slice_41_split -> cont_42_lstm1_cont_slice_41_split_1
I1017 23:52:42.748669 29448 net.cpp:122] Setting up cont_42_lstm1_cont_slice_41_split
I1017 23:52:42.748675 29448 net.cpp:129] Top shape: 1 5 (5)
I1017 23:52:42.748680 29448 net.cpp:129] Top shape: 1 5 (5)
I1017 23:52:42.748684 29448 net.cpp:137] Memory required for data: 2037040
I1017 23:52:42.748688 29448 layer_factory.hpp:77] Creating layer cont_43_lstm1_cont_slice_42_split
I1017 23:52:42.748694 29448 net.cpp:84] Creating Layer cont_43_lstm1_cont_slice_42_split
I1017 23:52:42.748698 29448 net.cpp:406] cont_43_lstm1_cont_slice_42_split <- cont_43
I1017 23:52:42.748704 29448 net.cpp:380] cont_43_lstm1_cont_slice_42_split -> cont_43_lstm1_cont_slice_42_split_0
I1017 23:52:42.748711 29448 net.cpp:380] cont_43_lstm1_cont_slice_42_split -> cont_43_lstm1_cont_slice_42_split_1
I1017 23:52:42.748741 29448 net.cpp:122] Setting up cont_43_lstm1_cont_slice_42_split
I1017 23:52:42.748746 29448 net.cpp:129] Top shape: 1 5 (5)
I1017 23:52:42.748751 29448 net.cpp:129] Top shape: 1 5 (5)
I1017 23:52:42.748755 29448 net.cpp:137] Memory required for data: 2037080
I1017 23:52:42.748759 29448 layer_factory.hpp:77] Creating layer cont_44_lstm1_cont_slice_43_split
I1017 23:52:42.748764 29448 net.cpp:84] Creating Layer cont_44_lstm1_cont_slice_43_split
I1017 23:52:42.748769 29448 net.cpp:406] cont_44_lstm1_cont_slice_43_split <- cont_44
I1017 23:52:42.748773 29448 net.cpp:380] cont_44_lstm1_cont_slice_43_split -> cont_44_lstm1_cont_slice_43_split_0
I1017 23:52:42.748780 29448 net.cpp:380] cont_44_lstm1_cont_slice_43_split -> cont_44_lstm1_cont_slice_43_split_1
I1017 23:52:42.748811 29448 net.cpp:122] Setting up cont_44_lstm1_cont_slice_43_split
I1017 23:52:42.748816 29448 net.cpp:129] Top shape: 1 5 (5)
I1017 23:52:42.748821 29448 net.cpp:129] Top shape: 1 5 (5)
I1017 23:52:42.748826 29448 net.cpp:137] Memory required for data: 2037120
I1017 23:52:42.748828 29448 layer_factory.hpp:77] Creating layer cont_45_lstm1_cont_slice_44_split
I1017 23:52:42.748833 29448 net.cpp:84] Creating Layer cont_45_lstm1_cont_slice_44_split
I1017 23:52:42.748837 29448 net.cpp:406] cont_45_lstm1_cont_slice_44_split <- cont_45
I1017 23:52:42.748843 29448 net.cpp:380] cont_45_lstm1_cont_slice_44_split -> cont_45_lstm1_cont_slice_44_split_0
I1017 23:52:42.748852 29448 net.cpp:380] cont_45_lstm1_cont_slice_44_split -> cont_45_lstm1_cont_slice_44_split_1
I1017 23:52:42.748879 29448 net.cpp:122] Setting up cont_45_lstm1_cont_slice_44_split
I1017 23:52:42.748885 29448 net.cpp:129] Top shape: 1 5 (5)
I1017 23:52:42.748889 29448 net.cpp:129] Top shape: 1 5 (5)
I1017 23:52:42.748893 29448 net.cpp:137] Memory required for data: 2037160
I1017 23:52:42.748898 29448 layer_factory.hpp:77] Creating layer cont_46_lstm1_cont_slice_45_split
I1017 23:52:42.748903 29448 net.cpp:84] Creating Layer cont_46_lstm1_cont_slice_45_split
I1017 23:52:42.748908 29448 net.cpp:406] cont_46_lstm1_cont_slice_45_split <- cont_46
I1017 23:52:42.748914 29448 net.cpp:380] cont_46_lstm1_cont_slice_45_split -> cont_46_lstm1_cont_slice_45_split_0
I1017 23:52:42.748919 29448 net.cpp:380] cont_46_lstm1_cont_slice_45_split -> cont_46_lstm1_cont_slice_45_split_1
I1017 23:52:42.748950 29448 net.cpp:122] Setting up cont_46_lstm1_cont_slice_45_split
I1017 23:52:42.748955 29448 net.cpp:129] Top shape: 1 5 (5)
I1017 23:52:42.748960 29448 net.cpp:129] Top shape: 1 5 (5)
I1017 23:52:42.748963 29448 net.cpp:137] Memory required for data: 2037200
I1017 23:52:42.748967 29448 layer_factory.hpp:77] Creating layer cont_47_lstm1_cont_slice_46_split
I1017 23:52:42.748971 29448 net.cpp:84] Creating Layer cont_47_lstm1_cont_slice_46_split
I1017 23:52:42.748976 29448 net.cpp:406] cont_47_lstm1_cont_slice_46_split <- cont_47
I1017 23:52:42.748981 29448 net.cpp:380] cont_47_lstm1_cont_slice_46_split -> cont_47_lstm1_cont_slice_46_split_0
I1017 23:52:42.748987 29448 net.cpp:380] cont_47_lstm1_cont_slice_46_split -> cont_47_lstm1_cont_slice_46_split_1
I1017 23:52:42.749017 29448 net.cpp:122] Setting up cont_47_lstm1_cont_slice_46_split
I1017 23:52:42.749023 29448 net.cpp:129] Top shape: 1 5 (5)
I1017 23:52:42.749027 29448 net.cpp:129] Top shape: 1 5 (5)
I1017 23:52:42.749032 29448 net.cpp:137] Memory required for data: 2037240
I1017 23:52:42.749035 29448 layer_factory.hpp:77] Creating layer cont_48_lstm1_cont_slice_47_split
I1017 23:52:42.749039 29448 net.cpp:84] Creating Layer cont_48_lstm1_cont_slice_47_split
I1017 23:52:42.749044 29448 net.cpp:406] cont_48_lstm1_cont_slice_47_split <- cont_48
I1017 23:52:42.749049 29448 net.cpp:380] cont_48_lstm1_cont_slice_47_split -> cont_48_lstm1_cont_slice_47_split_0
I1017 23:52:42.749056 29448 net.cpp:380] cont_48_lstm1_cont_slice_47_split -> cont_48_lstm1_cont_slice_47_split_1
I1017 23:52:42.749086 29448 net.cpp:122] Setting up cont_48_lstm1_cont_slice_47_split
I1017 23:52:42.749092 29448 net.cpp:129] Top shape: 1 5 (5)
I1017 23:52:42.749096 29448 net.cpp:129] Top shape: 1 5 (5)
I1017 23:52:42.749100 29448 net.cpp:137] Memory required for data: 2037280
I1017 23:52:42.749104 29448 layer_factory.hpp:77] Creating layer cont_49_lstm1_cont_slice_48_split
I1017 23:52:42.749109 29448 net.cpp:84] Creating Layer cont_49_lstm1_cont_slice_48_split
I1017 23:52:42.749114 29448 net.cpp:406] cont_49_lstm1_cont_slice_48_split <- cont_49
I1017 23:52:42.749121 29448 net.cpp:380] cont_49_lstm1_cont_slice_48_split -> cont_49_lstm1_cont_slice_48_split_0
I1017 23:52:42.749128 29448 net.cpp:380] cont_49_lstm1_cont_slice_48_split -> cont_49_lstm1_cont_slice_48_split_1
I1017 23:52:42.749155 29448 net.cpp:122] Setting up cont_49_lstm1_cont_slice_48_split
I1017 23:52:42.749161 29448 net.cpp:129] Top shape: 1 5 (5)
I1017 23:52:42.749166 29448 net.cpp:129] Top shape: 1 5 (5)
I1017 23:52:42.749169 29448 net.cpp:137] Memory required for data: 2037320
I1017 23:52:42.749173 29448 layer_factory.hpp:77] Creating layer cont_50_lstm1_cont_slice_49_split
I1017 23:52:42.749181 29448 net.cpp:84] Creating Layer cont_50_lstm1_cont_slice_49_split
I1017 23:52:42.749184 29448 net.cpp:406] cont_50_lstm1_cont_slice_49_split <- cont_50
I1017 23:52:42.749191 29448 net.cpp:380] cont_50_lstm1_cont_slice_49_split -> cont_50_lstm1_cont_slice_49_split_0
I1017 23:52:42.749197 29448 net.cpp:380] cont_50_lstm1_cont_slice_49_split -> cont_50_lstm1_cont_slice_49_split_1
I1017 23:52:42.749225 29448 net.cpp:122] Setting up cont_50_lstm1_cont_slice_49_split
I1017 23:52:42.749231 29448 net.cpp:129] Top shape: 1 5 (5)
I1017 23:52:42.749236 29448 net.cpp:129] Top shape: 1 5 (5)
I1017 23:52:42.749240 29448 net.cpp:137] Memory required for data: 2037360
I1017 23:52:42.749244 29448 layer_factory.hpp:77] Creating layer cont_51_lstm1_cont_slice_50_split
I1017 23:52:42.749248 29448 net.cpp:84] Creating Layer cont_51_lstm1_cont_slice_50_split
I1017 23:52:42.749253 29448 net.cpp:406] cont_51_lstm1_cont_slice_50_split <- cont_51
I1017 23:52:42.749259 29448 net.cpp:380] cont_51_lstm1_cont_slice_50_split -> cont_51_lstm1_cont_slice_50_split_0
I1017 23:52:42.749265 29448 net.cpp:380] cont_51_lstm1_cont_slice_50_split -> cont_51_lstm1_cont_slice_50_split_1
I1017 23:52:42.749294 29448 net.cpp:122] Setting up cont_51_lstm1_cont_slice_50_split
I1017 23:52:42.749300 29448 net.cpp:129] Top shape: 1 5 (5)
I1017 23:52:42.749305 29448 net.cpp:129] Top shape: 1 5 (5)
I1017 23:52:42.749310 29448 net.cpp:137] Memory required for data: 2037400
I1017 23:52:42.749312 29448 layer_factory.hpp:77] Creating layer cont_52_lstm1_cont_slice_51_split
I1017 23:52:42.749317 29448 net.cpp:84] Creating Layer cont_52_lstm1_cont_slice_51_split
I1017 23:52:42.749321 29448 net.cpp:406] cont_52_lstm1_cont_slice_51_split <- cont_52
I1017 23:52:42.749327 29448 net.cpp:380] cont_52_lstm1_cont_slice_51_split -> cont_52_lstm1_cont_slice_51_split_0
I1017 23:52:42.749333 29448 net.cpp:380] cont_52_lstm1_cont_slice_51_split -> cont_52_lstm1_cont_slice_51_split_1
I1017 23:52:42.749363 29448 net.cpp:122] Setting up cont_52_lstm1_cont_slice_51_split
I1017 23:52:42.749369 29448 net.cpp:129] Top shape: 1 5 (5)
I1017 23:52:42.749374 29448 net.cpp:129] Top shape: 1 5 (5)
I1017 23:52:42.749378 29448 net.cpp:137] Memory required for data: 2037440
I1017 23:52:42.749382 29448 layer_factory.hpp:77] Creating layer cont_53_lstm1_cont_slice_52_split
I1017 23:52:42.749387 29448 net.cpp:84] Creating Layer cont_53_lstm1_cont_slice_52_split
I1017 23:52:42.749392 29448 net.cpp:406] cont_53_lstm1_cont_slice_52_split <- cont_53
I1017 23:52:42.749398 29448 net.cpp:380] cont_53_lstm1_cont_slice_52_split -> cont_53_lstm1_cont_slice_52_split_0
I1017 23:52:42.749405 29448 net.cpp:380] cont_53_lstm1_cont_slice_52_split -> cont_53_lstm1_cont_slice_52_split_1
I1017 23:52:42.749435 29448 net.cpp:122] Setting up cont_53_lstm1_cont_slice_52_split
I1017 23:52:42.749441 29448 net.cpp:129] Top shape: 1 5 (5)
I1017 23:52:42.749445 29448 net.cpp:129] Top shape: 1 5 (5)
I1017 23:52:42.749449 29448 net.cpp:137] Memory required for data: 2037480
I1017 23:52:42.749454 29448 layer_factory.hpp:77] Creating layer cont_54_lstm1_cont_slice_53_split
I1017 23:52:42.749459 29448 net.cpp:84] Creating Layer cont_54_lstm1_cont_slice_53_split
I1017 23:52:42.749462 29448 net.cpp:406] cont_54_lstm1_cont_slice_53_split <- cont_54
I1017 23:52:42.749469 29448 net.cpp:380] cont_54_lstm1_cont_slice_53_split -> cont_54_lstm1_cont_slice_53_split_0
I1017 23:52:42.749475 29448 net.cpp:380] cont_54_lstm1_cont_slice_53_split -> cont_54_lstm1_cont_slice_53_split_1
I1017 23:52:42.749503 29448 net.cpp:122] Setting up cont_54_lstm1_cont_slice_53_split
I1017 23:52:42.749510 29448 net.cpp:129] Top shape: 1 5 (5)
I1017 23:52:42.749514 29448 net.cpp:129] Top shape: 1 5 (5)
I1017 23:52:42.749518 29448 net.cpp:137] Memory required for data: 2037520
I1017 23:52:42.749522 29448 layer_factory.hpp:77] Creating layer cont_55_lstm1_cont_slice_54_split
I1017 23:52:42.749526 29448 net.cpp:84] Creating Layer cont_55_lstm1_cont_slice_54_split
I1017 23:52:42.749531 29448 net.cpp:406] cont_55_lstm1_cont_slice_54_split <- cont_55
I1017 23:52:42.749536 29448 net.cpp:380] cont_55_lstm1_cont_slice_54_split -> cont_55_lstm1_cont_slice_54_split_0
I1017 23:52:42.749543 29448 net.cpp:380] cont_55_lstm1_cont_slice_54_split -> cont_55_lstm1_cont_slice_54_split_1
I1017 23:52:42.749572 29448 net.cpp:122] Setting up cont_55_lstm1_cont_slice_54_split
I1017 23:52:42.749578 29448 net.cpp:129] Top shape: 1 5 (5)
I1017 23:52:42.749583 29448 net.cpp:129] Top shape: 1 5 (5)
I1017 23:52:42.749588 29448 net.cpp:137] Memory required for data: 2037560
I1017 23:52:42.749591 29448 layer_factory.hpp:77] Creating layer cont_56_lstm1_cont_slice_55_split
I1017 23:52:42.749596 29448 net.cpp:84] Creating Layer cont_56_lstm1_cont_slice_55_split
I1017 23:52:42.749600 29448 net.cpp:406] cont_56_lstm1_cont_slice_55_split <- cont_56
I1017 23:52:42.749608 29448 net.cpp:380] cont_56_lstm1_cont_slice_55_split -> cont_56_lstm1_cont_slice_55_split_0
I1017 23:52:42.749614 29448 net.cpp:380] cont_56_lstm1_cont_slice_55_split -> cont_56_lstm1_cont_slice_55_split_1
I1017 23:52:42.749641 29448 net.cpp:122] Setting up cont_56_lstm1_cont_slice_55_split
I1017 23:52:42.749647 29448 net.cpp:129] Top shape: 1 5 (5)
I1017 23:52:42.749652 29448 net.cpp:129] Top shape: 1 5 (5)
I1017 23:52:42.749656 29448 net.cpp:137] Memory required for data: 2037600
I1017 23:52:42.749660 29448 layer_factory.hpp:77] Creating layer cont_57_lstm1_cont_slice_56_split
I1017 23:52:42.749667 29448 net.cpp:84] Creating Layer cont_57_lstm1_cont_slice_56_split
I1017 23:52:42.749671 29448 net.cpp:406] cont_57_lstm1_cont_slice_56_split <- cont_57
I1017 23:52:42.749677 29448 net.cpp:380] cont_57_lstm1_cont_slice_56_split -> cont_57_lstm1_cont_slice_56_split_0
I1017 23:52:42.749683 29448 net.cpp:380] cont_57_lstm1_cont_slice_56_split -> cont_57_lstm1_cont_slice_56_split_1
I1017 23:52:42.749712 29448 net.cpp:122] Setting up cont_57_lstm1_cont_slice_56_split
I1017 23:52:42.749718 29448 net.cpp:129] Top shape: 1 5 (5)
I1017 23:52:42.749723 29448 net.cpp:129] Top shape: 1 5 (5)
I1017 23:52:42.749727 29448 net.cpp:137] Memory required for data: 2037640
I1017 23:52:42.749732 29448 layer_factory.hpp:77] Creating layer cont_58_lstm1_cont_slice_57_split
I1017 23:52:42.749735 29448 net.cpp:84] Creating Layer cont_58_lstm1_cont_slice_57_split
I1017 23:52:42.749740 29448 net.cpp:406] cont_58_lstm1_cont_slice_57_split <- cont_58
I1017 23:52:42.749745 29448 net.cpp:380] cont_58_lstm1_cont_slice_57_split -> cont_58_lstm1_cont_slice_57_split_0
I1017 23:52:42.749752 29448 net.cpp:380] cont_58_lstm1_cont_slice_57_split -> cont_58_lstm1_cont_slice_57_split_1
I1017 23:52:42.749781 29448 net.cpp:122] Setting up cont_58_lstm1_cont_slice_57_split
I1017 23:52:42.749788 29448 net.cpp:129] Top shape: 1 5 (5)
I1017 23:52:42.749792 29448 net.cpp:129] Top shape: 1 5 (5)
I1017 23:52:42.749796 29448 net.cpp:137] Memory required for data: 2037680
I1017 23:52:42.749800 29448 layer_factory.hpp:77] Creating layer cont_59_lstm1_cont_slice_58_split
I1017 23:52:42.749804 29448 net.cpp:84] Creating Layer cont_59_lstm1_cont_slice_58_split
I1017 23:52:42.749809 29448 net.cpp:406] cont_59_lstm1_cont_slice_58_split <- cont_59
I1017 23:52:42.749814 29448 net.cpp:380] cont_59_lstm1_cont_slice_58_split -> cont_59_lstm1_cont_slice_58_split_0
I1017 23:52:42.749821 29448 net.cpp:380] cont_59_lstm1_cont_slice_58_split -> cont_59_lstm1_cont_slice_58_split_1
I1017 23:52:42.749852 29448 net.cpp:122] Setting up cont_59_lstm1_cont_slice_58_split
I1017 23:52:42.749858 29448 net.cpp:129] Top shape: 1 5 (5)
I1017 23:52:42.749863 29448 net.cpp:129] Top shape: 1 5 (5)
I1017 23:52:42.749867 29448 net.cpp:137] Memory required for data: 2037720
I1017 23:52:42.749871 29448 layer_factory.hpp:77] Creating layer cont_60_lstm1_cont_slice_59_split
I1017 23:52:42.749876 29448 net.cpp:84] Creating Layer cont_60_lstm1_cont_slice_59_split
I1017 23:52:42.749881 29448 net.cpp:406] cont_60_lstm1_cont_slice_59_split <- cont_60
I1017 23:52:42.749887 29448 net.cpp:380] cont_60_lstm1_cont_slice_59_split -> cont_60_lstm1_cont_slice_59_split_0
I1017 23:52:42.749894 29448 net.cpp:380] cont_60_lstm1_cont_slice_59_split -> cont_60_lstm1_cont_slice_59_split_1
I1017 23:52:42.749922 29448 net.cpp:122] Setting up cont_60_lstm1_cont_slice_59_split
I1017 23:52:42.749928 29448 net.cpp:129] Top shape: 1 5 (5)
I1017 23:52:42.749933 29448 net.cpp:129] Top shape: 1 5 (5)
I1017 23:52:42.749936 29448 net.cpp:137] Memory required for data: 2037760
I1017 23:52:42.749940 29448 layer_factory.hpp:77] Creating layer cont_61_lstm1_cont_slice_60_split
I1017 23:52:42.749948 29448 net.cpp:84] Creating Layer cont_61_lstm1_cont_slice_60_split
I1017 23:52:42.749951 29448 net.cpp:406] cont_61_lstm1_cont_slice_60_split <- cont_61
I1017 23:52:42.749958 29448 net.cpp:380] cont_61_lstm1_cont_slice_60_split -> cont_61_lstm1_cont_slice_60_split_0
I1017 23:52:42.749963 29448 net.cpp:380] cont_61_lstm1_cont_slice_60_split -> cont_61_lstm1_cont_slice_60_split_1
I1017 23:52:42.749994 29448 net.cpp:122] Setting up cont_61_lstm1_cont_slice_60_split
I1017 23:52:42.750000 29448 net.cpp:129] Top shape: 1 5 (5)
I1017 23:52:42.750003 29448 net.cpp:129] Top shape: 1 5 (5)
I1017 23:52:42.750007 29448 net.cpp:137] Memory required for data: 2037800
I1017 23:52:42.750011 29448 layer_factory.hpp:77] Creating layer cont_62_lstm1_cont_slice_61_split
I1017 23:52:42.750020 29448 net.cpp:84] Creating Layer cont_62_lstm1_cont_slice_61_split
I1017 23:52:42.750025 29448 net.cpp:406] cont_62_lstm1_cont_slice_61_split <- cont_62
I1017 23:52:42.750032 29448 net.cpp:380] cont_62_lstm1_cont_slice_61_split -> cont_62_lstm1_cont_slice_61_split_0
I1017 23:52:42.750039 29448 net.cpp:380] cont_62_lstm1_cont_slice_61_split -> cont_62_lstm1_cont_slice_61_split_1
I1017 23:52:42.750067 29448 net.cpp:122] Setting up cont_62_lstm1_cont_slice_61_split
I1017 23:52:42.750073 29448 net.cpp:129] Top shape: 1 5 (5)
I1017 23:52:42.750078 29448 net.cpp:129] Top shape: 1 5 (5)
I1017 23:52:42.750082 29448 net.cpp:137] Memory required for data: 2037840
I1017 23:52:42.750087 29448 layer_factory.hpp:77] Creating layer cont_63_lstm1_cont_slice_62_split
I1017 23:52:42.750093 29448 net.cpp:84] Creating Layer cont_63_lstm1_cont_slice_62_split
I1017 23:52:42.750098 29448 net.cpp:406] cont_63_lstm1_cont_slice_62_split <- cont_63
I1017 23:52:42.750103 29448 net.cpp:380] cont_63_lstm1_cont_slice_62_split -> cont_63_lstm1_cont_slice_62_split_0
I1017 23:52:42.750110 29448 net.cpp:380] cont_63_lstm1_cont_slice_62_split -> cont_63_lstm1_cont_slice_62_split_1
I1017 23:52:42.750139 29448 net.cpp:122] Setting up cont_63_lstm1_cont_slice_62_split
I1017 23:52:42.750145 29448 net.cpp:129] Top shape: 1 5 (5)
I1017 23:52:42.750150 29448 net.cpp:129] Top shape: 1 5 (5)
I1017 23:52:42.750154 29448 net.cpp:137] Memory required for data: 2037880
I1017 23:52:42.750159 29448 layer_factory.hpp:77] Creating layer cont_64_lstm1_cont_slice_63_split
I1017 23:52:42.750164 29448 net.cpp:84] Creating Layer cont_64_lstm1_cont_slice_63_split
I1017 23:52:42.750167 29448 net.cpp:406] cont_64_lstm1_cont_slice_63_split <- cont_64
I1017 23:52:42.750174 29448 net.cpp:380] cont_64_lstm1_cont_slice_63_split -> cont_64_lstm1_cont_slice_63_split_0
I1017 23:52:42.750180 29448 net.cpp:380] cont_64_lstm1_cont_slice_63_split -> cont_64_lstm1_cont_slice_63_split_1
I1017 23:52:42.750210 29448 net.cpp:122] Setting up cont_64_lstm1_cont_slice_63_split
I1017 23:52:42.750216 29448 net.cpp:129] Top shape: 1 5 (5)
I1017 23:52:42.750221 29448 net.cpp:129] Top shape: 1 5 (5)
I1017 23:52:42.750223 29448 net.cpp:137] Memory required for data: 2037920
I1017 23:52:42.750227 29448 layer_factory.hpp:77] Creating layer cont_65_lstm1_cont_slice_64_split
I1017 23:52:42.750232 29448 net.cpp:84] Creating Layer cont_65_lstm1_cont_slice_64_split
I1017 23:52:42.750236 29448 net.cpp:406] cont_65_lstm1_cont_slice_64_split <- cont_65
I1017 23:52:42.750242 29448 net.cpp:380] cont_65_lstm1_cont_slice_64_split -> cont_65_lstm1_cont_slice_64_split_0
I1017 23:52:42.750250 29448 net.cpp:380] cont_65_lstm1_cont_slice_64_split -> cont_65_lstm1_cont_slice_64_split_1
I1017 23:52:42.750278 29448 net.cpp:122] Setting up cont_65_lstm1_cont_slice_64_split
I1017 23:52:42.750284 29448 net.cpp:129] Top shape: 1 5 (5)
I1017 23:52:42.750289 29448 net.cpp:129] Top shape: 1 5 (5)
I1017 23:52:42.750293 29448 net.cpp:137] Memory required for data: 2037960
I1017 23:52:42.750296 29448 layer_factory.hpp:77] Creating layer cont_66_lstm1_cont_slice_65_split
I1017 23:52:42.750306 29448 net.cpp:84] Creating Layer cont_66_lstm1_cont_slice_65_split
I1017 23:52:42.750311 29448 net.cpp:406] cont_66_lstm1_cont_slice_65_split <- cont_66
I1017 23:52:42.750318 29448 net.cpp:380] cont_66_lstm1_cont_slice_65_split -> cont_66_lstm1_cont_slice_65_split_0
I1017 23:52:42.750324 29448 net.cpp:380] cont_66_lstm1_cont_slice_65_split -> cont_66_lstm1_cont_slice_65_split_1
I1017 23:52:42.750353 29448 net.cpp:122] Setting up cont_66_lstm1_cont_slice_65_split
I1017 23:52:42.750360 29448 net.cpp:129] Top shape: 1 5 (5)
I1017 23:52:42.750365 29448 net.cpp:129] Top shape: 1 5 (5)
I1017 23:52:42.750368 29448 net.cpp:137] Memory required for data: 2038000
I1017 23:52:42.750372 29448 layer_factory.hpp:77] Creating layer cont_67_lstm1_cont_slice_66_split
I1017 23:52:42.750377 29448 net.cpp:84] Creating Layer cont_67_lstm1_cont_slice_66_split
I1017 23:52:42.750381 29448 net.cpp:406] cont_67_lstm1_cont_slice_66_split <- cont_67
I1017 23:52:42.750386 29448 net.cpp:380] cont_67_lstm1_cont_slice_66_split -> cont_67_lstm1_cont_slice_66_split_0
I1017 23:52:42.750393 29448 net.cpp:380] cont_67_lstm1_cont_slice_66_split -> cont_67_lstm1_cont_slice_66_split_1
I1017 23:52:42.750422 29448 net.cpp:122] Setting up cont_67_lstm1_cont_slice_66_split
I1017 23:52:42.750428 29448 net.cpp:129] Top shape: 1 5 (5)
I1017 23:52:42.750433 29448 net.cpp:129] Top shape: 1 5 (5)
I1017 23:52:42.750437 29448 net.cpp:137] Memory required for data: 2038040
I1017 23:52:42.750440 29448 layer_factory.hpp:77] Creating layer cont_68_lstm1_cont_slice_67_split
I1017 23:52:42.750445 29448 net.cpp:84] Creating Layer cont_68_lstm1_cont_slice_67_split
I1017 23:52:42.750449 29448 net.cpp:406] cont_68_lstm1_cont_slice_67_split <- cont_68
I1017 23:52:42.750455 29448 net.cpp:380] cont_68_lstm1_cont_slice_67_split -> cont_68_lstm1_cont_slice_67_split_0
I1017 23:52:42.750461 29448 net.cpp:380] cont_68_lstm1_cont_slice_67_split -> cont_68_lstm1_cont_slice_67_split_1
I1017 23:52:42.750491 29448 net.cpp:122] Setting up cont_68_lstm1_cont_slice_67_split
I1017 23:52:42.750497 29448 net.cpp:129] Top shape: 1 5 (5)
I1017 23:52:42.750502 29448 net.cpp:129] Top shape: 1 5 (5)
I1017 23:52:42.750505 29448 net.cpp:137] Memory required for data: 2038080
I1017 23:52:42.750509 29448 layer_factory.hpp:77] Creating layer cont_69_lstm1_cont_slice_68_split
I1017 23:52:42.750514 29448 net.cpp:84] Creating Layer cont_69_lstm1_cont_slice_68_split
I1017 23:52:42.750519 29448 net.cpp:406] cont_69_lstm1_cont_slice_68_split <- cont_69
I1017 23:52:42.750526 29448 net.cpp:380] cont_69_lstm1_cont_slice_68_split -> cont_69_lstm1_cont_slice_68_split_0
I1017 23:52:42.750532 29448 net.cpp:380] cont_69_lstm1_cont_slice_68_split -> cont_69_lstm1_cont_slice_68_split_1
I1017 23:52:42.750560 29448 net.cpp:122] Setting up cont_69_lstm1_cont_slice_68_split
I1017 23:52:42.750566 29448 net.cpp:129] Top shape: 1 5 (5)
I1017 23:52:42.750571 29448 net.cpp:129] Top shape: 1 5 (5)
I1017 23:52:42.750574 29448 net.cpp:137] Memory required for data: 2038120
I1017 23:52:42.750578 29448 layer_factory.hpp:77] Creating layer cont_70_lstm1_cont_slice_69_split
I1017 23:52:42.750584 29448 net.cpp:84] Creating Layer cont_70_lstm1_cont_slice_69_split
I1017 23:52:42.750588 29448 net.cpp:406] cont_70_lstm1_cont_slice_69_split <- cont_70
I1017 23:52:42.750594 29448 net.cpp:380] cont_70_lstm1_cont_slice_69_split -> cont_70_lstm1_cont_slice_69_split_0
I1017 23:52:42.750602 29448 net.cpp:380] cont_70_lstm1_cont_slice_69_split -> cont_70_lstm1_cont_slice_69_split_1
I1017 23:52:42.750630 29448 net.cpp:122] Setting up cont_70_lstm1_cont_slice_69_split
I1017 23:52:42.750636 29448 net.cpp:129] Top shape: 1 5 (5)
I1017 23:52:42.750641 29448 net.cpp:129] Top shape: 1 5 (5)
I1017 23:52:42.750645 29448 net.cpp:137] Memory required for data: 2038160
I1017 23:52:42.750649 29448 layer_factory.hpp:77] Creating layer cont_71_lstm1_cont_slice_70_split
I1017 23:52:42.750653 29448 net.cpp:84] Creating Layer cont_71_lstm1_cont_slice_70_split
I1017 23:52:42.750658 29448 net.cpp:406] cont_71_lstm1_cont_slice_70_split <- cont_71
I1017 23:52:42.750663 29448 net.cpp:380] cont_71_lstm1_cont_slice_70_split -> cont_71_lstm1_cont_slice_70_split_0
I1017 23:52:42.750670 29448 net.cpp:380] cont_71_lstm1_cont_slice_70_split -> cont_71_lstm1_cont_slice_70_split_1
I1017 23:52:42.750707 29448 net.cpp:122] Setting up cont_71_lstm1_cont_slice_70_split
I1017 23:52:42.750713 29448 net.cpp:129] Top shape: 1 5 (5)
I1017 23:52:42.750718 29448 net.cpp:129] Top shape: 1 5 (5)
I1017 23:52:42.750722 29448 net.cpp:137] Memory required for data: 2038200
I1017 23:52:42.750726 29448 layer_factory.hpp:77] Creating layer cont_72_lstm1_cont_slice_71_split
I1017 23:52:42.750731 29448 net.cpp:84] Creating Layer cont_72_lstm1_cont_slice_71_split
I1017 23:52:42.750735 29448 net.cpp:406] cont_72_lstm1_cont_slice_71_split <- cont_72
I1017 23:52:42.750741 29448 net.cpp:380] cont_72_lstm1_cont_slice_71_split -> cont_72_lstm1_cont_slice_71_split_0
I1017 23:52:42.750747 29448 net.cpp:380] cont_72_lstm1_cont_slice_71_split -> cont_72_lstm1_cont_slice_71_split_1
I1017 23:52:42.750777 29448 net.cpp:122] Setting up cont_72_lstm1_cont_slice_71_split
I1017 23:52:42.750782 29448 net.cpp:129] Top shape: 1 5 (5)
I1017 23:52:42.750787 29448 net.cpp:129] Top shape: 1 5 (5)
I1017 23:52:42.750792 29448 net.cpp:137] Memory required for data: 2038240
I1017 23:52:42.750795 29448 layer_factory.hpp:77] Creating layer cont_73_lstm1_cont_slice_72_split
I1017 23:52:42.750799 29448 net.cpp:84] Creating Layer cont_73_lstm1_cont_slice_72_split
I1017 23:52:42.750804 29448 net.cpp:406] cont_73_lstm1_cont_slice_72_split <- cont_73
I1017 23:52:42.750811 29448 net.cpp:380] cont_73_lstm1_cont_slice_72_split -> cont_73_lstm1_cont_slice_72_split_0
I1017 23:52:42.750818 29448 net.cpp:380] cont_73_lstm1_cont_slice_72_split -> cont_73_lstm1_cont_slice_72_split_1
I1017 23:52:42.750847 29448 net.cpp:122] Setting up cont_73_lstm1_cont_slice_72_split
I1017 23:52:42.750854 29448 net.cpp:129] Top shape: 1 5 (5)
I1017 23:52:42.750859 29448 net.cpp:129] Top shape: 1 5 (5)
I1017 23:52:42.750862 29448 net.cpp:137] Memory required for data: 2038280
I1017 23:52:42.750866 29448 layer_factory.hpp:77] Creating layer cont_74_lstm1_cont_slice_73_split
I1017 23:52:42.750871 29448 net.cpp:84] Creating Layer cont_74_lstm1_cont_slice_73_split
I1017 23:52:42.750875 29448 net.cpp:406] cont_74_lstm1_cont_slice_73_split <- cont_74
I1017 23:52:42.750881 29448 net.cpp:380] cont_74_lstm1_cont_slice_73_split -> cont_74_lstm1_cont_slice_73_split_0
I1017 23:52:42.750888 29448 net.cpp:380] cont_74_lstm1_cont_slice_73_split -> cont_74_lstm1_cont_slice_73_split_1
I1017 23:52:42.750917 29448 net.cpp:122] Setting up cont_74_lstm1_cont_slice_73_split
I1017 23:52:42.750923 29448 net.cpp:129] Top shape: 1 5 (5)
I1017 23:52:42.750927 29448 net.cpp:129] Top shape: 1 5 (5)
I1017 23:52:42.750931 29448 net.cpp:137] Memory required for data: 2038320
I1017 23:52:42.750936 29448 layer_factory.hpp:77] Creating layer cont_75_lstm1_cont_slice_74_split
I1017 23:52:42.750941 29448 net.cpp:84] Creating Layer cont_75_lstm1_cont_slice_74_split
I1017 23:52:42.750944 29448 net.cpp:406] cont_75_lstm1_cont_slice_74_split <- cont_75
I1017 23:52:42.750949 29448 net.cpp:380] cont_75_lstm1_cont_slice_74_split -> cont_75_lstm1_cont_slice_74_split_0
I1017 23:52:42.750957 29448 net.cpp:380] cont_75_lstm1_cont_slice_74_split -> cont_75_lstm1_cont_slice_74_split_1
I1017 23:52:42.750985 29448 net.cpp:122] Setting up cont_75_lstm1_cont_slice_74_split
I1017 23:52:42.750991 29448 net.cpp:129] Top shape: 1 5 (5)
I1017 23:52:42.750996 29448 net.cpp:129] Top shape: 1 5 (5)
I1017 23:52:42.751000 29448 net.cpp:137] Memory required for data: 2038360
I1017 23:52:42.751003 29448 layer_factory.hpp:77] Creating layer cont_76_lstm1_cont_slice_75_split
I1017 23:52:42.751008 29448 net.cpp:84] Creating Layer cont_76_lstm1_cont_slice_75_split
I1017 23:52:42.751013 29448 net.cpp:406] cont_76_lstm1_cont_slice_75_split <- cont_76
I1017 23:52:42.751020 29448 net.cpp:380] cont_76_lstm1_cont_slice_75_split -> cont_76_lstm1_cont_slice_75_split_0
I1017 23:52:42.751026 29448 net.cpp:380] cont_76_lstm1_cont_slice_75_split -> cont_76_lstm1_cont_slice_75_split_1
I1017 23:52:42.751055 29448 net.cpp:122] Setting up cont_76_lstm1_cont_slice_75_split
I1017 23:52:42.751060 29448 net.cpp:129] Top shape: 1 5 (5)
I1017 23:52:42.751065 29448 net.cpp:129] Top shape: 1 5 (5)
I1017 23:52:42.751070 29448 net.cpp:137] Memory required for data: 2038400
I1017 23:52:42.751072 29448 layer_factory.hpp:77] Creating layer cont_77_lstm1_cont_slice_76_split
I1017 23:52:42.751080 29448 net.cpp:84] Creating Layer cont_77_lstm1_cont_slice_76_split
I1017 23:52:42.751083 29448 net.cpp:406] cont_77_lstm1_cont_slice_76_split <- cont_77
I1017 23:52:42.751090 29448 net.cpp:380] cont_77_lstm1_cont_slice_76_split -> cont_77_lstm1_cont_slice_76_split_0
I1017 23:52:42.751096 29448 net.cpp:380] cont_77_lstm1_cont_slice_76_split -> cont_77_lstm1_cont_slice_76_split_1
I1017 23:52:42.751124 29448 net.cpp:122] Setting up cont_77_lstm1_cont_slice_76_split
I1017 23:52:42.751130 29448 net.cpp:129] Top shape: 1 5 (5)
I1017 23:52:42.751135 29448 net.cpp:129] Top shape: 1 5 (5)
I1017 23:52:42.751139 29448 net.cpp:137] Memory required for data: 2038440
I1017 23:52:42.751143 29448 layer_factory.hpp:77] Creating layer cont_78_lstm1_cont_slice_77_split
I1017 23:52:42.751147 29448 net.cpp:84] Creating Layer cont_78_lstm1_cont_slice_77_split
I1017 23:52:42.751152 29448 net.cpp:406] cont_78_lstm1_cont_slice_77_split <- cont_78
I1017 23:52:42.751157 29448 net.cpp:380] cont_78_lstm1_cont_slice_77_split -> cont_78_lstm1_cont_slice_77_split_0
I1017 23:52:42.751164 29448 net.cpp:380] cont_78_lstm1_cont_slice_77_split -> cont_78_lstm1_cont_slice_77_split_1
I1017 23:52:42.751194 29448 net.cpp:122] Setting up cont_78_lstm1_cont_slice_77_split
I1017 23:52:42.751199 29448 net.cpp:129] Top shape: 1 5 (5)
I1017 23:52:42.751204 29448 net.cpp:129] Top shape: 1 5 (5)
I1017 23:52:42.751207 29448 net.cpp:137] Memory required for data: 2038480
I1017 23:52:42.751211 29448 layer_factory.hpp:77] Creating layer cont_79_lstm1_cont_slice_78_split
I1017 23:52:42.751215 29448 net.cpp:84] Creating Layer cont_79_lstm1_cont_slice_78_split
I1017 23:52:42.751220 29448 net.cpp:406] cont_79_lstm1_cont_slice_78_split <- cont_79
I1017 23:52:42.751225 29448 net.cpp:380] cont_79_lstm1_cont_slice_78_split -> cont_79_lstm1_cont_slice_78_split_0
I1017 23:52:42.751232 29448 net.cpp:380] cont_79_lstm1_cont_slice_78_split -> cont_79_lstm1_cont_slice_78_split_1
I1017 23:52:42.751262 29448 net.cpp:122] Setting up cont_79_lstm1_cont_slice_78_split
I1017 23:52:42.751268 29448 net.cpp:129] Top shape: 1 5 (5)
I1017 23:52:42.751273 29448 net.cpp:129] Top shape: 1 5 (5)
I1017 23:52:42.751276 29448 net.cpp:137] Memory required for data: 2038520
I1017 23:52:42.751281 29448 layer_factory.hpp:77] Creating layer cont_80_lstm1_cont_slice_79_split
I1017 23:52:42.751286 29448 net.cpp:84] Creating Layer cont_80_lstm1_cont_slice_79_split
I1017 23:52:42.751289 29448 net.cpp:406] cont_80_lstm1_cont_slice_79_split <- cont_80
I1017 23:52:42.751297 29448 net.cpp:380] cont_80_lstm1_cont_slice_79_split -> cont_80_lstm1_cont_slice_79_split_0
I1017 23:52:42.751303 29448 net.cpp:380] cont_80_lstm1_cont_slice_79_split -> cont_80_lstm1_cont_slice_79_split_1
I1017 23:52:42.751332 29448 net.cpp:122] Setting up cont_80_lstm1_cont_slice_79_split
I1017 23:52:42.751338 29448 net.cpp:129] Top shape: 1 5 (5)
I1017 23:52:42.751343 29448 net.cpp:129] Top shape: 1 5 (5)
I1017 23:52:42.751346 29448 net.cpp:137] Memory required for data: 2038560
I1017 23:52:42.751349 29448 layer_factory.hpp:77] Creating layer cont_81_lstm1_cont_slice_80_split
I1017 23:52:42.751356 29448 net.cpp:84] Creating Layer cont_81_lstm1_cont_slice_80_split
I1017 23:52:42.751360 29448 net.cpp:406] cont_81_lstm1_cont_slice_80_split <- cont_81
I1017 23:52:42.751366 29448 net.cpp:380] cont_81_lstm1_cont_slice_80_split -> cont_81_lstm1_cont_slice_80_split_0
I1017 23:52:42.751374 29448 net.cpp:380] cont_81_lstm1_cont_slice_80_split -> cont_81_lstm1_cont_slice_80_split_1
I1017 23:52:42.751402 29448 net.cpp:122] Setting up cont_81_lstm1_cont_slice_80_split
I1017 23:52:42.751408 29448 net.cpp:129] Top shape: 1 5 (5)
I1017 23:52:42.751412 29448 net.cpp:129] Top shape: 1 5 (5)
I1017 23:52:42.751416 29448 net.cpp:137] Memory required for data: 2038600
I1017 23:52:42.751420 29448 layer_factory.hpp:77] Creating layer cont_82_lstm1_cont_slice_81_split
I1017 23:52:42.751425 29448 net.cpp:84] Creating Layer cont_82_lstm1_cont_slice_81_split
I1017 23:52:42.751430 29448 net.cpp:406] cont_82_lstm1_cont_slice_81_split <- cont_82
I1017 23:52:42.751435 29448 net.cpp:380] cont_82_lstm1_cont_slice_81_split -> cont_82_lstm1_cont_slice_81_split_0
I1017 23:52:42.751441 29448 net.cpp:380] cont_82_lstm1_cont_slice_81_split -> cont_82_lstm1_cont_slice_81_split_1
I1017 23:52:42.751471 29448 net.cpp:122] Setting up cont_82_lstm1_cont_slice_81_split
I1017 23:52:42.751477 29448 net.cpp:129] Top shape: 1 5 (5)
I1017 23:52:42.751482 29448 net.cpp:129] Top shape: 1 5 (5)
I1017 23:52:42.751485 29448 net.cpp:137] Memory required for data: 2038640
I1017 23:52:42.751489 29448 layer_factory.hpp:77] Creating layer cont_83_lstm1_cont_slice_82_split
I1017 23:52:42.751493 29448 net.cpp:84] Creating Layer cont_83_lstm1_cont_slice_82_split
I1017 23:52:42.751498 29448 net.cpp:406] cont_83_lstm1_cont_slice_82_split <- cont_83
I1017 23:52:42.751509 29448 net.cpp:380] cont_83_lstm1_cont_slice_82_split -> cont_83_lstm1_cont_slice_82_split_0
I1017 23:52:42.751515 29448 net.cpp:380] cont_83_lstm1_cont_slice_82_split -> cont_83_lstm1_cont_slice_82_split_1
I1017 23:52:42.751543 29448 net.cpp:122] Setting up cont_83_lstm1_cont_slice_82_split
I1017 23:52:42.751549 29448 net.cpp:129] Top shape: 1 5 (5)
I1017 23:52:42.751554 29448 net.cpp:129] Top shape: 1 5 (5)
I1017 23:52:42.751557 29448 net.cpp:137] Memory required for data: 2038680
I1017 23:52:42.751561 29448 layer_factory.hpp:77] Creating layer cont_84_lstm1_cont_slice_83_split
I1017 23:52:42.751567 29448 net.cpp:84] Creating Layer cont_84_lstm1_cont_slice_83_split
I1017 23:52:42.751572 29448 net.cpp:406] cont_84_lstm1_cont_slice_83_split <- cont_84
I1017 23:52:42.751577 29448 net.cpp:380] cont_84_lstm1_cont_slice_83_split -> cont_84_lstm1_cont_slice_83_split_0
I1017 23:52:42.751585 29448 net.cpp:380] cont_84_lstm1_cont_slice_83_split -> cont_84_lstm1_cont_slice_83_split_1
I1017 23:52:42.751615 29448 net.cpp:122] Setting up cont_84_lstm1_cont_slice_83_split
I1017 23:52:42.751621 29448 net.cpp:129] Top shape: 1 5 (5)
I1017 23:52:42.751626 29448 net.cpp:129] Top shape: 1 5 (5)
I1017 23:52:42.751629 29448 net.cpp:137] Memory required for data: 2038720
I1017 23:52:42.751632 29448 layer_factory.hpp:77] Creating layer cont_85_lstm1_cont_slice_84_split
I1017 23:52:42.751637 29448 net.cpp:84] Creating Layer cont_85_lstm1_cont_slice_84_split
I1017 23:52:42.751641 29448 net.cpp:406] cont_85_lstm1_cont_slice_84_split <- cont_85
I1017 23:52:42.751647 29448 net.cpp:380] cont_85_lstm1_cont_slice_84_split -> cont_85_lstm1_cont_slice_84_split_0
I1017 23:52:42.751653 29448 net.cpp:380] cont_85_lstm1_cont_slice_84_split -> cont_85_lstm1_cont_slice_84_split_1
I1017 23:52:42.751682 29448 net.cpp:122] Setting up cont_85_lstm1_cont_slice_84_split
I1017 23:52:42.751688 29448 net.cpp:129] Top shape: 1 5 (5)
I1017 23:52:42.751693 29448 net.cpp:129] Top shape: 1 5 (5)
I1017 23:52:42.751698 29448 net.cpp:137] Memory required for data: 2038760
I1017 23:52:42.751701 29448 layer_factory.hpp:77] Creating layer cont_86_lstm1_cont_slice_85_split
I1017 23:52:42.751705 29448 net.cpp:84] Creating Layer cont_86_lstm1_cont_slice_85_split
I1017 23:52:42.751710 29448 net.cpp:406] cont_86_lstm1_cont_slice_85_split <- cont_86
I1017 23:52:42.751715 29448 net.cpp:380] cont_86_lstm1_cont_slice_85_split -> cont_86_lstm1_cont_slice_85_split_0
I1017 23:52:42.751722 29448 net.cpp:380] cont_86_lstm1_cont_slice_85_split -> cont_86_lstm1_cont_slice_85_split_1
I1017 23:52:42.751751 29448 net.cpp:122] Setting up cont_86_lstm1_cont_slice_85_split
I1017 23:52:42.751757 29448 net.cpp:129] Top shape: 1 5 (5)
I1017 23:52:42.751761 29448 net.cpp:129] Top shape: 1 5 (5)
I1017 23:52:42.751765 29448 net.cpp:137] Memory required for data: 2038800
I1017 23:52:42.751770 29448 layer_factory.hpp:77] Creating layer cont_87_lstm1_cont_slice_86_split
I1017 23:52:42.751775 29448 net.cpp:84] Creating Layer cont_87_lstm1_cont_slice_86_split
I1017 23:52:42.751778 29448 net.cpp:406] cont_87_lstm1_cont_slice_86_split <- cont_87
I1017 23:52:42.751785 29448 net.cpp:380] cont_87_lstm1_cont_slice_86_split -> cont_87_lstm1_cont_slice_86_split_0
I1017 23:52:42.751792 29448 net.cpp:380] cont_87_lstm1_cont_slice_86_split -> cont_87_lstm1_cont_slice_86_split_1
I1017 23:52:42.751819 29448 net.cpp:122] Setting up cont_87_lstm1_cont_slice_86_split
I1017 23:52:42.751826 29448 net.cpp:129] Top shape: 1 5 (5)
I1017 23:52:42.751829 29448 net.cpp:129] Top shape: 1 5 (5)
I1017 23:52:42.751833 29448 net.cpp:137] Memory required for data: 2038840
I1017 23:52:42.751837 29448 layer_factory.hpp:77] Creating layer cont_88_lstm1_cont_slice_87_split
I1017 23:52:42.751844 29448 net.cpp:84] Creating Layer cont_88_lstm1_cont_slice_87_split
I1017 23:52:42.751848 29448 net.cpp:406] cont_88_lstm1_cont_slice_87_split <- cont_88
I1017 23:52:42.751854 29448 net.cpp:380] cont_88_lstm1_cont_slice_87_split -> cont_88_lstm1_cont_slice_87_split_0
I1017 23:52:42.751860 29448 net.cpp:380] cont_88_lstm1_cont_slice_87_split -> cont_88_lstm1_cont_slice_87_split_1
I1017 23:52:42.751889 29448 net.cpp:122] Setting up cont_88_lstm1_cont_slice_87_split
I1017 23:52:42.751895 29448 net.cpp:129] Top shape: 1 5 (5)
I1017 23:52:42.751900 29448 net.cpp:129] Top shape: 1 5 (5)
I1017 23:52:42.751904 29448 net.cpp:137] Memory required for data: 2038880
I1017 23:52:42.751907 29448 layer_factory.hpp:77] Creating layer cont_89_lstm1_cont_slice_88_split
I1017 23:52:42.751912 29448 net.cpp:84] Creating Layer cont_89_lstm1_cont_slice_88_split
I1017 23:52:42.751916 29448 net.cpp:406] cont_89_lstm1_cont_slice_88_split <- cont_89
I1017 23:52:42.751922 29448 net.cpp:380] cont_89_lstm1_cont_slice_88_split -> cont_89_lstm1_cont_slice_88_split_0
I1017 23:52:42.751929 29448 net.cpp:380] cont_89_lstm1_cont_slice_88_split -> cont_89_lstm1_cont_slice_88_split_1
I1017 23:52:42.751957 29448 net.cpp:122] Setting up cont_89_lstm1_cont_slice_88_split
I1017 23:52:42.751963 29448 net.cpp:129] Top shape: 1 5 (5)
I1017 23:52:42.751968 29448 net.cpp:129] Top shape: 1 5 (5)
I1017 23:52:42.751972 29448 net.cpp:137] Memory required for data: 2038920
I1017 23:52:42.751976 29448 layer_factory.hpp:77] Creating layer cont_90_lstm1_cont_slice_89_split
I1017 23:52:42.751981 29448 net.cpp:84] Creating Layer cont_90_lstm1_cont_slice_89_split
I1017 23:52:42.751986 29448 net.cpp:406] cont_90_lstm1_cont_slice_89_split <- cont_90
I1017 23:52:42.751991 29448 net.cpp:380] cont_90_lstm1_cont_slice_89_split -> cont_90_lstm1_cont_slice_89_split_0
I1017 23:52:42.751999 29448 net.cpp:380] cont_90_lstm1_cont_slice_89_split -> cont_90_lstm1_cont_slice_89_split_1
I1017 23:52:42.752040 29448 net.cpp:122] Setting up cont_90_lstm1_cont_slice_89_split
I1017 23:52:42.752048 29448 net.cpp:129] Top shape: 1 5 (5)
I1017 23:52:42.752053 29448 net.cpp:129] Top shape: 1 5 (5)
I1017 23:52:42.752058 29448 net.cpp:137] Memory required for data: 2038960
I1017 23:52:42.752061 29448 layer_factory.hpp:77] Creating layer cont_91_lstm1_cont_slice_90_split
I1017 23:52:42.752068 29448 net.cpp:84] Creating Layer cont_91_lstm1_cont_slice_90_split
I1017 23:52:42.752074 29448 net.cpp:406] cont_91_lstm1_cont_slice_90_split <- cont_91
I1017 23:52:42.752079 29448 net.cpp:380] cont_91_lstm1_cont_slice_90_split -> cont_91_lstm1_cont_slice_90_split_0
I1017 23:52:42.752086 29448 net.cpp:380] cont_91_lstm1_cont_slice_90_split -> cont_91_lstm1_cont_slice_90_split_1
I1017 23:52:42.752120 29448 net.cpp:122] Setting up cont_91_lstm1_cont_slice_90_split
I1017 23:52:42.752127 29448 net.cpp:129] Top shape: 1 5 (5)
I1017 23:52:42.752131 29448 net.cpp:129] Top shape: 1 5 (5)
I1017 23:52:42.752135 29448 net.cpp:137] Memory required for data: 2039000
I1017 23:52:42.752140 29448 layer_factory.hpp:77] Creating layer cont_92_lstm1_cont_slice_91_split
I1017 23:52:42.752144 29448 net.cpp:84] Creating Layer cont_92_lstm1_cont_slice_91_split
I1017 23:52:42.752149 29448 net.cpp:406] cont_92_lstm1_cont_slice_91_split <- cont_92
I1017 23:52:42.752154 29448 net.cpp:380] cont_92_lstm1_cont_slice_91_split -> cont_92_lstm1_cont_slice_91_split_0
I1017 23:52:42.752161 29448 net.cpp:380] cont_92_lstm1_cont_slice_91_split -> cont_92_lstm1_cont_slice_91_split_1
I1017 23:52:42.752192 29448 net.cpp:122] Setting up cont_92_lstm1_cont_slice_91_split
I1017 23:52:42.752197 29448 net.cpp:129] Top shape: 1 5 (5)
I1017 23:52:42.752202 29448 net.cpp:129] Top shape: 1 5 (5)
I1017 23:52:42.752207 29448 net.cpp:137] Memory required for data: 2039040
I1017 23:52:42.752210 29448 layer_factory.hpp:77] Creating layer cont_93_lstm1_cont_slice_92_split
I1017 23:52:42.752214 29448 net.cpp:84] Creating Layer cont_93_lstm1_cont_slice_92_split
I1017 23:52:42.752219 29448 net.cpp:406] cont_93_lstm1_cont_slice_92_split <- cont_93
I1017 23:52:42.752225 29448 net.cpp:380] cont_93_lstm1_cont_slice_92_split -> cont_93_lstm1_cont_slice_92_split_0
I1017 23:52:42.752231 29448 net.cpp:380] cont_93_lstm1_cont_slice_92_split -> cont_93_lstm1_cont_slice_92_split_1
I1017 23:52:42.752261 29448 net.cpp:122] Setting up cont_93_lstm1_cont_slice_92_split
I1017 23:52:42.752267 29448 net.cpp:129] Top shape: 1 5 (5)
I1017 23:52:42.752272 29448 net.cpp:129] Top shape: 1 5 (5)
I1017 23:52:42.752276 29448 net.cpp:137] Memory required for data: 2039080
I1017 23:52:42.752280 29448 layer_factory.hpp:77] Creating layer cont_94_lstm1_cont_slice_93_split
I1017 23:52:42.752285 29448 net.cpp:84] Creating Layer cont_94_lstm1_cont_slice_93_split
I1017 23:52:42.752290 29448 net.cpp:406] cont_94_lstm1_cont_slice_93_split <- cont_94
I1017 23:52:42.752296 29448 net.cpp:380] cont_94_lstm1_cont_slice_93_split -> cont_94_lstm1_cont_slice_93_split_0
I1017 23:52:42.752303 29448 net.cpp:380] cont_94_lstm1_cont_slice_93_split -> cont_94_lstm1_cont_slice_93_split_1
I1017 23:52:42.752331 29448 net.cpp:122] Setting up cont_94_lstm1_cont_slice_93_split
I1017 23:52:42.752337 29448 net.cpp:129] Top shape: 1 5 (5)
I1017 23:52:42.752341 29448 net.cpp:129] Top shape: 1 5 (5)
I1017 23:52:42.752346 29448 net.cpp:137] Memory required for data: 2039120
I1017 23:52:42.752349 29448 layer_factory.hpp:77] Creating layer cont_95_lstm1_cont_slice_94_split
I1017 23:52:42.752357 29448 net.cpp:84] Creating Layer cont_95_lstm1_cont_slice_94_split
I1017 23:52:42.752360 29448 net.cpp:406] cont_95_lstm1_cont_slice_94_split <- cont_95
I1017 23:52:42.752367 29448 net.cpp:380] cont_95_lstm1_cont_slice_94_split -> cont_95_lstm1_cont_slice_94_split_0
I1017 23:52:42.752372 29448 net.cpp:380] cont_95_lstm1_cont_slice_94_split -> cont_95_lstm1_cont_slice_94_split_1
I1017 23:52:42.752403 29448 net.cpp:122] Setting up cont_95_lstm1_cont_slice_94_split
I1017 23:52:42.752408 29448 net.cpp:129] Top shape: 1 5 (5)
I1017 23:52:42.752413 29448 net.cpp:129] Top shape: 1 5 (5)
I1017 23:52:42.752418 29448 net.cpp:137] Memory required for data: 2039160
I1017 23:52:42.752420 29448 layer_factory.hpp:77] Creating layer cont_96_lstm1_cont_slice_95_split
I1017 23:52:42.752425 29448 net.cpp:84] Creating Layer cont_96_lstm1_cont_slice_95_split
I1017 23:52:42.752429 29448 net.cpp:406] cont_96_lstm1_cont_slice_95_split <- cont_96
I1017 23:52:42.752435 29448 net.cpp:380] cont_96_lstm1_cont_slice_95_split -> cont_96_lstm1_cont_slice_95_split_0
I1017 23:52:42.752441 29448 net.cpp:380] cont_96_lstm1_cont_slice_95_split -> cont_96_lstm1_cont_slice_95_split_1
I1017 23:52:42.752471 29448 net.cpp:122] Setting up cont_96_lstm1_cont_slice_95_split
I1017 23:52:42.752477 29448 net.cpp:129] Top shape: 1 5 (5)
I1017 23:52:42.752482 29448 net.cpp:129] Top shape: 1 5 (5)
I1017 23:52:42.752486 29448 net.cpp:137] Memory required for data: 2039200
I1017 23:52:42.752490 29448 layer_factory.hpp:77] Creating layer cont_97_lstm1_cont_slice_96_split
I1017 23:52:42.752496 29448 net.cpp:84] Creating Layer cont_97_lstm1_cont_slice_96_split
I1017 23:52:42.752499 29448 net.cpp:406] cont_97_lstm1_cont_slice_96_split <- cont_97
I1017 23:52:42.752506 29448 net.cpp:380] cont_97_lstm1_cont_slice_96_split -> cont_97_lstm1_cont_slice_96_split_0
I1017 23:52:42.752513 29448 net.cpp:380] cont_97_lstm1_cont_slice_96_split -> cont_97_lstm1_cont_slice_96_split_1
I1017 23:52:42.752542 29448 net.cpp:122] Setting up cont_97_lstm1_cont_slice_96_split
I1017 23:52:42.752547 29448 net.cpp:129] Top shape: 1 5 (5)
I1017 23:52:42.752552 29448 net.cpp:129] Top shape: 1 5 (5)
I1017 23:52:42.752562 29448 net.cpp:137] Memory required for data: 2039240
I1017 23:52:42.752564 29448 layer_factory.hpp:77] Creating layer cont_98_lstm1_cont_slice_97_split
I1017 23:52:42.752569 29448 net.cpp:84] Creating Layer cont_98_lstm1_cont_slice_97_split
I1017 23:52:42.752573 29448 net.cpp:406] cont_98_lstm1_cont_slice_97_split <- cont_98
I1017 23:52:42.752581 29448 net.cpp:380] cont_98_lstm1_cont_slice_97_split -> cont_98_lstm1_cont_slice_97_split_0
I1017 23:52:42.752588 29448 net.cpp:380] cont_98_lstm1_cont_slice_97_split -> cont_98_lstm1_cont_slice_97_split_1
I1017 23:52:42.752619 29448 net.cpp:122] Setting up cont_98_lstm1_cont_slice_97_split
I1017 23:52:42.752624 29448 net.cpp:129] Top shape: 1 5 (5)
I1017 23:52:42.752629 29448 net.cpp:129] Top shape: 1 5 (5)
I1017 23:52:42.752632 29448 net.cpp:137] Memory required for data: 2039280
I1017 23:52:42.752636 29448 layer_factory.hpp:77] Creating layer cont_99_lstm1_cont_slice_98_split
I1017 23:52:42.752641 29448 net.cpp:84] Creating Layer cont_99_lstm1_cont_slice_98_split
I1017 23:52:42.752645 29448 net.cpp:406] cont_99_lstm1_cont_slice_98_split <- cont_99
I1017 23:52:42.752651 29448 net.cpp:380] cont_99_lstm1_cont_slice_98_split -> cont_99_lstm1_cont_slice_98_split_0
I1017 23:52:42.752657 29448 net.cpp:380] cont_99_lstm1_cont_slice_98_split -> cont_99_lstm1_cont_slice_98_split_1
I1017 23:52:42.752687 29448 net.cpp:122] Setting up cont_99_lstm1_cont_slice_98_split
I1017 23:52:42.752693 29448 net.cpp:129] Top shape: 1 5 (5)
I1017 23:52:42.752697 29448 net.cpp:129] Top shape: 1 5 (5)
I1017 23:52:42.752701 29448 net.cpp:137] Memory required for data: 2039320
I1017 23:52:42.752706 29448 layer_factory.hpp:77] Creating layer cont_100_lstm1_cont_slice_99_split
I1017 23:52:42.752710 29448 net.cpp:84] Creating Layer cont_100_lstm1_cont_slice_99_split
I1017 23:52:42.752715 29448 net.cpp:406] cont_100_lstm1_cont_slice_99_split <- cont_100
I1017 23:52:42.752722 29448 net.cpp:380] cont_100_lstm1_cont_slice_99_split -> cont_100_lstm1_cont_slice_99_split_0
I1017 23:52:42.752727 29448 net.cpp:380] cont_100_lstm1_cont_slice_99_split -> cont_100_lstm1_cont_slice_99_split_1
I1017 23:52:42.752758 29448 net.cpp:122] Setting up cont_100_lstm1_cont_slice_99_split
I1017 23:52:42.752764 29448 net.cpp:129] Top shape: 1 5 (5)
I1017 23:52:42.752769 29448 net.cpp:129] Top shape: 1 5 (5)
I1017 23:52:42.752774 29448 net.cpp:137] Memory required for data: 2039360
I1017 23:52:42.752776 29448 layer_factory.hpp:77] Creating layer cont_101_lstm1_cont_slice_100_split
I1017 23:52:42.752781 29448 net.cpp:84] Creating Layer cont_101_lstm1_cont_slice_100_split
I1017 23:52:42.752785 29448 net.cpp:406] cont_101_lstm1_cont_slice_100_split <- cont_101
I1017 23:52:42.752794 29448 net.cpp:380] cont_101_lstm1_cont_slice_100_split -> cont_101_lstm1_cont_slice_100_split_0
I1017 23:52:42.752800 29448 net.cpp:380] cont_101_lstm1_cont_slice_100_split -> cont_101_lstm1_cont_slice_100_split_1
I1017 23:52:42.752828 29448 net.cpp:122] Setting up cont_101_lstm1_cont_slice_100_split
I1017 23:52:42.752835 29448 net.cpp:129] Top shape: 1 5 (5)
I1017 23:52:42.752838 29448 net.cpp:129] Top shape: 1 5 (5)
I1017 23:52:42.752842 29448 net.cpp:137] Memory required for data: 2039400
I1017 23:52:42.752846 29448 layer_factory.hpp:77] Creating layer cont_102_lstm1_cont_slice_101_split
I1017 23:52:42.752852 29448 net.cpp:84] Creating Layer cont_102_lstm1_cont_slice_101_split
I1017 23:52:42.752857 29448 net.cpp:406] cont_102_lstm1_cont_slice_101_split <- cont_102
I1017 23:52:42.752862 29448 net.cpp:380] cont_102_lstm1_cont_slice_101_split -> cont_102_lstm1_cont_slice_101_split_0
I1017 23:52:42.752869 29448 net.cpp:380] cont_102_lstm1_cont_slice_101_split -> cont_102_lstm1_cont_slice_101_split_1
I1017 23:52:42.752899 29448 net.cpp:122] Setting up cont_102_lstm1_cont_slice_101_split
I1017 23:52:42.752905 29448 net.cpp:129] Top shape: 1 5 (5)
I1017 23:52:42.752910 29448 net.cpp:129] Top shape: 1 5 (5)
I1017 23:52:42.752914 29448 net.cpp:137] Memory required for data: 2039440
I1017 23:52:42.752918 29448 layer_factory.hpp:77] Creating layer cont_103_lstm1_cont_slice_102_split
I1017 23:52:42.752923 29448 net.cpp:84] Creating Layer cont_103_lstm1_cont_slice_102_split
I1017 23:52:42.752926 29448 net.cpp:406] cont_103_lstm1_cont_slice_102_split <- cont_103
I1017 23:52:42.752933 29448 net.cpp:380] cont_103_lstm1_cont_slice_102_split -> cont_103_lstm1_cont_slice_102_split_0
I1017 23:52:42.752939 29448 net.cpp:380] cont_103_lstm1_cont_slice_102_split -> cont_103_lstm1_cont_slice_102_split_1
I1017 23:52:42.752969 29448 net.cpp:122] Setting up cont_103_lstm1_cont_slice_102_split
I1017 23:52:42.752975 29448 net.cpp:129] Top shape: 1 5 (5)
I1017 23:52:42.752980 29448 net.cpp:129] Top shape: 1 5 (5)
I1017 23:52:42.752985 29448 net.cpp:137] Memory required for data: 2039480
I1017 23:52:42.752988 29448 layer_factory.hpp:77] Creating layer cont_104_lstm1_cont_slice_103_split
I1017 23:52:42.752993 29448 net.cpp:84] Creating Layer cont_104_lstm1_cont_slice_103_split
I1017 23:52:42.752997 29448 net.cpp:406] cont_104_lstm1_cont_slice_103_split <- cont_104
I1017 23:52:42.753002 29448 net.cpp:380] cont_104_lstm1_cont_slice_103_split -> cont_104_lstm1_cont_slice_103_split_0
I1017 23:52:42.753010 29448 net.cpp:380] cont_104_lstm1_cont_slice_103_split -> cont_104_lstm1_cont_slice_103_split_1
I1017 23:52:42.753039 29448 net.cpp:122] Setting up cont_104_lstm1_cont_slice_103_split
I1017 23:52:42.753046 29448 net.cpp:129] Top shape: 1 5 (5)
I1017 23:52:42.753051 29448 net.cpp:129] Top shape: 1 5 (5)
I1017 23:52:42.753054 29448 net.cpp:137] Memory required for data: 2039520
I1017 23:52:42.753058 29448 layer_factory.hpp:77] Creating layer cont_105_lstm1_cont_slice_104_split
I1017 23:52:42.753063 29448 net.cpp:84] Creating Layer cont_105_lstm1_cont_slice_104_split
I1017 23:52:42.756680 29448 net.cpp:406] cont_105_lstm1_cont_slice_104_split <- cont_105
I1017 23:52:42.756705 29448 net.cpp:380] cont_105_lstm1_cont_slice_104_split -> cont_105_lstm1_cont_slice_104_split_0
I1017 23:52:42.756716 29448 net.cpp:380] cont_105_lstm1_cont_slice_104_split -> cont_105_lstm1_cont_slice_104_split_1
I1017 23:52:42.756763 29448 net.cpp:122] Setting up cont_105_lstm1_cont_slice_104_split
I1017 23:52:42.756772 29448 net.cpp:129] Top shape: 1 5 (5)
I1017 23:52:42.756777 29448 net.cpp:129] Top shape: 1 5 (5)
I1017 23:52:42.756780 29448 net.cpp:137] Memory required for data: 2039560
I1017 23:52:42.756784 29448 layer_factory.hpp:77] Creating layer cont_106_lstm1_cont_slice_105_split
I1017 23:52:42.756790 29448 net.cpp:84] Creating Layer cont_106_lstm1_cont_slice_105_split
I1017 23:52:42.756795 29448 net.cpp:406] cont_106_lstm1_cont_slice_105_split <- cont_106
I1017 23:52:42.756801 29448 net.cpp:380] cont_106_lstm1_cont_slice_105_split -> cont_106_lstm1_cont_slice_105_split_0
I1017 23:52:42.756808 29448 net.cpp:380] cont_106_lstm1_cont_slice_105_split -> cont_106_lstm1_cont_slice_105_split_1
I1017 23:52:42.756844 29448 net.cpp:122] Setting up cont_106_lstm1_cont_slice_105_split
I1017 23:52:42.756850 29448 net.cpp:129] Top shape: 1 5 (5)
I1017 23:52:42.756855 29448 net.cpp:129] Top shape: 1 5 (5)
I1017 23:52:42.756858 29448 net.cpp:137] Memory required for data: 2039600
I1017 23:52:42.756861 29448 layer_factory.hpp:77] Creating layer cont_107_lstm1_cont_slice_106_split
I1017 23:52:42.756866 29448 net.cpp:84] Creating Layer cont_107_lstm1_cont_slice_106_split
I1017 23:52:42.756871 29448 net.cpp:406] cont_107_lstm1_cont_slice_106_split <- cont_107
I1017 23:52:42.756877 29448 net.cpp:380] cont_107_lstm1_cont_slice_106_split -> cont_107_lstm1_cont_slice_106_split_0
I1017 23:52:42.756883 29448 net.cpp:380] cont_107_lstm1_cont_slice_106_split -> cont_107_lstm1_cont_slice_106_split_1
I1017 23:52:42.756918 29448 net.cpp:122] Setting up cont_107_lstm1_cont_slice_106_split
I1017 23:52:42.756924 29448 net.cpp:129] Top shape: 1 5 (5)
I1017 23:52:42.756929 29448 net.cpp:129] Top shape: 1 5 (5)
I1017 23:52:42.756933 29448 net.cpp:137] Memory required for data: 2039640
I1017 23:52:42.756937 29448 layer_factory.hpp:77] Creating layer cont_108_lstm1_cont_slice_107_split
I1017 23:52:42.756942 29448 net.cpp:84] Creating Layer cont_108_lstm1_cont_slice_107_split
I1017 23:52:42.756945 29448 net.cpp:406] cont_108_lstm1_cont_slice_107_split <- cont_108
I1017 23:52:42.756953 29448 net.cpp:380] cont_108_lstm1_cont_slice_107_split -> cont_108_lstm1_cont_slice_107_split_0
I1017 23:52:42.756960 29448 net.cpp:380] cont_108_lstm1_cont_slice_107_split -> cont_108_lstm1_cont_slice_107_split_1
I1017 23:52:42.756989 29448 net.cpp:122] Setting up cont_108_lstm1_cont_slice_107_split
I1017 23:52:42.756995 29448 net.cpp:129] Top shape: 1 5 (5)
I1017 23:52:42.756999 29448 net.cpp:129] Top shape: 1 5 (5)
I1017 23:52:42.757004 29448 net.cpp:137] Memory required for data: 2039680
I1017 23:52:42.757007 29448 layer_factory.hpp:77] Creating layer cont_109_lstm1_cont_slice_108_split
I1017 23:52:42.757014 29448 net.cpp:84] Creating Layer cont_109_lstm1_cont_slice_108_split
I1017 23:52:42.757019 29448 net.cpp:406] cont_109_lstm1_cont_slice_108_split <- cont_109
I1017 23:52:42.757024 29448 net.cpp:380] cont_109_lstm1_cont_slice_108_split -> cont_109_lstm1_cont_slice_108_split_0
I1017 23:52:42.757030 29448 net.cpp:380] cont_109_lstm1_cont_slice_108_split -> cont_109_lstm1_cont_slice_108_split_1
I1017 23:52:42.757061 29448 net.cpp:122] Setting up cont_109_lstm1_cont_slice_108_split
I1017 23:52:42.757066 29448 net.cpp:129] Top shape: 1 5 (5)
I1017 23:52:42.757071 29448 net.cpp:129] Top shape: 1 5 (5)
I1017 23:52:42.757074 29448 net.cpp:137] Memory required for data: 2039720
I1017 23:52:42.757078 29448 layer_factory.hpp:77] Creating layer cont_110_lstm1_cont_slice_109_split
I1017 23:52:42.757082 29448 net.cpp:84] Creating Layer cont_110_lstm1_cont_slice_109_split
I1017 23:52:42.757087 29448 net.cpp:406] cont_110_lstm1_cont_slice_109_split <- cont_110
I1017 23:52:42.757093 29448 net.cpp:380] cont_110_lstm1_cont_slice_109_split -> cont_110_lstm1_cont_slice_109_split_0
I1017 23:52:42.757100 29448 net.cpp:380] cont_110_lstm1_cont_slice_109_split -> cont_110_lstm1_cont_slice_109_split_1
I1017 23:52:42.757130 29448 net.cpp:122] Setting up cont_110_lstm1_cont_slice_109_split
I1017 23:52:42.757136 29448 net.cpp:129] Top shape: 1 5 (5)
I1017 23:52:42.757141 29448 net.cpp:129] Top shape: 1 5 (5)
I1017 23:52:42.757144 29448 net.cpp:137] Memory required for data: 2039760
I1017 23:52:42.757148 29448 layer_factory.hpp:77] Creating layer cont_111_lstm1_cont_slice_110_split
I1017 23:52:42.757153 29448 net.cpp:84] Creating Layer cont_111_lstm1_cont_slice_110_split
I1017 23:52:42.757158 29448 net.cpp:406] cont_111_lstm1_cont_slice_110_split <- cont_111
I1017 23:52:42.757164 29448 net.cpp:380] cont_111_lstm1_cont_slice_110_split -> cont_111_lstm1_cont_slice_110_split_0
I1017 23:52:42.757170 29448 net.cpp:380] cont_111_lstm1_cont_slice_110_split -> cont_111_lstm1_cont_slice_110_split_1
I1017 23:52:42.757200 29448 net.cpp:122] Setting up cont_111_lstm1_cont_slice_110_split
I1017 23:52:42.757206 29448 net.cpp:129] Top shape: 1 5 (5)
I1017 23:52:42.757210 29448 net.cpp:129] Top shape: 1 5 (5)
I1017 23:52:42.757215 29448 net.cpp:137] Memory required for data: 2039800
I1017 23:52:42.757218 29448 layer_factory.hpp:77] Creating layer cont_112_lstm1_cont_slice_111_split
I1017 23:52:42.757223 29448 net.cpp:84] Creating Layer cont_112_lstm1_cont_slice_111_split
I1017 23:52:42.757227 29448 net.cpp:406] cont_112_lstm1_cont_slice_111_split <- cont_112
I1017 23:52:42.757235 29448 net.cpp:380] cont_112_lstm1_cont_slice_111_split -> cont_112_lstm1_cont_slice_111_split_0
I1017 23:52:42.757241 29448 net.cpp:380] cont_112_lstm1_cont_slice_111_split -> cont_112_lstm1_cont_slice_111_split_1
I1017 23:52:42.757269 29448 net.cpp:122] Setting up cont_112_lstm1_cont_slice_111_split
I1017 23:52:42.757274 29448 net.cpp:129] Top shape: 1 5 (5)
I1017 23:52:42.757279 29448 net.cpp:129] Top shape: 1 5 (5)
I1017 23:52:42.757283 29448 net.cpp:137] Memory required for data: 2039840
I1017 23:52:42.757287 29448 layer_factory.hpp:77] Creating layer cont_113_lstm1_cont_slice_112_split
I1017 23:52:42.757294 29448 net.cpp:84] Creating Layer cont_113_lstm1_cont_slice_112_split
I1017 23:52:42.757298 29448 net.cpp:406] cont_113_lstm1_cont_slice_112_split <- cont_113
I1017 23:52:42.757304 29448 net.cpp:380] cont_113_lstm1_cont_slice_112_split -> cont_113_lstm1_cont_slice_112_split_0
I1017 23:52:42.757310 29448 net.cpp:380] cont_113_lstm1_cont_slice_112_split -> cont_113_lstm1_cont_slice_112_split_1
I1017 23:52:42.757340 29448 net.cpp:122] Setting up cont_113_lstm1_cont_slice_112_split
I1017 23:52:42.757346 29448 net.cpp:129] Top shape: 1 5 (5)
I1017 23:52:42.757351 29448 net.cpp:129] Top shape: 1 5 (5)
I1017 23:52:42.757354 29448 net.cpp:137] Memory required for data: 2039880
I1017 23:52:42.757359 29448 layer_factory.hpp:77] Creating layer cont_114_lstm1_cont_slice_113_split
I1017 23:52:42.757364 29448 net.cpp:84] Creating Layer cont_114_lstm1_cont_slice_113_split
I1017 23:52:42.757367 29448 net.cpp:406] cont_114_lstm1_cont_slice_113_split <- cont_114
I1017 23:52:42.757374 29448 net.cpp:380] cont_114_lstm1_cont_slice_113_split -> cont_114_lstm1_cont_slice_113_split_0
I1017 23:52:42.757380 29448 net.cpp:380] cont_114_lstm1_cont_slice_113_split -> cont_114_lstm1_cont_slice_113_split_1
I1017 23:52:42.757410 29448 net.cpp:122] Setting up cont_114_lstm1_cont_slice_113_split
I1017 23:52:42.757416 29448 net.cpp:129] Top shape: 1 5 (5)
…
I1017 23:52:49.845886 29448 net.cpp:406] lstm1_gate_input_183 <- W_xc_x_183
I1017 23:52:49.845893 29448 net.cpp:380] lstm1_gate_input_183 -> gate_input_183
I1017 23:52:49.845924 29448 net.cpp:122] Setting up lstm1_gate_input_183
I1017 23:52:49.845933 29448 net.cpp:129] Top shape: 1 150 2048 (307200)
I1017 23:52:49.845937 29448 net.cpp:137] Memory required for data: 1272585600
I1017 23:52:49.845942 29448 layer_factory.hpp:77] Creating layer lstm1_unit_183
I1017 23:52:49.845952 29448 net.cpp:84] Creating Layer lstm1_unit_183
I1017 23:52:49.845957 29448 net.cpp:406] lstm1_unit_183 <- c_182
I1017 23:52:49.845963 29448 net.cpp:406] lstm1_unit_183 <- gate_input_183
I1017 23:52:49.845968 29448 net.cpp:406] lstm1_unit_183 <- cont_183_lstm1_cont_slice_182_split_1
I1017 23:52:49.845974 29448 net.cpp:380] lstm1_unit_183 -> c_183
I1017 23:52:49.845983 29448 net.cpp:380] lstm1_unit_183 -> h_183
I1017 23:52:49.846029 29448 net.cpp:122] Setting up lstm1_unit_183
I1017 23:52:49.846036 29448 net.cpp:129] Top shape: 1 150 512 (76800)
I1017 23:52:49.846041 29448 net.cpp:129] Top shape: 1 150 512 (76800)
I1017 23:52:49.846045 29448 net.cpp:137] Memory required for data: 1273200000
I1017 23:52:49.846050 29448 layer_factory.hpp:77] Creating layer h_183_lstm1_unit_183_1_split
I1017 23:52:49.846056 29448 net.cpp:84] Creating Layer h_183_lstm1_unit_183_1_split
I1017 23:52:49.846061 29448 net.cpp:406] h_183_lstm1_unit_183_1_split <- h_183
I1017 23:52:49.846067 29448 net.cpp:380] h_183_lstm1_unit_183_1_split -> h_183_lstm1_unit_183_1_split_0
I1017 23:52:49.846074 29448 net.cpp:380] h_183_lstm1_unit_183_1_split -> h_183_lstm1_unit_183_1_split_1
I1017 23:52:49.846108 29448 net.cpp:122] Setting up h_183_lstm1_unit_183_1_split
I1017 23:52:49.846117 29448 net.cpp:129] Top shape: 1 150 512 (76800)
I1017 23:52:49.846122 29448 net.cpp:129] Top shape: 1 150 512 (76800)
I1017 23:52:49.846124 29448 net.cpp:137] Memory required for data: 1273814400
I1017 23:52:49.846128 29448 layer_factory.hpp:77] Creating layer lstm1_h_conted_183
I1017 23:52:49.846138 29448 net.cpp:84] Creating Layer lstm1_h_conted_183
I1017 23:52:49.846144 29448 net.cpp:406] lstm1_h_conted_183 <- h_183_lstm1_unit_183_1_split_0
I1017 23:52:49.846150 29448 net.cpp:406] lstm1_h_conted_183 <- cont_184_lstm1_cont_slice_183_split_0
I1017 23:52:49.846158 29448 net.cpp:380] lstm1_h_conted_183 -> h_conted_183
I1017 23:52:49.846231 29448 net.cpp:122] Setting up lstm1_h_conted_183
I1017 23:52:49.846241 29448 net.cpp:129] Top shape: 1 150 512 (76800)
I1017 23:52:49.846246 29448 net.cpp:137] Memory required for data: 1274121600
I1017 23:52:49.846249 29448 layer_factory.hpp:77] Creating layer lstm1_transform_184
I1017 23:52:49.846259 29448 net.cpp:84] Creating Layer lstm1_transform_184
I1017 23:52:49.846264 29448 net.cpp:406] lstm1_transform_184 <- h_conted_183
I1017 23:52:49.846271 29448 net.cpp:380] lstm1_transform_184 -> W_hc_h_183
I1017 23:52:49.857821 29448 net.cpp:122] Setting up lstm1_transform_184
I1017 23:52:49.857836 29448 net.cpp:129] Top shape: 1 150 2048 (307200)
I1017 23:52:49.857841 29448 net.cpp:137] Memory required for data: 1275350400
I1017 23:52:49.857846 29448 net.cpp:465] Sharing parameters 'W_hc' owned by layer 'lstm1_transform_1', param index 0
I1017 23:52:49.857851 29448 layer_factory.hpp:77] Creating layer lstm1_gate_input_184
I1017 23:52:49.857861 29448 net.cpp:84] Creating Layer lstm1_gate_input_184
I1017 23:52:49.857866 29448 net.cpp:406] lstm1_gate_input_184 <- W_hc_h_183
I1017 23:52:49.857872 29448 net.cpp:406] lstm1_gate_input_184 <- W_xc_x_184
I1017 23:52:49.857879 29448 net.cpp:380] lstm1_gate_input_184 -> gate_input_184
I1017 23:52:49.857908 29448 net.cpp:122] Setting up lstm1_gate_input_184
I1017 23:52:49.857918 29448 net.cpp:129] Top shape: 1 150 2048 (307200)
I1017 23:52:49.857921 29448 net.cpp:137] Memory required for data: 1276579200
I1017 23:52:49.857925 29448 layer_factory.hpp:77] Creating layer lstm1_unit_184
I1017 23:52:49.857933 29448 net.cpp:84] Creating Layer lstm1_unit_184
I1017 23:52:49.857937 29448 net.cpp:406] lstm1_unit_184 <- c_183
I1017 23:52:49.857944 29448 net.cpp:406] lstm1_unit_184 <- gate_input_184
I1017 23:52:49.857949 29448 net.cpp:406] lstm1_unit_184 <- cont_184_lstm1_cont_slice_183_split_1
I1017 23:52:49.857955 29448 net.cpp:380] lstm1_unit_184 -> c_184
I1017 23:52:49.857964 29448 net.cpp:380] lstm1_unit_184 -> h_184
I1017 23:52:49.858008 29448 net.cpp:122] Setting up lstm1_unit_184
I1017 23:52:49.858016 29448 net.cpp:129] Top shape: 1 150 512 (76800)
I1017 23:52:49.858021 29448 net.cpp:129] Top shape: 1 150 512 (76800)
I1017 23:52:49.858026 29448 net.cpp:137] Memory required for data: 1277193600
I1017 23:52:49.858029 29448 layer_factory.hpp:77] Creating layer h_184_lstm1_unit_184_1_split
I1017 23:52:49.858036 29448 net.cpp:84] Creating Layer h_184_lstm1_unit_184_1_split
I1017 23:52:49.858042 29448 net.cpp:406] h_184_lstm1_unit_184_1_split <- h_184
I1017 23:52:49.858047 29448 net.cpp:380] h_184_lstm1_unit_184_1_split -> h_184_lstm1_unit_184_1_split_0
I1017 23:52:49.858055 29448 net.cpp:380] h_184_lstm1_unit_184_1_split -> h_184_lstm1_unit_184_1_split_1
I1017 23:52:49.858090 29448 net.cpp:122] Setting up h_184_lstm1_unit_184_1_split
I1017 23:52:49.858098 29448 net.cpp:129] Top shape: 1 150 512 (76800)
I1017 23:52:49.858103 29448 net.cpp:129] Top shape: 1 150 512 (76800)
I1017 23:52:49.858106 29448 net.cpp:137] Memory required for data: 1277808000
I1017 23:52:49.858111 29448 layer_factory.hpp:77] Creating layer lstm1_h_conted_184
I1017 23:52:49.858121 29448 net.cpp:84] Creating Layer lstm1_h_conted_184
I1017 23:52:49.858127 29448 net.cpp:406] lstm1_h_conted_184 <- h_184_lstm1_unit_184_1_split_0
I1017 23:52:49.858134 29448 net.cpp:406] lstm1_h_conted_184 <- cont_185_lstm1_cont_slice_184_split_0
I1017 23:52:49.858141 29448 net.cpp:380] lstm1_h_conted_184 -> h_conted_184
I1017 23:52:49.858213 29448 net.cpp:122] Setting up lstm1_h_conted_184
I1017 23:52:49.858223 29448 net.cpp:129] Top shape: 1 150 512 (76800)
I1017 23:52:49.858227 29448 net.cpp:137] Memory required for data: 1278115200
I1017 23:52:49.858232 29448 layer_factory.hpp:77] Creating layer lstm1_transform_185
I1017 23:52:49.858242 29448 net.cpp:84] Creating Layer lstm1_transform_185
I1017 23:52:49.858247 29448 net.cpp:406] lstm1_transform_185 <- h_conted_184
I1017 23:52:49.858254 29448 net.cpp:380] lstm1_transform_185 -> W_hc_h_184
I1017 23:52:49.869848 29448 net.cpp:122] Setting up lstm1_transform_185
I1017 23:52:49.869868 29448 net.cpp:129] Top shape: 1 150 2048 (307200)
I1017 23:52:49.869874 29448 net.cpp:137] Memory required for data: 1279344000
I1017 23:52:49.869882 29448 net.cpp:465] Sharing parameters 'W_hc' owned by layer 'lstm1_transform_1', param index 0
I1017 23:52:49.869890 29448 layer_factory.hpp:77] Creating layer lstm1_gate_input_185
I1017 23:52:49.869902 29448 net.cpp:84] Creating Layer lstm1_gate_input_185
I1017 23:52:49.869915 29448 net.cpp:406] lstm1_gate_input_185 <- W_hc_h_184
I1017 23:52:49.869926 29448 net.cpp:406] lstm1_gate_input_185 <- W_xc_x_185
I1017 23:52:49.869940 29448 net.cpp:380] lstm1_gate_input_185 -> gate_input_185
I1017 23:52:49.869983 29448 net.cpp:122] Setting up lstm1_gate_input_185
I1017 23:52:49.869997 29448 net.cpp:129] Top shape: 1 150 2048 (307200)
I1017 23:52:49.870003 29448 net.cpp:137] Memory required for data: 1280572800
I1017 23:52:49.870010 29448 layer_factory.hpp:77] Creating layer lstm1_unit_185
I1017 23:52:49.870055 29448 net.cpp:84] Creating Layer lstm1_unit_185
I1017 23:52:49.870066 29448 net.cpp:406] lstm1_unit_185 <- c_184
I1017 23:52:49.870076 29448 net.cpp:406] lstm1_unit_185 <- gate_input_185
I1017 23:52:49.870082 29448 net.cpp:406] lstm1_unit_185 <- cont_185_lstm1_cont_slice_184_split_1
I1017 23:52:49.870090 29448 net.cpp:380] lstm1_unit_185 -> c_185
I1017 23:52:49.870098 29448 net.cpp:380] lstm1_unit_185 -> h_185
I1017 23:52:49.870156 29448 net.cpp:122] Setting up lstm1_unit_185
I1017 23:52:49.870164 29448 net.cpp:129] Top shape: 1 150 512 (76800)
I1017 23:52:49.870170 29448 net.cpp:129] Top shape: 1 150 512 (76800)
I1017 23:52:49.870174 29448 net.cpp:137] Memory required for data: 1281187200
I1017 23:52:49.870179 29448 layer_factory.hpp:77] Creating layer h_185_lstm1_unit_185_1_split
I1017 23:52:49.870184 29448 net.cpp:84] Creating Layer h_185_lstm1_unit_185_1_split
I1017 23:52:49.870190 29448 net.cpp:406] h_185_lstm1_unit_185_1_split <- h_185
I1017 23:52:49.870198 29448 net.cpp:380] h_185_lstm1_unit_185_1_split -> h_185_lstm1_unit_185_1_split_0
I1017 23:52:49.870206 29448 net.cpp:380] h_185_lstm1_unit_185_1_split -> h_185_lstm1_unit_185_1_split_1
I1017 23:52:49.870240 29448 net.cpp:122] Setting up h_185_lstm1_unit_185_1_split
I1017 23:52:49.870251 29448 net.cpp:129] Top shape: 1 150 512 (76800)
I1017 23:52:49.870260 29448 net.cpp:129] Top shape: 1 150 512 (76800)
I1017 23:52:49.870266 29448 net.cpp:137] Memory required for data: 1281801600
I1017 23:52:49.870276 29448 layer_factory.hpp:77] Creating layer lstm1_h_conted_185
I1017 23:52:49.870295 29448 net.cpp:84] Creating Layer lstm1_h_conted_185
I1017 23:52:49.870301 29448 net.cpp:406] lstm1_h_conted_185 <- h_185_lstm1_unit_185_1_split_0
I1017 23:52:49.870309 29448 net.cpp:406] lstm1_h_conted_185 <- cont_186_lstm1_cont_slice_185_split_0
I1017 23:52:49.870319 29448 net.cpp:380] lstm1_h_conted_185 -> h_conted_185
I1017 23:52:49.870404 29448 net.cpp:122] Setting up lstm1_h_conted_185
I1017 23:52:49.870415 29448 net.cpp:129] Top shape: 1 150 512 (76800)
I1017 23:52:49.870419 29448 net.cpp:137] Memory required for data: 1282108800
I1017 23:52:49.870424 29448 layer_factory.hpp:77] Creating layer lstm1_transform_186
I1017 23:52:49.870435 29448 net.cpp:84] Creating Layer lstm1_transform_186
I1017 23:52:49.870440 29448 net.cpp:406] lstm1_transform_186 <- h_conted_185
I1017 23:52:49.870450 29448 net.cpp:380] lstm1_transform_186 -> W_hc_h_185
I1017 23:52:49.896164 29448 net.cpp:122] Setting up lstm1_transform_186
I1017 23:52:49.896193 29448 net.cpp:129] Top shape: 1 150 2048 (307200)
I1017 23:52:49.896198 29448 net.cpp:137] Memory required for data: 1283337600
I1017 23:52:49.896209 29448 net.cpp:465] Sharing parameters 'W_hc' owned by layer 'lstm1_transform_1', param index 0
I1017 23:52:49.896216 29448 layer_factory.hpp:77] Creating layer lstm1_gate_input_186
I1017 23:52:49.896240 29448 net.cpp:84] Creating Layer lstm1_gate_input_186
I1017 23:52:49.896258 29448 net.cpp:406] lstm1_gate_input_186 <- W_hc_h_185
I1017 23:52:49.896272 29448 net.cpp:406] lstm1_gate_input_186 <- W_xc_x_186
I1017 23:52:49.896288 29448 net.cpp:380] lstm1_gate_input_186 -> gate_input_186
I1017 23:52:49.896340 29448 net.cpp:122] Setting up lstm1_gate_input_186
I1017 23:52:49.896349 29448 net.cpp:129] Top shape: 1 150 2048 (307200)
I1017 23:52:49.896354 29448 net.cpp:137] Memory required for data: 1284566400
I1017 23:52:49.896359 29448 layer_factory.hpp:77] Creating layer lstm1_unit_186
I1017 23:52:49.896371 29448 net.cpp:84] Creating Layer lstm1_unit_186
I1017 23:52:49.896383 29448 net.cpp:406] lstm1_unit_186 <- c_185
I1017 23:52:49.896389 29448 net.cpp:406] lstm1_unit_186 <- gate_input_186
I1017 23:52:49.896399 29448 net.cpp:406] lstm1_unit_186 <- cont_186_lstm1_cont_slice_185_split_1
I1017 23:52:49.896407 29448 net.cpp:380] lstm1_unit_186 -> c_186
I1017 23:52:49.896419 29448 net.cpp:380] lstm1_unit_186 -> h_186
I1017 23:52:49.896473 29448 net.cpp:122] Setting up lstm1_unit_186
I1017 23:52:49.896482 29448 net.cpp:129] Top shape: 1 150 512 (76800)
I1017 23:52:49.896488 29448 net.cpp:129] Top shape: 1 150 512 (76800)
I1017 23:52:49.896492 29448 net.cpp:137] Memory required for data: 1285180800
I1017 23:52:49.896497 29448 layer_factory.hpp:77] Creating layer h_186_lstm1_unit_186_1_split
I1017 23:52:49.896504 29448 net.cpp:84] Creating Layer h_186_lstm1_unit_186_1_split
I1017 23:52:49.896509 29448 net.cpp:406] h_186_lstm1_unit_186_1_split <- h_186
I1017 23:52:49.896517 29448 net.cpp:380] h_186_lstm1_unit_186_1_split -> h_186_lstm1_unit_186_1_split_0
I1017 23:52:49.896526 29448 net.cpp:380] h_186_lstm1_unit_186_1_split -> h_186_lstm1_unit_186_1_split_1
I1017 23:52:49.896565 29448 net.cpp:122] Setting up h_186_lstm1_unit_186_1_split
I1017 23:52:49.896574 29448 net.cpp:129] Top shape: 1 150 512 (76800)
I1017 23:52:49.896579 29448 net.cpp:129] Top shape: 1 150 512 (76800)
I1017 23:52:49.896584 29448 net.cpp:137] Memory required for data: 1285795200
I1017 23:52:49.896587 29448 layer_factory.hpp:77] Creating layer lstm1_h_conted_186
I1017 23:52:49.896601 29448 net.cpp:84] Creating Layer lstm1_h_conted_186
I1017 23:52:49.896611 29448 net.cpp:406] lstm1_h_conted_186 <- h_186_lstm1_unit_186_1_split_0
I1017 23:52:49.896620 29448 net.cpp:406] lstm1_h_conted_186 <- cont_187_lstm1_cont_slice_186_split_0
I1017 23:52:49.896631 29448 net.cpp:380] lstm1_h_conted_186 -> h_conted_186
I1017 23:52:49.896790 29448 net.cpp:122] Setting up lstm1_h_conted_186
I1017 23:52:49.896800 29448 net.cpp:129] Top shape: 1 150 512 (76800)
I1017 23:52:49.896805 29448 net.cpp:137] Memory required for data: 1286102400
I1017 23:52:49.896808 29448 layer_factory.hpp:77] Creating layer lstm1_transform_187
I1017 23:52:49.896823 29448 net.cpp:84] Creating Layer lstm1_transform_187
I1017 23:52:49.896831 29448 net.cpp:406] lstm1_transform_187 <- h_conted_186
I1017 23:52:49.896839 29448 net.cpp:380] lstm1_transform_187 -> W_hc_h_186
I1017 23:52:49.908788 29448 net.cpp:122] Setting up lstm1_transform_187
I1017 23:52:49.908818 29448 net.cpp:129] Top shape: 1 150 2048 (307200)
I1017 23:52:49.908825 29448 net.cpp:137] Memory required for data: 1287331200
I1017 23:52:49.908835 29448 net.cpp:465] Sharing parameters 'W_hc' owned by layer 'lstm1_transform_1', param index 0
I1017 23:52:49.908846 29448 layer_factory.hpp:77] Creating layer lstm1_gate_input_187
I1017 23:52:49.908895 29448 net.cpp:84] Creating Layer lstm1_gate_input_187
I1017 23:52:49.908910 29448 net.cpp:406] lstm1_gate_input_187 <- W_hc_h_186
I1017 23:52:49.908926 29448 net.cpp:406] lstm1_gate_input_187 <- W_xc_x_187
I1017 23:52:49.908944 29448 net.cpp:380] lstm1_gate_input_187 -> gate_input_187
I1017 23:52:49.909001 29448 net.cpp:122] Setting up lstm1_gate_input_187
I1017 23:52:49.909014 29448 net.cpp:129] Top shape: 1 150 2048 (307200)
I1017 23:52:49.909021 29448 net.cpp:137] Memory required for data: 1288560000
I1017 23:52:49.909029 29448 layer_factory.hpp:77] Creating layer lstm1_unit_187
I1017 23:52:49.909063 29448 net.cpp:84] Creating Layer lstm1_unit_187
I1017 23:52:49.909078 29448 net.cpp:406] lstm1_unit_187 <- c_186
I1017 23:52:49.909109 29448 net.cpp:406] lstm1_unit_187 <- gate_input_187
I1017 23:52:49.909122 29448 net.cpp:406] lstm1_unit_187 <- cont_187_lstm1_cont_slice_186_split_1
I1017 23:52:49.909134 29448 net.cpp:380] lstm1_unit_187 -> c_187
I1017 23:52:49.909147 29448 net.cpp:380] lstm1_unit_187 -> h_187
I1017 23:52:49.909215 29448 net.cpp:122] Setting up lstm1_unit_187
I1017 23:52:49.909229 29448 net.cpp:129] Top shape: 1 150 512 (76800)
I1017 23:52:49.909238 29448 net.cpp:129] Top shape: 1 150 512 (76800)
I1017 23:52:49.909263 29448 net.cpp:137] Memory required for data: 1289174400
I1017 23:52:49.909272 29448 layer_factory.hpp:77] Creating layer h_187_lstm1_unit_187_1_split
I1017 23:52:49.909283 29448 net.cpp:84] Creating Layer h_187_lstm1_unit_187_1_split
I1017 23:52:49.909296 29448 net.cpp:406] h_187_lstm1_unit_187_1_split <- h_187
I1017 23:52:49.909309 29448 net.cpp:380] h_187_lstm1_unit_187_1_split -> h_187_lstm1_unit_187_1_split_0
I1017 23:52:49.909327 29448 net.cpp:380] h_187_lstm1_unit_187_1_split -> h_187_lstm1_unit_187_1_split_1
I1017 23:52:49.909384 29448 net.cpp:122] Setting up h_187_lstm1_unit_187_1_split
I1017 23:52:49.909395 29448 net.cpp:129] Top shape: 1 150 512 (76800)
I1017 23:52:49.909404 29448 net.cpp:129] Top shape: 1 150 512 (76800)
I1017 23:52:49.909411 29448 net.cpp:137] Memory required for data: 1289788800
I1017 23:52:49.909418 29448 layer_factory.hpp:77] Creating layer lstm1_h_conted_187
I1017 23:52:49.909435 29448 net.cpp:84] Creating Layer lstm1_h_conted_187
I1017 23:52:49.909445 29448 net.cpp:406] lstm1_h_conted_187 <- h_187_lstm1_unit_187_1_split_0
I1017 23:52:49.909456 29448 net.cpp:406] lstm1_h_conted_187 <- cont_188_lstm1_cont_slice_187_split_0
I1017 23:52:49.909477 29448 net.cpp:380] lstm1_h_conted_187 -> h_conted_187
I1017 23:52:49.909629 29448 net.cpp:122] Setting up lstm1_h_conted_187
I1017 23:52:49.909643 29448 net.cpp:129] Top shape: 1 150 512 (76800)
I1017 23:52:49.909651 29448 net.cpp:137] Memory required for data: 1290096000
I1017 23:52:49.909657 29448 layer_factory.hpp:77] Creating layer lstm1_transform_188
I1017 23:52:49.909675 29448 net.cpp:84] Creating Layer lstm1_transform_188
I1017 23:52:49.909687 29448 net.cpp:406] lstm1_transform_188 <- h_conted_187
I1017 23:52:49.909703 29448 net.cpp:380] lstm1_transform_188 -> W_hc_h_187
I1017 23:52:49.935768 29448 net.cpp:122] Setting up lstm1_transform_188
I1017 23:52:49.935811 29448 net.cpp:129] Top shape: 1 150 2048 (307200)
I1017 23:52:49.935818 29448 net.cpp:137] Memory required for data: 1291324800
I1017 23:52:49.935832 29448 net.cpp:465] Sharing parameters 'W_hc' owned by layer 'lstm1_transform_1', param index 0
I1017 23:52:49.935842 29448 layer_factory.hpp:77] Creating layer lstm1_gate_input_188
I1017 23:52:49.935859 29448 net.cpp:84] Creating Layer lstm1_gate_input_188
I1017 23:52:49.935878 29448 net.cpp:406] lstm1_gate_input_188 <- W_hc_h_187
I1017 23:52:49.935890 29448 net.cpp:406] lstm1_gate_input_188 <- W_xc_x_188
I1017 23:52:49.935906 29448 net.cpp:380] lstm1_gate_input_188 -> gate_input_188
I1017 23:52:49.935961 29448 net.cpp:122] Setting up lstm1_gate_input_188
I1017 23:52:49.935971 29448 net.cpp:129] Top shape: 1 150 2048 (307200)
I1017 23:52:49.935974 29448 net.cpp:137] Memory required for data: 1292553600
I1017 23:52:49.935978 29448 layer_factory.hpp:77] Creating layer lstm1_unit_188
I1017 23:52:49.935989 29448 net.cpp:84] Creating Layer lstm1_unit_188
I1017 23:52:49.936002 29448 net.cpp:406] lstm1_unit_188 <- c_187
I1017 23:52:49.936007 29448 net.cpp:406] lstm1_unit_188 <- gate_input_188
I1017 23:52:49.936017 29448 net.cpp:406] lstm1_unit_188 <- cont_188_lstm1_cont_slice_187_split_1
I1017 23:52:49.936025 29448 net.cpp:380] lstm1_unit_188 -> c_188
I1017 23:52:49.936056 29448 net.cpp:380] lstm1_unit_188 -> h_188
I1017 23:52:49.936116 29448 net.cpp:122] Setting up lstm1_unit_188
I1017 23:52:49.936125 29448 net.cpp:129] Top shape: 1 150 512 (76800)
I1017 23:52:49.936131 29448 net.cpp:129] Top shape: 1 150 512 (76800)
I1017 23:52:49.936141 29448 net.cpp:137] Memory required for data: 1293168000
I1017 23:52:49.936146 29448 layer_factory.hpp:77] Creating layer h_188_lstm1_unit_188_1_split
I1017 23:52:49.936152 29448 net.cpp:84] Creating Layer h_188_lstm1_unit_188_1_split
I1017 23:52:49.936159 29448 net.cpp:406] h_188_lstm1_unit_188_1_split <- h_188
I1017 23:52:49.936167 29448 net.cpp:380] h_188_lstm1_unit_188_1_split -> h_188_lstm1_unit_188_1_split_0
I1017 23:52:49.936175 29448 net.cpp:380] h_188_lstm1_unit_188_1_split -> h_188_lstm1_unit_188_1_split_1
I1017 23:52:49.936213 29448 net.cpp:122] Setting up h_188_lstm1_unit_188_1_split
I1017 23:52:49.936221 29448 net.cpp:129] Top shape: 1 150 512 (76800)
I1017 23:52:49.936226 29448 net.cpp:129] Top shape: 1 150 512 (76800)
I1017 23:52:49.936230 29448 net.cpp:137] Memory required for data: 1293782400
I1017 23:52:49.936235 29448 layer_factory.hpp:77] Creating layer lstm1_h_conted_188
I1017 23:52:49.936247 29448 net.cpp:84] Creating Layer lstm1_h_conted_188
I1017 23:52:49.936252 29448 net.cpp:406] lstm1_h_conted_188 <- h_188_lstm1_unit_188_1_split_0
I1017 23:52:49.936259 29448 net.cpp:406] lstm1_h_conted_188 <- cont_189_lstm1_cont_slice_188_split_0
I1017 23:52:49.936271 29448 net.cpp:380] lstm1_h_conted_188 -> h_conted_188
I1017 23:52:49.936431 29448 net.cpp:122] Setting up lstm1_h_conted_188
I1017 23:52:49.936441 29448 net.cpp:129] Top shape: 1 150 512 (76800)
I1017 23:52:49.936445 29448 net.cpp:137] Memory required for data: 1294089600
I1017 23:52:49.936450 29448 layer_factory.hpp:77] Creating layer lstm1_transform_189
I1017 23:52:49.936460 29448 net.cpp:84] Creating Layer lstm1_transform_189
I1017 23:52:49.936465 29448 net.cpp:406] lstm1_transform_189 <- h_conted_188
I1017 23:52:49.936476 29448 net.cpp:380] lstm1_transform_189 -> W_hc_h_188
I1017 23:52:49.948559 29448 net.cpp:122] Setting up lstm1_transform_189
I1017 23:52:49.948580 29448 net.cpp:129] Top shape: 1 150 2048 (307200)
I1017 23:52:49.948585 29448 net.cpp:137] Memory required for data: 1295318400
I1017 23:52:49.948592 29448 net.cpp:465] Sharing parameters 'W_hc' owned by layer 'lstm1_transform_1', param index 0
I1017 23:52:49.948597 29448 layer_factory.hpp:77] Creating layer lstm1_gate_input_189
I1017 23:52:49.948609 29448 net.cpp:84] Creating Layer lstm1_gate_input_189
I1017 23:52:49.948616 29448 net.cpp:406] lstm1_gate_input_189 <- W_hc_h_188
I1017 23:52:49.948624 29448 net.cpp:406] lstm1_gate_input_189 <- W_xc_x_189
I1017 23:52:49.948633 29448 net.cpp:380] lstm1_gate_input_189 -> gate_input_189
I1017 23:52:49.948670 29448 net.cpp:122] Setting up lstm1_gate_input_189
I1017 23:52:49.948680 29448 net.cpp:129] Top shape: 1 150 2048 (307200)
I1017 23:52:49.948684 29448 net.cpp:137] Memory required for data: 1296547200
I1017 23:52:49.948688 29448 layer_factory.hpp:77] Creating layer lstm1_unit_189
I1017 23:52:49.948698 29448 net.cpp:84] Creating Layer lstm1_unit_189
I1017 23:52:49.948704 29448 net.cpp:406] lstm1_unit_189 <- c_188
I1017 23:52:49.948710 29448 net.cpp:406] lstm1_unit_189 <- gate_input_189
I1017 23:52:49.948717 29448 net.cpp:406] lstm1_unit_189 <- cont_189_lstm1_cont_slice_188_split_1
I1017 23:52:49.948724 29448 net.cpp:380] lstm1_unit_189 -> c_189
I1017 23:52:49.948734 29448 net.cpp:380] lstm1_unit_189 -> h_189
I1017 23:52:49.948787 29448 net.cpp:122] Setting up lstm1_unit_189
I1017 23:52:49.948796 29448 net.cpp:129] Top shape: 1 150 512 (76800)
I1017 23:52:49.948801 29448 net.cpp:129] Top shape: 1 150 512 (76800)
I1017 23:52:49.948806 29448 net.cpp:137] Memory required for data: 1297161600
I1017 23:52:49.948809 29448 layer_factory.hpp:77] Creating layer h_189_lstm1_unit_189_1_split
I1017 23:52:49.948815 29448 net.cpp:84] Creating Layer h_189_lstm1_unit_189_1_split
I1017 23:52:49.948822 29448 net.cpp:406] h_189_lstm1_unit_189_1_split <- h_189
I1017 23:52:49.948828 29448 net.cpp:380] h_189_lstm1_unit_189_1_split -> h_189_lstm1_unit_189_1_split_0
I1017 23:52:49.948837 29448 net.cpp:380] h_189_lstm1_unit_189_1_split -> h_189_lstm1_unit_189_1_split_1
I1017 23:52:49.948879 29448 net.cpp:122] Setting up h_189_lstm1_unit_189_1_split
I1017 23:52:49.948886 29448 net.cpp:129] Top shape: 1 150 512 (76800)
I1017 23:52:49.948896 29448 net.cpp:129] Top shape: 1 150 512 (76800)
I1017 23:52:49.948900 29448 net.cpp:137] Memory required for data: 1297776000
I1017 23:52:49.948904 29448 layer_factory.hpp:77] Creating layer lstm1_h_conted_189
I1017 23:52:49.948913 29448 net.cpp:84] Creating Layer lstm1_h_conted_189
I1017 23:52:49.948918 29448 net.cpp:406] lstm1_h_conted_189 <- h_189_lstm1_unit_189_1_split_0
I1017 23:52:49.948925 29448 net.cpp:406] lstm1_h_conted_189 <- cont_190_lstm1_cont_slice_189_split_0
I1017 23:52:49.948935 29448 net.cpp:380] lstm1_h_conted_189 -> h_conted_189
I1017 23:52:49.949048 29448 net.cpp:122] Setting up lstm1_h_conted_189
I1017 23:52:49.949064 29448 net.cpp:129] Top shape: 1 150 512 (76800)
I1017 23:52:49.949069 29448 net.cpp:137] Memory required for data: 1298083200
I1017 23:52:49.949072 29448 layer_factory.hpp:77] Creating layer lstm1_transform_190
I1017 23:52:49.949081 29448 net.cpp:84] Creating Layer lstm1_transform_190
I1017 23:52:49.949087 29448 net.cpp:406] lstm1_transform_190 <- h_conted_189
I1017 23:52:49.949095 29448 net.cpp:380] lstm1_transform_190 -> W_hc_h_189
I1017 23:52:49.974895 29448 net.cpp:122] Setting up lstm1_transform_190
I1017 23:52:49.974936 29448 net.cpp:129] Top shape: 1 150 2048 (307200)
I1017 23:52:49.974941 29448 net.cpp:137] Memory required for data: 1299312000
I1017 23:52:49.974951 29448 net.cpp:465] Sharing parameters 'W_hc' owned by layer 'lstm1_transform_1', param index 0
I1017 23:52:49.974961 29448 layer_factory.hpp:77] Creating layer lstm1_gate_input_190
I1017 23:52:49.974977 29448 net.cpp:84] Creating Layer lstm1_gate_input_190
I1017 23:52:49.974988 29448 net.cpp:406] lstm1_gate_input_190 <- W_hc_h_189
I1017 23:52:49.975000 29448 net.cpp:406] lstm1_gate_input_190 <- W_xc_x_190
I1017 23:52:49.975013 29448 net.cpp:380] lstm1_gate_input_190 -> gate_input_190
I1017 23:52:49.975069 29448 net.cpp:122] Setting up lstm1_gate_input_190
I1017 23:52:49.975080 29448 net.cpp:129] Top shape: 1 150 2048 (307200)
I1017 23:52:49.975083 29448 net.cpp:137] Memory required for data: 1300540800
I1017 23:52:49.975087 29448 layer_factory.hpp:77] Creating layer lstm1_unit_190
I1017 23:52:49.975095 29448 net.cpp:84] Creating Layer lstm1_unit_190
I1017 23:52:49.975105 29448 net.cpp:406] lstm1_unit_190 <- c_189
I1017 23:52:49.975111 29448 net.cpp:406] lstm1_unit_190 <- gate_input_190
I1017 23:52:49.975121 29448 net.cpp:406] lstm1_unit_190 <- cont_190_lstm1_cont_slice_189_split_1
I1017 23:52:49.975128 29448 net.cpp:380] lstm1_unit_190 -> c_190
I1017 23:52:49.975139 29448 net.cpp:380] lstm1_unit_190 -> h_190
I1017 23:52:49.975203 29448 net.cpp:122] Setting up lstm1_unit_190
I1017 23:52:49.975211 29448 net.cpp:129] Top shape: 1 150 512 (76800)
I1017 23:52:49.975217 29448 net.cpp:129] Top shape: 1 150 512 (76800)
I1017 23:52:49.975221 29448 net.cpp:137] Memory required for data: 1301155200
I1017 23:52:49.975225 29448 layer_factory.hpp:77] Creating layer h_190_lstm1_unit_190_1_split
I1017 23:52:49.975234 29448 net.cpp:84] Creating Layer h_190_lstm1_unit_190_1_split
I1017 23:52:49.975239 29448 net.cpp:406] h_190_lstm1_unit_190_1_split <- h_190
I1017 23:52:49.975246 29448 net.cpp:380] h_190_lstm1_unit_190_1_split -> h_190_lstm1_unit_190_1_split_0
I1017 23:52:49.975255 29448 net.cpp:380] h_190_lstm1_unit_190_1_split -> h_190_lstm1_unit_190_1_split_1
I1017 23:52:49.975299 29448 net.cpp:122] Setting up h_190_lstm1_unit_190_1_split
I1017 23:52:49.975307 29448 net.cpp:129] Top shape: 1 150 512 (76800)
I1017 23:52:49.975312 29448 net.cpp:129] Top shape: 1 150 512 (76800)
I1017 23:52:49.975317 29448 net.cpp:137] Memory required for data: 1301769600
I1017 23:52:49.975320 29448 layer_factory.hpp:77] Creating layer lstm1_h_conted_190
I1017 23:52:49.975333 29448 net.cpp:84] Creating Layer lstm1_h_conted_190
I1017 23:52:49.975342 29448 net.cpp:406] lstm1_h_conted_190 <- h_190_lstm1_unit_190_1_split_0
I1017 23:52:49.975350 29448 net.cpp:406] lstm1_h_conted_190 <- cont_191_lstm1_cont_slice_190_split_0
I1017 23:52:49.975361 29448 net.cpp:380] lstm1_h_conted_190 -> h_conted_190
I1017 23:52:49.975529 29448 net.cpp:122] Setting up lstm1_h_conted_190
I1017 23:52:49.975539 29448 net.cpp:129] Top shape: 1 150 512 (76800)
I1017 23:52:49.975543 29448 net.cpp:137] Memory required for data: 1302076800
I1017 23:52:49.975548 29448 layer_factory.hpp:77] Creating layer lstm1_transform_191
I1017 23:52:49.975561 29448 net.cpp:84] Creating Layer lstm1_transform_191
I1017 23:52:49.975569 29448 net.cpp:406] lstm1_transform_191 <- h_conted_190
I1017 23:52:49.975577 29448 net.cpp:380] lstm1_transform_191 -> W_hc_h_190
I1017 23:52:49.987502 29448 net.cpp:122] Setting up lstm1_transform_191
I1017 23:52:49.987530 29448 net.cpp:129] Top shape: 1 150 2048 (307200)
I1017 23:52:49.987535 29448 net.cpp:137] Memory required for data: 1303305600
I1017 23:52:49.987543 29448 net.cpp:465] Sharing parameters 'W_hc' owned by layer 'lstm1_transform_1', param index 0
I1017 23:52:49.987550 29448 layer_factory.hpp:77] Creating layer lstm1_gate_input_191
I1017 23:52:49.987562 29448 net.cpp:84] Creating Layer lstm1_gate_input_191
I1017 23:52:49.987582 29448 net.cpp:406] lstm1_gate_input_191 <- W_hc_h_190
I1017 23:52:49.987593 29448 net.cpp:406] lstm1_gate_input_191 <- W_xc_x_191
I1017 23:52:49.987618 29448 net.cpp:380] lstm1_gate_input_191 -> gate_input_191
I1017 23:52:49.987665 29448 net.cpp:122] Setting up lstm1_gate_input_191
I1017 23:52:49.987673 29448 net.cpp:129] Top shape: 1 150 2048 (307200)
I1017 23:52:49.987676 29448 net.cpp:137] Memory required for data: 1304534400
I1017 23:52:49.987680 29448 layer_factory.hpp:77] Creating layer lstm1_unit_191
I1017 23:52:49.987691 29448 net.cpp:84] Creating Layer lstm1_unit_191
I1017 23:52:49.987700 29448 net.cpp:406] lstm1_unit_191 <- c_190
I1017 23:52:49.987706 29448 net.cpp:406] lstm1_unit_191 <- gate_input_191
I1017 23:52:49.987715 29448 net.cpp:406] lstm1_unit_191 <- cont_191_lstm1_cont_slice_190_split_1
I1017 23:52:49.987723 29448 net.cpp:380] lstm1_unit_191 -> c_191
I1017 23:52:49.987732 29448 net.cpp:380] lstm1_unit_191 -> h_191
I1017 23:52:49.987787 29448 net.cpp:122] Setting up lstm1_unit_191
I1017 23:52:49.987797 29448 net.cpp:129] Top shape: 1 150 512 (76800)
I1017 23:52:49.987802 29448 net.cpp:129] Top shape: 1 150 512 (76800)
I1017 23:52:49.987805 29448 net.cpp:137] Memory required for data: 1305148800
I1017 23:52:49.987809 29448 layer_factory.hpp:77] Creating layer h_191_lstm1_unit_191_1_split
I1017 23:52:49.987818 29448 net.cpp:84] Creating Layer h_191_lstm1_unit_191_1_split
I1017 23:52:49.987823 29448 net.cpp:406] h_191_lstm1_unit_191_1_split <- h_191
I1017 23:52:49.987833 29448 net.cpp:380] h_191_lstm1_unit_191_1_split -> h_191_lstm1_unit_191_1_split_0
I1017 23:52:49.987845 29448 net.cpp:380] h_191_lstm1_unit_191_1_split -> h_191_lstm1_unit_191_1_split_1
I1017 23:52:49.987881 29448 net.cpp:122] Setting up h_191_lstm1_unit_191_1_split
I1017 23:52:49.987890 29448 net.cpp:129] Top shape: 1 150 512 (76800)
I1017 23:52:49.987895 29448 net.cpp:129] Top shape: 1 150 512 (76800)
I1017 23:52:49.987898 29448 net.cpp:137] Memory required for data: 1305763200
I1017 23:52:49.987905 29448 layer_factory.hpp:77] Creating layer lstm1_h_conted_191
I1017 23:52:49.987916 29448 net.cpp:84] Creating Layer lstm1_h_conted_191
I1017 23:52:49.987921 29448 net.cpp:406] lstm1_h_conted_191 <- h_191_lstm1_unit_191_1_split_0
I1017 23:52:49.987928 29448 net.cpp:406] lstm1_h_conted_191 <- cont_192_lstm1_cont_slice_191_split_0
I1017 23:52:49.987939 29448 net.cpp:380] lstm1_h_conted_191 -> h_conted_191
I1017 23:52:49.988085 29448 net.cpp:122] Setting up lstm1_h_conted_191
I1017 23:52:49.988097 29448 net.cpp:129] Top shape: 1 150 512 (76800)
I1017 23:52:49.988101 29448 net.cpp:137] Memory required for data: 1306070400
I1017 23:52:49.988106 29448 layer_factory.hpp:77] Creating layer lstm1_transform_192
I1017 23:52:49.988118 29448 net.cpp:84] Creating Layer lstm1_transform_192
I1017 23:52:49.988126 29448 net.cpp:406] lstm1_transform_192 <- h_conted_191
I1017 23:52:49.988137 29448 net.cpp:380] lstm1_transform_192 -> W_hc_h_191
I1017 23:52:50.013582 29448 net.cpp:122] Setting up lstm1_transform_192
I1017 23:52:50.013620 29448 net.cpp:129] Top shape: 1 150 2048 (307200)
I1017 23:52:50.013625 29448 net.cpp:137] Memory required for data: 1307299200
I1017 23:52:50.013636 29448 net.cpp:465] Sharing parameters 'W_hc' owned by layer 'lstm1_transform_1', param index 0
I1017 23:52:50.013643 29448 layer_factory.hpp:77] Creating layer lstm1_gate_input_192
I1017 23:52:50.013658 29448 net.cpp:84] Creating Layer lstm1_gate_input_192
I1017 23:52:50.013669 29448 net.cpp:406] lstm1_gate_input_192 <- W_hc_h_191
I1017 23:52:50.013681 29448 net.cpp:406] lstm1_gate_input_192 <- W_xc_x_192
I1017 23:52:50.013695 29448 net.cpp:380] lstm1_gate_input_192 -> gate_input_192
I1017 23:52:50.013747 29448 net.cpp:122] Setting up lstm1_gate_input_192
I1017 23:52:50.013757 29448 net.cpp:129] Top shape: 1 150 2048 (307200)
I1017 23:52:50.013761 29448 net.cpp:137] Memory required for data: 1308528000
I1017 23:52:50.013766 29448 layer_factory.hpp:77] Creating layer lstm1_unit_192
I1017 23:52:50.013778 29448 net.cpp:84] Creating Layer lstm1_unit_192
I1017 23:52:50.013790 29448 net.cpp:406] lstm1_unit_192 <- c_191
I1017 23:52:50.013797 29448 net.cpp:406] lstm1_unit_192 <- gate_input_192
I1017 23:52:50.013805 29448 net.cpp:406] lstm1_unit_192 <- cont_192_lstm1_cont_slice_191_split_1
I1017 23:52:50.013813 29448 net.cpp:380] lstm1_unit_192 -> c_192
I1017 23:52:50.013824 29448 net.cpp:380] lstm1_unit_192 -> h_192
I1017 23:52:50.013885 29448 net.cpp:122] Setting up lstm1_unit_192
I1017 23:52:50.013893 29448 net.cpp:129] Top shape: 1 150 512 (76800)
I1017 23:52:50.013898 29448 net.cpp:129] Top shape: 1 150 512 (76800)
I1017 23:52:50.013902 29448 net.cpp:137] Memory required for data: 1309142400
I1017 23:52:50.013907 29448 layer_factory.hpp:77] Creating layer h_192_lstm1_unit_192_1_split
I1017 23:52:50.013914 29448 net.cpp:84] Creating Layer h_192_lstm1_unit_192_1_split
I1017 23:52:50.013919 29448 net.cpp:406] h_192_lstm1_unit_192_1_split <- h_192
I1017 23:52:50.013926 29448 net.cpp:380] h_192_lstm1_unit_192_1_split -> h_192_lstm1_unit_192_1_split_0
I1017 23:52:50.013936 29448 net.cpp:380] h_192_lstm1_unit_192_1_split -> h_192_lstm1_unit_192_1_split_1
I1017 23:52:50.013974 29448 net.cpp:122] Setting up h_192_lstm1_unit_192_1_split
I1017 23:52:50.013983 29448 net.cpp:129] Top shape: 1 150 512 (76800)
I1017 23:52:50.013988 29448 net.cpp:129] Top shape: 1 150 512 (76800)
I1017 23:52:50.013991 29448 net.cpp:137] Memory required for data: 1309756800
I1017 23:52:50.013996 29448 layer_factory.hpp:77] Creating layer lstm1_h_conted_192
I1017 23:52:50.014009 29448 net.cpp:84] Creating Layer lstm1_h_conted_192
I1017 23:52:50.014022 29448 net.cpp:406] lstm1_h_conted_192 <- h_192_lstm1_unit_192_1_split_0
I1017 23:52:50.014029 29448 net.cpp:406] lstm1_h_conted_192 <- cont_193_lstm1_cont_slice_192_split_0
I1017 23:52:50.014040 29448 net.cpp:380] lstm1_h_conted_192 -> h_conted_192
I1017 23:52:50.014201 29448 net.cpp:122] Setting up lstm1_h_conted_192
I1017 23:52:50.014211 29448 net.cpp:129] Top shape: 1 150 512 (76800)
I1017 23:52:50.014215 29448 net.cpp:137] Memory required for data: 1310064000
I1017 23:52:50.014219 29448 layer_factory.hpp:77] Creating layer lstm1_transform_193
I1017 23:52:50.014232 29448 net.cpp:84] Creating Layer lstm1_transform_193
I1017 23:52:50.014237 29448 net.cpp:406] lstm1_transform_193 <- h_conted_192
I1017 23:52:50.014246 29448 net.cpp:380] lstm1_transform_193 -> W_hc_h_192
I1017 23:52:50.033671 29448 net.cpp:122] Setting up lstm1_transform_193
I1017 23:52:50.033895 29448 net.cpp:129] Top shape: 1 150 2048 (307200)
I1017 23:52:50.033915 29448 net.cpp:137] Memory required for data: 1311292800
I1017 23:52:50.033948 29448 net.cpp:465] Sharing parameters 'W_hc' owned by layer 'lstm1_transform_1', param index 0
I1017 23:52:50.033991 29448 layer_factory.hpp:77] Creating layer lstm1_gate_input_193
I1017 23:52:50.034065 29448 net.cpp:84] Creating Layer lstm1_gate_input_193
I1017 23:52:50.034106 29448 net.cpp:406] lstm1_gate_input_193 <- W_hc_h_192
I1017 23:52:50.034164 29448 net.cpp:406] lstm1_gate_input_193 <- W_xc_x_193
I1017 23:52:50.034178 29448 net.cpp:380] lstm1_gate_input_193 -> gate_input_193
I1017 23:52:50.034235 29448 net.cpp:122] Setting up lstm1_gate_input_193
I1017 23:52:50.034247 29448 net.cpp:129] Top shape: 1 150 2048 (307200)
I1017 23:52:50.034252 29448 net.cpp:137] Memory required for data: 1312521600
I1017 23:52:50.034257 29448 layer_factory.hpp:77] Creating layer lstm1_unit_193
I1017 23:52:50.034268 29448 net.cpp:84] Creating Layer lstm1_unit_193
I1017 23:52:50.034276 29448 net.cpp:406] lstm1_unit_193 <- c_192
I1017 23:52:50.034286 29448 net.cpp:406] lstm1_unit_193 <- gate_input_193
I1017 23:52:50.034296 29448 net.cpp:406] lstm1_unit_193 <- cont_193_lstm1_cont_slice_192_split_1
I1017 23:52:50.034307 29448 net.cpp:380] lstm1_unit_193 -> c_193
I1017 23:52:50.034324 29448 net.cpp:380] lstm1_unit_193 -> h_193
I1017 23:52:50.034391 29448 net.cpp:122] Setting up lstm1_unit_193
I1017 23:52:50.034402 29448 net.cpp:129] Top shape: 1 150 512 (76800)
I1017 23:52:50.034409 29448 net.cpp:129] Top shape: 1 150 512 (76800)
I1017 23:52:50.034415 29448 net.cpp:137] Memory required for data: 1313136000
I1017 23:52:50.034420 29448 layer_factory.hpp:77] Creating layer h_193_lstm1_unit_193_1_split
I1017 23:52:50.034430 29448 net.cpp:84] Creating Layer h_193_lstm1_unit_193_1_split
I1017 23:52:50.034435 29448 net.cpp:406] h_193_lstm1_unit_193_1_split <- h_193
I1017 23:52:50.034445 29448 net.cpp:380] h_193_lstm1_unit_193_1_split -> h_193_lstm1_unit_193_1_split_0
I1017 23:52:50.034454 29448 net.cpp:380] h_193_lstm1_unit_193_1_split -> h_193_lstm1_unit_193_1_split_1
I1017 23:52:50.034502 29448 net.cpp:122] Setting up h_193_lstm1_unit_193_1_split
I1017 23:52:50.034513 29448 net.cpp:129] Top shape: 1 150 512 (76800)
I1017 23:52:50.034519 29448 net.cpp:129] Top shape: 1 150 512 (76800)
I1017 23:52:50.034524 29448 net.cpp:137] Memory required for data: 1313750400
I1017 23:52:50.034529 29448 layer_factory.hpp:77] Creating layer lstm1_h_conted_193
I1017 23:52:50.034544 29448 net.cpp:84] Creating Layer lstm1_h_conted_193
I1017 23:52:50.034551 29448 net.cpp:406] lstm1_h_conted_193 <- h_193_lstm1_unit_193_1_split_0
I1017 23:52:50.034561 29448 net.cpp:406] lstm1_h_conted_193 <- cont_194_lstm1_cont_slice_193_split_0
I1017 23:52:50.034574 29448 net.cpp:380] lstm1_h_conted_193 -> h_conted_193
I1017 23:52:50.034766 29448 net.cpp:122] Setting up lstm1_h_conted_193
I1017 23:52:50.034780 29448 net.cpp:129] Top shape: 1 150 512 (76800)
I1017 23:52:50.034785 29448 net.cpp:137] Memory required for data: 1314057600
I1017 23:52:50.034791 29448 layer_factory.hpp:77] Creating layer lstm1_transform_194
I1017 23:52:50.034803 29448 net.cpp:84] Creating Layer lstm1_transform_194
I1017 23:52:50.034811 29448 net.cpp:406] lstm1_transform_194 <- h_conted_193
I1017 23:52:50.034823 29448 net.cpp:380] lstm1_transform_194 -> W_hc_h_193
I1017 23:52:50.055415 29448 net.cpp:122] Setting up lstm1_transform_194
I1017 23:52:50.055450 29448 net.cpp:129] Top shape: 1 150 2048 (307200)
I1017 23:52:50.055456 29448 net.cpp:137] Memory required for data: 1315286400
I1017 23:52:50.055467 29448 net.cpp:465] Sharing parameters 'W_hc' owned by layer 'lstm1_transform_1', param index 0
I1017 23:52:50.055475 29448 layer_factory.hpp:77] Creating layer lstm1_gate_input_194
I1017 23:52:50.055495 29448 net.cpp:84] Creating Layer lstm1_gate_input_194
I1017 23:52:50.055506 29448 net.cpp:406] lstm1_gate_input_194 <- W_hc_h_193
I1017 23:52:50.055517 29448 net.cpp:406] lstm1_gate_input_194 <- W_xc_x_194
I1017 23:52:50.055537 29448 net.cpp:380] lstm1_gate_input_194 -> gate_input_194
I1017 23:52:50.055593 29448 net.cpp:122] Setting up lstm1_gate_input_194
I1017 23:52:50.055606 29448 net.cpp:129] Top shape: 1 150 2048 (307200)
I1017 23:52:50.055610 29448 net.cpp:137] Memory required for data: 1316515200
I1017 23:52:50.055616 29448 layer_factory.hpp:77] Creating layer lstm1_unit_194
I1017 23:52:50.055630 29448 net.cpp:84] Creating Layer lstm1_unit_194
I1017 23:52:50.055639 29448 net.cpp:406] lstm1_unit_194 <- c_193
I1017 23:52:50.055647 29448 net.cpp:406] lstm1_unit_194 <- gate_input_194
I1017 23:52:50.055656 29448 net.cpp:406] lstm1_unit_194 <- cont_194_lstm1_cont_slice_193_split_1
I1017 23:52:50.055665 29448 net.cpp:380] lstm1_unit_194 -> c_194
I1017 23:52:50.055680 29448 net.cpp:380] lstm1_unit_194 -> h_194
I1017 23:52:50.055752 29448 net.cpp:122] Setting up lstm1_unit_194
I1017 23:52:50.055763 29448 net.cpp:129] Top shape: 1 150 512 (76800)
I1017 23:52:50.055769 29448 net.cpp:129] Top shape: 1 150 512 (76800)
I1017 23:52:50.055775 29448 net.cpp:137] Memory required for data: 1317129600
I1017 23:52:50.055781 29448 layer_factory.hpp:77] Creating layer h_194_lstm1_unit_194_1_split
I1017 23:52:50.055791 29448 net.cpp:84] Creating Layer h_194_lstm1_unit_194_1_split
I1017 23:52:50.055797 29448 net.cpp:406] h_194_lstm1_unit_194_1_split <- h_194
I1017 23:52:50.055807 29448 net.cpp:380] h_194_lstm1_unit_194_1_split -> h_194_lstm1_unit_194_1_split_0
I1017 23:52:50.055817 29448 net.cpp:380] h_194_lstm1_unit_194_1_split -> h_194_lstm1_unit_194_1_split_1
I1017 23:52:50.055872 29448 net.cpp:122] Setting up h_194_lstm1_unit_194_1_split
I1017 23:52:50.055881 29448 net.cpp:129] Top shape: 1 150 512 (76800)
I1017 23:52:50.055888 29448 net.cpp:129] Top shape: 1 150 512 (76800)
I1017 23:52:50.055892 29448 net.cpp:137] Memory required for data: 1317744000
I1017 23:52:50.055899 29448 layer_factory.hpp:77] Creating layer lstm1_h_conted_194
I1017 23:52:50.055912 29448 net.cpp:84] Creating Layer lstm1_h_conted_194
I1017 23:52:50.055918 29448 net.cpp:406] lstm1_h_conted_194 <- h_194_lstm1_unit_194_1_split_0
I1017 23:52:50.055927 29448 net.cpp:406] lstm1_h_conted_194 <- cont_195_lstm1_cont_slice_194_split_0
I1017 23:52:50.055940 29448 net.cpp:380] lstm1_h_conted_194 -> h_conted_194
I1017 23:52:50.056124 29448 net.cpp:122] Setting up lstm1_h_conted_194
I1017 23:52:50.056139 29448 net.cpp:129] Top shape: 1 150 512 (76800)
I1017 23:52:50.056144 29448 net.cpp:137] Memory required for data: 1318051200
I1017 23:52:50.056150 29448 layer_factory.hpp:77] Creating layer lstm1_transform_195
I1017 23:52:50.056164 29448 net.cpp:84] Creating Layer lstm1_transform_195
I1017 23:52:50.056170 29448 net.cpp:406] lstm1_transform_195 <- h_conted_194
I1017 23:52:50.056183 29448 net.cpp:380] lstm1_transform_195 -> W_hc_h_194
I1017 23:52:50.070374 29448 net.cpp:122] Setting up lstm1_transform_195
I1017 23:52:50.070407 29448 net.cpp:129] Top shape: 1 150 2048 (307200)
I1017 23:52:50.070413 29448 net.cpp:137] Memory required for data: 1319280000
I1017 23:52:50.070422 29448 net.cpp:465] Sharing parameters 'W_hc' owned by layer 'lstm1_transform_1', param index 0
I1017 23:52:50.070430 29448 layer_factory.hpp:77] Creating layer lstm1_gate_input_195
I1017 23:52:50.070451 29448 net.cpp:84] Creating Layer lstm1_gate_input_195
I1017 23:52:50.070495 29448 net.cpp:406] lstm1_gate_input_195 <- W_hc_h_194
I1017 23:52:50.070557 29448 net.cpp:406] lstm1_gate_input_195 <- W_xc_x_195
I1017 23:52:50.070616 29448 net.cpp:380] lstm1_gate_input_195 -> gate_input_195
I1017 23:52:50.070927 29448 net.cpp:122] Setting up lstm1_gate_input_195
I1017 23:52:50.071000 29448 net.cpp:129] Top shape: 1 150 2048 (307200)
I1017 23:52:50.071012 29448 net.cpp:137] Memory required for data: 1320508800
I1017 23:52:50.071022 29448 layer_factory.hpp:77] Creating layer lstm1_unit_195
I1017 23:52:50.071059 29448 net.cpp:84] Creating Layer lstm1_unit_195
I1017 23:52:50.071118 29448 net.cpp:406] lstm1_unit_195 <- c_194
I1017 23:52:50.071156 29448 net.cpp:406] lstm1_unit_195 <- gate_input_195
I1017 23:52:50.071377 29448 net.cpp:406] lstm1_unit_195 <- cont_195_lstm1_cont_slice_194_split_1
I1017 23:52:50.071421 29448 net.cpp:380] lstm1_unit_195 -> c_195
I1017 23:52:50.071490 29448 net.cpp:380] lstm1_unit_195 -> h_195
I1017 23:52:50.071703 29448 net.cpp:122] Setting up lstm1_unit_195
I1017 23:52:50.071782 29448 net.cpp:129] Top shape: 1 150 512 (76800)
I1017 23:52:50.071801 29448 net.cpp:129] Top shape: 1 150 512 (76800)
I1017 23:52:50.071812 29448 net.cpp:137] Memory required for data: 1321123200
I1017 23:52:50.071820 29448 layer_factory.hpp:77] Creating layer h_195_lstm1_unit_195_1_split
I1017 23:52:50.071841 29448 net.cpp:84] Creating Layer h_195_lstm1_unit_195_1_split
I1017 23:52:50.071851 29448 net.cpp:406] h_195_lstm1_unit_195_1_split <- h_195
I1017 23:52:50.071859 29448 net.cpp:380] h_195_lstm1_unit_195_1_split -> h_195_lstm1_unit_195_1_split_0
I1017 23:52:50.071871 29448 net.cpp:380] h_195_lstm1_unit_195_1_split -> h_195_lstm1_unit_195_1_split_1
I1017 23:52:50.071918 29448 net.cpp:122] Setting up h_195_lstm1_unit_195_1_split
I1017 23:52:50.071928 29448 net.cpp:129] Top shape: 1 150 512 (76800)
I1017 23:52:50.071933 29448 net.cpp:129] Top shape: 1 150 512 (76800)
I1017 23:52:50.071940 29448 net.cpp:137] Memory required for data: 1321737600
I1017 23:52:50.071945 29448 layer_factory.hpp:77] Creating layer lstm1_h_conted_195
I1017 23:52:50.071956 29448 net.cpp:84] Creating Layer lstm1_h_conted_195
I1017 23:52:50.071964 29448 net.cpp:406] lstm1_h_conted_195 <- h_195_lstm1_unit_195_1_split_0
I1017 23:52:50.071972 29448 net.cpp:406] lstm1_h_conted_195 <- cont_196_lstm1_cont_slice_195_split_0
I1017 23:52:50.072001 29448 net.cpp:380] lstm1_h_conted_195 -> h_conted_195
I1017 23:52:50.072702 29448 net.cpp:122] Setting up lstm1_h_conted_195
I1017 23:52:50.072819 29448 net.cpp:129] Top shape: 1 150 512 (76800)
I1017 23:52:50.072834 29448 net.cpp:137] Memory required for data: 1322044800
I1017 23:52:50.072846 29448 layer_factory.hpp:77] Creating layer lstm1_transform_196
I1017 23:52:50.072907 29448 net.cpp:84] Creating Layer lstm1_transform_196
I1017 23:52:50.072926 29448 net.cpp:406] lstm1_transform_196 <- h_conted_195
I1017 23:52:50.072971 29448 net.cpp:380] lstm1_transform_196 -> W_hc_h_195
I1017 23:52:50.093097 29448 net.cpp:122] Setting up lstm1_transform_196
I1017 23:52:50.093140 29448 net.cpp:129] Top shape: 1 150 2048 (307200)
I1017 23:52:50.093147 29448 net.cpp:137] Memory required for data: 1323273600
I1017 23:52:50.093156 29448 net.cpp:465] Sharing parameters 'W_hc' owned by layer 'lstm1_transform_1', param index 0
I1017 23:52:50.093183 29448 layer_factory.hpp:77] Creating layer lstm1_gate_input_196
I1017 23:52:50.093201 29448 net.cpp:84] Creating Layer lstm1_gate_input_196
I1017 23:52:50.093214 29448 net.cpp:406] lstm1_gate_input_196 <- W_hc_h_195
I1017 23:52:50.093233 29448 net.cpp:406] lstm1_gate_input_196 <- W_xc_x_196
I1017 23:52:50.093252 29448 net.cpp:380] lstm1_gate_input_196 -> gate_input_196
I1017 23:52:50.093314 29448 net.cpp:122] Setting up lstm1_gate_input_196
I1017 23:52:50.093327 29448 net.cpp:129] Top shape: 1 150 2048 (307200)
I1017 23:52:50.093331 29448 net.cpp:137] Memory required for data: 1324502400
I1017 23:52:50.093336 29448 layer_factory.hpp:77] Creating layer lstm1_unit_196
I1017 23:52:50.093346 29448 net.cpp:84] Creating Layer lstm1_unit_196
I1017 23:52:50.093358 29448 net.cpp:406] lstm1_unit_196 <- c_195
I1017 23:52:50.093365 29448 net.cpp:406] lstm1_unit_196 <- gate_input_196
I1017 23:52:50.093374 29448 net.cpp:406] lstm1_unit_196 <- cont_196_lstm1_cont_slice_195_split_1
I1017 23:52:50.093384 29448 net.cpp:380] lstm1_unit_196 -> c_196
I1017 23:52:50.093396 29448 net.cpp:380] lstm1_unit_196 -> h_196
I1017 23:52:50.093464 29448 net.cpp:122] Setting up lstm1_unit_196
I1017 23:52:50.093475 29448 net.cpp:129] Top shape: 1 150 512 (76800)
I1017 23:52:50.093482 29448 net.cpp:129] Top shape: 1 150 512 (76800)
I1017 23:52:50.093488 29448 net.cpp:137] Memory required for data: 1325116800
I1017 23:52:50.093493 29448 layer_factory.hpp:77] Creating layer lstm1_
I1017 23:52:50.093504 29448 net.cpp:84] Creating Layer lstm1_
I1017 23:52:50.093510 29448 net.cpp:406] lstm1_ <- c_196
I1017 23:52:50.093523 29448 net.cpp:380] lstm1_ -> c_T
I1017 23:52:50.093552 29448 net.cpp:122] Setting up lstm1_
I1017 23:52:50.093564 29448 net.cpp:129] Top shape: 1 150 512 (76800)
I1017 23:52:50.093569 29448 net.cpp:137] Memory required for data: 1325424000
I1017 23:52:50.093574 29448 layer_factory.hpp:77] Creating layer lstm1_h_concat
I1017 23:52:50.093636 29448 net.cpp:84] Creating Layer lstm1_h_concat
I1017 23:52:50.093646 29448 net.cpp:406] lstm1_h_concat <- h_1_lstm1_unit_1_1_split_1
I1017 23:52:50.093658 29448 net.cpp:406] lstm1_h_concat <- h_2_lstm1_unit_2_1_split_1
…
I1017 23:52:50.177021 29448 net.cpp:200] lstm1_ does not need backward computation.
I1017 23:52:50.177026 29448 net.cpp:242] This network produces output c_T
I1017 23:52:50.177042 29448 net.cpp:242] This network produces output h_pseudoloss
I1017 23:52:50.475402 29448 net.cpp:255] Network initialization done.
I1017 23:52:50.479295 29448 recurrent_layer.cpp:150] Adding parameter 0: W_xc
I1017 23:52:50.479310 29448 recurrent_layer.cpp:150] Adding parameter 1: b_c
I1017 23:52:50.479326 29448 recurrent_layer.cpp:150] Adding parameter 2: W_hc
I1017 23:52:50.491551 29448 net.cpp:122] Setting up lstm1
I1017 23:52:50.491605 29448 net.cpp:129] Top shape: 196 150 512 (15052800)
I1017 23:52:50.491611 29448 net.cpp:137] Memory required for data: 17431614600
I1017 23:52:50.491628 29448 layer_factory.hpp:77] Creating layer lstm1-drop
I1017 23:52:50.491642 29448 net.cpp:84] Creating Layer lstm1-drop
I1017 23:52:50.491650 29448 net.cpp:406] lstm1-drop <- lstm1
I1017 23:52:50.491663 29448 net.cpp:380] lstm1-drop -> lstm1-drop
I1017 23:52:50.491746 29448 net.cpp:122] Setting up lstm1-drop
I1017 23:52:50.491758 29448 net.cpp:129] Top shape: 196 150 512 (15052800)
I1017 23:52:50.491763 29448 net.cpp:137] Memory required for data: 17491825800
I1017 23:52:50.491768 29448 layer_factory.hpp:77] Creating layer fc-final
I1017 23:52:50.491785 29448 net.cpp:84] Creating Layer fc-final
I1017 23:52:50.491791 29448 net.cpp:406] fc-final <- lstm1-drop
I1017 23:52:50.491802 29448 net.cpp:380] fc-final -> fc-final
I1017 23:52:50.492300 29448 net.cpp:122] Setting up fc-final
I1017 23:52:50.492314 29448 net.cpp:129] Top shape: 196 150 10 (294000)
I1017 23:52:50.492319 29448 net.cpp:137] Memory required for data: 17493001800
I1017 23:52:50.492327 29448 layer_factory.hpp:77] Creating layer fc-final_fc-final_0_split
I1017 23:52:50.492339 29448 net.cpp:84] Creating Layer fc-final_fc-final_0_split
I1017 23:52:50.492344 29448 net.cpp:406] fc-final_fc-final_0_split <- fc-final
I1017 23:52:50.492352 29448 net.cpp:380] fc-final_fc-final_0_split -> fc-final_fc-final_0_split_0
I1017 23:52:50.492362 29448 net.cpp:380] fc-final_fc-final_0_split -> fc-final_fc-final_0_split_1
I1017 23:52:50.492405 29448 net.cpp:122] Setting up fc-final_fc-final_0_split
I1017 23:52:50.492415 29448 net.cpp:129] Top shape: 196 150 10 (294000)
I1017 23:52:50.492421 29448 net.cpp:129] Top shape: 196 150 10 (294000)
I1017 23:52:50.492425 29448 net.cpp:137] Memory required for data: 17495353800
I1017 23:52:50.492430 29448 layer_factory.hpp:77] Creating layer loss
I1017 23:52:50.492439 29448 net.cpp:84] Creating Layer loss
I1017 23:52:50.492444 29448 net.cpp:406] loss <- fc-final_fc-final_0_split_0
I1017 23:52:50.492451 29448 net.cpp:406] loss <- reshape-label_label_tran_0_split_0
I1017 23:52:50.492460 29448 net.cpp:380] loss -> loss
…
