…
I1017 11:44:22.401697 26100 net.cpp:294] The NetState phase (0) differed from the phase (1) specified by a rule in layer Silence
I1017 11:44:22.401901 26100 net.cpp:51] Initializing net from parameters: 
name: "VGG-Places365"
state {
  phase: TRAIN
  level: 0
  stage: ""
}
layer {
  name: "data"
  type: "ImageData"
  top: "data"
  top: "label"
  include {
    phase: TRAIN
  }
  transform_param {
    mirror: true
    crop_size: 224
    mean_value: 104
    mean_value: 117
    mean_value: 123
  }
  image_data_param {
    source: "../Data/lsun_train_list_12w.txt"
    batch_size: 5
    shuffle: true
    new_height: 256
    new_width: 256
  }
}
layer {
  name: "label_tran"
  type: "Python"
  bottom: "label"
  top: "reshape-label"
  top: "clip_markers"
  python_param {
    module: "data_preparation_sort_max_clip"
    layer: "ReshapeLabel"
  }
}
layer {
  name: "conv1_1"
  type: "Convolution"
  bottom: "data"
  top: "conv1_1"
  convolution_param {
    num_output: 64
    pad: 1
    kernel_size: 3
  }
}
layer {
  name: "relu1_1"
  type: "ReLU"
  bottom: "conv1_1"
  top: "conv1_1"
}
layer {
  name: "conv1_2"
  type: "Convolution"
  bottom: "conv1_1"
  top: "conv1_2"
  convolution_param {
    num_output: 64
    pad: 1
    kernel_size: 3
  }
}
layer {
  name: "relu1_2"
  type: "ReLU"
  bottom: "conv1_2"
  top: "conv1_2"
}
layer {
  name: "pool1"
  type: "Pooling"
  bottom: "conv1_2"
  top: "pool1"
  pooling_param {
    pool: MAX
    kernel_size: 2
    stride: 2
  }
}
layer {
  name: "conv2_1"
  type: "Convolution"
  bottom: "pool1"
  top: "conv2_1"
  convolution_param {
    num_output: 128
    pad: 1
    kernel_size: 3
  }
}
layer {
  name: "relu2_1"
  type: "ReLU"
  bottom: "conv2_1"
  top: "conv2_1"
}
layer {
  name: "conv2_2"
  type: "Convolution"
  bottom: "conv2_1"
  top: "conv2_2"
  convolution_param {
    num_output: 128
    pad: 1
    kernel_size: 3
  }
}
layer {
  name: "relu2_2"
  type: "ReLU"
  bottom: "conv2_2"
  top: "conv2_2"
}
layer {
  name: "pool2"
  type: "Pooling"
  bottom: "conv2_2"
  top: "pool2"
  pooling_param {
    pool: MAX
    kernel_size: 2
    stride: 2
  }
}
layer {
  name: "conv3_1"
  type: "Convolution"
  bottom: "pool2"
  top: "conv3_1"
  convolution_param {
    num_output: 256
    pad: 1
    kernel_size: 3
  }
}
layer {
  name: "relu3_1"
  type: "ReLU"
  bottom: "conv3_1"
  top: "conv3_1"
}
layer {
  name: "conv3_2"
  type: "Convolution"
  bottom: "conv3_1"
  top: "conv3_2"
  convolution_param {
    num_output: 256
    pad: 1
    kernel_size: 3
  }
}
layer {
  name: "relu3_2"
  type: "ReLU"
  bottom: "conv3_2"
  top: "conv3_2"
}
layer {
  name: "conv3_3"
  type: "Convolution"
  bottom: "conv3_2"
  top: "conv3_3"
  convolution_param {
    num_output: 256
    pad: 1
    kernel_size: 3
  }
}
layer {
  name: "relu3_3"
  type: "ReLU"
  bottom: "conv3_3"
  top: "conv3_3"
}
layer {
  name: "pool3"
  type: "Pooling"
  bottom: "conv3_3"
  top: "pool3"
  pooling_param {
    pool: MAX
    kernel_size: 2
    stride: 2
  }
}
layer {
  name: "conv4_1"
  type: "Convolution"
  bottom: "pool3"
  top: "conv4_1"
  convolution_param {
    num_output: 512
    pad: 1
    kernel_size: 3
  }
}
layer {
  name: "relu4_1"
  type: "ReLU"
  bottom: "conv4_1"
  top: "conv4_1"
}
layer {
  name: "conv4_2"
  type: "Convolution"
  bottom: "conv4_1"
  top: "conv4_2"
  convolution_param {
    num_output: 512
    pad: 1
    kernel_size: 3
  }
}
layer {
  name: "relu4_2"
  type: "ReLU"
  bottom: "conv4_2"
  top: "conv4_2"
}
layer {
  name: "conv4_3"
  type: "Convolution"
  bottom: "conv4_2"
  top: "conv4_3"
  convolution_param {
    num_output: 512
    pad: 1
    kernel_size: 3
  }
}
layer {
  name: "relu4_3"
  type: "ReLU"
  bottom: "conv4_3"
  top: "conv4_3"
}
layer {
  name: "pool4"
  type: "Pooling"
  bottom: "conv4_3"
  top: "pool4"
  pooling_param {
    pool: MAX
    kernel_size: 2
    stride: 2
  }
}
layer {
  name: "conv5_1"
  type: "Convolution"
  bottom: "pool4"
  top: "conv5_1"
  convolution_param {
    num_output: 512
    pad: 1
    kernel_size: 3
  }
}
layer {
  name: "relu5_1"
  type: "ReLU"
  bottom: "conv5_1"
  top: "conv5_1"
}
layer {
  name: "conv5_2"
  type: "Convolution"
  bottom: "conv5_1"
  top: "conv5_2"
  convolution_param {
    num_output: 512
    pad: 1
    kernel_size: 3
  }
}
layer {
  name: "relu5_2"
  type: "ReLU"
  bottom: "conv5_2"
  top: "conv5_2"
}
layer {
  name: "conv5_3"
  type: "Convolution"
  bottom: "conv5_2"
  top: "conv5_3"
  convolution_param {
    num_output: 512
    pad: 1
    kernel_size: 3
  }
}
layer {
  name: "relu5_3"
  type: "ReLU"
  bottom: "conv5_3"
  top: "conv5_3"
}
layer {
  name: "conv5_3_re"
  type: "Reshape"
  bottom: "conv5_3"
  top: "conv5_3_re"
  reshape_param {
    shape {
      dim: 0
      dim: 0
      dim: -1
    }
  }
}
layer {
  name: "conv5_3_tran"
  type: "Python"
  bottom: "conv5_3_re"
  top: "conv5_3_tran"
  python_param {
    module: "data_preparation_sort_max_clip"
    layer: "DataTransposeSortMaxClip"
  }
}
layer {
  name: "lstm1"
  type: "LSTM"
  bottom: "conv5_3_tran"
  bottom: "clip_markers"
  top: "lstm1"
  recurrent_param {
    num_output: 512
    weight_filler {
      type: "uniform"
      min: -0.01
      max: 0.01
    }
    bias_filler {
      type: "constant"
      value: 0
    }
  }
}
layer {
  name: "lstm1-drop"
  type: "Dropout"
  bottom: "lstm1"
  top: "lstm1-drop"
  dropout_param {
    dropout_ratio: 0.5
  }
}
layer {
  name: "fc-final"
  type: "InnerProduct"
  bottom: "lstm1-drop"
  top: "fc-final"
  param {
    lr_mult: 1
    decay_mult: 1
  }
  param {
    lr_mult: 2
    decay_mult: 0
  }
  inner_product_param {
    num_output: 10
    weight_filler {
      type: "gaussian"
      std: 0.01
    }
    bias_filler {
      type: "constant"
      value: 0
    }
    axis: 2
  }
}
layer {
  name: "loss"
  type: "SoftmaxWithLoss"
  bottom: "fc-final"
  bottom: "reshape-label"
  top: "loss"
  softmax_param {
    axis: 2
  }
}
layer {
  name: "accuracy"
  type: "Accuracy"
  bottom: "fc-final"
  bottom: "reshape-label"
  top: "accuracy"
  accuracy_param {
    axis: 2
  }
}
I1017 11:44:22.402122 26100 layer_factory.hpp:77] Creating layer data
I1017 11:44:22.402185 26100 net.cpp:84] Creating Layer data
I1017 11:44:22.402200 26100 net.cpp:380] data -> data
I1017 11:44:22.402259 26100 net.cpp:380] data -> label
I1017 11:44:22.402298 26100 image_data_layer.cpp:38] Opening file ../Data/lsun_train_list_12w.txt
I1017 11:44:23.011694 26100 image_data_layer.cpp:53] Shuffling data
I1017 11:44:23.299674 26100 image_data_layer.cpp:63] A total of 1200000 images.
I1017 11:44:23.304663 26100 image_data_layer.cpp:90] output data size: 5,3,224,224
I1017 11:44:23.316288 26100 net.cpp:122] Setting up data
I1017 11:44:23.316357 26100 net.cpp:129] Top shape: 5 3 224 224 (752640)
I1017 11:44:23.316366 26100 net.cpp:129] Top shape: 5 (5)
I1017 11:44:23.316371 26100 net.cpp:137] Memory required for data: 3010580
I1017 11:44:23.316397 26100 layer_factory.hpp:77] Creating layer label_tran
I1017 11:44:23.986857 26100 net.cpp:84] Creating Layer label_tran
I1017 11:44:23.986914 26100 net.cpp:406] label_tran <- label
I1017 11:44:23.986941 26100 net.cpp:380] label_tran -> reshape-label
I1017 11:44:23.986959 26100 net.cpp:380] label_tran -> clip_markers
I1017 11:44:23.987272 26100 net.cpp:122] Setting up label_tran
I1017 11:44:23.987291 26100 net.cpp:129] Top shape: 196 5 (980)
I1017 11:44:23.987298 26100 net.cpp:129] Top shape: 196 5 (980)
I1017 11:44:23.987303 26100 net.cpp:137] Memory required for data: 3018420
I1017 11:44:23.987309 26100 layer_factory.hpp:77] Creating layer reshape-label_label_tran_0_split
I1017 11:44:23.987334 26100 net.cpp:84] Creating Layer reshape-label_label_tran_0_split
I1017 11:44:23.987340 26100 net.cpp:406] reshape-label_label_tran_0_split <- reshape-label
I1017 11:44:23.987347 26100 net.cpp:380] reshape-label_label_tran_0_split -> reshape-label_label_tran_0_split_0
I1017 11:44:23.987359 26100 net.cpp:380] reshape-label_label_tran_0_split -> reshape-label_label_tran_0_split_1
I1017 11:44:23.987401 26100 net.cpp:122] Setting up reshape-label_label_tran_0_split
I1017 11:44:23.987408 26100 net.cpp:129] Top shape: 196 5 (980)
I1017 11:44:23.987414 26100 net.cpp:129] Top shape: 196 5 (980)
I1017 11:44:23.987418 26100 net.cpp:137] Memory required for data: 3026260
I1017 11:44:23.987423 26100 layer_factory.hpp:77] Creating layer conv1_1
I1017 11:44:23.987440 26100 net.cpp:84] Creating Layer conv1_1
I1017 11:44:23.987445 26100 net.cpp:406] conv1_1 <- data
I1017 11:44:23.987452 26100 net.cpp:380] conv1_1 -> conv1_1
I1017 11:44:23.992269 26100 net.cpp:122] Setting up conv1_1
I1017 11:44:23.992290 26100 net.cpp:129] Top shape: 5 64 224 224 (16056320)
I1017 11:44:23.992295 26100 net.cpp:137] Memory required for data: 67251540
I1017 11:44:23.992318 26100 layer_factory.hpp:77] Creating layer relu1_1
I1017 11:44:23.992329 26100 net.cpp:84] Creating Layer relu1_1
I1017 11:44:23.992334 26100 net.cpp:406] relu1_1 <- conv1_1
I1017 11:44:23.992341 26100 net.cpp:367] relu1_1 -> conv1_1 (in-place)
I1017 11:44:23.992354 26100 net.cpp:122] Setting up relu1_1
I1017 11:44:23.992360 26100 net.cpp:129] Top shape: 5 64 224 224 (16056320)
I1017 11:44:23.992364 26100 net.cpp:137] Memory required for data: 131476820
I1017 11:44:23.992378 26100 layer_factory.hpp:77] Creating layer conv1_2
I1017 11:44:23.992389 26100 net.cpp:84] Creating Layer conv1_2
I1017 11:44:23.992395 26100 net.cpp:406] conv1_2 <- conv1_1
I1017 11:44:23.992403 26100 net.cpp:380] conv1_2 -> conv1_2
I1017 11:44:23.992683 26100 net.cpp:122] Setting up conv1_2
I1017 11:44:23.992697 26100 net.cpp:129] Top shape: 5 64 224 224 (16056320)
I1017 11:44:23.992700 26100 net.cpp:137] Memory required for data: 195702100
I1017 11:44:23.992710 26100 layer_factory.hpp:77] Creating layer relu1_2
I1017 11:44:23.992725 26100 net.cpp:84] Creating Layer relu1_2
I1017 11:44:23.992732 26100 net.cpp:406] relu1_2 <- conv1_2
I1017 11:44:23.992738 26100 net.cpp:367] relu1_2 -> conv1_2 (in-place)
I1017 11:44:23.992745 26100 net.cpp:122] Setting up relu1_2
I1017 11:44:23.992750 26100 net.cpp:129] Top shape: 5 64 224 224 (16056320)
I1017 11:44:23.992754 26100 net.cpp:137] Memory required for data: 259927380
I1017 11:44:23.992758 26100 layer_factory.hpp:77] Creating layer pool1
I1017 11:44:23.992769 26100 net.cpp:84] Creating Layer pool1
I1017 11:44:23.992774 26100 net.cpp:406] pool1 <- conv1_2
I1017 11:44:23.992779 26100 net.cpp:380] pool1 -> pool1
I1017 11:44:23.992830 26100 net.cpp:122] Setting up pool1
I1017 11:44:23.992839 26100 net.cpp:129] Top shape: 5 64 112 112 (4014080)
I1017 11:44:23.992843 26100 net.cpp:137] Memory required for data: 275983700
I1017 11:44:23.992853 26100 layer_factory.hpp:77] Creating layer conv2_1
I1017 11:44:23.992863 26100 net.cpp:84] Creating Layer conv2_1
I1017 11:44:23.992868 26100 net.cpp:406] conv2_1 <- pool1
I1017 11:44:23.992877 26100 net.cpp:380] conv2_1 -> conv2_1
I1017 11:44:23.994974 26100 net.cpp:122] Setting up conv2_1
I1017 11:44:23.995002 26100 net.cpp:129] Top shape: 5 128 112 112 (8028160)
I1017 11:44:23.995008 26100 net.cpp:137] Memory required for data: 308096340
I1017 11:44:23.995019 26100 layer_factory.hpp:77] Creating layer relu2_1
I1017 11:44:23.995026 26100 net.cpp:84] Creating Layer relu2_1
I1017 11:44:23.995031 26100 net.cpp:406] relu2_1 <- conv2_1
I1017 11:44:23.995038 26100 net.cpp:367] relu2_1 -> conv2_1 (in-place)
I1017 11:44:23.995046 26100 net.cpp:122] Setting up relu2_1
I1017 11:44:23.995051 26100 net.cpp:129] Top shape: 5 128 112 112 (8028160)
I1017 11:44:23.995055 26100 net.cpp:137] Memory required for data: 340208980
I1017 11:44:23.995059 26100 layer_factory.hpp:77] Creating layer conv2_2
I1017 11:44:23.995075 26100 net.cpp:84] Creating Layer conv2_2
I1017 11:44:23.995080 26100 net.cpp:406] conv2_2 <- conv2_1
I1017 11:44:23.995087 26100 net.cpp:380] conv2_2 -> conv2_2
I1017 11:44:23.995390 26100 net.cpp:122] Setting up conv2_2
I1017 11:44:23.995402 26100 net.cpp:129] Top shape: 5 128 112 112 (8028160)
I1017 11:44:23.995407 26100 net.cpp:137] Memory required for data: 372321620
I1017 11:44:23.995414 26100 layer_factory.hpp:77] Creating layer relu2_2
I1017 11:44:23.995421 26100 net.cpp:84] Creating Layer relu2_2
I1017 11:44:23.995425 26100 net.cpp:406] relu2_2 <- conv2_2
I1017 11:44:23.995432 26100 net.cpp:367] relu2_2 -> conv2_2 (in-place)
I1017 11:44:23.995440 26100 net.cpp:122] Setting up relu2_2
I1017 11:44:23.995445 26100 net.cpp:129] Top shape: 5 128 112 112 (8028160)
I1017 11:44:23.995448 26100 net.cpp:137] Memory required for data: 404434260
I1017 11:44:23.995452 26100 layer_factory.hpp:77] Creating layer pool2
I1017 11:44:23.995465 26100 net.cpp:84] Creating Layer pool2
I1017 11:44:23.995470 26100 net.cpp:406] pool2 <- conv2_2
I1017 11:44:23.995476 26100 net.cpp:380] pool2 -> pool2
I1017 11:44:23.995510 26100 net.cpp:122] Setting up pool2
I1017 11:44:23.995517 26100 net.cpp:129] Top shape: 5 128 56 56 (2007040)
I1017 11:44:23.995522 26100 net.cpp:137] Memory required for data: 412462420
I1017 11:44:23.995527 26100 layer_factory.hpp:77] Creating layer conv3_1
I1017 11:44:23.995533 26100 net.cpp:84] Creating Layer conv3_1
I1017 11:44:23.995538 26100 net.cpp:406] conv3_1 <- pool2
I1017 11:44:23.995545 26100 net.cpp:380] conv3_1 -> conv3_1
I1017 11:44:24.004837 26100 net.cpp:122] Setting up conv3_1
I1017 11:44:24.004885 26100 net.cpp:129] Top shape: 5 256 56 56 (4014080)
I1017 11:44:24.004896 26100 net.cpp:137] Memory required for data: 428518740
I1017 11:44:24.004926 26100 layer_factory.hpp:77] Creating layer relu3_1
I1017 11:44:24.004948 26100 net.cpp:84] Creating Layer relu3_1
I1017 11:44:24.004964 26100 net.cpp:406] relu3_1 <- conv3_1
I1017 11:44:24.004981 26100 net.cpp:367] relu3_1 -> conv3_1 (in-place)
I1017 11:44:24.005003 26100 net.cpp:122] Setting up relu3_1
I1017 11:44:24.005015 26100 net.cpp:129] Top shape: 5 256 56 56 (4014080)
I1017 11:44:24.005024 26100 net.cpp:137] Memory required for data: 444575060
I1017 11:44:24.005033 26100 layer_factory.hpp:77] Creating layer conv3_2
I1017 11:44:24.005051 26100 net.cpp:84] Creating Layer conv3_2
I1017 11:44:24.005060 26100 net.cpp:406] conv3_2 <- conv3_1
I1017 11:44:24.005074 26100 net.cpp:380] conv3_2 -> conv3_2
I1017 11:44:24.008801 26100 net.cpp:122] Setting up conv3_2
I1017 11:44:24.008834 26100 net.cpp:129] Top shape: 5 256 56 56 (4014080)
I1017 11:44:24.008844 26100 net.cpp:137] Memory required for data: 460631380
I1017 11:44:24.008862 26100 layer_factory.hpp:77] Creating layer relu3_2
I1017 11:44:24.008884 26100 net.cpp:84] Creating Layer relu3_2
I1017 11:44:24.008895 26100 net.cpp:406] relu3_2 <- conv3_2
I1017 11:44:24.008909 26100 net.cpp:367] relu3_2 -> conv3_2 (in-place)
I1017 11:44:24.008926 26100 net.cpp:122] Setting up relu3_2
I1017 11:44:24.009354 26100 net.cpp:129] Top shape: 5 256 56 56 (4014080)
I1017 11:44:24.009407 26100 net.cpp:137] Memory required for data: 476687700
I1017 11:44:24.009528 26100 layer_factory.hpp:77] Creating layer conv3_3
I1017 11:44:24.009771 26100 net.cpp:84] Creating Layer conv3_3
I1017 11:44:24.009860 26100 net.cpp:406] conv3_3 <- conv3_2
I1017 11:44:24.009958 26100 net.cpp:380] conv3_3 -> conv3_3
I1017 11:44:24.027940 26100 net.cpp:122] Setting up conv3_3
I1017 11:44:24.027963 26100 net.cpp:129] Top shape: 5 256 56 56 (4014080)
I1017 11:44:24.027969 26100 net.cpp:137] Memory required for data: 492744020
I1017 11:44:24.027979 26100 layer_factory.hpp:77] Creating layer relu3_3
I1017 11:44:24.027992 26100 net.cpp:84] Creating Layer relu3_3
I1017 11:44:24.027997 26100 net.cpp:406] relu3_3 <- conv3_3
I1017 11:44:24.028007 26100 net.cpp:367] relu3_3 -> conv3_3 (in-place)
I1017 11:44:24.028017 26100 net.cpp:122] Setting up relu3_3
I1017 11:44:24.028025 26100 net.cpp:129] Top shape: 5 256 56 56 (4014080)
I1017 11:44:24.028049 26100 net.cpp:137] Memory required for data: 508800340
I1017 11:44:24.028055 26100 layer_factory.hpp:77] Creating layer pool3
I1017 11:44:24.028067 26100 net.cpp:84] Creating Layer pool3
I1017 11:44:24.028074 26100 net.cpp:406] pool3 <- conv3_3
I1017 11:44:24.028082 26100 net.cpp:380] pool3 -> pool3
I1017 11:44:24.028134 26100 net.cpp:122] Setting up pool3
I1017 11:44:24.028146 26100 net.cpp:129] Top shape: 5 256 28 28 (1003520)
I1017 11:44:24.028151 26100 net.cpp:137] Memory required for data: 512814420
I1017 11:44:24.028156 26100 layer_factory.hpp:77] Creating layer conv4_1
I1017 11:44:24.028167 26100 net.cpp:84] Creating Layer conv4_1
I1017 11:44:24.028172 26100 net.cpp:406] conv4_1 <- pool3
I1017 11:44:24.028182 26100 net.cpp:380] conv4_1 -> conv4_1
I1017 11:44:24.032660 26100 net.cpp:122] Setting up conv4_1
I1017 11:44:24.032696 26100 net.cpp:129] Top shape: 5 512 28 28 (2007040)
I1017 11:44:24.032701 26100 net.cpp:137] Memory required for data: 520842580
I1017 11:44:24.032716 26100 layer_factory.hpp:77] Creating layer relu4_1
I1017 11:44:24.032730 26100 net.cpp:84] Creating Layer relu4_1
I1017 11:44:24.032737 26100 net.cpp:406] relu4_1 <- conv4_1
I1017 11:44:24.032749 26100 net.cpp:367] relu4_1 -> conv4_1 (in-place)
I1017 11:44:24.032765 26100 net.cpp:122] Setting up relu4_1
I1017 11:44:24.032773 26100 net.cpp:129] Top shape: 5 512 28 28 (2007040)
I1017 11:44:24.032776 26100 net.cpp:137] Memory required for data: 528870740
I1017 11:44:24.032781 26100 layer_factory.hpp:77] Creating layer conv4_2
I1017 11:44:24.032793 26100 net.cpp:84] Creating Layer conv4_2
I1017 11:44:24.032797 26100 net.cpp:406] conv4_2 <- conv4_1
I1017 11:44:24.032807 26100 net.cpp:380] conv4_2 -> conv4_2
I1017 11:44:24.056066 26100 net.cpp:122] Setting up conv4_2
I1017 11:44:24.056120 26100 net.cpp:129] Top shape: 5 512 28 28 (2007040)
I1017 11:44:24.056129 26100 net.cpp:137] Memory required for data: 536898900
I1017 11:44:24.056159 26100 layer_factory.hpp:77] Creating layer relu4_2
I1017 11:44:24.056175 26100 net.cpp:84] Creating Layer relu4_2
I1017 11:44:24.056186 26100 net.cpp:406] relu4_2 <- conv4_2
I1017 11:44:24.056200 26100 net.cpp:367] relu4_2 -> conv4_2 (in-place)
I1017 11:44:24.056217 26100 net.cpp:122] Setting up relu4_2
I1017 11:44:24.056224 26100 net.cpp:129] Top shape: 5 512 28 28 (2007040)
I1017 11:44:24.056229 26100 net.cpp:137] Memory required for data: 544927060
I1017 11:44:24.056234 26100 layer_factory.hpp:77] Creating layer conv4_3
I1017 11:44:24.056248 26100 net.cpp:84] Creating Layer conv4_3
I1017 11:44:24.056257 26100 net.cpp:406] conv4_3 <- conv4_2
I1017 11:44:24.056267 26100 net.cpp:380] conv4_3 -> conv4_3
I1017 11:44:24.063078 26100 net.cpp:122] Setting up conv4_3
I1017 11:44:24.063117 26100 net.cpp:129] Top shape: 5 512 28 28 (2007040)
I1017 11:44:24.063122 26100 net.cpp:137] Memory required for data: 552955220
I1017 11:44:24.063136 26100 layer_factory.hpp:77] Creating layer relu4_3
I1017 11:44:24.063151 26100 net.cpp:84] Creating Layer relu4_3
I1017 11:44:24.063158 26100 net.cpp:406] relu4_3 <- conv4_3
I1017 11:44:24.063171 26100 net.cpp:367] relu4_3 -> conv4_3 (in-place)
I1017 11:44:24.063184 26100 net.cpp:122] Setting up relu4_3
I1017 11:44:24.063191 26100 net.cpp:129] Top shape: 5 512 28 28 (2007040)
I1017 11:44:24.063196 26100 net.cpp:137] Memory required for data: 560983380
I1017 11:44:24.063201 26100 layer_factory.hpp:77] Creating layer pool4
I1017 11:44:24.063210 26100 net.cpp:84] Creating Layer pool4
I1017 11:44:24.063215 26100 net.cpp:406] pool4 <- conv4_3
I1017 11:44:24.063225 26100 net.cpp:380] pool4 -> pool4
I1017 11:44:24.063272 26100 net.cpp:122] Setting up pool4
I1017 11:44:24.063283 26100 net.cpp:129] Top shape: 5 512 14 14 (501760)
I1017 11:44:24.063287 26100 net.cpp:137] Memory required for data: 562990420
I1017 11:44:24.063292 26100 layer_factory.hpp:77] Creating layer conv5_1
I1017 11:44:24.063304 26100 net.cpp:84] Creating Layer conv5_1
I1017 11:44:24.063309 26100 net.cpp:406] conv5_1 <- pool4
I1017 11:44:24.063316 26100 net.cpp:380] conv5_1 -> conv5_1
I1017 11:44:24.070142 26100 net.cpp:122] Setting up conv5_1
I1017 11:44:24.070175 26100 net.cpp:129] Top shape: 5 512 14 14 (501760)
I1017 11:44:24.070181 26100 net.cpp:137] Memory required for data: 564997460
I1017 11:44:24.070194 26100 layer_factory.hpp:77] Creating layer relu5_1
I1017 11:44:24.070209 26100 net.cpp:84] Creating Layer relu5_1
I1017 11:44:24.070215 26100 net.cpp:406] relu5_1 <- conv5_1
I1017 11:44:24.070227 26100 net.cpp:367] relu5_1 -> conv5_1 (in-place)
I1017 11:44:24.070241 26100 net.cpp:122] Setting up relu5_1
I1017 11:44:24.070248 26100 net.cpp:129] Top shape: 5 512 14 14 (501760)
I1017 11:44:24.070253 26100 net.cpp:137] Memory required for data: 567004500
I1017 11:44:24.070258 26100 layer_factory.hpp:77] Creating layer conv5_2
I1017 11:44:24.070271 26100 net.cpp:84] Creating Layer conv5_2
I1017 11:44:24.070284 26100 net.cpp:406] conv5_2 <- conv5_1
I1017 11:44:24.070292 26100 net.cpp:380] conv5_2 -> conv5_2
I1017 11:44:24.076925 26100 net.cpp:122] Setting up conv5_2
I1017 11:44:24.076956 26100 net.cpp:129] Top shape: 5 512 14 14 (501760)
I1017 11:44:24.076961 26100 net.cpp:137] Memory required for data: 569011540
I1017 11:44:24.076975 26100 layer_factory.hpp:77] Creating layer relu5_2
I1017 11:44:24.076988 26100 net.cpp:84] Creating Layer relu5_2
I1017 11:44:24.076994 26100 net.cpp:406] relu5_2 <- conv5_2
I1017 11:44:24.077004 26100 net.cpp:367] relu5_2 -> conv5_2 (in-place)
I1017 11:44:24.077016 26100 net.cpp:122] Setting up relu5_2
I1017 11:44:24.077023 26100 net.cpp:129] Top shape: 5 512 14 14 (501760)
I1017 11:44:24.077028 26100 net.cpp:137] Memory required for data: 571018580
I1017 11:44:24.077033 26100 layer_factory.hpp:77] Creating layer conv5_3
I1017 11:44:24.077045 26100 net.cpp:84] Creating Layer conv5_3
I1017 11:44:24.077050 26100 net.cpp:406] conv5_3 <- conv5_2
I1017 11:44:24.077057 26100 net.cpp:380] conv5_3 -> conv5_3
I1017 11:44:24.099809 26100 net.cpp:122] Setting up conv5_3
I1017 11:44:24.099853 26100 net.cpp:129] Top shape: 5 512 14 14 (501760)
I1017 11:44:24.099858 26100 net.cpp:137] Memory required for data: 573025620
I1017 11:44:24.099871 26100 layer_factory.hpp:77] Creating layer relu5_3
I1017 11:44:24.099900 26100 net.cpp:84] Creating Layer relu5_3
I1017 11:44:24.099911 26100 net.cpp:406] relu5_3 <- conv5_3
I1017 11:44:24.099926 26100 net.cpp:367] relu5_3 -> conv5_3 (in-place)
I1017 11:44:24.099941 26100 net.cpp:122] Setting up relu5_3
I1017 11:44:24.099947 26100 net.cpp:129] Top shape: 5 512 14 14 (501760)
I1017 11:44:24.099952 26100 net.cpp:137] Memory required for data: 575032660
I1017 11:44:24.099956 26100 layer_factory.hpp:77] Creating layer conv5_3_re
I1017 11:44:24.099975 26100 net.cpp:84] Creating Layer conv5_3_re
I1017 11:44:24.099982 26100 net.cpp:406] conv5_3_re <- conv5_3
I1017 11:44:24.099989 26100 net.cpp:380] conv5_3_re -> conv5_3_re
I1017 11:44:24.100071 26100 net.cpp:122] Setting up conv5_3_re
I1017 11:44:24.100085 26100 net.cpp:129] Top shape: 5 512 196 (501760)
I1017 11:44:24.100090 26100 net.cpp:137] Memory required for data: 577039700
I1017 11:44:24.100095 26100 layer_factory.hpp:77] Creating layer conv5_3_tran
I1017 11:44:24.100194 26100 net.cpp:84] Creating Layer conv5_3_tran
I1017 11:44:24.100205 26100 net.cpp:406] conv5_3_tran <- conv5_3_re
I1017 11:44:24.100214 26100 net.cpp:380] conv5_3_tran -> conv5_3_tran
I1017 11:44:24.101821 26100 net.cpp:122] Setting up conv5_3_tran
I1017 11:44:24.101840 26100 net.cpp:129] Top shape: 196 5 196 (192080)
I1017 11:44:24.101845 26100 net.cpp:137] Memory required for data: 577808020
I1017 11:44:24.101850 26100 layer_factory.hpp:77] Creating layer lstm1
I1017 11:44:24.101869 26100 net.cpp:84] Creating Layer lstm1
I1017 11:44:24.101876 26100 net.cpp:406] lstm1 <- conv5_3_tran
I1017 11:44:24.101883 26100 net.cpp:406] lstm1 <- clip_markers
I1017 11:44:24.101891 26100 net.cpp:380] lstm1 -> lstm1
I1017 11:44:24.101912 26100 recurrent_layer.cpp:20] Initializing recurrent layer: assuming input batch contains 196 timesteps of 5 independent streams.
I1017 11:44:24.109452 26100 net.cpp:51] Initializing net from parameters: 
layer {
  name: "lstm1_"
  type: "Input"
  top: "x"
  top: "cont"
  input_param {
    shape {
      dim: 196
      dim: 5
      dim: 196
    }
    shape {
      dim: 196
      dim: 5
    }
  }
}
layer {
  name: "lstm1_"
  type: "Input"
  top: "c_0"
  top: "h_0"
  input_param {
    shape {
      dim: 1
      dim: 5
      dim: 512
    }
    shape {
      dim: 1
      dim: 5
      dim: 512
    }
  }
}
layer {
  name: "lstm1_cont_slice"
  type: "Slice"
  bottom: "cont"
  top: "cont_1"
  top: "cont_2"
  top: "cont_3"
  top: "cont_4"
  top: "cont_5"
  top: "cont_6"
  top: "cont_7"
  top: "cont_8"
  top: "cont_9"
  top: "cont_10"
  top: "cont_11"
  top: "cont_12"
  top: "cont_13"
  top: "cont_14"
  top: "cont_15"
  top: "cont_16"
  top: "cont_17"
  top: "cont_18"
  top: "cont_19"
  top: "cont_20"
  top: "cont_21"
  top: "cont_22"
  top: "cont_23"
  top: "cont_24"
…
  top: "W_xc_x_171"
  top: "W_xc_x_172"
  top: "W_xc_x_173"
  top: "W_xc_x_174"
  top: "W_xc_x_175"
  top: "W_xc_x_176"
  top: "W_xc_x_177"
  top: "W_xc_x_178"
  top: "W_xc_x_179"
  top: "W_xc_x_180"
  top: "W_xc_x_181"
  top: "W_xc_x_182"
  top: "W_xc_x_183"
  top: "W_xc_x_184"
  top: "W_xc_x_185"
  top: "W_xc_x_186"
  top: "W_xc_x_187"
  top: "W_xc_x_188"
  top: "W_xc_x_189"
  top: "W_xc_x_190"
  top: "W_xc_x_191"
  top: "W_xc_x_192"
  top: "W_xc_x_193"
  top: "W_xc_x_194"
  top: "W_xc_x_195"
  top: "W_xc_x_196"
  slice_param {
    axis: 0
  }
}
layer {
  name: "lstm1_h_conted_0"
  type: "Scale"
  bottom: "h_0"
  bottom: "cont_1"
  top: "h_conted_0"
  scale_param {
    axis: 0
  }
}
layer {
  name: "lstm1_transform_1"
  type: "InnerProduct"
  bottom: "h_conted_0"
  top: "W_hc_h_0"
  param {
    name: "W_hc"
  }
  inner_product_param {
    num_output: 2048
    bias_term: false
    weight_filler {
      type: "uniform"
      min: -0.01
      max: 0.01
    }
    axis: 2
  }
}
layer {
  name: "lstm1_gate_input_1"
  type: "Eltwise"
  bottom: "W_hc_h_0"
  bottom: "W_xc_x_1"
  top: "gate_input_1"
  eltwise_param {
    operation: SUM
  }
}
layer {
  name: "lstm1_unit_1"
  type: "LSTMUnit"
  bottom: "c_0"
  bottom: "gate_input_1"
  bottom: "cont_1"
  top: "c_1"
  top: "h_1"
}
layer {
  name: "lstm1_h_conted_1"
  type: "Scale"
  bottom: "h_1"
  bottom: "cont_2"
  top: "h_conted_1"
  scale_param {
    axis: 0
  }
}
layer {
  name: "lstm1_transform_2"
  type: "InnerProduct"
  bottom: "h_conted_1"
  top: "W_hc_h_1"
  param {
    name: "W_hc"
  }
  inner_product_param {
    num_output: 2048
    bias_term: false
    weight_filler {
      type: "uniform"
      min: -0.01
      max: 0.01
    }
    axis: 2
  }
}
layer {
  name: "lstm1_gate_input_2"
  type: "Eltwise"
  bottom: "W_hc_h_1"
  bottom: "W_xc_x_2"
  top: "gate_input_2"
  eltwise_param {
    operation: SUM
  }
}
layer {
  name: "lstm1_unit_2"
  type: "LSTMUnit"
  bottom: "c_1"
  bottom: "gate_input_2"
  bottom: "cont_2"
  top: "c_2"
  top: "h_2"
}
layer {
  name: "lstm1_h_conted_2"
  type: "Scale"
  bottom: "h_2"
  bottom: "cont_3"
  top: "h_conted_2"
  scale_param {
    axis: 0
  }
}
layer {
  name: "lstm1_transform_3"
  type: "InnerProduct"
  bottom: "h_conted_2"
  top: "W_hc_h_2"
  param {
    name: "W_hc"
  }
  inner_product_param {
    num_output: 2048
    bias_term: false
    weight_filler {
      type: "uniform"
      min: -0.01
      max: 0.01
    }
    axis: 2
  }
}
layer {
  name: "lstm1_gate_input_3"
  type: "Eltwise"
  bottom: "W_hc_h_2"
  bottom: "W_xc_x_3"
  top: "gate_input_3"
  eltwise_param {
    operation: SUM
  }
}
layer {
  name: "lstm1_unit_3"
  type: "LSTMUnit"
  bottom: "c_2"
  bottom: "gate_input_3"
  bottom: "cont_3"
  top: "c_3"
  top: "h_3"
}
layer {
  name: "lstm1_h_conted_3"
  type: "Scale"
  bottom: "h_3"
  bottom: "cont_4"
  top: "h_conted_3"
  scale_param {
    axis: 0
  }
}
layer {
  name: "lstm1_transform_4"
  type: "InnerProduct"
  bottom: "h_conted_3"
  top: "W_hc_h_3"
  param {
    name: "W_hc"
  }
  inner_product_param {
    num_output: 2048
    bias_term: false
    weight_filler {
      type: "uniform"
      min: -0.01
      max: 0.01
    }
    axis: 2
  }
}
layer {
  name: "lstm1_gate_input_4"
  type: "Eltwise"
  bottom: "W_hc_h_3"
  bottom: "W_xc_x_4"
  top: "gate_input_4"
  eltwise_param {
    operation: SUM
  }
}
layer {
  name: "lstm1_unit_4"
  type: "LSTMUnit"
  bottom: "c_3"
  bottom: "gate_input_4"
  bottom: "cont_4"
  top: "c_4"
  top: "h_4"
}
layer {
  name: "lstm1_h_conted_4"
  type: "Scale"
  bottom: "h_4"
  bottom: "cont_5"
  top: "h_conted_4"
  scale_param {
    axis: 0
  }
}
layer {
  name: "lstm1_transform_5"
  type: "InnerProduct"
  bottom: "h_conted_4"
  top: "W_hc_h_4"
  param {
    name: "W_hc"
  }
  inner_product_param {
    num_output: 2048
    bias_term: false
    weight_filler {
      type: "uniform"
      min: -0.01
      max: 0.01
    }
    axis: 2
  }
}
layer {
  name: "lstm1_gate_input_5"
  type: "Eltwise"
  bottom: "W_hc_h_4"
  bottom: "W_xc_x_5"
  top: "gate_input_5"
  eltwise_param {
    operation: SUM
  }
}
layer {
  name: "lstm1_unit_5"
  type: "LSTMUnit"
  bottom: "c_4"
  bottom: "gate_input_5"
  bottom: "cont_5"
  top: "c_5"
  top: "h_5"
}
layer {
  name: "lstm1_h_conted_5"
  type: "Scale"
  bottom: "h_5"
  bottom: "cont_6"
  top: "h_conted_5"
  scale_param {
    axis: 0
  }
}
layer {
  name: "lstm1_transform_6"
  type: "InnerProduct"
  bottom: "h_conted_5"
  top: "W_hc_h_5"
  param {
    name: "W_hc"
  }
  inner_product_param {
    num_output: 2048
    bias_term: false
    weight_filler {
      type: "uniform"
      min: -0.01
      max: 0.01
    }
    axis: 2
  }
}
layer {
  name: "lstm1_gate_input_6"
  type: "Eltwise"
  bottom: "W_hc_h_5"
  bottom: "W_xc_x_6"
  top: "gate_input_6"
  eltwise_param {
    operation: SUM
  }
}
layer {
  name: "lstm1_unit_6"
  type: "LSTMUnit"
  bottom: "c_5"
  bottom: "gate_input_6"
  bottom: "cont_6"
  top: "c_6"
  top: "h_6"
}
layer {
  name: "lstm1_h_conted_6"
  type: "Scale"
  bottom: "h_6"
  bottom: "cont_7"
  top: "h_conted_6"
  scale_param {
    axis: 0
  }
}
layer {
  name: "lstm1_transform_7"
  type: "InnerProduct"
  bottom: "h_conted_6"
  top: "W_hc_h_6"
  param {
    name: "W_hc"
  }
  inner_product_param {
    num_output: 2048
    bias_term: false
    weight_filler {
      type: "uniform"
      min: -0.01
      max: 0.01
    }
    axis: 2
  }
}
layer {
  name: "lstm1_gate_input_7"
  type: "Eltwise"
  bottom: "W_hc_h_6"
  bottom: "W_xc_x_7"
  top: "gate_input_7"
  eltwise_param {
    operation: SUM
  }
}
layer {
  name: "lstm1_unit_7"
  type: "LSTMUnit"
  bottom: "c_6"
  bottom: "gate_input_7"
  bottom: "cont_7"
  top: "c_7"
  top: "h_7"
}
layer {
  name: "lstm1_h_conted_7"
  type: "Scale"
  bottom: "h_7"
  bottom: "cont_8"
  top: "h_conted_7"
  scale_param {
    axis: 0
  }
}
layer {
  name: "lstm1_transform_8"
  type: "InnerProduct"
  bottom: "h_conted_7"
  top: "W_hc_h_7"
  param {
    name: "W_hc"
  }
  inner_product_param {
    num_output: 2048
    bias_term: false
    weight_filler {
      type: "uniform"
      min: -0.01
      max: 0.01
    }
    axis: 2
  }
}
layer {
  name: "lstm1_gate_input_8"
  type: "Eltwise"
  bottom: "W_hc_h_7"
  bottom: "W_xc_x_8"
  top: "gate_input_8"
  eltwise_param {
    operation: SUM
  }
}
layer {
  name: "lstm1_unit_8"
  type: "LSTMUnit"
  bottom: "c_7"
  bottom: "gate_input_8"
  bottom: "cont_8"
  top: "c_8"
  top: "h_8"
}
layer {
  name: "lstm1_h_conted_8"
  type: "Scale"
  bottom: "h_8"
  bottom: "cont_9"
  top: "h_conted_8"
  scale_param {
    axis: 0
  }
}
layer {
  name: "lstm1_transform_9"
  type: "InnerProduct"
  bottom: "h_conted_8"
  top: "W_hc_h_8"
  param {
    name: "W_hc"
  }
  inner_product_param {
    num_output: 2048
    bias_term: false
    weight_filler {
      type: "uniform"
      min: -0.01
      max: 0.01
    }
    axis: 2
  }
}
layer {
  name: "lstm1_gate_input_9"
  type: "Eltwise"
  bottom: "W_hc_h_8"
  bottom: "W_xc_x_9"
  top: "gate_input_9"
  eltwise_param {
    operation: SUM
  }
}
layer {
  name: "lstm1_unit_9"
  type: "LSTMUnit"
  bottom: "c_8"
  bottom: "gate_input_9"
  bottom: "cont_9"
  top: "c_9"
  top: "h_9"
}
layer {
  name: "lstm1_h_conted_9"
  type: "Scale"
  bottom: "h_9"
  bottom: "cont_10"
  top: "h_conted_9"
  scale_param {
    axis: 0
  }
}
layer {
  name: "lstm1_transform_10"
  type: "InnerProduct"
  bottom: "h_conted_9"
  top: "W_hc_h_9"
  param {
    name: "W_hc"
  }
  inner_product_param {
    num_output: 2048
    bias_term: false
    weight_filler {
      type: "uniform"
      min: -0.01
      max: 0.01
    }
    axis: 2
  }
}
layer {
  name: "lstm1_gate_input_10"
  type: "Eltwise"
  bottom: "W_hc_h_9"
  bottom: "W_xc_x_10"
  top: "gate_input_10"
  eltwise_param {
    operation: SUM
  }
}
layer {
  name: "lstm1_unit_10"
  type: "LSTMUnit"
  bottom: "c_9"
  bottom: "gate_input_10"
  bottom: "cont_10"
  top: "c_10"
  top: "h_10"
}
layer {
  name: "lstm1_h_conted_10"
  type: "Scale"
  bottom: "h_10"
  bottom: "cont_11"
  top: "h_conted_10"
  scale_param {
    axis: 0
  }
}
layer {
  name: "lstm1_transform_11"
  type: "InnerProduct"
  bottom: "h_conted_10"
  top: "W_hc_h_10"
  param {
    name: "W_hc"
  }
  inner_product_param {
    num_output: 2048
    bias_term: false
    weight_filler {
      type: "uniform"
      min: -0.01
      max: 0.01
    }
    axis: 2
  }
}
layer {
  name: "lstm1_gate_input_11"
  type: "Eltwise"
  bottom: "W_hc_h_10"
  bottom: "W_xc_x_11"
  top: "gate_input_11"
  eltwise_param {
    operation: SUM
  }
}
layer {
  name: "lstm1_unit_11"
  type: "LSTMUnit"
  bottom: "c_10"
  bottom: "gate_input_11"
  bottom: "cont_11"
  top: "c_11"
  top: "h_11"
}
layer {
  name: "lstm1_h_conted_11"
  type: "Scale"
  bottom: "h_11"
  bottom: "cont_12"
  top: "h_conted_11"
  scale_param {
    axis: 0
  }
}
layer {
  name: "lstm1_transform_12"
  type: "InnerProduct"
  bottom: "h_conted_11"
  top: "W_hc_h_11"
  param {
    name: "W_hc"
  }
  inner_product_param {
    num_output: 2048
    bias_term: false
    weight_filler {
      type: "uniform"
      min: -0.01
      max: 0.01
    }
    axis: 2
  }
}
layer {
  name: "lstm1_gate_input_12"
  type: "Eltwise"
  bottom: "W_hc_h_11"
  bottom: "W_xc_x_12"
  top: "gate_input_12"
  eltwise_param {
    operation: SUM
  }
}
layer {
  name: "lstm1_unit_12"
  type: "LSTMUnit"
  bottom: "c_11"
  bottom: "gate_input_12"
  bottom: "cont_12"
  top: "c_12"
  top: "h_12"
}
layer {
  name: "lstm1_h_conted_12"
  type: "Scale"
  bottom: "h_12"
  bottom: "cont_13"
  top: "h_conted_12"
  scale_param {
    axis: 0
  }
}
layer {
  name: "lstm1_transform_13"
  type: "InnerProduct"
  bottom: "h_conted_12"
  top: "W_hc_h_12"
  param {
    name: "W_hc"
  }
  inner_product_param {
    num_output: 2048
    bias_term: false
    weight_filler {
      type: "uniform"
      min: -0.01
      max: 0.01
    }
    axis: 2
  }
}
layer {
  name: "lstm1_gate_input_13"
  type: "Eltwise"
  bottom: "W_hc_h_12"
  bottom: "W_xc_x_13"
  top: "gate_input_13"
  eltwise_param {
    operation: SUM
  }
}
layer {
  name: "lstm1_unit_13"
  type: "LSTMUnit"
  bottom: "c_12"
  bottom: "gate_input_13"
  bottom: "cont_13"
  top: "c_13"
  top: "h_13"
}
layer {
  name: "lstm1_h_conted_13"
  type: "Scale"
  bottom: "h_13"
  bottom: "cont_14"
  top: "h_conted_13"
  scale_param {
    axis: 0
  }
}
layer {
  name: "lstm1_transform_14"
  type: "InnerProduct"
  bottom: "h_conted_13"
  top: "W_hc_h_13"
  param {
    name: "W_hc"
  }
  inner_product_param {
    num_output: 2048
    bias_term: false
    weight_filler {
      type: "uniform"
      min: -0.01
      max: 0.01
    }
    axis: 2
  }
}
layer {
  name: "lstm1_gate_input_14"
  type: "Eltwise"
  bottom: "W_hc_h_13"
  bottom: "W_xc_x_14"
  top: "gate_input_14"
  eltwise_param {
    operation: SUM
  }
}
layer {
  name: "lstm1_unit_14"
  type: "LSTMUnit"
  bottom: "c_13"
  bottom: "gate_input_14"
  bottom: "cont_14"
  top: "c_14"
  top: "h_14"
}
layer {
  name: "lstm1_h_conted_14"
  type: "Scale"
  bottom: "h_14"
  bottom: "cont_15"
  top: "h_conted_14"
  scale_param {
    axis: 0
  }
}
layer {
  name: "lstm1_transform_15"
  type: "InnerProduct"
  bottom: "h_conted_14"
  top: "W_hc_h_14"
  param {
    name: "W_hc"
  }
  inner_product_param {
    num_output: 2048
    bias_term: false
    weight_filler {
      type: "uniform"
      min: -0.01
      max: 0.01
    }
    axis: 2
  }
}
layer {
  name: "lstm1_gate_input_15"
  type: "Eltwise"
  bottom: "W_hc_h_14"
  bottom: "W_xc_x_15"
  top: "gate_input_15"
  eltwise_param {
    operation: SUM
  }
}
layer {
  name: "lstm1_unit_15"
  type: "LSTMUnit"
  bottom: "c_14"
  bottom: "gate_input_15"
  bottom: "cont_15"
  top: "c_15"
  top: "h_15"
}
layer {
  name: "lstm1_h_conted_15"
  type: "Scale"
  bottom: "h_15"
  bottom: "cont_16"
  top: "h_conted_15"
  scale_param {
    axis: 0
  }
}
layer {
  name: "lstm1_transform_16"
  type: "InnerProduct"
  bottom: "h_conted_15"
  top: "W_hc_h_15"
  param {
    name: "W_hc"
  }
  inner_product_param {
    num_output: 2048
    bias_term: false
    weight_filler {
      type: "uniform"
      min: -0.01
      max: 0.01
    }
    axis: 2
  }
}
layer {
  name: "lstm1_gate_input_16"
  type: "Eltwise"
  bottom: "W_hc_h_15"
  bottom: "W_xc_x_16"
  top: "gate_input_16"
  eltwise_param {
    operation: SUM
  }
}
layer {
  name: "lstm1_unit_16"
  type: "LSTMUnit"
  bottom: "c_15"
  bottom: "gate_input_16"
  bottom: "cont_16"
  top: "c_16"
  top: "h_16"
}
layer {
  name: "lstm1_h_conted_16"
  type: "Scale"
  bottom: "h_16"
  bottom: "cont_17"
  top: "h_conted_16"
  scale_param {
    axis: 0
  }
}
layer {
  name: "lstm1_transform_17"
  type: "InnerProduct"
  bottom: "h_conted_16"
  top: "W_hc_h_16"
  param {
    name: "W_hc"
  }
  inner_product_param {
    num_output: 2048
    bias_term: false
    weight_filler {
      type: "uniform"
      min: -0.01
      max: 0.01
    }
    axis: 2
  }
}
layer {
  name: "lstm1_gate_input_17"
  type: "Eltwise"
  bottom: "W_hc_h_16"
  bottom: "W_xc_x_17"
  top: "gate_input_17"
  eltwise_param {
    operation: SUM
  }
}
layer {
  name: "lstm1_unit_17"
  type: "LSTMUnit"
  bottom: "c_16"
  bottom: "gate_input_17"
  bottom: "cont_17"
  top: "c_17"
  top: "h_17"
}
layer {
  name: "lstm1_h_conted_17"
  type: "Scale"
  bottom: "h_17"
  bottom: "cont_18"
  top: "h_conted_17"
  scale_param {
    axis: 0
  }
}
layer {
  name: "lstm1_transform_18"
  type: "InnerProduct"
  bottom: "h_conted_17"
  top: "W_hc_h_17"
  param {
    name: "W_hc"
  }
  inner_product_param {
    num_output: 2048
    bias_term: false
    weight_filler {
      type: "uniform"
      min: -0.01
      max: 0.01
    }
    axis: 2
  }
}
layer {
  name: "lstm1_gate_input_18"
  type: "Eltwise"
  bottom: "W_hc_h_17"
  bottom: "W_xc_x_18"
  top: "gate_input_18"
  eltwise_param {
    operation: SUM
  }
}
layer {
  name: "lstm1_unit_18"
  type: "LSTMUnit"
  bottom: "c_17"
  bottom: "gate_input_18"
  bottom: "cont_18"
  top: "c_18"
  top: "h_18"
}
layer {
  name: "lstm1_h_conted_18"
  type: "Scale"
  bottom: "h_18"
  bottom: "cont_19"
  top: "h_conted_18"
  scale_param {
    axis: 0
  }
}
layer {
  name: "lstm1_transform_19"
  type: "InnerProduct"
  bottom: "h_conted_18"
  top: "W_hc_h_18"
  param {
    name: "W_hc"
  }
  inner_product_param {
    num_output: 2048
    bias_term: false
    weight_filler {
      type: "uniform"
      min: -0.01
      max: 0.01
    }
    axis: 2
  }
}
layer {
  name: "lstm1_gate_input_19"
  type: "Eltwise"
  bottom: "W_hc_h_18"
  bottom: "W_xc_x_19"
  top: "gate_input_19"
  eltwise_param {
    operation: SUM
  }
}
layer {
  name: "lstm1_unit_19"
  type: "LSTMUnit"
  bottom: "c_18"
  bottom: "gate_input_19"
  bottom: "cont_19"
  top: "c_19"
  top: "h_19"
}
layer {
  name: "lstm1_h_conted_19"
  type: "Scale"
  bottom: "h_19"
  bottom: "cont_20"
  top: "h_conted_19"
  scale_param {
    axis: 0
  }
}
layer {
  name: "lstm1_transform_20"
  type: "InnerProduct"
  bottom: "h_conted_19"
  top: "W_hc_h_19"
  param {
    name: "W_hc"
  }
  inner_product_param {
    num_output: 2048
    bias_term: false
    weight_filler {
      type: "uniform"
      min: -0.01
      max: 0.01
    }
    axis: 2
  }
}
layer {
  name: "lstm1_gate_input_20"
  type: "Eltwise"
  bottom: "W_hc_h_19"
  bottom: "W_xc_x_20"
  top: "gate_input_20"
  eltwise_param {
    operation: SUM
  }
}
layer {
  name: "lstm1_unit_20"
  type: "LSTMUnit"
  bottom: "c_19"
  bottom: "gate_input_20"
  bottom: "cont_20"
  top: "c_20"
  top: "h_20"
}
layer {
  name: "lstm1_h_conted_20"
  type: "Scale"
  bottom: "h_20"
  bottom: "cont_21"
  top: "h_conted_20"
  scale_param {
    axis: 0
  }
}
layer {
  name: "lstm1_transform_21"
  type: "InnerProduct"
  bottom: "h_conted_20"
  top: "W_hc_h_20"
  param {
    name: "W_hc"
  }
  inner_product_param {
    num_output: 2048
    bias_term: false
    weight_filler {
      type: "uniform"
      min: -0.01
      max: 0.01
    }
    axis: 2
  }
}
layer {
  name: "lstm1_gate_input_21"
  type: "Eltwise"
  bottom: "W_hc_h_20"
  bottom: "W_xc_x_21"
  top: "gate_input_21"
  eltwise_param {
    operation: SUM
  }
}
layer {
  name: "lstm1_unit_21"
  type: "LSTMUnit"
  bottom: "c_20"
  bottom: "gate_input_21"
  bottom: "cont_21"
  top: "c_21"
  top: "h_21"
}
layer {
  name: "lstm1_h_conted_21"
  type: "Scale"
  bottom: "h_21"
  bottom: "cont_22"
  top: "h_conted_21"
  scale_param {
    axis: 0
  }
}
layer {
  name: "lstm1_transform_22"
  type: "InnerProduct"
  bottom: "h_conted_21"
  top: "W_hc_h_21"
  param {
    name: "W_hc"
  }
  inner_product_param {
    num_output: 2048
    bias_term: false
    weight_filler {
      type: "uniform"
      min: -0.01
      max: 0.01
    }
    axis: 2
  }
}
layer {
  name: "lstm1_gate_input_22"
  type: "Eltwise"
  bottom: "W_hc_h_21"
  bottom: "W_xc_x_22"
  top: "gate_input_22"
  eltwise_param {
    operation: SUM
  }
}
layer {
  name: "lstm1_unit_22"
  type: "LSTMUnit"
  bottom: "c_21"
  bottom: "gate_input_22"
  bottom: "cont_22"
  top: "c_22"
  top: "h_22"
}
layer {
  name: "lstm1_h_conted_22"
  type: "Scale"
  bottom: "h_22"
  bottom: "cont_23"
  top: "h_conted_22"
  scale_param {
    axis: 0
  }
}
layer {
  name: "lstm1_transform_23"
  type: "InnerProduct"
  bottom: "h_conted_22"
  top: "W_hc_h_22"
  param {
    name: "W_hc"
  }
  inner_product_param {
    num_output: 2048
    bias_term: false
    weight_filler {
      type: "uniform"
      min: -0.01
      max: 0.01
    }
    axis: 2
  }
}
layer {
  name: "lstm1_gate_input_23"
  type: "Eltwise"
  bottom: "W_hc_h_22"
  bottom: "W_xc_x_23"
  top: "gate_input_23"
  eltwise_param {
    operation: SUM
  }
}
layer {
  name: "lstm1_unit_23"
  type: "LSTMUnit"
  bottom: "c_22"
  bottom: "gate_input_23"
  bottom: "cont_23"
  top: "c_23"
  top: "h_23"
}
layer {
  name: "lstm1_h_conted_23"
  type: "Scale"
  bottom: "h_23"
  bottom: "cont_24"
  top: "h_conted_23"
  scale_param {
    axis: 0
  }
}
layer {
  name: "lstm1_transform_24"
  type: "InnerProduct"
  bottom: "h_conted_23"
  top: "W_hc_h_23"
  param {
    name: "W_hc"
  }
  inner_product_param {
    num_output: 2048
    bias_term: false
    weight_filler {
      type: "uniform"
      min: -0.01
      max: 0.01
    }
    axis: 2
  }
}
layer {
  name: "lstm1_gate_input_24"
  type: "Eltwise"
  bottom: "W_hc_h_23"
  bottom: "W_xc_x_24"
  top: "gate_input_24"
  eltwise_param {
    operation: SUM
  }
}
layer {
  name: "lstm1_unit_24"
  type: "LSTMUnit"
  bottom: "c_23"
  bottom: "gate_input_24"
  bottom: "cont_24"
  top: "c_24"
  top: "h_24"
}
layer {
  name: "lstm1_h_conted_24"
  type: "Scale"
  bottom: "h_24"
  bottom: "cont_25"
  top: "h_conted_24"
  scale_param {
    axis: 0
  }
}
layer {
  name: "lstm1_transform_25"
  type: "InnerProduct"
  bottom: "h_conted_24"
  top: "W_hc_h_24"
  param {
    name: "W_hc"
  }
  inner_product_param {
    num_output: 2048
    bias_term: false
    weight_filler {
      type: "uniform"
      min: -0.01
      max: 0.01
    }
    axis: 2
  }
}
layer {
  name: "lstm1_gate_input_25"
  type: "Eltwise"
  bottom: "W_hc_h_24"
  bottom: "W_xc_x_25"
  top: "gate_input_25"
  eltwise_param {
    operation: SUM
  }
}
layer {
  name: "lstm1_unit_25"
  type: "LSTMUnit"
  bottom: "c_24"
  bottom: "gate_input_25"
  bottom: "cont_25"
  top: "c_25"
  top: "h_25"
}
layer {
  name: "lstm1_h_conted_25"
  type: "Scale"
  bottom: "h_25"
  bottom: "cont_26"
  top: "h_conted_25"
  scale_param {
    axis: 0
  }
}
layer {
  name: "lstm1_transform_26"
  type: "InnerProduct"
  bottom: "h_conted_25"
  top: "W_hc_h_25"
  param {
    name: "W_hc"
  }
  inner_product_param {
    num_output: 2048
    bias_term: false
    weight_filler {
      type: "uniform"
      min: -0.01
      max: 0.01
    }
    axis: 2
  }
}
layer {
  name: "lstm1_gate_input_26"
  type: "Eltwise"
  bottom: "W_hc_h_25"
  bottom: "W_xc_x_26"
  top: "gate_input_26"
  eltwise_param {
    operation: SUM
  }
}
layer {
  name: "lstm1_unit_26"
  type: "LSTMUnit"
  bottom: "c_25"
  bottom: "gate_input_26"
  bottom: "cont_26"
  top: "c_26"
  top: "h_26"
}
layer {
  name: "lstm1_h_conted_26"
  type: "Scale"
  bottom: "h_26"
  bottom: "cont_27"
  top: "h_conted_26"
  scale_param {
    axis: 0
  }
}
layer {
  name: "lstm1_transform_27"
  type: "InnerProduct"
  bottom: "h_conted_26"
  top: "W_hc_h_26"
  param {
    name: "W_hc"
  }
  inner_product_param {
    num_output: 2048
    bias_term: false
    weight_filler {
      type: "uniform"
      min: -0.01
      max: 0.01
    }
    axis: 2
  }
}
layer {
  name: "lstm1_gate_input_27"
  type: "Eltwise"
  bottom: "W_hc_h_26"
  bottom: "W_xc_x_27"
  top: "gate_input_27"
  eltwise_param {
    operation: SUM
  }
}
layer {
  name: "lstm1_unit_27"
  type: "LSTMUnit"
  bottom: "c_26"
  bottom: "gate_input_27"
  bottom: "cont_27"
  top: "c_27"
  top: "h_27"
}
layer {
  name: "lstm1_h_conted_27"
  type: "Scale"
  bottom: "h_27"
  bottom: "cont_28"
  top: "h_conted_27"
  scale_param {
    axis: 0
  }
}
layer {
  name: "lstm1_transform_28"
  type: "InnerProduct"
  bottom: "h_conted_27"
  top: "W_hc_h_27"
  param {
    name: "W_hc"
  }
  inner_product_param {
    num_output: 2048
    bias_term: false
    weight_filler {
      type: "uniform"
      min: -0.01
      max: 0.01
    }
    axis: 2
  }
}
layer {
  name: "lstm1_gate_input_28"
  type: "Eltwise"
  bottom: "W_hc_h_27"
  bottom: "W_xc_x_28"
  top: "gate_input_28"
  eltwise_param {
    operation: SUM
  }
}
layer {
  name: "lstm1_unit_28"
  type: "LSTMUnit"
  bottom: "c_27"
  bottom: "gate_input_28"
  bottom: "cont_28"
  top: "c_28"
  top: "h_28"
}
layer {
  name: "lstm1_h_conted_28"
  type: "Scale"
  bottom: "h_28"
  bottom: "cont_29"
  top: "h_conted_28"
  scale_param {
    axis: 0
  }
}
layer {
  name: "lstm1_transform_29"
  type: "InnerProduct"
  bottom: "h_conted_28"
  top: "W_hc_h_28"
  param {
    name: "W_hc"
  }
  inner_product_param {
    num_output: 2048
    bias_term: false
    weight_filler {
      type: "uniform"
      min: -0.01
      max: 0.01
    }
    axis: 2
  }
}
layer {
  name: "lstm1_gate_input_29"
  type: "Eltwise"
  bottom: "W_hc_h_28"
  bottom: "W_xc_x_29"
  top: "gate_input_29"
  eltwise_param {
    operation: SUM
  }
}
layer {
  name: "lstm1_unit_29"
  type: "LSTMUnit"
  bottom: "c_28"
  bottom: "gate_input_29"
  bottom: "cont_29"
  top: "c_29"
  top: "h_29"
}
layer
I1017 11:44:24.116811 26100 layer_factory.hpp:77] Creating layer lstm1_
I1017 11:44:24.116863 26100 net.cpp:84] Creating Layer lstm1_
I1017 11:44:24.116873 26100 net.cpp:380] lstm1_ -> x
I1017 11:44:24.116896 26100 net.cpp:380] lstm1_ -> cont
I1017 11:44:24.117010 26100 net.cpp:122] Setting up lstm1_
I1017 11:44:24.117023 26100 net.cpp:129] Top shape: 196 5 196 (192080)
I1017 11:44:24.117030 26100 net.cpp:129] Top shape: 196 5 (980)
I1017 11:44:24.117036 26100 net.cpp:137] Memory required for data: 772240
I1017 11:44:24.117048 26100 layer_factory.hpp:77] Creating layer lstm1_
I1017 11:44:24.117055 26100 net.cpp:84] Creating Layer lstm1_
I1017 11:44:24.117061 26100 net.cpp:380] lstm1_ -> c_0
I1017 11:44:24.117071 26100 net.cpp:380] lstm1_ -> h_0
I1017 11:44:24.117123 26100 net.cpp:122] Setting up lstm1_
I1017 11:44:24.117135 26100 net.cpp:129] Top shape: 1 5 512 (2560)
I1017 11:44:24.117141 26100 net.cpp:129] Top shape: 1 5 512 (2560)
I1017 11:44:24.117144 26100 net.cpp:137] Memory required for data: 792720
I1017 11:44:24.117149 26100 layer_factory.hpp:77] Creating layer lstm1_cont_slice
I1017 11:44:24.117177 26100 net.cpp:84] Creating Layer lstm1_cont_slice
I1017 11:44:24.117185 26100 net.cpp:406] lstm1_cont_slice <- cont
I1017 11:44:24.117207 26100 net.cpp:380] lstm1_cont_slice -> cont_1
I1017 11:44:24.117239 26100 net.cpp:380] lstm1_cont_slice -> cont_2
…
I1017 11:44:24.139552 26100 net.cpp:380] lstm1_cont_slice -> cont_190
I1017 11:44:24.139581 26100 net.cpp:380] lstm1_cont_slice -> cont_191
I1017 11:44:24.139611 26100 net.cpp:380] lstm1_cont_slice -> cont_192
I1017 11:44:24.139642 26100 net.cpp:380] lstm1_cont_slice -> cont_193
I1017 11:44:24.139670 26100 net.cpp:380] lstm1_cont_slice -> cont_194
I1017 11:44:24.139700 26100 net.cpp:380] lstm1_cont_slice -> cont_195
I1017 11:44:24.139729 26100 net.cpp:380] lstm1_cont_slice -> cont_196
I1017 11:44:24.142078 26100 net.cpp:122] Setting up lstm1_cont_slice
I1017 11:44:24.142096 26100 net.cpp:129] Top shape: 1 5 (5)
I1017 11:44:24.142103 26100 net.cpp:129] Top shape: 1 5 (5)
I1017 11:44:24.142108 26100 net.cpp:129] Top shape: 1 5 (5)
I1017 11:44:24.142113 26100 net.cpp:129] Top shape: 1 5 (5)
I1017 11:44:24.142122 26100 net.cpp:129] Top shape: 1 5 (5)
I1017 11:44:24.142127 26100 net.cpp:129] Top shape: 1 5 (5)
I1017 11:44:24.142132 26100 net.cpp:129] Top shape: 1 5 (5)
I1017 11:44:24.142138 26100 net.cpp:129] Top shape: 1 5 (5)
I1017 11:44:24.142143 26100 net.cpp:129] Top shape: 1 5 (5)
I1017 11:44:24.142150 26100 net.cpp:129] Top shape: 1 5 (5)
I1017 11:44:24.142156 26100 net.cpp:129] Top shape: 1 5 (5)
I1017 11:44:24.142161 26100 net.cpp:129] Top shape: 1 5 (5)
I1017 11:44:24.142166 26100 net.cpp:129] Top shape: 1 5 (5)
I1017 11:44:24.142171 26100 net.cpp:129] Top shape: 1 5 (5)
I1017 11:44:24.142176 26100 net.cpp:129] Top shape: 1 5 (5)
I1017 11:44:24.142182 26100 net.cpp:129] Top shape: 1 5 (5)
I1017 11:44:24.142187 26100 net.cpp:129] Top shape: 1 5 (5)
I1017 11:44:24.142192 26100 net.cpp:129] Top shape: 1 5 (5)
I1017 11:44:24.142197 26100 net.cpp:129] Top shape: 1 5 (5)
I1017 11:44:24.142202 26100 net.cpp:129] Top shape: 1 5 (5)
I1017 11:44:24.142207 26100 net.cpp:129] Top shape: 1 5 (5)
I1017 11:44:24.142213 26100 net.cpp:129] Top shape: 1 5 (5)
I1017 11:44:24.142218 26100 net.cpp:129] Top shape: 1 5 (5)
I1017 11:44:24.142223 26100 net.cpp:129] Top shape: 1 5 (5)
I1017 11:44:24.142228 26100 net.cpp:129] Top shape: 1 5 (5)
I1017 11:44:24.142233 26100 net.cpp:129] Top shape: 1 5 (5)
I1017 11:44:24.142238 26100 net.cpp:129] Top shape: 1 5 (5)
I1017 11:44:24.142243 26100 net.cpp:129] Top shape: 1 5 (5)
I1017 11:44:24.142249 26100 net.cpp:129] Top shape: 1 5 (5)
I1017 11:44:24.142254 26100 net.cpp:129] Top shape: 1 5 (5)
I1017 11:44:24.142259 26100 net.cpp:129] Top shape: 1 5 (5)
I1017 11:44:24.142266 26100 net.cpp:129] Top shape: 1 5 (5)
I1017 11:44:24.142271 26100 net.cpp:129] Top shape: 1 5 (5)
I1017 11:44:24.142277 26100 net.cpp:129] Top shape: 1 5 (5)
I1017 11:44:24.142282 26100 net.cpp:129] Top shape: 1 5 (5)
I1017 11:44:24.142287 26100 net.cpp:129] Top shape: 1 5 (5)
I1017 11:44:24.142292 26100 net.cpp:129] Top shape: 1 5 (5)
I1017 11:44:24.142297 26100 net.cpp:129] Top shape: 1 5 (5)
I1017 11:44:24.142302 26100 net.cpp:129] Top shape: 1 5 (5)
I1017 11:44:24.142307 26100 net.cpp:129] Top shape: 1 5 (5)
I1017 11:44:24.142313 26100 net.cpp:129] Top shape: 1 5 (5)
I1017 11:44:24.142318 26100 net.cpp:129] Top shape: 1 5 (5)
I1017 11:44:24.142323 26100 net.cpp:129] Top shape: 1 5 (5)
I1017 11:44:24.142328 26100 net.cpp:129] Top shape: 1 5 (5)
I1017 11:44:24.142334 26100 net.cpp:129] Top shape: 1 5 (5)
I1017 11:44:24.142339 26100 net.cpp:129] Top shape: 1 5 (5)
I1017 11:44:24.142344 26100 net.cpp:129] Top shape: 1 5 (5)
I1017 11:44:24.142349 26100 net.cpp:129] Top shape: 1 5 (5)
I1017 11:44:24.142355 26100 net.cpp:129] Top shape: 1 5 (5)
I1017 11:44:24.142360 26100 net.cpp:129] Top shape: 1 5 (5)
I1017 11:44:24.142365 26100 net.cpp:129] Top shape: 1 5 (5)
I1017 11:44:24.142370 26100 net.cpp:129] Top shape: 1 5 (5)
I1017 11:44:24.142375 26100 net.cpp:129] Top shape: 1 5 (5)
I1017 11:44:24.142381 26100 net.cpp:129] Top shape: 1 5 (5)
I1017 11:44:24.142386 26100 net.cpp:129] Top shape: 1 5 (5)
I1017 11:44:24.142391 26100 net.cpp:129] Top shape: 1 5 (5)
I1017 11:44:24.142396 26100 net.cpp:129] Top shape: 1 5 (5)
I1017 11:44:24.142401 26100 net.cpp:129] Top shape: 1 5 (5)
I1017 11:44:24.142407 26100 net.cpp:129] Top shape: 1 5 (5)
I1017 11:44:24.142412 26100 net.cpp:129] Top shape: 1 5 (5)
I1017 11:44:24.142417 26100 net.cpp:129] Top shape: 1 5 (5)
I1017 11:44:24.142423 26100 net.cpp:129] Top shape: 1 5 (5)
I1017 11:44:24.142428 26100 net.cpp:129] Top shape: 1 5 (5)
I1017 11:44:24.142433 26100 net.cpp:129] Top shape: 1 5 (5)
I1017 11:44:24.142438 26100 net.cpp:129] Top shape: 1 5 (5)
I1017 11:44:24.142444 26100 net.cpp:129] Top shape: 1 5 (5)
I1017 11:44:24.142449 26100 net.cpp:129] Top shape: 1 5 (5)
I1017 11:44:24.142454 26100 net.cpp:129] Top shape: 1 5 (5)
I1017 11:44:24.142460 26100 net.cpp:129] Top shape: 1 5 (5)
I1017 11:44:24.142465 26100 net.cpp:129] Top shape: 1 5 (5)
I1017 11:44:24.142470 26100 net.cpp:129] Top shape: 1 5 (5)
I1017 11:44:24.142475 26100 net.cpp:129] Top shape: 1 5 (5)
I1017 11:44:24.142480 26100 net.cpp:129] Top shape: 1 5 (5)
I1017 11:44:24.142487 26100 net.cpp:129] Top shape: 1 5 (5)
I1017 11:44:24.142491 26100 net.cpp:129] Top shape: 1 5 (5)
I1017 11:44:24.142496 26100 net.cpp:129] Top shape: 1 5 (5)
I1017 11:44:24.142503 26100 net.cpp:129] Top shape: 1 5 (5)
I1017 11:44:24.142508 26100 net.cpp:129] Top shape: 1 5 (5)
I1017 11:44:24.142513 26100 net.cpp:129] Top shape: 1 5 (5)
I1017 11:44:24.142518 26100 net.cpp:129] Top shape: 1 5 (5)
I1017 11:44:24.142524 26100 net.cpp:129] Top shape: 1 5 (5)
I1017 11:44:24.142529 26100 net.cpp:129] Top shape: 1 5 (5)
I1017 11:44:24.142534 26100 net.cpp:129] Top shape: 1 5 (5)
I1017 11:44:24.142540 26100 net.cpp:129] Top shape: 1 5 (5)
I1017 11:44:24.142545 26100 net.cpp:129] Top shape: 1 5 (5)
I1017 11:44:24.142550 26100 net.cpp:129] Top shape: 1 5 (5)
I1017 11:44:24.142555 26100 net.cpp:129] Top shape: 1 5 (5)
I1017 11:44:24.142560 26100 net.cpp:129] Top shape: 1 5 (5)
I1017 11:44:24.142566 26100 net.cpp:129] Top shape: 1 5 (5)
I1017 11:44:24.142571 26100 net.cpp:129] Top shape: 1 5 (5)
I1017 11:44:24.142576 26100 net.cpp:129] Top shape: 1 5 (5)
I1017 11:44:24.142581 26100 net.cpp:129] Top shape: 1 5 (5)
I1017 11:44:24.142586 26100 net.cpp:129] Top shape: 1 5 (5)
I1017 11:44:24.142592 26100 net.cpp:129] Top shape: 1 5 (5)
I1017 11:44:24.142597 26100 net.cpp:129] Top shape: 1 5 (5)
I1017 11:44:24.142602 26100 net.cpp:129] Top shape: 1 5 (5)
I1017 11:44:24.142607 26100 net.cpp:129] Top shape: 1 5 (5)
I1017 11:44:24.142613 26100 net.cpp:129] Top shape: 1 5 (5)
I1017 11:44:24.142618 26100 net.cpp:129] Top shape: 1 5 (5)
I1017 11:44:24.142623 26100 net.cpp:129] Top shape: 1 5 (5)
I1017 11:44:24.142628 26100 net.cpp:129] Top shape: 1 5 (5)
I1017 11:44:24.142634 26100 net.cpp:129] Top shape: 1 5 (5)
I1017 11:44:24.142639 26100 net.cpp:129] Top shape: 1 5 (5)
I1017 11:44:24.142644 26100 net.cpp:129] Top shape: 1 5 (5)
I1017 11:44:24.142649 26100 net.cpp:129] Top shape: 1 5 (5)
I1017 11:44:24.142654 26100 net.cpp:129] Top shape: 1 5 (5)
I1017 11:44:24.142660 26100 net.cpp:129] Top shape: 1 5 (5)
I1017 11:44:24.142665 26100 net.cpp:129] Top shape: 1 5 (5)
I1017 11:44:24.142670 26100 net.cpp:129] Top shape: 1 5 (5)
I1017 11:44:24.142676 26100 net.cpp:129] Top shape: 1 5 (5)
I1017 11:44:24.142681 26100 net.cpp:129] Top shape: 1 5 (5)
I1017 11:44:24.142688 26100 net.cpp:129] Top shape: 1 5 (5)
I1017 11:44:24.142693 26100 net.cpp:129] Top shape: 1 5 (5)
I1017 11:44:24.142698 26100 net.cpp:129] Top shape: 1 5 (5)
I1017 11:44:24.142702 26100 net.cpp:129] Top shape: 1 5 (5)
I1017 11:44:24.142709 26100 net.cpp:129] Top shape: 1 5 (5)
I1017 11:44:24.142714 26100 net.cpp:129] Top shape: 1 5 (5)
I1017 11:44:24.142719 26100 net.cpp:129] Top shape: 1 5 (5)
I1017 11:44:24.142724 26100 net.cpp:129] Top shape: 1 5 (5)
I1017 11:44:24.142729 26100 net.cpp:129] Top shape: 1 5 (5)
I1017 11:44:24.142735 26100 net.cpp:129] Top shape: 1 5 (5)
I1017 11:44:24.142740 26100 net.cpp:129] Top shape: 1 5 (5)
I1017 11:44:24.142745 26100 net.cpp:129] Top shape: 1 5 (5)
I1017 11:44:24.142751 26100 net.cpp:129] Top shape: 1 5 (5)
I1017 11:44:24.142756 26100 net.cpp:129] Top shape: 1 5 (5)
I1017 11:44:24.142762 26100 net.cpp:129] Top shape: 1 5 (5)
I1017 11:44:24.142767 26100 net.cpp:129] Top shape: 1 5 (5)
I1017 11:44:24.142773 26100 net.cpp:129] Top shape: 1 5 (5)
I1017 11:44:24.142778 26100 net.cpp:129] Top shape: 1 5 (5)
I1017 11:44:24.142783 26100 net.cpp:129] Top shape: 1 5 (5)
I1017 11:44:24.142788 26100 net.cpp:129] Top shape: 1 5 (5)
I1017 11:44:24.142793 26100 net.cpp:129] Top shape: 1 5 (5)
I1017 11:44:24.142799 26100 net.cpp:129] Top shape: 1 5 (5)
I1017 11:44:24.142804 26100 net.cpp:129] Top shape: 1 5 (5)
I1017 11:44:24.142809 26100 net.cpp:129] Top shape: 1 5 (5)
I1017 11:44:24.142814 26100 net.cpp:129] Top shape: 1 5 (5)
I1017 11:44:24.142819 26100 net.cpp:129] Top shape: 1 5 (5)
I1017 11:44:24.142825 26100 net.cpp:129] Top shape: 1 5 (5)
I1017 11:44:24.142830 26100 net.cpp:129] Top shape: 1 5 (5)
I1017 11:44:24.142835 26100 net.cpp:129] Top shape: 1 5 (5)
I1017 11:44:24.142840 26100 net.cpp:129] Top shape: 1 5 (5)
I1017 11:44:24.142846 26100 net.cpp:129] Top shape: 1 5 (5)
I1017 11:44:24.142851 26100 net.cpp:129] Top shape: 1 5 (5)
I1017 11:44:24.142856 26100 net.cpp:129] Top shape: 1 5 (5)
I1017 11:44:24.142861 26100 net.cpp:129] Top shape: 1 5 (5)
I1017 11:44:24.142866 26100 net.cpp:129] Top shape: 1 5 (5)
I1017 11:44:24.142871 26100 net.cpp:129] Top shape: 1 5 (5)
I1017 11:44:24.142877 26100 net.cpp:129] Top shape: 1 5 (5)
I1017 11:44:24.142882 26100 net.cpp:129] Top shape: 1 5 (5)
I1017 11:44:24.142887 26100 net.cpp:129] Top shape: 1 5 (5)
I1017 11:44:24.142892 26100 net.cpp:129] Top shape: 1 5 (5)
I1017 11:44:24.142899 26100 net.cpp:129] Top shape: 1 5 (5)
I1017 11:44:24.142904 26100 net.cpp:129] Top shape: 1 5 (5)
I1017 11:44:24.142909 26100 net.cpp:129] Top shape: 1 5 (5)
I1017 11:44:24.142913 26100 net.cpp:129] Top shape: 1 5 (5)
I1017 11:44:24.142918 26100 net.cpp:129] Top shape: 1 5 (5)
I1017 11:44:24.142925 26100 net.cpp:129] Top shape: 1 5 (5)
I1017 11:44:24.142930 26100 net.cpp:129] Top shape: 1 5 (5)
I1017 11:44:24.142935 26100 net.cpp:129] Top shape: 1 5 (5)
I1017 11:44:24.142940 26100 net.cpp:129] Top shape: 1 5 (5)
I1017 11:44:24.142946 26100 net.cpp:129] Top shape: 1 5 (5)
I1017 11:44:24.142951 26100 net.cpp:129] Top shape: 1 5 (5)
I1017 11:44:24.142956 26100 net.cpp:129] Top shape: 1 5 (5)
I1017 11:44:24.142961 26100 net.cpp:129] Top shape: 1 5 (5)
I1017 11:44:24.142966 26100 net.cpp:129] Top shape: 1 5 (5)
I1017 11:44:24.142971 26100 net.cpp:129] Top shape: 1 5 (5)
I1017 11:44:24.142976 26100 net.cpp:129] Top shape: 1 5 (5)
I1017 11:44:24.142982 26100 net.cpp:129] Top shape: 1 5 (5)
I1017 11:44:24.142987 26100 net.cpp:129] Top shape: 1 5 (5)
I1017 11:44:24.142992 26100 net.cpp:129] Top shape: 1 5 (5)
I1017 11:44:24.142997 26100 net.cpp:129] Top shape: 1 5 (5)
I1017 11:44:24.143002 26100 net.cpp:129] Top shape: 1 5 (5)
I1017 11:44:24.143007 26100 net.cpp:129] Top shape: 1 5 (5)
I1017 11:44:24.143013 26100 net.cpp:129] Top shape: 1 5 (5)
I1017 11:44:24.143018 26100 net.cpp:129] Top shape: 1 5 (5)
I1017 11:44:24.143023 26100 net.cpp:129] Top shape: 1 5 (5)
I1017 11:44:24.143029 26100 net.cpp:129] Top shape: 1 5 (5)
I1017 11:44:24.143034 26100 net.cpp:129] Top shape: 1 5 (5)
I1017 11:44:24.143039 26100 net.cpp:129] Top shape: 1 5 (5)
I1017 11:44:24.143044 26100 net.cpp:129] Top shape: 1 5 (5)
I1017 11:44:24.143050 26100 net.cpp:129] Top shape: 1 5 (5)
I1017 11:44:24.143055 26100 net.cpp:129] Top shape: 1 5 (5)
I1017 11:44:24.143060 26100 net.cpp:129] Top shape: 1 5 (5)
I1017 11:44:24.143065 26100 net.cpp:129] Top shape: 1 5 (5)
I1017 11:44:24.143070 26100 net.cpp:129] Top shape: 1 5 (5)
I1017 11:44:24.143075 26100 net.cpp:129] Top shape: 1 5 (5)
I1017 11:44:24.143081 26100 net.cpp:129] Top shape: 1 5 (5)
I1017 11:44:24.143086 26100 net.cpp:129] Top shape: 1 5 (5)
I1017 11:44:24.143091 26100 net.cpp:129] Top shape: 1 5 (5)
I1017 11:44:24.143096 26100 net.cpp:129] Top shape: 1 5 (5)
I1017 11:44:24.143101 26100 net.cpp:129] Top shape: 1 5 (5)
I1017 11:44:24.143107 26100 net.cpp:129] Top shape: 1 5 (5)
I1017 11:44:24.143112 26100 net.cpp:129] Top shape: 1 5 (5)
I1017 11:44:24.143117 26100 net.cpp:129] Top shape: 1 5 (5)
I1017 11:44:24.143122 26100 net.cpp:129] Top shape: 1 5 (5)
I1017 11:44:24.143127 26100 net.cpp:129] Top shape: 1 5 (5)
I1017 11:44:24.143132 26100 net.cpp:137] Memory required for data: 796640
I1017 11:44:24.143138 26100 layer_factory.hpp:77] Creating layer cont_1_lstm1_cont_slice_0_split
I1017 11:44:24.143147 26100 net.cpp:84] Creating Layer cont_1_lstm1_cont_slice_0_split
I1017 11:44:24.143153 26100 net.cpp:406] cont_1_lstm1_cont_slice_0_split <- cont_1
I1017 11:44:24.143163 26100 net.cpp:380] cont_1_lstm1_cont_slice_0_split -> cont_1_lstm1_cont_slice_0_split_0
I1017 11:44:24.143175 26100 net.cpp:380] cont_1_lstm1_cont_slice_0_split -> cont_1_lstm1_cont_slice_0_split_1
I1017 11:44:24.143220 26100 net.cpp:122] Setting up cont_1_lstm1_cont_slice_0_split
I1017 11:44:24.143229 26100 net.cpp:129] Top shape: 1 5 (5)
I1017 11:44:24.143235 26100 net.cpp:129] Top shape: 1 5 (5)
I1017 11:44:24.143239 26100 net.cpp:137] Memory required for data: 796680
I1017 11:44:24.143245 26100 layer_factory.hpp:77] Creating layer cont_2_lstm1_cont_slice_1_split
I1017 11:44:24.143255 26100 net.cpp:84] Creating Layer cont_2_lstm1_cont_slice_1_split
I1017 11:44:24.143262 26100 net.cpp:406] cont_2_lstm1_cont_slice_1_split <- cont_2
I1017 11:44:24.143270 26100 net.cpp:380] cont_2_lstm1_cont_slice_1_split -> cont_2_lstm1_cont_slice_1_split_0
I1017 11:44:24.143280 26100 net.cpp:380] cont_2_lstm1_cont_slice_1_split -> cont_2_lstm1_cont_slice_1_split_1
I1017 11:44:24.143317 26100 net.cpp:122] Setting up cont_2_lstm1_cont_slice_1_split
I1017 11:44:24.143326 26100 net.cpp:129] Top shape: 1 5 (5)
I1017 11:44:24.143332 26100 net.cpp:129] Top shape: 1 5 (5)
I1017 11:44:24.143335 26100 net.cpp:137] Memory required for data: 796720
I1017 11:44:24.143340 26100 layer_factory.hpp:77] Creating layer cont_3_lstm1_cont_slice_2_split
I1017 11:44:24.143347 26100 net.cpp:84] Creating Layer cont_3_lstm1_cont_slice_2_split
I1017 11:44:24.143352 26100 net.cpp:406] cont_3_lstm1_cont_slice_2_split <- cont_3
I1017 11:44:24.143362 26100 net.cpp:380] cont_3_lstm1_cont_slice_2_split -> cont_3_lstm1_cont_slice_2_split_0
I1017 11:44:24.143369 26100 net.cpp:380] cont_3_lstm1_cont_slice_2_split -> cont_3_lstm1_cont_slice_2_split_1
I1017 11:44:24.143404 26100 net.cpp:122] Setting up cont_3_lstm1_cont_slice_2_split
I1017 11:44:24.143414 26100 net.cpp:129] Top shape: 1 5 (5)
I1017 11:44:24.143419 26100 net.cpp:129] Top shape: 1 5 (5)
I1017 11:44:24.143424 26100 net.cpp:137] Memory required for data: 796760
I1017 11:44:24.143429 26100 layer_factory.hpp:77] Creating layer cont_4_lstm1_cont_slice_3_split
I1017 11:44:24.143435 26100 net.cpp:84] Creating Layer cont_4_lstm1_cont_slice_3_split
I1017 11:44:24.143440 26100 net.cpp:406] cont_4_lstm1_cont_slice_3_split <- cont_4
I1017 11:44:24.143446 26100 net.cpp:380] cont_4_lstm1_cont_slice_3_split -> cont_4_lstm1_cont_slice_3_split_0
I1017 11:44:24.143455 26100 net.cpp:380] cont_4_lstm1_cont_slice_3_split -> cont_4_lstm1_cont_slice_3_split_1
I1017 11:44:24.143491 26100 net.cpp:122] Setting up cont_4_lstm1_cont_slice_3_split
I1017 11:44:24.143499 26100 net.cpp:129] Top shape: 1 5 (5)
I1017 11:44:24.143504 26100 net.cpp:129] Top shape: 1 5 (5)
I1017 11:44:24.143509 26100 net.cpp:137] Memory required for data: 796800
I1017 11:44:24.143513 26100 layer_factory.hpp:77] Creating layer cont_5_lstm1_cont_slice_4_split
I1017 11:44:24.143519 26100 net.cpp:84] Creating Layer cont_5_lstm1_cont_slice_4_split
I1017 11:44:24.143524 26100 net.cpp:406] cont_5_lstm1_cont_slice_4_split <- cont_5
I1017 11:44:24.143533 26100 net.cpp:380] cont_5_lstm1_cont_slice_4_split -> cont_5_lstm1_cont_slice_4_split_0
I1017 11:44:24.143541 26100 net.cpp:380] cont_5_lstm1_cont_slice_4_split -> cont_5_lstm1_cont_slice_4_split_1
I1017 11:44:24.143576 26100 net.cpp:122] Setting up cont_5_lstm1_cont_slice_4_split
I1017 11:44:24.143585 26100 net.cpp:129] Top shape: 1 5 (5)
I1017 11:44:24.143590 26100 net.cpp:129] Top shape: 1 5 (5)
I1017 11:44:24.143595 26100 net.cpp:137] Memory required for data: 796840
I1017 11:44:24.143599 26100 layer_factory.hpp:77] Creating layer cont_6_lstm1_cont_slice_5_split
I1017 11:44:24.143610 26100 net.cpp:84] Creating Layer cont_6_lstm1_cont_slice_5_split
I1017 11:44:24.143615 26100 net.cpp:406] cont_6_lstm1_cont_slice_5_split <- cont_6
I1017 11:44:24.143621 26100 net.cpp:380] cont_6_lstm1_cont_slice_5_split -> cont_6_lstm1_cont_slice_5_split_0
I1017 11:44:24.143630 26100 net.cpp:380] cont_6_lstm1_cont_slice_5_split -> cont_6_lstm1_cont_slice_5_split_1
I1017 11:44:24.143663 26100 net.cpp:122] Setting up cont_6_lstm1_cont_slice_5_split
I1017 11:44:24.143671 26100 net.cpp:129] Top shape: 1 5 (5)
I1017 11:44:24.143677 26100 net.cpp:129] Top shape: 1 5 (5)
I1017 11:44:24.143682 26100 net.cpp:137] Memory required for data: 796880
I1017 11:44:24.143687 26100 layer_factory.hpp:77] Creating layer cont_7_lstm1_cont_slice_6_split
I1017 11:44:24.143692 26100 net.cpp:84] Creating Layer cont_7_lstm1_cont_slice_6_split
I1017 11:44:24.143697 26100 net.cpp:406] cont_7_lstm1_cont_slice_6_split <- cont_7
I1017 11:44:24.143703 26100 net.cpp:380] cont_7_lstm1_cont_slice_6_split -> cont_7_lstm1_cont_slice_6_split_0
I1017 11:44:24.143712 26100 net.cpp:380] cont_7_lstm1_cont_slice_6_split -> cont_7_lstm1_cont_slice_6_split_1
I1017 11:44:24.143745 26100 net.cpp:122] Setting up cont_7_lstm1_cont_slice_6_split
I1017 11:44:24.143754 26100 net.cpp:129] Top shape: 1 5 (5)
I1017 11:44:24.143759 26100 net.cpp:129] Top shape: 1 5 (5)
I1017 11:44:24.143764 26100 net.cpp:137] Memory required for data: 796920
I1017 11:44:24.143769 26100 layer_factory.hpp:77] Creating layer cont_8_lstm1_cont_slice_7_split
I1017 11:44:24.143774 26100 net.cpp:84] Creating Layer cont_8_lstm1_cont_slice_7_split
I1017 11:44:24.143779 26100 net.cpp:406] cont_8_lstm1_cont_slice_7_split <- cont_8
I1017 11:44:24.143786 26100 net.cpp:380] cont_8_lstm1_cont_slice_7_split -> cont_8_lstm1_cont_slice_7_split_0
I1017 11:44:24.143795 26100 net.cpp:380] cont_8_lstm1_cont_slice_7_split -> cont_8_lstm1_cont_slice_7_split_1
I1017 11:44:24.143827 26100 net.cpp:122] Setting up cont_8_lstm1_cont_slice_7_split
I1017 11:44:24.143836 26100 net.cpp:129] Top shape: 1 5 (5)
I1017 11:44:24.143841 26100 net.cpp:129] Top shape: 1 5 (5)
I1017 11:44:24.143846 26100 net.cpp:137] Memory required for data: 796960
I1017 11:44:24.143851 26100 layer_factory.hpp:77] Creating layer cont_9_lstm1_cont_slice_8_split
I1017 11:44:24.143858 26100 net.cpp:84] Creating Layer cont_9_lstm1_cont_slice_8_split
I1017 11:44:24.143863 26100 net.cpp:406] cont_9_lstm1_cont_slice_8_split <- cont_9
I1017 11:44:24.143870 26100 net.cpp:380] cont_9_lstm1_cont_slice_8_split -> cont_9_lstm1_cont_slice_8_split_0
I1017 11:44:24.143877 26100 net.cpp:380] cont_9_lstm1_cont_slice_8_split -> cont_9_lstm1_cont_slice_8_split_1
I1017 11:44:24.143911 26100 net.cpp:122] Setting up cont_9_lstm1_cont_slice_8_split
I1017 11:44:24.143919 26100 net.cpp:129] Top shape: 1 5 (5)
I1017 11:44:24.143925 26100 net.cpp:129] Top shape: 1 5 (5)
I1017 11:44:24.143929 26100 net.cpp:137] Memory required for data: 797000
I1017 11:44:24.143934 26100 layer_factory.hpp:77] Creating layer cont_10_lstm1_cont_slice_9_split
I1017 11:44:24.143941 26100 net.cpp:84] Creating Layer cont_10_lstm1_cont_slice_9_split
I1017 11:44:24.143946 26100 net.cpp:406] cont_10_lstm1_cont_slice_9_split <- cont_10
I1017 11:44:24.143954 26100 net.cpp:380] cont_10_lstm1_cont_slice_9_split -> cont_10_lstm1_cont_slice_9_split_0
I1017 11:44:24.143961 26100 net.cpp:380] cont_10_lstm1_cont_slice_9_split -> cont_10_lstm1_cont_slice_9_split_1
I1017 11:44:24.143996 26100 net.cpp:122] Setting up cont_10_lstm1_cont_slice_9_split
I1017 11:44:24.144004 26100 net.cpp:129] Top shape: 1 5 (5)
I1017 11:44:24.144009 26100 net.cpp:129] Top shape: 1 5 (5)
I1017 11:44:24.144014 26100 net.cpp:137] Memory required for data: 797040
I1017 11:44:24.144018 26100 layer_factory.hpp:77] Creating layer cont_11_lstm1_cont_slice_10_split
I1017 11:44:24.144024 26100 net.cpp:84] Creating Layer cont_11_lstm1_cont_slice_10_split
I1017 11:44:24.144037 26100 net.cpp:406] cont_11_lstm1_cont_slice_10_split <- cont_11
I1017 11:44:24.144044 26100 net.cpp:380] cont_11_lstm1_cont_slice_10_split -> cont_11_lstm1_cont_slice_10_split_0
I1017 11:44:24.144052 26100 net.cpp:380] cont_11_lstm1_cont_slice_10_split -> cont_11_lstm1_cont_slice_10_split_1
I1017 11:44:24.144099 26100 net.cpp:122] Setting up cont_11_lstm1_cont_slice_10_split
I1017 11:44:24.144109 26100 net.cpp:129] Top shape: 1 5 (5)
I1017 11:44:24.144114 26100 net.cpp:129] Top shape: 1 5 (5)
I1017 11:44:24.144119 26100 net.cpp:137] Memory required for data: 797080
I1017 11:44:24.144124 26100 layer_factory.hpp:77] Creating layer cont_12_lstm1_cont_slice_11_split
I1017 11:44:24.144129 26100 net.cpp:84] Creating Layer cont_12_lstm1_cont_slice_11_split
I1017 11:44:24.144134 26100 net.cpp:406] cont_12_lstm1_cont_slice_11_split <- cont_12
I1017 11:44:24.144145 26100 net.cpp:380] cont_12_lstm1_cont_slice_11_split -> cont_12_lstm1_cont_slice_11_split_0
I1017 11:44:24.144151 26100 net.cpp:380] cont_12_lstm1_cont_slice_11_split -> cont_12_lstm1_cont_slice_11_split_1
I1017 11:44:24.144188 26100 net.cpp:122] Setting up cont_12_lstm1_cont_slice_11_split
I1017 11:44:24.144197 26100 net.cpp:129] Top shape: 1 5 (5)
I1017 11:44:24.144202 26100 net.cpp:129] Top shape: 1 5 (5)
I1017 11:44:24.144207 26100 net.cpp:137] Memory required for data: 797120
I1017 11:44:24.144212 26100 layer_factory.hpp:77] Creating layer cont_13_lstm1_cont_slice_12_split
I1017 11:44:24.144219 26100 net.cpp:84] Creating Layer cont_13_lstm1_cont_slice_12_split
I1017 11:44:24.144224 26100 net.cpp:406] cont_13_lstm1_cont_slice_12_split <- cont_13
I1017 11:44:24.144232 26100 net.cpp:380] cont_13_lstm1_cont_slice_12_split -> cont_13_lstm1_cont_slice_12_split_0
I1017 11:44:24.144239 26100 net.cpp:380] cont_13_lstm1_cont_slice_12_split -> cont_13_lstm1_cont_slice_12_split_1
I1017 11:44:24.144274 26100 net.cpp:122] Setting up cont_13_lstm1_cont_slice_12_split
I1017 11:44:24.144284 26100 net.cpp:129] Top shape: 1 5 (5)
I1017 11:44:24.144289 26100 net.cpp:129] Top shape: 1 5 (5)
I1017 11:44:24.144292 26100 net.cpp:137] Memory required for data: 797160
I1017 11:44:24.144297 26100 layer_factory.hpp:77] Creating layer cont_14_lstm1_cont_slice_13_split
I1017 11:44:24.144305 26100 net.cpp:84] Creating Layer cont_14_lstm1_cont_slice_13_split
I1017 11:44:24.144310 26100 net.cpp:406] cont_14_lstm1_cont_slice_13_split <- cont_14
I1017 11:44:24.144317 26100 net.cpp:380] cont_14_lstm1_cont_slice_13_split -> cont_14_lstm1_cont_slice_13_split_0
I1017 11:44:24.144325 26100 net.cpp:380] cont_14_lstm1_cont_slice_13_split -> cont_14_lstm1_cont_slice_13_split_1
I1017 11:44:24.144361 26100 net.cpp:122] Setting up cont_14_lstm1_cont_slice_13_split
I1017 11:44:24.144368 26100 net.cpp:129] Top shape: 1 5 (5)
I1017 11:44:24.144374 26100 net.cpp:129] Top shape: 1 5 (5)
I1017 11:44:24.144378 26100 net.cpp:137] Memory required for data: 797200
I1017 11:44:24.144383 26100 layer_factory.hpp:77] Creating layer cont_15_lstm1_cont_slice_14_split
I1017 11:44:24.144388 26100 net.cpp:84] Creating Layer cont_15_lstm1_cont_slice_14_split
I1017 11:44:24.144393 26100 net.cpp:406] cont_15_lstm1_cont_slice_14_split <- cont_15
I1017 11:44:24.144404 26100 net.cpp:380] cont_15_lstm1_cont_slice_14_split -> cont_15_lstm1_cont_slice_14_split_0
I1017 11:44:24.144412 26100 net.cpp:380] cont_15_lstm1_cont_slice_14_split -> cont_15_lstm1_cont_slice_14_split_1
I1017 11:44:24.144444 26100 net.cpp:122] Setting up cont_15_lstm1_cont_slice_14_split
I1017 11:44:24.144453 26100 net.cpp:129] Top shape: 1 5 (5)
I1017 11:44:24.144459 26100 net.cpp:129] Top shape: 1 5 (5)
I1017 11:44:24.144462 26100 net.cpp:137] Memory required for data: 797240
I1017 11:44:24.144467 26100 layer_factory.hpp:77] Creating layer cont_16_lstm1_cont_slice_15_split
I1017 11:44:24.144479 26100 net.cpp:84] Creating Layer cont_16_lstm1_cont_slice_15_split
I1017 11:44:24.144484 26100 net.cpp:406] cont_16_lstm1_cont_slice_15_split <- cont_16
I1017 11:44:24.144491 26100 net.cpp:380] cont_16_lstm1_cont_slice_15_split -> cont_16_lstm1_cont_slice_15_split_0
I1017 11:44:24.144498 26100 net.cpp:380] cont_16_lstm1_cont_slice_15_split -> cont_16_lstm1_cont_slice_15_split_1
I1017 11:44:24.144533 26100 net.cpp:122] Setting up cont_16_lstm1_cont_slice_15_split
I1017 11:44:24.144541 26100 net.cpp:129] Top shape: 1 5 (5)
I1017 11:44:24.144546 26100 net.cpp:129] Top shape: 1 5 (5)
I1017 11:44:24.144551 26100 net.cpp:137] Memory required for data: 797280
I1017 11:44:24.144554 26100 layer_factory.hpp:77] Creating layer cont_17_lstm1_cont_slice_16_split
I1017 11:44:24.144560 26100 net.cpp:84] Creating Layer cont_17_lstm1_cont_slice_16_split
I1017 11:44:24.144565 26100 net.cpp:406] cont_17_lstm1_cont_slice_16_split <- cont_17
I1017 11:44:24.144572 26100 net.cpp:380] cont_17_lstm1_cont_slice_16_split -> cont_17_lstm1_cont_slice_16_split_0
I1017 11:44:24.144584 26100 net.cpp:380] cont_17_lstm1_cont_slice_16_split -> cont_17_lstm1_cont_slice_16_split_1
I1017 11:44:24.144618 26100 net.cpp:122] Setting up cont_17_lstm1_cont_slice_16_split
I1017 11:44:24.144625 26100 net.cpp:129] Top shape: 1 5 (5)
I1017 11:44:24.144631 26100 net.cpp:129] Top shape: 1 5 (5)
I1017 11:44:24.144635 26100 net.cpp:137] Memory required for data: 797320
I1017 11:44:24.144640 26100 layer_factory.hpp:77] Creating layer cont_18_lstm1_cont_slice_17_split
I1017 11:44:24.144646 26100 net.cpp:84] Creating Layer cont_18_lstm1_cont_slice_17_split
I1017 11:44:24.144651 26100 net.cpp:406] cont_18_lstm1_cont_slice_17_split <- cont_18
I1017 11:44:24.144657 26100 net.cpp:380] cont_18_lstm1_cont_slice_17_split -> cont_18_lstm1_cont_slice_17_split_0
I1017 11:44:24.144665 26100 net.cpp:380] cont_18_lstm1_cont_slice_17_split -> cont_18_lstm1_cont_slice_17_split_1
I1017 11:44:24.144698 26100 net.cpp:122] Setting up cont_18_lstm1_cont_slice_17_split
I1017 11:44:24.144706 26100 net.cpp:129] Top shape: 1 5 (5)
I1017 11:44:24.144711 26100 net.cpp:129] Top shape: 1 5 (5)
I1017 11:44:24.144716 26100 net.cpp:137] Memory required for data: 797360
I1017 11:44:24.144719 26100 layer_factory.hpp:77] Creating layer cont_19_lstm1_cont_slice_18_split
I1017 11:44:24.144726 26100 net.cpp:84] Creating Layer cont_19_lstm1_cont_slice_18_split
I1017 11:44:24.144729 26100 net.cpp:406] cont_19_lstm1_cont_slice_18_split <- cont_19
I1017 11:44:24.144738 26100 net.cpp:380] cont_19_lstm1_cont_slice_18_split -> cont_19_lstm1_cont_slice_18_split_0
I1017 11:44:24.144747 26100 net.cpp:380] cont_19_lstm1_cont_slice_18_split -> cont_19_lstm1_cont_slice_18_split_1
I1017 11:44:24.144778 26100 net.cpp:122] Setting up cont_19_lstm1_cont_slice_18_split
I1017 11:44:24.144784 26100 net.cpp:129] Top shape: 1 5 (5)
I1017 11:44:24.144790 26100 net.cpp:129] Top shape: 1 5 (5)
I1017 11:44:24.144794 26100 net.cpp:137] Memory required for data: 797400
I1017 11:44:24.144798 26100 layer_factory.hpp:77] Creating layer cont_20_lstm1_cont_slice_19_split
I1017 11:44:24.144806 26100 net.cpp:84] Creating Layer cont_20_lstm1_cont_slice_19_split
I1017 11:44:24.144812 26100 net.cpp:406] cont_20_lstm1_cont_slice_19_split <- cont_20
I1017 11:44:24.144819 26100 net.cpp:380] cont_20_lstm1_cont_slice_19_split -> cont_20_lstm1_cont_slice_19_split_0
I1017 11:44:24.144826 26100 net.cpp:380] cont_20_lstm1_cont_slice_19_split -> cont_20_lstm1_cont_slice_19_split_1
I1017 11:44:24.144861 26100 net.cpp:122] Setting up cont_20_lstm1_cont_slice_19_split
I1017 11:44:24.144868 26100 net.cpp:129] Top shape: 1 5 (5)
I1017 11:44:24.144873 26100 net.cpp:129] Top shape: 1 5 (5)
I1017 11:44:24.144877 26100 net.cpp:137] Memory required for data: 797440
I1017 11:44:24.144882 26100 layer_factory.hpp:77] Creating layer cont_21_lstm1_cont_slice_20_split
I1017 11:44:24.144887 26100 net.cpp:84] Creating Layer cont_21_lstm1_cont_slice_20_split
I1017 11:44:24.144892 26100 net.cpp:406] cont_21_lstm1_cont_slice_20_split <- cont_21
I1017 11:44:24.144899 26100 net.cpp:380] cont_21_lstm1_cont_slice_20_split -> cont_21_lstm1_cont_slice_20_split_0
I1017 11:44:24.144906 26100 net.cpp:380] cont_21_lstm1_cont_slice_20_split -> cont_21_lstm1_cont_slice_20_split_1
I1017 11:44:24.144939 26100 net.cpp:122] Setting up cont_21_lstm1_cont_slice_20_split
I1017 11:44:24.144946 26100 net.cpp:129] Top shape: 1 5 (5)
I1017 11:44:24.144951 26100 net.cpp:129] Top shape: 1 5 (5)
I1017 11:44:24.144955 26100 net.cpp:137] Memory required for data: 797480
I1017 11:44:24.144960 26100 layer_factory.hpp:77] Creating layer cont_22_lstm1_cont_slice_21_split
I1017 11:44:24.144965 26100 net.cpp:84] Creating Layer cont_22_lstm1_cont_slice_21_split
I1017 11:44:24.144970 26100 net.cpp:406] cont_22_lstm1_cont_slice_21_split <- cont_22
I1017 11:44:24.144979 26100 net.cpp:380] cont_22_lstm1_cont_slice_21_split -> cont_22_lstm1_cont_slice_21_split_0
I1017 11:44:24.144987 26100 net.cpp:380] cont_22_lstm1_cont_slice_21_split -> cont_22_lstm1_cont_slice_21_split_1
I1017 11:44:24.145018 26100 net.cpp:122] Setting up cont_22_lstm1_cont_slice_21_split
I1017 11:44:24.145025 26100 net.cpp:129] Top shape: 1 5 (5)
I1017 11:44:24.145030 26100 net.cpp:129] Top shape: 1 5 (5)
I1017 11:44:24.145035 26100 net.cpp:137] Memory required for data: 797520
I1017 11:44:24.145040 26100 layer_factory.hpp:77] Creating layer cont_23_lstm1_cont_slice_22_split
I1017 11:44:24.145047 26100 net.cpp:84] Creating Layer cont_23_lstm1_cont_slice_22_split
I1017 11:44:24.145052 26100 net.cpp:406] cont_23_lstm1_cont_slice_22_split <- cont_23
I1017 11:44:24.145058 26100 net.cpp:380] cont_23_lstm1_cont_slice_22_split -> cont_23_lstm1_cont_slice_22_split_0
I1017 11:44:24.145066 26100 net.cpp:380] cont_23_lstm1_cont_slice_22_split -> cont_23_lstm1_cont_slice_22_split_1
I1017 11:44:24.145100 26100 net.cpp:122] Setting up cont_23_lstm1_cont_slice_22_split
I1017 11:44:24.145107 26100 net.cpp:129] Top shape: 1 5 (5)
I1017 11:44:24.145112 26100 net.cpp:129] Top shape: 1 5 (5)
I1017 11:44:24.145117 26100 net.cpp:137] Memory required for data: 797560
I1017 11:44:24.145120 26100 layer_factory.hpp:77] Creating layer cont_24_lstm1_cont_slice_23_split
I1017 11:44:24.145126 26100 net.cpp:84] Creating Layer cont_24_lstm1_cont_slice_23_split
I1017 11:44:24.145131 26100 net.cpp:406] cont_24_lstm1_cont_slice_23_split <- cont_24
I1017 11:44:24.145138 26100 net.cpp:380] cont_24_lstm1_cont_slice_23_split -> cont_24_lstm1_cont_slice_23_split_0
I1017 11:44:24.145145 26100 net.cpp:380] cont_24_lstm1_cont_slice_23_split -> cont_24_lstm1_cont_slice_23_split_1
I1017 11:44:24.145179 26100 net.cpp:122] Setting up cont_24_lstm1_cont_slice_23_split
I1017 11:44:24.145185 26100 net.cpp:129] Top shape: 1 5 (5)
I1017 11:44:24.145191 26100 net.cpp:129] Top shape: 1 5 (5)
I1017 11:44:24.145195 26100 net.cpp:137] Memory required for data: 797600
I1017 11:44:24.145200 26100 layer_factory.hpp:77] Creating layer cont_25_lstm1_cont_slice_24_split
I1017 11:44:24.145205 26100 net.cpp:84] Creating Layer cont_25_lstm1_cont_slice_24_split
I1017 11:44:24.145210 26100 net.cpp:406] cont_25_lstm1_cont_slice_24_split <- cont_25
I1017 11:44:24.145216 26100 net.cpp:380] cont_25_lstm1_cont_slice_24_split -> cont_25_lstm1_cont_slice_24_split_0
I1017 11:44:24.145223 26100 net.cpp:380] cont_25_lstm1_cont_slice_24_split -> cont_25_lstm1_cont_slice_24_split_1
I1017 11:44:24.145257 26100 net.cpp:122] Setting up cont_25_lstm1_cont_slice_24_split
I1017 11:44:24.145264 26100 net.cpp:129] Top shape: 1 5 (5)
I1017 11:44:24.145269 26100 net.cpp:129] Top shape: 1 5 (5)
I1017 11:44:24.145273 26100 net.cpp:137] Memory required for data: 797640
I1017 11:44:24.145278 26100 layer_factory.hpp:77] Creating layer cont_26_lstm1_cont_slice_25_split
I1017 11:44:24.145284 26100 net.cpp:84] Creating Layer cont_26_lstm1_cont_slice_25_split
I1017 11:44:24.145288 26100 net.cpp:406] cont_26_lstm1_cont_slice_25_split <- cont_26
I1017 11:44:24.145298 26100 net.cpp:380] cont_26_lstm1_cont_slice_25_split -> cont_26_lstm1_cont_slice_25_split_0
I1017 11:44:24.145305 26100 net.cpp:380] cont_26_lstm1_cont_slice_25_split -> cont_26_lstm1_cont_slice_25_split_1
I1017 11:44:24.145336 26100 net.cpp:122] Setting up cont_26_lstm1_cont_slice_25_split
I1017 11:44:24.145344 26100 net.cpp:129] Top shape: 1 5 (5)
I1017 11:44:24.145349 26100 net.cpp:129] Top shape: 1 5 (5)
I1017 11:44:24.145352 26100 net.cpp:137] Memory required for data: 797680
I1017 11:44:24.145357 26100 layer_factory.hpp:77] Creating layer cont_27_lstm1_cont_slice_26_split
I1017 11:44:24.145366 26100 net.cpp:84] Creating Layer cont_27_lstm1_cont_slice_26_split
I1017 11:44:24.145371 26100 net.cpp:406] cont_27_lstm1_cont_slice_26_split <- cont_27
I1017 11:44:24.145377 26100 net.cpp:380] cont_27_lstm1_cont_slice_26_split -> cont_27_lstm1_cont_slice_26_split_0
I1017 11:44:24.145385 26100 net.cpp:380] cont_27_lstm1_cont_slice_26_split -> cont_27_lstm1_cont_slice_26_split_1
I1017 11:44:24.145418 26100 net.cpp:122] Setting up cont_27_lstm1_cont_slice_26_split
I1017 11:44:24.145426 26100 net.cpp:129] Top shape: 1 5 (5)
I1017 11:44:24.145431 26100 net.cpp:129] Top shape: 1 5 (5)
I1017 11:44:24.145436 26100 net.cpp:137] Memory required for data: 797720
I1017 11:44:24.145440 26100 layer_factory.hpp:77] Creating layer cont_28_lstm1_cont_slice_27_split
I1017 11:44:24.145447 26100 net.cpp:84] Creating Layer cont_28_lstm1_cont_slice_27_split
I1017 11:44:24.145452 26100 net.cpp:406] cont_28_lstm1_cont_slice_27_split <- cont_28
I1017 11:44:24.145457 26100 net.cpp:380] cont_28_lstm1_cont_slice_27_split -> cont_28_lstm1_cont_slice_27_split_0
I1017 11:44:24.145465 26100 net.cpp:380] cont_28_lstm1_cont_slice_27_split -> cont_28_lstm1_cont_slice_27_split_1
I1017 11:44:24.145499 26100 net.cpp:122] Setting up cont_28_lstm1_cont_slice_27_split
I1017 11:44:24.145506 26100 net.cpp:129] Top shape: 1 5 (5)
I1017 11:44:24.145511 26100 net.cpp:129] Top shape: 1 5 (5)
I1017 11:44:24.145515 26100 net.cpp:137] Memory required for data: 797760
I1017 11:44:24.145520 26100 layer_factory.hpp:77] Creating layer cont_29_lstm1_cont_slice_28_split
I1017 11:44:24.145526 26100 net.cpp:84] Creating Layer cont_29_lstm1_cont_slice_28_split
I1017 11:44:24.145530 26100 net.cpp:406] cont_29_lstm1_cont_slice_28_split <- cont_29
I1017 11:44:24.145537 26100 net.cpp:380] cont_29_lstm1_cont_slice_28_split -> cont_29_lstm1_cont_slice_28_split_0
I1017 11:44:24.145561 26100 net.cpp:380] cont_29_lstm1_cont_slice_28_split -> cont_29_lstm1_cont_slice_28_split_1
I1017 11:44:24.145599 26100 net.cpp:122] Setting up cont_29_lstm1_cont_slice_28_split
I1017 11:44:24.145606 26100 net.cpp:129] Top shape: 1 5 (5)
I1017 11:44:24.145612 26100 net.cpp:129] Top shape: 1 5 (5)
I1017 11:44:24.145617 26100 net.cpp:137] Memory required for data: 797800
I1017 11:44:24.145622 26100 layer_factory.hpp:77] Creating layer cont_30_lstm1_cont_slice_29_split
I1017 11:44:24.145632 26100 net.cpp:84] Creating Layer cont_30_lstm1_cont_slice_29_split
I1017 11:44:24.145637 26100 net.cpp:406] cont_30_lstm1_cont_slice_29_split <- cont_30
I1017 11:44:24.145644 26100 net.cpp:380] cont_30_lstm1_cont_slice_29_split -> cont_30_lstm1_cont_slice_29_split_0
I1017 11:44:24.145651 26100 net.cpp:380] cont_30_lstm1_cont_slice_29_split -> cont_30_lstm1_cont_slice_29_split_1
I1017 11:44:24.145686 26100 net.cpp:122] Setting up cont_30_lstm1_cont_slice_29_split
I1017 11:44:24.145694 26100 net.cpp:129] Top shape: 1 5 (5)
I1017 11:44:24.145699 26100 net.cpp:129] Top shape: 1 5 (5)
I1017 11:44:24.145704 26100 net.cpp:137] Memory required for data: 797840
I1017 11:44:24.145707 26100 layer_factory.hpp:77] Creating layer cont_31_lstm1_cont_slice_30_split
I1017 11:44:24.145714 26100 net.cpp:84] Creating Layer cont_31_lstm1_cont_slice_30_split
I1017 11:44:24.145718 26100 net.cpp:406] cont_31_lstm1_cont_slice_30_split <- cont_31
I1017 11:44:24.145725 26100 net.cpp:380] cont_31_lstm1_cont_slice_30_split -> cont_31_lstm1_cont_slice_30_split_0
I1017 11:44:24.145732 26100 net.cpp:380] cont_31_lstm1_cont_slice_30_split -> cont_31_lstm1_cont_slice_30_split_1
I1017 11:44:24.145766 26100 net.cpp:122] Setting up cont_31_lstm1_cont_slice_30_split
I1017 11:44:24.145773 26100 net.cpp:129] Top shape: 1 5 (5)
I1017 11:44:24.145778 26100 net.cpp:129] Top shape: 1 5 (5)
I1017 11:44:24.145782 26100 net.cpp:137] Memory required for data: 797880
I1017 11:44:24.145787 26100 layer_factory.hpp:77] Creating layer cont_32_lstm1_cont_slice_31_split
I1017 11:44:24.145793 26100 net.cpp:84] Creating Layer cont_32_lstm1_cont_slice_31_split
I1017 11:44:24.145797 26100 net.cpp:406] cont_32_lstm1_cont_slice_31_split <- cont_32
I1017 11:44:24.145804 26100 net.cpp:380] cont_32_lstm1_cont_slice_31_split -> cont_32_lstm1_cont_slice_31_split_0
I1017 11:44:24.145812 26100 net.cpp:380] cont_32_lstm1_cont_slice_31_split -> cont_32_lstm1_cont_slice_31_split_1
I1017 11:44:24.145844 26100 net.cpp:122] Setting up cont_32_lstm1_cont_slice_31_split
I1017 11:44:24.145851 26100 net.cpp:129] Top shape: 1 5 (5)
I1017 11:44:24.145856 26100 net.cpp:129] Top shape: 1 5 (5)
I1017 11:44:24.145860 26100 net.cpp:137] Memory required for data: 797920
I1017 11:44:24.145865 26100 layer_factory.hpp:77] Creating layer cont_33_lstm1_cont_slice_32_split
I1017 11:44:24.145871 26100 net.cpp:84] Creating Layer cont_33_lstm1_cont_slice_32_split
I1017 11:44:24.145875 26100 net.cpp:406] cont_33_lstm1_cont_slice_32_split <- cont_33
I1017 11:44:24.145884 26100 net.cpp:380] cont_33_lstm1_cont_slice_32_split -> cont_33_lstm1_cont_slice_32_split_0
I1017 11:44:24.145891 26100 net.cpp:380] cont_33_lstm1_cont_slice_32_split -> cont_33_lstm1_cont_slice_32_split_1
I1017 11:44:24.145925 26100 net.cpp:122] Setting up cont_33_lstm1_cont_slice_32_split
I1017 11:44:24.145932 26100 net.cpp:129] Top shape: 1 5 (5)
I1017 11:44:24.145937 26100 net.cpp:129] Top shape: 1 5 (5)
I1017 11:44:24.145941 26100 net.cpp:137] Memory required for data: 797960
I1017 11:44:24.145946 26100 layer_factory.hpp:77] Creating layer cont_34_lstm1_cont_slice_33_split
I1017 11:44:24.145953 26100 net.cpp:84] Creating Layer cont_34_lstm1_cont_slice_33_split
I1017 11:44:24.145958 26100 net.cpp:406] cont_34_lstm1_cont_slice_33_split <- cont_34
I1017 11:44:24.145965 26100 net.cpp:380] cont_34_lstm1_cont_slice_33_split -> cont_34_lstm1_cont_slice_33_split_0
I1017 11:44:24.145972 26100 net.cpp:380] cont_34_lstm1_cont_slice_33_split -> cont_34_lstm1_cont_slice_33_split_1
I1017 11:44:24.146005 26100 net.cpp:122] Setting up cont_34_lstm1_cont_slice_33_split
I1017 11:44:24.146013 26100 net.cpp:129] Top shape: 1 5 (5)
I1017 11:44:24.146018 26100 net.cpp:129] Top shape: 1 5 (5)
I1017 11:44:24.146023 26100 net.cpp:137] Memory required for data: 798000
I1017 11:44:24.146026 26100 layer_factory.hpp:77] Creating layer cont_35_lstm1_cont_slice_34_split
I1017 11:44:24.146033 26100 net.cpp:84] Creating Layer cont_35_lstm1_cont_slice_34_split
I1017 11:44:24.146037 26100 net.cpp:406] cont_35_lstm1_cont_slice_34_split <- cont_35
I1017 11:44:24.146044 26100 net.cpp:380] cont_35_lstm1_cont_slice_34_split -> cont_35_lstm1_cont_slice_34_split_0
I1017 11:44:24.146051 26100 net.cpp:380] cont_35_lstm1_cont_slice_34_split -> cont_35_lstm1_cont_slice_34_split_1
I1017 11:44:24.146083 26100 net.cpp:122] Setting up cont_35_lstm1_cont_slice_34_split
I1017 11:44:24.146090 26100 net.cpp:129] Top shape: 1 5 (5)
I1017 11:44:24.146095 26100 net.cpp:129] Top shape: 1 5 (5)
I1017 11:44:24.146100 26100 net.cpp:137] Memory required for data: 798040
I1017 11:44:24.146104 26100 layer_factory.hpp:77] Creating layer cont_36_lstm1_cont_slice_35_split
I1017 11:44:24.146111 26100 net.cpp:84] Creating Layer cont_36_lstm1_cont_slice_35_split
I1017 11:44:24.146116 26100 net.cpp:406] cont_36_lstm1_cont_slice_35_split <- cont_36
I1017 11:44:24.146121 26100 net.cpp:380] cont_36_lstm1_cont_slice_35_split -> cont_36_lstm1_cont_slice_35_split_0
I1017 11:44:24.146128 26100 net.cpp:380] cont_36_lstm1_cont_slice_35_split -> cont_36_lstm1_cont_slice_35_split_1
I1017 11:44:24.146163 26100 net.cpp:122] Setting up cont_36_lstm1_cont_slice_35_split
I1017 11:44:24.146170 26100 net.cpp:129] Top shape: 1 5 (5)
I1017 11:44:24.146176 26100 net.cpp:129] Top shape: 1 5 (5)
I1017 11:44:24.146180 26100 net.cpp:137] Memory required for data: 798080
I1017 11:44:24.146184 26100 layer_factory.hpp:77] Creating layer cont_37_lstm1_cont_slice_36_split
I1017 11:44:24.146190 26100 net.cpp:84] Creating Layer cont_37_lstm1_cont_slice_36_split
I1017 11:44:24.146195 26100 net.cpp:406] cont_37_lstm1_cont_slice_36_split <- cont_37
I1017 11:44:24.146204 26100 net.cpp:380] cont_37_lstm1_cont_slice_36_split -> cont_37_lstm1_cont_slice_36_split_0
I1017 11:44:24.146211 26100 net.cpp:380] cont_37_lstm1_cont_slice_36_split -> cont_37_lstm1_cont_slice_36_split_1
I1017 11:44:24.146244 26100 net.cpp:122] Setting up cont_37_lstm1_cont_slice_36_split
I1017 11:44:24.146255 26100 net.cpp:129] Top shape: 1 5 (5)
I1017 11:44:24.146260 26100 net.cpp:129] Top shape: 1 5 (5)
I1017 11:44:24.146265 26100 net.cpp:137] Memory required for data: 798120
I1017 11:44:24.146270 26100 layer_factory.hpp:77] Creating layer cont_38_lstm1_cont_slice_37_split
I1017 11:44:24.146275 26100 net.cpp:84] Creating Layer cont_38_lstm1_cont_slice_37_split
I1017 11:44:24.146281 26100 net.cpp:406] cont_38_lstm1_cont_slice_37_split <- cont_38
I1017 11:44:24.146287 26100 net.cpp:380] cont_38_lstm1_cont_slice_37_split -> cont_38_lstm1_cont_slice_37_split_0
I1017 11:44:24.146294 26100 net.cpp:380] cont_38_lstm1_cont_slice_37_split -> cont_38_lstm1_cont_slice_37_split_1
I1017 11:44:24.146328 26100 net.cpp:122] Setting up cont_38_lstm1_cont_slice_37_split
I1017 11:44:24.146335 26100 net.cpp:129] Top shape: 1 5 (5)
I1017 11:44:24.146342 26100 net.cpp:129] Top shape: 1 5 (5)
I1017 11:44:24.146345 26100 net.cpp:137] Memory required for data: 798160
I1017 11:44:24.146349 26100 layer_factory.hpp:77] Creating layer cont_39_lstm1_cont_slice_38_split
I1017 11:44:24.146355 26100 net.cpp:84] Creating Layer cont_39_lstm1_cont_slice_38_split
I1017 11:44:24.146360 26100 net.cpp:406] cont_39_lstm1_cont_slice_38_split <- cont_39
I1017 11:44:24.146366 26100 net.cpp:380] cont_39_lstm1_cont_slice_38_split -> cont_39_lstm1_cont_slice_38_split_0
I1017 11:44:24.146374 26100 net.cpp:380] cont_39_lstm1_cont_slice_38_split -> cont_39_lstm1_cont_slice_38_split_1
I1017 11:44:24.146409 26100 net.cpp:122] Setting up cont_39_lstm1_cont_slice_38_split
I1017 11:44:24.146414 26100 net.cpp:129] Top shape: 1 5 (5)
I1017 11:44:24.146420 26100 net.cpp:129] Top shape: 1 5 (5)
I1017 11:44:24.146425 26100 net.cpp:137] Memory required for data: 798200
I1017 11:44:24.146430 26100 layer_factory.hpp:77] Creating layer cont_40_lstm1_cont_slice_39_split
I1017 11:44:24.146440 26100 net.cpp:84] Creating Layer cont_40_lstm1_cont_slice_39_split
I1017 11:44:24.146447 26100 net.cpp:406] cont_40_lstm1_cont_slice_39_split <- cont_40
I1017 11:44:24.146464 26100 net.cpp:380] cont_40_lstm1_cont_slice_39_split -> cont_40_lstm1_cont_slice_39_split_0
I1017 11:44:24.146473 26100 net.cpp:380] cont_40_lstm1_cont_slice_39_split -> cont_40_lstm1_cont_slice_39_split_1
I1017 11:44:24.146509 26100 net.cpp:122] Setting up cont_40_lstm1_cont_slice_39_split
I1017 11:44:24.146517 26100 net.cpp:129] Top shape: 1 5 (5)
I1017 11:44:24.146524 26100 net.cpp:129] Top shape: 1 5 (5)
I1017 11:44:24.146531 26100 net.cpp:137] Memory required for data: 798240
I1017 11:44:24.146539 26100 layer_factory.hpp:77] Creating layer cont_41_lstm1_cont_slice_40_split
I1017 11:44:24.146550 26100 net.cpp:84] Creating Layer cont_41_lstm1_cont_slice_40_split
I1017 11:44:24.146555 26100 net.cpp:406] cont_41_lstm1_cont_slice_40_split <- cont_41
I1017 11:44:24.146564 26100 net.cpp:380] cont_41_lstm1_cont_slice_40_split -> cont_41_lstm1_cont_slice_40_split_0
I1017 11:44:24.146570 26100 net.cpp:380] cont_41_lstm1_cont_slice_40_split -> cont_41_lstm1_cont_slice_40_split_1
I1017 11:44:24.146620 26100 net.cpp:122] Setting up cont_41_lstm1_cont_slice_40_split
I1017 11:44:24.146630 26100 net.cpp:129] Top shape: 1 5 (5)
I1017 11:44:24.146634 26100 net.cpp:129] Top shape: 1 5 (5)
I1017 11:44:24.146639 26100 net.cpp:137] Memory required for data: 798280
I1017 11:44:24.146643 26100 layer_factory.hpp:77] Creating layer cont_42_lstm1_cont_slice_41_split
I1017 11:44:24.146651 26100 net.cpp:84] Creating Layer cont_42_lstm1_cont_slice_41_split
I1017 11:44:24.146656 26100 net.cpp:406] cont_42_lstm1_cont_slice_41_split <- cont_42
I1017 11:44:24.146662 26100 net.cpp:380] cont_42_lstm1_cont_slice_41_split -> cont_42_lstm1_cont_slice_41_split_0
I1017 11:44:24.146670 26100 net.cpp:380] cont_42_lstm1_cont_slice_41_split -> cont_42_lstm1_cont_slice_41_split_1
I1017 11:44:24.146719 26100 net.cpp:122] Setting up cont_42_lstm1_cont_slice_41_split
I1017 11:44:24.146734 26100 net.cpp:129] Top shape: 1 5 (5)
I1017 11:44:24.146744 26100 net.cpp:129] Top shape: 1 5 (5)
I1017 11:44:24.146754 26100 net.cpp:137] Memory required for data: 798320
I1017 11:44:24.146761 26100 layer_factory.hpp:77] Creating layer cont_43_lstm1_cont_slice_42_split
I1017 11:44:24.146772 26100 net.cpp:84] Creating Layer cont_43_lstm1_cont_slice_42_split
I1017 11:44:24.146781 26100 net.cpp:406] cont_43_lstm1_cont_slice_42_split <- cont_43
I1017 11:44:24.146793 26100 net.cpp:380] cont_43_lstm1_cont_slice_42_split -> cont_43_lstm1_cont_slice_42_split_0
I1017 11:44:24.146807 26100 net.cpp:380] cont_43_lstm1_cont_slice_42_split -> cont_43_lstm1_cont_slice_42_split_1
I1017 11:44:24.146850 26100 net.cpp:122] Setting up cont_43_lstm1_cont_slice_42_split
I1017 11:44:24.146858 26100 net.cpp:129] Top shape: 1 5 (5)
I1017 11:44:24.146863 26100 net.cpp:129] Top shape: 1 5 (5)
I1017 11:44:24.146868 26100 net.cpp:137] Memory required for data: 798360
I1017 11:44:24.146873 26100 layer_factory.hpp:77] Creating layer cont_44_lstm1_cont_slice_43_split
I1017 11:44:24.146879 26100 net.cpp:84] Creating Layer cont_44_lstm1_cont_slice_43_split
I1017 11:44:24.146884 26100 net.cpp:406] cont_44_lstm1_cont_slice_43_split <- cont_44
I1017 11:44:24.146893 26100 net.cpp:380] cont_44_lstm1_cont_slice_43_split -> cont_44_lstm1_cont_slice_43_split_0
I1017 11:44:24.146901 26100 net.cpp:380] cont_44_lstm1_cont_slice_43_split -> cont_44_lstm1_cont_slice_43_split_1
I1017 11:44:24.146934 26100 net.cpp:122] Setting up cont_44_lstm1_cont_slice_43_split
I1017 11:44:24.146940 26100 net.cpp:129] Top shape: 1 5 (5)
I1017 11:44:24.146946 26100 net.cpp:129] Top shape: 1 5 (5)
I1017 11:44:24.146950 26100 net.cpp:137] Memory required for data: 798400
I1017 11:44:24.146955 26100 layer_factory.hpp:77] Creating layer cont_45_lstm1_cont_slice_44_split
I1017 11:44:24.146963 26100 net.cpp:84] Creating Layer cont_45_lstm1_cont_slice_44_split
I1017 11:44:24.146968 26100 net.cpp:406] cont_45_lstm1_cont_slice_44_split <- cont_45
I1017 11:44:24.146975 26100 net.cpp:380] cont_45_lstm1_cont_slice_44_split -> cont_45_lstm1_cont_slice_44_split_0
I1017 11:44:24.146981 26100 net.cpp:380] cont_45_lstm1_cont_slice_44_split -> cont_45_lstm1_cont_slice_44_split_1
I1017 11:44:24.147016 26100 net.cpp:122] Setting up cont_45_lstm1_cont_slice_44_split
I1017 11:44:24.147022 26100 net.cpp:129] Top shape: 1 5 (5)
I1017 11:44:24.147027 26100 net.cpp:129] Top shape: 1 5 (5)
I1017 11:44:24.147032 26100 net.cpp:137] Memory required for data: 798440
I1017 11:44:24.147037 26100 layer_factory.hpp:77] Creating layer cont_46_lstm1_cont_slice_45_split
I1017 11:44:24.147042 26100 net.cpp:84] Creating Layer cont_46_lstm1_cont_slice_45_split
I1017 11:44:24.147047 26100 net.cpp:406] cont_46_lstm1_cont_slice_45_split <- cont_46
I1017 11:44:24.147053 26100 net.cpp:380] cont_46_lstm1_cont_slice_45_split -> cont_46_lstm1_cont_slice_45_split_0
I1017 11:44:24.147061 26100 net.cpp:380] cont_46_lstm1_cont_slice_45_split -> cont_46_lstm1_cont_slice_45_split_1
I1017 11:44:24.147094 26100 net.cpp:122] Setting up cont_46_lstm1_cont_slice_45_split
I1017 11:44:24.147101 26100 net.cpp:129] Top shape: 1 5 (5)
I1017 11:44:24.147106 26100 net.cpp:129] Top shape: 1 5 (5)
I1017 11:44:24.147111 26100 net.cpp:137] Memory required for data: 798480
I1017 11:44:24.147115 26100 layer_factory.hpp:77] Creating layer cont_47_lstm1_cont_slice_46_split
I1017 11:44:24.147121 26100 net.cpp:84] Creating Layer cont_47_lstm1_cont_slice_46_split
I1017 11:44:24.147126 26100 net.cpp:406] cont_47_lstm1_cont_slice_46_split <- cont_47
I1017 11:44:24.147132 26100 net.cpp:380] cont_47_lstm1_cont_slice_46_split -> cont_47_lstm1_cont_slice_46_split_0
I1017 11:44:24.147143 26100 net.cpp:380] cont_47_lstm1_cont_slice_46_split -> cont_47_lstm1_cont_slice_46_split_1
I1017 11:44:24.147176 26100 net.cpp:122] Setting up cont_47_lstm1_cont_slice_46_split
I1017 11:44:24.147183 26100 net.cpp:129] Top shape: 1 5 (5)
I1017 11:44:24.147188 26100 net.cpp:129] Top shape: 1 5 (5)
I1017 11:44:24.147193 26100 net.cpp:137] Memory required for data: 798520
I1017 11:44:24.147197 26100 layer_factory.hpp:77] Creating layer cont_48_lstm1_cont_slice_47_split
I1017 11:44:24.147205 26100 net.cpp:84] Creating Layer cont_48_lstm1_cont_slice_47_split
I1017 11:44:24.147210 26100 net.cpp:406] cont_48_lstm1_cont_slice_47_split <- cont_48
I1017 11:44:24.147217 26100 net.cpp:380] cont_48_lstm1_cont_slice_47_split -> cont_48_lstm1_cont_slice_47_split_0
I1017 11:44:24.147224 26100 net.cpp:380] cont_48_lstm1_cont_slice_47_split -> cont_48_lstm1_cont_slice_47_split_1
I1017 11:44:24.147260 26100 net.cpp:122] Setting up cont_48_lstm1_cont_slice_47_split
I1017 11:44:24.147267 26100 net.cpp:129] Top shape: 1 5 (5)
I1017 11:44:24.147274 26100 net.cpp:129] Top shape: 1 5 (5)
I1017 11:44:24.147277 26100 net.cpp:137] Memory required for data: 798560
I1017 11:44:24.147282 26100 layer_factory.hpp:77] Creating layer cont_49_lstm1_cont_slice_48_split
I1017 11:44:24.147289 26100 net.cpp:84] Creating Layer cont_49_lstm1_cont_slice_48_split
I1017 11:44:24.147294 26100 net.cpp:406] cont_49_lstm1_cont_slice_48_split <- cont_49
I1017 11:44:24.147300 26100 net.cpp:380] cont_49_lstm1_cont_slice_48_split -> cont_49_lstm1_cont_slice_48_split_0
I1017 11:44:24.147308 26100 net.cpp:380] cont_49_lstm1_cont_slice_48_split -> cont_49_lstm1_cont_slice_48_split_1
I1017 11:44:24.147342 26100 net.cpp:122] Setting up cont_49_lstm1_cont_slice_48_split
I1017 11:44:24.147349 26100 net.cpp:129] Top shape: 1 5 (5)
I1017 11:44:24.147356 26100 net.cpp:129] Top shape: 1 5 (5)
I1017 11:44:24.147359 26100 net.cpp:137] Memory required for data: 798600
I1017 11:44:24.147364 26100 layer_factory.hpp:77] Creating layer cont_50_lstm1_cont_slice_49_split
I1017 11:44:24.147370 26100 net.cpp:84] Creating Layer cont_50_lstm1_cont_slice_49_split
I1017 11:44:24.147375 26100 net.cpp:406] cont_50_lstm1_cont_slice_49_split <- cont_50
I1017 11:44:24.147382 26100 net.cpp:380] cont_50_lstm1_cont_slice_49_split -> cont_50_lstm1_cont_slice_49_split_0
I1017 11:44:24.147388 26100 net.cpp:380] cont_50_lstm1_cont_slice_49_split -> cont_50_lstm1_cont_slice_49_split_1
I1017 11:44:24.147423 26100 net.cpp:122] Setting up cont_50_lstm1_cont_slice_49_split
I1017 11:44:24.147430 26100 net.cpp:129] Top shape: 1 5 (5)
I1017 11:44:24.147435 26100 net.cpp:129] Top shape: 1 5 (5)
I1017 11:44:24.147439 26100 net.cpp:137] Memory required for data: 798640
I1017 11:44:24.147444 26100 layer_factory.hpp:77] Creating layer cont_51_lstm1_cont_slice_50_split
I1017 11:44:24.147449 26100 net.cpp:84] Creating Layer cont_51_lstm1_cont_slice_50_split
I1017 11:44:24.147454 26100 net.cpp:406] cont_51_lstm1_cont_slice_50_split <- cont_51
I1017 11:44:24.147464 26100 net.cpp:380] cont_51_lstm1_cont_slice_50_split -> cont_51_lstm1_cont_slice_50_split_0
I1017 11:44:24.147470 26100 net.cpp:380] cont_51_lstm1_cont_slice_50_split -> cont_51_lstm1_cont_slice_50_split_1
I1017 11:44:24.147502 26100 net.cpp:122] Setting up cont_51_lstm1_cont_slice_50_split
I1017 11:44:24.147508 26100 net.cpp:129] Top shape: 1 5 (5)
I1017 11:44:24.147514 26100 net.cpp:129] Top shape: 1 5 (5)
I1017 11:44:24.147518 26100 net.cpp:137] Memory required for data: 798680
I1017 11:44:24.147523 26100 layer_factory.hpp:77] Creating layer cont_52_lstm1_cont_slice_51_split
I1017 11:44:24.147531 26100 net.cpp:84] Creating Layer cont_52_lstm1_cont_slice_51_split
I1017 11:44:24.147536 26100 net.cpp:406] cont_52_lstm1_cont_slice_51_split <- cont_52
I1017 11:44:24.147543 26100 net.cpp:380] cont_52_lstm1_cont_slice_51_split -> cont_52_lstm1_cont_slice_51_split_0
I1017 11:44:24.147550 26100 net.cpp:380] cont_52_lstm1_cont_slice_51_split -> cont_52_lstm1_cont_slice_51_split_1
I1017 11:44:24.147583 26100 net.cpp:122] Setting up cont_52_lstm1_cont_slice_51_split
I1017 11:44:24.147590 26100 net.cpp:129] Top shape: 1 5 (5)
I1017 11:44:24.147596 26100 net.cpp:129] Top shape: 1 5 (5)
I1017 11:44:24.147600 26100 net.cpp:137] Memory required for data: 798720
I1017 11:44:24.147605 26100 layer_factory.hpp:77] Creating layer cont_53_lstm1_cont_slice_52_split
I1017 11:44:24.147611 26100 net.cpp:84] Creating Layer cont_53_lstm1_cont_slice_52_split
I1017 11:44:24.147615 26100 net.cpp:406] cont_53_lstm1_cont_slice_52_split <- cont_53
I1017 11:44:24.147622 26100 net.cpp:380] cont_53_lstm1_cont_slice_52_split -> cont_53_lstm1_cont_slice_52_split_0
I1017 11:44:24.147629 26100 net.cpp:380] cont_53_lstm1_cont_slice_52_split -> cont_53_lstm1_cont_slice_52_split_1
I1017 11:44:24.147662 26100 net.cpp:122] Setting up cont_53_lstm1_cont_slice_52_split
I1017 11:44:24.147670 26100 net.cpp:129] Top shape: 1 5 (5)
I1017 11:44:24.147675 26100 net.cpp:129] Top shape: 1 5 (5)
I1017 11:44:24.147680 26100 net.cpp:137] Memory required for data: 798760
I1017 11:44:24.147683 26100 layer_factory.hpp:77] Creating layer cont_54_lstm1_cont_slice_53_split
I1017 11:44:24.147691 26100 net.cpp:84] Creating Layer cont_54_lstm1_cont_slice_53_split
I1017 11:44:24.147696 26100 net.cpp:406] cont_54_lstm1_cont_slice_53_split <- cont_54
I1017 11:44:24.147701 26100 net.cpp:380] cont_54_lstm1_cont_slice_53_split -> cont_54_lstm1_cont_slice_53_split_0
I1017 11:44:24.147711 26100 net.cpp:380] cont_54_lstm1_cont_slice_53_split -> cont_54_lstm1_cont_slice_53_split_1
I1017 11:44:24.147742 26100 net.cpp:122] Setting up cont_54_lstm1_cont_slice_53_split
I1017 11:44:24.147749 26100 net.cpp:129] Top shape: 1 5 (5)
I1017 11:44:24.147754 26100 net.cpp:129] Top shape: 1 5 (5)
I1017 11:44:24.147758 26100 net.cpp:137] Memory required for data: 798800
I1017 11:44:24.147763 26100 layer_factory.hpp:77] Creating layer cont_55_lstm1_cont_slice_54_split
I1017 11:44:24.147771 26100 net.cpp:84] Creating Layer cont_55_lstm1_cont_slice_54_split
I1017 11:44:24.147775 26100 net.cpp:406] cont_55_lstm1_cont_slice_54_split <- cont_55
I1017 11:44:24.147783 26100 net.cpp:380] cont_55_lstm1_cont_slice_54_split -> cont_55_lstm1_cont_slice_54_split_0
I1017 11:44:24.147789 26100 net.cpp:380] cont_55_lstm1_cont_slice_54_split -> cont_55_lstm1_cont_slice_54_split_1
I1017 11:44:24.147824 26100 net.cpp:122] Setting up cont_55_lstm1_cont_slice_54_split
I1017 11:44:24.147830 26100 net.cpp:129] Top shape: 1 5 (5)
I1017 11:44:24.147835 26100 net.cpp:129] Top shape: 1 5 (5)
I1017 11:44:24.147840 26100 net.cpp:137] Memory required for data: 798840
I1017 11:44:24.147845 26100 layer_factory.hpp:77] Creating layer cont_56_lstm1_cont_slice_55_split
I1017 11:44:24.147850 26100 net.cpp:84] Creating Layer cont_56_lstm1_cont_slice_55_split
I1017 11:44:24.147855 26100 net.cpp:406] cont_56_lstm1_cont_slice_55_split <- cont_56
I1017 11:44:24.147861 26100 net.cpp:380] cont_56_lstm1_cont_slice_55_split -> cont_56_lstm1_cont_slice_55_split_0
I1017 11:44:24.147868 26100 net.cpp:380] cont_56_lstm1_cont_slice_55_split -> cont_56_lstm1_cont_slice_55_split_1
I1017 11:44:24.147902 26100 net.cpp:122] Setting up cont_56_lstm1_cont_slice_55_split
I1017 11:44:24.147908 26100 net.cpp:129] Top shape: 1 5 (5)
I1017 11:44:24.147913 26100 net.cpp:129] Top shape: 1 5 (5)
I1017 11:44:24.147918 26100 net.cpp:137] Memory required for data: 798880
I1017 11:44:24.147922 26100 layer_factory.hpp:77] Creating layer cont_57_lstm1_cont_slice_56_split
I1017 11:44:24.147928 26100 net.cpp:84] Creating Layer cont_57_lstm1_cont_slice_56_split
I1017 11:44:24.147933 26100 net.cpp:406] cont_57_lstm1_cont_slice_56_split <- cont_57
I1017 11:44:24.147940 26100 net.cpp:380] cont_57_lstm1_cont_slice_56_split -> cont_57_lstm1_cont_slice_56_split_0
I1017 11:44:24.147948 26100 net.cpp:380] cont_57_lstm1_cont_slice_56_split -> cont_57_lstm1_cont_slice_56_split_1
I1017 11:44:24.147980 26100 net.cpp:122] Setting up cont_57_lstm1_cont_slice_56_split
I1017 11:44:24.147987 26100 net.cpp:129] Top shape: 1 5 (5)
I1017 11:44:24.147992 26100 net.cpp:129] Top shape: 1 5 (5)
I1017 11:44:24.147997 26100 net.cpp:137] Memory required for data: 798920
I1017 11:44:24.148001 26100 layer_factory.hpp:77] Creating layer cont_58_lstm1_cont_slice_57_split
I1017 11:44:24.148007 26100 net.cpp:84] Creating Layer cont_58_lstm1_cont_slice_57_split
I1017 11:44:24.148012 26100 net.cpp:406] cont_58_lstm1_cont_slice_57_split <- cont_58
I1017 11:44:24.148021 26100 net.cpp:380] cont_58_lstm1_cont_slice_57_split -> cont_58_lstm1_cont_slice_57_split_0
I1017 11:44:24.148036 26100 net.cpp:380] cont_58_lstm1_cont_slice_57_split -> cont_58_lstm1_cont_slice_57_split_1
I1017 11:44:24.148071 26100 net.cpp:122] Setting up cont_58_lstm1_cont_slice_57_split
I1017 11:44:24.148077 26100 net.cpp:129] Top shape: 1 5 (5)
I1017 11:44:24.148082 26100 net.cpp:129] Top shape: 1 5 (5)
I1017 11:44:24.148087 26100 net.cpp:137] Memory required for data: 798960
I1017 11:44:24.148092 26100 layer_factory.hpp:77] Creating layer cont_59_lstm1_cont_slice_58_split
I1017 11:44:24.148099 26100 net.cpp:84] Creating Layer cont_59_lstm1_cont_slice_58_split
I1017 11:44:24.148104 26100 net.cpp:406] cont_59_lstm1_cont_slice_58_split <- cont_59
I1017 11:44:24.148111 26100 net.cpp:380] cont_59_lstm1_cont_slice_58_split -> cont_59_lstm1_cont_slice_58_split_0
I1017 11:44:24.148119 26100 net.cpp:380] cont_59_lstm1_cont_slice_58_split -> cont_59_lstm1_cont_slice_58_split_1
I1017 11:44:24.148154 26100 net.cpp:122] Setting up cont_59_lstm1_cont_slice_58_split
I1017 11:44:24.148160 26100 net.cpp:129] Top shape: 1 5 (5)
I1017 11:44:24.148165 26100 net.cpp:129] Top shape: 1 5 (5)
I1017 11:44:24.148170 26100 net.cpp:137] Memory required for data: 799000
I1017 11:44:24.148175 26100 layer_factory.hpp:77] Creating layer cont_60_lstm1_cont_slice_59_split
I1017 11:44:24.148180 26100 net.cpp:84] Creating Layer cont_60_lstm1_cont_slice_59_split
I1017 11:44:24.148185 26100 net.cpp:406] cont_60_lstm1_cont_slice_59_split <- cont_60
I1017 11:44:24.148192 26100 net.cpp:380] cont_60_lstm1_cont_slice_59_split -> cont_60_lstm1_cont_slice_59_split_0
I1017 11:44:24.148200 26100 net.cpp:380] cont_60_lstm1_cont_slice_59_split -> cont_60_lstm1_cont_slice_59_split_1
I1017 11:44:24.148232 26100 net.cpp:122] Setting up cont_60_lstm1_cont_slice_59_split
I1017 11:44:24.148239 26100 net.cpp:129] Top shape: 1 5 (5)
I1017 11:44:24.148244 26100 net.cpp:129] Top shape: 1 5 (5)
I1017 11:44:24.148249 26100 net.cpp:137] Memory required for data: 799040
I1017 11:44:24.148253 26100 layer_factory.hpp:77] Creating layer cont_61_lstm1_cont_slice_60_split
I1017 11:44:24.148260 26100 net.cpp:84] Creating Layer cont_61_lstm1_cont_slice_60_split
I1017 11:44:24.148264 26100 net.cpp:406] cont_61_lstm1_cont_slice_60_split <- cont_61
I1017 11:44:24.148270 26100 net.cpp:380] cont_61_lstm1_cont_slice_60_split -> cont_61_lstm1_cont_slice_60_split_0
I1017 11:44:24.148280 26100 net.cpp:380] cont_61_lstm1_cont_slice_60_split -> cont_61_lstm1_cont_slice_60_split_1
I1017 11:44:24.148313 26100 net.cpp:122] Setting up cont_61_lstm1_cont_slice_60_split
I1017 11:44:24.148319 26100 net.cpp:129] Top shape: 1 5 (5)
I1017 11:44:24.148324 26100 net.cpp:129] Top shape: 1 5 (5)
I1017 11:44:24.148329 26100 net.cpp:137] Memory required for data: 799080
I1017 11:44:24.148339 26100 layer_factory.hpp:77] Creating layer cont_62_lstm1_cont_slice_61_split
I1017 11:44:24.148355 26100 net.cpp:84] Creating Layer cont_62_lstm1_cont_slice_61_split
I1017 11:44:24.148360 26100 net.cpp:406] cont_62_lstm1_cont_slice_61_split <- cont_62
I1017 11:44:24.148367 26100 net.cpp:380] cont_62_lstm1_cont_slice_61_split -> cont_62_lstm1_cont_slice_61_split_0
I1017 11:44:24.148375 26100 net.cpp:380] cont_62_lstm1_cont_slice_61_split -> cont_62_lstm1_cont_slice_61_split_1
I1017 11:44:24.148409 26100 net.cpp:122] Setting up cont_62_lstm1_cont_slice_61_split
I1017 11:44:24.148416 26100 net.cpp:129] Top shape: 1 5 (5)
I1017 11:44:24.148422 26100 net.cpp:129] Top shape: 1 5 (5)
I1017 11:44:24.148427 26100 net.cpp:137] Memory required for data: 799120
I1017 11:44:24.148432 26100 layer_factory.hpp:77] Creating layer cont_63_lstm1_cont_slice_62_split
I1017 11:44:24.148437 26100 net.cpp:84] Creating Layer cont_63_lstm1_cont_slice_62_split
I1017 11:44:24.148443 26100 net.cpp:406] cont_63_lstm1_cont_slice_62_split <- cont_63
I1017 11:44:24.148449 26100 net.cpp:380] cont_63_lstm1_cont_slice_62_split -> cont_63_lstm1_cont_slice_62_split_0
I1017 11:44:24.148457 26100 net.cpp:380] cont_63_lstm1_cont_slice_62_split -> cont_63_lstm1_cont_slice_62_split_1
I1017 11:44:24.148489 26100 net.cpp:122] Setting up cont_63_lstm1_cont_slice_62_split
I1017 11:44:24.148496 26100 net.cpp:129] Top shape: 1 5 (5)
I1017 11:44:24.148502 26100 net.cpp:129] Top shape: 1 5 (5)
I1017 11:44:24.148506 26100 net.cpp:137] Memory required for data: 799160
I1017 11:44:24.148511 26100 layer_factory.hpp:77] Creating layer cont_64_lstm1_cont_slice_63_split
I1017 11:44:24.148516 26100 net.cpp:84] Creating Layer cont_64_lstm1_cont_slice_63_split
I1017 11:44:24.148521 26100 net.cpp:406] cont_64_lstm1_cont_slice_63_split <- cont_64
I1017 11:44:24.148530 26100 net.cpp:380] cont_64_lstm1_cont_slice_63_split -> cont_64_lstm1_cont_slice_63_split_0
I1017 11:44:24.148537 26100 net.cpp:380] cont_64_lstm1_cont_slice_63_split -> cont_64_lstm1_cont_slice_63_split_1
I1017 11:44:24.148569 26100 net.cpp:122] Setting up cont_64_lstm1_cont_slice_63_split
I1017 11:44:24.148576 26100 net.cpp:129] Top shape: 1 5 (5)
I1017 11:44:24.148581 26100 net.cpp:129] Top shape: 1 5 (5)
I1017 11:44:24.148586 26100 net.cpp:137] Memory required for data: 799200
I1017 11:44:24.148591 26100 layer_factory.hpp:77] Creating layer cont_65_lstm1_cont_slice_64_split
I1017 11:44:24.148598 26100 net.cpp:84] Creating Layer cont_65_lstm1_cont_slice_64_split
I1017 11:44:24.148603 26100 net.cpp:406] cont_65_lstm1_cont_slice_64_split <- cont_65
I1017 11:44:24.148609 26100 net.cpp:380] cont_65_lstm1_cont_slice_64_split -> cont_65_lstm1_cont_slice_64_split_0
I1017 11:44:24.148617 26100 net.cpp:380] cont_65_lstm1_cont_slice_64_split -> cont_65_lstm1_cont_slice_64_split_1
I1017 11:44:24.148653 26100 net.cpp:122] Setting up cont_65_lstm1_cont_slice_64_split
I1017 11:44:24.148660 26100 net.cpp:129] Top shape: 1 5 (5)
I1017 11:44:24.148665 26100 net.cpp:129] Top shape: 1 5 (5)
I1017 11:44:24.148670 26100 net.cpp:137] Memory required for data: 799240
I1017 11:44:24.148675 26100 layer_factory.hpp:77] Creating layer cont_66_lstm1_cont_slice_65_split
I1017 11:44:24.148681 26100 net.cpp:84] Creating Layer cont_66_lstm1_cont_slice_65_split
I1017 11:44:24.148686 26100 net.cpp:406] cont_66_lstm1_cont_slice_65_split <- cont_66
I1017 11:44:24.148692 26100 net.cpp:380] cont_66_lstm1_cont_slice_65_split -> cont_66_lstm1_cont_slice_65_split_0
I1017 11:44:24.148700 26100 net.cpp:380] cont_66_lstm1_cont_slice_65_split -> cont_66_lstm1_cont_slice_65_split_1
I1017 11:44:24.148735 26100 net.cpp:122] Setting up cont_66_lstm1_cont_slice_65_split
I1017 11:44:24.148741 26100 net.cpp:129] Top shape: 1 5 (5)
I1017 11:44:24.148746 26100 net.cpp:129] Top shape: 1 5 (5)
I1017 11:44:24.148751 26100 net.cpp:137] Memory required for data: 799280
I1017 11:44:24.148756 26100 layer_factory.hpp:77] Creating layer cont_67_lstm1_cont_slice_66_split
I1017 11:44:24.148761 26100 net.cpp:84] Creating Layer cont_67_lstm1_cont_slice_66_split
I1017 11:44:24.148766 26100 net.cpp:406] cont_67_lstm1_cont_slice_66_split <- cont_67
I1017 11:44:24.148772 26100 net.cpp:380] cont_67_lstm1_cont_slice_66_split -> cont_67_lstm1_cont_slice_66_split_0
I1017 11:44:24.148782 26100 net.cpp:380] cont_67_lstm1_cont_slice_66_split -> cont_67_lstm1_cont_slice_66_split_1
I1017 11:44:24.148814 26100 net.cpp:122] Setting up cont_67_lstm1_cont_slice_66_split
I1017 11:44:24.148821 26100 net.cpp:129] Top shape: 1 5 (5)
I1017 11:44:24.148826 26100 net.cpp:129] Top shape: 1 5 (5)
I1017 11:44:24.148830 26100 net.cpp:137] Memory required for data: 799320
I1017 11:44:24.148835 26100 layer_factory.hpp:77] Creating layer cont_68_lstm1_cont_slice_67_split
I1017 11:44:24.148844 26100 net.cpp:84] Creating Layer cont_68_lstm1_cont_slice_67_split
I1017 11:44:24.148849 26100 net.cpp:406] cont_68_lstm1_cont_slice_67_split <- cont_68
I1017 11:44:24.148854 26100 net.cpp:380] cont_68_lstm1_cont_slice_67_split -> cont_68_lstm1_cont_slice_67_split_0
I1017 11:44:24.148861 26100 net.cpp:380] cont_68_lstm1_cont_slice_67_split -> cont_68_lstm1_cont_slice_67_split_1
I1017 11:44:24.148897 26100 net.cpp:122] Setting up cont_68_lstm1_cont_slice_67_split
I1017 11:44:24.148905 26100 net.cpp:129] Top shape: 1 5 (5)
I1017 11:44:24.148910 26100 net.cpp:129] Top shape: 1 5 (5)
I1017 11:44:24.148914 26100 net.cpp:137] Memory required for data: 799360
I1017 11:44:24.148918 26100 layer_factory.hpp:77] Creating layer cont_69_lstm1_cont_slice_68_split
I1017 11:44:24.148924 26100 net.cpp:84] Creating Layer cont_69_lstm1_cont_slice_68_split
I1017 11:44:24.148929 26100 net.cpp:406] cont_69_lstm1_cont_slice_68_split <- cont_69
I1017 11:44:24.148936 26100 net.cpp:380] cont_69_lstm1_cont_slice_68_split -> cont_69_lstm1_cont_slice_68_split_0
I1017 11:44:24.148942 26100 net.cpp:380] cont_69_lstm1_cont_slice_68_split -> cont_69_lstm1_cont_slice_68_split_1
I1017 11:44:24.148977 26100 net.cpp:122] Setting up cont_69_lstm1_cont_slice_68_split
I1017 11:44:24.148985 26100 net.cpp:129] Top shape: 1 5 (5)
I1017 11:44:24.148990 26100 net.cpp:129] Top shape: 1 5 (5)
I1017 11:44:24.148995 26100 net.cpp:137] Memory required for data: 799400
I1017 11:44:24.148999 26100 layer_factory.hpp:77] Creating layer cont_70_lstm1_cont_slice_69_split
I1017 11:44:24.149005 26100 net.cpp:84] Creating Layer cont_70_lstm1_cont_slice_69_split
I1017 11:44:24.149010 26100 net.cpp:406] cont_70_lstm1_cont_slice_69_split <- cont_70
I1017 11:44:24.149016 26100 net.cpp:380] cont_70_lstm1_cont_slice_69_split -> cont_70_lstm1_cont_slice_69_split_0
I1017 11:44:24.149024 26100 net.cpp:380] cont_70_lstm1_cont_slice_69_split -> cont_70_lstm1_cont_slice_69_split_1
I1017 11:44:24.149057 26100 net.cpp:122] Setting up cont_70_lstm1_cont_slice_69_split
I1017 11:44:24.149065 26100 net.cpp:129] Top shape: 1 5 (5)
I1017 11:44:24.149070 26100 net.cpp:129] Top shape: 1 5 (5)
I1017 11:44:24.149073 26100 net.cpp:137] Memory required for data: 799440
I1017 11:44:24.149078 26100 layer_factory.hpp:77] Creating layer cont_71_lstm1_cont_slice_70_split
I1017 11:44:24.149085 26100 net.cpp:84] Creating Layer cont_71_lstm1_cont_slice_70_split
I1017 11:44:24.149088 26100 net.cpp:406] cont_71_lstm1_cont_slice_70_split <- cont_71
I1017 11:44:24.149097 26100 net.cpp:380] cont_71_lstm1_cont_slice_70_split -> cont_71_lstm1_cont_slice_70_split_0
I1017 11:44:24.149104 26100 net.cpp:380] cont_71_lstm1_cont_slice_70_split -> cont_71_lstm1_cont_slice_70_split_1
I1017 11:44:24.149137 26100 net.cpp:122] Setting up cont_71_lstm1_cont_slice_70_split
I1017 11:44:24.149143 26100 net.cpp:129] Top shape: 1 5 (5)
I1017 11:44:24.149148 26100 net.cpp:129] Top shape: 1 5 (5)
I1017 11:44:24.149152 26100 net.cpp:137] Memory required for data: 799480
I1017 11:44:24.149158 26100 layer_factory.hpp:77] Creating layer cont_72_lstm1_cont_slice_71_split
I1017 11:44:24.149165 26100 net.cpp:84] Creating Layer cont_72_lstm1_cont_slice_71_split
I1017 11:44:24.149170 26100 net.cpp:406] cont_72_lstm1_cont_slice_71_split <- cont_72
I1017 11:44:24.149176 26100 net.cpp:380] cont_72_lstm1_cont_slice_71_split -> cont_72_lstm1_cont_slice_71_split_0
I1017 11:44:24.149183 26100 net.cpp:380] cont_72_lstm1_cont_slice_71_split -> cont_72_lstm1_cont_slice_71_split_1
I1017 11:44:24.149217 26100 net.cpp:122] Setting up cont_72_lstm1_cont_slice_71_split
I1017 11:44:24.149224 26100 net.cpp:129] Top shape: 1 5 (5)
I1017 11:44:24.149230 26100 net.cpp:129] Top shape: 1 5 (5)
I1017 11:44:24.149233 26100 net.cpp:137] Memory required for data: 799520
I1017 11:44:24.149237 26100 layer_factory.hpp:77] Creating layer cont_73_lstm1_cont_slice_72_split
I1017 11:44:24.149243 26100 net.cpp:84] Creating Layer cont_73_lstm1_cont_slice_72_split
I1017 11:44:24.149248 26100 net.cpp:406] cont_73_lstm1_cont_slice_72_split <- cont_73
I1017 11:44:24.149255 26100 net.cpp:380] cont_73_lstm1_cont_slice_72_split -> cont_73_lstm1_cont_slice_72_split_0
I1017 11:44:24.149261 26100 net.cpp:380] cont_73_lstm1_cont_slice_72_split -> cont_73_lstm1_cont_slice_72_split_1
I1017 11:44:24.149296 26100 net.cpp:122] Setting up cont_73_lstm1_cont_slice_72_split
I1017 11:44:24.149302 26100 net.cpp:129] Top shape: 1 5 (5)
I1017 11:44:24.149307 26100 net.cpp:129] Top shape: 1 5 (5)
I1017 11:44:24.149312 26100 net.cpp:137] Memory required for data: 799560
I1017 11:44:24.149317 26100 layer_factory.hpp:77] Creating layer cont_74_lstm1_cont_slice_73_split
I1017 11:44:24.149322 26100 net.cpp:84] Creating Layer cont_74_lstm1_cont_slice_73_split
I1017 11:44:24.149327 26100 net.cpp:406] cont_74_lstm1_cont_slice_73_split <- cont_74
I1017 11:44:24.149333 26100 net.cpp:380] cont_74_lstm1_cont_slice_73_split -> cont_74_lstm1_cont_slice_73_split_0
I1017 11:44:24.149343 26100 net.cpp:380] cont_74_lstm1_cont_slice_73_split -> cont_74_lstm1_cont_slice_73_split_1
I1017 11:44:24.149374 26100 net.cpp:122] Setting up cont_74_lstm1_cont_slice_73_split
I1017 11:44:24.149380 26100 net.cpp:129] Top shape: 1 5 (5)
I1017 11:44:24.149385 26100 net.cpp:129] Top shape: 1 5 (5)
I1017 11:44:24.149390 26100 net.cpp:137] Memory required for data: 799600
I1017 11:44:24.149395 26100 layer_factory.hpp:77] Creating layer cont_75_lstm1_cont_slice_74_split
I1017 11:44:24.149402 26100 net.cpp:84] Creating Layer cont_75_lstm1_cont_slice_74_split
I1017 11:44:24.149407 26100 net.cpp:406] cont_75_lstm1_cont_slice_74_split <- cont_75
I1017 11:44:24.149415 26100 net.cpp:380] cont_75_lstm1_cont_slice_74_split -> cont_75_lstm1_cont_slice_74_split_0
I1017 11:44:24.149421 26100 net.cpp:380] cont_75_lstm1_cont_slice_74_split -> cont_75_lstm1_cont_slice_74_split_1
I1017 11:44:24.149454 26100 net.cpp:122] Setting up cont_75_lstm1_cont_slice_74_split
I1017 11:44:24.149461 26100 net.cpp:129] Top shape: 1 5 (5)
I1017 11:44:24.149466 26100 net.cpp:129] Top shape: 1 5 (5)
I1017 11:44:24.149471 26100 net.cpp:137] Memory required for data: 799640
I1017 11:44:24.149475 26100 layer_factory.hpp:77] Creating layer cont_76_lstm1_cont_slice_75_split
I1017 11:44:24.149482 26100 net.cpp:84] Creating Layer cont_76_lstm1_cont_slice_75_split
I1017 11:44:24.149487 26100 net.cpp:406] cont_76_lstm1_cont_slice_75_split <- cont_76
I1017 11:44:24.149492 26100 net.cpp:380] cont_76_lstm1_cont_slice_75_split -> cont_76_lstm1_cont_slice_75_split_0
I1017 11:44:24.149499 26100 net.cpp:380] cont_76_lstm1_cont_slice_75_split -> cont_76_lstm1_cont_slice_75_split_1
I1017 11:44:24.149534 26100 net.cpp:122] Setting up cont_76_lstm1_cont_slice_75_split
I1017 11:44:24.149541 26100 net.cpp:129] Top shape: 1 5 (5)
I1017 11:44:24.149546 26100 net.cpp:129] Top shape: 1 5 (5)
I1017 11:44:24.149550 26100 net.cpp:137] Memory required for data: 799680
I1017 11:44:24.149555 26100 layer_factory.hpp:77] Creating layer cont_77_lstm1_cont_slice_76_split
I1017 11:44:24.149561 26100 net.cpp:84] Creating Layer cont_77_lstm1_cont_slice_76_split
I1017 11:44:24.149565 26100 net.cpp:406] cont_77_lstm1_cont_slice_76_split <- cont_77
I1017 11:44:24.149572 26100 net.cpp:380] cont_77_lstm1_cont_slice_76_split -> cont_77_lstm1_cont_slice_76_split_0
I1017 11:44:24.149580 26100 net.cpp:380] cont_77_lstm1_cont_slice_76_split -> cont_77_lstm1_cont_slice_76_split_1
I1017 11:44:24.149613 26100 net.cpp:122] Setting up cont_77_lstm1_cont_slice_76_split
I1017 11:44:24.149619 26100 net.cpp:129] Top shape: 1 5 (5)
I1017 11:44:24.149626 26100 net.cpp:129] Top shape: 1 5 (5)
I1017 11:44:24.149629 26100 net.cpp:137] Memory required for data: 799720
I1017 11:44:24.149633 26100 layer_factory.hpp:77] Creating layer cont_78_lstm1_cont_slice_77_split
I1017 11:44:24.149639 26100 net.cpp:84] Creating Layer cont_78_lstm1_cont_slice_77_split
I1017 11:44:24.149644 26100 net.cpp:406] cont_78_lstm1_cont_slice_77_split <- cont_78
I1017 11:44:24.149653 26100 net.cpp:380] cont_78_lstm1_cont_slice_77_split -> cont_78_lstm1_cont_slice_77_split_0
I1017 11:44:24.149660 26100 net.cpp:380] cont_78_lstm1_cont_slice_77_split -> cont_78_lstm1_cont_slice_77_split_1
I1017 11:44:24.149691 26100 net.cpp:122] Setting up cont_78_lstm1_cont_slice_77_split
I1017 11:44:24.149698 26100 net.cpp:129] Top shape: 1 5 (5)
I1017 11:44:24.149703 26100 net.cpp:129] Top shape: 1 5 (5)
I1017 11:44:24.149708 26100 net.cpp:137] Memory required for data: 799760
I1017 11:44:24.149713 26100 layer_factory.hpp:77] Creating layer cont_79_lstm1_cont_slice_78_split
I1017 11:44:24.149720 26100 net.cpp:84] Creating Layer cont_79_lstm1_cont_slice_78_split
I1017 11:44:24.149725 26100 net.cpp:406] cont_79_lstm1_cont_slice_78_split <- cont_79
I1017 11:44:24.149731 26100 net.cpp:380] cont_79_lstm1_cont_slice_78_split -> cont_79_lstm1_cont_slice_78_split_0
I1017 11:44:24.149739 26100 net.cpp:380] cont_79_lstm1_cont_slice_78_split -> cont_79_lstm1_cont_slice_78_split_1
I1017 11:44:24.149773 26100 net.cpp:122] Setting up cont_79_lstm1_cont_slice_78_split
I1017 11:44:24.149780 26100 net.cpp:129] Top shape: 1 5 (5)
I1017 11:44:24.149786 26100 net.cpp:129] Top shape: 1 5 (5)
I1017 11:44:24.149791 26100 net.cpp:137] Memory required for data: 799800
I1017 11:44:24.149794 26100 layer_factory.hpp:77] Creating layer cont_80_lstm1_cont_slice_79_split
I1017 11:44:24.149801 26100 net.cpp:84] Creating Layer cont_80_lstm1_cont_slice_79_split
I1017 11:44:24.149806 26100 net.cpp:406] cont_80_lstm1_cont_slice_79_split <- cont_80
I1017 11:44:24.149812 26100 net.cpp:380] cont_80_lstm1_cont_slice_79_split -> cont_80_lstm1_cont_slice_79_split_0
I1017 11:44:24.149821 26100 net.cpp:380] cont_80_lstm1_cont_slice_79_split -> cont_80_lstm1_cont_slice_79_split_1
I1017 11:44:24.149854 26100 net.cpp:122] Setting up cont_80_lstm1_cont_slice_79_split
I1017 11:44:24.149860 26100 net.cpp:129] Top shape: 1 5 (5)
I1017 11:44:24.149866 26100 net.cpp:129] Top shape: 1 5 (5)
I1017 11:44:24.149870 26100 net.cpp:137] Memory required for data: 799840
I1017 11:44:24.149875 26100 layer_factory.hpp:77] Creating layer cont_81_lstm1_cont_slice_80_split
I1017 11:44:24.149881 26100 net.cpp:84] Creating Layer cont_81_lstm1_cont_slice_80_split
I1017 11:44:24.149886 26100 net.cpp:406] cont_81_lstm1_cont_slice_80_split <- cont_81
I1017 11:44:24.149893 26100 net.cpp:380] cont_81_lstm1_cont_slice_80_split -> cont_81_lstm1_cont_slice_80_split_0
I1017 11:44:24.149899 26100 net.cpp:380] cont_81_lstm1_cont_slice_80_split -> cont_81_lstm1_cont_slice_80_split_1
I1017 11:44:24.149932 26100 net.cpp:122] Setting up cont_81_lstm1_cont_slice_80_split
I1017 11:44:24.149940 26100 net.cpp:129] Top shape: 1 5 (5)
I1017 11:44:24.149945 26100 net.cpp:129] Top shape: 1 5 (5)
I1017 11:44:24.149950 26100 net.cpp:137] Memory required for data: 799880
I1017 11:44:24.149953 26100 layer_factory.hpp:77] Creating layer cont_82_lstm1_cont_slice_81_split
I1017 11:44:24.149960 26100 net.cpp:84] Creating Layer cont_82_lstm1_cont_slice_81_split
I1017 11:44:24.149965 26100 net.cpp:406] cont_82_lstm1_cont_slice_81_split <- cont_82
I1017 11:44:24.149972 26100 net.cpp:380] cont_82_lstm1_cont_slice_81_split -> cont_82_lstm1_cont_slice_81_split_0
I1017 11:44:24.149981 26100 net.cpp:380] cont_82_lstm1_cont_slice_81_split -> cont_82_lstm1_cont_slice_81_split_1
I1017 11:44:24.150013 26100 net.cpp:122] Setting up cont_82_lstm1_cont_slice_81_split
I1017 11:44:24.150020 26100 net.cpp:129] Top shape: 1 5 (5)
I1017 11:44:24.150025 26100 net.cpp:129] Top shape: 1 5 (5)
I1017 11:44:24.150030 26100 net.cpp:137] Memory required for data: 799920
I1017 11:44:24.150034 26100 layer_factory.hpp:77] Creating layer cont_83_lstm1_cont_slice_82_split
I1017 11:44:24.150040 26100 net.cpp:84] Creating Layer cont_83_lstm1_cont_slice_82_split
I1017 11:44:24.150045 26100 net.cpp:406] cont_83_lstm1_cont_slice_82_split <- cont_83
I1017 11:44:24.150051 26100 net.cpp:380] cont_83_lstm1_cont_slice_82_split -> cont_83_lstm1_cont_slice_82_split_0
I1017 11:44:24.150059 26100 net.cpp:380] cont_83_lstm1_cont_slice_82_split -> cont_83_lstm1_cont_slice_82_split_1
I1017 11:44:24.150092 26100 net.cpp:122] Setting up cont_83_lstm1_cont_slice_82_split
I1017 11:44:24.150099 26100 net.cpp:129] Top shape: 1 5 (5)
I1017 11:44:24.150104 26100 net.cpp:129] Top shape: 1 5 (5)
I1017 11:44:24.150108 26100 net.cpp:137] Memory required for data: 799960
I1017 11:44:24.150113 26100 layer_factory.hpp:77] Creating layer cont_84_lstm1_cont_slice_83_split
I1017 11:44:24.150120 26100 net.cpp:84] Creating Layer cont_84_lstm1_cont_slice_83_split
I1017 11:44:24.150125 26100 net.cpp:406] cont_84_lstm1_cont_slice_83_split <- cont_84
I1017 11:44:24.150130 26100 net.cpp:380] cont_84_lstm1_cont_slice_83_split -> cont_84_lstm1_cont_slice_83_split_0
I1017 11:44:24.150137 26100 net.cpp:380] cont_84_lstm1_cont_slice_83_split -> cont_84_lstm1_cont_slice_83_split_1
I1017 11:44:24.150171 26100 net.cpp:122] Setting up cont_84_lstm1_cont_slice_83_split
I1017 11:44:24.150178 26100 net.cpp:129] Top shape: 1 5 (5)
I1017 11:44:24.150183 26100 net.cpp:129] Top shape: 1 5 (5)
I1017 11:44:24.150188 26100 net.cpp:137] Memory required for data: 800000
I1017 11:44:24.150192 26100 layer_factory.hpp:77] Creating layer cont_85_lstm1_cont_slice_84_split
I1017 11:44:24.150198 26100 net.cpp:84] Creating Layer cont_85_lstm1_cont_slice_84_split
I1017 11:44:24.150203 26100 net.cpp:406] cont_85_lstm1_cont_slice_84_split <- cont_85
I1017 11:44:24.150213 26100 net.cpp:380] cont_85_lstm1_cont_slice_84_split -> cont_85_lstm1_cont_slice_84_split_0
I1017 11:44:24.150219 26100 net.cpp:380] cont_85_lstm1_cont_slice_84_split -> cont_85_lstm1_cont_slice_84_split_1
I1017 11:44:24.150250 26100 net.cpp:122] Setting up cont_85_lstm1_cont_slice_84_split
I1017 11:44:24.150257 26100 net.cpp:129] Top shape: 1 5 (5)
I1017 11:44:24.150262 26100 net.cpp:129] Top shape: 1 5 (5)
I1017 11:44:24.150266 26100 net.cpp:137] Memory required for data: 800040
I1017 11:44:24.150271 26100 layer_factory.hpp:77] Creating layer cont_86_lstm1_cont_slice_85_split
I1017 11:44:24.150281 26100 net.cpp:84] Creating Layer cont_86_lstm1_cont_slice_85_split
I1017 11:44:24.150286 26100 net.cpp:406] cont_86_lstm1_cont_slice_85_split <- cont_86
I1017 11:44:24.150292 26100 net.cpp:380] cont_86_lstm1_cont_slice_85_split -> cont_86_lstm1_cont_slice_85_split_0
I1017 11:44:24.150300 26100 net.cpp:380] cont_86_lstm1_cont_slice_85_split -> cont_86_lstm1_cont_slice_85_split_1
I1017 11:44:24.150333 26100 net.cpp:122] Setting up cont_86_lstm1_cont_slice_85_split
I1017 11:44:24.150341 26100 net.cpp:129] Top shape: 1 5 (5)
I1017 11:44:24.150346 26100 net.cpp:129] Top shape: 1 5 (5)
I1017 11:44:24.150349 26100 net.cpp:137] Memory required for data: 800080
I1017 11:44:24.150354 26100 layer_factory.hpp:77] Creating layer cont_87_lstm1_cont_slice_86_split
I1017 11:44:24.150359 26100 net.cpp:84] Creating Layer cont_87_lstm1_cont_slice_86_split
I1017 11:44:24.150364 26100 net.cpp:406] cont_87_lstm1_cont_slice_86_split <- cont_87
I1017 11:44:24.150370 26100 net.cpp:380] cont_87_lstm1_cont_slice_86_split -> cont_87_lstm1_cont_slice_86_split_0
I1017 11:44:24.150377 26100 net.cpp:380] cont_87_lstm1_cont_slice_86_split -> cont_87_lstm1_cont_slice_86_split_1
I1017 11:44:24.150410 26100 net.cpp:122] Setting up cont_87_lstm1_cont_slice_86_split
I1017 11:44:24.150418 26100 net.cpp:129] Top shape: 1 5 (5)
I1017 11:44:24.150424 26100 net.cpp:129] Top shape: 1 5 (5)
I1017 11:44:24.150427 26100 net.cpp:137] Memory required for data: 800120
I1017 11:44:24.150431 26100 layer_factory.hpp:77] Creating layer cont_88_lstm1_cont_slice_87_split
I1017 11:44:24.150437 26100 net.cpp:84] Creating Layer cont_88_lstm1_cont_slice_87_split
I1017 11:44:24.150442 26100 net.cpp:406] cont_88_lstm1_cont_slice_87_split <- cont_88
I1017 11:44:24.150449 26100 net.cpp:380] cont_88_lstm1_cont_slice_87_split -> cont_88_lstm1_cont_slice_87_split_0
I1017 11:44:24.150456 26100 net.cpp:380] cont_88_lstm1_cont_slice_87_split -> cont_88_lstm1_cont_slice_87_split_1
I1017 11:44:24.150490 26100 net.cpp:122] Setting up cont_88_lstm1_cont_slice_87_split
I1017 11:44:24.150496 26100 net.cpp:129] Top shape: 1 5 (5)
I1017 11:44:24.150501 26100 net.cpp:129] Top shape: 1 5 (5)
I1017 11:44:24.150506 26100 net.cpp:137] Memory required for data: 800160
I1017 11:44:24.150511 26100 layer_factory.hpp:77] Creating layer cont_89_lstm1_cont_slice_88_split
I1017 11:44:24.150516 26100 net.cpp:84] Creating Layer cont_89_lstm1_cont_slice_88_split
I1017 11:44:24.150521 26100 net.cpp:406] cont_89_lstm1_cont_slice_88_split <- cont_89
I1017 11:44:24.150529 26100 net.cpp:380] cont_89_lstm1_cont_slice_88_split -> cont_89_lstm1_cont_slice_88_split_0
I1017 11:44:24.150537 26100 net.cpp:380] cont_89_lstm1_cont_slice_88_split -> cont_89_lstm1_cont_slice_88_split_1
I1017 11:44:24.150568 26100 net.cpp:122] Setting up cont_89_lstm1_cont_slice_88_split
I1017 11:44:24.150574 26100 net.cpp:129] Top shape: 1 5 (5)
I1017 11:44:24.150579 26100 net.cpp:129] Top shape: 1 5 (5)
I1017 11:44:24.150584 26100 net.cpp:137] Memory required for data: 800200
I1017 11:44:24.150588 26100 layer_factory.hpp:77] Creating layer cont_90_lstm1_cont_slice_89_split
I1017 11:44:24.150596 26100 net.cpp:84] Creating Layer cont_90_lstm1_cont_slice_89_split
I1017 11:44:24.150601 26100 net.cpp:406] cont_90_lstm1_cont_slice_89_split <- cont_90
I1017 11:44:24.150607 26100 net.cpp:380] cont_90_lstm1_cont_slice_89_split -> cont_90_lstm1_cont_slice_89_split_0
I1017 11:44:24.150615 26100 net.cpp:380] cont_90_lstm1_cont_slice_89_split -> cont_90_lstm1_cont_slice_89_split_1
I1017 11:44:24.150650 26100 net.cpp:122] Setting up cont_90_lstm1_cont_slice_89_split
I1017 11:44:24.150656 26100 net.cpp:129] Top shape: 1 5 (5)
I1017 11:44:24.150661 26100 net.cpp:129] Top shape: 1 5 (5)
I1017 11:44:24.150666 26100 net.cpp:137] Memory required for data: 800240
I1017 11:44:24.150671 26100 layer_factory.hpp:77] Creating layer cont_91_lstm1_cont_slice_90_split
I1017 11:44:24.150676 26100 net.cpp:84] Creating Layer cont_91_lstm1_cont_slice_90_split
I1017 11:44:24.150681 26100 net.cpp:406] cont_91_lstm1_cont_slice_90_split <- cont_91
I1017 11:44:24.150687 26100 net.cpp:380] cont_91_lstm1_cont_slice_90_split -> cont_91_lstm1_cont_slice_90_split_0
I1017 11:44:24.150696 26100 net.cpp:380] cont_91_lstm1_cont_slice_90_split -> cont_91_lstm1_cont_slice_90_split_1
I1017 11:44:24.150730 26100 net.cpp:122] Setting up cont_91_lstm1_cont_slice_90_split
I1017 11:44:24.150738 26100 net.cpp:129] Top shape: 1 5 (5)
I1017 11:44:24.150743 26100 net.cpp:129] Top shape: 1 5 (5)
I1017 11:44:24.150748 26100 net.cpp:137] Memory required for data: 800280
I1017 11:44:24.150753 26100 layer_factory.hpp:77] Creating layer cont_92_lstm1_cont_slice_91_split
I1017 11:44:24.150758 26100 net.cpp:84] Creating Layer cont_92_lstm1_cont_slice_91_split
I1017 11:44:24.150763 26100 net.cpp:406] cont_92_lstm1_cont_slice_91_split <- cont_92
I1017 11:44:24.150770 26100 net.cpp:380] cont_92_lstm1_cont_slice_91_split -> cont_92_lstm1_cont_slice_91_split_0
I1017 11:44:24.150779 26100 net.cpp:380] cont_92_lstm1_cont_slice_91_split -> cont_92_lstm1_cont_slice_91_split_1
I1017 11:44:24.150810 26100 net.cpp:122] Setting up cont_92_lstm1_cont_slice_91_split
I1017 11:44:24.150816 26100 net.cpp:129] Top shape: 1 5 (5)
I1017 11:44:24.150822 26100 net.cpp:129] Top shape: 1 5 (5)
I1017 11:44:24.150826 26100 net.cpp:137] Memory required for data: 800320
I1017 11:44:24.150830 26100 layer_factory.hpp:77] Creating layer cont_93_lstm1_cont_slice_92_split
I1017 11:44:24.150838 26100 net.cpp:84] Creating Layer cont_93_lstm1_cont_slice_92_split
I1017 11:44:24.150843 26100 net.cpp:406] cont_93_lstm1_cont_slice_92_split <- cont_93
I1017 11:44:24.150851 26100 net.cpp:380] cont_93_lstm1_cont_slice_92_split -> cont_93_lstm1_cont_slice_92_split_0
I1017 11:44:24.150857 26100 net.cpp:380] cont_93_lstm1_cont_slice_92_split -> cont_93_lstm1_cont_slice_92_split_1
I1017 11:44:24.150890 26100 net.cpp:122] Setting up cont_93_lstm1_cont_slice_92_split
I1017 11:44:24.150897 26100 net.cpp:129] Top shape: 1 5 (5)
I1017 11:44:24.150903 26100 net.cpp:129] Top shape: 1 5 (5)
I1017 11:44:24.150907 26100 net.cpp:137] Memory required for data: 800360
I1017 11:44:24.150912 26100 layer_factory.hpp:77] Creating layer cont_94_lstm1_cont_slice_93_split
I1017 11:44:24.150918 26100 net.cpp:84] Creating Layer cont_94_lstm1_cont_slice_93_split
I1017 11:44:24.150923 26100 net.cpp:406] cont_94_lstm1_cont_slice_93_split <- cont_94
I1017 11:44:24.150928 26100 net.cpp:380] cont_94_lstm1_cont_slice_93_split -> cont_94_lstm1_cont_slice_93_split_0
I1017 11:44:24.150935 26100 net.cpp:380] cont_94_lstm1_cont_slice_93_split -> cont_94_lstm1_cont_slice_93_split_1
I1017 11:44:24.150969 26100 net.cpp:122] Setting up cont_94_lstm1_cont_slice_93_split
I1017 11:44:24.150976 26100 net.cpp:129] Top shape: 1 5 (5)
I1017 11:44:24.150981 26100 net.cpp:129] Top shape: 1 5 (5)
I1017 11:44:24.150986 26100 net.cpp:137] Memory required for data: 800400
I1017 11:44:24.150990 26100 layer_factory.hpp:77] Creating layer cont_95_lstm1_cont_slice_94_split
I1017 11:44:24.150996 26100 net.cpp:84] Creating Layer cont_95_lstm1_cont_slice_94_split
I1017 11:44:24.151001 26100 net.cpp:406] cont_95_lstm1_cont_slice_94_split <- cont_95
I1017 11:44:24.151007 26100 net.cpp:380] cont_95_lstm1_cont_slice_94_split -> cont_95_lstm1_cont_slice_94_split_0
I1017 11:44:24.151015 26100 net.cpp:380] cont_95_lstm1_cont_slice_94_split -> cont_95_lstm1_cont_slice_94_split_1
I1017 11:44:24.151049 26100 net.cpp:122] Setting up cont_95_lstm1_cont_slice_94_split
I1017 11:44:24.151057 26100 net.cpp:129] Top shape: 1 5 (5)
I1017 11:44:24.151062 26100 net.cpp:129] Top shape: 1 5 (5)
I1017 11:44:24.151065 26100 net.cpp:137] Memory required for data: 800440
I1017 11:44:24.151070 26100 layer_factory.hpp:77] Creating layer cont_96_lstm1_cont_slice_95_split
I1017 11:44:24.151077 26100 net.cpp:84] Creating Layer cont_96_lstm1_cont_slice_95_split
I1017 11:44:24.151080 26100 net.cpp:406] cont_96_lstm1_cont_slice_95_split <- cont_96
I1017 11:44:24.151089 26100 net.cpp:380] cont_96_lstm1_cont_slice_95_split -> cont_96_lstm1_cont_slice_95_split_0
I1017 11:44:24.151096 26100 net.cpp:380] cont_96_lstm1_cont_slice_95_split -> cont_96_lstm1_cont_slice_95_split_1
I1017 11:44:24.151129 26100 net.cpp:122] Setting up cont_96_lstm1_cont_slice_95_split
I1017 11:44:24.151135 26100 net.cpp:129] Top shape: 1 5 (5)
I1017 11:44:24.151140 26100 net.cpp:129] Top shape: 1 5 (5)
I1017 11:44:24.151144 26100 net.cpp:137] Memory required for data: 800480
I1017 11:44:24.151149 26100 layer_factory.hpp:77] Creating layer cont_97_lstm1_cont_slice_96_split
I1017 11:44:24.151157 26100 net.cpp:84] Creating Layer cont_97_lstm1_cont_slice_96_split
I1017 11:44:24.151162 26100 net.cpp:406] cont_97_lstm1_cont_slice_96_split <- cont_97
I1017 11:44:24.151168 26100 net.cpp:380] cont_97_lstm1_cont_slice_96_split -> cont_97_lstm1_cont_slice_96_split_0
I1017 11:44:24.151176 26100 net.cpp:380] cont_97_lstm1_cont_slice_96_split -> cont_97_lstm1_cont_slice_96_split_1
I1017 11:44:24.151211 26100 net.cpp:122] Setting up cont_97_lstm1_cont_slice_96_split
I1017 11:44:24.151217 26100 net.cpp:129] Top shape: 1 5 (5)
I1017 11:44:24.151222 26100 net.cpp:129] Top shape: 1 5 (5)
I1017 11:44:24.151227 26100 net.cpp:137] Memory required for data: 800520
I1017 11:44:24.151232 26100 layer_factory.hpp:77] Creating layer cont_98_lstm1_cont_slice_97_split
I1017 11:44:24.151237 26100 net.cpp:84] Creating Layer cont_98_lstm1_cont_slice_97_split
I1017 11:44:24.151242 26100 net.cpp:406] cont_98_lstm1_cont_slice_97_split <- cont_98
I1017 11:44:24.151248 26100 net.cpp:380] cont_98_lstm1_cont_slice_97_split -> cont_98_lstm1_cont_slice_97_split_0
I1017 11:44:24.151257 26100 net.cpp:380] cont_98_lstm1_cont_slice_97_split -> cont_98_lstm1_cont_slice_97_split_1
I1017 11:44:24.151289 26100 net.cpp:122] Setting up cont_98_lstm1_cont_slice_97_split
I1017 11:44:24.151296 26100 net.cpp:129] Top shape: 1 5 (5)
I1017 11:44:24.151302 26100 net.cpp:129] Top shape: 1 5 (5)
I1017 11:44:24.151306 26100 net.cpp:137] Memory required for data: 800560
I1017 11:44:24.151310 26100 layer_factory.hpp:77] Creating layer cont_99_lstm1_cont_slice_98_split
I1017 11:44:24.151316 26100 net.cpp:84] Creating Layer cont_99_lstm1_cont_slice_98_split
I1017 11:44:24.151321 26100 net.cpp:406] cont_99_lstm1_cont_slice_98_split <- cont_99
I1017 11:44:24.151327 26100 net.cpp:380] cont_99_lstm1_cont_slice_98_split -> cont_99_lstm1_cont_slice_98_split_0
I1017 11:44:24.151337 26100 net.cpp:380] cont_99_lstm1_cont_slice_98_split -> cont_99_lstm1_cont_slice_98_split_1
I1017 11:44:24.151368 26100 net.cpp:122] Setting up cont_99_lstm1_cont_slice_98_split
I1017 11:44:24.151376 26100 net.cpp:129] Top shape: 1 5 (5)
I1017 11:44:24.151381 26100 net.cpp:129] Top shape: 1 5 (5)
I1017 11:44:24.151386 26100 net.cpp:137] Memory required for data: 800600
I1017 11:44:24.151389 26100 layer_factory.hpp:77] Creating layer cont_100_lstm1_cont_slice_99_split
I1017 11:44:24.151397 26100 net.cpp:84] Creating Layer cont_100_lstm1_cont_slice_99_split
I1017 11:44:24.151403 26100 net.cpp:406] cont_100_lstm1_cont_slice_99_split <- cont_100
I1017 11:44:24.151409 26100 net.cpp:380] cont_100_lstm1_cont_slice_99_split -> cont_100_lstm1_cont_slice_99_split_0
I1017 11:44:24.151417 26100 net.cpp:380] cont_100_lstm1_cont_slice_99_split -> cont_100_lstm1_cont_slice_99_split_1
I1017 11:44:24.151451 26100 net.cpp:122] Setting up cont_100_lstm1_cont_slice_99_split
I1017 11:44:24.151458 26100 net.cpp:129] Top shape: 1 5 (5)
I1017 11:44:24.151464 26100 net.cpp:129] Top shape: 1 5 (5)
I1017 11:44:24.151468 26100 net.cpp:137] Memory required for data: 800640
I1017 11:44:24.151473 26100 layer_factory.hpp:77] Creating layer cont_101_lstm1_cont_slice_100_split
I1017 11:44:24.151479 26100 net.cpp:84] Creating Layer cont_101_lstm1_cont_slice_100_split
I1017 11:44:24.151484 26100 net.cpp:406] cont_101_lstm1_cont_slice_100_split <- cont_101
I1017 11:44:24.151489 26100 net.cpp:380] cont_101_lstm1_cont_slice_100_split -> cont_101_lstm1_cont_slice_100_split_0
I1017 11:44:24.151496 26100 net.cpp:380] cont_101_lstm1_cont_slice_100_split -> cont_101_lstm1_cont_slice_100_split_1
I1017 11:44:24.151531 26100 net.cpp:122] Setting up cont_101_lstm1_cont_slice_100_split
I1017 11:44:24.151538 26100 net.cpp:129] Top shape: 1 5 (5)
I1017 11:44:24.151543 26100 net.cpp:129] Top shape: 1 5 (5)
I1017 11:44:24.151547 26100 net.cpp:137] Memory required for data: 800680
I1017 11:44:24.151552 26100 layer_factory.hpp:77] Creating layer cont_102_lstm1_cont_slice_101_split
I1017 11:44:24.151558 26100 net.cpp:84] Creating Layer cont_102_lstm1_cont_slice_101_split
I1017 11:44:24.151562 26100 net.cpp:406] cont_102_lstm1_cont_slice_101_split <- cont_102
I1017 11:44:24.151569 26100 net.cpp:380] cont_102_lstm1_cont_slice_101_split -> cont_102_lstm1_cont_slice_101_split_0
I1017 11:44:24.151576 26100 net.cpp:380] cont_102_lstm1_cont_slice_101_split -> cont_102_lstm1_cont_slice_101_split_1
I1017 11:44:24.151610 26100 net.cpp:122] Setting up cont_102_lstm1_cont_slice_101_split
I1017 11:44:24.151618 26100 net.cpp:129] Top shape: 1 5 (5)
I1017 11:44:24.151623 26100 net.cpp:129] Top shape: 1 5 (5)
I1017 11:44:24.151626 26100 net.cpp:137] Memory required for data: 800720
I1017 11:44:24.151631 26100 layer_factory.hpp:77] Creating layer cont_103_lstm1_cont_slice_102_split
I1017 11:44:24.151638 26100 net.cpp:84] Creating Layer cont_103_lstm1_cont_slice_102_split
I1017 11:44:24.151643 26100 net.cpp:406] cont_103_lstm1_cont_slice_102_split <- cont_103
I1017 11:44:24.151650 26100 net.cpp:380] cont_103_lstm1_cont_slice_102_split -> cont_103_lstm1_cont_slice_102_split_0
I1017 11:44:24.151659 26100 net.cpp:380] cont_103_lstm1_cont_slice_102_split -> cont_103_lstm1_cont_slice_102_split_1
I1017 11:44:24.151690 26100 net.cpp:122] Setting up cont_103_lstm1_cont_slice_102_split
I1017 11:44:24.151697 26100 net.cpp:129] Top shape: 1 5 (5)
I1017 11:44:24.151702 26100 net.cpp:129] Top shape: 1 5 (5)
I1017 11:44:24.151706 26100 net.cpp:137] Memory required for data: 800760
I1017 11:44:24.151711 26100 layer_factory.hpp:77] Creating layer cont_104_lstm1_cont_slice_103_split
I1017 11:44:24.151720 26100 net.cpp:84] Creating Layer cont_104_lstm1_cont_slice_103_split
I1017 11:44:24.151723 26100 net.cpp:406] cont_104_lstm1_cont_slice_103_split <- cont_104
I1017 11:44:24.151731 26100 net.cpp:380] cont_104_lstm1_cont_slice_103_split -> cont_104_lstm1_cont_slice_103_split_0
I1017 11:44:24.151737 26100 net.cpp:380] cont_104_lstm1_cont_slice_103_split -> cont_104_lstm1_cont_slice_103_split_1
I1017 11:44:24.151773 26100 net.cpp:122] Setting up cont_104_lstm1_cont_slice_103_split
I1017 11:44:24.151779 26100 net.cpp:129] Top shape: 1 5 (5)
I1017 11:44:24.151785 26100 net.cpp:129] Top shape: 1 5 (5)
I1017 11:44:24.151789 26100 net.cpp:137] Memory required for data: 800800
I1017 11:44:24.151794 26100 layer_factory.hpp:77] Creating layer cont_105_lstm1_cont_slice_104_split
I1017 11:44:24.151799 26100 net.cpp:84] Creating Layer cont_105_lstm1_cont_slice_104_split
I1017 11:44:24.151804 26100 net.cpp:406] cont_105_lstm1_cont_slice_104_split <- cont_105
I1017 11:44:24.151810 26100 net.cpp:380] cont_105_lstm1_cont_slice_104_split -> cont_105_lstm1_cont_slice_104_split_0
I1017 11:44:24.151818 26100 net.cpp:380] cont_105_lstm1_cont_slice_104_split -> cont_105_lstm1_cont_slice_104_split_1
I1017 11:44:24.151851 26100 net.cpp:122] Setting up cont_105_lstm1_cont_slice_104_split
I1017 11:44:24.151859 26100 net.cpp:129] Top shape: 1 5 (5)
I1017 11:44:24.157461 26100 net.cpp:129] Top shape: 1 5 (5)
I1017 11:44:24.157472 26100 net.cpp:137] Memory required for data: 800840
I1017 11:44:24.157479 26100 layer_factory.hpp:77] Creating layer cont_106_lstm1_cont_slice_105_split
I1017 11:44:24.157486 26100 net.cpp:84] Creating Layer cont_106_lstm1_cont_slice_105_split
I1017 11:44:24.157493 26100 net.cpp:406] cont_106_lstm1_cont_slice_105_split <- cont_106
I1017 11:44:24.157502 26100 net.cpp:380] cont_106_lstm1_cont_slice_105_split -> cont_106_lstm1_cont_slice_105_split_0
I1017 11:44:24.157517 26100 net.cpp:380] cont_106_lstm1_cont_slice_105_split -> cont_106_lstm1_cont_slice_105_split_1
I1017 11:44:24.157573 26100 net.cpp:122] Setting up cont_106_lstm1_cont_slice_105_split
I1017 11:44:24.157582 26100 net.cpp:129] Top shape: 1 5 (5)
I1017 11:44:24.157588 26100 net.cpp:129] Top shape: 1 5 (5)
I1017 11:44:24.157593 26100 net.cpp:137] Memory required for data: 800880
I1017 11:44:24.157598 26100 layer_factory.hpp:77] Creating layer cont_107_lstm1_cont_slice_106_split
I1017 11:44:24.157606 26100 net.cpp:84] Creating Layer cont_107_lstm1_cont_slice_106_split
I1017 11:44:24.157611 26100 net.cpp:406] cont_107_lstm1_cont_slice_106_split <- cont_107
I1017 11:44:24.157618 26100 net.cpp:380] cont_107_lstm1_cont_slice_106_split -> cont_107_lstm1_cont_slice_106_split_0
I1017 11:44:24.157626 26100 net.cpp:380] cont_107_lstm1_cont_slice_106_split -> cont_107_lstm1_cont_slice_106_split_1
I1017 11:44:24.157665 26100 net.cpp:122] Setting up cont_107_lstm1_cont_slice_106_split
I1017 11:44:24.157671 26100 net.cpp:129] Top shape: 1 5 (5)
I1017 11:44:24.157677 26100 net.cpp:129] Top shape: 1 5 (5)
I1017 11:44:24.157681 26100 net.cpp:137] Memory required for data: 800920
I1017 11:44:24.157686 26100 layer_factory.hpp:77] Creating layer cont_108_lstm1_cont_slice_107_split
I1017 11:44:24.157692 26100 net.cpp:84] Creating Layer cont_108_lstm1_cont_slice_107_split
I1017 11:44:24.157697 26100 net.cpp:406] cont_108_lstm1_cont_slice_107_split <- cont_108
I1017 11:44:24.157704 26100 net.cpp:380] cont_108_lstm1_cont_slice_107_split -> cont_108_lstm1_cont_slice_107_split_0
I1017 11:44:24.157711 26100 net.cpp:380] cont_108_lstm1_cont_slice_107_split -> cont_108_lstm1_cont_slice_107_split_1
I1017 11:44:24.157747 26100 net.cpp:122] Setting up cont_108_lstm1_cont_slice_107_split
I1017 11:44:24.157754 26100 net.cpp:129] Top shape: 1 5 (5)
I1017 11:44:24.157759 26100 net.cpp:129] Top shape: 1 5 (5)
I1017 11:44:24.157763 26100 net.cpp:137] Memory required for data: 800960
I1017 11:44:24.157768 26100 layer_factory.hpp:77] Creating layer cont_109_lstm1_cont_slice_108_split
I1017 11:44:24.157774 26100 net.cpp:84] Creating Layer cont_109_lstm1_cont_slice_108_split
I1017 11:44:24.157779 26100 net.cpp:406] cont_109_lstm1_cont_slice_108_split <- cont_109
I1017 11:44:24.157786 26100 net.cpp:380] cont_109_lstm1_cont_slice_108_split -> cont_109_lstm1_cont_slice_108_split_0
I1017 11:44:24.157793 26100 net.cpp:380] cont_109_lstm1_cont_slice_108_split -> cont_109_lstm1_cont_slice_108_split_1
I1017 11:44:24.157829 26100 net.cpp:122] Setting up cont_109_lstm1_cont_slice_108_split
I1017 11:44:24.157835 26100 net.cpp:129] Top shape: 1 5 (5)
I1017 11:44:24.157840 26100 net.cpp:129] Top shape: 1 5 (5)
I1017 11:44:24.157845 26100 net.cpp:137] Memory required for data: 801000
I1017 11:44:24.157850 26100 layer_factory.hpp:77] Creating layer cont_110_lstm1_cont_slice_109_split
I1017 11:44:24.157856 26100 net.cpp:84] Creating Layer cont_110_lstm1_cont_slice_109_split
I1017 11:44:24.157861 26100 net.cpp:406] cont_110_lstm1_cont_slice_109_split <- cont_110
I1017 11:44:24.157871 26100 net.cpp:380] cont_110_lstm1_cont_slice_109_split -> cont_110_lstm1_cont_slice_109_split_0
I1017 11:44:24.157879 26100 net.cpp:380] cont_110_lstm1_cont_slice_109_split -> cont_110_lstm1_cont_slice_109_split_1
I1017 11:44:24.157912 26100 net.cpp:122] Setting up cont_110_lstm1_cont_slice_109_split
I1017 11:44:24.157919 26100 net.cpp:129] Top shape: 1 5 (5)
I1017 11:44:24.157924 26100 net.cpp:129] Top shape: 1 5 (5)
I1017 11:44:24.157929 26100 net.cpp:137] Memory required for data: 801040
I1017 11:44:24.157934 26100 layer_factory.hpp:77] Creating layer cont_111_lstm1_cont_slice_110_split
I1017 11:44:24.157943 26100 net.cpp:84] Creating Layer cont_111_lstm1_cont_slice_110_split
I1017 11:44:24.157948 26100 net.cpp:406] cont_111_lstm1_cont_slice_110_split <- cont_111
I1017 11:44:24.157953 26100 net.cpp:380] cont_111_lstm1_cont_slice_110_split -> cont_111_lstm1_cont_slice_110_split_0
I1017 11:44:24.157960 26100 net.cpp:380] cont_111_lstm1_cont_slice_110_split -> cont_111_lstm1_cont_slice_110_split_1
I1017 11:44:24.157995 26100 net.cpp:122] Setting up cont_111_lstm1_cont_slice_110_split
I1017 11:44:24.158002 26100 net.cpp:129] Top shape: 1 5 (5)
I1017 11:44:24.158007 26100 net.cpp:129] Top shape: 1 5 (5)
I1017 11:44:24.158011 26100 net.cpp:137] Memory required for data: 801080
I1017 11:44:24.158016 26100 layer_factory.hpp:77] Creating layer cont_112_lstm1_cont_slice_111_split
I1017 11:44:24.158022 26100 net.cpp:84] Creating Layer cont_112_lstm1_cont_slice_111_split
I1017 11:44:24.158026 26100 net.cpp:406] cont_112_lstm1_cont_slice_111_split <- cont_112
I1017 11:44:24.158033 26100 net.cpp:380] cont_112_lstm1_cont_slice_111_split -> cont_112_lstm1_cont_slice_111_split_0
I1017 11:44:24.158041 26100 net.cpp:380] cont_112_lstm1_cont_slice_111_split -> cont_112_lstm1_cont_slice_111_split_1
I1017 11:44:24.158076 26100 net.cpp:122] Setting up cont_112_lstm1_cont_slice_111_split
I1017 11:44:24.158082 26100 net.cpp:129] Top shape: 1 5 (5)
I1017 11:44:24.158088 26100 net.cpp:129] Top shape: 1 5 (5)
I1017 11:44:24.158092 26100 net.cpp:137] Memory required for data: 801120
I1017 11:44:24.158097 26100 layer_factory.hpp:77] Creating layer cont_113_lstm1_cont_slice_112_split
I1017 11:44:24.158103 26100 net.cpp:84] Creating Layer cont_113_lstm1_cont_slice_112_split
I1017 11:44:24.158108 26100 net.cpp:406] cont_113_lstm1_cont_slice_112_split <- cont_113
I1017 11:44:24.158114 26100 net.cpp:380] cont_113_lstm1_cont_slice_112_split -> cont_113_lstm1_cont_slice_112_split_0
I1017 11:44:24.158123 26100 net.cpp:380] cont_113_lstm1_cont_slice_112_split -> cont_113_lstm1_cont_slice_112_split_1
I1017 11:44:24.158155 26100 net.cpp:122] Setting up cont_113_lstm1_cont_slice_112_split
I1017 11:44:24.158162 26100 net.cpp:129] Top shape: 1 5 (5)
I1017 11:44:24.158167 26100 net.cpp:129] Top shape: 1 5 (5)
I1017 11:44:24.158172 26100 net.cpp:137] Memory required for data: 801160
I1017 11:44:24.158176 26100 layer_factory.hpp:77] Creating layer cont_114_lstm1_cont_slice_113_split
I1017 11:44:24.158182 26100 net.cpp:84] Creating Layer cont_114_lstm1_cont_slice_113_split
I1017 11:44:24.158187 26100 net.cpp:406] cont_114_lstm1_cont_slice_113_split <- cont_114
I1017 11:44:24.158196 26100 net.cpp:380] cont_114_lstm1_cont_slice_113_split -> cont_114_lstm1_cont_slice_113_split_0
I1017 11:44:24.158203 26100 net.cpp:380] cont_114_lstm1_cont_slice_113_split -> cont_114_lstm1_cont_slice_113_split_1
I1017 11:44:24.158236 26100 net.cpp:122] Setting up cont_114_lstm1_cont_slice_113_split
I1017 11:44:24.158243 26100 net.cpp:129] Top shape: 1 5 (5)
I1017 11:44:24.158248 26100 net.cpp:129] Top shape: 1 5 (5)
…
I1017 11:44:31.894322 26100 net.cpp:406] lstm1_gate_input_183 <- W_xc_x_183
I1017 11:44:31.894335 26100 net.cpp:380] lstm1_gate_input_183 -> gate_input_183
I1017 11:44:31.894378 26100 net.cpp:122] Setting up lstm1_gate_input_183
I1017 11:44:31.894387 26100 net.cpp:129] Top shape: 1 150 2048 (307200)
I1017 11:44:31.894392 26100 net.cpp:137] Memory required for data: 1235424000
I1017 11:44:31.894397 26100 layer_factory.hpp:77] Creating layer lstm1_unit_183
I1017 11:44:31.894404 26100 net.cpp:84] Creating Layer lstm1_unit_183
I1017 11:44:31.894412 26100 net.cpp:406] lstm1_unit_183 <- c_182
I1017 11:44:31.894418 26100 net.cpp:406] lstm1_unit_183 <- gate_input_183
I1017 11:44:31.894426 26100 net.cpp:406] lstm1_unit_183 <- cont_183_lstm1_cont_slice_182_split_1
I1017 11:44:31.894433 26100 net.cpp:380] lstm1_unit_183 -> c_183
I1017 11:44:31.894448 26100 net.cpp:380] lstm1_unit_183 -> h_183
I1017 11:44:31.894500 26100 net.cpp:122] Setting up lstm1_unit_183
I1017 11:44:31.894510 26100 net.cpp:129] Top shape: 1 150 512 (76800)
I1017 11:44:31.894515 26100 net.cpp:129] Top shape: 1 150 512 (76800)
I1017 11:44:31.894518 26100 net.cpp:137] Memory required for data: 1236038400
I1017 11:44:31.894523 26100 layer_factory.hpp:77] Creating layer h_183_lstm1_unit_183_1_split
I1017 11:44:31.894531 26100 net.cpp:84] Creating Layer h_183_lstm1_unit_183_1_split
I1017 11:44:31.894536 26100 net.cpp:406] h_183_lstm1_unit_183_1_split <- h_183
I1017 11:44:31.894543 26100 net.cpp:380] h_183_lstm1_unit_183_1_split -> h_183_lstm1_unit_183_1_split_0
I1017 11:44:31.894552 26100 net.cpp:380] h_183_lstm1_unit_183_1_split -> h_183_lstm1_unit_183_1_split_1
I1017 11:44:31.894589 26100 net.cpp:122] Setting up h_183_lstm1_unit_183_1_split
I1017 11:44:31.894598 26100 net.cpp:129] Top shape: 1 150 512 (76800)
I1017 11:44:31.894603 26100 net.cpp:129] Top shape: 1 150 512 (76800)
I1017 11:44:31.894608 26100 net.cpp:137] Memory required for data: 1236652800
I1017 11:44:31.894611 26100 layer_factory.hpp:77] Creating layer lstm1_h_conted_183
I1017 11:44:31.894620 26100 net.cpp:84] Creating Layer lstm1_h_conted_183
I1017 11:44:31.894625 26100 net.cpp:406] lstm1_h_conted_183 <- h_183_lstm1_unit_183_1_split_0
I1017 11:44:31.894634 26100 net.cpp:406] lstm1_h_conted_183 <- cont_184_lstm1_cont_slice_183_split_0
I1017 11:44:31.894644 26100 net.cpp:380] lstm1_h_conted_183 -> h_conted_183
I1017 11:44:31.894773 26100 net.cpp:122] Setting up lstm1_h_conted_183
I1017 11:44:31.894783 26100 net.cpp:129] Top shape: 1 150 512 (76800)
I1017 11:44:31.894788 26100 net.cpp:137] Memory required for data: 1236960000
I1017 11:44:31.894791 26100 layer_factory.hpp:77] Creating layer lstm1_transform_184
I1017 11:44:31.894803 26100 net.cpp:84] Creating Layer lstm1_transform_184
I1017 11:44:31.894809 26100 net.cpp:406] lstm1_transform_184 <- h_conted_183
I1017 11:44:31.894822 26100 net.cpp:380] lstm1_transform_184 -> W_hc_h_183
I1017 11:44:31.906787 26100 net.cpp:122] Setting up lstm1_transform_184
I1017 11:44:31.906821 26100 net.cpp:129] Top shape: 1 150 2048 (307200)
I1017 11:44:31.906826 26100 net.cpp:137] Memory required for data: 1238188800
I1017 11:44:31.906833 26100 net.cpp:465] Sharing parameters 'W_hc' owned by layer 'lstm1_transform_1', param index 0
I1017 11:44:31.906839 26100 layer_factory.hpp:77] Creating layer lstm1_gate_input_184
I1017 11:44:31.906852 26100 net.cpp:84] Creating Layer lstm1_gate_input_184
I1017 11:44:31.906859 26100 net.cpp:406] lstm1_gate_input_184 <- W_hc_h_183
I1017 11:44:31.906869 26100 net.cpp:406] lstm1_gate_input_184 <- W_xc_x_184
I1017 11:44:31.906878 26100 net.cpp:380] lstm1_gate_input_184 -> gate_input_184
I1017 11:44:31.906924 26100 net.cpp:122] Setting up lstm1_gate_input_184
I1017 11:44:31.906934 26100 net.cpp:129] Top shape: 1 150 2048 (307200)
I1017 11:44:31.906937 26100 net.cpp:137] Memory required for data: 1239417600
I1017 11:44:31.906944 26100 layer_factory.hpp:77] Creating layer lstm1_unit_184
I1017 11:44:31.906952 26100 net.cpp:84] Creating Layer lstm1_unit_184
I1017 11:44:31.906960 26100 net.cpp:406] lstm1_unit_184 <- c_183
I1017 11:44:31.906966 26100 net.cpp:406] lstm1_unit_184 <- gate_input_184
I1017 11:44:31.906973 26100 net.cpp:406] lstm1_unit_184 <- cont_184_lstm1_cont_slice_183_split_1
I1017 11:44:31.906980 26100 net.cpp:380] lstm1_unit_184 -> c_184
I1017 11:44:31.906989 26100 net.cpp:380] lstm1_unit_184 -> h_184
I1017 11:44:31.907042 26100 net.cpp:122] Setting up lstm1_unit_184
I1017 11:44:31.907057 26100 net.cpp:129] Top shape: 1 150 512 (76800)
I1017 11:44:31.907061 26100 net.cpp:129] Top shape: 1 150 512 (76800)
I1017 11:44:31.907065 26100 net.cpp:137] Memory required for data: 1240032000
I1017 11:44:31.907070 26100 layer_factory.hpp:77] Creating layer h_184_lstm1_unit_184_1_split
I1017 11:44:31.907079 26100 net.cpp:84] Creating Layer h_184_lstm1_unit_184_1_split
I1017 11:44:31.907084 26100 net.cpp:406] h_184_lstm1_unit_184_1_split <- h_184
I1017 11:44:31.907093 26100 net.cpp:380] h_184_lstm1_unit_184_1_split -> h_184_lstm1_unit_184_1_split_0
I1017 11:44:31.907099 26100 net.cpp:380] h_184_lstm1_unit_184_1_split -> h_184_lstm1_unit_184_1_split_1
I1017 11:44:31.907138 26100 net.cpp:122] Setting up h_184_lstm1_unit_184_1_split
I1017 11:44:31.907147 26100 net.cpp:129] Top shape: 1 150 512 (76800)
I1017 11:44:31.907152 26100 net.cpp:129] Top shape: 1 150 512 (76800)
I1017 11:44:31.907155 26100 net.cpp:137] Memory required for data: 1240646400
I1017 11:44:31.907160 26100 layer_factory.hpp:77] Creating layer lstm1_h_conted_184
I1017 11:44:31.907168 26100 net.cpp:84] Creating Layer lstm1_h_conted_184
I1017 11:44:31.907174 26100 net.cpp:406] lstm1_h_conted_184 <- h_184_lstm1_unit_184_1_split_0
I1017 11:44:31.907181 26100 net.cpp:406] lstm1_h_conted_184 <- cont_185_lstm1_cont_slice_184_split_0
I1017 11:44:31.907189 26100 net.cpp:380] lstm1_h_conted_184 -> h_conted_184
I1017 11:44:31.907320 26100 net.cpp:122] Setting up lstm1_h_conted_184
I1017 11:44:31.907330 26100 net.cpp:129] Top shape: 1 150 512 (76800)
I1017 11:44:31.907335 26100 net.cpp:137] Memory required for data: 1240953600
I1017 11:44:31.907338 26100 layer_factory.hpp:77] Creating layer lstm1_transform_185
I1017 11:44:31.907351 26100 net.cpp:84] Creating Layer lstm1_transform_185
I1017 11:44:31.907356 26100 net.cpp:406] lstm1_transform_185 <- h_conted_184
I1017 11:44:31.907364 26100 net.cpp:380] lstm1_transform_185 -> W_hc_h_184
I1017 11:44:31.923485 26100 net.cpp:122] Setting up lstm1_transform_185
I1017 11:44:31.923528 26100 net.cpp:129] Top shape: 1 150 2048 (307200)
I1017 11:44:31.923533 26100 net.cpp:137] Memory required for data: 1242182400
I1017 11:44:31.923542 26100 net.cpp:465] Sharing parameters 'W_hc' owned by layer 'lstm1_transform_1', param index 0
I1017 11:44:31.923548 26100 layer_factory.hpp:77] Creating layer lstm1_gate_input_185
I1017 11:44:31.923563 26100 net.cpp:84] Creating Layer lstm1_gate_input_185
I1017 11:44:31.923573 26100 net.cpp:406] lstm1_gate_input_185 <- W_hc_h_184
I1017 11:44:31.923583 26100 net.cpp:406] lstm1_gate_input_185 <- W_xc_x_185
I1017 11:44:31.923593 26100 net.cpp:380] lstm1_gate_input_185 -> gate_input_185
I1017 11:44:31.923641 26100 net.cpp:122] Setting up lstm1_gate_input_185
I1017 11:44:31.923650 26100 net.cpp:129] Top shape: 1 150 2048 (307200)
I1017 11:44:31.923655 26100 net.cpp:137] Memory required for data: 1243411200
I1017 11:44:31.923660 26100 layer_factory.hpp:77] Creating layer lstm1_unit_185
I1017 11:44:31.923667 26100 net.cpp:84] Creating Layer lstm1_unit_185
I1017 11:44:31.923674 26100 net.cpp:406] lstm1_unit_185 <- c_184
I1017 11:44:31.923681 26100 net.cpp:406] lstm1_unit_185 <- gate_input_185
I1017 11:44:31.923688 26100 net.cpp:406] lstm1_unit_185 <- cont_185_lstm1_cont_slice_184_split_1
I1017 11:44:31.923696 26100 net.cpp:380] lstm1_unit_185 -> c_185
I1017 11:44:31.923705 26100 net.cpp:380] lstm1_unit_185 -> h_185
I1017 11:44:31.923905 26100 net.cpp:122] Setting up lstm1_unit_185
I1017 11:44:31.923987 26100 net.cpp:129] Top shape: 1 150 512 (76800)
I1017 11:44:31.923998 26100 net.cpp:129] Top shape: 1 150 512 (76800)
I1017 11:44:31.924010 26100 net.cpp:137] Memory required for data: 1244025600
I1017 11:44:31.924041 26100 layer_factory.hpp:77] Creating layer h_185_lstm1_unit_185_1_split
I1017 11:44:31.924053 26100 net.cpp:84] Creating Layer h_185_lstm1_unit_185_1_split
I1017 11:44:31.924077 26100 net.cpp:406] h_185_lstm1_unit_185_1_split <- h_185
I1017 11:44:31.924113 26100 net.cpp:380] h_185_lstm1_unit_185_1_split -> h_185_lstm1_unit_185_1_split_0
I1017 11:44:31.924185 26100 net.cpp:380] h_185_lstm1_unit_185_1_split -> h_185_lstm1_unit_185_1_split_1
I1017 11:44:31.924403 26100 net.cpp:122] Setting up h_185_lstm1_unit_185_1_split
I1017 11:44:31.924455 26100 net.cpp:129] Top shape: 1 150 512 (76800)
I1017 11:44:31.924466 26100 net.cpp:129] Top shape: 1 150 512 (76800)
I1017 11:44:31.924477 26100 net.cpp:137] Memory required for data: 1244640000
I1017 11:44:31.924485 26100 layer_factory.hpp:77] Creating layer lstm1_h_conted_185
I1017 11:44:31.924546 26100 net.cpp:84] Creating Layer lstm1_h_conted_185
I1017 11:44:31.924571 26100 net.cpp:406] lstm1_h_conted_185 <- h_185_lstm1_unit_185_1_split_0
I1017 11:44:31.924605 26100 net.cpp:406] lstm1_h_conted_185 <- cont_186_lstm1_cont_slice_185_split_0
I1017 11:44:31.924636 26100 net.cpp:380] lstm1_h_conted_185 -> h_conted_185
I1017 11:44:31.925155 26100 net.cpp:122] Setting up lstm1_h_conted_185
I1017 11:44:31.925164 26100 net.cpp:129] Top shape: 1 150 512 (76800)
I1017 11:44:31.925180 26100 net.cpp:137] Memory required for data: 1244947200
I1017 11:44:31.925184 26100 layer_factory.hpp:77] Creating layer lstm1_transform_186
I1017 11:44:31.925197 26100 net.cpp:84] Creating Layer lstm1_transform_186
I1017 11:44:31.925202 26100 net.cpp:406] lstm1_transform_186 <- h_conted_185
I1017 11:44:31.925210 26100 net.cpp:380] lstm1_transform_186 -> W_hc_h_185
I1017 11:44:31.940556 26100 net.cpp:122] Setting up lstm1_transform_186
I1017 11:44:31.940595 26100 net.cpp:129] Top shape: 1 150 2048 (307200)
I1017 11:44:31.940601 26100 net.cpp:137] Memory required for data: 1246176000
I1017 11:44:31.940608 26100 net.cpp:465] Sharing parameters 'W_hc' owned by layer 'lstm1_transform_1', param index 0
I1017 11:44:31.940614 26100 layer_factory.hpp:77] Creating layer lstm1_gate_input_186
I1017 11:44:31.940625 26100 net.cpp:84] Creating Layer lstm1_gate_input_186
I1017 11:44:31.940634 26100 net.cpp:406] lstm1_gate_input_186 <- W_hc_h_185
I1017 11:44:31.940642 26100 net.cpp:406] lstm1_gate_input_186 <- W_xc_x_186
I1017 11:44:31.940652 26100 net.cpp:380] lstm1_gate_input_186 -> gate_input_186
I1017 11:44:31.940692 26100 net.cpp:122] Setting up lstm1_gate_input_186
I1017 11:44:31.940702 26100 net.cpp:129] Top shape: 1 150 2048 (307200)
I1017 11:44:31.940706 26100 net.cpp:137] Memory required for data: 1247404800
I1017 11:44:31.940711 26100 layer_factory.hpp:77] Creating layer lstm1_unit_186
I1017 11:44:31.940726 26100 net.cpp:84] Creating Layer lstm1_unit_186
I1017 11:44:31.940735 26100 net.cpp:406] lstm1_unit_186 <- c_185
I1017 11:44:31.940742 26100 net.cpp:406] lstm1_unit_186 <- gate_input_186
I1017 11:44:31.940749 26100 net.cpp:406] lstm1_unit_186 <- cont_186_lstm1_cont_slice_185_split_1
I1017 11:44:31.940757 26100 net.cpp:380] lstm1_unit_186 -> c_186
I1017 11:44:31.940765 26100 net.cpp:380] lstm1_unit_186 -> h_186
I1017 11:44:31.940819 26100 net.cpp:122] Setting up lstm1_unit_186
I1017 11:44:31.940829 26100 net.cpp:129] Top shape: 1 150 512 (76800)
I1017 11:44:31.940834 26100 net.cpp:129] Top shape: 1 150 512 (76800)
I1017 11:44:31.940837 26100 net.cpp:137] Memory required for data: 1248019200
I1017 11:44:31.940843 26100 layer_factory.hpp:77] Creating layer h_186_lstm1_unit_186_1_split
I1017 11:44:31.940850 26100 net.cpp:84] Creating Layer h_186_lstm1_unit_186_1_split
I1017 11:44:31.940855 26100 net.cpp:406] h_186_lstm1_unit_186_1_split <- h_186
I1017 11:44:31.940865 26100 net.cpp:380] h_186_lstm1_unit_186_1_split -> h_186_lstm1_unit_186_1_split_0
I1017 11:44:31.940872 26100 net.cpp:380] h_186_lstm1_unit_186_1_split -> h_186_lstm1_unit_186_1_split_1
I1017 11:44:31.940914 26100 net.cpp:122] Setting up h_186_lstm1_unit_186_1_split
I1017 11:44:31.940922 26100 net.cpp:129] Top shape: 1 150 512 (76800)
I1017 11:44:31.940927 26100 net.cpp:129] Top shape: 1 150 512 (76800)
I1017 11:44:31.940932 26100 net.cpp:137] Memory required for data: 1248633600
I1017 11:44:31.940935 26100 layer_factory.hpp:77] Creating layer lstm1_h_conted_186
I1017 11:44:31.940949 26100 net.cpp:84] Creating Layer lstm1_h_conted_186
I1017 11:44:31.940958 26100 net.cpp:406] lstm1_h_conted_186 <- h_186_lstm1_unit_186_1_split_0
I1017 11:44:31.940965 26100 net.cpp:406] lstm1_h_conted_186 <- cont_187_lstm1_cont_slice_186_split_0
I1017 11:44:31.940978 26100 net.cpp:380] lstm1_h_conted_186 -> h_conted_186
I1017 11:44:31.941095 26100 net.cpp:122] Setting up lstm1_h_conted_186
I1017 11:44:31.941105 26100 net.cpp:129] Top shape: 1 150 512 (76800)
I1017 11:44:31.941109 26100 net.cpp:137] Memory required for data: 1248940800
I1017 11:44:31.941114 26100 layer_factory.hpp:77] Creating layer lstm1_transform_187
I1017 11:44:31.941125 26100 net.cpp:84] Creating Layer lstm1_transform_187
I1017 11:44:31.941131 26100 net.cpp:406] lstm1_transform_187 <- h_conted_186
I1017 11:44:31.941141 26100 net.cpp:380] lstm1_transform_187 -> W_hc_h_186
I1017 11:44:31.953027 26100 net.cpp:122] Setting up lstm1_transform_187
I1017 11:44:31.953058 26100 net.cpp:129] Top shape: 1 150 2048 (307200)
I1017 11:44:31.953065 26100 net.cpp:137] Memory required for data: 1250169600
I1017 11:44:31.953081 26100 net.cpp:465] Sharing parameters 'W_hc' owned by layer 'lstm1_transform_1', param index 0
I1017 11:44:31.953092 26100 layer_factory.hpp:77] Creating layer lstm1_gate_input_187
I1017 11:44:31.953112 26100 net.cpp:84] Creating Layer lstm1_gate_input_187
I1017 11:44:31.953130 26100 net.cpp:406] lstm1_gate_input_187 <- W_hc_h_186
I1017 11:44:31.953147 26100 net.cpp:406] lstm1_gate_input_187 <- W_xc_x_187
I1017 11:44:31.953166 26100 net.cpp:380] lstm1_gate_input_187 -> gate_input_187
I1017 11:44:31.953224 26100 net.cpp:122] Setting up lstm1_gate_input_187
I1017 11:44:31.953238 26100 net.cpp:129] Top shape: 1 150 2048 (307200)
I1017 11:44:31.953244 26100 net.cpp:137] Memory required for data: 1251398400
I1017 11:44:31.953254 26100 layer_factory.hpp:77] Creating layer lstm1_unit_187
I1017 11:44:31.953295 26100 net.cpp:84] Creating Layer lstm1_unit_187
I1017 11:44:31.953310 26100 net.cpp:406] lstm1_unit_187 <- c_186
I1017 11:44:31.953322 26100 net.cpp:406] lstm1_unit_187 <- gate_input_187
I1017 11:44:31.953336 26100 net.cpp:406] lstm1_unit_187 <- cont_187_lstm1_cont_slice_186_split_1
I1017 11:44:31.953351 26100 net.cpp:380] lstm1_unit_187 -> c_187
I1017 11:44:31.953372 26100 net.cpp:380] lstm1_unit_187 -> h_187
I1017 11:44:31.953444 26100 net.cpp:122] Setting up lstm1_unit_187
I1017 11:44:31.953457 26100 net.cpp:129] Top shape: 1 150 512 (76800)
I1017 11:44:31.953467 26100 net.cpp:129] Top shape: 1 150 512 (76800)
I1017 11:44:31.953476 26100 net.cpp:137] Memory required for data: 1252012800
I1017 11:44:31.953482 26100 layer_factory.hpp:77] Creating layer h_187_lstm1_unit_187_1_split
I1017 11:44:31.953497 26100 net.cpp:84] Creating Layer h_187_lstm1_unit_187_1_split
I1017 11:44:31.953502 26100 net.cpp:406] h_187_lstm1_unit_187_1_split <- h_187
I1017 11:44:31.953510 26100 net.cpp:380] h_187_lstm1_unit_187_1_split -> h_187_lstm1_unit_187_1_split_0
I1017 11:44:31.953524 26100 net.cpp:380] h_187_lstm1_unit_187_1_split -> h_187_lstm1_unit_187_1_split_1
I1017 11:44:31.953567 26100 net.cpp:122] Setting up h_187_lstm1_unit_187_1_split
I1017 11:44:31.953577 26100 net.cpp:129] Top shape: 1 150 512 (76800)
I1017 11:44:31.953582 26100 net.cpp:129] Top shape: 1 150 512 (76800)
I1017 11:44:31.953585 26100 net.cpp:137] Memory required for data: 1252627200
I1017 11:44:31.953589 26100 layer_factory.hpp:77] Creating layer lstm1_h_conted_187
I1017 11:44:31.953600 26100 net.cpp:84] Creating Layer lstm1_h_conted_187
I1017 11:44:31.953606 26100 net.cpp:406] lstm1_h_conted_187 <- h_187_lstm1_unit_187_1_split_0
I1017 11:44:31.953613 26100 net.cpp:406] lstm1_h_conted_187 <- cont_188_lstm1_cont_slice_187_split_0
I1017 11:44:31.953624 26100 net.cpp:380] lstm1_h_conted_187 -> h_conted_187
I1017 11:44:31.953763 26100 net.cpp:122] Setting up lstm1_h_conted_187
I1017 11:44:31.953773 26100 net.cpp:129] Top shape: 1 150 512 (76800)
I1017 11:44:31.953776 26100 net.cpp:137] Memory required for data: 1252934400
I1017 11:44:31.953780 26100 layer_factory.hpp:77] Creating layer lstm1_transform_188
I1017 11:44:31.953794 26100 net.cpp:84] Creating Layer lstm1_transform_188
I1017 11:44:31.953799 26100 net.cpp:406] lstm1_transform_188 <- h_conted_187
I1017 11:44:31.953809 26100 net.cpp:380] lstm1_transform_188 -> W_hc_h_187
I1017 11:44:31.974558 26100 net.cpp:122] Setting up lstm1_transform_188
I1017 11:44:31.974581 26100 net.cpp:129] Top shape: 1 150 2048 (307200)
I1017 11:44:31.974584 26100 net.cpp:137] Memory required for data: 1254163200
I1017 11:44:31.974591 26100 net.cpp:465] Sharing parameters 'W_hc' owned by layer 'lstm1_transform_1', param index 0
I1017 11:44:31.974597 26100 layer_factory.hpp:77] Creating layer lstm1_gate_input_188
I1017 11:44:31.974609 26100 net.cpp:84] Creating Layer lstm1_gate_input_188
I1017 11:44:31.974617 26100 net.cpp:406] lstm1_gate_input_188 <- W_hc_h_187
I1017 11:44:31.974625 26100 net.cpp:406] lstm1_gate_input_188 <- W_xc_x_188
I1017 11:44:31.974634 26100 net.cpp:380] lstm1_gate_input_188 -> gate_input_188
I1017 11:44:31.974670 26100 net.cpp:122] Setting up lstm1_gate_input_188
I1017 11:44:31.974679 26100 net.cpp:129] Top shape: 1 150 2048 (307200)
I1017 11:44:31.974684 26100 net.cpp:137] Memory required for data: 1255392000
I1017 11:44:31.974687 26100 layer_factory.hpp:77] Creating layer lstm1_unit_188
I1017 11:44:31.974697 26100 net.cpp:84] Creating Layer lstm1_unit_188
I1017 11:44:31.974704 26100 net.cpp:406] lstm1_unit_188 <- c_187
I1017 11:44:31.974710 26100 net.cpp:406] lstm1_unit_188 <- gate_input_188
I1017 11:44:31.974717 26100 net.cpp:406] lstm1_unit_188 <- cont_188_lstm1_cont_slice_187_split_1
I1017 11:44:31.974727 26100 net.cpp:380] lstm1_unit_188 -> c_188
I1017 11:44:31.974736 26100 net.cpp:380] lstm1_unit_188 -> h_188
I1017 11:44:31.974787 26100 net.cpp:122] Setting up lstm1_unit_188
I1017 11:44:31.974797 26100 net.cpp:129] Top shape: 1 150 512 (76800)
I1017 11:44:31.974802 26100 net.cpp:129] Top shape: 1 150 512 (76800)
I1017 11:44:31.974805 26100 net.cpp:137] Memory required for data: 1256006400
I1017 11:44:31.974810 26100 layer_factory.hpp:77] Creating layer h_188_lstm1_unit_188_1_split
I1017 11:44:31.974817 26100 net.cpp:84] Creating Layer h_188_lstm1_unit_188_1_split
I1017 11:44:31.974822 26100 net.cpp:406] h_188_lstm1_unit_188_1_split <- h_188
I1017 11:44:31.974828 26100 net.cpp:380] h_188_lstm1_unit_188_1_split -> h_188_lstm1_unit_188_1_split_0
I1017 11:44:31.974836 26100 net.cpp:380] h_188_lstm1_unit_188_1_split -> h_188_lstm1_unit_188_1_split_1
I1017 11:44:31.974874 26100 net.cpp:122] Setting up h_188_lstm1_unit_188_1_split
I1017 11:44:31.974882 26100 net.cpp:129] Top shape: 1 150 512 (76800)
I1017 11:44:31.974887 26100 net.cpp:129] Top shape: 1 150 512 (76800)
I1017 11:44:31.974891 26100 net.cpp:137] Memory required for data: 1256620800
I1017 11:44:31.974895 26100 layer_factory.hpp:77] Creating layer lstm1_h_conted_188
I1017 11:44:31.974905 26100 net.cpp:84] Creating Layer lstm1_h_conted_188
I1017 11:44:31.974910 26100 net.cpp:406] lstm1_h_conted_188 <- h_188_lstm1_unit_188_1_split_0
I1017 11:44:31.974917 26100 net.cpp:406] lstm1_h_conted_188 <- cont_189_lstm1_cont_slice_188_split_0
I1017 11:44:31.974927 26100 net.cpp:380] lstm1_h_conted_188 -> h_conted_188
I1017 11:44:31.975031 26100 net.cpp:122] Setting up lstm1_h_conted_188
I1017 11:44:31.975042 26100 net.cpp:129] Top shape: 1 150 512 (76800)
I1017 11:44:31.975046 26100 net.cpp:137] Memory required for data: 1256928000
I1017 11:44:31.975050 26100 layer_factory.hpp:77] Creating layer lstm1_transform_189
I1017 11:44:31.975059 26100 net.cpp:84] Creating Layer lstm1_transform_189
I1017 11:44:31.975065 26100 net.cpp:406] lstm1_transform_189 <- h_conted_188
I1017 11:44:31.975075 26100 net.cpp:380] lstm1_transform_189 -> W_hc_h_188
I1017 11:44:31.987011 26100 net.cpp:122] Setting up lstm1_transform_189
I1017 11:44:31.987038 26100 net.cpp:129] Top shape: 1 150 2048 (307200)
I1017 11:44:31.987042 26100 net.cpp:137] Memory required for data: 1258156800
I1017 11:44:31.987049 26100 net.cpp:465] Sharing parameters 'W_hc' owned by layer 'lstm1_transform_1', param index 0
I1017 11:44:31.987056 26100 layer_factory.hpp:77] Creating layer lstm1_gate_input_189
I1017 11:44:31.987068 26100 net.cpp:84] Creating Layer lstm1_gate_input_189
I1017 11:44:31.987076 26100 net.cpp:406] lstm1_gate_input_189 <- W_hc_h_188
I1017 11:44:31.987084 26100 net.cpp:406] lstm1_gate_input_189 <- W_xc_x_189
I1017 11:44:31.987097 26100 net.cpp:380] lstm1_gate_input_189 -> gate_input_189
I1017 11:44:31.987133 26100 net.cpp:122] Setting up lstm1_gate_input_189
I1017 11:44:31.987143 26100 net.cpp:129] Top shape: 1 150 2048 (307200)
I1017 11:44:31.987148 26100 net.cpp:137] Memory required for data: 1259385600
I1017 11:44:31.987151 26100 layer_factory.hpp:77] Creating layer lstm1_unit_189
I1017 11:44:31.987159 26100 net.cpp:84] Creating Layer lstm1_unit_189
I1017 11:44:31.987165 26100 net.cpp:406] lstm1_unit_189 <- c_188
I1017 11:44:31.987171 26100 net.cpp:406] lstm1_unit_189 <- gate_input_189
I1017 11:44:31.987179 26100 net.cpp:406] lstm1_unit_189 <- cont_189_lstm1_cont_slice_188_split_1
I1017 11:44:31.987185 26100 net.cpp:380] lstm1_unit_189 -> c_189
I1017 11:44:31.987197 26100 net.cpp:380] lstm1_unit_189 -> h_189
I1017 11:44:31.987251 26100 net.cpp:122] Setting up lstm1_unit_189
I1017 11:44:31.987262 26100 net.cpp:129] Top shape: 1 150 512 (76800)
I1017 11:44:31.987267 26100 net.cpp:129] Top shape: 1 150 512 (76800)
I1017 11:44:31.987270 26100 net.cpp:137] Memory required for data: 1260000000
I1017 11:44:31.987275 26100 layer_factory.hpp:77] Creating layer h_189_lstm1_unit_189_1_split
I1017 11:44:31.987282 26100 net.cpp:84] Creating Layer h_189_lstm1_unit_189_1_split
I1017 11:44:31.987287 26100 net.cpp:406] h_189_lstm1_unit_189_1_split <- h_189
I1017 11:44:31.987294 26100 net.cpp:380] h_189_lstm1_unit_189_1_split -> h_189_lstm1_unit_189_1_split_0
I1017 11:44:31.987303 26100 net.cpp:380] h_189_lstm1_unit_189_1_split -> h_189_lstm1_unit_189_1_split_1
I1017 11:44:31.987339 26100 net.cpp:122] Setting up h_189_lstm1_unit_189_1_split
I1017 11:44:31.987347 26100 net.cpp:129] Top shape: 1 150 512 (76800)
I1017 11:44:31.987352 26100 net.cpp:129] Top shape: 1 150 512 (76800)
I1017 11:44:31.987356 26100 net.cpp:137] Memory required for data: 1260614400
I1017 11:44:31.987360 26100 layer_factory.hpp:77] Creating layer lstm1_h_conted_189
I1017 11:44:31.987370 26100 net.cpp:84] Creating Layer lstm1_h_conted_189
I1017 11:44:31.987375 26100 net.cpp:406] lstm1_h_conted_189 <- h_189_lstm1_unit_189_1_split_0
I1017 11:44:31.987383 26100 net.cpp:406] lstm1_h_conted_189 <- cont_190_lstm1_cont_slice_189_split_0
I1017 11:44:31.987395 26100 net.cpp:380] lstm1_h_conted_189 -> h_conted_189
I1017 11:44:31.987509 26100 net.cpp:122] Setting up lstm1_h_conted_189
I1017 11:44:31.987519 26100 net.cpp:129] Top shape: 1 150 512 (76800)
I1017 11:44:31.987524 26100 net.cpp:137] Memory required for data: 1260921600
I1017 11:44:31.987527 26100 layer_factory.hpp:77] Creating layer lstm1_transform_190
I1017 11:44:31.987538 26100 net.cpp:84] Creating Layer lstm1_transform_190
I1017 11:44:31.987545 26100 net.cpp:406] lstm1_transform_190 <- h_conted_189
I1017 11:44:31.987557 26100 net.cpp:380] lstm1_transform_190 -> W_hc_h_189
I1017 11:44:32.000021 26100 net.cpp:122] Setting up lstm1_transform_190
I1017 11:44:32.000066 26100 net.cpp:129] Top shape: 1 150 2048 (307200)
I1017 11:44:32.000071 26100 net.cpp:137] Memory required for data: 1262150400
I1017 11:44:32.000078 26100 net.cpp:465] Sharing parameters 'W_hc' owned by layer 'lstm1_transform_1', param index 0
I1017 11:44:32.000087 26100 layer_factory.hpp:77] Creating layer lstm1_gate_input_190
I1017 11:44:32.000100 26100 net.cpp:84] Creating Layer lstm1_gate_input_190
I1017 11:44:32.000110 26100 net.cpp:406] lstm1_gate_input_190 <- W_hc_h_189
I1017 11:44:32.000121 26100 net.cpp:406] lstm1_gate_input_190 <- W_xc_x_190
I1017 11:44:32.000133 26100 net.cpp:380] lstm1_gate_input_190 -> gate_input_190
I1017 11:44:32.000181 26100 net.cpp:122] Setting up lstm1_gate_input_190
I1017 11:44:32.000191 26100 net.cpp:129] Top shape: 1 150 2048 (307200)
I1017 11:44:32.000195 26100 net.cpp:137] Memory required for data: 1263379200
I1017 11:44:32.000200 26100 layer_factory.hpp:77] Creating layer lstm1_unit_190
I1017 11:44:32.000208 26100 net.cpp:84] Creating Layer lstm1_unit_190
I1017 11:44:32.000216 26100 net.cpp:406] lstm1_unit_190 <- c_189
I1017 11:44:32.000222 26100 net.cpp:406] lstm1_unit_190 <- gate_input_190
I1017 11:44:32.000231 26100 net.cpp:406] lstm1_unit_190 <- cont_190_lstm1_cont_slice_189_split_1
I1017 11:44:32.000238 26100 net.cpp:380] lstm1_unit_190 -> c_190
I1017 11:44:32.000253 26100 net.cpp:380] lstm1_unit_190 -> h_190
I1017 11:44:32.000319 26100 net.cpp:122] Setting up lstm1_unit_190
I1017 11:44:32.000329 26100 net.cpp:129] Top shape: 1 150 512 (76800)
I1017 11:44:32.000334 26100 net.cpp:129] Top shape: 1 150 512 (76800)
I1017 11:44:32.000337 26100 net.cpp:137] Memory required for data: 1263993600
I1017 11:44:32.000341 26100 layer_factory.hpp:77] Creating layer h_190_lstm1_unit_190_1_split
I1017 11:44:32.000349 26100 net.cpp:84] Creating Layer h_190_lstm1_unit_190_1_split
I1017 11:44:32.000353 26100 net.cpp:406] h_190_lstm1_unit_190_1_split <- h_190
I1017 11:44:32.000360 26100 net.cpp:380] h_190_lstm1_unit_190_1_split -> h_190_lstm1_unit_190_1_split_0
I1017 11:44:32.000370 26100 net.cpp:380] h_190_lstm1_unit_190_1_split -> h_190_lstm1_unit_190_1_split_1
I1017 11:44:32.000408 26100 net.cpp:122] Setting up h_190_lstm1_unit_190_1_split
I1017 11:44:32.000417 26100 net.cpp:129] Top shape: 1 150 512 (76800)
I1017 11:44:32.000422 26100 net.cpp:129] Top shape: 1 150 512 (76800)
I1017 11:44:32.000427 26100 net.cpp:137] Memory required for data: 1264608000
I1017 11:44:32.000430 26100 layer_factory.hpp:77] Creating layer lstm1_h_conted_190
I1017 11:44:32.000440 26100 net.cpp:84] Creating Layer lstm1_h_conted_190
I1017 11:44:32.000445 26100 net.cpp:406] lstm1_h_conted_190 <- h_190_lstm1_unit_190_1_split_0
I1017 11:44:32.000452 26100 net.cpp:406] lstm1_h_conted_190 <- cont_191_lstm1_cont_slice_190_split_0
I1017 11:44:32.000463 26100 net.cpp:380] lstm1_h_conted_190 -> h_conted_190
I1017 11:44:32.000603 26100 net.cpp:122] Setting up lstm1_h_conted_190
I1017 11:44:32.000613 26100 net.cpp:129] Top shape: 1 150 512 (76800)
I1017 11:44:32.000617 26100 net.cpp:137] Memory required for data: 1264915200
I1017 11:44:32.000623 26100 layer_factory.hpp:77] Creating layer lstm1_transform_191
I1017 11:44:32.000633 26100 net.cpp:84] Creating Layer lstm1_transform_191
I1017 11:44:32.000639 26100 net.cpp:406] lstm1_transform_191 <- h_conted_190
I1017 11:44:32.000648 26100 net.cpp:380] lstm1_transform_191 -> W_hc_h_190
I1017 11:44:32.012847 26100 net.cpp:122] Setting up lstm1_transform_191
I1017 11:44:32.012872 26100 net.cpp:129] Top shape: 1 150 2048 (307200)
I1017 11:44:32.012877 26100 net.cpp:137] Memory required for data: 1266144000
I1017 11:44:32.012884 26100 net.cpp:465] Sharing parameters 'W_hc' owned by layer 'lstm1_transform_1', param index 0
I1017 11:44:32.012890 26100 layer_factory.hpp:77] Creating layer lstm1_gate_input_191
I1017 11:44:32.012900 26100 net.cpp:84] Creating Layer lstm1_gate_input_191
I1017 11:44:32.012908 26100 net.cpp:406] lstm1_gate_input_191 <- W_hc_h_190
I1017 11:44:32.012917 26100 net.cpp:406] lstm1_gate_input_191 <- W_xc_x_191
I1017 11:44:32.012925 26100 net.cpp:380] lstm1_gate_input_191 -> gate_input_191
I1017 11:44:32.012964 26100 net.cpp:122] Setting up lstm1_gate_input_191
I1017 11:44:32.012974 26100 net.cpp:129] Top shape: 1 150 2048 (307200)
I1017 11:44:32.012977 26100 net.cpp:137] Memory required for data: 1267372800
I1017 11:44:32.012981 26100 layer_factory.hpp:77] Creating layer lstm1_unit_191
I1017 11:44:32.012989 26100 net.cpp:84] Creating Layer lstm1_unit_191
I1017 11:44:32.012995 26100 net.cpp:406] lstm1_unit_191 <- c_190
I1017 11:44:32.013001 26100 net.cpp:406] lstm1_unit_191 <- gate_input_191
I1017 11:44:32.013008 26100 net.cpp:406] lstm1_unit_191 <- cont_191_lstm1_cont_slice_190_split_1
I1017 11:44:32.013015 26100 net.cpp:380] lstm1_unit_191 -> c_191
I1017 11:44:32.013023 26100 net.cpp:380] lstm1_unit_191 -> h_191
I1017 11:44:32.013078 26100 net.cpp:122] Setting up lstm1_unit_191
I1017 11:44:32.013087 26100 net.cpp:129] Top shape: 1 150 512 (76800)
I1017 11:44:32.013092 26100 net.cpp:129] Top shape: 1 150 512 (76800)
I1017 11:44:32.013098 26100 net.cpp:137] Memory required for data: 1267987200
I1017 11:44:32.013101 26100 layer_factory.hpp:77] Creating layer h_191_lstm1_unit_191_1_split
I1017 11:44:32.013109 26100 net.cpp:84] Creating Layer h_191_lstm1_unit_191_1_split
I1017 11:44:32.013116 26100 net.cpp:406] h_191_lstm1_unit_191_1_split <- h_191
I1017 11:44:32.013131 26100 net.cpp:380] h_191_lstm1_unit_191_1_split -> h_191_lstm1_unit_191_1_split_0
I1017 11:44:32.013139 26100 net.cpp:380] h_191_lstm1_unit_191_1_split -> h_191_lstm1_unit_191_1_split_1
I1017 11:44:32.013177 26100 net.cpp:122] Setting up h_191_lstm1_unit_191_1_split
I1017 11:44:32.013186 26100 net.cpp:129] Top shape: 1 150 512 (76800)
I1017 11:44:32.013191 26100 net.cpp:129] Top shape: 1 150 512 (76800)
I1017 11:44:32.013195 26100 net.cpp:137] Memory required for data: 1268601600
I1017 11:44:32.013200 26100 layer_factory.hpp:77] Creating layer lstm1_h_conted_191
I1017 11:44:32.013212 26100 net.cpp:84] Creating Layer lstm1_h_conted_191
I1017 11:44:32.013221 26100 net.cpp:406] lstm1_h_conted_191 <- h_191_lstm1_unit_191_1_split_0
I1017 11:44:32.013228 26100 net.cpp:406] lstm1_h_conted_191 <- cont_192_lstm1_cont_slice_191_split_0
I1017 11:44:32.013236 26100 net.cpp:380] lstm1_h_conted_191 -> h_conted_191
I1017 11:44:32.013339 26100 net.cpp:122] Setting up lstm1_h_conted_191
I1017 11:44:32.013350 26100 net.cpp:129] Top shape: 1 150 512 (76800)
I1017 11:44:32.013355 26100 net.cpp:137] Memory required for data: 1268908800
I1017 11:44:32.013358 26100 layer_factory.hpp:77] Creating layer lstm1_transform_192
I1017 11:44:32.013370 26100 net.cpp:84] Creating Layer lstm1_transform_192
I1017 11:44:32.013376 26100 net.cpp:406] lstm1_transform_192 <- h_conted_191
I1017 11:44:32.013383 26100 net.cpp:380] lstm1_transform_192 -> W_hc_h_191
I1017 11:44:32.025717 26100 net.cpp:122] Setting up lstm1_transform_192
I1017 11:44:32.025749 26100 net.cpp:129] Top shape: 1 150 2048 (307200)
I1017 11:44:32.025754 26100 net.cpp:137] Memory required for data: 1270137600
I1017 11:44:32.025763 26100 net.cpp:465] Sharing parameters 'W_hc' owned by layer 'lstm1_transform_1', param index 0
I1017 11:44:32.025768 26100 layer_factory.hpp:77] Creating layer lstm1_gate_input_192
I1017 11:44:32.025781 26100 net.cpp:84] Creating Layer lstm1_gate_input_192
I1017 11:44:32.025792 26100 net.cpp:406] lstm1_gate_input_192 <- W_hc_h_191
I1017 11:44:32.025802 26100 net.cpp:406] lstm1_gate_input_192 <- W_xc_x_192
I1017 11:44:32.025812 26100 net.cpp:380] lstm1_gate_input_192 -> gate_input_192
I1017 11:44:32.025857 26100 net.cpp:122] Setting up lstm1_gate_input_192
I1017 11:44:32.025867 26100 net.cpp:129] Top shape: 1 150 2048 (307200)
I1017 11:44:32.025871 26100 net.cpp:137] Memory required for data: 1271366400
I1017 11:44:32.025876 26100 layer_factory.hpp:77] Creating layer lstm1_unit_192
I1017 11:44:32.025885 26100 net.cpp:84] Creating Layer lstm1_unit_192
I1017 11:44:32.025894 26100 net.cpp:406] lstm1_unit_192 <- c_191
I1017 11:44:32.025902 26100 net.cpp:406] lstm1_unit_192 <- gate_input_192
I1017 11:44:32.025913 26100 net.cpp:406] lstm1_unit_192 <- cont_192_lstm1_cont_slice_191_split_1
I1017 11:44:32.025919 26100 net.cpp:380] lstm1_unit_192 -> c_192
I1017 11:44:32.025934 26100 net.cpp:380] lstm1_unit_192 -> h_192
I1017 11:44:32.025993 26100 net.cpp:122] Setting up lstm1_unit_192
I1017 11:44:32.026001 26100 net.cpp:129] Top shape: 1 150 512 (76800)
I1017 11:44:32.026007 26100 net.cpp:129] Top shape: 1 150 512 (76800)
I1017 11:44:32.026011 26100 net.cpp:137] Memory required for data: 1271980800
I1017 11:44:32.026017 26100 layer_factory.hpp:77] Creating layer h_192_lstm1_unit_192_1_split
I1017 11:44:32.026026 26100 net.cpp:84] Creating Layer h_192_lstm1_unit_192_1_split
I1017 11:44:32.026031 26100 net.cpp:406] h_192_lstm1_unit_192_1_split <- h_192
I1017 11:44:32.026041 26100 net.cpp:380] h_192_lstm1_unit_192_1_split -> h_192_lstm1_unit_192_1_split_0
I1017 11:44:32.026051 26100 net.cpp:380] h_192_lstm1_unit_192_1_split -> h_192_lstm1_unit_192_1_split_1
I1017 11:44:32.026088 26100 net.cpp:122] Setting up h_192_lstm1_unit_192_1_split
I1017 11:44:32.026098 26100 net.cpp:129] Top shape: 1 150 512 (76800)
I1017 11:44:32.026105 26100 net.cpp:129] Top shape: 1 150 512 (76800)
I1017 11:44:32.026109 26100 net.cpp:137] Memory required for data: 1272595200
I1017 11:44:32.026113 26100 layer_factory.hpp:77] Creating layer lstm1_h_conted_192
I1017 11:44:32.026124 26100 net.cpp:84] Creating Layer lstm1_h_conted_192
I1017 11:44:32.026131 26100 net.cpp:406] lstm1_h_conted_192 <- h_192_lstm1_unit_192_1_split_0
I1017 11:44:32.026139 26100 net.cpp:406] lstm1_h_conted_192 <- cont_193_lstm1_cont_slice_192_split_0
I1017 11:44:32.026151 26100 net.cpp:380] lstm1_h_conted_192 -> h_conted_192
I1017 11:44:32.026283 26100 net.cpp:122] Setting up lstm1_h_conted_192
I1017 11:44:32.026293 26100 net.cpp:129] Top shape: 1 150 512 (76800)
I1017 11:44:32.026298 26100 net.cpp:137] Memory required for data: 1272902400
I1017 11:44:32.026301 26100 layer_factory.hpp:77] Creating layer lstm1_transform_193
I1017 11:44:32.026315 26100 net.cpp:84] Creating Layer lstm1_transform_193
I1017 11:44:32.026322 26100 net.cpp:406] lstm1_transform_193 <- h_conted_192
I1017 11:44:32.026332 26100 net.cpp:380] lstm1_transform_193 -> W_hc_h_192
I1017 11:44:32.038269 26100 net.cpp:122] Setting up lstm1_transform_193
I1017 11:44:32.038302 26100 net.cpp:129] Top shape: 1 150 2048 (307200)
I1017 11:44:32.038306 26100 net.cpp:137] Memory required for data: 1274131200
I1017 11:44:32.038314 26100 net.cpp:465] Sharing parameters 'W_hc' owned by layer 'lstm1_transform_1', param index 0
I1017 11:44:32.038321 26100 layer_factory.hpp:77] Creating layer lstm1_gate_input_193
I1017 11:44:32.038336 26100 net.cpp:84] Creating Layer lstm1_gate_input_193
I1017 11:44:32.038348 26100 net.cpp:406] lstm1_gate_input_193 <- W_hc_h_192
I1017 11:44:32.038357 26100 net.cpp:406] lstm1_gate_input_193 <- W_xc_x_193
I1017 11:44:32.038369 26100 net.cpp:380] lstm1_gate_input_193 -> gate_input_193
I1017 11:44:32.038413 26100 net.cpp:122] Setting up lstm1_gate_input_193
I1017 11:44:32.038421 26100 net.cpp:129] Top shape: 1 150 2048 (307200)
I1017 11:44:32.038424 26100 net.cpp:137] Memory required for data: 1275360000
I1017 11:44:32.038430 26100 layer_factory.hpp:77] Creating layer lstm1_unit_193
I1017 11:44:32.038444 26100 net.cpp:84] Creating Layer lstm1_unit_193
I1017 11:44:32.038453 26100 net.cpp:406] lstm1_unit_193 <- c_192
I1017 11:44:32.038462 26100 net.cpp:406] lstm1_unit_193 <- gate_input_193
I1017 11:44:32.038470 26100 net.cpp:406] lstm1_unit_193 <- cont_193_lstm1_cont_slice_192_split_1
I1017 11:44:32.038477 26100 net.cpp:380] lstm1_unit_193 -> c_193
I1017 11:44:32.038487 26100 net.cpp:380] lstm1_unit_193 -> h_193
I1017 11:44:32.038544 26100 net.cpp:122] Setting up lstm1_unit_193
I1017 11:44:32.038553 26100 net.cpp:129] Top shape: 1 150 512 (76800)
I1017 11:44:32.038558 26100 net.cpp:129] Top shape: 1 150 512 (76800)
I1017 11:44:32.038563 26100 net.cpp:137] Memory required for data: 1275974400
I1017 11:44:32.038568 26100 layer_factory.hpp:77] Creating layer h_193_lstm1_unit_193_1_split
I1017 11:44:32.038574 26100 net.cpp:84] Creating Layer h_193_lstm1_unit_193_1_split
I1017 11:44:32.038581 26100 net.cpp:406] h_193_lstm1_unit_193_1_split <- h_193
I1017 11:44:32.038590 26100 net.cpp:380] h_193_lstm1_unit_193_1_split -> h_193_lstm1_unit_193_1_split_0
I1017 11:44:32.038600 26100 net.cpp:380] h_193_lstm1_unit_193_1_split -> h_193_lstm1_unit_193_1_split_1
I1017 11:44:32.038636 26100 net.cpp:122] Setting up h_193_lstm1_unit_193_1_split
I1017 11:44:32.038645 26100 net.cpp:129] Top shape: 1 150 512 (76800)
I1017 11:44:32.038650 26100 net.cpp:129] Top shape: 1 150 512 (76800)
I1017 11:44:32.038655 26100 net.cpp:137] Memory required for data: 1276588800
I1017 11:44:32.038658 26100 layer_factory.hpp:77] Creating layer lstm1_h_conted_193
I1017 11:44:32.038671 26100 net.cpp:84] Creating Layer lstm1_h_conted_193
I1017 11:44:32.038677 26100 net.cpp:406] lstm1_h_conted_193 <- h_193_lstm1_unit_193_1_split_0
I1017 11:44:32.038684 26100 net.cpp:406] lstm1_h_conted_193 <- cont_194_lstm1_cont_slice_193_split_0
I1017 11:44:32.038696 26100 net.cpp:380] lstm1_h_conted_193 -> h_conted_193
I1017 11:44:32.038821 26100 net.cpp:122] Setting up lstm1_h_conted_193
I1017 11:44:32.038831 26100 net.cpp:129] Top shape: 1 150 512 (76800)
I1017 11:44:32.038836 26100 net.cpp:137] Memory required for data: 1276896000
I1017 11:44:32.038841 26100 layer_factory.hpp:77] Creating layer lstm1_transform_194
I1017 11:44:32.038852 26100 net.cpp:84] Creating Layer lstm1_transform_194
I1017 11:44:32.038859 26100 net.cpp:406] lstm1_transform_194 <- h_conted_193
I1017 11:44:32.038867 26100 net.cpp:380] lstm1_transform_194 -> W_hc_h_193
I1017 11:44:32.053983 26100 net.cpp:122] Setting up lstm1_transform_194
I1017 11:44:32.054088 26100 net.cpp:129] Top shape: 1 150 2048 (307200)
I1017 11:44:32.054093 26100 net.cpp:137] Memory required for data: 1278124800
I1017 11:44:32.054098 26100 net.cpp:465] Sharing parameters 'W_hc' owned by layer 'lstm1_transform_1', param index 0
I1017 11:44:32.054105 26100 layer_factory.hpp:77] Creating layer lstm1_gate_input_194
I1017 11:44:32.054116 26100 net.cpp:84] Creating Layer lstm1_gate_input_194
I1017 11:44:32.054121 26100 net.cpp:406] lstm1_gate_input_194 <- W_hc_h_193
I1017 11:44:32.054129 26100 net.cpp:406] lstm1_gate_input_194 <- W_xc_x_194
I1017 11:44:32.054136 26100 net.cpp:380] lstm1_gate_input_194 -> gate_input_194
I1017 11:44:32.054169 26100 net.cpp:122] Setting up lstm1_gate_input_194
I1017 11:44:32.054179 26100 net.cpp:129] Top shape: 1 150 2048 (307200)
I1017 11:44:32.054183 26100 net.cpp:137] Memory required for data: 1279353600
I1017 11:44:32.054188 26100 layer_factory.hpp:77] Creating layer lstm1_unit_194
I1017 11:44:32.054194 26100 net.cpp:84] Creating Layer lstm1_unit_194
I1017 11:44:32.054219 26100 net.cpp:406] lstm1_unit_194 <- c_193
I1017 11:44:32.054260 26100 net.cpp:406] lstm1_unit_194 <- gate_input_194
I1017 11:44:32.054277 26100 net.cpp:406] lstm1_unit_194 <- cont_194_lstm1_cont_slice_193_split_1
I1017 11:44:32.054322 26100 net.cpp:380] lstm1_unit_194 -> c_194
I1017 11:44:32.054391 26100 net.cpp:380] lstm1_unit_194 -> h_194
I1017 11:44:32.054646 26100 net.cpp:122] Setting up lstm1_unit_194
I1017 11:44:32.054685 26100 net.cpp:129] Top shape: 1 150 512 (76800)
I1017 11:44:32.054705 26100 net.cpp:129] Top shape: 1 150 512 (76800)
I1017 11:44:32.054713 26100 net.cpp:137] Memory required for data: 1279968000
I1017 11:44:32.054723 26100 layer_factory.hpp:77] Creating layer h_194_lstm1_unit_194_1_split
I1017 11:44:32.054759 26100 net.cpp:84] Creating Layer h_194_lstm1_unit_194_1_split
I1017 11:44:32.054791 26100 net.cpp:406] h_194_lstm1_unit_194_1_split <- h_194
I1017 11:44:32.054836 26100 net.cpp:380] h_194_lstm1_unit_194_1_split -> h_194_lstm1_unit_194_1_split_0
I1017 11:44:32.054884 26100 net.cpp:380] h_194_lstm1_unit_194_1_split -> h_194_lstm1_unit_194_1_split_1
I1017 11:44:32.055075 26100 net.cpp:122] Setting up h_194_lstm1_unit_194_1_split
I1017 11:44:32.055120 26100 net.cpp:129] Top shape: 1 150 512 (76800)
I1017 11:44:32.055133 26100 net.cpp:129] Top shape: 1 150 512 (76800)
I1017 11:44:32.055150 26100 net.cpp:137] Memory required for data: 1280582400
I1017 11:44:32.055167 26100 layer_factory.hpp:77] Creating layer lstm1_h_conted_194
I1017 11:44:32.055282 26100 net.cpp:84] Creating Layer lstm1_h_conted_194
I1017 11:44:32.055325 26100 net.cpp:406] lstm1_h_conted_194 <- h_194_lstm1_unit_194_1_split_0
I1017 11:44:32.055387 26100 net.cpp:406] lstm1_h_conted_194 <- cont_195_lstm1_cont_slice_194_split_0
I1017 11:44:32.055428 26100 net.cpp:380] lstm1_h_conted_194 -> h_conted_194
I1017 11:44:32.055660 26100 net.cpp:122] Setting up lstm1_h_conted_194
I1017 11:44:32.055670 26100 net.cpp:129] Top shape: 1 150 512 (76800)
I1017 11:44:32.055675 26100 net.cpp:137] Memory required for data: 1280889600
I1017 11:44:32.055678 26100 layer_factory.hpp:77] Creating layer lstm1_transform_195
I1017 11:44:32.055691 26100 net.cpp:84] Creating Layer lstm1_transform_195
I1017 11:44:32.055696 26100 net.cpp:406] lstm1_transform_195 <- h_conted_194
I1017 11:44:32.055703 26100 net.cpp:380] lstm1_transform_195 -> W_hc_h_194
I1017 11:44:32.072034 26100 net.cpp:122] Setting up lstm1_transform_195
I1017 11:44:32.072067 26100 net.cpp:129] Top shape: 1 150 2048 (307200)
I1017 11:44:32.072072 26100 net.cpp:137] Memory required for data: 1282118400
I1017 11:44:32.072080 26100 net.cpp:465] Sharing parameters 'W_hc' owned by layer 'lstm1_transform_1', param index 0
I1017 11:44:32.072088 26100 layer_factory.hpp:77] Creating layer lstm1_gate_input_195
I1017 11:44:32.072103 26100 net.cpp:84] Creating Layer lstm1_gate_input_195
I1017 11:44:32.072115 26100 net.cpp:406] lstm1_gate_input_195 <- W_hc_h_194
I1017 11:44:32.072126 26100 net.cpp:406] lstm1_gate_input_195 <- W_xc_x_195
I1017 11:44:32.072140 26100 net.cpp:380] lstm1_gate_input_195 -> gate_input_195
I1017 11:44:32.072188 26100 net.cpp:122] Setting up lstm1_gate_input_195
I1017 11:44:32.072198 26100 net.cpp:129] Top shape: 1 150 2048 (307200)
I1017 11:44:32.072202 26100 net.cpp:137] Memory required for data: 1283347200
I1017 11:44:32.072206 26100 layer_factory.hpp:77] Creating layer lstm1_unit_195
I1017 11:44:32.072216 26100 net.cpp:84] Creating Layer lstm1_unit_195
I1017 11:44:32.072222 26100 net.cpp:406] lstm1_unit_195 <- c_194
I1017 11:44:32.072229 26100 net.cpp:406] lstm1_unit_195 <- gate_input_195
I1017 11:44:32.072237 26100 net.cpp:406] lstm1_unit_195 <- cont_195_lstm1_cont_slice_194_split_1
I1017 11:44:32.072244 26100 net.cpp:380] lstm1_unit_195 -> c_195
I1017 11:44:32.072257 26100 net.cpp:380] lstm1_unit_195 -> h_195
I1017 11:44:32.072312 26100 net.cpp:122] Setting up lstm1_unit_195
I1017 11:44:32.072321 26100 net.cpp:129] Top shape: 1 150 512 (76800)
I1017 11:44:32.072326 26100 net.cpp:129] Top shape: 1 150 512 (76800)
I1017 11:44:32.072331 26100 net.cpp:137] Memory required for data: 1283961600
I1017 11:44:32.072336 26100 layer_factory.hpp:77] Creating layer h_195_lstm1_unit_195_1_split
I1017 11:44:32.072343 26100 net.cpp:84] Creating Layer h_195_lstm1_unit_195_1_split
I1017 11:44:32.072348 26100 net.cpp:406] h_195_lstm1_unit_195_1_split <- h_195
I1017 11:44:32.072355 26100 net.cpp:380] h_195_lstm1_unit_195_1_split -> h_195_lstm1_unit_195_1_split_0
I1017 11:44:32.072363 26100 net.cpp:380] h_195_lstm1_unit_195_1_split -> h_195_lstm1_unit_195_1_split_1
I1017 11:44:32.072403 26100 net.cpp:122] Setting up h_195_lstm1_unit_195_1_split
I1017 11:44:32.072412 26100 net.cpp:129] Top shape: 1 150 512 (76800)
I1017 11:44:32.072417 26100 net.cpp:129] Top shape: 1 150 512 (76800)
I1017 11:44:32.072422 26100 net.cpp:137] Memory required for data: 1284576000
I1017 11:44:32.072427 26100 layer_factory.hpp:77] Creating layer lstm1_h_conted_195
I1017 11:44:32.072435 26100 net.cpp:84] Creating Layer lstm1_h_conted_195
I1017 11:44:32.072440 26100 net.cpp:406] lstm1_h_conted_195 <- h_195_lstm1_unit_195_1_split_0
I1017 11:44:32.072448 26100 net.cpp:406] lstm1_h_conted_195 <- cont_196_lstm1_cont_slice_195_split_0
I1017 11:44:32.072460 26100 net.cpp:380] lstm1_h_conted_195 -> h_conted_195
I1017 11:44:32.072600 26100 net.cpp:122] Setting up lstm1_h_conted_195
I1017 11:44:32.072610 26100 net.cpp:129] Top shape: 1 150 512 (76800)
I1017 11:44:32.072614 26100 net.cpp:137] Memory required for data: 1284883200
I1017 11:44:32.072619 26100 layer_factory.hpp:77] Creating layer lstm1_transform_196
I1017 11:44:32.072630 26100 net.cpp:84] Creating Layer lstm1_transform_196
I1017 11:44:32.072636 26100 net.cpp:406] lstm1_transform_196 <- h_conted_195
I1017 11:44:32.072646 26100 net.cpp:380] lstm1_transform_196 -> W_hc_h_195
I1017 11:44:32.086024 26100 net.cpp:122] Setting up lstm1_transform_196
I1017 11:44:32.086064 26100 net.cpp:129] Top shape: 1 150 2048 (307200)
I1017 11:44:32.086069 26100 net.cpp:137] Memory required for data: 1286112000
I1017 11:44:32.086083 26100 net.cpp:465] Sharing parameters 'W_hc' owned by layer 'lstm1_transform_1', param index 0
I1017 11:44:32.086089 26100 layer_factory.hpp:77] Creating layer lstm1_gate_input_196
I1017 11:44:32.086107 26100 net.cpp:84] Creating Layer lstm1_gate_input_196
I1017 11:44:32.086127 26100 net.cpp:406] lstm1_gate_input_196 <- W_hc_h_195
I1017 11:44:32.086143 26100 net.cpp:406] lstm1_gate_input_196 <- W_xc_x_196
I1017 11:44:32.086166 26100 net.cpp:380] lstm1_gate_input_196 -> gate_input_196
I1017 11:44:32.086220 26100 net.cpp:122] Setting up lstm1_gate_input_196
I1017 11:44:32.086230 26100 net.cpp:129] Top shape: 1 150 2048 (307200)
I1017 11:44:32.086235 26100 net.cpp:137] Memory required for data: 1287340800
I1017 11:44:32.086244 26100 layer_factory.hpp:77] Creating layer lstm1_unit_196
I1017 11:44:32.086257 26100 net.cpp:84] Creating Layer lstm1_unit_196
I1017 11:44:32.086272 26100 net.cpp:406] lstm1_unit_196 <- c_195
I1017 11:44:32.086284 26100 net.cpp:406] lstm1_unit_196 <- gate_input_196
I1017 11:44:32.086295 26100 net.cpp:406] lstm1_unit_196 <- cont_196_lstm1_cont_slice_195_split_1
I1017 11:44:32.086303 26100 net.cpp:380] lstm1_unit_196 -> c_196
I1017 11:44:32.086316 26100 net.cpp:380] lstm1_unit_196 -> h_196
I1017 11:44:32.086381 26100 net.cpp:122] Setting up lstm1_unit_196
I1017 11:44:32.086391 26100 net.cpp:129] Top shape: 1 150 512 (76800)
I1017 11:44:32.086398 26100 net.cpp:129] Top shape: 1 150 512 (76800)
I1017 11:44:32.086402 26100 net.cpp:137] Memory required for data: 1287955200
I1017 11:44:32.086407 26100 layer_factory.hpp:77] Creating layer lstm1_
I1017 11:44:32.086416 26100 net.cpp:84] Creating Layer lstm1_
I1017 11:44:32.086421 26100 net.cpp:406] lstm1_ <- c_196
I1017 11:44:32.086431 26100 net.cpp:380] lstm1_ -> c_T
I1017 11:44:32.086457 26100 net.cpp:122] Setting up lstm1_
I1017 11:44:32.086465 26100 net.cpp:129] Top shape: 1 150 512 (76800)
I1017 11:44:32.086469 26100 net.cpp:137] Memory required for data: 1288262400
I1017 11:44:32.086473 26100 layer_factory.hpp:77] Creating layer lstm1_h_concat
I1017 11:44:32.086504 26100 net.cpp:84] Creating Layer lstm1_h_concat
I1017 11:44:32.086513 26100 net.cpp:406] lstm1_h_concat <- h_1_lstm1_unit_1_1_split_1
I1017 11:44:32.086525 26100 net.cpp:406] lstm1_h_concat <- h_2_lstm1_unit_2_1_split_1
…
I1017 11:44:32.164181 26100 net.cpp:200] lstm1_ does not need backward computation.
I1017 11:44:32.164186 26100 net.cpp:242] This network produces output c_T
I1017 11:44:32.164193 26100 net.cpp:242] This network produces output h_pseudoloss
I1017 11:44:32.409274 26100 net.cpp:255] Network initialization done.
I1017 11:44:32.417326 26100 recurrent_layer.cpp:150] Adding parameter 0: W_xc
I1017 11:44:32.417351 26100 recurrent_layer.cpp:150] Adding parameter 1: b_c
I1017 11:44:32.417357 26100 recurrent_layer.cpp:150] Adding parameter 2: W_hc
I1017 11:44:32.435108 26100 net.cpp:122] Setting up lstm1
I1017 11:44:32.435166 26100 net.cpp:129] Top shape: 196 150 512 (15052800)
I1017 11:44:32.435173 26100 net.cpp:137] Memory required for data: 17394453000
I1017 11:44:32.435214 26100 layer_factory.hpp:77] Creating layer lstm1-drop
I1017 11:44:32.435233 26100 net.cpp:84] Creating Layer lstm1-drop
I1017 11:44:32.435245 26100 net.cpp:406] lstm1-drop <- lstm1
I1017 11:44:32.435266 26100 net.cpp:380] lstm1-drop -> lstm1-drop
I1017 11:44:32.435354 26100 net.cpp:122] Setting up lstm1-drop
I1017 11:44:32.435365 26100 net.cpp:129] Top shape: 196 150 512 (15052800)
I1017 11:44:32.435370 26100 net.cpp:137] Memory required for data: 17454664200
I1017 11:44:32.435375 26100 layer_factory.hpp:77] Creating layer fc-final
I1017 11:44:32.435394 26100 net.cpp:84] Creating Layer fc-final
I1017 11:44:32.435401 26100 net.cpp:406] fc-final <- lstm1-drop
I1017 11:44:32.435415 26100 net.cpp:380] fc-final -> fc-final
I1017 11:44:32.435973 26100 net.cpp:122] Setting up fc-final
I1017 11:44:32.435987 26100 net.cpp:129] Top shape: 196 150 10 (294000)
I1017 11:44:32.435993 26100 net.cpp:137] Memory required for data: 17455840200
I1017 11:44:32.436002 26100 layer_factory.hpp:77] Creating layer fc-final_fc-final_0_split
I1017 11:44:32.436013 26100 net.cpp:84] Creating Layer fc-final_fc-final_0_split
I1017 11:44:32.436019 26100 net.cpp:406] fc-final_fc-final_0_split <- fc-final
I1017 11:44:32.436034 26100 net.cpp:380] fc-final_fc-final_0_split -> fc-final_fc-final_0_split_0
I1017 11:44:32.436045 26100 net.cpp:380] fc-final_fc-final_0_split -> fc-final_fc-final_0_split_1
I1017 11:44:32.436098 26100 net.cpp:122] Setting up fc-final_fc-final_0_split
I1017 11:44:32.436108 26100 net.cpp:129] Top shape: 196 150 10 (294000)
I1017 11:44:32.436115 26100 net.cpp:129] Top shape: 196 150 10 (294000)
I1017 11:44:32.436120 26100 net.cpp:137] Memory required for data: 17458192200
I1017 11:44:32.436125 26100 layer_factory.hpp:77] Creating layer loss
I1017 11:44:32.436136 26100 net.cpp:84] Creating Layer loss
I1017 11:44:32.436141 26100 net.cpp:406] loss <- fc-final_fc-final_0_split_0
I1017 11:44:32.436151 26100 net.cpp:406] loss <- reshape-label_label_tran_0_split_0
I1017 11:44:32.436161 26100 net.cpp:380] loss -> loss
…
