…
I1018 00:02:22.766897 29731 net.cpp:294] The NetState phase (0) differed from the phase (1) specified by a rule in layer Silence
I1018 00:02:22.767113 29731 net.cpp:51] Initializing net from parameters: 
name: "VGG-Places365"
state {
  phase: TRAIN
  level: 0
  stage: ""
}
layer {
  name: "data"
  type: "ImageData"
  top: "data"
  top: "label"
  include {
    phase: TRAIN
  }
  transform_param {
    mirror: true
    crop_size: 224
    mean_value: 104
    mean_value: 117
    mean_value: 123
  }
  image_data_param {
    source: "../Data/lsun_train_list_12w.txt"
    batch_size: 5
    shuffle: true
    new_height: 256
    new_width: 256
  }
}
layer {
  name: "label_tran"
  type: "Python"
  bottom: "label"
  top: "reshape-label"
  top: "clip_markers"
  python_param {
    module: "data_preparation_sort_max_clip"
    layer: "ReshapeLabel"
  }
}
layer {
  name: "conv1_1"
  type: "Convolution"
  bottom: "data"
  top: "conv1_1"
  convolution_param {
    num_output: 64
    pad: 1
    kernel_size: 3
  }
}
layer {
  name: "relu1_1"
  type: "ReLU"
  bottom: "conv1_1"
  top: "conv1_1"
}
layer {
  name: "conv1_2"
  type: "Convolution"
  bottom: "conv1_1"
  top: "conv1_2"
  convolution_param {
    num_output: 64
    pad: 1
    kernel_size: 3
  }
}
layer {
  name: "relu1_2"
  type: "ReLU"
  bottom: "conv1_2"
  top: "conv1_2"
}
layer {
  name: "pool1"
  type: "Pooling"
  bottom: "conv1_2"
  top: "pool1"
  pooling_param {
    pool: MAX
    kernel_size: 2
    stride: 2
  }
}
layer {
  name: "conv2_1"
  type: "Convolution"
  bottom: "pool1"
  top: "conv2_1"
  convolution_param {
    num_output: 128
    pad: 1
    kernel_size: 3
  }
}
layer {
  name: "relu2_1"
  type: "ReLU"
  bottom: "conv2_1"
  top: "conv2_1"
}
layer {
  name: "conv2_2"
  type: "Convolution"
  bottom: "conv2_1"
  top: "conv2_2"
  convolution_param {
    num_output: 128
    pad: 1
    kernel_size: 3
  }
}
layer {
  name: "relu2_2"
  type: "ReLU"
  bottom: "conv2_2"
  top: "conv2_2"
}
layer {
  name: "pool2"
  type: "Pooling"
  bottom: "conv2_2"
  top: "pool2"
  pooling_param {
    pool: MAX
    kernel_size: 2
    stride: 2
  }
}
layer {
  name: "conv3_1"
  type: "Convolution"
  bottom: "pool2"
  top: "conv3_1"
  convolution_param {
    num_output: 256
    pad: 1
    kernel_size: 3
  }
}
layer {
  name: "relu3_1"
  type: "ReLU"
  bottom: "conv3_1"
  top: "conv3_1"
}
layer {
  name: "conv3_2"
  type: "Convolution"
  bottom: "conv3_1"
  top: "conv3_2"
  convolution_param {
    num_output: 256
    pad: 1
    kernel_size: 3
  }
}
layer {
  name: "relu3_2"
  type: "ReLU"
  bottom: "conv3_2"
  top: "conv3_2"
}
layer {
  name: "conv3_3"
  type: "Convolution"
  bottom: "conv3_2"
  top: "conv3_3"
  convolution_param {
    num_output: 256
    pad: 1
    kernel_size: 3
  }
}
layer {
  name: "relu3_3"
  type: "ReLU"
  bottom: "conv3_3"
  top: "conv3_3"
}
layer {
  name: "pool3"
  type: "Pooling"
  bottom: "conv3_3"
  top: "pool3"
  pooling_param {
    pool: MAX
    kernel_size: 2
    stride: 2
  }
}
layer {
  name: "conv4_1"
  type: "Convolution"
  bottom: "pool3"
  top: "conv4_1"
  convolution_param {
    num_output: 512
    pad: 1
    kernel_size: 3
  }
}
layer {
  name: "relu4_1"
  type: "ReLU"
  bottom: "conv4_1"
  top: "conv4_1"
}
layer {
  name: "conv4_2"
  type: "Convolution"
  bottom: "conv4_1"
  top: "conv4_2"
  convolution_param {
    num_output: 512
    pad: 1
    kernel_size: 3
  }
}
layer {
  name: "relu4_2"
  type: "ReLU"
  bottom: "conv4_2"
  top: "conv4_2"
}
layer {
  name: "conv4_3"
  type: "Convolution"
  bottom: "conv4_2"
  top: "conv4_3"
  convolution_param {
    num_output: 512
    pad: 1
    kernel_size: 3
  }
}
layer {
  name: "relu4_3"
  type: "ReLU"
  bottom: "conv4_3"
  top: "conv4_3"
}
layer {
  name: "pool4"
  type: "Pooling"
  bottom: "conv4_3"
  top: "pool4"
  pooling_param {
    pool: MAX
    kernel_size: 2
    stride: 2
  }
}
layer {
  name: "conv5_1"
  type: "Convolution"
  bottom: "pool4"
  top: "conv5_1"
  convolution_param {
    num_output: 512
    pad: 1
    kernel_size: 3
  }
}
layer {
  name: "relu5_1"
  type: "ReLU"
  bottom: "conv5_1"
  top: "conv5_1"
}
layer {
  name: "conv5_2"
  type: "Convolution"
  bottom: "conv5_1"
  top: "conv5_2"
  convolution_param {
    num_output: 512
    pad: 1
    kernel_size: 3
  }
}
layer {
  name: "relu5_2"
  type: "ReLU"
  bottom: "conv5_2"
  top: "conv5_2"
}
layer {
  name: "conv5_3"
  type: "Convolution"
  bottom: "conv5_2"
  top: "conv5_3"
  convolution_param {
    num_output: 512
    pad: 1
    kernel_size: 3
  }
}
layer {
  name: "relu5_3"
  type: "ReLU"
  bottom: "conv5_3"
  top: "conv5_3"
}
layer {
  name: "conv5_3_re"
  type: "Reshape"
  bottom: "conv5_3"
  top: "conv5_3_re"
  reshape_param {
    shape {
      dim: 0
      dim: 0
      dim: -1
    }
  }
}
layer {
  name: "conv5_3_tran"
  type: "Python"
  bottom: "conv5_3_re"
  top: "conv5_3_tran"
  python_param {
    module: "data_preparation_sort_max_clip"
    layer: "DataTransposeSortMaxClip"
  }
}
layer {
  name: "lstm1"
  type: "LSTM"
  bottom: "conv5_3_tran"
  bottom: "clip_markers"
  top: "lstm1"
  recurrent_param {
    num_output: 512
    weight_filler {
      type: "uniform"
      min: -0.01
      max: 0.01
    }
    bias_filler {
      type: "constant"
      value: 0
    }
  }
}
layer {
  name: "lstm1-drop"
  type: "Dropout"
  bottom: "lstm1"
  top: "lstm1-drop"
  dropout_param {
    dropout_ratio: 0.5
  }
}
layer {
  name: "fc-final"
  type: "InnerProduct"
  bottom: "lstm1-drop"
  top: "fc-final"
  param {
    lr_mult: 1
    decay_mult: 1
  }
  param {
    lr_mult: 2
    decay_mult: 0
  }
  inner_product_param {
    num_output: 10
    weight_filler {
      type: "gaussian"
      std: 0.01
    }
    bias_filler {
      type: "constant"
      value: 0
    }
    axis: 2
  }
}
layer {
  name: "loss"
  type: "SoftmaxWithLoss"
  bottom: "fc-final"
  bottom: "reshape-label"
  top: "loss"
  softmax_param {
    axis: 2
  }
}
layer {
  name: "accuracy"
  type: "Accuracy"
  bottom: "fc-final"
  bottom: "reshape-label"
  top: "accuracy"
  accuracy_param {
    axis: 2
  }
}
I1018 00:02:22.767325 29731 layer_factory.hpp:77] Creating layer data
I1018 00:02:22.767385 29731 net.cpp:84] Creating Layer data
I1018 00:02:22.767398 29731 net.cpp:380] data -> data
I1018 00:02:22.767449 29731 net.cpp:380] data -> label
I1018 00:02:22.767482 29731 image_data_layer.cpp:38] Opening file ../Data/lsun_train_list_12w.txt
I1018 00:02:23.303681 29731 image_data_layer.cpp:53] Shuffling data
I1018 00:02:23.593997 29731 image_data_layer.cpp:63] A total of 1200000 images.
I1018 00:02:23.598858 29731 image_data_layer.cpp:90] output data size: 5,3,224,224
I1018 00:02:23.610198 29731 net.cpp:122] Setting up data
I1018 00:02:23.610319 29731 net.cpp:129] Top shape: 5 3 224 224 (752640)
I1018 00:02:23.610368 29731 net.cpp:129] Top shape: 5 (5)
I1018 00:02:23.610380 29731 net.cpp:137] Memory required for data: 3010580
I1018 00:02:23.610429 29731 layer_factory.hpp:77] Creating layer label_tran
I1018 00:02:24.251128 29731 net.cpp:84] Creating Layer label_tran
I1018 00:02:24.251188 29731 net.cpp:406] label_tran <- label
I1018 00:02:24.251214 29731 net.cpp:380] label_tran -> reshape-label
I1018 00:02:24.251227 29731 net.cpp:380] label_tran -> clip_markers
I1018 00:02:24.251505 29731 net.cpp:122] Setting up label_tran
I1018 00:02:24.251523 29731 net.cpp:129] Top shape: 32 5 (160)
I1018 00:02:24.251540 29731 net.cpp:129] Top shape: 32 5 (160)
I1018 00:02:24.251544 29731 net.cpp:137] Memory required for data: 3011860
I1018 00:02:24.251562 29731 layer_factory.hpp:77] Creating layer reshape-label_label_tran_0_split
I1018 00:02:24.251586 29731 net.cpp:84] Creating Layer reshape-label_label_tran_0_split
I1018 00:02:24.251591 29731 net.cpp:406] reshape-label_label_tran_0_split <- reshape-label
I1018 00:02:24.251597 29731 net.cpp:380] reshape-label_label_tran_0_split -> reshape-label_label_tran_0_split_0
I1018 00:02:24.251606 29731 net.cpp:380] reshape-label_label_tran_0_split -> reshape-label_label_tran_0_split_1
I1018 00:02:24.251654 29731 net.cpp:122] Setting up reshape-label_label_tran_0_split
I1018 00:02:24.251662 29731 net.cpp:129] Top shape: 32 5 (160)
I1018 00:02:24.251667 29731 net.cpp:129] Top shape: 32 5 (160)
I1018 00:02:24.251670 29731 net.cpp:137] Memory required for data: 3013140
I1018 00:02:24.251675 29731 layer_factory.hpp:77] Creating layer conv1_1
I1018 00:02:24.251695 29731 net.cpp:84] Creating Layer conv1_1
I1018 00:02:24.251700 29731 net.cpp:406] conv1_1 <- data
I1018 00:02:24.251706 29731 net.cpp:380] conv1_1 -> conv1_1
I1018 00:02:24.253705 29731 net.cpp:122] Setting up conv1_1
I1018 00:02:24.253734 29731 net.cpp:129] Top shape: 5 64 224 224 (16056320)
I1018 00:02:24.253739 29731 net.cpp:137] Memory required for data: 67238420
I1018 00:02:24.253764 29731 layer_factory.hpp:77] Creating layer relu1_1
I1018 00:02:24.253777 29731 net.cpp:84] Creating Layer relu1_1
I1018 00:02:24.253782 29731 net.cpp:406] relu1_1 <- conv1_1
I1018 00:02:24.253787 29731 net.cpp:367] relu1_1 -> conv1_1 (in-place)
I1018 00:02:24.253799 29731 net.cpp:122] Setting up relu1_1
I1018 00:02:24.253804 29731 net.cpp:129] Top shape: 5 64 224 224 (16056320)
I1018 00:02:24.253808 29731 net.cpp:137] Memory required for data: 131463700
I1018 00:02:24.253813 29731 layer_factory.hpp:77] Creating layer conv1_2
I1018 00:02:24.253821 29731 net.cpp:84] Creating Layer conv1_2
I1018 00:02:24.253825 29731 net.cpp:406] conv1_2 <- conv1_1
I1018 00:02:24.253830 29731 net.cpp:380] conv1_2 -> conv1_2
I1018 00:02:24.254079 29731 net.cpp:122] Setting up conv1_2
I1018 00:02:24.254092 29731 net.cpp:129] Top shape: 5 64 224 224 (16056320)
I1018 00:02:24.254097 29731 net.cpp:137] Memory required for data: 195688980
I1018 00:02:24.254106 29731 layer_factory.hpp:77] Creating layer relu1_2
I1018 00:02:24.254113 29731 net.cpp:84] Creating Layer relu1_2
I1018 00:02:24.254118 29731 net.cpp:406] relu1_2 <- conv1_2
I1018 00:02:24.254123 29731 net.cpp:367] relu1_2 -> conv1_2 (in-place)
I1018 00:02:24.254129 29731 net.cpp:122] Setting up relu1_2
I1018 00:02:24.254135 29731 net.cpp:129] Top shape: 5 64 224 224 (16056320)
I1018 00:02:24.254138 29731 net.cpp:137] Memory required for data: 259914260
I1018 00:02:24.254142 29731 layer_factory.hpp:77] Creating layer pool1
I1018 00:02:24.254153 29731 net.cpp:84] Creating Layer pool1
I1018 00:02:24.254158 29731 net.cpp:406] pool1 <- conv1_2
I1018 00:02:24.254163 29731 net.cpp:380] pool1 -> pool1
I1018 00:02:24.254209 29731 net.cpp:122] Setting up pool1
I1018 00:02:24.254216 29731 net.cpp:129] Top shape: 5 64 112 112 (4014080)
I1018 00:02:24.254220 29731 net.cpp:137] Memory required for data: 275970580
I1018 00:02:24.254225 29731 layer_factory.hpp:77] Creating layer conv2_1
I1018 00:02:24.254235 29731 net.cpp:84] Creating Layer conv2_1
I1018 00:02:24.254240 29731 net.cpp:406] conv2_1 <- pool1
I1018 00:02:24.254246 29731 net.cpp:380] conv2_1 -> conv2_1
I1018 00:02:24.256208 29731 net.cpp:122] Setting up conv2_1
I1018 00:02:24.256237 29731 net.cpp:129] Top shape: 5 128 112 112 (8028160)
I1018 00:02:24.256242 29731 net.cpp:137] Memory required for data: 308083220
I1018 00:02:24.256253 29731 layer_factory.hpp:77] Creating layer relu2_1
I1018 00:02:24.256261 29731 net.cpp:84] Creating Layer relu2_1
I1018 00:02:24.256266 29731 net.cpp:406] relu2_1 <- conv2_1
I1018 00:02:24.256273 29731 net.cpp:367] relu2_1 -> conv2_1 (in-place)
I1018 00:02:24.256281 29731 net.cpp:122] Setting up relu2_1
I1018 00:02:24.256287 29731 net.cpp:129] Top shape: 5 128 112 112 (8028160)
I1018 00:02:24.256291 29731 net.cpp:137] Memory required for data: 340195860
I1018 00:02:24.256295 29731 layer_factory.hpp:77] Creating layer conv2_2
I1018 00:02:24.256306 29731 net.cpp:84] Creating Layer conv2_2
I1018 00:02:24.256310 29731 net.cpp:406] conv2_2 <- conv2_1
I1018 00:02:24.256316 29731 net.cpp:380] conv2_2 -> conv2_2
I1018 00:02:24.256626 29731 net.cpp:122] Setting up conv2_2
I1018 00:02:24.256649 29731 net.cpp:129] Top shape: 5 128 112 112 (8028160)
I1018 00:02:24.256664 29731 net.cpp:137] Memory required for data: 372308500
I1018 00:02:24.256671 29731 layer_factory.hpp:77] Creating layer relu2_2
I1018 00:02:24.256677 29731 net.cpp:84] Creating Layer relu2_2
I1018 00:02:24.256682 29731 net.cpp:406] relu2_2 <- conv2_2
I1018 00:02:24.256688 29731 net.cpp:367] relu2_2 -> conv2_2 (in-place)
I1018 00:02:24.256695 29731 net.cpp:122] Setting up relu2_2
I1018 00:02:24.256700 29731 net.cpp:129] Top shape: 5 128 112 112 (8028160)
I1018 00:02:24.256703 29731 net.cpp:137] Memory required for data: 404421140
I1018 00:02:24.256706 29731 layer_factory.hpp:77] Creating layer pool2
I1018 00:02:24.256712 29731 net.cpp:84] Creating Layer pool2
I1018 00:02:24.256716 29731 net.cpp:406] pool2 <- conv2_2
I1018 00:02:24.256721 29731 net.cpp:380] pool2 -> pool2
I1018 00:02:24.256753 29731 net.cpp:122] Setting up pool2
I1018 00:02:24.256760 29731 net.cpp:129] Top shape: 5 128 56 56 (2007040)
I1018 00:02:24.256763 29731 net.cpp:137] Memory required for data: 412449300
I1018 00:02:24.256769 29731 layer_factory.hpp:77] Creating layer conv3_1
I1018 00:02:24.256777 29731 net.cpp:84] Creating Layer conv3_1
I1018 00:02:24.256780 29731 net.cpp:406] conv3_1 <- pool2
I1018 00:02:24.256786 29731 net.cpp:380] conv3_1 -> conv3_1
I1018 00:02:24.257911 29731 net.cpp:122] Setting up conv3_1
I1018 00:02:24.257926 29731 net.cpp:129] Top shape: 5 256 56 56 (4014080)
I1018 00:02:24.257942 29731 net.cpp:137] Memory required for data: 428505620
I1018 00:02:24.257952 29731 layer_factory.hpp:77] Creating layer relu3_1
I1018 00:02:24.257961 29731 net.cpp:84] Creating Layer relu3_1
I1018 00:02:24.257966 29731 net.cpp:406] relu3_1 <- conv3_1
I1018 00:02:24.257972 29731 net.cpp:367] relu3_1 -> conv3_1 (in-place)
I1018 00:02:24.257979 29731 net.cpp:122] Setting up relu3_1
I1018 00:02:24.257984 29731 net.cpp:129] Top shape: 5 256 56 56 (4014080)
I1018 00:02:24.257987 29731 net.cpp:137] Memory required for data: 444561940
I1018 00:02:24.257992 29731 layer_factory.hpp:77] Creating layer conv3_2
I1018 00:02:24.257998 29731 net.cpp:84] Creating Layer conv3_2
I1018 00:02:24.258002 29731 net.cpp:406] conv3_2 <- conv3_1
I1018 00:02:24.258008 29731 net.cpp:380] conv3_2 -> conv3_2
I1018 00:02:24.259934 29731 net.cpp:122] Setting up conv3_2
I1018 00:02:24.259949 29731 net.cpp:129] Top shape: 5 256 56 56 (4014080)
I1018 00:02:24.259966 29731 net.cpp:137] Memory required for data: 460618260
I1018 00:02:24.259974 29731 layer_factory.hpp:77] Creating layer relu3_2
I1018 00:02:24.259982 29731 net.cpp:84] Creating Layer relu3_2
I1018 00:02:24.259987 29731 net.cpp:406] relu3_2 <- conv3_2
I1018 00:02:24.259999 29731 net.cpp:367] relu3_2 -> conv3_2 (in-place)
I1018 00:02:24.260006 29731 net.cpp:122] Setting up relu3_2
I1018 00:02:24.260012 29731 net.cpp:129] Top shape: 5 256 56 56 (4014080)
I1018 00:02:24.260016 29731 net.cpp:137] Memory required for data: 476674580
I1018 00:02:24.260022 29731 layer_factory.hpp:77] Creating layer conv3_3
I1018 00:02:24.260057 29731 net.cpp:84] Creating Layer conv3_3
I1018 00:02:24.260063 29731 net.cpp:406] conv3_3 <- conv3_2
I1018 00:02:24.260072 29731 net.cpp:380] conv3_3 -> conv3_3
I1018 00:02:24.261940 29731 net.cpp:122] Setting up conv3_3
I1018 00:02:24.261966 29731 net.cpp:129] Top shape: 5 256 56 56 (4014080)
I1018 00:02:24.261971 29731 net.cpp:137] Memory required for data: 492730900
I1018 00:02:24.261978 29731 layer_factory.hpp:77] Creating layer relu3_3
I1018 00:02:24.261986 29731 net.cpp:84] Creating Layer relu3_3
I1018 00:02:24.261991 29731 net.cpp:406] relu3_3 <- conv3_3
I1018 00:02:24.261998 29731 net.cpp:367] relu3_3 -> conv3_3 (in-place)
I1018 00:02:24.262006 29731 net.cpp:122] Setting up relu3_3
I1018 00:02:24.262012 29731 net.cpp:129] Top shape: 5 256 56 56 (4014080)
I1018 00:02:24.262014 29731 net.cpp:137] Memory required for data: 508787220
I1018 00:02:24.262018 29731 layer_factory.hpp:77] Creating layer pool3
I1018 00:02:24.262024 29731 net.cpp:84] Creating Layer pool3
I1018 00:02:24.262028 29731 net.cpp:406] pool3 <- conv3_3
I1018 00:02:24.262035 29731 net.cpp:380] pool3 -> pool3
I1018 00:02:24.262070 29731 net.cpp:122] Setting up pool3
I1018 00:02:24.262079 29731 net.cpp:129] Top shape: 5 256 28 28 (1003520)
I1018 00:02:24.262082 29731 net.cpp:137] Memory required for data: 512801300
I1018 00:02:24.262086 29731 layer_factory.hpp:77] Creating layer conv4_1
I1018 00:02:24.262095 29731 net.cpp:84] Creating Layer conv4_1
I1018 00:02:24.262099 29731 net.cpp:406] conv4_1 <- pool3
I1018 00:02:24.262107 29731 net.cpp:380] conv4_1 -> conv4_1
I1018 00:02:24.265859 29731 net.cpp:122] Setting up conv4_1
I1018 00:02:24.265887 29731 net.cpp:129] Top shape: 5 512 28 28 (2007040)
I1018 00:02:24.265892 29731 net.cpp:137] Memory required for data: 520829460
I1018 00:02:24.265900 29731 layer_factory.hpp:77] Creating layer relu4_1
I1018 00:02:24.265909 29731 net.cpp:84] Creating Layer relu4_1
I1018 00:02:24.265913 29731 net.cpp:406] relu4_1 <- conv4_1
I1018 00:02:24.265920 29731 net.cpp:367] relu4_1 -> conv4_1 (in-place)
I1018 00:02:24.265928 29731 net.cpp:122] Setting up relu4_1
I1018 00:02:24.265933 29731 net.cpp:129] Top shape: 5 512 28 28 (2007040)
I1018 00:02:24.265941 29731 net.cpp:137] Memory required for data: 528857620
I1018 00:02:24.265957 29731 layer_factory.hpp:77] Creating layer conv4_2
I1018 00:02:24.265967 29731 net.cpp:84] Creating Layer conv4_2
I1018 00:02:24.265971 29731 net.cpp:406] conv4_2 <- conv4_1
I1018 00:02:24.265980 29731 net.cpp:380] conv4_2 -> conv4_2
I1018 00:02:24.271982 29731 net.cpp:122] Setting up conv4_2
I1018 00:02:24.272007 29731 net.cpp:129] Top shape: 5 512 28 28 (2007040)
I1018 00:02:24.272012 29731 net.cpp:137] Memory required for data: 536885780
I1018 00:02:24.272034 29731 layer_factory.hpp:77] Creating layer relu4_2
I1018 00:02:24.272043 29731 net.cpp:84] Creating Layer relu4_2
I1018 00:02:24.272048 29731 net.cpp:406] relu4_2 <- conv4_2
I1018 00:02:24.272055 29731 net.cpp:367] relu4_2 -> conv4_2 (in-place)
I1018 00:02:24.272064 29731 net.cpp:122] Setting up relu4_2
I1018 00:02:24.272070 29731 net.cpp:129] Top shape: 5 512 28 28 (2007040)
I1018 00:02:24.272074 29731 net.cpp:137] Memory required for data: 544913940
I1018 00:02:24.272078 29731 layer_factory.hpp:77] Creating layer conv4_3
I1018 00:02:24.272089 29731 net.cpp:84] Creating Layer conv4_3
I1018 00:02:24.272092 29731 net.cpp:406] conv4_3 <- conv4_2
I1018 00:02:24.272099 29731 net.cpp:380] conv4_3 -> conv4_3
I1018 00:02:24.277837 29731 net.cpp:122] Setting up conv4_3
I1018 00:02:24.277873 29731 net.cpp:129] Top shape: 5 512 28 28 (2007040)
I1018 00:02:24.277878 29731 net.cpp:137] Memory required for data: 552942100
I1018 00:02:24.277887 29731 layer_factory.hpp:77] Creating layer relu4_3
I1018 00:02:24.277901 29731 net.cpp:84] Creating Layer relu4_3
I1018 00:02:24.277907 29731 net.cpp:406] relu4_3 <- conv4_3
I1018 00:02:24.277915 29731 net.cpp:367] relu4_3 -> conv4_3 (in-place)
I1018 00:02:24.277926 29731 net.cpp:122] Setting up relu4_3
I1018 00:02:24.277931 29731 net.cpp:129] Top shape: 5 512 28 28 (2007040)
I1018 00:02:24.277935 29731 net.cpp:137] Memory required for data: 560970260
I1018 00:02:24.277940 29731 layer_factory.hpp:77] Creating layer pool4
I1018 00:02:24.277948 29731 net.cpp:84] Creating Layer pool4
I1018 00:02:24.277952 29731 net.cpp:406] pool4 <- conv4_3
I1018 00:02:24.277959 29731 net.cpp:380] pool4 -> pool4
I1018 00:02:24.278002 29731 net.cpp:122] Setting up pool4
I1018 00:02:24.278007 29731 net.cpp:129] Top shape: 5 512 14 14 (501760)
I1018 00:02:24.278012 29731 net.cpp:137] Memory required for data: 562977300
I1018 00:02:24.278017 29731 layer_factory.hpp:77] Creating layer conv5_1
I1018 00:02:24.278024 29731 net.cpp:84] Creating Layer conv5_1
I1018 00:02:24.278028 29731 net.cpp:406] conv5_1 <- pool4
I1018 00:02:24.278036 29731 net.cpp:380] conv5_1 -> conv5_1
I1018 00:02:24.284369 29731 net.cpp:122] Setting up conv5_1
I1018 00:02:24.284409 29731 net.cpp:129] Top shape: 5 512 14 14 (501760)
I1018 00:02:24.284413 29731 net.cpp:137] Memory required for data: 564984340
I1018 00:02:24.284425 29731 layer_factory.hpp:77] Creating layer relu5_1
I1018 00:02:24.284438 29731 net.cpp:84] Creating Layer relu5_1
I1018 00:02:24.284446 29731 net.cpp:406] relu5_1 <- conv5_1
I1018 00:02:24.284457 29731 net.cpp:367] relu5_1 -> conv5_1 (in-place)
I1018 00:02:24.284468 29731 net.cpp:122] Setting up relu5_1
I1018 00:02:24.284474 29731 net.cpp:129] Top shape: 5 512 14 14 (501760)
I1018 00:02:24.284478 29731 net.cpp:137] Memory required for data: 566991380
I1018 00:02:24.284483 29731 layer_factory.hpp:77] Creating layer conv5_2
I1018 00:02:24.284493 29731 net.cpp:84] Creating Layer conv5_2
I1018 00:02:24.284497 29731 net.cpp:406] conv5_2 <- conv5_1
I1018 00:02:24.284503 29731 net.cpp:380] conv5_2 -> conv5_2
I1018 00:02:24.300498 29731 net.cpp:122] Setting up conv5_2
I1018 00:02:24.301120 29731 net.cpp:129] Top shape: 5 512 14 14 (501760)
I1018 00:02:24.301194 29731 net.cpp:137] Memory required for data: 568998420
I1018 00:02:24.301323 29731 layer_factory.hpp:77] Creating layer relu5_2
I1018 00:02:24.301569 29731 net.cpp:84] Creating Layer relu5_2
I1018 00:02:24.301628 29731 net.cpp:406] relu5_2 <- conv5_2
I1018 00:02:24.301646 29731 net.cpp:367] relu5_2 -> conv5_2 (in-place)
I1018 00:02:24.301659 29731 net.cpp:122] Setting up relu5_2
I1018 00:02:24.301676 29731 net.cpp:129] Top shape: 5 512 14 14 (501760)
I1018 00:02:24.301679 29731 net.cpp:137] Memory required for data: 571005460
I1018 00:02:24.301683 29731 layer_factory.hpp:77] Creating layer conv5_3
I1018 00:02:24.301694 29731 net.cpp:84] Creating Layer conv5_3
I1018 00:02:24.301699 29731 net.cpp:406] conv5_3 <- conv5_2
I1018 00:02:24.301708 29731 net.cpp:380] conv5_3 -> conv5_3
I1018 00:02:24.313431 29731 net.cpp:122] Setting up conv5_3
I1018 00:02:24.313467 29731 net.cpp:129] Top shape: 5 512 14 14 (501760)
I1018 00:02:24.313472 29731 net.cpp:137] Memory required for data: 573012500
I1018 00:02:24.313485 29731 layer_factory.hpp:77] Creating layer relu5_3
I1018 00:02:24.313508 29731 net.cpp:84] Creating Layer relu5_3
I1018 00:02:24.313514 29731 net.cpp:406] relu5_3 <- conv5_3
I1018 00:02:24.313524 29731 net.cpp:367] relu5_3 -> conv5_3 (in-place)
I1018 00:02:24.313536 29731 net.cpp:122] Setting up relu5_3
I1018 00:02:24.313542 29731 net.cpp:129] Top shape: 5 512 14 14 (501760)
I1018 00:02:24.313546 29731 net.cpp:137] Memory required for data: 575019540
I1018 00:02:24.313550 29731 layer_factory.hpp:77] Creating layer conv5_3_re
I1018 00:02:24.313566 29731 net.cpp:84] Creating Layer conv5_3_re
I1018 00:02:24.313570 29731 net.cpp:406] conv5_3_re <- conv5_3
I1018 00:02:24.313580 29731 net.cpp:380] conv5_3_re -> conv5_3_re
I1018 00:02:24.313633 29731 net.cpp:122] Setting up conv5_3_re
I1018 00:02:24.313640 29731 net.cpp:129] Top shape: 5 512 196 (501760)
I1018 00:02:24.313644 29731 net.cpp:137] Memory required for data: 577026580
I1018 00:02:24.313648 29731 layer_factory.hpp:77] Creating layer conv5_3_tran
I1018 00:02:24.313721 29731 net.cpp:84] Creating Layer conv5_3_tran
I1018 00:02:24.313731 29731 net.cpp:406] conv5_3_tran <- conv5_3_re
I1018 00:02:24.313738 29731 net.cpp:380] conv5_3_tran -> conv5_3_tran
I1018 00:02:24.315129 29731 net.cpp:122] Setting up conv5_3_tran
I1018 00:02:24.315145 29731 net.cpp:129] Top shape: 32 5 512 (81920)
I1018 00:02:24.315150 29731 net.cpp:137] Memory required for data: 577354260
I1018 00:02:24.315156 29731 layer_factory.hpp:77] Creating layer lstm1
I1018 00:02:24.315174 29731 net.cpp:84] Creating Layer lstm1
I1018 00:02:24.315179 29731 net.cpp:406] lstm1 <- conv5_3_tran
I1018 00:02:24.315186 29731 net.cpp:406] lstm1 <- clip_markers
I1018 00:02:24.315196 29731 net.cpp:380] lstm1 -> lstm1
I1018 00:02:24.315212 29731 recurrent_layer.cpp:20] Initializing recurrent layer: assuming input batch contains 32 timesteps of 5 independent streams.
I1018 00:02:24.316540 29731 net.cpp:51] Initializing net from parameters: 
layer {
  name: "lstm1_"
  type: "Input"
  top: "x"
  top: "cont"
  input_param {
    shape {
      dim: 32
      dim: 5
      dim: 512
    }
    shape {
      dim: 32
      dim: 5
    }
  }
}
layer {
  name: "lstm1_"
  type: "Input"
  top: "c_0"
  top: "h_0"
  input_param {
    shape {
      dim: 1
      dim: 5
      dim: 512
    }
    shape {
      dim: 1
      dim: 5
      dim: 512
    }
  }
}
layer {
  name: "lstm1_cont_slice"
  type: "Slice"
  bottom: "cont"
  top: "cont_1"
  top: "cont_2"
  top: "cont_3"
  top: "cont_4"
  top: "cont_5"
  top: "cont_6"
  top: "cont_7"
  top: "cont_8"
  top: "cont_9"
  top: "cont_10"
  top: "cont_11"
  top: "cont_12"
  top: "cont_13"
  top: "cont_14"
  top: "cont_15"
  top: "cont_16"
  top: "cont_17"
  top: "cont_18"
  top: "cont_19"
  top: "cont_20"
  top: "cont_21"
  top: "cont_22"
  top: "cont_23"
  top: "cont_24"
  top: "cont_25"
  top: "cont_26"
  top: "cont_27"
  top: "cont_28"
  top: "cont_29"
  top: "cont_30"
  top: "cont_31"
  top: "cont_32"
  slice_param {
    axis: 0
  }
}
layer {
  name: "lstm1_x_transform"
  type: "InnerProduct"
  bottom: "x"
  top: "W_xc_x"
  param {
    name: "W_xc"
  }
  param {
    name: "b_c"
  }
  propagate_down: true
  inner_product_param {
    num_output: 2048
    bias_term: true
    weight_filler {
      type: "uniform"
      min: -0.01
      max: 0.01
    }
    bias_filler {
      type: "constant"
      value: 0
    }
    axis: 2
  }
}
layer {
  name: "lstm1_W_xc_x_slice"
  type: "Slice"
  bottom: "W_xc_x"
  top: "W_xc_x_1"
  top: "W_xc_x_2"
  top: "W_xc_x_3"
  top: "W_xc_x_4"
  top: "W_xc_x_5"
  top: "W_xc_x_6"
  top: "W_xc_x_7"
  top: "W_xc_x_8"
  top: "W_xc_x_9"
  top: "W_xc_x_10"
  top: "W_xc_x_11"
  top: "W_xc_x_12"
  top: "W_xc_x_13"
  top: "W_xc_x_14"
  top: "W_xc_x_15"
  top: "W_xc_x_16"
  top: "W_xc_x_17"
  top: "W_xc_x_18"
  top: "W_xc_x_19"
  top: "W_xc_x_20"
  top: "W_xc_x_21"
  top: "W_xc_x_22"
  top: "W_xc_x_23"
  top: "W_xc_x_24"
  top: "W_xc_x_25"
  top: "W_xc_x_26"
  top: "W_xc_x_27"
  top: "W_xc_x_28"
  top: "W_xc_x_29"
  top: "W_xc_x_30"
  top: "W_xc_x_31"
  top: "W_xc_x_32"
  slice_param {
    axis: 0
  }
}
layer {
  name: "lstm1_h_conted_0"
  type: "Scale"
  bottom: "h_0"
  bottom: "cont_1"
  top: "h_conted_0"
  scale_param {
    axis: 0
  }
}
layer {
  name: "lstm1_transform_1"
  type: "InnerProduct"
  bottom: "h_conted_0"
  top: "W_hc_h_0"
  param {
    name: "W_hc"
  }
  inner_product_param {
    num_output: 2048
    bias_term: false
    weight_filler {
      type: "uniform"
      min: -0.01
      max: 0.01
    }
    axis: 2
  }
}
layer {
  name: "lstm1_gate_input_1"
  type: "Eltwise"
  bottom: "W_hc_h_0"
  bottom: "W_xc_x_1"
  top: "gate_input_1"
  eltwise_param {
    operation: SUM
  }
}
layer {
  name: "lstm1_unit_1"
  type: "LSTMUnit"
  bottom: "c_0"
  bottom: "gate_input_1"
  bottom: "cont_1"
  top: "c_1"
  top: "h_1"
}
layer {
  name: "lstm1_h_conted_1"
  type: "Scale"
  bottom: "h_1"
  bottom: "cont_2"
  top: "h_conted_1"
  scale_param {
    axis: 0
  }
}
layer {
  name: "lstm1_transform_2"
  type: "InnerProduct"
  bottom: "h_conted_1"
  top: "W_hc_h_1"
  param {
    name: "W_hc"
  }
  inner_product_param {
    num_output: 2048
    bias_term: false
    weight_filler {
      type: "uniform"
      min: -0.01
      max: 0.01
    }
    axis: 2
  }
}
layer {
  name: "lstm1_gate_input_2"
  type: "Eltwise"
  bottom: "W_hc_h_1"
  bottom: "W_xc_x_2"
  top: "gate_input_2"
  eltwise_param {
    operation: SUM
  }
}
layer {
  name: "lstm1_unit_2"
  type: "LSTMUnit"
  bottom: "c_1"
  bottom: "gate_input_2"
  bottom: "cont_2"
  top: "c_2"
  top: "h_2"
}
layer {
  name: "lstm1_h_conted_2"
  type: "Scale"
  bottom: "h_2"
  bottom: "cont_3"
  top: "h_conted_2"
  scale_param {
    axis: 0
  }
}
layer {
  name: "lstm1_transform_3"
  type: "InnerProduct"
  bottom: "h_conted_2"
  top: "W_hc_h_2"
  param {
    name: "W_hc"
  }
  inner_product_param {
    num_output: 2048
    bias_term: false
    weight_filler {
      type: "uniform"
      min: -0.01
      max: 0.01
    }
    axis: 2
  }
}
layer {
  name: "lstm1_gate_input_3"
  type: "Eltwise"
  bottom: "W_hc_h_2"
  bottom: "W_xc_x_3"
  top: "gate_input_3"
  eltwise_param {
    operation: SUM
  }
}
layer {
  name: "lstm1_unit_3"
  type: "LSTMUnit"
  bottom: "c_2"
  bottom: "gate_input_3"
  bottom: "cont_3"
  top: "c_3"
  top: "h_3"
}
layer {
  name: "lstm1_h_conted_3"
  type: "Scale"
  bottom: "h_3"
  bottom: "cont_4"
  top: "h_conted_3"
  scale_param {
    axis: 0
  }
}
layer {
  name: "lstm1_transform_4"
  type: "InnerProduct"
  bottom: "h_conted_3"
  top: "W_hc_h_3"
  param {
    name: "W_hc"
  }
  inner_product_param {
    num_output: 2048
    bias_term: false
    weight_filler {
      type: "uniform"
      min: -0.01
      max: 0.01
    }
    axis: 2
  }
}
layer {
  name: "lstm1_gate_input_4"
  type: "Eltwise"
  bottom: "W_hc_h_3"
  bottom: "W_xc_x_4"
  top: "gate_input_4"
  eltwise_param {
    operation: SUM
  }
}
layer {
  name: "lstm1_unit_4"
  type: "LSTMUnit"
  bottom: "c_3"
  bottom: "gate_input_4"
  bottom: "cont_4"
  top: "c_4"
  top: "h_4"
}
layer {
  name: "lstm1_h_conted_4"
  type: "Scale"
  bottom: "h_4"
  bottom: "cont_5"
  top: "h_conted_4"
  scale_param {
    axis: 0
  }
}
layer {
  name: "lstm1_transform_5"
  type: "InnerProduct"
  bottom: "h_conted_4"
  top: "W_hc_h_4"
  param {
    name: "W_hc"
  }
  inner_product_param {
    num_output: 2048
    bias_term: false
    weight_filler {
      type: "uniform"
      min: -0.01
      max: 0.01
    }
    axis: 2
  }
}
layer {
  name: "lstm1_gate_input_5"
  type: "Eltwise"
  bottom: "W_hc_h_4"
  bottom: "W_xc_x_5"
  top: "gate_input_5"
  eltwise_param {
    operation: SUM
  }
}
layer {
  name: "lstm1_unit_5"
  type: "LSTMUnit"
  bottom: "c_4"
  bottom: "gate_input_5"
  bottom: "cont_5"
  top: "c_5"
  top: "h_5"
}
layer {
  name: "lstm1_h_conted_5"
  type: "Scale"
  bottom: "h_5"
  bottom: "cont_6"
  top: "h_conted_5"
  scale_param {
    axis: 0
  }
}
layer {
  name: "lstm1_transform_6"
  type: "InnerProduct"
  bottom: "h_conted_5"
  top: "W_hc_h_5"
  param {
    name: "W_hc"
  }
  inner_product_param {
    num_output: 2048
    bias_term: false
    weight_filler {
      type: "uniform"
      min: -0.01
      max: 0.01
    }
    axis: 2
  }
}
layer {
  name: "lstm1_gate_input_6"
  type: "Eltwise"
  bottom: "W_hc_h_5"
  bottom: "W_xc_x_6"
  top: "gate_input_6"
  eltwise_param {
    operation: SUM
  }
}
layer {
  name: "lstm1_unit_6"
  type: "LSTMUnit"
  bottom: "c_5"
  bottom: "gate_input_6"
  bottom: "cont_6"
  top: "c_6"
  top: "h_6"
}
layer {
  name: "lstm1_h_conted_6"
  type: "Scale"
  bottom: "h_6"
  bottom: "cont_7"
  top: "h_conted_6"
  scale_param {
    axis: 0
  }
}
layer {
  name: "lstm1_transform_7"
  type: "InnerProduct"
  bottom: "h_conted_6"
  top: "W_hc_h_6"
  param {
    name: "W_hc"
  }
  inner_product_param {
    num_output: 2048
    bias_term: false
    weight_filler {
      type: "uniform"
      min: -0.01
      max: 0.01
    }
    axis: 2
  }
}
layer {
  name: "lstm1_gate_input_7"
  type: "Eltwise"
  bottom: "W_hc_h_6"
  bottom: "W_xc_x_7"
  top: "gate_input_7"
  eltwise_param {
    operation: SUM
  }
}
layer {
  name: "lstm1_unit_7"
  type: "LSTMUnit"
  bottom: "c_6"
  bottom: "gate_input_7"
  bottom: "cont_7"
  top: "c_7"
  top: "h_7"
}
layer {
  name: "lstm1_h_conted_7"
  type: "Scale"
  bottom: "h_7"
  bottom: "cont_8"
  top: "h_conted_7"
  scale_param {
    axis: 0
  }
}
layer {
  name: "lstm1_transform_8"
  type: "InnerProduct"
  bottom: "h_conted_7"
  top: "W_hc_h_7"
  param {
    name: "W_hc"
  }
  inner_product_param {
    num_output: 2048
    bias_term: false
    weight_filler {
      type: "uniform"
      min: -0.01
      max: 0.01
    }
    axis: 2
  }
}
layer {
  name: "lstm1_gate_input_8"
  type: "Eltwise"
  bottom: "W_hc_h_7"
  bottom: "W_xc_x_8"
  top: "gate_input_8"
  eltwise_param {
    operation: SUM
  }
}
layer {
  name: "lstm1_unit_8"
  type: "LSTMUnit"
  bottom: "c_7"
  bottom: "gate_input_8"
  bottom: "cont_8"
  top: "c_8"
  top: "h_8"
}
layer {
  name: "lstm1_h_conted_8"
  type: "Scale"
  bottom: "h_8"
  bottom: "cont_9"
  top: "h_conted_8"
  scale_param {
    axis: 0
  }
}
layer {
  name: "lstm1_transform_9"
  type: "InnerProduct"
  bottom: "h_conted_8"
  top: "W_hc_h_8"
  param {
    name: "W_hc"
  }
  inner_product_param {
    num_output: 2048
    bias_term: false
    weight_filler {
      type: "uniform"
      min: -0.01
      max: 0.01
    }
    axis: 2
  }
}
layer {
  name: "lstm1_gate_input_9"
  type: "Eltwise"
  bottom: "W_hc_h_8"
  bottom: "W_xc_x_9"
  top: "gate_input_9"
  eltwise_param {
    operation: SUM
  }
}
layer {
  name: "lstm1_unit_9"
  type: "LSTMUnit"
  bottom: "c_8"
  bottom: "gate_input_9"
  bottom: "cont_9"
  top: "c_9"
  top: "h_9"
}
layer {
  name: "lstm1_h_conted_9"
  type: "Scale"
  bottom: "h_9"
  bottom: "cont_10"
  top: "h_conted_9"
  scale_param {
    axis: 0
  }
}
layer {
  name: "lstm1_transform_10"
  type: "InnerProduct"
  bottom: "h_conted_9"
  top: "W_hc_h_9"
  param {
    name: "W_hc"
  }
  inner_product_param {
    num_output: 2048
    bias_term: false
    weight_filler {
      type: "uniform"
      min: -0.01
      max: 0.01
    }
    axis: 2
  }
}
layer {
  name: "lstm1_gate_input_10"
  type: "Eltwise"
  bottom: "W_hc_h_9"
  bottom: "W_xc_x_10"
  top: "gate_input_10"
  eltwise_param {
    operation: SUM
  }
}
layer {
  name: "lstm1_unit_10"
  type: "LSTMUnit"
  bottom: "c_9"
  bottom: "gate_input_10"
  bottom: "cont_10"
  top: "c_10"
  top: "h_10"
}
layer {
  name: "lstm1_h_conted_10"
  type: "Scale"
  bottom: "h_10"
  bottom: "cont_11"
  top: "h_conted_10"
  scale_param {
    axis: 0
  }
}
layer {
  name: "lstm1_transform_11"
  type: "InnerProduct"
  bottom: "h_conted_10"
  top: "W_hc_h_10"
  param {
    name: "W_hc"
  }
  inner_product_param {
    num_output: 2048
    bias_term: false
    weight_filler {
      type: "uniform"
      min: -0.01
      max: 0.01
    }
    axis: 2
  }
}
layer {
  name: "lstm1_gate_input_11"
  type: "Eltwise"
  bottom: "W_hc_h_10"
  bottom: "W_xc_x_11"
  top: "gate_input_11"
  eltwise_param {
    operation: SUM
  }
}
layer {
  name: "lstm1_unit_11"
  type: "LSTMUnit"
  bottom: "c_10"
  bottom: "gate_input_11"
  bottom: "cont_11"
  top: "c_11"
  top: "h_11"
}
layer {
  name: "lstm1_h_conted_11"
  type: "Scale"
  bottom: "h_11"
  bottom: "cont_12"
  top: "h_conted_11"
  scale_param {
    axis: 0
  }
}
layer {
  name: "lstm1_transform_12"
  type: "InnerProduct"
  bottom: "h_conted_11"
  top: "W_hc_h_11"
  param {
    name: "W_hc"
  }
  inner_product_param {
    num_output: 2048
    bias_term: false
    weight_filler {
      type: "uniform"
      min: -0.01
      max: 0.01
    }
    axis: 2
  }
}
layer {
  name: "lstm1_gate_input_12"
  type: "Eltwise"
  bottom: "W_hc_h_11"
  bottom: "W_xc_x_12"
  top: "gate_input_12"
  eltwise_param {
    operation: SUM
  }
}
layer {
  name: "lstm1_unit_12"
  type: "LSTMUnit"
  bottom: "c_11"
  bottom: "gate_input_12"
  bottom: "cont_12"
  top: "c_12"
  top: "h_12"
}
layer {
  name: "lstm1_h_conted_12"
  type: "Scale"
  bottom: "h_12"
  bottom: "cont_13"
  top: "h_conted_12"
  scale_param {
    axis: 0
  }
}
layer {
  name: "lstm1_transform_13"
  type: "InnerProduct"
  bottom: "h_conted_12"
  top: "W_hc_h_12"
  param {
    name: "W_hc"
  }
  inner_product_param {
    num_output: 2048
    bias_term: false
    weight_filler {
      type: "uniform"
      min: -0.01
      max: 0.01
    }
    axis: 2
  }
}
layer {
  name: "lstm1_gate_input_13"
  type: "Eltwise"
  bottom: "W_hc_h_12"
  bottom: "W_xc_x_13"
  top: "gate_input_13"
  eltwise_param {
    operation: SUM
  }
}
layer {
  name: "lstm1_unit_13"
  type: "LSTMUnit"
  bottom: "c_12"
  bottom: "gate_input_13"
  bottom: "cont_13"
  top: "c_13"
  top: "h_13"
}
layer {
  name: "lstm1_h_conted_13"
  type: "Scale"
  bottom: "h_13"
  bottom: "cont_14"
  top: "h_conted_13"
  scale_param {
    axis: 0
  }
}
layer {
  name: "lstm1_transform_14"
  type: "InnerProduct"
  bottom: "h_conted_13"
  top: "W_hc_h_13"
  param {
    name: "W_hc"
  }
  inner_product_param {
    num_output: 2048
    bias_term: false
    weight_filler {
      type: "uniform"
      min: -0.01
      max: 0.01
    }
    axis: 2
  }
}
layer {
  name: "lstm1_gate_input_14"
  type: "Eltwise"
  bottom: "W_hc_h_13"
  bottom: "W_xc_x_14"
  top: "gate_input_14"
  eltwise_param {
    operation: SUM
  }
}
layer {
  name: "lstm1_unit_14"
  type: "LSTMUnit"
  bottom: "c_13"
  bottom: "gate_input_14"
  bottom: "cont_14"
  top: "c_14"
  top: "h_14"
}
layer {
  name: "lstm1_h_conted_14"
  type: "Scale"
  bottom: "h_14"
  bottom: "cont_15"
  top: "h_conted_14"
  scale_param {
    axis: 0
  }
}
layer {
  name: "lstm1_transform_15"
  type: "InnerProduct"
  bottom: "h_conted_14"
  top: "W_hc_h_14"
  param {
    name: "W_hc"
  }
  inner_product_param {
    num_output: 2048
    bias_term: false
    weight_filler {
      type: "uniform"
      min: -0.01
      max: 0.01
    }
    axis: 2
  }
}
layer {
  name: "lstm1_gate_input_15"
  type: "Eltwise"
  bottom: "W_hc_h_14"
  bottom: "W_xc_x_15"
  top: "gate_input_15"
  eltwise_param {
    operation: SUM
  }
}
layer {
  name: "lstm1_unit_15"
  type: "LSTMUnit"
  bottom: "c_14"
  bottom: "gate_input_15"
  bottom: "cont_15"
  top: "c_15"
  top: "h_15"
}
layer {
  name: "lstm1_h_conted_15"
  type: "Scale"
  bottom: "h_15"
  bottom: "cont_16"
  top: "h_conted_15"
  scale_param {
    axis: 0
  }
}
layer {
  name: "lstm1_transform_16"
  type: "InnerProduct"
  bottom: "h_conted_15"
  top: "W_hc_h_15"
  param {
    name: "W_hc"
  }
  inner_product_param {
    num_output: 2048
    bias_term: false
    weight_filler {
      type: "uniform"
      min: -0.01
      max: 0.01
    }
    axis: 2
  }
}
layer {
  name: "lstm1_gate_input_16"
  type: "Eltwise"
  bottom: "W_hc_h_15"
  bottom: "W_xc_x_16"
  top: "gate_input_16"
  eltwise_param {
    operation: SUM
  }
}
layer {
  name: "lstm1_unit_16"
  type: "LSTMUnit"
  bottom: "c_15"
  bottom: "gate_input_16"
  bottom: "cont_16"
  top: "c_16"
  top: "h_16"
}
layer {
  name: "lstm1_h_conted_16"
  type: "Scale"
  bottom: "h_16"
  bottom: "cont_17"
  top: "h_conted_16"
  scale_param {
    axis: 0
  }
}
layer {
  name: "lstm1_transform_17"
  type: "InnerProduct"
  bottom: "h_conted_16"
  top: "W_hc_h_16"
  param {
    name: "W_hc"
  }
  inner_product_param {
    num_output: 2048
    bias_term: false
    weight_filler {
      type: "uniform"
      min: -0.01
      max: 0.01
    }
    axis: 2
  }
}
layer {
  name: "lstm1_gate_input_17"
  type: "Eltwise"
  bottom: "W_hc_h_16"
  bottom: "W_xc_x_17"
  top: "gate_input_17"
  eltwise_param {
    operation: SUM
  }
}
layer {
  name: "lstm1_unit_17"
  type: "LSTMUnit"
  bottom: "c_16"
  bottom: "gate_input_17"
  bottom: "cont_17"
  top: "c_17"
  top: "h_17"
}
layer {
  name: "lstm1_h_conted_17"
  type: "Scale"
  bottom: "h_17"
  bottom: "cont_18"
  top: "h_conted_17"
  scale_param {
    axis: 0
  }
}
layer {
  name: "lstm1_transform_18"
  type: "InnerProduct"
  bottom: "h_conted_17"
  top: "W_hc_h_17"
  param {
    name: "W_hc"
  }
  inner_product_param {
    num_output: 2048
    bias_term: false
    weight_filler {
      type: "uniform"
      min: -0.01
      max: 0.01
    }
    axis: 2
  }
}
layer {
  name: "lstm1_gate_input_18"
  type: "Eltwise"
  bottom: "W_hc_h_17"
  bottom: "W_xc_x_18"
  top: "gate_input_18"
  eltwise_param {
    operation: SUM
  }
}
layer {
  name: "lstm1_unit_18"
  type: "LSTMUnit"
  bottom: "c_17"
  bottom: "gate_input_18"
  bottom: "cont_18"
  top: "c_18"
  top: "h_18"
}
layer {
  name: "lstm1_h_conted_18"
  type: "Scale"
  bottom: "h_18"
  bottom: "cont_19"
  top: "h_conted_18"
  scale_param {
    axis: 0
  }
}
layer {
  name: "lstm1_transform_19"
  type: "InnerProduct"
  bottom: "h_conted_18"
  top: "W_hc_h_18"
  param {
    name: "W_hc"
  }
  inner_product_param {
    num_output: 2048
    bias_term: false
    weight_filler {
      type: "uniform"
      min: -0.01
      max: 0.01
    }
    axis: 2
  }
}
layer {
  name: "lstm1_gate_input_19"
  type: "Eltwise"
  bottom: "W_hc_h_18"
  bottom: "W_xc_x_19"
  top: "gate_input_19"
  eltwise_param {
    operation: SUM
  }
}
layer {
  name: "lstm1_unit_19"
  type: "LSTMUnit"
  bottom: "c_18"
  bottom: "gate_input_19"
  bottom: "cont_19"
  top: "c_19"
  top: "h_19"
}
layer {
  name: "lstm1_h_conted_19"
  type: "Scale"
  bottom: "h_19"
  bottom: "cont_20"
  top: "h_conted_19"
  scale_param {
    axis: 0
  }
}
layer {
  name: "lstm1_transform_20"
  type: "InnerProduct"
  bottom: "h_conted_19"
  top: "W_hc_h_19"
  param {
    name: "W_hc"
  }
  inner_product_param {
    num_output: 2048
    bias_term: false
    weight_filler {
      type: "uniform"
      min: -0.01
      max: 0.01
    }
    axis: 2
  }
}
layer {
  name: "lstm1_gate_input_20"
  type: "Eltwise"
  bottom: "W_hc_h_19"
  bottom: "W_xc_x_20"
  top: "gate_input_20"
  eltwise_param {
    operation: SUM
  }
}
layer {
  name: "lstm1_unit_20"
  type: "LSTMUnit"
  bottom: "c_19"
  bottom: "gate_input_20"
  bottom: "cont_20"
  top: "c_20"
  top: "h_20"
}
layer {
  name: "lstm1_h_conted_20"
  type: "Scale"
  bottom: "h_20"
  bottom: "cont_21"
  top: "h_conted_20"
  scale_param {
    axis: 0
  }
}
layer {
  name: "lstm1_transform_21"
  type: "InnerProduct"
  bottom: "h_conted_20"
  top: "W_hc_h_20"
  param {
    name: "W_hc"
  }
  inner_product_param {
    num_output: 2048
    bias_term: false
    weight_filler {
      type: "uniform"
      min: -0.01
      max: 0.01
    }
    axis: 2
  }
}
layer {
  name: "lstm1_gate_input_21"
  type: "Eltwise"
  bottom: "W_hc_h_20"
  bottom: "W_xc_x_21"
  top: "gate_input_21"
  eltwise_param {
    operation: SUM
  }
}
layer {
  name: "lstm1_unit_21"
  type: "LSTMUnit"
  bottom: "c_20"
  bottom: "gate_input_21"
  bottom: "cont_21"
  top: "c_21"
  top: "h_21"
}
layer {
  name: "lstm1_h_conted_21"
  type: "Scale"
  bottom: "h_21"
  bottom: "cont_22"
  top: "h_conted_21"
  scale_param {
    axis: 0
  }
}
layer {
  name: "lstm1_transform_22"
  type: "InnerProduct"
  bottom: "h_conted_21"
  top: "W_hc_h_21"
  param {
    name: "W_hc"
  }
  inner_product_param {
    num_output: 2048
    bias_term: false
    weight_filler {
      type: "uniform"
      min: -0.01
      max: 0.01
    }
    axis: 2
  }
}
layer {
  name: "lstm1_gate_input_22"
  type: "Eltwise"
  bottom: "W_hc_h_21"
  bottom: "W_xc_x_22"
  top: "gate_input_22"
  eltwise_param {
    operation: SUM
  }
}
layer {
  name: "lstm1_unit_22"
  type: "LSTMUnit"
  bottom: "c_21"
  bottom: "gate_input_22"
  bottom: "cont_22"
  top: "c_22"
  top: "h_22"
}
layer {
  name: "lstm1_h_conted_22"
  type: "Scale"
  bottom: "h_22"
  bottom: "cont_23"
  top: "h_conted_22"
  scale_param {
    axis: 0
  }
}
layer {
  name: "lstm1_transform_23"
  type: "InnerProduct"
  bottom: "h_conted_22"
  top: "W_hc_h_22"
  param {
    name: "W_hc"
  }
  inner_product_param {
    num_output: 2048
    bias_term: false
    weight_filler {
      type: "uniform"
      min: -0.01
      max: 0.01
    }
    axis: 2
  }
}
layer {
  name: "lstm1_gate_input_23"
  type: "Eltwise"
  bottom: "W_hc_h_22"
  bottom: "W_xc_x_23"
  top: "gate_input_23"
  eltwise_param {
    operation: SUM
  }
}
layer {
  name: "lstm1_unit_23"
  type: "LSTMUnit"
  bottom: "c_22"
  bottom: "gate_input_23"
  bottom: "cont_23"
  top: "c_23"
  top: "h_23"
}
layer {
  name: "lstm1_h_conted_23"
  type: "Scale"
  bottom: "h_23"
  bottom: "cont_24"
  top: "h_conted_23"
  scale_param {
    axis: 0
  }
}
layer {
  name: "lstm1_transform_24"
  type: "InnerProduct"
  bottom: "h_conted_23"
  top: "W_hc_h_23"
  param {
    name: "W_hc"
  }
  inner_product_param {
    num_output: 2048
    bias_term: false
    weight_filler {
      type: "uniform"
      min: -0.01
      max: 0.01
    }
    axis: 2
  }
}
layer {
  name: "lstm1_gate_input_24"
  type: "Eltwise"
  bottom: "W_hc_h_23"
  bottom: "W_xc_x_24"
  top: "gate_input_24"
  eltwise_param {
    operation: SUM
  }
}
layer {
  name: "lstm1_unit_24"
  type: "LSTMUnit"
  bottom: "c_23"
  bottom: "gate_input_24"
  bottom: "cont_24"
  top: "c_24"
  top: "h_24"
}
layer {
  name: "lstm1_h_conted_24"
  type: "Scale"
  bottom: "h_24"
  bottom: "cont_25"
  top: "h_conted_24"
  scale_param {
    axis: 0
  }
}
layer {
  name: "lstm1_transform_25"
  type: "InnerProduct"
  bottom: "h_conted_24"
  top: "W_hc_h_24"
  param {
    name: "W_hc"
  }
  inner_product_param {
    num_output: 2048
    bias_term: false
    weight_filler {
      type: "uniform"
      min: -0.01
      max: 0.01
    }
    axis: 2
  }
}
layer {
  name: "lstm1_gate_input_25"
  type: "Eltwise"
  bottom: "W_hc_h_24"
  bottom: "W_xc_x_25"
  top: "gate_input_25"
  eltwise_param {
    operation: SUM
  }
}
layer {
  name: "lstm1_unit_25"
  type: "LSTMUnit"
  bottom: "c_24"
  bottom: "gate_input_25"
  bottom: "cont_25"
  top: "c_25"
  top: "h_25"
}
layer {
  name: "lstm1_h_conted_25"
  type: "Scale"
  bottom: "h_25"
  bottom: "cont_26"
  top: "h_conted_25"
  scale_param {
    axis: 0
  }
}
layer {
  name: "lstm1_transform_26"
  type: "InnerProduct"
  bottom: "h_conted_25"
  top: "W_hc_h_25"
  param {
    name: "W_hc"
  }
  inner_product_param {
    num_output: 2048
    bias_term: false
    weight_filler {
      type: "uniform"
      min: -0.01
      max: 0.01
    }
    axis: 2
  }
}
layer {
  name: "lstm1_gate_input_26"
  type: "Eltwise"
  bottom: "W_hc_h_25"
  bottom: "W_xc_x_26"
  top: "gate_input_26"
  eltwise_param {
    operation: SUM
  }
}
layer {
  name: "lstm1_unit_26"
  type: "LSTMUnit"
  bottom: "c_25"
  bottom: "gate_input_26"
  bottom: "cont_26"
  top: "c_26"
  top: "h_26"
}
layer {
  name: "lstm1_h_conted_26"
  type: "Scale"
  bottom: "h_26"
  bottom: "cont_27"
  top: "h_conted_26"
  scale_param {
    axis: 0
  }
}
layer {
  name: "lstm1_transform_27"
  type: "InnerProduct"
  bottom: "h_conted_26"
  top: "W_hc_h_26"
  param {
    name: "W_hc"
  }
  inner_product_param {
    num_output: 2048
    bias_term: false
    weight_filler {
      type: "uniform"
      min: -0.01
      max: 0.01
    }
    axis: 2
  }
}
layer {
  name: "lstm1_gate_input_27"
  type: "Eltwise"
  bottom: "W_hc_h_26"
  bottom: "W_xc_x_27"
  top: "gate_input_27"
  eltwise_param {
    operation: SUM
  }
}
layer {
  name: "lstm1_unit_27"
  type: "LSTMUnit"
  bottom: "c_26"
  bottom: "gate_input_27"
  bottom: "cont_27"
  top: "c_27"
  top: "h_27"
}
layer {
  name: "lstm1_h_conted_27"
  type: "Scale"
  bottom: "h_27"
  bottom: "cont_28"
  top: "h_conted_27"
  scale_param {
    axis: 0
  }
}
layer {
  name: "lstm1_transform_28"
  type: "InnerProduct"
  bottom: "h_conted_27"
  top: "W_hc_h_27"
  param {
    name: "W_hc"
  }
  inner_product_param {
    num_output: 2048
    bias_term: false
    weight_filler {
      type: "uniform"
      min: -0.01
      max: 0.01
    }
    axis: 2
  }
}
layer {
  name: "lstm1_gate_input_28"
  type: "Eltwise"
  bottom: "W_hc_h_27"
  bottom: "W_xc_x_28"
  top: "gate_input_28"
  eltwise_param {
    operation: SUM
  }
}
layer {
  name: "lstm1_unit_28"
  type: "LSTMUnit"
  bottom: "c_27"
  bottom: "gate_input_28"
  bottom: "cont_28"
  top: "c_28"
  top: "h_28"
}
layer {
  name: "lstm1_h_conted_28"
  type: "Scale"
  bottom: "h_28"
  bottom: "cont_29"
  top: "h_conted_28"
  scale_param {
    axis: 0
  }
}
layer {
  name: "lstm1_transform_29"
  type: "InnerProduct"
  bottom: "h_conted_28"
  top: "W_hc_h_28"
  param {
    name: "W_hc"
  }
  inner_product_param {
    num_output: 2048
    bias_term: false
    weight_filler {
      type: "uniform"
      min: -0.01
      max: 0.01
    }
    axis: 2
  }
}
layer {
  name: "lstm1_gate_input_29"
  type: "Eltwise"
  bottom: "W_hc_h_28"
  bottom: "W_xc_x_29"
  top: "gate_input_29"
  eltwise_param {
    operation: SUM
  }
}
layer {
  name: "lstm1_unit_29"
  type: "LSTMUnit"
  bottom: "c_28"
  bottom: "gate_input_29"
  bottom: "cont_29"
  top: "c_29"
  top: "h_29"
}
layer {
  name: "lstm1_h_conted_29"
  type: "Scale"
  bottom: "h_29"
  bottom: "cont_30"
  top: "h_conted_29"
  scale_param {
    axis: 0
  }
}
layer {
  name: "lstm1_transform_30"
  type: "InnerProduct"
  bottom: "h_conted_29"
  top: "W_hc_h_29"
  param {
    name: "W_hc"
  }
  inner_product_param {
    num_output: 2048
    bias_term: false
    weight_filler {
      type: "uniform"
      min: -0.01
      max: 0.01
    }
    axis: 2
  }
}
layer {
  name: "lstm1_gate_input_30"
  type: "Eltwise"
  bottom: "W_hc_h_29"
  bottom: "W_xc_x_30"
  top: "gate_input_30"
  eltwise_param {
    operation: SUM
  }
}
layer {
  name: "lstm1_unit_30"
  type: "LSTMUnit"
  bottom: "c_29"
  bottom: "gate_input_30"
  bottom: "cont_30"
  top: "c_30"
  top: "h_30"
}
layer {
  name: "lstm1_h_conted_30"
  type: "Scale"
  bottom: "h_30"
  bottom: "cont_31"
  top: "h_conted_30"
  scale_param {
    axis: 0
  }
}
layer {
  name: "lstm1_transform_31"
  type: "InnerProduct"
  bottom: "h_conted_30"
  top: "W_hc_h_30"
  param {
    name: "W_hc"
  }
  inner_product_param {
    num_output: 2048
    bias_term: false
    weight_filler {
      type: "uniform"
      min: -0.01
      max: 0.01
    }
    axis: 2
  }
}
layer {
  name: "lstm1_gate_input_31"
  type: "Eltwise"
  bottom: "W_hc_h_30"
  bottom: "W_xc_x_31"
  top: "gate_input_31"
  eltwise_param {
    operation: SUM
  }
}
layer {
  name: "lstm1_unit_31"
  type: "LSTMUnit"
  bottom: "c_30"
  bottom: "gate_input_31"
  bottom: "cont_31"
  top: "c_31"
  top: "h_31"
}
layer {
  name: "lstm1_h_conted_31"
  type: "Scale"
  bottom: "h_31"
  bottom: "cont_32"
  top: "h_conted_31"
  scale_param {
    axis: 0
  }
}
layer {
  name: "lstm1_transform_32"
  type: "InnerProduct"
  bottom: "h_conted_31"
  top: "W_hc_h_31"
  param {
    name: "W_hc"
  }
  inner_product_param {
    num_output: 2048
    bias_term: false
    weight_filler {
      type: "uniform"
      min: -0.01
      max: 0.01
    }
    axis: 2
  }
}
layer {
  name: "lstm1_gate_input_32"
  type: "Eltwise"
  bottom: "W_hc_h_31"
  bottom: "W_xc_x_32"
  top: "gate_input_32"
  eltwise_param {
    operation: SUM
  }
}
layer {
  name: "lstm1_unit_32"
  type: "LSTMUnit"
  bottom: "c_31"
  bottom: "gate_input_32"
  bottom: "cont_32"
  top: "c_32"
  top: "h_32"
}
layer {
  name: "lstm1_"
  type: "Split"
  bottom: "c_32"
  top: "c_T"
}
layer {
  name: "lstm1_h_concat"
  type: "Concat"
  bottom: "h_1"
  bottom: "h_2"
  bottom: "h_3"
  bottom: "h_4"
  bottom: "h_5"
  bottom: "h_6"
  bottom: "h_7"
  bottom: "h_8"
  bottom: "h_9"
  bottom: "h_10"
  bottom: "h_11"
  bottom: "h_12"
  bottom: "h_13"
  bottom: "h_14"
  bottom: "h_15"
  bottom: "h_16"
  bottom: "h_17"
  bottom: "h_18"
  bottom: "h_19"
  bottom: "h_20"
  bottom: "h_21"
  bottom: "h_22"
  bottom: "h_23"
  bottom: "h_24"
  bottom: "h_25"
  bottom: "h_26"
  bottom: "h_27"
  bottom: "h_28"
  bottom: "h_29"
  bottom: "h_30"
  bottom: "h_31"
  bottom: "h_32"
  top: "h"
  concat_param {
    axis: 0
  }
}
layer {
  name: "h_pseudoloss"
  type: "Reduction"
  bottom: "h"
  top: "h_pseudoloss"
  loss_weight: 1
}
I1018 00:02:24.317550 29731 layer_factory.hpp:77] Creating layer lstm1_
I1018 00:02:24.317574 29731 net.cpp:84] Creating Layer lstm1_
I1018 00:02:24.317581 29731 net.cpp:380] lstm1_ -> x
I1018 00:02:24.317595 29731 net.cpp:380] lstm1_ -> cont
I1018 00:02:24.317644 29731 net.cpp:122] Setting up lstm1_
I1018 00:02:24.317652 29731 net.cpp:129] Top shape: 32 5 512 (81920)
I1018 00:02:24.317657 29731 net.cpp:129] Top shape: 32 5 (160)
I1018 00:02:24.317662 29731 net.cpp:137] Memory required for data: 328320
I1018 00:02:24.317667 29731 layer_factory.hpp:77] Creating layer lstm1_
I1018 00:02:24.317673 29731 net.cpp:84] Creating Layer lstm1_
I1018 00:02:24.317678 29731 net.cpp:380] lstm1_ -> c_0
I1018 00:02:24.317687 29731 net.cpp:380] lstm1_ -> h_0
I1018 00:02:24.317724 29731 net.cpp:122] Setting up lstm1_
I1018 00:02:24.317731 29731 net.cpp:129] Top shape: 1 5 512 (2560)
I1018 00:02:24.317736 29731 net.cpp:129] Top shape: 1 5 512 (2560)
I1018 00:02:24.317740 29731 net.cpp:137] Memory required for data: 348800
I1018 00:02:24.317744 29731 layer_factory.hpp:77] Creating layer lstm1_cont_slice
I1018 00:02:24.317755 29731 net.cpp:84] Creating Layer lstm1_cont_slice
I1018 00:02:24.317760 29731 net.cpp:406] lstm1_cont_slice <- cont
I1018 00:02:24.317769 29731 net.cpp:380] lstm1_cont_slice -> cont_1
I1018 00:02:24.317778 29731 net.cpp:380] lstm1_cont_slice -> cont_2
…
I1018 00:02:24.317978 29731 net.cpp:380] lstm1_cont_slice -> cont_25
I1018 00:02:24.317986 29731 net.cpp:380] lstm1_cont_slice -> cont_26
I1018 00:02:24.317996 29731 net.cpp:380] lstm1_cont_slice -> cont_27
I1018 00:02:24.318003 29731 net.cpp:380] lstm1_cont_slice -> cont_28
I1018 00:02:24.318011 29731 net.cpp:380] lstm1_cont_slice -> cont_29
I1018 00:02:24.318022 29731 net.cpp:380] lstm1_cont_slice -> cont_30
I1018 00:02:24.318032 29731 net.cpp:380] lstm1_cont_slice -> cont_31
I1018 00:02:24.318039 29731 net.cpp:380] lstm1_cont_slice -> cont_32
I1018 00:02:24.318393 29731 net.cpp:122] Setting up lstm1_cont_slice
I1018 00:02:24.318403 29731 net.cpp:129] Top shape: 1 5 (5)
I1018 00:02:24.318408 29731 net.cpp:129] Top shape: 1 5 (5)
I1018 00:02:24.318411 29731 net.cpp:129] Top shape: 1 5 (5)
I1018 00:02:24.318416 29731 net.cpp:129] Top shape: 1 5 (5)
I1018 00:02:24.318423 29731 net.cpp:129] Top shape: 1 5 (5)
I1018 00:02:24.318428 29731 net.cpp:129] Top shape: 1 5 (5)
I1018 00:02:24.318434 29731 net.cpp:129] Top shape: 1 5 (5)
I1018 00:02:24.318437 29731 net.cpp:129] Top shape: 1 5 (5)
I1018 00:02:24.318442 29731 net.cpp:129] Top shape: 1 5 (5)
I1018 00:02:24.318446 29731 net.cpp:129] Top shape: 1 5 (5)
I1018 00:02:24.318451 29731 net.cpp:129] Top shape: 1 5 (5)
I1018 00:02:24.318456 29731 net.cpp:129] Top shape: 1 5 (5)
I1018 00:02:24.318461 29731 net.cpp:129] Top shape: 1 5 (5)
I1018 00:02:24.318465 29731 net.cpp:129] Top shape: 1 5 (5)
I1018 00:02:24.318470 29731 net.cpp:129] Top shape: 1 5 (5)
I1018 00:02:24.318475 29731 net.cpp:129] Top shape: 1 5 (5)
I1018 00:02:24.318480 29731 net.cpp:129] Top shape: 1 5 (5)
I1018 00:02:24.318483 29731 net.cpp:129] Top shape: 1 5 (5)
I1018 00:02:24.318488 29731 net.cpp:129] Top shape: 1 5 (5)
I1018 00:02:24.318493 29731 net.cpp:129] Top shape: 1 5 (5)
I1018 00:02:24.318497 29731 net.cpp:129] Top shape: 1 5 (5)
I1018 00:02:24.318502 29731 net.cpp:129] Top shape: 1 5 (5)
I1018 00:02:24.318506 29731 net.cpp:129] Top shape: 1 5 (5)
I1018 00:02:24.318511 29731 net.cpp:129] Top shape: 1 5 (5)
I1018 00:02:24.318516 29731 net.cpp:129] Top shape: 1 5 (5)
I1018 00:02:24.318521 29731 net.cpp:129] Top shape: 1 5 (5)
I1018 00:02:24.318526 29731 net.cpp:129] Top shape: 1 5 (5)
I1018 00:02:24.318529 29731 net.cpp:129] Top shape: 1 5 (5)
I1018 00:02:24.318534 29731 net.cpp:129] Top shape: 1 5 (5)
I1018 00:02:24.318539 29731 net.cpp:129] Top shape: 1 5 (5)
I1018 00:02:24.318543 29731 net.cpp:129] Top shape: 1 5 (5)
I1018 00:02:24.318548 29731 net.cpp:129] Top shape: 1 5 (5)
I1018 00:02:24.318552 29731 net.cpp:137] Memory required for data: 349440
I1018 00:02:24.318557 29731 layer_factory.hpp:77] Creating layer cont_1_lstm1_cont_slice_0_split
I1018 00:02:24.318562 29731 net.cpp:84] Creating Layer cont_1_lstm1_cont_slice_0_split
I1018 00:02:24.318567 29731 net.cpp:406] cont_1_lstm1_cont_slice_0_split <- cont_1
I1018 00:02:24.318575 29731 net.cpp:380] cont_1_lstm1_cont_slice_0_split -> cont_1_lstm1_cont_slice_0_split_0
I1018 00:02:24.318583 29731 net.cpp:380] cont_1_lstm1_cont_slice_0_split -> cont_1_lstm1_cont_slice_0_split_1
I1018 00:02:24.318615 29731 net.cpp:122] Setting up cont_1_lstm1_cont_slice_0_split
I1018 00:02:24.318621 29731 net.cpp:129] Top shape: 1 5 (5)
I1018 00:02:24.318629 29731 net.cpp:129] Top shape: 1 5 (5)
I1018 00:02:24.318632 29731 net.cpp:137] Memory required for data: 349480
I1018 00:02:24.318636 29731 layer_factory.hpp:77] Creating layer cont_2_lstm1_cont_slice_1_split
I1018 00:02:24.318642 29731 net.cpp:84] Creating Layer cont_2_lstm1_cont_slice_1_split
I1018 00:02:24.318646 29731 net.cpp:406] cont_2_lstm1_cont_slice_1_split <- cont_2
I1018 00:02:24.318652 29731 net.cpp:380] cont_2_lstm1_cont_slice_1_split -> cont_2_lstm1_cont_slice_1_split_0
I1018 00:02:24.318658 29731 net.cpp:380] cont_2_lstm1_cont_slice_1_split -> cont_2_lstm1_cont_slice_1_split_1
I1018 00:02:24.318692 29731 net.cpp:122] Setting up cont_2_lstm1_cont_slice_1_split
I1018 00:02:24.318698 29731 net.cpp:129] Top shape: 1 5 (5)
I1018 00:02:24.318703 29731 net.cpp:129] Top shape: 1 5 (5)
I1018 00:02:24.318707 29731 net.cpp:137] Memory required for data: 349520
I1018 00:02:24.318711 29731 layer_factory.hpp:77] Creating layer cont_3_lstm1_cont_slice_2_split
I1018 00:02:24.318717 29731 net.cpp:84] Creating Layer cont_3_lstm1_cont_slice_2_split
I1018 00:02:24.318720 29731 net.cpp:406] cont_3_lstm1_cont_slice_2_split <- cont_3
I1018 00:02:24.318729 29731 net.cpp:380] cont_3_lstm1_cont_slice_2_split -> cont_3_lstm1_cont_slice_2_split_0
I1018 00:02:24.318735 29731 net.cpp:380] cont_3_lstm1_cont_slice_2_split -> cont_3_lstm1_cont_slice_2_split_1
I1018 00:02:24.318765 29731 net.cpp:122] Setting up cont_3_lstm1_cont_slice_2_split
I1018 00:02:24.318771 29731 net.cpp:129] Top shape: 1 5 (5)
I1018 00:02:24.318776 29731 net.cpp:129] Top shape: 1 5 (5)
I1018 00:02:24.318779 29731 net.cpp:137] Memory required for data: 349560
I1018 00:02:24.318783 29731 layer_factory.hpp:77] Creating layer cont_4_lstm1_cont_slice_3_split
I1018 00:02:24.318790 29731 net.cpp:84] Creating Layer cont_4_lstm1_cont_slice_3_split
I1018 00:02:24.318794 29731 net.cpp:406] cont_4_lstm1_cont_slice_3_split <- cont_4
I1018 00:02:24.318800 29731 net.cpp:380] cont_4_lstm1_cont_slice_3_split -> cont_4_lstm1_cont_slice_3_split_0
I1018 00:02:24.318809 29731 net.cpp:380] cont_4_lstm1_cont_slice_3_split -> cont_4_lstm1_cont_slice_3_split_1
I1018 00:02:24.318837 29731 net.cpp:122] Setting up cont_4_lstm1_cont_slice_3_split
I1018 00:02:24.318842 29731 net.cpp:129] Top shape: 1 5 (5)
I1018 00:02:24.318847 29731 net.cpp:129] Top shape: 1 5 (5)
I1018 00:02:24.318851 29731 net.cpp:137] Memory required for data: 349600
I1018 00:02:24.318856 29731 layer_factory.hpp:77] Creating layer cont_5_lstm1_cont_slice_4_split
I1018 00:02:24.318861 29731 net.cpp:84] Creating Layer cont_5_lstm1_cont_slice_4_split
I1018 00:02:24.318866 29731 net.cpp:406] cont_5_lstm1_cont_slice_4_split <- cont_5
I1018 00:02:24.318871 29731 net.cpp:380] cont_5_lstm1_cont_slice_4_split -> cont_5_lstm1_cont_slice_4_split_0
I1018 00:02:24.318878 29731 net.cpp:380] cont_5_lstm1_cont_slice_4_split -> cont_5_lstm1_cont_slice_4_split_1
I1018 00:02:24.318907 29731 net.cpp:122] Setting up cont_5_lstm1_cont_slice_4_split
I1018 00:02:24.318913 29731 net.cpp:129] Top shape: 1 5 (5)
I1018 00:02:24.318917 29731 net.cpp:129] Top shape: 1 5 (5)
I1018 00:02:24.318922 29731 net.cpp:137] Memory required for data: 349640
I1018 00:02:24.318925 29731 layer_factory.hpp:77] Creating layer cont_6_lstm1_cont_slice_5_split
I1018 00:02:24.318931 29731 net.cpp:84] Creating Layer cont_6_lstm1_cont_slice_5_split
I1018 00:02:24.318935 29731 net.cpp:406] cont_6_lstm1_cont_slice_5_split <- cont_6
I1018 00:02:24.318941 29731 net.cpp:380] cont_6_lstm1_cont_slice_5_split -> cont_6_lstm1_cont_slice_5_split_0
I1018 00:02:24.318949 29731 net.cpp:380] cont_6_lstm1_cont_slice_5_split -> cont_6_lstm1_cont_slice_5_split_1
I1018 00:02:24.318976 29731 net.cpp:122] Setting up cont_6_lstm1_cont_slice_5_split
I1018 00:02:24.318982 29731 net.cpp:129] Top shape: 1 5 (5)
I1018 00:02:24.318987 29731 net.cpp:129] Top shape: 1 5 (5)
I1018 00:02:24.318991 29731 net.cpp:137] Memory required for data: 349680
I1018 00:02:24.318994 29731 layer_factory.hpp:77] Creating layer cont_7_lstm1_cont_slice_6_split
I1018 00:02:24.319001 29731 net.cpp:84] Creating Layer cont_7_lstm1_cont_slice_6_split
I1018 00:02:24.319005 29731 net.cpp:406] cont_7_lstm1_cont_slice_6_split <- cont_7
I1018 00:02:24.319011 29731 net.cpp:380] cont_7_lstm1_cont_slice_6_split -> cont_7_lstm1_cont_slice_6_split_0
I1018 00:02:24.319017 29731 net.cpp:380] cont_7_lstm1_cont_slice_6_split -> cont_7_lstm1_cont_slice_6_split_1
I1018 00:02:24.319046 29731 net.cpp:122] Setting up cont_7_lstm1_cont_slice_6_split
I1018 00:02:24.319052 29731 net.cpp:129] Top shape: 1 5 (5)
I1018 00:02:24.319056 29731 net.cpp:129] Top shape: 1 5 (5)
I1018 00:02:24.319061 29731 net.cpp:137] Memory required for data: 349720
I1018 00:02:24.319064 29731 layer_factory.hpp:77] Creating layer cont_8_lstm1_cont_slice_7_split
I1018 00:02:24.319069 29731 net.cpp:84] Creating Layer cont_8_lstm1_cont_slice_7_split
I1018 00:02:24.319073 29731 net.cpp:406] cont_8_lstm1_cont_slice_7_split <- cont_8
I1018 00:02:24.319078 29731 net.cpp:380] cont_8_lstm1_cont_slice_7_split -> cont_8_lstm1_cont_slice_7_split_0
I1018 00:02:24.319085 29731 net.cpp:380] cont_8_lstm1_cont_slice_7_split -> cont_8_lstm1_cont_slice_7_split_1
I1018 00:02:24.319113 29731 net.cpp:122] Setting up cont_8_lstm1_cont_slice_7_split
I1018 00:02:24.319119 29731 net.cpp:129] Top shape: 1 5 (5)
I1018 00:02:24.319124 29731 net.cpp:129] Top shape: 1 5 (5)
I1018 00:02:24.319128 29731 net.cpp:137] Memory required for data: 349760
I1018 00:02:24.319131 29731 layer_factory.hpp:77] Creating layer cont_9_lstm1_cont_slice_8_split
I1018 00:02:24.319136 29731 net.cpp:84] Creating Layer cont_9_lstm1_cont_slice_8_split
I1018 00:02:24.319140 29731 net.cpp:406] cont_9_lstm1_cont_slice_8_split <- cont_9
I1018 00:02:24.319146 29731 net.cpp:380] cont_9_lstm1_cont_slice_8_split -> cont_9_lstm1_cont_slice_8_split_0
I1018 00:02:24.319152 29731 net.cpp:380] cont_9_lstm1_cont_slice_8_split -> cont_9_lstm1_cont_slice_8_split_1
I1018 00:02:24.319181 29731 net.cpp:122] Setting up cont_9_lstm1_cont_slice_8_split
I1018 00:02:24.319187 29731 net.cpp:129] Top shape: 1 5 (5)
I1018 00:02:24.319192 29731 net.cpp:129] Top shape: 1 5 (5)
I1018 00:02:24.319196 29731 net.cpp:137] Memory required for data: 349800
I1018 00:02:24.319200 29731 layer_factory.hpp:77] Creating layer cont_10_lstm1_cont_slice_9_split
I1018 00:02:24.319205 29731 net.cpp:84] Creating Layer cont_10_lstm1_cont_slice_9_split
I1018 00:02:24.319209 29731 net.cpp:406] cont_10_lstm1_cont_slice_9_split <- cont_10
I1018 00:02:24.319216 29731 net.cpp:380] cont_10_lstm1_cont_slice_9_split -> cont_10_lstm1_cont_slice_9_split_0
I1018 00:02:24.319222 29731 net.cpp:380] cont_10_lstm1_cont_slice_9_split -> cont_10_lstm1_cont_slice_9_split_1
I1018 00:02:24.319250 29731 net.cpp:122] Setting up cont_10_lstm1_cont_slice_9_split
I1018 00:02:24.319255 29731 net.cpp:129] Top shape: 1 5 (5)
I1018 00:02:24.319260 29731 net.cpp:129] Top shape: 1 5 (5)
I1018 00:02:24.319264 29731 net.cpp:137] Memory required for data: 349840
I1018 00:02:24.319268 29731 layer_factory.hpp:77] Creating layer cont_11_lstm1_cont_slice_10_split
I1018 00:02:24.319274 29731 net.cpp:84] Creating Layer cont_11_lstm1_cont_slice_10_split
I1018 00:02:24.319279 29731 net.cpp:406] cont_11_lstm1_cont_slice_10_split <- cont_11
I1018 00:02:24.319284 29731 net.cpp:380] cont_11_lstm1_cont_slice_10_split -> cont_11_lstm1_cont_slice_10_split_0
I1018 00:02:24.319291 29731 net.cpp:380] cont_11_lstm1_cont_slice_10_split -> cont_11_lstm1_cont_slice_10_split_1
I1018 00:02:24.319321 29731 net.cpp:122] Setting up cont_11_lstm1_cont_slice_10_split
I1018 00:02:24.319327 29731 net.cpp:129] Top shape: 1 5 (5)
I1018 00:02:24.319332 29731 net.cpp:129] Top shape: 1 5 (5)
I1018 00:02:24.319336 29731 net.cpp:137] Memory required for data: 349880
I1018 00:02:24.319340 29731 layer_factory.hpp:77] Creating layer cont_12_lstm1_cont_slice_11_split
I1018 00:02:24.319344 29731 net.cpp:84] Creating Layer cont_12_lstm1_cont_slice_11_split
I1018 00:02:24.319349 29731 net.cpp:406] cont_12_lstm1_cont_slice_11_split <- cont_12
I1018 00:02:24.319355 29731 net.cpp:380] cont_12_lstm1_cont_slice_11_split -> cont_12_lstm1_cont_slice_11_split_0
I1018 00:02:24.319360 29731 net.cpp:380] cont_12_lstm1_cont_slice_11_split -> cont_12_lstm1_cont_slice_11_split_1
I1018 00:02:24.319389 29731 net.cpp:122] Setting up cont_12_lstm1_cont_slice_11_split
I1018 00:02:24.319396 29731 net.cpp:129] Top shape: 1 5 (5)
I1018 00:02:24.319401 29731 net.cpp:129] Top shape: 1 5 (5)
I1018 00:02:24.319404 29731 net.cpp:137] Memory required for data: 349920
I1018 00:02:24.319407 29731 layer_factory.hpp:77] Creating layer cont_13_lstm1_cont_slice_12_split
I1018 00:02:24.319412 29731 net.cpp:84] Creating Layer cont_13_lstm1_cont_slice_12_split
I1018 00:02:24.319416 29731 net.cpp:406] cont_13_lstm1_cont_slice_12_split <- cont_13
I1018 00:02:24.319422 29731 net.cpp:380] cont_13_lstm1_cont_slice_12_split -> cont_13_lstm1_cont_slice_12_split_0
I1018 00:02:24.319430 29731 net.cpp:380] cont_13_lstm1_cont_slice_12_split -> cont_13_lstm1_cont_slice_12_split_1
I1018 00:02:24.319458 29731 net.cpp:122] Setting up cont_13_lstm1_cont_slice_12_split
I1018 00:02:24.319463 29731 net.cpp:129] Top shape: 1 5 (5)
I1018 00:02:24.319468 29731 net.cpp:129] Top shape: 1 5 (5)
I1018 00:02:24.319473 29731 net.cpp:137] Memory required for data: 349960
I1018 00:02:24.319475 29731 layer_factory.hpp:77] Creating layer cont_14_lstm1_cont_slice_13_split
I1018 00:02:24.319483 29731 net.cpp:84] Creating Layer cont_14_lstm1_cont_slice_13_split
I1018 00:02:24.319488 29731 net.cpp:406] cont_14_lstm1_cont_slice_13_split <- cont_14
I1018 00:02:24.319494 29731 net.cpp:380] cont_14_lstm1_cont_slice_13_split -> cont_14_lstm1_cont_slice_13_split_0
I1018 00:02:24.319499 29731 net.cpp:380] cont_14_lstm1_cont_slice_13_split -> cont_14_lstm1_cont_slice_13_split_1
I1018 00:02:24.319528 29731 net.cpp:122] Setting up cont_14_lstm1_cont_slice_13_split
I1018 00:02:24.319535 29731 net.cpp:129] Top shape: 1 5 (5)
I1018 00:02:24.319540 29731 net.cpp:129] Top shape: 1 5 (5)
I1018 00:02:24.319543 29731 net.cpp:137] Memory required for data: 350000
I1018 00:02:24.319547 29731 layer_factory.hpp:77] Creating layer cont_15_lstm1_cont_slice_14_split
I1018 00:02:24.319551 29731 net.cpp:84] Creating Layer cont_15_lstm1_cont_slice_14_split
I1018 00:02:24.319555 29731 net.cpp:406] cont_15_lstm1_cont_slice_14_split <- cont_15
I1018 00:02:24.319561 29731 net.cpp:380] cont_15_lstm1_cont_slice_14_split -> cont_15_lstm1_cont_slice_14_split_0
I1018 00:02:24.319573 29731 net.cpp:380] cont_15_lstm1_cont_slice_14_split -> cont_15_lstm1_cont_slice_14_split_1
I1018 00:02:24.319602 29731 net.cpp:122] Setting up cont_15_lstm1_cont_slice_14_split
I1018 00:02:24.319607 29731 net.cpp:129] Top shape: 1 5 (5)
I1018 00:02:24.319612 29731 net.cpp:129] Top shape: 1 5 (5)
I1018 00:02:24.319617 29731 net.cpp:137] Memory required for data: 350040
I1018 00:02:24.319620 29731 layer_factory.hpp:77] Creating layer cont_16_lstm1_cont_slice_15_split
I1018 00:02:24.319628 29731 net.cpp:84] Creating Layer cont_16_lstm1_cont_slice_15_split
I1018 00:02:24.319631 29731 net.cpp:406] cont_16_lstm1_cont_slice_15_split <- cont_16
I1018 00:02:24.319638 29731 net.cpp:380] cont_16_lstm1_cont_slice_15_split -> cont_16_lstm1_cont_slice_15_split_0
I1018 00:02:24.319643 29731 net.cpp:380] cont_16_lstm1_cont_slice_15_split -> cont_16_lstm1_cont_slice_15_split_1
I1018 00:02:24.319672 29731 net.cpp:122] Setting up cont_16_lstm1_cont_slice_15_split
I1018 00:02:24.319679 29731 net.cpp:129] Top shape: 1 5 (5)
I1018 00:02:24.319684 29731 net.cpp:129] Top shape: 1 5 (5)
I1018 00:02:24.319687 29731 net.cpp:137] Memory required for data: 350080
I1018 00:02:24.319691 29731 layer_factory.hpp:77] Creating layer cont_17_lstm1_cont_slice_16_split
I1018 00:02:24.319695 29731 net.cpp:84] Creating Layer cont_17_lstm1_cont_slice_16_split
I1018 00:02:24.319700 29731 net.cpp:406] cont_17_lstm1_cont_slice_16_split <- cont_17
I1018 00:02:24.319705 29731 net.cpp:380] cont_17_lstm1_cont_slice_16_split -> cont_17_lstm1_cont_slice_16_split_0
I1018 00:02:24.319712 29731 net.cpp:380] cont_17_lstm1_cont_slice_16_split -> cont_17_lstm1_cont_slice_16_split_1
I1018 00:02:24.319741 29731 net.cpp:122] Setting up cont_17_lstm1_cont_slice_16_split
I1018 00:02:24.319746 29731 net.cpp:129] Top shape: 1 5 (5)
I1018 00:02:24.319751 29731 net.cpp:129] Top shape: 1 5 (5)
I1018 00:02:24.319756 29731 net.cpp:137] Memory required for data: 350120
I1018 00:02:24.319759 29731 layer_factory.hpp:77] Creating layer cont_18_lstm1_cont_slice_17_split
I1018 00:02:24.319763 29731 net.cpp:84] Creating Layer cont_18_lstm1_cont_slice_17_split
I1018 00:02:24.319767 29731 net.cpp:406] cont_18_lstm1_cont_slice_17_split <- cont_18
I1018 00:02:24.319773 29731 net.cpp:380] cont_18_lstm1_cont_slice_17_split -> cont_18_lstm1_cont_slice_17_split_0
I1018 00:02:24.319779 29731 net.cpp:380] cont_18_lstm1_cont_slice_17_split -> cont_18_lstm1_cont_slice_17_split_1
I1018 00:02:24.319808 29731 net.cpp:122] Setting up cont_18_lstm1_cont_slice_17_split
I1018 00:02:24.319814 29731 net.cpp:129] Top shape: 1 5 (5)
I1018 00:02:24.319819 29731 net.cpp:129] Top shape: 1 5 (5)
I1018 00:02:24.319823 29731 net.cpp:137] Memory required for data: 350160
I1018 00:02:24.319828 29731 layer_factory.hpp:77] Creating layer cont_19_lstm1_cont_slice_18_split
I1018 00:02:24.319831 29731 net.cpp:84] Creating Layer cont_19_lstm1_cont_slice_18_split
I1018 00:02:24.319836 29731 net.cpp:406] cont_19_lstm1_cont_slice_18_split <- cont_19
I1018 00:02:24.319844 29731 net.cpp:380] cont_19_lstm1_cont_slice_18_split -> cont_19_lstm1_cont_slice_18_split_0
I1018 00:02:24.319849 29731 net.cpp:380] cont_19_lstm1_cont_slice_18_split -> cont_19_lstm1_cont_slice_18_split_1
I1018 00:02:24.319876 29731 net.cpp:122] Setting up cont_19_lstm1_cont_slice_18_split
I1018 00:02:24.319882 29731 net.cpp:129] Top shape: 1 5 (5)
I1018 00:02:24.319886 29731 net.cpp:129] Top shape: 1 5 (5)
I1018 00:02:24.319890 29731 net.cpp:137] Memory required for data: 350200
I1018 00:02:24.319895 29731 layer_factory.hpp:77] Creating layer cont_20_lstm1_cont_slice_19_split
I1018 00:02:24.319901 29731 net.cpp:84] Creating Layer cont_20_lstm1_cont_slice_19_split
I1018 00:02:24.319905 29731 net.cpp:406] cont_20_lstm1_cont_slice_19_split <- cont_20
I1018 00:02:24.319911 29731 net.cpp:380] cont_20_lstm1_cont_slice_19_split -> cont_20_lstm1_cont_slice_19_split_0
I1018 00:02:24.319917 29731 net.cpp:380] cont_20_lstm1_cont_slice_19_split -> cont_20_lstm1_cont_slice_19_split_1
I1018 00:02:24.319947 29731 net.cpp:122] Setting up cont_20_lstm1_cont_slice_19_split
I1018 00:02:24.319952 29731 net.cpp:129] Top shape: 1 5 (5)
I1018 00:02:24.319957 29731 net.cpp:129] Top shape: 1 5 (5)
I1018 00:02:24.319960 29731 net.cpp:137] Memory required for data: 350240
I1018 00:02:24.319964 29731 layer_factory.hpp:77] Creating layer cont_21_lstm1_cont_slice_20_split
I1018 00:02:24.319969 29731 net.cpp:84] Creating Layer cont_21_lstm1_cont_slice_20_split
I1018 00:02:24.319973 29731 net.cpp:406] cont_21_lstm1_cont_slice_20_split <- cont_21
I1018 00:02:24.319978 29731 net.cpp:380] cont_21_lstm1_cont_slice_20_split -> cont_21_lstm1_cont_slice_20_split_0
I1018 00:02:24.319985 29731 net.cpp:380] cont_21_lstm1_cont_slice_20_split -> cont_21_lstm1_cont_slice_20_split_1
I1018 00:02:24.320014 29731 net.cpp:122] Setting up cont_21_lstm1_cont_slice_20_split
I1018 00:02:24.320020 29731 net.cpp:129] Top shape: 1 5 (5)
I1018 00:02:24.320025 29731 net.cpp:129] Top shape: 1 5 (5)
I1018 00:02:24.320044 29731 net.cpp:137] Memory required for data: 350280
I1018 00:02:24.320049 29731 layer_factory.hpp:77] Creating layer cont_22_lstm1_cont_slice_21_split
I1018 00:02:24.320055 29731 net.cpp:84] Creating Layer cont_22_lstm1_cont_slice_21_split
I1018 00:02:24.320060 29731 net.cpp:406] cont_22_lstm1_cont_slice_21_split <- cont_22
I1018 00:02:24.320068 29731 net.cpp:380] cont_22_lstm1_cont_slice_21_split -> cont_22_lstm1_cont_slice_21_split_0
I1018 00:02:24.320076 29731 net.cpp:380] cont_22_lstm1_cont_slice_21_split -> cont_22_lstm1_cont_slice_21_split_1
I1018 00:02:24.320107 29731 net.cpp:122] Setting up cont_22_lstm1_cont_slice_21_split
I1018 00:02:24.320113 29731 net.cpp:129] Top shape: 1 5 (5)
I1018 00:02:24.320118 29731 net.cpp:129] Top shape: 1 5 (5)
I1018 00:02:24.320122 29731 net.cpp:137] Memory required for data: 350320
I1018 00:02:24.320127 29731 layer_factory.hpp:77] Creating layer cont_23_lstm1_cont_slice_22_split
I1018 00:02:24.320135 29731 net.cpp:84] Creating Layer cont_23_lstm1_cont_slice_22_split
I1018 00:02:24.320140 29731 net.cpp:406] cont_23_lstm1_cont_slice_22_split <- cont_23
I1018 00:02:24.320145 29731 net.cpp:380] cont_23_lstm1_cont_slice_22_split -> cont_23_lstm1_cont_slice_22_split_0
I1018 00:02:24.320152 29731 net.cpp:380] cont_23_lstm1_cont_slice_22_split -> cont_23_lstm1_cont_slice_22_split_1
I1018 00:02:24.320181 29731 net.cpp:122] Setting up cont_23_lstm1_cont_slice_22_split
I1018 00:02:24.320188 29731 net.cpp:129] Top shape: 1 5 (5)
I1018 00:02:24.320192 29731 net.cpp:129] Top shape: 1 5 (5)
I1018 00:02:24.320195 29731 net.cpp:137] Memory required for data: 350360
I1018 00:02:24.320199 29731 layer_factory.hpp:77] Creating layer cont_24_lstm1_cont_slice_23_split
I1018 00:02:24.320204 29731 net.cpp:84] Creating Layer cont_24_lstm1_cont_slice_23_split
I1018 00:02:24.320209 29731 net.cpp:406] cont_24_lstm1_cont_slice_23_split <- cont_24
I1018 00:02:24.320214 29731 net.cpp:380] cont_24_lstm1_cont_slice_23_split -> cont_24_lstm1_cont_slice_23_split_0
I1018 00:02:24.320220 29731 net.cpp:380] cont_24_lstm1_cont_slice_23_split -> cont_24_lstm1_cont_slice_23_split_1
I1018 00:02:24.320257 29731 net.cpp:122] Setting up cont_24_lstm1_cont_slice_23_split
I1018 00:02:24.320263 29731 net.cpp:129] Top shape: 1 5 (5)
I1018 00:02:24.320267 29731 net.cpp:129] Top shape: 1 5 (5)
I1018 00:02:24.320271 29731 net.cpp:137] Memory required for data: 350400
I1018 00:02:24.320276 29731 layer_factory.hpp:77] Creating layer cont_25_lstm1_cont_slice_24_split
I1018 00:02:24.320281 29731 net.cpp:84] Creating Layer cont_25_lstm1_cont_slice_24_split
I1018 00:02:24.320284 29731 net.cpp:406] cont_25_lstm1_cont_slice_24_split <- cont_25
I1018 00:02:24.320289 29731 net.cpp:380] cont_25_lstm1_cont_slice_24_split -> cont_25_lstm1_cont_slice_24_split_0
I1018 00:02:24.320296 29731 net.cpp:380] cont_25_lstm1_cont_slice_24_split -> cont_25_lstm1_cont_slice_24_split_1
I1018 00:02:24.320327 29731 net.cpp:122] Setting up cont_25_lstm1_cont_slice_24_split
I1018 00:02:24.320333 29731 net.cpp:129] Top shape: 1 5 (5)
I1018 00:02:24.320338 29731 net.cpp:129] Top shape: 1 5 (5)
I1018 00:02:24.320341 29731 net.cpp:137] Memory required for data: 350440
I1018 00:02:24.320345 29731 layer_factory.hpp:77] Creating layer cont_26_lstm1_cont_slice_25_split
I1018 00:02:24.320350 29731 net.cpp:84] Creating Layer cont_26_lstm1_cont_slice_25_split
I1018 00:02:24.320354 29731 net.cpp:406] cont_26_lstm1_cont_slice_25_split <- cont_26
I1018 00:02:24.320363 29731 net.cpp:380] cont_26_lstm1_cont_slice_25_split -> cont_26_lstm1_cont_slice_25_split_0
I1018 00:02:24.320369 29731 net.cpp:380] cont_26_lstm1_cont_slice_25_split -> cont_26_lstm1_cont_slice_25_split_1
I1018 00:02:24.320396 29731 net.cpp:122] Setting up cont_26_lstm1_cont_slice_25_split
I1018 00:02:24.320402 29731 net.cpp:129] Top shape: 1 5 (5)
I1018 00:02:24.320406 29731 net.cpp:129] Top shape: 1 5 (5)
I1018 00:02:24.320410 29731 net.cpp:137] Memory required for data: 350480
I1018 00:02:24.320415 29731 layer_factory.hpp:77] Creating layer cont_27_lstm1_cont_slice_26_split
I1018 00:02:24.320421 29731 net.cpp:84] Creating Layer cont_27_lstm1_cont_slice_26_split
I1018 00:02:24.320425 29731 net.cpp:406] cont_27_lstm1_cont_slice_26_split <- cont_27
I1018 00:02:24.320431 29731 net.cpp:380] cont_27_lstm1_cont_slice_26_split -> cont_27_lstm1_cont_slice_26_split_0
I1018 00:02:24.320437 29731 net.cpp:380] cont_27_lstm1_cont_slice_26_split -> cont_27_lstm1_cont_slice_26_split_1
I1018 00:02:24.320466 29731 net.cpp:122] Setting up cont_27_lstm1_cont_slice_26_split
I1018 00:02:24.320472 29731 net.cpp:129] Top shape: 1 5 (5)
I1018 00:02:24.320477 29731 net.cpp:129] Top shape: 1 5 (5)
I1018 00:02:24.320480 29731 net.cpp:137] Memory required for data: 350520
I1018 00:02:24.320484 29731 layer_factory.hpp:77] Creating layer cont_28_lstm1_cont_slice_27_split
I1018 00:02:24.320489 29731 net.cpp:84] Creating Layer cont_28_lstm1_cont_slice_27_split
I1018 00:02:24.320493 29731 net.cpp:406] cont_28_lstm1_cont_slice_27_split <- cont_28
I1018 00:02:24.320499 29731 net.cpp:380] cont_28_lstm1_cont_slice_27_split -> cont_28_lstm1_cont_slice_27_split_0
I1018 00:02:24.320505 29731 net.cpp:380] cont_28_lstm1_cont_slice_27_split -> cont_28_lstm1_cont_slice_27_split_1
I1018 00:02:24.320533 29731 net.cpp:122] Setting up cont_28_lstm1_cont_slice_27_split
I1018 00:02:24.320539 29731 net.cpp:129] Top shape: 1 5 (5)
I1018 00:02:24.320544 29731 net.cpp:129] Top shape: 1 5 (5)
I1018 00:02:24.320547 29731 net.cpp:137] Memory required for data: 350560
I1018 00:02:24.320551 29731 layer_factory.hpp:77] Creating layer cont_29_lstm1_cont_slice_28_split
I1018 00:02:24.320556 29731 net.cpp:84] Creating Layer cont_29_lstm1_cont_slice_28_split
I1018 00:02:24.320560 29731 net.cpp:406] cont_29_lstm1_cont_slice_28_split <- cont_29
I1018 00:02:24.320566 29731 net.cpp:380] cont_29_lstm1_cont_slice_28_split -> cont_29_lstm1_cont_slice_28_split_0
I1018 00:02:24.320574 29731 net.cpp:380] cont_29_lstm1_cont_slice_28_split -> cont_29_lstm1_cont_slice_28_split_1
I1018 00:02:24.320601 29731 net.cpp:122] Setting up cont_29_lstm1_cont_slice_28_split
I1018 00:02:24.320607 29731 net.cpp:129] Top shape: 1 5 (5)
I1018 00:02:24.320611 29731 net.cpp:129] Top shape: 1 5 (5)
I1018 00:02:24.320616 29731 net.cpp:137] Memory required for data: 350600
I1018 00:02:24.320619 29731 layer_factory.hpp:77] Creating layer cont_30_lstm1_cont_slice_29_split
I1018 00:02:24.320628 29731 net.cpp:84] Creating Layer cont_30_lstm1_cont_slice_29_split
I1018 00:02:24.320632 29731 net.cpp:406] cont_30_lstm1_cont_slice_29_split <- cont_30
I1018 00:02:24.320639 29731 net.cpp:380] cont_30_lstm1_cont_slice_29_split -> cont_30_lstm1_cont_slice_29_split_0
I1018 00:02:24.320646 29731 net.cpp:380] cont_30_lstm1_cont_slice_29_split -> cont_30_lstm1_cont_slice_29_split_1
I1018 00:02:24.320674 29731 net.cpp:122] Setting up cont_30_lstm1_cont_slice_29_split
I1018 00:02:24.320680 29731 net.cpp:129] Top shape: 1 5 (5)
I1018 00:02:24.320685 29731 net.cpp:129] Top shape: 1 5 (5)
I1018 00:02:24.320688 29731 net.cpp:137] Memory required for data: 350640
I1018 00:02:24.320693 29731 layer_factory.hpp:77] Creating layer cont_31_lstm1_cont_slice_30_split
I1018 00:02:24.320698 29731 net.cpp:84] Creating Layer cont_31_lstm1_cont_slice_30_split
I1018 00:02:24.320701 29731 net.cpp:406] cont_31_lstm1_cont_slice_30_split <- cont_31
I1018 00:02:24.320708 29731 net.cpp:380] cont_31_lstm1_cont_slice_30_split -> cont_31_lstm1_cont_slice_30_split_0
I1018 00:02:24.320713 29731 net.cpp:380] cont_31_lstm1_cont_slice_30_split -> cont_31_lstm1_cont_slice_30_split_1
I1018 00:02:24.320742 29731 net.cpp:122] Setting up cont_31_lstm1_cont_slice_30_split
I1018 00:02:24.320749 29731 net.cpp:129] Top shape: 1 5 (5)
I1018 00:02:24.320753 29731 net.cpp:129] Top shape: 1 5 (5)
I1018 00:02:24.320757 29731 net.cpp:137] Memory required for data: 350680
I1018 00:02:24.320760 29731 layer_factory.hpp:77] Creating layer cont_32_lstm1_cont_slice_31_split
I1018 00:02:24.320765 29731 net.cpp:84] Creating Layer cont_32_lstm1_cont_slice_31_split
I1018 00:02:24.320770 29731 net.cpp:406] cont_32_lstm1_cont_slice_31_split <- cont_32
I1018 00:02:24.320777 29731 net.cpp:380] cont_32_lstm1_cont_slice_31_split -> cont_32_lstm1_cont_slice_31_split_0
I1018 00:02:24.320783 29731 net.cpp:380] cont_32_lstm1_cont_slice_31_split -> cont_32_lstm1_cont_slice_31_split_1
I1018 00:02:24.320811 29731 net.cpp:122] Setting up cont_32_lstm1_cont_slice_31_split
I1018 00:02:24.320817 29731 net.cpp:129] Top shape: 1 5 (5)
I1018 00:02:24.320822 29731 net.cpp:129] Top shape: 1 5 (5)
I1018 00:02:24.320825 29731 net.cpp:137] Memory required for data: 350720
I1018 00:02:24.320829 29731 layer_factory.hpp:77] Creating layer lstm1_x_transform
I1018 00:02:24.320844 29731 net.cpp:84] Creating Layer lstm1_x_transform
I1018 00:02:24.320849 29731 net.cpp:406] lstm1_x_transform <- x
I1018 00:02:24.320857 29731 net.cpp:380] lstm1_x_transform -> W_xc_x
I1018 00:02:24.339606 29731 net.cpp:122] Setting up lstm1_x_transform
I1018 00:02:24.339655 29731 net.cpp:129] Top shape: 32 5 2048 (327680)
I1018 00:02:24.339660 29731 net.cpp:137] Memory required for data: 1661440
I1018 00:02:24.339685 29731 layer_factory.hpp:77] Creating layer lstm1_W_xc_x_slice
I1018 00:02:24.339709 29731 net.cpp:84] Creating Layer lstm1_W_xc_x_slice
I1018 00:02:24.339720 29731 net.cpp:406] lstm1_W_xc_x_slice <- W_xc_x
I1018 00:02:24.339730 29731 net.cpp:380] lstm1_W_xc_x_slice -> W_xc_x_1
I1018 00:02:24.339879 29731 net.cpp:380] lstm1_W_xc_x_slice -> W_xc_x_2
…
I1018 00:02:24.341132 29731 net.cpp:380] lstm1_W_xc_x_slice -> W_xc_x_26
I1018 00:02:24.341140 29731 net.cpp:380] lstm1_W_xc_x_slice -> W_xc_x_27
I1018 00:02:24.341148 29731 net.cpp:380] lstm1_W_xc_x_slice -> W_xc_x_28
I1018 00:02:24.341174 29731 net.cpp:380] lstm1_W_xc_x_slice -> W_xc_x_29
I1018 00:02:24.341186 29731 net.cpp:380] lstm1_W_xc_x_slice -> W_xc_x_30
I1018 00:02:24.341194 29731 net.cpp:380] lstm1_W_xc_x_slice -> W_xc_x_31
I1018 00:02:24.341208 29731 net.cpp:380] lstm1_W_xc_x_slice -> W_xc_x_32
I1018 00:02:24.342491 29731 net.cpp:122] Setting up lstm1_W_xc_x_slice
I1018 00:02:24.342664 29731 net.cpp:129] Top shape: 1 5 2048 (10240)
I1018 00:02:24.342670 29731 net.cpp:129] Top shape: 1 5 2048 (10240)
I1018 00:02:24.342674 29731 net.cpp:129] Top shape: 1 5 2048 (10240)
I1018 00:02:24.342679 29731 net.cpp:129] Top shape: 1 5 2048 (10240)
I1018 00:02:24.342684 29731 net.cpp:129] Top shape: 1 5 2048 (10240)
I1018 00:02:24.342689 29731 net.cpp:129] Top shape: 1 5 2048 (10240)
I1018 00:02:24.342694 29731 net.cpp:129] Top shape: 1 5 2048 (10240)
I1018 00:02:24.342699 29731 net.cpp:129] Top shape: 1 5 2048 (10240)
I1018 00:02:24.342702 29731 net.cpp:129] Top shape: 1 5 2048 (10240)
I1018 00:02:24.342707 29731 net.cpp:129] Top shape: 1 5 2048 (10240)
I1018 00:02:24.342712 29731 net.cpp:129] Top shape: 1 5 2048 (10240)
I1018 00:02:24.342716 29731 net.cpp:129] Top shape: 1 5 2048 (10240)
I1018 00:02:24.342721 29731 net.cpp:129] Top shape: 1 5 2048 (10240)
I1018 00:02:24.342726 29731 net.cpp:129] Top shape: 1 5 2048 (10240)
I1018 00:02:24.342730 29731 net.cpp:129] Top shape: 1 5 2048 (10240)
I1018 00:02:24.342736 29731 net.cpp:129] Top shape: 1 5 2048 (10240)
I1018 00:02:24.342739 29731 net.cpp:129] Top shape: 1 5 2048 (10240)
I1018 00:02:24.342744 29731 net.cpp:129] Top shape: 1 5 2048 (10240)
I1018 00:02:24.342749 29731 net.cpp:129] Top shape: 1 5 2048 (10240)
I1018 00:02:24.342753 29731 net.cpp:129] Top shape: 1 5 2048 (10240)
I1018 00:02:24.342758 29731 net.cpp:129] Top shape: 1 5 2048 (10240)
I1018 00:02:24.342762 29731 net.cpp:129] Top shape: 1 5 2048 (10240)
I1018 00:02:24.342767 29731 net.cpp:129] Top shape: 1 5 2048 (10240)
I1018 00:02:24.342772 29731 net.cpp:129] Top shape: 1 5 2048 (10240)
I1018 00:02:24.342777 29731 net.cpp:129] Top shape: 1 5 2048 (10240)
I1018 00:02:24.342780 29731 net.cpp:129] Top shape: 1 5 2048 (10240)
I1018 00:02:24.342785 29731 net.cpp:129] Top shape: 1 5 2048 (10240)
I1018 00:02:24.342792 29731 net.cpp:129] Top shape: 1 5 2048 (10240)
I1018 00:02:24.342795 29731 net.cpp:129] Top shape: 1 5 2048 (10240)
I1018 00:02:24.342800 29731 net.cpp:129] Top shape: 1 5 2048 (10240)
I1018 00:02:24.342805 29731 net.cpp:129] Top shape: 1 5 2048 (10240)
I1018 00:02:24.342809 29731 net.cpp:129] Top shape: 1 5 2048 (10240)
I1018 00:02:24.342813 29731 net.cpp:137] Memory required for data: 2972160
I1018 00:02:24.342818 29731 layer_factory.hpp:77] Creating layer lstm1_h_conted_0
I1018 00:02:24.342844 29731 net.cpp:84] Creating Layer lstm1_h_conted_0
I1018 00:02:24.342851 29731 net.cpp:406] lstm1_h_conted_0 <- h_0
I1018 00:02:24.342977 29731 net.cpp:406] lstm1_h_conted_0 <- cont_1_lstm1_cont_slice_0_split_0
I1018 00:02:24.343065 29731 net.cpp:380] lstm1_h_conted_0 -> h_conted_0
I1018 00:02:24.344231 29731 net.cpp:122] Setting up lstm1_h_conted_0
I1018 00:02:24.344243 29731 net.cpp:129] Top shape: 1 5 512 (2560)
I1018 00:02:24.344246 29731 net.cpp:137] Memory required for data: 2982400
I1018 00:02:24.344250 29731 layer_factory.hpp:77] Creating layer lstm1_transform_1
I1018 00:02:24.344262 29731 net.cpp:84] Creating Layer lstm1_transform_1
I1018 00:02:24.344267 29731 net.cpp:406] lstm1_transform_1 <- h_conted_0
I1018 00:02:24.344274 29731 net.cpp:380] lstm1_transform_1 -> W_hc_h_0
I1018 00:02:24.360546 29731 net.cpp:122] Setting up lstm1_transform_1
I1018 00:02:24.360584 29731 net.cpp:129] Top shape: 1 5 2048 (10240)
I1018 00:02:24.360589 29731 net.cpp:137] Memory required for data: 3023360
I1018 00:02:24.360607 29731 layer_factory.hpp:77] Creating layer lstm1_gate_input_1
I1018 00:02:24.360622 29731 net.cpp:84] Creating Layer lstm1_gate_input_1
I1018 00:02:24.360630 29731 net.cpp:406] lstm1_gate_input_1 <- W_hc_h_0
I1018 00:02:24.360637 29731 net.cpp:406] lstm1_gate_input_1 <- W_xc_x_1
I1018 00:02:24.360644 29731 net.cpp:380] lstm1_gate_input_1 -> gate_input_1
I1018 00:02:24.360697 29731 net.cpp:122] Setting up lstm1_gate_input_1
I1018 00:02:24.360704 29731 net.cpp:129] Top shape: 1 5 2048 (10240)
I1018 00:02:24.360707 29731 net.cpp:137] Memory required for data: 3064320
I1018 00:02:24.360713 29731 layer_factory.hpp:77] Creating layer lstm1_unit_1
I1018 00:02:24.360721 29731 net.cpp:84] Creating Layer lstm1_unit_1
I1018 00:02:24.360728 29731 net.cpp:406] lstm1_unit_1 <- c_0
I1018 00:02:24.360734 29731 net.cpp:406] lstm1_unit_1 <- gate_input_1
I1018 00:02:24.360740 29731 net.cpp:406] lstm1_unit_1 <- cont_1_lstm1_cont_slice_0_split_1
I1018 00:02:24.360749 29731 net.cpp:380] lstm1_unit_1 -> c_1
I1018 00:02:24.360756 29731 net.cpp:380] lstm1_unit_1 -> h_1
I1018 00:02:24.360805 29731 net.cpp:122] Setting up lstm1_unit_1
I1018 00:02:24.360810 29731 net.cpp:129] Top shape: 1 5 512 (2560)
I1018 00:02:24.360816 29731 net.cpp:129] Top shape: 1 5 512 (2560)
I1018 00:02:24.360819 29731 net.cpp:137] Memory required for data: 3084800
I1018 00:02:24.360824 29731 layer_factory.hpp:77] Creating layer h_1_lstm1_unit_1_1_split
I1018 00:02:24.360831 29731 net.cpp:84] Creating Layer h_1_lstm1_unit_1_1_split
I1018 00:02:24.360836 29731 net.cpp:406] h_1_lstm1_unit_1_1_split <- h_1
I1018 00:02:24.360842 29731 net.cpp:380] h_1_lstm1_unit_1_1_split -> h_1_lstm1_unit_1_1_split_0
I1018 00:02:24.360849 29731 net.cpp:380] h_1_lstm1_unit_1_1_split -> h_1_lstm1_unit_1_1_split_1
I1018 00:02:24.360882 29731 net.cpp:122] Setting up h_1_lstm1_unit_1_1_split
I1018 00:02:24.360888 29731 net.cpp:129] Top shape: 1 5 512 (2560)
I1018 00:02:24.360893 29731 net.cpp:129] Top shape: 1 5 512 (2560)
I1018 00:02:24.360898 29731 net.cpp:137] Memory required for data: 3105280
I1018 00:02:24.360901 29731 layer_factory.hpp:77] Creating layer lstm1_h_conted_1
I1018 00:02:24.360911 29731 net.cpp:84] Creating Layer lstm1_h_conted_1
I1018 00:02:24.360916 29731 net.cpp:406] lstm1_h_conted_1 <- h_1_lstm1_unit_1_1_split_0
I1018 00:02:24.360924 29731 net.cpp:406] lstm1_h_conted_1 <- cont_2_lstm1_cont_slice_1_split_0
I1018 00:02:24.360932 29731 net.cpp:380] lstm1_h_conted_1 -> h_conted_1
I1018 00:02:24.360999 29731 net.cpp:122] Setting up lstm1_h_conted_1
I1018 00:02:24.361017 29731 net.cpp:129] Top shape: 1 5 512 (2560)
I1018 00:02:24.361021 29731 net.cpp:137] Memory required for data: 3115520
I1018 00:02:24.361026 29731 layer_factory.hpp:77] Creating layer lstm1_transform_2
I1018 00:02:24.361035 29731 net.cpp:84] Creating Layer lstm1_transform_2
I1018 00:02:24.361040 29731 net.cpp:406] lstm1_transform_2 <- h_conted_1
I1018 00:02:24.361049 29731 net.cpp:380] lstm1_transform_2 -> W_hc_h_1
I1018 00:02:24.372926 29731 net.cpp:122] Setting up lstm1_transform_2
I1018 00:02:24.372959 29731 net.cpp:129] Top shape: 1 5 2048 (10240)
I1018 00:02:24.372964 29731 net.cpp:137] Memory required for data: 3156480
I1018 00:02:24.372972 29731 net.cpp:465] Sharing parameters 'W_hc' owned by layer 'lstm1_transform_1', param index 0
I1018 00:02:24.372980 29731 layer_factory.hpp:77] Creating layer lstm1_gate_input_2
I1018 00:02:24.372992 29731 net.cpp:84] Creating Layer lstm1_gate_input_2
I1018 00:02:24.372997 29731 net.cpp:406] lstm1_gate_input_2 <- W_hc_h_1
I1018 00:02:24.373008 29731 net.cpp:406] lstm1_gate_input_2 <- W_xc_x_2
I1018 00:02:24.373018 29731 net.cpp:380] lstm1_gate_input_2 -> gate_input_2
I1018 00:02:24.373052 29731 net.cpp:122] Setting up lstm1_gate_input_2
I1018 00:02:24.373059 29731 net.cpp:129] Top shape: 1 5 2048 (10240)
I1018 00:02:24.373062 29731 net.cpp:137] Memory required for data: 3197440
I1018 00:02:24.373066 29731 layer_factory.hpp:77] Creating layer lstm1_unit_2
I1018 00:02:24.373075 29731 net.cpp:84] Creating Layer lstm1_unit_2
I1018 00:02:24.373081 29731 net.cpp:406] lstm1_unit_2 <- c_1
I1018 00:02:24.373087 29731 net.cpp:406] lstm1_unit_2 <- gate_input_2
I1018 00:02:24.373093 29731 net.cpp:406] lstm1_unit_2 <- cont_2_lstm1_cont_slice_1_split_1
I1018 00:02:24.373100 29731 net.cpp:380] lstm1_unit_2 -> c_2
I1018 00:02:24.373107 29731 net.cpp:380] lstm1_unit_2 -> h_2
I1018 00:02:24.373152 29731 net.cpp:122] Setting up lstm1_unit_2
I1018 00:02:24.373158 29731 net.cpp:129] Top shape: 1 5 512 (2560)
I1018 00:02:24.373163 29731 net.cpp:129] Top shape: 1 5 512 (2560)
I1018 00:02:24.373167 29731 net.cpp:137] Memory required for data: 3217920
I1018 00:02:24.373172 29731 layer_factory.hpp:77] Creating layer h_2_lstm1_unit_2_1_split
I1018 00:02:24.373178 29731 net.cpp:84] Creating Layer h_2_lstm1_unit_2_1_split
I1018 00:02:24.373183 29731 net.cpp:406] h_2_lstm1_unit_2_1_split <- h_2
I1018 00:02:24.373188 29731 net.cpp:380] h_2_lstm1_unit_2_1_split -> h_2_lstm1_unit_2_1_split_0
I1018 00:02:24.373195 29731 net.cpp:380] h_2_lstm1_unit_2_1_split -> h_2_lstm1_unit_2_1_split_1
I1018 00:02:24.373226 29731 net.cpp:122] Setting up h_2_lstm1_unit_2_1_split
I1018 00:02:24.373234 29731 net.cpp:129] Top shape: 1 5 512 (2560)
I1018 00:02:24.373239 29731 net.cpp:129] Top shape: 1 5 512 (2560)
I1018 00:02:24.373242 29731 net.cpp:137] Memory required for data: 3238400
I1018 00:02:24.373246 29731 layer_factory.hpp:77] Creating layer lstm1_h_conted_2
I1018 00:02:24.373255 29731 net.cpp:84] Creating Layer lstm1_h_conted_2
I1018 00:02:24.373260 29731 net.cpp:406] lstm1_h_conted_2 <- h_2_lstm1_unit_2_1_split_0
I1018 00:02:24.373266 29731 net.cpp:406] lstm1_h_conted_2 <- cont_3_lstm1_cont_slice_2_split_0
I1018 00:02:24.373272 29731 net.cpp:380] lstm1_h_conted_2 -> h_conted_2
I1018 00:02:24.373334 29731 net.cpp:122] Setting up lstm1_h_conted_2
I1018 00:02:24.373342 29731 net.cpp:129] Top shape: 1 5 512 (2560)
I1018 00:02:24.373345 29731 net.cpp:137] Memory required for data: 3248640
I1018 00:02:24.373349 29731 layer_factory.hpp:77] Creating layer lstm1_transform_3
I1018 00:02:24.373360 29731 net.cpp:84] Creating Layer lstm1_transform_3
I1018 00:02:24.373364 29731 net.cpp:406] lstm1_transform_3 <- h_conted_2
I1018 00:02:24.373374 29731 net.cpp:380] lstm1_transform_3 -> W_hc_h_2
I1018 00:02:24.385381 29731 net.cpp:122] Setting up lstm1_transform_3
I1018 00:02:24.385408 29731 net.cpp:129] Top shape: 1 5 2048 (10240)
I1018 00:02:24.385413 29731 net.cpp:137] Memory required for data: 3289600
I1018 00:02:24.385423 29731 net.cpp:465] Sharing parameters 'W_hc' owned by layer 'lstm1_transform_1', param index 0
I1018 00:02:24.385428 29731 layer_factory.hpp:77] Creating layer lstm1_gate_input_3
I1018 00:02:24.385437 29731 net.cpp:84] Creating Layer lstm1_gate_input_3
I1018 00:02:24.385440 29731 net.cpp:406] lstm1_gate_input_3 <- W_hc_h_2
I1018 00:02:24.385448 29731 net.cpp:406] lstm1_gate_input_3 <- W_xc_x_3
I1018 00:02:24.385454 29731 net.cpp:380] lstm1_gate_input_3 -> gate_input_3
I1018 00:02:24.385483 29731 net.cpp:122] Setting up lstm1_gate_input_3
I1018 00:02:24.385490 29731 net.cpp:129] Top shape: 1 5 2048 (10240)
I1018 00:02:24.385494 29731 net.cpp:137] Memory required for data: 3330560
I1018 00:02:24.385499 29731 layer_factory.hpp:77] Creating layer lstm1_unit_3
I1018 00:02:24.385507 29731 net.cpp:84] Creating Layer lstm1_unit_3
I1018 00:02:24.385511 29731 net.cpp:406] lstm1_unit_3 <- c_2
I1018 00:02:24.385517 29731 net.cpp:406] lstm1_unit_3 <- gate_input_3
I1018 00:02:24.385524 29731 net.cpp:406] lstm1_unit_3 <- cont_3_lstm1_cont_slice_2_split_1
I1018 00:02:24.385529 29731 net.cpp:380] lstm1_unit_3 -> c_3
I1018 00:02:24.385537 29731 net.cpp:380] lstm1_unit_3 -> h_3
I1018 00:02:24.385581 29731 net.cpp:122] Setting up lstm1_unit_3
I1018 00:02:24.385588 29731 net.cpp:129] Top shape: 1 5 512 (2560)
I1018 00:02:24.385593 29731 net.cpp:129] Top shape: 1 5 512 (2560)
I1018 00:02:24.385597 29731 net.cpp:137] Memory required for data: 3351040
I1018 00:02:24.385601 29731 layer_factory.hpp:77] Creating layer h_3_lstm1_unit_3_1_split
I1018 00:02:24.385607 29731 net.cpp:84] Creating Layer h_3_lstm1_unit_3_1_split
I1018 00:02:24.385612 29731 net.cpp:406] h_3_lstm1_unit_3_1_split <- h_3
I1018 00:02:24.385617 29731 net.cpp:380] h_3_lstm1_unit_3_1_split -> h_3_lstm1_unit_3_1_split_0
I1018 00:02:24.385624 29731 net.cpp:380] h_3_lstm1_unit_3_1_split -> h_3_lstm1_unit_3_1_split_1
I1018 00:02:24.385658 29731 net.cpp:122] Setting up h_3_lstm1_unit_3_1_split
I1018 00:02:24.385664 29731 net.cpp:129] Top shape: 1 5 512 (2560)
I1018 00:02:24.385668 29731 net.cpp:129] Top shape: 1 5 512 (2560)
I1018 00:02:24.385673 29731 net.cpp:137] Memory required for data: 3371520
I1018 00:02:24.385676 29731 layer_factory.hpp:77] Creating layer lstm1_h_conted_3
I1018 00:02:24.385685 29731 net.cpp:84] Creating Layer lstm1_h_conted_3
I1018 00:02:24.385690 29731 net.cpp:406] lstm1_h_conted_3 <- h_3_lstm1_unit_3_1_split_0
I1018 00:02:24.385696 29731 net.cpp:406] lstm1_h_conted_3 <- cont_4_lstm1_cont_slice_3_split_0
I1018 00:02:24.385702 29731 net.cpp:380] lstm1_h_conted_3 -> h_conted_3
I1018 00:02:24.385756 29731 net.cpp:122] Setting up lstm1_h_conted_3
I1018 00:02:24.385763 29731 net.cpp:129] Top shape: 1 5 512 (2560)
I1018 00:02:24.385767 29731 net.cpp:137] Memory required for data: 3381760
I1018 00:02:24.385771 29731 layer_factory.hpp:77] Creating layer lstm1_transform_4
I1018 00:02:24.385779 29731 net.cpp:84] Creating Layer lstm1_transform_4
I1018 00:02:24.385783 29731 net.cpp:406] lstm1_transform_4 <- h_conted_3
I1018 00:02:24.385790 29731 net.cpp:380] lstm1_transform_4 -> W_hc_h_3
I1018 00:02:24.397652 29731 net.cpp:122] Setting up lstm1_transform_4
I1018 00:02:24.397681 29731 net.cpp:129] Top shape: 1 5 2048 (10240)
I1018 00:02:24.397686 29731 net.cpp:137] Memory required for data: 3422720
I1018 00:02:24.397691 29731 net.cpp:465] Sharing parameters 'W_hc' owned by layer 'lstm1_transform_1', param index 0
I1018 00:02:24.397696 29731 layer_factory.hpp:77] Creating layer lstm1_gate_input_4
I1018 00:02:24.397704 29731 net.cpp:84] Creating Layer lstm1_gate_input_4
I1018 00:02:24.397709 29731 net.cpp:406] lstm1_gate_input_4 <- W_hc_h_3
I1018 00:02:24.397716 29731 net.cpp:406] lstm1_gate_input_4 <- W_xc_x_4
I1018 00:02:24.397723 29731 net.cpp:380] lstm1_gate_input_4 -> gate_input_4
I1018 00:02:24.397753 29731 net.cpp:122] Setting up lstm1_gate_input_4
I1018 00:02:24.397758 29731 net.cpp:129] Top shape: 1 5 2048 (10240)
I1018 00:02:24.397763 29731 net.cpp:137] Memory required for data: 3463680
I1018 00:02:24.397766 29731 layer_factory.hpp:77] Creating layer lstm1_unit_4
I1018 00:02:24.397773 29731 net.cpp:84] Creating Layer lstm1_unit_4
I1018 00:02:24.397778 29731 net.cpp:406] lstm1_unit_4 <- c_3
I1018 00:02:24.397783 29731 net.cpp:406] lstm1_unit_4 <- gate_input_4
I1018 00:02:24.397789 29731 net.cpp:406] lstm1_unit_4 <- cont_4_lstm1_cont_slice_3_split_1
I1018 00:02:24.397795 29731 net.cpp:380] lstm1_unit_4 -> c_4
I1018 00:02:24.397802 29731 net.cpp:380] lstm1_unit_4 -> h_4
I1018 00:02:24.397845 29731 net.cpp:122] Setting up lstm1_unit_4
I1018 00:02:24.397851 29731 net.cpp:129] Top shape: 1 5 512 (2560)
I1018 00:02:24.397856 29731 net.cpp:129] Top shape: 1 5 512 (2560)
I1018 00:02:24.397860 29731 net.cpp:137] Memory required for data: 3484160
I1018 00:02:24.397864 29731 layer_factory.hpp:77] Creating layer h_4_lstm1_unit_4_1_split
I1018 00:02:24.397871 29731 net.cpp:84] Creating Layer h_4_lstm1_unit_4_1_split
I1018 00:02:24.397876 29731 net.cpp:406] h_4_lstm1_unit_4_1_split <- h_4
I1018 00:02:24.397882 29731 net.cpp:380] h_4_lstm1_unit_4_1_split -> h_4_lstm1_unit_4_1_split_0
I1018 00:02:24.397889 29731 net.cpp:380] h_4_lstm1_unit_4_1_split -> h_4_lstm1_unit_4_1_split_1
I1018 00:02:24.397920 29731 net.cpp:122] Setting up h_4_lstm1_unit_4_1_split
I1018 00:02:24.397927 29731 net.cpp:129] Top shape: 1 5 512 (2560)
I1018 00:02:24.397933 29731 net.cpp:129] Top shape: 1 5 512 (2560)
I1018 00:02:24.397936 29731 net.cpp:137] Memory required for data: 3504640
I1018 00:02:24.397940 29731 layer_factory.hpp:77] Creating layer lstm1_h_conted_4
I1018 00:02:24.397948 29731 net.cpp:84] Creating Layer lstm1_h_conted_4
I1018 00:02:24.397953 29731 net.cpp:406] lstm1_h_conted_4 <- h_4_lstm1_unit_4_1_split_0
I1018 00:02:24.397959 29731 net.cpp:406] lstm1_h_conted_4 <- cont_5_lstm1_cont_slice_4_split_0
I1018 00:02:24.397964 29731 net.cpp:380] lstm1_h_conted_4 -> h_conted_4
I1018 00:02:24.398020 29731 net.cpp:122] Setting up lstm1_h_conted_4
I1018 00:02:24.398026 29731 net.cpp:129] Top shape: 1 5 512 (2560)
I1018 00:02:24.398030 29731 net.cpp:137] Memory required for data: 3514880
I1018 00:02:24.398033 29731 layer_factory.hpp:77] Creating layer lstm1_transform_5
I1018 00:02:24.398043 29731 net.cpp:84] Creating Layer lstm1_transform_5
I1018 00:02:24.398048 29731 net.cpp:406] lstm1_transform_5 <- h_conted_4
I1018 00:02:24.398054 29731 net.cpp:380] lstm1_transform_5 -> W_hc_h_4
I1018 00:02:24.409776 29731 net.cpp:122] Setting up lstm1_transform_5
I1018 00:02:24.409793 29731 net.cpp:129] Top shape: 1 5 2048 (10240)
I1018 00:02:24.409798 29731 net.cpp:137] Memory required for data: 3555840
I1018 00:02:24.409803 29731 net.cpp:465] Sharing parameters 'W_hc' owned by layer 'lstm1_transform_1', param index 0
I1018 00:02:24.409808 29731 layer_factory.hpp:77] Creating layer lstm1_gate_input_5
I1018 00:02:24.409816 29731 net.cpp:84] Creating Layer lstm1_gate_input_5
I1018 00:02:24.409821 29731 net.cpp:406] lstm1_gate_input_5 <- W_hc_h_4
I1018 00:02:24.409827 29731 net.cpp:406] lstm1_gate_input_5 <- W_xc_x_5
I1018 00:02:24.409835 29731 net.cpp:380] lstm1_gate_input_5 -> gate_input_5
I1018 00:02:24.409862 29731 net.cpp:122] Setting up lstm1_gate_input_5
I1018 00:02:24.409869 29731 net.cpp:129] Top shape: 1 5 2048 (10240)
I1018 00:02:24.409873 29731 net.cpp:137] Memory required for data: 3596800
I1018 00:02:24.409878 29731 layer_factory.hpp:77] Creating layer lstm1_unit_5
I1018 00:02:24.409886 29731 net.cpp:84] Creating Layer lstm1_unit_5
I1018 00:02:24.409891 29731 net.cpp:406] lstm1_unit_5 <- c_4
I1018 00:02:24.409898 29731 net.cpp:406] lstm1_unit_5 <- gate_input_5
I1018 00:02:24.409903 29731 net.cpp:406] lstm1_unit_5 <- cont_5_lstm1_cont_slice_4_split_1
I1018 00:02:24.409909 29731 net.cpp:380] lstm1_unit_5 -> c_5
I1018 00:02:24.409916 29731 net.cpp:380] lstm1_unit_5 -> h_5
I1018 00:02:24.409960 29731 net.cpp:122] Setting up lstm1_unit_5
I1018 00:02:24.409966 29731 net.cpp:129] Top shape: 1 5 512 (2560)
I1018 00:02:24.409970 29731 net.cpp:129] Top shape: 1 5 512 (2560)
I1018 00:02:24.409974 29731 net.cpp:137] Memory required for data: 3617280
I1018 00:02:24.409978 29731 layer_factory.hpp:77] Creating layer h_5_lstm1_unit_5_1_split
I1018 00:02:24.409984 29731 net.cpp:84] Creating Layer h_5_lstm1_unit_5_1_split
I1018 00:02:24.409988 29731 net.cpp:406] h_5_lstm1_unit_5_1_split <- h_5
I1018 00:02:24.409996 29731 net.cpp:380] h_5_lstm1_unit_5_1_split -> h_5_lstm1_unit_5_1_split_0
I1018 00:02:24.410004 29731 net.cpp:380] h_5_lstm1_unit_5_1_split -> h_5_lstm1_unit_5_1_split_1
I1018 00:02:24.410033 29731 net.cpp:122] Setting up h_5_lstm1_unit_5_1_split
I1018 00:02:24.410039 29731 net.cpp:129] Top shape: 1 5 512 (2560)
I1018 00:02:24.410044 29731 net.cpp:129] Top shape: 1 5 512 (2560)
I1018 00:02:24.410048 29731 net.cpp:137] Memory required for data: 3637760
I1018 00:02:24.410053 29731 layer_factory.hpp:77] Creating layer lstm1_h_conted_5
I1018 00:02:24.410060 29731 net.cpp:84] Creating Layer lstm1_h_conted_5
I1018 00:02:24.410065 29731 net.cpp:406] lstm1_h_conted_5 <- h_5_lstm1_unit_5_1_split_0
I1018 00:02:24.410071 29731 net.cpp:406] lstm1_h_conted_5 <- cont_6_lstm1_cont_slice_5_split_0
I1018 00:02:24.410079 29731 net.cpp:380] lstm1_h_conted_5 -> h_conted_5
I1018 00:02:24.410137 29731 net.cpp:122] Setting up lstm1_h_conted_5
I1018 00:02:24.410145 29731 net.cpp:129] Top shape: 1 5 512 (2560)
I1018 00:02:24.410147 29731 net.cpp:137] Memory required for data: 3648000
I1018 00:02:24.410152 29731 layer_factory.hpp:77] Creating layer lstm1_transform_6
I1018 00:02:24.410162 29731 net.cpp:84] Creating Layer lstm1_transform_6
I1018 00:02:24.410167 29731 net.cpp:406] lstm1_transform_6 <- h_conted_5
I1018 00:02:24.410176 29731 net.cpp:380] lstm1_transform_6 -> W_hc_h_5
I1018 00:02:24.421979 29731 net.cpp:122] Setting up lstm1_transform_6
I1018 00:02:24.421995 29731 net.cpp:129] Top shape: 1 5 2048 (10240)
I1018 00:02:24.422000 29731 net.cpp:137] Memory required for data: 3688960
I1018 00:02:24.422005 29731 net.cpp:465] Sharing parameters 'W_hc' owned by layer 'lstm1_transform_1', param index 0
I1018 00:02:24.422010 29731 layer_factory.hpp:77] Creating layer lstm1_gate_input_6
I1018 00:02:24.422029 29731 net.cpp:84] Creating Layer lstm1_gate_input_6
I1018 00:02:24.422034 29731 net.cpp:406] lstm1_gate_input_6 <- W_hc_h_5
I1018 00:02:24.422040 29731 net.cpp:406] lstm1_gate_input_6 <- W_xc_x_6
I1018 00:02:24.422047 29731 net.cpp:380] lstm1_gate_input_6 -> gate_input_6
I1018 00:02:24.422078 29731 net.cpp:122] Setting up lstm1_gate_input_6
I1018 00:02:24.422086 29731 net.cpp:129] Top shape: 1 5 2048 (10240)
I1018 00:02:24.422088 29731 net.cpp:137] Memory required for data: 3729920
I1018 00:02:24.422094 29731 layer_factory.hpp:77] Creating layer lstm1_unit_6
I1018 00:02:24.422101 29731 net.cpp:84] Creating Layer lstm1_unit_6
I1018 00:02:24.422106 29731 net.cpp:406] lstm1_unit_6 <- c_5
I1018 00:02:24.422111 29731 net.cpp:406] lstm1_unit_6 <- gate_input_6
I1018 00:02:24.422116 29731 net.cpp:406] lstm1_unit_6 <- cont_6_lstm1_cont_slice_5_split_1
I1018 00:02:24.422122 29731 net.cpp:380] lstm1_unit_6 -> c_6
I1018 00:02:24.422129 29731 net.cpp:380] lstm1_unit_6 -> h_6
I1018 00:02:24.422173 29731 net.cpp:122] Setting up lstm1_unit_6
I1018 00:02:24.422179 29731 net.cpp:129] Top shape: 1 5 512 (2560)
I1018 00:02:24.422184 29731 net.cpp:129] Top shape: 1 5 512 (2560)
I1018 00:02:24.422188 29731 net.cpp:137] Memory required for data: 3750400
I1018 00:02:24.422193 29731 layer_factory.hpp:77] Creating layer h_6_lstm1_unit_6_1_split
I1018 00:02:24.422200 29731 net.cpp:84] Creating Layer h_6_lstm1_unit_6_1_split
I1018 00:02:24.422204 29731 net.cpp:406] h_6_lstm1_unit_6_1_split <- h_6
I1018 00:02:24.422210 29731 net.cpp:380] h_6_lstm1_unit_6_1_split -> h_6_lstm1_unit_6_1_split_0
I1018 00:02:24.422217 29731 net.cpp:380] h_6_lstm1_unit_6_1_split -> h_6_lstm1_unit_6_1_split_1
I1018 00:02:24.422248 29731 net.cpp:122] Setting up h_6_lstm1_unit_6_1_split
I1018 00:02:24.422255 29731 net.cpp:129] Top shape: 1 5 512 (2560)
I1018 00:02:24.422260 29731 net.cpp:129] Top shape: 1 5 512 (2560)
I1018 00:02:24.422263 29731 net.cpp:137] Memory required for data: 3770880
I1018 00:02:24.422267 29731 layer_factory.hpp:77] Creating layer lstm1_h_conted_6
I1018 00:02:24.422274 29731 net.cpp:84] Creating Layer lstm1_h_conted_6
I1018 00:02:24.422278 29731 net.cpp:406] lstm1_h_conted_6 <- h_6_lstm1_unit_6_1_split_0
I1018 00:02:24.422284 29731 net.cpp:406] lstm1_h_conted_6 <- cont_7_lstm1_cont_slice_6_split_0
I1018 00:02:24.422291 29731 net.cpp:380] lstm1_h_conted_6 -> h_conted_6
I1018 00:02:24.422344 29731 net.cpp:122] Setting up lstm1_h_conted_6
I1018 00:02:24.422351 29731 net.cpp:129] Top shape: 1 5 512 (2560)
I1018 00:02:24.422355 29731 net.cpp:137] Memory required for data: 3781120
I1018 00:02:24.422359 29731 layer_factory.hpp:77] Creating layer lstm1_transform_7
I1018 00:02:24.422366 29731 net.cpp:84] Creating Layer lstm1_transform_7
I1018 00:02:24.422371 29731 net.cpp:406] lstm1_transform_7 <- h_conted_6
I1018 00:02:24.422377 29731 net.cpp:380] lstm1_transform_7 -> W_hc_h_6
I1018 00:02:24.434226 29731 net.cpp:122] Setting up lstm1_transform_7
I1018 00:02:24.434244 29731 net.cpp:129] Top shape: 1 5 2048 (10240)
I1018 00:02:24.434249 29731 net.cpp:137] Memory required for data: 3822080
I1018 00:02:24.434258 29731 net.cpp:465] Sharing parameters 'W_hc' owned by layer 'lstm1_transform_1', param index 0
I1018 00:02:24.434263 29731 layer_factory.hpp:77] Creating layer lstm1_gate_input_7
I1018 00:02:24.434270 29731 net.cpp:84] Creating Layer lstm1_gate_input_7
I1018 00:02:24.434275 29731 net.cpp:406] lstm1_gate_input_7 <- W_hc_h_6
I1018 00:02:24.434283 29731 net.cpp:406] lstm1_gate_input_7 <- W_xc_x_7
I1018 00:02:24.434288 29731 net.cpp:380] lstm1_gate_input_7 -> gate_input_7
I1018 00:02:24.434320 29731 net.cpp:122] Setting up lstm1_gate_input_7
I1018 00:02:24.434327 29731 net.cpp:129] Top shape: 1 5 2048 (10240)
I1018 00:02:24.434331 29731 net.cpp:137] Memory required for data: 3863040
I1018 00:02:24.434335 29731 layer_factory.hpp:77] Creating layer lstm1_unit_7
I1018 00:02:24.434342 29731 net.cpp:84] Creating Layer lstm1_unit_7
I1018 00:02:24.434346 29731 net.cpp:406] lstm1_unit_7 <- c_6
I1018 00:02:24.434352 29731 net.cpp:406] lstm1_unit_7 <- gate_input_7
I1018 00:02:24.434357 29731 net.cpp:406] lstm1_unit_7 <- cont_7_lstm1_cont_slice_6_split_1
I1018 00:02:24.434363 29731 net.cpp:380] lstm1_unit_7 -> c_7
I1018 00:02:24.434371 29731 net.cpp:380] lstm1_unit_7 -> h_7
I1018 00:02:24.434414 29731 net.cpp:122] Setting up lstm1_unit_7
I1018 00:02:24.434420 29731 net.cpp:129] Top shape: 1 5 512 (2560)
I1018 00:02:24.434425 29731 net.cpp:129] Top shape: 1 5 512 (2560)
I1018 00:02:24.434429 29731 net.cpp:137] Memory required for data: 3883520
I1018 00:02:24.434433 29731 layer_factory.hpp:77] Creating layer h_7_lstm1_unit_7_1_split
I1018 00:02:24.434440 29731 net.cpp:84] Creating Layer h_7_lstm1_unit_7_1_split
I1018 00:02:24.434445 29731 net.cpp:406] h_7_lstm1_unit_7_1_split <- h_7
I1018 00:02:24.434451 29731 net.cpp:380] h_7_lstm1_unit_7_1_split -> h_7_lstm1_unit_7_1_split_0
I1018 00:02:24.434458 29731 net.cpp:380] h_7_lstm1_unit_7_1_split -> h_7_lstm1_unit_7_1_split_1
I1018 00:02:24.434489 29731 net.cpp:122] Setting up h_7_lstm1_unit_7_1_split
I1018 00:02:24.434496 29731 net.cpp:129] Top shape: 1 5 512 (2560)
I1018 00:02:24.434500 29731 net.cpp:129] Top shape: 1 5 512 (2560)
I1018 00:02:24.434504 29731 net.cpp:137] Memory required for data: 3904000
I1018 00:02:24.434509 29731 layer_factory.hpp:77] Creating layer lstm1_h_conted_7
I1018 00:02:24.434517 29731 net.cpp:84] Creating Layer lstm1_h_conted_7
I1018 00:02:24.434522 29731 net.cpp:406] lstm1_h_conted_7 <- h_7_lstm1_unit_7_1_split_0
I1018 00:02:24.434528 29731 net.cpp:406] lstm1_h_conted_7 <- cont_8_lstm1_cont_slice_7_split_0
I1018 00:02:24.434535 29731 net.cpp:380] lstm1_h_conted_7 -> h_conted_7
I1018 00:02:24.434589 29731 net.cpp:122] Setting up lstm1_h_conted_7
I1018 00:02:24.434595 29731 net.cpp:129] Top shape: 1 5 512 (2560)
I1018 00:02:24.434599 29731 net.cpp:137] Memory required for data: 3914240
I1018 00:02:24.434603 29731 layer_factory.hpp:77] Creating layer lstm1_transform_8
I1018 00:02:24.434612 29731 net.cpp:84] Creating Layer lstm1_transform_8
I1018 00:02:24.434617 29731 net.cpp:406] lstm1_transform_8 <- h_conted_7
I1018 00:02:24.434624 29731 net.cpp:380] lstm1_transform_8 -> W_hc_h_7
I1018 00:02:24.446326 29731 net.cpp:122] Setting up lstm1_transform_8
I1018 00:02:24.446341 29731 net.cpp:129] Top shape: 1 5 2048 (10240)
I1018 00:02:24.446346 29731 net.cpp:137] Memory required for data: 3955200
I1018 00:02:24.446352 29731 net.cpp:465] Sharing parameters 'W_hc' owned by layer 'lstm1_transform_1', param index 0
I1018 00:02:24.446357 29731 layer_factory.hpp:77] Creating layer lstm1_gate_input_8
I1018 00:02:24.446363 29731 net.cpp:84] Creating Layer lstm1_gate_input_8
I1018 00:02:24.446368 29731 net.cpp:406] lstm1_gate_input_8 <- W_hc_h_7
I1018 00:02:24.446375 29731 net.cpp:406] lstm1_gate_input_8 <- W_xc_x_8
I1018 00:02:24.446382 29731 net.cpp:380] lstm1_gate_input_8 -> gate_input_8
I1018 00:02:24.446409 29731 net.cpp:122] Setting up lstm1_gate_input_8
I1018 00:02:24.446416 29731 net.cpp:129] Top shape: 1 5 2048 (10240)
I1018 00:02:24.446420 29731 net.cpp:137] Memory required for data: 3996160
I1018 00:02:24.446424 29731 layer_factory.hpp:77] Creating layer lstm1_unit_8
I1018 00:02:24.446432 29731 net.cpp:84] Creating Layer lstm1_unit_8
I1018 00:02:24.446437 29731 net.cpp:406] lstm1_unit_8 <- c_7
I1018 00:02:24.446444 29731 net.cpp:406] lstm1_unit_8 <- gate_input_8
I1018 00:02:24.446449 29731 net.cpp:406] lstm1_unit_8 <- cont_8_lstm1_cont_slice_7_split_1
I1018 00:02:24.446455 29731 net.cpp:380] lstm1_unit_8 -> c_8
I1018 00:02:24.446462 29731 net.cpp:380] lstm1_unit_8 -> h_8
I1018 00:02:24.446506 29731 net.cpp:122] Setting up lstm1_unit_8
I1018 00:02:24.446512 29731 net.cpp:129] Top shape: 1 5 512 (2560)
I1018 00:02:24.446517 29731 net.cpp:129] Top shape: 1 5 512 (2560)
I1018 00:02:24.446521 29731 net.cpp:137] Memory required for data: 4016640
I1018 00:02:24.446526 29731 layer_factory.hpp:77] Creating layer h_8_lstm1_unit_8_1_split
I1018 00:02:24.446530 29731 net.cpp:84] Creating Layer h_8_lstm1_unit_8_1_split
I1018 00:02:24.446535 29731 net.cpp:406] h_8_lstm1_unit_8_1_split <- h_8
I1018 00:02:24.446543 29731 net.cpp:380] h_8_lstm1_unit_8_1_split -> h_8_lstm1_unit_8_1_split_0
I1018 00:02:24.446549 29731 net.cpp:380] h_8_lstm1_unit_8_1_split -> h_8_lstm1_unit_8_1_split_1
I1018 00:02:24.446579 29731 net.cpp:122] Setting up h_8_lstm1_unit_8_1_split
I1018 00:02:24.446585 29731 net.cpp:129] Top shape: 1 5 512 (2560)
I1018 00:02:24.446590 29731 net.cpp:129] Top shape: 1 5 512 (2560)
I1018 00:02:24.446593 29731 net.cpp:137] Memory required for data: 4037120
I1018 00:02:24.446599 29731 layer_factory.hpp:77] Creating layer lstm1_h_conted_8
I1018 00:02:24.446606 29731 net.cpp:84] Creating Layer lstm1_h_conted_8
I1018 00:02:24.446610 29731 net.cpp:406] lstm1_h_conted_8 <- h_8_lstm1_unit_8_1_split_0
I1018 00:02:24.446616 29731 net.cpp:406] lstm1_h_conted_8 <- cont_9_lstm1_cont_slice_8_split_0
I1018 00:02:24.446624 29731 net.cpp:380] lstm1_h_conted_8 -> h_conted_8
I1018 00:02:24.446677 29731 net.cpp:122] Setting up lstm1_h_conted_8
I1018 00:02:24.446684 29731 net.cpp:129] Top shape: 1 5 512 (2560)
I1018 00:02:24.446688 29731 net.cpp:137] Memory required for data: 4047360
I1018 00:02:24.446692 29731 layer_factory.hpp:77] Creating layer lstm1_transform_9
I1018 00:02:24.446702 29731 net.cpp:84] Creating Layer lstm1_transform_9
I1018 00:02:24.446707 29731 net.cpp:406] lstm1_transform_9 <- h_conted_8
I1018 00:02:24.446714 29731 net.cpp:380] lstm1_transform_9 -> W_hc_h_8
I1018 00:02:24.458400 29731 net.cpp:122] Setting up lstm1_transform_9
I1018 00:02:24.458418 29731 net.cpp:129] Top shape: 1 5 2048 (10240)
I1018 00:02:24.458423 29731 net.cpp:137] Memory required for data: 4088320
I1018 00:02:24.458428 29731 net.cpp:465] Sharing parameters 'W_hc' owned by layer 'lstm1_transform_1', param index 0
I1018 00:02:24.458433 29731 layer_factory.hpp:77] Creating layer lstm1_gate_input_9
I1018 00:02:24.458443 29731 net.cpp:84] Creating Layer lstm1_gate_input_9
I1018 00:02:24.458448 29731 net.cpp:406] lstm1_gate_input_9 <- W_hc_h_8
I1018 00:02:24.458454 29731 net.cpp:406] lstm1_gate_input_9 <- W_xc_x_9
I1018 00:02:24.458461 29731 net.cpp:380] lstm1_gate_input_9 -> gate_input_9
I1018 00:02:24.458488 29731 net.cpp:122] Setting up lstm1_gate_input_9
I1018 00:02:24.458501 29731 net.cpp:129] Top shape: 1 5 2048 (10240)
I1018 00:02:24.458505 29731 net.cpp:137] Memory required for data: 4129280
I1018 00:02:24.458509 29731 layer_factory.hpp:77] Creating layer lstm1_unit_9
I1018 00:02:24.458523 29731 net.cpp:84] Creating Layer lstm1_unit_9
I1018 00:02:24.458528 29731 net.cpp:406] lstm1_unit_9 <- c_8
I1018 00:02:24.458534 29731 net.cpp:406] lstm1_unit_9 <- gate_input_9
I1018 00:02:24.458540 29731 net.cpp:406] lstm1_unit_9 <- cont_9_lstm1_cont_slice_8_split_1
I1018 00:02:24.458545 29731 net.cpp:380] lstm1_unit_9 -> c_9
I1018 00:02:24.458554 29731 net.cpp:380] lstm1_unit_9 -> h_9
I1018 00:02:24.458598 29731 net.cpp:122] Setting up lstm1_unit_9
I1018 00:02:24.458606 29731 net.cpp:129] Top shape: 1 5 512 (2560)
I1018 00:02:24.458611 29731 net.cpp:129] Top shape: 1 5 512 (2560)
I1018 00:02:24.458616 29731 net.cpp:137] Memory required for data: 4149760
I1018 00:02:24.458621 29731 layer_factory.hpp:77] Creating layer h_9_lstm1_unit_9_1_split
I1018 00:02:24.458626 29731 net.cpp:84] Creating Layer h_9_lstm1_unit_9_1_split
I1018 00:02:24.458631 29731 net.cpp:406] h_9_lstm1_unit_9_1_split <- h_9
I1018 00:02:24.458636 29731 net.cpp:380] h_9_lstm1_unit_9_1_split -> h_9_lstm1_unit_9_1_split_0
I1018 00:02:24.458645 29731 net.cpp:380] h_9_lstm1_unit_9_1_split -> h_9_lstm1_unit_9_1_split_1
I1018 00:02:24.458676 29731 net.cpp:122] Setting up h_9_lstm1_unit_9_1_split
I1018 00:02:24.458684 29731 net.cpp:129] Top shape: 1 5 512 (2560)
I1018 00:02:24.458689 29731 net.cpp:129] Top shape: 1 5 512 (2560)
I1018 00:02:24.458693 29731 net.cpp:137] Memory required for data: 4170240
I1018 00:02:24.458698 29731 layer_factory.hpp:77] Creating layer lstm1_h_conted_9
I1018 00:02:24.458705 29731 net.cpp:84] Creating Layer lstm1_h_conted_9
I1018 00:02:24.458710 29731 net.cpp:406] lstm1_h_conted_9 <- h_9_lstm1_unit_9_1_split_0
I1018 00:02:24.458717 29731 net.cpp:406] lstm1_h_conted_9 <- cont_10_lstm1_cont_slice_9_split_0
I1018 00:02:24.458724 29731 net.cpp:380] lstm1_h_conted_9 -> h_conted_9
I1018 00:02:24.458780 29731 net.cpp:122] Setting up lstm1_h_conted_9
I1018 00:02:24.458788 29731 net.cpp:129] Top shape: 1 5 512 (2560)
I1018 00:02:24.458792 29731 net.cpp:137] Memory required for data: 4180480
I1018 00:02:24.458796 29731 layer_factory.hpp:77] Creating layer lstm1_transform_10
I1018 00:02:24.458806 29731 net.cpp:84] Creating Layer lstm1_transform_10
I1018 00:02:24.458811 29731 net.cpp:406] lstm1_transform_10 <- h_conted_9
I1018 00:02:24.458818 29731 net.cpp:380] lstm1_transform_10 -> W_hc_h_9
I1018 00:02:24.470577 29731 net.cpp:122] Setting up lstm1_transform_10
I1018 00:02:24.470592 29731 net.cpp:129] Top shape: 1 5 2048 (10240)
I1018 00:02:24.470597 29731 net.cpp:137] Memory required for data: 4221440
I1018 00:02:24.470602 29731 net.cpp:465] Sharing parameters 'W_hc' owned by layer 'lstm1_transform_1', param index 0
I1018 00:02:24.470608 29731 layer_factory.hpp:77] Creating layer lstm1_gate_input_10
I1018 00:02:24.470618 29731 net.cpp:84] Creating Layer lstm1_gate_input_10
I1018 00:02:24.470623 29731 net.cpp:406] lstm1_gate_input_10 <- W_hc_h_9
I1018 00:02:24.470629 29731 net.cpp:406] lstm1_gate_input_10 <- W_xc_x_10
I1018 00:02:24.470635 29731 net.cpp:380] lstm1_gate_input_10 -> gate_input_10
I1018 00:02:24.470662 29731 net.cpp:122] Setting up lstm1_gate_input_10
I1018 00:02:24.470672 29731 net.cpp:129] Top shape: 1 5 2048 (10240)
I1018 00:02:24.470676 29731 net.cpp:137] Memory required for data: 4262400
I1018 00:02:24.470680 29731 layer_factory.hpp:77] Creating layer lstm1_unit_10
I1018 00:02:24.470687 29731 net.cpp:84] Creating Layer lstm1_unit_10
I1018 00:02:24.470692 29731 net.cpp:406] lstm1_unit_10 <- c_9
I1018 00:02:24.470698 29731 net.cpp:406] lstm1_unit_10 <- gate_input_10
I1018 00:02:24.470703 29731 net.cpp:406] lstm1_unit_10 <- cont_10_lstm1_cont_slice_9_split_1
I1018 00:02:24.470715 29731 net.cpp:380] lstm1_unit_10 -> c_10
I1018 00:02:24.470721 29731 net.cpp:380] lstm1_unit_10 -> h_10
I1018 00:02:24.470767 29731 net.cpp:122] Setting up lstm1_unit_10
I1018 00:02:24.470774 29731 net.cpp:129] Top shape: 1 5 512 (2560)
I1018 00:02:24.470780 29731 net.cpp:129] Top shape: 1 5 512 (2560)
I1018 00:02:24.470784 29731 net.cpp:137] Memory required for data: 4282880
I1018 00:02:24.470789 29731 layer_factory.hpp:77] Creating layer h_10_lstm1_unit_10_1_split
I1018 00:02:24.470794 29731 net.cpp:84] Creating Layer h_10_lstm1_unit_10_1_split
I1018 00:02:24.470799 29731 net.cpp:406] h_10_lstm1_unit_10_1_split <- h_10
I1018 00:02:24.470805 29731 net.cpp:380] h_10_lstm1_unit_10_1_split -> h_10_lstm1_unit_10_1_split_0
I1018 00:02:24.470813 29731 net.cpp:380] h_10_lstm1_unit_10_1_split -> h_10_lstm1_unit_10_1_split_1
I1018 00:02:24.470846 29731 net.cpp:122] Setting up h_10_lstm1_unit_10_1_split
I1018 00:02:24.470854 29731 net.cpp:129] Top shape: 1 5 512 (2560)
I1018 00:02:24.470860 29731 net.cpp:129] Top shape: 1 5 512 (2560)
I1018 00:02:24.470863 29731 net.cpp:137] Memory required for data: 4303360
I1018 00:02:24.470868 29731 layer_factory.hpp:77] Creating layer lstm1_h_conted_10
I1018 00:02:24.470875 29731 net.cpp:84] Creating Layer lstm1_h_conted_10
I1018 00:02:24.470880 29731 net.cpp:406] lstm1_h_conted_10 <- h_10_lstm1_unit_10_1_split_0
I1018 00:02:24.470885 29731 net.cpp:406] lstm1_h_conted_10 <- cont_11_lstm1_cont_slice_10_split_0
I1018 00:02:24.470894 29731 net.cpp:380] lstm1_h_conted_10 -> h_conted_10
I1018 00:02:24.470950 29731 net.cpp:122] Setting up lstm1_h_conted_10
I1018 00:02:24.470959 29731 net.cpp:129] Top shape: 1 5 512 (2560)
I1018 00:02:24.470963 29731 net.cpp:137] Memory required for data: 4313600
I1018 00:02:24.470968 29731 layer_factory.hpp:77] Creating layer lstm1_transform_11
I1018 00:02:24.470975 29731 net.cpp:84] Creating Layer lstm1_transform_11
I1018 00:02:24.470980 29731 net.cpp:406] lstm1_transform_11 <- h_conted_10
I1018 00:02:24.470988 29731 net.cpp:380] lstm1_transform_11 -> W_hc_h_10
I1018 00:02:24.482903 29731 net.cpp:122] Setting up lstm1_transform_11
I1018 00:02:24.482919 29731 net.cpp:129] Top shape: 1 5 2048 (10240)
I1018 00:02:24.482924 29731 net.cpp:137] Memory required for data: 4354560
I1018 00:02:24.482929 29731 net.cpp:465] Sharing parameters 'W_hc' owned by layer 'lstm1_transform_1', param index 0
I1018 00:02:24.482934 29731 layer_factory.hpp:77] Creating layer lstm1_gate_input_11
I1018 00:02:24.482942 29731 net.cpp:84] Creating Layer lstm1_gate_input_11
I1018 00:02:24.482947 29731 net.cpp:406] lstm1_gate_input_11 <- W_hc_h_10
I1018 00:02:24.482954 29731 net.cpp:406] lstm1_gate_input_11 <- W_xc_x_11
I1018 00:02:24.482962 29731 net.cpp:380] lstm1_gate_input_11 -> gate_input_11
I1018 00:02:24.482990 29731 net.cpp:122] Setting up lstm1_gate_input_11
I1018 00:02:24.483000 29731 net.cpp:129] Top shape: 1 5 2048 (10240)
I1018 00:02:24.483003 29731 net.cpp:137] Memory required for data: 4395520
I1018 00:02:24.483007 29731 layer_factory.hpp:77] Creating layer lstm1_unit_11
I1018 00:02:24.483013 29731 net.cpp:84] Creating Layer lstm1_unit_11
I1018 00:02:24.483018 29731 net.cpp:406] lstm1_unit_11 <- c_10
I1018 00:02:24.483024 29731 net.cpp:406] lstm1_unit_11 <- gate_input_11
I1018 00:02:24.483031 29731 net.cpp:406] lstm1_unit_11 <- cont_11_lstm1_cont_slice_10_split_1
I1018 00:02:24.483036 29731 net.cpp:380] lstm1_unit_11 -> c_11
I1018 00:02:24.483047 29731 net.cpp:380] lstm1_unit_11 -> h_11
I1018 00:02:24.483090 29731 net.cpp:122] Setting up lstm1_unit_11
I1018 00:02:24.483099 29731 net.cpp:129] Top shape: 1 5 512 (2560)
I1018 00:02:24.483104 29731 net.cpp:129] Top shape: 1 5 512 (2560)
I1018 00:02:24.483108 29731 net.cpp:137] Memory required for data: 4416000
I1018 00:02:24.483113 29731 layer_factory.hpp:77] Creating layer h_11_lstm1_unit_11_1_split
I1018 00:02:24.483119 29731 net.cpp:84] Creating Layer h_11_lstm1_unit_11_1_split
I1018 00:02:24.483122 29731 net.cpp:406] h_11_lstm1_unit_11_1_split <- h_11
I1018 00:02:24.483129 29731 net.cpp:380] h_11_lstm1_unit_11_1_split -> h_11_lstm1_unit_11_1_split_0
I1018 00:02:24.483136 29731 net.cpp:380] h_11_lstm1_unit_11_1_split -> h_11_lstm1_unit_11_1_split_1
I1018 00:02:24.483170 29731 net.cpp:122] Setting up h_11_lstm1_unit_11_1_split
I1018 00:02:24.483177 29731 net.cpp:129] Top shape: 1 5 512 (2560)
I1018 00:02:24.483182 29731 net.cpp:129] Top shape: 1 5 512 (2560)
I1018 00:02:24.483186 29731 net.cpp:137] Memory required for data: 4436480
I1018 00:02:24.483191 29731 layer_factory.hpp:77] Creating layer lstm1_h_conted_11
I1018 00:02:24.483197 29731 net.cpp:84] Creating Layer lstm1_h_conted_11
I1018 00:02:24.483202 29731 net.cpp:406] lstm1_h_conted_11 <- h_11_lstm1_unit_11_1_split_0
I1018 00:02:24.483208 29731 net.cpp:406] lstm1_h_conted_11 <- cont_12_lstm1_cont_slice_11_split_0
I1018 00:02:24.483218 29731 net.cpp:380] lstm1_h_conted_11 -> h_conted_11
I1018 00:02:24.483274 29731 net.cpp:122] Setting up lstm1_h_conted_11
I1018 00:02:24.483283 29731 net.cpp:129] Top shape: 1 5 512 (2560)
I1018 00:02:24.483286 29731 net.cpp:137] Memory required for data: 4446720
I1018 00:02:24.483290 29731 layer_factory.hpp:77] Creating layer lstm1_transform_12
I1018 00:02:24.483299 29731 net.cpp:84] Creating Layer lstm1_transform_12
I1018 00:02:24.483304 29731 net.cpp:406] lstm1_transform_12 <- h_conted_11
I1018 00:02:24.483312 29731 net.cpp:380] lstm1_transform_12 -> W_hc_h_11
I1018 00:02:24.495084 29731 net.cpp:122] Setting up lstm1_transform_12
I1018 00:02:24.495105 29731 net.cpp:129] Top shape: 1 5 2048 (10240)
I1018 00:02:24.495110 29731 net.cpp:137] Memory required for data: 4487680
I1018 00:02:24.495115 29731 net.cpp:465] Sharing parameters 'W_hc' owned by layer 'lstm1_transform_1', param index 0
I1018 00:02:24.495121 29731 layer_factory.hpp:77] Creating layer lstm1_gate_input_12
I1018 00:02:24.495129 29731 net.cpp:84] Creating Layer lstm1_gate_input_12
I1018 00:02:24.495137 29731 net.cpp:406] lstm1_gate_input_12 <- W_hc_h_11
I1018 00:02:24.495144 29731 net.cpp:406] lstm1_gate_input_12 <- W_xc_x_12
I1018 00:02:24.495151 29731 net.cpp:380] lstm1_gate_input_12 -> gate_input_12
I1018 00:02:24.495183 29731 net.cpp:122] Setting up lstm1_gate_input_12
I1018 00:02:24.495193 29731 net.cpp:129] Top shape: 1 5 2048 (10240)
I1018 00:02:24.495196 29731 net.cpp:137] Memory required for data: 4528640
I1018 00:02:24.495200 29731 layer_factory.hpp:77] Creating layer lstm1_unit_12
I1018 00:02:24.495208 29731 net.cpp:84] Creating Layer lstm1_unit_12
I1018 00:02:24.495213 29731 net.cpp:406] lstm1_unit_12 <- c_11
I1018 00:02:24.495218 29731 net.cpp:406] lstm1_unit_12 <- gate_input_12
I1018 00:02:24.495224 29731 net.cpp:406] lstm1_unit_12 <- cont_12_lstm1_cont_slice_11_split_1
I1018 00:02:24.495230 29731 net.cpp:380] lstm1_unit_12 -> c_12
I1018 00:02:24.495239 29731 net.cpp:380] lstm1_unit_12 -> h_12
I1018 00:02:24.495285 29731 net.cpp:122] Setting up lstm1_unit_12
I1018 00:02:24.495293 29731 net.cpp:129] Top shape: 1 5 512 (2560)
I1018 00:02:24.495298 29731 net.cpp:129] Top shape: 1 5 512 (2560)
I1018 00:02:24.495302 29731 net.cpp:137] Memory required for data: 4549120
I1018 00:02:24.495307 29731 layer_factory.hpp:77] Creating layer h_12_lstm1_unit_12_1_split
I1018 00:02:24.495314 29731 net.cpp:84] Creating Layer h_12_lstm1_unit_12_1_split
I1018 00:02:24.495318 29731 net.cpp:406] h_12_lstm1_unit_12_1_split <- h_12
I1018 00:02:24.495326 29731 net.cpp:380] h_12_lstm1_unit_12_1_split -> h_12_lstm1_unit_12_1_split_0
I1018 00:02:24.495332 29731 net.cpp:380] h_12_lstm1_unit_12_1_split -> h_12_lstm1_unit_12_1_split_1
I1018 00:02:24.495370 29731 net.cpp:122] Setting up h_12_lstm1_unit_12_1_split
I1018 00:02:24.495378 29731 net.cpp:129] Top shape: 1 5 512 (2560)
I1018 00:02:24.495383 29731 net.cpp:129] Top shape: 1 5 512 (2560)
I1018 00:02:24.495386 29731 net.cpp:137] Memory required for data: 4569600
I1018 00:02:24.495390 29731 layer_factory.hpp:77] Creating layer lstm1_h_conted_12
I1018 00:02:24.495398 29731 net.cpp:84] Creating Layer lstm1_h_conted_12
I1018 00:02:24.495402 29731 net.cpp:406] lstm1_h_conted_12 <- h_12_lstm1_unit_12_1_split_0
I1018 00:02:24.495409 29731 net.cpp:406] lstm1_h_conted_12 <- cont_13_lstm1_cont_slice_12_split_0
I1018 00:02:24.495415 29731 net.cpp:380] lstm1_h_conted_12 -> h_conted_12
I1018 00:02:24.495474 29731 net.cpp:122] Setting up lstm1_h_conted_12
I1018 00:02:24.495483 29731 net.cpp:129] Top shape: 1 5 512 (2560)
I1018 00:02:24.495487 29731 net.cpp:137] Memory required for data: 4579840
I1018 00:02:24.495491 29731 layer_factory.hpp:77] Creating layer lstm1_transform_13
I1018 00:02:24.495498 29731 net.cpp:84] Creating Layer lstm1_transform_13
I1018 00:02:24.495503 29731 net.cpp:406] lstm1_transform_13 <- h_conted_12
I1018 00:02:24.495510 29731 net.cpp:380] lstm1_transform_13 -> W_hc_h_12
I1018 00:02:24.507436 29731 net.cpp:122] Setting up lstm1_transform_13
I1018 00:02:24.507459 29731 net.cpp:129] Top shape: 1 5 2048 (10240)
I1018 00:02:24.507463 29731 net.cpp:137] Memory required for data: 4620800
I1018 00:02:24.507470 29731 net.cpp:465] Sharing parameters 'W_hc' owned by layer 'lstm1_transform_1', param index 0
I1018 00:02:24.507475 29731 layer_factory.hpp:77] Creating layer lstm1_gate_input_13
I1018 00:02:24.507484 29731 net.cpp:84] Creating Layer lstm1_gate_input_13
I1018 00:02:24.507490 29731 net.cpp:406] lstm1_gate_input_13 <- W_hc_h_12
I1018 00:02:24.507496 29731 net.cpp:406] lstm1_gate_input_13 <- W_xc_x_13
I1018 00:02:24.507503 29731 net.cpp:380] lstm1_gate_input_13 -> gate_input_13
I1018 00:02:24.507537 29731 net.cpp:122] Setting up lstm1_gate_input_13
I1018 00:02:24.507545 29731 net.cpp:129] Top shape: 1 5 2048 (10240)
I1018 00:02:24.507550 29731 net.cpp:137] Memory required for data: 4661760
I1018 00:02:24.507555 29731 layer_factory.hpp:77] Creating layer lstm1_unit_13
I1018 00:02:24.507561 29731 net.cpp:84] Creating Layer lstm1_unit_13
I1018 00:02:24.507566 29731 net.cpp:406] lstm1_unit_13 <- c_12
I1018 00:02:24.507572 29731 net.cpp:406] lstm1_unit_13 <- gate_input_13
I1018 00:02:24.507578 29731 net.cpp:406] lstm1_unit_13 <- cont_13_lstm1_cont_slice_12_split_1
I1018 00:02:24.507585 29731 net.cpp:380] lstm1_unit_13 -> c_13
I1018 00:02:24.507592 29731 net.cpp:380] lstm1_unit_13 -> h_13
I1018 00:02:24.507637 29731 net.cpp:122] Setting up lstm1_unit_13
I1018 00:02:24.507644 29731 net.cpp:129] Top shape: 1 5 512 (2560)
I1018 00:02:24.507649 29731 net.cpp:129] Top shape: 1 5 512 (2560)
I1018 00:02:24.507653 29731 net.cpp:137] Memory required for data: 4682240
I1018 00:02:24.507658 29731 layer_factory.hpp:77] Creating layer h_13_lstm1_unit_13_1_split
I1018 00:02:24.507671 29731 net.cpp:84] Creating Layer h_13_lstm1_unit_13_1_split
I1018 00:02:24.507680 29731 net.cpp:406] h_13_lstm1_unit_13_1_split <- h_13
I1018 00:02:24.507686 29731 net.cpp:380] h_13_lstm1_unit_13_1_split -> h_13_lstm1_unit_13_1_split_0
I1018 00:02:24.507694 29731 net.cpp:380] h_13_lstm1_unit_13_1_split -> h_13_lstm1_unit_13_1_split_1
I1018 00:02:24.507730 29731 net.cpp:122] Setting up h_13_lstm1_unit_13_1_split
I1018 00:02:24.507735 29731 net.cpp:129] Top shape: 1 5 512 (2560)
I1018 00:02:24.507740 29731 net.cpp:129] Top shape: 1 5 512 (2560)
I1018 00:02:24.507745 29731 net.cpp:137] Memory required for data: 4702720
I1018 00:02:24.507750 29731 layer_factory.hpp:77] Creating layer lstm1_h_conted_13
I1018 00:02:24.507758 29731 net.cpp:84] Creating Layer lstm1_h_conted_13
I1018 00:02:24.507763 29731 net.cpp:406] lstm1_h_conted_13 <- h_13_lstm1_unit_13_1_split_0
I1018 00:02:24.507769 29731 net.cpp:406] lstm1_h_conted_13 <- cont_14_lstm1_cont_slice_13_split_0
I1018 00:02:24.507776 29731 net.cpp:380] lstm1_h_conted_13 -> h_conted_13
I1018 00:02:24.507834 29731 net.cpp:122] Setting up lstm1_h_conted_13
I1018 00:02:24.507843 29731 net.cpp:129] Top shape: 1 5 512 (2560)
I1018 00:02:24.507848 29731 net.cpp:137] Memory required for data: 4712960
I1018 00:02:24.507851 29731 layer_factory.hpp:77] Creating layer lstm1_transform_14
I1018 00:02:24.507861 29731 net.cpp:84] Creating Layer lstm1_transform_14
I1018 00:02:24.507866 29731 net.cpp:406] lstm1_transform_14 <- h_conted_13
I1018 00:02:24.507874 29731 net.cpp:380] lstm1_transform_14 -> W_hc_h_13
I1018 00:02:24.519582 29731 net.cpp:122] Setting up lstm1_transform_14
I1018 00:02:24.519599 29731 net.cpp:129] Top shape: 1 5 2048 (10240)
I1018 00:02:24.519603 29731 net.cpp:137] Memory required for data: 4753920
I1018 00:02:24.519610 29731 net.cpp:465] Sharing parameters 'W_hc' owned by layer 'lstm1_transform_1', param index 0
I1018 00:02:24.519615 29731 layer_factory.hpp:77] Creating layer lstm1_gate_input_14
I1018 00:02:24.519623 29731 net.cpp:84] Creating Layer lstm1_gate_input_14
I1018 00:02:24.519629 29731 net.cpp:406] lstm1_gate_input_14 <- W_hc_h_13
I1018 00:02:24.519634 29731 net.cpp:406] lstm1_gate_input_14 <- W_xc_x_14
I1018 00:02:24.519640 29731 net.cpp:380] lstm1_gate_input_14 -> gate_input_14
I1018 00:02:24.519668 29731 net.cpp:122] Setting up lstm1_gate_input_14
I1018 00:02:24.519677 29731 net.cpp:129] Top shape: 1 5 2048 (10240)
I1018 00:02:24.519681 29731 net.cpp:137] Memory required for data: 4794880
I1018 00:02:24.519685 29731 layer_factory.hpp:77] Creating layer lstm1_unit_14
I1018 00:02:24.519695 29731 net.cpp:84] Creating Layer lstm1_unit_14
I1018 00:02:24.519701 29731 net.cpp:406] lstm1_unit_14 <- c_13
I1018 00:02:24.519706 29731 net.cpp:406] lstm1_unit_14 <- gate_input_14
I1018 00:02:24.519712 29731 net.cpp:406] lstm1_unit_14 <- cont_14_lstm1_cont_slice_13_split_1
I1018 00:02:24.519719 29731 net.cpp:380] lstm1_unit_14 -> c_14
I1018 00:02:24.519726 29731 net.cpp:380] lstm1_unit_14 -> h_14
I1018 00:02:24.519773 29731 net.cpp:122] Setting up lstm1_unit_14
I1018 00:02:24.519780 29731 net.cpp:129] Top shape: 1 5 512 (2560)
I1018 00:02:24.519785 29731 net.cpp:129] Top shape: 1 5 512 (2560)
I1018 00:02:24.519789 29731 net.cpp:137] Memory required for data: 4815360
I1018 00:02:24.519794 29731 layer_factory.hpp:77] Creating layer h_14_lstm1_unit_14_1_split
I1018 00:02:24.519800 29731 net.cpp:84] Creating Layer h_14_lstm1_unit_14_1_split
I1018 00:02:24.519804 29731 net.cpp:406] h_14_lstm1_unit_14_1_split <- h_14
I1018 00:02:24.519814 29731 net.cpp:380] h_14_lstm1_unit_14_1_split -> h_14_lstm1_unit_14_1_split_0
I1018 00:02:24.519820 29731 net.cpp:380] h_14_lstm1_unit_14_1_split -> h_14_lstm1_unit_14_1_split_1
I1018 00:02:24.519851 29731 net.cpp:122] Setting up h_14_lstm1_unit_14_1_split
I1018 00:02:24.519860 29731 net.cpp:129] Top shape: 1 5 512 (2560)
I1018 00:02:24.519865 29731 net.cpp:129] Top shape: 1 5 512 (2560)
I1018 00:02:24.519868 29731 net.cpp:137] Memory required for data: 4835840
I1018 00:02:24.519872 29731 layer_factory.hpp:77] Creating layer lstm1_h_conted_14
I1018 00:02:24.519881 29731 net.cpp:84] Creating Layer lstm1_h_conted_14
I1018 00:02:24.519886 29731 net.cpp:406] lstm1_h_conted_14 <- h_14_lstm1_unit_14_1_split_0
I1018 00:02:24.519893 29731 net.cpp:406] lstm1_h_conted_14 <- cont_15_lstm1_cont_slice_14_split_0
I1018 00:02:24.519901 29731 net.cpp:380] lstm1_h_conted_14 -> h_conted_14
I1018 00:02:24.519959 29731 net.cpp:122] Setting up lstm1_h_conted_14
I1018 00:02:24.519968 29731 net.cpp:129] Top shape: 1 5 512 (2560)
I1018 00:02:24.519971 29731 net.cpp:137] Memory required for data: 4846080
I1018 00:02:24.519976 29731 layer_factory.hpp:77] Creating layer lstm1_transform_15
I1018 00:02:24.519984 29731 net.cpp:84] Creating Layer lstm1_transform_15
I1018 00:02:24.519989 29731 net.cpp:406] lstm1_transform_15 <- h_conted_14
I1018 00:02:24.519999 29731 net.cpp:380] lstm1_transform_15 -> W_hc_h_14
I1018 00:02:24.531039 29731 net.cpp:122] Setting up lstm1_transform_15
I1018 00:02:24.531054 29731 net.cpp:129] Top shape: 1 5 2048 (10240)
I1018 00:02:24.531069 29731 net.cpp:137] Memory required for data: 4887040
I1018 00:02:24.531080 29731 net.cpp:465] Sharing parameters 'W_hc' owned by layer 'lstm1_transform_1', param index 0
I1018 00:02:24.531085 29731 layer_factory.hpp:77] Creating layer lstm1_gate_input_15
I1018 00:02:24.531092 29731 net.cpp:84] Creating Layer lstm1_gate_input_15
I1018 00:02:24.531097 29731 net.cpp:406] lstm1_gate_input_15 <- W_hc_h_14
I1018 00:02:24.531103 29731 net.cpp:406] lstm1_gate_input_15 <- W_xc_x_15
I1018 00:02:24.531110 29731 net.cpp:380] lstm1_gate_input_15 -> gate_input_15
I1018 00:02:24.531136 29731 net.cpp:122] Setting up lstm1_gate_input_15
I1018 00:02:24.531147 29731 net.cpp:129] Top shape: 1 5 2048 (10240)
I1018 00:02:24.531163 29731 net.cpp:137] Memory required for data: 4928000
I1018 00:02:24.531167 29731 layer_factory.hpp:77] Creating layer lstm1_unit_15
I1018 00:02:24.531177 29731 net.cpp:84] Creating Layer lstm1_unit_15
I1018 00:02:24.531180 29731 net.cpp:406] lstm1_unit_15 <- c_14
I1018 00:02:24.531186 29731 net.cpp:406] lstm1_unit_15 <- gate_input_15
I1018 00:02:24.531193 29731 net.cpp:406] lstm1_unit_15 <- cont_15_lstm1_cont_slice_14_split_1
I1018 00:02:24.531198 29731 net.cpp:380] lstm1_unit_15 -> c_15
I1018 00:02:24.531205 29731 net.cpp:380] lstm1_unit_15 -> h_15
I1018 00:02:24.531249 29731 net.cpp:122] Setting up lstm1_unit_15
I1018 00:02:24.531256 29731 net.cpp:129] Top shape: 1 5 512 (2560)
I1018 00:02:24.531261 29731 net.cpp:129] Top shape: 1 5 512 (2560)
I1018 00:02:24.531265 29731 net.cpp:137] Memory required for data: 4948480
I1018 00:02:24.531270 29731 layer_factory.hpp:77] Creating layer h_15_lstm1_unit_15_1_split
I1018 00:02:24.531275 29731 net.cpp:84] Creating Layer h_15_lstm1_unit_15_1_split
I1018 00:02:24.531280 29731 net.cpp:406] h_15_lstm1_unit_15_1_split <- h_15
I1018 00:02:24.531287 29731 net.cpp:380] h_15_lstm1_unit_15_1_split -> h_15_lstm1_unit_15_1_split_0
I1018 00:02:24.531294 29731 net.cpp:380] h_15_lstm1_unit_15_1_split -> h_15_lstm1_unit_15_1_split_1
I1018 00:02:24.531323 29731 net.cpp:122] Setting up h_15_lstm1_unit_15_1_split
I1018 00:02:24.531332 29731 net.cpp:129] Top shape: 1 5 512 (2560)
I1018 00:02:24.531335 29731 net.cpp:129] Top shape: 1 5 512 (2560)
I1018 00:02:24.531339 29731 net.cpp:137] Memory required for data: 4968960
I1018 00:02:24.531343 29731 layer_factory.hpp:77] Creating layer lstm1_h_conted_15
I1018 00:02:24.531352 29731 net.cpp:84] Creating Layer lstm1_h_conted_15
I1018 00:02:24.531358 29731 net.cpp:406] lstm1_h_conted_15 <- h_15_lstm1_unit_15_1_split_0
I1018 00:02:24.531363 29731 net.cpp:406] lstm1_h_conted_15 <- cont_16_lstm1_cont_slice_15_split_0
I1018 00:02:24.531369 29731 net.cpp:380] lstm1_h_conted_15 -> h_conted_15
I1018 00:02:24.531425 29731 net.cpp:122] Setting up lstm1_h_conted_15
I1018 00:02:24.531435 29731 net.cpp:129] Top shape: 1 5 512 (2560)
I1018 00:02:24.531438 29731 net.cpp:137] Memory required for data: 4979200
I1018 00:02:24.531442 29731 layer_factory.hpp:77] Creating layer lstm1_transform_16
I1018 00:02:24.531461 29731 net.cpp:84] Creating Layer lstm1_transform_16
I1018 00:02:24.531466 29731 net.cpp:406] lstm1_transform_16 <- h_conted_15
I1018 00:02:24.531472 29731 net.cpp:380] lstm1_transform_16 -> W_hc_h_15
I1018 00:02:24.542599 29731 net.cpp:122] Setting up lstm1_transform_16
I1018 00:02:24.542626 29731 net.cpp:129] Top shape: 1 5 2048 (10240)
I1018 00:02:24.542631 29731 net.cpp:137] Memory required for data: 5020160
I1018 00:02:24.542636 29731 net.cpp:465] Sharing parameters 'W_hc' owned by layer 'lstm1_transform_1', param index 0
I1018 00:02:24.542641 29731 layer_factory.hpp:77] Creating layer lstm1_gate_input_16
I1018 00:02:24.542649 29731 net.cpp:84] Creating Layer lstm1_gate_input_16
I1018 00:02:24.542654 29731 net.cpp:406] lstm1_gate_input_16 <- W_hc_h_15
I1018 00:02:24.542660 29731 net.cpp:406] lstm1_gate_input_16 <- W_xc_x_16
I1018 00:02:24.542666 29731 net.cpp:380] lstm1_gate_input_16 -> gate_input_16
I1018 00:02:24.542695 29731 net.cpp:122] Setting up lstm1_gate_input_16
I1018 00:02:24.542703 29731 net.cpp:129] Top shape: 1 5 2048 (10240)
I1018 00:02:24.542718 29731 net.cpp:137] Memory required for data: 5061120
I1018 00:02:24.542722 29731 layer_factory.hpp:77] Creating layer lstm1_unit_16
I1018 00:02:24.542732 29731 net.cpp:84] Creating Layer lstm1_unit_16
I1018 00:02:24.542735 29731 net.cpp:406] lstm1_unit_16 <- c_15
I1018 00:02:24.542742 29731 net.cpp:406] lstm1_unit_16 <- gate_input_16
I1018 00:02:24.542747 29731 net.cpp:406] lstm1_unit_16 <- cont_16_lstm1_cont_slice_15_split_1
I1018 00:02:24.542753 29731 net.cpp:380] lstm1_unit_16 -> c_16
I1018 00:02:24.542760 29731 net.cpp:380] lstm1_unit_16 -> h_16
I1018 00:02:24.542805 29731 net.cpp:122] Setting up lstm1_unit_16
I1018 00:02:24.542814 29731 net.cpp:129] Top shape: 1 5 512 (2560)
I1018 00:02:24.542819 29731 net.cpp:129] Top shape: 1 5 512 (2560)
I1018 00:02:24.542822 29731 net.cpp:137] Memory required for data: 5081600
I1018 00:02:24.542826 29731 layer_factory.hpp:77] Creating layer h_16_lstm1_unit_16_1_split
I1018 00:02:24.542832 29731 net.cpp:84] Creating Layer h_16_lstm1_unit_16_1_split
I1018 00:02:24.542836 29731 net.cpp:406] h_16_lstm1_unit_16_1_split <- h_16
I1018 00:02:24.542845 29731 net.cpp:380] h_16_lstm1_unit_16_1_split -> h_16_lstm1_unit_16_1_split_0
I1018 00:02:24.542851 29731 net.cpp:380] h_16_lstm1_unit_16_1_split -> h_16_lstm1_unit_16_1_split_1
I1018 00:02:24.542882 29731 net.cpp:122] Setting up h_16_lstm1_unit_16_1_split
I1018 00:02:24.542891 29731 net.cpp:129] Top shape: 1 5 512 (2560)
I1018 00:02:24.542894 29731 net.cpp:129] Top shape: 1 5 512 (2560)
I1018 00:02:24.542898 29731 net.cpp:137] Memory required for data: 5102080
I1018 00:02:24.542902 29731 layer_factory.hpp:77] Creating layer lstm1_h_conted_16
I1018 00:02:24.542912 29731 net.cpp:84] Creating Layer lstm1_h_conted_16
I1018 00:02:24.542917 29731 net.cpp:406] lstm1_h_conted_16 <- h_16_lstm1_unit_16_1_split_0
I1018 00:02:24.542922 29731 net.cpp:406] lstm1_h_conted_16 <- cont_17_lstm1_cont_slice_16_split_0
I1018 00:02:24.542929 29731 net.cpp:380] lstm1_h_conted_16 -> h_conted_16
I1018 00:02:24.542985 29731 net.cpp:122] Setting up lstm1_h_conted_16
I1018 00:02:24.543006 29731 net.cpp:129] Top shape: 1 5 512 (2560)
I1018 00:02:24.543010 29731 net.cpp:137] Memory required for data: 5112320
I1018 00:02:24.543015 29731 layer_factory.hpp:77] Creating layer lstm1_transform_17
I1018 00:02:24.543023 29731 net.cpp:84] Creating Layer lstm1_transform_17
I1018 00:02:24.543027 29731 net.cpp:406] lstm1_transform_17 <- h_conted_16
I1018 00:02:24.543033 29731 net.cpp:380] lstm1_transform_17 -> W_hc_h_16
I1018 00:02:24.554666 29731 net.cpp:122] Setting up lstm1_transform_17
I1018 00:02:24.554685 29731 net.cpp:129] Top shape: 1 5 2048 (10240)
I1018 00:02:24.554690 29731 net.cpp:137] Memory required for data: 5153280
I1018 00:02:24.554697 29731 net.cpp:465] Sharing parameters 'W_hc' owned by layer 'lstm1_transform_1', param index 0
I1018 00:02:24.554702 29731 layer_factory.hpp:77] Creating layer lstm1_gate_input_17
I1018 00:02:24.554711 29731 net.cpp:84] Creating Layer lstm1_gate_input_17
I1018 00:02:24.554718 29731 net.cpp:406] lstm1_gate_input_17 <- W_hc_h_16
I1018 00:02:24.554723 29731 net.cpp:406] lstm1_gate_input_17 <- W_xc_x_17
I1018 00:02:24.554730 29731 net.cpp:380] lstm1_gate_input_17 -> gate_input_17
I1018 00:02:24.554759 29731 net.cpp:122] Setting up lstm1_gate_input_17
I1018 00:02:24.554769 29731 net.cpp:129] Top shape: 1 5 2048 (10240)
I1018 00:02:24.554772 29731 net.cpp:137] Memory required for data: 5194240
I1018 00:02:24.554776 29731 layer_factory.hpp:77] Creating layer lstm1_unit_17
I1018 00:02:24.554783 29731 net.cpp:84] Creating Layer lstm1_unit_17
I1018 00:02:24.554788 29731 net.cpp:406] lstm1_unit_17 <- c_16
I1018 00:02:24.554795 29731 net.cpp:406] lstm1_unit_17 <- gate_input_17
I1018 00:02:24.554800 29731 net.cpp:406] lstm1_unit_17 <- cont_17_lstm1_cont_slice_16_split_1
I1018 00:02:24.554808 29731 net.cpp:380] lstm1_unit_17 -> c_17
I1018 00:02:24.554816 29731 net.cpp:380] lstm1_unit_17 -> h_17
I1018 00:02:24.554862 29731 net.cpp:122] Setting up lstm1_unit_17
I1018 00:02:24.554870 29731 net.cpp:129] Top shape: 1 5 512 (2560)
I1018 00:02:24.554875 29731 net.cpp:129] Top shape: 1 5 512 (2560)
I1018 00:02:24.554879 29731 net.cpp:137] Memory required for data: 5214720
I1018 00:02:24.554883 29731 layer_factory.hpp:77] Creating layer h_17_lstm1_unit_17_1_split
I1018 00:02:24.554889 29731 net.cpp:84] Creating Layer h_17_lstm1_unit_17_1_split
I1018 00:02:24.554894 29731 net.cpp:406] h_17_lstm1_unit_17_1_split <- h_17
I1018 00:02:24.554901 29731 net.cpp:380] h_17_lstm1_unit_17_1_split -> h_17_lstm1_unit_17_1_split_0
I1018 00:02:24.554908 29731 net.cpp:380] h_17_lstm1_unit_17_1_split -> h_17_lstm1_unit_17_1_split_1
I1018 00:02:24.554941 29731 net.cpp:122] Setting up h_17_lstm1_unit_17_1_split
I1018 00:02:24.554950 29731 net.cpp:129] Top shape: 1 5 512 (2560)
I1018 00:02:24.554955 29731 net.cpp:129] Top shape: 1 5 512 (2560)
I1018 00:02:24.554958 29731 net.cpp:137] Memory required for data: 5235200
I1018 00:02:24.554963 29731 layer_factory.hpp:77] Creating layer lstm1_h_conted_17
I1018 00:02:24.554976 29731 net.cpp:84] Creating Layer lstm1_h_conted_17
I1018 00:02:24.554986 29731 net.cpp:406] lstm1_h_conted_17 <- h_17_lstm1_unit_17_1_split_0
I1018 00:02:24.554991 29731 net.cpp:406] lstm1_h_conted_17 <- cont_18_lstm1_cont_slice_17_split_0
I1018 00:02:24.554998 29731 net.cpp:380] lstm1_h_conted_17 -> h_conted_17
I1018 00:02:24.555058 29731 net.cpp:122] Setting up lstm1_h_conted_17
I1018 00:02:24.555066 29731 net.cpp:129] Top shape: 1 5 512 (2560)
I1018 00:02:24.555070 29731 net.cpp:137] Memory required for data: 5245440
I1018 00:02:24.555074 29731 layer_factory.hpp:77] Creating layer lstm1_transform_18
I1018 00:02:24.555085 29731 net.cpp:84] Creating Layer lstm1_transform_18
I1018 00:02:24.555090 29731 net.cpp:406] lstm1_transform_18 <- h_conted_17
I1018 00:02:24.555099 29731 net.cpp:380] lstm1_transform_18 -> W_hc_h_17
I1018 00:02:24.566794 29731 net.cpp:122] Setting up lstm1_transform_18
I1018 00:02:24.566812 29731 net.cpp:129] Top shape: 1 5 2048 (10240)
I1018 00:02:24.566828 29731 net.cpp:137] Memory required for data: 5286400
I1018 00:02:24.566833 29731 net.cpp:465] Sharing parameters 'W_hc' owned by layer 'lstm1_transform_1', param index 0
I1018 00:02:24.566838 29731 layer_factory.hpp:77] Creating layer lstm1_gate_input_18
I1018 00:02:24.566845 29731 net.cpp:84] Creating Layer lstm1_gate_input_18
I1018 00:02:24.566849 29731 net.cpp:406] lstm1_gate_input_18 <- W_hc_h_17
I1018 00:02:24.566856 29731 net.cpp:406] lstm1_gate_input_18 <- W_xc_x_18
I1018 00:02:24.566865 29731 net.cpp:380] lstm1_gate_input_18 -> gate_input_18
I1018 00:02:24.566892 29731 net.cpp:122] Setting up lstm1_gate_input_18
I1018 00:02:24.566900 29731 net.cpp:129] Top shape: 1 5 2048 (10240)
I1018 00:02:24.566916 29731 net.cpp:137] Memory required for data: 5327360
I1018 00:02:24.566920 29731 layer_factory.hpp:77] Creating layer lstm1_unit_18
I1018 00:02:24.566927 29731 net.cpp:84] Creating Layer lstm1_unit_18
I1018 00:02:24.566931 29731 net.cpp:406] lstm1_unit_18 <- c_17
I1018 00:02:24.566937 29731 net.cpp:406] lstm1_unit_18 <- gate_input_18
I1018 00:02:24.566943 29731 net.cpp:406] lstm1_unit_18 <- cont_18_lstm1_cont_slice_17_split_1
I1018 00:02:24.566949 29731 net.cpp:380] lstm1_unit_18 -> c_18
I1018 00:02:24.566958 29731 net.cpp:380] lstm1_unit_18 -> h_18
I1018 00:02:24.567035 29731 net.cpp:122] Setting up lstm1_unit_18
I1018 00:02:24.567044 29731 net.cpp:129] Top shape: 1 5 512 (2560)
I1018 00:02:24.567052 29731 net.cpp:129] Top shape: 1 5 512 (2560)
I1018 00:02:24.567056 29731 net.cpp:137] Memory required for data: 5347840
I1018 00:02:24.567060 29731 layer_factory.hpp:77] Creating layer h_18_lstm1_unit_18_1_split
I1018 00:02:24.567067 29731 net.cpp:84] Creating Layer h_18_lstm1_unit_18_1_split
I1018 00:02:24.567072 29731 net.cpp:406] h_18_lstm1_unit_18_1_split <- h_18
I1018 00:02:24.567078 29731 net.cpp:380] h_18_lstm1_unit_18_1_split -> h_18_lstm1_unit_18_1_split_0
I1018 00:02:24.567085 29731 net.cpp:380] h_18_lstm1_unit_18_1_split -> h_18_lstm1_unit_18_1_split_1
I1018 00:02:24.567123 29731 net.cpp:122] Setting up h_18_lstm1_unit_18_1_split
I1018 00:02:24.567131 29731 net.cpp:129] Top shape: 1 5 512 (2560)
I1018 00:02:24.567137 29731 net.cpp:129] Top shape: 1 5 512 (2560)
I1018 00:02:24.567140 29731 net.cpp:137] Memory required for data: 5368320
I1018 00:02:24.567144 29731 layer_factory.hpp:77] Creating layer lstm1_h_conted_18
I1018 00:02:24.567152 29731 net.cpp:84] Creating Layer lstm1_h_conted_18
I1018 00:02:24.567157 29731 net.cpp:406] lstm1_h_conted_18 <- h_18_lstm1_unit_18_1_split_0
I1018 00:02:24.567162 29731 net.cpp:406] lstm1_h_conted_18 <- cont_19_lstm1_cont_slice_18_split_0
I1018 00:02:24.567169 29731 net.cpp:380] lstm1_h_conted_18 -> h_conted_18
I1018 00:02:24.567236 29731 net.cpp:122] Setting up lstm1_h_conted_18
I1018 00:02:24.567245 29731 net.cpp:129] Top shape: 1 5 512 (2560)
I1018 00:02:24.567248 29731 net.cpp:137] Memory required for data: 5378560
I1018 00:02:24.567252 29731 layer_factory.hpp:77] Creating layer lstm1_transform_19
I1018 00:02:24.567277 29731 net.cpp:84] Creating Layer lstm1_transform_19
I1018 00:02:24.567284 29731 net.cpp:406] lstm1_transform_19 <- h_conted_18
I1018 00:02:24.567291 29731 net.cpp:380] lstm1_transform_19 -> W_hc_h_18
I1018 00:02:24.578363 29731 net.cpp:122] Setting up lstm1_transform_19
I1018 00:02:24.578378 29731 net.cpp:129] Top shape: 1 5 2048 (10240)
I1018 00:02:24.578393 29731 net.cpp:137] Memory required for data: 5419520
I1018 00:02:24.578398 29731 net.cpp:465] Sharing parameters 'W_hc' owned by layer 'lstm1_transform_1', param index 0
I1018 00:02:24.578404 29731 layer_factory.hpp:77] Creating layer lstm1_gate_input_19
I1018 00:02:24.578410 29731 net.cpp:84] Creating Layer lstm1_gate_input_19
I1018 00:02:24.578415 29731 net.cpp:406] lstm1_gate_input_19 <- W_hc_h_18
I1018 00:02:24.578421 29731 net.cpp:406] lstm1_gate_input_19 <- W_xc_x_19
I1018 00:02:24.578428 29731 net.cpp:380] lstm1_gate_input_19 -> gate_input_19
I1018 00:02:24.578452 29731 net.cpp:122] Setting up lstm1_gate_input_19
I1018 00:02:24.578462 29731 net.cpp:129] Top shape: 1 5 2048 (10240)
I1018 00:02:24.578477 29731 net.cpp:137] Memory required for data: 5460480
I1018 00:02:24.578481 29731 layer_factory.hpp:77] Creating layer lstm1_unit_19
I1018 00:02:24.578490 29731 net.cpp:84] Creating Layer lstm1_unit_19
I1018 00:02:24.578496 29731 net.cpp:406] lstm1_unit_19 <- c_18
I1018 00:02:24.578502 29731 net.cpp:406] lstm1_unit_19 <- gate_input_19
I1018 00:02:24.578508 29731 net.cpp:406] lstm1_unit_19 <- cont_19_lstm1_cont_slice_18_split_1
I1018 00:02:24.578513 29731 net.cpp:380] lstm1_unit_19 -> c_19
I1018 00:02:24.578521 29731 net.cpp:380] lstm1_unit_19 -> h_19
I1018 00:02:24.578565 29731 net.cpp:122] Setting up lstm1_unit_19
I1018 00:02:24.578573 29731 net.cpp:129] Top shape: 1 5 512 (2560)
I1018 00:02:24.578578 29731 net.cpp:129] Top shape: 1 5 512 (2560)
I1018 00:02:24.578583 29731 net.cpp:137] Memory required for data: 5480960
I1018 00:02:24.578588 29731 layer_factory.hpp:77] Creating layer h_19_lstm1_unit_19_1_split
I1018 00:02:24.578593 29731 net.cpp:84] Creating Layer h_19_lstm1_unit_19_1_split
I1018 00:02:24.578598 29731 net.cpp:406] h_19_lstm1_unit_19_1_split <- h_19
I1018 00:02:24.578605 29731 net.cpp:380] h_19_lstm1_unit_19_1_split -> h_19_lstm1_unit_19_1_split_0
I1018 00:02:24.578613 29731 net.cpp:380] h_19_lstm1_unit_19_1_split -> h_19_lstm1_unit_19_1_split_1
I1018 00:02:24.578645 29731 net.cpp:122] Setting up h_19_lstm1_unit_19_1_split
I1018 00:02:24.578654 29731 net.cpp:129] Top shape: 1 5 512 (2560)
I1018 00:02:24.578670 29731 net.cpp:129] Top shape: 1 5 512 (2560)
I1018 00:02:24.578673 29731 net.cpp:137] Memory required for data: 5501440
I1018 00:02:24.578678 29731 layer_factory.hpp:77] Creating layer lstm1_h_conted_19
I1018 00:02:24.578687 29731 net.cpp:84] Creating Layer lstm1_h_conted_19
I1018 00:02:24.578692 29731 net.cpp:406] lstm1_h_conted_19 <- h_19_lstm1_unit_19_1_split_0
I1018 00:02:24.578698 29731 net.cpp:406] lstm1_h_conted_19 <- cont_20_lstm1_cont_slice_19_split_0
I1018 00:02:24.578706 29731 net.cpp:380] lstm1_h_conted_19 -> h_conted_19
I1018 00:02:24.578766 29731 net.cpp:122] Setting up lstm1_h_conted_19
I1018 00:02:24.578773 29731 net.cpp:129] Top shape: 1 5 512 (2560)
I1018 00:02:24.578778 29731 net.cpp:137] Memory required for data: 5511680
I1018 00:02:24.578781 29731 layer_factory.hpp:77] Creating layer lstm1_transform_20
I1018 00:02:24.578790 29731 net.cpp:84] Creating Layer lstm1_transform_20
I1018 00:02:24.578795 29731 net.cpp:406] lstm1_transform_20 <- h_conted_19
I1018 00:02:24.578802 29731 net.cpp:380] lstm1_transform_20 -> W_hc_h_19
I1018 00:02:24.590114 29731 net.cpp:122] Setting up lstm1_transform_20
I1018 00:02:24.590143 29731 net.cpp:129] Top shape: 1 5 2048 (10240)
I1018 00:02:24.590147 29731 net.cpp:137] Memory required for data: 5552640
I1018 00:02:24.590153 29731 net.cpp:465] Sharing parameters 'W_hc' owned by layer 'lstm1_transform_1', param index 0
I1018 00:02:24.590158 29731 layer_factory.hpp:77] Creating layer lstm1_gate_input_20
I1018 00:02:24.590168 29731 net.cpp:84] Creating Layer lstm1_gate_input_20
I1018 00:02:24.590173 29731 net.cpp:406] lstm1_gate_input_20 <- W_hc_h_19
I1018 00:02:24.590179 29731 net.cpp:406] lstm1_gate_input_20 <- W_xc_x_20
I1018 00:02:24.590186 29731 net.cpp:380] lstm1_gate_input_20 -> gate_input_20
I1018 00:02:24.590214 29731 net.cpp:122] Setting up lstm1_gate_input_20
I1018 00:02:24.590224 29731 net.cpp:129] Top shape: 1 5 2048 (10240)
I1018 00:02:24.590240 29731 net.cpp:137] Memory required for data: 5593600
I1018 00:02:24.590243 29731 layer_factory.hpp:77] Creating layer lstm1_unit_20
I1018 00:02:24.590250 29731 net.cpp:84] Creating Layer lstm1_unit_20
I1018 00:02:24.590255 29731 net.cpp:406] lstm1_unit_20 <- c_19
I1018 00:02:24.590261 29731 net.cpp:406] lstm1_unit_20 <- gate_input_20
I1018 00:02:24.590266 29731 net.cpp:406] lstm1_unit_20 <- cont_20_lstm1_cont_slice_19_split_1
I1018 00:02:24.590275 29731 net.cpp:380] lstm1_unit_20 -> c_20
I1018 00:02:24.590282 29731 net.cpp:380] lstm1_unit_20 -> h_20
I1018 00:02:24.590330 29731 net.cpp:122] Setting up lstm1_unit_20
I1018 00:02:24.590338 29731 net.cpp:129] Top shape: 1 5 512 (2560)
I1018 00:02:24.590343 29731 net.cpp:129] Top shape: 1 5 512 (2560)
I1018 00:02:24.590348 29731 net.cpp:137] Memory required for data: 5614080
I1018 00:02:24.590353 29731 layer_factory.hpp:77] Creating layer h_20_lstm1_unit_20_1_split
I1018 00:02:24.590358 29731 net.cpp:84] Creating Layer h_20_lstm1_unit_20_1_split
I1018 00:02:24.590363 29731 net.cpp:406] h_20_lstm1_unit_20_1_split <- h_20
…
I1018 00:02:25.320360 29731 layer_factory.hpp:77] Creating layer lstm1_transform_19
I1018 00:02:25.320401 29731 net.cpp:84] Creating Layer lstm1_transform_19
I1018 00:02:25.320411 29731 net.cpp:406] lstm1_transform_19 <- h_conted_18
I1018 00:02:25.320425 29731 net.cpp:380] lstm1_transform_19 -> W_hc_h_18
I1018 00:02:25.332327 29731 net.cpp:122] Setting up lstm1_transform_19
I1018 00:02:25.332346 29731 net.cpp:129] Top shape: 1 150 2048 (307200)
I1018 00:02:25.332355 29731 net.cpp:137] Memory required for data: 162585600
I1018 00:02:25.332363 29731 net.cpp:465] Sharing parameters 'W_hc' owned by layer 'lstm1_transform_1', param index 0
I1018 00:02:25.332372 29731 layer_factory.hpp:77] Creating layer lstm1_gate_input_19
I1018 00:02:25.332384 29731 net.cpp:84] Creating Layer lstm1_gate_input_19
I1018 00:02:25.332392 29731 net.cpp:406] lstm1_gate_input_19 <- W_hc_h_18
I1018 00:02:25.332402 29731 net.cpp:406] lstm1_gate_input_19 <- W_xc_x_19
I1018 00:02:25.332413 29731 net.cpp:380] lstm1_gate_input_19 -> gate_input_19
I1018 00:02:25.332456 29731 net.cpp:122] Setting up lstm1_gate_input_19
I1018 00:02:25.332469 29731 net.cpp:129] Top shape: 1 150 2048 (307200)
I1018 00:02:25.332476 29731 net.cpp:137] Memory required for data: 163814400
I1018 00:02:25.332484 29731 layer_factory.hpp:77] Creating layer lstm1_unit_19
I1018 00:02:25.332499 29731 net.cpp:84] Creating Layer lstm1_unit_19
I1018 00:02:25.332506 29731 net.cpp:406] lstm1_unit_19 <- c_18
I1018 00:02:25.332517 29731 net.cpp:406] lstm1_unit_19 <- gate_input_19
I1018 00:02:25.332526 29731 net.cpp:406] lstm1_unit_19 <- cont_19_lstm1_cont_slice_18_split_1
I1018 00:02:25.332537 29731 net.cpp:380] lstm1_unit_19 -> c_19
I1018 00:02:25.332551 29731 net.cpp:380] lstm1_unit_19 -> h_19
I1018 00:02:25.332625 29731 net.cpp:122] Setting up lstm1_unit_19
I1018 00:02:25.332638 29731 net.cpp:129] Top shape: 1 150 512 (76800)
I1018 00:02:25.332648 29731 net.cpp:129] Top shape: 1 150 512 (76800)
I1018 00:02:25.332654 29731 net.cpp:137] Memory required for data: 164428800
I1018 00:02:25.332662 29731 layer_factory.hpp:77] Creating layer h_19_lstm1_unit_19_1_split
I1018 00:02:25.332672 29731 net.cpp:84] Creating Layer h_19_lstm1_unit_19_1_split
I1018 00:02:25.332680 29731 net.cpp:406] h_19_lstm1_unit_19_1_split <- h_19
I1018 00:02:25.332695 29731 net.cpp:380] h_19_lstm1_unit_19_1_split -> h_19_lstm1_unit_19_1_split_0
I1018 00:02:25.332708 29731 net.cpp:380] h_19_lstm1_unit_19_1_split -> h_19_lstm1_unit_19_1_split_1
I1018 00:02:25.332763 29731 net.cpp:122] Setting up h_19_lstm1_unit_19_1_split
I1018 00:02:25.332774 29731 net.cpp:129] Top shape: 1 150 512 (76800)
I1018 00:02:25.332783 29731 net.cpp:129] Top shape: 1 150 512 (76800)
I1018 00:02:25.332790 29731 net.cpp:137] Memory required for data: 165043200
I1018 00:02:25.332798 29731 layer_factory.hpp:77] Creating layer lstm1_h_conted_19
I1018 00:02:25.332813 29731 net.cpp:84] Creating Layer lstm1_h_conted_19
I1018 00:02:25.332821 29731 net.cpp:406] lstm1_h_conted_19 <- h_19_lstm1_unit_19_1_split_0
I1018 00:02:25.332832 29731 net.cpp:406] lstm1_h_conted_19 <- cont_20_lstm1_cont_slice_19_split_0
I1018 00:02:25.332844 29731 net.cpp:380] lstm1_h_conted_19 -> h_conted_19
I1018 00:02:25.332926 29731 net.cpp:122] Setting up lstm1_h_conted_19
I1018 00:02:25.332938 29731 net.cpp:129] Top shape: 1 150 512 (76800)
I1018 00:02:25.332945 29731 net.cpp:137] Memory required for data: 165350400
I1018 00:02:25.332953 29731 layer_factory.hpp:77] Creating layer lstm1_transform_20
I1018 00:02:25.332968 29731 net.cpp:84] Creating Layer lstm1_transform_20
I1018 00:02:25.332978 29731 net.cpp:406] lstm1_transform_20 <- h_conted_19
I1018 00:02:25.332989 29731 net.cpp:380] lstm1_transform_20 -> W_hc_h_19
I1018 00:02:25.344466 29731 net.cpp:122] Setting up lstm1_transform_20
I1018 00:02:25.344496 29731 net.cpp:129] Top shape: 1 150 2048 (307200)
I1018 00:02:25.344503 29731 net.cpp:137] Memory required for data: 166579200
I1018 00:02:25.344512 29731 net.cpp:465] Sharing parameters 'W_hc' owned by layer 'lstm1_transform_1', param index 0
I1018 00:02:25.344521 29731 layer_factory.hpp:77] Creating layer lstm1_gate_input_20
I1018 00:02:25.344534 29731 net.cpp:84] Creating Layer lstm1_gate_input_20
I1018 00:02:25.344542 29731 net.cpp:406] lstm1_gate_input_20 <- W_hc_h_19
I1018 00:02:25.344552 29731 net.cpp:406] lstm1_gate_input_20 <- W_xc_x_20
I1018 00:02:25.344563 29731 net.cpp:380] lstm1_gate_input_20 -> gate_input_20
I1018 00:02:25.344604 29731 net.cpp:122] Setting up lstm1_gate_input_20
I1018 00:02:25.344615 29731 net.cpp:129] Top shape: 1 150 2048 (307200)
I1018 00:02:25.344622 29731 net.cpp:137] Memory required for data: 167808000
I1018 00:02:25.344630 29731 layer_factory.hpp:77] Creating layer lstm1_unit_20
I1018 00:02:25.344640 29731 net.cpp:84] Creating Layer lstm1_unit_20
I1018 00:02:25.344647 29731 net.cpp:406] lstm1_unit_20 <- c_19
I1018 00:02:25.344657 29731 net.cpp:406] lstm1_unit_20 <- gate_input_20
I1018 00:02:25.344666 29731 net.cpp:406] lstm1_unit_20 <- cont_20_lstm1_cont_slice_19_split_1
I1018 00:02:25.344679 29731 net.cpp:380] lstm1_unit_20 -> c_20
I1018 00:02:25.344692 29731 net.cpp:380] lstm1_unit_20 -> h_20
I1018 00:02:25.344759 29731 net.cpp:122] Setting up lstm1_unit_20
I1018 00:02:25.344771 29731 net.cpp:129] Top shape: 1 150 512 (76800)
I1018 00:02:25.344780 29731 net.cpp:129] Top shape: 1 150 512 (76800)
I1018 00:02:25.344787 29731 net.cpp:137] Memory required for data: 168422400
I1018 00:02:25.344794 29731 layer_factory.hpp:77] Creating layer h_20_lstm1_unit_20_1_split
I1018 00:02:25.344805 29731 net.cpp:84] Creating Layer h_20_lstm1_unit_20_1_split
I1018 00:02:25.344811 29731 net.cpp:406] h_20_lstm1_unit_20_1_split <- h_20
I1018 00:02:25.344822 29731 net.cpp:380] h_20_lstm1_unit_20_1_split -> h_20_lstm1_unit_20_1_split_0
I1018 00:02:25.344835 29731 net.cpp:380] h_20_lstm1_unit_20_1_split -> h_20_lstm1_unit_20_1_split_1
I1018 00:02:25.344887 29731 net.cpp:122] Setting up h_20_lstm1_unit_20_1_split
I1018 00:02:25.344898 29731 net.cpp:129] Top shape: 1 150 512 (76800)
I1018 00:02:25.344907 29731 net.cpp:129] Top shape: 1 150 512 (76800)
I1018 00:02:25.344913 29731 net.cpp:137] Memory required for data: 169036800
I1018 00:02:25.344920 29731 layer_factory.hpp:77] Creating layer lstm1_h_conted_20
I1018 00:02:25.344934 29731 net.cpp:84] Creating Layer lstm1_h_conted_20
I1018 00:02:25.344943 29731 net.cpp:406] lstm1_h_conted_20 <- h_20_lstm1_unit_20_1_split_0
I1018 00:02:25.344952 29731 net.cpp:406] lstm1_h_conted_20 <- cont_21_lstm1_cont_slice_20_split_0
I1018 00:02:25.344964 29731 net.cpp:380] lstm1_h_conted_20 -> h_conted_20
I1018 00:02:25.345041 29731 net.cpp:122] Setting up lstm1_h_conted_20
I1018 00:02:25.345053 29731 net.cpp:129] Top shape: 1 150 512 (76800)
I1018 00:02:25.345060 29731 net.cpp:137] Memory required for data: 169344000
I1018 00:02:25.345067 29731 layer_factory.hpp:77] Creating layer lstm1_transform_21
I1018 00:02:25.345082 29731 net.cpp:84] Creating Layer lstm1_transform_21
I1018 00:02:25.345089 29731 net.cpp:406] lstm1_transform_21 <- h_conted_20
I1018 00:02:25.345101 29731 net.cpp:380] lstm1_transform_21 -> W_hc_h_20
I1018 00:02:25.356746 29731 net.cpp:122] Setting up lstm1_transform_21
I1018 00:02:25.356766 29731 net.cpp:129] Top shape: 1 150 2048 (307200)
I1018 00:02:25.356784 29731 net.cpp:137] Memory required for data: 170572800
I1018 00:02:25.356792 29731 net.cpp:465] Sharing parameters 'W_hc' owned by layer 'lstm1_transform_1', param index 0
I1018 00:02:25.356801 29731 layer_factory.hpp:77] Creating layer lstm1_gate_input_21
I1018 00:02:25.356812 29731 net.cpp:84] Creating Layer lstm1_gate_input_21
I1018 00:02:25.356820 29731 net.cpp:406] lstm1_gate_input_21 <- W_hc_h_20
I1018 00:02:25.356830 29731 net.cpp:406] lstm1_gate_input_21 <- W_xc_x_21
I1018 00:02:25.356844 29731 net.cpp:380] lstm1_gate_input_21 -> gate_input_21
I1018 00:02:25.356899 29731 net.cpp:122] Setting up lstm1_gate_input_21
I1018 00:02:25.356911 29731 net.cpp:129] Top shape: 1 150 2048 (307200)
I1018 00:02:25.356920 29731 net.cpp:137] Memory required for data: 171801600
I1018 00:02:25.356926 29731 layer_factory.hpp:77] Creating layer lstm1_unit_21
I1018 00:02:25.356937 29731 net.cpp:84] Creating Layer lstm1_unit_21
I1018 00:02:25.356945 29731 net.cpp:406] lstm1_unit_21 <- c_20
I1018 00:02:25.356956 29731 net.cpp:406] lstm1_unit_21 <- gate_input_21
I1018 00:02:25.356966 29731 net.cpp:406] lstm1_unit_21 <- cont_21_lstm1_cont_slice_20_split_1
I1018 00:02:25.356976 29731 net.cpp:380] lstm1_unit_21 -> c_21
I1018 00:02:25.356993 29731 net.cpp:380] lstm1_unit_21 -> h_21
I1018 00:02:25.357064 29731 net.cpp:122] Setting up lstm1_unit_21
I1018 00:02:25.357076 29731 net.cpp:129] Top shape: 1 150 512 (76800)
I1018 00:02:25.357085 29731 net.cpp:129] Top shape: 1 150 512 (76800)
I1018 00:02:25.357092 29731 net.cpp:137] Memory required for data: 172416000
I1018 00:02:25.357100 29731 layer_factory.hpp:77] Creating layer h_21_lstm1_unit_21_1_split
I1018 00:02:25.357110 29731 net.cpp:84] Creating Layer h_21_lstm1_unit_21_1_split
I1018 00:02:25.357117 29731 net.cpp:406] h_21_lstm1_unit_21_1_split <- h_21
I1018 00:02:25.357128 29731 net.cpp:380] h_21_lstm1_unit_21_1_split -> h_21_lstm1_unit_21_1_split_0
I1018 00:02:25.357141 29731 net.cpp:380] h_21_lstm1_unit_21_1_split -> h_21_lstm1_unit_21_1_split_1
I1018 00:02:25.357195 29731 net.cpp:122] Setting up h_21_lstm1_unit_21_1_split
I1018 00:02:25.357208 29731 net.cpp:129] Top shape: 1 150 512 (76800)
I1018 00:02:25.357216 29731 net.cpp:129] Top shape: 1 150 512 (76800)
I1018 00:02:25.357223 29731 net.cpp:137] Memory required for data: 173030400
I1018 00:02:25.357230 29731 layer_factory.hpp:77] Creating layer lstm1_h_conted_21
I1018 00:02:25.357241 29731 net.cpp:84] Creating Layer lstm1_h_conted_21
I1018 00:02:25.357250 29731 net.cpp:406] lstm1_h_conted_21 <- h_21_lstm1_unit_21_1_split_0
I1018 00:02:25.357261 29731 net.cpp:406] lstm1_h_conted_21 <- cont_22_lstm1_cont_slice_21_split_0
I1018 00:02:25.357275 29731 net.cpp:380] lstm1_h_conted_21 -> h_conted_21
I1018 00:02:25.357360 29731 net.cpp:122] Setting up lstm1_h_conted_21
I1018 00:02:25.357383 29731 net.cpp:129] Top shape: 1 150 512 (76800)
I1018 00:02:25.357389 29731 net.cpp:137] Memory required for data: 173337600
I1018 00:02:25.357396 29731 layer_factory.hpp:77] Creating layer lstm1_transform_22
I1018 00:02:25.357409 29731 net.cpp:84] Creating Layer lstm1_transform_22
I1018 00:02:25.357416 29731 net.cpp:406] lstm1_transform_22 <- h_conted_21
I1018 00:02:25.357431 29731 net.cpp:380] lstm1_transform_22 -> W_hc_h_21
I1018 00:02:25.368818 29731 net.cpp:122] Setting up lstm1_transform_22
I1018 00:02:25.368836 29731 net.cpp:129] Top shape: 1 150 2048 (307200)
I1018 00:02:25.368844 29731 net.cpp:137] Memory required for data: 174566400
I1018 00:02:25.368851 29731 net.cpp:465] Sharing parameters 'W_hc' owned by layer 'lstm1_transform_1', param index 0
I1018 00:02:25.368860 29731 layer_factory.hpp:77] Creating layer lstm1_gate_input_22
I1018 00:02:25.368871 29731 net.cpp:84] Creating Layer lstm1_gate_input_22
I1018 00:02:25.368880 29731 net.cpp:406] lstm1_gate_input_22 <- W_hc_h_21
I1018 00:02:25.368888 29731 net.cpp:406] lstm1_gate_input_22 <- W_xc_x_22
I1018 00:02:25.368902 29731 net.cpp:380] lstm1_gate_input_22 -> gate_input_22
I1018 00:02:25.368948 29731 net.cpp:122] Setting up lstm1_gate_input_22
I1018 00:02:25.368960 29731 net.cpp:129] Top shape: 1 150 2048 (307200)
I1018 00:02:25.368968 29731 net.cpp:137] Memory required for data: 175795200
I1018 00:02:25.368974 29731 layer_factory.hpp:77] Creating layer lstm1_unit_22
I1018 00:02:25.368984 29731 net.cpp:84] Creating Layer lstm1_unit_22
I1018 00:02:25.368993 29731 net.cpp:406] lstm1_unit_22 <- c_21
I1018 00:02:25.369002 29731 net.cpp:406] lstm1_unit_22 <- gate_input_22
I1018 00:02:25.369011 29731 net.cpp:406] lstm1_unit_22 <- cont_22_lstm1_cont_slice_21_split_1
I1018 00:02:25.369021 29731 net.cpp:380] lstm1_unit_22 -> c_22
I1018 00:02:25.369035 29731 net.cpp:380] lstm1_unit_22 -> h_22
I1018 00:02:25.369102 29731 net.cpp:122] Setting up lstm1_unit_22
I1018 00:02:25.369114 29731 net.cpp:129] Top shape: 1 150 512 (76800)
I1018 00:02:25.369122 29731 net.cpp:129] Top shape: 1 150 512 (76800)
I1018 00:02:25.369129 29731 net.cpp:137] Memory required for data: 176409600
I1018 00:02:25.369137 29731 layer_factory.hpp:77] Creating layer h_22_lstm1_unit_22_1_split
I1018 00:02:25.369145 29731 net.cpp:84] Creating Layer h_22_lstm1_unit_22_1_split
I1018 00:02:25.369153 29731 net.cpp:406] h_22_lstm1_unit_22_1_split <- h_22
I1018 00:02:25.369164 29731 net.cpp:380] h_22_lstm1_unit_22_1_split -> h_22_lstm1_unit_22_1_split_0
I1018 00:02:25.369187 29731 net.cpp:380] h_22_lstm1_unit_22_1_split -> h_22_lstm1_unit_22_1_split_1
I1018 00:02:25.369252 29731 net.cpp:122] Setting up h_22_lstm1_unit_22_1_split
I1018 00:02:25.369264 29731 net.cpp:129] Top shape: 1 150 512 (76800)
I1018 00:02:25.369273 29731 net.cpp:129] Top shape: 1 150 512 (76800)
I1018 00:02:25.369280 29731 net.cpp:137] Memory required for data: 177024000
I1018 00:02:25.369287 29731 layer_factory.hpp:77] Creating layer lstm1_h_conted_22
I1018 00:02:25.369299 29731 net.cpp:84] Creating Layer lstm1_h_conted_22
I1018 00:02:25.369307 29731 net.cpp:406] lstm1_h_conted_22 <- h_22_lstm1_unit_22_1_split_0
I1018 00:02:25.369318 29731 net.cpp:406] lstm1_h_conted_22 <- cont_23_lstm1_cont_slice_22_split_0
I1018 00:02:25.369330 29731 net.cpp:380] lstm1_h_conted_22 -> h_conted_22
I1018 00:02:25.369412 29731 net.cpp:122] Setting up lstm1_h_conted_22
I1018 00:02:25.369426 29731 net.cpp:129] Top shape: 1 150 512 (76800)
I1018 00:02:25.369432 29731 net.cpp:137] Memory required for data: 177331200
I1018 00:02:25.369439 29731 layer_factory.hpp:77] Creating layer lstm1_transform_23
I1018 00:02:25.369451 29731 net.cpp:84] Creating Layer lstm1_transform_23
I1018 00:02:25.369460 29731 net.cpp:406] lstm1_transform_23 <- h_conted_22
I1018 00:02:25.369472 29731 net.cpp:380] lstm1_transform_23 -> W_hc_h_22
I1018 00:02:25.381036 29731 net.cpp:122] Setting up lstm1_transform_23
I1018 00:02:25.381054 29731 net.cpp:129] Top shape: 1 150 2048 (307200)
I1018 00:02:25.381062 29731 net.cpp:137] Memory required for data: 178560000
I1018 00:02:25.381069 29731 net.cpp:465] Sharing parameters 'W_hc' owned by layer 'lstm1_transform_1', param index 0
I1018 00:02:25.381078 29731 layer_factory.hpp:77] Creating layer lstm1_gate_input_23
I1018 00:02:25.381089 29731 net.cpp:84] Creating Layer lstm1_gate_input_23
I1018 00:02:25.381098 29731 net.cpp:406] lstm1_gate_input_23 <- W_hc_h_22
I1018 00:02:25.381108 29731 net.cpp:406] lstm1_gate_input_23 <- W_xc_x_23
I1018 00:02:25.381117 29731 net.cpp:380] lstm1_gate_input_23 -> gate_input_23
I1018 00:02:25.381163 29731 net.cpp:122] Setting up lstm1_gate_input_23
I1018 00:02:25.381175 29731 net.cpp:129] Top shape: 1 150 2048 (307200)
I1018 00:02:25.381181 29731 net.cpp:137] Memory required for data: 179788800
I1018 00:02:25.381188 29731 layer_factory.hpp:77] Creating layer lstm1_unit_23
I1018 00:02:25.381198 29731 net.cpp:84] Creating Layer lstm1_unit_23
I1018 00:02:25.381206 29731 net.cpp:406] lstm1_unit_23 <- c_22
I1018 00:02:25.381217 29731 net.cpp:406] lstm1_unit_23 <- gate_input_23
I1018 00:02:25.381224 29731 net.cpp:406] lstm1_unit_23 <- cont_23_lstm1_cont_slice_22_split_1
I1018 00:02:25.381234 29731 net.cpp:380] lstm1_unit_23 -> c_23
I1018 00:02:25.381247 29731 net.cpp:380] lstm1_unit_23 -> h_23
I1018 00:02:25.381315 29731 net.cpp:122] Setting up lstm1_unit_23
I1018 00:02:25.381326 29731 net.cpp:129] Top shape: 1 150 512 (76800)
I1018 00:02:25.381335 29731 net.cpp:129] Top shape: 1 150 512 (76800)
I1018 00:02:25.381341 29731 net.cpp:137] Memory required for data: 180403200
I1018 00:02:25.381348 29731 layer_factory.hpp:77] Creating layer h_23_lstm1_unit_23_1_split
I1018 00:02:25.381361 29731 net.cpp:84] Creating Layer h_23_lstm1_unit_23_1_split
I1018 00:02:25.381369 29731 net.cpp:406] h_23_lstm1_unit_23_1_split <- h_23
I1018 00:02:25.381379 29731 net.cpp:380] h_23_lstm1_unit_23_1_split -> h_23_lstm1_unit_23_1_split_0
I1018 00:02:25.381392 29731 net.cpp:380] h_23_lstm1_unit_23_1_split -> h_23_lstm1_unit_23_1_split_1
I1018 00:02:25.381444 29731 net.cpp:122] Setting up h_23_lstm1_unit_23_1_split
I1018 00:02:25.381455 29731 net.cpp:129] Top shape: 1 150 512 (76800)
I1018 00:02:25.381464 29731 net.cpp:129] Top shape: 1 150 512 (76800)
I1018 00:02:25.381470 29731 net.cpp:137] Memory required for data: 181017600
I1018 00:02:25.381477 29731 layer_factory.hpp:77] Creating layer lstm1_h_conted_23
I1018 00:02:25.381490 29731 net.cpp:84] Creating Layer lstm1_h_conted_23
I1018 00:02:25.381500 29731 net.cpp:406] lstm1_h_conted_23 <- h_23_lstm1_unit_23_1_split_0
I1018 00:02:25.381510 29731 net.cpp:406] lstm1_h_conted_23 <- cont_24_lstm1_cont_slice_23_split_0
I1018 00:02:25.381520 29731 net.cpp:380] lstm1_h_conted_23 -> h_conted_23
I1018 00:02:25.381597 29731 net.cpp:122] Setting up lstm1_h_conted_23
I1018 00:02:25.381609 29731 net.cpp:129] Top shape: 1 150 512 (76800)
I1018 00:02:25.381615 29731 net.cpp:137] Memory required for data: 181324800
I1018 00:02:25.381623 29731 layer_factory.hpp:77] Creating layer lstm1_transform_24
I1018 00:02:25.381638 29731 net.cpp:84] Creating Layer lstm1_transform_24
I1018 00:02:25.381645 29731 net.cpp:406] lstm1_transform_24 <- h_conted_23
I1018 00:02:25.381656 29731 net.cpp:380] lstm1_transform_24 -> W_hc_h_23
I1018 00:02:25.393206 29731 net.cpp:122] Setting up lstm1_transform_24
I1018 00:02:25.393224 29731 net.cpp:129] Top shape: 1 150 2048 (307200)
I1018 00:02:25.393231 29731 net.cpp:137] Memory required for data: 182553600
I1018 00:02:25.393239 29731 net.cpp:465] Sharing parameters 'W_hc' owned by layer 'lstm1_transform_1', param index 0
I1018 00:02:25.393246 29731 layer_factory.hpp:77] Creating layer lstm1_gate_input_24
I1018 00:02:25.393259 29731 net.cpp:84] Creating Layer lstm1_gate_input_24
I1018 00:02:25.393266 29731 net.cpp:406] lstm1_gate_input_24 <- W_hc_h_23
I1018 00:02:25.393276 29731 net.cpp:406] lstm1_gate_input_24 <- W_xc_x_24
I1018 00:02:25.393286 29731 net.cpp:380] lstm1_gate_input_24 -> gate_input_24
I1018 00:02:25.393333 29731 net.cpp:122] Setting up lstm1_gate_input_24
I1018 00:02:25.393345 29731 net.cpp:129] Top shape: 1 150 2048 (307200)
I1018 00:02:25.393352 29731 net.cpp:137] Memory required for data: 183782400
I1018 00:02:25.393358 29731 layer_factory.hpp:77] Creating layer lstm1_unit_24
I1018 00:02:25.393368 29731 net.cpp:84] Creating Layer lstm1_unit_24
I1018 00:02:25.393376 29731 net.cpp:406] lstm1_unit_24 <- c_23
I1018 00:02:25.393386 29731 net.cpp:406] lstm1_unit_24 <- gate_input_24
I1018 00:02:25.393395 29731 net.cpp:406] lstm1_unit_24 <- cont_24_lstm1_cont_slice_23_split_1
I1018 00:02:25.393405 29731 net.cpp:380] lstm1_unit_24 -> c_24
I1018 00:02:25.393419 29731 net.cpp:380] lstm1_unit_24 -> h_24
I1018 00:02:25.393486 29731 net.cpp:122] Setting up lstm1_unit_24
I1018 00:02:25.393497 29731 net.cpp:129] Top shape: 1 150 512 (76800)
I1018 00:02:25.393506 29731 net.cpp:129] Top shape: 1 150 512 (76800)
I1018 00:02:25.393512 29731 net.cpp:137] Memory required for data: 184396800
I1018 00:02:25.393519 29731 layer_factory.hpp:77] Creating layer h_24_lstm1_unit_24_1_split
I1018 00:02:25.393528 29731 net.cpp:84] Creating Layer h_24_lstm1_unit_24_1_split
I1018 00:02:25.393537 29731 net.cpp:406] h_24_lstm1_unit_24_1_split <- h_24
I1018 00:02:25.393561 29731 net.cpp:380] h_24_lstm1_unit_24_1_split -> h_24_lstm1_unit_24_1_split_0
I1018 00:02:25.393573 29731 net.cpp:380] h_24_lstm1_unit_24_1_split -> h_24_lstm1_unit_24_1_split_1
I1018 00:02:25.393653 29731 net.cpp:122] Setting up h_24_lstm1_unit_24_1_split
I1018 00:02:25.393667 29731 net.cpp:129] Top shape: 1 150 512 (76800)
I1018 00:02:25.393676 29731 net.cpp:129] Top shape: 1 150 512 (76800)
I1018 00:02:25.393683 29731 net.cpp:137] Memory required for data: 185011200
I1018 00:02:25.393690 29731 layer_factory.hpp:77] Creating layer lstm1_h_conted_24
I1018 00:02:25.393702 29731 net.cpp:84] Creating Layer lstm1_h_conted_24
I1018 00:02:25.393710 29731 net.cpp:406] lstm1_h_conted_24 <- h_24_lstm1_unit_24_1_split_0
I1018 00:02:25.393720 29731 net.cpp:406] lstm1_h_conted_24 <- cont_25_lstm1_cont_slice_24_split_0
I1018 00:02:25.393734 29731 net.cpp:380] lstm1_h_conted_24 -> h_conted_24
I1018 00:02:25.393834 29731 net.cpp:122] Setting up lstm1_h_conted_24
I1018 00:02:25.393848 29731 net.cpp:129] Top shape: 1 150 512 (76800)
I1018 00:02:25.393856 29731 net.cpp:137] Memory required for data: 185318400
I1018 00:02:25.393862 29731 layer_factory.hpp:77] Creating layer lstm1_transform_25
I1018 00:02:25.393874 29731 net.cpp:84] Creating Layer lstm1_transform_25
I1018 00:02:25.393882 29731 net.cpp:406] lstm1_transform_25 <- h_conted_24
I1018 00:02:25.393898 29731 net.cpp:380] lstm1_transform_25 -> W_hc_h_24
I1018 00:02:25.405634 29731 net.cpp:122] Setting up lstm1_transform_25
I1018 00:02:25.405652 29731 net.cpp:129] Top shape: 1 150 2048 (307200)
I1018 00:02:25.405659 29731 net.cpp:137] Memory required for data: 186547200
I1018 00:02:25.405668 29731 net.cpp:465] Sharing parameters 'W_hc' owned by layer 'lstm1_transform_1', param index 0
I1018 00:02:25.405678 29731 layer_factory.hpp:77] Creating layer lstm1_gate_input_25
I1018 00:02:25.405689 29731 net.cpp:84] Creating Layer lstm1_gate_input_25
I1018 00:02:25.405699 29731 net.cpp:406] lstm1_gate_input_25 <- W_hc_h_24
I1018 00:02:25.405709 29731 net.cpp:406] lstm1_gate_input_25 <- W_xc_x_25
I1018 00:02:25.405720 29731 net.cpp:380] lstm1_gate_input_25 -> gate_input_25
I1018 00:02:25.405766 29731 net.cpp:122] Setting up lstm1_gate_input_25
I1018 00:02:25.405777 29731 net.cpp:129] Top shape: 1 150 2048 (307200)
I1018 00:02:25.405784 29731 net.cpp:137] Memory required for data: 187776000
I1018 00:02:25.405791 29731 layer_factory.hpp:77] Creating layer lstm1_unit_25
I1018 00:02:25.405807 29731 net.cpp:84] Creating Layer lstm1_unit_25
I1018 00:02:25.405815 29731 net.cpp:406] lstm1_unit_25 <- c_24
I1018 00:02:25.405827 29731 net.cpp:406] lstm1_unit_25 <- gate_input_25
I1018 00:02:25.405835 29731 net.cpp:406] lstm1_unit_25 <- cont_25_lstm1_cont_slice_24_split_1
I1018 00:02:25.405846 29731 net.cpp:380] lstm1_unit_25 -> c_25
I1018 00:02:25.405881 29731 net.cpp:380] lstm1_unit_25 -> h_25
I1018 00:02:25.405947 29731 net.cpp:122] Setting up lstm1_unit_25
I1018 00:02:25.405958 29731 net.cpp:129] Top shape: 1 150 512 (76800)
I1018 00:02:25.405967 29731 net.cpp:129] Top shape: 1 150 512 (76800)
I1018 00:02:25.405973 29731 net.cpp:137] Memory required for data: 188390400
I1018 00:02:25.405982 29731 layer_factory.hpp:77] Creating layer h_25_lstm1_unit_25_1_split
I1018 00:02:25.405990 29731 net.cpp:84] Creating Layer h_25_lstm1_unit_25_1_split
I1018 00:02:25.405998 29731 net.cpp:406] h_25_lstm1_unit_25_1_split <- h_25
I1018 00:02:25.406011 29731 net.cpp:380] h_25_lstm1_unit_25_1_split -> h_25_lstm1_unit_25_1_split_0
I1018 00:02:25.406023 29731 net.cpp:380] h_25_lstm1_unit_25_1_split -> h_25_lstm1_unit_25_1_split_1
I1018 00:02:25.406075 29731 net.cpp:122] Setting up h_25_lstm1_unit_25_1_split
I1018 00:02:25.406085 29731 net.cpp:129] Top shape: 1 150 512 (76800)
I1018 00:02:25.406093 29731 net.cpp:129] Top shape: 1 150 512 (76800)
I1018 00:02:25.406100 29731 net.cpp:137] Memory required for data: 189004800
I1018 00:02:25.406107 29731 layer_factory.hpp:77] Creating layer lstm1_h_conted_25
I1018 00:02:25.406121 29731 net.cpp:84] Creating Layer lstm1_h_conted_25
I1018 00:02:25.406129 29731 net.cpp:406] lstm1_h_conted_25 <- h_25_lstm1_unit_25_1_split_0
I1018 00:02:25.406139 29731 net.cpp:406] lstm1_h_conted_25 <- cont_26_lstm1_cont_slice_25_split_0
I1018 00:02:25.406150 29731 net.cpp:380] lstm1_h_conted_25 -> h_conted_25
I1018 00:02:25.406232 29731 net.cpp:122] Setting up lstm1_h_conted_25
I1018 00:02:25.406244 29731 net.cpp:129] Top shape: 1 150 512 (76800)
I1018 00:02:25.406251 29731 net.cpp:137] Memory required for data: 189312000
I1018 00:02:25.406258 29731 layer_factory.hpp:77] Creating layer lstm1_transform_26
I1018 00:02:25.406272 29731 net.cpp:84] Creating Layer lstm1_transform_26
I1018 00:02:25.406281 29731 net.cpp:406] lstm1_transform_26 <- h_conted_25
I1018 00:02:25.406292 29731 net.cpp:380] lstm1_transform_26 -> W_hc_h_25
I1018 00:02:25.417866 29731 net.cpp:122] Setting up lstm1_transform_26
I1018 00:02:25.417886 29731 net.cpp:129] Top shape: 1 150 2048 (307200)
I1018 00:02:25.417892 29731 net.cpp:137] Memory required for data: 190540800
I1018 00:02:25.417901 29731 net.cpp:465] Sharing parameters 'W_hc' owned by layer 'lstm1_transform_1', param index 0
I1018 00:02:25.417908 29731 layer_factory.hpp:77] Creating layer lstm1_gate_input_26
I1018 00:02:25.417923 29731 net.cpp:84] Creating Layer lstm1_gate_input_26
I1018 00:02:25.417932 29731 net.cpp:406] lstm1_gate_input_26 <- W_hc_h_25
I1018 00:02:25.417943 29731 net.cpp:406] lstm1_gate_input_26 <- W_xc_x_26
I1018 00:02:25.417953 29731 net.cpp:380] lstm1_gate_input_26 -> gate_input_26
I1018 00:02:25.417996 29731 net.cpp:122] Setting up lstm1_gate_input_26
I1018 00:02:25.418009 29731 net.cpp:129] Top shape: 1 150 2048 (307200)
I1018 00:02:25.418015 29731 net.cpp:137] Memory required for data: 191769600
I1018 00:02:25.418021 29731 layer_factory.hpp:77] Creating layer lstm1_unit_26
I1018 00:02:25.418031 29731 net.cpp:84] Creating Layer lstm1_unit_26
I1018 00:02:25.418040 29731 net.cpp:406] lstm1_unit_26 <- c_25
I1018 00:02:25.418050 29731 net.cpp:406] lstm1_unit_26 <- gate_input_26
I1018 00:02:25.418058 29731 net.cpp:406] lstm1_unit_26 <- cont_26_lstm1_cont_slice_25_split_1
I1018 00:02:25.418071 29731 net.cpp:380] lstm1_unit_26 -> c_26
I1018 00:02:25.418085 29731 net.cpp:380] lstm1_unit_26 -> h_26
I1018 00:02:25.418151 29731 net.cpp:122] Setting up lstm1_unit_26
I1018 00:02:25.418164 29731 net.cpp:129] Top shape: 1 150 512 (76800)
I1018 00:02:25.418171 29731 net.cpp:129] Top shape: 1 150 512 (76800)
I1018 00:02:25.418179 29731 net.cpp:137] Memory required for data: 192384000
I1018 00:02:25.418185 29731 layer_factory.hpp:77] Creating layer h_26_lstm1_unit_26_1_split
I1018 00:02:25.418195 29731 net.cpp:84] Creating Layer h_26_lstm1_unit_26_1_split
I1018 00:02:25.418201 29731 net.cpp:406] h_26_lstm1_unit_26_1_split <- h_26
I1018 00:02:25.418212 29731 net.cpp:380] h_26_lstm1_unit_26_1_split -> h_26_lstm1_unit_26_1_split_0
I1018 00:02:25.418225 29731 net.cpp:380] h_26_lstm1_unit_26_1_split -> h_26_lstm1_unit_26_1_split_1
I1018 00:02:25.418277 29731 net.cpp:122] Setting up h_26_lstm1_unit_26_1_split
I1018 00:02:25.418288 29731 net.cpp:129] Top shape: 1 150 512 (76800)
I1018 00:02:25.418296 29731 net.cpp:129] Top shape: 1 150 512 (76800)
I1018 00:02:25.418303 29731 net.cpp:137] Memory required for data: 192998400
I1018 00:02:25.418309 29731 layer_factory.hpp:77] Creating layer lstm1_h_conted_26
I1018 00:02:25.418323 29731 net.cpp:84] Creating Layer lstm1_h_conted_26
I1018 00:02:25.418332 29731 net.cpp:406] lstm1_h_conted_26 <- h_26_lstm1_unit_26_1_split_0
I1018 00:02:25.418342 29731 net.cpp:406] lstm1_h_conted_26 <- cont_27_lstm1_cont_slice_26_split_0
I1018 00:02:25.418352 29731 net.cpp:380] lstm1_h_conted_26 -> h_conted_26
I1018 00:02:25.418459 29731 net.cpp:122] Setting up lstm1_h_conted_26
I1018 00:02:25.418471 29731 net.cpp:129] Top shape: 1 150 512 (76800)
I1018 00:02:25.418478 29731 net.cpp:137] Memory required for data: 193305600
I1018 00:02:25.418485 29731 layer_factory.hpp:77] Creating layer lstm1_transform_27
I1018 00:02:25.418500 29731 net.cpp:84] Creating Layer lstm1_transform_27
I1018 00:02:25.418509 29731 net.cpp:406] lstm1_transform_27 <- h_conted_26
I1018 00:02:25.418521 29731 net.cpp:380] lstm1_transform_27 -> W_hc_h_26
I1018 00:02:25.430158 29731 net.cpp:122] Setting up lstm1_transform_27
I1018 00:02:25.430176 29731 net.cpp:129] Top shape: 1 150 2048 (307200)
I1018 00:02:25.430183 29731 net.cpp:137] Memory required for data: 194534400
I1018 00:02:25.430191 29731 net.cpp:465] Sharing parameters 'W_hc' owned by layer 'lstm1_transform_1', param index 0
I1018 00:02:25.430199 29731 layer_factory.hpp:77] Creating layer lstm1_gate_input_27
I1018 00:02:25.430210 29731 net.cpp:84] Creating Layer lstm1_gate_input_27
I1018 00:02:25.430218 29731 net.cpp:406] lstm1_gate_input_27 <- W_hc_h_26
I1018 00:02:25.430233 29731 net.cpp:406] lstm1_gate_input_27 <- W_xc_x_27
I1018 00:02:25.430244 29731 net.cpp:380] lstm1_gate_input_27 -> gate_input_27
I1018 00:02:25.430285 29731 net.cpp:122] Setting up lstm1_gate_input_27
I1018 00:02:25.430297 29731 net.cpp:129] Top shape: 1 150 2048 (307200)
I1018 00:02:25.430305 29731 net.cpp:137] Memory required for data: 195763200
I1018 00:02:25.430310 29731 layer_factory.hpp:77] Creating layer lstm1_unit_27
I1018 00:02:25.430320 29731 net.cpp:84] Creating Layer lstm1_unit_27
I1018 00:02:25.430328 29731 net.cpp:406] lstm1_unit_27 <- c_26
I1018 00:02:25.430338 29731 net.cpp:406] lstm1_unit_27 <- gate_input_27
I1018 00:02:25.430347 29731 net.cpp:406] lstm1_unit_27 <- cont_27_lstm1_cont_slice_26_split_1
I1018 00:02:25.430361 29731 net.cpp:380] lstm1_unit_27 -> c_27
I1018 00:02:25.430374 29731 net.cpp:380] lstm1_unit_27 -> h_27
I1018 00:02:25.430439 29731 net.cpp:122] Setting up lstm1_unit_27
I1018 00:02:25.430450 29731 net.cpp:129] Top shape: 1 150 512 (76800)
I1018 00:02:25.430459 29731 net.cpp:129] Top shape: 1 150 512 (76800)
I1018 00:02:25.430465 29731 net.cpp:137] Memory required for data: 196377600
I1018 00:02:25.430474 29731 layer_factory.hpp:77] Creating layer h_27_lstm1_unit_27_1_split
I1018 00:02:25.430482 29731 net.cpp:84] Creating Layer h_27_lstm1_unit_27_1_split
I1018 00:02:25.430490 29731 net.cpp:406] h_27_lstm1_unit_27_1_split <- h_27
I1018 00:02:25.430500 29731 net.cpp:380] h_27_lstm1_unit_27_1_split -> h_27_lstm1_unit_27_1_split_0
I1018 00:02:25.430512 29731 net.cpp:380] h_27_lstm1_unit_27_1_split -> h_27_lstm1_unit_27_1_split_1
I1018 00:02:25.430567 29731 net.cpp:122] Setting up h_27_lstm1_unit_27_1_split
I1018 00:02:25.430578 29731 net.cpp:129] Top shape: 1 150 512 (76800)
I1018 00:02:25.430588 29731 net.cpp:129] Top shape: 1 150 512 (76800)
I1018 00:02:25.430593 29731 net.cpp:137] Memory required for data: 196992000
I1018 00:02:25.430600 29731 layer_factory.hpp:77] Creating layer lstm1_h_conted_27
I1018 00:02:25.430610 29731 net.cpp:84] Creating Layer lstm1_h_conted_27
I1018 00:02:25.430619 29731 net.cpp:406] lstm1_h_conted_27 <- h_27_lstm1_unit_27_1_split_0
I1018 00:02:25.430629 29731 net.cpp:406] lstm1_h_conted_27 <- cont_28_lstm1_cont_slice_27_split_0
I1018 00:02:25.430642 29731 net.cpp:380] lstm1_h_conted_27 -> h_conted_27
I1018 00:02:25.430721 29731 net.cpp:122] Setting up lstm1_h_conted_27
I1018 00:02:25.430733 29731 net.cpp:129] Top shape: 1 150 512 (76800)
I1018 00:02:25.430739 29731 net.cpp:137] Memory required for data: 197299200
I1018 00:02:25.430747 29731 layer_factory.hpp:77] Creating layer lstm1_transform_28
I1018 00:02:25.430757 29731 net.cpp:84] Creating Layer lstm1_transform_28
I1018 00:02:25.430778 29731 net.cpp:406] lstm1_transform_28 <- h_conted_27
I1018 00:02:25.430791 29731 net.cpp:380] lstm1_transform_28 -> W_hc_h_27
I1018 00:02:25.442394 29731 net.cpp:122] Setting up lstm1_transform_28
I1018 00:02:25.442412 29731 net.cpp:129] Top shape: 1 150 2048 (307200)
I1018 00:02:25.442420 29731 net.cpp:137] Memory required for data: 198528000
I1018 00:02:25.442427 29731 net.cpp:465] Sharing parameters 'W_hc' owned by layer 'lstm1_transform_1', param index 0
I1018 00:02:25.442435 29731 layer_factory.hpp:77] Creating layer lstm1_gate_input_28
I1018 00:02:25.442446 29731 net.cpp:84] Creating Layer lstm1_gate_input_28
I1018 00:02:25.442454 29731 net.cpp:406] lstm1_gate_input_28 <- W_hc_h_27
I1018 00:02:25.442464 29731 net.cpp:406] lstm1_gate_input_28 <- W_xc_x_28
I1018 00:02:25.442477 29731 net.cpp:380] lstm1_gate_input_28 -> gate_input_28
I1018 00:02:25.442523 29731 net.cpp:122] Setting up lstm1_gate_input_28
I1018 00:02:25.442535 29731 net.cpp:129] Top shape: 1 150 2048 (307200)
I1018 00:02:25.442543 29731 net.cpp:137] Memory required for data: 199756800
I1018 00:02:25.442548 29731 layer_factory.hpp:77] Creating layer lstm1_unit_28
I1018 00:02:25.442559 29731 net.cpp:84] Creating Layer lstm1_unit_28
I1018 00:02:25.442567 29731 net.cpp:406] lstm1_unit_28 <- c_27
I1018 00:02:25.442576 29731 net.cpp:406] lstm1_unit_28 <- gate_input_28
I1018 00:02:25.442585 29731 net.cpp:406] lstm1_unit_28 <- cont_28_lstm1_cont_slice_27_split_1
I1018 00:02:25.442595 29731 net.cpp:380] lstm1_unit_28 -> c_28
I1018 00:02:25.442608 29731 net.cpp:380] lstm1_unit_28 -> h_28
I1018 00:02:25.442674 29731 net.cpp:122] Setting up lstm1_unit_28
I1018 00:02:25.442687 29731 net.cpp:129] Top shape: 1 150 512 (76800)
I1018 00:02:25.442695 29731 net.cpp:129] Top shape: 1 150 512 (76800)
I1018 00:02:25.442701 29731 net.cpp:137] Memory required for data: 200371200
I1018 00:02:25.442709 29731 layer_factory.hpp:77] Creating layer h_28_lstm1_unit_28_1_split
I1018 00:02:25.442718 29731 net.cpp:84] Creating Layer h_28_lstm1_unit_28_1_split
I1018 00:02:25.442726 29731 net.cpp:406] h_28_lstm1_unit_28_1_split <- h_28
I1018 00:02:25.442736 29731 net.cpp:380] h_28_lstm1_unit_28_1_split -> h_28_lstm1_unit_28_1_split_0
I1018 00:02:25.442749 29731 net.cpp:380] h_28_lstm1_unit_28_1_split -> h_28_lstm1_unit_28_1_split_1
I1018 00:02:25.442800 29731 net.cpp:122] Setting up h_28_lstm1_unit_28_1_split
I1018 00:02:25.442812 29731 net.cpp:129] Top shape: 1 150 512 (76800)
I1018 00:02:25.442821 29731 net.cpp:129] Top shape: 1 150 512 (76800)
I1018 00:02:25.442826 29731 net.cpp:137] Memory required for data: 200985600
I1018 00:02:25.442834 29731 layer_factory.hpp:77] Creating layer lstm1_h_conted_28
I1018 00:02:25.442844 29731 net.cpp:84] Creating Layer lstm1_h_conted_28
I1018 00:02:25.442852 29731 net.cpp:406] lstm1_h_conted_28 <- h_28_lstm1_unit_28_1_split_0
I1018 00:02:25.442862 29731 net.cpp:406] lstm1_h_conted_28 <- cont_29_lstm1_cont_slice_28_split_0
I1018 00:02:25.442884 29731 net.cpp:380] lstm1_h_conted_28 -> h_conted_28
I1018 00:02:25.442983 29731 net.cpp:122] Setting up lstm1_h_conted_28
I1018 00:02:25.442996 29731 net.cpp:129] Top shape: 1 150 512 (76800)
I1018 00:02:25.443003 29731 net.cpp:137] Memory required for data: 201292800
I1018 00:02:25.443011 29731 layer_factory.hpp:77] Creating layer lstm1_transform_29
I1018 00:02:25.443023 29731 net.cpp:84] Creating Layer lstm1_transform_29
I1018 00:02:25.443032 29731 net.cpp:406] lstm1_transform_29 <- h_conted_28
I1018 00:02:25.443047 29731 net.cpp:380] lstm1_transform_29 -> W_hc_h_28
I1018 00:02:25.454674 29731 net.cpp:122] Setting up lstm1_transform_29
I1018 00:02:25.454691 29731 net.cpp:129] Top shape: 1 150 2048 (307200)
I1018 00:02:25.454699 29731 net.cpp:137] Memory required for data: 202521600
I1018 00:02:25.454707 29731 net.cpp:465] Sharing parameters 'W_hc' owned by layer 'lstm1_transform_1', param index 0
I1018 00:02:25.454715 29731 layer_factory.hpp:77] Creating layer lstm1_gate_input_29
I1018 00:02:25.454727 29731 net.cpp:84] Creating Layer lstm1_gate_input_29
I1018 00:02:25.454735 29731 net.cpp:406] lstm1_gate_input_29 <- W_hc_h_28
I1018 00:02:25.454746 29731 net.cpp:406] lstm1_gate_input_29 <- W_xc_x_29
I1018 00:02:25.454756 29731 net.cpp:380] lstm1_gate_input_29 -> gate_input_29
I1018 00:02:25.454802 29731 net.cpp:122] Setting up lstm1_gate_input_29
I1018 00:02:25.454813 29731 net.cpp:129] Top shape: 1 150 2048 (307200)
I1018 00:02:25.454820 29731 net.cpp:137] Memory required for data: 203750400
I1018 00:02:25.454828 29731 layer_factory.hpp:77] Creating layer lstm1_unit_29
I1018 00:02:25.454840 29731 net.cpp:84] Creating Layer lstm1_unit_29
I1018 00:02:25.454849 29731 net.cpp:406] lstm1_unit_29 <- c_28
I1018 00:02:25.454859 29731 net.cpp:406] lstm1_unit_29 <- gate_input_29
I1018 00:02:25.454867 29731 net.cpp:406] lstm1_unit_29 <- cont_29_lstm1_cont_slice_28_split_1
I1018 00:02:25.454877 29731 net.cpp:380] lstm1_unit_29 -> c_29
I1018 00:02:25.454890 29731 net.cpp:380] lstm1_unit_29 -> h_29
I1018 00:02:25.454959 29731 net.cpp:122] Setting up lstm1_unit_29
I1018 00:02:25.454972 29731 net.cpp:129] Top shape: 1 150 512 (76800)
I1018 00:02:25.454980 29731 net.cpp:129] Top shape: 1 150 512 (76800)
I1018 00:02:25.454988 29731 net.cpp:137] Memory required for data: 204364800
I1018 00:02:25.454994 29731 layer_factory.hpp:77] Creating layer h_29_lstm1_unit_29_1_split
I1018 00:02:25.455008 29731 net.cpp:84] Creating Layer h_29_lstm1_unit_29_1_split
I1018 00:02:25.455015 29731 net.cpp:406] h_29_lstm1_unit_29_1_split <- h_29
I1018 00:02:25.455025 29731 net.cpp:380] h_29_lstm1_unit_29_1_split -> h_29_lstm1_unit_29_1_split_0
I1018 00:02:25.455039 29731 net.cpp:380] h_29_lstm1_unit_29_1_split -> h_29_lstm1_unit_29_1_split_1
I1018 00:02:25.455092 29731 net.cpp:122] Setting up h_29_lstm1_unit_29_1_split
I1018 00:02:25.455103 29731 net.cpp:129] Top shape: 1 150 512 (76800)
I1018 00:02:25.455112 29731 net.cpp:129] Top shape: 1 150 512 (76800)
I1018 00:02:25.455118 29731 net.cpp:137] Memory required for data: 204979200
I1018 00:02:25.455126 29731 layer_factory.hpp:77] Creating layer lstm1_h_conted_29
I1018 00:02:25.455138 29731 net.cpp:84] Creating Layer lstm1_h_conted_29
I1018 00:02:25.455147 29731 net.cpp:406] lstm1_h_conted_29 <- h_29_lstm1_unit_29_1_split_0
I1018 00:02:25.455157 29731 net.cpp:406] lstm1_h_conted_29 <- cont_30_lstm1_cont_slice_29_split_0
I1018 00:02:25.455168 29731 net.cpp:380] lstm1_h_conted_29 -> h_conted_29
I1018 00:02:25.455247 29731 net.cpp:122] Setting up lstm1_h_conted_29
I1018 00:02:25.455260 29731 net.cpp:129] Top shape: 1 150 512 (76800)
I1018 00:02:25.455265 29731 net.cpp:137] Memory required for data: 205286400
I1018 00:02:25.455272 29731 layer_factory.hpp:77] Creating layer lstm1_transform_30
I1018 00:02:25.455284 29731 net.cpp:84] Creating Layer lstm1_transform_30
I1018 00:02:25.455292 29731 net.cpp:406] lstm1_transform_30 <- h_conted_29
I1018 00:02:25.455303 29731 net.cpp:380] lstm1_transform_30 -> W_hc_h_29
I1018 00:02:25.466904 29731 net.cpp:122] Setting up lstm1_transform_30
I1018 00:02:25.466922 29731 net.cpp:129] Top shape: 1 150 2048 (307200)
I1018 00:02:25.466929 29731 net.cpp:137] Memory required for data: 206515200
I1018 00:02:25.466938 29731 net.cpp:465] Sharing parameters 'W_hc' owned by layer 'lstm1_transform_1', param index 0
I1018 00:02:25.466946 29731 layer_factory.hpp:77] Creating layer lstm1_gate_input_30
I1018 00:02:25.466958 29731 net.cpp:84] Creating Layer lstm1_gate_input_30
I1018 00:02:25.466965 29731 net.cpp:406] lstm1_gate_input_30 <- W_hc_h_29
I1018 00:02:25.466975 29731 net.cpp:406] lstm1_gate_input_30 <- W_xc_x_30
I1018 00:02:25.466985 29731 net.cpp:380] lstm1_gate_input_30 -> gate_input_30
I1018 00:02:25.467031 29731 net.cpp:122] Setting up lstm1_gate_input_30
I1018 00:02:25.467042 29731 net.cpp:129] Top shape: 1 150 2048 (307200)
I1018 00:02:25.467048 29731 net.cpp:137] Memory required for data: 207744000
I1018 00:02:25.467056 29731 layer_factory.hpp:77] Creating layer lstm1_unit_30
I1018 00:02:25.467067 29731 net.cpp:84] Creating Layer lstm1_unit_30
I1018 00:02:25.467074 29731 net.cpp:406] lstm1_unit_30 <- c_29
I1018 00:02:25.467083 29731 net.cpp:406] lstm1_unit_30 <- gate_input_30
I1018 00:02:25.467092 29731 net.cpp:406] lstm1_unit_30 <- cont_30_lstm1_cont_slice_29_split_1
I1018 00:02:25.467103 29731 net.cpp:380] lstm1_unit_30 -> c_30
I1018 00:02:25.467115 29731 net.cpp:380] lstm1_unit_30 -> h_30
I1018 00:02:25.467182 29731 net.cpp:122] Setting up lstm1_unit_30
I1018 00:02:25.467193 29731 net.cpp:129] Top shape: 1 150 512 (76800)
I1018 00:02:25.467202 29731 net.cpp:129] Top shape: 1 150 512 (76800)
I1018 00:02:25.467208 29731 net.cpp:137] Memory required for data: 208358400
I1018 00:02:25.467216 29731 layer_factory.hpp:77] Creating layer h_30_lstm1_unit_30_1_split
I1018 00:02:25.467227 29731 net.cpp:84] Creating Layer h_30_lstm1_unit_30_1_split
I1018 00:02:25.467236 29731 net.cpp:406] h_30_lstm1_unit_30_1_split <- h_30
I1018 00:02:25.467247 29731 net.cpp:380] h_30_lstm1_unit_30_1_split -> h_30_lstm1_unit_30_1_split_0
I1018 00:02:25.467258 29731 net.cpp:380] h_30_lstm1_unit_30_1_split -> h_30_lstm1_unit_30_1_split_1
I1018 00:02:25.467314 29731 net.cpp:122] Setting up h_30_lstm1_unit_30_1_split
I1018 00:02:25.467324 29731 net.cpp:129] Top shape: 1 150 512 (76800)
I1018 00:02:25.467332 29731 net.cpp:129] Top shape: 1 150 512 (76800)
I1018 00:02:25.467339 29731 net.cpp:137] Memory required for data: 208972800
I1018 00:02:25.467346 29731 layer_factory.hpp:77] Creating layer lstm1_h_conted_30
I1018 00:02:25.467356 29731 net.cpp:84] Creating Layer lstm1_h_conted_30
I1018 00:02:25.467367 29731 net.cpp:406] lstm1_h_conted_30 <- h_30_lstm1_unit_30_1_split_0
I1018 00:02:25.467378 29731 net.cpp:406] lstm1_h_conted_30 <- cont_31_lstm1_cont_slice_30_split_0
I1018 00:02:25.467388 29731 net.cpp:380] lstm1_h_conted_30 -> h_conted_30
I1018 00:02:25.467468 29731 net.cpp:122] Setting up lstm1_h_conted_30
I1018 00:02:25.467479 29731 net.cpp:129] Top shape: 1 150 512 (76800)
I1018 00:02:25.467486 29731 net.cpp:137] Memory required for data: 209280000
I1018 00:02:25.467492 29731 layer_factory.hpp:77] Creating layer lstm1_transform_31
I1018 00:02:25.467504 29731 net.cpp:84] Creating Layer lstm1_transform_31
I1018 00:02:25.467514 29731 net.cpp:406] lstm1_transform_31 <- h_conted_30
I1018 00:02:25.467526 29731 net.cpp:380] lstm1_transform_31 -> W_hc_h_30
I1018 00:02:25.479241 29731 net.cpp:122] Setting up lstm1_transform_31
I1018 00:02:25.479259 29731 net.cpp:129] Top shape: 1 150 2048 (307200)
I1018 00:02:25.479267 29731 net.cpp:137] Memory required for data: 210508800
I1018 00:02:25.479285 29731 net.cpp:465] Sharing parameters 'W_hc' owned by layer 'lstm1_transform_1', param index 0
I1018 00:02:25.479295 29731 layer_factory.hpp:77] Creating layer lstm1_gate_input_31
I1018 00:02:25.479306 29731 net.cpp:84] Creating Layer lstm1_gate_input_31
I1018 00:02:25.479315 29731 net.cpp:406] lstm1_gate_input_31 <- W_hc_h_30
I1018 00:02:25.479326 29731 net.cpp:406] lstm1_gate_input_31 <- W_xc_x_31
I1018 00:02:25.479336 29731 net.cpp:380] lstm1_gate_input_31 -> gate_input_31
I1018 00:02:25.479384 29731 net.cpp:122] Setting up lstm1_gate_input_31
I1018 00:02:25.479396 29731 net.cpp:129] Top shape: 1 150 2048 (307200)
I1018 00:02:25.479403 29731 net.cpp:137] Memory required for data: 211737600
I1018 00:02:25.479410 29731 layer_factory.hpp:77] Creating layer lstm1_unit_31
I1018 00:02:25.479421 29731 net.cpp:84] Creating Layer lstm1_unit_31
I1018 00:02:25.479429 29731 net.cpp:406] lstm1_unit_31 <- c_30
I1018 00:02:25.479440 29731 net.cpp:406] lstm1_unit_31 <- gate_input_31
I1018 00:02:25.479449 29731 net.cpp:406] lstm1_unit_31 <- cont_31_lstm1_cont_slice_30_split_1
I1018 00:02:25.479460 29731 net.cpp:380] lstm1_unit_31 -> c_31
I1018 00:02:25.479473 29731 net.cpp:380] lstm1_unit_31 -> h_31
I1018 00:02:25.479555 29731 net.cpp:122] Setting up lstm1_unit_31
I1018 00:02:25.479568 29731 net.cpp:129] Top shape: 1 150 512 (76800)
I1018 00:02:25.479578 29731 net.cpp:129] Top shape: 1 150 512 (76800)
I1018 00:02:25.479584 29731 net.cpp:137] Memory required for data: 212352000
I1018 00:02:25.479593 29731 layer_factory.hpp:77] Creating layer h_31_lstm1_unit_31_1_split
I1018 00:02:25.479605 29731 net.cpp:84] Creating Layer h_31_lstm1_unit_31_1_split
I1018 00:02:25.479614 29731 net.cpp:406] h_31_lstm1_unit_31_1_split <- h_31
I1018 00:02:25.479624 29731 net.cpp:380] h_31_lstm1_unit_31_1_split -> h_31_lstm1_unit_31_1_split_0
I1018 00:02:25.479637 29731 net.cpp:380] h_31_lstm1_unit_31_1_split -> h_31_lstm1_unit_31_1_split_1
I1018 00:02:25.479694 29731 net.cpp:122] Setting up h_31_lstm1_unit_31_1_split
I1018 00:02:25.479717 29731 net.cpp:129] Top shape: 1 150 512 (76800)
I1018 00:02:25.479725 29731 net.cpp:129] Top shape: 1 150 512 (76800)
I1018 00:02:25.479734 29731 net.cpp:137] Memory required for data: 212966400
I1018 00:02:25.479743 29731 layer_factory.hpp:77] Creating layer lstm1_h_conted_31
I1018 00:02:25.479756 29731 net.cpp:84] Creating Layer lstm1_h_conted_31
I1018 00:02:25.479765 29731 net.cpp:406] lstm1_h_conted_31 <- h_31_lstm1_unit_31_1_split_0
I1018 00:02:25.479776 29731 net.cpp:406] lstm1_h_conted_31 <- cont_32_lstm1_cont_slice_31_split_0
I1018 00:02:25.479787 29731 net.cpp:380] lstm1_h_conted_31 -> h_conted_31
I1018 00:02:25.479874 29731 net.cpp:122] Setting up lstm1_h_conted_31
I1018 00:02:25.479887 29731 net.cpp:129] Top shape: 1 150 512 (76800)
I1018 00:02:25.479894 29731 net.cpp:137] Memory required for data: 213273600
I1018 00:02:25.479902 29731 layer_factory.hpp:77] Creating layer lstm1_transform_32
I1018 00:02:25.479918 29731 net.cpp:84] Creating Layer lstm1_transform_32
I1018 00:02:25.479926 29731 net.cpp:406] lstm1_transform_32 <- h_conted_31
I1018 00:02:25.479938 29731 net.cpp:380] lstm1_transform_32 -> W_hc_h_31
I1018 00:02:25.491531 29731 net.cpp:122] Setting up lstm1_transform_32
I1018 00:02:25.491549 29731 net.cpp:129] Top shape: 1 150 2048 (307200)
I1018 00:02:25.491557 29731 net.cpp:137] Memory required for data: 214502400
I1018 00:02:25.491565 29731 net.cpp:465] Sharing parameters 'W_hc' owned by layer 'lstm1_transform_1', param index 0
I1018 00:02:25.491574 29731 layer_factory.hpp:77] Creating layer lstm1_gate_input_32
I1018 00:02:25.491585 29731 net.cpp:84] Creating Layer lstm1_gate_input_32
I1018 00:02:25.491592 29731 net.cpp:406] lstm1_gate_input_32 <- W_hc_h_31
I1018 00:02:25.491602 29731 net.cpp:406] lstm1_gate_input_32 <- W_xc_x_32
I1018 00:02:25.491612 29731 net.cpp:380] lstm1_gate_input_32 -> gate_input_32
I1018 00:02:25.491658 29731 net.cpp:122] Setting up lstm1_gate_input_32
I1018 00:02:25.491670 29731 net.cpp:129] Top shape: 1 150 2048 (307200)
I1018 00:02:25.491677 29731 net.cpp:137] Memory required for data: 215731200
I1018 00:02:25.491683 29731 layer_factory.hpp:77] Creating layer lstm1_unit_32
I1018 00:02:25.491693 29731 net.cpp:84] Creating Layer lstm1_unit_32
I1018 00:02:25.491701 29731 net.cpp:406] lstm1_unit_32 <- c_31
I1018 00:02:25.491711 29731 net.cpp:406] lstm1_unit_32 <- gate_input_32
I1018 00:02:25.491720 29731 net.cpp:406] lstm1_unit_32 <- cont_32_lstm1_cont_slice_31_split_1
I1018 00:02:25.491730 29731 net.cpp:380] lstm1_unit_32 -> c_32
I1018 00:02:25.491744 29731 net.cpp:380] lstm1_unit_32 -> h_32
I1018 00:02:25.491809 29731 net.cpp:122] Setting up lstm1_unit_32
I1018 00:02:25.491822 29731 net.cpp:129] Top shape: 1 150 512 (76800)
I1018 00:02:25.491830 29731 net.cpp:129] Top shape: 1 150 512 (76800)
I1018 00:02:25.491837 29731 net.cpp:137] Memory required for data: 216345600
I1018 00:02:25.491843 29731 layer_factory.hpp:77] Creating layer lstm1_
I1018 00:02:25.491855 29731 net.cpp:84] Creating Layer lstm1_
I1018 00:02:25.491863 29731 net.cpp:406] lstm1_ <- c_32
I1018 00:02:25.491875 29731 net.cpp:380] lstm1_ -> c_T
I1018 00:02:25.491912 29731 net.cpp:122] Setting up lstm1_
I1018 00:02:25.491924 29731 net.cpp:129] Top shape: 1 150 512 (76800)
I1018 00:02:25.491930 29731 net.cpp:137] Memory required for data: 216652800
I1018 00:02:25.491936 29731 layer_factory.hpp:77] Creating layer lstm1_h_concat
I1018 00:02:25.491955 29731 net.cpp:84] Creating Layer lstm1_h_concat
I1018 00:02:25.491963 29731 net.cpp:406] lstm1_h_concat <- h_1_lstm1_unit_1_1_split_1
I1018 00:02:25.491974 29731 net.cpp:406] lstm1_h_concat <- h_2_lstm1_unit_2_1_split_1
…
I1018 00:02:25.500162 29731 net.cpp:200] lstm1_ does not need backward computation.
I1018 00:02:25.500169 29731 net.cpp:242] This network produces output c_T
I1018 00:02:25.500178 29731 net.cpp:242] This network produces output h_pseudoloss
I1018 00:02:25.527537 29731 net.cpp:255] Network initialization done.
I1018 00:02:25.527976 29731 recurrent_layer.cpp:150] Adding parameter 0: W_xc
I1018 00:02:25.527989 29731 recurrent_layer.cpp:150] Adding parameter 1: b_c
I1018 00:02:25.527997 29731 recurrent_layer.cpp:150] Adding parameter 2: W_hc
I1018 00:02:25.529791 29731 net.cpp:122] Setting up lstm1
I1018 00:02:25.529810 29731 net.cpp:129] Top shape: 32 150 512 (2457600)
I1018 00:02:25.529819 29731 net.cpp:137] Memory required for data: 17330459400
I1018 00:02:25.529836 29731 layer_factory.hpp:77] Creating layer lstm1-drop
I1018 00:02:25.529862 29731 net.cpp:84] Creating Layer lstm1-drop
I1018 00:02:25.529875 29731 net.cpp:406] lstm1-drop <- lstm1
I1018 00:02:25.529891 29731 net.cpp:380] lstm1-drop -> lstm1-drop
I1018 00:02:25.529958 29731 net.cpp:122] Setting up lstm1-drop
I1018 00:02:25.529969 29731 net.cpp:129] Top shape: 32 150 512 (2457600)
I1018 00:02:25.529976 29731 net.cpp:137] Memory required for data: 17340289800
I1018 00:02:25.529983 29731 layer_factory.hpp:77] Creating layer fc-final
I1018 00:02:25.529999 29731 net.cpp:84] Creating Layer fc-final
I1018 00:02:25.530007 29731 net.cpp:406] fc-final <- lstm1-drop
I1018 00:02:25.530019 29731 net.cpp:380] fc-final -> fc-final
I1018 00:02:25.530331 29731 net.cpp:122] Setting up fc-final
I1018 00:02:25.530345 29731 net.cpp:129] Top shape: 32 150 10 (48000)
I1018 00:02:25.530354 29731 net.cpp:137] Memory required for data: 17340481800
I1018 00:02:25.530365 29731 layer_factory.hpp:77] Creating layer fc-final_fc-final_0_split
I1018 00:02:25.530376 29731 net.cpp:84] Creating Layer fc-final_fc-final_0_split
I1018 00:02:25.530385 29731 net.cpp:406] fc-final_fc-final_0_split <- fc-final
I1018 00:02:25.530395 29731 net.cpp:380] fc-final_fc-final_0_split -> fc-final_fc-final_0_split_0
I1018 00:02:25.530406 29731 net.cpp:380] fc-final_fc-final_0_split -> fc-final_fc-final_0_split_1
I1018 00:02:25.530458 29731 net.cpp:122] Setting up fc-final_fc-final_0_split
I1018 00:02:25.530470 29731 net.cpp:129] Top shape: 32 150 10 (48000)
I1018 00:02:25.530478 29731 net.cpp:129] Top shape: 32 150 10 (48000)
I1018 00:02:25.530488 29731 net.cpp:137] Memory required for data: 17340865800
I1018 00:02:25.530494 29731 layer_factory.hpp:77] Creating layer loss
I1018 00:02:25.530505 29731 net.cpp:84] Creating Layer loss
I1018 00:02:25.530514 29731 net.cpp:406] loss <- fc-final_fc-final_0_split_0
I1018 00:02:25.530524 29731 net.cpp:406] loss <- reshape-label_label_tran_0_split_0
I1018 00:02:25.530534 29731 net.cpp:380] loss -> loss
…
