…
I1017 23:47:51.121369 29380 net.cpp:294] The NetState phase (0) differed from the phase (1) specified by a rule in layer Silence
I1017 23:47:51.121567 29380 net.cpp:51] Initializing net from parameters: 
name: "VGG-Places365"
state {
  phase: TRAIN
  level: 0
  stage: ""
}
layer {
  name: "data"
  type: "ImageData"
  top: "data"
  top: "label"
  include {
    phase: TRAIN
  }
  transform_param {
    mirror: true
    crop_size: 224
    mean_value: 104
    mean_value: 117
    mean_value: 123
  }
  image_data_param {
    source: "../Data/lsun_train_list_12w.txt"
    batch_size: 5
    shuffle: true
    new_height: 256
    new_width: 256
  }
}
layer {
  name: "label_tran"
  type: "Python"
  bottom: "label"
  top: "reshape-label"
  top: "clip_markers"
  python_param {
    module: "data_preparation_sort_max_clip"
    layer: "ReshapeLabel"
  }
}
layer {
  name: "conv1_1"
  type: "Convolution"
  bottom: "data"
  top: "conv1_1"
  convolution_param {
    num_output: 64
    pad: 1
    kernel_size: 3
  }
}
layer {
  name: "relu1_1"
  type: "ReLU"
  bottom: "conv1_1"
  top: "conv1_1"
}
layer {
  name: "conv1_2"
  type: "Convolution"
  bottom: "conv1_1"
  top: "conv1_2"
  convolution_param {
    num_output: 64
    pad: 1
    kernel_size: 3
  }
}
layer {
  name: "relu1_2"
  type: "ReLU"
  bottom: "conv1_2"
  top: "conv1_2"
}
layer {
  name: "pool1"
  type: "Pooling"
  bottom: "conv1_2"
  top: "pool1"
  pooling_param {
    pool: MAX
    kernel_size: 2
    stride: 2
  }
}
layer {
  name: "conv2_1"
  type: "Convolution"
  bottom: "pool1"
  top: "conv2_1"
  convolution_param {
    num_output: 128
    pad: 1
    kernel_size: 3
  }
}
layer {
  name: "relu2_1"
  type: "ReLU"
  bottom: "conv2_1"
  top: "conv2_1"
}
layer {
  name: "conv2_2"
  type: "Convolution"
  bottom: "conv2_1"
  top: "conv2_2"
  convolution_param {
    num_output: 128
    pad: 1
    kernel_size: 3
  }
}
layer {
  name: "relu2_2"
  type: "ReLU"
  bottom: "conv2_2"
  top: "conv2_2"
}
layer {
  name: "pool2"
  type: "Pooling"
  bottom: "conv2_2"
  top: "pool2"
  pooling_param {
    pool: MAX
    kernel_size: 2
    stride: 2
  }
}
layer {
  name: "conv3_1"
  type: "Convolution"
  bottom: "pool2"
  top: "conv3_1"
  convolution_param {
    num_output: 256
    pad: 1
    kernel_size: 3
  }
}
layer {
  name: "relu3_1"
  type: "ReLU"
  bottom: "conv3_1"
  top: "conv3_1"
}
layer {
  name: "conv3_2"
  type: "Convolution"
  bottom: "conv3_1"
  top: "conv3_2"
  convolution_param {
    num_output: 256
    pad: 1
    kernel_size: 3
  }
}
layer {
  name: "relu3_2"
  type: "ReLU"
  bottom: "conv3_2"
  top: "conv3_2"
}
layer {
  name: "conv3_3"
  type: "Convolution"
  bottom: "conv3_2"
  top: "conv3_3"
  convolution_param {
    num_output: 256
    pad: 1
    kernel_size: 3
  }
}
layer {
  name: "relu3_3"
  type: "ReLU"
  bottom: "conv3_3"
  top: "conv3_3"
}
layer {
  name: "pool3"
  type: "Pooling"
  bottom: "conv3_3"
  top: "pool3"
  pooling_param {
    pool: MAX
    kernel_size: 2
    stride: 2
  }
}
layer {
  name: "conv4_1"
  type: "Convolution"
  bottom: "pool3"
  top: "conv4_1"
  convolution_param {
    num_output: 512
    pad: 1
    kernel_size: 3
  }
}
layer {
  name: "relu4_1"
  type: "ReLU"
  bottom: "conv4_1"
  top: "conv4_1"
}
layer {
  name: "conv4_2"
  type: "Convolution"
  bottom: "conv4_1"
  top: "conv4_2"
  convolution_param {
    num_output: 512
    pad: 1
    kernel_size: 3
  }
}
layer {
  name: "relu4_2"
  type: "ReLU"
  bottom: "conv4_2"
  top: "conv4_2"
}
layer {
  name: "conv4_3"
  type: "Convolution"
  bottom: "conv4_2"
  top: "conv4_3"
  convolution_param {
    num_output: 512
    pad: 1
    kernel_size: 3
  }
}
layer {
  name: "relu4_3"
  type: "ReLU"
  bottom: "conv4_3"
  top: "conv4_3"
}
layer {
  name: "pool4"
  type: "Pooling"
  bottom: "conv4_3"
  top: "pool4"
  pooling_param {
    pool: MAX
    kernel_size: 2
    stride: 2
  }
}
layer {
  name: "conv5_1"
  type: "Convolution"
  bottom: "pool4"
  top: "conv5_1"
  convolution_param {
    num_output: 512
    pad: 1
    kernel_size: 3
  }
}
layer {
  name: "relu5_1"
  type: "ReLU"
  bottom: "conv5_1"
  top: "conv5_1"
}
layer {
  name: "conv5_2"
  type: "Convolution"
  bottom: "conv5_1"
  top: "conv5_2"
  convolution_param {
    num_output: 512
    pad: 1
    kernel_size: 3
  }
}
layer {
  name: "relu5_2"
  type: "ReLU"
  bottom: "conv5_2"
  top: "conv5_2"
}
layer {
  name: "conv5_3"
  type: "Convolution"
  bottom: "conv5_2"
  top: "conv5_3"
  convolution_param {
    num_output: 512
    pad: 1
    kernel_size: 3
  }
}
layer {
  name: "relu5_3"
  type: "ReLU"
  bottom: "conv5_3"
  top: "conv5_3"
}
layer {
  name: "conv5_3_re"
  type: "Reshape"
  bottom: "conv5_3"
  top: "conv5_3_re"
  reshape_param {
    shape {
      dim: 0
      dim: 0
      dim: -1
    }
  }
}
layer {
  name: "conv5_3_tran"
  type: "Python"
  bottom: "conv5_3_re"
  top: "conv5_3_tran"
  python_param {
    module: "data_preparation_sort_max_clip"
    layer: "DataTransposeSortMaxClip"
  }
}
layer {
  name: "lstm1"
  type: "LSTM"
  bottom: "conv5_3_tran"
  bottom: "clip_markers"
  top: "lstm1"
  recurrent_param {
    num_output: 512
    weight_filler {
      type: "uniform"
      min: -0.01
      max: 0.01
    }
    bias_filler {
      type: "constant"
      value: 0
    }
  }
}
layer {
  name: "lstm1-drop"
  type: "Dropout"
  bottom: "lstm1"
  top: "lstm1-drop"
  dropout_param {
    dropout_ratio: 0.5
  }
}
layer {
  name: "fc-final"
  type: "InnerProduct"
  bottom: "lstm1-drop"
  top: "fc-final"
  param {
    lr_mult: 1
    decay_mult: 1
  }
  param {
    lr_mult: 2
    decay_mult: 0
  }
  inner_product_param {
    num_output: 10
    weight_filler {
      type: "gaussian"
      std: 0.01
    }
    bias_filler {
      type: "constant"
      value: 0
    }
    axis: 2
  }
}
layer {
  name: "loss"
  type: "SoftmaxWithLoss"
  bottom: "fc-final"
  bottom: "reshape-label"
  top: "loss"
  softmax_param {
    axis: 2
  }
}
layer {
  name: "accuracy"
  type: "Accuracy"
  bottom: "fc-final"
  bottom: "reshape-label"
  top: "accuracy"
  accuracy_param {
    axis: 2
  }
}
I1017 23:47:51.121775 29380 layer_factory.hpp:77] Creating layer data
I1017 23:47:51.121829 29380 net.cpp:84] Creating Layer data
I1017 23:47:51.121845 29380 net.cpp:380] data -> data
I1017 23:47:51.121893 29380 net.cpp:380] data -> label
I1017 23:47:51.121933 29380 image_data_layer.cpp:38] Opening file ../Data/lsun_train_list_12w.txt
I1017 23:47:51.778827 29380 image_data_layer.cpp:53] Shuffling data
I1017 23:47:52.070821 29380 image_data_layer.cpp:63] A total of 1200000 images.
I1017 23:47:52.075994 29380 image_data_layer.cpp:90] output data size: 5,3,224,224
I1017 23:47:52.086755 29380 net.cpp:122] Setting up data
I1017 23:47:52.086786 29380 net.cpp:129] Top shape: 5 3 224 224 (752640)
I1017 23:47:52.086794 29380 net.cpp:129] Top shape: 5 (5)
I1017 23:47:52.086800 29380 net.cpp:137] Memory required for data: 3010580
I1017 23:47:52.086905 29380 layer_factory.hpp:77] Creating layer label_tran
I1017 23:47:52.733131 29380 net.cpp:84] Creating Layer label_tran
I1017 23:47:52.733192 29380 net.cpp:406] label_tran <- label
I1017 23:47:52.733218 29380 net.cpp:380] label_tran -> reshape-label
I1017 23:47:52.733232 29380 net.cpp:380] label_tran -> clip_markers
I1017 23:47:52.733526 29380 net.cpp:122] Setting up label_tran
I1017 23:47:52.733543 29380 net.cpp:129] Top shape: 196 5 (980)
I1017 23:47:52.733551 29380 net.cpp:129] Top shape: 196 5 (980)
I1017 23:47:52.733554 29380 net.cpp:137] Memory required for data: 3018420
I1017 23:47:52.733561 29380 layer_factory.hpp:77] Creating layer reshape-label_label_tran_0_split
I1017 23:47:52.733582 29380 net.cpp:84] Creating Layer reshape-label_label_tran_0_split
I1017 23:47:52.733587 29380 net.cpp:406] reshape-label_label_tran_0_split <- reshape-label
I1017 23:47:52.733593 29380 net.cpp:380] reshape-label_label_tran_0_split -> reshape-label_label_tran_0_split_0
I1017 23:47:52.733603 29380 net.cpp:380] reshape-label_label_tran_0_split -> reshape-label_label_tran_0_split_1
I1017 23:47:52.733640 29380 net.cpp:122] Setting up reshape-label_label_tran_0_split
I1017 23:47:52.733649 29380 net.cpp:129] Top shape: 196 5 (980)
I1017 23:47:52.733654 29380 net.cpp:129] Top shape: 196 5 (980)
I1017 23:47:52.733659 29380 net.cpp:137] Memory required for data: 3026260
I1017 23:47:52.733662 29380 layer_factory.hpp:77] Creating layer conv1_1
I1017 23:47:52.733681 29380 net.cpp:84] Creating Layer conv1_1
I1017 23:47:52.733693 29380 net.cpp:406] conv1_1 <- data
I1017 23:47:52.733700 29380 net.cpp:380] conv1_1 -> conv1_1
I1017 23:47:52.735597 29380 net.cpp:122] Setting up conv1_1
I1017 23:47:52.735613 29380 net.cpp:129] Top shape: 5 64 224 224 (16056320)
I1017 23:47:52.735618 29380 net.cpp:137] Memory required for data: 67251540
I1017 23:47:52.735654 29380 layer_factory.hpp:77] Creating layer relu1_1
I1017 23:47:52.735668 29380 net.cpp:84] Creating Layer relu1_1
I1017 23:47:52.735673 29380 net.cpp:406] relu1_1 <- conv1_1
I1017 23:47:52.735679 29380 net.cpp:367] relu1_1 -> conv1_1 (in-place)
I1017 23:47:52.735693 29380 net.cpp:122] Setting up relu1_1
I1017 23:47:52.735699 29380 net.cpp:129] Top shape: 5 64 224 224 (16056320)
I1017 23:47:52.735703 29380 net.cpp:137] Memory required for data: 131476820
I1017 23:47:52.735708 29380 layer_factory.hpp:77] Creating layer conv1_2
I1017 23:47:52.735716 29380 net.cpp:84] Creating Layer conv1_2
I1017 23:47:52.735721 29380 net.cpp:406] conv1_2 <- conv1_1
I1017 23:47:52.735728 29380 net.cpp:380] conv1_2 -> conv1_2
I1017 23:47:52.735993 29380 net.cpp:122] Setting up conv1_2
I1017 23:47:52.736006 29380 net.cpp:129] Top shape: 5 64 224 224 (16056320)
I1017 23:47:52.736011 29380 net.cpp:137] Memory required for data: 195702100
I1017 23:47:52.736019 29380 layer_factory.hpp:77] Creating layer relu1_2
I1017 23:47:52.736045 29380 net.cpp:84] Creating Layer relu1_2
I1017 23:47:52.736052 29380 net.cpp:406] relu1_2 <- conv1_2
I1017 23:47:52.736058 29380 net.cpp:367] relu1_2 -> conv1_2 (in-place)
I1017 23:47:52.736066 29380 net.cpp:122] Setting up relu1_2
I1017 23:47:52.736073 29380 net.cpp:129] Top shape: 5 64 224 224 (16056320)
I1017 23:47:52.736076 29380 net.cpp:137] Memory required for data: 259927380
I1017 23:47:52.736080 29380 layer_factory.hpp:77] Creating layer pool1
I1017 23:47:52.736093 29380 net.cpp:84] Creating Layer pool1
I1017 23:47:52.736097 29380 net.cpp:406] pool1 <- conv1_2
I1017 23:47:52.736104 29380 net.cpp:380] pool1 -> pool1
I1017 23:47:52.736152 29380 net.cpp:122] Setting up pool1
I1017 23:47:52.736163 29380 net.cpp:129] Top shape: 5 64 112 112 (4014080)
I1017 23:47:52.736167 29380 net.cpp:137] Memory required for data: 275983700
I1017 23:47:52.736171 29380 layer_factory.hpp:77] Creating layer conv2_1
I1017 23:47:52.736181 29380 net.cpp:84] Creating Layer conv2_1
I1017 23:47:52.736186 29380 net.cpp:406] conv2_1 <- pool1
I1017 23:47:52.736193 29380 net.cpp:380] conv2_1 -> conv2_1
I1017 23:47:52.737896 29380 net.cpp:122] Setting up conv2_1
I1017 23:47:52.737911 29380 net.cpp:129] Top shape: 5 128 112 112 (8028160)
I1017 23:47:52.737927 29380 net.cpp:137] Memory required for data: 308096340
I1017 23:47:52.737941 29380 layer_factory.hpp:77] Creating layer relu2_1
I1017 23:47:52.737948 29380 net.cpp:84] Creating Layer relu2_1
I1017 23:47:52.737965 29380 net.cpp:406] relu2_1 <- conv2_1
I1017 23:47:52.737972 29380 net.cpp:367] relu2_1 -> conv2_1 (in-place)
I1017 23:47:52.737979 29380 net.cpp:122] Setting up relu2_1
I1017 23:47:52.737985 29380 net.cpp:129] Top shape: 5 128 112 112 (8028160)
I1017 23:47:52.737989 29380 net.cpp:137] Memory required for data: 340208980
I1017 23:47:52.737993 29380 layer_factory.hpp:77] Creating layer conv2_2
I1017 23:47:52.738001 29380 net.cpp:84] Creating Layer conv2_2
I1017 23:47:52.738006 29380 net.cpp:406] conv2_2 <- conv2_1
I1017 23:47:52.738011 29380 net.cpp:380] conv2_2 -> conv2_2
I1017 23:47:52.738319 29380 net.cpp:122] Setting up conv2_2
I1017 23:47:52.738342 29380 net.cpp:129] Top shape: 5 128 112 112 (8028160)
I1017 23:47:52.738345 29380 net.cpp:137] Memory required for data: 372321620
I1017 23:47:52.738364 29380 layer_factory.hpp:77] Creating layer relu2_2
I1017 23:47:52.738370 29380 net.cpp:84] Creating Layer relu2_2
I1017 23:47:52.738375 29380 net.cpp:406] relu2_2 <- conv2_2
I1017 23:47:52.738381 29380 net.cpp:367] relu2_2 -> conv2_2 (in-place)
I1017 23:47:52.738389 29380 net.cpp:122] Setting up relu2_2
I1017 23:47:52.738394 29380 net.cpp:129] Top shape: 5 128 112 112 (8028160)
I1017 23:47:52.738397 29380 net.cpp:137] Memory required for data: 404434260
I1017 23:47:52.738400 29380 layer_factory.hpp:77] Creating layer pool2
I1017 23:47:52.738406 29380 net.cpp:84] Creating Layer pool2
I1017 23:47:52.738410 29380 net.cpp:406] pool2 <- conv2_2
I1017 23:47:52.738415 29380 net.cpp:380] pool2 -> pool2
I1017 23:47:52.738448 29380 net.cpp:122] Setting up pool2
I1017 23:47:52.738456 29380 net.cpp:129] Top shape: 5 128 56 56 (2007040)
I1017 23:47:52.738459 29380 net.cpp:137] Memory required for data: 412462420
I1017 23:47:52.738464 29380 layer_factory.hpp:77] Creating layer conv3_1
I1017 23:47:52.738471 29380 net.cpp:84] Creating Layer conv3_1
I1017 23:47:52.738476 29380 net.cpp:406] conv3_1 <- pool2
I1017 23:47:52.738481 29380 net.cpp:380] conv3_1 -> conv3_1
I1017 23:47:52.739639 29380 net.cpp:122] Setting up conv3_1
I1017 23:47:52.739652 29380 net.cpp:129] Top shape: 5 256 56 56 (4014080)
I1017 23:47:52.739668 29380 net.cpp:137] Memory required for data: 428518740
I1017 23:47:52.739679 29380 layer_factory.hpp:77] Creating layer relu3_1
I1017 23:47:52.739688 29380 net.cpp:84] Creating Layer relu3_1
I1017 23:47:52.739692 29380 net.cpp:406] relu3_1 <- conv3_1
I1017 23:47:52.739698 29380 net.cpp:367] relu3_1 -> conv3_1 (in-place)
I1017 23:47:52.739706 29380 net.cpp:122] Setting up relu3_1
I1017 23:47:52.739711 29380 net.cpp:129] Top shape: 5 256 56 56 (4014080)
I1017 23:47:52.739715 29380 net.cpp:137] Memory required for data: 444575060
I1017 23:47:52.739719 29380 layer_factory.hpp:77] Creating layer conv3_2
I1017 23:47:52.739727 29380 net.cpp:84] Creating Layer conv3_2
I1017 23:47:52.739730 29380 net.cpp:406] conv3_2 <- conv3_1
I1017 23:47:52.739737 29380 net.cpp:380] conv3_2 -> conv3_2
I1017 23:47:52.741631 29380 net.cpp:122] Setting up conv3_2
I1017 23:47:52.741647 29380 net.cpp:129] Top shape: 5 256 56 56 (4014080)
I1017 23:47:52.741662 29380 net.cpp:137] Memory required for data: 460631380
I1017 23:47:52.741669 29380 layer_factory.hpp:77] Creating layer relu3_2
I1017 23:47:52.741680 29380 net.cpp:84] Creating Layer relu3_2
I1017 23:47:52.741685 29380 net.cpp:406] relu3_2 <- conv3_2
I1017 23:47:52.741691 29380 net.cpp:367] relu3_2 -> conv3_2 (in-place)
I1017 23:47:52.741698 29380 net.cpp:122] Setting up relu3_2
I1017 23:47:52.741704 29380 net.cpp:129] Top shape: 5 256 56 56 (4014080)
I1017 23:47:52.741708 29380 net.cpp:137] Memory required for data: 476687700
I1017 23:47:52.741713 29380 layer_factory.hpp:77] Creating layer conv3_3
I1017 23:47:52.741722 29380 net.cpp:84] Creating Layer conv3_3
I1017 23:47:52.741726 29380 net.cpp:406] conv3_3 <- conv3_2
I1017 23:47:52.741732 29380 net.cpp:380] conv3_3 -> conv3_3
I1017 23:47:52.743587 29380 net.cpp:122] Setting up conv3_3
I1017 23:47:52.743602 29380 net.cpp:129] Top shape: 5 256 56 56 (4014080)
I1017 23:47:52.743618 29380 net.cpp:137] Memory required for data: 492744020
I1017 23:47:52.743626 29380 layer_factory.hpp:77] Creating layer relu3_3
I1017 23:47:52.743636 29380 net.cpp:84] Creating Layer relu3_3
I1017 23:47:52.743641 29380 net.cpp:406] relu3_3 <- conv3_3
I1017 23:47:52.743647 29380 net.cpp:367] relu3_3 -> conv3_3 (in-place)
I1017 23:47:52.743655 29380 net.cpp:122] Setting up relu3_3
I1017 23:47:52.743660 29380 net.cpp:129] Top shape: 5 256 56 56 (4014080)
I1017 23:47:52.743664 29380 net.cpp:137] Memory required for data: 508800340
I1017 23:47:52.743674 29380 layer_factory.hpp:77] Creating layer pool3
I1017 23:47:52.743693 29380 net.cpp:84] Creating Layer pool3
I1017 23:47:52.743697 29380 net.cpp:406] pool3 <- conv3_3
I1017 23:47:52.743703 29380 net.cpp:380] pool3 -> pool3
I1017 23:47:52.743738 29380 net.cpp:122] Setting up pool3
I1017 23:47:52.743748 29380 net.cpp:129] Top shape: 5 256 28 28 (1003520)
I1017 23:47:52.743752 29380 net.cpp:137] Memory required for data: 512814420
I1017 23:47:52.743757 29380 layer_factory.hpp:77] Creating layer conv4_1
I1017 23:47:52.743763 29380 net.cpp:84] Creating Layer conv4_1
I1017 23:47:52.743767 29380 net.cpp:406] conv4_1 <- pool3
I1017 23:47:52.743775 29380 net.cpp:380] conv4_1 -> conv4_1
I1017 23:47:52.747674 29380 net.cpp:122] Setting up conv4_1
I1017 23:47:52.747692 29380 net.cpp:129] Top shape: 5 512 28 28 (2007040)
I1017 23:47:52.747696 29380 net.cpp:137] Memory required for data: 520842580
I1017 23:47:52.747704 29380 layer_factory.hpp:77] Creating layer relu4_1
I1017 23:47:52.747714 29380 net.cpp:84] Creating Layer relu4_1
I1017 23:47:52.747717 29380 net.cpp:406] relu4_1 <- conv4_1
I1017 23:47:52.747725 29380 net.cpp:367] relu4_1 -> conv4_1 (in-place)
I1017 23:47:52.747735 29380 net.cpp:122] Setting up relu4_1
I1017 23:47:52.747740 29380 net.cpp:129] Top shape: 5 512 28 28 (2007040)
I1017 23:47:52.747745 29380 net.cpp:137] Memory required for data: 528870740
I1017 23:47:52.747750 29380 layer_factory.hpp:77] Creating layer conv4_2
I1017 23:47:52.747756 29380 net.cpp:84] Creating Layer conv4_2
I1017 23:47:52.747761 29380 net.cpp:406] conv4_2 <- conv4_1
I1017 23:47:52.747768 29380 net.cpp:380] conv4_2 -> conv4_2
I1017 23:47:52.753476 29380 net.cpp:122] Setting up conv4_2
I1017 23:47:52.753502 29380 net.cpp:129] Top shape: 5 512 28 28 (2007040)
I1017 23:47:52.753518 29380 net.cpp:137] Memory required for data: 536898900
I1017 23:47:52.753531 29380 layer_factory.hpp:77] Creating layer relu4_2
I1017 23:47:52.753540 29380 net.cpp:84] Creating Layer relu4_2
I1017 23:47:52.753545 29380 net.cpp:406] relu4_2 <- conv4_2
I1017 23:47:52.753552 29380 net.cpp:367] relu4_2 -> conv4_2 (in-place)
I1017 23:47:52.753561 29380 net.cpp:122] Setting up relu4_2
I1017 23:47:52.753566 29380 net.cpp:129] Top shape: 5 512 28 28 (2007040)
I1017 23:47:52.753569 29380 net.cpp:137] Memory required for data: 544927060
I1017 23:47:52.753573 29380 layer_factory.hpp:77] Creating layer conv4_3
I1017 23:47:52.753581 29380 net.cpp:84] Creating Layer conv4_3
I1017 23:47:52.753584 29380 net.cpp:406] conv4_3 <- conv4_2
I1017 23:47:52.753592 29380 net.cpp:380] conv4_3 -> conv4_3
I1017 23:47:52.759177 29380 net.cpp:122] Setting up conv4_3
I1017 23:47:52.759192 29380 net.cpp:129] Top shape: 5 512 28 28 (2007040)
I1017 23:47:52.759209 29380 net.cpp:137] Memory required for data: 552955220
I1017 23:47:52.759217 29380 layer_factory.hpp:77] Creating layer relu4_3
I1017 23:47:52.759225 29380 net.cpp:84] Creating Layer relu4_3
I1017 23:47:52.759229 29380 net.cpp:406] relu4_3 <- conv4_3
I1017 23:47:52.759238 29380 net.cpp:367] relu4_3 -> conv4_3 (in-place)
I1017 23:47:52.759245 29380 net.cpp:122] Setting up relu4_3
I1017 23:47:52.759251 29380 net.cpp:129] Top shape: 5 512 28 28 (2007040)
I1017 23:47:52.759254 29380 net.cpp:137] Memory required for data: 560983380
I1017 23:47:52.759258 29380 layer_factory.hpp:77] Creating layer pool4
I1017 23:47:52.759266 29380 net.cpp:84] Creating Layer pool4
I1017 23:47:52.759270 29380 net.cpp:406] pool4 <- conv4_3
I1017 23:47:52.759279 29380 net.cpp:380] pool4 -> pool4
I1017 23:47:52.759315 29380 net.cpp:122] Setting up pool4
I1017 23:47:52.759325 29380 net.cpp:129] Top shape: 5 512 14 14 (501760)
I1017 23:47:52.759328 29380 net.cpp:137] Memory required for data: 562990420
I1017 23:47:52.759331 29380 layer_factory.hpp:77] Creating layer conv5_1
I1017 23:47:52.759341 29380 net.cpp:84] Creating Layer conv5_1
I1017 23:47:52.759346 29380 net.cpp:406] conv5_1 <- pool4
I1017 23:47:52.759351 29380 net.cpp:380] conv5_1 -> conv5_1
I1017 23:47:52.765105 29380 net.cpp:122] Setting up conv5_1
I1017 23:47:52.765120 29380 net.cpp:129] Top shape: 5 512 14 14 (501760)
I1017 23:47:52.765136 29380 net.cpp:137] Memory required for data: 564997460
I1017 23:47:52.765144 29380 layer_factory.hpp:77] Creating layer relu5_1
I1017 23:47:52.765152 29380 net.cpp:84] Creating Layer relu5_1
I1017 23:47:52.765157 29380 net.cpp:406] relu5_1 <- conv5_1
I1017 23:47:52.765166 29380 net.cpp:367] relu5_1 -> conv5_1 (in-place)
I1017 23:47:52.765172 29380 net.cpp:122] Setting up relu5_1
I1017 23:47:52.765178 29380 net.cpp:129] Top shape: 5 512 14 14 (501760)
I1017 23:47:52.765182 29380 net.cpp:137] Memory required for data: 567004500
I1017 23:47:52.765185 29380 layer_factory.hpp:77] Creating layer conv5_2
I1017 23:47:52.765192 29380 net.cpp:84] Creating Layer conv5_2
I1017 23:47:52.765198 29380 net.cpp:406] conv5_2 <- conv5_1
I1017 23:47:52.765204 29380 net.cpp:380] conv5_2 -> conv5_2
I1017 23:47:52.779299 29380 net.cpp:122] Setting up conv5_2
I1017 23:47:52.779330 29380 net.cpp:129] Top shape: 5 512 14 14 (501760)
I1017 23:47:52.779335 29380 net.cpp:137] Memory required for data: 569011540
I1017 23:47:52.779384 29380 layer_factory.hpp:77] Creating layer relu5_2
I1017 23:47:52.779609 29380 net.cpp:84] Creating Layer relu5_2
I1017 23:47:52.779686 29380 net.cpp:406] relu5_2 <- conv5_2
I1017 23:47:52.779796 29380 net.cpp:367] relu5_2 -> conv5_2 (in-place)
I1017 23:47:52.780153 29380 net.cpp:122] Setting up relu5_2
I1017 23:47:52.780359 29380 net.cpp:129] Top shape: 5 512 14 14 (501760)
I1017 23:47:52.780411 29380 net.cpp:137] Memory required for data: 571018580
I1017 23:47:52.780474 29380 layer_factory.hpp:77] Creating layer conv5_3
I1017 23:47:52.780720 29380 net.cpp:84] Creating Layer conv5_3
I1017 23:47:52.780726 29380 net.cpp:406] conv5_3 <- conv5_2
I1017 23:47:52.780733 29380 net.cpp:380] conv5_3 -> conv5_3
I1017 23:47:52.793735 29380 net.cpp:122] Setting up conv5_3
I1017 23:47:52.793773 29380 net.cpp:129] Top shape: 5 512 14 14 (501760)
I1017 23:47:52.793778 29380 net.cpp:137] Memory required for data: 573025620
I1017 23:47:52.793789 29380 layer_factory.hpp:77] Creating layer relu5_3
I1017 23:47:52.793812 29380 net.cpp:84] Creating Layer relu5_3
I1017 23:47:52.793817 29380 net.cpp:406] relu5_3 <- conv5_3
I1017 23:47:52.793828 29380 net.cpp:367] relu5_3 -> conv5_3 (in-place)
I1017 23:47:52.793839 29380 net.cpp:122] Setting up relu5_3
I1017 23:47:52.793844 29380 net.cpp:129] Top shape: 5 512 14 14 (501760)
I1017 23:47:52.793848 29380 net.cpp:137] Memory required for data: 575032660
I1017 23:47:52.793853 29380 layer_factory.hpp:77] Creating layer conv5_3_re
I1017 23:47:52.793867 29380 net.cpp:84] Creating Layer conv5_3_re
I1017 23:47:52.793871 29380 net.cpp:406] conv5_3_re <- conv5_3
I1017 23:47:52.793877 29380 net.cpp:380] conv5_3_re -> conv5_3_re
I1017 23:47:52.793928 29380 net.cpp:122] Setting up conv5_3_re
I1017 23:47:52.793937 29380 net.cpp:129] Top shape: 5 512 196 (501760)
I1017 23:47:52.793941 29380 net.cpp:137] Memory required for data: 577039700
I1017 23:47:52.793946 29380 layer_factory.hpp:77] Creating layer conv5_3_tran
I1017 23:47:52.794020 29380 net.cpp:84] Creating Layer conv5_3_tran
I1017 23:47:52.794030 29380 net.cpp:406] conv5_3_tran <- conv5_3_re
I1017 23:47:52.794037 29380 net.cpp:380] conv5_3_tran -> conv5_3_tran
I1017 23:47:52.795455 29380 net.cpp:122] Setting up conv5_3_tran
I1017 23:47:52.795470 29380 net.cpp:129] Top shape: 196 5 196 (192080)
I1017 23:47:52.795488 29380 net.cpp:137] Memory required for data: 577808020
I1017 23:47:52.795495 29380 layer_factory.hpp:77] Creating layer lstm1
I1017 23:47:52.795511 29380 net.cpp:84] Creating Layer lstm1
I1017 23:47:52.795516 29380 net.cpp:406] lstm1 <- conv5_3_tran
I1017 23:47:52.795523 29380 net.cpp:406] lstm1 <- clip_markers
I1017 23:47:52.795531 29380 net.cpp:380] lstm1 -> lstm1
I1017 23:47:52.795547 29380 recurrent_layer.cpp:20] Initializing recurrent layer: assuming input batch contains 196 timesteps of 5 independent streams.
I1017 23:47:52.802070 29380 net.cpp:51] Initializing net from parameters: 
layer {
  name: "lstm1_"
  type: "Input"
  top: "x"
  top: "cont"
  input_param {
    shape {
      dim: 196
      dim: 5
      dim: 196
    }
    shape {
      dim: 196
      dim: 5
    }
  }
}
layer {
  name: "lstm1_"
  type: "Input"
  top: "c_0"
  top: "h_0"
  input_param {
    shape {
      dim: 1
      dim: 5
      dim: 512
    }
    shape {
      dim: 1
      dim: 5
      dim: 512
    }
  }
}
layer {
  name: "lstm1_cont_slice"
  type: "Slice"
  bottom: "cont"
  top: "cont_1"
  top: "cont_2"
  top: "cont_3"
  top: "cont_4"
  top: "cont_5"
  top: "cont_6"
  top: "cont_7"
  top: "cont_8"
  top: "cont_9"
  top: "cont_10"
  top: "cont_11"
  top: "cont_12"
  top: "cont_13"
  top: "cont_14"
  top: "cont_15"
  top: "cont_16"
  top: "cont_17"
  top: "cont_18"
  top: "cont_19"
  top: "cont_20"
  top: "cont_21"
  top: "cont_22"
  top: "cont_23"
  top: "cont_24"
…
  top: "W_xc_x_171"
  top: "W_xc_x_172"
  top: "W_xc_x_173"
  top: "W_xc_x_174"
  top: "W_xc_x_175"
  top: "W_xc_x_176"
  top: "W_xc_x_177"
  top: "W_xc_x_178"
  top: "W_xc_x_179"
  top: "W_xc_x_180"
  top: "W_xc_x_181"
  top: "W_xc_x_182"
  top: "W_xc_x_183"
  top: "W_xc_x_184"
  top: "W_xc_x_185"
  top: "W_xc_x_186"
  top: "W_xc_x_187"
  top: "W_xc_x_188"
  top: "W_xc_x_189"
  top: "W_xc_x_190"
  top: "W_xc_x_191"
  top: "W_xc_x_192"
  top: "W_xc_x_193"
  top: "W_xc_x_194"
  top: "W_xc_x_195"
  top: "W_xc_x_196"
  slice_param {
    axis: 0
  }
}
layer {
  name: "lstm1_h_conted_0"
  type: "Scale"
  bottom: "h_0"
  bottom: "cont_1"
  top: "h_conted_0"
  scale_param {
    axis: 0
  }
}
layer {
  name: "lstm1_transform_1"
  type: "InnerProduct"
  bottom: "h_conted_0"
  top: "W_hc_h_0"
  param {
    name: "W_hc"
  }
  inner_product_param {
    num_output: 2048
    bias_term: false
    weight_filler {
      type: "uniform"
      min: -0.01
      max: 0.01
    }
    axis: 2
  }
}
layer {
  name: "lstm1_gate_input_1"
  type: "Eltwise"
  bottom: "W_hc_h_0"
  bottom: "W_xc_x_1"
  top: "gate_input_1"
  eltwise_param {
    operation: SUM
  }
}
layer {
  name: "lstm1_unit_1"
  type: "LSTMUnit"
  bottom: "c_0"
  bottom: "gate_input_1"
  bottom: "cont_1"
  top: "c_1"
  top: "h_1"
}
layer {
  name: "lstm1_h_conted_1"
  type: "Scale"
  bottom: "h_1"
  bottom: "cont_2"
  top: "h_conted_1"
  scale_param {
    axis: 0
  }
}
layer {
  name: "lstm1_transform_2"
  type: "InnerProduct"
  bottom: "h_conted_1"
  top: "W_hc_h_1"
  param {
    name: "W_hc"
  }
  inner_product_param {
    num_output: 2048
    bias_term: false
    weight_filler {
      type: "uniform"
      min: -0.01
      max: 0.01
    }
    axis: 2
  }
}
layer {
  name: "lstm1_gate_input_2"
  type: "Eltwise"
  bottom: "W_hc_h_1"
  bottom: "W_xc_x_2"
  top: "gate_input_2"
  eltwise_param {
    operation: SUM
  }
}
layer {
  name: "lstm1_unit_2"
  type: "LSTMUnit"
  bottom: "c_1"
  bottom: "gate_input_2"
  bottom: "cont_2"
  top: "c_2"
  top: "h_2"
}
layer {
  name: "lstm1_h_conted_2"
  type: "Scale"
  bottom: "h_2"
  bottom: "cont_3"
  top: "h_conted_2"
  scale_param {
    axis: 0
  }
}
layer {
  name: "lstm1_transform_3"
  type: "InnerProduct"
  bottom: "h_conted_2"
  top: "W_hc_h_2"
  param {
    name: "W_hc"
  }
  inner_product_param {
    num_output: 2048
    bias_term: false
    weight_filler {
      type: "uniform"
      min: -0.01
      max: 0.01
    }
    axis: 2
  }
}
layer {
  name: "lstm1_gate_input_3"
  type: "Eltwise"
  bottom: "W_hc_h_2"
  bottom: "W_xc_x_3"
  top: "gate_input_3"
  eltwise_param {
    operation: SUM
  }
}
layer {
  name: "lstm1_unit_3"
  type: "LSTMUnit"
  bottom: "c_2"
  bottom: "gate_input_3"
  bottom: "cont_3"
  top: "c_3"
  top: "h_3"
}
layer {
  name: "lstm1_h_conted_3"
  type: "Scale"
  bottom: "h_3"
  bottom: "cont_4"
  top: "h_conted_3"
  scale_param {
    axis: 0
  }
}
layer {
  name: "lstm1_transform_4"
  type: "InnerProduct"
  bottom: "h_conted_3"
  top: "W_hc_h_3"
  param {
    name: "W_hc"
  }
  inner_product_param {
    num_output: 2048
    bias_term: false
    weight_filler {
      type: "uniform"
      min: -0.01
      max: 0.01
    }
    axis: 2
  }
}
layer {
  name: "lstm1_gate_input_4"
  type: "Eltwise"
  bottom: "W_hc_h_3"
  bottom: "W_xc_x_4"
  top: "gate_input_4"
  eltwise_param {
    operation: SUM
  }
}
layer {
  name: "lstm1_unit_4"
  type: "LSTMUnit"
  bottom: "c_3"
  bottom: "gate_input_4"
  bottom: "cont_4"
  top: "c_4"
  top: "h_4"
}
layer {
  name: "lstm1_h_conted_4"
  type: "Scale"
  bottom: "h_4"
  bottom: "cont_5"
  top: "h_conted_4"
  scale_param {
    axis: 0
  }
}
layer {
  name: "lstm1_transform_5"
  type: "InnerProduct"
  bottom: "h_conted_4"
  top: "W_hc_h_4"
  param {
    name: "W_hc"
  }
  inner_product_param {
    num_output: 2048
    bias_term: false
    weight_filler {
      type: "uniform"
      min: -0.01
      max: 0.01
    }
    axis: 2
  }
}
layer {
  name: "lstm1_gate_input_5"
  type: "Eltwise"
  bottom: "W_hc_h_4"
  bottom: "W_xc_x_5"
  top: "gate_input_5"
  eltwise_param {
    operation: SUM
  }
}
layer {
  name: "lstm1_unit_5"
  type: "LSTMUnit"
  bottom: "c_4"
  bottom: "gate_input_5"
  bottom: "cont_5"
  top: "c_5"
  top: "h_5"
}
layer {
  name: "lstm1_h_conted_5"
  type: "Scale"
  bottom: "h_5"
  bottom: "cont_6"
  top: "h_conted_5"
  scale_param {
    axis: 0
  }
}
layer {
  name: "lstm1_transform_6"
  type: "InnerProduct"
  bottom: "h_conted_5"
  top: "W_hc_h_5"
  param {
    name: "W_hc"
  }
  inner_product_param {
    num_output: 2048
    bias_term: false
    weight_filler {
      type: "uniform"
      min: -0.01
      max: 0.01
    }
    axis: 2
  }
}
layer {
  name: "lstm1_gate_input_6"
  type: "Eltwise"
  bottom: "W_hc_h_5"
  bottom: "W_xc_x_6"
  top: "gate_input_6"
  eltwise_param {
    operation: SUM
  }
}
layer {
  name: "lstm1_unit_6"
  type: "LSTMUnit"
  bottom: "c_5"
  bottom: "gate_input_6"
  bottom: "cont_6"
  top: "c_6"
  top: "h_6"
}
layer {
  name: "lstm1_h_conted_6"
  type: "Scale"
  bottom: "h_6"
  bottom: "cont_7"
  top: "h_conted_6"
  scale_param {
    axis: 0
  }
}
layer {
  name: "lstm1_transform_7"
  type: "InnerProduct"
  bottom: "h_conted_6"
  top: "W_hc_h_6"
  param {
    name: "W_hc"
  }
  inner_product_param {
    num_output: 2048
    bias_term: false
    weight_filler {
      type: "uniform"
      min: -0.01
      max: 0.01
    }
    axis: 2
  }
}
layer {
  name: "lstm1_gate_input_7"
  type: "Eltwise"
  bottom: "W_hc_h_6"
  bottom: "W_xc_x_7"
  top: "gate_input_7"
  eltwise_param {
    operation: SUM
  }
}
layer {
  name: "lstm1_unit_7"
  type: "LSTMUnit"
  bottom: "c_6"
  bottom: "gate_input_7"
  bottom: "cont_7"
  top: "c_7"
  top: "h_7"
}
layer {
  name: "lstm1_h_conted_7"
  type: "Scale"
  bottom: "h_7"
  bottom: "cont_8"
  top: "h_conted_7"
  scale_param {
    axis: 0
  }
}
layer {
  name: "lstm1_transform_8"
  type: "InnerProduct"
  bottom: "h_conted_7"
  top: "W_hc_h_7"
  param {
    name: "W_hc"
  }
  inner_product_param {
    num_output: 2048
    bias_term: false
    weight_filler {
      type: "uniform"
      min: -0.01
      max: 0.01
    }
    axis: 2
  }
}
layer {
  name: "lstm1_gate_input_8"
  type: "Eltwise"
  bottom: "W_hc_h_7"
  bottom: "W_xc_x_8"
  top: "gate_input_8"
  eltwise_param {
    operation: SUM
  }
}
layer {
  name: "lstm1_unit_8"
  type: "LSTMUnit"
  bottom: "c_7"
  bottom: "gate_input_8"
  bottom: "cont_8"
  top: "c_8"
  top: "h_8"
}
layer {
  name: "lstm1_h_conted_8"
  type: "Scale"
  bottom: "h_8"
  bottom: "cont_9"
  top: "h_conted_8"
  scale_param {
    axis: 0
  }
}
layer {
  name: "lstm1_transform_9"
  type: "InnerProduct"
  bottom: "h_conted_8"
  top: "W_hc_h_8"
  param {
    name: "W_hc"
  }
  inner_product_param {
    num_output: 2048
    bias_term: false
    weight_filler {
      type: "uniform"
      min: -0.01
      max: 0.01
    }
    axis: 2
  }
}
layer {
  name: "lstm1_gate_input_9"
  type: "Eltwise"
  bottom: "W_hc_h_8"
  bottom: "W_xc_x_9"
  top: "gate_input_9"
  eltwise_param {
    operation: SUM
  }
}
layer {
  name: "lstm1_unit_9"
  type: "LSTMUnit"
  bottom: "c_8"
  bottom: "gate_input_9"
  bottom: "cont_9"
  top: "c_9"
  top: "h_9"
}
layer {
  name: "lstm1_h_conted_9"
  type: "Scale"
  bottom: "h_9"
  bottom: "cont_10"
  top: "h_conted_9"
  scale_param {
    axis: 0
  }
}
layer {
  name: "lstm1_transform_10"
  type: "InnerProduct"
  bottom: "h_conted_9"
  top: "W_hc_h_9"
  param {
    name: "W_hc"
  }
  inner_product_param {
    num_output: 2048
    bias_term: false
    weight_filler {
      type: "uniform"
      min: -0.01
      max: 0.01
    }
    axis: 2
  }
}
layer {
  name: "lstm1_gate_input_10"
  type: "Eltwise"
  bottom: "W_hc_h_9"
  bottom: "W_xc_x_10"
  top: "gate_input_10"
  eltwise_param {
    operation: SUM
  }
}
layer {
  name: "lstm1_unit_10"
  type: "LSTMUnit"
  bottom: "c_9"
  bottom: "gate_input_10"
  bottom: "cont_10"
  top: "c_10"
  top: "h_10"
}
layer {
  name: "lstm1_h_conted_10"
  type: "Scale"
  bottom: "h_10"
  bottom: "cont_11"
  top: "h_conted_10"
  scale_param {
    axis: 0
  }
}
layer {
  name: "lstm1_transform_11"
  type: "InnerProduct"
  bottom: "h_conted_10"
  top: "W_hc_h_10"
  param {
    name: "W_hc"
  }
  inner_product_param {
    num_output: 2048
    bias_term: false
    weight_filler {
      type: "uniform"
      min: -0.01
      max: 0.01
    }
    axis: 2
  }
}
layer {
  name: "lstm1_gate_input_11"
  type: "Eltwise"
  bottom: "W_hc_h_10"
  bottom: "W_xc_x_11"
  top: "gate_input_11"
  eltwise_param {
    operation: SUM
  }
}
layer {
  name: "lstm1_unit_11"
  type: "LSTMUnit"
  bottom: "c_10"
  bottom: "gate_input_11"
  bottom: "cont_11"
  top: "c_11"
  top: "h_11"
}
layer {
  name: "lstm1_h_conted_11"
  type: "Scale"
  bottom: "h_11"
  bottom: "cont_12"
  top: "h_conted_11"
  scale_param {
    axis: 0
  }
}
layer {
  name: "lstm1_transform_12"
  type: "InnerProduct"
  bottom: "h_conted_11"
  top: "W_hc_h_11"
  param {
    name: "W_hc"
  }
  inner_product_param {
    num_output: 2048
    bias_term: false
    weight_filler {
      type: "uniform"
      min: -0.01
      max: 0.01
    }
    axis: 2
  }
}
layer {
  name: "lstm1_gate_input_12"
  type: "Eltwise"
  bottom: "W_hc_h_11"
  bottom: "W_xc_x_12"
  top: "gate_input_12"
  eltwise_param {
    operation: SUM
  }
}
layer {
  name: "lstm1_unit_12"
  type: "LSTMUnit"
  bottom: "c_11"
  bottom: "gate_input_12"
  bottom: "cont_12"
  top: "c_12"
  top: "h_12"
}
layer {
  name: "lstm1_h_conted_12"
  type: "Scale"
  bottom: "h_12"
  bottom: "cont_13"
  top: "h_conted_12"
  scale_param {
    axis: 0
  }
}
layer {
  name: "lstm1_transform_13"
  type: "InnerProduct"
  bottom: "h_conted_12"
  top: "W_hc_h_12"
  param {
    name: "W_hc"
  }
  inner_product_param {
    num_output: 2048
    bias_term: false
    weight_filler {
      type: "uniform"
      min: -0.01
      max: 0.01
    }
    axis: 2
  }
}
layer {
  name: "lstm1_gate_input_13"
  type: "Eltwise"
  bottom: "W_hc_h_12"
  bottom: "W_xc_x_13"
  top: "gate_input_13"
  eltwise_param {
    operation: SUM
  }
}
layer {
  name: "lstm1_unit_13"
  type: "LSTMUnit"
  bottom: "c_12"
  bottom: "gate_input_13"
  bottom: "cont_13"
  top: "c_13"
  top: "h_13"
}
layer {
  name: "lstm1_h_conted_13"
  type: "Scale"
  bottom: "h_13"
  bottom: "cont_14"
  top: "h_conted_13"
  scale_param {
    axis: 0
  }
}
layer {
  name: "lstm1_transform_14"
  type: "InnerProduct"
  bottom: "h_conted_13"
  top: "W_hc_h_13"
  param {
    name: "W_hc"
  }
  inner_product_param {
    num_output: 2048
    bias_term: false
    weight_filler {
      type: "uniform"
      min: -0.01
      max: 0.01
    }
    axis: 2
  }
}
layer {
  name: "lstm1_gate_input_14"
  type: "Eltwise"
  bottom: "W_hc_h_13"
  bottom: "W_xc_x_14"
  top: "gate_input_14"
  eltwise_param {
    operation: SUM
  }
}
layer {
  name: "lstm1_unit_14"
  type: "LSTMUnit"
  bottom: "c_13"
  bottom: "gate_input_14"
  bottom: "cont_14"
  top: "c_14"
  top: "h_14"
}
layer {
  name: "lstm1_h_conted_14"
  type: "Scale"
  bottom: "h_14"
  bottom: "cont_15"
  top: "h_conted_14"
  scale_param {
    axis: 0
  }
}
layer {
  name: "lstm1_transform_15"
  type: "InnerProduct"
  bottom: "h_conted_14"
  top: "W_hc_h_14"
  param {
    name: "W_hc"
  }
  inner_product_param {
    num_output: 2048
    bias_term: false
    weight_filler {
      type: "uniform"
      min: -0.01
      max: 0.01
    }
    axis: 2
  }
}
layer {
  name: "lstm1_gate_input_15"
  type: "Eltwise"
  bottom: "W_hc_h_14"
  bottom: "W_xc_x_15"
  top: "gate_input_15"
  eltwise_param {
    operation: SUM
  }
}
layer {
  name: "lstm1_unit_15"
  type: "LSTMUnit"
  bottom: "c_14"
  bottom: "gate_input_15"
  bottom: "cont_15"
  top: "c_15"
  top: "h_15"
}
layer {
  name: "lstm1_h_conted_15"
  type: "Scale"
  bottom: "h_15"
  bottom: "cont_16"
  top: "h_conted_15"
  scale_param {
    axis: 0
  }
}
layer {
  name: "lstm1_transform_16"
  type: "InnerProduct"
  bottom: "h_conted_15"
  top: "W_hc_h_15"
  param {
    name: "W_hc"
  }
  inner_product_param {
    num_output: 2048
    bias_term: false
    weight_filler {
      type: "uniform"
      min: -0.01
      max: 0.01
    }
    axis: 2
  }
}
layer {
  name: "lstm1_gate_input_16"
  type: "Eltwise"
  bottom: "W_hc_h_15"
  bottom: "W_xc_x_16"
  top: "gate_input_16"
  eltwise_param {
    operation: SUM
  }
}
layer {
  name: "lstm1_unit_16"
  type: "LSTMUnit"
  bottom: "c_15"
  bottom: "gate_input_16"
  bottom: "cont_16"
  top: "c_16"
  top: "h_16"
}
layer {
  name: "lstm1_h_conted_16"
  type: "Scale"
  bottom: "h_16"
  bottom: "cont_17"
  top: "h_conted_16"
  scale_param {
    axis: 0
  }
}
layer {
  name: "lstm1_transform_17"
  type: "InnerProduct"
  bottom: "h_conted_16"
  top: "W_hc_h_16"
  param {
    name: "W_hc"
  }
  inner_product_param {
    num_output: 2048
    bias_term: false
    weight_filler {
      type: "uniform"
      min: -0.01
      max: 0.01
    }
    axis: 2
  }
}
layer {
  name: "lstm1_gate_input_17"
  type: "Eltwise"
  bottom: "W_hc_h_16"
  bottom: "W_xc_x_17"
  top: "gate_input_17"
  eltwise_param {
    operation: SUM
  }
}
layer {
  name: "lstm1_unit_17"
  type: "LSTMUnit"
  bottom: "c_16"
  bottom: "gate_input_17"
  bottom: "cont_17"
  top: "c_17"
  top: "h_17"
}
layer {
  name: "lstm1_h_conted_17"
  type: "Scale"
  bottom: "h_17"
  bottom: "cont_18"
  top: "h_conted_17"
  scale_param {
    axis: 0
  }
}
layer {
  name: "lstm1_transform_18"
  type: "InnerProduct"
  bottom: "h_conted_17"
  top: "W_hc_h_17"
  param {
    name: "W_hc"
  }
  inner_product_param {
    num_output: 2048
    bias_term: false
    weight_filler {
      type: "uniform"
      min: -0.01
      max: 0.01
    }
    axis: 2
  }
}
layer {
  name: "lstm1_gate_input_18"
  type: "Eltwise"
  bottom: "W_hc_h_17"
  bottom: "W_xc_x_18"
  top: "gate_input_18"
  eltwise_param {
    operation: SUM
  }
}
layer {
  name: "lstm1_unit_18"
  type: "LSTMUnit"
  bottom: "c_17"
  bottom: "gate_input_18"
  bottom: "cont_18"
  top: "c_18"
  top: "h_18"
}
layer {
  name: "lstm1_h_conted_18"
  type: "Scale"
  bottom: "h_18"
  bottom: "cont_19"
  top: "h_conted_18"
  scale_param {
    axis: 0
  }
}
layer {
  name: "lstm1_transform_19"
  type: "InnerProduct"
  bottom: "h_conted_18"
  top: "W_hc_h_18"
  param {
    name: "W_hc"
  }
  inner_product_param {
    num_output: 2048
    bias_term: false
    weight_filler {
      type: "uniform"
      min: -0.01
      max: 0.01
    }
    axis: 2
  }
}
layer {
  name: "lstm1_gate_input_19"
  type: "Eltwise"
  bottom: "W_hc_h_18"
  bottom: "W_xc_x_19"
  top: "gate_input_19"
  eltwise_param {
    operation: SUM
  }
}
layer {
  name: "lstm1_unit_19"
  type: "LSTMUnit"
  bottom: "c_18"
  bottom: "gate_input_19"
  bottom: "cont_19"
  top: "c_19"
  top: "h_19"
}
layer {
  name: "lstm1_h_conted_19"
  type: "Scale"
  bottom: "h_19"
  bottom: "cont_20"
  top: "h_conted_19"
  scale_param {
    axis: 0
  }
}
layer {
  name: "lstm1_transform_20"
  type: "InnerProduct"
  bottom: "h_conted_19"
  top: "W_hc_h_19"
  param {
    name: "W_hc"
  }
  inner_product_param {
    num_output: 2048
    bias_term: false
    weight_filler {
      type: "uniform"
      min: -0.01
      max: 0.01
    }
    axis: 2
  }
}
layer {
  name: "lstm1_gate_input_20"
  type: "Eltwise"
  bottom: "W_hc_h_19"
  bottom: "W_xc_x_20"
  top: "gate_input_20"
  eltwise_param {
    operation: SUM
  }
}
layer {
  name: "lstm1_unit_20"
  type: "LSTMUnit"
  bottom: "c_19"
  bottom: "gate_input_20"
  bottom: "cont_20"
  top: "c_20"
  top: "h_20"
}
layer {
  name: "lstm1_h_conted_20"
  type: "Scale"
  bottom: "h_20"
  bottom: "cont_21"
  top: "h_conted_20"
  scale_param {
    axis: 0
  }
}
layer {
  name: "lstm1_transform_21"
  type: "InnerProduct"
  bottom: "h_conted_20"
  top: "W_hc_h_20"
  param {
    name: "W_hc"
  }
  inner_product_param {
    num_output: 2048
    bias_term: false
    weight_filler {
      type: "uniform"
      min: -0.01
      max: 0.01
    }
    axis: 2
  }
}
layer {
  name: "lstm1_gate_input_21"
  type: "Eltwise"
  bottom: "W_hc_h_20"
  bottom: "W_xc_x_21"
  top: "gate_input_21"
  eltwise_param {
    operation: SUM
  }
}
layer {
  name: "lstm1_unit_21"
  type: "LSTMUnit"
  bottom: "c_20"
  bottom: "gate_input_21"
  bottom: "cont_21"
  top: "c_21"
  top: "h_21"
}
layer {
  name: "lstm1_h_conted_21"
  type: "Scale"
  bottom: "h_21"
  bottom: "cont_22"
  top: "h_conted_21"
  scale_param {
    axis: 0
  }
}
layer {
  name: "lstm1_transform_22"
  type: "InnerProduct"
  bottom: "h_conted_21"
  top: "W_hc_h_21"
  param {
    name: "W_hc"
  }
  inner_product_param {
    num_output: 2048
    bias_term: false
    weight_filler {
      type: "uniform"
      min: -0.01
      max: 0.01
    }
    axis: 2
  }
}
layer {
  name: "lstm1_gate_input_22"
  type: "Eltwise"
  bottom: "W_hc_h_21"
  bottom: "W_xc_x_22"
  top: "gate_input_22"
  eltwise_param {
    operation: SUM
  }
}
layer {
  name: "lstm1_unit_22"
  type: "LSTMUnit"
  bottom: "c_21"
  bottom: "gate_input_22"
  bottom: "cont_22"
  top: "c_22"
  top: "h_22"
}
layer {
  name: "lstm1_h_conted_22"
  type: "Scale"
  bottom: "h_22"
  bottom: "cont_23"
  top: "h_conted_22"
  scale_param {
    axis: 0
  }
}
layer {
  name: "lstm1_transform_23"
  type: "InnerProduct"
  bottom: "h_conted_22"
  top: "W_hc_h_22"
  param {
    name: "W_hc"
  }
  inner_product_param {
    num_output: 2048
    bias_term: false
    weight_filler {
      type: "uniform"
      min: -0.01
      max: 0.01
    }
    axis: 2
  }
}
layer {
  name: "lstm1_gate_input_23"
  type: "Eltwise"
  bottom: "W_hc_h_22"
  bottom: "W_xc_x_23"
  top: "gate_input_23"
  eltwise_param {
    operation: SUM
  }
}
layer {
  name: "lstm1_unit_23"
  type: "LSTMUnit"
  bottom: "c_22"
  bottom: "gate_input_23"
  bottom: "cont_23"
  top: "c_23"
  top: "h_23"
}
layer {
  name: "lstm1_h_conted_23"
  type: "Scale"
  bottom: "h_23"
  bottom: "cont_24"
  top: "h_conted_23"
  scale_param {
    axis: 0
  }
}
layer {
  name: "lstm1_transform_24"
  type: "InnerProduct"
  bottom: "h_conted_23"
  top: "W_hc_h_23"
  param {
    name: "W_hc"
  }
  inner_product_param {
    num_output: 2048
    bias_term: false
    weight_filler {
      type: "uniform"
      min: -0.01
      max: 0.01
    }
    axis: 2
  }
}
layer {
  name: "lstm1_gate_input_24"
  type: "Eltwise"
  bottom: "W_hc_h_23"
  bottom: "W_xc_x_24"
  top: "gate_input_24"
  eltwise_param {
    operation: SUM
  }
}
layer {
  name: "lstm1_unit_24"
  type: "LSTMUnit"
  bottom: "c_23"
  bottom: "gate_input_24"
  bottom: "cont_24"
  top: "c_24"
  top: "h_24"
}
layer {
  name: "lstm1_h_conted_24"
  type: "Scale"
  bottom: "h_24"
  bottom: "cont_25"
  top: "h_conted_24"
  scale_param {
    axis: 0
  }
}
layer {
  name: "lstm1_transform_25"
  type: "InnerProduct"
  bottom: "h_conted_24"
  top: "W_hc_h_24"
  param {
    name: "W_hc"
  }
  inner_product_param {
    num_output: 2048
    bias_term: false
    weight_filler {
      type: "uniform"
      min: -0.01
      max: 0.01
    }
    axis: 2
  }
}
layer {
  name: "lstm1_gate_input_25"
  type: "Eltwise"
  bottom: "W_hc_h_24"
  bottom: "W_xc_x_25"
  top: "gate_input_25"
  eltwise_param {
    operation: SUM
  }
}
layer {
  name: "lstm1_unit_25"
  type: "LSTMUnit"
  bottom: "c_24"
  bottom: "gate_input_25"
  bottom: "cont_25"
  top: "c_25"
  top: "h_25"
}
layer {
  name: "lstm1_h_conted_25"
  type: "Scale"
  bottom: "h_25"
  bottom: "cont_26"
  top: "h_conted_25"
  scale_param {
    axis: 0
  }
}
layer {
  name: "lstm1_transform_26"
  type: "InnerProduct"
  bottom: "h_conted_25"
  top: "W_hc_h_25"
  param {
    name: "W_hc"
  }
  inner_product_param {
    num_output: 2048
    bias_term: false
    weight_filler {
      type: "uniform"
      min: -0.01
      max: 0.01
    }
    axis: 2
  }
}
layer {
  name: "lstm1_gate_input_26"
  type: "Eltwise"
  bottom: "W_hc_h_25"
  bottom: "W_xc_x_26"
  top: "gate_input_26"
  eltwise_param {
    operation: SUM
  }
}
layer {
  name: "lstm1_unit_26"
  type: "LSTMUnit"
  bottom: "c_25"
  bottom: "gate_input_26"
  bottom: "cont_26"
  top: "c_26"
  top: "h_26"
}
layer {
  name: "lstm1_h_conted_26"
  type: "Scale"
  bottom: "h_26"
  bottom: "cont_27"
  top: "h_conted_26"
  scale_param {
    axis: 0
  }
}
layer {
  name: "lstm1_transform_27"
  type: "InnerProduct"
  bottom: "h_conted_26"
  top: "W_hc_h_26"
  param {
    name: "W_hc"
  }
  inner_product_param {
    num_output: 2048
    bias_term: false
    weight_filler {
      type: "uniform"
      min: -0.01
      max: 0.01
    }
    axis: 2
  }
}
layer {
  name: "lstm1_gate_input_27"
  type: "Eltwise"
  bottom: "W_hc_h_26"
  bottom: "W_xc_x_27"
  top: "gate_input_27"
  eltwise_param {
    operation: SUM
  }
}
layer {
  name: "lstm1_unit_27"
  type: "LSTMUnit"
  bottom: "c_26"
  bottom: "gate_input_27"
  bottom: "cont_27"
  top: "c_27"
  top: "h_27"
}
layer {
  name: "lstm1_h_conted_27"
  type: "Scale"
  bottom: "h_27"
  bottom: "cont_28"
  top: "h_conted_27"
  scale_param {
    axis: 0
  }
}
layer {
  name: "lstm1_transform_28"
  type: "InnerProduct"
  bottom: "h_conted_27"
  top: "W_hc_h_27"
  param {
    name: "W_hc"
  }
  inner_product_param {
    num_output: 2048
    bias_term: false
    weight_filler {
      type: "uniform"
      min: -0.01
      max: 0.01
    }
    axis: 2
  }
}
layer {
  name: "lstm1_gate_input_28"
  type: "Eltwise"
  bottom: "W_hc_h_27"
  bottom: "W_xc_x_28"
  top: "gate_input_28"
  eltwise_param {
    operation: SUM
  }
}
layer {
  name: "lstm1_unit_28"
  type: "LSTMUnit"
  bottom: "c_27"
  bottom: "gate_input_28"
  bottom: "cont_28"
  top: "c_28"
  top: "h_28"
}
layer {
  name: "lstm1_h_conted_28"
  type: "Scale"
  bottom: "h_28"
  bottom: "cont_29"
  top: "h_conted_28"
  scale_param {
    axis: 0
  }
}
layer {
  name: "lstm1_transform_29"
  type: "InnerProduct"
  bottom: "h_conted_28"
  top: "W_hc_h_28"
  param {
    name: "W_hc"
  }
  inner_product_param {
    num_output: 2048
    bias_term: false
    weight_filler {
      type: "uniform"
      min: -0.01
      max: 0.01
    }
    axis: 2
  }
}
layer {
  name: "lstm1_gate_input_29"
  type: "Eltwise"
  bottom: "W_hc_h_28"
  bottom: "W_xc_x_29"
  top: "gate_input_29"
  eltwise_param {
    operation: SUM
  }
}
layer {
  name: "lstm1_unit_29"
  type: "LSTMUnit"
  bottom: "c_28"
  bottom: "gate_input_29"
  bottom: "cont_29"
  top: "c_29"
  top: "h_29"
}
layer
I1017 23:47:52.808485 29380 layer_factory.hpp:77] Creating layer lstm1_
I1017 23:47:52.808507 29380 net.cpp:84] Creating Layer lstm1_
I1017 23:47:52.808514 29380 net.cpp:380] lstm1_ -> x
I1017 23:47:52.808529 29380 net.cpp:380] lstm1_ -> cont
I1017 23:47:52.808591 29380 net.cpp:122] Setting up lstm1_
I1017 23:47:52.808606 29380 net.cpp:129] Top shape: 196 5 196 (192080)
I1017 23:47:52.808612 29380 net.cpp:129] Top shape: 196 5 (980)
I1017 23:47:52.808616 29380 net.cpp:137] Memory required for data: 772240
I1017 23:47:52.808621 29380 layer_factory.hpp:77] Creating layer lstm1_
I1017 23:47:52.808627 29380 net.cpp:84] Creating Layer lstm1_
I1017 23:47:52.808632 29380 net.cpp:380] lstm1_ -> c_0
I1017 23:47:52.808641 29380 net.cpp:380] lstm1_ -> h_0
I1017 23:47:52.808681 29380 net.cpp:122] Setting up lstm1_
I1017 23:47:52.808689 29380 net.cpp:129] Top shape: 1 5 512 (2560)
I1017 23:47:52.808694 29380 net.cpp:129] Top shape: 1 5 512 (2560)
I1017 23:47:52.808698 29380 net.cpp:137] Memory required for data: 792720
I1017 23:47:52.808702 29380 layer_factory.hpp:77] Creating layer lstm1_cont_slice
I1017 23:47:52.808725 29380 net.cpp:84] Creating Layer lstm1_cont_slice
I1017 23:47:52.808730 29380 net.cpp:406] lstm1_cont_slice <- cont
I1017 23:47:52.808748 29380 net.cpp:380] lstm1_cont_slice -> cont_1
I1017 23:47:52.808776 29380 net.cpp:380] lstm1_cont_slice -> cont_2
…
I1017 23:47:52.816854 29380 net.cpp:380] lstm1_cont_slice -> cont_190
I1017 23:47:52.817090 29380 net.cpp:380] lstm1_cont_slice -> cont_191
I1017 23:47:52.817207 29380 net.cpp:380] lstm1_cont_slice -> cont_192
I1017 23:47:52.817234 29380 net.cpp:380] lstm1_cont_slice -> cont_193
I1017 23:47:52.817257 29380 net.cpp:380] lstm1_cont_slice -> cont_194
I1017 23:47:52.817282 29380 net.cpp:380] lstm1_cont_slice -> cont_195
I1017 23:47:52.817307 29380 net.cpp:380] lstm1_cont_slice -> cont_196
I1017 23:47:52.826550 29380 net.cpp:122] Setting up lstm1_cont_slice
I1017 23:47:52.826973 29380 net.cpp:129] Top shape: 1 5 (5)
I1017 23:47:52.827071 29380 net.cpp:129] Top shape: 1 5 (5)
I1017 23:47:52.827129 29380 net.cpp:129] Top shape: 1 5 (5)
I1017 23:47:52.827147 29380 net.cpp:129] Top shape: 1 5 (5)
I1017 23:47:52.827247 29380 net.cpp:129] Top shape: 1 5 (5)
I1017 23:47:52.827293 29380 net.cpp:129] Top shape: 1 5 (5)
I1017 23:47:52.827344 29380 net.cpp:129] Top shape: 1 5 (5)
I1017 23:47:52.827371 29380 net.cpp:129] Top shape: 1 5 (5)
I1017 23:47:52.827391 29380 net.cpp:129] Top shape: 1 5 (5)
I1017 23:47:52.827414 29380 net.cpp:129] Top shape: 1 5 (5)
I1017 23:47:52.827435 29380 net.cpp:129] Top shape: 1 5 (5)
I1017 23:47:52.827468 29380 net.cpp:129] Top shape: 1 5 (5)
I1017 23:47:52.827522 29380 net.cpp:129] Top shape: 1 5 (5)
I1017 23:47:52.827569 29380 net.cpp:129] Top shape: 1 5 (5)
I1017 23:47:52.827610 29380 net.cpp:129] Top shape: 1 5 (5)
I1017 23:47:52.827642 29380 net.cpp:129] Top shape: 1 5 (5)
I1017 23:47:52.827668 29380 net.cpp:129] Top shape: 1 5 (5)
I1017 23:47:52.827728 29380 net.cpp:129] Top shape: 1 5 (5)
I1017 23:47:52.827769 29380 net.cpp:129] Top shape: 1 5 (5)
I1017 23:47:52.827774 29380 net.cpp:129] Top shape: 1 5 (5)
I1017 23:47:52.827777 29380 net.cpp:129] Top shape: 1 5 (5)
I1017 23:47:52.827781 29380 net.cpp:129] Top shape: 1 5 (5)
I1017 23:47:52.827786 29380 net.cpp:129] Top shape: 1 5 (5)
I1017 23:47:52.827790 29380 net.cpp:129] Top shape: 1 5 (5)
I1017 23:47:52.827795 29380 net.cpp:129] Top shape: 1 5 (5)
I1017 23:47:52.827800 29380 net.cpp:129] Top shape: 1 5 (5)
I1017 23:47:52.827803 29380 net.cpp:129] Top shape: 1 5 (5)
I1017 23:47:52.827807 29380 net.cpp:129] Top shape: 1 5 (5)
I1017 23:47:52.827812 29380 net.cpp:129] Top shape: 1 5 (5)
I1017 23:47:52.827817 29380 net.cpp:129] Top shape: 1 5 (5)
I1017 23:47:52.827821 29380 net.cpp:129] Top shape: 1 5 (5)
I1017 23:47:52.827826 29380 net.cpp:129] Top shape: 1 5 (5)
I1017 23:47:52.827831 29380 net.cpp:129] Top shape: 1 5 (5)
I1017 23:47:52.827834 29380 net.cpp:129] Top shape: 1 5 (5)
I1017 23:47:52.827838 29380 net.cpp:129] Top shape: 1 5 (5)
I1017 23:47:52.827843 29380 net.cpp:129] Top shape: 1 5 (5)
I1017 23:47:52.827847 29380 net.cpp:129] Top shape: 1 5 (5)
I1017 23:47:52.827852 29380 net.cpp:129] Top shape: 1 5 (5)
I1017 23:47:52.827857 29380 net.cpp:129] Top shape: 1 5 (5)
I1017 23:47:52.827860 29380 net.cpp:129] Top shape: 1 5 (5)
I1017 23:47:52.827865 29380 net.cpp:129] Top shape: 1 5 (5)
I1017 23:47:52.827869 29380 net.cpp:129] Top shape: 1 5 (5)
I1017 23:47:52.827873 29380 net.cpp:129] Top shape: 1 5 (5)
I1017 23:47:52.827878 29380 net.cpp:129] Top shape: 1 5 (5)
I1017 23:47:52.827883 29380 net.cpp:129] Top shape: 1 5 (5)
I1017 23:47:52.827888 29380 net.cpp:129] Top shape: 1 5 (5)
I1017 23:47:52.827893 29380 net.cpp:129] Top shape: 1 5 (5)
I1017 23:47:52.827914 29380 net.cpp:129] Top shape: 1 5 (5)
I1017 23:47:52.827949 29380 net.cpp:129] Top shape: 1 5 (5)
I1017 23:47:52.827962 29380 net.cpp:129] Top shape: 1 5 (5)
I1017 23:47:52.827983 29380 net.cpp:129] Top shape: 1 5 (5)
I1017 23:47:52.828012 29380 net.cpp:129] Top shape: 1 5 (5)
I1017 23:47:52.828078 29380 net.cpp:129] Top shape: 1 5 (5)
I1017 23:47:52.828194 29380 net.cpp:129] Top shape: 1 5 (5)
I1017 23:47:52.828222 29380 net.cpp:129] Top shape: 1 5 (5)
I1017 23:47:52.828238 29380 net.cpp:129] Top shape: 1 5 (5)
I1017 23:47:52.828253 29380 net.cpp:129] Top shape: 1 5 (5)
I1017 23:47:52.828286 29380 net.cpp:129] Top shape: 1 5 (5)
I1017 23:47:52.828291 29380 net.cpp:129] Top shape: 1 5 (5)
I1017 23:47:52.828301 29380 net.cpp:129] Top shape: 1 5 (5)
I1017 23:47:52.828336 29380 net.cpp:129] Top shape: 1 5 (5)
I1017 23:47:52.828389 29380 net.cpp:129] Top shape: 1 5 (5)
I1017 23:47:52.828440 29380 net.cpp:129] Top shape: 1 5 (5)
I1017 23:47:52.828469 29380 net.cpp:129] Top shape: 1 5 (5)
I1017 23:47:52.828512 29380 net.cpp:129] Top shape: 1 5 (5)
I1017 23:47:52.828543 29380 net.cpp:129] Top shape: 1 5 (5)
I1017 23:47:52.828577 29380 net.cpp:129] Top shape: 1 5 (5)
I1017 23:47:52.828608 29380 net.cpp:129] Top shape: 1 5 (5)
I1017 23:47:52.828646 29380 net.cpp:129] Top shape: 1 5 (5)
I1017 23:47:52.828665 29380 net.cpp:129] Top shape: 1 5 (5)
I1017 23:47:52.828698 29380 net.cpp:129] Top shape: 1 5 (5)
I1017 23:47:52.828737 29380 net.cpp:129] Top shape: 1 5 (5)
I1017 23:47:52.828774 29380 net.cpp:129] Top shape: 1 5 (5)
I1017 23:47:52.828819 29380 net.cpp:129] Top shape: 1 5 (5)
I1017 23:47:52.828852 29380 net.cpp:129] Top shape: 1 5 (5)
I1017 23:47:52.828899 29380 net.cpp:129] Top shape: 1 5 (5)
I1017 23:47:52.828922 29380 net.cpp:129] Top shape: 1 5 (5)
I1017 23:47:52.828948 29380 net.cpp:129] Top shape: 1 5 (5)
I1017 23:47:52.828977 29380 net.cpp:129] Top shape: 1 5 (5)
I1017 23:47:52.829025 29380 net.cpp:129] Top shape: 1 5 (5)
I1017 23:47:52.829046 29380 net.cpp:129] Top shape: 1 5 (5)
I1017 23:47:52.829068 29380 net.cpp:129] Top shape: 1 5 (5)
I1017 23:47:52.829097 29380 net.cpp:129] Top shape: 1 5 (5)
I1017 23:47:52.829135 29380 net.cpp:129] Top shape: 1 5 (5)
I1017 23:47:52.829165 29380 net.cpp:129] Top shape: 1 5 (5)
I1017 23:47:52.829216 29380 net.cpp:129] Top shape: 1 5 (5)
I1017 23:47:52.829249 29380 net.cpp:129] Top shape: 1 5 (5)
I1017 23:47:52.829278 29380 net.cpp:129] Top shape: 1 5 (5)
I1017 23:47:52.829282 29380 net.cpp:129] Top shape: 1 5 (5)
I1017 23:47:52.829288 29380 net.cpp:129] Top shape: 1 5 (5)
I1017 23:47:52.829291 29380 net.cpp:129] Top shape: 1 5 (5)
I1017 23:47:52.829296 29380 net.cpp:129] Top shape: 1 5 (5)
I1017 23:47:52.829300 29380 net.cpp:129] Top shape: 1 5 (5)
I1017 23:47:52.829304 29380 net.cpp:129] Top shape: 1 5 (5)
I1017 23:47:52.829309 29380 net.cpp:129] Top shape: 1 5 (5)
I1017 23:47:52.829313 29380 net.cpp:129] Top shape: 1 5 (5)
I1017 23:47:52.829318 29380 net.cpp:129] Top shape: 1 5 (5)
I1017 23:47:52.829322 29380 net.cpp:129] Top shape: 1 5 (5)
I1017 23:47:52.829326 29380 net.cpp:129] Top shape: 1 5 (5)
I1017 23:47:52.829331 29380 net.cpp:129] Top shape: 1 5 (5)
I1017 23:47:52.829335 29380 net.cpp:129] Top shape: 1 5 (5)
I1017 23:47:52.829339 29380 net.cpp:129] Top shape: 1 5 (5)
I1017 23:47:52.829351 29380 net.cpp:129] Top shape: 1 5 (5)
I1017 23:47:52.829355 29380 net.cpp:129] Top shape: 1 5 (5)
I1017 23:47:52.829360 29380 net.cpp:129] Top shape: 1 5 (5)
I1017 23:47:52.829365 29380 net.cpp:129] Top shape: 1 5 (5)
I1017 23:47:52.829370 29380 net.cpp:129] Top shape: 1 5 (5)
I1017 23:47:52.829373 29380 net.cpp:129] Top shape: 1 5 (5)
I1017 23:47:52.829378 29380 net.cpp:129] Top shape: 1 5 (5)
I1017 23:47:52.829382 29380 net.cpp:129] Top shape: 1 5 (5)
I1017 23:47:52.829386 29380 net.cpp:129] Top shape: 1 5 (5)
I1017 23:47:52.829391 29380 net.cpp:129] Top shape: 1 5 (5)
I1017 23:47:52.829396 29380 net.cpp:129] Top shape: 1 5 (5)
I1017 23:47:52.829399 29380 net.cpp:129] Top shape: 1 5 (5)
I1017 23:47:52.829404 29380 net.cpp:129] Top shape: 1 5 (5)
I1017 23:47:52.829408 29380 net.cpp:129] Top shape: 1 5 (5)
I1017 23:47:52.829412 29380 net.cpp:129] Top shape: 1 5 (5)
I1017 23:47:52.829417 29380 net.cpp:129] Top shape: 1 5 (5)
I1017 23:47:52.829438 29380 net.cpp:129] Top shape: 1 5 (5)
I1017 23:47:52.829464 29380 net.cpp:129] Top shape: 1 5 (5)
I1017 23:47:52.829491 29380 net.cpp:129] Top shape: 1 5 (5)
I1017 23:47:52.829504 29380 net.cpp:129] Top shape: 1 5 (5)
I1017 23:47:52.829519 29380 net.cpp:129] Top shape: 1 5 (5)
I1017 23:47:52.829545 29380 net.cpp:129] Top shape: 1 5 (5)
I1017 23:47:52.829602 29380 net.cpp:129] Top shape: 1 5 (5)
I1017 23:47:52.829672 29380 net.cpp:129] Top shape: 1 5 (5)
I1017 23:47:52.829708 29380 net.cpp:129] Top shape: 1 5 (5)
I1017 23:47:52.829761 29380 net.cpp:129] Top shape: 1 5 (5)
I1017 23:47:52.829795 29380 net.cpp:129] Top shape: 1 5 (5)
I1017 23:47:52.829830 29380 net.cpp:129] Top shape: 1 5 (5)
I1017 23:47:52.829847 29380 net.cpp:129] Top shape: 1 5 (5)
I1017 23:47:52.829887 29380 net.cpp:129] Top shape: 1 5 (5)
I1017 23:47:52.829906 29380 net.cpp:129] Top shape: 1 5 (5)
I1017 23:47:52.829941 29380 net.cpp:129] Top shape: 1 5 (5)
I1017 23:47:52.829972 29380 net.cpp:129] Top shape: 1 5 (5)
I1017 23:47:52.829996 29380 net.cpp:129] Top shape: 1 5 (5)
I1017 23:47:52.830044 29380 net.cpp:129] Top shape: 1 5 (5)
I1017 23:47:52.830065 29380 net.cpp:129] Top shape: 1 5 (5)
I1017 23:47:52.830097 29380 net.cpp:129] Top shape: 1 5 (5)
I1017 23:47:52.830137 29380 net.cpp:129] Top shape: 1 5 (5)
I1017 23:47:52.830188 29380 net.cpp:129] Top shape: 1 5 (5)
I1017 23:47:52.830226 29380 net.cpp:129] Top shape: 1 5 (5)
I1017 23:47:52.830279 29380 net.cpp:129] Top shape: 1 5 (5)
I1017 23:47:52.830319 29380 net.cpp:129] Top shape: 1 5 (5)
I1017 23:47:52.830358 29380 net.cpp:129] Top shape: 1 5 (5)
I1017 23:47:52.830392 29380 net.cpp:129] Top shape: 1 5 (5)
I1017 23:47:52.830430 29380 net.cpp:129] Top shape: 1 5 (5)
I1017 23:47:52.830459 29380 net.cpp:129] Top shape: 1 5 (5)
I1017 23:47:52.830492 29380 net.cpp:129] Top shape: 1 5 (5)
I1017 23:47:52.830534 29380 net.cpp:129] Top shape: 1 5 (5)
I1017 23:47:52.830595 29380 net.cpp:129] Top shape: 1 5 (5)
I1017 23:47:52.830623 29380 net.cpp:129] Top shape: 1 5 (5)
I1017 23:47:52.830653 29380 net.cpp:129] Top shape: 1 5 (5)
I1017 23:47:52.830683 29380 net.cpp:129] Top shape: 1 5 (5)
I1017 23:47:52.830715 29380 net.cpp:129] Top shape: 1 5 (5)
I1017 23:47:52.830745 29380 net.cpp:129] Top shape: 1 5 (5)
I1017 23:47:52.830771 29380 net.cpp:129] Top shape: 1 5 (5)
I1017 23:47:52.830813 29380 net.cpp:129] Top shape: 1 5 (5)
I1017 23:47:52.830829 29380 net.cpp:129] Top shape: 1 5 (5)
I1017 23:47:52.830850 29380 net.cpp:129] Top shape: 1 5 (5)
I1017 23:47:52.830888 29380 net.cpp:129] Top shape: 1 5 (5)
I1017 23:47:52.830936 29380 net.cpp:129] Top shape: 1 5 (5)
I1017 23:47:52.830976 29380 net.cpp:129] Top shape: 1 5 (5)
I1017 23:47:52.831027 29380 net.cpp:129] Top shape: 1 5 (5)
I1017 23:47:52.831048 29380 net.cpp:129] Top shape: 1 5 (5)
I1017 23:47:52.831065 29380 net.cpp:129] Top shape: 1 5 (5)
I1017 23:47:52.831070 29380 net.cpp:129] Top shape: 1 5 (5)
I1017 23:47:52.831074 29380 net.cpp:129] Top shape: 1 5 (5)
I1017 23:47:52.831079 29380 net.cpp:129] Top shape: 1 5 (5)
I1017 23:47:52.831084 29380 net.cpp:129] Top shape: 1 5 (5)
I1017 23:47:52.831087 29380 net.cpp:129] Top shape: 1 5 (5)
I1017 23:47:52.831092 29380 net.cpp:129] Top shape: 1 5 (5)
I1017 23:47:52.831096 29380 net.cpp:129] Top shape: 1 5 (5)
I1017 23:47:52.831101 29380 net.cpp:129] Top shape: 1 5 (5)
I1017 23:47:52.831105 29380 net.cpp:129] Top shape: 1 5 (5)
I1017 23:47:52.831110 29380 net.cpp:129] Top shape: 1 5 (5)
I1017 23:47:52.831115 29380 net.cpp:129] Top shape: 1 5 (5)
I1017 23:47:52.831118 29380 net.cpp:129] Top shape: 1 5 (5)
I1017 23:47:52.831123 29380 net.cpp:129] Top shape: 1 5 (5)
I1017 23:47:52.831127 29380 net.cpp:129] Top shape: 1 5 (5)
I1017 23:47:52.831132 29380 net.cpp:129] Top shape: 1 5 (5)
I1017 23:47:52.831136 29380 net.cpp:129] Top shape: 1 5 (5)
I1017 23:47:52.831141 29380 net.cpp:129] Top shape: 1 5 (5)
I1017 23:47:52.831146 29380 net.cpp:129] Top shape: 1 5 (5)
I1017 23:47:52.831149 29380 net.cpp:129] Top shape: 1 5 (5)
I1017 23:47:52.831154 29380 net.cpp:129] Top shape: 1 5 (5)
I1017 23:47:52.831158 29380 net.cpp:129] Top shape: 1 5 (5)
I1017 23:47:52.831163 29380 net.cpp:129] Top shape: 1 5 (5)
I1017 23:47:52.831167 29380 net.cpp:129] Top shape: 1 5 (5)
I1017 23:47:52.831171 29380 net.cpp:129] Top shape: 1 5 (5)
I1017 23:47:52.831176 29380 net.cpp:129] Top shape: 1 5 (5)
I1017 23:47:52.831181 29380 net.cpp:129] Top shape: 1 5 (5)
I1017 23:47:52.831185 29380 net.cpp:129] Top shape: 1 5 (5)
I1017 23:47:52.831189 29380 net.cpp:129] Top shape: 1 5 (5)
I1017 23:47:52.831193 29380 net.cpp:129] Top shape: 1 5 (5)
I1017 23:47:52.831198 29380 net.cpp:129] Top shape: 1 5 (5)
I1017 23:47:52.831202 29380 net.cpp:137] Memory required for data: 796640
I1017 23:47:52.831208 29380 layer_factory.hpp:77] Creating layer cont_1_lstm1_cont_slice_0_split
I1017 23:47:52.831218 29380 net.cpp:84] Creating Layer cont_1_lstm1_cont_slice_0_split
I1017 23:47:52.831223 29380 net.cpp:406] cont_1_lstm1_cont_slice_0_split <- cont_1
I1017 23:47:52.831233 29380 net.cpp:380] cont_1_lstm1_cont_slice_0_split -> cont_1_lstm1_cont_slice_0_split_0
I1017 23:47:52.831240 29380 net.cpp:380] cont_1_lstm1_cont_slice_0_split -> cont_1_lstm1_cont_slice_0_split_1
I1017 23:47:52.831280 29380 net.cpp:122] Setting up cont_1_lstm1_cont_slice_0_split
I1017 23:47:52.831287 29380 net.cpp:129] Top shape: 1 5 (5)
I1017 23:47:52.831292 29380 net.cpp:129] Top shape: 1 5 (5)
I1017 23:47:52.831296 29380 net.cpp:137] Memory required for data: 796680
I1017 23:47:52.831300 29380 layer_factory.hpp:77] Creating layer cont_2_lstm1_cont_slice_1_split
I1017 23:47:52.831308 29380 net.cpp:84] Creating Layer cont_2_lstm1_cont_slice_1_split
I1017 23:47:52.831312 29380 net.cpp:406] cont_2_lstm1_cont_slice_1_split <- cont_2
I1017 23:47:52.831321 29380 net.cpp:380] cont_2_lstm1_cont_slice_1_split -> cont_2_lstm1_cont_slice_1_split_0
I1017 23:47:52.831328 29380 net.cpp:380] cont_2_lstm1_cont_slice_1_split -> cont_2_lstm1_cont_slice_1_split_1
I1017 23:47:52.831362 29380 net.cpp:122] Setting up cont_2_lstm1_cont_slice_1_split
I1017 23:47:52.831368 29380 net.cpp:129] Top shape: 1 5 (5)
I1017 23:47:52.831372 29380 net.cpp:129] Top shape: 1 5 (5)
I1017 23:47:52.831377 29380 net.cpp:137] Memory required for data: 796720
I1017 23:47:52.831380 29380 layer_factory.hpp:77] Creating layer cont_3_lstm1_cont_slice_2_split
I1017 23:47:52.831385 29380 net.cpp:84] Creating Layer cont_3_lstm1_cont_slice_2_split
I1017 23:47:52.831390 29380 net.cpp:406] cont_3_lstm1_cont_slice_2_split <- cont_3
I1017 23:47:52.831400 29380 net.cpp:380] cont_3_lstm1_cont_slice_2_split -> cont_3_lstm1_cont_slice_2_split_0
I1017 23:47:52.831408 29380 net.cpp:380] cont_3_lstm1_cont_slice_2_split -> cont_3_lstm1_cont_slice_2_split_1
I1017 23:47:52.831437 29380 net.cpp:122] Setting up cont_3_lstm1_cont_slice_2_split
I1017 23:47:52.831444 29380 net.cpp:129] Top shape: 1 5 (5)
I1017 23:47:52.831449 29380 net.cpp:129] Top shape: 1 5 (5)
I1017 23:47:52.831452 29380 net.cpp:137] Memory required for data: 796760
I1017 23:47:52.831456 29380 layer_factory.hpp:77] Creating layer cont_4_lstm1_cont_slice_3_split
I1017 23:47:52.831462 29380 net.cpp:84] Creating Layer cont_4_lstm1_cont_slice_3_split
I1017 23:47:52.831467 29380 net.cpp:406] cont_4_lstm1_cont_slice_3_split <- cont_4
I1017 23:47:52.831473 29380 net.cpp:380] cont_4_lstm1_cont_slice_3_split -> cont_4_lstm1_cont_slice_3_split_0
I1017 23:47:52.831480 29380 net.cpp:380] cont_4_lstm1_cont_slice_3_split -> cont_4_lstm1_cont_slice_3_split_1
I1017 23:47:52.831511 29380 net.cpp:122] Setting up cont_4_lstm1_cont_slice_3_split
I1017 23:47:52.831517 29380 net.cpp:129] Top shape: 1 5 (5)
I1017 23:47:52.831522 29380 net.cpp:129] Top shape: 1 5 (5)
I1017 23:47:52.831526 29380 net.cpp:137] Memory required for data: 796800
I1017 23:47:52.831531 29380 layer_factory.hpp:77] Creating layer cont_5_lstm1_cont_slice_4_split
I1017 23:47:52.831535 29380 net.cpp:84] Creating Layer cont_5_lstm1_cont_slice_4_split
I1017 23:47:52.831539 29380 net.cpp:406] cont_5_lstm1_cont_slice_4_split <- cont_5
I1017 23:47:52.831547 29380 net.cpp:380] cont_5_lstm1_cont_slice_4_split -> cont_5_lstm1_cont_slice_4_split_0
I1017 23:47:52.831553 29380 net.cpp:380] cont_5_lstm1_cont_slice_4_split -> cont_5_lstm1_cont_slice_4_split_1
I1017 23:47:52.831583 29380 net.cpp:122] Setting up cont_5_lstm1_cont_slice_4_split
I1017 23:47:52.831589 29380 net.cpp:129] Top shape: 1 5 (5)
I1017 23:47:52.831593 29380 net.cpp:129] Top shape: 1 5 (5)
I1017 23:47:52.831598 29380 net.cpp:137] Memory required for data: 796840
I1017 23:47:52.831601 29380 layer_factory.hpp:77] Creating layer cont_6_lstm1_cont_slice_5_split
I1017 23:47:52.831609 29380 net.cpp:84] Creating Layer cont_6_lstm1_cont_slice_5_split
I1017 23:47:52.831614 29380 net.cpp:406] cont_6_lstm1_cont_slice_5_split <- cont_6
I1017 23:47:52.831619 29380 net.cpp:380] cont_6_lstm1_cont_slice_5_split -> cont_6_lstm1_cont_slice_5_split_0
I1017 23:47:52.831626 29380 net.cpp:380] cont_6_lstm1_cont_slice_5_split -> cont_6_lstm1_cont_slice_5_split_1
I1017 23:47:52.831657 29380 net.cpp:122] Setting up cont_6_lstm1_cont_slice_5_split
I1017 23:47:52.831663 29380 net.cpp:129] Top shape: 1 5 (5)
I1017 23:47:52.831668 29380 net.cpp:129] Top shape: 1 5 (5)
I1017 23:47:52.831671 29380 net.cpp:137] Memory required for data: 796880
I1017 23:47:52.831676 29380 layer_factory.hpp:77] Creating layer cont_7_lstm1_cont_slice_6_split
I1017 23:47:52.831681 29380 net.cpp:84] Creating Layer cont_7_lstm1_cont_slice_6_split
I1017 23:47:52.831684 29380 net.cpp:406] cont_7_lstm1_cont_slice_6_split <- cont_7
I1017 23:47:52.831691 29380 net.cpp:380] cont_7_lstm1_cont_slice_6_split -> cont_7_lstm1_cont_slice_6_split_0
I1017 23:47:52.831697 29380 net.cpp:380] cont_7_lstm1_cont_slice_6_split -> cont_7_lstm1_cont_slice_6_split_1
I1017 23:47:52.831727 29380 net.cpp:122] Setting up cont_7_lstm1_cont_slice_6_split
I1017 23:47:52.831733 29380 net.cpp:129] Top shape: 1 5 (5)
I1017 23:47:52.831738 29380 net.cpp:129] Top shape: 1 5 (5)
I1017 23:47:52.831742 29380 net.cpp:137] Memory required for data: 796920
I1017 23:47:52.831746 29380 layer_factory.hpp:77] Creating layer cont_8_lstm1_cont_slice_7_split
I1017 23:47:52.831751 29380 net.cpp:84] Creating Layer cont_8_lstm1_cont_slice_7_split
I1017 23:47:52.831755 29380 net.cpp:406] cont_8_lstm1_cont_slice_7_split <- cont_8
I1017 23:47:52.831760 29380 net.cpp:380] cont_8_lstm1_cont_slice_7_split -> cont_8_lstm1_cont_slice_7_split_0
I1017 23:47:52.831769 29380 net.cpp:380] cont_8_lstm1_cont_slice_7_split -> cont_8_lstm1_cont_slice_7_split_1
I1017 23:47:52.831797 29380 net.cpp:122] Setting up cont_8_lstm1_cont_slice_7_split
I1017 23:47:52.831804 29380 net.cpp:129] Top shape: 1 5 (5)
I1017 23:47:52.831809 29380 net.cpp:129] Top shape: 1 5 (5)
I1017 23:47:52.831811 29380 net.cpp:137] Memory required for data: 796960
I1017 23:47:52.831815 29380 layer_factory.hpp:77] Creating layer cont_9_lstm1_cont_slice_8_split
I1017 23:47:52.831820 29380 net.cpp:84] Creating Layer cont_9_lstm1_cont_slice_8_split
I1017 23:47:52.831825 29380 net.cpp:406] cont_9_lstm1_cont_slice_8_split <- cont_9
I1017 23:47:52.831832 29380 net.cpp:380] cont_9_lstm1_cont_slice_8_split -> cont_9_lstm1_cont_slice_8_split_0
I1017 23:47:52.831840 29380 net.cpp:380] cont_9_lstm1_cont_slice_8_split -> cont_9_lstm1_cont_slice_8_split_1
I1017 23:47:52.831869 29380 net.cpp:122] Setting up cont_9_lstm1_cont_slice_8_split
I1017 23:47:52.831876 29380 net.cpp:129] Top shape: 1 5 (5)
I1017 23:47:52.831881 29380 net.cpp:129] Top shape: 1 5 (5)
I1017 23:47:52.831883 29380 net.cpp:137] Memory required for data: 797000
I1017 23:47:52.831887 29380 layer_factory.hpp:77] Creating layer cont_10_lstm1_cont_slice_9_split
I1017 23:47:52.831892 29380 net.cpp:84] Creating Layer cont_10_lstm1_cont_slice_9_split
I1017 23:47:52.831897 29380 net.cpp:406] cont_10_lstm1_cont_slice_9_split <- cont_10
I1017 23:47:52.831903 29380 net.cpp:380] cont_10_lstm1_cont_slice_9_split -> cont_10_lstm1_cont_slice_9_split_0
I1017 23:47:52.831909 29380 net.cpp:380] cont_10_lstm1_cont_slice_9_split -> cont_10_lstm1_cont_slice_9_split_1
I1017 23:47:52.831939 29380 net.cpp:122] Setting up cont_10_lstm1_cont_slice_9_split
I1017 23:47:52.831945 29380 net.cpp:129] Top shape: 1 5 (5)
I1017 23:47:52.831949 29380 net.cpp:129] Top shape: 1 5 (5)
I1017 23:47:52.831954 29380 net.cpp:137] Memory required for data: 797040
I1017 23:47:52.831957 29380 layer_factory.hpp:77] Creating layer cont_11_lstm1_cont_slice_10_split
I1017 23:47:52.831962 29380 net.cpp:84] Creating Layer cont_11_lstm1_cont_slice_10_split
I1017 23:47:52.831967 29380 net.cpp:406] cont_11_lstm1_cont_slice_10_split <- cont_11
I1017 23:47:52.831974 29380 net.cpp:380] cont_11_lstm1_cont_slice_10_split -> cont_11_lstm1_cont_slice_10_split_0
I1017 23:47:52.831979 29380 net.cpp:380] cont_11_lstm1_cont_slice_10_split -> cont_11_lstm1_cont_slice_10_split_1
I1017 23:47:52.832010 29380 net.cpp:122] Setting up cont_11_lstm1_cont_slice_10_split
I1017 23:47:52.832015 29380 net.cpp:129] Top shape: 1 5 (5)
I1017 23:47:52.832020 29380 net.cpp:129] Top shape: 1 5 (5)
I1017 23:47:52.832023 29380 net.cpp:137] Memory required for data: 797080
I1017 23:47:52.832039 29380 layer_factory.hpp:77] Creating layer cont_12_lstm1_cont_slice_11_split
I1017 23:47:52.832046 29380 net.cpp:84] Creating Layer cont_12_lstm1_cont_slice_11_split
I1017 23:47:52.832049 29380 net.cpp:406] cont_12_lstm1_cont_slice_11_split <- cont_12
I1017 23:47:52.832057 29380 net.cpp:380] cont_12_lstm1_cont_slice_11_split -> cont_12_lstm1_cont_slice_11_split_0
I1017 23:47:52.832064 29380 net.cpp:380] cont_12_lstm1_cont_slice_11_split -> cont_12_lstm1_cont_slice_11_split_1
I1017 23:47:52.832096 29380 net.cpp:122] Setting up cont_12_lstm1_cont_slice_11_split
I1017 23:47:52.832103 29380 net.cpp:129] Top shape: 1 5 (5)
I1017 23:47:52.832106 29380 net.cpp:129] Top shape: 1 5 (5)
I1017 23:47:52.832110 29380 net.cpp:137] Memory required for data: 797120
I1017 23:47:52.832114 29380 layer_factory.hpp:77] Creating layer cont_13_lstm1_cont_slice_12_split
I1017 23:47:52.832121 29380 net.cpp:84] Creating Layer cont_13_lstm1_cont_slice_12_split
I1017 23:47:52.832125 29380 net.cpp:406] cont_13_lstm1_cont_slice_12_split <- cont_13
I1017 23:47:52.832132 29380 net.cpp:380] cont_13_lstm1_cont_slice_12_split -> cont_13_lstm1_cont_slice_12_split_0
I1017 23:47:52.832139 29380 net.cpp:380] cont_13_lstm1_cont_slice_12_split -> cont_13_lstm1_cont_slice_12_split_1
I1017 23:47:52.832176 29380 net.cpp:122] Setting up cont_13_lstm1_cont_slice_12_split
I1017 23:47:52.832181 29380 net.cpp:129] Top shape: 1 5 (5)
I1017 23:47:52.832186 29380 net.cpp:129] Top shape: 1 5 (5)
I1017 23:47:52.832190 29380 net.cpp:137] Memory required for data: 797160
I1017 23:47:52.832195 29380 layer_factory.hpp:77] Creating layer cont_14_lstm1_cont_slice_13_split
I1017 23:47:52.832201 29380 net.cpp:84] Creating Layer cont_14_lstm1_cont_slice_13_split
I1017 23:47:52.832206 29380 net.cpp:406] cont_14_lstm1_cont_slice_13_split <- cont_14
I1017 23:47:52.832211 29380 net.cpp:380] cont_14_lstm1_cont_slice_13_split -> cont_14_lstm1_cont_slice_13_split_0
I1017 23:47:52.832218 29380 net.cpp:380] cont_14_lstm1_cont_slice_13_split -> cont_14_lstm1_cont_slice_13_split_1
I1017 23:47:52.832248 29380 net.cpp:122] Setting up cont_14_lstm1_cont_slice_13_split
I1017 23:47:52.832254 29380 net.cpp:129] Top shape: 1 5 (5)
I1017 23:47:52.832258 29380 net.cpp:129] Top shape: 1 5 (5)
I1017 23:47:52.832262 29380 net.cpp:137] Memory required for data: 797200
I1017 23:47:52.832267 29380 layer_factory.hpp:77] Creating layer cont_15_lstm1_cont_slice_14_split
I1017 23:47:52.832271 29380 net.cpp:84] Creating Layer cont_15_lstm1_cont_slice_14_split
I1017 23:47:52.832275 29380 net.cpp:406] cont_15_lstm1_cont_slice_14_split <- cont_15
I1017 23:47:52.832281 29380 net.cpp:380] cont_15_lstm1_cont_slice_14_split -> cont_15_lstm1_cont_slice_14_split_0
I1017 23:47:52.832289 29380 net.cpp:380] cont_15_lstm1_cont_slice_14_split -> cont_15_lstm1_cont_slice_14_split_1
I1017 23:47:52.832317 29380 net.cpp:122] Setting up cont_15_lstm1_cont_slice_14_split
I1017 23:47:52.832324 29380 net.cpp:129] Top shape: 1 5 (5)
I1017 23:47:52.832329 29380 net.cpp:129] Top shape: 1 5 (5)
I1017 23:47:52.832331 29380 net.cpp:137] Memory required for data: 797240
I1017 23:47:52.832335 29380 layer_factory.hpp:77] Creating layer cont_16_lstm1_cont_slice_15_split
I1017 23:47:52.832345 29380 net.cpp:84] Creating Layer cont_16_lstm1_cont_slice_15_split
I1017 23:47:52.832350 29380 net.cpp:406] cont_16_lstm1_cont_slice_15_split <- cont_16
I1017 23:47:52.832355 29380 net.cpp:380] cont_16_lstm1_cont_slice_15_split -> cont_16_lstm1_cont_slice_15_split_0
I1017 23:47:52.832361 29380 net.cpp:380] cont_16_lstm1_cont_slice_15_split -> cont_16_lstm1_cont_slice_15_split_1
I1017 23:47:52.832392 29380 net.cpp:122] Setting up cont_16_lstm1_cont_slice_15_split
I1017 23:47:52.832398 29380 net.cpp:129] Top shape: 1 5 (5)
I1017 23:47:52.832402 29380 net.cpp:129] Top shape: 1 5 (5)
I1017 23:47:52.832406 29380 net.cpp:137] Memory required for data: 797280
I1017 23:47:52.832411 29380 layer_factory.hpp:77] Creating layer cont_17_lstm1_cont_slice_16_split
I1017 23:47:52.832415 29380 net.cpp:84] Creating Layer cont_17_lstm1_cont_slice_16_split
I1017 23:47:52.832419 29380 net.cpp:406] cont_17_lstm1_cont_slice_16_split <- cont_17
I1017 23:47:52.832425 29380 net.cpp:380] cont_17_lstm1_cont_slice_16_split -> cont_17_lstm1_cont_slice_16_split_0
I1017 23:47:52.832432 29380 net.cpp:380] cont_17_lstm1_cont_slice_16_split -> cont_17_lstm1_cont_slice_16_split_1
I1017 23:47:52.832463 29380 net.cpp:122] Setting up cont_17_lstm1_cont_slice_16_split
I1017 23:47:52.832468 29380 net.cpp:129] Top shape: 1 5 (5)
I1017 23:47:52.832473 29380 net.cpp:129] Top shape: 1 5 (5)
I1017 23:47:52.832478 29380 net.cpp:137] Memory required for data: 797320
I1017 23:47:52.832481 29380 layer_factory.hpp:77] Creating layer cont_18_lstm1_cont_slice_17_split
I1017 23:47:52.832486 29380 net.cpp:84] Creating Layer cont_18_lstm1_cont_slice_17_split
I1017 23:47:52.832490 29380 net.cpp:406] cont_18_lstm1_cont_slice_17_split <- cont_18
I1017 23:47:52.832495 29380 net.cpp:380] cont_18_lstm1_cont_slice_17_split -> cont_18_lstm1_cont_slice_17_split_0
I1017 23:47:52.832502 29380 net.cpp:380] cont_18_lstm1_cont_slice_17_split -> cont_18_lstm1_cont_slice_17_split_1
I1017 23:47:52.832531 29380 net.cpp:122] Setting up cont_18_lstm1_cont_slice_17_split
I1017 23:47:52.832537 29380 net.cpp:129] Top shape: 1 5 (5)
I1017 23:47:52.832542 29380 net.cpp:129] Top shape: 1 5 (5)
I1017 23:47:52.832546 29380 net.cpp:137] Memory required for data: 797360
I1017 23:47:52.832551 29380 layer_factory.hpp:77] Creating layer cont_19_lstm1_cont_slice_18_split
I1017 23:47:52.832554 29380 net.cpp:84] Creating Layer cont_19_lstm1_cont_slice_18_split
I1017 23:47:52.832559 29380 net.cpp:406] cont_19_lstm1_cont_slice_18_split <- cont_19
I1017 23:47:52.832566 29380 net.cpp:380] cont_19_lstm1_cont_slice_18_split -> cont_19_lstm1_cont_slice_18_split_0
I1017 23:47:52.832573 29380 net.cpp:380] cont_19_lstm1_cont_slice_18_split -> cont_19_lstm1_cont_slice_18_split_1
I1017 23:47:52.832602 29380 net.cpp:122] Setting up cont_19_lstm1_cont_slice_18_split
I1017 23:47:52.832607 29380 net.cpp:129] Top shape: 1 5 (5)
I1017 23:47:52.832612 29380 net.cpp:129] Top shape: 1 5 (5)
I1017 23:47:52.832615 29380 net.cpp:137] Memory required for data: 797400
I1017 23:47:52.832619 29380 layer_factory.hpp:77] Creating layer cont_20_lstm1_cont_slice_19_split
I1017 23:47:52.832626 29380 net.cpp:84] Creating Layer cont_20_lstm1_cont_slice_19_split
I1017 23:47:52.832630 29380 net.cpp:406] cont_20_lstm1_cont_slice_19_split <- cont_20
I1017 23:47:52.832636 29380 net.cpp:380] cont_20_lstm1_cont_slice_19_split -> cont_20_lstm1_cont_slice_19_split_0
I1017 23:47:52.832643 29380 net.cpp:380] cont_20_lstm1_cont_slice_19_split -> cont_20_lstm1_cont_slice_19_split_1
I1017 23:47:52.832674 29380 net.cpp:122] Setting up cont_20_lstm1_cont_slice_19_split
I1017 23:47:52.832679 29380 net.cpp:129] Top shape: 1 5 (5)
I1017 23:47:52.832684 29380 net.cpp:129] Top shape: 1 5 (5)
I1017 23:47:52.832687 29380 net.cpp:137] Memory required for data: 797440
I1017 23:47:52.832691 29380 layer_factory.hpp:77] Creating layer cont_21_lstm1_cont_slice_20_split
I1017 23:47:52.832696 29380 net.cpp:84] Creating Layer cont_21_lstm1_cont_slice_20_split
I1017 23:47:52.832701 29380 net.cpp:406] cont_21_lstm1_cont_slice_20_split <- cont_21
I1017 23:47:52.832706 29380 net.cpp:380] cont_21_lstm1_cont_slice_20_split -> cont_21_lstm1_cont_slice_20_split_0
I1017 23:47:52.832713 29380 net.cpp:380] cont_21_lstm1_cont_slice_20_split -> cont_21_lstm1_cont_slice_20_split_1
I1017 23:47:52.832742 29380 net.cpp:122] Setting up cont_21_lstm1_cont_slice_20_split
I1017 23:47:52.832748 29380 net.cpp:129] Top shape: 1 5 (5)
I1017 23:47:52.832752 29380 net.cpp:129] Top shape: 1 5 (5)
I1017 23:47:52.832756 29380 net.cpp:137] Memory required for data: 797480
I1017 23:47:52.832761 29380 layer_factory.hpp:77] Creating layer cont_22_lstm1_cont_slice_21_split
I1017 23:47:52.832765 29380 net.cpp:84] Creating Layer cont_22_lstm1_cont_slice_21_split
I1017 23:47:52.832769 29380 net.cpp:406] cont_22_lstm1_cont_slice_21_split <- cont_22
I1017 23:47:52.832775 29380 net.cpp:380] cont_22_lstm1_cont_slice_21_split -> cont_22_lstm1_cont_slice_21_split_0
I1017 23:47:52.832784 29380 net.cpp:380] cont_22_lstm1_cont_slice_21_split -> cont_22_lstm1_cont_slice_21_split_1
I1017 23:47:52.832811 29380 net.cpp:122] Setting up cont_22_lstm1_cont_slice_21_split
I1017 23:47:52.832818 29380 net.cpp:129] Top shape: 1 5 (5)
I1017 23:47:52.832821 29380 net.cpp:129] Top shape: 1 5 (5)
I1017 23:47:52.832825 29380 net.cpp:137] Memory required for data: 797520
I1017 23:47:52.832829 29380 layer_factory.hpp:77] Creating layer cont_23_lstm1_cont_slice_22_split
I1017 23:47:52.832836 29380 net.cpp:84] Creating Layer cont_23_lstm1_cont_slice_22_split
I1017 23:47:52.832840 29380 net.cpp:406] cont_23_lstm1_cont_slice_22_split <- cont_23
I1017 23:47:52.832846 29380 net.cpp:380] cont_23_lstm1_cont_slice_22_split -> cont_23_lstm1_cont_slice_22_split_0
I1017 23:47:52.832854 29380 net.cpp:380] cont_23_lstm1_cont_slice_22_split -> cont_23_lstm1_cont_slice_22_split_1
I1017 23:47:52.832883 29380 net.cpp:122] Setting up cont_23_lstm1_cont_slice_22_split
I1017 23:47:52.832890 29380 net.cpp:129] Top shape: 1 5 (5)
I1017 23:47:52.832893 29380 net.cpp:129] Top shape: 1 5 (5)
I1017 23:47:52.832897 29380 net.cpp:137] Memory required for data: 797560
I1017 23:47:52.832901 29380 layer_factory.hpp:77] Creating layer cont_24_lstm1_cont_slice_23_split
I1017 23:47:52.832906 29380 net.cpp:84] Creating Layer cont_24_lstm1_cont_slice_23_split
I1017 23:47:52.832911 29380 net.cpp:406] cont_24_lstm1_cont_slice_23_split <- cont_24
I1017 23:47:52.832916 29380 net.cpp:380] cont_24_lstm1_cont_slice_23_split -> cont_24_lstm1_cont_slice_23_split_0
I1017 23:47:52.832922 29380 net.cpp:380] cont_24_lstm1_cont_slice_23_split -> cont_24_lstm1_cont_slice_23_split_1
I1017 23:47:52.832955 29380 net.cpp:122] Setting up cont_24_lstm1_cont_slice_23_split
I1017 23:47:52.832962 29380 net.cpp:129] Top shape: 1 5 (5)
I1017 23:47:52.832967 29380 net.cpp:129] Top shape: 1 5 (5)
I1017 23:47:52.832969 29380 net.cpp:137] Memory required for data: 797600
I1017 23:47:52.832973 29380 layer_factory.hpp:77] Creating layer cont_25_lstm1_cont_slice_24_split
I1017 23:47:52.832978 29380 net.cpp:84] Creating Layer cont_25_lstm1_cont_slice_24_split
I1017 23:47:52.832983 29380 net.cpp:406] cont_25_lstm1_cont_slice_24_split <- cont_25
I1017 23:47:52.832988 29380 net.cpp:380] cont_25_lstm1_cont_slice_24_split -> cont_25_lstm1_cont_slice_24_split_0
I1017 23:47:52.832994 29380 net.cpp:380] cont_25_lstm1_cont_slice_24_split -> cont_25_lstm1_cont_slice_24_split_1
I1017 23:47:52.833024 29380 net.cpp:122] Setting up cont_25_lstm1_cont_slice_24_split
I1017 23:47:52.833030 29380 net.cpp:129] Top shape: 1 5 (5)
I1017 23:47:52.833034 29380 net.cpp:129] Top shape: 1 5 (5)
I1017 23:47:52.833039 29380 net.cpp:137] Memory required for data: 797640
I1017 23:47:52.833042 29380 layer_factory.hpp:77] Creating layer cont_26_lstm1_cont_slice_25_split
I1017 23:47:52.833047 29380 net.cpp:84] Creating Layer cont_26_lstm1_cont_slice_25_split
I1017 23:47:52.833051 29380 net.cpp:406] cont_26_lstm1_cont_slice_25_split <- cont_26
I1017 23:47:52.833060 29380 net.cpp:380] cont_26_lstm1_cont_slice_25_split -> cont_26_lstm1_cont_slice_25_split_0
I1017 23:47:52.833066 29380 net.cpp:380] cont_26_lstm1_cont_slice_25_split -> cont_26_lstm1_cont_slice_25_split_1
I1017 23:47:52.833093 29380 net.cpp:122] Setting up cont_26_lstm1_cont_slice_25_split
I1017 23:47:52.833099 29380 net.cpp:129] Top shape: 1 5 (5)
I1017 23:47:52.833103 29380 net.cpp:129] Top shape: 1 5 (5)
I1017 23:47:52.833107 29380 net.cpp:137] Memory required for data: 797680
I1017 23:47:52.833112 29380 layer_factory.hpp:77] Creating layer cont_27_lstm1_cont_slice_26_split
I1017 23:47:52.833118 29380 net.cpp:84] Creating Layer cont_27_lstm1_cont_slice_26_split
I1017 23:47:52.833122 29380 net.cpp:406] cont_27_lstm1_cont_slice_26_split <- cont_27
I1017 23:47:52.833128 29380 net.cpp:380] cont_27_lstm1_cont_slice_26_split -> cont_27_lstm1_cont_slice_26_split_0
I1017 23:47:52.833134 29380 net.cpp:380] cont_27_lstm1_cont_slice_26_split -> cont_27_lstm1_cont_slice_26_split_1
I1017 23:47:52.833164 29380 net.cpp:122] Setting up cont_27_lstm1_cont_slice_26_split
I1017 23:47:52.833170 29380 net.cpp:129] Top shape: 1 5 (5)
I1017 23:47:52.833174 29380 net.cpp:129] Top shape: 1 5 (5)
I1017 23:47:52.833178 29380 net.cpp:137] Memory required for data: 797720
I1017 23:47:52.833183 29380 layer_factory.hpp:77] Creating layer cont_28_lstm1_cont_slice_27_split
I1017 23:47:52.833187 29380 net.cpp:84] Creating Layer cont_28_lstm1_cont_slice_27_split
I1017 23:47:52.833191 29380 net.cpp:406] cont_28_lstm1_cont_slice_27_split <- cont_28
I1017 23:47:52.833197 29380 net.cpp:380] cont_28_lstm1_cont_slice_27_split -> cont_28_lstm1_cont_slice_27_split_0
I1017 23:47:52.833204 29380 net.cpp:380] cont_28_lstm1_cont_slice_27_split -> cont_28_lstm1_cont_slice_27_split_1
I1017 23:47:52.833235 29380 net.cpp:122] Setting up cont_28_lstm1_cont_slice_27_split
I1017 23:47:52.833240 29380 net.cpp:129] Top shape: 1 5 (5)
I1017 23:47:52.833245 29380 net.cpp:129] Top shape: 1 5 (5)
I1017 23:47:52.833250 29380 net.cpp:137] Memory required for data: 797760
I1017 23:47:52.833252 29380 layer_factory.hpp:77] Creating layer cont_29_lstm1_cont_slice_28_split
I1017 23:47:52.833257 29380 net.cpp:84] Creating Layer cont_29_lstm1_cont_slice_28_split
I1017 23:47:52.833261 29380 net.cpp:406] cont_29_lstm1_cont_slice_28_split <- cont_29
I1017 23:47:52.833267 29380 net.cpp:380] cont_29_lstm1_cont_slice_28_split -> cont_29_lstm1_cont_slice_28_split_0
I1017 23:47:52.833290 29380 net.cpp:380] cont_29_lstm1_cont_slice_28_split -> cont_29_lstm1_cont_slice_28_split_1
I1017 23:47:52.833324 29380 net.cpp:122] Setting up cont_29_lstm1_cont_slice_28_split
I1017 23:47:52.833331 29380 net.cpp:129] Top shape: 1 5 (5)
I1017 23:47:52.833336 29380 net.cpp:129] Top shape: 1 5 (5)
I1017 23:47:52.833340 29380 net.cpp:137] Memory required for data: 797800
I1017 23:47:52.833344 29380 layer_factory.hpp:77] Creating layer cont_30_lstm1_cont_slice_29_split
I1017 23:47:52.833353 29380 net.cpp:84] Creating Layer cont_30_lstm1_cont_slice_29_split
I1017 23:47:52.833356 29380 net.cpp:406] cont_30_lstm1_cont_slice_29_split <- cont_30
I1017 23:47:52.833364 29380 net.cpp:380] cont_30_lstm1_cont_slice_29_split -> cont_30_lstm1_cont_slice_29_split_0
I1017 23:47:52.833371 29380 net.cpp:380] cont_30_lstm1_cont_slice_29_split -> cont_30_lstm1_cont_slice_29_split_1
I1017 23:47:52.833400 29380 net.cpp:122] Setting up cont_30_lstm1_cont_slice_29_split
I1017 23:47:52.833406 29380 net.cpp:129] Top shape: 1 5 (5)
I1017 23:47:52.833411 29380 net.cpp:129] Top shape: 1 5 (5)
I1017 23:47:52.833415 29380 net.cpp:137] Memory required for data: 797840
I1017 23:47:52.833418 29380 layer_factory.hpp:77] Creating layer cont_31_lstm1_cont_slice_30_split
I1017 23:47:52.833425 29380 net.cpp:84] Creating Layer cont_31_lstm1_cont_slice_30_split
I1017 23:47:52.833431 29380 net.cpp:406] cont_31_lstm1_cont_slice_30_split <- cont_31
I1017 23:47:52.833436 29380 net.cpp:380] cont_31_lstm1_cont_slice_30_split -> cont_31_lstm1_cont_slice_30_split_0
I1017 23:47:52.833442 29380 net.cpp:380] cont_31_lstm1_cont_slice_30_split -> cont_31_lstm1_cont_slice_30_split_1
I1017 23:47:52.833473 29380 net.cpp:122] Setting up cont_31_lstm1_cont_slice_30_split
I1017 23:47:52.833478 29380 net.cpp:129] Top shape: 1 5 (5)
I1017 23:47:52.833483 29380 net.cpp:129] Top shape: 1 5 (5)
I1017 23:47:52.833487 29380 net.cpp:137] Memory required for data: 797880
I1017 23:47:52.833492 29380 layer_factory.hpp:77] Creating layer cont_32_lstm1_cont_slice_31_split
I1017 23:47:52.833497 29380 net.cpp:84] Creating Layer cont_32_lstm1_cont_slice_31_split
I1017 23:47:52.833500 29380 net.cpp:406] cont_32_lstm1_cont_slice_31_split <- cont_32
I1017 23:47:52.833506 29380 net.cpp:380] cont_32_lstm1_cont_slice_31_split -> cont_32_lstm1_cont_slice_31_split_0
I1017 23:47:52.833513 29380 net.cpp:380] cont_32_lstm1_cont_slice_31_split -> cont_32_lstm1_cont_slice_31_split_1
I1017 23:47:52.833542 29380 net.cpp:122] Setting up cont_32_lstm1_cont_slice_31_split
I1017 23:47:52.833549 29380 net.cpp:129] Top shape: 1 5 (5)
I1017 23:47:52.833554 29380 net.cpp:129] Top shape: 1 5 (5)
I1017 23:47:52.833557 29380 net.cpp:137] Memory required for data: 797920
I1017 23:47:52.833561 29380 layer_factory.hpp:77] Creating layer cont_33_lstm1_cont_slice_32_split
I1017 23:47:52.833566 29380 net.cpp:84] Creating Layer cont_33_lstm1_cont_slice_32_split
I1017 23:47:52.833570 29380 net.cpp:406] cont_33_lstm1_cont_slice_32_split <- cont_33
I1017 23:47:52.833578 29380 net.cpp:380] cont_33_lstm1_cont_slice_32_split -> cont_33_lstm1_cont_slice_32_split_0
I1017 23:47:52.833585 29380 net.cpp:380] cont_33_lstm1_cont_slice_32_split -> cont_33_lstm1_cont_slice_32_split_1
I1017 23:47:52.833614 29380 net.cpp:122] Setting up cont_33_lstm1_cont_slice_32_split
I1017 23:47:52.833619 29380 net.cpp:129] Top shape: 1 5 (5)
I1017 23:47:52.833624 29380 net.cpp:129] Top shape: 1 5 (5)
I1017 23:47:52.833628 29380 net.cpp:137] Memory required for data: 797960
I1017 23:47:52.833632 29380 layer_factory.hpp:77] Creating layer cont_34_lstm1_cont_slice_33_split
I1017 23:47:52.833639 29380 net.cpp:84] Creating Layer cont_34_lstm1_cont_slice_33_split
I1017 23:47:52.833643 29380 net.cpp:406] cont_34_lstm1_cont_slice_33_split <- cont_34
I1017 23:47:52.833649 29380 net.cpp:380] cont_34_lstm1_cont_slice_33_split -> cont_34_lstm1_cont_slice_33_split_0
I1017 23:47:52.833657 29380 net.cpp:380] cont_34_lstm1_cont_slice_33_split -> cont_34_lstm1_cont_slice_33_split_1
I1017 23:47:52.833685 29380 net.cpp:122] Setting up cont_34_lstm1_cont_slice_33_split
I1017 23:47:52.833691 29380 net.cpp:129] Top shape: 1 5 (5)
I1017 23:47:52.833696 29380 net.cpp:129] Top shape: 1 5 (5)
I1017 23:47:52.833699 29380 net.cpp:137] Memory required for data: 798000
I1017 23:47:52.833703 29380 layer_factory.hpp:77] Creating layer cont_35_lstm1_cont_slice_34_split
I1017 23:47:52.833709 29380 net.cpp:84] Creating Layer cont_35_lstm1_cont_slice_34_split
I1017 23:47:52.833712 29380 net.cpp:406] cont_35_lstm1_cont_slice_34_split <- cont_35
I1017 23:47:52.833719 29380 net.cpp:380] cont_35_lstm1_cont_slice_34_split -> cont_35_lstm1_cont_slice_34_split_0
I1017 23:47:52.833725 29380 net.cpp:380] cont_35_lstm1_cont_slice_34_split -> cont_35_lstm1_cont_slice_34_split_1
I1017 23:47:52.833755 29380 net.cpp:122] Setting up cont_35_lstm1_cont_slice_34_split
I1017 23:47:52.833760 29380 net.cpp:129] Top shape: 1 5 (5)
I1017 23:47:52.833765 29380 net.cpp:129] Top shape: 1 5 (5)
I1017 23:47:52.833768 29380 net.cpp:137] Memory required for data: 798040
I1017 23:47:52.833772 29380 layer_factory.hpp:77] Creating layer cont_36_lstm1_cont_slice_35_split
I1017 23:47:52.833778 29380 net.cpp:84] Creating Layer cont_36_lstm1_cont_slice_35_split
I1017 23:47:52.833782 29380 net.cpp:406] cont_36_lstm1_cont_slice_35_split <- cont_36
I1017 23:47:52.833787 29380 net.cpp:380] cont_36_lstm1_cont_slice_35_split -> cont_36_lstm1_cont_slice_35_split_0
I1017 23:47:52.833794 29380 net.cpp:380] cont_36_lstm1_cont_slice_35_split -> cont_36_lstm1_cont_slice_35_split_1
I1017 23:47:52.833825 29380 net.cpp:122] Setting up cont_36_lstm1_cont_slice_35_split
I1017 23:47:52.833832 29380 net.cpp:129] Top shape: 1 5 (5)
I1017 23:47:52.833837 29380 net.cpp:129] Top shape: 1 5 (5)
I1017 23:47:52.833839 29380 net.cpp:137] Memory required for data: 798080
I1017 23:47:52.833843 29380 layer_factory.hpp:77] Creating layer cont_37_lstm1_cont_slice_36_split
I1017 23:47:52.833849 29380 net.cpp:84] Creating Layer cont_37_lstm1_cont_slice_36_split
I1017 23:47:52.833853 29380 net.cpp:406] cont_37_lstm1_cont_slice_36_split <- cont_37
I1017 23:47:52.833860 29380 net.cpp:380] cont_37_lstm1_cont_slice_36_split -> cont_37_lstm1_cont_slice_36_split_0
I1017 23:47:52.833868 29380 net.cpp:380] cont_37_lstm1_cont_slice_36_split -> cont_37_lstm1_cont_slice_36_split_1
I1017 23:47:52.833895 29380 net.cpp:122] Setting up cont_37_lstm1_cont_slice_36_split
I1017 23:47:52.833901 29380 net.cpp:129] Top shape: 1 5 (5)
I1017 23:47:52.833906 29380 net.cpp:129] Top shape: 1 5 (5)
I1017 23:47:52.833909 29380 net.cpp:137] Memory required for data: 798120
I1017 23:47:52.833914 29380 layer_factory.hpp:77] Creating layer cont_38_lstm1_cont_slice_37_split
I1017 23:47:52.833921 29380 net.cpp:84] Creating Layer cont_38_lstm1_cont_slice_37_split
I1017 23:47:52.833926 29380 net.cpp:406] cont_38_lstm1_cont_slice_37_split <- cont_38
I1017 23:47:52.833931 29380 net.cpp:380] cont_38_lstm1_cont_slice_37_split -> cont_38_lstm1_cont_slice_37_split_0
I1017 23:47:52.833938 29380 net.cpp:380] cont_38_lstm1_cont_slice_37_split -> cont_38_lstm1_cont_slice_37_split_1
I1017 23:47:52.833968 29380 net.cpp:122] Setting up cont_38_lstm1_cont_slice_37_split
I1017 23:47:52.833973 29380 net.cpp:129] Top shape: 1 5 (5)
I1017 23:47:52.833978 29380 net.cpp:129] Top shape: 1 5 (5)
I1017 23:47:52.833982 29380 net.cpp:137] Memory required for data: 798160
I1017 23:47:52.833986 29380 layer_factory.hpp:77] Creating layer cont_39_lstm1_cont_slice_38_split
I1017 23:47:52.833992 29380 net.cpp:84] Creating Layer cont_39_lstm1_cont_slice_38_split
I1017 23:47:52.833995 29380 net.cpp:406] cont_39_lstm1_cont_slice_38_split <- cont_39
I1017 23:47:52.834002 29380 net.cpp:380] cont_39_lstm1_cont_slice_38_split -> cont_39_lstm1_cont_slice_38_split_0
I1017 23:47:52.834007 29380 net.cpp:380] cont_39_lstm1_cont_slice_38_split -> cont_39_lstm1_cont_slice_38_split_1
I1017 23:47:52.834038 29380 net.cpp:122] Setting up cont_39_lstm1_cont_slice_38_split
I1017 23:47:52.834044 29380 net.cpp:129] Top shape: 1 5 (5)
I1017 23:47:52.834048 29380 net.cpp:129] Top shape: 1 5 (5)
I1017 23:47:52.834053 29380 net.cpp:137] Memory required for data: 798200
I1017 23:47:52.834056 29380 layer_factory.hpp:77] Creating layer cont_40_lstm1_cont_slice_39_split
I1017 23:47:52.834061 29380 net.cpp:84] Creating Layer cont_40_lstm1_cont_slice_39_split
I1017 23:47:52.834066 29380 net.cpp:406] cont_40_lstm1_cont_slice_39_split <- cont_40
I1017 23:47:52.834072 29380 net.cpp:380] cont_40_lstm1_cont_slice_39_split -> cont_40_lstm1_cont_slice_39_split_0
I1017 23:47:52.834082 29380 net.cpp:380] cont_40_lstm1_cont_slice_39_split -> cont_40_lstm1_cont_slice_39_split_1
I1017 23:47:52.834111 29380 net.cpp:122] Setting up cont_40_lstm1_cont_slice_39_split
I1017 23:47:52.834117 29380 net.cpp:129] Top shape: 1 5 (5)
I1017 23:47:52.834122 29380 net.cpp:129] Top shape: 1 5 (5)
I1017 23:47:52.834126 29380 net.cpp:137] Memory required for data: 798240
I1017 23:47:52.834131 29380 layer_factory.hpp:77] Creating layer cont_41_lstm1_cont_slice_40_split
I1017 23:47:52.834137 29380 net.cpp:84] Creating Layer cont_41_lstm1_cont_slice_40_split
I1017 23:47:52.834141 29380 net.cpp:406] cont_41_lstm1_cont_slice_40_split <- cont_41
I1017 23:47:52.834147 29380 net.cpp:380] cont_41_lstm1_cont_slice_40_split -> cont_41_lstm1_cont_slice_40_split_0
I1017 23:47:52.834153 29380 net.cpp:380] cont_41_lstm1_cont_slice_40_split -> cont_41_lstm1_cont_slice_40_split_1
I1017 23:47:52.834184 29380 net.cpp:122] Setting up cont_41_lstm1_cont_slice_40_split
I1017 23:47:52.834190 29380 net.cpp:129] Top shape: 1 5 (5)
I1017 23:47:52.834194 29380 net.cpp:129] Top shape: 1 5 (5)
I1017 23:47:52.834198 29380 net.cpp:137] Memory required for data: 798280
I1017 23:47:52.834203 29380 layer_factory.hpp:77] Creating layer cont_42_lstm1_cont_slice_41_split
I1017 23:47:52.834208 29380 net.cpp:84] Creating Layer cont_42_lstm1_cont_slice_41_split
I1017 23:47:52.834213 29380 net.cpp:406] cont_42_lstm1_cont_slice_41_split <- cont_42
I1017 23:47:52.834218 29380 net.cpp:380] cont_42_lstm1_cont_slice_41_split -> cont_42_lstm1_cont_slice_41_split_0
I1017 23:47:52.834224 29380 net.cpp:380] cont_42_lstm1_cont_slice_41_split -> cont_42_lstm1_cont_slice_41_split_1
I1017 23:47:52.834254 29380 net.cpp:122] Setting up cont_42_lstm1_cont_slice_41_split
I1017 23:47:52.834260 29380 net.cpp:129] Top shape: 1 5 (5)
I1017 23:47:52.834264 29380 net.cpp:129] Top shape: 1 5 (5)
I1017 23:47:52.834269 29380 net.cpp:137] Memory required for data: 798320
I1017 23:47:52.834272 29380 layer_factory.hpp:77] Creating layer cont_43_lstm1_cont_slice_42_split
I1017 23:47:52.834277 29380 net.cpp:84] Creating Layer cont_43_lstm1_cont_slice_42_split
I1017 23:47:52.834281 29380 net.cpp:406] cont_43_lstm1_cont_slice_42_split <- cont_43
I1017 23:47:52.834287 29380 net.cpp:380] cont_43_lstm1_cont_slice_42_split -> cont_43_lstm1_cont_slice_42_split_0
I1017 23:47:52.834295 29380 net.cpp:380] cont_43_lstm1_cont_slice_42_split -> cont_43_lstm1_cont_slice_42_split_1
I1017 23:47:52.834324 29380 net.cpp:122] Setting up cont_43_lstm1_cont_slice_42_split
I1017 23:47:52.834329 29380 net.cpp:129] Top shape: 1 5 (5)
I1017 23:47:52.834334 29380 net.cpp:129] Top shape: 1 5 (5)
I1017 23:47:52.834338 29380 net.cpp:137] Memory required for data: 798360
I1017 23:47:52.834342 29380 layer_factory.hpp:77] Creating layer cont_44_lstm1_cont_slice_43_split
I1017 23:47:52.834347 29380 net.cpp:84] Creating Layer cont_44_lstm1_cont_slice_43_split
I1017 23:47:52.834352 29380 net.cpp:406] cont_44_lstm1_cont_slice_43_split <- cont_44
I1017 23:47:52.834359 29380 net.cpp:380] cont_44_lstm1_cont_slice_43_split -> cont_44_lstm1_cont_slice_43_split_0
I1017 23:47:52.834365 29380 net.cpp:380] cont_44_lstm1_cont_slice_43_split -> cont_44_lstm1_cont_slice_43_split_1
I1017 23:47:52.834394 29380 net.cpp:122] Setting up cont_44_lstm1_cont_slice_43_split
I1017 23:47:52.834400 29380 net.cpp:129] Top shape: 1 5 (5)
I1017 23:47:52.834404 29380 net.cpp:129] Top shape: 1 5 (5)
I1017 23:47:52.834408 29380 net.cpp:137] Memory required for data: 798400
I1017 23:47:52.834412 29380 layer_factory.hpp:77] Creating layer cont_45_lstm1_cont_slice_44_split
I1017 23:47:52.834419 29380 net.cpp:84] Creating Layer cont_45_lstm1_cont_slice_44_split
I1017 23:47:52.834424 29380 net.cpp:406] cont_45_lstm1_cont_slice_44_split <- cont_45
I1017 23:47:52.834429 29380 net.cpp:380] cont_45_lstm1_cont_slice_44_split -> cont_45_lstm1_cont_slice_44_split_0
I1017 23:47:52.834435 29380 net.cpp:380] cont_45_lstm1_cont_slice_44_split -> cont_45_lstm1_cont_slice_44_split_1
I1017 23:47:52.834465 29380 net.cpp:122] Setting up cont_45_lstm1_cont_slice_44_split
I1017 23:47:52.834471 29380 net.cpp:129] Top shape: 1 5 (5)
I1017 23:47:52.834475 29380 net.cpp:129] Top shape: 1 5 (5)
I1017 23:47:52.834480 29380 net.cpp:137] Memory required for data: 798440
I1017 23:47:52.834483 29380 layer_factory.hpp:77] Creating layer cont_46_lstm1_cont_slice_45_split
I1017 23:47:52.834488 29380 net.cpp:84] Creating Layer cont_46_lstm1_cont_slice_45_split
I1017 23:47:52.834492 29380 net.cpp:406] cont_46_lstm1_cont_slice_45_split <- cont_46
I1017 23:47:52.834498 29380 net.cpp:380] cont_46_lstm1_cont_slice_45_split -> cont_46_lstm1_cont_slice_45_split_0
I1017 23:47:52.834504 29380 net.cpp:380] cont_46_lstm1_cont_slice_45_split -> cont_46_lstm1_cont_slice_45_split_1
I1017 23:47:52.834533 29380 net.cpp:122] Setting up cont_46_lstm1_cont_slice_45_split
I1017 23:47:52.834539 29380 net.cpp:129] Top shape: 1 5 (5)
I1017 23:47:52.834544 29380 net.cpp:129] Top shape: 1 5 (5)
I1017 23:47:52.834548 29380 net.cpp:137] Memory required for data: 798480
I1017 23:47:52.834553 29380 layer_factory.hpp:77] Creating layer cont_47_lstm1_cont_slice_46_split
I1017 23:47:52.834558 29380 net.cpp:84] Creating Layer cont_47_lstm1_cont_slice_46_split
I1017 23:47:52.834561 29380 net.cpp:406] cont_47_lstm1_cont_slice_46_split <- cont_47
I1017 23:47:52.834566 29380 net.cpp:380] cont_47_lstm1_cont_slice_46_split -> cont_47_lstm1_cont_slice_46_split_0
I1017 23:47:52.834578 29380 net.cpp:380] cont_47_lstm1_cont_slice_46_split -> cont_47_lstm1_cont_slice_46_split_1
I1017 23:47:52.834605 29380 net.cpp:122] Setting up cont_47_lstm1_cont_slice_46_split
I1017 23:47:52.834611 29380 net.cpp:129] Top shape: 1 5 (5)
I1017 23:47:52.834615 29380 net.cpp:129] Top shape: 1 5 (5)
I1017 23:47:52.834619 29380 net.cpp:137] Memory required for data: 798520
I1017 23:47:52.834623 29380 layer_factory.hpp:77] Creating layer cont_48_lstm1_cont_slice_47_split
I1017 23:47:52.834630 29380 net.cpp:84] Creating Layer cont_48_lstm1_cont_slice_47_split
I1017 23:47:52.834635 29380 net.cpp:406] cont_48_lstm1_cont_slice_47_split <- cont_48
I1017 23:47:52.834640 29380 net.cpp:380] cont_48_lstm1_cont_slice_47_split -> cont_48_lstm1_cont_slice_47_split_0
I1017 23:47:52.834647 29380 net.cpp:380] cont_48_lstm1_cont_slice_47_split -> cont_48_lstm1_cont_slice_47_split_1
I1017 23:47:52.834678 29380 net.cpp:122] Setting up cont_48_lstm1_cont_slice_47_split
I1017 23:47:52.834684 29380 net.cpp:129] Top shape: 1 5 (5)
I1017 23:47:52.834688 29380 net.cpp:129] Top shape: 1 5 (5)
I1017 23:47:52.834692 29380 net.cpp:137] Memory required for data: 798560
I1017 23:47:52.834697 29380 layer_factory.hpp:77] Creating layer cont_49_lstm1_cont_slice_48_split
I1017 23:47:52.834702 29380 net.cpp:84] Creating Layer cont_49_lstm1_cont_slice_48_split
I1017 23:47:52.834705 29380 net.cpp:406] cont_49_lstm1_cont_slice_48_split <- cont_49
I1017 23:47:52.834712 29380 net.cpp:380] cont_49_lstm1_cont_slice_48_split -> cont_49_lstm1_cont_slice_48_split_0
I1017 23:47:52.834717 29380 net.cpp:380] cont_49_lstm1_cont_slice_48_split -> cont_49_lstm1_cont_slice_48_split_1
I1017 23:47:52.834748 29380 net.cpp:122] Setting up cont_49_lstm1_cont_slice_48_split
I1017 23:47:52.834753 29380 net.cpp:129] Top shape: 1 5 (5)
I1017 23:47:52.834758 29380 net.cpp:129] Top shape: 1 5 (5)
I1017 23:47:52.834761 29380 net.cpp:137] Memory required for data: 798600
I1017 23:47:52.834765 29380 layer_factory.hpp:77] Creating layer cont_50_lstm1_cont_slice_49_split
I1017 23:47:52.834770 29380 net.cpp:84] Creating Layer cont_50_lstm1_cont_slice_49_split
I1017 23:47:52.834775 29380 net.cpp:406] cont_50_lstm1_cont_slice_49_split <- cont_50
I1017 23:47:52.834780 29380 net.cpp:380] cont_50_lstm1_cont_slice_49_split -> cont_50_lstm1_cont_slice_49_split_0
I1017 23:47:52.834787 29380 net.cpp:380] cont_50_lstm1_cont_slice_49_split -> cont_50_lstm1_cont_slice_49_split_1
I1017 23:47:52.834816 29380 net.cpp:122] Setting up cont_50_lstm1_cont_slice_49_split
I1017 23:47:52.834822 29380 net.cpp:129] Top shape: 1 5 (5)
I1017 23:47:52.834827 29380 net.cpp:129] Top shape: 1 5 (5)
I1017 23:47:52.834830 29380 net.cpp:137] Memory required for data: 798640
I1017 23:47:52.834834 29380 layer_factory.hpp:77] Creating layer cont_51_lstm1_cont_slice_50_split
I1017 23:47:52.834841 29380 net.cpp:84] Creating Layer cont_51_lstm1_cont_slice_50_split
I1017 23:47:52.834844 29380 net.cpp:406] cont_51_lstm1_cont_slice_50_split <- cont_51
I1017 23:47:52.834852 29380 net.cpp:380] cont_51_lstm1_cont_slice_50_split -> cont_51_lstm1_cont_slice_50_split_0
I1017 23:47:52.834858 29380 net.cpp:380] cont_51_lstm1_cont_slice_50_split -> cont_51_lstm1_cont_slice_50_split_1
I1017 23:47:52.834887 29380 net.cpp:122] Setting up cont_51_lstm1_cont_slice_50_split
I1017 23:47:52.834892 29380 net.cpp:129] Top shape: 1 5 (5)
I1017 23:47:52.834897 29380 net.cpp:129] Top shape: 1 5 (5)
I1017 23:47:52.834902 29380 net.cpp:137] Memory required for data: 798680
I1017 23:47:52.834905 29380 layer_factory.hpp:77] Creating layer cont_52_lstm1_cont_slice_51_split
I1017 23:47:52.834913 29380 net.cpp:84] Creating Layer cont_52_lstm1_cont_slice_51_split
I1017 23:47:52.834916 29380 net.cpp:406] cont_52_lstm1_cont_slice_51_split <- cont_52
I1017 23:47:52.834923 29380 net.cpp:380] cont_52_lstm1_cont_slice_51_split -> cont_52_lstm1_cont_slice_51_split_0
I1017 23:47:52.834928 29380 net.cpp:380] cont_52_lstm1_cont_slice_51_split -> cont_52_lstm1_cont_slice_51_split_1
I1017 23:47:52.834957 29380 net.cpp:122] Setting up cont_52_lstm1_cont_slice_51_split
I1017 23:47:52.834964 29380 net.cpp:129] Top shape: 1 5 (5)
I1017 23:47:52.834969 29380 net.cpp:129] Top shape: 1 5 (5)
I1017 23:47:52.834972 29380 net.cpp:137] Memory required for data: 798720
I1017 23:47:52.834976 29380 layer_factory.hpp:77] Creating layer cont_53_lstm1_cont_slice_52_split
I1017 23:47:52.834981 29380 net.cpp:84] Creating Layer cont_53_lstm1_cont_slice_52_split
I1017 23:47:52.834985 29380 net.cpp:406] cont_53_lstm1_cont_slice_52_split <- cont_53
I1017 23:47:52.834991 29380 net.cpp:380] cont_53_lstm1_cont_slice_52_split -> cont_53_lstm1_cont_slice_52_split_0
I1017 23:47:52.834997 29380 net.cpp:380] cont_53_lstm1_cont_slice_52_split -> cont_53_lstm1_cont_slice_52_split_1
I1017 23:47:52.835027 29380 net.cpp:122] Setting up cont_53_lstm1_cont_slice_52_split
I1017 23:47:52.835032 29380 net.cpp:129] Top shape: 1 5 (5)
I1017 23:47:52.835037 29380 net.cpp:129] Top shape: 1 5 (5)
I1017 23:47:52.835041 29380 net.cpp:137] Memory required for data: 798760
I1017 23:47:52.835045 29380 layer_factory.hpp:77] Creating layer cont_54_lstm1_cont_slice_53_split
I1017 23:47:52.835050 29380 net.cpp:84] Creating Layer cont_54_lstm1_cont_slice_53_split
I1017 23:47:52.835055 29380 net.cpp:406] cont_54_lstm1_cont_slice_53_split <- cont_54
I1017 23:47:52.835060 29380 net.cpp:380] cont_54_lstm1_cont_slice_53_split -> cont_54_lstm1_cont_slice_53_split_0
I1017 23:47:52.835067 29380 net.cpp:380] cont_54_lstm1_cont_slice_53_split -> cont_54_lstm1_cont_slice_53_split_1
I1017 23:47:52.835096 29380 net.cpp:122] Setting up cont_54_lstm1_cont_slice_53_split
I1017 23:47:52.835101 29380 net.cpp:129] Top shape: 1 5 (5)
I1017 23:47:52.835106 29380 net.cpp:129] Top shape: 1 5 (5)
I1017 23:47:52.835110 29380 net.cpp:137] Memory required for data: 798800
I1017 23:47:52.835114 29380 layer_factory.hpp:77] Creating layer cont_55_lstm1_cont_slice_54_split
I1017 23:47:52.835119 29380 net.cpp:84] Creating Layer cont_55_lstm1_cont_slice_54_split
I1017 23:47:52.835124 29380 net.cpp:406] cont_55_lstm1_cont_slice_54_split <- cont_55
I1017 23:47:52.835130 29380 net.cpp:380] cont_55_lstm1_cont_slice_54_split -> cont_55_lstm1_cont_slice_54_split_0
I1017 23:47:52.835137 29380 net.cpp:380] cont_55_lstm1_cont_slice_54_split -> cont_55_lstm1_cont_slice_54_split_1
I1017 23:47:52.835167 29380 net.cpp:122] Setting up cont_55_lstm1_cont_slice_54_split
I1017 23:47:52.835173 29380 net.cpp:129] Top shape: 1 5 (5)
I1017 23:47:52.835177 29380 net.cpp:129] Top shape: 1 5 (5)
I1017 23:47:52.835181 29380 net.cpp:137] Memory required for data: 798840
I1017 23:47:52.835186 29380 layer_factory.hpp:77] Creating layer cont_56_lstm1_cont_slice_55_split
I1017 23:47:52.835191 29380 net.cpp:84] Creating Layer cont_56_lstm1_cont_slice_55_split
I1017 23:47:52.835194 29380 net.cpp:406] cont_56_lstm1_cont_slice_55_split <- cont_56
I1017 23:47:52.835201 29380 net.cpp:380] cont_56_lstm1_cont_slice_55_split -> cont_56_lstm1_cont_slice_55_split_0
I1017 23:47:52.835206 29380 net.cpp:380] cont_56_lstm1_cont_slice_55_split -> cont_56_lstm1_cont_slice_55_split_1
I1017 23:47:52.835237 29380 net.cpp:122] Setting up cont_56_lstm1_cont_slice_55_split
I1017 23:47:52.835242 29380 net.cpp:129] Top shape: 1 5 (5)
I1017 23:47:52.835247 29380 net.cpp:129] Top shape: 1 5 (5)
I1017 23:47:52.835250 29380 net.cpp:137] Memory required for data: 798880
I1017 23:47:52.835254 29380 layer_factory.hpp:77] Creating layer cont_57_lstm1_cont_slice_56_split
I1017 23:47:52.835261 29380 net.cpp:84] Creating Layer cont_57_lstm1_cont_slice_56_split
I1017 23:47:52.835265 29380 net.cpp:406] cont_57_lstm1_cont_slice_56_split <- cont_57
I1017 23:47:52.835271 29380 net.cpp:380] cont_57_lstm1_cont_slice_56_split -> cont_57_lstm1_cont_slice_56_split_0
I1017 23:47:52.835278 29380 net.cpp:380] cont_57_lstm1_cont_slice_56_split -> cont_57_lstm1_cont_slice_56_split_1
I1017 23:47:52.835307 29380 net.cpp:122] Setting up cont_57_lstm1_cont_slice_56_split
I1017 23:47:52.835314 29380 net.cpp:129] Top shape: 1 5 (5)
I1017 23:47:52.835317 29380 net.cpp:129] Top shape: 1 5 (5)
I1017 23:47:52.835321 29380 net.cpp:137] Memory required for data: 798920
I1017 23:47:52.835325 29380 layer_factory.hpp:77] Creating layer cont_58_lstm1_cont_slice_57_split
I1017 23:47:52.835330 29380 net.cpp:84] Creating Layer cont_58_lstm1_cont_slice_57_split
I1017 23:47:52.835335 29380 net.cpp:406] cont_58_lstm1_cont_slice_57_split <- cont_58
I1017 23:47:52.835342 29380 net.cpp:380] cont_58_lstm1_cont_slice_57_split -> cont_58_lstm1_cont_slice_57_split_0
I1017 23:47:52.835348 29380 net.cpp:380] cont_58_lstm1_cont_slice_57_split -> cont_58_lstm1_cont_slice_57_split_1
I1017 23:47:52.835376 29380 net.cpp:122] Setting up cont_58_lstm1_cont_slice_57_split
I1017 23:47:52.835381 29380 net.cpp:129] Top shape: 1 5 (5)
I1017 23:47:52.835386 29380 net.cpp:129] Top shape: 1 5 (5)
I1017 23:47:52.835391 29380 net.cpp:137] Memory required for data: 798960
I1017 23:47:52.835394 29380 layer_factory.hpp:77] Creating layer cont_59_lstm1_cont_slice_58_split
I1017 23:47:52.835400 29380 net.cpp:84] Creating Layer cont_59_lstm1_cont_slice_58_split
I1017 23:47:52.835405 29380 net.cpp:406] cont_59_lstm1_cont_slice_58_split <- cont_59
I1017 23:47:52.835410 29380 net.cpp:380] cont_59_lstm1_cont_slice_58_split -> cont_59_lstm1_cont_slice_58_split_0
I1017 23:47:52.835417 29380 net.cpp:380] cont_59_lstm1_cont_slice_58_split -> cont_59_lstm1_cont_slice_58_split_1
I1017 23:47:52.835448 29380 net.cpp:122] Setting up cont_59_lstm1_cont_slice_58_split
I1017 23:47:52.835453 29380 net.cpp:129] Top shape: 1 5 (5)
I1017 23:47:52.835458 29380 net.cpp:129] Top shape: 1 5 (5)
I1017 23:47:52.835463 29380 net.cpp:137] Memory required for data: 799000
I1017 23:47:52.835466 29380 layer_factory.hpp:77] Creating layer cont_60_lstm1_cont_slice_59_split
I1017 23:47:52.835471 29380 net.cpp:84] Creating Layer cont_60_lstm1_cont_slice_59_split
I1017 23:47:52.835480 29380 net.cpp:406] cont_60_lstm1_cont_slice_59_split <- cont_60
I1017 23:47:52.835485 29380 net.cpp:380] cont_60_lstm1_cont_slice_59_split -> cont_60_lstm1_cont_slice_59_split_0
I1017 23:47:52.835492 29380 net.cpp:380] cont_60_lstm1_cont_slice_59_split -> cont_60_lstm1_cont_slice_59_split_1
I1017 23:47:52.835521 29380 net.cpp:122] Setting up cont_60_lstm1_cont_slice_59_split
I1017 23:47:52.835527 29380 net.cpp:129] Top shape: 1 5 (5)
I1017 23:47:52.835532 29380 net.cpp:129] Top shape: 1 5 (5)
I1017 23:47:52.835536 29380 net.cpp:137] Memory required for data: 799040
I1017 23:47:52.835541 29380 layer_factory.hpp:77] Creating layer cont_61_lstm1_cont_slice_60_split
I1017 23:47:52.835546 29380 net.cpp:84] Creating Layer cont_61_lstm1_cont_slice_60_split
I1017 23:47:52.835549 29380 net.cpp:406] cont_61_lstm1_cont_slice_60_split <- cont_61
I1017 23:47:52.835556 29380 net.cpp:380] cont_61_lstm1_cont_slice_60_split -> cont_61_lstm1_cont_slice_60_split_0
I1017 23:47:52.835561 29380 net.cpp:380] cont_61_lstm1_cont_slice_60_split -> cont_61_lstm1_cont_slice_60_split_1
I1017 23:47:52.835590 29380 net.cpp:122] Setting up cont_61_lstm1_cont_slice_60_split
I1017 23:47:52.835597 29380 net.cpp:129] Top shape: 1 5 (5)
I1017 23:47:52.835602 29380 net.cpp:129] Top shape: 1 5 (5)
I1017 23:47:52.835604 29380 net.cpp:137] Memory required for data: 799080
I1017 23:47:52.835609 29380 layer_factory.hpp:77] Creating layer cont_62_lstm1_cont_slice_61_split
I1017 23:47:52.835619 29380 net.cpp:84] Creating Layer cont_62_lstm1_cont_slice_61_split
I1017 23:47:52.835624 29380 net.cpp:406] cont_62_lstm1_cont_slice_61_split <- cont_62
I1017 23:47:52.835630 29380 net.cpp:380] cont_62_lstm1_cont_slice_61_split -> cont_62_lstm1_cont_slice_61_split_0
I1017 23:47:52.835638 29380 net.cpp:380] cont_62_lstm1_cont_slice_61_split -> cont_62_lstm1_cont_slice_61_split_1
I1017 23:47:52.835667 29380 net.cpp:122] Setting up cont_62_lstm1_cont_slice_61_split
I1017 23:47:52.835674 29380 net.cpp:129] Top shape: 1 5 (5)
I1017 23:47:52.835678 29380 net.cpp:129] Top shape: 1 5 (5)
I1017 23:47:52.835681 29380 net.cpp:137] Memory required for data: 799120
I1017 23:47:52.835686 29380 layer_factory.hpp:77] Creating layer cont_63_lstm1_cont_slice_62_split
I1017 23:47:52.835691 29380 net.cpp:84] Creating Layer cont_63_lstm1_cont_slice_62_split
I1017 23:47:52.835695 29380 net.cpp:406] cont_63_lstm1_cont_slice_62_split <- cont_63
I1017 23:47:52.835701 29380 net.cpp:380] cont_63_lstm1_cont_slice_62_split -> cont_63_lstm1_cont_slice_62_split_0
I1017 23:47:52.835708 29380 net.cpp:380] cont_63_lstm1_cont_slice_62_split -> cont_63_lstm1_cont_slice_62_split_1
I1017 23:47:52.835748 29380 net.cpp:122] Setting up cont_63_lstm1_cont_slice_62_split
I1017 23:47:52.835753 29380 net.cpp:129] Top shape: 1 5 (5)
I1017 23:47:52.835758 29380 net.cpp:129] Top shape: 1 5 (5)
I1017 23:47:52.835762 29380 net.cpp:137] Memory required for data: 799160
I1017 23:47:52.835765 29380 layer_factory.hpp:77] Creating layer cont_64_lstm1_cont_slice_63_split
I1017 23:47:52.835772 29380 net.cpp:84] Creating Layer cont_64_lstm1_cont_slice_63_split
I1017 23:47:52.835775 29380 net.cpp:406] cont_64_lstm1_cont_slice_63_split <- cont_64
I1017 23:47:52.835783 29380 net.cpp:380] cont_64_lstm1_cont_slice_63_split -> cont_64_lstm1_cont_slice_63_split_0
I1017 23:47:52.835789 29380 net.cpp:380] cont_64_lstm1_cont_slice_63_split -> cont_64_lstm1_cont_slice_63_split_1
I1017 23:47:52.835816 29380 net.cpp:122] Setting up cont_64_lstm1_cont_slice_63_split
I1017 23:47:52.835821 29380 net.cpp:129] Top shape: 1 5 (5)
I1017 23:47:52.835826 29380 net.cpp:129] Top shape: 1 5 (5)
I1017 23:47:52.835829 29380 net.cpp:137] Memory required for data: 799200
I1017 23:47:52.835834 29380 layer_factory.hpp:77] Creating layer cont_65_lstm1_cont_slice_64_split
I1017 23:47:52.835839 29380 net.cpp:84] Creating Layer cont_65_lstm1_cont_slice_64_split
I1017 23:47:52.835844 29380 net.cpp:406] cont_65_lstm1_cont_slice_64_split <- cont_65
I1017 23:47:52.835850 29380 net.cpp:380] cont_65_lstm1_cont_slice_64_split -> cont_65_lstm1_cont_slice_64_split_0
I1017 23:47:52.835855 29380 net.cpp:380] cont_65_lstm1_cont_slice_64_split -> cont_65_lstm1_cont_slice_64_split_1
I1017 23:47:52.835887 29380 net.cpp:122] Setting up cont_65_lstm1_cont_slice_64_split
I1017 23:47:52.835893 29380 net.cpp:129] Top shape: 1 5 (5)
I1017 23:47:52.835897 29380 net.cpp:129] Top shape: 1 5 (5)
I1017 23:47:52.835901 29380 net.cpp:137] Memory required for data: 799240
I1017 23:47:52.835906 29380 layer_factory.hpp:77] Creating layer cont_66_lstm1_cont_slice_65_split
I1017 23:47:52.835911 29380 net.cpp:84] Creating Layer cont_66_lstm1_cont_slice_65_split
I1017 23:47:52.835914 29380 net.cpp:406] cont_66_lstm1_cont_slice_65_split <- cont_66
I1017 23:47:52.835921 29380 net.cpp:380] cont_66_lstm1_cont_slice_65_split -> cont_66_lstm1_cont_slice_65_split_0
I1017 23:47:52.835927 29380 net.cpp:380] cont_66_lstm1_cont_slice_65_split -> cont_66_lstm1_cont_slice_65_split_1
I1017 23:47:52.835955 29380 net.cpp:122] Setting up cont_66_lstm1_cont_slice_65_split
I1017 23:47:52.835961 29380 net.cpp:129] Top shape: 1 5 (5)
I1017 23:47:52.835965 29380 net.cpp:129] Top shape: 1 5 (5)
I1017 23:47:52.835969 29380 net.cpp:137] Memory required for data: 799280
I1017 23:47:52.835973 29380 layer_factory.hpp:77] Creating layer cont_67_lstm1_cont_slice_66_split
I1017 23:47:52.835978 29380 net.cpp:84] Creating Layer cont_67_lstm1_cont_slice_66_split
I1017 23:47:52.835983 29380 net.cpp:406] cont_67_lstm1_cont_slice_66_split <- cont_67
I1017 23:47:52.835988 29380 net.cpp:380] cont_67_lstm1_cont_slice_66_split -> cont_67_lstm1_cont_slice_66_split_0
I1017 23:47:52.835996 29380 net.cpp:380] cont_67_lstm1_cont_slice_66_split -> cont_67_lstm1_cont_slice_66_split_1
I1017 23:47:52.836024 29380 net.cpp:122] Setting up cont_67_lstm1_cont_slice_66_split
I1017 23:47:52.836056 29380 net.cpp:129] Top shape: 1 5 (5)
I1017 23:47:52.836061 29380 net.cpp:129] Top shape: 1 5 (5)
I1017 23:47:52.836066 29380 net.cpp:137] Memory required for data: 799320
I1017 23:47:52.836069 29380 layer_factory.hpp:77] Creating layer cont_68_lstm1_cont_slice_67_split
I1017 23:47:52.836077 29380 net.cpp:84] Creating Layer cont_68_lstm1_cont_slice_67_split
I1017 23:47:52.836081 29380 net.cpp:406] cont_68_lstm1_cont_slice_67_split <- cont_68
I1017 23:47:52.836087 29380 net.cpp:380] cont_68_lstm1_cont_slice_67_split -> cont_68_lstm1_cont_slice_67_split_0
I1017 23:47:52.836094 29380 net.cpp:380] cont_68_lstm1_cont_slice_67_split -> cont_68_lstm1_cont_slice_67_split_1
I1017 23:47:52.836128 29380 net.cpp:122] Setting up cont_68_lstm1_cont_slice_67_split
I1017 23:47:52.836134 29380 net.cpp:129] Top shape: 1 5 (5)
I1017 23:47:52.836139 29380 net.cpp:129] Top shape: 1 5 (5)
I1017 23:47:52.836143 29380 net.cpp:137] Memory required for data: 799360
I1017 23:47:52.836146 29380 layer_factory.hpp:77] Creating layer cont_69_lstm1_cont_slice_68_split
I1017 23:47:52.836151 29380 net.cpp:84] Creating Layer cont_69_lstm1_cont_slice_68_split
I1017 23:47:52.836156 29380 net.cpp:406] cont_69_lstm1_cont_slice_68_split <- cont_69
I1017 23:47:52.836161 29380 net.cpp:380] cont_69_lstm1_cont_slice_68_split -> cont_69_lstm1_cont_slice_68_split_0
I1017 23:47:52.836169 29380 net.cpp:380] cont_69_lstm1_cont_slice_68_split -> cont_69_lstm1_cont_slice_68_split_1
I1017 23:47:52.836199 29380 net.cpp:122] Setting up cont_69_lstm1_cont_slice_68_split
I1017 23:47:52.836205 29380 net.cpp:129] Top shape: 1 5 (5)
I1017 23:47:52.836210 29380 net.cpp:129] Top shape: 1 5 (5)
I1017 23:47:52.836212 29380 net.cpp:137] Memory required for data: 799400
I1017 23:47:52.836216 29380 layer_factory.hpp:77] Creating layer cont_70_lstm1_cont_slice_69_split
I1017 23:47:52.836221 29380 net.cpp:84] Creating Layer cont_70_lstm1_cont_slice_69_split
I1017 23:47:52.836225 29380 net.cpp:406] cont_70_lstm1_cont_slice_69_split <- cont_70
I1017 23:47:52.836231 29380 net.cpp:380] cont_70_lstm1_cont_slice_69_split -> cont_70_lstm1_cont_slice_69_split_0
I1017 23:47:52.836238 29380 net.cpp:380] cont_70_lstm1_cont_slice_69_split -> cont_70_lstm1_cont_slice_69_split_1
I1017 23:47:52.836269 29380 net.cpp:122] Setting up cont_70_lstm1_cont_slice_69_split
I1017 23:47:52.836275 29380 net.cpp:129] Top shape: 1 5 (5)
I1017 23:47:52.836280 29380 net.cpp:129] Top shape: 1 5 (5)
I1017 23:47:52.836283 29380 net.cpp:137] Memory required for data: 799440
I1017 23:47:52.836287 29380 layer_factory.hpp:77] Creating layer cont_71_lstm1_cont_slice_70_split
I1017 23:47:52.836292 29380 net.cpp:84] Creating Layer cont_71_lstm1_cont_slice_70_split
I1017 23:47:52.836297 29380 net.cpp:406] cont_71_lstm1_cont_slice_70_split <- cont_71
I1017 23:47:52.836307 29380 net.cpp:380] cont_71_lstm1_cont_slice_70_split -> cont_71_lstm1_cont_slice_70_split_0
I1017 23:47:52.836313 29380 net.cpp:380] cont_71_lstm1_cont_slice_70_split -> cont_71_lstm1_cont_slice_70_split_1
I1017 23:47:52.836343 29380 net.cpp:122] Setting up cont_71_lstm1_cont_slice_70_split
I1017 23:47:52.836349 29380 net.cpp:129] Top shape: 1 5 (5)
I1017 23:47:52.836354 29380 net.cpp:129] Top shape: 1 5 (5)
I1017 23:47:52.836357 29380 net.cpp:137] Memory required for data: 799480
I1017 23:47:52.836361 29380 layer_factory.hpp:77] Creating layer cont_72_lstm1_cont_slice_71_split
I1017 23:47:52.836369 29380 net.cpp:84] Creating Layer cont_72_lstm1_cont_slice_71_split
I1017 23:47:52.836372 29380 net.cpp:406] cont_72_lstm1_cont_slice_71_split <- cont_72
I1017 23:47:52.836377 29380 net.cpp:380] cont_72_lstm1_cont_slice_71_split -> cont_72_lstm1_cont_slice_71_split_0
I1017 23:47:52.836385 29380 net.cpp:380] cont_72_lstm1_cont_slice_71_split -> cont_72_lstm1_cont_slice_71_split_1
I1017 23:47:52.836414 29380 net.cpp:122] Setting up cont_72_lstm1_cont_slice_71_split
I1017 23:47:52.836421 29380 net.cpp:129] Top shape: 1 5 (5)
I1017 23:47:52.836424 29380 net.cpp:129] Top shape: 1 5 (5)
I1017 23:47:52.836428 29380 net.cpp:137] Memory required for data: 799520
I1017 23:47:52.836432 29380 layer_factory.hpp:77] Creating layer cont_73_lstm1_cont_slice_72_split
I1017 23:47:52.836437 29380 net.cpp:84] Creating Layer cont_73_lstm1_cont_slice_72_split
I1017 23:47:52.836441 29380 net.cpp:406] cont_73_lstm1_cont_slice_72_split <- cont_73
I1017 23:47:52.836447 29380 net.cpp:380] cont_73_lstm1_cont_slice_72_split -> cont_73_lstm1_cont_slice_72_split_0
I1017 23:47:52.836454 29380 net.cpp:380] cont_73_lstm1_cont_slice_72_split -> cont_73_lstm1_cont_slice_72_split_1
I1017 23:47:52.836484 29380 net.cpp:122] Setting up cont_73_lstm1_cont_slice_72_split
I1017 23:47:52.836490 29380 net.cpp:129] Top shape: 1 5 (5)
I1017 23:47:52.836495 29380 net.cpp:129] Top shape: 1 5 (5)
I1017 23:47:52.836499 29380 net.cpp:137] Memory required for data: 799560
I1017 23:47:52.836503 29380 layer_factory.hpp:77] Creating layer cont_74_lstm1_cont_slice_73_split
I1017 23:47:52.836508 29380 net.cpp:84] Creating Layer cont_74_lstm1_cont_slice_73_split
I1017 23:47:52.836513 29380 net.cpp:406] cont_74_lstm1_cont_slice_73_split <- cont_74
I1017 23:47:52.836519 29380 net.cpp:380] cont_74_lstm1_cont_slice_73_split -> cont_74_lstm1_cont_slice_73_split_0
I1017 23:47:52.836524 29380 net.cpp:380] cont_74_lstm1_cont_slice_73_split -> cont_74_lstm1_cont_slice_73_split_1
I1017 23:47:52.836555 29380 net.cpp:122] Setting up cont_74_lstm1_cont_slice_73_split
I1017 23:47:52.836560 29380 net.cpp:129] Top shape: 1 5 (5)
I1017 23:47:52.836565 29380 net.cpp:129] Top shape: 1 5 (5)
I1017 23:47:52.836568 29380 net.cpp:137] Memory required for data: 799600
I1017 23:47:52.836572 29380 layer_factory.hpp:77] Creating layer cont_75_lstm1_cont_slice_74_split
I1017 23:47:52.836578 29380 net.cpp:84] Creating Layer cont_75_lstm1_cont_slice_74_split
I1017 23:47:52.836582 29380 net.cpp:406] cont_75_lstm1_cont_slice_74_split <- cont_75
I1017 23:47:52.836591 29380 net.cpp:380] cont_75_lstm1_cont_slice_74_split -> cont_75_lstm1_cont_slice_74_split_0
I1017 23:47:52.836596 29380 net.cpp:380] cont_75_lstm1_cont_slice_74_split -> cont_75_lstm1_cont_slice_74_split_1
I1017 23:47:52.836627 29380 net.cpp:122] Setting up cont_75_lstm1_cont_slice_74_split
I1017 23:47:52.836632 29380 net.cpp:129] Top shape: 1 5 (5)
I1017 23:47:52.836637 29380 net.cpp:129] Top shape: 1 5 (5)
I1017 23:47:52.836642 29380 net.cpp:137] Memory required for data: 799640
I1017 23:47:52.836645 29380 layer_factory.hpp:77] Creating layer cont_76_lstm1_cont_slice_75_split
I1017 23:47:52.836650 29380 net.cpp:84] Creating Layer cont_76_lstm1_cont_slice_75_split
I1017 23:47:52.836655 29380 net.cpp:406] cont_76_lstm1_cont_slice_75_split <- cont_76
I1017 23:47:52.836660 29380 net.cpp:380] cont_76_lstm1_cont_slice_75_split -> cont_76_lstm1_cont_slice_75_split_0
I1017 23:47:52.836666 29380 net.cpp:380] cont_76_lstm1_cont_slice_75_split -> cont_76_lstm1_cont_slice_75_split_1
I1017 23:47:52.836697 29380 net.cpp:122] Setting up cont_76_lstm1_cont_slice_75_split
I1017 23:47:52.836704 29380 net.cpp:129] Top shape: 1 5 (5)
I1017 23:47:52.836707 29380 net.cpp:129] Top shape: 1 5 (5)
I1017 23:47:52.836711 29380 net.cpp:137] Memory required for data: 799680
I1017 23:47:52.836715 29380 layer_factory.hpp:77] Creating layer cont_77_lstm1_cont_slice_76_split
I1017 23:47:52.836731 29380 net.cpp:84] Creating Layer cont_77_lstm1_cont_slice_76_split
I1017 23:47:52.836735 29380 net.cpp:406] cont_77_lstm1_cont_slice_76_split <- cont_77
I1017 23:47:52.836740 29380 net.cpp:380] cont_77_lstm1_cont_slice_76_split -> cont_77_lstm1_cont_slice_76_split_0
I1017 23:47:52.836747 29380 net.cpp:380] cont_77_lstm1_cont_slice_76_split -> cont_77_lstm1_cont_slice_76_split_1
I1017 23:47:52.836776 29380 net.cpp:122] Setting up cont_77_lstm1_cont_slice_76_split
I1017 23:47:52.836782 29380 net.cpp:129] Top shape: 1 5 (5)
I1017 23:47:52.836787 29380 net.cpp:129] Top shape: 1 5 (5)
I1017 23:47:52.836791 29380 net.cpp:137] Memory required for data: 799720
I1017 23:47:52.836794 29380 layer_factory.hpp:77] Creating layer cont_78_lstm1_cont_slice_77_split
I1017 23:47:52.836799 29380 net.cpp:84] Creating Layer cont_78_lstm1_cont_slice_77_split
I1017 23:47:52.836803 29380 net.cpp:406] cont_78_lstm1_cont_slice_77_split <- cont_78
I1017 23:47:52.836810 29380 net.cpp:380] cont_78_lstm1_cont_slice_77_split -> cont_78_lstm1_cont_slice_77_split_0
I1017 23:47:52.836817 29380 net.cpp:380] cont_78_lstm1_cont_slice_77_split -> cont_78_lstm1_cont_slice_77_split_1
I1017 23:47:52.836844 29380 net.cpp:122] Setting up cont_78_lstm1_cont_slice_77_split
I1017 23:47:52.836849 29380 net.cpp:129] Top shape: 1 5 (5)
I1017 23:47:52.836854 29380 net.cpp:129] Top shape: 1 5 (5)
I1017 23:47:52.836858 29380 net.cpp:137] Memory required for data: 799760
I1017 23:47:52.836861 29380 layer_factory.hpp:77] Creating layer cont_79_lstm1_cont_slice_78_split
I1017 23:47:52.836869 29380 net.cpp:84] Creating Layer cont_79_lstm1_cont_slice_78_split
I1017 23:47:52.836872 29380 net.cpp:406] cont_79_lstm1_cont_slice_78_split <- cont_79
I1017 23:47:52.836879 29380 net.cpp:380] cont_79_lstm1_cont_slice_78_split -> cont_79_lstm1_cont_slice_78_split_0
I1017 23:47:52.836884 29380 net.cpp:380] cont_79_lstm1_cont_slice_78_split -> cont_79_lstm1_cont_slice_78_split_1
I1017 23:47:52.836913 29380 net.cpp:122] Setting up cont_79_lstm1_cont_slice_78_split
I1017 23:47:52.836920 29380 net.cpp:129] Top shape: 1 5 (5)
I1017 23:47:52.836923 29380 net.cpp:129] Top shape: 1 5 (5)
I1017 23:47:52.836927 29380 net.cpp:137] Memory required for data: 799800
I1017 23:47:52.836931 29380 layer_factory.hpp:77] Creating layer cont_80_lstm1_cont_slice_79_split
I1017 23:47:52.836936 29380 net.cpp:84] Creating Layer cont_80_lstm1_cont_slice_79_split
I1017 23:47:52.836941 29380 net.cpp:406] cont_80_lstm1_cont_slice_79_split <- cont_80
I1017 23:47:52.836946 29380 net.cpp:380] cont_80_lstm1_cont_slice_79_split -> cont_80_lstm1_cont_slice_79_split_0
I1017 23:47:52.836952 29380 net.cpp:380] cont_80_lstm1_cont_slice_79_split -> cont_80_lstm1_cont_slice_79_split_1
I1017 23:47:52.836982 29380 net.cpp:122] Setting up cont_80_lstm1_cont_slice_79_split
I1017 23:47:52.836987 29380 net.cpp:129] Top shape: 1 5 (5)
I1017 23:47:52.836992 29380 net.cpp:129] Top shape: 1 5 (5)
I1017 23:47:52.836995 29380 net.cpp:137] Memory required for data: 799840
I1017 23:47:52.836998 29380 layer_factory.hpp:77] Creating layer cont_81_lstm1_cont_slice_80_split
I1017 23:47:52.837004 29380 net.cpp:84] Creating Layer cont_81_lstm1_cont_slice_80_split
I1017 23:47:52.837008 29380 net.cpp:406] cont_81_lstm1_cont_slice_80_split <- cont_81
I1017 23:47:52.837013 29380 net.cpp:380] cont_81_lstm1_cont_slice_80_split -> cont_81_lstm1_cont_slice_80_split_0
I1017 23:47:52.837019 29380 net.cpp:380] cont_81_lstm1_cont_slice_80_split -> cont_81_lstm1_cont_slice_80_split_1
I1017 23:47:52.837049 29380 net.cpp:122] Setting up cont_81_lstm1_cont_slice_80_split
I1017 23:47:52.837055 29380 net.cpp:129] Top shape: 1 5 (5)
I1017 23:47:52.837059 29380 net.cpp:129] Top shape: 1 5 (5)
I1017 23:47:52.837064 29380 net.cpp:137] Memory required for data: 799880
I1017 23:47:52.837066 29380 layer_factory.hpp:77] Creating layer cont_82_lstm1_cont_slice_81_split
I1017 23:47:52.837071 29380 net.cpp:84] Creating Layer cont_82_lstm1_cont_slice_81_split
I1017 23:47:52.837075 29380 net.cpp:406] cont_82_lstm1_cont_slice_81_split <- cont_82
I1017 23:47:52.837093 29380 net.cpp:380] cont_82_lstm1_cont_slice_81_split -> cont_82_lstm1_cont_slice_81_split_0
I1017 23:47:52.837100 29380 net.cpp:380] cont_82_lstm1_cont_slice_81_split -> cont_82_lstm1_cont_slice_81_split_1
I1017 23:47:52.837128 29380 net.cpp:122] Setting up cont_82_lstm1_cont_slice_81_split
I1017 23:47:52.837133 29380 net.cpp:129] Top shape: 1 5 (5)
I1017 23:47:52.837138 29380 net.cpp:129] Top shape: 1 5 (5)
I1017 23:47:52.837142 29380 net.cpp:137] Memory required for data: 799920
I1017 23:47:52.837146 29380 layer_factory.hpp:77] Creating layer cont_83_lstm1_cont_slice_82_split
I1017 23:47:52.837153 29380 net.cpp:84] Creating Layer cont_83_lstm1_cont_slice_82_split
I1017 23:47:52.837157 29380 net.cpp:406] cont_83_lstm1_cont_slice_82_split <- cont_83
I1017 23:47:52.837163 29380 net.cpp:380] cont_83_lstm1_cont_slice_82_split -> cont_83_lstm1_cont_slice_82_split_0
I1017 23:47:52.837170 29380 net.cpp:380] cont_83_lstm1_cont_slice_82_split -> cont_83_lstm1_cont_slice_82_split_1
I1017 23:47:52.837199 29380 net.cpp:122] Setting up cont_83_lstm1_cont_slice_82_split
I1017 23:47:52.837205 29380 net.cpp:129] Top shape: 1 5 (5)
I1017 23:47:52.837210 29380 net.cpp:129] Top shape: 1 5 (5)
I1017 23:47:52.837213 29380 net.cpp:137] Memory required for data: 799960
I1017 23:47:52.837218 29380 layer_factory.hpp:77] Creating layer cont_84_lstm1_cont_slice_83_split
I1017 23:47:52.837224 29380 net.cpp:84] Creating Layer cont_84_lstm1_cont_slice_83_split
I1017 23:47:52.837227 29380 net.cpp:406] cont_84_lstm1_cont_slice_83_split <- cont_84
I1017 23:47:52.837232 29380 net.cpp:380] cont_84_lstm1_cont_slice_83_split -> cont_84_lstm1_cont_slice_83_split_0
I1017 23:47:52.837239 29380 net.cpp:380] cont_84_lstm1_cont_slice_83_split -> cont_84_lstm1_cont_slice_83_split_1
I1017 23:47:52.837270 29380 net.cpp:122] Setting up cont_84_lstm1_cont_slice_83_split
I1017 23:47:52.837275 29380 net.cpp:129] Top shape: 1 5 (5)
I1017 23:47:52.837280 29380 net.cpp:129] Top shape: 1 5 (5)
I1017 23:47:52.837283 29380 net.cpp:137] Memory required for data: 800000
I1017 23:47:52.837287 29380 layer_factory.hpp:77] Creating layer cont_85_lstm1_cont_slice_84_split
I1017 23:47:52.837292 29380 net.cpp:84] Creating Layer cont_85_lstm1_cont_slice_84_split
I1017 23:47:52.837296 29380 net.cpp:406] cont_85_lstm1_cont_slice_84_split <- cont_85
I1017 23:47:52.837303 29380 net.cpp:380] cont_85_lstm1_cont_slice_84_split -> cont_85_lstm1_cont_slice_84_split_0
I1017 23:47:52.837311 29380 net.cpp:380] cont_85_lstm1_cont_slice_84_split -> cont_85_lstm1_cont_slice_84_split_1
I1017 23:47:52.837338 29380 net.cpp:122] Setting up cont_85_lstm1_cont_slice_84_split
I1017 23:47:52.837343 29380 net.cpp:129] Top shape: 1 5 (5)
I1017 23:47:52.837348 29380 net.cpp:129] Top shape: 1 5 (5)
I1017 23:47:52.837352 29380 net.cpp:137] Memory required for data: 800040
I1017 23:47:52.837355 29380 layer_factory.hpp:77] Creating layer cont_86_lstm1_cont_slice_85_split
I1017 23:47:52.837363 29380 net.cpp:84] Creating Layer cont_86_lstm1_cont_slice_85_split
I1017 23:47:52.837368 29380 net.cpp:406] cont_86_lstm1_cont_slice_85_split <- cont_86
I1017 23:47:52.837373 29380 net.cpp:380] cont_86_lstm1_cont_slice_85_split -> cont_86_lstm1_cont_slice_85_split_0
I1017 23:47:52.837379 29380 net.cpp:380] cont_86_lstm1_cont_slice_85_split -> cont_86_lstm1_cont_slice_85_split_1
I1017 23:47:52.837409 29380 net.cpp:122] Setting up cont_86_lstm1_cont_slice_85_split
I1017 23:47:52.837415 29380 net.cpp:129] Top shape: 1 5 (5)
I1017 23:47:52.837419 29380 net.cpp:129] Top shape: 1 5 (5)
I1017 23:47:52.837424 29380 net.cpp:137] Memory required for data: 800080
I1017 23:47:52.837427 29380 layer_factory.hpp:77] Creating layer cont_87_lstm1_cont_slice_86_split
I1017 23:47:52.837432 29380 net.cpp:84] Creating Layer cont_87_lstm1_cont_slice_86_split
I1017 23:47:52.837436 29380 net.cpp:406] cont_87_lstm1_cont_slice_86_split <- cont_87
I1017 23:47:52.837442 29380 net.cpp:380] cont_87_lstm1_cont_slice_86_split -> cont_87_lstm1_cont_slice_86_split_0
I1017 23:47:52.837448 29380 net.cpp:380] cont_87_lstm1_cont_slice_86_split -> cont_87_lstm1_cont_slice_86_split_1
I1017 23:47:52.837477 29380 net.cpp:122] Setting up cont_87_lstm1_cont_slice_86_split
I1017 23:47:52.837483 29380 net.cpp:129] Top shape: 1 5 (5)
I1017 23:47:52.837488 29380 net.cpp:129] Top shape: 1 5 (5)
I1017 23:47:52.837491 29380 net.cpp:137] Memory required for data: 800120
I1017 23:47:52.837496 29380 layer_factory.hpp:77] Creating layer cont_88_lstm1_cont_slice_87_split
I1017 23:47:52.837502 29380 net.cpp:84] Creating Layer cont_88_lstm1_cont_slice_87_split
I1017 23:47:52.837505 29380 net.cpp:406] cont_88_lstm1_cont_slice_87_split <- cont_88
I1017 23:47:52.837512 29380 net.cpp:380] cont_88_lstm1_cont_slice_87_split -> cont_88_lstm1_cont_slice_87_split_0
I1017 23:47:52.837517 29380 net.cpp:380] cont_88_lstm1_cont_slice_87_split -> cont_88_lstm1_cont_slice_87_split_1
I1017 23:47:52.837548 29380 net.cpp:122] Setting up cont_88_lstm1_cont_slice_87_split
I1017 23:47:52.837553 29380 net.cpp:129] Top shape: 1 5 (5)
I1017 23:47:52.837558 29380 net.cpp:129] Top shape: 1 5 (5)
I1017 23:47:52.837561 29380 net.cpp:137] Memory required for data: 800160
I1017 23:47:52.837565 29380 layer_factory.hpp:77] Creating layer cont_89_lstm1_cont_slice_88_split
I1017 23:47:52.837570 29380 net.cpp:84] Creating Layer cont_89_lstm1_cont_slice_88_split
I1017 23:47:52.837574 29380 net.cpp:406] cont_89_lstm1_cont_slice_88_split <- cont_89
I1017 23:47:52.837581 29380 net.cpp:380] cont_89_lstm1_cont_slice_88_split -> cont_89_lstm1_cont_slice_88_split_0
I1017 23:47:52.837589 29380 net.cpp:380] cont_89_lstm1_cont_slice_88_split -> cont_89_lstm1_cont_slice_88_split_1
I1017 23:47:52.837615 29380 net.cpp:122] Setting up cont_89_lstm1_cont_slice_88_split
I1017 23:47:52.837621 29380 net.cpp:129] Top shape: 1 5 (5)
I1017 23:47:52.837625 29380 net.cpp:129] Top shape: 1 5 (5)
I1017 23:47:52.837630 29380 net.cpp:137] Memory required for data: 800200
I1017 23:47:52.837633 29380 layer_factory.hpp:77] Creating layer cont_90_lstm1_cont_slice_89_split
I1017 23:47:52.837641 29380 net.cpp:84] Creating Layer cont_90_lstm1_cont_slice_89_split
I1017 23:47:52.837644 29380 net.cpp:406] cont_90_lstm1_cont_slice_89_split <- cont_90
I1017 23:47:52.837651 29380 net.cpp:380] cont_90_lstm1_cont_slice_89_split -> cont_90_lstm1_cont_slice_89_split_0
I1017 23:47:52.837656 29380 net.cpp:380] cont_90_lstm1_cont_slice_89_split -> cont_90_lstm1_cont_slice_89_split_1
I1017 23:47:52.837687 29380 net.cpp:122] Setting up cont_90_lstm1_cont_slice_89_split
I1017 23:47:52.837692 29380 net.cpp:129] Top shape: 1 5 (5)
I1017 23:47:52.837697 29380 net.cpp:129] Top shape: 1 5 (5)
I1017 23:47:52.837700 29380 net.cpp:137] Memory required for data: 800240
I1017 23:47:52.837704 29380 layer_factory.hpp:77] Creating layer cont_91_lstm1_cont_slice_90_split
I1017 23:47:52.837709 29380 net.cpp:84] Creating Layer cont_91_lstm1_cont_slice_90_split
I1017 23:47:52.837713 29380 net.cpp:406] cont_91_lstm1_cont_slice_90_split <- cont_91
I1017 23:47:52.837719 29380 net.cpp:380] cont_91_lstm1_cont_slice_90_split -> cont_91_lstm1_cont_slice_90_split_0
I1017 23:47:52.837725 29380 net.cpp:380] cont_91_lstm1_cont_slice_90_split -> cont_91_lstm1_cont_slice_90_split_1
I1017 23:47:52.837757 29380 net.cpp:122] Setting up cont_91_lstm1_cont_slice_90_split
I1017 23:47:52.837764 29380 net.cpp:129] Top shape: 1 5 (5)
I1017 23:47:52.837767 29380 net.cpp:129] Top shape: 1 5 (5)
I1017 23:47:52.837774 29380 net.cpp:137] Memory required for data: 800280
I1017 23:47:52.837779 29380 layer_factory.hpp:77] Creating layer cont_92_lstm1_cont_slice_91_split
I1017 23:47:52.837785 29380 net.cpp:84] Creating Layer cont_92_lstm1_cont_slice_91_split
I1017 23:47:52.837788 29380 net.cpp:406] cont_92_lstm1_cont_slice_91_split <- cont_92
I1017 23:47:52.837795 29380 net.cpp:380] cont_92_lstm1_cont_slice_91_split -> cont_92_lstm1_cont_slice_91_split_0
I1017 23:47:52.837803 29380 net.cpp:380] cont_92_lstm1_cont_slice_91_split -> cont_92_lstm1_cont_slice_91_split_1
I1017 23:47:52.837832 29380 net.cpp:122] Setting up cont_92_lstm1_cont_slice_91_split
I1017 23:47:52.837837 29380 net.cpp:129] Top shape: 1 5 (5)
I1017 23:47:52.837842 29380 net.cpp:129] Top shape: 1 5 (5)
I1017 23:47:52.837846 29380 net.cpp:137] Memory required for data: 800320
I1017 23:47:52.837851 29380 layer_factory.hpp:77] Creating layer cont_93_lstm1_cont_slice_92_split
I1017 23:47:52.837857 29380 net.cpp:84] Creating Layer cont_93_lstm1_cont_slice_92_split
I1017 23:47:52.837862 29380 net.cpp:406] cont_93_lstm1_cont_slice_92_split <- cont_93
I1017 23:47:52.837868 29380 net.cpp:380] cont_93_lstm1_cont_slice_92_split -> cont_93_lstm1_cont_slice_92_split_0
I1017 23:47:52.837874 29380 net.cpp:380] cont_93_lstm1_cont_slice_92_split -> cont_93_lstm1_cont_slice_92_split_1
I1017 23:47:52.837904 29380 net.cpp:122] Setting up cont_93_lstm1_cont_slice_92_split
I1017 23:47:52.837920 29380 net.cpp:129] Top shape: 1 5 (5)
I1017 23:47:52.837925 29380 net.cpp:129] Top shape: 1 5 (5)
I1017 23:47:52.837929 29380 net.cpp:137] Memory required for data: 800360
I1017 23:47:52.837932 29380 layer_factory.hpp:77] Creating layer cont_94_lstm1_cont_slice_93_split
I1017 23:47:52.837937 29380 net.cpp:84] Creating Layer cont_94_lstm1_cont_slice_93_split
I1017 23:47:52.837941 29380 net.cpp:406] cont_94_lstm1_cont_slice_93_split <- cont_94
I1017 23:47:52.837946 29380 net.cpp:380] cont_94_lstm1_cont_slice_93_split -> cont_94_lstm1_cont_slice_93_split_0
I1017 23:47:52.837952 29380 net.cpp:380] cont_94_lstm1_cont_slice_93_split -> cont_94_lstm1_cont_slice_93_split_1
I1017 23:47:52.837981 29380 net.cpp:122] Setting up cont_94_lstm1_cont_slice_93_split
I1017 23:47:52.837987 29380 net.cpp:129] Top shape: 1 5 (5)
I1017 23:47:52.837991 29380 net.cpp:129] Top shape: 1 5 (5)
I1017 23:47:52.837996 29380 net.cpp:137] Memory required for data: 800400
I1017 23:47:52.837999 29380 layer_factory.hpp:77] Creating layer cont_95_lstm1_cont_slice_94_split
I1017 23:47:52.838003 29380 net.cpp:84] Creating Layer cont_95_lstm1_cont_slice_94_split
I1017 23:47:52.838007 29380 net.cpp:406] cont_95_lstm1_cont_slice_94_split <- cont_95
I1017 23:47:52.838013 29380 net.cpp:380] cont_95_lstm1_cont_slice_94_split -> cont_95_lstm1_cont_slice_94_split_0
I1017 23:47:52.838019 29380 net.cpp:380] cont_95_lstm1_cont_slice_94_split -> cont_95_lstm1_cont_slice_94_split_1
I1017 23:47:52.838050 29380 net.cpp:122] Setting up cont_95_lstm1_cont_slice_94_split
I1017 23:47:52.838057 29380 net.cpp:129] Top shape: 1 5 (5)
I1017 23:47:52.838060 29380 net.cpp:129] Top shape: 1 5 (5)
I1017 23:47:52.838064 29380 net.cpp:137] Memory required for data: 800440
I1017 23:47:52.838068 29380 layer_factory.hpp:77] Creating layer cont_96_lstm1_cont_slice_95_split
I1017 23:47:52.838073 29380 net.cpp:84] Creating Layer cont_96_lstm1_cont_slice_95_split
I1017 23:47:52.838076 29380 net.cpp:406] cont_96_lstm1_cont_slice_95_split <- cont_96
I1017 23:47:52.838083 29380 net.cpp:380] cont_96_lstm1_cont_slice_95_split -> cont_96_lstm1_cont_slice_95_split_0
I1017 23:47:52.838090 29380 net.cpp:380] cont_96_lstm1_cont_slice_95_split -> cont_96_lstm1_cont_slice_95_split_1
I1017 23:47:52.838117 29380 net.cpp:122] Setting up cont_96_lstm1_cont_slice_95_split
I1017 23:47:52.838124 29380 net.cpp:129] Top shape: 1 5 (5)
I1017 23:47:52.838127 29380 net.cpp:129] Top shape: 1 5 (5)
I1017 23:47:52.838131 29380 net.cpp:137] Memory required for data: 800480
I1017 23:47:52.838135 29380 layer_factory.hpp:77] Creating layer cont_97_lstm1_cont_slice_96_split
I1017 23:47:52.838141 29380 net.cpp:84] Creating Layer cont_97_lstm1_cont_slice_96_split
I1017 23:47:52.838145 29380 net.cpp:406] cont_97_lstm1_cont_slice_96_split <- cont_97
I1017 23:47:52.838151 29380 net.cpp:380] cont_97_lstm1_cont_slice_96_split -> cont_97_lstm1_cont_slice_96_split_0
I1017 23:47:52.838157 29380 net.cpp:380] cont_97_lstm1_cont_slice_96_split -> cont_97_lstm1_cont_slice_96_split_1
I1017 23:47:52.838186 29380 net.cpp:122] Setting up cont_97_lstm1_cont_slice_96_split
I1017 23:47:52.838192 29380 net.cpp:129] Top shape: 1 5 (5)
I1017 23:47:52.838196 29380 net.cpp:129] Top shape: 1 5 (5)
I1017 23:47:52.838201 29380 net.cpp:137] Memory required for data: 800520
I1017 23:47:52.838203 29380 layer_factory.hpp:77] Creating layer cont_98_lstm1_cont_slice_97_split
I1017 23:47:52.838208 29380 net.cpp:84] Creating Layer cont_98_lstm1_cont_slice_97_split
I1017 23:47:52.838212 29380 net.cpp:406] cont_98_lstm1_cont_slice_97_split <- cont_98
I1017 23:47:52.838218 29380 net.cpp:380] cont_98_lstm1_cont_slice_97_split -> cont_98_lstm1_cont_slice_97_split_0
I1017 23:47:52.838225 29380 net.cpp:380] cont_98_lstm1_cont_slice_97_split -> cont_98_lstm1_cont_slice_97_split_1
I1017 23:47:52.838254 29380 net.cpp:122] Setting up cont_98_lstm1_cont_slice_97_split
I1017 23:47:52.838259 29380 net.cpp:129] Top shape: 1 5 (5)
I1017 23:47:52.838264 29380 net.cpp:129] Top shape: 1 5 (5)
I1017 23:47:52.838268 29380 net.cpp:137] Memory required for data: 800560
I1017 23:47:52.838271 29380 layer_factory.hpp:77] Creating layer cont_99_lstm1_cont_slice_98_split
I1017 23:47:52.838276 29380 net.cpp:84] Creating Layer cont_99_lstm1_cont_slice_98_split
I1017 23:47:52.838280 29380 net.cpp:406] cont_99_lstm1_cont_slice_98_split <- cont_99
I1017 23:47:52.838285 29380 net.cpp:380] cont_99_lstm1_cont_slice_98_split -> cont_99_lstm1_cont_slice_98_split_0
I1017 23:47:52.838294 29380 net.cpp:380] cont_99_lstm1_cont_slice_98_split -> cont_99_lstm1_cont_slice_98_split_1
I1017 23:47:52.838320 29380 net.cpp:122] Setting up cont_99_lstm1_cont_slice_98_split
I1017 23:47:52.838326 29380 net.cpp:129] Top shape: 1 5 (5)
I1017 23:47:52.838330 29380 net.cpp:129] Top shape: 1 5 (5)
I1017 23:47:52.838335 29380 net.cpp:137] Memory required for data: 800600
I1017 23:47:52.838338 29380 layer_factory.hpp:77] Creating layer cont_100_lstm1_cont_slice_99_split
I1017 23:47:52.838343 29380 net.cpp:84] Creating Layer cont_100_lstm1_cont_slice_99_split
I1017 23:47:52.838348 29380 net.cpp:406] cont_100_lstm1_cont_slice_99_split <- cont_100
I1017 23:47:52.838356 29380 net.cpp:380] cont_100_lstm1_cont_slice_99_split -> cont_100_lstm1_cont_slice_99_split_0
I1017 23:47:52.838362 29380 net.cpp:380] cont_100_lstm1_cont_slice_99_split -> cont_100_lstm1_cont_slice_99_split_1
I1017 23:47:52.838392 29380 net.cpp:122] Setting up cont_100_lstm1_cont_slice_99_split
I1017 23:47:52.838397 29380 net.cpp:129] Top shape: 1 5 (5)
I1017 23:47:52.838402 29380 net.cpp:129] Top shape: 1 5 (5)
I1017 23:47:52.838405 29380 net.cpp:137] Memory required for data: 800640
I1017 23:47:52.838409 29380 layer_factory.hpp:77] Creating layer cont_101_lstm1_cont_slice_100_split
I1017 23:47:52.838414 29380 net.cpp:84] Creating Layer cont_101_lstm1_cont_slice_100_split
I1017 23:47:52.838418 29380 net.cpp:406] cont_101_lstm1_cont_slice_100_split <- cont_101
I1017 23:47:52.838424 29380 net.cpp:380] cont_101_lstm1_cont_slice_100_split -> cont_101_lstm1_cont_slice_100_split_0
I1017 23:47:52.838430 29380 net.cpp:380] cont_101_lstm1_cont_slice_100_split -> cont_101_lstm1_cont_slice_100_split_1
I1017 23:47:52.838481 29380 net.cpp:122] Setting up cont_101_lstm1_cont_slice_100_split
I1017 23:47:52.838486 29380 net.cpp:129] Top shape: 1 5 (5)
I1017 23:47:52.838491 29380 net.cpp:129] Top shape: 1 5 (5)
I1017 23:47:52.838495 29380 net.cpp:137] Memory required for data: 800680
I1017 23:47:52.838498 29380 layer_factory.hpp:77] Creating layer cont_102_lstm1_cont_slice_101_split
I1017 23:47:52.838503 29380 net.cpp:84] Creating Layer cont_102_lstm1_cont_slice_101_split
I1017 23:47:52.838507 29380 net.cpp:406] cont_102_lstm1_cont_slice_101_split <- cont_102
I1017 23:47:52.838512 29380 net.cpp:380] cont_102_lstm1_cont_slice_101_split -> cont_102_lstm1_cont_slice_101_split_0
I1017 23:47:52.838531 29380 net.cpp:380] cont_102_lstm1_cont_slice_101_split -> cont_102_lstm1_cont_slice_101_split_1
I1017 23:47:52.838562 29380 net.cpp:122] Setting up cont_102_lstm1_cont_slice_101_split
I1017 23:47:52.838567 29380 net.cpp:129] Top shape: 1 5 (5)
I1017 23:47:52.838572 29380 net.cpp:129] Top shape: 1 5 (5)
I1017 23:47:52.838575 29380 net.cpp:137] Memory required for data: 800720
I1017 23:47:52.838579 29380 layer_factory.hpp:77] Creating layer cont_103_lstm1_cont_slice_102_split
I1017 23:47:52.838584 29380 net.cpp:84] Creating Layer cont_103_lstm1_cont_slice_102_split
I1017 23:47:52.838588 29380 net.cpp:406] cont_103_lstm1_cont_slice_102_split <- cont_103
I1017 23:47:52.838596 29380 net.cpp:380] cont_103_lstm1_cont_slice_102_split -> cont_103_lstm1_cont_slice_102_split_0
I1017 23:47:52.838603 29380 net.cpp:380] cont_103_lstm1_cont_slice_102_split -> cont_103_lstm1_cont_slice_102_split_1
I1017 23:47:52.838632 29380 net.cpp:122] Setting up cont_103_lstm1_cont_slice_102_split
I1017 23:47:52.838639 29380 net.cpp:129] Top shape: 1 5 (5)
I1017 23:47:52.838644 29380 net.cpp:129] Top shape: 1 5 (5)
I1017 23:47:52.838646 29380 net.cpp:137] Memory required for data: 800760
I1017 23:47:52.838650 29380 layer_factory.hpp:77] Creating layer cont_104_lstm1_cont_slice_103_split
I1017 23:47:52.838657 29380 net.cpp:84] Creating Layer cont_104_lstm1_cont_slice_103_split
I1017 23:47:52.838662 29380 net.cpp:406] cont_104_lstm1_cont_slice_103_split <- cont_104
I1017 23:47:52.838667 29380 net.cpp:380] cont_104_lstm1_cont_slice_103_split -> cont_104_lstm1_cont_slice_103_split_0
I1017 23:47:52.838675 29380 net.cpp:380] cont_104_lstm1_cont_slice_103_split -> cont_104_lstm1_cont_slice_103_split_1
I1017 23:47:52.838704 29380 net.cpp:122] Setting up cont_104_lstm1_cont_slice_103_split
I1017 23:47:52.838711 29380 net.cpp:129] Top shape: 1 5 (5)
I1017 23:47:52.838716 29380 net.cpp:129] Top shape: 1 5 (5)
I1017 23:47:52.838718 29380 net.cpp:137] Memory required for data: 800800
I1017 23:47:52.838722 29380 layer_factory.hpp:77] Creating layer cont_105_lstm1_cont_slice_104_split
I1017 23:47:52.838733 29380 net.cpp:84] Creating Layer cont_105_lstm1_cont_slice_104_split
I1017 23:47:52.838737 29380 net.cpp:406] cont_105_lstm1_cont_slice_104_split <- cont_105
I1017 23:47:52.838742 29380 net.cpp:380] cont_105_lstm1_cont_slice_104_split -> cont_105_lstm1_cont_slice_104_split_0
I1017 23:47:52.838749 29380 net.cpp:380] cont_105_lstm1_cont_slice_104_split -> cont_105_lstm1_cont_slice_104_split_1
I1017 23:47:52.838778 29380 net.cpp:122] Setting up cont_105_lstm1_cont_slice_104_split
I1017 23:47:52.838784 29380 net.cpp:129] Top shape: 1 5 (5)
I1017 23:47:52.838789 29380 net.cpp:129] Top shape: 1 5 (5)
I1017 23:47:52.838793 29380 net.cpp:137] Memory required for data: 800840
I1017 23:47:52.838798 29380 layer_factory.hpp:77] Creating layer cont_106_lstm1_cont_slice_105_split
I1017 23:47:52.838802 29380 net.cpp:84] Creating Layer cont_106_lstm1_cont_slice_105_split
I1017 23:47:52.838806 29380 net.cpp:406] cont_106_lstm1_cont_slice_105_split <- cont_106
I1017 23:47:52.838812 29380 net.cpp:380] cont_106_lstm1_cont_slice_105_split -> cont_106_lstm1_cont_slice_105_split_0
I1017 23:47:52.838819 29380 net.cpp:380] cont_106_lstm1_cont_slice_105_split -> cont_106_lstm1_cont_slice_105_split_1
I1017 23:47:52.838870 29380 net.cpp:122] Setting up cont_106_lstm1_cont_slice_105_split
I1017 23:47:52.838874 29380 net.cpp:129] Top shape: 1 5 (5)
I1017 23:47:52.838878 29380 net.cpp:129] Top shape: 1 5 (5)
I1017 23:47:52.838882 29380 net.cpp:137] Memory required for data: 800880
I1017 23:47:52.838886 29380 layer_factory.hpp:77] Creating layer cont_107_lstm1_cont_slice_106_split
I1017 23:47:52.838891 29380 net.cpp:84] Creating Layer cont_107_lstm1_cont_slice_106_split
I1017 23:47:52.838894 29380 net.cpp:406] cont_107_lstm1_cont_slice_106_split <- cont_107
I1017 23:47:52.838901 29380 net.cpp:380] cont_107_lstm1_cont_slice_106_split -> cont_107_lstm1_cont_slice_106_split_0
I1017 23:47:52.838907 29380 net.cpp:380] cont_107_lstm1_cont_slice_106_split -> cont_107_lstm1_cont_slice_106_split_1
I1017 23:47:52.838935 29380 net.cpp:122] Setting up cont_107_lstm1_cont_slice_106_split
I1017 23:47:52.838942 29380 net.cpp:129] Top shape: 1 5 (5)
I1017 23:47:52.838945 29380 net.cpp:129] Top shape: 1 5 (5)
I1017 23:47:52.838948 29380 net.cpp:137] Memory required for data: 800920
I1017 23:47:52.838953 29380 layer_factory.hpp:77] Creating layer cont_108_lstm1_cont_slice_107_split
I1017 23:47:52.838958 29380 net.cpp:84] Creating Layer cont_108_lstm1_cont_slice_107_split
I1017 23:47:52.838961 29380 net.cpp:406] cont_108_lstm1_cont_slice_107_split <- cont_108
I1017 23:47:52.838966 29380 net.cpp:380] cont_108_lstm1_cont_slice_107_split -> cont_108_lstm1_cont_slice_107_split_0
I1017 23:47:52.838973 29380 net.cpp:380] cont_108_lstm1_cont_slice_107_split -> cont_108_lstm1_cont_slice_107_split_1
I1017 23:47:52.839001 29380 net.cpp:122] Setting up cont_108_lstm1_cont_slice_107_split
I1017 23:47:52.839006 29380 net.cpp:129] Top shape: 1 5 (5)
I1017 23:47:52.839010 29380 net.cpp:129] Top shape: 1 5 (5)
I1017 23:47:52.839015 29380 net.cpp:137] Memory required for data: 800960
I1017 23:47:52.839017 29380 layer_factory.hpp:77] Creating layer cont_109_lstm1_cont_slice_108_split
I1017 23:47:52.839022 29380 net.cpp:84] Creating Layer cont_109_lstm1_cont_slice_108_split
I1017 23:47:52.839026 29380 net.cpp:406] cont_109_lstm1_cont_slice_108_split <- cont_109
I1017 23:47:52.839031 29380 net.cpp:380] cont_109_lstm1_cont_slice_108_split -> cont_109_lstm1_cont_slice_108_split_0
I1017 23:47:52.839038 29380 net.cpp:380] cont_109_lstm1_cont_slice_108_split -> cont_109_lstm1_cont_slice_108_split_1
I1017 23:47:52.839066 29380 net.cpp:122] Setting up cont_109_lstm1_cont_slice_108_split
I1017 23:47:52.839071 29380 net.cpp:129] Top shape: 1 5 (5)
I1017 23:47:52.839076 29380 net.cpp:129] Top shape: 1 5 (5)
I1017 23:47:52.839079 29380 net.cpp:137] Memory required for data: 801000
I1017 23:47:52.839083 29380 layer_factory.hpp:77] Creating layer cont_110_lstm1_cont_slice_109_split
I1017 23:47:52.839088 29380 net.cpp:84] Creating Layer cont_110_lstm1_cont_slice_109_split
I1017 23:47:52.839092 29380 net.cpp:406] cont_110_lstm1_cont_slice_109_split <- cont_110
I1017 23:47:52.839099 29380 net.cpp:380] cont_110_lstm1_cont_slice_109_split -> cont_110_lstm1_cont_slice_109_split_0
I1017 23:47:52.839105 29380 net.cpp:380] cont_110_lstm1_cont_slice_109_split -> cont_110_lstm1_cont_slice_109_split_1
I1017 23:47:52.839131 29380 net.cpp:122] Setting up cont_110_lstm1_cont_slice_109_split
I1017 23:47:52.839136 29380 net.cpp:129] Top shape: 1 5 (5)
I1017 23:47:52.839141 29380 net.cpp:129] Top shape: 1 5 (5)
I1017 23:47:52.839144 29380 net.cpp:137] Memory required for data: 801040
I1017 23:47:52.839148 29380 layer_factory.hpp:77] Creating layer cont_111_lstm1_cont_slice_110_split
I1017 23:47:52.839154 29380 net.cpp:84] Creating Layer cont_111_lstm1_cont_slice_110_split
I1017 23:47:52.839159 29380 net.cpp:406] cont_111_lstm1_cont_slice_110_split <- cont_111
I1017 23:47:52.839164 29380 net.cpp:380] cont_111_lstm1_cont_slice_110_split -> cont_111_lstm1_cont_slice_110_split_0
I1017 23:47:52.839170 29380 net.cpp:380] cont_111_lstm1_cont_slice_110_split -> cont_111_lstm1_cont_slice_110_split_1
I1017 23:47:52.839198 29380 net.cpp:122] Setting up cont_111_lstm1_cont_slice_110_split
I1017 23:47:52.839205 29380 net.cpp:129] Top shape: 1 5 (5)
I1017 23:47:52.839208 29380 net.cpp:129] Top shape: 1 5 (5)
I1017 23:47:52.839212 29380 net.cpp:137] Memory required for data: 801080
I1017 23:47:52.839215 29380 layer_factory.hpp:77] Creating layer cont_112_lstm1_cont_slice_111_split
I1017 23:47:52.839221 29380 net.cpp:84] Creating Layer cont_112_lstm1_cont_slice_111_split
I1017 23:47:52.839224 29380 net.cpp:406] cont_112_lstm1_cont_slice_111_split <- cont_112
I1017 23:47:52.839229 29380 net.cpp:380] cont_112_lstm1_cont_slice_111_split -> cont_112_lstm1_cont_slice_111_split_0
I1017 23:47:52.839236 29380 net.cpp:380] cont_112_lstm1_cont_slice_111_split -> cont_112_lstm1_cont_slice_111_split_1
I1017 23:47:52.839263 29380 net.cpp:122] Setting up cont_112_lstm1_cont_slice_111_split
I1017 23:47:52.839269 29380 net.cpp:129] Top shape: 1 5 (5)
I1017 23:47:52.839273 29380 net.cpp:129] Top shape: 1 5 (5)
I1017 23:47:52.839277 29380 net.cpp:137] Memory required for data: 801120
I1017 23:47:52.839280 29380 layer_factory.hpp:77] Creating layer cont_113_lstm1_cont_slice_112_split
I1017 23:47:52.839285 29380 net.cpp:84] Creating Layer cont_113_lstm1_cont_slice_112_split
I1017 23:47:52.839289 29380 net.cpp:406] cont_113_lstm1_cont_slice_112_split <- cont_113
I1017 23:47:52.839294 29380 net.cpp:380] cont_113_lstm1_cont_slice_112_split -> cont_113_lstm1_cont_slice_112_split_0
I1017 23:47:52.839300 29380 net.cpp:380] cont_113_lstm1_cont_slice_112_split -> cont_113_lstm1_cont_slice_112_split_1
I1017 23:47:52.839329 29380 net.cpp:122] Setting up cont_113_lstm1_cont_slice_112_split
I1017 23:47:52.839334 29380 net.cpp:129] Top shape: 1 5 (5)
I1017 23:47:52.839339 29380 net.cpp:129] Top shape: 1 5 (5)
I1017 23:47:52.839342 29380 net.cpp:137] Memory required for data: 801160
I1017 23:47:52.839345 29380 layer_factory.hpp:77] Creating layer cont_114_lstm1_cont_slice_113_split
I1017 23:47:52.839350 29380 net.cpp:84] Creating Layer cont_114_lstm1_cont_slice_113_split
I1017 23:47:52.839354 29380 net.cpp:406] cont_114_lstm1_cont_slice_113_split <- cont_114
I1017 23:47:52.839361 29380 net.cpp:380] cont_114_lstm1_cont_slice_113_split -> cont_114_lstm1_cont_slice_113_split_0
I1017 23:47:52.839367 29380 net.cpp:380] cont_114_lstm1_cont_slice_113_split -> cont_114_lstm1_cont_slice_113_split_1
I1017 23:47:52.839393 29380 net.cpp:122] Setting up cont_114_lstm1_cont_slice_113_split
I1017 23:47:52.839398 29380 net.cpp:129] Top shape: 1 5 (5)
I1017 23:47:52.839403 29380 net.cpp:129] Top shape: 1 5 (5)
…
I1017 23:47:58.825095 29380 net.cpp:406] lstm1_gate_input_183 <- W_xc_x_183
I1017 23:47:58.825101 29380 net.cpp:380] lstm1_gate_input_183 -> gate_input_183
I1017 23:47:58.825132 29380 net.cpp:122] Setting up lstm1_gate_input_183
I1017 23:47:58.825139 29380 net.cpp:129] Top shape: 1 150 2048 (307200)
I1017 23:47:58.825142 29380 net.cpp:137] Memory required for data: 1235424000
I1017 23:47:58.825145 29380 layer_factory.hpp:77] Creating layer lstm1_unit_183
I1017 23:47:58.825151 29380 net.cpp:84] Creating Layer lstm1_unit_183
I1017 23:47:58.825156 29380 net.cpp:406] lstm1_unit_183 <- c_182
I1017 23:47:58.825162 29380 net.cpp:406] lstm1_unit_183 <- gate_input_183
I1017 23:47:58.825168 29380 net.cpp:406] lstm1_unit_183 <- cont_183_lstm1_cont_slice_182_split_1
I1017 23:47:58.825175 29380 net.cpp:380] lstm1_unit_183 -> c_183
I1017 23:47:58.825181 29380 net.cpp:380] lstm1_unit_183 -> h_183
I1017 23:47:58.825225 29380 net.cpp:122] Setting up lstm1_unit_183
I1017 23:47:58.825232 29380 net.cpp:129] Top shape: 1 150 512 (76800)
I1017 23:47:58.825235 29380 net.cpp:129] Top shape: 1 150 512 (76800)
I1017 23:47:58.825239 29380 net.cpp:137] Memory required for data: 1236038400
I1017 23:47:58.825243 29380 layer_factory.hpp:77] Creating layer h_183_lstm1_unit_183_1_split
I1017 23:47:58.825250 29380 net.cpp:84] Creating Layer h_183_lstm1_unit_183_1_split
I1017 23:47:58.825254 29380 net.cpp:406] h_183_lstm1_unit_183_1_split <- h_183
I1017 23:47:58.825260 29380 net.cpp:380] h_183_lstm1_unit_183_1_split -> h_183_lstm1_unit_183_1_split_0
I1017 23:47:58.825268 29380 net.cpp:380] h_183_lstm1_unit_183_1_split -> h_183_lstm1_unit_183_1_split_1
I1017 23:47:58.825300 29380 net.cpp:122] Setting up h_183_lstm1_unit_183_1_split
I1017 23:47:58.825306 29380 net.cpp:129] Top shape: 1 150 512 (76800)
I1017 23:47:58.825310 29380 net.cpp:129] Top shape: 1 150 512 (76800)
I1017 23:47:58.825314 29380 net.cpp:137] Memory required for data: 1236652800
I1017 23:47:58.825317 29380 layer_factory.hpp:77] Creating layer lstm1_h_conted_183
I1017 23:47:58.825327 29380 net.cpp:84] Creating Layer lstm1_h_conted_183
I1017 23:47:58.825332 29380 net.cpp:406] lstm1_h_conted_183 <- h_183_lstm1_unit_183_1_split_0
I1017 23:47:58.825338 29380 net.cpp:406] lstm1_h_conted_183 <- cont_184_lstm1_cont_slice_183_split_0
I1017 23:47:58.825345 29380 net.cpp:380] lstm1_h_conted_183 -> h_conted_183
I1017 23:47:58.825417 29380 net.cpp:122] Setting up lstm1_h_conted_183
I1017 23:47:58.825423 29380 net.cpp:129] Top shape: 1 150 512 (76800)
I1017 23:47:58.825428 29380 net.cpp:137] Memory required for data: 1236960000
I1017 23:47:58.825431 29380 layer_factory.hpp:77] Creating layer lstm1_transform_184
I1017 23:47:58.825439 29380 net.cpp:84] Creating Layer lstm1_transform_184
I1017 23:47:58.825444 29380 net.cpp:406] lstm1_transform_184 <- h_conted_183
I1017 23:47:58.825451 29380 net.cpp:380] lstm1_transform_184 -> W_hc_h_183
I1017 23:47:58.836340 29380 net.cpp:122] Setting up lstm1_transform_184
I1017 23:47:58.836366 29380 net.cpp:129] Top shape: 1 150 2048 (307200)
I1017 23:47:58.836371 29380 net.cpp:137] Memory required for data: 1238188800
I1017 23:47:58.836378 29380 net.cpp:465] Sharing parameters 'W_hc' owned by layer 'lstm1_transform_1', param index 0
I1017 23:47:58.836383 29380 layer_factory.hpp:77] Creating layer lstm1_gate_input_184
I1017 23:47:58.836391 29380 net.cpp:84] Creating Layer lstm1_gate_input_184
I1017 23:47:58.836397 29380 net.cpp:406] lstm1_gate_input_184 <- W_hc_h_183
I1017 23:47:58.836403 29380 net.cpp:406] lstm1_gate_input_184 <- W_xc_x_184
I1017 23:47:58.836410 29380 net.cpp:380] lstm1_gate_input_184 -> gate_input_184
I1017 23:47:58.836439 29380 net.cpp:122] Setting up lstm1_gate_input_184
I1017 23:47:58.836447 29380 net.cpp:129] Top shape: 1 150 2048 (307200)
I1017 23:47:58.836449 29380 net.cpp:137] Memory required for data: 1239417600
I1017 23:47:58.836453 29380 layer_factory.hpp:77] Creating layer lstm1_unit_184
I1017 23:47:58.836462 29380 net.cpp:84] Creating Layer lstm1_unit_184
I1017 23:47:58.836477 29380 net.cpp:406] lstm1_unit_184 <- c_183
I1017 23:47:58.836484 29380 net.cpp:406] lstm1_unit_184 <- gate_input_184
I1017 23:47:58.836489 29380 net.cpp:406] lstm1_unit_184 <- cont_184_lstm1_cont_slice_183_split_1
I1017 23:47:58.836495 29380 net.cpp:380] lstm1_unit_184 -> c_184
I1017 23:47:58.836504 29380 net.cpp:380] lstm1_unit_184 -> h_184
I1017 23:47:58.836549 29380 net.cpp:122] Setting up lstm1_unit_184
I1017 23:47:58.836555 29380 net.cpp:129] Top shape: 1 150 512 (76800)
I1017 23:47:58.836560 29380 net.cpp:129] Top shape: 1 150 512 (76800)
I1017 23:47:58.836563 29380 net.cpp:137] Memory required for data: 1240032000
I1017 23:47:58.836568 29380 layer_factory.hpp:77] Creating layer h_184_lstm1_unit_184_1_split
I1017 23:47:58.836573 29380 net.cpp:84] Creating Layer h_184_lstm1_unit_184_1_split
I1017 23:47:58.836578 29380 net.cpp:406] h_184_lstm1_unit_184_1_split <- h_184
I1017 23:47:58.836586 29380 net.cpp:380] h_184_lstm1_unit_184_1_split -> h_184_lstm1_unit_184_1_split_0
I1017 23:47:58.836593 29380 net.cpp:380] h_184_lstm1_unit_184_1_split -> h_184_lstm1_unit_184_1_split_1
I1017 23:47:58.836624 29380 net.cpp:122] Setting up h_184_lstm1_unit_184_1_split
I1017 23:47:58.836630 29380 net.cpp:129] Top shape: 1 150 512 (76800)
I1017 23:47:58.836634 29380 net.cpp:129] Top shape: 1 150 512 (76800)
I1017 23:47:58.836638 29380 net.cpp:137] Memory required for data: 1240646400
I1017 23:47:58.836642 29380 layer_factory.hpp:77] Creating layer lstm1_h_conted_184
I1017 23:47:58.836652 29380 net.cpp:84] Creating Layer lstm1_h_conted_184
I1017 23:47:58.836655 29380 net.cpp:406] lstm1_h_conted_184 <- h_184_lstm1_unit_184_1_split_0
I1017 23:47:58.836661 29380 net.cpp:406] lstm1_h_conted_184 <- cont_185_lstm1_cont_slice_184_split_0
I1017 23:47:58.836670 29380 net.cpp:380] lstm1_h_conted_184 -> h_conted_184
I1017 23:47:58.836755 29380 net.cpp:122] Setting up lstm1_h_conted_184
I1017 23:47:58.836776 29380 net.cpp:129] Top shape: 1 150 512 (76800)
I1017 23:47:58.836781 29380 net.cpp:137] Memory required for data: 1240953600
I1017 23:47:58.836784 29380 layer_factory.hpp:77] Creating layer lstm1_transform_185
I1017 23:47:58.836792 29380 net.cpp:84] Creating Layer lstm1_transform_185
I1017 23:47:58.836798 29380 net.cpp:406] lstm1_transform_185 <- h_conted_184
I1017 23:47:58.836807 29380 net.cpp:380] lstm1_transform_185 -> W_hc_h_184
I1017 23:47:58.847537 29380 net.cpp:122] Setting up lstm1_transform_185
I1017 23:47:58.847555 29380 net.cpp:129] Top shape: 1 150 2048 (307200)
I1017 23:47:58.847559 29380 net.cpp:137] Memory required for data: 1242182400
I1017 23:47:58.847564 29380 net.cpp:465] Sharing parameters 'W_hc' owned by layer 'lstm1_transform_1', param index 0
I1017 23:47:58.847568 29380 layer_factory.hpp:77] Creating layer lstm1_gate_input_185
I1017 23:47:58.847575 29380 net.cpp:84] Creating Layer lstm1_gate_input_185
I1017 23:47:58.847580 29380 net.cpp:406] lstm1_gate_input_185 <- W_hc_h_184
I1017 23:47:58.847586 29380 net.cpp:406] lstm1_gate_input_185 <- W_xc_x_185
I1017 23:47:58.847592 29380 net.cpp:380] lstm1_gate_input_185 -> gate_input_185
I1017 23:47:58.847617 29380 net.cpp:122] Setting up lstm1_gate_input_185
I1017 23:47:58.847623 29380 net.cpp:129] Top shape: 1 150 2048 (307200)
I1017 23:47:58.847627 29380 net.cpp:137] Memory required for data: 1243411200
I1017 23:47:58.847632 29380 layer_factory.hpp:77] Creating layer lstm1_unit_185
I1017 23:47:58.847641 29380 net.cpp:84] Creating Layer lstm1_unit_185
I1017 23:47:58.847645 29380 net.cpp:406] lstm1_unit_185 <- c_184
I1017 23:47:58.847651 29380 net.cpp:406] lstm1_unit_185 <- gate_input_185
I1017 23:47:58.847656 29380 net.cpp:406] lstm1_unit_185 <- cont_185_lstm1_cont_slice_184_split_1
I1017 23:47:58.847662 29380 net.cpp:380] lstm1_unit_185 -> c_185
I1017 23:47:58.847669 29380 net.cpp:380] lstm1_unit_185 -> h_185
I1017 23:47:58.847712 29380 net.cpp:122] Setting up lstm1_unit_185
I1017 23:47:58.847718 29380 net.cpp:129] Top shape: 1 150 512 (76800)
I1017 23:47:58.847721 29380 net.cpp:129] Top shape: 1 150 512 (76800)
I1017 23:47:58.847725 29380 net.cpp:137] Memory required for data: 1244025600
I1017 23:47:58.847728 29380 layer_factory.hpp:77] Creating layer h_185_lstm1_unit_185_1_split
I1017 23:47:58.847733 29380 net.cpp:84] Creating Layer h_185_lstm1_unit_185_1_split
I1017 23:47:58.847738 29380 net.cpp:406] h_185_lstm1_unit_185_1_split <- h_185
I1017 23:47:58.847743 29380 net.cpp:380] h_185_lstm1_unit_185_1_split -> h_185_lstm1_unit_185_1_split_0
I1017 23:47:58.847754 29380 net.cpp:380] h_185_lstm1_unit_185_1_split -> h_185_lstm1_unit_185_1_split_1
I1017 23:47:58.847784 29380 net.cpp:122] Setting up h_185_lstm1_unit_185_1_split
I1017 23:47:58.847789 29380 net.cpp:129] Top shape: 1 150 512 (76800)
I1017 23:47:58.847792 29380 net.cpp:129] Top shape: 1 150 512 (76800)
I1017 23:47:58.847796 29380 net.cpp:137] Memory required for data: 1244640000
I1017 23:47:58.847800 29380 layer_factory.hpp:77] Creating layer lstm1_h_conted_185
I1017 23:47:58.847806 29380 net.cpp:84] Creating Layer lstm1_h_conted_185
I1017 23:47:58.847811 29380 net.cpp:406] lstm1_h_conted_185 <- h_185_lstm1_unit_185_1_split_0
I1017 23:47:58.847817 29380 net.cpp:406] lstm1_h_conted_185 <- cont_186_lstm1_cont_slice_185_split_0
I1017 23:47:58.847823 29380 net.cpp:380] lstm1_h_conted_185 -> h_conted_185
I1017 23:47:58.847890 29380 net.cpp:122] Setting up lstm1_h_conted_185
I1017 23:47:58.847898 29380 net.cpp:129] Top shape: 1 150 512 (76800)
I1017 23:47:58.847901 29380 net.cpp:137] Memory required for data: 1244947200
I1017 23:47:58.847905 29380 layer_factory.hpp:77] Creating layer lstm1_transform_186
I1017 23:47:58.847914 29380 net.cpp:84] Creating Layer lstm1_transform_186
I1017 23:47:58.847919 29380 net.cpp:406] lstm1_transform_186 <- h_conted_185
I1017 23:47:58.847925 29380 net.cpp:380] lstm1_transform_186 -> W_hc_h_185
I1017 23:47:58.858768 29380 net.cpp:122] Setting up lstm1_transform_186
I1017 23:47:58.858783 29380 net.cpp:129] Top shape: 1 150 2048 (307200)
I1017 23:47:58.858786 29380 net.cpp:137] Memory required for data: 1246176000
I1017 23:47:58.858790 29380 net.cpp:465] Sharing parameters 'W_hc' owned by layer 'lstm1_transform_1', param index 0
I1017 23:47:58.858795 29380 layer_factory.hpp:77] Creating layer lstm1_gate_input_186
I1017 23:47:58.858808 29380 net.cpp:84] Creating Layer lstm1_gate_input_186
I1017 23:47:58.858813 29380 net.cpp:406] lstm1_gate_input_186 <- W_hc_h_185
I1017 23:47:58.858819 29380 net.cpp:406] lstm1_gate_input_186 <- W_xc_x_186
I1017 23:47:58.858825 29380 net.cpp:380] lstm1_gate_input_186 -> gate_input_186
I1017 23:47:58.858853 29380 net.cpp:122] Setting up lstm1_gate_input_186
I1017 23:47:58.858860 29380 net.cpp:129] Top shape: 1 150 2048 (307200)
I1017 23:47:58.858862 29380 net.cpp:137] Memory required for data: 1247404800
I1017 23:47:58.858866 29380 layer_factory.hpp:77] Creating layer lstm1_unit_186
I1017 23:47:58.858872 29380 net.cpp:84] Creating Layer lstm1_unit_186
I1017 23:47:58.858877 29380 net.cpp:406] lstm1_unit_186 <- c_185
I1017 23:47:58.858882 29380 net.cpp:406] lstm1_unit_186 <- gate_input_186
I1017 23:47:58.858888 29380 net.cpp:406] lstm1_unit_186 <- cont_186_lstm1_cont_slice_185_split_1
I1017 23:47:58.858896 29380 net.cpp:380] lstm1_unit_186 -> c_186
I1017 23:47:58.858902 29380 net.cpp:380] lstm1_unit_186 -> h_186
I1017 23:47:58.858947 29380 net.cpp:122] Setting up lstm1_unit_186
I1017 23:47:58.858952 29380 net.cpp:129] Top shape: 1 150 512 (76800)
I1017 23:47:58.858956 29380 net.cpp:129] Top shape: 1 150 512 (76800)
I1017 23:47:58.858959 29380 net.cpp:137] Memory required for data: 1248019200
I1017 23:47:58.858963 29380 layer_factory.hpp:77] Creating layer h_186_lstm1_unit_186_1_split
I1017 23:47:58.858968 29380 net.cpp:84] Creating Layer h_186_lstm1_unit_186_1_split
I1017 23:47:58.858973 29380 net.cpp:406] h_186_lstm1_unit_186_1_split <- h_186
I1017 23:47:58.858978 29380 net.cpp:380] h_186_lstm1_unit_186_1_split -> h_186_lstm1_unit_186_1_split_0
I1017 23:47:58.858985 29380 net.cpp:380] h_186_lstm1_unit_186_1_split -> h_186_lstm1_unit_186_1_split_1
I1017 23:47:58.859016 29380 net.cpp:122] Setting up h_186_lstm1_unit_186_1_split
I1017 23:47:58.859022 29380 net.cpp:129] Top shape: 1 150 512 (76800)
I1017 23:47:58.859026 29380 net.cpp:129] Top shape: 1 150 512 (76800)
I1017 23:47:58.859030 29380 net.cpp:137] Memory required for data: 1248633600
I1017 23:47:58.859033 29380 layer_factory.hpp:77] Creating layer lstm1_h_conted_186
I1017 23:47:58.859040 29380 net.cpp:84] Creating Layer lstm1_h_conted_186
I1017 23:47:58.859045 29380 net.cpp:406] lstm1_h_conted_186 <- h_186_lstm1_unit_186_1_split_0
I1017 23:47:58.859052 29380 net.cpp:406] lstm1_h_conted_186 <- cont_187_lstm1_cont_slice_186_split_0
I1017 23:47:58.859060 29380 net.cpp:380] lstm1_h_conted_186 -> h_conted_186
I1017 23:47:58.859128 29380 net.cpp:122] Setting up lstm1_h_conted_186
I1017 23:47:58.859135 29380 net.cpp:129] Top shape: 1 150 512 (76800)
I1017 23:47:58.859138 29380 net.cpp:137] Memory required for data: 1248940800
I1017 23:47:58.859143 29380 layer_factory.hpp:77] Creating layer lstm1_transform_187
I1017 23:47:58.859148 29380 net.cpp:84] Creating Layer lstm1_transform_187
I1017 23:47:58.859153 29380 net.cpp:406] lstm1_transform_187 <- h_conted_186
I1017 23:47:58.859161 29380 net.cpp:380] lstm1_transform_187 -> W_hc_h_186
I1017 23:47:58.869758 29380 net.cpp:122] Setting up lstm1_transform_187
I1017 23:47:58.869771 29380 net.cpp:129] Top shape: 1 150 2048 (307200)
I1017 23:47:58.869776 29380 net.cpp:137] Memory required for data: 1250169600
I1017 23:47:58.869781 29380 net.cpp:465] Sharing parameters 'W_hc' owned by layer 'lstm1_transform_1', param index 0
I1017 23:47:58.869784 29380 layer_factory.hpp:77] Creating layer lstm1_gate_input_187
I1017 23:47:58.869792 29380 net.cpp:84] Creating Layer lstm1_gate_input_187
I1017 23:47:58.869797 29380 net.cpp:406] lstm1_gate_input_187 <- W_hc_h_186
I1017 23:47:58.869803 29380 net.cpp:406] lstm1_gate_input_187 <- W_xc_x_187
I1017 23:47:58.869812 29380 net.cpp:380] lstm1_gate_input_187 -> gate_input_187
I1017 23:47:58.869849 29380 net.cpp:122] Setting up lstm1_gate_input_187
I1017 23:47:58.869856 29380 net.cpp:129] Top shape: 1 150 2048 (307200)
I1017 23:47:58.869859 29380 net.cpp:137] Memory required for data: 1251398400
I1017 23:47:58.869863 29380 layer_factory.hpp:77] Creating layer lstm1_unit_187
I1017 23:47:58.869869 29380 net.cpp:84] Creating Layer lstm1_unit_187
I1017 23:47:58.869874 29380 net.cpp:406] lstm1_unit_187 <- c_186
I1017 23:47:58.869879 29380 net.cpp:406] lstm1_unit_187 <- gate_input_187
I1017 23:47:58.869885 29380 net.cpp:406] lstm1_unit_187 <- cont_187_lstm1_cont_slice_186_split_1
I1017 23:47:58.869891 29380 net.cpp:380] lstm1_unit_187 -> c_187
I1017 23:47:58.869901 29380 net.cpp:380] lstm1_unit_187 -> h_187
I1017 23:47:58.869946 29380 net.cpp:122] Setting up lstm1_unit_187
I1017 23:47:58.869952 29380 net.cpp:129] Top shape: 1 150 512 (76800)
I1017 23:47:58.869956 29380 net.cpp:129] Top shape: 1 150 512 (76800)
I1017 23:47:58.869961 29380 net.cpp:137] Memory required for data: 1252012800
I1017 23:47:58.869966 29380 layer_factory.hpp:77] Creating layer h_187_lstm1_unit_187_1_split
I1017 23:47:58.869971 29380 net.cpp:84] Creating Layer h_187_lstm1_unit_187_1_split
I1017 23:47:58.869976 29380 net.cpp:406] h_187_lstm1_unit_187_1_split <- h_187
I1017 23:47:58.869982 29380 net.cpp:380] h_187_lstm1_unit_187_1_split -> h_187_lstm1_unit_187_1_split_0
I1017 23:47:58.869988 29380 net.cpp:380] h_187_lstm1_unit_187_1_split -> h_187_lstm1_unit_187_1_split_1
I1017 23:47:58.870021 29380 net.cpp:122] Setting up h_187_lstm1_unit_187_1_split
I1017 23:47:58.870028 29380 net.cpp:129] Top shape: 1 150 512 (76800)
I1017 23:47:58.870031 29380 net.cpp:129] Top shape: 1 150 512 (76800)
I1017 23:47:58.870034 29380 net.cpp:137] Memory required for data: 1252627200
I1017 23:47:58.870038 29380 layer_factory.hpp:77] Creating layer lstm1_h_conted_187
I1017 23:47:58.870044 29380 net.cpp:84] Creating Layer lstm1_h_conted_187
I1017 23:47:58.870049 29380 net.cpp:406] lstm1_h_conted_187 <- h_187_lstm1_unit_187_1_split_0
I1017 23:47:58.870056 29380 net.cpp:406] lstm1_h_conted_187 <- cont_188_lstm1_cont_slice_187_split_0
I1017 23:47:58.870064 29380 net.cpp:380] lstm1_h_conted_187 -> h_conted_187
I1017 23:47:58.870136 29380 net.cpp:122] Setting up lstm1_h_conted_187
I1017 23:47:58.870143 29380 net.cpp:129] Top shape: 1 150 512 (76800)
I1017 23:47:58.870146 29380 net.cpp:137] Memory required for data: 1252934400
I1017 23:47:58.870151 29380 layer_factory.hpp:77] Creating layer lstm1_transform_188
I1017 23:47:58.870157 29380 net.cpp:84] Creating Layer lstm1_transform_188
I1017 23:47:58.870162 29380 net.cpp:406] lstm1_transform_188 <- h_conted_187
I1017 23:47:58.870170 29380 net.cpp:380] lstm1_transform_188 -> W_hc_h_187
I1017 23:47:58.880993 29380 net.cpp:122] Setting up lstm1_transform_188
I1017 23:47:58.881006 29380 net.cpp:129] Top shape: 1 150 2048 (307200)
I1017 23:47:58.881011 29380 net.cpp:137] Memory required for data: 1254163200
I1017 23:47:58.881016 29380 net.cpp:465] Sharing parameters 'W_hc' owned by layer 'lstm1_transform_1', param index 0
I1017 23:47:58.881019 29380 layer_factory.hpp:77] Creating layer lstm1_gate_input_188
I1017 23:47:58.881027 29380 net.cpp:84] Creating Layer lstm1_gate_input_188
I1017 23:47:58.881032 29380 net.cpp:406] lstm1_gate_input_188 <- W_hc_h_187
I1017 23:47:58.881038 29380 net.cpp:406] lstm1_gate_input_188 <- W_xc_x_188
I1017 23:47:58.881047 29380 net.cpp:380] lstm1_gate_input_188 -> gate_input_188
I1017 23:47:58.881074 29380 net.cpp:122] Setting up lstm1_gate_input_188
I1017 23:47:58.881080 29380 net.cpp:129] Top shape: 1 150 2048 (307200)
I1017 23:47:58.881084 29380 net.cpp:137] Memory required for data: 1255392000
I1017 23:47:58.881088 29380 layer_factory.hpp:77] Creating layer lstm1_unit_188
I1017 23:47:58.881094 29380 net.cpp:84] Creating Layer lstm1_unit_188
I1017 23:47:58.881099 29380 net.cpp:406] lstm1_unit_188 <- c_187
I1017 23:47:58.881104 29380 net.cpp:406] lstm1_unit_188 <- gate_input_188
I1017 23:47:58.881109 29380 net.cpp:406] lstm1_unit_188 <- cont_188_lstm1_cont_slice_187_split_1
I1017 23:47:58.881115 29380 net.cpp:380] lstm1_unit_188 -> c_188
I1017 23:47:58.881122 29380 net.cpp:380] lstm1_unit_188 -> h_188
I1017 23:47:58.881167 29380 net.cpp:122] Setting up lstm1_unit_188
I1017 23:47:58.881173 29380 net.cpp:129] Top shape: 1 150 512 (76800)
I1017 23:47:58.881177 29380 net.cpp:129] Top shape: 1 150 512 (76800)
I1017 23:47:58.881181 29380 net.cpp:137] Memory required for data: 1256006400
I1017 23:47:58.881184 29380 layer_factory.hpp:77] Creating layer h_188_lstm1_unit_188_1_split
I1017 23:47:58.881189 29380 net.cpp:84] Creating Layer h_188_lstm1_unit_188_1_split
I1017 23:47:58.881193 29380 net.cpp:406] h_188_lstm1_unit_188_1_split <- h_188
I1017 23:47:58.881199 29380 net.cpp:380] h_188_lstm1_unit_188_1_split -> h_188_lstm1_unit_188_1_split_0
I1017 23:47:58.881206 29380 net.cpp:380] h_188_lstm1_unit_188_1_split -> h_188_lstm1_unit_188_1_split_1
I1017 23:47:58.881237 29380 net.cpp:122] Setting up h_188_lstm1_unit_188_1_split
I1017 23:47:58.881242 29380 net.cpp:129] Top shape: 1 150 512 (76800)
I1017 23:47:58.881247 29380 net.cpp:129] Top shape: 1 150 512 (76800)
I1017 23:47:58.881250 29380 net.cpp:137] Memory required for data: 1256620800
I1017 23:47:58.881253 29380 layer_factory.hpp:77] Creating layer lstm1_h_conted_188
I1017 23:47:58.881258 29380 net.cpp:84] Creating Layer lstm1_h_conted_188
I1017 23:47:58.881263 29380 net.cpp:406] lstm1_h_conted_188 <- h_188_lstm1_unit_188_1_split_0
I1017 23:47:58.881269 29380 net.cpp:406] lstm1_h_conted_188 <- cont_189_lstm1_cont_slice_188_split_0
I1017 23:47:58.881275 29380 net.cpp:380] lstm1_h_conted_188 -> h_conted_188
I1017 23:47:58.881345 29380 net.cpp:122] Setting up lstm1_h_conted_188
I1017 23:47:58.881363 29380 net.cpp:129] Top shape: 1 150 512 (76800)
I1017 23:47:58.881367 29380 net.cpp:137] Memory required for data: 1256928000
I1017 23:47:58.881372 29380 layer_factory.hpp:77] Creating layer lstm1_transform_189
I1017 23:47:58.881379 29380 net.cpp:84] Creating Layer lstm1_transform_189
I1017 23:47:58.881384 29380 net.cpp:406] lstm1_transform_189 <- h_conted_188
I1017 23:47:58.881391 29380 net.cpp:380] lstm1_transform_189 -> W_hc_h_188
I1017 23:47:58.907245 29380 net.cpp:122] Setting up lstm1_transform_189
I1017 23:47:58.907282 29380 net.cpp:129] Top shape: 1 150 2048 (307200)
I1017 23:47:58.907287 29380 net.cpp:137] Memory required for data: 1258156800
I1017 23:47:58.907295 29380 net.cpp:465] Sharing parameters 'W_hc' owned by layer 'lstm1_transform_1', param index 0
I1017 23:47:58.907301 29380 layer_factory.hpp:77] Creating layer lstm1_gate_input_189
I1017 23:47:58.907317 29380 net.cpp:84] Creating Layer lstm1_gate_input_189
I1017 23:47:58.907325 29380 net.cpp:406] lstm1_gate_input_189 <- W_hc_h_188
I1017 23:47:58.907331 29380 net.cpp:406] lstm1_gate_input_189 <- W_xc_x_189
I1017 23:47:58.907341 29380 net.cpp:380] lstm1_gate_input_189 -> gate_input_189
I1017 23:47:58.907382 29380 net.cpp:122] Setting up lstm1_gate_input_189
I1017 23:47:58.907388 29380 net.cpp:129] Top shape: 1 150 2048 (307200)
I1017 23:47:58.907392 29380 net.cpp:137] Memory required for data: 1259385600
I1017 23:47:58.907397 29380 layer_factory.hpp:77] Creating layer lstm1_unit_189
I1017 23:47:58.907408 29380 net.cpp:84] Creating Layer lstm1_unit_189
I1017 23:47:58.907414 29380 net.cpp:406] lstm1_unit_189 <- c_188
I1017 23:47:58.907421 29380 net.cpp:406] lstm1_unit_189 <- gate_input_189
I1017 23:47:58.907428 29380 net.cpp:406] lstm1_unit_189 <- cont_189_lstm1_cont_slice_188_split_1
I1017 23:47:58.907434 29380 net.cpp:380] lstm1_unit_189 -> c_189
I1017 23:47:58.907444 29380 net.cpp:380] lstm1_unit_189 -> h_189
I1017 23:47:58.907508 29380 net.cpp:122] Setting up lstm1_unit_189
I1017 23:47:58.907526 29380 net.cpp:129] Top shape: 1 150 512 (76800)
I1017 23:47:58.907531 29380 net.cpp:129] Top shape: 1 150 512 (76800)
I1017 23:47:58.907533 29380 net.cpp:137] Memory required for data: 1260000000
I1017 23:47:58.907537 29380 layer_factory.hpp:77] Creating layer h_189_lstm1_unit_189_1_split
I1017 23:47:58.907546 29380 net.cpp:84] Creating Layer h_189_lstm1_unit_189_1_split
I1017 23:47:58.907552 29380 net.cpp:406] h_189_lstm1_unit_189_1_split <- h_189
I1017 23:47:58.907557 29380 net.cpp:380] h_189_lstm1_unit_189_1_split -> h_189_lstm1_unit_189_1_split_0
I1017 23:47:58.907565 29380 net.cpp:380] h_189_lstm1_unit_189_1_split -> h_189_lstm1_unit_189_1_split_1
I1017 23:47:58.907600 29380 net.cpp:122] Setting up h_189_lstm1_unit_189_1_split
I1017 23:47:58.907618 29380 net.cpp:129] Top shape: 1 150 512 (76800)
I1017 23:47:58.907622 29380 net.cpp:129] Top shape: 1 150 512 (76800)
I1017 23:47:58.907625 29380 net.cpp:137] Memory required for data: 1260614400
I1017 23:47:58.907629 29380 layer_factory.hpp:77] Creating layer lstm1_h_conted_189
I1017 23:47:58.907640 29380 net.cpp:84] Creating Layer lstm1_h_conted_189
I1017 23:47:58.907645 29380 net.cpp:406] lstm1_h_conted_189 <- h_189_lstm1_unit_189_1_split_0
I1017 23:47:58.907652 29380 net.cpp:406] lstm1_h_conted_189 <- cont_190_lstm1_cont_slice_189_split_0
I1017 23:47:58.907660 29380 net.cpp:380] lstm1_h_conted_189 -> h_conted_189
I1017 23:47:58.907762 29380 net.cpp:122] Setting up lstm1_h_conted_189
I1017 23:47:58.907771 29380 net.cpp:129] Top shape: 1 150 512 (76800)
I1017 23:47:58.907774 29380 net.cpp:137] Memory required for data: 1260921600
I1017 23:47:58.907778 29380 layer_factory.hpp:77] Creating layer lstm1_transform_190
I1017 23:47:58.907791 29380 net.cpp:84] Creating Layer lstm1_transform_190
I1017 23:47:58.907797 29380 net.cpp:406] lstm1_transform_190 <- h_conted_189
I1017 23:47:58.907804 29380 net.cpp:380] lstm1_transform_190 -> W_hc_h_189
I1017 23:47:58.919088 29380 net.cpp:122] Setting up lstm1_transform_190
I1017 23:47:58.919107 29380 net.cpp:129] Top shape: 1 150 2048 (307200)
I1017 23:47:58.919112 29380 net.cpp:137] Memory required for data: 1262150400
I1017 23:47:58.919118 29380 net.cpp:465] Sharing parameters 'W_hc' owned by layer 'lstm1_transform_1', param index 0
I1017 23:47:58.919123 29380 layer_factory.hpp:77] Creating layer lstm1_gate_input_190
I1017 23:47:58.919132 29380 net.cpp:84] Creating Layer lstm1_gate_input_190
I1017 23:47:58.919138 29380 net.cpp:406] lstm1_gate_input_190 <- W_hc_h_189
I1017 23:47:58.919145 29380 net.cpp:406] lstm1_gate_input_190 <- W_xc_x_190
I1017 23:47:58.919153 29380 net.cpp:380] lstm1_gate_input_190 -> gate_input_190
I1017 23:47:58.919188 29380 net.cpp:122] Setting up lstm1_gate_input_190
I1017 23:47:58.919195 29380 net.cpp:129] Top shape: 1 150 2048 (307200)
I1017 23:47:58.919199 29380 net.cpp:137] Memory required for data: 1263379200
I1017 23:47:58.919203 29380 layer_factory.hpp:77] Creating layer lstm1_unit_190
I1017 23:47:58.919209 29380 net.cpp:84] Creating Layer lstm1_unit_190
I1017 23:47:58.919215 29380 net.cpp:406] lstm1_unit_190 <- c_189
I1017 23:47:58.919221 29380 net.cpp:406] lstm1_unit_190 <- gate_input_190
I1017 23:47:58.919229 29380 net.cpp:406] lstm1_unit_190 <- cont_190_lstm1_cont_slice_189_split_1
I1017 23:47:58.919236 29380 net.cpp:380] lstm1_unit_190 -> c_190
I1017 23:47:58.919245 29380 net.cpp:380] lstm1_unit_190 -> h_190
I1017 23:47:58.919301 29380 net.cpp:122] Setting up lstm1_unit_190
I1017 23:47:58.919311 29380 net.cpp:129] Top shape: 1 150 512 (76800)
I1017 23:47:58.919315 29380 net.cpp:129] Top shape: 1 150 512 (76800)
I1017 23:47:58.919319 29380 net.cpp:137] Memory required for data: 1263993600
I1017 23:47:58.919323 29380 layer_factory.hpp:77] Creating layer h_190_lstm1_unit_190_1_split
I1017 23:47:58.919330 29380 net.cpp:84] Creating Layer h_190_lstm1_unit_190_1_split
I1017 23:47:58.919335 29380 net.cpp:406] h_190_lstm1_unit_190_1_split <- h_190
I1017 23:47:58.919344 29380 net.cpp:380] h_190_lstm1_unit_190_1_split -> h_190_lstm1_unit_190_1_split_0
I1017 23:47:58.919353 29380 net.cpp:380] h_190_lstm1_unit_190_1_split -> h_190_lstm1_unit_190_1_split_1
I1017 23:47:58.919390 29380 net.cpp:122] Setting up h_190_lstm1_unit_190_1_split
I1017 23:47:58.919399 29380 net.cpp:129] Top shape: 1 150 512 (76800)
I1017 23:47:58.919404 29380 net.cpp:129] Top shape: 1 150 512 (76800)
I1017 23:47:58.919407 29380 net.cpp:137] Memory required for data: 1264608000
I1017 23:47:58.919411 29380 layer_factory.hpp:77] Creating layer lstm1_h_conted_190
I1017 23:47:58.919417 29380 net.cpp:84] Creating Layer lstm1_h_conted_190
I1017 23:47:58.919423 29380 net.cpp:406] lstm1_h_conted_190 <- h_190_lstm1_unit_190_1_split_0
I1017 23:47:58.919430 29380 net.cpp:406] lstm1_h_conted_190 <- cont_191_lstm1_cont_slice_190_split_0
I1017 23:47:58.919440 29380 net.cpp:380] lstm1_h_conted_190 -> h_conted_190
I1017 23:47:58.919531 29380 net.cpp:122] Setting up lstm1_h_conted_190
I1017 23:47:58.919540 29380 net.cpp:129] Top shape: 1 150 512 (76800)
I1017 23:47:58.919544 29380 net.cpp:137] Memory required for data: 1264915200
I1017 23:47:58.919548 29380 layer_factory.hpp:77] Creating layer lstm1_transform_191
I1017 23:47:58.919559 29380 net.cpp:84] Creating Layer lstm1_transform_191
I1017 23:47:58.919564 29380 net.cpp:406] lstm1_transform_191 <- h_conted_190
I1017 23:47:58.919574 29380 net.cpp:380] lstm1_transform_191 -> W_hc_h_190
I1017 23:47:58.939020 29380 net.cpp:122] Setting up lstm1_transform_191
I1017 23:47:58.939043 29380 net.cpp:129] Top shape: 1 150 2048 (307200)
I1017 23:47:58.939049 29380 net.cpp:137] Memory required for data: 1266144000
I1017 23:47:58.939056 29380 net.cpp:465] Sharing parameters 'W_hc' owned by layer 'lstm1_transform_1', param index 0
I1017 23:47:58.939062 29380 layer_factory.hpp:77] Creating layer lstm1_gate_input_191
I1017 23:47:58.939075 29380 net.cpp:84] Creating Layer lstm1_gate_input_191
I1017 23:47:58.939085 29380 net.cpp:406] lstm1_gate_input_191 <- W_hc_h_190
I1017 23:47:58.939093 29380 net.cpp:406] lstm1_gate_input_191 <- W_xc_x_191
I1017 23:47:58.939103 29380 net.cpp:380] lstm1_gate_input_191 -> gate_input_191
I1017 23:47:58.939146 29380 net.cpp:122] Setting up lstm1_gate_input_191
I1017 23:47:58.939152 29380 net.cpp:129] Top shape: 1 150 2048 (307200)
I1017 23:47:58.939155 29380 net.cpp:137] Memory required for data: 1267372800
I1017 23:47:58.939162 29380 layer_factory.hpp:77] Creating layer lstm1_unit_191
I1017 23:47:58.939170 29380 net.cpp:84] Creating Layer lstm1_unit_191
I1017 23:47:58.939177 29380 net.cpp:406] lstm1_unit_191 <- c_190
I1017 23:47:58.939184 29380 net.cpp:406] lstm1_unit_191 <- gate_input_191
I1017 23:47:58.939191 29380 net.cpp:406] lstm1_unit_191 <- cont_191_lstm1_cont_slice_190_split_1
I1017 23:47:58.939198 29380 net.cpp:380] lstm1_unit_191 -> c_191
I1017 23:47:58.939208 29380 net.cpp:380] lstm1_unit_191 -> h_191
I1017 23:47:58.939502 29380 net.cpp:122] Setting up lstm1_unit_191
I1017 23:47:58.939734 29380 net.cpp:129] Top shape: 1 150 512 (76800)
I1017 23:47:58.939818 29380 net.cpp:129] Top shape: 1 150 512 (76800)
I1017 23:47:58.939847 29380 net.cpp:137] Memory required for data: 1267987200
I1017 23:47:58.939914 29380 layer_factory.hpp:77] Creating layer h_191_lstm1_unit_191_1_split
I1017 23:47:58.940017 29380 net.cpp:84] Creating Layer h_191_lstm1_unit_191_1_split
I1017 23:47:58.940058 29380 net.cpp:406] h_191_lstm1_unit_191_1_split <- h_191
I1017 23:47:58.940068 29380 net.cpp:380] h_191_lstm1_unit_191_1_split -> h_191_lstm1_unit_191_1_split_0
I1017 23:47:58.940110 29380 net.cpp:380] h_191_lstm1_unit_191_1_split -> h_191_lstm1_unit_191_1_split_1
I1017 23:47:58.940631 29380 net.cpp:122] Setting up h_191_lstm1_unit_191_1_split
I1017 23:47:58.940640 29380 net.cpp:129] Top shape: 1 150 512 (76800)
I1017 23:47:58.940645 29380 net.cpp:129] Top shape: 1 150 512 (76800)
I1017 23:47:58.940649 29380 net.cpp:137] Memory required for data: 1268601600
I1017 23:47:58.940654 29380 layer_factory.hpp:77] Creating layer lstm1_h_conted_191
I1017 23:47:58.940665 29380 net.cpp:84] Creating Layer lstm1_h_conted_191
I1017 23:47:58.940670 29380 net.cpp:406] lstm1_h_conted_191 <- h_191_lstm1_unit_191_1_split_0
I1017 23:47:58.940677 29380 net.cpp:406] lstm1_h_conted_191 <- cont_192_lstm1_cont_slice_191_split_0
I1017 23:47:58.940686 29380 net.cpp:380] lstm1_h_conted_191 -> h_conted_191
I1017 23:47:58.940798 29380 net.cpp:122] Setting up lstm1_h_conted_191
I1017 23:47:58.940807 29380 net.cpp:129] Top shape: 1 150 512 (76800)
I1017 23:47:58.940811 29380 net.cpp:137] Memory required for data: 1268908800
I1017 23:47:58.940816 29380 layer_factory.hpp:77] Creating layer lstm1_transform_192
I1017 23:47:58.940829 29380 net.cpp:84] Creating Layer lstm1_transform_192
I1017 23:47:58.940834 29380 net.cpp:406] lstm1_transform_192 <- h_conted_191
I1017 23:47:58.940948 29380 net.cpp:380] lstm1_transform_192 -> W_hc_h_191
I1017 23:47:58.957540 29380 net.cpp:122] Setting up lstm1_transform_192
I1017 23:47:58.957554 29380 net.cpp:129] Top shape: 1 150 2048 (307200)
I1017 23:47:58.957558 29380 net.cpp:137] Memory required for data: 1270137600
I1017 23:47:58.957563 29380 net.cpp:465] Sharing parameters 'W_hc' owned by layer 'lstm1_transform_1', param index 0
I1017 23:47:58.957568 29380 layer_factory.hpp:77] Creating layer lstm1_gate_input_192
I1017 23:47:58.957592 29380 net.cpp:84] Creating Layer lstm1_gate_input_192
I1017 23:47:58.957597 29380 net.cpp:406] lstm1_gate_input_192 <- W_hc_h_191
I1017 23:47:58.957603 29380 net.cpp:406] lstm1_gate_input_192 <- W_xc_x_192
I1017 23:47:58.957610 29380 net.cpp:380] lstm1_gate_input_192 -> gate_input_192
I1017 23:47:58.957639 29380 net.cpp:122] Setting up lstm1_gate_input_192
I1017 23:47:58.957646 29380 net.cpp:129] Top shape: 1 150 2048 (307200)
I1017 23:47:58.957649 29380 net.cpp:137] Memory required for data: 1271366400
I1017 23:47:58.957653 29380 layer_factory.hpp:77] Creating layer lstm1_unit_192
I1017 23:47:58.957659 29380 net.cpp:84] Creating Layer lstm1_unit_192
I1017 23:47:58.957664 29380 net.cpp:406] lstm1_unit_192 <- c_191
I1017 23:47:58.957670 29380 net.cpp:406] lstm1_unit_192 <- gate_input_192
I1017 23:47:58.957676 29380 net.cpp:406] lstm1_unit_192 <- cont_192_lstm1_cont_slice_191_split_1
I1017 23:47:58.957684 29380 net.cpp:380] lstm1_unit_192 -> c_192
I1017 23:47:58.957692 29380 net.cpp:380] lstm1_unit_192 -> h_192
I1017 23:47:58.957756 29380 net.cpp:122] Setting up lstm1_unit_192
I1017 23:47:58.957762 29380 net.cpp:129] Top shape: 1 150 512 (76800)
I1017 23:47:58.957767 29380 net.cpp:129] Top shape: 1 150 512 (76800)
I1017 23:47:58.957772 29380 net.cpp:137] Memory required for data: 1271980800
I1017 23:47:58.957775 29380 layer_factory.hpp:77] Creating layer h_192_lstm1_unit_192_1_split
I1017 23:47:58.957782 29380 net.cpp:84] Creating Layer h_192_lstm1_unit_192_1_split
I1017 23:47:58.957787 29380 net.cpp:406] h_192_lstm1_unit_192_1_split <- h_192
I1017 23:47:58.957792 29380 net.cpp:380] h_192_lstm1_unit_192_1_split -> h_192_lstm1_unit_192_1_split_0
I1017 23:47:58.957800 29380 net.cpp:380] h_192_lstm1_unit_192_1_split -> h_192_lstm1_unit_192_1_split_1
I1017 23:47:58.957837 29380 net.cpp:122] Setting up h_192_lstm1_unit_192_1_split
I1017 23:47:58.957844 29380 net.cpp:129] Top shape: 1 150 512 (76800)
I1017 23:47:58.957847 29380 net.cpp:129] Top shape: 1 150 512 (76800)
I1017 23:47:58.957851 29380 net.cpp:137] Memory required for data: 1272595200
I1017 23:47:58.957855 29380 layer_factory.hpp:77] Creating layer lstm1_h_conted_192
I1017 23:47:58.957867 29380 net.cpp:84] Creating Layer lstm1_h_conted_192
I1017 23:47:58.957873 29380 net.cpp:406] lstm1_h_conted_192 <- h_192_lstm1_unit_192_1_split_0
I1017 23:47:58.957880 29380 net.cpp:406] lstm1_h_conted_192 <- cont_193_lstm1_cont_slice_192_split_0
I1017 23:47:58.957887 29380 net.cpp:380] lstm1_h_conted_192 -> h_conted_192
I1017 23:47:58.957967 29380 net.cpp:122] Setting up lstm1_h_conted_192
I1017 23:47:58.957976 29380 net.cpp:129] Top shape: 1 150 512 (76800)
I1017 23:47:58.957980 29380 net.cpp:137] Memory required for data: 1272902400
I1017 23:47:58.957995 29380 layer_factory.hpp:77] Creating layer lstm1_transform_193
I1017 23:47:58.958004 29380 net.cpp:84] Creating Layer lstm1_transform_193
I1017 23:47:58.958009 29380 net.cpp:406] lstm1_transform_193 <- h_conted_192
I1017 23:47:58.958017 29380 net.cpp:380] lstm1_transform_193 -> W_hc_h_192
I1017 23:47:58.969404 29380 net.cpp:122] Setting up lstm1_transform_193
I1017 23:47:58.969419 29380 net.cpp:129] Top shape: 1 150 2048 (307200)
I1017 23:47:58.969424 29380 net.cpp:137] Memory required for data: 1274131200
I1017 23:47:58.969429 29380 net.cpp:465] Sharing parameters 'W_hc' owned by layer 'lstm1_transform_1', param index 0
I1017 23:47:58.969434 29380 layer_factory.hpp:77] Creating layer lstm1_gate_input_193
I1017 23:47:58.969444 29380 net.cpp:84] Creating Layer lstm1_gate_input_193
I1017 23:47:58.969449 29380 net.cpp:406] lstm1_gate_input_193 <- W_hc_h_192
I1017 23:47:58.969455 29380 net.cpp:406] lstm1_gate_input_193 <- W_xc_x_193
I1017 23:47:58.969465 29380 net.cpp:380] lstm1_gate_input_193 -> gate_input_193
I1017 23:47:58.969506 29380 net.cpp:122] Setting up lstm1_gate_input_193
I1017 23:47:58.969512 29380 net.cpp:129] Top shape: 1 150 2048 (307200)
I1017 23:47:58.969516 29380 net.cpp:137] Memory required for data: 1275360000
I1017 23:47:58.969521 29380 layer_factory.hpp:77] Creating layer lstm1_unit_193
I1017 23:47:58.969529 29380 net.cpp:84] Creating Layer lstm1_unit_193
I1017 23:47:58.969534 29380 net.cpp:406] lstm1_unit_193 <- c_192
I1017 23:47:58.969542 29380 net.cpp:406] lstm1_unit_193 <- gate_input_193
I1017 23:47:58.969547 29380 net.cpp:406] lstm1_unit_193 <- cont_193_lstm1_cont_slice_192_split_1
I1017 23:47:58.969555 29380 net.cpp:380] lstm1_unit_193 -> c_193
I1017 23:47:58.969564 29380 net.cpp:380] lstm1_unit_193 -> h_193
I1017 23:47:58.969612 29380 net.cpp:122] Setting up lstm1_unit_193
I1017 23:47:58.969630 29380 net.cpp:129] Top shape: 1 150 512 (76800)
I1017 23:47:58.969635 29380 net.cpp:129] Top shape: 1 150 512 (76800)
I1017 23:47:58.969638 29380 net.cpp:137] Memory required for data: 1275974400
I1017 23:47:58.969642 29380 layer_factory.hpp:77] Creating layer h_193_lstm1_unit_193_1_split
I1017 23:47:58.969647 29380 net.cpp:84] Creating Layer h_193_lstm1_unit_193_1_split
I1017 23:47:58.969653 29380 net.cpp:406] h_193_lstm1_unit_193_1_split <- h_193
I1017 23:47:58.969660 29380 net.cpp:380] h_193_lstm1_unit_193_1_split -> h_193_lstm1_unit_193_1_split_0
I1017 23:47:58.969667 29380 net.cpp:380] h_193_lstm1_unit_193_1_split -> h_193_lstm1_unit_193_1_split_1
I1017 23:47:58.969703 29380 net.cpp:122] Setting up h_193_lstm1_unit_193_1_split
I1017 23:47:58.969710 29380 net.cpp:129] Top shape: 1 150 512 (76800)
I1017 23:47:58.969714 29380 net.cpp:129] Top shape: 1 150 512 (76800)
I1017 23:47:58.969718 29380 net.cpp:137] Memory required for data: 1276588800
I1017 23:47:58.969722 29380 layer_factory.hpp:77] Creating layer lstm1_h_conted_193
I1017 23:47:58.969729 29380 net.cpp:84] Creating Layer lstm1_h_conted_193
I1017 23:47:58.969734 29380 net.cpp:406] lstm1_h_conted_193 <- h_193_lstm1_unit_193_1_split_0
I1017 23:47:58.969741 29380 net.cpp:406] lstm1_h_conted_193 <- cont_194_lstm1_cont_slice_193_split_0
I1017 23:47:58.969750 29380 net.cpp:380] lstm1_h_conted_193 -> h_conted_193
I1017 23:47:58.969828 29380 net.cpp:122] Setting up lstm1_h_conted_193
I1017 23:47:58.969838 29380 net.cpp:129] Top shape: 1 150 512 (76800)
I1017 23:47:58.969842 29380 net.cpp:137] Memory required for data: 1276896000
I1017 23:47:58.969846 29380 layer_factory.hpp:77] Creating layer lstm1_transform_194
I1017 23:47:58.969854 29380 net.cpp:84] Creating Layer lstm1_transform_194
I1017 23:47:58.969859 29380 net.cpp:406] lstm1_transform_194 <- h_conted_193
I1017 23:47:58.969868 29380 net.cpp:380] lstm1_transform_194 -> W_hc_h_193
I1017 23:47:58.981184 29380 net.cpp:122] Setting up lstm1_transform_194
I1017 23:47:58.981210 29380 net.cpp:129] Top shape: 1 150 2048 (307200)
I1017 23:47:58.981215 29380 net.cpp:137] Memory required for data: 1278124800
I1017 23:47:58.981220 29380 net.cpp:465] Sharing parameters 'W_hc' owned by layer 'lstm1_transform_1', param index 0
I1017 23:47:58.981225 29380 layer_factory.hpp:77] Creating layer lstm1_gate_input_194
I1017 23:47:58.981233 29380 net.cpp:84] Creating Layer lstm1_gate_input_194
I1017 23:47:58.981238 29380 net.cpp:406] lstm1_gate_input_194 <- W_hc_h_193
I1017 23:47:58.981245 29380 net.cpp:406] lstm1_gate_input_194 <- W_xc_x_194
I1017 23:47:58.981256 29380 net.cpp:380] lstm1_gate_input_194 -> gate_input_194
I1017 23:47:58.981284 29380 net.cpp:122] Setting up lstm1_gate_input_194
I1017 23:47:58.981292 29380 net.cpp:129] Top shape: 1 150 2048 (307200)
I1017 23:47:58.981295 29380 net.cpp:137] Memory required for data: 1279353600
I1017 23:47:58.981302 29380 layer_factory.hpp:77] Creating layer lstm1_unit_194
I1017 23:47:58.981308 29380 net.cpp:84] Creating Layer lstm1_unit_194
I1017 23:47:58.981314 29380 net.cpp:406] lstm1_unit_194 <- c_193
I1017 23:47:58.981320 29380 net.cpp:406] lstm1_unit_194 <- gate_input_194
I1017 23:47:58.981326 29380 net.cpp:406] lstm1_unit_194 <- cont_194_lstm1_cont_slice_193_split_1
I1017 23:47:58.981333 29380 net.cpp:380] lstm1_unit_194 -> c_194
I1017 23:47:58.981341 29380 net.cpp:380] lstm1_unit_194 -> h_194
I1017 23:47:58.981395 29380 net.cpp:122] Setting up lstm1_unit_194
I1017 23:47:58.981401 29380 net.cpp:129] Top shape: 1 150 512 (76800)
I1017 23:47:58.981405 29380 net.cpp:129] Top shape: 1 150 512 (76800)
I1017 23:47:58.981410 29380 net.cpp:137] Memory required for data: 1279968000
I1017 23:47:58.981415 29380 layer_factory.hpp:77] Creating layer h_194_lstm1_unit_194_1_split
I1017 23:47:58.981420 29380 net.cpp:84] Creating Layer h_194_lstm1_unit_194_1_split
I1017 23:47:58.981425 29380 net.cpp:406] h_194_lstm1_unit_194_1_split <- h_194
I1017 23:47:58.981431 29380 net.cpp:380] h_194_lstm1_unit_194_1_split -> h_194_lstm1_unit_194_1_split_0
I1017 23:47:58.981438 29380 net.cpp:380] h_194_lstm1_unit_194_1_split -> h_194_lstm1_unit_194_1_split_1
I1017 23:47:58.981478 29380 net.cpp:122] Setting up h_194_lstm1_unit_194_1_split
I1017 23:47:58.981485 29380 net.cpp:129] Top shape: 1 150 512 (76800)
I1017 23:47:58.981490 29380 net.cpp:129] Top shape: 1 150 512 (76800)
I1017 23:47:58.981494 29380 net.cpp:137] Memory required for data: 1280582400
I1017 23:47:58.981498 29380 layer_factory.hpp:77] Creating layer lstm1_h_conted_194
I1017 23:47:58.981506 29380 net.cpp:84] Creating Layer lstm1_h_conted_194
I1017 23:47:58.981513 29380 net.cpp:406] lstm1_h_conted_194 <- h_194_lstm1_unit_194_1_split_0
I1017 23:47:58.981518 29380 net.cpp:406] lstm1_h_conted_194 <- cont_195_lstm1_cont_slice_194_split_0
I1017 23:47:58.981526 29380 net.cpp:380] lstm1_h_conted_194 -> h_conted_194
I1017 23:47:58.981606 29380 net.cpp:122] Setting up lstm1_h_conted_194
I1017 23:47:58.981627 29380 net.cpp:129] Top shape: 1 150 512 (76800)
I1017 23:47:58.981631 29380 net.cpp:137] Memory required for data: 1280889600
I1017 23:47:58.981637 29380 layer_factory.hpp:77] Creating layer lstm1_transform_195
I1017 23:47:58.981644 29380 net.cpp:84] Creating Layer lstm1_transform_195
I1017 23:47:58.981650 29380 net.cpp:406] lstm1_transform_195 <- h_conted_194
I1017 23:47:58.981659 29380 net.cpp:380] lstm1_transform_195 -> W_hc_h_194
I1017 23:47:58.992481 29380 net.cpp:122] Setting up lstm1_transform_195
I1017 23:47:58.992496 29380 net.cpp:129] Top shape: 1 150 2048 (307200)
I1017 23:47:58.992511 29380 net.cpp:137] Memory required for data: 1282118400
I1017 23:47:58.992516 29380 net.cpp:465] Sharing parameters 'W_hc' owned by layer 'lstm1_transform_1', param index 0
I1017 23:47:58.992521 29380 layer_factory.hpp:77] Creating layer lstm1_gate_input_195
I1017 23:47:58.992530 29380 net.cpp:84] Creating Layer lstm1_gate_input_195
I1017 23:47:58.992537 29380 net.cpp:406] lstm1_gate_input_195 <- W_hc_h_194
I1017 23:47:58.992542 29380 net.cpp:406] lstm1_gate_input_195 <- W_xc_x_195
I1017 23:47:58.992549 29380 net.cpp:380] lstm1_gate_input_195 -> gate_input_195
I1017 23:47:58.992594 29380 net.cpp:122] Setting up lstm1_gate_input_195
I1017 23:47:58.992600 29380 net.cpp:129] Top shape: 1 150 2048 (307200)
I1017 23:47:58.992604 29380 net.cpp:137] Memory required for data: 1283347200
I1017 23:47:58.992607 29380 layer_factory.hpp:77] Creating layer lstm1_unit_195
I1017 23:47:58.992614 29380 net.cpp:84] Creating Layer lstm1_unit_195
I1017 23:47:58.992619 29380 net.cpp:406] lstm1_unit_195 <- c_194
I1017 23:47:58.992625 29380 net.cpp:406] lstm1_unit_195 <- gate_input_195
I1017 23:47:58.992631 29380 net.cpp:406] lstm1_unit_195 <- cont_195_lstm1_cont_slice_194_split_1
I1017 23:47:58.992637 29380 net.cpp:380] lstm1_unit_195 -> c_195
I1017 23:47:58.992645 29380 net.cpp:380] lstm1_unit_195 -> h_195
I1017 23:47:58.992694 29380 net.cpp:122] Setting up lstm1_unit_195
I1017 23:47:58.992700 29380 net.cpp:129] Top shape: 1 150 512 (76800)
I1017 23:47:58.992705 29380 net.cpp:129] Top shape: 1 150 512 (76800)
I1017 23:47:58.992708 29380 net.cpp:137] Memory required for data: 1283961600
I1017 23:47:58.992712 29380 layer_factory.hpp:77] Creating layer h_195_lstm1_unit_195_1_split
I1017 23:47:58.992720 29380 net.cpp:84] Creating Layer h_195_lstm1_unit_195_1_split
I1017 23:47:58.992725 29380 net.cpp:406] h_195_lstm1_unit_195_1_split <- h_195
I1017 23:47:58.992732 29380 net.cpp:380] h_195_lstm1_unit_195_1_split -> h_195_lstm1_unit_195_1_split_0
I1017 23:47:58.992739 29380 net.cpp:380] h_195_lstm1_unit_195_1_split -> h_195_lstm1_unit_195_1_split_1
I1017 23:47:58.992774 29380 net.cpp:122] Setting up h_195_lstm1_unit_195_1_split
I1017 23:47:58.992780 29380 net.cpp:129] Top shape: 1 150 512 (76800)
I1017 23:47:58.992784 29380 net.cpp:129] Top shape: 1 150 512 (76800)
I1017 23:47:58.992789 29380 net.cpp:137] Memory required for data: 1284576000
I1017 23:47:58.992792 29380 layer_factory.hpp:77] Creating layer lstm1_h_conted_195
I1017 23:47:58.992802 29380 net.cpp:84] Creating Layer lstm1_h_conted_195
I1017 23:47:58.992807 29380 net.cpp:406] lstm1_h_conted_195 <- h_195_lstm1_unit_195_1_split_0
I1017 23:47:58.992815 29380 net.cpp:406] lstm1_h_conted_195 <- cont_196_lstm1_cont_slice_195_split_0
I1017 23:47:58.992821 29380 net.cpp:380] lstm1_h_conted_195 -> h_conted_195
I1017 23:47:58.992909 29380 net.cpp:122] Setting up lstm1_h_conted_195
I1017 23:47:58.992920 29380 net.cpp:129] Top shape: 1 150 512 (76800)
I1017 23:47:58.992924 29380 net.cpp:137] Memory required for data: 1284883200
I1017 23:47:58.992928 29380 layer_factory.hpp:77] Creating layer lstm1_transform_196
I1017 23:47:58.992935 29380 net.cpp:84] Creating Layer lstm1_transform_196
I1017 23:47:58.992941 29380 net.cpp:406] lstm1_transform_196 <- h_conted_195
I1017 23:47:58.992949 29380 net.cpp:380] lstm1_transform_196 -> W_hc_h_195
I1017 23:47:59.003854 29380 net.cpp:122] Setting up lstm1_transform_196
I1017 23:47:59.003868 29380 net.cpp:129] Top shape: 1 150 2048 (307200)
I1017 23:47:59.003883 29380 net.cpp:137] Memory required for data: 1286112000
I1017 23:47:59.003888 29380 net.cpp:465] Sharing parameters 'W_hc' owned by layer 'lstm1_transform_1', param index 0
I1017 23:47:59.003893 29380 layer_factory.hpp:77] Creating layer lstm1_gate_input_196
I1017 23:47:59.003902 29380 net.cpp:84] Creating Layer lstm1_gate_input_196
I1017 23:47:59.003907 29380 net.cpp:406] lstm1_gate_input_196 <- W_hc_h_195
I1017 23:47:59.003914 29380 net.cpp:406] lstm1_gate_input_196 <- W_xc_x_196
I1017 23:47:59.003921 29380 net.cpp:380] lstm1_gate_input_196 -> gate_input_196
I1017 23:47:59.003963 29380 net.cpp:122] Setting up lstm1_gate_input_196
I1017 23:47:59.003970 29380 net.cpp:129] Top shape: 1 150 2048 (307200)
I1017 23:47:59.003973 29380 net.cpp:137] Memory required for data: 1287340800
I1017 23:47:59.003978 29380 layer_factory.hpp:77] Creating layer lstm1_unit_196
I1017 23:47:59.003985 29380 net.cpp:84] Creating Layer lstm1_unit_196
I1017 23:47:59.003990 29380 net.cpp:406] lstm1_unit_196 <- c_195
I1017 23:47:59.003996 29380 net.cpp:406] lstm1_unit_196 <- gate_input_196
I1017 23:47:59.004003 29380 net.cpp:406] lstm1_unit_196 <- cont_196_lstm1_cont_slice_195_split_1
I1017 23:47:59.004007 29380 net.cpp:380] lstm1_unit_196 -> c_196
I1017 23:47:59.004015 29380 net.cpp:380] lstm1_unit_196 -> h_196
I1017 23:47:59.004084 29380 net.cpp:122] Setting up lstm1_unit_196
I1017 23:47:59.004092 29380 net.cpp:129] Top shape: 1 150 512 (76800)
I1017 23:47:59.004096 29380 net.cpp:129] Top shape: 1 150 512 (76800)
I1017 23:47:59.004101 29380 net.cpp:137] Memory required for data: 1287955200
I1017 23:47:59.004104 29380 layer_factory.hpp:77] Creating layer lstm1_
I1017 23:47:59.004114 29380 net.cpp:84] Creating Layer lstm1_
I1017 23:47:59.004119 29380 net.cpp:406] lstm1_ <- c_196
I1017 23:47:59.004127 29380 net.cpp:380] lstm1_ -> c_T
I1017 23:47:59.004151 29380 net.cpp:122] Setting up lstm1_
I1017 23:47:59.004158 29380 net.cpp:129] Top shape: 1 150 512 (76800)
I1017 23:47:59.004161 29380 net.cpp:137] Memory required for data: 1288262400
I1017 23:47:59.004165 29380 layer_factory.hpp:77] Creating layer lstm1_h_concat
I1017 23:47:59.004199 29380 net.cpp:84] Creating Layer lstm1_h_concat
I1017 23:47:59.004204 29380 net.cpp:406] lstm1_h_concat <- h_1_lstm1_unit_1_1_split_1
I1017 23:47:59.004214 29380 net.cpp:406] lstm1_h_concat <- h_2_lstm1_unit_2_1_split_1
…
I1017 23:47:59.050109 29380 net.cpp:200] lstm1_ does not need backward computation.
I1017 23:47:59.050112 29380 net.cpp:242] This network produces output c_T
I1017 23:47:59.050120 29380 net.cpp:242] This network produces output h_pseudoloss
I1017 23:47:59.204824 29380 net.cpp:255] Network initialization done.
I1017 23:47:59.208372 29380 recurrent_layer.cpp:150] Adding parameter 0: W_xc
I1017 23:47:59.208384 29380 recurrent_layer.cpp:150] Adding parameter 1: b_c
I1017 23:47:59.208389 29380 recurrent_layer.cpp:150] Adding parameter 2: W_hc
I1017 23:47:59.220482 29380 net.cpp:122] Setting up lstm1
I1017 23:47:59.220546 29380 net.cpp:129] Top shape: 196 150 512 (15052800)
I1017 23:47:59.220551 29380 net.cpp:137] Memory required for data: 17394453000
I1017 23:47:59.220567 29380 layer_factory.hpp:77] Creating layer lstm1-drop
I1017 23:47:59.220582 29380 net.cpp:84] Creating Layer lstm1-drop
I1017 23:47:59.220592 29380 net.cpp:406] lstm1-drop <- lstm1
I1017 23:47:59.220604 29380 net.cpp:380] lstm1-drop -> lstm1-drop
I1017 23:47:59.220664 29380 net.cpp:122] Setting up lstm1-drop
I1017 23:47:59.220674 29380 net.cpp:129] Top shape: 196 150 512 (15052800)
I1017 23:47:59.220677 29380 net.cpp:137] Memory required for data: 17454664200
I1017 23:47:59.220681 29380 layer_factory.hpp:77] Creating layer fc-final
I1017 23:47:59.220705 29380 net.cpp:84] Creating Layer fc-final
I1017 23:47:59.220711 29380 net.cpp:406] fc-final <- lstm1-drop
I1017 23:47:59.220721 29380 net.cpp:380] fc-final -> fc-final
I1017 23:47:59.221163 29380 net.cpp:122] Setting up fc-final
I1017 23:47:59.221174 29380 net.cpp:129] Top shape: 196 150 10 (294000)
I1017 23:47:59.221179 29380 net.cpp:137] Memory required for data: 17455840200
I1017 23:47:59.221185 29380 layer_factory.hpp:77] Creating layer fc-final_fc-final_0_split
I1017 23:47:59.221194 29380 net.cpp:84] Creating Layer fc-final_fc-final_0_split
I1017 23:47:59.221197 29380 net.cpp:406] fc-final_fc-final_0_split <- fc-final
I1017 23:47:59.221204 29380 net.cpp:380] fc-final_fc-final_0_split -> fc-final_fc-final_0_split_0
I1017 23:47:59.221212 29380 net.cpp:380] fc-final_fc-final_0_split -> fc-final_fc-final_0_split_1
I1017 23:47:59.221266 29380 net.cpp:122] Setting up fc-final_fc-final_0_split
I1017 23:47:59.221273 29380 net.cpp:129] Top shape: 196 150 10 (294000)
I1017 23:47:59.221278 29380 net.cpp:129] Top shape: 196 150 10 (294000)
I1017 23:47:59.221282 29380 net.cpp:137] Memory required for data: 17458192200
I1017 23:47:59.221285 29380 layer_factory.hpp:77] Creating layer loss
I1017 23:47:59.221293 29380 net.cpp:84] Creating Layer loss
I1017 23:47:59.221298 29380 net.cpp:406] loss <- fc-final_fc-final_0_split_0
I1017 23:47:59.221305 29380 net.cpp:406] loss <- reshape-label_label_tran_0_split_0
I1017 23:47:59.221312 29380 net.cpp:380] loss -> loss
…
